#loc = loc("inductor_cache/wz/cwzqsxweyc24dqwo7h62xwxtew3ra4xjbcptqfskshth76ipb6lf.py":19:0)
module {
  tt.func public @triton_poi_fused_add_convolution_mul_3(%arg0: !tt.ptr<f32> {tt.divisibility = 16 : i32} loc("inductor_cache/wz/cwzqsxweyc24dqwo7h62xwxtew3ra4xjbcptqfskshth76ipb6lf.py":19:0), %arg1: !tt.ptr<f32> {tt.divisibility = 16 : i32} loc("inductor_cache/wz/cwzqsxweyc24dqwo7h62xwxtew3ra4xjbcptqfskshth76ipb6lf.py":19:0), %arg2: !tt.ptr<f32> {tt.divisibility = 16 : i32} loc("inductor_cache/wz/cwzqsxweyc24dqwo7h62xwxtew3ra4xjbcptqfskshth76ipb6lf.py":19:0), %arg3: !tt.ptr<f32> {tt.divisibility = 16 : i32} loc("inductor_cache/wz/cwzqsxweyc24dqwo7h62xwxtew3ra4xjbcptqfskshth76ipb6lf.py":19:0), %arg4: !tt.ptr<f32> {tt.divisibility = 16 : i32} loc("inductor_cache/wz/cwzqsxweyc24dqwo7h62xwxtew3ra4xjbcptqfskshth76ipb6lf.py":19:0), %arg5: !tt.ptr<f32> {tt.divisibility = 16 : i32} loc("inductor_cache/wz/cwzqsxweyc24dqwo7h62xwxtew3ra4xjbcptqfskshth76ipb6lf.py":19:0), %arg6: !tt.ptr<f32> {tt.divisibility = 16 : i32} loc("inductor_cache/wz/cwzqsxweyc24dqwo7h62xwxtew3ra4xjbcptqfskshth76ipb6lf.py":19:0), %arg7: i32 {tt.divisibility = 16 : i32} loc("inductor_cache/wz/cwzqsxweyc24dqwo7h62xwxtew3ra4xjbcptqfskshth76ipb6lf.py":19:0)) attributes {noinline = false} {
    %cst = arith.constant dense<0.000000e+00> : tensor<128xf32> loc(#loc1)
    %cst_0 = arith.constant dense<2> : tensor<128xi32> loc(#loc1)
    %cst_1 = arith.constant dense<1> : tensor<128xi32> loc(#loc1)
    %cst_2 = arith.constant dense<4> : tensor<128xi32> loc(#loc1)
    %cst_3 = arith.constant dense<8192> : tensor<128xi32> loc(#loc1)
    %cst_4 = arith.constant dense<512> : tensor<128xi32> loc(#loc1)
    %c128_i32 = arith.constant 128 : i32 loc(#loc1)
    %0 = tt.get_program_id x : i32 loc(#loc2)
    %1 = arith.muli %0, %c128_i32 : i32 loc(#loc3)
    %2 = tt.make_range {end = 128 : i32, start = 0 : i32} : tensor<128xi32> loc(#loc4)
    %3 = tt.splat %1 : i32 -> tensor<128xi32> loc(#loc5)
    %4 = arith.addi %3, %2 : tensor<128xi32> loc(#loc5)
    %5 = arith.remsi %4, %cst_4 : tensor<128xi32> loc(#loc6)
    %6 = arith.divsi %4, %cst_3 : tensor<128xi32> loc(#loc7)
    %7 = tt.splat %arg0 : !tt.ptr<f32> -> tensor<128x!tt.ptr<f32>> loc(#loc8)
    %8 = tt.addptr %7, %4 : tensor<128x!tt.ptr<f32>>, tensor<128xi32> loc(#loc8)
    %9 = tt.load %8 : tensor<128x!tt.ptr<f32>> loc(#loc9)
    %10 = tt.splat %arg1 : !tt.ptr<f32> -> tensor<128x!tt.ptr<f32>> loc(#loc10)
    %11 = tt.addptr %10, %5 : tensor<128x!tt.ptr<f32>>, tensor<128xi32> loc(#loc10)
    %12 = tt.load %11 evictionPolicy = evict_last : tensor<128x!tt.ptr<f32>> loc(#loc11)
    %13 = arith.muli %6, %cst_2 : tensor<128xi32> loc(#loc12)
    %14 = tt.splat %arg2 : !tt.ptr<f32> -> tensor<128x!tt.ptr<f32>> loc(#loc13)
    %15 = tt.addptr %14, %13 : tensor<128x!tt.ptr<f32>>, tensor<128xi32> loc(#loc13)
    %16 = tt.load %15 evictionPolicy = evict_last : tensor<128x!tt.ptr<f32>> loc(#loc14)
    %17 = tt.splat %arg3 : !tt.ptr<f32> -> tensor<128x!tt.ptr<f32>> loc(#loc15)
    %18 = tt.addptr %17, %4 : tensor<128x!tt.ptr<f32>>, tensor<128xi32> loc(#loc15)
    %19 = tt.load %18 : tensor<128x!tt.ptr<f32>> loc(#loc16)
    %20 = tt.splat %arg4 : !tt.ptr<f32> -> tensor<128x!tt.ptr<f32>> loc(#loc17)
    %21 = tt.addptr %20, %5 : tensor<128x!tt.ptr<f32>>, tensor<128xi32> loc(#loc17)
    %22 = tt.load %21 evictionPolicy = evict_last : tensor<128x!tt.ptr<f32>> loc(#loc18)
    %23 = arith.addi %13, %cst_1 : tensor<128xi32> loc(#loc19)
    %24 = tt.addptr %14, %23 : tensor<128x!tt.ptr<f32>>, tensor<128xi32> loc(#loc20)
    %25 = tt.load %24 evictionPolicy = evict_last : tensor<128x!tt.ptr<f32>> loc(#loc21)
    %26 = tt.splat %arg5 : !tt.ptr<f32> -> tensor<128x!tt.ptr<f32>> loc(#loc22)
    %27 = tt.addptr %26, %4 : tensor<128x!tt.ptr<f32>>, tensor<128xi32> loc(#loc22)
    %28 = tt.load %27 : tensor<128x!tt.ptr<f32>> loc(#loc23)
    %29 = tt.splat %arg6 : !tt.ptr<f32> -> tensor<128x!tt.ptr<f32>> loc(#loc24)
    %30 = tt.addptr %29, %5 : tensor<128x!tt.ptr<f32>>, tensor<128xi32> loc(#loc24)
    %31 = tt.load %30 evictionPolicy = evict_last : tensor<128x!tt.ptr<f32>> loc(#loc25)
    %32 = arith.addi %13, %cst_0 : tensor<128xi32> loc(#loc26)
    %33 = tt.addptr %14, %32 : tensor<128x!tt.ptr<f32>>, tensor<128xi32> loc(#loc27)
    %34 = tt.load %33 evictionPolicy = evict_last : tensor<128x!tt.ptr<f32>> loc(#loc28)
    %35 = arith.addf %9, %12 : tensor<128xf32> loc(#loc29)
    %36 = arith.mulf %35, %16 : tensor<128xf32> loc(#loc30)
    %37 = arith.addf %36, %cst : tensor<128xf32> loc(#loc31)
    %38 = arith.addf %19, %22 : tensor<128xf32> loc(#loc32)
    %39 = arith.mulf %38, %25 : tensor<128xf32> loc(#loc33)
    %40 = arith.addf %37, %39 : tensor<128xf32> loc(#loc34)
    %41 = arith.addf %28, %31 : tensor<128xf32> loc(#loc35)
    %42 = arith.mulf %41, %34 : tensor<128xf32> loc(#loc36)
    %43 = arith.addf %40, %42 : tensor<128xf32> loc(#loc37)
    tt.store %8, %43 : tensor<128x!tt.ptr<f32>> loc(#loc38)
    tt.return loc(#loc39)
  } loc(#loc)
} loc(#loc)
#loc1 = loc(unknown)
#loc2 = loc("inductor_cache/wz/cwzqsxweyc24dqwo7h62xwxtew3ra4xjbcptqfskshth76ipb6lf.py":21:28)
#loc3 = loc("inductor_cache/wz/cwzqsxweyc24dqwo7h62xwxtew3ra4xjbcptqfskshth76ipb6lf.py":21:33)
#loc4 = loc("inductor_cache/wz/cwzqsxweyc24dqwo7h62xwxtew3ra4xjbcptqfskshth76ipb6lf.py":22:36)
#loc5 = loc("inductor_cache/wz/cwzqsxweyc24dqwo7h62xwxtew3ra4xjbcptqfskshth76ipb6lf.py":22:23)
#loc6 = loc("inductor_cache/wz/cwzqsxweyc24dqwo7h62xwxtew3ra4xjbcptqfskshth76ipb6lf.py":25:19)
#loc7 = loc("inductor_cache/wz/cwzqsxweyc24dqwo7h62xwxtew3ra4xjbcptqfskshth76ipb6lf.py":26:19)
#loc8 = loc("inductor_cache/wz/cwzqsxweyc24dqwo7h62xwxtew3ra4xjbcptqfskshth76ipb6lf.py":27:34)
#loc9 = loc("inductor_cache/wz/cwzqsxweyc24dqwo7h62xwxtew3ra4xjbcptqfskshth76ipb6lf.py":27:39)
#loc10 = loc("inductor_cache/wz/cwzqsxweyc24dqwo7h62xwxtew3ra4xjbcptqfskshth76ipb6lf.py":28:30)
#loc11 = loc("inductor_cache/wz/cwzqsxweyc24dqwo7h62xwxtew3ra4xjbcptqfskshth76ipb6lf.py":28:35)
#loc12 = loc("inductor_cache/wz/cwzqsxweyc24dqwo7h62xwxtew3ra4xjbcptqfskshth76ipb6lf.py":29:32)
#loc13 = loc("inductor_cache/wz/cwzqsxweyc24dqwo7h62xwxtew3ra4xjbcptqfskshth76ipb6lf.py":29:30)
#loc14 = loc("inductor_cache/wz/cwzqsxweyc24dqwo7h62xwxtew3ra4xjbcptqfskshth76ipb6lf.py":29:37)
#loc15 = loc("inductor_cache/wz/cwzqsxweyc24dqwo7h62xwxtew3ra4xjbcptqfskshth76ipb6lf.py":30:30)
#loc16 = loc("inductor_cache/wz/cwzqsxweyc24dqwo7h62xwxtew3ra4xjbcptqfskshth76ipb6lf.py":30:35)
#loc17 = loc("inductor_cache/wz/cwzqsxweyc24dqwo7h62xwxtew3ra4xjbcptqfskshth76ipb6lf.py":31:30)
#loc18 = loc("inductor_cache/wz/cwzqsxweyc24dqwo7h62xwxtew3ra4xjbcptqfskshth76ipb6lf.py":31:35)
#loc19 = loc("inductor_cache/wz/cwzqsxweyc24dqwo7h62xwxtew3ra4xjbcptqfskshth76ipb6lf.py":32:35)
#loc20 = loc("inductor_cache/wz/cwzqsxweyc24dqwo7h62xwxtew3ra4xjbcptqfskshth76ipb6lf.py":32:31)
#loc21 = loc("inductor_cache/wz/cwzqsxweyc24dqwo7h62xwxtew3ra4xjbcptqfskshth76ipb6lf.py":32:42)
#loc22 = loc("inductor_cache/wz/cwzqsxweyc24dqwo7h62xwxtew3ra4xjbcptqfskshth76ipb6lf.py":33:31)
#loc23 = loc("inductor_cache/wz/cwzqsxweyc24dqwo7h62xwxtew3ra4xjbcptqfskshth76ipb6lf.py":33:36)
#loc24 = loc("inductor_cache/wz/cwzqsxweyc24dqwo7h62xwxtew3ra4xjbcptqfskshth76ipb6lf.py":34:31)
#loc25 = loc("inductor_cache/wz/cwzqsxweyc24dqwo7h62xwxtew3ra4xjbcptqfskshth76ipb6lf.py":34:36)
#loc26 = loc("inductor_cache/wz/cwzqsxweyc24dqwo7h62xwxtew3ra4xjbcptqfskshth76ipb6lf.py":35:35)
#loc27 = loc("inductor_cache/wz/cwzqsxweyc24dqwo7h62xwxtew3ra4xjbcptqfskshth76ipb6lf.py":35:31)
#loc28 = loc("inductor_cache/wz/cwzqsxweyc24dqwo7h62xwxtew3ra4xjbcptqfskshth76ipb6lf.py":35:42)
#loc29 = loc("inductor_cache/wz/cwzqsxweyc24dqwo7h62xwxtew3ra4xjbcptqfskshth76ipb6lf.py":36:18)
#loc30 = loc("inductor_cache/wz/cwzqsxweyc24dqwo7h62xwxtew3ra4xjbcptqfskshth76ipb6lf.py":37:18)
#loc31 = loc("inductor_cache/wz/cwzqsxweyc24dqwo7h62xwxtew3ra4xjbcptqfskshth76ipb6lf.py":39:18)
#loc32 = loc("inductor_cache/wz/cwzqsxweyc24dqwo7h62xwxtew3ra4xjbcptqfskshth76ipb6lf.py":40:18)
#loc33 = loc("inductor_cache/wz/cwzqsxweyc24dqwo7h62xwxtew3ra4xjbcptqfskshth76ipb6lf.py":41:19)
#loc34 = loc("inductor_cache/wz/cwzqsxweyc24dqwo7h62xwxtew3ra4xjbcptqfskshth76ipb6lf.py":42:19)
#loc35 = loc("inductor_cache/wz/cwzqsxweyc24dqwo7h62xwxtew3ra4xjbcptqfskshth76ipb6lf.py":43:20)
#loc36 = loc("inductor_cache/wz/cwzqsxweyc24dqwo7h62xwxtew3ra4xjbcptqfskshth76ipb6lf.py":44:20)
#loc37 = loc("inductor_cache/wz/cwzqsxweyc24dqwo7h62xwxtew3ra4xjbcptqfskshth76ipb6lf.py":45:20)
#loc38 = loc("inductor_cache/wz/cwzqsxweyc24dqwo7h62xwxtew3ra4xjbcptqfskshth76ipb6lf.py":46:40)
#loc39 = loc("inductor_cache/wz/cwzqsxweyc24dqwo7h62xwxtew3ra4xjbcptqfskshth76ipb6lf.py":46:4)
