#loc = loc("inductor_cache/lg/clg2luhielc6fqouaem5ngls3whrium2qd54jq3jzgp2x3ultqhu.py":19:0)
module {
  tt.func public @triton_poi_fused__softmax_add_mul_rsub_4(%arg0: !tt.ptr<f32> {tt.divisibility = 16 : i32} loc("inductor_cache/lg/clg2luhielc6fqouaem5ngls3whrium2qd54jq3jzgp2x3ultqhu.py":19:0), %arg1: !tt.ptr<f32> {tt.divisibility = 16 : i32} loc("inductor_cache/lg/clg2luhielc6fqouaem5ngls3whrium2qd54jq3jzgp2x3ultqhu.py":19:0), %arg2: !tt.ptr<f32> {tt.divisibility = 16 : i32} loc("inductor_cache/lg/clg2luhielc6fqouaem5ngls3whrium2qd54jq3jzgp2x3ultqhu.py":19:0), %arg3: !tt.ptr<f32> {tt.divisibility = 16 : i32} loc("inductor_cache/lg/clg2luhielc6fqouaem5ngls3whrium2qd54jq3jzgp2x3ultqhu.py":19:0), %arg4: i32 {tt.divisibility = 16 : i32} loc("inductor_cache/lg/clg2luhielc6fqouaem5ngls3whrium2qd54jq3jzgp2x3ultqhu.py":19:0)) attributes {noinline = false} {
    %cst = arith.constant dense<-1.000000e+30> : tensor<256xf32> loc(#loc1)
    %cst_0 = arith.constant dense<1.000000e+00> : tensor<256xf32> loc(#loc1)
    %cst_1 = arith.constant dense<64> : tensor<256xi32> loc(#loc1)
    %cst_2 = arith.constant dense<4> : tensor<256xi32> loc(#loc1)
    %cst_3 = arith.constant dense<256> : tensor<256xi32> loc(#loc1)
    %c256_i32 = arith.constant 256 : i32 loc(#loc1)
    %0 = tt.get_program_id x : i32 loc(#loc2)
    %1 = arith.muli %0, %c256_i32 : i32 loc(#loc3)
    %2 = tt.make_range {end = 256 : i32, start = 0 : i32} : tensor<256xi32> loc(#loc4)
    %3 = tt.splat %1 : i32 -> tensor<256xi32> loc(#loc5)
    %4 = arith.addi %3, %2 : tensor<256xi32> loc(#loc5)
    %5 = arith.cmpi slt, %4, %cst_3 : tensor<256xi32> loc(#loc6)
    %6 = arith.remsi %4, %cst_2 : tensor<256xi32> loc(#loc7)
    %7 = arith.divsi %4, %cst_1 : tensor<256xi32> loc(#loc8)
    %8 = arith.divsi %4, %cst_2 : tensor<256xi32> loc(#loc9)
    %9 = tt.splat %arg0 : !tt.ptr<f32> -> tensor<256x!tt.ptr<f32>> loc(#loc10)
    %10 = tt.addptr %9, %4 : tensor<256x!tt.ptr<f32>>, tensor<256xi32> loc(#loc10)
    %11 = tt.load %10, %5 : tensor<256x!tt.ptr<f32>> loc(#loc11)
    %12 = arith.muli %7, %cst_2 : tensor<256xi32> loc(#loc12)
    %13 = arith.addi %6, %12 : tensor<256xi32> loc(#loc13)
    %14 = tt.splat %arg1 : !tt.ptr<f32> -> tensor<256x!tt.ptr<f32>> loc(#loc14)
    %15 = tt.addptr %14, %13 : tensor<256x!tt.ptr<f32>>, tensor<256xi32> loc(#loc14)
    %16 = tt.load %15, %5 evictionPolicy = evict_last : tensor<256x!tt.ptr<f32>> loc(#loc15)
    %17 = tt.splat %arg2 : !tt.ptr<f32> -> tensor<256x!tt.ptr<f32>> loc(#loc16)
    %18 = tt.addptr %17, %8 : tensor<256x!tt.ptr<f32>>, tensor<256xi32> loc(#loc16)
    %19 = tt.load %18, %5 evictionPolicy = evict_last : tensor<256x!tt.ptr<f32>> loc(#loc17)
    %20 = tt.splat %arg3 : !tt.ptr<f32> -> tensor<256x!tt.ptr<f32>> loc(#loc18)
    %21 = tt.addptr %20, %8 : tensor<256x!tt.ptr<f32>>, tensor<256xi32> loc(#loc18)
    %22 = tt.load %21, %5 evictionPolicy = evict_last : tensor<256x!tt.ptr<f32>> loc(#loc19)
    %23 = arith.mulf %11, %16 : tensor<256xf32> loc(#loc20)
    %24 = arith.subf %cst_0, %16 : tensor<256xf32> loc(#loc21)
    %25 = arith.mulf %24, %cst : tensor<256xf32> loc(#loc22)
    %26 = arith.addf %23, %25 : tensor<256xf32> loc(#loc23)
    %27 = arith.subf %26, %19 : tensor<256xf32> loc(#loc24)
    %28 = math.exp %27 : tensor<256xf32> loc(#loc25)
    %29 = arith.divf %28, %22 : tensor<256xf32> loc(#loc26)
    tt.store %10, %29, %5 : tensor<256x!tt.ptr<f32>> loc(#loc27)
    tt.return loc(#loc28)
  } loc(#loc)
} loc(#loc)
#loc1 = loc(unknown)
#loc2 = loc("inductor_cache/lg/clg2luhielc6fqouaem5ngls3whrium2qd54jq3jzgp2x3ultqhu.py":21:28)
#loc3 = loc("inductor_cache/lg/clg2luhielc6fqouaem5ngls3whrium2qd54jq3jzgp2x3ultqhu.py":21:33)
#loc4 = loc("inductor_cache/lg/clg2luhielc6fqouaem5ngls3whrium2qd54jq3jzgp2x3ultqhu.py":22:36)
#loc5 = loc("inductor_cache/lg/clg2luhielc6fqouaem5ngls3whrium2qd54jq3jzgp2x3ultqhu.py":22:23)
#loc6 = loc("inductor_cache/lg/clg2luhielc6fqouaem5ngls3whrium2qd54jq3jzgp2x3ultqhu.py":23:21)
#loc7 = loc("inductor_cache/lg/clg2luhielc6fqouaem5ngls3whrium2qd54jq3jzgp2x3ultqhu.py":25:19)
#loc8 = loc("inductor_cache/lg/clg2luhielc6fqouaem5ngls3whrium2qd54jq3jzgp2x3ultqhu.py":26:19)
#loc9 = loc("inductor_cache/lg/clg2luhielc6fqouaem5ngls3whrium2qd54jq3jzgp2x3ultqhu.py":27:19)
#loc10 = loc("inductor_cache/lg/clg2luhielc6fqouaem5ngls3whrium2qd54jq3jzgp2x3ultqhu.py":28:34)
#loc11 = loc("inductor_cache/lg/clg2luhielc6fqouaem5ngls3whrium2qd54jq3jzgp2x3ultqhu.py":28:39)
#loc12 = loc("inductor_cache/lg/clg2luhielc6fqouaem5ngls3whrium2qd54jq3jzgp2x3ultqhu.py":29:37)
#loc13 = loc("inductor_cache/lg/clg2luhielc6fqouaem5ngls3whrium2qd54jq3jzgp2x3ultqhu.py":29:35)
#loc14 = loc("inductor_cache/lg/clg2luhielc6fqouaem5ngls3whrium2qd54jq3jzgp2x3ultqhu.py":29:30)
#loc15 = loc("inductor_cache/lg/clg2luhielc6fqouaem5ngls3whrium2qd54jq3jzgp2x3ultqhu.py":29:42)
#loc16 = loc("inductor_cache/lg/clg2luhielc6fqouaem5ngls3whrium2qd54jq3jzgp2x3ultqhu.py":30:30)
#loc17 = loc("inductor_cache/lg/clg2luhielc6fqouaem5ngls3whrium2qd54jq3jzgp2x3ultqhu.py":30:35)
#loc18 = loc("inductor_cache/lg/clg2luhielc6fqouaem5ngls3whrium2qd54jq3jzgp2x3ultqhu.py":31:31)
#loc19 = loc("inductor_cache/lg/clg2luhielc6fqouaem5ngls3whrium2qd54jq3jzgp2x3ultqhu.py":31:36)
#loc20 = loc("inductor_cache/lg/clg2luhielc6fqouaem5ngls3whrium2qd54jq3jzgp2x3ultqhu.py":32:18)
#loc21 = loc("inductor_cache/lg/clg2luhielc6fqouaem5ngls3whrium2qd54jq3jzgp2x3ultqhu.py":34:18)
#loc22 = loc("inductor_cache/lg/clg2luhielc6fqouaem5ngls3whrium2qd54jq3jzgp2x3ultqhu.py":36:18)
#loc23 = loc("inductor_cache/lg/clg2luhielc6fqouaem5ngls3whrium2qd54jq3jzgp2x3ultqhu.py":37:18)
#loc24 = loc("inductor_cache/lg/clg2luhielc6fqouaem5ngls3whrium2qd54jq3jzgp2x3ultqhu.py":38:18)
#loc25 = loc("inductor_cache/lg/clg2luhielc6fqouaem5ngls3whrium2qd54jq3jzgp2x3ultqhu.py":39:24)
#loc26 = loc("inductor_cache/lg/clg2luhielc6fqouaem5ngls3whrium2qd54jq3jzgp2x3ultqhu.py":40:20)
#loc27 = loc("inductor_cache/lg/clg2luhielc6fqouaem5ngls3whrium2qd54jq3jzgp2x3ultqhu.py":41:40)
#loc28 = loc("inductor_cache/lg/clg2luhielc6fqouaem5ngls3whrium2qd54jq3jzgp2x3ultqhu.py":41:4)
