#loc = loc("inductor_cache/un/cunel76argx2ponhprrjtimys75d5qvlbdmygxykxajmtghrpzs7.py":19:0)
module {
  tt.func public @triton_poi_fused_cat_hardtanh_6(%arg0: !tt.ptr<f32> {tt.divisibility = 16 : i32} loc("inductor_cache/un/cunel76argx2ponhprrjtimys75d5qvlbdmygxykxajmtghrpzs7.py":19:0), %arg1: !tt.ptr<f32> {tt.divisibility = 16 : i32} loc("inductor_cache/un/cunel76argx2ponhprrjtimys75d5qvlbdmygxykxajmtghrpzs7.py":19:0), %arg2: i32 {tt.divisibility = 16 : i32} loc("inductor_cache/un/cunel76argx2ponhprrjtimys75d5qvlbdmygxykxajmtghrpzs7.py":19:0)) attributes {noinline = false} {
    %cst = arith.constant dense<6.000000e+00> : tensor<128xf32> loc(#loc1)
    %cst_0 = arith.constant dense<-64> : tensor<128xi32> loc(#loc1)
    %cst_1 = arith.constant dense<0.000000e+00> : tensor<128xf32> loc(#loc1)
    %cst_2 = arith.constant dense<1024> : tensor<128xi32> loc(#loc1)
    %cst_3 = arith.constant dense<64> : tensor<128xi64> loc(#loc1)
    %cst_4 = arith.constant dense<2048> : tensor<128xi32> loc(#loc1)
    %cst_5 = arith.constant dense<128> : tensor<128xi32> loc(#loc1)
    %cst_6 = arith.constant dense<16> : tensor<128xi32> loc(#loc1)
    %c128_i32 = arith.constant 128 : i32 loc(#loc1)
    %0 = tt.get_program_id x : i32 loc(#loc2)
    %1 = arith.muli %0, %c128_i32 : i32 loc(#loc3)
    %2 = tt.make_range {end = 128 : i32, start = 0 : i32} : tensor<128xi32> loc(#loc4)
    %3 = tt.splat %1 : i32 -> tensor<128xi32> loc(#loc5)
    %4 = arith.addi %3, %2 : tensor<128xi32> loc(#loc5)
    %5 = arith.divsi %4, %cst_6 : tensor<128xi32> loc(#loc6)
    %6 = arith.remsi %5, %cst_5 : tensor<128xi32> loc(#loc7)
    %7 = arith.remsi %4, %cst_6 : tensor<128xi32> loc(#loc8)
    %8 = arith.divsi %4, %cst_4 : tensor<128xi32> loc(#loc9)
    %9 = arith.extsi %6 : tensor<128xi32> to tensor<128xi64> loc(#loc10)
    %10 = arith.cmpi slt, %9, %cst_3 : tensor<128xi64> loc(#loc10)
    %11 = arith.muli %6, %cst_6 : tensor<128xi32> loc(#loc11)
    %12 = arith.addi %7, %11 : tensor<128xi32> loc(#loc12)
    %13 = arith.muli %8, %cst_2 : tensor<128xi32> loc(#loc13)
    %14 = arith.addi %12, %13 : tensor<128xi32> loc(#loc14)
    %15 = tt.splat %arg0 : !tt.ptr<f32> -> tensor<128x!tt.ptr<f32>> loc(#loc15)
    %16 = tt.addptr %15, %14 : tensor<128x!tt.ptr<f32>>, tensor<128xi32> loc(#loc15)
    %17 = tt.load %16, %10, %cst_1 : tensor<128x!tt.ptr<f32>> loc(#loc16)
    %18 = arith.cmpi sge, %9, %cst_3 : tensor<128xi64> loc(#loc17)
    %19 = arith.addi %6, %cst_0 : tensor<128xi32> loc(#loc18)
    %20 = arith.muli %19, %cst_6 : tensor<128xi32> loc(#loc19)
    %21 = arith.addi %7, %20 : tensor<128xi32> loc(#loc20)
    %22 = arith.addi %21, %13 : tensor<128xi32> loc(#loc21)
    %23 = tt.addptr %15, %22 : tensor<128x!tt.ptr<f32>>, tensor<128xi32> loc(#loc22)
    %24 = tt.load %23, %18, %cst_1 : tensor<128x!tt.ptr<f32>> loc(#loc23)
    %25 = arith.subf %cst_1, %24 : tensor<128xf32> loc(#loc24)
    %26 = arith.select %18, %25, %cst_1 : tensor<128xi1>, tensor<128xf32> loc(#loc25)
    %27 = arith.select %10, %17, %26 : tensor<128xi1>, tensor<128xf32> loc(#loc26)
    %28 = arith.cmpf ogt, %27, %cst_1 : tensor<128xf32> loc(#loc40)
    %29 = arith.cmpf une, %27, %27 : tensor<128xf32> loc(#loc41)
    %30 = arith.ori %28, %29 : tensor<128xi1> loc(#loc42)
    %31 = arith.select %30, %27, %cst_1 : tensor<128xi1>, tensor<128xf32> loc(#loc43)
    %32 = arith.cmpf olt, %31, %cst : tensor<128xf32> loc(#loc44)
    %33 = arith.cmpf une, %31, %31 : tensor<128xf32> loc(#loc45)
    %34 = arith.ori %32, %33 : tensor<128xi1> loc(#loc46)
    %35 = arith.select %34, %31, %cst : tensor<128xi1>, tensor<128xf32> loc(#loc47)
    %36 = tt.splat %arg1 : !tt.ptr<f32> -> tensor<128x!tt.ptr<f32>> loc(#loc37)
    %37 = tt.addptr %36, %4 : tensor<128x!tt.ptr<f32>>, tensor<128xi32> loc(#loc37)
    tt.store %37, %35 : tensor<128x!tt.ptr<f32>> loc(#loc38)
    tt.return loc(#loc39)
  } loc(#loc)
} loc(#loc)
#loc1 = loc(unknown)
#loc2 = loc("inductor_cache/un/cunel76argx2ponhprrjtimys75d5qvlbdmygxykxajmtghrpzs7.py":21:28)
#loc3 = loc("inductor_cache/un/cunel76argx2ponhprrjtimys75d5qvlbdmygxykxajmtghrpzs7.py":21:33)
#loc4 = loc("inductor_cache/un/cunel76argx2ponhprrjtimys75d5qvlbdmygxykxajmtghrpzs7.py":22:36)
#loc5 = loc("inductor_cache/un/cunel76argx2ponhprrjtimys75d5qvlbdmygxykxajmtghrpzs7.py":22:23)
#loc6 = loc("inductor_cache/un/cunel76argx2ponhprrjtimys75d5qvlbdmygxykxajmtghrpzs7.py":24:21)
#loc7 = loc("inductor_cache/un/cunel76argx2ponhprrjtimys75d5qvlbdmygxykxajmtghrpzs7.py":24:27)
#loc8 = loc("inductor_cache/un/cunel76argx2ponhprrjtimys75d5qvlbdmygxykxajmtghrpzs7.py":25:19)
#loc9 = loc("inductor_cache/un/cunel76argx2ponhprrjtimys75d5qvlbdmygxykxajmtghrpzs7.py":26:19)
#loc10 = loc("inductor_cache/un/cunel76argx2ponhprrjtimys75d5qvlbdmygxykxajmtghrpzs7.py":32:18)
#loc11 = loc("inductor_cache/un/cunel76argx2ponhprrjtimys75d5qvlbdmygxykxajmtghrpzs7.py":33:39)
#loc12 = loc("inductor_cache/un/cunel76argx2ponhprrjtimys75d5qvlbdmygxykxajmtghrpzs7.py":33:35)
#loc13 = loc("inductor_cache/un/cunel76argx2ponhprrjtimys75d5qvlbdmygxykxajmtghrpzs7.py":33:50)
#loc14 = loc("inductor_cache/un/cunel76argx2ponhprrjtimys75d5qvlbdmygxykxajmtghrpzs7.py":33:45)
#loc15 = loc("inductor_cache/un/cunel76argx2ponhprrjtimys75d5qvlbdmygxykxajmtghrpzs7.py":33:30)
#loc16 = loc("inductor_cache/un/cunel76argx2ponhprrjtimys75d5qvlbdmygxykxajmtghrpzs7.py":33:55)
#loc17 = loc("inductor_cache/un/cunel76argx2ponhprrjtimys75d5qvlbdmygxykxajmtghrpzs7.py":34:19)
#loc18 = loc("inductor_cache/un/cunel76argx2ponhprrjtimys75d5qvlbdmygxykxajmtghrpzs7.py":37:47)
#loc19 = loc("inductor_cache/un/cunel76argx2ponhprrjtimys75d5qvlbdmygxykxajmtghrpzs7.py":37:39)
#loc20 = loc("inductor_cache/un/cunel76argx2ponhprrjtimys75d5qvlbdmygxykxajmtghrpzs7.py":37:35)
#loc21 = loc("inductor_cache/un/cunel76argx2ponhprrjtimys75d5qvlbdmygxykxajmtghrpzs7.py":37:53)
#loc22 = loc("inductor_cache/un/cunel76argx2ponhprrjtimys75d5qvlbdmygxykxajmtghrpzs7.py":37:30)
#loc23 = loc("inductor_cache/un/cunel76argx2ponhprrjtimys75d5qvlbdmygxykxajmtghrpzs7.py":37:63)
#loc24 = loc("inductor_cache/un/cunel76argx2ponhprrjtimys75d5qvlbdmygxykxajmtghrpzs7.py":38:13)
#loc25 = loc("inductor_cache/un/cunel76argx2ponhprrjtimys75d5qvlbdmygxykxajmtghrpzs7.py":40:34)
#loc26 = loc("inductor_cache/un/cunel76argx2ponhprrjtimys75d5qvlbdmygxykxajmtghrpzs7.py":41:33)
#loc27 = loc("/home/sahanp/.conda/envs/parity-bench/lib/python3.12/site-packages/torch/_inductor/runtime/triton_helpers.py":118:15)
#loc28 = loc("inductor_cache/un/cunel76argx2ponhprrjtimys75d5qvlbdmygxykxajmtghrpzs7.py":43:42)
#loc29 = loc("/home/sahanp/.conda/envs/parity-bench/lib/python3.12/site-packages/torch/_inductor/runtime/triton_helpers.py":120:21)
#loc30 = loc("/home/sahanp/.conda/envs/parity-bench/lib/python3.12/site-packages/torch/_inductor/runtime/triton_helpers.py":120:16)
#loc31 = loc("/home/sahanp/.conda/envs/parity-bench/lib/python3.12/site-packages/torch/_inductor/runtime/triton_helpers.py":121:29)
#loc32 = loc("/home/sahanp/.conda/envs/parity-bench/lib/python3.12/site-packages/torch/_inductor/runtime/triton_helpers.py":110:15)
#loc33 = loc("inductor_cache/un/cunel76argx2ponhprrjtimys75d5qvlbdmygxykxajmtghrpzs7.py":45:42)
#loc34 = loc("/home/sahanp/.conda/envs/parity-bench/lib/python3.12/site-packages/torch/_inductor/runtime/triton_helpers.py":112:21)
#loc35 = loc("/home/sahanp/.conda/envs/parity-bench/lib/python3.12/site-packages/torch/_inductor/runtime/triton_helpers.py":112:16)
#loc36 = loc("/home/sahanp/.conda/envs/parity-bench/lib/python3.12/site-packages/torch/_inductor/runtime/triton_helpers.py":113:29)
#loc37 = loc("inductor_cache/un/cunel76argx2ponhprrjtimys75d5qvlbdmygxykxajmtghrpzs7.py":46:25)
#loc38 = loc("inductor_cache/un/cunel76argx2ponhprrjtimys75d5qvlbdmygxykxajmtghrpzs7.py":46:37)
#loc39 = loc("inductor_cache/un/cunel76argx2ponhprrjtimys75d5qvlbdmygxykxajmtghrpzs7.py":46:4)
#loc40 = loc(callsite(#loc27 at #loc28))
#loc41 = loc(callsite(#loc29 at #loc28))
#loc42 = loc(callsite(#loc30 at #loc28))
#loc43 = loc(callsite(#loc31 at #loc28))
#loc44 = loc(callsite(#loc32 at #loc33))
#loc45 = loc(callsite(#loc34 at #loc33))
#loc46 = loc(callsite(#loc35 at #loc33))
#loc47 = loc(callsite(#loc36 at #loc33))
