#loc = loc("inductor_cache/ac/cacwbk7t2r5e3dx2p65ubdorl2a3fqyyjopk4vwxv3yddjkbwixk.py":19:0)
module {
  tt.func public @triton_poi_fused__native_batch_norm_legit_no_training_add_relu_19(%arg0: !tt.ptr<f32> {tt.divisibility = 16 : i32} loc("inductor_cache/ac/cacwbk7t2r5e3dx2p65ubdorl2a3fqyyjopk4vwxv3yddjkbwixk.py":19:0), %arg1: !tt.ptr<f32> {tt.divisibility = 16 : i32} loc("inductor_cache/ac/cacwbk7t2r5e3dx2p65ubdorl2a3fqyyjopk4vwxv3yddjkbwixk.py":19:0), %arg2: !tt.ptr<f32> {tt.divisibility = 16 : i32} loc("inductor_cache/ac/cacwbk7t2r5e3dx2p65ubdorl2a3fqyyjopk4vwxv3yddjkbwixk.py":19:0), %arg3: !tt.ptr<f32> {tt.divisibility = 16 : i32} loc("inductor_cache/ac/cacwbk7t2r5e3dx2p65ubdorl2a3fqyyjopk4vwxv3yddjkbwixk.py":19:0), %arg4: i32 {tt.divisibility = 16 : i32} loc("inductor_cache/ac/cacwbk7t2r5e3dx2p65ubdorl2a3fqyyjopk4vwxv3yddjkbwixk.py":19:0)) attributes {noinline = false} {
    %cst = arith.constant dense<0.000000e+00> : tensor<1024xf32> loc(#loc1)
    %cst_0 = arith.constant dense<1.000000e+00> : tensor<1024xf32> loc(#loc1)
    %cst_1 = arith.constant dense<9.99999974E-6> : tensor<1024xf32> loc(#loc1)
    %cst_2 = arith.constant dense<768> : tensor<1024xi32> loc(#loc1)
    %c1024_i32 = arith.constant 1024 : i32 loc(#loc1)
    %0 = tt.get_program_id x : i32 loc(#loc2)
    %1 = arith.muli %0, %c1024_i32 : i32 loc(#loc3)
    %2 = tt.make_range {end = 1024 : i32, start = 0 : i32} : tensor<1024xi32> loc(#loc4)
    %3 = tt.splat %1 : i32 -> tensor<1024xi32> loc(#loc5)
    %4 = arith.addi %3, %2 : tensor<1024xi32> loc(#loc5)
    %5 = arith.remsi %4, %cst_2 : tensor<1024xi32> loc(#loc6)
    %6 = tt.splat %arg0 : !tt.ptr<f32> -> tensor<1024x!tt.ptr<f32>> loc(#loc7)
    %7 = tt.addptr %6, %4 : tensor<1024x!tt.ptr<f32>>, tensor<1024xi32> loc(#loc7)
    %8 = tt.load %7 : tensor<1024x!tt.ptr<f32>> loc(#loc8)
    %9 = tt.splat %arg1 : !tt.ptr<f32> -> tensor<1024x!tt.ptr<f32>> loc(#loc9)
    %10 = tt.addptr %9, %4 : tensor<1024x!tt.ptr<f32>>, tensor<1024xi32> loc(#loc9)
    %11 = tt.load %10 : tensor<1024x!tt.ptr<f32>> loc(#loc10)
    %12 = tt.splat %arg2 : !tt.ptr<f32> -> tensor<1024x!tt.ptr<f32>> loc(#loc11)
    %13 = tt.addptr %12, %5 : tensor<1024x!tt.ptr<f32>>, tensor<1024xi32> loc(#loc11)
    %14 = tt.load %13 evictionPolicy = evict_last : tensor<1024x!tt.ptr<f32>> loc(#loc12)
    %15 = tt.splat %arg3 : !tt.ptr<f32> -> tensor<1024x!tt.ptr<f32>> loc(#loc13)
    %16 = tt.addptr %15, %5 : tensor<1024x!tt.ptr<f32>>, tensor<1024xi32> loc(#loc13)
    %17 = tt.load %16 evictionPolicy = evict_last : tensor<1024x!tt.ptr<f32>> loc(#loc14)
    %18 = arith.addf %8, %11 : tensor<1024xf32> loc(#loc15)
    %19 = arith.subf %18, %14 : tensor<1024xf32> loc(#loc16)
    %20 = arith.addf %17, %cst_1 : tensor<1024xf32> loc(#loc17)
    %21 = tt.extern_elementwise %20 {libname = "", libpath = "", pure = true, symbol = "__nv_sqrtf"} : (tensor<1024xf32>) -> tensor<1024xf32> loc(#loc18)
    %22 = arith.divf %cst_0, %21 : tensor<1024xf32> loc(#loc19)
    %23 = arith.mulf %19, %22 : tensor<1024xf32> loc(#loc20)
    %24 = arith.cmpf ogt, %cst, %23 : tensor<1024xf32> loc(#loc26)
    %25 = arith.select %24, %cst, %23 : tensor<1024xi1>, tensor<1024xf32> loc(#loc27)
    tt.store %7, %25 : tensor<1024x!tt.ptr<f32>> loc(#loc24)
    tt.return loc(#loc25)
  } loc(#loc)
} loc(#loc)
#loc1 = loc(unknown)
#loc2 = loc("inductor_cache/ac/cacwbk7t2r5e3dx2p65ubdorl2a3fqyyjopk4vwxv3yddjkbwixk.py":21:28)
#loc3 = loc("inductor_cache/ac/cacwbk7t2r5e3dx2p65ubdorl2a3fqyyjopk4vwxv3yddjkbwixk.py":21:33)
#loc4 = loc("inductor_cache/ac/cacwbk7t2r5e3dx2p65ubdorl2a3fqyyjopk4vwxv3yddjkbwixk.py":22:36)
#loc5 = loc("inductor_cache/ac/cacwbk7t2r5e3dx2p65ubdorl2a3fqyyjopk4vwxv3yddjkbwixk.py":22:23)
#loc6 = loc("inductor_cache/ac/cacwbk7t2r5e3dx2p65ubdorl2a3fqyyjopk4vwxv3yddjkbwixk.py":25:19)
#loc7 = loc("inductor_cache/ac/cacwbk7t2r5e3dx2p65ubdorl2a3fqyyjopk4vwxv3yddjkbwixk.py":26:34)
#loc8 = loc("inductor_cache/ac/cacwbk7t2r5e3dx2p65ubdorl2a3fqyyjopk4vwxv3yddjkbwixk.py":26:39)
#loc9 = loc("inductor_cache/ac/cacwbk7t2r5e3dx2p65ubdorl2a3fqyyjopk4vwxv3yddjkbwixk.py":27:30)
#loc10 = loc("inductor_cache/ac/cacwbk7t2r5e3dx2p65ubdorl2a3fqyyjopk4vwxv3yddjkbwixk.py":27:35)
#loc11 = loc("inductor_cache/ac/cacwbk7t2r5e3dx2p65ubdorl2a3fqyyjopk4vwxv3yddjkbwixk.py":28:30)
#loc12 = loc("inductor_cache/ac/cacwbk7t2r5e3dx2p65ubdorl2a3fqyyjopk4vwxv3yddjkbwixk.py":28:35)
#loc13 = loc("inductor_cache/ac/cacwbk7t2r5e3dx2p65ubdorl2a3fqyyjopk4vwxv3yddjkbwixk.py":29:30)
#loc14 = loc("inductor_cache/ac/cacwbk7t2r5e3dx2p65ubdorl2a3fqyyjopk4vwxv3yddjkbwixk.py":29:35)
#loc15 = loc("inductor_cache/ac/cacwbk7t2r5e3dx2p65ubdorl2a3fqyyjopk4vwxv3yddjkbwixk.py":30:18)
#loc16 = loc("inductor_cache/ac/cacwbk7t2r5e3dx2p65ubdorl2a3fqyyjopk4vwxv3yddjkbwixk.py":31:18)
#loc17 = loc("inductor_cache/ac/cacwbk7t2r5e3dx2p65ubdorl2a3fqyyjopk4vwxv3yddjkbwixk.py":33:18)
#loc18 = loc("inductor_cache/ac/cacwbk7t2r5e3dx2p65ubdorl2a3fqyyjopk4vwxv3yddjkbwixk.py":34:26)
#loc19 = loc("inductor_cache/ac/cacwbk7t2r5e3dx2p65ubdorl2a3fqyyjopk4vwxv3yddjkbwixk.py":36:19)
#loc20 = loc("inductor_cache/ac/cacwbk7t2r5e3dx2p65ubdorl2a3fqyyjopk4vwxv3yddjkbwixk.py":39:19)
#loc21 = loc("/home/sahanp/.conda/envs/parity-bench/lib/python3.12/site-packages/torch/_inductor/runtime/triton_helpers.py":118:15)
#loc22 = loc("inductor_cache/ac/cacwbk7t2r5e3dx2p65ubdorl2a3fqyyjopk4vwxv3yddjkbwixk.py":41:42)
#loc23 = loc("/home/sahanp/.conda/envs/parity-bench/lib/python3.12/site-packages/torch/_inductor/runtime/triton_helpers.py":121:29)
#loc24 = loc("inductor_cache/ac/cacwbk7t2r5e3dx2p65ubdorl2a3fqyyjopk4vwxv3yddjkbwixk.py":42:40)
#loc25 = loc("inductor_cache/ac/cacwbk7t2r5e3dx2p65ubdorl2a3fqyyjopk4vwxv3yddjkbwixk.py":42:4)
#loc26 = loc(callsite(#loc21 at #loc22))
#loc27 = loc(callsite(#loc23 at #loc22))
