#loc = loc("inductor_cache/7p/c7pinvyomjb4po4ijebjpjdnd2e3r2wc4dn4g3xqnn4j4o5raqlh.py":19:0)
#loc1 = loc(unknown)
#loc38 = loc("inductor_cache/7p/c7pinvyomjb4po4ijebjpjdnd2e3r2wc4dn4g3xqnn4j4o5raqlh.py":54:26)
#loc51 = loc(callsite(#loc1 at #loc38))
module {
  tt.func public @triton_per_fused__native_batch_norm_legit_no_training_add_mean_relu_34(%arg0: !tt.ptr<f32> {tt.divisibility = 16 : i32} loc("inductor_cache/7p/c7pinvyomjb4po4ijebjpjdnd2e3r2wc4dn4g3xqnn4j4o5raqlh.py":19:0), %arg1: !tt.ptr<f32> {tt.divisibility = 16 : i32} loc("inductor_cache/7p/c7pinvyomjb4po4ijebjpjdnd2e3r2wc4dn4g3xqnn4j4o5raqlh.py":19:0), %arg2: !tt.ptr<f32> {tt.divisibility = 16 : i32} loc("inductor_cache/7p/c7pinvyomjb4po4ijebjpjdnd2e3r2wc4dn4g3xqnn4j4o5raqlh.py":19:0), %arg3: !tt.ptr<f32> {tt.divisibility = 16 : i32} loc("inductor_cache/7p/c7pinvyomjb4po4ijebjpjdnd2e3r2wc4dn4g3xqnn4j4o5raqlh.py":19:0), %arg4: !tt.ptr<f32> {tt.divisibility = 16 : i32} loc("inductor_cache/7p/c7pinvyomjb4po4ijebjpjdnd2e3r2wc4dn4g3xqnn4j4o5raqlh.py":19:0), %arg5: !tt.ptr<f32> {tt.divisibility = 16 : i32} loc("inductor_cache/7p/c7pinvyomjb4po4ijebjpjdnd2e3r2wc4dn4g3xqnn4j4o5raqlh.py":19:0), %arg6: !tt.ptr<f32> {tt.divisibility = 16 : i32} loc("inductor_cache/7p/c7pinvyomjb4po4ijebjpjdnd2e3r2wc4dn4g3xqnn4j4o5raqlh.py":19:0), %arg7: !tt.ptr<f32> {tt.divisibility = 16 : i32} loc("inductor_cache/7p/c7pinvyomjb4po4ijebjpjdnd2e3r2wc4dn4g3xqnn4j4o5raqlh.py":19:0), %arg8: i32 {tt.divisibility = 16 : i32} loc("inductor_cache/7p/c7pinvyomjb4po4ijebjpjdnd2e3r2wc4dn4g3xqnn4j4o5raqlh.py":19:0), %arg9: i32 {tt.divisibility = 16 : i32} loc("inductor_cache/7p/c7pinvyomjb4po4ijebjpjdnd2e3r2wc4dn4g3xqnn4j4o5raqlh.py":19:0)) attributes {noinline = false} {
    %cst = arith.constant dense<1.000000e+00> : tensor<32x1xf32> loc(#loc1)
    %cst_0 = arith.constant dense<6.400000e+01> : tensor<32x1xf32> loc(#loc1)
    %cst_1 = arith.constant dense<9.99999974E-6> : tensor<32x1xf32> loc(#loc1)
    %cst_2 = arith.constant dense<0.000000e+00> : tensor<32x64xf32> loc(#loc1)
    %cst_3 = arith.constant dense<64> : tensor<32x1xi32> loc(#loc1)
    %cst_4 = arith.constant dense<512> : tensor<32x1xi32> loc(#loc1)
    %cst_5 = arith.constant dense<2048> : tensor<32x1xi32> loc(#loc1)
    %c32_i32 = arith.constant 32 : i32 loc(#loc1)
    %0 = tt.get_program_id x : i32 loc(#loc2)
    %1 = arith.muli %0, %c32_i32 : i32 loc(#loc3)
    %2 = tt.make_range {end = 32 : i32, start = 0 : i32} : tensor<32xi32> loc(#loc4)
    %3 = tt.expand_dims %2 {axis = 1 : i32} : tensor<32xi32> -> tensor<32x1xi32> loc(#loc5)
    %4 = tt.splat %1 : i32 -> tensor<32x1xi32> loc(#loc6)
    %5 = arith.addi %4, %3 : tensor<32x1xi32> loc(#loc6)
    %6 = arith.cmpi slt, %5, %cst_5 : tensor<32x1xi32> loc(#loc7)
    %7 = tt.make_range {end = 64 : i32, start = 0 : i32} : tensor<64xi32> loc(#loc8)
    %8 = tt.expand_dims %7 {axis = 0 : i32} : tensor<64xi32> -> tensor<1x64xi32> loc(#loc9)
    %9 = arith.remsi %5, %cst_4 : tensor<32x1xi32> loc(#loc10)
    %10 = arith.muli %5, %cst_3 : tensor<32x1xi32> loc(#loc11)
    %11 = tt.broadcast %8 : tensor<1x64xi32> -> tensor<32x64xi32> loc(#loc12)
    %12 = tt.broadcast %10 : tensor<32x1xi32> -> tensor<32x64xi32> loc(#loc12)
    %13 = arith.addi %11, %12 : tensor<32x64xi32> loc(#loc12)
    %14 = tt.splat %arg1 : !tt.ptr<f32> -> tensor<32x64x!tt.ptr<f32>> loc(#loc13)
    %15 = tt.addptr %14, %13 : tensor<32x64x!tt.ptr<f32>>, tensor<32x64xi32> loc(#loc13)
    %16 = tt.broadcast %6 : tensor<32x1xi1> -> tensor<32x64xi1> loc(#loc14)
    %17 = tt.load %15, %16, %cst_2 : tensor<32x64x!tt.ptr<f32>> loc(#loc14)
    %18 = tt.splat %arg2 : !tt.ptr<f32> -> tensor<32x1x!tt.ptr<f32>> loc(#loc15)
    %19 = tt.addptr %18, %9 : tensor<32x1x!tt.ptr<f32>>, tensor<32x1xi32> loc(#loc15)
    %20 = tt.load %19, %6 evictionPolicy = evict_last : tensor<32x1x!tt.ptr<f32>> loc(#loc16)
    %21 = tt.splat %arg3 : !tt.ptr<f32> -> tensor<32x1x!tt.ptr<f32>> loc(#loc17)
    %22 = tt.addptr %21, %9 : tensor<32x1x!tt.ptr<f32>>, tensor<32x1xi32> loc(#loc17)
    %23 = tt.load %22, %6 evictionPolicy = evict_last : tensor<32x1x!tt.ptr<f32>> loc(#loc18)
    %24 = tt.splat %arg4 : !tt.ptr<f32> -> tensor<32x1x!tt.ptr<f32>> loc(#loc19)
    %25 = tt.addptr %24, %9 : tensor<32x1x!tt.ptr<f32>>, tensor<32x1xi32> loc(#loc19)
    %26 = tt.load %25, %6 evictionPolicy = evict_last : tensor<32x1x!tt.ptr<f32>> loc(#loc20)
    %27 = tt.splat %arg5 : !tt.ptr<f32> -> tensor<32x1x!tt.ptr<f32>> loc(#loc21)
    %28 = tt.addptr %27, %9 : tensor<32x1x!tt.ptr<f32>>, tensor<32x1xi32> loc(#loc21)
    %29 = tt.load %28, %6 evictionPolicy = evict_last : tensor<32x1x!tt.ptr<f32>> loc(#loc22)
    %30 = tt.splat %arg6 : !tt.ptr<f32> -> tensor<32x64x!tt.ptr<f32>> loc(#loc23)
    %31 = tt.addptr %30, %13 : tensor<32x64x!tt.ptr<f32>>, tensor<32x64xi32> loc(#loc23)
    %32 = tt.load %31, %16, %cst_2 : tensor<32x64x!tt.ptr<f32>> loc(#loc24)
    %33 = tt.broadcast %20 : tensor<32x1xf32> -> tensor<32x64xf32> loc(#loc25)
    %34 = arith.subf %17, %33 : tensor<32x64xf32> loc(#loc25)
    %35 = arith.addf %23, %cst_1 : tensor<32x1xf32> loc(#loc26)
    %36 = tt.extern_elementwise %35 {libname = "", libpath = "", pure = true, symbol = "__nv_sqrtf"} : (tensor<32x1xf32>) -> tensor<32x1xf32> loc(#loc27)
    %37 = arith.divf %cst, %36 : tensor<32x1xf32> loc(#loc28)
    %38 = tt.broadcast %37 : tensor<32x1xf32> -> tensor<32x64xf32> loc(#loc29)
    %39 = arith.mulf %34, %38 : tensor<32x64xf32> loc(#loc29)
    %40 = tt.broadcast %26 : tensor<32x1xf32> -> tensor<32x64xf32> loc(#loc30)
    %41 = arith.mulf %39, %40 : tensor<32x64xf32> loc(#loc30)
    %42 = tt.broadcast %29 : tensor<32x1xf32> -> tensor<32x64xf32> loc(#loc31)
    %43 = arith.addf %41, %42 : tensor<32x64xf32> loc(#loc31)
    %44 = arith.addf %43, %32 : tensor<32x64xf32> loc(#loc32)
    %45 = arith.cmpf ogt, %cst_2, %44 : tensor<32x64xf32> loc(#loc48)
    %46 = arith.select %45, %cst_2, %44 : tensor<32x64xi1>, tensor<32x64xf32> loc(#loc49)
    %47 = arith.select %16, %46, %cst_2 : tensor<32x64xi1>, tensor<32x64xf32> loc(#loc36)
    %48 = "tt.reduce"(%47) <{axis = 1 : i32}> ({
    ^bb0(%arg10: f32 loc(callsite(#loc1 at #loc38)), %arg11: f32 loc(callsite(#loc1 at #loc38))):
      %55 = arith.addf %arg10, %arg11 : f32 loc(#loc53)
      tt.reduce.return %55 : f32 loc(#loc50)
    }) : (tensor<32x64xf32>) -> tensor<32xf32> loc(#loc50)
    %49 = tt.expand_dims %48 {axis = 1 : i32} : tensor<32xf32> -> tensor<32x1xf32> loc(#loc40)
    %50 = arith.divf %49, %cst_0 : tensor<32x1xf32> loc(#loc41)
    %51 = tt.splat %arg7 : !tt.ptr<f32> -> tensor<32x64x!tt.ptr<f32>> loc(#loc42)
    %52 = tt.addptr %51, %13 : tensor<32x64x!tt.ptr<f32>>, tensor<32x64xi32> loc(#loc42)
    tt.store %52, %46, %16 : tensor<32x64x!tt.ptr<f32>> loc(#loc43)
    gpu.barrier loc(#loc44)
    %53 = tt.splat %arg0 : !tt.ptr<f32> -> tensor<32x1x!tt.ptr<f32>> loc(#loc45)
    %54 = tt.addptr %53, %5 : tensor<32x1x!tt.ptr<f32>>, tensor<32x1xi32> loc(#loc45)
    tt.store %54, %50, %6 : tensor<32x1x!tt.ptr<f32>> loc(#loc46)
    tt.return loc(#loc47)
  } loc(#loc)
} loc(#loc)
#loc2 = loc("inductor_cache/7p/c7pinvyomjb4po4ijebjpjdnd2e3r2wc4dn4g3xqnn4j4o5raqlh.py":23:28)
#loc3 = loc("inductor_cache/7p/c7pinvyomjb4po4ijebjpjdnd2e3r2wc4dn4g3xqnn4j4o5raqlh.py":23:33)
#loc4 = loc("inductor_cache/7p/c7pinvyomjb4po4ijebjpjdnd2e3r2wc4dn4g3xqnn4j4o5raqlh.py":24:36)
#loc5 = loc("inductor_cache/7p/c7pinvyomjb4po4ijebjpjdnd2e3r2wc4dn4g3xqnn4j4o5raqlh.py":24:44)
#loc6 = loc("inductor_cache/7p/c7pinvyomjb4po4ijebjpjdnd2e3r2wc4dn4g3xqnn4j4o5raqlh.py":24:23)
#loc7 = loc("inductor_cache/7p/c7pinvyomjb4po4ijebjpjdnd2e3r2wc4dn4g3xqnn4j4o5raqlh.py":25:21)
#loc8 = loc("inductor_cache/7p/c7pinvyomjb4po4ijebjpjdnd2e3r2wc4dn4g3xqnn4j4o5raqlh.py":26:26)
#loc9 = loc("inductor_cache/7p/c7pinvyomjb4po4ijebjpjdnd2e3r2wc4dn4g3xqnn4j4o5raqlh.py":26:34)
#loc10 = loc("inductor_cache/7p/c7pinvyomjb4po4ijebjpjdnd2e3r2wc4dn4g3xqnn4j4o5raqlh.py":31:19)
#loc11 = loc("inductor_cache/7p/c7pinvyomjb4po4ijebjpjdnd2e3r2wc4dn4g3xqnn4j4o5raqlh.py":32:38)
#loc12 = loc("inductor_cache/7p/c7pinvyomjb4po4ijebjpjdnd2e3r2wc4dn4g3xqnn4j4o5raqlh.py":32:35)
#loc13 = loc("inductor_cache/7p/c7pinvyomjb4po4ijebjpjdnd2e3r2wc4dn4g3xqnn4j4o5raqlh.py":32:30)
#loc14 = loc("inductor_cache/7p/c7pinvyomjb4po4ijebjpjdnd2e3r2wc4dn4g3xqnn4j4o5raqlh.py":32:43)
#loc15 = loc("inductor_cache/7p/c7pinvyomjb4po4ijebjpjdnd2e3r2wc4dn4g3xqnn4j4o5raqlh.py":33:30)
#loc16 = loc("inductor_cache/7p/c7pinvyomjb4po4ijebjpjdnd2e3r2wc4dn4g3xqnn4j4o5raqlh.py":33:35)
#loc17 = loc("inductor_cache/7p/c7pinvyomjb4po4ijebjpjdnd2e3r2wc4dn4g3xqnn4j4o5raqlh.py":34:30)
#loc18 = loc("inductor_cache/7p/c7pinvyomjb4po4ijebjpjdnd2e3r2wc4dn4g3xqnn4j4o5raqlh.py":34:35)
#loc19 = loc("inductor_cache/7p/c7pinvyomjb4po4ijebjpjdnd2e3r2wc4dn4g3xqnn4j4o5raqlh.py":35:31)
#loc20 = loc("inductor_cache/7p/c7pinvyomjb4po4ijebjpjdnd2e3r2wc4dn4g3xqnn4j4o5raqlh.py":35:36)
#loc21 = loc("inductor_cache/7p/c7pinvyomjb4po4ijebjpjdnd2e3r2wc4dn4g3xqnn4j4o5raqlh.py":36:31)
#loc22 = loc("inductor_cache/7p/c7pinvyomjb4po4ijebjpjdnd2e3r2wc4dn4g3xqnn4j4o5raqlh.py":36:36)
#loc23 = loc("inductor_cache/7p/c7pinvyomjb4po4ijebjpjdnd2e3r2wc4dn4g3xqnn4j4o5raqlh.py":37:31)
#loc24 = loc("inductor_cache/7p/c7pinvyomjb4po4ijebjpjdnd2e3r2wc4dn4g3xqnn4j4o5raqlh.py":37:44)
#loc25 = loc("inductor_cache/7p/c7pinvyomjb4po4ijebjpjdnd2e3r2wc4dn4g3xqnn4j4o5raqlh.py":38:18)
#loc26 = loc("inductor_cache/7p/c7pinvyomjb4po4ijebjpjdnd2e3r2wc4dn4g3xqnn4j4o5raqlh.py":40:18)
#loc27 = loc("inductor_cache/7p/c7pinvyomjb4po4ijebjpjdnd2e3r2wc4dn4g3xqnn4j4o5raqlh.py":41:26)
#loc28 = loc("inductor_cache/7p/c7pinvyomjb4po4ijebjpjdnd2e3r2wc4dn4g3xqnn4j4o5raqlh.py":43:18)
#loc29 = loc("inductor_cache/7p/c7pinvyomjb4po4ijebjpjdnd2e3r2wc4dn4g3xqnn4j4o5raqlh.py":46:19)
#loc30 = loc("inductor_cache/7p/c7pinvyomjb4po4ijebjpjdnd2e3r2wc4dn4g3xqnn4j4o5raqlh.py":47:20)
#loc31 = loc("inductor_cache/7p/c7pinvyomjb4po4ijebjpjdnd2e3r2wc4dn4g3xqnn4j4o5raqlh.py":48:20)
#loc32 = loc("inductor_cache/7p/c7pinvyomjb4po4ijebjpjdnd2e3r2wc4dn4g3xqnn4j4o5raqlh.py":49:20)
#loc33 = loc("/home/sahanp/.conda/envs/parity-bench/lib/python3.12/site-packages/torch/_inductor/runtime/triton_helpers.py":118:15)
#loc34 = loc("inductor_cache/7p/c7pinvyomjb4po4ijebjpjdnd2e3r2wc4dn4g3xqnn4j4o5raqlh.py":51:42)
#loc35 = loc("/home/sahanp/.conda/envs/parity-bench/lib/python3.12/site-packages/torch/_inductor/runtime/triton_helpers.py":121:29)
#loc36 = loc("inductor_cache/7p/c7pinvyomjb4po4ijebjpjdnd2e3r2wc4dn4g3xqnn4j4o5raqlh.py":53:35)
#loc37 = loc("/home/sahanp/.conda/envs/parity-bench/lib/python3.12/site-packages/triton/language/standard.py":267:36)
#loc39 = loc("/home/sahanp/.conda/envs/parity-bench/lib/python3.12/site-packages/triton/language/standard.py":256:15)
#loc40 = loc("inductor_cache/7p/c7pinvyomjb4po4ijebjpjdnd2e3r2wc4dn4g3xqnn4j4o5raqlh.py":54:29)
#loc41 = loc("inductor_cache/7p/c7pinvyomjb4po4ijebjpjdnd2e3r2wc4dn4g3xqnn4j4o5raqlh.py":56:20)
#loc42 = loc("inductor_cache/7p/c7pinvyomjb4po4ijebjpjdnd2e3r2wc4dn4g3xqnn4j4o5raqlh.py":57:25)
#loc43 = loc("inductor_cache/7p/c7pinvyomjb4po4ijebjpjdnd2e3r2wc4dn4g3xqnn4j4o5raqlh.py":57:45)
#loc44 = loc("inductor_cache/7p/c7pinvyomjb4po4ijebjpjdnd2e3r2wc4dn4g3xqnn4j4o5raqlh.py":58:4)
#loc45 = loc("inductor_cache/7p/c7pinvyomjb4po4ijebjpjdnd2e3r2wc4dn4g3xqnn4j4o5raqlh.py":59:28)
#loc46 = loc("inductor_cache/7p/c7pinvyomjb4po4ijebjpjdnd2e3r2wc4dn4g3xqnn4j4o5raqlh.py":59:40)
#loc47 = loc("inductor_cache/7p/c7pinvyomjb4po4ijebjpjdnd2e3r2wc4dn4g3xqnn4j4o5raqlh.py":59:4)
#loc48 = loc(callsite(#loc33 at #loc34))
#loc49 = loc(callsite(#loc35 at #loc34))
#loc50 = loc(callsite(#loc37 at #loc38))
#loc52 = loc(callsite(#loc39 at #loc37))
#loc53 = loc(callsite(#loc52 at #loc38))
