#loc = loc("inductor_cache/63/c63kxhlttoxzkidnkkjxwkyyple4edb2so7qozuhpyrqvcw5ksbo.py":19:0)
module {
  tt.func public @triton_poi_fused_cat_0(%arg0: !tt.ptr<f32> {tt.divisibility = 16 : i32} loc("inductor_cache/63/c63kxhlttoxzkidnkkjxwkyyple4edb2so7qozuhpyrqvcw5ksbo.py":19:0), %arg1: !tt.ptr<f32> {tt.divisibility = 16 : i32} loc("inductor_cache/63/c63kxhlttoxzkidnkkjxwkyyple4edb2so7qozuhpyrqvcw5ksbo.py":19:0), %arg2: !tt.ptr<f32> {tt.divisibility = 16 : i32} loc("inductor_cache/63/c63kxhlttoxzkidnkkjxwkyyple4edb2so7qozuhpyrqvcw5ksbo.py":19:0), %arg3: i32 {tt.divisibility = 16 : i32} loc("inductor_cache/63/c63kxhlttoxzkidnkkjxwkyyple4edb2so7qozuhpyrqvcw5ksbo.py":19:0)) attributes {noinline = false} {
    %cst = arith.constant dense<48> : tensor<128xi32> loc(#loc1)
    %cst_0 = arith.constant dense<7> : tensor<128xi64> loc(#loc1)
    %cst_1 = arith.constant dense<6> : tensor<128xi64> loc(#loc1)
    %cst_2 = arith.constant dense<32> : tensor<128xi32> loc(#loc1)
    %cst_3 = arith.constant dense<5> : tensor<128xi64> loc(#loc1)
    %cst_4 = arith.constant dense<4> : tensor<128xi64> loc(#loc1)
    %cst_5 = arith.constant dense<3> : tensor<128xi64> loc(#loc1)
    %cst_6 = arith.constant dense<2> : tensor<128xi64> loc(#loc1)
    %cst_7 = arith.constant dense<0.000000e+00> : tensor<128xf32> loc(#loc1)
    %cst_8 = arith.constant dense<64> : tensor<128xi32> loc(#loc1)
    %cst_9 = arith.constant dense<1> : tensor<128xi64> loc(#loc1)
    %cst_10 = arith.constant dense<128> : tensor<128xi32> loc(#loc1)
    %cst_11 = arith.constant dense<8> : tensor<128xi32> loc(#loc1)
    %cst_12 = arith.constant dense<16> : tensor<128xi32> loc(#loc1)
    %cst_13 = arith.constant dense<512> : tensor<128xi32> loc(#loc1)
    %c128_i32 = arith.constant 128 : i32 loc(#loc1)
    %0 = tt.get_program_id x : i32 loc(#loc2)
    %1 = arith.muli %0, %c128_i32 : i32 loc(#loc3)
    %2 = tt.make_range {end = 128 : i32, start = 0 : i32} : tensor<128xi32> loc(#loc4)
    %3 = tt.splat %1 : i32 -> tensor<128xi32> loc(#loc5)
    %4 = arith.addi %3, %2 : tensor<128xi32> loc(#loc5)
    %5 = arith.cmpi slt, %4, %cst_13 : tensor<128xi32> loc(#loc6)
    %6 = arith.divsi %4, %cst_12 : tensor<128xi32> loc(#loc7)
    %7 = arith.remsi %6, %cst_11 : tensor<128xi32> loc(#loc8)
    %8 = arith.remsi %4, %cst_12 : tensor<128xi32> loc(#loc9)
    %9 = arith.divsi %4, %cst_10 : tensor<128xi32> loc(#loc10)
    %10 = arith.extsi %7 : tensor<128xi32> to tensor<128xi64> loc(#loc11)
    %11 = arith.cmpi slt, %10, %cst_9 : tensor<128xi64> loc(#loc11)
    %12 = arith.muli %9, %cst_8 : tensor<128xi32> loc(#loc12)
    %13 = arith.addi %8, %12 : tensor<128xi32> loc(#loc13)
    %14 = tt.splat %arg0 : !tt.ptr<f32> -> tensor<128x!tt.ptr<f32>> loc(#loc14)
    %15 = tt.addptr %14, %13 : tensor<128x!tt.ptr<f32>>, tensor<128xi32> loc(#loc14)
    %16 = arith.andi %11, %5 : tensor<128xi1> loc(#loc15)
    %17 = tt.load %15, %16, %cst_7 evictionPolicy = evict_last : tensor<128x!tt.ptr<f32>> loc(#loc16)
    %18 = arith.cmpi sge, %10, %cst_9 : tensor<128xi64> loc(#loc17)
    %19 = arith.cmpi slt, %10, %cst_6 : tensor<128xi64> loc(#loc18)
    %20 = arith.andi %18, %19 : tensor<128xi1> loc(#loc19)
    %21 = tt.splat %arg1 : !tt.ptr<f32> -> tensor<128x!tt.ptr<f32>> loc(#loc20)
    %22 = tt.addptr %21, %13 : tensor<128x!tt.ptr<f32>>, tensor<128xi32> loc(#loc20)
    %23 = arith.andi %20, %5 : tensor<128xi1> loc(#loc21)
    %24 = tt.load %22, %23, %cst_7 evictionPolicy = evict_last : tensor<128x!tt.ptr<f32>> loc(#loc22)
    %25 = arith.cmpi sge, %10, %cst_6 : tensor<128xi64> loc(#loc23)
    %26 = arith.cmpi slt, %10, %cst_5 : tensor<128xi64> loc(#loc24)
    %27 = arith.andi %25, %26 : tensor<128xi1> loc(#loc25)
    %28 = arith.addi %8, %cst_12 : tensor<128xi32> loc(#loc26)
    %29 = arith.addi %28, %12 : tensor<128xi32> loc(#loc27)
    %30 = tt.addptr %14, %29 : tensor<128x!tt.ptr<f32>>, tensor<128xi32> loc(#loc28)
    %31 = arith.andi %27, %5 : tensor<128xi1> loc(#loc29)
    %32 = tt.load %30, %31, %cst_7 evictionPolicy = evict_last : tensor<128x!tt.ptr<f32>> loc(#loc30)
    %33 = arith.cmpi sge, %10, %cst_5 : tensor<128xi64> loc(#loc31)
    %34 = arith.cmpi slt, %10, %cst_4 : tensor<128xi64> loc(#loc32)
    %35 = arith.andi %33, %34 : tensor<128xi1> loc(#loc33)
    %36 = tt.addptr %21, %29 : tensor<128x!tt.ptr<f32>>, tensor<128xi32> loc(#loc34)
    %37 = arith.andi %35, %5 : tensor<128xi1> loc(#loc35)
    %38 = tt.load %36, %37, %cst_7 evictionPolicy = evict_last : tensor<128x!tt.ptr<f32>> loc(#loc36)
    %39 = arith.cmpi sge, %10, %cst_4 : tensor<128xi64> loc(#loc37)
    %40 = arith.cmpi slt, %10, %cst_3 : tensor<128xi64> loc(#loc38)
    %41 = arith.andi %39, %40 : tensor<128xi1> loc(#loc39)
    %42 = arith.addi %8, %cst_2 : tensor<128xi32> loc(#loc40)
    %43 = arith.addi %42, %12 : tensor<128xi32> loc(#loc41)
    %44 = tt.addptr %14, %43 : tensor<128x!tt.ptr<f32>>, tensor<128xi32> loc(#loc42)
    %45 = arith.andi %41, %5 : tensor<128xi1> loc(#loc43)
    %46 = tt.load %44, %45, %cst_7 evictionPolicy = evict_last : tensor<128x!tt.ptr<f32>> loc(#loc44)
    %47 = arith.cmpi sge, %10, %cst_3 : tensor<128xi64> loc(#loc45)
    %48 = arith.cmpi slt, %10, %cst_1 : tensor<128xi64> loc(#loc46)
    %49 = arith.andi %47, %48 : tensor<128xi1> loc(#loc47)
    %50 = tt.addptr %21, %43 : tensor<128x!tt.ptr<f32>>, tensor<128xi32> loc(#loc48)
    %51 = arith.andi %49, %5 : tensor<128xi1> loc(#loc49)
    %52 = tt.load %50, %51, %cst_7 evictionPolicy = evict_last : tensor<128x!tt.ptr<f32>> loc(#loc50)
    %53 = arith.cmpi sge, %10, %cst_1 : tensor<128xi64> loc(#loc51)
    %54 = arith.cmpi slt, %10, %cst_0 : tensor<128xi64> loc(#loc52)
    %55 = arith.andi %53, %54 : tensor<128xi1> loc(#loc53)
    %56 = arith.addi %8, %cst : tensor<128xi32> loc(#loc54)
    %57 = arith.addi %56, %12 : tensor<128xi32> loc(#loc55)
    %58 = tt.addptr %14, %57 : tensor<128x!tt.ptr<f32>>, tensor<128xi32> loc(#loc56)
    %59 = arith.andi %55, %5 : tensor<128xi1> loc(#loc57)
    %60 = tt.load %58, %59, %cst_7 evictionPolicy = evict_last : tensor<128x!tt.ptr<f32>> loc(#loc58)
    %61 = arith.cmpi sge, %10, %cst_0 : tensor<128xi64> loc(#loc59)
    %62 = tt.addptr %21, %57 : tensor<128x!tt.ptr<f32>>, tensor<128xi32> loc(#loc60)
    %63 = arith.andi %61, %5 : tensor<128xi1> loc(#loc61)
    %64 = tt.load %62, %63, %cst_7 evictionPolicy = evict_last : tensor<128x!tt.ptr<f32>> loc(#loc62)
    %65 = arith.select %55, %60, %64 : tensor<128xi1>, tensor<128xf32> loc(#loc63)
    %66 = arith.select %49, %52, %65 : tensor<128xi1>, tensor<128xf32> loc(#loc64)
    %67 = arith.select %41, %46, %66 : tensor<128xi1>, tensor<128xf32> loc(#loc65)
    %68 = arith.select %35, %38, %67 : tensor<128xi1>, tensor<128xf32> loc(#loc66)
    %69 = arith.select %27, %32, %68 : tensor<128xi1>, tensor<128xf32> loc(#loc67)
    %70 = arith.select %20, %24, %69 : tensor<128xi1>, tensor<128xf32> loc(#loc68)
    %71 = arith.select %11, %17, %70 : tensor<128xi1>, tensor<128xf32> loc(#loc69)
    %72 = tt.splat %arg2 : !tt.ptr<f32> -> tensor<128x!tt.ptr<f32>> loc(#loc70)
    %73 = tt.addptr %72, %4 : tensor<128x!tt.ptr<f32>>, tensor<128xi32> loc(#loc70)
    tt.store %73, %71, %5 : tensor<128x!tt.ptr<f32>> loc(#loc71)
    tt.return loc(#loc72)
  } loc(#loc)
} loc(#loc)
#loc1 = loc(unknown)
#loc2 = loc("inductor_cache/63/c63kxhlttoxzkidnkkjxwkyyple4edb2so7qozuhpyrqvcw5ksbo.py":21:28)
#loc3 = loc("inductor_cache/63/c63kxhlttoxzkidnkkjxwkyyple4edb2so7qozuhpyrqvcw5ksbo.py":21:33)
#loc4 = loc("inductor_cache/63/c63kxhlttoxzkidnkkjxwkyyple4edb2so7qozuhpyrqvcw5ksbo.py":22:36)
#loc5 = loc("inductor_cache/63/c63kxhlttoxzkidnkkjxwkyyple4edb2so7qozuhpyrqvcw5ksbo.py":22:23)
#loc6 = loc("inductor_cache/63/c63kxhlttoxzkidnkkjxwkyyple4edb2so7qozuhpyrqvcw5ksbo.py":23:21)
#loc7 = loc("inductor_cache/63/c63kxhlttoxzkidnkkjxwkyyple4edb2so7qozuhpyrqvcw5ksbo.py":24:21)
#loc8 = loc("inductor_cache/63/c63kxhlttoxzkidnkkjxwkyyple4edb2so7qozuhpyrqvcw5ksbo.py":24:27)
#loc9 = loc("inductor_cache/63/c63kxhlttoxzkidnkkjxwkyyple4edb2so7qozuhpyrqvcw5ksbo.py":25:19)
#loc10 = loc("inductor_cache/63/c63kxhlttoxzkidnkkjxwkyyple4edb2so7qozuhpyrqvcw5ksbo.py":26:19)
#loc11 = loc("inductor_cache/63/c63kxhlttoxzkidnkkjxwkyyple4edb2so7qozuhpyrqvcw5ksbo.py":32:18)
#loc12 = loc("inductor_cache/63/c63kxhlttoxzkidnkkjxwkyyple4edb2so7qozuhpyrqvcw5ksbo.py":33:38)
#loc13 = loc("inductor_cache/63/c63kxhlttoxzkidnkkjxwkyyple4edb2so7qozuhpyrqvcw5ksbo.py":33:35)
#loc14 = loc("inductor_cache/63/c63kxhlttoxzkidnkkjxwkyyple4edb2so7qozuhpyrqvcw5ksbo.py":33:30)
#loc15 = loc("inductor_cache/63/c63kxhlttoxzkidnkkjxwkyyple4edb2so7qozuhpyrqvcw5ksbo.py":33:50)
#loc16 = loc("inductor_cache/63/c63kxhlttoxzkidnkkjxwkyyple4edb2so7qozuhpyrqvcw5ksbo.py":33:43)
#loc17 = loc("inductor_cache/63/c63kxhlttoxzkidnkkjxwkyyple4edb2so7qozuhpyrqvcw5ksbo.py":34:19)
#loc18 = loc("inductor_cache/63/c63kxhlttoxzkidnkkjxwkyyple4edb2so7qozuhpyrqvcw5ksbo.py":36:18)
#loc19 = loc("inductor_cache/63/c63kxhlttoxzkidnkkjxwkyyple4edb2so7qozuhpyrqvcw5ksbo.py":37:18)
#loc20 = loc("inductor_cache/63/c63kxhlttoxzkidnkkjxwkyyple4edb2so7qozuhpyrqvcw5ksbo.py":38:31)
#loc21 = loc("inductor_cache/63/c63kxhlttoxzkidnkkjxwkyyple4edb2so7qozuhpyrqvcw5ksbo.py":38:51)
#loc22 = loc("inductor_cache/63/c63kxhlttoxzkidnkkjxwkyyple4edb2so7qozuhpyrqvcw5ksbo.py":38:44)
#loc23 = loc("inductor_cache/63/c63kxhlttoxzkidnkkjxwkyyple4edb2so7qozuhpyrqvcw5ksbo.py":39:20)
#loc24 = loc("inductor_cache/63/c63kxhlttoxzkidnkkjxwkyyple4edb2so7qozuhpyrqvcw5ksbo.py":41:19)
#loc25 = loc("inductor_cache/63/c63kxhlttoxzkidnkkjxwkyyple4edb2so7qozuhpyrqvcw5ksbo.py":42:20)
#loc26 = loc("inductor_cache/63/c63kxhlttoxzkidnkkjxwkyyple4edb2so7qozuhpyrqvcw5ksbo.py":43:36)
#loc27 = loc("inductor_cache/63/c63kxhlttoxzkidnkkjxwkyyple4edb2so7qozuhpyrqvcw5ksbo.py":43:41)
#loc28 = loc("inductor_cache/63/c63kxhlttoxzkidnkkjxwkyyple4edb2so7qozuhpyrqvcw5ksbo.py":43:31)
#loc29 = loc("inductor_cache/63/c63kxhlttoxzkidnkkjxwkyyple4edb2so7qozuhpyrqvcw5ksbo.py":43:57)
#loc30 = loc("inductor_cache/63/c63kxhlttoxzkidnkkjxwkyyple4edb2so7qozuhpyrqvcw5ksbo.py":43:49)
#loc31 = loc("inductor_cache/63/c63kxhlttoxzkidnkkjxwkyyple4edb2so7qozuhpyrqvcw5ksbo.py":44:20)
#loc32 = loc("inductor_cache/63/c63kxhlttoxzkidnkkjxwkyyple4edb2so7qozuhpyrqvcw5ksbo.py":46:19)
#loc33 = loc("inductor_cache/63/c63kxhlttoxzkidnkkjxwkyyple4edb2so7qozuhpyrqvcw5ksbo.py":47:20)
#loc34 = loc("inductor_cache/63/c63kxhlttoxzkidnkkjxwkyyple4edb2so7qozuhpyrqvcw5ksbo.py":48:31)
#loc35 = loc("inductor_cache/63/c63kxhlttoxzkidnkkjxwkyyple4edb2so7qozuhpyrqvcw5ksbo.py":48:57)
#loc36 = loc("inductor_cache/63/c63kxhlttoxzkidnkkjxwkyyple4edb2so7qozuhpyrqvcw5ksbo.py":48:49)
#loc37 = loc("inductor_cache/63/c63kxhlttoxzkidnkkjxwkyyple4edb2so7qozuhpyrqvcw5ksbo.py":49:20)
#loc38 = loc("inductor_cache/63/c63kxhlttoxzkidnkkjxwkyyple4edb2so7qozuhpyrqvcw5ksbo.py":51:19)
#loc39 = loc("inductor_cache/63/c63kxhlttoxzkidnkkjxwkyyple4edb2so7qozuhpyrqvcw5ksbo.py":52:20)
#loc40 = loc("inductor_cache/63/c63kxhlttoxzkidnkkjxwkyyple4edb2so7qozuhpyrqvcw5ksbo.py":53:36)
#loc41 = loc("inductor_cache/63/c63kxhlttoxzkidnkkjxwkyyple4edb2so7qozuhpyrqvcw5ksbo.py":53:41)
#loc42 = loc("inductor_cache/63/c63kxhlttoxzkidnkkjxwkyyple4edb2so7qozuhpyrqvcw5ksbo.py":53:31)
#loc43 = loc("inductor_cache/63/c63kxhlttoxzkidnkkjxwkyyple4edb2so7qozuhpyrqvcw5ksbo.py":53:57)
#loc44 = loc("inductor_cache/63/c63kxhlttoxzkidnkkjxwkyyple4edb2so7qozuhpyrqvcw5ksbo.py":53:49)
#loc45 = loc("inductor_cache/63/c63kxhlttoxzkidnkkjxwkyyple4edb2so7qozuhpyrqvcw5ksbo.py":54:20)
#loc46 = loc("inductor_cache/63/c63kxhlttoxzkidnkkjxwkyyple4edb2so7qozuhpyrqvcw5ksbo.py":56:19)
#loc47 = loc("inductor_cache/63/c63kxhlttoxzkidnkkjxwkyyple4edb2so7qozuhpyrqvcw5ksbo.py":57:20)
#loc48 = loc("inductor_cache/63/c63kxhlttoxzkidnkkjxwkyyple4edb2so7qozuhpyrqvcw5ksbo.py":58:31)
#loc49 = loc("inductor_cache/63/c63kxhlttoxzkidnkkjxwkyyple4edb2so7qozuhpyrqvcw5ksbo.py":58:57)
#loc50 = loc("inductor_cache/63/c63kxhlttoxzkidnkkjxwkyyple4edb2so7qozuhpyrqvcw5ksbo.py":58:49)
#loc51 = loc("inductor_cache/63/c63kxhlttoxzkidnkkjxwkyyple4edb2so7qozuhpyrqvcw5ksbo.py":59:20)
#loc52 = loc("inductor_cache/63/c63kxhlttoxzkidnkkjxwkyyple4edb2so7qozuhpyrqvcw5ksbo.py":61:19)
#loc53 = loc("inductor_cache/63/c63kxhlttoxzkidnkkjxwkyyple4edb2so7qozuhpyrqvcw5ksbo.py":62:20)
#loc54 = loc("inductor_cache/63/c63kxhlttoxzkidnkkjxwkyyple4edb2so7qozuhpyrqvcw5ksbo.py":63:36)
#loc55 = loc("inductor_cache/63/c63kxhlttoxzkidnkkjxwkyyple4edb2so7qozuhpyrqvcw5ksbo.py":63:41)
#loc56 = loc("inductor_cache/63/c63kxhlttoxzkidnkkjxwkyyple4edb2so7qozuhpyrqvcw5ksbo.py":63:31)
#loc57 = loc("inductor_cache/63/c63kxhlttoxzkidnkkjxwkyyple4edb2so7qozuhpyrqvcw5ksbo.py":63:57)
#loc58 = loc("inductor_cache/63/c63kxhlttoxzkidnkkjxwkyyple4edb2so7qozuhpyrqvcw5ksbo.py":63:49)
#loc59 = loc("inductor_cache/63/c63kxhlttoxzkidnkkjxwkyyple4edb2so7qozuhpyrqvcw5ksbo.py":64:20)
#loc60 = loc("inductor_cache/63/c63kxhlttoxzkidnkkjxwkyyple4edb2so7qozuhpyrqvcw5ksbo.py":67:31)
#loc61 = loc("inductor_cache/63/c63kxhlttoxzkidnkkjxwkyyple4edb2so7qozuhpyrqvcw5ksbo.py":67:57)
#loc62 = loc("inductor_cache/63/c63kxhlttoxzkidnkkjxwkyyple4edb2so7qozuhpyrqvcw5ksbo.py":67:49)
#loc63 = loc("inductor_cache/63/c63kxhlttoxzkidnkkjxwkyyple4edb2so7qozuhpyrqvcw5ksbo.py":68:35)
#loc64 = loc("inductor_cache/63/c63kxhlttoxzkidnkkjxwkyyple4edb2so7qozuhpyrqvcw5ksbo.py":69:35)
#loc65 = loc("inductor_cache/63/c63kxhlttoxzkidnkkjxwkyyple4edb2so7qozuhpyrqvcw5ksbo.py":70:35)
#loc66 = loc("inductor_cache/63/c63kxhlttoxzkidnkkjxwkyyple4edb2so7qozuhpyrqvcw5ksbo.py":71:35)
#loc67 = loc("inductor_cache/63/c63kxhlttoxzkidnkkjxwkyyple4edb2so7qozuhpyrqvcw5ksbo.py":72:35)
#loc68 = loc("inductor_cache/63/c63kxhlttoxzkidnkkjxwkyyple4edb2so7qozuhpyrqvcw5ksbo.py":73:34)
#loc69 = loc("inductor_cache/63/c63kxhlttoxzkidnkkjxwkyyple4edb2so7qozuhpyrqvcw5ksbo.py":74:33)
#loc70 = loc("inductor_cache/63/c63kxhlttoxzkidnkkjxwkyyple4edb2so7qozuhpyrqvcw5ksbo.py":75:25)
#loc71 = loc("inductor_cache/63/c63kxhlttoxzkidnkkjxwkyyple4edb2so7qozuhpyrqvcw5ksbo.py":75:37)
#loc72 = loc("inductor_cache/63/c63kxhlttoxzkidnkkjxwkyyple4edb2so7qozuhpyrqvcw5ksbo.py":75:4)
