#loc = loc("inductor_cache/au/cauyjquegba66krjnneorvbo5ijxknxrwyezga7t5gxrjfate7zs.py":19:0)
module {
  tt.func public @triton_poi_fused__adaptive_avg_pool2d_37(%arg0: !tt.ptr<f32> {tt.divisibility = 16 : i32} loc("inductor_cache/au/cauyjquegba66krjnneorvbo5ijxknxrwyezga7t5gxrjfate7zs.py":19:0), %arg1: !tt.ptr<f32> {tt.divisibility = 16 : i32} loc("inductor_cache/au/cauyjquegba66krjnneorvbo5ijxknxrwyezga7t5gxrjfate7zs.py":19:0), %arg2: i32 {tt.divisibility = 16 : i32} loc("inductor_cache/au/cauyjquegba66krjnneorvbo5ijxknxrwyezga7t5gxrjfate7zs.py":19:0)) attributes {noinline = false} {
    %cst = arith.constant dense<1.000000e+00> : tensor<512xf32> loc(#loc1)
    %cst_0 = arith.constant dense<18> : tensor<512xi32> loc(#loc1)
    %cst_1 = arith.constant dense<17> : tensor<512xi32> loc(#loc1)
    %cst_2 = arith.constant dense<16> : tensor<512xi32> loc(#loc1)
    %cst_3 = arith.constant dense<10> : tensor<512xi32> loc(#loc1)
    %cst_4 = arith.constant dense<9> : tensor<512xi32> loc(#loc1)
    %cst_5 = arith.constant dense<2> : tensor<512xi32> loc(#loc1)
    %cst_6 = arith.constant dense<1> : tensor<512xi32> loc(#loc1)
    %cst_7 = arith.constant dense<0.000000e+00> : tensor<512xf32> loc(#loc1)
    %cst_8 = arith.constant dense<64> : tensor<512xi32> loc(#loc1)
    %cst_9 = arith.constant dense<13> : tensor<512xi32> loc(#loc1)
    %cst_10 = arith.constant dense<8> : tensor<512xi32> loc(#loc1)
    %cst_11 = arith.constant dense<3> : tensor<512xi32> loc(#loc1)
    %cst_12 = arith.constant dense<4> : tensor<512xi32> loc(#loc1)
    %cst_13 = arith.constant dense<36> : tensor<512xi32> loc(#loc1)
    %cst_14 = arith.constant dense<6> : tensor<512xi32> loc(#loc1)
    %c512_i32 = arith.constant 512 : i32 loc(#loc1)
    %0 = tt.get_program_id x : i32 loc(#loc2)
    %1 = arith.muli %0, %c512_i32 : i32 loc(#loc3)
    %2 = tt.make_range {end = 512 : i32, start = 0 : i32} : tensor<512xi32> loc(#loc4)
    %3 = tt.splat %1 : i32 -> tensor<512xi32> loc(#loc5)
    %4 = arith.addi %3, %2 : tensor<512xi32> loc(#loc5)
    %5 = arith.divsi %4, %cst_14 : tensor<512xi32> loc(#loc6)
    %6 = arith.remsi %5, %cst_14 : tensor<512xi32> loc(#loc7)
    %7 = arith.remsi %4, %cst_14 : tensor<512xi32> loc(#loc8)
    %8 = arith.divsi %4, %cst_13 : tensor<512xi32> loc(#loc9)
    %9 = arith.muli %6, %cst_12 : tensor<512xi32> loc(#loc10)
    %10 = arith.divsi %9, %cst_11 : tensor<512xi32> loc(#loc11)
    %11 = arith.muli %6, %cst_10 : tensor<512xi32> loc(#loc12)
    %12 = arith.addi %11, %cst_9 : tensor<512xi32> loc(#loc13)
    %13 = arith.divsi %12, %cst_14 : tensor<512xi32> loc(#loc14)
    %14 = arith.cmpi slt, %10, %13 : tensor<512xi32> loc(#loc15)
    %15 = arith.muli %7, %cst_12 : tensor<512xi32> loc(#loc16)
    %16 = arith.divsi %15, %cst_11 : tensor<512xi32> loc(#loc17)
    %17 = arith.muli %7, %cst_10 : tensor<512xi32> loc(#loc18)
    %18 = arith.addi %17, %cst_9 : tensor<512xi32> loc(#loc19)
    %19 = arith.divsi %18, %cst_14 : tensor<512xi32> loc(#loc20)
    %20 = arith.cmpi slt, %16, %19 : tensor<512xi32> loc(#loc21)
    %21 = arith.andi %14, %20 : tensor<512xi1> loc(#loc22)
    %22 = arith.muli %10, %cst_10 : tensor<512xi32> loc(#loc23)
    %23 = arith.muli %8, %cst_8 : tensor<512xi32> loc(#loc24)
    %24 = arith.addi %22, %23 : tensor<512xi32> loc(#loc25)
    %25 = arith.addi %24, %16 : tensor<512xi32> loc(#loc26)
    %26 = tt.splat %arg0 : !tt.ptr<f32> -> tensor<512x!tt.ptr<f32>> loc(#loc27)
    %27 = tt.addptr %26, %25 : tensor<512x!tt.ptr<f32>>, tensor<512xi32> loc(#loc27)
    %28 = tt.load %27, %21, %cst_7 : tensor<512x!tt.ptr<f32>> loc(#loc28)
    %29 = arith.addi %16, %cst_6 : tensor<512xi32> loc(#loc29)
    %30 = arith.cmpi slt, %29, %19 : tensor<512xi32> loc(#loc30)
    %31 = arith.andi %14, %30 : tensor<512xi1> loc(#loc31)
    %32 = arith.addi %22, %cst_6 : tensor<512xi32> loc(#loc32)
    %33 = arith.addi %32, %23 : tensor<512xi32> loc(#loc33)
    %34 = arith.addi %33, %16 : tensor<512xi32> loc(#loc34)
    %35 = tt.addptr %26, %34 : tensor<512x!tt.ptr<f32>>, tensor<512xi32> loc(#loc35)
    %36 = tt.load %35, %31, %cst_7 : tensor<512x!tt.ptr<f32>> loc(#loc36)
    %37 = arith.addf %36, %28 : tensor<512xf32> loc(#loc37)
    %38 = arith.addi %16, %cst_5 : tensor<512xi32> loc(#loc38)
    %39 = arith.cmpi slt, %38, %19 : tensor<512xi32> loc(#loc39)
    %40 = arith.andi %14, %39 : tensor<512xi1> loc(#loc40)
    %41 = arith.addi %22, %cst_5 : tensor<512xi32> loc(#loc41)
    %42 = arith.addi %41, %23 : tensor<512xi32> loc(#loc42)
    %43 = arith.addi %42, %16 : tensor<512xi32> loc(#loc43)
    %44 = tt.addptr %26, %43 : tensor<512x!tt.ptr<f32>>, tensor<512xi32> loc(#loc44)
    %45 = tt.load %44, %40, %cst_7 : tensor<512x!tt.ptr<f32>> loc(#loc45)
    %46 = arith.addf %45, %37 : tensor<512xf32> loc(#loc46)
    %47 = arith.addi %10, %cst_6 : tensor<512xi32> loc(#loc47)
    %48 = arith.cmpi slt, %47, %13 : tensor<512xi32> loc(#loc48)
    %49 = arith.andi %48, %20 : tensor<512xi1> loc(#loc49)
    %50 = arith.addi %22, %cst_10 : tensor<512xi32> loc(#loc50)
    %51 = arith.addi %50, %23 : tensor<512xi32> loc(#loc51)
    %52 = arith.addi %51, %16 : tensor<512xi32> loc(#loc52)
    %53 = tt.addptr %26, %52 : tensor<512x!tt.ptr<f32>>, tensor<512xi32> loc(#loc53)
    %54 = tt.load %53, %49, %cst_7 : tensor<512x!tt.ptr<f32>> loc(#loc54)
    %55 = arith.addf %54, %46 : tensor<512xf32> loc(#loc55)
    %56 = arith.andi %48, %30 : tensor<512xi1> loc(#loc56)
    %57 = arith.addi %22, %cst_4 : tensor<512xi32> loc(#loc57)
    %58 = arith.addi %57, %23 : tensor<512xi32> loc(#loc58)
    %59 = arith.addi %58, %16 : tensor<512xi32> loc(#loc59)
    %60 = tt.addptr %26, %59 : tensor<512x!tt.ptr<f32>>, tensor<512xi32> loc(#loc60)
    %61 = tt.load %60, %56, %cst_7 : tensor<512x!tt.ptr<f32>> loc(#loc61)
    %62 = arith.addf %61, %55 : tensor<512xf32> loc(#loc62)
    %63 = arith.andi %48, %39 : tensor<512xi1> loc(#loc63)
    %64 = arith.addi %22, %cst_3 : tensor<512xi32> loc(#loc64)
    %65 = arith.addi %64, %23 : tensor<512xi32> loc(#loc65)
    %66 = arith.addi %65, %16 : tensor<512xi32> loc(#loc66)
    %67 = tt.addptr %26, %66 : tensor<512x!tt.ptr<f32>>, tensor<512xi32> loc(#loc67)
    %68 = tt.load %67, %63, %cst_7 : tensor<512x!tt.ptr<f32>> loc(#loc68)
    %69 = arith.addf %68, %62 : tensor<512xf32> loc(#loc69)
    %70 = arith.addi %10, %cst_5 : tensor<512xi32> loc(#loc70)
    %71 = arith.cmpi slt, %70, %13 : tensor<512xi32> loc(#loc71)
    %72 = arith.andi %71, %20 : tensor<512xi1> loc(#loc72)
    %73 = arith.addi %22, %cst_2 : tensor<512xi32> loc(#loc73)
    %74 = arith.addi %73, %23 : tensor<512xi32> loc(#loc74)
    %75 = arith.addi %74, %16 : tensor<512xi32> loc(#loc75)
    %76 = tt.addptr %26, %75 : tensor<512x!tt.ptr<f32>>, tensor<512xi32> loc(#loc76)
    %77 = tt.load %76, %72, %cst_7 : tensor<512x!tt.ptr<f32>> loc(#loc77)
    %78 = arith.addf %77, %69 : tensor<512xf32> loc(#loc78)
    %79 = arith.andi %71, %30 : tensor<512xi1> loc(#loc79)
    %80 = arith.addi %22, %cst_1 : tensor<512xi32> loc(#loc80)
    %81 = arith.addi %80, %23 : tensor<512xi32> loc(#loc81)
    %82 = arith.addi %81, %16 : tensor<512xi32> loc(#loc82)
    %83 = tt.addptr %26, %82 : tensor<512x!tt.ptr<f32>>, tensor<512xi32> loc(#loc83)
    %84 = tt.load %83, %79, %cst_7 : tensor<512x!tt.ptr<f32>> loc(#loc84)
    %85 = arith.addf %84, %78 : tensor<512xf32> loc(#loc85)
    %86 = arith.andi %71, %39 : tensor<512xi1> loc(#loc86)
    %87 = arith.addi %22, %cst_0 : tensor<512xi32> loc(#loc87)
    %88 = arith.addi %87, %23 : tensor<512xi32> loc(#loc88)
    %89 = arith.addi %88, %16 : tensor<512xi32> loc(#loc89)
    %90 = tt.addptr %26, %89 : tensor<512x!tt.ptr<f32>>, tensor<512xi32> loc(#loc90)
    %91 = tt.load %90, %86, %cst_7 : tensor<512x!tt.ptr<f32>> loc(#loc91)
    %92 = arith.addf %91, %85 : tensor<512xf32> loc(#loc92)
    %93 = arith.select %21, %cst, %cst_7 : tensor<512xi1>, tensor<512xf32> loc(#loc93)
    %94 = arith.select %31, %cst, %cst_7 : tensor<512xi1>, tensor<512xf32> loc(#loc94)
    %95 = arith.addf %94, %93 : tensor<512xf32> loc(#loc95)
    %96 = arith.select %40, %cst, %cst_7 : tensor<512xi1>, tensor<512xf32> loc(#loc96)
    %97 = arith.addf %96, %95 : tensor<512xf32> loc(#loc97)
    %98 = arith.select %49, %cst, %cst_7 : tensor<512xi1>, tensor<512xf32> loc(#loc98)
    %99 = arith.addf %98, %97 : tensor<512xf32> loc(#loc99)
    %100 = arith.select %56, %cst, %cst_7 : tensor<512xi1>, tensor<512xf32> loc(#loc100)
    %101 = arith.addf %100, %99 : tensor<512xf32> loc(#loc101)
    %102 = arith.select %63, %cst, %cst_7 : tensor<512xi1>, tensor<512xf32> loc(#loc102)
    %103 = arith.addf %102, %101 : tensor<512xf32> loc(#loc103)
    %104 = arith.select %72, %cst, %cst_7 : tensor<512xi1>, tensor<512xf32> loc(#loc104)
    %105 = arith.addf %104, %103 : tensor<512xf32> loc(#loc105)
    %106 = arith.select %79, %cst, %cst_7 : tensor<512xi1>, tensor<512xf32> loc(#loc106)
    %107 = arith.addf %106, %105 : tensor<512xf32> loc(#loc107)
    %108 = arith.select %86, %cst, %cst_7 : tensor<512xi1>, tensor<512xf32> loc(#loc108)
    %109 = arith.addf %108, %107 : tensor<512xf32> loc(#loc109)
    %110 = arith.divf %92, %109 : tensor<512xf32> loc(#loc110)
    %111 = tt.splat %arg1 : !tt.ptr<f32> -> tensor<512x!tt.ptr<f32>> loc(#loc111)
    %112 = tt.addptr %111, %4 : tensor<512x!tt.ptr<f32>>, tensor<512xi32> loc(#loc111)
    tt.store %112, %110 : tensor<512x!tt.ptr<f32>> loc(#loc112)
    tt.return loc(#loc113)
  } loc(#loc)
} loc(#loc)
#loc1 = loc(unknown)
#loc2 = loc("inductor_cache/au/cauyjquegba66krjnneorvbo5ijxknxrwyezga7t5gxrjfate7zs.py":21:28)
#loc3 = loc("inductor_cache/au/cauyjquegba66krjnneorvbo5ijxknxrwyezga7t5gxrjfate7zs.py":21:33)
#loc4 = loc("inductor_cache/au/cauyjquegba66krjnneorvbo5ijxknxrwyezga7t5gxrjfate7zs.py":22:36)
#loc5 = loc("inductor_cache/au/cauyjquegba66krjnneorvbo5ijxknxrwyezga7t5gxrjfate7zs.py":22:23)
#loc6 = loc("inductor_cache/au/cauyjquegba66krjnneorvbo5ijxknxrwyezga7t5gxrjfate7zs.py":24:21)
#loc7 = loc("inductor_cache/au/cauyjquegba66krjnneorvbo5ijxknxrwyezga7t5gxrjfate7zs.py":24:26)
#loc8 = loc("inductor_cache/au/cauyjquegba66krjnneorvbo5ijxknxrwyezga7t5gxrjfate7zs.py":25:19)
#loc9 = loc("inductor_cache/au/cauyjquegba66krjnneorvbo5ijxknxrwyezga7t5gxrjfate7zs.py":26:19)
#loc10 = loc("inductor_cache/au/cauyjquegba66krjnneorvbo5ijxknxrwyezga7t5gxrjfate7zs.py":28:14)
#loc11 = loc("inductor_cache/au/cauyjquegba66krjnneorvbo5ijxknxrwyezga7t5gxrjfate7zs.py":28:21)
#loc12 = loc("inductor_cache/au/cauyjquegba66krjnneorvbo5ijxknxrwyezga7t5gxrjfate7zs.py":29:19)
#loc13 = loc("inductor_cache/au/cauyjquegba66krjnneorvbo5ijxknxrwyezga7t5gxrjfate7zs.py":29:17)
#loc14 = loc("inductor_cache/au/cauyjquegba66krjnneorvbo5ijxknxrwyezga7t5gxrjfate7zs.py":29:26)
#loc15 = loc("inductor_cache/au/cauyjquegba66krjnneorvbo5ijxknxrwyezga7t5gxrjfate7zs.py":30:18)
#loc16 = loc("inductor_cache/au/cauyjquegba66krjnneorvbo5ijxknxrwyezga7t5gxrjfate7zs.py":31:14)
#loc17 = loc("inductor_cache/au/cauyjquegba66krjnneorvbo5ijxknxrwyezga7t5gxrjfate7zs.py":31:21)
#loc18 = loc("inductor_cache/au/cauyjquegba66krjnneorvbo5ijxknxrwyezga7t5gxrjfate7zs.py":32:19)
#loc19 = loc("inductor_cache/au/cauyjquegba66krjnneorvbo5ijxknxrwyezga7t5gxrjfate7zs.py":32:17)
#loc20 = loc("inductor_cache/au/cauyjquegba66krjnneorvbo5ijxknxrwyezga7t5gxrjfate7zs.py":32:26)
#loc21 = loc("inductor_cache/au/cauyjquegba66krjnneorvbo5ijxknxrwyezga7t5gxrjfate7zs.py":33:18)
#loc22 = loc("inductor_cache/au/cauyjquegba66krjnneorvbo5ijxknxrwyezga7t5gxrjfate7zs.py":34:18)
#loc23 = loc("inductor_cache/au/cauyjquegba66krjnneorvbo5ijxknxrwyezga7t5gxrjfate7zs.py":35:33)
#loc24 = loc("inductor_cache/au/cauyjquegba66krjnneorvbo5ijxknxrwyezga7t5gxrjfate7zs.py":35:51)
#loc25 = loc("inductor_cache/au/cauyjquegba66krjnneorvbo5ijxknxrwyezga7t5gxrjfate7zs.py":35:48)
#loc26 = loc("inductor_cache/au/cauyjquegba66krjnneorvbo5ijxknxrwyezga7t5gxrjfate7zs.py":35:57)
#loc27 = loc("inductor_cache/au/cauyjquegba66krjnneorvbo5ijxknxrwyezga7t5gxrjfate7zs.py":35:30)
#loc28 = loc("inductor_cache/au/cauyjquegba66krjnneorvbo5ijxknxrwyezga7t5gxrjfate7zs.py":35:72)
#loc29 = loc("inductor_cache/au/cauyjquegba66krjnneorvbo5ijxknxrwyezga7t5gxrjfate7zs.py":36:16)
#loc30 = loc("inductor_cache/au/cauyjquegba66krjnneorvbo5ijxknxrwyezga7t5gxrjfate7zs.py":37:18)
#loc31 = loc("inductor_cache/au/cauyjquegba66krjnneorvbo5ijxknxrwyezga7t5gxrjfate7zs.py":38:19)
#loc32 = loc("inductor_cache/au/cauyjquegba66krjnneorvbo5ijxknxrwyezga7t5gxrjfate7zs.py":39:35)
#loc33 = loc("inductor_cache/au/cauyjquegba66krjnneorvbo5ijxknxrwyezga7t5gxrjfate7zs.py":39:53)
#loc34 = loc("inductor_cache/au/cauyjquegba66krjnneorvbo5ijxknxrwyezga7t5gxrjfate7zs.py":39:62)
#loc35 = loc("inductor_cache/au/cauyjquegba66krjnneorvbo5ijxknxrwyezga7t5gxrjfate7zs.py":39:31)
#loc36 = loc("inductor_cache/au/cauyjquegba66krjnneorvbo5ijxknxrwyezga7t5gxrjfate7zs.py":39:77)
#loc37 = loc("inductor_cache/au/cauyjquegba66krjnneorvbo5ijxknxrwyezga7t5gxrjfate7zs.py":40:20)
#loc38 = loc("inductor_cache/au/cauyjquegba66krjnneorvbo5ijxknxrwyezga7t5gxrjfate7zs.py":41:17)
#loc39 = loc("inductor_cache/au/cauyjquegba66krjnneorvbo5ijxknxrwyezga7t5gxrjfate7zs.py":42:20)
#loc40 = loc("inductor_cache/au/cauyjquegba66krjnneorvbo5ijxknxrwyezga7t5gxrjfate7zs.py":43:19)
#loc41 = loc("inductor_cache/au/cauyjquegba66krjnneorvbo5ijxknxrwyezga7t5gxrjfate7zs.py":44:35)
#loc42 = loc("inductor_cache/au/cauyjquegba66krjnneorvbo5ijxknxrwyezga7t5gxrjfate7zs.py":44:53)
#loc43 = loc("inductor_cache/au/cauyjquegba66krjnneorvbo5ijxknxrwyezga7t5gxrjfate7zs.py":44:62)
#loc44 = loc("inductor_cache/au/cauyjquegba66krjnneorvbo5ijxknxrwyezga7t5gxrjfate7zs.py":44:31)
#loc45 = loc("inductor_cache/au/cauyjquegba66krjnneorvbo5ijxknxrwyezga7t5gxrjfate7zs.py":44:77)
#loc46 = loc("inductor_cache/au/cauyjquegba66krjnneorvbo5ijxknxrwyezga7t5gxrjfate7zs.py":45:20)
#loc47 = loc("inductor_cache/au/cauyjquegba66krjnneorvbo5ijxknxrwyezga7t5gxrjfate7zs.py":46:17)
#loc48 = loc("inductor_cache/au/cauyjquegba66krjnneorvbo5ijxknxrwyezga7t5gxrjfate7zs.py":47:20)
#loc49 = loc("inductor_cache/au/cauyjquegba66krjnneorvbo5ijxknxrwyezga7t5gxrjfate7zs.py":48:20)
#loc50 = loc("inductor_cache/au/cauyjquegba66krjnneorvbo5ijxknxrwyezga7t5gxrjfate7zs.py":49:35)
#loc51 = loc("inductor_cache/au/cauyjquegba66krjnneorvbo5ijxknxrwyezga7t5gxrjfate7zs.py":49:53)
#loc52 = loc("inductor_cache/au/cauyjquegba66krjnneorvbo5ijxknxrwyezga7t5gxrjfate7zs.py":49:62)
#loc53 = loc("inductor_cache/au/cauyjquegba66krjnneorvbo5ijxknxrwyezga7t5gxrjfate7zs.py":49:31)
#loc54 = loc("inductor_cache/au/cauyjquegba66krjnneorvbo5ijxknxrwyezga7t5gxrjfate7zs.py":49:77)
#loc55 = loc("inductor_cache/au/cauyjquegba66krjnneorvbo5ijxknxrwyezga7t5gxrjfate7zs.py":50:20)
#loc56 = loc("inductor_cache/au/cauyjquegba66krjnneorvbo5ijxknxrwyezga7t5gxrjfate7zs.py":51:20)
#loc57 = loc("inductor_cache/au/cauyjquegba66krjnneorvbo5ijxknxrwyezga7t5gxrjfate7zs.py":52:35)
#loc58 = loc("inductor_cache/au/cauyjquegba66krjnneorvbo5ijxknxrwyezga7t5gxrjfate7zs.py":52:53)
#loc59 = loc("inductor_cache/au/cauyjquegba66krjnneorvbo5ijxknxrwyezga7t5gxrjfate7zs.py":52:62)
#loc60 = loc("inductor_cache/au/cauyjquegba66krjnneorvbo5ijxknxrwyezga7t5gxrjfate7zs.py":52:31)
#loc61 = loc("inductor_cache/au/cauyjquegba66krjnneorvbo5ijxknxrwyezga7t5gxrjfate7zs.py":52:77)
#loc62 = loc("inductor_cache/au/cauyjquegba66krjnneorvbo5ijxknxrwyezga7t5gxrjfate7zs.py":53:20)
#loc63 = loc("inductor_cache/au/cauyjquegba66krjnneorvbo5ijxknxrwyezga7t5gxrjfate7zs.py":54:20)
#loc64 = loc("inductor_cache/au/cauyjquegba66krjnneorvbo5ijxknxrwyezga7t5gxrjfate7zs.py":55:36)
#loc65 = loc("inductor_cache/au/cauyjquegba66krjnneorvbo5ijxknxrwyezga7t5gxrjfate7zs.py":55:54)
#loc66 = loc("inductor_cache/au/cauyjquegba66krjnneorvbo5ijxknxrwyezga7t5gxrjfate7zs.py":55:63)
#loc67 = loc("inductor_cache/au/cauyjquegba66krjnneorvbo5ijxknxrwyezga7t5gxrjfate7zs.py":55:31)
#loc68 = loc("inductor_cache/au/cauyjquegba66krjnneorvbo5ijxknxrwyezga7t5gxrjfate7zs.py":55:78)
#loc69 = loc("inductor_cache/au/cauyjquegba66krjnneorvbo5ijxknxrwyezga7t5gxrjfate7zs.py":56:20)
#loc70 = loc("inductor_cache/au/cauyjquegba66krjnneorvbo5ijxknxrwyezga7t5gxrjfate7zs.py":57:17)
#loc71 = loc("inductor_cache/au/cauyjquegba66krjnneorvbo5ijxknxrwyezga7t5gxrjfate7zs.py":58:20)
#loc72 = loc("inductor_cache/au/cauyjquegba66krjnneorvbo5ijxknxrwyezga7t5gxrjfate7zs.py":59:20)
#loc73 = loc("inductor_cache/au/cauyjquegba66krjnneorvbo5ijxknxrwyezga7t5gxrjfate7zs.py":60:36)
#loc74 = loc("inductor_cache/au/cauyjquegba66krjnneorvbo5ijxknxrwyezga7t5gxrjfate7zs.py":60:54)
#loc75 = loc("inductor_cache/au/cauyjquegba66krjnneorvbo5ijxknxrwyezga7t5gxrjfate7zs.py":60:63)
#loc76 = loc("inductor_cache/au/cauyjquegba66krjnneorvbo5ijxknxrwyezga7t5gxrjfate7zs.py":60:31)
#loc77 = loc("inductor_cache/au/cauyjquegba66krjnneorvbo5ijxknxrwyezga7t5gxrjfate7zs.py":60:78)
#loc78 = loc("inductor_cache/au/cauyjquegba66krjnneorvbo5ijxknxrwyezga7t5gxrjfate7zs.py":61:20)
#loc79 = loc("inductor_cache/au/cauyjquegba66krjnneorvbo5ijxknxrwyezga7t5gxrjfate7zs.py":62:20)
#loc80 = loc("inductor_cache/au/cauyjquegba66krjnneorvbo5ijxknxrwyezga7t5gxrjfate7zs.py":63:36)
#loc81 = loc("inductor_cache/au/cauyjquegba66krjnneorvbo5ijxknxrwyezga7t5gxrjfate7zs.py":63:54)
#loc82 = loc("inductor_cache/au/cauyjquegba66krjnneorvbo5ijxknxrwyezga7t5gxrjfate7zs.py":63:63)
#loc83 = loc("inductor_cache/au/cauyjquegba66krjnneorvbo5ijxknxrwyezga7t5gxrjfate7zs.py":63:31)
#loc84 = loc("inductor_cache/au/cauyjquegba66krjnneorvbo5ijxknxrwyezga7t5gxrjfate7zs.py":63:78)
#loc85 = loc("inductor_cache/au/cauyjquegba66krjnneorvbo5ijxknxrwyezga7t5gxrjfate7zs.py":64:20)
#loc86 = loc("inductor_cache/au/cauyjquegba66krjnneorvbo5ijxknxrwyezga7t5gxrjfate7zs.py":65:20)
#loc87 = loc("inductor_cache/au/cauyjquegba66krjnneorvbo5ijxknxrwyezga7t5gxrjfate7zs.py":66:36)
#loc88 = loc("inductor_cache/au/cauyjquegba66krjnneorvbo5ijxknxrwyezga7t5gxrjfate7zs.py":66:54)
#loc89 = loc("inductor_cache/au/cauyjquegba66krjnneorvbo5ijxknxrwyezga7t5gxrjfate7zs.py":66:63)
#loc90 = loc("inductor_cache/au/cauyjquegba66krjnneorvbo5ijxknxrwyezga7t5gxrjfate7zs.py":66:31)
#loc91 = loc("inductor_cache/au/cauyjquegba66krjnneorvbo5ijxknxrwyezga7t5gxrjfate7zs.py":66:78)
#loc92 = loc("inductor_cache/au/cauyjquegba66krjnneorvbo5ijxknxrwyezga7t5gxrjfate7zs.py":67:20)
#loc93 = loc("inductor_cache/au/cauyjquegba66krjnneorvbo5ijxknxrwyezga7t5gxrjfate7zs.py":70:34)
#loc94 = loc("inductor_cache/au/cauyjquegba66krjnneorvbo5ijxknxrwyezga7t5gxrjfate7zs.py":73:35)
#loc95 = loc("inductor_cache/au/cauyjquegba66krjnneorvbo5ijxknxrwyezga7t5gxrjfate7zs.py":74:20)
#loc96 = loc("inductor_cache/au/cauyjquegba66krjnneorvbo5ijxknxrwyezga7t5gxrjfate7zs.py":77:35)
#loc97 = loc("inductor_cache/au/cauyjquegba66krjnneorvbo5ijxknxrwyezga7t5gxrjfate7zs.py":78:20)
#loc98 = loc("inductor_cache/au/cauyjquegba66krjnneorvbo5ijxknxrwyezga7t5gxrjfate7zs.py":81:35)
#loc99 = loc("inductor_cache/au/cauyjquegba66krjnneorvbo5ijxknxrwyezga7t5gxrjfate7zs.py":82:20)
#loc100 = loc("inductor_cache/au/cauyjquegba66krjnneorvbo5ijxknxrwyezga7t5gxrjfate7zs.py":85:35)
#loc101 = loc("inductor_cache/au/cauyjquegba66krjnneorvbo5ijxknxrwyezga7t5gxrjfate7zs.py":86:20)
#loc102 = loc("inductor_cache/au/cauyjquegba66krjnneorvbo5ijxknxrwyezga7t5gxrjfate7zs.py":89:35)
#loc103 = loc("inductor_cache/au/cauyjquegba66krjnneorvbo5ijxknxrwyezga7t5gxrjfate7zs.py":90:20)
#loc104 = loc("inductor_cache/au/cauyjquegba66krjnneorvbo5ijxknxrwyezga7t5gxrjfate7zs.py":93:35)
#loc105 = loc("inductor_cache/au/cauyjquegba66krjnneorvbo5ijxknxrwyezga7t5gxrjfate7zs.py":94:20)
#loc106 = loc("inductor_cache/au/cauyjquegba66krjnneorvbo5ijxknxrwyezga7t5gxrjfate7zs.py":97:35)
#loc107 = loc("inductor_cache/au/cauyjquegba66krjnneorvbo5ijxknxrwyezga7t5gxrjfate7zs.py":98:20)
#loc108 = loc("inductor_cache/au/cauyjquegba66krjnneorvbo5ijxknxrwyezga7t5gxrjfate7zs.py":101:35)
#loc109 = loc("inductor_cache/au/cauyjquegba66krjnneorvbo5ijxknxrwyezga7t5gxrjfate7zs.py":102:20)
#loc110 = loc("inductor_cache/au/cauyjquegba66krjnneorvbo5ijxknxrwyezga7t5gxrjfate7zs.py":103:20)
#loc111 = loc("inductor_cache/au/cauyjquegba66krjnneorvbo5ijxknxrwyezga7t5gxrjfate7zs.py":104:25)
#loc112 = loc("inductor_cache/au/cauyjquegba66krjnneorvbo5ijxknxrwyezga7t5gxrjfate7zs.py":104:37)
#loc113 = loc("inductor_cache/au/cauyjquegba66krjnneorvbo5ijxknxrwyezga7t5gxrjfate7zs.py":104:4)
