#loc = loc("inductor_cache/d2/cd2ggibz6vxklq2326sqtbx7yysxhcvs2slnb4kbigqzuuge6riw.py":19:0)
module {
  tt.func public @triton_poi_fused_cat_3(%arg0: !tt.ptr<f32> {tt.divisibility = 16 : i32} loc("inductor_cache/d2/cd2ggibz6vxklq2326sqtbx7yysxhcvs2slnb4kbigqzuuge6riw.py":19:0), %arg1: !tt.ptr<f32> {tt.divisibility = 16 : i32} loc("inductor_cache/d2/cd2ggibz6vxklq2326sqtbx7yysxhcvs2slnb4kbigqzuuge6riw.py":19:0), %arg2: !tt.ptr<f32> {tt.divisibility = 16 : i32} loc("inductor_cache/d2/cd2ggibz6vxklq2326sqtbx7yysxhcvs2slnb4kbigqzuuge6riw.py":19:0), %arg3: !tt.ptr<f32> {tt.divisibility = 16 : i32} loc("inductor_cache/d2/cd2ggibz6vxklq2326sqtbx7yysxhcvs2slnb4kbigqzuuge6riw.py":19:0), %arg4: i32 {tt.divisibility = 16 : i32} loc("inductor_cache/d2/cd2ggibz6vxklq2326sqtbx7yysxhcvs2slnb4kbigqzuuge6riw.py":19:0)) attributes {noinline = false} {
    %cst = arith.constant dense<64> : tensor<256xi32> loc(#loc1)
    %cst_0 = arith.constant dense<-12> : tensor<256xi32> loc(#loc1)
    %cst_1 = arith.constant dense<0.000000e+00> : tensor<256xf32> loc(#loc1)
    %cst_2 = arith.constant dense<192> : tensor<256xi32> loc(#loc1)
    %cst_3 = arith.constant dense<12> : tensor<256xi64> loc(#loc1)
    %cst_4 = arith.constant dense<256> : tensor<256xi32> loc(#loc1)
    %cst_5 = arith.constant dense<16> : tensor<256xi32> loc(#loc1)
    %cst_6 = arith.constant dense<1024> : tensor<256xi32> loc(#loc1)
    %c256_i32 = arith.constant 256 : i32 loc(#loc1)
    %0 = tt.get_program_id x : i32 loc(#loc2)
    %1 = arith.muli %0, %c256_i32 : i32 loc(#loc3)
    %2 = tt.make_range {end = 256 : i32, start = 0 : i32} : tensor<256xi32> loc(#loc4)
    %3 = tt.splat %1 : i32 -> tensor<256xi32> loc(#loc5)
    %4 = arith.addi %3, %2 : tensor<256xi32> loc(#loc5)
    %5 = arith.cmpi slt, %4, %cst_6 : tensor<256xi32> loc(#loc6)
    %6 = arith.divsi %4, %cst_5 : tensor<256xi32> loc(#loc7)
    %7 = arith.remsi %6, %cst_5 : tensor<256xi32> loc(#loc8)
    %8 = arith.remsi %4, %cst_5 : tensor<256xi32> loc(#loc9)
    %9 = arith.divsi %4, %cst_4 : tensor<256xi32> loc(#loc10)
    %10 = arith.extsi %7 : tensor<256xi32> to tensor<256xi64> loc(#loc11)
    %11 = arith.cmpi slt, %10, %cst_3 : tensor<256xi64> loc(#loc11)
    %12 = arith.muli %7, %cst_5 : tensor<256xi32> loc(#loc12)
    %13 = arith.addi %8, %12 : tensor<256xi32> loc(#loc13)
    %14 = arith.muli %9, %cst_2 : tensor<256xi32> loc(#loc14)
    %15 = arith.addi %13, %14 : tensor<256xi32> loc(#loc15)
    %16 = tt.splat %arg0 : !tt.ptr<f32> -> tensor<256x!tt.ptr<f32>> loc(#loc16)
    %17 = tt.addptr %16, %15 : tensor<256x!tt.ptr<f32>>, tensor<256xi32> loc(#loc16)
    %18 = arith.andi %11, %5 : tensor<256xi1> loc(#loc17)
    %19 = tt.load %17, %18, %cst_1 : tensor<256x!tt.ptr<f32>> loc(#loc18)
    %20 = arith.cmpi sge, %10, %cst_3 : tensor<256xi64> loc(#loc19)
    %21 = arith.addi %7, %cst_0 : tensor<256xi32> loc(#loc20)
    %22 = arith.muli %21, %cst_5 : tensor<256xi32> loc(#loc21)
    %23 = arith.addi %8, %22 : tensor<256xi32> loc(#loc22)
    %24 = arith.muli %9, %cst : tensor<256xi32> loc(#loc23)
    %25 = arith.addi %23, %24 : tensor<256xi32> loc(#loc24)
    %26 = tt.splat %arg1 : !tt.ptr<f32> -> tensor<256x!tt.ptr<f32>> loc(#loc25)
    %27 = tt.addptr %26, %25 : tensor<256x!tt.ptr<f32>>, tensor<256xi32> loc(#loc25)
    %28 = arith.andi %20, %5 : tensor<256xi1> loc(#loc26)
    %29 = tt.load %27, %28, %cst_1 : tensor<256x!tt.ptr<f32>> loc(#loc27)
    %30 = tt.splat %arg2 : !tt.ptr<f32> -> tensor<256x!tt.ptr<f32>> loc(#loc28)
    %31 = tt.addptr %30, %21 : tensor<256x!tt.ptr<f32>>, tensor<256xi32> loc(#loc28)
    %32 = tt.load %31, %28, %cst_1 evictionPolicy = evict_last : tensor<256x!tt.ptr<f32>> loc(#loc29)
    %33 = arith.addf %29, %32 : tensor<256xf32> loc(#loc30)
    %34 = arith.cmpf ogt, %cst_1, %33 : tensor<256xf32> loc(#loc39)
    %35 = arith.select %34, %cst_1, %33 : tensor<256xi1>, tensor<256xf32> loc(#loc40)
    %36 = arith.select %20, %35, %cst_1 : tensor<256xi1>, tensor<256xf32> loc(#loc34)
    %37 = arith.select %11, %19, %36 : tensor<256xi1>, tensor<256xf32> loc(#loc35)
    %38 = tt.splat %arg3 : !tt.ptr<f32> -> tensor<256x!tt.ptr<f32>> loc(#loc36)
    %39 = tt.addptr %38, %4 : tensor<256x!tt.ptr<f32>>, tensor<256xi32> loc(#loc36)
    tt.store %39, %37, %5 : tensor<256x!tt.ptr<f32>> loc(#loc37)
    tt.return loc(#loc38)
  } loc(#loc)
} loc(#loc)
#loc1 = loc(unknown)
#loc2 = loc("inductor_cache/d2/cd2ggibz6vxklq2326sqtbx7yysxhcvs2slnb4kbigqzuuge6riw.py":21:28)
#loc3 = loc("inductor_cache/d2/cd2ggibz6vxklq2326sqtbx7yysxhcvs2slnb4kbigqzuuge6riw.py":21:33)
#loc4 = loc("inductor_cache/d2/cd2ggibz6vxklq2326sqtbx7yysxhcvs2slnb4kbigqzuuge6riw.py":22:36)
#loc5 = loc("inductor_cache/d2/cd2ggibz6vxklq2326sqtbx7yysxhcvs2slnb4kbigqzuuge6riw.py":22:23)
#loc6 = loc("inductor_cache/d2/cd2ggibz6vxklq2326sqtbx7yysxhcvs2slnb4kbigqzuuge6riw.py":23:21)
#loc7 = loc("inductor_cache/d2/cd2ggibz6vxklq2326sqtbx7yysxhcvs2slnb4kbigqzuuge6riw.py":24:21)
#loc8 = loc("inductor_cache/d2/cd2ggibz6vxklq2326sqtbx7yysxhcvs2slnb4kbigqzuuge6riw.py":24:27)
#loc9 = loc("inductor_cache/d2/cd2ggibz6vxklq2326sqtbx7yysxhcvs2slnb4kbigqzuuge6riw.py":25:19)
#loc10 = loc("inductor_cache/d2/cd2ggibz6vxklq2326sqtbx7yysxhcvs2slnb4kbigqzuuge6riw.py":26:19)
#loc11 = loc("inductor_cache/d2/cd2ggibz6vxklq2326sqtbx7yysxhcvs2slnb4kbigqzuuge6riw.py":32:18)
#loc12 = loc("inductor_cache/d2/cd2ggibz6vxklq2326sqtbx7yysxhcvs2slnb4kbigqzuuge6riw.py":33:39)
#loc13 = loc("inductor_cache/d2/cd2ggibz6vxklq2326sqtbx7yysxhcvs2slnb4kbigqzuuge6riw.py":33:35)
#loc14 = loc("inductor_cache/d2/cd2ggibz6vxklq2326sqtbx7yysxhcvs2slnb4kbigqzuuge6riw.py":33:49)
#loc15 = loc("inductor_cache/d2/cd2ggibz6vxklq2326sqtbx7yysxhcvs2slnb4kbigqzuuge6riw.py":33:45)
#loc16 = loc("inductor_cache/d2/cd2ggibz6vxklq2326sqtbx7yysxhcvs2slnb4kbigqzuuge6riw.py":33:30)
#loc17 = loc("inductor_cache/d2/cd2ggibz6vxklq2326sqtbx7yysxhcvs2slnb4kbigqzuuge6riw.py":33:61)
#loc18 = loc("inductor_cache/d2/cd2ggibz6vxklq2326sqtbx7yysxhcvs2slnb4kbigqzuuge6riw.py":33:54)
#loc19 = loc("inductor_cache/d2/cd2ggibz6vxklq2326sqtbx7yysxhcvs2slnb4kbigqzuuge6riw.py":34:19)
#loc20 = loc("inductor_cache/d2/cd2ggibz6vxklq2326sqtbx7yysxhcvs2slnb4kbigqzuuge6riw.py":37:47)
#loc21 = loc("inductor_cache/d2/cd2ggibz6vxklq2326sqtbx7yysxhcvs2slnb4kbigqzuuge6riw.py":37:39)
#loc22 = loc("inductor_cache/d2/cd2ggibz6vxklq2326sqtbx7yysxhcvs2slnb4kbigqzuuge6riw.py":37:35)
#loc23 = loc("inductor_cache/d2/cd2ggibz6vxklq2326sqtbx7yysxhcvs2slnb4kbigqzuuge6riw.py":37:56)
#loc24 = loc("inductor_cache/d2/cd2ggibz6vxklq2326sqtbx7yysxhcvs2slnb4kbigqzuuge6riw.py":37:53)
#loc25 = loc("inductor_cache/d2/cd2ggibz6vxklq2326sqtbx7yysxhcvs2slnb4kbigqzuuge6riw.py":37:30)
#loc26 = loc("inductor_cache/d2/cd2ggibz6vxklq2326sqtbx7yysxhcvs2slnb4kbigqzuuge6riw.py":37:68)
#loc27 = loc("inductor_cache/d2/cd2ggibz6vxklq2326sqtbx7yysxhcvs2slnb4kbigqzuuge6riw.py":37:61)
#loc28 = loc("inductor_cache/d2/cd2ggibz6vxklq2326sqtbx7yysxhcvs2slnb4kbigqzuuge6riw.py":38:31)
#loc29 = loc("inductor_cache/d2/cd2ggibz6vxklq2326sqtbx7yysxhcvs2slnb4kbigqzuuge6riw.py":38:44)
#loc30 = loc("inductor_cache/d2/cd2ggibz6vxklq2326sqtbx7yysxhcvs2slnb4kbigqzuuge6riw.py":39:19)
#loc31 = loc("/home/sahanp/.conda/envs/parity-bench/lib/python3.12/site-packages/torch/_inductor/runtime/triton_helpers.py":118:15)
#loc32 = loc("inductor_cache/d2/cd2ggibz6vxklq2326sqtbx7yysxhcvs2slnb4kbigqzuuge6riw.py":41:42)
#loc33 = loc("/home/sahanp/.conda/envs/parity-bench/lib/python3.12/site-packages/torch/_inductor/runtime/triton_helpers.py":121:29)
#loc34 = loc("inductor_cache/d2/cd2ggibz6vxklq2326sqtbx7yysxhcvs2slnb4kbigqzuuge6riw.py":43:34)
#loc35 = loc("inductor_cache/d2/cd2ggibz6vxklq2326sqtbx7yysxhcvs2slnb4kbigqzuuge6riw.py":44:33)
#loc36 = loc("inductor_cache/d2/cd2ggibz6vxklq2326sqtbx7yysxhcvs2slnb4kbigqzuuge6riw.py":45:25)
#loc37 = loc("inductor_cache/d2/cd2ggibz6vxklq2326sqtbx7yysxhcvs2slnb4kbigqzuuge6riw.py":45:37)
#loc38 = loc("inductor_cache/d2/cd2ggibz6vxklq2326sqtbx7yysxhcvs2slnb4kbigqzuuge6riw.py":45:4)
#loc39 = loc(callsite(#loc31 at #loc32))
#loc40 = loc(callsite(#loc33 at #loc32))
