#loc = loc("inductor_cache/wn/cwngaqovk4wsd4v4woqukosacuzozmvz7yesjba5yt453xb3sgm3.py":19:0)
module {
  tt.func public @triton_poi_fused__native_batch_norm_legit_no_training_convolution_hardtanh_27(%arg0: !tt.ptr<f32> {tt.divisibility = 16 : i32} loc("inductor_cache/wn/cwngaqovk4wsd4v4woqukosacuzozmvz7yesjba5yt453xb3sgm3.py":19:0), %arg1: !tt.ptr<f32> {tt.divisibility = 16 : i32} loc("inductor_cache/wn/cwngaqovk4wsd4v4woqukosacuzozmvz7yesjba5yt453xb3sgm3.py":19:0), %arg2: !tt.ptr<f32> {tt.divisibility = 16 : i32} loc("inductor_cache/wn/cwngaqovk4wsd4v4woqukosacuzozmvz7yesjba5yt453xb3sgm3.py":19:0), %arg3: !tt.ptr<f32> {tt.divisibility = 16 : i32} loc("inductor_cache/wn/cwngaqovk4wsd4v4woqukosacuzozmvz7yesjba5yt453xb3sgm3.py":19:0), %arg4: !tt.ptr<f32> {tt.divisibility = 16 : i32} loc("inductor_cache/wn/cwngaqovk4wsd4v4woqukosacuzozmvz7yesjba5yt453xb3sgm3.py":19:0), %arg5: !tt.ptr<f32> {tt.divisibility = 16 : i32} loc("inductor_cache/wn/cwngaqovk4wsd4v4woqukosacuzozmvz7yesjba5yt453xb3sgm3.py":19:0), %arg6: !tt.ptr<f32> {tt.divisibility = 16 : i32} loc("inductor_cache/wn/cwngaqovk4wsd4v4woqukosacuzozmvz7yesjba5yt453xb3sgm3.py":19:0), %arg7: i32 {tt.divisibility = 16 : i32} loc("inductor_cache/wn/cwngaqovk4wsd4v4woqukosacuzozmvz7yesjba5yt453xb3sgm3.py":19:0), %arg8: i32 loc("inductor_cache/wn/cwngaqovk4wsd4v4woqukosacuzozmvz7yesjba5yt453xb3sgm3.py":19:0)) attributes {noinline = false} {
    %c1024_i32 = arith.constant 1024 : i32 loc(#loc1)
    %c4_i32 = arith.constant 4 : i32 loc(#loc1)
    %cst = arith.constant dense<6.000000e+00> : tensor<1x256xf32> loc(#loc1)
    %cst_0 = arith.constant dense<0.000000e+00> : tensor<1x256xf32> loc(#loc1)
    %cst_1 = arith.constant dense<1.000000e+00> : tensor<1x256xf32> loc(#loc1)
    %cst_2 = arith.constant dense<4> : tensor<1x256xi32> loc(#loc1)
    %cst_3 = arith.constant dense<9.99999974E-6> : tensor<1x256xf32> loc(#loc1)
    %cst_4 = arith.constant dense<4096> : tensor<1x256xi32> loc(#loc1)
    %cst_5 = arith.constant dense<1024> : tensor<1x256xi32> loc(#loc1)
    %c256_i32 = arith.constant 256 : i32 loc(#loc1)
    %0 = tt.get_program_id y : i32 loc(#loc2)
    %1 = arith.muli %0, %c256_i32 : i32 loc(#loc3)
    %2 = tt.make_range {end = 256 : i32, start = 0 : i32} : tensor<256xi32> loc(#loc4)
    %3 = tt.expand_dims %2 {axis = 0 : i32} : tensor<256xi32> -> tensor<1x256xi32> loc(#loc5)
    %4 = tt.splat %1 : i32 -> tensor<1x256xi32> loc(#loc6)
    %5 = arith.addi %4, %3 : tensor<1x256xi32> loc(#loc6)
    %6 = tt.get_program_id x : i32 loc(#loc7)
    %7 = arith.cmpi slt, %6, %c4_i32 : i32 loc(#loc8)
    %8 = arith.remsi %5, %cst_5 : tensor<1x256xi32> loc(#loc9)
    %9 = arith.divsi %5, %cst_5 : tensor<1x256xi32> loc(#loc10)
    %10 = arith.muli %6, %c1024_i32 : i32 loc(#loc11)
    %11 = tt.splat %10 : i32 -> tensor<1x256xi32> loc(#loc12)
    %12 = arith.addi %8, %11 : tensor<1x256xi32> loc(#loc12)
    %13 = arith.muli %9, %cst_4 : tensor<1x256xi32> loc(#loc13)
    %14 = arith.addi %12, %13 : tensor<1x256xi32> loc(#loc14)
    %15 = tt.splat %arg0 : !tt.ptr<f32> -> tensor<1x256x!tt.ptr<f32>> loc(#loc15)
    %16 = tt.addptr %15, %14 : tensor<1x256x!tt.ptr<f32>>, tensor<1x256xi32> loc(#loc15)
    %17 = tt.splat %7 : i1 -> tensor<1x256xi1> loc(#loc16)
    %18 = tt.load %16, %17 evictionPolicy = evict_last : tensor<1x256x!tt.ptr<f32>> loc(#loc16)
    %19 = tt.splat %arg1 : !tt.ptr<f32> -> tensor<1x256x!tt.ptr<f32>> loc(#loc17)
    %20 = tt.addptr %19, %8 : tensor<1x256x!tt.ptr<f32>>, tensor<1x256xi32> loc(#loc17)
    %21 = tt.load %20 evictionPolicy = evict_last : tensor<1x256x!tt.ptr<f32>> loc(#loc18)
    %22 = tt.splat %arg2 : !tt.ptr<f32> -> tensor<1x256x!tt.ptr<f32>> loc(#loc19)
    %23 = tt.addptr %22, %8 : tensor<1x256x!tt.ptr<f32>>, tensor<1x256xi32> loc(#loc19)
    %24 = tt.load %23 evictionPolicy = evict_last : tensor<1x256x!tt.ptr<f32>> loc(#loc20)
    %25 = tt.splat %arg3 : !tt.ptr<f32> -> tensor<1x256x!tt.ptr<f32>> loc(#loc21)
    %26 = tt.addptr %25, %8 : tensor<1x256x!tt.ptr<f32>>, tensor<1x256xi32> loc(#loc21)
    %27 = tt.load %26 evictionPolicy = evict_last : tensor<1x256x!tt.ptr<f32>> loc(#loc22)
    %28 = tt.splat %arg4 : !tt.ptr<f32> -> tensor<1x256x!tt.ptr<f32>> loc(#loc23)
    %29 = tt.addptr %28, %8 : tensor<1x256x!tt.ptr<f32>>, tensor<1x256xi32> loc(#loc23)
    %30 = tt.load %29 evictionPolicy = evict_last : tensor<1x256x!tt.ptr<f32>> loc(#loc24)
    %31 = arith.subf %18, %21 : tensor<1x256xf32> loc(#loc25)
    %32 = arith.addf %24, %cst_3 : tensor<1x256xf32> loc(#loc26)
    %33 = tt.extern_elementwise %32 {libname = "", libpath = "", pure = true, symbol = "__nv_sqrtf"} : (tensor<1x256xf32>) -> tensor<1x256xf32> loc(#loc27)
    %34 = arith.divf %cst_1, %33 : tensor<1x256xf32> loc(#loc28)
    %35 = arith.mulf %31, %34 : tensor<1x256xf32> loc(#loc29)
    %36 = arith.mulf %35, %27 : tensor<1x256xf32> loc(#loc30)
    %37 = arith.addf %36, %30 : tensor<1x256xf32> loc(#loc31)
    %38 = arith.cmpf ogt, %37, %cst_0 : tensor<1x256xf32> loc(#loc49)
    %39 = arith.cmpf une, %37, %37 : tensor<1x256xf32> loc(#loc50)
    %40 = arith.ori %38, %39 : tensor<1x256xi1> loc(#loc51)
    %41 = arith.select %40, %37, %cst_0 : tensor<1x256xi1>, tensor<1x256xf32> loc(#loc52)
    %42 = arith.cmpf olt, %41, %cst : tensor<1x256xf32> loc(#loc53)
    %43 = arith.cmpf une, %41, %41 : tensor<1x256xf32> loc(#loc54)
    %44 = arith.ori %42, %43 : tensor<1x256xi1> loc(#loc55)
    %45 = arith.select %44, %41, %cst : tensor<1x256xi1>, tensor<1x256xf32> loc(#loc56)
    %46 = arith.muli %5, %cst_2 : tensor<1x256xi32> loc(#loc42)
    %47 = tt.splat %6 : i32 -> tensor<1x256xi32> loc(#loc43)
    %48 = arith.addi %47, %46 : tensor<1x256xi32> loc(#loc43)
    %49 = tt.splat %arg5 : !tt.ptr<f32> -> tensor<1x256x!tt.ptr<f32>> loc(#loc44)
    %50 = tt.addptr %49, %48 : tensor<1x256x!tt.ptr<f32>>, tensor<1x256xi32> loc(#loc44)
    tt.store %50, %45, %17 : tensor<1x256x!tt.ptr<f32>> loc(#loc45)
    %51 = tt.splat %arg6 : !tt.ptr<f32> -> tensor<1x256x!tt.ptr<f32>> loc(#loc46)
    %52 = tt.addptr %51, %14 : tensor<1x256x!tt.ptr<f32>>, tensor<1x256xi32> loc(#loc46)
    tt.store %52, %45, %17 : tensor<1x256x!tt.ptr<f32>> loc(#loc47)
    tt.return loc(#loc48)
  } loc(#loc)
} loc(#loc)
#loc1 = loc(unknown)
#loc2 = loc("inductor_cache/wn/cwngaqovk4wsd4v4woqukosacuzozmvz7yesjba5yt453xb3sgm3.py":22:28)
#loc3 = loc("inductor_cache/wn/cwngaqovk4wsd4v4woqukosacuzozmvz7yesjba5yt453xb3sgm3.py":22:33)
#loc4 = loc("inductor_cache/wn/cwngaqovk4wsd4v4woqukosacuzozmvz7yesjba5yt453xb3sgm3.py":23:36)
#loc5 = loc("inductor_cache/wn/cwngaqovk4wsd4v4woqukosacuzozmvz7yesjba5yt453xb3sgm3.py":23:44)
#loc6 = loc("inductor_cache/wn/cwngaqovk4wsd4v4woqukosacuzozmvz7yesjba5yt453xb3sgm3.py":23:23)
#loc7 = loc("inductor_cache/wn/cwngaqovk4wsd4v4woqukosacuzozmvz7yesjba5yt453xb3sgm3.py":25:28)
#loc8 = loc("inductor_cache/wn/cwngaqovk4wsd4v4woqukosacuzozmvz7yesjba5yt453xb3sgm3.py":27:21)
#loc9 = loc("inductor_cache/wn/cwngaqovk4wsd4v4woqukosacuzozmvz7yesjba5yt453xb3sgm3.py":29:19)
#loc10 = loc("inductor_cache/wn/cwngaqovk4wsd4v4woqukosacuzozmvz7yesjba5yt453xb3sgm3.py":30:19)
#loc11 = loc("inductor_cache/wn/cwngaqovk4wsd4v4woqukosacuzozmvz7yesjba5yt453xb3sgm3.py":32:40)
#loc12 = loc("inductor_cache/wn/cwngaqovk4wsd4v4woqukosacuzozmvz7yesjba5yt453xb3sgm3.py":32:35)
#loc13 = loc("inductor_cache/wn/cwngaqovk4wsd4v4woqukosacuzozmvz7yesjba5yt453xb3sgm3.py":32:50)
#loc14 = loc("inductor_cache/wn/cwngaqovk4wsd4v4woqukosacuzozmvz7yesjba5yt453xb3sgm3.py":32:45)
#loc15 = loc("inductor_cache/wn/cwngaqovk4wsd4v4woqukosacuzozmvz7yesjba5yt453xb3sgm3.py":32:30)
#loc16 = loc("inductor_cache/wn/cwngaqovk4wsd4v4woqukosacuzozmvz7yesjba5yt453xb3sgm3.py":32:55)
#loc17 = loc("inductor_cache/wn/cwngaqovk4wsd4v4woqukosacuzozmvz7yesjba5yt453xb3sgm3.py":33:30)
#loc18 = loc("inductor_cache/wn/cwngaqovk4wsd4v4woqukosacuzozmvz7yesjba5yt453xb3sgm3.py":33:35)
#loc19 = loc("inductor_cache/wn/cwngaqovk4wsd4v4woqukosacuzozmvz7yesjba5yt453xb3sgm3.py":34:30)
#loc20 = loc("inductor_cache/wn/cwngaqovk4wsd4v4woqukosacuzozmvz7yesjba5yt453xb3sgm3.py":34:35)
#loc21 = loc("inductor_cache/wn/cwngaqovk4wsd4v4woqukosacuzozmvz7yesjba5yt453xb3sgm3.py":35:31)
#loc22 = loc("inductor_cache/wn/cwngaqovk4wsd4v4woqukosacuzozmvz7yesjba5yt453xb3sgm3.py":35:36)
#loc23 = loc("inductor_cache/wn/cwngaqovk4wsd4v4woqukosacuzozmvz7yesjba5yt453xb3sgm3.py":36:31)
#loc24 = loc("inductor_cache/wn/cwngaqovk4wsd4v4woqukosacuzozmvz7yesjba5yt453xb3sgm3.py":36:36)
#loc25 = loc("inductor_cache/wn/cwngaqovk4wsd4v4woqukosacuzozmvz7yesjba5yt453xb3sgm3.py":37:18)
#loc26 = loc("inductor_cache/wn/cwngaqovk4wsd4v4woqukosacuzozmvz7yesjba5yt453xb3sgm3.py":39:18)
#loc27 = loc("inductor_cache/wn/cwngaqovk4wsd4v4woqukosacuzozmvz7yesjba5yt453xb3sgm3.py":40:26)
#loc28 = loc("inductor_cache/wn/cwngaqovk4wsd4v4woqukosacuzozmvz7yesjba5yt453xb3sgm3.py":42:18)
#loc29 = loc("inductor_cache/wn/cwngaqovk4wsd4v4woqukosacuzozmvz7yesjba5yt453xb3sgm3.py":45:19)
#loc30 = loc("inductor_cache/wn/cwngaqovk4wsd4v4woqukosacuzozmvz7yesjba5yt453xb3sgm3.py":46:20)
#loc31 = loc("inductor_cache/wn/cwngaqovk4wsd4v4woqukosacuzozmvz7yesjba5yt453xb3sgm3.py":47:20)
#loc32 = loc("/home/sahanp/.conda/envs/parity-bench/lib/python3.12/site-packages/torch/_inductor/runtime/triton_helpers.py":118:15)
#loc33 = loc("inductor_cache/wn/cwngaqovk4wsd4v4woqukosacuzozmvz7yesjba5yt453xb3sgm3.py":49:42)
#loc34 = loc("/home/sahanp/.conda/envs/parity-bench/lib/python3.12/site-packages/torch/_inductor/runtime/triton_helpers.py":120:21)
#loc35 = loc("/home/sahanp/.conda/envs/parity-bench/lib/python3.12/site-packages/torch/_inductor/runtime/triton_helpers.py":120:16)
#loc36 = loc("/home/sahanp/.conda/envs/parity-bench/lib/python3.12/site-packages/torch/_inductor/runtime/triton_helpers.py":121:29)
#loc37 = loc("/home/sahanp/.conda/envs/parity-bench/lib/python3.12/site-packages/torch/_inductor/runtime/triton_helpers.py":110:15)
#loc38 = loc("inductor_cache/wn/cwngaqovk4wsd4v4woqukosacuzozmvz7yesjba5yt453xb3sgm3.py":51:42)
#loc39 = loc("/home/sahanp/.conda/envs/parity-bench/lib/python3.12/site-packages/torch/_inductor/runtime/triton_helpers.py":112:21)
#loc40 = loc("/home/sahanp/.conda/envs/parity-bench/lib/python3.12/site-packages/torch/_inductor/runtime/triton_helpers.py":112:16)
#loc41 = loc("/home/sahanp/.conda/envs/parity-bench/lib/python3.12/site-packages/torch/_inductor/runtime/triton_helpers.py":113:29)
#loc42 = loc("inductor_cache/wn/cwngaqovk4wsd4v4woqukosacuzozmvz7yesjba5yt453xb3sgm3.py":52:32)
#loc43 = loc("inductor_cache/wn/cwngaqovk4wsd4v4woqukosacuzozmvz7yesjba5yt453xb3sgm3.py":52:30)
#loc44 = loc("inductor_cache/wn/cwngaqovk4wsd4v4woqukosacuzozmvz7yesjba5yt453xb3sgm3.py":52:25)
#loc45 = loc("inductor_cache/wn/cwngaqovk4wsd4v4woqukosacuzozmvz7yesjba5yt453xb3sgm3.py":52:44)
#loc46 = loc("inductor_cache/wn/cwngaqovk4wsd4v4woqukosacuzozmvz7yesjba5yt453xb3sgm3.py":53:25)
#loc47 = loc("inductor_cache/wn/cwngaqovk4wsd4v4woqukosacuzozmvz7yesjba5yt453xb3sgm3.py":53:57)
#loc48 = loc("inductor_cache/wn/cwngaqovk4wsd4v4woqukosacuzozmvz7yesjba5yt453xb3sgm3.py":53:4)
#loc49 = loc(callsite(#loc32 at #loc33))
#loc50 = loc(callsite(#loc34 at #loc33))
#loc51 = loc(callsite(#loc35 at #loc33))
#loc52 = loc(callsite(#loc36 at #loc33))
#loc53 = loc(callsite(#loc37 at #loc38))
#loc54 = loc(callsite(#loc39 at #loc38))
#loc55 = loc(callsite(#loc40 at #loc38))
#loc56 = loc(callsite(#loc41 at #loc38))
