#loc = loc("inductor_cache/vu/cvufgz4mwb4lh5c7skothlo2ussz5cokv4vb6hwynookr6dohabb.py":19:0)
module {
  tt.func public @triton_poi_fused__to_copy_add_arange_clamp_mul_sub_145(%arg0: !tt.ptr<f32> {tt.divisibility = 16 : i32} loc("inductor_cache/vu/cvufgz4mwb4lh5c7skothlo2ussz5cokv4vb6hwynookr6dohabb.py":19:0), %arg1: i32 {tt.divisibility = 16 : i32} loc("inductor_cache/vu/cvufgz4mwb4lh5c7skothlo2ussz5cokv4vb6hwynookr6dohabb.py":19:0)) attributes {noinline = false} {
    %cst = arith.constant dense<1.000000e+00> : tensor<64xf32> loc(#loc1)
    %cst_0 = arith.constant dense<0.000000e+00> : tensor<64xf32> loc(#loc1)
    %cst_1 = arith.constant dense<3.125000e-02> : tensor<64xf32> loc(#loc1)
    %cst_2 = arith.constant dense<5.000000e-01> : tensor<64xf32> loc(#loc1)
    %cst_3 = arith.constant dense<64> : tensor<64xi32> loc(#loc1)
    %c64_i32 = arith.constant 64 : i32 loc(#loc1)
    %0 = tt.get_program_id x : i32 loc(#loc2)
    %1 = arith.muli %0, %c64_i32 : i32 loc(#loc3)
    %2 = tt.make_range {end = 64 : i32, start = 0 : i32} : tensor<64xi32> loc(#loc4)
    %3 = tt.splat %1 : i32 -> tensor<64xi32> loc(#loc5)
    %4 = arith.addi %3, %2 : tensor<64xi32> loc(#loc5)
    %5 = arith.cmpi slt, %4, %cst_3 : tensor<64xi32> loc(#loc6)
    %6 = arith.sitofp %4 : tensor<64xi32> to tensor<64xf32> loc(#loc7)
    %7 = arith.addf %6, %cst_2 : tensor<64xf32> loc(#loc8)
    %8 = arith.mulf %7, %cst_1 : tensor<64xf32> loc(#loc9)
    %9 = arith.subf %8, %cst_2 : tensor<64xf32> loc(#loc10)
    %10 = arith.cmpf ogt, %9, %cst_0 : tensor<64xf32> loc(#loc28)
    %11 = arith.cmpf une, %9, %9 : tensor<64xf32> loc(#loc29)
    %12 = arith.ori %10, %11 : tensor<64xi1> loc(#loc30)
    %13 = arith.select %12, %9, %cst_0 : tensor<64xi1>, tensor<64xf32> loc(#loc31)
    %14 = arith.fptosi %13 : tensor<64xf32> to tensor<64xi32> loc(#loc16)
    %15 = arith.sitofp %14 : tensor<64xi32> to tensor<64xf32> loc(#loc17)
    %16 = arith.subf %13, %15 : tensor<64xf32> loc(#loc18)
    %17 = arith.cmpf ogt, %16, %cst_0 : tensor<64xf32> loc(#loc32)
    %18 = arith.cmpf une, %16, %16 : tensor<64xf32> loc(#loc33)
    %19 = arith.ori %17, %18 : tensor<64xi1> loc(#loc34)
    %20 = arith.select %19, %16, %cst_0 : tensor<64xi1>, tensor<64xf32> loc(#loc35)
    %21 = arith.cmpf olt, %20, %cst : tensor<64xf32> loc(#loc36)
    %22 = arith.cmpf une, %20, %20 : tensor<64xf32> loc(#loc37)
    %23 = arith.ori %21, %22 : tensor<64xi1> loc(#loc38)
    %24 = arith.select %23, %20, %cst : tensor<64xi1>, tensor<64xf32> loc(#loc39)
    %25 = tt.splat %arg0 : !tt.ptr<f32> -> tensor<64x!tt.ptr<f32>> loc(#loc25)
    %26 = tt.addptr %25, %4 : tensor<64x!tt.ptr<f32>>, tensor<64xi32> loc(#loc25)
    tt.store %26, %24, %5 : tensor<64x!tt.ptr<f32>> loc(#loc26)
    tt.return loc(#loc27)
  } loc(#loc)
} loc(#loc)
#loc1 = loc(unknown)
#loc2 = loc("inductor_cache/vu/cvufgz4mwb4lh5c7skothlo2ussz5cokv4vb6hwynookr6dohabb.py":21:28)
#loc3 = loc("inductor_cache/vu/cvufgz4mwb4lh5c7skothlo2ussz5cokv4vb6hwynookr6dohabb.py":21:33)
#loc4 = loc("inductor_cache/vu/cvufgz4mwb4lh5c7skothlo2ussz5cokv4vb6hwynookr6dohabb.py":22:36)
#loc5 = loc("inductor_cache/vu/cvufgz4mwb4lh5c7skothlo2ussz5cokv4vb6hwynookr6dohabb.py":22:23)
#loc6 = loc("inductor_cache/vu/cvufgz4mwb4lh5c7skothlo2ussz5cokv4vb6hwynookr6dohabb.py":23:21)
#loc7 = loc("inductor_cache/vu/cvufgz4mwb4lh5c7skothlo2ussz5cokv4vb6hwynookr6dohabb.py":26:19)
#loc8 = loc("inductor_cache/vu/cvufgz4mwb4lh5c7skothlo2ussz5cokv4vb6hwynookr6dohabb.py":28:18)
#loc9 = loc("inductor_cache/vu/cvufgz4mwb4lh5c7skothlo2ussz5cokv4vb6hwynookr6dohabb.py":30:18)
#loc10 = loc("inductor_cache/vu/cvufgz4mwb4lh5c7skothlo2ussz5cokv4vb6hwynookr6dohabb.py":31:18)
#loc11 = loc("/home/sahanp/.conda/envs/parity-bench/lib/python3.12/site-packages/torch/_inductor/runtime/triton_helpers.py":118:15)
#loc12 = loc("inductor_cache/vu/cvufgz4mwb4lh5c7skothlo2ussz5cokv4vb6hwynookr6dohabb.py":33:40)
#loc13 = loc("/home/sahanp/.conda/envs/parity-bench/lib/python3.12/site-packages/torch/_inductor/runtime/triton_helpers.py":120:21)
#loc14 = loc("/home/sahanp/.conda/envs/parity-bench/lib/python3.12/site-packages/torch/_inductor/runtime/triton_helpers.py":120:16)
#loc15 = loc("/home/sahanp/.conda/envs/parity-bench/lib/python3.12/site-packages/torch/_inductor/runtime/triton_helpers.py":121:29)
#loc16 = loc("inductor_cache/vu/cvufgz4mwb4lh5c7skothlo2ussz5cokv4vb6hwynookr6dohabb.py":34:19)
#loc17 = loc("inductor_cache/vu/cvufgz4mwb4lh5c7skothlo2ussz5cokv4vb6hwynookr6dohabb.py":35:20)
#loc18 = loc("inductor_cache/vu/cvufgz4mwb4lh5c7skothlo2ussz5cokv4vb6hwynookr6dohabb.py":36:19)
#loc19 = loc("inductor_cache/vu/cvufgz4mwb4lh5c7skothlo2ussz5cokv4vb6hwynookr6dohabb.py":37:42)
#loc20 = loc("/home/sahanp/.conda/envs/parity-bench/lib/python3.12/site-packages/torch/_inductor/runtime/triton_helpers.py":110:15)
#loc21 = loc("inductor_cache/vu/cvufgz4mwb4lh5c7skothlo2ussz5cokv4vb6hwynookr6dohabb.py":39:42)
#loc22 = loc("/home/sahanp/.conda/envs/parity-bench/lib/python3.12/site-packages/torch/_inductor/runtime/triton_helpers.py":112:21)
#loc23 = loc("/home/sahanp/.conda/envs/parity-bench/lib/python3.12/site-packages/torch/_inductor/runtime/triton_helpers.py":112:16)
#loc24 = loc("/home/sahanp/.conda/envs/parity-bench/lib/python3.12/site-packages/torch/_inductor/runtime/triton_helpers.py":113:29)
#loc25 = loc("inductor_cache/vu/cvufgz4mwb4lh5c7skothlo2ussz5cokv4vb6hwynookr6dohabb.py":40:25)
#loc26 = loc("inductor_cache/vu/cvufgz4mwb4lh5c7skothlo2ussz5cokv4vb6hwynookr6dohabb.py":40:37)
#loc27 = loc("inductor_cache/vu/cvufgz4mwb4lh5c7skothlo2ussz5cokv4vb6hwynookr6dohabb.py":40:4)
#loc28 = loc(callsite(#loc11 at #loc12))
#loc29 = loc(callsite(#loc13 at #loc12))
#loc30 = loc(callsite(#loc14 at #loc12))
#loc31 = loc(callsite(#loc15 at #loc12))
#loc32 = loc(callsite(#loc11 at #loc19))
#loc33 = loc(callsite(#loc13 at #loc19))
#loc34 = loc(callsite(#loc14 at #loc19))
#loc35 = loc(callsite(#loc15 at #loc19))
#loc36 = loc(callsite(#loc20 at #loc21))
#loc37 = loc(callsite(#loc22 at #loc21))
#loc38 = loc(callsite(#loc23 at #loc21))
#loc39 = loc(callsite(#loc24 at #loc21))
