#loc = loc("inductor_cache/32/c32nqvbwru636qjud3ykdwikdnfqkk2c3pqjrvpd2klyhxqybcsu.py":19:0)
module {
  tt.func public @triton_poi_fused_add_div_sqrt_15(%arg0: !tt.ptr<f32> {tt.divisibility = 16 : i32} loc("inductor_cache/32/c32nqvbwru636qjud3ykdwikdnfqkk2c3pqjrvpd2klyhxqybcsu.py":19:0), %arg1: !tt.ptr<f32> {tt.divisibility = 16 : i32} loc("inductor_cache/32/c32nqvbwru636qjud3ykdwikdnfqkk2c3pqjrvpd2klyhxqybcsu.py":19:0), %arg2: !tt.ptr<f32> {tt.divisibility = 16 : i32} loc("inductor_cache/32/c32nqvbwru636qjud3ykdwikdnfqkk2c3pqjrvpd2klyhxqybcsu.py":19:0), %arg3: i32 {tt.divisibility = 16 : i32} loc("inductor_cache/32/c32nqvbwru636qjud3ykdwikdnfqkk2c3pqjrvpd2klyhxqybcsu.py":19:0), %arg4: i32 {tt.divisibility = 16 : i32} loc("inductor_cache/32/c32nqvbwru636qjud3ykdwikdnfqkk2c3pqjrvpd2klyhxqybcsu.py":19:0)) attributes {noinline = false} {
    %cst = arith.constant dense<1.000000e-10> : tensor<32x32xf32> loc(#loc1)
    %cst_0 = arith.constant dense<4096> : tensor<1x32xi32> loc(#loc1)
    %cst_1 = arith.constant dense<262144> : tensor<1x32xi32> loc(#loc1)
    %cst_2 = arith.constant dense<64> : tensor<32x1xi32> loc(#loc1)
    %cst_3 = arith.constant dense<64> : tensor<1x32xi32> loc(#loc1)
    %cst_4 = arith.constant dense<256> : tensor<1x32xi32> loc(#loc1)
    %c32_i32 = arith.constant 32 : i32 loc(#loc1)
    %0 = tt.get_program_id y : i32 loc(#loc2)
    %1 = arith.muli %0, %c32_i32 : i32 loc(#loc3)
    %2 = tt.make_range {end = 32 : i32, start = 0 : i32} : tensor<32xi32> loc(#loc4)
    %3 = tt.expand_dims %2 {axis = 0 : i32} : tensor<32xi32> -> tensor<1x32xi32> loc(#loc5)
    %4 = tt.splat %1 : i32 -> tensor<1x32xi32> loc(#loc6)
    %5 = arith.addi %4, %3 : tensor<1x32xi32> loc(#loc6)
    %6 = arith.cmpi slt, %5, %cst_4 : tensor<1x32xi32> loc(#loc7)
    %7 = tt.get_program_id x : i32 loc(#loc8)
    %8 = arith.muli %7, %c32_i32 : i32 loc(#loc9)
    %9 = tt.expand_dims %2 {axis = 1 : i32} : tensor<32xi32> -> tensor<32x1xi32> loc(#loc10)
    %10 = tt.splat %8 : i32 -> tensor<32x1xi32> loc(#loc11)
    %11 = arith.addi %10, %9 : tensor<32x1xi32> loc(#loc11)
    %12 = arith.remsi %5, %cst_3 : tensor<1x32xi32> loc(#loc12)
    %13 = arith.divsi %5, %cst_3 : tensor<1x32xi32> loc(#loc13)
    %14 = arith.muli %11, %cst_2 : tensor<32x1xi32> loc(#loc14)
    %15 = tt.broadcast %12 : tensor<1x32xi32> -> tensor<32x32xi32> loc(#loc15)
    %16 = tt.broadcast %14 : tensor<32x1xi32> -> tensor<32x32xi32> loc(#loc15)
    %17 = arith.addi %15, %16 : tensor<32x32xi32> loc(#loc15)
    %18 = arith.muli %13, %cst_1 : tensor<1x32xi32> loc(#loc16)
    %19 = tt.broadcast %18 : tensor<1x32xi32> -> tensor<32x32xi32> loc(#loc17)
    %20 = arith.addi %17, %19 : tensor<32x32xi32> loc(#loc17)
    %21 = tt.splat %arg0 : !tt.ptr<f32> -> tensor<32x32x!tt.ptr<f32>> loc(#loc18)
    %22 = tt.addptr %21, %20 : tensor<32x32x!tt.ptr<f32>>, tensor<32x32xi32> loc(#loc18)
    %23 = tt.broadcast %6 : tensor<1x32xi1> -> tensor<32x32xi1> loc(#loc19)
    %24 = tt.load %22, %23 evictionPolicy = evict_last : tensor<32x32x!tt.ptr<f32>> loc(#loc19)
    %25 = arith.muli %13, %cst_0 : tensor<1x32xi32> loc(#loc20)
    %26 = tt.broadcast %11 : tensor<32x1xi32> -> tensor<32x32xi32> loc(#loc21)
    %27 = tt.broadcast %25 : tensor<1x32xi32> -> tensor<32x32xi32> loc(#loc21)
    %28 = arith.addi %26, %27 : tensor<32x32xi32> loc(#loc21)
    %29 = tt.splat %arg1 : !tt.ptr<f32> -> tensor<32x32x!tt.ptr<f32>> loc(#loc22)
    %30 = tt.addptr %29, %28 : tensor<32x32x!tt.ptr<f32>>, tensor<32x32xi32> loc(#loc22)
    %31 = tt.load %30, %23 evictionPolicy = evict_last : tensor<32x32x!tt.ptr<f32>> loc(#loc23)
    %32 = tt.extern_elementwise %31 {libname = "", libpath = "", pure = true, symbol = "__nv_sqrtf"} : (tensor<32x32xf32>) -> tensor<32x32xf32> loc(#loc24)
    %33 = arith.addf %32, %cst : tensor<32x32xf32> loc(#loc25)
    %34 = arith.divf %24, %33 : tensor<32x32xf32> loc(#loc26)
    %35 = arith.muli %5, %cst_0 : tensor<1x32xi32> loc(#loc27)
    %36 = tt.broadcast %35 : tensor<1x32xi32> -> tensor<32x32xi32> loc(#loc28)
    %37 = arith.addi %26, %36 : tensor<32x32xi32> loc(#loc28)
    %38 = tt.splat %arg2 : !tt.ptr<f32> -> tensor<32x32x!tt.ptr<f32>> loc(#loc29)
    %39 = tt.addptr %38, %37 : tensor<32x32x!tt.ptr<f32>>, tensor<32x32xi32> loc(#loc29)
    tt.store %39, %34, %23 : tensor<32x32x!tt.ptr<f32>> loc(#loc30)
    tt.return loc(#loc31)
  } loc(#loc)
} loc(#loc)
#loc1 = loc(unknown)
#loc2 = loc("inductor_cache/32/c32nqvbwru636qjud3ykdwikdnfqkk2c3pqjrvpd2klyhxqybcsu.py":22:28)
#loc3 = loc("inductor_cache/32/c32nqvbwru636qjud3ykdwikdnfqkk2c3pqjrvpd2klyhxqybcsu.py":22:33)
#loc4 = loc("inductor_cache/32/c32nqvbwru636qjud3ykdwikdnfqkk2c3pqjrvpd2klyhxqybcsu.py":23:36)
#loc5 = loc("inductor_cache/32/c32nqvbwru636qjud3ykdwikdnfqkk2c3pqjrvpd2klyhxqybcsu.py":23:44)
#loc6 = loc("inductor_cache/32/c32nqvbwru636qjud3ykdwikdnfqkk2c3pqjrvpd2klyhxqybcsu.py":23:23)
#loc7 = loc("inductor_cache/32/c32nqvbwru636qjud3ykdwikdnfqkk2c3pqjrvpd2klyhxqybcsu.py":24:21)
#loc8 = loc("inductor_cache/32/c32nqvbwru636qjud3ykdwikdnfqkk2c3pqjrvpd2klyhxqybcsu.py":25:28)
#loc9 = loc("inductor_cache/32/c32nqvbwru636qjud3ykdwikdnfqkk2c3pqjrvpd2klyhxqybcsu.py":25:33)
#loc10 = loc("inductor_cache/32/c32nqvbwru636qjud3ykdwikdnfqkk2c3pqjrvpd2klyhxqybcsu.py":26:44)
#loc11 = loc("inductor_cache/32/c32nqvbwru636qjud3ykdwikdnfqkk2c3pqjrvpd2klyhxqybcsu.py":26:23)
#loc12 = loc("inductor_cache/32/c32nqvbwru636qjud3ykdwikdnfqkk2c3pqjrvpd2klyhxqybcsu.py":29:19)
#loc13 = loc("inductor_cache/32/c32nqvbwru636qjud3ykdwikdnfqkk2c3pqjrvpd2klyhxqybcsu.py":30:19)
#loc14 = loc("inductor_cache/32/c32nqvbwru636qjud3ykdwikdnfqkk2c3pqjrvpd2klyhxqybcsu.py":32:38)
#loc15 = loc("inductor_cache/32/c32nqvbwru636qjud3ykdwikdnfqkk2c3pqjrvpd2klyhxqybcsu.py":32:35)
#loc16 = loc("inductor_cache/32/c32nqvbwru636qjud3ykdwikdnfqkk2c3pqjrvpd2klyhxqybcsu.py":32:50)
#loc17 = loc("inductor_cache/32/c32nqvbwru636qjud3ykdwikdnfqkk2c3pqjrvpd2klyhxqybcsu.py":32:43)
#loc18 = loc("inductor_cache/32/c32nqvbwru636qjud3ykdwikdnfqkk2c3pqjrvpd2klyhxqybcsu.py":32:30)
#loc19 = loc("inductor_cache/32/c32nqvbwru636qjud3ykdwikdnfqkk2c3pqjrvpd2klyhxqybcsu.py":32:55)
#loc20 = loc("inductor_cache/32/c32nqvbwru636qjud3ykdwikdnfqkk2c3pqjrvpd2klyhxqybcsu.py":33:40)
#loc21 = loc("inductor_cache/32/c32nqvbwru636qjud3ykdwikdnfqkk2c3pqjrvpd2klyhxqybcsu.py":33:35)
#loc22 = loc("inductor_cache/32/c32nqvbwru636qjud3ykdwikdnfqkk2c3pqjrvpd2klyhxqybcsu.py":33:30)
#loc23 = loc("inductor_cache/32/c32nqvbwru636qjud3ykdwikdnfqkk2c3pqjrvpd2klyhxqybcsu.py":33:45)
#loc24 = loc("inductor_cache/32/c32nqvbwru636qjud3ykdwikdnfqkk2c3pqjrvpd2klyhxqybcsu.py":34:26)
#loc25 = loc("inductor_cache/32/c32nqvbwru636qjud3ykdwikdnfqkk2c3pqjrvpd2klyhxqybcsu.py":36:18)
#loc26 = loc("inductor_cache/32/c32nqvbwru636qjud3ykdwikdnfqkk2c3pqjrvpd2klyhxqybcsu.py":37:18)
#loc27 = loc("inductor_cache/32/c32nqvbwru636qjud3ykdwikdnfqkk2c3pqjrvpd2klyhxqybcsu.py":38:35)
#loc28 = loc("inductor_cache/32/c32nqvbwru636qjud3ykdwikdnfqkk2c3pqjrvpd2klyhxqybcsu.py":38:30)
#loc29 = loc("inductor_cache/32/c32nqvbwru636qjud3ykdwikdnfqkk2c3pqjrvpd2klyhxqybcsu.py":38:25)
#loc30 = loc("inductor_cache/32/c32nqvbwru636qjud3ykdwikdnfqkk2c3pqjrvpd2klyhxqybcsu.py":38:46)
#loc31 = loc("inductor_cache/32/c32nqvbwru636qjud3ykdwikdnfqkk2c3pqjrvpd2klyhxqybcsu.py":38:4)
