#loc = loc("inductor_cache/kk/ckksp2ak2ah66ws4sgjrjqteqjadquzi2iauob2ztcbyikaghgnn.py":19:0)
module {
  tt.func public @triton_poi_fused_reflection_pad2d_relu_11(%arg0: !tt.ptr<f32> {tt.divisibility = 16 : i32} loc("inductor_cache/kk/ckksp2ak2ah66ws4sgjrjqteqjadquzi2iauob2ztcbyikaghgnn.py":19:0), %arg1: !tt.ptr<f32> {tt.divisibility = 16 : i32} loc("inductor_cache/kk/ckksp2ak2ah66ws4sgjrjqteqjadquzi2iauob2ztcbyikaghgnn.py":19:0), %arg2: !tt.ptr<f32> {tt.divisibility = 16 : i32} loc("inductor_cache/kk/ckksp2ak2ah66ws4sgjrjqteqjadquzi2iauob2ztcbyikaghgnn.py":19:0), %arg3: !tt.ptr<f32> {tt.divisibility = 16 : i32} loc("inductor_cache/kk/ckksp2ak2ah66ws4sgjrjqteqjadquzi2iauob2ztcbyikaghgnn.py":19:0), %arg4: !tt.ptr<f32> {tt.divisibility = 16 : i32} loc("inductor_cache/kk/ckksp2ak2ah66ws4sgjrjqteqjadquzi2iauob2ztcbyikaghgnn.py":19:0), %arg5: !tt.ptr<f32> {tt.divisibility = 16 : i32} loc("inductor_cache/kk/ckksp2ak2ah66ws4sgjrjqteqjadquzi2iauob2ztcbyikaghgnn.py":19:0), %arg6: i32 {tt.divisibility = 16 : i32} loc("inductor_cache/kk/ckksp2ak2ah66ws4sgjrjqteqjadquzi2iauob2ztcbyikaghgnn.py":19:0)) attributes {noinline = false} {
    %cst = arith.constant dense<0.000000e+00> : tensor<512xf32> loc(#loc1)
    %cst_0 = arith.constant dense<256> : tensor<512xi32> loc(#loc1)
    %cst_1 = arith.constant dense<-16> : tensor<512xi32> loc(#loc1)
    %cst_2 = arith.constant dense<255> : tensor<512xi32> loc(#loc1)
    %cst_3 = arith.constant dense<-15> : tensor<512xi32> loc(#loc1)
    %cst_4 = arith.constant dense<-1> : tensor<512xi32> loc(#loc1)
    %cst_5 = arith.constant dense<324> : tensor<512xi32> loc(#loc1)
    %cst_6 = arith.constant dense<18> : tensor<512xi32> loc(#loc1)
    %cst_7 = arith.constant dense<165888> : tensor<512xi32> loc(#loc1)
    %c512_i32 = arith.constant 512 : i32 loc(#loc1)
    %0 = tt.get_program_id x : i32 loc(#loc2)
    %1 = arith.muli %0, %c512_i32 : i32 loc(#loc3)
    %2 = tt.make_range {end = 512 : i32, start = 0 : i32} : tensor<512xi32> loc(#loc4)
    %3 = tt.splat %1 : i32 -> tensor<512xi32> loc(#loc5)
    %4 = arith.addi %3, %2 : tensor<512xi32> loc(#loc5)
    %5 = arith.cmpi slt, %4, %cst_7 : tensor<512xi32> loc(#loc6)
    %6 = arith.remsi %4, %cst_6 : tensor<512xi32> loc(#loc7)
    %7 = arith.divsi %4, %cst_6 : tensor<512xi32> loc(#loc8)
    %8 = arith.remsi %7, %cst_6 : tensor<512xi32> loc(#loc9)
    %9 = arith.divsi %4, %cst_5 : tensor<512xi32> loc(#loc10)
    %10 = arith.addi %6, %cst_4 : tensor<512xi32> loc(#loc11)
    %11 = math.absi %10 : tensor<512xi32> loc(#loc12)
    %12 = arith.addi %11, %cst_3 : tensor<512xi32> loc(#loc13)
    %13 = math.absi %12 : tensor<512xi32> loc(#loc14)
    %14 = arith.subi %cst_2, %13 : tensor<512xi32> loc(#loc15)
    %15 = arith.addi %8, %cst_4 : tensor<512xi32> loc(#loc16)
    %16 = math.absi %15 : tensor<512xi32> loc(#loc17)
    %17 = arith.addi %16, %cst_3 : tensor<512xi32> loc(#loc18)
    %18 = math.absi %17 : tensor<512xi32> loc(#loc19)
    %19 = arith.muli %18, %cst_1 : tensor<512xi32> loc(#loc20)
    %20 = arith.addi %14, %19 : tensor<512xi32> loc(#loc21)
    %21 = arith.muli %9, %cst_0 : tensor<512xi32> loc(#loc22)
    %22 = arith.addi %20, %21 : tensor<512xi32> loc(#loc23)
    %23 = tt.splat %arg0 : !tt.ptr<f32> -> tensor<512x!tt.ptr<f32>> loc(#loc24)
    %24 = tt.addptr %23, %22 : tensor<512x!tt.ptr<f32>>, tensor<512xi32> loc(#loc24)
    %25 = tt.load %24, %5 evictionPolicy = evict_last : tensor<512x!tt.ptr<f32>> loc(#loc25)
    %26 = tt.splat %arg1 : !tt.ptr<f32> -> tensor<512x!tt.ptr<f32>> loc(#loc26)
    %27 = tt.addptr %26, %9 : tensor<512x!tt.ptr<f32>>, tensor<512xi32> loc(#loc26)
    %28 = tt.load %27, %5 evictionPolicy = evict_last : tensor<512x!tt.ptr<f32>> loc(#loc27)
    %29 = tt.splat %arg2 : !tt.ptr<f32> -> tensor<512x!tt.ptr<f32>> loc(#loc28)
    %30 = tt.addptr %29, %9 : tensor<512x!tt.ptr<f32>>, tensor<512xi32> loc(#loc28)
    %31 = tt.load %30, %5 evictionPolicy = evict_last : tensor<512x!tt.ptr<f32>> loc(#loc29)
    %32 = tt.splat %arg3 : !tt.ptr<f32> -> tensor<512x!tt.ptr<f32>> loc(#loc30)
    %33 = tt.addptr %32, %9 : tensor<512x!tt.ptr<f32>>, tensor<512xi32> loc(#loc30)
    %34 = tt.load %33, %5 evictionPolicy = evict_last : tensor<512x!tt.ptr<f32>> loc(#loc31)
    %35 = tt.splat %arg4 : !tt.ptr<f32> -> tensor<512x!tt.ptr<f32>> loc(#loc32)
    %36 = tt.addptr %35, %9 : tensor<512x!tt.ptr<f32>>, tensor<512xi32> loc(#loc32)
    %37 = tt.load %36, %5 evictionPolicy = evict_last : tensor<512x!tt.ptr<f32>> loc(#loc33)
    %38 = arith.subf %25, %28 : tensor<512xf32> loc(#loc34)
    %39 = arith.mulf %38, %31 : tensor<512xf32> loc(#loc35)
    %40 = arith.mulf %39, %34 : tensor<512xf32> loc(#loc36)
    %41 = arith.addf %40, %37 : tensor<512xf32> loc(#loc37)
    %42 = arith.cmpf ogt, %cst, %41 : tensor<512xf32> loc(#loc44)
    %43 = arith.select %42, %cst, %41 : tensor<512xi1>, tensor<512xf32> loc(#loc45)
    %44 = tt.splat %arg5 : !tt.ptr<f32> -> tensor<512x!tt.ptr<f32>> loc(#loc41)
    %45 = tt.addptr %44, %4 : tensor<512x!tt.ptr<f32>>, tensor<512xi32> loc(#loc41)
    tt.store %45, %43, %5 : tensor<512x!tt.ptr<f32>> loc(#loc42)
    tt.return loc(#loc43)
  } loc(#loc)
} loc(#loc)
#loc1 = loc(unknown)
#loc2 = loc("inductor_cache/kk/ckksp2ak2ah66ws4sgjrjqteqjadquzi2iauob2ztcbyikaghgnn.py":21:28)
#loc3 = loc("inductor_cache/kk/ckksp2ak2ah66ws4sgjrjqteqjadquzi2iauob2ztcbyikaghgnn.py":21:33)
#loc4 = loc("inductor_cache/kk/ckksp2ak2ah66ws4sgjrjqteqjadquzi2iauob2ztcbyikaghgnn.py":22:36)
#loc5 = loc("inductor_cache/kk/ckksp2ak2ah66ws4sgjrjqteqjadquzi2iauob2ztcbyikaghgnn.py":22:23)
#loc6 = loc("inductor_cache/kk/ckksp2ak2ah66ws4sgjrjqteqjadquzi2iauob2ztcbyikaghgnn.py":23:21)
#loc7 = loc("inductor_cache/kk/ckksp2ak2ah66ws4sgjrjqteqjadquzi2iauob2ztcbyikaghgnn.py":24:19)
#loc8 = loc("inductor_cache/kk/ckksp2ak2ah66ws4sgjrjqteqjadquzi2iauob2ztcbyikaghgnn.py":25:21)
#loc9 = loc("inductor_cache/kk/ckksp2ak2ah66ws4sgjrjqteqjadquzi2iauob2ztcbyikaghgnn.py":25:27)
#loc10 = loc("inductor_cache/kk/ckksp2ak2ah66ws4sgjrjqteqjadquzi2iauob2ztcbyikaghgnn.py":26:19)
#loc11 = loc("inductor_cache/kk/ckksp2ak2ah66ws4sgjrjqteqjadquzi2iauob2ztcbyikaghgnn.py":28:81)
#loc12 = loc("inductor_cache/kk/ckksp2ak2ah66ws4sgjrjqteqjadquzi2iauob2ztcbyikaghgnn.py":28:74)
#loc13 = loc("inductor_cache/kk/ckksp2ak2ah66ws4sgjrjqteqjadquzi2iauob2ztcbyikaghgnn.py":28:62)
#loc14 = loc("inductor_cache/kk/ckksp2ak2ah66ws4sgjrjqteqjadquzi2iauob2ztcbyikaghgnn.py":28:54)
#loc15 = loc("inductor_cache/kk/ckksp2ak2ah66ws4sgjrjqteqjadquzi2iauob2ztcbyikaghgnn.py":28:37)
#loc16 = loc("inductor_cache/kk/ckksp2ak2ah66ws4sgjrjqteqjadquzi2iauob2ztcbyikaghgnn.py":28:135)
#loc17 = loc("inductor_cache/kk/ckksp2ak2ah66ws4sgjrjqteqjadquzi2iauob2ztcbyikaghgnn.py":28:128)
#loc18 = loc("inductor_cache/kk/ckksp2ak2ah66ws4sgjrjqteqjadquzi2iauob2ztcbyikaghgnn.py":28:116)
#loc19 = loc("inductor_cache/kk/ckksp2ak2ah66ws4sgjrjqteqjadquzi2iauob2ztcbyikaghgnn.py":28:108)
#loc20 = loc("inductor_cache/kk/ckksp2ak2ah66ws4sgjrjqteqjadquzi2iauob2ztcbyikaghgnn.py":28:96)
#loc21 = loc("inductor_cache/kk/ckksp2ak2ah66ws4sgjrjqteqjadquzi2iauob2ztcbyikaghgnn.py":28:90)
#loc22 = loc("inductor_cache/kk/ckksp2ak2ah66ws4sgjrjqteqjadquzi2iauob2ztcbyikaghgnn.py":28:147)
#loc23 = loc("inductor_cache/kk/ckksp2ak2ah66ws4sgjrjqteqjadquzi2iauob2ztcbyikaghgnn.py":28:143)
#loc24 = loc("inductor_cache/kk/ckksp2ak2ah66ws4sgjrjqteqjadquzi2iauob2ztcbyikaghgnn.py":28:30)
#loc25 = loc("inductor_cache/kk/ckksp2ak2ah66ws4sgjrjqteqjadquzi2iauob2ztcbyikaghgnn.py":28:152)
#loc26 = loc("inductor_cache/kk/ckksp2ak2ah66ws4sgjrjqteqjadquzi2iauob2ztcbyikaghgnn.py":29:30)
#loc27 = loc("inductor_cache/kk/ckksp2ak2ah66ws4sgjrjqteqjadquzi2iauob2ztcbyikaghgnn.py":29:35)
#loc28 = loc("inductor_cache/kk/ckksp2ak2ah66ws4sgjrjqteqjadquzi2iauob2ztcbyikaghgnn.py":30:30)
#loc29 = loc("inductor_cache/kk/ckksp2ak2ah66ws4sgjrjqteqjadquzi2iauob2ztcbyikaghgnn.py":30:35)
#loc30 = loc("inductor_cache/kk/ckksp2ak2ah66ws4sgjrjqteqjadquzi2iauob2ztcbyikaghgnn.py":31:30)
#loc31 = loc("inductor_cache/kk/ckksp2ak2ah66ws4sgjrjqteqjadquzi2iauob2ztcbyikaghgnn.py":31:35)
#loc32 = loc("inductor_cache/kk/ckksp2ak2ah66ws4sgjrjqteqjadquzi2iauob2ztcbyikaghgnn.py":32:30)
#loc33 = loc("inductor_cache/kk/ckksp2ak2ah66ws4sgjrjqteqjadquzi2iauob2ztcbyikaghgnn.py":32:35)
#loc34 = loc("inductor_cache/kk/ckksp2ak2ah66ws4sgjrjqteqjadquzi2iauob2ztcbyikaghgnn.py":33:18)
#loc35 = loc("inductor_cache/kk/ckksp2ak2ah66ws4sgjrjqteqjadquzi2iauob2ztcbyikaghgnn.py":34:18)
#loc36 = loc("inductor_cache/kk/ckksp2ak2ah66ws4sgjrjqteqjadquzi2iauob2ztcbyikaghgnn.py":35:18)
#loc37 = loc("inductor_cache/kk/ckksp2ak2ah66ws4sgjrjqteqjadquzi2iauob2ztcbyikaghgnn.py":36:18)
#loc38 = loc("/home/sahanp/.conda/envs/parity-bench/lib/python3.12/site-packages/torch/_inductor/runtime/triton_helpers.py":118:15)
#loc39 = loc("inductor_cache/kk/ckksp2ak2ah66ws4sgjrjqteqjadquzi2iauob2ztcbyikaghgnn.py":38:41)
#loc40 = loc("/home/sahanp/.conda/envs/parity-bench/lib/python3.12/site-packages/torch/_inductor/runtime/triton_helpers.py":121:29)
#loc41 = loc("inductor_cache/kk/ckksp2ak2ah66ws4sgjrjqteqjadquzi2iauob2ztcbyikaghgnn.py":39:25)
#loc42 = loc("inductor_cache/kk/ckksp2ak2ah66ws4sgjrjqteqjadquzi2iauob2ztcbyikaghgnn.py":39:37)
#loc43 = loc("inductor_cache/kk/ckksp2ak2ah66ws4sgjrjqteqjadquzi2iauob2ztcbyikaghgnn.py":39:4)
#loc44 = loc(callsite(#loc38 at #loc39))
#loc45 = loc(callsite(#loc40 at #loc39))
