#loc = loc("inductor_cache/li/clije5n3zqrlejmzf2iasbdve5mbuijnh6airagjdz45z6fxthuk.py":19:0)
#loc1 = loc(unknown)
#loc27 = loc("inductor_cache/li/clije5n3zqrlejmzf2iasbdve5mbuijnh6airagjdz45z6fxthuk.py":41:24)
#loc34 = loc(callsite(#loc1 at #loc27))
module {
  tt.func public @triton_per_fused_mul_sum_1(%arg0: !tt.ptr<f32> {tt.divisibility = 16 : i32} loc("inductor_cache/li/clije5n3zqrlejmzf2iasbdve5mbuijnh6airagjdz45z6fxthuk.py":19:0), %arg1: !tt.ptr<f32> {tt.divisibility = 16 : i32} loc("inductor_cache/li/clije5n3zqrlejmzf2iasbdve5mbuijnh6airagjdz45z6fxthuk.py":19:0), %arg2: !tt.ptr<f32> {tt.divisibility = 16 : i32} loc("inductor_cache/li/clije5n3zqrlejmzf2iasbdve5mbuijnh6airagjdz45z6fxthuk.py":19:0), %arg3: i32 {tt.divisibility = 16 : i32} loc("inductor_cache/li/clije5n3zqrlejmzf2iasbdve5mbuijnh6airagjdz45z6fxthuk.py":19:0), %arg4: i32 {tt.divisibility = 16 : i32} loc("inductor_cache/li/clije5n3zqrlejmzf2iasbdve5mbuijnh6airagjdz45z6fxthuk.py":19:0)) attributes {noinline = false} {
    %c1024_i32 = arith.constant 1024 : i32 loc(#loc1)
    %c4_i32 = arith.constant 4 : i32 loc(#loc1)
    %c16_i32 = arith.constant 16 : i32 loc(#loc1)
    %c64_i32 = arith.constant 64 : i32 loc(#loc1)
    %c256_i32 = arith.constant 256 : i32 loc(#loc1)
    %cst = arith.constant dense<256> : tensor<1x64xi32> loc(#loc1)
    %cst_0 = arith.constant dense<0.000000e+00> : tensor<1x64xf32> loc(#loc1)
    %cst_1 = arith.constant dense<16> : tensor<1x64xi32> loc(#loc1)
    %0 = tt.get_program_id x : i32 loc(#loc2)
    %1 = arith.cmpi slt, %0, %c256_i32 : i32 loc(#loc3)
    %2 = tt.splat %1 : i1 -> tensor<1x1xi1> loc(#loc3)
    %3 = tt.make_range {end = 64 : i32, start = 0 : i32} : tensor<64xi32> loc(#loc4)
    %4 = tt.expand_dims %3 {axis = 0 : i32} : tensor<64xi32> -> tensor<1x64xi32> loc(#loc5)
    %5 = arith.divsi %0, %c64_i32 : i32 loc(#loc6)
    %6 = arith.remsi %4, %cst_1 : tensor<1x64xi32> loc(#loc7)
    %7 = arith.divsi %4, %cst_1 : tensor<1x64xi32> loc(#loc8)
    %8 = arith.remsi %0, %c16_i32 : i32 loc(#loc9)
    %9 = arith.divsi %0, %c16_i32 : i32 loc(#loc10)
    %10 = arith.remsi %9, %c4_i32 : i32 loc(#loc11)
    %11 = arith.muli %5, %c64_i32 : i32 loc(#loc12)
    %12 = tt.splat %11 : i32 -> tensor<1x64xi32> loc(#loc13)
    %13 = arith.addi %4, %12 : tensor<1x64xi32> loc(#loc13)
    %14 = tt.splat %arg0 : !tt.ptr<f32> -> tensor<1x64x!tt.ptr<f32>> loc(#loc14)
    %15 = tt.addptr %14, %13 : tensor<1x64x!tt.ptr<f32>>, tensor<1x64xi32> loc(#loc14)
    %16 = tt.splat %1 : i1 -> tensor<1x64xi1> loc(#loc15)
    %17 = tt.load %15, %16, %cst_0 evictionPolicy = evict_last : tensor<1x64x!tt.ptr<f32>> loc(#loc15)
    %18 = arith.muli %8, %c16_i32 : i32 loc(#loc16)
    %19 = tt.splat %18 : i32 -> tensor<1x64xi32> loc(#loc17)
    %20 = arith.addi %6, %19 : tensor<1x64xi32> loc(#loc17)
    %21 = arith.muli %7, %cst : tensor<1x64xi32> loc(#loc18)
    %22 = arith.addi %20, %21 : tensor<1x64xi32> loc(#loc19)
    %23 = arith.muli %10, %c1024_i32 : i32 loc(#loc20)
    %24 = tt.splat %23 : i32 -> tensor<1x64xi32> loc(#loc21)
    %25 = arith.addi %22, %24 : tensor<1x64xi32> loc(#loc21)
    %26 = tt.splat %arg1 : !tt.ptr<f32> -> tensor<1x64x!tt.ptr<f32>> loc(#loc22)
    %27 = tt.addptr %26, %25 : tensor<1x64x!tt.ptr<f32>>, tensor<1x64xi32> loc(#loc22)
    %28 = tt.load %27, %16, %cst_0 evictionPolicy = evict_last : tensor<1x64x!tt.ptr<f32>> loc(#loc23)
    %29 = arith.mulf %17, %28 : tensor<1x64xf32> loc(#loc24)
    %30 = arith.select %16, %29, %cst_0 : tensor<1x64xi1>, tensor<1x64xf32> loc(#loc25)
    %31 = "tt.reduce"(%30) <{axis = 1 : i32}> ({
    ^bb0(%arg5: f32 loc(callsite(#loc1 at #loc27)), %arg6: f32 loc(callsite(#loc1 at #loc27))):
      %35 = arith.addf %arg5, %arg6 : f32 loc(#loc36)
      tt.reduce.return %35 : f32 loc(#loc33)
    }) : (tensor<1x64xf32>) -> tensor<1xf32> loc(#loc33)
    %32 = tt.expand_dims %31 {axis = 1 : i32} : tensor<1xf32> -> tensor<1x1xf32> loc(#loc29)
    %33 = tt.addptr %arg2, %0 : !tt.ptr<f32>, i32 loc(#loc30)
    %34 = tt.splat %33 : !tt.ptr<f32> -> tensor<1x1x!tt.ptr<f32>> loc(#loc30)
    tt.store %34, %32, %2 : tensor<1x1x!tt.ptr<f32>> loc(#loc31)
    tt.return loc(#loc32)
  } loc(#loc)
} loc(#loc)
#loc2 = loc("inductor_cache/li/clije5n3zqrlejmzf2iasbdve5mbuijnh6airagjdz45z6fxthuk.py":23:28)
#loc3 = loc("inductor_cache/li/clije5n3zqrlejmzf2iasbdve5mbuijnh6airagjdz45z6fxthuk.py":25:21)
#loc4 = loc("inductor_cache/li/clije5n3zqrlejmzf2iasbdve5mbuijnh6airagjdz45z6fxthuk.py":26:26)
#loc5 = loc("inductor_cache/li/clije5n3zqrlejmzf2iasbdve5mbuijnh6airagjdz45z6fxthuk.py":26:34)
#loc6 = loc("inductor_cache/li/clije5n3zqrlejmzf2iasbdve5mbuijnh6airagjdz45z6fxthuk.py":30:19)
#loc7 = loc("inductor_cache/li/clije5n3zqrlejmzf2iasbdve5mbuijnh6airagjdz45z6fxthuk.py":31:19)
#loc8 = loc("inductor_cache/li/clije5n3zqrlejmzf2iasbdve5mbuijnh6airagjdz45z6fxthuk.py":32:19)
#loc9 = loc("inductor_cache/li/clije5n3zqrlejmzf2iasbdve5mbuijnh6airagjdz45z6fxthuk.py":33:19)
#loc10 = loc("inductor_cache/li/clije5n3zqrlejmzf2iasbdve5mbuijnh6airagjdz45z6fxthuk.py":34:21)
#loc11 = loc("inductor_cache/li/clije5n3zqrlejmzf2iasbdve5mbuijnh6airagjdz45z6fxthuk.py":34:27)
#loc12 = loc("inductor_cache/li/clije5n3zqrlejmzf2iasbdve5mbuijnh6airagjdz45z6fxthuk.py":36:38)
#loc13 = loc("inductor_cache/li/clije5n3zqrlejmzf2iasbdve5mbuijnh6airagjdz45z6fxthuk.py":36:35)
#loc14 = loc("inductor_cache/li/clije5n3zqrlejmzf2iasbdve5mbuijnh6airagjdz45z6fxthuk.py":36:30)
#loc15 = loc("inductor_cache/li/clije5n3zqrlejmzf2iasbdve5mbuijnh6airagjdz45z6fxthuk.py":36:43)
#loc16 = loc("inductor_cache/li/clije5n3zqrlejmzf2iasbdve5mbuijnh6airagjdz45z6fxthuk.py":37:38)
#loc17 = loc("inductor_cache/li/clije5n3zqrlejmzf2iasbdve5mbuijnh6airagjdz45z6fxthuk.py":37:35)
#loc18 = loc("inductor_cache/li/clije5n3zqrlejmzf2iasbdve5mbuijnh6airagjdz45z6fxthuk.py":37:47)
#loc19 = loc("inductor_cache/li/clije5n3zqrlejmzf2iasbdve5mbuijnh6airagjdz45z6fxthuk.py":37:43)
#loc20 = loc("inductor_cache/li/clije5n3zqrlejmzf2iasbdve5mbuijnh6airagjdz45z6fxthuk.py":37:57)
#loc21 = loc("inductor_cache/li/clije5n3zqrlejmzf2iasbdve5mbuijnh6airagjdz45z6fxthuk.py":37:52)
#loc22 = loc("inductor_cache/li/clije5n3zqrlejmzf2iasbdve5mbuijnh6airagjdz45z6fxthuk.py":37:30)
#loc23 = loc("inductor_cache/li/clije5n3zqrlejmzf2iasbdve5mbuijnh6airagjdz45z6fxthuk.py":37:62)
#loc24 = loc("inductor_cache/li/clije5n3zqrlejmzf2iasbdve5mbuijnh6airagjdz45z6fxthuk.py":38:18)
#loc25 = loc("inductor_cache/li/clije5n3zqrlejmzf2iasbdve5mbuijnh6airagjdz45z6fxthuk.py":40:33)
#loc26 = loc("/home/sahanp/.conda/envs/parity-bench/lib/python3.12/site-packages/triton/language/standard.py":267:36)
#loc28 = loc("/home/sahanp/.conda/envs/parity-bench/lib/python3.12/site-packages/triton/language/standard.py":256:15)
#loc29 = loc("inductor_cache/li/clije5n3zqrlejmzf2iasbdve5mbuijnh6airagjdz45z6fxthuk.py":41:27)
#loc30 = loc("inductor_cache/li/clije5n3zqrlejmzf2iasbdve5mbuijnh6airagjdz45z6fxthuk.py":42:25)
#loc31 = loc("inductor_cache/li/clije5n3zqrlejmzf2iasbdve5mbuijnh6airagjdz45z6fxthuk.py":42:36)
#loc32 = loc("inductor_cache/li/clije5n3zqrlejmzf2iasbdve5mbuijnh6airagjdz45z6fxthuk.py":42:4)
#loc33 = loc(callsite(#loc26 at #loc27))
#loc35 = loc(callsite(#loc28 at #loc26))
#loc36 = loc(callsite(#loc35 at #loc27))
