#loc = loc("inductor_cache/2k/c2ktk7o3iszzameqeugdr3imivwcvh4sg3ao45lshs54pswdywpt.py":19:0)
module {
  tt.func public @triton_poi_fused__native_batch_norm_legit_no_training_add_convolution_max_pool2d_with_indices_13(%arg0: !tt.ptr<f32> {tt.divisibility = 16 : i32} loc("inductor_cache/2k/c2ktk7o3iszzameqeugdr3imivwcvh4sg3ao45lshs54pswdywpt.py":19:0), %arg1: !tt.ptr<f32> {tt.divisibility = 16 : i32} loc("inductor_cache/2k/c2ktk7o3iszzameqeugdr3imivwcvh4sg3ao45lshs54pswdywpt.py":19:0), %arg2: !tt.ptr<f32> {tt.divisibility = 16 : i32} loc("inductor_cache/2k/c2ktk7o3iszzameqeugdr3imivwcvh4sg3ao45lshs54pswdywpt.py":19:0), %arg3: !tt.ptr<f32> {tt.divisibility = 16 : i32} loc("inductor_cache/2k/c2ktk7o3iszzameqeugdr3imivwcvh4sg3ao45lshs54pswdywpt.py":19:0), %arg4: !tt.ptr<f32> {tt.divisibility = 16 : i32} loc("inductor_cache/2k/c2ktk7o3iszzameqeugdr3imivwcvh4sg3ao45lshs54pswdywpt.py":19:0), %arg5: !tt.ptr<f32> {tt.divisibility = 16 : i32} loc("inductor_cache/2k/c2ktk7o3iszzameqeugdr3imivwcvh4sg3ao45lshs54pswdywpt.py":19:0), %arg6: !tt.ptr<f32> {tt.divisibility = 16 : i32} loc("inductor_cache/2k/c2ktk7o3iszzameqeugdr3imivwcvh4sg3ao45lshs54pswdywpt.py":19:0), %arg7: !tt.ptr<i8> {tt.divisibility = 16 : i32} loc("inductor_cache/2k/c2ktk7o3iszzameqeugdr3imivwcvh4sg3ao45lshs54pswdywpt.py":19:0), %arg8: !tt.ptr<f32> {tt.divisibility = 16 : i32} loc("inductor_cache/2k/c2ktk7o3iszzameqeugdr3imivwcvh4sg3ao45lshs54pswdywpt.py":19:0), %arg9: i32 {tt.divisibility = 16 : i32} loc("inductor_cache/2k/c2ktk7o3iszzameqeugdr3imivwcvh4sg3ao45lshs54pswdywpt.py":19:0), %arg10: i32 loc("inductor_cache/2k/c2ktk7o3iszzameqeugdr3imivwcvh4sg3ao45lshs54pswdywpt.py":19:0)) attributes {noinline = false} {
    %c186368_i32 = arith.constant 186368 : i32 loc(#loc1)
    %c1_i32 = arith.constant 1 : i32 loc(#loc1)
    %c16_i64 = arith.constant 16 : i64 loc(#loc1)
    %c0_i64 = arith.constant 0 : i64 loc(#loc1)
    %c-1_i32 = arith.constant -1 : i32 loc(#loc1)
    %c728_i32 = arith.constant 728 : i32 loc(#loc1)
    %c256_i32 = arith.constant 256 : i32 loc(#loc1)
    %c16_i32 = arith.constant 16 : i32 loc(#loc1)
    %cst = arith.constant dense<1.000000e+00> : tensor<1024x1xf32> loc(#loc1)
    %cst_0 = arith.constant dense<256> : tensor<1024x1xi32> loc(#loc1)
    %cst_1 = arith.constant dense<9.99999974E-6> : tensor<1024x1xf32> loc(#loc1)
    %cst_2 = arith.constant dense<8> : tensor<1024x1xi8> loc(#loc1)
    %cst_3 = arith.constant dense<7> : tensor<1024x1xi8> loc(#loc1)
    %cst_4 = arith.constant dense<6> : tensor<1024x1xi8> loc(#loc1)
    %cst_5 = arith.constant dense<5> : tensor<1024x1xi8> loc(#loc1)
    %cst_6 = arith.constant dense<4> : tensor<1024x1xi8> loc(#loc1)
    %cst_7 = arith.constant dense<3> : tensor<1024x1xi8> loc(#loc1)
    %cst_8 = arith.constant dense<2> : tensor<1024x1xi8> loc(#loc1)
    %cst_9 = arith.constant dense<0> : tensor<1024x1xi8> loc(#loc1)
    %cst_10 = arith.constant dense<1> : tensor<1024x1xi8> loc(#loc1)
    %cst_11 = arith.constant dense<12376> : tensor<1024x1xi32> loc(#loc1)
    %cst_12 = arith.constant dense<11648> : tensor<1024x1xi32> loc(#loc1)
    %cst_13 = arith.constant dense<10920> : tensor<1024x1xi32> loc(#loc1)
    %cst_14 = arith.constant dense<-728> : tensor<1024x1xi32> loc(#loc1)
    %cst_15 = arith.constant dense<-10920> : tensor<1024x1xi32> loc(#loc1)
    %cst_16 = arith.constant dense<-11648> : tensor<1024x1xi32> loc(#loc1)
    %cst_17 = arith.constant dense<0xFF800000> : tensor<1024x1xf32> loc(#loc1)
    %cst_18 = arith.constant dense<-12376> : tensor<1024x1xi32> loc(#loc1)
    %cst_19 = arith.constant dense<728> : tensor<1024x1xi32> loc(#loc1)
    %c1024_i32 = arith.constant 1024 : i32 loc(#loc1)
    %0 = tt.get_program_id y : i32 loc(#loc2)
    %1 = tt.get_program_id x : i32 loc(#loc3)
    %2 = arith.muli %1, %c1024_i32 : i32 loc(#loc4)
    %3 = tt.make_range {end = 1024 : i32, start = 0 : i32} : tensor<1024xi32> loc(#loc5)
    %4 = tt.expand_dims %3 {axis = 1 : i32} : tensor<1024xi32> -> tensor<1024x1xi32> loc(#loc6)
    %5 = tt.splat %2 : i32 -> tensor<1024x1xi32> loc(#loc7)
    %6 = arith.addi %5, %4 : tensor<1024x1xi32> loc(#loc7)
    %7 = arith.cmpi slt, %6, %cst_19 : tensor<1024x1xi32> loc(#loc8)
    %8 = arith.divsi %0, %c16_i32 : i32 loc(#loc9)
    %9 = arith.remsi %8, %c16_i32 : i32 loc(#loc10)
    %10 = arith.remsi %0, %c16_i32 : i32 loc(#loc11)
    %11 = arith.divsi %0, %c256_i32 : i32 loc(#loc12)
    %12 = arith.remsi %0, %c256_i32 : i32 loc(#loc13)
    %13 = arith.muli %0, %c728_i32 : i32 loc(#loc14)
    %14 = tt.splat %13 : i32 -> tensor<1024x1xi32> loc(#loc15)
    %15 = arith.addi %6, %14 : tensor<1024x1xi32> loc(#loc15)
    %16 = tt.splat %arg0 : !tt.ptr<f32> -> tensor<1024x1x!tt.ptr<f32>> loc(#loc16)
    %17 = tt.addptr %16, %15 : tensor<1024x1x!tt.ptr<f32>>, tensor<1024x1xi32> loc(#loc16)
    %18 = tt.load %17, %7 evictionPolicy = evict_last : tensor<1024x1x!tt.ptr<f32>> loc(#loc17)
    %19 = tt.splat %arg2 : !tt.ptr<f32> -> tensor<1024x1x!tt.ptr<f32>> loc(#loc18)
    %20 = tt.addptr %19, %6 : tensor<1024x1x!tt.ptr<f32>>, tensor<1024x1xi32> loc(#loc18)
    %21 = tt.load %20, %7 evictionPolicy = evict_last : tensor<1024x1x!tt.ptr<f32>> loc(#loc19)
    %22 = tt.splat %arg3 : !tt.ptr<f32> -> tensor<1024x1x!tt.ptr<f32>> loc(#loc20)
    %23 = tt.addptr %22, %6 : tensor<1024x1x!tt.ptr<f32>>, tensor<1024x1xi32> loc(#loc20)
    %24 = tt.load %23, %7 evictionPolicy = evict_last : tensor<1024x1x!tt.ptr<f32>> loc(#loc21)
    %25 = tt.splat %arg4 : !tt.ptr<f32> -> tensor<1024x1x!tt.ptr<f32>> loc(#loc22)
    %26 = tt.addptr %25, %6 : tensor<1024x1x!tt.ptr<f32>>, tensor<1024x1xi32> loc(#loc22)
    %27 = tt.load %26, %7 evictionPolicy = evict_last : tensor<1024x1x!tt.ptr<f32>> loc(#loc23)
    %28 = tt.splat %arg5 : !tt.ptr<f32> -> tensor<1024x1x!tt.ptr<f32>> loc(#loc24)
    %29 = tt.addptr %28, %6 : tensor<1024x1x!tt.ptr<f32>>, tensor<1024x1xi32> loc(#loc24)
    %30 = tt.load %29, %7 evictionPolicy = evict_last : tensor<1024x1x!tt.ptr<f32>> loc(#loc25)
    %31 = tt.splat %arg6 : !tt.ptr<f32> -> tensor<1024x1x!tt.ptr<f32>> loc(#loc26)
    %32 = tt.addptr %31, %6 : tensor<1024x1x!tt.ptr<f32>>, tensor<1024x1xi32> loc(#loc26)
    %33 = tt.load %32, %7 evictionPolicy = evict_last : tensor<1024x1x!tt.ptr<f32>> loc(#loc27)
    %34 = arith.addi %9, %c-1_i32 : i32 loc(#loc28)
    %35 = arith.extsi %34 : i32 to i64 loc(#loc29)
    %36 = arith.cmpi sge, %35, %c0_i64 : i64 loc(#loc29)
    %37 = arith.cmpi slt, %35, %c16_i64 : i64 loc(#loc30)
    %38 = arith.andi %36, %37 : i1 loc(#loc31)
    %39 = arith.addi %10, %c-1_i32 : i32 loc(#loc32)
    %40 = arith.extsi %39 : i32 to i64 loc(#loc33)
    %41 = arith.cmpi sge, %40, %c0_i64 : i64 loc(#loc33)
    %42 = arith.cmpi slt, %40, %c16_i64 : i64 loc(#loc34)
    %43 = arith.andi %41, %42 : i1 loc(#loc35)
    %44 = arith.andi %38, %43 : i1 loc(#loc36)
    %45 = arith.addi %6, %cst_18 : tensor<1024x1xi32> loc(#loc37)
    %46 = arith.addi %45, %14 : tensor<1024x1xi32> loc(#loc38)
    %47 = tt.splat %arg1 : !tt.ptr<f32> -> tensor<1024x1x!tt.ptr<f32>> loc(#loc39)
    %48 = tt.addptr %47, %46 : tensor<1024x1x!tt.ptr<f32>>, tensor<1024x1xi32> loc(#loc39)
    %49 = tt.splat %44 : i1 -> tensor<1024x1xi1> loc(#loc40)
    %50 = arith.andi %49, %7 : tensor<1024x1xi1> loc(#loc40)
    %51 = tt.load %48, %50, %cst_17 evictionPolicy = evict_last : tensor<1024x1x!tt.ptr<f32>> loc(#loc41)
    %52 = arith.extsi %10 : i32 to i64 loc(#loc42)
    %53 = arith.cmpi sge, %52, %c0_i64 : i64 loc(#loc42)
    %54 = arith.cmpi slt, %52, %c16_i64 : i64 loc(#loc43)
    %55 = arith.andi %53, %54 : i1 loc(#loc44)
    %56 = arith.andi %38, %55 : i1 loc(#loc45)
    %57 = arith.addi %6, %cst_16 : tensor<1024x1xi32> loc(#loc46)
    %58 = arith.addi %57, %14 : tensor<1024x1xi32> loc(#loc47)
    %59 = tt.addptr %47, %58 : tensor<1024x1x!tt.ptr<f32>>, tensor<1024x1xi32> loc(#loc48)
    %60 = tt.splat %56 : i1 -> tensor<1024x1xi1> loc(#loc49)
    %61 = arith.andi %60, %7 : tensor<1024x1xi1> loc(#loc49)
    %62 = tt.load %59, %61, %cst_17 evictionPolicy = evict_last : tensor<1024x1x!tt.ptr<f32>> loc(#loc50)
    %63 = arith.cmpf ogt, %62, %51 : tensor<1024x1xf32> loc(#loc142)
    %64 = arith.cmpf une, %62, %62 : tensor<1024x1xf32> loc(#loc143)
    %65 = arith.ori %63, %64 : tensor<1024x1xi1> loc(#loc144)
    %66 = arith.select %65, %62, %51 : tensor<1024x1xi1>, tensor<1024x1xf32> loc(#loc145)
    %67 = arith.addi %10, %c1_i32 : i32 loc(#loc56)
    %68 = arith.extsi %67 : i32 to i64 loc(#loc57)
    %69 = arith.cmpi sge, %68, %c0_i64 : i64 loc(#loc57)
    %70 = arith.cmpi slt, %68, %c16_i64 : i64 loc(#loc58)
    %71 = arith.andi %69, %70 : i1 loc(#loc59)
    %72 = arith.andi %38, %71 : i1 loc(#loc60)
    %73 = arith.addi %6, %cst_15 : tensor<1024x1xi32> loc(#loc61)
    %74 = arith.addi %73, %14 : tensor<1024x1xi32> loc(#loc62)
    %75 = tt.addptr %47, %74 : tensor<1024x1x!tt.ptr<f32>>, tensor<1024x1xi32> loc(#loc63)
    %76 = tt.splat %72 : i1 -> tensor<1024x1xi1> loc(#loc64)
    %77 = arith.andi %76, %7 : tensor<1024x1xi1> loc(#loc64)
    %78 = tt.load %75, %77, %cst_17 evictionPolicy = evict_last : tensor<1024x1x!tt.ptr<f32>> loc(#loc65)
    %79 = arith.cmpf ogt, %78, %66 : tensor<1024x1xf32> loc(#loc146)
    %80 = arith.cmpf une, %78, %78 : tensor<1024x1xf32> loc(#loc147)
    %81 = arith.ori %79, %80 : tensor<1024x1xi1> loc(#loc148)
    %82 = arith.select %81, %78, %66 : tensor<1024x1xi1>, tensor<1024x1xf32> loc(#loc149)
    %83 = arith.extsi %9 : i32 to i64 loc(#loc67)
    %84 = arith.cmpi sge, %83, %c0_i64 : i64 loc(#loc67)
    %85 = arith.cmpi slt, %83, %c16_i64 : i64 loc(#loc68)
    %86 = arith.andi %84, %85 : i1 loc(#loc69)
    %87 = arith.andi %86, %43 : i1 loc(#loc70)
    %88 = arith.addi %6, %cst_14 : tensor<1024x1xi32> loc(#loc71)
    %89 = arith.addi %88, %14 : tensor<1024x1xi32> loc(#loc72)
    %90 = tt.addptr %47, %89 : tensor<1024x1x!tt.ptr<f32>>, tensor<1024x1xi32> loc(#loc73)
    %91 = tt.splat %87 : i1 -> tensor<1024x1xi1> loc(#loc74)
    %92 = arith.andi %91, %7 : tensor<1024x1xi1> loc(#loc74)
    %93 = tt.load %90, %92, %cst_17 evictionPolicy = evict_last : tensor<1024x1x!tt.ptr<f32>> loc(#loc75)
    %94 = arith.cmpf ogt, %93, %82 : tensor<1024x1xf32> loc(#loc150)
    %95 = arith.cmpf une, %93, %93 : tensor<1024x1xf32> loc(#loc151)
    %96 = arith.ori %94, %95 : tensor<1024x1xi1> loc(#loc152)
    %97 = arith.select %96, %93, %82 : tensor<1024x1xi1>, tensor<1024x1xf32> loc(#loc153)
    %98 = arith.andi %86, %55 : i1 loc(#loc77)
    %99 = tt.addptr %47, %15 : tensor<1024x1x!tt.ptr<f32>>, tensor<1024x1xi32> loc(#loc78)
    %100 = tt.splat %98 : i1 -> tensor<1024x1xi1> loc(#loc79)
    %101 = arith.andi %100, %7 : tensor<1024x1xi1> loc(#loc79)
    %102 = tt.load %99, %101, %cst_17 evictionPolicy = evict_last : tensor<1024x1x!tt.ptr<f32>> loc(#loc80)
    %103 = arith.cmpf ogt, %102, %97 : tensor<1024x1xf32> loc(#loc154)
    %104 = arith.cmpf une, %102, %102 : tensor<1024x1xf32> loc(#loc155)
    %105 = arith.ori %103, %104 : tensor<1024x1xi1> loc(#loc156)
    %106 = arith.select %105, %102, %97 : tensor<1024x1xi1>, tensor<1024x1xf32> loc(#loc157)
    %107 = arith.andi %86, %71 : i1 loc(#loc82)
    %108 = arith.addi %6, %cst_19 : tensor<1024x1xi32> loc(#loc83)
    %109 = arith.addi %108, %14 : tensor<1024x1xi32> loc(#loc84)
    %110 = tt.addptr %47, %109 : tensor<1024x1x!tt.ptr<f32>>, tensor<1024x1xi32> loc(#loc85)
    %111 = tt.splat %107 : i1 -> tensor<1024x1xi1> loc(#loc86)
    %112 = arith.andi %111, %7 : tensor<1024x1xi1> loc(#loc86)
    %113 = tt.load %110, %112, %cst_17 evictionPolicy = evict_last : tensor<1024x1x!tt.ptr<f32>> loc(#loc87)
    %114 = arith.cmpf ogt, %113, %106 : tensor<1024x1xf32> loc(#loc158)
    %115 = arith.cmpf une, %113, %113 : tensor<1024x1xf32> loc(#loc159)
    %116 = arith.ori %114, %115 : tensor<1024x1xi1> loc(#loc160)
    %117 = arith.select %116, %113, %106 : tensor<1024x1xi1>, tensor<1024x1xf32> loc(#loc161)
    %118 = arith.addi %9, %c1_i32 : i32 loc(#loc89)
    %119 = arith.extsi %118 : i32 to i64 loc(#loc90)
    %120 = arith.cmpi sge, %119, %c0_i64 : i64 loc(#loc90)
    %121 = arith.cmpi slt, %119, %c16_i64 : i64 loc(#loc91)
    %122 = arith.andi %120, %121 : i1 loc(#loc92)
    %123 = arith.andi %122, %43 : i1 loc(#loc93)
    %124 = arith.addi %6, %cst_13 : tensor<1024x1xi32> loc(#loc94)
    %125 = arith.addi %124, %14 : tensor<1024x1xi32> loc(#loc95)
    %126 = tt.addptr %47, %125 : tensor<1024x1x!tt.ptr<f32>>, tensor<1024x1xi32> loc(#loc96)
    %127 = tt.splat %123 : i1 -> tensor<1024x1xi1> loc(#loc97)
    %128 = arith.andi %127, %7 : tensor<1024x1xi1> loc(#loc97)
    %129 = tt.load %126, %128, %cst_17 evictionPolicy = evict_last : tensor<1024x1x!tt.ptr<f32>> loc(#loc98)
    %130 = arith.cmpf ogt, %129, %117 : tensor<1024x1xf32> loc(#loc162)
    %131 = arith.cmpf une, %129, %129 : tensor<1024x1xf32> loc(#loc163)
    %132 = arith.ori %130, %131 : tensor<1024x1xi1> loc(#loc164)
    %133 = arith.select %132, %129, %117 : tensor<1024x1xi1>, tensor<1024x1xf32> loc(#loc165)
    %134 = arith.andi %122, %55 : i1 loc(#loc100)
    %135 = arith.addi %6, %cst_12 : tensor<1024x1xi32> loc(#loc101)
    %136 = arith.addi %135, %14 : tensor<1024x1xi32> loc(#loc102)
    %137 = tt.addptr %47, %136 : tensor<1024x1x!tt.ptr<f32>>, tensor<1024x1xi32> loc(#loc103)
    %138 = tt.splat %134 : i1 -> tensor<1024x1xi1> loc(#loc104)
    %139 = arith.andi %138, %7 : tensor<1024x1xi1> loc(#loc104)
    %140 = tt.load %137, %139, %cst_17 evictionPolicy = evict_last : tensor<1024x1x!tt.ptr<f32>> loc(#loc105)
    %141 = arith.cmpf ogt, %140, %133 : tensor<1024x1xf32> loc(#loc166)
    %142 = arith.cmpf une, %140, %140 : tensor<1024x1xf32> loc(#loc167)
    %143 = arith.ori %141, %142 : tensor<1024x1xi1> loc(#loc168)
    %144 = arith.select %143, %140, %133 : tensor<1024x1xi1>, tensor<1024x1xf32> loc(#loc169)
    %145 = arith.andi %122, %71 : i1 loc(#loc107)
    %146 = arith.addi %6, %cst_11 : tensor<1024x1xi32> loc(#loc108)
    %147 = arith.addi %146, %14 : tensor<1024x1xi32> loc(#loc109)
    %148 = tt.addptr %47, %147 : tensor<1024x1x!tt.ptr<f32>>, tensor<1024x1xi32> loc(#loc110)
    %149 = tt.splat %145 : i1 -> tensor<1024x1xi1> loc(#loc111)
    %150 = arith.andi %149, %7 : tensor<1024x1xi1> loc(#loc111)
    %151 = tt.load %148, %150, %cst_17 evictionPolicy = evict_last : tensor<1024x1x!tt.ptr<f32>> loc(#loc112)
    %152 = arith.cmpf ogt, %151, %144 : tensor<1024x1xf32> loc(#loc170)
    %153 = arith.cmpf une, %151, %151 : tensor<1024x1xf32> loc(#loc171)
    %154 = arith.ori %152, %153 : tensor<1024x1xi1> loc(#loc172)
    %155 = arith.select %154, %151, %144 : tensor<1024x1xi1>, tensor<1024x1xf32> loc(#loc173)
    %156 = arith.select %63, %cst_10, %cst_9 : tensor<1024x1xi1>, tensor<1024x1xi8> loc(#loc114)
    %157 = arith.select %79, %cst_8, %156 : tensor<1024x1xi1>, tensor<1024x1xi8> loc(#loc115)
    %158 = arith.select %94, %cst_7, %157 : tensor<1024x1xi1>, tensor<1024x1xi8> loc(#loc116)
    %159 = arith.select %103, %cst_6, %158 : tensor<1024x1xi1>, tensor<1024x1xi8> loc(#loc117)
    %160 = arith.select %114, %cst_5, %159 : tensor<1024x1xi1>, tensor<1024x1xi8> loc(#loc118)
    %161 = arith.select %130, %cst_4, %160 : tensor<1024x1xi1>, tensor<1024x1xi8> loc(#loc119)
    %162 = arith.select %141, %cst_3, %161 : tensor<1024x1xi1>, tensor<1024x1xi8> loc(#loc120)
    %163 = arith.select %152, %cst_2, %162 : tensor<1024x1xi1>, tensor<1024x1xi8> loc(#loc121)
    %164 = arith.addf %18, %21 : tensor<1024x1xf32> loc(#loc122)
    %165 = arith.subf %164, %24 : tensor<1024x1xf32> loc(#loc123)
    %166 = arith.addf %27, %cst_1 : tensor<1024x1xf32> loc(#loc124)
    %167 = tt.extern_elementwise %166 {libname = "", libpath = "", pure = true, symbol = "__nv_sqrtf"} : (tensor<1024x1xf32>) -> tensor<1024x1xf32> loc(#loc125)
    %168 = arith.divf %cst, %167 : tensor<1024x1xf32> loc(#loc126)
    %169 = arith.mulf %165, %168 : tensor<1024x1xf32> loc(#loc127)
    %170 = arith.mulf %169, %30 : tensor<1024x1xf32> loc(#loc128)
    %171 = arith.addf %170, %33 : tensor<1024x1xf32> loc(#loc129)
    %172 = arith.addf %155, %171 : tensor<1024x1xf32> loc(#loc130)
    %173 = tt.splat %arg7 : !tt.ptr<i8> -> tensor<1024x1x!tt.ptr<i8>> loc(#loc131)
    %174 = tt.addptr %173, %15 : tensor<1024x1x!tt.ptr<i8>>, tensor<1024x1xi32> loc(#loc131)
    tt.store %174, %163, %7 : tensor<1024x1x!tt.ptr<i8>> loc(#loc132)
    gpu.barrier loc(#loc133)
    tt.store %17, %164, %7 : tensor<1024x1x!tt.ptr<f32>> loc(#loc134)
    %175 = arith.muli %6, %cst_0 : tensor<1024x1xi32> loc(#loc135)
    %176 = tt.splat %12 : i32 -> tensor<1024x1xi32> loc(#loc136)
    %177 = arith.addi %176, %175 : tensor<1024x1xi32> loc(#loc136)
    %178 = arith.muli %11, %c186368_i32 : i32 loc(#loc137)
    %179 = tt.splat %178 : i32 -> tensor<1024x1xi32> loc(#loc138)
    %180 = arith.addi %177, %179 : tensor<1024x1xi32> loc(#loc138)
    %181 = tt.splat %arg8 : !tt.ptr<f32> -> tensor<1024x1x!tt.ptr<f32>> loc(#loc139)
    %182 = tt.addptr %181, %180 : tensor<1024x1x!tt.ptr<f32>>, tensor<1024x1xi32> loc(#loc139)
    tt.store %182, %172, %7 : tensor<1024x1x!tt.ptr<f32>> loc(#loc140)
    tt.return loc(#loc141)
  } loc(#loc)
} loc(#loc)
#loc1 = loc(unknown)
#loc2 = loc("inductor_cache/2k/c2ktk7o3iszzameqeugdr3imivwcvh4sg3ao45lshs54pswdywpt.py":22:28)
#loc3 = loc("inductor_cache/2k/c2ktk7o3iszzameqeugdr3imivwcvh4sg3ao45lshs54pswdywpt.py":25:28)
#loc4 = loc("inductor_cache/2k/c2ktk7o3iszzameqeugdr3imivwcvh4sg3ao45lshs54pswdywpt.py":25:33)
#loc5 = loc("inductor_cache/2k/c2ktk7o3iszzameqeugdr3imivwcvh4sg3ao45lshs54pswdywpt.py":26:36)
#loc6 = loc("inductor_cache/2k/c2ktk7o3iszzameqeugdr3imivwcvh4sg3ao45lshs54pswdywpt.py":26:44)
#loc7 = loc("inductor_cache/2k/c2ktk7o3iszzameqeugdr3imivwcvh4sg3ao45lshs54pswdywpt.py":26:23)
#loc8 = loc("inductor_cache/2k/c2ktk7o3iszzameqeugdr3imivwcvh4sg3ao45lshs54pswdywpt.py":27:21)
#loc9 = loc("inductor_cache/2k/c2ktk7o3iszzameqeugdr3imivwcvh4sg3ao45lshs54pswdywpt.py":28:21)
#loc10 = loc("inductor_cache/2k/c2ktk7o3iszzameqeugdr3imivwcvh4sg3ao45lshs54pswdywpt.py":28:27)
#loc11 = loc("inductor_cache/2k/c2ktk7o3iszzameqeugdr3imivwcvh4sg3ao45lshs54pswdywpt.py":29:19)
#loc12 = loc("inductor_cache/2k/c2ktk7o3iszzameqeugdr3imivwcvh4sg3ao45lshs54pswdywpt.py":32:19)
#loc13 = loc("inductor_cache/2k/c2ktk7o3iszzameqeugdr3imivwcvh4sg3ao45lshs54pswdywpt.py":33:19)
#loc14 = loc("inductor_cache/2k/c2ktk7o3iszzameqeugdr3imivwcvh4sg3ao45lshs54pswdywpt.py":34:44)
#loc15 = loc("inductor_cache/2k/c2ktk7o3iszzameqeugdr3imivwcvh4sg3ao45lshs54pswdywpt.py":34:40)
#loc16 = loc("inductor_cache/2k/c2ktk7o3iszzameqeugdr3imivwcvh4sg3ao45lshs54pswdywpt.py":34:35)
#loc17 = loc("inductor_cache/2k/c2ktk7o3iszzameqeugdr3imivwcvh4sg3ao45lshs54pswdywpt.py":34:49)
#loc18 = loc("inductor_cache/2k/c2ktk7o3iszzameqeugdr3imivwcvh4sg3ao45lshs54pswdywpt.py":35:31)
#loc19 = loc("inductor_cache/2k/c2ktk7o3iszzameqeugdr3imivwcvh4sg3ao45lshs54pswdywpt.py":35:36)
#loc20 = loc("inductor_cache/2k/c2ktk7o3iszzameqeugdr3imivwcvh4sg3ao45lshs54pswdywpt.py":36:31)
#loc21 = loc("inductor_cache/2k/c2ktk7o3iszzameqeugdr3imivwcvh4sg3ao45lshs54pswdywpt.py":36:36)
#loc22 = loc("inductor_cache/2k/c2ktk7o3iszzameqeugdr3imivwcvh4sg3ao45lshs54pswdywpt.py":37:31)
#loc23 = loc("inductor_cache/2k/c2ktk7o3iszzameqeugdr3imivwcvh4sg3ao45lshs54pswdywpt.py":37:36)
#loc24 = loc("inductor_cache/2k/c2ktk7o3iszzameqeugdr3imivwcvh4sg3ao45lshs54pswdywpt.py":38:31)
#loc25 = loc("inductor_cache/2k/c2ktk7o3iszzameqeugdr3imivwcvh4sg3ao45lshs54pswdywpt.py":38:36)
#loc26 = loc("inductor_cache/2k/c2ktk7o3iszzameqeugdr3imivwcvh4sg3ao45lshs54pswdywpt.py":39:31)
#loc27 = loc("inductor_cache/2k/c2ktk7o3iszzameqeugdr3imivwcvh4sg3ao45lshs54pswdywpt.py":39:36)
#loc28 = loc("inductor_cache/2k/c2ktk7o3iszzameqeugdr3imivwcvh4sg3ao45lshs54pswdywpt.py":40:18)
#loc29 = loc("inductor_cache/2k/c2ktk7o3iszzameqeugdr3imivwcvh4sg3ao45lshs54pswdywpt.py":42:19)
#loc30 = loc("inductor_cache/2k/c2ktk7o3iszzameqeugdr3imivwcvh4sg3ao45lshs54pswdywpt.py":44:18)
#loc31 = loc("inductor_cache/2k/c2ktk7o3iszzameqeugdr3imivwcvh4sg3ao45lshs54pswdywpt.py":45:18)
#loc32 = loc("inductor_cache/2k/c2ktk7o3iszzameqeugdr3imivwcvh4sg3ao45lshs54pswdywpt.py":46:18)
#loc33 = loc("inductor_cache/2k/c2ktk7o3iszzameqeugdr3imivwcvh4sg3ao45lshs54pswdywpt.py":47:19)
#loc34 = loc("inductor_cache/2k/c2ktk7o3iszzameqeugdr3imivwcvh4sg3ao45lshs54pswdywpt.py":48:18)
#loc35 = loc("inductor_cache/2k/c2ktk7o3iszzameqeugdr3imivwcvh4sg3ao45lshs54pswdywpt.py":49:18)
#loc36 = loc("inductor_cache/2k/c2ktk7o3iszzameqeugdr3imivwcvh4sg3ao45lshs54pswdywpt.py":50:19)
#loc37 = loc("inductor_cache/2k/c2ktk7o3iszzameqeugdr3imivwcvh4sg3ao45lshs54pswdywpt.py":51:42)
#loc38 = loc("inductor_cache/2k/c2ktk7o3iszzameqeugdr3imivwcvh4sg3ao45lshs54pswdywpt.py":51:47)
#loc39 = loc("inductor_cache/2k/c2ktk7o3iszzameqeugdr3imivwcvh4sg3ao45lshs54pswdywpt.py":51:31)
#loc40 = loc("inductor_cache/2k/c2ktk7o3iszzameqeugdr3imivwcvh4sg3ao45lshs54pswdywpt.py":51:64)
#loc41 = loc("inductor_cache/2k/c2ktk7o3iszzameqeugdr3imivwcvh4sg3ao45lshs54pswdywpt.py":51:56)
#loc42 = loc("inductor_cache/2k/c2ktk7o3iszzameqeugdr3imivwcvh4sg3ao45lshs54pswdywpt.py":53:21)
#loc43 = loc("inductor_cache/2k/c2ktk7o3iszzameqeugdr3imivwcvh4sg3ao45lshs54pswdywpt.py":54:20)
#loc44 = loc("inductor_cache/2k/c2ktk7o3iszzameqeugdr3imivwcvh4sg3ao45lshs54pswdywpt.py":55:20)
#loc45 = loc("inductor_cache/2k/c2ktk7o3iszzameqeugdr3imivwcvh4sg3ao45lshs54pswdywpt.py":56:19)
#loc46 = loc("inductor_cache/2k/c2ktk7o3iszzameqeugdr3imivwcvh4sg3ao45lshs54pswdywpt.py":57:42)
#loc47 = loc("inductor_cache/2k/c2ktk7o3iszzameqeugdr3imivwcvh4sg3ao45lshs54pswdywpt.py":57:47)
#loc48 = loc("inductor_cache/2k/c2ktk7o3iszzameqeugdr3imivwcvh4sg3ao45lshs54pswdywpt.py":57:31)
#loc49 = loc("inductor_cache/2k/c2ktk7o3iszzameqeugdr3imivwcvh4sg3ao45lshs54pswdywpt.py":57:64)
#loc50 = loc("inductor_cache/2k/c2ktk7o3iszzameqeugdr3imivwcvh4sg3ao45lshs54pswdywpt.py":57:56)
#loc51 = loc("/home/sahanp/.conda/envs/parity-bench/lib/python3.12/site-packages/torch/_inductor/runtime/triton_helpers.py":118:15)
#loc52 = loc("inductor_cache/2k/c2ktk7o3iszzameqeugdr3imivwcvh4sg3ao45lshs54pswdywpt.py":58:42)
#loc53 = loc("/home/sahanp/.conda/envs/parity-bench/lib/python3.12/site-packages/torch/_inductor/runtime/triton_helpers.py":120:21)
#loc54 = loc("/home/sahanp/.conda/envs/parity-bench/lib/python3.12/site-packages/torch/_inductor/runtime/triton_helpers.py":120:16)
#loc55 = loc("/home/sahanp/.conda/envs/parity-bench/lib/python3.12/site-packages/torch/_inductor/runtime/triton_helpers.py":121:29)
#loc56 = loc("inductor_cache/2k/c2ktk7o3iszzameqeugdr3imivwcvh4sg3ao45lshs54pswdywpt.py":59:16)
#loc57 = loc("inductor_cache/2k/c2ktk7o3iszzameqeugdr3imivwcvh4sg3ao45lshs54pswdywpt.py":60:21)
#loc58 = loc("inductor_cache/2k/c2ktk7o3iszzameqeugdr3imivwcvh4sg3ao45lshs54pswdywpt.py":61:20)
#loc59 = loc("inductor_cache/2k/c2ktk7o3iszzameqeugdr3imivwcvh4sg3ao45lshs54pswdywpt.py":62:20)
#loc60 = loc("inductor_cache/2k/c2ktk7o3iszzameqeugdr3imivwcvh4sg3ao45lshs54pswdywpt.py":63:19)
#loc61 = loc("inductor_cache/2k/c2ktk7o3iszzameqeugdr3imivwcvh4sg3ao45lshs54pswdywpt.py":64:42)
#loc62 = loc("inductor_cache/2k/c2ktk7o3iszzameqeugdr3imivwcvh4sg3ao45lshs54pswdywpt.py":64:47)
#loc63 = loc("inductor_cache/2k/c2ktk7o3iszzameqeugdr3imivwcvh4sg3ao45lshs54pswdywpt.py":64:31)
#loc64 = loc("inductor_cache/2k/c2ktk7o3iszzameqeugdr3imivwcvh4sg3ao45lshs54pswdywpt.py":64:64)
#loc65 = loc("inductor_cache/2k/c2ktk7o3iszzameqeugdr3imivwcvh4sg3ao45lshs54pswdywpt.py":64:56)
#loc66 = loc("inductor_cache/2k/c2ktk7o3iszzameqeugdr3imivwcvh4sg3ao45lshs54pswdywpt.py":65:42)
#loc67 = loc("inductor_cache/2k/c2ktk7o3iszzameqeugdr3imivwcvh4sg3ao45lshs54pswdywpt.py":67:21)
#loc68 = loc("inductor_cache/2k/c2ktk7o3iszzameqeugdr3imivwcvh4sg3ao45lshs54pswdywpt.py":68:20)
#loc69 = loc("inductor_cache/2k/c2ktk7o3iszzameqeugdr3imivwcvh4sg3ao45lshs54pswdywpt.py":69:20)
#loc70 = loc("inductor_cache/2k/c2ktk7o3iszzameqeugdr3imivwcvh4sg3ao45lshs54pswdywpt.py":70:20)
#loc71 = loc("inductor_cache/2k/c2ktk7o3iszzameqeugdr3imivwcvh4sg3ao45lshs54pswdywpt.py":71:40)
#loc72 = loc("inductor_cache/2k/c2ktk7o3iszzameqeugdr3imivwcvh4sg3ao45lshs54pswdywpt.py":71:45)
#loc73 = loc("inductor_cache/2k/c2ktk7o3iszzameqeugdr3imivwcvh4sg3ao45lshs54pswdywpt.py":71:31)
#loc74 = loc("inductor_cache/2k/c2ktk7o3iszzameqeugdr3imivwcvh4sg3ao45lshs54pswdywpt.py":71:62)
#loc75 = loc("inductor_cache/2k/c2ktk7o3iszzameqeugdr3imivwcvh4sg3ao45lshs54pswdywpt.py":71:54)
#loc76 = loc("inductor_cache/2k/c2ktk7o3iszzameqeugdr3imivwcvh4sg3ao45lshs54pswdywpt.py":72:42)
#loc77 = loc("inductor_cache/2k/c2ktk7o3iszzameqeugdr3imivwcvh4sg3ao45lshs54pswdywpt.py":73:20)
#loc78 = loc("inductor_cache/2k/c2ktk7o3iszzameqeugdr3imivwcvh4sg3ao45lshs54pswdywpt.py":74:31)
#loc79 = loc("inductor_cache/2k/c2ktk7o3iszzameqeugdr3imivwcvh4sg3ao45lshs54pswdywpt.py":74:53)
#loc80 = loc("inductor_cache/2k/c2ktk7o3iszzameqeugdr3imivwcvh4sg3ao45lshs54pswdywpt.py":74:45)
#loc81 = loc("inductor_cache/2k/c2ktk7o3iszzameqeugdr3imivwcvh4sg3ao45lshs54pswdywpt.py":75:42)
#loc82 = loc("inductor_cache/2k/c2ktk7o3iszzameqeugdr3imivwcvh4sg3ao45lshs54pswdywpt.py":76:20)
#loc83 = loc("inductor_cache/2k/c2ktk7o3iszzameqeugdr3imivwcvh4sg3ao45lshs54pswdywpt.py":77:37)
#loc84 = loc("inductor_cache/2k/c2ktk7o3iszzameqeugdr3imivwcvh4sg3ao45lshs54pswdywpt.py":77:42)
#loc85 = loc("inductor_cache/2k/c2ktk7o3iszzameqeugdr3imivwcvh4sg3ao45lshs54pswdywpt.py":77:31)
#loc86 = loc("inductor_cache/2k/c2ktk7o3iszzameqeugdr3imivwcvh4sg3ao45lshs54pswdywpt.py":77:59)
#loc87 = loc("inductor_cache/2k/c2ktk7o3iszzameqeugdr3imivwcvh4sg3ao45lshs54pswdywpt.py":77:51)
#loc88 = loc("inductor_cache/2k/c2ktk7o3iszzameqeugdr3imivwcvh4sg3ao45lshs54pswdywpt.py":78:42)
#loc89 = loc("inductor_cache/2k/c2ktk7o3iszzameqeugdr3imivwcvh4sg3ao45lshs54pswdywpt.py":79:16)
#loc90 = loc("inductor_cache/2k/c2ktk7o3iszzameqeugdr3imivwcvh4sg3ao45lshs54pswdywpt.py":80:21)
#loc91 = loc("inductor_cache/2k/c2ktk7o3iszzameqeugdr3imivwcvh4sg3ao45lshs54pswdywpt.py":81:20)
#loc92 = loc("inductor_cache/2k/c2ktk7o3iszzameqeugdr3imivwcvh4sg3ao45lshs54pswdywpt.py":82:20)
#loc93 = loc("inductor_cache/2k/c2ktk7o3iszzameqeugdr3imivwcvh4sg3ao45lshs54pswdywpt.py":83:20)
#loc94 = loc("inductor_cache/2k/c2ktk7o3iszzameqeugdr3imivwcvh4sg3ao45lshs54pswdywpt.py":84:39)
#loc95 = loc("inductor_cache/2k/c2ktk7o3iszzameqeugdr3imivwcvh4sg3ao45lshs54pswdywpt.py":84:44)
#loc96 = loc("inductor_cache/2k/c2ktk7o3iszzameqeugdr3imivwcvh4sg3ao45lshs54pswdywpt.py":84:31)
#loc97 = loc("inductor_cache/2k/c2ktk7o3iszzameqeugdr3imivwcvh4sg3ao45lshs54pswdywpt.py":84:61)
#loc98 = loc("inductor_cache/2k/c2ktk7o3iszzameqeugdr3imivwcvh4sg3ao45lshs54pswdywpt.py":84:53)
#loc99 = loc("inductor_cache/2k/c2ktk7o3iszzameqeugdr3imivwcvh4sg3ao45lshs54pswdywpt.py":85:42)
#loc100 = loc("inductor_cache/2k/c2ktk7o3iszzameqeugdr3imivwcvh4sg3ao45lshs54pswdywpt.py":86:20)
#loc101 = loc("inductor_cache/2k/c2ktk7o3iszzameqeugdr3imivwcvh4sg3ao45lshs54pswdywpt.py":87:39)
#loc102 = loc("inductor_cache/2k/c2ktk7o3iszzameqeugdr3imivwcvh4sg3ao45lshs54pswdywpt.py":87:44)
#loc103 = loc("inductor_cache/2k/c2ktk7o3iszzameqeugdr3imivwcvh4sg3ao45lshs54pswdywpt.py":87:31)
#loc104 = loc("inductor_cache/2k/c2ktk7o3iszzameqeugdr3imivwcvh4sg3ao45lshs54pswdywpt.py":87:61)
#loc105 = loc("inductor_cache/2k/c2ktk7o3iszzameqeugdr3imivwcvh4sg3ao45lshs54pswdywpt.py":87:53)
#loc106 = loc("inductor_cache/2k/c2ktk7o3iszzameqeugdr3imivwcvh4sg3ao45lshs54pswdywpt.py":88:42)
#loc107 = loc("inductor_cache/2k/c2ktk7o3iszzameqeugdr3imivwcvh4sg3ao45lshs54pswdywpt.py":89:20)
#loc108 = loc("inductor_cache/2k/c2ktk7o3iszzameqeugdr3imivwcvh4sg3ao45lshs54pswdywpt.py":90:39)
#loc109 = loc("inductor_cache/2k/c2ktk7o3iszzameqeugdr3imivwcvh4sg3ao45lshs54pswdywpt.py":90:44)
#loc110 = loc("inductor_cache/2k/c2ktk7o3iszzameqeugdr3imivwcvh4sg3ao45lshs54pswdywpt.py":90:31)
#loc111 = loc("inductor_cache/2k/c2ktk7o3iszzameqeugdr3imivwcvh4sg3ao45lshs54pswdywpt.py":90:61)
#loc112 = loc("inductor_cache/2k/c2ktk7o3iszzameqeugdr3imivwcvh4sg3ao45lshs54pswdywpt.py":90:53)
#loc113 = loc("inductor_cache/2k/c2ktk7o3iszzameqeugdr3imivwcvh4sg3ao45lshs54pswdywpt.py":91:42)
#loc114 = loc("inductor_cache/2k/c2ktk7o3iszzameqeugdr3imivwcvh4sg3ao45lshs54pswdywpt.py":95:35)
#loc115 = loc("inductor_cache/2k/c2ktk7o3iszzameqeugdr3imivwcvh4sg3ao45lshs54pswdywpt.py":98:35)
#loc116 = loc("inductor_cache/2k/c2ktk7o3iszzameqeugdr3imivwcvh4sg3ao45lshs54pswdywpt.py":101:35)
#loc117 = loc("inductor_cache/2k/c2ktk7o3iszzameqeugdr3imivwcvh4sg3ao45lshs54pswdywpt.py":104:35)
#loc118 = loc("inductor_cache/2k/c2ktk7o3iszzameqeugdr3imivwcvh4sg3ao45lshs54pswdywpt.py":107:35)
#loc119 = loc("inductor_cache/2k/c2ktk7o3iszzameqeugdr3imivwcvh4sg3ao45lshs54pswdywpt.py":110:35)
#loc120 = loc("inductor_cache/2k/c2ktk7o3iszzameqeugdr3imivwcvh4sg3ao45lshs54pswdywpt.py":113:35)
#loc121 = loc("inductor_cache/2k/c2ktk7o3iszzameqeugdr3imivwcvh4sg3ao45lshs54pswdywpt.py":116:35)
#loc122 = loc("inductor_cache/2k/c2ktk7o3iszzameqeugdr3imivwcvh4sg3ao45lshs54pswdywpt.py":117:20)
#loc123 = loc("inductor_cache/2k/c2ktk7o3iszzameqeugdr3imivwcvh4sg3ao45lshs54pswdywpt.py":118:20)
#loc124 = loc("inductor_cache/2k/c2ktk7o3iszzameqeugdr3imivwcvh4sg3ao45lshs54pswdywpt.py":120:20)
#loc125 = loc("inductor_cache/2k/c2ktk7o3iszzameqeugdr3imivwcvh4sg3ao45lshs54pswdywpt.py":121:27)
#loc126 = loc("inductor_cache/2k/c2ktk7o3iszzameqeugdr3imivwcvh4sg3ao45lshs54pswdywpt.py":123:20)
#loc127 = loc("inductor_cache/2k/c2ktk7o3iszzameqeugdr3imivwcvh4sg3ao45lshs54pswdywpt.py":126:20)
#loc128 = loc("inductor_cache/2k/c2ktk7o3iszzameqeugdr3imivwcvh4sg3ao45lshs54pswdywpt.py":127:20)
#loc129 = loc("inductor_cache/2k/c2ktk7o3iszzameqeugdr3imivwcvh4sg3ao45lshs54pswdywpt.py":128:20)
#loc130 = loc("inductor_cache/2k/c2ktk7o3iszzameqeugdr3imivwcvh4sg3ao45lshs54pswdywpt.py":129:20)
#loc131 = loc("inductor_cache/2k/c2ktk7o3iszzameqeugdr3imivwcvh4sg3ao45lshs54pswdywpt.py":130:25)
#loc132 = loc("inductor_cache/2k/c2ktk7o3iszzameqeugdr3imivwcvh4sg3ao45lshs54pswdywpt.py":130:46)
#loc133 = loc("inductor_cache/2k/c2ktk7o3iszzameqeugdr3imivwcvh4sg3ao45lshs54pswdywpt.py":131:4)
#loc134 = loc("inductor_cache/2k/c2ktk7o3iszzameqeugdr3imivwcvh4sg3ao45lshs54pswdywpt.py":132:49)
#loc135 = loc("inductor_cache/2k/c2ktk7o3iszzameqeugdr3imivwcvh4sg3ao45lshs54pswdywpt.py":133:34)
#loc136 = loc("inductor_cache/2k/c2ktk7o3iszzameqeugdr3imivwcvh4sg3ao45lshs54pswdywpt.py":133:30)
#loc137 = loc("inductor_cache/2k/c2ktk7o3iszzameqeugdr3imivwcvh4sg3ao45lshs54pswdywpt.py":133:46)
#loc138 = loc("inductor_cache/2k/c2ktk7o3iszzameqeugdr3imivwcvh4sg3ao45lshs54pswdywpt.py":133:39)
#loc139 = loc("inductor_cache/2k/c2ktk7o3iszzameqeugdr3imivwcvh4sg3ao45lshs54pswdywpt.py":133:25)
#loc140 = loc("inductor_cache/2k/c2ktk7o3iszzameqeugdr3imivwcvh4sg3ao45lshs54pswdywpt.py":133:58)
#loc141 = loc("inductor_cache/2k/c2ktk7o3iszzameqeugdr3imivwcvh4sg3ao45lshs54pswdywpt.py":133:4)
#loc142 = loc(callsite(#loc51 at #loc52))
#loc143 = loc(callsite(#loc53 at #loc52))
#loc144 = loc(callsite(#loc54 at #loc52))
#loc145 = loc(callsite(#loc55 at #loc52))
#loc146 = loc(callsite(#loc51 at #loc66))
#loc147 = loc(callsite(#loc53 at #loc66))
#loc148 = loc(callsite(#loc54 at #loc66))
#loc149 = loc(callsite(#loc55 at #loc66))
#loc150 = loc(callsite(#loc51 at #loc76))
#loc151 = loc(callsite(#loc53 at #loc76))
#loc152 = loc(callsite(#loc54 at #loc76))
#loc153 = loc(callsite(#loc55 at #loc76))
#loc154 = loc(callsite(#loc51 at #loc81))
#loc155 = loc(callsite(#loc53 at #loc81))
#loc156 = loc(callsite(#loc54 at #loc81))
#loc157 = loc(callsite(#loc55 at #loc81))
#loc158 = loc(callsite(#loc51 at #loc88))
#loc159 = loc(callsite(#loc53 at #loc88))
#loc160 = loc(callsite(#loc54 at #loc88))
#loc161 = loc(callsite(#loc55 at #loc88))
#loc162 = loc(callsite(#loc51 at #loc99))
#loc163 = loc(callsite(#loc53 at #loc99))
#loc164 = loc(callsite(#loc54 at #loc99))
#loc165 = loc(callsite(#loc55 at #loc99))
#loc166 = loc(callsite(#loc51 at #loc106))
#loc167 = loc(callsite(#loc53 at #loc106))
#loc168 = loc(callsite(#loc54 at #loc106))
#loc169 = loc(callsite(#loc55 at #loc106))
#loc170 = loc(callsite(#loc51 at #loc113))
#loc171 = loc(callsite(#loc53 at #loc113))
#loc172 = loc(callsite(#loc54 at #loc113))
#loc173 = loc(callsite(#loc55 at #loc113))
