#loc = loc("inductor_cache/x6/cx6gtck5e6uith5muxcddw65o3ty4zqm6q5rz7pv7thaowhkrwrk.py":19:0)
#loc1 = loc(unknown)
#loc58 = loc("inductor_cache/x6/cx6gtck5e6uith5muxcddw65o3ty4zqm6q5rz7pv7thaowhkrwrk.py":59:39)
#loc68 = loc("inductor_cache/x6/cx6gtck5e6uith5muxcddw65o3ty4zqm6q5rz7pv7thaowhkrwrk.py":64:26)
#loc81 = loc(callsite(#loc1 at #loc58))
#loc87 = loc(callsite(#loc1 at #loc68))
module {
  tt.func public @triton_per_fused__softmax_mul_pow_sub_sum_1(%arg0: !tt.ptr<f32> {tt.divisibility = 16 : i32} loc("inductor_cache/x6/cx6gtck5e6uith5muxcddw65o3ty4zqm6q5rz7pv7thaowhkrwrk.py":19:0), %arg1: !tt.ptr<f32> {tt.divisibility = 16 : i32} loc("inductor_cache/x6/cx6gtck5e6uith5muxcddw65o3ty4zqm6q5rz7pv7thaowhkrwrk.py":19:0), %arg2: !tt.ptr<f32> {tt.divisibility = 16 : i32} loc("inductor_cache/x6/cx6gtck5e6uith5muxcddw65o3ty4zqm6q5rz7pv7thaowhkrwrk.py":19:0), %arg3: !tt.ptr<f32> {tt.divisibility = 16 : i32} loc("inductor_cache/x6/cx6gtck5e6uith5muxcddw65o3ty4zqm6q5rz7pv7thaowhkrwrk.py":19:0), %arg4: !tt.ptr<f32> {tt.divisibility = 16 : i32} loc("inductor_cache/x6/cx6gtck5e6uith5muxcddw65o3ty4zqm6q5rz7pv7thaowhkrwrk.py":19:0), %arg5: !tt.ptr<f32> {tt.divisibility = 16 : i32} loc("inductor_cache/x6/cx6gtck5e6uith5muxcddw65o3ty4zqm6q5rz7pv7thaowhkrwrk.py":19:0), %arg6: i32 {tt.divisibility = 16 : i32} loc("inductor_cache/x6/cx6gtck5e6uith5muxcddw65o3ty4zqm6q5rz7pv7thaowhkrwrk.py":19:0), %arg7: i32 {tt.divisibility = 16 : i32} loc("inductor_cache/x6/cx6gtck5e6uith5muxcddw65o3ty4zqm6q5rz7pv7thaowhkrwrk.py":19:0)) attributes {noinline = false} {
    %cst = arith.constant dense<0.000000e+00> : tensor<32x32xf32> loc(#loc1)
    %cst_0 = arith.constant dense<0xFF800000> : tensor<32x32xf32> loc(#loc1)
    %cst_1 = arith.constant dense<3> : tensor<1x32xi32> loc(#loc1)
    %cst_2 = arith.constant dense<48> : tensor<32x1xi32> loc(#loc1)
    %cst_3 = arith.constant dense<2> : tensor<1x32xi32> loc(#loc1)
    %cst_4 = arith.constant dense<32> : tensor<32x1xi32> loc(#loc1)
    %cst_5 = arith.constant dense<1> : tensor<1x32xi32> loc(#loc1)
    %cst_6 = arith.constant dense<4> : tensor<1x32xi32> loc(#loc1)
    %cst_7 = arith.constant dense<16> : tensor<32x1xi32> loc(#loc1)
    %cst_8 = arith.constant dense<64> : tensor<32x1xi32> loc(#loc1)
    %c32_i32 = arith.constant 32 : i32 loc(#loc1)
    %0 = tt.get_program_id x : i32 loc(#loc2)
    %1 = arith.muli %0, %c32_i32 : i32 loc(#loc3)
    %2 = tt.make_range {end = 32 : i32, start = 0 : i32} : tensor<32xi32> loc(#loc4)
    %3 = tt.expand_dims %2 {axis = 1 : i32} : tensor<32xi32> -> tensor<32x1xi32> loc(#loc5)
    %4 = tt.splat %1 : i32 -> tensor<32x1xi32> loc(#loc6)
    %5 = arith.addi %4, %3 : tensor<32x1xi32> loc(#loc6)
    %6 = arith.cmpi slt, %5, %cst_8 : tensor<32x1xi32> loc(#loc7)
    %7 = tt.expand_dims %2 {axis = 0 : i32} : tensor<32xi32> -> tensor<1x32xi32> loc(#loc8)
    %8 = arith.remsi %5, %cst_7 : tensor<32x1xi32> loc(#loc9)
    %9 = arith.divsi %5, %cst_7 : tensor<32x1xi32> loc(#loc10)
    %10 = tt.splat %arg0 : !tt.ptr<f32> -> tensor<1x32x!tt.ptr<f32>> loc(#loc11)
    %11 = tt.addptr %10, %7 : tensor<1x32x!tt.ptr<f32>>, tensor<1x32xi32> loc(#loc11)
    %12 = tt.load %11 evictionPolicy = evict_last : tensor<1x32x!tt.ptr<f32>> loc(#loc12)
    %13 = arith.muli %9, %cst_8 : tensor<32x1xi32> loc(#loc13)
    %14 = arith.addi %8, %13 : tensor<32x1xi32> loc(#loc14)
    %15 = tt.splat %arg1 : !tt.ptr<f32> -> tensor<32x1x!tt.ptr<f32>> loc(#loc15)
    %16 = tt.addptr %15, %14 : tensor<32x1x!tt.ptr<f32>>, tensor<32x1xi32> loc(#loc15)
    %17 = tt.load %16, %6 evictionPolicy = evict_last : tensor<32x1x!tt.ptr<f32>> loc(#loc16)
    %18 = arith.muli %7, %cst_6 : tensor<1x32xi32> loc(#loc17)
    %19 = tt.splat %arg2 : !tt.ptr<f32> -> tensor<1x32x!tt.ptr<f32>> loc(#loc18)
    %20 = tt.addptr %19, %18 : tensor<1x32x!tt.ptr<f32>>, tensor<1x32xi32> loc(#loc18)
    %21 = tt.load %20 evictionPolicy = evict_last : tensor<1x32x!tt.ptr<f32>> loc(#loc19)
    %22 = arith.addi %8, %cst_7 : tensor<32x1xi32> loc(#loc20)
    %23 = arith.addi %22, %13 : tensor<32x1xi32> loc(#loc21)
    %24 = tt.addptr %15, %23 : tensor<32x1x!tt.ptr<f32>>, tensor<32x1xi32> loc(#loc22)
    %25 = tt.load %24, %6 evictionPolicy = evict_last : tensor<32x1x!tt.ptr<f32>> loc(#loc23)
    %26 = arith.addi %18, %cst_5 : tensor<1x32xi32> loc(#loc24)
    %27 = tt.addptr %19, %26 : tensor<1x32x!tt.ptr<f32>>, tensor<1x32xi32> loc(#loc25)
    %28 = tt.load %27 evictionPolicy = evict_last : tensor<1x32x!tt.ptr<f32>> loc(#loc26)
    %29 = arith.addi %8, %cst_4 : tensor<32x1xi32> loc(#loc27)
    %30 = arith.addi %29, %13 : tensor<32x1xi32> loc(#loc28)
    %31 = tt.addptr %15, %30 : tensor<32x1x!tt.ptr<f32>>, tensor<32x1xi32> loc(#loc29)
    %32 = tt.load %31, %6 evictionPolicy = evict_last : tensor<32x1x!tt.ptr<f32>> loc(#loc30)
    %33 = arith.addi %18, %cst_3 : tensor<1x32xi32> loc(#loc31)
    %34 = tt.addptr %19, %33 : tensor<1x32x!tt.ptr<f32>>, tensor<1x32xi32> loc(#loc32)
    %35 = tt.load %34 evictionPolicy = evict_last : tensor<1x32x!tt.ptr<f32>> loc(#loc33)
    %36 = arith.addi %8, %cst_2 : tensor<32x1xi32> loc(#loc34)
    %37 = arith.addi %36, %13 : tensor<32x1xi32> loc(#loc35)
    %38 = tt.addptr %15, %37 : tensor<32x1x!tt.ptr<f32>>, tensor<32x1xi32> loc(#loc36)
    %39 = tt.load %38, %6 evictionPolicy = evict_last : tensor<32x1x!tt.ptr<f32>> loc(#loc37)
    %40 = arith.addi %18, %cst_1 : tensor<1x32xi32> loc(#loc38)
    %41 = tt.addptr %19, %40 : tensor<1x32x!tt.ptr<f32>>, tensor<1x32xi32> loc(#loc39)
    %42 = tt.load %41 evictionPolicy = evict_last : tensor<1x32x!tt.ptr<f32>> loc(#loc40)
    %43 = tt.broadcast %17 : tensor<32x1xf32> -> tensor<32x32xf32> loc(#loc41)
    %44 = tt.broadcast %21 : tensor<1x32xf32> -> tensor<32x32xf32> loc(#loc41)
    %45 = arith.subf %43, %44 : tensor<32x32xf32> loc(#loc41)
    %46 = tt.broadcast %12 : tensor<1x32xf32> -> tensor<32x32xf32> loc(#loc42)
    %47 = arith.mulf %46, %45 : tensor<32x32xf32> loc(#loc42)
    %48 = arith.mulf %47, %47 : tensor<32x32xf32> loc(#loc43)
    %49 = tt.broadcast %25 : tensor<32x1xf32> -> tensor<32x32xf32> loc(#loc44)
    %50 = tt.broadcast %28 : tensor<1x32xf32> -> tensor<32x32xf32> loc(#loc44)
    %51 = arith.subf %49, %50 : tensor<32x32xf32> loc(#loc44)
    %52 = arith.mulf %46, %51 : tensor<32x32xf32> loc(#loc45)
    %53 = arith.mulf %52, %52 : tensor<32x32xf32> loc(#loc46)
    %54 = arith.addf %48, %53 : tensor<32x32xf32> loc(#loc47)
    %55 = tt.broadcast %32 : tensor<32x1xf32> -> tensor<32x32xf32> loc(#loc48)
    %56 = tt.broadcast %35 : tensor<1x32xf32> -> tensor<32x32xf32> loc(#loc48)
    %57 = arith.subf %55, %56 : tensor<32x32xf32> loc(#loc48)
    %58 = arith.mulf %46, %57 : tensor<32x32xf32> loc(#loc49)
    %59 = arith.mulf %58, %58 : tensor<32x32xf32> loc(#loc50)
    %60 = arith.addf %54, %59 : tensor<32x32xf32> loc(#loc51)
    %61 = tt.broadcast %39 : tensor<32x1xf32> -> tensor<32x32xf32> loc(#loc52)
    %62 = tt.broadcast %42 : tensor<1x32xf32> -> tensor<32x32xf32> loc(#loc52)
    %63 = arith.subf %61, %62 : tensor<32x32xf32> loc(#loc52)
    %64 = arith.mulf %46, %63 : tensor<32x32xf32> loc(#loc53)
    %65 = arith.mulf %64, %64 : tensor<32x32xf32> loc(#loc54)
    %66 = arith.addf %60, %65 : tensor<32x32xf32> loc(#loc55)
    %67 = tt.broadcast %6 : tensor<32x1xi1> -> tensor<32x32xi1> loc(#loc56)
    %68 = arith.select %67, %66, %cst_0 : tensor<32x32xi1>, tensor<32x32xf32> loc(#loc56)
    %69 = "tt.reduce"(%68) <{axis = 1 : i32}> ({
    ^bb0(%arg8: f32 loc(callsite(#loc1 at #loc58)), %arg9: f32 loc(callsite(#loc1 at #loc58))):
      %87 = arith.cmpf ogt, %arg8, %arg9 : f32 loc(#loc89)
      %88 = arith.cmpf une, %arg8, %arg8 : f32 loc(#loc90)
      %89 = arith.ori %87, %88 : i1 loc(#loc91)
      %90 = arith.select %89, %arg8, %arg9 : f32 loc(#loc92)
      tt.reduce.return %90 : f32 loc(#loc80)
    }) : (tensor<32x32xf32>) -> tensor<32xf32> loc(#loc80)
    %70 = tt.expand_dims %69 {axis = 1 : i32} : tensor<32xf32> -> tensor<32x1xf32> loc(#loc63)
    %71 = tt.broadcast %70 : tensor<32x1xf32> -> tensor<32x32xf32> loc(#loc64)
    %72 = arith.subf %66, %71 : tensor<32x32xf32> loc(#loc64)
    %73 = math.exp %72 : tensor<32x32xf32> loc(#loc65)
    %74 = arith.select %67, %73, %cst : tensor<32x32xi1>, tensor<32x32xf32> loc(#loc66)
    %75 = "tt.reduce"(%74) <{axis = 1 : i32}> ({
    ^bb0(%arg8: f32 loc(callsite(#loc1 at #loc68)), %arg9: f32 loc(callsite(#loc1 at #loc68))):
      %87 = arith.addf %arg8, %arg9 : f32 loc(#loc93)
      tt.reduce.return %87 : f32 loc(#loc86)
    }) : (tensor<32x32xf32>) -> tensor<32xf32> loc(#loc86)
    %76 = tt.expand_dims %75 {axis = 1 : i32} : tensor<32xf32> -> tensor<32x1xf32> loc(#loc70)
    %77 = arith.muli %5, %cst_4 : tensor<32x1xi32> loc(#loc71)
    %78 = tt.broadcast %7 : tensor<1x32xi32> -> tensor<32x32xi32> loc(#loc72)
    %79 = tt.broadcast %77 : tensor<32x1xi32> -> tensor<32x32xi32> loc(#loc72)
    %80 = arith.addi %78, %79 : tensor<32x32xi32> loc(#loc72)
    %81 = tt.splat %arg3 : !tt.ptr<f32> -> tensor<32x32x!tt.ptr<f32>> loc(#loc73)
    %82 = tt.addptr %81, %80 : tensor<32x32x!tt.ptr<f32>>, tensor<32x32xi32> loc(#loc73)
    tt.store %82, %66, %67 : tensor<32x32x!tt.ptr<f32>> loc(#loc74)
    %83 = tt.splat %arg4 : !tt.ptr<f32> -> tensor<32x1x!tt.ptr<f32>> loc(#loc75)
    %84 = tt.addptr %83, %5 : tensor<32x1x!tt.ptr<f32>>, tensor<32x1xi32> loc(#loc75)
    tt.store %84, %70, %6 : tensor<32x1x!tt.ptr<f32>> loc(#loc76)
    %85 = tt.splat %arg5 : !tt.ptr<f32> -> tensor<32x1x!tt.ptr<f32>> loc(#loc77)
    %86 = tt.addptr %85, %5 : tensor<32x1x!tt.ptr<f32>>, tensor<32x1xi32> loc(#loc77)
    tt.store %86, %76, %6 : tensor<32x1x!tt.ptr<f32>> loc(#loc78)
    tt.return loc(#loc79)
  } loc(#loc)
} loc(#loc)
#loc2 = loc("inductor_cache/x6/cx6gtck5e6uith5muxcddw65o3ty4zqm6q5rz7pv7thaowhkrwrk.py":23:28)
#loc3 = loc("inductor_cache/x6/cx6gtck5e6uith5muxcddw65o3ty4zqm6q5rz7pv7thaowhkrwrk.py":23:33)
#loc4 = loc("inductor_cache/x6/cx6gtck5e6uith5muxcddw65o3ty4zqm6q5rz7pv7thaowhkrwrk.py":24:36)
#loc5 = loc("inductor_cache/x6/cx6gtck5e6uith5muxcddw65o3ty4zqm6q5rz7pv7thaowhkrwrk.py":24:44)
#loc6 = loc("inductor_cache/x6/cx6gtck5e6uith5muxcddw65o3ty4zqm6q5rz7pv7thaowhkrwrk.py":24:23)
#loc7 = loc("inductor_cache/x6/cx6gtck5e6uith5muxcddw65o3ty4zqm6q5rz7pv7thaowhkrwrk.py":25:21)
#loc8 = loc("inductor_cache/x6/cx6gtck5e6uith5muxcddw65o3ty4zqm6q5rz7pv7thaowhkrwrk.py":26:34)
#loc9 = loc("inductor_cache/x6/cx6gtck5e6uith5muxcddw65o3ty4zqm6q5rz7pv7thaowhkrwrk.py":30:19)
#loc10 = loc("inductor_cache/x6/cx6gtck5e6uith5muxcddw65o3ty4zqm6q5rz7pv7thaowhkrwrk.py":31:19)
#loc11 = loc("inductor_cache/x6/cx6gtck5e6uith5muxcddw65o3ty4zqm6q5rz7pv7thaowhkrwrk.py":33:30)
#loc12 = loc("inductor_cache/x6/cx6gtck5e6uith5muxcddw65o3ty4zqm6q5rz7pv7thaowhkrwrk.py":33:35)
#loc13 = loc("inductor_cache/x6/cx6gtck5e6uith5muxcddw65o3ty4zqm6q5rz7pv7thaowhkrwrk.py":34:38)
#loc14 = loc("inductor_cache/x6/cx6gtck5e6uith5muxcddw65o3ty4zqm6q5rz7pv7thaowhkrwrk.py":34:35)
#loc15 = loc("inductor_cache/x6/cx6gtck5e6uith5muxcddw65o3ty4zqm6q5rz7pv7thaowhkrwrk.py":34:30)
#loc16 = loc("inductor_cache/x6/cx6gtck5e6uith5muxcddw65o3ty4zqm6q5rz7pv7thaowhkrwrk.py":34:43)
#loc17 = loc("inductor_cache/x6/cx6gtck5e6uith5muxcddw65o3ty4zqm6q5rz7pv7thaowhkrwrk.py":35:32)
#loc18 = loc("inductor_cache/x6/cx6gtck5e6uith5muxcddw65o3ty4zqm6q5rz7pv7thaowhkrwrk.py":35:30)
#loc19 = loc("inductor_cache/x6/cx6gtck5e6uith5muxcddw65o3ty4zqm6q5rz7pv7thaowhkrwrk.py":35:37)
#loc20 = loc("inductor_cache/x6/cx6gtck5e6uith5muxcddw65o3ty4zqm6q5rz7pv7thaowhkrwrk.py":36:35)
#loc21 = loc("inductor_cache/x6/cx6gtck5e6uith5muxcddw65o3ty4zqm6q5rz7pv7thaowhkrwrk.py":36:40)
#loc22 = loc("inductor_cache/x6/cx6gtck5e6uith5muxcddw65o3ty4zqm6q5rz7pv7thaowhkrwrk.py":36:30)
#loc23 = loc("inductor_cache/x6/cx6gtck5e6uith5muxcddw65o3ty4zqm6q5rz7pv7thaowhkrwrk.py":36:48)
#loc24 = loc("inductor_cache/x6/cx6gtck5e6uith5muxcddw65o3ty4zqm6q5rz7pv7thaowhkrwrk.py":37:34)
#loc25 = loc("inductor_cache/x6/cx6gtck5e6uith5muxcddw65o3ty4zqm6q5rz7pv7thaowhkrwrk.py":37:30)
#loc26 = loc("inductor_cache/x6/cx6gtck5e6uith5muxcddw65o3ty4zqm6q5rz7pv7thaowhkrwrk.py":37:41)
#loc27 = loc("inductor_cache/x6/cx6gtck5e6uith5muxcddw65o3ty4zqm6q5rz7pv7thaowhkrwrk.py":38:36)
#loc28 = loc("inductor_cache/x6/cx6gtck5e6uith5muxcddw65o3ty4zqm6q5rz7pv7thaowhkrwrk.py":38:41)
#loc29 = loc("inductor_cache/x6/cx6gtck5e6uith5muxcddw65o3ty4zqm6q5rz7pv7thaowhkrwrk.py":38:31)
#loc30 = loc("inductor_cache/x6/cx6gtck5e6uith5muxcddw65o3ty4zqm6q5rz7pv7thaowhkrwrk.py":38:49)
#loc31 = loc("inductor_cache/x6/cx6gtck5e6uith5muxcddw65o3ty4zqm6q5rz7pv7thaowhkrwrk.py":39:35)
#loc32 = loc("inductor_cache/x6/cx6gtck5e6uith5muxcddw65o3ty4zqm6q5rz7pv7thaowhkrwrk.py":39:31)
#loc33 = loc("inductor_cache/x6/cx6gtck5e6uith5muxcddw65o3ty4zqm6q5rz7pv7thaowhkrwrk.py":39:42)
#loc34 = loc("inductor_cache/x6/cx6gtck5e6uith5muxcddw65o3ty4zqm6q5rz7pv7thaowhkrwrk.py":40:36)
#loc35 = loc("inductor_cache/x6/cx6gtck5e6uith5muxcddw65o3ty4zqm6q5rz7pv7thaowhkrwrk.py":40:41)
#loc36 = loc("inductor_cache/x6/cx6gtck5e6uith5muxcddw65o3ty4zqm6q5rz7pv7thaowhkrwrk.py":40:31)
#loc37 = loc("inductor_cache/x6/cx6gtck5e6uith5muxcddw65o3ty4zqm6q5rz7pv7thaowhkrwrk.py":40:49)
#loc38 = loc("inductor_cache/x6/cx6gtck5e6uith5muxcddw65o3ty4zqm6q5rz7pv7thaowhkrwrk.py":41:35)
#loc39 = loc("inductor_cache/x6/cx6gtck5e6uith5muxcddw65o3ty4zqm6q5rz7pv7thaowhkrwrk.py":41:31)
#loc40 = loc("inductor_cache/x6/cx6gtck5e6uith5muxcddw65o3ty4zqm6q5rz7pv7thaowhkrwrk.py":41:42)
#loc41 = loc("inductor_cache/x6/cx6gtck5e6uith5muxcddw65o3ty4zqm6q5rz7pv7thaowhkrwrk.py":42:18)
#loc42 = loc("inductor_cache/x6/cx6gtck5e6uith5muxcddw65o3ty4zqm6q5rz7pv7thaowhkrwrk.py":43:18)
#loc43 = loc("inductor_cache/x6/cx6gtck5e6uith5muxcddw65o3ty4zqm6q5rz7pv7thaowhkrwrk.py":44:18)
#loc44 = loc("inductor_cache/x6/cx6gtck5e6uith5muxcddw65o3ty4zqm6q5rz7pv7thaowhkrwrk.py":45:18)
#loc45 = loc("inductor_cache/x6/cx6gtck5e6uith5muxcddw65o3ty4zqm6q5rz7pv7thaowhkrwrk.py":46:18)
#loc46 = loc("inductor_cache/x6/cx6gtck5e6uith5muxcddw65o3ty4zqm6q5rz7pv7thaowhkrwrk.py":47:19)
#loc47 = loc("inductor_cache/x6/cx6gtck5e6uith5muxcddw65o3ty4zqm6q5rz7pv7thaowhkrwrk.py":48:19)
#loc48 = loc("inductor_cache/x6/cx6gtck5e6uith5muxcddw65o3ty4zqm6q5rz7pv7thaowhkrwrk.py":49:20)
#loc49 = loc("inductor_cache/x6/cx6gtck5e6uith5muxcddw65o3ty4zqm6q5rz7pv7thaowhkrwrk.py":50:19)
#loc50 = loc("inductor_cache/x6/cx6gtck5e6uith5muxcddw65o3ty4zqm6q5rz7pv7thaowhkrwrk.py":51:20)
#loc51 = loc("inductor_cache/x6/cx6gtck5e6uith5muxcddw65o3ty4zqm6q5rz7pv7thaowhkrwrk.py":52:20)
#loc52 = loc("inductor_cache/x6/cx6gtck5e6uith5muxcddw65o3ty4zqm6q5rz7pv7thaowhkrwrk.py":53:20)
#loc53 = loc("inductor_cache/x6/cx6gtck5e6uith5muxcddw65o3ty4zqm6q5rz7pv7thaowhkrwrk.py":54:19)
#loc54 = loc("inductor_cache/x6/cx6gtck5e6uith5muxcddw65o3ty4zqm6q5rz7pv7thaowhkrwrk.py":55:20)
#loc55 = loc("inductor_cache/x6/cx6gtck5e6uith5muxcddw65o3ty4zqm6q5rz7pv7thaowhkrwrk.py":56:20)
#loc56 = loc("inductor_cache/x6/cx6gtck5e6uith5muxcddw65o3ty4zqm6q5rz7pv7thaowhkrwrk.py":58:35)
#loc57 = loc("/home/sahanp/.conda/envs/parity-bench/lib/python3.12/site-packages/torch/_inductor/runtime/triton_helpers.py":131:29)
#loc59 = loc("/home/sahanp/.conda/envs/parity-bench/lib/python3.12/site-packages/torch/_inductor/runtime/triton_helpers.py":118:15)
#loc60 = loc("/home/sahanp/.conda/envs/parity-bench/lib/python3.12/site-packages/torch/_inductor/runtime/triton_helpers.py":120:21)
#loc61 = loc("/home/sahanp/.conda/envs/parity-bench/lib/python3.12/site-packages/torch/_inductor/runtime/triton_helpers.py":120:16)
#loc62 = loc("/home/sahanp/.conda/envs/parity-bench/lib/python3.12/site-packages/torch/_inductor/runtime/triton_helpers.py":121:29)
#loc63 = loc("inductor_cache/x6/cx6gtck5e6uith5muxcddw65o3ty4zqm6q5rz7pv7thaowhkrwrk.py":59:42)
#loc64 = loc("inductor_cache/x6/cx6gtck5e6uith5muxcddw65o3ty4zqm6q5rz7pv7thaowhkrwrk.py":60:20)
#loc65 = loc("inductor_cache/x6/cx6gtck5e6uith5muxcddw65o3ty4zqm6q5rz7pv7thaowhkrwrk.py":61:24)
#loc66 = loc("inductor_cache/x6/cx6gtck5e6uith5muxcddw65o3ty4zqm6q5rz7pv7thaowhkrwrk.py":63:35)
#loc67 = loc("/home/sahanp/.conda/envs/parity-bench/lib/python3.12/site-packages/triton/language/standard.py":267:36)
#loc69 = loc("/home/sahanp/.conda/envs/parity-bench/lib/python3.12/site-packages/triton/language/standard.py":256:15)
#loc70 = loc("inductor_cache/x6/cx6gtck5e6uith5muxcddw65o3ty4zqm6q5rz7pv7thaowhkrwrk.py":64:29)
#loc71 = loc("inductor_cache/x6/cx6gtck5e6uith5muxcddw65o3ty4zqm6q5rz7pv7thaowhkrwrk.py":65:33)
#loc72 = loc("inductor_cache/x6/cx6gtck5e6uith5muxcddw65o3ty4zqm6q5rz7pv7thaowhkrwrk.py":65:30)
#loc73 = loc("inductor_cache/x6/cx6gtck5e6uith5muxcddw65o3ty4zqm6q5rz7pv7thaowhkrwrk.py":65:25)
#loc74 = loc("inductor_cache/x6/cx6gtck5e6uith5muxcddw65o3ty4zqm6q5rz7pv7thaowhkrwrk.py":65:45)
#loc75 = loc("inductor_cache/x6/cx6gtck5e6uith5muxcddw65o3ty4zqm6q5rz7pv7thaowhkrwrk.py":66:25)
#loc76 = loc("inductor_cache/x6/cx6gtck5e6uith5muxcddw65o3ty4zqm6q5rz7pv7thaowhkrwrk.py":66:37)
#loc77 = loc("inductor_cache/x6/cx6gtck5e6uith5muxcddw65o3ty4zqm6q5rz7pv7thaowhkrwrk.py":67:25)
#loc78 = loc("inductor_cache/x6/cx6gtck5e6uith5muxcddw65o3ty4zqm6q5rz7pv7thaowhkrwrk.py":67:37)
#loc79 = loc("inductor_cache/x6/cx6gtck5e6uith5muxcddw65o3ty4zqm6q5rz7pv7thaowhkrwrk.py":67:4)
#loc80 = loc(callsite(#loc57 at #loc58))
#loc82 = loc(callsite(#loc59 at #loc57))
#loc83 = loc(callsite(#loc60 at #loc57))
#loc84 = loc(callsite(#loc61 at #loc57))
#loc85 = loc(callsite(#loc62 at #loc57))
#loc86 = loc(callsite(#loc67 at #loc68))
#loc88 = loc(callsite(#loc69 at #loc67))
#loc89 = loc(callsite(#loc82 at #loc58))
#loc90 = loc(callsite(#loc83 at #loc58))
#loc91 = loc(callsite(#loc84 at #loc58))
#loc92 = loc(callsite(#loc85 at #loc58))
#loc93 = loc(callsite(#loc88 at #loc68))
