#loc = loc("inductor_cache/ox/coxkleg5dbh5whwwiefrkayhpw6pyndlx3uzeiopqt7vxhklpmyc.py":19:0)
module {
  tt.func public @triton_poi_fused_max_pool2d_with_indices_11(%arg0: !tt.ptr<f32> {tt.divisibility = 16 : i32} loc("inductor_cache/ox/coxkleg5dbh5whwwiefrkayhpw6pyndlx3uzeiopqt7vxhklpmyc.py":19:0), %arg1: !tt.ptr<f32> {tt.divisibility = 16 : i32} loc("inductor_cache/ox/coxkleg5dbh5whwwiefrkayhpw6pyndlx3uzeiopqt7vxhklpmyc.py":19:0), %arg2: !tt.ptr<i8> {tt.divisibility = 16 : i32} loc("inductor_cache/ox/coxkleg5dbh5whwwiefrkayhpw6pyndlx3uzeiopqt7vxhklpmyc.py":19:0), %arg3: i32 {tt.divisibility = 16 : i32} loc("inductor_cache/ox/coxkleg5dbh5whwwiefrkayhpw6pyndlx3uzeiopqt7vxhklpmyc.py":19:0), %arg4: i32 {tt.divisibility = 16 : i32} loc("inductor_cache/ox/coxkleg5dbh5whwwiefrkayhpw6pyndlx3uzeiopqt7vxhklpmyc.py":19:0)) attributes {noinline = false} {
    %c65536_i32 = arith.constant 65536 : i32 loc(#loc1)
    %c4096_i32 = arith.constant 4096 : i32 loc(#loc1)
    %c64_i32 = arith.constant 64 : i32 loc(#loc1)
    %c256_i32 = arith.constant 256 : i32 loc(#loc1)
    %cst = arith.constant dense<3> : tensor<1024x1xi8> loc(#loc1)
    %cst_0 = arith.constant dense<2> : tensor<1024x1xi8> loc(#loc1)
    %cst_1 = arith.constant dense<0> : tensor<1024x1xi8> loc(#loc1)
    %cst_2 = arith.constant dense<1> : tensor<1024x1xi8> loc(#loc1)
    %cst_3 = arith.constant dense<65> : tensor<1024x1xi32> loc(#loc1)
    %cst_4 = arith.constant dense<64> : tensor<1024x1xi32> loc(#loc1)
    %cst_5 = arith.constant dense<1> : tensor<1024x1xi32> loc(#loc1)
    %cst_6 = arith.constant dense<128> : tensor<1024x1xi32> loc(#loc1)
    %cst_7 = arith.constant dense<2> : tensor<1024x1xi32> loc(#loc1)
    %cst_8 = arith.constant dense<32> : tensor<1024x1xi32> loc(#loc1)
    %cst_9 = arith.constant dense<1024> : tensor<1024x1xi32> loc(#loc1)
    %c1024_i32 = arith.constant 1024 : i32 loc(#loc1)
    %0 = tt.get_program_id y : i32 loc(#loc2)
    %1 = arith.cmpi slt, %0, %c256_i32 : i32 loc(#loc3)
    %2 = tt.get_program_id x : i32 loc(#loc4)
    %3 = arith.muli %2, %c1024_i32 : i32 loc(#loc5)
    %4 = tt.make_range {end = 1024 : i32, start = 0 : i32} : tensor<1024xi32> loc(#loc6)
    %5 = tt.expand_dims %4 {axis = 1 : i32} : tensor<1024xi32> -> tensor<1024x1xi32> loc(#loc7)
    %6 = tt.splat %3 : i32 -> tensor<1024x1xi32> loc(#loc8)
    %7 = arith.addi %6, %5 : tensor<1024x1xi32> loc(#loc8)
    %8 = arith.cmpi slt, %7, %cst_9 : tensor<1024x1xi32> loc(#loc9)
    %9 = arith.remsi %7, %cst_8 : tensor<1024x1xi32> loc(#loc10)
    %10 = arith.divsi %7, %cst_8 : tensor<1024x1xi32> loc(#loc11)
    %11 = arith.remsi %0, %c64_i32 : i32 loc(#loc12)
    %12 = arith.divsi %0, %c64_i32 : i32 loc(#loc13)
    %13 = arith.muli %9, %cst_7 : tensor<1024x1xi32> loc(#loc14)
    %14 = arith.muli %10, %cst_6 : tensor<1024x1xi32> loc(#loc15)
    %15 = arith.addi %13, %14 : tensor<1024x1xi32> loc(#loc16)
    %16 = arith.muli %0, %c4096_i32 : i32 loc(#loc17)
    %17 = tt.splat %16 : i32 -> tensor<1024x1xi32> loc(#loc18)
    %18 = arith.addi %15, %17 : tensor<1024x1xi32> loc(#loc18)
    %19 = tt.splat %arg0 : !tt.ptr<f32> -> tensor<1024x1x!tt.ptr<f32>> loc(#loc19)
    %20 = tt.addptr %19, %18 : tensor<1024x1x!tt.ptr<f32>>, tensor<1024x1xi32> loc(#loc19)
    %21 = tt.splat %1 : i1 -> tensor<1024x1xi1> loc(#loc20)
    %22 = arith.andi %8, %21 : tensor<1024x1xi1> loc(#loc20)
    %23 = tt.load %20, %22 evictionPolicy = evict_last : tensor<1024x1x!tt.ptr<f32>> loc(#loc21)
    %24 = arith.addi %13, %cst_5 : tensor<1024x1xi32> loc(#loc22)
    %25 = arith.addi %24, %14 : tensor<1024x1xi32> loc(#loc23)
    %26 = arith.addi %25, %17 : tensor<1024x1xi32> loc(#loc24)
    %27 = tt.addptr %19, %26 : tensor<1024x1x!tt.ptr<f32>>, tensor<1024x1xi32> loc(#loc25)
    %28 = tt.load %27, %22 evictionPolicy = evict_last : tensor<1024x1x!tt.ptr<f32>> loc(#loc26)
    %29 = arith.addi %13, %cst_4 : tensor<1024x1xi32> loc(#loc27)
    %30 = arith.addi %29, %14 : tensor<1024x1xi32> loc(#loc28)
    %31 = arith.addi %30, %17 : tensor<1024x1xi32> loc(#loc29)
    %32 = tt.addptr %19, %31 : tensor<1024x1x!tt.ptr<f32>>, tensor<1024x1xi32> loc(#loc30)
    %33 = tt.load %32, %22 evictionPolicy = evict_last : tensor<1024x1x!tt.ptr<f32>> loc(#loc31)
    %34 = arith.addi %13, %cst_3 : tensor<1024x1xi32> loc(#loc32)
    %35 = arith.addi %34, %14 : tensor<1024x1xi32> loc(#loc33)
    %36 = arith.addi %35, %17 : tensor<1024x1xi32> loc(#loc34)
    %37 = tt.addptr %19, %36 : tensor<1024x1x!tt.ptr<f32>>, tensor<1024x1xi32> loc(#loc35)
    %38 = tt.load %37, %22 evictionPolicy = evict_last : tensor<1024x1x!tt.ptr<f32>> loc(#loc36)
    %39 = arith.cmpf ogt, %28, %23 : tensor<1024x1xf32> loc(#loc56)
    %40 = arith.cmpf une, %28, %28 : tensor<1024x1xf32> loc(#loc57)
    %41 = arith.ori %39, %40 : tensor<1024x1xi1> loc(#loc58)
    %42 = arith.select %41, %28, %23 : tensor<1024x1xi1>, tensor<1024x1xf32> loc(#loc59)
    %43 = arith.cmpf ogt, %33, %42 : tensor<1024x1xf32> loc(#loc60)
    %44 = arith.cmpf une, %33, %33 : tensor<1024x1xf32> loc(#loc61)
    %45 = arith.ori %43, %44 : tensor<1024x1xi1> loc(#loc62)
    %46 = arith.select %45, %33, %42 : tensor<1024x1xi1>, tensor<1024x1xf32> loc(#loc63)
    %47 = arith.cmpf ogt, %38, %46 : tensor<1024x1xf32> loc(#loc64)
    %48 = arith.cmpf une, %38, %38 : tensor<1024x1xf32> loc(#loc65)
    %49 = arith.ori %47, %48 : tensor<1024x1xi1> loc(#loc66)
    %50 = arith.select %49, %38, %46 : tensor<1024x1xi1>, tensor<1024x1xf32> loc(#loc67)
    %51 = arith.select %39, %cst_2, %cst_1 : tensor<1024x1xi1>, tensor<1024x1xi8> loc(#loc44)
    %52 = arith.select %43, %cst_0, %51 : tensor<1024x1xi1>, tensor<1024x1xi8> loc(#loc45)
    %53 = arith.select %47, %cst, %52 : tensor<1024x1xi1>, tensor<1024x1xi8> loc(#loc46)
    %54 = arith.muli %7, %cst_4 : tensor<1024x1xi32> loc(#loc47)
    %55 = tt.splat %11 : i32 -> tensor<1024x1xi32> loc(#loc48)
    %56 = arith.addi %55, %54 : tensor<1024x1xi32> loc(#loc48)
    %57 = arith.muli %12, %c65536_i32 : i32 loc(#loc49)
    %58 = tt.splat %57 : i32 -> tensor<1024x1xi32> loc(#loc50)
    %59 = arith.addi %56, %58 : tensor<1024x1xi32> loc(#loc50)
    %60 = tt.splat %arg1 : !tt.ptr<f32> -> tensor<1024x1x!tt.ptr<f32>> loc(#loc51)
    %61 = tt.addptr %60, %59 : tensor<1024x1x!tt.ptr<f32>>, tensor<1024x1xi32> loc(#loc51)
    tt.store %61, %50, %22 : tensor<1024x1x!tt.ptr<f32>> loc(#loc52)
    %62 = tt.splat %arg2 : !tt.ptr<i8> -> tensor<1024x1x!tt.ptr<i8>> loc(#loc53)
    %63 = tt.addptr %62, %59 : tensor<1024x1x!tt.ptr<i8>>, tensor<1024x1xi32> loc(#loc53)
    tt.store %63, %53, %22 : tensor<1024x1x!tt.ptr<i8>> loc(#loc54)
    tt.return loc(#loc55)
  } loc(#loc)
} loc(#loc)
#loc1 = loc(unknown)
#loc2 = loc("inductor_cache/ox/coxkleg5dbh5whwwiefrkayhpw6pyndlx3uzeiopqt7vxhklpmyc.py":22:28)
#loc3 = loc("inductor_cache/ox/coxkleg5dbh5whwwiefrkayhpw6pyndlx3uzeiopqt7vxhklpmyc.py":24:21)
#loc4 = loc("inductor_cache/ox/coxkleg5dbh5whwwiefrkayhpw6pyndlx3uzeiopqt7vxhklpmyc.py":25:28)
#loc5 = loc("inductor_cache/ox/coxkleg5dbh5whwwiefrkayhpw6pyndlx3uzeiopqt7vxhklpmyc.py":25:33)
#loc6 = loc("inductor_cache/ox/coxkleg5dbh5whwwiefrkayhpw6pyndlx3uzeiopqt7vxhklpmyc.py":26:36)
#loc7 = loc("inductor_cache/ox/coxkleg5dbh5whwwiefrkayhpw6pyndlx3uzeiopqt7vxhklpmyc.py":26:44)
#loc8 = loc("inductor_cache/ox/coxkleg5dbh5whwwiefrkayhpw6pyndlx3uzeiopqt7vxhklpmyc.py":26:23)
#loc9 = loc("inductor_cache/ox/coxkleg5dbh5whwwiefrkayhpw6pyndlx3uzeiopqt7vxhklpmyc.py":27:21)
#loc10 = loc("inductor_cache/ox/coxkleg5dbh5whwwiefrkayhpw6pyndlx3uzeiopqt7vxhklpmyc.py":28:19)
#loc11 = loc("inductor_cache/ox/coxkleg5dbh5whwwiefrkayhpw6pyndlx3uzeiopqt7vxhklpmyc.py":29:19)
#loc12 = loc("inductor_cache/ox/coxkleg5dbh5whwwiefrkayhpw6pyndlx3uzeiopqt7vxhklpmyc.py":32:19)
#loc13 = loc("inductor_cache/ox/coxkleg5dbh5whwwiefrkayhpw6pyndlx3uzeiopqt7vxhklpmyc.py":33:19)
#loc14 = loc("inductor_cache/ox/coxkleg5dbh5whwwiefrkayhpw6pyndlx3uzeiopqt7vxhklpmyc.py":34:32)
#loc15 = loc("inductor_cache/ox/coxkleg5dbh5whwwiefrkayhpw6pyndlx3uzeiopqt7vxhklpmyc.py":34:41)
#loc16 = loc("inductor_cache/ox/coxkleg5dbh5whwwiefrkayhpw6pyndlx3uzeiopqt7vxhklpmyc.py":34:37)
#loc17 = loc("inductor_cache/ox/coxkleg5dbh5whwwiefrkayhpw6pyndlx3uzeiopqt7vxhklpmyc.py":34:51)
#loc18 = loc("inductor_cache/ox/coxkleg5dbh5whwwiefrkayhpw6pyndlx3uzeiopqt7vxhklpmyc.py":34:46)
#loc19 = loc("inductor_cache/ox/coxkleg5dbh5whwwiefrkayhpw6pyndlx3uzeiopqt7vxhklpmyc.py":34:30)
#loc20 = loc("inductor_cache/ox/coxkleg5dbh5whwwiefrkayhpw6pyndlx3uzeiopqt7vxhklpmyc.py":34:64)
#loc21 = loc("inductor_cache/ox/coxkleg5dbh5whwwiefrkayhpw6pyndlx3uzeiopqt7vxhklpmyc.py":34:56)
#loc22 = loc("inductor_cache/ox/coxkleg5dbh5whwwiefrkayhpw6pyndlx3uzeiopqt7vxhklpmyc.py":35:34)
#loc23 = loc("inductor_cache/ox/coxkleg5dbh5whwwiefrkayhpw6pyndlx3uzeiopqt7vxhklpmyc.py":35:41)
#loc24 = loc("inductor_cache/ox/coxkleg5dbh5whwwiefrkayhpw6pyndlx3uzeiopqt7vxhklpmyc.py":35:50)
#loc25 = loc("inductor_cache/ox/coxkleg5dbh5whwwiefrkayhpw6pyndlx3uzeiopqt7vxhklpmyc.py":35:30)
#loc26 = loc("inductor_cache/ox/coxkleg5dbh5whwwiefrkayhpw6pyndlx3uzeiopqt7vxhklpmyc.py":35:60)
#loc27 = loc("inductor_cache/ox/coxkleg5dbh5whwwiefrkayhpw6pyndlx3uzeiopqt7vxhklpmyc.py":36:35)
#loc28 = loc("inductor_cache/ox/coxkleg5dbh5whwwiefrkayhpw6pyndlx3uzeiopqt7vxhklpmyc.py":36:42)
#loc29 = loc("inductor_cache/ox/coxkleg5dbh5whwwiefrkayhpw6pyndlx3uzeiopqt7vxhklpmyc.py":36:51)
#loc30 = loc("inductor_cache/ox/coxkleg5dbh5whwwiefrkayhpw6pyndlx3uzeiopqt7vxhklpmyc.py":36:30)
#loc31 = loc("inductor_cache/ox/coxkleg5dbh5whwwiefrkayhpw6pyndlx3uzeiopqt7vxhklpmyc.py":36:61)
#loc32 = loc("inductor_cache/ox/coxkleg5dbh5whwwiefrkayhpw6pyndlx3uzeiopqt7vxhklpmyc.py":37:35)
#loc33 = loc("inductor_cache/ox/coxkleg5dbh5whwwiefrkayhpw6pyndlx3uzeiopqt7vxhklpmyc.py":37:42)
#loc34 = loc("inductor_cache/ox/coxkleg5dbh5whwwiefrkayhpw6pyndlx3uzeiopqt7vxhklpmyc.py":37:51)
#loc35 = loc("inductor_cache/ox/coxkleg5dbh5whwwiefrkayhpw6pyndlx3uzeiopqt7vxhklpmyc.py":37:30)
#loc36 = loc("inductor_cache/ox/coxkleg5dbh5whwwiefrkayhpw6pyndlx3uzeiopqt7vxhklpmyc.py":37:61)
#loc37 = loc("/home/sahanp/.conda/envs/parity-bench/lib/python3.12/site-packages/torch/_inductor/runtime/triton_helpers.py":118:15)
#loc38 = loc("inductor_cache/ox/coxkleg5dbh5whwwiefrkayhpw6pyndlx3uzeiopqt7vxhklpmyc.py":38:40)
#loc39 = loc("/home/sahanp/.conda/envs/parity-bench/lib/python3.12/site-packages/torch/_inductor/runtime/triton_helpers.py":120:21)
#loc40 = loc("/home/sahanp/.conda/envs/parity-bench/lib/python3.12/site-packages/torch/_inductor/runtime/triton_helpers.py":120:16)
#loc41 = loc("/home/sahanp/.conda/envs/parity-bench/lib/python3.12/site-packages/torch/_inductor/runtime/triton_helpers.py":121:29)
#loc42 = loc("inductor_cache/ox/coxkleg5dbh5whwwiefrkayhpw6pyndlx3uzeiopqt7vxhklpmyc.py":39:40)
#loc43 = loc("inductor_cache/ox/coxkleg5dbh5whwwiefrkayhpw6pyndlx3uzeiopqt7vxhklpmyc.py":40:40)
#loc44 = loc("inductor_cache/ox/coxkleg5dbh5whwwiefrkayhpw6pyndlx3uzeiopqt7vxhklpmyc.py":44:33)
#loc45 = loc("inductor_cache/ox/coxkleg5dbh5whwwiefrkayhpw6pyndlx3uzeiopqt7vxhklpmyc.py":47:35)
#loc46 = loc("inductor_cache/ox/coxkleg5dbh5whwwiefrkayhpw6pyndlx3uzeiopqt7vxhklpmyc.py":50:35)
#loc47 = loc("inductor_cache/ox/coxkleg5dbh5whwwiefrkayhpw6pyndlx3uzeiopqt7vxhklpmyc.py":51:33)
#loc48 = loc("inductor_cache/ox/coxkleg5dbh5whwwiefrkayhpw6pyndlx3uzeiopqt7vxhklpmyc.py":51:30)
#loc49 = loc("inductor_cache/ox/coxkleg5dbh5whwwiefrkayhpw6pyndlx3uzeiopqt7vxhklpmyc.py":51:44)
#loc50 = loc("inductor_cache/ox/coxkleg5dbh5whwwiefrkayhpw6pyndlx3uzeiopqt7vxhklpmyc.py":51:38)
#loc51 = loc("inductor_cache/ox/coxkleg5dbh5whwwiefrkayhpw6pyndlx3uzeiopqt7vxhklpmyc.py":51:25)
#loc52 = loc("inductor_cache/ox/coxkleg5dbh5whwwiefrkayhpw6pyndlx3uzeiopqt7vxhklpmyc.py":51:55)
#loc53 = loc("inductor_cache/ox/coxkleg5dbh5whwwiefrkayhpw6pyndlx3uzeiopqt7vxhklpmyc.py":52:25)
#loc54 = loc("inductor_cache/ox/coxkleg5dbh5whwwiefrkayhpw6pyndlx3uzeiopqt7vxhklpmyc.py":52:56)
#loc55 = loc("inductor_cache/ox/coxkleg5dbh5whwwiefrkayhpw6pyndlx3uzeiopqt7vxhklpmyc.py":52:4)
#loc56 = loc(callsite(#loc37 at #loc38))
#loc57 = loc(callsite(#loc39 at #loc38))
#loc58 = loc(callsite(#loc40 at #loc38))
#loc59 = loc(callsite(#loc41 at #loc38))
#loc60 = loc(callsite(#loc37 at #loc42))
#loc61 = loc(callsite(#loc39 at #loc42))
#loc62 = loc(callsite(#loc40 at #loc42))
#loc63 = loc(callsite(#loc41 at #loc42))
#loc64 = loc(callsite(#loc37 at #loc43))
#loc65 = loc(callsite(#loc39 at #loc43))
#loc66 = loc(callsite(#loc40 at #loc43))
#loc67 = loc(callsite(#loc41 at #loc43))
