#loc = loc("inductor_cache/s2/cs2j5royqnc2fmua5gkrzqppc2lacurnryxspqfkcbmgxxnegkel.py":19:0)
module {
  tt.func public @triton_poi_fused_avg_pool2d_convolution_28(%arg0: !tt.ptr<f32> {tt.divisibility = 16 : i32} loc("inductor_cache/s2/cs2j5royqnc2fmua5gkrzqppc2lacurnryxspqfkcbmgxxnegkel.py":19:0), %arg1: !tt.ptr<f32> {tt.divisibility = 16 : i32} loc("inductor_cache/s2/cs2j5royqnc2fmua5gkrzqppc2lacurnryxspqfkcbmgxxnegkel.py":19:0), %arg2: !tt.ptr<f32> {tt.divisibility = 16 : i32} loc("inductor_cache/s2/cs2j5royqnc2fmua5gkrzqppc2lacurnryxspqfkcbmgxxnegkel.py":19:0), %arg3: !tt.ptr<f32> {tt.divisibility = 16 : i32} loc("inductor_cache/s2/cs2j5royqnc2fmua5gkrzqppc2lacurnryxspqfkcbmgxxnegkel.py":19:0), %arg4: !tt.ptr<f32> {tt.divisibility = 16 : i32} loc("inductor_cache/s2/cs2j5royqnc2fmua5gkrzqppc2lacurnryxspqfkcbmgxxnegkel.py":19:0), %arg5: i32 {tt.divisibility = 16 : i32} loc("inductor_cache/s2/cs2j5royqnc2fmua5gkrzqppc2lacurnryxspqfkcbmgxxnegkel.py":19:0), %arg6: i32 loc("inductor_cache/s2/cs2j5royqnc2fmua5gkrzqppc2lacurnryxspqfkcbmgxxnegkel.py":19:0)) attributes {noinline = false} {
    %cst = arith.constant dense<221952> : tensor<1x16xi32> loc(#loc1)
    %cst_0 = arith.constant dense<768> : tensor<256x1xi32> loc(#loc1)
    %cst_1 = arith.constant dense<2> : tensor<256x1xi32> loc(#loc1)
    %cst_2 = arith.constant dense<18> : tensor<256x1xi32> loc(#loc1)
    %cst_3 = arith.constant dense<16> : tensor<256x1xi32> loc(#loc1)
    %cst_4 = arith.constant dense<-16> : tensor<256x1xi32> loc(#loc1)
    %cst_5 = arith.constant dense<1> : tensor<256x1xi32> loc(#loc1)
    %cst_6 = arith.constant dense<-17> : tensor<256x1xi32> loc(#loc1)
    %cst_7 = arith.constant dense<0.000000e+00> : tensor<256x16xf32> loc(#loc1)
    %cst_8 = arith.constant dense<-18> : tensor<256x1xi32> loc(#loc1)
    %cst_9 = arith.constant dense<17> : tensor<256x1xi64> loc(#loc1)
    %cst_10 = arith.constant dense<0> : tensor<256x1xi64> loc(#loc1)
    %cst_11 = arith.constant dense<-1> : tensor<256x1xi32> loc(#loc1)
    %cst_12 = arith.constant dense<289> : tensor<1x16xi32> loc(#loc1)
    %cst_13 = arith.constant dense<17> : tensor<256x1xi32> loc(#loc1)
    %cst_14 = arith.constant dense<768> : tensor<1x16xi32> loc(#loc1)
    %cst_15 = arith.constant dense<289> : tensor<256x1xi32> loc(#loc1)
    %c256_i32 = arith.constant 256 : i32 loc(#loc1)
    %c16_i32 = arith.constant 16 : i32 loc(#loc1)
    %0 = tt.get_program_id y : i32 loc(#loc2)
    %1 = arith.muli %0, %c16_i32 : i32 loc(#loc3)
    %2 = tt.make_range {end = 16 : i32, start = 0 : i32} : tensor<16xi32> loc(#loc4)
    %3 = tt.expand_dims %2 {axis = 0 : i32} : tensor<16xi32> -> tensor<1x16xi32> loc(#loc5)
    %4 = tt.splat %1 : i32 -> tensor<1x16xi32> loc(#loc6)
    %5 = arith.addi %4, %3 : tensor<1x16xi32> loc(#loc6)
    %6 = tt.get_program_id x : i32 loc(#loc7)
    %7 = arith.muli %6, %c256_i32 : i32 loc(#loc8)
    %8 = tt.make_range {end = 256 : i32, start = 0 : i32} : tensor<256xi32> loc(#loc9)
    %9 = tt.expand_dims %8 {axis = 1 : i32} : tensor<256xi32> -> tensor<256x1xi32> loc(#loc10)
    %10 = tt.splat %7 : i32 -> tensor<256x1xi32> loc(#loc11)
    %11 = arith.addi %10, %9 : tensor<256x1xi32> loc(#loc11)
    %12 = arith.cmpi slt, %11, %cst_15 : tensor<256x1xi32> loc(#loc12)
    %13 = arith.remsi %5, %cst_14 : tensor<1x16xi32> loc(#loc13)
    %14 = arith.divsi %5, %cst_14 : tensor<1x16xi32> loc(#loc14)
    %15 = arith.divsi %11, %cst_13 : tensor<256x1xi32> loc(#loc15)
    %16 = arith.remsi %11, %cst_13 : tensor<256x1xi32> loc(#loc16)
    %17 = arith.muli %5, %cst_12 : tensor<1x16xi32> loc(#loc17)
    %18 = tt.broadcast %11 : tensor<256x1xi32> -> tensor<256x16xi32> loc(#loc18)
    %19 = tt.broadcast %17 : tensor<1x16xi32> -> tensor<256x16xi32> loc(#loc18)
    %20 = arith.addi %18, %19 : tensor<256x16xi32> loc(#loc18)
    %21 = tt.splat %arg0 : !tt.ptr<f32> -> tensor<256x16x!tt.ptr<f32>> loc(#loc19)
    %22 = tt.addptr %21, %20 : tensor<256x16x!tt.ptr<f32>>, tensor<256x16xi32> loc(#loc19)
    %23 = tt.broadcast %12 : tensor<256x1xi1> -> tensor<256x16xi1> loc(#loc20)
    %24 = tt.load %22, %23 evictionPolicy = evict_last : tensor<256x16x!tt.ptr<f32>> loc(#loc20)
    %25 = arith.addi %15, %cst_11 : tensor<256x1xi32> loc(#loc21)
    %26 = arith.extsi %25 : tensor<256x1xi32> to tensor<256x1xi64> loc(#loc22)
    %27 = arith.cmpi sge, %26, %cst_10 : tensor<256x1xi64> loc(#loc22)
    %28 = arith.cmpi slt, %26, %cst_9 : tensor<256x1xi64> loc(#loc23)
    %29 = arith.andi %27, %28 : tensor<256x1xi1> loc(#loc24)
    %30 = arith.addi %16, %cst_11 : tensor<256x1xi32> loc(#loc25)
    %31 = arith.extsi %30 : tensor<256x1xi32> to tensor<256x1xi64> loc(#loc26)
    %32 = arith.cmpi sge, %31, %cst_10 : tensor<256x1xi64> loc(#loc26)
    %33 = arith.cmpi slt, %31, %cst_9 : tensor<256x1xi64> loc(#loc27)
    %34 = arith.andi %32, %33 : tensor<256x1xi1> loc(#loc28)
    %35 = arith.andi %29, %34 : tensor<256x1xi1> loc(#loc29)
    %36 = arith.addi %11, %cst_8 : tensor<256x1xi32> loc(#loc30)
    %37 = tt.broadcast %36 : tensor<256x1xi32> -> tensor<256x16xi32> loc(#loc31)
    %38 = arith.addi %37, %19 : tensor<256x16xi32> loc(#loc31)
    %39 = tt.addptr %21, %38 : tensor<256x16x!tt.ptr<f32>>, tensor<256x16xi32> loc(#loc32)
    %40 = arith.andi %35, %12 : tensor<256x1xi1> loc(#loc33)
    %41 = tt.broadcast %40 : tensor<256x1xi1> -> tensor<256x16xi1> loc(#loc34)
    %42 = tt.load %39, %41, %cst_7 evictionPolicy = evict_last : tensor<256x16x!tt.ptr<f32>> loc(#loc34)
    %43 = arith.extsi %16 : tensor<256x1xi32> to tensor<256x1xi64> loc(#loc35)
    %44 = arith.cmpi sge, %43, %cst_10 : tensor<256x1xi64> loc(#loc35)
    %45 = arith.cmpi slt, %43, %cst_9 : tensor<256x1xi64> loc(#loc36)
    %46 = arith.andi %44, %45 : tensor<256x1xi1> loc(#loc37)
    %47 = arith.andi %29, %46 : tensor<256x1xi1> loc(#loc38)
    %48 = arith.addi %11, %cst_6 : tensor<256x1xi32> loc(#loc39)
    %49 = tt.broadcast %48 : tensor<256x1xi32> -> tensor<256x16xi32> loc(#loc40)
    %50 = arith.addi %49, %19 : tensor<256x16xi32> loc(#loc40)
    %51 = tt.addptr %21, %50 : tensor<256x16x!tt.ptr<f32>>, tensor<256x16xi32> loc(#loc41)
    %52 = arith.andi %47, %12 : tensor<256x1xi1> loc(#loc42)
    %53 = tt.broadcast %52 : tensor<256x1xi1> -> tensor<256x16xi1> loc(#loc43)
    %54 = tt.load %51, %53, %cst_7 evictionPolicy = evict_last : tensor<256x16x!tt.ptr<f32>> loc(#loc43)
    %55 = arith.addf %54, %42 : tensor<256x16xf32> loc(#loc44)
    %56 = arith.addi %16, %cst_5 : tensor<256x1xi32> loc(#loc45)
    %57 = arith.extsi %56 : tensor<256x1xi32> to tensor<256x1xi64> loc(#loc46)
    %58 = arith.cmpi sge, %57, %cst_10 : tensor<256x1xi64> loc(#loc46)
    %59 = arith.cmpi slt, %57, %cst_9 : tensor<256x1xi64> loc(#loc47)
    %60 = arith.andi %58, %59 : tensor<256x1xi1> loc(#loc48)
    %61 = arith.andi %29, %60 : tensor<256x1xi1> loc(#loc49)
    %62 = arith.addi %11, %cst_4 : tensor<256x1xi32> loc(#loc50)
    %63 = tt.broadcast %62 : tensor<256x1xi32> -> tensor<256x16xi32> loc(#loc51)
    %64 = arith.addi %63, %19 : tensor<256x16xi32> loc(#loc51)
    %65 = tt.addptr %21, %64 : tensor<256x16x!tt.ptr<f32>>, tensor<256x16xi32> loc(#loc52)
    %66 = arith.andi %61, %12 : tensor<256x1xi1> loc(#loc53)
    %67 = tt.broadcast %66 : tensor<256x1xi1> -> tensor<256x16xi1> loc(#loc54)
    %68 = tt.load %65, %67, %cst_7 evictionPolicy = evict_last : tensor<256x16x!tt.ptr<f32>> loc(#loc54)
    %69 = arith.addf %68, %55 : tensor<256x16xf32> loc(#loc55)
    %70 = arith.extsi %15 : tensor<256x1xi32> to tensor<256x1xi64> loc(#loc56)
    %71 = arith.cmpi sge, %70, %cst_10 : tensor<256x1xi64> loc(#loc56)
    %72 = arith.cmpi slt, %70, %cst_9 : tensor<256x1xi64> loc(#loc57)
    %73 = arith.andi %71, %72 : tensor<256x1xi1> loc(#loc58)
    %74 = arith.andi %73, %34 : tensor<256x1xi1> loc(#loc59)
    %75 = arith.addi %11, %cst_11 : tensor<256x1xi32> loc(#loc60)
    %76 = tt.broadcast %75 : tensor<256x1xi32> -> tensor<256x16xi32> loc(#loc61)
    %77 = arith.addi %76, %19 : tensor<256x16xi32> loc(#loc61)
    %78 = tt.addptr %21, %77 : tensor<256x16x!tt.ptr<f32>>, tensor<256x16xi32> loc(#loc62)
    %79 = arith.andi %74, %12 : tensor<256x1xi1> loc(#loc63)
    %80 = tt.broadcast %79 : tensor<256x1xi1> -> tensor<256x16xi1> loc(#loc64)
    %81 = tt.load %78, %80, %cst_7 evictionPolicy = evict_last : tensor<256x16x!tt.ptr<f32>> loc(#loc64)
    %82 = arith.addf %81, %69 : tensor<256x16xf32> loc(#loc65)
    %83 = arith.andi %73, %46 : tensor<256x1xi1> loc(#loc66)
    %84 = arith.andi %83, %12 : tensor<256x1xi1> loc(#loc67)
    %85 = tt.broadcast %84 : tensor<256x1xi1> -> tensor<256x16xi1> loc(#loc68)
    %86 = tt.load %22, %85, %cst_7 evictionPolicy = evict_last : tensor<256x16x!tt.ptr<f32>> loc(#loc68)
    %87 = arith.addf %86, %82 : tensor<256x16xf32> loc(#loc69)
    %88 = arith.andi %73, %60 : tensor<256x1xi1> loc(#loc70)
    %89 = arith.addi %11, %cst_5 : tensor<256x1xi32> loc(#loc71)
    %90 = tt.broadcast %89 : tensor<256x1xi32> -> tensor<256x16xi32> loc(#loc72)
    %91 = arith.addi %90, %19 : tensor<256x16xi32> loc(#loc72)
    %92 = tt.addptr %21, %91 : tensor<256x16x!tt.ptr<f32>>, tensor<256x16xi32> loc(#loc73)
    %93 = arith.andi %88, %12 : tensor<256x1xi1> loc(#loc74)
    %94 = tt.broadcast %93 : tensor<256x1xi1> -> tensor<256x16xi1> loc(#loc75)
    %95 = tt.load %92, %94, %cst_7 evictionPolicy = evict_last : tensor<256x16x!tt.ptr<f32>> loc(#loc75)
    %96 = arith.addf %95, %87 : tensor<256x16xf32> loc(#loc76)
    %97 = arith.addi %15, %cst_5 : tensor<256x1xi32> loc(#loc77)
    %98 = arith.extsi %97 : tensor<256x1xi32> to tensor<256x1xi64> loc(#loc78)
    %99 = arith.cmpi sge, %98, %cst_10 : tensor<256x1xi64> loc(#loc78)
    %100 = arith.cmpi slt, %98, %cst_9 : tensor<256x1xi64> loc(#loc79)
    %101 = arith.andi %99, %100 : tensor<256x1xi1> loc(#loc80)
    %102 = arith.andi %101, %34 : tensor<256x1xi1> loc(#loc81)
    %103 = arith.addi %11, %cst_3 : tensor<256x1xi32> loc(#loc82)
    %104 = tt.broadcast %103 : tensor<256x1xi32> -> tensor<256x16xi32> loc(#loc83)
    %105 = arith.addi %104, %19 : tensor<256x16xi32> loc(#loc83)
    %106 = tt.addptr %21, %105 : tensor<256x16x!tt.ptr<f32>>, tensor<256x16xi32> loc(#loc84)
    %107 = arith.andi %102, %12 : tensor<256x1xi1> loc(#loc85)
    %108 = tt.broadcast %107 : tensor<256x1xi1> -> tensor<256x16xi1> loc(#loc86)
    %109 = tt.load %106, %108, %cst_7 evictionPolicy = evict_last : tensor<256x16x!tt.ptr<f32>> loc(#loc86)
    %110 = arith.addf %109, %96 : tensor<256x16xf32> loc(#loc87)
    %111 = arith.andi %101, %46 : tensor<256x1xi1> loc(#loc88)
    %112 = arith.addi %11, %cst_13 : tensor<256x1xi32> loc(#loc89)
    %113 = tt.broadcast %112 : tensor<256x1xi32> -> tensor<256x16xi32> loc(#loc90)
    %114 = arith.addi %113, %19 : tensor<256x16xi32> loc(#loc90)
    %115 = tt.addptr %21, %114 : tensor<256x16x!tt.ptr<f32>>, tensor<256x16xi32> loc(#loc91)
    %116 = arith.andi %111, %12 : tensor<256x1xi1> loc(#loc92)
    %117 = tt.broadcast %116 : tensor<256x1xi1> -> tensor<256x16xi1> loc(#loc93)
    %118 = tt.load %115, %117, %cst_7 evictionPolicy = evict_last : tensor<256x16x!tt.ptr<f32>> loc(#loc93)
    %119 = arith.addf %118, %110 : tensor<256x16xf32> loc(#loc94)
    %120 = arith.andi %101, %60 : tensor<256x1xi1> loc(#loc95)
    %121 = arith.addi %11, %cst_2 : tensor<256x1xi32> loc(#loc96)
    %122 = tt.broadcast %121 : tensor<256x1xi32> -> tensor<256x16xi32> loc(#loc97)
    %123 = arith.addi %122, %19 : tensor<256x16xi32> loc(#loc97)
    %124 = tt.addptr %21, %123 : tensor<256x16x!tt.ptr<f32>>, tensor<256x16xi32> loc(#loc98)
    %125 = arith.andi %120, %12 : tensor<256x1xi1> loc(#loc99)
    %126 = tt.broadcast %125 : tensor<256x1xi1> -> tensor<256x16xi1> loc(#loc100)
    %127 = tt.load %124, %126, %cst_7 evictionPolicy = evict_last : tensor<256x16x!tt.ptr<f32>> loc(#loc100)
    %128 = arith.addf %127, %119 : tensor<256x16xf32> loc(#loc101)
    %129 = arith.subi %cst_5, %16 : tensor<256x1xi32> loc(#loc102)
    %130 = arith.subi %129, %15 : tensor<256x1xi32> loc(#loc103)
    %131 = arith.muli %16, %15 : tensor<256x1xi32> loc(#loc104)
    %132 = arith.addi %130, %131 : tensor<256x1xi32> loc(#loc105)
    %133 = arith.addi %16, %cst_1 : tensor<256x1xi32> loc(#loc106)
    %134 = arith.cmpi sge, %133, %cst_2 : tensor<256x1xi32> loc(#loc107)
    %135 = arith.extui %134 : tensor<256x1xi1> to tensor<256x1xi32> loc(#loc108)
    %136 = arith.muli %135, %cst_2 : tensor<256x1xi32> loc(#loc108)
    %137 = arith.cmpi slt, %133, %cst_2 : tensor<256x1xi32> loc(#loc109)
    %138 = arith.extui %137 : tensor<256x1xi1> to tensor<256x1xi32> loc(#loc110)
    %139 = arith.muli %133, %138 : tensor<256x1xi32> loc(#loc110)
    %140 = arith.addi %136, %139 : tensor<256x1xi32> loc(#loc111)
    %141 = arith.addi %15, %cst_1 : tensor<256x1xi32> loc(#loc112)
    %142 = arith.cmpi sge, %141, %cst_2 : tensor<256x1xi32> loc(#loc113)
    %143 = arith.extui %142 : tensor<256x1xi1> to tensor<256x1xi32> loc(#loc114)
    %144 = arith.muli %143, %cst_2 : tensor<256x1xi32> loc(#loc114)
    %145 = arith.cmpi slt, %141, %cst_2 : tensor<256x1xi32> loc(#loc115)
    %146 = arith.extui %145 : tensor<256x1xi1> to tensor<256x1xi32> loc(#loc116)
    %147 = arith.muli %141, %146 : tensor<256x1xi32> loc(#loc116)
    %148 = arith.addi %144, %147 : tensor<256x1xi32> loc(#loc117)
    %149 = arith.muli %140, %148 : tensor<256x1xi32> loc(#loc118)
    %150 = arith.addi %132, %149 : tensor<256x1xi32> loc(#loc119)
    %151 = arith.muli %16, %cst_11 : tensor<256x1xi32> loc(#loc120)
    %152 = arith.muli %151, %148 : tensor<256x1xi32> loc(#loc121)
    %153 = arith.addi %150, %152 : tensor<256x1xi32> loc(#loc122)
    %154 = arith.muli %15, %cst_11 : tensor<256x1xi32> loc(#loc123)
    %155 = arith.muli %154, %140 : tensor<256x1xi32> loc(#loc124)
    %156 = arith.addi %153, %155 : tensor<256x1xi32> loc(#loc125)
    %157 = arith.addi %156, %140 : tensor<256x1xi32> loc(#loc126)
    %158 = arith.addi %157, %148 : tensor<256x1xi32> loc(#loc127)
    %159 = arith.sitofp %158 : tensor<256x1xi32> to tensor<256x1xf32> loc(#loc128)
    %160 = tt.broadcast %159 : tensor<256x1xf32> -> tensor<256x16xf32> loc(#loc128)
    %161 = arith.divf %128, %160 : tensor<256x16xf32> loc(#loc128)
    %162 = arith.muli %11, %cst_0 : tensor<256x1xi32> loc(#loc129)
    %163 = tt.broadcast %13 : tensor<1x16xi32> -> tensor<256x16xi32> loc(#loc130)
    %164 = tt.broadcast %162 : tensor<256x1xi32> -> tensor<256x16xi32> loc(#loc130)
    %165 = arith.addi %163, %164 : tensor<256x16xi32> loc(#loc130)
    %166 = arith.muli %14, %cst : tensor<1x16xi32> loc(#loc131)
    %167 = tt.broadcast %166 : tensor<1x16xi32> -> tensor<256x16xi32> loc(#loc132)
    %168 = arith.addi %165, %167 : tensor<256x16xi32> loc(#loc132)
    %169 = tt.splat %arg1 : !tt.ptr<f32> -> tensor<256x16x!tt.ptr<f32>> loc(#loc133)
    %170 = tt.addptr %169, %168 : tensor<256x16x!tt.ptr<f32>>, tensor<256x16xi32> loc(#loc133)
    tt.store %170, %24, %23 : tensor<256x16x!tt.ptr<f32>> loc(#loc134)
    %171 = tt.splat %arg2 : !tt.ptr<f32> -> tensor<256x16x!tt.ptr<f32>> loc(#loc135)
    %172 = tt.addptr %171, %168 : tensor<256x16x!tt.ptr<f32>>, tensor<256x16xi32> loc(#loc135)
    tt.store %172, %24, %23 : tensor<256x16x!tt.ptr<f32>> loc(#loc136)
    %173 = tt.splat %arg3 : !tt.ptr<f32> -> tensor<256x16x!tt.ptr<f32>> loc(#loc137)
    %174 = tt.addptr %173, %168 : tensor<256x16x!tt.ptr<f32>>, tensor<256x16xi32> loc(#loc137)
    tt.store %174, %24, %23 : tensor<256x16x!tt.ptr<f32>> loc(#loc138)
    %175 = tt.splat %arg4 : !tt.ptr<f32> -> tensor<256x16x!tt.ptr<f32>> loc(#loc139)
    %176 = tt.addptr %175, %168 : tensor<256x16x!tt.ptr<f32>>, tensor<256x16xi32> loc(#loc139)
    tt.store %176, %161, %23 : tensor<256x16x!tt.ptr<f32>> loc(#loc140)
    tt.return loc(#loc141)
  } loc(#loc)
} loc(#loc)
#loc1 = loc(unknown)
#loc2 = loc("inductor_cache/s2/cs2j5royqnc2fmua5gkrzqppc2lacurnryxspqfkcbmgxxnegkel.py":22:28)
#loc3 = loc("inductor_cache/s2/cs2j5royqnc2fmua5gkrzqppc2lacurnryxspqfkcbmgxxnegkel.py":22:33)
#loc4 = loc("inductor_cache/s2/cs2j5royqnc2fmua5gkrzqppc2lacurnryxspqfkcbmgxxnegkel.py":23:36)
#loc5 = loc("inductor_cache/s2/cs2j5royqnc2fmua5gkrzqppc2lacurnryxspqfkcbmgxxnegkel.py":23:44)
#loc6 = loc("inductor_cache/s2/cs2j5royqnc2fmua5gkrzqppc2lacurnryxspqfkcbmgxxnegkel.py":23:23)
#loc7 = loc("inductor_cache/s2/cs2j5royqnc2fmua5gkrzqppc2lacurnryxspqfkcbmgxxnegkel.py":25:28)
#loc8 = loc("inductor_cache/s2/cs2j5royqnc2fmua5gkrzqppc2lacurnryxspqfkcbmgxxnegkel.py":25:33)
#loc9 = loc("inductor_cache/s2/cs2j5royqnc2fmua5gkrzqppc2lacurnryxspqfkcbmgxxnegkel.py":26:36)
#loc10 = loc("inductor_cache/s2/cs2j5royqnc2fmua5gkrzqppc2lacurnryxspqfkcbmgxxnegkel.py":26:44)
#loc11 = loc("inductor_cache/s2/cs2j5royqnc2fmua5gkrzqppc2lacurnryxspqfkcbmgxxnegkel.py":26:23)
#loc12 = loc("inductor_cache/s2/cs2j5royqnc2fmua5gkrzqppc2lacurnryxspqfkcbmgxxnegkel.py":27:21)
#loc13 = loc("inductor_cache/s2/cs2j5royqnc2fmua5gkrzqppc2lacurnryxspqfkcbmgxxnegkel.py":30:19)
#loc14 = loc("inductor_cache/s2/cs2j5royqnc2fmua5gkrzqppc2lacurnryxspqfkcbmgxxnegkel.py":31:19)
#loc15 = loc("inductor_cache/s2/cs2j5royqnc2fmua5gkrzqppc2lacurnryxspqfkcbmgxxnegkel.py":32:19)
#loc16 = loc("inductor_cache/s2/cs2j5royqnc2fmua5gkrzqppc2lacurnryxspqfkcbmgxxnegkel.py":33:19)
#loc17 = loc("inductor_cache/s2/cs2j5royqnc2fmua5gkrzqppc2lacurnryxspqfkcbmgxxnegkel.py":34:39)
#loc18 = loc("inductor_cache/s2/cs2j5royqnc2fmua5gkrzqppc2lacurnryxspqfkcbmgxxnegkel.py":34:35)
#loc19 = loc("inductor_cache/s2/cs2j5royqnc2fmua5gkrzqppc2lacurnryxspqfkcbmgxxnegkel.py":34:30)
#loc20 = loc("inductor_cache/s2/cs2j5royqnc2fmua5gkrzqppc2lacurnryxspqfkcbmgxxnegkel.py":34:44)
#loc21 = loc("inductor_cache/s2/cs2j5royqnc2fmua5gkrzqppc2lacurnryxspqfkcbmgxxnegkel.py":35:18)
#loc22 = loc("inductor_cache/s2/cs2j5royqnc2fmua5gkrzqppc2lacurnryxspqfkcbmgxxnegkel.py":37:19)
#loc23 = loc("inductor_cache/s2/cs2j5royqnc2fmua5gkrzqppc2lacurnryxspqfkcbmgxxnegkel.py":39:18)
#loc24 = loc("inductor_cache/s2/cs2j5royqnc2fmua5gkrzqppc2lacurnryxspqfkcbmgxxnegkel.py":40:18)
#loc25 = loc("inductor_cache/s2/cs2j5royqnc2fmua5gkrzqppc2lacurnryxspqfkcbmgxxnegkel.py":41:18)
#loc26 = loc("inductor_cache/s2/cs2j5royqnc2fmua5gkrzqppc2lacurnryxspqfkcbmgxxnegkel.py":42:19)
#loc27 = loc("inductor_cache/s2/cs2j5royqnc2fmua5gkrzqppc2lacurnryxspqfkcbmgxxnegkel.py":43:18)
#loc28 = loc("inductor_cache/s2/cs2j5royqnc2fmua5gkrzqppc2lacurnryxspqfkcbmgxxnegkel.py":44:19)
#loc29 = loc("inductor_cache/s2/cs2j5royqnc2fmua5gkrzqppc2lacurnryxspqfkcbmgxxnegkel.py":45:19)
#loc30 = loc("inductor_cache/s2/cs2j5royqnc2fmua5gkrzqppc2lacurnryxspqfkcbmgxxnegkel.py":46:39)
#loc31 = loc("inductor_cache/s2/cs2j5royqnc2fmua5gkrzqppc2lacurnryxspqfkcbmgxxnegkel.py":46:44)
#loc32 = loc("inductor_cache/s2/cs2j5royqnc2fmua5gkrzqppc2lacurnryxspqfkcbmgxxnegkel.py":46:31)
#loc33 = loc("inductor_cache/s2/cs2j5royqnc2fmua5gkrzqppc2lacurnryxspqfkcbmgxxnegkel.py":46:61)
#loc34 = loc("inductor_cache/s2/cs2j5royqnc2fmua5gkrzqppc2lacurnryxspqfkcbmgxxnegkel.py":46:53)
#loc35 = loc("inductor_cache/s2/cs2j5royqnc2fmua5gkrzqppc2lacurnryxspqfkcbmgxxnegkel.py":48:21)
#loc36 = loc("inductor_cache/s2/cs2j5royqnc2fmua5gkrzqppc2lacurnryxspqfkcbmgxxnegkel.py":49:20)
#loc37 = loc("inductor_cache/s2/cs2j5royqnc2fmua5gkrzqppc2lacurnryxspqfkcbmgxxnegkel.py":50:20)
#loc38 = loc("inductor_cache/s2/cs2j5royqnc2fmua5gkrzqppc2lacurnryxspqfkcbmgxxnegkel.py":51:19)
#loc39 = loc("inductor_cache/s2/cs2j5royqnc2fmua5gkrzqppc2lacurnryxspqfkcbmgxxnegkel.py":52:39)
#loc40 = loc("inductor_cache/s2/cs2j5royqnc2fmua5gkrzqppc2lacurnryxspqfkcbmgxxnegkel.py":52:44)
#loc41 = loc("inductor_cache/s2/cs2j5royqnc2fmua5gkrzqppc2lacurnryxspqfkcbmgxxnegkel.py":52:31)
#loc42 = loc("inductor_cache/s2/cs2j5royqnc2fmua5gkrzqppc2lacurnryxspqfkcbmgxxnegkel.py":52:61)
#loc43 = loc("inductor_cache/s2/cs2j5royqnc2fmua5gkrzqppc2lacurnryxspqfkcbmgxxnegkel.py":52:53)
#loc44 = loc("inductor_cache/s2/cs2j5royqnc2fmua5gkrzqppc2lacurnryxspqfkcbmgxxnegkel.py":53:20)
#loc45 = loc("inductor_cache/s2/cs2j5royqnc2fmua5gkrzqppc2lacurnryxspqfkcbmgxxnegkel.py":54:16)
#loc46 = loc("inductor_cache/s2/cs2j5royqnc2fmua5gkrzqppc2lacurnryxspqfkcbmgxxnegkel.py":55:21)
#loc47 = loc("inductor_cache/s2/cs2j5royqnc2fmua5gkrzqppc2lacurnryxspqfkcbmgxxnegkel.py":56:20)
#loc48 = loc("inductor_cache/s2/cs2j5royqnc2fmua5gkrzqppc2lacurnryxspqfkcbmgxxnegkel.py":57:20)
#loc49 = loc("inductor_cache/s2/cs2j5royqnc2fmua5gkrzqppc2lacurnryxspqfkcbmgxxnegkel.py":58:19)
#loc50 = loc("inductor_cache/s2/cs2j5royqnc2fmua5gkrzqppc2lacurnryxspqfkcbmgxxnegkel.py":59:39)
#loc51 = loc("inductor_cache/s2/cs2j5royqnc2fmua5gkrzqppc2lacurnryxspqfkcbmgxxnegkel.py":59:44)
#loc52 = loc("inductor_cache/s2/cs2j5royqnc2fmua5gkrzqppc2lacurnryxspqfkcbmgxxnegkel.py":59:31)
#loc53 = loc("inductor_cache/s2/cs2j5royqnc2fmua5gkrzqppc2lacurnryxspqfkcbmgxxnegkel.py":59:61)
#loc54 = loc("inductor_cache/s2/cs2j5royqnc2fmua5gkrzqppc2lacurnryxspqfkcbmgxxnegkel.py":59:53)
#loc55 = loc("inductor_cache/s2/cs2j5royqnc2fmua5gkrzqppc2lacurnryxspqfkcbmgxxnegkel.py":60:20)
#loc56 = loc("inductor_cache/s2/cs2j5royqnc2fmua5gkrzqppc2lacurnryxspqfkcbmgxxnegkel.py":62:21)
#loc57 = loc("inductor_cache/s2/cs2j5royqnc2fmua5gkrzqppc2lacurnryxspqfkcbmgxxnegkel.py":63:20)
#loc58 = loc("inductor_cache/s2/cs2j5royqnc2fmua5gkrzqppc2lacurnryxspqfkcbmgxxnegkel.py":64:20)
#loc59 = loc("inductor_cache/s2/cs2j5royqnc2fmua5gkrzqppc2lacurnryxspqfkcbmgxxnegkel.py":65:20)
#loc60 = loc("inductor_cache/s2/cs2j5royqnc2fmua5gkrzqppc2lacurnryxspqfkcbmgxxnegkel.py":66:38)
#loc61 = loc("inductor_cache/s2/cs2j5royqnc2fmua5gkrzqppc2lacurnryxspqfkcbmgxxnegkel.py":66:43)
#loc62 = loc("inductor_cache/s2/cs2j5royqnc2fmua5gkrzqppc2lacurnryxspqfkcbmgxxnegkel.py":66:31)
#loc63 = loc("inductor_cache/s2/cs2j5royqnc2fmua5gkrzqppc2lacurnryxspqfkcbmgxxnegkel.py":66:60)
#loc64 = loc("inductor_cache/s2/cs2j5royqnc2fmua5gkrzqppc2lacurnryxspqfkcbmgxxnegkel.py":66:52)
#loc65 = loc("inductor_cache/s2/cs2j5royqnc2fmua5gkrzqppc2lacurnryxspqfkcbmgxxnegkel.py":67:20)
#loc66 = loc("inductor_cache/s2/cs2j5royqnc2fmua5gkrzqppc2lacurnryxspqfkcbmgxxnegkel.py":68:20)
#loc67 = loc("inductor_cache/s2/cs2j5royqnc2fmua5gkrzqppc2lacurnryxspqfkcbmgxxnegkel.py":69:53)
#loc68 = loc("inductor_cache/s2/cs2j5royqnc2fmua5gkrzqppc2lacurnryxspqfkcbmgxxnegkel.py":69:45)
#loc69 = loc("inductor_cache/s2/cs2j5royqnc2fmua5gkrzqppc2lacurnryxspqfkcbmgxxnegkel.py":70:20)
#loc70 = loc("inductor_cache/s2/cs2j5royqnc2fmua5gkrzqppc2lacurnryxspqfkcbmgxxnegkel.py":71:20)
#loc71 = loc("inductor_cache/s2/cs2j5royqnc2fmua5gkrzqppc2lacurnryxspqfkcbmgxxnegkel.py":72:35)
#loc72 = loc("inductor_cache/s2/cs2j5royqnc2fmua5gkrzqppc2lacurnryxspqfkcbmgxxnegkel.py":72:40)
#loc73 = loc("inductor_cache/s2/cs2j5royqnc2fmua5gkrzqppc2lacurnryxspqfkcbmgxxnegkel.py":72:31)
#loc74 = loc("inductor_cache/s2/cs2j5royqnc2fmua5gkrzqppc2lacurnryxspqfkcbmgxxnegkel.py":72:57)
#loc75 = loc("inductor_cache/s2/cs2j5royqnc2fmua5gkrzqppc2lacurnryxspqfkcbmgxxnegkel.py":72:49)
#loc76 = loc("inductor_cache/s2/cs2j5royqnc2fmua5gkrzqppc2lacurnryxspqfkcbmgxxnegkel.py":73:20)
#loc77 = loc("inductor_cache/s2/cs2j5royqnc2fmua5gkrzqppc2lacurnryxspqfkcbmgxxnegkel.py":74:16)
#loc78 = loc("inductor_cache/s2/cs2j5royqnc2fmua5gkrzqppc2lacurnryxspqfkcbmgxxnegkel.py":75:21)
#loc79 = loc("inductor_cache/s2/cs2j5royqnc2fmua5gkrzqppc2lacurnryxspqfkcbmgxxnegkel.py":76:20)
#loc80 = loc("inductor_cache/s2/cs2j5royqnc2fmua5gkrzqppc2lacurnryxspqfkcbmgxxnegkel.py":77:20)
#loc81 = loc("inductor_cache/s2/cs2j5royqnc2fmua5gkrzqppc2lacurnryxspqfkcbmgxxnegkel.py":78:20)
#loc82 = loc("inductor_cache/s2/cs2j5royqnc2fmua5gkrzqppc2lacurnryxspqfkcbmgxxnegkel.py":79:36)
#loc83 = loc("inductor_cache/s2/cs2j5royqnc2fmua5gkrzqppc2lacurnryxspqfkcbmgxxnegkel.py":79:41)
#loc84 = loc("inductor_cache/s2/cs2j5royqnc2fmua5gkrzqppc2lacurnryxspqfkcbmgxxnegkel.py":79:31)
#loc85 = loc("inductor_cache/s2/cs2j5royqnc2fmua5gkrzqppc2lacurnryxspqfkcbmgxxnegkel.py":79:58)
#loc86 = loc("inductor_cache/s2/cs2j5royqnc2fmua5gkrzqppc2lacurnryxspqfkcbmgxxnegkel.py":79:50)
#loc87 = loc("inductor_cache/s2/cs2j5royqnc2fmua5gkrzqppc2lacurnryxspqfkcbmgxxnegkel.py":80:20)
#loc88 = loc("inductor_cache/s2/cs2j5royqnc2fmua5gkrzqppc2lacurnryxspqfkcbmgxxnegkel.py":81:20)
#loc89 = loc("inductor_cache/s2/cs2j5royqnc2fmua5gkrzqppc2lacurnryxspqfkcbmgxxnegkel.py":82:36)
#loc90 = loc("inductor_cache/s2/cs2j5royqnc2fmua5gkrzqppc2lacurnryxspqfkcbmgxxnegkel.py":82:41)
#loc91 = loc("inductor_cache/s2/cs2j5royqnc2fmua5gkrzqppc2lacurnryxspqfkcbmgxxnegkel.py":82:31)
#loc92 = loc("inductor_cache/s2/cs2j5royqnc2fmua5gkrzqppc2lacurnryxspqfkcbmgxxnegkel.py":82:58)
#loc93 = loc("inductor_cache/s2/cs2j5royqnc2fmua5gkrzqppc2lacurnryxspqfkcbmgxxnegkel.py":82:50)
#loc94 = loc("inductor_cache/s2/cs2j5royqnc2fmua5gkrzqppc2lacurnryxspqfkcbmgxxnegkel.py":83:20)
#loc95 = loc("inductor_cache/s2/cs2j5royqnc2fmua5gkrzqppc2lacurnryxspqfkcbmgxxnegkel.py":84:20)
#loc96 = loc("inductor_cache/s2/cs2j5royqnc2fmua5gkrzqppc2lacurnryxspqfkcbmgxxnegkel.py":85:36)
#loc97 = loc("inductor_cache/s2/cs2j5royqnc2fmua5gkrzqppc2lacurnryxspqfkcbmgxxnegkel.py":85:41)
#loc98 = loc("inductor_cache/s2/cs2j5royqnc2fmua5gkrzqppc2lacurnryxspqfkcbmgxxnegkel.py":85:31)
#loc99 = loc("inductor_cache/s2/cs2j5royqnc2fmua5gkrzqppc2lacurnryxspqfkcbmgxxnegkel.py":85:58)
#loc100 = loc("inductor_cache/s2/cs2j5royqnc2fmua5gkrzqppc2lacurnryxspqfkcbmgxxnegkel.py":85:50)
#loc101 = loc("inductor_cache/s2/cs2j5royqnc2fmua5gkrzqppc2lacurnryxspqfkcbmgxxnegkel.py":86:20)
#loc102 = loc("inductor_cache/s2/cs2j5royqnc2fmua5gkrzqppc2lacurnryxspqfkcbmgxxnegkel.py":87:17)
#loc103 = loc("inductor_cache/s2/cs2j5royqnc2fmua5gkrzqppc2lacurnryxspqfkcbmgxxnegkel.py":87:29)
#loc104 = loc("inductor_cache/s2/cs2j5royqnc2fmua5gkrzqppc2lacurnryxspqfkcbmgxxnegkel.py":87:43)
#loc105 = loc("inductor_cache/s2/cs2j5royqnc2fmua5gkrzqppc2lacurnryxspqfkcbmgxxnegkel.py":87:40)
#loc106 = loc("inductor_cache/s2/cs2j5royqnc2fmua5gkrzqppc2lacurnryxspqfkcbmgxxnegkel.py":87:70)
#loc107 = loc("inductor_cache/s2/cs2j5royqnc2fmua5gkrzqppc2lacurnryxspqfkcbmgxxnegkel.py":87:66)
#loc108 = loc("inductor_cache/s2/cs2j5royqnc2fmua5gkrzqppc2lacurnryxspqfkcbmgxxnegkel.py":87:57)
#loc109 = loc("inductor_cache/s2/cs2j5royqnc2fmua5gkrzqppc2lacurnryxspqfkcbmgxxnegkel.py":87:101)
#loc110 = loc("inductor_cache/s2/cs2j5royqnc2fmua5gkrzqppc2lacurnryxspqfkcbmgxxnegkel.py":87:89)
#loc111 = loc("inductor_cache/s2/cs2j5royqnc2fmua5gkrzqppc2lacurnryxspqfkcbmgxxnegkel.py":87:77)
#loc112 = loc("inductor_cache/s2/cs2j5royqnc2fmua5gkrzqppc2lacurnryxspqfkcbmgxxnegkel.py":87:129)
#loc113 = loc("inductor_cache/s2/cs2j5royqnc2fmua5gkrzqppc2lacurnryxspqfkcbmgxxnegkel.py":87:125)
#loc114 = loc("inductor_cache/s2/cs2j5royqnc2fmua5gkrzqppc2lacurnryxspqfkcbmgxxnegkel.py":87:116)
#loc115 = loc("inductor_cache/s2/cs2j5royqnc2fmua5gkrzqppc2lacurnryxspqfkcbmgxxnegkel.py":87:160)
#loc116 = loc("inductor_cache/s2/cs2j5royqnc2fmua5gkrzqppc2lacurnryxspqfkcbmgxxnegkel.py":87:148)
#loc117 = loc("inductor_cache/s2/cs2j5royqnc2fmua5gkrzqppc2lacurnryxspqfkcbmgxxnegkel.py":87:136)
#loc118 = loc("inductor_cache/s2/cs2j5royqnc2fmua5gkrzqppc2lacurnryxspqfkcbmgxxnegkel.py":87:108)
#loc119 = loc("inductor_cache/s2/cs2j5royqnc2fmua5gkrzqppc2lacurnryxspqfkcbmgxxnegkel.py":87:48)
#loc120 = loc("inductor_cache/s2/cs2j5royqnc2fmua5gkrzqppc2lacurnryxspqfkcbmgxxnegkel.py":87:174)
#loc121 = loc("inductor_cache/s2/cs2j5royqnc2fmua5gkrzqppc2lacurnryxspqfkcbmgxxnegkel.py":87:178)
#loc122 = loc("inductor_cache/s2/cs2j5royqnc2fmua5gkrzqppc2lacurnryxspqfkcbmgxxnegkel.py":87:169)
#loc123 = loc("inductor_cache/s2/cs2j5royqnc2fmua5gkrzqppc2lacurnryxspqfkcbmgxxnegkel.py":87:245)
#loc124 = loc("inductor_cache/s2/cs2j5royqnc2fmua5gkrzqppc2lacurnryxspqfkcbmgxxnegkel.py":87:249)
#loc125 = loc("inductor_cache/s2/cs2j5royqnc2fmua5gkrzqppc2lacurnryxspqfkcbmgxxnegkel.py":87:240)
#loc126 = loc("inductor_cache/s2/cs2j5royqnc2fmua5gkrzqppc2lacurnryxspqfkcbmgxxnegkel.py":87:311)
#loc127 = loc("inductor_cache/s2/cs2j5royqnc2fmua5gkrzqppc2lacurnryxspqfkcbmgxxnegkel.py":87:372)
#loc128 = loc("inductor_cache/s2/cs2j5royqnc2fmua5gkrzqppc2lacurnryxspqfkcbmgxxnegkel.py":88:20)
#loc129 = loc("inductor_cache/s2/cs2j5royqnc2fmua5gkrzqppc2lacurnryxspqfkcbmgxxnegkel.py":89:34)
#loc130 = loc("inductor_cache/s2/cs2j5royqnc2fmua5gkrzqppc2lacurnryxspqfkcbmgxxnegkel.py":89:30)
#loc131 = loc("inductor_cache/s2/cs2j5royqnc2fmua5gkrzqppc2lacurnryxspqfkcbmgxxnegkel.py":89:46)
#loc132 = loc("inductor_cache/s2/cs2j5royqnc2fmua5gkrzqppc2lacurnryxspqfkcbmgxxnegkel.py":89:39)
#loc133 = loc("inductor_cache/s2/cs2j5royqnc2fmua5gkrzqppc2lacurnryxspqfkcbmgxxnegkel.py":89:25)
#loc134 = loc("inductor_cache/s2/cs2j5royqnc2fmua5gkrzqppc2lacurnryxspqfkcbmgxxnegkel.py":89:57)
#loc135 = loc("inductor_cache/s2/cs2j5royqnc2fmua5gkrzqppc2lacurnryxspqfkcbmgxxnegkel.py":90:25)
#loc136 = loc("inductor_cache/s2/cs2j5royqnc2fmua5gkrzqppc2lacurnryxspqfkcbmgxxnegkel.py":90:57)
#loc137 = loc("inductor_cache/s2/cs2j5royqnc2fmua5gkrzqppc2lacurnryxspqfkcbmgxxnegkel.py":91:25)
#loc138 = loc("inductor_cache/s2/cs2j5royqnc2fmua5gkrzqppc2lacurnryxspqfkcbmgxxnegkel.py":91:57)
#loc139 = loc("inductor_cache/s2/cs2j5royqnc2fmua5gkrzqppc2lacurnryxspqfkcbmgxxnegkel.py":92:25)
#loc140 = loc("inductor_cache/s2/cs2j5royqnc2fmua5gkrzqppc2lacurnryxspqfkcbmgxxnegkel.py":92:58)
#loc141 = loc("inductor_cache/s2/cs2j5royqnc2fmua5gkrzqppc2lacurnryxspqfkcbmgxxnegkel.py":92:4)
