#loc = loc("inductor_cache/dm/cdmd6wb46xuhbuif3i7sqck3sraxssnpwfcfenua2gbqplbjykpt.py":19:0)
module {
  tt.func public @triton_poi_fused_add_atan_div_maximum_mean_minimum_mul_pow_sub_sum_0(%arg0: !tt.ptr<f32> {tt.divisibility = 16 : i32} loc("inductor_cache/dm/cdmd6wb46xuhbuif3i7sqck3sraxssnpwfcfenua2gbqplbjykpt.py":19:0), %arg1: !tt.ptr<f32> {tt.divisibility = 16 : i32} loc("inductor_cache/dm/cdmd6wb46xuhbuif3i7sqck3sraxssnpwfcfenua2gbqplbjykpt.py":19:0), %arg2: !tt.ptr<f32> {tt.divisibility = 16 : i32} loc("inductor_cache/dm/cdmd6wb46xuhbuif3i7sqck3sraxssnpwfcfenua2gbqplbjykpt.py":19:0), %arg3: !tt.ptr<f32> {tt.divisibility = 16 : i32} loc("inductor_cache/dm/cdmd6wb46xuhbuif3i7sqck3sraxssnpwfcfenua2gbqplbjykpt.py":19:0), %arg4: !tt.ptr<f32> {tt.divisibility = 16 : i32} loc("inductor_cache/dm/cdmd6wb46xuhbuif3i7sqck3sraxssnpwfcfenua2gbqplbjykpt.py":19:0), %arg5: !tt.ptr<f32> {tt.divisibility = 16 : i32} loc("inductor_cache/dm/cdmd6wb46xuhbuif3i7sqck3sraxssnpwfcfenua2gbqplbjykpt.py":19:0), %arg6: !tt.ptr<f32> {tt.divisibility = 16 : i32} loc("inductor_cache/dm/cdmd6wb46xuhbuif3i7sqck3sraxssnpwfcfenua2gbqplbjykpt.py":19:0), %arg7: !tt.ptr<f32> {tt.divisibility = 16 : i32} loc("inductor_cache/dm/cdmd6wb46xuhbuif3i7sqck3sraxssnpwfcfenua2gbqplbjykpt.py":19:0), %arg8: i32 loc("inductor_cache/dm/cdmd6wb46xuhbuif3i7sqck3sraxssnpwfcfenua2gbqplbjykpt.py":19:0)) attributes {noinline = false} {
    %cst = arith.constant dense<0.000000e+00> : tensor<4xf32> loc(#loc1)
    %cst_0 = arith.constant dense<0.405284733> : tensor<4xf32> loc(#loc1)
    %cst_1 = arith.constant dense<2.000000e+00> : tensor<4xf32> loc(#loc1)
    %cst_2 = arith.constant dense<9.99999974E-6> : tensor<4xf32> loc(#loc1)
    %cst_3 = arith.constant dense<1> : tensor<4xi32> loc(#loc1)
    %cst_4 = arith.constant dense<3> : tensor<4xi32> loc(#loc1)
    %cst_5 = arith.constant dense<2> : tensor<4xi32> loc(#loc1)
    %cst_6 = arith.constant dense<4> : tensor<4xi32> loc(#loc1)
    %c4_i32 = arith.constant 4 : i32 loc(#loc1)
    %0 = tt.get_program_id x : i32 loc(#loc2)
    %1 = arith.muli %0, %c4_i32 : i32 loc(#loc3)
    %2 = tt.make_range {end = 4 : i32, start = 0 : i32} : tensor<4xi32> loc(#loc4)
    %3 = tt.splat %1 : i32 -> tensor<4xi32> loc(#loc5)
    %4 = arith.addi %3, %2 : tensor<4xi32> loc(#loc5)
    %5 = arith.cmpi slt, %4, %cst_6 : tensor<4xi32> loc(#loc6)
    %6 = arith.muli %4, %cst_6 : tensor<4xi32> loc(#loc7)
    %7 = arith.addi %6, %cst_5 : tensor<4xi32> loc(#loc8)
    %8 = tt.splat %arg0 : !tt.ptr<f32> -> tensor<4x!tt.ptr<f32>> loc(#loc9)
    %9 = tt.addptr %8, %7 : tensor<4x!tt.ptr<f32>>, tensor<4xi32> loc(#loc9)
    %10 = tt.load %9, %5 evictionPolicy = evict_last : tensor<4x!tt.ptr<f32>> loc(#loc10)
    %11 = tt.splat %arg1 : !tt.ptr<f32> -> tensor<4x!tt.ptr<f32>> loc(#loc11)
    %12 = tt.addptr %11, %7 : tensor<4x!tt.ptr<f32>>, tensor<4xi32> loc(#loc11)
    %13 = tt.load %12, %5 evictionPolicy = evict_last : tensor<4x!tt.ptr<f32>> loc(#loc12)
    %14 = tt.addptr %8, %6 : tensor<4x!tt.ptr<f32>>, tensor<4xi32> loc(#loc13)
    %15 = tt.load %14, %5 evictionPolicy = evict_last : tensor<4x!tt.ptr<f32>> loc(#loc14)
    %16 = tt.addptr %11, %6 : tensor<4x!tt.ptr<f32>>, tensor<4xi32> loc(#loc15)
    %17 = tt.load %16, %5 evictionPolicy = evict_last : tensor<4x!tt.ptr<f32>> loc(#loc16)
    %18 = arith.addi %6, %cst_4 : tensor<4xi32> loc(#loc17)
    %19 = tt.addptr %8, %18 : tensor<4x!tt.ptr<f32>>, tensor<4xi32> loc(#loc18)
    %20 = tt.load %19, %5 evictionPolicy = evict_last : tensor<4x!tt.ptr<f32>> loc(#loc19)
    %21 = tt.addptr %11, %18 : tensor<4x!tt.ptr<f32>>, tensor<4xi32> loc(#loc20)
    %22 = tt.load %21, %5 evictionPolicy = evict_last : tensor<4x!tt.ptr<f32>> loc(#loc21)
    %23 = arith.addi %6, %cst_3 : tensor<4xi32> loc(#loc22)
    %24 = tt.addptr %8, %23 : tensor<4x!tt.ptr<f32>>, tensor<4xi32> loc(#loc23)
    %25 = tt.load %24, %5 evictionPolicy = evict_last : tensor<4x!tt.ptr<f32>> loc(#loc24)
    %26 = tt.addptr %11, %23 : tensor<4x!tt.ptr<f32>>, tensor<4xi32> loc(#loc25)
    %27 = tt.load %26, %5 evictionPolicy = evict_last : tensor<4x!tt.ptr<f32>> loc(#loc26)
    %28 = arith.cmpf olt, %10, %13 : tensor<4xf32> loc(#loc98)
    %29 = arith.cmpf une, %10, %10 : tensor<4xf32> loc(#loc99)
    %30 = arith.ori %28, %29 : tensor<4xi1> loc(#loc100)
    %31 = arith.select %30, %10, %13 : tensor<4xi1>, tensor<4xf32> loc(#loc101)
    %32 = arith.cmpf ogt, %15, %17 : tensor<4xf32> loc(#loc102)
    %33 = arith.cmpf une, %15, %15 : tensor<4xf32> loc(#loc103)
    %34 = arith.ori %32, %33 : tensor<4xi1> loc(#loc104)
    %35 = arith.select %34, %15, %17 : tensor<4xi1>, tensor<4xf32> loc(#loc105)
    %36 = arith.subf %31, %35 : tensor<4xf32> loc(#loc37)
    %37 = arith.addf %36, %cst_2 : tensor<4xf32> loc(#loc38)
    %38 = arith.cmpf ogt, %37, %cst : tensor<4xf32> loc(#loc106)
    %39 = arith.cmpf une, %37, %37 : tensor<4xf32> loc(#loc107)
    %40 = arith.ori %38, %39 : tensor<4xi1> loc(#loc108)
    %41 = arith.select %40, %37, %cst : tensor<4xi1>, tensor<4xf32> loc(#loc109)
    %42 = arith.cmpf olt, %20, %22 : tensor<4xf32> loc(#loc110)
    %43 = arith.cmpf une, %20, %20 : tensor<4xf32> loc(#loc111)
    %44 = arith.ori %42, %43 : tensor<4xi1> loc(#loc112)
    %45 = arith.select %44, %20, %22 : tensor<4xi1>, tensor<4xf32> loc(#loc113)
    %46 = arith.cmpf ogt, %25, %27 : tensor<4xf32> loc(#loc114)
    %47 = arith.cmpf une, %25, %25 : tensor<4xf32> loc(#loc115)
    %48 = arith.ori %46, %47 : tensor<4xi1> loc(#loc116)
    %49 = arith.select %48, %25, %27 : tensor<4xi1>, tensor<4xf32> loc(#loc117)
    %50 = arith.subf %45, %49 : tensor<4xf32> loc(#loc42)
    %51 = arith.addf %50, %cst_2 : tensor<4xf32> loc(#loc43)
    %52 = arith.cmpf ogt, %51, %cst : tensor<4xf32> loc(#loc118)
    %53 = arith.cmpf une, %51, %51 : tensor<4xf32> loc(#loc119)
    %54 = arith.ori %52, %53 : tensor<4xi1> loc(#loc120)
    %55 = arith.select %54, %51, %cst : tensor<4xi1>, tensor<4xf32> loc(#loc121)
    %56 = arith.mulf %41, %55 : tensor<4xf32> loc(#loc45)
    %57 = arith.subf %10, %15 : tensor<4xf32> loc(#loc46)
    %58 = arith.subf %20, %25 : tensor<4xf32> loc(#loc47)
    %59 = arith.mulf %57, %58 : tensor<4xf32> loc(#loc48)
    %60 = arith.subf %13, %17 : tensor<4xf32> loc(#loc49)
    %61 = arith.subf %22, %27 : tensor<4xf32> loc(#loc50)
    %62 = arith.mulf %60, %61 : tensor<4xf32> loc(#loc51)
    %63 = arith.addf %59, %62 : tensor<4xf32> loc(#loc52)
    %64 = arith.subf %63, %56 : tensor<4xf32> loc(#loc53)
    %65 = arith.addf %15, %10 : tensor<4xf32> loc(#loc54)
    %66 = arith.divf %65, %cst_1 : tensor<4xf32> loc(#loc55)
    %67 = arith.addf %17, %13 : tensor<4xf32> loc(#loc56)
    %68 = arith.divf %67, %cst_1 : tensor<4xf32> loc(#loc57)
    %69 = arith.subf %66, %68 : tensor<4xf32> loc(#loc58)
    %70 = arith.mulf %69, %69 : tensor<4xf32> loc(#loc59)
    %71 = arith.addf %25, %20 : tensor<4xf32> loc(#loc60)
    %72 = arith.divf %71, %cst_1 : tensor<4xf32> loc(#loc61)
    %73 = arith.addf %27, %22 : tensor<4xf32> loc(#loc62)
    %74 = arith.divf %73, %cst_1 : tensor<4xf32> loc(#loc63)
    %75 = arith.subf %72, %74 : tensor<4xf32> loc(#loc64)
    %76 = arith.mulf %75, %75 : tensor<4xf32> loc(#loc65)
    %77 = arith.addf %70, %76 : tensor<4xf32> loc(#loc66)
    %78 = arith.cmpf olt, %15, %17 : tensor<4xf32> loc(#loc122)
    %79 = arith.ori %78, %33 : tensor<4xi1> loc(#loc123)
    %80 = arith.select %79, %15, %17 : tensor<4xi1>, tensor<4xf32> loc(#loc124)
    %81 = arith.cmpf ogt, %10, %13 : tensor<4xf32> loc(#loc125)
    %82 = arith.ori %81, %29 : tensor<4xi1> loc(#loc126)
    %83 = arith.select %82, %10, %13 : tensor<4xi1>, tensor<4xf32> loc(#loc127)
    %84 = arith.subf %80, %83 : tensor<4xf32> loc(#loc69)
    %85 = arith.mulf %84, %84 : tensor<4xf32> loc(#loc70)
    %86 = arith.cmpf olt, %25, %27 : tensor<4xf32> loc(#loc128)
    %87 = arith.ori %86, %47 : tensor<4xi1> loc(#loc129)
    %88 = arith.select %87, %25, %27 : tensor<4xi1>, tensor<4xf32> loc(#loc130)
    %89 = arith.cmpf ogt, %20, %22 : tensor<4xf32> loc(#loc131)
    %90 = arith.ori %89, %43 : tensor<4xi1> loc(#loc132)
    %91 = arith.select %90, %20, %22 : tensor<4xi1>, tensor<4xf32> loc(#loc133)
    %92 = arith.subf %88, %91 : tensor<4xf32> loc(#loc73)
    %93 = arith.mulf %92, %92 : tensor<4xf32> loc(#loc74)
    %94 = arith.addf %85, %93 : tensor<4xf32> loc(#loc75)
    %95 = arith.addf %94, %cst_2 : tensor<4xf32> loc(#loc76)
    %96 = arith.divf %77, %95 : tensor<4xf32> loc(#loc77)
    %97 = arith.divf %57, %58 : tensor<4xf32> loc(#loc78)
    %98 = tt.extern_elementwise %97 {libname = "", libpath = "", pure = true, symbol = "__nv_atanf"} : (tensor<4xf32>) -> tensor<4xf32> loc(#loc79)
    %99 = arith.divf %60, %61 : tensor<4xf32> loc(#loc80)
    %100 = tt.extern_elementwise %99 {libname = "", libpath = "", pure = true, symbol = "__nv_atanf"} : (tensor<4xf32>) -> tensor<4xf32> loc(#loc81)
    %101 = arith.subf %98, %100 : tensor<4xf32> loc(#loc82)
    %102 = arith.mulf %101, %101 : tensor<4xf32> loc(#loc83)
    %103 = arith.mulf %102, %cst_0 : tensor<4xf32> loc(#loc84)
    %104 = tt.splat %arg2 : !tt.ptr<f32> -> tensor<4x!tt.ptr<f32>> loc(#loc85)
    %105 = tt.addptr %104, %4 : tensor<4x!tt.ptr<f32>>, tensor<4xi32> loc(#loc85)
    tt.store %105, %56, %5 : tensor<4x!tt.ptr<f32>> loc(#loc86)
    %106 = tt.splat %arg3 : !tt.ptr<f32> -> tensor<4x!tt.ptr<f32>> loc(#loc87)
    %107 = tt.addptr %106, %4 : tensor<4x!tt.ptr<f32>>, tensor<4xi32> loc(#loc87)
    tt.store %107, %64, %5 : tensor<4x!tt.ptr<f32>> loc(#loc88)
    %108 = tt.splat %arg4 : !tt.ptr<f32> -> tensor<4x!tt.ptr<f32>> loc(#loc89)
    %109 = tt.addptr %108, %4 : tensor<4x!tt.ptr<f32>>, tensor<4xi32> loc(#loc89)
    tt.store %109, %96, %5 : tensor<4x!tt.ptr<f32>> loc(#loc90)
    %110 = tt.splat %arg5 : !tt.ptr<f32> -> tensor<4x!tt.ptr<f32>> loc(#loc91)
    %111 = tt.addptr %110, %4 : tensor<4x!tt.ptr<f32>>, tensor<4xi32> loc(#loc91)
    tt.store %111, %56, %5 : tensor<4x!tt.ptr<f32>> loc(#loc92)
    %112 = tt.splat %arg6 : !tt.ptr<f32> -> tensor<4x!tt.ptr<f32>> loc(#loc93)
    %113 = tt.addptr %112, %4 : tensor<4x!tt.ptr<f32>>, tensor<4xi32> loc(#loc93)
    tt.store %113, %64, %5 : tensor<4x!tt.ptr<f32>> loc(#loc94)
    %114 = tt.splat %arg7 : !tt.ptr<f32> -> tensor<4x!tt.ptr<f32>> loc(#loc95)
    %115 = tt.addptr %114, %4 : tensor<4x!tt.ptr<f32>>, tensor<4xi32> loc(#loc95)
    tt.store %115, %103, %5 : tensor<4x!tt.ptr<f32>> loc(#loc96)
    tt.return loc(#loc97)
  } loc(#loc)
} loc(#loc)
#loc1 = loc(unknown)
#loc2 = loc("inductor_cache/dm/cdmd6wb46xuhbuif3i7sqck3sraxssnpwfcfenua2gbqplbjykpt.py":21:28)
#loc3 = loc("inductor_cache/dm/cdmd6wb46xuhbuif3i7sqck3sraxssnpwfcfenua2gbqplbjykpt.py":21:33)
#loc4 = loc("inductor_cache/dm/cdmd6wb46xuhbuif3i7sqck3sraxssnpwfcfenua2gbqplbjykpt.py":22:36)
#loc5 = loc("inductor_cache/dm/cdmd6wb46xuhbuif3i7sqck3sraxssnpwfcfenua2gbqplbjykpt.py":22:23)
#loc6 = loc("inductor_cache/dm/cdmd6wb46xuhbuif3i7sqck3sraxssnpwfcfenua2gbqplbjykpt.py":23:21)
#loc7 = loc("inductor_cache/dm/cdmd6wb46xuhbuif3i7sqck3sraxssnpwfcfenua2gbqplbjykpt.py":25:36)
#loc8 = loc("inductor_cache/dm/cdmd6wb46xuhbuif3i7sqck3sraxssnpwfcfenua2gbqplbjykpt.py":25:34)
#loc9 = loc("inductor_cache/dm/cdmd6wb46xuhbuif3i7sqck3sraxssnpwfcfenua2gbqplbjykpt.py":25:30)
#loc10 = loc("inductor_cache/dm/cdmd6wb46xuhbuif3i7sqck3sraxssnpwfcfenua2gbqplbjykpt.py":25:41)
#loc11 = loc("inductor_cache/dm/cdmd6wb46xuhbuif3i7sqck3sraxssnpwfcfenua2gbqplbjykpt.py":26:30)
#loc12 = loc("inductor_cache/dm/cdmd6wb46xuhbuif3i7sqck3sraxssnpwfcfenua2gbqplbjykpt.py":26:41)
#loc13 = loc("inductor_cache/dm/cdmd6wb46xuhbuif3i7sqck3sraxssnpwfcfenua2gbqplbjykpt.py":27:30)
#loc14 = loc("inductor_cache/dm/cdmd6wb46xuhbuif3i7sqck3sraxssnpwfcfenua2gbqplbjykpt.py":27:37)
#loc15 = loc("inductor_cache/dm/cdmd6wb46xuhbuif3i7sqck3sraxssnpwfcfenua2gbqplbjykpt.py":28:30)
#loc16 = loc("inductor_cache/dm/cdmd6wb46xuhbuif3i7sqck3sraxssnpwfcfenua2gbqplbjykpt.py":28:37)
#loc17 = loc("inductor_cache/dm/cdmd6wb46xuhbuif3i7sqck3sraxssnpwfcfenua2gbqplbjykpt.py":29:35)
#loc18 = loc("inductor_cache/dm/cdmd6wb46xuhbuif3i7sqck3sraxssnpwfcfenua2gbqplbjykpt.py":29:31)
#loc19 = loc("inductor_cache/dm/cdmd6wb46xuhbuif3i7sqck3sraxssnpwfcfenua2gbqplbjykpt.py":29:42)
#loc20 = loc("inductor_cache/dm/cdmd6wb46xuhbuif3i7sqck3sraxssnpwfcfenua2gbqplbjykpt.py":30:31)
#loc21 = loc("inductor_cache/dm/cdmd6wb46xuhbuif3i7sqck3sraxssnpwfcfenua2gbqplbjykpt.py":30:42)
#loc22 = loc("inductor_cache/dm/cdmd6wb46xuhbuif3i7sqck3sraxssnpwfcfenua2gbqplbjykpt.py":31:35)
#loc23 = loc("inductor_cache/dm/cdmd6wb46xuhbuif3i7sqck3sraxssnpwfcfenua2gbqplbjykpt.py":31:31)
#loc24 = loc("inductor_cache/dm/cdmd6wb46xuhbuif3i7sqck3sraxssnpwfcfenua2gbqplbjykpt.py":31:42)
#loc25 = loc("inductor_cache/dm/cdmd6wb46xuhbuif3i7sqck3sraxssnpwfcfenua2gbqplbjykpt.py":32:31)
#loc26 = loc("inductor_cache/dm/cdmd6wb46xuhbuif3i7sqck3sraxssnpwfcfenua2gbqplbjykpt.py":32:42)
#loc27 = loc("/home/sahanp/.conda/envs/parity-bench/lib/python3.12/site-packages/torch/_inductor/runtime/triton_helpers.py":110:15)
#loc28 = loc("inductor_cache/dm/cdmd6wb46xuhbuif3i7sqck3sraxssnpwfcfenua2gbqplbjykpt.py":33:40)
#loc29 = loc("/home/sahanp/.conda/envs/parity-bench/lib/python3.12/site-packages/torch/_inductor/runtime/triton_helpers.py":112:21)
#loc30 = loc("/home/sahanp/.conda/envs/parity-bench/lib/python3.12/site-packages/torch/_inductor/runtime/triton_helpers.py":112:16)
#loc31 = loc("/home/sahanp/.conda/envs/parity-bench/lib/python3.12/site-packages/torch/_inductor/runtime/triton_helpers.py":113:29)
#loc32 = loc("/home/sahanp/.conda/envs/parity-bench/lib/python3.12/site-packages/torch/_inductor/runtime/triton_helpers.py":118:15)
#loc33 = loc("inductor_cache/dm/cdmd6wb46xuhbuif3i7sqck3sraxssnpwfcfenua2gbqplbjykpt.py":34:40)
#loc34 = loc("/home/sahanp/.conda/envs/parity-bench/lib/python3.12/site-packages/torch/_inductor/runtime/triton_helpers.py":120:21)
#loc35 = loc("/home/sahanp/.conda/envs/parity-bench/lib/python3.12/site-packages/torch/_inductor/runtime/triton_helpers.py":120:16)
#loc36 = loc("/home/sahanp/.conda/envs/parity-bench/lib/python3.12/site-packages/torch/_inductor/runtime/triton_helpers.py":121:29)
#loc37 = loc("inductor_cache/dm/cdmd6wb46xuhbuif3i7sqck3sraxssnpwfcfenua2gbqplbjykpt.py":35:18)
#loc38 = loc("inductor_cache/dm/cdmd6wb46xuhbuif3i7sqck3sraxssnpwfcfenua2gbqplbjykpt.py":37:18)
#loc39 = loc("inductor_cache/dm/cdmd6wb46xuhbuif3i7sqck3sraxssnpwfcfenua2gbqplbjykpt.py":39:41)
#loc40 = loc("inductor_cache/dm/cdmd6wb46xuhbuif3i7sqck3sraxssnpwfcfenua2gbqplbjykpt.py":40:42)
#loc41 = loc("inductor_cache/dm/cdmd6wb46xuhbuif3i7sqck3sraxssnpwfcfenua2gbqplbjykpt.py":41:42)
#loc42 = loc("inductor_cache/dm/cdmd6wb46xuhbuif3i7sqck3sraxssnpwfcfenua2gbqplbjykpt.py":42:20)
#loc43 = loc("inductor_cache/dm/cdmd6wb46xuhbuif3i7sqck3sraxssnpwfcfenua2gbqplbjykpt.py":43:20)
#loc44 = loc("inductor_cache/dm/cdmd6wb46xuhbuif3i7sqck3sraxssnpwfcfenua2gbqplbjykpt.py":44:42)
#loc45 = loc("inductor_cache/dm/cdmd6wb46xuhbuif3i7sqck3sraxssnpwfcfenua2gbqplbjykpt.py":45:20)
#loc46 = loc("inductor_cache/dm/cdmd6wb46xuhbuif3i7sqck3sraxssnpwfcfenua2gbqplbjykpt.py":46:19)
#loc47 = loc("inductor_cache/dm/cdmd6wb46xuhbuif3i7sqck3sraxssnpwfcfenua2gbqplbjykpt.py":47:20)
#loc48 = loc("inductor_cache/dm/cdmd6wb46xuhbuif3i7sqck3sraxssnpwfcfenua2gbqplbjykpt.py":48:20)
#loc49 = loc("inductor_cache/dm/cdmd6wb46xuhbuif3i7sqck3sraxssnpwfcfenua2gbqplbjykpt.py":49:19)
#loc50 = loc("inductor_cache/dm/cdmd6wb46xuhbuif3i7sqck3sraxssnpwfcfenua2gbqplbjykpt.py":50:20)
#loc51 = loc("inductor_cache/dm/cdmd6wb46xuhbuif3i7sqck3sraxssnpwfcfenua2gbqplbjykpt.py":51:20)
#loc52 = loc("inductor_cache/dm/cdmd6wb46xuhbuif3i7sqck3sraxssnpwfcfenua2gbqplbjykpt.py":52:20)
#loc53 = loc("inductor_cache/dm/cdmd6wb46xuhbuif3i7sqck3sraxssnpwfcfenua2gbqplbjykpt.py":53:20)
#loc54 = loc("inductor_cache/dm/cdmd6wb46xuhbuif3i7sqck3sraxssnpwfcfenua2gbqplbjykpt.py":54:19)
#loc55 = loc("inductor_cache/dm/cdmd6wb46xuhbuif3i7sqck3sraxssnpwfcfenua2gbqplbjykpt.py":56:20)
#loc56 = loc("inductor_cache/dm/cdmd6wb46xuhbuif3i7sqck3sraxssnpwfcfenua2gbqplbjykpt.py":57:19)
#loc57 = loc("inductor_cache/dm/cdmd6wb46xuhbuif3i7sqck3sraxssnpwfcfenua2gbqplbjykpt.py":58:20)
#loc58 = loc("inductor_cache/dm/cdmd6wb46xuhbuif3i7sqck3sraxssnpwfcfenua2gbqplbjykpt.py":59:20)
#loc59 = loc("inductor_cache/dm/cdmd6wb46xuhbuif3i7sqck3sraxssnpwfcfenua2gbqplbjykpt.py":60:20)
#loc60 = loc("inductor_cache/dm/cdmd6wb46xuhbuif3i7sqck3sraxssnpwfcfenua2gbqplbjykpt.py":61:20)
#loc61 = loc("inductor_cache/dm/cdmd6wb46xuhbuif3i7sqck3sraxssnpwfcfenua2gbqplbjykpt.py":62:20)
#loc62 = loc("inductor_cache/dm/cdmd6wb46xuhbuif3i7sqck3sraxssnpwfcfenua2gbqplbjykpt.py":63:20)
#loc63 = loc("inductor_cache/dm/cdmd6wb46xuhbuif3i7sqck3sraxssnpwfcfenua2gbqplbjykpt.py":64:20)
#loc64 = loc("inductor_cache/dm/cdmd6wb46xuhbuif3i7sqck3sraxssnpwfcfenua2gbqplbjykpt.py":65:20)
#loc65 = loc("inductor_cache/dm/cdmd6wb46xuhbuif3i7sqck3sraxssnpwfcfenua2gbqplbjykpt.py":66:20)
#loc66 = loc("inductor_cache/dm/cdmd6wb46xuhbuif3i7sqck3sraxssnpwfcfenua2gbqplbjykpt.py":67:20)
#loc67 = loc("inductor_cache/dm/cdmd6wb46xuhbuif3i7sqck3sraxssnpwfcfenua2gbqplbjykpt.py":68:41)
#loc68 = loc("inductor_cache/dm/cdmd6wb46xuhbuif3i7sqck3sraxssnpwfcfenua2gbqplbjykpt.py":69:41)
#loc69 = loc("inductor_cache/dm/cdmd6wb46xuhbuif3i7sqck3sraxssnpwfcfenua2gbqplbjykpt.py":70:20)
#loc70 = loc("inductor_cache/dm/cdmd6wb46xuhbuif3i7sqck3sraxssnpwfcfenua2gbqplbjykpt.py":71:20)
#loc71 = loc("inductor_cache/dm/cdmd6wb46xuhbuif3i7sqck3sraxssnpwfcfenua2gbqplbjykpt.py":72:42)
#loc72 = loc("inductor_cache/dm/cdmd6wb46xuhbuif3i7sqck3sraxssnpwfcfenua2gbqplbjykpt.py":73:42)
#loc73 = loc("inductor_cache/dm/cdmd6wb46xuhbuif3i7sqck3sraxssnpwfcfenua2gbqplbjykpt.py":74:20)
#loc74 = loc("inductor_cache/dm/cdmd6wb46xuhbuif3i7sqck3sraxssnpwfcfenua2gbqplbjykpt.py":75:20)
#loc75 = loc("inductor_cache/dm/cdmd6wb46xuhbuif3i7sqck3sraxssnpwfcfenua2gbqplbjykpt.py":76:20)
#loc76 = loc("inductor_cache/dm/cdmd6wb46xuhbuif3i7sqck3sraxssnpwfcfenua2gbqplbjykpt.py":77:20)
#loc77 = loc("inductor_cache/dm/cdmd6wb46xuhbuif3i7sqck3sraxssnpwfcfenua2gbqplbjykpt.py":78:20)
#loc78 = loc("inductor_cache/dm/cdmd6wb46xuhbuif3i7sqck3sraxssnpwfcfenua2gbqplbjykpt.py":79:20)
#loc79 = loc("inductor_cache/dm/cdmd6wb46xuhbuif3i7sqck3sraxssnpwfcfenua2gbqplbjykpt.py":80:27)
#loc80 = loc("inductor_cache/dm/cdmd6wb46xuhbuif3i7sqck3sraxssnpwfcfenua2gbqplbjykpt.py":81:20)
#loc81 = loc("inductor_cache/dm/cdmd6wb46xuhbuif3i7sqck3sraxssnpwfcfenua2gbqplbjykpt.py":82:27)
#loc82 = loc("inductor_cache/dm/cdmd6wb46xuhbuif3i7sqck3sraxssnpwfcfenua2gbqplbjykpt.py":83:20)
#loc83 = loc("inductor_cache/dm/cdmd6wb46xuhbuif3i7sqck3sraxssnpwfcfenua2gbqplbjykpt.py":84:20)
#loc84 = loc("inductor_cache/dm/cdmd6wb46xuhbuif3i7sqck3sraxssnpwfcfenua2gbqplbjykpt.py":86:20)
#loc85 = loc("inductor_cache/dm/cdmd6wb46xuhbuif3i7sqck3sraxssnpwfcfenua2gbqplbjykpt.py":87:25)
#loc86 = loc("inductor_cache/dm/cdmd6wb46xuhbuif3i7sqck3sraxssnpwfcfenua2gbqplbjykpt.py":87:37)
#loc87 = loc("inductor_cache/dm/cdmd6wb46xuhbuif3i7sqck3sraxssnpwfcfenua2gbqplbjykpt.py":88:25)
#loc88 = loc("inductor_cache/dm/cdmd6wb46xuhbuif3i7sqck3sraxssnpwfcfenua2gbqplbjykpt.py":88:37)
#loc89 = loc("inductor_cache/dm/cdmd6wb46xuhbuif3i7sqck3sraxssnpwfcfenua2gbqplbjykpt.py":89:25)
#loc90 = loc("inductor_cache/dm/cdmd6wb46xuhbuif3i7sqck3sraxssnpwfcfenua2gbqplbjykpt.py":89:37)
#loc91 = loc("inductor_cache/dm/cdmd6wb46xuhbuif3i7sqck3sraxssnpwfcfenua2gbqplbjykpt.py":90:25)
#loc92 = loc("inductor_cache/dm/cdmd6wb46xuhbuif3i7sqck3sraxssnpwfcfenua2gbqplbjykpt.py":90:37)
#loc93 = loc("inductor_cache/dm/cdmd6wb46xuhbuif3i7sqck3sraxssnpwfcfenua2gbqplbjykpt.py":91:25)
#loc94 = loc("inductor_cache/dm/cdmd6wb46xuhbuif3i7sqck3sraxssnpwfcfenua2gbqplbjykpt.py":91:37)
#loc95 = loc("inductor_cache/dm/cdmd6wb46xuhbuif3i7sqck3sraxssnpwfcfenua2gbqplbjykpt.py":92:25)
#loc96 = loc("inductor_cache/dm/cdmd6wb46xuhbuif3i7sqck3sraxssnpwfcfenua2gbqplbjykpt.py":92:37)
#loc97 = loc("inductor_cache/dm/cdmd6wb46xuhbuif3i7sqck3sraxssnpwfcfenua2gbqplbjykpt.py":92:4)
#loc98 = loc(callsite(#loc27 at #loc28))
#loc99 = loc(callsite(#loc29 at #loc28))
#loc100 = loc(callsite(#loc30 at #loc28))
#loc101 = loc(callsite(#loc31 at #loc28))
#loc102 = loc(callsite(#loc32 at #loc33))
#loc103 = loc(callsite(#loc34 at #loc33))
#loc104 = loc(callsite(#loc35 at #loc33))
#loc105 = loc(callsite(#loc36 at #loc33))
#loc106 = loc(callsite(#loc32 at #loc39))
#loc107 = loc(callsite(#loc34 at #loc39))
#loc108 = loc(callsite(#loc35 at #loc39))
#loc109 = loc(callsite(#loc36 at #loc39))
#loc110 = loc(callsite(#loc27 at #loc40))
#loc111 = loc(callsite(#loc29 at #loc40))
#loc112 = loc(callsite(#loc30 at #loc40))
#loc113 = loc(callsite(#loc31 at #loc40))
#loc114 = loc(callsite(#loc32 at #loc41))
#loc115 = loc(callsite(#loc34 at #loc41))
#loc116 = loc(callsite(#loc35 at #loc41))
#loc117 = loc(callsite(#loc36 at #loc41))
#loc118 = loc(callsite(#loc32 at #loc44))
#loc119 = loc(callsite(#loc34 at #loc44))
#loc120 = loc(callsite(#loc35 at #loc44))
#loc121 = loc(callsite(#loc36 at #loc44))
#loc122 = loc(callsite(#loc27 at #loc67))
#loc123 = loc(callsite(#loc30 at #loc67))
#loc124 = loc(callsite(#loc31 at #loc67))
#loc125 = loc(callsite(#loc32 at #loc68))
#loc126 = loc(callsite(#loc35 at #loc68))
#loc127 = loc(callsite(#loc36 at #loc68))
#loc128 = loc(callsite(#loc27 at #loc71))
#loc129 = loc(callsite(#loc30 at #loc71))
#loc130 = loc(callsite(#loc31 at #loc71))
#loc131 = loc(callsite(#loc32 at #loc72))
#loc132 = loc(callsite(#loc35 at #loc72))
#loc133 = loc(callsite(#loc36 at #loc72))
