#loc = loc("inductor_cache/ww/cwwgsrp2azrmbd7utsadkpcw4nqy5vcm4qyxczwrqxprmcu2yfhk.py":19:0)
module {
  tt.func public @triton_poi_fused_mul_transpose_3(%arg0: !tt.ptr<f32> {tt.divisibility = 16 : i32} loc("inductor_cache/ww/cwwgsrp2azrmbd7utsadkpcw4nqy5vcm4qyxczwrqxprmcu2yfhk.py":19:0), %arg1: !tt.ptr<f32> {tt.divisibility = 16 : i32} loc("inductor_cache/ww/cwwgsrp2azrmbd7utsadkpcw4nqy5vcm4qyxczwrqxprmcu2yfhk.py":19:0), %arg2: !tt.ptr<f32> {tt.divisibility = 16 : i32} loc("inductor_cache/ww/cwwgsrp2azrmbd7utsadkpcw4nqy5vcm4qyxczwrqxprmcu2yfhk.py":19:0), %arg3: !tt.ptr<f32> {tt.divisibility = 16 : i32} loc("inductor_cache/ww/cwwgsrp2azrmbd7utsadkpcw4nqy5vcm4qyxczwrqxprmcu2yfhk.py":19:0), %arg4: !tt.ptr<f32> {tt.divisibility = 16 : i32} loc("inductor_cache/ww/cwwgsrp2azrmbd7utsadkpcw4nqy5vcm4qyxczwrqxprmcu2yfhk.py":19:0), %arg5: !tt.ptr<f32> {tt.divisibility = 16 : i32} loc("inductor_cache/ww/cwwgsrp2azrmbd7utsadkpcw4nqy5vcm4qyxczwrqxprmcu2yfhk.py":19:0), %arg6: i32 {tt.divisibility = 16 : i32} loc("inductor_cache/ww/cwwgsrp2azrmbd7utsadkpcw4nqy5vcm4qyxczwrqxprmcu2yfhk.py":19:0), %arg7: i32 loc("inductor_cache/ww/cwwgsrp2azrmbd7utsadkpcw4nqy5vcm4qyxczwrqxprmcu2yfhk.py":19:0)) attributes {noinline = false} {
    %cst = arith.constant dense<17> : tensor<1x16xi32> loc(#loc1)
    %cst_0 = arith.constant dense<-8> : tensor<1x16xi32> loc(#loc1)
    %cst_1 = arith.constant dense<-4> : tensor<1x16xi32> loc(#loc1)
    %cst_2 = arith.constant dense<8> : tensor<1x16xi64> loc(#loc1)
    %cst_3 = arith.constant dense<0.000000e+00> : tensor<16x16xf32> loc(#loc1)
    %cst_4 = arith.constant dense<4> : tensor<1x16xi64> loc(#loc1)
    %cst_5 = arith.constant dense<16> : tensor<16x1xi32> loc(#loc1)
    %cst_6 = arith.constant dense<4> : tensor<1x16xi32> loc(#loc1)
    %cst_7 = arith.constant dense<17> : tensor<16x1xi32> loc(#loc1)
    %cst_8 = arith.constant dense<16> : tensor<1x16xi32> loc(#loc1)
    %c16_i32 = arith.constant 16 : i32 loc(#loc1)
    %0 = tt.get_program_id y : i32 loc(#loc2)
    %1 = arith.muli %0, %c16_i32 : i32 loc(#loc3)
    %2 = tt.make_range {end = 16 : i32, start = 0 : i32} : tensor<16xi32> loc(#loc4)
    %3 = tt.expand_dims %2 {axis = 0 : i32} : tensor<16xi32> -> tensor<1x16xi32> loc(#loc5)
    %4 = tt.splat %1 : i32 -> tensor<1x16xi32> loc(#loc6)
    %5 = arith.addi %4, %3 : tensor<1x16xi32> loc(#loc6)
    %6 = arith.cmpi slt, %5, %cst_8 : tensor<1x16xi32> loc(#loc7)
    %7 = tt.get_program_id x : i32 loc(#loc8)
    %8 = arith.muli %7, %c16_i32 : i32 loc(#loc9)
    %9 = tt.expand_dims %2 {axis = 1 : i32} : tensor<16xi32> -> tensor<16x1xi32> loc(#loc10)
    %10 = tt.splat %8 : i32 -> tensor<16x1xi32> loc(#loc11)
    %11 = arith.addi %10, %9 : tensor<16x1xi32> loc(#loc11)
    %12 = arith.cmpi slt, %11, %cst_7 : tensor<16x1xi32> loc(#loc12)
    %13 = arith.remsi %5, %cst_6 : tensor<1x16xi32> loc(#loc13)
    %14 = arith.muli %11, %cst_5 : tensor<16x1xi32> loc(#loc14)
    %15 = tt.broadcast %5 : tensor<1x16xi32> -> tensor<16x16xi32> loc(#loc15)
    %16 = tt.broadcast %14 : tensor<16x1xi32> -> tensor<16x16xi32> loc(#loc15)
    %17 = arith.addi %15, %16 : tensor<16x16xi32> loc(#loc15)
    %18 = tt.splat %arg0 : !tt.ptr<f32> -> tensor<16x16x!tt.ptr<f32>> loc(#loc16)
    %19 = tt.addptr %18, %17 : tensor<16x16x!tt.ptr<f32>>, tensor<16x16xi32> loc(#loc16)
    %20 = tt.broadcast %12 : tensor<16x1xi1> -> tensor<16x16xi1> loc(#loc17)
    %21 = tt.broadcast %6 : tensor<1x16xi1> -> tensor<16x16xi1> loc(#loc17)
    %22 = arith.andi %20, %21 : tensor<16x16xi1> loc(#loc17)
    %23 = tt.load %19, %22 evictionPolicy = evict_last : tensor<16x16x!tt.ptr<f32>> loc(#loc18)
    %24 = arith.extsi %13 : tensor<1x16xi32> to tensor<1x16xi64> loc(#loc19)
    %25 = arith.cmpi slt, %24, %cst_4 : tensor<1x16xi64> loc(#loc19)
    %26 = tt.splat %arg1 : !tt.ptr<f32> -> tensor<1x16x!tt.ptr<f32>> loc(#loc20)
    %27 = tt.addptr %26, %13 : tensor<1x16x!tt.ptr<f32>>, tensor<1x16xi32> loc(#loc20)
    %28 = tt.broadcast %27 : tensor<1x16x!tt.ptr<f32>> -> tensor<16x16x!tt.ptr<f32>> loc(#loc20)
    %29 = tt.broadcast %25 : tensor<1x16xi1> -> tensor<16x16xi1> loc(#loc21)
    %30 = arith.andi %29, %20 : tensor<16x16xi1> loc(#loc21)
    %31 = arith.andi %30, %21 : tensor<16x16xi1> loc(#loc22)
    %32 = tt.load %28, %31, %cst_3 evictionPolicy = evict_last : tensor<16x16x!tt.ptr<f32>> loc(#loc23)
    %33 = arith.cmpi sge, %24, %cst_4 : tensor<1x16xi64> loc(#loc24)
    %34 = arith.cmpi slt, %24, %cst_2 : tensor<1x16xi64> loc(#loc25)
    %35 = arith.andi %33, %34 : tensor<1x16xi1> loc(#loc26)
    %36 = arith.addi %13, %cst_1 : tensor<1x16xi32> loc(#loc27)
    %37 = tt.splat %arg2 : !tt.ptr<f32> -> tensor<1x16x!tt.ptr<f32>> loc(#loc28)
    %38 = tt.addptr %37, %36 : tensor<1x16x!tt.ptr<f32>>, tensor<1x16xi32> loc(#loc28)
    %39 = tt.broadcast %38 : tensor<1x16x!tt.ptr<f32>> -> tensor<16x16x!tt.ptr<f32>> loc(#loc28)
    %40 = tt.broadcast %35 : tensor<1x16xi1> -> tensor<16x16xi1> loc(#loc29)
    %41 = arith.andi %40, %20 : tensor<16x16xi1> loc(#loc29)
    %42 = arith.andi %41, %21 : tensor<16x16xi1> loc(#loc30)
    %43 = tt.load %39, %42, %cst_3 evictionPolicy = evict_last : tensor<16x16x!tt.ptr<f32>> loc(#loc31)
    %44 = arith.cmpi sge, %24, %cst_2 : tensor<1x16xi64> loc(#loc32)
    %45 = arith.addi %13, %cst_0 : tensor<1x16xi32> loc(#loc33)
    %46 = tt.splat %arg3 : !tt.ptr<f32> -> tensor<1x16x!tt.ptr<f32>> loc(#loc34)
    %47 = tt.addptr %46, %45 : tensor<1x16x!tt.ptr<f32>>, tensor<1x16xi32> loc(#loc34)
    %48 = tt.broadcast %47 : tensor<1x16x!tt.ptr<f32>> -> tensor<16x16x!tt.ptr<f32>> loc(#loc34)
    %49 = tt.broadcast %44 : tensor<1x16xi1> -> tensor<16x16xi1> loc(#loc35)
    %50 = arith.andi %49, %20 : tensor<16x16xi1> loc(#loc35)
    %51 = arith.andi %50, %21 : tensor<16x16xi1> loc(#loc36)
    %52 = tt.load %48, %51, %cst_3 evictionPolicy = evict_last : tensor<16x16x!tt.ptr<f32>> loc(#loc37)
    %53 = arith.select %40, %43, %52 : tensor<16x16xi1>, tensor<16x16xf32> loc(#loc38)
    %54 = arith.select %29, %32, %53 : tensor<16x16xi1>, tensor<16x16xf32> loc(#loc39)
    %55 = arith.addf %23, %54 : tensor<16x16xf32> loc(#loc40)
    %56 = arith.muli %5, %cst : tensor<1x16xi32> loc(#loc41)
    %57 = tt.broadcast %11 : tensor<16x1xi32> -> tensor<16x16xi32> loc(#loc42)
    %58 = tt.broadcast %56 : tensor<1x16xi32> -> tensor<16x16xi32> loc(#loc42)
    %59 = arith.addi %57, %58 : tensor<16x16xi32> loc(#loc42)
    %60 = tt.splat %arg4 : !tt.ptr<f32> -> tensor<16x16x!tt.ptr<f32>> loc(#loc43)
    %61 = tt.addptr %60, %59 : tensor<16x16x!tt.ptr<f32>>, tensor<16x16xi32> loc(#loc43)
    tt.store %61, %55, %22 : tensor<16x16x!tt.ptr<f32>> loc(#loc44)
    %62 = tt.splat %arg5 : !tt.ptr<f32> -> tensor<16x16x!tt.ptr<f32>> loc(#loc45)
    %63 = tt.addptr %62, %17 : tensor<16x16x!tt.ptr<f32>>, tensor<16x16xi32> loc(#loc45)
    tt.store %63, %55, %22 : tensor<16x16x!tt.ptr<f32>> loc(#loc46)
    tt.return loc(#loc47)
  } loc(#loc)
} loc(#loc)
#loc1 = loc(unknown)
#loc2 = loc("inductor_cache/ww/cwwgsrp2azrmbd7utsadkpcw4nqy5vcm4qyxczwrqxprmcu2yfhk.py":22:28)
#loc3 = loc("inductor_cache/ww/cwwgsrp2azrmbd7utsadkpcw4nqy5vcm4qyxczwrqxprmcu2yfhk.py":22:33)
#loc4 = loc("inductor_cache/ww/cwwgsrp2azrmbd7utsadkpcw4nqy5vcm4qyxczwrqxprmcu2yfhk.py":23:36)
#loc5 = loc("inductor_cache/ww/cwwgsrp2azrmbd7utsadkpcw4nqy5vcm4qyxczwrqxprmcu2yfhk.py":23:44)
#loc6 = loc("inductor_cache/ww/cwwgsrp2azrmbd7utsadkpcw4nqy5vcm4qyxczwrqxprmcu2yfhk.py":23:23)
#loc7 = loc("inductor_cache/ww/cwwgsrp2azrmbd7utsadkpcw4nqy5vcm4qyxczwrqxprmcu2yfhk.py":24:21)
#loc8 = loc("inductor_cache/ww/cwwgsrp2azrmbd7utsadkpcw4nqy5vcm4qyxczwrqxprmcu2yfhk.py":25:28)
#loc9 = loc("inductor_cache/ww/cwwgsrp2azrmbd7utsadkpcw4nqy5vcm4qyxczwrqxprmcu2yfhk.py":25:33)
#loc10 = loc("inductor_cache/ww/cwwgsrp2azrmbd7utsadkpcw4nqy5vcm4qyxczwrqxprmcu2yfhk.py":26:44)
#loc11 = loc("inductor_cache/ww/cwwgsrp2azrmbd7utsadkpcw4nqy5vcm4qyxczwrqxprmcu2yfhk.py":26:23)
#loc12 = loc("inductor_cache/ww/cwwgsrp2azrmbd7utsadkpcw4nqy5vcm4qyxczwrqxprmcu2yfhk.py":27:21)
#loc13 = loc("inductor_cache/ww/cwwgsrp2azrmbd7utsadkpcw4nqy5vcm4qyxczwrqxprmcu2yfhk.py":30:19)
#loc14 = loc("inductor_cache/ww/cwwgsrp2azrmbd7utsadkpcw4nqy5vcm4qyxczwrqxprmcu2yfhk.py":31:38)
#loc15 = loc("inductor_cache/ww/cwwgsrp2azrmbd7utsadkpcw4nqy5vcm4qyxczwrqxprmcu2yfhk.py":31:35)
#loc16 = loc("inductor_cache/ww/cwwgsrp2azrmbd7utsadkpcw4nqy5vcm4qyxczwrqxprmcu2yfhk.py":31:30)
#loc17 = loc("inductor_cache/ww/cwwgsrp2azrmbd7utsadkpcw4nqy5vcm4qyxczwrqxprmcu2yfhk.py":31:51)
#loc18 = loc("inductor_cache/ww/cwwgsrp2azrmbd7utsadkpcw4nqy5vcm4qyxczwrqxprmcu2yfhk.py":31:43)
#loc19 = loc("inductor_cache/ww/cwwgsrp2azrmbd7utsadkpcw4nqy5vcm4qyxczwrqxprmcu2yfhk.py":36:18)
#loc20 = loc("inductor_cache/ww/cwwgsrp2azrmbd7utsadkpcw4nqy5vcm4qyxczwrqxprmcu2yfhk.py":37:30)
#loc21 = loc("inductor_cache/ww/cwwgsrp2azrmbd7utsadkpcw4nqy5vcm4qyxczwrqxprmcu2yfhk.py":37:77)
#loc22 = loc("inductor_cache/ww/cwwgsrp2azrmbd7utsadkpcw4nqy5vcm4qyxczwrqxprmcu2yfhk.py":37:85)
#loc23 = loc("inductor_cache/ww/cwwgsrp2azrmbd7utsadkpcw4nqy5vcm4qyxczwrqxprmcu2yfhk.py":37:70)
#loc24 = loc("inductor_cache/ww/cwwgsrp2azrmbd7utsadkpcw4nqy5vcm4qyxczwrqxprmcu2yfhk.py":38:19)
#loc25 = loc("inductor_cache/ww/cwwgsrp2azrmbd7utsadkpcw4nqy5vcm4qyxczwrqxprmcu2yfhk.py":40:18)
#loc26 = loc("inductor_cache/ww/cwwgsrp2azrmbd7utsadkpcw4nqy5vcm4qyxczwrqxprmcu2yfhk.py":41:19)
#loc27 = loc("inductor_cache/ww/cwwgsrp2azrmbd7utsadkpcw4nqy5vcm4qyxczwrqxprmcu2yfhk.py":42:54)
#loc28 = loc("inductor_cache/ww/cwwgsrp2azrmbd7utsadkpcw4nqy5vcm4qyxczwrqxprmcu2yfhk.py":42:31)
#loc29 = loc("inductor_cache/ww/cwwgsrp2azrmbd7utsadkpcw4nqy5vcm4qyxczwrqxprmcu2yfhk.py":42:86)
#loc30 = loc("inductor_cache/ww/cwwgsrp2azrmbd7utsadkpcw4nqy5vcm4qyxczwrqxprmcu2yfhk.py":42:94)
#loc31 = loc("inductor_cache/ww/cwwgsrp2azrmbd7utsadkpcw4nqy5vcm4qyxczwrqxprmcu2yfhk.py":42:78)
#loc32 = loc("inductor_cache/ww/cwwgsrp2azrmbd7utsadkpcw4nqy5vcm4qyxczwrqxprmcu2yfhk.py":43:20)
#loc33 = loc("inductor_cache/ww/cwwgsrp2azrmbd7utsadkpcw4nqy5vcm4qyxczwrqxprmcu2yfhk.py":46:54)
#loc34 = loc("inductor_cache/ww/cwwgsrp2azrmbd7utsadkpcw4nqy5vcm4qyxczwrqxprmcu2yfhk.py":46:31)
#loc35 = loc("inductor_cache/ww/cwwgsrp2azrmbd7utsadkpcw4nqy5vcm4qyxczwrqxprmcu2yfhk.py":46:86)
#loc36 = loc("inductor_cache/ww/cwwgsrp2azrmbd7utsadkpcw4nqy5vcm4qyxczwrqxprmcu2yfhk.py":46:94)
#loc37 = loc("inductor_cache/ww/cwwgsrp2azrmbd7utsadkpcw4nqy5vcm4qyxczwrqxprmcu2yfhk.py":46:78)
#loc38 = loc("inductor_cache/ww/cwwgsrp2azrmbd7utsadkpcw4nqy5vcm4qyxczwrqxprmcu2yfhk.py":47:35)
#loc39 = loc("inductor_cache/ww/cwwgsrp2azrmbd7utsadkpcw4nqy5vcm4qyxczwrqxprmcu2yfhk.py":48:33)
#loc40 = loc("inductor_cache/ww/cwwgsrp2azrmbd7utsadkpcw4nqy5vcm4qyxczwrqxprmcu2yfhk.py":49:19)
#loc41 = loc("inductor_cache/ww/cwwgsrp2azrmbd7utsadkpcw4nqy5vcm4qyxczwrqxprmcu2yfhk.py":52:33)
#loc42 = loc("inductor_cache/ww/cwwgsrp2azrmbd7utsadkpcw4nqy5vcm4qyxczwrqxprmcu2yfhk.py":52:30)
#loc43 = loc("inductor_cache/ww/cwwgsrp2azrmbd7utsadkpcw4nqy5vcm4qyxczwrqxprmcu2yfhk.py":52:25)
#loc44 = loc("inductor_cache/ww/cwwgsrp2azrmbd7utsadkpcw4nqy5vcm4qyxczwrqxprmcu2yfhk.py":52:45)
#loc45 = loc("inductor_cache/ww/cwwgsrp2azrmbd7utsadkpcw4nqy5vcm4qyxczwrqxprmcu2yfhk.py":53:25)
#loc46 = loc("inductor_cache/ww/cwwgsrp2azrmbd7utsadkpcw4nqy5vcm4qyxczwrqxprmcu2yfhk.py":53:45)
#loc47 = loc("inductor_cache/ww/cwwgsrp2azrmbd7utsadkpcw4nqy5vcm4qyxczwrqxprmcu2yfhk.py":53:4)
