#loc = loc("inductor_cache/4u/c4uj7sbz2tkrsb5jv4qjkexjtkgsvxfup3tejiourwynrjdt3sza.py":19:0)
module {
  tt.func public @triton_poi_fused_native_layer_norm_1(%arg0: !tt.ptr<f32> {tt.divisibility = 16 : i32} loc("inductor_cache/4u/c4uj7sbz2tkrsb5jv4qjkexjtkgsvxfup3tejiourwynrjdt3sza.py":19:0), %arg1: !tt.ptr<f32> {tt.divisibility = 16 : i32} loc("inductor_cache/4u/c4uj7sbz2tkrsb5jv4qjkexjtkgsvxfup3tejiourwynrjdt3sza.py":19:0), %arg2: !tt.ptr<f32> {tt.divisibility = 16 : i32} loc("inductor_cache/4u/c4uj7sbz2tkrsb5jv4qjkexjtkgsvxfup3tejiourwynrjdt3sza.py":19:0), %arg3: i32 loc("inductor_cache/4u/c4uj7sbz2tkrsb5jv4qjkexjtkgsvxfup3tejiourwynrjdt3sza.py":19:0)) attributes {noinline = false} {
    %cst = arith.constant dense<9.99999974E-6> : tensor<32xf32> loc(#loc1)
    %cst_0 = arith.constant dense<4.000000e+00> : tensor<32xf32> loc(#loc1)
    %cst_1 = arith.constant dense<3> : tensor<32xi32> loc(#loc1)
    %cst_2 = arith.constant dense<2> : tensor<32xi32> loc(#loc1)
    %cst_3 = arith.constant dense<1> : tensor<32xi32> loc(#loc1)
    %cst_4 = arith.constant dense<4> : tensor<32xi32> loc(#loc1)
    %cst_5 = arith.constant dense<20> : tensor<32xi32> loc(#loc1)
    %c32_i32 = arith.constant 32 : i32 loc(#loc1)
    %0 = tt.get_program_id x : i32 loc(#loc2)
    %1 = arith.muli %0, %c32_i32 : i32 loc(#loc3)
    %2 = tt.make_range {end = 32 : i32, start = 0 : i32} : tensor<32xi32> loc(#loc4)
    %3 = tt.splat %1 : i32 -> tensor<32xi32> loc(#loc5)
    %4 = arith.addi %3, %2 : tensor<32xi32> loc(#loc5)
    %5 = arith.cmpi slt, %4, %cst_5 : tensor<32xi32> loc(#loc6)
    %6 = arith.muli %4, %cst_4 : tensor<32xi32> loc(#loc7)
    %7 = tt.splat %arg0 : !tt.ptr<f32> -> tensor<32x!tt.ptr<f32>> loc(#loc8)
    %8 = tt.addptr %7, %6 : tensor<32x!tt.ptr<f32>>, tensor<32xi32> loc(#loc8)
    %9 = tt.load %8, %5 evictionPolicy = evict_last : tensor<32x!tt.ptr<f32>> loc(#loc9)
    %10 = arith.addi %6, %cst_3 : tensor<32xi32> loc(#loc10)
    %11 = tt.addptr %7, %10 : tensor<32x!tt.ptr<f32>>, tensor<32xi32> loc(#loc11)
    %12 = tt.load %11, %5 evictionPolicy = evict_last : tensor<32x!tt.ptr<f32>> loc(#loc12)
    %13 = arith.addi %6, %cst_2 : tensor<32xi32> loc(#loc13)
    %14 = tt.addptr %7, %13 : tensor<32x!tt.ptr<f32>>, tensor<32xi32> loc(#loc14)
    %15 = tt.load %14, %5 evictionPolicy = evict_last : tensor<32x!tt.ptr<f32>> loc(#loc15)
    %16 = arith.addi %6, %cst_1 : tensor<32xi32> loc(#loc16)
    %17 = tt.addptr %7, %16 : tensor<32x!tt.ptr<f32>>, tensor<32xi32> loc(#loc17)
    %18 = tt.load %17, %5 evictionPolicy = evict_last : tensor<32x!tt.ptr<f32>> loc(#loc18)
    %19 = arith.addf %9, %12 : tensor<32xf32> loc(#loc19)
    %20 = arith.addf %19, %15 : tensor<32xf32> loc(#loc20)
    %21 = arith.addf %20, %18 : tensor<32xf32> loc(#loc21)
    %22 = arith.divf %21, %cst_0 : tensor<32xf32> loc(#loc22)
    %23 = arith.subf %9, %22 : tensor<32xf32> loc(#loc23)
    %24 = arith.mulf %23, %23 : tensor<32xf32> loc(#loc24)
    %25 = arith.subf %12, %22 : tensor<32xf32> loc(#loc25)
    %26 = arith.mulf %25, %25 : tensor<32xf32> loc(#loc26)
    %27 = arith.addf %24, %26 : tensor<32xf32> loc(#loc27)
    %28 = arith.subf %15, %22 : tensor<32xf32> loc(#loc28)
    %29 = arith.mulf %28, %28 : tensor<32xf32> loc(#loc29)
    %30 = arith.addf %27, %29 : tensor<32xf32> loc(#loc30)
    %31 = arith.subf %18, %22 : tensor<32xf32> loc(#loc31)
    %32 = arith.mulf %31, %31 : tensor<32xf32> loc(#loc32)
    %33 = arith.addf %30, %32 : tensor<32xf32> loc(#loc33)
    %34 = arith.divf %33, %cst_0 : tensor<32xf32> loc(#loc34)
    %35 = arith.addf %34, %cst : tensor<32xf32> loc(#loc35)
    %36 = tt.extern_elementwise %35 {libname = "", libpath = "", pure = true, symbol = "__nv_rsqrtf"} : (tensor<32xf32>) -> tensor<32xf32> loc(#loc36)
    %37 = tt.splat %arg1 : !tt.ptr<f32> -> tensor<32x!tt.ptr<f32>> loc(#loc37)
    %38 = tt.addptr %37, %4 : tensor<32x!tt.ptr<f32>>, tensor<32xi32> loc(#loc37)
    tt.store %38, %22, %5 : tensor<32x!tt.ptr<f32>> loc(#loc38)
    %39 = tt.splat %arg2 : !tt.ptr<f32> -> tensor<32x!tt.ptr<f32>> loc(#loc39)
    %40 = tt.addptr %39, %4 : tensor<32x!tt.ptr<f32>>, tensor<32xi32> loc(#loc39)
    tt.store %40, %36, %5 : tensor<32x!tt.ptr<f32>> loc(#loc40)
    tt.return loc(#loc41)
  } loc(#loc)
} loc(#loc)
#loc1 = loc(unknown)
#loc2 = loc("inductor_cache/4u/c4uj7sbz2tkrsb5jv4qjkexjtkgsvxfup3tejiourwynrjdt3sza.py":21:28)
#loc3 = loc("inductor_cache/4u/c4uj7sbz2tkrsb5jv4qjkexjtkgsvxfup3tejiourwynrjdt3sza.py":21:33)
#loc4 = loc("inductor_cache/4u/c4uj7sbz2tkrsb5jv4qjkexjtkgsvxfup3tejiourwynrjdt3sza.py":22:36)
#loc5 = loc("inductor_cache/4u/c4uj7sbz2tkrsb5jv4qjkexjtkgsvxfup3tejiourwynrjdt3sza.py":22:23)
#loc6 = loc("inductor_cache/4u/c4uj7sbz2tkrsb5jv4qjkexjtkgsvxfup3tejiourwynrjdt3sza.py":23:21)
#loc7 = loc("inductor_cache/4u/c4uj7sbz2tkrsb5jv4qjkexjtkgsvxfup3tejiourwynrjdt3sza.py":25:32)
#loc8 = loc("inductor_cache/4u/c4uj7sbz2tkrsb5jv4qjkexjtkgsvxfup3tejiourwynrjdt3sza.py":25:30)
#loc9 = loc("inductor_cache/4u/c4uj7sbz2tkrsb5jv4qjkexjtkgsvxfup3tejiourwynrjdt3sza.py":25:37)
#loc10 = loc("inductor_cache/4u/c4uj7sbz2tkrsb5jv4qjkexjtkgsvxfup3tejiourwynrjdt3sza.py":26:34)
#loc11 = loc("inductor_cache/4u/c4uj7sbz2tkrsb5jv4qjkexjtkgsvxfup3tejiourwynrjdt3sza.py":26:30)
#loc12 = loc("inductor_cache/4u/c4uj7sbz2tkrsb5jv4qjkexjtkgsvxfup3tejiourwynrjdt3sza.py":26:41)
#loc13 = loc("inductor_cache/4u/c4uj7sbz2tkrsb5jv4qjkexjtkgsvxfup3tejiourwynrjdt3sza.py":27:34)
#loc14 = loc("inductor_cache/4u/c4uj7sbz2tkrsb5jv4qjkexjtkgsvxfup3tejiourwynrjdt3sza.py":27:30)
#loc15 = loc("inductor_cache/4u/c4uj7sbz2tkrsb5jv4qjkexjtkgsvxfup3tejiourwynrjdt3sza.py":27:41)
#loc16 = loc("inductor_cache/4u/c4uj7sbz2tkrsb5jv4qjkexjtkgsvxfup3tejiourwynrjdt3sza.py":28:34)
#loc17 = loc("inductor_cache/4u/c4uj7sbz2tkrsb5jv4qjkexjtkgsvxfup3tejiourwynrjdt3sza.py":28:30)
#loc18 = loc("inductor_cache/4u/c4uj7sbz2tkrsb5jv4qjkexjtkgsvxfup3tejiourwynrjdt3sza.py":28:41)
#loc19 = loc("inductor_cache/4u/c4uj7sbz2tkrsb5jv4qjkexjtkgsvxfup3tejiourwynrjdt3sza.py":29:18)
#loc20 = loc("inductor_cache/4u/c4uj7sbz2tkrsb5jv4qjkexjtkgsvxfup3tejiourwynrjdt3sza.py":30:18)
#loc21 = loc("inductor_cache/4u/c4uj7sbz2tkrsb5jv4qjkexjtkgsvxfup3tejiourwynrjdt3sza.py":31:18)
#loc22 = loc("inductor_cache/4u/c4uj7sbz2tkrsb5jv4qjkexjtkgsvxfup3tejiourwynrjdt3sza.py":33:18)
#loc23 = loc("inductor_cache/4u/c4uj7sbz2tkrsb5jv4qjkexjtkgsvxfup3tejiourwynrjdt3sza.py":34:18)
#loc24 = loc("inductor_cache/4u/c4uj7sbz2tkrsb5jv4qjkexjtkgsvxfup3tejiourwynrjdt3sza.py":35:19)
#loc25 = loc("inductor_cache/4u/c4uj7sbz2tkrsb5jv4qjkexjtkgsvxfup3tejiourwynrjdt3sza.py":36:19)
#loc26 = loc("inductor_cache/4u/c4uj7sbz2tkrsb5jv4qjkexjtkgsvxfup3tejiourwynrjdt3sza.py":37:20)
#loc27 = loc("inductor_cache/4u/c4uj7sbz2tkrsb5jv4qjkexjtkgsvxfup3tejiourwynrjdt3sza.py":38:20)
#loc28 = loc("inductor_cache/4u/c4uj7sbz2tkrsb5jv4qjkexjtkgsvxfup3tejiourwynrjdt3sza.py":39:19)
#loc29 = loc("inductor_cache/4u/c4uj7sbz2tkrsb5jv4qjkexjtkgsvxfup3tejiourwynrjdt3sza.py":40:20)
#loc30 = loc("inductor_cache/4u/c4uj7sbz2tkrsb5jv4qjkexjtkgsvxfup3tejiourwynrjdt3sza.py":41:20)
#loc31 = loc("inductor_cache/4u/c4uj7sbz2tkrsb5jv4qjkexjtkgsvxfup3tejiourwynrjdt3sza.py":42:19)
#loc32 = loc("inductor_cache/4u/c4uj7sbz2tkrsb5jv4qjkexjtkgsvxfup3tejiourwynrjdt3sza.py":43:20)
#loc33 = loc("inductor_cache/4u/c4uj7sbz2tkrsb5jv4qjkexjtkgsvxfup3tejiourwynrjdt3sza.py":44:20)
#loc34 = loc("inductor_cache/4u/c4uj7sbz2tkrsb5jv4qjkexjtkgsvxfup3tejiourwynrjdt3sza.py":45:20)
#loc35 = loc("inductor_cache/4u/c4uj7sbz2tkrsb5jv4qjkexjtkgsvxfup3tejiourwynrjdt3sza.py":47:20)
#loc36 = loc("inductor_cache/4u/c4uj7sbz2tkrsb5jv4qjkexjtkgsvxfup3tejiourwynrjdt3sza.py":48:28)
#loc37 = loc("inductor_cache/4u/c4uj7sbz2tkrsb5jv4qjkexjtkgsvxfup3tejiourwynrjdt3sza.py":49:25)
#loc38 = loc("inductor_cache/4u/c4uj7sbz2tkrsb5jv4qjkexjtkgsvxfup3tejiourwynrjdt3sza.py":49:36)
#loc39 = loc("inductor_cache/4u/c4uj7sbz2tkrsb5jv4qjkexjtkgsvxfup3tejiourwynrjdt3sza.py":50:25)
#loc40 = loc("inductor_cache/4u/c4uj7sbz2tkrsb5jv4qjkexjtkgsvxfup3tejiourwynrjdt3sza.py":50:37)
#loc41 = loc("inductor_cache/4u/c4uj7sbz2tkrsb5jv4qjkexjtkgsvxfup3tejiourwynrjdt3sza.py":50:4)
