#loc = loc("inductor_cache/z2/cz2x3mphtiapcipv4al7qymovyfcigo74heyyqjij5524lhverzq.py":19:0)
module {
  tt.func public @triton_poi_fused_add_relu_0(%arg0: !tt.ptr<f32> {tt.divisibility = 16 : i32} loc("inductor_cache/z2/cz2x3mphtiapcipv4al7qymovyfcigo74heyyqjij5524lhverzq.py":19:0), %arg1: !tt.ptr<f32> {tt.divisibility = 16 : i32} loc("inductor_cache/z2/cz2x3mphtiapcipv4al7qymovyfcigo74heyyqjij5524lhverzq.py":19:0), %arg2: !tt.ptr<f32> {tt.divisibility = 16 : i32} loc("inductor_cache/z2/cz2x3mphtiapcipv4al7qymovyfcigo74heyyqjij5524lhverzq.py":19:0), %arg3: i32 {tt.divisibility = 16 : i32} loc("inductor_cache/z2/cz2x3mphtiapcipv4al7qymovyfcigo74heyyqjij5524lhverzq.py":19:0)) attributes {noinline = false} {
    %cst = arith.constant dense<0.000000e+00> : tensor<64xf32> loc(#loc1)
    %cst_0 = arith.constant dense<64> : tensor<64xi32> loc(#loc1)
    %c64_i32 = arith.constant 64 : i32 loc(#loc1)
    %0 = tt.get_program_id x : i32 loc(#loc2)
    %1 = arith.muli %0, %c64_i32 : i32 loc(#loc3)
    %2 = tt.make_range {end = 64 : i32, start = 0 : i32} : tensor<64xi32> loc(#loc4)
    %3 = tt.splat %1 : i32 -> tensor<64xi32> loc(#loc5)
    %4 = arith.addi %3, %2 : tensor<64xi32> loc(#loc5)
    %5 = arith.cmpi slt, %4, %cst_0 : tensor<64xi32> loc(#loc6)
    %6 = tt.splat %arg0 : !tt.ptr<f32> -> tensor<64x!tt.ptr<f32>> loc(#loc7)
    %7 = tt.addptr %6, %4 : tensor<64x!tt.ptr<f32>>, tensor<64xi32> loc(#loc7)
    %8 = tt.load %7, %5 : tensor<64x!tt.ptr<f32>> loc(#loc8)
    %9 = tt.splat %arg1 : !tt.ptr<f32> -> tensor<64x!tt.ptr<f32>> loc(#loc9)
    %10 = tt.addptr %9, %4 : tensor<64x!tt.ptr<f32>>, tensor<64xi32> loc(#loc9)
    %11 = tt.load %10, %5 : tensor<64x!tt.ptr<f32>> loc(#loc10)
    %12 = arith.cmpf ogt, %cst, %11 : tensor<64xf32> loc(#loc18)
    %13 = arith.select %12, %cst, %11 : tensor<64xi1>, tensor<64xf32> loc(#loc19)
    %14 = arith.addf %8, %13 : tensor<64xf32> loc(#loc14)
    %15 = tt.splat %arg2 : !tt.ptr<f32> -> tensor<64x!tt.ptr<f32>> loc(#loc15)
    %16 = tt.addptr %15, %4 : tensor<64x!tt.ptr<f32>>, tensor<64xi32> loc(#loc15)
    tt.store %16, %14, %5 : tensor<64x!tt.ptr<f32>> loc(#loc16)
    tt.return loc(#loc17)
  } loc(#loc)
} loc(#loc)
#loc1 = loc(unknown)
#loc2 = loc("inductor_cache/z2/cz2x3mphtiapcipv4al7qymovyfcigo74heyyqjij5524lhverzq.py":21:28)
#loc3 = loc("inductor_cache/z2/cz2x3mphtiapcipv4al7qymovyfcigo74heyyqjij5524lhverzq.py":21:33)
#loc4 = loc("inductor_cache/z2/cz2x3mphtiapcipv4al7qymovyfcigo74heyyqjij5524lhverzq.py":22:36)
#loc5 = loc("inductor_cache/z2/cz2x3mphtiapcipv4al7qymovyfcigo74heyyqjij5524lhverzq.py":22:23)
#loc6 = loc("inductor_cache/z2/cz2x3mphtiapcipv4al7qymovyfcigo74heyyqjij5524lhverzq.py":23:21)
#loc7 = loc("inductor_cache/z2/cz2x3mphtiapcipv4al7qymovyfcigo74heyyqjij5524lhverzq.py":25:30)
#loc8 = loc("inductor_cache/z2/cz2x3mphtiapcipv4al7qymovyfcigo74heyyqjij5524lhverzq.py":25:35)
#loc9 = loc("inductor_cache/z2/cz2x3mphtiapcipv4al7qymovyfcigo74heyyqjij5524lhverzq.py":26:30)
#loc10 = loc("inductor_cache/z2/cz2x3mphtiapcipv4al7qymovyfcigo74heyyqjij5524lhverzq.py":26:35)
#loc11 = loc("/home/sahanp/.conda/envs/parity-bench/lib/python3.12/site-packages/torch/_inductor/runtime/triton_helpers.py":118:15)
#loc12 = loc("inductor_cache/z2/cz2x3mphtiapcipv4al7qymovyfcigo74heyyqjij5524lhverzq.py":28:40)
#loc13 = loc("/home/sahanp/.conda/envs/parity-bench/lib/python3.12/site-packages/torch/_inductor/runtime/triton_helpers.py":121:29)
#loc14 = loc("inductor_cache/z2/cz2x3mphtiapcipv4al7qymovyfcigo74heyyqjij5524lhverzq.py":29:18)
#loc15 = loc("inductor_cache/z2/cz2x3mphtiapcipv4al7qymovyfcigo74heyyqjij5524lhverzq.py":30:25)
#loc16 = loc("inductor_cache/z2/cz2x3mphtiapcipv4al7qymovyfcigo74heyyqjij5524lhverzq.py":30:36)
#loc17 = loc("inductor_cache/z2/cz2x3mphtiapcipv4al7qymovyfcigo74heyyqjij5524lhverzq.py":30:4)
#loc18 = loc(callsite(#loc11 at #loc12))
#loc19 = loc(callsite(#loc13 at #loc12))
