#loc = loc("inductor_cache/kv/ckvanqrx5nln66insgzslzvdtp4mcjthk7tb6adnooplkmlwjad2.py":19:0)
module {
  tt.func public @triton_poi_fused_mul_rsub_0(%arg0: !tt.ptr<f32> {tt.divisibility = 16 : i32} loc("inductor_cache/kv/ckvanqrx5nln66insgzslzvdtp4mcjthk7tb6adnooplkmlwjad2.py":19:0), %arg1: !tt.ptr<f32> {tt.divisibility = 16 : i32} loc("inductor_cache/kv/ckvanqrx5nln66insgzslzvdtp4mcjthk7tb6adnooplkmlwjad2.py":19:0), %arg2: !tt.ptr<f32> {tt.divisibility = 16 : i32} loc("inductor_cache/kv/ckvanqrx5nln66insgzslzvdtp4mcjthk7tb6adnooplkmlwjad2.py":19:0), %arg3: !tt.ptr<f32> {tt.divisibility = 16 : i32} loc("inductor_cache/kv/ckvanqrx5nln66insgzslzvdtp4mcjthk7tb6adnooplkmlwjad2.py":19:0), %arg4: i32 {tt.divisibility = 16 : i32} loc("inductor_cache/kv/ckvanqrx5nln66insgzslzvdtp4mcjthk7tb6adnooplkmlwjad2.py":19:0)) attributes {noinline = false} {
    %cst = arith.constant dense<1.000000e+00> : tensor<1024xf32> loc(#loc1)
    %c1024_i32 = arith.constant 1024 : i32 loc(#loc1)
    %0 = tt.get_program_id x : i32 loc(#loc2)
    %1 = arith.muli %0, %c1024_i32 : i32 loc(#loc3)
    %2 = tt.make_range {end = 1024 : i32, start = 0 : i32} : tensor<1024xi32> loc(#loc4)
    %3 = tt.splat %1 : i32 -> tensor<1024xi32> loc(#loc5)
    %4 = arith.addi %3, %2 : tensor<1024xi32> loc(#loc5)
    %5 = tt.splat %arg0 : !tt.ptr<f32> -> tensor<1024x!tt.ptr<f32>> loc(#loc6)
    %6 = tt.addptr %5, %4 : tensor<1024x!tt.ptr<f32>>, tensor<1024xi32> loc(#loc6)
    %7 = tt.load %6 : tensor<1024x!tt.ptr<f32>> loc(#loc7)
    %8 = tt.splat %arg1 : !tt.ptr<f32> -> tensor<1024x!tt.ptr<f32>> loc(#loc8)
    %9 = tt.addptr %8, %4 : tensor<1024x!tt.ptr<f32>>, tensor<1024xi32> loc(#loc8)
    %10 = tt.load %9 : tensor<1024x!tt.ptr<f32>> loc(#loc9)
    %11 = arith.mulf %7, %10 : tensor<1024xf32> loc(#loc10)
    %12 = arith.subf %cst, %10 : tensor<1024xf32> loc(#loc11)
    %13 = arith.mulf %7, %12 : tensor<1024xf32> loc(#loc12)
    %14 = tt.splat %arg2 : !tt.ptr<f32> -> tensor<1024x!tt.ptr<f32>> loc(#loc13)
    %15 = tt.addptr %14, %4 : tensor<1024x!tt.ptr<f32>>, tensor<1024xi32> loc(#loc13)
    tt.store %15, %11 : tensor<1024x!tt.ptr<f32>> loc(#loc14)
    %16 = tt.splat %arg3 : !tt.ptr<f32> -> tensor<1024x!tt.ptr<f32>> loc(#loc15)
    %17 = tt.addptr %16, %4 : tensor<1024x!tt.ptr<f32>>, tensor<1024xi32> loc(#loc15)
    tt.store %17, %13 : tensor<1024x!tt.ptr<f32>> loc(#loc16)
    tt.return loc(#loc17)
  } loc(#loc)
} loc(#loc)
#loc1 = loc(unknown)
#loc2 = loc("inductor_cache/kv/ckvanqrx5nln66insgzslzvdtp4mcjthk7tb6adnooplkmlwjad2.py":21:28)
#loc3 = loc("inductor_cache/kv/ckvanqrx5nln66insgzslzvdtp4mcjthk7tb6adnooplkmlwjad2.py":21:33)
#loc4 = loc("inductor_cache/kv/ckvanqrx5nln66insgzslzvdtp4mcjthk7tb6adnooplkmlwjad2.py":22:36)
#loc5 = loc("inductor_cache/kv/ckvanqrx5nln66insgzslzvdtp4mcjthk7tb6adnooplkmlwjad2.py":22:23)
#loc6 = loc("inductor_cache/kv/ckvanqrx5nln66insgzslzvdtp4mcjthk7tb6adnooplkmlwjad2.py":25:30)
#loc7 = loc("inductor_cache/kv/ckvanqrx5nln66insgzslzvdtp4mcjthk7tb6adnooplkmlwjad2.py":25:35)
#loc8 = loc("inductor_cache/kv/ckvanqrx5nln66insgzslzvdtp4mcjthk7tb6adnooplkmlwjad2.py":26:30)
#loc9 = loc("inductor_cache/kv/ckvanqrx5nln66insgzslzvdtp4mcjthk7tb6adnooplkmlwjad2.py":26:35)
#loc10 = loc("inductor_cache/kv/ckvanqrx5nln66insgzslzvdtp4mcjthk7tb6adnooplkmlwjad2.py":27:18)
#loc11 = loc("inductor_cache/kv/ckvanqrx5nln66insgzslzvdtp4mcjthk7tb6adnooplkmlwjad2.py":29:18)
#loc12 = loc("inductor_cache/kv/ckvanqrx5nln66insgzslzvdtp4mcjthk7tb6adnooplkmlwjad2.py":30:18)
#loc13 = loc("inductor_cache/kv/ckvanqrx5nln66insgzslzvdtp4mcjthk7tb6adnooplkmlwjad2.py":31:25)
#loc14 = loc("inductor_cache/kv/ckvanqrx5nln66insgzslzvdtp4mcjthk7tb6adnooplkmlwjad2.py":31:36)
#loc15 = loc("inductor_cache/kv/ckvanqrx5nln66insgzslzvdtp4mcjthk7tb6adnooplkmlwjad2.py":32:25)
#loc16 = loc("inductor_cache/kv/ckvanqrx5nln66insgzslzvdtp4mcjthk7tb6adnooplkmlwjad2.py":32:36)
#loc17 = loc("inductor_cache/kv/ckvanqrx5nln66insgzslzvdtp4mcjthk7tb6adnooplkmlwjad2.py":32:4)
