#loc = loc("inductor_cache/t6/ct6m2el4uo2eb56sa77ygnaver7chqohljll2qswcpot4wxq45wk.py":19:0)
module {
  tt.func public @triton_poi_fused_add_mul_rsub_sigmoid_14(%arg0: !tt.ptr<f32> {tt.divisibility = 16 : i32} loc("inductor_cache/t6/ct6m2el4uo2eb56sa77ygnaver7chqohljll2qswcpot4wxq45wk.py":19:0), %arg1: !tt.ptr<f32> {tt.divisibility = 16 : i32} loc("inductor_cache/t6/ct6m2el4uo2eb56sa77ygnaver7chqohljll2qswcpot4wxq45wk.py":19:0), %arg2: !tt.ptr<f32> {tt.divisibility = 16 : i32} loc("inductor_cache/t6/ct6m2el4uo2eb56sa77ygnaver7chqohljll2qswcpot4wxq45wk.py":19:0), %arg3: !tt.ptr<f32> {tt.divisibility = 16 : i32} loc("inductor_cache/t6/ct6m2el4uo2eb56sa77ygnaver7chqohljll2qswcpot4wxq45wk.py":19:0), %arg4: !tt.ptr<f32> {tt.divisibility = 16 : i32} loc("inductor_cache/t6/ct6m2el4uo2eb56sa77ygnaver7chqohljll2qswcpot4wxq45wk.py":19:0), %arg5: i32 {tt.divisibility = 16 : i32} loc("inductor_cache/t6/ct6m2el4uo2eb56sa77ygnaver7chqohljll2qswcpot4wxq45wk.py":19:0)) attributes {noinline = false} {
    %cst = arith.constant dense<0.000000e+00> : tensor<64xf32> loc(#loc1)
    %cst_0 = arith.constant dense<1.000000e+00> : tensor<64xf32> loc(#loc1)
    %cst_1 = arith.constant dense<4> : tensor<64xi32> loc(#loc1)
    %cst_2 = arith.constant dense<64> : tensor<64xi32> loc(#loc1)
    %c64_i32 = arith.constant 64 : i32 loc(#loc1)
    %0 = tt.get_program_id x : i32 loc(#loc2)
    %1 = arith.muli %0, %c64_i32 : i32 loc(#loc3)
    %2 = tt.make_range {end = 64 : i32, start = 0 : i32} : tensor<64xi32> loc(#loc4)
    %3 = tt.splat %1 : i32 -> tensor<64xi32> loc(#loc5)
    %4 = arith.addi %3, %2 : tensor<64xi32> loc(#loc5)
    %5 = arith.cmpi slt, %4, %cst_2 : tensor<64xi32> loc(#loc6)
    %6 = arith.remsi %4, %cst_1 : tensor<64xi32> loc(#loc7)
    %7 = tt.splat %arg0 : !tt.ptr<f32> -> tensor<64x!tt.ptr<f32>> loc(#loc8)
    %8 = tt.addptr %7, %4 : tensor<64x!tt.ptr<f32>>, tensor<64xi32> loc(#loc8)
    %9 = tt.load %8, %5 : tensor<64x!tt.ptr<f32>> loc(#loc9)
    %10 = tt.splat %arg1 : !tt.ptr<f32> -> tensor<64x!tt.ptr<f32>> loc(#loc10)
    %11 = tt.addptr %10, %6 : tensor<64x!tt.ptr<f32>>, tensor<64xi32> loc(#loc10)
    %12 = tt.load %11, %5 evictionPolicy = evict_last : tensor<64x!tt.ptr<f32>> loc(#loc11)
    %13 = tt.splat %arg2 : !tt.ptr<f32> -> tensor<64x!tt.ptr<f32>> loc(#loc12)
    %14 = tt.addptr %13, %4 : tensor<64x!tt.ptr<f32>>, tensor<64xi32> loc(#loc12)
    %15 = tt.load %14, %5 : tensor<64x!tt.ptr<f32>> loc(#loc13)
    %16 = tt.splat %arg3 : !tt.ptr<f32> -> tensor<64x!tt.ptr<f32>> loc(#loc14)
    %17 = tt.addptr %16, %4 : tensor<64x!tt.ptr<f32>>, tensor<64xi32> loc(#loc14)
    %18 = tt.load %17, %5 : tensor<64x!tt.ptr<f32>> loc(#loc15)
    %19 = arith.addf %9, %12 : tensor<64xf32> loc(#loc16)
    %20 = arith.subf %cst, %19 : tensor<64xf32> loc(#loc30)
    %21 = math.exp %20 : tensor<64xf32> loc(#loc31)
    %22 = arith.addf %21, %cst_0 : tensor<64xf32> loc(#loc32)
    %23 = arith.divf %cst_0, %22 : tensor<64xf32> loc(#loc33)
    %24 = arith.subf %cst_0, %23 : tensor<64xf32> loc(#loc22)
    %25 = arith.mulf %24, %15 : tensor<64xf32> loc(#loc23)
    %26 = arith.mulf %23, %18 : tensor<64xf32> loc(#loc24)
    %27 = arith.addf %25, %26 : tensor<64xf32> loc(#loc25)
    tt.store %8, %23, %5 : tensor<64x!tt.ptr<f32>> loc(#loc26)
    %28 = tt.splat %arg4 : !tt.ptr<f32> -> tensor<64x!tt.ptr<f32>> loc(#loc27)
    %29 = tt.addptr %28, %4 : tensor<64x!tt.ptr<f32>>, tensor<64xi32> loc(#loc27)
    tt.store %29, %27, %5 : tensor<64x!tt.ptr<f32>> loc(#loc28)
    tt.return loc(#loc29)
  } loc(#loc)
} loc(#loc)
#loc1 = loc(unknown)
#loc2 = loc("inductor_cache/t6/ct6m2el4uo2eb56sa77ygnaver7chqohljll2qswcpot4wxq45wk.py":21:28)
#loc3 = loc("inductor_cache/t6/ct6m2el4uo2eb56sa77ygnaver7chqohljll2qswcpot4wxq45wk.py":21:33)
#loc4 = loc("inductor_cache/t6/ct6m2el4uo2eb56sa77ygnaver7chqohljll2qswcpot4wxq45wk.py":22:36)
#loc5 = loc("inductor_cache/t6/ct6m2el4uo2eb56sa77ygnaver7chqohljll2qswcpot4wxq45wk.py":22:23)
#loc6 = loc("inductor_cache/t6/ct6m2el4uo2eb56sa77ygnaver7chqohljll2qswcpot4wxq45wk.py":23:21)
#loc7 = loc("inductor_cache/t6/ct6m2el4uo2eb56sa77ygnaver7chqohljll2qswcpot4wxq45wk.py":25:19)
#loc8 = loc("inductor_cache/t6/ct6m2el4uo2eb56sa77ygnaver7chqohljll2qswcpot4wxq45wk.py":26:34)
#loc9 = loc("inductor_cache/t6/ct6m2el4uo2eb56sa77ygnaver7chqohljll2qswcpot4wxq45wk.py":26:39)
#loc10 = loc("inductor_cache/t6/ct6m2el4uo2eb56sa77ygnaver7chqohljll2qswcpot4wxq45wk.py":27:30)
#loc11 = loc("inductor_cache/t6/ct6m2el4uo2eb56sa77ygnaver7chqohljll2qswcpot4wxq45wk.py":27:35)
#loc12 = loc("inductor_cache/t6/ct6m2el4uo2eb56sa77ygnaver7chqohljll2qswcpot4wxq45wk.py":28:30)
#loc13 = loc("inductor_cache/t6/ct6m2el4uo2eb56sa77ygnaver7chqohljll2qswcpot4wxq45wk.py":28:35)
#loc14 = loc("inductor_cache/t6/ct6m2el4uo2eb56sa77ygnaver7chqohljll2qswcpot4wxq45wk.py":29:30)
#loc15 = loc("inductor_cache/t6/ct6m2el4uo2eb56sa77ygnaver7chqohljll2qswcpot4wxq45wk.py":29:35)
#loc16 = loc("inductor_cache/t6/ct6m2el4uo2eb56sa77ygnaver7chqohljll2qswcpot4wxq45wk.py":30:18)
#loc17 = loc("/home/sahanp/.conda/envs/parity-bench/lib/python3.12/site-packages/triton/language/standard.py":47:30)
#loc18 = loc("inductor_cache/t6/ct6m2el4uo2eb56sa77ygnaver7chqohljll2qswcpot4wxq45wk.py":31:22)
#loc19 = loc("/home/sahanp/.conda/envs/parity-bench/lib/python3.12/site-packages/triton/language/standard.py":47:29)
#loc20 = loc("/home/sahanp/.conda/envs/parity-bench/lib/python3.12/site-packages/triton/language/standard.py":47:20)
#loc21 = loc("/home/sahanp/.conda/envs/parity-bench/lib/python3.12/site-packages/triton/language/standard.py":47:16)
#loc22 = loc("inductor_cache/t6/ct6m2el4uo2eb56sa77ygnaver7chqohljll2qswcpot4wxq45wk.py":33:18)
#loc23 = loc("inductor_cache/t6/ct6m2el4uo2eb56sa77ygnaver7chqohljll2qswcpot4wxq45wk.py":34:18)
#loc24 = loc("inductor_cache/t6/ct6m2el4uo2eb56sa77ygnaver7chqohljll2qswcpot4wxq45wk.py":35:18)
#loc25 = loc("inductor_cache/t6/ct6m2el4uo2eb56sa77ygnaver7chqohljll2qswcpot4wxq45wk.py":36:19)
#loc26 = loc("inductor_cache/t6/ct6m2el4uo2eb56sa77ygnaver7chqohljll2qswcpot4wxq45wk.py":37:39)
#loc27 = loc("inductor_cache/t6/ct6m2el4uo2eb56sa77ygnaver7chqohljll2qswcpot4wxq45wk.py":38:25)
#loc28 = loc("inductor_cache/t6/ct6m2el4uo2eb56sa77ygnaver7chqohljll2qswcpot4wxq45wk.py":38:37)
#loc29 = loc("inductor_cache/t6/ct6m2el4uo2eb56sa77ygnaver7chqohljll2qswcpot4wxq45wk.py":38:4)
#loc30 = loc(callsite(#loc17 at #loc18))
#loc31 = loc(callsite(#loc19 at #loc18))
#loc32 = loc(callsite(#loc20 at #loc18))
#loc33 = loc(callsite(#loc21 at #loc18))
