#loc = loc("inductor_cache/px/cpxz6cpbytcsfms4foqlfffv764xux36ywagh6zpiagd6rzz75vl.py":19:0)
module {
  tt.func public @triton_poi_fused__unsafe_index_11(%arg0: !tt.ptr<i64> {tt.divisibility = 16 : i32} loc("inductor_cache/px/cpxz6cpbytcsfms4foqlfffv764xux36ywagh6zpiagd6rzz75vl.py":19:0), %arg1: !tt.ptr<f32> {tt.divisibility = 16 : i32} loc("inductor_cache/px/cpxz6cpbytcsfms4foqlfffv764xux36ywagh6zpiagd6rzz75vl.py":19:0), %arg2: !tt.ptr<f32> {tt.divisibility = 16 : i32} loc("inductor_cache/px/cpxz6cpbytcsfms4foqlfffv764xux36ywagh6zpiagd6rzz75vl.py":19:0), %arg3: !tt.ptr<f32> {tt.divisibility = 16 : i32} loc("inductor_cache/px/cpxz6cpbytcsfms4foqlfffv764xux36ywagh6zpiagd6rzz75vl.py":19:0), %arg4: i32 {tt.divisibility = 16 : i32} loc("inductor_cache/px/cpxz6cpbytcsfms4foqlfffv764xux36ywagh6zpiagd6rzz75vl.py":19:0)) attributes {noinline = false} {
    %cst = arith.constant dense<0.000000e+00> : tensor<128xf32> loc(#loc1)
    %cst_0 = arith.constant dense<0> : tensor<128xi64> loc(#loc1)
    %cst_1 = arith.constant dense<16> : tensor<128xi32> loc(#loc1)
    %cst_2 = arith.constant dense<4> : tensor<128xi64> loc(#loc1)
    %cst_3 = arith.constant dense<64> : tensor<128xi32> loc(#loc1)
    %cst_4 = arith.constant dense<8> : tensor<128xi32> loc(#loc1)
    %c128_i32 = arith.constant 128 : i32 loc(#loc1)
    %0 = tt.get_program_id x : i32 loc(#loc2)
    %1 = arith.muli %0, %c128_i32 : i32 loc(#loc3)
    %2 = tt.make_range {end = 128 : i32, start = 0 : i32} : tensor<128xi32> loc(#loc4)
    %3 = tt.splat %1 : i32 -> tensor<128xi32> loc(#loc5)
    %4 = arith.addi %3, %2 : tensor<128xi32> loc(#loc5)
    %5 = arith.divsi %4, %cst_4 : tensor<128xi32> loc(#loc6)
    %6 = arith.remsi %5, %cst_4 : tensor<128xi32> loc(#loc7)
    %7 = arith.remsi %4, %cst_4 : tensor<128xi32> loc(#loc8)
    %8 = arith.divsi %4, %cst_3 : tensor<128xi32> loc(#loc9)
    %9 = arith.remsi %8, %cst_3 : tensor<128xi32> loc(#loc10)
    %10 = tt.splat %arg0 : !tt.ptr<i64> -> tensor<128x!tt.ptr<i64>> loc(#loc11)
    %11 = tt.addptr %10, %6 : tensor<128x!tt.ptr<i64>>, tensor<128xi32> loc(#loc11)
    %12 = tt.load %11 evictionPolicy = evict_last : tensor<128x!tt.ptr<i64>> loc(#loc12)
    %13 = tt.addptr %10, %7 : tensor<128x!tt.ptr<i64>>, tensor<128xi32> loc(#loc13)
    %14 = tt.load %13 evictionPolicy = evict_last : tensor<128x!tt.ptr<i64>> loc(#loc14)
    %15 = arith.addi %12, %cst_2 : tensor<128xi64> loc(#loc15)
    %16 = arith.cmpi slt, %12, %cst_0 : tensor<128xi64> loc(#loc16)
    %17 = arith.select %16, %15, %12 : tensor<128xi1>, tensor<128xi64> loc(#loc17)
    %18 = arith.addi %14, %cst_2 : tensor<128xi64> loc(#loc18)
    %19 = arith.cmpi slt, %14, %cst_0 : tensor<128xi64> loc(#loc19)
    %20 = arith.select %19, %18, %14 : tensor<128xi1>, tensor<128xi64> loc(#loc20)
    %21 = arith.muli %17, %cst_2 : tensor<128xi64> loc(#loc21)
    %22 = arith.addi %20, %21 : tensor<128xi64> loc(#loc22)
    %23 = arith.muli %8, %cst_1 : tensor<128xi32> loc(#loc23)
    %24 = arith.extsi %23 : tensor<128xi32> to tensor<128xi64> loc(#loc24)
    %25 = arith.addi %22, %24 : tensor<128xi64> loc(#loc24)
    %26 = tt.splat %arg1 : !tt.ptr<f32> -> tensor<128x!tt.ptr<f32>> loc(#loc25)
    %27 = tt.addptr %26, %25 : tensor<128x!tt.ptr<f32>>, tensor<128xi64> loc(#loc25)
    %28 = tt.load %27 evictionPolicy = evict_last : tensor<128x!tt.ptr<f32>> loc(#loc26)
    %29 = arith.muli %9, %cst_1 : tensor<128xi32> loc(#loc27)
    %30 = arith.extsi %29 : tensor<128xi32> to tensor<128xi64> loc(#loc28)
    %31 = arith.addi %22, %30 : tensor<128xi64> loc(#loc28)
    %32 = tt.splat %arg2 : !tt.ptr<f32> -> tensor<128x!tt.ptr<f32>> loc(#loc29)
    %33 = tt.addptr %32, %31 : tensor<128x!tt.ptr<f32>>, tensor<128xi64> loc(#loc29)
    %34 = tt.load %33 evictionPolicy = evict_last : tensor<128x!tt.ptr<f32>> loc(#loc30)
    %35 = arith.addf %28, %34 : tensor<128xf32> loc(#loc31)
    %36 = arith.cmpf ogt, %cst, %35 : tensor<128xf32> loc(#loc38)
    %37 = arith.select %36, %cst, %35 : tensor<128xi1>, tensor<128xf32> loc(#loc39)
    %38 = tt.splat %arg3 : !tt.ptr<f32> -> tensor<128x!tt.ptr<f32>> loc(#loc35)
    %39 = tt.addptr %38, %4 : tensor<128x!tt.ptr<f32>>, tensor<128xi32> loc(#loc35)
    tt.store %39, %37 : tensor<128x!tt.ptr<f32>> loc(#loc36)
    tt.return loc(#loc37)
  } loc(#loc)
} loc(#loc)
#loc1 = loc(unknown)
#loc2 = loc("inductor_cache/px/cpxz6cpbytcsfms4foqlfffv764xux36ywagh6zpiagd6rzz75vl.py":21:28)
#loc3 = loc("inductor_cache/px/cpxz6cpbytcsfms4foqlfffv764xux36ywagh6zpiagd6rzz75vl.py":21:33)
#loc4 = loc("inductor_cache/px/cpxz6cpbytcsfms4foqlfffv764xux36ywagh6zpiagd6rzz75vl.py":22:36)
#loc5 = loc("inductor_cache/px/cpxz6cpbytcsfms4foqlfffv764xux36ywagh6zpiagd6rzz75vl.py":22:23)
#loc6 = loc("inductor_cache/px/cpxz6cpbytcsfms4foqlfffv764xux36ywagh6zpiagd6rzz75vl.py":24:21)
#loc7 = loc("inductor_cache/px/cpxz6cpbytcsfms4foqlfffv764xux36ywagh6zpiagd6rzz75vl.py":24:26)
#loc8 = loc("inductor_cache/px/cpxz6cpbytcsfms4foqlfffv764xux36ywagh6zpiagd6rzz75vl.py":25:19)
#loc9 = loc("inductor_cache/px/cpxz6cpbytcsfms4foqlfffv764xux36ywagh6zpiagd6rzz75vl.py":26:19)
#loc10 = loc("inductor_cache/px/cpxz6cpbytcsfms4foqlfffv764xux36ywagh6zpiagd6rzz75vl.py":27:27)
#loc11 = loc("inductor_cache/px/cpxz6cpbytcsfms4foqlfffv764xux36ywagh6zpiagd6rzz75vl.py":29:30)
#loc12 = loc("inductor_cache/px/cpxz6cpbytcsfms4foqlfffv764xux36ywagh6zpiagd6rzz75vl.py":29:35)
#loc13 = loc("inductor_cache/px/cpxz6cpbytcsfms4foqlfffv764xux36ywagh6zpiagd6rzz75vl.py":30:30)
#loc14 = loc("inductor_cache/px/cpxz6cpbytcsfms4foqlfffv764xux36ywagh6zpiagd6rzz75vl.py":30:35)
#loc15 = loc("inductor_cache/px/cpxz6cpbytcsfms4foqlfffv764xux36ywagh6zpiagd6rzz75vl.py":32:18)
#loc16 = loc("inductor_cache/px/cpxz6cpbytcsfms4foqlfffv764xux36ywagh6zpiagd6rzz75vl.py":33:18)
#loc17 = loc("inductor_cache/px/cpxz6cpbytcsfms4foqlfffv764xux36ywagh6zpiagd6rzz75vl.py":34:32)
#loc18 = loc("inductor_cache/px/cpxz6cpbytcsfms4foqlfffv764xux36ywagh6zpiagd6rzz75vl.py":35:18)
#loc19 = loc("inductor_cache/px/cpxz6cpbytcsfms4foqlfffv764xux36ywagh6zpiagd6rzz75vl.py":36:18)
#loc20 = loc("inductor_cache/px/cpxz6cpbytcsfms4foqlfffv764xux36ywagh6zpiagd6rzz75vl.py":37:32)
#loc21 = loc("inductor_cache/px/cpxz6cpbytcsfms4foqlfffv764xux36ywagh6zpiagd6rzz75vl.py":38:39)
#loc22 = loc("inductor_cache/px/cpxz6cpbytcsfms4foqlfffv764xux36ywagh6zpiagd6rzz75vl.py":38:37)
#loc23 = loc("inductor_cache/px/cpxz6cpbytcsfms4foqlfffv764xux36ywagh6zpiagd6rzz75vl.py":38:49)
#loc24 = loc("inductor_cache/px/cpxz6cpbytcsfms4foqlfffv764xux36ywagh6zpiagd6rzz75vl.py":38:46)
#loc25 = loc("inductor_cache/px/cpxz6cpbytcsfms4foqlfffv764xux36ywagh6zpiagd6rzz75vl.py":38:30)
#loc26 = loc("inductor_cache/px/cpxz6cpbytcsfms4foqlfffv764xux36ywagh6zpiagd6rzz75vl.py":38:54)
#loc27 = loc("inductor_cache/px/cpxz6cpbytcsfms4foqlfffv764xux36ywagh6zpiagd6rzz75vl.py":39:50)
#loc28 = loc("inductor_cache/px/cpxz6cpbytcsfms4foqlfffv764xux36ywagh6zpiagd6rzz75vl.py":39:47)
#loc29 = loc("inductor_cache/px/cpxz6cpbytcsfms4foqlfffv764xux36ywagh6zpiagd6rzz75vl.py":39:31)
#loc30 = loc("inductor_cache/px/cpxz6cpbytcsfms4foqlfffv764xux36ywagh6zpiagd6rzz75vl.py":39:55)
#loc31 = loc("inductor_cache/px/cpxz6cpbytcsfms4foqlfffv764xux36ywagh6zpiagd6rzz75vl.py":40:19)
#loc32 = loc("/home/sahanp/.conda/envs/parity-bench/lib/python3.12/site-packages/torch/_inductor/runtime/triton_helpers.py":118:15)
#loc33 = loc("inductor_cache/px/cpxz6cpbytcsfms4foqlfffv764xux36ywagh6zpiagd6rzz75vl.py":42:42)
#loc34 = loc("/home/sahanp/.conda/envs/parity-bench/lib/python3.12/site-packages/torch/_inductor/runtime/triton_helpers.py":121:29)
#loc35 = loc("inductor_cache/px/cpxz6cpbytcsfms4foqlfffv764xux36ywagh6zpiagd6rzz75vl.py":43:25)
#loc36 = loc("inductor_cache/px/cpxz6cpbytcsfms4foqlfffv764xux36ywagh6zpiagd6rzz75vl.py":43:37)
#loc37 = loc("inductor_cache/px/cpxz6cpbytcsfms4foqlfffv764xux36ywagh6zpiagd6rzz75vl.py":43:4)
#loc38 = loc(callsite(#loc32 at #loc33))
#loc39 = loc(callsite(#loc34 at #loc33))
