#loc = loc("inductor_cache/tg/ctguaylae3qpfq555rk5rmbrpwhakucc62ulc54snlfu2mkfjauf.py":19:0)
#loc1 = loc(unknown)
#loc34 = loc("inductor_cache/tg/ctguaylae3qpfq555rk5rmbrpwhakucc62ulc54snlfu2mkfjauf.py":45:26)
#loc41 = loc(callsite(#loc1 at #loc34))
module {
  tt.func public @triton_per_fused_sum_0(%arg0: !tt.ptr<f32> {tt.divisibility = 16 : i32} loc("inductor_cache/tg/ctguaylae3qpfq555rk5rmbrpwhakucc62ulc54snlfu2mkfjauf.py":19:0), %arg1: !tt.ptr<f32> {tt.divisibility = 16 : i32} loc("inductor_cache/tg/ctguaylae3qpfq555rk5rmbrpwhakucc62ulc54snlfu2mkfjauf.py":19:0), %arg2: !tt.ptr<f32> {tt.divisibility = 16 : i32} loc("inductor_cache/tg/ctguaylae3qpfq555rk5rmbrpwhakucc62ulc54snlfu2mkfjauf.py":19:0), %arg3: !tt.ptr<f32> {tt.divisibility = 16 : i32} loc("inductor_cache/tg/ctguaylae3qpfq555rk5rmbrpwhakucc62ulc54snlfu2mkfjauf.py":19:0), %arg4: !tt.ptr<f32> {tt.divisibility = 16 : i32} loc("inductor_cache/tg/ctguaylae3qpfq555rk5rmbrpwhakucc62ulc54snlfu2mkfjauf.py":19:0), %arg5: !tt.ptr<f32> {tt.divisibility = 16 : i32} loc("inductor_cache/tg/ctguaylae3qpfq555rk5rmbrpwhakucc62ulc54snlfu2mkfjauf.py":19:0), %arg6: i32 {tt.divisibility = 16 : i32} loc("inductor_cache/tg/ctguaylae3qpfq555rk5rmbrpwhakucc62ulc54snlfu2mkfjauf.py":19:0), %arg7: i32 {tt.divisibility = 16 : i32} loc("inductor_cache/tg/ctguaylae3qpfq555rk5rmbrpwhakucc62ulc54snlfu2mkfjauf.py":19:0)) attributes {noinline = false} {
    %cst = arith.constant dense<0.000000e+00> : tensor<8x16xf32> loc(#loc1)
    %cst_0 = arith.constant dense<16> : tensor<8x1xi32> loc(#loc1)
    %cst_1 = arith.constant dense<4> : tensor<8x1xi32> loc(#loc1)
    %cst_2 = arith.constant dense<64> : tensor<8x1xi32> loc(#loc1)
    %c8_i32 = arith.constant 8 : i32 loc(#loc1)
    %0 = tt.get_program_id x : i32 loc(#loc2)
    %1 = arith.muli %0, %c8_i32 : i32 loc(#loc3)
    %2 = tt.make_range {end = 8 : i32, start = 0 : i32} : tensor<8xi32> loc(#loc4)
    %3 = tt.expand_dims %2 {axis = 1 : i32} : tensor<8xi32> -> tensor<8x1xi32> loc(#loc5)
    %4 = tt.splat %1 : i32 -> tensor<8x1xi32> loc(#loc6)
    %5 = arith.addi %4, %3 : tensor<8x1xi32> loc(#loc6)
    %6 = arith.cmpi slt, %5, %cst_2 : tensor<8x1xi32> loc(#loc7)
    %7 = tt.make_range {end = 16 : i32, start = 0 : i32} : tensor<16xi32> loc(#loc8)
    %8 = tt.expand_dims %7 {axis = 0 : i32} : tensor<16xi32> -> tensor<1x16xi32> loc(#loc9)
    %9 = arith.divsi %5, %cst_1 : tensor<8x1xi32> loc(#loc10)
    %10 = arith.remsi %9, %cst_1 : tensor<8x1xi32> loc(#loc11)
    %11 = arith.remsi %5, %cst_1 : tensor<8x1xi32> loc(#loc12)
    %12 = tt.splat %arg0 : !tt.ptr<f32> -> tensor<8x1x!tt.ptr<f32>> loc(#loc13)
    %13 = tt.addptr %12, %5 : tensor<8x1x!tt.ptr<f32>>, tensor<8x1xi32> loc(#loc13)
    %14 = tt.load %13, %6 evictionPolicy = evict_last : tensor<8x1x!tt.ptr<f32>> loc(#loc14)
    %15 = arith.muli %10, %cst_0 : tensor<8x1xi32> loc(#loc15)
    %16 = tt.broadcast %8 : tensor<1x16xi32> -> tensor<8x16xi32> loc(#loc16)
    %17 = tt.broadcast %15 : tensor<8x1xi32> -> tensor<8x16xi32> loc(#loc16)
    %18 = arith.addi %16, %17 : tensor<8x16xi32> loc(#loc16)
    %19 = tt.splat %arg1 : !tt.ptr<f32> -> tensor<8x16x!tt.ptr<f32>> loc(#loc17)
    %20 = tt.addptr %19, %18 : tensor<8x16x!tt.ptr<f32>>, tensor<8x16xi32> loc(#loc17)
    %21 = tt.broadcast %6 : tensor<8x1xi1> -> tensor<8x16xi1> loc(#loc18)
    %22 = tt.load %20, %21, %cst evictionPolicy = evict_last : tensor<8x16x!tt.ptr<f32>> loc(#loc18)
    %23 = tt.splat %arg2 : !tt.ptr<f32> -> tensor<8x16x!tt.ptr<f32>> loc(#loc19)
    %24 = tt.addptr %23, %18 : tensor<8x16x!tt.ptr<f32>>, tensor<8x16xi32> loc(#loc19)
    %25 = tt.load %24, %21, %cst evictionPolicy = evict_last : tensor<8x16x!tt.ptr<f32>> loc(#loc20)
    %26 = arith.muli %11, %cst_0 : tensor<8x1xi32> loc(#loc21)
    %27 = tt.broadcast %26 : tensor<8x1xi32> -> tensor<8x16xi32> loc(#loc22)
    %28 = arith.addi %16, %27 : tensor<8x16xi32> loc(#loc22)
    %29 = tt.splat %arg3 : !tt.ptr<f32> -> tensor<8x16x!tt.ptr<f32>> loc(#loc23)
    %30 = tt.addptr %29, %28 : tensor<8x16x!tt.ptr<f32>>, tensor<8x16xi32> loc(#loc23)
    %31 = tt.load %30, %21, %cst evictionPolicy = evict_last : tensor<8x16x!tt.ptr<f32>> loc(#loc24)
    %32 = tt.splat %arg4 : !tt.ptr<f32> -> tensor<8x16x!tt.ptr<f32>> loc(#loc25)
    %33 = tt.addptr %32, %28 : tensor<8x16x!tt.ptr<f32>>, tensor<8x16xi32> loc(#loc25)
    %34 = tt.load %33, %21, %cst evictionPolicy = evict_last : tensor<8x16x!tt.ptr<f32>> loc(#loc26)
    %35 = tt.broadcast %14 : tensor<8x1xf32> -> tensor<8x16xf32> loc(#loc27)
    %36 = arith.mulf %35, %22 : tensor<8x16xf32> loc(#loc27)
    %37 = arith.addf %36, %25 : tensor<8x16xf32> loc(#loc28)
    %38 = arith.mulf %35, %31 : tensor<8x16xf32> loc(#loc29)
    %39 = arith.addf %38, %34 : tensor<8x16xf32> loc(#loc30)
    %40 = arith.addf %37, %39 : tensor<8x16xf32> loc(#loc31)
    %41 = arith.select %21, %40, %cst : tensor<8x16xi1>, tensor<8x16xf32> loc(#loc32)
    %42 = "tt.reduce"(%41) <{axis = 1 : i32}> ({
    ^bb0(%arg8: f32 loc(callsite(#loc1 at #loc34)), %arg9: f32 loc(callsite(#loc1 at #loc34))):
      %46 = arith.addf %arg8, %arg9 : f32 loc(#loc43)
      tt.reduce.return %46 : f32 loc(#loc40)
    }) : (tensor<8x16xf32>) -> tensor<8xf32> loc(#loc40)
    %43 = tt.expand_dims %42 {axis = 1 : i32} : tensor<8xf32> -> tensor<8x1xf32> loc(#loc36)
    %44 = tt.splat %arg5 : !tt.ptr<f32> -> tensor<8x1x!tt.ptr<f32>> loc(#loc37)
    %45 = tt.addptr %44, %5 : tensor<8x1x!tt.ptr<f32>>, tensor<8x1xi32> loc(#loc37)
    tt.store %45, %43, %6 : tensor<8x1x!tt.ptr<f32>> loc(#loc38)
    tt.return loc(#loc39)
  } loc(#loc)
} loc(#loc)
#loc2 = loc("inductor_cache/tg/ctguaylae3qpfq555rk5rmbrpwhakucc62ulc54snlfu2mkfjauf.py":23:28)
#loc3 = loc("inductor_cache/tg/ctguaylae3qpfq555rk5rmbrpwhakucc62ulc54snlfu2mkfjauf.py":23:33)
#loc4 = loc("inductor_cache/tg/ctguaylae3qpfq555rk5rmbrpwhakucc62ulc54snlfu2mkfjauf.py":24:36)
#loc5 = loc("inductor_cache/tg/ctguaylae3qpfq555rk5rmbrpwhakucc62ulc54snlfu2mkfjauf.py":24:44)
#loc6 = loc("inductor_cache/tg/ctguaylae3qpfq555rk5rmbrpwhakucc62ulc54snlfu2mkfjauf.py":24:23)
#loc7 = loc("inductor_cache/tg/ctguaylae3qpfq555rk5rmbrpwhakucc62ulc54snlfu2mkfjauf.py":25:21)
#loc8 = loc("inductor_cache/tg/ctguaylae3qpfq555rk5rmbrpwhakucc62ulc54snlfu2mkfjauf.py":26:26)
#loc9 = loc("inductor_cache/tg/ctguaylae3qpfq555rk5rmbrpwhakucc62ulc54snlfu2mkfjauf.py":26:34)
#loc10 = loc("inductor_cache/tg/ctguaylae3qpfq555rk5rmbrpwhakucc62ulc54snlfu2mkfjauf.py":31:21)
#loc11 = loc("inductor_cache/tg/ctguaylae3qpfq555rk5rmbrpwhakucc62ulc54snlfu2mkfjauf.py":31:26)
#loc12 = loc("inductor_cache/tg/ctguaylae3qpfq555rk5rmbrpwhakucc62ulc54snlfu2mkfjauf.py":32:19)
#loc13 = loc("inductor_cache/tg/ctguaylae3qpfq555rk5rmbrpwhakucc62ulc54snlfu2mkfjauf.py":33:30)
#loc14 = loc("inductor_cache/tg/ctguaylae3qpfq555rk5rmbrpwhakucc62ulc54snlfu2mkfjauf.py":33:35)
#loc15 = loc("inductor_cache/tg/ctguaylae3qpfq555rk5rmbrpwhakucc62ulc54snlfu2mkfjauf.py":34:38)
#loc16 = loc("inductor_cache/tg/ctguaylae3qpfq555rk5rmbrpwhakucc62ulc54snlfu2mkfjauf.py":34:35)
#loc17 = loc("inductor_cache/tg/ctguaylae3qpfq555rk5rmbrpwhakucc62ulc54snlfu2mkfjauf.py":34:30)
#loc18 = loc("inductor_cache/tg/ctguaylae3qpfq555rk5rmbrpwhakucc62ulc54snlfu2mkfjauf.py":34:43)
#loc19 = loc("inductor_cache/tg/ctguaylae3qpfq555rk5rmbrpwhakucc62ulc54snlfu2mkfjauf.py":35:30)
#loc20 = loc("inductor_cache/tg/ctguaylae3qpfq555rk5rmbrpwhakucc62ulc54snlfu2mkfjauf.py":35:43)
#loc21 = loc("inductor_cache/tg/ctguaylae3qpfq555rk5rmbrpwhakucc62ulc54snlfu2mkfjauf.py":36:38)
#loc22 = loc("inductor_cache/tg/ctguaylae3qpfq555rk5rmbrpwhakucc62ulc54snlfu2mkfjauf.py":36:35)
#loc23 = loc("inductor_cache/tg/ctguaylae3qpfq555rk5rmbrpwhakucc62ulc54snlfu2mkfjauf.py":36:30)
#loc24 = loc("inductor_cache/tg/ctguaylae3qpfq555rk5rmbrpwhakucc62ulc54snlfu2mkfjauf.py":36:43)
#loc25 = loc("inductor_cache/tg/ctguaylae3qpfq555rk5rmbrpwhakucc62ulc54snlfu2mkfjauf.py":37:30)
#loc26 = loc("inductor_cache/tg/ctguaylae3qpfq555rk5rmbrpwhakucc62ulc54snlfu2mkfjauf.py":37:43)
#loc27 = loc("inductor_cache/tg/ctguaylae3qpfq555rk5rmbrpwhakucc62ulc54snlfu2mkfjauf.py":38:18)
#loc28 = loc("inductor_cache/tg/ctguaylae3qpfq555rk5rmbrpwhakucc62ulc54snlfu2mkfjauf.py":39:18)
#loc29 = loc("inductor_cache/tg/ctguaylae3qpfq555rk5rmbrpwhakucc62ulc54snlfu2mkfjauf.py":40:18)
#loc30 = loc("inductor_cache/tg/ctguaylae3qpfq555rk5rmbrpwhakucc62ulc54snlfu2mkfjauf.py":41:18)
#loc31 = loc("inductor_cache/tg/ctguaylae3qpfq555rk5rmbrpwhakucc62ulc54snlfu2mkfjauf.py":42:18)
#loc32 = loc("inductor_cache/tg/ctguaylae3qpfq555rk5rmbrpwhakucc62ulc54snlfu2mkfjauf.py":44:35)
#loc33 = loc("/home/sahanp/.conda/envs/parity-bench/lib/python3.12/site-packages/triton/language/standard.py":267:36)
#loc35 = loc("/home/sahanp/.conda/envs/parity-bench/lib/python3.12/site-packages/triton/language/standard.py":256:15)
#loc36 = loc("inductor_cache/tg/ctguaylae3qpfq555rk5rmbrpwhakucc62ulc54snlfu2mkfjauf.py":45:29)
#loc37 = loc("inductor_cache/tg/ctguaylae3qpfq555rk5rmbrpwhakucc62ulc54snlfu2mkfjauf.py":46:25)
#loc38 = loc("inductor_cache/tg/ctguaylae3qpfq555rk5rmbrpwhakucc62ulc54snlfu2mkfjauf.py":46:37)
#loc39 = loc("inductor_cache/tg/ctguaylae3qpfq555rk5rmbrpwhakucc62ulc54snlfu2mkfjauf.py":46:4)
#loc40 = loc(callsite(#loc33 at #loc34))
#loc42 = loc(callsite(#loc35 at #loc33))
#loc43 = loc(callsite(#loc42 at #loc34))
