#loc = loc("inductor_cache/oq/coqcrmuybj2vwjkamyxlsla3dvs375ixbbfsw3chf2b6bu24xw27.py":19:0)
#loc1 = loc(unknown)
#loc18 = loc("inductor_cache/oq/coqcrmuybj2vwjkamyxlsla3dvs375ixbbfsw3chf2b6bu24xw27.py":38:25)
#loc25 = loc(callsite(#loc1 at #loc18))
module {
  tt.func public @triton_red_fused_mv_4(%arg0: !tt.ptr<f32> {tt.divisibility = 16 : i32} loc("inductor_cache/oq/coqcrmuybj2vwjkamyxlsla3dvs375ixbbfsw3chf2b6bu24xw27.py":19:0), %arg1: !tt.ptr<f32> {tt.divisibility = 16 : i32} loc("inductor_cache/oq/coqcrmuybj2vwjkamyxlsla3dvs375ixbbfsw3chf2b6bu24xw27.py":19:0), %arg2: !tt.ptr<f32> {tt.divisibility = 16 : i32} loc("inductor_cache/oq/coqcrmuybj2vwjkamyxlsla3dvs375ixbbfsw3chf2b6bu24xw27.py":19:0), %arg3: i32 {tt.divisibility = 16 : i32} loc("inductor_cache/oq/coqcrmuybj2vwjkamyxlsla3dvs375ixbbfsw3chf2b6bu24xw27.py":19:0), %arg4: i32 {tt.divisibility = 16 : i32} loc("inductor_cache/oq/coqcrmuybj2vwjkamyxlsla3dvs375ixbbfsw3chf2b6bu24xw27.py":19:0)) attributes {noinline = false} {
    %c1728_i32 = arith.constant 1728 : i32 loc(#loc1)
    %c128_i32 = arith.constant 128 : i32 loc(#loc1)
    %cst = arith.constant dense<1728> : tensor<1x2048xi32> loc(#loc1)
    %cst_0 = arith.constant dense<0.000000e+00> : tensor<1x2048xf32> loc(#loc1)
    %0 = tt.get_program_id x : i32 loc(#loc2)
    %1 = arith.cmpi slt, %0, %c128_i32 : i32 loc(#loc3)
    %2 = tt.splat %1 : i1 -> tensor<1x1xi1> loc(#loc3)
    %3 = tt.make_range {end = 2048 : i32, start = 0 : i32} : tensor<2048xi32> loc(#loc4)
    %4 = tt.expand_dims %3 {axis = 0 : i32} : tensor<2048xi32> -> tensor<1x2048xi32> loc(#loc5)
    %5 = arith.cmpi slt, %4, %cst : tensor<1x2048xi32> loc(#loc6)
    %6 = arith.muli %0, %c1728_i32 : i32 loc(#loc7)
    %7 = tt.splat %6 : i32 -> tensor<1x2048xi32> loc(#loc8)
    %8 = arith.addi %4, %7 : tensor<1x2048xi32> loc(#loc8)
    %9 = tt.splat %arg0 : !tt.ptr<f32> -> tensor<1x2048x!tt.ptr<f32>> loc(#loc9)
    %10 = tt.addptr %9, %8 : tensor<1x2048x!tt.ptr<f32>>, tensor<1x2048xi32> loc(#loc9)
    %11 = tt.splat %1 : i1 -> tensor<1x2048xi1> loc(#loc10)
    %12 = arith.andi %5, %11 : tensor<1x2048xi1> loc(#loc10)
    %13 = tt.load %10, %12, %cst_0 evictionPolicy = evict_first : tensor<1x2048x!tt.ptr<f32>> loc(#loc11)
    %14 = tt.splat %arg1 : !tt.ptr<f32> -> tensor<1x2048x!tt.ptr<f32>> loc(#loc12)
    %15 = tt.addptr %14, %4 : tensor<1x2048x!tt.ptr<f32>>, tensor<1x2048xi32> loc(#loc12)
    %16 = tt.load %15, %5, %cst_0 evictionPolicy = evict_last : tensor<1x2048x!tt.ptr<f32>> loc(#loc13)
    %17 = arith.mulf %13, %16 : tensor<1x2048xf32> loc(#loc14)
    %18 = arith.addf %17, %cst_0 : tensor<1x2048xf32> loc(#loc15)
    %19 = arith.select %12, %18, %cst_0 : tensor<1x2048xi1>, tensor<1x2048xf32> loc(#loc16)
    %20 = "tt.reduce"(%19) <{axis = 1 : i32}> ({
    ^bb0(%arg5: f32 loc(callsite(#loc1 at #loc18)), %arg6: f32 loc(callsite(#loc1 at #loc18))):
      %24 = arith.addf %arg5, %arg6 : f32 loc(#loc27)
      tt.reduce.return %24 : f32 loc(#loc24)
    }) : (tensor<1x2048xf32>) -> tensor<1xf32> loc(#loc24)
    %21 = tt.expand_dims %20 {axis = 1 : i32} : tensor<1xf32> -> tensor<1x1xf32> loc(#loc20)
    %22 = tt.addptr %arg2, %0 : !tt.ptr<f32>, i32 loc(#loc21)
    %23 = tt.splat %22 : !tt.ptr<f32> -> tensor<1x1x!tt.ptr<f32>> loc(#loc21)
    tt.store %23, %21, %2 : tensor<1x1x!tt.ptr<f32>> loc(#loc22)
    tt.return loc(#loc23)
  } loc(#loc)
} loc(#loc)
#loc2 = loc("inductor_cache/oq/coqcrmuybj2vwjkamyxlsla3dvs375ixbbfsw3chf2b6bu24xw27.py":22:28)
#loc3 = loc("inductor_cache/oq/coqcrmuybj2vwjkamyxlsla3dvs375ixbbfsw3chf2b6bu24xw27.py":24:21)
#loc4 = loc("inductor_cache/oq/coqcrmuybj2vwjkamyxlsla3dvs375ixbbfsw3chf2b6bu24xw27.py":25:25)
#loc5 = loc("inductor_cache/oq/coqcrmuybj2vwjkamyxlsla3dvs375ixbbfsw3chf2b6bu24xw27.py":25:33)
#loc6 = loc("inductor_cache/oq/coqcrmuybj2vwjkamyxlsla3dvs375ixbbfsw3chf2b6bu24xw27.py":30:25)
#loc7 = loc("inductor_cache/oq/coqcrmuybj2vwjkamyxlsla3dvs375ixbbfsw3chf2b6bu24xw27.py":32:44)
#loc8 = loc("inductor_cache/oq/coqcrmuybj2vwjkamyxlsla3dvs375ixbbfsw3chf2b6bu24xw27.py":32:39)
#loc9 = loc("inductor_cache/oq/coqcrmuybj2vwjkamyxlsla3dvs375ixbbfsw3chf2b6bu24xw27.py":32:34)
#loc10 = loc("inductor_cache/oq/coqcrmuybj2vwjkamyxlsla3dvs375ixbbfsw3chf2b6bu24xw27.py":32:57)
#loc11 = loc("inductor_cache/oq/coqcrmuybj2vwjkamyxlsla3dvs375ixbbfsw3chf2b6bu24xw27.py":32:49)
#loc12 = loc("inductor_cache/oq/coqcrmuybj2vwjkamyxlsla3dvs375ixbbfsw3chf2b6bu24xw27.py":33:34)
#loc13 = loc("inductor_cache/oq/coqcrmuybj2vwjkamyxlsla3dvs375ixbbfsw3chf2b6bu24xw27.py":33:39)
#loc14 = loc("inductor_cache/oq/coqcrmuybj2vwjkamyxlsla3dvs375ixbbfsw3chf2b6bu24xw27.py":34:22)
#loc15 = loc("inductor_cache/oq/coqcrmuybj2vwjkamyxlsla3dvs375ixbbfsw3chf2b6bu24xw27.py":36:23)
#loc16 = loc("inductor_cache/oq/coqcrmuybj2vwjkamyxlsla3dvs375ixbbfsw3chf2b6bu24xw27.py":37:46)
#loc17 = loc("/home/sahanp/.conda/envs/parity-bench/lib/python3.12/site-packages/triton/language/standard.py":267:36)
#loc19 = loc("/home/sahanp/.conda/envs/parity-bench/lib/python3.12/site-packages/triton/language/standard.py":256:15)
#loc20 = loc("inductor_cache/oq/coqcrmuybj2vwjkamyxlsla3dvs375ixbbfsw3chf2b6bu24xw27.py":38:28)
#loc21 = loc("inductor_cache/oq/coqcrmuybj2vwjkamyxlsla3dvs375ixbbfsw3chf2b6bu24xw27.py":39:25)
#loc22 = loc("inductor_cache/oq/coqcrmuybj2vwjkamyxlsla3dvs375ixbbfsw3chf2b6bu24xw27.py":39:36)
#loc23 = loc("inductor_cache/oq/coqcrmuybj2vwjkamyxlsla3dvs375ixbbfsw3chf2b6bu24xw27.py":39:4)
#loc24 = loc(callsite(#loc17 at #loc18))
#loc26 = loc(callsite(#loc19 at #loc17))
#loc27 = loc(callsite(#loc26 at #loc18))
