#loc = loc("inductor_cache/tx/ctx2prb4pyjtvwhfmemumaqm22dy5ajju5ee57sexa2qovhh5ees.py":19:0)
module {
  tt.func public @triton_poi_fused_add_mean_sub_2(%arg0: !tt.ptr<f32> {tt.divisibility = 16 : i32} loc("inductor_cache/tx/ctx2prb4pyjtvwhfmemumaqm22dy5ajju5ee57sexa2qovhh5ees.py":19:0), %arg1: !tt.ptr<f32> {tt.divisibility = 16 : i32} loc("inductor_cache/tx/ctx2prb4pyjtvwhfmemumaqm22dy5ajju5ee57sexa2qovhh5ees.py":19:0), %arg2: !tt.ptr<f32> {tt.divisibility = 16 : i32} loc("inductor_cache/tx/ctx2prb4pyjtvwhfmemumaqm22dy5ajju5ee57sexa2qovhh5ees.py":19:0), %arg3: !tt.ptr<f32> {tt.divisibility = 16 : i32} loc("inductor_cache/tx/ctx2prb4pyjtvwhfmemumaqm22dy5ajju5ee57sexa2qovhh5ees.py":19:0), %arg4: !tt.ptr<f32> {tt.divisibility = 16 : i32} loc("inductor_cache/tx/ctx2prb4pyjtvwhfmemumaqm22dy5ajju5ee57sexa2qovhh5ees.py":19:0), %arg5: i32 {tt.divisibility = 16 : i32} loc("inductor_cache/tx/ctx2prb4pyjtvwhfmemumaqm22dy5ajju5ee57sexa2qovhh5ees.py":19:0)) attributes {noinline = false} {
    %c0_i32 = arith.constant 0 : i32 loc(#loc1)
    %cst = arith.constant dense<4> : tensor<256xi32> loc(#loc1)
    %cst_0 = arith.constant dense<256> : tensor<256xi32> loc(#loc1)
    %c256_i32 = arith.constant 256 : i32 loc(#loc1)
    %0 = tt.get_program_id x : i32 loc(#loc2)
    %1 = arith.muli %0, %c256_i32 : i32 loc(#loc3)
    %2 = tt.make_range {end = 256 : i32, start = 0 : i32} : tensor<256xi32> loc(#loc4)
    %3 = tt.splat %1 : i32 -> tensor<256xi32> loc(#loc5)
    %4 = arith.addi %3, %2 : tensor<256xi32> loc(#loc5)
    %5 = arith.cmpi slt, %4, %cst_0 : tensor<256xi32> loc(#loc6)
    %6 = arith.divsi %4, %cst : tensor<256xi32> loc(#loc7)
    %7 = tt.splat %arg1 : !tt.ptr<f32> -> tensor<256x!tt.ptr<f32>> loc(#loc8)
    %8 = tt.addptr %7, %6 : tensor<256x!tt.ptr<f32>>, tensor<256xi32> loc(#loc8)
    %9 = tt.load %8, %5 evictionPolicy = evict_last : tensor<256x!tt.ptr<f32>> loc(#loc9)
    %10 = tt.addptr %arg2, %c0_i32 : !tt.ptr<f32>, i32 loc(#loc10)
    %11 = tt.load %10 : !tt.ptr<f32> loc(#loc11)
    %12 = tt.splat %11 : f32 -> tensor<256xf32> loc(#loc12)
    %13 = tt.splat %arg0 : !tt.ptr<f32> -> tensor<256x!tt.ptr<f32>> loc(#loc13)
    %14 = tt.addptr %13, %4 : tensor<256x!tt.ptr<f32>>, tensor<256xi32> loc(#loc13)
    %15 = tt.load %14, %5 : tensor<256x!tt.ptr<f32>> loc(#loc14)
    %16 = tt.addptr %arg3, %c0_i32 : !tt.ptr<f32>, i32 loc(#loc15)
    %17 = tt.load %16 : !tt.ptr<f32> loc(#loc16)
    %18 = tt.splat %17 : f32 -> tensor<256xf32> loc(#loc17)
    %19 = tt.splat %arg4 : !tt.ptr<f32> -> tensor<256x!tt.ptr<f32>> loc(#loc18)
    %20 = tt.addptr %19, %6 : tensor<256x!tt.ptr<f32>>, tensor<256xi32> loc(#loc18)
    %21 = tt.load %20, %5 evictionPolicy = evict_last : tensor<256x!tt.ptr<f32>> loc(#loc19)
    %22 = arith.addf %9, %12 : tensor<256xf32> loc(#loc20)
    %23 = arith.addf %15, %18 : tensor<256xf32> loc(#loc21)
    %24 = arith.subf %23, %21 : tensor<256xf32> loc(#loc22)
    %25 = arith.addf %22, %24 : tensor<256xf32> loc(#loc23)
    tt.store %14, %25, %5 : tensor<256x!tt.ptr<f32>> loc(#loc24)
    tt.return loc(#loc25)
  } loc(#loc)
} loc(#loc)
#loc1 = loc(unknown)
#loc2 = loc("inductor_cache/tx/ctx2prb4pyjtvwhfmemumaqm22dy5ajju5ee57sexa2qovhh5ees.py":21:28)
#loc3 = loc("inductor_cache/tx/ctx2prb4pyjtvwhfmemumaqm22dy5ajju5ee57sexa2qovhh5ees.py":21:33)
#loc4 = loc("inductor_cache/tx/ctx2prb4pyjtvwhfmemumaqm22dy5ajju5ee57sexa2qovhh5ees.py":22:36)
#loc5 = loc("inductor_cache/tx/ctx2prb4pyjtvwhfmemumaqm22dy5ajju5ee57sexa2qovhh5ees.py":22:23)
#loc6 = loc("inductor_cache/tx/ctx2prb4pyjtvwhfmemumaqm22dy5ajju5ee57sexa2qovhh5ees.py":23:21)
#loc7 = loc("inductor_cache/tx/ctx2prb4pyjtvwhfmemumaqm22dy5ajju5ee57sexa2qovhh5ees.py":24:19)
#loc8 = loc("inductor_cache/tx/ctx2prb4pyjtvwhfmemumaqm22dy5ajju5ee57sexa2qovhh5ees.py":26:30)
#loc9 = loc("inductor_cache/tx/ctx2prb4pyjtvwhfmemumaqm22dy5ajju5ee57sexa2qovhh5ees.py":26:35)
#loc10 = loc("inductor_cache/tx/ctx2prb4pyjtvwhfmemumaqm22dy5ajju5ee57sexa2qovhh5ees.py":27:30)
#loc11 = loc("inductor_cache/tx/ctx2prb4pyjtvwhfmemumaqm22dy5ajju5ee57sexa2qovhh5ees.py":27:19)
#loc12 = loc("inductor_cache/tx/ctx2prb4pyjtvwhfmemumaqm22dy5ajju5ee57sexa2qovhh5ees.py":28:33)
#loc13 = loc("inductor_cache/tx/ctx2prb4pyjtvwhfmemumaqm22dy5ajju5ee57sexa2qovhh5ees.py":29:34)
#loc14 = loc("inductor_cache/tx/ctx2prb4pyjtvwhfmemumaqm22dy5ajju5ee57sexa2qovhh5ees.py":29:39)
#loc15 = loc("inductor_cache/tx/ctx2prb4pyjtvwhfmemumaqm22dy5ajju5ee57sexa2qovhh5ees.py":30:30)
#loc16 = loc("inductor_cache/tx/ctx2prb4pyjtvwhfmemumaqm22dy5ajju5ee57sexa2qovhh5ees.py":30:19)
#loc17 = loc("inductor_cache/tx/ctx2prb4pyjtvwhfmemumaqm22dy5ajju5ee57sexa2qovhh5ees.py":31:33)
#loc18 = loc("inductor_cache/tx/ctx2prb4pyjtvwhfmemumaqm22dy5ajju5ee57sexa2qovhh5ees.py":32:30)
#loc19 = loc("inductor_cache/tx/ctx2prb4pyjtvwhfmemumaqm22dy5ajju5ee57sexa2qovhh5ees.py":32:35)
#loc20 = loc("inductor_cache/tx/ctx2prb4pyjtvwhfmemumaqm22dy5ajju5ee57sexa2qovhh5ees.py":33:18)
#loc21 = loc("inductor_cache/tx/ctx2prb4pyjtvwhfmemumaqm22dy5ajju5ee57sexa2qovhh5ees.py":34:18)
#loc22 = loc("inductor_cache/tx/ctx2prb4pyjtvwhfmemumaqm22dy5ajju5ee57sexa2qovhh5ees.py":35:18)
#loc23 = loc("inductor_cache/tx/ctx2prb4pyjtvwhfmemumaqm22dy5ajju5ee57sexa2qovhh5ees.py":36:19)
#loc24 = loc("inductor_cache/tx/ctx2prb4pyjtvwhfmemumaqm22dy5ajju5ee57sexa2qovhh5ees.py":37:40)
#loc25 = loc("inductor_cache/tx/ctx2prb4pyjtvwhfmemumaqm22dy5ajju5ee57sexa2qovhh5ees.py":37:4)
