#loc = loc("inductor_cache/gq/cgq5zvcvmyklbkxqrz7u4ii26xkwo52tlk7e32h3uqtj7hjgzcto.py":19:0)
#loc1 = loc(unknown)
#loc47 = loc("inductor_cache/gq/cgq5zvcvmyklbkxqrz7u4ii26xkwo52tlk7e32h3uqtj7hjgzcto.py":59:26)
#loc66 = loc(callsite(#loc1 at #loc47))
module {
  tt.func public @triton_per_fused__native_batch_norm_legit_no_training_add_mean_mul_relu_threshold_backward_1(%arg0: !tt.ptr<f32> {tt.divisibility = 16 : i32} loc("inductor_cache/gq/cgq5zvcvmyklbkxqrz7u4ii26xkwo52tlk7e32h3uqtj7hjgzcto.py":19:0), %arg1: !tt.ptr<f32> {tt.divisibility = 16 : i32} loc("inductor_cache/gq/cgq5zvcvmyklbkxqrz7u4ii26xkwo52tlk7e32h3uqtj7hjgzcto.py":19:0), %arg2: !tt.ptr<f32> {tt.divisibility = 16 : i32} loc("inductor_cache/gq/cgq5zvcvmyklbkxqrz7u4ii26xkwo52tlk7e32h3uqtj7hjgzcto.py":19:0), %arg3: !tt.ptr<f32> {tt.divisibility = 16 : i32} loc("inductor_cache/gq/cgq5zvcvmyklbkxqrz7u4ii26xkwo52tlk7e32h3uqtj7hjgzcto.py":19:0), %arg4: !tt.ptr<f32> {tt.divisibility = 16 : i32} loc("inductor_cache/gq/cgq5zvcvmyklbkxqrz7u4ii26xkwo52tlk7e32h3uqtj7hjgzcto.py":19:0), %arg5: !tt.ptr<f32> {tt.divisibility = 16 : i32} loc("inductor_cache/gq/cgq5zvcvmyklbkxqrz7u4ii26xkwo52tlk7e32h3uqtj7hjgzcto.py":19:0), %arg6: !tt.ptr<f32> {tt.divisibility = 16 : i32} loc("inductor_cache/gq/cgq5zvcvmyklbkxqrz7u4ii26xkwo52tlk7e32h3uqtj7hjgzcto.py":19:0), %arg7: !tt.ptr<f32> {tt.divisibility = 16 : i32} loc("inductor_cache/gq/cgq5zvcvmyklbkxqrz7u4ii26xkwo52tlk7e32h3uqtj7hjgzcto.py":19:0), %arg8: !tt.ptr<f32> {tt.divisibility = 16 : i32} loc("inductor_cache/gq/cgq5zvcvmyklbkxqrz7u4ii26xkwo52tlk7e32h3uqtj7hjgzcto.py":19:0), %arg9: !tt.ptr<i1> {tt.divisibility = 16 : i32} loc("inductor_cache/gq/cgq5zvcvmyklbkxqrz7u4ii26xkwo52tlk7e32h3uqtj7hjgzcto.py":19:0), %arg10: i32 {tt.divisibility = 16 : i32} loc("inductor_cache/gq/cgq5zvcvmyklbkxqrz7u4ii26xkwo52tlk7e32h3uqtj7hjgzcto.py":19:0), %arg11: i32 {tt.divisibility = 16 : i32} loc("inductor_cache/gq/cgq5zvcvmyklbkxqrz7u4ii26xkwo52tlk7e32h3uqtj7hjgzcto.py":19:0)) attributes {noinline = false} {
    %cst = arith.constant dense<0.000000e+00> : tensor<8x1xf32> loc(#loc1)
    %cst_0 = arith.constant dense<1.000000e+00> : tensor<8x1xf32> loc(#loc1)
    %cst_1 = arith.constant dense<1.600000e+01> : tensor<8x1xf32> loc(#loc1)
    %cst_2 = arith.constant dense<9.99999974E-6> : tensor<8x1xf32> loc(#loc1)
    %cst_3 = arith.constant dense<0.000000e+00> : tensor<8x16xf32> loc(#loc1)
    %cst_4 = arith.constant dense<4> : tensor<8x1xi32> loc(#loc1)
    %cst_5 = arith.constant dense<16> : tensor<8x1xi32> loc(#loc1)
    %c8_i32 = arith.constant 8 : i32 loc(#loc1)
    %0 = tt.get_program_id x : i32 loc(#loc2)
    %1 = arith.muli %0, %c8_i32 : i32 loc(#loc3)
    %2 = tt.make_range {end = 8 : i32, start = 0 : i32} : tensor<8xi32> loc(#loc4)
    %3 = tt.expand_dims %2 {axis = 1 : i32} : tensor<8xi32> -> tensor<8x1xi32> loc(#loc5)
    %4 = tt.splat %1 : i32 -> tensor<8x1xi32> loc(#loc6)
    %5 = arith.addi %4, %3 : tensor<8x1xi32> loc(#loc6)
    %6 = arith.cmpi slt, %5, %cst_5 : tensor<8x1xi32> loc(#loc7)
    %7 = tt.make_range {end = 16 : i32, start = 0 : i32} : tensor<16xi32> loc(#loc8)
    %8 = tt.expand_dims %7 {axis = 0 : i32} : tensor<16xi32> -> tensor<1x16xi32> loc(#loc9)
    %9 = arith.remsi %5, %cst_4 : tensor<8x1xi32> loc(#loc10)
    %10 = arith.muli %5, %cst_5 : tensor<8x1xi32> loc(#loc11)
    %11 = tt.broadcast %8 : tensor<1x16xi32> -> tensor<8x16xi32> loc(#loc12)
    %12 = tt.broadcast %10 : tensor<8x1xi32> -> tensor<8x16xi32> loc(#loc12)
    %13 = arith.addi %11, %12 : tensor<8x16xi32> loc(#loc12)
    %14 = tt.splat %arg1 : !tt.ptr<f32> -> tensor<8x16x!tt.ptr<f32>> loc(#loc13)
    %15 = tt.addptr %14, %13 : tensor<8x16x!tt.ptr<f32>>, tensor<8x16xi32> loc(#loc13)
    %16 = tt.broadcast %6 : tensor<8x1xi1> -> tensor<8x16xi1> loc(#loc14)
    %17 = tt.load %15, %16, %cst_3 : tensor<8x16x!tt.ptr<f32>> loc(#loc14)
    %18 = tt.splat %arg2 : !tt.ptr<f32> -> tensor<8x1x!tt.ptr<f32>> loc(#loc15)
    %19 = tt.addptr %18, %9 : tensor<8x1x!tt.ptr<f32>>, tensor<8x1xi32> loc(#loc15)
    %20 = tt.load %19, %6 evictionPolicy = evict_last : tensor<8x1x!tt.ptr<f32>> loc(#loc16)
    %21 = tt.splat %arg3 : !tt.ptr<f32> -> tensor<8x1x!tt.ptr<f32>> loc(#loc17)
    %22 = tt.addptr %21, %9 : tensor<8x1x!tt.ptr<f32>>, tensor<8x1xi32> loc(#loc17)
    %23 = tt.load %22, %6 evictionPolicy = evict_last : tensor<8x1x!tt.ptr<f32>> loc(#loc18)
    %24 = tt.splat %arg4 : !tt.ptr<f32> -> tensor<8x1x!tt.ptr<f32>> loc(#loc19)
    %25 = tt.addptr %24, %9 : tensor<8x1x!tt.ptr<f32>>, tensor<8x1xi32> loc(#loc19)
    %26 = tt.load %25, %6 evictionPolicy = evict_last : tensor<8x1x!tt.ptr<f32>> loc(#loc20)
    %27 = tt.splat %arg5 : !tt.ptr<f32> -> tensor<8x1x!tt.ptr<f32>> loc(#loc21)
    %28 = tt.addptr %27, %9 : tensor<8x1x!tt.ptr<f32>>, tensor<8x1xi32> loc(#loc21)
    %29 = tt.load %28, %6 evictionPolicy = evict_last : tensor<8x1x!tt.ptr<f32>> loc(#loc22)
    %30 = tt.splat %arg6 : !tt.ptr<f32> -> tensor<8x1x!tt.ptr<f32>> loc(#loc23)
    %31 = tt.addptr %30, %5 : tensor<8x1x!tt.ptr<f32>>, tensor<8x1xi32> loc(#loc23)
    %32 = tt.load %31, %6 evictionPolicy = evict_last : tensor<8x1x!tt.ptr<f32>> loc(#loc24)
    %33 = tt.splat %arg7 : !tt.ptr<f32> -> tensor<8x16x!tt.ptr<f32>> loc(#loc25)
    %34 = tt.addptr %33, %13 : tensor<8x16x!tt.ptr<f32>>, tensor<8x16xi32> loc(#loc25)
    %35 = tt.load %34, %16, %cst_3 : tensor<8x16x!tt.ptr<f32>> loc(#loc26)
    %36 = tt.broadcast %20 : tensor<8x1xf32> -> tensor<8x16xf32> loc(#loc27)
    %37 = arith.subf %17, %36 : tensor<8x16xf32> loc(#loc27)
    %38 = arith.addf %23, %cst_2 : tensor<8x1xf32> loc(#loc28)
    %39 = tt.extern_elementwise %38 {libname = "", libpath = "", pure = true, symbol = "__nv_sqrtf"} : (tensor<8x1xf32>) -> tensor<8x1xf32> loc(#loc29)
    %40 = arith.divf %cst_0, %39 : tensor<8x1xf32> loc(#loc30)
    %41 = tt.broadcast %40 : tensor<8x1xf32> -> tensor<8x16xf32> loc(#loc31)
    %42 = arith.mulf %37, %41 : tensor<8x16xf32> loc(#loc31)
    %43 = tt.broadcast %26 : tensor<8x1xf32> -> tensor<8x16xf32> loc(#loc32)
    %44 = arith.mulf %42, %43 : tensor<8x16xf32> loc(#loc32)
    %45 = tt.broadcast %29 : tensor<8x1xf32> -> tensor<8x16xf32> loc(#loc33)
    %46 = arith.addf %44, %45 : tensor<8x16xf32> loc(#loc33)
    %47 = arith.subf %cst, %32 : tensor<8x1xf32> loc(#loc59)
    %48 = math.exp %47 : tensor<8x1xf32> loc(#loc60)
    %49 = arith.addf %48, %cst_0 : tensor<8x1xf32> loc(#loc61)
    %50 = arith.divf %cst_0, %49 : tensor<8x1xf32> loc(#loc62)
    %51 = tt.broadcast %50 : tensor<8x1xf32> -> tensor<8x16xf32> loc(#loc39)
    %52 = arith.mulf %46, %51 : tensor<8x16xf32> loc(#loc39)
    %53 = arith.addf %52, %35 : tensor<8x16xf32> loc(#loc40)
    %54 = arith.cmpf ogt, %cst_3, %53 : tensor<8x16xf32> loc(#loc63)
    %55 = arith.select %54, %cst_3, %53 : tensor<8x16xi1>, tensor<8x16xf32> loc(#loc64)
    %56 = arith.cmpf ole, %55, %cst_3 : tensor<8x16xf32> loc(#loc44)
    %57 = arith.select %16, %46, %cst_3 : tensor<8x16xi1>, tensor<8x16xf32> loc(#loc45)
    %58 = "tt.reduce"(%57) <{axis = 1 : i32}> ({
    ^bb0(%arg12: f32 loc(callsite(#loc1 at #loc47)), %arg13: f32 loc(callsite(#loc1 at #loc47))):
      %69 = arith.addf %arg12, %arg13 : f32 loc(#loc68)
      tt.reduce.return %69 : f32 loc(#loc65)
    }) : (tensor<8x16xf32>) -> tensor<8xf32> loc(#loc65)
    %59 = tt.expand_dims %58 {axis = 1 : i32} : tensor<8xf32> -> tensor<8x1xf32> loc(#loc49)
    %60 = arith.divf %59, %cst_1 : tensor<8x1xf32> loc(#loc50)
    %61 = tt.splat %arg8 : !tt.ptr<f32> -> tensor<8x16x!tt.ptr<f32>> loc(#loc51)
    %62 = tt.addptr %61, %13 : tensor<8x16x!tt.ptr<f32>>, tensor<8x16xi32> loc(#loc51)
    tt.store %62, %55, %16 : tensor<8x16x!tt.ptr<f32>> loc(#loc52)
    %63 = tt.splat %arg9 : !tt.ptr<i1> -> tensor<8x16x!tt.ptr<i1>> loc(#loc53)
    %64 = tt.addptr %63, %13 : tensor<8x16x!tt.ptr<i1>>, tensor<8x16xi32> loc(#loc53)
    %65 = tt.bitcast %64 : tensor<8x16x!tt.ptr<i1>> -> tensor<8x16x!tt.ptr<i8>> loc(#loc54)
    %66 = arith.extui %56 : tensor<8x16xi1> to tensor<8x16xi8> loc(#loc54)
    tt.store %65, %66, %16 : tensor<8x16x!tt.ptr<i8>> loc(#loc54)
    gpu.barrier loc(#loc55)
    %67 = tt.splat %arg0 : !tt.ptr<f32> -> tensor<8x1x!tt.ptr<f32>> loc(#loc56)
    %68 = tt.addptr %67, %5 : tensor<8x1x!tt.ptr<f32>>, tensor<8x1xi32> loc(#loc56)
    tt.store %68, %60, %6 : tensor<8x1x!tt.ptr<f32>> loc(#loc57)
    tt.return loc(#loc58)
  } loc(#loc)
} loc(#loc)
#loc2 = loc("inductor_cache/gq/cgq5zvcvmyklbkxqrz7u4ii26xkwo52tlk7e32h3uqtj7hjgzcto.py":23:28)
#loc3 = loc("inductor_cache/gq/cgq5zvcvmyklbkxqrz7u4ii26xkwo52tlk7e32h3uqtj7hjgzcto.py":23:33)
#loc4 = loc("inductor_cache/gq/cgq5zvcvmyklbkxqrz7u4ii26xkwo52tlk7e32h3uqtj7hjgzcto.py":24:36)
#loc5 = loc("inductor_cache/gq/cgq5zvcvmyklbkxqrz7u4ii26xkwo52tlk7e32h3uqtj7hjgzcto.py":24:44)
#loc6 = loc("inductor_cache/gq/cgq5zvcvmyklbkxqrz7u4ii26xkwo52tlk7e32h3uqtj7hjgzcto.py":24:23)
#loc7 = loc("inductor_cache/gq/cgq5zvcvmyklbkxqrz7u4ii26xkwo52tlk7e32h3uqtj7hjgzcto.py":25:21)
#loc8 = loc("inductor_cache/gq/cgq5zvcvmyklbkxqrz7u4ii26xkwo52tlk7e32h3uqtj7hjgzcto.py":26:26)
#loc9 = loc("inductor_cache/gq/cgq5zvcvmyklbkxqrz7u4ii26xkwo52tlk7e32h3uqtj7hjgzcto.py":26:34)
#loc10 = loc("inductor_cache/gq/cgq5zvcvmyklbkxqrz7u4ii26xkwo52tlk7e32h3uqtj7hjgzcto.py":31:19)
#loc11 = loc("inductor_cache/gq/cgq5zvcvmyklbkxqrz7u4ii26xkwo52tlk7e32h3uqtj7hjgzcto.py":32:38)
#loc12 = loc("inductor_cache/gq/cgq5zvcvmyklbkxqrz7u4ii26xkwo52tlk7e32h3uqtj7hjgzcto.py":32:35)
#loc13 = loc("inductor_cache/gq/cgq5zvcvmyklbkxqrz7u4ii26xkwo52tlk7e32h3uqtj7hjgzcto.py":32:30)
#loc14 = loc("inductor_cache/gq/cgq5zvcvmyklbkxqrz7u4ii26xkwo52tlk7e32h3uqtj7hjgzcto.py":32:43)
#loc15 = loc("inductor_cache/gq/cgq5zvcvmyklbkxqrz7u4ii26xkwo52tlk7e32h3uqtj7hjgzcto.py":33:30)
#loc16 = loc("inductor_cache/gq/cgq5zvcvmyklbkxqrz7u4ii26xkwo52tlk7e32h3uqtj7hjgzcto.py":33:35)
#loc17 = loc("inductor_cache/gq/cgq5zvcvmyklbkxqrz7u4ii26xkwo52tlk7e32h3uqtj7hjgzcto.py":34:30)
#loc18 = loc("inductor_cache/gq/cgq5zvcvmyklbkxqrz7u4ii26xkwo52tlk7e32h3uqtj7hjgzcto.py":34:35)
#loc19 = loc("inductor_cache/gq/cgq5zvcvmyklbkxqrz7u4ii26xkwo52tlk7e32h3uqtj7hjgzcto.py":35:31)
#loc20 = loc("inductor_cache/gq/cgq5zvcvmyklbkxqrz7u4ii26xkwo52tlk7e32h3uqtj7hjgzcto.py":35:36)
#loc21 = loc("inductor_cache/gq/cgq5zvcvmyklbkxqrz7u4ii26xkwo52tlk7e32h3uqtj7hjgzcto.py":36:31)
#loc22 = loc("inductor_cache/gq/cgq5zvcvmyklbkxqrz7u4ii26xkwo52tlk7e32h3uqtj7hjgzcto.py":36:36)
#loc23 = loc("inductor_cache/gq/cgq5zvcvmyklbkxqrz7u4ii26xkwo52tlk7e32h3uqtj7hjgzcto.py":37:31)
#loc24 = loc("inductor_cache/gq/cgq5zvcvmyklbkxqrz7u4ii26xkwo52tlk7e32h3uqtj7hjgzcto.py":37:36)
#loc25 = loc("inductor_cache/gq/cgq5zvcvmyklbkxqrz7u4ii26xkwo52tlk7e32h3uqtj7hjgzcto.py":38:31)
#loc26 = loc("inductor_cache/gq/cgq5zvcvmyklbkxqrz7u4ii26xkwo52tlk7e32h3uqtj7hjgzcto.py":38:44)
#loc27 = loc("inductor_cache/gq/cgq5zvcvmyklbkxqrz7u4ii26xkwo52tlk7e32h3uqtj7hjgzcto.py":39:18)
#loc28 = loc("inductor_cache/gq/cgq5zvcvmyklbkxqrz7u4ii26xkwo52tlk7e32h3uqtj7hjgzcto.py":41:18)
#loc29 = loc("inductor_cache/gq/cgq5zvcvmyklbkxqrz7u4ii26xkwo52tlk7e32h3uqtj7hjgzcto.py":42:26)
#loc30 = loc("inductor_cache/gq/cgq5zvcvmyklbkxqrz7u4ii26xkwo52tlk7e32h3uqtj7hjgzcto.py":44:18)
#loc31 = loc("inductor_cache/gq/cgq5zvcvmyklbkxqrz7u4ii26xkwo52tlk7e32h3uqtj7hjgzcto.py":47:19)
#loc32 = loc("inductor_cache/gq/cgq5zvcvmyklbkxqrz7u4ii26xkwo52tlk7e32h3uqtj7hjgzcto.py":48:20)
#loc33 = loc("inductor_cache/gq/cgq5zvcvmyklbkxqrz7u4ii26xkwo52tlk7e32h3uqtj7hjgzcto.py":49:20)
#loc34 = loc("/home/sahanp/.conda/envs/parity-bench/lib/python3.12/site-packages/triton/language/standard.py":47:30)
#loc35 = loc("inductor_cache/gq/cgq5zvcvmyklbkxqrz7u4ii26xkwo52tlk7e32h3uqtj7hjgzcto.py":50:23)
#loc36 = loc("/home/sahanp/.conda/envs/parity-bench/lib/python3.12/site-packages/triton/language/standard.py":47:29)
#loc37 = loc("/home/sahanp/.conda/envs/parity-bench/lib/python3.12/site-packages/triton/language/standard.py":47:20)
#loc38 = loc("/home/sahanp/.conda/envs/parity-bench/lib/python3.12/site-packages/triton/language/standard.py":47:16)
#loc39 = loc("inductor_cache/gq/cgq5zvcvmyklbkxqrz7u4ii26xkwo52tlk7e32h3uqtj7hjgzcto.py":51:20)
#loc40 = loc("inductor_cache/gq/cgq5zvcvmyklbkxqrz7u4ii26xkwo52tlk7e32h3uqtj7hjgzcto.py":52:20)
#loc41 = loc("/home/sahanp/.conda/envs/parity-bench/lib/python3.12/site-packages/torch/_inductor/runtime/triton_helpers.py":118:15)
#loc42 = loc("inductor_cache/gq/cgq5zvcvmyklbkxqrz7u4ii26xkwo52tlk7e32h3uqtj7hjgzcto.py":54:42)
#loc43 = loc("/home/sahanp/.conda/envs/parity-bench/lib/python3.12/site-packages/torch/_inductor/runtime/triton_helpers.py":121:29)
#loc44 = loc("inductor_cache/gq/cgq5zvcvmyklbkxqrz7u4ii26xkwo52tlk7e32h3uqtj7hjgzcto.py":56:21)
#loc45 = loc("inductor_cache/gq/cgq5zvcvmyklbkxqrz7u4ii26xkwo52tlk7e32h3uqtj7hjgzcto.py":58:35)
#loc46 = loc("/home/sahanp/.conda/envs/parity-bench/lib/python3.12/site-packages/triton/language/standard.py":267:36)
#loc48 = loc("/home/sahanp/.conda/envs/parity-bench/lib/python3.12/site-packages/triton/language/standard.py":256:15)
#loc49 = loc("inductor_cache/gq/cgq5zvcvmyklbkxqrz7u4ii26xkwo52tlk7e32h3uqtj7hjgzcto.py":59:29)
#loc50 = loc("inductor_cache/gq/cgq5zvcvmyklbkxqrz7u4ii26xkwo52tlk7e32h3uqtj7hjgzcto.py":61:20)
#loc51 = loc("inductor_cache/gq/cgq5zvcvmyklbkxqrz7u4ii26xkwo52tlk7e32h3uqtj7hjgzcto.py":62:25)
#loc52 = loc("inductor_cache/gq/cgq5zvcvmyklbkxqrz7u4ii26xkwo52tlk7e32h3uqtj7hjgzcto.py":62:45)
#loc53 = loc("inductor_cache/gq/cgq5zvcvmyklbkxqrz7u4ii26xkwo52tlk7e32h3uqtj7hjgzcto.py":63:25)
#loc54 = loc("inductor_cache/gq/cgq5zvcvmyklbkxqrz7u4ii26xkwo52tlk7e32h3uqtj7hjgzcto.py":63:45)
#loc55 = loc("inductor_cache/gq/cgq5zvcvmyklbkxqrz7u4ii26xkwo52tlk7e32h3uqtj7hjgzcto.py":64:4)
#loc56 = loc("inductor_cache/gq/cgq5zvcvmyklbkxqrz7u4ii26xkwo52tlk7e32h3uqtj7hjgzcto.py":65:28)
#loc57 = loc("inductor_cache/gq/cgq5zvcvmyklbkxqrz7u4ii26xkwo52tlk7e32h3uqtj7hjgzcto.py":65:40)
#loc58 = loc("inductor_cache/gq/cgq5zvcvmyklbkxqrz7u4ii26xkwo52tlk7e32h3uqtj7hjgzcto.py":65:4)
#loc59 = loc(callsite(#loc34 at #loc35))
#loc60 = loc(callsite(#loc36 at #loc35))
#loc61 = loc(callsite(#loc37 at #loc35))
#loc62 = loc(callsite(#loc38 at #loc35))
#loc63 = loc(callsite(#loc41 at #loc42))
#loc64 = loc(callsite(#loc43 at #loc42))
#loc65 = loc(callsite(#loc46 at #loc47))
#loc67 = loc(callsite(#loc48 at #loc46))
#loc68 = loc(callsite(#loc67 at #loc47))
