#loc = loc("inductor_cache/zl/czlqfzia5arnlynlhenq4ocgh6xoiczrlapn3foxznniqprwrzhx.py":19:0)
#loc1 = loc(unknown)
#loc28 = loc("inductor_cache/zl/czlqfzia5arnlynlhenq4ocgh6xoiczrlapn3foxznniqprwrzhx.py":39:24)
#loc42 = loc(callsite(#loc1 at #loc28))
module {
  tt.func public @triton_per_fused_clamp_div_sum_1(%arg0: !tt.ptr<f32> {tt.divisibility = 16 : i32} loc("inductor_cache/zl/czlqfzia5arnlynlhenq4ocgh6xoiczrlapn3foxznniqprwrzhx.py":19:0), %arg1: !tt.ptr<f32> {tt.divisibility = 16 : i32} loc("inductor_cache/zl/czlqfzia5arnlynlhenq4ocgh6xoiczrlapn3foxznniqprwrzhx.py":19:0), %arg2: !tt.ptr<f32> {tt.divisibility = 16 : i32} loc("inductor_cache/zl/czlqfzia5arnlynlhenq4ocgh6xoiczrlapn3foxznniqprwrzhx.py":19:0), %arg3: !tt.ptr<f32> {tt.divisibility = 16 : i32} loc("inductor_cache/zl/czlqfzia5arnlynlhenq4ocgh6xoiczrlapn3foxznniqprwrzhx.py":19:0), %arg4: i32 {tt.divisibility = 16 : i32} loc("inductor_cache/zl/czlqfzia5arnlynlhenq4ocgh6xoiczrlapn3foxznniqprwrzhx.py":19:0), %arg5: i32 {tt.divisibility = 16 : i32} loc("inductor_cache/zl/czlqfzia5arnlynlhenq4ocgh6xoiczrlapn3foxznniqprwrzhx.py":19:0)) attributes {noinline = false} {
    %cst = arith.constant dense<9.99999997E-7> : tensor<32x1xf32> loc(#loc1)
    %cst_0 = arith.constant dense<0.000000e+00> : tensor<32x16xf32> loc(#loc1)
    %cst_1 = arith.constant dense<16> : tensor<32x1xi32> loc(#loc1)
    %cst_2 = arith.constant dense<4> : tensor<32x1xi32> loc(#loc1)
    %cst_3 = arith.constant dense<64> : tensor<32x1xi32> loc(#loc1)
    %c32_i32 = arith.constant 32 : i32 loc(#loc1)
    %0 = tt.get_program_id x : i32 loc(#loc2)
    %1 = arith.muli %0, %c32_i32 : i32 loc(#loc3)
    %2 = tt.make_range {end = 32 : i32, start = 0 : i32} : tensor<32xi32> loc(#loc4)
    %3 = tt.expand_dims %2 {axis = 1 : i32} : tensor<32xi32> -> tensor<32x1xi32> loc(#loc5)
    %4 = tt.splat %1 : i32 -> tensor<32x1xi32> loc(#loc6)
    %5 = arith.addi %4, %3 : tensor<32x1xi32> loc(#loc6)
    %6 = arith.cmpi slt, %5, %cst_3 : tensor<32x1xi32> loc(#loc7)
    %7 = tt.make_range {end = 16 : i32, start = 0 : i32} : tensor<16xi32> loc(#loc8)
    %8 = tt.expand_dims %7 {axis = 0 : i32} : tensor<16xi32> -> tensor<1x16xi32> loc(#loc9)
    %9 = arith.divsi %5, %cst_2 : tensor<32x1xi32> loc(#loc10)
    %10 = arith.remsi %5, %cst_2 : tensor<32x1xi32> loc(#loc11)
    %11 = arith.muli %9, %cst_1 : tensor<32x1xi32> loc(#loc12)
    %12 = tt.broadcast %8 : tensor<1x16xi32> -> tensor<32x16xi32> loc(#loc13)
    %13 = tt.broadcast %11 : tensor<32x1xi32> -> tensor<32x16xi32> loc(#loc13)
    %14 = arith.addi %12, %13 : tensor<32x16xi32> loc(#loc13)
    %15 = tt.splat %arg1 : !tt.ptr<f32> -> tensor<32x16x!tt.ptr<f32>> loc(#loc14)
    %16 = tt.addptr %15, %14 : tensor<32x16x!tt.ptr<f32>>, tensor<32x16xi32> loc(#loc14)
    %17 = tt.broadcast %6 : tensor<32x1xi1> -> tensor<32x16xi1> loc(#loc15)
    %18 = tt.load %16, %17, %cst_0 evictionPolicy = evict_last : tensor<32x16x!tt.ptr<f32>> loc(#loc15)
    %19 = arith.muli %10, %cst_1 : tensor<32x1xi32> loc(#loc16)
    %20 = tt.broadcast %19 : tensor<32x1xi32> -> tensor<32x16xi32> loc(#loc17)
    %21 = arith.addi %12, %20 : tensor<32x16xi32> loc(#loc17)
    %22 = arith.divsi %9, %cst_2 : tensor<32x1xi32> loc(#loc18)
    %23 = arith.muli %22, %cst_3 : tensor<32x1xi32> loc(#loc19)
    %24 = tt.broadcast %23 : tensor<32x1xi32> -> tensor<32x16xi32> loc(#loc20)
    %25 = arith.addi %21, %24 : tensor<32x16xi32> loc(#loc20)
    %26 = tt.splat %arg2 : !tt.ptr<f32> -> tensor<32x16x!tt.ptr<f32>> loc(#loc21)
    %27 = tt.addptr %26, %25 : tensor<32x16x!tt.ptr<f32>>, tensor<32x16xi32> loc(#loc21)
    %28 = tt.load %27, %17, %cst_0 : tensor<32x16x!tt.ptr<f32>> loc(#loc22)
    %29 = tt.splat %arg3 : !tt.ptr<f32> -> tensor<32x1x!tt.ptr<f32>> loc(#loc23)
    %30 = tt.addptr %29, %9 : tensor<32x1x!tt.ptr<f32>>, tensor<32x1xi32> loc(#loc23)
    %31 = tt.load %30, %6 evictionPolicy = evict_last : tensor<32x1x!tt.ptr<f32>> loc(#loc24)
    %32 = arith.mulf %18, %28 : tensor<32x16xf32> loc(#loc25)
    %33 = arith.select %17, %32, %cst_0 : tensor<32x16xi1>, tensor<32x16xf32> loc(#loc26)
    %34 = "tt.reduce"(%33) <{axis = 1 : i32}> ({
    ^bb0(%arg6: f32 loc(callsite(#loc1 at #loc28)), %arg7: f32 loc(callsite(#loc1 at #loc28))):
      %43 = arith.addf %arg6, %arg7 : f32 loc(#loc48)
      tt.reduce.return %43 : f32 loc(#loc41)
    }) : (tensor<32x16xf32>) -> tensor<32xf32> loc(#loc41)
    %35 = tt.expand_dims %34 {axis = 1 : i32} : tensor<32xf32> -> tensor<32x1xf32> loc(#loc30)
    %36 = arith.cmpf ogt, %31, %cst : tensor<32x1xf32> loc(#loc44)
    %37 = arith.cmpf une, %31, %31 : tensor<32x1xf32> loc(#loc45)
    %38 = arith.ori %36, %37 : tensor<32x1xi1> loc(#loc46)
    %39 = arith.select %38, %31, %cst : tensor<32x1xi1>, tensor<32x1xf32> loc(#loc47)
    %40 = arith.divf %35, %39 : tensor<32x1xf32> loc(#loc36)
    gpu.barrier loc(#loc37)
    %41 = tt.splat %arg0 : !tt.ptr<f32> -> tensor<32x1x!tt.ptr<f32>> loc(#loc38)
    %42 = tt.addptr %41, %5 : tensor<32x1x!tt.ptr<f32>>, tensor<32x1xi32> loc(#loc38)
    tt.store %42, %40, %6 : tensor<32x1x!tt.ptr<f32>> loc(#loc39)
    tt.return loc(#loc40)
  } loc(#loc)
} loc(#loc)
#loc2 = loc("inductor_cache/zl/czlqfzia5arnlynlhenq4ocgh6xoiczrlapn3foxznniqprwrzhx.py":23:28)
#loc3 = loc("inductor_cache/zl/czlqfzia5arnlynlhenq4ocgh6xoiczrlapn3foxznniqprwrzhx.py":23:33)
#loc4 = loc("inductor_cache/zl/czlqfzia5arnlynlhenq4ocgh6xoiczrlapn3foxznniqprwrzhx.py":24:36)
#loc5 = loc("inductor_cache/zl/czlqfzia5arnlynlhenq4ocgh6xoiczrlapn3foxznniqprwrzhx.py":24:44)
#loc6 = loc("inductor_cache/zl/czlqfzia5arnlynlhenq4ocgh6xoiczrlapn3foxznniqprwrzhx.py":24:23)
#loc7 = loc("inductor_cache/zl/czlqfzia5arnlynlhenq4ocgh6xoiczrlapn3foxznniqprwrzhx.py":25:21)
#loc8 = loc("inductor_cache/zl/czlqfzia5arnlynlhenq4ocgh6xoiczrlapn3foxznniqprwrzhx.py":26:26)
#loc9 = loc("inductor_cache/zl/czlqfzia5arnlynlhenq4ocgh6xoiczrlapn3foxznniqprwrzhx.py":26:34)
#loc10 = loc("inductor_cache/zl/czlqfzia5arnlynlhenq4ocgh6xoiczrlapn3foxznniqprwrzhx.py":30:19)
#loc11 = loc("inductor_cache/zl/czlqfzia5arnlynlhenq4ocgh6xoiczrlapn3foxznniqprwrzhx.py":31:19)
#loc12 = loc("inductor_cache/zl/czlqfzia5arnlynlhenq4ocgh6xoiczrlapn3foxznniqprwrzhx.py":33:38)
#loc13 = loc("inductor_cache/zl/czlqfzia5arnlynlhenq4ocgh6xoiczrlapn3foxznniqprwrzhx.py":33:35)
#loc14 = loc("inductor_cache/zl/czlqfzia5arnlynlhenq4ocgh6xoiczrlapn3foxznniqprwrzhx.py":33:30)
#loc15 = loc("inductor_cache/zl/czlqfzia5arnlynlhenq4ocgh6xoiczrlapn3foxznniqprwrzhx.py":33:43)
#loc16 = loc("inductor_cache/zl/czlqfzia5arnlynlhenq4ocgh6xoiczrlapn3foxznniqprwrzhx.py":34:38)
#loc17 = loc("inductor_cache/zl/czlqfzia5arnlynlhenq4ocgh6xoiczrlapn3foxznniqprwrzhx.py":34:35)
#loc18 = loc("inductor_cache/zl/czlqfzia5arnlynlhenq4ocgh6xoiczrlapn3foxznniqprwrzhx.py":34:53)
#loc19 = loc("inductor_cache/zl/czlqfzia5arnlynlhenq4ocgh6xoiczrlapn3foxznniqprwrzhx.py":34:47)
#loc20 = loc("inductor_cache/zl/czlqfzia5arnlynlhenq4ocgh6xoiczrlapn3foxznniqprwrzhx.py":34:43)
#loc21 = loc("inductor_cache/zl/czlqfzia5arnlynlhenq4ocgh6xoiczrlapn3foxznniqprwrzhx.py":34:30)
#loc22 = loc("inductor_cache/zl/czlqfzia5arnlynlhenq4ocgh6xoiczrlapn3foxznniqprwrzhx.py":34:58)
#loc23 = loc("inductor_cache/zl/czlqfzia5arnlynlhenq4ocgh6xoiczrlapn3foxznniqprwrzhx.py":35:30)
#loc24 = loc("inductor_cache/zl/czlqfzia5arnlynlhenq4ocgh6xoiczrlapn3foxznniqprwrzhx.py":35:35)
#loc25 = loc("inductor_cache/zl/czlqfzia5arnlynlhenq4ocgh6xoiczrlapn3foxznniqprwrzhx.py":36:18)
#loc26 = loc("inductor_cache/zl/czlqfzia5arnlynlhenq4ocgh6xoiczrlapn3foxznniqprwrzhx.py":38:33)
#loc27 = loc("/home/sahanp/.conda/envs/parity-bench/lib/python3.12/site-packages/triton/language/standard.py":267:36)
#loc29 = loc("/home/sahanp/.conda/envs/parity-bench/lib/python3.12/site-packages/triton/language/standard.py":256:15)
#loc30 = loc("inductor_cache/zl/czlqfzia5arnlynlhenq4ocgh6xoiczrlapn3foxznniqprwrzhx.py":39:27)
#loc31 = loc("/home/sahanp/.conda/envs/parity-bench/lib/python3.12/site-packages/torch/_inductor/runtime/triton_helpers.py":118:15)
#loc32 = loc("inductor_cache/zl/czlqfzia5arnlynlhenq4ocgh6xoiczrlapn3foxznniqprwrzhx.py":41:40)
#loc33 = loc("/home/sahanp/.conda/envs/parity-bench/lib/python3.12/site-packages/torch/_inductor/runtime/triton_helpers.py":120:21)
#loc34 = loc("/home/sahanp/.conda/envs/parity-bench/lib/python3.12/site-packages/torch/_inductor/runtime/triton_helpers.py":120:16)
#loc35 = loc("/home/sahanp/.conda/envs/parity-bench/lib/python3.12/site-packages/torch/_inductor/runtime/triton_helpers.py":121:29)
#loc36 = loc("inductor_cache/zl/czlqfzia5arnlynlhenq4ocgh6xoiczrlapn3foxznniqprwrzhx.py":42:19)
#loc37 = loc("inductor_cache/zl/czlqfzia5arnlynlhenq4ocgh6xoiczrlapn3foxznniqprwrzhx.py":43:4)
#loc38 = loc("inductor_cache/zl/czlqfzia5arnlynlhenq4ocgh6xoiczrlapn3foxznniqprwrzhx.py":44:28)
#loc39 = loc("inductor_cache/zl/czlqfzia5arnlynlhenq4ocgh6xoiczrlapn3foxznniqprwrzhx.py":44:40)
#loc40 = loc("inductor_cache/zl/czlqfzia5arnlynlhenq4ocgh6xoiczrlapn3foxznniqprwrzhx.py":44:4)
#loc41 = loc(callsite(#loc27 at #loc28))
#loc43 = loc(callsite(#loc29 at #loc27))
#loc44 = loc(callsite(#loc31 at #loc32))
#loc45 = loc(callsite(#loc33 at #loc32))
#loc46 = loc(callsite(#loc34 at #loc32))
#loc47 = loc(callsite(#loc35 at #loc32))
#loc48 = loc(callsite(#loc43 at #loc28))
