#loc = loc("inductor_cache/pr/cprduu3f6mqvfz7gdkm6ygqiplkacwvy27gxmwu5x3razqnzazjz.py":19:0)
module {
  tt.func public @triton_poi_fused__native_batch_norm_legit_leaky_relu_6(%arg0: !tt.ptr<f32> {tt.divisibility = 16 : i32} loc("inductor_cache/pr/cprduu3f6mqvfz7gdkm6ygqiplkacwvy27gxmwu5x3razqnzazjz.py":19:0), %arg1: !tt.ptr<f32> {tt.divisibility = 16 : i32} loc("inductor_cache/pr/cprduu3f6mqvfz7gdkm6ygqiplkacwvy27gxmwu5x3razqnzazjz.py":19:0), %arg2: !tt.ptr<f32> {tt.divisibility = 16 : i32} loc("inductor_cache/pr/cprduu3f6mqvfz7gdkm6ygqiplkacwvy27gxmwu5x3razqnzazjz.py":19:0), %arg3: !tt.ptr<f32> {tt.divisibility = 16 : i32} loc("inductor_cache/pr/cprduu3f6mqvfz7gdkm6ygqiplkacwvy27gxmwu5x3razqnzazjz.py":19:0), %arg4: !tt.ptr<f32> {tt.divisibility = 16 : i32} loc("inductor_cache/pr/cprduu3f6mqvfz7gdkm6ygqiplkacwvy27gxmwu5x3razqnzazjz.py":19:0), %arg5: !tt.ptr<f32> {tt.divisibility = 16 : i32} loc("inductor_cache/pr/cprduu3f6mqvfz7gdkm6ygqiplkacwvy27gxmwu5x3razqnzazjz.py":19:0), %arg6: i32 {tt.divisibility = 16 : i32} loc("inductor_cache/pr/cprduu3f6mqvfz7gdkm6ygqiplkacwvy27gxmwu5x3razqnzazjz.py":19:0), %arg7: i32 {tt.divisibility = 16 : i32} loc("inductor_cache/pr/cprduu3f6mqvfz7gdkm6ygqiplkacwvy27gxmwu5x3razqnzazjz.py":19:0)) attributes {noinline = false} {
    %cst = arith.constant dense<4096> : tensor<16x1xi32> loc(#loc1)
    %cst_0 = arith.constant dense<2.000000e-01> : tensor<16x256xf32> loc(#loc1)
    %cst_1 = arith.constant dense<0.000000e+00> : tensor<16x256xf32> loc(#loc1)
    %cst_2 = arith.constant dense<9.99999974E-6> : tensor<16x1xf32> loc(#loc1)
    %cst_3 = arith.constant dense<4.096000e+03> : tensor<16x1xf32> loc(#loc1)
    %cst_4 = arith.constant dense<1048576> : tensor<16x1xi32> loc(#loc1)
    %cst_5 = arith.constant dense<256> : tensor<16x1xi32> loc(#loc1)
    %cst_6 = arith.constant dense<256> : tensor<1x256xi32> loc(#loc1)
    %cst_7 = arith.constant dense<1024> : tensor<16x1xi32> loc(#loc1)
    %c16_i32 = arith.constant 16 : i32 loc(#loc1)
    %c256_i32 = arith.constant 256 : i32 loc(#loc1)
    %0 = tt.get_program_id y : i32 loc(#loc2)
    %1 = arith.muli %0, %c256_i32 : i32 loc(#loc3)
    %2 = tt.make_range {end = 256 : i32, start = 0 : i32} : tensor<256xi32> loc(#loc4)
    %3 = tt.expand_dims %2 {axis = 0 : i32} : tensor<256xi32> -> tensor<1x256xi32> loc(#loc5)
    %4 = tt.splat %1 : i32 -> tensor<1x256xi32> loc(#loc6)
    %5 = arith.addi %4, %3 : tensor<1x256xi32> loc(#loc6)
    %6 = tt.get_program_id x : i32 loc(#loc7)
    %7 = arith.muli %6, %c16_i32 : i32 loc(#loc8)
    %8 = tt.make_range {end = 16 : i32, start = 0 : i32} : tensor<16xi32> loc(#loc9)
    %9 = tt.expand_dims %8 {axis = 1 : i32} : tensor<16xi32> -> tensor<16x1xi32> loc(#loc10)
    %10 = tt.splat %7 : i32 -> tensor<16x1xi32> loc(#loc11)
    %11 = arith.addi %10, %9 : tensor<16x1xi32> loc(#loc11)
    %12 = arith.cmpi slt, %11, %cst_7 : tensor<16x1xi32> loc(#loc12)
    %13 = arith.muli %5, %cst_6 : tensor<1x256xi32> loc(#loc13)
    %14 = arith.divsi %11, %cst_5 : tensor<16x1xi32> loc(#loc14)
    %15 = arith.muli %14, %cst_4 : tensor<16x1xi32> loc(#loc15)
    %16 = tt.broadcast %13 : tensor<1x256xi32> -> tensor<16x256xi32> loc(#loc16)
    %17 = tt.broadcast %15 : tensor<16x1xi32> -> tensor<16x256xi32> loc(#loc16)
    %18 = arith.addi %16, %17 : tensor<16x256xi32> loc(#loc16)
    %19 = arith.remsi %11, %cst_5 : tensor<16x1xi32> loc(#loc17)
    %20 = tt.broadcast %19 : tensor<16x1xi32> -> tensor<16x256xi32> loc(#loc18)
    %21 = arith.addi %18, %20 : tensor<16x256xi32> loc(#loc18)
    %22 = tt.splat %arg0 : !tt.ptr<f32> -> tensor<16x256x!tt.ptr<f32>> loc(#loc19)
    %23 = tt.addptr %22, %21 : tensor<16x256x!tt.ptr<f32>>, tensor<16x256xi32> loc(#loc19)
    %24 = tt.broadcast %12 : tensor<16x1xi1> -> tensor<16x256xi1> loc(#loc20)
    %25 = tt.load %23, %24 evictionPolicy = evict_last : tensor<16x256x!tt.ptr<f32>> loc(#loc20)
    %26 = tt.splat %arg1 : !tt.ptr<f32> -> tensor<16x1x!tt.ptr<f32>> loc(#loc21)
    %27 = tt.addptr %26, %11 : tensor<16x1x!tt.ptr<f32>>, tensor<16x1xi32> loc(#loc21)
    %28 = tt.load %27, %12 evictionPolicy = evict_last : tensor<16x1x!tt.ptr<f32>> loc(#loc22)
    %29 = tt.splat %arg2 : !tt.ptr<f32> -> tensor<16x1x!tt.ptr<f32>> loc(#loc23)
    %30 = tt.addptr %29, %11 : tensor<16x1x!tt.ptr<f32>>, tensor<16x1xi32> loc(#loc23)
    %31 = tt.load %30, %12 evictionPolicy = evict_last : tensor<16x1x!tt.ptr<f32>> loc(#loc24)
    %32 = tt.splat %arg3 : !tt.ptr<f32> -> tensor<16x1x!tt.ptr<f32>> loc(#loc25)
    %33 = tt.addptr %32, %11 : tensor<16x1x!tt.ptr<f32>>, tensor<16x1xi32> loc(#loc25)
    %34 = tt.load %33, %12 evictionPolicy = evict_last : tensor<16x1x!tt.ptr<f32>> loc(#loc26)
    %35 = tt.splat %arg4 : !tt.ptr<f32> -> tensor<16x1x!tt.ptr<f32>> loc(#loc27)
    %36 = tt.addptr %35, %19 : tensor<16x1x!tt.ptr<f32>>, tensor<16x1xi32> loc(#loc27)
    %37 = tt.load %36, %12 evictionPolicy = evict_last : tensor<16x1x!tt.ptr<f32>> loc(#loc28)
    %38 = tt.broadcast %28 : tensor<16x1xf32> -> tensor<16x256xf32> loc(#loc29)
    %39 = arith.subf %25, %38 : tensor<16x256xf32> loc(#loc29)
    %40 = arith.divf %31, %cst_3 : tensor<16x1xf32> loc(#loc30)
    %41 = arith.addf %40, %cst_2 : tensor<16x1xf32> loc(#loc31)
    %42 = tt.extern_elementwise %41 {libname = "", libpath = "", pure = true, symbol = "__nv_rsqrtf"} : (tensor<16x1xf32>) -> tensor<16x1xf32> loc(#loc32)
    %43 = tt.broadcast %42 : tensor<16x1xf32> -> tensor<16x256xf32> loc(#loc33)
    %44 = arith.mulf %39, %43 : tensor<16x256xf32> loc(#loc33)
    %45 = tt.broadcast %34 : tensor<16x1xf32> -> tensor<16x256xf32> loc(#loc34)
    %46 = arith.mulf %44, %45 : tensor<16x256xf32> loc(#loc34)
    %47 = tt.broadcast %37 : tensor<16x1xf32> -> tensor<16x256xf32> loc(#loc35)
    %48 = arith.addf %46, %47 : tensor<16x256xf32> loc(#loc35)
    %49 = arith.cmpf ogt, %48, %cst_1 : tensor<16x256xf32> loc(#loc36)
    %50 = arith.mulf %48, %cst_0 : tensor<16x256xf32> loc(#loc37)
    %51 = arith.select %49, %48, %50 : tensor<16x256xi1>, tensor<16x256xf32> loc(#loc38)
    %52 = arith.muli %11, %cst : tensor<16x1xi32> loc(#loc39)
    %53 = tt.broadcast %5 : tensor<1x256xi32> -> tensor<16x256xi32> loc(#loc40)
    %54 = tt.broadcast %52 : tensor<16x1xi32> -> tensor<16x256xi32> loc(#loc40)
    %55 = arith.addi %53, %54 : tensor<16x256xi32> loc(#loc40)
    %56 = tt.splat %arg5 : !tt.ptr<f32> -> tensor<16x256x!tt.ptr<f32>> loc(#loc41)
    %57 = tt.addptr %56, %55 : tensor<16x256x!tt.ptr<f32>>, tensor<16x256xi32> loc(#loc41)
    tt.store %57, %51, %24 : tensor<16x256x!tt.ptr<f32>> loc(#loc42)
    tt.return loc(#loc43)
  } loc(#loc)
} loc(#loc)
#loc1 = loc(unknown)
#loc2 = loc("inductor_cache/pr/cprduu3f6mqvfz7gdkm6ygqiplkacwvy27gxmwu5x3razqnzazjz.py":22:28)
#loc3 = loc("inductor_cache/pr/cprduu3f6mqvfz7gdkm6ygqiplkacwvy27gxmwu5x3razqnzazjz.py":22:33)
#loc4 = loc("inductor_cache/pr/cprduu3f6mqvfz7gdkm6ygqiplkacwvy27gxmwu5x3razqnzazjz.py":23:36)
#loc5 = loc("inductor_cache/pr/cprduu3f6mqvfz7gdkm6ygqiplkacwvy27gxmwu5x3razqnzazjz.py":23:44)
#loc6 = loc("inductor_cache/pr/cprduu3f6mqvfz7gdkm6ygqiplkacwvy27gxmwu5x3razqnzazjz.py":23:23)
#loc7 = loc("inductor_cache/pr/cprduu3f6mqvfz7gdkm6ygqiplkacwvy27gxmwu5x3razqnzazjz.py":25:28)
#loc8 = loc("inductor_cache/pr/cprduu3f6mqvfz7gdkm6ygqiplkacwvy27gxmwu5x3razqnzazjz.py":25:33)
#loc9 = loc("inductor_cache/pr/cprduu3f6mqvfz7gdkm6ygqiplkacwvy27gxmwu5x3razqnzazjz.py":26:36)
#loc10 = loc("inductor_cache/pr/cprduu3f6mqvfz7gdkm6ygqiplkacwvy27gxmwu5x3razqnzazjz.py":26:44)
#loc11 = loc("inductor_cache/pr/cprduu3f6mqvfz7gdkm6ygqiplkacwvy27gxmwu5x3razqnzazjz.py":26:23)
#loc12 = loc("inductor_cache/pr/cprduu3f6mqvfz7gdkm6ygqiplkacwvy27gxmwu5x3razqnzazjz.py":27:21)
#loc13 = loc("inductor_cache/pr/cprduu3f6mqvfz7gdkm6ygqiplkacwvy27gxmwu5x3razqnzazjz.py":30:34)
#loc14 = loc("inductor_cache/pr/cprduu3f6mqvfz7gdkm6ygqiplkacwvy27gxmwu5x3razqnzazjz.py":30:54)
#loc15 = loc("inductor_cache/pr/cprduu3f6mqvfz7gdkm6ygqiplkacwvy27gxmwu5x3razqnzazjz.py":30:48)
#loc16 = loc("inductor_cache/pr/cprduu3f6mqvfz7gdkm6ygqiplkacwvy27gxmwu5x3razqnzazjz.py":30:39)
#loc17 = loc("inductor_cache/pr/cprduu3f6mqvfz7gdkm6ygqiplkacwvy27gxmwu5x3razqnzazjz.py":30:68)
#loc18 = loc("inductor_cache/pr/cprduu3f6mqvfz7gdkm6ygqiplkacwvy27gxmwu5x3razqnzazjz.py":30:63)
#loc19 = loc("inductor_cache/pr/cprduu3f6mqvfz7gdkm6ygqiplkacwvy27gxmwu5x3razqnzazjz.py":30:30)
#loc20 = loc("inductor_cache/pr/cprduu3f6mqvfz7gdkm6ygqiplkacwvy27gxmwu5x3razqnzazjz.py":30:76)
#loc21 = loc("inductor_cache/pr/cprduu3f6mqvfz7gdkm6ygqiplkacwvy27gxmwu5x3razqnzazjz.py":31:30)
#loc22 = loc("inductor_cache/pr/cprduu3f6mqvfz7gdkm6ygqiplkacwvy27gxmwu5x3razqnzazjz.py":31:35)
#loc23 = loc("inductor_cache/pr/cprduu3f6mqvfz7gdkm6ygqiplkacwvy27gxmwu5x3razqnzazjz.py":32:30)
#loc24 = loc("inductor_cache/pr/cprduu3f6mqvfz7gdkm6ygqiplkacwvy27gxmwu5x3razqnzazjz.py":32:35)
#loc25 = loc("inductor_cache/pr/cprduu3f6mqvfz7gdkm6ygqiplkacwvy27gxmwu5x3razqnzazjz.py":33:31)
#loc26 = loc("inductor_cache/pr/cprduu3f6mqvfz7gdkm6ygqiplkacwvy27gxmwu5x3razqnzazjz.py":33:36)
#loc27 = loc("inductor_cache/pr/cprduu3f6mqvfz7gdkm6ygqiplkacwvy27gxmwu5x3razqnzazjz.py":34:32)
#loc28 = loc("inductor_cache/pr/cprduu3f6mqvfz7gdkm6ygqiplkacwvy27gxmwu5x3razqnzazjz.py":34:44)
#loc29 = loc("inductor_cache/pr/cprduu3f6mqvfz7gdkm6ygqiplkacwvy27gxmwu5x3razqnzazjz.py":35:18)
#loc30 = loc("inductor_cache/pr/cprduu3f6mqvfz7gdkm6ygqiplkacwvy27gxmwu5x3razqnzazjz.py":37:18)
#loc31 = loc("inductor_cache/pr/cprduu3f6mqvfz7gdkm6ygqiplkacwvy27gxmwu5x3razqnzazjz.py":39:18)
#loc32 = loc("inductor_cache/pr/cprduu3f6mqvfz7gdkm6ygqiplkacwvy27gxmwu5x3razqnzazjz.py":40:27)
#loc33 = loc("inductor_cache/pr/cprduu3f6mqvfz7gdkm6ygqiplkacwvy27gxmwu5x3razqnzazjz.py":41:18)
#loc34 = loc("inductor_cache/pr/cprduu3f6mqvfz7gdkm6ygqiplkacwvy27gxmwu5x3razqnzazjz.py":42:19)
#loc35 = loc("inductor_cache/pr/cprduu3f6mqvfz7gdkm6ygqiplkacwvy27gxmwu5x3razqnzazjz.py":43:20)
#loc36 = loc("inductor_cache/pr/cprduu3f6mqvfz7gdkm6ygqiplkacwvy27gxmwu5x3razqnzazjz.py":45:20)
#loc37 = loc("inductor_cache/pr/cprduu3f6mqvfz7gdkm6ygqiplkacwvy27gxmwu5x3razqnzazjz.py":47:20)
#loc38 = loc("inductor_cache/pr/cprduu3f6mqvfz7gdkm6ygqiplkacwvy27gxmwu5x3razqnzazjz.py":48:35)
#loc39 = loc("inductor_cache/pr/cprduu3f6mqvfz7gdkm6ygqiplkacwvy27gxmwu5x3razqnzazjz.py":49:35)
#loc40 = loc("inductor_cache/pr/cprduu3f6mqvfz7gdkm6ygqiplkacwvy27gxmwu5x3razqnzazjz.py":49:30)
#loc41 = loc("inductor_cache/pr/cprduu3f6mqvfz7gdkm6ygqiplkacwvy27gxmwu5x3razqnzazjz.py":49:25)
#loc42 = loc("inductor_cache/pr/cprduu3f6mqvfz7gdkm6ygqiplkacwvy27gxmwu5x3razqnzazjz.py":49:47)
#loc43 = loc("inductor_cache/pr/cprduu3f6mqvfz7gdkm6ygqiplkacwvy27gxmwu5x3razqnzazjz.py":49:4)
