#loc = loc("inductor_cache/o3/co3f6pbpclqbgcdrxqawffk46czxeqypjj2z5yq3kbwtjqko4czp.py":19:0)
module {
  tt.func public @triton_poi_fused__native_batch_norm_legit_no_training__unsafe_index_add_convolution_relu_46(%arg0: !tt.ptr<f32> {tt.divisibility = 16 : i32} loc("inductor_cache/o3/co3f6pbpclqbgcdrxqawffk46czxeqypjj2z5yq3kbwtjqko4czp.py":19:0), %arg1: !tt.ptr<f32> {tt.divisibility = 16 : i32} loc("inductor_cache/o3/co3f6pbpclqbgcdrxqawffk46czxeqypjj2z5yq3kbwtjqko4czp.py":19:0), %arg2: !tt.ptr<f32> {tt.divisibility = 16 : i32} loc("inductor_cache/o3/co3f6pbpclqbgcdrxqawffk46czxeqypjj2z5yq3kbwtjqko4czp.py":19:0), %arg3: !tt.ptr<f32> {tt.divisibility = 16 : i32} loc("inductor_cache/o3/co3f6pbpclqbgcdrxqawffk46czxeqypjj2z5yq3kbwtjqko4czp.py":19:0), %arg4: !tt.ptr<f32> {tt.divisibility = 16 : i32} loc("inductor_cache/o3/co3f6pbpclqbgcdrxqawffk46czxeqypjj2z5yq3kbwtjqko4czp.py":19:0), %arg5: !tt.ptr<i64> {tt.divisibility = 16 : i32} loc("inductor_cache/o3/co3f6pbpclqbgcdrxqawffk46czxeqypjj2z5yq3kbwtjqko4czp.py":19:0), %arg6: !tt.ptr<f32> {tt.divisibility = 16 : i32} loc("inductor_cache/o3/co3f6pbpclqbgcdrxqawffk46czxeqypjj2z5yq3kbwtjqko4czp.py":19:0), %arg7: !tt.ptr<f32> {tt.divisibility = 16 : i32} loc("inductor_cache/o3/co3f6pbpclqbgcdrxqawffk46czxeqypjj2z5yq3kbwtjqko4czp.py":19:0), %arg8: !tt.ptr<f32> {tt.divisibility = 16 : i32} loc("inductor_cache/o3/co3f6pbpclqbgcdrxqawffk46czxeqypjj2z5yq3kbwtjqko4czp.py":19:0), %arg9: !tt.ptr<f32> {tt.divisibility = 16 : i32} loc("inductor_cache/o3/co3f6pbpclqbgcdrxqawffk46czxeqypjj2z5yq3kbwtjqko4czp.py":19:0), %arg10: !tt.ptr<f32> {tt.divisibility = 16 : i32} loc("inductor_cache/o3/co3f6pbpclqbgcdrxqawffk46czxeqypjj2z5yq3kbwtjqko4czp.py":19:0), %arg11: !tt.ptr<f32> {tt.divisibility = 16 : i32} loc("inductor_cache/o3/co3f6pbpclqbgcdrxqawffk46czxeqypjj2z5yq3kbwtjqko4czp.py":19:0), %arg12: !tt.ptr<f32> {tt.divisibility = 16 : i32} loc("inductor_cache/o3/co3f6pbpclqbgcdrxqawffk46czxeqypjj2z5yq3kbwtjqko4czp.py":19:0), %arg13: !tt.ptr<f32> {tt.divisibility = 16 : i32} loc("inductor_cache/o3/co3f6pbpclqbgcdrxqawffk46czxeqypjj2z5yq3kbwtjqko4czp.py":19:0), %arg14: !tt.ptr<f32> {tt.divisibility = 16 : i32} loc("inductor_cache/o3/co3f6pbpclqbgcdrxqawffk46czxeqypjj2z5yq3kbwtjqko4czp.py":19:0), %arg15: !tt.ptr<f32> {tt.divisibility = 16 : i32} loc("inductor_cache/o3/co3f6pbpclqbgcdrxqawffk46czxeqypjj2z5yq3kbwtjqko4czp.py":19:0), %arg16: i32 {tt.divisibility = 16 : i32} loc("inductor_cache/o3/co3f6pbpclqbgcdrxqawffk46czxeqypjj2z5yq3kbwtjqko4czp.py":19:0)) attributes {noinline = false} {
    %cst = arith.constant dense<0.000000e+00> : tensor<128xf32> loc(#loc1)
    %cst_0 = arith.constant dense<1.000000e+00> : tensor<128xf32> loc(#loc1)
    %cst_1 = arith.constant dense<0> : tensor<128xi64> loc(#loc1)
    %cst_2 = arith.constant dense<9.99999974E-6> : tensor<128xf32> loc(#loc1)
    %cst_3 = arith.constant dense<64> : tensor<128xi32> loc(#loc1)
    %cst_4 = arith.constant dense<16> : tensor<128xi64> loc(#loc1)
    %cst_5 = arith.constant dense<4> : tensor<128xi64> loc(#loc1)
    %cst_6 = arith.constant dense<256> : tensor<128xi32> loc(#loc1)
    %cst_7 = arith.constant dense<8> : tensor<128xi32> loc(#loc1)
    %cst_8 = arith.constant dense<32> : tensor<128xi32> loc(#loc1)
    %cst_9 = arith.constant dense<4> : tensor<128xi32> loc(#loc1)
    %cst_10 = arith.constant dense<1024> : tensor<128xi32> loc(#loc1)
    %c128_i32 = arith.constant 128 : i32 loc(#loc1)
    %0 = tt.get_program_id x : i32 loc(#loc2)
    %1 = arith.muli %0, %c128_i32 : i32 loc(#loc3)
    %2 = tt.make_range {end = 128 : i32, start = 0 : i32} : tensor<128xi32> loc(#loc4)
    %3 = tt.splat %1 : i32 -> tensor<128xi32> loc(#loc5)
    %4 = arith.addi %3, %2 : tensor<128xi32> loc(#loc5)
    %5 = arith.cmpi slt, %4, %cst_10 : tensor<128xi32> loc(#loc6)
    %6 = arith.remsi %4, %cst_9 : tensor<128xi32> loc(#loc7)
    %7 = arith.divsi %4, %cst_8 : tensor<128xi32> loc(#loc8)
    %8 = arith.remsi %7, %cst_7 : tensor<128xi32> loc(#loc9)
    %9 = arith.divsi %4, %cst_9 : tensor<128xi32> loc(#loc10)
    %10 = arith.remsi %9, %cst_7 : tensor<128xi32> loc(#loc11)
    %11 = arith.divsi %4, %cst_6 : tensor<128xi32> loc(#loc12)
    %12 = tt.splat %arg0 : !tt.ptr<f32> -> tensor<128x!tt.ptr<f32>> loc(#loc13)
    %13 = tt.addptr %12, %4 : tensor<128x!tt.ptr<f32>>, tensor<128xi32> loc(#loc13)
    %14 = tt.load %13, %5 : tensor<128x!tt.ptr<f32>> loc(#loc14)
    %15 = tt.splat %arg1 : !tt.ptr<f32> -> tensor<128x!tt.ptr<f32>> loc(#loc15)
    %16 = tt.addptr %15, %6 : tensor<128x!tt.ptr<f32>>, tensor<128xi32> loc(#loc15)
    %17 = tt.load %16, %5 evictionPolicy = evict_last : tensor<128x!tt.ptr<f32>> loc(#loc16)
    %18 = tt.splat %arg2 : !tt.ptr<f32> -> tensor<128x!tt.ptr<f32>> loc(#loc17)
    %19 = tt.addptr %18, %4 : tensor<128x!tt.ptr<f32>>, tensor<128xi32> loc(#loc17)
    %20 = tt.load %19, %5 : tensor<128x!tt.ptr<f32>> loc(#loc18)
    %21 = tt.splat %arg3 : !tt.ptr<f32> -> tensor<128x!tt.ptr<f32>> loc(#loc19)
    %22 = tt.addptr %21, %6 : tensor<128x!tt.ptr<f32>>, tensor<128xi32> loc(#loc19)
    %23 = tt.load %22, %5 evictionPolicy = evict_last : tensor<128x!tt.ptr<f32>> loc(#loc20)
    %24 = tt.splat %arg4 : !tt.ptr<f32> -> tensor<128x!tt.ptr<f32>> loc(#loc21)
    %25 = tt.addptr %24, %4 : tensor<128x!tt.ptr<f32>>, tensor<128xi32> loc(#loc21)
    %26 = tt.load %25, %5 : tensor<128x!tt.ptr<f32>> loc(#loc22)
    %27 = tt.splat %arg5 : !tt.ptr<i64> -> tensor<128x!tt.ptr<i64>> loc(#loc23)
    %28 = tt.addptr %27, %8 : tensor<128x!tt.ptr<i64>>, tensor<128xi32> loc(#loc23)
    %29 = tt.load %28, %5 evictionPolicy = evict_last : tensor<128x!tt.ptr<i64>> loc(#loc24)
    %30 = tt.addptr %27, %10 : tensor<128x!tt.ptr<i64>>, tensor<128xi32> loc(#loc25)
    %31 = tt.load %30, %5 evictionPolicy = evict_last : tensor<128x!tt.ptr<i64>> loc(#loc26)
    %32 = tt.splat %arg7 : !tt.ptr<f32> -> tensor<128x!tt.ptr<f32>> loc(#loc27)
    %33 = tt.addptr %32, %6 : tensor<128x!tt.ptr<f32>>, tensor<128xi32> loc(#loc27)
    %34 = tt.load %33, %5 evictionPolicy = evict_last : tensor<128x!tt.ptr<f32>> loc(#loc28)
    %35 = tt.splat %arg9 : !tt.ptr<f32> -> tensor<128x!tt.ptr<f32>> loc(#loc29)
    %36 = tt.addptr %35, %6 : tensor<128x!tt.ptr<f32>>, tensor<128xi32> loc(#loc29)
    %37 = tt.load %36, %5 evictionPolicy = evict_last : tensor<128x!tt.ptr<f32>> loc(#loc30)
    %38 = tt.splat %arg11 : !tt.ptr<f32> -> tensor<128x!tt.ptr<f32>> loc(#loc31)
    %39 = tt.addptr %38, %6 : tensor<128x!tt.ptr<f32>>, tensor<128xi32> loc(#loc31)
    %40 = tt.load %39, %5 evictionPolicy = evict_last : tensor<128x!tt.ptr<f32>> loc(#loc32)
    %41 = tt.splat %arg12 : !tt.ptr<f32> -> tensor<128x!tt.ptr<f32>> loc(#loc33)
    %42 = tt.addptr %41, %6 : tensor<128x!tt.ptr<f32>>, tensor<128xi32> loc(#loc33)
    %43 = tt.load %42, %5 evictionPolicy = evict_last : tensor<128x!tt.ptr<f32>> loc(#loc34)
    %44 = tt.splat %arg13 : !tt.ptr<f32> -> tensor<128x!tt.ptr<f32>> loc(#loc35)
    %45 = tt.addptr %44, %6 : tensor<128x!tt.ptr<f32>>, tensor<128xi32> loc(#loc35)
    %46 = tt.load %45, %5 evictionPolicy = evict_last : tensor<128x!tt.ptr<f32>> loc(#loc36)
    %47 = tt.splat %arg14 : !tt.ptr<f32> -> tensor<128x!tt.ptr<f32>> loc(#loc37)
    %48 = tt.addptr %47, %6 : tensor<128x!tt.ptr<f32>>, tensor<128xi32> loc(#loc37)
    %49 = tt.load %48, %5 evictionPolicy = evict_last : tensor<128x!tt.ptr<f32>> loc(#loc38)
    %50 = arith.addf %14, %17 : tensor<128xf32> loc(#loc39)
    %51 = arith.addf %20, %23 : tensor<128xf32> loc(#loc40)
    %52 = arith.addf %51, %26 : tensor<128xf32> loc(#loc41)
    %53 = arith.addf %50, %52 : tensor<128xf32> loc(#loc42)
    %54 = arith.addi %29, %cst_5 : tensor<128xi64> loc(#loc43)
    %55 = arith.cmpi slt, %29, %cst_1 : tensor<128xi64> loc(#loc44)
    %56 = arith.select %55, %54, %29 : tensor<128xi1>, tensor<128xi64> loc(#loc45)
    %57 = arith.addi %31, %cst_5 : tensor<128xi64> loc(#loc46)
    %58 = arith.cmpi slt, %31, %cst_1 : tensor<128xi64> loc(#loc47)
    %59 = arith.select %58, %57, %31 : tensor<128xi1>, tensor<128xi64> loc(#loc48)
    %60 = arith.muli %59, %cst_5 : tensor<128xi64> loc(#loc49)
    %61 = arith.extsi %6 : tensor<128xi32> to tensor<128xi64> loc(#loc50)
    %62 = arith.addi %61, %60 : tensor<128xi64> loc(#loc50)
    %63 = arith.muli %56, %cst_4 : tensor<128xi64> loc(#loc51)
    %64 = arith.addi %62, %63 : tensor<128xi64> loc(#loc52)
    %65 = arith.muli %11, %cst_3 : tensor<128xi32> loc(#loc53)
    %66 = arith.extsi %65 : tensor<128xi32> to tensor<128xi64> loc(#loc54)
    %67 = arith.addi %64, %66 : tensor<128xi64> loc(#loc54)
    %68 = tt.splat %arg6 : !tt.ptr<f32> -> tensor<128x!tt.ptr<f32>> loc(#loc55)
    %69 = tt.addptr %68, %67 : tensor<128x!tt.ptr<f32>>, tensor<128xi64> loc(#loc55)
    %70 = tt.load %69, %5 : tensor<128x!tt.ptr<f32>> loc(#loc56)
    %71 = arith.addf %70, %34 : tensor<128xf32> loc(#loc57)
    %72 = tt.splat %arg8 : !tt.ptr<f32> -> tensor<128x!tt.ptr<f32>> loc(#loc58)
    %73 = tt.addptr %72, %67 : tensor<128x!tt.ptr<f32>>, tensor<128xi64> loc(#loc58)
    %74 = tt.load %73, %5 : tensor<128x!tt.ptr<f32>> loc(#loc59)
    %75 = arith.addf %74, %37 : tensor<128xf32> loc(#loc60)
    %76 = tt.splat %arg10 : !tt.ptr<f32> -> tensor<128x!tt.ptr<f32>> loc(#loc61)
    %77 = tt.addptr %76, %67 : tensor<128x!tt.ptr<f32>>, tensor<128xi64> loc(#loc61)
    %78 = tt.load %77, %5 : tensor<128x!tt.ptr<f32>> loc(#loc62)
    %79 = arith.addf %75, %78 : tensor<128xf32> loc(#loc63)
    %80 = arith.addf %71, %79 : tensor<128xf32> loc(#loc64)
    %81 = arith.addf %53, %80 : tensor<128xf32> loc(#loc65)
    %82 = arith.subf %81, %40 : tensor<128xf32> loc(#loc66)
    %83 = arith.addf %43, %cst_2 : tensor<128xf32> loc(#loc67)
    %84 = tt.extern_elementwise %83 {libname = "", libpath = "", pure = true, symbol = "__nv_sqrtf"} : (tensor<128xf32>) -> tensor<128xf32> loc(#loc68)
    %85 = arith.divf %cst_0, %84 : tensor<128xf32> loc(#loc69)
    %86 = arith.mulf %82, %85 : tensor<128xf32> loc(#loc70)
    %87 = arith.mulf %86, %46 : tensor<128xf32> loc(#loc71)
    %88 = arith.addf %87, %49 : tensor<128xf32> loc(#loc72)
    %89 = arith.cmpf ogt, %cst, %88 : tensor<128xf32> loc(#loc80)
    %90 = arith.select %89, %cst, %88 : tensor<128xi1>, tensor<128xf32> loc(#loc81)
    tt.store %13, %81, %5 : tensor<128x!tt.ptr<f32>> loc(#loc76)
    %91 = tt.splat %arg15 : !tt.ptr<f32> -> tensor<128x!tt.ptr<f32>> loc(#loc77)
    %92 = tt.addptr %91, %4 : tensor<128x!tt.ptr<f32>>, tensor<128xi32> loc(#loc77)
    tt.store %92, %90, %5 : tensor<128x!tt.ptr<f32>> loc(#loc78)
    tt.return loc(#loc79)
  } loc(#loc)
} loc(#loc)
#loc1 = loc(unknown)
#loc2 = loc("inductor_cache/o3/co3f6pbpclqbgcdrxqawffk46czxeqypjj2z5yq3kbwtjqko4czp.py":21:28)
#loc3 = loc("inductor_cache/o3/co3f6pbpclqbgcdrxqawffk46czxeqypjj2z5yq3kbwtjqko4czp.py":21:33)
#loc4 = loc("inductor_cache/o3/co3f6pbpclqbgcdrxqawffk46czxeqypjj2z5yq3kbwtjqko4czp.py":22:36)
#loc5 = loc("inductor_cache/o3/co3f6pbpclqbgcdrxqawffk46czxeqypjj2z5yq3kbwtjqko4czp.py":22:23)
#loc6 = loc("inductor_cache/o3/co3f6pbpclqbgcdrxqawffk46czxeqypjj2z5yq3kbwtjqko4czp.py":23:21)
#loc7 = loc("inductor_cache/o3/co3f6pbpclqbgcdrxqawffk46czxeqypjj2z5yq3kbwtjqko4czp.py":25:19)
#loc8 = loc("inductor_cache/o3/co3f6pbpclqbgcdrxqawffk46czxeqypjj2z5yq3kbwtjqko4czp.py":26:21)
#loc9 = loc("inductor_cache/o3/co3f6pbpclqbgcdrxqawffk46czxeqypjj2z5yq3kbwtjqko4czp.py":26:27)
#loc10 = loc("inductor_cache/o3/co3f6pbpclqbgcdrxqawffk46czxeqypjj2z5yq3kbwtjqko4czp.py":27:21)
#loc11 = loc("inductor_cache/o3/co3f6pbpclqbgcdrxqawffk46czxeqypjj2z5yq3kbwtjqko4czp.py":27:26)
#loc12 = loc("inductor_cache/o3/co3f6pbpclqbgcdrxqawffk46czxeqypjj2z5yq3kbwtjqko4czp.py":28:19)
#loc13 = loc("inductor_cache/o3/co3f6pbpclqbgcdrxqawffk46czxeqypjj2z5yq3kbwtjqko4czp.py":29:34)
#loc14 = loc("inductor_cache/o3/co3f6pbpclqbgcdrxqawffk46czxeqypjj2z5yq3kbwtjqko4czp.py":29:39)
#loc15 = loc("inductor_cache/o3/co3f6pbpclqbgcdrxqawffk46czxeqypjj2z5yq3kbwtjqko4czp.py":30:30)
#loc16 = loc("inductor_cache/o3/co3f6pbpclqbgcdrxqawffk46czxeqypjj2z5yq3kbwtjqko4czp.py":30:35)
#loc17 = loc("inductor_cache/o3/co3f6pbpclqbgcdrxqawffk46czxeqypjj2z5yq3kbwtjqko4czp.py":31:30)
#loc18 = loc("inductor_cache/o3/co3f6pbpclqbgcdrxqawffk46czxeqypjj2z5yq3kbwtjqko4czp.py":31:35)
#loc19 = loc("inductor_cache/o3/co3f6pbpclqbgcdrxqawffk46czxeqypjj2z5yq3kbwtjqko4czp.py":32:30)
#loc20 = loc("inductor_cache/o3/co3f6pbpclqbgcdrxqawffk46czxeqypjj2z5yq3kbwtjqko4czp.py":32:35)
#loc21 = loc("inductor_cache/o3/co3f6pbpclqbgcdrxqawffk46czxeqypjj2z5yq3kbwtjqko4czp.py":33:30)
#loc22 = loc("inductor_cache/o3/co3f6pbpclqbgcdrxqawffk46czxeqypjj2z5yq3kbwtjqko4czp.py":33:35)
#loc23 = loc("inductor_cache/o3/co3f6pbpclqbgcdrxqawffk46czxeqypjj2z5yq3kbwtjqko4czp.py":34:30)
#loc24 = loc("inductor_cache/o3/co3f6pbpclqbgcdrxqawffk46czxeqypjj2z5yq3kbwtjqko4czp.py":34:35)
#loc25 = loc("inductor_cache/o3/co3f6pbpclqbgcdrxqawffk46czxeqypjj2z5yq3kbwtjqko4czp.py":35:31)
#loc26 = loc("inductor_cache/o3/co3f6pbpclqbgcdrxqawffk46czxeqypjj2z5yq3kbwtjqko4czp.py":35:36)
#loc27 = loc("inductor_cache/o3/co3f6pbpclqbgcdrxqawffk46czxeqypjj2z5yq3kbwtjqko4czp.py":36:31)
#loc28 = loc("inductor_cache/o3/co3f6pbpclqbgcdrxqawffk46czxeqypjj2z5yq3kbwtjqko4czp.py":36:36)
#loc29 = loc("inductor_cache/o3/co3f6pbpclqbgcdrxqawffk46czxeqypjj2z5yq3kbwtjqko4czp.py":37:31)
#loc30 = loc("inductor_cache/o3/co3f6pbpclqbgcdrxqawffk46czxeqypjj2z5yq3kbwtjqko4czp.py":37:36)
#loc31 = loc("inductor_cache/o3/co3f6pbpclqbgcdrxqawffk46czxeqypjj2z5yq3kbwtjqko4czp.py":38:32)
#loc32 = loc("inductor_cache/o3/co3f6pbpclqbgcdrxqawffk46czxeqypjj2z5yq3kbwtjqko4czp.py":38:37)
#loc33 = loc("inductor_cache/o3/co3f6pbpclqbgcdrxqawffk46czxeqypjj2z5yq3kbwtjqko4czp.py":39:32)
#loc34 = loc("inductor_cache/o3/co3f6pbpclqbgcdrxqawffk46czxeqypjj2z5yq3kbwtjqko4czp.py":39:37)
#loc35 = loc("inductor_cache/o3/co3f6pbpclqbgcdrxqawffk46czxeqypjj2z5yq3kbwtjqko4czp.py":40:32)
#loc36 = loc("inductor_cache/o3/co3f6pbpclqbgcdrxqawffk46czxeqypjj2z5yq3kbwtjqko4czp.py":40:37)
#loc37 = loc("inductor_cache/o3/co3f6pbpclqbgcdrxqawffk46czxeqypjj2z5yq3kbwtjqko4czp.py":41:32)
#loc38 = loc("inductor_cache/o3/co3f6pbpclqbgcdrxqawffk46czxeqypjj2z5yq3kbwtjqko4czp.py":41:37)
#loc39 = loc("inductor_cache/o3/co3f6pbpclqbgcdrxqawffk46czxeqypjj2z5yq3kbwtjqko4czp.py":42:18)
#loc40 = loc("inductor_cache/o3/co3f6pbpclqbgcdrxqawffk46czxeqypjj2z5yq3kbwtjqko4czp.py":43:18)
#loc41 = loc("inductor_cache/o3/co3f6pbpclqbgcdrxqawffk46czxeqypjj2z5yq3kbwtjqko4czp.py":44:18)
#loc42 = loc("inductor_cache/o3/co3f6pbpclqbgcdrxqawffk46czxeqypjj2z5yq3kbwtjqko4czp.py":45:18)
#loc43 = loc("inductor_cache/o3/co3f6pbpclqbgcdrxqawffk46czxeqypjj2z5yq3kbwtjqko4czp.py":47:19)
#loc44 = loc("inductor_cache/o3/co3f6pbpclqbgcdrxqawffk46czxeqypjj2z5yq3kbwtjqko4czp.py":48:19)
#loc45 = loc("inductor_cache/o3/co3f6pbpclqbgcdrxqawffk46czxeqypjj2z5yq3kbwtjqko4czp.py":49:35)
#loc46 = loc("inductor_cache/o3/co3f6pbpclqbgcdrxqawffk46czxeqypjj2z5yq3kbwtjqko4czp.py":50:20)
#loc47 = loc("inductor_cache/o3/co3f6pbpclqbgcdrxqawffk46czxeqypjj2z5yq3kbwtjqko4czp.py":51:20)
#loc48 = loc("inductor_cache/o3/co3f6pbpclqbgcdrxqawffk46czxeqypjj2z5yq3kbwtjqko4czp.py":52:35)
#loc49 = loc("inductor_cache/o3/co3f6pbpclqbgcdrxqawffk46czxeqypjj2z5yq3kbwtjqko4czp.py":53:38)
#loc50 = loc("inductor_cache/o3/co3f6pbpclqbgcdrxqawffk46czxeqypjj2z5yq3kbwtjqko4czp.py":53:36)
#loc51 = loc("inductor_cache/o3/co3f6pbpclqbgcdrxqawffk46czxeqypjj2z5yq3kbwtjqko4czp.py":53:49)
#loc52 = loc("inductor_cache/o3/co3f6pbpclqbgcdrxqawffk46czxeqypjj2z5yq3kbwtjqko4czp.py":53:46)
#loc53 = loc("inductor_cache/o3/co3f6pbpclqbgcdrxqawffk46czxeqypjj2z5yq3kbwtjqko4czp.py":53:60)
#loc54 = loc("inductor_cache/o3/co3f6pbpclqbgcdrxqawffk46czxeqypjj2z5yq3kbwtjqko4czp.py":53:57)
#loc55 = loc("inductor_cache/o3/co3f6pbpclqbgcdrxqawffk46czxeqypjj2z5yq3kbwtjqko4czp.py":53:31)
#loc56 = loc("inductor_cache/o3/co3f6pbpclqbgcdrxqawffk46czxeqypjj2z5yq3kbwtjqko4czp.py":53:65)
#loc57 = loc("inductor_cache/o3/co3f6pbpclqbgcdrxqawffk46czxeqypjj2z5yq3kbwtjqko4czp.py":54:20)
#loc58 = loc("inductor_cache/o3/co3f6pbpclqbgcdrxqawffk46czxeqypjj2z5yq3kbwtjqko4czp.py":55:31)
#loc59 = loc("inductor_cache/o3/co3f6pbpclqbgcdrxqawffk46czxeqypjj2z5yq3kbwtjqko4czp.py":55:65)
#loc60 = loc("inductor_cache/o3/co3f6pbpclqbgcdrxqawffk46czxeqypjj2z5yq3kbwtjqko4czp.py":56:20)
#loc61 = loc("inductor_cache/o3/co3f6pbpclqbgcdrxqawffk46czxeqypjj2z5yq3kbwtjqko4czp.py":57:31)
#loc62 = loc("inductor_cache/o3/co3f6pbpclqbgcdrxqawffk46czxeqypjj2z5yq3kbwtjqko4czp.py":57:65)
#loc63 = loc("inductor_cache/o3/co3f6pbpclqbgcdrxqawffk46czxeqypjj2z5yq3kbwtjqko4czp.py":58:20)
#loc64 = loc("inductor_cache/o3/co3f6pbpclqbgcdrxqawffk46czxeqypjj2z5yq3kbwtjqko4czp.py":59:20)
#loc65 = loc("inductor_cache/o3/co3f6pbpclqbgcdrxqawffk46czxeqypjj2z5yq3kbwtjqko4czp.py":60:19)
#loc66 = loc("inductor_cache/o3/co3f6pbpclqbgcdrxqawffk46czxeqypjj2z5yq3kbwtjqko4czp.py":61:20)
#loc67 = loc("inductor_cache/o3/co3f6pbpclqbgcdrxqawffk46czxeqypjj2z5yq3kbwtjqko4czp.py":63:20)
#loc68 = loc("inductor_cache/o3/co3f6pbpclqbgcdrxqawffk46czxeqypjj2z5yq3kbwtjqko4czp.py":64:27)
#loc69 = loc("inductor_cache/o3/co3f6pbpclqbgcdrxqawffk46czxeqypjj2z5yq3kbwtjqko4czp.py":66:20)
#loc70 = loc("inductor_cache/o3/co3f6pbpclqbgcdrxqawffk46czxeqypjj2z5yq3kbwtjqko4czp.py":69:20)
#loc71 = loc("inductor_cache/o3/co3f6pbpclqbgcdrxqawffk46czxeqypjj2z5yq3kbwtjqko4czp.py":70:20)
#loc72 = loc("inductor_cache/o3/co3f6pbpclqbgcdrxqawffk46czxeqypjj2z5yq3kbwtjqko4czp.py":71:20)
#loc73 = loc("/home/sahanp/.conda/envs/parity-bench/lib/python3.12/site-packages/torch/_inductor/runtime/triton_helpers.py":118:15)
#loc74 = loc("inductor_cache/o3/co3f6pbpclqbgcdrxqawffk46czxeqypjj2z5yq3kbwtjqko4czp.py":73:42)
#loc75 = loc("/home/sahanp/.conda/envs/parity-bench/lib/python3.12/site-packages/torch/_inductor/runtime/triton_helpers.py":121:29)
#loc76 = loc("inductor_cache/o3/co3f6pbpclqbgcdrxqawffk46czxeqypjj2z5yq3kbwtjqko4czp.py":74:40)
#loc77 = loc("inductor_cache/o3/co3f6pbpclqbgcdrxqawffk46czxeqypjj2z5yq3kbwtjqko4czp.py":75:25)
#loc78 = loc("inductor_cache/o3/co3f6pbpclqbgcdrxqawffk46czxeqypjj2z5yq3kbwtjqko4czp.py":75:37)
#loc79 = loc("inductor_cache/o3/co3f6pbpclqbgcdrxqawffk46czxeqypjj2z5yq3kbwtjqko4czp.py":75:4)
#loc80 = loc(callsite(#loc73 at #loc74))
#loc81 = loc(callsite(#loc75 at #loc74))
