#loc = loc("inductor_cache/46/c46gvs3n62feby3qmcppltkdgz25c74agpim6yrvgfpj2rmctsci.py":19:0)
module {
  tt.func public @triton_poi_fused_gelu_mul_0(%arg0: !tt.ptr<f32> {tt.divisibility = 16 : i32} loc("inductor_cache/46/c46gvs3n62feby3qmcppltkdgz25c74agpim6yrvgfpj2rmctsci.py":19:0), %arg1: !tt.ptr<f32> {tt.divisibility = 16 : i32} loc("inductor_cache/46/c46gvs3n62feby3qmcppltkdgz25c74agpim6yrvgfpj2rmctsci.py":19:0), %arg2: i32 {tt.divisibility = 16 : i32} loc("inductor_cache/46/c46gvs3n62feby3qmcppltkdgz25c74agpim6yrvgfpj2rmctsci.py":19:0)) attributes {noinline = false} {
    %cst = arith.constant dense<1.000000e+00> : tensor<128xf32> loc(#loc1)
    %cst_0 = arith.constant dense<0.707106769> : tensor<128xf32> loc(#loc1)
    %cst_1 = arith.constant dense<5.000000e-01> : tensor<128xf32> loc(#loc1)
    %cst_2 = arith.constant dense<4> : tensor<128xi32> loc(#loc1)
    %cst_3 = arith.constant dense<2> : tensor<128xi32> loc(#loc1)
    %cst_4 = arith.constant dense<128> : tensor<128xi32> loc(#loc1)
    %c128_i32 = arith.constant 128 : i32 loc(#loc1)
    %0 = tt.get_program_id x : i32 loc(#loc2)
    %1 = arith.muli %0, %c128_i32 : i32 loc(#loc3)
    %2 = tt.make_range {end = 128 : i32, start = 0 : i32} : tensor<128xi32> loc(#loc4)
    %3 = tt.splat %1 : i32 -> tensor<128xi32> loc(#loc5)
    %4 = arith.addi %3, %2 : tensor<128xi32> loc(#loc5)
    %5 = arith.cmpi slt, %4, %cst_4 : tensor<128xi32> loc(#loc6)
    %6 = arith.remsi %4, %cst_3 : tensor<128xi32> loc(#loc7)
    %7 = arith.divsi %4, %cst_3 : tensor<128xi32> loc(#loc8)
    %8 = arith.muli %7, %cst_2 : tensor<128xi32> loc(#loc9)
    %9 = arith.addi %6, %8 : tensor<128xi32> loc(#loc10)
    %10 = tt.splat %arg0 : !tt.ptr<f32> -> tensor<128x!tt.ptr<f32>> loc(#loc11)
    %11 = tt.addptr %10, %9 : tensor<128x!tt.ptr<f32>>, tensor<128xi32> loc(#loc11)
    %12 = tt.load %11, %5 : tensor<128x!tt.ptr<f32>> loc(#loc12)
    %13 = arith.addi %6, %cst_3 : tensor<128xi32> loc(#loc13)
    %14 = arith.addi %13, %8 : tensor<128xi32> loc(#loc14)
    %15 = tt.addptr %10, %14 : tensor<128x!tt.ptr<f32>>, tensor<128xi32> loc(#loc15)
    %16 = tt.load %15, %5 : tensor<128x!tt.ptr<f32>> loc(#loc16)
    %17 = arith.mulf %16, %cst_1 : tensor<128xf32> loc(#loc17)
    %18 = arith.mulf %16, %cst_0 : tensor<128xf32> loc(#loc18)
    %19 = tt.extern_elementwise %18 {libname = "", libpath = "", pure = true, symbol = "__nv_erff"} : (tensor<128xf32>) -> tensor<128xf32> loc(#loc19)
    %20 = arith.addf %19, %cst : tensor<128xf32> loc(#loc20)
    %21 = arith.mulf %17, %20 : tensor<128xf32> loc(#loc21)
    %22 = arith.mulf %12, %21 : tensor<128xf32> loc(#loc22)
    %23 = tt.splat %arg1 : !tt.ptr<f32> -> tensor<128x!tt.ptr<f32>> loc(#loc23)
    %24 = tt.addptr %23, %4 : tensor<128x!tt.ptr<f32>>, tensor<128xi32> loc(#loc23)
    tt.store %24, %22, %5 : tensor<128x!tt.ptr<f32>> loc(#loc24)
    tt.return loc(#loc25)
  } loc(#loc)
} loc(#loc)
#loc1 = loc(unknown)
#loc2 = loc("inductor_cache/46/c46gvs3n62feby3qmcppltkdgz25c74agpim6yrvgfpj2rmctsci.py":21:28)
#loc3 = loc("inductor_cache/46/c46gvs3n62feby3qmcppltkdgz25c74agpim6yrvgfpj2rmctsci.py":21:33)
#loc4 = loc("inductor_cache/46/c46gvs3n62feby3qmcppltkdgz25c74agpim6yrvgfpj2rmctsci.py":22:36)
#loc5 = loc("inductor_cache/46/c46gvs3n62feby3qmcppltkdgz25c74agpim6yrvgfpj2rmctsci.py":22:23)
#loc6 = loc("inductor_cache/46/c46gvs3n62feby3qmcppltkdgz25c74agpim6yrvgfpj2rmctsci.py":23:21)
#loc7 = loc("inductor_cache/46/c46gvs3n62feby3qmcppltkdgz25c74agpim6yrvgfpj2rmctsci.py":24:19)
#loc8 = loc("inductor_cache/46/c46gvs3n62feby3qmcppltkdgz25c74agpim6yrvgfpj2rmctsci.py":25:19)
#loc9 = loc("inductor_cache/46/c46gvs3n62feby3qmcppltkdgz25c74agpim6yrvgfpj2rmctsci.py":27:37)
#loc10 = loc("inductor_cache/46/c46gvs3n62feby3qmcppltkdgz25c74agpim6yrvgfpj2rmctsci.py":27:35)
#loc11 = loc("inductor_cache/46/c46gvs3n62feby3qmcppltkdgz25c74agpim6yrvgfpj2rmctsci.py":27:30)
#loc12 = loc("inductor_cache/46/c46gvs3n62feby3qmcppltkdgz25c74agpim6yrvgfpj2rmctsci.py":27:42)
#loc13 = loc("inductor_cache/46/c46gvs3n62feby3qmcppltkdgz25c74agpim6yrvgfpj2rmctsci.py":28:34)
#loc14 = loc("inductor_cache/46/c46gvs3n62feby3qmcppltkdgz25c74agpim6yrvgfpj2rmctsci.py":28:39)
#loc15 = loc("inductor_cache/46/c46gvs3n62feby3qmcppltkdgz25c74agpim6yrvgfpj2rmctsci.py":28:30)
#loc16 = loc("inductor_cache/46/c46gvs3n62feby3qmcppltkdgz25c74agpim6yrvgfpj2rmctsci.py":28:46)
#loc17 = loc("inductor_cache/46/c46gvs3n62feby3qmcppltkdgz25c74agpim6yrvgfpj2rmctsci.py":30:18)
#loc18 = loc("inductor_cache/46/c46gvs3n62feby3qmcppltkdgz25c74agpim6yrvgfpj2rmctsci.py":32:18)
#loc19 = loc("inductor_cache/46/c46gvs3n62feby3qmcppltkdgz25c74agpim6yrvgfpj2rmctsci.py":33:25)
#loc20 = loc("inductor_cache/46/c46gvs3n62feby3qmcppltkdgz25c74agpim6yrvgfpj2rmctsci.py":35:18)
#loc21 = loc("inductor_cache/46/c46gvs3n62feby3qmcppltkdgz25c74agpim6yrvgfpj2rmctsci.py":36:18)
#loc22 = loc("inductor_cache/46/c46gvs3n62feby3qmcppltkdgz25c74agpim6yrvgfpj2rmctsci.py":37:19)
#loc23 = loc("inductor_cache/46/c46gvs3n62feby3qmcppltkdgz25c74agpim6yrvgfpj2rmctsci.py":38:25)
#loc24 = loc("inductor_cache/46/c46gvs3n62feby3qmcppltkdgz25c74agpim6yrvgfpj2rmctsci.py":38:37)
#loc25 = loc("inductor_cache/46/c46gvs3n62feby3qmcppltkdgz25c74agpim6yrvgfpj2rmctsci.py":38:4)
