#loc = loc("inductor_cache/kw/ckwggzkdhioq5ypolz4soi3nooat5blwbmye4dfhgkn63cddpqs5.py":19:0)
#loc1 = loc(unknown)
#loc23 = loc("inductor_cache/kw/ckwggzkdhioq5ypolz4soi3nooat5blwbmye4dfhgkn63cddpqs5.py":37:24)
#loc43 = loc(callsite(#loc1 at #loc23))
module {
  tt.func public @triton_per_fused_add_mean_mul_sigmoid_1(%arg0: !tt.ptr<f32> {tt.divisibility = 16 : i32} loc("inductor_cache/kw/ckwggzkdhioq5ypolz4soi3nooat5blwbmye4dfhgkn63cddpqs5.py":19:0), %arg1: !tt.ptr<f32> {tt.divisibility = 16 : i32} loc("inductor_cache/kw/ckwggzkdhioq5ypolz4soi3nooat5blwbmye4dfhgkn63cddpqs5.py":19:0), %arg2: !tt.ptr<f32> {tt.divisibility = 16 : i32} loc("inductor_cache/kw/ckwggzkdhioq5ypolz4soi3nooat5blwbmye4dfhgkn63cddpqs5.py":19:0), %arg3: !tt.ptr<f32> {tt.divisibility = 16 : i32} loc("inductor_cache/kw/ckwggzkdhioq5ypolz4soi3nooat5blwbmye4dfhgkn63cddpqs5.py":19:0), %arg4: !tt.ptr<f32> {tt.divisibility = 16 : i32} loc("inductor_cache/kw/ckwggzkdhioq5ypolz4soi3nooat5blwbmye4dfhgkn63cddpqs5.py":19:0), %arg5: i32 {tt.divisibility = 16 : i32} loc("inductor_cache/kw/ckwggzkdhioq5ypolz4soi3nooat5blwbmye4dfhgkn63cddpqs5.py":19:0), %arg6: i32 {tt.divisibility = 16 : i32} loc("inductor_cache/kw/ckwggzkdhioq5ypolz4soi3nooat5blwbmye4dfhgkn63cddpqs5.py":19:0)) attributes {noinline = false} {
    %cst = arith.constant dense<1.000000e+00> : tensor<8x16xf32> loc(#loc1)
    %cst_0 = arith.constant dense<0.000000e+00> : tensor<8x1xf32> loc(#loc1)
    %cst_1 = arith.constant dense<1.000000e+00> : tensor<8x1xf32> loc(#loc1)
    %cst_2 = arith.constant dense<1.600000e+01> : tensor<8x1xf32> loc(#loc1)
    %cst_3 = arith.constant dense<0.000000e+00> : tensor<8x16xf32> loc(#loc1)
    %cst_4 = arith.constant dense<4> : tensor<8x1xi32> loc(#loc1)
    %cst_5 = arith.constant dense<16> : tensor<8x1xi32> loc(#loc1)
    %c8_i32 = arith.constant 8 : i32 loc(#loc1)
    %0 = tt.get_program_id x : i32 loc(#loc2)
    %1 = arith.muli %0, %c8_i32 : i32 loc(#loc3)
    %2 = tt.make_range {end = 8 : i32, start = 0 : i32} : tensor<8xi32> loc(#loc4)
    %3 = tt.expand_dims %2 {axis = 1 : i32} : tensor<8xi32> -> tensor<8x1xi32> loc(#loc5)
    %4 = tt.splat %1 : i32 -> tensor<8x1xi32> loc(#loc6)
    %5 = arith.addi %4, %3 : tensor<8x1xi32> loc(#loc6)
    %6 = arith.cmpi slt, %5, %cst_5 : tensor<8x1xi32> loc(#loc7)
    %7 = tt.make_range {end = 16 : i32, start = 0 : i32} : tensor<16xi32> loc(#loc8)
    %8 = tt.expand_dims %7 {axis = 0 : i32} : tensor<16xi32> -> tensor<1x16xi32> loc(#loc9)
    %9 = arith.divsi %5, %cst_4 : tensor<8x1xi32> loc(#loc10)
    %10 = arith.muli %5, %cst_5 : tensor<8x1xi32> loc(#loc11)
    %11 = tt.broadcast %8 : tensor<1x16xi32> -> tensor<8x16xi32> loc(#loc12)
    %12 = tt.broadcast %10 : tensor<8x1xi32> -> tensor<8x16xi32> loc(#loc12)
    %13 = arith.addi %11, %12 : tensor<8x16xi32> loc(#loc12)
    %14 = tt.splat %arg1 : !tt.ptr<f32> -> tensor<8x16x!tt.ptr<f32>> loc(#loc13)
    %15 = tt.addptr %14, %13 : tensor<8x16x!tt.ptr<f32>>, tensor<8x16xi32> loc(#loc13)
    %16 = tt.broadcast %6 : tensor<8x1xi1> -> tensor<8x16xi1> loc(#loc14)
    %17 = tt.load %15, %16, %cst_3 : tensor<8x16x!tt.ptr<f32>> loc(#loc14)
    %18 = tt.splat %arg2 : !tt.ptr<f32> -> tensor<8x1x!tt.ptr<f32>> loc(#loc15)
    %19 = tt.addptr %18, %5 : tensor<8x1x!tt.ptr<f32>>, tensor<8x1xi32> loc(#loc15)
    %20 = tt.load %19, %6 evictionPolicy = evict_last : tensor<8x1x!tt.ptr<f32>> loc(#loc16)
    %21 = arith.muli %9, %cst_5 : tensor<8x1xi32> loc(#loc17)
    %22 = tt.broadcast %21 : tensor<8x1xi32> -> tensor<8x16xi32> loc(#loc18)
    %23 = arith.addi %11, %22 : tensor<8x16xi32> loc(#loc18)
    %24 = tt.splat %arg3 : !tt.ptr<f32> -> tensor<8x16x!tt.ptr<f32>> loc(#loc19)
    %25 = tt.addptr %24, %23 : tensor<8x16x!tt.ptr<f32>>, tensor<8x16xi32> loc(#loc19)
    %26 = tt.load %25, %16, %cst_3 evictionPolicy = evict_last : tensor<8x16x!tt.ptr<f32>> loc(#loc20)
    %27 = arith.select %16, %17, %cst_3 : tensor<8x16xi1>, tensor<8x16xf32> loc(#loc21)
    %28 = "tt.reduce"(%27) <{axis = 1 : i32}> ({
    ^bb0(%arg7: f32 loc(callsite(#loc1 at #loc23)), %arg8: f32 loc(callsite(#loc1 at #loc23))):
      %47 = arith.addf %arg7, %arg8 : f32 loc(#loc53)
      tt.reduce.return %47 : f32 loc(#loc42)
    }) : (tensor<8x16xf32>) -> tensor<8xf32> loc(#loc42)
    %29 = tt.expand_dims %28 {axis = 1 : i32} : tensor<8xf32> -> tensor<8x1xf32> loc(#loc25)
    %30 = arith.subf %cst_0, %20 : tensor<8x1xf32> loc(#loc45)
    %31 = math.exp %30 : tensor<8x1xf32> loc(#loc46)
    %32 = arith.addf %31, %cst_1 : tensor<8x1xf32> loc(#loc47)
    %33 = arith.divf %cst_1, %32 : tensor<8x1xf32> loc(#loc48)
    %34 = tt.broadcast %33 : tensor<8x1xf32> -> tensor<8x16xf32> loc(#loc31)
    %35 = arith.mulf %17, %34 : tensor<8x16xf32> loc(#loc31)
    %36 = arith.subf %cst_3, %26 : tensor<8x16xf32> loc(#loc49)
    %37 = math.exp %36 : tensor<8x16xf32> loc(#loc50)
    %38 = arith.addf %37, %cst : tensor<8x16xf32> loc(#loc51)
    %39 = arith.divf %cst, %38 : tensor<8x16xf32> loc(#loc52)
    %40 = arith.mulf %17, %39 : tensor<8x16xf32> loc(#loc33)
    %41 = arith.addf %35, %40 : tensor<8x16xf32> loc(#loc34)
    %42 = arith.divf %29, %cst_2 : tensor<8x1xf32> loc(#loc35)
    %43 = tt.splat %arg4 : !tt.ptr<f32> -> tensor<8x16x!tt.ptr<f32>> loc(#loc36)
    %44 = tt.addptr %43, %13 : tensor<8x16x!tt.ptr<f32>>, tensor<8x16xi32> loc(#loc36)
    tt.store %44, %41, %16 : tensor<8x16x!tt.ptr<f32>> loc(#loc37)
    gpu.barrier loc(#loc38)
    %45 = tt.splat %arg0 : !tt.ptr<f32> -> tensor<8x1x!tt.ptr<f32>> loc(#loc39)
    %46 = tt.addptr %45, %5 : tensor<8x1x!tt.ptr<f32>>, tensor<8x1xi32> loc(#loc39)
    tt.store %46, %42, %6 : tensor<8x1x!tt.ptr<f32>> loc(#loc40)
    tt.return loc(#loc41)
  } loc(#loc)
} loc(#loc)
#loc2 = loc("inductor_cache/kw/ckwggzkdhioq5ypolz4soi3nooat5blwbmye4dfhgkn63cddpqs5.py":23:28)
#loc3 = loc("inductor_cache/kw/ckwggzkdhioq5ypolz4soi3nooat5blwbmye4dfhgkn63cddpqs5.py":23:33)
#loc4 = loc("inductor_cache/kw/ckwggzkdhioq5ypolz4soi3nooat5blwbmye4dfhgkn63cddpqs5.py":24:36)
#loc5 = loc("inductor_cache/kw/ckwggzkdhioq5ypolz4soi3nooat5blwbmye4dfhgkn63cddpqs5.py":24:44)
#loc6 = loc("inductor_cache/kw/ckwggzkdhioq5ypolz4soi3nooat5blwbmye4dfhgkn63cddpqs5.py":24:23)
#loc7 = loc("inductor_cache/kw/ckwggzkdhioq5ypolz4soi3nooat5blwbmye4dfhgkn63cddpqs5.py":25:21)
#loc8 = loc("inductor_cache/kw/ckwggzkdhioq5ypolz4soi3nooat5blwbmye4dfhgkn63cddpqs5.py":26:26)
#loc9 = loc("inductor_cache/kw/ckwggzkdhioq5ypolz4soi3nooat5blwbmye4dfhgkn63cddpqs5.py":26:34)
#loc10 = loc("inductor_cache/kw/ckwggzkdhioq5ypolz4soi3nooat5blwbmye4dfhgkn63cddpqs5.py":31:19)
#loc11 = loc("inductor_cache/kw/ckwggzkdhioq5ypolz4soi3nooat5blwbmye4dfhgkn63cddpqs5.py":32:38)
#loc12 = loc("inductor_cache/kw/ckwggzkdhioq5ypolz4soi3nooat5blwbmye4dfhgkn63cddpqs5.py":32:35)
#loc13 = loc("inductor_cache/kw/ckwggzkdhioq5ypolz4soi3nooat5blwbmye4dfhgkn63cddpqs5.py":32:30)
#loc14 = loc("inductor_cache/kw/ckwggzkdhioq5ypolz4soi3nooat5blwbmye4dfhgkn63cddpqs5.py":32:43)
#loc15 = loc("inductor_cache/kw/ckwggzkdhioq5ypolz4soi3nooat5blwbmye4dfhgkn63cddpqs5.py":33:30)
#loc16 = loc("inductor_cache/kw/ckwggzkdhioq5ypolz4soi3nooat5blwbmye4dfhgkn63cddpqs5.py":33:35)
#loc17 = loc("inductor_cache/kw/ckwggzkdhioq5ypolz4soi3nooat5blwbmye4dfhgkn63cddpqs5.py":34:38)
#loc18 = loc("inductor_cache/kw/ckwggzkdhioq5ypolz4soi3nooat5blwbmye4dfhgkn63cddpqs5.py":34:35)
#loc19 = loc("inductor_cache/kw/ckwggzkdhioq5ypolz4soi3nooat5blwbmye4dfhgkn63cddpqs5.py":34:30)
#loc20 = loc("inductor_cache/kw/ckwggzkdhioq5ypolz4soi3nooat5blwbmye4dfhgkn63cddpqs5.py":34:43)
#loc21 = loc("inductor_cache/kw/ckwggzkdhioq5ypolz4soi3nooat5blwbmye4dfhgkn63cddpqs5.py":36:33)
#loc22 = loc("/home/sahanp/.conda/envs/parity-bench/lib/python3.12/site-packages/triton/language/standard.py":267:36)
#loc24 = loc("/home/sahanp/.conda/envs/parity-bench/lib/python3.12/site-packages/triton/language/standard.py":256:15)
#loc25 = loc("inductor_cache/kw/ckwggzkdhioq5ypolz4soi3nooat5blwbmye4dfhgkn63cddpqs5.py":37:27)
#loc26 = loc("/home/sahanp/.conda/envs/parity-bench/lib/python3.12/site-packages/triton/language/standard.py":47:30)
#loc27 = loc("inductor_cache/kw/ckwggzkdhioq5ypolz4soi3nooat5blwbmye4dfhgkn63cddpqs5.py":38:22)
#loc28 = loc("/home/sahanp/.conda/envs/parity-bench/lib/python3.12/site-packages/triton/language/standard.py":47:29)
#loc29 = loc("/home/sahanp/.conda/envs/parity-bench/lib/python3.12/site-packages/triton/language/standard.py":47:20)
#loc30 = loc("/home/sahanp/.conda/envs/parity-bench/lib/python3.12/site-packages/triton/language/standard.py":47:16)
#loc31 = loc("inductor_cache/kw/ckwggzkdhioq5ypolz4soi3nooat5blwbmye4dfhgkn63cddpqs5.py":39:18)
#loc32 = loc("inductor_cache/kw/ckwggzkdhioq5ypolz4soi3nooat5blwbmye4dfhgkn63cddpqs5.py":40:22)
#loc33 = loc("inductor_cache/kw/ckwggzkdhioq5ypolz4soi3nooat5blwbmye4dfhgkn63cddpqs5.py":41:19)
#loc34 = loc("inductor_cache/kw/ckwggzkdhioq5ypolz4soi3nooat5blwbmye4dfhgkn63cddpqs5.py":42:19)
#loc35 = loc("inductor_cache/kw/ckwggzkdhioq5ypolz4soi3nooat5blwbmye4dfhgkn63cddpqs5.py":44:19)
#loc36 = loc("inductor_cache/kw/ckwggzkdhioq5ypolz4soi3nooat5blwbmye4dfhgkn63cddpqs5.py":45:25)
#loc37 = loc("inductor_cache/kw/ckwggzkdhioq5ypolz4soi3nooat5blwbmye4dfhgkn63cddpqs5.py":45:45)
#loc38 = loc("inductor_cache/kw/ckwggzkdhioq5ypolz4soi3nooat5blwbmye4dfhgkn63cddpqs5.py":46:4)
#loc39 = loc("inductor_cache/kw/ckwggzkdhioq5ypolz4soi3nooat5blwbmye4dfhgkn63cddpqs5.py":47:28)
#loc40 = loc("inductor_cache/kw/ckwggzkdhioq5ypolz4soi3nooat5blwbmye4dfhgkn63cddpqs5.py":47:40)
#loc41 = loc("inductor_cache/kw/ckwggzkdhioq5ypolz4soi3nooat5blwbmye4dfhgkn63cddpqs5.py":47:4)
#loc42 = loc(callsite(#loc22 at #loc23))
#loc44 = loc(callsite(#loc24 at #loc22))
#loc45 = loc(callsite(#loc26 at #loc27))
#loc46 = loc(callsite(#loc28 at #loc27))
#loc47 = loc(callsite(#loc29 at #loc27))
#loc48 = loc(callsite(#loc30 at #loc27))
#loc49 = loc(callsite(#loc26 at #loc32))
#loc50 = loc(callsite(#loc28 at #loc32))
#loc51 = loc(callsite(#loc29 at #loc32))
#loc52 = loc(callsite(#loc30 at #loc32))
#loc53 = loc(callsite(#loc44 at #loc23))
