#loc = loc("inductor_cache/gh/cghhujf65f6hqmpdkwffzgq5p7ps2zo6y7ogslendk7v6lklfb35.py":19:0)
module {
  tt.func public @triton_poi_fused_convolution_hardtanh_5(%arg0: !tt.ptr<f32> {tt.divisibility = 16 : i32} loc("inductor_cache/gh/cghhujf65f6hqmpdkwffzgq5p7ps2zo6y7ogslendk7v6lklfb35.py":19:0), %arg1: !tt.ptr<f32> {tt.divisibility = 16 : i32} loc("inductor_cache/gh/cghhujf65f6hqmpdkwffzgq5p7ps2zo6y7ogslendk7v6lklfb35.py":19:0), %arg2: !tt.ptr<f32> {tt.divisibility = 16 : i32} loc("inductor_cache/gh/cghhujf65f6hqmpdkwffzgq5p7ps2zo6y7ogslendk7v6lklfb35.py":19:0), %arg3: i32 {tt.divisibility = 16 : i32} loc("inductor_cache/gh/cghhujf65f6hqmpdkwffzgq5p7ps2zo6y7ogslendk7v6lklfb35.py":19:0)) attributes {noinline = false} {
    %cst = arith.constant dense<6.000000e+00> : tensor<1024xf32> loc(#loc1)
    %cst_0 = arith.constant dense<0.000000e+00> : tensor<1024xf32> loc(#loc1)
    %cst_1 = arith.constant dense<64> : tensor<1024xi32> loc(#loc1)
    %cst_2 = arith.constant dense<246016> : tensor<1024xi32> loc(#loc1)
    %c1024_i32 = arith.constant 1024 : i32 loc(#loc1)
    %0 = tt.get_program_id x : i32 loc(#loc2)
    %1 = arith.muli %0, %c1024_i32 : i32 loc(#loc3)
    %2 = tt.make_range {end = 1024 : i32, start = 0 : i32} : tensor<1024xi32> loc(#loc4)
    %3 = tt.splat %1 : i32 -> tensor<1024xi32> loc(#loc5)
    %4 = arith.addi %3, %2 : tensor<1024xi32> loc(#loc5)
    %5 = arith.cmpi slt, %4, %cst_2 : tensor<1024xi32> loc(#loc6)
    %6 = arith.remsi %4, %cst_1 : tensor<1024xi32> loc(#loc7)
    %7 = tt.splat %arg0 : !tt.ptr<f32> -> tensor<1024x!tt.ptr<f32>> loc(#loc8)
    %8 = tt.addptr %7, %4 : tensor<1024x!tt.ptr<f32>>, tensor<1024xi32> loc(#loc8)
    %9 = tt.load %8, %5 : tensor<1024x!tt.ptr<f32>> loc(#loc9)
    %10 = tt.splat %arg1 : !tt.ptr<f32> -> tensor<1024x!tt.ptr<f32>> loc(#loc10)
    %11 = tt.addptr %10, %6 : tensor<1024x!tt.ptr<f32>>, tensor<1024xi32> loc(#loc10)
    %12 = tt.load %11, %5 evictionPolicy = evict_last : tensor<1024x!tt.ptr<f32>> loc(#loc11)
    %13 = arith.addf %9, %12 : tensor<1024xf32> loc(#loc12)
    %14 = arith.cmpf ogt, %13, %cst_0 : tensor<1024xf32> loc(#loc26)
    %15 = arith.cmpf une, %13, %13 : tensor<1024xf32> loc(#loc27)
    %16 = arith.ori %14, %15 : tensor<1024xi1> loc(#loc28)
    %17 = arith.select %16, %13, %cst_0 : tensor<1024xi1>, tensor<1024xf32> loc(#loc29)
    %18 = arith.cmpf olt, %17, %cst : tensor<1024xf32> loc(#loc30)
    %19 = arith.cmpf une, %17, %17 : tensor<1024xf32> loc(#loc31)
    %20 = arith.ori %18, %19 : tensor<1024xi1> loc(#loc32)
    %21 = arith.select %20, %17, %cst : tensor<1024xi1>, tensor<1024xf32> loc(#loc33)
    %22 = tt.splat %arg2 : !tt.ptr<f32> -> tensor<1024x!tt.ptr<f32>> loc(#loc23)
    %23 = tt.addptr %22, %4 : tensor<1024x!tt.ptr<f32>>, tensor<1024xi32> loc(#loc23)
    tt.store %23, %21, %5 : tensor<1024x!tt.ptr<f32>> loc(#loc24)
    tt.return loc(#loc25)
  } loc(#loc)
} loc(#loc)
#loc1 = loc(unknown)
#loc2 = loc("inductor_cache/gh/cghhujf65f6hqmpdkwffzgq5p7ps2zo6y7ogslendk7v6lklfb35.py":21:28)
#loc3 = loc("inductor_cache/gh/cghhujf65f6hqmpdkwffzgq5p7ps2zo6y7ogslendk7v6lklfb35.py":21:33)
#loc4 = loc("inductor_cache/gh/cghhujf65f6hqmpdkwffzgq5p7ps2zo6y7ogslendk7v6lklfb35.py":22:36)
#loc5 = loc("inductor_cache/gh/cghhujf65f6hqmpdkwffzgq5p7ps2zo6y7ogslendk7v6lklfb35.py":22:23)
#loc6 = loc("inductor_cache/gh/cghhujf65f6hqmpdkwffzgq5p7ps2zo6y7ogslendk7v6lklfb35.py":23:21)
#loc7 = loc("inductor_cache/gh/cghhujf65f6hqmpdkwffzgq5p7ps2zo6y7ogslendk7v6lklfb35.py":25:19)
#loc8 = loc("inductor_cache/gh/cghhujf65f6hqmpdkwffzgq5p7ps2zo6y7ogslendk7v6lklfb35.py":26:30)
#loc9 = loc("inductor_cache/gh/cghhujf65f6hqmpdkwffzgq5p7ps2zo6y7ogslendk7v6lklfb35.py":26:35)
#loc10 = loc("inductor_cache/gh/cghhujf65f6hqmpdkwffzgq5p7ps2zo6y7ogslendk7v6lklfb35.py":27:30)
#loc11 = loc("inductor_cache/gh/cghhujf65f6hqmpdkwffzgq5p7ps2zo6y7ogslendk7v6lklfb35.py":27:35)
#loc12 = loc("inductor_cache/gh/cghhujf65f6hqmpdkwffzgq5p7ps2zo6y7ogslendk7v6lklfb35.py":28:18)
#loc13 = loc("/home/sahanp/.conda/envs/parity-bench/lib/python3.12/site-packages/torch/_inductor/runtime/triton_helpers.py":118:15)
#loc14 = loc("inductor_cache/gh/cghhujf65f6hqmpdkwffzgq5p7ps2zo6y7ogslendk7v6lklfb35.py":30:40)
#loc15 = loc("/home/sahanp/.conda/envs/parity-bench/lib/python3.12/site-packages/torch/_inductor/runtime/triton_helpers.py":120:21)
#loc16 = loc("/home/sahanp/.conda/envs/parity-bench/lib/python3.12/site-packages/torch/_inductor/runtime/triton_helpers.py":120:16)
#loc17 = loc("/home/sahanp/.conda/envs/parity-bench/lib/python3.12/site-packages/torch/_inductor/runtime/triton_helpers.py":121:29)
#loc18 = loc("/home/sahanp/.conda/envs/parity-bench/lib/python3.12/site-packages/torch/_inductor/runtime/triton_helpers.py":110:15)
#loc19 = loc("inductor_cache/gh/cghhujf65f6hqmpdkwffzgq5p7ps2zo6y7ogslendk7v6lklfb35.py":32:40)
#loc20 = loc("/home/sahanp/.conda/envs/parity-bench/lib/python3.12/site-packages/torch/_inductor/runtime/triton_helpers.py":112:21)
#loc21 = loc("/home/sahanp/.conda/envs/parity-bench/lib/python3.12/site-packages/torch/_inductor/runtime/triton_helpers.py":112:16)
#loc22 = loc("/home/sahanp/.conda/envs/parity-bench/lib/python3.12/site-packages/torch/_inductor/runtime/triton_helpers.py":113:29)
#loc23 = loc("inductor_cache/gh/cghhujf65f6hqmpdkwffzgq5p7ps2zo6y7ogslendk7v6lklfb35.py":33:25)
#loc24 = loc("inductor_cache/gh/cghhujf65f6hqmpdkwffzgq5p7ps2zo6y7ogslendk7v6lklfb35.py":33:36)
#loc25 = loc("inductor_cache/gh/cghhujf65f6hqmpdkwffzgq5p7ps2zo6y7ogslendk7v6lklfb35.py":33:4)
#loc26 = loc(callsite(#loc13 at #loc14))
#loc27 = loc(callsite(#loc15 at #loc14))
#loc28 = loc(callsite(#loc16 at #loc14))
#loc29 = loc(callsite(#loc17 at #loc14))
#loc30 = loc(callsite(#loc18 at #loc19))
#loc31 = loc(callsite(#loc20 at #loc19))
#loc32 = loc(callsite(#loc21 at #loc19))
#loc33 = loc(callsite(#loc22 at #loc19))
