#loc = loc("inductor_cache/7u/c7uljf2ouk4vwtthh4ujzeuhtwhg44ge5nxtouovvjv2mud53tvl.py":19:0)
module {
  tt.func public @triton_poi_fused_convolution_relu_6(%arg0: !tt.ptr<f32> {tt.divisibility = 16 : i32} loc("inductor_cache/7u/c7uljf2ouk4vwtthh4ujzeuhtwhg44ge5nxtouovvjv2mud53tvl.py":19:0), %arg1: !tt.ptr<f32> {tt.divisibility = 16 : i32} loc("inductor_cache/7u/c7uljf2ouk4vwtthh4ujzeuhtwhg44ge5nxtouovvjv2mud53tvl.py":19:0), %arg2: !tt.ptr<f32> {tt.divisibility = 16 : i32} loc("inductor_cache/7u/c7uljf2ouk4vwtthh4ujzeuhtwhg44ge5nxtouovvjv2mud53tvl.py":19:0), %arg3: !tt.ptr<f32> {tt.divisibility = 16 : i32} loc("inductor_cache/7u/c7uljf2ouk4vwtthh4ujzeuhtwhg44ge5nxtouovvjv2mud53tvl.py":19:0), %arg4: i32 {tt.divisibility = 16 : i32} loc("inductor_cache/7u/c7uljf2ouk4vwtthh4ujzeuhtwhg44ge5nxtouovvjv2mud53tvl.py":19:0), %arg5: i32 {tt.divisibility = 16 : i32} loc("inductor_cache/7u/c7uljf2ouk4vwtthh4ujzeuhtwhg44ge5nxtouovvjv2mud53tvl.py":19:0)) attributes {noinline = false} {
    %c768_i32 = arith.constant 768 : i32 loc(#loc1)
    %cst = arith.constant dense<0.000000e+00> : tensor<1x1024xf32> loc(#loc1)
    %cst_0 = arith.constant dense<1024> : tensor<1x1024xi32> loc(#loc1)
    %cst_1 = arith.constant dense<786432> : tensor<1x1024xi32> loc(#loc1)
    %cst_2 = arith.constant dense<768> : tensor<1x1024xi32> loc(#loc1)
    %c1024_i32 = arith.constant 1024 : i32 loc(#loc1)
    %0 = tt.get_program_id y : i32 loc(#loc2)
    %1 = arith.muli %0, %c1024_i32 : i32 loc(#loc3)
    %2 = tt.make_range {end = 1024 : i32, start = 0 : i32} : tensor<1024xi32> loc(#loc4)
    %3 = tt.expand_dims %2 {axis = 0 : i32} : tensor<1024xi32> -> tensor<1x1024xi32> loc(#loc5)
    %4 = tt.splat %1 : i32 -> tensor<1x1024xi32> loc(#loc6)
    %5 = arith.addi %4, %3 : tensor<1x1024xi32> loc(#loc6)
    %6 = tt.get_program_id x : i32 loc(#loc7)
    %7 = arith.cmpi slt, %6, %c1024_i32 : i32 loc(#loc8)
    %8 = arith.remsi %5, %cst_2 : tensor<1x1024xi32> loc(#loc9)
    %9 = arith.divsi %5, %cst_2 : tensor<1x1024xi32> loc(#loc10)
    %10 = arith.muli %6, %c768_i32 : i32 loc(#loc11)
    %11 = tt.splat %10 : i32 -> tensor<1x1024xi32> loc(#loc12)
    %12 = arith.addi %8, %11 : tensor<1x1024xi32> loc(#loc12)
    %13 = arith.muli %9, %cst_1 : tensor<1x1024xi32> loc(#loc13)
    %14 = arith.addi %12, %13 : tensor<1x1024xi32> loc(#loc14)
    %15 = tt.splat %arg0 : !tt.ptr<f32> -> tensor<1x1024x!tt.ptr<f32>> loc(#loc15)
    %16 = tt.addptr %15, %14 : tensor<1x1024x!tt.ptr<f32>>, tensor<1x1024xi32> loc(#loc15)
    %17 = tt.splat %7 : i1 -> tensor<1x1024xi1> loc(#loc16)
    %18 = tt.load %16, %17 evictionPolicy = evict_last : tensor<1x1024x!tt.ptr<f32>> loc(#loc16)
    %19 = tt.splat %arg1 : !tt.ptr<f32> -> tensor<1x1024x!tt.ptr<f32>> loc(#loc17)
    %20 = tt.addptr %19, %8 : tensor<1x1024x!tt.ptr<f32>>, tensor<1x1024xi32> loc(#loc17)
    %21 = tt.load %20 evictionPolicy = evict_last : tensor<1x1024x!tt.ptr<f32>> loc(#loc18)
    %22 = arith.addf %18, %21 : tensor<1x1024xf32> loc(#loc19)
    %23 = arith.cmpf ogt, %cst, %22 : tensor<1x1024xf32> loc(#loc30)
    %24 = arith.select %23, %cst, %22 : tensor<1x1024xi1>, tensor<1x1024xf32> loc(#loc31)
    %25 = arith.muli %5, %cst_0 : tensor<1x1024xi32> loc(#loc23)
    %26 = tt.splat %6 : i32 -> tensor<1x1024xi32> loc(#loc24)
    %27 = arith.addi %26, %25 : tensor<1x1024xi32> loc(#loc24)
    %28 = tt.splat %arg2 : !tt.ptr<f32> -> tensor<1x1024x!tt.ptr<f32>> loc(#loc25)
    %29 = tt.addptr %28, %27 : tensor<1x1024x!tt.ptr<f32>>, tensor<1x1024xi32> loc(#loc25)
    tt.store %29, %22, %17 : tensor<1x1024x!tt.ptr<f32>> loc(#loc26)
    %30 = tt.splat %arg3 : !tt.ptr<f32> -> tensor<1x1024x!tt.ptr<f32>> loc(#loc27)
    %31 = tt.addptr %30, %14 : tensor<1x1024x!tt.ptr<f32>>, tensor<1x1024xi32> loc(#loc27)
    tt.store %31, %24, %17 : tensor<1x1024x!tt.ptr<f32>> loc(#loc28)
    tt.return loc(#loc29)
  } loc(#loc)
} loc(#loc)
#loc1 = loc(unknown)
#loc2 = loc("inductor_cache/7u/c7uljf2ouk4vwtthh4ujzeuhtwhg44ge5nxtouovvjv2mud53tvl.py":22:28)
#loc3 = loc("inductor_cache/7u/c7uljf2ouk4vwtthh4ujzeuhtwhg44ge5nxtouovvjv2mud53tvl.py":22:33)
#loc4 = loc("inductor_cache/7u/c7uljf2ouk4vwtthh4ujzeuhtwhg44ge5nxtouovvjv2mud53tvl.py":23:36)
#loc5 = loc("inductor_cache/7u/c7uljf2ouk4vwtthh4ujzeuhtwhg44ge5nxtouovvjv2mud53tvl.py":23:44)
#loc6 = loc("inductor_cache/7u/c7uljf2ouk4vwtthh4ujzeuhtwhg44ge5nxtouovvjv2mud53tvl.py":23:23)
#loc7 = loc("inductor_cache/7u/c7uljf2ouk4vwtthh4ujzeuhtwhg44ge5nxtouovvjv2mud53tvl.py":25:28)
#loc8 = loc("inductor_cache/7u/c7uljf2ouk4vwtthh4ujzeuhtwhg44ge5nxtouovvjv2mud53tvl.py":27:21)
#loc9 = loc("inductor_cache/7u/c7uljf2ouk4vwtthh4ujzeuhtwhg44ge5nxtouovvjv2mud53tvl.py":29:19)
#loc10 = loc("inductor_cache/7u/c7uljf2ouk4vwtthh4ujzeuhtwhg44ge5nxtouovvjv2mud53tvl.py":30:19)
#loc11 = loc("inductor_cache/7u/c7uljf2ouk4vwtthh4ujzeuhtwhg44ge5nxtouovvjv2mud53tvl.py":32:39)
#loc12 = loc("inductor_cache/7u/c7uljf2ouk4vwtthh4ujzeuhtwhg44ge5nxtouovvjv2mud53tvl.py":32:35)
#loc13 = loc("inductor_cache/7u/c7uljf2ouk4vwtthh4ujzeuhtwhg44ge5nxtouovvjv2mud53tvl.py":32:51)
#loc14 = loc("inductor_cache/7u/c7uljf2ouk4vwtthh4ujzeuhtwhg44ge5nxtouovvjv2mud53tvl.py":32:44)
#loc15 = loc("inductor_cache/7u/c7uljf2ouk4vwtthh4ujzeuhtwhg44ge5nxtouovvjv2mud53tvl.py":32:30)
#loc16 = loc("inductor_cache/7u/c7uljf2ouk4vwtthh4ujzeuhtwhg44ge5nxtouovvjv2mud53tvl.py":32:56)
#loc17 = loc("inductor_cache/7u/c7uljf2ouk4vwtthh4ujzeuhtwhg44ge5nxtouovvjv2mud53tvl.py":33:30)
#loc18 = loc("inductor_cache/7u/c7uljf2ouk4vwtthh4ujzeuhtwhg44ge5nxtouovvjv2mud53tvl.py":33:35)
#loc19 = loc("inductor_cache/7u/c7uljf2ouk4vwtthh4ujzeuhtwhg44ge5nxtouovvjv2mud53tvl.py":34:18)
#loc20 = loc("/home/sahanp/.conda/envs/parity-bench/lib/python3.12/site-packages/torch/_inductor/runtime/triton_helpers.py":118:15)
#loc21 = loc("inductor_cache/7u/c7uljf2ouk4vwtthh4ujzeuhtwhg44ge5nxtouovvjv2mud53tvl.py":36:40)
#loc22 = loc("/home/sahanp/.conda/envs/parity-bench/lib/python3.12/site-packages/torch/_inductor/runtime/triton_helpers.py":121:29)
#loc23 = loc("inductor_cache/7u/c7uljf2ouk4vwtthh4ujzeuhtwhg44ge5nxtouovvjv2mud53tvl.py":37:35)
#loc24 = loc("inductor_cache/7u/c7uljf2ouk4vwtthh4ujzeuhtwhg44ge5nxtouovvjv2mud53tvl.py":37:30)
#loc25 = loc("inductor_cache/7u/c7uljf2ouk4vwtthh4ujzeuhtwhg44ge5nxtouovvjv2mud53tvl.py":37:25)
#loc26 = loc("inductor_cache/7u/c7uljf2ouk4vwtthh4ujzeuhtwhg44ge5nxtouovvjv2mud53tvl.py":37:46)
#loc27 = loc("inductor_cache/7u/c7uljf2ouk4vwtthh4ujzeuhtwhg44ge5nxtouovvjv2mud53tvl.py":38:25)
#loc28 = loc("inductor_cache/7u/c7uljf2ouk4vwtthh4ujzeuhtwhg44ge5nxtouovvjv2mud53tvl.py":38:57)
#loc29 = loc("inductor_cache/7u/c7uljf2ouk4vwtthh4ujzeuhtwhg44ge5nxtouovvjv2mud53tvl.py":38:4)
#loc30 = loc(callsite(#loc20 at #loc21))
#loc31 = loc(callsite(#loc22 at #loc21))
