#loc = loc("inductor_cache/6p/c6pp2uhm2yhqy4jjf3ffz7rclx7l2cr5uksddxbwnbe6xw3v3ung.py":19:0)
module {
  tt.func public @triton_poi_fused__native_batch_norm_legit_no_training_leaky_relu_33(%arg0: !tt.ptr<f32> {tt.divisibility = 16 : i32} loc("inductor_cache/6p/c6pp2uhm2yhqy4jjf3ffz7rclx7l2cr5uksddxbwnbe6xw3v3ung.py":19:0), %arg1: !tt.ptr<f32> {tt.divisibility = 16 : i32} loc("inductor_cache/6p/c6pp2uhm2yhqy4jjf3ffz7rclx7l2cr5uksddxbwnbe6xw3v3ung.py":19:0), %arg2: !tt.ptr<f32> {tt.divisibility = 16 : i32} loc("inductor_cache/6p/c6pp2uhm2yhqy4jjf3ffz7rclx7l2cr5uksddxbwnbe6xw3v3ung.py":19:0), %arg3: !tt.ptr<f32> {tt.divisibility = 16 : i32} loc("inductor_cache/6p/c6pp2uhm2yhqy4jjf3ffz7rclx7l2cr5uksddxbwnbe6xw3v3ung.py":19:0), %arg4: !tt.ptr<f32> {tt.divisibility = 16 : i32} loc("inductor_cache/6p/c6pp2uhm2yhqy4jjf3ffz7rclx7l2cr5uksddxbwnbe6xw3v3ung.py":19:0), %arg5: !tt.ptr<f32> {tt.divisibility = 16 : i32} loc("inductor_cache/6p/c6pp2uhm2yhqy4jjf3ffz7rclx7l2cr5uksddxbwnbe6xw3v3ung.py":19:0), %arg6: i32 {tt.divisibility = 16 : i32} loc("inductor_cache/6p/c6pp2uhm2yhqy4jjf3ffz7rclx7l2cr5uksddxbwnbe6xw3v3ung.py":19:0), %arg7: i32 {tt.divisibility = 16 : i32} loc("inductor_cache/6p/c6pp2uhm2yhqy4jjf3ffz7rclx7l2cr5uksddxbwnbe6xw3v3ung.py":19:0)) attributes {noinline = false} {
    %c2048_i32 = arith.constant 2048 : i32 loc(#loc1)
    %c512_i32 = arith.constant 512 : i32 loc(#loc1)
    %c4_i32 = arith.constant 4 : i32 loc(#loc1)
    %c16_i32 = arith.constant 16 : i32 loc(#loc1)
    %cst = arith.constant dense<1.000000e+00> : tensor<256x1xf32> loc(#loc1)
    %cst_0 = arith.constant dense<4> : tensor<256x1xi32> loc(#loc1)
    %cst_1 = arith.constant dense<1.000000e-01> : tensor<256x1xf32> loc(#loc1)
    %cst_2 = arith.constant dense<0.000000e+00> : tensor<256x1xf32> loc(#loc1)
    %cst_3 = arith.constant dense<9.99999974E-6> : tensor<256x1xf32> loc(#loc1)
    %cst_4 = arith.constant dense<512> : tensor<256x1xi32> loc(#loc1)
    %c256_i32 = arith.constant 256 : i32 loc(#loc1)
    %0 = tt.get_program_id y : i32 loc(#loc2)
    %1 = arith.cmpi slt, %0, %c16_i32 : i32 loc(#loc3)
    %2 = tt.get_program_id x : i32 loc(#loc4)
    %3 = arith.muli %2, %c256_i32 : i32 loc(#loc5)
    %4 = tt.make_range {end = 256 : i32, start = 0 : i32} : tensor<256xi32> loc(#loc6)
    %5 = tt.expand_dims %4 {axis = 1 : i32} : tensor<256xi32> -> tensor<256x1xi32> loc(#loc7)
    %6 = tt.splat %3 : i32 -> tensor<256x1xi32> loc(#loc8)
    %7 = arith.addi %6, %5 : tensor<256x1xi32> loc(#loc8)
    %8 = arith.cmpi slt, %7, %cst_4 : tensor<256x1xi32> loc(#loc9)
    %9 = arith.remsi %0, %c4_i32 : i32 loc(#loc10)
    %10 = arith.divsi %0, %c4_i32 : i32 loc(#loc11)
    %11 = arith.muli %0, %c512_i32 : i32 loc(#loc12)
    %12 = tt.splat %11 : i32 -> tensor<256x1xi32> loc(#loc13)
    %13 = arith.addi %7, %12 : tensor<256x1xi32> loc(#loc13)
    %14 = tt.splat %arg0 : !tt.ptr<f32> -> tensor<256x1x!tt.ptr<f32>> loc(#loc14)
    %15 = tt.addptr %14, %13 : tensor<256x1x!tt.ptr<f32>>, tensor<256x1xi32> loc(#loc14)
    %16 = tt.splat %1 : i1 -> tensor<256x1xi1> loc(#loc15)
    %17 = arith.andi %8, %16 : tensor<256x1xi1> loc(#loc15)
    %18 = tt.load %15, %17 evictionPolicy = evict_last : tensor<256x1x!tt.ptr<f32>> loc(#loc16)
    %19 = tt.splat %arg1 : !tt.ptr<f32> -> tensor<256x1x!tt.ptr<f32>> loc(#loc17)
    %20 = tt.addptr %19, %7 : tensor<256x1x!tt.ptr<f32>>, tensor<256x1xi32> loc(#loc17)
    %21 = tt.load %20, %8 evictionPolicy = evict_last : tensor<256x1x!tt.ptr<f32>> loc(#loc18)
    %22 = tt.splat %arg2 : !tt.ptr<f32> -> tensor<256x1x!tt.ptr<f32>> loc(#loc19)
    %23 = tt.addptr %22, %7 : tensor<256x1x!tt.ptr<f32>>, tensor<256x1xi32> loc(#loc19)
    %24 = tt.load %23, %8 evictionPolicy = evict_last : tensor<256x1x!tt.ptr<f32>> loc(#loc20)
    %25 = tt.splat %arg3 : !tt.ptr<f32> -> tensor<256x1x!tt.ptr<f32>> loc(#loc21)
    %26 = tt.addptr %25, %7 : tensor<256x1x!tt.ptr<f32>>, tensor<256x1xi32> loc(#loc21)
    %27 = tt.load %26, %8 evictionPolicy = evict_last : tensor<256x1x!tt.ptr<f32>> loc(#loc22)
    %28 = tt.splat %arg4 : !tt.ptr<f32> -> tensor<256x1x!tt.ptr<f32>> loc(#loc23)
    %29 = tt.addptr %28, %7 : tensor<256x1x!tt.ptr<f32>>, tensor<256x1xi32> loc(#loc23)
    %30 = tt.load %29, %8 evictionPolicy = evict_last : tensor<256x1x!tt.ptr<f32>> loc(#loc24)
    %31 = arith.subf %18, %21 : tensor<256x1xf32> loc(#loc25)
    %32 = arith.addf %24, %cst_3 : tensor<256x1xf32> loc(#loc26)
    %33 = tt.extern_elementwise %32 {libname = "", libpath = "", pure = true, symbol = "__nv_sqrtf"} : (tensor<256x1xf32>) -> tensor<256x1xf32> loc(#loc27)
    %34 = arith.divf %cst, %33 : tensor<256x1xf32> loc(#loc28)
    %35 = arith.mulf %31, %34 : tensor<256x1xf32> loc(#loc29)
    %36 = arith.mulf %35, %27 : tensor<256x1xf32> loc(#loc30)
    %37 = arith.addf %36, %30 : tensor<256x1xf32> loc(#loc31)
    %38 = arith.cmpf ogt, %37, %cst_2 : tensor<256x1xf32> loc(#loc32)
    %39 = arith.mulf %37, %cst_1 : tensor<256x1xf32> loc(#loc33)
    %40 = arith.select %38, %37, %39 : tensor<256x1xi1>, tensor<256x1xf32> loc(#loc34)
    %41 = arith.muli %7, %cst_0 : tensor<256x1xi32> loc(#loc35)
    %42 = tt.splat %9 : i32 -> tensor<256x1xi32> loc(#loc36)
    %43 = arith.addi %42, %41 : tensor<256x1xi32> loc(#loc36)
    %44 = arith.muli %10, %c2048_i32 : i32 loc(#loc37)
    %45 = tt.splat %44 : i32 -> tensor<256x1xi32> loc(#loc38)
    %46 = arith.addi %43, %45 : tensor<256x1xi32> loc(#loc38)
    %47 = tt.splat %arg5 : !tt.ptr<f32> -> tensor<256x1x!tt.ptr<f32>> loc(#loc39)
    %48 = tt.addptr %47, %46 : tensor<256x1x!tt.ptr<f32>>, tensor<256x1xi32> loc(#loc39)
    tt.store %48, %40, %17 : tensor<256x1x!tt.ptr<f32>> loc(#loc40)
    tt.return loc(#loc41)
  } loc(#loc)
} loc(#loc)
#loc1 = loc(unknown)
#loc2 = loc("inductor_cache/6p/c6pp2uhm2yhqy4jjf3ffz7rclx7l2cr5uksddxbwnbe6xw3v3ung.py":22:28)
#loc3 = loc("inductor_cache/6p/c6pp2uhm2yhqy4jjf3ffz7rclx7l2cr5uksddxbwnbe6xw3v3ung.py":24:21)
#loc4 = loc("inductor_cache/6p/c6pp2uhm2yhqy4jjf3ffz7rclx7l2cr5uksddxbwnbe6xw3v3ung.py":25:28)
#loc5 = loc("inductor_cache/6p/c6pp2uhm2yhqy4jjf3ffz7rclx7l2cr5uksddxbwnbe6xw3v3ung.py":25:33)
#loc6 = loc("inductor_cache/6p/c6pp2uhm2yhqy4jjf3ffz7rclx7l2cr5uksddxbwnbe6xw3v3ung.py":26:36)
#loc7 = loc("inductor_cache/6p/c6pp2uhm2yhqy4jjf3ffz7rclx7l2cr5uksddxbwnbe6xw3v3ung.py":26:44)
#loc8 = loc("inductor_cache/6p/c6pp2uhm2yhqy4jjf3ffz7rclx7l2cr5uksddxbwnbe6xw3v3ung.py":26:23)
#loc9 = loc("inductor_cache/6p/c6pp2uhm2yhqy4jjf3ffz7rclx7l2cr5uksddxbwnbe6xw3v3ung.py":27:21)
#loc10 = loc("inductor_cache/6p/c6pp2uhm2yhqy4jjf3ffz7rclx7l2cr5uksddxbwnbe6xw3v3ung.py":30:19)
#loc11 = loc("inductor_cache/6p/c6pp2uhm2yhqy4jjf3ffz7rclx7l2cr5uksddxbwnbe6xw3v3ung.py":31:19)
#loc12 = loc("inductor_cache/6p/c6pp2uhm2yhqy4jjf3ffz7rclx7l2cr5uksddxbwnbe6xw3v3ung.py":32:39)
#loc13 = loc("inductor_cache/6p/c6pp2uhm2yhqy4jjf3ffz7rclx7l2cr5uksddxbwnbe6xw3v3ung.py":32:35)
#loc14 = loc("inductor_cache/6p/c6pp2uhm2yhqy4jjf3ffz7rclx7l2cr5uksddxbwnbe6xw3v3ung.py":32:30)
#loc15 = loc("inductor_cache/6p/c6pp2uhm2yhqy4jjf3ffz7rclx7l2cr5uksddxbwnbe6xw3v3ung.py":32:52)
#loc16 = loc("inductor_cache/6p/c6pp2uhm2yhqy4jjf3ffz7rclx7l2cr5uksddxbwnbe6xw3v3ung.py":32:44)
#loc17 = loc("inductor_cache/6p/c6pp2uhm2yhqy4jjf3ffz7rclx7l2cr5uksddxbwnbe6xw3v3ung.py":33:30)
#loc18 = loc("inductor_cache/6p/c6pp2uhm2yhqy4jjf3ffz7rclx7l2cr5uksddxbwnbe6xw3v3ung.py":33:35)
#loc19 = loc("inductor_cache/6p/c6pp2uhm2yhqy4jjf3ffz7rclx7l2cr5uksddxbwnbe6xw3v3ung.py":34:30)
#loc20 = loc("inductor_cache/6p/c6pp2uhm2yhqy4jjf3ffz7rclx7l2cr5uksddxbwnbe6xw3v3ung.py":34:35)
#loc21 = loc("inductor_cache/6p/c6pp2uhm2yhqy4jjf3ffz7rclx7l2cr5uksddxbwnbe6xw3v3ung.py":35:31)
#loc22 = loc("inductor_cache/6p/c6pp2uhm2yhqy4jjf3ffz7rclx7l2cr5uksddxbwnbe6xw3v3ung.py":35:36)
#loc23 = loc("inductor_cache/6p/c6pp2uhm2yhqy4jjf3ffz7rclx7l2cr5uksddxbwnbe6xw3v3ung.py":36:31)
#loc24 = loc("inductor_cache/6p/c6pp2uhm2yhqy4jjf3ffz7rclx7l2cr5uksddxbwnbe6xw3v3ung.py":36:36)
#loc25 = loc("inductor_cache/6p/c6pp2uhm2yhqy4jjf3ffz7rclx7l2cr5uksddxbwnbe6xw3v3ung.py":37:18)
#loc26 = loc("inductor_cache/6p/c6pp2uhm2yhqy4jjf3ffz7rclx7l2cr5uksddxbwnbe6xw3v3ung.py":39:18)
#loc27 = loc("inductor_cache/6p/c6pp2uhm2yhqy4jjf3ffz7rclx7l2cr5uksddxbwnbe6xw3v3ung.py":40:26)
#loc28 = loc("inductor_cache/6p/c6pp2uhm2yhqy4jjf3ffz7rclx7l2cr5uksddxbwnbe6xw3v3ung.py":42:18)
#loc29 = loc("inductor_cache/6p/c6pp2uhm2yhqy4jjf3ffz7rclx7l2cr5uksddxbwnbe6xw3v3ung.py":45:19)
#loc30 = loc("inductor_cache/6p/c6pp2uhm2yhqy4jjf3ffz7rclx7l2cr5uksddxbwnbe6xw3v3ung.py":46:20)
#loc31 = loc("inductor_cache/6p/c6pp2uhm2yhqy4jjf3ffz7rclx7l2cr5uksddxbwnbe6xw3v3ung.py":47:20)
#loc32 = loc("inductor_cache/6p/c6pp2uhm2yhqy4jjf3ffz7rclx7l2cr5uksddxbwnbe6xw3v3ung.py":49:20)
#loc33 = loc("inductor_cache/6p/c6pp2uhm2yhqy4jjf3ffz7rclx7l2cr5uksddxbwnbe6xw3v3ung.py":51:20)
#loc34 = loc("inductor_cache/6p/c6pp2uhm2yhqy4jjf3ffz7rclx7l2cr5uksddxbwnbe6xw3v3ung.py":52:35)
#loc35 = loc("inductor_cache/6p/c6pp2uhm2yhqy4jjf3ffz7rclx7l2cr5uksddxbwnbe6xw3v3ung.py":53:32)
#loc36 = loc("inductor_cache/6p/c6pp2uhm2yhqy4jjf3ffz7rclx7l2cr5uksddxbwnbe6xw3v3ung.py":53:30)
#loc37 = loc("inductor_cache/6p/c6pp2uhm2yhqy4jjf3ffz7rclx7l2cr5uksddxbwnbe6xw3v3ung.py":53:42)
#loc38 = loc("inductor_cache/6p/c6pp2uhm2yhqy4jjf3ffz7rclx7l2cr5uksddxbwnbe6xw3v3ung.py":53:37)
#loc39 = loc("inductor_cache/6p/c6pp2uhm2yhqy4jjf3ffz7rclx7l2cr5uksddxbwnbe6xw3v3ung.py":53:25)
#loc40 = loc("inductor_cache/6p/c6pp2uhm2yhqy4jjf3ffz7rclx7l2cr5uksddxbwnbe6xw3v3ung.py":53:54)
#loc41 = loc("inductor_cache/6p/c6pp2uhm2yhqy4jjf3ffz7rclx7l2cr5uksddxbwnbe6xw3v3ung.py":53:4)
