#loc = loc("inductor_cache/dp/cdpqls47qm75hcm7a2d43v45w6qwjldg3mshvx3fotlmxtsrh54l.py":19:0)
module {
  tt.func public @triton_poi_fused__native_batch_norm_legit_no_training_constant_pad_nd_relu_4(%arg0: !tt.ptr<f32> {tt.divisibility = 16 : i32} loc("inductor_cache/dp/cdpqls47qm75hcm7a2d43v45w6qwjldg3mshvx3fotlmxtsrh54l.py":19:0), %arg1: !tt.ptr<f32> {tt.divisibility = 16 : i32} loc("inductor_cache/dp/cdpqls47qm75hcm7a2d43v45w6qwjldg3mshvx3fotlmxtsrh54l.py":19:0), %arg2: !tt.ptr<f32> {tt.divisibility = 16 : i32} loc("inductor_cache/dp/cdpqls47qm75hcm7a2d43v45w6qwjldg3mshvx3fotlmxtsrh54l.py":19:0), %arg3: !tt.ptr<f32> {tt.divisibility = 16 : i32} loc("inductor_cache/dp/cdpqls47qm75hcm7a2d43v45w6qwjldg3mshvx3fotlmxtsrh54l.py":19:0), %arg4: !tt.ptr<f32> {tt.divisibility = 16 : i32} loc("inductor_cache/dp/cdpqls47qm75hcm7a2d43v45w6qwjldg3mshvx3fotlmxtsrh54l.py":19:0), %arg5: !tt.ptr<f32> {tt.divisibility = 16 : i32} loc("inductor_cache/dp/cdpqls47qm75hcm7a2d43v45w6qwjldg3mshvx3fotlmxtsrh54l.py":19:0), %arg6: i32 {tt.divisibility = 16 : i32} loc("inductor_cache/dp/cdpqls47qm75hcm7a2d43v45w6qwjldg3mshvx3fotlmxtsrh54l.py":19:0)) attributes {noinline = false} {
    %cst = arith.constant dense<1.000000e+00> : tensor<128xf32> loc(#loc1)
    %cst_0 = arith.constant dense<1.000000e-03> : tensor<128xf32> loc(#loc1)
    %cst_1 = arith.constant dense<0.000000e+00> : tensor<128xf32> loc(#loc1)
    %cst_2 = arith.constant dense<16> : tensor<128xi32> loc(#loc1)
    %cst_3 = arith.constant dense<-5> : tensor<128xi32> loc(#loc1)
    %cst_4 = arith.constant dense<0> : tensor<128xi64> loc(#loc1)
    %cst_5 = arith.constant dense<-1> : tensor<128xi32> loc(#loc1)
    %cst_6 = arith.constant dense<4> : tensor<128xi32> loc(#loc1)
    %cst_7 = arith.constant dense<25> : tensor<128xi32> loc(#loc1)
    %cst_8 = arith.constant dense<5> : tensor<128xi32> loc(#loc1)
    %cst_9 = arith.constant dense<400> : tensor<128xi32> loc(#loc1)
    %c128_i32 = arith.constant 128 : i32 loc(#loc1)
    %0 = tt.get_program_id x : i32 loc(#loc2)
    %1 = arith.muli %0, %c128_i32 : i32 loc(#loc3)
    %2 = tt.make_range {end = 128 : i32, start = 0 : i32} : tensor<128xi32> loc(#loc4)
    %3 = tt.splat %1 : i32 -> tensor<128xi32> loc(#loc5)
    %4 = arith.addi %3, %2 : tensor<128xi32> loc(#loc5)
    %5 = arith.cmpi slt, %4, %cst_9 : tensor<128xi32> loc(#loc6)
    %6 = arith.divsi %4, %cst_8 : tensor<128xi32> loc(#loc7)
    %7 = arith.remsi %6, %cst_8 : tensor<128xi32> loc(#loc8)
    %8 = arith.remsi %4, %cst_8 : tensor<128xi32> loc(#loc9)
    %9 = arith.divsi %4, %cst_7 : tensor<128xi32> loc(#loc10)
    %10 = arith.remsi %9, %cst_6 : tensor<128xi32> loc(#loc11)
    %11 = arith.addi %7, %cst_5 : tensor<128xi32> loc(#loc12)
    %12 = arith.extsi %11 : tensor<128xi32> to tensor<128xi64> loc(#loc13)
    %13 = arith.cmpi sge, %12, %cst_4 : tensor<128xi64> loc(#loc13)
    %14 = arith.addi %8, %cst_5 : tensor<128xi32> loc(#loc14)
    %15 = arith.extsi %14 : tensor<128xi32> to tensor<128xi64> loc(#loc15)
    %16 = arith.cmpi sge, %15, %cst_4 : tensor<128xi64> loc(#loc15)
    %17 = arith.andi %13, %16 : tensor<128xi1> loc(#loc16)
    %18 = arith.addi %8, %cst_3 : tensor<128xi32> loc(#loc17)
    %19 = arith.muli %7, %cst_6 : tensor<128xi32> loc(#loc18)
    %20 = arith.addi %18, %19 : tensor<128xi32> loc(#loc19)
    %21 = arith.muli %9, %cst_2 : tensor<128xi32> loc(#loc20)
    %22 = arith.addi %20, %21 : tensor<128xi32> loc(#loc21)
    %23 = tt.splat %arg0 : !tt.ptr<f32> -> tensor<128x!tt.ptr<f32>> loc(#loc22)
    %24 = tt.addptr %23, %22 : tensor<128x!tt.ptr<f32>>, tensor<128xi32> loc(#loc22)
    %25 = arith.andi %17, %5 : tensor<128xi1> loc(#loc23)
    %26 = tt.load %24, %25, %cst_1 : tensor<128x!tt.ptr<f32>> loc(#loc24)
    %27 = tt.splat %arg1 : !tt.ptr<f32> -> tensor<128x!tt.ptr<f32>> loc(#loc25)
    %28 = tt.addptr %27, %10 : tensor<128x!tt.ptr<f32>>, tensor<128xi32> loc(#loc25)
    %29 = tt.load %28, %25, %cst_1 evictionPolicy = evict_last : tensor<128x!tt.ptr<f32>> loc(#loc26)
    %30 = arith.subf %26, %29 : tensor<128xf32> loc(#loc27)
    %31 = tt.splat %arg2 : !tt.ptr<f32> -> tensor<128x!tt.ptr<f32>> loc(#loc28)
    %32 = tt.addptr %31, %10 : tensor<128x!tt.ptr<f32>>, tensor<128xi32> loc(#loc28)
    %33 = tt.load %32, %25, %cst_1 evictionPolicy = evict_last : tensor<128x!tt.ptr<f32>> loc(#loc29)
    %34 = arith.addf %33, %cst_0 : tensor<128xf32> loc(#loc30)
    %35 = tt.extern_elementwise %34 {libname = "", libpath = "", pure = true, symbol = "__nv_sqrtf"} : (tensor<128xf32>) -> tensor<128xf32> loc(#loc31)
    %36 = arith.divf %cst, %35 : tensor<128xf32> loc(#loc32)
    %37 = arith.mulf %30, %36 : tensor<128xf32> loc(#loc33)
    %38 = tt.splat %arg3 : !tt.ptr<f32> -> tensor<128x!tt.ptr<f32>> loc(#loc34)
    %39 = tt.addptr %38, %10 : tensor<128x!tt.ptr<f32>>, tensor<128xi32> loc(#loc34)
    %40 = tt.load %39, %25, %cst_1 evictionPolicy = evict_last : tensor<128x!tt.ptr<f32>> loc(#loc35)
    %41 = arith.mulf %37, %40 : tensor<128xf32> loc(#loc36)
    %42 = tt.splat %arg4 : !tt.ptr<f32> -> tensor<128x!tt.ptr<f32>> loc(#loc37)
    %43 = tt.addptr %42, %10 : tensor<128x!tt.ptr<f32>>, tensor<128xi32> loc(#loc37)
    %44 = tt.load %43, %25, %cst_1 evictionPolicy = evict_last : tensor<128x!tt.ptr<f32>> loc(#loc38)
    %45 = arith.addf %41, %44 : tensor<128xf32> loc(#loc39)
    %46 = arith.cmpf ogt, %cst_1, %45 : tensor<128xf32> loc(#loc47)
    %47 = arith.select %46, %cst_1, %45 : tensor<128xi1>, tensor<128xf32> loc(#loc48)
    %48 = arith.select %17, %47, %cst_1 : tensor<128xi1>, tensor<128xf32> loc(#loc43)
    %49 = tt.splat %arg5 : !tt.ptr<f32> -> tensor<128x!tt.ptr<f32>> loc(#loc44)
    %50 = tt.addptr %49, %4 : tensor<128x!tt.ptr<f32>>, tensor<128xi32> loc(#loc44)
    tt.store %50, %48, %5 : tensor<128x!tt.ptr<f32>> loc(#loc45)
    tt.return loc(#loc46)
  } loc(#loc)
} loc(#loc)
#loc1 = loc(unknown)
#loc2 = loc("inductor_cache/dp/cdpqls47qm75hcm7a2d43v45w6qwjldg3mshvx3fotlmxtsrh54l.py":21:28)
#loc3 = loc("inductor_cache/dp/cdpqls47qm75hcm7a2d43v45w6qwjldg3mshvx3fotlmxtsrh54l.py":21:33)
#loc4 = loc("inductor_cache/dp/cdpqls47qm75hcm7a2d43v45w6qwjldg3mshvx3fotlmxtsrh54l.py":22:36)
#loc5 = loc("inductor_cache/dp/cdpqls47qm75hcm7a2d43v45w6qwjldg3mshvx3fotlmxtsrh54l.py":22:23)
#loc6 = loc("inductor_cache/dp/cdpqls47qm75hcm7a2d43v45w6qwjldg3mshvx3fotlmxtsrh54l.py":23:21)
#loc7 = loc("inductor_cache/dp/cdpqls47qm75hcm7a2d43v45w6qwjldg3mshvx3fotlmxtsrh54l.py":24:21)
#loc8 = loc("inductor_cache/dp/cdpqls47qm75hcm7a2d43v45w6qwjldg3mshvx3fotlmxtsrh54l.py":24:26)
#loc9 = loc("inductor_cache/dp/cdpqls47qm75hcm7a2d43v45w6qwjldg3mshvx3fotlmxtsrh54l.py":25:19)
#loc10 = loc("inductor_cache/dp/cdpqls47qm75hcm7a2d43v45w6qwjldg3mshvx3fotlmxtsrh54l.py":26:19)
#loc11 = loc("inductor_cache/dp/cdpqls47qm75hcm7a2d43v45w6qwjldg3mshvx3fotlmxtsrh54l.py":27:27)
#loc12 = loc("inductor_cache/dp/cdpqls47qm75hcm7a2d43v45w6qwjldg3mshvx3fotlmxtsrh54l.py":29:18)
#loc13 = loc("inductor_cache/dp/cdpqls47qm75hcm7a2d43v45w6qwjldg3mshvx3fotlmxtsrh54l.py":31:19)
#loc14 = loc("inductor_cache/dp/cdpqls47qm75hcm7a2d43v45w6qwjldg3mshvx3fotlmxtsrh54l.py":32:18)
#loc15 = loc("inductor_cache/dp/cdpqls47qm75hcm7a2d43v45w6qwjldg3mshvx3fotlmxtsrh54l.py":33:19)
#loc16 = loc("inductor_cache/dp/cdpqls47qm75hcm7a2d43v45w6qwjldg3mshvx3fotlmxtsrh54l.py":34:18)
#loc17 = loc("inductor_cache/dp/cdpqls47qm75hcm7a2d43v45w6qwjldg3mshvx3fotlmxtsrh54l.py":35:37)
#loc18 = loc("inductor_cache/dp/cdpqls47qm75hcm7a2d43v45w6qwjldg3mshvx3fotlmxtsrh54l.py":35:44)
#loc19 = loc("inductor_cache/dp/cdpqls47qm75hcm7a2d43v45w6qwjldg3mshvx3fotlmxtsrh54l.py":35:42)
#loc20 = loc("inductor_cache/dp/cdpqls47qm75hcm7a2d43v45w6qwjldg3mshvx3fotlmxtsrh54l.py":35:52)
#loc21 = loc("inductor_cache/dp/cdpqls47qm75hcm7a2d43v45w6qwjldg3mshvx3fotlmxtsrh54l.py":35:49)
#loc22 = loc("inductor_cache/dp/cdpqls47qm75hcm7a2d43v45w6qwjldg3mshvx3fotlmxtsrh54l.py":35:30)
#loc23 = loc("inductor_cache/dp/cdpqls47qm75hcm7a2d43v45w6qwjldg3mshvx3fotlmxtsrh54l.py":35:64)
#loc24 = loc("inductor_cache/dp/cdpqls47qm75hcm7a2d43v45w6qwjldg3mshvx3fotlmxtsrh54l.py":35:57)
#loc25 = loc("inductor_cache/dp/cdpqls47qm75hcm7a2d43v45w6qwjldg3mshvx3fotlmxtsrh54l.py":36:30)
#loc26 = loc("inductor_cache/dp/cdpqls47qm75hcm7a2d43v45w6qwjldg3mshvx3fotlmxtsrh54l.py":36:35)
#loc27 = loc("inductor_cache/dp/cdpqls47qm75hcm7a2d43v45w6qwjldg3mshvx3fotlmxtsrh54l.py":37:18)
#loc28 = loc("inductor_cache/dp/cdpqls47qm75hcm7a2d43v45w6qwjldg3mshvx3fotlmxtsrh54l.py":38:30)
#loc29 = loc("inductor_cache/dp/cdpqls47qm75hcm7a2d43v45w6qwjldg3mshvx3fotlmxtsrh54l.py":38:35)
#loc30 = loc("inductor_cache/dp/cdpqls47qm75hcm7a2d43v45w6qwjldg3mshvx3fotlmxtsrh54l.py":40:19)
#loc31 = loc("inductor_cache/dp/cdpqls47qm75hcm7a2d43v45w6qwjldg3mshvx3fotlmxtsrh54l.py":41:27)
#loc32 = loc("inductor_cache/dp/cdpqls47qm75hcm7a2d43v45w6qwjldg3mshvx3fotlmxtsrh54l.py":43:20)
#loc33 = loc("inductor_cache/dp/cdpqls47qm75hcm7a2d43v45w6qwjldg3mshvx3fotlmxtsrh54l.py":46:19)
#loc34 = loc("inductor_cache/dp/cdpqls47qm75hcm7a2d43v45w6qwjldg3mshvx3fotlmxtsrh54l.py":47:31)
#loc35 = loc("inductor_cache/dp/cdpqls47qm75hcm7a2d43v45w6qwjldg3mshvx3fotlmxtsrh54l.py":47:36)
#loc36 = loc("inductor_cache/dp/cdpqls47qm75hcm7a2d43v45w6qwjldg3mshvx3fotlmxtsrh54l.py":48:20)
#loc37 = loc("inductor_cache/dp/cdpqls47qm75hcm7a2d43v45w6qwjldg3mshvx3fotlmxtsrh54l.py":49:31)
#loc38 = loc("inductor_cache/dp/cdpqls47qm75hcm7a2d43v45w6qwjldg3mshvx3fotlmxtsrh54l.py":49:36)
#loc39 = loc("inductor_cache/dp/cdpqls47qm75hcm7a2d43v45w6qwjldg3mshvx3fotlmxtsrh54l.py":50:20)
#loc40 = loc("/home/sahanp/.conda/envs/parity-bench/lib/python3.12/site-packages/torch/_inductor/runtime/triton_helpers.py":118:15)
#loc41 = loc("inductor_cache/dp/cdpqls47qm75hcm7a2d43v45w6qwjldg3mshvx3fotlmxtsrh54l.py":52:42)
#loc42 = loc("/home/sahanp/.conda/envs/parity-bench/lib/python3.12/site-packages/torch/_inductor/runtime/triton_helpers.py":121:29)
#loc43 = loc("inductor_cache/dp/cdpqls47qm75hcm7a2d43v45w6qwjldg3mshvx3fotlmxtsrh54l.py":54:34)
#loc44 = loc("inductor_cache/dp/cdpqls47qm75hcm7a2d43v45w6qwjldg3mshvx3fotlmxtsrh54l.py":55:25)
#loc45 = loc("inductor_cache/dp/cdpqls47qm75hcm7a2d43v45w6qwjldg3mshvx3fotlmxtsrh54l.py":55:37)
#loc46 = loc("inductor_cache/dp/cdpqls47qm75hcm7a2d43v45w6qwjldg3mshvx3fotlmxtsrh54l.py":55:4)
#loc47 = loc(callsite(#loc40 at #loc41))
#loc48 = loc(callsite(#loc42 at #loc41))
