#loc = loc("inductor_cache/ff/cff676f4zeekypm77jcsb72yjattbydehzdgumhmitzqdkqq7sce.py":19:0)
module {
  tt.func public @triton_poi_fused__native_batch_norm_legit_no_training_cat_relu_22(%arg0: !tt.ptr<i64> {tt.divisibility = 16 : i32} loc("inductor_cache/ff/cff676f4zeekypm77jcsb72yjattbydehzdgumhmitzqdkqq7sce.py":19:0), %arg1: !tt.ptr<f32> {tt.divisibility = 16 : i32} loc("inductor_cache/ff/cff676f4zeekypm77jcsb72yjattbydehzdgumhmitzqdkqq7sce.py":19:0), %arg2: !tt.ptr<f32> {tt.divisibility = 16 : i32} loc("inductor_cache/ff/cff676f4zeekypm77jcsb72yjattbydehzdgumhmitzqdkqq7sce.py":19:0), %arg3: !tt.ptr<f32> {tt.divisibility = 16 : i32} loc("inductor_cache/ff/cff676f4zeekypm77jcsb72yjattbydehzdgumhmitzqdkqq7sce.py":19:0), %arg4: !tt.ptr<f32> {tt.divisibility = 16 : i32} loc("inductor_cache/ff/cff676f4zeekypm77jcsb72yjattbydehzdgumhmitzqdkqq7sce.py":19:0), %arg5: !tt.ptr<f32> {tt.divisibility = 16 : i32} loc("inductor_cache/ff/cff676f4zeekypm77jcsb72yjattbydehzdgumhmitzqdkqq7sce.py":19:0), %arg6: !tt.ptr<f32> {tt.divisibility = 16 : i32} loc("inductor_cache/ff/cff676f4zeekypm77jcsb72yjattbydehzdgumhmitzqdkqq7sce.py":19:0), %arg7: !tt.ptr<f32> {tt.divisibility = 16 : i32} loc("inductor_cache/ff/cff676f4zeekypm77jcsb72yjattbydehzdgumhmitzqdkqq7sce.py":19:0), %arg8: !tt.ptr<f32> {tt.divisibility = 16 : i32} loc("inductor_cache/ff/cff676f4zeekypm77jcsb72yjattbydehzdgumhmitzqdkqq7sce.py":19:0), %arg9: !tt.ptr<f32> {tt.divisibility = 16 : i32} loc("inductor_cache/ff/cff676f4zeekypm77jcsb72yjattbydehzdgumhmitzqdkqq7sce.py":19:0), %arg10: i32 {tt.divisibility = 16 : i32} loc("inductor_cache/ff/cff676f4zeekypm77jcsb72yjattbydehzdgumhmitzqdkqq7sce.py":19:0)) attributes {noinline = false} {
    %cst = arith.constant dense<1.000000e+00> : tensor<1024xf32> loc(#loc1)
    %cst_0 = arith.constant dense<0> : tensor<1024xi64> loc(#loc1)
    %cst_1 = arith.constant dense<9.99999974E-6> : tensor<1024xf32> loc(#loc1)
    %cst_2 = arith.constant dense<-256> : tensor<1024xi32> loc(#loc1)
    %cst_3 = arith.constant dense<16384> : tensor<1024xi32> loc(#loc1)
    %cst_4 = arith.constant dense<64> : tensor<1024xi32> loc(#loc1)
    %cst_5 = arith.constant dense<8> : tensor<1024xi64> loc(#loc1)
    %cst_6 = arith.constant dense<0.000000e+00> : tensor<1024xf32> loc(#loc1)
    %cst_7 = arith.constant dense<256> : tensor<1024xi64> loc(#loc1)
    %cst_8 = arith.constant dense<81920> : tensor<1024xi32> loc(#loc1)
    %cst_9 = arith.constant dense<16> : tensor<1024xi32> loc(#loc1)
    %cst_10 = arith.constant dense<320> : tensor<1024xi32> loc(#loc1)
    %cst_11 = arith.constant dense<256> : tensor<1024xi32> loc(#loc1)
    %c1024_i32 = arith.constant 1024 : i32 loc(#loc1)
    %0 = tt.get_program_id x : i32 loc(#loc2)
    %1 = arith.muli %0, %c1024_i32 : i32 loc(#loc3)
    %2 = tt.make_range {end = 1024 : i32, start = 0 : i32} : tensor<1024xi32> loc(#loc4)
    %3 = tt.splat %1 : i32 -> tensor<1024xi32> loc(#loc5)
    %4 = arith.addi %3, %2 : tensor<1024xi32> loc(#loc5)
    %5 = arith.divsi %4, %cst_11 : tensor<1024xi32> loc(#loc6)
    %6 = arith.remsi %5, %cst_10 : tensor<1024xi32> loc(#loc7)
    %7 = arith.divsi %4, %cst_9 : tensor<1024xi32> loc(#loc8)
    %8 = arith.remsi %7, %cst_9 : tensor<1024xi32> loc(#loc9)
    %9 = arith.remsi %4, %cst_9 : tensor<1024xi32> loc(#loc10)
    %10 = arith.divsi %4, %cst_8 : tensor<1024xi32> loc(#loc11)
    %11 = arith.remsi %4, %cst_11 : tensor<1024xi32> loc(#loc12)
    %12 = tt.splat %arg4 : !tt.ptr<f32> -> tensor<1024x!tt.ptr<f32>> loc(#loc13)
    %13 = tt.addptr %12, %6 : tensor<1024x!tt.ptr<f32>>, tensor<1024xi32> loc(#loc13)
    %14 = tt.load %13 evictionPolicy = evict_last : tensor<1024x!tt.ptr<f32>> loc(#loc14)
    %15 = tt.splat %arg5 : !tt.ptr<f32> -> tensor<1024x!tt.ptr<f32>> loc(#loc15)
    %16 = tt.addptr %15, %6 : tensor<1024x!tt.ptr<f32>>, tensor<1024xi32> loc(#loc15)
    %17 = tt.load %16 evictionPolicy = evict_last : tensor<1024x!tt.ptr<f32>> loc(#loc16)
    %18 = tt.splat %arg6 : !tt.ptr<f32> -> tensor<1024x!tt.ptr<f32>> loc(#loc17)
    %19 = tt.addptr %18, %6 : tensor<1024x!tt.ptr<f32>>, tensor<1024xi32> loc(#loc17)
    %20 = tt.load %19 evictionPolicy = evict_last : tensor<1024x!tt.ptr<f32>> loc(#loc18)
    %21 = tt.splat %arg7 : !tt.ptr<f32> -> tensor<1024x!tt.ptr<f32>> loc(#loc19)
    %22 = tt.addptr %21, %6 : tensor<1024x!tt.ptr<f32>>, tensor<1024xi32> loc(#loc19)
    %23 = tt.load %22 evictionPolicy = evict_last : tensor<1024x!tt.ptr<f32>> loc(#loc20)
    %24 = arith.extsi %6 : tensor<1024xi32> to tensor<1024xi64> loc(#loc21)
    %25 = arith.cmpi slt, %24, %cst_7 : tensor<1024xi64> loc(#loc21)
    %26 = tt.splat %arg0 : !tt.ptr<i64> -> tensor<1024x!tt.ptr<i64>> loc(#loc22)
    %27 = tt.addptr %26, %8 : tensor<1024x!tt.ptr<i64>>, tensor<1024xi32> loc(#loc22)
    %28 = tt.load %27, %25, %cst_0 evictionPolicy = evict_last : tensor<1024x!tt.ptr<i64>> loc(#loc23)
    %29 = arith.addi %28, %cst_5 : tensor<1024xi64> loc(#loc24)
    %30 = arith.cmpi slt, %28, %cst_0 : tensor<1024xi64> loc(#loc25)
    %31 = arith.select %30, %29, %28 : tensor<1024xi1>, tensor<1024xi64> loc(#loc26)
    %32 = tt.addptr %26, %9 : tensor<1024x!tt.ptr<i64>>, tensor<1024xi32> loc(#loc27)
    %33 = tt.load %32, %25, %cst_0 evictionPolicy = evict_last : tensor<1024x!tt.ptr<i64>> loc(#loc28)
    %34 = arith.addi %33, %cst_5 : tensor<1024xi64> loc(#loc29)
    %35 = arith.cmpi slt, %33, %cst_0 : tensor<1024xi64> loc(#loc30)
    %36 = arith.select %35, %34, %33 : tensor<1024xi1>, tensor<1024xi64> loc(#loc31)
    %37 = arith.muli %31, %cst_5 : tensor<1024xi64> loc(#loc32)
    %38 = arith.addi %36, %37 : tensor<1024xi64> loc(#loc33)
    %39 = arith.muli %6, %cst_4 : tensor<1024xi32> loc(#loc34)
    %40 = arith.extsi %39 : tensor<1024xi32> to tensor<1024xi64> loc(#loc35)
    %41 = arith.addi %38, %40 : tensor<1024xi64> loc(#loc35)
    %42 = arith.muli %10, %cst_3 : tensor<1024xi32> loc(#loc36)
    %43 = arith.extsi %42 : tensor<1024xi32> to tensor<1024xi64> loc(#loc37)
    %44 = arith.addi %41, %43 : tensor<1024xi64> loc(#loc37)
    %45 = tt.splat %arg1 : !tt.ptr<f32> -> tensor<1024x!tt.ptr<f32>> loc(#loc38)
    %46 = tt.addptr %45, %44 : tensor<1024x!tt.ptr<f32>>, tensor<1024xi64> loc(#loc38)
    %47 = tt.load %46, %25, %cst_6 evictionPolicy = evict_last : tensor<1024x!tt.ptr<f32>> loc(#loc39)
    %48 = tt.splat %arg2 : !tt.ptr<f32> -> tensor<1024x!tt.ptr<f32>> loc(#loc40)
    %49 = tt.addptr %48, %44 : tensor<1024x!tt.ptr<f32>>, tensor<1024xi64> loc(#loc40)
    %50 = tt.load %49, %25, %cst_6 evictionPolicy = evict_last : tensor<1024x!tt.ptr<f32>> loc(#loc41)
    %51 = arith.mulf %47, %50 : tensor<1024xf32> loc(#loc42)
    %52 = arith.cmpi sge, %24, %cst_7 : tensor<1024xi64> loc(#loc43)
    %53 = arith.addi %6, %cst_2 : tensor<1024xi32> loc(#loc44)
    %54 = arith.muli %53, %cst_11 : tensor<1024xi32> loc(#loc45)
    %55 = arith.addi %11, %54 : tensor<1024xi32> loc(#loc46)
    %56 = arith.addi %55, %42 : tensor<1024xi32> loc(#loc47)
    %57 = tt.splat %arg3 : !tt.ptr<f32> -> tensor<1024x!tt.ptr<f32>> loc(#loc48)
    %58 = tt.addptr %57, %56 : tensor<1024x!tt.ptr<f32>>, tensor<1024xi32> loc(#loc48)
    %59 = tt.load %58, %52, %cst_6 : tensor<1024x!tt.ptr<f32>> loc(#loc49)
    %60 = arith.select %25, %51, %59 : tensor<1024xi1>, tensor<1024xf32> loc(#loc67)
    %61 = arith.subf %60, %14 : tensor<1024xf32> loc(#loc52)
    %62 = arith.addf %17, %cst_1 : tensor<1024xf32> loc(#loc53)
    %63 = tt.extern_elementwise %62 {libname = "", libpath = "", pure = true, symbol = "__nv_sqrtf"} : (tensor<1024xf32>) -> tensor<1024xf32> loc(#loc54)
    %64 = arith.divf %cst, %63 : tensor<1024xf32> loc(#loc55)
    %65 = arith.mulf %61, %64 : tensor<1024xf32> loc(#loc56)
    %66 = arith.mulf %65, %20 : tensor<1024xf32> loc(#loc57)
    %67 = arith.addf %66, %23 : tensor<1024xf32> loc(#loc58)
    %68 = arith.cmpf ogt, %cst_6, %67 : tensor<1024xf32> loc(#loc68)
    %69 = arith.select %68, %cst_6, %67 : tensor<1024xi1>, tensor<1024xf32> loc(#loc69)
    %70 = tt.splat %arg8 : !tt.ptr<f32> -> tensor<1024x!tt.ptr<f32>> loc(#loc62)
    %71 = tt.addptr %70, %4 : tensor<1024x!tt.ptr<f32>>, tensor<1024xi32> loc(#loc62)
    tt.store %71, %60 : tensor<1024x!tt.ptr<f32>> loc(#loc63)
    %72 = tt.splat %arg9 : !tt.ptr<f32> -> tensor<1024x!tt.ptr<f32>> loc(#loc64)
    %73 = tt.addptr %72, %4 : tensor<1024x!tt.ptr<f32>>, tensor<1024xi32> loc(#loc64)
    tt.store %73, %69 : tensor<1024x!tt.ptr<f32>> loc(#loc65)
    tt.return loc(#loc66)
  } loc(#loc)
} loc(#loc)
#loc1 = loc(unknown)
#loc2 = loc("inductor_cache/ff/cff676f4zeekypm77jcsb72yjattbydehzdgumhmitzqdkqq7sce.py":21:28)
#loc3 = loc("inductor_cache/ff/cff676f4zeekypm77jcsb72yjattbydehzdgumhmitzqdkqq7sce.py":21:33)
#loc4 = loc("inductor_cache/ff/cff676f4zeekypm77jcsb72yjattbydehzdgumhmitzqdkqq7sce.py":22:36)
#loc5 = loc("inductor_cache/ff/cff676f4zeekypm77jcsb72yjattbydehzdgumhmitzqdkqq7sce.py":22:23)
#loc6 = loc("inductor_cache/ff/cff676f4zeekypm77jcsb72yjattbydehzdgumhmitzqdkqq7sce.py":24:21)
#loc7 = loc("inductor_cache/ff/cff676f4zeekypm77jcsb72yjattbydehzdgumhmitzqdkqq7sce.py":24:28)
#loc8 = loc("inductor_cache/ff/cff676f4zeekypm77jcsb72yjattbydehzdgumhmitzqdkqq7sce.py":25:21)
#loc9 = loc("inductor_cache/ff/cff676f4zeekypm77jcsb72yjattbydehzdgumhmitzqdkqq7sce.py":25:27)
#loc10 = loc("inductor_cache/ff/cff676f4zeekypm77jcsb72yjattbydehzdgumhmitzqdkqq7sce.py":26:19)
#loc11 = loc("inductor_cache/ff/cff676f4zeekypm77jcsb72yjattbydehzdgumhmitzqdkqq7sce.py":27:19)
#loc12 = loc("inductor_cache/ff/cff676f4zeekypm77jcsb72yjattbydehzdgumhmitzqdkqq7sce.py":28:19)
#loc13 = loc("inductor_cache/ff/cff676f4zeekypm77jcsb72yjattbydehzdgumhmitzqdkqq7sce.py":30:31)
#loc14 = loc("inductor_cache/ff/cff676f4zeekypm77jcsb72yjattbydehzdgumhmitzqdkqq7sce.py":30:36)
#loc15 = loc("inductor_cache/ff/cff676f4zeekypm77jcsb72yjattbydehzdgumhmitzqdkqq7sce.py":31:31)
#loc16 = loc("inductor_cache/ff/cff676f4zeekypm77jcsb72yjattbydehzdgumhmitzqdkqq7sce.py":31:36)
#loc17 = loc("inductor_cache/ff/cff676f4zeekypm77jcsb72yjattbydehzdgumhmitzqdkqq7sce.py":32:31)
#loc18 = loc("inductor_cache/ff/cff676f4zeekypm77jcsb72yjattbydehzdgumhmitzqdkqq7sce.py":32:36)
#loc19 = loc("inductor_cache/ff/cff676f4zeekypm77jcsb72yjattbydehzdgumhmitzqdkqq7sce.py":33:31)
#loc20 = loc("inductor_cache/ff/cff676f4zeekypm77jcsb72yjattbydehzdgumhmitzqdkqq7sce.py":33:36)
#loc21 = loc("inductor_cache/ff/cff676f4zeekypm77jcsb72yjattbydehzdgumhmitzqdkqq7sce.py":38:18)
#loc22 = loc("inductor_cache/ff/cff676f4zeekypm77jcsb72yjattbydehzdgumhmitzqdkqq7sce.py":39:30)
#loc23 = loc("inductor_cache/ff/cff676f4zeekypm77jcsb72yjattbydehzdgumhmitzqdkqq7sce.py":39:35)
#loc24 = loc("inductor_cache/ff/cff676f4zeekypm77jcsb72yjattbydehzdgumhmitzqdkqq7sce.py":41:18)
#loc25 = loc("inductor_cache/ff/cff676f4zeekypm77jcsb72yjattbydehzdgumhmitzqdkqq7sce.py":42:18)
#loc26 = loc("inductor_cache/ff/cff676f4zeekypm77jcsb72yjattbydehzdgumhmitzqdkqq7sce.py":43:32)
#loc27 = loc("inductor_cache/ff/cff676f4zeekypm77jcsb72yjattbydehzdgumhmitzqdkqq7sce.py":44:31)
#loc28 = loc("inductor_cache/ff/cff676f4zeekypm77jcsb72yjattbydehzdgumhmitzqdkqq7sce.py":44:36)
#loc29 = loc("inductor_cache/ff/cff676f4zeekypm77jcsb72yjattbydehzdgumhmitzqdkqq7sce.py":45:20)
#loc30 = loc("inductor_cache/ff/cff676f4zeekypm77jcsb72yjattbydehzdgumhmitzqdkqq7sce.py":46:20)
#loc31 = loc("inductor_cache/ff/cff676f4zeekypm77jcsb72yjattbydehzdgumhmitzqdkqq7sce.py":47:35)
#loc32 = loc("inductor_cache/ff/cff676f4zeekypm77jcsb72yjattbydehzdgumhmitzqdkqq7sce.py":48:41)
#loc33 = loc("inductor_cache/ff/cff676f4zeekypm77jcsb72yjattbydehzdgumhmitzqdkqq7sce.py":48:39)
#loc34 = loc("inductor_cache/ff/cff676f4zeekypm77jcsb72yjattbydehzdgumhmitzqdkqq7sce.py":48:52)
#loc35 = loc("inductor_cache/ff/cff676f4zeekypm77jcsb72yjattbydehzdgumhmitzqdkqq7sce.py":48:48)
#loc36 = loc("inductor_cache/ff/cff676f4zeekypm77jcsb72yjattbydehzdgumhmitzqdkqq7sce.py":48:64)
#loc37 = loc("inductor_cache/ff/cff676f4zeekypm77jcsb72yjattbydehzdgumhmitzqdkqq7sce.py":48:58)
#loc38 = loc("inductor_cache/ff/cff676f4zeekypm77jcsb72yjattbydehzdgumhmitzqdkqq7sce.py":48:31)
#loc39 = loc("inductor_cache/ff/cff676f4zeekypm77jcsb72yjattbydehzdgumhmitzqdkqq7sce.py":48:69)
#loc40 = loc("inductor_cache/ff/cff676f4zeekypm77jcsb72yjattbydehzdgumhmitzqdkqq7sce.py":49:31)
#loc41 = loc("inductor_cache/ff/cff676f4zeekypm77jcsb72yjattbydehzdgumhmitzqdkqq7sce.py":49:69)
#loc42 = loc("inductor_cache/ff/cff676f4zeekypm77jcsb72yjattbydehzdgumhmitzqdkqq7sce.py":50:20)
#loc43 = loc("inductor_cache/ff/cff676f4zeekypm77jcsb72yjattbydehzdgumhmitzqdkqq7sce.py":53:20)
#loc44 = loc("inductor_cache/ff/cff676f4zeekypm77jcsb72yjattbydehzdgumhmitzqdkqq7sce.py":56:50)
#loc45 = loc("inductor_cache/ff/cff676f4zeekypm77jcsb72yjattbydehzdgumhmitzqdkqq7sce.py":56:41)
#loc46 = loc("inductor_cache/ff/cff676f4zeekypm77jcsb72yjattbydehzdgumhmitzqdkqq7sce.py":56:36)
#loc47 = loc("inductor_cache/ff/cff676f4zeekypm77jcsb72yjattbydehzdgumhmitzqdkqq7sce.py":56:56)
#loc48 = loc("inductor_cache/ff/cff676f4zeekypm77jcsb72yjattbydehzdgumhmitzqdkqq7sce.py":56:31)
#loc49 = loc("inductor_cache/ff/cff676f4zeekypm77jcsb72yjattbydehzdgumhmitzqdkqq7sce.py":56:67)
#loc50 = loc("inductor_cache/ff/cff676f4zeekypm77jcsb72yjattbydehzdgumhmitzqdkqq7sce.py":57:34)
#loc51 = loc("inductor_cache/ff/cff676f4zeekypm77jcsb72yjattbydehzdgumhmitzqdkqq7sce.py":52:34)
#loc52 = loc("inductor_cache/ff/cff676f4zeekypm77jcsb72yjattbydehzdgumhmitzqdkqq7sce.py":58:20)
#loc53 = loc("inductor_cache/ff/cff676f4zeekypm77jcsb72yjattbydehzdgumhmitzqdkqq7sce.py":60:20)
#loc54 = loc("inductor_cache/ff/cff676f4zeekypm77jcsb72yjattbydehzdgumhmitzqdkqq7sce.py":61:27)
#loc55 = loc("inductor_cache/ff/cff676f4zeekypm77jcsb72yjattbydehzdgumhmitzqdkqq7sce.py":63:20)
#loc56 = loc("inductor_cache/ff/cff676f4zeekypm77jcsb72yjattbydehzdgumhmitzqdkqq7sce.py":66:20)
#loc57 = loc("inductor_cache/ff/cff676f4zeekypm77jcsb72yjattbydehzdgumhmitzqdkqq7sce.py":67:20)
#loc58 = loc("inductor_cache/ff/cff676f4zeekypm77jcsb72yjattbydehzdgumhmitzqdkqq7sce.py":68:20)
#loc59 = loc("/home/sahanp/.conda/envs/parity-bench/lib/python3.12/site-packages/torch/_inductor/runtime/triton_helpers.py":118:15)
#loc60 = loc("inductor_cache/ff/cff676f4zeekypm77jcsb72yjattbydehzdgumhmitzqdkqq7sce.py":70:42)
#loc61 = loc("/home/sahanp/.conda/envs/parity-bench/lib/python3.12/site-packages/torch/_inductor/runtime/triton_helpers.py":121:29)
#loc62 = loc("inductor_cache/ff/cff676f4zeekypm77jcsb72yjattbydehzdgumhmitzqdkqq7sce.py":71:25)
#loc63 = loc("inductor_cache/ff/cff676f4zeekypm77jcsb72yjattbydehzdgumhmitzqdkqq7sce.py":71:37)
#loc64 = loc("inductor_cache/ff/cff676f4zeekypm77jcsb72yjattbydehzdgumhmitzqdkqq7sce.py":72:25)
#loc65 = loc("inductor_cache/ff/cff676f4zeekypm77jcsb72yjattbydehzdgumhmitzqdkqq7sce.py":72:37)
#loc66 = loc("inductor_cache/ff/cff676f4zeekypm77jcsb72yjattbydehzdgumhmitzqdkqq7sce.py":72:4)
#loc67 = loc(fused[#loc50, #loc51])
#loc68 = loc(callsite(#loc59 at #loc60))
#loc69 = loc(callsite(#loc61 at #loc60))
