#loc = loc("inductor_cache/au/cauvuubsuvx2e6zvbne6tmocsf37ph6k4mlcendltiezt4al77jk.py":19:0)
#loc1 = loc(unknown)
#loc7 = loc("inductor_cache/au/cauvuubsuvx2e6zvbne6tmocsf37ph6k4mlcendltiezt4al77jk.py":32:37)
#loc16 = loc("inductor_cache/au/cauvuubsuvx2e6zvbne6tmocsf37ph6k4mlcendltiezt4al77jk.py":36:24)
#loc25 = loc(callsite(#loc1 at #loc7))
#loc31 = loc(callsite(#loc1 at #loc16))
module {
  tt.func public @triton_per_fused__softmax_1(%arg0: !tt.ptr<f32> {tt.divisibility = 16 : i32} loc("inductor_cache/au/cauvuubsuvx2e6zvbne6tmocsf37ph6k4mlcendltiezt4al77jk.py":19:0), %arg1: !tt.ptr<f32> {tt.divisibility = 16 : i32} loc("inductor_cache/au/cauvuubsuvx2e6zvbne6tmocsf37ph6k4mlcendltiezt4al77jk.py":19:0), %arg2: !tt.ptr<f32> {tt.divisibility = 16 : i32} loc("inductor_cache/au/cauvuubsuvx2e6zvbne6tmocsf37ph6k4mlcendltiezt4al77jk.py":19:0), %arg3: i32 {tt.divisibility = 16 : i32} loc("inductor_cache/au/cauvuubsuvx2e6zvbne6tmocsf37ph6k4mlcendltiezt4al77jk.py":19:0)) attributes {noinline = false} {
    %c0_i32 = arith.constant 0 : i32 loc(#loc1)
    %0 = tt.make_range {end = 16 : i32, start = 0 : i32} : tensor<16xi32> loc(#loc2)
    %1 = tt.expand_dims %0 {axis = 0 : i32} : tensor<16xi32> -> tensor<1x16xi32> loc(#loc3)
    %2 = tt.splat %arg0 : !tt.ptr<f32> -> tensor<1x16x!tt.ptr<f32>> loc(#loc4)
    %3 = tt.addptr %2, %1 : tensor<1x16x!tt.ptr<f32>>, tensor<1x16xi32> loc(#loc4)
    %4 = tt.load %3 : tensor<1x16x!tt.ptr<f32>> loc(#loc5)
    %5 = "tt.reduce"(%4) <{axis = 1 : i32}> ({
    ^bb0(%arg4: f32 loc(callsite(#loc1 at #loc7)), %arg5: f32 loc(callsite(#loc1 at #loc7))):
      %16 = arith.cmpf ogt, %arg4, %arg5 : f32 loc(#loc33)
      %17 = arith.cmpf une, %arg4, %arg4 : f32 loc(#loc34)
      %18 = arith.ori %16, %17 : i1 loc(#loc35)
      %19 = arith.select %18, %arg4, %arg5 : f32 loc(#loc36)
      tt.reduce.return %19 : f32 loc(#loc24)
    }) : (tensor<1x16xf32>) -> tensor<1xf32> loc(#loc24)
    %6 = tt.expand_dims %5 {axis = 1 : i32} : tensor<1xf32> -> tensor<1x1xf32> loc(#loc12)
    %7 = tt.broadcast %6 : tensor<1x1xf32> -> tensor<1x16xf32> loc(#loc13)
    %8 = arith.subf %4, %7 : tensor<1x16xf32> loc(#loc13)
    %9 = math.exp %8 : tensor<1x16xf32> loc(#loc14)
    %10 = "tt.reduce"(%9) <{axis = 1 : i32}> ({
    ^bb0(%arg4: f32 loc(callsite(#loc1 at #loc16)), %arg5: f32 loc(callsite(#loc1 at #loc16))):
      %16 = arith.addf %arg4, %arg5 : f32 loc(#loc37)
      tt.reduce.return %16 : f32 loc(#loc30)
    }) : (tensor<1x16xf32>) -> tensor<1xf32> loc(#loc30)
    %11 = tt.expand_dims %10 {axis = 1 : i32} : tensor<1xf32> -> tensor<1x1xf32> loc(#loc18)
    %12 = tt.addptr %arg1, %c0_i32 : !tt.ptr<f32>, i32 loc(#loc19)
    %13 = tt.splat %12 : !tt.ptr<f32> -> tensor<1x1x!tt.ptr<f32>> loc(#loc19)
    tt.store %13, %6 : tensor<1x1x!tt.ptr<f32>> loc(#loc20)
    %14 = tt.addptr %arg2, %c0_i32 : !tt.ptr<f32>, i32 loc(#loc21)
    %15 = tt.splat %14 : !tt.ptr<f32> -> tensor<1x1x!tt.ptr<f32>> loc(#loc21)
    tt.store %15, %11 : tensor<1x1x!tt.ptr<f32>> loc(#loc22)
    tt.return loc(#loc23)
  } loc(#loc)
} loc(#loc)
#loc2 = loc("inductor_cache/au/cauvuubsuvx2e6zvbne6tmocsf37ph6k4mlcendltiezt4al77jk.py":26:26)
#loc3 = loc("inductor_cache/au/cauvuubsuvx2e6zvbne6tmocsf37ph6k4mlcendltiezt4al77jk.py":26:34)
#loc4 = loc("inductor_cache/au/cauvuubsuvx2e6zvbne6tmocsf37ph6k4mlcendltiezt4al77jk.py":30:30)
#loc5 = loc("inductor_cache/au/cauvuubsuvx2e6zvbne6tmocsf37ph6k4mlcendltiezt4al77jk.py":30:35)
#loc6 = loc("/home/sahanp/.conda/envs/parity-bench/lib/python3.12/site-packages/torch/_inductor/runtime/triton_helpers.py":131:29)
#loc8 = loc("/home/sahanp/.conda/envs/parity-bench/lib/python3.12/site-packages/torch/_inductor/runtime/triton_helpers.py":118:15)
#loc9 = loc("/home/sahanp/.conda/envs/parity-bench/lib/python3.12/site-packages/torch/_inductor/runtime/triton_helpers.py":120:21)
#loc10 = loc("/home/sahanp/.conda/envs/parity-bench/lib/python3.12/site-packages/torch/_inductor/runtime/triton_helpers.py":120:16)
#loc11 = loc("/home/sahanp/.conda/envs/parity-bench/lib/python3.12/site-packages/torch/_inductor/runtime/triton_helpers.py":121:29)
#loc12 = loc("inductor_cache/au/cauvuubsuvx2e6zvbne6tmocsf37ph6k4mlcendltiezt4al77jk.py":32:40)
#loc13 = loc("inductor_cache/au/cauvuubsuvx2e6zvbne6tmocsf37ph6k4mlcendltiezt4al77jk.py":33:18)
#loc14 = loc("inductor_cache/au/cauvuubsuvx2e6zvbne6tmocsf37ph6k4mlcendltiezt4al77jk.py":34:23)
#loc15 = loc("/home/sahanp/.conda/envs/parity-bench/lib/python3.12/site-packages/triton/language/standard.py":267:36)
#loc17 = loc("/home/sahanp/.conda/envs/parity-bench/lib/python3.12/site-packages/triton/language/standard.py":256:15)
#loc18 = loc("inductor_cache/au/cauvuubsuvx2e6zvbne6tmocsf37ph6k4mlcendltiezt4al77jk.py":36:27)
#loc19 = loc("inductor_cache/au/cauvuubsuvx2e6zvbne6tmocsf37ph6k4mlcendltiezt4al77jk.py":37:25)
#loc20 = loc("inductor_cache/au/cauvuubsuvx2e6zvbne6tmocsf37ph6k4mlcendltiezt4al77jk.py":37:67)
#loc21 = loc("inductor_cache/au/cauvuubsuvx2e6zvbne6tmocsf37ph6k4mlcendltiezt4al77jk.py":38:25)
#loc22 = loc("inductor_cache/au/cauvuubsuvx2e6zvbne6tmocsf37ph6k4mlcendltiezt4al77jk.py":38:67)
#loc23 = loc("inductor_cache/au/cauvuubsuvx2e6zvbne6tmocsf37ph6k4mlcendltiezt4al77jk.py":38:4)
#loc24 = loc(callsite(#loc6 at #loc7))
#loc26 = loc(callsite(#loc8 at #loc6))
#loc27 = loc(callsite(#loc9 at #loc6))
#loc28 = loc(callsite(#loc10 at #loc6))
#loc29 = loc(callsite(#loc11 at #loc6))
#loc30 = loc(callsite(#loc15 at #loc16))
#loc32 = loc(callsite(#loc17 at #loc15))
#loc33 = loc(callsite(#loc26 at #loc7))
#loc34 = loc(callsite(#loc27 at #loc7))
#loc35 = loc(callsite(#loc28 at #loc7))
#loc36 = loc(callsite(#loc29 at #loc7))
#loc37 = loc(callsite(#loc32 at #loc16))
