#loc = loc("inductor_cache/7k/c7krjovhset7inps7a4iwbhbvva7rysahg6argibq3we3v34ffb7.py":19:0)
#loc1 = loc(unknown)
#loc16 = loc("inductor_cache/7k/c7krjovhset7inps7a4iwbhbvva7rysahg6argibq3we3v34ffb7.py":42:59)
#loc28 = loc(callsite(#loc1 at #loc16))
module {
  tt.func public @triton_per_fused_binary_cross_entropy_with_logits_0(%arg0: !tt.ptr<f32> {tt.divisibility = 16 : i32} loc("inductor_cache/7k/c7krjovhset7inps7a4iwbhbvva7rysahg6argibq3we3v34ffb7.py":19:0), %arg1: !tt.ptr<f32> {tt.divisibility = 16 : i32} loc("inductor_cache/7k/c7krjovhset7inps7a4iwbhbvva7rysahg6argibq3we3v34ffb7.py":19:0), %arg2: i32 {tt.divisibility = 16 : i32} loc("inductor_cache/7k/c7krjovhset7inps7a4iwbhbvva7rysahg6argibq3we3v34ffb7.py":19:0)) attributes {noinline = false} {
    %c0_i32 = arith.constant 0 : i32 loc(#loc1)
    %cst = arith.constant 2.560000e+02 : f32 loc(#loc1)
    %cst_0 = arith.constant 0.000000e+00 : f32 loc(#loc1)
    %cst_1 = arith.constant dense<0.000000e+00> : tensor<256xf32> loc(#loc1)
    %0 = tt.make_range {end = 256 : i32, start = 0 : i32} : tensor<256xi32> loc(#loc2)
    %1 = tt.splat %arg1 : !tt.ptr<f32> -> tensor<256x!tt.ptr<f32>> loc(#loc3)
    %2 = tt.addptr %1, %0 : tensor<256x!tt.ptr<f32>>, tensor<256xi32> loc(#loc3)
    %3 = tt.load %2 : tensor<256x!tt.ptr<f32>> loc(#loc4)
    %4 = arith.mulf %3, %cst_1 : tensor<256xf32> loc(#loc5)
    %5 = arith.cmpf olt, %cst_1, %3 : tensor<256xf32> loc(#loc25)
    %6 = arith.select %5, %cst_1, %3 : tensor<256xi1>, tensor<256xf32> loc(#loc26)
    %7 = math.absf %3 : tensor<256xf32> loc(#loc9)
    %8 = arith.subf %cst_1, %7 : tensor<256xf32> loc(#loc10)
    %9 = math.exp %8 : tensor<256xf32> loc(#loc11)
    %10 = tt.extern_elementwise %9 {libname = "", libpath = "", pure = true, symbol = "__nv_log1pf"} : (tensor<256xf32>) -> tensor<256xf32> loc(#loc12)
    %11 = arith.subf %6, %10 : tensor<256xf32> loc(#loc13)
    %12 = arith.subf %4, %11 : tensor<256xf32> loc(#loc14)
    %13 = "tt.reduce"(%12) <{axis = 0 : i32}> ({
    ^bb0(%arg3: f32 loc(callsite(#loc1 at #loc16)), %arg4: f32 loc(callsite(#loc1 at #loc16))):
      %19 = arith.addf %arg3, %arg4 : f32 loc(#loc31)
      tt.reduce.return %19 : f32 loc(#loc27)
    }) : (tensor<256xf32>) -> f32 loc(#loc27)
    %14 = arith.addf %13, %cst_0 : f32 loc(#loc30)
    %15 = arith.divf %14, %cst : f32 loc(#loc20)
    %16 = tt.splat %15 : f32 -> tensor<1xf32> loc(#loc20)
    gpu.barrier loc(#loc21)
    %17 = tt.addptr %arg0, %c0_i32 : !tt.ptr<f32>, i32 loc(#loc22)
    %18 = tt.splat %17 : !tt.ptr<f32> -> tensor<1x!tt.ptr<f32>> loc(#loc22)
    tt.store %18, %16 : tensor<1x!tt.ptr<f32>> loc(#loc23)
    tt.return loc(#loc24)
  } loc(#loc)
} loc(#loc)
#loc2 = loc("inductor_cache/7k/c7krjovhset7inps7a4iwbhbvva7rysahg6argibq3we3v34ffb7.py":27:26)
#loc3 = loc("inductor_cache/7k/c7krjovhset7inps7a4iwbhbvva7rysahg6argibq3we3v34ffb7.py":31:30)
#loc4 = loc("inductor_cache/7k/c7krjovhset7inps7a4iwbhbvva7rysahg6argibq3we3v34ffb7.py":31:35)
#loc5 = loc("inductor_cache/7k/c7krjovhset7inps7a4iwbhbvva7rysahg6argibq3we3v34ffb7.py":33:18)
#loc6 = loc("/home/sahanp/.conda/envs/parity-bench/lib/python3.12/site-packages/torch/_inductor/runtime/triton_helpers.py":110:15)
#loc7 = loc("inductor_cache/7k/c7krjovhset7inps7a4iwbhbvva7rysahg6argibq3we3v34ffb7.py":34:40)
#loc8 = loc("/home/sahanp/.conda/envs/parity-bench/lib/python3.12/site-packages/torch/_inductor/runtime/triton_helpers.py":113:29)
#loc9 = loc("inductor_cache/7k/c7krjovhset7inps7a4iwbhbvva7rysahg6argibq3we3v34ffb7.py":35:23)
#loc10 = loc("inductor_cache/7k/c7krjovhset7inps7a4iwbhbvva7rysahg6argibq3we3v34ffb7.py":36:12)
#loc11 = loc("inductor_cache/7k/c7krjovhset7inps7a4iwbhbvva7rysahg6argibq3we3v34ffb7.py":37:23)
#loc12 = loc("inductor_cache/7k/c7krjovhset7inps7a4iwbhbvva7rysahg6argibq3we3v34ffb7.py":38:27)
#loc13 = loc("inductor_cache/7k/c7krjovhset7inps7a4iwbhbvva7rysahg6argibq3we3v34ffb7.py":39:18)
#loc14 = loc("inductor_cache/7k/c7krjovhset7inps7a4iwbhbvva7rysahg6argibq3we3v34ffb7.py":40:18)
#loc15 = loc("/home/sahanp/.conda/envs/parity-bench/lib/python3.12/site-packages/triton/language/standard.py":267:36)
#loc17 = loc("/home/sahanp/.conda/envs/parity-bench/lib/python3.12/site-packages/triton/language/standard.py":256:15)
#loc18 = loc("/home/sahanp/.conda/envs/parity-bench/lib/python3.12/site-packages/torch/_inductor/runtime/triton_helpers.py":73:15)
#loc19 = loc("inductor_cache/7k/c7krjovhset7inps7a4iwbhbvva7rysahg6argibq3we3v34ffb7.py":42:45)
#loc20 = loc("inductor_cache/7k/c7krjovhset7inps7a4iwbhbvva7rysahg6argibq3we3v34ffb7.py":44:20)
#loc21 = loc("inductor_cache/7k/c7krjovhset7inps7a4iwbhbvva7rysahg6argibq3we3v34ffb7.py":45:4)
#loc22 = loc("inductor_cache/7k/c7krjovhset7inps7a4iwbhbvva7rysahg6argibq3we3v34ffb7.py":46:28)
#loc23 = loc("inductor_cache/7k/c7krjovhset7inps7a4iwbhbvva7rysahg6argibq3we3v34ffb7.py":46:63)
#loc24 = loc("inductor_cache/7k/c7krjovhset7inps7a4iwbhbvva7rysahg6argibq3we3v34ffb7.py":46:4)
#loc25 = loc(callsite(#loc6 at #loc7))
#loc26 = loc(callsite(#loc8 at #loc7))
#loc27 = loc(callsite(#loc15 at #loc16))
#loc29 = loc(callsite(#loc17 at #loc15))
#loc30 = loc(callsite(#loc18 at #loc19))
#loc31 = loc(callsite(#loc29 at #loc16))
