#loc = loc("inductor_cache/g7/cg7mdpsgwiiwhd3ayixfhx7c3ar2ugtehfsotcoxjhq7d65w57ww.py":19:0)
#loc1 = loc(unknown)
#loc14 = loc("inductor_cache/g7/cg7mdpsgwiiwhd3ayixfhx7c3ar2ugtehfsotcoxjhq7d65w57ww.py":33:24)
#loc21 = loc(callsite(#loc1 at #loc14))
module {
  tt.func public @triton_per_fused_mv_8(%arg0: !tt.ptr<f32> {tt.divisibility = 16 : i32} loc("inductor_cache/g7/cg7mdpsgwiiwhd3ayixfhx7c3ar2ugtehfsotcoxjhq7d65w57ww.py":19:0), %arg1: !tt.ptr<f32> {tt.divisibility = 16 : i32} loc("inductor_cache/g7/cg7mdpsgwiiwhd3ayixfhx7c3ar2ugtehfsotcoxjhq7d65w57ww.py":19:0), %arg2: i32 {tt.divisibility = 16 : i32} loc("inductor_cache/g7/cg7mdpsgwiiwhd3ayixfhx7c3ar2ugtehfsotcoxjhq7d65w57ww.py":19:0), %arg3: i32 loc("inductor_cache/g7/cg7mdpsgwiiwhd3ayixfhx7c3ar2ugtehfsotcoxjhq7d65w57ww.py":19:0)) attributes {noinline = false} {
    %cst = arith.constant dense<4096> : tensor<1x4xi32> loc(#loc1)
    %c128_i32 = arith.constant 128 : i32 loc(#loc1)
    %0 = tt.get_program_id x : i32 loc(#loc2)
    %1 = arith.muli %0, %c128_i32 : i32 loc(#loc3)
    %2 = tt.make_range {end = 128 : i32, start = 0 : i32} : tensor<128xi32> loc(#loc4)
    %3 = tt.expand_dims %2 {axis = 1 : i32} : tensor<128xi32> -> tensor<128x1xi32> loc(#loc5)
    %4 = tt.splat %1 : i32 -> tensor<128x1xi32> loc(#loc6)
    %5 = arith.addi %4, %3 : tensor<128x1xi32> loc(#loc6)
    %6 = tt.make_range {end = 4 : i32, start = 0 : i32} : tensor<4xi32> loc(#loc7)
    %7 = tt.expand_dims %6 {axis = 0 : i32} : tensor<4xi32> -> tensor<1x4xi32> loc(#loc8)
    %8 = arith.muli %7, %cst : tensor<1x4xi32> loc(#loc9)
    %9 = tt.broadcast %5 : tensor<128x1xi32> -> tensor<128x4xi32> loc(#loc10)
    %10 = tt.broadcast %8 : tensor<1x4xi32> -> tensor<128x4xi32> loc(#loc10)
    %11 = arith.addi %9, %10 : tensor<128x4xi32> loc(#loc10)
    %12 = tt.splat %arg0 : !tt.ptr<f32> -> tensor<128x4x!tt.ptr<f32>> loc(#loc11)
    %13 = tt.addptr %12, %11 : tensor<128x4x!tt.ptr<f32>>, tensor<128x4xi32> loc(#loc11)
    %14 = tt.load %13 : tensor<128x4x!tt.ptr<f32>> loc(#loc12)
    %15 = "tt.reduce"(%14) <{axis = 1 : i32}> ({
    ^bb0(%arg4: f32 loc(callsite(#loc1 at #loc14)), %arg5: f32 loc(callsite(#loc1 at #loc14))):
      %19 = arith.addf %arg4, %arg5 : f32 loc(#loc23)
      tt.reduce.return %19 : f32 loc(#loc20)
    }) : (tensor<128x4xf32>) -> tensor<128xf32> loc(#loc20)
    %16 = tt.expand_dims %15 {axis = 1 : i32} : tensor<128xf32> -> tensor<128x1xf32> loc(#loc16)
    %17 = tt.splat %arg1 : !tt.ptr<f32> -> tensor<128x1x!tt.ptr<f32>> loc(#loc17)
    %18 = tt.addptr %17, %5 : tensor<128x1x!tt.ptr<f32>>, tensor<128x1xi32> loc(#loc17)
    tt.store %18, %16 : tensor<128x1x!tt.ptr<f32>> loc(#loc18)
    tt.return loc(#loc19)
  } loc(#loc)
} loc(#loc)
#loc2 = loc("inductor_cache/g7/cg7mdpsgwiiwhd3ayixfhx7c3ar2ugtehfsotcoxjhq7d65w57ww.py":23:28)
#loc3 = loc("inductor_cache/g7/cg7mdpsgwiiwhd3ayixfhx7c3ar2ugtehfsotcoxjhq7d65w57ww.py":23:33)
#loc4 = loc("inductor_cache/g7/cg7mdpsgwiiwhd3ayixfhx7c3ar2ugtehfsotcoxjhq7d65w57ww.py":24:36)
#loc5 = loc("inductor_cache/g7/cg7mdpsgwiiwhd3ayixfhx7c3ar2ugtehfsotcoxjhq7d65w57ww.py":24:44)
#loc6 = loc("inductor_cache/g7/cg7mdpsgwiiwhd3ayixfhx7c3ar2ugtehfsotcoxjhq7d65w57ww.py":24:23)
#loc7 = loc("inductor_cache/g7/cg7mdpsgwiiwhd3ayixfhx7c3ar2ugtehfsotcoxjhq7d65w57ww.py":26:26)
#loc8 = loc("inductor_cache/g7/cg7mdpsgwiiwhd3ayixfhx7c3ar2ugtehfsotcoxjhq7d65w57ww.py":26:34)
#loc9 = loc("inductor_cache/g7/cg7mdpsgwiiwhd3ayixfhx7c3ar2ugtehfsotcoxjhq7d65w57ww.py":31:40)
#loc10 = loc("inductor_cache/g7/cg7mdpsgwiiwhd3ayixfhx7c3ar2ugtehfsotcoxjhq7d65w57ww.py":31:35)
#loc11 = loc("inductor_cache/g7/cg7mdpsgwiiwhd3ayixfhx7c3ar2ugtehfsotcoxjhq7d65w57ww.py":31:30)
#loc12 = loc("inductor_cache/g7/cg7mdpsgwiiwhd3ayixfhx7c3ar2ugtehfsotcoxjhq7d65w57ww.py":31:45)
#loc13 = loc("/home/sahanp/.conda/envs/parity-bench/lib/python3.12/site-packages/triton/language/standard.py":267:36)
#loc15 = loc("/home/sahanp/.conda/envs/parity-bench/lib/python3.12/site-packages/triton/language/standard.py":256:15)
#loc16 = loc("inductor_cache/g7/cg7mdpsgwiiwhd3ayixfhx7c3ar2ugtehfsotcoxjhq7d65w57ww.py":33:27)
#loc17 = loc("inductor_cache/g7/cg7mdpsgwiiwhd3ayixfhx7c3ar2ugtehfsotcoxjhq7d65w57ww.py":34:25)
#loc18 = loc("inductor_cache/g7/cg7mdpsgwiiwhd3ayixfhx7c3ar2ugtehfsotcoxjhq7d65w57ww.py":34:36)
#loc19 = loc("inductor_cache/g7/cg7mdpsgwiiwhd3ayixfhx7c3ar2ugtehfsotcoxjhq7d65w57ww.py":34:4)
#loc20 = loc(callsite(#loc13 at #loc14))
#loc22 = loc(callsite(#loc15 at #loc13))
#loc23 = loc(callsite(#loc22 at #loc14))
