#loc = loc("inductor_cache/vs/cvsmxfkfci6qgfflogljif5gmek3lmydecataji5pgbrbd4un2fn.py":19:0)
module {
  tt.func public @triton_poi_fused_sigmoid_sub_8(%arg0: !tt.ptr<f32> {tt.divisibility = 16 : i32} loc("inductor_cache/vs/cvsmxfkfci6qgfflogljif5gmek3lmydecataji5pgbrbd4un2fn.py":19:0), %arg1: !tt.ptr<f32> {tt.divisibility = 16 : i32} loc("inductor_cache/vs/cvsmxfkfci6qgfflogljif5gmek3lmydecataji5pgbrbd4un2fn.py":19:0), %arg2: !tt.ptr<f32> {tt.divisibility = 16 : i32} loc("inductor_cache/vs/cvsmxfkfci6qgfflogljif5gmek3lmydecataji5pgbrbd4un2fn.py":19:0), %arg3: !tt.ptr<f32> {tt.divisibility = 16 : i32} loc("inductor_cache/vs/cvsmxfkfci6qgfflogljif5gmek3lmydecataji5pgbrbd4un2fn.py":19:0), %arg4: i32 {tt.divisibility = 16 : i32} loc("inductor_cache/vs/cvsmxfkfci6qgfflogljif5gmek3lmydecataji5pgbrbd4un2fn.py":19:0)) attributes {noinline = false} {
    %cst = arith.constant dense<0.000000e+00> : tensor<128xf32> loc(#loc1)
    %cst_0 = arith.constant dense<1.000000e+00> : tensor<128xf32> loc(#loc1)
    %cst_1 = arith.constant dense<4> : tensor<128xi32> loc(#loc1)
    %cst_2 = arith.constant dense<16> : tensor<128xi32> loc(#loc1)
    %cst_3 = arith.constant dense<64> : tensor<128xi32> loc(#loc1)
    %cst_4 = arith.constant dense<256> : tensor<128xi32> loc(#loc1)
    %c128_i32 = arith.constant 128 : i32 loc(#loc1)
    %0 = tt.get_program_id x : i32 loc(#loc2)
    %1 = arith.muli %0, %c128_i32 : i32 loc(#loc3)
    %2 = tt.make_range {end = 128 : i32, start = 0 : i32} : tensor<128xi32> loc(#loc4)
    %3 = tt.splat %1 : i32 -> tensor<128xi32> loc(#loc5)
    %4 = arith.addi %3, %2 : tensor<128xi32> loc(#loc5)
    %5 = arith.cmpi slt, %4, %cst_4 : tensor<128xi32> loc(#loc6)
    %6 = arith.divsi %4, %cst_3 : tensor<128xi32> loc(#loc7)
    %7 = arith.remsi %4, %cst_2 : tensor<128xi32> loc(#loc8)
    %8 = arith.remsi %4, %cst_1 : tensor<128xi32> loc(#loc9)
    %9 = arith.muli %6, %cst_2 : tensor<128xi32> loc(#loc10)
    %10 = arith.addi %7, %9 : tensor<128xi32> loc(#loc11)
    %11 = tt.splat %arg1 : !tt.ptr<f32> -> tensor<128x!tt.ptr<f32>> loc(#loc12)
    %12 = tt.addptr %11, %10 : tensor<128x!tt.ptr<f32>>, tensor<128xi32> loc(#loc12)
    %13 = tt.load %12, %5 evictionPolicy = evict_last : tensor<128x!tt.ptr<f32>> loc(#loc13)
    %14 = tt.splat %arg2 : !tt.ptr<f32> -> tensor<128x!tt.ptr<f32>> loc(#loc14)
    %15 = tt.addptr %14, %8 : tensor<128x!tt.ptr<f32>>, tensor<128xi32> loc(#loc14)
    %16 = tt.load %15, %5 evictionPolicy = evict_last : tensor<128x!tt.ptr<f32>> loc(#loc15)
    %17 = tt.splat %arg0 : !tt.ptr<f32> -> tensor<128x!tt.ptr<f32>> loc(#loc16)
    %18 = tt.addptr %17, %4 : tensor<128x!tt.ptr<f32>>, tensor<128xi32> loc(#loc16)
    %19 = tt.load %18, %5 : tensor<128x!tt.ptr<f32>> loc(#loc17)
    %20 = tt.splat %arg3 : !tt.ptr<f32> -> tensor<128x!tt.ptr<f32>> loc(#loc18)
    %21 = tt.addptr %20, %8 : tensor<128x!tt.ptr<f32>>, tensor<128xi32> loc(#loc18)
    %22 = tt.load %21, %5 evictionPolicy = evict_last : tensor<128x!tt.ptr<f32>> loc(#loc19)
    %23 = arith.addf %13, %16 : tensor<128xf32> loc(#loc20)
    %24 = arith.addf %19, %22 : tensor<128xf32> loc(#loc21)
    %25 = arith.subf %23, %24 : tensor<128xf32> loc(#loc22)
    %26 = arith.subf %cst, %25 : tensor<128xf32> loc(#loc30)
    %27 = math.exp %26 : tensor<128xf32> loc(#loc31)
    %28 = arith.addf %27, %cst_0 : tensor<128xf32> loc(#loc32)
    %29 = arith.divf %cst_0, %28 : tensor<128xf32> loc(#loc33)
    tt.store %18, %29, %5 : tensor<128x!tt.ptr<f32>> loc(#loc28)
    tt.return loc(#loc29)
  } loc(#loc)
} loc(#loc)
#loc1 = loc(unknown)
#loc2 = loc("inductor_cache/vs/cvsmxfkfci6qgfflogljif5gmek3lmydecataji5pgbrbd4un2fn.py":21:28)
#loc3 = loc("inductor_cache/vs/cvsmxfkfci6qgfflogljif5gmek3lmydecataji5pgbrbd4un2fn.py":21:33)
#loc4 = loc("inductor_cache/vs/cvsmxfkfci6qgfflogljif5gmek3lmydecataji5pgbrbd4un2fn.py":22:36)
#loc5 = loc("inductor_cache/vs/cvsmxfkfci6qgfflogljif5gmek3lmydecataji5pgbrbd4un2fn.py":22:23)
#loc6 = loc("inductor_cache/vs/cvsmxfkfci6qgfflogljif5gmek3lmydecataji5pgbrbd4un2fn.py":23:21)
#loc7 = loc("inductor_cache/vs/cvsmxfkfci6qgfflogljif5gmek3lmydecataji5pgbrbd4un2fn.py":24:19)
#loc8 = loc("inductor_cache/vs/cvsmxfkfci6qgfflogljif5gmek3lmydecataji5pgbrbd4un2fn.py":25:19)
#loc9 = loc("inductor_cache/vs/cvsmxfkfci6qgfflogljif5gmek3lmydecataji5pgbrbd4un2fn.py":26:19)
#loc10 = loc("inductor_cache/vs/cvsmxfkfci6qgfflogljif5gmek3lmydecataji5pgbrbd4un2fn.py":28:38)
#loc11 = loc("inductor_cache/vs/cvsmxfkfci6qgfflogljif5gmek3lmydecataji5pgbrbd4un2fn.py":28:35)
#loc12 = loc("inductor_cache/vs/cvsmxfkfci6qgfflogljif5gmek3lmydecataji5pgbrbd4un2fn.py":28:30)
#loc13 = loc("inductor_cache/vs/cvsmxfkfci6qgfflogljif5gmek3lmydecataji5pgbrbd4un2fn.py":28:43)
#loc14 = loc("inductor_cache/vs/cvsmxfkfci6qgfflogljif5gmek3lmydecataji5pgbrbd4un2fn.py":29:30)
#loc15 = loc("inductor_cache/vs/cvsmxfkfci6qgfflogljif5gmek3lmydecataji5pgbrbd4un2fn.py":29:35)
#loc16 = loc("inductor_cache/vs/cvsmxfkfci6qgfflogljif5gmek3lmydecataji5pgbrbd4un2fn.py":30:34)
#loc17 = loc("inductor_cache/vs/cvsmxfkfci6qgfflogljif5gmek3lmydecataji5pgbrbd4un2fn.py":30:39)
#loc18 = loc("inductor_cache/vs/cvsmxfkfci6qgfflogljif5gmek3lmydecataji5pgbrbd4un2fn.py":31:30)
#loc19 = loc("inductor_cache/vs/cvsmxfkfci6qgfflogljif5gmek3lmydecataji5pgbrbd4un2fn.py":31:35)
#loc20 = loc("inductor_cache/vs/cvsmxfkfci6qgfflogljif5gmek3lmydecataji5pgbrbd4un2fn.py":32:18)
#loc21 = loc("inductor_cache/vs/cvsmxfkfci6qgfflogljif5gmek3lmydecataji5pgbrbd4un2fn.py":33:18)
#loc22 = loc("inductor_cache/vs/cvsmxfkfci6qgfflogljif5gmek3lmydecataji5pgbrbd4un2fn.py":34:18)
#loc23 = loc("/home/sahanp/.conda/envs/parity-bench/lib/python3.12/site-packages/triton/language/standard.py":47:30)
#loc24 = loc("inductor_cache/vs/cvsmxfkfci6qgfflogljif5gmek3lmydecataji5pgbrbd4un2fn.py":35:22)
#loc25 = loc("/home/sahanp/.conda/envs/parity-bench/lib/python3.12/site-packages/triton/language/standard.py":47:29)
#loc26 = loc("/home/sahanp/.conda/envs/parity-bench/lib/python3.12/site-packages/triton/language/standard.py":47:20)
#loc27 = loc("/home/sahanp/.conda/envs/parity-bench/lib/python3.12/site-packages/triton/language/standard.py":47:16)
#loc28 = loc("inductor_cache/vs/cvsmxfkfci6qgfflogljif5gmek3lmydecataji5pgbrbd4un2fn.py":36:39)
#loc29 = loc("inductor_cache/vs/cvsmxfkfci6qgfflogljif5gmek3lmydecataji5pgbrbd4un2fn.py":36:4)
#loc30 = loc(callsite(#loc23 at #loc24))
#loc31 = loc(callsite(#loc25 at #loc24))
#loc32 = loc(callsite(#loc26 at #loc24))
#loc33 = loc(callsite(#loc27 at #loc24))
