#loc = loc("inductor_cache/e3/ce3n5t42wknykpmronaszx576l2lh6m5dtngiqxcvwc236snad76.py":19:0)
module {
  tt.func public @triton_poi_fused__native_batch_norm_legit_no_training_cat_relu_13(%arg0: !tt.ptr<f32> {tt.divisibility = 16 : i32} loc("inductor_cache/e3/ce3n5t42wknykpmronaszx576l2lh6m5dtngiqxcvwc236snad76.py":19:0), %arg1: !tt.ptr<f32> {tt.divisibility = 16 : i32} loc("inductor_cache/e3/ce3n5t42wknykpmronaszx576l2lh6m5dtngiqxcvwc236snad76.py":19:0), %arg2: !tt.ptr<f32> {tt.divisibility = 16 : i32} loc("inductor_cache/e3/ce3n5t42wknykpmronaszx576l2lh6m5dtngiqxcvwc236snad76.py":19:0), %arg3: !tt.ptr<f32> {tt.divisibility = 16 : i32} loc("inductor_cache/e3/ce3n5t42wknykpmronaszx576l2lh6m5dtngiqxcvwc236snad76.py":19:0), %arg4: !tt.ptr<f32> {tt.divisibility = 16 : i32} loc("inductor_cache/e3/ce3n5t42wknykpmronaszx576l2lh6m5dtngiqxcvwc236snad76.py":19:0), %arg5: !tt.ptr<f32> {tt.divisibility = 16 : i32} loc("inductor_cache/e3/ce3n5t42wknykpmronaszx576l2lh6m5dtngiqxcvwc236snad76.py":19:0), %arg6: !tt.ptr<f32> {tt.divisibility = 16 : i32} loc("inductor_cache/e3/ce3n5t42wknykpmronaszx576l2lh6m5dtngiqxcvwc236snad76.py":19:0), %arg7: !tt.ptr<f32> {tt.divisibility = 16 : i32} loc("inductor_cache/e3/ce3n5t42wknykpmronaszx576l2lh6m5dtngiqxcvwc236snad76.py":19:0), %arg8: !tt.ptr<f32> {tt.divisibility = 16 : i32} loc("inductor_cache/e3/ce3n5t42wknykpmronaszx576l2lh6m5dtngiqxcvwc236snad76.py":19:0), %arg9: i32 {tt.divisibility = 16 : i32} loc("inductor_cache/e3/ce3n5t42wknykpmronaszx576l2lh6m5dtngiqxcvwc236snad76.py":19:0)) attributes {noinline = false} {
    %cst = arith.constant dense<1.000000e+00> : tensor<256xf32> loc(#loc1)
    %cst_0 = arith.constant dense<9.99999974E-6> : tensor<256xf32> loc(#loc1)
    %cst_1 = arith.constant dense<-64> : tensor<256xi32> loc(#loc1)
    %cst_2 = arith.constant dense<9> : tensor<256xi32> loc(#loc1)
    %cst_3 = arith.constant dense<8> : tensor<256xi32> loc(#loc1)
    %cst_4 = arith.constant dense<1> : tensor<256xi32> loc(#loc1)
    %cst_5 = arith.constant dense<0.000000e+00> : tensor<256xf32> loc(#loc1)
    %cst_6 = arith.constant dense<4096> : tensor<256xi32> loc(#loc1)
    %cst_7 = arith.constant dense<64> : tensor<256xi32> loc(#loc1)
    %cst_8 = arith.constant dense<2> : tensor<256xi32> loc(#loc1)
    %cst_9 = arith.constant dense<64> : tensor<256xi64> loc(#loc1)
    %cst_10 = arith.constant dense<1088> : tensor<256xi32> loc(#loc1)
    %cst_11 = arith.constant dense<4> : tensor<256xi32> loc(#loc1)
    %cst_12 = arith.constant dense<68> : tensor<256xi32> loc(#loc1)
    %cst_13 = arith.constant dense<16> : tensor<256xi32> loc(#loc1)
    %cst_14 = arith.constant dense<4352> : tensor<256xi32> loc(#loc1)
    %c256_i32 = arith.constant 256 : i32 loc(#loc1)
    %0 = tt.get_program_id x : i32 loc(#loc2)
    %1 = arith.muli %0, %c256_i32 : i32 loc(#loc3)
    %2 = tt.make_range {end = 256 : i32, start = 0 : i32} : tensor<256xi32> loc(#loc4)
    %3 = tt.splat %1 : i32 -> tensor<256xi32> loc(#loc5)
    %4 = arith.addi %3, %2 : tensor<256xi32> loc(#loc5)
    %5 = arith.cmpi slt, %4, %cst_14 : tensor<256xi32> loc(#loc6)
    %6 = arith.divsi %4, %cst_13 : tensor<256xi32> loc(#loc7)
    %7 = arith.remsi %6, %cst_12 : tensor<256xi32> loc(#loc8)
    %8 = arith.remsi %4, %cst_11 : tensor<256xi32> loc(#loc9)
    %9 = arith.divsi %4, %cst_11 : tensor<256xi32> loc(#loc10)
    %10 = arith.remsi %9, %cst_11 : tensor<256xi32> loc(#loc11)
    %11 = arith.divsi %4, %cst_10 : tensor<256xi32> loc(#loc12)
    %12 = arith.remsi %4, %cst_13 : tensor<256xi32> loc(#loc13)
    %13 = tt.splat %arg3 : !tt.ptr<f32> -> tensor<256x!tt.ptr<f32>> loc(#loc14)
    %14 = tt.addptr %13, %7 : tensor<256x!tt.ptr<f32>>, tensor<256xi32> loc(#loc14)
    %15 = tt.load %14, %5 evictionPolicy = evict_last : tensor<256x!tt.ptr<f32>> loc(#loc15)
    %16 = tt.splat %arg4 : !tt.ptr<f32> -> tensor<256x!tt.ptr<f32>> loc(#loc16)
    %17 = tt.addptr %16, %7 : tensor<256x!tt.ptr<f32>>, tensor<256xi32> loc(#loc16)
    %18 = tt.load %17, %5 evictionPolicy = evict_last : tensor<256x!tt.ptr<f32>> loc(#loc17)
    %19 = tt.splat %arg5 : !tt.ptr<f32> -> tensor<256x!tt.ptr<f32>> loc(#loc18)
    %20 = tt.addptr %19, %7 : tensor<256x!tt.ptr<f32>>, tensor<256xi32> loc(#loc18)
    %21 = tt.load %20, %5 evictionPolicy = evict_last : tensor<256x!tt.ptr<f32>> loc(#loc19)
    %22 = tt.splat %arg6 : !tt.ptr<f32> -> tensor<256x!tt.ptr<f32>> loc(#loc20)
    %23 = tt.addptr %22, %7 : tensor<256x!tt.ptr<f32>>, tensor<256xi32> loc(#loc20)
    %24 = tt.load %23, %5 evictionPolicy = evict_last : tensor<256x!tt.ptr<f32>> loc(#loc21)
    %25 = arith.extsi %7 : tensor<256xi32> to tensor<256xi64> loc(#loc22)
    %26 = arith.cmpi slt, %25, %cst_9 : tensor<256xi64> loc(#loc22)
    %27 = arith.muli %8, %cst_8 : tensor<256xi32> loc(#loc23)
    %28 = arith.muli %10, %cst_13 : tensor<256xi32> loc(#loc24)
    %29 = arith.addi %27, %28 : tensor<256xi32> loc(#loc25)
    %30 = arith.muli %7, %cst_7 : tensor<256xi32> loc(#loc26)
    %31 = arith.addi %29, %30 : tensor<256xi32> loc(#loc27)
    %32 = arith.muli %11, %cst_6 : tensor<256xi32> loc(#loc28)
    %33 = arith.addi %31, %32 : tensor<256xi32> loc(#loc29)
    %34 = tt.splat %arg0 : !tt.ptr<f32> -> tensor<256x!tt.ptr<f32>> loc(#loc30)
    %35 = tt.addptr %34, %33 : tensor<256x!tt.ptr<f32>>, tensor<256xi32> loc(#loc30)
    %36 = arith.andi %26, %5 : tensor<256xi1> loc(#loc31)
    %37 = tt.load %35, %36, %cst_5 evictionPolicy = evict_last : tensor<256x!tt.ptr<f32>> loc(#loc32)
    %38 = arith.addi %27, %cst_4 : tensor<256xi32> loc(#loc33)
    %39 = arith.addi %38, %28 : tensor<256xi32> loc(#loc34)
    %40 = arith.addi %39, %30 : tensor<256xi32> loc(#loc35)
    %41 = arith.addi %40, %32 : tensor<256xi32> loc(#loc36)
    %42 = tt.addptr %34, %41 : tensor<256x!tt.ptr<f32>>, tensor<256xi32> loc(#loc37)
    %43 = tt.load %42, %36, %cst_5 evictionPolicy = evict_last : tensor<256x!tt.ptr<f32>> loc(#loc38)
    %44 = arith.cmpf ogt, %43, %37 : tensor<256xf32> loc(#loc86)
    %45 = arith.cmpf une, %43, %43 : tensor<256xf32> loc(#loc87)
    %46 = arith.ori %44, %45 : tensor<256xi1> loc(#loc88)
    %47 = arith.select %46, %43, %37 : tensor<256xi1>, tensor<256xf32> loc(#loc89)
    %48 = arith.addi %27, %cst_3 : tensor<256xi32> loc(#loc44)
    %49 = arith.addi %48, %28 : tensor<256xi32> loc(#loc45)
    %50 = arith.addi %49, %30 : tensor<256xi32> loc(#loc46)
    %51 = arith.addi %50, %32 : tensor<256xi32> loc(#loc47)
    %52 = tt.addptr %34, %51 : tensor<256x!tt.ptr<f32>>, tensor<256xi32> loc(#loc48)
    %53 = tt.load %52, %36, %cst_5 evictionPolicy = evict_last : tensor<256x!tt.ptr<f32>> loc(#loc49)
    %54 = arith.cmpf ogt, %53, %47 : tensor<256xf32> loc(#loc90)
    %55 = arith.cmpf une, %53, %53 : tensor<256xf32> loc(#loc91)
    %56 = arith.ori %54, %55 : tensor<256xi1> loc(#loc92)
    %57 = arith.select %56, %53, %47 : tensor<256xi1>, tensor<256xf32> loc(#loc93)
    %58 = arith.addi %27, %cst_2 : tensor<256xi32> loc(#loc51)
    %59 = arith.addi %58, %28 : tensor<256xi32> loc(#loc52)
    %60 = arith.addi %59, %30 : tensor<256xi32> loc(#loc53)
    %61 = arith.addi %60, %32 : tensor<256xi32> loc(#loc54)
    %62 = tt.addptr %34, %61 : tensor<256x!tt.ptr<f32>>, tensor<256xi32> loc(#loc55)
    %63 = tt.load %62, %36, %cst_5 evictionPolicy = evict_last : tensor<256x!tt.ptr<f32>> loc(#loc56)
    %64 = arith.cmpf ogt, %63, %57 : tensor<256xf32> loc(#loc94)
    %65 = arith.cmpf une, %63, %63 : tensor<256xf32> loc(#loc95)
    %66 = arith.ori %64, %65 : tensor<256xi1> loc(#loc96)
    %67 = arith.select %66, %63, %57 : tensor<256xi1>, tensor<256xf32> loc(#loc97)
    %68 = arith.cmpi sge, %25, %cst_9 : tensor<256xi64> loc(#loc58)
    %69 = arith.addi %7, %cst_1 : tensor<256xi32> loc(#loc59)
    %70 = arith.muli %69, %cst_13 : tensor<256xi32> loc(#loc60)
    %71 = arith.addi %12, %70 : tensor<256xi32> loc(#loc61)
    %72 = arith.muli %11, %cst_7 : tensor<256xi32> loc(#loc62)
    %73 = arith.addi %71, %72 : tensor<256xi32> loc(#loc63)
    %74 = tt.splat %arg1 : !tt.ptr<f32> -> tensor<256x!tt.ptr<f32>> loc(#loc64)
    %75 = tt.addptr %74, %73 : tensor<256x!tt.ptr<f32>>, tensor<256xi32> loc(#loc64)
    %76 = arith.andi %68, %5 : tensor<256xi1> loc(#loc65)
    %77 = tt.load %75, %76, %cst_5 : tensor<256x!tt.ptr<f32>> loc(#loc66)
    %78 = tt.splat %arg2 : !tt.ptr<f32> -> tensor<256x!tt.ptr<f32>> loc(#loc67)
    %79 = tt.addptr %78, %69 : tensor<256x!tt.ptr<f32>>, tensor<256xi32> loc(#loc67)
    %80 = tt.load %79, %76, %cst_5 evictionPolicy = evict_last : tensor<256x!tt.ptr<f32>> loc(#loc68)
    %81 = arith.addf %77, %80 : tensor<256xf32> loc(#loc69)
    %82 = arith.select %68, %81, %cst_5 : tensor<256xi1>, tensor<256xf32> loc(#loc70)
    %83 = arith.select %26, %67, %82 : tensor<256xi1>, tensor<256xf32> loc(#loc98)
    %84 = arith.subf %83, %15 : tensor<256xf32> loc(#loc73)
    %85 = arith.addf %18, %cst_0 : tensor<256xf32> loc(#loc74)
    %86 = tt.extern_elementwise %85 {libname = "", libpath = "", pure = true, symbol = "__nv_sqrtf"} : (tensor<256xf32>) -> tensor<256xf32> loc(#loc75)
    %87 = arith.divf %cst, %86 : tensor<256xf32> loc(#loc76)
    %88 = arith.mulf %84, %87 : tensor<256xf32> loc(#loc77)
    %89 = arith.mulf %88, %21 : tensor<256xf32> loc(#loc78)
    %90 = arith.addf %89, %24 : tensor<256xf32> loc(#loc79)
    %91 = arith.cmpf ogt, %cst_5, %90 : tensor<256xf32> loc(#loc99)
    %92 = arith.select %91, %cst_5, %90 : tensor<256xi1>, tensor<256xf32> loc(#loc100)
    %93 = tt.splat %arg7 : !tt.ptr<f32> -> tensor<256x!tt.ptr<f32>> loc(#loc81)
    %94 = tt.addptr %93, %4 : tensor<256x!tt.ptr<f32>>, tensor<256xi32> loc(#loc81)
    tt.store %94, %83, %5 : tensor<256x!tt.ptr<f32>> loc(#loc82)
    %95 = tt.splat %arg8 : !tt.ptr<f32> -> tensor<256x!tt.ptr<f32>> loc(#loc83)
    %96 = tt.addptr %95, %4 : tensor<256x!tt.ptr<f32>>, tensor<256xi32> loc(#loc83)
    tt.store %96, %92, %5 : tensor<256x!tt.ptr<f32>> loc(#loc84)
    tt.return loc(#loc85)
  } loc(#loc)
} loc(#loc)
#loc1 = loc(unknown)
#loc2 = loc("inductor_cache/e3/ce3n5t42wknykpmronaszx576l2lh6m5dtngiqxcvwc236snad76.py":21:28)
#loc3 = loc("inductor_cache/e3/ce3n5t42wknykpmronaszx576l2lh6m5dtngiqxcvwc236snad76.py":21:33)
#loc4 = loc("inductor_cache/e3/ce3n5t42wknykpmronaszx576l2lh6m5dtngiqxcvwc236snad76.py":22:36)
#loc5 = loc("inductor_cache/e3/ce3n5t42wknykpmronaszx576l2lh6m5dtngiqxcvwc236snad76.py":22:23)
#loc6 = loc("inductor_cache/e3/ce3n5t42wknykpmronaszx576l2lh6m5dtngiqxcvwc236snad76.py":23:21)
#loc7 = loc("inductor_cache/e3/ce3n5t42wknykpmronaszx576l2lh6m5dtngiqxcvwc236snad76.py":24:21)
#loc8 = loc("inductor_cache/e3/ce3n5t42wknykpmronaszx576l2lh6m5dtngiqxcvwc236snad76.py":24:27)
#loc9 = loc("inductor_cache/e3/ce3n5t42wknykpmronaszx576l2lh6m5dtngiqxcvwc236snad76.py":25:19)
#loc10 = loc("inductor_cache/e3/ce3n5t42wknykpmronaszx576l2lh6m5dtngiqxcvwc236snad76.py":26:21)
#loc11 = loc("inductor_cache/e3/ce3n5t42wknykpmronaszx576l2lh6m5dtngiqxcvwc236snad76.py":26:26)
#loc12 = loc("inductor_cache/e3/ce3n5t42wknykpmronaszx576l2lh6m5dtngiqxcvwc236snad76.py":27:19)
#loc13 = loc("inductor_cache/e3/ce3n5t42wknykpmronaszx576l2lh6m5dtngiqxcvwc236snad76.py":28:19)
#loc14 = loc("inductor_cache/e3/ce3n5t42wknykpmronaszx576l2lh6m5dtngiqxcvwc236snad76.py":30:31)
#loc15 = loc("inductor_cache/e3/ce3n5t42wknykpmronaszx576l2lh6m5dtngiqxcvwc236snad76.py":30:36)
#loc16 = loc("inductor_cache/e3/ce3n5t42wknykpmronaszx576l2lh6m5dtngiqxcvwc236snad76.py":31:31)
#loc17 = loc("inductor_cache/e3/ce3n5t42wknykpmronaszx576l2lh6m5dtngiqxcvwc236snad76.py":31:36)
#loc18 = loc("inductor_cache/e3/ce3n5t42wknykpmronaszx576l2lh6m5dtngiqxcvwc236snad76.py":32:31)
#loc19 = loc("inductor_cache/e3/ce3n5t42wknykpmronaszx576l2lh6m5dtngiqxcvwc236snad76.py":32:36)
#loc20 = loc("inductor_cache/e3/ce3n5t42wknykpmronaszx576l2lh6m5dtngiqxcvwc236snad76.py":33:31)
#loc21 = loc("inductor_cache/e3/ce3n5t42wknykpmronaszx576l2lh6m5dtngiqxcvwc236snad76.py":33:36)
#loc22 = loc("inductor_cache/e3/ce3n5t42wknykpmronaszx576l2lh6m5dtngiqxcvwc236snad76.py":38:18)
#loc23 = loc("inductor_cache/e3/ce3n5t42wknykpmronaszx576l2lh6m5dtngiqxcvwc236snad76.py":39:32)
#loc24 = loc("inductor_cache/e3/ce3n5t42wknykpmronaszx576l2lh6m5dtngiqxcvwc236snad76.py":39:40)
#loc25 = loc("inductor_cache/e3/ce3n5t42wknykpmronaszx576l2lh6m5dtngiqxcvwc236snad76.py":39:37)
#loc26 = loc("inductor_cache/e3/ce3n5t42wknykpmronaszx576l2lh6m5dtngiqxcvwc236snad76.py":39:49)
#loc27 = loc("inductor_cache/e3/ce3n5t42wknykpmronaszx576l2lh6m5dtngiqxcvwc236snad76.py":39:45)
#loc28 = loc("inductor_cache/e3/ce3n5t42wknykpmronaszx576l2lh6m5dtngiqxcvwc236snad76.py":39:60)
#loc29 = loc("inductor_cache/e3/ce3n5t42wknykpmronaszx576l2lh6m5dtngiqxcvwc236snad76.py":39:55)
#loc30 = loc("inductor_cache/e3/ce3n5t42wknykpmronaszx576l2lh6m5dtngiqxcvwc236snad76.py":39:30)
#loc31 = loc("inductor_cache/e3/ce3n5t42wknykpmronaszx576l2lh6m5dtngiqxcvwc236snad76.py":39:72)
#loc32 = loc("inductor_cache/e3/ce3n5t42wknykpmronaszx576l2lh6m5dtngiqxcvwc236snad76.py":39:65)
#loc33 = loc("inductor_cache/e3/ce3n5t42wknykpmronaszx576l2lh6m5dtngiqxcvwc236snad76.py":40:34)
#loc34 = loc("inductor_cache/e3/ce3n5t42wknykpmronaszx576l2lh6m5dtngiqxcvwc236snad76.py":40:41)
#loc35 = loc("inductor_cache/e3/ce3n5t42wknykpmronaszx576l2lh6m5dtngiqxcvwc236snad76.py":40:49)
#loc36 = loc("inductor_cache/e3/ce3n5t42wknykpmronaszx576l2lh6m5dtngiqxcvwc236snad76.py":40:59)
#loc37 = loc("inductor_cache/e3/ce3n5t42wknykpmronaszx576l2lh6m5dtngiqxcvwc236snad76.py":40:30)
#loc38 = loc("inductor_cache/e3/ce3n5t42wknykpmronaszx576l2lh6m5dtngiqxcvwc236snad76.py":40:69)
#loc39 = loc("/home/sahanp/.conda/envs/parity-bench/lib/python3.12/site-packages/torch/_inductor/runtime/triton_helpers.py":118:15)
#loc40 = loc("inductor_cache/e3/ce3n5t42wknykpmronaszx576l2lh6m5dtngiqxcvwc236snad76.py":41:40)
#loc41 = loc("/home/sahanp/.conda/envs/parity-bench/lib/python3.12/site-packages/torch/_inductor/runtime/triton_helpers.py":120:21)
#loc42 = loc("/home/sahanp/.conda/envs/parity-bench/lib/python3.12/site-packages/torch/_inductor/runtime/triton_helpers.py":120:16)
#loc43 = loc("/home/sahanp/.conda/envs/parity-bench/lib/python3.12/site-packages/torch/_inductor/runtime/triton_helpers.py":121:29)
#loc44 = loc("inductor_cache/e3/ce3n5t42wknykpmronaszx576l2lh6m5dtngiqxcvwc236snad76.py":42:34)
#loc45 = loc("inductor_cache/e3/ce3n5t42wknykpmronaszx576l2lh6m5dtngiqxcvwc236snad76.py":42:41)
#loc46 = loc("inductor_cache/e3/ce3n5t42wknykpmronaszx576l2lh6m5dtngiqxcvwc236snad76.py":42:49)
#loc47 = loc("inductor_cache/e3/ce3n5t42wknykpmronaszx576l2lh6m5dtngiqxcvwc236snad76.py":42:59)
#loc48 = loc("inductor_cache/e3/ce3n5t42wknykpmronaszx576l2lh6m5dtngiqxcvwc236snad76.py":42:30)
#loc49 = loc("inductor_cache/e3/ce3n5t42wknykpmronaszx576l2lh6m5dtngiqxcvwc236snad76.py":42:69)
#loc50 = loc("inductor_cache/e3/ce3n5t42wknykpmronaszx576l2lh6m5dtngiqxcvwc236snad76.py":43:40)
#loc51 = loc("inductor_cache/e3/ce3n5t42wknykpmronaszx576l2lh6m5dtngiqxcvwc236snad76.py":44:35)
#loc52 = loc("inductor_cache/e3/ce3n5t42wknykpmronaszx576l2lh6m5dtngiqxcvwc236snad76.py":44:42)
#loc53 = loc("inductor_cache/e3/ce3n5t42wknykpmronaszx576l2lh6m5dtngiqxcvwc236snad76.py":44:50)
#loc54 = loc("inductor_cache/e3/ce3n5t42wknykpmronaszx576l2lh6m5dtngiqxcvwc236snad76.py":44:60)
#loc55 = loc("inductor_cache/e3/ce3n5t42wknykpmronaszx576l2lh6m5dtngiqxcvwc236snad76.py":44:31)
#loc56 = loc("inductor_cache/e3/ce3n5t42wknykpmronaszx576l2lh6m5dtngiqxcvwc236snad76.py":44:70)
#loc57 = loc("inductor_cache/e3/ce3n5t42wknykpmronaszx576l2lh6m5dtngiqxcvwc236snad76.py":45:42)
#loc58 = loc("inductor_cache/e3/ce3n5t42wknykpmronaszx576l2lh6m5dtngiqxcvwc236snad76.py":48:20)
#loc59 = loc("inductor_cache/e3/ce3n5t42wknykpmronaszx576l2lh6m5dtngiqxcvwc236snad76.py":51:48)
#loc60 = loc("inductor_cache/e3/ce3n5t42wknykpmronaszx576l2lh6m5dtngiqxcvwc236snad76.py":51:40)
#loc61 = loc("inductor_cache/e3/ce3n5t42wknykpmronaszx576l2lh6m5dtngiqxcvwc236snad76.py":51:36)
#loc62 = loc("inductor_cache/e3/ce3n5t42wknykpmronaszx576l2lh6m5dtngiqxcvwc236snad76.py":51:57)
#loc63 = loc("inductor_cache/e3/ce3n5t42wknykpmronaszx576l2lh6m5dtngiqxcvwc236snad76.py":51:54)
#loc64 = loc("inductor_cache/e3/ce3n5t42wknykpmronaszx576l2lh6m5dtngiqxcvwc236snad76.py":51:31)
#loc65 = loc("inductor_cache/e3/ce3n5t42wknykpmronaszx576l2lh6m5dtngiqxcvwc236snad76.py":51:70)
#loc66 = loc("inductor_cache/e3/ce3n5t42wknykpmronaszx576l2lh6m5dtngiqxcvwc236snad76.py":51:62)
#loc67 = loc("inductor_cache/e3/ce3n5t42wknykpmronaszx576l2lh6m5dtngiqxcvwc236snad76.py":52:31)
#loc68 = loc("inductor_cache/e3/ce3n5t42wknykpmronaszx576l2lh6m5dtngiqxcvwc236snad76.py":52:44)
#loc69 = loc("inductor_cache/e3/ce3n5t42wknykpmronaszx576l2lh6m5dtngiqxcvwc236snad76.py":53:20)
#loc70 = loc("inductor_cache/e3/ce3n5t42wknykpmronaszx576l2lh6m5dtngiqxcvwc236snad76.py":55:35)
#loc71 = loc("inductor_cache/e3/ce3n5t42wknykpmronaszx576l2lh6m5dtngiqxcvwc236snad76.py":56:34)
#loc72 = loc("inductor_cache/e3/ce3n5t42wknykpmronaszx576l2lh6m5dtngiqxcvwc236snad76.py":47:34)
#loc73 = loc("inductor_cache/e3/ce3n5t42wknykpmronaszx576l2lh6m5dtngiqxcvwc236snad76.py":57:20)
#loc74 = loc("inductor_cache/e3/ce3n5t42wknykpmronaszx576l2lh6m5dtngiqxcvwc236snad76.py":59:20)
#loc75 = loc("inductor_cache/e3/ce3n5t42wknykpmronaszx576l2lh6m5dtngiqxcvwc236snad76.py":60:27)
#loc76 = loc("inductor_cache/e3/ce3n5t42wknykpmronaszx576l2lh6m5dtngiqxcvwc236snad76.py":62:20)
#loc77 = loc("inductor_cache/e3/ce3n5t42wknykpmronaszx576l2lh6m5dtngiqxcvwc236snad76.py":65:20)
#loc78 = loc("inductor_cache/e3/ce3n5t42wknykpmronaszx576l2lh6m5dtngiqxcvwc236snad76.py":66:20)
#loc79 = loc("inductor_cache/e3/ce3n5t42wknykpmronaszx576l2lh6m5dtngiqxcvwc236snad76.py":67:20)
#loc80 = loc("inductor_cache/e3/ce3n5t42wknykpmronaszx576l2lh6m5dtngiqxcvwc236snad76.py":69:42)
#loc81 = loc("inductor_cache/e3/ce3n5t42wknykpmronaszx576l2lh6m5dtngiqxcvwc236snad76.py":70:25)
#loc82 = loc("inductor_cache/e3/ce3n5t42wknykpmronaszx576l2lh6m5dtngiqxcvwc236snad76.py":70:37)
#loc83 = loc("inductor_cache/e3/ce3n5t42wknykpmronaszx576l2lh6m5dtngiqxcvwc236snad76.py":71:25)
#loc84 = loc("inductor_cache/e3/ce3n5t42wknykpmronaszx576l2lh6m5dtngiqxcvwc236snad76.py":71:37)
#loc85 = loc("inductor_cache/e3/ce3n5t42wknykpmronaszx576l2lh6m5dtngiqxcvwc236snad76.py":71:4)
#loc86 = loc(callsite(#loc39 at #loc40))
#loc87 = loc(callsite(#loc41 at #loc40))
#loc88 = loc(callsite(#loc42 at #loc40))
#loc89 = loc(callsite(#loc43 at #loc40))
#loc90 = loc(callsite(#loc39 at #loc50))
#loc91 = loc(callsite(#loc41 at #loc50))
#loc92 = loc(callsite(#loc42 at #loc50))
#loc93 = loc(callsite(#loc43 at #loc50))
#loc94 = loc(callsite(#loc39 at #loc57))
#loc95 = loc(callsite(#loc41 at #loc57))
#loc96 = loc(callsite(#loc42 at #loc57))
#loc97 = loc(callsite(#loc43 at #loc57))
#loc98 = loc(fused[#loc71, #loc72])
#loc99 = loc(callsite(#loc39 at #loc80))
#loc100 = loc(callsite(#loc43 at #loc80))
