#loc = loc("inductor_cache/za/czak63alvi3ubf3fdihufjxxfoxqfewqkta2vfnn6k3kcxawmpsy.py":19:0)
module {
  tt.func public @triton_poi_fused__native_batch_norm_legit_no_training_add_convolution_relu_18(%arg0: !tt.ptr<f32> {tt.divisibility = 16 : i32} loc("inductor_cache/za/czak63alvi3ubf3fdihufjxxfoxqfewqkta2vfnn6k3kcxawmpsy.py":19:0), %arg1: !tt.ptr<f32> {tt.divisibility = 16 : i32} loc("inductor_cache/za/czak63alvi3ubf3fdihufjxxfoxqfewqkta2vfnn6k3kcxawmpsy.py":19:0), %arg2: !tt.ptr<f32> {tt.divisibility = 16 : i32} loc("inductor_cache/za/czak63alvi3ubf3fdihufjxxfoxqfewqkta2vfnn6k3kcxawmpsy.py":19:0), %arg3: !tt.ptr<f32> {tt.divisibility = 16 : i32} loc("inductor_cache/za/czak63alvi3ubf3fdihufjxxfoxqfewqkta2vfnn6k3kcxawmpsy.py":19:0), %arg4: !tt.ptr<f32> {tt.divisibility = 16 : i32} loc("inductor_cache/za/czak63alvi3ubf3fdihufjxxfoxqfewqkta2vfnn6k3kcxawmpsy.py":19:0), %arg5: !tt.ptr<f32> {tt.divisibility = 16 : i32} loc("inductor_cache/za/czak63alvi3ubf3fdihufjxxfoxqfewqkta2vfnn6k3kcxawmpsy.py":19:0), %arg6: !tt.ptr<f32> {tt.divisibility = 16 : i32} loc("inductor_cache/za/czak63alvi3ubf3fdihufjxxfoxqfewqkta2vfnn6k3kcxawmpsy.py":19:0), %arg7: !tt.ptr<f32> {tt.divisibility = 16 : i32} loc("inductor_cache/za/czak63alvi3ubf3fdihufjxxfoxqfewqkta2vfnn6k3kcxawmpsy.py":19:0), %arg8: i32 {tt.divisibility = 16 : i32} loc("inductor_cache/za/czak63alvi3ubf3fdihufjxxfoxqfewqkta2vfnn6k3kcxawmpsy.py":19:0)) attributes {noinline = false} {
    %cst = arith.constant dense<0.000000e+00> : tensor<128xf32> loc(#loc1)
    %cst_0 = arith.constant dense<1.000000e+00> : tensor<128xf32> loc(#loc1)
    %cst_1 = arith.constant dense<9.99999974E-6> : tensor<128xf32> loc(#loc1)
    %cst_2 = arith.constant dense<128> : tensor<128xi32> loc(#loc1)
    %c128_i32 = arith.constant 128 : i32 loc(#loc1)
    %0 = tt.get_program_id x : i32 loc(#loc2)
    %1 = arith.muli %0, %c128_i32 : i32 loc(#loc3)
    %2 = tt.make_range {end = 128 : i32, start = 0 : i32} : tensor<128xi32> loc(#loc4)
    %3 = tt.splat %1 : i32 -> tensor<128xi32> loc(#loc5)
    %4 = arith.addi %3, %2 : tensor<128xi32> loc(#loc5)
    %5 = arith.remsi %4, %cst_2 : tensor<128xi32> loc(#loc6)
    %6 = tt.splat %arg0 : !tt.ptr<f32> -> tensor<128x!tt.ptr<f32>> loc(#loc7)
    %7 = tt.addptr %6, %4 : tensor<128x!tt.ptr<f32>>, tensor<128xi32> loc(#loc7)
    %8 = tt.load %7 : tensor<128x!tt.ptr<f32>> loc(#loc8)
    %9 = tt.splat %arg1 : !tt.ptr<f32> -> tensor<128x!tt.ptr<f32>> loc(#loc9)
    %10 = tt.addptr %9, %5 : tensor<128x!tt.ptr<f32>>, tensor<128xi32> loc(#loc9)
    %11 = tt.load %10 evictionPolicy = evict_last : tensor<128x!tt.ptr<f32>> loc(#loc10)
    %12 = tt.splat %arg2 : !tt.ptr<f32> -> tensor<128x!tt.ptr<f32>> loc(#loc11)
    %13 = tt.addptr %12, %4 : tensor<128x!tt.ptr<f32>>, tensor<128xi32> loc(#loc11)
    %14 = tt.load %13 : tensor<128x!tt.ptr<f32>> loc(#loc12)
    %15 = tt.splat %arg3 : !tt.ptr<f32> -> tensor<128x!tt.ptr<f32>> loc(#loc13)
    %16 = tt.addptr %15, %5 : tensor<128x!tt.ptr<f32>>, tensor<128xi32> loc(#loc13)
    %17 = tt.load %16 evictionPolicy = evict_last : tensor<128x!tt.ptr<f32>> loc(#loc14)
    %18 = tt.splat %arg4 : !tt.ptr<f32> -> tensor<128x!tt.ptr<f32>> loc(#loc15)
    %19 = tt.addptr %18, %5 : tensor<128x!tt.ptr<f32>>, tensor<128xi32> loc(#loc15)
    %20 = tt.load %19 evictionPolicy = evict_last : tensor<128x!tt.ptr<f32>> loc(#loc16)
    %21 = tt.splat %arg5 : !tt.ptr<f32> -> tensor<128x!tt.ptr<f32>> loc(#loc17)
    %22 = tt.addptr %21, %5 : tensor<128x!tt.ptr<f32>>, tensor<128xi32> loc(#loc17)
    %23 = tt.load %22 evictionPolicy = evict_last : tensor<128x!tt.ptr<f32>> loc(#loc18)
    %24 = tt.splat %arg6 : !tt.ptr<f32> -> tensor<128x!tt.ptr<f32>> loc(#loc19)
    %25 = tt.addptr %24, %5 : tensor<128x!tt.ptr<f32>>, tensor<128xi32> loc(#loc19)
    %26 = tt.load %25 evictionPolicy = evict_last : tensor<128x!tt.ptr<f32>> loc(#loc20)
    %27 = arith.addf %8, %11 : tensor<128xf32> loc(#loc21)
    %28 = arith.subf %27, %17 : tensor<128xf32> loc(#loc22)
    %29 = arith.addf %20, %cst_1 : tensor<128xf32> loc(#loc23)
    %30 = tt.extern_elementwise %29 {libname = "", libpath = "", pure = true, symbol = "__nv_sqrtf"} : (tensor<128xf32>) -> tensor<128xf32> loc(#loc24)
    %31 = arith.divf %cst_0, %30 : tensor<128xf32> loc(#loc25)
    %32 = arith.mulf %28, %31 : tensor<128xf32> loc(#loc26)
    %33 = arith.mulf %32, %23 : tensor<128xf32> loc(#loc27)
    %34 = arith.addf %33, %26 : tensor<128xf32> loc(#loc28)
    %35 = arith.cmpf ogt, %cst, %34 : tensor<128xf32> loc(#loc37)
    %36 = arith.select %35, %cst, %34 : tensor<128xi1>, tensor<128xf32> loc(#loc38)
    %37 = arith.addf %14, %36 : tensor<128xf32> loc(#loc32)
    tt.store %7, %27 : tensor<128x!tt.ptr<f32>> loc(#loc33)
    %38 = tt.splat %arg7 : !tt.ptr<f32> -> tensor<128x!tt.ptr<f32>> loc(#loc34)
    %39 = tt.addptr %38, %4 : tensor<128x!tt.ptr<f32>>, tensor<128xi32> loc(#loc34)
    tt.store %39, %37 : tensor<128x!tt.ptr<f32>> loc(#loc35)
    tt.return loc(#loc36)
  } loc(#loc)
} loc(#loc)
#loc1 = loc(unknown)
#loc2 = loc("inductor_cache/za/czak63alvi3ubf3fdihufjxxfoxqfewqkta2vfnn6k3kcxawmpsy.py":21:28)
#loc3 = loc("inductor_cache/za/czak63alvi3ubf3fdihufjxxfoxqfewqkta2vfnn6k3kcxawmpsy.py":21:33)
#loc4 = loc("inductor_cache/za/czak63alvi3ubf3fdihufjxxfoxqfewqkta2vfnn6k3kcxawmpsy.py":22:36)
#loc5 = loc("inductor_cache/za/czak63alvi3ubf3fdihufjxxfoxqfewqkta2vfnn6k3kcxawmpsy.py":22:23)
#loc6 = loc("inductor_cache/za/czak63alvi3ubf3fdihufjxxfoxqfewqkta2vfnn6k3kcxawmpsy.py":25:19)
#loc7 = loc("inductor_cache/za/czak63alvi3ubf3fdihufjxxfoxqfewqkta2vfnn6k3kcxawmpsy.py":26:34)
#loc8 = loc("inductor_cache/za/czak63alvi3ubf3fdihufjxxfoxqfewqkta2vfnn6k3kcxawmpsy.py":26:39)
#loc9 = loc("inductor_cache/za/czak63alvi3ubf3fdihufjxxfoxqfewqkta2vfnn6k3kcxawmpsy.py":27:30)
#loc10 = loc("inductor_cache/za/czak63alvi3ubf3fdihufjxxfoxqfewqkta2vfnn6k3kcxawmpsy.py":27:35)
#loc11 = loc("inductor_cache/za/czak63alvi3ubf3fdihufjxxfoxqfewqkta2vfnn6k3kcxawmpsy.py":28:30)
#loc12 = loc("inductor_cache/za/czak63alvi3ubf3fdihufjxxfoxqfewqkta2vfnn6k3kcxawmpsy.py":28:35)
#loc13 = loc("inductor_cache/za/czak63alvi3ubf3fdihufjxxfoxqfewqkta2vfnn6k3kcxawmpsy.py":29:30)
#loc14 = loc("inductor_cache/za/czak63alvi3ubf3fdihufjxxfoxqfewqkta2vfnn6k3kcxawmpsy.py":29:35)
#loc15 = loc("inductor_cache/za/czak63alvi3ubf3fdihufjxxfoxqfewqkta2vfnn6k3kcxawmpsy.py":30:30)
#loc16 = loc("inductor_cache/za/czak63alvi3ubf3fdihufjxxfoxqfewqkta2vfnn6k3kcxawmpsy.py":30:35)
#loc17 = loc("inductor_cache/za/czak63alvi3ubf3fdihufjxxfoxqfewqkta2vfnn6k3kcxawmpsy.py":31:31)
#loc18 = loc("inductor_cache/za/czak63alvi3ubf3fdihufjxxfoxqfewqkta2vfnn6k3kcxawmpsy.py":31:36)
#loc19 = loc("inductor_cache/za/czak63alvi3ubf3fdihufjxxfoxqfewqkta2vfnn6k3kcxawmpsy.py":32:31)
#loc20 = loc("inductor_cache/za/czak63alvi3ubf3fdihufjxxfoxqfewqkta2vfnn6k3kcxawmpsy.py":32:36)
#loc21 = loc("inductor_cache/za/czak63alvi3ubf3fdihufjxxfoxqfewqkta2vfnn6k3kcxawmpsy.py":33:18)
#loc22 = loc("inductor_cache/za/czak63alvi3ubf3fdihufjxxfoxqfewqkta2vfnn6k3kcxawmpsy.py":34:18)
#loc23 = loc("inductor_cache/za/czak63alvi3ubf3fdihufjxxfoxqfewqkta2vfnn6k3kcxawmpsy.py":36:18)
#loc24 = loc("inductor_cache/za/czak63alvi3ubf3fdihufjxxfoxqfewqkta2vfnn6k3kcxawmpsy.py":37:26)
#loc25 = loc("inductor_cache/za/czak63alvi3ubf3fdihufjxxfoxqfewqkta2vfnn6k3kcxawmpsy.py":39:20)
#loc26 = loc("inductor_cache/za/czak63alvi3ubf3fdihufjxxfoxqfewqkta2vfnn6k3kcxawmpsy.py":42:19)
#loc27 = loc("inductor_cache/za/czak63alvi3ubf3fdihufjxxfoxqfewqkta2vfnn6k3kcxawmpsy.py":43:20)
#loc28 = loc("inductor_cache/za/czak63alvi3ubf3fdihufjxxfoxqfewqkta2vfnn6k3kcxawmpsy.py":44:20)
#loc29 = loc("/home/sahanp/.conda/envs/parity-bench/lib/python3.12/site-packages/torch/_inductor/runtime/triton_helpers.py":118:15)
#loc30 = loc("inductor_cache/za/czak63alvi3ubf3fdihufjxxfoxqfewqkta2vfnn6k3kcxawmpsy.py":46:42)
#loc31 = loc("/home/sahanp/.conda/envs/parity-bench/lib/python3.12/site-packages/torch/_inductor/runtime/triton_helpers.py":121:29)
#loc32 = loc("inductor_cache/za/czak63alvi3ubf3fdihufjxxfoxqfewqkta2vfnn6k3kcxawmpsy.py":47:19)
#loc33 = loc("inductor_cache/za/czak63alvi3ubf3fdihufjxxfoxqfewqkta2vfnn6k3kcxawmpsy.py":48:39)
#loc34 = loc("inductor_cache/za/czak63alvi3ubf3fdihufjxxfoxqfewqkta2vfnn6k3kcxawmpsy.py":49:25)
#loc35 = loc("inductor_cache/za/czak63alvi3ubf3fdihufjxxfoxqfewqkta2vfnn6k3kcxawmpsy.py":49:37)
#loc36 = loc("inductor_cache/za/czak63alvi3ubf3fdihufjxxfoxqfewqkta2vfnn6k3kcxawmpsy.py":49:4)
#loc37 = loc(callsite(#loc29 at #loc30))
#loc38 = loc(callsite(#loc31 at #loc30))
