#loc = loc("inductor_cache/37/c37yslo6irp2kogg2sfjrhr5fa4arrpbfflfnpngxlrjoem7bojo.py":19:0)
module {
  tt.func public @triton_poi_fused_stack_0(%arg0: !tt.ptr<f32> {tt.divisibility = 16 : i32} loc("inductor_cache/37/c37yslo6irp2kogg2sfjrhr5fa4arrpbfflfnpngxlrjoem7bojo.py":19:0), %arg1: !tt.ptr<f32> {tt.divisibility = 16 : i32} loc("inductor_cache/37/c37yslo6irp2kogg2sfjrhr5fa4arrpbfflfnpngxlrjoem7bojo.py":19:0), %arg2: !tt.ptr<f32> {tt.divisibility = 16 : i32} loc("inductor_cache/37/c37yslo6irp2kogg2sfjrhr5fa4arrpbfflfnpngxlrjoem7bojo.py":19:0), %arg3: !tt.ptr<f32> {tt.divisibility = 16 : i32} loc("inductor_cache/37/c37yslo6irp2kogg2sfjrhr5fa4arrpbfflfnpngxlrjoem7bojo.py":19:0), %arg4: !tt.ptr<f32> {tt.divisibility = 16 : i32} loc("inductor_cache/37/c37yslo6irp2kogg2sfjrhr5fa4arrpbfflfnpngxlrjoem7bojo.py":19:0), %arg5: !tt.ptr<f32> {tt.divisibility = 16 : i32} loc("inductor_cache/37/c37yslo6irp2kogg2sfjrhr5fa4arrpbfflfnpngxlrjoem7bojo.py":19:0), %arg6: !tt.ptr<f32> {tt.divisibility = 16 : i32} loc("inductor_cache/37/c37yslo6irp2kogg2sfjrhr5fa4arrpbfflfnpngxlrjoem7bojo.py":19:0), %arg7: !tt.ptr<f32> {tt.divisibility = 16 : i32} loc("inductor_cache/37/c37yslo6irp2kogg2sfjrhr5fa4arrpbfflfnpngxlrjoem7bojo.py":19:0), %arg8: !tt.ptr<f32> {tt.divisibility = 16 : i32} loc("inductor_cache/37/c37yslo6irp2kogg2sfjrhr5fa4arrpbfflfnpngxlrjoem7bojo.py":19:0), %arg9: !tt.ptr<f32> {tt.divisibility = 16 : i32} loc("inductor_cache/37/c37yslo6irp2kogg2sfjrhr5fa4arrpbfflfnpngxlrjoem7bojo.py":19:0), %arg10: !tt.ptr<f32> {tt.divisibility = 16 : i32} loc("inductor_cache/37/c37yslo6irp2kogg2sfjrhr5fa4arrpbfflfnpngxlrjoem7bojo.py":19:0), %arg11: !tt.ptr<f32> {tt.divisibility = 16 : i32} loc("inductor_cache/37/c37yslo6irp2kogg2sfjrhr5fa4arrpbfflfnpngxlrjoem7bojo.py":19:0), %arg12: i32 {tt.divisibility = 16 : i32} loc("inductor_cache/37/c37yslo6irp2kogg2sfjrhr5fa4arrpbfflfnpngxlrjoem7bojo.py":19:0)) attributes {noinline = false} {
    %cst = arith.constant dense<1.000000e+00> : tensor<128xf32> loc(#loc1)
    %cst_0 = arith.constant dense<-12> : tensor<128xi32> loc(#loc1)
    %cst_1 = arith.constant dense<192> : tensor<128xi32> loc(#loc1)
    %cst_2 = arith.constant dense<-8> : tensor<128xi32> loc(#loc1)
    %cst_3 = arith.constant dense<128> : tensor<128xi32> loc(#loc1)
    %cst_4 = arith.constant dense<12> : tensor<128xi64> loc(#loc1)
    %cst_5 = arith.constant dense<-4> : tensor<128xi32> loc(#loc1)
    %cst_6 = arith.constant dense<64> : tensor<128xi32> loc(#loc1)
    %cst_7 = arith.constant dense<8> : tensor<128xi64> loc(#loc1)
    %cst_8 = arith.constant dense<9.99999974E-6> : tensor<128xf32> loc(#loc1)
    %cst_9 = arith.constant dense<0.000000e+00> : tensor<128xf32> loc(#loc1)
    %cst_10 = arith.constant dense<4> : tensor<128xi64> loc(#loc1)
    %cst_11 = arith.constant dense<4> : tensor<128xi32> loc(#loc1)
    %cst_12 = arith.constant dense<16> : tensor<128xi32> loc(#loc1)
    %cst_13 = arith.constant dense<256> : tensor<128xi32> loc(#loc1)
    %c128_i32 = arith.constant 128 : i32 loc(#loc1)
    %0 = tt.get_program_id x : i32 loc(#loc2)
    %1 = arith.muli %0, %c128_i32 : i32 loc(#loc3)
    %2 = tt.make_range {end = 128 : i32, start = 0 : i32} : tensor<128xi32> loc(#loc4)
    %3 = tt.splat %1 : i32 -> tensor<128xi32> loc(#loc5)
    %4 = arith.addi %3, %2 : tensor<128xi32> loc(#loc5)
    %5 = arith.cmpi slt, %4, %cst_13 : tensor<128xi32> loc(#loc6)
    %6 = arith.divsi %4, %cst_12 : tensor<128xi32> loc(#loc7)
    %7 = arith.remsi %4, %cst_12 : tensor<128xi32> loc(#loc8)
    %8 = arith.divsi %4, %cst_11 : tensor<128xi32> loc(#loc9)
    %9 = arith.remsi %8, %cst_11 : tensor<128xi32> loc(#loc10)
    %10 = arith.extsi %6 : tensor<128xi32> to tensor<128xi64> loc(#loc11)
    %11 = arith.cmpi slt, %10, %cst_10 : tensor<128xi64> loc(#loc11)
    %12 = arith.muli %6, %cst_12 : tensor<128xi32> loc(#loc12)
    %13 = arith.addi %7, %12 : tensor<128xi32> loc(#loc13)
    %14 = tt.splat %arg0 : !tt.ptr<f32> -> tensor<128x!tt.ptr<f32>> loc(#loc14)
    %15 = tt.addptr %14, %13 : tensor<128x!tt.ptr<f32>>, tensor<128xi32> loc(#loc14)
    %16 = arith.andi %11, %5 : tensor<128xi1> loc(#loc15)
    %17 = tt.load %15, %16, %cst_9 : tensor<128x!tt.ptr<f32>> loc(#loc16)
    %18 = tt.splat %arg1 : !tt.ptr<f32> -> tensor<128x!tt.ptr<f32>> loc(#loc17)
    %19 = tt.addptr %18, %9 : tensor<128x!tt.ptr<f32>>, tensor<128xi32> loc(#loc17)
    %20 = tt.load %19, %16, %cst_9 evictionPolicy = evict_last : tensor<128x!tt.ptr<f32>> loc(#loc18)
    %21 = arith.subf %17, %20 : tensor<128xf32> loc(#loc19)
    %22 = tt.splat %arg2 : !tt.ptr<f32> -> tensor<128x!tt.ptr<f32>> loc(#loc20)
    %23 = tt.addptr %22, %9 : tensor<128x!tt.ptr<f32>>, tensor<128xi32> loc(#loc20)
    %24 = tt.load %23, %16, %cst_9 evictionPolicy = evict_last : tensor<128x!tt.ptr<f32>> loc(#loc21)
    %25 = arith.addf %24, %cst_8 : tensor<128xf32> loc(#loc22)
    %26 = tt.extern_elementwise %25 {libname = "", libpath = "", pure = true, symbol = "__nv_sqrtf"} : (tensor<128xf32>) -> tensor<128xf32> loc(#loc23)
    %27 = arith.divf %cst, %26 : tensor<128xf32> loc(#loc24)
    %28 = arith.mulf %21, %27 : tensor<128xf32> loc(#loc25)
    %29 = tt.splat %arg3 : !tt.ptr<f32> -> tensor<128x!tt.ptr<f32>> loc(#loc26)
    %30 = tt.addptr %29, %9 : tensor<128x!tt.ptr<f32>>, tensor<128xi32> loc(#loc26)
    %31 = tt.load %30, %16, %cst_9 evictionPolicy = evict_last : tensor<128x!tt.ptr<f32>> loc(#loc27)
    %32 = arith.mulf %28, %31 : tensor<128xf32> loc(#loc28)
    %33 = tt.splat %arg4 : !tt.ptr<f32> -> tensor<128x!tt.ptr<f32>> loc(#loc29)
    %34 = tt.addptr %33, %9 : tensor<128x!tt.ptr<f32>>, tensor<128xi32> loc(#loc29)
    %35 = tt.load %34, %16, %cst_9 evictionPolicy = evict_last : tensor<128x!tt.ptr<f32>> loc(#loc30)
    %36 = arith.addf %32, %35 : tensor<128xf32> loc(#loc31)
    %37 = arith.cmpi sge, %10, %cst_10 : tensor<128xi64> loc(#loc32)
    %38 = arith.cmpi slt, %10, %cst_7 : tensor<128xi64> loc(#loc33)
    %39 = arith.andi %37, %38 : tensor<128xi1> loc(#loc34)
    %40 = arith.addi %7, %cst_6 : tensor<128xi32> loc(#loc35)
    %41 = arith.addi %6, %cst_5 : tensor<128xi32> loc(#loc36)
    %42 = arith.muli %41, %cst_12 : tensor<128xi32> loc(#loc37)
    %43 = arith.addi %40, %42 : tensor<128xi32> loc(#loc38)
    %44 = tt.addptr %14, %43 : tensor<128x!tt.ptr<f32>>, tensor<128xi32> loc(#loc39)
    %45 = arith.andi %39, %5 : tensor<128xi1> loc(#loc40)
    %46 = tt.load %44, %45, %cst_9 : tensor<128x!tt.ptr<f32>> loc(#loc41)
    %47 = tt.splat %arg5 : !tt.ptr<f32> -> tensor<128x!tt.ptr<f32>> loc(#loc42)
    %48 = tt.addptr %47, %9 : tensor<128x!tt.ptr<f32>>, tensor<128xi32> loc(#loc42)
    %49 = tt.load %48, %45, %cst_9 evictionPolicy = evict_last : tensor<128x!tt.ptr<f32>> loc(#loc43)
    %50 = arith.subf %46, %49 : tensor<128xf32> loc(#loc44)
    %51 = tt.splat %arg6 : !tt.ptr<f32> -> tensor<128x!tt.ptr<f32>> loc(#loc45)
    %52 = tt.addptr %51, %9 : tensor<128x!tt.ptr<f32>>, tensor<128xi32> loc(#loc45)
    %53 = tt.load %52, %45, %cst_9 evictionPolicy = evict_last : tensor<128x!tt.ptr<f32>> loc(#loc46)
    %54 = arith.addf %53, %cst_8 : tensor<128xf32> loc(#loc47)
    %55 = tt.extern_elementwise %54 {libname = "", libpath = "", pure = true, symbol = "__nv_sqrtf"} : (tensor<128xf32>) -> tensor<128xf32> loc(#loc48)
    %56 = arith.divf %cst, %55 : tensor<128xf32> loc(#loc49)
    %57 = arith.mulf %50, %56 : tensor<128xf32> loc(#loc50)
    %58 = tt.load %30, %45, %cst_9 evictionPolicy = evict_last : tensor<128x!tt.ptr<f32>> loc(#loc51)
    %59 = arith.mulf %57, %58 : tensor<128xf32> loc(#loc52)
    %60 = tt.load %34, %45, %cst_9 evictionPolicy = evict_last : tensor<128x!tt.ptr<f32>> loc(#loc53)
    %61 = arith.addf %59, %60 : tensor<128xf32> loc(#loc54)
    %62 = arith.cmpi sge, %10, %cst_7 : tensor<128xi64> loc(#loc55)
    %63 = arith.cmpi slt, %10, %cst_4 : tensor<128xi64> loc(#loc56)
    %64 = arith.andi %62, %63 : tensor<128xi1> loc(#loc57)
    %65 = arith.addi %7, %cst_3 : tensor<128xi32> loc(#loc58)
    %66 = arith.addi %6, %cst_2 : tensor<128xi32> loc(#loc59)
    %67 = arith.muli %66, %cst_12 : tensor<128xi32> loc(#loc60)
    %68 = arith.addi %65, %67 : tensor<128xi32> loc(#loc61)
    %69 = tt.addptr %14, %68 : tensor<128x!tt.ptr<f32>>, tensor<128xi32> loc(#loc62)
    %70 = arith.andi %64, %5 : tensor<128xi1> loc(#loc63)
    %71 = tt.load %69, %70, %cst_9 : tensor<128x!tt.ptr<f32>> loc(#loc64)
    %72 = tt.splat %arg7 : !tt.ptr<f32> -> tensor<128x!tt.ptr<f32>> loc(#loc65)
    %73 = tt.addptr %72, %9 : tensor<128x!tt.ptr<f32>>, tensor<128xi32> loc(#loc65)
    %74 = tt.load %73, %70, %cst_9 evictionPolicy = evict_last : tensor<128x!tt.ptr<f32>> loc(#loc66)
    %75 = arith.subf %71, %74 : tensor<128xf32> loc(#loc67)
    %76 = tt.splat %arg8 : !tt.ptr<f32> -> tensor<128x!tt.ptr<f32>> loc(#loc68)
    %77 = tt.addptr %76, %9 : tensor<128x!tt.ptr<f32>>, tensor<128xi32> loc(#loc68)
    %78 = tt.load %77, %70, %cst_9 evictionPolicy = evict_last : tensor<128x!tt.ptr<f32>> loc(#loc69)
    %79 = arith.addf %78, %cst_8 : tensor<128xf32> loc(#loc70)
    %80 = tt.extern_elementwise %79 {libname = "", libpath = "", pure = true, symbol = "__nv_sqrtf"} : (tensor<128xf32>) -> tensor<128xf32> loc(#loc71)
    %81 = arith.divf %cst, %80 : tensor<128xf32> loc(#loc72)
    %82 = arith.mulf %75, %81 : tensor<128xf32> loc(#loc73)
    %83 = tt.load %30, %70, %cst_9 evictionPolicy = evict_last : tensor<128x!tt.ptr<f32>> loc(#loc74)
    %84 = arith.mulf %82, %83 : tensor<128xf32> loc(#loc75)
    %85 = tt.load %34, %70, %cst_9 evictionPolicy = evict_last : tensor<128x!tt.ptr<f32>> loc(#loc76)
    %86 = arith.addf %84, %85 : tensor<128xf32> loc(#loc77)
    %87 = arith.cmpi sge, %10, %cst_4 : tensor<128xi64> loc(#loc78)
    %88 = arith.addi %7, %cst_1 : tensor<128xi32> loc(#loc79)
    %89 = arith.addi %6, %cst_0 : tensor<128xi32> loc(#loc80)
    %90 = arith.muli %89, %cst_12 : tensor<128xi32> loc(#loc81)
    %91 = arith.addi %88, %90 : tensor<128xi32> loc(#loc82)
    %92 = tt.addptr %14, %91 : tensor<128x!tt.ptr<f32>>, tensor<128xi32> loc(#loc83)
    %93 = arith.andi %87, %5 : tensor<128xi1> loc(#loc84)
    %94 = tt.load %92, %93, %cst_9 : tensor<128x!tt.ptr<f32>> loc(#loc85)
    %95 = tt.splat %arg9 : !tt.ptr<f32> -> tensor<128x!tt.ptr<f32>> loc(#loc86)
    %96 = tt.addptr %95, %9 : tensor<128x!tt.ptr<f32>>, tensor<128xi32> loc(#loc86)
    %97 = tt.load %96, %93, %cst_9 evictionPolicy = evict_last : tensor<128x!tt.ptr<f32>> loc(#loc87)
    %98 = arith.subf %94, %97 : tensor<128xf32> loc(#loc88)
    %99 = tt.splat %arg10 : !tt.ptr<f32> -> tensor<128x!tt.ptr<f32>> loc(#loc89)
    %100 = tt.addptr %99, %9 : tensor<128x!tt.ptr<f32>>, tensor<128xi32> loc(#loc89)
    %101 = tt.load %100, %93, %cst_9 evictionPolicy = evict_last : tensor<128x!tt.ptr<f32>> loc(#loc90)
    %102 = arith.addf %101, %cst_8 : tensor<128xf32> loc(#loc91)
    %103 = tt.extern_elementwise %102 {libname = "", libpath = "", pure = true, symbol = "__nv_sqrtf"} : (tensor<128xf32>) -> tensor<128xf32> loc(#loc92)
    %104 = arith.divf %cst, %103 : tensor<128xf32> loc(#loc93)
    %105 = arith.mulf %98, %104 : tensor<128xf32> loc(#loc94)
    %106 = tt.load %30, %93, %cst_9 evictionPolicy = evict_last : tensor<128x!tt.ptr<f32>> loc(#loc95)
    %107 = arith.mulf %105, %106 : tensor<128xf32> loc(#loc96)
    %108 = tt.load %34, %93, %cst_9 evictionPolicy = evict_last : tensor<128x!tt.ptr<f32>> loc(#loc97)
    %109 = arith.addf %107, %108 : tensor<128xf32> loc(#loc98)
    %110 = arith.select %87, %109, %cst_9 : tensor<128xi1>, tensor<128xf32> loc(#loc99)
    %111 = arith.select %64, %86, %110 : tensor<128xi1>, tensor<128xf32> loc(#loc109)
    %112 = arith.select %39, %61, %111 : tensor<128xi1>, tensor<128xf32> loc(#loc110)
    %113 = arith.select %11, %36, %112 : tensor<128xi1>, tensor<128xf32> loc(#loc111)
    %114 = tt.splat %arg11 : !tt.ptr<f32> -> tensor<128x!tt.ptr<f32>> loc(#loc106)
    %115 = tt.addptr %114, %4 : tensor<128x!tt.ptr<f32>>, tensor<128xi32> loc(#loc106)
    tt.store %115, %113, %5 : tensor<128x!tt.ptr<f32>> loc(#loc107)
    tt.return loc(#loc108)
  } loc(#loc)
} loc(#loc)
#loc1 = loc(unknown)
#loc2 = loc("inductor_cache/37/c37yslo6irp2kogg2sfjrhr5fa4arrpbfflfnpngxlrjoem7bojo.py":21:28)
#loc3 = loc("inductor_cache/37/c37yslo6irp2kogg2sfjrhr5fa4arrpbfflfnpngxlrjoem7bojo.py":21:33)
#loc4 = loc("inductor_cache/37/c37yslo6irp2kogg2sfjrhr5fa4arrpbfflfnpngxlrjoem7bojo.py":22:36)
#loc5 = loc("inductor_cache/37/c37yslo6irp2kogg2sfjrhr5fa4arrpbfflfnpngxlrjoem7bojo.py":22:23)
#loc6 = loc("inductor_cache/37/c37yslo6irp2kogg2sfjrhr5fa4arrpbfflfnpngxlrjoem7bojo.py":23:21)
#loc7 = loc("inductor_cache/37/c37yslo6irp2kogg2sfjrhr5fa4arrpbfflfnpngxlrjoem7bojo.py":24:19)
#loc8 = loc("inductor_cache/37/c37yslo6irp2kogg2sfjrhr5fa4arrpbfflfnpngxlrjoem7bojo.py":25:19)
#loc9 = loc("inductor_cache/37/c37yslo6irp2kogg2sfjrhr5fa4arrpbfflfnpngxlrjoem7bojo.py":26:21)
#loc10 = loc("inductor_cache/37/c37yslo6irp2kogg2sfjrhr5fa4arrpbfflfnpngxlrjoem7bojo.py":26:26)
#loc11 = loc("inductor_cache/37/c37yslo6irp2kogg2sfjrhr5fa4arrpbfflfnpngxlrjoem7bojo.py":32:18)
#loc12 = loc("inductor_cache/37/c37yslo6irp2kogg2sfjrhr5fa4arrpbfflfnpngxlrjoem7bojo.py":33:39)
#loc13 = loc("inductor_cache/37/c37yslo6irp2kogg2sfjrhr5fa4arrpbfflfnpngxlrjoem7bojo.py":33:35)
#loc14 = loc("inductor_cache/37/c37yslo6irp2kogg2sfjrhr5fa4arrpbfflfnpngxlrjoem7bojo.py":33:30)
#loc15 = loc("inductor_cache/37/c37yslo6irp2kogg2sfjrhr5fa4arrpbfflfnpngxlrjoem7bojo.py":33:52)
#loc16 = loc("inductor_cache/37/c37yslo6irp2kogg2sfjrhr5fa4arrpbfflfnpngxlrjoem7bojo.py":33:45)
#loc17 = loc("inductor_cache/37/c37yslo6irp2kogg2sfjrhr5fa4arrpbfflfnpngxlrjoem7bojo.py":34:30)
#loc18 = loc("inductor_cache/37/c37yslo6irp2kogg2sfjrhr5fa4arrpbfflfnpngxlrjoem7bojo.py":34:35)
#loc19 = loc("inductor_cache/37/c37yslo6irp2kogg2sfjrhr5fa4arrpbfflfnpngxlrjoem7bojo.py":35:18)
#loc20 = loc("inductor_cache/37/c37yslo6irp2kogg2sfjrhr5fa4arrpbfflfnpngxlrjoem7bojo.py":36:30)
#loc21 = loc("inductor_cache/37/c37yslo6irp2kogg2sfjrhr5fa4arrpbfflfnpngxlrjoem7bojo.py":36:35)
#loc22 = loc("inductor_cache/37/c37yslo6irp2kogg2sfjrhr5fa4arrpbfflfnpngxlrjoem7bojo.py":38:19)
#loc23 = loc("inductor_cache/37/c37yslo6irp2kogg2sfjrhr5fa4arrpbfflfnpngxlrjoem7bojo.py":39:27)
#loc24 = loc("inductor_cache/37/c37yslo6irp2kogg2sfjrhr5fa4arrpbfflfnpngxlrjoem7bojo.py":41:20)
#loc25 = loc("inductor_cache/37/c37yslo6irp2kogg2sfjrhr5fa4arrpbfflfnpngxlrjoem7bojo.py":44:19)
#loc26 = loc("inductor_cache/37/c37yslo6irp2kogg2sfjrhr5fa4arrpbfflfnpngxlrjoem7bojo.py":45:31)
#loc27 = loc("inductor_cache/37/c37yslo6irp2kogg2sfjrhr5fa4arrpbfflfnpngxlrjoem7bojo.py":45:36)
#loc28 = loc("inductor_cache/37/c37yslo6irp2kogg2sfjrhr5fa4arrpbfflfnpngxlrjoem7bojo.py":46:20)
#loc29 = loc("inductor_cache/37/c37yslo6irp2kogg2sfjrhr5fa4arrpbfflfnpngxlrjoem7bojo.py":47:31)
#loc30 = loc("inductor_cache/37/c37yslo6irp2kogg2sfjrhr5fa4arrpbfflfnpngxlrjoem7bojo.py":47:36)
#loc31 = loc("inductor_cache/37/c37yslo6irp2kogg2sfjrhr5fa4arrpbfflfnpngxlrjoem7bojo.py":48:20)
#loc32 = loc("inductor_cache/37/c37yslo6irp2kogg2sfjrhr5fa4arrpbfflfnpngxlrjoem7bojo.py":51:20)
#loc33 = loc("inductor_cache/37/c37yslo6irp2kogg2sfjrhr5fa4arrpbfflfnpngxlrjoem7bojo.py":53:19)
#loc34 = loc("inductor_cache/37/c37yslo6irp2kogg2sfjrhr5fa4arrpbfflfnpngxlrjoem7bojo.py":54:20)
#loc35 = loc("inductor_cache/37/c37yslo6irp2kogg2sfjrhr5fa4arrpbfflfnpngxlrjoem7bojo.py":55:36)
#loc36 = loc("inductor_cache/37/c37yslo6irp2kogg2sfjrhr5fa4arrpbfflfnpngxlrjoem7bojo.py":55:52)
#loc37 = loc("inductor_cache/37/c37yslo6irp2kogg2sfjrhr5fa4arrpbfflfnpngxlrjoem7bojo.py":55:45)
#loc38 = loc("inductor_cache/37/c37yslo6irp2kogg2sfjrhr5fa4arrpbfflfnpngxlrjoem7bojo.py":55:41)
#loc39 = loc("inductor_cache/37/c37yslo6irp2kogg2sfjrhr5fa4arrpbfflfnpngxlrjoem7bojo.py":55:31)
#loc40 = loc("inductor_cache/37/c37yslo6irp2kogg2sfjrhr5fa4arrpbfflfnpngxlrjoem7bojo.py":55:66)
#loc41 = loc("inductor_cache/37/c37yslo6irp2kogg2sfjrhr5fa4arrpbfflfnpngxlrjoem7bojo.py":55:58)
#loc42 = loc("inductor_cache/37/c37yslo6irp2kogg2sfjrhr5fa4arrpbfflfnpngxlrjoem7bojo.py":56:31)
#loc43 = loc("inductor_cache/37/c37yslo6irp2kogg2sfjrhr5fa4arrpbfflfnpngxlrjoem7bojo.py":56:36)
#loc44 = loc("inductor_cache/37/c37yslo6irp2kogg2sfjrhr5fa4arrpbfflfnpngxlrjoem7bojo.py":57:20)
#loc45 = loc("inductor_cache/37/c37yslo6irp2kogg2sfjrhr5fa4arrpbfflfnpngxlrjoem7bojo.py":58:31)
#loc46 = loc("inductor_cache/37/c37yslo6irp2kogg2sfjrhr5fa4arrpbfflfnpngxlrjoem7bojo.py":58:36)
#loc47 = loc("inductor_cache/37/c37yslo6irp2kogg2sfjrhr5fa4arrpbfflfnpngxlrjoem7bojo.py":60:20)
#loc48 = loc("inductor_cache/37/c37yslo6irp2kogg2sfjrhr5fa4arrpbfflfnpngxlrjoem7bojo.py":61:27)
#loc49 = loc("inductor_cache/37/c37yslo6irp2kogg2sfjrhr5fa4arrpbfflfnpngxlrjoem7bojo.py":63:20)
#loc50 = loc("inductor_cache/37/c37yslo6irp2kogg2sfjrhr5fa4arrpbfflfnpngxlrjoem7bojo.py":66:20)
#loc51 = loc("inductor_cache/37/c37yslo6irp2kogg2sfjrhr5fa4arrpbfflfnpngxlrjoem7bojo.py":67:36)
#loc52 = loc("inductor_cache/37/c37yslo6irp2kogg2sfjrhr5fa4arrpbfflfnpngxlrjoem7bojo.py":68:20)
#loc53 = loc("inductor_cache/37/c37yslo6irp2kogg2sfjrhr5fa4arrpbfflfnpngxlrjoem7bojo.py":69:36)
#loc54 = loc("inductor_cache/37/c37yslo6irp2kogg2sfjrhr5fa4arrpbfflfnpngxlrjoem7bojo.py":70:20)
#loc55 = loc("inductor_cache/37/c37yslo6irp2kogg2sfjrhr5fa4arrpbfflfnpngxlrjoem7bojo.py":73:20)
#loc56 = loc("inductor_cache/37/c37yslo6irp2kogg2sfjrhr5fa4arrpbfflfnpngxlrjoem7bojo.py":75:19)
#loc57 = loc("inductor_cache/37/c37yslo6irp2kogg2sfjrhr5fa4arrpbfflfnpngxlrjoem7bojo.py":76:20)
#loc58 = loc("inductor_cache/37/c37yslo6irp2kogg2sfjrhr5fa4arrpbfflfnpngxlrjoem7bojo.py":77:37)
#loc59 = loc("inductor_cache/37/c37yslo6irp2kogg2sfjrhr5fa4arrpbfflfnpngxlrjoem7bojo.py":77:53)
#loc60 = loc("inductor_cache/37/c37yslo6irp2kogg2sfjrhr5fa4arrpbfflfnpngxlrjoem7bojo.py":77:46)
#loc61 = loc("inductor_cache/37/c37yslo6irp2kogg2sfjrhr5fa4arrpbfflfnpngxlrjoem7bojo.py":77:42)
#loc62 = loc("inductor_cache/37/c37yslo6irp2kogg2sfjrhr5fa4arrpbfflfnpngxlrjoem7bojo.py":77:31)
#loc63 = loc("inductor_cache/37/c37yslo6irp2kogg2sfjrhr5fa4arrpbfflfnpngxlrjoem7bojo.py":77:67)
#loc64 = loc("inductor_cache/37/c37yslo6irp2kogg2sfjrhr5fa4arrpbfflfnpngxlrjoem7bojo.py":77:59)
#loc65 = loc("inductor_cache/37/c37yslo6irp2kogg2sfjrhr5fa4arrpbfflfnpngxlrjoem7bojo.py":78:31)
#loc66 = loc("inductor_cache/37/c37yslo6irp2kogg2sfjrhr5fa4arrpbfflfnpngxlrjoem7bojo.py":78:36)
#loc67 = loc("inductor_cache/37/c37yslo6irp2kogg2sfjrhr5fa4arrpbfflfnpngxlrjoem7bojo.py":79:20)
#loc68 = loc("inductor_cache/37/c37yslo6irp2kogg2sfjrhr5fa4arrpbfflfnpngxlrjoem7bojo.py":80:31)
#loc69 = loc("inductor_cache/37/c37yslo6irp2kogg2sfjrhr5fa4arrpbfflfnpngxlrjoem7bojo.py":80:36)
#loc70 = loc("inductor_cache/37/c37yslo6irp2kogg2sfjrhr5fa4arrpbfflfnpngxlrjoem7bojo.py":82:20)
#loc71 = loc("inductor_cache/37/c37yslo6irp2kogg2sfjrhr5fa4arrpbfflfnpngxlrjoem7bojo.py":83:27)
#loc72 = loc("inductor_cache/37/c37yslo6irp2kogg2sfjrhr5fa4arrpbfflfnpngxlrjoem7bojo.py":85:20)
#loc73 = loc("inductor_cache/37/c37yslo6irp2kogg2sfjrhr5fa4arrpbfflfnpngxlrjoem7bojo.py":88:20)
#loc74 = loc("inductor_cache/37/c37yslo6irp2kogg2sfjrhr5fa4arrpbfflfnpngxlrjoem7bojo.py":89:36)
#loc75 = loc("inductor_cache/37/c37yslo6irp2kogg2sfjrhr5fa4arrpbfflfnpngxlrjoem7bojo.py":90:20)
#loc76 = loc("inductor_cache/37/c37yslo6irp2kogg2sfjrhr5fa4arrpbfflfnpngxlrjoem7bojo.py":91:36)
#loc77 = loc("inductor_cache/37/c37yslo6irp2kogg2sfjrhr5fa4arrpbfflfnpngxlrjoem7bojo.py":92:20)
#loc78 = loc("inductor_cache/37/c37yslo6irp2kogg2sfjrhr5fa4arrpbfflfnpngxlrjoem7bojo.py":95:20)
#loc79 = loc("inductor_cache/37/c37yslo6irp2kogg2sfjrhr5fa4arrpbfflfnpngxlrjoem7bojo.py":98:37)
#loc80 = loc("inductor_cache/37/c37yslo6irp2kogg2sfjrhr5fa4arrpbfflfnpngxlrjoem7bojo.py":98:54)
#loc81 = loc("inductor_cache/37/c37yslo6irp2kogg2sfjrhr5fa4arrpbfflfnpngxlrjoem7bojo.py":98:46)
#loc82 = loc("inductor_cache/37/c37yslo6irp2kogg2sfjrhr5fa4arrpbfflfnpngxlrjoem7bojo.py":98:42)
#loc83 = loc("inductor_cache/37/c37yslo6irp2kogg2sfjrhr5fa4arrpbfflfnpngxlrjoem7bojo.py":98:31)
#loc84 = loc("inductor_cache/37/c37yslo6irp2kogg2sfjrhr5fa4arrpbfflfnpngxlrjoem7bojo.py":98:68)
#loc85 = loc("inductor_cache/37/c37yslo6irp2kogg2sfjrhr5fa4arrpbfflfnpngxlrjoem7bojo.py":98:60)
#loc86 = loc("inductor_cache/37/c37yslo6irp2kogg2sfjrhr5fa4arrpbfflfnpngxlrjoem7bojo.py":99:31)
#loc87 = loc("inductor_cache/37/c37yslo6irp2kogg2sfjrhr5fa4arrpbfflfnpngxlrjoem7bojo.py":99:36)
#loc88 = loc("inductor_cache/37/c37yslo6irp2kogg2sfjrhr5fa4arrpbfflfnpngxlrjoem7bojo.py":100:20)
#loc89 = loc("inductor_cache/37/c37yslo6irp2kogg2sfjrhr5fa4arrpbfflfnpngxlrjoem7bojo.py":101:32)
#loc90 = loc("inductor_cache/37/c37yslo6irp2kogg2sfjrhr5fa4arrpbfflfnpngxlrjoem7bojo.py":101:37)
#loc91 = loc("inductor_cache/37/c37yslo6irp2kogg2sfjrhr5fa4arrpbfflfnpngxlrjoem7bojo.py":103:20)
#loc92 = loc("inductor_cache/37/c37yslo6irp2kogg2sfjrhr5fa4arrpbfflfnpngxlrjoem7bojo.py":104:27)
#loc93 = loc("inductor_cache/37/c37yslo6irp2kogg2sfjrhr5fa4arrpbfflfnpngxlrjoem7bojo.py":106:20)
#loc94 = loc("inductor_cache/37/c37yslo6irp2kogg2sfjrhr5fa4arrpbfflfnpngxlrjoem7bojo.py":109:20)
#loc95 = loc("inductor_cache/37/c37yslo6irp2kogg2sfjrhr5fa4arrpbfflfnpngxlrjoem7bojo.py":110:36)
#loc96 = loc("inductor_cache/37/c37yslo6irp2kogg2sfjrhr5fa4arrpbfflfnpngxlrjoem7bojo.py":111:20)
#loc97 = loc("inductor_cache/37/c37yslo6irp2kogg2sfjrhr5fa4arrpbfflfnpngxlrjoem7bojo.py":112:36)
#loc98 = loc("inductor_cache/37/c37yslo6irp2kogg2sfjrhr5fa4arrpbfflfnpngxlrjoem7bojo.py":113:20)
#loc99 = loc("inductor_cache/37/c37yslo6irp2kogg2sfjrhr5fa4arrpbfflfnpngxlrjoem7bojo.py":115:35)
#loc100 = loc("inductor_cache/37/c37yslo6irp2kogg2sfjrhr5fa4arrpbfflfnpngxlrjoem7bojo.py":116:35)
#loc101 = loc("inductor_cache/37/c37yslo6irp2kogg2sfjrhr5fa4arrpbfflfnpngxlrjoem7bojo.py":94:35)
#loc102 = loc("inductor_cache/37/c37yslo6irp2kogg2sfjrhr5fa4arrpbfflfnpngxlrjoem7bojo.py":117:35)
#loc103 = loc("inductor_cache/37/c37yslo6irp2kogg2sfjrhr5fa4arrpbfflfnpngxlrjoem7bojo.py":72:35)
#loc104 = loc("inductor_cache/37/c37yslo6irp2kogg2sfjrhr5fa4arrpbfflfnpngxlrjoem7bojo.py":118:34)
#loc105 = loc("inductor_cache/37/c37yslo6irp2kogg2sfjrhr5fa4arrpbfflfnpngxlrjoem7bojo.py":50:34)
#loc106 = loc("inductor_cache/37/c37yslo6irp2kogg2sfjrhr5fa4arrpbfflfnpngxlrjoem7bojo.py":119:25)
#loc107 = loc("inductor_cache/37/c37yslo6irp2kogg2sfjrhr5fa4arrpbfflfnpngxlrjoem7bojo.py":119:37)
#loc108 = loc("inductor_cache/37/c37yslo6irp2kogg2sfjrhr5fa4arrpbfflfnpngxlrjoem7bojo.py":119:4)
#loc109 = loc(fused[#loc100, #loc101])
#loc110 = loc(fused[#loc102, #loc103])
#loc111 = loc(fused[#loc104, #loc105])
