#loc = loc("inductor_cache/oy/coy54v5gczpdyyjcmc7glxfj4npjfpmmaqhytnymflg24ruwva5c.py":24:0)
#loc1 = loc(unknown)
#loc34 = loc("/home/sahanp/.conda/envs/parity-bench/lib/python3.12/site-packages/torch/_inductor/runtime/triton_helpers.py":610:12)
#loc35 = loc("inductor_cache/oy/coy54v5gczpdyyjcmc7glxfj4npjfpmmaqhytnymflg24ruwva5c.py":49:71)
#loc40 = loc("/home/sahanp/.conda/envs/parity-bench/lib/python3.12/site-packages/torch/_inductor/runtime/triton_helpers.py":582:73)
#loc45 = loc("/home/sahanp/.conda/envs/parity-bench/lib/python3.12/site-packages/torch/_inductor/runtime/triton_helpers.py":506:51)
#loc50 = loc("/home/sahanp/.conda/envs/parity-bench/lib/python3.12/site-packages/torch/_inductor/runtime/triton_helpers.py":507:53)
#loc95 = loc(callsite(#loc1 at #loc45))
#loc101 = loc(callsite(#loc1 at #loc50))
#loc126 = loc(callsite(#loc95 at #loc40))
#loc132 = loc(callsite(#loc101 at #loc40))
#loc153 = loc(callsite(#loc126 at #loc34))
#loc159 = loc(callsite(#loc132 at #loc34))
#loc176 = loc(callsite(#loc153 at #loc35))
#loc179 = loc(callsite(#loc159 at #loc35))
module {
  tt.func public @triton_per_fused_cumsum_max_sort_sub_0(%arg0: !tt.ptr<f32> {tt.divisibility = 16 : i32} loc("inductor_cache/oy/coy54v5gczpdyyjcmc7glxfj4npjfpmmaqhytnymflg24ruwva5c.py":24:0), %arg1: !tt.ptr<f32> {tt.divisibility = 16 : i32} loc("inductor_cache/oy/coy54v5gczpdyyjcmc7glxfj4npjfpmmaqhytnymflg24ruwva5c.py":24:0), %arg2: !tt.ptr<f32> {tt.divisibility = 16 : i32} loc("inductor_cache/oy/coy54v5gczpdyyjcmc7glxfj4npjfpmmaqhytnymflg24ruwva5c.py":24:0), %arg3: !tt.ptr<f32> {tt.divisibility = 16 : i32} loc("inductor_cache/oy/coy54v5gczpdyyjcmc7glxfj4npjfpmmaqhytnymflg24ruwva5c.py":24:0), %arg4: i32 {tt.divisibility = 16 : i32} loc("inductor_cache/oy/coy54v5gczpdyyjcmc7glxfj4npjfpmmaqhytnymflg24ruwva5c.py":24:0), %arg5: i32 loc("inductor_cache/oy/coy54v5gczpdyyjcmc7glxfj4npjfpmmaqhytnymflg24ruwva5c.py":24:0)) attributes {noinline = false} {
    %cst = arith.constant dense<0> : tensor<32x4xi32> loc(#loc1)
    %cst_0 = arith.constant dense<1> : tensor<1x2x1xi32> loc(#loc1)
    %cst_1 = arith.constant dense<3> : tensor<32x1xi32> loc(#loc1)
    %cst_2 = arith.constant dense<2> : tensor<32x1xi32> loc(#loc1)
    %cst_3 = arith.constant dense<1> : tensor<32x1xi32> loc(#loc1)
    %cst_4 = arith.constant dense<0.000000e+00> : tensor<32x4xf32> loc(#loc1)
    %cst_5 = arith.constant dense<4> : tensor<32x1xi32> loc(#loc1)
    %cst_6 = arith.constant dense<64> : tensor<32x1xi32> loc(#loc1)
    %c32_i32 = arith.constant 32 : i32 loc(#loc1)
    %0 = tt.get_program_id x : i32 loc(#loc2)
    %1 = arith.muli %0, %c32_i32 : i32 loc(#loc3)
    %2 = tt.make_range {end = 32 : i32, start = 0 : i32} : tensor<32xi32> loc(#loc4)
    %3 = tt.expand_dims %2 {axis = 1 : i32} : tensor<32xi32> -> tensor<32x1xi32> loc(#loc5)
    %4 = tt.splat %1 : i32 -> tensor<32x1xi32> loc(#loc6)
    %5 = arith.addi %4, %3 : tensor<32x1xi32> loc(#loc6)
    %6 = arith.cmpi slt, %5, %cst_6 : tensor<32x1xi32> loc(#loc7)
    %7 = tt.make_range {end = 4 : i32, start = 0 : i32} : tensor<4xi32> loc(#loc8)
    %8 = tt.expand_dims %7 {axis = 0 : i32} : tensor<4xi32> -> tensor<1x4xi32> loc(#loc9)
    %9 = arith.muli %5, %cst_5 : tensor<32x1xi32> loc(#loc10)
    %10 = tt.broadcast %8 : tensor<1x4xi32> -> tensor<32x4xi32> loc(#loc11)
    %11 = tt.broadcast %9 : tensor<32x1xi32> -> tensor<32x4xi32> loc(#loc11)
    %12 = arith.addi %10, %11 : tensor<32x4xi32> loc(#loc11)
    %13 = tt.splat %arg0 : !tt.ptr<f32> -> tensor<32x4x!tt.ptr<f32>> loc(#loc12)
    %14 = tt.addptr %13, %12 : tensor<32x4x!tt.ptr<f32>>, tensor<32x4xi32> loc(#loc12)
    %15 = tt.broadcast %6 : tensor<32x1xi1> -> tensor<32x4xi1> loc(#loc13)
    %16 = tt.load %14, %15, %cst_4 : tensor<32x4x!tt.ptr<f32>> loc(#loc13)
    %17 = tt.splat %arg0 : !tt.ptr<f32> -> tensor<32x1x!tt.ptr<f32>> loc(#loc14)
    %18 = tt.addptr %17, %9 : tensor<32x1x!tt.ptr<f32>>, tensor<32x1xi32> loc(#loc14)
    %19 = tt.load %18, %6 evictionPolicy = evict_last : tensor<32x1x!tt.ptr<f32>> loc(#loc15)
    %20 = arith.addi %9, %cst_3 : tensor<32x1xi32> loc(#loc16)
    %21 = tt.addptr %17, %20 : tensor<32x1x!tt.ptr<f32>>, tensor<32x1xi32> loc(#loc17)
    %22 = tt.load %21, %6 evictionPolicy = evict_last : tensor<32x1x!tt.ptr<f32>> loc(#loc18)
    %23 = arith.addi %9, %cst_2 : tensor<32x1xi32> loc(#loc19)
    %24 = tt.addptr %17, %23 : tensor<32x1x!tt.ptr<f32>>, tensor<32x1xi32> loc(#loc20)
    %25 = tt.load %24, %6 evictionPolicy = evict_last : tensor<32x1x!tt.ptr<f32>> loc(#loc21)
    %26 = arith.addi %9, %cst_1 : tensor<32x1xi32> loc(#loc22)
    %27 = tt.addptr %17, %26 : tensor<32x1x!tt.ptr<f32>>, tensor<32x1xi32> loc(#loc23)
    %28 = tt.load %27, %6 evictionPolicy = evict_last : tensor<32x1x!tt.ptr<f32>> loc(#loc24)
    %29 = arith.cmpf ogt, %19, %22 : tensor<32x1xf32> loc(#loc74)
    %30 = arith.cmpf une, %19, %19 : tensor<32x1xf32> loc(#loc75)
    %31 = arith.ori %29, %30 : tensor<32x1xi1> loc(#loc76)
    %32 = arith.select %31, %19, %22 : tensor<32x1xi1>, tensor<32x1xf32> loc(#loc77)
    %33 = arith.cmpf ogt, %32, %25 : tensor<32x1xf32> loc(#loc78)
    %34 = arith.cmpf une, %32, %32 : tensor<32x1xf32> loc(#loc79)
    %35 = arith.ori %33, %34 : tensor<32x1xi1> loc(#loc80)
    %36 = arith.select %35, %32, %25 : tensor<32x1xi1>, tensor<32x1xf32> loc(#loc81)
    %37 = arith.cmpf ogt, %36, %28 : tensor<32x1xf32> loc(#loc82)
    %38 = arith.cmpf une, %36, %36 : tensor<32x1xf32> loc(#loc83)
    %39 = arith.ori %37, %38 : tensor<32x1xi1> loc(#loc84)
    %40 = arith.select %39, %36, %28 : tensor<32x1xi1>, tensor<32x1xf32> loc(#loc85)
    %41 = tt.broadcast %40 : tensor<32x1xf32> -> tensor<32x4xf32> loc(#loc32)
    %42 = arith.subf %16, %41 : tensor<32x4xf32> loc(#loc32)
    %43 = tt.make_range {end = 2 : i32, start = 0 : i32} : tensor<2xi32> loc(#loc117)
    %44 = tt.expand_dims %43 {axis = 0 : i32} : tensor<2xi32> -> tensor<1x2xi32> loc(#loc118)
    %45 = tt.expand_dims %44 {axis = 2 : i32} : tensor<1x2xi32> -> tensor<1x2x1xi32> loc(#loc118)
    %46 = tt.broadcast %45 : tensor<1x2x1xi32> -> tensor<32x2x2xi32> loc(#loc119)
    %47 = tt.reshape %46 : tensor<32x2x2xi32> -> tensor<32x4xi32> loc(#loc120)
    %48 = tt.reshape %42 : tensor<32x4xf32> -> tensor<64x2x1xf32> loc(#loc148)
    %49 = tt.bitcast %48 : tensor<64x2x1xf32> -> tensor<64x2x1xi32> loc(#loc149)
    %50 = arith.subi %cst_0, %45 : tensor<1x2x1xi32> loc(#loc150)
    %51 = tt.broadcast %50 : tensor<1x2x1xi32> -> tensor<64x2x1xi32> loc(#loc151)
    %52 = arith.muli %49, %51 : tensor<64x2x1xi32> loc(#loc151)
    %53 = "tt.reduce"(%52) <{axis = 1 : i32}> ({
    ^bb0(%arg6: i32 loc(callsite(#loc153 at #loc35)), %arg7: i32 loc(callsite(#loc153 at #loc35))):
      %122 = arith.addi %arg6, %arg7 : i32 loc(#loc181)
      tt.reduce.return %122 : i32 loc(#loc175)
    }) : (tensor<64x2x1xi32>) -> tensor<64x1xi32> loc(#loc175)
    %54 = tt.expand_dims %53 {axis = 1 : i32} : tensor<64x1xi32> -> tensor<64x1x1xi32> loc(#loc155)
    %55 = tt.broadcast %54 : tensor<64x1x1xi32> -> tensor<64x2x1xi32> loc(#loc156)
    %56 = tt.broadcast %45 : tensor<1x2x1xi32> -> tensor<64x2x1xi32> loc(#loc157)
    %57 = arith.muli %49, %56 : tensor<64x2x1xi32> loc(#loc157)
    %58 = "tt.reduce"(%57) <{axis = 1 : i32}> ({
    ^bb0(%arg6: i32 loc(callsite(#loc159 at #loc35)), %arg7: i32 loc(callsite(#loc159 at #loc35))):
      %122 = arith.addi %arg6, %arg7 : i32 loc(#loc182)
      tt.reduce.return %122 : i32 loc(#loc178)
    }) : (tensor<64x2x1xi32>) -> tensor<64x1xi32> loc(#loc178)
    %59 = tt.expand_dims %58 {axis = 1 : i32} : tensor<64x1xi32> -> tensor<64x1x1xi32> loc(#loc161)
    %60 = tt.broadcast %59 : tensor<64x1x1xi32> -> tensor<64x2x1xi32> loc(#loc162)
    %61 = tt.reshape %55 : tensor<64x2x1xi32> -> tensor<32x4xi32> loc(#loc163)
    %62 = tt.reshape %60 : tensor<64x2x1xi32> -> tensor<32x4xi32> loc(#loc164)
    %63 = tt.bitcast %61 : tensor<32x4xi32> -> tensor<32x4xf32> loc(#loc165)
    %64 = tt.bitcast %62 : tensor<32x4xi32> -> tensor<32x4xf32> loc(#loc166)
    %65 = tt.bitcast %42 : tensor<32x4xf32> -> tensor<32x4xi32> loc(#loc167)
    %66 = arith.cmpf olt, %63, %64 : tensor<32x4xf32> loc(#loc168)
    %67 = arith.extui %66 : tensor<32x4xi1> to tensor<32x4xi32> loc(#loc169)
    %68 = arith.xori %67, %47 : tensor<32x4xi32> loc(#loc169)
    %69 = arith.cmpi ne, %68, %cst : tensor<32x4xi32> loc(#loc170)
    %70 = arith.xori %61, %62 : tensor<32x4xi32> loc(#loc171)
    %71 = arith.select %69, %70, %cst : tensor<32x4xi1>, tensor<32x4xi32> loc(#loc172)
    %72 = arith.xori %65, %71 : tensor<32x4xi32> loc(#loc173)
    %73 = tt.bitcast %72 : tensor<32x4xi32> -> tensor<32x4xf32> loc(#loc174)
    %74 = tt.reshape %73 : tensor<32x4xf32> -> tensor<32x2x2xf32> loc(#loc148)
    %75 = tt.bitcast %74 : tensor<32x2x2xf32> -> tensor<32x2x2xi32> loc(#loc149)
    %76 = tt.broadcast %50 : tensor<1x2x1xi32> -> tensor<32x2x2xi32> loc(#loc151)
    %77 = arith.muli %75, %76 : tensor<32x2x2xi32> loc(#loc151)
    %78 = "tt.reduce"(%77) <{axis = 1 : i32}> ({
    ^bb0(%arg6: i32 loc(callsite(#loc153 at #loc35)), %arg7: i32 loc(callsite(#loc153 at #loc35))):
      %122 = arith.addi %arg6, %arg7 : i32 loc(#loc181)
      tt.reduce.return %122 : i32 loc(#loc175)
    }) : (tensor<32x2x2xi32>) -> tensor<32x2xi32> loc(#loc175)
    %79 = tt.expand_dims %78 {axis = 1 : i32} : tensor<32x2xi32> -> tensor<32x1x2xi32> loc(#loc155)
    %80 = tt.broadcast %79 : tensor<32x1x2xi32> -> tensor<32x2x2xi32> loc(#loc156)
    %81 = arith.muli %75, %46 : tensor<32x2x2xi32> loc(#loc157)
    %82 = "tt.reduce"(%81) <{axis = 1 : i32}> ({
    ^bb0(%arg6: i32 loc(callsite(#loc159 at #loc35)), %arg7: i32 loc(callsite(#loc159 at #loc35))):
      %122 = arith.addi %arg6, %arg7 : i32 loc(#loc182)
      tt.reduce.return %122 : i32 loc(#loc178)
    }) : (tensor<32x2x2xi32>) -> tensor<32x2xi32> loc(#loc178)
    %83 = tt.expand_dims %82 {axis = 1 : i32} : tensor<32x2xi32> -> tensor<32x1x2xi32> loc(#loc161)
    %84 = tt.broadcast %83 : tensor<32x1x2xi32> -> tensor<32x2x2xi32> loc(#loc162)
    %85 = tt.reshape %80 : tensor<32x2x2xi32> -> tensor<32x4xi32> loc(#loc163)
    %86 = tt.reshape %84 : tensor<32x2x2xi32> -> tensor<32x4xi32> loc(#loc164)
    %87 = tt.bitcast %85 : tensor<32x4xi32> -> tensor<32x4xf32> loc(#loc165)
    %88 = tt.bitcast %86 : tensor<32x4xi32> -> tensor<32x4xf32> loc(#loc166)
    %89 = tt.bitcast %73 : tensor<32x4xf32> -> tensor<32x4xi32> loc(#loc167)
    %90 = arith.cmpf olt, %87, %88 : tensor<32x4xf32> loc(#loc168)
    %91 = arith.xori %85, %86 : tensor<32x4xi32> loc(#loc171)
    %92 = arith.select %90, %91, %cst : tensor<32x4xi1>, tensor<32x4xi32> loc(#loc172)
    %93 = arith.xori %89, %92 : tensor<32x4xi32> loc(#loc173)
    %94 = tt.bitcast %93 : tensor<32x4xi32> -> tensor<32x4xf32> loc(#loc174)
    %95 = tt.reshape %94 : tensor<32x4xf32> -> tensor<64x2x1xf32> loc(#loc148)
    %96 = tt.bitcast %95 : tensor<64x2x1xf32> -> tensor<64x2x1xi32> loc(#loc149)
    %97 = arith.muli %96, %51 : tensor<64x2x1xi32> loc(#loc151)
    %98 = "tt.reduce"(%97) <{axis = 1 : i32}> ({
    ^bb0(%arg6: i32 loc(callsite(#loc153 at #loc35)), %arg7: i32 loc(callsite(#loc153 at #loc35))):
      %122 = arith.addi %arg6, %arg7 : i32 loc(#loc181)
      tt.reduce.return %122 : i32 loc(#loc175)
    }) : (tensor<64x2x1xi32>) -> tensor<64x1xi32> loc(#loc175)
    %99 = tt.expand_dims %98 {axis = 1 : i32} : tensor<64x1xi32> -> tensor<64x1x1xi32> loc(#loc155)
    %100 = tt.broadcast %99 : tensor<64x1x1xi32> -> tensor<64x2x1xi32> loc(#loc156)
    %101 = arith.muli %96, %56 : tensor<64x2x1xi32> loc(#loc157)
    %102 = "tt.reduce"(%101) <{axis = 1 : i32}> ({
    ^bb0(%arg6: i32 loc(callsite(#loc159 at #loc35)), %arg7: i32 loc(callsite(#loc159 at #loc35))):
      %122 = arith.addi %arg6, %arg7 : i32 loc(#loc182)
      tt.reduce.return %122 : i32 loc(#loc178)
    }) : (tensor<64x2x1xi32>) -> tensor<64x1xi32> loc(#loc178)
    %103 = tt.expand_dims %102 {axis = 1 : i32} : tensor<64x1xi32> -> tensor<64x1x1xi32> loc(#loc161)
    %104 = tt.broadcast %103 : tensor<64x1x1xi32> -> tensor<64x2x1xi32> loc(#loc162)
    %105 = tt.reshape %100 : tensor<64x2x1xi32> -> tensor<32x4xi32> loc(#loc163)
    %106 = tt.reshape %104 : tensor<64x2x1xi32> -> tensor<32x4xi32> loc(#loc164)
    %107 = tt.bitcast %105 : tensor<32x4xi32> -> tensor<32x4xf32> loc(#loc165)
    %108 = tt.bitcast %106 : tensor<32x4xi32> -> tensor<32x4xf32> loc(#loc166)
    %109 = tt.bitcast %94 : tensor<32x4xf32> -> tensor<32x4xi32> loc(#loc167)
    %110 = arith.cmpf olt, %107, %108 : tensor<32x4xf32> loc(#loc168)
    %111 = arith.xori %105, %106 : tensor<32x4xi32> loc(#loc171)
    %112 = arith.select %110, %111, %cst : tensor<32x4xi1>, tensor<32x4xi32> loc(#loc172)
    %113 = arith.xori %109, %112 : tensor<32x4xi32> loc(#loc173)
    %114 = tt.bitcast %113 : tensor<32x4xi32> -> tensor<32x4xf32> loc(#loc174)
    %115 = "tt.scan"(%114) <{axis = 1 : i32, reverse = false}> ({
    ^bb0(%arg6: f32 loc(unknown), %arg7: f32 loc(unknown)):
      %122 = arith.addf %arg6, %arg7 : f32 loc(#loc116)
      tt.scan.return %122 : f32 loc(#loc65)
    }) : (tensor<32x4xf32>) -> tensor<32x4xf32> loc(#loc65)
    %116 = tt.splat %arg1 : !tt.ptr<f32> -> tensor<32x4x!tt.ptr<f32>> loc(#loc67)
    %117 = tt.addptr %116, %12 : tensor<32x4x!tt.ptr<f32>>, tensor<32x4xi32> loc(#loc67)
    tt.store %117, %42, %15 : tensor<32x4x!tt.ptr<f32>> loc(#loc68)
    %118 = tt.splat %arg2 : !tt.ptr<f32> -> tensor<32x4x!tt.ptr<f32>> loc(#loc69)
    %119 = tt.addptr %118, %12 : tensor<32x4x!tt.ptr<f32>>, tensor<32x4xi32> loc(#loc69)
    tt.store %119, %114, %15 : tensor<32x4x!tt.ptr<f32>> loc(#loc70)
    %120 = tt.splat %arg3 : !tt.ptr<f32> -> tensor<32x4x!tt.ptr<f32>> loc(#loc71)
    %121 = tt.addptr %120, %12 : tensor<32x4x!tt.ptr<f32>>, tensor<32x4xi32> loc(#loc71)
    tt.store %121, %115, %15 : tensor<32x4x!tt.ptr<f32>> loc(#loc72)
    tt.return loc(#loc73)
  } loc(#loc)
} loc(#loc)
#loc2 = loc("inductor_cache/oy/coy54v5gczpdyyjcmc7glxfj4npjfpmmaqhytnymflg24ruwva5c.py":28:28)
#loc3 = loc("inductor_cache/oy/coy54v5gczpdyyjcmc7glxfj4npjfpmmaqhytnymflg24ruwva5c.py":28:33)
#loc4 = loc("inductor_cache/oy/coy54v5gczpdyyjcmc7glxfj4npjfpmmaqhytnymflg24ruwva5c.py":29:36)
#loc5 = loc("inductor_cache/oy/coy54v5gczpdyyjcmc7glxfj4npjfpmmaqhytnymflg24ruwva5c.py":29:44)
#loc6 = loc("inductor_cache/oy/coy54v5gczpdyyjcmc7glxfj4npjfpmmaqhytnymflg24ruwva5c.py":29:23)
#loc7 = loc("inductor_cache/oy/coy54v5gczpdyyjcmc7glxfj4npjfpmmaqhytnymflg24ruwva5c.py":30:21)
#loc8 = loc("inductor_cache/oy/coy54v5gczpdyyjcmc7glxfj4npjfpmmaqhytnymflg24ruwva5c.py":31:26)
#loc9 = loc("inductor_cache/oy/coy54v5gczpdyyjcmc7glxfj4npjfpmmaqhytnymflg24ruwva5c.py":31:34)
#loc10 = loc("inductor_cache/oy/coy54v5gczpdyyjcmc7glxfj4npjfpmmaqhytnymflg24ruwva5c.py":36:37)
#loc11 = loc("inductor_cache/oy/coy54v5gczpdyyjcmc7glxfj4npjfpmmaqhytnymflg24ruwva5c.py":36:35)
#loc12 = loc("inductor_cache/oy/coy54v5gczpdyyjcmc7glxfj4npjfpmmaqhytnymflg24ruwva5c.py":36:30)
#loc13 = loc("inductor_cache/oy/coy54v5gczpdyyjcmc7glxfj4npjfpmmaqhytnymflg24ruwva5c.py":36:42)
#loc14 = loc("inductor_cache/oy/coy54v5gczpdyyjcmc7glxfj4npjfpmmaqhytnymflg24ruwva5c.py":37:30)
#loc15 = loc("inductor_cache/oy/coy54v5gczpdyyjcmc7glxfj4npjfpmmaqhytnymflg24ruwva5c.py":37:37)
#loc16 = loc("inductor_cache/oy/coy54v5gczpdyyjcmc7glxfj4npjfpmmaqhytnymflg24ruwva5c.py":38:34)
#loc17 = loc("inductor_cache/oy/coy54v5gczpdyyjcmc7glxfj4npjfpmmaqhytnymflg24ruwva5c.py":38:30)
#loc18 = loc("inductor_cache/oy/coy54v5gczpdyyjcmc7glxfj4npjfpmmaqhytnymflg24ruwva5c.py":38:41)
#loc19 = loc("inductor_cache/oy/coy54v5gczpdyyjcmc7glxfj4npjfpmmaqhytnymflg24ruwva5c.py":39:34)
#loc20 = loc("inductor_cache/oy/coy54v5gczpdyyjcmc7glxfj4npjfpmmaqhytnymflg24ruwva5c.py":39:30)
#loc21 = loc("inductor_cache/oy/coy54v5gczpdyyjcmc7glxfj4npjfpmmaqhytnymflg24ruwva5c.py":39:41)
#loc22 = loc("inductor_cache/oy/coy54v5gczpdyyjcmc7glxfj4npjfpmmaqhytnymflg24ruwva5c.py":40:34)
#loc23 = loc("inductor_cache/oy/coy54v5gczpdyyjcmc7glxfj4npjfpmmaqhytnymflg24ruwva5c.py":40:30)
#loc24 = loc("inductor_cache/oy/coy54v5gczpdyyjcmc7glxfj4npjfpmmaqhytnymflg24ruwva5c.py":40:41)
#loc25 = loc("/home/sahanp/.conda/envs/parity-bench/lib/python3.12/site-packages/torch/_inductor/runtime/triton_helpers.py":118:15)
#loc26 = loc("inductor_cache/oy/coy54v5gczpdyyjcmc7glxfj4npjfpmmaqhytnymflg24ruwva5c.py":41:40)
#loc27 = loc("/home/sahanp/.conda/envs/parity-bench/lib/python3.12/site-packages/torch/_inductor/runtime/triton_helpers.py":120:21)
#loc28 = loc("/home/sahanp/.conda/envs/parity-bench/lib/python3.12/site-packages/torch/_inductor/runtime/triton_helpers.py":120:16)
#loc29 = loc("/home/sahanp/.conda/envs/parity-bench/lib/python3.12/site-packages/torch/_inductor/runtime/triton_helpers.py":121:29)
#loc30 = loc("inductor_cache/oy/coy54v5gczpdyyjcmc7glxfj4npjfpmmaqhytnymflg24ruwva5c.py":42:40)
#loc31 = loc("inductor_cache/oy/coy54v5gczpdyyjcmc7glxfj4npjfpmmaqhytnymflg24ruwva5c.py":43:40)
#loc32 = loc("inductor_cache/oy/coy54v5gczpdyyjcmc7glxfj4npjfpmmaqhytnymflg24ruwva5c.py":44:18)
#loc33 = loc("/home/sahanp/.conda/envs/parity-bench/lib/python3.12/site-packages/torch/_inductor/runtime/triton_helpers.py":575:41)
#loc36 = loc("/home/sahanp/.conda/envs/parity-bench/lib/python3.12/site-packages/torch/_inductor/runtime/triton_helpers.py":575:44)
#loc37 = loc("/home/sahanp/.conda/envs/parity-bench/lib/python3.12/site-packages/torch/_inductor/runtime/triton_helpers.py":575:60)
#loc38 = loc("/home/sahanp/.conda/envs/parity-bench/lib/python3.12/site-packages/torch/_inductor/runtime/triton_helpers.py":575:68)
#loc39 = loc("/home/sahanp/.conda/envs/parity-bench/lib/python3.12/site-packages/torch/_inductor/runtime/triton_helpers.py":501:22)
#loc41 = loc("/home/sahanp/.conda/envs/parity-bench/lib/python3.12/site-packages/torch/_inductor/runtime/triton_helpers.py":502:14)
#loc42 = loc("/home/sahanp/.conda/envs/parity-bench/lib/python3.12/site-packages/torch/_inductor/runtime/triton_helpers.py":505:21)
#loc43 = loc("/home/sahanp/.conda/envs/parity-bench/lib/python3.12/site-packages/torch/_inductor/runtime/triton_helpers.py":506:40)
#loc44 = loc("/home/sahanp/.conda/envs/parity-bench/lib/python3.12/site-packages/triton/language/standard.py":267:36)
#loc46 = loc("/home/sahanp/.conda/envs/parity-bench/lib/python3.12/site-packages/triton/language/standard.py":256:15)
#loc47 = loc("/home/sahanp/.conda/envs/parity-bench/lib/python3.12/site-packages/torch/_inductor/runtime/triton_helpers.py":506:54)
#loc48 = loc("/home/sahanp/.conda/envs/parity-bench/lib/python3.12/site-packages/torch/_inductor/runtime/triton_helpers.py":506:67)
#loc49 = loc("/home/sahanp/.conda/envs/parity-bench/lib/python3.12/site-packages/torch/_inductor/runtime/triton_helpers.py":507:41)
#loc51 = loc("/home/sahanp/.conda/envs/parity-bench/lib/python3.12/site-packages/torch/_inductor/runtime/triton_helpers.py":507:56)
#loc52 = loc("/home/sahanp/.conda/envs/parity-bench/lib/python3.12/site-packages/torch/_inductor/runtime/triton_helpers.py":507:69)
#loc53 = loc("/home/sahanp/.conda/envs/parity-bench/lib/python3.12/site-packages/torch/_inductor/runtime/triton_helpers.py":508:30)
#loc54 = loc("/home/sahanp/.conda/envs/parity-bench/lib/python3.12/site-packages/torch/_inductor/runtime/triton_helpers.py":509:32)
#loc55 = loc("/home/sahanp/.conda/envs/parity-bench/lib/python3.12/site-packages/torch/_inductor/runtime/triton_helpers.py":510:20)
#loc56 = loc("/home/sahanp/.conda/envs/parity-bench/lib/python3.12/site-packages/torch/_inductor/runtime/triton_helpers.py":511:22)
#loc57 = loc("/home/sahanp/.conda/envs/parity-bench/lib/python3.12/site-packages/torch/_inductor/runtime/triton_helpers.py":533:14)
#loc58 = loc("/home/sahanp/.conda/envs/parity-bench/lib/python3.12/site-packages/torch/_inductor/runtime/triton_helpers.py":536:22)
#loc59 = loc("/home/sahanp/.conda/envs/parity-bench/lib/python3.12/site-packages/torch/_inductor/runtime/triton_helpers.py":547:19)
#loc60 = loc("/home/sahanp/.conda/envs/parity-bench/lib/python3.12/site-packages/torch/_inductor/runtime/triton_helpers.py":547:28)
#loc61 = loc("/home/sahanp/.conda/envs/parity-bench/lib/python3.12/site-packages/torch/_inductor/runtime/triton_helpers.py":548:38)
#loc62 = loc("/home/sahanp/.conda/envs/parity-bench/lib/python3.12/site-packages/torch/_inductor/runtime/triton_helpers.py":548:46)
#loc63 = loc("/home/sahanp/.conda/envs/parity-bench/lib/python3.12/site-packages/torch/_inductor/runtime/triton_helpers.py":548:15)
#loc64 = loc("/home/sahanp/.conda/envs/parity-bench/lib/python3.12/site-packages/torch/_inductor/runtime/triton_helpers.py":551:18)
#loc65 = loc("inductor_cache/oy/coy54v5gczpdyyjcmc7glxfj4npjfpmmaqhytnymflg24ruwva5c.py":52:46)
#loc66 = loc("inductor_cache/oy/coy54v5gczpdyyjcmc7glxfj4npjfpmmaqhytnymflg24ruwva5c.py":13:20)
#loc67 = loc("inductor_cache/oy/coy54v5gczpdyyjcmc7glxfj4npjfpmmaqhytnymflg24ruwva5c.py":53:25)
#loc68 = loc("inductor_cache/oy/coy54v5gczpdyyjcmc7glxfj4npjfpmmaqhytnymflg24ruwva5c.py":53:43)
#loc69 = loc("inductor_cache/oy/coy54v5gczpdyyjcmc7glxfj4npjfpmmaqhytnymflg24ruwva5c.py":54:25)
#loc70 = loc("inductor_cache/oy/coy54v5gczpdyyjcmc7glxfj4npjfpmmaqhytnymflg24ruwva5c.py":54:44)
#loc71 = loc("inductor_cache/oy/coy54v5gczpdyyjcmc7glxfj4npjfpmmaqhytnymflg24ruwva5c.py":55:25)
#loc72 = loc("inductor_cache/oy/coy54v5gczpdyyjcmc7glxfj4npjfpmmaqhytnymflg24ruwva5c.py":55:44)
#loc73 = loc("inductor_cache/oy/coy54v5gczpdyyjcmc7glxfj4npjfpmmaqhytnymflg24ruwva5c.py":55:4)
#loc74 = loc(callsite(#loc25 at #loc26))
#loc75 = loc(callsite(#loc27 at #loc26))
#loc76 = loc(callsite(#loc28 at #loc26))
#loc77 = loc(callsite(#loc29 at #loc26))
#loc78 = loc(callsite(#loc25 at #loc30))
#loc79 = loc(callsite(#loc27 at #loc30))
#loc80 = loc(callsite(#loc28 at #loc30))
#loc81 = loc(callsite(#loc29 at #loc30))
#loc82 = loc(callsite(#loc25 at #loc31))
#loc83 = loc(callsite(#loc27 at #loc31))
#loc84 = loc(callsite(#loc28 at #loc31))
#loc85 = loc(callsite(#loc29 at #loc31))
#loc86 = loc(callsite(#loc33 at #loc34))
#loc87 = loc(callsite(#loc36 at #loc34))
#loc88 = loc(callsite(#loc37 at #loc34))
#loc89 = loc(callsite(#loc38 at #loc34))
#loc90 = loc(callsite(#loc39 at #loc40))
#loc91 = loc(callsite(#loc41 at #loc40))
#loc92 = loc(callsite(#loc42 at #loc40))
#loc93 = loc(callsite(#loc43 at #loc40))
#loc94 = loc(callsite(#loc44 at #loc45))
#loc96 = loc(callsite(#loc46 at #loc44))
#loc97 = loc(callsite(#loc47 at #loc40))
#loc98 = loc(callsite(#loc48 at #loc40))
#loc99 = loc(callsite(#loc49 at #loc40))
#loc100 = loc(callsite(#loc44 at #loc50))
#loc102 = loc(callsite(#loc51 at #loc40))
#loc103 = loc(callsite(#loc52 at #loc40))
#loc104 = loc(callsite(#loc53 at #loc40))
#loc105 = loc(callsite(#loc54 at #loc40))
#loc106 = loc(callsite(#loc55 at #loc40))
#loc107 = loc(callsite(#loc56 at #loc40))
#loc108 = loc(callsite(#loc57 at #loc40))
#loc109 = loc(callsite(#loc58 at #loc40))
#loc110 = loc(callsite(#loc59 at #loc40))
#loc111 = loc(callsite(#loc60 at #loc40))
#loc112 = loc(callsite(#loc61 at #loc40))
#loc113 = loc(callsite(#loc62 at #loc40))
#loc114 = loc(callsite(#loc63 at #loc40))
#loc115 = loc(callsite(#loc64 at #loc40))
#loc116 = loc(callsite(#loc66 at #loc65))
#loc117 = loc(callsite(#loc86 at #loc35))
#loc118 = loc(callsite(#loc87 at #loc35))
#loc119 = loc(callsite(#loc88 at #loc35))
#loc120 = loc(callsite(#loc89 at #loc35))
#loc121 = loc(callsite(#loc90 at #loc34))
#loc122 = loc(callsite(#loc91 at #loc34))
#loc123 = loc(callsite(#loc92 at #loc34))
#loc124 = loc(callsite(#loc93 at #loc34))
#loc125 = loc(callsite(#loc94 at #loc40))
#loc127 = loc(callsite(#loc96 at #loc45))
#loc128 = loc(callsite(#loc97 at #loc34))
#loc129 = loc(callsite(#loc98 at #loc34))
#loc130 = loc(callsite(#loc99 at #loc34))
#loc131 = loc(callsite(#loc100 at #loc40))
#loc133 = loc(callsite(#loc96 at #loc50))
#loc134 = loc(callsite(#loc102 at #loc34))
#loc135 = loc(callsite(#loc103 at #loc34))
#loc136 = loc(callsite(#loc104 at #loc34))
#loc137 = loc(callsite(#loc105 at #loc34))
#loc138 = loc(callsite(#loc106 at #loc34))
#loc139 = loc(callsite(#loc107 at #loc34))
#loc140 = loc(callsite(#loc108 at #loc34))
#loc141 = loc(callsite(#loc109 at #loc34))
#loc142 = loc(callsite(#loc110 at #loc34))
#loc143 = loc(callsite(#loc111 at #loc34))
#loc144 = loc(callsite(#loc112 at #loc34))
#loc145 = loc(callsite(#loc113 at #loc34))
#loc146 = loc(callsite(#loc114 at #loc34))
#loc147 = loc(callsite(#loc115 at #loc34))
#loc148 = loc(callsite(#loc121 at #loc35))
#loc149 = loc(callsite(#loc122 at #loc35))
#loc150 = loc(callsite(#loc123 at #loc35))
#loc151 = loc(callsite(#loc124 at #loc35))
#loc152 = loc(callsite(#loc125 at #loc34))
#loc154 = loc(callsite(#loc127 at #loc40))
#loc155 = loc(callsite(#loc128 at #loc35))
#loc156 = loc(callsite(#loc129 at #loc35))
#loc157 = loc(callsite(#loc130 at #loc35))
#loc158 = loc(callsite(#loc131 at #loc34))
#loc160 = loc(callsite(#loc133 at #loc40))
#loc161 = loc(callsite(#loc134 at #loc35))
#loc162 = loc(callsite(#loc135 at #loc35))
#loc163 = loc(callsite(#loc136 at #loc35))
#loc164 = loc(callsite(#loc137 at #loc35))
#loc165 = loc(callsite(#loc138 at #loc35))
#loc166 = loc(callsite(#loc139 at #loc35))
#loc167 = loc(callsite(#loc140 at #loc35))
#loc168 = loc(callsite(#loc141 at #loc35))
#loc169 = loc(callsite(#loc142 at #loc35))
#loc170 = loc(callsite(#loc143 at #loc35))
#loc171 = loc(callsite(#loc144 at #loc35))
#loc172 = loc(callsite(#loc145 at #loc35))
#loc173 = loc(callsite(#loc146 at #loc35))
#loc174 = loc(callsite(#loc147 at #loc35))
#loc175 = loc(callsite(#loc152 at #loc35))
#loc177 = loc(callsite(#loc154 at #loc34))
#loc178 = loc(callsite(#loc158 at #loc35))
#loc180 = loc(callsite(#loc160 at #loc34))
#loc181 = loc(callsite(#loc177 at #loc35))
#loc182 = loc(callsite(#loc180 at #loc35))
