#loc = loc("inductor_cache/bb/cbbywvqp5t7xhibgx64i634nrx45rrslwsynritdbd7wn6w5r5bt.py":19:0)
module {
  tt.func public @triton_poi_fused__native_batch_norm_legit_no_training_add_native_batch_norm_backward_25(%arg0: !tt.ptr<f32> {tt.divisibility = 16 : i32} loc("inductor_cache/bb/cbbywvqp5t7xhibgx64i634nrx45rrslwsynritdbd7wn6w5r5bt.py":19:0), %arg1: !tt.ptr<f32> {tt.divisibility = 16 : i32} loc("inductor_cache/bb/cbbywvqp5t7xhibgx64i634nrx45rrslwsynritdbd7wn6w5r5bt.py":19:0), %arg2: !tt.ptr<f32> {tt.divisibility = 16 : i32} loc("inductor_cache/bb/cbbywvqp5t7xhibgx64i634nrx45rrslwsynritdbd7wn6w5r5bt.py":19:0), %arg3: !tt.ptr<f32> {tt.divisibility = 16 : i32} loc("inductor_cache/bb/cbbywvqp5t7xhibgx64i634nrx45rrslwsynritdbd7wn6w5r5bt.py":19:0), %arg4: !tt.ptr<f32> {tt.divisibility = 16 : i32} loc("inductor_cache/bb/cbbywvqp5t7xhibgx64i634nrx45rrslwsynritdbd7wn6w5r5bt.py":19:0), %arg5: !tt.ptr<f32> {tt.divisibility = 16 : i32} loc("inductor_cache/bb/cbbywvqp5t7xhibgx64i634nrx45rrslwsynritdbd7wn6w5r5bt.py":19:0), %arg6: !tt.ptr<f32> {tt.divisibility = 16 : i32} loc("inductor_cache/bb/cbbywvqp5t7xhibgx64i634nrx45rrslwsynritdbd7wn6w5r5bt.py":19:0), %arg7: !tt.ptr<f32> {tt.divisibility = 16 : i32} loc("inductor_cache/bb/cbbywvqp5t7xhibgx64i634nrx45rrslwsynritdbd7wn6w5r5bt.py":19:0), %arg8: !tt.ptr<f32> {tt.divisibility = 16 : i32} loc("inductor_cache/bb/cbbywvqp5t7xhibgx64i634nrx45rrslwsynritdbd7wn6w5r5bt.py":19:0), %arg9: i32 {tt.divisibility = 16 : i32} loc("inductor_cache/bb/cbbywvqp5t7xhibgx64i634nrx45rrslwsynritdbd7wn6w5r5bt.py":19:0)) attributes {noinline = false} {
    %cst = arith.constant dense<1.000000e+00> : tensor<128xf32> loc(#loc1)
    %cst_0 = arith.constant dense<9.99999974E-6> : tensor<128xf32> loc(#loc1)
    %cst_1 = arith.constant dense<64> : tensor<128xi32> loc(#loc1)
    %cst_2 = arith.constant dense<36> : tensor<128xi32> loc(#loc1)
    %cst_3 = arith.constant dense<9216> : tensor<128xi32> loc(#loc1)
    %c128_i32 = arith.constant 128 : i32 loc(#loc1)
    %0 = tt.get_program_id x : i32 loc(#loc2)
    %1 = arith.muli %0, %c128_i32 : i32 loc(#loc3)
    %2 = tt.make_range {end = 128 : i32, start = 0 : i32} : tensor<128xi32> loc(#loc4)
    %3 = tt.splat %1 : i32 -> tensor<128xi32> loc(#loc5)
    %4 = arith.addi %3, %2 : tensor<128xi32> loc(#loc5)
    %5 = arith.cmpi slt, %4, %cst_3 : tensor<128xi32> loc(#loc6)
    %6 = arith.divsi %4, %cst_2 : tensor<128xi32> loc(#loc7)
    %7 = arith.remsi %6, %cst_1 : tensor<128xi32> loc(#loc8)
    %8 = tt.splat %arg0 : !tt.ptr<f32> -> tensor<128x!tt.ptr<f32>> loc(#loc9)
    %9 = tt.addptr %8, %4 : tensor<128x!tt.ptr<f32>>, tensor<128xi32> loc(#loc9)
    %10 = tt.load %9, %5 : tensor<128x!tt.ptr<f32>> loc(#loc10)
    %11 = tt.splat %arg1 : !tt.ptr<f32> -> tensor<128x!tt.ptr<f32>> loc(#loc11)
    %12 = tt.addptr %11, %7 : tensor<128x!tt.ptr<f32>>, tensor<128xi32> loc(#loc11)
    %13 = tt.load %12, %5 evictionPolicy = evict_last : tensor<128x!tt.ptr<f32>> loc(#loc12)
    %14 = tt.splat %arg2 : !tt.ptr<f32> -> tensor<128x!tt.ptr<f32>> loc(#loc13)
    %15 = tt.addptr %14, %7 : tensor<128x!tt.ptr<f32>>, tensor<128xi32> loc(#loc13)
    %16 = tt.load %15, %5 evictionPolicy = evict_last : tensor<128x!tt.ptr<f32>> loc(#loc14)
    %17 = tt.splat %arg3 : !tt.ptr<f32> -> tensor<128x!tt.ptr<f32>> loc(#loc15)
    %18 = tt.addptr %17, %7 : tensor<128x!tt.ptr<f32>>, tensor<128xi32> loc(#loc15)
    %19 = tt.load %18, %5 evictionPolicy = evict_last : tensor<128x!tt.ptr<f32>> loc(#loc16)
    %20 = tt.splat %arg4 : !tt.ptr<f32> -> tensor<128x!tt.ptr<f32>> loc(#loc17)
    %21 = tt.addptr %20, %7 : tensor<128x!tt.ptr<f32>>, tensor<128xi32> loc(#loc17)
    %22 = tt.load %21, %5 evictionPolicy = evict_last : tensor<128x!tt.ptr<f32>> loc(#loc18)
    %23 = tt.splat %arg5 : !tt.ptr<f32> -> tensor<128x!tt.ptr<f32>> loc(#loc19)
    %24 = tt.addptr %23, %4 : tensor<128x!tt.ptr<f32>>, tensor<128xi32> loc(#loc19)
    %25 = tt.load %24, %5 : tensor<128x!tt.ptr<f32>> loc(#loc20)
    %26 = tt.splat %arg6 : !tt.ptr<f32> -> tensor<128x!tt.ptr<f32>> loc(#loc21)
    %27 = tt.addptr %26, %7 : tensor<128x!tt.ptr<f32>>, tensor<128xi32> loc(#loc21)
    %28 = tt.load %27, %5 evictionPolicy = evict_last : tensor<128x!tt.ptr<f32>> loc(#loc22)
    %29 = arith.subf %10, %13 : tensor<128xf32> loc(#loc23)
    %30 = arith.addf %16, %cst_0 : tensor<128xf32> loc(#loc24)
    %31 = tt.extern_elementwise %30 {libname = "", libpath = "", pure = true, symbol = "__nv_sqrtf"} : (tensor<128xf32>) -> tensor<128xf32> loc(#loc25)
    %32 = arith.divf %cst, %31 : tensor<128xf32> loc(#loc26)
    %33 = arith.mulf %29, %32 : tensor<128xf32> loc(#loc27)
    %34 = arith.mulf %33, %19 : tensor<128xf32> loc(#loc28)
    %35 = arith.addf %34, %22 : tensor<128xf32> loc(#loc29)
    %36 = arith.addf %35, %25 : tensor<128xf32> loc(#loc30)
    %37 = arith.subf %36, %28 : tensor<128xf32> loc(#loc31)
    %38 = tt.splat %arg7 : !tt.ptr<f32> -> tensor<128x!tt.ptr<f32>> loc(#loc32)
    %39 = tt.addptr %38, %4 : tensor<128x!tt.ptr<f32>>, tensor<128xi32> loc(#loc32)
    tt.store %39, %36, %5 : tensor<128x!tt.ptr<f32>> loc(#loc33)
    %40 = tt.splat %arg8 : !tt.ptr<f32> -> tensor<128x!tt.ptr<f32>> loc(#loc34)
    %41 = tt.addptr %40, %4 : tensor<128x!tt.ptr<f32>>, tensor<128xi32> loc(#loc34)
    tt.store %41, %37, %5 : tensor<128x!tt.ptr<f32>> loc(#loc35)
    tt.return loc(#loc36)
  } loc(#loc)
} loc(#loc)
#loc1 = loc(unknown)
#loc2 = loc("inductor_cache/bb/cbbywvqp5t7xhibgx64i634nrx45rrslwsynritdbd7wn6w5r5bt.py":21:28)
#loc3 = loc("inductor_cache/bb/cbbywvqp5t7xhibgx64i634nrx45rrslwsynritdbd7wn6w5r5bt.py":21:33)
#loc4 = loc("inductor_cache/bb/cbbywvqp5t7xhibgx64i634nrx45rrslwsynritdbd7wn6w5r5bt.py":22:36)
#loc5 = loc("inductor_cache/bb/cbbywvqp5t7xhibgx64i634nrx45rrslwsynritdbd7wn6w5r5bt.py":22:23)
#loc6 = loc("inductor_cache/bb/cbbywvqp5t7xhibgx64i634nrx45rrslwsynritdbd7wn6w5r5bt.py":23:21)
#loc7 = loc("inductor_cache/bb/cbbywvqp5t7xhibgx64i634nrx45rrslwsynritdbd7wn6w5r5bt.py":25:21)
#loc8 = loc("inductor_cache/bb/cbbywvqp5t7xhibgx64i634nrx45rrslwsynritdbd7wn6w5r5bt.py":25:27)
#loc9 = loc("inductor_cache/bb/cbbywvqp5t7xhibgx64i634nrx45rrslwsynritdbd7wn6w5r5bt.py":26:30)
#loc10 = loc("inductor_cache/bb/cbbywvqp5t7xhibgx64i634nrx45rrslwsynritdbd7wn6w5r5bt.py":26:35)
#loc11 = loc("inductor_cache/bb/cbbywvqp5t7xhibgx64i634nrx45rrslwsynritdbd7wn6w5r5bt.py":27:30)
#loc12 = loc("inductor_cache/bb/cbbywvqp5t7xhibgx64i634nrx45rrslwsynritdbd7wn6w5r5bt.py":27:35)
#loc13 = loc("inductor_cache/bb/cbbywvqp5t7xhibgx64i634nrx45rrslwsynritdbd7wn6w5r5bt.py":28:30)
#loc14 = loc("inductor_cache/bb/cbbywvqp5t7xhibgx64i634nrx45rrslwsynritdbd7wn6w5r5bt.py":28:35)
#loc15 = loc("inductor_cache/bb/cbbywvqp5t7xhibgx64i634nrx45rrslwsynritdbd7wn6w5r5bt.py":29:31)
#loc16 = loc("inductor_cache/bb/cbbywvqp5t7xhibgx64i634nrx45rrslwsynritdbd7wn6w5r5bt.py":29:36)
#loc17 = loc("inductor_cache/bb/cbbywvqp5t7xhibgx64i634nrx45rrslwsynritdbd7wn6w5r5bt.py":30:31)
#loc18 = loc("inductor_cache/bb/cbbywvqp5t7xhibgx64i634nrx45rrslwsynritdbd7wn6w5r5bt.py":30:36)
#loc19 = loc("inductor_cache/bb/cbbywvqp5t7xhibgx64i634nrx45rrslwsynritdbd7wn6w5r5bt.py":31:31)
#loc20 = loc("inductor_cache/bb/cbbywvqp5t7xhibgx64i634nrx45rrslwsynritdbd7wn6w5r5bt.py":31:36)
#loc21 = loc("inductor_cache/bb/cbbywvqp5t7xhibgx64i634nrx45rrslwsynritdbd7wn6w5r5bt.py":32:31)
#loc22 = loc("inductor_cache/bb/cbbywvqp5t7xhibgx64i634nrx45rrslwsynritdbd7wn6w5r5bt.py":32:36)
#loc23 = loc("inductor_cache/bb/cbbywvqp5t7xhibgx64i634nrx45rrslwsynritdbd7wn6w5r5bt.py":33:18)
#loc24 = loc("inductor_cache/bb/cbbywvqp5t7xhibgx64i634nrx45rrslwsynritdbd7wn6w5r5bt.py":35:18)
#loc25 = loc("inductor_cache/bb/cbbywvqp5t7xhibgx64i634nrx45rrslwsynritdbd7wn6w5r5bt.py":36:26)
#loc26 = loc("inductor_cache/bb/cbbywvqp5t7xhibgx64i634nrx45rrslwsynritdbd7wn6w5r5bt.py":38:18)
#loc27 = loc("inductor_cache/bb/cbbywvqp5t7xhibgx64i634nrx45rrslwsynritdbd7wn6w5r5bt.py":41:19)
#loc28 = loc("inductor_cache/bb/cbbywvqp5t7xhibgx64i634nrx45rrslwsynritdbd7wn6w5r5bt.py":42:20)
#loc29 = loc("inductor_cache/bb/cbbywvqp5t7xhibgx64i634nrx45rrslwsynritdbd7wn6w5r5bt.py":43:20)
#loc30 = loc("inductor_cache/bb/cbbywvqp5t7xhibgx64i634nrx45rrslwsynritdbd7wn6w5r5bt.py":44:20)
#loc31 = loc("inductor_cache/bb/cbbywvqp5t7xhibgx64i634nrx45rrslwsynritdbd7wn6w5r5bt.py":45:20)
#loc32 = loc("inductor_cache/bb/cbbywvqp5t7xhibgx64i634nrx45rrslwsynritdbd7wn6w5r5bt.py":46:25)
#loc33 = loc("inductor_cache/bb/cbbywvqp5t7xhibgx64i634nrx45rrslwsynritdbd7wn6w5r5bt.py":46:37)
#loc34 = loc("inductor_cache/bb/cbbywvqp5t7xhibgx64i634nrx45rrslwsynritdbd7wn6w5r5bt.py":47:25)
#loc35 = loc("inductor_cache/bb/cbbywvqp5t7xhibgx64i634nrx45rrslwsynritdbd7wn6w5r5bt.py":47:37)
#loc36 = loc("inductor_cache/bb/cbbywvqp5t7xhibgx64i634nrx45rrslwsynritdbd7wn6w5r5bt.py":47:4)
