#loc = loc("inductor_cache/va/cvabjcmx2fnyssnrkwoxdno5qyrldudxdrc2j65lfoqt7yxr6vyy.py":19:0)
module {
  tt.func public @triton_poi_fused__weight_norm_interface_convolution_12(%arg0: !tt.ptr<f32> {tt.divisibility = 16 : i32} loc("inductor_cache/va/cvabjcmx2fnyssnrkwoxdno5qyrldudxdrc2j65lfoqt7yxr6vyy.py":19:0), %arg1: !tt.ptr<f32> {tt.divisibility = 16 : i32} loc("inductor_cache/va/cvabjcmx2fnyssnrkwoxdno5qyrldudxdrc2j65lfoqt7yxr6vyy.py":19:0), %arg2: !tt.ptr<f32> {tt.divisibility = 16 : i32} loc("inductor_cache/va/cvabjcmx2fnyssnrkwoxdno5qyrldudxdrc2j65lfoqt7yxr6vyy.py":19:0), %arg3: !tt.ptr<f32> {tt.divisibility = 16 : i32} loc("inductor_cache/va/cvabjcmx2fnyssnrkwoxdno5qyrldudxdrc2j65lfoqt7yxr6vyy.py":19:0), %arg4: !tt.ptr<f32> {tt.divisibility = 16 : i32} loc("inductor_cache/va/cvabjcmx2fnyssnrkwoxdno5qyrldudxdrc2j65lfoqt7yxr6vyy.py":19:0), %arg5: i32 {tt.divisibility = 16 : i32} loc("inductor_cache/va/cvabjcmx2fnyssnrkwoxdno5qyrldudxdrc2j65lfoqt7yxr6vyy.py":19:0), %arg6: i32 loc("inductor_cache/va/cvabjcmx2fnyssnrkwoxdno5qyrldudxdrc2j65lfoqt7yxr6vyy.py":19:0)) attributes {noinline = false} {
    %cst = arith.constant dense<25> : tensor<1x16xi32> loc(#loc1)
    %cst_0 = arith.constant dense<800> : tensor<1x16xi32> loc(#loc1)
    %cst_1 = arith.constant dense<32> : tensor<32x1xi32> loc(#loc1)
    %cst_2 = arith.constant dense<32> : tensor<1x16xi32> loc(#loc1)
    %cst_3 = arith.constant dense<25> : tensor<32x1xi32> loc(#loc1)
    %c32_i32 = arith.constant 32 : i32 loc(#loc1)
    %c16_i32 = arith.constant 16 : i32 loc(#loc1)
    %0 = tt.get_program_id y : i32 loc(#loc2)
    %1 = arith.muli %0, %c16_i32 : i32 loc(#loc3)
    %2 = tt.make_range {end = 16 : i32, start = 0 : i32} : tensor<16xi32> loc(#loc4)
    %3 = tt.expand_dims %2 {axis = 0 : i32} : tensor<16xi32> -> tensor<1x16xi32> loc(#loc5)
    %4 = tt.splat %1 : i32 -> tensor<1x16xi32> loc(#loc6)
    %5 = arith.addi %4, %3 : tensor<1x16xi32> loc(#loc6)
    %6 = tt.get_program_id x : i32 loc(#loc7)
    %7 = arith.muli %6, %c32_i32 : i32 loc(#loc8)
    %8 = tt.make_range {end = 32 : i32, start = 0 : i32} : tensor<32xi32> loc(#loc9)
    %9 = tt.expand_dims %8 {axis = 1 : i32} : tensor<32xi32> -> tensor<32x1xi32> loc(#loc10)
    %10 = tt.splat %7 : i32 -> tensor<32x1xi32> loc(#loc11)
    %11 = arith.addi %10, %9 : tensor<32x1xi32> loc(#loc11)
    %12 = arith.cmpi slt, %11, %cst_3 : tensor<32x1xi32> loc(#loc12)
    %13 = arith.remsi %5, %cst_2 : tensor<1x16xi32> loc(#loc13)
    %14 = arith.divsi %5, %cst_2 : tensor<1x16xi32> loc(#loc14)
    %15 = arith.muli %11, %cst_1 : tensor<32x1xi32> loc(#loc15)
    %16 = tt.broadcast %13 : tensor<1x16xi32> -> tensor<32x16xi32> loc(#loc16)
    %17 = tt.broadcast %15 : tensor<32x1xi32> -> tensor<32x16xi32> loc(#loc16)
    %18 = arith.addi %16, %17 : tensor<32x16xi32> loc(#loc16)
    %19 = arith.muli %14, %cst_0 : tensor<1x16xi32> loc(#loc17)
    %20 = tt.broadcast %19 : tensor<1x16xi32> -> tensor<32x16xi32> loc(#loc18)
    %21 = arith.addi %18, %20 : tensor<32x16xi32> loc(#loc18)
    %22 = tt.splat %arg0 : !tt.ptr<f32> -> tensor<32x16x!tt.ptr<f32>> loc(#loc19)
    %23 = tt.addptr %22, %21 : tensor<32x16x!tt.ptr<f32>>, tensor<32x16xi32> loc(#loc19)
    %24 = tt.broadcast %12 : tensor<32x1xi1> -> tensor<32x16xi1> loc(#loc20)
    %25 = tt.load %23, %24 evictionPolicy = evict_last : tensor<32x16x!tt.ptr<f32>> loc(#loc20)
    %26 = tt.splat %arg1 : !tt.ptr<f32> -> tensor<1x16x!tt.ptr<f32>> loc(#loc21)
    %27 = tt.addptr %26, %14 : tensor<1x16x!tt.ptr<f32>>, tensor<1x16xi32> loc(#loc21)
    %28 = tt.load %27 evictionPolicy = evict_last : tensor<1x16x!tt.ptr<f32>> loc(#loc22)
    %29 = tt.splat %arg2 : !tt.ptr<f32> -> tensor<1x16x!tt.ptr<f32>> loc(#loc23)
    %30 = tt.addptr %29, %14 : tensor<1x16x!tt.ptr<f32>>, tensor<1x16xi32> loc(#loc23)
    %31 = tt.load %30 evictionPolicy = evict_last : tensor<1x16x!tt.ptr<f32>> loc(#loc24)
    %32 = arith.divf %28, %31 : tensor<1x16xf32> loc(#loc25)
    %33 = tt.broadcast %32 : tensor<1x16xf32> -> tensor<32x16xf32> loc(#loc26)
    %34 = arith.mulf %25, %33 : tensor<32x16xf32> loc(#loc26)
    %35 = arith.muli %5, %cst : tensor<1x16xi32> loc(#loc27)
    %36 = tt.broadcast %11 : tensor<32x1xi32> -> tensor<32x16xi32> loc(#loc28)
    %37 = tt.broadcast %35 : tensor<1x16xi32> -> tensor<32x16xi32> loc(#loc28)
    %38 = arith.addi %36, %37 : tensor<32x16xi32> loc(#loc28)
    %39 = tt.splat %arg3 : !tt.ptr<f32> -> tensor<32x16x!tt.ptr<f32>> loc(#loc29)
    %40 = tt.addptr %39, %38 : tensor<32x16x!tt.ptr<f32>>, tensor<32x16xi32> loc(#loc29)
    tt.store %40, %34, %24 : tensor<32x16x!tt.ptr<f32>> loc(#loc30)
    %41 = tt.splat %arg4 : !tt.ptr<f32> -> tensor<32x16x!tt.ptr<f32>> loc(#loc31)
    %42 = tt.addptr %41, %21 : tensor<32x16x!tt.ptr<f32>>, tensor<32x16xi32> loc(#loc31)
    tt.store %42, %34, %24 : tensor<32x16x!tt.ptr<f32>> loc(#loc32)
    tt.return loc(#loc33)
  } loc(#loc)
} loc(#loc)
#loc1 = loc(unknown)
#loc2 = loc("inductor_cache/va/cvabjcmx2fnyssnrkwoxdno5qyrldudxdrc2j65lfoqt7yxr6vyy.py":22:28)
#loc3 = loc("inductor_cache/va/cvabjcmx2fnyssnrkwoxdno5qyrldudxdrc2j65lfoqt7yxr6vyy.py":22:33)
#loc4 = loc("inductor_cache/va/cvabjcmx2fnyssnrkwoxdno5qyrldudxdrc2j65lfoqt7yxr6vyy.py":23:36)
#loc5 = loc("inductor_cache/va/cvabjcmx2fnyssnrkwoxdno5qyrldudxdrc2j65lfoqt7yxr6vyy.py":23:44)
#loc6 = loc("inductor_cache/va/cvabjcmx2fnyssnrkwoxdno5qyrldudxdrc2j65lfoqt7yxr6vyy.py":23:23)
#loc7 = loc("inductor_cache/va/cvabjcmx2fnyssnrkwoxdno5qyrldudxdrc2j65lfoqt7yxr6vyy.py":25:28)
#loc8 = loc("inductor_cache/va/cvabjcmx2fnyssnrkwoxdno5qyrldudxdrc2j65lfoqt7yxr6vyy.py":25:33)
#loc9 = loc("inductor_cache/va/cvabjcmx2fnyssnrkwoxdno5qyrldudxdrc2j65lfoqt7yxr6vyy.py":26:36)
#loc10 = loc("inductor_cache/va/cvabjcmx2fnyssnrkwoxdno5qyrldudxdrc2j65lfoqt7yxr6vyy.py":26:44)
#loc11 = loc("inductor_cache/va/cvabjcmx2fnyssnrkwoxdno5qyrldudxdrc2j65lfoqt7yxr6vyy.py":26:23)
#loc12 = loc("inductor_cache/va/cvabjcmx2fnyssnrkwoxdno5qyrldudxdrc2j65lfoqt7yxr6vyy.py":27:21)
#loc13 = loc("inductor_cache/va/cvabjcmx2fnyssnrkwoxdno5qyrldudxdrc2j65lfoqt7yxr6vyy.py":29:19)
#loc14 = loc("inductor_cache/va/cvabjcmx2fnyssnrkwoxdno5qyrldudxdrc2j65lfoqt7yxr6vyy.py":30:19)
#loc15 = loc("inductor_cache/va/cvabjcmx2fnyssnrkwoxdno5qyrldudxdrc2j65lfoqt7yxr6vyy.py":32:38)
#loc16 = loc("inductor_cache/va/cvabjcmx2fnyssnrkwoxdno5qyrldudxdrc2j65lfoqt7yxr6vyy.py":32:35)
#loc17 = loc("inductor_cache/va/cvabjcmx2fnyssnrkwoxdno5qyrldudxdrc2j65lfoqt7yxr6vyy.py":32:47)
#loc18 = loc("inductor_cache/va/cvabjcmx2fnyssnrkwoxdno5qyrldudxdrc2j65lfoqt7yxr6vyy.py":32:43)
#loc19 = loc("inductor_cache/va/cvabjcmx2fnyssnrkwoxdno5qyrldudxdrc2j65lfoqt7yxr6vyy.py":32:30)
#loc20 = loc("inductor_cache/va/cvabjcmx2fnyssnrkwoxdno5qyrldudxdrc2j65lfoqt7yxr6vyy.py":32:52)
#loc21 = loc("inductor_cache/va/cvabjcmx2fnyssnrkwoxdno5qyrldudxdrc2j65lfoqt7yxr6vyy.py":33:30)
#loc22 = loc("inductor_cache/va/cvabjcmx2fnyssnrkwoxdno5qyrldudxdrc2j65lfoqt7yxr6vyy.py":33:35)
#loc23 = loc("inductor_cache/va/cvabjcmx2fnyssnrkwoxdno5qyrldudxdrc2j65lfoqt7yxr6vyy.py":34:30)
#loc24 = loc("inductor_cache/va/cvabjcmx2fnyssnrkwoxdno5qyrldudxdrc2j65lfoqt7yxr6vyy.py":34:35)
#loc25 = loc("inductor_cache/va/cvabjcmx2fnyssnrkwoxdno5qyrldudxdrc2j65lfoqt7yxr6vyy.py":35:18)
#loc26 = loc("inductor_cache/va/cvabjcmx2fnyssnrkwoxdno5qyrldudxdrc2j65lfoqt7yxr6vyy.py":36:18)
#loc27 = loc("inductor_cache/va/cvabjcmx2fnyssnrkwoxdno5qyrldudxdrc2j65lfoqt7yxr6vyy.py":37:33)
#loc28 = loc("inductor_cache/va/cvabjcmx2fnyssnrkwoxdno5qyrldudxdrc2j65lfoqt7yxr6vyy.py":37:30)
#loc29 = loc("inductor_cache/va/cvabjcmx2fnyssnrkwoxdno5qyrldudxdrc2j65lfoqt7yxr6vyy.py":37:25)
#loc30 = loc("inductor_cache/va/cvabjcmx2fnyssnrkwoxdno5qyrldudxdrc2j65lfoqt7yxr6vyy.py":37:44)
#loc31 = loc("inductor_cache/va/cvabjcmx2fnyssnrkwoxdno5qyrldudxdrc2j65lfoqt7yxr6vyy.py":38:25)
#loc32 = loc("inductor_cache/va/cvabjcmx2fnyssnrkwoxdno5qyrldudxdrc2j65lfoqt7yxr6vyy.py":38:53)
#loc33 = loc("inductor_cache/va/cvabjcmx2fnyssnrkwoxdno5qyrldudxdrc2j65lfoqt7yxr6vyy.py":38:4)
