#loc = loc("inductor_cache/lp/clpavcy6xrhqtbwxcpal7up47n7rrjh7z27jam3d7hrnx2indhhv.py":19:0)
#loc1 = loc(unknown)
#loc30 = loc("inductor_cache/lp/clpavcy6xrhqtbwxcpal7up47n7rrjh7z27jam3d7hrnx2indhhv.py":43:41)
#loc81 = loc(callsite(#loc1 at #loc30))
module {
  tt.func public @triton_red_fused__native_batch_norm_legit_leaky_relu_0(%arg0: !tt.ptr<f32> {tt.divisibility = 16 : i32} loc("inductor_cache/lp/clpavcy6xrhqtbwxcpal7up47n7rrjh7z27jam3d7hrnx2indhhv.py":19:0), %arg1: !tt.ptr<f32> {tt.divisibility = 16 : i32} loc("inductor_cache/lp/clpavcy6xrhqtbwxcpal7up47n7rrjh7z27jam3d7hrnx2indhhv.py":19:0), %arg2: !tt.ptr<f32> {tt.divisibility = 16 : i32} loc("inductor_cache/lp/clpavcy6xrhqtbwxcpal7up47n7rrjh7z27jam3d7hrnx2indhhv.py":19:0), %arg3: !tt.ptr<f32> {tt.divisibility = 16 : i32} loc("inductor_cache/lp/clpavcy6xrhqtbwxcpal7up47n7rrjh7z27jam3d7hrnx2indhhv.py":19:0), %arg4: i32 {tt.divisibility = 16 : i32} loc("inductor_cache/lp/clpavcy6xrhqtbwxcpal7up47n7rrjh7z27jam3d7hrnx2indhhv.py":19:0), %arg5: i32 {tt.divisibility = 16 : i32} loc("inductor_cache/lp/clpavcy6xrhqtbwxcpal7up47n7rrjh7z27jam3d7hrnx2indhhv.py":19:0)) attributes {noinline = false} {
    %c128_i32 = arith.constant 128 : i32 loc(#loc1)
    %cst = arith.constant 0.000000e+00 : f32 loc(#loc1)
    %cst_0 = arith.constant dense<1.000000e+00> : tensor<1x2048xf32> loc(#loc1)
    %c2048_i32 = arith.constant 2048 : i32 loc(#loc1)
    %c4096_i32 = arith.constant 4096 : i32 loc(#loc1)
    %cst_1 = arith.constant dense<2.000000e-01> : tensor<1x2048xf32> loc(#loc1)
    %cst_2 = arith.constant dense<9.99999974E-6> : tensor<1x1xf32> loc(#loc1)
    %cst_3 = arith.constant dense<4.096000e+03> : tensor<1x1xf32> loc(#loc1)
    %cst_4 = arith.constant dense<0.000000e+00> : tensor<1x2048xf32> loc(#loc1)
    %cst_5 = arith.constant dense<4096> : tensor<1x2048xi32> loc(#loc1)
    %c0_i32 = arith.constant 0 : i32 loc(#loc1)
    %0 = tt.get_program_id x : i32 loc(#loc2)
    %1 = arith.cmpi slt, %0, %c128_i32 : i32 loc(#loc3)
    %2 = tt.splat %1 : i1 -> tensor<1x1xi1> loc(#loc3)
    %3 = tt.make_range {end = 2048 : i32, start = 0 : i32} : tensor<2048xi32> loc(#loc4)
    %4 = tt.expand_dims %3 {axis = 0 : i32} : tensor<2048xi32> -> tensor<1x2048xi32> loc(#loc5)
    %5 = arith.muli %0, %c4096_i32 : i32 loc(#loc6)
    %6 = tt.splat %5 : i32 -> tensor<1x2048xi32> loc(#loc7)
    %7 = tt.splat %arg0 : !tt.ptr<f32> -> tensor<1x2048x!tt.ptr<f32>> loc(#loc8)
    %8 = tt.splat %1 : i1 -> tensor<1x2048xi1> loc(#loc9)
    %9:3 = scf.for %arg6 = %c0_i32 to %c4096_i32 step %c2048_i32 iter_args(%arg7 = %cst_4, %arg8 = %cst_4, %arg9 = %cst_4) -> (tensor<1x2048xf32>, tensor<1x2048xf32>, tensor<1x2048xf32>)  : i32 {
      %30 = tt.splat %arg6 : i32 -> tensor<1x2048xi32> loc(#loc11)
      %31 = arith.addi %30, %4 : tensor<1x2048xi32> loc(#loc11)
      %32 = arith.cmpi slt, %31, %cst_5 : tensor<1x2048xi32> loc(#loc12)
      %33 = arith.addi %31, %6 : tensor<1x2048xi32> loc(#loc7)
      %34 = tt.addptr %7, %33 : tensor<1x2048x!tt.ptr<f32>>, tensor<1x2048xi32> loc(#loc8)
      %35 = arith.andi %32, %8 : tensor<1x2048xi1> loc(#loc9)
      %36 = tt.load %34, %35, %cst_4 evictionPolicy = evict_last : tensor<1x2048x!tt.ptr<f32>> loc(#loc13)
      %37 = arith.cmpi eq, %arg6, %c0_i32 : i32 loc(#loc14)
      %38:3 = scf.if %37 -> (tensor<1x2048xf32>, tensor<1x2048xf32>, tensor<1x2048xf32>) {
        scf.yield %cst_4, %36, %cst_0 : tensor<1x2048xf32>, tensor<1x2048xf32>, tensor<1x2048xf32> loc(#loc72)
      } else {
        %42 = arith.subf %36, %arg7 : tensor<1x2048xf32> loc(#loc73)
        %43 = arith.addf %arg9, %cst_0 : tensor<1x2048xf32> loc(#loc74)
        %44 = arith.divf %42, %43 : tensor<1x2048xf32> loc(#loc75)
        %45 = arith.addf %arg7, %44 : tensor<1x2048xf32> loc(#loc76)
        %46 = arith.subf %36, %45 : tensor<1x2048xf32> loc(#loc77)
        %47 = arith.mulf %42, %46 : tensor<1x2048xf32> loc(#loc78)
        %48 = arith.addf %arg8, %47 : tensor<1x2048xf32> loc(#loc79)
        scf.yield %48, %45, %43 : tensor<1x2048xf32>, tensor<1x2048xf32>, tensor<1x2048xf32> loc(#loc79)
      } loc(#loc71)
      %39 = arith.select %35, %38#1, %arg7 : tensor<1x2048xi1>, tensor<1x2048xf32> loc(#loc25)
      %40 = arith.select %35, %38#0, %arg8 : tensor<1x2048xi1>, tensor<1x2048xf32> loc(#loc26)
      %41 = arith.select %35, %38#2, %arg9 : tensor<1x2048xi1>, tensor<1x2048xf32> loc(#loc27)
      scf.yield %39, %40, %41 : tensor<1x2048xf32>, tensor<1x2048xf32>, tensor<1x2048xf32> loc(#loc28)
    } loc(#loc10)
    %10:3 = "tt.reduce"(%9#0, %9#1, %9#2) <{axis = 1 : i32}> ({
    ^bb0(%arg6: f32 loc(callsite(#loc1 at #loc30)), %arg7: f32 loc(callsite(#loc1 at #loc30)), %arg8: f32 loc(callsite(#loc1 at #loc30)), %arg9: f32 loc(callsite(#loc1 at #loc30)), %arg10: f32 loc(callsite(#loc1 at #loc30)), %arg11: f32 loc(callsite(#loc1 at #loc30))):
      %30 = arith.subf %arg9, %arg6 : f32 loc(#loc94)
      %31 = arith.addf %arg8, %arg11 : f32 loc(#loc95)
      %32 = arith.cmpf oeq, %31, %cst : f32 loc(#loc96)
      %33 = arith.divf %arg11, %31 : f32 loc(#loc97)
      %34 = arith.select %32, %cst, %33 : f32 loc(#loc98)
      %35 = arith.mulf %30, %34 : f32 loc(#loc99)
      %36 = arith.addf %arg6, %35 : f32 loc(#loc100)
      %37 = arith.addf %arg7, %arg10 : f32 loc(#loc101)
      %38 = arith.mulf %30, %30 : f32 loc(#loc102)
      %39 = arith.mulf %38, %arg8 : f32 loc(#loc103)
      %40 = arith.mulf %39, %34 : f32 loc(#loc104)
      %41 = arith.addf %37, %40 : f32 loc(#loc105)
      tt.reduce.return %36, %41, %31 : f32, f32, f32 loc(#loc80)
    }) : (tensor<1x2048xf32>, tensor<1x2048xf32>, tensor<1x2048xf32>) -> (tensor<1xf32>, tensor<1xf32>, tensor<1xf32>) loc(#loc80)
    %11 = tt.expand_dims %10#0 {axis = 1 : i32} : tensor<1xf32> -> tensor<1x1xf32> loc(#loc43)
    %12 = tt.expand_dims %10#1 {axis = 1 : i32} : tensor<1xf32> -> tensor<1x1xf32> loc(#loc44)
    %13 = tt.addptr %arg1, %0 : !tt.ptr<f32>, i32 loc(#loc45)
    %14 = tt.splat %13 : !tt.ptr<f32> -> tensor<1x1x!tt.ptr<f32>> loc(#loc45)
    tt.store %14, %11, %2 : tensor<1x1x!tt.ptr<f32>> loc(#loc46)
    %15 = arith.muli %0, %c4096_i32 : i32 loc(#loc47)
    %16 = tt.splat %15 : i32 -> tensor<1x2048xi32> loc(#loc48)
    %17 = tt.splat %arg0 : !tt.ptr<f32> -> tensor<1x2048x!tt.ptr<f32>> loc(#loc49)
    %18 = tt.splat %1 : i1 -> tensor<1x2048xi1> loc(#loc50)
    %19 = tt.broadcast %11 : tensor<1x1xf32> -> tensor<1x2048xf32> loc(#loc51)
    %20 = arith.divf %12, %cst_3 : tensor<1x1xf32> loc(#loc52)
    %21 = arith.addf %20, %cst_2 : tensor<1x1xf32> loc(#loc53)
    %22 = tt.extern_elementwise %21 {libname = "", libpath = "", pure = true, symbol = "__nv_rsqrtf"} : (tensor<1x1xf32>) -> tensor<1x1xf32> loc(#loc54)
    %23 = tt.broadcast %22 : tensor<1x1xf32> -> tensor<1x2048xf32> loc(#loc55)
    %24 = tt.splat %arg2 : !tt.ptr<f32> -> tensor<1x2048x!tt.ptr<f32>> loc(#loc56)
    scf.for %arg6 = %c0_i32 to %c4096_i32 step %c2048_i32  : i32 {
      %30 = tt.splat %arg6 : i32 -> tensor<1x2048xi32> loc(#loc58)
      %31 = arith.addi %30, %4 : tensor<1x2048xi32> loc(#loc58)
      %32 = arith.cmpi slt, %31, %cst_5 : tensor<1x2048xi32> loc(#loc59)
      %33 = arith.addi %31, %16 : tensor<1x2048xi32> loc(#loc48)
      %34 = tt.addptr %17, %33 : tensor<1x2048x!tt.ptr<f32>>, tensor<1x2048xi32> loc(#loc49)
      %35 = arith.andi %32, %18 : tensor<1x2048xi1> loc(#loc50)
      %36 = tt.load %34, %35, %cst_4 evictionPolicy = evict_first : tensor<1x2048x!tt.ptr<f32>> loc(#loc60)
      %37 = arith.subf %36, %19 : tensor<1x2048xf32> loc(#loc51)
      %38 = arith.mulf %37, %23 : tensor<1x2048xf32> loc(#loc55)
      %39 = arith.cmpf ogt, %38, %cst_4 : tensor<1x2048xf32> loc(#loc61)
      %40 = arith.mulf %38, %cst_1 : tensor<1x2048xf32> loc(#loc62)
      %41 = arith.select %39, %38, %40 : tensor<1x2048xi1>, tensor<1x2048xf32> loc(#loc63)
      %42 = tt.addptr %24, %33 : tensor<1x2048x!tt.ptr<f32>>, tensor<1x2048xi32> loc(#loc56)
      tt.store %42, %41, %35 : tensor<1x2048x!tt.ptr<f32>> loc(#loc64)
    } loc(#loc57)
    %25 = arith.divf %12, %cst_3 : tensor<1x1xf32> loc(#loc65)
    %26 = arith.addf %25, %cst_2 : tensor<1x1xf32> loc(#loc66)
    %27 = tt.extern_elementwise %26 {libname = "", libpath = "", pure = true, symbol = "__nv_rsqrtf"} : (tensor<1x1xf32>) -> tensor<1x1xf32> loc(#loc67)
    %28 = tt.addptr %arg3, %0 : !tt.ptr<f32>, i32 loc(#loc68)
    %29 = tt.splat %28 : !tt.ptr<f32> -> tensor<1x1x!tt.ptr<f32>> loc(#loc68)
    tt.store %29, %27, %2 : tensor<1x1x!tt.ptr<f32>> loc(#loc69)
    tt.return loc(#loc70)
  } loc(#loc)
} loc(#loc)
#loc2 = loc("inductor_cache/lp/clpavcy6xrhqtbwxcpal7up47n7rrjh7z27jam3d7hrnx2indhhv.py":22:28)
#loc3 = loc("inductor_cache/lp/clpavcy6xrhqtbwxcpal7up47n7rrjh7z27jam3d7hrnx2indhhv.py":24:21)
#loc4 = loc("inductor_cache/lp/clpavcy6xrhqtbwxcpal7up47n7rrjh7z27jam3d7hrnx2indhhv.py":25:25)
#loc5 = loc("inductor_cache/lp/clpavcy6xrhqtbwxcpal7up47n7rrjh7z27jam3d7hrnx2indhhv.py":25:33)
#loc6 = loc("inductor_cache/lp/clpavcy6xrhqtbwxcpal7up47n7rrjh7z27jam3d7hrnx2indhhv.py":34:44)
#loc7 = loc("inductor_cache/lp/clpavcy6xrhqtbwxcpal7up47n7rrjh7z27jam3d7hrnx2indhhv.py":34:39)
#loc8 = loc("inductor_cache/lp/clpavcy6xrhqtbwxcpal7up47n7rrjh7z27jam3d7hrnx2indhhv.py":34:34)
#loc9 = loc("inductor_cache/lp/clpavcy6xrhqtbwxcpal7up47n7rrjh7z27jam3d7hrnx2indhhv.py":34:57)
#loc10 = loc("inductor_cache/lp/clpavcy6xrhqtbwxcpal7up47n7rrjh7z27jam3d7hrnx2indhhv.py":30:36)
#loc11 = loc("inductor_cache/lp/clpavcy6xrhqtbwxcpal7up47n7rrjh7z27jam3d7hrnx2indhhv.py":31:27)
#loc12 = loc("inductor_cache/lp/clpavcy6xrhqtbwxcpal7up47n7rrjh7z27jam3d7hrnx2indhhv.py":32:25)
#loc13 = loc("inductor_cache/lp/clpavcy6xrhqtbwxcpal7up47n7rrjh7z27jam3d7hrnx2indhhv.py":34:49)
#loc14 = loc("inductor_cache/lp/clpavcy6xrhqtbwxcpal7up47n7rrjh7z27jam3d7hrnx2indhhv.py":37:62)
#loc15 = loc("/home/sahanp/.conda/envs/parity-bench/lib/python3.12/site-packages/torch/_inductor/runtime/triton_helpers.py":178:7)
#loc16 = loc("inductor_cache/lp/clpavcy6xrhqtbwxcpal7up47n7rrjh7z27jam3d7hrnx2indhhv.py":37:51)
#loc17 = loc("/home/sahanp/.conda/envs/parity-bench/lib/python3.12/site-packages/torch/_inductor/runtime/triton_helpers.py":181:31)
#loc18 = loc("/home/sahanp/.conda/envs/parity-bench/lib/python3.12/site-packages/torch/_inductor/runtime/triton_helpers.py":183:24)
#loc19 = loc("/home/sahanp/.conda/envs/parity-bench/lib/python3.12/site-packages/torch/_inductor/runtime/triton_helpers.py":184:30)
#loc20 = loc("/home/sahanp/.conda/envs/parity-bench/lib/python3.12/site-packages/torch/_inductor/runtime/triton_helpers.py":185:34)
#loc21 = loc("/home/sahanp/.conda/envs/parity-bench/lib/python3.12/site-packages/torch/_inductor/runtime/triton_helpers.py":185:26)
#loc22 = loc("/home/sahanp/.conda/envs/parity-bench/lib/python3.12/site-packages/torch/_inductor/runtime/triton_helpers.py":186:39)
#loc23 = loc("/home/sahanp/.conda/envs/parity-bench/lib/python3.12/site-packages/torch/_inductor/runtime/triton_helpers.py":186:31)
#loc24 = loc("/home/sahanp/.conda/envs/parity-bench/lib/python3.12/site-packages/torch/_inductor/runtime/triton_helpers.py":186:22)
#loc25 = loc("inductor_cache/lp/clpavcy6xrhqtbwxcpal7up47n7rrjh7z27jam3d7hrnx2indhhv.py":39:60)
#loc26 = loc("inductor_cache/lp/clpavcy6xrhqtbwxcpal7up47n7rrjh7z27jam3d7hrnx2indhhv.py":40:56)
#loc27 = loc("inductor_cache/lp/clpavcy6xrhqtbwxcpal7up47n7rrjh7z27jam3d7hrnx2indhhv.py":41:64)
#loc28 = loc("inductor_cache/lp/clpavcy6xrhqtbwxcpal7up47n7rrjh7z27jam3d7hrnx2indhhv.py":41:8)
#loc29 = loc("/home/sahanp/.conda/envs/parity-bench/lib/python3.12/site-packages/torch/_inductor/runtime/triton_helpers.py":204:46)
#loc31 = loc("/home/sahanp/.conda/envs/parity-bench/lib/python3.12/site-packages/torch/_inductor/runtime/triton_helpers.py":192:21)
#loc32 = loc("/home/sahanp/.conda/envs/parity-bench/lib/python3.12/site-packages/torch/_inductor/runtime/triton_helpers.py":193:28)
#loc33 = loc("/home/sahanp/.conda/envs/parity-bench/lib/python3.12/site-packages/torch/_inductor/runtime/triton_helpers.py":194:39)
#loc34 = loc("/home/sahanp/.conda/envs/parity-bench/lib/python3.12/site-packages/torch/_inductor/runtime/triton_helpers.py":194:60)
#loc35 = loc("/home/sahanp/.conda/envs/parity-bench/lib/python3.12/site-packages/torch/_inductor/runtime/triton_helpers.py":194:49)
#loc36 = loc("/home/sahanp/.conda/envs/parity-bench/lib/python3.12/site-packages/torch/_inductor/runtime/triton_helpers.py":196:25)
#loc37 = loc("/home/sahanp/.conda/envs/parity-bench/lib/python3.12/site-packages/torch/_inductor/runtime/triton_helpers.py":196:17)
#loc38 = loc("/home/sahanp/.conda/envs/parity-bench/lib/python3.12/site-packages/torch/_inductor/runtime/triton_helpers.py":197:15)
#loc39 = loc("/home/sahanp/.conda/envs/parity-bench/lib/python3.12/site-packages/torch/_inductor/runtime/triton_helpers.py":197:30)
#loc40 = loc("/home/sahanp/.conda/envs/parity-bench/lib/python3.12/site-packages/torch/_inductor/runtime/triton_helpers.py":197:38)
#loc41 = loc("/home/sahanp/.conda/envs/parity-bench/lib/python3.12/site-packages/torch/_inductor/runtime/triton_helpers.py":197:49)
#loc42 = loc("/home/sahanp/.conda/envs/parity-bench/lib/python3.12/site-packages/torch/_inductor/runtime/triton_helpers.py":197:22)
#loc43 = loc("inductor_cache/lp/clpavcy6xrhqtbwxcpal7up47n7rrjh7z27jam3d7hrnx2indhhv.py":45:20)
#loc44 = loc("inductor_cache/lp/clpavcy6xrhqtbwxcpal7up47n7rrjh7z27jam3d7hrnx2indhhv.py":46:20)
#loc45 = loc("inductor_cache/lp/clpavcy6xrhqtbwxcpal7up47n7rrjh7z27jam3d7hrnx2indhhv.py":48:25)
#loc46 = loc("inductor_cache/lp/clpavcy6xrhqtbwxcpal7up47n7rrjh7z27jam3d7hrnx2indhhv.py":48:36)
#loc47 = loc("inductor_cache/lp/clpavcy6xrhqtbwxcpal7up47n7rrjh7z27jam3d7hrnx2indhhv.py":53:44)
#loc48 = loc("inductor_cache/lp/clpavcy6xrhqtbwxcpal7up47n7rrjh7z27jam3d7hrnx2indhhv.py":53:39)
#loc49 = loc("inductor_cache/lp/clpavcy6xrhqtbwxcpal7up47n7rrjh7z27jam3d7hrnx2indhhv.py":53:34)
#loc50 = loc("inductor_cache/lp/clpavcy6xrhqtbwxcpal7up47n7rrjh7z27jam3d7hrnx2indhhv.py":53:57)
#loc51 = loc("inductor_cache/lp/clpavcy6xrhqtbwxcpal7up47n7rrjh7z27jam3d7hrnx2indhhv.py":54:22)
#loc52 = loc("inductor_cache/lp/clpavcy6xrhqtbwxcpal7up47n7rrjh7z27jam3d7hrnx2indhhv.py":56:22)
#loc53 = loc("inductor_cache/lp/clpavcy6xrhqtbwxcpal7up47n7rrjh7z27jam3d7hrnx2indhhv.py":58:23)
#loc54 = loc("inductor_cache/lp/clpavcy6xrhqtbwxcpal7up47n7rrjh7z27jam3d7hrnx2indhhv.py":59:32)
#loc55 = loc("inductor_cache/lp/clpavcy6xrhqtbwxcpal7up47n7rrjh7z27jam3d7hrnx2indhhv.py":60:23)
#loc56 = loc("inductor_cache/lp/clpavcy6xrhqtbwxcpal7up47n7rrjh7z27jam3d7hrnx2indhhv.py":66:29)
#loc57 = loc("inductor_cache/lp/clpavcy6xrhqtbwxcpal7up47n7rrjh7z27jam3d7hrnx2indhhv.py":49:36)
#loc58 = loc("inductor_cache/lp/clpavcy6xrhqtbwxcpal7up47n7rrjh7z27jam3d7hrnx2indhhv.py":50:27)
#loc59 = loc("inductor_cache/lp/clpavcy6xrhqtbwxcpal7up47n7rrjh7z27jam3d7hrnx2indhhv.py":51:25)
#loc60 = loc("inductor_cache/lp/clpavcy6xrhqtbwxcpal7up47n7rrjh7z27jam3d7hrnx2indhhv.py":53:49)
#loc61 = loc("inductor_cache/lp/clpavcy6xrhqtbwxcpal7up47n7rrjh7z27jam3d7hrnx2indhhv.py":62:24)
#loc62 = loc("inductor_cache/lp/clpavcy6xrhqtbwxcpal7up47n7rrjh7z27jam3d7hrnx2indhhv.py":64:24)
#loc63 = loc("inductor_cache/lp/clpavcy6xrhqtbwxcpal7up47n7rrjh7z27jam3d7hrnx2indhhv.py":65:39)
#loc64 = loc("inductor_cache/lp/clpavcy6xrhqtbwxcpal7up47n7rrjh7z27jam3d7hrnx2indhhv.py":66:51)
#loc65 = loc("inductor_cache/lp/clpavcy6xrhqtbwxcpal7up47n7rrjh7z27jam3d7hrnx2indhhv.py":68:19)
#loc66 = loc("inductor_cache/lp/clpavcy6xrhqtbwxcpal7up47n7rrjh7z27jam3d7hrnx2indhhv.py":70:20)
#loc67 = loc("inductor_cache/lp/clpavcy6xrhqtbwxcpal7up47n7rrjh7z27jam3d7hrnx2indhhv.py":71:28)
#loc68 = loc("inductor_cache/lp/clpavcy6xrhqtbwxcpal7up47n7rrjh7z27jam3d7hrnx2indhhv.py":72:25)
#loc69 = loc("inductor_cache/lp/clpavcy6xrhqtbwxcpal7up47n7rrjh7z27jam3d7hrnx2indhhv.py":72:37)
#loc70 = loc("inductor_cache/lp/clpavcy6xrhqtbwxcpal7up47n7rrjh7z27jam3d7hrnx2indhhv.py":72:4)
#loc71 = loc(callsite(#loc15 at #loc16))
#loc72 = loc(callsite(#loc17 at #loc16))
#loc73 = loc(callsite(#loc18 at #loc16))
#loc74 = loc(callsite(#loc19 at #loc16))
#loc75 = loc(callsite(#loc20 at #loc16))
#loc76 = loc(callsite(#loc21 at #loc16))
#loc77 = loc(callsite(#loc22 at #loc16))
#loc78 = loc(callsite(#loc23 at #loc16))
#loc79 = loc(callsite(#loc24 at #loc16))
#loc80 = loc(callsite(#loc29 at #loc30))
#loc82 = loc(callsite(#loc31 at #loc29))
#loc83 = loc(callsite(#loc32 at #loc29))
#loc84 = loc(callsite(#loc33 at #loc29))
#loc85 = loc(callsite(#loc34 at #loc29))
#loc86 = loc(callsite(#loc35 at #loc29))
#loc87 = loc(callsite(#loc36 at #loc29))
#loc88 = loc(callsite(#loc37 at #loc29))
#loc89 = loc(callsite(#loc38 at #loc29))
#loc90 = loc(callsite(#loc39 at #loc29))
#loc91 = loc(callsite(#loc40 at #loc29))
#loc92 = loc(callsite(#loc41 at #loc29))
#loc93 = loc(callsite(#loc42 at #loc29))
#loc94 = loc(callsite(#loc82 at #loc30))
#loc95 = loc(callsite(#loc83 at #loc30))
#loc96 = loc(callsite(#loc84 at #loc30))
#loc97 = loc(callsite(#loc85 at #loc30))
#loc98 = loc(callsite(#loc86 at #loc30))
#loc99 = loc(callsite(#loc87 at #loc30))
#loc100 = loc(callsite(#loc88 at #loc30))
#loc101 = loc(callsite(#loc89 at #loc30))
#loc102 = loc(callsite(#loc90 at #loc30))
#loc103 = loc(callsite(#loc91 at #loc30))
#loc104 = loc(callsite(#loc92 at #loc30))
#loc105 = loc(callsite(#loc93 at #loc30))
