#loc = loc("inductor_cache/2f/c2fsneqjzwbk6r656vrtvx54pxbr6hluvdlg2udbsuhric3ju4ux.py":19:0)
module {
  tt.func public @triton_poi_fused_leaky_relu_mul_0(%arg0: !tt.ptr<f32> {tt.divisibility = 16 : i32} loc("inductor_cache/2f/c2fsneqjzwbk6r656vrtvx54pxbr6hluvdlg2udbsuhric3ju4ux.py":19:0), %arg1: !tt.ptr<f32> {tt.divisibility = 16 : i32} loc("inductor_cache/2f/c2fsneqjzwbk6r656vrtvx54pxbr6hluvdlg2udbsuhric3ju4ux.py":19:0), %arg2: !tt.ptr<i1> {tt.divisibility = 16 : i32} loc("inductor_cache/2f/c2fsneqjzwbk6r656vrtvx54pxbr6hluvdlg2udbsuhric3ju4ux.py":19:0), %arg3: i32 {tt.divisibility = 16 : i32} loc("inductor_cache/2f/c2fsneqjzwbk6r656vrtvx54pxbr6hluvdlg2udbsuhric3ju4ux.py":19:0)) attributes {noinline = false} {
    %cst = arith.constant dense<2.000000e-01> : tensor<256xf32> loc(#loc1)
    %cst_0 = arith.constant dense<0.000000e+00> : tensor<256xf32> loc(#loc1)
    %cst_1 = arith.constant dense<0.00707106758> : tensor<256xf32> loc(#loc1)
    %cst_2 = arith.constant dense<4> : tensor<256xi32> loc(#loc1)
    %cst_3 = arith.constant dense<256> : tensor<256xi32> loc(#loc1)
    %c256_i32 = arith.constant 256 : i32 loc(#loc1)
    %0 = tt.get_program_id x : i32 loc(#loc2)
    %1 = arith.muli %0, %c256_i32 : i32 loc(#loc3)
    %2 = tt.make_range {end = 256 : i32, start = 0 : i32} : tensor<256xi32> loc(#loc4)
    %3 = tt.splat %1 : i32 -> tensor<256xi32> loc(#loc5)
    %4 = arith.addi %3, %2 : tensor<256xi32> loc(#loc5)
    %5 = arith.cmpi slt, %4, %cst_3 : tensor<256xi32> loc(#loc6)
    %6 = arith.remsi %4, %cst_2 : tensor<256xi32> loc(#loc7)
    %7 = tt.splat %arg0 : !tt.ptr<f32> -> tensor<256x!tt.ptr<f32>> loc(#loc8)
    %8 = tt.addptr %7, %4 : tensor<256x!tt.ptr<f32>>, tensor<256xi32> loc(#loc8)
    %9 = tt.load %8, %5 : tensor<256x!tt.ptr<f32>> loc(#loc9)
    %10 = tt.splat %arg1 : !tt.ptr<f32> -> tensor<256x!tt.ptr<f32>> loc(#loc10)
    %11 = tt.addptr %10, %6 : tensor<256x!tt.ptr<f32>>, tensor<256xi32> loc(#loc10)
    %12 = tt.load %11, %5 evictionPolicy = evict_last : tensor<256x!tt.ptr<f32>> loc(#loc11)
    %13 = arith.addf %9, %12 : tensor<256xf32> loc(#loc12)
    %14 = arith.mulf %13, %cst_1 : tensor<256xf32> loc(#loc13)
    %15 = arith.cmpf ogt, %14, %cst_0 : tensor<256xf32> loc(#loc14)
    %16 = arith.mulf %14, %cst : tensor<256xf32> loc(#loc15)
    %17 = arith.select %15, %14, %16 : tensor<256xi1>, tensor<256xf32> loc(#loc16)
    %18 = tt.splat %arg2 : !tt.ptr<i1> -> tensor<256x!tt.ptr<i1>> loc(#loc17)
    %19 = tt.addptr %18, %4 : tensor<256x!tt.ptr<i1>>, tensor<256xi32> loc(#loc17)
    %20 = tt.bitcast %19 : tensor<256x!tt.ptr<i1>> -> tensor<256x!tt.ptr<i8>> loc(#loc18)
    %21 = arith.extui %15 : tensor<256xi1> to tensor<256xi8> loc(#loc18)
    tt.store %20, %21, %5 : tensor<256x!tt.ptr<i8>> loc(#loc18)
    tt.store %8, %17, %5 : tensor<256x!tt.ptr<f32>> loc(#loc19)
    tt.return loc(#loc20)
  } loc(#loc)
} loc(#loc)
#loc1 = loc(unknown)
#loc2 = loc("inductor_cache/2f/c2fsneqjzwbk6r656vrtvx54pxbr6hluvdlg2udbsuhric3ju4ux.py":21:28)
#loc3 = loc("inductor_cache/2f/c2fsneqjzwbk6r656vrtvx54pxbr6hluvdlg2udbsuhric3ju4ux.py":21:33)
#loc4 = loc("inductor_cache/2f/c2fsneqjzwbk6r656vrtvx54pxbr6hluvdlg2udbsuhric3ju4ux.py":22:36)
#loc5 = loc("inductor_cache/2f/c2fsneqjzwbk6r656vrtvx54pxbr6hluvdlg2udbsuhric3ju4ux.py":22:23)
#loc6 = loc("inductor_cache/2f/c2fsneqjzwbk6r656vrtvx54pxbr6hluvdlg2udbsuhric3ju4ux.py":23:21)
#loc7 = loc("inductor_cache/2f/c2fsneqjzwbk6r656vrtvx54pxbr6hluvdlg2udbsuhric3ju4ux.py":25:19)
#loc8 = loc("inductor_cache/2f/c2fsneqjzwbk6r656vrtvx54pxbr6hluvdlg2udbsuhric3ju4ux.py":26:34)
#loc9 = loc("inductor_cache/2f/c2fsneqjzwbk6r656vrtvx54pxbr6hluvdlg2udbsuhric3ju4ux.py":26:39)
#loc10 = loc("inductor_cache/2f/c2fsneqjzwbk6r656vrtvx54pxbr6hluvdlg2udbsuhric3ju4ux.py":27:30)
#loc11 = loc("inductor_cache/2f/c2fsneqjzwbk6r656vrtvx54pxbr6hluvdlg2udbsuhric3ju4ux.py":27:35)
#loc12 = loc("inductor_cache/2f/c2fsneqjzwbk6r656vrtvx54pxbr6hluvdlg2udbsuhric3ju4ux.py":28:18)
#loc13 = loc("inductor_cache/2f/c2fsneqjzwbk6r656vrtvx54pxbr6hluvdlg2udbsuhric3ju4ux.py":30:18)
#loc14 = loc("inductor_cache/2f/c2fsneqjzwbk6r656vrtvx54pxbr6hluvdlg2udbsuhric3ju4ux.py":32:18)
#loc15 = loc("inductor_cache/2f/c2fsneqjzwbk6r656vrtvx54pxbr6hluvdlg2udbsuhric3ju4ux.py":34:18)
#loc16 = loc("inductor_cache/2f/c2fsneqjzwbk6r656vrtvx54pxbr6hluvdlg2udbsuhric3ju4ux.py":35:32)
#loc17 = loc("inductor_cache/2f/c2fsneqjzwbk6r656vrtvx54pxbr6hluvdlg2udbsuhric3ju4ux.py":36:25)
#loc18 = loc("inductor_cache/2f/c2fsneqjzwbk6r656vrtvx54pxbr6hluvdlg2udbsuhric3ju4ux.py":36:36)
#loc19 = loc("inductor_cache/2f/c2fsneqjzwbk6r656vrtvx54pxbr6hluvdlg2udbsuhric3ju4ux.py":37:39)
#loc20 = loc("inductor_cache/2f/c2fsneqjzwbk6r656vrtvx54pxbr6hluvdlg2udbsuhric3ju4ux.py":37:4)
