#loc = loc("inductor_cache/dv/cdvb2rrtrjgsyhyemq5jngfwkp436jznm4iuebk74etfdsjvx6be.py":19:0)
#loc1 = loc(unknown)
#loc17 = loc("inductor_cache/dv/cdvb2rrtrjgsyhyemq5jngfwkp436jznm4iuebk74etfdsjvx6be.py":39:24)
#loc24 = loc("inductor_cache/dv/cdvb2rrtrjgsyhyemq5jngfwkp436jznm4iuebk74etfdsjvx6be.py":47:26)
#loc45 = loc(callsite(#loc1 at #loc17))
#loc48 = loc(callsite(#loc1 at #loc24))
module {
  tt.func public @triton_per_fused__native_batch_norm_legit_relu_repeat_0(%arg0: !tt.ptr<f32> {tt.divisibility = 16 : i32} loc("inductor_cache/dv/cdvb2rrtrjgsyhyemq5jngfwkp436jznm4iuebk74etfdsjvx6be.py":19:0), %arg1: !tt.ptr<f32> {tt.divisibility = 16 : i32} loc("inductor_cache/dv/cdvb2rrtrjgsyhyemq5jngfwkp436jznm4iuebk74etfdsjvx6be.py":19:0), %arg2: !tt.ptr<f32> {tt.divisibility = 16 : i32} loc("inductor_cache/dv/cdvb2rrtrjgsyhyemq5jngfwkp436jznm4iuebk74etfdsjvx6be.py":19:0), %arg3: !tt.ptr<f32> {tt.divisibility = 16 : i32} loc("inductor_cache/dv/cdvb2rrtrjgsyhyemq5jngfwkp436jznm4iuebk74etfdsjvx6be.py":19:0), %arg4: !tt.ptr<f32> {tt.divisibility = 16 : i32} loc("inductor_cache/dv/cdvb2rrtrjgsyhyemq5jngfwkp436jznm4iuebk74etfdsjvx6be.py":19:0), %arg5: !tt.ptr<f32> {tt.divisibility = 16 : i32} loc("inductor_cache/dv/cdvb2rrtrjgsyhyemq5jngfwkp436jznm4iuebk74etfdsjvx6be.py":19:0), %arg6: !tt.ptr<f32> {tt.divisibility = 16 : i32} loc("inductor_cache/dv/cdvb2rrtrjgsyhyemq5jngfwkp436jznm4iuebk74etfdsjvx6be.py":19:0), %arg7: i32 {tt.divisibility = 16 : i32} loc("inductor_cache/dv/cdvb2rrtrjgsyhyemq5jngfwkp436jznm4iuebk74etfdsjvx6be.py":19:0), %arg8: i32 {tt.divisibility = 16 : i32} loc("inductor_cache/dv/cdvb2rrtrjgsyhyemq5jngfwkp436jznm4iuebk74etfdsjvx6be.py":19:0)) attributes {noinline = false} {
    %c4_i32 = arith.constant 4 : i32 loc(#loc1)
    %c16_i32 = arith.constant 16 : i32 loc(#loc1)
    %cst = arith.constant dense<9.99999974E-6> : tensor<1x1xf32> loc(#loc1)
    %cst_0 = arith.constant dense<1.600000e+01> : tensor<1x1xf32> loc(#loc1)
    %cst_1 = arith.constant dense<0.000000e+00> : tensor<1x16xf32> loc(#loc1)
    %0 = tt.get_program_id x : i32 loc(#loc2)
    %1 = arith.cmpi slt, %0, %c16_i32 : i32 loc(#loc3)
    %2 = tt.splat %1 : i1 -> tensor<1x1xi1> loc(#loc3)
    %3 = tt.make_range {end = 16 : i32, start = 0 : i32} : tensor<16xi32> loc(#loc4)
    %4 = tt.expand_dims %3 {axis = 0 : i32} : tensor<16xi32> -> tensor<1x16xi32> loc(#loc5)
    %5 = arith.remsi %0, %c4_i32 : i32 loc(#loc6)
    %6 = tt.addptr %arg0, %5 : !tt.ptr<f32>, i32 loc(#loc7)
    %7 = tt.splat %6 : !tt.ptr<f32> -> tensor<1x1x!tt.ptr<f32>> loc(#loc7)
    %8 = tt.load %7, %2 evictionPolicy = evict_last : tensor<1x1x!tt.ptr<f32>> loc(#loc8)
    %9 = arith.muli %0, %c16_i32 : i32 loc(#loc9)
    %10 = tt.splat %9 : i32 -> tensor<1x16xi32> loc(#loc10)
    %11 = arith.addi %4, %10 : tensor<1x16xi32> loc(#loc10)
    %12 = tt.splat %arg1 : !tt.ptr<f32> -> tensor<1x16x!tt.ptr<f32>> loc(#loc11)
    %13 = tt.addptr %12, %11 : tensor<1x16x!tt.ptr<f32>>, tensor<1x16xi32> loc(#loc11)
    %14 = tt.splat %1 : i1 -> tensor<1x16xi1> loc(#loc12)
    %15 = tt.load %13, %14, %cst_1 : tensor<1x16x!tt.ptr<f32>> loc(#loc12)
    %16 = tt.addptr %arg2, %5 : !tt.ptr<f32>, i32 loc(#loc13)
    %17 = tt.splat %16 : !tt.ptr<f32> -> tensor<1x1x!tt.ptr<f32>> loc(#loc13)
    %18 = tt.load %17, %2 evictionPolicy = evict_last : tensor<1x1x!tt.ptr<f32>> loc(#loc14)
    %19 = arith.select %14, %15, %cst_1 : tensor<1x16xi1>, tensor<1x16xf32> loc(#loc15)
    %20 = "tt.reduce"(%19) <{axis = 1 : i32}> ({
    ^bb0(%arg9: f32 loc(callsite(#loc1 at #loc17)), %arg10: f32 loc(callsite(#loc1 at #loc17))):
      %48 = arith.addf %arg9, %arg10 : f32 loc(#loc51)
      tt.reduce.return %48 : f32 loc(#loc44)
    }) : (tensor<1x16xf32>) -> tensor<1xf32> loc(#loc44)
    %21 = tt.expand_dims %20 {axis = 1 : i32} : tensor<1xf32> -> tensor<1x1xf32> loc(#loc19)
    %22 = arith.divf %21, %cst_0 : tensor<1x1xf32> loc(#loc20)
    %23 = tt.broadcast %22 : tensor<1x1xf32> -> tensor<1x16xf32> loc(#loc21)
    %24 = arith.subf %15, %23 : tensor<1x16xf32> loc(#loc21)
    %25 = arith.mulf %24, %24 : tensor<1x16xf32> loc(#loc22)
    %26 = arith.select %14, %25, %cst_1 : tensor<1x16xi1>, tensor<1x16xf32> loc(#loc23)
    %27 = "tt.reduce"(%26) <{axis = 1 : i32}> ({
    ^bb0(%arg9: f32 loc(callsite(#loc1 at #loc24)), %arg10: f32 loc(callsite(#loc1 at #loc24))):
      %48 = arith.addf %arg9, %arg10 : f32 loc(#loc52)
      tt.reduce.return %48 : f32 loc(#loc47)
    }) : (tensor<1x16xf32>) -> tensor<1xf32> loc(#loc47)
    %28 = tt.expand_dims %27 {axis = 1 : i32} : tensor<1xf32> -> tensor<1x1xf32> loc(#loc25)
    %29 = arith.divf %28, %cst_0 : tensor<1x1xf32> loc(#loc26)
    %30 = arith.addf %29, %cst : tensor<1x1xf32> loc(#loc27)
    %31 = tt.extern_elementwise %30 {libname = "", libpath = "", pure = true, symbol = "__nv_rsqrtf"} : (tensor<1x1xf32>) -> tensor<1x1xf32> loc(#loc28)
    %32 = tt.broadcast %31 : tensor<1x1xf32> -> tensor<1x16xf32> loc(#loc29)
    %33 = arith.mulf %24, %32 : tensor<1x16xf32> loc(#loc29)
    %34 = tt.broadcast %8 : tensor<1x1xf32> -> tensor<1x16xf32> loc(#loc30)
    %35 = arith.mulf %33, %34 : tensor<1x16xf32> loc(#loc30)
    %36 = tt.broadcast %18 : tensor<1x1xf32> -> tensor<1x16xf32> loc(#loc31)
    %37 = arith.addf %35, %36 : tensor<1x16xf32> loc(#loc31)
    %38 = arith.cmpf ogt, %cst_1, %37 : tensor<1x16xf32> loc(#loc49)
    %39 = arith.select %38, %cst_1, %37 : tensor<1x16xi1>, tensor<1x16xf32> loc(#loc50)
    %40 = tt.addptr %arg3, %0 : !tt.ptr<f32>, i32 loc(#loc35)
    %41 = tt.splat %40 : !tt.ptr<f32> -> tensor<1x1x!tt.ptr<f32>> loc(#loc35)
    tt.store %41, %8, %2 : tensor<1x1x!tt.ptr<f32>> loc(#loc36)
    %42 = tt.splat %arg5 : !tt.ptr<f32> -> tensor<1x16x!tt.ptr<f32>> loc(#loc37)
    %43 = tt.addptr %42, %11 : tensor<1x16x!tt.ptr<f32>>, tensor<1x16xi32> loc(#loc37)
    tt.store %43, %39, %14 : tensor<1x16x!tt.ptr<f32>> loc(#loc38)
    %44 = tt.addptr %arg6, %0 : !tt.ptr<f32>, i32 loc(#loc39)
    %45 = tt.splat %44 : !tt.ptr<f32> -> tensor<1x1x!tt.ptr<f32>> loc(#loc39)
    tt.store %45, %31, %2 : tensor<1x1x!tt.ptr<f32>> loc(#loc40)
    %46 = tt.addptr %arg4, %0 : !tt.ptr<f32>, i32 loc(#loc41)
    %47 = tt.splat %46 : !tt.ptr<f32> -> tensor<1x1x!tt.ptr<f32>> loc(#loc41)
    tt.store %47, %22, %2 : tensor<1x1x!tt.ptr<f32>> loc(#loc42)
    tt.return loc(#loc43)
  } loc(#loc)
} loc(#loc)
#loc2 = loc("inductor_cache/dv/cdvb2rrtrjgsyhyemq5jngfwkp436jznm4iuebk74etfdsjvx6be.py":23:28)
#loc3 = loc("inductor_cache/dv/cdvb2rrtrjgsyhyemq5jngfwkp436jznm4iuebk74etfdsjvx6be.py":25:21)
#loc4 = loc("inductor_cache/dv/cdvb2rrtrjgsyhyemq5jngfwkp436jznm4iuebk74etfdsjvx6be.py":26:26)
#loc5 = loc("inductor_cache/dv/cdvb2rrtrjgsyhyemq5jngfwkp436jznm4iuebk74etfdsjvx6be.py":26:34)
#loc6 = loc("inductor_cache/dv/cdvb2rrtrjgsyhyemq5jngfwkp436jznm4iuebk74etfdsjvx6be.py":31:19)
#loc7 = loc("inductor_cache/dv/cdvb2rrtrjgsyhyemq5jngfwkp436jznm4iuebk74etfdsjvx6be.py":32:31)
#loc8 = loc("inductor_cache/dv/cdvb2rrtrjgsyhyemq5jngfwkp436jznm4iuebk74etfdsjvx6be.py":32:41)
#loc9 = loc("inductor_cache/dv/cdvb2rrtrjgsyhyemq5jngfwkp436jznm4iuebk74etfdsjvx6be.py":33:38)
#loc10 = loc("inductor_cache/dv/cdvb2rrtrjgsyhyemq5jngfwkp436jznm4iuebk74etfdsjvx6be.py":33:35)
#loc11 = loc("inductor_cache/dv/cdvb2rrtrjgsyhyemq5jngfwkp436jznm4iuebk74etfdsjvx6be.py":33:30)
#loc12 = loc("inductor_cache/dv/cdvb2rrtrjgsyhyemq5jngfwkp436jznm4iuebk74etfdsjvx6be.py":33:43)
#loc13 = loc("inductor_cache/dv/cdvb2rrtrjgsyhyemq5jngfwkp436jznm4iuebk74etfdsjvx6be.py":34:31)
#loc14 = loc("inductor_cache/dv/cdvb2rrtrjgsyhyemq5jngfwkp436jznm4iuebk74etfdsjvx6be.py":34:36)
#loc15 = loc("inductor_cache/dv/cdvb2rrtrjgsyhyemq5jngfwkp436jznm4iuebk74etfdsjvx6be.py":38:33)
#loc16 = loc("/home/sahanp/.conda/envs/parity-bench/lib/python3.12/site-packages/triton/language/standard.py":267:36)
#loc18 = loc("/home/sahanp/.conda/envs/parity-bench/lib/python3.12/site-packages/triton/language/standard.py":256:15)
#loc19 = loc("inductor_cache/dv/cdvb2rrtrjgsyhyemq5jngfwkp436jznm4iuebk74etfdsjvx6be.py":39:27)
#loc20 = loc("inductor_cache/dv/cdvb2rrtrjgsyhyemq5jngfwkp436jznm4iuebk74etfdsjvx6be.py":42:19)
#loc21 = loc("inductor_cache/dv/cdvb2rrtrjgsyhyemq5jngfwkp436jznm4iuebk74etfdsjvx6be.py":43:19)
#loc22 = loc("inductor_cache/dv/cdvb2rrtrjgsyhyemq5jngfwkp436jznm4iuebk74etfdsjvx6be.py":44:20)
#loc23 = loc("inductor_cache/dv/cdvb2rrtrjgsyhyemq5jngfwkp436jznm4iuebk74etfdsjvx6be.py":46:35)
#loc25 = loc("inductor_cache/dv/cdvb2rrtrjgsyhyemq5jngfwkp436jznm4iuebk74etfdsjvx6be.py":47:29)
#loc26 = loc("inductor_cache/dv/cdvb2rrtrjgsyhyemq5jngfwkp436jznm4iuebk74etfdsjvx6be.py":50:20)
#loc27 = loc("inductor_cache/dv/cdvb2rrtrjgsyhyemq5jngfwkp436jznm4iuebk74etfdsjvx6be.py":52:20)
#loc28 = loc("inductor_cache/dv/cdvb2rrtrjgsyhyemq5jngfwkp436jznm4iuebk74etfdsjvx6be.py":53:28)
#loc29 = loc("inductor_cache/dv/cdvb2rrtrjgsyhyemq5jngfwkp436jznm4iuebk74etfdsjvx6be.py":54:20)
#loc30 = loc("inductor_cache/dv/cdvb2rrtrjgsyhyemq5jngfwkp436jznm4iuebk74etfdsjvx6be.py":55:20)
#loc31 = loc("inductor_cache/dv/cdvb2rrtrjgsyhyemq5jngfwkp436jznm4iuebk74etfdsjvx6be.py":56:20)
#loc32 = loc("/home/sahanp/.conda/envs/parity-bench/lib/python3.12/site-packages/torch/_inductor/runtime/triton_helpers.py":118:15)
#loc33 = loc("inductor_cache/dv/cdvb2rrtrjgsyhyemq5jngfwkp436jznm4iuebk74etfdsjvx6be.py":58:42)
#loc34 = loc("/home/sahanp/.conda/envs/parity-bench/lib/python3.12/site-packages/torch/_inductor/runtime/triton_helpers.py":121:29)
#loc35 = loc("inductor_cache/dv/cdvb2rrtrjgsyhyemq5jngfwkp436jznm4iuebk74etfdsjvx6be.py":59:25)
#loc36 = loc("inductor_cache/dv/cdvb2rrtrjgsyhyemq5jngfwkp436jznm4iuebk74etfdsjvx6be.py":59:36)
#loc37 = loc("inductor_cache/dv/cdvb2rrtrjgsyhyemq5jngfwkp436jznm4iuebk74etfdsjvx6be.py":60:25)
#loc38 = loc("inductor_cache/dv/cdvb2rrtrjgsyhyemq5jngfwkp436jznm4iuebk74etfdsjvx6be.py":60:45)
#loc39 = loc("inductor_cache/dv/cdvb2rrtrjgsyhyemq5jngfwkp436jznm4iuebk74etfdsjvx6be.py":61:25)
#loc40 = loc("inductor_cache/dv/cdvb2rrtrjgsyhyemq5jngfwkp436jznm4iuebk74etfdsjvx6be.py":61:37)
#loc41 = loc("inductor_cache/dv/cdvb2rrtrjgsyhyemq5jngfwkp436jznm4iuebk74etfdsjvx6be.py":62:25)
#loc42 = loc("inductor_cache/dv/cdvb2rrtrjgsyhyemq5jngfwkp436jznm4iuebk74etfdsjvx6be.py":62:37)
#loc43 = loc("inductor_cache/dv/cdvb2rrtrjgsyhyemq5jngfwkp436jznm4iuebk74etfdsjvx6be.py":62:4)
#loc44 = loc(callsite(#loc16 at #loc17))
#loc46 = loc(callsite(#loc18 at #loc16))
#loc47 = loc(callsite(#loc16 at #loc24))
#loc49 = loc(callsite(#loc32 at #loc33))
#loc50 = loc(callsite(#loc34 at #loc33))
#loc51 = loc(callsite(#loc46 at #loc17))
#loc52 = loc(callsite(#loc46 at #loc24))
