#loc = loc("inductor_cache/vm/cvmrspxrt3guho45unjop3izki4isoc7ukkkwwvtwegmugi2iehc.py":19:0)
module {
  tt.func public @triton_poi_fused_add_exp_lift_fresh_maximum_minimum_mul_sub_0(%arg0: !tt.ptr<f32> {tt.divisibility = 16 : i32} loc("inductor_cache/vm/cvmrspxrt3guho45unjop3izki4isoc7ukkkwwvtwegmugi2iehc.py":19:0), %arg1: !tt.ptr<f32> {tt.divisibility = 16 : i32} loc("inductor_cache/vm/cvmrspxrt3guho45unjop3izki4isoc7ukkkwwvtwegmugi2iehc.py":19:0), %arg2: i32 {tt.divisibility = 16 : i32} loc("inductor_cache/vm/cvmrspxrt3guho45unjop3izki4isoc7ukkkwwvtwegmugi2iehc.py":19:0)) attributes {noinline = false} {
    %cst = arith.constant dense<0.000000e+00> : tensor<256xf32> loc(#loc1)
    %cst_0 = arith.constant dense<1.05070102> : tensor<256xf32> loc(#loc1)
    %cst_1 = arith.constant dense<1.67326319> : tensor<256xf32> loc(#loc1)
    %cst_2 = arith.constant dense<1.000000e+00> : tensor<256xf32> loc(#loc1)
    %cst_3 = arith.constant dense<256> : tensor<256xi32> loc(#loc1)
    %c256_i32 = arith.constant 256 : i32 loc(#loc1)
    %0 = tt.get_program_id x : i32 loc(#loc2)
    %1 = arith.muli %0, %c256_i32 : i32 loc(#loc3)
    %2 = tt.make_range {end = 256 : i32, start = 0 : i32} : tensor<256xi32> loc(#loc4)
    %3 = tt.splat %1 : i32 -> tensor<256xi32> loc(#loc5)
    %4 = arith.addi %3, %2 : tensor<256xi32> loc(#loc5)
    %5 = arith.cmpi slt, %4, %cst_3 : tensor<256xi32> loc(#loc6)
    %6 = tt.splat %arg0 : !tt.ptr<f32> -> tensor<256x!tt.ptr<f32>> loc(#loc7)
    %7 = tt.addptr %6, %4 : tensor<256x!tt.ptr<f32>>, tensor<256xi32> loc(#loc7)
    %8 = tt.load %7, %5 : tensor<256x!tt.ptr<f32>> loc(#loc8)
    %9 = arith.cmpf ogt, %cst, %8 : tensor<256xf32> loc(#loc23)
    %10 = arith.select %9, %cst, %8 : tensor<256xi1>, tensor<256xf32> loc(#loc24)
    %11 = math.exp %8 : tensor<256xf32> loc(#loc12)
    %12 = arith.subf %11, %cst_2 : tensor<256xf32> loc(#loc13)
    %13 = arith.mulf %12, %cst_1 : tensor<256xf32> loc(#loc14)
    %14 = arith.cmpf olt, %cst, %13 : tensor<256xf32> loc(#loc25)
    %15 = arith.select %14, %cst, %13 : tensor<256xi1>, tensor<256xf32> loc(#loc26)
    %16 = arith.addf %10, %15 : tensor<256xf32> loc(#loc18)
    %17 = arith.mulf %16, %cst_0 : tensor<256xf32> loc(#loc19)
    %18 = tt.splat %arg1 : !tt.ptr<f32> -> tensor<256x!tt.ptr<f32>> loc(#loc20)
    %19 = tt.addptr %18, %4 : tensor<256x!tt.ptr<f32>>, tensor<256xi32> loc(#loc20)
    tt.store %19, %17, %5 : tensor<256x!tt.ptr<f32>> loc(#loc21)
    tt.return loc(#loc22)
  } loc(#loc)
} loc(#loc)
#loc1 = loc(unknown)
#loc2 = loc("inductor_cache/vm/cvmrspxrt3guho45unjop3izki4isoc7ukkkwwvtwegmugi2iehc.py":21:28)
#loc3 = loc("inductor_cache/vm/cvmrspxrt3guho45unjop3izki4isoc7ukkkwwvtwegmugi2iehc.py":21:33)
#loc4 = loc("inductor_cache/vm/cvmrspxrt3guho45unjop3izki4isoc7ukkkwwvtwegmugi2iehc.py":22:36)
#loc5 = loc("inductor_cache/vm/cvmrspxrt3guho45unjop3izki4isoc7ukkkwwvtwegmugi2iehc.py":22:23)
#loc6 = loc("inductor_cache/vm/cvmrspxrt3guho45unjop3izki4isoc7ukkkwwvtwegmugi2iehc.py":23:21)
#loc7 = loc("inductor_cache/vm/cvmrspxrt3guho45unjop3izki4isoc7ukkkwwvtwegmugi2iehc.py":25:30)
#loc8 = loc("inductor_cache/vm/cvmrspxrt3guho45unjop3izki4isoc7ukkkwwvtwegmugi2iehc.py":25:35)
#loc9 = loc("/home/sahanp/.conda/envs/parity-bench/lib/python3.12/site-packages/torch/_inductor/runtime/triton_helpers.py":118:15)
#loc10 = loc("inductor_cache/vm/cvmrspxrt3guho45unjop3izki4isoc7ukkkwwvtwegmugi2iehc.py":27:40)
#loc11 = loc("/home/sahanp/.conda/envs/parity-bench/lib/python3.12/site-packages/torch/_inductor/runtime/triton_helpers.py":121:29)
#loc12 = loc("inductor_cache/vm/cvmrspxrt3guho45unjop3izki4isoc7ukkkwwvtwegmugi2iehc.py":28:23)
#loc13 = loc("inductor_cache/vm/cvmrspxrt3guho45unjop3izki4isoc7ukkkwwvtwegmugi2iehc.py":30:18)
#loc14 = loc("inductor_cache/vm/cvmrspxrt3guho45unjop3izki4isoc7ukkkwwvtwegmugi2iehc.py":32:18)
#loc15 = loc("/home/sahanp/.conda/envs/parity-bench/lib/python3.12/site-packages/torch/_inductor/runtime/triton_helpers.py":110:15)
#loc16 = loc("inductor_cache/vm/cvmrspxrt3guho45unjop3izki4isoc7ukkkwwvtwegmugi2iehc.py":33:40)
#loc17 = loc("/home/sahanp/.conda/envs/parity-bench/lib/python3.12/site-packages/torch/_inductor/runtime/triton_helpers.py":113:29)
#loc18 = loc("inductor_cache/vm/cvmrspxrt3guho45unjop3izki4isoc7ukkkwwvtwegmugi2iehc.py":34:18)
#loc19 = loc("inductor_cache/vm/cvmrspxrt3guho45unjop3izki4isoc7ukkkwwvtwegmugi2iehc.py":36:19)
#loc20 = loc("inductor_cache/vm/cvmrspxrt3guho45unjop3izki4isoc7ukkkwwvtwegmugi2iehc.py":37:25)
#loc21 = loc("inductor_cache/vm/cvmrspxrt3guho45unjop3izki4isoc7ukkkwwvtwegmugi2iehc.py":37:37)
#loc22 = loc("inductor_cache/vm/cvmrspxrt3guho45unjop3izki4isoc7ukkkwwvtwegmugi2iehc.py":37:4)
#loc23 = loc(callsite(#loc9 at #loc10))
#loc24 = loc(callsite(#loc11 at #loc10))
#loc25 = loc(callsite(#loc15 at #loc16))
#loc26 = loc(callsite(#loc17 at #loc16))
