#loc = loc("inductor_cache/lu/clud3kfed5qdppnarxhfxxwzoh3q2u4h64xszkncmkhwcnnfjwmd.py":19:0)
#loc1 = loc(unknown)
#loc20 = loc("inductor_cache/lu/clud3kfed5qdppnarxhfxxwzoh3q2u4h64xszkncmkhwcnnfjwmd.py":37:24)
#loc27 = loc(callsite(#loc1 at #loc20))
module {
  tt.func public @triton_per_fused_sum_0(%arg0: !tt.ptr<f32> {tt.divisibility = 16 : i32} loc("inductor_cache/lu/clud3kfed5qdppnarxhfxxwzoh3q2u4h64xszkncmkhwcnnfjwmd.py":19:0), %arg1: !tt.ptr<f32> {tt.divisibility = 16 : i32} loc("inductor_cache/lu/clud3kfed5qdppnarxhfxxwzoh3q2u4h64xszkncmkhwcnnfjwmd.py":19:0), %arg2: i32 {tt.divisibility = 16 : i32} loc("inductor_cache/lu/clud3kfed5qdppnarxhfxxwzoh3q2u4h64xszkncmkhwcnnfjwmd.py":19:0), %arg3: i32 {tt.divisibility = 16 : i32} loc("inductor_cache/lu/clud3kfed5qdppnarxhfxxwzoh3q2u4h64xszkncmkhwcnnfjwmd.py":19:0)) attributes {noinline = false} {
    %c64_i32 = arith.constant 64 : i32 loc(#loc1)
    %c4_i32 = arith.constant 4 : i32 loc(#loc1)
    %c16_i32 = arith.constant 16 : i32 loc(#loc1)
    %cst = arith.constant dense<0.000000e+00> : tensor<1x16xf32> loc(#loc1)
    %cst_0 = arith.constant dense<16> : tensor<1x16xi32> loc(#loc1)
    %cst_1 = arith.constant dense<4> : tensor<1x16xi32> loc(#loc1)
    %0 = tt.get_program_id x : i32 loc(#loc2)
    %1 = arith.cmpi slt, %0, %c16_i32 : i32 loc(#loc3)
    %2 = tt.splat %1 : i1 -> tensor<1x1xi1> loc(#loc3)
    %3 = tt.make_range {end = 16 : i32, start = 0 : i32} : tensor<16xi32> loc(#loc4)
    %4 = tt.expand_dims %3 {axis = 0 : i32} : tensor<16xi32> -> tensor<1x16xi32> loc(#loc5)
    %5 = arith.remsi %4, %cst_1 : tensor<1x16xi32> loc(#loc6)
    %6 = arith.divsi %4, %cst_1 : tensor<1x16xi32> loc(#loc7)
    %7 = arith.remsi %0, %c4_i32 : i32 loc(#loc8)
    %8 = arith.divsi %0, %c4_i32 : i32 loc(#loc9)
    %9 = arith.muli %7, %c4_i32 : i32 loc(#loc10)
    %10 = tt.splat %9 : i32 -> tensor<1x16xi32> loc(#loc11)
    %11 = arith.addi %5, %10 : tensor<1x16xi32> loc(#loc11)
    %12 = arith.muli %6, %cst_0 : tensor<1x16xi32> loc(#loc12)
    %13 = arith.addi %11, %12 : tensor<1x16xi32> loc(#loc13)
    %14 = arith.muli %8, %c64_i32 : i32 loc(#loc14)
    %15 = tt.splat %14 : i32 -> tensor<1x16xi32> loc(#loc15)
    %16 = arith.addi %13, %15 : tensor<1x16xi32> loc(#loc15)
    %17 = tt.splat %arg0 : !tt.ptr<f32> -> tensor<1x16x!tt.ptr<f32>> loc(#loc16)
    %18 = tt.addptr %17, %16 : tensor<1x16x!tt.ptr<f32>>, tensor<1x16xi32> loc(#loc16)
    %19 = tt.splat %1 : i1 -> tensor<1x16xi1> loc(#loc17)
    %20 = tt.load %18, %19, %cst : tensor<1x16x!tt.ptr<f32>> loc(#loc17)
    %21 = arith.select %19, %20, %cst : tensor<1x16xi1>, tensor<1x16xf32> loc(#loc18)
    %22 = "tt.reduce"(%21) <{axis = 1 : i32}> ({
    ^bb0(%arg4: f32 loc(callsite(#loc1 at #loc20)), %arg5: f32 loc(callsite(#loc1 at #loc20))):
      %26 = arith.addf %arg4, %arg5 : f32 loc(#loc29)
      tt.reduce.return %26 : f32 loc(#loc26)
    }) : (tensor<1x16xf32>) -> tensor<1xf32> loc(#loc26)
    %23 = tt.expand_dims %22 {axis = 1 : i32} : tensor<1xf32> -> tensor<1x1xf32> loc(#loc22)
    %24 = tt.addptr %arg1, %0 : !tt.ptr<f32>, i32 loc(#loc23)
    %25 = tt.splat %24 : !tt.ptr<f32> -> tensor<1x1x!tt.ptr<f32>> loc(#loc23)
    tt.store %25, %23, %2 : tensor<1x1x!tt.ptr<f32>> loc(#loc24)
    tt.return loc(#loc25)
  } loc(#loc)
} loc(#loc)
#loc2 = loc("inductor_cache/lu/clud3kfed5qdppnarxhfxxwzoh3q2u4h64xszkncmkhwcnnfjwmd.py":23:28)
#loc3 = loc("inductor_cache/lu/clud3kfed5qdppnarxhfxxwzoh3q2u4h64xszkncmkhwcnnfjwmd.py":25:21)
#loc4 = loc("inductor_cache/lu/clud3kfed5qdppnarxhfxxwzoh3q2u4h64xszkncmkhwcnnfjwmd.py":26:26)
#loc5 = loc("inductor_cache/lu/clud3kfed5qdppnarxhfxxwzoh3q2u4h64xszkncmkhwcnnfjwmd.py":26:34)
#loc6 = loc("inductor_cache/lu/clud3kfed5qdppnarxhfxxwzoh3q2u4h64xszkncmkhwcnnfjwmd.py":29:19)
#loc7 = loc("inductor_cache/lu/clud3kfed5qdppnarxhfxxwzoh3q2u4h64xszkncmkhwcnnfjwmd.py":30:19)
#loc8 = loc("inductor_cache/lu/clud3kfed5qdppnarxhfxxwzoh3q2u4h64xszkncmkhwcnnfjwmd.py":31:19)
#loc9 = loc("inductor_cache/lu/clud3kfed5qdppnarxhfxxwzoh3q2u4h64xszkncmkhwcnnfjwmd.py":32:19)
#loc10 = loc("inductor_cache/lu/clud3kfed5qdppnarxhfxxwzoh3q2u4h64xszkncmkhwcnnfjwmd.py":34:37)
#loc11 = loc("inductor_cache/lu/clud3kfed5qdppnarxhfxxwzoh3q2u4h64xszkncmkhwcnnfjwmd.py":34:35)
#loc12 = loc("inductor_cache/lu/clud3kfed5qdppnarxhfxxwzoh3q2u4h64xszkncmkhwcnnfjwmd.py":34:45)
#loc13 = loc("inductor_cache/lu/clud3kfed5qdppnarxhfxxwzoh3q2u4h64xszkncmkhwcnnfjwmd.py":34:42)
#loc14 = loc("inductor_cache/lu/clud3kfed5qdppnarxhfxxwzoh3q2u4h64xszkncmkhwcnnfjwmd.py":34:53)
#loc15 = loc("inductor_cache/lu/clud3kfed5qdppnarxhfxxwzoh3q2u4h64xszkncmkhwcnnfjwmd.py":34:50)
#loc16 = loc("inductor_cache/lu/clud3kfed5qdppnarxhfxxwzoh3q2u4h64xszkncmkhwcnnfjwmd.py":34:30)
#loc17 = loc("inductor_cache/lu/clud3kfed5qdppnarxhfxxwzoh3q2u4h64xszkncmkhwcnnfjwmd.py":34:58)
#loc18 = loc("inductor_cache/lu/clud3kfed5qdppnarxhfxxwzoh3q2u4h64xszkncmkhwcnnfjwmd.py":36:33)
#loc19 = loc("/home/sahanp/.conda/envs/parity-bench/lib/python3.12/site-packages/triton/language/standard.py":267:36)
#loc21 = loc("/home/sahanp/.conda/envs/parity-bench/lib/python3.12/site-packages/triton/language/standard.py":256:15)
#loc22 = loc("inductor_cache/lu/clud3kfed5qdppnarxhfxxwzoh3q2u4h64xszkncmkhwcnnfjwmd.py":37:27)
#loc23 = loc("inductor_cache/lu/clud3kfed5qdppnarxhfxxwzoh3q2u4h64xszkncmkhwcnnfjwmd.py":38:25)
#loc24 = loc("inductor_cache/lu/clud3kfed5qdppnarxhfxxwzoh3q2u4h64xszkncmkhwcnnfjwmd.py":38:36)
#loc25 = loc("inductor_cache/lu/clud3kfed5qdppnarxhfxxwzoh3q2u4h64xszkncmkhwcnnfjwmd.py":38:4)
#loc26 = loc(callsite(#loc19 at #loc20))
#loc28 = loc(callsite(#loc21 at #loc19))
#loc29 = loc(callsite(#loc28 at #loc20))
