#loc = loc("inductor_cache/3b/c3bae6m46l2n3sxkzrqhcjuqnazapmggaw5xgdr746x7eguedeop.py":19:0)
module {
  tt.func public @triton_poi_fused_add_mean_mul_pow_rsqrt_6(%arg0: !tt.ptr<f32> {tt.divisibility = 16 : i32} loc("inductor_cache/3b/c3bae6m46l2n3sxkzrqhcjuqnazapmggaw5xgdr746x7eguedeop.py":19:0), %arg1: !tt.ptr<f32> {tt.divisibility = 16 : i32} loc("inductor_cache/3b/c3bae6m46l2n3sxkzrqhcjuqnazapmggaw5xgdr746x7eguedeop.py":19:0), %arg2: !tt.ptr<f32> {tt.divisibility = 16 : i32} loc("inductor_cache/3b/c3bae6m46l2n3sxkzrqhcjuqnazapmggaw5xgdr746x7eguedeop.py":19:0), %arg3: !tt.ptr<f32> {tt.divisibility = 16 : i32} loc("inductor_cache/3b/c3bae6m46l2n3sxkzrqhcjuqnazapmggaw5xgdr746x7eguedeop.py":19:0), %arg4: !tt.ptr<f32> {tt.divisibility = 16 : i32} loc("inductor_cache/3b/c3bae6m46l2n3sxkzrqhcjuqnazapmggaw5xgdr746x7eguedeop.py":19:0), %arg5: !tt.ptr<f32> {tt.divisibility = 16 : i32} loc("inductor_cache/3b/c3bae6m46l2n3sxkzrqhcjuqnazapmggaw5xgdr746x7eguedeop.py":19:0), %arg6: i32 {tt.divisibility = 16 : i32} loc("inductor_cache/3b/c3bae6m46l2n3sxkzrqhcjuqnazapmggaw5xgdr746x7eguedeop.py":19:0)) attributes {noinline = false} {
    %cst = arith.constant dense<9.99999974E-5> : tensor<64xf32> loc(#loc1)
    %cst_0 = arith.constant dense<4.000000e+00> : tensor<64xf32> loc(#loc1)
    %cst_1 = arith.constant dense<12> : tensor<64xi32> loc(#loc1)
    %cst_2 = arith.constant dense<8> : tensor<64xi32> loc(#loc1)
    %cst_3 = arith.constant dense<16> : tensor<64xi32> loc(#loc1)
    %cst_4 = arith.constant dense<4> : tensor<64xi32> loc(#loc1)
    %cst_5 = arith.constant dense<64> : tensor<64xi32> loc(#loc1)
    %c64_i32 = arith.constant 64 : i32 loc(#loc1)
    %0 = tt.get_program_id x : i32 loc(#loc2)
    %1 = arith.muli %0, %c64_i32 : i32 loc(#loc3)
    %2 = tt.make_range {end = 64 : i32, start = 0 : i32} : tensor<64xi32> loc(#loc4)
    %3 = tt.splat %1 : i32 -> tensor<64xi32> loc(#loc5)
    %4 = arith.addi %3, %2 : tensor<64xi32> loc(#loc5)
    %5 = arith.cmpi slt, %4, %cst_5 : tensor<64xi32> loc(#loc6)
    %6 = arith.remsi %4, %cst_4 : tensor<64xi32> loc(#loc7)
    %7 = arith.divsi %4, %cst_3 : tensor<64xi32> loc(#loc8)
    %8 = arith.divsi %4, %cst_4 : tensor<64xi32> loc(#loc9)
    %9 = arith.remsi %8, %cst_4 : tensor<64xi32> loc(#loc10)
    %10 = arith.remsi %4, %cst_3 : tensor<64xi32> loc(#loc11)
    %11 = tt.splat %arg0 : !tt.ptr<f32> -> tensor<64x!tt.ptr<f32>> loc(#loc12)
    %12 = tt.addptr %11, %4 : tensor<64x!tt.ptr<f32>>, tensor<64xi32> loc(#loc12)
    %13 = tt.load %12, %5 : tensor<64x!tt.ptr<f32>> loc(#loc13)
    %14 = arith.muli %7, %cst_3 : tensor<64xi32> loc(#loc14)
    %15 = arith.addi %6, %14 : tensor<64xi32> loc(#loc15)
    %16 = tt.addptr %11, %15 : tensor<64x!tt.ptr<f32>>, tensor<64xi32> loc(#loc16)
    %17 = tt.load %16, %5 evictionPolicy = evict_last : tensor<64x!tt.ptr<f32>> loc(#loc17)
    %18 = arith.addi %6, %cst_4 : tensor<64xi32> loc(#loc18)
    %19 = arith.addi %18, %14 : tensor<64xi32> loc(#loc19)
    %20 = tt.addptr %11, %19 : tensor<64x!tt.ptr<f32>>, tensor<64xi32> loc(#loc20)
    %21 = tt.load %20, %5 evictionPolicy = evict_last : tensor<64x!tt.ptr<f32>> loc(#loc21)
    %22 = arith.addi %6, %cst_2 : tensor<64xi32> loc(#loc22)
    %23 = arith.addi %22, %14 : tensor<64xi32> loc(#loc23)
    %24 = tt.addptr %11, %23 : tensor<64x!tt.ptr<f32>>, tensor<64xi32> loc(#loc24)
    %25 = tt.load %24, %5 evictionPolicy = evict_last : tensor<64x!tt.ptr<f32>> loc(#loc25)
    %26 = arith.addi %6, %cst_1 : tensor<64xi32> loc(#loc26)
    %27 = arith.addi %26, %14 : tensor<64xi32> loc(#loc27)
    %28 = tt.addptr %11, %27 : tensor<64x!tt.ptr<f32>>, tensor<64xi32> loc(#loc28)
    %29 = tt.load %28, %5 evictionPolicy = evict_last : tensor<64x!tt.ptr<f32>> loc(#loc29)
    %30 = tt.splat %arg1 : !tt.ptr<f32> -> tensor<64x!tt.ptr<f32>> loc(#loc30)
    %31 = tt.addptr %30, %9 : tensor<64x!tt.ptr<f32>>, tensor<64xi32> loc(#loc30)
    %32 = tt.load %31, %5 evictionPolicy = evict_last : tensor<64x!tt.ptr<f32>> loc(#loc31)
    %33 = tt.splat %arg2 : !tt.ptr<f32> -> tensor<64x!tt.ptr<f32>> loc(#loc32)
    %34 = tt.addptr %33, %9 : tensor<64x!tt.ptr<f32>>, tensor<64xi32> loc(#loc32)
    %35 = tt.load %34, %5 evictionPolicy = evict_last : tensor<64x!tt.ptr<f32>> loc(#loc33)
    %36 = tt.splat %arg3 : !tt.ptr<f32> -> tensor<64x!tt.ptr<f32>> loc(#loc34)
    %37 = tt.addptr %36, %10 : tensor<64x!tt.ptr<f32>>, tensor<64xi32> loc(#loc34)
    %38 = tt.load %37, %5 evictionPolicy = evict_last : tensor<64x!tt.ptr<f32>> loc(#loc35)
    %39 = arith.mulf %17, %17 : tensor<64xf32> loc(#loc36)
    %40 = arith.mulf %21, %21 : tensor<64xf32> loc(#loc37)
    %41 = arith.addf %39, %40 : tensor<64xf32> loc(#loc38)
    %42 = arith.mulf %25, %25 : tensor<64xf32> loc(#loc39)
    %43 = arith.addf %41, %42 : tensor<64xf32> loc(#loc40)
    %44 = arith.mulf %29, %29 : tensor<64xf32> loc(#loc41)
    %45 = arith.addf %43, %44 : tensor<64xf32> loc(#loc42)
    %46 = arith.divf %45, %cst_0 : tensor<64xf32> loc(#loc43)
    %47 = arith.addf %46, %cst : tensor<64xf32> loc(#loc44)
    %48 = tt.extern_elementwise %47 {libname = "", libpath = "", pure = true, symbol = "__nv_rsqrtf"} : (tensor<64xf32>) -> tensor<64xf32> loc(#loc45)
    %49 = arith.mulf %13, %48 : tensor<64xf32> loc(#loc46)
    %50 = arith.mulf %49, %32 : tensor<64xf32> loc(#loc47)
    %51 = arith.addf %50, %35 : tensor<64xf32> loc(#loc48)
    %52 = arith.mulf %51, %38 : tensor<64xf32> loc(#loc49)
    %53 = tt.splat %arg4 : !tt.ptr<f32> -> tensor<64x!tt.ptr<f32>> loc(#loc50)
    %54 = tt.addptr %53, %4 : tensor<64x!tt.ptr<f32>>, tensor<64xi32> loc(#loc50)
    tt.store %54, %51, %5 : tensor<64x!tt.ptr<f32>> loc(#loc51)
    %55 = tt.splat %arg5 : !tt.ptr<f32> -> tensor<64x!tt.ptr<f32>> loc(#loc52)
    %56 = tt.addptr %55, %4 : tensor<64x!tt.ptr<f32>>, tensor<64xi32> loc(#loc52)
    tt.store %56, %52, %5 : tensor<64x!tt.ptr<f32>> loc(#loc53)
    tt.return loc(#loc54)
  } loc(#loc)
} loc(#loc)
#loc1 = loc(unknown)
#loc2 = loc("inductor_cache/3b/c3bae6m46l2n3sxkzrqhcjuqnazapmggaw5xgdr746x7eguedeop.py":21:28)
#loc3 = loc("inductor_cache/3b/c3bae6m46l2n3sxkzrqhcjuqnazapmggaw5xgdr746x7eguedeop.py":21:33)
#loc4 = loc("inductor_cache/3b/c3bae6m46l2n3sxkzrqhcjuqnazapmggaw5xgdr746x7eguedeop.py":22:36)
#loc5 = loc("inductor_cache/3b/c3bae6m46l2n3sxkzrqhcjuqnazapmggaw5xgdr746x7eguedeop.py":22:23)
#loc6 = loc("inductor_cache/3b/c3bae6m46l2n3sxkzrqhcjuqnazapmggaw5xgdr746x7eguedeop.py":23:21)
#loc7 = loc("inductor_cache/3b/c3bae6m46l2n3sxkzrqhcjuqnazapmggaw5xgdr746x7eguedeop.py":25:19)
#loc8 = loc("inductor_cache/3b/c3bae6m46l2n3sxkzrqhcjuqnazapmggaw5xgdr746x7eguedeop.py":26:19)
#loc9 = loc("inductor_cache/3b/c3bae6m46l2n3sxkzrqhcjuqnazapmggaw5xgdr746x7eguedeop.py":27:21)
#loc10 = loc("inductor_cache/3b/c3bae6m46l2n3sxkzrqhcjuqnazapmggaw5xgdr746x7eguedeop.py":27:26)
#loc11 = loc("inductor_cache/3b/c3bae6m46l2n3sxkzrqhcjuqnazapmggaw5xgdr746x7eguedeop.py":28:19)
#loc12 = loc("inductor_cache/3b/c3bae6m46l2n3sxkzrqhcjuqnazapmggaw5xgdr746x7eguedeop.py":29:30)
#loc13 = loc("inductor_cache/3b/c3bae6m46l2n3sxkzrqhcjuqnazapmggaw5xgdr746x7eguedeop.py":29:35)
#loc14 = loc("inductor_cache/3b/c3bae6m46l2n3sxkzrqhcjuqnazapmggaw5xgdr746x7eguedeop.py":30:38)
#loc15 = loc("inductor_cache/3b/c3bae6m46l2n3sxkzrqhcjuqnazapmggaw5xgdr746x7eguedeop.py":30:35)
#loc16 = loc("inductor_cache/3b/c3bae6m46l2n3sxkzrqhcjuqnazapmggaw5xgdr746x7eguedeop.py":30:30)
#loc17 = loc("inductor_cache/3b/c3bae6m46l2n3sxkzrqhcjuqnazapmggaw5xgdr746x7eguedeop.py":30:43)
#loc18 = loc("inductor_cache/3b/c3bae6m46l2n3sxkzrqhcjuqnazapmggaw5xgdr746x7eguedeop.py":31:34)
#loc19 = loc("inductor_cache/3b/c3bae6m46l2n3sxkzrqhcjuqnazapmggaw5xgdr746x7eguedeop.py":31:39)
#loc20 = loc("inductor_cache/3b/c3bae6m46l2n3sxkzrqhcjuqnazapmggaw5xgdr746x7eguedeop.py":31:30)
#loc21 = loc("inductor_cache/3b/c3bae6m46l2n3sxkzrqhcjuqnazapmggaw5xgdr746x7eguedeop.py":31:47)
#loc22 = loc("inductor_cache/3b/c3bae6m46l2n3sxkzrqhcjuqnazapmggaw5xgdr746x7eguedeop.py":32:34)
#loc23 = loc("inductor_cache/3b/c3bae6m46l2n3sxkzrqhcjuqnazapmggaw5xgdr746x7eguedeop.py":32:39)
#loc24 = loc("inductor_cache/3b/c3bae6m46l2n3sxkzrqhcjuqnazapmggaw5xgdr746x7eguedeop.py":32:30)
#loc25 = loc("inductor_cache/3b/c3bae6m46l2n3sxkzrqhcjuqnazapmggaw5xgdr746x7eguedeop.py":32:47)
#loc26 = loc("inductor_cache/3b/c3bae6m46l2n3sxkzrqhcjuqnazapmggaw5xgdr746x7eguedeop.py":33:35)
#loc27 = loc("inductor_cache/3b/c3bae6m46l2n3sxkzrqhcjuqnazapmggaw5xgdr746x7eguedeop.py":33:40)
#loc28 = loc("inductor_cache/3b/c3bae6m46l2n3sxkzrqhcjuqnazapmggaw5xgdr746x7eguedeop.py":33:30)
#loc29 = loc("inductor_cache/3b/c3bae6m46l2n3sxkzrqhcjuqnazapmggaw5xgdr746x7eguedeop.py":33:48)
#loc30 = loc("inductor_cache/3b/c3bae6m46l2n3sxkzrqhcjuqnazapmggaw5xgdr746x7eguedeop.py":34:31)
#loc31 = loc("inductor_cache/3b/c3bae6m46l2n3sxkzrqhcjuqnazapmggaw5xgdr746x7eguedeop.py":34:36)
#loc32 = loc("inductor_cache/3b/c3bae6m46l2n3sxkzrqhcjuqnazapmggaw5xgdr746x7eguedeop.py":35:31)
#loc33 = loc("inductor_cache/3b/c3bae6m46l2n3sxkzrqhcjuqnazapmggaw5xgdr746x7eguedeop.py":35:36)
#loc34 = loc("inductor_cache/3b/c3bae6m46l2n3sxkzrqhcjuqnazapmggaw5xgdr746x7eguedeop.py":36:31)
#loc35 = loc("inductor_cache/3b/c3bae6m46l2n3sxkzrqhcjuqnazapmggaw5xgdr746x7eguedeop.py":36:36)
#loc36 = loc("inductor_cache/3b/c3bae6m46l2n3sxkzrqhcjuqnazapmggaw5xgdr746x7eguedeop.py":37:18)
#loc37 = loc("inductor_cache/3b/c3bae6m46l2n3sxkzrqhcjuqnazapmggaw5xgdr746x7eguedeop.py":38:18)
#loc38 = loc("inductor_cache/3b/c3bae6m46l2n3sxkzrqhcjuqnazapmggaw5xgdr746x7eguedeop.py":39:18)
#loc39 = loc("inductor_cache/3b/c3bae6m46l2n3sxkzrqhcjuqnazapmggaw5xgdr746x7eguedeop.py":40:18)
#loc40 = loc("inductor_cache/3b/c3bae6m46l2n3sxkzrqhcjuqnazapmggaw5xgdr746x7eguedeop.py":41:18)
#loc41 = loc("inductor_cache/3b/c3bae6m46l2n3sxkzrqhcjuqnazapmggaw5xgdr746x7eguedeop.py":42:19)
#loc42 = loc("inductor_cache/3b/c3bae6m46l2n3sxkzrqhcjuqnazapmggaw5xgdr746x7eguedeop.py":43:19)
#loc43 = loc("inductor_cache/3b/c3bae6m46l2n3sxkzrqhcjuqnazapmggaw5xgdr746x7eguedeop.py":45:20)
#loc44 = loc("inductor_cache/3b/c3bae6m46l2n3sxkzrqhcjuqnazapmggaw5xgdr746x7eguedeop.py":47:20)
#loc45 = loc("inductor_cache/3b/c3bae6m46l2n3sxkzrqhcjuqnazapmggaw5xgdr746x7eguedeop.py":48:28)
#loc46 = loc("inductor_cache/3b/c3bae6m46l2n3sxkzrqhcjuqnazapmggaw5xgdr746x7eguedeop.py":49:19)
#loc47 = loc("inductor_cache/3b/c3bae6m46l2n3sxkzrqhcjuqnazapmggaw5xgdr746x7eguedeop.py":50:20)
#loc48 = loc("inductor_cache/3b/c3bae6m46l2n3sxkzrqhcjuqnazapmggaw5xgdr746x7eguedeop.py":51:20)
#loc49 = loc("inductor_cache/3b/c3bae6m46l2n3sxkzrqhcjuqnazapmggaw5xgdr746x7eguedeop.py":52:20)
#loc50 = loc("inductor_cache/3b/c3bae6m46l2n3sxkzrqhcjuqnazapmggaw5xgdr746x7eguedeop.py":53:25)
#loc51 = loc("inductor_cache/3b/c3bae6m46l2n3sxkzrqhcjuqnazapmggaw5xgdr746x7eguedeop.py":53:37)
#loc52 = loc("inductor_cache/3b/c3bae6m46l2n3sxkzrqhcjuqnazapmggaw5xgdr746x7eguedeop.py":54:25)
#loc53 = loc("inductor_cache/3b/c3bae6m46l2n3sxkzrqhcjuqnazapmggaw5xgdr746x7eguedeop.py":54:37)
#loc54 = loc("inductor_cache/3b/c3bae6m46l2n3sxkzrqhcjuqnazapmggaw5xgdr746x7eguedeop.py":54:4)
