#loc = loc("inductor_cache/hh/chhlf5nlshn7lrtns6oz3ji27aahblgyndzed7b5xrd3ij5dg4ke.py":19:0)
module {
  tt.func public @triton_poi_fused_add_native_layer_norm_5(%arg0: !tt.ptr<f32> {tt.divisibility = 16 : i32} loc("inductor_cache/hh/chhlf5nlshn7lrtns6oz3ji27aahblgyndzed7b5xrd3ij5dg4ke.py":19:0), %arg1: !tt.ptr<f32> {tt.divisibility = 16 : i32} loc("inductor_cache/hh/chhlf5nlshn7lrtns6oz3ji27aahblgyndzed7b5xrd3ij5dg4ke.py":19:0), %arg2: !tt.ptr<f32> {tt.divisibility = 16 : i32} loc("inductor_cache/hh/chhlf5nlshn7lrtns6oz3ji27aahblgyndzed7b5xrd3ij5dg4ke.py":19:0), %arg3: !tt.ptr<f32> {tt.divisibility = 16 : i32} loc("inductor_cache/hh/chhlf5nlshn7lrtns6oz3ji27aahblgyndzed7b5xrd3ij5dg4ke.py":19:0), %arg4: !tt.ptr<f32> {tt.divisibility = 16 : i32} loc("inductor_cache/hh/chhlf5nlshn7lrtns6oz3ji27aahblgyndzed7b5xrd3ij5dg4ke.py":19:0), %arg5: !tt.ptr<f32> {tt.divisibility = 16 : i32} loc("inductor_cache/hh/chhlf5nlshn7lrtns6oz3ji27aahblgyndzed7b5xrd3ij5dg4ke.py":19:0), %arg6: !tt.ptr<f32> {tt.divisibility = 16 : i32} loc("inductor_cache/hh/chhlf5nlshn7lrtns6oz3ji27aahblgyndzed7b5xrd3ij5dg4ke.py":19:0), %arg7: i32 {tt.divisibility = 16 : i32} loc("inductor_cache/hh/chhlf5nlshn7lrtns6oz3ji27aahblgyndzed7b5xrd3ij5dg4ke.py":19:0)) attributes {noinline = false} {
    %cst = arith.constant dense<9.99999974E-6> : tensor<16xf32> loc(#loc1)
    %cst_0 = arith.constant dense<4> : tensor<16xi32> loc(#loc1)
    %cst_1 = arith.constant dense<16> : tensor<16xi32> loc(#loc1)
    %c16_i32 = arith.constant 16 : i32 loc(#loc1)
    %0 = tt.get_program_id x : i32 loc(#loc2)
    %1 = arith.muli %0, %c16_i32 : i32 loc(#loc3)
    %2 = tt.make_range {end = 16 : i32, start = 0 : i32} : tensor<16xi32> loc(#loc4)
    %3 = tt.splat %1 : i32 -> tensor<16xi32> loc(#loc5)
    %4 = arith.addi %3, %2 : tensor<16xi32> loc(#loc5)
    %5 = arith.cmpi slt, %4, %cst_1 : tensor<16xi32> loc(#loc6)
    %6 = arith.divsi %4, %cst_0 : tensor<16xi32> loc(#loc7)
    %7 = arith.remsi %4, %cst_0 : tensor<16xi32> loc(#loc8)
    %8 = tt.splat %arg0 : !tt.ptr<f32> -> tensor<16x!tt.ptr<f32>> loc(#loc9)
    %9 = tt.addptr %8, %4 : tensor<16x!tt.ptr<f32>>, tensor<16xi32> loc(#loc9)
    %10 = tt.load %9, %5 : tensor<16x!tt.ptr<f32>> loc(#loc10)
    %11 = tt.splat %arg1 : !tt.ptr<f32> -> tensor<16x!tt.ptr<f32>> loc(#loc11)
    %12 = tt.addptr %11, %4 : tensor<16x!tt.ptr<f32>>, tensor<16xi32> loc(#loc11)
    %13 = tt.load %12, %5 : tensor<16x!tt.ptr<f32>> loc(#loc12)
    %14 = tt.splat %arg2 : !tt.ptr<f32> -> tensor<16x!tt.ptr<f32>> loc(#loc13)
    %15 = tt.addptr %14, %6 : tensor<16x!tt.ptr<f32>>, tensor<16xi32> loc(#loc13)
    %16 = tt.load %15, %5 evictionPolicy = evict_last : tensor<16x!tt.ptr<f32>> loc(#loc14)
    %17 = tt.splat %arg3 : !tt.ptr<f32> -> tensor<16x!tt.ptr<f32>> loc(#loc15)
    %18 = tt.addptr %17, %6 : tensor<16x!tt.ptr<f32>>, tensor<16xi32> loc(#loc15)
    %19 = tt.load %18, %5 evictionPolicy = evict_last : tensor<16x!tt.ptr<f32>> loc(#loc16)
    %20 = tt.splat %arg4 : !tt.ptr<f32> -> tensor<16x!tt.ptr<f32>> loc(#loc17)
    %21 = tt.addptr %20, %7 : tensor<16x!tt.ptr<f32>>, tensor<16xi32> loc(#loc17)
    %22 = tt.load %21, %5 evictionPolicy = evict_last : tensor<16x!tt.ptr<f32>> loc(#loc18)
    %23 = tt.splat %arg5 : !tt.ptr<f32> -> tensor<16x!tt.ptr<f32>> loc(#loc19)
    %24 = tt.addptr %23, %7 : tensor<16x!tt.ptr<f32>>, tensor<16xi32> loc(#loc19)
    %25 = tt.load %24, %5 evictionPolicy = evict_last : tensor<16x!tt.ptr<f32>> loc(#loc20)
    %26 = arith.addf %10, %13 : tensor<16xf32> loc(#loc21)
    %27 = arith.subf %26, %16 : tensor<16xf32> loc(#loc22)
    %28 = arith.addf %19, %cst : tensor<16xf32> loc(#loc23)
    %29 = tt.extern_elementwise %28 {libname = "", libpath = "", pure = true, symbol = "__nv_rsqrtf"} : (tensor<16xf32>) -> tensor<16xf32> loc(#loc24)
    %30 = arith.mulf %27, %29 : tensor<16xf32> loc(#loc25)
    %31 = arith.mulf %30, %22 : tensor<16xf32> loc(#loc26)
    %32 = arith.addf %31, %25 : tensor<16xf32> loc(#loc27)
    %33 = tt.splat %arg6 : !tt.ptr<f32> -> tensor<16x!tt.ptr<f32>> loc(#loc28)
    %34 = tt.addptr %33, %4 : tensor<16x!tt.ptr<f32>>, tensor<16xi32> loc(#loc28)
    tt.store %34, %32, %5 : tensor<16x!tt.ptr<f32>> loc(#loc29)
    tt.return loc(#loc30)
  } loc(#loc)
} loc(#loc)
#loc1 = loc(unknown)
#loc2 = loc("inductor_cache/hh/chhlf5nlshn7lrtns6oz3ji27aahblgyndzed7b5xrd3ij5dg4ke.py":21:28)
#loc3 = loc("inductor_cache/hh/chhlf5nlshn7lrtns6oz3ji27aahblgyndzed7b5xrd3ij5dg4ke.py":21:33)
#loc4 = loc("inductor_cache/hh/chhlf5nlshn7lrtns6oz3ji27aahblgyndzed7b5xrd3ij5dg4ke.py":22:36)
#loc5 = loc("inductor_cache/hh/chhlf5nlshn7lrtns6oz3ji27aahblgyndzed7b5xrd3ij5dg4ke.py":22:23)
#loc6 = loc("inductor_cache/hh/chhlf5nlshn7lrtns6oz3ji27aahblgyndzed7b5xrd3ij5dg4ke.py":23:21)
#loc7 = loc("inductor_cache/hh/chhlf5nlshn7lrtns6oz3ji27aahblgyndzed7b5xrd3ij5dg4ke.py":25:19)
#loc8 = loc("inductor_cache/hh/chhlf5nlshn7lrtns6oz3ji27aahblgyndzed7b5xrd3ij5dg4ke.py":26:19)
#loc9 = loc("inductor_cache/hh/chhlf5nlshn7lrtns6oz3ji27aahblgyndzed7b5xrd3ij5dg4ke.py":27:30)
#loc10 = loc("inductor_cache/hh/chhlf5nlshn7lrtns6oz3ji27aahblgyndzed7b5xrd3ij5dg4ke.py":27:35)
#loc11 = loc("inductor_cache/hh/chhlf5nlshn7lrtns6oz3ji27aahblgyndzed7b5xrd3ij5dg4ke.py":28:30)
#loc12 = loc("inductor_cache/hh/chhlf5nlshn7lrtns6oz3ji27aahblgyndzed7b5xrd3ij5dg4ke.py":28:35)
#loc13 = loc("inductor_cache/hh/chhlf5nlshn7lrtns6oz3ji27aahblgyndzed7b5xrd3ij5dg4ke.py":29:30)
#loc14 = loc("inductor_cache/hh/chhlf5nlshn7lrtns6oz3ji27aahblgyndzed7b5xrd3ij5dg4ke.py":29:35)
#loc15 = loc("inductor_cache/hh/chhlf5nlshn7lrtns6oz3ji27aahblgyndzed7b5xrd3ij5dg4ke.py":30:30)
#loc16 = loc("inductor_cache/hh/chhlf5nlshn7lrtns6oz3ji27aahblgyndzed7b5xrd3ij5dg4ke.py":30:35)
#loc17 = loc("inductor_cache/hh/chhlf5nlshn7lrtns6oz3ji27aahblgyndzed7b5xrd3ij5dg4ke.py":31:31)
#loc18 = loc("inductor_cache/hh/chhlf5nlshn7lrtns6oz3ji27aahblgyndzed7b5xrd3ij5dg4ke.py":31:36)
#loc19 = loc("inductor_cache/hh/chhlf5nlshn7lrtns6oz3ji27aahblgyndzed7b5xrd3ij5dg4ke.py":32:31)
#loc20 = loc("inductor_cache/hh/chhlf5nlshn7lrtns6oz3ji27aahblgyndzed7b5xrd3ij5dg4ke.py":32:36)
#loc21 = loc("inductor_cache/hh/chhlf5nlshn7lrtns6oz3ji27aahblgyndzed7b5xrd3ij5dg4ke.py":33:18)
#loc22 = loc("inductor_cache/hh/chhlf5nlshn7lrtns6oz3ji27aahblgyndzed7b5xrd3ij5dg4ke.py":34:18)
#loc23 = loc("inductor_cache/hh/chhlf5nlshn7lrtns6oz3ji27aahblgyndzed7b5xrd3ij5dg4ke.py":36:18)
#loc24 = loc("inductor_cache/hh/chhlf5nlshn7lrtns6oz3ji27aahblgyndzed7b5xrd3ij5dg4ke.py":37:27)
#loc25 = loc("inductor_cache/hh/chhlf5nlshn7lrtns6oz3ji27aahblgyndzed7b5xrd3ij5dg4ke.py":38:18)
#loc26 = loc("inductor_cache/hh/chhlf5nlshn7lrtns6oz3ji27aahblgyndzed7b5xrd3ij5dg4ke.py":39:19)
#loc27 = loc("inductor_cache/hh/chhlf5nlshn7lrtns6oz3ji27aahblgyndzed7b5xrd3ij5dg4ke.py":40:20)
#loc28 = loc("inductor_cache/hh/chhlf5nlshn7lrtns6oz3ji27aahblgyndzed7b5xrd3ij5dg4ke.py":41:25)
#loc29 = loc("inductor_cache/hh/chhlf5nlshn7lrtns6oz3ji27aahblgyndzed7b5xrd3ij5dg4ke.py":41:37)
#loc30 = loc("inductor_cache/hh/chhlf5nlshn7lrtns6oz3ji27aahblgyndzed7b5xrd3ij5dg4ke.py":41:4)
