#loc = loc("inductor_cache/oi/coiqsjkr3vv6zlidd3p4joffdnxcfoqpuqfnkfkao4nilx26n7dy.py":19:0)
module {
  tt.func public @triton_poi_fused__native_batch_norm_legit_no_training_leaky_relu_10(%arg0: !tt.ptr<f32> {tt.divisibility = 16 : i32} loc("inductor_cache/oi/coiqsjkr3vv6zlidd3p4joffdnxcfoqpuqfnkfkao4nilx26n7dy.py":19:0), %arg1: !tt.ptr<f32> {tt.divisibility = 16 : i32} loc("inductor_cache/oi/coiqsjkr3vv6zlidd3p4joffdnxcfoqpuqfnkfkao4nilx26n7dy.py":19:0), %arg2: !tt.ptr<f32> {tt.divisibility = 16 : i32} loc("inductor_cache/oi/coiqsjkr3vv6zlidd3p4joffdnxcfoqpuqfnkfkao4nilx26n7dy.py":19:0), %arg3: !tt.ptr<f32> {tt.divisibility = 16 : i32} loc("inductor_cache/oi/coiqsjkr3vv6zlidd3p4joffdnxcfoqpuqfnkfkao4nilx26n7dy.py":19:0), %arg4: !tt.ptr<f32> {tt.divisibility = 16 : i32} loc("inductor_cache/oi/coiqsjkr3vv6zlidd3p4joffdnxcfoqpuqfnkfkao4nilx26n7dy.py":19:0), %arg5: !tt.ptr<f32> {tt.divisibility = 16 : i32} loc("inductor_cache/oi/coiqsjkr3vv6zlidd3p4joffdnxcfoqpuqfnkfkao4nilx26n7dy.py":19:0), %arg6: i32 {tt.divisibility = 16 : i32} loc("inductor_cache/oi/coiqsjkr3vv6zlidd3p4joffdnxcfoqpuqfnkfkao4nilx26n7dy.py":19:0), %arg7: i32 {tt.divisibility = 16 : i32} loc("inductor_cache/oi/coiqsjkr3vv6zlidd3p4joffdnxcfoqpuqfnkfkao4nilx26n7dy.py":19:0)) attributes {noinline = false} {
    %cst = arith.constant dense<1.000000e+00> : tensor<32x1xf32> loc(#loc1)
    %cst_0 = arith.constant dense<16384> : tensor<1x32xi32> loc(#loc1)
    %cst_1 = arith.constant dense<256> : tensor<32x1xi32> loc(#loc1)
    %cst_2 = arith.constant dense<1.000000e-01> : tensor<32x32xf32> loc(#loc1)
    %cst_3 = arith.constant dense<0.000000e+00> : tensor<32x32xf32> loc(#loc1)
    %cst_4 = arith.constant dense<9.99999974E-6> : tensor<32x1xf32> loc(#loc1)
    %cst_5 = arith.constant dense<64> : tensor<1x32xi32> loc(#loc1)
    %cst_6 = arith.constant dense<256> : tensor<1x32xi32> loc(#loc1)
    %cst_7 = arith.constant dense<64> : tensor<32x1xi32> loc(#loc1)
    %c32_i32 = arith.constant 32 : i32 loc(#loc1)
    %0 = tt.get_program_id y : i32 loc(#loc2)
    %1 = arith.muli %0, %c32_i32 : i32 loc(#loc3)
    %2 = tt.make_range {end = 32 : i32, start = 0 : i32} : tensor<32xi32> loc(#loc4)
    %3 = tt.expand_dims %2 {axis = 0 : i32} : tensor<32xi32> -> tensor<1x32xi32> loc(#loc5)
    %4 = tt.splat %1 : i32 -> tensor<1x32xi32> loc(#loc6)
    %5 = arith.addi %4, %3 : tensor<1x32xi32> loc(#loc6)
    %6 = tt.get_program_id x : i32 loc(#loc7)
    %7 = arith.muli %6, %c32_i32 : i32 loc(#loc8)
    %8 = tt.expand_dims %2 {axis = 1 : i32} : tensor<32xi32> -> tensor<32x1xi32> loc(#loc9)
    %9 = tt.splat %7 : i32 -> tensor<32x1xi32> loc(#loc10)
    %10 = arith.addi %9, %8 : tensor<32x1xi32> loc(#loc10)
    %11 = arith.cmpi slt, %10, %cst_7 : tensor<32x1xi32> loc(#loc11)
    %12 = arith.remsi %5, %cst_6 : tensor<1x32xi32> loc(#loc12)
    %13 = arith.divsi %5, %cst_6 : tensor<1x32xi32> loc(#loc13)
    %14 = arith.muli %5, %cst_5 : tensor<1x32xi32> loc(#loc14)
    %15 = tt.broadcast %10 : tensor<32x1xi32> -> tensor<32x32xi32> loc(#loc15)
    %16 = tt.broadcast %14 : tensor<1x32xi32> -> tensor<32x32xi32> loc(#loc15)
    %17 = arith.addi %15, %16 : tensor<32x32xi32> loc(#loc15)
    %18 = tt.splat %arg0 : !tt.ptr<f32> -> tensor<32x32x!tt.ptr<f32>> loc(#loc16)
    %19 = tt.addptr %18, %17 : tensor<32x32x!tt.ptr<f32>>, tensor<32x32xi32> loc(#loc16)
    %20 = tt.broadcast %11 : tensor<32x1xi1> -> tensor<32x32xi1> loc(#loc17)
    %21 = tt.load %19, %20 evictionPolicy = evict_last : tensor<32x32x!tt.ptr<f32>> loc(#loc17)
    %22 = tt.splat %arg1 : !tt.ptr<f32> -> tensor<32x1x!tt.ptr<f32>> loc(#loc18)
    %23 = tt.addptr %22, %10 : tensor<32x1x!tt.ptr<f32>>, tensor<32x1xi32> loc(#loc18)
    %24 = tt.load %23, %11 evictionPolicy = evict_last : tensor<32x1x!tt.ptr<f32>> loc(#loc19)
    %25 = tt.splat %arg2 : !tt.ptr<f32> -> tensor<32x1x!tt.ptr<f32>> loc(#loc20)
    %26 = tt.addptr %25, %10 : tensor<32x1x!tt.ptr<f32>>, tensor<32x1xi32> loc(#loc20)
    %27 = tt.load %26, %11 evictionPolicy = evict_last : tensor<32x1x!tt.ptr<f32>> loc(#loc21)
    %28 = tt.splat %arg3 : !tt.ptr<f32> -> tensor<32x1x!tt.ptr<f32>> loc(#loc22)
    %29 = tt.addptr %28, %10 : tensor<32x1x!tt.ptr<f32>>, tensor<32x1xi32> loc(#loc22)
    %30 = tt.load %29, %11 evictionPolicy = evict_last : tensor<32x1x!tt.ptr<f32>> loc(#loc23)
    %31 = tt.splat %arg4 : !tt.ptr<f32> -> tensor<32x1x!tt.ptr<f32>> loc(#loc24)
    %32 = tt.addptr %31, %10 : tensor<32x1x!tt.ptr<f32>>, tensor<32x1xi32> loc(#loc24)
    %33 = tt.load %32, %11 evictionPolicy = evict_last : tensor<32x1x!tt.ptr<f32>> loc(#loc25)
    %34 = tt.broadcast %24 : tensor<32x1xf32> -> tensor<32x32xf32> loc(#loc26)
    %35 = arith.subf %21, %34 : tensor<32x32xf32> loc(#loc26)
    %36 = arith.addf %27, %cst_4 : tensor<32x1xf32> loc(#loc27)
    %37 = tt.extern_elementwise %36 {libname = "", libpath = "", pure = true, symbol = "__nv_sqrtf"} : (tensor<32x1xf32>) -> tensor<32x1xf32> loc(#loc28)
    %38 = arith.divf %cst, %37 : tensor<32x1xf32> loc(#loc29)
    %39 = tt.broadcast %38 : tensor<32x1xf32> -> tensor<32x32xf32> loc(#loc30)
    %40 = arith.mulf %35, %39 : tensor<32x32xf32> loc(#loc30)
    %41 = tt.broadcast %30 : tensor<32x1xf32> -> tensor<32x32xf32> loc(#loc31)
    %42 = arith.mulf %40, %41 : tensor<32x32xf32> loc(#loc31)
    %43 = tt.broadcast %33 : tensor<32x1xf32> -> tensor<32x32xf32> loc(#loc32)
    %44 = arith.addf %42, %43 : tensor<32x32xf32> loc(#loc32)
    %45 = arith.cmpf ogt, %44, %cst_3 : tensor<32x32xf32> loc(#loc33)
    %46 = arith.mulf %44, %cst_2 : tensor<32x32xf32> loc(#loc34)
    %47 = arith.select %45, %44, %46 : tensor<32x32xi1>, tensor<32x32xf32> loc(#loc35)
    %48 = arith.muli %10, %cst_1 : tensor<32x1xi32> loc(#loc36)
    %49 = tt.broadcast %12 : tensor<1x32xi32> -> tensor<32x32xi32> loc(#loc37)
    %50 = tt.broadcast %48 : tensor<32x1xi32> -> tensor<32x32xi32> loc(#loc37)
    %51 = arith.addi %49, %50 : tensor<32x32xi32> loc(#loc37)
    %52 = arith.muli %13, %cst_0 : tensor<1x32xi32> loc(#loc38)
    %53 = tt.broadcast %52 : tensor<1x32xi32> -> tensor<32x32xi32> loc(#loc39)
    %54 = arith.addi %51, %53 : tensor<32x32xi32> loc(#loc39)
    %55 = tt.splat %arg5 : !tt.ptr<f32> -> tensor<32x32x!tt.ptr<f32>> loc(#loc40)
    %56 = tt.addptr %55, %54 : tensor<32x32x!tt.ptr<f32>>, tensor<32x32xi32> loc(#loc40)
    tt.store %56, %47, %20 : tensor<32x32x!tt.ptr<f32>> loc(#loc41)
    tt.return loc(#loc42)
  } loc(#loc)
} loc(#loc)
#loc1 = loc(unknown)
#loc2 = loc("inductor_cache/oi/coiqsjkr3vv6zlidd3p4joffdnxcfoqpuqfnkfkao4nilx26n7dy.py":22:28)
#loc3 = loc("inductor_cache/oi/coiqsjkr3vv6zlidd3p4joffdnxcfoqpuqfnkfkao4nilx26n7dy.py":22:33)
#loc4 = loc("inductor_cache/oi/coiqsjkr3vv6zlidd3p4joffdnxcfoqpuqfnkfkao4nilx26n7dy.py":23:36)
#loc5 = loc("inductor_cache/oi/coiqsjkr3vv6zlidd3p4joffdnxcfoqpuqfnkfkao4nilx26n7dy.py":23:44)
#loc6 = loc("inductor_cache/oi/coiqsjkr3vv6zlidd3p4joffdnxcfoqpuqfnkfkao4nilx26n7dy.py":23:23)
#loc7 = loc("inductor_cache/oi/coiqsjkr3vv6zlidd3p4joffdnxcfoqpuqfnkfkao4nilx26n7dy.py":25:28)
#loc8 = loc("inductor_cache/oi/coiqsjkr3vv6zlidd3p4joffdnxcfoqpuqfnkfkao4nilx26n7dy.py":25:33)
#loc9 = loc("inductor_cache/oi/coiqsjkr3vv6zlidd3p4joffdnxcfoqpuqfnkfkao4nilx26n7dy.py":26:44)
#loc10 = loc("inductor_cache/oi/coiqsjkr3vv6zlidd3p4joffdnxcfoqpuqfnkfkao4nilx26n7dy.py":26:23)
#loc11 = loc("inductor_cache/oi/coiqsjkr3vv6zlidd3p4joffdnxcfoqpuqfnkfkao4nilx26n7dy.py":27:21)
#loc12 = loc("inductor_cache/oi/coiqsjkr3vv6zlidd3p4joffdnxcfoqpuqfnkfkao4nilx26n7dy.py":30:19)
#loc13 = loc("inductor_cache/oi/coiqsjkr3vv6zlidd3p4joffdnxcfoqpuqfnkfkao4nilx26n7dy.py":31:19)
#loc14 = loc("inductor_cache/oi/coiqsjkr3vv6zlidd3p4joffdnxcfoqpuqfnkfkao4nilx26n7dy.py":32:38)
#loc15 = loc("inductor_cache/oi/coiqsjkr3vv6zlidd3p4joffdnxcfoqpuqfnkfkao4nilx26n7dy.py":32:35)
#loc16 = loc("inductor_cache/oi/coiqsjkr3vv6zlidd3p4joffdnxcfoqpuqfnkfkao4nilx26n7dy.py":32:30)
#loc17 = loc("inductor_cache/oi/coiqsjkr3vv6zlidd3p4joffdnxcfoqpuqfnkfkao4nilx26n7dy.py":32:43)
#loc18 = loc("inductor_cache/oi/coiqsjkr3vv6zlidd3p4joffdnxcfoqpuqfnkfkao4nilx26n7dy.py":33:30)
#loc19 = loc("inductor_cache/oi/coiqsjkr3vv6zlidd3p4joffdnxcfoqpuqfnkfkao4nilx26n7dy.py":33:35)
#loc20 = loc("inductor_cache/oi/coiqsjkr3vv6zlidd3p4joffdnxcfoqpuqfnkfkao4nilx26n7dy.py":34:30)
#loc21 = loc("inductor_cache/oi/coiqsjkr3vv6zlidd3p4joffdnxcfoqpuqfnkfkao4nilx26n7dy.py":34:35)
#loc22 = loc("inductor_cache/oi/coiqsjkr3vv6zlidd3p4joffdnxcfoqpuqfnkfkao4nilx26n7dy.py":35:31)
#loc23 = loc("inductor_cache/oi/coiqsjkr3vv6zlidd3p4joffdnxcfoqpuqfnkfkao4nilx26n7dy.py":35:36)
#loc24 = loc("inductor_cache/oi/coiqsjkr3vv6zlidd3p4joffdnxcfoqpuqfnkfkao4nilx26n7dy.py":36:31)
#loc25 = loc("inductor_cache/oi/coiqsjkr3vv6zlidd3p4joffdnxcfoqpuqfnkfkao4nilx26n7dy.py":36:36)
#loc26 = loc("inductor_cache/oi/coiqsjkr3vv6zlidd3p4joffdnxcfoqpuqfnkfkao4nilx26n7dy.py":37:18)
#loc27 = loc("inductor_cache/oi/coiqsjkr3vv6zlidd3p4joffdnxcfoqpuqfnkfkao4nilx26n7dy.py":39:18)
#loc28 = loc("inductor_cache/oi/coiqsjkr3vv6zlidd3p4joffdnxcfoqpuqfnkfkao4nilx26n7dy.py":40:26)
#loc29 = loc("inductor_cache/oi/coiqsjkr3vv6zlidd3p4joffdnxcfoqpuqfnkfkao4nilx26n7dy.py":42:18)
#loc30 = loc("inductor_cache/oi/coiqsjkr3vv6zlidd3p4joffdnxcfoqpuqfnkfkao4nilx26n7dy.py":45:19)
#loc31 = loc("inductor_cache/oi/coiqsjkr3vv6zlidd3p4joffdnxcfoqpuqfnkfkao4nilx26n7dy.py":46:20)
#loc32 = loc("inductor_cache/oi/coiqsjkr3vv6zlidd3p4joffdnxcfoqpuqfnkfkao4nilx26n7dy.py":47:20)
#loc33 = loc("inductor_cache/oi/coiqsjkr3vv6zlidd3p4joffdnxcfoqpuqfnkfkao4nilx26n7dy.py":49:20)
#loc34 = loc("inductor_cache/oi/coiqsjkr3vv6zlidd3p4joffdnxcfoqpuqfnkfkao4nilx26n7dy.py":51:20)
#loc35 = loc("inductor_cache/oi/coiqsjkr3vv6zlidd3p4joffdnxcfoqpuqfnkfkao4nilx26n7dy.py":52:35)
#loc36 = loc("inductor_cache/oi/coiqsjkr3vv6zlidd3p4joffdnxcfoqpuqfnkfkao4nilx26n7dy.py":53:34)
#loc37 = loc("inductor_cache/oi/coiqsjkr3vv6zlidd3p4joffdnxcfoqpuqfnkfkao4nilx26n7dy.py":53:30)
#loc38 = loc("inductor_cache/oi/coiqsjkr3vv6zlidd3p4joffdnxcfoqpuqfnkfkao4nilx26n7dy.py":53:45)
#loc39 = loc("inductor_cache/oi/coiqsjkr3vv6zlidd3p4joffdnxcfoqpuqfnkfkao4nilx26n7dy.py":53:39)
#loc40 = loc("inductor_cache/oi/coiqsjkr3vv6zlidd3p4joffdnxcfoqpuqfnkfkao4nilx26n7dy.py":53:25)
#loc41 = loc("inductor_cache/oi/coiqsjkr3vv6zlidd3p4joffdnxcfoqpuqfnkfkao4nilx26n7dy.py":53:57)
#loc42 = loc("inductor_cache/oi/coiqsjkr3vv6zlidd3p4joffdnxcfoqpuqfnkfkao4nilx26n7dy.py":53:4)
