#loc = loc("inductor_cache/up/cupdbp6gfom2srxkrvcyw727hnwnekxu5yl4l6nzftr2kfu5ei6l.py":19:0)
#loc1 = loc(unknown)
#loc36 = loc("inductor_cache/up/cupdbp6gfom2srxkrvcyw727hnwnekxu5yl4l6nzftr2kfu5ei6l.py":48:41)
#loc70 = loc(callsite(#loc1 at #loc36))
module {
  tt.func public @triton_red_fused_convolution_native_group_norm_2(%arg0: !tt.ptr<f32> {tt.divisibility = 16 : i32} loc("inductor_cache/up/cupdbp6gfom2srxkrvcyw727hnwnekxu5yl4l6nzftr2kfu5ei6l.py":19:0), %arg1: !tt.ptr<f32> {tt.divisibility = 16 : i32} loc("inductor_cache/up/cupdbp6gfom2srxkrvcyw727hnwnekxu5yl4l6nzftr2kfu5ei6l.py":19:0), %arg2: !tt.ptr<f32> {tt.divisibility = 16 : i32} loc("inductor_cache/up/cupdbp6gfom2srxkrvcyw727hnwnekxu5yl4l6nzftr2kfu5ei6l.py":19:0), %arg3: !tt.ptr<f32> {tt.divisibility = 16 : i32} loc("inductor_cache/up/cupdbp6gfom2srxkrvcyw727hnwnekxu5yl4l6nzftr2kfu5ei6l.py":19:0), %arg4: i32 {tt.divisibility = 16 : i32} loc("inductor_cache/up/cupdbp6gfom2srxkrvcyw727hnwnekxu5yl4l6nzftr2kfu5ei6l.py":19:0), %arg5: i32 {tt.divisibility = 16 : i32} loc("inductor_cache/up/cupdbp6gfom2srxkrvcyw727hnwnekxu5yl4l6nzftr2kfu5ei6l.py":19:0)) attributes {noinline = false} {
    %c32_i32 = arith.constant 32 : i32 loc(#loc1)
    %c8_i32 = arith.constant 8 : i32 loc(#loc1)
    %cst = arith.constant 0.000000e+00 : f32 loc(#loc1)
    %cst_0 = arith.constant dense<1.000000e+00> : tensor<1x2048xf32> loc(#loc1)
    %c2048_i32 = arith.constant 2048 : i32 loc(#loc1)
    %c131072_i32 = arith.constant 131072 : i32 loc(#loc1)
    %cst_1 = arith.constant dense<9.99999974E-6> : tensor<1x1xf32> loc(#loc1)
    %cst_2 = arith.constant dense<1.310720e+05> : tensor<1x1xf32> loc(#loc1)
    %cst_3 = arith.constant dense<0.000000e+00> : tensor<1x2048xf32> loc(#loc1)
    %cst_4 = arith.constant dense<4096> : tensor<1x2048xi32> loc(#loc1)
    %c0_i32 = arith.constant 0 : i32 loc(#loc1)
    %0 = tt.get_program_id x : i32 loc(#loc2)
    %1 = arith.cmpi slt, %0, %c2048_i32 : i32 loc(#loc3)
    %2 = tt.splat %1 : i1 -> tensor<1x1xi1> loc(#loc3)
    %3 = tt.make_range {end = 2048 : i32, start = 0 : i32} : tensor<2048xi32> loc(#loc4)
    %4 = tt.expand_dims %3 {axis = 0 : i32} : tensor<2048xi32> -> tensor<1x2048xi32> loc(#loc5)
    %5 = arith.remsi %0, %c8_i32 : i32 loc(#loc6)
    %6 = arith.muli %0, %c131072_i32 : i32 loc(#loc7)
    %7 = tt.splat %6 : i32 -> tensor<1x2048xi32> loc(#loc8)
    %8 = tt.splat %arg0 : !tt.ptr<f32> -> tensor<1x2048x!tt.ptr<f32>> loc(#loc9)
    %9 = tt.splat %1 : i1 -> tensor<1x2048xi1> loc(#loc10)
    %10 = arith.muli %5, %c32_i32 : i32 loc(#loc11)
    %11 = tt.splat %10 : i32 -> tensor<1x2048xi32> loc(#loc12)
    %12 = tt.splat %arg2 : !tt.ptr<f32> -> tensor<1x2048x!tt.ptr<f32>> loc(#loc13)
    %13:3 = scf.for %arg6 = %c0_i32 to %c131072_i32 step %c2048_i32 iter_args(%arg7 = %cst_3, %arg8 = %cst_3, %arg9 = %cst_3) -> (tensor<1x2048xf32>, tensor<1x2048xf32>, tensor<1x2048xf32>)  : i32 {
      %24 = tt.splat %arg6 : i32 -> tensor<1x2048xi32> loc(#loc15)
      %25 = arith.addi %24, %4 : tensor<1x2048xi32> loc(#loc15)
      %26 = arith.divsi %25, %cst_4 : tensor<1x2048xi32> loc(#loc16)
      %27 = arith.addi %25, %7 : tensor<1x2048xi32> loc(#loc8)
      %28 = tt.addptr %8, %27 : tensor<1x2048x!tt.ptr<f32>>, tensor<1x2048xi32> loc(#loc9)
      %29 = tt.load %28, %9, %cst_3 evictionPolicy = evict_first : tensor<1x2048x!tt.ptr<f32>> loc(#loc10)
      %30 = arith.addi %26, %11 : tensor<1x2048xi32> loc(#loc12)
      %31 = tt.addptr %12, %30 : tensor<1x2048x!tt.ptr<f32>>, tensor<1x2048xi32> loc(#loc13)
      %32 = tt.load %31, %9, %cst_3 evictionPolicy = evict_last : tensor<1x2048x!tt.ptr<f32>> loc(#loc17)
      %33 = arith.addf %29, %32 : tensor<1x2048xf32> loc(#loc18)
      %34 = arith.cmpi eq, %arg6, %c0_i32 : i32 loc(#loc19)
      %35:3 = scf.if %34 -> (tensor<1x2048xf32>, tensor<1x2048xf32>, tensor<1x2048xf32>) {
        scf.yield %cst_3, %33, %cst_0 : tensor<1x2048xf32>, tensor<1x2048xf32>, tensor<1x2048xf32> loc(#loc61)
      } else {
        %39 = arith.subf %33, %arg7 : tensor<1x2048xf32> loc(#loc62)
        %40 = arith.addf %arg9, %cst_0 : tensor<1x2048xf32> loc(#loc63)
        %41 = arith.divf %39, %40 : tensor<1x2048xf32> loc(#loc64)
        %42 = arith.addf %arg7, %41 : tensor<1x2048xf32> loc(#loc65)
        %43 = arith.subf %33, %42 : tensor<1x2048xf32> loc(#loc66)
        %44 = arith.mulf %39, %43 : tensor<1x2048xf32> loc(#loc67)
        %45 = arith.addf %arg8, %44 : tensor<1x2048xf32> loc(#loc68)
        scf.yield %45, %42, %40 : tensor<1x2048xf32>, tensor<1x2048xf32>, tensor<1x2048xf32> loc(#loc68)
      } loc(#loc60)
      %36 = arith.select %9, %35#1, %arg7 : tensor<1x2048xi1>, tensor<1x2048xf32> loc(#loc30)
      %37 = arith.select %9, %35#0, %arg8 : tensor<1x2048xi1>, tensor<1x2048xf32> loc(#loc31)
      %38 = arith.select %9, %35#2, %arg9 : tensor<1x2048xi1>, tensor<1x2048xf32> loc(#loc32)
      tt.store %28, %33, %9 : tensor<1x2048x!tt.ptr<f32>> loc(#loc33)
      scf.yield %36, %37, %38 : tensor<1x2048xf32>, tensor<1x2048xf32>, tensor<1x2048xf32> loc(#loc34)
    } loc(#loc14)
    %14:3 = "tt.reduce"(%13#0, %13#1, %13#2) <{axis = 1 : i32}> ({
    ^bb0(%arg6: f32 loc(callsite(#loc1 at #loc36)), %arg7: f32 loc(callsite(#loc1 at #loc36)), %arg8: f32 loc(callsite(#loc1 at #loc36)), %arg9: f32 loc(callsite(#loc1 at #loc36)), %arg10: f32 loc(callsite(#loc1 at #loc36)), %arg11: f32 loc(callsite(#loc1 at #loc36))):
      %24 = arith.subf %arg9, %arg6 : f32 loc(#loc83)
      %25 = arith.addf %arg8, %arg11 : f32 loc(#loc84)
      %26 = arith.cmpf oeq, %25, %cst : f32 loc(#loc85)
      %27 = arith.divf %arg11, %25 : f32 loc(#loc86)
      %28 = arith.select %26, %cst, %27 : f32 loc(#loc87)
      %29 = arith.mulf %24, %28 : f32 loc(#loc88)
      %30 = arith.addf %arg6, %29 : f32 loc(#loc89)
      %31 = arith.addf %arg7, %arg10 : f32 loc(#loc90)
      %32 = arith.mulf %24, %24 : f32 loc(#loc91)
      %33 = arith.mulf %32, %arg8 : f32 loc(#loc92)
      %34 = arith.mulf %33, %28 : f32 loc(#loc93)
      %35 = arith.addf %31, %34 : f32 loc(#loc94)
      tt.reduce.return %30, %35, %25 : f32, f32, f32 loc(#loc69)
    }) : (tensor<1x2048xf32>, tensor<1x2048xf32>, tensor<1x2048xf32>) -> (tensor<1xf32>, tensor<1xf32>, tensor<1xf32>) loc(#loc69)
    %15 = tt.expand_dims %14#0 {axis = 1 : i32} : tensor<1xf32> -> tensor<1x1xf32> loc(#loc49)
    %16 = tt.expand_dims %14#1 {axis = 1 : i32} : tensor<1xf32> -> tensor<1x1xf32> loc(#loc50)
    %17 = tt.addptr %arg3, %0 : !tt.ptr<f32>, i32 loc(#loc51)
    %18 = tt.splat %17 : !tt.ptr<f32> -> tensor<1x1x!tt.ptr<f32>> loc(#loc51)
    tt.store %18, %15, %2 : tensor<1x1x!tt.ptr<f32>> loc(#loc52)
    %19 = arith.divf %16, %cst_2 : tensor<1x1xf32> loc(#loc53)
    %20 = arith.addf %19, %cst_1 : tensor<1x1xf32> loc(#loc54)
    %21 = tt.extern_elementwise %20 {libname = "", libpath = "", pure = true, symbol = "__nv_rsqrtf"} : (tensor<1x1xf32>) -> tensor<1x1xf32> loc(#loc55)
    gpu.barrier loc(#loc56)
    %22 = tt.addptr %arg1, %0 : !tt.ptr<f32>, i32 loc(#loc57)
    %23 = tt.splat %22 : !tt.ptr<f32> -> tensor<1x1x!tt.ptr<f32>> loc(#loc57)
    tt.store %23, %21, %2 : tensor<1x1x!tt.ptr<f32>> loc(#loc58)
    tt.return loc(#loc59)
  } loc(#loc)
} loc(#loc)
#loc2 = loc("inductor_cache/up/cupdbp6gfom2srxkrvcyw727hnwnekxu5yl4l6nzftr2kfu5ei6l.py":22:28)
#loc3 = loc("inductor_cache/up/cupdbp6gfom2srxkrvcyw727hnwnekxu5yl4l6nzftr2kfu5ei6l.py":24:21)
#loc4 = loc("inductor_cache/up/cupdbp6gfom2srxkrvcyw727hnwnekxu5yl4l6nzftr2kfu5ei6l.py":25:25)
#loc5 = loc("inductor_cache/up/cupdbp6gfom2srxkrvcyw727hnwnekxu5yl4l6nzftr2kfu5ei6l.py":25:33)
#loc6 = loc("inductor_cache/up/cupdbp6gfom2srxkrvcyw727hnwnekxu5yl4l6nzftr2kfu5ei6l.py":27:19)
#loc7 = loc("inductor_cache/up/cupdbp6gfom2srxkrvcyw727hnwnekxu5yl4l6nzftr2kfu5ei6l.py":36:50)
#loc8 = loc("inductor_cache/up/cupdbp6gfom2srxkrvcyw727hnwnekxu5yl4l6nzftr2kfu5ei6l.py":36:43)
#loc9 = loc("inductor_cache/up/cupdbp6gfom2srxkrvcyw727hnwnekxu5yl4l6nzftr2kfu5ei6l.py":36:38)
#loc10 = loc("inductor_cache/up/cupdbp6gfom2srxkrvcyw727hnwnekxu5yl4l6nzftr2kfu5ei6l.py":36:55)
#loc11 = loc("inductor_cache/up/cupdbp6gfom2srxkrvcyw727hnwnekxu5yl4l6nzftr2kfu5ei6l.py":37:42)
#loc12 = loc("inductor_cache/up/cupdbp6gfom2srxkrvcyw727hnwnekxu5yl4l6nzftr2kfu5ei6l.py":37:39)
#loc13 = loc("inductor_cache/up/cupdbp6gfom2srxkrvcyw727hnwnekxu5yl4l6nzftr2kfu5ei6l.py":37:34)
#loc14 = loc("inductor_cache/up/cupdbp6gfom2srxkrvcyw727hnwnekxu5yl4l6nzftr2kfu5ei6l.py":31:36)
#loc15 = loc("inductor_cache/up/cupdbp6gfom2srxkrvcyw727hnwnekxu5yl4l6nzftr2kfu5ei6l.py":32:27)
#loc16 = loc("inductor_cache/up/cupdbp6gfom2srxkrvcyw727hnwnekxu5yl4l6nzftr2kfu5ei6l.py":35:23)
#loc17 = loc("inductor_cache/up/cupdbp6gfom2srxkrvcyw727hnwnekxu5yl4l6nzftr2kfu5ei6l.py":37:47)
#loc18 = loc("inductor_cache/up/cupdbp6gfom2srxkrvcyw727hnwnekxu5yl4l6nzftr2kfu5ei6l.py":38:22)
#loc19 = loc("inductor_cache/up/cupdbp6gfom2srxkrvcyw727hnwnekxu5yl4l6nzftr2kfu5ei6l.py":41:62)
#loc20 = loc("/home/sahanp/.conda/envs/parity-bench/lib/python3.12/site-packages/torch/_inductor/runtime/triton_helpers.py":178:7)
#loc21 = loc("inductor_cache/up/cupdbp6gfom2srxkrvcyw727hnwnekxu5yl4l6nzftr2kfu5ei6l.py":41:51)
#loc22 = loc("/home/sahanp/.conda/envs/parity-bench/lib/python3.12/site-packages/torch/_inductor/runtime/triton_helpers.py":181:31)
#loc23 = loc("/home/sahanp/.conda/envs/parity-bench/lib/python3.12/site-packages/torch/_inductor/runtime/triton_helpers.py":183:24)
#loc24 = loc("/home/sahanp/.conda/envs/parity-bench/lib/python3.12/site-packages/torch/_inductor/runtime/triton_helpers.py":184:30)
#loc25 = loc("/home/sahanp/.conda/envs/parity-bench/lib/python3.12/site-packages/torch/_inductor/runtime/triton_helpers.py":185:34)
#loc26 = loc("/home/sahanp/.conda/envs/parity-bench/lib/python3.12/site-packages/torch/_inductor/runtime/triton_helpers.py":185:26)
#loc27 = loc("/home/sahanp/.conda/envs/parity-bench/lib/python3.12/site-packages/torch/_inductor/runtime/triton_helpers.py":186:39)
#loc28 = loc("/home/sahanp/.conda/envs/parity-bench/lib/python3.12/site-packages/torch/_inductor/runtime/triton_helpers.py":186:31)
#loc29 = loc("/home/sahanp/.conda/envs/parity-bench/lib/python3.12/site-packages/torch/_inductor/runtime/triton_helpers.py":186:22)
#loc30 = loc("inductor_cache/up/cupdbp6gfom2srxkrvcyw727hnwnekxu5yl4l6nzftr2kfu5ei6l.py":43:52)
#loc31 = loc("inductor_cache/up/cupdbp6gfom2srxkrvcyw727hnwnekxu5yl4l6nzftr2kfu5ei6l.py":44:48)
#loc32 = loc("inductor_cache/up/cupdbp6gfom2srxkrvcyw727hnwnekxu5yl4l6nzftr2kfu5ei6l.py":45:56)
#loc33 = loc("inductor_cache/up/cupdbp6gfom2srxkrvcyw727hnwnekxu5yl4l6nzftr2kfu5ei6l.py":46:55)
#loc34 = loc("inductor_cache/up/cupdbp6gfom2srxkrvcyw727hnwnekxu5yl4l6nzftr2kfu5ei6l.py":46:8)
#loc35 = loc("/home/sahanp/.conda/envs/parity-bench/lib/python3.12/site-packages/torch/_inductor/runtime/triton_helpers.py":204:46)
#loc37 = loc("/home/sahanp/.conda/envs/parity-bench/lib/python3.12/site-packages/torch/_inductor/runtime/triton_helpers.py":192:21)
#loc38 = loc("/home/sahanp/.conda/envs/parity-bench/lib/python3.12/site-packages/torch/_inductor/runtime/triton_helpers.py":193:28)
#loc39 = loc("/home/sahanp/.conda/envs/parity-bench/lib/python3.12/site-packages/torch/_inductor/runtime/triton_helpers.py":194:39)
#loc40 = loc("/home/sahanp/.conda/envs/parity-bench/lib/python3.12/site-packages/torch/_inductor/runtime/triton_helpers.py":194:60)
#loc41 = loc("/home/sahanp/.conda/envs/parity-bench/lib/python3.12/site-packages/torch/_inductor/runtime/triton_helpers.py":194:49)
#loc42 = loc("/home/sahanp/.conda/envs/parity-bench/lib/python3.12/site-packages/torch/_inductor/runtime/triton_helpers.py":196:25)
#loc43 = loc("/home/sahanp/.conda/envs/parity-bench/lib/python3.12/site-packages/torch/_inductor/runtime/triton_helpers.py":196:17)
#loc44 = loc("/home/sahanp/.conda/envs/parity-bench/lib/python3.12/site-packages/torch/_inductor/runtime/triton_helpers.py":197:15)
#loc45 = loc("/home/sahanp/.conda/envs/parity-bench/lib/python3.12/site-packages/torch/_inductor/runtime/triton_helpers.py":197:30)
#loc46 = loc("/home/sahanp/.conda/envs/parity-bench/lib/python3.12/site-packages/torch/_inductor/runtime/triton_helpers.py":197:38)
#loc47 = loc("/home/sahanp/.conda/envs/parity-bench/lib/python3.12/site-packages/torch/_inductor/runtime/triton_helpers.py":197:49)
#loc48 = loc("/home/sahanp/.conda/envs/parity-bench/lib/python3.12/site-packages/torch/_inductor/runtime/triton_helpers.py":197:22)
#loc49 = loc("inductor_cache/up/cupdbp6gfom2srxkrvcyw727hnwnekxu5yl4l6nzftr2kfu5ei6l.py":50:20)
#loc50 = loc("inductor_cache/up/cupdbp6gfom2srxkrvcyw727hnwnekxu5yl4l6nzftr2kfu5ei6l.py":51:20)
#loc51 = loc("inductor_cache/up/cupdbp6gfom2srxkrvcyw727hnwnekxu5yl4l6nzftr2kfu5ei6l.py":53:25)
#loc52 = loc("inductor_cache/up/cupdbp6gfom2srxkrvcyw727hnwnekxu5yl4l6nzftr2kfu5ei6l.py":53:36)
#loc53 = loc("inductor_cache/up/cupdbp6gfom2srxkrvcyw727hnwnekxu5yl4l6nzftr2kfu5ei6l.py":55:18)
#loc54 = loc("inductor_cache/up/cupdbp6gfom2srxkrvcyw727hnwnekxu5yl4l6nzftr2kfu5ei6l.py":57:19)
#loc55 = loc("inductor_cache/up/cupdbp6gfom2srxkrvcyw727hnwnekxu5yl4l6nzftr2kfu5ei6l.py":58:28)
#loc56 = loc("inductor_cache/up/cupdbp6gfom2srxkrvcyw727hnwnekxu5yl4l6nzftr2kfu5ei6l.py":59:4)
#loc57 = loc("inductor_cache/up/cupdbp6gfom2srxkrvcyw727hnwnekxu5yl4l6nzftr2kfu5ei6l.py":60:28)
#loc58 = loc("inductor_cache/up/cupdbp6gfom2srxkrvcyw727hnwnekxu5yl4l6nzftr2kfu5ei6l.py":60:40)
#loc59 = loc("inductor_cache/up/cupdbp6gfom2srxkrvcyw727hnwnekxu5yl4l6nzftr2kfu5ei6l.py":60:4)
#loc60 = loc(callsite(#loc20 at #loc21))
#loc61 = loc(callsite(#loc22 at #loc21))
#loc62 = loc(callsite(#loc23 at #loc21))
#loc63 = loc(callsite(#loc24 at #loc21))
#loc64 = loc(callsite(#loc25 at #loc21))
#loc65 = loc(callsite(#loc26 at #loc21))
#loc66 = loc(callsite(#loc27 at #loc21))
#loc67 = loc(callsite(#loc28 at #loc21))
#loc68 = loc(callsite(#loc29 at #loc21))
#loc69 = loc(callsite(#loc35 at #loc36))
#loc71 = loc(callsite(#loc37 at #loc35))
#loc72 = loc(callsite(#loc38 at #loc35))
#loc73 = loc(callsite(#loc39 at #loc35))
#loc74 = loc(callsite(#loc40 at #loc35))
#loc75 = loc(callsite(#loc41 at #loc35))
#loc76 = loc(callsite(#loc42 at #loc35))
#loc77 = loc(callsite(#loc43 at #loc35))
#loc78 = loc(callsite(#loc44 at #loc35))
#loc79 = loc(callsite(#loc45 at #loc35))
#loc80 = loc(callsite(#loc46 at #loc35))
#loc81 = loc(callsite(#loc47 at #loc35))
#loc82 = loc(callsite(#loc48 at #loc35))
#loc83 = loc(callsite(#loc71 at #loc36))
#loc84 = loc(callsite(#loc72 at #loc36))
#loc85 = loc(callsite(#loc73 at #loc36))
#loc86 = loc(callsite(#loc74 at #loc36))
#loc87 = loc(callsite(#loc75 at #loc36))
#loc88 = loc(callsite(#loc76 at #loc36))
#loc89 = loc(callsite(#loc77 at #loc36))
#loc90 = loc(callsite(#loc78 at #loc36))
#loc91 = loc(callsite(#loc79 at #loc36))
#loc92 = loc(callsite(#loc80 at #loc36))
#loc93 = loc(callsite(#loc81 at #loc36))
#loc94 = loc(callsite(#loc82 at #loc36))
