#loc = loc("inductor_cache/wa/cwa3ooxsztcx2eqfhh3hfbcyvxb4lfuec742ufrtsdc4dd2dwcv6.py":19:0)
module {
  tt.func public @triton_poi_fused__native_batch_norm_legit_no_training__prelu_kernel_convolution_29(%arg0: !tt.ptr<f32> {tt.divisibility = 16 : i32} loc("inductor_cache/wa/cwa3ooxsztcx2eqfhh3hfbcyvxb4lfuec742ufrtsdc4dd2dwcv6.py":19:0), %arg1: !tt.ptr<f32> {tt.divisibility = 16 : i32} loc("inductor_cache/wa/cwa3ooxsztcx2eqfhh3hfbcyvxb4lfuec742ufrtsdc4dd2dwcv6.py":19:0), %arg2: !tt.ptr<f32> {tt.divisibility = 16 : i32} loc("inductor_cache/wa/cwa3ooxsztcx2eqfhh3hfbcyvxb4lfuec742ufrtsdc4dd2dwcv6.py":19:0), %arg3: !tt.ptr<f32> {tt.divisibility = 16 : i32} loc("inductor_cache/wa/cwa3ooxsztcx2eqfhh3hfbcyvxb4lfuec742ufrtsdc4dd2dwcv6.py":19:0), %arg4: !tt.ptr<f32> {tt.divisibility = 16 : i32} loc("inductor_cache/wa/cwa3ooxsztcx2eqfhh3hfbcyvxb4lfuec742ufrtsdc4dd2dwcv6.py":19:0), %arg5: !tt.ptr<f32> {tt.divisibility = 16 : i32} loc("inductor_cache/wa/cwa3ooxsztcx2eqfhh3hfbcyvxb4lfuec742ufrtsdc4dd2dwcv6.py":19:0), %arg6: !tt.ptr<f32> {tt.divisibility = 16 : i32} loc("inductor_cache/wa/cwa3ooxsztcx2eqfhh3hfbcyvxb4lfuec742ufrtsdc4dd2dwcv6.py":19:0), %arg7: !tt.ptr<f32> {tt.divisibility = 16 : i32} loc("inductor_cache/wa/cwa3ooxsztcx2eqfhh3hfbcyvxb4lfuec742ufrtsdc4dd2dwcv6.py":19:0), %arg8: i32 {tt.divisibility = 16 : i32} loc("inductor_cache/wa/cwa3ooxsztcx2eqfhh3hfbcyvxb4lfuec742ufrtsdc4dd2dwcv6.py":19:0)) attributes {noinline = false} {
    %cst = arith.constant dense<1.000000e+00> : tensor<512xf32> loc(#loc1)
    %cst_0 = arith.constant dense<0.000000e+00> : tensor<512xf32> loc(#loc1)
    %cst_1 = arith.constant dense<9.99999974E-6> : tensor<512xf32> loc(#loc1)
    %c0_i32 = arith.constant 0 : i32 loc(#loc1)
    %cst_2 = arith.constant dense<16> : tensor<512xi32> loc(#loc1)
    %c512_i32 = arith.constant 512 : i32 loc(#loc1)
    %0 = tt.get_program_id x : i32 loc(#loc2)
    %1 = arith.muli %0, %c512_i32 : i32 loc(#loc3)
    %2 = tt.make_range {end = 512 : i32, start = 0 : i32} : tensor<512xi32> loc(#loc4)
    %3 = tt.splat %1 : i32 -> tensor<512xi32> loc(#loc5)
    %4 = arith.addi %3, %2 : tensor<512xi32> loc(#loc5)
    %5 = arith.remsi %4, %cst_2 : tensor<512xi32> loc(#loc6)
    %6 = tt.splat %arg0 : !tt.ptr<f32> -> tensor<512x!tt.ptr<f32>> loc(#loc7)
    %7 = tt.addptr %6, %4 : tensor<512x!tt.ptr<f32>>, tensor<512xi32> loc(#loc7)
    %8 = tt.load %7 : tensor<512x!tt.ptr<f32>> loc(#loc8)
    %9 = tt.splat %arg2 : !tt.ptr<f32> -> tensor<512x!tt.ptr<f32>> loc(#loc9)
    %10 = tt.addptr %9, %5 : tensor<512x!tt.ptr<f32>>, tensor<512xi32> loc(#loc9)
    %11 = tt.load %10 evictionPolicy = evict_last : tensor<512x!tt.ptr<f32>> loc(#loc10)
    %12 = tt.splat %arg3 : !tt.ptr<f32> -> tensor<512x!tt.ptr<f32>> loc(#loc11)
    %13 = tt.addptr %12, %5 : tensor<512x!tt.ptr<f32>>, tensor<512xi32> loc(#loc11)
    %14 = tt.load %13 evictionPolicy = evict_last : tensor<512x!tt.ptr<f32>> loc(#loc12)
    %15 = tt.splat %arg4 : !tt.ptr<f32> -> tensor<512x!tt.ptr<f32>> loc(#loc13)
    %16 = tt.addptr %15, %5 : tensor<512x!tt.ptr<f32>>, tensor<512xi32> loc(#loc13)
    %17 = tt.load %16 evictionPolicy = evict_last : tensor<512x!tt.ptr<f32>> loc(#loc14)
    %18 = tt.splat %arg5 : !tt.ptr<f32> -> tensor<512x!tt.ptr<f32>> loc(#loc15)
    %19 = tt.addptr %18, %5 : tensor<512x!tt.ptr<f32>>, tensor<512xi32> loc(#loc15)
    %20 = tt.load %19 evictionPolicy = evict_last : tensor<512x!tt.ptr<f32>> loc(#loc16)
    %21 = tt.splat %arg6 : !tt.ptr<f32> -> tensor<512x!tt.ptr<f32>> loc(#loc17)
    %22 = tt.addptr %21, %5 : tensor<512x!tt.ptr<f32>>, tensor<512xi32> loc(#loc17)
    %23 = tt.load %22 evictionPolicy = evict_last : tensor<512x!tt.ptr<f32>> loc(#loc18)
    %24 = tt.addptr %arg7, %c0_i32 : !tt.ptr<f32>, i32 loc(#loc19)
    %25 = tt.load %24 : !tt.ptr<f32> loc(#loc20)
    %26 = tt.splat %25 : f32 -> tensor<512xf32> loc(#loc21)
    %27 = arith.addf %8, %11 : tensor<512xf32> loc(#loc22)
    %28 = arith.subf %27, %14 : tensor<512xf32> loc(#loc23)
    %29 = arith.addf %17, %cst_1 : tensor<512xf32> loc(#loc24)
    %30 = tt.extern_elementwise %29 {libname = "", libpath = "", pure = true, symbol = "__nv_sqrtf"} : (tensor<512xf32>) -> tensor<512xf32> loc(#loc25)
    %31 = arith.divf %cst, %30 : tensor<512xf32> loc(#loc26)
    %32 = arith.mulf %28, %31 : tensor<512xf32> loc(#loc27)
    %33 = arith.mulf %32, %20 : tensor<512xf32> loc(#loc28)
    %34 = arith.addf %33, %23 : tensor<512xf32> loc(#loc29)
    %35 = arith.cmpf ogt, %34, %cst_0 : tensor<512xf32> loc(#loc30)
    %36 = arith.mulf %26, %34 : tensor<512xf32> loc(#loc31)
    %37 = arith.select %35, %34, %36 : tensor<512xi1>, tensor<512xf32> loc(#loc32)
    tt.store %7, %27 : tensor<512x!tt.ptr<f32>> loc(#loc33)
    %38 = tt.splat %arg1 : !tt.ptr<f32> -> tensor<512x!tt.ptr<f32>> loc(#loc34)
    %39 = tt.addptr %38, %4 : tensor<512x!tt.ptr<f32>>, tensor<512xi32> loc(#loc34)
    tt.store %39, %37 : tensor<512x!tt.ptr<f32>> loc(#loc35)
    tt.return loc(#loc36)
  } loc(#loc)
} loc(#loc)
#loc1 = loc(unknown)
#loc2 = loc("inductor_cache/wa/cwa3ooxsztcx2eqfhh3hfbcyvxb4lfuec742ufrtsdc4dd2dwcv6.py":21:28)
#loc3 = loc("inductor_cache/wa/cwa3ooxsztcx2eqfhh3hfbcyvxb4lfuec742ufrtsdc4dd2dwcv6.py":21:33)
#loc4 = loc("inductor_cache/wa/cwa3ooxsztcx2eqfhh3hfbcyvxb4lfuec742ufrtsdc4dd2dwcv6.py":22:36)
#loc5 = loc("inductor_cache/wa/cwa3ooxsztcx2eqfhh3hfbcyvxb4lfuec742ufrtsdc4dd2dwcv6.py":22:23)
#loc6 = loc("inductor_cache/wa/cwa3ooxsztcx2eqfhh3hfbcyvxb4lfuec742ufrtsdc4dd2dwcv6.py":25:19)
#loc7 = loc("inductor_cache/wa/cwa3ooxsztcx2eqfhh3hfbcyvxb4lfuec742ufrtsdc4dd2dwcv6.py":26:34)
#loc8 = loc("inductor_cache/wa/cwa3ooxsztcx2eqfhh3hfbcyvxb4lfuec742ufrtsdc4dd2dwcv6.py":26:39)
#loc9 = loc("inductor_cache/wa/cwa3ooxsztcx2eqfhh3hfbcyvxb4lfuec742ufrtsdc4dd2dwcv6.py":27:30)
#loc10 = loc("inductor_cache/wa/cwa3ooxsztcx2eqfhh3hfbcyvxb4lfuec742ufrtsdc4dd2dwcv6.py":27:35)
#loc11 = loc("inductor_cache/wa/cwa3ooxsztcx2eqfhh3hfbcyvxb4lfuec742ufrtsdc4dd2dwcv6.py":28:30)
#loc12 = loc("inductor_cache/wa/cwa3ooxsztcx2eqfhh3hfbcyvxb4lfuec742ufrtsdc4dd2dwcv6.py":28:35)
#loc13 = loc("inductor_cache/wa/cwa3ooxsztcx2eqfhh3hfbcyvxb4lfuec742ufrtsdc4dd2dwcv6.py":29:30)
#loc14 = loc("inductor_cache/wa/cwa3ooxsztcx2eqfhh3hfbcyvxb4lfuec742ufrtsdc4dd2dwcv6.py":29:35)
#loc15 = loc("inductor_cache/wa/cwa3ooxsztcx2eqfhh3hfbcyvxb4lfuec742ufrtsdc4dd2dwcv6.py":30:31)
#loc16 = loc("inductor_cache/wa/cwa3ooxsztcx2eqfhh3hfbcyvxb4lfuec742ufrtsdc4dd2dwcv6.py":30:36)
#loc17 = loc("inductor_cache/wa/cwa3ooxsztcx2eqfhh3hfbcyvxb4lfuec742ufrtsdc4dd2dwcv6.py":31:31)
#loc18 = loc("inductor_cache/wa/cwa3ooxsztcx2eqfhh3hfbcyvxb4lfuec742ufrtsdc4dd2dwcv6.py":31:36)
#loc19 = loc("inductor_cache/wa/cwa3ooxsztcx2eqfhh3hfbcyvxb4lfuec742ufrtsdc4dd2dwcv6.py":32:31)
#loc20 = loc("inductor_cache/wa/cwa3ooxsztcx2eqfhh3hfbcyvxb4lfuec742ufrtsdc4dd2dwcv6.py":32:20)
#loc21 = loc("inductor_cache/wa/cwa3ooxsztcx2eqfhh3hfbcyvxb4lfuec742ufrtsdc4dd2dwcv6.py":33:35)
#loc22 = loc("inductor_cache/wa/cwa3ooxsztcx2eqfhh3hfbcyvxb4lfuec742ufrtsdc4dd2dwcv6.py":34:18)
#loc23 = loc("inductor_cache/wa/cwa3ooxsztcx2eqfhh3hfbcyvxb4lfuec742ufrtsdc4dd2dwcv6.py":35:18)
#loc24 = loc("inductor_cache/wa/cwa3ooxsztcx2eqfhh3hfbcyvxb4lfuec742ufrtsdc4dd2dwcv6.py":37:18)
#loc25 = loc("inductor_cache/wa/cwa3ooxsztcx2eqfhh3hfbcyvxb4lfuec742ufrtsdc4dd2dwcv6.py":38:26)
#loc26 = loc("inductor_cache/wa/cwa3ooxsztcx2eqfhh3hfbcyvxb4lfuec742ufrtsdc4dd2dwcv6.py":40:19)
#loc27 = loc("inductor_cache/wa/cwa3ooxsztcx2eqfhh3hfbcyvxb4lfuec742ufrtsdc4dd2dwcv6.py":43:19)
#loc28 = loc("inductor_cache/wa/cwa3ooxsztcx2eqfhh3hfbcyvxb4lfuec742ufrtsdc4dd2dwcv6.py":44:20)
#loc29 = loc("inductor_cache/wa/cwa3ooxsztcx2eqfhh3hfbcyvxb4lfuec742ufrtsdc4dd2dwcv6.py":45:20)
#loc30 = loc("inductor_cache/wa/cwa3ooxsztcx2eqfhh3hfbcyvxb4lfuec742ufrtsdc4dd2dwcv6.py":47:20)
#loc31 = loc("inductor_cache/wa/cwa3ooxsztcx2eqfhh3hfbcyvxb4lfuec742ufrtsdc4dd2dwcv6.py":48:20)
#loc32 = loc("inductor_cache/wa/cwa3ooxsztcx2eqfhh3hfbcyvxb4lfuec742ufrtsdc4dd2dwcv6.py":49:35)
#loc33 = loc("inductor_cache/wa/cwa3ooxsztcx2eqfhh3hfbcyvxb4lfuec742ufrtsdc4dd2dwcv6.py":50:39)
#loc34 = loc("inductor_cache/wa/cwa3ooxsztcx2eqfhh3hfbcyvxb4lfuec742ufrtsdc4dd2dwcv6.py":51:28)
#loc35 = loc("inductor_cache/wa/cwa3ooxsztcx2eqfhh3hfbcyvxb4lfuec742ufrtsdc4dd2dwcv6.py":51:40)
#loc36 = loc("inductor_cache/wa/cwa3ooxsztcx2eqfhh3hfbcyvxb4lfuec742ufrtsdc4dd2dwcv6.py":51:4)
