#loc = loc("inductor_cache/sp/cspe5dwcog2wmb2t5entffpdf2nbobrxkaldgwacxvopi22alzyn.py":19:0)
module {
  tt.func public @triton_poi_fused__prelu_kernel_convolution_0(%arg0: !tt.ptr<f32> {tt.divisibility = 16 : i32} loc("inductor_cache/sp/cspe5dwcog2wmb2t5entffpdf2nbobrxkaldgwacxvopi22alzyn.py":19:0), %arg1: !tt.ptr<f32> {tt.divisibility = 16 : i32} loc("inductor_cache/sp/cspe5dwcog2wmb2t5entffpdf2nbobrxkaldgwacxvopi22alzyn.py":19:0), %arg2: !tt.ptr<f32> {tt.divisibility = 16 : i32} loc("inductor_cache/sp/cspe5dwcog2wmb2t5entffpdf2nbobrxkaldgwacxvopi22alzyn.py":19:0), %arg3: !tt.ptr<f32> {tt.divisibility = 16 : i32} loc("inductor_cache/sp/cspe5dwcog2wmb2t5entffpdf2nbobrxkaldgwacxvopi22alzyn.py":19:0), %arg4: i32 {tt.divisibility = 16 : i32} loc("inductor_cache/sp/cspe5dwcog2wmb2t5entffpdf2nbobrxkaldgwacxvopi22alzyn.py":19:0)) attributes {noinline = false} {
    %cst = arith.constant dense<0.000000e+00> : tensor<512xf32> loc(#loc1)
    %cst_0 = arith.constant dense<64> : tensor<512xi32> loc(#loc1)
    %cst_1 = arith.constant dense<4096> : tensor<512xi32> loc(#loc1)
    %c512_i32 = arith.constant 512 : i32 loc(#loc1)
    %0 = tt.get_program_id x : i32 loc(#loc2)
    %1 = arith.muli %0, %c512_i32 : i32 loc(#loc3)
    %2 = tt.make_range {end = 512 : i32, start = 0 : i32} : tensor<512xi32> loc(#loc4)
    %3 = tt.splat %1 : i32 -> tensor<512xi32> loc(#loc5)
    %4 = arith.addi %3, %2 : tensor<512xi32> loc(#loc5)
    %5 = arith.divsi %4, %cst_1 : tensor<512xi32> loc(#loc6)
    %6 = arith.remsi %5, %cst_0 : tensor<512xi32> loc(#loc7)
    %7 = tt.splat %arg0 : !tt.ptr<f32> -> tensor<512x!tt.ptr<f32>> loc(#loc8)
    %8 = tt.addptr %7, %4 : tensor<512x!tt.ptr<f32>>, tensor<512xi32> loc(#loc8)
    %9 = tt.load %8 : tensor<512x!tt.ptr<f32>> loc(#loc9)
    %10 = tt.splat %arg1 : !tt.ptr<f32> -> tensor<512x!tt.ptr<f32>> loc(#loc10)
    %11 = tt.addptr %10, %6 : tensor<512x!tt.ptr<f32>>, tensor<512xi32> loc(#loc10)
    %12 = tt.load %11 evictionPolicy = evict_last : tensor<512x!tt.ptr<f32>> loc(#loc11)
    %13 = tt.splat %arg2 : !tt.ptr<f32> -> tensor<512x!tt.ptr<f32>> loc(#loc12)
    %14 = tt.addptr %13, %6 : tensor<512x!tt.ptr<f32>>, tensor<512xi32> loc(#loc12)
    %15 = tt.load %14 evictionPolicy = evict_last : tensor<512x!tt.ptr<f32>> loc(#loc13)
    %16 = arith.addf %9, %12 : tensor<512xf32> loc(#loc14)
    %17 = arith.cmpf ogt, %16, %cst : tensor<512xf32> loc(#loc15)
    %18 = arith.mulf %15, %16 : tensor<512xf32> loc(#loc16)
    %19 = arith.select %17, %16, %18 : tensor<512xi1>, tensor<512xf32> loc(#loc17)
    tt.store %8, %16 : tensor<512x!tt.ptr<f32>> loc(#loc18)
    %20 = tt.splat %arg3 : !tt.ptr<f32> -> tensor<512x!tt.ptr<f32>> loc(#loc19)
    %21 = tt.addptr %20, %4 : tensor<512x!tt.ptr<f32>>, tensor<512xi32> loc(#loc19)
    tt.store %21, %19 : tensor<512x!tt.ptr<f32>> loc(#loc20)
    tt.return loc(#loc21)
  } loc(#loc)
} loc(#loc)
#loc1 = loc(unknown)
#loc2 = loc("inductor_cache/sp/cspe5dwcog2wmb2t5entffpdf2nbobrxkaldgwacxvopi22alzyn.py":21:28)
#loc3 = loc("inductor_cache/sp/cspe5dwcog2wmb2t5entffpdf2nbobrxkaldgwacxvopi22alzyn.py":21:33)
#loc4 = loc("inductor_cache/sp/cspe5dwcog2wmb2t5entffpdf2nbobrxkaldgwacxvopi22alzyn.py":22:36)
#loc5 = loc("inductor_cache/sp/cspe5dwcog2wmb2t5entffpdf2nbobrxkaldgwacxvopi22alzyn.py":22:23)
#loc6 = loc("inductor_cache/sp/cspe5dwcog2wmb2t5entffpdf2nbobrxkaldgwacxvopi22alzyn.py":25:21)
#loc7 = loc("inductor_cache/sp/cspe5dwcog2wmb2t5entffpdf2nbobrxkaldgwacxvopi22alzyn.py":25:29)
#loc8 = loc("inductor_cache/sp/cspe5dwcog2wmb2t5entffpdf2nbobrxkaldgwacxvopi22alzyn.py":26:34)
#loc9 = loc("inductor_cache/sp/cspe5dwcog2wmb2t5entffpdf2nbobrxkaldgwacxvopi22alzyn.py":26:39)
#loc10 = loc("inductor_cache/sp/cspe5dwcog2wmb2t5entffpdf2nbobrxkaldgwacxvopi22alzyn.py":27:30)
#loc11 = loc("inductor_cache/sp/cspe5dwcog2wmb2t5entffpdf2nbobrxkaldgwacxvopi22alzyn.py":27:35)
#loc12 = loc("inductor_cache/sp/cspe5dwcog2wmb2t5entffpdf2nbobrxkaldgwacxvopi22alzyn.py":28:30)
#loc13 = loc("inductor_cache/sp/cspe5dwcog2wmb2t5entffpdf2nbobrxkaldgwacxvopi22alzyn.py":28:35)
#loc14 = loc("inductor_cache/sp/cspe5dwcog2wmb2t5entffpdf2nbobrxkaldgwacxvopi22alzyn.py":29:18)
#loc15 = loc("inductor_cache/sp/cspe5dwcog2wmb2t5entffpdf2nbobrxkaldgwacxvopi22alzyn.py":31:18)
#loc16 = loc("inductor_cache/sp/cspe5dwcog2wmb2t5entffpdf2nbobrxkaldgwacxvopi22alzyn.py":32:18)
#loc17 = loc("inductor_cache/sp/cspe5dwcog2wmb2t5entffpdf2nbobrxkaldgwacxvopi22alzyn.py":33:32)
#loc18 = loc("inductor_cache/sp/cspe5dwcog2wmb2t5entffpdf2nbobrxkaldgwacxvopi22alzyn.py":34:39)
#loc19 = loc("inductor_cache/sp/cspe5dwcog2wmb2t5entffpdf2nbobrxkaldgwacxvopi22alzyn.py":35:25)
#loc20 = loc("inductor_cache/sp/cspe5dwcog2wmb2t5entffpdf2nbobrxkaldgwacxvopi22alzyn.py":35:36)
#loc21 = loc("inductor_cache/sp/cspe5dwcog2wmb2t5entffpdf2nbobrxkaldgwacxvopi22alzyn.py":35:4)
