#loc = loc("inductor_cache/mc/cmcmxgr6pkddftznpq46jby7jkgin3dfyo34k4cmjda5qcldpdhi.py":19:0)
module {
  tt.func public @triton_poi_fused_add_convolution_relu_sub_threshold_backward_16(%arg0: !tt.ptr<f32> {tt.divisibility = 16 : i32} loc("inductor_cache/mc/cmcmxgr6pkddftznpq46jby7jkgin3dfyo34k4cmjda5qcldpdhi.py":19:0), %arg1: !tt.ptr<f32> {tt.divisibility = 16 : i32} loc("inductor_cache/mc/cmcmxgr6pkddftznpq46jby7jkgin3dfyo34k4cmjda5qcldpdhi.py":19:0), %arg2: !tt.ptr<f32> {tt.divisibility = 16 : i32} loc("inductor_cache/mc/cmcmxgr6pkddftznpq46jby7jkgin3dfyo34k4cmjda5qcldpdhi.py":19:0), %arg3: !tt.ptr<f32> {tt.divisibility = 16 : i32} loc("inductor_cache/mc/cmcmxgr6pkddftznpq46jby7jkgin3dfyo34k4cmjda5qcldpdhi.py":19:0), %arg4: !tt.ptr<i1> {tt.divisibility = 16 : i32} loc("inductor_cache/mc/cmcmxgr6pkddftznpq46jby7jkgin3dfyo34k4cmjda5qcldpdhi.py":19:0), %arg5: i32 {tt.divisibility = 16 : i32} loc("inductor_cache/mc/cmcmxgr6pkddftznpq46jby7jkgin3dfyo34k4cmjda5qcldpdhi.py":19:0)) attributes {noinline = false} {
    %cst = arith.constant dense<0.000000e+00> : tensor<128xf32> loc(#loc1)
    %c0_i32 = arith.constant 0 : i32 loc(#loc1)
    %cst_0 = arith.constant dense<128> : tensor<128xi32> loc(#loc1)
    %c128_i32 = arith.constant 128 : i32 loc(#loc1)
    %0 = tt.get_program_id x : i32 loc(#loc2)
    %1 = arith.muli %0, %c128_i32 : i32 loc(#loc3)
    %2 = tt.make_range {end = 128 : i32, start = 0 : i32} : tensor<128xi32> loc(#loc4)
    %3 = tt.splat %1 : i32 -> tensor<128xi32> loc(#loc5)
    %4 = arith.addi %3, %2 : tensor<128xi32> loc(#loc5)
    %5 = arith.remsi %4, %cst_0 : tensor<128xi32> loc(#loc6)
    %6 = tt.splat %arg0 : !tt.ptr<f32> -> tensor<128x!tt.ptr<f32>> loc(#loc7)
    %7 = tt.addptr %6, %4 : tensor<128x!tt.ptr<f32>>, tensor<128xi32> loc(#loc7)
    %8 = tt.load %7 : tensor<128x!tt.ptr<f32>> loc(#loc8)
    %9 = tt.splat %arg1 : !tt.ptr<f32> -> tensor<128x!tt.ptr<f32>> loc(#loc9)
    %10 = tt.addptr %9, %5 : tensor<128x!tt.ptr<f32>>, tensor<128xi32> loc(#loc9)
    %11 = tt.load %10 evictionPolicy = evict_last : tensor<128x!tt.ptr<f32>> loc(#loc10)
    %12 = tt.addptr %arg2, %c0_i32 : !tt.ptr<f32>, i32 loc(#loc11)
    %13 = tt.load %12 : !tt.ptr<f32> loc(#loc12)
    %14 = tt.splat %13 : f32 -> tensor<128xf32> loc(#loc13)
    %15 = arith.addf %8, %11 : tensor<128xf32> loc(#loc14)
    %16 = arith.subf %15, %14 : tensor<128xf32> loc(#loc15)
    %17 = arith.cmpf ogt, %cst, %16 : tensor<128xf32> loc(#loc26)
    %18 = arith.select %17, %cst, %16 : tensor<128xi1>, tensor<128xf32> loc(#loc27)
    %19 = arith.addf %18, %14 : tensor<128xf32> loc(#loc19)
    %20 = arith.cmpf ole, %18, %cst : tensor<128xf32> loc(#loc20)
    %21 = tt.splat %arg3 : !tt.ptr<f32> -> tensor<128x!tt.ptr<f32>> loc(#loc21)
    %22 = tt.addptr %21, %4 : tensor<128x!tt.ptr<f32>>, tensor<128xi32> loc(#loc21)
    tt.store %22, %19 : tensor<128x!tt.ptr<f32>> loc(#loc22)
    %23 = tt.splat %arg4 : !tt.ptr<i1> -> tensor<128x!tt.ptr<i1>> loc(#loc23)
    %24 = tt.addptr %23, %4 : tensor<128x!tt.ptr<i1>>, tensor<128xi32> loc(#loc23)
    %25 = tt.bitcast %24 : tensor<128x!tt.ptr<i1>> -> tensor<128x!tt.ptr<i8>> loc(#loc24)
    %26 = arith.extui %20 : tensor<128xi1> to tensor<128xi8> loc(#loc24)
    tt.store %25, %26 : tensor<128x!tt.ptr<i8>> loc(#loc24)
    tt.return loc(#loc25)
  } loc(#loc)
} loc(#loc)
#loc1 = loc(unknown)
#loc2 = loc("inductor_cache/mc/cmcmxgr6pkddftznpq46jby7jkgin3dfyo34k4cmjda5qcldpdhi.py":21:28)
#loc3 = loc("inductor_cache/mc/cmcmxgr6pkddftznpq46jby7jkgin3dfyo34k4cmjda5qcldpdhi.py":21:33)
#loc4 = loc("inductor_cache/mc/cmcmxgr6pkddftznpq46jby7jkgin3dfyo34k4cmjda5qcldpdhi.py":22:36)
#loc5 = loc("inductor_cache/mc/cmcmxgr6pkddftznpq46jby7jkgin3dfyo34k4cmjda5qcldpdhi.py":22:23)
#loc6 = loc("inductor_cache/mc/cmcmxgr6pkddftznpq46jby7jkgin3dfyo34k4cmjda5qcldpdhi.py":25:19)
#loc7 = loc("inductor_cache/mc/cmcmxgr6pkddftznpq46jby7jkgin3dfyo34k4cmjda5qcldpdhi.py":26:30)
#loc8 = loc("inductor_cache/mc/cmcmxgr6pkddftznpq46jby7jkgin3dfyo34k4cmjda5qcldpdhi.py":26:35)
#loc9 = loc("inductor_cache/mc/cmcmxgr6pkddftznpq46jby7jkgin3dfyo34k4cmjda5qcldpdhi.py":27:30)
#loc10 = loc("inductor_cache/mc/cmcmxgr6pkddftznpq46jby7jkgin3dfyo34k4cmjda5qcldpdhi.py":27:35)
#loc11 = loc("inductor_cache/mc/cmcmxgr6pkddftznpq46jby7jkgin3dfyo34k4cmjda5qcldpdhi.py":28:30)
#loc12 = loc("inductor_cache/mc/cmcmxgr6pkddftznpq46jby7jkgin3dfyo34k4cmjda5qcldpdhi.py":28:19)
#loc13 = loc("inductor_cache/mc/cmcmxgr6pkddftznpq46jby7jkgin3dfyo34k4cmjda5qcldpdhi.py":29:33)
#loc14 = loc("inductor_cache/mc/cmcmxgr6pkddftznpq46jby7jkgin3dfyo34k4cmjda5qcldpdhi.py":30:18)
#loc15 = loc("inductor_cache/mc/cmcmxgr6pkddftznpq46jby7jkgin3dfyo34k4cmjda5qcldpdhi.py":31:18)
#loc16 = loc("/home/sahanp/.conda/envs/parity-bench/lib/python3.12/site-packages/torch/_inductor/runtime/triton_helpers.py":118:15)
#loc17 = loc("inductor_cache/mc/cmcmxgr6pkddftznpq46jby7jkgin3dfyo34k4cmjda5qcldpdhi.py":33:40)
#loc18 = loc("/home/sahanp/.conda/envs/parity-bench/lib/python3.12/site-packages/torch/_inductor/runtime/triton_helpers.py":121:29)
#loc19 = loc("inductor_cache/mc/cmcmxgr6pkddftznpq46jby7jkgin3dfyo34k4cmjda5qcldpdhi.py":34:18)
#loc20 = loc("inductor_cache/mc/cmcmxgr6pkddftznpq46jby7jkgin3dfyo34k4cmjda5qcldpdhi.py":36:20)
#loc21 = loc("inductor_cache/mc/cmcmxgr6pkddftznpq46jby7jkgin3dfyo34k4cmjda5qcldpdhi.py":37:25)
#loc22 = loc("inductor_cache/mc/cmcmxgr6pkddftznpq46jby7jkgin3dfyo34k4cmjda5qcldpdhi.py":37:36)
#loc23 = loc("inductor_cache/mc/cmcmxgr6pkddftznpq46jby7jkgin3dfyo34k4cmjda5qcldpdhi.py":38:25)
#loc24 = loc("inductor_cache/mc/cmcmxgr6pkddftznpq46jby7jkgin3dfyo34k4cmjda5qcldpdhi.py":38:37)
#loc25 = loc("inductor_cache/mc/cmcmxgr6pkddftznpq46jby7jkgin3dfyo34k4cmjda5qcldpdhi.py":38:4)
#loc26 = loc(callsite(#loc16 at #loc17))
#loc27 = loc(callsite(#loc18 at #loc17))
