#loc = loc("inductor_cache/ti/cti7fas4ux56g7wz2kk2nmthgctykqdtifpnqjt4drqh3puugenk.py":19:0)
#loc1 = loc(unknown)
#loc45 = loc("inductor_cache/ti/cti7fas4ux56g7wz2kk2nmthgctykqdtifpnqjt4drqh3puugenk.py":59:26)
#loc62 = loc(callsite(#loc1 at #loc45))
module {
  tt.func public @triton_per_fused__native_batch_norm_legit_no_training_add_convolution_mean_mul_1(%arg0: !tt.ptr<f32> {tt.divisibility = 16 : i32} loc("inductor_cache/ti/cti7fas4ux56g7wz2kk2nmthgctykqdtifpnqjt4drqh3puugenk.py":19:0), %arg1: !tt.ptr<f32> {tt.divisibility = 16 : i32} loc("inductor_cache/ti/cti7fas4ux56g7wz2kk2nmthgctykqdtifpnqjt4drqh3puugenk.py":19:0), %arg2: !tt.ptr<f32> {tt.divisibility = 16 : i32} loc("inductor_cache/ti/cti7fas4ux56g7wz2kk2nmthgctykqdtifpnqjt4drqh3puugenk.py":19:0), %arg3: !tt.ptr<f32> {tt.divisibility = 16 : i32} loc("inductor_cache/ti/cti7fas4ux56g7wz2kk2nmthgctykqdtifpnqjt4drqh3puugenk.py":19:0), %arg4: !tt.ptr<f32> {tt.divisibility = 16 : i32} loc("inductor_cache/ti/cti7fas4ux56g7wz2kk2nmthgctykqdtifpnqjt4drqh3puugenk.py":19:0), %arg5: !tt.ptr<f32> {tt.divisibility = 16 : i32} loc("inductor_cache/ti/cti7fas4ux56g7wz2kk2nmthgctykqdtifpnqjt4drqh3puugenk.py":19:0), %arg6: !tt.ptr<f32> {tt.divisibility = 16 : i32} loc("inductor_cache/ti/cti7fas4ux56g7wz2kk2nmthgctykqdtifpnqjt4drqh3puugenk.py":19:0), %arg7: !tt.ptr<f32> {tt.divisibility = 16 : i32} loc("inductor_cache/ti/cti7fas4ux56g7wz2kk2nmthgctykqdtifpnqjt4drqh3puugenk.py":19:0), %arg8: !tt.ptr<f32> {tt.divisibility = 16 : i32} loc("inductor_cache/ti/cti7fas4ux56g7wz2kk2nmthgctykqdtifpnqjt4drqh3puugenk.py":19:0), %arg9: !tt.ptr<f32> {tt.divisibility = 16 : i32} loc("inductor_cache/ti/cti7fas4ux56g7wz2kk2nmthgctykqdtifpnqjt4drqh3puugenk.py":19:0), %arg10: !tt.ptr<f32> {tt.divisibility = 16 : i32} loc("inductor_cache/ti/cti7fas4ux56g7wz2kk2nmthgctykqdtifpnqjt4drqh3puugenk.py":19:0), %arg11: i32 {tt.divisibility = 16 : i32} loc("inductor_cache/ti/cti7fas4ux56g7wz2kk2nmthgctykqdtifpnqjt4drqh3puugenk.py":19:0), %arg12: i32 {tt.divisibility = 16 : i32} loc("inductor_cache/ti/cti7fas4ux56g7wz2kk2nmthgctykqdtifpnqjt4drqh3puugenk.py":19:0)) attributes {noinline = false} {
    %c4_i32 = arith.constant 4 : i32 loc(#loc1)
    %c16_i32 = arith.constant 16 : i32 loc(#loc1)
    %cst = arith.constant dense<0.000000e+00> : tensor<1x1xf32> loc(#loc1)
    %cst_0 = arith.constant dense<1.000000e+00> : tensor<1x1xf32> loc(#loc1)
    %cst_1 = arith.constant dense<1.600000e+01> : tensor<1x1xf32> loc(#loc1)
    %cst_2 = arith.constant dense<9.99999974E-6> : tensor<1x1xf32> loc(#loc1)
    %cst_3 = arith.constant dense<0.000000e+00> : tensor<1x16xf32> loc(#loc1)
    %0 = tt.get_program_id x : i32 loc(#loc2)
    %1 = arith.cmpi slt, %0, %c16_i32 : i32 loc(#loc3)
    %2 = tt.splat %1 : i1 -> tensor<1x1xi1> loc(#loc3)
    %3 = tt.make_range {end = 16 : i32, start = 0 : i32} : tensor<16xi32> loc(#loc4)
    %4 = tt.expand_dims %3 {axis = 0 : i32} : tensor<16xi32> -> tensor<1x16xi32> loc(#loc5)
    %5 = arith.remsi %0, %c4_i32 : i32 loc(#loc6)
    %6 = arith.muli %0, %c16_i32 : i32 loc(#loc7)
    %7 = tt.splat %6 : i32 -> tensor<1x16xi32> loc(#loc8)
    %8 = arith.addi %4, %7 : tensor<1x16xi32> loc(#loc8)
    %9 = tt.splat %arg0 : !tt.ptr<f32> -> tensor<1x16x!tt.ptr<f32>> loc(#loc9)
    %10 = tt.addptr %9, %8 : tensor<1x16x!tt.ptr<f32>>, tensor<1x16xi32> loc(#loc9)
    %11 = tt.splat %1 : i1 -> tensor<1x16xi1> loc(#loc10)
    %12 = tt.load %10, %11, %cst_3 : tensor<1x16x!tt.ptr<f32>> loc(#loc10)
    %13 = tt.addptr %arg3, %5 : !tt.ptr<f32>, i32 loc(#loc11)
    %14 = tt.splat %13 : !tt.ptr<f32> -> tensor<1x1x!tt.ptr<f32>> loc(#loc11)
    %15 = tt.load %14, %2 evictionPolicy = evict_last : tensor<1x1x!tt.ptr<f32>> loc(#loc12)
    %16 = tt.splat %arg1 : !tt.ptr<f32> -> tensor<1x16x!tt.ptr<f32>> loc(#loc13)
    %17 = tt.addptr %16, %8 : tensor<1x16x!tt.ptr<f32>>, tensor<1x16xi32> loc(#loc13)
    %18 = tt.load %17, %11, %cst_3 : tensor<1x16x!tt.ptr<f32>> loc(#loc14)
    %19 = tt.addptr %arg4, %5 : !tt.ptr<f32>, i32 loc(#loc15)
    %20 = tt.splat %19 : !tt.ptr<f32> -> tensor<1x1x!tt.ptr<f32>> loc(#loc15)
    %21 = tt.load %20, %2 evictionPolicy = evict_last : tensor<1x1x!tt.ptr<f32>> loc(#loc16)
    %22 = tt.addptr %arg5, %5 : !tt.ptr<f32>, i32 loc(#loc17)
    %23 = tt.splat %22 : !tt.ptr<f32> -> tensor<1x1x!tt.ptr<f32>> loc(#loc17)
    %24 = tt.load %23, %2 evictionPolicy = evict_last : tensor<1x1x!tt.ptr<f32>> loc(#loc18)
    %25 = tt.addptr %arg6, %5 : !tt.ptr<f32>, i32 loc(#loc19)
    %26 = tt.splat %25 : !tt.ptr<f32> -> tensor<1x1x!tt.ptr<f32>> loc(#loc19)
    %27 = tt.load %26, %2 evictionPolicy = evict_last : tensor<1x1x!tt.ptr<f32>> loc(#loc20)
    %28 = tt.addptr %arg7, %5 : !tt.ptr<f32>, i32 loc(#loc21)
    %29 = tt.splat %28 : !tt.ptr<f32> -> tensor<1x1x!tt.ptr<f32>> loc(#loc21)
    %30 = tt.load %29, %2 evictionPolicy = evict_last : tensor<1x1x!tt.ptr<f32>> loc(#loc22)
    %31 = tt.addptr %arg8, %5 : !tt.ptr<f32>, i32 loc(#loc23)
    %32 = tt.splat %31 : !tt.ptr<f32> -> tensor<1x1x!tt.ptr<f32>> loc(#loc23)
    %33 = tt.load %32, %2 evictionPolicy = evict_last : tensor<1x1x!tt.ptr<f32>> loc(#loc24)
    %34 = tt.addptr %arg9, %0 : !tt.ptr<f32>, i32 loc(#loc25)
    %35 = tt.splat %34 : !tt.ptr<f32> -> tensor<1x1x!tt.ptr<f32>> loc(#loc25)
    %36 = tt.load %35, %2 evictionPolicy = evict_last : tensor<1x1x!tt.ptr<f32>> loc(#loc26)
    %37 = tt.broadcast %15 : tensor<1x1xf32> -> tensor<1x16xf32> loc(#loc27)
    %38 = arith.addf %12, %37 : tensor<1x16xf32> loc(#loc27)
    %39 = tt.broadcast %21 : tensor<1x1xf32> -> tensor<1x16xf32> loc(#loc28)
    %40 = arith.addf %18, %39 : tensor<1x16xf32> loc(#loc28)
    %41 = tt.broadcast %24 : tensor<1x1xf32> -> tensor<1x16xf32> loc(#loc29)
    %42 = arith.subf %40, %41 : tensor<1x16xf32> loc(#loc29)
    %43 = arith.addf %27, %cst_2 : tensor<1x1xf32> loc(#loc30)
    %44 = tt.extern_elementwise %43 {libname = "", libpath = "", pure = true, symbol = "__nv_sqrtf"} : (tensor<1x1xf32>) -> tensor<1x1xf32> loc(#loc31)
    %45 = arith.divf %cst_0, %44 : tensor<1x1xf32> loc(#loc32)
    %46 = tt.broadcast %45 : tensor<1x1xf32> -> tensor<1x16xf32> loc(#loc33)
    %47 = arith.mulf %42, %46 : tensor<1x16xf32> loc(#loc33)
    %48 = tt.broadcast %30 : tensor<1x1xf32> -> tensor<1x16xf32> loc(#loc34)
    %49 = arith.mulf %47, %48 : tensor<1x16xf32> loc(#loc34)
    %50 = tt.broadcast %33 : tensor<1x1xf32> -> tensor<1x16xf32> loc(#loc35)
    %51 = arith.addf %49, %50 : tensor<1x16xf32> loc(#loc35)
    %52 = arith.addf %38, %51 : tensor<1x16xf32> loc(#loc36)
    %53 = arith.subf %cst, %36 : tensor<1x1xf32> loc(#loc57)
    %54 = math.exp %53 : tensor<1x1xf32> loc(#loc58)
    %55 = arith.addf %54, %cst_0 : tensor<1x1xf32> loc(#loc59)
    %56 = arith.divf %cst_0, %55 : tensor<1x1xf32> loc(#loc60)
    %57 = tt.broadcast %56 : tensor<1x1xf32> -> tensor<1x16xf32> loc(#loc42)
    %58 = arith.mulf %52, %57 : tensor<1x16xf32> loc(#loc42)
    %59 = arith.select %11, %52, %cst_3 : tensor<1x16xi1>, tensor<1x16xf32> loc(#loc43)
    %60 = "tt.reduce"(%59) <{axis = 1 : i32}> ({
    ^bb0(%arg13: f32 loc(callsite(#loc1 at #loc45)), %arg14: f32 loc(callsite(#loc1 at #loc45))):
      %67 = arith.addf %arg13, %arg14 : f32 loc(#loc64)
      tt.reduce.return %67 : f32 loc(#loc61)
    }) : (tensor<1x16xf32>) -> tensor<1xf32> loc(#loc61)
    %61 = tt.expand_dims %60 {axis = 1 : i32} : tensor<1xf32> -> tensor<1x1xf32> loc(#loc47)
    %62 = arith.divf %61, %cst_1 : tensor<1x1xf32> loc(#loc48)
    tt.store %10, %38, %11 : tensor<1x16x!tt.ptr<f32>> loc(#loc49)
    tt.store %17, %40, %11 : tensor<1x16x!tt.ptr<f32>> loc(#loc50)
    %63 = tt.splat %arg10 : !tt.ptr<f32> -> tensor<1x16x!tt.ptr<f32>> loc(#loc51)
    %64 = tt.addptr %63, %8 : tensor<1x16x!tt.ptr<f32>>, tensor<1x16xi32> loc(#loc51)
    tt.store %64, %58, %11 : tensor<1x16x!tt.ptr<f32>> loc(#loc52)
    gpu.barrier loc(#loc53)
    %65 = tt.addptr %arg2, %0 : !tt.ptr<f32>, i32 loc(#loc54)
    %66 = tt.splat %65 : !tt.ptr<f32> -> tensor<1x1x!tt.ptr<f32>> loc(#loc54)
    tt.store %66, %62, %2 : tensor<1x1x!tt.ptr<f32>> loc(#loc55)
    tt.return loc(#loc56)
  } loc(#loc)
} loc(#loc)
#loc2 = loc("inductor_cache/ti/cti7fas4ux56g7wz2kk2nmthgctykqdtifpnqjt4drqh3puugenk.py":23:28)
#loc3 = loc("inductor_cache/ti/cti7fas4ux56g7wz2kk2nmthgctykqdtifpnqjt4drqh3puugenk.py":25:21)
#loc4 = loc("inductor_cache/ti/cti7fas4ux56g7wz2kk2nmthgctykqdtifpnqjt4drqh3puugenk.py":26:26)
#loc5 = loc("inductor_cache/ti/cti7fas4ux56g7wz2kk2nmthgctykqdtifpnqjt4drqh3puugenk.py":26:34)
#loc6 = loc("inductor_cache/ti/cti7fas4ux56g7wz2kk2nmthgctykqdtifpnqjt4drqh3puugenk.py":31:19)
#loc7 = loc("inductor_cache/ti/cti7fas4ux56g7wz2kk2nmthgctykqdtifpnqjt4drqh3puugenk.py":32:42)
#loc8 = loc("inductor_cache/ti/cti7fas4ux56g7wz2kk2nmthgctykqdtifpnqjt4drqh3puugenk.py":32:39)
#loc9 = loc("inductor_cache/ti/cti7fas4ux56g7wz2kk2nmthgctykqdtifpnqjt4drqh3puugenk.py":32:34)
#loc10 = loc("inductor_cache/ti/cti7fas4ux56g7wz2kk2nmthgctykqdtifpnqjt4drqh3puugenk.py":32:47)
#loc11 = loc("inductor_cache/ti/cti7fas4ux56g7wz2kk2nmthgctykqdtifpnqjt4drqh3puugenk.py":33:30)
#loc12 = loc("inductor_cache/ti/cti7fas4ux56g7wz2kk2nmthgctykqdtifpnqjt4drqh3puugenk.py":33:35)
#loc13 = loc("inductor_cache/ti/cti7fas4ux56g7wz2kk2nmthgctykqdtifpnqjt4drqh3puugenk.py":34:34)
#loc14 = loc("inductor_cache/ti/cti7fas4ux56g7wz2kk2nmthgctykqdtifpnqjt4drqh3puugenk.py":34:47)
#loc15 = loc("inductor_cache/ti/cti7fas4ux56g7wz2kk2nmthgctykqdtifpnqjt4drqh3puugenk.py":35:30)
#loc16 = loc("inductor_cache/ti/cti7fas4ux56g7wz2kk2nmthgctykqdtifpnqjt4drqh3puugenk.py":35:35)
#loc17 = loc("inductor_cache/ti/cti7fas4ux56g7wz2kk2nmthgctykqdtifpnqjt4drqh3puugenk.py":36:30)
#loc18 = loc("inductor_cache/ti/cti7fas4ux56g7wz2kk2nmthgctykqdtifpnqjt4drqh3puugenk.py":36:35)
#loc19 = loc("inductor_cache/ti/cti7fas4ux56g7wz2kk2nmthgctykqdtifpnqjt4drqh3puugenk.py":37:30)
#loc20 = loc("inductor_cache/ti/cti7fas4ux56g7wz2kk2nmthgctykqdtifpnqjt4drqh3puugenk.py":37:35)
#loc21 = loc("inductor_cache/ti/cti7fas4ux56g7wz2kk2nmthgctykqdtifpnqjt4drqh3puugenk.py":38:31)
#loc22 = loc("inductor_cache/ti/cti7fas4ux56g7wz2kk2nmthgctykqdtifpnqjt4drqh3puugenk.py":38:36)
#loc23 = loc("inductor_cache/ti/cti7fas4ux56g7wz2kk2nmthgctykqdtifpnqjt4drqh3puugenk.py":39:31)
#loc24 = loc("inductor_cache/ti/cti7fas4ux56g7wz2kk2nmthgctykqdtifpnqjt4drqh3puugenk.py":39:36)
#loc25 = loc("inductor_cache/ti/cti7fas4ux56g7wz2kk2nmthgctykqdtifpnqjt4drqh3puugenk.py":40:31)
#loc26 = loc("inductor_cache/ti/cti7fas4ux56g7wz2kk2nmthgctykqdtifpnqjt4drqh3puugenk.py":40:36)
#loc27 = loc("inductor_cache/ti/cti7fas4ux56g7wz2kk2nmthgctykqdtifpnqjt4drqh3puugenk.py":41:18)
#loc28 = loc("inductor_cache/ti/cti7fas4ux56g7wz2kk2nmthgctykqdtifpnqjt4drqh3puugenk.py":42:18)
#loc29 = loc("inductor_cache/ti/cti7fas4ux56g7wz2kk2nmthgctykqdtifpnqjt4drqh3puugenk.py":43:18)
#loc30 = loc("inductor_cache/ti/cti7fas4ux56g7wz2kk2nmthgctykqdtifpnqjt4drqh3puugenk.py":45:19)
#loc31 = loc("inductor_cache/ti/cti7fas4ux56g7wz2kk2nmthgctykqdtifpnqjt4drqh3puugenk.py":46:27)
#loc32 = loc("inductor_cache/ti/cti7fas4ux56g7wz2kk2nmthgctykqdtifpnqjt4drqh3puugenk.py":48:20)
#loc33 = loc("inductor_cache/ti/cti7fas4ux56g7wz2kk2nmthgctykqdtifpnqjt4drqh3puugenk.py":51:19)
#loc34 = loc("inductor_cache/ti/cti7fas4ux56g7wz2kk2nmthgctykqdtifpnqjt4drqh3puugenk.py":52:20)
#loc35 = loc("inductor_cache/ti/cti7fas4ux56g7wz2kk2nmthgctykqdtifpnqjt4drqh3puugenk.py":53:20)
#loc36 = loc("inductor_cache/ti/cti7fas4ux56g7wz2kk2nmthgctykqdtifpnqjt4drqh3puugenk.py":54:19)
#loc37 = loc("/home/sahanp/.conda/envs/parity-bench/lib/python3.12/site-packages/triton/language/standard.py":47:30)
#loc38 = loc("inductor_cache/ti/cti7fas4ux56g7wz2kk2nmthgctykqdtifpnqjt4drqh3puugenk.py":55:23)
#loc39 = loc("/home/sahanp/.conda/envs/parity-bench/lib/python3.12/site-packages/triton/language/standard.py":47:29)
#loc40 = loc("/home/sahanp/.conda/envs/parity-bench/lib/python3.12/site-packages/triton/language/standard.py":47:20)
#loc41 = loc("/home/sahanp/.conda/envs/parity-bench/lib/python3.12/site-packages/triton/language/standard.py":47:16)
#loc42 = loc("inductor_cache/ti/cti7fas4ux56g7wz2kk2nmthgctykqdtifpnqjt4drqh3puugenk.py":56:20)
#loc43 = loc("inductor_cache/ti/cti7fas4ux56g7wz2kk2nmthgctykqdtifpnqjt4drqh3puugenk.py":58:35)
#loc44 = loc("/home/sahanp/.conda/envs/parity-bench/lib/python3.12/site-packages/triton/language/standard.py":267:36)
#loc46 = loc("/home/sahanp/.conda/envs/parity-bench/lib/python3.12/site-packages/triton/language/standard.py":256:15)
#loc47 = loc("inductor_cache/ti/cti7fas4ux56g7wz2kk2nmthgctykqdtifpnqjt4drqh3puugenk.py":59:29)
#loc48 = loc("inductor_cache/ti/cti7fas4ux56g7wz2kk2nmthgctykqdtifpnqjt4drqh3puugenk.py":61:20)
#loc49 = loc("inductor_cache/ti/cti7fas4ux56g7wz2kk2nmthgctykqdtifpnqjt4drqh3puugenk.py":62:47)
#loc50 = loc("inductor_cache/ti/cti7fas4ux56g7wz2kk2nmthgctykqdtifpnqjt4drqh3puugenk.py":63:47)
#loc51 = loc("inductor_cache/ti/cti7fas4ux56g7wz2kk2nmthgctykqdtifpnqjt4drqh3puugenk.py":64:25)
#loc52 = loc("inductor_cache/ti/cti7fas4ux56g7wz2kk2nmthgctykqdtifpnqjt4drqh3puugenk.py":64:45)
#loc53 = loc("inductor_cache/ti/cti7fas4ux56g7wz2kk2nmthgctykqdtifpnqjt4drqh3puugenk.py":65:4)
#loc54 = loc("inductor_cache/ti/cti7fas4ux56g7wz2kk2nmthgctykqdtifpnqjt4drqh3puugenk.py":66:28)
#loc55 = loc("inductor_cache/ti/cti7fas4ux56g7wz2kk2nmthgctykqdtifpnqjt4drqh3puugenk.py":66:40)
#loc56 = loc("inductor_cache/ti/cti7fas4ux56g7wz2kk2nmthgctykqdtifpnqjt4drqh3puugenk.py":66:4)
#loc57 = loc(callsite(#loc37 at #loc38))
#loc58 = loc(callsite(#loc39 at #loc38))
#loc59 = loc(callsite(#loc40 at #loc38))
#loc60 = loc(callsite(#loc41 at #loc38))
#loc61 = loc(callsite(#loc44 at #loc45))
#loc63 = loc(callsite(#loc46 at #loc44))
#loc64 = loc(callsite(#loc63 at #loc45))
