#loc = loc("inductor_cache/pz/cpzc42dgbvoyhmofozaeyppazoqkfik23o4ncon4j2b2xwzuwis5.py":19:0)
#loc1 = loc(unknown)
#loc63 = loc("inductor_cache/pz/cpzc42dgbvoyhmofozaeyppazoqkfik23o4ncon4j2b2xwzuwis5.py":71:27)
#loc82 = loc(callsite(#loc1 at #loc63))
module {
  tt.func public @triton_red_fused_add_div_mean_mul_pow_sub_5(%arg0: !tt.ptr<f32> {tt.divisibility = 16 : i32} loc("inductor_cache/pz/cpzc42dgbvoyhmofozaeyppazoqkfik23o4ncon4j2b2xwzuwis5.py":19:0), %arg1: !tt.ptr<f32> {tt.divisibility = 16 : i32} loc("inductor_cache/pz/cpzc42dgbvoyhmofozaeyppazoqkfik23o4ncon4j2b2xwzuwis5.py":19:0), %arg2: !tt.ptr<f32> {tt.divisibility = 16 : i32} loc("inductor_cache/pz/cpzc42dgbvoyhmofozaeyppazoqkfik23o4ncon4j2b2xwzuwis5.py":19:0), %arg3: !tt.ptr<f32> {tt.divisibility = 16 : i32} loc("inductor_cache/pz/cpzc42dgbvoyhmofozaeyppazoqkfik23o4ncon4j2b2xwzuwis5.py":19:0), %arg4: i32 {tt.divisibility = 16 : i32} loc("inductor_cache/pz/cpzc42dgbvoyhmofozaeyppazoqkfik23o4ncon4j2b2xwzuwis5.py":19:0)) attributes {noinline = false} {
    %c0_i32 = arith.constant 0 : i32 loc(#loc1)
    %cst = arith.constant dense<9.99999996E-13> : tensor<1x256xf32> loc(#loc1)
    %cst_0 = arith.constant dense<2.500000e-01> : tensor<1x1xf32> loc(#loc1)
    %cst_1 = arith.constant dense<2.560000e+02> : tensor<1x1xf32> loc(#loc1)
    %cst_2 = arith.constant dense<3> : tensor<1x256xi32> loc(#loc1)
    %cst_3 = arith.constant dense<2> : tensor<1x256xi32> loc(#loc1)
    %cst_4 = arith.constant dense<1> : tensor<1x256xi32> loc(#loc1)
    %cst_5 = arith.constant dense<4> : tensor<1x256xi32> loc(#loc1)
    %cst_6 = arith.constant dense<256> : tensor<1x256xi32> loc(#loc1)
    %cst_7 = arith.constant dense<0.000000e+00> : tensor<1x256xf32> loc(#loc1)
    %0 = tt.make_range {end = 256 : i32, start = 0 : i32} : tensor<256xi32> loc(#loc2)
    %1 = tt.expand_dims %0 {axis = 0 : i32} : tensor<256xi32> -> tensor<1x256xi32> loc(#loc3)
    %2 = arith.cmpi slt, %1, %cst_6 : tensor<1x256xi32> loc(#loc4)
    %3 = arith.divsi %1, %cst_5 : tensor<1x256xi32> loc(#loc5)
    %4 = tt.splat %arg1 : !tt.ptr<f32> -> tensor<1x256x!tt.ptr<f32>> loc(#loc6)
    %5 = tt.addptr %4, %1 : tensor<1x256x!tt.ptr<f32>>, tensor<1x256xi32> loc(#loc6)
    %6 = tt.load %5, %2, %cst_7 evictionPolicy = evict_last : tensor<1x256x!tt.ptr<f32>> loc(#loc7)
    %7 = arith.muli %3, %cst_5 : tensor<1x256xi32> loc(#loc8)
    %8 = tt.addptr %4, %7 : tensor<1x256x!tt.ptr<f32>>, tensor<1x256xi32> loc(#loc9)
    %9 = tt.load %8, %2, %cst_7 evictionPolicy = evict_last : tensor<1x256x!tt.ptr<f32>> loc(#loc10)
    %10 = arith.addi %7, %cst_4 : tensor<1x256xi32> loc(#loc11)
    %11 = tt.addptr %4, %10 : tensor<1x256x!tt.ptr<f32>>, tensor<1x256xi32> loc(#loc12)
    %12 = tt.load %11, %2, %cst_7 evictionPolicy = evict_last : tensor<1x256x!tt.ptr<f32>> loc(#loc13)
    %13 = arith.addi %7, %cst_3 : tensor<1x256xi32> loc(#loc14)
    %14 = tt.addptr %4, %13 : tensor<1x256x!tt.ptr<f32>>, tensor<1x256xi32> loc(#loc15)
    %15 = tt.load %14, %2, %cst_7 evictionPolicy = evict_last : tensor<1x256x!tt.ptr<f32>> loc(#loc16)
    %16 = arith.addi %7, %cst_2 : tensor<1x256xi32> loc(#loc17)
    %17 = tt.addptr %4, %16 : tensor<1x256x!tt.ptr<f32>>, tensor<1x256xi32> loc(#loc18)
    %18 = tt.load %17, %2, %cst_7 evictionPolicy = evict_last : tensor<1x256x!tt.ptr<f32>> loc(#loc19)
    %19 = tt.splat %arg2 : !tt.ptr<f32> -> tensor<1x256x!tt.ptr<f32>> loc(#loc20)
    %20 = tt.addptr %19, %1 : tensor<1x256x!tt.ptr<f32>>, tensor<1x256xi32> loc(#loc20)
    %21 = tt.load %20, %2, %cst_7 evictionPolicy = evict_last : tensor<1x256x!tt.ptr<f32>> loc(#loc21)
    %22 = tt.addptr %19, %7 : tensor<1x256x!tt.ptr<f32>>, tensor<1x256xi32> loc(#loc22)
    %23 = tt.load %22, %2, %cst_7 evictionPolicy = evict_last : tensor<1x256x!tt.ptr<f32>> loc(#loc23)
    %24 = tt.addptr %19, %10 : tensor<1x256x!tt.ptr<f32>>, tensor<1x256xi32> loc(#loc24)
    %25 = tt.load %24, %2, %cst_7 evictionPolicy = evict_last : tensor<1x256x!tt.ptr<f32>> loc(#loc25)
    %26 = tt.addptr %19, %13 : tensor<1x256x!tt.ptr<f32>>, tensor<1x256xi32> loc(#loc26)
    %27 = tt.load %26, %2, %cst_7 evictionPolicy = evict_last : tensor<1x256x!tt.ptr<f32>> loc(#loc27)
    %28 = tt.addptr %19, %16 : tensor<1x256x!tt.ptr<f32>>, tensor<1x256xi32> loc(#loc28)
    %29 = tt.load %28, %2, %cst_7 evictionPolicy = evict_last : tensor<1x256x!tt.ptr<f32>> loc(#loc29)
    %30 = arith.mulf %9, %9 : tensor<1x256xf32> loc(#loc30)
    %31 = arith.mulf %12, %12 : tensor<1x256xf32> loc(#loc31)
    %32 = arith.addf %30, %31 : tensor<1x256xf32> loc(#loc32)
    %33 = arith.mulf %15, %15 : tensor<1x256xf32> loc(#loc33)
    %34 = arith.addf %32, %33 : tensor<1x256xf32> loc(#loc34)
    %35 = arith.mulf %18, %18 : tensor<1x256xf32> loc(#loc35)
    %36 = arith.addf %34, %35 : tensor<1x256xf32> loc(#loc36)
    %37 = tt.extern_elementwise %36 {libname = "", libpath = "", pure = true, symbol = "__nv_sqrtf"} : (tensor<1x256xf32>) -> tensor<1x256xf32> loc(#loc37)
    %38 = arith.cmpf ogt, %37, %cst : tensor<1x256xf32> loc(#loc73)
    %39 = arith.cmpf une, %37, %37 : tensor<1x256xf32> loc(#loc74)
    %40 = arith.ori %38, %39 : tensor<1x256xi1> loc(#loc75)
    %41 = arith.select %40, %37, %cst : tensor<1x256xi1>, tensor<1x256xf32> loc(#loc76)
    %42 = arith.divf %6, %41 : tensor<1x256xf32> loc(#loc43)
    %43 = arith.subf %42, %21 : tensor<1x256xf32> loc(#loc44)
    %44 = arith.addf %21, %43 : tensor<1x256xf32> loc(#loc45)
    %45 = arith.mulf %23, %23 : tensor<1x256xf32> loc(#loc46)
    %46 = arith.mulf %25, %25 : tensor<1x256xf32> loc(#loc47)
    %47 = arith.addf %45, %46 : tensor<1x256xf32> loc(#loc48)
    %48 = arith.mulf %27, %27 : tensor<1x256xf32> loc(#loc49)
    %49 = arith.addf %47, %48 : tensor<1x256xf32> loc(#loc50)
    %50 = arith.mulf %29, %29 : tensor<1x256xf32> loc(#loc51)
    %51 = arith.addf %49, %50 : tensor<1x256xf32> loc(#loc52)
    %52 = tt.extern_elementwise %51 {libname = "", libpath = "", pure = true, symbol = "__nv_sqrtf"} : (tensor<1x256xf32>) -> tensor<1x256xf32> loc(#loc53)
    %53 = arith.cmpf ogt, %52, %cst : tensor<1x256xf32> loc(#loc77)
    %54 = arith.cmpf une, %52, %52 : tensor<1x256xf32> loc(#loc78)
    %55 = arith.ori %53, %54 : tensor<1x256xi1> loc(#loc79)
    %56 = arith.select %55, %52, %cst : tensor<1x256xi1>, tensor<1x256xf32> loc(#loc80)
    %57 = arith.divf %21, %56 : tensor<1x256xf32> loc(#loc55)
    %58 = arith.subf %42, %57 : tensor<1x256xf32> loc(#loc56)
    %59 = arith.mulf %58, %58 : tensor<1x256xf32> loc(#loc57)
    %60 = arith.addf %59, %cst_7 : tensor<1x256xf32> loc(#loc58)
    %61 = arith.select %2, %60, %cst_7 : tensor<1x256xi1>, tensor<1x256xf32> loc(#loc59)
    %62 = tt.splat %arg3 : !tt.ptr<f32> -> tensor<1x256x!tt.ptr<f32>> loc(#loc60)
    %63 = tt.addptr %62, %1 : tensor<1x256x!tt.ptr<f32>>, tensor<1x256xi32> loc(#loc60)
    tt.store %63, %44, %2 : tensor<1x256x!tt.ptr<f32>> loc(#loc61)
    %64 = "tt.reduce"(%61) <{axis = 1 : i32}> ({
    ^bb0(%arg5: f32 loc(callsite(#loc1 at #loc63)), %arg6: f32 loc(callsite(#loc1 at #loc63))):
      %71 = arith.addf %arg5, %arg6 : f32 loc(#loc84)
      tt.reduce.return %71 : f32 loc(#loc81)
    }) : (tensor<1x256xf32>) -> tensor<1xf32> loc(#loc81)
    %65 = tt.expand_dims %64 {axis = 1 : i32} : tensor<1xf32> -> tensor<1x1xf32> loc(#loc65)
    %66 = arith.divf %65, %cst_1 : tensor<1x1xf32> loc(#loc66)
    %67 = arith.mulf %66, %cst_0 : tensor<1x1xf32> loc(#loc67)
    %68 = arith.addf %67, %66 : tensor<1x1xf32> loc(#loc68)
    gpu.barrier loc(#loc69)
    %69 = tt.addptr %arg0, %c0_i32 : !tt.ptr<f32>, i32 loc(#loc70)
    %70 = tt.splat %69 : !tt.ptr<f32> -> tensor<1x1x!tt.ptr<f32>> loc(#loc70)
    tt.store %70, %68 : tensor<1x1x!tt.ptr<f32>> loc(#loc71)
    tt.return loc(#loc72)
  } loc(#loc)
} loc(#loc)
#loc2 = loc("inductor_cache/pz/cpzc42dgbvoyhmofozaeyppazoqkfik23o4ncon4j2b2xwzuwis5.py":25:25)
#loc3 = loc("inductor_cache/pz/cpzc42dgbvoyhmofozaeyppazoqkfik23o4ncon4j2b2xwzuwis5.py":25:33)
#loc4 = loc("inductor_cache/pz/cpzc42dgbvoyhmofozaeyppazoqkfik23o4ncon4j2b2xwzuwis5.py":29:25)
#loc5 = loc("inductor_cache/pz/cpzc42dgbvoyhmofozaeyppazoqkfik23o4ncon4j2b2xwzuwis5.py":31:23)
#loc6 = loc("inductor_cache/pz/cpzc42dgbvoyhmofozaeyppazoqkfik23o4ncon4j2b2xwzuwis5.py":32:34)
#loc7 = loc("inductor_cache/pz/cpzc42dgbvoyhmofozaeyppazoqkfik23o4ncon4j2b2xwzuwis5.py":32:39)
#loc8 = loc("inductor_cache/pz/cpzc42dgbvoyhmofozaeyppazoqkfik23o4ncon4j2b2xwzuwis5.py":33:36)
#loc9 = loc("inductor_cache/pz/cpzc42dgbvoyhmofozaeyppazoqkfik23o4ncon4j2b2xwzuwis5.py":33:34)
#loc10 = loc("inductor_cache/pz/cpzc42dgbvoyhmofozaeyppazoqkfik23o4ncon4j2b2xwzuwis5.py":33:41)
#loc11 = loc("inductor_cache/pz/cpzc42dgbvoyhmofozaeyppazoqkfik23o4ncon4j2b2xwzuwis5.py":34:38)
#loc12 = loc("inductor_cache/pz/cpzc42dgbvoyhmofozaeyppazoqkfik23o4ncon4j2b2xwzuwis5.py":34:34)
#loc13 = loc("inductor_cache/pz/cpzc42dgbvoyhmofozaeyppazoqkfik23o4ncon4j2b2xwzuwis5.py":34:45)
#loc14 = loc("inductor_cache/pz/cpzc42dgbvoyhmofozaeyppazoqkfik23o4ncon4j2b2xwzuwis5.py":35:38)
#loc15 = loc("inductor_cache/pz/cpzc42dgbvoyhmofozaeyppazoqkfik23o4ncon4j2b2xwzuwis5.py":35:34)
#loc16 = loc("inductor_cache/pz/cpzc42dgbvoyhmofozaeyppazoqkfik23o4ncon4j2b2xwzuwis5.py":35:45)
#loc17 = loc("inductor_cache/pz/cpzc42dgbvoyhmofozaeyppazoqkfik23o4ncon4j2b2xwzuwis5.py":36:38)
#loc18 = loc("inductor_cache/pz/cpzc42dgbvoyhmofozaeyppazoqkfik23o4ncon4j2b2xwzuwis5.py":36:34)
#loc19 = loc("inductor_cache/pz/cpzc42dgbvoyhmofozaeyppazoqkfik23o4ncon4j2b2xwzuwis5.py":36:45)
#loc20 = loc("inductor_cache/pz/cpzc42dgbvoyhmofozaeyppazoqkfik23o4ncon4j2b2xwzuwis5.py":37:35)
#loc21 = loc("inductor_cache/pz/cpzc42dgbvoyhmofozaeyppazoqkfik23o4ncon4j2b2xwzuwis5.py":37:40)
#loc22 = loc("inductor_cache/pz/cpzc42dgbvoyhmofozaeyppazoqkfik23o4ncon4j2b2xwzuwis5.py":38:35)
#loc23 = loc("inductor_cache/pz/cpzc42dgbvoyhmofozaeyppazoqkfik23o4ncon4j2b2xwzuwis5.py":38:42)
#loc24 = loc("inductor_cache/pz/cpzc42dgbvoyhmofozaeyppazoqkfik23o4ncon4j2b2xwzuwis5.py":39:35)
#loc25 = loc("inductor_cache/pz/cpzc42dgbvoyhmofozaeyppazoqkfik23o4ncon4j2b2xwzuwis5.py":39:46)
#loc26 = loc("inductor_cache/pz/cpzc42dgbvoyhmofozaeyppazoqkfik23o4ncon4j2b2xwzuwis5.py":40:35)
#loc27 = loc("inductor_cache/pz/cpzc42dgbvoyhmofozaeyppazoqkfik23o4ncon4j2b2xwzuwis5.py":40:46)
#loc28 = loc("inductor_cache/pz/cpzc42dgbvoyhmofozaeyppazoqkfik23o4ncon4j2b2xwzuwis5.py":41:35)
#loc29 = loc("inductor_cache/pz/cpzc42dgbvoyhmofozaeyppazoqkfik23o4ncon4j2b2xwzuwis5.py":41:46)
#loc30 = loc("inductor_cache/pz/cpzc42dgbvoyhmofozaeyppazoqkfik23o4ncon4j2b2xwzuwis5.py":42:22)
#loc31 = loc("inductor_cache/pz/cpzc42dgbvoyhmofozaeyppazoqkfik23o4ncon4j2b2xwzuwis5.py":43:22)
#loc32 = loc("inductor_cache/pz/cpzc42dgbvoyhmofozaeyppazoqkfik23o4ncon4j2b2xwzuwis5.py":44:22)
#loc33 = loc("inductor_cache/pz/cpzc42dgbvoyhmofozaeyppazoqkfik23o4ncon4j2b2xwzuwis5.py":45:22)
#loc34 = loc("inductor_cache/pz/cpzc42dgbvoyhmofozaeyppazoqkfik23o4ncon4j2b2xwzuwis5.py":46:22)
#loc35 = loc("inductor_cache/pz/cpzc42dgbvoyhmofozaeyppazoqkfik23o4ncon4j2b2xwzuwis5.py":47:23)
#loc36 = loc("inductor_cache/pz/cpzc42dgbvoyhmofozaeyppazoqkfik23o4ncon4j2b2xwzuwis5.py":48:23)
#loc37 = loc("inductor_cache/pz/cpzc42dgbvoyhmofozaeyppazoqkfik23o4ncon4j2b2xwzuwis5.py":49:31)
#loc38 = loc("/home/sahanp/.conda/envs/parity-bench/lib/python3.12/site-packages/torch/_inductor/runtime/triton_helpers.py":118:15)
#loc39 = loc("inductor_cache/pz/cpzc42dgbvoyhmofozaeyppazoqkfik23o4ncon4j2b2xwzuwis5.py":51:46)
#loc40 = loc("/home/sahanp/.conda/envs/parity-bench/lib/python3.12/site-packages/torch/_inductor/runtime/triton_helpers.py":120:21)
#loc41 = loc("/home/sahanp/.conda/envs/parity-bench/lib/python3.12/site-packages/torch/_inductor/runtime/triton_helpers.py":120:16)
#loc42 = loc("/home/sahanp/.conda/envs/parity-bench/lib/python3.12/site-packages/torch/_inductor/runtime/triton_helpers.py":121:29)
#loc43 = loc("inductor_cache/pz/cpzc42dgbvoyhmofozaeyppazoqkfik23o4ncon4j2b2xwzuwis5.py":52:23)
#loc44 = loc("inductor_cache/pz/cpzc42dgbvoyhmofozaeyppazoqkfik23o4ncon4j2b2xwzuwis5.py":53:24)
#loc45 = loc("inductor_cache/pz/cpzc42dgbvoyhmofozaeyppazoqkfik23o4ncon4j2b2xwzuwis5.py":54:24)
#loc46 = loc("inductor_cache/pz/cpzc42dgbvoyhmofozaeyppazoqkfik23o4ncon4j2b2xwzuwis5.py":55:24)
#loc47 = loc("inductor_cache/pz/cpzc42dgbvoyhmofozaeyppazoqkfik23o4ncon4j2b2xwzuwis5.py":56:24)
#loc48 = loc("inductor_cache/pz/cpzc42dgbvoyhmofozaeyppazoqkfik23o4ncon4j2b2xwzuwis5.py":57:24)
#loc49 = loc("inductor_cache/pz/cpzc42dgbvoyhmofozaeyppazoqkfik23o4ncon4j2b2xwzuwis5.py":58:24)
#loc50 = loc("inductor_cache/pz/cpzc42dgbvoyhmofozaeyppazoqkfik23o4ncon4j2b2xwzuwis5.py":59:24)
#loc51 = loc("inductor_cache/pz/cpzc42dgbvoyhmofozaeyppazoqkfik23o4ncon4j2b2xwzuwis5.py":60:24)
#loc52 = loc("inductor_cache/pz/cpzc42dgbvoyhmofozaeyppazoqkfik23o4ncon4j2b2xwzuwis5.py":61:24)
#loc53 = loc("inductor_cache/pz/cpzc42dgbvoyhmofozaeyppazoqkfik23o4ncon4j2b2xwzuwis5.py":62:31)
#loc54 = loc("inductor_cache/pz/cpzc42dgbvoyhmofozaeyppazoqkfik23o4ncon4j2b2xwzuwis5.py":63:46)
#loc55 = loc("inductor_cache/pz/cpzc42dgbvoyhmofozaeyppazoqkfik23o4ncon4j2b2xwzuwis5.py":64:24)
#loc56 = loc("inductor_cache/pz/cpzc42dgbvoyhmofozaeyppazoqkfik23o4ncon4j2b2xwzuwis5.py":65:24)
#loc57 = loc("inductor_cache/pz/cpzc42dgbvoyhmofozaeyppazoqkfik23o4ncon4j2b2xwzuwis5.py":66:24)
#loc58 = loc("inductor_cache/pz/cpzc42dgbvoyhmofozaeyppazoqkfik23o4ncon4j2b2xwzuwis5.py":68:25)
#loc59 = loc("inductor_cache/pz/cpzc42dgbvoyhmofozaeyppazoqkfik23o4ncon4j2b2xwzuwis5.py":69:40)
#loc60 = loc("inductor_cache/pz/cpzc42dgbvoyhmofozaeyppazoqkfik23o4ncon4j2b2xwzuwis5.py":70:29)
#loc61 = loc("inductor_cache/pz/cpzc42dgbvoyhmofozaeyppazoqkfik23o4ncon4j2b2xwzuwis5.py":70:76)
#loc62 = loc("/home/sahanp/.conda/envs/parity-bench/lib/python3.12/site-packages/triton/language/standard.py":267:36)
#loc64 = loc("/home/sahanp/.conda/envs/parity-bench/lib/python3.12/site-packages/triton/language/standard.py":256:15)
#loc65 = loc("inductor_cache/pz/cpzc42dgbvoyhmofozaeyppazoqkfik23o4ncon4j2b2xwzuwis5.py":71:30)
#loc66 = loc("inductor_cache/pz/cpzc42dgbvoyhmofozaeyppazoqkfik23o4ncon4j2b2xwzuwis5.py":73:20)
#loc67 = loc("inductor_cache/pz/cpzc42dgbvoyhmofozaeyppazoqkfik23o4ncon4j2b2xwzuwis5.py":75:20)
#loc68 = loc("inductor_cache/pz/cpzc42dgbvoyhmofozaeyppazoqkfik23o4ncon4j2b2xwzuwis5.py":76:20)
#loc69 = loc("inductor_cache/pz/cpzc42dgbvoyhmofozaeyppazoqkfik23o4ncon4j2b2xwzuwis5.py":77:4)
#loc70 = loc("inductor_cache/pz/cpzc42dgbvoyhmofozaeyppazoqkfik23o4ncon4j2b2xwzuwis5.py":78:28)
#loc71 = loc("inductor_cache/pz/cpzc42dgbvoyhmofozaeyppazoqkfik23o4ncon4j2b2xwzuwis5.py":78:71)
#loc72 = loc("inductor_cache/pz/cpzc42dgbvoyhmofozaeyppazoqkfik23o4ncon4j2b2xwzuwis5.py":78:4)
#loc73 = loc(callsite(#loc38 at #loc39))
#loc74 = loc(callsite(#loc40 at #loc39))
#loc75 = loc(callsite(#loc41 at #loc39))
#loc76 = loc(callsite(#loc42 at #loc39))
#loc77 = loc(callsite(#loc38 at #loc54))
#loc78 = loc(callsite(#loc40 at #loc54))
#loc79 = loc(callsite(#loc41 at #loc54))
#loc80 = loc(callsite(#loc42 at #loc54))
#loc81 = loc(callsite(#loc62 at #loc63))
#loc83 = loc(callsite(#loc64 at #loc62))
#loc84 = loc(callsite(#loc83 at #loc63))
