#loc = loc("inductor_cache/mn/cmn6coy37qzpcg4bfjezdd44ithvz7bliibnw6zzzd5unnduwe3i.py":19:0)
module {
  tt.func public @triton_poi_fused__unsafe_index_add_mul_sub_5(%arg0: !tt.ptr<i64> {tt.divisibility = 16 : i32} loc("inductor_cache/mn/cmn6coy37qzpcg4bfjezdd44ithvz7bliibnw6zzzd5unnduwe3i.py":19:0), %arg1: !tt.ptr<i64> {tt.divisibility = 16 : i32} loc("inductor_cache/mn/cmn6coy37qzpcg4bfjezdd44ithvz7bliibnw6zzzd5unnduwe3i.py":19:0), %arg2: !tt.ptr<f32> {tt.divisibility = 16 : i32} loc("inductor_cache/mn/cmn6coy37qzpcg4bfjezdd44ithvz7bliibnw6zzzd5unnduwe3i.py":19:0), %arg3: !tt.ptr<i64> {tt.divisibility = 16 : i32} loc("inductor_cache/mn/cmn6coy37qzpcg4bfjezdd44ithvz7bliibnw6zzzd5unnduwe3i.py":19:0), %arg4: !tt.ptr<f32> {tt.divisibility = 16 : i32} loc("inductor_cache/mn/cmn6coy37qzpcg4bfjezdd44ithvz7bliibnw6zzzd5unnduwe3i.py":19:0), %arg5: !tt.ptr<i64> {tt.divisibility = 16 : i32} loc("inductor_cache/mn/cmn6coy37qzpcg4bfjezdd44ithvz7bliibnw6zzzd5unnduwe3i.py":19:0), %arg6: !tt.ptr<f32> {tt.divisibility = 16 : i32} loc("inductor_cache/mn/cmn6coy37qzpcg4bfjezdd44ithvz7bliibnw6zzzd5unnduwe3i.py":19:0), %arg7: !tt.ptr<f32> {tt.divisibility = 16 : i32} loc("inductor_cache/mn/cmn6coy37qzpcg4bfjezdd44ithvz7bliibnw6zzzd5unnduwe3i.py":19:0), %arg8: i32 {tt.divisibility = 16 : i32} loc("inductor_cache/mn/cmn6coy37qzpcg4bfjezdd44ithvz7bliibnw6zzzd5unnduwe3i.py":19:0), %arg9: i32 {tt.divisibility = 16 : i32} loc("inductor_cache/mn/cmn6coy37qzpcg4bfjezdd44ithvz7bliibnw6zzzd5unnduwe3i.py":19:0)) attributes {noinline = false} {
    %cst = arith.constant dense<640> : tensor<32x1xi64> loc(#loc1)
    %cst_0 = arith.constant dense<128> : tensor<32x1xi64> loc(#loc1)
    %cst_1 = arith.constant dense<5> : tensor<32x1xi64> loc(#loc1)
    %cst_2 = arith.constant dense<0> : tensor<32x1xi64> loc(#loc1)
    %cst_3 = arith.constant dense<524288> : tensor<1x32xi32> loc(#loc1)
    %cst_4 = arith.constant dense<128> : tensor<32x1xi32> loc(#loc1)
    %cst_5 = arith.constant dense<3200> : tensor<1x32xi32> loc(#loc1)
    %cst_6 = arith.constant dense<128> : tensor<1x32xi32> loc(#loc1)
    %cst_7 = arith.constant dense<64> : tensor<32x1xi32> loc(#loc1)
    %cst_8 = arith.constant dense<512> : tensor<1x32xi32> loc(#loc1)
    %c32_i32 = arith.constant 32 : i32 loc(#loc1)
    %0 = tt.get_program_id y : i32 loc(#loc2)
    %1 = arith.muli %0, %c32_i32 : i32 loc(#loc3)
    %2 = tt.make_range {end = 32 : i32, start = 0 : i32} : tensor<32xi32> loc(#loc4)
    %3 = tt.expand_dims %2 {axis = 0 : i32} : tensor<32xi32> -> tensor<1x32xi32> loc(#loc5)
    %4 = tt.splat %1 : i32 -> tensor<1x32xi32> loc(#loc6)
    %5 = arith.addi %4, %3 : tensor<1x32xi32> loc(#loc6)
    %6 = arith.cmpi slt, %5, %cst_8 : tensor<1x32xi32> loc(#loc7)
    %7 = tt.get_program_id x : i32 loc(#loc8)
    %8 = arith.muli %7, %c32_i32 : i32 loc(#loc9)
    %9 = tt.expand_dims %2 {axis = 1 : i32} : tensor<32xi32> -> tensor<32x1xi32> loc(#loc10)
    %10 = tt.splat %8 : i32 -> tensor<32x1xi32> loc(#loc11)
    %11 = arith.addi %10, %9 : tensor<32x1xi32> loc(#loc11)
    %12 = arith.divsi %11, %cst_7 : tensor<32x1xi32> loc(#loc12)
    %13 = arith.remsi %11, %cst_7 : tensor<32x1xi32> loc(#loc13)
    %14 = arith.remsi %5, %cst_6 : tensor<1x32xi32> loc(#loc14)
    %15 = arith.divsi %5, %cst_6 : tensor<1x32xi32> loc(#loc15)
    %16 = tt.splat %arg0 : !tt.ptr<i64> -> tensor<32x1x!tt.ptr<i64>> loc(#loc16)
    %17 = tt.addptr %16, %12 : tensor<32x1x!tt.ptr<i64>>, tensor<32x1xi32> loc(#loc16)
    %18 = tt.load %17 evictionPolicy = evict_last : tensor<32x1x!tt.ptr<i64>> loc(#loc17)
    %19 = tt.splat %arg1 : !tt.ptr<i64> -> tensor<32x1x!tt.ptr<i64>> loc(#loc18)
    %20 = tt.addptr %19, %13 : tensor<32x1x!tt.ptr<i64>>, tensor<32x1xi32> loc(#loc18)
    %21 = tt.load %20 evictionPolicy = evict_last : tensor<32x1x!tt.ptr<i64>> loc(#loc19)
    %22 = tt.splat %arg3 : !tt.ptr<i64> -> tensor<32x1x!tt.ptr<i64>> loc(#loc20)
    %23 = tt.addptr %22, %13 : tensor<32x1x!tt.ptr<i64>>, tensor<32x1xi32> loc(#loc20)
    %24 = tt.load %23 evictionPolicy = evict_last : tensor<32x1x!tt.ptr<i64>> loc(#loc21)
    %25 = tt.splat %arg4 : !tt.ptr<f32> -> tensor<32x1x!tt.ptr<f32>> loc(#loc22)
    %26 = tt.addptr %25, %13 : tensor<32x1x!tt.ptr<f32>>, tensor<32x1xi32> loc(#loc22)
    %27 = tt.load %26 evictionPolicy = evict_last : tensor<32x1x!tt.ptr<f32>> loc(#loc23)
    %28 = tt.splat %arg5 : !tt.ptr<i64> -> tensor<32x1x!tt.ptr<i64>> loc(#loc24)
    %29 = tt.addptr %28, %12 : tensor<32x1x!tt.ptr<i64>>, tensor<32x1xi32> loc(#loc24)
    %30 = tt.load %29 evictionPolicy = evict_last : tensor<32x1x!tt.ptr<i64>> loc(#loc25)
    %31 = tt.splat %arg6 : !tt.ptr<f32> -> tensor<32x1x!tt.ptr<f32>> loc(#loc26)
    %32 = tt.addptr %31, %12 : tensor<32x1x!tt.ptr<f32>>, tensor<32x1xi32> loc(#loc26)
    %33 = tt.load %32 evictionPolicy = evict_last : tensor<32x1x!tt.ptr<f32>> loc(#loc27)
    %34 = arith.addi %18, %cst_1 : tensor<32x1xi64> loc(#loc28)
    %35 = arith.cmpi slt, %18, %cst_2 : tensor<32x1xi64> loc(#loc29)
    %36 = arith.select %35, %34, %18 : tensor<32x1xi1>, tensor<32x1xi64> loc(#loc30)
    %37 = arith.addi %21, %cst_1 : tensor<32x1xi64> loc(#loc31)
    %38 = arith.cmpi slt, %21, %cst_2 : tensor<32x1xi64> loc(#loc32)
    %39 = arith.select %38, %37, %21 : tensor<32x1xi1>, tensor<32x1xi64> loc(#loc33)
    %40 = arith.muli %39, %cst_0 : tensor<32x1xi64> loc(#loc34)
    %41 = tt.broadcast %40 : tensor<32x1xi64> -> tensor<32x32xi64> loc(#loc34)
    %42 = arith.extsi %14 : tensor<1x32xi32> to tensor<1x32xi64> loc(#loc35)
    %43 = tt.broadcast %42 : tensor<1x32xi64> -> tensor<32x32xi64> loc(#loc35)
    %44 = arith.addi %43, %41 : tensor<32x32xi64> loc(#loc35)
    %45 = arith.muli %36, %cst : tensor<32x1xi64> loc(#loc36)
    %46 = tt.broadcast %45 : tensor<32x1xi64> -> tensor<32x32xi64> loc(#loc36)
    %47 = arith.addi %44, %46 : tensor<32x32xi64> loc(#loc37)
    %48 = arith.muli %15, %cst_5 : tensor<1x32xi32> loc(#loc38)
    %49 = arith.extsi %48 : tensor<1x32xi32> to tensor<1x32xi64> loc(#loc39)
    %50 = tt.broadcast %49 : tensor<1x32xi64> -> tensor<32x32xi64> loc(#loc39)
    %51 = arith.addi %47, %50 : tensor<32x32xi64> loc(#loc39)
    %52 = tt.splat %arg2 : !tt.ptr<f32> -> tensor<32x32x!tt.ptr<f32>> loc(#loc40)
    %53 = tt.addptr %52, %51 : tensor<32x32x!tt.ptr<f32>>, tensor<32x32xi64> loc(#loc40)
    %54 = tt.broadcast %6 : tensor<1x32xi1> -> tensor<32x32xi1> loc(#loc41)
    %55 = tt.load %53, %54 : tensor<32x32x!tt.ptr<f32>> loc(#loc41)
    %56 = arith.addi %24, %cst_1 : tensor<32x1xi64> loc(#loc42)
    %57 = arith.cmpi slt, %24, %cst_2 : tensor<32x1xi64> loc(#loc43)
    %58 = arith.select %57, %56, %24 : tensor<32x1xi1>, tensor<32x1xi64> loc(#loc44)
    %59 = arith.muli %58, %cst_0 : tensor<32x1xi64> loc(#loc45)
    %60 = tt.broadcast %59 : tensor<32x1xi64> -> tensor<32x32xi64> loc(#loc45)
    %61 = arith.addi %43, %60 : tensor<32x32xi64> loc(#loc46)
    %62 = arith.addi %61, %46 : tensor<32x32xi64> loc(#loc47)
    %63 = arith.addi %62, %50 : tensor<32x32xi64> loc(#loc48)
    %64 = tt.addptr %52, %63 : tensor<32x32x!tt.ptr<f32>>, tensor<32x32xi64> loc(#loc49)
    %65 = tt.load %64, %54 : tensor<32x32x!tt.ptr<f32>> loc(#loc50)
    %66 = arith.subf %65, %55 : tensor<32x32xf32> loc(#loc51)
    %67 = tt.broadcast %27 : tensor<32x1xf32> -> tensor<32x32xf32> loc(#loc52)
    %68 = arith.mulf %66, %67 : tensor<32x32xf32> loc(#loc52)
    %69 = arith.addf %55, %68 : tensor<32x32xf32> loc(#loc53)
    %70 = arith.addi %30, %cst_1 : tensor<32x1xi64> loc(#loc54)
    %71 = arith.cmpi slt, %30, %cst_2 : tensor<32x1xi64> loc(#loc55)
    %72 = arith.select %71, %70, %30 : tensor<32x1xi1>, tensor<32x1xi64> loc(#loc56)
    %73 = arith.muli %72, %cst : tensor<32x1xi64> loc(#loc57)
    %74 = tt.broadcast %73 : tensor<32x1xi64> -> tensor<32x32xi64> loc(#loc57)
    %75 = arith.addi %44, %74 : tensor<32x32xi64> loc(#loc58)
    %76 = arith.addi %75, %50 : tensor<32x32xi64> loc(#loc59)
    %77 = tt.addptr %52, %76 : tensor<32x32x!tt.ptr<f32>>, tensor<32x32xi64> loc(#loc60)
    %78 = tt.load %77, %54 : tensor<32x32x!tt.ptr<f32>> loc(#loc61)
    %79 = arith.addi %61, %74 : tensor<32x32xi64> loc(#loc62)
    %80 = arith.addi %79, %50 : tensor<32x32xi64> loc(#loc63)
    %81 = tt.addptr %52, %80 : tensor<32x32x!tt.ptr<f32>>, tensor<32x32xi64> loc(#loc64)
    %82 = tt.load %81, %54 : tensor<32x32x!tt.ptr<f32>> loc(#loc65)
    %83 = arith.subf %82, %78 : tensor<32x32xf32> loc(#loc66)
    %84 = arith.mulf %83, %67 : tensor<32x32xf32> loc(#loc67)
    %85 = arith.addf %78, %84 : tensor<32x32xf32> loc(#loc68)
    %86 = arith.subf %85, %69 : tensor<32x32xf32> loc(#loc69)
    %87 = tt.broadcast %33 : tensor<32x1xf32> -> tensor<32x32xf32> loc(#loc70)
    %88 = arith.mulf %86, %87 : tensor<32x32xf32> loc(#loc70)
    %89 = arith.addf %69, %88 : tensor<32x32xf32> loc(#loc71)
    %90 = arith.muli %11, %cst_4 : tensor<32x1xi32> loc(#loc72)
    %91 = tt.broadcast %14 : tensor<1x32xi32> -> tensor<32x32xi32> loc(#loc73)
    %92 = tt.broadcast %90 : tensor<32x1xi32> -> tensor<32x32xi32> loc(#loc73)
    %93 = arith.addi %91, %92 : tensor<32x32xi32> loc(#loc73)
    %94 = arith.muli %15, %cst_3 : tensor<1x32xi32> loc(#loc74)
    %95 = tt.broadcast %94 : tensor<1x32xi32> -> tensor<32x32xi32> loc(#loc75)
    %96 = arith.addi %93, %95 : tensor<32x32xi32> loc(#loc75)
    %97 = tt.splat %arg7 : !tt.ptr<f32> -> tensor<32x32x!tt.ptr<f32>> loc(#loc76)
    %98 = tt.addptr %97, %96 : tensor<32x32x!tt.ptr<f32>>, tensor<32x32xi32> loc(#loc76)
    tt.store %98, %89, %54 : tensor<32x32x!tt.ptr<f32>> loc(#loc77)
    tt.return loc(#loc78)
  } loc(#loc)
} loc(#loc)
#loc1 = loc(unknown)
#loc2 = loc("inductor_cache/mn/cmn6coy37qzpcg4bfjezdd44ithvz7bliibnw6zzzd5unnduwe3i.py":22:28)
#loc3 = loc("inductor_cache/mn/cmn6coy37qzpcg4bfjezdd44ithvz7bliibnw6zzzd5unnduwe3i.py":22:33)
#loc4 = loc("inductor_cache/mn/cmn6coy37qzpcg4bfjezdd44ithvz7bliibnw6zzzd5unnduwe3i.py":23:36)
#loc5 = loc("inductor_cache/mn/cmn6coy37qzpcg4bfjezdd44ithvz7bliibnw6zzzd5unnduwe3i.py":23:44)
#loc6 = loc("inductor_cache/mn/cmn6coy37qzpcg4bfjezdd44ithvz7bliibnw6zzzd5unnduwe3i.py":23:23)
#loc7 = loc("inductor_cache/mn/cmn6coy37qzpcg4bfjezdd44ithvz7bliibnw6zzzd5unnduwe3i.py":24:21)
#loc8 = loc("inductor_cache/mn/cmn6coy37qzpcg4bfjezdd44ithvz7bliibnw6zzzd5unnduwe3i.py":25:28)
#loc9 = loc("inductor_cache/mn/cmn6coy37qzpcg4bfjezdd44ithvz7bliibnw6zzzd5unnduwe3i.py":25:33)
#loc10 = loc("inductor_cache/mn/cmn6coy37qzpcg4bfjezdd44ithvz7bliibnw6zzzd5unnduwe3i.py":26:44)
#loc11 = loc("inductor_cache/mn/cmn6coy37qzpcg4bfjezdd44ithvz7bliibnw6zzzd5unnduwe3i.py":26:23)
#loc12 = loc("inductor_cache/mn/cmn6coy37qzpcg4bfjezdd44ithvz7bliibnw6zzzd5unnduwe3i.py":28:19)
#loc13 = loc("inductor_cache/mn/cmn6coy37qzpcg4bfjezdd44ithvz7bliibnw6zzzd5unnduwe3i.py":29:19)
#loc14 = loc("inductor_cache/mn/cmn6coy37qzpcg4bfjezdd44ithvz7bliibnw6zzzd5unnduwe3i.py":30:19)
#loc15 = loc("inductor_cache/mn/cmn6coy37qzpcg4bfjezdd44ithvz7bliibnw6zzzd5unnduwe3i.py":31:19)
#loc16 = loc("inductor_cache/mn/cmn6coy37qzpcg4bfjezdd44ithvz7bliibnw6zzzd5unnduwe3i.py":34:30)
#loc17 = loc("inductor_cache/mn/cmn6coy37qzpcg4bfjezdd44ithvz7bliibnw6zzzd5unnduwe3i.py":34:35)
#loc18 = loc("inductor_cache/mn/cmn6coy37qzpcg4bfjezdd44ithvz7bliibnw6zzzd5unnduwe3i.py":35:30)
#loc19 = loc("inductor_cache/mn/cmn6coy37qzpcg4bfjezdd44ithvz7bliibnw6zzzd5unnduwe3i.py":35:35)
#loc20 = loc("inductor_cache/mn/cmn6coy37qzpcg4bfjezdd44ithvz7bliibnw6zzzd5unnduwe3i.py":36:31)
#loc21 = loc("inductor_cache/mn/cmn6coy37qzpcg4bfjezdd44ithvz7bliibnw6zzzd5unnduwe3i.py":36:36)
#loc22 = loc("inductor_cache/mn/cmn6coy37qzpcg4bfjezdd44ithvz7bliibnw6zzzd5unnduwe3i.py":37:31)
#loc23 = loc("inductor_cache/mn/cmn6coy37qzpcg4bfjezdd44ithvz7bliibnw6zzzd5unnduwe3i.py":37:36)
#loc24 = loc("inductor_cache/mn/cmn6coy37qzpcg4bfjezdd44ithvz7bliibnw6zzzd5unnduwe3i.py":38:31)
#loc25 = loc("inductor_cache/mn/cmn6coy37qzpcg4bfjezdd44ithvz7bliibnw6zzzd5unnduwe3i.py":38:36)
#loc26 = loc("inductor_cache/mn/cmn6coy37qzpcg4bfjezdd44ithvz7bliibnw6zzzd5unnduwe3i.py":39:31)
#loc27 = loc("inductor_cache/mn/cmn6coy37qzpcg4bfjezdd44ithvz7bliibnw6zzzd5unnduwe3i.py":39:36)
#loc28 = loc("inductor_cache/mn/cmn6coy37qzpcg4bfjezdd44ithvz7bliibnw6zzzd5unnduwe3i.py":41:18)
#loc29 = loc("inductor_cache/mn/cmn6coy37qzpcg4bfjezdd44ithvz7bliibnw6zzzd5unnduwe3i.py":42:18)
#loc30 = loc("inductor_cache/mn/cmn6coy37qzpcg4bfjezdd44ithvz7bliibnw6zzzd5unnduwe3i.py":43:32)
#loc31 = loc("inductor_cache/mn/cmn6coy37qzpcg4bfjezdd44ithvz7bliibnw6zzzd5unnduwe3i.py":44:18)
#loc32 = loc("inductor_cache/mn/cmn6coy37qzpcg4bfjezdd44ithvz7bliibnw6zzzd5unnduwe3i.py":45:18)
#loc33 = loc("inductor_cache/mn/cmn6coy37qzpcg4bfjezdd44ithvz7bliibnw6zzzd5unnduwe3i.py":46:32)
#loc34 = loc("inductor_cache/mn/cmn6coy37qzpcg4bfjezdd44ithvz7bliibnw6zzzd5unnduwe3i.py":47:39)
#loc35 = loc("inductor_cache/mn/cmn6coy37qzpcg4bfjezdd44ithvz7bliibnw6zzzd5unnduwe3i.py":47:35)
#loc36 = loc("inductor_cache/mn/cmn6coy37qzpcg4bfjezdd44ithvz7bliibnw6zzzd5unnduwe3i.py":47:50)
#loc37 = loc("inductor_cache/mn/cmn6coy37qzpcg4bfjezdd44ithvz7bliibnw6zzzd5unnduwe3i.py":47:46)
#loc38 = loc("inductor_cache/mn/cmn6coy37qzpcg4bfjezdd44ithvz7bliibnw6zzzd5unnduwe3i.py":47:62)
#loc39 = loc("inductor_cache/mn/cmn6coy37qzpcg4bfjezdd44ithvz7bliibnw6zzzd5unnduwe3i.py":47:57)
#loc40 = loc("inductor_cache/mn/cmn6coy37qzpcg4bfjezdd44ithvz7bliibnw6zzzd5unnduwe3i.py":47:30)
#loc41 = loc("inductor_cache/mn/cmn6coy37qzpcg4bfjezdd44ithvz7bliibnw6zzzd5unnduwe3i.py":47:67)
#loc42 = loc("inductor_cache/mn/cmn6coy37qzpcg4bfjezdd44ithvz7bliibnw6zzzd5unnduwe3i.py":48:20)
#loc43 = loc("inductor_cache/mn/cmn6coy37qzpcg4bfjezdd44ithvz7bliibnw6zzzd5unnduwe3i.py":49:20)
#loc44 = loc("inductor_cache/mn/cmn6coy37qzpcg4bfjezdd44ithvz7bliibnw6zzzd5unnduwe3i.py":50:35)
#loc45 = loc("inductor_cache/mn/cmn6coy37qzpcg4bfjezdd44ithvz7bliibnw6zzzd5unnduwe3i.py":51:40)
#loc46 = loc("inductor_cache/mn/cmn6coy37qzpcg4bfjezdd44ithvz7bliibnw6zzzd5unnduwe3i.py":51:36)
#loc47 = loc("inductor_cache/mn/cmn6coy37qzpcg4bfjezdd44ithvz7bliibnw6zzzd5unnduwe3i.py":51:48)
#loc48 = loc("inductor_cache/mn/cmn6coy37qzpcg4bfjezdd44ithvz7bliibnw6zzzd5unnduwe3i.py":51:59)
#loc49 = loc("inductor_cache/mn/cmn6coy37qzpcg4bfjezdd44ithvz7bliibnw6zzzd5unnduwe3i.py":51:31)
#loc50 = loc("inductor_cache/mn/cmn6coy37qzpcg4bfjezdd44ithvz7bliibnw6zzzd5unnduwe3i.py":51:69)
#loc51 = loc("inductor_cache/mn/cmn6coy37qzpcg4bfjezdd44ithvz7bliibnw6zzzd5unnduwe3i.py":52:20)
#loc52 = loc("inductor_cache/mn/cmn6coy37qzpcg4bfjezdd44ithvz7bliibnw6zzzd5unnduwe3i.py":53:20)
#loc53 = loc("inductor_cache/mn/cmn6coy37qzpcg4bfjezdd44ithvz7bliibnw6zzzd5unnduwe3i.py":54:19)
#loc54 = loc("inductor_cache/mn/cmn6coy37qzpcg4bfjezdd44ithvz7bliibnw6zzzd5unnduwe3i.py":55:20)
#loc55 = loc("inductor_cache/mn/cmn6coy37qzpcg4bfjezdd44ithvz7bliibnw6zzzd5unnduwe3i.py":56:20)
#loc56 = loc("inductor_cache/mn/cmn6coy37qzpcg4bfjezdd44ithvz7bliibnw6zzzd5unnduwe3i.py":57:35)
#loc57 = loc("inductor_cache/mn/cmn6coy37qzpcg4bfjezdd44ithvz7bliibnw6zzzd5unnduwe3i.py":58:51)
#loc58 = loc("inductor_cache/mn/cmn6coy37qzpcg4bfjezdd44ithvz7bliibnw6zzzd5unnduwe3i.py":58:47)
#loc59 = loc("inductor_cache/mn/cmn6coy37qzpcg4bfjezdd44ithvz7bliibnw6zzzd5unnduwe3i.py":58:59)
#loc60 = loc("inductor_cache/mn/cmn6coy37qzpcg4bfjezdd44ithvz7bliibnw6zzzd5unnduwe3i.py":58:31)
#loc61 = loc("inductor_cache/mn/cmn6coy37qzpcg4bfjezdd44ithvz7bliibnw6zzzd5unnduwe3i.py":58:69)
#loc62 = loc("inductor_cache/mn/cmn6coy37qzpcg4bfjezdd44ithvz7bliibnw6zzzd5unnduwe3i.py":59:48)
#loc63 = loc("inductor_cache/mn/cmn6coy37qzpcg4bfjezdd44ithvz7bliibnw6zzzd5unnduwe3i.py":59:60)
#loc64 = loc("inductor_cache/mn/cmn6coy37qzpcg4bfjezdd44ithvz7bliibnw6zzzd5unnduwe3i.py":59:31)
#loc65 = loc("inductor_cache/mn/cmn6coy37qzpcg4bfjezdd44ithvz7bliibnw6zzzd5unnduwe3i.py":59:70)
#loc66 = loc("inductor_cache/mn/cmn6coy37qzpcg4bfjezdd44ithvz7bliibnw6zzzd5unnduwe3i.py":60:20)
#loc67 = loc("inductor_cache/mn/cmn6coy37qzpcg4bfjezdd44ithvz7bliibnw6zzzd5unnduwe3i.py":61:20)
#loc68 = loc("inductor_cache/mn/cmn6coy37qzpcg4bfjezdd44ithvz7bliibnw6zzzd5unnduwe3i.py":62:20)
#loc69 = loc("inductor_cache/mn/cmn6coy37qzpcg4bfjezdd44ithvz7bliibnw6zzzd5unnduwe3i.py":63:20)
#loc70 = loc("inductor_cache/mn/cmn6coy37qzpcg4bfjezdd44ithvz7bliibnw6zzzd5unnduwe3i.py":64:20)
#loc71 = loc("inductor_cache/mn/cmn6coy37qzpcg4bfjezdd44ithvz7bliibnw6zzzd5unnduwe3i.py":65:20)
#loc72 = loc("inductor_cache/mn/cmn6coy37qzpcg4bfjezdd44ithvz7bliibnw6zzzd5unnduwe3i.py":66:34)
#loc73 = loc("inductor_cache/mn/cmn6coy37qzpcg4bfjezdd44ithvz7bliibnw6zzzd5unnduwe3i.py":66:30)
#loc74 = loc("inductor_cache/mn/cmn6coy37qzpcg4bfjezdd44ithvz7bliibnw6zzzd5unnduwe3i.py":66:46)
#loc75 = loc("inductor_cache/mn/cmn6coy37qzpcg4bfjezdd44ithvz7bliibnw6zzzd5unnduwe3i.py":66:39)
#loc76 = loc("inductor_cache/mn/cmn6coy37qzpcg4bfjezdd44ithvz7bliibnw6zzzd5unnduwe3i.py":66:25)
#loc77 = loc("inductor_cache/mn/cmn6coy37qzpcg4bfjezdd44ithvz7bliibnw6zzzd5unnduwe3i.py":66:58)
#loc78 = loc("inductor_cache/mn/cmn6coy37qzpcg4bfjezdd44ithvz7bliibnw6zzzd5unnduwe3i.py":66:4)
