#loc = loc("inductor_cache/i6/ci6oet6ywan743mym2xzvwsk3zmxjh3vyrirrwmrtaf7mw2ulk3f.py":19:0)
#loc1 = loc(unknown)
#loc16 = loc("inductor_cache/i6/ci6oet6ywan743mym2xzvwsk3zmxjh3vyrirrwmrtaf7mw2ulk3f.py":37:24)
#loc27 = loc(callsite(#loc1 at #loc16))
module {
  tt.func public @triton_per_fused_div_pow_relu_sum_1(%arg0: !tt.ptr<f32> {tt.divisibility = 16 : i32} loc("inductor_cache/i6/ci6oet6ywan743mym2xzvwsk3zmxjh3vyrirrwmrtaf7mw2ulk3f.py":19:0), %arg1: i32 {tt.divisibility = 16 : i32} loc("inductor_cache/i6/ci6oet6ywan743mym2xzvwsk3zmxjh3vyrirrwmrtaf7mw2ulk3f.py":19:0), %arg2: i32 {tt.divisibility = 16 : i32} loc("inductor_cache/i6/ci6oet6ywan743mym2xzvwsk3zmxjh3vyrirrwmrtaf7mw2ulk3f.py":19:0)) attributes {noinline = false} {
    %c16_i32 = arith.constant 16 : i32 loc(#loc1)
    %c64_i32 = arith.constant 64 : i32 loc(#loc1)
    %cst = arith.constant dense<9.99999997E-7> : tensor<1x1xf32> loc(#loc1)
    %cst_0 = arith.constant dense<0.000000e+00> : tensor<1x16xf32> loc(#loc1)
    %0 = tt.get_program_id x : i32 loc(#loc2)
    %1 = arith.cmpi slt, %0, %c64_i32 : i32 loc(#loc3)
    %2 = tt.make_range {end = 16 : i32, start = 0 : i32} : tensor<16xi32> loc(#loc4)
    %3 = tt.expand_dims %2 {axis = 0 : i32} : tensor<16xi32> -> tensor<1x16xi32> loc(#loc5)
    %4 = arith.muli %0, %c16_i32 : i32 loc(#loc6)
    %5 = tt.splat %4 : i32 -> tensor<1x16xi32> loc(#loc7)
    %6 = arith.addi %3, %5 : tensor<1x16xi32> loc(#loc7)
    %7 = tt.splat %arg0 : !tt.ptr<f32> -> tensor<1x16x!tt.ptr<f32>> loc(#loc8)
    %8 = tt.addptr %7, %6 : tensor<1x16x!tt.ptr<f32>>, tensor<1x16xi32> loc(#loc8)
    %9 = tt.splat %1 : i1 -> tensor<1x16xi1> loc(#loc9)
    %10 = tt.load %8, %9, %cst_0 : tensor<1x16x!tt.ptr<f32>> loc(#loc9)
    %11 = arith.cmpf ogt, %cst_0, %10 : tensor<1x16xf32> loc(#loc24)
    %12 = arith.select %11, %cst_0, %10 : tensor<1x16xi1>, tensor<1x16xf32> loc(#loc25)
    %13 = arith.mulf %12, %12 : tensor<1x16xf32> loc(#loc13)
    %14 = arith.select %9, %13, %cst_0 : tensor<1x16xi1>, tensor<1x16xf32> loc(#loc14)
    %15 = "tt.reduce"(%14) <{axis = 1 : i32}> ({
    ^bb0(%arg3: f32 loc(callsite(#loc1 at #loc16)), %arg4: f32 loc(callsite(#loc1 at #loc16))):
      %21 = arith.addf %arg3, %arg4 : f32 loc(#loc29)
      tt.reduce.return %21 : f32 loc(#loc26)
    }) : (tensor<1x16xf32>) -> tensor<1xf32> loc(#loc26)
    %16 = tt.expand_dims %15 {axis = 1 : i32} : tensor<1xf32> -> tensor<1x1xf32> loc(#loc18)
    %17 = arith.addf %16, %cst : tensor<1x1xf32> loc(#loc19)
    %18 = tt.extern_elementwise %17 {libname = "", libpath = "", pure = true, symbol = "__nv_sqrtf"} : (tensor<1x1xf32>) -> tensor<1x1xf32> loc(#loc20)
    %19 = tt.broadcast %18 : tensor<1x1xf32> -> tensor<1x16xf32> loc(#loc21)
    %20 = arith.divf %12, %19 : tensor<1x16xf32> loc(#loc21)
    tt.store %8, %20, %9 : tensor<1x16x!tt.ptr<f32>> loc(#loc22)
    tt.return loc(#loc23)
  } loc(#loc)
} loc(#loc)
#loc2 = loc("inductor_cache/i6/ci6oet6ywan743mym2xzvwsk3zmxjh3vyrirrwmrtaf7mw2ulk3f.py":23:28)
#loc3 = loc("inductor_cache/i6/ci6oet6ywan743mym2xzvwsk3zmxjh3vyrirrwmrtaf7mw2ulk3f.py":25:21)
#loc4 = loc("inductor_cache/i6/ci6oet6ywan743mym2xzvwsk3zmxjh3vyrirrwmrtaf7mw2ulk3f.py":26:26)
#loc5 = loc("inductor_cache/i6/ci6oet6ywan743mym2xzvwsk3zmxjh3vyrirrwmrtaf7mw2ulk3f.py":26:34)
#loc6 = loc("inductor_cache/i6/ci6oet6ywan743mym2xzvwsk3zmxjh3vyrirrwmrtaf7mw2ulk3f.py":31:42)
#loc7 = loc("inductor_cache/i6/ci6oet6ywan743mym2xzvwsk3zmxjh3vyrirrwmrtaf7mw2ulk3f.py":31:39)
#loc8 = loc("inductor_cache/i6/ci6oet6ywan743mym2xzvwsk3zmxjh3vyrirrwmrtaf7mw2ulk3f.py":31:34)
#loc9 = loc("inductor_cache/i6/ci6oet6ywan743mym2xzvwsk3zmxjh3vyrirrwmrtaf7mw2ulk3f.py":31:47)
#loc10 = loc("/home/sahanp/.conda/envs/parity-bench/lib/python3.12/site-packages/torch/_inductor/runtime/triton_helpers.py":118:15)
#loc11 = loc("inductor_cache/i6/ci6oet6ywan743mym2xzvwsk3zmxjh3vyrirrwmrtaf7mw2ulk3f.py":33:40)
#loc12 = loc("/home/sahanp/.conda/envs/parity-bench/lib/python3.12/site-packages/torch/_inductor/runtime/triton_helpers.py":121:29)
#loc13 = loc("inductor_cache/i6/ci6oet6ywan743mym2xzvwsk3zmxjh3vyrirrwmrtaf7mw2ulk3f.py":34:18)
#loc14 = loc("inductor_cache/i6/ci6oet6ywan743mym2xzvwsk3zmxjh3vyrirrwmrtaf7mw2ulk3f.py":36:33)
#loc15 = loc("/home/sahanp/.conda/envs/parity-bench/lib/python3.12/site-packages/triton/language/standard.py":267:36)
#loc17 = loc("/home/sahanp/.conda/envs/parity-bench/lib/python3.12/site-packages/triton/language/standard.py":256:15)
#loc18 = loc("inductor_cache/i6/ci6oet6ywan743mym2xzvwsk3zmxjh3vyrirrwmrtaf7mw2ulk3f.py":37:27)
#loc19 = loc("inductor_cache/i6/ci6oet6ywan743mym2xzvwsk3zmxjh3vyrirrwmrtaf7mw2ulk3f.py":39:18)
#loc20 = loc("inductor_cache/i6/ci6oet6ywan743mym2xzvwsk3zmxjh3vyrirrwmrtaf7mw2ulk3f.py":40:27)
#loc21 = loc("inductor_cache/i6/ci6oet6ywan743mym2xzvwsk3zmxjh3vyrirrwmrtaf7mw2ulk3f.py":41:19)
#loc22 = loc("inductor_cache/i6/ci6oet6ywan743mym2xzvwsk3zmxjh3vyrirrwmrtaf7mw2ulk3f.py":42:48)
#loc23 = loc("inductor_cache/i6/ci6oet6ywan743mym2xzvwsk3zmxjh3vyrirrwmrtaf7mw2ulk3f.py":42:4)
#loc24 = loc(callsite(#loc10 at #loc11))
#loc25 = loc(callsite(#loc12 at #loc11))
#loc26 = loc(callsite(#loc15 at #loc16))
#loc28 = loc(callsite(#loc17 at #loc15))
#loc29 = loc(callsite(#loc28 at #loc16))
