#loc = loc("inductor_cache/yd/cydavr7o37sj42ljox7ft2nfqs2gmmpw3xwabakkxfs6jw6fw2l6.py":19:0)
module {
  tt.func public @triton_poi_fused_add_div_log_sigmoid_forward_mean_mul_neg_0(%arg0: !tt.ptr<f32> {tt.divisibility = 16 : i32} loc("inductor_cache/yd/cydavr7o37sj42ljox7ft2nfqs2gmmpw3xwabakkxfs6jw6fw2l6.py":19:0), %arg1: !tt.ptr<f32> {tt.divisibility = 16 : i32} loc("inductor_cache/yd/cydavr7o37sj42ljox7ft2nfqs2gmmpw3xwabakkxfs6jw6fw2l6.py":19:0), %arg2: !tt.ptr<f32> {tt.divisibility = 16 : i32} loc("inductor_cache/yd/cydavr7o37sj42ljox7ft2nfqs2gmmpw3xwabakkxfs6jw6fw2l6.py":19:0), %arg3: !tt.ptr<f32> {tt.divisibility = 16 : i32} loc("inductor_cache/yd/cydavr7o37sj42ljox7ft2nfqs2gmmpw3xwabakkxfs6jw6fw2l6.py":19:0), %arg4: i32 loc("inductor_cache/yd/cydavr7o37sj42ljox7ft2nfqs2gmmpw3xwabakkxfs6jw6fw2l6.py":19:0)) attributes {noinline = false} {
    %cst = arith.constant dense<4.000000e+00> : tensor<4xf32> loc(#loc1)
    %cst_0 = arith.constant dense<0.000000e+00> : tensor<4xf32> loc(#loc1)
    %cst_1 = arith.constant dense<3> : tensor<4xi32> loc(#loc1)
    %cst_2 = arith.constant dense<2> : tensor<4xi32> loc(#loc1)
    %cst_3 = arith.constant dense<1> : tensor<4xi32> loc(#loc1)
    %cst_4 = arith.constant dense<4> : tensor<4xi32> loc(#loc1)
    %c4_i32 = arith.constant 4 : i32 loc(#loc1)
    %0 = tt.get_program_id x : i32 loc(#loc2)
    %1 = arith.muli %0, %c4_i32 : i32 loc(#loc3)
    %2 = tt.make_range {end = 4 : i32, start = 0 : i32} : tensor<4xi32> loc(#loc4)
    %3 = tt.splat %1 : i32 -> tensor<4xi32> loc(#loc5)
    %4 = arith.addi %3, %2 : tensor<4xi32> loc(#loc5)
    %5 = arith.cmpi slt, %4, %cst_4 : tensor<4xi32> loc(#loc6)
    %6 = tt.splat %arg0 : !tt.ptr<f32> -> tensor<4x!tt.ptr<f32>> loc(#loc7)
    %7 = tt.addptr %6, %4 : tensor<4x!tt.ptr<f32>>, tensor<4xi32> loc(#loc7)
    %8 = tt.load %7, %5 : tensor<4x!tt.ptr<f32>> loc(#loc8)
    %9 = arith.muli %4, %cst_4 : tensor<4xi32> loc(#loc9)
    %10 = tt.splat %arg1 : !tt.ptr<f32> -> tensor<4x!tt.ptr<f32>> loc(#loc10)
    %11 = tt.addptr %10, %9 : tensor<4x!tt.ptr<f32>>, tensor<4xi32> loc(#loc10)
    %12 = tt.load %11, %5 evictionPolicy = evict_last : tensor<4x!tt.ptr<f32>> loc(#loc11)
    %13 = arith.addi %9, %cst_3 : tensor<4xi32> loc(#loc12)
    %14 = tt.addptr %10, %13 : tensor<4x!tt.ptr<f32>>, tensor<4xi32> loc(#loc13)
    %15 = tt.load %14, %5 evictionPolicy = evict_last : tensor<4x!tt.ptr<f32>> loc(#loc14)
    %16 = arith.addi %9, %cst_2 : tensor<4xi32> loc(#loc15)
    %17 = tt.addptr %10, %16 : tensor<4x!tt.ptr<f32>>, tensor<4xi32> loc(#loc16)
    %18 = tt.load %17, %5 evictionPolicy = evict_last : tensor<4x!tt.ptr<f32>> loc(#loc17)
    %19 = arith.addi %9, %cst_1 : tensor<4xi32> loc(#loc18)
    %20 = tt.addptr %10, %19 : tensor<4x!tt.ptr<f32>>, tensor<4xi32> loc(#loc19)
    %21 = tt.load %20, %5 evictionPolicy = evict_last : tensor<4x!tt.ptr<f32>> loc(#loc20)
    %22 = arith.cmpf olt, %cst_0, %8 : tensor<4xf32> loc(#loc68)
    %23 = arith.select %22, %cst_0, %8 : tensor<4xi1>, tensor<4xf32> loc(#loc69)
    %24 = math.absf %8 : tensor<4xf32> loc(#loc24)
    %25 = arith.subf %cst_0, %24 : tensor<4xf32> loc(#loc25)
    %26 = math.exp %25 : tensor<4xf32> loc(#loc26)
    %27 = tt.extern_elementwise %26 {libname = "", libpath = "", pure = true, symbol = "__nv_log1pf"} : (tensor<4xf32>) -> tensor<4xf32> loc(#loc27)
    %28 = arith.subf %23, %27 : tensor<4xf32> loc(#loc28)
    %29 = arith.subf %cst_0, %12 : tensor<4xf32> loc(#loc29)
    %30 = arith.cmpf olt, %cst_0, %29 : tensor<4xf32> loc(#loc70)
    %31 = arith.select %30, %cst_0, %29 : tensor<4xi1>, tensor<4xf32> loc(#loc71)
    %32 = math.absf %29 : tensor<4xf32> loc(#loc31)
    %33 = arith.subf %cst_0, %32 : tensor<4xf32> loc(#loc32)
    %34 = math.exp %33 : tensor<4xf32> loc(#loc33)
    %35 = tt.extern_elementwise %34 {libname = "", libpath = "", pure = true, symbol = "__nv_log1pf"} : (tensor<4xf32>) -> tensor<4xf32> loc(#loc34)
    %36 = arith.subf %31, %35 : tensor<4xf32> loc(#loc35)
    %37 = arith.subf %cst_0, %15 : tensor<4xf32> loc(#loc36)
    %38 = arith.cmpf olt, %cst_0, %37 : tensor<4xf32> loc(#loc72)
    %39 = arith.select %38, %cst_0, %37 : tensor<4xi1>, tensor<4xf32> loc(#loc73)
    %40 = math.absf %37 : tensor<4xf32> loc(#loc38)
    %41 = arith.subf %cst_0, %40 : tensor<4xf32> loc(#loc39)
    %42 = math.exp %41 : tensor<4xf32> loc(#loc40)
    %43 = tt.extern_elementwise %42 {libname = "", libpath = "", pure = true, symbol = "__nv_log1pf"} : (tensor<4xf32>) -> tensor<4xf32> loc(#loc41)
    %44 = arith.subf %39, %43 : tensor<4xf32> loc(#loc42)
    %45 = arith.addf %36, %44 : tensor<4xf32> loc(#loc43)
    %46 = arith.subf %cst_0, %18 : tensor<4xf32> loc(#loc44)
    %47 = arith.cmpf olt, %cst_0, %46 : tensor<4xf32> loc(#loc74)
    %48 = arith.select %47, %cst_0, %46 : tensor<4xi1>, tensor<4xf32> loc(#loc75)
    %49 = math.absf %46 : tensor<4xf32> loc(#loc46)
    %50 = arith.subf %cst_0, %49 : tensor<4xf32> loc(#loc47)
    %51 = math.exp %50 : tensor<4xf32> loc(#loc48)
    %52 = tt.extern_elementwise %51 {libname = "", libpath = "", pure = true, symbol = "__nv_log1pf"} : (tensor<4xf32>) -> tensor<4xf32> loc(#loc49)
    %53 = arith.subf %48, %52 : tensor<4xf32> loc(#loc50)
    %54 = arith.addf %45, %53 : tensor<4xf32> loc(#loc51)
    %55 = arith.subf %cst_0, %21 : tensor<4xf32> loc(#loc52)
    %56 = arith.cmpf olt, %cst_0, %55 : tensor<4xf32> loc(#loc76)
    %57 = arith.select %56, %cst_0, %55 : tensor<4xi1>, tensor<4xf32> loc(#loc77)
    %58 = math.absf %55 : tensor<4xf32> loc(#loc54)
    %59 = arith.subf %cst_0, %58 : tensor<4xf32> loc(#loc55)
    %60 = math.exp %59 : tensor<4xf32> loc(#loc56)
    %61 = tt.extern_elementwise %60 {libname = "", libpath = "", pure = true, symbol = "__nv_log1pf"} : (tensor<4xf32>) -> tensor<4xf32> loc(#loc57)
    %62 = arith.subf %57, %61 : tensor<4xf32> loc(#loc58)
    %63 = arith.addf %54, %62 : tensor<4xf32> loc(#loc59)
    %64 = arith.divf %63, %cst : tensor<4xf32> loc(#loc60)
    %65 = arith.addf %28, %64 : tensor<4xf32> loc(#loc61)
    tt.store %7, %28, %5 : tensor<4x!tt.ptr<f32>> loc(#loc62)
    %66 = tt.splat %arg2 : !tt.ptr<f32> -> tensor<4x!tt.ptr<f32>> loc(#loc63)
    %67 = tt.addptr %66, %4 : tensor<4x!tt.ptr<f32>>, tensor<4xi32> loc(#loc63)
    tt.store %67, %64, %5 : tensor<4x!tt.ptr<f32>> loc(#loc64)
    %68 = tt.splat %arg3 : !tt.ptr<f32> -> tensor<4x!tt.ptr<f32>> loc(#loc65)
    %69 = tt.addptr %68, %4 : tensor<4x!tt.ptr<f32>>, tensor<4xi32> loc(#loc65)
    tt.store %69, %65, %5 : tensor<4x!tt.ptr<f32>> loc(#loc66)
    tt.return loc(#loc67)
  } loc(#loc)
} loc(#loc)
#loc1 = loc(unknown)
#loc2 = loc("inductor_cache/yd/cydavr7o37sj42ljox7ft2nfqs2gmmpw3xwabakkxfs6jw6fw2l6.py":21:28)
#loc3 = loc("inductor_cache/yd/cydavr7o37sj42ljox7ft2nfqs2gmmpw3xwabakkxfs6jw6fw2l6.py":21:33)
#loc4 = loc("inductor_cache/yd/cydavr7o37sj42ljox7ft2nfqs2gmmpw3xwabakkxfs6jw6fw2l6.py":22:36)
#loc5 = loc("inductor_cache/yd/cydavr7o37sj42ljox7ft2nfqs2gmmpw3xwabakkxfs6jw6fw2l6.py":22:23)
#loc6 = loc("inductor_cache/yd/cydavr7o37sj42ljox7ft2nfqs2gmmpw3xwabakkxfs6jw6fw2l6.py":23:21)
#loc7 = loc("inductor_cache/yd/cydavr7o37sj42ljox7ft2nfqs2gmmpw3xwabakkxfs6jw6fw2l6.py":25:34)
#loc8 = loc("inductor_cache/yd/cydavr7o37sj42ljox7ft2nfqs2gmmpw3xwabakkxfs6jw6fw2l6.py":25:39)
#loc9 = loc("inductor_cache/yd/cydavr7o37sj42ljox7ft2nfqs2gmmpw3xwabakkxfs6jw6fw2l6.py":26:33)
#loc10 = loc("inductor_cache/yd/cydavr7o37sj42ljox7ft2nfqs2gmmpw3xwabakkxfs6jw6fw2l6.py":26:31)
#loc11 = loc("inductor_cache/yd/cydavr7o37sj42ljox7ft2nfqs2gmmpw3xwabakkxfs6jw6fw2l6.py":26:38)
#loc12 = loc("inductor_cache/yd/cydavr7o37sj42ljox7ft2nfqs2gmmpw3xwabakkxfs6jw6fw2l6.py":27:35)
#loc13 = loc("inductor_cache/yd/cydavr7o37sj42ljox7ft2nfqs2gmmpw3xwabakkxfs6jw6fw2l6.py":27:31)
#loc14 = loc("inductor_cache/yd/cydavr7o37sj42ljox7ft2nfqs2gmmpw3xwabakkxfs6jw6fw2l6.py":27:42)
#loc15 = loc("inductor_cache/yd/cydavr7o37sj42ljox7ft2nfqs2gmmpw3xwabakkxfs6jw6fw2l6.py":28:35)
#loc16 = loc("inductor_cache/yd/cydavr7o37sj42ljox7ft2nfqs2gmmpw3xwabakkxfs6jw6fw2l6.py":28:31)
#loc17 = loc("inductor_cache/yd/cydavr7o37sj42ljox7ft2nfqs2gmmpw3xwabakkxfs6jw6fw2l6.py":28:42)
#loc18 = loc("inductor_cache/yd/cydavr7o37sj42ljox7ft2nfqs2gmmpw3xwabakkxfs6jw6fw2l6.py":29:35)
#loc19 = loc("inductor_cache/yd/cydavr7o37sj42ljox7ft2nfqs2gmmpw3xwabakkxfs6jw6fw2l6.py":29:31)
#loc20 = loc("inductor_cache/yd/cydavr7o37sj42ljox7ft2nfqs2gmmpw3xwabakkxfs6jw6fw2l6.py":29:42)
#loc21 = loc("/home/sahanp/.conda/envs/parity-bench/lib/python3.12/site-packages/torch/_inductor/runtime/triton_helpers.py":110:15)
#loc22 = loc("inductor_cache/yd/cydavr7o37sj42ljox7ft2nfqs2gmmpw3xwabakkxfs6jw6fw2l6.py":33:40)
#loc23 = loc("/home/sahanp/.conda/envs/parity-bench/lib/python3.12/site-packages/torch/_inductor/runtime/triton_helpers.py":113:29)
#loc24 = loc("inductor_cache/yd/cydavr7o37sj42ljox7ft2nfqs2gmmpw3xwabakkxfs6jw6fw2l6.py":34:23)
#loc25 = loc("inductor_cache/yd/cydavr7o37sj42ljox7ft2nfqs2gmmpw3xwabakkxfs6jw6fw2l6.py":35:12)
#loc26 = loc("inductor_cache/yd/cydavr7o37sj42ljox7ft2nfqs2gmmpw3xwabakkxfs6jw6fw2l6.py":36:23)
#loc27 = loc("inductor_cache/yd/cydavr7o37sj42ljox7ft2nfqs2gmmpw3xwabakkxfs6jw6fw2l6.py":37:27)
#loc28 = loc("inductor_cache/yd/cydavr7o37sj42ljox7ft2nfqs2gmmpw3xwabakkxfs6jw6fw2l6.py":38:18)
#loc29 = loc("inductor_cache/yd/cydavr7o37sj42ljox7ft2nfqs2gmmpw3xwabakkxfs6jw6fw2l6.py":40:13)
#loc30 = loc("inductor_cache/yd/cydavr7o37sj42ljox7ft2nfqs2gmmpw3xwabakkxfs6jw6fw2l6.py":41:41)
#loc31 = loc("inductor_cache/yd/cydavr7o37sj42ljox7ft2nfqs2gmmpw3xwabakkxfs6jw6fw2l6.py":42:24)
#loc32 = loc("inductor_cache/yd/cydavr7o37sj42ljox7ft2nfqs2gmmpw3xwabakkxfs6jw6fw2l6.py":43:13)
#loc33 = loc("inductor_cache/yd/cydavr7o37sj42ljox7ft2nfqs2gmmpw3xwabakkxfs6jw6fw2l6.py":44:24)
#loc34 = loc("inductor_cache/yd/cydavr7o37sj42ljox7ft2nfqs2gmmpw3xwabakkxfs6jw6fw2l6.py":45:28)
#loc35 = loc("inductor_cache/yd/cydavr7o37sj42ljox7ft2nfqs2gmmpw3xwabakkxfs6jw6fw2l6.py":46:20)
#loc36 = loc("inductor_cache/yd/cydavr7o37sj42ljox7ft2nfqs2gmmpw3xwabakkxfs6jw6fw2l6.py":48:13)
#loc37 = loc("inductor_cache/yd/cydavr7o37sj42ljox7ft2nfqs2gmmpw3xwabakkxfs6jw6fw2l6.py":49:41)
#loc38 = loc("inductor_cache/yd/cydavr7o37sj42ljox7ft2nfqs2gmmpw3xwabakkxfs6jw6fw2l6.py":50:24)
#loc39 = loc("inductor_cache/yd/cydavr7o37sj42ljox7ft2nfqs2gmmpw3xwabakkxfs6jw6fw2l6.py":51:13)
#loc40 = loc("inductor_cache/yd/cydavr7o37sj42ljox7ft2nfqs2gmmpw3xwabakkxfs6jw6fw2l6.py":52:24)
#loc41 = loc("inductor_cache/yd/cydavr7o37sj42ljox7ft2nfqs2gmmpw3xwabakkxfs6jw6fw2l6.py":53:28)
#loc42 = loc("inductor_cache/yd/cydavr7o37sj42ljox7ft2nfqs2gmmpw3xwabakkxfs6jw6fw2l6.py":54:20)
#loc43 = loc("inductor_cache/yd/cydavr7o37sj42ljox7ft2nfqs2gmmpw3xwabakkxfs6jw6fw2l6.py":55:20)
#loc44 = loc("inductor_cache/yd/cydavr7o37sj42ljox7ft2nfqs2gmmpw3xwabakkxfs6jw6fw2l6.py":57:13)
#loc45 = loc("inductor_cache/yd/cydavr7o37sj42ljox7ft2nfqs2gmmpw3xwabakkxfs6jw6fw2l6.py":58:41)
#loc46 = loc("inductor_cache/yd/cydavr7o37sj42ljox7ft2nfqs2gmmpw3xwabakkxfs6jw6fw2l6.py":59:24)
#loc47 = loc("inductor_cache/yd/cydavr7o37sj42ljox7ft2nfqs2gmmpw3xwabakkxfs6jw6fw2l6.py":60:13)
#loc48 = loc("inductor_cache/yd/cydavr7o37sj42ljox7ft2nfqs2gmmpw3xwabakkxfs6jw6fw2l6.py":61:24)
#loc49 = loc("inductor_cache/yd/cydavr7o37sj42ljox7ft2nfqs2gmmpw3xwabakkxfs6jw6fw2l6.py":62:28)
#loc50 = loc("inductor_cache/yd/cydavr7o37sj42ljox7ft2nfqs2gmmpw3xwabakkxfs6jw6fw2l6.py":63:20)
#loc51 = loc("inductor_cache/yd/cydavr7o37sj42ljox7ft2nfqs2gmmpw3xwabakkxfs6jw6fw2l6.py":64:20)
#loc52 = loc("inductor_cache/yd/cydavr7o37sj42ljox7ft2nfqs2gmmpw3xwabakkxfs6jw6fw2l6.py":66:13)
#loc53 = loc("inductor_cache/yd/cydavr7o37sj42ljox7ft2nfqs2gmmpw3xwabakkxfs6jw6fw2l6.py":67:41)
#loc54 = loc("inductor_cache/yd/cydavr7o37sj42ljox7ft2nfqs2gmmpw3xwabakkxfs6jw6fw2l6.py":68:24)
#loc55 = loc("inductor_cache/yd/cydavr7o37sj42ljox7ft2nfqs2gmmpw3xwabakkxfs6jw6fw2l6.py":69:13)
#loc56 = loc("inductor_cache/yd/cydavr7o37sj42ljox7ft2nfqs2gmmpw3xwabakkxfs6jw6fw2l6.py":70:24)
#loc57 = loc("inductor_cache/yd/cydavr7o37sj42ljox7ft2nfqs2gmmpw3xwabakkxfs6jw6fw2l6.py":71:28)
#loc58 = loc("inductor_cache/yd/cydavr7o37sj42ljox7ft2nfqs2gmmpw3xwabakkxfs6jw6fw2l6.py":72:20)
#loc59 = loc("inductor_cache/yd/cydavr7o37sj42ljox7ft2nfqs2gmmpw3xwabakkxfs6jw6fw2l6.py":73:20)
#loc60 = loc("inductor_cache/yd/cydavr7o37sj42ljox7ft2nfqs2gmmpw3xwabakkxfs6jw6fw2l6.py":75:20)
#loc61 = loc("inductor_cache/yd/cydavr7o37sj42ljox7ft2nfqs2gmmpw3xwabakkxfs6jw6fw2l6.py":77:19)
#loc62 = loc("inductor_cache/yd/cydavr7o37sj42ljox7ft2nfqs2gmmpw3xwabakkxfs6jw6fw2l6.py":78:39)
#loc63 = loc("inductor_cache/yd/cydavr7o37sj42ljox7ft2nfqs2gmmpw3xwabakkxfs6jw6fw2l6.py":79:25)
#loc64 = loc("inductor_cache/yd/cydavr7o37sj42ljox7ft2nfqs2gmmpw3xwabakkxfs6jw6fw2l6.py":79:37)
#loc65 = loc("inductor_cache/yd/cydavr7o37sj42ljox7ft2nfqs2gmmpw3xwabakkxfs6jw6fw2l6.py":80:25)
#loc66 = loc("inductor_cache/yd/cydavr7o37sj42ljox7ft2nfqs2gmmpw3xwabakkxfs6jw6fw2l6.py":80:37)
#loc67 = loc("inductor_cache/yd/cydavr7o37sj42ljox7ft2nfqs2gmmpw3xwabakkxfs6jw6fw2l6.py":80:4)
#loc68 = loc(callsite(#loc21 at #loc22))
#loc69 = loc(callsite(#loc23 at #loc22))
#loc70 = loc(callsite(#loc21 at #loc30))
#loc71 = loc(callsite(#loc23 at #loc30))
#loc72 = loc(callsite(#loc21 at #loc37))
#loc73 = loc(callsite(#loc23 at #loc37))
#loc74 = loc(callsite(#loc21 at #loc45))
#loc75 = loc(callsite(#loc23 at #loc45))
#loc76 = loc(callsite(#loc21 at #loc53))
#loc77 = loc(callsite(#loc23 at #loc53))
