#loc = loc("inductor_cache/ou/couwg3uuh4uhnlatnknhithojdi2mx5n6tz53226fyrp4url7qrj.py":19:0)
#loc1 = loc(unknown)
#loc38 = loc("inductor_cache/ou/couwg3uuh4uhnlatnknhithojdi2mx5n6tz53226fyrp4url7qrj.py":52:26)
#loc51 = loc(callsite(#loc1 at #loc38))
module {
  tt.func public @triton_per_fused__native_batch_norm_legit_no_training_mean_mul_sigmoid_0(%arg0: !tt.ptr<f32> {tt.divisibility = 16 : i32} loc("inductor_cache/ou/couwg3uuh4uhnlatnknhithojdi2mx5n6tz53226fyrp4url7qrj.py":19:0), %arg1: !tt.ptr<f32> {tt.divisibility = 16 : i32} loc("inductor_cache/ou/couwg3uuh4uhnlatnknhithojdi2mx5n6tz53226fyrp4url7qrj.py":19:0), %arg2: !tt.ptr<f32> {tt.divisibility = 16 : i32} loc("inductor_cache/ou/couwg3uuh4uhnlatnknhithojdi2mx5n6tz53226fyrp4url7qrj.py":19:0), %arg3: !tt.ptr<f32> {tt.divisibility = 16 : i32} loc("inductor_cache/ou/couwg3uuh4uhnlatnknhithojdi2mx5n6tz53226fyrp4url7qrj.py":19:0), %arg4: !tt.ptr<f32> {tt.divisibility = 16 : i32} loc("inductor_cache/ou/couwg3uuh4uhnlatnknhithojdi2mx5n6tz53226fyrp4url7qrj.py":19:0), %arg5: !tt.ptr<f32> {tt.divisibility = 16 : i32} loc("inductor_cache/ou/couwg3uuh4uhnlatnknhithojdi2mx5n6tz53226fyrp4url7qrj.py":19:0), %arg6: i32 {tt.divisibility = 16 : i32} loc("inductor_cache/ou/couwg3uuh4uhnlatnknhithojdi2mx5n6tz53226fyrp4url7qrj.py":19:0), %arg7: i32 {tt.divisibility = 16 : i32} loc("inductor_cache/ou/couwg3uuh4uhnlatnknhithojdi2mx5n6tz53226fyrp4url7qrj.py":19:0)) attributes {noinline = false} {
    %cst = arith.constant dense<1.000000e+00> : tensor<8x16xf32> loc(#loc1)
    %cst_0 = arith.constant dense<1.000000e+00> : tensor<8x1xf32> loc(#loc1)
    %cst_1 = arith.constant dense<1.600000e+01> : tensor<8x1xf32> loc(#loc1)
    %cst_2 = arith.constant dense<9.99999974E-6> : tensor<8x1xf32> loc(#loc1)
    %cst_3 = arith.constant dense<0.000000e+00> : tensor<8x16xf32> loc(#loc1)
    %cst_4 = arith.constant dense<4> : tensor<8x1xi32> loc(#loc1)
    %cst_5 = arith.constant dense<16> : tensor<8x1xi32> loc(#loc1)
    %c8_i32 = arith.constant 8 : i32 loc(#loc1)
    %0 = tt.get_program_id x : i32 loc(#loc2)
    %1 = arith.muli %0, %c8_i32 : i32 loc(#loc3)
    %2 = tt.make_range {end = 8 : i32, start = 0 : i32} : tensor<8xi32> loc(#loc4)
    %3 = tt.expand_dims %2 {axis = 1 : i32} : tensor<8xi32> -> tensor<8x1xi32> loc(#loc5)
    %4 = tt.splat %1 : i32 -> tensor<8x1xi32> loc(#loc6)
    %5 = arith.addi %4, %3 : tensor<8x1xi32> loc(#loc6)
    %6 = arith.cmpi slt, %5, %cst_5 : tensor<8x1xi32> loc(#loc7)
    %7 = tt.make_range {end = 16 : i32, start = 0 : i32} : tensor<16xi32> loc(#loc8)
    %8 = tt.expand_dims %7 {axis = 0 : i32} : tensor<16xi32> -> tensor<1x16xi32> loc(#loc9)
    %9 = arith.remsi %5, %cst_4 : tensor<8x1xi32> loc(#loc10)
    %10 = arith.muli %5, %cst_5 : tensor<8x1xi32> loc(#loc11)
    %11 = tt.broadcast %8 : tensor<1x16xi32> -> tensor<8x16xi32> loc(#loc12)
    %12 = tt.broadcast %10 : tensor<8x1xi32> -> tensor<8x16xi32> loc(#loc12)
    %13 = arith.addi %11, %12 : tensor<8x16xi32> loc(#loc12)
    %14 = tt.splat %arg1 : !tt.ptr<f32> -> tensor<8x16x!tt.ptr<f32>> loc(#loc13)
    %15 = tt.addptr %14, %13 : tensor<8x16x!tt.ptr<f32>>, tensor<8x16xi32> loc(#loc13)
    %16 = tt.broadcast %6 : tensor<8x1xi1> -> tensor<8x16xi1> loc(#loc14)
    %17 = tt.load %15, %16, %cst_3 : tensor<8x16x!tt.ptr<f32>> loc(#loc14)
    %18 = tt.splat %arg2 : !tt.ptr<f32> -> tensor<8x1x!tt.ptr<f32>> loc(#loc15)
    %19 = tt.addptr %18, %9 : tensor<8x1x!tt.ptr<f32>>, tensor<8x1xi32> loc(#loc15)
    %20 = tt.load %19, %6 evictionPolicy = evict_last : tensor<8x1x!tt.ptr<f32>> loc(#loc16)
    %21 = tt.splat %arg3 : !tt.ptr<f32> -> tensor<8x1x!tt.ptr<f32>> loc(#loc17)
    %22 = tt.addptr %21, %9 : tensor<8x1x!tt.ptr<f32>>, tensor<8x1xi32> loc(#loc17)
    %23 = tt.load %22, %6 evictionPolicy = evict_last : tensor<8x1x!tt.ptr<f32>> loc(#loc18)
    %24 = tt.splat %arg4 : !tt.ptr<f32> -> tensor<8x1x!tt.ptr<f32>> loc(#loc19)
    %25 = tt.addptr %24, %9 : tensor<8x1x!tt.ptr<f32>>, tensor<8x1xi32> loc(#loc19)
    %26 = tt.load %25, %6 evictionPolicy = evict_last : tensor<8x1x!tt.ptr<f32>> loc(#loc20)
    %27 = tt.splat %arg5 : !tt.ptr<f32> -> tensor<8x1x!tt.ptr<f32>> loc(#loc21)
    %28 = tt.addptr %27, %9 : tensor<8x1x!tt.ptr<f32>>, tensor<8x1xi32> loc(#loc21)
    %29 = tt.load %28, %6 evictionPolicy = evict_last : tensor<8x1x!tt.ptr<f32>> loc(#loc22)
    %30 = tt.broadcast %20 : tensor<8x1xf32> -> tensor<8x16xf32> loc(#loc23)
    %31 = arith.subf %17, %30 : tensor<8x16xf32> loc(#loc23)
    %32 = arith.addf %23, %cst_2 : tensor<8x1xf32> loc(#loc24)
    %33 = tt.extern_elementwise %32 {libname = "", libpath = "", pure = true, symbol = "__nv_sqrtf"} : (tensor<8x1xf32>) -> tensor<8x1xf32> loc(#loc25)
    %34 = arith.divf %cst_0, %33 : tensor<8x1xf32> loc(#loc26)
    %35 = tt.broadcast %34 : tensor<8x1xf32> -> tensor<8x16xf32> loc(#loc27)
    %36 = arith.mulf %31, %35 : tensor<8x16xf32> loc(#loc27)
    %37 = tt.broadcast %26 : tensor<8x1xf32> -> tensor<8x16xf32> loc(#loc28)
    %38 = arith.mulf %36, %37 : tensor<8x16xf32> loc(#loc28)
    %39 = tt.broadcast %29 : tensor<8x1xf32> -> tensor<8x16xf32> loc(#loc29)
    %40 = arith.addf %38, %39 : tensor<8x16xf32> loc(#loc29)
    %41 = arith.subf %cst_3, %40 : tensor<8x16xf32> loc(#loc46)
    %42 = math.exp %41 : tensor<8x16xf32> loc(#loc47)
    %43 = arith.addf %42, %cst : tensor<8x16xf32> loc(#loc48)
    %44 = arith.divf %cst, %43 : tensor<8x16xf32> loc(#loc49)
    %45 = arith.mulf %40, %44 : tensor<8x16xf32> loc(#loc35)
    %46 = arith.select %16, %45, %cst_3 : tensor<8x16xi1>, tensor<8x16xf32> loc(#loc36)
    %47 = "tt.reduce"(%46) <{axis = 1 : i32}> ({
    ^bb0(%arg8: f32 loc(callsite(#loc1 at #loc38)), %arg9: f32 loc(callsite(#loc1 at #loc38))):
      %52 = arith.addf %arg8, %arg9 : f32 loc(#loc53)
      tt.reduce.return %52 : f32 loc(#loc50)
    }) : (tensor<8x16xf32>) -> tensor<8xf32> loc(#loc50)
    %48 = tt.expand_dims %47 {axis = 1 : i32} : tensor<8xf32> -> tensor<8x1xf32> loc(#loc40)
    %49 = arith.divf %48, %cst_1 : tensor<8x1xf32> loc(#loc41)
    gpu.barrier loc(#loc42)
    %50 = tt.splat %arg0 : !tt.ptr<f32> -> tensor<8x1x!tt.ptr<f32>> loc(#loc43)
    %51 = tt.addptr %50, %5 : tensor<8x1x!tt.ptr<f32>>, tensor<8x1xi32> loc(#loc43)
    tt.store %51, %49, %6 : tensor<8x1x!tt.ptr<f32>> loc(#loc44)
    tt.return loc(#loc45)
  } loc(#loc)
} loc(#loc)
#loc2 = loc("inductor_cache/ou/couwg3uuh4uhnlatnknhithojdi2mx5n6tz53226fyrp4url7qrj.py":23:28)
#loc3 = loc("inductor_cache/ou/couwg3uuh4uhnlatnknhithojdi2mx5n6tz53226fyrp4url7qrj.py":23:33)
#loc4 = loc("inductor_cache/ou/couwg3uuh4uhnlatnknhithojdi2mx5n6tz53226fyrp4url7qrj.py":24:36)
#loc5 = loc("inductor_cache/ou/couwg3uuh4uhnlatnknhithojdi2mx5n6tz53226fyrp4url7qrj.py":24:44)
#loc6 = loc("inductor_cache/ou/couwg3uuh4uhnlatnknhithojdi2mx5n6tz53226fyrp4url7qrj.py":24:23)
#loc7 = loc("inductor_cache/ou/couwg3uuh4uhnlatnknhithojdi2mx5n6tz53226fyrp4url7qrj.py":25:21)
#loc8 = loc("inductor_cache/ou/couwg3uuh4uhnlatnknhithojdi2mx5n6tz53226fyrp4url7qrj.py":26:26)
#loc9 = loc("inductor_cache/ou/couwg3uuh4uhnlatnknhithojdi2mx5n6tz53226fyrp4url7qrj.py":26:34)
#loc10 = loc("inductor_cache/ou/couwg3uuh4uhnlatnknhithojdi2mx5n6tz53226fyrp4url7qrj.py":31:19)
#loc11 = loc("inductor_cache/ou/couwg3uuh4uhnlatnknhithojdi2mx5n6tz53226fyrp4url7qrj.py":32:38)
#loc12 = loc("inductor_cache/ou/couwg3uuh4uhnlatnknhithojdi2mx5n6tz53226fyrp4url7qrj.py":32:35)
#loc13 = loc("inductor_cache/ou/couwg3uuh4uhnlatnknhithojdi2mx5n6tz53226fyrp4url7qrj.py":32:30)
#loc14 = loc("inductor_cache/ou/couwg3uuh4uhnlatnknhithojdi2mx5n6tz53226fyrp4url7qrj.py":32:43)
#loc15 = loc("inductor_cache/ou/couwg3uuh4uhnlatnknhithojdi2mx5n6tz53226fyrp4url7qrj.py":33:30)
#loc16 = loc("inductor_cache/ou/couwg3uuh4uhnlatnknhithojdi2mx5n6tz53226fyrp4url7qrj.py":33:35)
#loc17 = loc("inductor_cache/ou/couwg3uuh4uhnlatnknhithojdi2mx5n6tz53226fyrp4url7qrj.py":34:30)
#loc18 = loc("inductor_cache/ou/couwg3uuh4uhnlatnknhithojdi2mx5n6tz53226fyrp4url7qrj.py":34:35)
#loc19 = loc("inductor_cache/ou/couwg3uuh4uhnlatnknhithojdi2mx5n6tz53226fyrp4url7qrj.py":35:31)
#loc20 = loc("inductor_cache/ou/couwg3uuh4uhnlatnknhithojdi2mx5n6tz53226fyrp4url7qrj.py":35:36)
#loc21 = loc("inductor_cache/ou/couwg3uuh4uhnlatnknhithojdi2mx5n6tz53226fyrp4url7qrj.py":36:31)
#loc22 = loc("inductor_cache/ou/couwg3uuh4uhnlatnknhithojdi2mx5n6tz53226fyrp4url7qrj.py":36:36)
#loc23 = loc("inductor_cache/ou/couwg3uuh4uhnlatnknhithojdi2mx5n6tz53226fyrp4url7qrj.py":37:18)
#loc24 = loc("inductor_cache/ou/couwg3uuh4uhnlatnknhithojdi2mx5n6tz53226fyrp4url7qrj.py":39:18)
#loc25 = loc("inductor_cache/ou/couwg3uuh4uhnlatnknhithojdi2mx5n6tz53226fyrp4url7qrj.py":40:26)
#loc26 = loc("inductor_cache/ou/couwg3uuh4uhnlatnknhithojdi2mx5n6tz53226fyrp4url7qrj.py":42:18)
#loc27 = loc("inductor_cache/ou/couwg3uuh4uhnlatnknhithojdi2mx5n6tz53226fyrp4url7qrj.py":45:19)
#loc28 = loc("inductor_cache/ou/couwg3uuh4uhnlatnknhithojdi2mx5n6tz53226fyrp4url7qrj.py":46:20)
#loc29 = loc("inductor_cache/ou/couwg3uuh4uhnlatnknhithojdi2mx5n6tz53226fyrp4url7qrj.py":47:20)
#loc30 = loc("/home/sahanp/.conda/envs/parity-bench/lib/python3.12/site-packages/triton/language/standard.py":47:30)
#loc31 = loc("inductor_cache/ou/couwg3uuh4uhnlatnknhithojdi2mx5n6tz53226fyrp4url7qrj.py":48:23)
#loc32 = loc("/home/sahanp/.conda/envs/parity-bench/lib/python3.12/site-packages/triton/language/standard.py":47:29)
#loc33 = loc("/home/sahanp/.conda/envs/parity-bench/lib/python3.12/site-packages/triton/language/standard.py":47:20)
#loc34 = loc("/home/sahanp/.conda/envs/parity-bench/lib/python3.12/site-packages/triton/language/standard.py":47:16)
#loc35 = loc("inductor_cache/ou/couwg3uuh4uhnlatnknhithojdi2mx5n6tz53226fyrp4url7qrj.py":49:20)
#loc36 = loc("inductor_cache/ou/couwg3uuh4uhnlatnknhithojdi2mx5n6tz53226fyrp4url7qrj.py":51:35)
#loc37 = loc("/home/sahanp/.conda/envs/parity-bench/lib/python3.12/site-packages/triton/language/standard.py":267:36)
#loc39 = loc("/home/sahanp/.conda/envs/parity-bench/lib/python3.12/site-packages/triton/language/standard.py":256:15)
#loc40 = loc("inductor_cache/ou/couwg3uuh4uhnlatnknhithojdi2mx5n6tz53226fyrp4url7qrj.py":52:29)
#loc41 = loc("inductor_cache/ou/couwg3uuh4uhnlatnknhithojdi2mx5n6tz53226fyrp4url7qrj.py":54:20)
#loc42 = loc("inductor_cache/ou/couwg3uuh4uhnlatnknhithojdi2mx5n6tz53226fyrp4url7qrj.py":55:4)
#loc43 = loc("inductor_cache/ou/couwg3uuh4uhnlatnknhithojdi2mx5n6tz53226fyrp4url7qrj.py":56:28)
#loc44 = loc("inductor_cache/ou/couwg3uuh4uhnlatnknhithojdi2mx5n6tz53226fyrp4url7qrj.py":56:40)
#loc45 = loc("inductor_cache/ou/couwg3uuh4uhnlatnknhithojdi2mx5n6tz53226fyrp4url7qrj.py":56:4)
#loc46 = loc(callsite(#loc30 at #loc31))
#loc47 = loc(callsite(#loc32 at #loc31))
#loc48 = loc(callsite(#loc33 at #loc31))
#loc49 = loc(callsite(#loc34 at #loc31))
#loc50 = loc(callsite(#loc37 at #loc38))
#loc52 = loc(callsite(#loc39 at #loc37))
#loc53 = loc(callsite(#loc52 at #loc38))
