#loc = loc("inductor_cache/hp/chppvivvzofvsj5xc4sbfophi5qi7kgz7ydx5bwm5vbgogsazs3k.py":19:0)
module {
  tt.func public @triton_poi_fused_add_mul_relu_rsub_sigmoid_threshold_backward_0(%arg0: !tt.ptr<f32> {tt.divisibility = 16 : i32} loc("inductor_cache/hp/chppvivvzofvsj5xc4sbfophi5qi7kgz7ydx5bwm5vbgogsazs3k.py":19:0), %arg1: !tt.ptr<f32> {tt.divisibility = 16 : i32} loc("inductor_cache/hp/chppvivvzofvsj5xc4sbfophi5qi7kgz7ydx5bwm5vbgogsazs3k.py":19:0), %arg2: !tt.ptr<f32> {tt.divisibility = 16 : i32} loc("inductor_cache/hp/chppvivvzofvsj5xc4sbfophi5qi7kgz7ydx5bwm5vbgogsazs3k.py":19:0), %arg3: !tt.ptr<f32> {tt.divisibility = 16 : i32} loc("inductor_cache/hp/chppvivvzofvsj5xc4sbfophi5qi7kgz7ydx5bwm5vbgogsazs3k.py":19:0), %arg4: !tt.ptr<f32> {tt.divisibility = 16 : i32} loc("inductor_cache/hp/chppvivvzofvsj5xc4sbfophi5qi7kgz7ydx5bwm5vbgogsazs3k.py":19:0), %arg5: !tt.ptr<i1> {tt.divisibility = 16 : i32} loc("inductor_cache/hp/chppvivvzofvsj5xc4sbfophi5qi7kgz7ydx5bwm5vbgogsazs3k.py":19:0), %arg6: i32 {tt.divisibility = 16 : i32} loc("inductor_cache/hp/chppvivvzofvsj5xc4sbfophi5qi7kgz7ydx5bwm5vbgogsazs3k.py":19:0)) attributes {noinline = false} {
    %cst = arith.constant dense<0.000000e+00> : tensor<128xf32> loc(#loc1)
    %cst_0 = arith.constant dense<1.000000e+00> : tensor<128xf32> loc(#loc1)
    %cst_1 = arith.constant dense<256> : tensor<128xi32> loc(#loc1)
    %c128_i32 = arith.constant 128 : i32 loc(#loc1)
    %0 = tt.get_program_id x : i32 loc(#loc2)
    %1 = arith.muli %0, %c128_i32 : i32 loc(#loc3)
    %2 = tt.make_range {end = 128 : i32, start = 0 : i32} : tensor<128xi32> loc(#loc4)
    %3 = tt.splat %1 : i32 -> tensor<128xi32> loc(#loc5)
    %4 = arith.addi %3, %2 : tensor<128xi32> loc(#loc5)
    %5 = arith.cmpi slt, %4, %cst_1 : tensor<128xi32> loc(#loc6)
    %6 = tt.splat %arg0 : !tt.ptr<f32> -> tensor<128x!tt.ptr<f32>> loc(#loc7)
    %7 = tt.addptr %6, %4 : tensor<128x!tt.ptr<f32>>, tensor<128xi32> loc(#loc7)
    %8 = tt.load %7, %5 : tensor<128x!tt.ptr<f32>> loc(#loc8)
    %9 = tt.splat %arg1 : !tt.ptr<f32> -> tensor<128x!tt.ptr<f32>> loc(#loc9)
    %10 = tt.addptr %9, %4 : tensor<128x!tt.ptr<f32>>, tensor<128xi32> loc(#loc9)
    %11 = tt.load %10, %5 : tensor<128x!tt.ptr<f32>> loc(#loc10)
    %12 = tt.splat %arg2 : !tt.ptr<f32> -> tensor<128x!tt.ptr<f32>> loc(#loc11)
    %13 = tt.addptr %12, %4 : tensor<128x!tt.ptr<f32>>, tensor<128xi32> loc(#loc11)
    %14 = tt.load %13, %5 : tensor<128x!tt.ptr<f32>> loc(#loc12)
    %15 = arith.subf %cst, %8 : tensor<128xf32> loc(#loc33)
    %16 = math.exp %15 : tensor<128xf32> loc(#loc34)
    %17 = arith.addf %16, %cst_0 : tensor<128xf32> loc(#loc35)
    %18 = arith.divf %cst_0, %17 : tensor<128xf32> loc(#loc36)
    %19 = arith.mulf %18, %11 : tensor<128xf32> loc(#loc18)
    %20 = arith.subf %cst_0, %18 : tensor<128xf32> loc(#loc19)
    %21 = arith.mulf %20, %14 : tensor<128xf32> loc(#loc20)
    %22 = arith.addf %19, %21 : tensor<128xf32> loc(#loc21)
    %23 = arith.cmpf ogt, %cst, %22 : tensor<128xf32> loc(#loc37)
    %24 = arith.select %23, %cst, %22 : tensor<128xi1>, tensor<128xf32> loc(#loc38)
    %25 = arith.cmpf ole, %24, %cst : tensor<128xf32> loc(#loc25)
    %26 = tt.splat %arg3 : !tt.ptr<f32> -> tensor<128x!tt.ptr<f32>> loc(#loc26)
    %27 = tt.addptr %26, %4 : tensor<128x!tt.ptr<f32>>, tensor<128xi32> loc(#loc26)
    tt.store %27, %22, %5 : tensor<128x!tt.ptr<f32>> loc(#loc27)
    %28 = tt.splat %arg4 : !tt.ptr<f32> -> tensor<128x!tt.ptr<f32>> loc(#loc28)
    %29 = tt.addptr %28, %4 : tensor<128x!tt.ptr<f32>>, tensor<128xi32> loc(#loc28)
    tt.store %29, %24, %5 : tensor<128x!tt.ptr<f32>> loc(#loc29)
    %30 = tt.splat %arg5 : !tt.ptr<i1> -> tensor<128x!tt.ptr<i1>> loc(#loc30)
    %31 = tt.addptr %30, %4 : tensor<128x!tt.ptr<i1>>, tensor<128xi32> loc(#loc30)
    %32 = tt.bitcast %31 : tensor<128x!tt.ptr<i1>> -> tensor<128x!tt.ptr<i8>> loc(#loc31)
    %33 = arith.extui %25 : tensor<128xi1> to tensor<128xi8> loc(#loc31)
    tt.store %32, %33, %5 : tensor<128x!tt.ptr<i8>> loc(#loc31)
    tt.return loc(#loc32)
  } loc(#loc)
} loc(#loc)
#loc1 = loc(unknown)
#loc2 = loc("inductor_cache/hp/chppvivvzofvsj5xc4sbfophi5qi7kgz7ydx5bwm5vbgogsazs3k.py":21:28)
#loc3 = loc("inductor_cache/hp/chppvivvzofvsj5xc4sbfophi5qi7kgz7ydx5bwm5vbgogsazs3k.py":21:33)
#loc4 = loc("inductor_cache/hp/chppvivvzofvsj5xc4sbfophi5qi7kgz7ydx5bwm5vbgogsazs3k.py":22:36)
#loc5 = loc("inductor_cache/hp/chppvivvzofvsj5xc4sbfophi5qi7kgz7ydx5bwm5vbgogsazs3k.py":22:23)
#loc6 = loc("inductor_cache/hp/chppvivvzofvsj5xc4sbfophi5qi7kgz7ydx5bwm5vbgogsazs3k.py":23:21)
#loc7 = loc("inductor_cache/hp/chppvivvzofvsj5xc4sbfophi5qi7kgz7ydx5bwm5vbgogsazs3k.py":25:30)
#loc8 = loc("inductor_cache/hp/chppvivvzofvsj5xc4sbfophi5qi7kgz7ydx5bwm5vbgogsazs3k.py":25:35)
#loc9 = loc("inductor_cache/hp/chppvivvzofvsj5xc4sbfophi5qi7kgz7ydx5bwm5vbgogsazs3k.py":26:30)
#loc10 = loc("inductor_cache/hp/chppvivvzofvsj5xc4sbfophi5qi7kgz7ydx5bwm5vbgogsazs3k.py":26:35)
#loc11 = loc("inductor_cache/hp/chppvivvzofvsj5xc4sbfophi5qi7kgz7ydx5bwm5vbgogsazs3k.py":27:30)
#loc12 = loc("inductor_cache/hp/chppvivvzofvsj5xc4sbfophi5qi7kgz7ydx5bwm5vbgogsazs3k.py":27:35)
#loc13 = loc("/home/sahanp/.conda/envs/parity-bench/lib/python3.12/site-packages/triton/language/standard.py":47:30)
#loc14 = loc("inductor_cache/hp/chppvivvzofvsj5xc4sbfophi5qi7kgz7ydx5bwm5vbgogsazs3k.py":28:22)
#loc15 = loc("/home/sahanp/.conda/envs/parity-bench/lib/python3.12/site-packages/triton/language/standard.py":47:29)
#loc16 = loc("/home/sahanp/.conda/envs/parity-bench/lib/python3.12/site-packages/triton/language/standard.py":47:20)
#loc17 = loc("/home/sahanp/.conda/envs/parity-bench/lib/python3.12/site-packages/triton/language/standard.py":47:16)
#loc18 = loc("inductor_cache/hp/chppvivvzofvsj5xc4sbfophi5qi7kgz7ydx5bwm5vbgogsazs3k.py":29:18)
#loc19 = loc("inductor_cache/hp/chppvivvzofvsj5xc4sbfophi5qi7kgz7ydx5bwm5vbgogsazs3k.py":31:18)
#loc20 = loc("inductor_cache/hp/chppvivvzofvsj5xc4sbfophi5qi7kgz7ydx5bwm5vbgogsazs3k.py":32:18)
#loc21 = loc("inductor_cache/hp/chppvivvzofvsj5xc4sbfophi5qi7kgz7ydx5bwm5vbgogsazs3k.py":33:18)
#loc22 = loc("/home/sahanp/.conda/envs/parity-bench/lib/python3.12/site-packages/torch/_inductor/runtime/triton_helpers.py":118:15)
#loc23 = loc("inductor_cache/hp/chppvivvzofvsj5xc4sbfophi5qi7kgz7ydx5bwm5vbgogsazs3k.py":35:41)
#loc24 = loc("/home/sahanp/.conda/envs/parity-bench/lib/python3.12/site-packages/torch/_inductor/runtime/triton_helpers.py":121:29)
#loc25 = loc("inductor_cache/hp/chppvivvzofvsj5xc4sbfophi5qi7kgz7ydx5bwm5vbgogsazs3k.py":37:21)
#loc26 = loc("inductor_cache/hp/chppvivvzofvsj5xc4sbfophi5qi7kgz7ydx5bwm5vbgogsazs3k.py":38:25)
#loc27 = loc("inductor_cache/hp/chppvivvzofvsj5xc4sbfophi5qi7kgz7ydx5bwm5vbgogsazs3k.py":38:36)
#loc28 = loc("inductor_cache/hp/chppvivvzofvsj5xc4sbfophi5qi7kgz7ydx5bwm5vbgogsazs3k.py":39:25)
#loc29 = loc("inductor_cache/hp/chppvivvzofvsj5xc4sbfophi5qi7kgz7ydx5bwm5vbgogsazs3k.py":39:37)
#loc30 = loc("inductor_cache/hp/chppvivvzofvsj5xc4sbfophi5qi7kgz7ydx5bwm5vbgogsazs3k.py":40:25)
#loc31 = loc("inductor_cache/hp/chppvivvzofvsj5xc4sbfophi5qi7kgz7ydx5bwm5vbgogsazs3k.py":40:37)
#loc32 = loc("inductor_cache/hp/chppvivvzofvsj5xc4sbfophi5qi7kgz7ydx5bwm5vbgogsazs3k.py":40:4)
#loc33 = loc(callsite(#loc13 at #loc14))
#loc34 = loc(callsite(#loc15 at #loc14))
#loc35 = loc(callsite(#loc16 at #loc14))
#loc36 = loc(callsite(#loc17 at #loc14))
#loc37 = loc(callsite(#loc22 at #loc23))
#loc38 = loc(callsite(#loc24 at #loc23))
