#loc = loc("inductor_cache/im/cimhpsyvcjcry2z6oxiw6jzgndhdqtxv3vvxiutsvltyafnqo5cy.py":19:0)
module {
  tt.func public @triton_poi_fused_add_relu_threshold_backward_11(%arg0: !tt.ptr<f32> {tt.divisibility = 16 : i32} loc("inductor_cache/im/cimhpsyvcjcry2z6oxiw6jzgndhdqtxv3vvxiutsvltyafnqo5cy.py":19:0), %arg1: !tt.ptr<f32> {tt.divisibility = 16 : i32} loc("inductor_cache/im/cimhpsyvcjcry2z6oxiw6jzgndhdqtxv3vvxiutsvltyafnqo5cy.py":19:0), %arg2: !tt.ptr<f32> {tt.divisibility = 16 : i32} loc("inductor_cache/im/cimhpsyvcjcry2z6oxiw6jzgndhdqtxv3vvxiutsvltyafnqo5cy.py":19:0), %arg3: !tt.ptr<i1> {tt.divisibility = 16 : i32} loc("inductor_cache/im/cimhpsyvcjcry2z6oxiw6jzgndhdqtxv3vvxiutsvltyafnqo5cy.py":19:0), %arg4: i32 {tt.divisibility = 16 : i32} loc("inductor_cache/im/cimhpsyvcjcry2z6oxiw6jzgndhdqtxv3vvxiutsvltyafnqo5cy.py":19:0)) attributes {noinline = false} {
    %cst = arith.constant dense<0.000000e+00> : tensor<128xf32> loc(#loc1)
    %c128_i32 = arith.constant 128 : i32 loc(#loc1)
    %0 = tt.get_program_id x : i32 loc(#loc2)
    %1 = arith.muli %0, %c128_i32 : i32 loc(#loc3)
    %2 = tt.make_range {end = 128 : i32, start = 0 : i32} : tensor<128xi32> loc(#loc4)
    %3 = tt.splat %1 : i32 -> tensor<128xi32> loc(#loc5)
    %4 = arith.addi %3, %2 : tensor<128xi32> loc(#loc5)
    %5 = tt.splat %arg0 : !tt.ptr<f32> -> tensor<128x!tt.ptr<f32>> loc(#loc6)
    %6 = tt.addptr %5, %4 : tensor<128x!tt.ptr<f32>>, tensor<128xi32> loc(#loc6)
    %7 = tt.load %6 : tensor<128x!tt.ptr<f32>> loc(#loc7)
    %8 = tt.splat %arg1 : !tt.ptr<f32> -> tensor<128x!tt.ptr<f32>> loc(#loc8)
    %9 = tt.addptr %8, %4 : tensor<128x!tt.ptr<f32>>, tensor<128xi32> loc(#loc8)
    %10 = tt.load %9 : tensor<128x!tt.ptr<f32>> loc(#loc9)
    %11 = tt.splat %arg2 : !tt.ptr<f32> -> tensor<128x!tt.ptr<f32>> loc(#loc10)
    %12 = tt.addptr %11, %4 : tensor<128x!tt.ptr<f32>>, tensor<128xi32> loc(#loc10)
    %13 = tt.load %12 : tensor<128x!tt.ptr<f32>> loc(#loc11)
    %14 = arith.cmpf ogt, %cst, %13 : tensor<128xf32> loc(#loc22)
    %15 = arith.select %14, %cst, %13 : tensor<128xi1>, tensor<128xf32> loc(#loc23)
    %16 = arith.addf %10, %15 : tensor<128xf32> loc(#loc15)
    %17 = arith.addf %7, %16 : tensor<128xf32> loc(#loc16)
    %18 = arith.cmpf ole, %15, %cst : tensor<128xf32> loc(#loc17)
    tt.store %6, %17 : tensor<128x!tt.ptr<f32>> loc(#loc18)
    %19 = tt.splat %arg3 : !tt.ptr<i1> -> tensor<128x!tt.ptr<i1>> loc(#loc19)
    %20 = tt.addptr %19, %4 : tensor<128x!tt.ptr<i1>>, tensor<128xi32> loc(#loc19)
    %21 = tt.bitcast %20 : tensor<128x!tt.ptr<i1>> -> tensor<128x!tt.ptr<i8>> loc(#loc20)
    %22 = arith.extui %18 : tensor<128xi1> to tensor<128xi8> loc(#loc20)
    tt.store %21, %22 : tensor<128x!tt.ptr<i8>> loc(#loc20)
    tt.return loc(#loc21)
  } loc(#loc)
} loc(#loc)
#loc1 = loc(unknown)
#loc2 = loc("inductor_cache/im/cimhpsyvcjcry2z6oxiw6jzgndhdqtxv3vvxiutsvltyafnqo5cy.py":21:28)
#loc3 = loc("inductor_cache/im/cimhpsyvcjcry2z6oxiw6jzgndhdqtxv3vvxiutsvltyafnqo5cy.py":21:33)
#loc4 = loc("inductor_cache/im/cimhpsyvcjcry2z6oxiw6jzgndhdqtxv3vvxiutsvltyafnqo5cy.py":22:36)
#loc5 = loc("inductor_cache/im/cimhpsyvcjcry2z6oxiw6jzgndhdqtxv3vvxiutsvltyafnqo5cy.py":22:23)
#loc6 = loc("inductor_cache/im/cimhpsyvcjcry2z6oxiw6jzgndhdqtxv3vvxiutsvltyafnqo5cy.py":25:34)
#loc7 = loc("inductor_cache/im/cimhpsyvcjcry2z6oxiw6jzgndhdqtxv3vvxiutsvltyafnqo5cy.py":25:39)
#loc8 = loc("inductor_cache/im/cimhpsyvcjcry2z6oxiw6jzgndhdqtxv3vvxiutsvltyafnqo5cy.py":26:30)
#loc9 = loc("inductor_cache/im/cimhpsyvcjcry2z6oxiw6jzgndhdqtxv3vvxiutsvltyafnqo5cy.py":26:35)
#loc10 = loc("inductor_cache/im/cimhpsyvcjcry2z6oxiw6jzgndhdqtxv3vvxiutsvltyafnqo5cy.py":27:30)
#loc11 = loc("inductor_cache/im/cimhpsyvcjcry2z6oxiw6jzgndhdqtxv3vvxiutsvltyafnqo5cy.py":27:35)
#loc12 = loc("/home/sahanp/.conda/envs/parity-bench/lib/python3.12/site-packages/torch/_inductor/runtime/triton_helpers.py":118:15)
#loc13 = loc("inductor_cache/im/cimhpsyvcjcry2z6oxiw6jzgndhdqtxv3vvxiutsvltyafnqo5cy.py":29:40)
#loc14 = loc("/home/sahanp/.conda/envs/parity-bench/lib/python3.12/site-packages/torch/_inductor/runtime/triton_helpers.py":121:29)
#loc15 = loc("inductor_cache/im/cimhpsyvcjcry2z6oxiw6jzgndhdqtxv3vvxiutsvltyafnqo5cy.py":30:18)
#loc16 = loc("inductor_cache/im/cimhpsyvcjcry2z6oxiw6jzgndhdqtxv3vvxiutsvltyafnqo5cy.py":31:18)
#loc17 = loc("inductor_cache/im/cimhpsyvcjcry2z6oxiw6jzgndhdqtxv3vvxiutsvltyafnqo5cy.py":33:19)
#loc18 = loc("inductor_cache/im/cimhpsyvcjcry2z6oxiw6jzgndhdqtxv3vvxiutsvltyafnqo5cy.py":34:39)
#loc19 = loc("inductor_cache/im/cimhpsyvcjcry2z6oxiw6jzgndhdqtxv3vvxiutsvltyafnqo5cy.py":35:25)
#loc20 = loc("inductor_cache/im/cimhpsyvcjcry2z6oxiw6jzgndhdqtxv3vvxiutsvltyafnqo5cy.py":35:36)
#loc21 = loc("inductor_cache/im/cimhpsyvcjcry2z6oxiw6jzgndhdqtxv3vvxiutsvltyafnqo5cy.py":35:4)
#loc22 = loc(callsite(#loc12 at #loc13))
#loc23 = loc(callsite(#loc14 at #loc13))
