#loc = loc("inductor_cache/t2/ct2wx52srkrablzzla2oufdhqhl6kemymppqrgvlyqvffj427afa.py":19:0)
module {
  tt.func public @triton_poi_fused_convolution_hardtanh_hardtanh_backward_2(%arg0: !tt.ptr<f32> {tt.divisibility = 16 : i32} loc("inductor_cache/t2/ct2wx52srkrablzzla2oufdhqhl6kemymppqrgvlyqvffj427afa.py":19:0), %arg1: !tt.ptr<f32> {tt.divisibility = 16 : i32} loc("inductor_cache/t2/ct2wx52srkrablzzla2oufdhqhl6kemymppqrgvlyqvffj427afa.py":19:0), %arg2: !tt.ptr<f32> {tt.divisibility = 16 : i32} loc("inductor_cache/t2/ct2wx52srkrablzzla2oufdhqhl6kemymppqrgvlyqvffj427afa.py":19:0), %arg3: !tt.ptr<i1> {tt.divisibility = 16 : i32} loc("inductor_cache/t2/ct2wx52srkrablzzla2oufdhqhl6kemymppqrgvlyqvffj427afa.py":19:0), %arg4: i32 {tt.divisibility = 16 : i32} loc("inductor_cache/t2/ct2wx52srkrablzzla2oufdhqhl6kemymppqrgvlyqvffj427afa.py":19:0)) attributes {noinline = false} {
    %cst = arith.constant dense<6.000000e+00> : tensor<128xf32> loc(#loc1)
    %cst_0 = arith.constant dense<0.000000e+00> : tensor<128xf32> loc(#loc1)
    %cst_1 = arith.constant dense<4> : tensor<128xi32> loc(#loc1)
    %cst_2 = arith.constant dense<16> : tensor<128xi32> loc(#loc1)
    %cst_3 = arith.constant dense<256> : tensor<128xi32> loc(#loc1)
    %c128_i32 = arith.constant 128 : i32 loc(#loc1)
    %0 = tt.get_program_id x : i32 loc(#loc2)
    %1 = arith.muli %0, %c128_i32 : i32 loc(#loc3)
    %2 = tt.make_range {end = 128 : i32, start = 0 : i32} : tensor<128xi32> loc(#loc4)
    %3 = tt.splat %1 : i32 -> tensor<128xi32> loc(#loc5)
    %4 = arith.addi %3, %2 : tensor<128xi32> loc(#loc5)
    %5 = arith.cmpi slt, %4, %cst_3 : tensor<128xi32> loc(#loc6)
    %6 = arith.divsi %4, %cst_2 : tensor<128xi32> loc(#loc7)
    %7 = arith.remsi %6, %cst_1 : tensor<128xi32> loc(#loc8)
    %8 = tt.splat %arg0 : !tt.ptr<f32> -> tensor<128x!tt.ptr<f32>> loc(#loc9)
    %9 = tt.addptr %8, %4 : tensor<128x!tt.ptr<f32>>, tensor<128xi32> loc(#loc9)
    %10 = tt.load %9, %5 : tensor<128x!tt.ptr<f32>> loc(#loc10)
    %11 = tt.splat %arg1 : !tt.ptr<f32> -> tensor<128x!tt.ptr<f32>> loc(#loc11)
    %12 = tt.addptr %11, %7 : tensor<128x!tt.ptr<f32>>, tensor<128xi32> loc(#loc11)
    %13 = tt.load %12, %5 evictionPolicy = evict_last : tensor<128x!tt.ptr<f32>> loc(#loc12)
    %14 = arith.addf %10, %13 : tensor<128xf32> loc(#loc13)
    %15 = arith.cmpf ogt, %14, %cst_0 : tensor<128xf32> loc(#loc32)
    %16 = arith.cmpf une, %14, %14 : tensor<128xf32> loc(#loc33)
    %17 = arith.ori %15, %16 : tensor<128xi1> loc(#loc34)
    %18 = arith.select %17, %14, %cst_0 : tensor<128xi1>, tensor<128xf32> loc(#loc35)
    %19 = arith.cmpf olt, %18, %cst : tensor<128xf32> loc(#loc36)
    %20 = arith.cmpf une, %18, %18 : tensor<128xf32> loc(#loc37)
    %21 = arith.ori %19, %20 : tensor<128xi1> loc(#loc38)
    %22 = arith.select %21, %18, %cst : tensor<128xi1>, tensor<128xf32> loc(#loc39)
    %23 = arith.cmpf ole, %14, %cst_0 : tensor<128xf32> loc(#loc24)
    %24 = arith.cmpf oge, %14, %cst : tensor<128xf32> loc(#loc25)
    %25 = arith.ori %23, %24 : tensor<128xi1> loc(#loc26)
    %26 = tt.splat %arg2 : !tt.ptr<f32> -> tensor<128x!tt.ptr<f32>> loc(#loc27)
    %27 = tt.addptr %26, %4 : tensor<128x!tt.ptr<f32>>, tensor<128xi32> loc(#loc27)
    tt.store %27, %22, %5 : tensor<128x!tt.ptr<f32>> loc(#loc28)
    %28 = tt.splat %arg3 : !tt.ptr<i1> -> tensor<128x!tt.ptr<i1>> loc(#loc29)
    %29 = tt.addptr %28, %4 : tensor<128x!tt.ptr<i1>>, tensor<128xi32> loc(#loc29)
    %30 = tt.bitcast %29 : tensor<128x!tt.ptr<i1>> -> tensor<128x!tt.ptr<i8>> loc(#loc30)
    %31 = arith.extui %25 : tensor<128xi1> to tensor<128xi8> loc(#loc30)
    tt.store %30, %31, %5 : tensor<128x!tt.ptr<i8>> loc(#loc30)
    tt.return loc(#loc31)
  } loc(#loc)
} loc(#loc)
#loc1 = loc(unknown)
#loc2 = loc("inductor_cache/t2/ct2wx52srkrablzzla2oufdhqhl6kemymppqrgvlyqvffj427afa.py":21:28)
#loc3 = loc("inductor_cache/t2/ct2wx52srkrablzzla2oufdhqhl6kemymppqrgvlyqvffj427afa.py":21:33)
#loc4 = loc("inductor_cache/t2/ct2wx52srkrablzzla2oufdhqhl6kemymppqrgvlyqvffj427afa.py":22:36)
#loc5 = loc("inductor_cache/t2/ct2wx52srkrablzzla2oufdhqhl6kemymppqrgvlyqvffj427afa.py":22:23)
#loc6 = loc("inductor_cache/t2/ct2wx52srkrablzzla2oufdhqhl6kemymppqrgvlyqvffj427afa.py":23:21)
#loc7 = loc("inductor_cache/t2/ct2wx52srkrablzzla2oufdhqhl6kemymppqrgvlyqvffj427afa.py":25:21)
#loc8 = loc("inductor_cache/t2/ct2wx52srkrablzzla2oufdhqhl6kemymppqrgvlyqvffj427afa.py":25:27)
#loc9 = loc("inductor_cache/t2/ct2wx52srkrablzzla2oufdhqhl6kemymppqrgvlyqvffj427afa.py":26:30)
#loc10 = loc("inductor_cache/t2/ct2wx52srkrablzzla2oufdhqhl6kemymppqrgvlyqvffj427afa.py":26:35)
#loc11 = loc("inductor_cache/t2/ct2wx52srkrablzzla2oufdhqhl6kemymppqrgvlyqvffj427afa.py":27:30)
#loc12 = loc("inductor_cache/t2/ct2wx52srkrablzzla2oufdhqhl6kemymppqrgvlyqvffj427afa.py":27:35)
#loc13 = loc("inductor_cache/t2/ct2wx52srkrablzzla2oufdhqhl6kemymppqrgvlyqvffj427afa.py":28:18)
#loc14 = loc("/home/sahanp/.conda/envs/parity-bench/lib/python3.12/site-packages/torch/_inductor/runtime/triton_helpers.py":118:15)
#loc15 = loc("inductor_cache/t2/ct2wx52srkrablzzla2oufdhqhl6kemymppqrgvlyqvffj427afa.py":30:40)
#loc16 = loc("/home/sahanp/.conda/envs/parity-bench/lib/python3.12/site-packages/torch/_inductor/runtime/triton_helpers.py":120:21)
#loc17 = loc("/home/sahanp/.conda/envs/parity-bench/lib/python3.12/site-packages/torch/_inductor/runtime/triton_helpers.py":120:16)
#loc18 = loc("/home/sahanp/.conda/envs/parity-bench/lib/python3.12/site-packages/torch/_inductor/runtime/triton_helpers.py":121:29)
#loc19 = loc("/home/sahanp/.conda/envs/parity-bench/lib/python3.12/site-packages/torch/_inductor/runtime/triton_helpers.py":110:15)
#loc20 = loc("inductor_cache/t2/ct2wx52srkrablzzla2oufdhqhl6kemymppqrgvlyqvffj427afa.py":32:40)
#loc21 = loc("/home/sahanp/.conda/envs/parity-bench/lib/python3.12/site-packages/torch/_inductor/runtime/triton_helpers.py":112:21)
#loc22 = loc("/home/sahanp/.conda/envs/parity-bench/lib/python3.12/site-packages/torch/_inductor/runtime/triton_helpers.py":112:16)
#loc23 = loc("/home/sahanp/.conda/envs/parity-bench/lib/python3.12/site-packages/torch/_inductor/runtime/triton_helpers.py":113:29)
#loc24 = loc("inductor_cache/t2/ct2wx52srkrablzzla2oufdhqhl6kemymppqrgvlyqvffj427afa.py":33:19)
#loc25 = loc("inductor_cache/t2/ct2wx52srkrablzzla2oufdhqhl6kemymppqrgvlyqvffj427afa.py":34:19)
#loc26 = loc("inductor_cache/t2/ct2wx52srkrablzzla2oufdhqhl6kemymppqrgvlyqvffj427afa.py":35:18)
#loc27 = loc("inductor_cache/t2/ct2wx52srkrablzzla2oufdhqhl6kemymppqrgvlyqvffj427afa.py":36:25)
#loc28 = loc("inductor_cache/t2/ct2wx52srkrablzzla2oufdhqhl6kemymppqrgvlyqvffj427afa.py":36:36)
#loc29 = loc("inductor_cache/t2/ct2wx52srkrablzzla2oufdhqhl6kemymppqrgvlyqvffj427afa.py":37:25)
#loc30 = loc("inductor_cache/t2/ct2wx52srkrablzzla2oufdhqhl6kemymppqrgvlyqvffj427afa.py":37:36)
#loc31 = loc("inductor_cache/t2/ct2wx52srkrablzzla2oufdhqhl6kemymppqrgvlyqvffj427afa.py":37:4)
#loc32 = loc(callsite(#loc14 at #loc15))
#loc33 = loc(callsite(#loc16 at #loc15))
#loc34 = loc(callsite(#loc17 at #loc15))
#loc35 = loc(callsite(#loc18 at #loc15))
#loc36 = loc(callsite(#loc19 at #loc20))
#loc37 = loc(callsite(#loc21 at #loc20))
#loc38 = loc(callsite(#loc22 at #loc20))
#loc39 = loc(callsite(#loc23 at #loc20))
