#loc = loc("inductor_cache/nv/cnvvsvbqhhzublohkl2vsw3z7flvbpr6ft6dzhvv7bbifgykblac.py":19:0)
module {
  tt.func public @triton_poi_fused_convolution_mul_relu_threshold_backward_7(%arg0: !tt.ptr<f32> {tt.divisibility = 16 : i32} loc("inductor_cache/nv/cnvvsvbqhhzublohkl2vsw3z7flvbpr6ft6dzhvv7bbifgykblac.py":19:0), %arg1: !tt.ptr<f32> {tt.divisibility = 16 : i32} loc("inductor_cache/nv/cnvvsvbqhhzublohkl2vsw3z7flvbpr6ft6dzhvv7bbifgykblac.py":19:0), %arg2: !tt.ptr<f32> {tt.divisibility = 16 : i32} loc("inductor_cache/nv/cnvvsvbqhhzublohkl2vsw3z7flvbpr6ft6dzhvv7bbifgykblac.py":19:0), %arg3: !tt.ptr<f32> {tt.divisibility = 16 : i32} loc("inductor_cache/nv/cnvvsvbqhhzublohkl2vsw3z7flvbpr6ft6dzhvv7bbifgykblac.py":19:0), %arg4: !tt.ptr<i1> {tt.divisibility = 16 : i32} loc("inductor_cache/nv/cnvvsvbqhhzublohkl2vsw3z7flvbpr6ft6dzhvv7bbifgykblac.py":19:0), %arg5: i32 {tt.divisibility = 16 : i32} loc("inductor_cache/nv/cnvvsvbqhhzublohkl2vsw3z7flvbpr6ft6dzhvv7bbifgykblac.py":19:0)) attributes {noinline = false} {
    %cst = arith.constant dense<0.000000e+00> : tensor<64xf32> loc(#loc1)
    %cst_0 = arith.constant dense<16> : tensor<64xi32> loc(#loc1)
    %cst_1 = arith.constant dense<4> : tensor<64xi32> loc(#loc1)
    %cst_2 = arith.constant dense<64> : tensor<64xi32> loc(#loc1)
    %c64_i32 = arith.constant 64 : i32 loc(#loc1)
    %0 = tt.get_program_id x : i32 loc(#loc2)
    %1 = arith.muli %0, %c64_i32 : i32 loc(#loc3)
    %2 = tt.make_range {end = 64 : i32, start = 0 : i32} : tensor<64xi32> loc(#loc4)
    %3 = tt.splat %1 : i32 -> tensor<64xi32> loc(#loc5)
    %4 = arith.addi %3, %2 : tensor<64xi32> loc(#loc5)
    %5 = arith.cmpi slt, %4, %cst_2 : tensor<64xi32> loc(#loc6)
    %6 = arith.divsi %4, %cst_1 : tensor<64xi32> loc(#loc7)
    %7 = arith.remsi %6, %cst_1 : tensor<64xi32> loc(#loc8)
    %8 = arith.remsi %4, %cst_0 : tensor<64xi32> loc(#loc9)
    %9 = tt.splat %arg0 : !tt.ptr<f32> -> tensor<64x!tt.ptr<f32>> loc(#loc10)
    %10 = tt.addptr %9, %4 : tensor<64x!tt.ptr<f32>>, tensor<64xi32> loc(#loc10)
    %11 = tt.load %10, %5 : tensor<64x!tt.ptr<f32>> loc(#loc11)
    %12 = tt.splat %arg1 : !tt.ptr<f32> -> tensor<64x!tt.ptr<f32>> loc(#loc12)
    %13 = tt.addptr %12, %7 : tensor<64x!tt.ptr<f32>>, tensor<64xi32> loc(#loc12)
    %14 = tt.load %13, %5 evictionPolicy = evict_last : tensor<64x!tt.ptr<f32>> loc(#loc13)
    %15 = tt.splat %arg2 : !tt.ptr<f32> -> tensor<64x!tt.ptr<f32>> loc(#loc14)
    %16 = tt.addptr %15, %8 : tensor<64x!tt.ptr<f32>>, tensor<64xi32> loc(#loc14)
    %17 = tt.load %16, %5 evictionPolicy = evict_last : tensor<64x!tt.ptr<f32>> loc(#loc15)
    %18 = arith.addf %11, %14 : tensor<64xf32> loc(#loc16)
    %19 = arith.cmpf ogt, %cst, %18 : tensor<64xf32> loc(#loc27)
    %20 = arith.select %19, %cst, %18 : tensor<64xi1>, tensor<64xf32> loc(#loc28)
    %21 = arith.mulf %20, %17 : tensor<64xf32> loc(#loc20)
    %22 = arith.cmpf ole, %20, %cst : tensor<64xf32> loc(#loc21)
    %23 = tt.splat %arg3 : !tt.ptr<f32> -> tensor<64x!tt.ptr<f32>> loc(#loc22)
    %24 = tt.addptr %23, %4 : tensor<64x!tt.ptr<f32>>, tensor<64xi32> loc(#loc22)
    tt.store %24, %21, %5 : tensor<64x!tt.ptr<f32>> loc(#loc23)
    %25 = tt.splat %arg4 : !tt.ptr<i1> -> tensor<64x!tt.ptr<i1>> loc(#loc24)
    %26 = tt.addptr %25, %4 : tensor<64x!tt.ptr<i1>>, tensor<64xi32> loc(#loc24)
    %27 = tt.bitcast %26 : tensor<64x!tt.ptr<i1>> -> tensor<64x!tt.ptr<i8>> loc(#loc25)
    %28 = arith.extui %22 : tensor<64xi1> to tensor<64xi8> loc(#loc25)
    tt.store %27, %28, %5 : tensor<64x!tt.ptr<i8>> loc(#loc25)
    tt.return loc(#loc26)
  } loc(#loc)
} loc(#loc)
#loc1 = loc(unknown)
#loc2 = loc("inductor_cache/nv/cnvvsvbqhhzublohkl2vsw3z7flvbpr6ft6dzhvv7bbifgykblac.py":21:28)
#loc3 = loc("inductor_cache/nv/cnvvsvbqhhzublohkl2vsw3z7flvbpr6ft6dzhvv7bbifgykblac.py":21:33)
#loc4 = loc("inductor_cache/nv/cnvvsvbqhhzublohkl2vsw3z7flvbpr6ft6dzhvv7bbifgykblac.py":22:36)
#loc5 = loc("inductor_cache/nv/cnvvsvbqhhzublohkl2vsw3z7flvbpr6ft6dzhvv7bbifgykblac.py":22:23)
#loc6 = loc("inductor_cache/nv/cnvvsvbqhhzublohkl2vsw3z7flvbpr6ft6dzhvv7bbifgykblac.py":23:21)
#loc7 = loc("inductor_cache/nv/cnvvsvbqhhzublohkl2vsw3z7flvbpr6ft6dzhvv7bbifgykblac.py":25:21)
#loc8 = loc("inductor_cache/nv/cnvvsvbqhhzublohkl2vsw3z7flvbpr6ft6dzhvv7bbifgykblac.py":25:26)
#loc9 = loc("inductor_cache/nv/cnvvsvbqhhzublohkl2vsw3z7flvbpr6ft6dzhvv7bbifgykblac.py":26:19)
#loc10 = loc("inductor_cache/nv/cnvvsvbqhhzublohkl2vsw3z7flvbpr6ft6dzhvv7bbifgykblac.py":27:30)
#loc11 = loc("inductor_cache/nv/cnvvsvbqhhzublohkl2vsw3z7flvbpr6ft6dzhvv7bbifgykblac.py":27:35)
#loc12 = loc("inductor_cache/nv/cnvvsvbqhhzublohkl2vsw3z7flvbpr6ft6dzhvv7bbifgykblac.py":28:30)
#loc13 = loc("inductor_cache/nv/cnvvsvbqhhzublohkl2vsw3z7flvbpr6ft6dzhvv7bbifgykblac.py":28:35)
#loc14 = loc("inductor_cache/nv/cnvvsvbqhhzublohkl2vsw3z7flvbpr6ft6dzhvv7bbifgykblac.py":29:30)
#loc15 = loc("inductor_cache/nv/cnvvsvbqhhzublohkl2vsw3z7flvbpr6ft6dzhvv7bbifgykblac.py":29:35)
#loc16 = loc("inductor_cache/nv/cnvvsvbqhhzublohkl2vsw3z7flvbpr6ft6dzhvv7bbifgykblac.py":30:18)
#loc17 = loc("/home/sahanp/.conda/envs/parity-bench/lib/python3.12/site-packages/torch/_inductor/runtime/triton_helpers.py":118:15)
#loc18 = loc("inductor_cache/nv/cnvvsvbqhhzublohkl2vsw3z7flvbpr6ft6dzhvv7bbifgykblac.py":32:40)
#loc19 = loc("/home/sahanp/.conda/envs/parity-bench/lib/python3.12/site-packages/torch/_inductor/runtime/triton_helpers.py":121:29)
#loc20 = loc("inductor_cache/nv/cnvvsvbqhhzublohkl2vsw3z7flvbpr6ft6dzhvv7bbifgykblac.py":33:18)
#loc21 = loc("inductor_cache/nv/cnvvsvbqhhzublohkl2vsw3z7flvbpr6ft6dzhvv7bbifgykblac.py":35:19)
#loc22 = loc("inductor_cache/nv/cnvvsvbqhhzublohkl2vsw3z7flvbpr6ft6dzhvv7bbifgykblac.py":36:25)
#loc23 = loc("inductor_cache/nv/cnvvsvbqhhzublohkl2vsw3z7flvbpr6ft6dzhvv7bbifgykblac.py":36:36)
#loc24 = loc("inductor_cache/nv/cnvvsvbqhhzublohkl2vsw3z7flvbpr6ft6dzhvv7bbifgykblac.py":37:25)
#loc25 = loc("inductor_cache/nv/cnvvsvbqhhzublohkl2vsw3z7flvbpr6ft6dzhvv7bbifgykblac.py":37:36)
#loc26 = loc("inductor_cache/nv/cnvvsvbqhhzublohkl2vsw3z7flvbpr6ft6dzhvv7bbifgykblac.py":37:4)
#loc27 = loc(callsite(#loc17 at #loc18))
#loc28 = loc(callsite(#loc19 at #loc18))
