#loc = loc("inductor_cache/ro/crov34jnt4pylsy3yz5zs2aagst56sinhhyn4u263xv6zbppo2hu.py":19:0)
module {
  tt.func public @triton_poi_fused__to_copy__unsafe_index_add_arange_clamp_mul_sub_0(%arg0: !tt.ptr<f32> {tt.divisibility = 16 : i32} loc("inductor_cache/ro/crov34jnt4pylsy3yz5zs2aagst56sinhhyn4u263xv6zbppo2hu.py":19:0), %arg1: !tt.ptr<f32> {tt.divisibility = 16 : i32} loc("inductor_cache/ro/crov34jnt4pylsy3yz5zs2aagst56sinhhyn4u263xv6zbppo2hu.py":19:0), %arg2: i32 {tt.divisibility = 16 : i32} loc("inductor_cache/ro/crov34jnt4pylsy3yz5zs2aagst56sinhhyn4u263xv6zbppo2hu.py":19:0)) attributes {noinline = false} {
    %cst = arith.constant dense<1.000000e+00> : tensor<128xf32> loc(#loc1)
    %cst_0 = arith.constant dense<3> : tensor<128xi64> loc(#loc1)
    %cst_1 = arith.constant dense<0.000000e+00> : tensor<128xf32> loc(#loc1)
    %cst_2 = arith.constant dense<4> : tensor<128xi32> loc(#loc1)
    %cst_3 = arith.constant dense<16> : tensor<128xi32> loc(#loc1)
    %cst_4 = arith.constant dense<4> : tensor<128xi64> loc(#loc1)
    %cst_5 = arith.constant dense<1> : tensor<128xi64> loc(#loc1)
    %cst_6 = arith.constant dense<5.000000e-01> : tensor<128xf32> loc(#loc1)
    %cst_7 = arith.constant dense<64> : tensor<128xi32> loc(#loc1)
    %cst_8 = arith.constant dense<8> : tensor<128xi32> loc(#loc1)
    %cst_9 = arith.constant dense<1024> : tensor<128xi32> loc(#loc1)
    %c128_i32 = arith.constant 128 : i32 loc(#loc1)
    %0 = tt.get_program_id x : i32 loc(#loc2)
    %1 = arith.muli %0, %c128_i32 : i32 loc(#loc3)
    %2 = tt.make_range {end = 128 : i32, start = 0 : i32} : tensor<128xi32> loc(#loc4)
    %3 = tt.splat %1 : i32 -> tensor<128xi32> loc(#loc5)
    %4 = arith.addi %3, %2 : tensor<128xi32> loc(#loc5)
    %5 = arith.cmpi slt, %4, %cst_9 : tensor<128xi32> loc(#loc6)
    %6 = arith.divsi %4, %cst_8 : tensor<128xi32> loc(#loc7)
    %7 = arith.remsi %6, %cst_8 : tensor<128xi32> loc(#loc8)
    %8 = arith.remsi %4, %cst_8 : tensor<128xi32> loc(#loc9)
    %9 = arith.divsi %4, %cst_7 : tensor<128xi32> loc(#loc10)
    %10 = arith.sitofp %7 : tensor<128xi32> to tensor<128xf32> loc(#loc11)
    %11 = arith.addf %10, %cst_6 : tensor<128xf32> loc(#loc12)
    %12 = arith.mulf %11, %cst_6 : tensor<128xf32> loc(#loc13)
    %13 = arith.subf %12, %cst_6 : tensor<128xf32> loc(#loc14)
    %14 = arith.cmpf ogt, %13, %cst_1 : tensor<128xf32> loc(#loc74)
    %15 = arith.cmpf une, %13, %13 : tensor<128xf32> loc(#loc75)
    %16 = arith.ori %14, %15 : tensor<128xi1> loc(#loc76)
    %17 = arith.select %16, %13, %cst_1 : tensor<128xi1>, tensor<128xf32> loc(#loc77)
    %18 = arith.fptosi %17 : tensor<128xf32> to tensor<128xi32> loc(#loc20)
    %19 = arith.extsi %18 : tensor<128xi32> to tensor<128xi64> loc(#loc21)
    %20 = arith.addi %19, %cst_5 : tensor<128xi64> loc(#loc21)
    %21 = arith.cmpi slt, %20, %cst_0 : tensor<128xi64> loc(#loc78)
    %22 = arith.select %21, %20, %cst_0 : tensor<128xi1>, tensor<128xi64> loc(#loc79)
    %23 = arith.sitofp %8 : tensor<128xi32> to tensor<128xf32> loc(#loc25)
    %24 = arith.addf %23, %cst_6 : tensor<128xf32> loc(#loc26)
    %25 = arith.mulf %24, %cst_6 : tensor<128xf32> loc(#loc27)
    %26 = arith.subf %25, %cst_6 : tensor<128xf32> loc(#loc28)
    %27 = arith.cmpf ogt, %26, %cst_1 : tensor<128xf32> loc(#loc80)
    %28 = arith.cmpf une, %26, %26 : tensor<128xf32> loc(#loc81)
    %29 = arith.ori %27, %28 : tensor<128xi1> loc(#loc82)
    %30 = arith.select %29, %26, %cst_1 : tensor<128xi1>, tensor<128xf32> loc(#loc83)
    %31 = arith.fptosi %30 : tensor<128xf32> to tensor<128xi32> loc(#loc30)
    %32 = arith.extsi %31 : tensor<128xi32> to tensor<128xi64> loc(#loc31)
    %33 = arith.addi %32, %cst_5 : tensor<128xi64> loc(#loc31)
    %34 = arith.cmpi slt, %33, %cst_0 : tensor<128xi64> loc(#loc84)
    %35 = arith.select %34, %33, %cst_0 : tensor<128xi1>, tensor<128xi64> loc(#loc85)
    %36 = arith.muli %22, %cst_4 : tensor<128xi64> loc(#loc33)
    %37 = arith.addi %35, %36 : tensor<128xi64> loc(#loc34)
    %38 = arith.muli %9, %cst_3 : tensor<128xi32> loc(#loc35)
    %39 = arith.extsi %38 : tensor<128xi32> to tensor<128xi64> loc(#loc36)
    %40 = arith.addi %37, %39 : tensor<128xi64> loc(#loc36)
    %41 = tt.splat %arg1 : !tt.ptr<f32> -> tensor<128x!tt.ptr<f32>> loc(#loc37)
    %42 = tt.addptr %41, %40 : tensor<128x!tt.ptr<f32>>, tensor<128xi64> loc(#loc37)
    %43 = tt.load %42, %5 evictionPolicy = evict_last : tensor<128x!tt.ptr<f32>> loc(#loc38)
    %44 = arith.addi %32, %36 : tensor<128xi64> loc(#loc39)
    %45 = arith.addi %44, %39 : tensor<128xi64> loc(#loc40)
    %46 = tt.addptr %41, %45 : tensor<128x!tt.ptr<f32>>, tensor<128xi64> loc(#loc41)
    %47 = tt.load %46, %5 evictionPolicy = evict_last : tensor<128x!tt.ptr<f32>> loc(#loc42)
    %48 = arith.subf %43, %47 : tensor<128xf32> loc(#loc43)
    %49 = arith.sitofp %31 : tensor<128xi32> to tensor<128xf32> loc(#loc44)
    %50 = arith.subf %30, %49 : tensor<128xf32> loc(#loc45)
    %51 = arith.cmpf ogt, %50, %cst_1 : tensor<128xf32> loc(#loc86)
    %52 = arith.cmpf une, %50, %50 : tensor<128xf32> loc(#loc87)
    %53 = arith.ori %51, %52 : tensor<128xi1> loc(#loc88)
    %54 = arith.select %53, %50, %cst_1 : tensor<128xi1>, tensor<128xf32> loc(#loc89)
    %55 = arith.cmpf olt, %54, %cst : tensor<128xf32> loc(#loc90)
    %56 = arith.cmpf une, %54, %54 : tensor<128xf32> loc(#loc91)
    %57 = arith.ori %55, %56 : tensor<128xi1> loc(#loc92)
    %58 = arith.select %57, %54, %cst : tensor<128xi1>, tensor<128xf32> loc(#loc93)
    %59 = arith.mulf %48, %58 : tensor<128xf32> loc(#loc50)
    %60 = arith.addf %47, %59 : tensor<128xf32> loc(#loc51)
    %61 = arith.muli %18, %cst_2 : tensor<128xi32> loc(#loc52)
    %62 = arith.addi %31, %61 : tensor<128xi32> loc(#loc53)
    %63 = arith.addi %62, %38 : tensor<128xi32> loc(#loc54)
    %64 = tt.addptr %41, %63 : tensor<128x!tt.ptr<f32>>, tensor<128xi32> loc(#loc55)
    %65 = tt.load %64, %5 evictionPolicy = evict_last : tensor<128x!tt.ptr<f32>> loc(#loc56)
    %66 = arith.extsi %61 : tensor<128xi32> to tensor<128xi64> loc(#loc57)
    %67 = arith.addi %35, %66 : tensor<128xi64> loc(#loc57)
    %68 = arith.addi %67, %39 : tensor<128xi64> loc(#loc58)
    %69 = tt.addptr %41, %68 : tensor<128x!tt.ptr<f32>>, tensor<128xi64> loc(#loc59)
    %70 = tt.load %69, %5 evictionPolicy = evict_last : tensor<128x!tt.ptr<f32>> loc(#loc60)
    %71 = arith.subf %70, %65 : tensor<128xf32> loc(#loc61)
    %72 = arith.mulf %71, %58 : tensor<128xf32> loc(#loc62)
    %73 = arith.addf %65, %72 : tensor<128xf32> loc(#loc63)
    %74 = arith.subf %60, %73 : tensor<128xf32> loc(#loc64)
    %75 = arith.sitofp %18 : tensor<128xi32> to tensor<128xf32> loc(#loc65)
    %76 = arith.subf %17, %75 : tensor<128xf32> loc(#loc66)
    %77 = arith.cmpf ogt, %76, %cst_1 : tensor<128xf32> loc(#loc94)
    %78 = arith.cmpf une, %76, %76 : tensor<128xf32> loc(#loc95)
    %79 = arith.ori %77, %78 : tensor<128xi1> loc(#loc96)
    %80 = arith.select %79, %76, %cst_1 : tensor<128xi1>, tensor<128xf32> loc(#loc97)
    %81 = arith.cmpf olt, %80, %cst : tensor<128xf32> loc(#loc98)
    %82 = arith.cmpf une, %80, %80 : tensor<128xf32> loc(#loc99)
    %83 = arith.ori %81, %82 : tensor<128xi1> loc(#loc100)
    %84 = arith.select %83, %80, %cst : tensor<128xi1>, tensor<128xf32> loc(#loc101)
    %85 = arith.mulf %74, %84 : tensor<128xf32> loc(#loc69)
    %86 = arith.addf %73, %85 : tensor<128xf32> loc(#loc70)
    %87 = tt.splat %arg0 : !tt.ptr<f32> -> tensor<128x!tt.ptr<f32>> loc(#loc71)
    %88 = tt.addptr %87, %4 : tensor<128x!tt.ptr<f32>>, tensor<128xi32> loc(#loc71)
    tt.store %88, %86, %5 : tensor<128x!tt.ptr<f32>> loc(#loc72)
    tt.return loc(#loc73)
  } loc(#loc)
} loc(#loc)
#loc1 = loc(unknown)
#loc2 = loc("inductor_cache/ro/crov34jnt4pylsy3yz5zs2aagst56sinhhyn4u263xv6zbppo2hu.py":21:28)
#loc3 = loc("inductor_cache/ro/crov34jnt4pylsy3yz5zs2aagst56sinhhyn4u263xv6zbppo2hu.py":21:33)
#loc4 = loc("inductor_cache/ro/crov34jnt4pylsy3yz5zs2aagst56sinhhyn4u263xv6zbppo2hu.py":22:36)
#loc5 = loc("inductor_cache/ro/crov34jnt4pylsy3yz5zs2aagst56sinhhyn4u263xv6zbppo2hu.py":22:23)
#loc6 = loc("inductor_cache/ro/crov34jnt4pylsy3yz5zs2aagst56sinhhyn4u263xv6zbppo2hu.py":23:21)
#loc7 = loc("inductor_cache/ro/crov34jnt4pylsy3yz5zs2aagst56sinhhyn4u263xv6zbppo2hu.py":24:21)
#loc8 = loc("inductor_cache/ro/crov34jnt4pylsy3yz5zs2aagst56sinhhyn4u263xv6zbppo2hu.py":24:26)
#loc9 = loc("inductor_cache/ro/crov34jnt4pylsy3yz5zs2aagst56sinhhyn4u263xv6zbppo2hu.py":25:19)
#loc10 = loc("inductor_cache/ro/crov34jnt4pylsy3yz5zs2aagst56sinhhyn4u263xv6zbppo2hu.py":26:19)
#loc11 = loc("inductor_cache/ro/crov34jnt4pylsy3yz5zs2aagst56sinhhyn4u263xv6zbppo2hu.py":29:19)
#loc12 = loc("inductor_cache/ro/crov34jnt4pylsy3yz5zs2aagst56sinhhyn4u263xv6zbppo2hu.py":31:18)
#loc13 = loc("inductor_cache/ro/crov34jnt4pylsy3yz5zs2aagst56sinhhyn4u263xv6zbppo2hu.py":32:18)
#loc14 = loc("inductor_cache/ro/crov34jnt4pylsy3yz5zs2aagst56sinhhyn4u263xv6zbppo2hu.py":33:18)
#loc15 = loc("/home/sahanp/.conda/envs/parity-bench/lib/python3.12/site-packages/torch/_inductor/runtime/triton_helpers.py":118:15)
#loc16 = loc("inductor_cache/ro/crov34jnt4pylsy3yz5zs2aagst56sinhhyn4u263xv6zbppo2hu.py":35:40)
#loc17 = loc("/home/sahanp/.conda/envs/parity-bench/lib/python3.12/site-packages/torch/_inductor/runtime/triton_helpers.py":120:21)
#loc18 = loc("/home/sahanp/.conda/envs/parity-bench/lib/python3.12/site-packages/torch/_inductor/runtime/triton_helpers.py":120:16)
#loc19 = loc("/home/sahanp/.conda/envs/parity-bench/lib/python3.12/site-packages/torch/_inductor/runtime/triton_helpers.py":121:29)
#loc20 = loc("inductor_cache/ro/crov34jnt4pylsy3yz5zs2aagst56sinhhyn4u263xv6zbppo2hu.py":36:19)
#loc21 = loc("inductor_cache/ro/crov34jnt4pylsy3yz5zs2aagst56sinhhyn4u263xv6zbppo2hu.py":38:19)
#loc22 = loc("/home/sahanp/.conda/envs/parity-bench/lib/python3.12/site-packages/torch/_inductor/runtime/triton_helpers.py":110:15)
#loc23 = loc("inductor_cache/ro/crov34jnt4pylsy3yz5zs2aagst56sinhhyn4u263xv6zbppo2hu.py":40:42)
#loc24 = loc("/home/sahanp/.conda/envs/parity-bench/lib/python3.12/site-packages/torch/_inductor/runtime/triton_helpers.py":113:29)
#loc25 = loc("inductor_cache/ro/crov34jnt4pylsy3yz5zs2aagst56sinhhyn4u263xv6zbppo2hu.py":42:21)
#loc26 = loc("inductor_cache/ro/crov34jnt4pylsy3yz5zs2aagst56sinhhyn4u263xv6zbppo2hu.py":43:20)
#loc27 = loc("inductor_cache/ro/crov34jnt4pylsy3yz5zs2aagst56sinhhyn4u263xv6zbppo2hu.py":44:20)
#loc28 = loc("inductor_cache/ro/crov34jnt4pylsy3yz5zs2aagst56sinhhyn4u263xv6zbppo2hu.py":45:20)
#loc29 = loc("inductor_cache/ro/crov34jnt4pylsy3yz5zs2aagst56sinhhyn4u263xv6zbppo2hu.py":46:42)
#loc30 = loc("inductor_cache/ro/crov34jnt4pylsy3yz5zs2aagst56sinhhyn4u263xv6zbppo2hu.py":47:21)
#loc31 = loc("inductor_cache/ro/crov34jnt4pylsy3yz5zs2aagst56sinhhyn4u263xv6zbppo2hu.py":48:20)
#loc32 = loc("inductor_cache/ro/crov34jnt4pylsy3yz5zs2aagst56sinhhyn4u263xv6zbppo2hu.py":49:42)
#loc33 = loc("inductor_cache/ro/crov34jnt4pylsy3yz5zs2aagst56sinhhyn4u263xv6zbppo2hu.py":50:41)
#loc34 = loc("inductor_cache/ro/crov34jnt4pylsy3yz5zs2aagst56sinhhyn4u263xv6zbppo2hu.py":50:39)
#loc35 = loc("inductor_cache/ro/crov34jnt4pylsy3yz5zs2aagst56sinhhyn4u263xv6zbppo2hu.py":50:52)
#loc36 = loc("inductor_cache/ro/crov34jnt4pylsy3yz5zs2aagst56sinhhyn4u263xv6zbppo2hu.py":50:49)
#loc37 = loc("inductor_cache/ro/crov34jnt4pylsy3yz5zs2aagst56sinhhyn4u263xv6zbppo2hu.py":50:31)
#loc38 = loc("inductor_cache/ro/crov34jnt4pylsy3yz5zs2aagst56sinhhyn4u263xv6zbppo2hu.py":50:57)
#loc39 = loc("inductor_cache/ro/crov34jnt4pylsy3yz5zs2aagst56sinhhyn4u263xv6zbppo2hu.py":51:39)
#loc40 = loc("inductor_cache/ro/crov34jnt4pylsy3yz5zs2aagst56sinhhyn4u263xv6zbppo2hu.py":51:49)
#loc41 = loc("inductor_cache/ro/crov34jnt4pylsy3yz5zs2aagst56sinhhyn4u263xv6zbppo2hu.py":51:31)
#loc42 = loc("inductor_cache/ro/crov34jnt4pylsy3yz5zs2aagst56sinhhyn4u263xv6zbppo2hu.py":51:57)
#loc43 = loc("inductor_cache/ro/crov34jnt4pylsy3yz5zs2aagst56sinhhyn4u263xv6zbppo2hu.py":52:20)
#loc44 = loc("inductor_cache/ro/crov34jnt4pylsy3yz5zs2aagst56sinhhyn4u263xv6zbppo2hu.py":53:21)
#loc45 = loc("inductor_cache/ro/crov34jnt4pylsy3yz5zs2aagst56sinhhyn4u263xv6zbppo2hu.py":54:20)
#loc46 = loc("inductor_cache/ro/crov34jnt4pylsy3yz5zs2aagst56sinhhyn4u263xv6zbppo2hu.py":55:42)
#loc47 = loc("inductor_cache/ro/crov34jnt4pylsy3yz5zs2aagst56sinhhyn4u263xv6zbppo2hu.py":57:42)
#loc48 = loc("/home/sahanp/.conda/envs/parity-bench/lib/python3.12/site-packages/torch/_inductor/runtime/triton_helpers.py":112:21)
#loc49 = loc("/home/sahanp/.conda/envs/parity-bench/lib/python3.12/site-packages/torch/_inductor/runtime/triton_helpers.py":112:16)
#loc50 = loc("inductor_cache/ro/crov34jnt4pylsy3yz5zs2aagst56sinhhyn4u263xv6zbppo2hu.py":58:20)
#loc51 = loc("inductor_cache/ro/crov34jnt4pylsy3yz5zs2aagst56sinhhyn4u263xv6zbppo2hu.py":59:20)
#loc52 = loc("inductor_cache/ro/crov34jnt4pylsy3yz5zs2aagst56sinhhyn4u263xv6zbppo2hu.py":60:41)
#loc53 = loc("inductor_cache/ro/crov34jnt4pylsy3yz5zs2aagst56sinhhyn4u263xv6zbppo2hu.py":60:39)
#loc54 = loc("inductor_cache/ro/crov34jnt4pylsy3yz5zs2aagst56sinhhyn4u263xv6zbppo2hu.py":60:48)
#loc55 = loc("inductor_cache/ro/crov34jnt4pylsy3yz5zs2aagst56sinhhyn4u263xv6zbppo2hu.py":60:31)
#loc56 = loc("inductor_cache/ro/crov34jnt4pylsy3yz5zs2aagst56sinhhyn4u263xv6zbppo2hu.py":60:56)
#loc57 = loc("inductor_cache/ro/crov34jnt4pylsy3yz5zs2aagst56sinhhyn4u263xv6zbppo2hu.py":61:39)
#loc58 = loc("inductor_cache/ro/crov34jnt4pylsy3yz5zs2aagst56sinhhyn4u263xv6zbppo2hu.py":61:48)
#loc59 = loc("inductor_cache/ro/crov34jnt4pylsy3yz5zs2aagst56sinhhyn4u263xv6zbppo2hu.py":61:31)
#loc60 = loc("inductor_cache/ro/crov34jnt4pylsy3yz5zs2aagst56sinhhyn4u263xv6zbppo2hu.py":61:56)
#loc61 = loc("inductor_cache/ro/crov34jnt4pylsy3yz5zs2aagst56sinhhyn4u263xv6zbppo2hu.py":62:20)
#loc62 = loc("inductor_cache/ro/crov34jnt4pylsy3yz5zs2aagst56sinhhyn4u263xv6zbppo2hu.py":63:20)
#loc63 = loc("inductor_cache/ro/crov34jnt4pylsy3yz5zs2aagst56sinhhyn4u263xv6zbppo2hu.py":64:20)
#loc64 = loc("inductor_cache/ro/crov34jnt4pylsy3yz5zs2aagst56sinhhyn4u263xv6zbppo2hu.py":65:20)
#loc65 = loc("inductor_cache/ro/crov34jnt4pylsy3yz5zs2aagst56sinhhyn4u263xv6zbppo2hu.py":66:20)
#loc66 = loc("inductor_cache/ro/crov34jnt4pylsy3yz5zs2aagst56sinhhyn4u263xv6zbppo2hu.py":67:19)
#loc67 = loc("inductor_cache/ro/crov34jnt4pylsy3yz5zs2aagst56sinhhyn4u263xv6zbppo2hu.py":68:42)
#loc68 = loc("inductor_cache/ro/crov34jnt4pylsy3yz5zs2aagst56sinhhyn4u263xv6zbppo2hu.py":69:42)
#loc69 = loc("inductor_cache/ro/crov34jnt4pylsy3yz5zs2aagst56sinhhyn4u263xv6zbppo2hu.py":70:20)
#loc70 = loc("inductor_cache/ro/crov34jnt4pylsy3yz5zs2aagst56sinhhyn4u263xv6zbppo2hu.py":71:20)
#loc71 = loc("inductor_cache/ro/crov34jnt4pylsy3yz5zs2aagst56sinhhyn4u263xv6zbppo2hu.py":72:28)
#loc72 = loc("inductor_cache/ro/crov34jnt4pylsy3yz5zs2aagst56sinhhyn4u263xv6zbppo2hu.py":72:40)
#loc73 = loc("inductor_cache/ro/crov34jnt4pylsy3yz5zs2aagst56sinhhyn4u263xv6zbppo2hu.py":72:4)
#loc74 = loc(callsite(#loc15 at #loc16))
#loc75 = loc(callsite(#loc17 at #loc16))
#loc76 = loc(callsite(#loc18 at #loc16))
#loc77 = loc(callsite(#loc19 at #loc16))
#loc78 = loc(callsite(#loc22 at #loc23))
#loc79 = loc(callsite(#loc24 at #loc23))
#loc80 = loc(callsite(#loc15 at #loc29))
#loc81 = loc(callsite(#loc17 at #loc29))
#loc82 = loc(callsite(#loc18 at #loc29))
#loc83 = loc(callsite(#loc19 at #loc29))
#loc84 = loc(callsite(#loc22 at #loc32))
#loc85 = loc(callsite(#loc24 at #loc32))
#loc86 = loc(callsite(#loc15 at #loc46))
#loc87 = loc(callsite(#loc17 at #loc46))
#loc88 = loc(callsite(#loc18 at #loc46))
#loc89 = loc(callsite(#loc19 at #loc46))
#loc90 = loc(callsite(#loc22 at #loc47))
#loc91 = loc(callsite(#loc48 at #loc47))
#loc92 = loc(callsite(#loc49 at #loc47))
#loc93 = loc(callsite(#loc24 at #loc47))
#loc94 = loc(callsite(#loc15 at #loc67))
#loc95 = loc(callsite(#loc17 at #loc67))
#loc96 = loc(callsite(#loc18 at #loc67))
#loc97 = loc(callsite(#loc19 at #loc67))
#loc98 = loc(callsite(#loc22 at #loc68))
#loc99 = loc(callsite(#loc48 at #loc68))
#loc100 = loc(callsite(#loc49 at #loc68))
#loc101 = loc(callsite(#loc24 at #loc68))
