#loc = loc("inductor_cache/oz/cozxj3ide3va5hvcsvme2xmppnwbockxyog5bisjsamgpqwbczii.py":19:0)
#loc1 = loc(unknown)
#loc44 = loc("inductor_cache/oz/cozxj3ide3va5hvcsvme2xmppnwbockxyog5bisjsamgpqwbczii.py":55:27)
#loc53 = loc(callsite(#loc1 at #loc44))
module {
  tt.func public @triton_red_fused__native_batch_norm_legit_no_training_mean_relu_27(%arg0: !tt.ptr<f32> {tt.divisibility = 16 : i32} loc("inductor_cache/oz/cozxj3ide3va5hvcsvme2xmppnwbockxyog5bisjsamgpqwbczii.py":19:0), %arg1: !tt.ptr<f32> {tt.divisibility = 16 : i32} loc("inductor_cache/oz/cozxj3ide3va5hvcsvme2xmppnwbockxyog5bisjsamgpqwbczii.py":19:0), %arg2: !tt.ptr<f32> {tt.divisibility = 16 : i32} loc("inductor_cache/oz/cozxj3ide3va5hvcsvme2xmppnwbockxyog5bisjsamgpqwbczii.py":19:0), %arg3: !tt.ptr<f32> {tt.divisibility = 16 : i32} loc("inductor_cache/oz/cozxj3ide3va5hvcsvme2xmppnwbockxyog5bisjsamgpqwbczii.py":19:0), %arg4: !tt.ptr<f32> {tt.divisibility = 16 : i32} loc("inductor_cache/oz/cozxj3ide3va5hvcsvme2xmppnwbockxyog5bisjsamgpqwbczii.py":19:0), %arg5: !tt.ptr<f32> {tt.divisibility = 16 : i32} loc("inductor_cache/oz/cozxj3ide3va5hvcsvme2xmppnwbockxyog5bisjsamgpqwbczii.py":19:0), %arg6: i32 {tt.divisibility = 16 : i32} loc("inductor_cache/oz/cozxj3ide3va5hvcsvme2xmppnwbockxyog5bisjsamgpqwbczii.py":19:0), %arg7: i32 {tt.divisibility = 16 : i32} loc("inductor_cache/oz/cozxj3ide3va5hvcsvme2xmppnwbockxyog5bisjsamgpqwbczii.py":19:0)) attributes {noinline = false} {
    %cst = arith.constant dense<1.000000e+00> : tensor<64x1xf32> loc(#loc1)
    %c8_i32 = arith.constant 8 : i32 loc(#loc1)
    %c128_i32 = arith.constant 128 : i32 loc(#loc1)
    %c0_i32 = arith.constant 0 : i32 loc(#loc1)
    %cst_0 = arith.constant dense<9.99999974E-6> : tensor<64x1xf32> loc(#loc1)
    %cst_1 = arith.constant dense<81920> : tensor<64x1xi32> loc(#loc1)
    %cst_2 = arith.constant dense<640> : tensor<1x8xi32> loc(#loc1)
    %cst_3 = arith.constant dense<128> : tensor<1x8xi32> loc(#loc1)
    %cst_4 = arith.constant dense<0.000000e+00> : tensor<64x8xf32> loc(#loc1)
    %cst_5 = arith.constant dense<640> : tensor<64x1xi32> loc(#loc1)
    %cst_6 = arith.constant dense<5120> : tensor<64x1xi32> loc(#loc1)
    %c64_i32 = arith.constant 64 : i32 loc(#loc1)
    %0 = tt.get_program_id x : i32 loc(#loc2)
    %1 = arith.muli %0, %c64_i32 : i32 loc(#loc3)
    %2 = tt.make_range {end = 64 : i32, start = 0 : i32} : tensor<64xi32> loc(#loc4)
    %3 = tt.expand_dims %2 {axis = 1 : i32} : tensor<64xi32> -> tensor<64x1xi32> loc(#loc5)
    %4 = tt.splat %1 : i32 -> tensor<64x1xi32> loc(#loc6)
    %5 = arith.addi %4, %3 : tensor<64x1xi32> loc(#loc6)
    %6 = arith.cmpi slt, %5, %cst_6 : tensor<64x1xi32> loc(#loc7)
    %7 = tt.make_range {end = 8 : i32, start = 0 : i32} : tensor<8xi32> loc(#loc8)
    %8 = tt.expand_dims %7 {axis = 0 : i32} : tensor<8xi32> -> tensor<1x8xi32> loc(#loc9)
    %9 = arith.remsi %5, %cst_5 : tensor<64x1xi32> loc(#loc10)
    %10 = arith.divsi %5, %cst_5 : tensor<64x1xi32> loc(#loc11)
    %11 = tt.splat %arg1 : !tt.ptr<f32> -> tensor<64x1x!tt.ptr<f32>> loc(#loc12)
    %12 = tt.addptr %11, %9 : tensor<64x1x!tt.ptr<f32>>, tensor<64x1xi32> loc(#loc12)
    %13 = tt.load %12, %6 evictionPolicy = evict_last : tensor<64x1x!tt.ptr<f32>> loc(#loc13)
    %14 = tt.splat %arg2 : !tt.ptr<f32> -> tensor<64x1x!tt.ptr<f32>> loc(#loc14)
    %15 = tt.addptr %14, %9 : tensor<64x1x!tt.ptr<f32>>, tensor<64x1xi32> loc(#loc14)
    %16 = tt.load %15, %6 evictionPolicy = evict_last : tensor<64x1x!tt.ptr<f32>> loc(#loc15)
    %17 = tt.splat %arg3 : !tt.ptr<f32> -> tensor<64x1x!tt.ptr<f32>> loc(#loc16)
    %18 = tt.addptr %17, %9 : tensor<64x1x!tt.ptr<f32>>, tensor<64x1xi32> loc(#loc16)
    %19 = tt.load %18, %6 evictionPolicy = evict_last : tensor<64x1x!tt.ptr<f32>> loc(#loc17)
    %20 = tt.splat %arg4 : !tt.ptr<f32> -> tensor<64x1x!tt.ptr<f32>> loc(#loc18)
    %21 = tt.addptr %20, %9 : tensor<64x1x!tt.ptr<f32>>, tensor<64x1xi32> loc(#loc18)
    %22 = tt.load %21, %6 evictionPolicy = evict_last : tensor<64x1x!tt.ptr<f32>> loc(#loc19)
    %23 = tt.broadcast %9 : tensor<64x1xi32> -> tensor<64x8xi32> loc(#loc20)
    %24 = arith.muli %10, %cst_1 : tensor<64x1xi32> loc(#loc21)
    %25 = tt.broadcast %24 : tensor<64x1xi32> -> tensor<64x8xi32> loc(#loc22)
    %26 = tt.splat %arg0 : !tt.ptr<f32> -> tensor<64x8x!tt.ptr<f32>> loc(#loc23)
    %27 = tt.broadcast %6 : tensor<64x1xi1> -> tensor<64x8xi1> loc(#loc24)
    %28 = tt.broadcast %13 : tensor<64x1xf32> -> tensor<64x8xf32> loc(#loc25)
    %29 = arith.addf %16, %cst_0 : tensor<64x1xf32> loc(#loc26)
    %30 = tt.extern_elementwise %29 {libname = "", libpath = "", pure = true, symbol = "__nv_sqrtf"} : (tensor<64x1xf32>) -> tensor<64x1xf32> loc(#loc27)
    %31 = arith.divf %cst, %30 : tensor<64x1xf32> loc(#loc28)
    %32 = tt.broadcast %31 : tensor<64x1xf32> -> tensor<64x8xf32> loc(#loc29)
    %33 = tt.broadcast %19 : tensor<64x1xf32> -> tensor<64x8xf32> loc(#loc30)
    %34 = tt.broadcast %22 : tensor<64x1xf32> -> tensor<64x8xf32> loc(#loc31)
    %35 = scf.for %arg8 = %c0_i32 to %c128_i32 step %c8_i32 iter_args(%arg9 = %cst_4) -> (tensor<64x8xf32>)  : i32 {
      %40 = tt.splat %arg8 : i32 -> tensor<1x8xi32> loc(#loc33)
      %41 = arith.addi %40, %8 : tensor<1x8xi32> loc(#loc33)
      %42 = arith.cmpi slt, %41, %cst_3 : tensor<1x8xi32> loc(#loc34)
      %43 = arith.muli %41, %cst_2 : tensor<1x8xi32> loc(#loc35)
      %44 = tt.broadcast %43 : tensor<1x8xi32> -> tensor<64x8xi32> loc(#loc20)
      %45 = arith.addi %23, %44 : tensor<64x8xi32> loc(#loc20)
      %46 = arith.addi %45, %25 : tensor<64x8xi32> loc(#loc22)
      %47 = tt.addptr %26, %46 : tensor<64x8x!tt.ptr<f32>>, tensor<64x8xi32> loc(#loc23)
      %48 = tt.broadcast %42 : tensor<1x8xi1> -> tensor<64x8xi1> loc(#loc24)
      %49 = arith.andi %48, %27 : tensor<64x8xi1> loc(#loc24)
      %50 = tt.load %47, %49, %cst_4 evictionPolicy = evict_first : tensor<64x8x!tt.ptr<f32>> loc(#loc36)
      %51 = arith.subf %50, %28 : tensor<64x8xf32> loc(#loc25)
      %52 = arith.mulf %51, %32 : tensor<64x8xf32> loc(#loc29)
      %53 = arith.mulf %52, %33 : tensor<64x8xf32> loc(#loc30)
      %54 = arith.addf %53, %34 : tensor<64x8xf32> loc(#loc31)
      %55 = arith.cmpf ogt, %cst_4, %54 : tensor<64x8xf32> loc(#loc50)
      %56 = arith.select %55, %cst_4, %54 : tensor<64x8xi1>, tensor<64x8xf32> loc(#loc51)
      %57 = arith.addf %arg9, %56 : tensor<64x8xf32> loc(#loc40)
      %58 = arith.select %49, %57, %arg9 : tensor<64x8xi1>, tensor<64x8xf32> loc(#loc41)
      scf.yield %58 : tensor<64x8xf32> loc(#loc42)
    } loc(#loc32)
    %36 = "tt.reduce"(%35) <{axis = 1 : i32}> ({
    ^bb0(%arg8: f32 loc(callsite(#loc1 at #loc44)), %arg9: f32 loc(callsite(#loc1 at #loc44))):
      %40 = arith.addf %arg8, %arg9 : f32 loc(#loc55)
      tt.reduce.return %40 : f32 loc(#loc52)
    }) : (tensor<64x8xf32>) -> tensor<64xf32> loc(#loc52)
    %37 = tt.expand_dims %36 {axis = 1 : i32} : tensor<64xf32> -> tensor<64x1xf32> loc(#loc46)
    %38 = tt.splat %arg5 : !tt.ptr<f32> -> tensor<64x1x!tt.ptr<f32>> loc(#loc47)
    %39 = tt.addptr %38, %5 : tensor<64x1x!tt.ptr<f32>>, tensor<64x1xi32> loc(#loc47)
    tt.store %39, %37, %6 : tensor<64x1x!tt.ptr<f32>> loc(#loc48)
    tt.return loc(#loc49)
  } loc(#loc)
} loc(#loc)
#loc2 = loc("inductor_cache/oz/cozxj3ide3va5hvcsvme2xmppnwbockxyog5bisjsamgpqwbczii.py":22:28)
#loc3 = loc("inductor_cache/oz/cozxj3ide3va5hvcsvme2xmppnwbockxyog5bisjsamgpqwbczii.py":22:33)
#loc4 = loc("inductor_cache/oz/cozxj3ide3va5hvcsvme2xmppnwbockxyog5bisjsamgpqwbczii.py":23:36)
#loc5 = loc("inductor_cache/oz/cozxj3ide3va5hvcsvme2xmppnwbockxyog5bisjsamgpqwbczii.py":23:44)
#loc6 = loc("inductor_cache/oz/cozxj3ide3va5hvcsvme2xmppnwbockxyog5bisjsamgpqwbczii.py":23:23)
#loc7 = loc("inductor_cache/oz/cozxj3ide3va5hvcsvme2xmppnwbockxyog5bisjsamgpqwbczii.py":24:21)
#loc8 = loc("inductor_cache/oz/cozxj3ide3va5hvcsvme2xmppnwbockxyog5bisjsamgpqwbczii.py":25:25)
#loc9 = loc("inductor_cache/oz/cozxj3ide3va5hvcsvme2xmppnwbockxyog5bisjsamgpqwbczii.py":25:33)
#loc10 = loc("inductor_cache/oz/cozxj3ide3va5hvcsvme2xmppnwbockxyog5bisjsamgpqwbczii.py":26:19)
#loc11 = loc("inductor_cache/oz/cozxj3ide3va5hvcsvme2xmppnwbockxyog5bisjsamgpqwbczii.py":27:19)
#loc12 = loc("inductor_cache/oz/cozxj3ide3va5hvcsvme2xmppnwbockxyog5bisjsamgpqwbczii.py":28:30)
#loc13 = loc("inductor_cache/oz/cozxj3ide3va5hvcsvme2xmppnwbockxyog5bisjsamgpqwbczii.py":28:35)
#loc14 = loc("inductor_cache/oz/cozxj3ide3va5hvcsvme2xmppnwbockxyog5bisjsamgpqwbczii.py":29:30)
#loc15 = loc("inductor_cache/oz/cozxj3ide3va5hvcsvme2xmppnwbockxyog5bisjsamgpqwbczii.py":29:35)
#loc16 = loc("inductor_cache/oz/cozxj3ide3va5hvcsvme2xmppnwbockxyog5bisjsamgpqwbczii.py":30:31)
#loc17 = loc("inductor_cache/oz/cozxj3ide3va5hvcsvme2xmppnwbockxyog5bisjsamgpqwbczii.py":30:36)
#loc18 = loc("inductor_cache/oz/cozxj3ide3va5hvcsvme2xmppnwbockxyog5bisjsamgpqwbczii.py":31:31)
#loc19 = loc("inductor_cache/oz/cozxj3ide3va5hvcsvme2xmppnwbockxyog5bisjsamgpqwbczii.py":31:36)
#loc20 = loc("inductor_cache/oz/cozxj3ide3va5hvcsvme2xmppnwbockxyog5bisjsamgpqwbczii.py":38:39)
#loc21 = loc("inductor_cache/oz/cozxj3ide3va5hvcsvme2xmppnwbockxyog5bisjsamgpqwbczii.py":38:54)
#loc22 = loc("inductor_cache/oz/cozxj3ide3va5hvcsvme2xmppnwbockxyog5bisjsamgpqwbczii.py":38:48)
#loc23 = loc("inductor_cache/oz/cozxj3ide3va5hvcsvme2xmppnwbockxyog5bisjsamgpqwbczii.py":38:34)
#loc24 = loc("inductor_cache/oz/cozxj3ide3va5hvcsvme2xmppnwbockxyog5bisjsamgpqwbczii.py":38:67)
#loc25 = loc("inductor_cache/oz/cozxj3ide3va5hvcsvme2xmppnwbockxyog5bisjsamgpqwbczii.py":39:22)
#loc26 = loc("inductor_cache/oz/cozxj3ide3va5hvcsvme2xmppnwbockxyog5bisjsamgpqwbczii.py":41:22)
#loc27 = loc("inductor_cache/oz/cozxj3ide3va5hvcsvme2xmppnwbockxyog5bisjsamgpqwbczii.py":42:30)
#loc28 = loc("inductor_cache/oz/cozxj3ide3va5hvcsvme2xmppnwbockxyog5bisjsamgpqwbczii.py":44:22)
#loc29 = loc("inductor_cache/oz/cozxj3ide3va5hvcsvme2xmppnwbockxyog5bisjsamgpqwbczii.py":47:23)
#loc30 = loc("inductor_cache/oz/cozxj3ide3va5hvcsvme2xmppnwbockxyog5bisjsamgpqwbczii.py":48:24)
#loc31 = loc("inductor_cache/oz/cozxj3ide3va5hvcsvme2xmppnwbockxyog5bisjsamgpqwbczii.py":49:24)
#loc32 = loc("inductor_cache/oz/cozxj3ide3va5hvcsvme2xmppnwbockxyog5bisjsamgpqwbczii.py":34:36)
#loc33 = loc("inductor_cache/oz/cozxj3ide3va5hvcsvme2xmppnwbockxyog5bisjsamgpqwbczii.py":35:27)
#loc34 = loc("inductor_cache/oz/cozxj3ide3va5hvcsvme2xmppnwbockxyog5bisjsamgpqwbczii.py":36:25)
#loc35 = loc("inductor_cache/oz/cozxj3ide3va5hvcsvme2xmppnwbockxyog5bisjsamgpqwbczii.py":38:43)
#loc36 = loc("inductor_cache/oz/cozxj3ide3va5hvcsvme2xmppnwbockxyog5bisjsamgpqwbczii.py":38:59)
#loc37 = loc("/home/sahanp/.conda/envs/parity-bench/lib/python3.12/site-packages/torch/_inductor/runtime/triton_helpers.py":118:15)
#loc38 = loc("inductor_cache/oz/cozxj3ide3va5hvcsvme2xmppnwbockxyog5bisjsamgpqwbczii.py":51:46)
#loc39 = loc("/home/sahanp/.conda/envs/parity-bench/lib/python3.12/site-packages/torch/_inductor/runtime/triton_helpers.py":121:29)
#loc40 = loc("inductor_cache/oz/cozxj3ide3va5hvcsvme2xmppnwbockxyog5bisjsamgpqwbczii.py":53:25)
#loc41 = loc("inductor_cache/oz/cozxj3ide3va5hvcsvme2xmppnwbockxyog5bisjsamgpqwbczii.py":54:48)
#loc42 = loc("inductor_cache/oz/cozxj3ide3va5hvcsvme2xmppnwbockxyog5bisjsamgpqwbczii.py":54:8)
#loc43 = loc("/home/sahanp/.conda/envs/parity-bench/lib/python3.12/site-packages/triton/language/standard.py":267:36)
#loc45 = loc("/home/sahanp/.conda/envs/parity-bench/lib/python3.12/site-packages/triton/language/standard.py":256:15)
#loc46 = loc("inductor_cache/oz/cozxj3ide3va5hvcsvme2xmppnwbockxyog5bisjsamgpqwbczii.py":55:30)
#loc47 = loc("inductor_cache/oz/cozxj3ide3va5hvcsvme2xmppnwbockxyog5bisjsamgpqwbczii.py":56:25)
#loc48 = loc("inductor_cache/oz/cozxj3ide3va5hvcsvme2xmppnwbockxyog5bisjsamgpqwbczii.py":56:37)
#loc49 = loc("inductor_cache/oz/cozxj3ide3va5hvcsvme2xmppnwbockxyog5bisjsamgpqwbczii.py":56:4)
#loc50 = loc(callsite(#loc37 at #loc38))
#loc51 = loc(callsite(#loc39 at #loc38))
#loc52 = loc(callsite(#loc43 at #loc44))
#loc54 = loc(callsite(#loc45 at #loc43))
#loc55 = loc(callsite(#loc54 at #loc44))
