#loc = loc("inductor_cache/ua/cuaiqbjq5ev7eoohu2twzfo5zxgsr4qztxl4pucbdobc6xugcgaw.py":19:0)
module {
  tt.func public @triton_poi_fused_add_mul_31(%arg0: !tt.ptr<f32> {tt.divisibility = 16 : i32} loc("inductor_cache/ua/cuaiqbjq5ev7eoohu2twzfo5zxgsr4qztxl4pucbdobc6xugcgaw.py":19:0), %arg1: !tt.ptr<f32> {tt.divisibility = 16 : i32} loc("inductor_cache/ua/cuaiqbjq5ev7eoohu2twzfo5zxgsr4qztxl4pucbdobc6xugcgaw.py":19:0), %arg2: !tt.ptr<f32> {tt.divisibility = 16 : i32} loc("inductor_cache/ua/cuaiqbjq5ev7eoohu2twzfo5zxgsr4qztxl4pucbdobc6xugcgaw.py":19:0), %arg3: !tt.ptr<f32> {tt.divisibility = 16 : i32} loc("inductor_cache/ua/cuaiqbjq5ev7eoohu2twzfo5zxgsr4qztxl4pucbdobc6xugcgaw.py":19:0), %arg4: !tt.ptr<f32> {tt.divisibility = 16 : i32} loc("inductor_cache/ua/cuaiqbjq5ev7eoohu2twzfo5zxgsr4qztxl4pucbdobc6xugcgaw.py":19:0), %arg5: i32 {tt.divisibility = 16 : i32} loc("inductor_cache/ua/cuaiqbjq5ev7eoohu2twzfo5zxgsr4qztxl4pucbdobc6xugcgaw.py":19:0), %arg6: i32 {tt.divisibility = 16 : i32} loc("inductor_cache/ua/cuaiqbjq5ev7eoohu2twzfo5zxgsr4qztxl4pucbdobc6xugcgaw.py":19:0)) attributes {noinline = false} {
    %c128_i32 = arith.constant 128 : i32 loc(#loc1)
    %c64_i32 = arith.constant 64 : i32 loc(#loc1)
    %cst = arith.constant dense<8192> : tensor<1x256xi32> loc(#loc1)
    %cst_0 = arith.constant dense<64> : tensor<1x256xi32> loc(#loc1)
    %cst_1 = arith.constant dense<128> : tensor<1x256xi32> loc(#loc1)
    %cst_2 = arith.constant dense<512> : tensor<1x256xi32> loc(#loc1)
    %c256_i32 = arith.constant 256 : i32 loc(#loc1)
    %0 = tt.get_program_id y : i32 loc(#loc2)
    %1 = arith.muli %0, %c256_i32 : i32 loc(#loc3)
    %2 = tt.make_range {end = 256 : i32, start = 0 : i32} : tensor<256xi32> loc(#loc4)
    %3 = tt.expand_dims %2 {axis = 0 : i32} : tensor<256xi32> -> tensor<1x256xi32> loc(#loc5)
    %4 = tt.splat %1 : i32 -> tensor<1x256xi32> loc(#loc6)
    %5 = arith.addi %4, %3 : tensor<1x256xi32> loc(#loc6)
    %6 = arith.cmpi slt, %5, %cst_2 : tensor<1x256xi32> loc(#loc7)
    %7 = tt.get_program_id x : i32 loc(#loc8)
    %8 = arith.cmpi slt, %7, %c64_i32 : i32 loc(#loc9)
    %9 = arith.remsi %5, %cst_1 : tensor<1x256xi32> loc(#loc10)
    %10 = arith.divsi %5, %cst_1 : tensor<1x256xi32> loc(#loc11)
    %11 = arith.muli %5, %cst_0 : tensor<1x256xi32> loc(#loc12)
    %12 = tt.splat %7 : i32 -> tensor<1x256xi32> loc(#loc13)
    %13 = arith.addi %12, %11 : tensor<1x256xi32> loc(#loc13)
    %14 = tt.splat %arg0 : !tt.ptr<f32> -> tensor<1x256x!tt.ptr<f32>> loc(#loc14)
    %15 = tt.addptr %14, %13 : tensor<1x256x!tt.ptr<f32>>, tensor<1x256xi32> loc(#loc14)
    %16 = tt.splat %8 : i1 -> tensor<1x256xi1> loc(#loc15)
    %17 = arith.andi %16, %6 : tensor<1x256xi1> loc(#loc15)
    %18 = tt.load %15, %17 evictionPolicy = evict_last : tensor<1x256x!tt.ptr<f32>> loc(#loc16)
    %19 = tt.splat %arg1 : !tt.ptr<f32> -> tensor<1x256x!tt.ptr<f32>> loc(#loc17)
    %20 = tt.addptr %19, %9 : tensor<1x256x!tt.ptr<f32>>, tensor<1x256xi32> loc(#loc17)
    %21 = tt.load %20, %6 evictionPolicy = evict_last : tensor<1x256x!tt.ptr<f32>> loc(#loc18)
    %22 = arith.muli %7, %c128_i32 : i32 loc(#loc19)
    %23 = tt.splat %22 : i32 -> tensor<1x256xi32> loc(#loc20)
    %24 = arith.addi %9, %23 : tensor<1x256xi32> loc(#loc20)
    %25 = arith.muli %10, %cst : tensor<1x256xi32> loc(#loc21)
    %26 = arith.addi %24, %25 : tensor<1x256xi32> loc(#loc22)
    %27 = tt.splat %arg2 : !tt.ptr<f32> -> tensor<1x256x!tt.ptr<f32>> loc(#loc23)
    %28 = tt.addptr %27, %26 : tensor<1x256x!tt.ptr<f32>>, tensor<1x256xi32> loc(#loc23)
    %29 = tt.load %28, %17 evictionPolicy = evict_last : tensor<1x256x!tt.ptr<f32>> loc(#loc24)
    %30 = tt.splat %arg3 : !tt.ptr<f32> -> tensor<1x256x!tt.ptr<f32>> loc(#loc25)
    %31 = tt.addptr %30, %9 : tensor<1x256x!tt.ptr<f32>>, tensor<1x256xi32> loc(#loc25)
    %32 = tt.load %31, %6 evictionPolicy = evict_last : tensor<1x256x!tt.ptr<f32>> loc(#loc26)
    %33 = arith.mulf %21, %29 : tensor<1x256xf32> loc(#loc27)
    %34 = arith.addf %33, %32 : tensor<1x256xf32> loc(#loc28)
    %35 = arith.addf %18, %34 : tensor<1x256xf32> loc(#loc29)
    %36 = tt.splat %arg4 : !tt.ptr<f32> -> tensor<1x256x!tt.ptr<f32>> loc(#loc30)
    %37 = tt.addptr %36, %13 : tensor<1x256x!tt.ptr<f32>>, tensor<1x256xi32> loc(#loc30)
    tt.store %37, %35, %17 : tensor<1x256x!tt.ptr<f32>> loc(#loc31)
    tt.return loc(#loc32)
  } loc(#loc)
} loc(#loc)
#loc1 = loc(unknown)
#loc2 = loc("inductor_cache/ua/cuaiqbjq5ev7eoohu2twzfo5zxgsr4qztxl4pucbdobc6xugcgaw.py":22:28)
#loc3 = loc("inductor_cache/ua/cuaiqbjq5ev7eoohu2twzfo5zxgsr4qztxl4pucbdobc6xugcgaw.py":22:33)
#loc4 = loc("inductor_cache/ua/cuaiqbjq5ev7eoohu2twzfo5zxgsr4qztxl4pucbdobc6xugcgaw.py":23:36)
#loc5 = loc("inductor_cache/ua/cuaiqbjq5ev7eoohu2twzfo5zxgsr4qztxl4pucbdobc6xugcgaw.py":23:44)
#loc6 = loc("inductor_cache/ua/cuaiqbjq5ev7eoohu2twzfo5zxgsr4qztxl4pucbdobc6xugcgaw.py":23:23)
#loc7 = loc("inductor_cache/ua/cuaiqbjq5ev7eoohu2twzfo5zxgsr4qztxl4pucbdobc6xugcgaw.py":24:21)
#loc8 = loc("inductor_cache/ua/cuaiqbjq5ev7eoohu2twzfo5zxgsr4qztxl4pucbdobc6xugcgaw.py":25:28)
#loc9 = loc("inductor_cache/ua/cuaiqbjq5ev7eoohu2twzfo5zxgsr4qztxl4pucbdobc6xugcgaw.py":27:21)
#loc10 = loc("inductor_cache/ua/cuaiqbjq5ev7eoohu2twzfo5zxgsr4qztxl4pucbdobc6xugcgaw.py":30:19)
#loc11 = loc("inductor_cache/ua/cuaiqbjq5ev7eoohu2twzfo5zxgsr4qztxl4pucbdobc6xugcgaw.py":31:19)
#loc12 = loc("inductor_cache/ua/cuaiqbjq5ev7eoohu2twzfo5zxgsr4qztxl4pucbdobc6xugcgaw.py":32:38)
#loc13 = loc("inductor_cache/ua/cuaiqbjq5ev7eoohu2twzfo5zxgsr4qztxl4pucbdobc6xugcgaw.py":32:35)
#loc14 = loc("inductor_cache/ua/cuaiqbjq5ev7eoohu2twzfo5zxgsr4qztxl4pucbdobc6xugcgaw.py":32:30)
#loc15 = loc("inductor_cache/ua/cuaiqbjq5ev7eoohu2twzfo5zxgsr4qztxl4pucbdobc6xugcgaw.py":32:51)
#loc16 = loc("inductor_cache/ua/cuaiqbjq5ev7eoohu2twzfo5zxgsr4qztxl4pucbdobc6xugcgaw.py":32:43)
#loc17 = loc("inductor_cache/ua/cuaiqbjq5ev7eoohu2twzfo5zxgsr4qztxl4pucbdobc6xugcgaw.py":33:30)
#loc18 = loc("inductor_cache/ua/cuaiqbjq5ev7eoohu2twzfo5zxgsr4qztxl4pucbdobc6xugcgaw.py":33:35)
#loc19 = loc("inductor_cache/ua/cuaiqbjq5ev7eoohu2twzfo5zxgsr4qztxl4pucbdobc6xugcgaw.py":34:39)
#loc20 = loc("inductor_cache/ua/cuaiqbjq5ev7eoohu2twzfo5zxgsr4qztxl4pucbdobc6xugcgaw.py":34:35)
#loc21 = loc("inductor_cache/ua/cuaiqbjq5ev7eoohu2twzfo5zxgsr4qztxl4pucbdobc6xugcgaw.py":34:49)
#loc22 = loc("inductor_cache/ua/cuaiqbjq5ev7eoohu2twzfo5zxgsr4qztxl4pucbdobc6xugcgaw.py":34:44)
#loc23 = loc("inductor_cache/ua/cuaiqbjq5ev7eoohu2twzfo5zxgsr4qztxl4pucbdobc6xugcgaw.py":34:30)
#loc24 = loc("inductor_cache/ua/cuaiqbjq5ev7eoohu2twzfo5zxgsr4qztxl4pucbdobc6xugcgaw.py":34:54)
#loc25 = loc("inductor_cache/ua/cuaiqbjq5ev7eoohu2twzfo5zxgsr4qztxl4pucbdobc6xugcgaw.py":35:30)
#loc26 = loc("inductor_cache/ua/cuaiqbjq5ev7eoohu2twzfo5zxgsr4qztxl4pucbdobc6xugcgaw.py":35:35)
#loc27 = loc("inductor_cache/ua/cuaiqbjq5ev7eoohu2twzfo5zxgsr4qztxl4pucbdobc6xugcgaw.py":36:18)
#loc28 = loc("inductor_cache/ua/cuaiqbjq5ev7eoohu2twzfo5zxgsr4qztxl4pucbdobc6xugcgaw.py":37:18)
#loc29 = loc("inductor_cache/ua/cuaiqbjq5ev7eoohu2twzfo5zxgsr4qztxl4pucbdobc6xugcgaw.py":38:18)
#loc30 = loc("inductor_cache/ua/cuaiqbjq5ev7eoohu2twzfo5zxgsr4qztxl4pucbdobc6xugcgaw.py":39:25)
#loc31 = loc("inductor_cache/ua/cuaiqbjq5ev7eoohu2twzfo5zxgsr4qztxl4pucbdobc6xugcgaw.py":39:44)
#loc32 = loc("inductor_cache/ua/cuaiqbjq5ev7eoohu2twzfo5zxgsr4qztxl4pucbdobc6xugcgaw.py":39:4)
