#loc = loc("inductor_cache/dd/cdd5kx3h4nf7ktsyxllzdabsrczhjo3e5uxaxpugxlbji2qidtza.py":19:0)
#loc1 = loc(unknown)
#loc39 = loc("inductor_cache/dd/cdd5kx3h4nf7ktsyxllzdabsrczhjo3e5uxaxpugxlbji2qidtza.py":61:44)
#loc73 = loc(callsite(#loc1 at #loc39))
module {
  tt.func public @triton_red_fused_native_group_norm_relu_1(%arg0: !tt.ptr<f32> {tt.divisibility = 16 : i32} loc("inductor_cache/dd/cdd5kx3h4nf7ktsyxllzdabsrczhjo3e5uxaxpugxlbji2qidtza.py":19:0), %arg1: !tt.ptr<f32> {tt.divisibility = 16 : i32} loc("inductor_cache/dd/cdd5kx3h4nf7ktsyxllzdabsrczhjo3e5uxaxpugxlbji2qidtza.py":19:0), %arg2: !tt.ptr<f32> {tt.divisibility = 16 : i32} loc("inductor_cache/dd/cdd5kx3h4nf7ktsyxllzdabsrczhjo3e5uxaxpugxlbji2qidtza.py":19:0), %arg3: !tt.ptr<f32> {tt.divisibility = 16 : i32} loc("inductor_cache/dd/cdd5kx3h4nf7ktsyxllzdabsrczhjo3e5uxaxpugxlbji2qidtza.py":19:0), %arg4: !tt.ptr<f32> {tt.divisibility = 16 : i32} loc("inductor_cache/dd/cdd5kx3h4nf7ktsyxllzdabsrczhjo3e5uxaxpugxlbji2qidtza.py":19:0), %arg5: !tt.ptr<f32> {tt.divisibility = 16 : i32} loc("inductor_cache/dd/cdd5kx3h4nf7ktsyxllzdabsrczhjo3e5uxaxpugxlbji2qidtza.py":19:0), %arg6: !tt.ptr<f32> {tt.divisibility = 16 : i32} loc("inductor_cache/dd/cdd5kx3h4nf7ktsyxllzdabsrczhjo3e5uxaxpugxlbji2qidtza.py":19:0), %arg7: !tt.ptr<f32> {tt.divisibility = 16 : i32} loc("inductor_cache/dd/cdd5kx3h4nf7ktsyxllzdabsrczhjo3e5uxaxpugxlbji2qidtza.py":19:0), %arg8: !tt.ptr<f32> {tt.divisibility = 16 : i32} loc("inductor_cache/dd/cdd5kx3h4nf7ktsyxllzdabsrczhjo3e5uxaxpugxlbji2qidtza.py":19:0), %arg9: !tt.ptr<f32> {tt.divisibility = 16 : i32} loc("inductor_cache/dd/cdd5kx3h4nf7ktsyxllzdabsrczhjo3e5uxaxpugxlbji2qidtza.py":19:0), %arg10: !tt.ptr<f32> {tt.divisibility = 16 : i32} loc("inductor_cache/dd/cdd5kx3h4nf7ktsyxllzdabsrczhjo3e5uxaxpugxlbji2qidtza.py":19:0), %arg11: !tt.ptr<f32> {tt.divisibility = 16 : i32} loc("inductor_cache/dd/cdd5kx3h4nf7ktsyxllzdabsrczhjo3e5uxaxpugxlbji2qidtza.py":19:0), %arg12: i32 {tt.divisibility = 16 : i32} loc("inductor_cache/dd/cdd5kx3h4nf7ktsyxllzdabsrczhjo3e5uxaxpugxlbji2qidtza.py":19:0), %arg13: i32 {tt.divisibility = 16 : i32} loc("inductor_cache/dd/cdd5kx3h4nf7ktsyxllzdabsrczhjo3e5uxaxpugxlbji2qidtza.py":19:0)) attributes {noinline = false} {
    %c2_i32 = arith.constant 2 : i32 loc(#loc1)
    %c2048_i32 = arith.constant 2048 : i32 loc(#loc1)
    %c32_i32 = arith.constant 32 : i32 loc(#loc1)
    %c128_i32 = arith.constant 128 : i32 loc(#loc1)
    %cst = arith.constant 0.000000e+00 : f32 loc(#loc1)
    %cst_0 = arith.constant dense<1.000000e+00> : tensor<1x2048xf32> loc(#loc1)
    %cst_1 = arith.constant dense<9.99999974E-6> : tensor<1x1xf32> loc(#loc1)
    %cst_2 = arith.constant dense<2.048000e+03> : tensor<1x1xf32> loc(#loc1)
    %cst_3 = arith.constant dense<0.000000e+00> : tensor<1x2048xf32> loc(#loc1)
    %cst_4 = arith.constant dense<1024> : tensor<1x2048xi32> loc(#loc1)
    %cst_5 = arith.constant dense<2048> : tensor<1x2048xi32> loc(#loc1)
    %0 = tt.get_program_id x : i32 loc(#loc2)
    %1 = arith.cmpi slt, %0, %c128_i32 : i32 loc(#loc3)
    %2 = tt.splat %1 : i1 -> tensor<1x1xi1> loc(#loc3)
    %3 = tt.make_range {end = 2048 : i32, start = 0 : i32} : tensor<2048xi32> loc(#loc4)
    %4 = tt.expand_dims %3 {axis = 0 : i32} : tensor<2048xi32> -> tensor<1x2048xi32> loc(#loc5)
    %5 = tt.addptr %arg1, %0 : !tt.ptr<f32>, i32 loc(#loc6)
    %6 = tt.splat %5 : !tt.ptr<f32> -> tensor<1x1x!tt.ptr<f32>> loc(#loc6)
    %7 = tt.load %6, %2 evictionPolicy = evict_last : tensor<1x1x!tt.ptr<f32>> loc(#loc7)
    %8 = tt.addptr %arg2, %0 : !tt.ptr<f32>, i32 loc(#loc8)
    %9 = tt.splat %8 : !tt.ptr<f32> -> tensor<1x1x!tt.ptr<f32>> loc(#loc8)
    %10 = tt.load %9, %2 evictionPolicy = evict_last : tensor<1x1x!tt.ptr<f32>> loc(#loc9)
    %11 = arith.remsi %0, %c32_i32 : i32 loc(#loc10)
    %12 = arith.cmpi slt, %4, %cst_5 : tensor<1x2048xi32> loc(#loc11)
    %13 = arith.divsi %4, %cst_4 : tensor<1x2048xi32> loc(#loc12)
    %14 = arith.muli %0, %c2048_i32 : i32 loc(#loc13)
    %15 = tt.splat %14 : i32 -> tensor<1x2048xi32> loc(#loc14)
    %16 = arith.addi %4, %15 : tensor<1x2048xi32> loc(#loc14)
    %17 = tt.splat %arg0 : !tt.ptr<f32> -> tensor<1x2048x!tt.ptr<f32>> loc(#loc15)
    %18 = tt.addptr %17, %16 : tensor<1x2048x!tt.ptr<f32>>, tensor<1x2048xi32> loc(#loc15)
    %19 = tt.splat %1 : i1 -> tensor<1x2048xi1> loc(#loc16)
    %20 = arith.andi %12, %19 : tensor<1x2048xi1> loc(#loc16)
    %21 = tt.load %18, %20, %cst_3 evictionPolicy = evict_first : tensor<1x2048x!tt.ptr<f32>> loc(#loc17)
    %22 = arith.muli %11, %c2_i32 : i32 loc(#loc18)
    %23 = tt.splat %22 : i32 -> tensor<1x2048xi32> loc(#loc19)
    %24 = arith.addi %13, %23 : tensor<1x2048xi32> loc(#loc19)
    %25 = tt.splat %arg3 : !tt.ptr<f32> -> tensor<1x2048x!tt.ptr<f32>> loc(#loc20)
    %26 = tt.addptr %25, %24 : tensor<1x2048x!tt.ptr<f32>>, tensor<1x2048xi32> loc(#loc20)
    %27 = tt.load %26, %20, %cst_3 evictionPolicy = evict_last : tensor<1x2048x!tt.ptr<f32>> loc(#loc21)
    %28 = tt.splat %arg4 : !tt.ptr<f32> -> tensor<1x2048x!tt.ptr<f32>> loc(#loc22)
    %29 = tt.addptr %28, %24 : tensor<1x2048x!tt.ptr<f32>>, tensor<1x2048xi32> loc(#loc22)
    %30 = tt.load %29, %20, %cst_3 evictionPolicy = evict_last : tensor<1x2048x!tt.ptr<f32>> loc(#loc23)
    %31 = tt.broadcast %7 : tensor<1x1xf32> -> tensor<1x2048xf32> loc(#loc24)
    %32 = arith.subf %21, %31 : tensor<1x2048xf32> loc(#loc24)
    %33 = arith.divf %10, %cst_2 : tensor<1x1xf32> loc(#loc25)
    %34 = arith.addf %33, %cst_1 : tensor<1x1xf32> loc(#loc26)
    %35 = tt.extern_elementwise %34 {libname = "", libpath = "", pure = true, symbol = "__nv_rsqrtf"} : (tensor<1x1xf32>) -> tensor<1x1xf32> loc(#loc27)
    %36 = tt.broadcast %35 : tensor<1x1xf32> -> tensor<1x2048xf32> loc(#loc28)
    %37 = arith.mulf %32, %36 : tensor<1x2048xf32> loc(#loc28)
    %38 = arith.mulf %37, %27 : tensor<1x2048xf32> loc(#loc29)
    %39 = arith.addf %38, %30 : tensor<1x2048xf32> loc(#loc30)
    %40 = arith.cmpf ogt, %cst_3, %39 : tensor<1x2048xf32> loc(#loc70)
    %41 = arith.select %40, %cst_3, %39 : tensor<1x2048xi1>, tensor<1x2048xf32> loc(#loc71)
    %42 = arith.select %20, %41, %cst_3 : tensor<1x2048xi1>, tensor<1x2048xf32> loc(#loc34)
    %43 = arith.select %20, %cst_0, %cst_3 : tensor<1x2048xi1>, tensor<1x2048xf32> loc(#loc35)
    %44 = tt.splat %arg5 : !tt.ptr<f32> -> tensor<1x2048x!tt.ptr<f32>> loc(#loc36)
    %45 = tt.addptr %44, %16 : tensor<1x2048x!tt.ptr<f32>>, tensor<1x2048xi32> loc(#loc36)
    tt.store %45, %41, %20 : tensor<1x2048x!tt.ptr<f32>> loc(#loc37)
    %46:3 = "tt.reduce"(%42, %cst_3, %43) <{axis = 1 : i32}> ({
    ^bb0(%arg14: f32 loc(callsite(#loc1 at #loc39)), %arg15: f32 loc(callsite(#loc1 at #loc39)), %arg16: f32 loc(callsite(#loc1 at #loc39)), %arg17: f32 loc(callsite(#loc1 at #loc39)), %arg18: f32 loc(callsite(#loc1 at #loc39)), %arg19: f32 loc(callsite(#loc1 at #loc39))):
      %64 = arith.subf %arg17, %arg14 : f32 loc(#loc86)
      %65 = arith.addf %arg16, %arg19 : f32 loc(#loc87)
      %66 = arith.cmpf oeq, %65, %cst : f32 loc(#loc88)
      %67 = arith.divf %arg19, %65 : f32 loc(#loc89)
      %68 = arith.select %66, %cst, %67 : f32 loc(#loc90)
      %69 = arith.mulf %64, %68 : f32 loc(#loc91)
      %70 = arith.addf %arg14, %69 : f32 loc(#loc92)
      %71 = arith.addf %arg15, %arg18 : f32 loc(#loc93)
      %72 = arith.mulf %64, %64 : f32 loc(#loc94)
      %73 = arith.mulf %72, %arg16 : f32 loc(#loc95)
      %74 = arith.mulf %73, %68 : f32 loc(#loc96)
      %75 = arith.addf %71, %74 : f32 loc(#loc97)
      tt.reduce.return %70, %75, %65 : f32, f32, f32 loc(#loc72)
    }) : (tensor<1x2048xf32>, tensor<1x2048xf32>, tensor<1x2048xf32>) -> (tensor<1xf32>, tensor<1xf32>, tensor<1xf32>) loc(#loc72)
    %47 = tt.expand_dims %46#0 {axis = 1 : i32} : tensor<1xf32> -> tensor<1x1xf32> loc(#loc52)
    %48 = tt.expand_dims %46#1 {axis = 1 : i32} : tensor<1xf32> -> tensor<1x1xf32> loc(#loc53)
    %49 = tt.addptr %arg6, %0 : !tt.ptr<f32>, i32 loc(#loc54)
    %50 = tt.splat %49 : !tt.ptr<f32> -> tensor<1x1x!tt.ptr<f32>> loc(#loc54)
    tt.store %50, %47, %2 : tensor<1x1x!tt.ptr<f32>> loc(#loc55)
    %51 = tt.addptr %arg7, %0 : !tt.ptr<f32>, i32 loc(#loc56)
    %52 = tt.splat %51 : !tt.ptr<f32> -> tensor<1x1x!tt.ptr<f32>> loc(#loc56)
    tt.store %52, %48, %2 : tensor<1x1x!tt.ptr<f32>> loc(#loc57)
    %53 = tt.addptr %arg8, %0 : !tt.ptr<f32>, i32 loc(#loc58)
    %54 = tt.splat %53 : !tt.ptr<f32> -> tensor<1x1x!tt.ptr<f32>> loc(#loc58)
    tt.store %54, %47, %2 : tensor<1x1x!tt.ptr<f32>> loc(#loc59)
    %55 = tt.addptr %arg9, %0 : !tt.ptr<f32>, i32 loc(#loc60)
    %56 = tt.splat %55 : !tt.ptr<f32> -> tensor<1x1x!tt.ptr<f32>> loc(#loc60)
    tt.store %56, %48, %2 : tensor<1x1x!tt.ptr<f32>> loc(#loc61)
    %57 = arith.divf %48, %cst_2 : tensor<1x1xf32> loc(#loc62)
    %58 = arith.addf %57, %cst_1 : tensor<1x1xf32> loc(#loc63)
    %59 = tt.extern_elementwise %58 {libname = "", libpath = "", pure = true, symbol = "__nv_rsqrtf"} : (tensor<1x1xf32>) -> tensor<1x1xf32> loc(#loc64)
    %60 = tt.addptr %arg10, %0 : !tt.ptr<f32>, i32 loc(#loc65)
    %61 = tt.splat %60 : !tt.ptr<f32> -> tensor<1x1x!tt.ptr<f32>> loc(#loc65)
    tt.store %61, %59, %2 : tensor<1x1x!tt.ptr<f32>> loc(#loc66)
    %62 = tt.addptr %arg11, %0 : !tt.ptr<f32>, i32 loc(#loc67)
    %63 = tt.splat %62 : !tt.ptr<f32> -> tensor<1x1x!tt.ptr<f32>> loc(#loc67)
    tt.store %63, %59, %2 : tensor<1x1x!tt.ptr<f32>> loc(#loc68)
    tt.return loc(#loc69)
  } loc(#loc)
} loc(#loc)
#loc2 = loc("inductor_cache/dd/cdd5kx3h4nf7ktsyxllzdabsrczhjo3e5uxaxpugxlbji2qidtza.py":22:28)
#loc3 = loc("inductor_cache/dd/cdd5kx3h4nf7ktsyxllzdabsrczhjo3e5uxaxpugxlbji2qidtza.py":24:21)
#loc4 = loc("inductor_cache/dd/cdd5kx3h4nf7ktsyxllzdabsrczhjo3e5uxaxpugxlbji2qidtza.py":25:25)
#loc5 = loc("inductor_cache/dd/cdd5kx3h4nf7ktsyxllzdabsrczhjo3e5uxaxpugxlbji2qidtza.py":25:33)
#loc6 = loc("inductor_cache/dd/cdd5kx3h4nf7ktsyxllzdabsrczhjo3e5uxaxpugxlbji2qidtza.py":27:30)
#loc7 = loc("inductor_cache/dd/cdd5kx3h4nf7ktsyxllzdabsrczhjo3e5uxaxpugxlbji2qidtza.py":27:35)
#loc8 = loc("inductor_cache/dd/cdd5kx3h4nf7ktsyxllzdabsrczhjo3e5uxaxpugxlbji2qidtza.py":28:30)
#loc9 = loc("inductor_cache/dd/cdd5kx3h4nf7ktsyxllzdabsrczhjo3e5uxaxpugxlbji2qidtza.py":28:35)
#loc10 = loc("inductor_cache/dd/cdd5kx3h4nf7ktsyxllzdabsrczhjo3e5uxaxpugxlbji2qidtza.py":29:19)
#loc11 = loc("inductor_cache/dd/cdd5kx3h4nf7ktsyxllzdabsrczhjo3e5uxaxpugxlbji2qidtza.py":35:25)
#loc12 = loc("inductor_cache/dd/cdd5kx3h4nf7ktsyxllzdabsrczhjo3e5uxaxpugxlbji2qidtza.py":37:23)
#loc13 = loc("inductor_cache/dd/cdd5kx3h4nf7ktsyxllzdabsrczhjo3e5uxaxpugxlbji2qidtza.py":38:44)
#loc14 = loc("inductor_cache/dd/cdd5kx3h4nf7ktsyxllzdabsrczhjo3e5uxaxpugxlbji2qidtza.py":38:39)
#loc15 = loc("inductor_cache/dd/cdd5kx3h4nf7ktsyxllzdabsrczhjo3e5uxaxpugxlbji2qidtza.py":38:34)
#loc16 = loc("inductor_cache/dd/cdd5kx3h4nf7ktsyxllzdabsrczhjo3e5uxaxpugxlbji2qidtza.py":38:57)
#loc17 = loc("inductor_cache/dd/cdd5kx3h4nf7ktsyxllzdabsrczhjo3e5uxaxpugxlbji2qidtza.py":38:49)
#loc18 = loc("inductor_cache/dd/cdd5kx3h4nf7ktsyxllzdabsrczhjo3e5uxaxpugxlbji2qidtza.py":39:42)
#loc19 = loc("inductor_cache/dd/cdd5kx3h4nf7ktsyxllzdabsrczhjo3e5uxaxpugxlbji2qidtza.py":39:40)
#loc20 = loc("inductor_cache/dd/cdd5kx3h4nf7ktsyxllzdabsrczhjo3e5uxaxpugxlbji2qidtza.py":39:35)
#loc21 = loc("inductor_cache/dd/cdd5kx3h4nf7ktsyxllzdabsrczhjo3e5uxaxpugxlbji2qidtza.py":39:47)
#loc22 = loc("inductor_cache/dd/cdd5kx3h4nf7ktsyxllzdabsrczhjo3e5uxaxpugxlbji2qidtza.py":40:35)
#loc23 = loc("inductor_cache/dd/cdd5kx3h4nf7ktsyxllzdabsrczhjo3e5uxaxpugxlbji2qidtza.py":40:47)
#loc24 = loc("inductor_cache/dd/cdd5kx3h4nf7ktsyxllzdabsrczhjo3e5uxaxpugxlbji2qidtza.py":41:22)
#loc25 = loc("inductor_cache/dd/cdd5kx3h4nf7ktsyxllzdabsrczhjo3e5uxaxpugxlbji2qidtza.py":43:22)
#loc26 = loc("inductor_cache/dd/cdd5kx3h4nf7ktsyxllzdabsrczhjo3e5uxaxpugxlbji2qidtza.py":45:22)
#loc27 = loc("inductor_cache/dd/cdd5kx3h4nf7ktsyxllzdabsrczhjo3e5uxaxpugxlbji2qidtza.py":46:31)
#loc28 = loc("inductor_cache/dd/cdd5kx3h4nf7ktsyxllzdabsrczhjo3e5uxaxpugxlbji2qidtza.py":47:22)
#loc29 = loc("inductor_cache/dd/cdd5kx3h4nf7ktsyxllzdabsrczhjo3e5uxaxpugxlbji2qidtza.py":48:23)
#loc30 = loc("inductor_cache/dd/cdd5kx3h4nf7ktsyxllzdabsrczhjo3e5uxaxpugxlbji2qidtza.py":49:24)
#loc31 = loc("/home/sahanp/.conda/envs/parity-bench/lib/python3.12/site-packages/torch/_inductor/runtime/triton_helpers.py":118:15)
#loc32 = loc("inductor_cache/dd/cdd5kx3h4nf7ktsyxllzdabsrczhjo3e5uxaxpugxlbji2qidtza.py":51:46)
#loc33 = loc("/home/sahanp/.conda/envs/parity-bench/lib/python3.12/site-packages/torch/_inductor/runtime/triton_helpers.py":121:29)
#loc34 = loc("inductor_cache/dd/cdd5kx3h4nf7ktsyxllzdabsrczhjo3e5uxaxpugxlbji2qidtza.py":56:62)
#loc35 = loc("inductor_cache/dd/cdd5kx3h4nf7ktsyxllzdabsrczhjo3e5uxaxpugxlbji2qidtza.py":58:66)
#loc36 = loc("inductor_cache/dd/cdd5kx3h4nf7ktsyxllzdabsrczhjo3e5uxaxpugxlbji2qidtza.py":59:29)
#loc37 = loc("inductor_cache/dd/cdd5kx3h4nf7ktsyxllzdabsrczhjo3e5uxaxpugxlbji2qidtza.py":59:51)
#loc38 = loc("/home/sahanp/.conda/envs/parity-bench/lib/python3.12/site-packages/torch/_inductor/runtime/triton_helpers.py":204:46)
#loc40 = loc("/home/sahanp/.conda/envs/parity-bench/lib/python3.12/site-packages/torch/_inductor/runtime/triton_helpers.py":192:21)
#loc41 = loc("/home/sahanp/.conda/envs/parity-bench/lib/python3.12/site-packages/torch/_inductor/runtime/triton_helpers.py":193:28)
#loc42 = loc("/home/sahanp/.conda/envs/parity-bench/lib/python3.12/site-packages/torch/_inductor/runtime/triton_helpers.py":194:39)
#loc43 = loc("/home/sahanp/.conda/envs/parity-bench/lib/python3.12/site-packages/torch/_inductor/runtime/triton_helpers.py":194:60)
#loc44 = loc("/home/sahanp/.conda/envs/parity-bench/lib/python3.12/site-packages/torch/_inductor/runtime/triton_helpers.py":194:49)
#loc45 = loc("/home/sahanp/.conda/envs/parity-bench/lib/python3.12/site-packages/torch/_inductor/runtime/triton_helpers.py":196:25)
#loc46 = loc("/home/sahanp/.conda/envs/parity-bench/lib/python3.12/site-packages/torch/_inductor/runtime/triton_helpers.py":196:17)
#loc47 = loc("/home/sahanp/.conda/envs/parity-bench/lib/python3.12/site-packages/torch/_inductor/runtime/triton_helpers.py":197:15)
#loc48 = loc("/home/sahanp/.conda/envs/parity-bench/lib/python3.12/site-packages/torch/_inductor/runtime/triton_helpers.py":197:30)
#loc49 = loc("/home/sahanp/.conda/envs/parity-bench/lib/python3.12/site-packages/torch/_inductor/runtime/triton_helpers.py":197:38)
#loc50 = loc("/home/sahanp/.conda/envs/parity-bench/lib/python3.12/site-packages/torch/_inductor/runtime/triton_helpers.py":197:49)
#loc51 = loc("/home/sahanp/.conda/envs/parity-bench/lib/python3.12/site-packages/torch/_inductor/runtime/triton_helpers.py":197:22)
#loc52 = loc("inductor_cache/dd/cdd5kx3h4nf7ktsyxllzdabsrczhjo3e5uxaxpugxlbji2qidtza.py":63:22)
#loc53 = loc("inductor_cache/dd/cdd5kx3h4nf7ktsyxllzdabsrczhjo3e5uxaxpugxlbji2qidtza.py":64:22)
#loc54 = loc("inductor_cache/dd/cdd5kx3h4nf7ktsyxllzdabsrczhjo3e5uxaxpugxlbji2qidtza.py":66:25)
#loc55 = loc("inductor_cache/dd/cdd5kx3h4nf7ktsyxllzdabsrczhjo3e5uxaxpugxlbji2qidtza.py":66:37)
#loc56 = loc("inductor_cache/dd/cdd5kx3h4nf7ktsyxllzdabsrczhjo3e5uxaxpugxlbji2qidtza.py":67:25)
#loc57 = loc("inductor_cache/dd/cdd5kx3h4nf7ktsyxllzdabsrczhjo3e5uxaxpugxlbji2qidtza.py":67:37)
#loc58 = loc("inductor_cache/dd/cdd5kx3h4nf7ktsyxllzdabsrczhjo3e5uxaxpugxlbji2qidtza.py":68:25)
#loc59 = loc("inductor_cache/dd/cdd5kx3h4nf7ktsyxllzdabsrczhjo3e5uxaxpugxlbji2qidtza.py":68:37)
#loc60 = loc("inductor_cache/dd/cdd5kx3h4nf7ktsyxllzdabsrczhjo3e5uxaxpugxlbji2qidtza.py":69:25)
#loc61 = loc("inductor_cache/dd/cdd5kx3h4nf7ktsyxllzdabsrczhjo3e5uxaxpugxlbji2qidtza.py":69:37)
#loc62 = loc("inductor_cache/dd/cdd5kx3h4nf7ktsyxllzdabsrczhjo3e5uxaxpugxlbji2qidtza.py":71:20)
#loc63 = loc("inductor_cache/dd/cdd5kx3h4nf7ktsyxllzdabsrczhjo3e5uxaxpugxlbji2qidtza.py":73:20)
#loc64 = loc("inductor_cache/dd/cdd5kx3h4nf7ktsyxllzdabsrczhjo3e5uxaxpugxlbji2qidtza.py":74:28)
#loc65 = loc("inductor_cache/dd/cdd5kx3h4nf7ktsyxllzdabsrczhjo3e5uxaxpugxlbji2qidtza.py":75:25)
#loc66 = loc("inductor_cache/dd/cdd5kx3h4nf7ktsyxllzdabsrczhjo3e5uxaxpugxlbji2qidtza.py":75:37)
#loc67 = loc("inductor_cache/dd/cdd5kx3h4nf7ktsyxllzdabsrczhjo3e5uxaxpugxlbji2qidtza.py":76:25)
#loc68 = loc("inductor_cache/dd/cdd5kx3h4nf7ktsyxllzdabsrczhjo3e5uxaxpugxlbji2qidtza.py":76:37)
#loc69 = loc("inductor_cache/dd/cdd5kx3h4nf7ktsyxllzdabsrczhjo3e5uxaxpugxlbji2qidtza.py":76:4)
#loc70 = loc(callsite(#loc31 at #loc32))
#loc71 = loc(callsite(#loc33 at #loc32))
#loc72 = loc(callsite(#loc38 at #loc39))
#loc74 = loc(callsite(#loc40 at #loc38))
#loc75 = loc(callsite(#loc41 at #loc38))
#loc76 = loc(callsite(#loc42 at #loc38))
#loc77 = loc(callsite(#loc43 at #loc38))
#loc78 = loc(callsite(#loc44 at #loc38))
#loc79 = loc(callsite(#loc45 at #loc38))
#loc80 = loc(callsite(#loc46 at #loc38))
#loc81 = loc(callsite(#loc47 at #loc38))
#loc82 = loc(callsite(#loc48 at #loc38))
#loc83 = loc(callsite(#loc49 at #loc38))
#loc84 = loc(callsite(#loc50 at #loc38))
#loc85 = loc(callsite(#loc51 at #loc38))
#loc86 = loc(callsite(#loc74 at #loc39))
#loc87 = loc(callsite(#loc75 at #loc39))
#loc88 = loc(callsite(#loc76 at #loc39))
#loc89 = loc(callsite(#loc77 at #loc39))
#loc90 = loc(callsite(#loc78 at #loc39))
#loc91 = loc(callsite(#loc79 at #loc39))
#loc92 = loc(callsite(#loc80 at #loc39))
#loc93 = loc(callsite(#loc81 at #loc39))
#loc94 = loc(callsite(#loc82 at #loc39))
#loc95 = loc(callsite(#loc83 at #loc39))
#loc96 = loc(callsite(#loc84 at #loc39))
#loc97 = loc(callsite(#loc85 at #loc39))
