#loc = loc("inductor_cache/vf/cvfraza2int6gqq2fso35qnt5jikznu775slmprwlajjz4nxvzsg.py":19:0)
module {
  tt.func public @triton_poi_fused_add_div_mul_17(%arg0: !tt.ptr<f32> {tt.divisibility = 16 : i32} loc("inductor_cache/vf/cvfraza2int6gqq2fso35qnt5jikznu775slmprwlajjz4nxvzsg.py":19:0), %arg1: !tt.ptr<f32> {tt.divisibility = 16 : i32} loc("inductor_cache/vf/cvfraza2int6gqq2fso35qnt5jikznu775slmprwlajjz4nxvzsg.py":19:0), %arg2: !tt.ptr<f32> {tt.divisibility = 16 : i32} loc("inductor_cache/vf/cvfraza2int6gqq2fso35qnt5jikznu775slmprwlajjz4nxvzsg.py":19:0), %arg3: !tt.ptr<f32> {tt.divisibility = 16 : i32} loc("inductor_cache/vf/cvfraza2int6gqq2fso35qnt5jikznu775slmprwlajjz4nxvzsg.py":19:0), %arg4: !tt.ptr<f32> {tt.divisibility = 16 : i32} loc("inductor_cache/vf/cvfraza2int6gqq2fso35qnt5jikznu775slmprwlajjz4nxvzsg.py":19:0), %arg5: i32 {tt.divisibility = 16 : i32} loc("inductor_cache/vf/cvfraza2int6gqq2fso35qnt5jikznu775slmprwlajjz4nxvzsg.py":19:0)) attributes {noinline = false} {
    %cst = arith.constant dense<1.000000e-10> : tensor<1024xf32> loc(#loc1)
    %cst_0 = arith.constant dense<65536> : tensor<1024xi32> loc(#loc1)
    %cst_1 = arith.constant dense<256> : tensor<1024xi32> loc(#loc1)
    %c1024_i32 = arith.constant 1024 : i32 loc(#loc1)
    %0 = tt.get_program_id x : i32 loc(#loc2)
    %1 = arith.muli %0, %c1024_i32 : i32 loc(#loc3)
    %2 = tt.make_range {end = 1024 : i32, start = 0 : i32} : tensor<1024xi32> loc(#loc4)
    %3 = tt.splat %1 : i32 -> tensor<1024xi32> loc(#loc5)
    %4 = arith.addi %3, %2 : tensor<1024xi32> loc(#loc5)
    %5 = arith.remsi %4, %cst_1 : tensor<1024xi32> loc(#loc6)
    %6 = arith.divsi %4, %cst_0 : tensor<1024xi32> loc(#loc7)
    %7 = arith.divsi %4, %cst_1 : tensor<1024xi32> loc(#loc8)
    %8 = arith.remsi %7, %cst_1 : tensor<1024xi32> loc(#loc9)
    %9 = tt.splat %arg0 : !tt.ptr<f32> -> tensor<1024x!tt.ptr<f32>> loc(#loc10)
    %10 = tt.addptr %9, %4 : tensor<1024x!tt.ptr<f32>>, tensor<1024xi32> loc(#loc10)
    %11 = tt.load %10 : tensor<1024x!tt.ptr<f32>> loc(#loc11)
    %12 = arith.muli %6, %cst_1 : tensor<1024xi32> loc(#loc12)
    %13 = arith.addi %5, %12 : tensor<1024xi32> loc(#loc13)
    %14 = tt.splat %arg1 : !tt.ptr<f32> -> tensor<1024x!tt.ptr<f32>> loc(#loc14)
    %15 = tt.addptr %14, %13 : tensor<1024x!tt.ptr<f32>>, tensor<1024xi32> loc(#loc14)
    %16 = tt.load %15 evictionPolicy = evict_last : tensor<1024x!tt.ptr<f32>> loc(#loc15)
    %17 = tt.splat %arg2 : !tt.ptr<f32> -> tensor<1024x!tt.ptr<f32>> loc(#loc16)
    %18 = tt.addptr %17, %8 : tensor<1024x!tt.ptr<f32>>, tensor<1024xi32> loc(#loc16)
    %19 = tt.load %18 evictionPolicy = evict_last : tensor<1024x!tt.ptr<f32>> loc(#loc17)
    %20 = arith.addf %16, %cst : tensor<1024xf32> loc(#loc18)
    %21 = arith.divf %11, %20 : tensor<1024xf32> loc(#loc19)
    %22 = arith.mulf %21, %19 : tensor<1024xf32> loc(#loc20)
    %23 = tt.splat %arg3 : !tt.ptr<f32> -> tensor<1024x!tt.ptr<f32>> loc(#loc21)
    %24 = tt.addptr %23, %4 : tensor<1024x!tt.ptr<f32>>, tensor<1024xi32> loc(#loc21)
    tt.store %24, %21 : tensor<1024x!tt.ptr<f32>> loc(#loc22)
    %25 = tt.splat %arg4 : !tt.ptr<f32> -> tensor<1024x!tt.ptr<f32>> loc(#loc23)
    %26 = tt.addptr %25, %4 : tensor<1024x!tt.ptr<f32>>, tensor<1024xi32> loc(#loc23)
    tt.store %26, %22 : tensor<1024x!tt.ptr<f32>> loc(#loc24)
    tt.return loc(#loc25)
  } loc(#loc)
} loc(#loc)
#loc1 = loc(unknown)
#loc2 = loc("inductor_cache/vf/cvfraza2int6gqq2fso35qnt5jikznu775slmprwlajjz4nxvzsg.py":21:28)
#loc3 = loc("inductor_cache/vf/cvfraza2int6gqq2fso35qnt5jikznu775slmprwlajjz4nxvzsg.py":21:33)
#loc4 = loc("inductor_cache/vf/cvfraza2int6gqq2fso35qnt5jikznu775slmprwlajjz4nxvzsg.py":22:36)
#loc5 = loc("inductor_cache/vf/cvfraza2int6gqq2fso35qnt5jikznu775slmprwlajjz4nxvzsg.py":22:23)
#loc6 = loc("inductor_cache/vf/cvfraza2int6gqq2fso35qnt5jikznu775slmprwlajjz4nxvzsg.py":25:19)
#loc7 = loc("inductor_cache/vf/cvfraza2int6gqq2fso35qnt5jikznu775slmprwlajjz4nxvzsg.py":26:19)
#loc8 = loc("inductor_cache/vf/cvfraza2int6gqq2fso35qnt5jikznu775slmprwlajjz4nxvzsg.py":27:21)
#loc9 = loc("inductor_cache/vf/cvfraza2int6gqq2fso35qnt5jikznu775slmprwlajjz4nxvzsg.py":27:28)
#loc10 = loc("inductor_cache/vf/cvfraza2int6gqq2fso35qnt5jikznu775slmprwlajjz4nxvzsg.py":28:30)
#loc11 = loc("inductor_cache/vf/cvfraza2int6gqq2fso35qnt5jikznu775slmprwlajjz4nxvzsg.py":28:35)
#loc12 = loc("inductor_cache/vf/cvfraza2int6gqq2fso35qnt5jikznu775slmprwlajjz4nxvzsg.py":29:39)
#loc13 = loc("inductor_cache/vf/cvfraza2int6gqq2fso35qnt5jikznu775slmprwlajjz4nxvzsg.py":29:35)
#loc14 = loc("inductor_cache/vf/cvfraza2int6gqq2fso35qnt5jikznu775slmprwlajjz4nxvzsg.py":29:30)
#loc15 = loc("inductor_cache/vf/cvfraza2int6gqq2fso35qnt5jikznu775slmprwlajjz4nxvzsg.py":29:44)
#loc16 = loc("inductor_cache/vf/cvfraza2int6gqq2fso35qnt5jikznu775slmprwlajjz4nxvzsg.py":30:30)
#loc17 = loc("inductor_cache/vf/cvfraza2int6gqq2fso35qnt5jikznu775slmprwlajjz4nxvzsg.py":30:35)
#loc18 = loc("inductor_cache/vf/cvfraza2int6gqq2fso35qnt5jikznu775slmprwlajjz4nxvzsg.py":32:18)
#loc19 = loc("inductor_cache/vf/cvfraza2int6gqq2fso35qnt5jikznu775slmprwlajjz4nxvzsg.py":33:18)
#loc20 = loc("inductor_cache/vf/cvfraza2int6gqq2fso35qnt5jikznu775slmprwlajjz4nxvzsg.py":34:18)
#loc21 = loc("inductor_cache/vf/cvfraza2int6gqq2fso35qnt5jikznu775slmprwlajjz4nxvzsg.py":35:25)
#loc22 = loc("inductor_cache/vf/cvfraza2int6gqq2fso35qnt5jikznu775slmprwlajjz4nxvzsg.py":35:36)
#loc23 = loc("inductor_cache/vf/cvfraza2int6gqq2fso35qnt5jikznu775slmprwlajjz4nxvzsg.py":36:25)
#loc24 = loc("inductor_cache/vf/cvfraza2int6gqq2fso35qnt5jikznu775slmprwlajjz4nxvzsg.py":36:36)
#loc25 = loc("inductor_cache/vf/cvfraza2int6gqq2fso35qnt5jikznu775slmprwlajjz4nxvzsg.py":36:4)
