#loc = loc("inductor_cache/fd/cfd5jisgj25vj6wzrme7losfv5uy7poqdezl7ucsrti4aunfsr7n.py":19:0)
module {
  tt.func public @triton_poi_fused_add_native_batch_norm_backward_23(%arg0: !tt.ptr<f32> {tt.divisibility = 16 : i32} loc("inductor_cache/fd/cfd5jisgj25vj6wzrme7losfv5uy7poqdezl7ucsrti4aunfsr7n.py":19:0), %arg1: !tt.ptr<f32> {tt.divisibility = 16 : i32} loc("inductor_cache/fd/cfd5jisgj25vj6wzrme7losfv5uy7poqdezl7ucsrti4aunfsr7n.py":19:0), %arg2: !tt.ptr<f32> {tt.divisibility = 16 : i32} loc("inductor_cache/fd/cfd5jisgj25vj6wzrme7losfv5uy7poqdezl7ucsrti4aunfsr7n.py":19:0), %arg3: !tt.ptr<f32> {tt.divisibility = 16 : i32} loc("inductor_cache/fd/cfd5jisgj25vj6wzrme7losfv5uy7poqdezl7ucsrti4aunfsr7n.py":19:0), %arg4: !tt.ptr<f32> {tt.divisibility = 16 : i32} loc("inductor_cache/fd/cfd5jisgj25vj6wzrme7losfv5uy7poqdezl7ucsrti4aunfsr7n.py":19:0), %arg5: !tt.ptr<f32> {tt.divisibility = 16 : i32} loc("inductor_cache/fd/cfd5jisgj25vj6wzrme7losfv5uy7poqdezl7ucsrti4aunfsr7n.py":19:0), %arg6: !tt.ptr<f32> {tt.divisibility = 16 : i32} loc("inductor_cache/fd/cfd5jisgj25vj6wzrme7losfv5uy7poqdezl7ucsrti4aunfsr7n.py":19:0), %arg7: !tt.ptr<f32> {tt.divisibility = 16 : i32} loc("inductor_cache/fd/cfd5jisgj25vj6wzrme7losfv5uy7poqdezl7ucsrti4aunfsr7n.py":19:0), %arg8: !tt.ptr<f32> {tt.divisibility = 16 : i32} loc("inductor_cache/fd/cfd5jisgj25vj6wzrme7losfv5uy7poqdezl7ucsrti4aunfsr7n.py":19:0), %arg9: i32 {tt.divisibility = 16 : i32} loc("inductor_cache/fd/cfd5jisgj25vj6wzrme7losfv5uy7poqdezl7ucsrti4aunfsr7n.py":19:0)) attributes {noinline = false} {
    %cst = arith.constant dense<64> : tensor<512xi32> loc(#loc1)
    %c512_i32 = arith.constant 512 : i32 loc(#loc1)
    %0 = tt.get_program_id x : i32 loc(#loc2)
    %1 = arith.muli %0, %c512_i32 : i32 loc(#loc3)
    %2 = tt.make_range {end = 512 : i32, start = 0 : i32} : tensor<512xi32> loc(#loc4)
    %3 = tt.splat %1 : i32 -> tensor<512xi32> loc(#loc5)
    %4 = arith.addi %3, %2 : tensor<512xi32> loc(#loc5)
    %5 = arith.remsi %4, %cst : tensor<512xi32> loc(#loc6)
    %6 = tt.splat %arg0 : !tt.ptr<f32> -> tensor<512x!tt.ptr<f32>> loc(#loc7)
    %7 = tt.addptr %6, %4 : tensor<512x!tt.ptr<f32>>, tensor<512xi32> loc(#loc7)
    %8 = tt.load %7 : tensor<512x!tt.ptr<f32>> loc(#loc8)
    %9 = tt.splat %arg1 : !tt.ptr<f32> -> tensor<512x!tt.ptr<f32>> loc(#loc9)
    %10 = tt.addptr %9, %4 : tensor<512x!tt.ptr<f32>>, tensor<512xi32> loc(#loc9)
    %11 = tt.load %10 : tensor<512x!tt.ptr<f32>> loc(#loc10)
    %12 = tt.splat %arg2 : !tt.ptr<f32> -> tensor<512x!tt.ptr<f32>> loc(#loc11)
    %13 = tt.addptr %12, %4 : tensor<512x!tt.ptr<f32>>, tensor<512xi32> loc(#loc11)
    %14 = tt.load %13 : tensor<512x!tt.ptr<f32>> loc(#loc12)
    %15 = tt.splat %arg3 : !tt.ptr<f32> -> tensor<512x!tt.ptr<f32>> loc(#loc13)
    %16 = tt.addptr %15, %4 : tensor<512x!tt.ptr<f32>>, tensor<512xi32> loc(#loc13)
    %17 = tt.load %16 : tensor<512x!tt.ptr<f32>> loc(#loc14)
    %18 = tt.splat %arg4 : !tt.ptr<f32> -> tensor<512x!tt.ptr<f32>> loc(#loc15)
    %19 = tt.addptr %18, %5 : tensor<512x!tt.ptr<f32>>, tensor<512xi32> loc(#loc15)
    %20 = tt.load %19 evictionPolicy = evict_last : tensor<512x!tt.ptr<f32>> loc(#loc16)
    %21 = tt.splat %arg5 : !tt.ptr<f32> -> tensor<512x!tt.ptr<f32>> loc(#loc17)
    %22 = tt.addptr %21, %5 : tensor<512x!tt.ptr<f32>>, tensor<512xi32> loc(#loc17)
    %23 = tt.load %22 evictionPolicy = evict_last : tensor<512x!tt.ptr<f32>> loc(#loc18)
    %24 = tt.splat %arg6 : !tt.ptr<f32> -> tensor<512x!tt.ptr<f32>> loc(#loc19)
    %25 = tt.addptr %24, %5 : tensor<512x!tt.ptr<f32>>, tensor<512xi32> loc(#loc19)
    %26 = tt.load %25 evictionPolicy = evict_last : tensor<512x!tt.ptr<f32>> loc(#loc20)
    %27 = arith.addf %14, %17 : tensor<512xf32> loc(#loc21)
    %28 = arith.addf %11, %27 : tensor<512xf32> loc(#loc22)
    %29 = arith.addf %8, %28 : tensor<512xf32> loc(#loc23)
    %30 = arith.subf %29, %20 : tensor<512xf32> loc(#loc24)
    %31 = arith.subf %28, %23 : tensor<512xf32> loc(#loc25)
    %32 = arith.subf %27, %26 : tensor<512xf32> loc(#loc26)
    tt.store %7, %30 : tensor<512x!tt.ptr<f32>> loc(#loc27)
    %33 = tt.splat %arg7 : !tt.ptr<f32> -> tensor<512x!tt.ptr<f32>> loc(#loc28)
    %34 = tt.addptr %33, %4 : tensor<512x!tt.ptr<f32>>, tensor<512xi32> loc(#loc28)
    tt.store %34, %31 : tensor<512x!tt.ptr<f32>> loc(#loc29)
    %35 = tt.splat %arg8 : !tt.ptr<f32> -> tensor<512x!tt.ptr<f32>> loc(#loc30)
    %36 = tt.addptr %35, %4 : tensor<512x!tt.ptr<f32>>, tensor<512xi32> loc(#loc30)
    tt.store %36, %32 : tensor<512x!tt.ptr<f32>> loc(#loc31)
    tt.return loc(#loc32)
  } loc(#loc)
} loc(#loc)
#loc1 = loc(unknown)
#loc2 = loc("inductor_cache/fd/cfd5jisgj25vj6wzrme7losfv5uy7poqdezl7ucsrti4aunfsr7n.py":21:28)
#loc3 = loc("inductor_cache/fd/cfd5jisgj25vj6wzrme7losfv5uy7poqdezl7ucsrti4aunfsr7n.py":21:33)
#loc4 = loc("inductor_cache/fd/cfd5jisgj25vj6wzrme7losfv5uy7poqdezl7ucsrti4aunfsr7n.py":22:36)
#loc5 = loc("inductor_cache/fd/cfd5jisgj25vj6wzrme7losfv5uy7poqdezl7ucsrti4aunfsr7n.py":22:23)
#loc6 = loc("inductor_cache/fd/cfd5jisgj25vj6wzrme7losfv5uy7poqdezl7ucsrti4aunfsr7n.py":25:19)
#loc7 = loc("inductor_cache/fd/cfd5jisgj25vj6wzrme7losfv5uy7poqdezl7ucsrti4aunfsr7n.py":26:34)
#loc8 = loc("inductor_cache/fd/cfd5jisgj25vj6wzrme7losfv5uy7poqdezl7ucsrti4aunfsr7n.py":26:39)
#loc9 = loc("inductor_cache/fd/cfd5jisgj25vj6wzrme7losfv5uy7poqdezl7ucsrti4aunfsr7n.py":27:30)
#loc10 = loc("inductor_cache/fd/cfd5jisgj25vj6wzrme7losfv5uy7poqdezl7ucsrti4aunfsr7n.py":27:35)
#loc11 = loc("inductor_cache/fd/cfd5jisgj25vj6wzrme7losfv5uy7poqdezl7ucsrti4aunfsr7n.py":28:30)
#loc12 = loc("inductor_cache/fd/cfd5jisgj25vj6wzrme7losfv5uy7poqdezl7ucsrti4aunfsr7n.py":28:35)
#loc13 = loc("inductor_cache/fd/cfd5jisgj25vj6wzrme7losfv5uy7poqdezl7ucsrti4aunfsr7n.py":29:30)
#loc14 = loc("inductor_cache/fd/cfd5jisgj25vj6wzrme7losfv5uy7poqdezl7ucsrti4aunfsr7n.py":29:35)
#loc15 = loc("inductor_cache/fd/cfd5jisgj25vj6wzrme7losfv5uy7poqdezl7ucsrti4aunfsr7n.py":30:30)
#loc16 = loc("inductor_cache/fd/cfd5jisgj25vj6wzrme7losfv5uy7poqdezl7ucsrti4aunfsr7n.py":30:35)
#loc17 = loc("inductor_cache/fd/cfd5jisgj25vj6wzrme7losfv5uy7poqdezl7ucsrti4aunfsr7n.py":31:30)
#loc18 = loc("inductor_cache/fd/cfd5jisgj25vj6wzrme7losfv5uy7poqdezl7ucsrti4aunfsr7n.py":31:35)
#loc19 = loc("inductor_cache/fd/cfd5jisgj25vj6wzrme7losfv5uy7poqdezl7ucsrti4aunfsr7n.py":32:31)
#loc20 = loc("inductor_cache/fd/cfd5jisgj25vj6wzrme7losfv5uy7poqdezl7ucsrti4aunfsr7n.py":32:36)
#loc21 = loc("inductor_cache/fd/cfd5jisgj25vj6wzrme7losfv5uy7poqdezl7ucsrti4aunfsr7n.py":33:18)
#loc22 = loc("inductor_cache/fd/cfd5jisgj25vj6wzrme7losfv5uy7poqdezl7ucsrti4aunfsr7n.py":34:18)
#loc23 = loc("inductor_cache/fd/cfd5jisgj25vj6wzrme7losfv5uy7poqdezl7ucsrti4aunfsr7n.py":35:18)
#loc24 = loc("inductor_cache/fd/cfd5jisgj25vj6wzrme7losfv5uy7poqdezl7ucsrti4aunfsr7n.py":36:18)
#loc25 = loc("inductor_cache/fd/cfd5jisgj25vj6wzrme7losfv5uy7poqdezl7ucsrti4aunfsr7n.py":37:19)
#loc26 = loc("inductor_cache/fd/cfd5jisgj25vj6wzrme7losfv5uy7poqdezl7ucsrti4aunfsr7n.py":38:19)
#loc27 = loc("inductor_cache/fd/cfd5jisgj25vj6wzrme7losfv5uy7poqdezl7ucsrti4aunfsr7n.py":39:39)
#loc28 = loc("inductor_cache/fd/cfd5jisgj25vj6wzrme7losfv5uy7poqdezl7ucsrti4aunfsr7n.py":40:25)
#loc29 = loc("inductor_cache/fd/cfd5jisgj25vj6wzrme7losfv5uy7poqdezl7ucsrti4aunfsr7n.py":40:37)
#loc30 = loc("inductor_cache/fd/cfd5jisgj25vj6wzrme7losfv5uy7poqdezl7ucsrti4aunfsr7n.py":41:25)
#loc31 = loc("inductor_cache/fd/cfd5jisgj25vj6wzrme7losfv5uy7poqdezl7ucsrti4aunfsr7n.py":41:37)
#loc32 = loc("inductor_cache/fd/cfd5jisgj25vj6wzrme7losfv5uy7poqdezl7ucsrti4aunfsr7n.py":41:4)
