#loc = loc("inductor_cache/fe/cfe4mlbuzacknwhsxfipzpepmwu5ytqmxs7altrexiw4266pcwfc.py":19:0)
module {
  tt.func public @triton_poi_fused_add_div_mul_neg_repeat_1(%arg0: !tt.ptr<f32> {tt.divisibility = 16 : i32} loc("inductor_cache/fe/cfe4mlbuzacknwhsxfipzpepmwu5ytqmxs7altrexiw4266pcwfc.py":19:0), %arg1: !tt.ptr<f32> {tt.divisibility = 16 : i32} loc("inductor_cache/fe/cfe4mlbuzacknwhsxfipzpepmwu5ytqmxs7altrexiw4266pcwfc.py":19:0), %arg2: !tt.ptr<f32> {tt.divisibility = 16 : i32} loc("inductor_cache/fe/cfe4mlbuzacknwhsxfipzpepmwu5ytqmxs7altrexiw4266pcwfc.py":19:0), %arg3: i32 {tt.divisibility = 16 : i32} loc("inductor_cache/fe/cfe4mlbuzacknwhsxfipzpepmwu5ytqmxs7altrexiw4266pcwfc.py":19:0)) attributes {noinline = false} {
    %cst = arith.constant dense<2.500000e-01> : tensor<256xf32> loc(#loc1)
    %cst_0 = arith.constant dense<0.000000e+00> : tensor<256xf32> loc(#loc1)
    %cst_1 = arith.constant dense<4> : tensor<256xi64> loc(#loc1)
    %cst_2 = arith.constant dense<0> : tensor<256xi32> loc(#loc1)
    %cst_3 = arith.constant dense<8> : tensor<256xi32> loc(#loc1)
    %cst_4 = arith.constant dense<4> : tensor<256xi32> loc(#loc1)
    %cst_5 = arith.constant dense<32> : tensor<256xi32> loc(#loc1)
    %cst_6 = arith.constant dense<2> : tensor<256xi32> loc(#loc1)
    %cst_7 = arith.constant dense<16> : tensor<256xi32> loc(#loc1)
    %c256_i32 = arith.constant 256 : i32 loc(#loc1)
    %0 = tt.get_program_id x : i32 loc(#loc2)
    %1 = arith.muli %0, %c256_i32 : i32 loc(#loc3)
    %2 = tt.make_range {end = 256 : i32, start = 0 : i32} : tensor<256xi32> loc(#loc4)
    %3 = tt.splat %1 : i32 -> tensor<256xi32> loc(#loc5)
    %4 = arith.addi %3, %2 : tensor<256xi32> loc(#loc5)
    %5 = arith.divsi %4, %cst_7 : tensor<256xi32> loc(#loc6)
    %6 = arith.remsi %5, %cst_6 : tensor<256xi32> loc(#loc7)
    %7 = arith.divsi %4, %cst_5 : tensor<256xi32> loc(#loc8)
    %8 = arith.remsi %4, %cst_7 : tensor<256xi32> loc(#loc9)
    %9 = arith.divsi %4, %cst_4 : tensor<256xi32> loc(#loc10)
    %10 = arith.remsi %9, %cst_3 : tensor<256xi32> loc(#loc11)
    %11 = arith.remsi %9, %cst_4 : tensor<256xi32> loc(#loc12)
    %12 = arith.remsi %4, %cst_4 : tensor<256xi32> loc(#loc13)
    %13 = arith.muli %7, %cst_7 : tensor<256xi32> loc(#loc14)
    %14 = arith.addi %8, %13 : tensor<256xi32> loc(#loc15)
    %15 = tt.splat %arg0 : !tt.ptr<f32> -> tensor<256x!tt.ptr<f32>> loc(#loc16)
    %16 = tt.addptr %15, %14 : tensor<256x!tt.ptr<f32>>, tensor<256xi32> loc(#loc16)
    %17 = tt.load %16 evictionPolicy = evict_last : tensor<256x!tt.ptr<f32>> loc(#loc17)
    %18 = tt.splat %arg1 : !tt.ptr<f32> -> tensor<256x!tt.ptr<f32>> loc(#loc18)
    %19 = tt.addptr %18, %5 : tensor<256x!tt.ptr<f32>>, tensor<256xi32> loc(#loc18)
    %20 = tt.load %19 evictionPolicy = evict_last : tensor<256x!tt.ptr<f32>> loc(#loc19)
    %21 = arith.cmpi eq, %6, %cst_2 : tensor<256xi32> loc(#loc20)
    %22 = arith.extsi %10 : tensor<256xi32> to tensor<256xi64> loc(#loc21)
    %23 = arith.cmpi slt, %22, %cst_1 : tensor<256xi64> loc(#loc21)
    %24 = arith.muli %6, %cst_4 : tensor<256xi32> loc(#loc22)
    %25 = arith.addi %11, %24 : tensor<256xi32> loc(#loc23)
    %26 = arith.sitofp %25 : tensor<256xi32> to tensor<256xf32> loc(#loc24)
    %27 = arith.cmpi sge, %22, %cst_1 : tensor<256xi64> loc(#loc25)
    %28 = arith.sitofp %12 : tensor<256xi32> to tensor<256xf32> loc(#loc26)
    %29 = arith.select %27, %28, %cst_0 : tensor<256xi1>, tensor<256xf32> loc(#loc27)
    %30 = arith.select %23, %26, %29 : tensor<256xi1>, tensor<256xf32> loc(#loc38)
    %31 = arith.subf %cst_0, %20 : tensor<256xf32> loc(#loc30)
    %32 = arith.addf %30, %31 : tensor<256xf32> loc(#loc31)
    %33 = arith.mulf %32, %cst : tensor<256xf32> loc(#loc32)
    %34 = arith.mulf %33, %33 : tensor<256xf32> loc(#loc33)
    %35 = arith.select %21, %17, %34 : tensor<256xi1>, tensor<256xf32> loc(#loc34)
    %36 = tt.splat %arg2 : !tt.ptr<f32> -> tensor<256x!tt.ptr<f32>> loc(#loc35)
    %37 = tt.addptr %36, %4 : tensor<256x!tt.ptr<f32>>, tensor<256xi32> loc(#loc35)
    tt.store %37, %35 : tensor<256x!tt.ptr<f32>> loc(#loc36)
    tt.return loc(#loc37)
  } loc(#loc)
} loc(#loc)
#loc1 = loc(unknown)
#loc2 = loc("inductor_cache/fe/cfe4mlbuzacknwhsxfipzpepmwu5ytqmxs7altrexiw4266pcwfc.py":21:28)
#loc3 = loc("inductor_cache/fe/cfe4mlbuzacknwhsxfipzpepmwu5ytqmxs7altrexiw4266pcwfc.py":21:33)
#loc4 = loc("inductor_cache/fe/cfe4mlbuzacknwhsxfipzpepmwu5ytqmxs7altrexiw4266pcwfc.py":22:36)
#loc5 = loc("inductor_cache/fe/cfe4mlbuzacknwhsxfipzpepmwu5ytqmxs7altrexiw4266pcwfc.py":22:23)
#loc6 = loc("inductor_cache/fe/cfe4mlbuzacknwhsxfipzpepmwu5ytqmxs7altrexiw4266pcwfc.py":24:21)
#loc7 = loc("inductor_cache/fe/cfe4mlbuzacknwhsxfipzpepmwu5ytqmxs7altrexiw4266pcwfc.py":24:27)
#loc8 = loc("inductor_cache/fe/cfe4mlbuzacknwhsxfipzpepmwu5ytqmxs7altrexiw4266pcwfc.py":25:19)
#loc9 = loc("inductor_cache/fe/cfe4mlbuzacknwhsxfipzpepmwu5ytqmxs7altrexiw4266pcwfc.py":26:19)
#loc10 = loc("inductor_cache/fe/cfe4mlbuzacknwhsxfipzpepmwu5ytqmxs7altrexiw4266pcwfc.py":27:21)
#loc11 = loc("inductor_cache/fe/cfe4mlbuzacknwhsxfipzpepmwu5ytqmxs7altrexiw4266pcwfc.py":27:26)
#loc12 = loc("inductor_cache/fe/cfe4mlbuzacknwhsxfipzpepmwu5ytqmxs7altrexiw4266pcwfc.py":28:26)
#loc13 = loc("inductor_cache/fe/cfe4mlbuzacknwhsxfipzpepmwu5ytqmxs7altrexiw4266pcwfc.py":29:19)
#loc14 = loc("inductor_cache/fe/cfe4mlbuzacknwhsxfipzpepmwu5ytqmxs7altrexiw4266pcwfc.py":32:38)
#loc15 = loc("inductor_cache/fe/cfe4mlbuzacknwhsxfipzpepmwu5ytqmxs7altrexiw4266pcwfc.py":32:35)
#loc16 = loc("inductor_cache/fe/cfe4mlbuzacknwhsxfipzpepmwu5ytqmxs7altrexiw4266pcwfc.py":32:30)
#loc17 = loc("inductor_cache/fe/cfe4mlbuzacknwhsxfipzpepmwu5ytqmxs7altrexiw4266pcwfc.py":32:43)
#loc18 = loc("inductor_cache/fe/cfe4mlbuzacknwhsxfipzpepmwu5ytqmxs7altrexiw4266pcwfc.py":33:31)
#loc19 = loc("inductor_cache/fe/cfe4mlbuzacknwhsxfipzpepmwu5ytqmxs7altrexiw4266pcwfc.py":33:36)
#loc20 = loc("inductor_cache/fe/cfe4mlbuzacknwhsxfipzpepmwu5ytqmxs7altrexiw4266pcwfc.py":36:19)
#loc21 = loc("inductor_cache/fe/cfe4mlbuzacknwhsxfipzpepmwu5ytqmxs7altrexiw4266pcwfc.py":41:18)
#loc22 = loc("inductor_cache/fe/cfe4mlbuzacknwhsxfipzpepmwu5ytqmxs7altrexiw4266pcwfc.py":42:18)
#loc23 = loc("inductor_cache/fe/cfe4mlbuzacknwhsxfipzpepmwu5ytqmxs7altrexiw4266pcwfc.py":42:16)
#loc24 = loc("inductor_cache/fe/cfe4mlbuzacknwhsxfipzpepmwu5ytqmxs7altrexiw4266pcwfc.py":43:20)
#loc25 = loc("inductor_cache/fe/cfe4mlbuzacknwhsxfipzpepmwu5ytqmxs7altrexiw4266pcwfc.py":46:20)
#loc26 = loc("inductor_cache/fe/cfe4mlbuzacknwhsxfipzpepmwu5ytqmxs7altrexiw4266pcwfc.py":50:21)
#loc27 = loc("inductor_cache/fe/cfe4mlbuzacknwhsxfipzpepmwu5ytqmxs7altrexiw4266pcwfc.py":52:35)
#loc28 = loc("inductor_cache/fe/cfe4mlbuzacknwhsxfipzpepmwu5ytqmxs7altrexiw4266pcwfc.py":53:34)
#loc29 = loc("inductor_cache/fe/cfe4mlbuzacknwhsxfipzpepmwu5ytqmxs7altrexiw4266pcwfc.py":45:34)
#loc30 = loc("inductor_cache/fe/cfe4mlbuzacknwhsxfipzpepmwu5ytqmxs7altrexiw4266pcwfc.py":56:13)
#loc31 = loc("inductor_cache/fe/cfe4mlbuzacknwhsxfipzpepmwu5ytqmxs7altrexiw4266pcwfc.py":57:20)
#loc32 = loc("inductor_cache/fe/cfe4mlbuzacknwhsxfipzpepmwu5ytqmxs7altrexiw4266pcwfc.py":59:20)
#loc33 = loc("inductor_cache/fe/cfe4mlbuzacknwhsxfipzpepmwu5ytqmxs7altrexiw4266pcwfc.py":60:20)
#loc34 = loc("inductor_cache/fe/cfe4mlbuzacknwhsxfipzpepmwu5ytqmxs7altrexiw4266pcwfc.py":61:33)
#loc35 = loc("inductor_cache/fe/cfe4mlbuzacknwhsxfipzpepmwu5ytqmxs7altrexiw4266pcwfc.py":62:25)
#loc36 = loc("inductor_cache/fe/cfe4mlbuzacknwhsxfipzpepmwu5ytqmxs7altrexiw4266pcwfc.py":62:37)
#loc37 = loc("inductor_cache/fe/cfe4mlbuzacknwhsxfipzpepmwu5ytqmxs7altrexiw4266pcwfc.py":62:4)
#loc38 = loc(fused[#loc28, #loc29])
