#loc = loc("inductor_cache/bw/cbwhwaaen7lwhx5zrscrvmibovxa4pbg2hmyb4ci7lqseddb52vd.py":19:0)
#loc1 = loc(unknown)
#loc24 = loc("inductor_cache/bw/cbwhwaaen7lwhx5zrscrvmibovxa4pbg2hmyb4ci7lqseddb52vd.py":42:24)
#loc39 = loc(callsite(#loc1 at #loc24))
module {
  tt.func public @triton_per_fused_add_mul_pow_rsqrt_sum_1(%arg0: !tt.ptr<f32> {tt.divisibility = 16 : i32} loc("inductor_cache/bw/cbwhwaaen7lwhx5zrscrvmibovxa4pbg2hmyb4ci7lqseddb52vd.py":19:0), %arg1: !tt.ptr<f32> {tt.divisibility = 16 : i32} loc("inductor_cache/bw/cbwhwaaen7lwhx5zrscrvmibovxa4pbg2hmyb4ci7lqseddb52vd.py":19:0), %arg2: !tt.ptr<f32> {tt.divisibility = 16 : i32} loc("inductor_cache/bw/cbwhwaaen7lwhx5zrscrvmibovxa4pbg2hmyb4ci7lqseddb52vd.py":19:0), %arg3: !tt.ptr<f32> {tt.divisibility = 16 : i32} loc("inductor_cache/bw/cbwhwaaen7lwhx5zrscrvmibovxa4pbg2hmyb4ci7lqseddb52vd.py":19:0), %arg4: i32 {tt.divisibility = 16 : i32} loc("inductor_cache/bw/cbwhwaaen7lwhx5zrscrvmibovxa4pbg2hmyb4ci7lqseddb52vd.py":19:0), %arg5: i32 loc("inductor_cache/bw/cbwhwaaen7lwhx5zrscrvmibovxa4pbg2hmyb4ci7lqseddb52vd.py":19:0)) attributes {noinline = false} {
    %c36_i32 = arith.constant 36 : i32 loc(#loc1)
    %c4_i32 = arith.constant 4 : i32 loc(#loc1)
    %c16_i32 = arith.constant 16 : i32 loc(#loc1)
    %cst = arith.constant dense<9.99999993E-9> : tensor<1x1xf32> loc(#loc1)
    %cst_0 = arith.constant dense<1.000000e+00> : tensor<1x64xf32> loc(#loc1)
    %cst_1 = arith.constant dense<0.000000e+00> : tensor<1x64xf32> loc(#loc1)
    %cst_2 = arith.constant dense<9> : tensor<1x64xi32> loc(#loc1)
    %cst_3 = arith.constant dense<36> : tensor<1x64xi32> loc(#loc1)
    %0 = tt.get_program_id x : i32 loc(#loc2)
    %1 = arith.cmpi slt, %0, %c16_i32 : i32 loc(#loc3)
    %2 = tt.splat %1 : i1 -> tensor<1x1xi1> loc(#loc3)
    %3 = tt.make_range {end = 64 : i32, start = 0 : i32} : tensor<64xi32> loc(#loc4)
    %4 = tt.expand_dims %3 {axis = 0 : i32} : tensor<64xi32> -> tensor<1x64xi32> loc(#loc5)
    %5 = arith.cmpi slt, %4, %cst_3 : tensor<1x64xi32> loc(#loc6)
    %6 = arith.remsi %0, %c4_i32 : i32 loc(#loc7)
    %7 = arith.divsi %4, %cst_2 : tensor<1x64xi32> loc(#loc8)
    %8 = arith.divsi %0, %c4_i32 : i32 loc(#loc9)
    %9 = arith.muli %6, %c36_i32 : i32 loc(#loc10)
    %10 = tt.splat %9 : i32 -> tensor<1x64xi32> loc(#loc11)
    %11 = arith.addi %4, %10 : tensor<1x64xi32> loc(#loc11)
    %12 = tt.splat %arg1 : !tt.ptr<f32> -> tensor<1x64x!tt.ptr<f32>> loc(#loc12)
    %13 = tt.addptr %12, %11 : tensor<1x64x!tt.ptr<f32>>, tensor<1x64xi32> loc(#loc12)
    %14 = tt.splat %1 : i1 -> tensor<1x64xi1> loc(#loc13)
    %15 = arith.andi %5, %14 : tensor<1x64xi1> loc(#loc13)
    %16 = tt.load %13, %15, %cst_1 evictionPolicy = evict_last : tensor<1x64x!tt.ptr<f32>> loc(#loc14)
    %17 = arith.muli %8, %c4_i32 : i32 loc(#loc15)
    %18 = tt.splat %17 : i32 -> tensor<1x64xi32> loc(#loc16)
    %19 = arith.addi %7, %18 : tensor<1x64xi32> loc(#loc16)
    %20 = tt.splat %arg2 : !tt.ptr<f32> -> tensor<1x64x!tt.ptr<f32>> loc(#loc17)
    %21 = tt.addptr %20, %19 : tensor<1x64x!tt.ptr<f32>>, tensor<1x64xi32> loc(#loc17)
    %22 = tt.load %21, %15, %cst_1 evictionPolicy = evict_last : tensor<1x64x!tt.ptr<f32>> loc(#loc18)
    %23 = arith.addf %22, %cst_0 : tensor<1x64xf32> loc(#loc19)
    %24 = arith.mulf %16, %23 : tensor<1x64xf32> loc(#loc20)
    %25 = arith.mulf %24, %24 : tensor<1x64xf32> loc(#loc21)
    %26 = arith.select %15, %25, %cst_1 : tensor<1x64xi1>, tensor<1x64xf32> loc(#loc22)
    %27 = "tt.reduce"(%26) <{axis = 1 : i32}> ({
    ^bb0(%arg6: f32 loc(callsite(#loc1 at #loc24)), %arg7: f32 loc(callsite(#loc1 at #loc24))):
      %40 = arith.addf %arg6, %arg7 : f32 loc(#loc41)
      tt.reduce.return %40 : f32 loc(#loc38)
    }) : (tensor<1x64xf32>) -> tensor<1xf32> loc(#loc38)
    %28 = tt.expand_dims %27 {axis = 1 : i32} : tensor<1xf32> -> tensor<1x1xf32> loc(#loc26)
    %29 = arith.addf %28, %cst : tensor<1x1xf32> loc(#loc27)
    %30 = tt.extern_elementwise %29 {libname = "", libpath = "", pure = true, symbol = "__nv_rsqrtf"} : (tensor<1x1xf32>) -> tensor<1x1xf32> loc(#loc28)
    %31 = tt.broadcast %30 : tensor<1x1xf32> -> tensor<1x64xf32> loc(#loc29)
    %32 = arith.mulf %24, %31 : tensor<1x64xf32> loc(#loc29)
    gpu.barrier loc(#loc30)
    %33 = tt.addptr %arg0, %0 : !tt.ptr<f32>, i32 loc(#loc31)
    %34 = tt.splat %33 : !tt.ptr<f32> -> tensor<1x1x!tt.ptr<f32>> loc(#loc31)
    tt.store %34, %30, %2 : tensor<1x1x!tt.ptr<f32>> loc(#loc32)
    %35 = arith.muli %0, %c36_i32 : i32 loc(#loc33)
    %36 = tt.splat %35 : i32 -> tensor<1x64xi32> loc(#loc34)
    %37 = arith.addi %4, %36 : tensor<1x64xi32> loc(#loc34)
    %38 = tt.splat %arg3 : !tt.ptr<f32> -> tensor<1x64x!tt.ptr<f32>> loc(#loc35)
    %39 = tt.addptr %38, %37 : tensor<1x64x!tt.ptr<f32>>, tensor<1x64xi32> loc(#loc35)
    tt.store %39, %32, %15 : tensor<1x64x!tt.ptr<f32>> loc(#loc36)
    tt.return loc(#loc37)
  } loc(#loc)
} loc(#loc)
#loc2 = loc("inductor_cache/bw/cbwhwaaen7lwhx5zrscrvmibovxa4pbg2hmyb4ci7lqseddb52vd.py":23:28)
#loc3 = loc("inductor_cache/bw/cbwhwaaen7lwhx5zrscrvmibovxa4pbg2hmyb4ci7lqseddb52vd.py":25:21)
#loc4 = loc("inductor_cache/bw/cbwhwaaen7lwhx5zrscrvmibovxa4pbg2hmyb4ci7lqseddb52vd.py":26:26)
#loc5 = loc("inductor_cache/bw/cbwhwaaen7lwhx5zrscrvmibovxa4pbg2hmyb4ci7lqseddb52vd.py":26:34)
#loc6 = loc("inductor_cache/bw/cbwhwaaen7lwhx5zrscrvmibovxa4pbg2hmyb4ci7lqseddb52vd.py":28:21)
#loc7 = loc("inductor_cache/bw/cbwhwaaen7lwhx5zrscrvmibovxa4pbg2hmyb4ci7lqseddb52vd.py":30:19)
#loc8 = loc("inductor_cache/bw/cbwhwaaen7lwhx5zrscrvmibovxa4pbg2hmyb4ci7lqseddb52vd.py":31:19)
#loc9 = loc("inductor_cache/bw/cbwhwaaen7lwhx5zrscrvmibovxa4pbg2hmyb4ci7lqseddb52vd.py":32:19)
#loc10 = loc("inductor_cache/bw/cbwhwaaen7lwhx5zrscrvmibovxa4pbg2hmyb4ci7lqseddb52vd.py":34:38)
#loc11 = loc("inductor_cache/bw/cbwhwaaen7lwhx5zrscrvmibovxa4pbg2hmyb4ci7lqseddb52vd.py":34:35)
#loc12 = loc("inductor_cache/bw/cbwhwaaen7lwhx5zrscrvmibovxa4pbg2hmyb4ci7lqseddb52vd.py":34:30)
#loc13 = loc("inductor_cache/bw/cbwhwaaen7lwhx5zrscrvmibovxa4pbg2hmyb4ci7lqseddb52vd.py":34:51)
#loc14 = loc("inductor_cache/bw/cbwhwaaen7lwhx5zrscrvmibovxa4pbg2hmyb4ci7lqseddb52vd.py":34:43)
#loc15 = loc("inductor_cache/bw/cbwhwaaen7lwhx5zrscrvmibovxa4pbg2hmyb4ci7lqseddb52vd.py":35:37)
#loc16 = loc("inductor_cache/bw/cbwhwaaen7lwhx5zrscrvmibovxa4pbg2hmyb4ci7lqseddb52vd.py":35:35)
#loc17 = loc("inductor_cache/bw/cbwhwaaen7lwhx5zrscrvmibovxa4pbg2hmyb4ci7lqseddb52vd.py":35:30)
#loc18 = loc("inductor_cache/bw/cbwhwaaen7lwhx5zrscrvmibovxa4pbg2hmyb4ci7lqseddb52vd.py":35:42)
#loc19 = loc("inductor_cache/bw/cbwhwaaen7lwhx5zrscrvmibovxa4pbg2hmyb4ci7lqseddb52vd.py":37:18)
#loc20 = loc("inductor_cache/bw/cbwhwaaen7lwhx5zrscrvmibovxa4pbg2hmyb4ci7lqseddb52vd.py":38:18)
#loc21 = loc("inductor_cache/bw/cbwhwaaen7lwhx5zrscrvmibovxa4pbg2hmyb4ci7lqseddb52vd.py":39:18)
#loc22 = loc("inductor_cache/bw/cbwhwaaen7lwhx5zrscrvmibovxa4pbg2hmyb4ci7lqseddb52vd.py":41:41)
#loc23 = loc("/home/sahanp/.conda/envs/parity-bench/lib/python3.12/site-packages/triton/language/standard.py":267:36)
#loc25 = loc("/home/sahanp/.conda/envs/parity-bench/lib/python3.12/site-packages/triton/language/standard.py":256:15)
#loc26 = loc("inductor_cache/bw/cbwhwaaen7lwhx5zrscrvmibovxa4pbg2hmyb4ci7lqseddb52vd.py":42:27)
#loc27 = loc("inductor_cache/bw/cbwhwaaen7lwhx5zrscrvmibovxa4pbg2hmyb4ci7lqseddb52vd.py":44:19)
#loc28 = loc("inductor_cache/bw/cbwhwaaen7lwhx5zrscrvmibovxa4pbg2hmyb4ci7lqseddb52vd.py":45:28)
#loc29 = loc("inductor_cache/bw/cbwhwaaen7lwhx5zrscrvmibovxa4pbg2hmyb4ci7lqseddb52vd.py":46:19)
#loc30 = loc("inductor_cache/bw/cbwhwaaen7lwhx5zrscrvmibovxa4pbg2hmyb4ci7lqseddb52vd.py":47:4)
#loc31 = loc("inductor_cache/bw/cbwhwaaen7lwhx5zrscrvmibovxa4pbg2hmyb4ci7lqseddb52vd.py":48:28)
#loc32 = loc("inductor_cache/bw/cbwhwaaen7lwhx5zrscrvmibovxa4pbg2hmyb4ci7lqseddb52vd.py":48:40)
#loc33 = loc("inductor_cache/bw/cbwhwaaen7lwhx5zrscrvmibovxa4pbg2hmyb4ci7lqseddb52vd.py":49:33)
#loc34 = loc("inductor_cache/bw/cbwhwaaen7lwhx5zrscrvmibovxa4pbg2hmyb4ci7lqseddb52vd.py":49:30)
#loc35 = loc("inductor_cache/bw/cbwhwaaen7lwhx5zrscrvmibovxa4pbg2hmyb4ci7lqseddb52vd.py":49:25)
#loc36 = loc("inductor_cache/bw/cbwhwaaen7lwhx5zrscrvmibovxa4pbg2hmyb4ci7lqseddb52vd.py":49:45)
#loc37 = loc("inductor_cache/bw/cbwhwaaen7lwhx5zrscrvmibovxa4pbg2hmyb4ci7lqseddb52vd.py":49:4)
#loc38 = loc(callsite(#loc23 at #loc24))
#loc40 = loc(callsite(#loc25 at #loc23))
#loc41 = loc(callsite(#loc40 at #loc24))
