#loc = loc("inductor_cache/j6/cj63t6p4uq6vix2y6s4ykadklohpmujek23ef5tiab3shmldbgcz.py":19:0)
module {
  tt.func public @triton_poi_fused_add_mul_native_layer_norm_relu_threshold_backward_1(%arg0: !tt.ptr<f32> {tt.divisibility = 16 : i32} loc("inductor_cache/j6/cj63t6p4uq6vix2y6s4ykadklohpmujek23ef5tiab3shmldbgcz.py":19:0), %arg1: !tt.ptr<f32> {tt.divisibility = 16 : i32} loc("inductor_cache/j6/cj63t6p4uq6vix2y6s4ykadklohpmujek23ef5tiab3shmldbgcz.py":19:0), %arg2: !tt.ptr<f32> {tt.divisibility = 16 : i32} loc("inductor_cache/j6/cj63t6p4uq6vix2y6s4ykadklohpmujek23ef5tiab3shmldbgcz.py":19:0), %arg3: !tt.ptr<f32> {tt.divisibility = 16 : i32} loc("inductor_cache/j6/cj63t6p4uq6vix2y6s4ykadklohpmujek23ef5tiab3shmldbgcz.py":19:0), %arg4: !tt.ptr<f32> {tt.divisibility = 16 : i32} loc("inductor_cache/j6/cj63t6p4uq6vix2y6s4ykadklohpmujek23ef5tiab3shmldbgcz.py":19:0), %arg5: !tt.ptr<f32> {tt.divisibility = 16 : i32} loc("inductor_cache/j6/cj63t6p4uq6vix2y6s4ykadklohpmujek23ef5tiab3shmldbgcz.py":19:0), %arg6: !tt.ptr<f32> {tt.divisibility = 16 : i32} loc("inductor_cache/j6/cj63t6p4uq6vix2y6s4ykadklohpmujek23ef5tiab3shmldbgcz.py":19:0), %arg7: !tt.ptr<f32> {tt.divisibility = 16 : i32} loc("inductor_cache/j6/cj63t6p4uq6vix2y6s4ykadklohpmujek23ef5tiab3shmldbgcz.py":19:0), %arg8: !tt.ptr<f32> {tt.divisibility = 16 : i32} loc("inductor_cache/j6/cj63t6p4uq6vix2y6s4ykadklohpmujek23ef5tiab3shmldbgcz.py":19:0), %arg9: !tt.ptr<f32> {tt.divisibility = 16 : i32} loc("inductor_cache/j6/cj63t6p4uq6vix2y6s4ykadklohpmujek23ef5tiab3shmldbgcz.py":19:0), %arg10: !tt.ptr<f32> {tt.divisibility = 16 : i32} loc("inductor_cache/j6/cj63t6p4uq6vix2y6s4ykadklohpmujek23ef5tiab3shmldbgcz.py":19:0), %arg11: !tt.ptr<f32> {tt.divisibility = 16 : i32} loc("inductor_cache/j6/cj63t6p4uq6vix2y6s4ykadklohpmujek23ef5tiab3shmldbgcz.py":19:0), %arg12: !tt.ptr<i1> {tt.divisibility = 16 : i32} loc("inductor_cache/j6/cj63t6p4uq6vix2y6s4ykadklohpmujek23ef5tiab3shmldbgcz.py":19:0), %arg13: i32 {tt.divisibility = 16 : i32} loc("inductor_cache/j6/cj63t6p4uq6vix2y6s4ykadklohpmujek23ef5tiab3shmldbgcz.py":19:0)) attributes {noinline = false} {
    %cst = arith.constant dense<0.000000e+00> : tensor<128xf32> loc(#loc1)
    %cst_0 = arith.constant dense<1.000000e+00> : tensor<128xf32> loc(#loc1)
    %cst_1 = arith.constant dense<4> : tensor<128xi32> loc(#loc1)
    %cst_2 = arith.constant dense<256> : tensor<128xi32> loc(#loc1)
    %c128_i32 = arith.constant 128 : i32 loc(#loc1)
    %0 = tt.get_program_id x : i32 loc(#loc2)
    %1 = arith.muli %0, %c128_i32 : i32 loc(#loc3)
    %2 = tt.make_range {end = 128 : i32, start = 0 : i32} : tensor<128xi32> loc(#loc4)
    %3 = tt.splat %1 : i32 -> tensor<128xi32> loc(#loc5)
    %4 = arith.addi %3, %2 : tensor<128xi32> loc(#loc5)
    %5 = arith.cmpi slt, %4, %cst_2 : tensor<128xi32> loc(#loc6)
    %6 = arith.divsi %4, %cst_1 : tensor<128xi32> loc(#loc7)
    %7 = arith.remsi %4, %cst_1 : tensor<128xi32> loc(#loc8)
    %8 = tt.splat %arg1 : !tt.ptr<f32> -> tensor<128x!tt.ptr<f32>> loc(#loc9)
    %9 = tt.addptr %8, %4 : tensor<128x!tt.ptr<f32>>, tensor<128xi32> loc(#loc9)
    %10 = tt.load %9, %5 : tensor<128x!tt.ptr<f32>> loc(#loc10)
    %11 = tt.splat %arg2 : !tt.ptr<f32> -> tensor<128x!tt.ptr<f32>> loc(#loc11)
    %12 = tt.addptr %11, %4 : tensor<128x!tt.ptr<f32>>, tensor<128xi32> loc(#loc11)
    %13 = tt.load %12, %5 : tensor<128x!tt.ptr<f32>> loc(#loc12)
    %14 = tt.splat %arg3 : !tt.ptr<f32> -> tensor<128x!tt.ptr<f32>> loc(#loc13)
    %15 = tt.addptr %14, %6 : tensor<128x!tt.ptr<f32>>, tensor<128xi32> loc(#loc13)
    %16 = tt.load %15, %5 evictionPolicy = evict_last : tensor<128x!tt.ptr<f32>> loc(#loc14)
    %17 = tt.splat %arg4 : !tt.ptr<f32> -> tensor<128x!tt.ptr<f32>> loc(#loc15)
    %18 = tt.addptr %17, %6 : tensor<128x!tt.ptr<f32>>, tensor<128xi32> loc(#loc15)
    %19 = tt.load %18, %5 evictionPolicy = evict_last : tensor<128x!tt.ptr<f32>> loc(#loc16)
    %20 = tt.splat %arg5 : !tt.ptr<f32> -> tensor<128x!tt.ptr<f32>> loc(#loc17)
    %21 = tt.addptr %20, %7 : tensor<128x!tt.ptr<f32>>, tensor<128xi32> loc(#loc17)
    %22 = tt.load %21, %5 evictionPolicy = evict_last : tensor<128x!tt.ptr<f32>> loc(#loc18)
    %23 = tt.splat %arg6 : !tt.ptr<f32> -> tensor<128x!tt.ptr<f32>> loc(#loc19)
    %24 = tt.addptr %23, %7 : tensor<128x!tt.ptr<f32>>, tensor<128xi32> loc(#loc19)
    %25 = tt.load %24, %5 evictionPolicy = evict_last : tensor<128x!tt.ptr<f32>> loc(#loc20)
    %26 = tt.splat %arg7 : !tt.ptr<f32> -> tensor<128x!tt.ptr<f32>> loc(#loc21)
    %27 = tt.addptr %26, %4 : tensor<128x!tt.ptr<f32>>, tensor<128xi32> loc(#loc21)
    %28 = tt.load %27, %5 : tensor<128x!tt.ptr<f32>> loc(#loc22)
    %29 = tt.splat %arg8 : !tt.ptr<f32> -> tensor<128x!tt.ptr<f32>> loc(#loc23)
    %30 = tt.addptr %29, %6 : tensor<128x!tt.ptr<f32>>, tensor<128xi32> loc(#loc23)
    %31 = tt.load %30, %5 evictionPolicy = evict_last : tensor<128x!tt.ptr<f32>> loc(#loc24)
    %32 = tt.splat %arg9 : !tt.ptr<f32> -> tensor<128x!tt.ptr<f32>> loc(#loc25)
    %33 = tt.addptr %32, %6 : tensor<128x!tt.ptr<f32>>, tensor<128xi32> loc(#loc25)
    %34 = tt.load %33, %5 evictionPolicy = evict_last : tensor<128x!tt.ptr<f32>> loc(#loc26)
    %35 = tt.splat %arg10 : !tt.ptr<f32> -> tensor<128x!tt.ptr<f32>> loc(#loc27)
    %36 = tt.addptr %35, %7 : tensor<128x!tt.ptr<f32>>, tensor<128xi32> loc(#loc27)
    %37 = tt.load %36, %5 evictionPolicy = evict_last : tensor<128x!tt.ptr<f32>> loc(#loc28)
    %38 = tt.splat %arg11 : !tt.ptr<f32> -> tensor<128x!tt.ptr<f32>> loc(#loc29)
    %39 = tt.addptr %38, %7 : tensor<128x!tt.ptr<f32>>, tensor<128xi32> loc(#loc29)
    %40 = tt.load %39, %5 evictionPolicy = evict_last : tensor<128x!tt.ptr<f32>> loc(#loc30)
    %41 = arith.cmpf ogt, %cst, %13 : tensor<128xf32> loc(#loc53)
    %42 = arith.select %41, %cst, %13 : tensor<128xi1>, tensor<128xf32> loc(#loc54)
    %43 = arith.subf %42, %16 : tensor<128xf32> loc(#loc34)
    %44 = arith.mulf %43, %19 : tensor<128xf32> loc(#loc35)
    %45 = arith.mulf %44, %22 : tensor<128xf32> loc(#loc36)
    %46 = arith.addf %45, %25 : tensor<128xf32> loc(#loc37)
    %47 = arith.addf %46, %cst_0 : tensor<128xf32> loc(#loc38)
    %48 = arith.mulf %10, %47 : tensor<128xf32> loc(#loc39)
    %49 = arith.cmpf ogt, %cst, %28 : tensor<128xf32> loc(#loc55)
    %50 = arith.select %49, %cst, %28 : tensor<128xi1>, tensor<128xf32> loc(#loc56)
    %51 = arith.subf %50, %31 : tensor<128xf32> loc(#loc41)
    %52 = arith.mulf %51, %34 : tensor<128xf32> loc(#loc42)
    %53 = arith.mulf %52, %37 : tensor<128xf32> loc(#loc43)
    %54 = arith.addf %53, %40 : tensor<128xf32> loc(#loc44)
    %55 = arith.addf %48, %54 : tensor<128xf32> loc(#loc45)
    %56 = arith.cmpf ogt, %cst, %55 : tensor<128xf32> loc(#loc57)
    %57 = arith.select %56, %cst, %55 : tensor<128xi1>, tensor<128xf32> loc(#loc58)
    %58 = arith.cmpf ole, %57, %cst : tensor<128xf32> loc(#loc47)
    %59 = tt.splat %arg0 : !tt.ptr<f32> -> tensor<128x!tt.ptr<f32>> loc(#loc48)
    %60 = tt.addptr %59, %4 : tensor<128x!tt.ptr<f32>>, tensor<128xi32> loc(#loc48)
    tt.store %60, %57, %5 : tensor<128x!tt.ptr<f32>> loc(#loc49)
    %61 = tt.splat %arg12 : !tt.ptr<i1> -> tensor<128x!tt.ptr<i1>> loc(#loc50)
    %62 = tt.addptr %61, %4 : tensor<128x!tt.ptr<i1>>, tensor<128xi32> loc(#loc50)
    %63 = tt.bitcast %62 : tensor<128x!tt.ptr<i1>> -> tensor<128x!tt.ptr<i8>> loc(#loc51)
    %64 = arith.extui %58 : tensor<128xi1> to tensor<128xi8> loc(#loc51)
    tt.store %63, %64, %5 : tensor<128x!tt.ptr<i8>> loc(#loc51)
    tt.return loc(#loc52)
  } loc(#loc)
} loc(#loc)
#loc1 = loc(unknown)
#loc2 = loc("inductor_cache/j6/cj63t6p4uq6vix2y6s4ykadklohpmujek23ef5tiab3shmldbgcz.py":21:28)
#loc3 = loc("inductor_cache/j6/cj63t6p4uq6vix2y6s4ykadklohpmujek23ef5tiab3shmldbgcz.py":21:33)
#loc4 = loc("inductor_cache/j6/cj63t6p4uq6vix2y6s4ykadklohpmujek23ef5tiab3shmldbgcz.py":22:36)
#loc5 = loc("inductor_cache/j6/cj63t6p4uq6vix2y6s4ykadklohpmujek23ef5tiab3shmldbgcz.py":22:23)
#loc6 = loc("inductor_cache/j6/cj63t6p4uq6vix2y6s4ykadklohpmujek23ef5tiab3shmldbgcz.py":23:21)
#loc7 = loc("inductor_cache/j6/cj63t6p4uq6vix2y6s4ykadklohpmujek23ef5tiab3shmldbgcz.py":25:19)
#loc8 = loc("inductor_cache/j6/cj63t6p4uq6vix2y6s4ykadklohpmujek23ef5tiab3shmldbgcz.py":26:19)
#loc9 = loc("inductor_cache/j6/cj63t6p4uq6vix2y6s4ykadklohpmujek23ef5tiab3shmldbgcz.py":27:30)
#loc10 = loc("inductor_cache/j6/cj63t6p4uq6vix2y6s4ykadklohpmujek23ef5tiab3shmldbgcz.py":27:35)
#loc11 = loc("inductor_cache/j6/cj63t6p4uq6vix2y6s4ykadklohpmujek23ef5tiab3shmldbgcz.py":28:30)
#loc12 = loc("inductor_cache/j6/cj63t6p4uq6vix2y6s4ykadklohpmujek23ef5tiab3shmldbgcz.py":28:35)
#loc13 = loc("inductor_cache/j6/cj63t6p4uq6vix2y6s4ykadklohpmujek23ef5tiab3shmldbgcz.py":29:30)
#loc14 = loc("inductor_cache/j6/cj63t6p4uq6vix2y6s4ykadklohpmujek23ef5tiab3shmldbgcz.py":29:35)
#loc15 = loc("inductor_cache/j6/cj63t6p4uq6vix2y6s4ykadklohpmujek23ef5tiab3shmldbgcz.py":30:30)
#loc16 = loc("inductor_cache/j6/cj63t6p4uq6vix2y6s4ykadklohpmujek23ef5tiab3shmldbgcz.py":30:35)
#loc17 = loc("inductor_cache/j6/cj63t6p4uq6vix2y6s4ykadklohpmujek23ef5tiab3shmldbgcz.py":31:30)
#loc18 = loc("inductor_cache/j6/cj63t6p4uq6vix2y6s4ykadklohpmujek23ef5tiab3shmldbgcz.py":31:35)
#loc19 = loc("inductor_cache/j6/cj63t6p4uq6vix2y6s4ykadklohpmujek23ef5tiab3shmldbgcz.py":32:31)
#loc20 = loc("inductor_cache/j6/cj63t6p4uq6vix2y6s4ykadklohpmujek23ef5tiab3shmldbgcz.py":32:36)
#loc21 = loc("inductor_cache/j6/cj63t6p4uq6vix2y6s4ykadklohpmujek23ef5tiab3shmldbgcz.py":33:31)
#loc22 = loc("inductor_cache/j6/cj63t6p4uq6vix2y6s4ykadklohpmujek23ef5tiab3shmldbgcz.py":33:36)
#loc23 = loc("inductor_cache/j6/cj63t6p4uq6vix2y6s4ykadklohpmujek23ef5tiab3shmldbgcz.py":34:31)
#loc24 = loc("inductor_cache/j6/cj63t6p4uq6vix2y6s4ykadklohpmujek23ef5tiab3shmldbgcz.py":34:36)
#loc25 = loc("inductor_cache/j6/cj63t6p4uq6vix2y6s4ykadklohpmujek23ef5tiab3shmldbgcz.py":35:31)
#loc26 = loc("inductor_cache/j6/cj63t6p4uq6vix2y6s4ykadklohpmujek23ef5tiab3shmldbgcz.py":35:36)
#loc27 = loc("inductor_cache/j6/cj63t6p4uq6vix2y6s4ykadklohpmujek23ef5tiab3shmldbgcz.py":36:31)
#loc28 = loc("inductor_cache/j6/cj63t6p4uq6vix2y6s4ykadklohpmujek23ef5tiab3shmldbgcz.py":36:36)
#loc29 = loc("inductor_cache/j6/cj63t6p4uq6vix2y6s4ykadklohpmujek23ef5tiab3shmldbgcz.py":37:32)
#loc30 = loc("inductor_cache/j6/cj63t6p4uq6vix2y6s4ykadklohpmujek23ef5tiab3shmldbgcz.py":37:37)
#loc31 = loc("/home/sahanp/.conda/envs/parity-bench/lib/python3.12/site-packages/torch/_inductor/runtime/triton_helpers.py":118:15)
#loc32 = loc("inductor_cache/j6/cj63t6p4uq6vix2y6s4ykadklohpmujek23ef5tiab3shmldbgcz.py":39:40)
#loc33 = loc("/home/sahanp/.conda/envs/parity-bench/lib/python3.12/site-packages/torch/_inductor/runtime/triton_helpers.py":121:29)
#loc34 = loc("inductor_cache/j6/cj63t6p4uq6vix2y6s4ykadklohpmujek23ef5tiab3shmldbgcz.py":40:18)
#loc35 = loc("inductor_cache/j6/cj63t6p4uq6vix2y6s4ykadklohpmujek23ef5tiab3shmldbgcz.py":41:18)
#loc36 = loc("inductor_cache/j6/cj63t6p4uq6vix2y6s4ykadklohpmujek23ef5tiab3shmldbgcz.py":42:18)
#loc37 = loc("inductor_cache/j6/cj63t6p4uq6vix2y6s4ykadklohpmujek23ef5tiab3shmldbgcz.py":43:19)
#loc38 = loc("inductor_cache/j6/cj63t6p4uq6vix2y6s4ykadklohpmujek23ef5tiab3shmldbgcz.py":45:20)
#loc39 = loc("inductor_cache/j6/cj63t6p4uq6vix2y6s4ykadklohpmujek23ef5tiab3shmldbgcz.py":46:19)
#loc40 = loc("inductor_cache/j6/cj63t6p4uq6vix2y6s4ykadklohpmujek23ef5tiab3shmldbgcz.py":47:41)
#loc41 = loc("inductor_cache/j6/cj63t6p4uq6vix2y6s4ykadklohpmujek23ef5tiab3shmldbgcz.py":48:20)
#loc42 = loc("inductor_cache/j6/cj63t6p4uq6vix2y6s4ykadklohpmujek23ef5tiab3shmldbgcz.py":49:20)
#loc43 = loc("inductor_cache/j6/cj63t6p4uq6vix2y6s4ykadklohpmujek23ef5tiab3shmldbgcz.py":50:20)
#loc44 = loc("inductor_cache/j6/cj63t6p4uq6vix2y6s4ykadklohpmujek23ef5tiab3shmldbgcz.py":51:20)
#loc45 = loc("inductor_cache/j6/cj63t6p4uq6vix2y6s4ykadklohpmujek23ef5tiab3shmldbgcz.py":52:20)
#loc46 = loc("inductor_cache/j6/cj63t6p4uq6vix2y6s4ykadklohpmujek23ef5tiab3shmldbgcz.py":53:41)
#loc47 = loc("inductor_cache/j6/cj63t6p4uq6vix2y6s4ykadklohpmujek23ef5tiab3shmldbgcz.py":55:21)
#loc48 = loc("inductor_cache/j6/cj63t6p4uq6vix2y6s4ykadklohpmujek23ef5tiab3shmldbgcz.py":56:28)
#loc49 = loc("inductor_cache/j6/cj63t6p4uq6vix2y6s4ykadklohpmujek23ef5tiab3shmldbgcz.py":56:40)
#loc50 = loc("inductor_cache/j6/cj63t6p4uq6vix2y6s4ykadklohpmujek23ef5tiab3shmldbgcz.py":57:25)
#loc51 = loc("inductor_cache/j6/cj63t6p4uq6vix2y6s4ykadklohpmujek23ef5tiab3shmldbgcz.py":57:37)
#loc52 = loc("inductor_cache/j6/cj63t6p4uq6vix2y6s4ykadklohpmujek23ef5tiab3shmldbgcz.py":57:4)
#loc53 = loc(callsite(#loc31 at #loc32))
#loc54 = loc(callsite(#loc33 at #loc32))
#loc55 = loc(callsite(#loc31 at #loc40))
#loc56 = loc(callsite(#loc33 at #loc40))
#loc57 = loc(callsite(#loc31 at #loc46))
#loc58 = loc(callsite(#loc33 at #loc46))
