#loc = loc("inductor_cache/we/cwe2evxtxuagjv2fuyz5gmyivaseqnj77rc3vglukukxg34sudvu.py":19:0)
module {
  tt.func public @triton_poi_fused_avg_pool2d_5(%arg0: !tt.ptr<f32> {tt.divisibility = 16 : i32} loc("inductor_cache/we/cwe2evxtxuagjv2fuyz5gmyivaseqnj77rc3vglukukxg34sudvu.py":19:0), %arg1: !tt.ptr<f32> {tt.divisibility = 16 : i32} loc("inductor_cache/we/cwe2evxtxuagjv2fuyz5gmyivaseqnj77rc3vglukukxg34sudvu.py":19:0), %arg2: i32 {tt.divisibility = 16 : i32} loc("inductor_cache/we/cwe2evxtxuagjv2fuyz5gmyivaseqnj77rc3vglukukxg34sudvu.py":19:0)) attributes {noinline = false} {
    %cst = arith.constant dense<9> : tensor<256xi32> loc(#loc1)
    %cst_0 = arith.constant dense<-2> : tensor<256xi32> loc(#loc1)
    %cst_1 = arith.constant dense<1152> : tensor<256xi32> loc(#loc1)
    %cst_2 = arith.constant dense<1024> : tensor<256xi32> loc(#loc1)
    %cst_3 = arith.constant dense<896> : tensor<256xi32> loc(#loc1)
    %cst_4 = arith.constant dense<-128> : tensor<256xi32> loc(#loc1)
    %cst_5 = arith.constant dense<-896> : tensor<256xi32> loc(#loc1)
    %cst_6 = arith.constant dense<1> : tensor<256xi32> loc(#loc1)
    %cst_7 = arith.constant dense<-1024> : tensor<256xi32> loc(#loc1)
    %cst_8 = arith.constant dense<0.000000e+00> : tensor<256xf32> loc(#loc1)
    %cst_9 = arith.constant dense<2048> : tensor<256xi32> loc(#loc1)
    %cst_10 = arith.constant dense<256> : tensor<256xi32> loc(#loc1)
    %cst_11 = arith.constant dense<-1152> : tensor<256xi32> loc(#loc1)
    %cst_12 = arith.constant dense<8> : tensor<256xi64> loc(#loc1)
    %cst_13 = arith.constant dense<0> : tensor<256xi64> loc(#loc1)
    %cst_14 = arith.constant dense<-1> : tensor<256xi32> loc(#loc1)
    %cst_15 = arith.constant dense<2> : tensor<256xi32> loc(#loc1)
    %cst_16 = arith.constant dense<128> : tensor<256xi32> loc(#loc1)
    %cst_17 = arith.constant dense<4> : tensor<256xi32> loc(#loc1)
    %cst_18 = arith.constant dense<512> : tensor<256xi32> loc(#loc1)
    %c256_i32 = arith.constant 256 : i32 loc(#loc1)
    %0 = tt.get_program_id x : i32 loc(#loc2)
    %1 = arith.muli %0, %c256_i32 : i32 loc(#loc3)
    %2 = tt.make_range {end = 256 : i32, start = 0 : i32} : tensor<256xi32> loc(#loc4)
    %3 = tt.splat %1 : i32 -> tensor<256xi32> loc(#loc5)
    %4 = arith.addi %3, %2 : tensor<256xi32> loc(#loc5)
    %5 = arith.divsi %4, %cst_18 : tensor<256xi32> loc(#loc6)
    %6 = arith.remsi %5, %cst_17 : tensor<256xi32> loc(#loc7)
    %7 = arith.divsi %4, %cst_16 : tensor<256xi32> loc(#loc8)
    %8 = arith.remsi %7, %cst_17 : tensor<256xi32> loc(#loc9)
    %9 = arith.remsi %4, %cst_16 : tensor<256xi32> loc(#loc10)
    %10 = arith.muli %6, %cst_15 : tensor<256xi32> loc(#loc11)
    %11 = arith.addi %10, %cst_14 : tensor<256xi32> loc(#loc12)
    %12 = arith.extsi %11 : tensor<256xi32> to tensor<256xi64> loc(#loc13)
    %13 = arith.cmpi sge, %12, %cst_13 : tensor<256xi64> loc(#loc13)
    %14 = arith.cmpi slt, %12, %cst_12 : tensor<256xi64> loc(#loc14)
    %15 = arith.andi %13, %14 : tensor<256xi1> loc(#loc15)
    %16 = arith.muli %8, %cst_15 : tensor<256xi32> loc(#loc16)
    %17 = arith.addi %16, %cst_14 : tensor<256xi32> loc(#loc17)
    %18 = arith.extsi %17 : tensor<256xi32> to tensor<256xi64> loc(#loc18)
    %19 = arith.cmpi sge, %18, %cst_13 : tensor<256xi64> loc(#loc18)
    %20 = arith.cmpi slt, %18, %cst_12 : tensor<256xi64> loc(#loc19)
    %21 = arith.andi %19, %20 : tensor<256xi1> loc(#loc20)
    %22 = arith.andi %15, %21 : tensor<256xi1> loc(#loc21)
    %23 = arith.addi %9, %cst_11 : tensor<256xi32> loc(#loc22)
    %24 = arith.muli %8, %cst_10 : tensor<256xi32> loc(#loc23)
    %25 = arith.addi %23, %24 : tensor<256xi32> loc(#loc24)
    %26 = arith.muli %5, %cst_9 : tensor<256xi32> loc(#loc25)
    %27 = arith.addi %25, %26 : tensor<256xi32> loc(#loc26)
    %28 = tt.splat %arg0 : !tt.ptr<f32> -> tensor<256x!tt.ptr<f32>> loc(#loc27)
    %29 = tt.addptr %28, %27 : tensor<256x!tt.ptr<f32>>, tensor<256xi32> loc(#loc27)
    %30 = tt.load %29, %22, %cst_8 : tensor<256x!tt.ptr<f32>> loc(#loc28)
    %31 = arith.extsi %16 : tensor<256xi32> to tensor<256xi64> loc(#loc29)
    %32 = arith.cmpi sge, %31, %cst_13 : tensor<256xi64> loc(#loc29)
    %33 = arith.cmpi slt, %31, %cst_12 : tensor<256xi64> loc(#loc30)
    %34 = arith.andi %32, %33 : tensor<256xi1> loc(#loc31)
    %35 = arith.andi %15, %34 : tensor<256xi1> loc(#loc32)
    %36 = arith.addi %9, %cst_7 : tensor<256xi32> loc(#loc33)
    %37 = arith.addi %36, %24 : tensor<256xi32> loc(#loc34)
    %38 = arith.addi %37, %26 : tensor<256xi32> loc(#loc35)
    %39 = tt.addptr %28, %38 : tensor<256x!tt.ptr<f32>>, tensor<256xi32> loc(#loc36)
    %40 = tt.load %39, %35, %cst_8 : tensor<256x!tt.ptr<f32>> loc(#loc37)
    %41 = arith.addf %40, %30 : tensor<256xf32> loc(#loc38)
    %42 = arith.addi %16, %cst_6 : tensor<256xi32> loc(#loc39)
    %43 = arith.extsi %42 : tensor<256xi32> to tensor<256xi64> loc(#loc40)
    %44 = arith.cmpi sge, %43, %cst_13 : tensor<256xi64> loc(#loc40)
    %45 = arith.cmpi slt, %43, %cst_12 : tensor<256xi64> loc(#loc41)
    %46 = arith.andi %44, %45 : tensor<256xi1> loc(#loc42)
    %47 = arith.andi %15, %46 : tensor<256xi1> loc(#loc43)
    %48 = arith.addi %9, %cst_5 : tensor<256xi32> loc(#loc44)
    %49 = arith.addi %48, %24 : tensor<256xi32> loc(#loc45)
    %50 = arith.addi %49, %26 : tensor<256xi32> loc(#loc46)
    %51 = tt.addptr %28, %50 : tensor<256x!tt.ptr<f32>>, tensor<256xi32> loc(#loc47)
    %52 = tt.load %51, %47, %cst_8 : tensor<256x!tt.ptr<f32>> loc(#loc48)
    %53 = arith.addf %52, %41 : tensor<256xf32> loc(#loc49)
    %54 = arith.extsi %10 : tensor<256xi32> to tensor<256xi64> loc(#loc50)
    %55 = arith.cmpi sge, %54, %cst_13 : tensor<256xi64> loc(#loc50)
    %56 = arith.cmpi slt, %54, %cst_12 : tensor<256xi64> loc(#loc51)
    %57 = arith.andi %55, %56 : tensor<256xi1> loc(#loc52)
    %58 = arith.andi %57, %21 : tensor<256xi1> loc(#loc53)
    %59 = arith.addi %9, %cst_4 : tensor<256xi32> loc(#loc54)
    %60 = arith.addi %59, %24 : tensor<256xi32> loc(#loc55)
    %61 = arith.addi %60, %26 : tensor<256xi32> loc(#loc56)
    %62 = tt.addptr %28, %61 : tensor<256x!tt.ptr<f32>>, tensor<256xi32> loc(#loc57)
    %63 = tt.load %62, %58, %cst_8 : tensor<256x!tt.ptr<f32>> loc(#loc58)
    %64 = arith.addf %63, %53 : tensor<256xf32> loc(#loc59)
    %65 = arith.andi %57, %34 : tensor<256xi1> loc(#loc60)
    %66 = arith.addi %9, %24 : tensor<256xi32> loc(#loc61)
    %67 = arith.addi %66, %26 : tensor<256xi32> loc(#loc62)
    %68 = tt.addptr %28, %67 : tensor<256x!tt.ptr<f32>>, tensor<256xi32> loc(#loc63)
    %69 = tt.load %68, %65, %cst_8 : tensor<256x!tt.ptr<f32>> loc(#loc64)
    %70 = arith.addf %69, %64 : tensor<256xf32> loc(#loc65)
    %71 = arith.andi %57, %46 : tensor<256xi1> loc(#loc66)
    %72 = arith.addi %9, %cst_16 : tensor<256xi32> loc(#loc67)
    %73 = arith.addi %72, %24 : tensor<256xi32> loc(#loc68)
    %74 = arith.addi %73, %26 : tensor<256xi32> loc(#loc69)
    %75 = tt.addptr %28, %74 : tensor<256x!tt.ptr<f32>>, tensor<256xi32> loc(#loc70)
    %76 = tt.load %75, %71, %cst_8 : tensor<256x!tt.ptr<f32>> loc(#loc71)
    %77 = arith.addf %76, %70 : tensor<256xf32> loc(#loc72)
    %78 = arith.addi %10, %cst_6 : tensor<256xi32> loc(#loc73)
    %79 = arith.extsi %78 : tensor<256xi32> to tensor<256xi64> loc(#loc74)
    %80 = arith.cmpi sge, %79, %cst_13 : tensor<256xi64> loc(#loc74)
    %81 = arith.cmpi slt, %79, %cst_12 : tensor<256xi64> loc(#loc75)
    %82 = arith.andi %80, %81 : tensor<256xi1> loc(#loc76)
    %83 = arith.andi %82, %21 : tensor<256xi1> loc(#loc77)
    %84 = arith.addi %9, %cst_3 : tensor<256xi32> loc(#loc78)
    %85 = arith.addi %84, %24 : tensor<256xi32> loc(#loc79)
    %86 = arith.addi %85, %26 : tensor<256xi32> loc(#loc80)
    %87 = tt.addptr %28, %86 : tensor<256x!tt.ptr<f32>>, tensor<256xi32> loc(#loc81)
    %88 = tt.load %87, %83, %cst_8 : tensor<256x!tt.ptr<f32>> loc(#loc82)
    %89 = arith.addf %88, %77 : tensor<256xf32> loc(#loc83)
    %90 = arith.andi %82, %34 : tensor<256xi1> loc(#loc84)
    %91 = arith.addi %9, %cst_2 : tensor<256xi32> loc(#loc85)
    %92 = arith.addi %91, %24 : tensor<256xi32> loc(#loc86)
    %93 = arith.addi %92, %26 : tensor<256xi32> loc(#loc87)
    %94 = tt.addptr %28, %93 : tensor<256x!tt.ptr<f32>>, tensor<256xi32> loc(#loc88)
    %95 = tt.load %94, %90, %cst_8 : tensor<256x!tt.ptr<f32>> loc(#loc89)
    %96 = arith.addf %95, %89 : tensor<256xf32> loc(#loc90)
    %97 = arith.andi %82, %46 : tensor<256xi1> loc(#loc91)
    %98 = arith.addi %9, %cst_1 : tensor<256xi32> loc(#loc92)
    %99 = arith.addi %98, %24 : tensor<256xi32> loc(#loc93)
    %100 = arith.addi %99, %26 : tensor<256xi32> loc(#loc94)
    %101 = tt.addptr %28, %100 : tensor<256x!tt.ptr<f32>>, tensor<256xi32> loc(#loc95)
    %102 = tt.load %101, %97, %cst_8 : tensor<256x!tt.ptr<f32>> loc(#loc96)
    %103 = arith.addf %102, %96 : tensor<256xf32> loc(#loc97)
    %104 = arith.muli %8, %cst_0 : tensor<256xi32> loc(#loc98)
    %105 = arith.addi %104, %cst_6 : tensor<256xi32> loc(#loc99)
    %106 = arith.muli %6, %cst_0 : tensor<256xi32> loc(#loc100)
    %107 = arith.addi %105, %106 : tensor<256xi32> loc(#loc101)
    %108 = arith.addi %16, %cst_15 : tensor<256xi32> loc(#loc102)
    %109 = arith.cmpi sge, %108, %cst : tensor<256xi32> loc(#loc103)
    %110 = arith.extui %109 : tensor<256xi1> to tensor<256xi32> loc(#loc104)
    %111 = arith.muli %110, %cst : tensor<256xi32> loc(#loc104)
    %112 = arith.cmpi slt, %108, %cst : tensor<256xi32> loc(#loc105)
    %113 = arith.extui %112 : tensor<256xi1> to tensor<256xi32> loc(#loc106)
    %114 = arith.muli %108, %113 : tensor<256xi32> loc(#loc106)
    %115 = arith.addi %111, %114 : tensor<256xi32> loc(#loc107)
    %116 = arith.addi %10, %cst_15 : tensor<256xi32> loc(#loc108)
    %117 = arith.cmpi sge, %116, %cst : tensor<256xi32> loc(#loc109)
    %118 = arith.extui %117 : tensor<256xi1> to tensor<256xi32> loc(#loc110)
    %119 = arith.muli %118, %cst : tensor<256xi32> loc(#loc110)
    %120 = arith.cmpi slt, %116, %cst : tensor<256xi32> loc(#loc111)
    %121 = arith.extui %120 : tensor<256xi1> to tensor<256xi32> loc(#loc112)
    %122 = arith.muli %116, %121 : tensor<256xi32> loc(#loc112)
    %123 = arith.addi %119, %122 : tensor<256xi32> loc(#loc113)
    %124 = arith.muli %115, %123 : tensor<256xi32> loc(#loc114)
    %125 = arith.addi %107, %124 : tensor<256xi32> loc(#loc115)
    %126 = arith.muli %104, %123 : tensor<256xi32> loc(#loc116)
    %127 = arith.addi %125, %126 : tensor<256xi32> loc(#loc117)
    %128 = arith.muli %106, %115 : tensor<256xi32> loc(#loc118)
    %129 = arith.addi %127, %128 : tensor<256xi32> loc(#loc119)
    %130 = arith.muli %8, %cst_17 : tensor<256xi32> loc(#loc120)
    %131 = arith.muli %130, %6 : tensor<256xi32> loc(#loc121)
    %132 = arith.addi %129, %131 : tensor<256xi32> loc(#loc122)
    %133 = arith.addi %132, %115 : tensor<256xi32> loc(#loc123)
    %134 = arith.addi %133, %123 : tensor<256xi32> loc(#loc124)
    %135 = arith.sitofp %134 : tensor<256xi32> to tensor<256xf32> loc(#loc125)
    %136 = arith.divf %103, %135 : tensor<256xf32> loc(#loc125)
    %137 = tt.splat %arg1 : !tt.ptr<f32> -> tensor<256x!tt.ptr<f32>> loc(#loc126)
    %138 = tt.addptr %137, %4 : tensor<256x!tt.ptr<f32>>, tensor<256xi32> loc(#loc126)
    tt.store %138, %136 : tensor<256x!tt.ptr<f32>> loc(#loc127)
    tt.return loc(#loc128)
  } loc(#loc)
} loc(#loc)
#loc1 = loc(unknown)
#loc2 = loc("inductor_cache/we/cwe2evxtxuagjv2fuyz5gmyivaseqnj77rc3vglukukxg34sudvu.py":21:28)
#loc3 = loc("inductor_cache/we/cwe2evxtxuagjv2fuyz5gmyivaseqnj77rc3vglukukxg34sudvu.py":21:33)
#loc4 = loc("inductor_cache/we/cwe2evxtxuagjv2fuyz5gmyivaseqnj77rc3vglukukxg34sudvu.py":22:36)
#loc5 = loc("inductor_cache/we/cwe2evxtxuagjv2fuyz5gmyivaseqnj77rc3vglukukxg34sudvu.py":22:23)
#loc6 = loc("inductor_cache/we/cwe2evxtxuagjv2fuyz5gmyivaseqnj77rc3vglukukxg34sudvu.py":24:21)
#loc7 = loc("inductor_cache/we/cwe2evxtxuagjv2fuyz5gmyivaseqnj77rc3vglukukxg34sudvu.py":24:28)
#loc8 = loc("inductor_cache/we/cwe2evxtxuagjv2fuyz5gmyivaseqnj77rc3vglukukxg34sudvu.py":25:21)
#loc9 = loc("inductor_cache/we/cwe2evxtxuagjv2fuyz5gmyivaseqnj77rc3vglukukxg34sudvu.py":25:28)
#loc10 = loc("inductor_cache/we/cwe2evxtxuagjv2fuyz5gmyivaseqnj77rc3vglukukxg34sudvu.py":26:19)
#loc11 = loc("inductor_cache/we/cwe2evxtxuagjv2fuyz5gmyivaseqnj77rc3vglukukxg34sudvu.py":29:20)
#loc12 = loc("inductor_cache/we/cwe2evxtxuagjv2fuyz5gmyivaseqnj77rc3vglukukxg34sudvu.py":29:18)
#loc13 = loc("inductor_cache/we/cwe2evxtxuagjv2fuyz5gmyivaseqnj77rc3vglukukxg34sudvu.py":31:19)
#loc14 = loc("inductor_cache/we/cwe2evxtxuagjv2fuyz5gmyivaseqnj77rc3vglukukxg34sudvu.py":33:18)
#loc15 = loc("inductor_cache/we/cwe2evxtxuagjv2fuyz5gmyivaseqnj77rc3vglukukxg34sudvu.py":34:18)
#loc16 = loc("inductor_cache/we/cwe2evxtxuagjv2fuyz5gmyivaseqnj77rc3vglukukxg34sudvu.py":35:20)
#loc17 = loc("inductor_cache/we/cwe2evxtxuagjv2fuyz5gmyivaseqnj77rc3vglukukxg34sudvu.py":35:18)
#loc18 = loc("inductor_cache/we/cwe2evxtxuagjv2fuyz5gmyivaseqnj77rc3vglukukxg34sudvu.py":36:19)
#loc19 = loc("inductor_cache/we/cwe2evxtxuagjv2fuyz5gmyivaseqnj77rc3vglukukxg34sudvu.py":37:18)
#loc20 = loc("inductor_cache/we/cwe2evxtxuagjv2fuyz5gmyivaseqnj77rc3vglukukxg34sudvu.py":38:18)
#loc21 = loc("inductor_cache/we/cwe2evxtxuagjv2fuyz5gmyivaseqnj77rc3vglukukxg34sudvu.py":39:19)
#loc22 = loc("inductor_cache/we/cwe2evxtxuagjv2fuyz5gmyivaseqnj77rc3vglukukxg34sudvu.py":40:41)
#loc23 = loc("inductor_cache/we/cwe2evxtxuagjv2fuyz5gmyivaseqnj77rc3vglukukxg34sudvu.py":40:50)
#loc24 = loc("inductor_cache/we/cwe2evxtxuagjv2fuyz5gmyivaseqnj77rc3vglukukxg34sudvu.py":40:46)
#loc25 = loc("inductor_cache/we/cwe2evxtxuagjv2fuyz5gmyivaseqnj77rc3vglukukxg34sudvu.py":40:60)
#loc26 = loc("inductor_cache/we/cwe2evxtxuagjv2fuyz5gmyivaseqnj77rc3vglukukxg34sudvu.py":40:55)
#loc27 = loc("inductor_cache/we/cwe2evxtxuagjv2fuyz5gmyivaseqnj77rc3vglukukxg34sudvu.py":40:31)
#loc28 = loc("inductor_cache/we/cwe2evxtxuagjv2fuyz5gmyivaseqnj77rc3vglukukxg34sudvu.py":40:65)
#loc29 = loc("inductor_cache/we/cwe2evxtxuagjv2fuyz5gmyivaseqnj77rc3vglukukxg34sudvu.py":42:21)
#loc30 = loc("inductor_cache/we/cwe2evxtxuagjv2fuyz5gmyivaseqnj77rc3vglukukxg34sudvu.py":43:20)
#loc31 = loc("inductor_cache/we/cwe2evxtxuagjv2fuyz5gmyivaseqnj77rc3vglukukxg34sudvu.py":44:20)
#loc32 = loc("inductor_cache/we/cwe2evxtxuagjv2fuyz5gmyivaseqnj77rc3vglukukxg34sudvu.py":45:19)
#loc33 = loc("inductor_cache/we/cwe2evxtxuagjv2fuyz5gmyivaseqnj77rc3vglukukxg34sudvu.py":46:41)
#loc34 = loc("inductor_cache/we/cwe2evxtxuagjv2fuyz5gmyivaseqnj77rc3vglukukxg34sudvu.py":46:46)
#loc35 = loc("inductor_cache/we/cwe2evxtxuagjv2fuyz5gmyivaseqnj77rc3vglukukxg34sudvu.py":46:55)
#loc36 = loc("inductor_cache/we/cwe2evxtxuagjv2fuyz5gmyivaseqnj77rc3vglukukxg34sudvu.py":46:31)
#loc37 = loc("inductor_cache/we/cwe2evxtxuagjv2fuyz5gmyivaseqnj77rc3vglukukxg34sudvu.py":46:65)
#loc38 = loc("inductor_cache/we/cwe2evxtxuagjv2fuyz5gmyivaseqnj77rc3vglukukxg34sudvu.py":47:20)
#loc39 = loc("inductor_cache/we/cwe2evxtxuagjv2fuyz5gmyivaseqnj77rc3vglukukxg34sudvu.py":48:16)
#loc40 = loc("inductor_cache/we/cwe2evxtxuagjv2fuyz5gmyivaseqnj77rc3vglukukxg34sudvu.py":49:21)
#loc41 = loc("inductor_cache/we/cwe2evxtxuagjv2fuyz5gmyivaseqnj77rc3vglukukxg34sudvu.py":50:20)
#loc42 = loc("inductor_cache/we/cwe2evxtxuagjv2fuyz5gmyivaseqnj77rc3vglukukxg34sudvu.py":51:20)
#loc43 = loc("inductor_cache/we/cwe2evxtxuagjv2fuyz5gmyivaseqnj77rc3vglukukxg34sudvu.py":52:19)
#loc44 = loc("inductor_cache/we/cwe2evxtxuagjv2fuyz5gmyivaseqnj77rc3vglukukxg34sudvu.py":53:40)
#loc45 = loc("inductor_cache/we/cwe2evxtxuagjv2fuyz5gmyivaseqnj77rc3vglukukxg34sudvu.py":53:45)
#loc46 = loc("inductor_cache/we/cwe2evxtxuagjv2fuyz5gmyivaseqnj77rc3vglukukxg34sudvu.py":53:54)
#loc47 = loc("inductor_cache/we/cwe2evxtxuagjv2fuyz5gmyivaseqnj77rc3vglukukxg34sudvu.py":53:31)
#loc48 = loc("inductor_cache/we/cwe2evxtxuagjv2fuyz5gmyivaseqnj77rc3vglukukxg34sudvu.py":53:64)
#loc49 = loc("inductor_cache/we/cwe2evxtxuagjv2fuyz5gmyivaseqnj77rc3vglukukxg34sudvu.py":54:20)
#loc50 = loc("inductor_cache/we/cwe2evxtxuagjv2fuyz5gmyivaseqnj77rc3vglukukxg34sudvu.py":56:21)
#loc51 = loc("inductor_cache/we/cwe2evxtxuagjv2fuyz5gmyivaseqnj77rc3vglukukxg34sudvu.py":57:20)
#loc52 = loc("inductor_cache/we/cwe2evxtxuagjv2fuyz5gmyivaseqnj77rc3vglukukxg34sudvu.py":58:20)
#loc53 = loc("inductor_cache/we/cwe2evxtxuagjv2fuyz5gmyivaseqnj77rc3vglukukxg34sudvu.py":59:20)
#loc54 = loc("inductor_cache/we/cwe2evxtxuagjv2fuyz5gmyivaseqnj77rc3vglukukxg34sudvu.py":60:40)
#loc55 = loc("inductor_cache/we/cwe2evxtxuagjv2fuyz5gmyivaseqnj77rc3vglukukxg34sudvu.py":60:45)
#loc56 = loc("inductor_cache/we/cwe2evxtxuagjv2fuyz5gmyivaseqnj77rc3vglukukxg34sudvu.py":60:54)
#loc57 = loc("inductor_cache/we/cwe2evxtxuagjv2fuyz5gmyivaseqnj77rc3vglukukxg34sudvu.py":60:31)
#loc58 = loc("inductor_cache/we/cwe2evxtxuagjv2fuyz5gmyivaseqnj77rc3vglukukxg34sudvu.py":60:64)
#loc59 = loc("inductor_cache/we/cwe2evxtxuagjv2fuyz5gmyivaseqnj77rc3vglukukxg34sudvu.py":61:20)
#loc60 = loc("inductor_cache/we/cwe2evxtxuagjv2fuyz5gmyivaseqnj77rc3vglukukxg34sudvu.py":62:20)
#loc61 = loc("inductor_cache/we/cwe2evxtxuagjv2fuyz5gmyivaseqnj77rc3vglukukxg34sudvu.py":63:36)
#loc62 = loc("inductor_cache/we/cwe2evxtxuagjv2fuyz5gmyivaseqnj77rc3vglukukxg34sudvu.py":63:45)
#loc63 = loc("inductor_cache/we/cwe2evxtxuagjv2fuyz5gmyivaseqnj77rc3vglukukxg34sudvu.py":63:31)
#loc64 = loc("inductor_cache/we/cwe2evxtxuagjv2fuyz5gmyivaseqnj77rc3vglukukxg34sudvu.py":63:55)
#loc65 = loc("inductor_cache/we/cwe2evxtxuagjv2fuyz5gmyivaseqnj77rc3vglukukxg34sudvu.py":64:20)
#loc66 = loc("inductor_cache/we/cwe2evxtxuagjv2fuyz5gmyivaseqnj77rc3vglukukxg34sudvu.py":65:20)
#loc67 = loc("inductor_cache/we/cwe2evxtxuagjv2fuyz5gmyivaseqnj77rc3vglukukxg34sudvu.py":66:37)
#loc68 = loc("inductor_cache/we/cwe2evxtxuagjv2fuyz5gmyivaseqnj77rc3vglukukxg34sudvu.py":66:42)
#loc69 = loc("inductor_cache/we/cwe2evxtxuagjv2fuyz5gmyivaseqnj77rc3vglukukxg34sudvu.py":66:51)
#loc70 = loc("inductor_cache/we/cwe2evxtxuagjv2fuyz5gmyivaseqnj77rc3vglukukxg34sudvu.py":66:31)
#loc71 = loc("inductor_cache/we/cwe2evxtxuagjv2fuyz5gmyivaseqnj77rc3vglukukxg34sudvu.py":66:61)
#loc72 = loc("inductor_cache/we/cwe2evxtxuagjv2fuyz5gmyivaseqnj77rc3vglukukxg34sudvu.py":67:20)
#loc73 = loc("inductor_cache/we/cwe2evxtxuagjv2fuyz5gmyivaseqnj77rc3vglukukxg34sudvu.py":68:16)
#loc74 = loc("inductor_cache/we/cwe2evxtxuagjv2fuyz5gmyivaseqnj77rc3vglukukxg34sudvu.py":69:21)
#loc75 = loc("inductor_cache/we/cwe2evxtxuagjv2fuyz5gmyivaseqnj77rc3vglukukxg34sudvu.py":70:20)
#loc76 = loc("inductor_cache/we/cwe2evxtxuagjv2fuyz5gmyivaseqnj77rc3vglukukxg34sudvu.py":71:20)
#loc77 = loc("inductor_cache/we/cwe2evxtxuagjv2fuyz5gmyivaseqnj77rc3vglukukxg34sudvu.py":72:20)
#loc78 = loc("inductor_cache/we/cwe2evxtxuagjv2fuyz5gmyivaseqnj77rc3vglukukxg34sudvu.py":73:37)
#loc79 = loc("inductor_cache/we/cwe2evxtxuagjv2fuyz5gmyivaseqnj77rc3vglukukxg34sudvu.py":73:42)
#loc80 = loc("inductor_cache/we/cwe2evxtxuagjv2fuyz5gmyivaseqnj77rc3vglukukxg34sudvu.py":73:51)
#loc81 = loc("inductor_cache/we/cwe2evxtxuagjv2fuyz5gmyivaseqnj77rc3vglukukxg34sudvu.py":73:31)
#loc82 = loc("inductor_cache/we/cwe2evxtxuagjv2fuyz5gmyivaseqnj77rc3vglukukxg34sudvu.py":73:61)
#loc83 = loc("inductor_cache/we/cwe2evxtxuagjv2fuyz5gmyivaseqnj77rc3vglukukxg34sudvu.py":74:20)
#loc84 = loc("inductor_cache/we/cwe2evxtxuagjv2fuyz5gmyivaseqnj77rc3vglukukxg34sudvu.py":75:20)
#loc85 = loc("inductor_cache/we/cwe2evxtxuagjv2fuyz5gmyivaseqnj77rc3vglukukxg34sudvu.py":76:38)
#loc86 = loc("inductor_cache/we/cwe2evxtxuagjv2fuyz5gmyivaseqnj77rc3vglukukxg34sudvu.py":76:43)
#loc87 = loc("inductor_cache/we/cwe2evxtxuagjv2fuyz5gmyivaseqnj77rc3vglukukxg34sudvu.py":76:52)
#loc88 = loc("inductor_cache/we/cwe2evxtxuagjv2fuyz5gmyivaseqnj77rc3vglukukxg34sudvu.py":76:31)
#loc89 = loc("inductor_cache/we/cwe2evxtxuagjv2fuyz5gmyivaseqnj77rc3vglukukxg34sudvu.py":76:62)
#loc90 = loc("inductor_cache/we/cwe2evxtxuagjv2fuyz5gmyivaseqnj77rc3vglukukxg34sudvu.py":77:20)
#loc91 = loc("inductor_cache/we/cwe2evxtxuagjv2fuyz5gmyivaseqnj77rc3vglukukxg34sudvu.py":78:20)
#loc92 = loc("inductor_cache/we/cwe2evxtxuagjv2fuyz5gmyivaseqnj77rc3vglukukxg34sudvu.py":79:38)
#loc93 = loc("inductor_cache/we/cwe2evxtxuagjv2fuyz5gmyivaseqnj77rc3vglukukxg34sudvu.py":79:43)
#loc94 = loc("inductor_cache/we/cwe2evxtxuagjv2fuyz5gmyivaseqnj77rc3vglukukxg34sudvu.py":79:52)
#loc95 = loc("inductor_cache/we/cwe2evxtxuagjv2fuyz5gmyivaseqnj77rc3vglukukxg34sudvu.py":79:31)
#loc96 = loc("inductor_cache/we/cwe2evxtxuagjv2fuyz5gmyivaseqnj77rc3vglukukxg34sudvu.py":79:62)
#loc97 = loc("inductor_cache/we/cwe2evxtxuagjv2fuyz5gmyivaseqnj77rc3vglukukxg34sudvu.py":80:20)
#loc98 = loc("inductor_cache/we/cwe2evxtxuagjv2fuyz5gmyivaseqnj77rc3vglukukxg34sudvu.py":81:22)
#loc99 = loc("inductor_cache/we/cwe2evxtxuagjv2fuyz5gmyivaseqnj77rc3vglukukxg34sudvu.py":81:17)
#loc100 = loc("inductor_cache/we/cwe2evxtxuagjv2fuyz5gmyivaseqnj77rc3vglukukxg34sudvu.py":81:34)
#loc101 = loc("inductor_cache/we/cwe2evxtxuagjv2fuyz5gmyivaseqnj77rc3vglukukxg34sudvu.py":81:29)
#loc102 = loc("inductor_cache/we/cwe2evxtxuagjv2fuyz5gmyivaseqnj77rc3vglukukxg34sudvu.py":81:60)
#loc103 = loc("inductor_cache/we/cwe2evxtxuagjv2fuyz5gmyivaseqnj77rc3vglukukxg34sudvu.py":81:56)
#loc104 = loc("inductor_cache/we/cwe2evxtxuagjv2fuyz5gmyivaseqnj77rc3vglukukxg34sudvu.py":81:48)
#loc105 = loc("inductor_cache/we/cwe2evxtxuagjv2fuyz5gmyivaseqnj77rc3vglukukxg34sudvu.py":81:97)
#loc106 = loc("inductor_cache/we/cwe2evxtxuagjv2fuyz5gmyivaseqnj77rc3vglukukxg34sudvu.py":81:83)
#loc107 = loc("inductor_cache/we/cwe2evxtxuagjv2fuyz5gmyivaseqnj77rc3vglukukxg34sudvu.py":81:69)
#loc108 = loc("inductor_cache/we/cwe2evxtxuagjv2fuyz5gmyivaseqnj77rc3vglukukxg34sudvu.py":81:122)
#loc109 = loc("inductor_cache/we/cwe2evxtxuagjv2fuyz5gmyivaseqnj77rc3vglukukxg34sudvu.py":81:118)
#loc110 = loc("inductor_cache/we/cwe2evxtxuagjv2fuyz5gmyivaseqnj77rc3vglukukxg34sudvu.py":81:110)
#loc111 = loc("inductor_cache/we/cwe2evxtxuagjv2fuyz5gmyivaseqnj77rc3vglukukxg34sudvu.py":81:159)
#loc112 = loc("inductor_cache/we/cwe2evxtxuagjv2fuyz5gmyivaseqnj77rc3vglukukxg34sudvu.py":81:145)
#loc113 = loc("inductor_cache/we/cwe2evxtxuagjv2fuyz5gmyivaseqnj77rc3vglukukxg34sudvu.py":81:131)
#loc114 = loc("inductor_cache/we/cwe2evxtxuagjv2fuyz5gmyivaseqnj77rc3vglukukxg34sudvu.py":81:103)
#loc115 = loc("inductor_cache/we/cwe2evxtxuagjv2fuyz5gmyivaseqnj77rc3vglukukxg34sudvu.py":81:40)
#loc116 = loc("inductor_cache/we/cwe2evxtxuagjv2fuyz5gmyivaseqnj77rc3vglukukxg34sudvu.py":81:176)
#loc117 = loc("inductor_cache/we/cwe2evxtxuagjv2fuyz5gmyivaseqnj77rc3vglukukxg34sudvu.py":81:167)
#loc118 = loc("inductor_cache/we/cwe2evxtxuagjv2fuyz5gmyivaseqnj77rc3vglukukxg34sudvu.py":81:250)
#loc119 = loc("inductor_cache/we/cwe2evxtxuagjv2fuyz5gmyivaseqnj77rc3vglukukxg34sudvu.py":81:241)
#loc120 = loc("inductor_cache/we/cwe2evxtxuagjv2fuyz5gmyivaseqnj77rc3vglukukxg34sudvu.py":81:316)
#loc121 = loc("inductor_cache/we/cwe2evxtxuagjv2fuyz5gmyivaseqnj77rc3vglukukxg34sudvu.py":81:319)
#loc122 = loc("inductor_cache/we/cwe2evxtxuagjv2fuyz5gmyivaseqnj77rc3vglukukxg34sudvu.py":81:314)
#loc123 = loc("inductor_cache/we/cwe2evxtxuagjv2fuyz5gmyivaseqnj77rc3vglukukxg34sudvu.py":81:325)
#loc124 = loc("inductor_cache/we/cwe2evxtxuagjv2fuyz5gmyivaseqnj77rc3vglukukxg34sudvu.py":81:389)
#loc125 = loc("inductor_cache/we/cwe2evxtxuagjv2fuyz5gmyivaseqnj77rc3vglukukxg34sudvu.py":82:20)
#loc126 = loc("inductor_cache/we/cwe2evxtxuagjv2fuyz5gmyivaseqnj77rc3vglukukxg34sudvu.py":83:25)
#loc127 = loc("inductor_cache/we/cwe2evxtxuagjv2fuyz5gmyivaseqnj77rc3vglukukxg34sudvu.py":83:37)
#loc128 = loc("inductor_cache/we/cwe2evxtxuagjv2fuyz5gmyivaseqnj77rc3vglukukxg34sudvu.py":83:4)
