#loc = loc("inductor_cache/w2/cw2wy7j5az27icqpcw4kter4ilhne3xydkc4siocpk4cfid2x3ub.py":19:0)
#loc1 = loc(unknown)
#loc542 = loc("inductor_cache/w2/cw2wy7j5az27icqpcw4kter4ilhne3xydkc4siocpk4cfid2x3ub.py":323:47)
#loc584 = loc(callsite(#loc1 at #loc542))
module {
  tt.func public @triton_red_fused__to_copy__unsafe_index_add_arange_cat_clamp_floor_mul_native_group_norm_rsub_sub_37(%arg0: !tt.ptr<f32> {tt.divisibility = 16 : i32} loc("inductor_cache/w2/cw2wy7j5az27icqpcw4kter4ilhne3xydkc4siocpk4cfid2x3ub.py":19:0), %arg1: !tt.ptr<i64> {tt.divisibility = 16 : i32} loc("inductor_cache/w2/cw2wy7j5az27icqpcw4kter4ilhne3xydkc4siocpk4cfid2x3ub.py":19:0), %arg2: !tt.ptr<i64> {tt.divisibility = 16 : i32} loc("inductor_cache/w2/cw2wy7j5az27icqpcw4kter4ilhne3xydkc4siocpk4cfid2x3ub.py":19:0), %arg3: !tt.ptr<f32> {tt.divisibility = 16 : i32} loc("inductor_cache/w2/cw2wy7j5az27icqpcw4kter4ilhne3xydkc4siocpk4cfid2x3ub.py":19:0), %arg4: !tt.ptr<f32> {tt.divisibility = 16 : i32} loc("inductor_cache/w2/cw2wy7j5az27icqpcw4kter4ilhne3xydkc4siocpk4cfid2x3ub.py":19:0), %arg5: !tt.ptr<f32> {tt.divisibility = 16 : i32} loc("inductor_cache/w2/cw2wy7j5az27icqpcw4kter4ilhne3xydkc4siocpk4cfid2x3ub.py":19:0), %arg6: !tt.ptr<f32> {tt.divisibility = 16 : i32} loc("inductor_cache/w2/cw2wy7j5az27icqpcw4kter4ilhne3xydkc4siocpk4cfid2x3ub.py":19:0), %arg7: !tt.ptr<i64> {tt.divisibility = 16 : i32} loc("inductor_cache/w2/cw2wy7j5az27icqpcw4kter4ilhne3xydkc4siocpk4cfid2x3ub.py":19:0), %arg8: !tt.ptr<i64> {tt.divisibility = 16 : i32} loc("inductor_cache/w2/cw2wy7j5az27icqpcw4kter4ilhne3xydkc4siocpk4cfid2x3ub.py":19:0), %arg9: !tt.ptr<i64> {tt.divisibility = 16 : i32} loc("inductor_cache/w2/cw2wy7j5az27icqpcw4kter4ilhne3xydkc4siocpk4cfid2x3ub.py":19:0), %arg10: !tt.ptr<i64> {tt.divisibility = 16 : i32} loc("inductor_cache/w2/cw2wy7j5az27icqpcw4kter4ilhne3xydkc4siocpk4cfid2x3ub.py":19:0), %arg11: !tt.ptr<i64> {tt.divisibility = 16 : i32} loc("inductor_cache/w2/cw2wy7j5az27icqpcw4kter4ilhne3xydkc4siocpk4cfid2x3ub.py":19:0), %arg12: !tt.ptr<i64> {tt.divisibility = 16 : i32} loc("inductor_cache/w2/cw2wy7j5az27icqpcw4kter4ilhne3xydkc4siocpk4cfid2x3ub.py":19:0), %arg13: !tt.ptr<f32> {tt.divisibility = 16 : i32} loc("inductor_cache/w2/cw2wy7j5az27icqpcw4kter4ilhne3xydkc4siocpk4cfid2x3ub.py":19:0), %arg14: !tt.ptr<f32> {tt.divisibility = 16 : i32} loc("inductor_cache/w2/cw2wy7j5az27icqpcw4kter4ilhne3xydkc4siocpk4cfid2x3ub.py":19:0), %arg15: !tt.ptr<f32> {tt.divisibility = 16 : i32} loc("inductor_cache/w2/cw2wy7j5az27icqpcw4kter4ilhne3xydkc4siocpk4cfid2x3ub.py":19:0), %arg16: !tt.ptr<f32> {tt.divisibility = 16 : i32} loc("inductor_cache/w2/cw2wy7j5az27icqpcw4kter4ilhne3xydkc4siocpk4cfid2x3ub.py":19:0), %arg17: !tt.ptr<f32> {tt.divisibility = 16 : i32} loc("inductor_cache/w2/cw2wy7j5az27icqpcw4kter4ilhne3xydkc4siocpk4cfid2x3ub.py":19:0), %arg18: !tt.ptr<f32> {tt.divisibility = 16 : i32} loc("inductor_cache/w2/cw2wy7j5az27icqpcw4kter4ilhne3xydkc4siocpk4cfid2x3ub.py":19:0), %arg19: !tt.ptr<f32> {tt.divisibility = 16 : i32} loc("inductor_cache/w2/cw2wy7j5az27icqpcw4kter4ilhne3xydkc4siocpk4cfid2x3ub.py":19:0), %arg20: i32 {tt.divisibility = 16 : i32} loc("inductor_cache/w2/cw2wy7j5az27icqpcw4kter4ilhne3xydkc4siocpk4cfid2x3ub.py":19:0), %arg21: i32 {tt.divisibility = 16 : i32} loc("inductor_cache/w2/cw2wy7j5az27icqpcw4kter4ilhne3xydkc4siocpk4cfid2x3ub.py":19:0)) attributes {noinline = false} {
    %cst = arith.constant dense<4> : tensor<1x512xi64> loc(#loc1)
    %cst_0 = arith.constant dense<0.000000e+00> : tensor<1x512xf32> loc(#loc1)
    %cst_1 = arith.constant dense<1.000000e+00> : tensor<8x512xf32> loc(#loc1)
    %cst_2 = arith.constant dense<0> : tensor<1x512xi64> loc(#loc1)
    %cst_3 = arith.constant dense<9.99999974E-6> : tensor<8x1xf32> loc(#loc1)
    %cst_4 = arith.constant dense<5.120000e+02> : tensor<8x1xf32> loc(#loc1)
    %cst_5 = arith.constant dense<4096> : tensor<8x1xi32> loc(#loc1)
    %cst_6 = arith.constant dense<8192> : tensor<8x1xi32> loc(#loc1)
    %cst_7 = arith.constant dense<64> : tensor<8x512xi32> loc(#loc1)
    %cst_8 = arith.constant dense<2.000000e+00> : tensor<1x512xf32> loc(#loc1)
    %cst_9 = arith.constant dense<2.250000e+00> : tensor<1x512xf32> loc(#loc1)
    %cst_10 = arith.constant dense<1.250000e+00> : tensor<1x512xf32> loc(#loc1)
    %cst_11 = arith.constant dense<-3.000000e+00> : tensor<1x512xf32> loc(#loc1)
    %cst_12 = arith.constant dense<-6.000000e+00> : tensor<1x512xf32> loc(#loc1)
    %cst_13 = arith.constant dense<-3.750000e+00> : tensor<1x512xf32> loc(#loc1)
    %cst_14 = arith.constant dense<-7.500000e-01> : tensor<1x512xf32> loc(#loc1)
    %cst_15 = arith.constant dense<1.000000e+00> : tensor<1x512xf32> loc(#loc1)
    %cst_16 = arith.constant dense<0.428571433> : tensor<1x512xf32> loc(#loc1)
    %cst_17 = arith.constant dense<16> : tensor<1x512xi32> loc(#loc1)
    %cst_18 = arith.constant dense<-192> : tensor<1x512xi32> loc(#loc1)
    %cst_19 = arith.constant dense<1024> : tensor<8x1xi32> loc(#loc1)
    %cst_20 = arith.constant dense<-128> : tensor<1x512xi32> loc(#loc1)
    %cst_21 = arith.constant dense<192> : tensor<8x512xi64> loc(#loc1)
    %cst_22 = arith.constant dense<2048> : tensor<8x1xi32> loc(#loc1)
    %cst_23 = arith.constant dense<16> : tensor<8x512xi32> loc(#loc1)
    %cst_24 = arith.constant dense<128> : tensor<8x512xi64> loc(#loc1)
    %cst_25 = arith.constant dense<8> : tensor<8x1xi32> loc(#loc1)
    %cst_26 = arith.constant dense<0.000000e+00> : tensor<8x512xf32> loc(#loc1)
    %cst_27 = arith.constant dense<512> : tensor<8x1xi32> loc(#loc1)
    %cst_28 = arith.constant 0.000000e+00 : f32 loc(#loc1)
    %cst_29 = arith.constant dense<64> : tensor<1x512xi32> loc(#loc1)
    %cst_30 = arith.constant dense<8> : tensor<1x512xi32> loc(#loc1)
    %cst_31 = arith.constant dense<512> : tensor<1x512xi32> loc(#loc1)
    %cst_32 = arith.constant dense<32> : tensor<8x1xi32> loc(#loc1)
    %cst_33 = arith.constant dense<128> : tensor<8x1xi32> loc(#loc1)
    %c8_i32 = arith.constant 8 : i32 loc(#loc1)
    %0 = tt.get_program_id x : i32 loc(#loc2)
    %1 = arith.muli %0, %c8_i32 : i32 loc(#loc3)
    %2 = tt.make_range {end = 8 : i32, start = 0 : i32} : tensor<8xi32> loc(#loc4)
    %3 = tt.expand_dims %2 {axis = 1 : i32} : tensor<8xi32> -> tensor<8x1xi32> loc(#loc5)
    %4 = tt.splat %1 : i32 -> tensor<8x1xi32> loc(#loc6)
    %5 = arith.addi %4, %3 : tensor<8x1xi32> loc(#loc6)
    %6 = arith.cmpi slt, %5, %cst_33 : tensor<8x1xi32> loc(#loc7)
    %7 = tt.make_range {end = 512 : i32, start = 0 : i32} : tensor<512xi32> loc(#loc8)
    %8 = tt.expand_dims %7 {axis = 0 : i32} : tensor<512xi32> -> tensor<1x512xi32> loc(#loc9)
    %9 = arith.remsi %5, %cst_32 : tensor<8x1xi32> loc(#loc10)
    %10 = arith.divsi %5, %cst_32 : tensor<8x1xi32> loc(#loc11)
    %11 = arith.cmpi slt, %8, %cst_31 : tensor<1x512xi32> loc(#loc12)
    %12 = arith.divsi %8, %cst_30 : tensor<1x512xi32> loc(#loc13)
    %13 = arith.remsi %12, %cst_30 : tensor<1x512xi32> loc(#loc14)
    %14 = arith.remsi %8, %cst_30 : tensor<1x512xi32> loc(#loc15)
    %15 = arith.divsi %8, %cst_29 : tensor<1x512xi32> loc(#loc16)
    %16 = arith.remsi %8, %cst_29 : tensor<1x512xi32> loc(#loc17)
    %17 = tt.splat %arg1 : !tt.ptr<i64> -> tensor<1x512x!tt.ptr<i64>> loc(#loc18)
    %18 = tt.addptr %17, %13 : tensor<1x512x!tt.ptr<i64>>, tensor<1x512xi32> loc(#loc18)
    %19 = tt.load %18, %11, %cst_2 evictionPolicy = evict_last : tensor<1x512x!tt.ptr<i64>> loc(#loc19)
    %20 = tt.splat %arg2 : !tt.ptr<i64> -> tensor<1x512x!tt.ptr<i64>> loc(#loc20)
    %21 = tt.addptr %20, %14 : tensor<1x512x!tt.ptr<i64>>, tensor<1x512xi32> loc(#loc20)
    %22 = tt.load %21, %11, %cst_2 evictionPolicy = evict_last : tensor<1x512x!tt.ptr<i64>> loc(#loc21)
    %23 = tt.splat %arg7 : !tt.ptr<i64> -> tensor<1x512x!tt.ptr<i64>> loc(#loc22)
    %24 = tt.addptr %23, %14 : tensor<1x512x!tt.ptr<i64>>, tensor<1x512xi32> loc(#loc22)
    %25 = tt.load %24, %11, %cst_2 evictionPolicy = evict_last : tensor<1x512x!tt.ptr<i64>> loc(#loc23)
    %26 = tt.splat %arg8 : !tt.ptr<i64> -> tensor<1x512x!tt.ptr<i64>> loc(#loc24)
    %27 = tt.addptr %26, %14 : tensor<1x512x!tt.ptr<i64>>, tensor<1x512xi32> loc(#loc24)
    %28 = tt.load %27, %11, %cst_2 evictionPolicy = evict_last : tensor<1x512x!tt.ptr<i64>> loc(#loc25)
    %29 = tt.splat %arg9 : !tt.ptr<i64> -> tensor<1x512x!tt.ptr<i64>> loc(#loc26)
    %30 = tt.addptr %29, %14 : tensor<1x512x!tt.ptr<i64>>, tensor<1x512xi32> loc(#loc26)
    %31 = tt.load %30, %11, %cst_2 evictionPolicy = evict_last : tensor<1x512x!tt.ptr<i64>> loc(#loc27)
    %32 = tt.splat %arg10 : !tt.ptr<i64> -> tensor<1x512x!tt.ptr<i64>> loc(#loc28)
    %33 = tt.addptr %32, %13 : tensor<1x512x!tt.ptr<i64>>, tensor<1x512xi32> loc(#loc28)
    %34 = tt.load %33, %11, %cst_2 evictionPolicy = evict_last : tensor<1x512x!tt.ptr<i64>> loc(#loc29)
    %35 = tt.splat %arg11 : !tt.ptr<i64> -> tensor<1x512x!tt.ptr<i64>> loc(#loc30)
    %36 = tt.addptr %35, %13 : tensor<1x512x!tt.ptr<i64>>, tensor<1x512xi32> loc(#loc30)
    %37 = tt.load %36, %11, %cst_2 evictionPolicy = evict_last : tensor<1x512x!tt.ptr<i64>> loc(#loc31)
    %38 = tt.splat %arg12 : !tt.ptr<i64> -> tensor<1x512x!tt.ptr<i64>> loc(#loc32)
    %39 = tt.addptr %38, %13 : tensor<1x512x!tt.ptr<i64>>, tensor<1x512xi32> loc(#loc32)
    %40 = tt.load %39, %11, %cst_2 evictionPolicy = evict_last : tensor<1x512x!tt.ptr<i64>> loc(#loc33)
    %41 = arith.muli %5, %cst_27 : tensor<8x1xi32> loc(#loc34)
    %42 = tt.broadcast %8 : tensor<1x512xi32> -> tensor<8x512xi32> loc(#loc35)
    %43 = tt.broadcast %41 : tensor<8x1xi32> -> tensor<8x512xi32> loc(#loc35)
    %44 = arith.addi %42, %43 : tensor<8x512xi32> loc(#loc35)
    %45 = tt.splat %arg16 : !tt.ptr<f32> -> tensor<8x512x!tt.ptr<f32>> loc(#loc36)
    %46 = tt.addptr %45, %44 : tensor<8x512x!tt.ptr<f32>>, tensor<8x512xi32> loc(#loc36)
    %47 = tt.broadcast %11 : tensor<1x512xi1> -> tensor<8x512xi1> loc(#loc37)
    %48 = tt.broadcast %6 : tensor<8x1xi1> -> tensor<8x512xi1> loc(#loc37)
    %49 = arith.andi %47, %48 : tensor<8x512xi1> loc(#loc37)
    %50 = tt.load %46, %49, %cst_26 evictionPolicy = evict_first : tensor<8x512x!tt.ptr<f32>> loc(#loc38)
    %51 = arith.addi %19, %cst : tensor<1x512xi64> loc(#loc39)
    %52 = arith.cmpi slt, %19, %cst_2 : tensor<1x512xi64> loc(#loc40)
    %53 = arith.select %52, %51, %19 : tensor<1x512xi1>, tensor<1x512xi64> loc(#loc41)
    %54 = arith.addi %22, %cst : tensor<1x512xi64> loc(#loc42)
    %55 = arith.cmpi slt, %22, %cst_2 : tensor<1x512xi64> loc(#loc43)
    %56 = arith.select %55, %54, %22 : tensor<1x512xi1>, tensor<1x512xi64> loc(#loc44)
    %57 = arith.muli %9, %cst_25 : tensor<8x1xi32> loc(#loc45)
    %58 = tt.broadcast %15 : tensor<1x512xi32> -> tensor<8x512xi32> loc(#loc46)
    %59 = tt.broadcast %57 : tensor<8x1xi32> -> tensor<8x512xi32> loc(#loc46)
    %60 = arith.addi %58, %59 : tensor<8x512xi32> loc(#loc46)
    %61 = arith.extsi %60 : tensor<8x512xi32> to tensor<8x512xi64> loc(#loc47)
    %62 = arith.cmpi slt, %61, %cst_24 : tensor<8x512xi64> loc(#loc47)
    %63 = arith.muli %53, %cst : tensor<1x512xi64> loc(#loc48)
    %64 = arith.addi %56, %63 : tensor<1x512xi64> loc(#loc49)
    %65 = tt.broadcast %64 : tensor<1x512xi64> -> tensor<8x512xi64> loc(#loc49)
    %66 = arith.muli %60, %cst_23 : tensor<8x512xi32> loc(#loc50)
    %67 = arith.extsi %66 : tensor<8x512xi32> to tensor<8x512xi64> loc(#loc51)
    %68 = arith.addi %65, %67 : tensor<8x512xi64> loc(#loc51)
    %69 = arith.muli %10, %cst_22 : tensor<8x1xi32> loc(#loc52)
    %70 = arith.extsi %69 : tensor<8x1xi32> to tensor<8x1xi64> loc(#loc53)
    %71 = tt.broadcast %70 : tensor<8x1xi64> -> tensor<8x512xi64> loc(#loc53)
    %72 = arith.addi %68, %71 : tensor<8x512xi64> loc(#loc53)
    %73 = tt.splat %arg3 : !tt.ptr<f32> -> tensor<8x512x!tt.ptr<f32>> loc(#loc54)
    %74 = tt.addptr %73, %72 : tensor<8x512x!tt.ptr<f32>>, tensor<8x512xi64> loc(#loc54)
    %75 = arith.andi %47, %62 : tensor<8x512xi1> loc(#loc55)
    %76 = arith.andi %75, %48 : tensor<8x512xi1> loc(#loc56)
    %77 = tt.load %74, %76, %cst_26 evictionPolicy = evict_last : tensor<8x512x!tt.ptr<f32>> loc(#loc57)
    %78 = arith.cmpi sge, %61, %cst_24 : tensor<8x512xi64> loc(#loc58)
    %79 = arith.cmpi slt, %61, %cst_21 : tensor<8x512xi64> loc(#loc59)
    %80 = arith.andi %78, %79 : tensor<8x512xi1> loc(#loc60)
    %81 = arith.addi %15, %cst_20 : tensor<1x512xi32> loc(#loc61)
    %82 = tt.broadcast %81 : tensor<1x512xi32> -> tensor<8x512xi32> loc(#loc62)
    %83 = arith.addi %82, %59 : tensor<8x512xi32> loc(#loc62)
    %84 = arith.muli %83, %cst_23 : tensor<8x512xi32> loc(#loc63)
    %85 = arith.extsi %84 : tensor<8x512xi32> to tensor<8x512xi64> loc(#loc64)
    %86 = arith.addi %65, %85 : tensor<8x512xi64> loc(#loc64)
    %87 = arith.muli %10, %cst_19 : tensor<8x1xi32> loc(#loc65)
    %88 = arith.extsi %87 : tensor<8x1xi32> to tensor<8x1xi64> loc(#loc66)
    %89 = tt.broadcast %88 : tensor<8x1xi64> -> tensor<8x512xi64> loc(#loc66)
    %90 = arith.addi %86, %89 : tensor<8x512xi64> loc(#loc66)
    %91 = tt.splat %arg4 : !tt.ptr<f32> -> tensor<8x512x!tt.ptr<f32>> loc(#loc67)
    %92 = tt.addptr %91, %90 : tensor<8x512x!tt.ptr<f32>>, tensor<8x512xi64> loc(#loc67)
    %93 = arith.andi %47, %80 : tensor<8x512xi1> loc(#loc68)
    %94 = arith.andi %93, %48 : tensor<8x512xi1> loc(#loc69)
    %95 = tt.load %92, %94, %cst_26 evictionPolicy = evict_last : tensor<8x512x!tt.ptr<f32>> loc(#loc70)
    %96 = arith.cmpi sge, %61, %cst_21 : tensor<8x512xi64> loc(#loc71)
    %97 = arith.addi %15, %cst_18 : tensor<1x512xi32> loc(#loc72)
    %98 = tt.broadcast %97 : tensor<1x512xi32> -> tensor<8x512xi32> loc(#loc73)
    %99 = arith.addi %98, %59 : tensor<8x512xi32> loc(#loc73)
    %100 = arith.muli %99, %cst_23 : tensor<8x512xi32> loc(#loc74)
    %101 = arith.extsi %100 : tensor<8x512xi32> to tensor<8x512xi64> loc(#loc75)
    %102 = arith.addi %65, %101 : tensor<8x512xi64> loc(#loc75)
    %103 = arith.addi %102, %89 : tensor<8x512xi64> loc(#loc76)
    %104 = tt.splat %arg5 : !tt.ptr<f32> -> tensor<8x512x!tt.ptr<f32>> loc(#loc77)
    %105 = tt.addptr %104, %103 : tensor<8x512x!tt.ptr<f32>>, tensor<8x512xi64> loc(#loc77)
    %106 = arith.andi %47, %96 : tensor<8x512xi1> loc(#loc78)
    %107 = arith.andi %106, %48 : tensor<8x512xi1> loc(#loc79)
    %108 = tt.load %105, %107, %cst_26 evictionPolicy = evict_last : tensor<8x512x!tt.ptr<f32>> loc(#loc80)
    %109 = arith.select %80, %95, %108 : tensor<8x512xi1>, tensor<8x512xf32> loc(#loc81)
    %110 = arith.select %62, %77, %109 : tensor<8x512xi1>, tensor<8x512xf32> loc(#loc82)
    %111 = arith.muli %15, %cst_17 : tensor<1x512xi32> loc(#loc83)
    %112 = arith.extsi %111 : tensor<1x512xi32> to tensor<1x512xi64> loc(#loc84)
    %113 = arith.addi %64, %112 : tensor<1x512xi64> loc(#loc84)
    %114 = tt.broadcast %113 : tensor<1x512xi64> -> tensor<8x512xi64> loc(#loc84)
    %115 = arith.muli %5, %cst_33 : tensor<8x1xi32> loc(#loc85)
    %116 = arith.extsi %115 : tensor<8x1xi32> to tensor<8x1xi64> loc(#loc86)
    %117 = tt.broadcast %116 : tensor<8x1xi64> -> tensor<8x512xi64> loc(#loc86)
    %118 = arith.addi %114, %117 : tensor<8x512xi64> loc(#loc86)
    %119 = tt.splat %arg6 : !tt.ptr<f32> -> tensor<8x512x!tt.ptr<f32>> loc(#loc87)
    %120 = tt.addptr %119, %118 : tensor<8x512x!tt.ptr<f32>>, tensor<8x512xi64> loc(#loc87)
    %121 = tt.load %120, %49, %cst_26 evictionPolicy = evict_last : tensor<8x512x!tt.ptr<f32>> loc(#loc88)
    %122 = arith.addf %110, %121 : tensor<8x512xf32> loc(#loc89)
    %123 = arith.sitofp %14 : tensor<1x512xi32> to tensor<1x512xf32> loc(#loc90)
    %124 = arith.mulf %123, %cst_16 : tensor<1x512xf32> loc(#loc91)
    %125 = tt.extern_elementwise %124 {libname = "", libpath = "", pure = true, symbol = "__nv_floorf"} : (tensor<1x512xf32>) -> tensor<1x512xf32> loc(#loc92)
    %126 = arith.subf %124, %125 : tensor<1x512xf32> loc(#loc93)
    %127 = arith.cmpf ogt, %126, %cst_0 : tensor<1x512xf32> loc(#loc567)
    %128 = arith.cmpf une, %126, %126 : tensor<1x512xf32> loc(#loc568)
    %129 = arith.ori %127, %128 : tensor<1x512xi1> loc(#loc569)
    %130 = arith.select %129, %126, %cst_0 : tensor<1x512xi1>, tensor<1x512xf32> loc(#loc570)
    %131 = arith.cmpf olt, %130, %cst_15 : tensor<1x512xf32> loc(#loc571)
    %132 = arith.cmpf une, %130, %130 : tensor<1x512xf32> loc(#loc572)
    %133 = arith.ori %131, %132 : tensor<1x512xi1> loc(#loc573)
    %134 = arith.select %133, %130, %cst_15 : tensor<1x512xi1>, tensor<1x512xf32> loc(#loc574)
    %135 = arith.addf %134, %cst_15 : tensor<1x512xf32> loc(#loc104)
    %136 = arith.mulf %135, %cst_14 : tensor<1x512xf32> loc(#loc105)
    %137 = arith.subf %136, %cst_13 : tensor<1x512xf32> loc(#loc106)
    %138 = arith.mulf %137, %135 : tensor<1x512xf32> loc(#loc107)
    %139 = arith.addf %138, %cst_12 : tensor<1x512xf32> loc(#loc108)
    %140 = arith.mulf %139, %135 : tensor<1x512xf32> loc(#loc109)
    %141 = arith.subf %140, %cst_11 : tensor<1x512xf32> loc(#loc110)
    %142 = tt.broadcast %141 : tensor<1x512xf32> -> tensor<8x512xf32> loc(#loc111)
    %143 = arith.mulf %122, %142 : tensor<8x512xf32> loc(#loc111)
    %144 = arith.addi %25, %cst : tensor<1x512xi64> loc(#loc112)
    %145 = arith.cmpi slt, %25, %cst_2 : tensor<1x512xi64> loc(#loc113)
    %146 = arith.select %145, %144, %25 : tensor<1x512xi1>, tensor<1x512xi64> loc(#loc114)
    %147 = arith.addi %146, %63 : tensor<1x512xi64> loc(#loc115)
    %148 = tt.broadcast %147 : tensor<1x512xi64> -> tensor<8x512xi64> loc(#loc115)
    %149 = arith.addi %148, %67 : tensor<8x512xi64> loc(#loc116)
    %150 = arith.addi %149, %71 : tensor<8x512xi64> loc(#loc117)
    %151 = tt.addptr %73, %150 : tensor<8x512x!tt.ptr<f32>>, tensor<8x512xi64> loc(#loc118)
    %152 = tt.load %151, %76, %cst_26 evictionPolicy = evict_last : tensor<8x512x!tt.ptr<f32>> loc(#loc119)
    %153 = arith.addi %148, %85 : tensor<8x512xi64> loc(#loc120)
    %154 = arith.addi %153, %89 : tensor<8x512xi64> loc(#loc121)
    %155 = tt.addptr %91, %154 : tensor<8x512x!tt.ptr<f32>>, tensor<8x512xi64> loc(#loc122)
    %156 = tt.load %155, %94, %cst_26 evictionPolicy = evict_last : tensor<8x512x!tt.ptr<f32>> loc(#loc123)
    %157 = arith.addi %148, %101 : tensor<8x512xi64> loc(#loc124)
    %158 = arith.addi %157, %89 : tensor<8x512xi64> loc(#loc125)
    %159 = tt.addptr %104, %158 : tensor<8x512x!tt.ptr<f32>>, tensor<8x512xi64> loc(#loc126)
    %160 = tt.load %159, %107, %cst_26 evictionPolicy = evict_last : tensor<8x512x!tt.ptr<f32>> loc(#loc127)
    %161 = arith.select %80, %156, %160 : tensor<8x512xi1>, tensor<8x512xf32> loc(#loc128)
    %162 = arith.select %62, %152, %161 : tensor<8x512xi1>, tensor<8x512xf32> loc(#loc129)
    %163 = arith.addi %147, %112 : tensor<1x512xi64> loc(#loc130)
    %164 = tt.broadcast %163 : tensor<1x512xi64> -> tensor<8x512xi64> loc(#loc130)
    %165 = arith.addi %164, %117 : tensor<8x512xi64> loc(#loc131)
    %166 = tt.addptr %119, %165 : tensor<8x512x!tt.ptr<f32>>, tensor<8x512xi64> loc(#loc132)
    %167 = tt.load %166, %49, %cst_26 evictionPolicy = evict_last : tensor<8x512x!tt.ptr<f32>> loc(#loc133)
    %168 = arith.addf %162, %167 : tensor<8x512xf32> loc(#loc134)
    %169 = arith.mulf %134, %cst_10 : tensor<1x512xf32> loc(#loc135)
    %170 = arith.subf %169, %cst_9 : tensor<1x512xf32> loc(#loc136)
    %171 = arith.mulf %170, %134 : tensor<1x512xf32> loc(#loc137)
    %172 = arith.mulf %171, %134 : tensor<1x512xf32> loc(#loc138)
    %173 = arith.addf %172, %cst_15 : tensor<1x512xf32> loc(#loc139)
    %174 = tt.broadcast %173 : tensor<1x512xf32> -> tensor<8x512xf32> loc(#loc140)
    %175 = arith.mulf %168, %174 : tensor<8x512xf32> loc(#loc140)
    %176 = arith.addi %28, %cst : tensor<1x512xi64> loc(#loc141)
    %177 = arith.cmpi slt, %28, %cst_2 : tensor<1x512xi64> loc(#loc142)
    %178 = arith.select %177, %176, %28 : tensor<1x512xi1>, tensor<1x512xi64> loc(#loc143)
    %179 = arith.addi %178, %63 : tensor<1x512xi64> loc(#loc144)
    %180 = tt.broadcast %179 : tensor<1x512xi64> -> tensor<8x512xi64> loc(#loc144)
    %181 = arith.addi %180, %67 : tensor<8x512xi64> loc(#loc145)
    %182 = arith.addi %181, %71 : tensor<8x512xi64> loc(#loc146)
    %183 = tt.addptr %73, %182 : tensor<8x512x!tt.ptr<f32>>, tensor<8x512xi64> loc(#loc147)
    %184 = tt.load %183, %76, %cst_26 evictionPolicy = evict_last : tensor<8x512x!tt.ptr<f32>> loc(#loc148)
    %185 = arith.addi %180, %85 : tensor<8x512xi64> loc(#loc149)
    %186 = arith.addi %185, %89 : tensor<8x512xi64> loc(#loc150)
    %187 = tt.addptr %91, %186 : tensor<8x512x!tt.ptr<f32>>, tensor<8x512xi64> loc(#loc151)
    %188 = tt.load %187, %94, %cst_26 evictionPolicy = evict_last : tensor<8x512x!tt.ptr<f32>> loc(#loc152)
    %189 = arith.addi %180, %101 : tensor<8x512xi64> loc(#loc153)
    %190 = arith.addi %189, %89 : tensor<8x512xi64> loc(#loc154)
    %191 = tt.addptr %104, %190 : tensor<8x512x!tt.ptr<f32>>, tensor<8x512xi64> loc(#loc155)
    %192 = tt.load %191, %107, %cst_26 evictionPolicy = evict_last : tensor<8x512x!tt.ptr<f32>> loc(#loc156)
    %193 = arith.select %80, %188, %192 : tensor<8x512xi1>, tensor<8x512xf32> loc(#loc157)
    %194 = arith.select %62, %184, %193 : tensor<8x512xi1>, tensor<8x512xf32> loc(#loc158)
    %195 = arith.addi %179, %112 : tensor<1x512xi64> loc(#loc159)
    %196 = tt.broadcast %195 : tensor<1x512xi64> -> tensor<8x512xi64> loc(#loc159)
    %197 = arith.addi %196, %117 : tensor<8x512xi64> loc(#loc160)
    %198 = tt.addptr %119, %197 : tensor<8x512x!tt.ptr<f32>>, tensor<8x512xi64> loc(#loc161)
    %199 = tt.load %198, %49, %cst_26 evictionPolicy = evict_last : tensor<8x512x!tt.ptr<f32>> loc(#loc162)
    %200 = arith.addf %194, %199 : tensor<8x512xf32> loc(#loc163)
    %201 = arith.subf %cst_15, %134 : tensor<1x512xf32> loc(#loc164)
    %202 = arith.mulf %201, %cst_10 : tensor<1x512xf32> loc(#loc165)
    %203 = arith.subf %202, %cst_9 : tensor<1x512xf32> loc(#loc166)
    %204 = arith.mulf %203, %201 : tensor<1x512xf32> loc(#loc167)
    %205 = arith.mulf %204, %201 : tensor<1x512xf32> loc(#loc168)
    %206 = arith.addf %205, %cst_15 : tensor<1x512xf32> loc(#loc169)
    %207 = tt.broadcast %206 : tensor<1x512xf32> -> tensor<8x512xf32> loc(#loc170)
    %208 = arith.mulf %200, %207 : tensor<8x512xf32> loc(#loc170)
    %209 = arith.addi %31, %cst : tensor<1x512xi64> loc(#loc171)
    %210 = arith.cmpi slt, %31, %cst_2 : tensor<1x512xi64> loc(#loc172)
    %211 = arith.select %210, %209, %31 : tensor<1x512xi1>, tensor<1x512xi64> loc(#loc173)
    %212 = arith.addi %211, %63 : tensor<1x512xi64> loc(#loc174)
    %213 = tt.broadcast %212 : tensor<1x512xi64> -> tensor<8x512xi64> loc(#loc174)
    %214 = arith.addi %213, %67 : tensor<8x512xi64> loc(#loc175)
    %215 = arith.addi %214, %71 : tensor<8x512xi64> loc(#loc176)
    %216 = tt.addptr %73, %215 : tensor<8x512x!tt.ptr<f32>>, tensor<8x512xi64> loc(#loc177)
    %217 = tt.load %216, %76, %cst_26 evictionPolicy = evict_last : tensor<8x512x!tt.ptr<f32>> loc(#loc178)
    %218 = arith.addi %213, %85 : tensor<8x512xi64> loc(#loc179)
    %219 = arith.addi %218, %89 : tensor<8x512xi64> loc(#loc180)
    %220 = tt.addptr %91, %219 : tensor<8x512x!tt.ptr<f32>>, tensor<8x512xi64> loc(#loc181)
    %221 = tt.load %220, %94, %cst_26 evictionPolicy = evict_last : tensor<8x512x!tt.ptr<f32>> loc(#loc182)
    %222 = arith.addi %213, %101 : tensor<8x512xi64> loc(#loc183)
    %223 = arith.addi %222, %89 : tensor<8x512xi64> loc(#loc184)
    %224 = tt.addptr %104, %223 : tensor<8x512x!tt.ptr<f32>>, tensor<8x512xi64> loc(#loc185)
    %225 = tt.load %224, %107, %cst_26 evictionPolicy = evict_last : tensor<8x512x!tt.ptr<f32>> loc(#loc186)
    %226 = arith.select %80, %221, %225 : tensor<8x512xi1>, tensor<8x512xf32> loc(#loc187)
    %227 = arith.select %62, %217, %226 : tensor<8x512xi1>, tensor<8x512xf32> loc(#loc188)
    %228 = arith.addi %212, %112 : tensor<1x512xi64> loc(#loc189)
    %229 = tt.broadcast %228 : tensor<1x512xi64> -> tensor<8x512xi64> loc(#loc189)
    %230 = arith.addi %229, %117 : tensor<8x512xi64> loc(#loc190)
    %231 = tt.addptr %119, %230 : tensor<8x512x!tt.ptr<f32>>, tensor<8x512xi64> loc(#loc191)
    %232 = tt.load %231, %49, %cst_26 evictionPolicy = evict_last : tensor<8x512x!tt.ptr<f32>> loc(#loc192)
    %233 = arith.addf %227, %232 : tensor<8x512xf32> loc(#loc193)
    %234 = arith.subf %cst_8, %134 : tensor<1x512xf32> loc(#loc194)
    %235 = arith.mulf %234, %cst_14 : tensor<1x512xf32> loc(#loc195)
    %236 = arith.subf %235, %cst_13 : tensor<1x512xf32> loc(#loc196)
    %237 = arith.mulf %236, %234 : tensor<1x512xf32> loc(#loc197)
    %238 = arith.addf %237, %cst_12 : tensor<1x512xf32> loc(#loc198)
    %239 = arith.mulf %238, %234 : tensor<1x512xf32> loc(#loc199)
    %240 = arith.subf %239, %cst_11 : tensor<1x512xf32> loc(#loc200)
    %241 = tt.broadcast %240 : tensor<1x512xf32> -> tensor<8x512xf32> loc(#loc201)
    %242 = arith.mulf %233, %241 : tensor<8x512xf32> loc(#loc201)
    %243 = arith.addi %34, %cst : tensor<1x512xi64> loc(#loc202)
    %244 = arith.cmpi slt, %34, %cst_2 : tensor<1x512xi64> loc(#loc203)
    %245 = arith.select %244, %243, %34 : tensor<1x512xi1>, tensor<1x512xi64> loc(#loc204)
    %246 = arith.muli %245, %cst : tensor<1x512xi64> loc(#loc205)
    %247 = arith.addi %56, %246 : tensor<1x512xi64> loc(#loc206)
    %248 = tt.broadcast %247 : tensor<1x512xi64> -> tensor<8x512xi64> loc(#loc206)
    %249 = arith.addi %248, %67 : tensor<8x512xi64> loc(#loc207)
    %250 = arith.addi %249, %71 : tensor<8x512xi64> loc(#loc208)
    %251 = tt.addptr %73, %250 : tensor<8x512x!tt.ptr<f32>>, tensor<8x512xi64> loc(#loc209)
    %252 = tt.load %251, %76, %cst_26 evictionPolicy = evict_last : tensor<8x512x!tt.ptr<f32>> loc(#loc210)
    %253 = arith.addi %248, %85 : tensor<8x512xi64> loc(#loc211)
    %254 = arith.addi %253, %89 : tensor<8x512xi64> loc(#loc212)
    %255 = tt.addptr %91, %254 : tensor<8x512x!tt.ptr<f32>>, tensor<8x512xi64> loc(#loc213)
    %256 = tt.load %255, %94, %cst_26 evictionPolicy = evict_last : tensor<8x512x!tt.ptr<f32>> loc(#loc214)
    %257 = arith.addi %248, %101 : tensor<8x512xi64> loc(#loc215)
    %258 = arith.addi %257, %89 : tensor<8x512xi64> loc(#loc216)
    %259 = tt.addptr %104, %258 : tensor<8x512x!tt.ptr<f32>>, tensor<8x512xi64> loc(#loc217)
    %260 = tt.load %259, %107, %cst_26 evictionPolicy = evict_last : tensor<8x512x!tt.ptr<f32>> loc(#loc218)
    %261 = arith.select %80, %256, %260 : tensor<8x512xi1>, tensor<8x512xf32> loc(#loc219)
    %262 = arith.select %62, %252, %261 : tensor<8x512xi1>, tensor<8x512xf32> loc(#loc220)
    %263 = arith.addi %247, %112 : tensor<1x512xi64> loc(#loc221)
    %264 = tt.broadcast %263 : tensor<1x512xi64> -> tensor<8x512xi64> loc(#loc221)
    %265 = arith.addi %264, %117 : tensor<8x512xi64> loc(#loc222)
    %266 = tt.addptr %119, %265 : tensor<8x512x!tt.ptr<f32>>, tensor<8x512xi64> loc(#loc223)
    %267 = tt.load %266, %49, %cst_26 evictionPolicy = evict_last : tensor<8x512x!tt.ptr<f32>> loc(#loc224)
    %268 = arith.addf %262, %267 : tensor<8x512xf32> loc(#loc225)
    %269 = arith.mulf %268, %142 : tensor<8x512xf32> loc(#loc226)
    %270 = arith.addi %146, %246 : tensor<1x512xi64> loc(#loc227)
    %271 = tt.broadcast %270 : tensor<1x512xi64> -> tensor<8x512xi64> loc(#loc227)
    %272 = arith.addi %271, %67 : tensor<8x512xi64> loc(#loc228)
    %273 = arith.addi %272, %71 : tensor<8x512xi64> loc(#loc229)
    %274 = tt.addptr %73, %273 : tensor<8x512x!tt.ptr<f32>>, tensor<8x512xi64> loc(#loc230)
    %275 = tt.load %274, %76, %cst_26 evictionPolicy = evict_last : tensor<8x512x!tt.ptr<f32>> loc(#loc231)
    %276 = arith.addi %271, %85 : tensor<8x512xi64> loc(#loc232)
    %277 = arith.addi %276, %89 : tensor<8x512xi64> loc(#loc233)
    %278 = tt.addptr %91, %277 : tensor<8x512x!tt.ptr<f32>>, tensor<8x512xi64> loc(#loc234)
    %279 = tt.load %278, %94, %cst_26 evictionPolicy = evict_last : tensor<8x512x!tt.ptr<f32>> loc(#loc235)
    %280 = arith.addi %271, %101 : tensor<8x512xi64> loc(#loc236)
    %281 = arith.addi %280, %89 : tensor<8x512xi64> loc(#loc237)
    %282 = tt.addptr %104, %281 : tensor<8x512x!tt.ptr<f32>>, tensor<8x512xi64> loc(#loc238)
    %283 = tt.load %282, %107, %cst_26 evictionPolicy = evict_last : tensor<8x512x!tt.ptr<f32>> loc(#loc239)
    %284 = arith.select %80, %279, %283 : tensor<8x512xi1>, tensor<8x512xf32> loc(#loc240)
    %285 = arith.select %62, %275, %284 : tensor<8x512xi1>, tensor<8x512xf32> loc(#loc241)
    %286 = arith.addi %270, %112 : tensor<1x512xi64> loc(#loc242)
    %287 = tt.broadcast %286 : tensor<1x512xi64> -> tensor<8x512xi64> loc(#loc242)
    %288 = arith.addi %287, %117 : tensor<8x512xi64> loc(#loc243)
    %289 = tt.addptr %119, %288 : tensor<8x512x!tt.ptr<f32>>, tensor<8x512xi64> loc(#loc244)
    %290 = tt.load %289, %49, %cst_26 evictionPolicy = evict_last : tensor<8x512x!tt.ptr<f32>> loc(#loc245)
    %291 = arith.addf %285, %290 : tensor<8x512xf32> loc(#loc246)
    %292 = arith.mulf %291, %174 : tensor<8x512xf32> loc(#loc247)
    %293 = arith.addi %178, %246 : tensor<1x512xi64> loc(#loc248)
    %294 = tt.broadcast %293 : tensor<1x512xi64> -> tensor<8x512xi64> loc(#loc248)
    %295 = arith.addi %294, %67 : tensor<8x512xi64> loc(#loc249)
    %296 = arith.addi %295, %71 : tensor<8x512xi64> loc(#loc250)
    %297 = tt.addptr %73, %296 : tensor<8x512x!tt.ptr<f32>>, tensor<8x512xi64> loc(#loc251)
    %298 = tt.load %297, %76, %cst_26 evictionPolicy = evict_last : tensor<8x512x!tt.ptr<f32>> loc(#loc252)
    %299 = arith.addi %294, %85 : tensor<8x512xi64> loc(#loc253)
    %300 = arith.addi %299, %89 : tensor<8x512xi64> loc(#loc254)
    %301 = tt.addptr %91, %300 : tensor<8x512x!tt.ptr<f32>>, tensor<8x512xi64> loc(#loc255)
    %302 = tt.load %301, %94, %cst_26 evictionPolicy = evict_last : tensor<8x512x!tt.ptr<f32>> loc(#loc256)
    %303 = arith.addi %294, %101 : tensor<8x512xi64> loc(#loc257)
    %304 = arith.addi %303, %89 : tensor<8x512xi64> loc(#loc258)
    %305 = tt.addptr %104, %304 : tensor<8x512x!tt.ptr<f32>>, tensor<8x512xi64> loc(#loc259)
    %306 = tt.load %305, %107, %cst_26 evictionPolicy = evict_last : tensor<8x512x!tt.ptr<f32>> loc(#loc260)
    %307 = arith.select %80, %302, %306 : tensor<8x512xi1>, tensor<8x512xf32> loc(#loc261)
    %308 = arith.select %62, %298, %307 : tensor<8x512xi1>, tensor<8x512xf32> loc(#loc262)
    %309 = arith.addi %293, %112 : tensor<1x512xi64> loc(#loc263)
    %310 = tt.broadcast %309 : tensor<1x512xi64> -> tensor<8x512xi64> loc(#loc263)
    %311 = arith.addi %310, %117 : tensor<8x512xi64> loc(#loc264)
    %312 = tt.addptr %119, %311 : tensor<8x512x!tt.ptr<f32>>, tensor<8x512xi64> loc(#loc265)
    %313 = tt.load %312, %49, %cst_26 evictionPolicy = evict_last : tensor<8x512x!tt.ptr<f32>> loc(#loc266)
    %314 = arith.addf %308, %313 : tensor<8x512xf32> loc(#loc267)
    %315 = arith.mulf %314, %207 : tensor<8x512xf32> loc(#loc268)
    %316 = arith.addi %211, %246 : tensor<1x512xi64> loc(#loc269)
    %317 = tt.broadcast %316 : tensor<1x512xi64> -> tensor<8x512xi64> loc(#loc269)
    %318 = arith.addi %317, %67 : tensor<8x512xi64> loc(#loc270)
    %319 = arith.addi %318, %71 : tensor<8x512xi64> loc(#loc271)
    %320 = tt.addptr %73, %319 : tensor<8x512x!tt.ptr<f32>>, tensor<8x512xi64> loc(#loc272)
    %321 = tt.load %320, %76, %cst_26 evictionPolicy = evict_last : tensor<8x512x!tt.ptr<f32>> loc(#loc273)
    %322 = arith.addi %317, %85 : tensor<8x512xi64> loc(#loc274)
    %323 = arith.addi %322, %89 : tensor<8x512xi64> loc(#loc275)
    %324 = tt.addptr %91, %323 : tensor<8x512x!tt.ptr<f32>>, tensor<8x512xi64> loc(#loc276)
    %325 = tt.load %324, %94, %cst_26 evictionPolicy = evict_last : tensor<8x512x!tt.ptr<f32>> loc(#loc277)
    %326 = arith.addi %317, %101 : tensor<8x512xi64> loc(#loc278)
    %327 = arith.addi %326, %89 : tensor<8x512xi64> loc(#loc279)
    %328 = tt.addptr %104, %327 : tensor<8x512x!tt.ptr<f32>>, tensor<8x512xi64> loc(#loc280)
    %329 = tt.load %328, %107, %cst_26 evictionPolicy = evict_last : tensor<8x512x!tt.ptr<f32>> loc(#loc281)
    %330 = arith.select %80, %325, %329 : tensor<8x512xi1>, tensor<8x512xf32> loc(#loc282)
    %331 = arith.select %62, %321, %330 : tensor<8x512xi1>, tensor<8x512xf32> loc(#loc283)
    %332 = arith.addi %316, %112 : tensor<1x512xi64> loc(#loc284)
    %333 = tt.broadcast %332 : tensor<1x512xi64> -> tensor<8x512xi64> loc(#loc284)
    %334 = arith.addi %333, %117 : tensor<8x512xi64> loc(#loc285)
    %335 = tt.addptr %119, %334 : tensor<8x512x!tt.ptr<f32>>, tensor<8x512xi64> loc(#loc286)
    %336 = tt.load %335, %49, %cst_26 evictionPolicy = evict_last : tensor<8x512x!tt.ptr<f32>> loc(#loc287)
    %337 = arith.addf %331, %336 : tensor<8x512xf32> loc(#loc288)
    %338 = arith.mulf %337, %241 : tensor<8x512xf32> loc(#loc289)
    %339 = arith.addi %37, %cst : tensor<1x512xi64> loc(#loc290)
    %340 = arith.cmpi slt, %37, %cst_2 : tensor<1x512xi64> loc(#loc291)
    %341 = arith.select %340, %339, %37 : tensor<1x512xi1>, tensor<1x512xi64> loc(#loc292)
    %342 = arith.muli %341, %cst : tensor<1x512xi64> loc(#loc293)
    %343 = arith.addi %56, %342 : tensor<1x512xi64> loc(#loc294)
    %344 = tt.broadcast %343 : tensor<1x512xi64> -> tensor<8x512xi64> loc(#loc294)
    %345 = arith.addi %344, %67 : tensor<8x512xi64> loc(#loc295)
    %346 = arith.addi %345, %71 : tensor<8x512xi64> loc(#loc296)
    %347 = tt.addptr %73, %346 : tensor<8x512x!tt.ptr<f32>>, tensor<8x512xi64> loc(#loc297)
    %348 = tt.load %347, %76, %cst_26 evictionPolicy = evict_last : tensor<8x512x!tt.ptr<f32>> loc(#loc298)
    %349 = arith.addi %344, %85 : tensor<8x512xi64> loc(#loc299)
    %350 = arith.addi %349, %89 : tensor<8x512xi64> loc(#loc300)
    %351 = tt.addptr %91, %350 : tensor<8x512x!tt.ptr<f32>>, tensor<8x512xi64> loc(#loc301)
    %352 = tt.load %351, %94, %cst_26 evictionPolicy = evict_last : tensor<8x512x!tt.ptr<f32>> loc(#loc302)
    %353 = arith.addi %344, %101 : tensor<8x512xi64> loc(#loc303)
    %354 = arith.addi %353, %89 : tensor<8x512xi64> loc(#loc304)
    %355 = tt.addptr %104, %354 : tensor<8x512x!tt.ptr<f32>>, tensor<8x512xi64> loc(#loc305)
    %356 = tt.load %355, %107, %cst_26 evictionPolicy = evict_last : tensor<8x512x!tt.ptr<f32>> loc(#loc306)
    %357 = arith.select %80, %352, %356 : tensor<8x512xi1>, tensor<8x512xf32> loc(#loc307)
    %358 = arith.select %62, %348, %357 : tensor<8x512xi1>, tensor<8x512xf32> loc(#loc308)
    %359 = arith.addi %343, %112 : tensor<1x512xi64> loc(#loc309)
    %360 = tt.broadcast %359 : tensor<1x512xi64> -> tensor<8x512xi64> loc(#loc309)
    %361 = arith.addi %360, %117 : tensor<8x512xi64> loc(#loc310)
    %362 = tt.addptr %119, %361 : tensor<8x512x!tt.ptr<f32>>, tensor<8x512xi64> loc(#loc311)
    %363 = tt.load %362, %49, %cst_26 evictionPolicy = evict_last : tensor<8x512x!tt.ptr<f32>> loc(#loc312)
    %364 = arith.addf %358, %363 : tensor<8x512xf32> loc(#loc313)
    %365 = arith.mulf %364, %142 : tensor<8x512xf32> loc(#loc314)
    %366 = arith.addi %146, %342 : tensor<1x512xi64> loc(#loc315)
    %367 = tt.broadcast %366 : tensor<1x512xi64> -> tensor<8x512xi64> loc(#loc315)
    %368 = arith.addi %367, %67 : tensor<8x512xi64> loc(#loc316)
    %369 = arith.addi %368, %71 : tensor<8x512xi64> loc(#loc317)
    %370 = tt.addptr %73, %369 : tensor<8x512x!tt.ptr<f32>>, tensor<8x512xi64> loc(#loc318)
    %371 = tt.load %370, %76, %cst_26 evictionPolicy = evict_last : tensor<8x512x!tt.ptr<f32>> loc(#loc319)
    %372 = arith.addi %367, %85 : tensor<8x512xi64> loc(#loc320)
    %373 = arith.addi %372, %89 : tensor<8x512xi64> loc(#loc321)
    %374 = tt.addptr %91, %373 : tensor<8x512x!tt.ptr<f32>>, tensor<8x512xi64> loc(#loc322)
    %375 = tt.load %374, %94, %cst_26 evictionPolicy = evict_last : tensor<8x512x!tt.ptr<f32>> loc(#loc323)
    %376 = arith.addi %367, %101 : tensor<8x512xi64> loc(#loc324)
    %377 = arith.addi %376, %89 : tensor<8x512xi64> loc(#loc325)
    %378 = tt.addptr %104, %377 : tensor<8x512x!tt.ptr<f32>>, tensor<8x512xi64> loc(#loc326)
    %379 = tt.load %378, %107, %cst_26 evictionPolicy = evict_last : tensor<8x512x!tt.ptr<f32>> loc(#loc327)
    %380 = arith.select %80, %375, %379 : tensor<8x512xi1>, tensor<8x512xf32> loc(#loc328)
    %381 = arith.select %62, %371, %380 : tensor<8x512xi1>, tensor<8x512xf32> loc(#loc329)
    %382 = arith.addi %366, %112 : tensor<1x512xi64> loc(#loc330)
    %383 = tt.broadcast %382 : tensor<1x512xi64> -> tensor<8x512xi64> loc(#loc330)
    %384 = arith.addi %383, %117 : tensor<8x512xi64> loc(#loc331)
    %385 = tt.addptr %119, %384 : tensor<8x512x!tt.ptr<f32>>, tensor<8x512xi64> loc(#loc332)
    %386 = tt.load %385, %49, %cst_26 evictionPolicy = evict_last : tensor<8x512x!tt.ptr<f32>> loc(#loc333)
    %387 = arith.addf %381, %386 : tensor<8x512xf32> loc(#loc334)
    %388 = arith.mulf %387, %174 : tensor<8x512xf32> loc(#loc335)
    %389 = arith.addi %178, %342 : tensor<1x512xi64> loc(#loc336)
    %390 = tt.broadcast %389 : tensor<1x512xi64> -> tensor<8x512xi64> loc(#loc336)
    %391 = arith.addi %390, %67 : tensor<8x512xi64> loc(#loc337)
    %392 = arith.addi %391, %71 : tensor<8x512xi64> loc(#loc338)
    %393 = tt.addptr %73, %392 : tensor<8x512x!tt.ptr<f32>>, tensor<8x512xi64> loc(#loc339)
    %394 = tt.load %393, %76, %cst_26 evictionPolicy = evict_last : tensor<8x512x!tt.ptr<f32>> loc(#loc340)
    %395 = arith.addi %390, %85 : tensor<8x512xi64> loc(#loc341)
    %396 = arith.addi %395, %89 : tensor<8x512xi64> loc(#loc342)
    %397 = tt.addptr %91, %396 : tensor<8x512x!tt.ptr<f32>>, tensor<8x512xi64> loc(#loc343)
    %398 = tt.load %397, %94, %cst_26 evictionPolicy = evict_last : tensor<8x512x!tt.ptr<f32>> loc(#loc344)
    %399 = arith.addi %390, %101 : tensor<8x512xi64> loc(#loc345)
    %400 = arith.addi %399, %89 : tensor<8x512xi64> loc(#loc346)
    %401 = tt.addptr %104, %400 : tensor<8x512x!tt.ptr<f32>>, tensor<8x512xi64> loc(#loc347)
    %402 = tt.load %401, %107, %cst_26 evictionPolicy = evict_last : tensor<8x512x!tt.ptr<f32>> loc(#loc348)
    %403 = arith.select %80, %398, %402 : tensor<8x512xi1>, tensor<8x512xf32> loc(#loc349)
    %404 = arith.select %62, %394, %403 : tensor<8x512xi1>, tensor<8x512xf32> loc(#loc350)
    %405 = arith.addi %389, %112 : tensor<1x512xi64> loc(#loc351)
    %406 = tt.broadcast %405 : tensor<1x512xi64> -> tensor<8x512xi64> loc(#loc351)
    %407 = arith.addi %406, %117 : tensor<8x512xi64> loc(#loc352)
    %408 = tt.addptr %119, %407 : tensor<8x512x!tt.ptr<f32>>, tensor<8x512xi64> loc(#loc353)
    %409 = tt.load %408, %49, %cst_26 evictionPolicy = evict_last : tensor<8x512x!tt.ptr<f32>> loc(#loc354)
    %410 = arith.addf %404, %409 : tensor<8x512xf32> loc(#loc355)
    %411 = arith.mulf %410, %207 : tensor<8x512xf32> loc(#loc356)
    %412 = arith.addi %211, %342 : tensor<1x512xi64> loc(#loc357)
    %413 = tt.broadcast %412 : tensor<1x512xi64> -> tensor<8x512xi64> loc(#loc357)
    %414 = arith.addi %413, %67 : tensor<8x512xi64> loc(#loc358)
    %415 = arith.addi %414, %71 : tensor<8x512xi64> loc(#loc359)
    %416 = tt.addptr %73, %415 : tensor<8x512x!tt.ptr<f32>>, tensor<8x512xi64> loc(#loc360)
    %417 = tt.load %416, %76, %cst_26 evictionPolicy = evict_last : tensor<8x512x!tt.ptr<f32>> loc(#loc361)
    %418 = arith.addi %413, %85 : tensor<8x512xi64> loc(#loc362)
    %419 = arith.addi %418, %89 : tensor<8x512xi64> loc(#loc363)
    %420 = tt.addptr %91, %419 : tensor<8x512x!tt.ptr<f32>>, tensor<8x512xi64> loc(#loc364)
    %421 = tt.load %420, %94, %cst_26 evictionPolicy = evict_last : tensor<8x512x!tt.ptr<f32>> loc(#loc365)
    %422 = arith.addi %413, %101 : tensor<8x512xi64> loc(#loc366)
    %423 = arith.addi %422, %89 : tensor<8x512xi64> loc(#loc367)
    %424 = tt.addptr %104, %423 : tensor<8x512x!tt.ptr<f32>>, tensor<8x512xi64> loc(#loc368)
    %425 = tt.load %424, %107, %cst_26 evictionPolicy = evict_last : tensor<8x512x!tt.ptr<f32>> loc(#loc369)
    %426 = arith.select %80, %421, %425 : tensor<8x512xi1>, tensor<8x512xf32> loc(#loc370)
    %427 = arith.select %62, %417, %426 : tensor<8x512xi1>, tensor<8x512xf32> loc(#loc371)
    %428 = arith.addi %412, %112 : tensor<1x512xi64> loc(#loc372)
    %429 = tt.broadcast %428 : tensor<1x512xi64> -> tensor<8x512xi64> loc(#loc372)
    %430 = arith.addi %429, %117 : tensor<8x512xi64> loc(#loc373)
    %431 = tt.addptr %119, %430 : tensor<8x512x!tt.ptr<f32>>, tensor<8x512xi64> loc(#loc374)
    %432 = tt.load %431, %49, %cst_26 evictionPolicy = evict_last : tensor<8x512x!tt.ptr<f32>> loc(#loc375)
    %433 = arith.addf %427, %432 : tensor<8x512xf32> loc(#loc376)
    %434 = arith.mulf %433, %241 : tensor<8x512xf32> loc(#loc377)
    %435 = arith.addi %40, %cst : tensor<1x512xi64> loc(#loc378)
    %436 = arith.cmpi slt, %40, %cst_2 : tensor<1x512xi64> loc(#loc379)
    %437 = arith.select %436, %435, %40 : tensor<1x512xi1>, tensor<1x512xi64> loc(#loc380)
    %438 = arith.muli %437, %cst : tensor<1x512xi64> loc(#loc381)
    %439 = arith.addi %56, %438 : tensor<1x512xi64> loc(#loc382)
    %440 = tt.broadcast %439 : tensor<1x512xi64> -> tensor<8x512xi64> loc(#loc382)
    %441 = arith.addi %440, %67 : tensor<8x512xi64> loc(#loc383)
    %442 = arith.addi %441, %71 : tensor<8x512xi64> loc(#loc384)
    %443 = tt.addptr %73, %442 : tensor<8x512x!tt.ptr<f32>>, tensor<8x512xi64> loc(#loc385)
    %444 = tt.load %443, %76, %cst_26 evictionPolicy = evict_last : tensor<8x512x!tt.ptr<f32>> loc(#loc386)
    %445 = arith.addi %440, %85 : tensor<8x512xi64> loc(#loc387)
    %446 = arith.addi %445, %89 : tensor<8x512xi64> loc(#loc388)
    %447 = tt.addptr %91, %446 : tensor<8x512x!tt.ptr<f32>>, tensor<8x512xi64> loc(#loc389)
    %448 = tt.load %447, %94, %cst_26 evictionPolicy = evict_last : tensor<8x512x!tt.ptr<f32>> loc(#loc390)
    %449 = arith.addi %440, %101 : tensor<8x512xi64> loc(#loc391)
    %450 = arith.addi %449, %89 : tensor<8x512xi64> loc(#loc392)
    %451 = tt.addptr %104, %450 : tensor<8x512x!tt.ptr<f32>>, tensor<8x512xi64> loc(#loc393)
    %452 = tt.load %451, %107, %cst_26 evictionPolicy = evict_last : tensor<8x512x!tt.ptr<f32>> loc(#loc394)
    %453 = arith.select %80, %448, %452 : tensor<8x512xi1>, tensor<8x512xf32> loc(#loc395)
    %454 = arith.select %62, %444, %453 : tensor<8x512xi1>, tensor<8x512xf32> loc(#loc396)
    %455 = arith.addi %439, %112 : tensor<1x512xi64> loc(#loc397)
    %456 = tt.broadcast %455 : tensor<1x512xi64> -> tensor<8x512xi64> loc(#loc397)
    %457 = arith.addi %456, %117 : tensor<8x512xi64> loc(#loc398)
    %458 = tt.addptr %119, %457 : tensor<8x512x!tt.ptr<f32>>, tensor<8x512xi64> loc(#loc399)
    %459 = tt.load %458, %49, %cst_26 evictionPolicy = evict_last : tensor<8x512x!tt.ptr<f32>> loc(#loc400)
    %460 = arith.addf %454, %459 : tensor<8x512xf32> loc(#loc401)
    %461 = arith.mulf %460, %142 : tensor<8x512xf32> loc(#loc402)
    %462 = arith.addi %146, %438 : tensor<1x512xi64> loc(#loc403)
    %463 = tt.broadcast %462 : tensor<1x512xi64> -> tensor<8x512xi64> loc(#loc403)
    %464 = arith.addi %463, %67 : tensor<8x512xi64> loc(#loc404)
    %465 = arith.addi %464, %71 : tensor<8x512xi64> loc(#loc405)
    %466 = tt.addptr %73, %465 : tensor<8x512x!tt.ptr<f32>>, tensor<8x512xi64> loc(#loc406)
    %467 = tt.load %466, %76, %cst_26 evictionPolicy = evict_last : tensor<8x512x!tt.ptr<f32>> loc(#loc407)
    %468 = arith.addi %463, %85 : tensor<8x512xi64> loc(#loc408)
    %469 = arith.addi %468, %89 : tensor<8x512xi64> loc(#loc409)
    %470 = tt.addptr %91, %469 : tensor<8x512x!tt.ptr<f32>>, tensor<8x512xi64> loc(#loc410)
    %471 = tt.load %470, %94, %cst_26 evictionPolicy = evict_last : tensor<8x512x!tt.ptr<f32>> loc(#loc411)
    %472 = arith.addi %463, %101 : tensor<8x512xi64> loc(#loc412)
    %473 = arith.addi %472, %89 : tensor<8x512xi64> loc(#loc413)
    %474 = tt.addptr %104, %473 : tensor<8x512x!tt.ptr<f32>>, tensor<8x512xi64> loc(#loc414)
    %475 = tt.load %474, %107, %cst_26 evictionPolicy = evict_last : tensor<8x512x!tt.ptr<f32>> loc(#loc415)
    %476 = arith.select %80, %471, %475 : tensor<8x512xi1>, tensor<8x512xf32> loc(#loc416)
    %477 = arith.select %62, %467, %476 : tensor<8x512xi1>, tensor<8x512xf32> loc(#loc417)
    %478 = arith.addi %462, %112 : tensor<1x512xi64> loc(#loc418)
    %479 = tt.broadcast %478 : tensor<1x512xi64> -> tensor<8x512xi64> loc(#loc418)
    %480 = arith.addi %479, %117 : tensor<8x512xi64> loc(#loc419)
    %481 = tt.addptr %119, %480 : tensor<8x512x!tt.ptr<f32>>, tensor<8x512xi64> loc(#loc420)
    %482 = tt.load %481, %49, %cst_26 evictionPolicy = evict_last : tensor<8x512x!tt.ptr<f32>> loc(#loc421)
    %483 = arith.addf %477, %482 : tensor<8x512xf32> loc(#loc422)
    %484 = arith.mulf %483, %174 : tensor<8x512xf32> loc(#loc423)
    %485 = arith.addi %178, %438 : tensor<1x512xi64> loc(#loc424)
    %486 = tt.broadcast %485 : tensor<1x512xi64> -> tensor<8x512xi64> loc(#loc424)
    %487 = arith.addi %486, %67 : tensor<8x512xi64> loc(#loc425)
    %488 = arith.addi %487, %71 : tensor<8x512xi64> loc(#loc426)
    %489 = tt.addptr %73, %488 : tensor<8x512x!tt.ptr<f32>>, tensor<8x512xi64> loc(#loc427)
    %490 = tt.load %489, %76, %cst_26 evictionPolicy = evict_last : tensor<8x512x!tt.ptr<f32>> loc(#loc428)
    %491 = arith.addi %486, %85 : tensor<8x512xi64> loc(#loc429)
    %492 = arith.addi %491, %89 : tensor<8x512xi64> loc(#loc430)
    %493 = tt.addptr %91, %492 : tensor<8x512x!tt.ptr<f32>>, tensor<8x512xi64> loc(#loc431)
    %494 = tt.load %493, %94, %cst_26 evictionPolicy = evict_last : tensor<8x512x!tt.ptr<f32>> loc(#loc432)
    %495 = arith.addi %486, %101 : tensor<8x512xi64> loc(#loc433)
    %496 = arith.addi %495, %89 : tensor<8x512xi64> loc(#loc434)
    %497 = tt.addptr %104, %496 : tensor<8x512x!tt.ptr<f32>>, tensor<8x512xi64> loc(#loc435)
    %498 = tt.load %497, %107, %cst_26 evictionPolicy = evict_last : tensor<8x512x!tt.ptr<f32>> loc(#loc436)
    %499 = arith.select %80, %494, %498 : tensor<8x512xi1>, tensor<8x512xf32> loc(#loc437)
    %500 = arith.select %62, %490, %499 : tensor<8x512xi1>, tensor<8x512xf32> loc(#loc438)
    %501 = arith.addi %485, %112 : tensor<1x512xi64> loc(#loc439)
    %502 = tt.broadcast %501 : tensor<1x512xi64> -> tensor<8x512xi64> loc(#loc439)
    %503 = arith.addi %502, %117 : tensor<8x512xi64> loc(#loc440)
    %504 = tt.addptr %119, %503 : tensor<8x512x!tt.ptr<f32>>, tensor<8x512xi64> loc(#loc441)
    %505 = tt.load %504, %49, %cst_26 evictionPolicy = evict_last : tensor<8x512x!tt.ptr<f32>> loc(#loc442)
    %506 = arith.addf %500, %505 : tensor<8x512xf32> loc(#loc443)
    %507 = arith.mulf %506, %207 : tensor<8x512xf32> loc(#loc444)
    %508 = arith.addi %211, %438 : tensor<1x512xi64> loc(#loc445)
    %509 = tt.broadcast %508 : tensor<1x512xi64> -> tensor<8x512xi64> loc(#loc445)
    %510 = arith.addi %509, %67 : tensor<8x512xi64> loc(#loc446)
    %511 = arith.addi %510, %71 : tensor<8x512xi64> loc(#loc447)
    %512 = tt.addptr %73, %511 : tensor<8x512x!tt.ptr<f32>>, tensor<8x512xi64> loc(#loc448)
    %513 = tt.load %512, %76, %cst_26 evictionPolicy = evict_last : tensor<8x512x!tt.ptr<f32>> loc(#loc449)
    %514 = arith.addi %509, %85 : tensor<8x512xi64> loc(#loc450)
    %515 = arith.addi %514, %89 : tensor<8x512xi64> loc(#loc451)
    %516 = tt.addptr %91, %515 : tensor<8x512x!tt.ptr<f32>>, tensor<8x512xi64> loc(#loc452)
    %517 = tt.load %516, %94, %cst_26 evictionPolicy = evict_last : tensor<8x512x!tt.ptr<f32>> loc(#loc453)
    %518 = arith.addi %509, %101 : tensor<8x512xi64> loc(#loc454)
    %519 = arith.addi %518, %89 : tensor<8x512xi64> loc(#loc455)
    %520 = tt.addptr %104, %519 : tensor<8x512x!tt.ptr<f32>>, tensor<8x512xi64> loc(#loc456)
    %521 = tt.load %520, %107, %cst_26 evictionPolicy = evict_last : tensor<8x512x!tt.ptr<f32>> loc(#loc457)
    %522 = arith.select %80, %517, %521 : tensor<8x512xi1>, tensor<8x512xf32> loc(#loc458)
    %523 = arith.select %62, %513, %522 : tensor<8x512xi1>, tensor<8x512xf32> loc(#loc459)
    %524 = arith.addi %508, %112 : tensor<1x512xi64> loc(#loc460)
    %525 = tt.broadcast %524 : tensor<1x512xi64> -> tensor<8x512xi64> loc(#loc460)
    %526 = arith.addi %525, %117 : tensor<8x512xi64> loc(#loc461)
    %527 = tt.addptr %119, %526 : tensor<8x512x!tt.ptr<f32>>, tensor<8x512xi64> loc(#loc462)
    %528 = tt.load %527, %49, %cst_26 evictionPolicy = evict_last : tensor<8x512x!tt.ptr<f32>> loc(#loc463)
    %529 = arith.addf %523, %528 : tensor<8x512xf32> loc(#loc464)
    %530 = arith.mulf %529, %241 : tensor<8x512xf32> loc(#loc465)
    %531 = arith.addf %143, %175 : tensor<8x512xf32> loc(#loc466)
    %532 = arith.addf %531, %208 : tensor<8x512xf32> loc(#loc467)
    %533 = arith.addf %532, %242 : tensor<8x512xf32> loc(#loc468)
    %534 = arith.sitofp %13 : tensor<1x512xi32> to tensor<1x512xf32> loc(#loc469)
    %535 = arith.mulf %534, %cst_16 : tensor<1x512xf32> loc(#loc470)
    %536 = tt.extern_elementwise %535 {libname = "", libpath = "", pure = true, symbol = "__nv_floorf"} : (tensor<1x512xf32>) -> tensor<1x512xf32> loc(#loc471)
    %537 = arith.subf %535, %536 : tensor<1x512xf32> loc(#loc472)
    %538 = arith.cmpf ogt, %537, %cst_0 : tensor<1x512xf32> loc(#loc575)
    %539 = arith.cmpf une, %537, %537 : tensor<1x512xf32> loc(#loc576)
    %540 = arith.ori %538, %539 : tensor<1x512xi1> loc(#loc577)
    %541 = arith.select %540, %537, %cst_0 : tensor<1x512xi1>, tensor<1x512xf32> loc(#loc578)
    %542 = arith.cmpf olt, %541, %cst_15 : tensor<1x512xf32> loc(#loc579)
    %543 = arith.cmpf une, %541, %541 : tensor<1x512xf32> loc(#loc580)
    %544 = arith.ori %542, %543 : tensor<1x512xi1> loc(#loc581)
    %545 = arith.select %544, %541, %cst_15 : tensor<1x512xi1>, tensor<1x512xf32> loc(#loc582)
    %546 = arith.addf %545, %cst_15 : tensor<1x512xf32> loc(#loc475)
    %547 = arith.mulf %546, %cst_14 : tensor<1x512xf32> loc(#loc476)
    %548 = arith.subf %547, %cst_13 : tensor<1x512xf32> loc(#loc477)
    %549 = arith.mulf %548, %546 : tensor<1x512xf32> loc(#loc478)
    %550 = arith.addf %549, %cst_12 : tensor<1x512xf32> loc(#loc479)
    %551 = arith.mulf %550, %546 : tensor<1x512xf32> loc(#loc480)
    %552 = arith.subf %551, %cst_11 : tensor<1x512xf32> loc(#loc481)
    %553 = tt.broadcast %552 : tensor<1x512xf32> -> tensor<8x512xf32> loc(#loc482)
    %554 = arith.mulf %533, %553 : tensor<8x512xf32> loc(#loc482)
    %555 = arith.addf %269, %292 : tensor<8x512xf32> loc(#loc483)
    %556 = arith.addf %555, %315 : tensor<8x512xf32> loc(#loc484)
    %557 = arith.addf %556, %338 : tensor<8x512xf32> loc(#loc485)
    %558 = arith.mulf %545, %cst_10 : tensor<1x512xf32> loc(#loc486)
    %559 = arith.subf %558, %cst_9 : tensor<1x512xf32> loc(#loc487)
    %560 = arith.mulf %559, %545 : tensor<1x512xf32> loc(#loc488)
    %561 = arith.mulf %560, %545 : tensor<1x512xf32> loc(#loc489)
    %562 = arith.addf %561, %cst_15 : tensor<1x512xf32> loc(#loc490)
    %563 = tt.broadcast %562 : tensor<1x512xf32> -> tensor<8x512xf32> loc(#loc491)
    %564 = arith.mulf %557, %563 : tensor<8x512xf32> loc(#loc491)
    %565 = arith.addf %554, %564 : tensor<8x512xf32> loc(#loc492)
    %566 = arith.addf %365, %388 : tensor<8x512xf32> loc(#loc493)
    %567 = arith.addf %566, %411 : tensor<8x512xf32> loc(#loc494)
    %568 = arith.addf %567, %434 : tensor<8x512xf32> loc(#loc495)
    %569 = arith.subf %cst_15, %545 : tensor<1x512xf32> loc(#loc496)
    %570 = arith.mulf %569, %cst_10 : tensor<1x512xf32> loc(#loc497)
    %571 = arith.subf %570, %cst_9 : tensor<1x512xf32> loc(#loc498)
    %572 = arith.mulf %571, %569 : tensor<1x512xf32> loc(#loc499)
    %573 = arith.mulf %572, %569 : tensor<1x512xf32> loc(#loc500)
    %574 = arith.addf %573, %cst_15 : tensor<1x512xf32> loc(#loc501)
    %575 = tt.broadcast %574 : tensor<1x512xf32> -> tensor<8x512xf32> loc(#loc502)
    %576 = arith.mulf %568, %575 : tensor<8x512xf32> loc(#loc502)
    %577 = arith.addf %565, %576 : tensor<8x512xf32> loc(#loc503)
    %578 = arith.addf %461, %484 : tensor<8x512xf32> loc(#loc504)
    %579 = arith.addf %578, %507 : tensor<8x512xf32> loc(#loc505)
    %580 = arith.addf %579, %530 : tensor<8x512xf32> loc(#loc506)
    %581 = arith.subf %cst_8, %545 : tensor<1x512xf32> loc(#loc507)
    %582 = arith.mulf %581, %cst_14 : tensor<1x512xf32> loc(#loc508)
    %583 = arith.subf %582, %cst_13 : tensor<1x512xf32> loc(#loc509)
    %584 = arith.mulf %583, %581 : tensor<1x512xf32> loc(#loc510)
    %585 = arith.addf %584, %cst_12 : tensor<1x512xf32> loc(#loc511)
    %586 = arith.mulf %585, %581 : tensor<1x512xf32> loc(#loc512)
    %587 = arith.subf %586, %cst_11 : tensor<1x512xf32> loc(#loc513)
    %588 = tt.broadcast %587 : tensor<1x512xf32> -> tensor<8x512xf32> loc(#loc514)
    %589 = arith.mulf %580, %588 : tensor<8x512xf32> loc(#loc514)
    %590 = arith.addf %577, %589 : tensor<8x512xf32> loc(#loc515)
    %591 = arith.muli %60, %cst_7 : tensor<8x512xi32> loc(#loc516)
    %592 = tt.broadcast %16 : tensor<1x512xi32> -> tensor<8x512xi32> loc(#loc517)
    %593 = arith.addi %592, %591 : tensor<8x512xi32> loc(#loc517)
    %594 = arith.muli %10, %cst_6 : tensor<8x1xi32> loc(#loc518)
    %595 = tt.broadcast %594 : tensor<8x1xi32> -> tensor<8x512xi32> loc(#loc519)
    %596 = arith.addi %593, %595 : tensor<8x512xi32> loc(#loc519)
    %597 = tt.splat %arg13 : !tt.ptr<f32> -> tensor<8x512x!tt.ptr<f32>> loc(#loc520)
    %598 = tt.addptr %597, %596 : tensor<8x512x!tt.ptr<f32>>, tensor<8x512xi32> loc(#loc520)
    %599 = tt.load %598, %76, %cst_26 evictionPolicy = evict_first : tensor<8x512x!tt.ptr<f32>> loc(#loc521)
    %600 = arith.muli %83, %cst_7 : tensor<8x512xi32> loc(#loc522)
    %601 = arith.addi %592, %600 : tensor<8x512xi32> loc(#loc523)
    %602 = arith.muli %10, %cst_5 : tensor<8x1xi32> loc(#loc524)
    %603 = tt.broadcast %602 : tensor<8x1xi32> -> tensor<8x512xi32> loc(#loc525)
    %604 = arith.addi %601, %603 : tensor<8x512xi32> loc(#loc525)
    %605 = tt.splat %arg14 : !tt.ptr<f32> -> tensor<8x512x!tt.ptr<f32>> loc(#loc526)
    %606 = tt.addptr %605, %604 : tensor<8x512x!tt.ptr<f32>>, tensor<8x512xi32> loc(#loc526)
    %607 = tt.load %606, %94, %cst_26 evictionPolicy = evict_first : tensor<8x512x!tt.ptr<f32>> loc(#loc527)
    %608 = arith.muli %99, %cst_7 : tensor<8x512xi32> loc(#loc528)
    %609 = arith.addi %592, %608 : tensor<8x512xi32> loc(#loc529)
    %610 = arith.addi %609, %603 : tensor<8x512xi32> loc(#loc530)
    %611 = tt.splat %arg15 : !tt.ptr<f32> -> tensor<8x512x!tt.ptr<f32>> loc(#loc531)
    %612 = tt.addptr %611, %610 : tensor<8x512x!tt.ptr<f32>>, tensor<8x512xi32> loc(#loc531)
    %613 = tt.load %612, %107, %cst_26 evictionPolicy = evict_first : tensor<8x512x!tt.ptr<f32>> loc(#loc532)
    %614 = arith.select %80, %607, %613 : tensor<8x512xi1>, tensor<8x512xf32> loc(#loc533)
    %615 = arith.select %62, %599, %614 : tensor<8x512xi1>, tensor<8x512xf32> loc(#loc534)
    %616 = arith.addf %615, %50 : tensor<8x512xf32> loc(#loc535)
    %617 = arith.addf %616, %590 : tensor<8x512xf32> loc(#loc536)
    %618 = arith.select %49, %617, %cst_26 : tensor<8x512xi1>, tensor<8x512xf32> loc(#loc537)
    %619 = arith.select %49, %cst_1, %cst_26 : tensor<8x512xi1>, tensor<8x512xf32> loc(#loc538)
    %620 = tt.splat %arg0 : !tt.ptr<f32> -> tensor<8x512x!tt.ptr<f32>> loc(#loc539)
    %621 = tt.addptr %620, %44 : tensor<8x512x!tt.ptr<f32>>, tensor<8x512xi32> loc(#loc539)
    tt.store %621, %617, %49 : tensor<8x512x!tt.ptr<f32>> loc(#loc540)
    %622:3 = "tt.reduce"(%618, %cst_26, %619) <{axis = 1 : i32}> ({
    ^bb0(%arg22: f32 loc(callsite(#loc1 at #loc542)), %arg23: f32 loc(callsite(#loc1 at #loc542)), %arg24: f32 loc(callsite(#loc1 at #loc542)), %arg25: f32 loc(callsite(#loc1 at #loc542)), %arg26: f32 loc(callsite(#loc1 at #loc542)), %arg27: f32 loc(callsite(#loc1 at #loc542))):
      %634 = arith.subf %arg25, %arg22 : f32 loc(#loc597)
      %635 = arith.addf %arg24, %arg27 : f32 loc(#loc598)
      %636 = arith.cmpf oeq, %635, %cst_28 : f32 loc(#loc599)
      %637 = arith.divf %arg27, %635 : f32 loc(#loc600)
      %638 = arith.select %636, %cst_28, %637 : f32 loc(#loc601)
      %639 = arith.mulf %634, %638 : f32 loc(#loc602)
      %640 = arith.addf %arg22, %639 : f32 loc(#loc603)
      %641 = arith.addf %arg23, %arg26 : f32 loc(#loc604)
      %642 = arith.mulf %634, %634 : f32 loc(#loc605)
      %643 = arith.mulf %642, %arg24 : f32 loc(#loc606)
      %644 = arith.mulf %643, %638 : f32 loc(#loc607)
      %645 = arith.addf %641, %644 : f32 loc(#loc608)
      tt.reduce.return %640, %645, %635 : f32, f32, f32 loc(#loc583)
    }) : (tensor<8x512xf32>, tensor<8x512xf32>, tensor<8x512xf32>) -> (tensor<8xf32>, tensor<8xf32>, tensor<8xf32>) loc(#loc583)
    %623 = tt.expand_dims %622#0 {axis = 1 : i32} : tensor<8xf32> -> tensor<8x1xf32> loc(#loc555)
    %624 = tt.expand_dims %622#1 {axis = 1 : i32} : tensor<8xf32> -> tensor<8x1xf32> loc(#loc556)
    %625 = tt.splat %arg17 : !tt.ptr<f32> -> tensor<8x1x!tt.ptr<f32>> loc(#loc557)
    %626 = tt.addptr %625, %5 : tensor<8x1x!tt.ptr<f32>>, tensor<8x1xi32> loc(#loc557)
    tt.store %626, %623, %6 : tensor<8x1x!tt.ptr<f32>> loc(#loc558)
    %627 = tt.splat %arg18 : !tt.ptr<f32> -> tensor<8x1x!tt.ptr<f32>> loc(#loc559)
    %628 = tt.addptr %627, %5 : tensor<8x1x!tt.ptr<f32>>, tensor<8x1xi32> loc(#loc559)
    tt.store %628, %624, %6 : tensor<8x1x!tt.ptr<f32>> loc(#loc560)
    %629 = arith.divf %624, %cst_4 : tensor<8x1xf32> loc(#loc561)
    %630 = arith.addf %629, %cst_3 : tensor<8x1xf32> loc(#loc562)
    %631 = tt.extern_elementwise %630 {libname = "", libpath = "", pure = true, symbol = "__nv_rsqrtf"} : (tensor<8x1xf32>) -> tensor<8x1xf32> loc(#loc563)
    %632 = tt.splat %arg19 : !tt.ptr<f32> -> tensor<8x1x!tt.ptr<f32>> loc(#loc564)
    %633 = tt.addptr %632, %5 : tensor<8x1x!tt.ptr<f32>>, tensor<8x1xi32> loc(#loc564)
    tt.store %633, %631, %6 : tensor<8x1x!tt.ptr<f32>> loc(#loc565)
    tt.return loc(#loc566)
  } loc(#loc)
} loc(#loc)
#loc2 = loc("inductor_cache/w2/cw2wy7j5az27icqpcw4kter4ilhne3xydkc4siocpk4cfid2x3ub.py":22:28)
#loc3 = loc("inductor_cache/w2/cw2wy7j5az27icqpcw4kter4ilhne3xydkc4siocpk4cfid2x3ub.py":22:33)
#loc4 = loc("inductor_cache/w2/cw2wy7j5az27icqpcw4kter4ilhne3xydkc4siocpk4cfid2x3ub.py":23:36)
#loc5 = loc("inductor_cache/w2/cw2wy7j5az27icqpcw4kter4ilhne3xydkc4siocpk4cfid2x3ub.py":23:44)
#loc6 = loc("inductor_cache/w2/cw2wy7j5az27icqpcw4kter4ilhne3xydkc4siocpk4cfid2x3ub.py":23:23)
#loc7 = loc("inductor_cache/w2/cw2wy7j5az27icqpcw4kter4ilhne3xydkc4siocpk4cfid2x3ub.py":24:21)
#loc8 = loc("inductor_cache/w2/cw2wy7j5az27icqpcw4kter4ilhne3xydkc4siocpk4cfid2x3ub.py":25:25)
#loc9 = loc("inductor_cache/w2/cw2wy7j5az27icqpcw4kter4ilhne3xydkc4siocpk4cfid2x3ub.py":25:33)
#loc10 = loc("inductor_cache/w2/cw2wy7j5az27icqpcw4kter4ilhne3xydkc4siocpk4cfid2x3ub.py":26:19)
#loc11 = loc("inductor_cache/w2/cw2wy7j5az27icqpcw4kter4ilhne3xydkc4siocpk4cfid2x3ub.py":27:19)
#loc12 = loc("inductor_cache/w2/cw2wy7j5az27icqpcw4kter4ilhne3xydkc4siocpk4cfid2x3ub.py":34:25)
#loc13 = loc("inductor_cache/w2/cw2wy7j5az27icqpcw4kter4ilhne3xydkc4siocpk4cfid2x3ub.py":35:25)
#loc14 = loc("inductor_cache/w2/cw2wy7j5az27icqpcw4kter4ilhne3xydkc4siocpk4cfid2x3ub.py":35:30)
#loc15 = loc("inductor_cache/w2/cw2wy7j5az27icqpcw4kter4ilhne3xydkc4siocpk4cfid2x3ub.py":36:23)
#loc16 = loc("inductor_cache/w2/cw2wy7j5az27icqpcw4kter4ilhne3xydkc4siocpk4cfid2x3ub.py":37:23)
#loc17 = loc("inductor_cache/w2/cw2wy7j5az27icqpcw4kter4ilhne3xydkc4siocpk4cfid2x3ub.py":39:23)
#loc18 = loc("inductor_cache/w2/cw2wy7j5az27icqpcw4kter4ilhne3xydkc4siocpk4cfid2x3ub.py":40:34)
#loc19 = loc("inductor_cache/w2/cw2wy7j5az27icqpcw4kter4ilhne3xydkc4siocpk4cfid2x3ub.py":40:39)
#loc20 = loc("inductor_cache/w2/cw2wy7j5az27icqpcw4kter4ilhne3xydkc4siocpk4cfid2x3ub.py":41:34)
#loc21 = loc("inductor_cache/w2/cw2wy7j5az27icqpcw4kter4ilhne3xydkc4siocpk4cfid2x3ub.py":41:39)
#loc22 = loc("inductor_cache/w2/cw2wy7j5az27icqpcw4kter4ilhne3xydkc4siocpk4cfid2x3ub.py":42:35)
#loc23 = loc("inductor_cache/w2/cw2wy7j5az27icqpcw4kter4ilhne3xydkc4siocpk4cfid2x3ub.py":42:40)
#loc24 = loc("inductor_cache/w2/cw2wy7j5az27icqpcw4kter4ilhne3xydkc4siocpk4cfid2x3ub.py":43:35)
#loc25 = loc("inductor_cache/w2/cw2wy7j5az27icqpcw4kter4ilhne3xydkc4siocpk4cfid2x3ub.py":43:40)
#loc26 = loc("inductor_cache/w2/cw2wy7j5az27icqpcw4kter4ilhne3xydkc4siocpk4cfid2x3ub.py":44:35)
#loc27 = loc("inductor_cache/w2/cw2wy7j5az27icqpcw4kter4ilhne3xydkc4siocpk4cfid2x3ub.py":44:40)
#loc28 = loc("inductor_cache/w2/cw2wy7j5az27icqpcw4kter4ilhne3xydkc4siocpk4cfid2x3ub.py":45:36)
#loc29 = loc("inductor_cache/w2/cw2wy7j5az27icqpcw4kter4ilhne3xydkc4siocpk4cfid2x3ub.py":45:41)
#loc30 = loc("inductor_cache/w2/cw2wy7j5az27icqpcw4kter4ilhne3xydkc4siocpk4cfid2x3ub.py":46:37)
#loc31 = loc("inductor_cache/w2/cw2wy7j5az27icqpcw4kter4ilhne3xydkc4siocpk4cfid2x3ub.py":46:42)
#loc32 = loc("inductor_cache/w2/cw2wy7j5az27icqpcw4kter4ilhne3xydkc4siocpk4cfid2x3ub.py":47:37)
#loc33 = loc("inductor_cache/w2/cw2wy7j5az27icqpcw4kter4ilhne3xydkc4siocpk4cfid2x3ub.py":47:42)
#loc34 = loc("inductor_cache/w2/cw2wy7j5az27icqpcw4kter4ilhne3xydkc4siocpk4cfid2x3ub.py":48:46)
#loc35 = loc("inductor_cache/w2/cw2wy7j5az27icqpcw4kter4ilhne3xydkc4siocpk4cfid2x3ub.py":48:42)
#loc36 = loc("inductor_cache/w2/cw2wy7j5az27icqpcw4kter4ilhne3xydkc4siocpk4cfid2x3ub.py":48:37)
#loc37 = loc("inductor_cache/w2/cw2wy7j5az27icqpcw4kter4ilhne3xydkc4siocpk4cfid2x3ub.py":48:59)
#loc38 = loc("inductor_cache/w2/cw2wy7j5az27icqpcw4kter4ilhne3xydkc4siocpk4cfid2x3ub.py":48:51)
#loc39 = loc("inductor_cache/w2/cw2wy7j5az27icqpcw4kter4ilhne3xydkc4siocpk4cfid2x3ub.py":50:22)
#loc40 = loc("inductor_cache/w2/cw2wy7j5az27icqpcw4kter4ilhne3xydkc4siocpk4cfid2x3ub.py":51:22)
#loc41 = loc("inductor_cache/w2/cw2wy7j5az27icqpcw4kter4ilhne3xydkc4siocpk4cfid2x3ub.py":52:36)
#loc42 = loc("inductor_cache/w2/cw2wy7j5az27icqpcw4kter4ilhne3xydkc4siocpk4cfid2x3ub.py":53:22)
#loc43 = loc("inductor_cache/w2/cw2wy7j5az27icqpcw4kter4ilhne3xydkc4siocpk4cfid2x3ub.py":54:22)
#loc44 = loc("inductor_cache/w2/cw2wy7j5az27icqpcw4kter4ilhne3xydkc4siocpk4cfid2x3ub.py":55:36)
#loc45 = loc("inductor_cache/w2/cw2wy7j5az27icqpcw4kter4ilhne3xydkc4siocpk4cfid2x3ub.py":56:22)
#loc46 = loc("inductor_cache/w2/cw2wy7j5az27icqpcw4kter4ilhne3xydkc4siocpk4cfid2x3ub.py":56:20)
#loc47 = loc("inductor_cache/w2/cw2wy7j5az27icqpcw4kter4ilhne3xydkc4siocpk4cfid2x3ub.py":60:23)
#loc48 = loc("inductor_cache/w2/cw2wy7j5az27icqpcw4kter4ilhne3xydkc4siocpk4cfid2x3ub.py":61:44)
#loc49 = loc("inductor_cache/w2/cw2wy7j5az27icqpcw4kter4ilhne3xydkc4siocpk4cfid2x3ub.py":61:42)
#loc50 = loc("inductor_cache/w2/cw2wy7j5az27icqpcw4kter4ilhne3xydkc4siocpk4cfid2x3ub.py":61:55)
#loc51 = loc("inductor_cache/w2/cw2wy7j5az27icqpcw4kter4ilhne3xydkc4siocpk4cfid2x3ub.py":61:51)
#loc52 = loc("inductor_cache/w2/cw2wy7j5az27icqpcw4kter4ilhne3xydkc4siocpk4cfid2x3ub.py":61:73)
#loc53 = loc("inductor_cache/w2/cw2wy7j5az27icqpcw4kter4ilhne3xydkc4siocpk4cfid2x3ub.py":61:68)
#loc54 = loc("inductor_cache/w2/cw2wy7j5az27icqpcw4kter4ilhne3xydkc4siocpk4cfid2x3ub.py":61:35)
#loc55 = loc("inductor_cache/w2/cw2wy7j5az27icqpcw4kter4ilhne3xydkc4siocpk4cfid2x3ub.py":61:86)
#loc56 = loc("inductor_cache/w2/cw2wy7j5az27icqpcw4kter4ilhne3xydkc4siocpk4cfid2x3ub.py":61:94)
#loc57 = loc("inductor_cache/w2/cw2wy7j5az27icqpcw4kter4ilhne3xydkc4siocpk4cfid2x3ub.py":61:78)
#loc58 = loc("inductor_cache/w2/cw2wy7j5az27icqpcw4kter4ilhne3xydkc4siocpk4cfid2x3ub.py":62:24)
#loc59 = loc("inductor_cache/w2/cw2wy7j5az27icqpcw4kter4ilhne3xydkc4siocpk4cfid2x3ub.py":64:23)
#loc60 = loc("inductor_cache/w2/cw2wy7j5az27icqpcw4kter4ilhne3xydkc4siocpk4cfid2x3ub.py":65:24)
#loc61 = loc("inductor_cache/w2/cw2wy7j5az27icqpcw4kter4ilhne3xydkc4siocpk4cfid2x3ub.py":66:64)
#loc62 = loc("inductor_cache/w2/cw2wy7j5az27icqpcw4kter4ilhne3xydkc4siocpk4cfid2x3ub.py":66:69)
#loc63 = loc("inductor_cache/w2/cw2wy7j5az27icqpcw4kter4ilhne3xydkc4siocpk4cfid2x3ub.py":66:55)
#loc64 = loc("inductor_cache/w2/cw2wy7j5az27icqpcw4kter4ilhne3xydkc4siocpk4cfid2x3ub.py":66:51)
#loc65 = loc("inductor_cache/w2/cw2wy7j5az27icqpcw4kter4ilhne3xydkc4siocpk4cfid2x3ub.py":66:82)
#loc66 = loc("inductor_cache/w2/cw2wy7j5az27icqpcw4kter4ilhne3xydkc4siocpk4cfid2x3ub.py":66:77)
#loc67 = loc("inductor_cache/w2/cw2wy7j5az27icqpcw4kter4ilhne3xydkc4siocpk4cfid2x3ub.py":66:35)
#loc68 = loc("inductor_cache/w2/cw2wy7j5az27icqpcw4kter4ilhne3xydkc4siocpk4cfid2x3ub.py":66:95)
#loc69 = loc("inductor_cache/w2/cw2wy7j5az27icqpcw4kter4ilhne3xydkc4siocpk4cfid2x3ub.py":66:103)
#loc70 = loc("inductor_cache/w2/cw2wy7j5az27icqpcw4kter4ilhne3xydkc4siocpk4cfid2x3ub.py":66:87)
#loc71 = loc("inductor_cache/w2/cw2wy7j5az27icqpcw4kter4ilhne3xydkc4siocpk4cfid2x3ub.py":67:24)
#loc72 = loc("inductor_cache/w2/cw2wy7j5az27icqpcw4kter4ilhne3xydkc4siocpk4cfid2x3ub.py":70:64)
#loc73 = loc("inductor_cache/w2/cw2wy7j5az27icqpcw4kter4ilhne3xydkc4siocpk4cfid2x3ub.py":70:69)
#loc74 = loc("inductor_cache/w2/cw2wy7j5az27icqpcw4kter4ilhne3xydkc4siocpk4cfid2x3ub.py":70:55)
#loc75 = loc("inductor_cache/w2/cw2wy7j5az27icqpcw4kter4ilhne3xydkc4siocpk4cfid2x3ub.py":70:51)
#loc76 = loc("inductor_cache/w2/cw2wy7j5az27icqpcw4kter4ilhne3xydkc4siocpk4cfid2x3ub.py":70:77)
#loc77 = loc("inductor_cache/w2/cw2wy7j5az27icqpcw4kter4ilhne3xydkc4siocpk4cfid2x3ub.py":70:35)
#loc78 = loc("inductor_cache/w2/cw2wy7j5az27icqpcw4kter4ilhne3xydkc4siocpk4cfid2x3ub.py":70:95)
#loc79 = loc("inductor_cache/w2/cw2wy7j5az27icqpcw4kter4ilhne3xydkc4siocpk4cfid2x3ub.py":70:103)
#loc80 = loc("inductor_cache/w2/cw2wy7j5az27icqpcw4kter4ilhne3xydkc4siocpk4cfid2x3ub.py":70:87)
#loc81 = loc("inductor_cache/w2/cw2wy7j5az27icqpcw4kter4ilhne3xydkc4siocpk4cfid2x3ub.py":71:39)
#loc82 = loc("inductor_cache/w2/cw2wy7j5az27icqpcw4kter4ilhne3xydkc4siocpk4cfid2x3ub.py":72:39)
#loc83 = loc("inductor_cache/w2/cw2wy7j5az27icqpcw4kter4ilhne3xydkc4siocpk4cfid2x3ub.py":73:54)
#loc84 = loc("inductor_cache/w2/cw2wy7j5az27icqpcw4kter4ilhne3xydkc4siocpk4cfid2x3ub.py":73:51)
#loc85 = loc("inductor_cache/w2/cw2wy7j5az27icqpcw4kter4ilhne3xydkc4siocpk4cfid2x3ub.py":73:63)
#loc86 = loc("inductor_cache/w2/cw2wy7j5az27icqpcw4kter4ilhne3xydkc4siocpk4cfid2x3ub.py":73:59)
#loc87 = loc("inductor_cache/w2/cw2wy7j5az27icqpcw4kter4ilhne3xydkc4siocpk4cfid2x3ub.py":73:35)
#loc88 = loc("inductor_cache/w2/cw2wy7j5az27icqpcw4kter4ilhne3xydkc4siocpk4cfid2x3ub.py":73:68)
#loc89 = loc("inductor_cache/w2/cw2wy7j5az27icqpcw4kter4ilhne3xydkc4siocpk4cfid2x3ub.py":74:24)
#loc90 = loc("inductor_cache/w2/cw2wy7j5az27icqpcw4kter4ilhne3xydkc4siocpk4cfid2x3ub.py":76:25)
#loc91 = loc("inductor_cache/w2/cw2wy7j5az27icqpcw4kter4ilhne3xydkc4siocpk4cfid2x3ub.py":78:24)
#loc92 = loc("inductor_cache/w2/cw2wy7j5az27icqpcw4kter4ilhne3xydkc4siocpk4cfid2x3ub.py":79:32)
#loc93 = loc("inductor_cache/w2/cw2wy7j5az27icqpcw4kter4ilhne3xydkc4siocpk4cfid2x3ub.py":80:24)
#loc94 = loc("/home/sahanp/.conda/envs/parity-bench/lib/python3.12/site-packages/torch/_inductor/runtime/triton_helpers.py":118:15)
#loc95 = loc("inductor_cache/w2/cw2wy7j5az27icqpcw4kter4ilhne3xydkc4siocpk4cfid2x3ub.py":82:46)
#loc96 = loc("/home/sahanp/.conda/envs/parity-bench/lib/python3.12/site-packages/torch/_inductor/runtime/triton_helpers.py":120:21)
#loc97 = loc("/home/sahanp/.conda/envs/parity-bench/lib/python3.12/site-packages/torch/_inductor/runtime/triton_helpers.py":120:16)
#loc98 = loc("/home/sahanp/.conda/envs/parity-bench/lib/python3.12/site-packages/torch/_inductor/runtime/triton_helpers.py":121:29)
#loc99 = loc("/home/sahanp/.conda/envs/parity-bench/lib/python3.12/site-packages/torch/_inductor/runtime/triton_helpers.py":110:15)
#loc100 = loc("inductor_cache/w2/cw2wy7j5az27icqpcw4kter4ilhne3xydkc4siocpk4cfid2x3ub.py":84:46)
#loc101 = loc("/home/sahanp/.conda/envs/parity-bench/lib/python3.12/site-packages/torch/_inductor/runtime/triton_helpers.py":112:21)
#loc102 = loc("/home/sahanp/.conda/envs/parity-bench/lib/python3.12/site-packages/torch/_inductor/runtime/triton_helpers.py":112:16)
#loc103 = loc("/home/sahanp/.conda/envs/parity-bench/lib/python3.12/site-packages/torch/_inductor/runtime/triton_helpers.py":113:29)
#loc104 = loc("inductor_cache/w2/cw2wy7j5az27icqpcw4kter4ilhne3xydkc4siocpk4cfid2x3ub.py":85:24)
#loc105 = loc("inductor_cache/w2/cw2wy7j5az27icqpcw4kter4ilhne3xydkc4siocpk4cfid2x3ub.py":87:24)
#loc106 = loc("inductor_cache/w2/cw2wy7j5az27icqpcw4kter4ilhne3xydkc4siocpk4cfid2x3ub.py":89:24)
#loc107 = loc("inductor_cache/w2/cw2wy7j5az27icqpcw4kter4ilhne3xydkc4siocpk4cfid2x3ub.py":90:24)
#loc108 = loc("inductor_cache/w2/cw2wy7j5az27icqpcw4kter4ilhne3xydkc4siocpk4cfid2x3ub.py":92:24)
#loc109 = loc("inductor_cache/w2/cw2wy7j5az27icqpcw4kter4ilhne3xydkc4siocpk4cfid2x3ub.py":93:24)
#loc110 = loc("inductor_cache/w2/cw2wy7j5az27icqpcw4kter4ilhne3xydkc4siocpk4cfid2x3ub.py":95:24)
#loc111 = loc("inductor_cache/w2/cw2wy7j5az27icqpcw4kter4ilhne3xydkc4siocpk4cfid2x3ub.py":96:24)
#loc112 = loc("inductor_cache/w2/cw2wy7j5az27icqpcw4kter4ilhne3xydkc4siocpk4cfid2x3ub.py":97:24)
#loc113 = loc("inductor_cache/w2/cw2wy7j5az27icqpcw4kter4ilhne3xydkc4siocpk4cfid2x3ub.py":98:24)
#loc114 = loc("inductor_cache/w2/cw2wy7j5az27icqpcw4kter4ilhne3xydkc4siocpk4cfid2x3ub.py":99:39)
#loc115 = loc("inductor_cache/w2/cw2wy7j5az27icqpcw4kter4ilhne3xydkc4siocpk4cfid2x3ub.py":100:43)
#loc116 = loc("inductor_cache/w2/cw2wy7j5az27icqpcw4kter4ilhne3xydkc4siocpk4cfid2x3ub.py":100:52)
#loc117 = loc("inductor_cache/w2/cw2wy7j5az27icqpcw4kter4ilhne3xydkc4siocpk4cfid2x3ub.py":100:69)
#loc118 = loc("inductor_cache/w2/cw2wy7j5az27icqpcw4kter4ilhne3xydkc4siocpk4cfid2x3ub.py":100:35)
#loc119 = loc("inductor_cache/w2/cw2wy7j5az27icqpcw4kter4ilhne3xydkc4siocpk4cfid2x3ub.py":100:79)
#loc120 = loc("inductor_cache/w2/cw2wy7j5az27icqpcw4kter4ilhne3xydkc4siocpk4cfid2x3ub.py":101:52)
#loc121 = loc("inductor_cache/w2/cw2wy7j5az27icqpcw4kter4ilhne3xydkc4siocpk4cfid2x3ub.py":101:78)
#loc122 = loc("inductor_cache/w2/cw2wy7j5az27icqpcw4kter4ilhne3xydkc4siocpk4cfid2x3ub.py":101:35)
#loc123 = loc("inductor_cache/w2/cw2wy7j5az27icqpcw4kter4ilhne3xydkc4siocpk4cfid2x3ub.py":101:88)
#loc124 = loc("inductor_cache/w2/cw2wy7j5az27icqpcw4kter4ilhne3xydkc4siocpk4cfid2x3ub.py":102:52)
#loc125 = loc("inductor_cache/w2/cw2wy7j5az27icqpcw4kter4ilhne3xydkc4siocpk4cfid2x3ub.py":102:78)
#loc126 = loc("inductor_cache/w2/cw2wy7j5az27icqpcw4kter4ilhne3xydkc4siocpk4cfid2x3ub.py":102:35)
#loc127 = loc("inductor_cache/w2/cw2wy7j5az27icqpcw4kter4ilhne3xydkc4siocpk4cfid2x3ub.py":102:88)
#loc128 = loc("inductor_cache/w2/cw2wy7j5az27icqpcw4kter4ilhne3xydkc4siocpk4cfid2x3ub.py":103:39)
#loc129 = loc("inductor_cache/w2/cw2wy7j5az27icqpcw4kter4ilhne3xydkc4siocpk4cfid2x3ub.py":104:39)
#loc130 = loc("inductor_cache/w2/cw2wy7j5az27icqpcw4kter4ilhne3xydkc4siocpk4cfid2x3ub.py":105:52)
#loc131 = loc("inductor_cache/w2/cw2wy7j5az27icqpcw4kter4ilhne3xydkc4siocpk4cfid2x3ub.py":105:60)
#loc132 = loc("inductor_cache/w2/cw2wy7j5az27icqpcw4kter4ilhne3xydkc4siocpk4cfid2x3ub.py":105:35)
#loc133 = loc("inductor_cache/w2/cw2wy7j5az27icqpcw4kter4ilhne3xydkc4siocpk4cfid2x3ub.py":105:69)
#loc134 = loc("inductor_cache/w2/cw2wy7j5az27icqpcw4kter4ilhne3xydkc4siocpk4cfid2x3ub.py":106:24)
#loc135 = loc("inductor_cache/w2/cw2wy7j5az27icqpcw4kter4ilhne3xydkc4siocpk4cfid2x3ub.py":108:24)
#loc136 = loc("inductor_cache/w2/cw2wy7j5az27icqpcw4kter4ilhne3xydkc4siocpk4cfid2x3ub.py":110:24)
#loc137 = loc("inductor_cache/w2/cw2wy7j5az27icqpcw4kter4ilhne3xydkc4siocpk4cfid2x3ub.py":111:24)
#loc138 = loc("inductor_cache/w2/cw2wy7j5az27icqpcw4kter4ilhne3xydkc4siocpk4cfid2x3ub.py":112:24)
#loc139 = loc("inductor_cache/w2/cw2wy7j5az27icqpcw4kter4ilhne3xydkc4siocpk4cfid2x3ub.py":113:24)
#loc140 = loc("inductor_cache/w2/cw2wy7j5az27icqpcw4kter4ilhne3xydkc4siocpk4cfid2x3ub.py":114:24)
#loc141 = loc("inductor_cache/w2/cw2wy7j5az27icqpcw4kter4ilhne3xydkc4siocpk4cfid2x3ub.py":115:24)
#loc142 = loc("inductor_cache/w2/cw2wy7j5az27icqpcw4kter4ilhne3xydkc4siocpk4cfid2x3ub.py":116:24)
#loc143 = loc("inductor_cache/w2/cw2wy7j5az27icqpcw4kter4ilhne3xydkc4siocpk4cfid2x3ub.py":117:39)
#loc144 = loc("inductor_cache/w2/cw2wy7j5az27icqpcw4kter4ilhne3xydkc4siocpk4cfid2x3ub.py":118:43)
#loc145 = loc("inductor_cache/w2/cw2wy7j5az27icqpcw4kter4ilhne3xydkc4siocpk4cfid2x3ub.py":118:52)
#loc146 = loc("inductor_cache/w2/cw2wy7j5az27icqpcw4kter4ilhne3xydkc4siocpk4cfid2x3ub.py":118:69)
#loc147 = loc("inductor_cache/w2/cw2wy7j5az27icqpcw4kter4ilhne3xydkc4siocpk4cfid2x3ub.py":118:35)
#loc148 = loc("inductor_cache/w2/cw2wy7j5az27icqpcw4kter4ilhne3xydkc4siocpk4cfid2x3ub.py":118:79)
#loc149 = loc("inductor_cache/w2/cw2wy7j5az27icqpcw4kter4ilhne3xydkc4siocpk4cfid2x3ub.py":119:52)
#loc150 = loc("inductor_cache/w2/cw2wy7j5az27icqpcw4kter4ilhne3xydkc4siocpk4cfid2x3ub.py":119:78)
#loc151 = loc("inductor_cache/w2/cw2wy7j5az27icqpcw4kter4ilhne3xydkc4siocpk4cfid2x3ub.py":119:35)
#loc152 = loc("inductor_cache/w2/cw2wy7j5az27icqpcw4kter4ilhne3xydkc4siocpk4cfid2x3ub.py":119:88)
#loc153 = loc("inductor_cache/w2/cw2wy7j5az27icqpcw4kter4ilhne3xydkc4siocpk4cfid2x3ub.py":120:52)
#loc154 = loc("inductor_cache/w2/cw2wy7j5az27icqpcw4kter4ilhne3xydkc4siocpk4cfid2x3ub.py":120:78)
#loc155 = loc("inductor_cache/w2/cw2wy7j5az27icqpcw4kter4ilhne3xydkc4siocpk4cfid2x3ub.py":120:35)
#loc156 = loc("inductor_cache/w2/cw2wy7j5az27icqpcw4kter4ilhne3xydkc4siocpk4cfid2x3ub.py":120:88)
#loc157 = loc("inductor_cache/w2/cw2wy7j5az27icqpcw4kter4ilhne3xydkc4siocpk4cfid2x3ub.py":121:39)
#loc158 = loc("inductor_cache/w2/cw2wy7j5az27icqpcw4kter4ilhne3xydkc4siocpk4cfid2x3ub.py":122:39)
#loc159 = loc("inductor_cache/w2/cw2wy7j5az27icqpcw4kter4ilhne3xydkc4siocpk4cfid2x3ub.py":123:52)
#loc160 = loc("inductor_cache/w2/cw2wy7j5az27icqpcw4kter4ilhne3xydkc4siocpk4cfid2x3ub.py":123:60)
#loc161 = loc("inductor_cache/w2/cw2wy7j5az27icqpcw4kter4ilhne3xydkc4siocpk4cfid2x3ub.py":123:35)
#loc162 = loc("inductor_cache/w2/cw2wy7j5az27icqpcw4kter4ilhne3xydkc4siocpk4cfid2x3ub.py":123:69)
#loc163 = loc("inductor_cache/w2/cw2wy7j5az27icqpcw4kter4ilhne3xydkc4siocpk4cfid2x3ub.py":124:24)
#loc164 = loc("inductor_cache/w2/cw2wy7j5az27icqpcw4kter4ilhne3xydkc4siocpk4cfid2x3ub.py":125:24)
#loc165 = loc("inductor_cache/w2/cw2wy7j5az27icqpcw4kter4ilhne3xydkc4siocpk4cfid2x3ub.py":126:24)
#loc166 = loc("inductor_cache/w2/cw2wy7j5az27icqpcw4kter4ilhne3xydkc4siocpk4cfid2x3ub.py":127:24)
#loc167 = loc("inductor_cache/w2/cw2wy7j5az27icqpcw4kter4ilhne3xydkc4siocpk4cfid2x3ub.py":128:24)
#loc168 = loc("inductor_cache/w2/cw2wy7j5az27icqpcw4kter4ilhne3xydkc4siocpk4cfid2x3ub.py":129:24)
#loc169 = loc("inductor_cache/w2/cw2wy7j5az27icqpcw4kter4ilhne3xydkc4siocpk4cfid2x3ub.py":130:24)
#loc170 = loc("inductor_cache/w2/cw2wy7j5az27icqpcw4kter4ilhne3xydkc4siocpk4cfid2x3ub.py":131:24)
#loc171 = loc("inductor_cache/w2/cw2wy7j5az27icqpcw4kter4ilhne3xydkc4siocpk4cfid2x3ub.py":132:24)
#loc172 = loc("inductor_cache/w2/cw2wy7j5az27icqpcw4kter4ilhne3xydkc4siocpk4cfid2x3ub.py":133:24)
#loc173 = loc("inductor_cache/w2/cw2wy7j5az27icqpcw4kter4ilhne3xydkc4siocpk4cfid2x3ub.py":134:39)
#loc174 = loc("inductor_cache/w2/cw2wy7j5az27icqpcw4kter4ilhne3xydkc4siocpk4cfid2x3ub.py":135:43)
#loc175 = loc("inductor_cache/w2/cw2wy7j5az27icqpcw4kter4ilhne3xydkc4siocpk4cfid2x3ub.py":135:52)
#loc176 = loc("inductor_cache/w2/cw2wy7j5az27icqpcw4kter4ilhne3xydkc4siocpk4cfid2x3ub.py":135:69)
#loc177 = loc("inductor_cache/w2/cw2wy7j5az27icqpcw4kter4ilhne3xydkc4siocpk4cfid2x3ub.py":135:35)
#loc178 = loc("inductor_cache/w2/cw2wy7j5az27icqpcw4kter4ilhne3xydkc4siocpk4cfid2x3ub.py":135:79)
#loc179 = loc("inductor_cache/w2/cw2wy7j5az27icqpcw4kter4ilhne3xydkc4siocpk4cfid2x3ub.py":136:52)
#loc180 = loc("inductor_cache/w2/cw2wy7j5az27icqpcw4kter4ilhne3xydkc4siocpk4cfid2x3ub.py":136:78)
#loc181 = loc("inductor_cache/w2/cw2wy7j5az27icqpcw4kter4ilhne3xydkc4siocpk4cfid2x3ub.py":136:35)
#loc182 = loc("inductor_cache/w2/cw2wy7j5az27icqpcw4kter4ilhne3xydkc4siocpk4cfid2x3ub.py":136:88)
#loc183 = loc("inductor_cache/w2/cw2wy7j5az27icqpcw4kter4ilhne3xydkc4siocpk4cfid2x3ub.py":137:52)
#loc184 = loc("inductor_cache/w2/cw2wy7j5az27icqpcw4kter4ilhne3xydkc4siocpk4cfid2x3ub.py":137:78)
#loc185 = loc("inductor_cache/w2/cw2wy7j5az27icqpcw4kter4ilhne3xydkc4siocpk4cfid2x3ub.py":137:35)
#loc186 = loc("inductor_cache/w2/cw2wy7j5az27icqpcw4kter4ilhne3xydkc4siocpk4cfid2x3ub.py":137:88)
#loc187 = loc("inductor_cache/w2/cw2wy7j5az27icqpcw4kter4ilhne3xydkc4siocpk4cfid2x3ub.py":138:39)
#loc188 = loc("inductor_cache/w2/cw2wy7j5az27icqpcw4kter4ilhne3xydkc4siocpk4cfid2x3ub.py":139:39)
#loc189 = loc("inductor_cache/w2/cw2wy7j5az27icqpcw4kter4ilhne3xydkc4siocpk4cfid2x3ub.py":140:52)
#loc190 = loc("inductor_cache/w2/cw2wy7j5az27icqpcw4kter4ilhne3xydkc4siocpk4cfid2x3ub.py":140:60)
#loc191 = loc("inductor_cache/w2/cw2wy7j5az27icqpcw4kter4ilhne3xydkc4siocpk4cfid2x3ub.py":140:35)
#loc192 = loc("inductor_cache/w2/cw2wy7j5az27icqpcw4kter4ilhne3xydkc4siocpk4cfid2x3ub.py":140:69)
#loc193 = loc("inductor_cache/w2/cw2wy7j5az27icqpcw4kter4ilhne3xydkc4siocpk4cfid2x3ub.py":141:24)
#loc194 = loc("inductor_cache/w2/cw2wy7j5az27icqpcw4kter4ilhne3xydkc4siocpk4cfid2x3ub.py":143:24)
#loc195 = loc("inductor_cache/w2/cw2wy7j5az27icqpcw4kter4ilhne3xydkc4siocpk4cfid2x3ub.py":144:25)
#loc196 = loc("inductor_cache/w2/cw2wy7j5az27icqpcw4kter4ilhne3xydkc4siocpk4cfid2x3ub.py":145:26)
#loc197 = loc("inductor_cache/w2/cw2wy7j5az27icqpcw4kter4ilhne3xydkc4siocpk4cfid2x3ub.py":146:26)
#loc198 = loc("inductor_cache/w2/cw2wy7j5az27icqpcw4kter4ilhne3xydkc4siocpk4cfid2x3ub.py":147:26)
#loc199 = loc("inductor_cache/w2/cw2wy7j5az27icqpcw4kter4ilhne3xydkc4siocpk4cfid2x3ub.py":148:26)
#loc200 = loc("inductor_cache/w2/cw2wy7j5az27icqpcw4kter4ilhne3xydkc4siocpk4cfid2x3ub.py":149:26)
#loc201 = loc("inductor_cache/w2/cw2wy7j5az27icqpcw4kter4ilhne3xydkc4siocpk4cfid2x3ub.py":150:25)
#loc202 = loc("inductor_cache/w2/cw2wy7j5az27icqpcw4kter4ilhne3xydkc4siocpk4cfid2x3ub.py":151:26)
#loc203 = loc("inductor_cache/w2/cw2wy7j5az27icqpcw4kter4ilhne3xydkc4siocpk4cfid2x3ub.py":152:26)
#loc204 = loc("inductor_cache/w2/cw2wy7j5az27icqpcw4kter4ilhne3xydkc4siocpk4cfid2x3ub.py":153:42)
#loc205 = loc("inductor_cache/w2/cw2wy7j5az27icqpcw4kter4ilhne3xydkc4siocpk4cfid2x3ub.py":154:45)
#loc206 = loc("inductor_cache/w2/cw2wy7j5az27icqpcw4kter4ilhne3xydkc4siocpk4cfid2x3ub.py":154:43)
#loc207 = loc("inductor_cache/w2/cw2wy7j5az27icqpcw4kter4ilhne3xydkc4siocpk4cfid2x3ub.py":154:54)
#loc208 = loc("inductor_cache/w2/cw2wy7j5az27icqpcw4kter4ilhne3xydkc4siocpk4cfid2x3ub.py":154:71)
#loc209 = loc("inductor_cache/w2/cw2wy7j5az27icqpcw4kter4ilhne3xydkc4siocpk4cfid2x3ub.py":154:36)
#loc210 = loc("inductor_cache/w2/cw2wy7j5az27icqpcw4kter4ilhne3xydkc4siocpk4cfid2x3ub.py":154:81)
#loc211 = loc("inductor_cache/w2/cw2wy7j5az27icqpcw4kter4ilhne3xydkc4siocpk4cfid2x3ub.py":155:54)
#loc212 = loc("inductor_cache/w2/cw2wy7j5az27icqpcw4kter4ilhne3xydkc4siocpk4cfid2x3ub.py":155:80)
#loc213 = loc("inductor_cache/w2/cw2wy7j5az27icqpcw4kter4ilhne3xydkc4siocpk4cfid2x3ub.py":155:36)
#loc214 = loc("inductor_cache/w2/cw2wy7j5az27icqpcw4kter4ilhne3xydkc4siocpk4cfid2x3ub.py":155:90)
#loc215 = loc("inductor_cache/w2/cw2wy7j5az27icqpcw4kter4ilhne3xydkc4siocpk4cfid2x3ub.py":156:54)
#loc216 = loc("inductor_cache/w2/cw2wy7j5az27icqpcw4kter4ilhne3xydkc4siocpk4cfid2x3ub.py":156:80)
#loc217 = loc("inductor_cache/w2/cw2wy7j5az27icqpcw4kter4ilhne3xydkc4siocpk4cfid2x3ub.py":156:36)
#loc218 = loc("inductor_cache/w2/cw2wy7j5az27icqpcw4kter4ilhne3xydkc4siocpk4cfid2x3ub.py":156:90)
#loc219 = loc("inductor_cache/w2/cw2wy7j5az27icqpcw4kter4ilhne3xydkc4siocpk4cfid2x3ub.py":157:41)
#loc220 = loc("inductor_cache/w2/cw2wy7j5az27icqpcw4kter4ilhne3xydkc4siocpk4cfid2x3ub.py":158:41)
#loc221 = loc("inductor_cache/w2/cw2wy7j5az27icqpcw4kter4ilhne3xydkc4siocpk4cfid2x3ub.py":159:54)
#loc222 = loc("inductor_cache/w2/cw2wy7j5az27icqpcw4kter4ilhne3xydkc4siocpk4cfid2x3ub.py":159:62)
#loc223 = loc("inductor_cache/w2/cw2wy7j5az27icqpcw4kter4ilhne3xydkc4siocpk4cfid2x3ub.py":159:36)
#loc224 = loc("inductor_cache/w2/cw2wy7j5az27icqpcw4kter4ilhne3xydkc4siocpk4cfid2x3ub.py":159:71)
#loc225 = loc("inductor_cache/w2/cw2wy7j5az27icqpcw4kter4ilhne3xydkc4siocpk4cfid2x3ub.py":160:26)
#loc226 = loc("inductor_cache/w2/cw2wy7j5az27icqpcw4kter4ilhne3xydkc4siocpk4cfid2x3ub.py":161:26)
#loc227 = loc("inductor_cache/w2/cw2wy7j5az27icqpcw4kter4ilhne3xydkc4siocpk4cfid2x3ub.py":162:44)
#loc228 = loc("inductor_cache/w2/cw2wy7j5az27icqpcw4kter4ilhne3xydkc4siocpk4cfid2x3ub.py":162:55)
#loc229 = loc("inductor_cache/w2/cw2wy7j5az27icqpcw4kter4ilhne3xydkc4siocpk4cfid2x3ub.py":162:72)
#loc230 = loc("inductor_cache/w2/cw2wy7j5az27icqpcw4kter4ilhne3xydkc4siocpk4cfid2x3ub.py":162:36)
#loc231 = loc("inductor_cache/w2/cw2wy7j5az27icqpcw4kter4ilhne3xydkc4siocpk4cfid2x3ub.py":162:82)
#loc232 = loc("inductor_cache/w2/cw2wy7j5az27icqpcw4kter4ilhne3xydkc4siocpk4cfid2x3ub.py":163:55)
#loc233 = loc("inductor_cache/w2/cw2wy7j5az27icqpcw4kter4ilhne3xydkc4siocpk4cfid2x3ub.py":163:81)
#loc234 = loc("inductor_cache/w2/cw2wy7j5az27icqpcw4kter4ilhne3xydkc4siocpk4cfid2x3ub.py":163:36)
#loc235 = loc("inductor_cache/w2/cw2wy7j5az27icqpcw4kter4ilhne3xydkc4siocpk4cfid2x3ub.py":163:91)
#loc236 = loc("inductor_cache/w2/cw2wy7j5az27icqpcw4kter4ilhne3xydkc4siocpk4cfid2x3ub.py":164:55)
#loc237 = loc("inductor_cache/w2/cw2wy7j5az27icqpcw4kter4ilhne3xydkc4siocpk4cfid2x3ub.py":164:81)
#loc238 = loc("inductor_cache/w2/cw2wy7j5az27icqpcw4kter4ilhne3xydkc4siocpk4cfid2x3ub.py":164:36)
#loc239 = loc("inductor_cache/w2/cw2wy7j5az27icqpcw4kter4ilhne3xydkc4siocpk4cfid2x3ub.py":164:91)
#loc240 = loc("inductor_cache/w2/cw2wy7j5az27icqpcw4kter4ilhne3xydkc4siocpk4cfid2x3ub.py":165:41)
#loc241 = loc("inductor_cache/w2/cw2wy7j5az27icqpcw4kter4ilhne3xydkc4siocpk4cfid2x3ub.py":166:41)
#loc242 = loc("inductor_cache/w2/cw2wy7j5az27icqpcw4kter4ilhne3xydkc4siocpk4cfid2x3ub.py":167:55)
#loc243 = loc("inductor_cache/w2/cw2wy7j5az27icqpcw4kter4ilhne3xydkc4siocpk4cfid2x3ub.py":167:63)
#loc244 = loc("inductor_cache/w2/cw2wy7j5az27icqpcw4kter4ilhne3xydkc4siocpk4cfid2x3ub.py":167:36)
#loc245 = loc("inductor_cache/w2/cw2wy7j5az27icqpcw4kter4ilhne3xydkc4siocpk4cfid2x3ub.py":167:72)
#loc246 = loc("inductor_cache/w2/cw2wy7j5az27icqpcw4kter4ilhne3xydkc4siocpk4cfid2x3ub.py":168:26)
#loc247 = loc("inductor_cache/w2/cw2wy7j5az27icqpcw4kter4ilhne3xydkc4siocpk4cfid2x3ub.py":169:26)
#loc248 = loc("inductor_cache/w2/cw2wy7j5az27icqpcw4kter4ilhne3xydkc4siocpk4cfid2x3ub.py":170:44)
#loc249 = loc("inductor_cache/w2/cw2wy7j5az27icqpcw4kter4ilhne3xydkc4siocpk4cfid2x3ub.py":170:55)
#loc250 = loc("inductor_cache/w2/cw2wy7j5az27icqpcw4kter4ilhne3xydkc4siocpk4cfid2x3ub.py":170:72)
#loc251 = loc("inductor_cache/w2/cw2wy7j5az27icqpcw4kter4ilhne3xydkc4siocpk4cfid2x3ub.py":170:36)
#loc252 = loc("inductor_cache/w2/cw2wy7j5az27icqpcw4kter4ilhne3xydkc4siocpk4cfid2x3ub.py":170:82)
#loc253 = loc("inductor_cache/w2/cw2wy7j5az27icqpcw4kter4ilhne3xydkc4siocpk4cfid2x3ub.py":171:55)
#loc254 = loc("inductor_cache/w2/cw2wy7j5az27icqpcw4kter4ilhne3xydkc4siocpk4cfid2x3ub.py":171:81)
#loc255 = loc("inductor_cache/w2/cw2wy7j5az27icqpcw4kter4ilhne3xydkc4siocpk4cfid2x3ub.py":171:36)
#loc256 = loc("inductor_cache/w2/cw2wy7j5az27icqpcw4kter4ilhne3xydkc4siocpk4cfid2x3ub.py":171:91)
#loc257 = loc("inductor_cache/w2/cw2wy7j5az27icqpcw4kter4ilhne3xydkc4siocpk4cfid2x3ub.py":172:55)
#loc258 = loc("inductor_cache/w2/cw2wy7j5az27icqpcw4kter4ilhne3xydkc4siocpk4cfid2x3ub.py":172:81)
#loc259 = loc("inductor_cache/w2/cw2wy7j5az27icqpcw4kter4ilhne3xydkc4siocpk4cfid2x3ub.py":172:36)
#loc260 = loc("inductor_cache/w2/cw2wy7j5az27icqpcw4kter4ilhne3xydkc4siocpk4cfid2x3ub.py":172:91)
#loc261 = loc("inductor_cache/w2/cw2wy7j5az27icqpcw4kter4ilhne3xydkc4siocpk4cfid2x3ub.py":173:41)
#loc262 = loc("inductor_cache/w2/cw2wy7j5az27icqpcw4kter4ilhne3xydkc4siocpk4cfid2x3ub.py":174:41)
#loc263 = loc("inductor_cache/w2/cw2wy7j5az27icqpcw4kter4ilhne3xydkc4siocpk4cfid2x3ub.py":175:55)
#loc264 = loc("inductor_cache/w2/cw2wy7j5az27icqpcw4kter4ilhne3xydkc4siocpk4cfid2x3ub.py":175:63)
#loc265 = loc("inductor_cache/w2/cw2wy7j5az27icqpcw4kter4ilhne3xydkc4siocpk4cfid2x3ub.py":175:36)
#loc266 = loc("inductor_cache/w2/cw2wy7j5az27icqpcw4kter4ilhne3xydkc4siocpk4cfid2x3ub.py":175:72)
#loc267 = loc("inductor_cache/w2/cw2wy7j5az27icqpcw4kter4ilhne3xydkc4siocpk4cfid2x3ub.py":176:26)
#loc268 = loc("inductor_cache/w2/cw2wy7j5az27icqpcw4kter4ilhne3xydkc4siocpk4cfid2x3ub.py":177:26)
#loc269 = loc("inductor_cache/w2/cw2wy7j5az27icqpcw4kter4ilhne3xydkc4siocpk4cfid2x3ub.py":178:44)
#loc270 = loc("inductor_cache/w2/cw2wy7j5az27icqpcw4kter4ilhne3xydkc4siocpk4cfid2x3ub.py":178:55)
#loc271 = loc("inductor_cache/w2/cw2wy7j5az27icqpcw4kter4ilhne3xydkc4siocpk4cfid2x3ub.py":178:72)
#loc272 = loc("inductor_cache/w2/cw2wy7j5az27icqpcw4kter4ilhne3xydkc4siocpk4cfid2x3ub.py":178:36)
#loc273 = loc("inductor_cache/w2/cw2wy7j5az27icqpcw4kter4ilhne3xydkc4siocpk4cfid2x3ub.py":178:82)
#loc274 = loc("inductor_cache/w2/cw2wy7j5az27icqpcw4kter4ilhne3xydkc4siocpk4cfid2x3ub.py":179:55)
#loc275 = loc("inductor_cache/w2/cw2wy7j5az27icqpcw4kter4ilhne3xydkc4siocpk4cfid2x3ub.py":179:81)
#loc276 = loc("inductor_cache/w2/cw2wy7j5az27icqpcw4kter4ilhne3xydkc4siocpk4cfid2x3ub.py":179:36)
#loc277 = loc("inductor_cache/w2/cw2wy7j5az27icqpcw4kter4ilhne3xydkc4siocpk4cfid2x3ub.py":179:91)
#loc278 = loc("inductor_cache/w2/cw2wy7j5az27icqpcw4kter4ilhne3xydkc4siocpk4cfid2x3ub.py":180:55)
#loc279 = loc("inductor_cache/w2/cw2wy7j5az27icqpcw4kter4ilhne3xydkc4siocpk4cfid2x3ub.py":180:81)
#loc280 = loc("inductor_cache/w2/cw2wy7j5az27icqpcw4kter4ilhne3xydkc4siocpk4cfid2x3ub.py":180:36)
#loc281 = loc("inductor_cache/w2/cw2wy7j5az27icqpcw4kter4ilhne3xydkc4siocpk4cfid2x3ub.py":180:91)
#loc282 = loc("inductor_cache/w2/cw2wy7j5az27icqpcw4kter4ilhne3xydkc4siocpk4cfid2x3ub.py":181:41)
#loc283 = loc("inductor_cache/w2/cw2wy7j5az27icqpcw4kter4ilhne3xydkc4siocpk4cfid2x3ub.py":182:41)
#loc284 = loc("inductor_cache/w2/cw2wy7j5az27icqpcw4kter4ilhne3xydkc4siocpk4cfid2x3ub.py":183:55)
#loc285 = loc("inductor_cache/w2/cw2wy7j5az27icqpcw4kter4ilhne3xydkc4siocpk4cfid2x3ub.py":183:63)
#loc286 = loc("inductor_cache/w2/cw2wy7j5az27icqpcw4kter4ilhne3xydkc4siocpk4cfid2x3ub.py":183:36)
#loc287 = loc("inductor_cache/w2/cw2wy7j5az27icqpcw4kter4ilhne3xydkc4siocpk4cfid2x3ub.py":183:72)
#loc288 = loc("inductor_cache/w2/cw2wy7j5az27icqpcw4kter4ilhne3xydkc4siocpk4cfid2x3ub.py":184:26)
#loc289 = loc("inductor_cache/w2/cw2wy7j5az27icqpcw4kter4ilhne3xydkc4siocpk4cfid2x3ub.py":185:26)
#loc290 = loc("inductor_cache/w2/cw2wy7j5az27icqpcw4kter4ilhne3xydkc4siocpk4cfid2x3ub.py":186:26)
#loc291 = loc("inductor_cache/w2/cw2wy7j5az27icqpcw4kter4ilhne3xydkc4siocpk4cfid2x3ub.py":187:26)
#loc292 = loc("inductor_cache/w2/cw2wy7j5az27icqpcw4kter4ilhne3xydkc4siocpk4cfid2x3ub.py":188:42)
#loc293 = loc("inductor_cache/w2/cw2wy7j5az27icqpcw4kter4ilhne3xydkc4siocpk4cfid2x3ub.py":189:45)
#loc294 = loc("inductor_cache/w2/cw2wy7j5az27icqpcw4kter4ilhne3xydkc4siocpk4cfid2x3ub.py":189:43)
#loc295 = loc("inductor_cache/w2/cw2wy7j5az27icqpcw4kter4ilhne3xydkc4siocpk4cfid2x3ub.py":189:54)
#loc296 = loc("inductor_cache/w2/cw2wy7j5az27icqpcw4kter4ilhne3xydkc4siocpk4cfid2x3ub.py":189:71)
#loc297 = loc("inductor_cache/w2/cw2wy7j5az27icqpcw4kter4ilhne3xydkc4siocpk4cfid2x3ub.py":189:36)
#loc298 = loc("inductor_cache/w2/cw2wy7j5az27icqpcw4kter4ilhne3xydkc4siocpk4cfid2x3ub.py":189:81)
#loc299 = loc("inductor_cache/w2/cw2wy7j5az27icqpcw4kter4ilhne3xydkc4siocpk4cfid2x3ub.py":190:54)
#loc300 = loc("inductor_cache/w2/cw2wy7j5az27icqpcw4kter4ilhne3xydkc4siocpk4cfid2x3ub.py":190:80)
#loc301 = loc("inductor_cache/w2/cw2wy7j5az27icqpcw4kter4ilhne3xydkc4siocpk4cfid2x3ub.py":190:36)
#loc302 = loc("inductor_cache/w2/cw2wy7j5az27icqpcw4kter4ilhne3xydkc4siocpk4cfid2x3ub.py":190:90)
#loc303 = loc("inductor_cache/w2/cw2wy7j5az27icqpcw4kter4ilhne3xydkc4siocpk4cfid2x3ub.py":191:54)
#loc304 = loc("inductor_cache/w2/cw2wy7j5az27icqpcw4kter4ilhne3xydkc4siocpk4cfid2x3ub.py":191:80)
#loc305 = loc("inductor_cache/w2/cw2wy7j5az27icqpcw4kter4ilhne3xydkc4siocpk4cfid2x3ub.py":191:36)
#loc306 = loc("inductor_cache/w2/cw2wy7j5az27icqpcw4kter4ilhne3xydkc4siocpk4cfid2x3ub.py":191:90)
#loc307 = loc("inductor_cache/w2/cw2wy7j5az27icqpcw4kter4ilhne3xydkc4siocpk4cfid2x3ub.py":192:41)
#loc308 = loc("inductor_cache/w2/cw2wy7j5az27icqpcw4kter4ilhne3xydkc4siocpk4cfid2x3ub.py":193:41)
#loc309 = loc("inductor_cache/w2/cw2wy7j5az27icqpcw4kter4ilhne3xydkc4siocpk4cfid2x3ub.py":194:54)
#loc310 = loc("inductor_cache/w2/cw2wy7j5az27icqpcw4kter4ilhne3xydkc4siocpk4cfid2x3ub.py":194:62)
#loc311 = loc("inductor_cache/w2/cw2wy7j5az27icqpcw4kter4ilhne3xydkc4siocpk4cfid2x3ub.py":194:36)
#loc312 = loc("inductor_cache/w2/cw2wy7j5az27icqpcw4kter4ilhne3xydkc4siocpk4cfid2x3ub.py":194:71)
#loc313 = loc("inductor_cache/w2/cw2wy7j5az27icqpcw4kter4ilhne3xydkc4siocpk4cfid2x3ub.py":195:26)
#loc314 = loc("inductor_cache/w2/cw2wy7j5az27icqpcw4kter4ilhne3xydkc4siocpk4cfid2x3ub.py":196:26)
#loc315 = loc("inductor_cache/w2/cw2wy7j5az27icqpcw4kter4ilhne3xydkc4siocpk4cfid2x3ub.py":197:44)
#loc316 = loc("inductor_cache/w2/cw2wy7j5az27icqpcw4kter4ilhne3xydkc4siocpk4cfid2x3ub.py":197:55)
#loc317 = loc("inductor_cache/w2/cw2wy7j5az27icqpcw4kter4ilhne3xydkc4siocpk4cfid2x3ub.py":197:72)
#loc318 = loc("inductor_cache/w2/cw2wy7j5az27icqpcw4kter4ilhne3xydkc4siocpk4cfid2x3ub.py":197:36)
#loc319 = loc("inductor_cache/w2/cw2wy7j5az27icqpcw4kter4ilhne3xydkc4siocpk4cfid2x3ub.py":197:82)
#loc320 = loc("inductor_cache/w2/cw2wy7j5az27icqpcw4kter4ilhne3xydkc4siocpk4cfid2x3ub.py":198:55)
#loc321 = loc("inductor_cache/w2/cw2wy7j5az27icqpcw4kter4ilhne3xydkc4siocpk4cfid2x3ub.py":198:81)
#loc322 = loc("inductor_cache/w2/cw2wy7j5az27icqpcw4kter4ilhne3xydkc4siocpk4cfid2x3ub.py":198:36)
#loc323 = loc("inductor_cache/w2/cw2wy7j5az27icqpcw4kter4ilhne3xydkc4siocpk4cfid2x3ub.py":198:91)
#loc324 = loc("inductor_cache/w2/cw2wy7j5az27icqpcw4kter4ilhne3xydkc4siocpk4cfid2x3ub.py":199:55)
#loc325 = loc("inductor_cache/w2/cw2wy7j5az27icqpcw4kter4ilhne3xydkc4siocpk4cfid2x3ub.py":199:81)
#loc326 = loc("inductor_cache/w2/cw2wy7j5az27icqpcw4kter4ilhne3xydkc4siocpk4cfid2x3ub.py":199:36)
#loc327 = loc("inductor_cache/w2/cw2wy7j5az27icqpcw4kter4ilhne3xydkc4siocpk4cfid2x3ub.py":199:91)
#loc328 = loc("inductor_cache/w2/cw2wy7j5az27icqpcw4kter4ilhne3xydkc4siocpk4cfid2x3ub.py":200:41)
#loc329 = loc("inductor_cache/w2/cw2wy7j5az27icqpcw4kter4ilhne3xydkc4siocpk4cfid2x3ub.py":201:41)
#loc330 = loc("inductor_cache/w2/cw2wy7j5az27icqpcw4kter4ilhne3xydkc4siocpk4cfid2x3ub.py":202:55)
#loc331 = loc("inductor_cache/w2/cw2wy7j5az27icqpcw4kter4ilhne3xydkc4siocpk4cfid2x3ub.py":202:63)
#loc332 = loc("inductor_cache/w2/cw2wy7j5az27icqpcw4kter4ilhne3xydkc4siocpk4cfid2x3ub.py":202:36)
#loc333 = loc("inductor_cache/w2/cw2wy7j5az27icqpcw4kter4ilhne3xydkc4siocpk4cfid2x3ub.py":202:72)
#loc334 = loc("inductor_cache/w2/cw2wy7j5az27icqpcw4kter4ilhne3xydkc4siocpk4cfid2x3ub.py":203:26)
#loc335 = loc("inductor_cache/w2/cw2wy7j5az27icqpcw4kter4ilhne3xydkc4siocpk4cfid2x3ub.py":204:26)
#loc336 = loc("inductor_cache/w2/cw2wy7j5az27icqpcw4kter4ilhne3xydkc4siocpk4cfid2x3ub.py":205:44)
#loc337 = loc("inductor_cache/w2/cw2wy7j5az27icqpcw4kter4ilhne3xydkc4siocpk4cfid2x3ub.py":205:55)
#loc338 = loc("inductor_cache/w2/cw2wy7j5az27icqpcw4kter4ilhne3xydkc4siocpk4cfid2x3ub.py":205:72)
#loc339 = loc("inductor_cache/w2/cw2wy7j5az27icqpcw4kter4ilhne3xydkc4siocpk4cfid2x3ub.py":205:36)
#loc340 = loc("inductor_cache/w2/cw2wy7j5az27icqpcw4kter4ilhne3xydkc4siocpk4cfid2x3ub.py":205:82)
#loc341 = loc("inductor_cache/w2/cw2wy7j5az27icqpcw4kter4ilhne3xydkc4siocpk4cfid2x3ub.py":206:55)
#loc342 = loc("inductor_cache/w2/cw2wy7j5az27icqpcw4kter4ilhne3xydkc4siocpk4cfid2x3ub.py":206:81)
#loc343 = loc("inductor_cache/w2/cw2wy7j5az27icqpcw4kter4ilhne3xydkc4siocpk4cfid2x3ub.py":206:36)
#loc344 = loc("inductor_cache/w2/cw2wy7j5az27icqpcw4kter4ilhne3xydkc4siocpk4cfid2x3ub.py":206:91)
#loc345 = loc("inductor_cache/w2/cw2wy7j5az27icqpcw4kter4ilhne3xydkc4siocpk4cfid2x3ub.py":207:55)
#loc346 = loc("inductor_cache/w2/cw2wy7j5az27icqpcw4kter4ilhne3xydkc4siocpk4cfid2x3ub.py":207:81)
#loc347 = loc("inductor_cache/w2/cw2wy7j5az27icqpcw4kter4ilhne3xydkc4siocpk4cfid2x3ub.py":207:36)
#loc348 = loc("inductor_cache/w2/cw2wy7j5az27icqpcw4kter4ilhne3xydkc4siocpk4cfid2x3ub.py":207:91)
#loc349 = loc("inductor_cache/w2/cw2wy7j5az27icqpcw4kter4ilhne3xydkc4siocpk4cfid2x3ub.py":208:41)
#loc350 = loc("inductor_cache/w2/cw2wy7j5az27icqpcw4kter4ilhne3xydkc4siocpk4cfid2x3ub.py":209:41)
#loc351 = loc("inductor_cache/w2/cw2wy7j5az27icqpcw4kter4ilhne3xydkc4siocpk4cfid2x3ub.py":210:55)
#loc352 = loc("inductor_cache/w2/cw2wy7j5az27icqpcw4kter4ilhne3xydkc4siocpk4cfid2x3ub.py":210:63)
#loc353 = loc("inductor_cache/w2/cw2wy7j5az27icqpcw4kter4ilhne3xydkc4siocpk4cfid2x3ub.py":210:36)
#loc354 = loc("inductor_cache/w2/cw2wy7j5az27icqpcw4kter4ilhne3xydkc4siocpk4cfid2x3ub.py":210:72)
#loc355 = loc("inductor_cache/w2/cw2wy7j5az27icqpcw4kter4ilhne3xydkc4siocpk4cfid2x3ub.py":211:26)
#loc356 = loc("inductor_cache/w2/cw2wy7j5az27icqpcw4kter4ilhne3xydkc4siocpk4cfid2x3ub.py":212:26)
#loc357 = loc("inductor_cache/w2/cw2wy7j5az27icqpcw4kter4ilhne3xydkc4siocpk4cfid2x3ub.py":213:44)
#loc358 = loc("inductor_cache/w2/cw2wy7j5az27icqpcw4kter4ilhne3xydkc4siocpk4cfid2x3ub.py":213:55)
#loc359 = loc("inductor_cache/w2/cw2wy7j5az27icqpcw4kter4ilhne3xydkc4siocpk4cfid2x3ub.py":213:72)
#loc360 = loc("inductor_cache/w2/cw2wy7j5az27icqpcw4kter4ilhne3xydkc4siocpk4cfid2x3ub.py":213:36)
#loc361 = loc("inductor_cache/w2/cw2wy7j5az27icqpcw4kter4ilhne3xydkc4siocpk4cfid2x3ub.py":213:82)
#loc362 = loc("inductor_cache/w2/cw2wy7j5az27icqpcw4kter4ilhne3xydkc4siocpk4cfid2x3ub.py":214:55)
#loc363 = loc("inductor_cache/w2/cw2wy7j5az27icqpcw4kter4ilhne3xydkc4siocpk4cfid2x3ub.py":214:81)
#loc364 = loc("inductor_cache/w2/cw2wy7j5az27icqpcw4kter4ilhne3xydkc4siocpk4cfid2x3ub.py":214:36)
#loc365 = loc("inductor_cache/w2/cw2wy7j5az27icqpcw4kter4ilhne3xydkc4siocpk4cfid2x3ub.py":214:91)
#loc366 = loc("inductor_cache/w2/cw2wy7j5az27icqpcw4kter4ilhne3xydkc4siocpk4cfid2x3ub.py":215:55)
#loc367 = loc("inductor_cache/w2/cw2wy7j5az27icqpcw4kter4ilhne3xydkc4siocpk4cfid2x3ub.py":215:81)
#loc368 = loc("inductor_cache/w2/cw2wy7j5az27icqpcw4kter4ilhne3xydkc4siocpk4cfid2x3ub.py":215:36)
#loc369 = loc("inductor_cache/w2/cw2wy7j5az27icqpcw4kter4ilhne3xydkc4siocpk4cfid2x3ub.py":215:91)
#loc370 = loc("inductor_cache/w2/cw2wy7j5az27icqpcw4kter4ilhne3xydkc4siocpk4cfid2x3ub.py":216:41)
#loc371 = loc("inductor_cache/w2/cw2wy7j5az27icqpcw4kter4ilhne3xydkc4siocpk4cfid2x3ub.py":217:41)
#loc372 = loc("inductor_cache/w2/cw2wy7j5az27icqpcw4kter4ilhne3xydkc4siocpk4cfid2x3ub.py":218:55)
#loc373 = loc("inductor_cache/w2/cw2wy7j5az27icqpcw4kter4ilhne3xydkc4siocpk4cfid2x3ub.py":218:63)
#loc374 = loc("inductor_cache/w2/cw2wy7j5az27icqpcw4kter4ilhne3xydkc4siocpk4cfid2x3ub.py":218:36)
#loc375 = loc("inductor_cache/w2/cw2wy7j5az27icqpcw4kter4ilhne3xydkc4siocpk4cfid2x3ub.py":218:72)
#loc376 = loc("inductor_cache/w2/cw2wy7j5az27icqpcw4kter4ilhne3xydkc4siocpk4cfid2x3ub.py":219:26)
#loc377 = loc("inductor_cache/w2/cw2wy7j5az27icqpcw4kter4ilhne3xydkc4siocpk4cfid2x3ub.py":220:26)
#loc378 = loc("inductor_cache/w2/cw2wy7j5az27icqpcw4kter4ilhne3xydkc4siocpk4cfid2x3ub.py":221:26)
#loc379 = loc("inductor_cache/w2/cw2wy7j5az27icqpcw4kter4ilhne3xydkc4siocpk4cfid2x3ub.py":222:26)
#loc380 = loc("inductor_cache/w2/cw2wy7j5az27icqpcw4kter4ilhne3xydkc4siocpk4cfid2x3ub.py":223:42)
#loc381 = loc("inductor_cache/w2/cw2wy7j5az27icqpcw4kter4ilhne3xydkc4siocpk4cfid2x3ub.py":224:45)
#loc382 = loc("inductor_cache/w2/cw2wy7j5az27icqpcw4kter4ilhne3xydkc4siocpk4cfid2x3ub.py":224:43)
#loc383 = loc("inductor_cache/w2/cw2wy7j5az27icqpcw4kter4ilhne3xydkc4siocpk4cfid2x3ub.py":224:54)
#loc384 = loc("inductor_cache/w2/cw2wy7j5az27icqpcw4kter4ilhne3xydkc4siocpk4cfid2x3ub.py":224:71)
#loc385 = loc("inductor_cache/w2/cw2wy7j5az27icqpcw4kter4ilhne3xydkc4siocpk4cfid2x3ub.py":224:36)
#loc386 = loc("inductor_cache/w2/cw2wy7j5az27icqpcw4kter4ilhne3xydkc4siocpk4cfid2x3ub.py":224:81)
#loc387 = loc("inductor_cache/w2/cw2wy7j5az27icqpcw4kter4ilhne3xydkc4siocpk4cfid2x3ub.py":225:54)
#loc388 = loc("inductor_cache/w2/cw2wy7j5az27icqpcw4kter4ilhne3xydkc4siocpk4cfid2x3ub.py":225:80)
#loc389 = loc("inductor_cache/w2/cw2wy7j5az27icqpcw4kter4ilhne3xydkc4siocpk4cfid2x3ub.py":225:36)
#loc390 = loc("inductor_cache/w2/cw2wy7j5az27icqpcw4kter4ilhne3xydkc4siocpk4cfid2x3ub.py":225:90)
#loc391 = loc("inductor_cache/w2/cw2wy7j5az27icqpcw4kter4ilhne3xydkc4siocpk4cfid2x3ub.py":226:54)
#loc392 = loc("inductor_cache/w2/cw2wy7j5az27icqpcw4kter4ilhne3xydkc4siocpk4cfid2x3ub.py":226:80)
#loc393 = loc("inductor_cache/w2/cw2wy7j5az27icqpcw4kter4ilhne3xydkc4siocpk4cfid2x3ub.py":226:36)
#loc394 = loc("inductor_cache/w2/cw2wy7j5az27icqpcw4kter4ilhne3xydkc4siocpk4cfid2x3ub.py":226:90)
#loc395 = loc("inductor_cache/w2/cw2wy7j5az27icqpcw4kter4ilhne3xydkc4siocpk4cfid2x3ub.py":227:41)
#loc396 = loc("inductor_cache/w2/cw2wy7j5az27icqpcw4kter4ilhne3xydkc4siocpk4cfid2x3ub.py":228:41)
#loc397 = loc("inductor_cache/w2/cw2wy7j5az27icqpcw4kter4ilhne3xydkc4siocpk4cfid2x3ub.py":229:54)
#loc398 = loc("inductor_cache/w2/cw2wy7j5az27icqpcw4kter4ilhne3xydkc4siocpk4cfid2x3ub.py":229:62)
#loc399 = loc("inductor_cache/w2/cw2wy7j5az27icqpcw4kter4ilhne3xydkc4siocpk4cfid2x3ub.py":229:36)
#loc400 = loc("inductor_cache/w2/cw2wy7j5az27icqpcw4kter4ilhne3xydkc4siocpk4cfid2x3ub.py":229:71)
#loc401 = loc("inductor_cache/w2/cw2wy7j5az27icqpcw4kter4ilhne3xydkc4siocpk4cfid2x3ub.py":230:26)
#loc402 = loc("inductor_cache/w2/cw2wy7j5az27icqpcw4kter4ilhne3xydkc4siocpk4cfid2x3ub.py":231:26)
#loc403 = loc("inductor_cache/w2/cw2wy7j5az27icqpcw4kter4ilhne3xydkc4siocpk4cfid2x3ub.py":232:44)
#loc404 = loc("inductor_cache/w2/cw2wy7j5az27icqpcw4kter4ilhne3xydkc4siocpk4cfid2x3ub.py":232:55)
#loc405 = loc("inductor_cache/w2/cw2wy7j5az27icqpcw4kter4ilhne3xydkc4siocpk4cfid2x3ub.py":232:72)
#loc406 = loc("inductor_cache/w2/cw2wy7j5az27icqpcw4kter4ilhne3xydkc4siocpk4cfid2x3ub.py":232:36)
#loc407 = loc("inductor_cache/w2/cw2wy7j5az27icqpcw4kter4ilhne3xydkc4siocpk4cfid2x3ub.py":232:82)
#loc408 = loc("inductor_cache/w2/cw2wy7j5az27icqpcw4kter4ilhne3xydkc4siocpk4cfid2x3ub.py":233:55)
#loc409 = loc("inductor_cache/w2/cw2wy7j5az27icqpcw4kter4ilhne3xydkc4siocpk4cfid2x3ub.py":233:81)
#loc410 = loc("inductor_cache/w2/cw2wy7j5az27icqpcw4kter4ilhne3xydkc4siocpk4cfid2x3ub.py":233:36)
#loc411 = loc("inductor_cache/w2/cw2wy7j5az27icqpcw4kter4ilhne3xydkc4siocpk4cfid2x3ub.py":233:91)
#loc412 = loc("inductor_cache/w2/cw2wy7j5az27icqpcw4kter4ilhne3xydkc4siocpk4cfid2x3ub.py":234:55)
#loc413 = loc("inductor_cache/w2/cw2wy7j5az27icqpcw4kter4ilhne3xydkc4siocpk4cfid2x3ub.py":234:81)
#loc414 = loc("inductor_cache/w2/cw2wy7j5az27icqpcw4kter4ilhne3xydkc4siocpk4cfid2x3ub.py":234:36)
#loc415 = loc("inductor_cache/w2/cw2wy7j5az27icqpcw4kter4ilhne3xydkc4siocpk4cfid2x3ub.py":234:91)
#loc416 = loc("inductor_cache/w2/cw2wy7j5az27icqpcw4kter4ilhne3xydkc4siocpk4cfid2x3ub.py":235:41)
#loc417 = loc("inductor_cache/w2/cw2wy7j5az27icqpcw4kter4ilhne3xydkc4siocpk4cfid2x3ub.py":236:41)
#loc418 = loc("inductor_cache/w2/cw2wy7j5az27icqpcw4kter4ilhne3xydkc4siocpk4cfid2x3ub.py":237:55)
#loc419 = loc("inductor_cache/w2/cw2wy7j5az27icqpcw4kter4ilhne3xydkc4siocpk4cfid2x3ub.py":237:63)
#loc420 = loc("inductor_cache/w2/cw2wy7j5az27icqpcw4kter4ilhne3xydkc4siocpk4cfid2x3ub.py":237:36)
#loc421 = loc("inductor_cache/w2/cw2wy7j5az27icqpcw4kter4ilhne3xydkc4siocpk4cfid2x3ub.py":237:72)
#loc422 = loc("inductor_cache/w2/cw2wy7j5az27icqpcw4kter4ilhne3xydkc4siocpk4cfid2x3ub.py":238:26)
#loc423 = loc("inductor_cache/w2/cw2wy7j5az27icqpcw4kter4ilhne3xydkc4siocpk4cfid2x3ub.py":239:26)
#loc424 = loc("inductor_cache/w2/cw2wy7j5az27icqpcw4kter4ilhne3xydkc4siocpk4cfid2x3ub.py":240:44)
#loc425 = loc("inductor_cache/w2/cw2wy7j5az27icqpcw4kter4ilhne3xydkc4siocpk4cfid2x3ub.py":240:55)
#loc426 = loc("inductor_cache/w2/cw2wy7j5az27icqpcw4kter4ilhne3xydkc4siocpk4cfid2x3ub.py":240:72)
#loc427 = loc("inductor_cache/w2/cw2wy7j5az27icqpcw4kter4ilhne3xydkc4siocpk4cfid2x3ub.py":240:36)
#loc428 = loc("inductor_cache/w2/cw2wy7j5az27icqpcw4kter4ilhne3xydkc4siocpk4cfid2x3ub.py":240:82)
#loc429 = loc("inductor_cache/w2/cw2wy7j5az27icqpcw4kter4ilhne3xydkc4siocpk4cfid2x3ub.py":241:55)
#loc430 = loc("inductor_cache/w2/cw2wy7j5az27icqpcw4kter4ilhne3xydkc4siocpk4cfid2x3ub.py":241:81)
#loc431 = loc("inductor_cache/w2/cw2wy7j5az27icqpcw4kter4ilhne3xydkc4siocpk4cfid2x3ub.py":241:36)
#loc432 = loc("inductor_cache/w2/cw2wy7j5az27icqpcw4kter4ilhne3xydkc4siocpk4cfid2x3ub.py":241:91)
#loc433 = loc("inductor_cache/w2/cw2wy7j5az27icqpcw4kter4ilhne3xydkc4siocpk4cfid2x3ub.py":242:55)
#loc434 = loc("inductor_cache/w2/cw2wy7j5az27icqpcw4kter4ilhne3xydkc4siocpk4cfid2x3ub.py":242:81)
#loc435 = loc("inductor_cache/w2/cw2wy7j5az27icqpcw4kter4ilhne3xydkc4siocpk4cfid2x3ub.py":242:36)
#loc436 = loc("inductor_cache/w2/cw2wy7j5az27icqpcw4kter4ilhne3xydkc4siocpk4cfid2x3ub.py":242:91)
#loc437 = loc("inductor_cache/w2/cw2wy7j5az27icqpcw4kter4ilhne3xydkc4siocpk4cfid2x3ub.py":243:41)
#loc438 = loc("inductor_cache/w2/cw2wy7j5az27icqpcw4kter4ilhne3xydkc4siocpk4cfid2x3ub.py":244:41)
#loc439 = loc("inductor_cache/w2/cw2wy7j5az27icqpcw4kter4ilhne3xydkc4siocpk4cfid2x3ub.py":245:55)
#loc440 = loc("inductor_cache/w2/cw2wy7j5az27icqpcw4kter4ilhne3xydkc4siocpk4cfid2x3ub.py":245:63)
#loc441 = loc("inductor_cache/w2/cw2wy7j5az27icqpcw4kter4ilhne3xydkc4siocpk4cfid2x3ub.py":245:36)
#loc442 = loc("inductor_cache/w2/cw2wy7j5az27icqpcw4kter4ilhne3xydkc4siocpk4cfid2x3ub.py":245:72)
#loc443 = loc("inductor_cache/w2/cw2wy7j5az27icqpcw4kter4ilhne3xydkc4siocpk4cfid2x3ub.py":246:26)
#loc444 = loc("inductor_cache/w2/cw2wy7j5az27icqpcw4kter4ilhne3xydkc4siocpk4cfid2x3ub.py":247:26)
#loc445 = loc("inductor_cache/w2/cw2wy7j5az27icqpcw4kter4ilhne3xydkc4siocpk4cfid2x3ub.py":248:44)
#loc446 = loc("inductor_cache/w2/cw2wy7j5az27icqpcw4kter4ilhne3xydkc4siocpk4cfid2x3ub.py":248:55)
#loc447 = loc("inductor_cache/w2/cw2wy7j5az27icqpcw4kter4ilhne3xydkc4siocpk4cfid2x3ub.py":248:72)
#loc448 = loc("inductor_cache/w2/cw2wy7j5az27icqpcw4kter4ilhne3xydkc4siocpk4cfid2x3ub.py":248:36)
#loc449 = loc("inductor_cache/w2/cw2wy7j5az27icqpcw4kter4ilhne3xydkc4siocpk4cfid2x3ub.py":248:82)
#loc450 = loc("inductor_cache/w2/cw2wy7j5az27icqpcw4kter4ilhne3xydkc4siocpk4cfid2x3ub.py":249:55)
#loc451 = loc("inductor_cache/w2/cw2wy7j5az27icqpcw4kter4ilhne3xydkc4siocpk4cfid2x3ub.py":249:81)
#loc452 = loc("inductor_cache/w2/cw2wy7j5az27icqpcw4kter4ilhne3xydkc4siocpk4cfid2x3ub.py":249:36)
#loc453 = loc("inductor_cache/w2/cw2wy7j5az27icqpcw4kter4ilhne3xydkc4siocpk4cfid2x3ub.py":249:91)
#loc454 = loc("inductor_cache/w2/cw2wy7j5az27icqpcw4kter4ilhne3xydkc4siocpk4cfid2x3ub.py":250:55)
#loc455 = loc("inductor_cache/w2/cw2wy7j5az27icqpcw4kter4ilhne3xydkc4siocpk4cfid2x3ub.py":250:81)
#loc456 = loc("inductor_cache/w2/cw2wy7j5az27icqpcw4kter4ilhne3xydkc4siocpk4cfid2x3ub.py":250:36)
#loc457 = loc("inductor_cache/w2/cw2wy7j5az27icqpcw4kter4ilhne3xydkc4siocpk4cfid2x3ub.py":250:91)
#loc458 = loc("inductor_cache/w2/cw2wy7j5az27icqpcw4kter4ilhne3xydkc4siocpk4cfid2x3ub.py":251:41)
#loc459 = loc("inductor_cache/w2/cw2wy7j5az27icqpcw4kter4ilhne3xydkc4siocpk4cfid2x3ub.py":252:41)
#loc460 = loc("inductor_cache/w2/cw2wy7j5az27icqpcw4kter4ilhne3xydkc4siocpk4cfid2x3ub.py":253:55)
#loc461 = loc("inductor_cache/w2/cw2wy7j5az27icqpcw4kter4ilhne3xydkc4siocpk4cfid2x3ub.py":253:63)
#loc462 = loc("inductor_cache/w2/cw2wy7j5az27icqpcw4kter4ilhne3xydkc4siocpk4cfid2x3ub.py":253:36)
#loc463 = loc("inductor_cache/w2/cw2wy7j5az27icqpcw4kter4ilhne3xydkc4siocpk4cfid2x3ub.py":253:72)
#loc464 = loc("inductor_cache/w2/cw2wy7j5az27icqpcw4kter4ilhne3xydkc4siocpk4cfid2x3ub.py":254:26)
#loc465 = loc("inductor_cache/w2/cw2wy7j5az27icqpcw4kter4ilhne3xydkc4siocpk4cfid2x3ub.py":255:26)
#loc466 = loc("inductor_cache/w2/cw2wy7j5az27icqpcw4kter4ilhne3xydkc4siocpk4cfid2x3ub.py":256:25)
#loc467 = loc("inductor_cache/w2/cw2wy7j5az27icqpcw4kter4ilhne3xydkc4siocpk4cfid2x3ub.py":257:26)
#loc468 = loc("inductor_cache/w2/cw2wy7j5az27icqpcw4kter4ilhne3xydkc4siocpk4cfid2x3ub.py":258:26)
#loc469 = loc("inductor_cache/w2/cw2wy7j5az27icqpcw4kter4ilhne3xydkc4siocpk4cfid2x3ub.py":260:27)
#loc470 = loc("inductor_cache/w2/cw2wy7j5az27icqpcw4kter4ilhne3xydkc4siocpk4cfid2x3ub.py":261:26)
#loc471 = loc("inductor_cache/w2/cw2wy7j5az27icqpcw4kter4ilhne3xydkc4siocpk4cfid2x3ub.py":262:33)
#loc472 = loc("inductor_cache/w2/cw2wy7j5az27icqpcw4kter4ilhne3xydkc4siocpk4cfid2x3ub.py":263:26)
#loc473 = loc("inductor_cache/w2/cw2wy7j5az27icqpcw4kter4ilhne3xydkc4siocpk4cfid2x3ub.py":264:48)
#loc474 = loc("inductor_cache/w2/cw2wy7j5az27icqpcw4kter4ilhne3xydkc4siocpk4cfid2x3ub.py":265:48)
#loc475 = loc("inductor_cache/w2/cw2wy7j5az27icqpcw4kter4ilhne3xydkc4siocpk4cfid2x3ub.py":266:26)
#loc476 = loc("inductor_cache/w2/cw2wy7j5az27icqpcw4kter4ilhne3xydkc4siocpk4cfid2x3ub.py":267:26)
#loc477 = loc("inductor_cache/w2/cw2wy7j5az27icqpcw4kter4ilhne3xydkc4siocpk4cfid2x3ub.py":268:26)
#loc478 = loc("inductor_cache/w2/cw2wy7j5az27icqpcw4kter4ilhne3xydkc4siocpk4cfid2x3ub.py":269:26)
#loc479 = loc("inductor_cache/w2/cw2wy7j5az27icqpcw4kter4ilhne3xydkc4siocpk4cfid2x3ub.py":270:26)
#loc480 = loc("inductor_cache/w2/cw2wy7j5az27icqpcw4kter4ilhne3xydkc4siocpk4cfid2x3ub.py":271:26)
#loc481 = loc("inductor_cache/w2/cw2wy7j5az27icqpcw4kter4ilhne3xydkc4siocpk4cfid2x3ub.py":272:26)
#loc482 = loc("inductor_cache/w2/cw2wy7j5az27icqpcw4kter4ilhne3xydkc4siocpk4cfid2x3ub.py":273:26)
#loc483 = loc("inductor_cache/w2/cw2wy7j5az27icqpcw4kter4ilhne3xydkc4siocpk4cfid2x3ub.py":274:26)
#loc484 = loc("inductor_cache/w2/cw2wy7j5az27icqpcw4kter4ilhne3xydkc4siocpk4cfid2x3ub.py":275:26)
#loc485 = loc("inductor_cache/w2/cw2wy7j5az27icqpcw4kter4ilhne3xydkc4siocpk4cfid2x3ub.py":276:26)
#loc486 = loc("inductor_cache/w2/cw2wy7j5az27icqpcw4kter4ilhne3xydkc4siocpk4cfid2x3ub.py":277:26)
#loc487 = loc("inductor_cache/w2/cw2wy7j5az27icqpcw4kter4ilhne3xydkc4siocpk4cfid2x3ub.py":278:26)
#loc488 = loc("inductor_cache/w2/cw2wy7j5az27icqpcw4kter4ilhne3xydkc4siocpk4cfid2x3ub.py":279:26)
#loc489 = loc("inductor_cache/w2/cw2wy7j5az27icqpcw4kter4ilhne3xydkc4siocpk4cfid2x3ub.py":280:26)
#loc490 = loc("inductor_cache/w2/cw2wy7j5az27icqpcw4kter4ilhne3xydkc4siocpk4cfid2x3ub.py":281:26)
#loc491 = loc("inductor_cache/w2/cw2wy7j5az27icqpcw4kter4ilhne3xydkc4siocpk4cfid2x3ub.py":282:26)
#loc492 = loc("inductor_cache/w2/cw2wy7j5az27icqpcw4kter4ilhne3xydkc4siocpk4cfid2x3ub.py":283:26)
#loc493 = loc("inductor_cache/w2/cw2wy7j5az27icqpcw4kter4ilhne3xydkc4siocpk4cfid2x3ub.py":284:26)
#loc494 = loc("inductor_cache/w2/cw2wy7j5az27icqpcw4kter4ilhne3xydkc4siocpk4cfid2x3ub.py":285:26)
#loc495 = loc("inductor_cache/w2/cw2wy7j5az27icqpcw4kter4ilhne3xydkc4siocpk4cfid2x3ub.py":286:26)
#loc496 = loc("inductor_cache/w2/cw2wy7j5az27icqpcw4kter4ilhne3xydkc4siocpk4cfid2x3ub.py":287:25)
#loc497 = loc("inductor_cache/w2/cw2wy7j5az27icqpcw4kter4ilhne3xydkc4siocpk4cfid2x3ub.py":288:26)
#loc498 = loc("inductor_cache/w2/cw2wy7j5az27icqpcw4kter4ilhne3xydkc4siocpk4cfid2x3ub.py":289:26)
#loc499 = loc("inductor_cache/w2/cw2wy7j5az27icqpcw4kter4ilhne3xydkc4siocpk4cfid2x3ub.py":290:26)
#loc500 = loc("inductor_cache/w2/cw2wy7j5az27icqpcw4kter4ilhne3xydkc4siocpk4cfid2x3ub.py":291:26)
#loc501 = loc("inductor_cache/w2/cw2wy7j5az27icqpcw4kter4ilhne3xydkc4siocpk4cfid2x3ub.py":292:26)
#loc502 = loc("inductor_cache/w2/cw2wy7j5az27icqpcw4kter4ilhne3xydkc4siocpk4cfid2x3ub.py":293:26)
#loc503 = loc("inductor_cache/w2/cw2wy7j5az27icqpcw4kter4ilhne3xydkc4siocpk4cfid2x3ub.py":294:26)
#loc504 = loc("inductor_cache/w2/cw2wy7j5az27icqpcw4kter4ilhne3xydkc4siocpk4cfid2x3ub.py":295:26)
#loc505 = loc("inductor_cache/w2/cw2wy7j5az27icqpcw4kter4ilhne3xydkc4siocpk4cfid2x3ub.py":296:26)
#loc506 = loc("inductor_cache/w2/cw2wy7j5az27icqpcw4kter4ilhne3xydkc4siocpk4cfid2x3ub.py":297:26)
#loc507 = loc("inductor_cache/w2/cw2wy7j5az27icqpcw4kter4ilhne3xydkc4siocpk4cfid2x3ub.py":298:25)
#loc508 = loc("inductor_cache/w2/cw2wy7j5az27icqpcw4kter4ilhne3xydkc4siocpk4cfid2x3ub.py":299:26)
#loc509 = loc("inductor_cache/w2/cw2wy7j5az27icqpcw4kter4ilhne3xydkc4siocpk4cfid2x3ub.py":300:26)
#loc510 = loc("inductor_cache/w2/cw2wy7j5az27icqpcw4kter4ilhne3xydkc4siocpk4cfid2x3ub.py":301:26)
#loc511 = loc("inductor_cache/w2/cw2wy7j5az27icqpcw4kter4ilhne3xydkc4siocpk4cfid2x3ub.py":302:26)
#loc512 = loc("inductor_cache/w2/cw2wy7j5az27icqpcw4kter4ilhne3xydkc4siocpk4cfid2x3ub.py":303:26)
#loc513 = loc("inductor_cache/w2/cw2wy7j5az27icqpcw4kter4ilhne3xydkc4siocpk4cfid2x3ub.py":304:26)
#loc514 = loc("inductor_cache/w2/cw2wy7j5az27icqpcw4kter4ilhne3xydkc4siocpk4cfid2x3ub.py":305:26)
#loc515 = loc("inductor_cache/w2/cw2wy7j5az27icqpcw4kter4ilhne3xydkc4siocpk4cfid2x3ub.py":306:26)
#loc516 = loc("inductor_cache/w2/cw2wy7j5az27icqpcw4kter4ilhne3xydkc4siocpk4cfid2x3ub.py":307:46)
#loc517 = loc("inductor_cache/w2/cw2wy7j5az27icqpcw4kter4ilhne3xydkc4siocpk4cfid2x3ub.py":307:42)
#loc518 = loc("inductor_cache/w2/cw2wy7j5az27icqpcw4kter4ilhne3xydkc4siocpk4cfid2x3ub.py":307:64)
#loc519 = loc("inductor_cache/w2/cw2wy7j5az27icqpcw4kter4ilhne3xydkc4siocpk4cfid2x3ub.py":307:59)
#loc520 = loc("inductor_cache/w2/cw2wy7j5az27icqpcw4kter4ilhne3xydkc4siocpk4cfid2x3ub.py":307:37)
#loc521 = loc("inductor_cache/w2/cw2wy7j5az27icqpcw4kter4ilhne3xydkc4siocpk4cfid2x3ub.py":307:69)
#loc522 = loc("inductor_cache/w2/cw2wy7j5az27icqpcw4kter4ilhne3xydkc4siocpk4cfid2x3ub.py":308:46)
#loc523 = loc("inductor_cache/w2/cw2wy7j5az27icqpcw4kter4ilhne3xydkc4siocpk4cfid2x3ub.py":308:42)
#loc524 = loc("inductor_cache/w2/cw2wy7j5az27icqpcw4kter4ilhne3xydkc4siocpk4cfid2x3ub.py":308:73)
#loc525 = loc("inductor_cache/w2/cw2wy7j5az27icqpcw4kter4ilhne3xydkc4siocpk4cfid2x3ub.py":308:68)
#loc526 = loc("inductor_cache/w2/cw2wy7j5az27icqpcw4kter4ilhne3xydkc4siocpk4cfid2x3ub.py":308:37)
#loc527 = loc("inductor_cache/w2/cw2wy7j5az27icqpcw4kter4ilhne3xydkc4siocpk4cfid2x3ub.py":308:78)
#loc528 = loc("inductor_cache/w2/cw2wy7j5az27icqpcw4kter4ilhne3xydkc4siocpk4cfid2x3ub.py":309:46)
#loc529 = loc("inductor_cache/w2/cw2wy7j5az27icqpcw4kter4ilhne3xydkc4siocpk4cfid2x3ub.py":309:42)
#loc530 = loc("inductor_cache/w2/cw2wy7j5az27icqpcw4kter4ilhne3xydkc4siocpk4cfid2x3ub.py":309:68)
#loc531 = loc("inductor_cache/w2/cw2wy7j5az27icqpcw4kter4ilhne3xydkc4siocpk4cfid2x3ub.py":309:37)
#loc532 = loc("inductor_cache/w2/cw2wy7j5az27icqpcw4kter4ilhne3xydkc4siocpk4cfid2x3ub.py":309:78)
#loc533 = loc("inductor_cache/w2/cw2wy7j5az27icqpcw4kter4ilhne3xydkc4siocpk4cfid2x3ub.py":310:41)
#loc534 = loc("inductor_cache/w2/cw2wy7j5az27icqpcw4kter4ilhne3xydkc4siocpk4cfid2x3ub.py":311:41)
#loc535 = loc("inductor_cache/w2/cw2wy7j5az27icqpcw4kter4ilhne3xydkc4siocpk4cfid2x3ub.py":312:26)
#loc536 = loc("inductor_cache/w2/cw2wy7j5az27icqpcw4kter4ilhne3xydkc4siocpk4cfid2x3ub.py":313:26)
#loc537 = loc("inductor_cache/w2/cw2wy7j5az27icqpcw4kter4ilhne3xydkc4siocpk4cfid2x3ub.py":318:64)
#loc538 = loc("inductor_cache/w2/cw2wy7j5az27icqpcw4kter4ilhne3xydkc4siocpk4cfid2x3ub.py":320:68)
#loc539 = loc("inductor_cache/w2/cw2wy7j5az27icqpcw4kter4ilhne3xydkc4siocpk4cfid2x3ub.py":321:32)
#loc540 = loc("inductor_cache/w2/cw2wy7j5az27icqpcw4kter4ilhne3xydkc4siocpk4cfid2x3ub.py":321:54)
#loc541 = loc("/home/sahanp/.conda/envs/parity-bench/lib/python3.12/site-packages/torch/_inductor/runtime/triton_helpers.py":204:46)
#loc543 = loc("/home/sahanp/.conda/envs/parity-bench/lib/python3.12/site-packages/torch/_inductor/runtime/triton_helpers.py":192:21)
#loc544 = loc("/home/sahanp/.conda/envs/parity-bench/lib/python3.12/site-packages/torch/_inductor/runtime/triton_helpers.py":193:28)
#loc545 = loc("/home/sahanp/.conda/envs/parity-bench/lib/python3.12/site-packages/torch/_inductor/runtime/triton_helpers.py":194:39)
#loc546 = loc("/home/sahanp/.conda/envs/parity-bench/lib/python3.12/site-packages/torch/_inductor/runtime/triton_helpers.py":194:60)
#loc547 = loc("/home/sahanp/.conda/envs/parity-bench/lib/python3.12/site-packages/torch/_inductor/runtime/triton_helpers.py":194:49)
#loc548 = loc("/home/sahanp/.conda/envs/parity-bench/lib/python3.12/site-packages/torch/_inductor/runtime/triton_helpers.py":196:25)
#loc549 = loc("/home/sahanp/.conda/envs/parity-bench/lib/python3.12/site-packages/torch/_inductor/runtime/triton_helpers.py":196:17)
#loc550 = loc("/home/sahanp/.conda/envs/parity-bench/lib/python3.12/site-packages/torch/_inductor/runtime/triton_helpers.py":197:15)
#loc551 = loc("/home/sahanp/.conda/envs/parity-bench/lib/python3.12/site-packages/torch/_inductor/runtime/triton_helpers.py":197:30)
#loc552 = loc("/home/sahanp/.conda/envs/parity-bench/lib/python3.12/site-packages/torch/_inductor/runtime/triton_helpers.py":197:38)
#loc553 = loc("/home/sahanp/.conda/envs/parity-bench/lib/python3.12/site-packages/torch/_inductor/runtime/triton_helpers.py":197:49)
#loc554 = loc("/home/sahanp/.conda/envs/parity-bench/lib/python3.12/site-packages/torch/_inductor/runtime/triton_helpers.py":197:22)
#loc555 = loc("inductor_cache/w2/cw2wy7j5az27icqpcw4kter4ilhne3xydkc4siocpk4cfid2x3ub.py":325:24)
#loc556 = loc("inductor_cache/w2/cw2wy7j5az27icqpcw4kter4ilhne3xydkc4siocpk4cfid2x3ub.py":326:24)
#loc557 = loc("inductor_cache/w2/cw2wy7j5az27icqpcw4kter4ilhne3xydkc4siocpk4cfid2x3ub.py":328:26)
#loc558 = loc("inductor_cache/w2/cw2wy7j5az27icqpcw4kter4ilhne3xydkc4siocpk4cfid2x3ub.py":328:39)
#loc559 = loc("inductor_cache/w2/cw2wy7j5az27icqpcw4kter4ilhne3xydkc4siocpk4cfid2x3ub.py":329:26)
#loc560 = loc("inductor_cache/w2/cw2wy7j5az27icqpcw4kter4ilhne3xydkc4siocpk4cfid2x3ub.py":329:39)
#loc561 = loc("inductor_cache/w2/cw2wy7j5az27icqpcw4kter4ilhne3xydkc4siocpk4cfid2x3ub.py":331:22)
#loc562 = loc("inductor_cache/w2/cw2wy7j5az27icqpcw4kter4ilhne3xydkc4siocpk4cfid2x3ub.py":333:22)
#loc563 = loc("inductor_cache/w2/cw2wy7j5az27icqpcw4kter4ilhne3xydkc4siocpk4cfid2x3ub.py":334:29)
#loc564 = loc("inductor_cache/w2/cw2wy7j5az27icqpcw4kter4ilhne3xydkc4siocpk4cfid2x3ub.py":335:26)
#loc565 = loc("inductor_cache/w2/cw2wy7j5az27icqpcw4kter4ilhne3xydkc4siocpk4cfid2x3ub.py":335:39)
#loc566 = loc("inductor_cache/w2/cw2wy7j5az27icqpcw4kter4ilhne3xydkc4siocpk4cfid2x3ub.py":335:4)
#loc567 = loc(callsite(#loc94 at #loc95))
#loc568 = loc(callsite(#loc96 at #loc95))
#loc569 = loc(callsite(#loc97 at #loc95))
#loc570 = loc(callsite(#loc98 at #loc95))
#loc571 = loc(callsite(#loc99 at #loc100))
#loc572 = loc(callsite(#loc101 at #loc100))
#loc573 = loc(callsite(#loc102 at #loc100))
#loc574 = loc(callsite(#loc103 at #loc100))
#loc575 = loc(callsite(#loc94 at #loc473))
#loc576 = loc(callsite(#loc96 at #loc473))
#loc577 = loc(callsite(#loc97 at #loc473))
#loc578 = loc(callsite(#loc98 at #loc473))
#loc579 = loc(callsite(#loc99 at #loc474))
#loc580 = loc(callsite(#loc101 at #loc474))
#loc581 = loc(callsite(#loc102 at #loc474))
#loc582 = loc(callsite(#loc103 at #loc474))
#loc583 = loc(callsite(#loc541 at #loc542))
#loc585 = loc(callsite(#loc543 at #loc541))
#loc586 = loc(callsite(#loc544 at #loc541))
#loc587 = loc(callsite(#loc545 at #loc541))
#loc588 = loc(callsite(#loc546 at #loc541))
#loc589 = loc(callsite(#loc547 at #loc541))
#loc590 = loc(callsite(#loc548 at #loc541))
#loc591 = loc(callsite(#loc549 at #loc541))
#loc592 = loc(callsite(#loc550 at #loc541))
#loc593 = loc(callsite(#loc551 at #loc541))
#loc594 = loc(callsite(#loc552 at #loc541))
#loc595 = loc(callsite(#loc553 at #loc541))
#loc596 = loc(callsite(#loc554 at #loc541))
#loc597 = loc(callsite(#loc585 at #loc542))
#loc598 = loc(callsite(#loc586 at #loc542))
#loc599 = loc(callsite(#loc587 at #loc542))
#loc600 = loc(callsite(#loc588 at #loc542))
#loc601 = loc(callsite(#loc589 at #loc542))
#loc602 = loc(callsite(#loc590 at #loc542))
#loc603 = loc(callsite(#loc591 at #loc542))
#loc604 = loc(callsite(#loc592 at #loc542))
#loc605 = loc(callsite(#loc593 at #loc542))
#loc606 = loc(callsite(#loc594 at #loc542))
#loc607 = loc(callsite(#loc595 at #loc542))
#loc608 = loc(callsite(#loc596 at #loc542))
