#loc = loc("inductor_cache/qu/cqu6pfeqhesuehadha3fbvu5ike2tefs5qdw24uibtx4gnv7njy7.py":19:0)
module {
  tt.func public @triton_poi_fused_add_42(%arg0: !tt.ptr<f32> {tt.divisibility = 16 : i32} loc("inductor_cache/qu/cqu6pfeqhesuehadha3fbvu5ike2tefs5qdw24uibtx4gnv7njy7.py":19:0), %arg1: !tt.ptr<f32> {tt.divisibility = 16 : i32} loc("inductor_cache/qu/cqu6pfeqhesuehadha3fbvu5ike2tefs5qdw24uibtx4gnv7njy7.py":19:0), %arg2: !tt.ptr<f32> {tt.divisibility = 16 : i32} loc("inductor_cache/qu/cqu6pfeqhesuehadha3fbvu5ike2tefs5qdw24uibtx4gnv7njy7.py":19:0), %arg3: !tt.ptr<f32> {tt.divisibility = 16 : i32} loc("inductor_cache/qu/cqu6pfeqhesuehadha3fbvu5ike2tefs5qdw24uibtx4gnv7njy7.py":19:0), %arg4: !tt.ptr<f32> {tt.divisibility = 16 : i32} loc("inductor_cache/qu/cqu6pfeqhesuehadha3fbvu5ike2tefs5qdw24uibtx4gnv7njy7.py":19:0), %arg5: i32 {tt.divisibility = 16 : i32} loc("inductor_cache/qu/cqu6pfeqhesuehadha3fbvu5ike2tefs5qdw24uibtx4gnv7njy7.py":19:0), %arg6: i32 {tt.divisibility = 16 : i32} loc("inductor_cache/qu/cqu6pfeqhesuehadha3fbvu5ike2tefs5qdw24uibtx4gnv7njy7.py":19:0)) attributes {noinline = false} {
    %c2048_i32 = arith.constant 2048 : i32 loc(#loc1)
    %c16_i32 = arith.constant 16 : i32 loc(#loc1)
    %cst = arith.constant dense<16> : tensor<1x256xi32> loc(#loc1)
    %cst_0 = arith.constant dense<512> : tensor<1x256xi32> loc(#loc1)
    %c256_i32 = arith.constant 256 : i32 loc(#loc1)
    %0 = tt.get_program_id y : i32 loc(#loc2)
    %1 = arith.muli %0, %c256_i32 : i32 loc(#loc3)
    %2 = tt.make_range {end = 256 : i32, start = 0 : i32} : tensor<256xi32> loc(#loc4)
    %3 = tt.expand_dims %2 {axis = 0 : i32} : tensor<256xi32> -> tensor<1x256xi32> loc(#loc5)
    %4 = tt.splat %1 : i32 -> tensor<1x256xi32> loc(#loc6)
    %5 = arith.addi %4, %3 : tensor<1x256xi32> loc(#loc6)
    %6 = tt.get_program_id x : i32 loc(#loc7)
    %7 = arith.cmpi slt, %6, %c16_i32 : i32 loc(#loc8)
    %8 = arith.remsi %5, %cst_0 : tensor<1x256xi32> loc(#loc9)
    %9 = arith.muli %5, %cst : tensor<1x256xi32> loc(#loc10)
    %10 = tt.splat %6 : i32 -> tensor<1x256xi32> loc(#loc11)
    %11 = arith.addi %10, %9 : tensor<1x256xi32> loc(#loc11)
    %12 = tt.splat %arg0 : !tt.ptr<f32> -> tensor<1x256x!tt.ptr<f32>> loc(#loc12)
    %13 = tt.addptr %12, %11 : tensor<1x256x!tt.ptr<f32>>, tensor<1x256xi32> loc(#loc12)
    %14 = tt.splat %7 : i1 -> tensor<1x256xi1> loc(#loc13)
    %15 = tt.load %13, %14 evictionPolicy = evict_last : tensor<1x256x!tt.ptr<f32>> loc(#loc13)
    %16 = tt.splat %arg1 : !tt.ptr<f32> -> tensor<1x256x!tt.ptr<f32>> loc(#loc14)
    %17 = tt.addptr %16, %11 : tensor<1x256x!tt.ptr<f32>>, tensor<1x256xi32> loc(#loc14)
    %18 = tt.load %17, %14 evictionPolicy = evict_last : tensor<1x256x!tt.ptr<f32>> loc(#loc15)
    %19 = arith.muli %6, %c2048_i32 : i32 loc(#loc16)
    %20 = tt.splat %19 : i32 -> tensor<1x256xi32> loc(#loc17)
    %21 = arith.addi %5, %20 : tensor<1x256xi32> loc(#loc17)
    %22 = tt.splat %arg2 : !tt.ptr<f32> -> tensor<1x256x!tt.ptr<f32>> loc(#loc18)
    %23 = tt.addptr %22, %21 : tensor<1x256x!tt.ptr<f32>>, tensor<1x256xi32> loc(#loc18)
    %24 = tt.load %23, %14 evictionPolicy = evict_last : tensor<1x256x!tt.ptr<f32>> loc(#loc19)
    %25 = tt.splat %arg3 : !tt.ptr<f32> -> tensor<1x256x!tt.ptr<f32>> loc(#loc20)
    %26 = tt.addptr %25, %8 : tensor<1x256x!tt.ptr<f32>>, tensor<1x256xi32> loc(#loc20)
    %27 = tt.load %26 evictionPolicy = evict_last : tensor<1x256x!tt.ptr<f32>> loc(#loc21)
    %28 = arith.addf %15, %18 : tensor<1x256xf32> loc(#loc22)
    %29 = arith.addf %24, %27 : tensor<1x256xf32> loc(#loc23)
    %30 = arith.addf %28, %29 : tensor<1x256xf32> loc(#loc24)
    %31 = tt.splat %arg4 : !tt.ptr<f32> -> tensor<1x256x!tt.ptr<f32>> loc(#loc25)
    %32 = tt.addptr %31, %11 : tensor<1x256x!tt.ptr<f32>>, tensor<1x256xi32> loc(#loc25)
    tt.store %32, %30, %14 : tensor<1x256x!tt.ptr<f32>> loc(#loc26)
    tt.return loc(#loc27)
  } loc(#loc)
} loc(#loc)
#loc1 = loc(unknown)
#loc2 = loc("inductor_cache/qu/cqu6pfeqhesuehadha3fbvu5ike2tefs5qdw24uibtx4gnv7njy7.py":22:28)
#loc3 = loc("inductor_cache/qu/cqu6pfeqhesuehadha3fbvu5ike2tefs5qdw24uibtx4gnv7njy7.py":22:33)
#loc4 = loc("inductor_cache/qu/cqu6pfeqhesuehadha3fbvu5ike2tefs5qdw24uibtx4gnv7njy7.py":23:36)
#loc5 = loc("inductor_cache/qu/cqu6pfeqhesuehadha3fbvu5ike2tefs5qdw24uibtx4gnv7njy7.py":23:44)
#loc6 = loc("inductor_cache/qu/cqu6pfeqhesuehadha3fbvu5ike2tefs5qdw24uibtx4gnv7njy7.py":23:23)
#loc7 = loc("inductor_cache/qu/cqu6pfeqhesuehadha3fbvu5ike2tefs5qdw24uibtx4gnv7njy7.py":25:28)
#loc8 = loc("inductor_cache/qu/cqu6pfeqhesuehadha3fbvu5ike2tefs5qdw24uibtx4gnv7njy7.py":27:21)
#loc9 = loc("inductor_cache/qu/cqu6pfeqhesuehadha3fbvu5ike2tefs5qdw24uibtx4gnv7njy7.py":30:19)
#loc10 = loc("inductor_cache/qu/cqu6pfeqhesuehadha3fbvu5ike2tefs5qdw24uibtx4gnv7njy7.py":31:38)
#loc11 = loc("inductor_cache/qu/cqu6pfeqhesuehadha3fbvu5ike2tefs5qdw24uibtx4gnv7njy7.py":31:35)
#loc12 = loc("inductor_cache/qu/cqu6pfeqhesuehadha3fbvu5ike2tefs5qdw24uibtx4gnv7njy7.py":31:30)
#loc13 = loc("inductor_cache/qu/cqu6pfeqhesuehadha3fbvu5ike2tefs5qdw24uibtx4gnv7njy7.py":31:43)
#loc14 = loc("inductor_cache/qu/cqu6pfeqhesuehadha3fbvu5ike2tefs5qdw24uibtx4gnv7njy7.py":32:30)
#loc15 = loc("inductor_cache/qu/cqu6pfeqhesuehadha3fbvu5ike2tefs5qdw24uibtx4gnv7njy7.py":32:43)
#loc16 = loc("inductor_cache/qu/cqu6pfeqhesuehadha3fbvu5ike2tefs5qdw24uibtx4gnv7njy7.py":33:40)
#loc17 = loc("inductor_cache/qu/cqu6pfeqhesuehadha3fbvu5ike2tefs5qdw24uibtx4gnv7njy7.py":33:35)
#loc18 = loc("inductor_cache/qu/cqu6pfeqhesuehadha3fbvu5ike2tefs5qdw24uibtx4gnv7njy7.py":33:30)
#loc19 = loc("inductor_cache/qu/cqu6pfeqhesuehadha3fbvu5ike2tefs5qdw24uibtx4gnv7njy7.py":33:45)
#loc20 = loc("inductor_cache/qu/cqu6pfeqhesuehadha3fbvu5ike2tefs5qdw24uibtx4gnv7njy7.py":34:30)
#loc21 = loc("inductor_cache/qu/cqu6pfeqhesuehadha3fbvu5ike2tefs5qdw24uibtx4gnv7njy7.py":34:35)
#loc22 = loc("inductor_cache/qu/cqu6pfeqhesuehadha3fbvu5ike2tefs5qdw24uibtx4gnv7njy7.py":35:18)
#loc23 = loc("inductor_cache/qu/cqu6pfeqhesuehadha3fbvu5ike2tefs5qdw24uibtx4gnv7njy7.py":36:18)
#loc24 = loc("inductor_cache/qu/cqu6pfeqhesuehadha3fbvu5ike2tefs5qdw24uibtx4gnv7njy7.py":37:18)
#loc25 = loc("inductor_cache/qu/cqu6pfeqhesuehadha3fbvu5ike2tefs5qdw24uibtx4gnv7njy7.py":38:25)
#loc26 = loc("inductor_cache/qu/cqu6pfeqhesuehadha3fbvu5ike2tefs5qdw24uibtx4gnv7njy7.py":38:44)
#loc27 = loc("inductor_cache/qu/cqu6pfeqhesuehadha3fbvu5ike2tefs5qdw24uibtx4gnv7njy7.py":38:4)
