#loc = loc("inductor_cache/k2/ck2sqgbb6iwu4vrgfukxirdgrlvhg7snbchapv2z6eumngfn5ok2.py":19:0)
module {
  tt.func public @triton_poi_fused_add_mul_native_layer_norm_9(%arg0: !tt.ptr<f32> {tt.divisibility = 16 : i32} loc("inductor_cache/k2/ck2sqgbb6iwu4vrgfukxirdgrlvhg7snbchapv2z6eumngfn5ok2.py":19:0), %arg1: !tt.ptr<f32> {tt.divisibility = 16 : i32} loc("inductor_cache/k2/ck2sqgbb6iwu4vrgfukxirdgrlvhg7snbchapv2z6eumngfn5ok2.py":19:0), %arg2: !tt.ptr<f32> {tt.divisibility = 16 : i32} loc("inductor_cache/k2/ck2sqgbb6iwu4vrgfukxirdgrlvhg7snbchapv2z6eumngfn5ok2.py":19:0), %arg3: !tt.ptr<f32> {tt.divisibility = 16 : i32} loc("inductor_cache/k2/ck2sqgbb6iwu4vrgfukxirdgrlvhg7snbchapv2z6eumngfn5ok2.py":19:0), %arg4: !tt.ptr<f32> {tt.divisibility = 16 : i32} loc("inductor_cache/k2/ck2sqgbb6iwu4vrgfukxirdgrlvhg7snbchapv2z6eumngfn5ok2.py":19:0), %arg5: !tt.ptr<f32> {tt.divisibility = 16 : i32} loc("inductor_cache/k2/ck2sqgbb6iwu4vrgfukxirdgrlvhg7snbchapv2z6eumngfn5ok2.py":19:0), %arg6: i32 {tt.divisibility = 16 : i32} loc("inductor_cache/k2/ck2sqgbb6iwu4vrgfukxirdgrlvhg7snbchapv2z6eumngfn5ok2.py":19:0)) attributes {noinline = false} {
    %cst = arith.constant dense<4.000000e+00> : tensor<16xf32> loc(#loc1)
    %cst_0 = arith.constant dense<11> : tensor<16xi32> loc(#loc1)
    %cst_1 = arith.constant dense<3> : tensor<16xi32> loc(#loc1)
    %c3_i32 = arith.constant 3 : i32 loc(#loc1)
    %cst_2 = arith.constant dense<10> : tensor<16xi32> loc(#loc1)
    %cst_3 = arith.constant dense<2> : tensor<16xi32> loc(#loc1)
    %c2_i32 = arith.constant 2 : i32 loc(#loc1)
    %cst_4 = arith.constant dense<9> : tensor<16xi32> loc(#loc1)
    %cst_5 = arith.constant dense<1> : tensor<16xi32> loc(#loc1)
    %c1_i32 = arith.constant 1 : i32 loc(#loc1)
    %c0_i32 = arith.constant 0 : i32 loc(#loc1)
    %cst_6 = arith.constant dense<8> : tensor<16xi32> loc(#loc1)
    %cst_7 = arith.constant dense<24> : tensor<16xi32> loc(#loc1)
    %cst_8 = arith.constant dense<4> : tensor<16xi32> loc(#loc1)
    %cst_9 = arith.constant dense<16> : tensor<16xi32> loc(#loc1)
    %c16_i32 = arith.constant 16 : i32 loc(#loc1)
    %0 = tt.get_program_id x : i32 loc(#loc2)
    %1 = arith.muli %0, %c16_i32 : i32 loc(#loc3)
    %2 = tt.make_range {end = 16 : i32, start = 0 : i32} : tensor<16xi32> loc(#loc4)
    %3 = tt.splat %1 : i32 -> tensor<16xi32> loc(#loc5)
    %4 = arith.addi %3, %2 : tensor<16xi32> loc(#loc5)
    %5 = arith.cmpi slt, %4, %cst_9 : tensor<16xi32> loc(#loc6)
    %6 = arith.remsi %4, %cst_8 : tensor<16xi32> loc(#loc7)
    %7 = arith.divsi %4, %cst_8 : tensor<16xi32> loc(#loc8)
    %8 = arith.muli %6, %cst_8 : tensor<16xi32> loc(#loc9)
    %9 = tt.splat %arg0 : !tt.ptr<f32> -> tensor<16x!tt.ptr<f32>> loc(#loc10)
    %10 = tt.addptr %9, %8 : tensor<16x!tt.ptr<f32>>, tensor<16xi32> loc(#loc10)
    %11 = tt.load %10, %5 evictionPolicy = evict_last : tensor<16x!tt.ptr<f32>> loc(#loc11)
    %12 = arith.muli %7, %cst_7 : tensor<16xi32> loc(#loc12)
    %13 = arith.addi %12, %cst_6 : tensor<16xi32> loc(#loc13)
    %14 = tt.splat %arg1 : !tt.ptr<f32> -> tensor<16x!tt.ptr<f32>> loc(#loc14)
    %15 = tt.addptr %14, %13 : tensor<16x!tt.ptr<f32>>, tensor<16xi32> loc(#loc14)
    %16 = tt.load %15, %5 evictionPolicy = evict_last : tensor<16x!tt.ptr<f32>> loc(#loc15)
    %17 = arith.muli %4, %cst_8 : tensor<16xi32> loc(#loc16)
    %18 = tt.splat %arg2 : !tt.ptr<f32> -> tensor<16x!tt.ptr<f32>> loc(#loc17)
    %19 = tt.addptr %18, %17 : tensor<16x!tt.ptr<f32>>, tensor<16xi32> loc(#loc17)
    %20 = tt.load %19, %5 evictionPolicy = evict_last : tensor<16x!tt.ptr<f32>> loc(#loc18)
    %21 = tt.addptr %arg3, %c0_i32 : !tt.ptr<f32>, i32 loc(#loc19)
    %22 = tt.load %21 : !tt.ptr<f32> loc(#loc20)
    %23 = tt.splat %22 : f32 -> tensor<16xf32> loc(#loc21)
    %24 = arith.addi %8, %cst_5 : tensor<16xi32> loc(#loc22)
    %25 = tt.addptr %9, %24 : tensor<16x!tt.ptr<f32>>, tensor<16xi32> loc(#loc23)
    %26 = tt.load %25, %5 evictionPolicy = evict_last : tensor<16x!tt.ptr<f32>> loc(#loc24)
    %27 = arith.addi %12, %cst_4 : tensor<16xi32> loc(#loc25)
    %28 = tt.addptr %14, %27 : tensor<16x!tt.ptr<f32>>, tensor<16xi32> loc(#loc26)
    %29 = tt.load %28, %5 evictionPolicy = evict_last : tensor<16x!tt.ptr<f32>> loc(#loc27)
    %30 = arith.addi %17, %cst_5 : tensor<16xi32> loc(#loc28)
    %31 = tt.addptr %18, %30 : tensor<16x!tt.ptr<f32>>, tensor<16xi32> loc(#loc29)
    %32 = tt.load %31, %5 evictionPolicy = evict_last : tensor<16x!tt.ptr<f32>> loc(#loc30)
    %33 = tt.addptr %arg3, %c1_i32 : !tt.ptr<f32>, i32 loc(#loc31)
    %34 = tt.load %33 : !tt.ptr<f32> loc(#loc32)
    %35 = tt.splat %34 : f32 -> tensor<16xf32> loc(#loc33)
    %36 = arith.addi %8, %cst_3 : tensor<16xi32> loc(#loc34)
    %37 = tt.addptr %9, %36 : tensor<16x!tt.ptr<f32>>, tensor<16xi32> loc(#loc35)
    %38 = tt.load %37, %5 evictionPolicy = evict_last : tensor<16x!tt.ptr<f32>> loc(#loc36)
    %39 = arith.addi %12, %cst_2 : tensor<16xi32> loc(#loc37)
    %40 = tt.addptr %14, %39 : tensor<16x!tt.ptr<f32>>, tensor<16xi32> loc(#loc38)
    %41 = tt.load %40, %5 evictionPolicy = evict_last : tensor<16x!tt.ptr<f32>> loc(#loc39)
    %42 = arith.addi %17, %cst_3 : tensor<16xi32> loc(#loc40)
    %43 = tt.addptr %18, %42 : tensor<16x!tt.ptr<f32>>, tensor<16xi32> loc(#loc41)
    %44 = tt.load %43, %5 evictionPolicy = evict_last : tensor<16x!tt.ptr<f32>> loc(#loc42)
    %45 = tt.addptr %arg3, %c2_i32 : !tt.ptr<f32>, i32 loc(#loc43)
    %46 = tt.load %45 : !tt.ptr<f32> loc(#loc44)
    %47 = tt.splat %46 : f32 -> tensor<16xf32> loc(#loc45)
    %48 = arith.addi %8, %cst_1 : tensor<16xi32> loc(#loc46)
    %49 = tt.addptr %9, %48 : tensor<16x!tt.ptr<f32>>, tensor<16xi32> loc(#loc47)
    %50 = tt.load %49, %5 evictionPolicy = evict_last : tensor<16x!tt.ptr<f32>> loc(#loc48)
    %51 = arith.addi %12, %cst_0 : tensor<16xi32> loc(#loc49)
    %52 = tt.addptr %14, %51 : tensor<16x!tt.ptr<f32>>, tensor<16xi32> loc(#loc50)
    %53 = tt.load %52, %5 evictionPolicy = evict_last : tensor<16x!tt.ptr<f32>> loc(#loc51)
    %54 = arith.addi %17, %cst_1 : tensor<16xi32> loc(#loc52)
    %55 = tt.addptr %18, %54 : tensor<16x!tt.ptr<f32>>, tensor<16xi32> loc(#loc53)
    %56 = tt.load %55, %5 evictionPolicy = evict_last : tensor<16x!tt.ptr<f32>> loc(#loc54)
    %57 = tt.addptr %arg3, %c3_i32 : !tt.ptr<f32>, i32 loc(#loc55)
    %58 = tt.load %57 : !tt.ptr<f32> loc(#loc56)
    %59 = tt.splat %58 : f32 -> tensor<16xf32> loc(#loc57)
    %60 = arith.addf %20, %23 : tensor<16xf32> loc(#loc58)
    %61 = arith.mulf %16, %60 : tensor<16xf32> loc(#loc59)
    %62 = arith.addf %11, %61 : tensor<16xf32> loc(#loc60)
    %63 = arith.addf %32, %35 : tensor<16xf32> loc(#loc61)
    %64 = arith.mulf %29, %63 : tensor<16xf32> loc(#loc62)
    %65 = arith.addf %26, %64 : tensor<16xf32> loc(#loc63)
    %66 = arith.addf %62, %65 : tensor<16xf32> loc(#loc64)
    %67 = arith.addf %44, %47 : tensor<16xf32> loc(#loc65)
    %68 = arith.mulf %41, %67 : tensor<16xf32> loc(#loc66)
    %69 = arith.addf %38, %68 : tensor<16xf32> loc(#loc67)
    %70 = arith.addf %66, %69 : tensor<16xf32> loc(#loc68)
    %71 = arith.addf %56, %59 : tensor<16xf32> loc(#loc69)
    %72 = arith.mulf %53, %71 : tensor<16xf32> loc(#loc70)
    %73 = arith.addf %50, %72 : tensor<16xf32> loc(#loc71)
    %74 = arith.addf %70, %73 : tensor<16xf32> loc(#loc72)
    %75 = arith.divf %74, %cst : tensor<16xf32> loc(#loc73)
    %76 = arith.subf %62, %75 : tensor<16xf32> loc(#loc74)
    %77 = arith.mulf %76, %76 : tensor<16xf32> loc(#loc75)
    %78 = arith.subf %65, %75 : tensor<16xf32> loc(#loc76)
    %79 = arith.mulf %78, %78 : tensor<16xf32> loc(#loc77)
    %80 = arith.addf %77, %79 : tensor<16xf32> loc(#loc78)
    %81 = arith.subf %69, %75 : tensor<16xf32> loc(#loc79)
    %82 = arith.mulf %81, %81 : tensor<16xf32> loc(#loc80)
    %83 = arith.addf %80, %82 : tensor<16xf32> loc(#loc81)
    %84 = arith.subf %73, %75 : tensor<16xf32> loc(#loc82)
    %85 = arith.mulf %84, %84 : tensor<16xf32> loc(#loc83)
    %86 = arith.addf %83, %85 : tensor<16xf32> loc(#loc84)
    %87 = arith.divf %86, %cst : tensor<16xf32> loc(#loc85)
    %88 = tt.splat %arg4 : !tt.ptr<f32> -> tensor<16x!tt.ptr<f32>> loc(#loc86)
    %89 = tt.addptr %88, %4 : tensor<16x!tt.ptr<f32>>, tensor<16xi32> loc(#loc86)
    tt.store %89, %75, %5 : tensor<16x!tt.ptr<f32>> loc(#loc87)
    %90 = tt.splat %arg5 : !tt.ptr<f32> -> tensor<16x!tt.ptr<f32>> loc(#loc88)
    %91 = tt.addptr %90, %4 : tensor<16x!tt.ptr<f32>>, tensor<16xi32> loc(#loc88)
    tt.store %91, %87, %5 : tensor<16x!tt.ptr<f32>> loc(#loc89)
    tt.return loc(#loc90)
  } loc(#loc)
} loc(#loc)
#loc1 = loc(unknown)
#loc2 = loc("inductor_cache/k2/ck2sqgbb6iwu4vrgfukxirdgrlvhg7snbchapv2z6eumngfn5ok2.py":21:28)
#loc3 = loc("inductor_cache/k2/ck2sqgbb6iwu4vrgfukxirdgrlvhg7snbchapv2z6eumngfn5ok2.py":21:33)
#loc4 = loc("inductor_cache/k2/ck2sqgbb6iwu4vrgfukxirdgrlvhg7snbchapv2z6eumngfn5ok2.py":22:36)
#loc5 = loc("inductor_cache/k2/ck2sqgbb6iwu4vrgfukxirdgrlvhg7snbchapv2z6eumngfn5ok2.py":22:23)
#loc6 = loc("inductor_cache/k2/ck2sqgbb6iwu4vrgfukxirdgrlvhg7snbchapv2z6eumngfn5ok2.py":23:21)
#loc7 = loc("inductor_cache/k2/ck2sqgbb6iwu4vrgfukxirdgrlvhg7snbchapv2z6eumngfn5ok2.py":24:19)
#loc8 = loc("inductor_cache/k2/ck2sqgbb6iwu4vrgfukxirdgrlvhg7snbchapv2z6eumngfn5ok2.py":25:19)
#loc9 = loc("inductor_cache/k2/ck2sqgbb6iwu4vrgfukxirdgrlvhg7snbchapv2z6eumngfn5ok2.py":27:32)
#loc10 = loc("inductor_cache/k2/ck2sqgbb6iwu4vrgfukxirdgrlvhg7snbchapv2z6eumngfn5ok2.py":27:30)
#loc11 = loc("inductor_cache/k2/ck2sqgbb6iwu4vrgfukxirdgrlvhg7snbchapv2z6eumngfn5ok2.py":27:37)
#loc12 = loc("inductor_cache/k2/ck2sqgbb6iwu4vrgfukxirdgrlvhg7snbchapv2z6eumngfn5ok2.py":28:37)
#loc13 = loc("inductor_cache/k2/ck2sqgbb6iwu4vrgfukxirdgrlvhg7snbchapv2z6eumngfn5ok2.py":28:34)
#loc14 = loc("inductor_cache/k2/ck2sqgbb6iwu4vrgfukxirdgrlvhg7snbchapv2z6eumngfn5ok2.py":28:30)
#loc15 = loc("inductor_cache/k2/ck2sqgbb6iwu4vrgfukxirdgrlvhg7snbchapv2z6eumngfn5ok2.py":28:42)
#loc16 = loc("inductor_cache/k2/ck2sqgbb6iwu4vrgfukxirdgrlvhg7snbchapv2z6eumngfn5ok2.py":29:32)
#loc17 = loc("inductor_cache/k2/ck2sqgbb6iwu4vrgfukxirdgrlvhg7snbchapv2z6eumngfn5ok2.py":29:30)
#loc18 = loc("inductor_cache/k2/ck2sqgbb6iwu4vrgfukxirdgrlvhg7snbchapv2z6eumngfn5ok2.py":29:37)
#loc19 = loc("inductor_cache/k2/ck2sqgbb6iwu4vrgfukxirdgrlvhg7snbchapv2z6eumngfn5ok2.py":30:30)
#loc20 = loc("inductor_cache/k2/ck2sqgbb6iwu4vrgfukxirdgrlvhg7snbchapv2z6eumngfn5ok2.py":30:19)
#loc21 = loc("inductor_cache/k2/ck2sqgbb6iwu4vrgfukxirdgrlvhg7snbchapv2z6eumngfn5ok2.py":31:33)
#loc22 = loc("inductor_cache/k2/ck2sqgbb6iwu4vrgfukxirdgrlvhg7snbchapv2z6eumngfn5ok2.py":32:34)
#loc23 = loc("inductor_cache/k2/ck2sqgbb6iwu4vrgfukxirdgrlvhg7snbchapv2z6eumngfn5ok2.py":32:30)
#loc24 = loc("inductor_cache/k2/ck2sqgbb6iwu4vrgfukxirdgrlvhg7snbchapv2z6eumngfn5ok2.py":32:41)
#loc25 = loc("inductor_cache/k2/ck2sqgbb6iwu4vrgfukxirdgrlvhg7snbchapv2z6eumngfn5ok2.py":33:34)
#loc26 = loc("inductor_cache/k2/ck2sqgbb6iwu4vrgfukxirdgrlvhg7snbchapv2z6eumngfn5ok2.py":33:30)
#loc27 = loc("inductor_cache/k2/ck2sqgbb6iwu4vrgfukxirdgrlvhg7snbchapv2z6eumngfn5ok2.py":33:42)
#loc28 = loc("inductor_cache/k2/ck2sqgbb6iwu4vrgfukxirdgrlvhg7snbchapv2z6eumngfn5ok2.py":34:35)
#loc29 = loc("inductor_cache/k2/ck2sqgbb6iwu4vrgfukxirdgrlvhg7snbchapv2z6eumngfn5ok2.py":34:31)
#loc30 = loc("inductor_cache/k2/ck2sqgbb6iwu4vrgfukxirdgrlvhg7snbchapv2z6eumngfn5ok2.py":34:42)
#loc31 = loc("inductor_cache/k2/ck2sqgbb6iwu4vrgfukxirdgrlvhg7snbchapv2z6eumngfn5ok2.py":35:31)
#loc32 = loc("inductor_cache/k2/ck2sqgbb6iwu4vrgfukxirdgrlvhg7snbchapv2z6eumngfn5ok2.py":35:20)
#loc33 = loc("inductor_cache/k2/ck2sqgbb6iwu4vrgfukxirdgrlvhg7snbchapv2z6eumngfn5ok2.py":36:35)
#loc34 = loc("inductor_cache/k2/ck2sqgbb6iwu4vrgfukxirdgrlvhg7snbchapv2z6eumngfn5ok2.py":37:35)
#loc35 = loc("inductor_cache/k2/ck2sqgbb6iwu4vrgfukxirdgrlvhg7snbchapv2z6eumngfn5ok2.py":37:31)
#loc36 = loc("inductor_cache/k2/ck2sqgbb6iwu4vrgfukxirdgrlvhg7snbchapv2z6eumngfn5ok2.py":37:42)
#loc37 = loc("inductor_cache/k2/ck2sqgbb6iwu4vrgfukxirdgrlvhg7snbchapv2z6eumngfn5ok2.py":38:36)
#loc38 = loc("inductor_cache/k2/ck2sqgbb6iwu4vrgfukxirdgrlvhg7snbchapv2z6eumngfn5ok2.py":38:31)
#loc39 = loc("inductor_cache/k2/ck2sqgbb6iwu4vrgfukxirdgrlvhg7snbchapv2z6eumngfn5ok2.py":38:44)
#loc40 = loc("inductor_cache/k2/ck2sqgbb6iwu4vrgfukxirdgrlvhg7snbchapv2z6eumngfn5ok2.py":39:35)
#loc41 = loc("inductor_cache/k2/ck2sqgbb6iwu4vrgfukxirdgrlvhg7snbchapv2z6eumngfn5ok2.py":39:31)
#loc42 = loc("inductor_cache/k2/ck2sqgbb6iwu4vrgfukxirdgrlvhg7snbchapv2z6eumngfn5ok2.py":39:42)
#loc43 = loc("inductor_cache/k2/ck2sqgbb6iwu4vrgfukxirdgrlvhg7snbchapv2z6eumngfn5ok2.py":40:31)
#loc44 = loc("inductor_cache/k2/ck2sqgbb6iwu4vrgfukxirdgrlvhg7snbchapv2z6eumngfn5ok2.py":40:20)
#loc45 = loc("inductor_cache/k2/ck2sqgbb6iwu4vrgfukxirdgrlvhg7snbchapv2z6eumngfn5ok2.py":41:35)
#loc46 = loc("inductor_cache/k2/ck2sqgbb6iwu4vrgfukxirdgrlvhg7snbchapv2z6eumngfn5ok2.py":42:35)
#loc47 = loc("inductor_cache/k2/ck2sqgbb6iwu4vrgfukxirdgrlvhg7snbchapv2z6eumngfn5ok2.py":42:31)
#loc48 = loc("inductor_cache/k2/ck2sqgbb6iwu4vrgfukxirdgrlvhg7snbchapv2z6eumngfn5ok2.py":42:42)
#loc49 = loc("inductor_cache/k2/ck2sqgbb6iwu4vrgfukxirdgrlvhg7snbchapv2z6eumngfn5ok2.py":43:36)
#loc50 = loc("inductor_cache/k2/ck2sqgbb6iwu4vrgfukxirdgrlvhg7snbchapv2z6eumngfn5ok2.py":43:31)
#loc51 = loc("inductor_cache/k2/ck2sqgbb6iwu4vrgfukxirdgrlvhg7snbchapv2z6eumngfn5ok2.py":43:44)
#loc52 = loc("inductor_cache/k2/ck2sqgbb6iwu4vrgfukxirdgrlvhg7snbchapv2z6eumngfn5ok2.py":44:35)
#loc53 = loc("inductor_cache/k2/ck2sqgbb6iwu4vrgfukxirdgrlvhg7snbchapv2z6eumngfn5ok2.py":44:31)
#loc54 = loc("inductor_cache/k2/ck2sqgbb6iwu4vrgfukxirdgrlvhg7snbchapv2z6eumngfn5ok2.py":44:42)
#loc55 = loc("inductor_cache/k2/ck2sqgbb6iwu4vrgfukxirdgrlvhg7snbchapv2z6eumngfn5ok2.py":45:31)
#loc56 = loc("inductor_cache/k2/ck2sqgbb6iwu4vrgfukxirdgrlvhg7snbchapv2z6eumngfn5ok2.py":45:20)
#loc57 = loc("inductor_cache/k2/ck2sqgbb6iwu4vrgfukxirdgrlvhg7snbchapv2z6eumngfn5ok2.py":46:35)
#loc58 = loc("inductor_cache/k2/ck2sqgbb6iwu4vrgfukxirdgrlvhg7snbchapv2z6eumngfn5ok2.py":47:18)
#loc59 = loc("inductor_cache/k2/ck2sqgbb6iwu4vrgfukxirdgrlvhg7snbchapv2z6eumngfn5ok2.py":48:18)
#loc60 = loc("inductor_cache/k2/ck2sqgbb6iwu4vrgfukxirdgrlvhg7snbchapv2z6eumngfn5ok2.py":49:18)
#loc61 = loc("inductor_cache/k2/ck2sqgbb6iwu4vrgfukxirdgrlvhg7snbchapv2z6eumngfn5ok2.py":50:20)
#loc62 = loc("inductor_cache/k2/ck2sqgbb6iwu4vrgfukxirdgrlvhg7snbchapv2z6eumngfn5ok2.py":51:19)
#loc63 = loc("inductor_cache/k2/ck2sqgbb6iwu4vrgfukxirdgrlvhg7snbchapv2z6eumngfn5ok2.py":52:19)
#loc64 = loc("inductor_cache/k2/ck2sqgbb6iwu4vrgfukxirdgrlvhg7snbchapv2z6eumngfn5ok2.py":53:19)
#loc65 = loc("inductor_cache/k2/ck2sqgbb6iwu4vrgfukxirdgrlvhg7snbchapv2z6eumngfn5ok2.py":54:20)
#loc66 = loc("inductor_cache/k2/ck2sqgbb6iwu4vrgfukxirdgrlvhg7snbchapv2z6eumngfn5ok2.py":55:20)
#loc67 = loc("inductor_cache/k2/ck2sqgbb6iwu4vrgfukxirdgrlvhg7snbchapv2z6eumngfn5ok2.py":56:20)
#loc68 = loc("inductor_cache/k2/ck2sqgbb6iwu4vrgfukxirdgrlvhg7snbchapv2z6eumngfn5ok2.py":57:20)
#loc69 = loc("inductor_cache/k2/ck2sqgbb6iwu4vrgfukxirdgrlvhg7snbchapv2z6eumngfn5ok2.py":58:20)
#loc70 = loc("inductor_cache/k2/ck2sqgbb6iwu4vrgfukxirdgrlvhg7snbchapv2z6eumngfn5ok2.py":59:20)
#loc71 = loc("inductor_cache/k2/ck2sqgbb6iwu4vrgfukxirdgrlvhg7snbchapv2z6eumngfn5ok2.py":60:20)
#loc72 = loc("inductor_cache/k2/ck2sqgbb6iwu4vrgfukxirdgrlvhg7snbchapv2z6eumngfn5ok2.py":61:20)
#loc73 = loc("inductor_cache/k2/ck2sqgbb6iwu4vrgfukxirdgrlvhg7snbchapv2z6eumngfn5ok2.py":63:20)
#loc74 = loc("inductor_cache/k2/ck2sqgbb6iwu4vrgfukxirdgrlvhg7snbchapv2z6eumngfn5ok2.py":64:19)
#loc75 = loc("inductor_cache/k2/ck2sqgbb6iwu4vrgfukxirdgrlvhg7snbchapv2z6eumngfn5ok2.py":65:20)
#loc76 = loc("inductor_cache/k2/ck2sqgbb6iwu4vrgfukxirdgrlvhg7snbchapv2z6eumngfn5ok2.py":66:20)
#loc77 = loc("inductor_cache/k2/ck2sqgbb6iwu4vrgfukxirdgrlvhg7snbchapv2z6eumngfn5ok2.py":67:20)
#loc78 = loc("inductor_cache/k2/ck2sqgbb6iwu4vrgfukxirdgrlvhg7snbchapv2z6eumngfn5ok2.py":68:20)
#loc79 = loc("inductor_cache/k2/ck2sqgbb6iwu4vrgfukxirdgrlvhg7snbchapv2z6eumngfn5ok2.py":69:20)
#loc80 = loc("inductor_cache/k2/ck2sqgbb6iwu4vrgfukxirdgrlvhg7snbchapv2z6eumngfn5ok2.py":70:20)
#loc81 = loc("inductor_cache/k2/ck2sqgbb6iwu4vrgfukxirdgrlvhg7snbchapv2z6eumngfn5ok2.py":71:20)
#loc82 = loc("inductor_cache/k2/ck2sqgbb6iwu4vrgfukxirdgrlvhg7snbchapv2z6eumngfn5ok2.py":72:20)
#loc83 = loc("inductor_cache/k2/ck2sqgbb6iwu4vrgfukxirdgrlvhg7snbchapv2z6eumngfn5ok2.py":73:20)
#loc84 = loc("inductor_cache/k2/ck2sqgbb6iwu4vrgfukxirdgrlvhg7snbchapv2z6eumngfn5ok2.py":74:20)
#loc85 = loc("inductor_cache/k2/ck2sqgbb6iwu4vrgfukxirdgrlvhg7snbchapv2z6eumngfn5ok2.py":75:20)
#loc86 = loc("inductor_cache/k2/ck2sqgbb6iwu4vrgfukxirdgrlvhg7snbchapv2z6eumngfn5ok2.py":76:25)
#loc87 = loc("inductor_cache/k2/ck2sqgbb6iwu4vrgfukxirdgrlvhg7snbchapv2z6eumngfn5ok2.py":76:37)
#loc88 = loc("inductor_cache/k2/ck2sqgbb6iwu4vrgfukxirdgrlvhg7snbchapv2z6eumngfn5ok2.py":77:25)
#loc89 = loc("inductor_cache/k2/ck2sqgbb6iwu4vrgfukxirdgrlvhg7snbchapv2z6eumngfn5ok2.py":77:37)
#loc90 = loc("inductor_cache/k2/ck2sqgbb6iwu4vrgfukxirdgrlvhg7snbchapv2z6eumngfn5ok2.py":77:4)
