#loc = loc("inductor_cache/ds/cdsyaxkdtrgcgricsqoc5igzmjbfzw4ccgux4of7l3nenimjtwrq.py":19:0)
module {
  tt.func public @triton_poi_fused__native_batch_norm_legit_no_training_relu_0(%arg0: !tt.ptr<f32> {tt.divisibility = 16 : i32} loc("inductor_cache/ds/cdsyaxkdtrgcgricsqoc5igzmjbfzw4ccgux4of7l3nenimjtwrq.py":19:0), %arg1: !tt.ptr<f32> {tt.divisibility = 16 : i32} loc("inductor_cache/ds/cdsyaxkdtrgcgricsqoc5igzmjbfzw4ccgux4of7l3nenimjtwrq.py":19:0), %arg2: !tt.ptr<f32> {tt.divisibility = 16 : i32} loc("inductor_cache/ds/cdsyaxkdtrgcgricsqoc5igzmjbfzw4ccgux4of7l3nenimjtwrq.py":19:0), %arg3: !tt.ptr<f32> {tt.divisibility = 16 : i32} loc("inductor_cache/ds/cdsyaxkdtrgcgricsqoc5igzmjbfzw4ccgux4of7l3nenimjtwrq.py":19:0), %arg4: !tt.ptr<f32> {tt.divisibility = 16 : i32} loc("inductor_cache/ds/cdsyaxkdtrgcgricsqoc5igzmjbfzw4ccgux4of7l3nenimjtwrq.py":19:0), %arg5: !tt.ptr<f32> {tt.divisibility = 16 : i32} loc("inductor_cache/ds/cdsyaxkdtrgcgricsqoc5igzmjbfzw4ccgux4of7l3nenimjtwrq.py":19:0), %arg6: i32 {tt.divisibility = 16 : i32} loc("inductor_cache/ds/cdsyaxkdtrgcgricsqoc5igzmjbfzw4ccgux4of7l3nenimjtwrq.py":19:0)) attributes {noinline = false} {
    %cst = arith.constant dense<0.000000e+00> : tensor<256xf32> loc(#loc1)
    %cst_0 = arith.constant dense<1.000000e+00> : tensor<256xf32> loc(#loc1)
    %cst_1 = arith.constant dense<9.99999974E-6> : tensor<256xf32> loc(#loc1)
    %cst_2 = arith.constant dense<3> : tensor<256xi32> loc(#loc1)
    %cst_3 = arith.constant dense<4096> : tensor<256xi32> loc(#loc1)
    %c256_i32 = arith.constant 256 : i32 loc(#loc1)
    %0 = tt.get_program_id x : i32 loc(#loc2)
    %1 = arith.muli %0, %c256_i32 : i32 loc(#loc3)
    %2 = tt.make_range {end = 256 : i32, start = 0 : i32} : tensor<256xi32> loc(#loc4)
    %3 = tt.splat %1 : i32 -> tensor<256xi32> loc(#loc5)
    %4 = arith.addi %3, %2 : tensor<256xi32> loc(#loc5)
    %5 = arith.divsi %4, %cst_3 : tensor<256xi32> loc(#loc6)
    %6 = arith.remsi %5, %cst_2 : tensor<256xi32> loc(#loc7)
    %7 = tt.splat %arg0 : !tt.ptr<f32> -> tensor<256x!tt.ptr<f32>> loc(#loc8)
    %8 = tt.addptr %7, %4 : tensor<256x!tt.ptr<f32>>, tensor<256xi32> loc(#loc8)
    %9 = tt.load %8 : tensor<256x!tt.ptr<f32>> loc(#loc9)
    %10 = tt.splat %arg1 : !tt.ptr<f32> -> tensor<256x!tt.ptr<f32>> loc(#loc10)
    %11 = tt.addptr %10, %6 : tensor<256x!tt.ptr<f32>>, tensor<256xi32> loc(#loc10)
    %12 = tt.load %11 evictionPolicy = evict_last : tensor<256x!tt.ptr<f32>> loc(#loc11)
    %13 = tt.splat %arg2 : !tt.ptr<f32> -> tensor<256x!tt.ptr<f32>> loc(#loc12)
    %14 = tt.addptr %13, %6 : tensor<256x!tt.ptr<f32>>, tensor<256xi32> loc(#loc12)
    %15 = tt.load %14 evictionPolicy = evict_last : tensor<256x!tt.ptr<f32>> loc(#loc13)
    %16 = tt.splat %arg3 : !tt.ptr<f32> -> tensor<256x!tt.ptr<f32>> loc(#loc14)
    %17 = tt.addptr %16, %6 : tensor<256x!tt.ptr<f32>>, tensor<256xi32> loc(#loc14)
    %18 = tt.load %17 evictionPolicy = evict_last : tensor<256x!tt.ptr<f32>> loc(#loc15)
    %19 = tt.splat %arg4 : !tt.ptr<f32> -> tensor<256x!tt.ptr<f32>> loc(#loc16)
    %20 = tt.addptr %19, %6 : tensor<256x!tt.ptr<f32>>, tensor<256xi32> loc(#loc16)
    %21 = tt.load %20 evictionPolicy = evict_last : tensor<256x!tt.ptr<f32>> loc(#loc17)
    %22 = arith.cmpf ogt, %cst, %9 : tensor<256xf32> loc(#loc31)
    %23 = arith.select %22, %cst, %9 : tensor<256xi1>, tensor<256xf32> loc(#loc32)
    %24 = arith.subf %23, %12 : tensor<256xf32> loc(#loc21)
    %25 = arith.addf %15, %cst_1 : tensor<256xf32> loc(#loc22)
    %26 = tt.extern_elementwise %25 {libname = "", libpath = "", pure = true, symbol = "__nv_sqrtf"} : (tensor<256xf32>) -> tensor<256xf32> loc(#loc23)
    %27 = arith.divf %cst_0, %26 : tensor<256xf32> loc(#loc24)
    %28 = arith.mulf %24, %27 : tensor<256xf32> loc(#loc25)
    %29 = arith.mulf %28, %18 : tensor<256xf32> loc(#loc26)
    %30 = arith.addf %29, %21 : tensor<256xf32> loc(#loc27)
    %31 = tt.splat %arg5 : !tt.ptr<f32> -> tensor<256x!tt.ptr<f32>> loc(#loc28)
    %32 = tt.addptr %31, %4 : tensor<256x!tt.ptr<f32>>, tensor<256xi32> loc(#loc28)
    tt.store %32, %30 : tensor<256x!tt.ptr<f32>> loc(#loc29)
    tt.return loc(#loc30)
  } loc(#loc)
} loc(#loc)
#loc1 = loc(unknown)
#loc2 = loc("inductor_cache/ds/cdsyaxkdtrgcgricsqoc5igzmjbfzw4ccgux4of7l3nenimjtwrq.py":21:28)
#loc3 = loc("inductor_cache/ds/cdsyaxkdtrgcgricsqoc5igzmjbfzw4ccgux4of7l3nenimjtwrq.py":21:33)
#loc4 = loc("inductor_cache/ds/cdsyaxkdtrgcgricsqoc5igzmjbfzw4ccgux4of7l3nenimjtwrq.py":22:36)
#loc5 = loc("inductor_cache/ds/cdsyaxkdtrgcgricsqoc5igzmjbfzw4ccgux4of7l3nenimjtwrq.py":22:23)
#loc6 = loc("inductor_cache/ds/cdsyaxkdtrgcgricsqoc5igzmjbfzw4ccgux4of7l3nenimjtwrq.py":25:21)
#loc7 = loc("inductor_cache/ds/cdsyaxkdtrgcgricsqoc5igzmjbfzw4ccgux4of7l3nenimjtwrq.py":25:29)
#loc8 = loc("inductor_cache/ds/cdsyaxkdtrgcgricsqoc5igzmjbfzw4ccgux4of7l3nenimjtwrq.py":26:30)
#loc9 = loc("inductor_cache/ds/cdsyaxkdtrgcgricsqoc5igzmjbfzw4ccgux4of7l3nenimjtwrq.py":26:35)
#loc10 = loc("inductor_cache/ds/cdsyaxkdtrgcgricsqoc5igzmjbfzw4ccgux4of7l3nenimjtwrq.py":27:30)
#loc11 = loc("inductor_cache/ds/cdsyaxkdtrgcgricsqoc5igzmjbfzw4ccgux4of7l3nenimjtwrq.py":27:35)
#loc12 = loc("inductor_cache/ds/cdsyaxkdtrgcgricsqoc5igzmjbfzw4ccgux4of7l3nenimjtwrq.py":28:30)
#loc13 = loc("inductor_cache/ds/cdsyaxkdtrgcgricsqoc5igzmjbfzw4ccgux4of7l3nenimjtwrq.py":28:35)
#loc14 = loc("inductor_cache/ds/cdsyaxkdtrgcgricsqoc5igzmjbfzw4ccgux4of7l3nenimjtwrq.py":29:31)
#loc15 = loc("inductor_cache/ds/cdsyaxkdtrgcgricsqoc5igzmjbfzw4ccgux4of7l3nenimjtwrq.py":29:36)
#loc16 = loc("inductor_cache/ds/cdsyaxkdtrgcgricsqoc5igzmjbfzw4ccgux4of7l3nenimjtwrq.py":30:31)
#loc17 = loc("inductor_cache/ds/cdsyaxkdtrgcgricsqoc5igzmjbfzw4ccgux4of7l3nenimjtwrq.py":30:36)
#loc18 = loc("/home/sahanp/.conda/envs/parity-bench/lib/python3.12/site-packages/torch/_inductor/runtime/triton_helpers.py":118:15)
#loc19 = loc("inductor_cache/ds/cdsyaxkdtrgcgricsqoc5igzmjbfzw4ccgux4of7l3nenimjtwrq.py":32:40)
#loc20 = loc("/home/sahanp/.conda/envs/parity-bench/lib/python3.12/site-packages/torch/_inductor/runtime/triton_helpers.py":121:29)
#loc21 = loc("inductor_cache/ds/cdsyaxkdtrgcgricsqoc5igzmjbfzw4ccgux4of7l3nenimjtwrq.py":33:18)
#loc22 = loc("inductor_cache/ds/cdsyaxkdtrgcgricsqoc5igzmjbfzw4ccgux4of7l3nenimjtwrq.py":35:18)
#loc23 = loc("inductor_cache/ds/cdsyaxkdtrgcgricsqoc5igzmjbfzw4ccgux4of7l3nenimjtwrq.py":36:26)
#loc24 = loc("inductor_cache/ds/cdsyaxkdtrgcgricsqoc5igzmjbfzw4ccgux4of7l3nenimjtwrq.py":38:19)
#loc25 = loc("inductor_cache/ds/cdsyaxkdtrgcgricsqoc5igzmjbfzw4ccgux4of7l3nenimjtwrq.py":41:19)
#loc26 = loc("inductor_cache/ds/cdsyaxkdtrgcgricsqoc5igzmjbfzw4ccgux4of7l3nenimjtwrq.py":42:20)
#loc27 = loc("inductor_cache/ds/cdsyaxkdtrgcgricsqoc5igzmjbfzw4ccgux4of7l3nenimjtwrq.py":43:20)
#loc28 = loc("inductor_cache/ds/cdsyaxkdtrgcgricsqoc5igzmjbfzw4ccgux4of7l3nenimjtwrq.py":44:25)
#loc29 = loc("inductor_cache/ds/cdsyaxkdtrgcgricsqoc5igzmjbfzw4ccgux4of7l3nenimjtwrq.py":44:37)
#loc30 = loc("inductor_cache/ds/cdsyaxkdtrgcgricsqoc5igzmjbfzw4ccgux4of7l3nenimjtwrq.py":44:4)
#loc31 = loc(callsite(#loc18 at #loc19))
#loc32 = loc(callsite(#loc20 at #loc19))
