#loc = loc("inductor_cache/2y/c2ycr3oc3nanlap5upusgj4jm3ruzsfgs6qfs44zjil5vhdqukqs.py":19:0)
module {
  tt.func public @triton_poi_fused_add_exp_mul_0(%arg0: !tt.ptr<f32> {tt.divisibility = 16 : i32} loc("inductor_cache/2y/c2ycr3oc3nanlap5upusgj4jm3ruzsfgs6qfs44zjil5vhdqukqs.py":19:0), %arg1: !tt.ptr<f32> {tt.divisibility = 16 : i32} loc("inductor_cache/2y/c2ycr3oc3nanlap5upusgj4jm3ruzsfgs6qfs44zjil5vhdqukqs.py":19:0), %arg2: !tt.ptr<f32> {tt.divisibility = 16 : i32} loc("inductor_cache/2y/c2ycr3oc3nanlap5upusgj4jm3ruzsfgs6qfs44zjil5vhdqukqs.py":19:0), %arg3: !tt.ptr<f32> {tt.divisibility = 16 : i32} loc("inductor_cache/2y/c2ycr3oc3nanlap5upusgj4jm3ruzsfgs6qfs44zjil5vhdqukqs.py":19:0), %arg4: !tt.ptr<f32> {tt.divisibility = 16 : i32} loc("inductor_cache/2y/c2ycr3oc3nanlap5upusgj4jm3ruzsfgs6qfs44zjil5vhdqukqs.py":19:0), %arg5: i32 {tt.divisibility = 16 : i32} loc("inductor_cache/2y/c2ycr3oc3nanlap5upusgj4jm3ruzsfgs6qfs44zjil5vhdqukqs.py":19:0)) attributes {noinline = false} {
    %cst = arith.constant dense<4> : tensor<256xi32> loc(#loc1)
    %cst_0 = arith.constant dense<256> : tensor<256xi32> loc(#loc1)
    %c256_i32 = arith.constant 256 : i32 loc(#loc1)
    %0 = tt.get_program_id x : i32 loc(#loc2)
    %1 = arith.muli %0, %c256_i32 : i32 loc(#loc3)
    %2 = tt.make_range {end = 256 : i32, start = 0 : i32} : tensor<256xi32> loc(#loc4)
    %3 = tt.splat %1 : i32 -> tensor<256xi32> loc(#loc5)
    %4 = arith.addi %3, %2 : tensor<256xi32> loc(#loc5)
    %5 = arith.cmpi slt, %4, %cst_0 : tensor<256xi32> loc(#loc6)
    %6 = arith.divsi %4, %cst : tensor<256xi32> loc(#loc7)
    %7 = arith.remsi %6, %cst : tensor<256xi32> loc(#loc8)
    %8 = tt.splat %arg0 : !tt.ptr<f32> -> tensor<256x!tt.ptr<f32>> loc(#loc9)
    %9 = tt.addptr %8, %7 : tensor<256x!tt.ptr<f32>>, tensor<256xi32> loc(#loc9)
    %10 = tt.load %9, %5 evictionPolicy = evict_last : tensor<256x!tt.ptr<f32>> loc(#loc10)
    %11 = tt.splat %arg1 : !tt.ptr<f32> -> tensor<256x!tt.ptr<f32>> loc(#loc11)
    %12 = tt.addptr %11, %7 : tensor<256x!tt.ptr<f32>>, tensor<256xi32> loc(#loc11)
    %13 = tt.load %12, %5 evictionPolicy = evict_last : tensor<256x!tt.ptr<f32>> loc(#loc12)
    %14 = tt.splat %arg2 : !tt.ptr<f32> -> tensor<256x!tt.ptr<f32>> loc(#loc13)
    %15 = tt.addptr %14, %4 : tensor<256x!tt.ptr<f32>>, tensor<256xi32> loc(#loc13)
    %16 = tt.load %15, %5 : tensor<256x!tt.ptr<f32>> loc(#loc14)
    %17 = tt.splat %arg3 : !tt.ptr<f32> -> tensor<256x!tt.ptr<f32>> loc(#loc15)
    %18 = tt.addptr %17, %4 : tensor<256x!tt.ptr<f32>>, tensor<256xi32> loc(#loc15)
    %19 = tt.load %18, %5 : tensor<256x!tt.ptr<f32>> loc(#loc16)
    %20 = math.exp %13 : tensor<256xf32> loc(#loc17)
    %21 = arith.mulf %20, %16 : tensor<256xf32> loc(#loc18)
    %22 = arith.addf %10, %21 : tensor<256xf32> loc(#loc19)
    %23 = arith.mulf %22, %19 : tensor<256xf32> loc(#loc20)
    %24 = tt.splat %arg4 : !tt.ptr<f32> -> tensor<256x!tt.ptr<f32>> loc(#loc21)
    %25 = tt.addptr %24, %4 : tensor<256x!tt.ptr<f32>>, tensor<256xi32> loc(#loc21)
    tt.store %25, %23, %5 : tensor<256x!tt.ptr<f32>> loc(#loc22)
    tt.return loc(#loc23)
  } loc(#loc)
} loc(#loc)
#loc1 = loc(unknown)
#loc2 = loc("inductor_cache/2y/c2ycr3oc3nanlap5upusgj4jm3ruzsfgs6qfs44zjil5vhdqukqs.py":21:28)
#loc3 = loc("inductor_cache/2y/c2ycr3oc3nanlap5upusgj4jm3ruzsfgs6qfs44zjil5vhdqukqs.py":21:33)
#loc4 = loc("inductor_cache/2y/c2ycr3oc3nanlap5upusgj4jm3ruzsfgs6qfs44zjil5vhdqukqs.py":22:36)
#loc5 = loc("inductor_cache/2y/c2ycr3oc3nanlap5upusgj4jm3ruzsfgs6qfs44zjil5vhdqukqs.py":22:23)
#loc6 = loc("inductor_cache/2y/c2ycr3oc3nanlap5upusgj4jm3ruzsfgs6qfs44zjil5vhdqukqs.py":23:21)
#loc7 = loc("inductor_cache/2y/c2ycr3oc3nanlap5upusgj4jm3ruzsfgs6qfs44zjil5vhdqukqs.py":24:21)
#loc8 = loc("inductor_cache/2y/c2ycr3oc3nanlap5upusgj4jm3ruzsfgs6qfs44zjil5vhdqukqs.py":24:26)
#loc9 = loc("inductor_cache/2y/c2ycr3oc3nanlap5upusgj4jm3ruzsfgs6qfs44zjil5vhdqukqs.py":26:30)
#loc10 = loc("inductor_cache/2y/c2ycr3oc3nanlap5upusgj4jm3ruzsfgs6qfs44zjil5vhdqukqs.py":26:35)
#loc11 = loc("inductor_cache/2y/c2ycr3oc3nanlap5upusgj4jm3ruzsfgs6qfs44zjil5vhdqukqs.py":27:30)
#loc12 = loc("inductor_cache/2y/c2ycr3oc3nanlap5upusgj4jm3ruzsfgs6qfs44zjil5vhdqukqs.py":27:35)
#loc13 = loc("inductor_cache/2y/c2ycr3oc3nanlap5upusgj4jm3ruzsfgs6qfs44zjil5vhdqukqs.py":28:30)
#loc14 = loc("inductor_cache/2y/c2ycr3oc3nanlap5upusgj4jm3ruzsfgs6qfs44zjil5vhdqukqs.py":28:35)
#loc15 = loc("inductor_cache/2y/c2ycr3oc3nanlap5upusgj4jm3ruzsfgs6qfs44zjil5vhdqukqs.py":29:30)
#loc16 = loc("inductor_cache/2y/c2ycr3oc3nanlap5upusgj4jm3ruzsfgs6qfs44zjil5vhdqukqs.py":29:35)
#loc17 = loc("inductor_cache/2y/c2ycr3oc3nanlap5upusgj4jm3ruzsfgs6qfs44zjil5vhdqukqs.py":30:23)
#loc18 = loc("inductor_cache/2y/c2ycr3oc3nanlap5upusgj4jm3ruzsfgs6qfs44zjil5vhdqukqs.py":31:18)
#loc19 = loc("inductor_cache/2y/c2ycr3oc3nanlap5upusgj4jm3ruzsfgs6qfs44zjil5vhdqukqs.py":32:18)
#loc20 = loc("inductor_cache/2y/c2ycr3oc3nanlap5upusgj4jm3ruzsfgs6qfs44zjil5vhdqukqs.py":33:18)
#loc21 = loc("inductor_cache/2y/c2ycr3oc3nanlap5upusgj4jm3ruzsfgs6qfs44zjil5vhdqukqs.py":34:25)
#loc22 = loc("inductor_cache/2y/c2ycr3oc3nanlap5upusgj4jm3ruzsfgs6qfs44zjil5vhdqukqs.py":34:36)
#loc23 = loc("inductor_cache/2y/c2ycr3oc3nanlap5upusgj4jm3ruzsfgs6qfs44zjil5vhdqukqs.py":34:4)
