#loc = loc("inductor_cache/b5/cb5dtjabsabqbgplf6wn3ynnljv3wmucstpps3kyvp5d4cdvewdf.py":19:0)
module {
  tt.func public @triton_poi_fused_relu_threshold_backward_7(%arg0: !tt.ptr<f32> {tt.divisibility = 16 : i32} loc("inductor_cache/b5/cb5dtjabsabqbgplf6wn3ynnljv3wmucstpps3kyvp5d4cdvewdf.py":19:0), %arg1: !tt.ptr<f32> {tt.divisibility = 16 : i32} loc("inductor_cache/b5/cb5dtjabsabqbgplf6wn3ynnljv3wmucstpps3kyvp5d4cdvewdf.py":19:0), %arg2: !tt.ptr<i1> {tt.divisibility = 16 : i32} loc("inductor_cache/b5/cb5dtjabsabqbgplf6wn3ynnljv3wmucstpps3kyvp5d4cdvewdf.py":19:0), %arg3: i32 {tt.divisibility = 16 : i32} loc("inductor_cache/b5/cb5dtjabsabqbgplf6wn3ynnljv3wmucstpps3kyvp5d4cdvewdf.py":19:0), %arg4: i32 {tt.divisibility = 16 : i32} loc("inductor_cache/b5/cb5dtjabsabqbgplf6wn3ynnljv3wmucstpps3kyvp5d4cdvewdf.py":19:0)) attributes {noinline = false} {
    %c4096_i32 = arith.constant 4096 : i32 loc(#loc1)
    %c8388608_i32 = arith.constant 8388608 : i32 loc(#loc1)
    %c2048_i32 = arith.constant 2048 : i32 loc(#loc1)
    %cst = arith.constant dense<0.000000e+00> : tensor<1024x1xf32> loc(#loc1)
    %cst_0 = arith.constant dense<2048> : tensor<1024x1xi32> loc(#loc1)
    %c1024_i32 = arith.constant 1024 : i32 loc(#loc1)
    %0 = tt.get_program_id y : i32 loc(#loc2)
    %1 = tt.get_program_id x : i32 loc(#loc3)
    %2 = arith.muli %1, %c1024_i32 : i32 loc(#loc4)
    %3 = tt.make_range {end = 1024 : i32, start = 0 : i32} : tensor<1024xi32> loc(#loc5)
    %4 = tt.expand_dims %3 {axis = 1 : i32} : tensor<1024xi32> -> tensor<1024x1xi32> loc(#loc6)
    %5 = tt.splat %2 : i32 -> tensor<1024x1xi32> loc(#loc7)
    %6 = arith.addi %5, %4 : tensor<1024x1xi32> loc(#loc7)
    %7 = arith.remsi %0, %c2048_i32 : i32 loc(#loc8)
    %8 = arith.divsi %0, %c2048_i32 : i32 loc(#loc9)
    %9 = arith.muli %6, %cst_0 : tensor<1024x1xi32> loc(#loc10)
    %10 = tt.splat %7 : i32 -> tensor<1024x1xi32> loc(#loc11)
    %11 = arith.addi %10, %9 : tensor<1024x1xi32> loc(#loc11)
    %12 = arith.muli %8, %c8388608_i32 : i32 loc(#loc12)
    %13 = tt.splat %12 : i32 -> tensor<1024x1xi32> loc(#loc13)
    %14 = arith.addi %11, %13 : tensor<1024x1xi32> loc(#loc13)
    %15 = tt.splat %arg0 : !tt.ptr<f32> -> tensor<1024x1x!tt.ptr<f32>> loc(#loc14)
    %16 = tt.addptr %15, %14 : tensor<1024x1x!tt.ptr<f32>>, tensor<1024x1xi32> loc(#loc14)
    %17 = tt.load %16 evictionPolicy = evict_last : tensor<1024x1x!tt.ptr<f32>> loc(#loc15)
    %18 = arith.cmpf ogt, %cst, %17 : tensor<1024x1xf32> loc(#loc27)
    %19 = arith.select %18, %cst, %17 : tensor<1024x1xi1>, tensor<1024x1xf32> loc(#loc28)
    %20 = arith.cmpf ole, %19, %cst : tensor<1024x1xf32> loc(#loc19)
    %21 = arith.muli %0, %c4096_i32 : i32 loc(#loc20)
    %22 = tt.splat %21 : i32 -> tensor<1024x1xi32> loc(#loc21)
    %23 = arith.addi %6, %22 : tensor<1024x1xi32> loc(#loc21)
    %24 = tt.splat %arg1 : !tt.ptr<f32> -> tensor<1024x1x!tt.ptr<f32>> loc(#loc22)
    %25 = tt.addptr %24, %23 : tensor<1024x1x!tt.ptr<f32>>, tensor<1024x1xi32> loc(#loc22)
    tt.store %25, %19 : tensor<1024x1x!tt.ptr<f32>> loc(#loc23)
    %26 = tt.splat %arg2 : !tt.ptr<i1> -> tensor<1024x1x!tt.ptr<i1>> loc(#loc24)
    %27 = tt.addptr %26, %14 : tensor<1024x1x!tt.ptr<i1>>, tensor<1024x1xi32> loc(#loc24)
    %28 = tt.bitcast %27 : tensor<1024x1x!tt.ptr<i1>> -> tensor<1024x1x!tt.ptr<i8>> loc(#loc25)
    %29 = arith.extui %20 : tensor<1024x1xi1> to tensor<1024x1xi8> loc(#loc25)
    tt.store %28, %29 : tensor<1024x1x!tt.ptr<i8>> loc(#loc25)
    tt.return loc(#loc26)
  } loc(#loc)
} loc(#loc)
#loc1 = loc(unknown)
#loc2 = loc("inductor_cache/b5/cb5dtjabsabqbgplf6wn3ynnljv3wmucstpps3kyvp5d4cdvewdf.py":22:28)
#loc3 = loc("inductor_cache/b5/cb5dtjabsabqbgplf6wn3ynnljv3wmucstpps3kyvp5d4cdvewdf.py":25:28)
#loc4 = loc("inductor_cache/b5/cb5dtjabsabqbgplf6wn3ynnljv3wmucstpps3kyvp5d4cdvewdf.py":25:33)
#loc5 = loc("inductor_cache/b5/cb5dtjabsabqbgplf6wn3ynnljv3wmucstpps3kyvp5d4cdvewdf.py":26:36)
#loc6 = loc("inductor_cache/b5/cb5dtjabsabqbgplf6wn3ynnljv3wmucstpps3kyvp5d4cdvewdf.py":26:44)
#loc7 = loc("inductor_cache/b5/cb5dtjabsabqbgplf6wn3ynnljv3wmucstpps3kyvp5d4cdvewdf.py":26:23)
#loc8 = loc("inductor_cache/b5/cb5dtjabsabqbgplf6wn3ynnljv3wmucstpps3kyvp5d4cdvewdf.py":29:19)
#loc9 = loc("inductor_cache/b5/cb5dtjabsabqbgplf6wn3ynnljv3wmucstpps3kyvp5d4cdvewdf.py":30:19)
#loc10 = loc("inductor_cache/b5/cb5dtjabsabqbgplf6wn3ynnljv3wmucstpps3kyvp5d4cdvewdf.py":32:40)
#loc11 = loc("inductor_cache/b5/cb5dtjabsabqbgplf6wn3ynnljv3wmucstpps3kyvp5d4cdvewdf.py":32:35)
#loc12 = loc("inductor_cache/b5/cb5dtjabsabqbgplf6wn3ynnljv3wmucstpps3kyvp5d4cdvewdf.py":32:53)
#loc13 = loc("inductor_cache/b5/cb5dtjabsabqbgplf6wn3ynnljv3wmucstpps3kyvp5d4cdvewdf.py":32:45)
#loc14 = loc("inductor_cache/b5/cb5dtjabsabqbgplf6wn3ynnljv3wmucstpps3kyvp5d4cdvewdf.py":32:30)
#loc15 = loc("inductor_cache/b5/cb5dtjabsabqbgplf6wn3ynnljv3wmucstpps3kyvp5d4cdvewdf.py":32:58)
#loc16 = loc("/home/sahanp/.conda/envs/parity-bench/lib/python3.12/site-packages/torch/_inductor/runtime/triton_helpers.py":118:15)
#loc17 = loc("inductor_cache/b5/cb5dtjabsabqbgplf6wn3ynnljv3wmucstpps3kyvp5d4cdvewdf.py":34:40)
#loc18 = loc("/home/sahanp/.conda/envs/parity-bench/lib/python3.12/site-packages/torch/_inductor/runtime/triton_helpers.py":121:29)
#loc19 = loc("inductor_cache/b5/cb5dtjabsabqbgplf6wn3ynnljv3wmucstpps3kyvp5d4cdvewdf.py":36:19)
#loc20 = loc("inductor_cache/b5/cb5dtjabsabqbgplf6wn3ynnljv3wmucstpps3kyvp5d4cdvewdf.py":37:35)
#loc21 = loc("inductor_cache/b5/cb5dtjabsabqbgplf6wn3ynnljv3wmucstpps3kyvp5d4cdvewdf.py":37:30)
#loc22 = loc("inductor_cache/b5/cb5dtjabsabqbgplf6wn3ynnljv3wmucstpps3kyvp5d4cdvewdf.py":37:25)
#loc23 = loc("inductor_cache/b5/cb5dtjabsabqbgplf6wn3ynnljv3wmucstpps3kyvp5d4cdvewdf.py":37:46)
#loc24 = loc("inductor_cache/b5/cb5dtjabsabqbgplf6wn3ynnljv3wmucstpps3kyvp5d4cdvewdf.py":38:25)
#loc25 = loc("inductor_cache/b5/cb5dtjabsabqbgplf6wn3ynnljv3wmucstpps3kyvp5d4cdvewdf.py":38:59)
#loc26 = loc("inductor_cache/b5/cb5dtjabsabqbgplf6wn3ynnljv3wmucstpps3kyvp5d4cdvewdf.py":38:4)
#loc27 = loc(callsite(#loc16 at #loc17))
#loc28 = loc(callsite(#loc18 at #loc17))
