#loc = loc("inductor_cache/qm/cqmabdl3wjwqswbqehxwnuijxzzfw2ncmmypyamkal3tsagwap2x.py":19:0)
#loc1 = loc(unknown)
#loc16 = loc("inductor_cache/qm/cqmabdl3wjwqswbqehxwnuijxzzfw2ncmmypyamkal3tsagwap2x.py":39:24)
#loc23 = loc("inductor_cache/qm/cqmabdl3wjwqswbqehxwnuijxzzfw2ncmmypyamkal3tsagwap2x.py":47:26)
#loc41 = loc(callsite(#loc1 at #loc16))
#loc44 = loc(callsite(#loc1 at #loc23))
module {
  tt.func public @triton_per_fused__native_batch_norm_legit_convolution_relu_22(%arg0: !tt.ptr<f32> {tt.divisibility = 16 : i32} loc("inductor_cache/qm/cqmabdl3wjwqswbqehxwnuijxzzfw2ncmmypyamkal3tsagwap2x.py":19:0), %arg1: !tt.ptr<f32> {tt.divisibility = 16 : i32} loc("inductor_cache/qm/cqmabdl3wjwqswbqehxwnuijxzzfw2ncmmypyamkal3tsagwap2x.py":19:0), %arg2: !tt.ptr<f32> {tt.divisibility = 16 : i32} loc("inductor_cache/qm/cqmabdl3wjwqswbqehxwnuijxzzfw2ncmmypyamkal3tsagwap2x.py":19:0), %arg3: !tt.ptr<f32> {tt.divisibility = 16 : i32} loc("inductor_cache/qm/cqmabdl3wjwqswbqehxwnuijxzzfw2ncmmypyamkal3tsagwap2x.py":19:0), %arg4: !tt.ptr<f32> {tt.divisibility = 16 : i32} loc("inductor_cache/qm/cqmabdl3wjwqswbqehxwnuijxzzfw2ncmmypyamkal3tsagwap2x.py":19:0), %arg5: i32 {tt.divisibility = 16 : i32} loc("inductor_cache/qm/cqmabdl3wjwqswbqehxwnuijxzzfw2ncmmypyamkal3tsagwap2x.py":19:0), %arg6: i32 {tt.divisibility = 16 : i32} loc("inductor_cache/qm/cqmabdl3wjwqswbqehxwnuijxzzfw2ncmmypyamkal3tsagwap2x.py":19:0)) attributes {noinline = false} {
    %c64_i32 = arith.constant 64 : i32 loc(#loc1)
    %c256_i32 = arith.constant 256 : i32 loc(#loc1)
    %c1024_i32 = arith.constant 1024 : i32 loc(#loc1)
    %cst = arith.constant dense<9.99999974E-6> : tensor<1x1xf32> loc(#loc1)
    %cst_0 = arith.constant dense<6.400000e+01> : tensor<1x1xf32> loc(#loc1)
    %cst_1 = arith.constant dense<0.000000e+00> : tensor<1x64xf32> loc(#loc1)
    %0 = tt.get_program_id x : i32 loc(#loc2)
    %1 = arith.cmpi slt, %0, %c1024_i32 : i32 loc(#loc3)
    %2 = tt.splat %1 : i1 -> tensor<1x1xi1> loc(#loc3)
    %3 = tt.make_range {end = 64 : i32, start = 0 : i32} : tensor<64xi32> loc(#loc4)
    %4 = tt.expand_dims %3 {axis = 0 : i32} : tensor<64xi32> -> tensor<1x64xi32> loc(#loc5)
    %5 = arith.remsi %0, %c256_i32 : i32 loc(#loc6)
    %6 = arith.muli %0, %c64_i32 : i32 loc(#loc7)
    %7 = tt.splat %6 : i32 -> tensor<1x64xi32> loc(#loc8)
    %8 = arith.addi %4, %7 : tensor<1x64xi32> loc(#loc8)
    %9 = tt.splat %arg0 : !tt.ptr<f32> -> tensor<1x64x!tt.ptr<f32>> loc(#loc9)
    %10 = tt.addptr %9, %8 : tensor<1x64x!tt.ptr<f32>>, tensor<1x64xi32> loc(#loc9)
    %11 = tt.splat %1 : i1 -> tensor<1x64xi1> loc(#loc10)
    %12 = tt.load %10, %11, %cst_1 : tensor<1x64x!tt.ptr<f32>> loc(#loc10)
    %13 = tt.addptr %arg1, %5 : !tt.ptr<f32>, i32 loc(#loc11)
    %14 = tt.splat %13 : !tt.ptr<f32> -> tensor<1x1x!tt.ptr<f32>> loc(#loc11)
    %15 = tt.load %14, %2 evictionPolicy = evict_last : tensor<1x1x!tt.ptr<f32>> loc(#loc12)
    %16 = tt.broadcast %15 : tensor<1x1xf32> -> tensor<1x64xf32> loc(#loc13)
    %17 = arith.addf %12, %16 : tensor<1x64xf32> loc(#loc13)
    %18 = arith.select %11, %17, %cst_1 : tensor<1x64xi1>, tensor<1x64xf32> loc(#loc14)
    %19 = "tt.reduce"(%18) <{axis = 1 : i32}> ({
    ^bb0(%arg7: f32 loc(callsite(#loc1 at #loc16)), %arg8: f32 loc(callsite(#loc1 at #loc16))):
      %41 = arith.addf %arg7, %arg8 : f32 loc(#loc47)
      tt.reduce.return %41 : f32 loc(#loc40)
    }) : (tensor<1x64xf32>) -> tensor<1xf32> loc(#loc40)
    %20 = tt.expand_dims %19 {axis = 1 : i32} : tensor<1xf32> -> tensor<1x1xf32> loc(#loc18)
    %21 = arith.divf %20, %cst_0 : tensor<1x1xf32> loc(#loc19)
    %22 = tt.broadcast %21 : tensor<1x1xf32> -> tensor<1x64xf32> loc(#loc20)
    %23 = arith.subf %17, %22 : tensor<1x64xf32> loc(#loc20)
    %24 = arith.mulf %23, %23 : tensor<1x64xf32> loc(#loc21)
    %25 = arith.select %11, %24, %cst_1 : tensor<1x64xi1>, tensor<1x64xf32> loc(#loc22)
    %26 = "tt.reduce"(%25) <{axis = 1 : i32}> ({
    ^bb0(%arg7: f32 loc(callsite(#loc1 at #loc23)), %arg8: f32 loc(callsite(#loc1 at #loc23))):
      %41 = arith.addf %arg7, %arg8 : f32 loc(#loc48)
      tt.reduce.return %41 : f32 loc(#loc43)
    }) : (tensor<1x64xf32>) -> tensor<1xf32> loc(#loc43)
    %27 = tt.expand_dims %26 {axis = 1 : i32} : tensor<1xf32> -> tensor<1x1xf32> loc(#loc24)
    %28 = arith.divf %27, %cst_0 : tensor<1x1xf32> loc(#loc25)
    %29 = arith.addf %28, %cst : tensor<1x1xf32> loc(#loc26)
    %30 = tt.extern_elementwise %29 {libname = "", libpath = "", pure = true, symbol = "__nv_rsqrtf"} : (tensor<1x1xf32>) -> tensor<1x1xf32> loc(#loc27)
    %31 = tt.broadcast %30 : tensor<1x1xf32> -> tensor<1x64xf32> loc(#loc28)
    %32 = arith.mulf %23, %31 : tensor<1x64xf32> loc(#loc28)
    %33 = arith.cmpf ogt, %cst_1, %32 : tensor<1x64xf32> loc(#loc45)
    %34 = arith.select %33, %cst_1, %32 : tensor<1x64xi1>, tensor<1x64xf32> loc(#loc46)
    tt.store %10, %17, %11 : tensor<1x64x!tt.ptr<f32>> loc(#loc32)
    %35 = tt.splat %arg3 : !tt.ptr<f32> -> tensor<1x64x!tt.ptr<f32>> loc(#loc33)
    %36 = tt.addptr %35, %8 : tensor<1x64x!tt.ptr<f32>>, tensor<1x64xi32> loc(#loc33)
    tt.store %36, %34, %11 : tensor<1x64x!tt.ptr<f32>> loc(#loc34)
    %37 = tt.addptr %arg4, %0 : !tt.ptr<f32>, i32 loc(#loc35)
    %38 = tt.splat %37 : !tt.ptr<f32> -> tensor<1x1x!tt.ptr<f32>> loc(#loc35)
    tt.store %38, %30, %2 : tensor<1x1x!tt.ptr<f32>> loc(#loc36)
    %39 = tt.addptr %arg2, %0 : !tt.ptr<f32>, i32 loc(#loc37)
    %40 = tt.splat %39 : !tt.ptr<f32> -> tensor<1x1x!tt.ptr<f32>> loc(#loc37)
    tt.store %40, %21, %2 : tensor<1x1x!tt.ptr<f32>> loc(#loc38)
    tt.return loc(#loc39)
  } loc(#loc)
} loc(#loc)
#loc2 = loc("inductor_cache/qm/cqmabdl3wjwqswbqehxwnuijxzzfw2ncmmypyamkal3tsagwap2x.py":23:28)
#loc3 = loc("inductor_cache/qm/cqmabdl3wjwqswbqehxwnuijxzzfw2ncmmypyamkal3tsagwap2x.py":25:21)
#loc4 = loc("inductor_cache/qm/cqmabdl3wjwqswbqehxwnuijxzzfw2ncmmypyamkal3tsagwap2x.py":26:26)
#loc5 = loc("inductor_cache/qm/cqmabdl3wjwqswbqehxwnuijxzzfw2ncmmypyamkal3tsagwap2x.py":26:34)
#loc6 = loc("inductor_cache/qm/cqmabdl3wjwqswbqehxwnuijxzzfw2ncmmypyamkal3tsagwap2x.py":31:19)
#loc7 = loc("inductor_cache/qm/cqmabdl3wjwqswbqehxwnuijxzzfw2ncmmypyamkal3tsagwap2x.py":32:42)
#loc8 = loc("inductor_cache/qm/cqmabdl3wjwqswbqehxwnuijxzzfw2ncmmypyamkal3tsagwap2x.py":32:39)
#loc9 = loc("inductor_cache/qm/cqmabdl3wjwqswbqehxwnuijxzzfw2ncmmypyamkal3tsagwap2x.py":32:34)
#loc10 = loc("inductor_cache/qm/cqmabdl3wjwqswbqehxwnuijxzzfw2ncmmypyamkal3tsagwap2x.py":32:47)
#loc11 = loc("inductor_cache/qm/cqmabdl3wjwqswbqehxwnuijxzzfw2ncmmypyamkal3tsagwap2x.py":33:30)
#loc12 = loc("inductor_cache/qm/cqmabdl3wjwqswbqehxwnuijxzzfw2ncmmypyamkal3tsagwap2x.py":33:35)
#loc13 = loc("inductor_cache/qm/cqmabdl3wjwqswbqehxwnuijxzzfw2ncmmypyamkal3tsagwap2x.py":34:18)
#loc14 = loc("inductor_cache/qm/cqmabdl3wjwqswbqehxwnuijxzzfw2ncmmypyamkal3tsagwap2x.py":38:33)
#loc15 = loc("/home/sahanp/.conda/envs/parity-bench/lib/python3.12/site-packages/triton/language/standard.py":267:36)
#loc17 = loc("/home/sahanp/.conda/envs/parity-bench/lib/python3.12/site-packages/triton/language/standard.py":256:15)
#loc18 = loc("inductor_cache/qm/cqmabdl3wjwqswbqehxwnuijxzzfw2ncmmypyamkal3tsagwap2x.py":39:27)
#loc19 = loc("inductor_cache/qm/cqmabdl3wjwqswbqehxwnuijxzzfw2ncmmypyamkal3tsagwap2x.py":42:19)
#loc20 = loc("inductor_cache/qm/cqmabdl3wjwqswbqehxwnuijxzzfw2ncmmypyamkal3tsagwap2x.py":43:19)
#loc21 = loc("inductor_cache/qm/cqmabdl3wjwqswbqehxwnuijxzzfw2ncmmypyamkal3tsagwap2x.py":44:20)
#loc22 = loc("inductor_cache/qm/cqmabdl3wjwqswbqehxwnuijxzzfw2ncmmypyamkal3tsagwap2x.py":46:35)
#loc24 = loc("inductor_cache/qm/cqmabdl3wjwqswbqehxwnuijxzzfw2ncmmypyamkal3tsagwap2x.py":47:29)
#loc25 = loc("inductor_cache/qm/cqmabdl3wjwqswbqehxwnuijxzzfw2ncmmypyamkal3tsagwap2x.py":50:20)
#loc26 = loc("inductor_cache/qm/cqmabdl3wjwqswbqehxwnuijxzzfw2ncmmypyamkal3tsagwap2x.py":52:20)
#loc27 = loc("inductor_cache/qm/cqmabdl3wjwqswbqehxwnuijxzzfw2ncmmypyamkal3tsagwap2x.py":53:28)
#loc28 = loc("inductor_cache/qm/cqmabdl3wjwqswbqehxwnuijxzzfw2ncmmypyamkal3tsagwap2x.py":54:20)
#loc29 = loc("/home/sahanp/.conda/envs/parity-bench/lib/python3.12/site-packages/torch/_inductor/runtime/triton_helpers.py":118:15)
#loc30 = loc("inductor_cache/qm/cqmabdl3wjwqswbqehxwnuijxzzfw2ncmmypyamkal3tsagwap2x.py":56:42)
#loc31 = loc("/home/sahanp/.conda/envs/parity-bench/lib/python3.12/site-packages/torch/_inductor/runtime/triton_helpers.py":121:29)
#loc32 = loc("inductor_cache/qm/cqmabdl3wjwqswbqehxwnuijxzzfw2ncmmypyamkal3tsagwap2x.py":57:47)
#loc33 = loc("inductor_cache/qm/cqmabdl3wjwqswbqehxwnuijxzzfw2ncmmypyamkal3tsagwap2x.py":58:25)
#loc34 = loc("inductor_cache/qm/cqmabdl3wjwqswbqehxwnuijxzzfw2ncmmypyamkal3tsagwap2x.py":58:45)
#loc35 = loc("inductor_cache/qm/cqmabdl3wjwqswbqehxwnuijxzzfw2ncmmypyamkal3tsagwap2x.py":59:25)
#loc36 = loc("inductor_cache/qm/cqmabdl3wjwqswbqehxwnuijxzzfw2ncmmypyamkal3tsagwap2x.py":59:37)
#loc37 = loc("inductor_cache/qm/cqmabdl3wjwqswbqehxwnuijxzzfw2ncmmypyamkal3tsagwap2x.py":60:25)
#loc38 = loc("inductor_cache/qm/cqmabdl3wjwqswbqehxwnuijxzzfw2ncmmypyamkal3tsagwap2x.py":60:37)
#loc39 = loc("inductor_cache/qm/cqmabdl3wjwqswbqehxwnuijxzzfw2ncmmypyamkal3tsagwap2x.py":60:4)
#loc40 = loc(callsite(#loc15 at #loc16))
#loc42 = loc(callsite(#loc17 at #loc15))
#loc43 = loc(callsite(#loc15 at #loc23))
#loc45 = loc(callsite(#loc29 at #loc30))
#loc46 = loc(callsite(#loc31 at #loc30))
#loc47 = loc(callsite(#loc42 at #loc16))
#loc48 = loc(callsite(#loc42 at #loc23))
