#loc = loc("inductor_cache/st/csts6as55iy5gv3ifkxcvbbq7hnouw2rn3erdf7oapiwe4jlowd4.py":19:0)
module {
  tt.func public @triton_poi_fused__native_batch_norm_legit_no_training_convolution_mul_sigmoid_1(%arg0: !tt.ptr<f32> {tt.divisibility = 16 : i32} loc("inductor_cache/st/csts6as55iy5gv3ifkxcvbbq7hnouw2rn3erdf7oapiwe4jlowd4.py":19:0), %arg1: !tt.ptr<f32> {tt.divisibility = 16 : i32} loc("inductor_cache/st/csts6as55iy5gv3ifkxcvbbq7hnouw2rn3erdf7oapiwe4jlowd4.py":19:0), %arg2: !tt.ptr<f32> {tt.divisibility = 16 : i32} loc("inductor_cache/st/csts6as55iy5gv3ifkxcvbbq7hnouw2rn3erdf7oapiwe4jlowd4.py":19:0), %arg3: !tt.ptr<f32> {tt.divisibility = 16 : i32} loc("inductor_cache/st/csts6as55iy5gv3ifkxcvbbq7hnouw2rn3erdf7oapiwe4jlowd4.py":19:0), %arg4: !tt.ptr<f32> {tt.divisibility = 16 : i32} loc("inductor_cache/st/csts6as55iy5gv3ifkxcvbbq7hnouw2rn3erdf7oapiwe4jlowd4.py":19:0), %arg5: !tt.ptr<f32> {tt.divisibility = 16 : i32} loc("inductor_cache/st/csts6as55iy5gv3ifkxcvbbq7hnouw2rn3erdf7oapiwe4jlowd4.py":19:0), %arg6: !tt.ptr<f32> {tt.divisibility = 16 : i32} loc("inductor_cache/st/csts6as55iy5gv3ifkxcvbbq7hnouw2rn3erdf7oapiwe4jlowd4.py":19:0), %arg7: i32 {tt.divisibility = 16 : i32} loc("inductor_cache/st/csts6as55iy5gv3ifkxcvbbq7hnouw2rn3erdf7oapiwe4jlowd4.py":19:0)) attributes {noinline = false} {
    %cst = arith.constant 1.000000e+00 : f32 loc(#loc1)
    %cst_0 = arith.constant 9.99999974E-6 : f32 loc(#loc1)
    %cst_1 = arith.constant dense<0.000000e+00> : tensor<64xf32> loc(#loc1)
    %cst_2 = arith.constant dense<1.000000e+00> : tensor<64xf32> loc(#loc1)
    %c0_i32 = arith.constant 0 : i32 loc(#loc1)
    %cst_3 = arith.constant dense<64> : tensor<64xi32> loc(#loc1)
    %c64_i32 = arith.constant 64 : i32 loc(#loc1)
    %0 = tt.get_program_id x : i32 loc(#loc2)
    %1 = arith.muli %0, %c64_i32 : i32 loc(#loc3)
    %2 = tt.make_range {end = 64 : i32, start = 0 : i32} : tensor<64xi32> loc(#loc4)
    %3 = tt.splat %1 : i32 -> tensor<64xi32> loc(#loc5)
    %4 = arith.addi %3, %2 : tensor<64xi32> loc(#loc5)
    %5 = arith.cmpi slt, %4, %cst_3 : tensor<64xi32> loc(#loc6)
    %6 = tt.splat %arg0 : !tt.ptr<f32> -> tensor<64x!tt.ptr<f32>> loc(#loc7)
    %7 = tt.addptr %6, %4 : tensor<64x!tt.ptr<f32>>, tensor<64xi32> loc(#loc7)
    %8 = tt.load %7, %5 : tensor<64x!tt.ptr<f32>> loc(#loc8)
    %9 = tt.addptr %arg2, %c0_i32 : !tt.ptr<f32>, i32 loc(#loc9)
    %10 = tt.load %9 : !tt.ptr<f32> loc(#loc10)
    %11 = tt.splat %10 : f32 -> tensor<64xf32> loc(#loc11)
    %12 = tt.addptr %arg3, %c0_i32 : !tt.ptr<f32>, i32 loc(#loc12)
    %13 = tt.load %12 : !tt.ptr<f32> loc(#loc13)
    %14 = tt.splat %13 : f32 -> tensor<64xf32> loc(#loc14)
    %15 = tt.addptr %arg4, %c0_i32 : !tt.ptr<f32>, i32 loc(#loc15)
    %16 = tt.load %15 : !tt.ptr<f32> loc(#loc16)
    %17 = tt.addptr %arg5, %c0_i32 : !tt.ptr<f32>, i32 loc(#loc17)
    %18 = tt.load %17 : !tt.ptr<f32> loc(#loc18)
    %19 = tt.splat %18 : f32 -> tensor<64xf32> loc(#loc19)
    %20 = tt.addptr %arg6, %c0_i32 : !tt.ptr<f32>, i32 loc(#loc20)
    %21 = tt.load %20 : !tt.ptr<f32> loc(#loc21)
    %22 = tt.splat %21 : f32 -> tensor<64xf32> loc(#loc22)
    %23 = arith.addf %8, %11 : tensor<64xf32> loc(#loc23)
    %24 = arith.subf %23, %14 : tensor<64xf32> loc(#loc24)
    %25 = arith.addf %16, %cst_0 : f32 loc(#loc25)
    %26 = tt.extern_elementwise %25 {libname = "", libpath = "", pure = true, symbol = "__nv_sqrtf"} : (f32) -> f32 loc(#loc26)
    %27 = arith.divf %cst, %26 : f32 loc(#loc27)
    %28 = tt.splat %27 : f32 -> tensor<64xf32> loc(#loc27)
    %29 = arith.mulf %24, %28 : tensor<64xf32> loc(#loc28)
    %30 = arith.mulf %29, %19 : tensor<64xf32> loc(#loc29)
    %31 = arith.addf %30, %22 : tensor<64xf32> loc(#loc30)
    %32 = arith.subf %cst_1, %31 : tensor<64xf32> loc(#loc41)
    %33 = math.exp %32 : tensor<64xf32> loc(#loc42)
    %34 = arith.addf %33, %cst_2 : tensor<64xf32> loc(#loc43)
    %35 = arith.divf %cst_2, %34 : tensor<64xf32> loc(#loc44)
    %36 = arith.mulf %31, %35 : tensor<64xf32> loc(#loc36)
    tt.store %7, %23, %5 : tensor<64x!tt.ptr<f32>> loc(#loc37)
    %37 = tt.splat %arg1 : !tt.ptr<f32> -> tensor<64x!tt.ptr<f32>> loc(#loc38)
    %38 = tt.addptr %37, %4 : tensor<64x!tt.ptr<f32>>, tensor<64xi32> loc(#loc38)
    tt.store %38, %36, %5 : tensor<64x!tt.ptr<f32>> loc(#loc39)
    tt.return loc(#loc40)
  } loc(#loc)
} loc(#loc)
#loc1 = loc(unknown)
#loc2 = loc("inductor_cache/st/csts6as55iy5gv3ifkxcvbbq7hnouw2rn3erdf7oapiwe4jlowd4.py":21:28)
#loc3 = loc("inductor_cache/st/csts6as55iy5gv3ifkxcvbbq7hnouw2rn3erdf7oapiwe4jlowd4.py":21:33)
#loc4 = loc("inductor_cache/st/csts6as55iy5gv3ifkxcvbbq7hnouw2rn3erdf7oapiwe4jlowd4.py":22:36)
#loc5 = loc("inductor_cache/st/csts6as55iy5gv3ifkxcvbbq7hnouw2rn3erdf7oapiwe4jlowd4.py":22:23)
#loc6 = loc("inductor_cache/st/csts6as55iy5gv3ifkxcvbbq7hnouw2rn3erdf7oapiwe4jlowd4.py":23:21)
#loc7 = loc("inductor_cache/st/csts6as55iy5gv3ifkxcvbbq7hnouw2rn3erdf7oapiwe4jlowd4.py":25:34)
#loc8 = loc("inductor_cache/st/csts6as55iy5gv3ifkxcvbbq7hnouw2rn3erdf7oapiwe4jlowd4.py":25:39)
#loc9 = loc("inductor_cache/st/csts6as55iy5gv3ifkxcvbbq7hnouw2rn3erdf7oapiwe4jlowd4.py":26:30)
#loc10 = loc("inductor_cache/st/csts6as55iy5gv3ifkxcvbbq7hnouw2rn3erdf7oapiwe4jlowd4.py":26:19)
#loc11 = loc("inductor_cache/st/csts6as55iy5gv3ifkxcvbbq7hnouw2rn3erdf7oapiwe4jlowd4.py":27:33)
#loc12 = loc("inductor_cache/st/csts6as55iy5gv3ifkxcvbbq7hnouw2rn3erdf7oapiwe4jlowd4.py":28:30)
#loc13 = loc("inductor_cache/st/csts6as55iy5gv3ifkxcvbbq7hnouw2rn3erdf7oapiwe4jlowd4.py":28:19)
#loc14 = loc("inductor_cache/st/csts6as55iy5gv3ifkxcvbbq7hnouw2rn3erdf7oapiwe4jlowd4.py":29:33)
#loc15 = loc("inductor_cache/st/csts6as55iy5gv3ifkxcvbbq7hnouw2rn3erdf7oapiwe4jlowd4.py":30:30)
#loc16 = loc("inductor_cache/st/csts6as55iy5gv3ifkxcvbbq7hnouw2rn3erdf7oapiwe4jlowd4.py":30:19)
#loc17 = loc("inductor_cache/st/csts6as55iy5gv3ifkxcvbbq7hnouw2rn3erdf7oapiwe4jlowd4.py":32:31)
#loc18 = loc("inductor_cache/st/csts6as55iy5gv3ifkxcvbbq7hnouw2rn3erdf7oapiwe4jlowd4.py":32:20)
#loc19 = loc("inductor_cache/st/csts6as55iy5gv3ifkxcvbbq7hnouw2rn3erdf7oapiwe4jlowd4.py":33:35)
#loc20 = loc("inductor_cache/st/csts6as55iy5gv3ifkxcvbbq7hnouw2rn3erdf7oapiwe4jlowd4.py":34:31)
#loc21 = loc("inductor_cache/st/csts6as55iy5gv3ifkxcvbbq7hnouw2rn3erdf7oapiwe4jlowd4.py":34:20)
#loc22 = loc("inductor_cache/st/csts6as55iy5gv3ifkxcvbbq7hnouw2rn3erdf7oapiwe4jlowd4.py":35:35)
#loc23 = loc("inductor_cache/st/csts6as55iy5gv3ifkxcvbbq7hnouw2rn3erdf7oapiwe4jlowd4.py":36:18)
#loc24 = loc("inductor_cache/st/csts6as55iy5gv3ifkxcvbbq7hnouw2rn3erdf7oapiwe4jlowd4.py":37:18)
#loc25 = loc("inductor_cache/st/csts6as55iy5gv3ifkxcvbbq7hnouw2rn3erdf7oapiwe4jlowd4.py":39:19)
#loc26 = loc("inductor_cache/st/csts6as55iy5gv3ifkxcvbbq7hnouw2rn3erdf7oapiwe4jlowd4.py":40:27)
#loc27 = loc("inductor_cache/st/csts6as55iy5gv3ifkxcvbbq7hnouw2rn3erdf7oapiwe4jlowd4.py":42:20)
#loc28 = loc("inductor_cache/st/csts6as55iy5gv3ifkxcvbbq7hnouw2rn3erdf7oapiwe4jlowd4.py":45:19)
#loc29 = loc("inductor_cache/st/csts6as55iy5gv3ifkxcvbbq7hnouw2rn3erdf7oapiwe4jlowd4.py":46:20)
#loc30 = loc("inductor_cache/st/csts6as55iy5gv3ifkxcvbbq7hnouw2rn3erdf7oapiwe4jlowd4.py":47:20)
#loc31 = loc("/home/sahanp/.conda/envs/parity-bench/lib/python3.12/site-packages/triton/language/standard.py":47:30)
#loc32 = loc("inductor_cache/st/csts6as55iy5gv3ifkxcvbbq7hnouw2rn3erdf7oapiwe4jlowd4.py":48:23)
#loc33 = loc("/home/sahanp/.conda/envs/parity-bench/lib/python3.12/site-packages/triton/language/standard.py":47:29)
#loc34 = loc("/home/sahanp/.conda/envs/parity-bench/lib/python3.12/site-packages/triton/language/standard.py":47:20)
#loc35 = loc("/home/sahanp/.conda/envs/parity-bench/lib/python3.12/site-packages/triton/language/standard.py":47:16)
#loc36 = loc("inductor_cache/st/csts6as55iy5gv3ifkxcvbbq7hnouw2rn3erdf7oapiwe4jlowd4.py":49:20)
#loc37 = loc("inductor_cache/st/csts6as55iy5gv3ifkxcvbbq7hnouw2rn3erdf7oapiwe4jlowd4.py":50:39)
#loc38 = loc("inductor_cache/st/csts6as55iy5gv3ifkxcvbbq7hnouw2rn3erdf7oapiwe4jlowd4.py":51:28)
#loc39 = loc("inductor_cache/st/csts6as55iy5gv3ifkxcvbbq7hnouw2rn3erdf7oapiwe4jlowd4.py":51:40)
#loc40 = loc("inductor_cache/st/csts6as55iy5gv3ifkxcvbbq7hnouw2rn3erdf7oapiwe4jlowd4.py":51:4)
#loc41 = loc(callsite(#loc31 at #loc32))
#loc42 = loc(callsite(#loc33 at #loc32))
#loc43 = loc(callsite(#loc34 at #loc32))
#loc44 = loc(callsite(#loc35 at #loc32))
