#loc = loc("inductor_cache/ne/cnewqgjmp7t7egsutsy52xvlxakqe4ypiw7xrlxi5xatu6mxgqyf.py":19:0)
module {
  tt.func public @triton_poi_fused__native_batch_norm_legit_no_training_cat_leaky_relu_2(%arg0: !tt.ptr<f32> {tt.divisibility = 16 : i32} loc("inductor_cache/ne/cnewqgjmp7t7egsutsy52xvlxakqe4ypiw7xrlxi5xatu6mxgqyf.py":19:0), %arg1: !tt.ptr<f32> {tt.divisibility = 16 : i32} loc("inductor_cache/ne/cnewqgjmp7t7egsutsy52xvlxakqe4ypiw7xrlxi5xatu6mxgqyf.py":19:0), %arg2: !tt.ptr<f32> {tt.divisibility = 16 : i32} loc("inductor_cache/ne/cnewqgjmp7t7egsutsy52xvlxakqe4ypiw7xrlxi5xatu6mxgqyf.py":19:0), %arg3: !tt.ptr<f32> {tt.divisibility = 16 : i32} loc("inductor_cache/ne/cnewqgjmp7t7egsutsy52xvlxakqe4ypiw7xrlxi5xatu6mxgqyf.py":19:0), %arg4: !tt.ptr<f32> {tt.divisibility = 16 : i32} loc("inductor_cache/ne/cnewqgjmp7t7egsutsy52xvlxakqe4ypiw7xrlxi5xatu6mxgqyf.py":19:0), %arg5: !tt.ptr<f32> {tt.divisibility = 16 : i32} loc("inductor_cache/ne/cnewqgjmp7t7egsutsy52xvlxakqe4ypiw7xrlxi5xatu6mxgqyf.py":19:0), %arg6: !tt.ptr<f32> {tt.divisibility = 16 : i32} loc("inductor_cache/ne/cnewqgjmp7t7egsutsy52xvlxakqe4ypiw7xrlxi5xatu6mxgqyf.py":19:0), %arg7: !tt.ptr<f32> {tt.divisibility = 16 : i32} loc("inductor_cache/ne/cnewqgjmp7t7egsutsy52xvlxakqe4ypiw7xrlxi5xatu6mxgqyf.py":19:0), %arg8: !tt.ptr<f32> {tt.divisibility = 16 : i32} loc("inductor_cache/ne/cnewqgjmp7t7egsutsy52xvlxakqe4ypiw7xrlxi5xatu6mxgqyf.py":19:0), %arg9: !tt.ptr<f32> {tt.divisibility = 16 : i32} loc("inductor_cache/ne/cnewqgjmp7t7egsutsy52xvlxakqe4ypiw7xrlxi5xatu6mxgqyf.py":19:0), %arg10: i32 {tt.divisibility = 16 : i32} loc("inductor_cache/ne/cnewqgjmp7t7egsutsy52xvlxakqe4ypiw7xrlxi5xatu6mxgqyf.py":19:0)) attributes {noinline = false} {
    %cst = arith.constant dense<1.000000e+00> : tensor<256xf32> loc(#loc1)
    %cst_0 = arith.constant dense<0.00999999977> : tensor<256xf32> loc(#loc1)
    %cst_1 = arith.constant dense<9.99999974E-6> : tensor<256xf32> loc(#loc1)
    %cst_2 = arith.constant dense<-768> : tensor<256xi32> loc(#loc1)
    %cst_3 = arith.constant dense<-512> : tensor<256xi32> loc(#loc1)
    %cst_4 = arith.constant dense<768> : tensor<256xi64> loc(#loc1)
    %cst_5 = arith.constant dense<-256> : tensor<256xi32> loc(#loc1)
    %cst_6 = arith.constant dense<512> : tensor<256xi64> loc(#loc1)
    %cst_7 = arith.constant dense<0.000000e+00> : tensor<256xf32> loc(#loc1)
    %cst_8 = arith.constant dense<256> : tensor<256xi32> loc(#loc1)
    %cst_9 = arith.constant dense<256> : tensor<256xi64> loc(#loc1)
    %cst_10 = arith.constant dense<1024> : tensor<256xi32> loc(#loc1)
    %c256_i32 = arith.constant 256 : i32 loc(#loc1)
    %0 = tt.get_program_id x : i32 loc(#loc2)
    %1 = arith.muli %0, %c256_i32 : i32 loc(#loc3)
    %2 = tt.make_range {end = 256 : i32, start = 0 : i32} : tensor<256xi32> loc(#loc4)
    %3 = tt.splat %1 : i32 -> tensor<256xi32> loc(#loc5)
    %4 = arith.addi %3, %2 : tensor<256xi32> loc(#loc5)
    %5 = arith.remsi %4, %cst_10 : tensor<256xi32> loc(#loc6)
    %6 = arith.divsi %4, %cst_10 : tensor<256xi32> loc(#loc7)
    %7 = tt.splat %arg5 : !tt.ptr<f32> -> tensor<256x!tt.ptr<f32>> loc(#loc8)
    %8 = tt.addptr %7, %5 : tensor<256x!tt.ptr<f32>>, tensor<256xi32> loc(#loc8)
    %9 = tt.load %8 evictionPolicy = evict_last : tensor<256x!tt.ptr<f32>> loc(#loc9)
    %10 = tt.splat %arg6 : !tt.ptr<f32> -> tensor<256x!tt.ptr<f32>> loc(#loc10)
    %11 = tt.addptr %10, %5 : tensor<256x!tt.ptr<f32>>, tensor<256xi32> loc(#loc10)
    %12 = tt.load %11 evictionPolicy = evict_last : tensor<256x!tt.ptr<f32>> loc(#loc11)
    %13 = tt.splat %arg7 : !tt.ptr<f32> -> tensor<256x!tt.ptr<f32>> loc(#loc12)
    %14 = tt.addptr %13, %5 : tensor<256x!tt.ptr<f32>>, tensor<256xi32> loc(#loc12)
    %15 = tt.load %14 evictionPolicy = evict_last : tensor<256x!tt.ptr<f32>> loc(#loc13)
    %16 = tt.splat %arg8 : !tt.ptr<f32> -> tensor<256x!tt.ptr<f32>> loc(#loc14)
    %17 = tt.addptr %16, %5 : tensor<256x!tt.ptr<f32>>, tensor<256xi32> loc(#loc14)
    %18 = tt.load %17 evictionPolicy = evict_last : tensor<256x!tt.ptr<f32>> loc(#loc15)
    %19 = arith.extsi %5 : tensor<256xi32> to tensor<256xi64> loc(#loc16)
    %20 = arith.cmpi slt, %19, %cst_9 : tensor<256xi64> loc(#loc16)
    %21 = arith.muli %6, %cst_8 : tensor<256xi32> loc(#loc17)
    %22 = arith.addi %21, %5 : tensor<256xi32> loc(#loc18)
    %23 = tt.splat %arg1 : !tt.ptr<f32> -> tensor<256x!tt.ptr<f32>> loc(#loc19)
    %24 = tt.addptr %23, %22 : tensor<256x!tt.ptr<f32>>, tensor<256xi32> loc(#loc19)
    %25 = tt.load %24, %20, %cst_7 evictionPolicy = evict_last : tensor<256x!tt.ptr<f32>> loc(#loc20)
    %26 = arith.cmpi sge, %19, %cst_9 : tensor<256xi64> loc(#loc21)
    %27 = arith.cmpi slt, %19, %cst_6 : tensor<256xi64> loc(#loc22)
    %28 = arith.andi %26, %27 : tensor<256xi1> loc(#loc23)
    %29 = arith.addi %5, %cst_5 : tensor<256xi32> loc(#loc24)
    %30 = arith.addi %21, %29 : tensor<256xi32> loc(#loc25)
    %31 = tt.splat %arg2 : !tt.ptr<f32> -> tensor<256x!tt.ptr<f32>> loc(#loc26)
    %32 = tt.addptr %31, %30 : tensor<256x!tt.ptr<f32>>, tensor<256xi32> loc(#loc26)
    %33 = tt.load %32, %28, %cst_7 evictionPolicy = evict_last : tensor<256x!tt.ptr<f32>> loc(#loc27)
    %34 = arith.cmpi sge, %19, %cst_6 : tensor<256xi64> loc(#loc28)
    %35 = arith.cmpi slt, %19, %cst_4 : tensor<256xi64> loc(#loc29)
    %36 = arith.andi %34, %35 : tensor<256xi1> loc(#loc30)
    %37 = arith.addi %5, %cst_3 : tensor<256xi32> loc(#loc31)
    %38 = arith.addi %21, %37 : tensor<256xi32> loc(#loc32)
    %39 = tt.splat %arg3 : !tt.ptr<f32> -> tensor<256x!tt.ptr<f32>> loc(#loc33)
    %40 = tt.addptr %39, %38 : tensor<256x!tt.ptr<f32>>, tensor<256xi32> loc(#loc33)
    %41 = tt.load %40, %36, %cst_7 evictionPolicy = evict_last : tensor<256x!tt.ptr<f32>> loc(#loc34)
    %42 = arith.cmpi sge, %19, %cst_4 : tensor<256xi64> loc(#loc35)
    %43 = arith.addi %5, %cst_2 : tensor<256xi32> loc(#loc36)
    %44 = arith.addi %21, %43 : tensor<256xi32> loc(#loc37)
    %45 = tt.splat %arg4 : !tt.ptr<f32> -> tensor<256x!tt.ptr<f32>> loc(#loc38)
    %46 = tt.addptr %45, %44 : tensor<256x!tt.ptr<f32>>, tensor<256xi32> loc(#loc38)
    %47 = tt.load %46, %42, %cst_7 evictionPolicy = evict_last : tensor<256x!tt.ptr<f32>> loc(#loc39)
    %48 = arith.select %36, %41, %47 : tensor<256xi1>, tensor<256xf32> loc(#loc40)
    %49 = arith.select %28, %33, %48 : tensor<256xi1>, tensor<256xf32> loc(#loc41)
    %50 = arith.select %20, %25, %49 : tensor<256xi1>, tensor<256xf32> loc(#loc42)
    %51 = arith.subf %50, %9 : tensor<256xf32> loc(#loc43)
    %52 = arith.addf %12, %cst_1 : tensor<256xf32> loc(#loc44)
    %53 = tt.extern_elementwise %52 {libname = "", libpath = "", pure = true, symbol = "__nv_sqrtf"} : (tensor<256xf32>) -> tensor<256xf32> loc(#loc45)
    %54 = arith.divf %cst, %53 : tensor<256xf32> loc(#loc46)
    %55 = arith.mulf %51, %54 : tensor<256xf32> loc(#loc47)
    %56 = arith.mulf %55, %15 : tensor<256xf32> loc(#loc48)
    %57 = arith.addf %56, %18 : tensor<256xf32> loc(#loc49)
    %58 = arith.cmpf ogt, %57, %cst_7 : tensor<256xf32> loc(#loc50)
    %59 = arith.mulf %57, %cst_0 : tensor<256xf32> loc(#loc51)
    %60 = arith.select %58, %57, %59 : tensor<256xi1>, tensor<256xf32> loc(#loc52)
    %61 = tt.splat %arg9 : !tt.ptr<f32> -> tensor<256x!tt.ptr<f32>> loc(#loc53)
    %62 = tt.addptr %61, %4 : tensor<256x!tt.ptr<f32>>, tensor<256xi32> loc(#loc53)
    tt.store %62, %50 : tensor<256x!tt.ptr<f32>> loc(#loc54)
    %63 = tt.splat %arg0 : !tt.ptr<f32> -> tensor<256x!tt.ptr<f32>> loc(#loc55)
    %64 = tt.addptr %63, %4 : tensor<256x!tt.ptr<f32>>, tensor<256xi32> loc(#loc55)
    tt.store %64, %60 : tensor<256x!tt.ptr<f32>> loc(#loc56)
    tt.return loc(#loc57)
  } loc(#loc)
} loc(#loc)
#loc1 = loc(unknown)
#loc2 = loc("inductor_cache/ne/cnewqgjmp7t7egsutsy52xvlxakqe4ypiw7xrlxi5xatu6mxgqyf.py":21:28)
#loc3 = loc("inductor_cache/ne/cnewqgjmp7t7egsutsy52xvlxakqe4ypiw7xrlxi5xatu6mxgqyf.py":21:33)
#loc4 = loc("inductor_cache/ne/cnewqgjmp7t7egsutsy52xvlxakqe4ypiw7xrlxi5xatu6mxgqyf.py":22:36)
#loc5 = loc("inductor_cache/ne/cnewqgjmp7t7egsutsy52xvlxakqe4ypiw7xrlxi5xatu6mxgqyf.py":22:23)
#loc6 = loc("inductor_cache/ne/cnewqgjmp7t7egsutsy52xvlxakqe4ypiw7xrlxi5xatu6mxgqyf.py":24:19)
#loc7 = loc("inductor_cache/ne/cnewqgjmp7t7egsutsy52xvlxakqe4ypiw7xrlxi5xatu6mxgqyf.py":25:19)
#loc8 = loc("inductor_cache/ne/cnewqgjmp7t7egsutsy52xvlxakqe4ypiw7xrlxi5xatu6mxgqyf.py":27:31)
#loc9 = loc("inductor_cache/ne/cnewqgjmp7t7egsutsy52xvlxakqe4ypiw7xrlxi5xatu6mxgqyf.py":27:36)
#loc10 = loc("inductor_cache/ne/cnewqgjmp7t7egsutsy52xvlxakqe4ypiw7xrlxi5xatu6mxgqyf.py":28:31)
#loc11 = loc("inductor_cache/ne/cnewqgjmp7t7egsutsy52xvlxakqe4ypiw7xrlxi5xatu6mxgqyf.py":28:36)
#loc12 = loc("inductor_cache/ne/cnewqgjmp7t7egsutsy52xvlxakqe4ypiw7xrlxi5xatu6mxgqyf.py":29:31)
#loc13 = loc("inductor_cache/ne/cnewqgjmp7t7egsutsy52xvlxakqe4ypiw7xrlxi5xatu6mxgqyf.py":29:36)
#loc14 = loc("inductor_cache/ne/cnewqgjmp7t7egsutsy52xvlxakqe4ypiw7xrlxi5xatu6mxgqyf.py":30:31)
#loc15 = loc("inductor_cache/ne/cnewqgjmp7t7egsutsy52xvlxakqe4ypiw7xrlxi5xatu6mxgqyf.py":30:36)
#loc16 = loc("inductor_cache/ne/cnewqgjmp7t7egsutsy52xvlxakqe4ypiw7xrlxi5xatu6mxgqyf.py":35:18)
#loc17 = loc("inductor_cache/ne/cnewqgjmp7t7egsutsy52xvlxakqe4ypiw7xrlxi5xatu6mxgqyf.py":36:34)
#loc18 = loc("inductor_cache/ne/cnewqgjmp7t7egsutsy52xvlxakqe4ypiw7xrlxi5xatu6mxgqyf.py":36:40)
#loc19 = loc("inductor_cache/ne/cnewqgjmp7t7egsutsy52xvlxakqe4ypiw7xrlxi5xatu6mxgqyf.py":36:30)
#loc20 = loc("inductor_cache/ne/cnewqgjmp7t7egsutsy52xvlxakqe4ypiw7xrlxi5xatu6mxgqyf.py":36:46)
#loc21 = loc("inductor_cache/ne/cnewqgjmp7t7egsutsy52xvlxakqe4ypiw7xrlxi5xatu6mxgqyf.py":37:19)
#loc22 = loc("inductor_cache/ne/cnewqgjmp7t7egsutsy52xvlxakqe4ypiw7xrlxi5xatu6mxgqyf.py":39:18)
#loc23 = loc("inductor_cache/ne/cnewqgjmp7t7egsutsy52xvlxakqe4ypiw7xrlxi5xatu6mxgqyf.py":40:18)
#loc24 = loc("inductor_cache/ne/cnewqgjmp7t7egsutsy52xvlxakqe4ypiw7xrlxi5xatu6mxgqyf.py":41:50)
#loc25 = loc("inductor_cache/ne/cnewqgjmp7t7egsutsy52xvlxakqe4ypiw7xrlxi5xatu6mxgqyf.py":41:41)
#loc26 = loc("inductor_cache/ne/cnewqgjmp7t7egsutsy52xvlxakqe4ypiw7xrlxi5xatu6mxgqyf.py":41:31)
#loc27 = loc("inductor_cache/ne/cnewqgjmp7t7egsutsy52xvlxakqe4ypiw7xrlxi5xatu6mxgqyf.py":41:56)
#loc28 = loc("inductor_cache/ne/cnewqgjmp7t7egsutsy52xvlxakqe4ypiw7xrlxi5xatu6mxgqyf.py":42:20)
#loc29 = loc("inductor_cache/ne/cnewqgjmp7t7egsutsy52xvlxakqe4ypiw7xrlxi5xatu6mxgqyf.py":44:19)
#loc30 = loc("inductor_cache/ne/cnewqgjmp7t7egsutsy52xvlxakqe4ypiw7xrlxi5xatu6mxgqyf.py":45:20)
#loc31 = loc("inductor_cache/ne/cnewqgjmp7t7egsutsy52xvlxakqe4ypiw7xrlxi5xatu6mxgqyf.py":46:50)
#loc32 = loc("inductor_cache/ne/cnewqgjmp7t7egsutsy52xvlxakqe4ypiw7xrlxi5xatu6mxgqyf.py":46:41)
#loc33 = loc("inductor_cache/ne/cnewqgjmp7t7egsutsy52xvlxakqe4ypiw7xrlxi5xatu6mxgqyf.py":46:31)
#loc34 = loc("inductor_cache/ne/cnewqgjmp7t7egsutsy52xvlxakqe4ypiw7xrlxi5xatu6mxgqyf.py":46:56)
#loc35 = loc("inductor_cache/ne/cnewqgjmp7t7egsutsy52xvlxakqe4ypiw7xrlxi5xatu6mxgqyf.py":47:20)
#loc36 = loc("inductor_cache/ne/cnewqgjmp7t7egsutsy52xvlxakqe4ypiw7xrlxi5xatu6mxgqyf.py":50:50)
#loc37 = loc("inductor_cache/ne/cnewqgjmp7t7egsutsy52xvlxakqe4ypiw7xrlxi5xatu6mxgqyf.py":50:41)
#loc38 = loc("inductor_cache/ne/cnewqgjmp7t7egsutsy52xvlxakqe4ypiw7xrlxi5xatu6mxgqyf.py":50:31)
#loc39 = loc("inductor_cache/ne/cnewqgjmp7t7egsutsy52xvlxakqe4ypiw7xrlxi5xatu6mxgqyf.py":50:56)
#loc40 = loc("inductor_cache/ne/cnewqgjmp7t7egsutsy52xvlxakqe4ypiw7xrlxi5xatu6mxgqyf.py":51:35)
#loc41 = loc("inductor_cache/ne/cnewqgjmp7t7egsutsy52xvlxakqe4ypiw7xrlxi5xatu6mxgqyf.py":52:34)
#loc42 = loc("inductor_cache/ne/cnewqgjmp7t7egsutsy52xvlxakqe4ypiw7xrlxi5xatu6mxgqyf.py":53:33)
#loc43 = loc("inductor_cache/ne/cnewqgjmp7t7egsutsy52xvlxakqe4ypiw7xrlxi5xatu6mxgqyf.py":54:20)
#loc44 = loc("inductor_cache/ne/cnewqgjmp7t7egsutsy52xvlxakqe4ypiw7xrlxi5xatu6mxgqyf.py":56:20)
#loc45 = loc("inductor_cache/ne/cnewqgjmp7t7egsutsy52xvlxakqe4ypiw7xrlxi5xatu6mxgqyf.py":57:27)
#loc46 = loc("inductor_cache/ne/cnewqgjmp7t7egsutsy52xvlxakqe4ypiw7xrlxi5xatu6mxgqyf.py":59:20)
#loc47 = loc("inductor_cache/ne/cnewqgjmp7t7egsutsy52xvlxakqe4ypiw7xrlxi5xatu6mxgqyf.py":62:20)
#loc48 = loc("inductor_cache/ne/cnewqgjmp7t7egsutsy52xvlxakqe4ypiw7xrlxi5xatu6mxgqyf.py":63:20)
#loc49 = loc("inductor_cache/ne/cnewqgjmp7t7egsutsy52xvlxakqe4ypiw7xrlxi5xatu6mxgqyf.py":64:20)
#loc50 = loc("inductor_cache/ne/cnewqgjmp7t7egsutsy52xvlxakqe4ypiw7xrlxi5xatu6mxgqyf.py":66:20)
#loc51 = loc("inductor_cache/ne/cnewqgjmp7t7egsutsy52xvlxakqe4ypiw7xrlxi5xatu6mxgqyf.py":68:20)
#loc52 = loc("inductor_cache/ne/cnewqgjmp7t7egsutsy52xvlxakqe4ypiw7xrlxi5xatu6mxgqyf.py":69:35)
#loc53 = loc("inductor_cache/ne/cnewqgjmp7t7egsutsy52xvlxakqe4ypiw7xrlxi5xatu6mxgqyf.py":70:25)
#loc54 = loc("inductor_cache/ne/cnewqgjmp7t7egsutsy52xvlxakqe4ypiw7xrlxi5xatu6mxgqyf.py":70:37)
#loc55 = loc("inductor_cache/ne/cnewqgjmp7t7egsutsy52xvlxakqe4ypiw7xrlxi5xatu6mxgqyf.py":71:28)
#loc56 = loc("inductor_cache/ne/cnewqgjmp7t7egsutsy52xvlxakqe4ypiw7xrlxi5xatu6mxgqyf.py":71:40)
#loc57 = loc("inductor_cache/ne/cnewqgjmp7t7egsutsy52xvlxakqe4ypiw7xrlxi5xatu6mxgqyf.py":71:4)
