#loc = loc("inductor_cache/ok/cokhrb4iiusee4t7f3h5clt6t2leh4nkqmxfjazrsdrirel6rtrc.py":19:0)
module {
  tt.func public @triton_poi_fused_add_clone_mul_sigmoid_3(%arg0: !tt.ptr<f32> {tt.divisibility = 16 : i32} loc("inductor_cache/ok/cokhrb4iiusee4t7f3h5clt6t2leh4nkqmxfjazrsdrirel6rtrc.py":19:0), %arg1: !tt.ptr<f32> {tt.divisibility = 16 : i32} loc("inductor_cache/ok/cokhrb4iiusee4t7f3h5clt6t2leh4nkqmxfjazrsdrirel6rtrc.py":19:0), %arg2: !tt.ptr<f32> {tt.divisibility = 16 : i32} loc("inductor_cache/ok/cokhrb4iiusee4t7f3h5clt6t2leh4nkqmxfjazrsdrirel6rtrc.py":19:0), %arg3: !tt.ptr<f32> {tt.divisibility = 16 : i32} loc("inductor_cache/ok/cokhrb4iiusee4t7f3h5clt6t2leh4nkqmxfjazrsdrirel6rtrc.py":19:0), %arg4: i32 {tt.divisibility = 16 : i32} loc("inductor_cache/ok/cokhrb4iiusee4t7f3h5clt6t2leh4nkqmxfjazrsdrirel6rtrc.py":19:0), %arg5: i32 {tt.divisibility = 16 : i32} loc("inductor_cache/ok/cokhrb4iiusee4t7f3h5clt6t2leh4nkqmxfjazrsdrirel6rtrc.py":19:0)) attributes {noinline = false} {
    %cst = arith.constant dense<0.000000e+00> : tensor<1x32xf32> loc(#loc1)
    %cst_0 = arith.constant dense<1.000000e+00> : tensor<1x32xf32> loc(#loc1)
    %cst_1 = arith.constant dense<4> : tensor<16x1xi32> loc(#loc1)
    %cst_2 = arith.constant dense<16> : tensor<1x32xi32> loc(#loc1)
    %cst_3 = arith.constant dense<4> : tensor<1x32xi32> loc(#loc1)
    %cst_4 = arith.constant dense<16> : tensor<16x1xi32> loc(#loc1)
    %cst_5 = arith.constant dense<64> : tensor<1x32xi32> loc(#loc1)
    %c32_i32 = arith.constant 32 : i32 loc(#loc1)
    %c16_i32 = arith.constant 16 : i32 loc(#loc1)
    %0 = tt.get_program_id y : i32 loc(#loc2)
    %1 = arith.muli %0, %c32_i32 : i32 loc(#loc3)
    %2 = tt.make_range {end = 32 : i32, start = 0 : i32} : tensor<32xi32> loc(#loc4)
    %3 = tt.expand_dims %2 {axis = 0 : i32} : tensor<32xi32> -> tensor<1x32xi32> loc(#loc5)
    %4 = tt.splat %1 : i32 -> tensor<1x32xi32> loc(#loc6)
    %5 = arith.addi %4, %3 : tensor<1x32xi32> loc(#loc6)
    %6 = arith.cmpi slt, %5, %cst_5 : tensor<1x32xi32> loc(#loc7)
    %7 = tt.get_program_id x : i32 loc(#loc8)
    %8 = arith.muli %7, %c16_i32 : i32 loc(#loc9)
    %9 = tt.make_range {end = 16 : i32, start = 0 : i32} : tensor<16xi32> loc(#loc10)
    %10 = tt.expand_dims %9 {axis = 1 : i32} : tensor<16xi32> -> tensor<16x1xi32> loc(#loc11)
    %11 = tt.splat %8 : i32 -> tensor<16x1xi32> loc(#loc12)
    %12 = arith.addi %11, %10 : tensor<16x1xi32> loc(#loc12)
    %13 = arith.cmpi slt, %12, %cst_4 : tensor<16x1xi32> loc(#loc13)
    %14 = arith.remsi %5, %cst_3 : tensor<1x32xi32> loc(#loc14)
    %15 = arith.divsi %5, %cst_3 : tensor<1x32xi32> loc(#loc15)
    %16 = arith.muli %5, %cst_2 : tensor<1x32xi32> loc(#loc16)
    %17 = tt.broadcast %12 : tensor<16x1xi32> -> tensor<16x32xi32> loc(#loc17)
    %18 = tt.broadcast %16 : tensor<1x32xi32> -> tensor<16x32xi32> loc(#loc17)
    %19 = arith.addi %17, %18 : tensor<16x32xi32> loc(#loc17)
    %20 = tt.splat %arg0 : !tt.ptr<f32> -> tensor<16x32x!tt.ptr<f32>> loc(#loc18)
    %21 = tt.addptr %20, %19 : tensor<16x32x!tt.ptr<f32>>, tensor<16x32xi32> loc(#loc18)
    %22 = tt.broadcast %13 : tensor<16x1xi1> -> tensor<16x32xi1> loc(#loc19)
    %23 = tt.broadcast %6 : tensor<1x32xi1> -> tensor<16x32xi1> loc(#loc19)
    %24 = arith.andi %22, %23 : tensor<16x32xi1> loc(#loc19)
    %25 = tt.load %21, %24 evictionPolicy = evict_last : tensor<16x32x!tt.ptr<f32>> loc(#loc20)
    %26 = tt.splat %arg1 : !tt.ptr<f32> -> tensor<1x32x!tt.ptr<f32>> loc(#loc21)
    %27 = tt.addptr %26, %5 : tensor<1x32x!tt.ptr<f32>>, tensor<1x32xi32> loc(#loc21)
    %28 = tt.load %27, %6 evictionPolicy = evict_last : tensor<1x32x!tt.ptr<f32>> loc(#loc22)
    %29 = arith.muli %12, %cst_1 : tensor<16x1xi32> loc(#loc23)
    %30 = tt.broadcast %14 : tensor<1x32xi32> -> tensor<16x32xi32> loc(#loc24)
    %31 = tt.broadcast %29 : tensor<16x1xi32> -> tensor<16x32xi32> loc(#loc24)
    %32 = arith.addi %30, %31 : tensor<16x32xi32> loc(#loc24)
    %33 = arith.muli %15, %cst_5 : tensor<1x32xi32> loc(#loc25)
    %34 = tt.broadcast %33 : tensor<1x32xi32> -> tensor<16x32xi32> loc(#loc26)
    %35 = arith.addi %32, %34 : tensor<16x32xi32> loc(#loc26)
    %36 = tt.splat %arg2 : !tt.ptr<f32> -> tensor<16x32x!tt.ptr<f32>> loc(#loc27)
    %37 = tt.addptr %36, %35 : tensor<16x32x!tt.ptr<f32>>, tensor<16x32xi32> loc(#loc27)
    %38 = tt.load %37, %24 evictionPolicy = evict_last : tensor<16x32x!tt.ptr<f32>> loc(#loc28)
    %39 = arith.subf %cst, %28 : tensor<1x32xf32> loc(#loc39)
    %40 = math.exp %39 : tensor<1x32xf32> loc(#loc40)
    %41 = arith.addf %40, %cst_0 : tensor<1x32xf32> loc(#loc41)
    %42 = arith.divf %cst_0, %41 : tensor<1x32xf32> loc(#loc42)
    %43 = tt.broadcast %42 : tensor<1x32xf32> -> tensor<16x32xf32> loc(#loc34)
    %44 = arith.mulf %25, %43 : tensor<16x32xf32> loc(#loc34)
    %45 = arith.addf %44, %38 : tensor<16x32xf32> loc(#loc35)
    %46 = tt.splat %arg3 : !tt.ptr<f32> -> tensor<16x32x!tt.ptr<f32>> loc(#loc36)
    %47 = tt.addptr %46, %19 : tensor<16x32x!tt.ptr<f32>>, tensor<16x32xi32> loc(#loc36)
    tt.store %47, %45, %24 : tensor<16x32x!tt.ptr<f32>> loc(#loc37)
    tt.return loc(#loc38)
  } loc(#loc)
} loc(#loc)
#loc1 = loc(unknown)
#loc2 = loc("inductor_cache/ok/cokhrb4iiusee4t7f3h5clt6t2leh4nkqmxfjazrsdrirel6rtrc.py":22:28)
#loc3 = loc("inductor_cache/ok/cokhrb4iiusee4t7f3h5clt6t2leh4nkqmxfjazrsdrirel6rtrc.py":22:33)
#loc4 = loc("inductor_cache/ok/cokhrb4iiusee4t7f3h5clt6t2leh4nkqmxfjazrsdrirel6rtrc.py":23:36)
#loc5 = loc("inductor_cache/ok/cokhrb4iiusee4t7f3h5clt6t2leh4nkqmxfjazrsdrirel6rtrc.py":23:44)
#loc6 = loc("inductor_cache/ok/cokhrb4iiusee4t7f3h5clt6t2leh4nkqmxfjazrsdrirel6rtrc.py":23:23)
#loc7 = loc("inductor_cache/ok/cokhrb4iiusee4t7f3h5clt6t2leh4nkqmxfjazrsdrirel6rtrc.py":24:21)
#loc8 = loc("inductor_cache/ok/cokhrb4iiusee4t7f3h5clt6t2leh4nkqmxfjazrsdrirel6rtrc.py":25:28)
#loc9 = loc("inductor_cache/ok/cokhrb4iiusee4t7f3h5clt6t2leh4nkqmxfjazrsdrirel6rtrc.py":25:33)
#loc10 = loc("inductor_cache/ok/cokhrb4iiusee4t7f3h5clt6t2leh4nkqmxfjazrsdrirel6rtrc.py":26:36)
#loc11 = loc("inductor_cache/ok/cokhrb4iiusee4t7f3h5clt6t2leh4nkqmxfjazrsdrirel6rtrc.py":26:44)
#loc12 = loc("inductor_cache/ok/cokhrb4iiusee4t7f3h5clt6t2leh4nkqmxfjazrsdrirel6rtrc.py":26:23)
#loc13 = loc("inductor_cache/ok/cokhrb4iiusee4t7f3h5clt6t2leh4nkqmxfjazrsdrirel6rtrc.py":27:21)
#loc14 = loc("inductor_cache/ok/cokhrb4iiusee4t7f3h5clt6t2leh4nkqmxfjazrsdrirel6rtrc.py":30:19)
#loc15 = loc("inductor_cache/ok/cokhrb4iiusee4t7f3h5clt6t2leh4nkqmxfjazrsdrirel6rtrc.py":31:19)
#loc16 = loc("inductor_cache/ok/cokhrb4iiusee4t7f3h5clt6t2leh4nkqmxfjazrsdrirel6rtrc.py":32:38)
#loc17 = loc("inductor_cache/ok/cokhrb4iiusee4t7f3h5clt6t2leh4nkqmxfjazrsdrirel6rtrc.py":32:35)
#loc18 = loc("inductor_cache/ok/cokhrb4iiusee4t7f3h5clt6t2leh4nkqmxfjazrsdrirel6rtrc.py":32:30)
#loc19 = loc("inductor_cache/ok/cokhrb4iiusee4t7f3h5clt6t2leh4nkqmxfjazrsdrirel6rtrc.py":32:51)
#loc20 = loc("inductor_cache/ok/cokhrb4iiusee4t7f3h5clt6t2leh4nkqmxfjazrsdrirel6rtrc.py":32:43)
#loc21 = loc("inductor_cache/ok/cokhrb4iiusee4t7f3h5clt6t2leh4nkqmxfjazrsdrirel6rtrc.py":33:30)
#loc22 = loc("inductor_cache/ok/cokhrb4iiusee4t7f3h5clt6t2leh4nkqmxfjazrsdrirel6rtrc.py":33:35)
#loc23 = loc("inductor_cache/ok/cokhrb4iiusee4t7f3h5clt6t2leh4nkqmxfjazrsdrirel6rtrc.py":34:37)
#loc24 = loc("inductor_cache/ok/cokhrb4iiusee4t7f3h5clt6t2leh4nkqmxfjazrsdrirel6rtrc.py":34:35)
#loc25 = loc("inductor_cache/ok/cokhrb4iiusee4t7f3h5clt6t2leh4nkqmxfjazrsdrirel6rtrc.py":34:45)
#loc26 = loc("inductor_cache/ok/cokhrb4iiusee4t7f3h5clt6t2leh4nkqmxfjazrsdrirel6rtrc.py":34:42)
#loc27 = loc("inductor_cache/ok/cokhrb4iiusee4t7f3h5clt6t2leh4nkqmxfjazrsdrirel6rtrc.py":34:30)
#loc28 = loc("inductor_cache/ok/cokhrb4iiusee4t7f3h5clt6t2leh4nkqmxfjazrsdrirel6rtrc.py":34:50)
#loc29 = loc("/home/sahanp/.conda/envs/parity-bench/lib/python3.12/site-packages/triton/language/standard.py":47:30)
#loc30 = loc("inductor_cache/ok/cokhrb4iiusee4t7f3h5clt6t2leh4nkqmxfjazrsdrirel6rtrc.py":35:22)
#loc31 = loc("/home/sahanp/.conda/envs/parity-bench/lib/python3.12/site-packages/triton/language/standard.py":47:29)
#loc32 = loc("/home/sahanp/.conda/envs/parity-bench/lib/python3.12/site-packages/triton/language/standard.py":47:20)
#loc33 = loc("/home/sahanp/.conda/envs/parity-bench/lib/python3.12/site-packages/triton/language/standard.py":47:16)
#loc34 = loc("inductor_cache/ok/cokhrb4iiusee4t7f3h5clt6t2leh4nkqmxfjazrsdrirel6rtrc.py":36:18)
#loc35 = loc("inductor_cache/ok/cokhrb4iiusee4t7f3h5clt6t2leh4nkqmxfjazrsdrirel6rtrc.py":37:18)
#loc36 = loc("inductor_cache/ok/cokhrb4iiusee4t7f3h5clt6t2leh4nkqmxfjazrsdrirel6rtrc.py":38:25)
#loc37 = loc("inductor_cache/ok/cokhrb4iiusee4t7f3h5clt6t2leh4nkqmxfjazrsdrirel6rtrc.py":38:44)
#loc38 = loc("inductor_cache/ok/cokhrb4iiusee4t7f3h5clt6t2leh4nkqmxfjazrsdrirel6rtrc.py":38:4)
#loc39 = loc(callsite(#loc29 at #loc30))
#loc40 = loc(callsite(#loc31 at #loc30))
#loc41 = loc(callsite(#loc32 at #loc30))
#loc42 = loc(callsite(#loc33 at #loc30))
