#loc = loc("inductor_cache/jm/cjm75w2wbr6iqaurobvyl4mzbg5rydan65ovw5o2zikfs33axq57.py":19:0)
module {
  tt.func public @triton_poi_fused_max_pool2d_with_indices_5(%arg0: !tt.ptr<f32> {tt.divisibility = 16 : i32} loc("inductor_cache/jm/cjm75w2wbr6iqaurobvyl4mzbg5rydan65ovw5o2zikfs33axq57.py":19:0), %arg1: !tt.ptr<f32> {tt.divisibility = 16 : i32} loc("inductor_cache/jm/cjm75w2wbr6iqaurobvyl4mzbg5rydan65ovw5o2zikfs33axq57.py":19:0), %arg2: !tt.ptr<i8> {tt.divisibility = 16 : i32} loc("inductor_cache/jm/cjm75w2wbr6iqaurobvyl4mzbg5rydan65ovw5o2zikfs33axq57.py":19:0), %arg3: i32 {tt.divisibility = 16 : i32} loc("inductor_cache/jm/cjm75w2wbr6iqaurobvyl4mzbg5rydan65ovw5o2zikfs33axq57.py":19:0)) attributes {noinline = false} {
    %cst = arith.constant dense<3840> : tensor<512xi32> loc(#loc1)
    %cst_0 = arith.constant dense<3744> : tensor<512xi32> loc(#loc1)
    %cst_1 = arith.constant dense<3> : tensor<512xi8> loc(#loc1)
    %cst_2 = arith.constant dense<2> : tensor<512xi8> loc(#loc1)
    %cst_3 = arith.constant dense<0> : tensor<512xi8> loc(#loc1)
    %cst_4 = arith.constant dense<1> : tensor<512xi8> loc(#loc1)
    %cst_5 = arith.constant dense<123> : tensor<512xi32> loc(#loc1)
    %cst_6 = arith.constant dense<122> : tensor<512xi32> loc(#loc1)
    %cst_7 = arith.constant dense<1> : tensor<512xi32> loc(#loc1)
    %cst_8 = arith.constant dense<244> : tensor<512xi32> loc(#loc1)
    %cst_9 = arith.constant dense<2> : tensor<512xi32> loc(#loc1)
    %cst_10 = arith.constant dense<3721> : tensor<512xi32> loc(#loc1)
    %cst_11 = arith.constant dense<61> : tensor<512xi32> loc(#loc1)
    %cst_12 = arith.constant dense<1905152> : tensor<512xi32> loc(#loc1)
    %c512_i32 = arith.constant 512 : i32 loc(#loc1)
    %0 = tt.get_program_id x : i32 loc(#loc2)
    %1 = arith.muli %0, %c512_i32 : i32 loc(#loc3)
    %2 = tt.make_range {end = 512 : i32, start = 0 : i32} : tensor<512xi32> loc(#loc4)
    %3 = tt.splat %1 : i32 -> tensor<512xi32> loc(#loc5)
    %4 = arith.addi %3, %2 : tensor<512xi32> loc(#loc5)
    %5 = arith.cmpi slt, %4, %cst_12 : tensor<512xi32> loc(#loc6)
    %6 = arith.remsi %4, %cst_11 : tensor<512xi32> loc(#loc7)
    %7 = arith.divsi %4, %cst_11 : tensor<512xi32> loc(#loc8)
    %8 = arith.divsi %4, %cst_10 : tensor<512xi32> loc(#loc9)
    %9 = arith.remsi %4, %cst_10 : tensor<512xi32> loc(#loc10)
    %10 = arith.muli %6, %cst_9 : tensor<512xi32> loc(#loc11)
    %11 = arith.muli %7, %cst_8 : tensor<512xi32> loc(#loc12)
    %12 = arith.addi %10, %11 : tensor<512xi32> loc(#loc13)
    %13 = tt.splat %arg0 : !tt.ptr<f32> -> tensor<512x!tt.ptr<f32>> loc(#loc14)
    %14 = tt.addptr %13, %12 : tensor<512x!tt.ptr<f32>>, tensor<512xi32> loc(#loc14)
    %15 = tt.load %14, %5 evictionPolicy = evict_last : tensor<512x!tt.ptr<f32>> loc(#loc15)
    %16 = arith.addi %10, %cst_7 : tensor<512xi32> loc(#loc16)
    %17 = arith.addi %16, %11 : tensor<512xi32> loc(#loc17)
    %18 = tt.addptr %13, %17 : tensor<512x!tt.ptr<f32>>, tensor<512xi32> loc(#loc18)
    %19 = tt.load %18, %5 evictionPolicy = evict_last : tensor<512x!tt.ptr<f32>> loc(#loc19)
    %20 = arith.addi %10, %cst_6 : tensor<512xi32> loc(#loc20)
    %21 = arith.addi %20, %11 : tensor<512xi32> loc(#loc21)
    %22 = tt.addptr %13, %21 : tensor<512x!tt.ptr<f32>>, tensor<512xi32> loc(#loc22)
    %23 = tt.load %22, %5 evictionPolicy = evict_last : tensor<512x!tt.ptr<f32>> loc(#loc23)
    %24 = arith.addi %10, %cst_5 : tensor<512xi32> loc(#loc24)
    %25 = arith.addi %24, %11 : tensor<512xi32> loc(#loc25)
    %26 = tt.addptr %13, %25 : tensor<512x!tt.ptr<f32>>, tensor<512xi32> loc(#loc26)
    %27 = tt.load %26, %5 evictionPolicy = evict_last : tensor<512x!tt.ptr<f32>> loc(#loc27)
    %28 = arith.cmpf ogt, %19, %15 : tensor<512xf32> loc(#loc47)
    %29 = arith.cmpf une, %19, %19 : tensor<512xf32> loc(#loc48)
    %30 = arith.ori %28, %29 : tensor<512xi1> loc(#loc49)
    %31 = arith.select %30, %19, %15 : tensor<512xi1>, tensor<512xf32> loc(#loc50)
    %32 = arith.cmpf ogt, %23, %31 : tensor<512xf32> loc(#loc51)
    %33 = arith.cmpf une, %23, %23 : tensor<512xf32> loc(#loc52)
    %34 = arith.ori %32, %33 : tensor<512xi1> loc(#loc53)
    %35 = arith.select %34, %23, %31 : tensor<512xi1>, tensor<512xf32> loc(#loc54)
    %36 = arith.cmpf ogt, %27, %35 : tensor<512xf32> loc(#loc55)
    %37 = arith.cmpf une, %27, %27 : tensor<512xf32> loc(#loc56)
    %38 = arith.ori %36, %37 : tensor<512xi1> loc(#loc57)
    %39 = arith.select %38, %27, %35 : tensor<512xi1>, tensor<512xf32> loc(#loc58)
    %40 = arith.select %28, %cst_4, %cst_3 : tensor<512xi1>, tensor<512xi8> loc(#loc35)
    %41 = arith.select %32, %cst_2, %40 : tensor<512xi1>, tensor<512xi8> loc(#loc36)
    %42 = arith.select %36, %cst_1, %41 : tensor<512xi1>, tensor<512xi8> loc(#loc37)
    %43 = arith.muli %8, %cst_0 : tensor<512xi32> loc(#loc38)
    %44 = arith.addi %9, %43 : tensor<512xi32> loc(#loc39)
    %45 = tt.splat %arg1 : !tt.ptr<f32> -> tensor<512x!tt.ptr<f32>> loc(#loc40)
    %46 = tt.addptr %45, %44 : tensor<512x!tt.ptr<f32>>, tensor<512xi32> loc(#loc40)
    tt.store %46, %39, %5 : tensor<512x!tt.ptr<f32>> loc(#loc41)
    %47 = arith.muli %8, %cst : tensor<512xi32> loc(#loc42)
    %48 = arith.addi %9, %47 : tensor<512xi32> loc(#loc43)
    %49 = tt.splat %arg2 : !tt.ptr<i8> -> tensor<512x!tt.ptr<i8>> loc(#loc44)
    %50 = tt.addptr %49, %48 : tensor<512x!tt.ptr<i8>>, tensor<512xi32> loc(#loc44)
    tt.store %50, %42, %5 : tensor<512x!tt.ptr<i8>> loc(#loc45)
    tt.return loc(#loc46)
  } loc(#loc)
} loc(#loc)
#loc1 = loc(unknown)
#loc2 = loc("inductor_cache/jm/cjm75w2wbr6iqaurobvyl4mzbg5rydan65ovw5o2zikfs33axq57.py":21:28)
#loc3 = loc("inductor_cache/jm/cjm75w2wbr6iqaurobvyl4mzbg5rydan65ovw5o2zikfs33axq57.py":21:33)
#loc4 = loc("inductor_cache/jm/cjm75w2wbr6iqaurobvyl4mzbg5rydan65ovw5o2zikfs33axq57.py":22:36)
#loc5 = loc("inductor_cache/jm/cjm75w2wbr6iqaurobvyl4mzbg5rydan65ovw5o2zikfs33axq57.py":22:23)
#loc6 = loc("inductor_cache/jm/cjm75w2wbr6iqaurobvyl4mzbg5rydan65ovw5o2zikfs33axq57.py":23:21)
#loc7 = loc("inductor_cache/jm/cjm75w2wbr6iqaurobvyl4mzbg5rydan65ovw5o2zikfs33axq57.py":24:19)
#loc8 = loc("inductor_cache/jm/cjm75w2wbr6iqaurobvyl4mzbg5rydan65ovw5o2zikfs33axq57.py":25:19)
#loc9 = loc("inductor_cache/jm/cjm75w2wbr6iqaurobvyl4mzbg5rydan65ovw5o2zikfs33axq57.py":26:19)
#loc10 = loc("inductor_cache/jm/cjm75w2wbr6iqaurobvyl4mzbg5rydan65ovw5o2zikfs33axq57.py":27:19)
#loc11 = loc("inductor_cache/jm/cjm75w2wbr6iqaurobvyl4mzbg5rydan65ovw5o2zikfs33axq57.py":28:32)
#loc12 = loc("inductor_cache/jm/cjm75w2wbr6iqaurobvyl4mzbg5rydan65ovw5o2zikfs33axq57.py":28:41)
#loc13 = loc("inductor_cache/jm/cjm75w2wbr6iqaurobvyl4mzbg5rydan65ovw5o2zikfs33axq57.py":28:37)
#loc14 = loc("inductor_cache/jm/cjm75w2wbr6iqaurobvyl4mzbg5rydan65ovw5o2zikfs33axq57.py":28:30)
#loc15 = loc("inductor_cache/jm/cjm75w2wbr6iqaurobvyl4mzbg5rydan65ovw5o2zikfs33axq57.py":28:46)
#loc16 = loc("inductor_cache/jm/cjm75w2wbr6iqaurobvyl4mzbg5rydan65ovw5o2zikfs33axq57.py":29:34)
#loc17 = loc("inductor_cache/jm/cjm75w2wbr6iqaurobvyl4mzbg5rydan65ovw5o2zikfs33axq57.py":29:41)
#loc18 = loc("inductor_cache/jm/cjm75w2wbr6iqaurobvyl4mzbg5rydan65ovw5o2zikfs33axq57.py":29:30)
#loc19 = loc("inductor_cache/jm/cjm75w2wbr6iqaurobvyl4mzbg5rydan65ovw5o2zikfs33axq57.py":29:50)
#loc20 = loc("inductor_cache/jm/cjm75w2wbr6iqaurobvyl4mzbg5rydan65ovw5o2zikfs33axq57.py":30:36)
#loc21 = loc("inductor_cache/jm/cjm75w2wbr6iqaurobvyl4mzbg5rydan65ovw5o2zikfs33axq57.py":30:43)
#loc22 = loc("inductor_cache/jm/cjm75w2wbr6iqaurobvyl4mzbg5rydan65ovw5o2zikfs33axq57.py":30:30)
#loc23 = loc("inductor_cache/jm/cjm75w2wbr6iqaurobvyl4mzbg5rydan65ovw5o2zikfs33axq57.py":30:52)
#loc24 = loc("inductor_cache/jm/cjm75w2wbr6iqaurobvyl4mzbg5rydan65ovw5o2zikfs33axq57.py":31:36)
#loc25 = loc("inductor_cache/jm/cjm75w2wbr6iqaurobvyl4mzbg5rydan65ovw5o2zikfs33axq57.py":31:43)
#loc26 = loc("inductor_cache/jm/cjm75w2wbr6iqaurobvyl4mzbg5rydan65ovw5o2zikfs33axq57.py":31:30)
#loc27 = loc("inductor_cache/jm/cjm75w2wbr6iqaurobvyl4mzbg5rydan65ovw5o2zikfs33axq57.py":31:52)
#loc28 = loc("/home/sahanp/.conda/envs/parity-bench/lib/python3.12/site-packages/torch/_inductor/runtime/triton_helpers.py":118:15)
#loc29 = loc("inductor_cache/jm/cjm75w2wbr6iqaurobvyl4mzbg5rydan65ovw5o2zikfs33axq57.py":32:40)
#loc30 = loc("/home/sahanp/.conda/envs/parity-bench/lib/python3.12/site-packages/torch/_inductor/runtime/triton_helpers.py":120:21)
#loc31 = loc("/home/sahanp/.conda/envs/parity-bench/lib/python3.12/site-packages/torch/_inductor/runtime/triton_helpers.py":120:16)
#loc32 = loc("/home/sahanp/.conda/envs/parity-bench/lib/python3.12/site-packages/torch/_inductor/runtime/triton_helpers.py":121:29)
#loc33 = loc("inductor_cache/jm/cjm75w2wbr6iqaurobvyl4mzbg5rydan65ovw5o2zikfs33axq57.py":33:40)
#loc34 = loc("inductor_cache/jm/cjm75w2wbr6iqaurobvyl4mzbg5rydan65ovw5o2zikfs33axq57.py":34:40)
#loc35 = loc("inductor_cache/jm/cjm75w2wbr6iqaurobvyl4mzbg5rydan65ovw5o2zikfs33axq57.py":38:33)
#loc36 = loc("inductor_cache/jm/cjm75w2wbr6iqaurobvyl4mzbg5rydan65ovw5o2zikfs33axq57.py":41:35)
#loc37 = loc("inductor_cache/jm/cjm75w2wbr6iqaurobvyl4mzbg5rydan65ovw5o2zikfs33axq57.py":44:35)
#loc38 = loc("inductor_cache/jm/cjm75w2wbr6iqaurobvyl4mzbg5rydan65ovw5o2zikfs33axq57.py":45:35)
#loc39 = loc("inductor_cache/jm/cjm75w2wbr6iqaurobvyl4mzbg5rydan65ovw5o2zikfs33axq57.py":45:30)
#loc40 = loc("inductor_cache/jm/cjm75w2wbr6iqaurobvyl4mzbg5rydan65ovw5o2zikfs33axq57.py":45:25)
#loc41 = loc("inductor_cache/jm/cjm75w2wbr6iqaurobvyl4mzbg5rydan65ovw5o2zikfs33axq57.py":45:46)
#loc42 = loc("inductor_cache/jm/cjm75w2wbr6iqaurobvyl4mzbg5rydan65ovw5o2zikfs33axq57.py":46:35)
#loc43 = loc("inductor_cache/jm/cjm75w2wbr6iqaurobvyl4mzbg5rydan65ovw5o2zikfs33axq57.py":46:30)
#loc44 = loc("inductor_cache/jm/cjm75w2wbr6iqaurobvyl4mzbg5rydan65ovw5o2zikfs33axq57.py":46:25)
#loc45 = loc("inductor_cache/jm/cjm75w2wbr6iqaurobvyl4mzbg5rydan65ovw5o2zikfs33axq57.py":46:47)
#loc46 = loc("inductor_cache/jm/cjm75w2wbr6iqaurobvyl4mzbg5rydan65ovw5o2zikfs33axq57.py":46:4)
#loc47 = loc(callsite(#loc28 at #loc29))
#loc48 = loc(callsite(#loc30 at #loc29))
#loc49 = loc(callsite(#loc31 at #loc29))
#loc50 = loc(callsite(#loc32 at #loc29))
#loc51 = loc(callsite(#loc28 at #loc33))
#loc52 = loc(callsite(#loc30 at #loc33))
#loc53 = loc(callsite(#loc31 at #loc33))
#loc54 = loc(callsite(#loc32 at #loc33))
#loc55 = loc(callsite(#loc28 at #loc34))
#loc56 = loc(callsite(#loc30 at #loc34))
#loc57 = loc(callsite(#loc31 at #loc34))
#loc58 = loc(callsite(#loc32 at #loc34))
