#loc = loc("inductor_cache/uk/cukvssn4yeacim3vovvzarfu7doegcjo6v5t2kstkvqt7oisypzd.py":19:0)
#loc1 = loc(unknown)
#loc14 = loc("inductor_cache/uk/cukvssn4yeacim3vovvzarfu7doegcjo6v5t2kstkvqt7oisypzd.py":35:24)
#loc24 = loc(callsite(#loc1 at #loc14))
module {
  tt.func public @triton_per_fused_mean_25(%arg0: !tt.ptr<f32> {tt.divisibility = 16 : i32} loc("inductor_cache/uk/cukvssn4yeacim3vovvzarfu7doegcjo6v5t2kstkvqt7oisypzd.py":19:0), %arg1: !tt.ptr<f32> {tt.divisibility = 16 : i32} loc("inductor_cache/uk/cukvssn4yeacim3vovvzarfu7doegcjo6v5t2kstkvqt7oisypzd.py":19:0), %arg2: i32 {tt.divisibility = 16 : i32} loc("inductor_cache/uk/cukvssn4yeacim3vovvzarfu7doegcjo6v5t2kstkvqt7oisypzd.py":19:0), %arg3: i32 {tt.divisibility = 16 : i32} loc("inductor_cache/uk/cukvssn4yeacim3vovvzarfu7doegcjo6v5t2kstkvqt7oisypzd.py":19:0)) attributes {noinline = false} {
    %c3072_i32 = arith.constant 3072 : i32 loc(#loc1)
    %c16384_i32 = arith.constant 16384 : i32 loc(#loc1)
    %c1024_i32 = arith.constant 1024 : i32 loc(#loc1)
    %cst = arith.constant dense<1.600000e+01> : tensor<1x1xf32> loc(#loc1)
    %cst_0 = arith.constant dense<1024> : tensor<1x16xi32> loc(#loc1)
    %0 = tt.get_program_id x : i32 loc(#loc2)
    %1 = tt.make_range {end = 16 : i32, start = 0 : i32} : tensor<16xi32> loc(#loc3)
    %2 = tt.expand_dims %1 {axis = 0 : i32} : tensor<16xi32> -> tensor<1x16xi32> loc(#loc4)
    %3 = arith.remsi %0, %c1024_i32 : i32 loc(#loc5)
    %4 = arith.divsi %0, %c1024_i32 : i32 loc(#loc6)
    %5 = arith.muli %2, %cst_0 : tensor<1x16xi32> loc(#loc7)
    %6 = tt.splat %3 : i32 -> tensor<1x16xi32> loc(#loc8)
    %7 = arith.addi %6, %5 : tensor<1x16xi32> loc(#loc8)
    %8 = arith.muli %4, %c16384_i32 : i32 loc(#loc9)
    %9 = tt.splat %8 : i32 -> tensor<1x16xi32> loc(#loc10)
    %10 = arith.addi %7, %9 : tensor<1x16xi32> loc(#loc10)
    %11 = tt.splat %arg0 : !tt.ptr<f32> -> tensor<1x16x!tt.ptr<f32>> loc(#loc11)
    %12 = tt.addptr %11, %10 : tensor<1x16x!tt.ptr<f32>>, tensor<1x16xi32> loc(#loc11)
    %13 = tt.load %12 : tensor<1x16x!tt.ptr<f32>> loc(#loc12)
    %14 = "tt.reduce"(%13) <{axis = 1 : i32}> ({
    ^bb0(%arg4: f32 loc(callsite(#loc1 at #loc14)), %arg5: f32 loc(callsite(#loc1 at #loc14))):
      %21 = arith.addf %arg4, %arg5 : f32 loc(#loc26)
      tt.reduce.return %21 : f32 loc(#loc23)
    }) : (tensor<1x16xf32>) -> tensor<1xf32> loc(#loc23)
    %15 = tt.expand_dims %14 {axis = 1 : i32} : tensor<1xf32> -> tensor<1x1xf32> loc(#loc16)
    %16 = arith.divf %15, %cst : tensor<1x1xf32> loc(#loc17)
    %17 = arith.muli %4, %c3072_i32 : i32 loc(#loc18)
    %18 = arith.addi %3, %17 : i32 loc(#loc19)
    %19 = tt.addptr %arg1, %18 : !tt.ptr<f32>, i32 loc(#loc20)
    %20 = tt.splat %19 : !tt.ptr<f32> -> tensor<1x1x!tt.ptr<f32>> loc(#loc20)
    tt.store %20, %16 : tensor<1x1x!tt.ptr<f32>> loc(#loc21)
    tt.return loc(#loc22)
  } loc(#loc)
} loc(#loc)
#loc2 = loc("inductor_cache/uk/cukvssn4yeacim3vovvzarfu7doegcjo6v5t2kstkvqt7oisypzd.py":23:28)
#loc3 = loc("inductor_cache/uk/cukvssn4yeacim3vovvzarfu7doegcjo6v5t2kstkvqt7oisypzd.py":26:26)
#loc4 = loc("inductor_cache/uk/cukvssn4yeacim3vovvzarfu7doegcjo6v5t2kstkvqt7oisypzd.py":26:34)
#loc5 = loc("inductor_cache/uk/cukvssn4yeacim3vovvzarfu7doegcjo6v5t2kstkvqt7oisypzd.py":30:19)
#loc6 = loc("inductor_cache/uk/cukvssn4yeacim3vovvzarfu7doegcjo6v5t2kstkvqt7oisypzd.py":31:19)
#loc7 = loc("inductor_cache/uk/cukvssn4yeacim3vovvzarfu7doegcjo6v5t2kstkvqt7oisypzd.py":33:40)
#loc8 = loc("inductor_cache/uk/cukvssn4yeacim3vovvzarfu7doegcjo6v5t2kstkvqt7oisypzd.py":33:35)
#loc9 = loc("inductor_cache/uk/cukvssn4yeacim3vovvzarfu7doegcjo6v5t2kstkvqt7oisypzd.py":33:51)
#loc10 = loc("inductor_cache/uk/cukvssn4yeacim3vovvzarfu7doegcjo6v5t2kstkvqt7oisypzd.py":33:45)
#loc11 = loc("inductor_cache/uk/cukvssn4yeacim3vovvzarfu7doegcjo6v5t2kstkvqt7oisypzd.py":33:30)
#loc12 = loc("inductor_cache/uk/cukvssn4yeacim3vovvzarfu7doegcjo6v5t2kstkvqt7oisypzd.py":33:56)
#loc13 = loc("/home/sahanp/.conda/envs/parity-bench/lib/python3.12/site-packages/triton/language/standard.py":267:36)
#loc15 = loc("/home/sahanp/.conda/envs/parity-bench/lib/python3.12/site-packages/triton/language/standard.py":256:15)
#loc16 = loc("inductor_cache/uk/cukvssn4yeacim3vovvzarfu7doegcjo6v5t2kstkvqt7oisypzd.py":35:27)
#loc17 = loc("inductor_cache/uk/cukvssn4yeacim3vovvzarfu7doegcjo6v5t2kstkvqt7oisypzd.py":37:18)
#loc18 = loc("inductor_cache/uk/cukvssn4yeacim3vovvzarfu7doegcjo6v5t2kstkvqt7oisypzd.py":38:35)
#loc19 = loc("inductor_cache/uk/cukvssn4yeacim3vovvzarfu7doegcjo6v5t2kstkvqt7oisypzd.py":38:30)
#loc20 = loc("inductor_cache/uk/cukvssn4yeacim3vovvzarfu7doegcjo6v5t2kstkvqt7oisypzd.py":38:25)
#loc21 = loc("inductor_cache/uk/cukvssn4yeacim3vovvzarfu7doegcjo6v5t2kstkvqt7oisypzd.py":38:46)
#loc22 = loc("inductor_cache/uk/cukvssn4yeacim3vovvzarfu7doegcjo6v5t2kstkvqt7oisypzd.py":38:4)
#loc23 = loc(callsite(#loc13 at #loc14))
#loc25 = loc(callsite(#loc15 at #loc13))
#loc26 = loc(callsite(#loc25 at #loc14))
