#loc = loc("inductor_cache/4j/c4jf3g7lz6lhicl2pcgpwqcjcf6kfscknxxofh5yofju7kulqvx5.py":19:0)
#loc1 = loc(unknown)
#loc21 = loc("inductor_cache/4j/c4jf3g7lz6lhicl2pcgpwqcjcf6kfscknxxofh5yofju7kulqvx5.py":36:24)
#loc34 = loc(callsite(#loc1 at #loc21))
module {
  tt.func public @triton_per_fused__weight_norm_interface_0(%arg0: !tt.ptr<f32> {tt.divisibility = 16 : i32} loc("inductor_cache/4j/c4jf3g7lz6lhicl2pcgpwqcjcf6kfscknxxofh5yofju7kulqvx5.py":19:0), %arg1: !tt.ptr<f32> {tt.divisibility = 16 : i32} loc("inductor_cache/4j/c4jf3g7lz6lhicl2pcgpwqcjcf6kfscknxxofh5yofju7kulqvx5.py":19:0), %arg2: !tt.ptr<f32> {tt.divisibility = 16 : i32} loc("inductor_cache/4j/c4jf3g7lz6lhicl2pcgpwqcjcf6kfscknxxofh5yofju7kulqvx5.py":19:0), %arg3: !tt.ptr<f32> {tt.divisibility = 16 : i32} loc("inductor_cache/4j/c4jf3g7lz6lhicl2pcgpwqcjcf6kfscknxxofh5yofju7kulqvx5.py":19:0), %arg4: i32 {tt.divisibility = 16 : i32} loc("inductor_cache/4j/c4jf3g7lz6lhicl2pcgpwqcjcf6kfscknxxofh5yofju7kulqvx5.py":19:0), %arg5: i32 loc("inductor_cache/4j/c4jf3g7lz6lhicl2pcgpwqcjcf6kfscknxxofh5yofju7kulqvx5.py":19:0)) attributes {noinline = false} {
    %cst = arith.constant dense<0.000000e+00> : tensor<8x16xf32> loc(#loc1)
    %cst_0 = arith.constant dense<15> : tensor<8x1xi32> loc(#loc1)
    %cst_1 = arith.constant dense<15> : tensor<1x16xi32> loc(#loc1)
    %cst_2 = arith.constant dense<16> : tensor<8x1xi32> loc(#loc1)
    %c8_i32 = arith.constant 8 : i32 loc(#loc1)
    %0 = tt.get_program_id x : i32 loc(#loc2)
    %1 = arith.muli %0, %c8_i32 : i32 loc(#loc3)
    %2 = tt.make_range {end = 8 : i32, start = 0 : i32} : tensor<8xi32> loc(#loc4)
    %3 = tt.expand_dims %2 {axis = 1 : i32} : tensor<8xi32> -> tensor<8x1xi32> loc(#loc5)
    %4 = tt.splat %1 : i32 -> tensor<8x1xi32> loc(#loc6)
    %5 = arith.addi %4, %3 : tensor<8x1xi32> loc(#loc6)
    %6 = arith.cmpi slt, %5, %cst_2 : tensor<8x1xi32> loc(#loc7)
    %7 = tt.make_range {end = 16 : i32, start = 0 : i32} : tensor<16xi32> loc(#loc8)
    %8 = tt.expand_dims %7 {axis = 0 : i32} : tensor<16xi32> -> tensor<1x16xi32> loc(#loc9)
    %9 = arith.cmpi slt, %8, %cst_1 : tensor<1x16xi32> loc(#loc10)
    %10 = arith.muli %5, %cst_0 : tensor<8x1xi32> loc(#loc11)
    %11 = tt.broadcast %8 : tensor<1x16xi32> -> tensor<8x16xi32> loc(#loc12)
    %12 = tt.broadcast %10 : tensor<8x1xi32> -> tensor<8x16xi32> loc(#loc12)
    %13 = arith.addi %11, %12 : tensor<8x16xi32> loc(#loc12)
    %14 = tt.splat %arg1 : !tt.ptr<f32> -> tensor<8x16x!tt.ptr<f32>> loc(#loc13)
    %15 = tt.addptr %14, %13 : tensor<8x16x!tt.ptr<f32>>, tensor<8x16xi32> loc(#loc13)
    %16 = tt.broadcast %9 : tensor<1x16xi1> -> tensor<8x16xi1> loc(#loc14)
    %17 = tt.broadcast %6 : tensor<8x1xi1> -> tensor<8x16xi1> loc(#loc14)
    %18 = arith.andi %16, %17 : tensor<8x16xi1> loc(#loc14)
    %19 = tt.load %15, %18, %cst : tensor<8x16x!tt.ptr<f32>> loc(#loc15)
    %20 = tt.splat %arg2 : !tt.ptr<f32> -> tensor<8x1x!tt.ptr<f32>> loc(#loc16)
    %21 = tt.addptr %20, %5 : tensor<8x1x!tt.ptr<f32>>, tensor<8x1xi32> loc(#loc16)
    %22 = tt.load %21, %6 evictionPolicy = evict_last : tensor<8x1x!tt.ptr<f32>> loc(#loc17)
    %23 = arith.mulf %19, %19 : tensor<8x16xf32> loc(#loc18)
    %24 = arith.select %18, %23, %cst : tensor<8x16xi1>, tensor<8x16xf32> loc(#loc19)
    %25 = "tt.reduce"(%24) <{axis = 1 : i32}> ({
    ^bb0(%arg6: f32 loc(callsite(#loc1 at #loc21)), %arg7: f32 loc(callsite(#loc1 at #loc21))):
      %35 = arith.addf %arg6, %arg7 : f32 loc(#loc36)
      tt.reduce.return %35 : f32 loc(#loc33)
    }) : (tensor<8x16xf32>) -> tensor<8xf32> loc(#loc33)
    %26 = tt.expand_dims %25 {axis = 1 : i32} : tensor<8xf32> -> tensor<8x1xf32> loc(#loc23)
    %27 = tt.extern_elementwise %26 {libname = "", libpath = "", pure = true, symbol = "__nv_sqrtf"} : (tensor<8x1xf32>) -> tensor<8x1xf32> loc(#loc24)
    %28 = arith.divf %22, %27 : tensor<8x1xf32> loc(#loc25)
    %29 = tt.broadcast %28 : tensor<8x1xf32> -> tensor<8x16xf32> loc(#loc26)
    %30 = arith.mulf %19, %29 : tensor<8x16xf32> loc(#loc26)
    gpu.barrier loc(#loc27)
    %31 = tt.splat %arg0 : !tt.ptr<f32> -> tensor<8x1x!tt.ptr<f32>> loc(#loc28)
    %32 = tt.addptr %31, %5 : tensor<8x1x!tt.ptr<f32>>, tensor<8x1xi32> loc(#loc28)
    tt.store %32, %27, %6 : tensor<8x1x!tt.ptr<f32>> loc(#loc29)
    %33 = tt.splat %arg3 : !tt.ptr<f32> -> tensor<8x16x!tt.ptr<f32>> loc(#loc30)
    %34 = tt.addptr %33, %13 : tensor<8x16x!tt.ptr<f32>>, tensor<8x16xi32> loc(#loc30)
    tt.store %34, %30, %18 : tensor<8x16x!tt.ptr<f32>> loc(#loc31)
    tt.return loc(#loc32)
  } loc(#loc)
} loc(#loc)
#loc2 = loc("inductor_cache/4j/c4jf3g7lz6lhicl2pcgpwqcjcf6kfscknxxofh5yofju7kulqvx5.py":23:28)
#loc3 = loc("inductor_cache/4j/c4jf3g7lz6lhicl2pcgpwqcjcf6kfscknxxofh5yofju7kulqvx5.py":23:33)
#loc4 = loc("inductor_cache/4j/c4jf3g7lz6lhicl2pcgpwqcjcf6kfscknxxofh5yofju7kulqvx5.py":24:36)
#loc5 = loc("inductor_cache/4j/c4jf3g7lz6lhicl2pcgpwqcjcf6kfscknxxofh5yofju7kulqvx5.py":24:44)
#loc6 = loc("inductor_cache/4j/c4jf3g7lz6lhicl2pcgpwqcjcf6kfscknxxofh5yofju7kulqvx5.py":24:23)
#loc7 = loc("inductor_cache/4j/c4jf3g7lz6lhicl2pcgpwqcjcf6kfscknxxofh5yofju7kulqvx5.py":25:21)
#loc8 = loc("inductor_cache/4j/c4jf3g7lz6lhicl2pcgpwqcjcf6kfscknxxofh5yofju7kulqvx5.py":26:26)
#loc9 = loc("inductor_cache/4j/c4jf3g7lz6lhicl2pcgpwqcjcf6kfscknxxofh5yofju7kulqvx5.py":26:34)
#loc10 = loc("inductor_cache/4j/c4jf3g7lz6lhicl2pcgpwqcjcf6kfscknxxofh5yofju7kulqvx5.py":28:21)
#loc11 = loc("inductor_cache/4j/c4jf3g7lz6lhicl2pcgpwqcjcf6kfscknxxofh5yofju7kulqvx5.py":31:38)
#loc12 = loc("inductor_cache/4j/c4jf3g7lz6lhicl2pcgpwqcjcf6kfscknxxofh5yofju7kulqvx5.py":31:35)
#loc13 = loc("inductor_cache/4j/c4jf3g7lz6lhicl2pcgpwqcjcf6kfscknxxofh5yofju7kulqvx5.py":31:30)
#loc14 = loc("inductor_cache/4j/c4jf3g7lz6lhicl2pcgpwqcjcf6kfscknxxofh5yofju7kulqvx5.py":31:51)
#loc15 = loc("inductor_cache/4j/c4jf3g7lz6lhicl2pcgpwqcjcf6kfscknxxofh5yofju7kulqvx5.py":31:43)
#loc16 = loc("inductor_cache/4j/c4jf3g7lz6lhicl2pcgpwqcjcf6kfscknxxofh5yofju7kulqvx5.py":32:30)
#loc17 = loc("inductor_cache/4j/c4jf3g7lz6lhicl2pcgpwqcjcf6kfscknxxofh5yofju7kulqvx5.py":32:35)
#loc18 = loc("inductor_cache/4j/c4jf3g7lz6lhicl2pcgpwqcjcf6kfscknxxofh5yofju7kulqvx5.py":33:18)
#loc19 = loc("inductor_cache/4j/c4jf3g7lz6lhicl2pcgpwqcjcf6kfscknxxofh5yofju7kulqvx5.py":35:41)
#loc20 = loc("/home/sahanp/.conda/envs/parity-bench/lib/python3.12/site-packages/triton/language/standard.py":267:36)
#loc22 = loc("/home/sahanp/.conda/envs/parity-bench/lib/python3.12/site-packages/triton/language/standard.py":256:15)
#loc23 = loc("inductor_cache/4j/c4jf3g7lz6lhicl2pcgpwqcjcf6kfscknxxofh5yofju7kulqvx5.py":36:27)
#loc24 = loc("inductor_cache/4j/c4jf3g7lz6lhicl2pcgpwqcjcf6kfscknxxofh5yofju7kulqvx5.py":37:26)
#loc25 = loc("inductor_cache/4j/c4jf3g7lz6lhicl2pcgpwqcjcf6kfscknxxofh5yofju7kulqvx5.py":38:18)
#loc26 = loc("inductor_cache/4j/c4jf3g7lz6lhicl2pcgpwqcjcf6kfscknxxofh5yofju7kulqvx5.py":39:18)
#loc27 = loc("inductor_cache/4j/c4jf3g7lz6lhicl2pcgpwqcjcf6kfscknxxofh5yofju7kulqvx5.py":40:4)
#loc28 = loc("inductor_cache/4j/c4jf3g7lz6lhicl2pcgpwqcjcf6kfscknxxofh5yofju7kulqvx5.py":41:28)
#loc29 = loc("inductor_cache/4j/c4jf3g7lz6lhicl2pcgpwqcjcf6kfscknxxofh5yofju7kulqvx5.py":41:39)
#loc30 = loc("inductor_cache/4j/c4jf3g7lz6lhicl2pcgpwqcjcf6kfscknxxofh5yofju7kulqvx5.py":42:25)
#loc31 = loc("inductor_cache/4j/c4jf3g7lz6lhicl2pcgpwqcjcf6kfscknxxofh5yofju7kulqvx5.py":42:44)
#loc32 = loc("inductor_cache/4j/c4jf3g7lz6lhicl2pcgpwqcjcf6kfscknxxofh5yofju7kulqvx5.py":42:4)
#loc33 = loc(callsite(#loc20 at #loc21))
#loc35 = loc(callsite(#loc22 at #loc20))
#loc36 = loc(callsite(#loc35 at #loc21))
