#loc = loc("inductor_cache/r2/cr2yltzvdzqrsgyfj4jfoumpcsrfkhep7q2qoixsua7iqyaecpdc.py":19:0)
module {
  tt.func public @triton_poi_fused_cat_2(%arg0: !tt.ptr<f32> {tt.divisibility = 16 : i32} loc("inductor_cache/r2/cr2yltzvdzqrsgyfj4jfoumpcsrfkhep7q2qoixsua7iqyaecpdc.py":19:0), %arg1: !tt.ptr<f32> {tt.divisibility = 16 : i32} loc("inductor_cache/r2/cr2yltzvdzqrsgyfj4jfoumpcsrfkhep7q2qoixsua7iqyaecpdc.py":19:0), %arg2: !tt.ptr<f32> {tt.divisibility = 16 : i32} loc("inductor_cache/r2/cr2yltzvdzqrsgyfj4jfoumpcsrfkhep7q2qoixsua7iqyaecpdc.py":19:0), %arg3: i32 {tt.divisibility = 16 : i32} loc("inductor_cache/r2/cr2yltzvdzqrsgyfj4jfoumpcsrfkhep7q2qoixsua7iqyaecpdc.py":19:0)) attributes {noinline = false} {
    %cst = arith.constant dense<1.000000e+00> : tensor<256xf32> loc(#loc1)
    %cst_0 = arith.constant dense<-4> : tensor<256xi32> loc(#loc1)
    %cst_1 = arith.constant dense<0.000000e+00> : tensor<256xf32> loc(#loc1)
    %cst_2 = arith.constant dense<64> : tensor<256xi32> loc(#loc1)
    %cst_3 = arith.constant dense<4> : tensor<256xi64> loc(#loc1)
    %cst_4 = arith.constant dense<128> : tensor<256xi32> loc(#loc1)
    %cst_5 = arith.constant dense<8> : tensor<256xi32> loc(#loc1)
    %cst_6 = arith.constant dense<16> : tensor<256xi32> loc(#loc1)
    %cst_7 = arith.constant dense<512> : tensor<256xi32> loc(#loc1)
    %c256_i32 = arith.constant 256 : i32 loc(#loc1)
    %0 = tt.get_program_id x : i32 loc(#loc2)
    %1 = arith.muli %0, %c256_i32 : i32 loc(#loc3)
    %2 = tt.make_range {end = 256 : i32, start = 0 : i32} : tensor<256xi32> loc(#loc4)
    %3 = tt.splat %1 : i32 -> tensor<256xi32> loc(#loc5)
    %4 = arith.addi %3, %2 : tensor<256xi32> loc(#loc5)
    %5 = arith.cmpi slt, %4, %cst_7 : tensor<256xi32> loc(#loc6)
    %6 = arith.divsi %4, %cst_6 : tensor<256xi32> loc(#loc7)
    %7 = arith.remsi %6, %cst_5 : tensor<256xi32> loc(#loc8)
    %8 = arith.remsi %4, %cst_6 : tensor<256xi32> loc(#loc9)
    %9 = arith.divsi %4, %cst_4 : tensor<256xi32> loc(#loc10)
    %10 = arith.extsi %7 : tensor<256xi32> to tensor<256xi64> loc(#loc11)
    %11 = arith.cmpi slt, %10, %cst_3 : tensor<256xi64> loc(#loc11)
    %12 = arith.muli %7, %cst_6 : tensor<256xi32> loc(#loc12)
    %13 = arith.addi %8, %12 : tensor<256xi32> loc(#loc13)
    %14 = arith.muli %9, %cst_2 : tensor<256xi32> loc(#loc14)
    %15 = arith.addi %13, %14 : tensor<256xi32> loc(#loc15)
    %16 = tt.splat %arg0 : !tt.ptr<f32> -> tensor<256x!tt.ptr<f32>> loc(#loc16)
    %17 = tt.addptr %16, %15 : tensor<256x!tt.ptr<f32>>, tensor<256xi32> loc(#loc16)
    %18 = arith.andi %11, %5 : tensor<256xi1> loc(#loc17)
    %19 = tt.load %17, %18, %cst_1 : tensor<256x!tt.ptr<f32>> loc(#loc18)
    %20 = arith.subf %cst_1, %19 : tensor<256xf32> loc(#loc41)
    %21 = math.exp %20 : tensor<256xf32> loc(#loc42)
    %22 = arith.addf %21, %cst : tensor<256xf32> loc(#loc43)
    %23 = arith.divf %cst, %22 : tensor<256xf32> loc(#loc44)
    %24 = arith.mulf %19, %23 : tensor<256xf32> loc(#loc24)
    %25 = arith.cmpi sge, %10, %cst_3 : tensor<256xi64> loc(#loc25)
    %26 = arith.addi %7, %cst_0 : tensor<256xi32> loc(#loc26)
    %27 = arith.muli %26, %cst_6 : tensor<256xi32> loc(#loc27)
    %28 = arith.addi %8, %27 : tensor<256xi32> loc(#loc28)
    %29 = arith.addi %28, %14 : tensor<256xi32> loc(#loc29)
    %30 = tt.splat %arg1 : !tt.ptr<f32> -> tensor<256x!tt.ptr<f32>> loc(#loc30)
    %31 = tt.addptr %30, %29 : tensor<256x!tt.ptr<f32>>, tensor<256xi32> loc(#loc30)
    %32 = arith.andi %25, %5 : tensor<256xi1> loc(#loc31)
    %33 = tt.load %31, %32, %cst_1 : tensor<256x!tt.ptr<f32>> loc(#loc32)
    %34 = arith.subf %cst_1, %33 : tensor<256xf32> loc(#loc45)
    %35 = math.exp %34 : tensor<256xf32> loc(#loc46)
    %36 = arith.addf %35, %cst : tensor<256xf32> loc(#loc47)
    %37 = arith.divf %cst, %36 : tensor<256xf32> loc(#loc48)
    %38 = arith.mulf %33, %37 : tensor<256xf32> loc(#loc34)
    %39 = arith.select %25, %38, %cst_1 : tensor<256xi1>, tensor<256xf32> loc(#loc35)
    %40 = arith.select %11, %24, %39 : tensor<256xi1>, tensor<256xf32> loc(#loc49)
    %41 = tt.splat %arg2 : !tt.ptr<f32> -> tensor<256x!tt.ptr<f32>> loc(#loc38)
    %42 = tt.addptr %41, %4 : tensor<256x!tt.ptr<f32>>, tensor<256xi32> loc(#loc38)
    tt.store %42, %40, %5 : tensor<256x!tt.ptr<f32>> loc(#loc39)
    tt.return loc(#loc40)
  } loc(#loc)
} loc(#loc)
#loc1 = loc(unknown)
#loc2 = loc("inductor_cache/r2/cr2yltzvdzqrsgyfj4jfoumpcsrfkhep7q2qoixsua7iqyaecpdc.py":21:28)
#loc3 = loc("inductor_cache/r2/cr2yltzvdzqrsgyfj4jfoumpcsrfkhep7q2qoixsua7iqyaecpdc.py":21:33)
#loc4 = loc("inductor_cache/r2/cr2yltzvdzqrsgyfj4jfoumpcsrfkhep7q2qoixsua7iqyaecpdc.py":22:36)
#loc5 = loc("inductor_cache/r2/cr2yltzvdzqrsgyfj4jfoumpcsrfkhep7q2qoixsua7iqyaecpdc.py":22:23)
#loc6 = loc("inductor_cache/r2/cr2yltzvdzqrsgyfj4jfoumpcsrfkhep7q2qoixsua7iqyaecpdc.py":23:21)
#loc7 = loc("inductor_cache/r2/cr2yltzvdzqrsgyfj4jfoumpcsrfkhep7q2qoixsua7iqyaecpdc.py":24:21)
#loc8 = loc("inductor_cache/r2/cr2yltzvdzqrsgyfj4jfoumpcsrfkhep7q2qoixsua7iqyaecpdc.py":24:27)
#loc9 = loc("inductor_cache/r2/cr2yltzvdzqrsgyfj4jfoumpcsrfkhep7q2qoixsua7iqyaecpdc.py":25:19)
#loc10 = loc("inductor_cache/r2/cr2yltzvdzqrsgyfj4jfoumpcsrfkhep7q2qoixsua7iqyaecpdc.py":26:19)
#loc11 = loc("inductor_cache/r2/cr2yltzvdzqrsgyfj4jfoumpcsrfkhep7q2qoixsua7iqyaecpdc.py":32:18)
#loc12 = loc("inductor_cache/r2/cr2yltzvdzqrsgyfj4jfoumpcsrfkhep7q2qoixsua7iqyaecpdc.py":33:39)
#loc13 = loc("inductor_cache/r2/cr2yltzvdzqrsgyfj4jfoumpcsrfkhep7q2qoixsua7iqyaecpdc.py":33:35)
#loc14 = loc("inductor_cache/r2/cr2yltzvdzqrsgyfj4jfoumpcsrfkhep7q2qoixsua7iqyaecpdc.py":33:48)
#loc15 = loc("inductor_cache/r2/cr2yltzvdzqrsgyfj4jfoumpcsrfkhep7q2qoixsua7iqyaecpdc.py":33:45)
#loc16 = loc("inductor_cache/r2/cr2yltzvdzqrsgyfj4jfoumpcsrfkhep7q2qoixsua7iqyaecpdc.py":33:30)
#loc17 = loc("inductor_cache/r2/cr2yltzvdzqrsgyfj4jfoumpcsrfkhep7q2qoixsua7iqyaecpdc.py":33:60)
#loc18 = loc("inductor_cache/r2/cr2yltzvdzqrsgyfj4jfoumpcsrfkhep7q2qoixsua7iqyaecpdc.py":33:53)
#loc19 = loc("/home/sahanp/.conda/envs/parity-bench/lib/python3.12/site-packages/triton/language/standard.py":47:30)
#loc20 = loc("inductor_cache/r2/cr2yltzvdzqrsgyfj4jfoumpcsrfkhep7q2qoixsua7iqyaecpdc.py":34:22)
#loc21 = loc("/home/sahanp/.conda/envs/parity-bench/lib/python3.12/site-packages/triton/language/standard.py":47:29)
#loc22 = loc("/home/sahanp/.conda/envs/parity-bench/lib/python3.12/site-packages/triton/language/standard.py":47:20)
#loc23 = loc("/home/sahanp/.conda/envs/parity-bench/lib/python3.12/site-packages/triton/language/standard.py":47:16)
#loc24 = loc("inductor_cache/r2/cr2yltzvdzqrsgyfj4jfoumpcsrfkhep7q2qoixsua7iqyaecpdc.py":35:18)
#loc25 = loc("inductor_cache/r2/cr2yltzvdzqrsgyfj4jfoumpcsrfkhep7q2qoixsua7iqyaecpdc.py":38:20)
#loc26 = loc("inductor_cache/r2/cr2yltzvdzqrsgyfj4jfoumpcsrfkhep7q2qoixsua7iqyaecpdc.py":41:47)
#loc27 = loc("inductor_cache/r2/cr2yltzvdzqrsgyfj4jfoumpcsrfkhep7q2qoixsua7iqyaecpdc.py":41:40)
#loc28 = loc("inductor_cache/r2/cr2yltzvdzqrsgyfj4jfoumpcsrfkhep7q2qoixsua7iqyaecpdc.py":41:36)
#loc29 = loc("inductor_cache/r2/cr2yltzvdzqrsgyfj4jfoumpcsrfkhep7q2qoixsua7iqyaecpdc.py":41:53)
#loc30 = loc("inductor_cache/r2/cr2yltzvdzqrsgyfj4jfoumpcsrfkhep7q2qoixsua7iqyaecpdc.py":41:31)
#loc31 = loc("inductor_cache/r2/cr2yltzvdzqrsgyfj4jfoumpcsrfkhep7q2qoixsua7iqyaecpdc.py":41:69)
#loc32 = loc("inductor_cache/r2/cr2yltzvdzqrsgyfj4jfoumpcsrfkhep7q2qoixsua7iqyaecpdc.py":41:61)
#loc33 = loc("inductor_cache/r2/cr2yltzvdzqrsgyfj4jfoumpcsrfkhep7q2qoixsua7iqyaecpdc.py":42:23)
#loc34 = loc("inductor_cache/r2/cr2yltzvdzqrsgyfj4jfoumpcsrfkhep7q2qoixsua7iqyaecpdc.py":43:20)
#loc35 = loc("inductor_cache/r2/cr2yltzvdzqrsgyfj4jfoumpcsrfkhep7q2qoixsua7iqyaecpdc.py":45:35)
#loc36 = loc("inductor_cache/r2/cr2yltzvdzqrsgyfj4jfoumpcsrfkhep7q2qoixsua7iqyaecpdc.py":46:33)
#loc37 = loc("inductor_cache/r2/cr2yltzvdzqrsgyfj4jfoumpcsrfkhep7q2qoixsua7iqyaecpdc.py":37:32)
#loc38 = loc("inductor_cache/r2/cr2yltzvdzqrsgyfj4jfoumpcsrfkhep7q2qoixsua7iqyaecpdc.py":47:25)
#loc39 = loc("inductor_cache/r2/cr2yltzvdzqrsgyfj4jfoumpcsrfkhep7q2qoixsua7iqyaecpdc.py":47:37)
#loc40 = loc("inductor_cache/r2/cr2yltzvdzqrsgyfj4jfoumpcsrfkhep7q2qoixsua7iqyaecpdc.py":47:4)
#loc41 = loc(callsite(#loc19 at #loc20))
#loc42 = loc(callsite(#loc21 at #loc20))
#loc43 = loc(callsite(#loc22 at #loc20))
#loc44 = loc(callsite(#loc23 at #loc20))
#loc45 = loc(callsite(#loc19 at #loc33))
#loc46 = loc(callsite(#loc21 at #loc33))
#loc47 = loc(callsite(#loc22 at #loc33))
#loc48 = loc(callsite(#loc23 at #loc33))
#loc49 = loc(fused[#loc36, #loc37])
