#loc = loc("inductor_cache/iu/ciucdduwfdkr5flhibjfxc6vnnikdewtzd7cpanpibk3apzkve72.py":19:0)
module {
  tt.func public @triton_poi_fused__native_batch_norm_legit_no_training_relu_9(%arg0: !tt.ptr<f32> {tt.divisibility = 16 : i32} loc("inductor_cache/iu/ciucdduwfdkr5flhibjfxc6vnnikdewtzd7cpanpibk3apzkve72.py":19:0), %arg1: !tt.ptr<f32> {tt.divisibility = 16 : i32} loc("inductor_cache/iu/ciucdduwfdkr5flhibjfxc6vnnikdewtzd7cpanpibk3apzkve72.py":19:0), %arg2: !tt.ptr<f32> {tt.divisibility = 16 : i32} loc("inductor_cache/iu/ciucdduwfdkr5flhibjfxc6vnnikdewtzd7cpanpibk3apzkve72.py":19:0), %arg3: !tt.ptr<f32> {tt.divisibility = 16 : i32} loc("inductor_cache/iu/ciucdduwfdkr5flhibjfxc6vnnikdewtzd7cpanpibk3apzkve72.py":19:0), %arg4: !tt.ptr<f32> {tt.divisibility = 16 : i32} loc("inductor_cache/iu/ciucdduwfdkr5flhibjfxc6vnnikdewtzd7cpanpibk3apzkve72.py":19:0), %arg5: !tt.ptr<f32> {tt.divisibility = 16 : i32} loc("inductor_cache/iu/ciucdduwfdkr5flhibjfxc6vnnikdewtzd7cpanpibk3apzkve72.py":19:0), %arg6: i32 {tt.divisibility = 16 : i32} loc("inductor_cache/iu/ciucdduwfdkr5flhibjfxc6vnnikdewtzd7cpanpibk3apzkve72.py":19:0)) attributes {noinline = false} {
    %cst = arith.constant 1.000000e+00 : f32 loc(#loc1)
    %cst_0 = arith.constant 9.99999974E-6 : f32 loc(#loc1)
    %cst_1 = arith.constant dense<0.000000e+00> : tensor<128xf32> loc(#loc1)
    %c0_i32 = arith.constant 0 : i32 loc(#loc1)
    %cst_2 = arith.constant dense<256> : tensor<128xi32> loc(#loc1)
    %c128_i32 = arith.constant 128 : i32 loc(#loc1)
    %0 = tt.get_program_id x : i32 loc(#loc2)
    %1 = arith.muli %0, %c128_i32 : i32 loc(#loc3)
    %2 = tt.make_range {end = 128 : i32, start = 0 : i32} : tensor<128xi32> loc(#loc4)
    %3 = tt.splat %1 : i32 -> tensor<128xi32> loc(#loc5)
    %4 = arith.addi %3, %2 : tensor<128xi32> loc(#loc5)
    %5 = arith.cmpi slt, %4, %cst_2 : tensor<128xi32> loc(#loc6)
    %6 = tt.splat %arg0 : !tt.ptr<f32> -> tensor<128x!tt.ptr<f32>> loc(#loc7)
    %7 = tt.addptr %6, %4 : tensor<128x!tt.ptr<f32>>, tensor<128xi32> loc(#loc7)
    %8 = tt.load %7, %5 : tensor<128x!tt.ptr<f32>> loc(#loc8)
    %9 = tt.addptr %arg1, %c0_i32 : !tt.ptr<f32>, i32 loc(#loc9)
    %10 = tt.load %9 : !tt.ptr<f32> loc(#loc10)
    %11 = tt.splat %10 : f32 -> tensor<128xf32> loc(#loc11)
    %12 = tt.addptr %arg2, %c0_i32 : !tt.ptr<f32>, i32 loc(#loc12)
    %13 = tt.load %12 : !tt.ptr<f32> loc(#loc13)
    %14 = tt.addptr %arg3, %c0_i32 : !tt.ptr<f32>, i32 loc(#loc14)
    %15 = tt.load %14 : !tt.ptr<f32> loc(#loc15)
    %16 = tt.splat %15 : f32 -> tensor<128xf32> loc(#loc16)
    %17 = tt.addptr %arg4, %c0_i32 : !tt.ptr<f32>, i32 loc(#loc17)
    %18 = tt.load %17 : !tt.ptr<f32> loc(#loc18)
    %19 = tt.splat %18 : f32 -> tensor<128xf32> loc(#loc19)
    %20 = arith.subf %8, %11 : tensor<128xf32> loc(#loc20)
    %21 = arith.addf %13, %cst_0 : f32 loc(#loc21)
    %22 = tt.extern_elementwise %21 {libname = "", libpath = "", pure = true, symbol = "__nv_sqrtf"} : (f32) -> f32 loc(#loc22)
    %23 = arith.divf %cst, %22 : f32 loc(#loc23)
    %24 = tt.splat %23 : f32 -> tensor<128xf32> loc(#loc23)
    %25 = arith.mulf %20, %24 : tensor<128xf32> loc(#loc24)
    %26 = arith.mulf %25, %16 : tensor<128xf32> loc(#loc25)
    %27 = arith.addf %26, %19 : tensor<128xf32> loc(#loc26)
    %28 = arith.cmpf ogt, %cst_1, %27 : tensor<128xf32> loc(#loc33)
    %29 = arith.select %28, %cst_1, %27 : tensor<128xi1>, tensor<128xf32> loc(#loc34)
    %30 = tt.splat %arg5 : !tt.ptr<f32> -> tensor<128x!tt.ptr<f32>> loc(#loc30)
    %31 = tt.addptr %30, %4 : tensor<128x!tt.ptr<f32>>, tensor<128xi32> loc(#loc30)
    tt.store %31, %29, %5 : tensor<128x!tt.ptr<f32>> loc(#loc31)
    tt.return loc(#loc32)
  } loc(#loc)
} loc(#loc)
#loc1 = loc(unknown)
#loc2 = loc("inductor_cache/iu/ciucdduwfdkr5flhibjfxc6vnnikdewtzd7cpanpibk3apzkve72.py":21:28)
#loc3 = loc("inductor_cache/iu/ciucdduwfdkr5flhibjfxc6vnnikdewtzd7cpanpibk3apzkve72.py":21:33)
#loc4 = loc("inductor_cache/iu/ciucdduwfdkr5flhibjfxc6vnnikdewtzd7cpanpibk3apzkve72.py":22:36)
#loc5 = loc("inductor_cache/iu/ciucdduwfdkr5flhibjfxc6vnnikdewtzd7cpanpibk3apzkve72.py":22:23)
#loc6 = loc("inductor_cache/iu/ciucdduwfdkr5flhibjfxc6vnnikdewtzd7cpanpibk3apzkve72.py":23:21)
#loc7 = loc("inductor_cache/iu/ciucdduwfdkr5flhibjfxc6vnnikdewtzd7cpanpibk3apzkve72.py":25:30)
#loc8 = loc("inductor_cache/iu/ciucdduwfdkr5flhibjfxc6vnnikdewtzd7cpanpibk3apzkve72.py":25:35)
#loc9 = loc("inductor_cache/iu/ciucdduwfdkr5flhibjfxc6vnnikdewtzd7cpanpibk3apzkve72.py":26:30)
#loc10 = loc("inductor_cache/iu/ciucdduwfdkr5flhibjfxc6vnnikdewtzd7cpanpibk3apzkve72.py":26:19)
#loc11 = loc("inductor_cache/iu/ciucdduwfdkr5flhibjfxc6vnnikdewtzd7cpanpibk3apzkve72.py":27:33)
#loc12 = loc("inductor_cache/iu/ciucdduwfdkr5flhibjfxc6vnnikdewtzd7cpanpibk3apzkve72.py":28:30)
#loc13 = loc("inductor_cache/iu/ciucdduwfdkr5flhibjfxc6vnnikdewtzd7cpanpibk3apzkve72.py":28:19)
#loc14 = loc("inductor_cache/iu/ciucdduwfdkr5flhibjfxc6vnnikdewtzd7cpanpibk3apzkve72.py":30:31)
#loc15 = loc("inductor_cache/iu/ciucdduwfdkr5flhibjfxc6vnnikdewtzd7cpanpibk3apzkve72.py":30:20)
#loc16 = loc("inductor_cache/iu/ciucdduwfdkr5flhibjfxc6vnnikdewtzd7cpanpibk3apzkve72.py":31:35)
#loc17 = loc("inductor_cache/iu/ciucdduwfdkr5flhibjfxc6vnnikdewtzd7cpanpibk3apzkve72.py":32:31)
#loc18 = loc("inductor_cache/iu/ciucdduwfdkr5flhibjfxc6vnnikdewtzd7cpanpibk3apzkve72.py":32:20)
#loc19 = loc("inductor_cache/iu/ciucdduwfdkr5flhibjfxc6vnnikdewtzd7cpanpibk3apzkve72.py":33:35)
#loc20 = loc("inductor_cache/iu/ciucdduwfdkr5flhibjfxc6vnnikdewtzd7cpanpibk3apzkve72.py":34:18)
#loc21 = loc("inductor_cache/iu/ciucdduwfdkr5flhibjfxc6vnnikdewtzd7cpanpibk3apzkve72.py":36:18)
#loc22 = loc("inductor_cache/iu/ciucdduwfdkr5flhibjfxc6vnnikdewtzd7cpanpibk3apzkve72.py":37:26)
#loc23 = loc("inductor_cache/iu/ciucdduwfdkr5flhibjfxc6vnnikdewtzd7cpanpibk3apzkve72.py":39:19)
#loc24 = loc("inductor_cache/iu/ciucdduwfdkr5flhibjfxc6vnnikdewtzd7cpanpibk3apzkve72.py":42:19)
#loc25 = loc("inductor_cache/iu/ciucdduwfdkr5flhibjfxc6vnnikdewtzd7cpanpibk3apzkve72.py":43:20)
#loc26 = loc("inductor_cache/iu/ciucdduwfdkr5flhibjfxc6vnnikdewtzd7cpanpibk3apzkve72.py":44:20)
#loc27 = loc("/home/sahanp/.conda/envs/parity-bench/lib/python3.12/site-packages/torch/_inductor/runtime/triton_helpers.py":118:15)
#loc28 = loc("inductor_cache/iu/ciucdduwfdkr5flhibjfxc6vnnikdewtzd7cpanpibk3apzkve72.py":46:42)
#loc29 = loc("/home/sahanp/.conda/envs/parity-bench/lib/python3.12/site-packages/torch/_inductor/runtime/triton_helpers.py":121:29)
#loc30 = loc("inductor_cache/iu/ciucdduwfdkr5flhibjfxc6vnnikdewtzd7cpanpibk3apzkve72.py":47:25)
#loc31 = loc("inductor_cache/iu/ciucdduwfdkr5flhibjfxc6vnnikdewtzd7cpanpibk3apzkve72.py":47:37)
#loc32 = loc("inductor_cache/iu/ciucdduwfdkr5flhibjfxc6vnnikdewtzd7cpanpibk3apzkve72.py":47:4)
#loc33 = loc(callsite(#loc27 at #loc28))
#loc34 = loc(callsite(#loc29 at #loc28))
