#loc = loc("inductor_cache/tf/ctfuvmzn2bznp66dmy3xicnog7xbtpbdivk36ruqzq7ivppsfdiy.py":19:0)
module {
  tt.func public @triton_poi_fused_abs_div_ge_mul_pow_sub_where_0(%arg0: !tt.ptr<f32> {tt.divisibility = 16 : i32} loc("inductor_cache/tf/ctfuvmzn2bznp66dmy3xicnog7xbtpbdivk36ruqzq7ivppsfdiy.py":19:0), %arg1: !tt.ptr<f32> {tt.divisibility = 16 : i32} loc("inductor_cache/tf/ctfuvmzn2bznp66dmy3xicnog7xbtpbdivk36ruqzq7ivppsfdiy.py":19:0), %arg2: !tt.ptr<f32> {tt.divisibility = 16 : i32} loc("inductor_cache/tf/ctfuvmzn2bznp66dmy3xicnog7xbtpbdivk36ruqzq7ivppsfdiy.py":19:0), %arg3: i32 {tt.divisibility = 16 : i32} loc("inductor_cache/tf/ctfuvmzn2bznp66dmy3xicnog7xbtpbdivk36ruqzq7ivppsfdiy.py":19:0)) attributes {noinline = false} {
    %cst = arith.constant dense<9.090909> : tensor<128xf32> loc(#loc1)
    %cst_0 = arith.constant dense<5.000000e-01> : tensor<128xf32> loc(#loc1)
    %cst_1 = arith.constant dense<5.500000e-02> : tensor<128xf32> loc(#loc1)
    %cst_2 = arith.constant dense<1.100000e-01> : tensor<128xf32> loc(#loc1)
    %cst_3 = arith.constant dense<256> : tensor<128xi32> loc(#loc1)
    %c128_i32 = arith.constant 128 : i32 loc(#loc1)
    %0 = tt.get_program_id x : i32 loc(#loc2)
    %1 = arith.muli %0, %c128_i32 : i32 loc(#loc3)
    %2 = tt.make_range {end = 128 : i32, start = 0 : i32} : tensor<128xi32> loc(#loc4)
    %3 = tt.splat %1 : i32 -> tensor<128xi32> loc(#loc5)
    %4 = arith.addi %3, %2 : tensor<128xi32> loc(#loc5)
    %5 = arith.cmpi slt, %4, %cst_3 : tensor<128xi32> loc(#loc6)
    %6 = tt.splat %arg0 : !tt.ptr<f32> -> tensor<128x!tt.ptr<f32>> loc(#loc7)
    %7 = tt.addptr %6, %4 : tensor<128x!tt.ptr<f32>>, tensor<128xi32> loc(#loc7)
    %8 = tt.load %7, %5 : tensor<128x!tt.ptr<f32>> loc(#loc8)
    %9 = tt.splat %arg1 : !tt.ptr<f32> -> tensor<128x!tt.ptr<f32>> loc(#loc9)
    %10 = tt.addptr %9, %4 : tensor<128x!tt.ptr<f32>>, tensor<128xi32> loc(#loc9)
    %11 = tt.load %10, %5 : tensor<128x!tt.ptr<f32>> loc(#loc10)
    %12 = arith.subf %8, %11 : tensor<128xf32> loc(#loc11)
    %13 = math.absf %12 : tensor<128xf32> loc(#loc12)
    %14 = arith.cmpf oge, %13, %cst_2 : tensor<128xf32> loc(#loc13)
    %15 = arith.subf %13, %cst_1 : tensor<128xf32> loc(#loc14)
    %16 = arith.mulf %13, %13 : tensor<128xf32> loc(#loc15)
    %17 = arith.mulf %16, %cst_0 : tensor<128xf32> loc(#loc16)
    %18 = arith.mulf %17, %cst : tensor<128xf32> loc(#loc17)
    %19 = arith.select %14, %15, %18 : tensor<128xi1>, tensor<128xf32> loc(#loc18)
    %20 = tt.splat %arg2 : !tt.ptr<f32> -> tensor<128x!tt.ptr<f32>> loc(#loc19)
    %21 = tt.addptr %20, %4 : tensor<128x!tt.ptr<f32>>, tensor<128xi32> loc(#loc19)
    tt.store %21, %19, %5 : tensor<128x!tt.ptr<f32>> loc(#loc20)
    tt.return loc(#loc21)
  } loc(#loc)
} loc(#loc)
#loc1 = loc(unknown)
#loc2 = loc("inductor_cache/tf/ctfuvmzn2bznp66dmy3xicnog7xbtpbdivk36ruqzq7ivppsfdiy.py":21:28)
#loc3 = loc("inductor_cache/tf/ctfuvmzn2bznp66dmy3xicnog7xbtpbdivk36ruqzq7ivppsfdiy.py":21:33)
#loc4 = loc("inductor_cache/tf/ctfuvmzn2bznp66dmy3xicnog7xbtpbdivk36ruqzq7ivppsfdiy.py":22:36)
#loc5 = loc("inductor_cache/tf/ctfuvmzn2bznp66dmy3xicnog7xbtpbdivk36ruqzq7ivppsfdiy.py":22:23)
#loc6 = loc("inductor_cache/tf/ctfuvmzn2bznp66dmy3xicnog7xbtpbdivk36ruqzq7ivppsfdiy.py":23:21)
#loc7 = loc("inductor_cache/tf/ctfuvmzn2bznp66dmy3xicnog7xbtpbdivk36ruqzq7ivppsfdiy.py":25:30)
#loc8 = loc("inductor_cache/tf/ctfuvmzn2bznp66dmy3xicnog7xbtpbdivk36ruqzq7ivppsfdiy.py":25:35)
#loc9 = loc("inductor_cache/tf/ctfuvmzn2bznp66dmy3xicnog7xbtpbdivk36ruqzq7ivppsfdiy.py":26:30)
#loc10 = loc("inductor_cache/tf/ctfuvmzn2bznp66dmy3xicnog7xbtpbdivk36ruqzq7ivppsfdiy.py":26:35)
#loc11 = loc("inductor_cache/tf/ctfuvmzn2bznp66dmy3xicnog7xbtpbdivk36ruqzq7ivppsfdiy.py":27:18)
#loc12 = loc("inductor_cache/tf/ctfuvmzn2bznp66dmy3xicnog7xbtpbdivk36ruqzq7ivppsfdiy.py":28:23)
#loc13 = loc("inductor_cache/tf/ctfuvmzn2bznp66dmy3xicnog7xbtpbdivk36ruqzq7ivppsfdiy.py":30:19)
#loc14 = loc("inductor_cache/tf/ctfuvmzn2bznp66dmy3xicnog7xbtpbdivk36ruqzq7ivppsfdiy.py":32:18)
#loc15 = loc("inductor_cache/tf/ctfuvmzn2bznp66dmy3xicnog7xbtpbdivk36ruqzq7ivppsfdiy.py":33:18)
#loc16 = loc("inductor_cache/tf/ctfuvmzn2bznp66dmy3xicnog7xbtpbdivk36ruqzq7ivppsfdiy.py":35:19)
#loc17 = loc("inductor_cache/tf/ctfuvmzn2bznp66dmy3xicnog7xbtpbdivk36ruqzq7ivppsfdiy.py":37:20)
#loc18 = loc("inductor_cache/tf/ctfuvmzn2bznp66dmy3xicnog7xbtpbdivk36ruqzq7ivppsfdiy.py":38:33)
#loc19 = loc("inductor_cache/tf/ctfuvmzn2bznp66dmy3xicnog7xbtpbdivk36ruqzq7ivppsfdiy.py":39:25)
#loc20 = loc("inductor_cache/tf/ctfuvmzn2bznp66dmy3xicnog7xbtpbdivk36ruqzq7ivppsfdiy.py":39:37)
#loc21 = loc("inductor_cache/tf/ctfuvmzn2bznp66dmy3xicnog7xbtpbdivk36ruqzq7ivppsfdiy.py":39:4)
