#loc = loc("inductor_cache/gs/cgsdzpi23tsunvud4h6xsoxsrt3alqiy6codmmk5fnhkls7x47ca.py":19:0)
module {
  tt.func public @triton_poi_fused_max_pool2d_with_indices_0(%arg0: !tt.ptr<f32> {tt.divisibility = 16 : i32} loc("inductor_cache/gs/cgsdzpi23tsunvud4h6xsoxsrt3alqiy6codmmk5fnhkls7x47ca.py":19:0), %arg1: !tt.ptr<f32> {tt.divisibility = 16 : i32} loc("inductor_cache/gs/cgsdzpi23tsunvud4h6xsoxsrt3alqiy6codmmk5fnhkls7x47ca.py":19:0), %arg2: i32 loc("inductor_cache/gs/cgsdzpi23tsunvud4h6xsoxsrt3alqiy6codmmk5fnhkls7x47ca.py":19:0), %arg3: i32 {tt.divisibility = 16 : i32} loc("inductor_cache/gs/cgsdzpi23tsunvud4h6xsoxsrt3alqiy6codmmk5fnhkls7x47ca.py":19:0)) attributes {noinline = false} {
    %cst = arith.constant dense<15> : tensor<16x1xi32> loc(#loc1)
    %cst_0 = arith.constant dense<14> : tensor<16x1xi32> loc(#loc1)
    %cst_1 = arith.constant dense<13> : tensor<16x1xi32> loc(#loc1)
    %cst_2 = arith.constant dense<12> : tensor<16x1xi32> loc(#loc1)
    %cst_3 = arith.constant dense<11> : tensor<16x1xi32> loc(#loc1)
    %cst_4 = arith.constant dense<10> : tensor<16x1xi32> loc(#loc1)
    %cst_5 = arith.constant dense<9> : tensor<16x1xi32> loc(#loc1)
    %cst_6 = arith.constant dense<8> : tensor<16x1xi32> loc(#loc1)
    %cst_7 = arith.constant dense<7> : tensor<16x1xi32> loc(#loc1)
    %cst_8 = arith.constant dense<6> : tensor<16x1xi32> loc(#loc1)
    %cst_9 = arith.constant dense<5> : tensor<16x1xi32> loc(#loc1)
    %cst_10 = arith.constant dense<3> : tensor<16x1xi32> loc(#loc1)
    %cst_11 = arith.constant dense<2> : tensor<16x1xi32> loc(#loc1)
    %cst_12 = arith.constant dense<1> : tensor<16x1xi32> loc(#loc1)
    %cst_13 = arith.constant dense<256> : tensor<16x1xi32> loc(#loc1)
    %cst_14 = arith.constant dense<64> : tensor<1x4xi32> loc(#loc1)
    %cst_15 = arith.constant dense<4> : tensor<16x1xi32> loc(#loc1)
    %cst_16 = arith.constant dense<16> : tensor<16x1xi32> loc(#loc1)
    %cst_17 = arith.constant dense<4> : tensor<1x4xi32> loc(#loc1)
    %c4_i32 = arith.constant 4 : i32 loc(#loc1)
    %c16_i32 = arith.constant 16 : i32 loc(#loc1)
    %0 = tt.get_program_id y : i32 loc(#loc2)
    %1 = arith.muli %0, %c4_i32 : i32 loc(#loc3)
    %2 = tt.make_range {end = 4 : i32, start = 0 : i32} : tensor<4xi32> loc(#loc4)
    %3 = tt.expand_dims %2 {axis = 0 : i32} : tensor<4xi32> -> tensor<1x4xi32> loc(#loc5)
    %4 = tt.splat %1 : i32 -> tensor<1x4xi32> loc(#loc6)
    %5 = arith.addi %4, %3 : tensor<1x4xi32> loc(#loc6)
    %6 = arith.cmpi slt, %5, %cst_17 : tensor<1x4xi32> loc(#loc7)
    %7 = tt.get_program_id x : i32 loc(#loc8)
    %8 = arith.muli %7, %c16_i32 : i32 loc(#loc9)
    %9 = tt.make_range {end = 16 : i32, start = 0 : i32} : tensor<16xi32> loc(#loc10)
    %10 = tt.expand_dims %9 {axis = 1 : i32} : tensor<16xi32> -> tensor<16x1xi32> loc(#loc11)
    %11 = tt.splat %8 : i32 -> tensor<16x1xi32> loc(#loc12)
    %12 = arith.addi %11, %10 : tensor<16x1xi32> loc(#loc12)
    %13 = arith.cmpi slt, %12, %cst_16 : tensor<16x1xi32> loc(#loc13)
    %14 = arith.remsi %12, %cst_15 : tensor<16x1xi32> loc(#loc14)
    %15 = arith.muli %14, %cst_16 : tensor<16x1xi32> loc(#loc15)
    %16 = arith.muli %5, %cst_14 : tensor<1x4xi32> loc(#loc16)
    %17 = tt.broadcast %15 : tensor<16x1xi32> -> tensor<16x4xi32> loc(#loc17)
    %18 = tt.broadcast %16 : tensor<1x4xi32> -> tensor<16x4xi32> loc(#loc17)
    %19 = arith.addi %17, %18 : tensor<16x4xi32> loc(#loc17)
    %20 = arith.divsi %12, %cst_15 : tensor<16x1xi32> loc(#loc18)
    %21 = arith.muli %20, %cst_13 : tensor<16x1xi32> loc(#loc19)
    %22 = tt.broadcast %21 : tensor<16x1xi32> -> tensor<16x4xi32> loc(#loc20)
    %23 = arith.addi %19, %22 : tensor<16x4xi32> loc(#loc20)
    %24 = tt.splat %arg0 : !tt.ptr<f32> -> tensor<16x4x!tt.ptr<f32>> loc(#loc21)
    %25 = tt.addptr %24, %23 : tensor<16x4x!tt.ptr<f32>>, tensor<16x4xi32> loc(#loc21)
    %26 = tt.broadcast %13 : tensor<16x1xi1> -> tensor<16x4xi1> loc(#loc22)
    %27 = tt.broadcast %6 : tensor<1x4xi1> -> tensor<16x4xi1> loc(#loc22)
    %28 = arith.andi %26, %27 : tensor<16x4xi1> loc(#loc22)
    %29 = tt.load %25, %28 evictionPolicy = evict_last : tensor<16x4x!tt.ptr<f32>> loc(#loc23)
    %30 = arith.addi %15, %cst_12 : tensor<16x1xi32> loc(#loc24)
    %31 = tt.broadcast %30 : tensor<16x1xi32> -> tensor<16x4xi32> loc(#loc25)
    %32 = arith.addi %31, %18 : tensor<16x4xi32> loc(#loc25)
    %33 = arith.addi %32, %22 : tensor<16x4xi32> loc(#loc26)
    %34 = tt.addptr %24, %33 : tensor<16x4x!tt.ptr<f32>>, tensor<16x4xi32> loc(#loc27)
    %35 = tt.load %34, %28 evictionPolicy = evict_last : tensor<16x4x!tt.ptr<f32>> loc(#loc28)
    %36 = arith.addi %15, %cst_11 : tensor<16x1xi32> loc(#loc29)
    %37 = tt.broadcast %36 : tensor<16x1xi32> -> tensor<16x4xi32> loc(#loc30)
    %38 = arith.addi %37, %18 : tensor<16x4xi32> loc(#loc30)
    %39 = arith.addi %38, %22 : tensor<16x4xi32> loc(#loc31)
    %40 = tt.addptr %24, %39 : tensor<16x4x!tt.ptr<f32>>, tensor<16x4xi32> loc(#loc32)
    %41 = tt.load %40, %28 evictionPolicy = evict_last : tensor<16x4x!tt.ptr<f32>> loc(#loc33)
    %42 = arith.addi %15, %cst_10 : tensor<16x1xi32> loc(#loc34)
    %43 = tt.broadcast %42 : tensor<16x1xi32> -> tensor<16x4xi32> loc(#loc35)
    %44 = arith.addi %43, %18 : tensor<16x4xi32> loc(#loc35)
    %45 = arith.addi %44, %22 : tensor<16x4xi32> loc(#loc36)
    %46 = tt.addptr %24, %45 : tensor<16x4x!tt.ptr<f32>>, tensor<16x4xi32> loc(#loc37)
    %47 = tt.load %46, %28 evictionPolicy = evict_last : tensor<16x4x!tt.ptr<f32>> loc(#loc38)
    %48 = arith.addi %15, %cst_15 : tensor<16x1xi32> loc(#loc39)
    %49 = tt.broadcast %48 : tensor<16x1xi32> -> tensor<16x4xi32> loc(#loc40)
    %50 = arith.addi %49, %18 : tensor<16x4xi32> loc(#loc40)
    %51 = arith.addi %50, %22 : tensor<16x4xi32> loc(#loc41)
    %52 = tt.addptr %24, %51 : tensor<16x4x!tt.ptr<f32>>, tensor<16x4xi32> loc(#loc42)
    %53 = tt.load %52, %28 evictionPolicy = evict_last : tensor<16x4x!tt.ptr<f32>> loc(#loc43)
    %54 = arith.addi %15, %cst_9 : tensor<16x1xi32> loc(#loc44)
    %55 = tt.broadcast %54 : tensor<16x1xi32> -> tensor<16x4xi32> loc(#loc45)
    %56 = arith.addi %55, %18 : tensor<16x4xi32> loc(#loc45)
    %57 = arith.addi %56, %22 : tensor<16x4xi32> loc(#loc46)
    %58 = tt.addptr %24, %57 : tensor<16x4x!tt.ptr<f32>>, tensor<16x4xi32> loc(#loc47)
    %59 = tt.load %58, %28 evictionPolicy = evict_last : tensor<16x4x!tt.ptr<f32>> loc(#loc48)
    %60 = arith.addi %15, %cst_8 : tensor<16x1xi32> loc(#loc49)
    %61 = tt.broadcast %60 : tensor<16x1xi32> -> tensor<16x4xi32> loc(#loc50)
    %62 = arith.addi %61, %18 : tensor<16x4xi32> loc(#loc50)
    %63 = arith.addi %62, %22 : tensor<16x4xi32> loc(#loc51)
    %64 = tt.addptr %24, %63 : tensor<16x4x!tt.ptr<f32>>, tensor<16x4xi32> loc(#loc52)
    %65 = tt.load %64, %28 evictionPolicy = evict_last : tensor<16x4x!tt.ptr<f32>> loc(#loc53)
    %66 = arith.addi %15, %cst_7 : tensor<16x1xi32> loc(#loc54)
    %67 = tt.broadcast %66 : tensor<16x1xi32> -> tensor<16x4xi32> loc(#loc55)
    %68 = arith.addi %67, %18 : tensor<16x4xi32> loc(#loc55)
    %69 = arith.addi %68, %22 : tensor<16x4xi32> loc(#loc56)
    %70 = tt.addptr %24, %69 : tensor<16x4x!tt.ptr<f32>>, tensor<16x4xi32> loc(#loc57)
    %71 = tt.load %70, %28 evictionPolicy = evict_last : tensor<16x4x!tt.ptr<f32>> loc(#loc58)
    %72 = arith.addi %15, %cst_6 : tensor<16x1xi32> loc(#loc59)
    %73 = tt.broadcast %72 : tensor<16x1xi32> -> tensor<16x4xi32> loc(#loc60)
    %74 = arith.addi %73, %18 : tensor<16x4xi32> loc(#loc60)
    %75 = arith.addi %74, %22 : tensor<16x4xi32> loc(#loc61)
    %76 = tt.addptr %24, %75 : tensor<16x4x!tt.ptr<f32>>, tensor<16x4xi32> loc(#loc62)
    %77 = tt.load %76, %28 evictionPolicy = evict_last : tensor<16x4x!tt.ptr<f32>> loc(#loc63)
    %78 = arith.addi %15, %cst_5 : tensor<16x1xi32> loc(#loc64)
    %79 = tt.broadcast %78 : tensor<16x1xi32> -> tensor<16x4xi32> loc(#loc65)
    %80 = arith.addi %79, %18 : tensor<16x4xi32> loc(#loc65)
    %81 = arith.addi %80, %22 : tensor<16x4xi32> loc(#loc66)
    %82 = tt.addptr %24, %81 : tensor<16x4x!tt.ptr<f32>>, tensor<16x4xi32> loc(#loc67)
    %83 = tt.load %82, %28 evictionPolicy = evict_last : tensor<16x4x!tt.ptr<f32>> loc(#loc68)
    %84 = arith.addi %15, %cst_4 : tensor<16x1xi32> loc(#loc69)
    %85 = tt.broadcast %84 : tensor<16x1xi32> -> tensor<16x4xi32> loc(#loc70)
    %86 = arith.addi %85, %18 : tensor<16x4xi32> loc(#loc70)
    %87 = arith.addi %86, %22 : tensor<16x4xi32> loc(#loc71)
    %88 = tt.addptr %24, %87 : tensor<16x4x!tt.ptr<f32>>, tensor<16x4xi32> loc(#loc72)
    %89 = tt.load %88, %28 evictionPolicy = evict_last : tensor<16x4x!tt.ptr<f32>> loc(#loc73)
    %90 = arith.addi %15, %cst_3 : tensor<16x1xi32> loc(#loc74)
    %91 = tt.broadcast %90 : tensor<16x1xi32> -> tensor<16x4xi32> loc(#loc75)
    %92 = arith.addi %91, %18 : tensor<16x4xi32> loc(#loc75)
    %93 = arith.addi %92, %22 : tensor<16x4xi32> loc(#loc76)
    %94 = tt.addptr %24, %93 : tensor<16x4x!tt.ptr<f32>>, tensor<16x4xi32> loc(#loc77)
    %95 = tt.load %94, %28 evictionPolicy = evict_last : tensor<16x4x!tt.ptr<f32>> loc(#loc78)
    %96 = arith.addi %15, %cst_2 : tensor<16x1xi32> loc(#loc79)
    %97 = tt.broadcast %96 : tensor<16x1xi32> -> tensor<16x4xi32> loc(#loc80)
    %98 = arith.addi %97, %18 : tensor<16x4xi32> loc(#loc80)
    %99 = arith.addi %98, %22 : tensor<16x4xi32> loc(#loc81)
    %100 = tt.addptr %24, %99 : tensor<16x4x!tt.ptr<f32>>, tensor<16x4xi32> loc(#loc82)
    %101 = tt.load %100, %28 evictionPolicy = evict_last : tensor<16x4x!tt.ptr<f32>> loc(#loc83)
    %102 = arith.addi %15, %cst_1 : tensor<16x1xi32> loc(#loc84)
    %103 = tt.broadcast %102 : tensor<16x1xi32> -> tensor<16x4xi32> loc(#loc85)
    %104 = arith.addi %103, %18 : tensor<16x4xi32> loc(#loc85)
    %105 = arith.addi %104, %22 : tensor<16x4xi32> loc(#loc86)
    %106 = tt.addptr %24, %105 : tensor<16x4x!tt.ptr<f32>>, tensor<16x4xi32> loc(#loc87)
    %107 = tt.load %106, %28 evictionPolicy = evict_last : tensor<16x4x!tt.ptr<f32>> loc(#loc88)
    %108 = arith.addi %15, %cst_0 : tensor<16x1xi32> loc(#loc89)
    %109 = tt.broadcast %108 : tensor<16x1xi32> -> tensor<16x4xi32> loc(#loc90)
    %110 = arith.addi %109, %18 : tensor<16x4xi32> loc(#loc90)
    %111 = arith.addi %110, %22 : tensor<16x4xi32> loc(#loc91)
    %112 = tt.addptr %24, %111 : tensor<16x4x!tt.ptr<f32>>, tensor<16x4xi32> loc(#loc92)
    %113 = tt.load %112, %28 evictionPolicy = evict_last : tensor<16x4x!tt.ptr<f32>> loc(#loc93)
    %114 = arith.addi %15, %cst : tensor<16x1xi32> loc(#loc94)
    %115 = tt.broadcast %114 : tensor<16x1xi32> -> tensor<16x4xi32> loc(#loc95)
    %116 = arith.addi %115, %18 : tensor<16x4xi32> loc(#loc95)
    %117 = arith.addi %116, %22 : tensor<16x4xi32> loc(#loc96)
    %118 = tt.addptr %24, %117 : tensor<16x4x!tt.ptr<f32>>, tensor<16x4xi32> loc(#loc97)
    %119 = tt.load %118, %28 evictionPolicy = evict_last : tensor<16x4x!tt.ptr<f32>> loc(#loc98)
    %120 = arith.cmpf ogt, %35, %29 : tensor<16x4xf32> loc(#loc123)
    %121 = arith.cmpf une, %35, %35 : tensor<16x4xf32> loc(#loc124)
    %122 = arith.ori %120, %121 : tensor<16x4xi1> loc(#loc125)
    %123 = arith.select %122, %35, %29 : tensor<16x4xi1>, tensor<16x4xf32> loc(#loc126)
    %124 = arith.cmpf ogt, %41, %123 : tensor<16x4xf32> loc(#loc127)
    %125 = arith.cmpf une, %41, %41 : tensor<16x4xf32> loc(#loc128)
    %126 = arith.ori %124, %125 : tensor<16x4xi1> loc(#loc129)
    %127 = arith.select %126, %41, %123 : tensor<16x4xi1>, tensor<16x4xf32> loc(#loc130)
    %128 = arith.cmpf ogt, %47, %127 : tensor<16x4xf32> loc(#loc131)
    %129 = arith.cmpf une, %47, %47 : tensor<16x4xf32> loc(#loc132)
    %130 = arith.ori %128, %129 : tensor<16x4xi1> loc(#loc133)
    %131 = arith.select %130, %47, %127 : tensor<16x4xi1>, tensor<16x4xf32> loc(#loc134)
    %132 = arith.cmpf ogt, %53, %131 : tensor<16x4xf32> loc(#loc135)
    %133 = arith.cmpf une, %53, %53 : tensor<16x4xf32> loc(#loc136)
    %134 = arith.ori %132, %133 : tensor<16x4xi1> loc(#loc137)
    %135 = arith.select %134, %53, %131 : tensor<16x4xi1>, tensor<16x4xf32> loc(#loc138)
    %136 = arith.cmpf ogt, %59, %135 : tensor<16x4xf32> loc(#loc139)
    %137 = arith.cmpf une, %59, %59 : tensor<16x4xf32> loc(#loc140)
    %138 = arith.ori %136, %137 : tensor<16x4xi1> loc(#loc141)
    %139 = arith.select %138, %59, %135 : tensor<16x4xi1>, tensor<16x4xf32> loc(#loc142)
    %140 = arith.cmpf ogt, %65, %139 : tensor<16x4xf32> loc(#loc143)
    %141 = arith.cmpf une, %65, %65 : tensor<16x4xf32> loc(#loc144)
    %142 = arith.ori %140, %141 : tensor<16x4xi1> loc(#loc145)
    %143 = arith.select %142, %65, %139 : tensor<16x4xi1>, tensor<16x4xf32> loc(#loc146)
    %144 = arith.cmpf ogt, %71, %143 : tensor<16x4xf32> loc(#loc147)
    %145 = arith.cmpf une, %71, %71 : tensor<16x4xf32> loc(#loc148)
    %146 = arith.ori %144, %145 : tensor<16x4xi1> loc(#loc149)
    %147 = arith.select %146, %71, %143 : tensor<16x4xi1>, tensor<16x4xf32> loc(#loc150)
    %148 = arith.cmpf ogt, %77, %147 : tensor<16x4xf32> loc(#loc151)
    %149 = arith.cmpf une, %77, %77 : tensor<16x4xf32> loc(#loc152)
    %150 = arith.ori %148, %149 : tensor<16x4xi1> loc(#loc153)
    %151 = arith.select %150, %77, %147 : tensor<16x4xi1>, tensor<16x4xf32> loc(#loc154)
    %152 = arith.cmpf ogt, %83, %151 : tensor<16x4xf32> loc(#loc155)
    %153 = arith.cmpf une, %83, %83 : tensor<16x4xf32> loc(#loc156)
    %154 = arith.ori %152, %153 : tensor<16x4xi1> loc(#loc157)
    %155 = arith.select %154, %83, %151 : tensor<16x4xi1>, tensor<16x4xf32> loc(#loc158)
    %156 = arith.cmpf ogt, %89, %155 : tensor<16x4xf32> loc(#loc159)
    %157 = arith.cmpf une, %89, %89 : tensor<16x4xf32> loc(#loc160)
    %158 = arith.ori %156, %157 : tensor<16x4xi1> loc(#loc161)
    %159 = arith.select %158, %89, %155 : tensor<16x4xi1>, tensor<16x4xf32> loc(#loc162)
    %160 = arith.cmpf ogt, %95, %159 : tensor<16x4xf32> loc(#loc163)
    %161 = arith.cmpf une, %95, %95 : tensor<16x4xf32> loc(#loc164)
    %162 = arith.ori %160, %161 : tensor<16x4xi1> loc(#loc165)
    %163 = arith.select %162, %95, %159 : tensor<16x4xi1>, tensor<16x4xf32> loc(#loc166)
    %164 = arith.cmpf ogt, %101, %163 : tensor<16x4xf32> loc(#loc167)
    %165 = arith.cmpf une, %101, %101 : tensor<16x4xf32> loc(#loc168)
    %166 = arith.ori %164, %165 : tensor<16x4xi1> loc(#loc169)
    %167 = arith.select %166, %101, %163 : tensor<16x4xi1>, tensor<16x4xf32> loc(#loc170)
    %168 = arith.cmpf ogt, %107, %167 : tensor<16x4xf32> loc(#loc171)
    %169 = arith.cmpf une, %107, %107 : tensor<16x4xf32> loc(#loc172)
    %170 = arith.ori %168, %169 : tensor<16x4xi1> loc(#loc173)
    %171 = arith.select %170, %107, %167 : tensor<16x4xi1>, tensor<16x4xf32> loc(#loc174)
    %172 = arith.cmpf ogt, %113, %171 : tensor<16x4xf32> loc(#loc175)
    %173 = arith.cmpf une, %113, %113 : tensor<16x4xf32> loc(#loc176)
    %174 = arith.ori %172, %173 : tensor<16x4xi1> loc(#loc177)
    %175 = arith.select %174, %113, %171 : tensor<16x4xi1>, tensor<16x4xf32> loc(#loc178)
    %176 = arith.cmpf ogt, %119, %175 : tensor<16x4xf32> loc(#loc179)
    %177 = arith.cmpf une, %119, %119 : tensor<16x4xf32> loc(#loc180)
    %178 = arith.ori %176, %177 : tensor<16x4xi1> loc(#loc181)
    %179 = arith.select %178, %119, %175 : tensor<16x4xi1>, tensor<16x4xf32> loc(#loc182)
    %180 = arith.muli %12, %cst_15 : tensor<16x1xi32> loc(#loc118)
    %181 = tt.broadcast %5 : tensor<1x4xi32> -> tensor<16x4xi32> loc(#loc119)
    %182 = tt.broadcast %180 : tensor<16x1xi32> -> tensor<16x4xi32> loc(#loc119)
    %183 = arith.addi %181, %182 : tensor<16x4xi32> loc(#loc119)
    %184 = tt.splat %arg1 : !tt.ptr<f32> -> tensor<16x4x!tt.ptr<f32>> loc(#loc120)
    %185 = tt.addptr %184, %183 : tensor<16x4x!tt.ptr<f32>>, tensor<16x4xi32> loc(#loc120)
    tt.store %185, %179, %28 : tensor<16x4x!tt.ptr<f32>> loc(#loc121)
    tt.return loc(#loc122)
  } loc(#loc)
} loc(#loc)
#loc1 = loc(unknown)
#loc2 = loc("inductor_cache/gs/cgsdzpi23tsunvud4h6xsoxsrt3alqiy6codmmk5fnhkls7x47ca.py":22:28)
#loc3 = loc("inductor_cache/gs/cgsdzpi23tsunvud4h6xsoxsrt3alqiy6codmmk5fnhkls7x47ca.py":22:33)
#loc4 = loc("inductor_cache/gs/cgsdzpi23tsunvud4h6xsoxsrt3alqiy6codmmk5fnhkls7x47ca.py":23:36)
#loc5 = loc("inductor_cache/gs/cgsdzpi23tsunvud4h6xsoxsrt3alqiy6codmmk5fnhkls7x47ca.py":23:44)
#loc6 = loc("inductor_cache/gs/cgsdzpi23tsunvud4h6xsoxsrt3alqiy6codmmk5fnhkls7x47ca.py":23:23)
#loc7 = loc("inductor_cache/gs/cgsdzpi23tsunvud4h6xsoxsrt3alqiy6codmmk5fnhkls7x47ca.py":24:21)
#loc8 = loc("inductor_cache/gs/cgsdzpi23tsunvud4h6xsoxsrt3alqiy6codmmk5fnhkls7x47ca.py":25:28)
#loc9 = loc("inductor_cache/gs/cgsdzpi23tsunvud4h6xsoxsrt3alqiy6codmmk5fnhkls7x47ca.py":25:33)
#loc10 = loc("inductor_cache/gs/cgsdzpi23tsunvud4h6xsoxsrt3alqiy6codmmk5fnhkls7x47ca.py":26:36)
#loc11 = loc("inductor_cache/gs/cgsdzpi23tsunvud4h6xsoxsrt3alqiy6codmmk5fnhkls7x47ca.py":26:44)
#loc12 = loc("inductor_cache/gs/cgsdzpi23tsunvud4h6xsoxsrt3alqiy6codmmk5fnhkls7x47ca.py":26:23)
#loc13 = loc("inductor_cache/gs/cgsdzpi23tsunvud4h6xsoxsrt3alqiy6codmmk5fnhkls7x47ca.py":27:21)
#loc14 = loc("inductor_cache/gs/cgsdzpi23tsunvud4h6xsoxsrt3alqiy6codmmk5fnhkls7x47ca.py":30:40)
#loc15 = loc("inductor_cache/gs/cgsdzpi23tsunvud4h6xsoxsrt3alqiy6codmmk5fnhkls7x47ca.py":30:35)
#loc16 = loc("inductor_cache/gs/cgsdzpi23tsunvud4h6xsoxsrt3alqiy6codmmk5fnhkls7x47ca.py":30:49)
#loc17 = loc("inductor_cache/gs/cgsdzpi23tsunvud4h6xsoxsrt3alqiy6codmmk5fnhkls7x47ca.py":30:46)
#loc18 = loc("inductor_cache/gs/cgsdzpi23tsunvud4h6xsoxsrt3alqiy6codmmk5fnhkls7x47ca.py":30:65)
#loc19 = loc("inductor_cache/gs/cgsdzpi23tsunvud4h6xsoxsrt3alqiy6codmmk5fnhkls7x47ca.py":30:59)
#loc20 = loc("inductor_cache/gs/cgsdzpi23tsunvud4h6xsoxsrt3alqiy6codmmk5fnhkls7x47ca.py":30:54)
#loc21 = loc("inductor_cache/gs/cgsdzpi23tsunvud4h6xsoxsrt3alqiy6codmmk5fnhkls7x47ca.py":30:30)
#loc22 = loc("inductor_cache/gs/cgsdzpi23tsunvud4h6xsoxsrt3alqiy6codmmk5fnhkls7x47ca.py":30:78)
#loc23 = loc("inductor_cache/gs/cgsdzpi23tsunvud4h6xsoxsrt3alqiy6codmmk5fnhkls7x47ca.py":30:70)
#loc24 = loc("inductor_cache/gs/cgsdzpi23tsunvud4h6xsoxsrt3alqiy6codmmk5fnhkls7x47ca.py":31:34)
#loc25 = loc("inductor_cache/gs/cgsdzpi23tsunvud4h6xsoxsrt3alqiy6codmmk5fnhkls7x47ca.py":31:50)
#loc26 = loc("inductor_cache/gs/cgsdzpi23tsunvud4h6xsoxsrt3alqiy6codmmk5fnhkls7x47ca.py":31:58)
#loc27 = loc("inductor_cache/gs/cgsdzpi23tsunvud4h6xsoxsrt3alqiy6codmmk5fnhkls7x47ca.py":31:30)
#loc28 = loc("inductor_cache/gs/cgsdzpi23tsunvud4h6xsoxsrt3alqiy6codmmk5fnhkls7x47ca.py":31:74)
#loc29 = loc("inductor_cache/gs/cgsdzpi23tsunvud4h6xsoxsrt3alqiy6codmmk5fnhkls7x47ca.py":32:34)
#loc30 = loc("inductor_cache/gs/cgsdzpi23tsunvud4h6xsoxsrt3alqiy6codmmk5fnhkls7x47ca.py":32:50)
#loc31 = loc("inductor_cache/gs/cgsdzpi23tsunvud4h6xsoxsrt3alqiy6codmmk5fnhkls7x47ca.py":32:58)
#loc32 = loc("inductor_cache/gs/cgsdzpi23tsunvud4h6xsoxsrt3alqiy6codmmk5fnhkls7x47ca.py":32:30)
#loc33 = loc("inductor_cache/gs/cgsdzpi23tsunvud4h6xsoxsrt3alqiy6codmmk5fnhkls7x47ca.py":32:74)
#loc34 = loc("inductor_cache/gs/cgsdzpi23tsunvud4h6xsoxsrt3alqiy6codmmk5fnhkls7x47ca.py":33:34)
#loc35 = loc("inductor_cache/gs/cgsdzpi23tsunvud4h6xsoxsrt3alqiy6codmmk5fnhkls7x47ca.py":33:50)
#loc36 = loc("inductor_cache/gs/cgsdzpi23tsunvud4h6xsoxsrt3alqiy6codmmk5fnhkls7x47ca.py":33:58)
#loc37 = loc("inductor_cache/gs/cgsdzpi23tsunvud4h6xsoxsrt3alqiy6codmmk5fnhkls7x47ca.py":33:30)
#loc38 = loc("inductor_cache/gs/cgsdzpi23tsunvud4h6xsoxsrt3alqiy6codmmk5fnhkls7x47ca.py":33:74)
#loc39 = loc("inductor_cache/gs/cgsdzpi23tsunvud4h6xsoxsrt3alqiy6codmmk5fnhkls7x47ca.py":34:34)
#loc40 = loc("inductor_cache/gs/cgsdzpi23tsunvud4h6xsoxsrt3alqiy6codmmk5fnhkls7x47ca.py":34:50)
#loc41 = loc("inductor_cache/gs/cgsdzpi23tsunvud4h6xsoxsrt3alqiy6codmmk5fnhkls7x47ca.py":34:58)
#loc42 = loc("inductor_cache/gs/cgsdzpi23tsunvud4h6xsoxsrt3alqiy6codmmk5fnhkls7x47ca.py":34:30)
#loc43 = loc("inductor_cache/gs/cgsdzpi23tsunvud4h6xsoxsrt3alqiy6codmmk5fnhkls7x47ca.py":34:74)
#loc44 = loc("inductor_cache/gs/cgsdzpi23tsunvud4h6xsoxsrt3alqiy6codmmk5fnhkls7x47ca.py":35:34)
#loc45 = loc("inductor_cache/gs/cgsdzpi23tsunvud4h6xsoxsrt3alqiy6codmmk5fnhkls7x47ca.py":35:50)
#loc46 = loc("inductor_cache/gs/cgsdzpi23tsunvud4h6xsoxsrt3alqiy6codmmk5fnhkls7x47ca.py":35:58)
#loc47 = loc("inductor_cache/gs/cgsdzpi23tsunvud4h6xsoxsrt3alqiy6codmmk5fnhkls7x47ca.py":35:30)
#loc48 = loc("inductor_cache/gs/cgsdzpi23tsunvud4h6xsoxsrt3alqiy6codmmk5fnhkls7x47ca.py":35:74)
#loc49 = loc("inductor_cache/gs/cgsdzpi23tsunvud4h6xsoxsrt3alqiy6codmmk5fnhkls7x47ca.py":36:35)
#loc50 = loc("inductor_cache/gs/cgsdzpi23tsunvud4h6xsoxsrt3alqiy6codmmk5fnhkls7x47ca.py":36:51)
#loc51 = loc("inductor_cache/gs/cgsdzpi23tsunvud4h6xsoxsrt3alqiy6codmmk5fnhkls7x47ca.py":36:59)
#loc52 = loc("inductor_cache/gs/cgsdzpi23tsunvud4h6xsoxsrt3alqiy6codmmk5fnhkls7x47ca.py":36:31)
#loc53 = loc("inductor_cache/gs/cgsdzpi23tsunvud4h6xsoxsrt3alqiy6codmmk5fnhkls7x47ca.py":36:75)
#loc54 = loc("inductor_cache/gs/cgsdzpi23tsunvud4h6xsoxsrt3alqiy6codmmk5fnhkls7x47ca.py":37:35)
#loc55 = loc("inductor_cache/gs/cgsdzpi23tsunvud4h6xsoxsrt3alqiy6codmmk5fnhkls7x47ca.py":37:51)
#loc56 = loc("inductor_cache/gs/cgsdzpi23tsunvud4h6xsoxsrt3alqiy6codmmk5fnhkls7x47ca.py":37:59)
#loc57 = loc("inductor_cache/gs/cgsdzpi23tsunvud4h6xsoxsrt3alqiy6codmmk5fnhkls7x47ca.py":37:31)
#loc58 = loc("inductor_cache/gs/cgsdzpi23tsunvud4h6xsoxsrt3alqiy6codmmk5fnhkls7x47ca.py":37:75)
#loc59 = loc("inductor_cache/gs/cgsdzpi23tsunvud4h6xsoxsrt3alqiy6codmmk5fnhkls7x47ca.py":38:35)
#loc60 = loc("inductor_cache/gs/cgsdzpi23tsunvud4h6xsoxsrt3alqiy6codmmk5fnhkls7x47ca.py":38:51)
#loc61 = loc("inductor_cache/gs/cgsdzpi23tsunvud4h6xsoxsrt3alqiy6codmmk5fnhkls7x47ca.py":38:59)
#loc62 = loc("inductor_cache/gs/cgsdzpi23tsunvud4h6xsoxsrt3alqiy6codmmk5fnhkls7x47ca.py":38:31)
#loc63 = loc("inductor_cache/gs/cgsdzpi23tsunvud4h6xsoxsrt3alqiy6codmmk5fnhkls7x47ca.py":38:75)
#loc64 = loc("inductor_cache/gs/cgsdzpi23tsunvud4h6xsoxsrt3alqiy6codmmk5fnhkls7x47ca.py":39:35)
#loc65 = loc("inductor_cache/gs/cgsdzpi23tsunvud4h6xsoxsrt3alqiy6codmmk5fnhkls7x47ca.py":39:51)
#loc66 = loc("inductor_cache/gs/cgsdzpi23tsunvud4h6xsoxsrt3alqiy6codmmk5fnhkls7x47ca.py":39:59)
#loc67 = loc("inductor_cache/gs/cgsdzpi23tsunvud4h6xsoxsrt3alqiy6codmmk5fnhkls7x47ca.py":39:31)
#loc68 = loc("inductor_cache/gs/cgsdzpi23tsunvud4h6xsoxsrt3alqiy6codmmk5fnhkls7x47ca.py":39:75)
#loc69 = loc("inductor_cache/gs/cgsdzpi23tsunvud4h6xsoxsrt3alqiy6codmmk5fnhkls7x47ca.py":40:36)
#loc70 = loc("inductor_cache/gs/cgsdzpi23tsunvud4h6xsoxsrt3alqiy6codmmk5fnhkls7x47ca.py":40:52)
#loc71 = loc("inductor_cache/gs/cgsdzpi23tsunvud4h6xsoxsrt3alqiy6codmmk5fnhkls7x47ca.py":40:60)
#loc72 = loc("inductor_cache/gs/cgsdzpi23tsunvud4h6xsoxsrt3alqiy6codmmk5fnhkls7x47ca.py":40:31)
#loc73 = loc("inductor_cache/gs/cgsdzpi23tsunvud4h6xsoxsrt3alqiy6codmmk5fnhkls7x47ca.py":40:76)
#loc74 = loc("inductor_cache/gs/cgsdzpi23tsunvud4h6xsoxsrt3alqiy6codmmk5fnhkls7x47ca.py":41:36)
#loc75 = loc("inductor_cache/gs/cgsdzpi23tsunvud4h6xsoxsrt3alqiy6codmmk5fnhkls7x47ca.py":41:52)
#loc76 = loc("inductor_cache/gs/cgsdzpi23tsunvud4h6xsoxsrt3alqiy6codmmk5fnhkls7x47ca.py":41:60)
#loc77 = loc("inductor_cache/gs/cgsdzpi23tsunvud4h6xsoxsrt3alqiy6codmmk5fnhkls7x47ca.py":41:31)
#loc78 = loc("inductor_cache/gs/cgsdzpi23tsunvud4h6xsoxsrt3alqiy6codmmk5fnhkls7x47ca.py":41:76)
#loc79 = loc("inductor_cache/gs/cgsdzpi23tsunvud4h6xsoxsrt3alqiy6codmmk5fnhkls7x47ca.py":42:36)
#loc80 = loc("inductor_cache/gs/cgsdzpi23tsunvud4h6xsoxsrt3alqiy6codmmk5fnhkls7x47ca.py":42:52)
#loc81 = loc("inductor_cache/gs/cgsdzpi23tsunvud4h6xsoxsrt3alqiy6codmmk5fnhkls7x47ca.py":42:60)
#loc82 = loc("inductor_cache/gs/cgsdzpi23tsunvud4h6xsoxsrt3alqiy6codmmk5fnhkls7x47ca.py":42:31)
#loc83 = loc("inductor_cache/gs/cgsdzpi23tsunvud4h6xsoxsrt3alqiy6codmmk5fnhkls7x47ca.py":42:76)
#loc84 = loc("inductor_cache/gs/cgsdzpi23tsunvud4h6xsoxsrt3alqiy6codmmk5fnhkls7x47ca.py":43:36)
#loc85 = loc("inductor_cache/gs/cgsdzpi23tsunvud4h6xsoxsrt3alqiy6codmmk5fnhkls7x47ca.py":43:52)
#loc86 = loc("inductor_cache/gs/cgsdzpi23tsunvud4h6xsoxsrt3alqiy6codmmk5fnhkls7x47ca.py":43:60)
#loc87 = loc("inductor_cache/gs/cgsdzpi23tsunvud4h6xsoxsrt3alqiy6codmmk5fnhkls7x47ca.py":43:31)
#loc88 = loc("inductor_cache/gs/cgsdzpi23tsunvud4h6xsoxsrt3alqiy6codmmk5fnhkls7x47ca.py":43:76)
#loc89 = loc("inductor_cache/gs/cgsdzpi23tsunvud4h6xsoxsrt3alqiy6codmmk5fnhkls7x47ca.py":44:36)
#loc90 = loc("inductor_cache/gs/cgsdzpi23tsunvud4h6xsoxsrt3alqiy6codmmk5fnhkls7x47ca.py":44:52)
#loc91 = loc("inductor_cache/gs/cgsdzpi23tsunvud4h6xsoxsrt3alqiy6codmmk5fnhkls7x47ca.py":44:60)
#loc92 = loc("inductor_cache/gs/cgsdzpi23tsunvud4h6xsoxsrt3alqiy6codmmk5fnhkls7x47ca.py":44:31)
#loc93 = loc("inductor_cache/gs/cgsdzpi23tsunvud4h6xsoxsrt3alqiy6codmmk5fnhkls7x47ca.py":44:76)
#loc94 = loc("inductor_cache/gs/cgsdzpi23tsunvud4h6xsoxsrt3alqiy6codmmk5fnhkls7x47ca.py":45:36)
#loc95 = loc("inductor_cache/gs/cgsdzpi23tsunvud4h6xsoxsrt3alqiy6codmmk5fnhkls7x47ca.py":45:52)
#loc96 = loc("inductor_cache/gs/cgsdzpi23tsunvud4h6xsoxsrt3alqiy6codmmk5fnhkls7x47ca.py":45:60)
#loc97 = loc("inductor_cache/gs/cgsdzpi23tsunvud4h6xsoxsrt3alqiy6codmmk5fnhkls7x47ca.py":45:31)
#loc98 = loc("inductor_cache/gs/cgsdzpi23tsunvud4h6xsoxsrt3alqiy6codmmk5fnhkls7x47ca.py":45:76)
#loc99 = loc("/home/sahanp/.conda/envs/parity-bench/lib/python3.12/site-packages/torch/_inductor/runtime/triton_helpers.py":118:15)
#loc100 = loc("inductor_cache/gs/cgsdzpi23tsunvud4h6xsoxsrt3alqiy6codmmk5fnhkls7x47ca.py":46:40)
#loc101 = loc("/home/sahanp/.conda/envs/parity-bench/lib/python3.12/site-packages/torch/_inductor/runtime/triton_helpers.py":120:21)
#loc102 = loc("/home/sahanp/.conda/envs/parity-bench/lib/python3.12/site-packages/torch/_inductor/runtime/triton_helpers.py":120:16)
#loc103 = loc("/home/sahanp/.conda/envs/parity-bench/lib/python3.12/site-packages/torch/_inductor/runtime/triton_helpers.py":121:29)
#loc104 = loc("inductor_cache/gs/cgsdzpi23tsunvud4h6xsoxsrt3alqiy6codmmk5fnhkls7x47ca.py":47:40)
#loc105 = loc("inductor_cache/gs/cgsdzpi23tsunvud4h6xsoxsrt3alqiy6codmmk5fnhkls7x47ca.py":48:40)
#loc106 = loc("inductor_cache/gs/cgsdzpi23tsunvud4h6xsoxsrt3alqiy6codmmk5fnhkls7x47ca.py":49:40)
#loc107 = loc("inductor_cache/gs/cgsdzpi23tsunvud4h6xsoxsrt3alqiy6codmmk5fnhkls7x47ca.py":50:41)
#loc108 = loc("inductor_cache/gs/cgsdzpi23tsunvud4h6xsoxsrt3alqiy6codmmk5fnhkls7x47ca.py":51:42)
#loc109 = loc("inductor_cache/gs/cgsdzpi23tsunvud4h6xsoxsrt3alqiy6codmmk5fnhkls7x47ca.py":52:42)
#loc110 = loc("inductor_cache/gs/cgsdzpi23tsunvud4h6xsoxsrt3alqiy6codmmk5fnhkls7x47ca.py":53:42)
#loc111 = loc("inductor_cache/gs/cgsdzpi23tsunvud4h6xsoxsrt3alqiy6codmmk5fnhkls7x47ca.py":54:42)
#loc112 = loc("inductor_cache/gs/cgsdzpi23tsunvud4h6xsoxsrt3alqiy6codmmk5fnhkls7x47ca.py":55:42)
#loc113 = loc("inductor_cache/gs/cgsdzpi23tsunvud4h6xsoxsrt3alqiy6codmmk5fnhkls7x47ca.py":56:42)
#loc114 = loc("inductor_cache/gs/cgsdzpi23tsunvud4h6xsoxsrt3alqiy6codmmk5fnhkls7x47ca.py":57:42)
#loc115 = loc("inductor_cache/gs/cgsdzpi23tsunvud4h6xsoxsrt3alqiy6codmmk5fnhkls7x47ca.py":58:42)
#loc116 = loc("inductor_cache/gs/cgsdzpi23tsunvud4h6xsoxsrt3alqiy6codmmk5fnhkls7x47ca.py":59:42)
#loc117 = loc("inductor_cache/gs/cgsdzpi23tsunvud4h6xsoxsrt3alqiy6codmmk5fnhkls7x47ca.py":60:42)
#loc118 = loc("inductor_cache/gs/cgsdzpi23tsunvud4h6xsoxsrt3alqiy6codmmk5fnhkls7x47ca.py":61:32)
#loc119 = loc("inductor_cache/gs/cgsdzpi23tsunvud4h6xsoxsrt3alqiy6codmmk5fnhkls7x47ca.py":61:30)
#loc120 = loc("inductor_cache/gs/cgsdzpi23tsunvud4h6xsoxsrt3alqiy6codmmk5fnhkls7x47ca.py":61:25)
#loc121 = loc("inductor_cache/gs/cgsdzpi23tsunvud4h6xsoxsrt3alqiy6codmmk5fnhkls7x47ca.py":61:44)
#loc122 = loc("inductor_cache/gs/cgsdzpi23tsunvud4h6xsoxsrt3alqiy6codmmk5fnhkls7x47ca.py":61:4)
#loc123 = loc(callsite(#loc99 at #loc100))
#loc124 = loc(callsite(#loc101 at #loc100))
#loc125 = loc(callsite(#loc102 at #loc100))
#loc126 = loc(callsite(#loc103 at #loc100))
#loc127 = loc(callsite(#loc99 at #loc104))
#loc128 = loc(callsite(#loc101 at #loc104))
#loc129 = loc(callsite(#loc102 at #loc104))
#loc130 = loc(callsite(#loc103 at #loc104))
#loc131 = loc(callsite(#loc99 at #loc105))
#loc132 = loc(callsite(#loc101 at #loc105))
#loc133 = loc(callsite(#loc102 at #loc105))
#loc134 = loc(callsite(#loc103 at #loc105))
#loc135 = loc(callsite(#loc99 at #loc106))
#loc136 = loc(callsite(#loc101 at #loc106))
#loc137 = loc(callsite(#loc102 at #loc106))
#loc138 = loc(callsite(#loc103 at #loc106))
#loc139 = loc(callsite(#loc99 at #loc107))
#loc140 = loc(callsite(#loc101 at #loc107))
#loc141 = loc(callsite(#loc102 at #loc107))
#loc142 = loc(callsite(#loc103 at #loc107))
#loc143 = loc(callsite(#loc99 at #loc108))
#loc144 = loc(callsite(#loc101 at #loc108))
#loc145 = loc(callsite(#loc102 at #loc108))
#loc146 = loc(callsite(#loc103 at #loc108))
#loc147 = loc(callsite(#loc99 at #loc109))
#loc148 = loc(callsite(#loc101 at #loc109))
#loc149 = loc(callsite(#loc102 at #loc109))
#loc150 = loc(callsite(#loc103 at #loc109))
#loc151 = loc(callsite(#loc99 at #loc110))
#loc152 = loc(callsite(#loc101 at #loc110))
#loc153 = loc(callsite(#loc102 at #loc110))
#loc154 = loc(callsite(#loc103 at #loc110))
#loc155 = loc(callsite(#loc99 at #loc111))
#loc156 = loc(callsite(#loc101 at #loc111))
#loc157 = loc(callsite(#loc102 at #loc111))
#loc158 = loc(callsite(#loc103 at #loc111))
#loc159 = loc(callsite(#loc99 at #loc112))
#loc160 = loc(callsite(#loc101 at #loc112))
#loc161 = loc(callsite(#loc102 at #loc112))
#loc162 = loc(callsite(#loc103 at #loc112))
#loc163 = loc(callsite(#loc99 at #loc113))
#loc164 = loc(callsite(#loc101 at #loc113))
#loc165 = loc(callsite(#loc102 at #loc113))
#loc166 = loc(callsite(#loc103 at #loc113))
#loc167 = loc(callsite(#loc99 at #loc114))
#loc168 = loc(callsite(#loc101 at #loc114))
#loc169 = loc(callsite(#loc102 at #loc114))
#loc170 = loc(callsite(#loc103 at #loc114))
#loc171 = loc(callsite(#loc99 at #loc115))
#loc172 = loc(callsite(#loc101 at #loc115))
#loc173 = loc(callsite(#loc102 at #loc115))
#loc174 = loc(callsite(#loc103 at #loc115))
#loc175 = loc(callsite(#loc99 at #loc116))
#loc176 = loc(callsite(#loc101 at #loc116))
#loc177 = loc(callsite(#loc102 at #loc116))
#loc178 = loc(callsite(#loc103 at #loc116))
#loc179 = loc(callsite(#loc99 at #loc117))
#loc180 = loc(callsite(#loc101 at #loc117))
#loc181 = loc(callsite(#loc102 at #loc117))
#loc182 = loc(callsite(#loc103 at #loc117))
