#loc = loc("inductor_cache/y5/cy5cvx3ueega6nhry5arrwfular6ediidwkvjrucahflz7bag6se.py":19:0)
#loc1 = loc(unknown)
#loc63 = loc("inductor_cache/y5/cy5cvx3ueega6nhry5arrwfular6ediidwkvjrucahflz7bag6se.py":50:24)
#loc92 = loc(callsite(#loc1 at #loc63))
module {
  tt.func public @triton_per_fused_add_max_mean_0(%arg0: !tt.ptr<f32> {tt.divisibility = 16 : i32} loc("inductor_cache/y5/cy5cvx3ueega6nhry5arrwfular6ediidwkvjrucahflz7bag6se.py":19:0), %arg1: !tt.ptr<f32> {tt.divisibility = 16 : i32} loc("inductor_cache/y5/cy5cvx3ueega6nhry5arrwfular6ediidwkvjrucahflz7bag6se.py":19:0), %arg2: i32 {tt.divisibility = 16 : i32} loc("inductor_cache/y5/cy5cvx3ueega6nhry5arrwfular6ediidwkvjrucahflz7bag6se.py":19:0), %arg3: i32 {tt.divisibility = 16 : i32} loc("inductor_cache/y5/cy5cvx3ueega6nhry5arrwfular6ediidwkvjrucahflz7bag6se.py":19:0)) attributes {noinline = false} {
    %cst = arith.constant dense<1.600000e+01> : tensor<8x1xf32> loc(#loc1)
    %cst_0 = arith.constant dense<15> : tensor<8x1xi32> loc(#loc1)
    %cst_1 = arith.constant dense<14> : tensor<8x1xi32> loc(#loc1)
    %cst_2 = arith.constant dense<13> : tensor<8x1xi32> loc(#loc1)
    %cst_3 = arith.constant dense<12> : tensor<8x1xi32> loc(#loc1)
    %cst_4 = arith.constant dense<11> : tensor<8x1xi32> loc(#loc1)
    %cst_5 = arith.constant dense<10> : tensor<8x1xi32> loc(#loc1)
    %cst_6 = arith.constant dense<9> : tensor<8x1xi32> loc(#loc1)
    %cst_7 = arith.constant dense<8> : tensor<8x1xi32> loc(#loc1)
    %cst_8 = arith.constant dense<7> : tensor<8x1xi32> loc(#loc1)
    %cst_9 = arith.constant dense<6> : tensor<8x1xi32> loc(#loc1)
    %cst_10 = arith.constant dense<5> : tensor<8x1xi32> loc(#loc1)
    %cst_11 = arith.constant dense<4> : tensor<8x1xi32> loc(#loc1)
    %cst_12 = arith.constant dense<3> : tensor<8x1xi32> loc(#loc1)
    %cst_13 = arith.constant dense<2> : tensor<8x1xi32> loc(#loc1)
    %cst_14 = arith.constant dense<1> : tensor<8x1xi32> loc(#loc1)
    %cst_15 = arith.constant dense<0.000000e+00> : tensor<8x16xf32> loc(#loc1)
    %cst_16 = arith.constant dense<16> : tensor<8x1xi32> loc(#loc1)
    %c8_i32 = arith.constant 8 : i32 loc(#loc1)
    %0 = tt.get_program_id x : i32 loc(#loc2)
    %1 = arith.muli %0, %c8_i32 : i32 loc(#loc3)
    %2 = tt.make_range {end = 8 : i32, start = 0 : i32} : tensor<8xi32> loc(#loc4)
    %3 = tt.expand_dims %2 {axis = 1 : i32} : tensor<8xi32> -> tensor<8x1xi32> loc(#loc5)
    %4 = tt.splat %1 : i32 -> tensor<8x1xi32> loc(#loc6)
    %5 = arith.addi %4, %3 : tensor<8x1xi32> loc(#loc6)
    %6 = arith.cmpi slt, %5, %cst_16 : tensor<8x1xi32> loc(#loc7)
    %7 = tt.make_range {end = 16 : i32, start = 0 : i32} : tensor<16xi32> loc(#loc8)
    %8 = tt.expand_dims %7 {axis = 0 : i32} : tensor<16xi32> -> tensor<1x16xi32> loc(#loc9)
    %9 = arith.muli %5, %cst_16 : tensor<8x1xi32> loc(#loc10)
    %10 = tt.broadcast %8 : tensor<1x16xi32> -> tensor<8x16xi32> loc(#loc11)
    %11 = tt.broadcast %9 : tensor<8x1xi32> -> tensor<8x16xi32> loc(#loc11)
    %12 = arith.addi %10, %11 : tensor<8x16xi32> loc(#loc11)
    %13 = tt.splat %arg1 : !tt.ptr<f32> -> tensor<8x16x!tt.ptr<f32>> loc(#loc12)
    %14 = tt.addptr %13, %12 : tensor<8x16x!tt.ptr<f32>>, tensor<8x16xi32> loc(#loc12)
    %15 = tt.broadcast %6 : tensor<8x1xi1> -> tensor<8x16xi1> loc(#loc13)
    %16 = tt.load %14, %15, %cst_15 : tensor<8x16x!tt.ptr<f32>> loc(#loc13)
    %17 = tt.splat %arg1 : !tt.ptr<f32> -> tensor<8x1x!tt.ptr<f32>> loc(#loc14)
    %18 = tt.addptr %17, %9 : tensor<8x1x!tt.ptr<f32>>, tensor<8x1xi32> loc(#loc14)
    %19 = tt.load %18, %6 evictionPolicy = evict_last : tensor<8x1x!tt.ptr<f32>> loc(#loc15)
    %20 = arith.addi %9, %cst_14 : tensor<8x1xi32> loc(#loc16)
    %21 = tt.addptr %17, %20 : tensor<8x1x!tt.ptr<f32>>, tensor<8x1xi32> loc(#loc17)
    %22 = tt.load %21, %6 evictionPolicy = evict_last : tensor<8x1x!tt.ptr<f32>> loc(#loc18)
    %23 = arith.addi %9, %cst_13 : tensor<8x1xi32> loc(#loc19)
    %24 = tt.addptr %17, %23 : tensor<8x1x!tt.ptr<f32>>, tensor<8x1xi32> loc(#loc20)
    %25 = tt.load %24, %6 evictionPolicy = evict_last : tensor<8x1x!tt.ptr<f32>> loc(#loc21)
    %26 = arith.addi %9, %cst_12 : tensor<8x1xi32> loc(#loc22)
    %27 = tt.addptr %17, %26 : tensor<8x1x!tt.ptr<f32>>, tensor<8x1xi32> loc(#loc23)
    %28 = tt.load %27, %6 evictionPolicy = evict_last : tensor<8x1x!tt.ptr<f32>> loc(#loc24)
    %29 = arith.addi %9, %cst_11 : tensor<8x1xi32> loc(#loc25)
    %30 = tt.addptr %17, %29 : tensor<8x1x!tt.ptr<f32>>, tensor<8x1xi32> loc(#loc26)
    %31 = tt.load %30, %6 evictionPolicy = evict_last : tensor<8x1x!tt.ptr<f32>> loc(#loc27)
    %32 = arith.addi %9, %cst_10 : tensor<8x1xi32> loc(#loc28)
    %33 = tt.addptr %17, %32 : tensor<8x1x!tt.ptr<f32>>, tensor<8x1xi32> loc(#loc29)
    %34 = tt.load %33, %6 evictionPolicy = evict_last : tensor<8x1x!tt.ptr<f32>> loc(#loc30)
    %35 = arith.addi %9, %cst_9 : tensor<8x1xi32> loc(#loc31)
    %36 = tt.addptr %17, %35 : tensor<8x1x!tt.ptr<f32>>, tensor<8x1xi32> loc(#loc32)
    %37 = tt.load %36, %6 evictionPolicy = evict_last : tensor<8x1x!tt.ptr<f32>> loc(#loc33)
    %38 = arith.addi %9, %cst_8 : tensor<8x1xi32> loc(#loc34)
    %39 = tt.addptr %17, %38 : tensor<8x1x!tt.ptr<f32>>, tensor<8x1xi32> loc(#loc35)
    %40 = tt.load %39, %6 evictionPolicy = evict_last : tensor<8x1x!tt.ptr<f32>> loc(#loc36)
    %41 = arith.addi %9, %cst_7 : tensor<8x1xi32> loc(#loc37)
    %42 = tt.addptr %17, %41 : tensor<8x1x!tt.ptr<f32>>, tensor<8x1xi32> loc(#loc38)
    %43 = tt.load %42, %6 evictionPolicy = evict_last : tensor<8x1x!tt.ptr<f32>> loc(#loc39)
    %44 = arith.addi %9, %cst_6 : tensor<8x1xi32> loc(#loc40)
    %45 = tt.addptr %17, %44 : tensor<8x1x!tt.ptr<f32>>, tensor<8x1xi32> loc(#loc41)
    %46 = tt.load %45, %6 evictionPolicy = evict_last : tensor<8x1x!tt.ptr<f32>> loc(#loc42)
    %47 = arith.addi %9, %cst_5 : tensor<8x1xi32> loc(#loc43)
    %48 = tt.addptr %17, %47 : tensor<8x1x!tt.ptr<f32>>, tensor<8x1xi32> loc(#loc44)
    %49 = tt.load %48, %6 evictionPolicy = evict_last : tensor<8x1x!tt.ptr<f32>> loc(#loc45)
    %50 = arith.addi %9, %cst_4 : tensor<8x1xi32> loc(#loc46)
    %51 = tt.addptr %17, %50 : tensor<8x1x!tt.ptr<f32>>, tensor<8x1xi32> loc(#loc47)
    %52 = tt.load %51, %6 evictionPolicy = evict_last : tensor<8x1x!tt.ptr<f32>> loc(#loc48)
    %53 = arith.addi %9, %cst_3 : tensor<8x1xi32> loc(#loc49)
    %54 = tt.addptr %17, %53 : tensor<8x1x!tt.ptr<f32>>, tensor<8x1xi32> loc(#loc50)
    %55 = tt.load %54, %6 evictionPolicy = evict_last : tensor<8x1x!tt.ptr<f32>> loc(#loc51)
    %56 = arith.addi %9, %cst_2 : tensor<8x1xi32> loc(#loc52)
    %57 = tt.addptr %17, %56 : tensor<8x1x!tt.ptr<f32>>, tensor<8x1xi32> loc(#loc53)
    %58 = tt.load %57, %6 evictionPolicy = evict_last : tensor<8x1x!tt.ptr<f32>> loc(#loc54)
    %59 = arith.addi %9, %cst_1 : tensor<8x1xi32> loc(#loc55)
    %60 = tt.addptr %17, %59 : tensor<8x1x!tt.ptr<f32>>, tensor<8x1xi32> loc(#loc56)
    %61 = tt.load %60, %6 evictionPolicy = evict_last : tensor<8x1x!tt.ptr<f32>> loc(#loc57)
    %62 = arith.addi %9, %cst_0 : tensor<8x1xi32> loc(#loc58)
    %63 = tt.addptr %17, %62 : tensor<8x1x!tt.ptr<f32>>, tensor<8x1xi32> loc(#loc59)
    %64 = tt.load %63, %6 evictionPolicy = evict_last : tensor<8x1x!tt.ptr<f32>> loc(#loc60)
    %65 = arith.select %15, %16, %cst_15 : tensor<8x16xi1>, tensor<8x16xf32> loc(#loc61)
    %66 = "tt.reduce"(%65) <{axis = 1 : i32}> ({
    ^bb0(%arg4: f32 loc(callsite(#loc1 at #loc63)), %arg5: f32 loc(callsite(#loc1 at #loc63))):
      %132 = arith.addf %arg4, %arg5 : f32 loc(#loc154)
      tt.reduce.return %132 : f32 loc(#loc91)
    }) : (tensor<8x16xf32>) -> tensor<8xf32> loc(#loc91)
    %67 = tt.expand_dims %66 {axis = 1 : i32} : tensor<8xf32> -> tensor<8x1xf32> loc(#loc65)
    %68 = arith.cmpf ogt, %19, %22 : tensor<8x1xf32> loc(#loc94)
    %69 = arith.cmpf une, %19, %19 : tensor<8x1xf32> loc(#loc95)
    %70 = arith.ori %68, %69 : tensor<8x1xi1> loc(#loc96)
    %71 = arith.select %70, %19, %22 : tensor<8x1xi1>, tensor<8x1xf32> loc(#loc97)
    %72 = arith.cmpf ogt, %71, %25 : tensor<8x1xf32> loc(#loc98)
    %73 = arith.cmpf une, %71, %71 : tensor<8x1xf32> loc(#loc99)
    %74 = arith.ori %72, %73 : tensor<8x1xi1> loc(#loc100)
    %75 = arith.select %74, %71, %25 : tensor<8x1xi1>, tensor<8x1xf32> loc(#loc101)
    %76 = arith.cmpf ogt, %75, %28 : tensor<8x1xf32> loc(#loc102)
    %77 = arith.cmpf une, %75, %75 : tensor<8x1xf32> loc(#loc103)
    %78 = arith.ori %76, %77 : tensor<8x1xi1> loc(#loc104)
    %79 = arith.select %78, %75, %28 : tensor<8x1xi1>, tensor<8x1xf32> loc(#loc105)
    %80 = arith.cmpf ogt, %31, %34 : tensor<8x1xf32> loc(#loc106)
    %81 = arith.cmpf une, %31, %31 : tensor<8x1xf32> loc(#loc107)
    %82 = arith.ori %80, %81 : tensor<8x1xi1> loc(#loc108)
    %83 = arith.select %82, %31, %34 : tensor<8x1xi1>, tensor<8x1xf32> loc(#loc109)
    %84 = arith.cmpf ogt, %83, %37 : tensor<8x1xf32> loc(#loc110)
    %85 = arith.cmpf une, %83, %83 : tensor<8x1xf32> loc(#loc111)
    %86 = arith.ori %84, %85 : tensor<8x1xi1> loc(#loc112)
    %87 = arith.select %86, %83, %37 : tensor<8x1xi1>, tensor<8x1xf32> loc(#loc113)
    %88 = arith.cmpf ogt, %87, %40 : tensor<8x1xf32> loc(#loc114)
    %89 = arith.cmpf une, %87, %87 : tensor<8x1xf32> loc(#loc115)
    %90 = arith.ori %88, %89 : tensor<8x1xi1> loc(#loc116)
    %91 = arith.select %90, %87, %40 : tensor<8x1xi1>, tensor<8x1xf32> loc(#loc117)
    %92 = arith.cmpf ogt, %79, %91 : tensor<8x1xf32> loc(#loc118)
    %93 = arith.cmpf une, %79, %79 : tensor<8x1xf32> loc(#loc119)
    %94 = arith.ori %92, %93 : tensor<8x1xi1> loc(#loc120)
    %95 = arith.select %94, %79, %91 : tensor<8x1xi1>, tensor<8x1xf32> loc(#loc121)
    %96 = arith.cmpf ogt, %43, %46 : tensor<8x1xf32> loc(#loc122)
    %97 = arith.cmpf une, %43, %43 : tensor<8x1xf32> loc(#loc123)
    %98 = arith.ori %96, %97 : tensor<8x1xi1> loc(#loc124)
    %99 = arith.select %98, %43, %46 : tensor<8x1xi1>, tensor<8x1xf32> loc(#loc125)
    %100 = arith.cmpf ogt, %99, %49 : tensor<8x1xf32> loc(#loc126)
    %101 = arith.cmpf une, %99, %99 : tensor<8x1xf32> loc(#loc127)
    %102 = arith.ori %100, %101 : tensor<8x1xi1> loc(#loc128)
    %103 = arith.select %102, %99, %49 : tensor<8x1xi1>, tensor<8x1xf32> loc(#loc129)
    %104 = arith.cmpf ogt, %103, %52 : tensor<8x1xf32> loc(#loc130)
    %105 = arith.cmpf une, %103, %103 : tensor<8x1xf32> loc(#loc131)
    %106 = arith.ori %104, %105 : tensor<8x1xi1> loc(#loc132)
    %107 = arith.select %106, %103, %52 : tensor<8x1xi1>, tensor<8x1xf32> loc(#loc133)
    %108 = arith.cmpf ogt, %95, %107 : tensor<8x1xf32> loc(#loc134)
    %109 = arith.cmpf une, %95, %95 : tensor<8x1xf32> loc(#loc135)
    %110 = arith.ori %108, %109 : tensor<8x1xi1> loc(#loc136)
    %111 = arith.select %110, %95, %107 : tensor<8x1xi1>, tensor<8x1xf32> loc(#loc137)
    %112 = arith.cmpf ogt, %55, %58 : tensor<8x1xf32> loc(#loc138)
    %113 = arith.cmpf une, %55, %55 : tensor<8x1xf32> loc(#loc139)
    %114 = arith.ori %112, %113 : tensor<8x1xi1> loc(#loc140)
    %115 = arith.select %114, %55, %58 : tensor<8x1xi1>, tensor<8x1xf32> loc(#loc141)
    %116 = arith.cmpf ogt, %115, %61 : tensor<8x1xf32> loc(#loc142)
    %117 = arith.cmpf une, %115, %115 : tensor<8x1xf32> loc(#loc143)
    %118 = arith.ori %116, %117 : tensor<8x1xi1> loc(#loc144)
    %119 = arith.select %118, %115, %61 : tensor<8x1xi1>, tensor<8x1xf32> loc(#loc145)
    %120 = arith.cmpf ogt, %119, %64 : tensor<8x1xf32> loc(#loc146)
    %121 = arith.cmpf une, %119, %119 : tensor<8x1xf32> loc(#loc147)
    %122 = arith.ori %120, %121 : tensor<8x1xi1> loc(#loc148)
    %123 = arith.select %122, %119, %64 : tensor<8x1xi1>, tensor<8x1xf32> loc(#loc149)
    %124 = arith.cmpf ogt, %111, %123 : tensor<8x1xf32> loc(#loc150)
    %125 = arith.cmpf une, %111, %111 : tensor<8x1xf32> loc(#loc151)
    %126 = arith.ori %124, %125 : tensor<8x1xi1> loc(#loc152)
    %127 = arith.select %126, %111, %123 : tensor<8x1xi1>, tensor<8x1xf32> loc(#loc153)
    %128 = arith.divf %67, %cst : tensor<8x1xf32> loc(#loc85)
    %129 = arith.addf %127, %128 : tensor<8x1xf32> loc(#loc86)
    gpu.barrier loc(#loc87)
    %130 = tt.splat %arg0 : !tt.ptr<f32> -> tensor<8x1x!tt.ptr<f32>> loc(#loc88)
    %131 = tt.addptr %130, %5 : tensor<8x1x!tt.ptr<f32>>, tensor<8x1xi32> loc(#loc88)
    tt.store %131, %129, %6 : tensor<8x1x!tt.ptr<f32>> loc(#loc89)
    tt.return loc(#loc90)
  } loc(#loc)
} loc(#loc)
#loc2 = loc("inductor_cache/y5/cy5cvx3ueega6nhry5arrwfular6ediidwkvjrucahflz7bag6se.py":23:28)
#loc3 = loc("inductor_cache/y5/cy5cvx3ueega6nhry5arrwfular6ediidwkvjrucahflz7bag6se.py":23:33)
#loc4 = loc("inductor_cache/y5/cy5cvx3ueega6nhry5arrwfular6ediidwkvjrucahflz7bag6se.py":24:36)
#loc5 = loc("inductor_cache/y5/cy5cvx3ueega6nhry5arrwfular6ediidwkvjrucahflz7bag6se.py":24:44)
#loc6 = loc("inductor_cache/y5/cy5cvx3ueega6nhry5arrwfular6ediidwkvjrucahflz7bag6se.py":24:23)
#loc7 = loc("inductor_cache/y5/cy5cvx3ueega6nhry5arrwfular6ediidwkvjrucahflz7bag6se.py":25:21)
#loc8 = loc("inductor_cache/y5/cy5cvx3ueega6nhry5arrwfular6ediidwkvjrucahflz7bag6se.py":26:26)
#loc9 = loc("inductor_cache/y5/cy5cvx3ueega6nhry5arrwfular6ediidwkvjrucahflz7bag6se.py":26:34)
#loc10 = loc("inductor_cache/y5/cy5cvx3ueega6nhry5arrwfular6ediidwkvjrucahflz7bag6se.py":31:38)
#loc11 = loc("inductor_cache/y5/cy5cvx3ueega6nhry5arrwfular6ediidwkvjrucahflz7bag6se.py":31:35)
#loc12 = loc("inductor_cache/y5/cy5cvx3ueega6nhry5arrwfular6ediidwkvjrucahflz7bag6se.py":31:30)
#loc13 = loc("inductor_cache/y5/cy5cvx3ueega6nhry5arrwfular6ediidwkvjrucahflz7bag6se.py":31:43)
#loc14 = loc("inductor_cache/y5/cy5cvx3ueega6nhry5arrwfular6ediidwkvjrucahflz7bag6se.py":32:30)
#loc15 = loc("inductor_cache/y5/cy5cvx3ueega6nhry5arrwfular6ediidwkvjrucahflz7bag6se.py":32:38)
#loc16 = loc("inductor_cache/y5/cy5cvx3ueega6nhry5arrwfular6ediidwkvjrucahflz7bag6se.py":33:34)
#loc17 = loc("inductor_cache/y5/cy5cvx3ueega6nhry5arrwfular6ediidwkvjrucahflz7bag6se.py":33:30)
#loc18 = loc("inductor_cache/y5/cy5cvx3ueega6nhry5arrwfular6ediidwkvjrucahflz7bag6se.py":33:42)
#loc19 = loc("inductor_cache/y5/cy5cvx3ueega6nhry5arrwfular6ediidwkvjrucahflz7bag6se.py":34:34)
#loc20 = loc("inductor_cache/y5/cy5cvx3ueega6nhry5arrwfular6ediidwkvjrucahflz7bag6se.py":34:30)
#loc21 = loc("inductor_cache/y5/cy5cvx3ueega6nhry5arrwfular6ediidwkvjrucahflz7bag6se.py":34:42)
#loc22 = loc("inductor_cache/y5/cy5cvx3ueega6nhry5arrwfular6ediidwkvjrucahflz7bag6se.py":35:35)
#loc23 = loc("inductor_cache/y5/cy5cvx3ueega6nhry5arrwfular6ediidwkvjrucahflz7bag6se.py":35:31)
#loc24 = loc("inductor_cache/y5/cy5cvx3ueega6nhry5arrwfular6ediidwkvjrucahflz7bag6se.py":35:43)
#loc25 = loc("inductor_cache/y5/cy5cvx3ueega6nhry5arrwfular6ediidwkvjrucahflz7bag6se.py":36:35)
#loc26 = loc("inductor_cache/y5/cy5cvx3ueega6nhry5arrwfular6ediidwkvjrucahflz7bag6se.py":36:31)
#loc27 = loc("inductor_cache/y5/cy5cvx3ueega6nhry5arrwfular6ediidwkvjrucahflz7bag6se.py":36:43)
#loc28 = loc("inductor_cache/y5/cy5cvx3ueega6nhry5arrwfular6ediidwkvjrucahflz7bag6se.py":37:35)
#loc29 = loc("inductor_cache/y5/cy5cvx3ueega6nhry5arrwfular6ediidwkvjrucahflz7bag6se.py":37:31)
#loc30 = loc("inductor_cache/y5/cy5cvx3ueega6nhry5arrwfular6ediidwkvjrucahflz7bag6se.py":37:43)
#loc31 = loc("inductor_cache/y5/cy5cvx3ueega6nhry5arrwfular6ediidwkvjrucahflz7bag6se.py":38:35)
#loc32 = loc("inductor_cache/y5/cy5cvx3ueega6nhry5arrwfular6ediidwkvjrucahflz7bag6se.py":38:31)
#loc33 = loc("inductor_cache/y5/cy5cvx3ueega6nhry5arrwfular6ediidwkvjrucahflz7bag6se.py":38:43)
#loc34 = loc("inductor_cache/y5/cy5cvx3ueega6nhry5arrwfular6ediidwkvjrucahflz7bag6se.py":39:35)
#loc35 = loc("inductor_cache/y5/cy5cvx3ueega6nhry5arrwfular6ediidwkvjrucahflz7bag6se.py":39:31)
#loc36 = loc("inductor_cache/y5/cy5cvx3ueega6nhry5arrwfular6ediidwkvjrucahflz7bag6se.py":39:43)
#loc37 = loc("inductor_cache/y5/cy5cvx3ueega6nhry5arrwfular6ediidwkvjrucahflz7bag6se.py":40:35)
#loc38 = loc("inductor_cache/y5/cy5cvx3ueega6nhry5arrwfular6ediidwkvjrucahflz7bag6se.py":40:31)
#loc39 = loc("inductor_cache/y5/cy5cvx3ueega6nhry5arrwfular6ediidwkvjrucahflz7bag6se.py":40:43)
#loc40 = loc("inductor_cache/y5/cy5cvx3ueega6nhry5arrwfular6ediidwkvjrucahflz7bag6se.py":41:35)
#loc41 = loc("inductor_cache/y5/cy5cvx3ueega6nhry5arrwfular6ediidwkvjrucahflz7bag6se.py":41:31)
#loc42 = loc("inductor_cache/y5/cy5cvx3ueega6nhry5arrwfular6ediidwkvjrucahflz7bag6se.py":41:43)
#loc43 = loc("inductor_cache/y5/cy5cvx3ueega6nhry5arrwfular6ediidwkvjrucahflz7bag6se.py":42:36)
#loc44 = loc("inductor_cache/y5/cy5cvx3ueega6nhry5arrwfular6ediidwkvjrucahflz7bag6se.py":42:31)
#loc45 = loc("inductor_cache/y5/cy5cvx3ueega6nhry5arrwfular6ediidwkvjrucahflz7bag6se.py":42:44)
#loc46 = loc("inductor_cache/y5/cy5cvx3ueega6nhry5arrwfular6ediidwkvjrucahflz7bag6se.py":43:36)
#loc47 = loc("inductor_cache/y5/cy5cvx3ueega6nhry5arrwfular6ediidwkvjrucahflz7bag6se.py":43:31)
#loc48 = loc("inductor_cache/y5/cy5cvx3ueega6nhry5arrwfular6ediidwkvjrucahflz7bag6se.py":43:44)
#loc49 = loc("inductor_cache/y5/cy5cvx3ueega6nhry5arrwfular6ediidwkvjrucahflz7bag6se.py":44:36)
#loc50 = loc("inductor_cache/y5/cy5cvx3ueega6nhry5arrwfular6ediidwkvjrucahflz7bag6se.py":44:31)
#loc51 = loc("inductor_cache/y5/cy5cvx3ueega6nhry5arrwfular6ediidwkvjrucahflz7bag6se.py":44:44)
#loc52 = loc("inductor_cache/y5/cy5cvx3ueega6nhry5arrwfular6ediidwkvjrucahflz7bag6se.py":45:36)
#loc53 = loc("inductor_cache/y5/cy5cvx3ueega6nhry5arrwfular6ediidwkvjrucahflz7bag6se.py":45:31)
#loc54 = loc("inductor_cache/y5/cy5cvx3ueega6nhry5arrwfular6ediidwkvjrucahflz7bag6se.py":45:44)
#loc55 = loc("inductor_cache/y5/cy5cvx3ueega6nhry5arrwfular6ediidwkvjrucahflz7bag6se.py":46:36)
#loc56 = loc("inductor_cache/y5/cy5cvx3ueega6nhry5arrwfular6ediidwkvjrucahflz7bag6se.py":46:31)
#loc57 = loc("inductor_cache/y5/cy5cvx3ueega6nhry5arrwfular6ediidwkvjrucahflz7bag6se.py":46:44)
#loc58 = loc("inductor_cache/y5/cy5cvx3ueega6nhry5arrwfular6ediidwkvjrucahflz7bag6se.py":47:36)
#loc59 = loc("inductor_cache/y5/cy5cvx3ueega6nhry5arrwfular6ediidwkvjrucahflz7bag6se.py":47:31)
#loc60 = loc("inductor_cache/y5/cy5cvx3ueega6nhry5arrwfular6ediidwkvjrucahflz7bag6se.py":47:44)
#loc61 = loc("inductor_cache/y5/cy5cvx3ueega6nhry5arrwfular6ediidwkvjrucahflz7bag6se.py":49:33)
#loc62 = loc("/home/sahanp/.conda/envs/parity-bench/lib/python3.12/site-packages/triton/language/standard.py":267:36)
#loc64 = loc("/home/sahanp/.conda/envs/parity-bench/lib/python3.12/site-packages/triton/language/standard.py":256:15)
#loc65 = loc("inductor_cache/y5/cy5cvx3ueega6nhry5arrwfular6ediidwkvjrucahflz7bag6se.py":50:27)
#loc66 = loc("/home/sahanp/.conda/envs/parity-bench/lib/python3.12/site-packages/torch/_inductor/runtime/triton_helpers.py":118:15)
#loc67 = loc("inductor_cache/y5/cy5cvx3ueega6nhry5arrwfular6ediidwkvjrucahflz7bag6se.py":51:40)
#loc68 = loc("/home/sahanp/.conda/envs/parity-bench/lib/python3.12/site-packages/torch/_inductor/runtime/triton_helpers.py":120:21)
#loc69 = loc("/home/sahanp/.conda/envs/parity-bench/lib/python3.12/site-packages/torch/_inductor/runtime/triton_helpers.py":120:16)
#loc70 = loc("/home/sahanp/.conda/envs/parity-bench/lib/python3.12/site-packages/torch/_inductor/runtime/triton_helpers.py":121:29)
#loc71 = loc("inductor_cache/y5/cy5cvx3ueega6nhry5arrwfular6ediidwkvjrucahflz7bag6se.py":52:40)
#loc72 = loc("inductor_cache/y5/cy5cvx3ueega6nhry5arrwfular6ediidwkvjrucahflz7bag6se.py":53:41)
#loc73 = loc("inductor_cache/y5/cy5cvx3ueega6nhry5arrwfular6ediidwkvjrucahflz7bag6se.py":54:42)
#loc74 = loc("inductor_cache/y5/cy5cvx3ueega6nhry5arrwfular6ediidwkvjrucahflz7bag6se.py":55:42)
#loc75 = loc("inductor_cache/y5/cy5cvx3ueega6nhry5arrwfular6ediidwkvjrucahflz7bag6se.py":56:42)
#loc76 = loc("inductor_cache/y5/cy5cvx3ueega6nhry5arrwfular6ediidwkvjrucahflz7bag6se.py":57:42)
#loc77 = loc("inductor_cache/y5/cy5cvx3ueega6nhry5arrwfular6ediidwkvjrucahflz7bag6se.py":58:42)
#loc78 = loc("inductor_cache/y5/cy5cvx3ueega6nhry5arrwfular6ediidwkvjrucahflz7bag6se.py":59:42)
#loc79 = loc("inductor_cache/y5/cy5cvx3ueega6nhry5arrwfular6ediidwkvjrucahflz7bag6se.py":60:42)
#loc80 = loc("inductor_cache/y5/cy5cvx3ueega6nhry5arrwfular6ediidwkvjrucahflz7bag6se.py":61:42)
#loc81 = loc("inductor_cache/y5/cy5cvx3ueega6nhry5arrwfular6ediidwkvjrucahflz7bag6se.py":62:42)
#loc82 = loc("inductor_cache/y5/cy5cvx3ueega6nhry5arrwfular6ediidwkvjrucahflz7bag6se.py":63:42)
#loc83 = loc("inductor_cache/y5/cy5cvx3ueega6nhry5arrwfular6ediidwkvjrucahflz7bag6se.py":64:42)
#loc84 = loc("inductor_cache/y5/cy5cvx3ueega6nhry5arrwfular6ediidwkvjrucahflz7bag6se.py":65:42)
#loc85 = loc("inductor_cache/y5/cy5cvx3ueega6nhry5arrwfular6ediidwkvjrucahflz7bag6se.py":67:19)
#loc86 = loc("inductor_cache/y5/cy5cvx3ueega6nhry5arrwfular6ediidwkvjrucahflz7bag6se.py":68:20)
#loc87 = loc("inductor_cache/y5/cy5cvx3ueega6nhry5arrwfular6ediidwkvjrucahflz7bag6se.py":69:4)
#loc88 = loc("inductor_cache/y5/cy5cvx3ueega6nhry5arrwfular6ediidwkvjrucahflz7bag6se.py":70:28)
#loc89 = loc("inductor_cache/y5/cy5cvx3ueega6nhry5arrwfular6ediidwkvjrucahflz7bag6se.py":70:40)
#loc90 = loc("inductor_cache/y5/cy5cvx3ueega6nhry5arrwfular6ediidwkvjrucahflz7bag6se.py":70:4)
#loc91 = loc(callsite(#loc62 at #loc63))
#loc93 = loc(callsite(#loc64 at #loc62))
#loc94 = loc(callsite(#loc66 at #loc67))
#loc95 = loc(callsite(#loc68 at #loc67))
#loc96 = loc(callsite(#loc69 at #loc67))
#loc97 = loc(callsite(#loc70 at #loc67))
#loc98 = loc(callsite(#loc66 at #loc71))
#loc99 = loc(callsite(#loc68 at #loc71))
#loc100 = loc(callsite(#loc69 at #loc71))
#loc101 = loc(callsite(#loc70 at #loc71))
#loc102 = loc(callsite(#loc66 at #loc72))
#loc103 = loc(callsite(#loc68 at #loc72))
#loc104 = loc(callsite(#loc69 at #loc72))
#loc105 = loc(callsite(#loc70 at #loc72))
#loc106 = loc(callsite(#loc66 at #loc73))
#loc107 = loc(callsite(#loc68 at #loc73))
#loc108 = loc(callsite(#loc69 at #loc73))
#loc109 = loc(callsite(#loc70 at #loc73))
#loc110 = loc(callsite(#loc66 at #loc74))
#loc111 = loc(callsite(#loc68 at #loc74))
#loc112 = loc(callsite(#loc69 at #loc74))
#loc113 = loc(callsite(#loc70 at #loc74))
#loc114 = loc(callsite(#loc66 at #loc75))
#loc115 = loc(callsite(#loc68 at #loc75))
#loc116 = loc(callsite(#loc69 at #loc75))
#loc117 = loc(callsite(#loc70 at #loc75))
#loc118 = loc(callsite(#loc66 at #loc76))
#loc119 = loc(callsite(#loc68 at #loc76))
#loc120 = loc(callsite(#loc69 at #loc76))
#loc121 = loc(callsite(#loc70 at #loc76))
#loc122 = loc(callsite(#loc66 at #loc77))
#loc123 = loc(callsite(#loc68 at #loc77))
#loc124 = loc(callsite(#loc69 at #loc77))
#loc125 = loc(callsite(#loc70 at #loc77))
#loc126 = loc(callsite(#loc66 at #loc78))
#loc127 = loc(callsite(#loc68 at #loc78))
#loc128 = loc(callsite(#loc69 at #loc78))
#loc129 = loc(callsite(#loc70 at #loc78))
#loc130 = loc(callsite(#loc66 at #loc79))
#loc131 = loc(callsite(#loc68 at #loc79))
#loc132 = loc(callsite(#loc69 at #loc79))
#loc133 = loc(callsite(#loc70 at #loc79))
#loc134 = loc(callsite(#loc66 at #loc80))
#loc135 = loc(callsite(#loc68 at #loc80))
#loc136 = loc(callsite(#loc69 at #loc80))
#loc137 = loc(callsite(#loc70 at #loc80))
#loc138 = loc(callsite(#loc66 at #loc81))
#loc139 = loc(callsite(#loc68 at #loc81))
#loc140 = loc(callsite(#loc69 at #loc81))
#loc141 = loc(callsite(#loc70 at #loc81))
#loc142 = loc(callsite(#loc66 at #loc82))
#loc143 = loc(callsite(#loc68 at #loc82))
#loc144 = loc(callsite(#loc69 at #loc82))
#loc145 = loc(callsite(#loc70 at #loc82))
#loc146 = loc(callsite(#loc66 at #loc83))
#loc147 = loc(callsite(#loc68 at #loc83))
#loc148 = loc(callsite(#loc69 at #loc83))
#loc149 = loc(callsite(#loc70 at #loc83))
#loc150 = loc(callsite(#loc66 at #loc84))
#loc151 = loc(callsite(#loc68 at #loc84))
#loc152 = loc(callsite(#loc69 at #loc84))
#loc153 = loc(callsite(#loc70 at #loc84))
#loc154 = loc(callsite(#loc93 at #loc63))
