#loc = loc("inductor_cache/pk/cpkj5a4onkhfknyeorl5fvh444kg6fqj75dqxiygxo33imlu3cdq.py":19:0)
module {
  tt.func public @triton_poi_fused_add_avg_pool2d_convolution_div_leaky_relu_19(%arg0: !tt.ptr<f32> {tt.divisibility = 16 : i32} loc("inductor_cache/pk/cpkj5a4onkhfknyeorl5fvh444kg6fqj75dqxiygxo33imlu3cdq.py":19:0), %arg1: !tt.ptr<f32> {tt.divisibility = 16 : i32} loc("inductor_cache/pk/cpkj5a4onkhfknyeorl5fvh444kg6fqj75dqxiygxo33imlu3cdq.py":19:0), %arg2: !tt.ptr<f32> {tt.divisibility = 16 : i32} loc("inductor_cache/pk/cpkj5a4onkhfknyeorl5fvh444kg6fqj75dqxiygxo33imlu3cdq.py":19:0), %arg3: !tt.ptr<f32> {tt.divisibility = 16 : i32} loc("inductor_cache/pk/cpkj5a4onkhfknyeorl5fvh444kg6fqj75dqxiygxo33imlu3cdq.py":19:0), %arg4: i32 {tt.divisibility = 16 : i32} loc("inductor_cache/pk/cpkj5a4onkhfknyeorl5fvh444kg6fqj75dqxiygxo33imlu3cdq.py":19:0)) attributes {noinline = false} {
    %cst = arith.constant dense<2.000000e-01> : tensor<512xf32> loc(#loc1)
    %cst_0 = arith.constant dense<0.000000e+00> : tensor<512xf32> loc(#loc1)
    %cst_1 = arith.constant dense<0.707106769> : tensor<512xf32> loc(#loc1)
    %cst_2 = arith.constant dense<2.500000e-01> : tensor<512xf32> loc(#loc1)
    %cst_3 = arith.constant dense<33280> : tensor<512xi32> loc(#loc1)
    %cst_4 = arith.constant dense<32768> : tensor<512xi32> loc(#loc1)
    %cst_5 = arith.constant dense<65536> : tensor<512xi32> loc(#loc1)
    %cst_6 = arith.constant dense<1024> : tensor<512xi32> loc(#loc1)
    %cst_7 = arith.constant dense<16384> : tensor<512xi32> loc(#loc1)
    %cst_8 = arith.constant dense<32> : tensor<512xi32> loc(#loc1)
    %cst_9 = arith.constant dense<512> : tensor<512xi32> loc(#loc1)
    %c512_i32 = arith.constant 512 : i32 loc(#loc1)
    %0 = tt.get_program_id x : i32 loc(#loc2)
    %1 = arith.muli %0, %c512_i32 : i32 loc(#loc3)
    %2 = tt.make_range {end = 512 : i32, start = 0 : i32} : tensor<512xi32> loc(#loc4)
    %3 = tt.splat %1 : i32 -> tensor<512xi32> loc(#loc5)
    %4 = arith.addi %3, %2 : tensor<512xi32> loc(#loc5)
    %5 = arith.remsi %4, %cst_9 : tensor<512xi32> loc(#loc6)
    %6 = arith.divsi %4, %cst_9 : tensor<512xi32> loc(#loc7)
    %7 = arith.remsi %6, %cst_8 : tensor<512xi32> loc(#loc8)
    %8 = arith.divsi %4, %cst_7 : tensor<512xi32> loc(#loc9)
    %9 = arith.muli %7, %cst_6 : tensor<512xi32> loc(#loc10)
    %10 = arith.addi %5, %9 : tensor<512xi32> loc(#loc11)
    %11 = arith.muli %8, %cst_5 : tensor<512xi32> loc(#loc12)
    %12 = arith.addi %10, %11 : tensor<512xi32> loc(#loc13)
    %13 = tt.splat %arg1 : !tt.ptr<f32> -> tensor<512x!tt.ptr<f32>> loc(#loc14)
    %14 = tt.addptr %13, %12 : tensor<512x!tt.ptr<f32>>, tensor<512xi32> loc(#loc14)
    %15 = tt.load %14 : tensor<512x!tt.ptr<f32>> loc(#loc15)
    %16 = arith.addi %5, %cst_9 : tensor<512xi32> loc(#loc16)
    %17 = arith.addi %16, %9 : tensor<512xi32> loc(#loc17)
    %18 = arith.addi %17, %11 : tensor<512xi32> loc(#loc18)
    %19 = tt.addptr %13, %18 : tensor<512x!tt.ptr<f32>>, tensor<512xi32> loc(#loc19)
    %20 = tt.load %19 : tensor<512x!tt.ptr<f32>> loc(#loc20)
    %21 = arith.addi %5, %cst_4 : tensor<512xi32> loc(#loc21)
    %22 = arith.addi %21, %9 : tensor<512xi32> loc(#loc22)
    %23 = arith.addi %22, %11 : tensor<512xi32> loc(#loc23)
    %24 = tt.addptr %13, %23 : tensor<512x!tt.ptr<f32>>, tensor<512xi32> loc(#loc24)
    %25 = tt.load %24 : tensor<512x!tt.ptr<f32>> loc(#loc25)
    %26 = arith.addi %5, %cst_3 : tensor<512xi32> loc(#loc26)
    %27 = arith.addi %26, %9 : tensor<512xi32> loc(#loc27)
    %28 = arith.addi %27, %11 : tensor<512xi32> loc(#loc28)
    %29 = tt.addptr %13, %28 : tensor<512x!tt.ptr<f32>>, tensor<512xi32> loc(#loc29)
    %30 = tt.load %29 : tensor<512x!tt.ptr<f32>> loc(#loc30)
    %31 = tt.splat %arg0 : !tt.ptr<f32> -> tensor<512x!tt.ptr<f32>> loc(#loc31)
    %32 = tt.addptr %31, %4 : tensor<512x!tt.ptr<f32>>, tensor<512xi32> loc(#loc31)
    %33 = tt.load %32 : tensor<512x!tt.ptr<f32>> loc(#loc32)
    %34 = tt.splat %arg2 : !tt.ptr<f32> -> tensor<512x!tt.ptr<f32>> loc(#loc33)
    %35 = tt.addptr %34, %5 : tensor<512x!tt.ptr<f32>>, tensor<512xi32> loc(#loc33)
    %36 = tt.load %35 evictionPolicy = evict_last : tensor<512x!tt.ptr<f32>> loc(#loc34)
    %37 = arith.addf %20, %15 : tensor<512xf32> loc(#loc35)
    %38 = arith.addf %25, %37 : tensor<512xf32> loc(#loc36)
    %39 = arith.addf %30, %38 : tensor<512xf32> loc(#loc37)
    %40 = arith.mulf %39, %cst_2 : tensor<512xf32> loc(#loc38)
    %41 = arith.addf %33, %36 : tensor<512xf32> loc(#loc39)
    %42 = arith.addf %40, %41 : tensor<512xf32> loc(#loc40)
    %43 = arith.mulf %42, %cst_1 : tensor<512xf32> loc(#loc41)
    %44 = arith.cmpf ogt, %43, %cst_0 : tensor<512xf32> loc(#loc42)
    %45 = arith.mulf %43, %cst : tensor<512xf32> loc(#loc43)
    %46 = arith.select %44, %43, %45 : tensor<512xi1>, tensor<512xf32> loc(#loc44)
    tt.store %32, %43 : tensor<512x!tt.ptr<f32>> loc(#loc45)
    %47 = tt.splat %arg3 : !tt.ptr<f32> -> tensor<512x!tt.ptr<f32>> loc(#loc46)
    %48 = tt.addptr %47, %4 : tensor<512x!tt.ptr<f32>>, tensor<512xi32> loc(#loc46)
    tt.store %48, %46 : tensor<512x!tt.ptr<f32>> loc(#loc47)
    tt.return loc(#loc48)
  } loc(#loc)
} loc(#loc)
#loc1 = loc(unknown)
#loc2 = loc("inductor_cache/pk/cpkj5a4onkhfknyeorl5fvh444kg6fqj75dqxiygxo33imlu3cdq.py":21:28)
#loc3 = loc("inductor_cache/pk/cpkj5a4onkhfknyeorl5fvh444kg6fqj75dqxiygxo33imlu3cdq.py":21:33)
#loc4 = loc("inductor_cache/pk/cpkj5a4onkhfknyeorl5fvh444kg6fqj75dqxiygxo33imlu3cdq.py":22:36)
#loc5 = loc("inductor_cache/pk/cpkj5a4onkhfknyeorl5fvh444kg6fqj75dqxiygxo33imlu3cdq.py":22:23)
#loc6 = loc("inductor_cache/pk/cpkj5a4onkhfknyeorl5fvh444kg6fqj75dqxiygxo33imlu3cdq.py":24:19)
#loc7 = loc("inductor_cache/pk/cpkj5a4onkhfknyeorl5fvh444kg6fqj75dqxiygxo33imlu3cdq.py":25:21)
#loc8 = loc("inductor_cache/pk/cpkj5a4onkhfknyeorl5fvh444kg6fqj75dqxiygxo33imlu3cdq.py":25:28)
#loc9 = loc("inductor_cache/pk/cpkj5a4onkhfknyeorl5fvh444kg6fqj75dqxiygxo33imlu3cdq.py":26:19)
#loc10 = loc("inductor_cache/pk/cpkj5a4onkhfknyeorl5fvh444kg6fqj75dqxiygxo33imlu3cdq.py":28:40)
#loc11 = loc("inductor_cache/pk/cpkj5a4onkhfknyeorl5fvh444kg6fqj75dqxiygxo33imlu3cdq.py":28:35)
#loc12 = loc("inductor_cache/pk/cpkj5a4onkhfknyeorl5fvh444kg6fqj75dqxiygxo33imlu3cdq.py":28:51)
#loc13 = loc("inductor_cache/pk/cpkj5a4onkhfknyeorl5fvh444kg6fqj75dqxiygxo33imlu3cdq.py":28:45)
#loc14 = loc("inductor_cache/pk/cpkj5a4onkhfknyeorl5fvh444kg6fqj75dqxiygxo33imlu3cdq.py":28:30)
#loc15 = loc("inductor_cache/pk/cpkj5a4onkhfknyeorl5fvh444kg6fqj75dqxiygxo33imlu3cdq.py":28:56)
#loc16 = loc("inductor_cache/pk/cpkj5a4onkhfknyeorl5fvh444kg6fqj75dqxiygxo33imlu3cdq.py":29:36)
#loc17 = loc("inductor_cache/pk/cpkj5a4onkhfknyeorl5fvh444kg6fqj75dqxiygxo33imlu3cdq.py":29:41)
#loc18 = loc("inductor_cache/pk/cpkj5a4onkhfknyeorl5fvh444kg6fqj75dqxiygxo33imlu3cdq.py":29:51)
#loc19 = loc("inductor_cache/pk/cpkj5a4onkhfknyeorl5fvh444kg6fqj75dqxiygxo33imlu3cdq.py":29:30)
#loc20 = loc("inductor_cache/pk/cpkj5a4onkhfknyeorl5fvh444kg6fqj75dqxiygxo33imlu3cdq.py":29:62)
#loc21 = loc("inductor_cache/pk/cpkj5a4onkhfknyeorl5fvh444kg6fqj75dqxiygxo33imlu3cdq.py":30:38)
#loc22 = loc("inductor_cache/pk/cpkj5a4onkhfknyeorl5fvh444kg6fqj75dqxiygxo33imlu3cdq.py":30:43)
#loc23 = loc("inductor_cache/pk/cpkj5a4onkhfknyeorl5fvh444kg6fqj75dqxiygxo33imlu3cdq.py":30:53)
#loc24 = loc("inductor_cache/pk/cpkj5a4onkhfknyeorl5fvh444kg6fqj75dqxiygxo33imlu3cdq.py":30:30)
#loc25 = loc("inductor_cache/pk/cpkj5a4onkhfknyeorl5fvh444kg6fqj75dqxiygxo33imlu3cdq.py":30:64)
#loc26 = loc("inductor_cache/pk/cpkj5a4onkhfknyeorl5fvh444kg6fqj75dqxiygxo33imlu3cdq.py":31:38)
#loc27 = loc("inductor_cache/pk/cpkj5a4onkhfknyeorl5fvh444kg6fqj75dqxiygxo33imlu3cdq.py":31:43)
#loc28 = loc("inductor_cache/pk/cpkj5a4onkhfknyeorl5fvh444kg6fqj75dqxiygxo33imlu3cdq.py":31:53)
#loc29 = loc("inductor_cache/pk/cpkj5a4onkhfknyeorl5fvh444kg6fqj75dqxiygxo33imlu3cdq.py":31:30)
#loc30 = loc("inductor_cache/pk/cpkj5a4onkhfknyeorl5fvh444kg6fqj75dqxiygxo33imlu3cdq.py":31:64)
#loc31 = loc("inductor_cache/pk/cpkj5a4onkhfknyeorl5fvh444kg6fqj75dqxiygxo33imlu3cdq.py":32:34)
#loc32 = loc("inductor_cache/pk/cpkj5a4onkhfknyeorl5fvh444kg6fqj75dqxiygxo33imlu3cdq.py":32:39)
#loc33 = loc("inductor_cache/pk/cpkj5a4onkhfknyeorl5fvh444kg6fqj75dqxiygxo33imlu3cdq.py":33:31)
#loc34 = loc("inductor_cache/pk/cpkj5a4onkhfknyeorl5fvh444kg6fqj75dqxiygxo33imlu3cdq.py":33:36)
#loc35 = loc("inductor_cache/pk/cpkj5a4onkhfknyeorl5fvh444kg6fqj75dqxiygxo33imlu3cdq.py":34:18)
#loc36 = loc("inductor_cache/pk/cpkj5a4onkhfknyeorl5fvh444kg6fqj75dqxiygxo33imlu3cdq.py":35:18)
#loc37 = loc("inductor_cache/pk/cpkj5a4onkhfknyeorl5fvh444kg6fqj75dqxiygxo33imlu3cdq.py":36:18)
#loc38 = loc("inductor_cache/pk/cpkj5a4onkhfknyeorl5fvh444kg6fqj75dqxiygxo33imlu3cdq.py":38:18)
#loc39 = loc("inductor_cache/pk/cpkj5a4onkhfknyeorl5fvh444kg6fqj75dqxiygxo33imlu3cdq.py":39:19)
#loc40 = loc("inductor_cache/pk/cpkj5a4onkhfknyeorl5fvh444kg6fqj75dqxiygxo33imlu3cdq.py":40:19)
#loc41 = loc("inductor_cache/pk/cpkj5a4onkhfknyeorl5fvh444kg6fqj75dqxiygxo33imlu3cdq.py":42:20)
#loc42 = loc("inductor_cache/pk/cpkj5a4onkhfknyeorl5fvh444kg6fqj75dqxiygxo33imlu3cdq.py":44:20)
#loc43 = loc("inductor_cache/pk/cpkj5a4onkhfknyeorl5fvh444kg6fqj75dqxiygxo33imlu3cdq.py":46:20)
#loc44 = loc("inductor_cache/pk/cpkj5a4onkhfknyeorl5fvh444kg6fqj75dqxiygxo33imlu3cdq.py":47:35)
#loc45 = loc("inductor_cache/pk/cpkj5a4onkhfknyeorl5fvh444kg6fqj75dqxiygxo33imlu3cdq.py":48:40)
#loc46 = loc("inductor_cache/pk/cpkj5a4onkhfknyeorl5fvh444kg6fqj75dqxiygxo33imlu3cdq.py":49:25)
#loc47 = loc("inductor_cache/pk/cpkj5a4onkhfknyeorl5fvh444kg6fqj75dqxiygxo33imlu3cdq.py":49:37)
#loc48 = loc("inductor_cache/pk/cpkj5a4onkhfknyeorl5fvh444kg6fqj75dqxiygxo33imlu3cdq.py":49:4)
