#loc = loc("inductor_cache/re/crenfbssdtm2xdushbluo2akmosrpyatutms6zr6sugngx4sjmii.py":19:0)
module {
  tt.func public @triton_poi_fused_add_clone_1(%arg0: !tt.ptr<f32> {tt.divisibility = 16 : i32} loc("inductor_cache/re/crenfbssdtm2xdushbluo2akmosrpyatutms6zr6sugngx4sjmii.py":19:0), %arg1: !tt.ptr<f32> {tt.divisibility = 16 : i32} loc("inductor_cache/re/crenfbssdtm2xdushbluo2akmosrpyatutms6zr6sugngx4sjmii.py":19:0), %arg2: !tt.ptr<f32> {tt.divisibility = 16 : i32} loc("inductor_cache/re/crenfbssdtm2xdushbluo2akmosrpyatutms6zr6sugngx4sjmii.py":19:0), %arg3: !tt.ptr<f32> {tt.divisibility = 16 : i32} loc("inductor_cache/re/crenfbssdtm2xdushbluo2akmosrpyatutms6zr6sugngx4sjmii.py":19:0), %arg4: i32 loc("inductor_cache/re/crenfbssdtm2xdushbluo2akmosrpyatutms6zr6sugngx4sjmii.py":19:0), %arg5: i32 {tt.divisibility = 16 : i32} loc("inductor_cache/re/crenfbssdtm2xdushbluo2akmosrpyatutms6zr6sugngx4sjmii.py":19:0)) attributes {noinline = false} {
    %cst = arith.constant dense<16> : tensor<1x4xi32> loc(#loc1)
    %cst_0 = arith.constant dense<4> : tensor<8x1xi32> loc(#loc1)
    %cst_1 = arith.constant dense<16> : tensor<8x1xi32> loc(#loc1)
    %c8_i32 = arith.constant 8 : i32 loc(#loc1)
    %cst_2 = arith.constant dense<4> : tensor<1x4xi32> loc(#loc1)
    %c4_i32 = arith.constant 4 : i32 loc(#loc1)
    %0 = tt.get_program_id y : i32 loc(#loc2)
    %1 = arith.muli %0, %c4_i32 : i32 loc(#loc3)
    %2 = tt.make_range {end = 4 : i32, start = 0 : i32} : tensor<4xi32> loc(#loc4)
    %3 = tt.expand_dims %2 {axis = 0 : i32} : tensor<4xi32> -> tensor<1x4xi32> loc(#loc5)
    %4 = tt.splat %1 : i32 -> tensor<1x4xi32> loc(#loc6)
    %5 = arith.addi %4, %3 : tensor<1x4xi32> loc(#loc6)
    %6 = arith.cmpi slt, %5, %cst_2 : tensor<1x4xi32> loc(#loc7)
    %7 = tt.get_program_id x : i32 loc(#loc8)
    %8 = arith.muli %7, %c8_i32 : i32 loc(#loc9)
    %9 = tt.make_range {end = 8 : i32, start = 0 : i32} : tensor<8xi32> loc(#loc10)
    %10 = tt.expand_dims %9 {axis = 1 : i32} : tensor<8xi32> -> tensor<8x1xi32> loc(#loc11)
    %11 = tt.splat %8 : i32 -> tensor<8x1xi32> loc(#loc12)
    %12 = arith.addi %11, %10 : tensor<8x1xi32> loc(#loc12)
    %13 = arith.cmpi slt, %12, %cst_1 : tensor<8x1xi32> loc(#loc13)
    %14 = arith.remsi %12, %cst_0 : tensor<8x1xi32> loc(#loc14)
    %15 = arith.muli %12, %cst_0 : tensor<8x1xi32> loc(#loc15)
    %16 = tt.broadcast %5 : tensor<1x4xi32> -> tensor<8x4xi32> loc(#loc16)
    %17 = tt.broadcast %15 : tensor<8x1xi32> -> tensor<8x4xi32> loc(#loc16)
    %18 = arith.addi %16, %17 : tensor<8x4xi32> loc(#loc16)
    %19 = tt.splat %arg0 : !tt.ptr<f32> -> tensor<8x4x!tt.ptr<f32>> loc(#loc17)
    %20 = tt.addptr %19, %18 : tensor<8x4x!tt.ptr<f32>>, tensor<8x4xi32> loc(#loc17)
    %21 = tt.broadcast %13 : tensor<8x1xi1> -> tensor<8x4xi1> loc(#loc18)
    %22 = tt.broadcast %6 : tensor<1x4xi1> -> tensor<8x4xi1> loc(#loc18)
    %23 = arith.andi %21, %22 : tensor<8x4xi1> loc(#loc18)
    %24 = tt.load %20, %23 evictionPolicy = evict_last : tensor<8x4x!tt.ptr<f32>> loc(#loc19)
    %25 = tt.splat %arg1 : !tt.ptr<f32> -> tensor<8x1x!tt.ptr<f32>> loc(#loc20)
    %26 = tt.addptr %25, %14 : tensor<8x1x!tt.ptr<f32>>, tensor<8x1xi32> loc(#loc20)
    %27 = tt.load %26, %13 evictionPolicy = evict_last : tensor<8x1x!tt.ptr<f32>> loc(#loc21)
    %28 = arith.muli %5, %cst_2 : tensor<1x4xi32> loc(#loc22)
    %29 = tt.broadcast %14 : tensor<8x1xi32> -> tensor<8x4xi32> loc(#loc23)
    %30 = tt.broadcast %28 : tensor<1x4xi32> -> tensor<8x4xi32> loc(#loc23)
    %31 = arith.addi %29, %30 : tensor<8x4xi32> loc(#loc23)
    %32 = tt.splat %arg2 : !tt.ptr<f32> -> tensor<8x4x!tt.ptr<f32>> loc(#loc24)
    %33 = tt.addptr %32, %31 : tensor<8x4x!tt.ptr<f32>>, tensor<8x4xi32> loc(#loc24)
    %34 = tt.load %33, %23 evictionPolicy = evict_last : tensor<8x4x!tt.ptr<f32>> loc(#loc25)
    %35 = tt.broadcast %27 : tensor<8x1xf32> -> tensor<8x4xf32> loc(#loc26)
    %36 = arith.addf %24, %35 : tensor<8x4xf32> loc(#loc26)
    %37 = arith.addf %36, %34 : tensor<8x4xf32> loc(#loc27)
    %38 = arith.muli %5, %cst : tensor<1x4xi32> loc(#loc28)
    %39 = tt.broadcast %12 : tensor<8x1xi32> -> tensor<8x4xi32> loc(#loc29)
    %40 = tt.broadcast %38 : tensor<1x4xi32> -> tensor<8x4xi32> loc(#loc29)
    %41 = arith.addi %39, %40 : tensor<8x4xi32> loc(#loc29)
    %42 = tt.splat %arg3 : !tt.ptr<f32> -> tensor<8x4x!tt.ptr<f32>> loc(#loc30)
    %43 = tt.addptr %42, %41 : tensor<8x4x!tt.ptr<f32>>, tensor<8x4xi32> loc(#loc30)
    tt.store %43, %37, %23 : tensor<8x4x!tt.ptr<f32>> loc(#loc31)
    tt.return loc(#loc32)
  } loc(#loc)
} loc(#loc)
#loc1 = loc(unknown)
#loc2 = loc("inductor_cache/re/crenfbssdtm2xdushbluo2akmosrpyatutms6zr6sugngx4sjmii.py":22:28)
#loc3 = loc("inductor_cache/re/crenfbssdtm2xdushbluo2akmosrpyatutms6zr6sugngx4sjmii.py":22:33)
#loc4 = loc("inductor_cache/re/crenfbssdtm2xdushbluo2akmosrpyatutms6zr6sugngx4sjmii.py":23:36)
#loc5 = loc("inductor_cache/re/crenfbssdtm2xdushbluo2akmosrpyatutms6zr6sugngx4sjmii.py":23:44)
#loc6 = loc("inductor_cache/re/crenfbssdtm2xdushbluo2akmosrpyatutms6zr6sugngx4sjmii.py":23:23)
#loc7 = loc("inductor_cache/re/crenfbssdtm2xdushbluo2akmosrpyatutms6zr6sugngx4sjmii.py":24:21)
#loc8 = loc("inductor_cache/re/crenfbssdtm2xdushbluo2akmosrpyatutms6zr6sugngx4sjmii.py":25:28)
#loc9 = loc("inductor_cache/re/crenfbssdtm2xdushbluo2akmosrpyatutms6zr6sugngx4sjmii.py":25:33)
#loc10 = loc("inductor_cache/re/crenfbssdtm2xdushbluo2akmosrpyatutms6zr6sugngx4sjmii.py":26:36)
#loc11 = loc("inductor_cache/re/crenfbssdtm2xdushbluo2akmosrpyatutms6zr6sugngx4sjmii.py":26:44)
#loc12 = loc("inductor_cache/re/crenfbssdtm2xdushbluo2akmosrpyatutms6zr6sugngx4sjmii.py":26:23)
#loc13 = loc("inductor_cache/re/crenfbssdtm2xdushbluo2akmosrpyatutms6zr6sugngx4sjmii.py":27:21)
#loc14 = loc("inductor_cache/re/crenfbssdtm2xdushbluo2akmosrpyatutms6zr6sugngx4sjmii.py":30:19)
#loc15 = loc("inductor_cache/re/crenfbssdtm2xdushbluo2akmosrpyatutms6zr6sugngx4sjmii.py":31:37)
#loc16 = loc("inductor_cache/re/crenfbssdtm2xdushbluo2akmosrpyatutms6zr6sugngx4sjmii.py":31:35)
#loc17 = loc("inductor_cache/re/crenfbssdtm2xdushbluo2akmosrpyatutms6zr6sugngx4sjmii.py":31:30)
#loc18 = loc("inductor_cache/re/crenfbssdtm2xdushbluo2akmosrpyatutms6zr6sugngx4sjmii.py":31:50)
#loc19 = loc("inductor_cache/re/crenfbssdtm2xdushbluo2akmosrpyatutms6zr6sugngx4sjmii.py":31:42)
#loc20 = loc("inductor_cache/re/crenfbssdtm2xdushbluo2akmosrpyatutms6zr6sugngx4sjmii.py":32:30)
#loc21 = loc("inductor_cache/re/crenfbssdtm2xdushbluo2akmosrpyatutms6zr6sugngx4sjmii.py":32:35)
#loc22 = loc("inductor_cache/re/crenfbssdtm2xdushbluo2akmosrpyatutms6zr6sugngx4sjmii.py":33:37)
#loc23 = loc("inductor_cache/re/crenfbssdtm2xdushbluo2akmosrpyatutms6zr6sugngx4sjmii.py":33:35)
#loc24 = loc("inductor_cache/re/crenfbssdtm2xdushbluo2akmosrpyatutms6zr6sugngx4sjmii.py":33:30)
#loc25 = loc("inductor_cache/re/crenfbssdtm2xdushbluo2akmosrpyatutms6zr6sugngx4sjmii.py":33:42)
#loc26 = loc("inductor_cache/re/crenfbssdtm2xdushbluo2akmosrpyatutms6zr6sugngx4sjmii.py":34:18)
#loc27 = loc("inductor_cache/re/crenfbssdtm2xdushbluo2akmosrpyatutms6zr6sugngx4sjmii.py":35:18)
#loc28 = loc("inductor_cache/re/crenfbssdtm2xdushbluo2akmosrpyatutms6zr6sugngx4sjmii.py":36:33)
#loc29 = loc("inductor_cache/re/crenfbssdtm2xdushbluo2akmosrpyatutms6zr6sugngx4sjmii.py":36:30)
#loc30 = loc("inductor_cache/re/crenfbssdtm2xdushbluo2akmosrpyatutms6zr6sugngx4sjmii.py":36:25)
#loc31 = loc("inductor_cache/re/crenfbssdtm2xdushbluo2akmosrpyatutms6zr6sugngx4sjmii.py":36:44)
#loc32 = loc("inductor_cache/re/crenfbssdtm2xdushbluo2akmosrpyatutms6zr6sugngx4sjmii.py":36:4)
