#loc = loc("inductor_cache/rz/crzkju7pxyalzapwjamrwxfxoddye4j5mhcsmqoji2u3nzuyt5t2.py":19:0)
module {
  tt.func public @triton_poi_fused_add_convolution_relu_sigmoid_1(%arg0: !tt.ptr<f32> {tt.divisibility = 16 : i32} loc("inductor_cache/rz/crzkju7pxyalzapwjamrwxfxoddye4j5mhcsmqoji2u3nzuyt5t2.py":19:0), %arg1: !tt.ptr<f32> {tt.divisibility = 16 : i32} loc("inductor_cache/rz/crzkju7pxyalzapwjamrwxfxoddye4j5mhcsmqoji2u3nzuyt5t2.py":19:0), %arg2: !tt.ptr<f32> {tt.divisibility = 16 : i32} loc("inductor_cache/rz/crzkju7pxyalzapwjamrwxfxoddye4j5mhcsmqoji2u3nzuyt5t2.py":19:0), %arg3: i32 {tt.divisibility = 16 : i32} loc("inductor_cache/rz/crzkju7pxyalzapwjamrwxfxoddye4j5mhcsmqoji2u3nzuyt5t2.py":19:0), %arg4: i32 {tt.divisibility = 16 : i32} loc("inductor_cache/rz/crzkju7pxyalzapwjamrwxfxoddye4j5mhcsmqoji2u3nzuyt5t2.py":19:0)) attributes {noinline = false} {
    %cst = arith.constant dense<0.000000e+00> : tensor<256x4xf32> loc(#loc1)
    %cst_0 = arith.constant dense<1.000000e+00> : tensor<256x4xf32> loc(#loc1)
    %cst_1 = arith.constant dense<1048576> : tensor<1x4xi32> loc(#loc1)
    %cst_2 = arith.constant dense<4096> : tensor<256x1xi32> loc(#loc1)
    %cst_3 = arith.constant dense<256> : tensor<1x4xi32> loc(#loc1)
    %cst_4 = arith.constant dense<4096> : tensor<1x4xi32> loc(#loc1)
    %cst_5 = arith.constant dense<256> : tensor<256x1xi32> loc(#loc1)
    %c4_i32 = arith.constant 4 : i32 loc(#loc1)
    %c256_i32 = arith.constant 256 : i32 loc(#loc1)
    %0 = tt.get_program_id y : i32 loc(#loc2)
    %1 = arith.muli %0, %c4_i32 : i32 loc(#loc3)
    %2 = tt.make_range {end = 4 : i32, start = 0 : i32} : tensor<4xi32> loc(#loc4)
    %3 = tt.expand_dims %2 {axis = 0 : i32} : tensor<4xi32> -> tensor<1x4xi32> loc(#loc5)
    %4 = tt.splat %1 : i32 -> tensor<1x4xi32> loc(#loc6)
    %5 = arith.addi %4, %3 : tensor<1x4xi32> loc(#loc6)
    %6 = tt.get_program_id x : i32 loc(#loc7)
    %7 = arith.muli %6, %c256_i32 : i32 loc(#loc8)
    %8 = tt.make_range {end = 256 : i32, start = 0 : i32} : tensor<256xi32> loc(#loc9)
    %9 = tt.expand_dims %8 {axis = 1 : i32} : tensor<256xi32> -> tensor<256x1xi32> loc(#loc10)
    %10 = tt.splat %7 : i32 -> tensor<256x1xi32> loc(#loc11)
    %11 = arith.addi %10, %9 : tensor<256x1xi32> loc(#loc11)
    %12 = arith.cmpi slt, %11, %cst_5 : tensor<256x1xi32> loc(#loc12)
    %13 = arith.remsi %5, %cst_4 : tensor<1x4xi32> loc(#loc13)
    %14 = arith.divsi %5, %cst_4 : tensor<1x4xi32> loc(#loc14)
    %15 = arith.muli %5, %cst_3 : tensor<1x4xi32> loc(#loc15)
    %16 = tt.broadcast %11 : tensor<256x1xi32> -> tensor<256x4xi32> loc(#loc16)
    %17 = tt.broadcast %15 : tensor<1x4xi32> -> tensor<256x4xi32> loc(#loc16)
    %18 = arith.addi %16, %17 : tensor<256x4xi32> loc(#loc16)
    %19 = tt.splat %arg0 : !tt.ptr<f32> -> tensor<256x4x!tt.ptr<f32>> loc(#loc17)
    %20 = tt.addptr %19, %18 : tensor<256x4x!tt.ptr<f32>>, tensor<256x4xi32> loc(#loc17)
    %21 = tt.broadcast %12 : tensor<256x1xi1> -> tensor<256x4xi1> loc(#loc18)
    %22 = tt.load %20, %21 evictionPolicy = evict_last : tensor<256x4x!tt.ptr<f32>> loc(#loc18)
    %23 = tt.splat %arg1 : !tt.ptr<f32> -> tensor<256x1x!tt.ptr<f32>> loc(#loc19)
    %24 = tt.addptr %23, %11 : tensor<256x1x!tt.ptr<f32>>, tensor<256x1xi32> loc(#loc19)
    %25 = tt.load %24, %12 evictionPolicy = evict_last : tensor<256x1x!tt.ptr<f32>> loc(#loc20)
    %26 = arith.muli %11, %cst_2 : tensor<256x1xi32> loc(#loc21)
    %27 = tt.broadcast %13 : tensor<1x4xi32> -> tensor<256x4xi32> loc(#loc22)
    %28 = tt.broadcast %26 : tensor<256x1xi32> -> tensor<256x4xi32> loc(#loc22)
    %29 = arith.addi %27, %28 : tensor<256x4xi32> loc(#loc22)
    %30 = arith.muli %14, %cst_1 : tensor<1x4xi32> loc(#loc23)
    %31 = tt.broadcast %30 : tensor<1x4xi32> -> tensor<256x4xi32> loc(#loc24)
    %32 = arith.addi %29, %31 : tensor<256x4xi32> loc(#loc24)
    %33 = tt.splat %arg2 : !tt.ptr<f32> -> tensor<256x4x!tt.ptr<f32>> loc(#loc25)
    %34 = tt.addptr %33, %32 : tensor<256x4x!tt.ptr<f32>>, tensor<256x4xi32> loc(#loc25)
    %35 = tt.load %34, %21 evictionPolicy = evict_last : tensor<256x4x!tt.ptr<f32>> loc(#loc26)
    %36 = tt.broadcast %25 : tensor<256x1xf32> -> tensor<256x4xf32> loc(#loc27)
    %37 = arith.addf %22, %36 : tensor<256x4xf32> loc(#loc27)
    %38 = arith.subf %cst, %35 : tensor<256x4xf32> loc(#loc41)
    %39 = math.exp %38 : tensor<256x4xf32> loc(#loc42)
    %40 = arith.addf %39, %cst_0 : tensor<256x4xf32> loc(#loc43)
    %41 = arith.divf %cst_0, %40 : tensor<256x4xf32> loc(#loc44)
    %42 = arith.cmpf ogt, %cst, %41 : tensor<256x4xf32> loc(#loc45)
    %43 = arith.select %42, %cst, %41 : tensor<256x4xi1>, tensor<256x4xf32> loc(#loc46)
    %44 = arith.addf %37, %43 : tensor<256x4xf32> loc(#loc36)
    %45 = arith.cmpf ogt, %cst, %44 : tensor<256x4xf32> loc(#loc47)
    %46 = arith.select %45, %cst, %44 : tensor<256x4xi1>, tensor<256x4xf32> loc(#loc48)
    gpu.barrier loc(#loc38)
    tt.store %20, %46, %21 : tensor<256x4x!tt.ptr<f32>> loc(#loc39)
    tt.return loc(#loc40)
  } loc(#loc)
} loc(#loc)
#loc1 = loc(unknown)
#loc2 = loc("inductor_cache/rz/crzkju7pxyalzapwjamrwxfxoddye4j5mhcsmqoji2u3nzuyt5t2.py":22:28)
#loc3 = loc("inductor_cache/rz/crzkju7pxyalzapwjamrwxfxoddye4j5mhcsmqoji2u3nzuyt5t2.py":22:33)
#loc4 = loc("inductor_cache/rz/crzkju7pxyalzapwjamrwxfxoddye4j5mhcsmqoji2u3nzuyt5t2.py":23:36)
#loc5 = loc("inductor_cache/rz/crzkju7pxyalzapwjamrwxfxoddye4j5mhcsmqoji2u3nzuyt5t2.py":23:44)
#loc6 = loc("inductor_cache/rz/crzkju7pxyalzapwjamrwxfxoddye4j5mhcsmqoji2u3nzuyt5t2.py":23:23)
#loc7 = loc("inductor_cache/rz/crzkju7pxyalzapwjamrwxfxoddye4j5mhcsmqoji2u3nzuyt5t2.py":25:28)
#loc8 = loc("inductor_cache/rz/crzkju7pxyalzapwjamrwxfxoddye4j5mhcsmqoji2u3nzuyt5t2.py":25:33)
#loc9 = loc("inductor_cache/rz/crzkju7pxyalzapwjamrwxfxoddye4j5mhcsmqoji2u3nzuyt5t2.py":26:36)
#loc10 = loc("inductor_cache/rz/crzkju7pxyalzapwjamrwxfxoddye4j5mhcsmqoji2u3nzuyt5t2.py":26:44)
#loc11 = loc("inductor_cache/rz/crzkju7pxyalzapwjamrwxfxoddye4j5mhcsmqoji2u3nzuyt5t2.py":26:23)
#loc12 = loc("inductor_cache/rz/crzkju7pxyalzapwjamrwxfxoddye4j5mhcsmqoji2u3nzuyt5t2.py":27:21)
#loc13 = loc("inductor_cache/rz/crzkju7pxyalzapwjamrwxfxoddye4j5mhcsmqoji2u3nzuyt5t2.py":30:19)
#loc14 = loc("inductor_cache/rz/crzkju7pxyalzapwjamrwxfxoddye4j5mhcsmqoji2u3nzuyt5t2.py":31:19)
#loc15 = loc("inductor_cache/rz/crzkju7pxyalzapwjamrwxfxoddye4j5mhcsmqoji2u3nzuyt5t2.py":32:43)
#loc16 = loc("inductor_cache/rz/crzkju7pxyalzapwjamrwxfxoddye4j5mhcsmqoji2u3nzuyt5t2.py":32:39)
#loc17 = loc("inductor_cache/rz/crzkju7pxyalzapwjamrwxfxoddye4j5mhcsmqoji2u3nzuyt5t2.py":32:34)
#loc18 = loc("inductor_cache/rz/crzkju7pxyalzapwjamrwxfxoddye4j5mhcsmqoji2u3nzuyt5t2.py":32:48)
#loc19 = loc("inductor_cache/rz/crzkju7pxyalzapwjamrwxfxoddye4j5mhcsmqoji2u3nzuyt5t2.py":33:30)
#loc20 = loc("inductor_cache/rz/crzkju7pxyalzapwjamrwxfxoddye4j5mhcsmqoji2u3nzuyt5t2.py":33:35)
#loc21 = loc("inductor_cache/rz/crzkju7pxyalzapwjamrwxfxoddye4j5mhcsmqoji2u3nzuyt5t2.py":34:40)
#loc22 = loc("inductor_cache/rz/crzkju7pxyalzapwjamrwxfxoddye4j5mhcsmqoji2u3nzuyt5t2.py":34:35)
#loc23 = loc("inductor_cache/rz/crzkju7pxyalzapwjamrwxfxoddye4j5mhcsmqoji2u3nzuyt5t2.py":34:53)
#loc24 = loc("inductor_cache/rz/crzkju7pxyalzapwjamrwxfxoddye4j5mhcsmqoji2u3nzuyt5t2.py":34:45)
#loc25 = loc("inductor_cache/rz/crzkju7pxyalzapwjamrwxfxoddye4j5mhcsmqoji2u3nzuyt5t2.py":34:30)
#loc26 = loc("inductor_cache/rz/crzkju7pxyalzapwjamrwxfxoddye4j5mhcsmqoji2u3nzuyt5t2.py":34:58)
#loc27 = loc("inductor_cache/rz/crzkju7pxyalzapwjamrwxfxoddye4j5mhcsmqoji2u3nzuyt5t2.py":35:18)
#loc28 = loc("/home/sahanp/.conda/envs/parity-bench/lib/python3.12/site-packages/triton/language/standard.py":47:30)
#loc29 = loc("inductor_cache/rz/crzkju7pxyalzapwjamrwxfxoddye4j5mhcsmqoji2u3nzuyt5t2.py":36:22)
#loc30 = loc("/home/sahanp/.conda/envs/parity-bench/lib/python3.12/site-packages/triton/language/standard.py":47:29)
#loc31 = loc("/home/sahanp/.conda/envs/parity-bench/lib/python3.12/site-packages/triton/language/standard.py":47:20)
#loc32 = loc("/home/sahanp/.conda/envs/parity-bench/lib/python3.12/site-packages/triton/language/standard.py":47:16)
#loc33 = loc("/home/sahanp/.conda/envs/parity-bench/lib/python3.12/site-packages/torch/_inductor/runtime/triton_helpers.py":118:15)
#loc34 = loc("inductor_cache/rz/crzkju7pxyalzapwjamrwxfxoddye4j5mhcsmqoji2u3nzuyt5t2.py":38:40)
#loc35 = loc("/home/sahanp/.conda/envs/parity-bench/lib/python3.12/site-packages/torch/_inductor/runtime/triton_helpers.py":121:29)
#loc36 = loc("inductor_cache/rz/crzkju7pxyalzapwjamrwxfxoddye4j5mhcsmqoji2u3nzuyt5t2.py":39:18)
#loc37 = loc("inductor_cache/rz/crzkju7pxyalzapwjamrwxfxoddye4j5mhcsmqoji2u3nzuyt5t2.py":40:40)
#loc38 = loc("inductor_cache/rz/crzkju7pxyalzapwjamrwxfxoddye4j5mhcsmqoji2u3nzuyt5t2.py":41:4)
#loc39 = loc("inductor_cache/rz/crzkju7pxyalzapwjamrwxfxoddye4j5mhcsmqoji2u3nzuyt5t2.py":42:48)
#loc40 = loc("inductor_cache/rz/crzkju7pxyalzapwjamrwxfxoddye4j5mhcsmqoji2u3nzuyt5t2.py":42:4)
#loc41 = loc(callsite(#loc28 at #loc29))
#loc42 = loc(callsite(#loc30 at #loc29))
#loc43 = loc(callsite(#loc31 at #loc29))
#loc44 = loc(callsite(#loc32 at #loc29))
#loc45 = loc(callsite(#loc33 at #loc34))
#loc46 = loc(callsite(#loc35 at #loc34))
#loc47 = loc(callsite(#loc33 at #loc37))
#loc48 = loc(callsite(#loc35 at #loc37))
