#loc = loc("inductor_cache/r7/cr7nkw62la2fozwubtpnlpqisdlrhc6bhgril24kbiyjl7ut47ct.py":19:0)
#loc1 = loc(unknown)
#loc19 = loc("inductor_cache/r7/cr7nkw62la2fozwubtpnlpqisdlrhc6bhgril24kbiyjl7ut47ct.py":40:24)
#loc26 = loc("inductor_cache/r7/cr7nkw62la2fozwubtpnlpqisdlrhc6bhgril24kbiyjl7ut47ct.py":48:26)
#loc47 = loc(callsite(#loc1 at #loc19))
#loc50 = loc(callsite(#loc1 at #loc26))
module {
  tt.func public @triton_per_fused_convolution_native_layer_norm_relu_5(%arg0: !tt.ptr<f32> {tt.divisibility = 16 : i32} loc("inductor_cache/r7/cr7nkw62la2fozwubtpnlpqisdlrhc6bhgril24kbiyjl7ut47ct.py":19:0), %arg1: !tt.ptr<f32> {tt.divisibility = 16 : i32} loc("inductor_cache/r7/cr7nkw62la2fozwubtpnlpqisdlrhc6bhgril24kbiyjl7ut47ct.py":19:0), %arg2: !tt.ptr<f32> {tt.divisibility = 16 : i32} loc("inductor_cache/r7/cr7nkw62la2fozwubtpnlpqisdlrhc6bhgril24kbiyjl7ut47ct.py":19:0), %arg3: !tt.ptr<f32> {tt.divisibility = 16 : i32} loc("inductor_cache/r7/cr7nkw62la2fozwubtpnlpqisdlrhc6bhgril24kbiyjl7ut47ct.py":19:0), %arg4: !tt.ptr<f32> {tt.divisibility = 16 : i32} loc("inductor_cache/r7/cr7nkw62la2fozwubtpnlpqisdlrhc6bhgril24kbiyjl7ut47ct.py":19:0), %arg5: !tt.ptr<f32> {tt.divisibility = 16 : i32} loc("inductor_cache/r7/cr7nkw62la2fozwubtpnlpqisdlrhc6bhgril24kbiyjl7ut47ct.py":19:0), %arg6: !tt.ptr<f32> {tt.divisibility = 16 : i32} loc("inductor_cache/r7/cr7nkw62la2fozwubtpnlpqisdlrhc6bhgril24kbiyjl7ut47ct.py":19:0), %arg7: i32 loc("inductor_cache/r7/cr7nkw62la2fozwubtpnlpqisdlrhc6bhgril24kbiyjl7ut47ct.py":19:0), %arg8: i32 {tt.divisibility = 16 : i32} loc("inductor_cache/r7/cr7nkw62la2fozwubtpnlpqisdlrhc6bhgril24kbiyjl7ut47ct.py":19:0)) attributes {noinline = false} {
    %c128_i32 = arith.constant 128 : i32 loc(#loc1)
    %c4_i32 = arith.constant 4 : i32 loc(#loc1)
    %cst = arith.constant dense<9.99999974E-6> : tensor<1x1xf32> loc(#loc1)
    %cst_0 = arith.constant dense<1.280000e+02> : tensor<1x1xf32> loc(#loc1)
    %cst_1 = arith.constant dense<0.000000e+00> : tensor<1x128xf32> loc(#loc1)
    %0 = tt.get_program_id x : i32 loc(#loc2)
    %1 = arith.cmpi slt, %0, %c4_i32 : i32 loc(#loc3)
    %2 = tt.splat %1 : i1 -> tensor<1x1xi1> loc(#loc3)
    %3 = tt.make_range {end = 128 : i32, start = 0 : i32} : tensor<128xi32> loc(#loc4)
    %4 = tt.expand_dims %3 {axis = 0 : i32} : tensor<128xi32> -> tensor<1x128xi32> loc(#loc5)
    %5 = arith.muli %0, %c128_i32 : i32 loc(#loc6)
    %6 = tt.splat %5 : i32 -> tensor<1x128xi32> loc(#loc7)
    %7 = arith.addi %4, %6 : tensor<1x128xi32> loc(#loc7)
    %8 = tt.splat %arg0 : !tt.ptr<f32> -> tensor<1x128x!tt.ptr<f32>> loc(#loc8)
    %9 = tt.addptr %8, %7 : tensor<1x128x!tt.ptr<f32>>, tensor<1x128xi32> loc(#loc8)
    %10 = tt.splat %1 : i1 -> tensor<1x128xi1> loc(#loc9)
    %11 = tt.load %9, %10, %cst_1 : tensor<1x128x!tt.ptr<f32>> loc(#loc9)
    %12 = tt.splat %arg2 : !tt.ptr<f32> -> tensor<1x128x!tt.ptr<f32>> loc(#loc10)
    %13 = tt.addptr %12, %4 : tensor<1x128x!tt.ptr<f32>>, tensor<1x128xi32> loc(#loc10)
    %14 = tt.load %13 evictionPolicy = evict_last : tensor<1x128x!tt.ptr<f32>> loc(#loc11)
    %15 = tt.splat %arg3 : !tt.ptr<f32> -> tensor<1x128x!tt.ptr<f32>> loc(#loc12)
    %16 = tt.addptr %15, %4 : tensor<1x128x!tt.ptr<f32>>, tensor<1x128xi32> loc(#loc12)
    %17 = tt.load %16 evictionPolicy = evict_last : tensor<1x128x!tt.ptr<f32>> loc(#loc13)
    %18 = tt.splat %arg4 : !tt.ptr<f32> -> tensor<1x128x!tt.ptr<f32>> loc(#loc14)
    %19 = tt.addptr %18, %4 : tensor<1x128x!tt.ptr<f32>>, tensor<1x128xi32> loc(#loc14)
    %20 = tt.load %19 evictionPolicy = evict_last : tensor<1x128x!tt.ptr<f32>> loc(#loc15)
    %21 = arith.addf %11, %14 : tensor<1x128xf32> loc(#loc16)
    %22 = arith.select %10, %21, %cst_1 : tensor<1x128xi1>, tensor<1x128xf32> loc(#loc17)
    %23 = "tt.reduce"(%22) <{axis = 1 : i32}> ({
    ^bb0(%arg9: f32 loc(callsite(#loc1 at #loc19)), %arg10: f32 loc(callsite(#loc1 at #loc19))):
      %47 = arith.addf %arg9, %arg10 : f32 loc(#loc53)
      tt.reduce.return %47 : f32 loc(#loc46)
    }) : (tensor<1x128xf32>) -> tensor<1xf32> loc(#loc46)
    %24 = tt.expand_dims %23 {axis = 1 : i32} : tensor<1xf32> -> tensor<1x1xf32> loc(#loc21)
    %25 = arith.divf %24, %cst_0 : tensor<1x1xf32> loc(#loc22)
    %26 = tt.broadcast %25 : tensor<1x1xf32> -> tensor<1x128xf32> loc(#loc23)
    %27 = arith.subf %21, %26 : tensor<1x128xf32> loc(#loc23)
    %28 = arith.mulf %27, %27 : tensor<1x128xf32> loc(#loc24)
    %29 = arith.select %10, %28, %cst_1 : tensor<1x128xi1>, tensor<1x128xf32> loc(#loc25)
    %30 = "tt.reduce"(%29) <{axis = 1 : i32}> ({
    ^bb0(%arg9: f32 loc(callsite(#loc1 at #loc26)), %arg10: f32 loc(callsite(#loc1 at #loc26))):
      %47 = arith.addf %arg9, %arg10 : f32 loc(#loc54)
      tt.reduce.return %47 : f32 loc(#loc49)
    }) : (tensor<1x128xf32>) -> tensor<1xf32> loc(#loc49)
    %31 = tt.expand_dims %30 {axis = 1 : i32} : tensor<1xf32> -> tensor<1x1xf32> loc(#loc27)
    %32 = arith.divf %31, %cst_0 : tensor<1x1xf32> loc(#loc28)
    %33 = arith.addf %32, %cst : tensor<1x1xf32> loc(#loc29)
    %34 = tt.extern_elementwise %33 {libname = "", libpath = "", pure = true, symbol = "__nv_rsqrtf"} : (tensor<1x1xf32>) -> tensor<1x1xf32> loc(#loc30)
    %35 = tt.broadcast %34 : tensor<1x1xf32> -> tensor<1x128xf32> loc(#loc31)
    %36 = arith.mulf %27, %35 : tensor<1x128xf32> loc(#loc31)
    %37 = arith.mulf %36, %17 : tensor<1x128xf32> loc(#loc32)
    %38 = arith.addf %37, %20 : tensor<1x128xf32> loc(#loc33)
    %39 = arith.cmpf ogt, %cst_1, %38 : tensor<1x128xf32> loc(#loc51)
    %40 = arith.select %39, %cst_1, %38 : tensor<1x128xi1>, tensor<1x128xf32> loc(#loc52)
    tt.store %9, %21, %10 : tensor<1x128x!tt.ptr<f32>> loc(#loc37)
    gpu.barrier loc(#loc38)
    %41 = tt.addptr %arg1, %0 : !tt.ptr<f32>, i32 loc(#loc39)
    %42 = tt.splat %41 : !tt.ptr<f32> -> tensor<1x1x!tt.ptr<f32>> loc(#loc39)
    tt.store %42, %34, %2 : tensor<1x1x!tt.ptr<f32>> loc(#loc40)
    %43 = tt.splat %arg6 : !tt.ptr<f32> -> tensor<1x128x!tt.ptr<f32>> loc(#loc41)
    %44 = tt.addptr %43, %7 : tensor<1x128x!tt.ptr<f32>>, tensor<1x128xi32> loc(#loc41)
    tt.store %44, %40, %10 : tensor<1x128x!tt.ptr<f32>> loc(#loc42)
    %45 = tt.addptr %arg5, %0 : !tt.ptr<f32>, i32 loc(#loc43)
    %46 = tt.splat %45 : !tt.ptr<f32> -> tensor<1x1x!tt.ptr<f32>> loc(#loc43)
    tt.store %46, %25, %2 : tensor<1x1x!tt.ptr<f32>> loc(#loc44)
    tt.return loc(#loc45)
  } loc(#loc)
} loc(#loc)
#loc2 = loc("inductor_cache/r7/cr7nkw62la2fozwubtpnlpqisdlrhc6bhgril24kbiyjl7ut47ct.py":23:28)
#loc3 = loc("inductor_cache/r7/cr7nkw62la2fozwubtpnlpqisdlrhc6bhgril24kbiyjl7ut47ct.py":25:21)
#loc4 = loc("inductor_cache/r7/cr7nkw62la2fozwubtpnlpqisdlrhc6bhgril24kbiyjl7ut47ct.py":26:26)
#loc5 = loc("inductor_cache/r7/cr7nkw62la2fozwubtpnlpqisdlrhc6bhgril24kbiyjl7ut47ct.py":26:34)
#loc6 = loc("inductor_cache/r7/cr7nkw62la2fozwubtpnlpqisdlrhc6bhgril24kbiyjl7ut47ct.py":31:43)
#loc7 = loc("inductor_cache/r7/cr7nkw62la2fozwubtpnlpqisdlrhc6bhgril24kbiyjl7ut47ct.py":31:39)
#loc8 = loc("inductor_cache/r7/cr7nkw62la2fozwubtpnlpqisdlrhc6bhgril24kbiyjl7ut47ct.py":31:34)
#loc9 = loc("inductor_cache/r7/cr7nkw62la2fozwubtpnlpqisdlrhc6bhgril24kbiyjl7ut47ct.py":31:48)
#loc10 = loc("inductor_cache/r7/cr7nkw62la2fozwubtpnlpqisdlrhc6bhgril24kbiyjl7ut47ct.py":32:30)
#loc11 = loc("inductor_cache/r7/cr7nkw62la2fozwubtpnlpqisdlrhc6bhgril24kbiyjl7ut47ct.py":32:35)
#loc12 = loc("inductor_cache/r7/cr7nkw62la2fozwubtpnlpqisdlrhc6bhgril24kbiyjl7ut47ct.py":33:31)
#loc13 = loc("inductor_cache/r7/cr7nkw62la2fozwubtpnlpqisdlrhc6bhgril24kbiyjl7ut47ct.py":33:36)
#loc14 = loc("inductor_cache/r7/cr7nkw62la2fozwubtpnlpqisdlrhc6bhgril24kbiyjl7ut47ct.py":34:31)
#loc15 = loc("inductor_cache/r7/cr7nkw62la2fozwubtpnlpqisdlrhc6bhgril24kbiyjl7ut47ct.py":34:36)
#loc16 = loc("inductor_cache/r7/cr7nkw62la2fozwubtpnlpqisdlrhc6bhgril24kbiyjl7ut47ct.py":35:18)
#loc17 = loc("inductor_cache/r7/cr7nkw62la2fozwubtpnlpqisdlrhc6bhgril24kbiyjl7ut47ct.py":39:33)
#loc18 = loc("/home/sahanp/.conda/envs/parity-bench/lib/python3.12/site-packages/triton/language/standard.py":267:36)
#loc20 = loc("/home/sahanp/.conda/envs/parity-bench/lib/python3.12/site-packages/triton/language/standard.py":256:15)
#loc21 = loc("inductor_cache/r7/cr7nkw62la2fozwubtpnlpqisdlrhc6bhgril24kbiyjl7ut47ct.py":40:27)
#loc22 = loc("inductor_cache/r7/cr7nkw62la2fozwubtpnlpqisdlrhc6bhgril24kbiyjl7ut47ct.py":43:19)
#loc23 = loc("inductor_cache/r7/cr7nkw62la2fozwubtpnlpqisdlrhc6bhgril24kbiyjl7ut47ct.py":44:19)
#loc24 = loc("inductor_cache/r7/cr7nkw62la2fozwubtpnlpqisdlrhc6bhgril24kbiyjl7ut47ct.py":45:20)
#loc25 = loc("inductor_cache/r7/cr7nkw62la2fozwubtpnlpqisdlrhc6bhgril24kbiyjl7ut47ct.py":47:35)
#loc27 = loc("inductor_cache/r7/cr7nkw62la2fozwubtpnlpqisdlrhc6bhgril24kbiyjl7ut47ct.py":48:29)
#loc28 = loc("inductor_cache/r7/cr7nkw62la2fozwubtpnlpqisdlrhc6bhgril24kbiyjl7ut47ct.py":50:20)
#loc29 = loc("inductor_cache/r7/cr7nkw62la2fozwubtpnlpqisdlrhc6bhgril24kbiyjl7ut47ct.py":52:20)
#loc30 = loc("inductor_cache/r7/cr7nkw62la2fozwubtpnlpqisdlrhc6bhgril24kbiyjl7ut47ct.py":53:28)
#loc31 = loc("inductor_cache/r7/cr7nkw62la2fozwubtpnlpqisdlrhc6bhgril24kbiyjl7ut47ct.py":55:20)
#loc32 = loc("inductor_cache/r7/cr7nkw62la2fozwubtpnlpqisdlrhc6bhgril24kbiyjl7ut47ct.py":56:20)
#loc33 = loc("inductor_cache/r7/cr7nkw62la2fozwubtpnlpqisdlrhc6bhgril24kbiyjl7ut47ct.py":57:20)
#loc34 = loc("/home/sahanp/.conda/envs/parity-bench/lib/python3.12/site-packages/torch/_inductor/runtime/triton_helpers.py":118:15)
#loc35 = loc("inductor_cache/r7/cr7nkw62la2fozwubtpnlpqisdlrhc6bhgril24kbiyjl7ut47ct.py":59:42)
#loc36 = loc("/home/sahanp/.conda/envs/parity-bench/lib/python3.12/site-packages/torch/_inductor/runtime/triton_helpers.py":121:29)
#loc37 = loc("inductor_cache/r7/cr7nkw62la2fozwubtpnlpqisdlrhc6bhgril24kbiyjl7ut47ct.py":60:48)
#loc38 = loc("inductor_cache/r7/cr7nkw62la2fozwubtpnlpqisdlrhc6bhgril24kbiyjl7ut47ct.py":61:4)
#loc39 = loc("inductor_cache/r7/cr7nkw62la2fozwubtpnlpqisdlrhc6bhgril24kbiyjl7ut47ct.py":62:28)
#loc40 = loc("inductor_cache/r7/cr7nkw62la2fozwubtpnlpqisdlrhc6bhgril24kbiyjl7ut47ct.py":62:40)
#loc41 = loc("inductor_cache/r7/cr7nkw62la2fozwubtpnlpqisdlrhc6bhgril24kbiyjl7ut47ct.py":63:25)
#loc42 = loc("inductor_cache/r7/cr7nkw62la2fozwubtpnlpqisdlrhc6bhgril24kbiyjl7ut47ct.py":63:46)
#loc43 = loc("inductor_cache/r7/cr7nkw62la2fozwubtpnlpqisdlrhc6bhgril24kbiyjl7ut47ct.py":64:25)
#loc44 = loc("inductor_cache/r7/cr7nkw62la2fozwubtpnlpqisdlrhc6bhgril24kbiyjl7ut47ct.py":64:37)
#loc45 = loc("inductor_cache/r7/cr7nkw62la2fozwubtpnlpqisdlrhc6bhgril24kbiyjl7ut47ct.py":64:4)
#loc46 = loc(callsite(#loc18 at #loc19))
#loc48 = loc(callsite(#loc20 at #loc18))
#loc49 = loc(callsite(#loc18 at #loc26))
#loc51 = loc(callsite(#loc34 at #loc35))
#loc52 = loc(callsite(#loc36 at #loc35))
#loc53 = loc(callsite(#loc48 at #loc19))
#loc54 = loc(callsite(#loc48 at #loc26))
