#loc = loc("inductor_cache/b2/cb2fox44rt6ogiihra7ub3gdnco2f3lmglgwkfewnxtg2eggcedr.py":19:0)
#loc1 = loc(unknown)
#loc17 = loc("inductor_cache/b2/cb2fox44rt6ogiihra7ub3gdnco2f3lmglgwkfewnxtg2eggcedr.py":38:57)
#loc34 = loc(callsite(#loc1 at #loc17))
module {
  tt.func public @triton_per_fused_add_mean_30(%arg0: !tt.ptr<f32> {tt.divisibility = 16 : i32} loc("inductor_cache/b2/cb2fox44rt6ogiihra7ub3gdnco2f3lmglgwkfewnxtg2eggcedr.py":19:0), %arg1: !tt.ptr<f32> {tt.divisibility = 16 : i32} loc("inductor_cache/b2/cb2fox44rt6ogiihra7ub3gdnco2f3lmglgwkfewnxtg2eggcedr.py":19:0), %arg2: !tt.ptr<f32> {tt.divisibility = 16 : i32} loc("inductor_cache/b2/cb2fox44rt6ogiihra7ub3gdnco2f3lmglgwkfewnxtg2eggcedr.py":19:0), %arg3: !tt.ptr<f32> {tt.divisibility = 16 : i32} loc("inductor_cache/b2/cb2fox44rt6ogiihra7ub3gdnco2f3lmglgwkfewnxtg2eggcedr.py":19:0), %arg4: !tt.ptr<f32> {tt.divisibility = 16 : i32} loc("inductor_cache/b2/cb2fox44rt6ogiihra7ub3gdnco2f3lmglgwkfewnxtg2eggcedr.py":19:0), %arg5: i32 loc("inductor_cache/b2/cb2fox44rt6ogiihra7ub3gdnco2f3lmglgwkfewnxtg2eggcedr.py":19:0), %arg6: i32 {tt.divisibility = 16 : i32} loc("inductor_cache/b2/cb2fox44rt6ogiihra7ub3gdnco2f3lmglgwkfewnxtg2eggcedr.py":19:0)) attributes {noinline = false} {
    %cst = arith.constant 1.024000e+03 : f32 loc(#loc1)
    %cst_0 = arith.constant 0.000000e+00 : f32 loc(#loc1)
    %c1024_i32 = arith.constant 1024 : i32 loc(#loc1)
    %cst_1 = arith.constant dense<4.096000e+03> : tensor<1xf32> loc(#loc1)
    %cst_2 = arith.constant dense<1.638400e+04> : tensor<1xf32> loc(#loc1)
    %cst_3 = arith.constant dense<6.553600e+04> : tensor<1xf32> loc(#loc1)
    %cst_4 = arith.constant dense<2.621440e+05> : tensor<1xf32> loc(#loc1)
    %0 = tt.get_program_id x : i32 loc(#loc2)
    %1 = tt.make_range {end = 1024 : i32, start = 0 : i32} : tensor<1024xi32> loc(#loc3)
    %2 = arith.muli %0, %c1024_i32 : i32 loc(#loc4)
    %3 = tt.splat %2 : i32 -> tensor<1024xi32> loc(#loc5)
    %4 = arith.addi %1, %3 : tensor<1024xi32> loc(#loc5)
    %5 = tt.splat %arg1 : !tt.ptr<f32> -> tensor<1024x!tt.ptr<f32>> loc(#loc6)
    %6 = tt.addptr %5, %4 : tensor<1024x!tt.ptr<f32>>, tensor<1024xi32> loc(#loc6)
    %7 = tt.load %6 : tensor<1024x!tt.ptr<f32>> loc(#loc7)
    %8 = tt.addptr %arg0, %0 : !tt.ptr<f32>, i32 loc(#loc8)
    %9 = tt.splat %8 : !tt.ptr<f32> -> tensor<1x!tt.ptr<f32>> loc(#loc8)
    %10 = tt.load %9 evictionPolicy = evict_last : tensor<1x!tt.ptr<f32>> loc(#loc9)
    %11 = tt.addptr %arg2, %0 : !tt.ptr<f32>, i32 loc(#loc10)
    %12 = tt.splat %11 : !tt.ptr<f32> -> tensor<1x!tt.ptr<f32>> loc(#loc10)
    %13 = tt.load %12 evictionPolicy = evict_last : tensor<1x!tt.ptr<f32>> loc(#loc11)
    %14 = tt.addptr %arg3, %0 : !tt.ptr<f32>, i32 loc(#loc12)
    %15 = tt.splat %14 : !tt.ptr<f32> -> tensor<1x!tt.ptr<f32>> loc(#loc12)
    %16 = tt.load %15 evictionPolicy = evict_last : tensor<1x!tt.ptr<f32>> loc(#loc13)
    %17 = tt.addptr %arg4, %0 : !tt.ptr<f32>, i32 loc(#loc14)
    %18 = tt.splat %17 : !tt.ptr<f32> -> tensor<1x!tt.ptr<f32>> loc(#loc14)
    %19 = tt.load %18 evictionPolicy = evict_last : tensor<1x!tt.ptr<f32>> loc(#loc15)
    %20 = "tt.reduce"(%7) <{axis = 0 : i32}> ({
    ^bb0(%arg7: f32 loc(callsite(#loc1 at #loc17)), %arg8: f32 loc(callsite(#loc1 at #loc17))):
      %32 = arith.addf %arg7, %arg8 : f32 loc(#loc37)
      tt.reduce.return %32 : f32 loc(#loc33)
    }) : (tensor<1024xf32>) -> f32 loc(#loc33)
    %21 = arith.addf %20, %cst_0 : f32 loc(#loc36)
    %22 = arith.divf %10, %cst_4 : tensor<1xf32> loc(#loc21)
    %23 = arith.divf %13, %cst_3 : tensor<1xf32> loc(#loc22)
    %24 = arith.addf %22, %23 : tensor<1xf32> loc(#loc23)
    %25 = arith.divf %16, %cst_2 : tensor<1xf32> loc(#loc24)
    %26 = arith.addf %24, %25 : tensor<1xf32> loc(#loc25)
    %27 = arith.divf %19, %cst_1 : tensor<1xf32> loc(#loc26)
    %28 = arith.addf %26, %27 : tensor<1xf32> loc(#loc27)
    %29 = arith.divf %21, %cst : f32 loc(#loc28)
    %30 = tt.splat %29 : f32 -> tensor<1xf32> loc(#loc28)
    %31 = arith.addf %28, %30 : tensor<1xf32> loc(#loc29)
    gpu.barrier loc(#loc30)
    tt.store %9, %31 : tensor<1x!tt.ptr<f32>> loc(#loc31)
    tt.return loc(#loc32)
  } loc(#loc)
} loc(#loc)
#loc2 = loc("inductor_cache/b2/cb2fox44rt6ogiihra7ub3gdnco2f3lmglgwkfewnxtg2eggcedr.py":24:28)
#loc3 = loc("inductor_cache/b2/cb2fox44rt6ogiihra7ub3gdnco2f3lmglgwkfewnxtg2eggcedr.py":27:26)
#loc4 = loc("inductor_cache/b2/cb2fox44rt6ogiihra7ub3gdnco2f3lmglgwkfewnxtg2eggcedr.py":32:40)
#loc5 = loc("inductor_cache/b2/cb2fox44rt6ogiihra7ub3gdnco2f3lmglgwkfewnxtg2eggcedr.py":32:35)
#loc6 = loc("inductor_cache/b2/cb2fox44rt6ogiihra7ub3gdnco2f3lmglgwkfewnxtg2eggcedr.py":32:30)
#loc7 = loc("inductor_cache/b2/cb2fox44rt6ogiihra7ub3gdnco2f3lmglgwkfewnxtg2eggcedr.py":32:45)
#loc8 = loc("inductor_cache/b2/cb2fox44rt6ogiihra7ub3gdnco2f3lmglgwkfewnxtg2eggcedr.py":33:34)
#loc9 = loc("inductor_cache/b2/cb2fox44rt6ogiihra7ub3gdnco2f3lmglgwkfewnxtg2eggcedr.py":33:39)
#loc10 = loc("inductor_cache/b2/cb2fox44rt6ogiihra7ub3gdnco2f3lmglgwkfewnxtg2eggcedr.py":34:30)
#loc11 = loc("inductor_cache/b2/cb2fox44rt6ogiihra7ub3gdnco2f3lmglgwkfewnxtg2eggcedr.py":34:35)
#loc12 = loc("inductor_cache/b2/cb2fox44rt6ogiihra7ub3gdnco2f3lmglgwkfewnxtg2eggcedr.py":35:31)
#loc13 = loc("inductor_cache/b2/cb2fox44rt6ogiihra7ub3gdnco2f3lmglgwkfewnxtg2eggcedr.py":35:36)
#loc14 = loc("inductor_cache/b2/cb2fox44rt6ogiihra7ub3gdnco2f3lmglgwkfewnxtg2eggcedr.py":36:31)
#loc15 = loc("inductor_cache/b2/cb2fox44rt6ogiihra7ub3gdnco2f3lmglgwkfewnxtg2eggcedr.py":36:36)
#loc16 = loc("/home/sahanp/.conda/envs/parity-bench/lib/python3.12/site-packages/triton/language/standard.py":267:36)
#loc18 = loc("/home/sahanp/.conda/envs/parity-bench/lib/python3.12/site-packages/triton/language/standard.py":256:15)
#loc19 = loc("/home/sahanp/.conda/envs/parity-bench/lib/python3.12/site-packages/torch/_inductor/runtime/triton_helpers.py":73:15)
#loc20 = loc("inductor_cache/b2/cb2fox44rt6ogiihra7ub3gdnco2f3lmglgwkfewnxtg2eggcedr.py":38:44)
#loc21 = loc("inductor_cache/b2/cb2fox44rt6ogiihra7ub3gdnco2f3lmglgwkfewnxtg2eggcedr.py":40:18)
#loc22 = loc("inductor_cache/b2/cb2fox44rt6ogiihra7ub3gdnco2f3lmglgwkfewnxtg2eggcedr.py":42:18)
#loc23 = loc("inductor_cache/b2/cb2fox44rt6ogiihra7ub3gdnco2f3lmglgwkfewnxtg2eggcedr.py":43:19)
#loc24 = loc("inductor_cache/b2/cb2fox44rt6ogiihra7ub3gdnco2f3lmglgwkfewnxtg2eggcedr.py":45:20)
#loc25 = loc("inductor_cache/b2/cb2fox44rt6ogiihra7ub3gdnco2f3lmglgwkfewnxtg2eggcedr.py":46:20)
#loc26 = loc("inductor_cache/b2/cb2fox44rt6ogiihra7ub3gdnco2f3lmglgwkfewnxtg2eggcedr.py":48:20)
#loc27 = loc("inductor_cache/b2/cb2fox44rt6ogiihra7ub3gdnco2f3lmglgwkfewnxtg2eggcedr.py":49:20)
#loc28 = loc("inductor_cache/b2/cb2fox44rt6ogiihra7ub3gdnco2f3lmglgwkfewnxtg2eggcedr.py":51:19)
#loc29 = loc("inductor_cache/b2/cb2fox44rt6ogiihra7ub3gdnco2f3lmglgwkfewnxtg2eggcedr.py":52:20)
#loc30 = loc("inductor_cache/b2/cb2fox44rt6ogiihra7ub3gdnco2f3lmglgwkfewnxtg2eggcedr.py":53:4)
#loc31 = loc("inductor_cache/b2/cb2fox44rt6ogiihra7ub3gdnco2f3lmglgwkfewnxtg2eggcedr.py":54:40)
#loc32 = loc("inductor_cache/b2/cb2fox44rt6ogiihra7ub3gdnco2f3lmglgwkfewnxtg2eggcedr.py":54:4)
#loc33 = loc(callsite(#loc16 at #loc17))
#loc35 = loc(callsite(#loc18 at #loc16))
#loc36 = loc(callsite(#loc19 at #loc20))
#loc37 = loc(callsite(#loc35 at #loc17))
