#loc = loc("inductor_cache/qg/cqggexi6lqdd5nki6rjumgz6khoyp4nckbiq2ykuv5btcmjnd63f.py":19:0)
module {
  tt.func public @triton_poi_fused_add_mul_pow_tanh_8(%arg0: !tt.ptr<f32> {tt.divisibility = 16 : i32} loc("inductor_cache/qg/cqggexi6lqdd5nki6rjumgz6khoyp4nckbiq2ykuv5btcmjnd63f.py":19:0), %arg1: !tt.ptr<f32> {tt.divisibility = 16 : i32} loc("inductor_cache/qg/cqggexi6lqdd5nki6rjumgz6khoyp4nckbiq2ykuv5btcmjnd63f.py":19:0), %arg2: i32 {tt.divisibility = 16 : i32} loc("inductor_cache/qg/cqggexi6lqdd5nki6rjumgz6khoyp4nckbiq2ykuv5btcmjnd63f.py":19:0)) attributes {noinline = false} {
    %cst = arith.constant dense<1.000000e+00> : tensor<64xf32> loc(#loc1)
    %cst_0 = arith.constant dense<0.797884583> : tensor<64xf32> loc(#loc1)
    %cst_1 = arith.constant dense<4.471500e-02> : tensor<64xf32> loc(#loc1)
    %cst_2 = arith.constant dense<5.000000e-01> : tensor<64xf32> loc(#loc1)
    %cst_3 = arith.constant dense<64> : tensor<64xi32> loc(#loc1)
    %c64_i32 = arith.constant 64 : i32 loc(#loc1)
    %0 = tt.get_program_id x : i32 loc(#loc2)
    %1 = arith.muli %0, %c64_i32 : i32 loc(#loc3)
    %2 = tt.make_range {end = 64 : i32, start = 0 : i32} : tensor<64xi32> loc(#loc4)
    %3 = tt.splat %1 : i32 -> tensor<64xi32> loc(#loc5)
    %4 = arith.addi %3, %2 : tensor<64xi32> loc(#loc5)
    %5 = arith.cmpi slt, %4, %cst_3 : tensor<64xi32> loc(#loc6)
    %6 = tt.splat %arg0 : !tt.ptr<f32> -> tensor<64x!tt.ptr<f32>> loc(#loc7)
    %7 = tt.addptr %6, %4 : tensor<64x!tt.ptr<f32>>, tensor<64xi32> loc(#loc7)
    %8 = tt.load %7, %5 : tensor<64x!tt.ptr<f32>> loc(#loc8)
    %9 = arith.mulf %8, %cst_2 : tensor<64xf32> loc(#loc9)
    %10 = arith.mulf %8, %8 : tensor<64xf32> loc(#loc10)
    %11 = arith.mulf %10, %8 : tensor<64xf32> loc(#loc11)
    %12 = arith.mulf %11, %cst_1 : tensor<64xf32> loc(#loc12)
    %13 = arith.addf %8, %12 : tensor<64xf32> loc(#loc13)
    %14 = arith.mulf %13, %cst_0 : tensor<64xf32> loc(#loc14)
    %15 = tt.extern_elementwise %14 {libname = "", libpath = "", pure = true, symbol = "__nv_tanhf"} : (tensor<64xf32>) -> tensor<64xf32> loc(#loc15)
    %16 = arith.addf %15, %cst : tensor<64xf32> loc(#loc16)
    %17 = arith.mulf %9, %16 : tensor<64xf32> loc(#loc17)
    %18 = tt.splat %arg1 : !tt.ptr<f32> -> tensor<64x!tt.ptr<f32>> loc(#loc18)
    %19 = tt.addptr %18, %4 : tensor<64x!tt.ptr<f32>>, tensor<64xi32> loc(#loc18)
    tt.store %19, %17, %5 : tensor<64x!tt.ptr<f32>> loc(#loc19)
    tt.return loc(#loc20)
  } loc(#loc)
} loc(#loc)
#loc1 = loc(unknown)
#loc2 = loc("inductor_cache/qg/cqggexi6lqdd5nki6rjumgz6khoyp4nckbiq2ykuv5btcmjnd63f.py":21:28)
#loc3 = loc("inductor_cache/qg/cqggexi6lqdd5nki6rjumgz6khoyp4nckbiq2ykuv5btcmjnd63f.py":21:33)
#loc4 = loc("inductor_cache/qg/cqggexi6lqdd5nki6rjumgz6khoyp4nckbiq2ykuv5btcmjnd63f.py":22:36)
#loc5 = loc("inductor_cache/qg/cqggexi6lqdd5nki6rjumgz6khoyp4nckbiq2ykuv5btcmjnd63f.py":22:23)
#loc6 = loc("inductor_cache/qg/cqggexi6lqdd5nki6rjumgz6khoyp4nckbiq2ykuv5btcmjnd63f.py":23:21)
#loc7 = loc("inductor_cache/qg/cqggexi6lqdd5nki6rjumgz6khoyp4nckbiq2ykuv5btcmjnd63f.py":25:30)
#loc8 = loc("inductor_cache/qg/cqggexi6lqdd5nki6rjumgz6khoyp4nckbiq2ykuv5btcmjnd63f.py":25:35)
#loc9 = loc("inductor_cache/qg/cqggexi6lqdd5nki6rjumgz6khoyp4nckbiq2ykuv5btcmjnd63f.py":27:18)
#loc10 = loc("inductor_cache/qg/cqggexi6lqdd5nki6rjumgz6khoyp4nckbiq2ykuv5btcmjnd63f.py":28:18)
#loc11 = loc("inductor_cache/qg/cqggexi6lqdd5nki6rjumgz6khoyp4nckbiq2ykuv5btcmjnd63f.py":29:18)
#loc12 = loc("inductor_cache/qg/cqggexi6lqdd5nki6rjumgz6khoyp4nckbiq2ykuv5btcmjnd63f.py":31:18)
#loc13 = loc("inductor_cache/qg/cqggexi6lqdd5nki6rjumgz6khoyp4nckbiq2ykuv5btcmjnd63f.py":32:18)
#loc14 = loc("inductor_cache/qg/cqggexi6lqdd5nki6rjumgz6khoyp4nckbiq2ykuv5btcmjnd63f.py":34:18)
#loc15 = loc("inductor_cache/qg/cqggexi6lqdd5nki6rjumgz6khoyp4nckbiq2ykuv5btcmjnd63f.py":35:27)
#loc16 = loc("inductor_cache/qg/cqggexi6lqdd5nki6rjumgz6khoyp4nckbiq2ykuv5btcmjnd63f.py":37:20)
#loc17 = loc("inductor_cache/qg/cqggexi6lqdd5nki6rjumgz6khoyp4nckbiq2ykuv5btcmjnd63f.py":38:19)
#loc18 = loc("inductor_cache/qg/cqggexi6lqdd5nki6rjumgz6khoyp4nckbiq2ykuv5btcmjnd63f.py":39:25)
#loc19 = loc("inductor_cache/qg/cqggexi6lqdd5nki6rjumgz6khoyp4nckbiq2ykuv5btcmjnd63f.py":39:37)
#loc20 = loc("inductor_cache/qg/cqggexi6lqdd5nki6rjumgz6khoyp4nckbiq2ykuv5btcmjnd63f.py":39:4)
