#loc = loc("inductor_cache/gb/cgbbkkab7sejqu67qn7ieuoegpwwf3j6k3azxf364lluyvehunla.py":19:0)
module {
  tt.func public @triton_poi_fused_avg_pool2d_max_pool2d_with_indices_12(%arg0: !tt.ptr<f32> {tt.divisibility = 16 : i32} loc("inductor_cache/gb/cgbbkkab7sejqu67qn7ieuoegpwwf3j6k3azxf364lluyvehunla.py":19:0), %arg1: !tt.ptr<f32> {tt.divisibility = 16 : i32} loc("inductor_cache/gb/cgbbkkab7sejqu67qn7ieuoegpwwf3j6k3azxf364lluyvehunla.py":19:0), %arg2: !tt.ptr<i8> {tt.divisibility = 16 : i32} loc("inductor_cache/gb/cgbbkkab7sejqu67qn7ieuoegpwwf3j6k3azxf364lluyvehunla.py":19:0), %arg3: !tt.ptr<f32> {tt.divisibility = 16 : i32} loc("inductor_cache/gb/cgbbkkab7sejqu67qn7ieuoegpwwf3j6k3azxf364lluyvehunla.py":19:0), %arg4: i32 {tt.divisibility = 16 : i32} loc("inductor_cache/gb/cgbbkkab7sejqu67qn7ieuoegpwwf3j6k3azxf364lluyvehunla.py":19:0)) attributes {noinline = false} {
    %cst = arith.constant dense<512> : tensor<256xi32> loc(#loc1)
    %cst_0 = arith.constant dense<-2> : tensor<256xi32> loc(#loc1)
    %cst_1 = arith.constant dense<0.000000e+00> : tensor<256xf32> loc(#loc1)
    %cst_2 = arith.constant dense<8> : tensor<256xi8> loc(#loc1)
    %cst_3 = arith.constant dense<7> : tensor<256xi8> loc(#loc1)
    %cst_4 = arith.constant dense<6> : tensor<256xi8> loc(#loc1)
    %cst_5 = arith.constant dense<5> : tensor<256xi8> loc(#loc1)
    %cst_6 = arith.constant dense<4> : tensor<256xi8> loc(#loc1)
    %cst_7 = arith.constant dense<3> : tensor<256xi8> loc(#loc1)
    %cst_8 = arith.constant dense<2> : tensor<256xi8> loc(#loc1)
    %cst_9 = arith.constant dense<0> : tensor<256xi8> loc(#loc1)
    %cst_10 = arith.constant dense<1> : tensor<256xi8> loc(#loc1)
    %cst_11 = arith.constant dense<5> : tensor<256xi32> loc(#loc1)
    %cst_12 = arith.constant dense<4> : tensor<256xi32> loc(#loc1)
    %cst_13 = arith.constant dense<3> : tensor<256xi32> loc(#loc1)
    %cst_14 = arith.constant dense<-3> : tensor<256xi32> loc(#loc1)
    %cst_15 = arith.constant dense<1> : tensor<256xi32> loc(#loc1)
    %cst_16 = arith.constant dense<-4> : tensor<256xi32> loc(#loc1)
    %cst_17 = arith.constant dense<0xFF800000> : tensor<256xf32> loc(#loc1)
    %cst_18 = arith.constant dense<8> : tensor<256xi32> loc(#loc1)
    %cst_19 = arith.constant dense<-5> : tensor<256xi32> loc(#loc1)
    %cst_20 = arith.constant dense<4> : tensor<256xi64> loc(#loc1)
    %cst_21 = arith.constant dense<0> : tensor<256xi64> loc(#loc1)
    %cst_22 = arith.constant dense<-1> : tensor<256xi32> loc(#loc1)
    %cst_23 = arith.constant dense<256> : tensor<256xi32> loc(#loc1)
    %cst_24 = arith.constant dense<2> : tensor<256xi32> loc(#loc1)
    %cst_25 = arith.constant dense<1024> : tensor<256xi32> loc(#loc1)
    %c256_i32 = arith.constant 256 : i32 loc(#loc1)
    %0 = tt.get_program_id x : i32 loc(#loc2)
    %1 = arith.muli %0, %c256_i32 : i32 loc(#loc3)
    %2 = tt.make_range {end = 256 : i32, start = 0 : i32} : tensor<256xi32> loc(#loc4)
    %3 = tt.splat %1 : i32 -> tensor<256xi32> loc(#loc5)
    %4 = arith.addi %3, %2 : tensor<256xi32> loc(#loc5)
    %5 = arith.cmpi slt, %4, %cst_25 : tensor<256xi32> loc(#loc6)
    %6 = arith.divsi %4, %cst_24 : tensor<256xi32> loc(#loc7)
    %7 = arith.remsi %6, %cst_24 : tensor<256xi32> loc(#loc8)
    %8 = arith.remsi %4, %cst_24 : tensor<256xi32> loc(#loc9)
    %9 = arith.divsi %4, %cst_23 : tensor<256xi32> loc(#loc10)
    %10 = arith.remsi %4, %cst_23 : tensor<256xi32> loc(#loc11)
    %11 = arith.muli %7, %cst_24 : tensor<256xi32> loc(#loc12)
    %12 = arith.addi %11, %cst_22 : tensor<256xi32> loc(#loc13)
    %13 = arith.extsi %12 : tensor<256xi32> to tensor<256xi64> loc(#loc14)
    %14 = arith.cmpi sge, %13, %cst_21 : tensor<256xi64> loc(#loc14)
    %15 = arith.cmpi slt, %13, %cst_20 : tensor<256xi64> loc(#loc15)
    %16 = arith.andi %14, %15 : tensor<256xi1> loc(#loc16)
    %17 = arith.muli %8, %cst_24 : tensor<256xi32> loc(#loc17)
    %18 = arith.addi %17, %cst_22 : tensor<256xi32> loc(#loc18)
    %19 = arith.extsi %18 : tensor<256xi32> to tensor<256xi64> loc(#loc19)
    %20 = arith.cmpi sge, %19, %cst_21 : tensor<256xi64> loc(#loc19)
    %21 = arith.cmpi slt, %19, %cst_20 : tensor<256xi64> loc(#loc20)
    %22 = arith.andi %20, %21 : tensor<256xi1> loc(#loc21)
    %23 = arith.andi %16, %22 : tensor<256xi1> loc(#loc22)
    %24 = arith.addi %17, %cst_19 : tensor<256xi32> loc(#loc23)
    %25 = arith.muli %6, %cst_18 : tensor<256xi32> loc(#loc24)
    %26 = arith.addi %24, %25 : tensor<256xi32> loc(#loc25)
    %27 = tt.splat %arg0 : !tt.ptr<f32> -> tensor<256x!tt.ptr<f32>> loc(#loc26)
    %28 = tt.addptr %27, %26 : tensor<256x!tt.ptr<f32>>, tensor<256xi32> loc(#loc26)
    %29 = arith.andi %23, %5 : tensor<256xi1> loc(#loc27)
    %30 = tt.load %28, %29, %cst_17 evictionPolicy = evict_last : tensor<256x!tt.ptr<f32>> loc(#loc28)
    %31 = arith.extsi %17 : tensor<256xi32> to tensor<256xi64> loc(#loc29)
    %32 = arith.cmpi sge, %31, %cst_21 : tensor<256xi64> loc(#loc29)
    %33 = arith.cmpi slt, %31, %cst_20 : tensor<256xi64> loc(#loc30)
    %34 = arith.andi %32, %33 : tensor<256xi1> loc(#loc31)
    %35 = arith.andi %16, %34 : tensor<256xi1> loc(#loc32)
    %36 = arith.addi %17, %cst_16 : tensor<256xi32> loc(#loc33)
    %37 = arith.addi %36, %25 : tensor<256xi32> loc(#loc34)
    %38 = tt.addptr %27, %37 : tensor<256x!tt.ptr<f32>>, tensor<256xi32> loc(#loc35)
    %39 = arith.andi %35, %5 : tensor<256xi1> loc(#loc36)
    %40 = tt.load %38, %39, %cst_17 evictionPolicy = evict_last : tensor<256x!tt.ptr<f32>> loc(#loc37)
    %41 = arith.cmpf ogt, %40, %30 : tensor<256xf32> loc(#loc162)
    %42 = arith.cmpf une, %40, %40 : tensor<256xf32> loc(#loc163)
    %43 = arith.ori %41, %42 : tensor<256xi1> loc(#loc164)
    %44 = arith.select %43, %40, %30 : tensor<256xi1>, tensor<256xf32> loc(#loc165)
    %45 = arith.addi %17, %cst_15 : tensor<256xi32> loc(#loc43)
    %46 = arith.extsi %45 : tensor<256xi32> to tensor<256xi64> loc(#loc44)
    %47 = arith.cmpi sge, %46, %cst_21 : tensor<256xi64> loc(#loc44)
    %48 = arith.cmpi slt, %46, %cst_20 : tensor<256xi64> loc(#loc45)
    %49 = arith.andi %47, %48 : tensor<256xi1> loc(#loc46)
    %50 = arith.andi %16, %49 : tensor<256xi1> loc(#loc47)
    %51 = arith.addi %17, %cst_14 : tensor<256xi32> loc(#loc48)
    %52 = arith.addi %51, %25 : tensor<256xi32> loc(#loc49)
    %53 = tt.addptr %27, %52 : tensor<256x!tt.ptr<f32>>, tensor<256xi32> loc(#loc50)
    %54 = arith.andi %50, %5 : tensor<256xi1> loc(#loc51)
    %55 = tt.load %53, %54, %cst_17 evictionPolicy = evict_last : tensor<256x!tt.ptr<f32>> loc(#loc52)
    %56 = arith.cmpf ogt, %55, %44 : tensor<256xf32> loc(#loc166)
    %57 = arith.cmpf une, %55, %55 : tensor<256xf32> loc(#loc167)
    %58 = arith.ori %56, %57 : tensor<256xi1> loc(#loc168)
    %59 = arith.select %58, %55, %44 : tensor<256xi1>, tensor<256xf32> loc(#loc169)
    %60 = arith.extsi %11 : tensor<256xi32> to tensor<256xi64> loc(#loc54)
    %61 = arith.cmpi sge, %60, %cst_21 : tensor<256xi64> loc(#loc54)
    %62 = arith.cmpi slt, %60, %cst_20 : tensor<256xi64> loc(#loc55)
    %63 = arith.andi %61, %62 : tensor<256xi1> loc(#loc56)
    %64 = arith.andi %63, %22 : tensor<256xi1> loc(#loc57)
    %65 = arith.addi %18, %25 : tensor<256xi32> loc(#loc58)
    %66 = tt.addptr %27, %65 : tensor<256x!tt.ptr<f32>>, tensor<256xi32> loc(#loc59)
    %67 = arith.andi %64, %5 : tensor<256xi1> loc(#loc60)
    %68 = tt.load %66, %67, %cst_17 evictionPolicy = evict_last : tensor<256x!tt.ptr<f32>> loc(#loc61)
    %69 = arith.cmpf ogt, %68, %59 : tensor<256xf32> loc(#loc170)
    %70 = arith.cmpf une, %68, %68 : tensor<256xf32> loc(#loc171)
    %71 = arith.ori %69, %70 : tensor<256xi1> loc(#loc172)
    %72 = arith.select %71, %68, %59 : tensor<256xi1>, tensor<256xf32> loc(#loc173)
    %73 = arith.andi %63, %34 : tensor<256xi1> loc(#loc63)
    %74 = arith.addi %17, %25 : tensor<256xi32> loc(#loc64)
    %75 = tt.addptr %27, %74 : tensor<256x!tt.ptr<f32>>, tensor<256xi32> loc(#loc65)
    %76 = arith.andi %73, %5 : tensor<256xi1> loc(#loc66)
    %77 = tt.load %75, %76, %cst_17 evictionPolicy = evict_last : tensor<256x!tt.ptr<f32>> loc(#loc67)
    %78 = arith.cmpf ogt, %77, %72 : tensor<256xf32> loc(#loc174)
    %79 = arith.cmpf une, %77, %77 : tensor<256xf32> loc(#loc175)
    %80 = arith.ori %78, %79 : tensor<256xi1> loc(#loc176)
    %81 = arith.select %80, %77, %72 : tensor<256xi1>, tensor<256xf32> loc(#loc177)
    %82 = arith.andi %63, %49 : tensor<256xi1> loc(#loc69)
    %83 = arith.addi %45, %25 : tensor<256xi32> loc(#loc70)
    %84 = tt.addptr %27, %83 : tensor<256x!tt.ptr<f32>>, tensor<256xi32> loc(#loc71)
    %85 = arith.andi %82, %5 : tensor<256xi1> loc(#loc72)
    %86 = tt.load %84, %85, %cst_17 evictionPolicy = evict_last : tensor<256x!tt.ptr<f32>> loc(#loc73)
    %87 = arith.cmpf ogt, %86, %81 : tensor<256xf32> loc(#loc178)
    %88 = arith.cmpf une, %86, %86 : tensor<256xf32> loc(#loc179)
    %89 = arith.ori %87, %88 : tensor<256xi1> loc(#loc180)
    %90 = arith.select %89, %86, %81 : tensor<256xi1>, tensor<256xf32> loc(#loc181)
    %91 = arith.addi %11, %cst_15 : tensor<256xi32> loc(#loc75)
    %92 = arith.extsi %91 : tensor<256xi32> to tensor<256xi64> loc(#loc76)
    %93 = arith.cmpi sge, %92, %cst_21 : tensor<256xi64> loc(#loc76)
    %94 = arith.cmpi slt, %92, %cst_20 : tensor<256xi64> loc(#loc77)
    %95 = arith.andi %93, %94 : tensor<256xi1> loc(#loc78)
    %96 = arith.andi %95, %22 : tensor<256xi1> loc(#loc79)
    %97 = arith.addi %17, %cst_13 : tensor<256xi32> loc(#loc80)
    %98 = arith.addi %97, %25 : tensor<256xi32> loc(#loc81)
    %99 = tt.addptr %27, %98 : tensor<256x!tt.ptr<f32>>, tensor<256xi32> loc(#loc82)
    %100 = arith.andi %96, %5 : tensor<256xi1> loc(#loc83)
    %101 = tt.load %99, %100, %cst_17 evictionPolicy = evict_last : tensor<256x!tt.ptr<f32>> loc(#loc84)
    %102 = arith.cmpf ogt, %101, %90 : tensor<256xf32> loc(#loc182)
    %103 = arith.cmpf une, %101, %101 : tensor<256xf32> loc(#loc183)
    %104 = arith.ori %102, %103 : tensor<256xi1> loc(#loc184)
    %105 = arith.select %104, %101, %90 : tensor<256xi1>, tensor<256xf32> loc(#loc185)
    %106 = arith.andi %95, %34 : tensor<256xi1> loc(#loc86)
    %107 = arith.addi %17, %cst_12 : tensor<256xi32> loc(#loc87)
    %108 = arith.addi %107, %25 : tensor<256xi32> loc(#loc88)
    %109 = tt.addptr %27, %108 : tensor<256x!tt.ptr<f32>>, tensor<256xi32> loc(#loc89)
    %110 = arith.andi %106, %5 : tensor<256xi1> loc(#loc90)
    %111 = tt.load %109, %110, %cst_17 evictionPolicy = evict_last : tensor<256x!tt.ptr<f32>> loc(#loc91)
    %112 = arith.cmpf ogt, %111, %105 : tensor<256xf32> loc(#loc186)
    %113 = arith.cmpf une, %111, %111 : tensor<256xf32> loc(#loc187)
    %114 = arith.ori %112, %113 : tensor<256xi1> loc(#loc188)
    %115 = arith.select %114, %111, %105 : tensor<256xi1>, tensor<256xf32> loc(#loc189)
    %116 = arith.andi %95, %49 : tensor<256xi1> loc(#loc93)
    %117 = arith.addi %17, %cst_11 : tensor<256xi32> loc(#loc94)
    %118 = arith.addi %117, %25 : tensor<256xi32> loc(#loc95)
    %119 = tt.addptr %27, %118 : tensor<256x!tt.ptr<f32>>, tensor<256xi32> loc(#loc96)
    %120 = arith.andi %116, %5 : tensor<256xi1> loc(#loc97)
    %121 = tt.load %119, %120, %cst_17 evictionPolicy = evict_last : tensor<256x!tt.ptr<f32>> loc(#loc98)
    %122 = arith.cmpf ogt, %121, %115 : tensor<256xf32> loc(#loc190)
    %123 = arith.cmpf une, %121, %121 : tensor<256xf32> loc(#loc191)
    %124 = arith.ori %122, %123 : tensor<256xi1> loc(#loc192)
    %125 = arith.select %124, %121, %115 : tensor<256xi1>, tensor<256xf32> loc(#loc193)
    %126 = arith.select %41, %cst_10, %cst_9 : tensor<256xi1>, tensor<256xi8> loc(#loc100)
    %127 = arith.select %56, %cst_8, %126 : tensor<256xi1>, tensor<256xi8> loc(#loc101)
    %128 = arith.select %69, %cst_7, %127 : tensor<256xi1>, tensor<256xi8> loc(#loc102)
    %129 = arith.select %78, %cst_6, %128 : tensor<256xi1>, tensor<256xi8> loc(#loc103)
    %130 = arith.select %87, %cst_5, %129 : tensor<256xi1>, tensor<256xi8> loc(#loc104)
    %131 = arith.select %102, %cst_4, %130 : tensor<256xi1>, tensor<256xi8> loc(#loc105)
    %132 = arith.select %112, %cst_3, %131 : tensor<256xi1>, tensor<256xi8> loc(#loc106)
    %133 = arith.select %122, %cst_2, %132 : tensor<256xi1>, tensor<256xi8> loc(#loc107)
    %134 = tt.load %28, %29, %cst_1 evictionPolicy = evict_last : tensor<256x!tt.ptr<f32>> loc(#loc108)
    %135 = tt.load %38, %39, %cst_1 evictionPolicy = evict_last : tensor<256x!tt.ptr<f32>> loc(#loc109)
    %136 = arith.addf %135, %134 : tensor<256xf32> loc(#loc110)
    %137 = tt.load %53, %54, %cst_1 evictionPolicy = evict_last : tensor<256x!tt.ptr<f32>> loc(#loc111)
    %138 = arith.addf %137, %136 : tensor<256xf32> loc(#loc112)
    %139 = tt.load %66, %67, %cst_1 evictionPolicy = evict_last : tensor<256x!tt.ptr<f32>> loc(#loc113)
    %140 = arith.addf %139, %138 : tensor<256xf32> loc(#loc114)
    %141 = tt.load %75, %76, %cst_1 evictionPolicy = evict_last : tensor<256x!tt.ptr<f32>> loc(#loc115)
    %142 = arith.addf %141, %140 : tensor<256xf32> loc(#loc116)
    %143 = tt.load %84, %85, %cst_1 evictionPolicy = evict_last : tensor<256x!tt.ptr<f32>> loc(#loc117)
    %144 = arith.addf %143, %142 : tensor<256xf32> loc(#loc118)
    %145 = tt.load %99, %100, %cst_1 evictionPolicy = evict_last : tensor<256x!tt.ptr<f32>> loc(#loc119)
    %146 = arith.addf %145, %144 : tensor<256xf32> loc(#loc120)
    %147 = tt.load %109, %110, %cst_1 evictionPolicy = evict_last : tensor<256x!tt.ptr<f32>> loc(#loc121)
    %148 = arith.addf %147, %146 : tensor<256xf32> loc(#loc122)
    %149 = tt.load %119, %120, %cst_1 evictionPolicy = evict_last : tensor<256x!tt.ptr<f32>> loc(#loc123)
    %150 = arith.addf %149, %148 : tensor<256xf32> loc(#loc124)
    %151 = arith.muli %8, %cst_0 : tensor<256xi32> loc(#loc125)
    %152 = arith.addi %151, %cst_15 : tensor<256xi32> loc(#loc126)
    %153 = arith.muli %7, %cst_0 : tensor<256xi32> loc(#loc127)
    %154 = arith.addi %152, %153 : tensor<256xi32> loc(#loc128)
    %155 = arith.addi %17, %cst_24 : tensor<256xi32> loc(#loc129)
    %156 = arith.cmpi sge, %155, %cst_11 : tensor<256xi32> loc(#loc130)
    %157 = arith.extui %156 : tensor<256xi1> to tensor<256xi32> loc(#loc131)
    %158 = arith.muli %157, %cst_11 : tensor<256xi32> loc(#loc131)
    %159 = arith.cmpi slt, %155, %cst_11 : tensor<256xi32> loc(#loc132)
    %160 = arith.extui %159 : tensor<256xi1> to tensor<256xi32> loc(#loc133)
    %161 = arith.muli %155, %160 : tensor<256xi32> loc(#loc133)
    %162 = arith.addi %158, %161 : tensor<256xi32> loc(#loc134)
    %163 = arith.addi %11, %cst_24 : tensor<256xi32> loc(#loc135)
    %164 = arith.cmpi sge, %163, %cst_11 : tensor<256xi32> loc(#loc136)
    %165 = arith.extui %164 : tensor<256xi1> to tensor<256xi32> loc(#loc137)
    %166 = arith.muli %165, %cst_11 : tensor<256xi32> loc(#loc137)
    %167 = arith.cmpi slt, %163, %cst_11 : tensor<256xi32> loc(#loc138)
    %168 = arith.extui %167 : tensor<256xi1> to tensor<256xi32> loc(#loc139)
    %169 = arith.muli %163, %168 : tensor<256xi32> loc(#loc139)
    %170 = arith.addi %166, %169 : tensor<256xi32> loc(#loc140)
    %171 = arith.muli %162, %170 : tensor<256xi32> loc(#loc141)
    %172 = arith.addi %154, %171 : tensor<256xi32> loc(#loc142)
    %173 = arith.muli %151, %170 : tensor<256xi32> loc(#loc143)
    %174 = arith.addi %172, %173 : tensor<256xi32> loc(#loc144)
    %175 = arith.muli %153, %162 : tensor<256xi32> loc(#loc145)
    %176 = arith.addi %174, %175 : tensor<256xi32> loc(#loc146)
    %177 = arith.muli %8, %cst_12 : tensor<256xi32> loc(#loc147)
    %178 = arith.muli %177, %7 : tensor<256xi32> loc(#loc148)
    %179 = arith.addi %176, %178 : tensor<256xi32> loc(#loc149)
    %180 = arith.addi %179, %162 : tensor<256xi32> loc(#loc150)
    %181 = arith.addi %180, %170 : tensor<256xi32> loc(#loc151)
    %182 = arith.sitofp %181 : tensor<256xi32> to tensor<256xf32> loc(#loc152)
    %183 = arith.divf %150, %182 : tensor<256xf32> loc(#loc152)
    %184 = arith.muli %9, %cst : tensor<256xi32> loc(#loc153)
    %185 = arith.addi %10, %184 : tensor<256xi32> loc(#loc154)
    %186 = tt.splat %arg1 : !tt.ptr<f32> -> tensor<256x!tt.ptr<f32>> loc(#loc155)
    %187 = tt.addptr %186, %185 : tensor<256x!tt.ptr<f32>>, tensor<256xi32> loc(#loc155)
    tt.store %187, %125, %5 : tensor<256x!tt.ptr<f32>> loc(#loc156)
    %188 = tt.splat %arg2 : !tt.ptr<i8> -> tensor<256x!tt.ptr<i8>> loc(#loc157)
    %189 = tt.addptr %188, %4 : tensor<256x!tt.ptr<i8>>, tensor<256xi32> loc(#loc157)
    tt.store %189, %133, %5 : tensor<256x!tt.ptr<i8>> loc(#loc158)
    %190 = tt.splat %arg3 : !tt.ptr<f32> -> tensor<256x!tt.ptr<f32>> loc(#loc159)
    %191 = tt.addptr %190, %185 : tensor<256x!tt.ptr<f32>>, tensor<256xi32> loc(#loc159)
    tt.store %191, %183, %5 : tensor<256x!tt.ptr<f32>> loc(#loc160)
    tt.return loc(#loc161)
  } loc(#loc)
} loc(#loc)
#loc1 = loc(unknown)
#loc2 = loc("inductor_cache/gb/cgbbkkab7sejqu67qn7ieuoegpwwf3j6k3azxf364lluyvehunla.py":21:28)
#loc3 = loc("inductor_cache/gb/cgbbkkab7sejqu67qn7ieuoegpwwf3j6k3azxf364lluyvehunla.py":21:33)
#loc4 = loc("inductor_cache/gb/cgbbkkab7sejqu67qn7ieuoegpwwf3j6k3azxf364lluyvehunla.py":22:36)
#loc5 = loc("inductor_cache/gb/cgbbkkab7sejqu67qn7ieuoegpwwf3j6k3azxf364lluyvehunla.py":22:23)
#loc6 = loc("inductor_cache/gb/cgbbkkab7sejqu67qn7ieuoegpwwf3j6k3azxf364lluyvehunla.py":23:21)
#loc7 = loc("inductor_cache/gb/cgbbkkab7sejqu67qn7ieuoegpwwf3j6k3azxf364lluyvehunla.py":24:21)
#loc8 = loc("inductor_cache/gb/cgbbkkab7sejqu67qn7ieuoegpwwf3j6k3azxf364lluyvehunla.py":24:26)
#loc9 = loc("inductor_cache/gb/cgbbkkab7sejqu67qn7ieuoegpwwf3j6k3azxf364lluyvehunla.py":25:19)
#loc10 = loc("inductor_cache/gb/cgbbkkab7sejqu67qn7ieuoegpwwf3j6k3azxf364lluyvehunla.py":27:19)
#loc11 = loc("inductor_cache/gb/cgbbkkab7sejqu67qn7ieuoegpwwf3j6k3azxf364lluyvehunla.py":28:19)
#loc12 = loc("inductor_cache/gb/cgbbkkab7sejqu67qn7ieuoegpwwf3j6k3azxf364lluyvehunla.py":30:20)
#loc13 = loc("inductor_cache/gb/cgbbkkab7sejqu67qn7ieuoegpwwf3j6k3azxf364lluyvehunla.py":30:18)
#loc14 = loc("inductor_cache/gb/cgbbkkab7sejqu67qn7ieuoegpwwf3j6k3azxf364lluyvehunla.py":32:19)
#loc15 = loc("inductor_cache/gb/cgbbkkab7sejqu67qn7ieuoegpwwf3j6k3azxf364lluyvehunla.py":34:18)
#loc16 = loc("inductor_cache/gb/cgbbkkab7sejqu67qn7ieuoegpwwf3j6k3azxf364lluyvehunla.py":35:18)
#loc17 = loc("inductor_cache/gb/cgbbkkab7sejqu67qn7ieuoegpwwf3j6k3azxf364lluyvehunla.py":36:20)
#loc18 = loc("inductor_cache/gb/cgbbkkab7sejqu67qn7ieuoegpwwf3j6k3azxf364lluyvehunla.py":36:18)
#loc19 = loc("inductor_cache/gb/cgbbkkab7sejqu67qn7ieuoegpwwf3j6k3azxf364lluyvehunla.py":37:19)
#loc20 = loc("inductor_cache/gb/cgbbkkab7sejqu67qn7ieuoegpwwf3j6k3azxf364lluyvehunla.py":38:18)
#loc21 = loc("inductor_cache/gb/cgbbkkab7sejqu67qn7ieuoegpwwf3j6k3azxf364lluyvehunla.py":39:18)
#loc22 = loc("inductor_cache/gb/cgbbkkab7sejqu67qn7ieuoegpwwf3j6k3azxf364lluyvehunla.py":40:19)
#loc23 = loc("inductor_cache/gb/cgbbkkab7sejqu67qn7ieuoegpwwf3j6k3azxf364lluyvehunla.py":41:38)
#loc24 = loc("inductor_cache/gb/cgbbkkab7sejqu67qn7ieuoegpwwf3j6k3azxf364lluyvehunla.py":41:47)
#loc25 = loc("inductor_cache/gb/cgbbkkab7sejqu67qn7ieuoegpwwf3j6k3azxf364lluyvehunla.py":41:45)
#loc26 = loc("inductor_cache/gb/cgbbkkab7sejqu67qn7ieuoegpwwf3j6k3azxf364lluyvehunla.py":41:31)
#loc27 = loc("inductor_cache/gb/cgbbkkab7sejqu67qn7ieuoegpwwf3j6k3azxf364lluyvehunla.py":41:60)
#loc28 = loc("inductor_cache/gb/cgbbkkab7sejqu67qn7ieuoegpwwf3j6k3azxf364lluyvehunla.py":41:52)
#loc29 = loc("inductor_cache/gb/cgbbkkab7sejqu67qn7ieuoegpwwf3j6k3azxf364lluyvehunla.py":43:21)
#loc30 = loc("inductor_cache/gb/cgbbkkab7sejqu67qn7ieuoegpwwf3j6k3azxf364lluyvehunla.py":44:20)
#loc31 = loc("inductor_cache/gb/cgbbkkab7sejqu67qn7ieuoegpwwf3j6k3azxf364lluyvehunla.py":45:20)
#loc32 = loc("inductor_cache/gb/cgbbkkab7sejqu67qn7ieuoegpwwf3j6k3azxf364lluyvehunla.py":46:19)
#loc33 = loc("inductor_cache/gb/cgbbkkab7sejqu67qn7ieuoegpwwf3j6k3azxf364lluyvehunla.py":47:38)
#loc34 = loc("inductor_cache/gb/cgbbkkab7sejqu67qn7ieuoegpwwf3j6k3azxf364lluyvehunla.py":47:45)
#loc35 = loc("inductor_cache/gb/cgbbkkab7sejqu67qn7ieuoegpwwf3j6k3azxf364lluyvehunla.py":47:31)
#loc36 = loc("inductor_cache/gb/cgbbkkab7sejqu67qn7ieuoegpwwf3j6k3azxf364lluyvehunla.py":47:60)
#loc37 = loc("inductor_cache/gb/cgbbkkab7sejqu67qn7ieuoegpwwf3j6k3azxf364lluyvehunla.py":47:52)
#loc38 = loc("/home/sahanp/.conda/envs/parity-bench/lib/python3.12/site-packages/torch/_inductor/runtime/triton_helpers.py":118:15)
#loc39 = loc("inductor_cache/gb/cgbbkkab7sejqu67qn7ieuoegpwwf3j6k3azxf364lluyvehunla.py":48:42)
#loc40 = loc("/home/sahanp/.conda/envs/parity-bench/lib/python3.12/site-packages/torch/_inductor/runtime/triton_helpers.py":120:21)
#loc41 = loc("/home/sahanp/.conda/envs/parity-bench/lib/python3.12/site-packages/torch/_inductor/runtime/triton_helpers.py":120:16)
#loc42 = loc("/home/sahanp/.conda/envs/parity-bench/lib/python3.12/site-packages/torch/_inductor/runtime/triton_helpers.py":121:29)
#loc43 = loc("inductor_cache/gb/cgbbkkab7sejqu67qn7ieuoegpwwf3j6k3azxf364lluyvehunla.py":49:16)
#loc44 = loc("inductor_cache/gb/cgbbkkab7sejqu67qn7ieuoegpwwf3j6k3azxf364lluyvehunla.py":50:21)
#loc45 = loc("inductor_cache/gb/cgbbkkab7sejqu67qn7ieuoegpwwf3j6k3azxf364lluyvehunla.py":51:20)
#loc46 = loc("inductor_cache/gb/cgbbkkab7sejqu67qn7ieuoegpwwf3j6k3azxf364lluyvehunla.py":52:20)
#loc47 = loc("inductor_cache/gb/cgbbkkab7sejqu67qn7ieuoegpwwf3j6k3azxf364lluyvehunla.py":53:19)
#loc48 = loc("inductor_cache/gb/cgbbkkab7sejqu67qn7ieuoegpwwf3j6k3azxf364lluyvehunla.py":54:38)
#loc49 = loc("inductor_cache/gb/cgbbkkab7sejqu67qn7ieuoegpwwf3j6k3azxf364lluyvehunla.py":54:45)
#loc50 = loc("inductor_cache/gb/cgbbkkab7sejqu67qn7ieuoegpwwf3j6k3azxf364lluyvehunla.py":54:31)
#loc51 = loc("inductor_cache/gb/cgbbkkab7sejqu67qn7ieuoegpwwf3j6k3azxf364lluyvehunla.py":54:60)
#loc52 = loc("inductor_cache/gb/cgbbkkab7sejqu67qn7ieuoegpwwf3j6k3azxf364lluyvehunla.py":54:52)
#loc53 = loc("inductor_cache/gb/cgbbkkab7sejqu67qn7ieuoegpwwf3j6k3azxf364lluyvehunla.py":55:42)
#loc54 = loc("inductor_cache/gb/cgbbkkab7sejqu67qn7ieuoegpwwf3j6k3azxf364lluyvehunla.py":57:21)
#loc55 = loc("inductor_cache/gb/cgbbkkab7sejqu67qn7ieuoegpwwf3j6k3azxf364lluyvehunla.py":58:20)
#loc56 = loc("inductor_cache/gb/cgbbkkab7sejqu67qn7ieuoegpwwf3j6k3azxf364lluyvehunla.py":59:20)
#loc57 = loc("inductor_cache/gb/cgbbkkab7sejqu67qn7ieuoegpwwf3j6k3azxf364lluyvehunla.py":60:20)
#loc58 = loc("inductor_cache/gb/cgbbkkab7sejqu67qn7ieuoegpwwf3j6k3azxf364lluyvehunla.py":61:45)
#loc59 = loc("inductor_cache/gb/cgbbkkab7sejqu67qn7ieuoegpwwf3j6k3azxf364lluyvehunla.py":61:31)
#loc60 = loc("inductor_cache/gb/cgbbkkab7sejqu67qn7ieuoegpwwf3j6k3azxf364lluyvehunla.py":61:60)
#loc61 = loc("inductor_cache/gb/cgbbkkab7sejqu67qn7ieuoegpwwf3j6k3azxf364lluyvehunla.py":61:52)
#loc62 = loc("inductor_cache/gb/cgbbkkab7sejqu67qn7ieuoegpwwf3j6k3azxf364lluyvehunla.py":62:42)
#loc63 = loc("inductor_cache/gb/cgbbkkab7sejqu67qn7ieuoegpwwf3j6k3azxf364lluyvehunla.py":63:20)
#loc64 = loc("inductor_cache/gb/cgbbkkab7sejqu67qn7ieuoegpwwf3j6k3azxf364lluyvehunla.py":64:38)
#loc65 = loc("inductor_cache/gb/cgbbkkab7sejqu67qn7ieuoegpwwf3j6k3azxf364lluyvehunla.py":64:31)
#loc66 = loc("inductor_cache/gb/cgbbkkab7sejqu67qn7ieuoegpwwf3j6k3azxf364lluyvehunla.py":64:53)
#loc67 = loc("inductor_cache/gb/cgbbkkab7sejqu67qn7ieuoegpwwf3j6k3azxf364lluyvehunla.py":64:45)
#loc68 = loc("inductor_cache/gb/cgbbkkab7sejqu67qn7ieuoegpwwf3j6k3azxf364lluyvehunla.py":65:42)
#loc69 = loc("inductor_cache/gb/cgbbkkab7sejqu67qn7ieuoegpwwf3j6k3azxf364lluyvehunla.py":66:20)
#loc70 = loc("inductor_cache/gb/cgbbkkab7sejqu67qn7ieuoegpwwf3j6k3azxf364lluyvehunla.py":67:42)
#loc71 = loc("inductor_cache/gb/cgbbkkab7sejqu67qn7ieuoegpwwf3j6k3azxf364lluyvehunla.py":67:31)
#loc72 = loc("inductor_cache/gb/cgbbkkab7sejqu67qn7ieuoegpwwf3j6k3azxf364lluyvehunla.py":67:57)
#loc73 = loc("inductor_cache/gb/cgbbkkab7sejqu67qn7ieuoegpwwf3j6k3azxf364lluyvehunla.py":67:49)
#loc74 = loc("inductor_cache/gb/cgbbkkab7sejqu67qn7ieuoegpwwf3j6k3azxf364lluyvehunla.py":68:42)
#loc75 = loc("inductor_cache/gb/cgbbkkab7sejqu67qn7ieuoegpwwf3j6k3azxf364lluyvehunla.py":69:16)
#loc76 = loc("inductor_cache/gb/cgbbkkab7sejqu67qn7ieuoegpwwf3j6k3azxf364lluyvehunla.py":70:21)
#loc77 = loc("inductor_cache/gb/cgbbkkab7sejqu67qn7ieuoegpwwf3j6k3azxf364lluyvehunla.py":71:20)
#loc78 = loc("inductor_cache/gb/cgbbkkab7sejqu67qn7ieuoegpwwf3j6k3azxf364lluyvehunla.py":72:20)
#loc79 = loc("inductor_cache/gb/cgbbkkab7sejqu67qn7ieuoegpwwf3j6k3azxf364lluyvehunla.py":73:20)
#loc80 = loc("inductor_cache/gb/cgbbkkab7sejqu67qn7ieuoegpwwf3j6k3azxf364lluyvehunla.py":74:35)
#loc81 = loc("inductor_cache/gb/cgbbkkab7sejqu67qn7ieuoegpwwf3j6k3azxf364lluyvehunla.py":74:42)
#loc82 = loc("inductor_cache/gb/cgbbkkab7sejqu67qn7ieuoegpwwf3j6k3azxf364lluyvehunla.py":74:31)
#loc83 = loc("inductor_cache/gb/cgbbkkab7sejqu67qn7ieuoegpwwf3j6k3azxf364lluyvehunla.py":74:57)
#loc84 = loc("inductor_cache/gb/cgbbkkab7sejqu67qn7ieuoegpwwf3j6k3azxf364lluyvehunla.py":74:49)
#loc85 = loc("inductor_cache/gb/cgbbkkab7sejqu67qn7ieuoegpwwf3j6k3azxf364lluyvehunla.py":75:42)
#loc86 = loc("inductor_cache/gb/cgbbkkab7sejqu67qn7ieuoegpwwf3j6k3azxf364lluyvehunla.py":76:20)
#loc87 = loc("inductor_cache/gb/cgbbkkab7sejqu67qn7ieuoegpwwf3j6k3azxf364lluyvehunla.py":77:35)
#loc88 = loc("inductor_cache/gb/cgbbkkab7sejqu67qn7ieuoegpwwf3j6k3azxf364lluyvehunla.py":77:42)
#loc89 = loc("inductor_cache/gb/cgbbkkab7sejqu67qn7ieuoegpwwf3j6k3azxf364lluyvehunla.py":77:31)
#loc90 = loc("inductor_cache/gb/cgbbkkab7sejqu67qn7ieuoegpwwf3j6k3azxf364lluyvehunla.py":77:57)
#loc91 = loc("inductor_cache/gb/cgbbkkab7sejqu67qn7ieuoegpwwf3j6k3azxf364lluyvehunla.py":77:49)
#loc92 = loc("inductor_cache/gb/cgbbkkab7sejqu67qn7ieuoegpwwf3j6k3azxf364lluyvehunla.py":78:42)
#loc93 = loc("inductor_cache/gb/cgbbkkab7sejqu67qn7ieuoegpwwf3j6k3azxf364lluyvehunla.py":79:20)
#loc94 = loc("inductor_cache/gb/cgbbkkab7sejqu67qn7ieuoegpwwf3j6k3azxf364lluyvehunla.py":80:35)
#loc95 = loc("inductor_cache/gb/cgbbkkab7sejqu67qn7ieuoegpwwf3j6k3azxf364lluyvehunla.py":80:42)
#loc96 = loc("inductor_cache/gb/cgbbkkab7sejqu67qn7ieuoegpwwf3j6k3azxf364lluyvehunla.py":80:31)
#loc97 = loc("inductor_cache/gb/cgbbkkab7sejqu67qn7ieuoegpwwf3j6k3azxf364lluyvehunla.py":80:57)
#loc98 = loc("inductor_cache/gb/cgbbkkab7sejqu67qn7ieuoegpwwf3j6k3azxf364lluyvehunla.py":80:49)
#loc99 = loc("inductor_cache/gb/cgbbkkab7sejqu67qn7ieuoegpwwf3j6k3azxf364lluyvehunla.py":81:42)
#loc100 = loc("inductor_cache/gb/cgbbkkab7sejqu67qn7ieuoegpwwf3j6k3azxf364lluyvehunla.py":85:35)
#loc101 = loc("inductor_cache/gb/cgbbkkab7sejqu67qn7ieuoegpwwf3j6k3azxf364lluyvehunla.py":88:35)
#loc102 = loc("inductor_cache/gb/cgbbkkab7sejqu67qn7ieuoegpwwf3j6k3azxf364lluyvehunla.py":91:35)
#loc103 = loc("inductor_cache/gb/cgbbkkab7sejqu67qn7ieuoegpwwf3j6k3azxf364lluyvehunla.py":94:35)
#loc104 = loc("inductor_cache/gb/cgbbkkab7sejqu67qn7ieuoegpwwf3j6k3azxf364lluyvehunla.py":97:35)
#loc105 = loc("inductor_cache/gb/cgbbkkab7sejqu67qn7ieuoegpwwf3j6k3azxf364lluyvehunla.py":100:35)
#loc106 = loc("inductor_cache/gb/cgbbkkab7sejqu67qn7ieuoegpwwf3j6k3azxf364lluyvehunla.py":103:35)
#loc107 = loc("inductor_cache/gb/cgbbkkab7sejqu67qn7ieuoegpwwf3j6k3azxf364lluyvehunla.py":106:35)
#loc108 = loc("inductor_cache/gb/cgbbkkab7sejqu67qn7ieuoegpwwf3j6k3azxf364lluyvehunla.py":107:52)
#loc109 = loc("inductor_cache/gb/cgbbkkab7sejqu67qn7ieuoegpwwf3j6k3azxf364lluyvehunla.py":108:52)
#loc110 = loc("inductor_cache/gb/cgbbkkab7sejqu67qn7ieuoegpwwf3j6k3azxf364lluyvehunla.py":109:20)
#loc111 = loc("inductor_cache/gb/cgbbkkab7sejqu67qn7ieuoegpwwf3j6k3azxf364lluyvehunla.py":110:52)
#loc112 = loc("inductor_cache/gb/cgbbkkab7sejqu67qn7ieuoegpwwf3j6k3azxf364lluyvehunla.py":111:20)
#loc113 = loc("inductor_cache/gb/cgbbkkab7sejqu67qn7ieuoegpwwf3j6k3azxf364lluyvehunla.py":112:52)
#loc114 = loc("inductor_cache/gb/cgbbkkab7sejqu67qn7ieuoegpwwf3j6k3azxf364lluyvehunla.py":113:20)
#loc115 = loc("inductor_cache/gb/cgbbkkab7sejqu67qn7ieuoegpwwf3j6k3azxf364lluyvehunla.py":114:45)
#loc116 = loc("inductor_cache/gb/cgbbkkab7sejqu67qn7ieuoegpwwf3j6k3azxf364lluyvehunla.py":115:20)
#loc117 = loc("inductor_cache/gb/cgbbkkab7sejqu67qn7ieuoegpwwf3j6k3azxf364lluyvehunla.py":116:49)
#loc118 = loc("inductor_cache/gb/cgbbkkab7sejqu67qn7ieuoegpwwf3j6k3azxf364lluyvehunla.py":117:20)
#loc119 = loc("inductor_cache/gb/cgbbkkab7sejqu67qn7ieuoegpwwf3j6k3azxf364lluyvehunla.py":118:49)
#loc120 = loc("inductor_cache/gb/cgbbkkab7sejqu67qn7ieuoegpwwf3j6k3azxf364lluyvehunla.py":119:20)
#loc121 = loc("inductor_cache/gb/cgbbkkab7sejqu67qn7ieuoegpwwf3j6k3azxf364lluyvehunla.py":120:49)
#loc122 = loc("inductor_cache/gb/cgbbkkab7sejqu67qn7ieuoegpwwf3j6k3azxf364lluyvehunla.py":121:20)
#loc123 = loc("inductor_cache/gb/cgbbkkab7sejqu67qn7ieuoegpwwf3j6k3azxf364lluyvehunla.py":122:49)
#loc124 = loc("inductor_cache/gb/cgbbkkab7sejqu67qn7ieuoegpwwf3j6k3azxf364lluyvehunla.py":123:20)
#loc125 = loc("inductor_cache/gb/cgbbkkab7sejqu67qn7ieuoegpwwf3j6k3azxf364lluyvehunla.py":124:22)
#loc126 = loc("inductor_cache/gb/cgbbkkab7sejqu67qn7ieuoegpwwf3j6k3azxf364lluyvehunla.py":124:17)
#loc127 = loc("inductor_cache/gb/cgbbkkab7sejqu67qn7ieuoegpwwf3j6k3azxf364lluyvehunla.py":124:34)
#loc128 = loc("inductor_cache/gb/cgbbkkab7sejqu67qn7ieuoegpwwf3j6k3azxf364lluyvehunla.py":124:29)
#loc129 = loc("inductor_cache/gb/cgbbkkab7sejqu67qn7ieuoegpwwf3j6k3azxf364lluyvehunla.py":124:60)
#loc130 = loc("inductor_cache/gb/cgbbkkab7sejqu67qn7ieuoegpwwf3j6k3azxf364lluyvehunla.py":124:56)
#loc131 = loc("inductor_cache/gb/cgbbkkab7sejqu67qn7ieuoegpwwf3j6k3azxf364lluyvehunla.py":124:48)
#loc132 = loc("inductor_cache/gb/cgbbkkab7sejqu67qn7ieuoegpwwf3j6k3azxf364lluyvehunla.py":124:97)
#loc133 = loc("inductor_cache/gb/cgbbkkab7sejqu67qn7ieuoegpwwf3j6k3azxf364lluyvehunla.py":124:83)
#loc134 = loc("inductor_cache/gb/cgbbkkab7sejqu67qn7ieuoegpwwf3j6k3azxf364lluyvehunla.py":124:69)
#loc135 = loc("inductor_cache/gb/cgbbkkab7sejqu67qn7ieuoegpwwf3j6k3azxf364lluyvehunla.py":124:122)
#loc136 = loc("inductor_cache/gb/cgbbkkab7sejqu67qn7ieuoegpwwf3j6k3azxf364lluyvehunla.py":124:118)
#loc137 = loc("inductor_cache/gb/cgbbkkab7sejqu67qn7ieuoegpwwf3j6k3azxf364lluyvehunla.py":124:110)
#loc138 = loc("inductor_cache/gb/cgbbkkab7sejqu67qn7ieuoegpwwf3j6k3azxf364lluyvehunla.py":124:159)
#loc139 = loc("inductor_cache/gb/cgbbkkab7sejqu67qn7ieuoegpwwf3j6k3azxf364lluyvehunla.py":124:145)
#loc140 = loc("inductor_cache/gb/cgbbkkab7sejqu67qn7ieuoegpwwf3j6k3azxf364lluyvehunla.py":124:131)
#loc141 = loc("inductor_cache/gb/cgbbkkab7sejqu67qn7ieuoegpwwf3j6k3azxf364lluyvehunla.py":124:103)
#loc142 = loc("inductor_cache/gb/cgbbkkab7sejqu67qn7ieuoegpwwf3j6k3azxf364lluyvehunla.py":124:40)
#loc143 = loc("inductor_cache/gb/cgbbkkab7sejqu67qn7ieuoegpwwf3j6k3azxf364lluyvehunla.py":124:176)
#loc144 = loc("inductor_cache/gb/cgbbkkab7sejqu67qn7ieuoegpwwf3j6k3azxf364lluyvehunla.py":124:167)
#loc145 = loc("inductor_cache/gb/cgbbkkab7sejqu67qn7ieuoegpwwf3j6k3azxf364lluyvehunla.py":124:250)
#loc146 = loc("inductor_cache/gb/cgbbkkab7sejqu67qn7ieuoegpwwf3j6k3azxf364lluyvehunla.py":124:241)
#loc147 = loc("inductor_cache/gb/cgbbkkab7sejqu67qn7ieuoegpwwf3j6k3azxf364lluyvehunla.py":124:316)
#loc148 = loc("inductor_cache/gb/cgbbkkab7sejqu67qn7ieuoegpwwf3j6k3azxf364lluyvehunla.py":124:319)
#loc149 = loc("inductor_cache/gb/cgbbkkab7sejqu67qn7ieuoegpwwf3j6k3azxf364lluyvehunla.py":124:314)
#loc150 = loc("inductor_cache/gb/cgbbkkab7sejqu67qn7ieuoegpwwf3j6k3azxf364lluyvehunla.py":124:325)
#loc151 = loc("inductor_cache/gb/cgbbkkab7sejqu67qn7ieuoegpwwf3j6k3azxf364lluyvehunla.py":124:389)
#loc152 = loc("inductor_cache/gb/cgbbkkab7sejqu67qn7ieuoegpwwf3j6k3azxf364lluyvehunla.py":125:20)
#loc153 = loc("inductor_cache/gb/cgbbkkab7sejqu67qn7ieuoegpwwf3j6k3azxf364lluyvehunla.py":126:34)
#loc154 = loc("inductor_cache/gb/cgbbkkab7sejqu67qn7ieuoegpwwf3j6k3azxf364lluyvehunla.py":126:30)
#loc155 = loc("inductor_cache/gb/cgbbkkab7sejqu67qn7ieuoegpwwf3j6k3azxf364lluyvehunla.py":126:25)
#loc156 = loc("inductor_cache/gb/cgbbkkab7sejqu67qn7ieuoegpwwf3j6k3azxf364lluyvehunla.py":126:46)
#loc157 = loc("inductor_cache/gb/cgbbkkab7sejqu67qn7ieuoegpwwf3j6k3azxf364lluyvehunla.py":127:25)
#loc158 = loc("inductor_cache/gb/cgbbkkab7sejqu67qn7ieuoegpwwf3j6k3azxf364lluyvehunla.py":127:37)
#loc159 = loc("inductor_cache/gb/cgbbkkab7sejqu67qn7ieuoegpwwf3j6k3azxf364lluyvehunla.py":128:25)
#loc160 = loc("inductor_cache/gb/cgbbkkab7sejqu67qn7ieuoegpwwf3j6k3azxf364lluyvehunla.py":128:46)
#loc161 = loc("inductor_cache/gb/cgbbkkab7sejqu67qn7ieuoegpwwf3j6k3azxf364lluyvehunla.py":128:4)
#loc162 = loc(callsite(#loc38 at #loc39))
#loc163 = loc(callsite(#loc40 at #loc39))
#loc164 = loc(callsite(#loc41 at #loc39))
#loc165 = loc(callsite(#loc42 at #loc39))
#loc166 = loc(callsite(#loc38 at #loc53))
#loc167 = loc(callsite(#loc40 at #loc53))
#loc168 = loc(callsite(#loc41 at #loc53))
#loc169 = loc(callsite(#loc42 at #loc53))
#loc170 = loc(callsite(#loc38 at #loc62))
#loc171 = loc(callsite(#loc40 at #loc62))
#loc172 = loc(callsite(#loc41 at #loc62))
#loc173 = loc(callsite(#loc42 at #loc62))
#loc174 = loc(callsite(#loc38 at #loc68))
#loc175 = loc(callsite(#loc40 at #loc68))
#loc176 = loc(callsite(#loc41 at #loc68))
#loc177 = loc(callsite(#loc42 at #loc68))
#loc178 = loc(callsite(#loc38 at #loc74))
#loc179 = loc(callsite(#loc40 at #loc74))
#loc180 = loc(callsite(#loc41 at #loc74))
#loc181 = loc(callsite(#loc42 at #loc74))
#loc182 = loc(callsite(#loc38 at #loc85))
#loc183 = loc(callsite(#loc40 at #loc85))
#loc184 = loc(callsite(#loc41 at #loc85))
#loc185 = loc(callsite(#loc42 at #loc85))
#loc186 = loc(callsite(#loc38 at #loc92))
#loc187 = loc(callsite(#loc40 at #loc92))
#loc188 = loc(callsite(#loc41 at #loc92))
#loc189 = loc(callsite(#loc42 at #loc92))
#loc190 = loc(callsite(#loc38 at #loc99))
#loc191 = loc(callsite(#loc40 at #loc99))
#loc192 = loc(callsite(#loc41 at #loc99))
#loc193 = loc(callsite(#loc42 at #loc99))
