#loc = loc("inductor_cache/4j/c4jn752pjw7xbl2w4s23o6my2ntfpyb7c277xtasp3inlqosomgf.py":19:0)
module {
  tt.func public @triton_poi_fused__native_batch_norm_legit_no_training_add_convolution_elu_3(%arg0: !tt.ptr<f32> {tt.divisibility = 16 : i32} loc("inductor_cache/4j/c4jn752pjw7xbl2w4s23o6my2ntfpyb7c277xtasp3inlqosomgf.py":19:0), %arg1: !tt.ptr<f32> {tt.divisibility = 16 : i32} loc("inductor_cache/4j/c4jn752pjw7xbl2w4s23o6my2ntfpyb7c277xtasp3inlqosomgf.py":19:0), %arg2: !tt.ptr<f32> {tt.divisibility = 16 : i32} loc("inductor_cache/4j/c4jn752pjw7xbl2w4s23o6my2ntfpyb7c277xtasp3inlqosomgf.py":19:0), %arg3: !tt.ptr<f32> {tt.divisibility = 16 : i32} loc("inductor_cache/4j/c4jn752pjw7xbl2w4s23o6my2ntfpyb7c277xtasp3inlqosomgf.py":19:0), %arg4: !tt.ptr<f32> {tt.divisibility = 16 : i32} loc("inductor_cache/4j/c4jn752pjw7xbl2w4s23o6my2ntfpyb7c277xtasp3inlqosomgf.py":19:0), %arg5: !tt.ptr<f32> {tt.divisibility = 16 : i32} loc("inductor_cache/4j/c4jn752pjw7xbl2w4s23o6my2ntfpyb7c277xtasp3inlqosomgf.py":19:0), %arg6: !tt.ptr<f32> {tt.divisibility = 16 : i32} loc("inductor_cache/4j/c4jn752pjw7xbl2w4s23o6my2ntfpyb7c277xtasp3inlqosomgf.py":19:0), %arg7: !tt.ptr<f32> {tt.divisibility = 16 : i32} loc("inductor_cache/4j/c4jn752pjw7xbl2w4s23o6my2ntfpyb7c277xtasp3inlqosomgf.py":19:0), %arg8: i32 {tt.divisibility = 16 : i32} loc("inductor_cache/4j/c4jn752pjw7xbl2w4s23o6my2ntfpyb7c277xtasp3inlqosomgf.py":19:0)) attributes {noinline = false} {
    %cst = arith.constant dense<1.000000e+00> : tensor<1024xf32> loc(#loc1)
    %cst_0 = arith.constant dense<0.000000e+00> : tensor<1024xf32> loc(#loc1)
    %cst_1 = arith.constant dense<9.99999974E-5> : tensor<1024xf32> loc(#loc1)
    %cst_2 = arith.constant dense<196608> : tensor<1024xi32> loc(#loc1)
    %cst_3 = arith.constant dense<131072> : tensor<1024xi32> loc(#loc1)
    %cst_4 = arith.constant dense<128> : tensor<1024xi32> loc(#loc1)
    %cst_5 = arith.constant dense<1024> : tensor<1024xi32> loc(#loc1)
    %c1024_i32 = arith.constant 1024 : i32 loc(#loc1)
    %0 = tt.get_program_id x : i32 loc(#loc2)
    %1 = arith.muli %0, %c1024_i32 : i32 loc(#loc3)
    %2 = tt.make_range {end = 1024 : i32, start = 0 : i32} : tensor<1024xi32> loc(#loc4)
    %3 = tt.splat %1 : i32 -> tensor<1024xi32> loc(#loc5)
    %4 = arith.addi %3, %2 : tensor<1024xi32> loc(#loc5)
    %5 = arith.divsi %4, %cst_5 : tensor<1024xi32> loc(#loc6)
    %6 = arith.remsi %5, %cst_4 : tensor<1024xi32> loc(#loc7)
    %7 = arith.divsi %4, %cst_3 : tensor<1024xi32> loc(#loc8)
    %8 = arith.remsi %4, %cst_3 : tensor<1024xi32> loc(#loc9)
    %9 = tt.splat %arg0 : !tt.ptr<f32> -> tensor<1024x!tt.ptr<f32>> loc(#loc10)
    %10 = tt.addptr %9, %4 : tensor<1024x!tt.ptr<f32>>, tensor<1024xi32> loc(#loc10)
    %11 = tt.load %10 : tensor<1024x!tt.ptr<f32>> loc(#loc11)
    %12 = tt.splat %arg2 : !tt.ptr<f32> -> tensor<1024x!tt.ptr<f32>> loc(#loc12)
    %13 = tt.addptr %12, %6 : tensor<1024x!tt.ptr<f32>>, tensor<1024xi32> loc(#loc12)
    %14 = tt.load %13 evictionPolicy = evict_last : tensor<1024x!tt.ptr<f32>> loc(#loc13)
    %15 = arith.muli %7, %cst_2 : tensor<1024xi32> loc(#loc14)
    %16 = arith.addi %8, %15 : tensor<1024xi32> loc(#loc15)
    %17 = tt.splat %arg3 : !tt.ptr<f32> -> tensor<1024x!tt.ptr<f32>> loc(#loc16)
    %18 = tt.addptr %17, %16 : tensor<1024x!tt.ptr<f32>>, tensor<1024xi32> loc(#loc16)
    %19 = tt.load %18 : tensor<1024x!tt.ptr<f32>> loc(#loc17)
    %20 = tt.splat %arg4 : !tt.ptr<f32> -> tensor<1024x!tt.ptr<f32>> loc(#loc18)
    %21 = tt.addptr %20, %6 : tensor<1024x!tt.ptr<f32>>, tensor<1024xi32> loc(#loc18)
    %22 = tt.load %21 evictionPolicy = evict_last : tensor<1024x!tt.ptr<f32>> loc(#loc19)
    %23 = tt.splat %arg5 : !tt.ptr<f32> -> tensor<1024x!tt.ptr<f32>> loc(#loc20)
    %24 = tt.addptr %23, %6 : tensor<1024x!tt.ptr<f32>>, tensor<1024xi32> loc(#loc20)
    %25 = tt.load %24 evictionPolicy = evict_last : tensor<1024x!tt.ptr<f32>> loc(#loc21)
    %26 = tt.splat %arg6 : !tt.ptr<f32> -> tensor<1024x!tt.ptr<f32>> loc(#loc22)
    %27 = tt.addptr %26, %6 : tensor<1024x!tt.ptr<f32>>, tensor<1024xi32> loc(#loc22)
    %28 = tt.load %27 evictionPolicy = evict_last : tensor<1024x!tt.ptr<f32>> loc(#loc23)
    %29 = tt.splat %arg7 : !tt.ptr<f32> -> tensor<1024x!tt.ptr<f32>> loc(#loc24)
    %30 = tt.addptr %29, %6 : tensor<1024x!tt.ptr<f32>>, tensor<1024xi32> loc(#loc24)
    %31 = tt.load %30 evictionPolicy = evict_last : tensor<1024x!tt.ptr<f32>> loc(#loc25)
    %32 = arith.addf %11, %14 : tensor<1024xf32> loc(#loc26)
    %33 = arith.addf %32, %19 : tensor<1024xf32> loc(#loc27)
    %34 = arith.subf %33, %22 : tensor<1024xf32> loc(#loc28)
    %35 = arith.addf %25, %cst_1 : tensor<1024xf32> loc(#loc29)
    %36 = tt.extern_elementwise %35 {libname = "", libpath = "", pure = true, symbol = "__nv_sqrtf"} : (tensor<1024xf32>) -> tensor<1024xf32> loc(#loc30)
    %37 = arith.divf %cst, %36 : tensor<1024xf32> loc(#loc31)
    %38 = arith.mulf %34, %37 : tensor<1024xf32> loc(#loc32)
    %39 = arith.mulf %38, %28 : tensor<1024xf32> loc(#loc33)
    %40 = arith.addf %39, %31 : tensor<1024xf32> loc(#loc34)
    %41 = arith.cmpf ogt, %40, %cst_0 : tensor<1024xf32> loc(#loc35)
    %42 = tt.extern_elementwise %40 {libname = "", libpath = "", pure = true, symbol = "__nv_expm1f"} : (tensor<1024xf32>) -> tensor<1024xf32> loc(#loc36)
    %43 = arith.select %41, %40, %42 : tensor<1024xi1>, tensor<1024xf32> loc(#loc37)
    tt.store %10, %32 : tensor<1024x!tt.ptr<f32>> loc(#loc38)
    %44 = tt.splat %arg1 : !tt.ptr<f32> -> tensor<1024x!tt.ptr<f32>> loc(#loc39)
    %45 = tt.addptr %44, %4 : tensor<1024x!tt.ptr<f32>>, tensor<1024xi32> loc(#loc39)
    tt.store %45, %43 : tensor<1024x!tt.ptr<f32>> loc(#loc40)
    tt.return loc(#loc41)
  } loc(#loc)
} loc(#loc)
#loc1 = loc(unknown)
#loc2 = loc("inductor_cache/4j/c4jn752pjw7xbl2w4s23o6my2ntfpyb7c277xtasp3inlqosomgf.py":21:28)
#loc3 = loc("inductor_cache/4j/c4jn752pjw7xbl2w4s23o6my2ntfpyb7c277xtasp3inlqosomgf.py":21:33)
#loc4 = loc("inductor_cache/4j/c4jn752pjw7xbl2w4s23o6my2ntfpyb7c277xtasp3inlqosomgf.py":22:36)
#loc5 = loc("inductor_cache/4j/c4jn752pjw7xbl2w4s23o6my2ntfpyb7c277xtasp3inlqosomgf.py":22:23)
#loc6 = loc("inductor_cache/4j/c4jn752pjw7xbl2w4s23o6my2ntfpyb7c277xtasp3inlqosomgf.py":25:21)
#loc7 = loc("inductor_cache/4j/c4jn752pjw7xbl2w4s23o6my2ntfpyb7c277xtasp3inlqosomgf.py":25:29)
#loc8 = loc("inductor_cache/4j/c4jn752pjw7xbl2w4s23o6my2ntfpyb7c277xtasp3inlqosomgf.py":26:19)
#loc9 = loc("inductor_cache/4j/c4jn752pjw7xbl2w4s23o6my2ntfpyb7c277xtasp3inlqosomgf.py":27:19)
#loc10 = loc("inductor_cache/4j/c4jn752pjw7xbl2w4s23o6my2ntfpyb7c277xtasp3inlqosomgf.py":28:34)
#loc11 = loc("inductor_cache/4j/c4jn752pjw7xbl2w4s23o6my2ntfpyb7c277xtasp3inlqosomgf.py":28:39)
#loc12 = loc("inductor_cache/4j/c4jn752pjw7xbl2w4s23o6my2ntfpyb7c277xtasp3inlqosomgf.py":29:30)
#loc13 = loc("inductor_cache/4j/c4jn752pjw7xbl2w4s23o6my2ntfpyb7c277xtasp3inlqosomgf.py":29:35)
#loc14 = loc("inductor_cache/4j/c4jn752pjw7xbl2w4s23o6my2ntfpyb7c277xtasp3inlqosomgf.py":30:42)
#loc15 = loc("inductor_cache/4j/c4jn752pjw7xbl2w4s23o6my2ntfpyb7c277xtasp3inlqosomgf.py":30:35)
#loc16 = loc("inductor_cache/4j/c4jn752pjw7xbl2w4s23o6my2ntfpyb7c277xtasp3inlqosomgf.py":30:30)
#loc17 = loc("inductor_cache/4j/c4jn752pjw7xbl2w4s23o6my2ntfpyb7c277xtasp3inlqosomgf.py":30:47)
#loc18 = loc("inductor_cache/4j/c4jn752pjw7xbl2w4s23o6my2ntfpyb7c277xtasp3inlqosomgf.py":31:30)
#loc19 = loc("inductor_cache/4j/c4jn752pjw7xbl2w4s23o6my2ntfpyb7c277xtasp3inlqosomgf.py":31:35)
#loc20 = loc("inductor_cache/4j/c4jn752pjw7xbl2w4s23o6my2ntfpyb7c277xtasp3inlqosomgf.py":32:30)
#loc21 = loc("inductor_cache/4j/c4jn752pjw7xbl2w4s23o6my2ntfpyb7c277xtasp3inlqosomgf.py":32:35)
#loc22 = loc("inductor_cache/4j/c4jn752pjw7xbl2w4s23o6my2ntfpyb7c277xtasp3inlqosomgf.py":33:31)
#loc23 = loc("inductor_cache/4j/c4jn752pjw7xbl2w4s23o6my2ntfpyb7c277xtasp3inlqosomgf.py":33:36)
#loc24 = loc("inductor_cache/4j/c4jn752pjw7xbl2w4s23o6my2ntfpyb7c277xtasp3inlqosomgf.py":34:31)
#loc25 = loc("inductor_cache/4j/c4jn752pjw7xbl2w4s23o6my2ntfpyb7c277xtasp3inlqosomgf.py":34:36)
#loc26 = loc("inductor_cache/4j/c4jn752pjw7xbl2w4s23o6my2ntfpyb7c277xtasp3inlqosomgf.py":35:18)
#loc27 = loc("inductor_cache/4j/c4jn752pjw7xbl2w4s23o6my2ntfpyb7c277xtasp3inlqosomgf.py":36:18)
#loc28 = loc("inductor_cache/4j/c4jn752pjw7xbl2w4s23o6my2ntfpyb7c277xtasp3inlqosomgf.py":37:18)
#loc29 = loc("inductor_cache/4j/c4jn752pjw7xbl2w4s23o6my2ntfpyb7c277xtasp3inlqosomgf.py":39:18)
#loc30 = loc("inductor_cache/4j/c4jn752pjw7xbl2w4s23o6my2ntfpyb7c277xtasp3inlqosomgf.py":40:27)
#loc31 = loc("inductor_cache/4j/c4jn752pjw7xbl2w4s23o6my2ntfpyb7c277xtasp3inlqosomgf.py":42:20)
#loc32 = loc("inductor_cache/4j/c4jn752pjw7xbl2w4s23o6my2ntfpyb7c277xtasp3inlqosomgf.py":45:19)
#loc33 = loc("inductor_cache/4j/c4jn752pjw7xbl2w4s23o6my2ntfpyb7c277xtasp3inlqosomgf.py":46:20)
#loc34 = loc("inductor_cache/4j/c4jn752pjw7xbl2w4s23o6my2ntfpyb7c277xtasp3inlqosomgf.py":47:20)
#loc35 = loc("inductor_cache/4j/c4jn752pjw7xbl2w4s23o6my2ntfpyb7c277xtasp3inlqosomgf.py":49:20)
#loc36 = loc("inductor_cache/4j/c4jn752pjw7xbl2w4s23o6my2ntfpyb7c277xtasp3inlqosomgf.py":51:28)
#loc37 = loc("inductor_cache/4j/c4jn752pjw7xbl2w4s23o6my2ntfpyb7c277xtasp3inlqosomgf.py":53:35)
#loc38 = loc("inductor_cache/4j/c4jn752pjw7xbl2w4s23o6my2ntfpyb7c277xtasp3inlqosomgf.py":54:39)
#loc39 = loc("inductor_cache/4j/c4jn752pjw7xbl2w4s23o6my2ntfpyb7c277xtasp3inlqosomgf.py":55:28)
#loc40 = loc("inductor_cache/4j/c4jn752pjw7xbl2w4s23o6my2ntfpyb7c277xtasp3inlqosomgf.py":55:40)
#loc41 = loc("inductor_cache/4j/c4jn752pjw7xbl2w4s23o6my2ntfpyb7c277xtasp3inlqosomgf.py":55:4)
