#loc = loc("inductor_cache/t7/ct7uvtjgkgkfacsvs7wgbp6upmzkfflzf2c72n7bif547y773bu3.py":19:0)
module {
  tt.func public @triton_poi_fused_add_convolution_mul_18(%arg0: !tt.ptr<f32> {tt.divisibility = 16 : i32} loc("inductor_cache/t7/ct7uvtjgkgkfacsvs7wgbp6upmzkfflzf2c72n7bif547y773bu3.py":19:0), %arg1: !tt.ptr<f32> {tt.divisibility = 16 : i32} loc("inductor_cache/t7/ct7uvtjgkgkfacsvs7wgbp6upmzkfflzf2c72n7bif547y773bu3.py":19:0), %arg2: !tt.ptr<f32> {tt.divisibility = 16 : i32} loc("inductor_cache/t7/ct7uvtjgkgkfacsvs7wgbp6upmzkfflzf2c72n7bif547y773bu3.py":19:0), %arg3: !tt.ptr<f32> {tt.divisibility = 16 : i32} loc("inductor_cache/t7/ct7uvtjgkgkfacsvs7wgbp6upmzkfflzf2c72n7bif547y773bu3.py":19:0), %arg4: !tt.ptr<f32> {tt.divisibility = 16 : i32} loc("inductor_cache/t7/ct7uvtjgkgkfacsvs7wgbp6upmzkfflzf2c72n7bif547y773bu3.py":19:0), %arg5: !tt.ptr<f32> {tt.divisibility = 16 : i32} loc("inductor_cache/t7/ct7uvtjgkgkfacsvs7wgbp6upmzkfflzf2c72n7bif547y773bu3.py":19:0), %arg6: !tt.ptr<f32> {tt.divisibility = 16 : i32} loc("inductor_cache/t7/ct7uvtjgkgkfacsvs7wgbp6upmzkfflzf2c72n7bif547y773bu3.py":19:0), %arg7: !tt.ptr<f32> {tt.divisibility = 16 : i32} loc("inductor_cache/t7/ct7uvtjgkgkfacsvs7wgbp6upmzkfflzf2c72n7bif547y773bu3.py":19:0), %arg8: i32 {tt.divisibility = 16 : i32} loc("inductor_cache/t7/ct7uvtjgkgkfacsvs7wgbp6upmzkfflzf2c72n7bif547y773bu3.py":19:0), %arg9: i32 {tt.divisibility = 16 : i32} loc("inductor_cache/t7/ct7uvtjgkgkfacsvs7wgbp6upmzkfflzf2c72n7bif547y773bu3.py":19:0)) attributes {noinline = false} {
    %c128_i32 = arith.constant 128 : i32 loc(#loc1)
    %cst = arith.constant dense<131072> : tensor<1x1024xi32> loc(#loc1)
    %cst_0 = arith.constant dense<128> : tensor<1x1024xi32> loc(#loc1)
    %cst_1 = arith.constant dense<1024> : tensor<1x1024xi32> loc(#loc1)
    %c1024_i32 = arith.constant 1024 : i32 loc(#loc1)
    %0 = tt.get_program_id y : i32 loc(#loc2)
    %1 = arith.muli %0, %c1024_i32 : i32 loc(#loc3)
    %2 = tt.make_range {end = 1024 : i32, start = 0 : i32} : tensor<1024xi32> loc(#loc4)
    %3 = tt.expand_dims %2 {axis = 0 : i32} : tensor<1024xi32> -> tensor<1x1024xi32> loc(#loc5)
    %4 = tt.splat %1 : i32 -> tensor<1x1024xi32> loc(#loc6)
    %5 = arith.addi %4, %3 : tensor<1x1024xi32> loc(#loc6)
    %6 = tt.get_program_id x : i32 loc(#loc7)
    %7 = arith.cmpi slt, %6, %c128_i32 : i32 loc(#loc8)
    %8 = tt.splat %7 : i1 -> tensor<1x1xi1> loc(#loc8)
    %9 = arith.remsi %5, %cst_1 : tensor<1x1024xi32> loc(#loc9)
    %10 = arith.divsi %5, %cst_1 : tensor<1x1024xi32> loc(#loc10)
    %11 = arith.muli %5, %cst_0 : tensor<1x1024xi32> loc(#loc11)
    %12 = tt.splat %6 : i32 -> tensor<1x1024xi32> loc(#loc12)
    %13 = arith.addi %12, %11 : tensor<1x1024xi32> loc(#loc12)
    %14 = tt.splat %arg0 : !tt.ptr<f32> -> tensor<1x1024x!tt.ptr<f32>> loc(#loc13)
    %15 = tt.addptr %14, %13 : tensor<1x1024x!tt.ptr<f32>>, tensor<1x1024xi32> loc(#loc13)
    %16 = tt.splat %7 : i1 -> tensor<1x1024xi1> loc(#loc14)
    %17 = tt.load %15, %16 evictionPolicy = evict_last : tensor<1x1024x!tt.ptr<f32>> loc(#loc14)
    %18 = tt.addptr %arg1, %6 : !tt.ptr<f32>, i32 loc(#loc15)
    %19 = tt.splat %18 : !tt.ptr<f32> -> tensor<1x1x!tt.ptr<f32>> loc(#loc15)
    %20 = tt.load %19, %8 evictionPolicy = evict_last : tensor<1x1x!tt.ptr<f32>> loc(#loc16)
    %21 = tt.addptr %arg2, %6 : !tt.ptr<f32>, i32 loc(#loc17)
    %22 = tt.splat %21 : !tt.ptr<f32> -> tensor<1x1x!tt.ptr<f32>> loc(#loc17)
    %23 = tt.load %22, %8 evictionPolicy = evict_last : tensor<1x1x!tt.ptr<f32>> loc(#loc18)
    %24 = tt.splat %arg3 : !tt.ptr<f32> -> tensor<1x1024x!tt.ptr<f32>> loc(#loc19)
    %25 = tt.addptr %24, %13 : tensor<1x1024x!tt.ptr<f32>>, tensor<1x1024xi32> loc(#loc19)
    %26 = tt.load %25, %16 evictionPolicy = evict_last : tensor<1x1024x!tt.ptr<f32>> loc(#loc20)
    %27 = tt.addptr %arg4, %6 : !tt.ptr<f32>, i32 loc(#loc21)
    %28 = tt.splat %27 : !tt.ptr<f32> -> tensor<1x1x!tt.ptr<f32>> loc(#loc21)
    %29 = tt.load %28, %8 evictionPolicy = evict_last : tensor<1x1x!tt.ptr<f32>> loc(#loc22)
    %30 = tt.addptr %arg5, %6 : !tt.ptr<f32>, i32 loc(#loc23)
    %31 = tt.splat %30 : !tt.ptr<f32> -> tensor<1x1x!tt.ptr<f32>> loc(#loc23)
    %32 = tt.load %31, %8 evictionPolicy = evict_last : tensor<1x1x!tt.ptr<f32>> loc(#loc24)
    %33 = tt.addptr %arg6, %6 : !tt.ptr<f32>, i32 loc(#loc25)
    %34 = tt.splat %33 : !tt.ptr<f32> -> tensor<1x1x!tt.ptr<f32>> loc(#loc25)
    %35 = tt.load %34, %8 evictionPolicy = evict_last : tensor<1x1x!tt.ptr<f32>> loc(#loc26)
    %36 = tt.broadcast %20 : tensor<1x1xf32> -> tensor<1x1024xf32> loc(#loc27)
    %37 = arith.addf %17, %36 : tensor<1x1024xf32> loc(#loc27)
    %38 = tt.broadcast %23 : tensor<1x1xf32> -> tensor<1x1024xf32> loc(#loc28)
    %39 = arith.mulf %38, %26 : tensor<1x1024xf32> loc(#loc28)
    %40 = tt.broadcast %29 : tensor<1x1xf32> -> tensor<1x1024xf32> loc(#loc29)
    %41 = arith.addf %39, %40 : tensor<1x1024xf32> loc(#loc29)
    %42 = tt.broadcast %32 : tensor<1x1xf32> -> tensor<1x1024xf32> loc(#loc30)
    %43 = arith.mulf %42, %37 : tensor<1x1024xf32> loc(#loc30)
    %44 = tt.broadcast %35 : tensor<1x1xf32> -> tensor<1x1024xf32> loc(#loc31)
    %45 = arith.addf %43, %44 : tensor<1x1024xf32> loc(#loc31)
    %46 = arith.addf %41, %45 : tensor<1x1024xf32> loc(#loc32)
    gpu.barrier loc(#loc33)
    tt.store %15, %37, %16 : tensor<1x1024x!tt.ptr<f32>> loc(#loc34)
    %47 = arith.muli %6, %c1024_i32 : i32 loc(#loc35)
    %48 = tt.splat %47 : i32 -> tensor<1x1024xi32> loc(#loc36)
    %49 = arith.addi %9, %48 : tensor<1x1024xi32> loc(#loc36)
    %50 = arith.muli %10, %cst : tensor<1x1024xi32> loc(#loc37)
    %51 = arith.addi %49, %50 : tensor<1x1024xi32> loc(#loc38)
    %52 = tt.splat %arg7 : !tt.ptr<f32> -> tensor<1x1024x!tt.ptr<f32>> loc(#loc39)
    %53 = tt.addptr %52, %51 : tensor<1x1024x!tt.ptr<f32>>, tensor<1x1024xi32> loc(#loc39)
    tt.store %53, %46, %16 : tensor<1x1024x!tt.ptr<f32>> loc(#loc40)
    tt.return loc(#loc41)
  } loc(#loc)
} loc(#loc)
#loc1 = loc(unknown)
#loc2 = loc("inductor_cache/t7/ct7uvtjgkgkfacsvs7wgbp6upmzkfflzf2c72n7bif547y773bu3.py":22:28)
#loc3 = loc("inductor_cache/t7/ct7uvtjgkgkfacsvs7wgbp6upmzkfflzf2c72n7bif547y773bu3.py":22:33)
#loc4 = loc("inductor_cache/t7/ct7uvtjgkgkfacsvs7wgbp6upmzkfflzf2c72n7bif547y773bu3.py":23:36)
#loc5 = loc("inductor_cache/t7/ct7uvtjgkgkfacsvs7wgbp6upmzkfflzf2c72n7bif547y773bu3.py":23:44)
#loc6 = loc("inductor_cache/t7/ct7uvtjgkgkfacsvs7wgbp6upmzkfflzf2c72n7bif547y773bu3.py":23:23)
#loc7 = loc("inductor_cache/t7/ct7uvtjgkgkfacsvs7wgbp6upmzkfflzf2c72n7bif547y773bu3.py":25:28)
#loc8 = loc("inductor_cache/t7/ct7uvtjgkgkfacsvs7wgbp6upmzkfflzf2c72n7bif547y773bu3.py":27:21)
#loc9 = loc("inductor_cache/t7/ct7uvtjgkgkfacsvs7wgbp6upmzkfflzf2c72n7bif547y773bu3.py":30:19)
#loc10 = loc("inductor_cache/t7/ct7uvtjgkgkfacsvs7wgbp6upmzkfflzf2c72n7bif547y773bu3.py":31:19)
#loc11 = loc("inductor_cache/t7/ct7uvtjgkgkfacsvs7wgbp6upmzkfflzf2c72n7bif547y773bu3.py":32:43)
#loc12 = loc("inductor_cache/t7/ct7uvtjgkgkfacsvs7wgbp6upmzkfflzf2c72n7bif547y773bu3.py":32:39)
#loc13 = loc("inductor_cache/t7/ct7uvtjgkgkfacsvs7wgbp6upmzkfflzf2c72n7bif547y773bu3.py":32:34)
#loc14 = loc("inductor_cache/t7/ct7uvtjgkgkfacsvs7wgbp6upmzkfflzf2c72n7bif547y773bu3.py":32:48)
#loc15 = loc("inductor_cache/t7/ct7uvtjgkgkfacsvs7wgbp6upmzkfflzf2c72n7bif547y773bu3.py":33:30)
#loc16 = loc("inductor_cache/t7/ct7uvtjgkgkfacsvs7wgbp6upmzkfflzf2c72n7bif547y773bu3.py":33:35)
#loc17 = loc("inductor_cache/t7/ct7uvtjgkgkfacsvs7wgbp6upmzkfflzf2c72n7bif547y773bu3.py":34:30)
#loc18 = loc("inductor_cache/t7/ct7uvtjgkgkfacsvs7wgbp6upmzkfflzf2c72n7bif547y773bu3.py":34:35)
#loc19 = loc("inductor_cache/t7/ct7uvtjgkgkfacsvs7wgbp6upmzkfflzf2c72n7bif547y773bu3.py":35:30)
#loc20 = loc("inductor_cache/t7/ct7uvtjgkgkfacsvs7wgbp6upmzkfflzf2c72n7bif547y773bu3.py":35:44)
#loc21 = loc("inductor_cache/t7/ct7uvtjgkgkfacsvs7wgbp6upmzkfflzf2c72n7bif547y773bu3.py":36:30)
#loc22 = loc("inductor_cache/t7/ct7uvtjgkgkfacsvs7wgbp6upmzkfflzf2c72n7bif547y773bu3.py":36:35)
#loc23 = loc("inductor_cache/t7/ct7uvtjgkgkfacsvs7wgbp6upmzkfflzf2c72n7bif547y773bu3.py":37:30)
#loc24 = loc("inductor_cache/t7/ct7uvtjgkgkfacsvs7wgbp6upmzkfflzf2c72n7bif547y773bu3.py":37:35)
#loc25 = loc("inductor_cache/t7/ct7uvtjgkgkfacsvs7wgbp6upmzkfflzf2c72n7bif547y773bu3.py":38:31)
#loc26 = loc("inductor_cache/t7/ct7uvtjgkgkfacsvs7wgbp6upmzkfflzf2c72n7bif547y773bu3.py":38:36)
#loc27 = loc("inductor_cache/t7/ct7uvtjgkgkfacsvs7wgbp6upmzkfflzf2c72n7bif547y773bu3.py":39:18)
#loc28 = loc("inductor_cache/t7/ct7uvtjgkgkfacsvs7wgbp6upmzkfflzf2c72n7bif547y773bu3.py":40:18)
#loc29 = loc("inductor_cache/t7/ct7uvtjgkgkfacsvs7wgbp6upmzkfflzf2c72n7bif547y773bu3.py":41:18)
#loc30 = loc("inductor_cache/t7/ct7uvtjgkgkfacsvs7wgbp6upmzkfflzf2c72n7bif547y773bu3.py":42:18)
#loc31 = loc("inductor_cache/t7/ct7uvtjgkgkfacsvs7wgbp6upmzkfflzf2c72n7bif547y773bu3.py":43:19)
#loc32 = loc("inductor_cache/t7/ct7uvtjgkgkfacsvs7wgbp6upmzkfflzf2c72n7bif547y773bu3.py":44:19)
#loc33 = loc("inductor_cache/t7/ct7uvtjgkgkfacsvs7wgbp6upmzkfflzf2c72n7bif547y773bu3.py":45:4)
#loc34 = loc("inductor_cache/t7/ct7uvtjgkgkfacsvs7wgbp6upmzkfflzf2c72n7bif547y773bu3.py":46:48)
#loc35 = loc("inductor_cache/t7/ct7uvtjgkgkfacsvs7wgbp6upmzkfflzf2c72n7bif547y773bu3.py":47:35)
#loc36 = loc("inductor_cache/t7/ct7uvtjgkgkfacsvs7wgbp6upmzkfflzf2c72n7bif547y773bu3.py":47:30)
#loc37 = loc("inductor_cache/t7/ct7uvtjgkgkfacsvs7wgbp6upmzkfflzf2c72n7bif547y773bu3.py":47:47)
#loc38 = loc("inductor_cache/t7/ct7uvtjgkgkfacsvs7wgbp6upmzkfflzf2c72n7bif547y773bu3.py":47:40)
#loc39 = loc("inductor_cache/t7/ct7uvtjgkgkfacsvs7wgbp6upmzkfflzf2c72n7bif547y773bu3.py":47:25)
#loc40 = loc("inductor_cache/t7/ct7uvtjgkgkfacsvs7wgbp6upmzkfflzf2c72n7bif547y773bu3.py":47:59)
#loc41 = loc("inductor_cache/t7/ct7uvtjgkgkfacsvs7wgbp6upmzkfflzf2c72n7bif547y773bu3.py":47:4)
