#loc = loc("inductor_cache/6h/c6hb5osixqfolktdv6zhzfoegxdcrbaouwjwi44j2o4uo4y7wgui.py":19:0)
module {
  tt.func public @triton_poi_fused__native_batch_norm_legit_no_training_add_convolution_mul_sigmoid_silu_5(%arg0: !tt.ptr<f32> {tt.divisibility = 16 : i32} loc("inductor_cache/6h/c6hb5osixqfolktdv6zhzfoegxdcrbaouwjwi44j2o4uo4y7wgui.py":19:0), %arg1: !tt.ptr<f32> {tt.divisibility = 16 : i32} loc("inductor_cache/6h/c6hb5osixqfolktdv6zhzfoegxdcrbaouwjwi44j2o4uo4y7wgui.py":19:0), %arg2: !tt.ptr<f32> {tt.divisibility = 16 : i32} loc("inductor_cache/6h/c6hb5osixqfolktdv6zhzfoegxdcrbaouwjwi44j2o4uo4y7wgui.py":19:0), %arg3: !tt.ptr<f32> {tt.divisibility = 16 : i32} loc("inductor_cache/6h/c6hb5osixqfolktdv6zhzfoegxdcrbaouwjwi44j2o4uo4y7wgui.py":19:0), %arg4: !tt.ptr<f32> {tt.divisibility = 16 : i32} loc("inductor_cache/6h/c6hb5osixqfolktdv6zhzfoegxdcrbaouwjwi44j2o4uo4y7wgui.py":19:0), %arg5: !tt.ptr<f32> {tt.divisibility = 16 : i32} loc("inductor_cache/6h/c6hb5osixqfolktdv6zhzfoegxdcrbaouwjwi44j2o4uo4y7wgui.py":19:0), %arg6: !tt.ptr<f32> {tt.divisibility = 16 : i32} loc("inductor_cache/6h/c6hb5osixqfolktdv6zhzfoegxdcrbaouwjwi44j2o4uo4y7wgui.py":19:0), %arg7: !tt.ptr<f32> {tt.divisibility = 16 : i32} loc("inductor_cache/6h/c6hb5osixqfolktdv6zhzfoegxdcrbaouwjwi44j2o4uo4y7wgui.py":19:0), %arg8: !tt.ptr<f32> {tt.divisibility = 16 : i32} loc("inductor_cache/6h/c6hb5osixqfolktdv6zhzfoegxdcrbaouwjwi44j2o4uo4y7wgui.py":19:0), %arg9: !tt.ptr<f32> {tt.divisibility = 16 : i32} loc("inductor_cache/6h/c6hb5osixqfolktdv6zhzfoegxdcrbaouwjwi44j2o4uo4y7wgui.py":19:0), %arg10: !tt.ptr<f32> {tt.divisibility = 16 : i32} loc("inductor_cache/6h/c6hb5osixqfolktdv6zhzfoegxdcrbaouwjwi44j2o4uo4y7wgui.py":19:0), %arg11: !tt.ptr<f32> {tt.divisibility = 16 : i32} loc("inductor_cache/6h/c6hb5osixqfolktdv6zhzfoegxdcrbaouwjwi44j2o4uo4y7wgui.py":19:0), %arg12: !tt.ptr<f32> {tt.divisibility = 16 : i32} loc("inductor_cache/6h/c6hb5osixqfolktdv6zhzfoegxdcrbaouwjwi44j2o4uo4y7wgui.py":19:0), %arg13: !tt.ptr<f32> {tt.divisibility = 16 : i32} loc("inductor_cache/6h/c6hb5osixqfolktdv6zhzfoegxdcrbaouwjwi44j2o4uo4y7wgui.py":19:0), %arg14: !tt.ptr<f32> {tt.divisibility = 16 : i32} loc("inductor_cache/6h/c6hb5osixqfolktdv6zhzfoegxdcrbaouwjwi44j2o4uo4y7wgui.py":19:0), %arg15: i32 {tt.divisibility = 16 : i32} loc("inductor_cache/6h/c6hb5osixqfolktdv6zhzfoegxdcrbaouwjwi44j2o4uo4y7wgui.py":19:0), %arg16: i32 {tt.divisibility = 16 : i32} loc("inductor_cache/6h/c6hb5osixqfolktdv6zhzfoegxdcrbaouwjwi44j2o4uo4y7wgui.py":19:0)) attributes {noinline = false} {
    %cst = arith.constant dense<0.000000e+00> : tensor<32x32xf32> loc(#loc1)
    %cst_0 = arith.constant dense<1.000000e+00> : tensor<32x32xf32> loc(#loc1)
    %cst_1 = arith.constant dense<1.000000e+00> : tensor<32x1xf32> loc(#loc1)
    %cst_2 = arith.constant dense<2097152> : tensor<1x32xi32> loc(#loc1)
    %cst_3 = arith.constant dense<4096> : tensor<32x1xi32> loc(#loc1)
    %cst_4 = arith.constant dense<9.99999974E-6> : tensor<32x1xf32> loc(#loc1)
    %cst_5 = arith.constant dense<512> : tensor<1x32xi32> loc(#loc1)
    %cst_6 = arith.constant dense<4096> : tensor<1x32xi32> loc(#loc1)
    %cst_7 = arith.constant dense<512> : tensor<32x1xi32> loc(#loc1)
    %c32_i32 = arith.constant 32 : i32 loc(#loc1)
    %0 = tt.get_program_id y : i32 loc(#loc2)
    %1 = arith.muli %0, %c32_i32 : i32 loc(#loc3)
    %2 = tt.make_range {end = 32 : i32, start = 0 : i32} : tensor<32xi32> loc(#loc4)
    %3 = tt.expand_dims %2 {axis = 0 : i32} : tensor<32xi32> -> tensor<1x32xi32> loc(#loc5)
    %4 = tt.splat %1 : i32 -> tensor<1x32xi32> loc(#loc6)
    %5 = arith.addi %4, %3 : tensor<1x32xi32> loc(#loc6)
    %6 = tt.get_program_id x : i32 loc(#loc7)
    %7 = arith.muli %6, %c32_i32 : i32 loc(#loc8)
    %8 = tt.expand_dims %2 {axis = 1 : i32} : tensor<32xi32> -> tensor<32x1xi32> loc(#loc9)
    %9 = tt.splat %7 : i32 -> tensor<32x1xi32> loc(#loc10)
    %10 = arith.addi %9, %8 : tensor<32x1xi32> loc(#loc10)
    %11 = arith.cmpi slt, %10, %cst_7 : tensor<32x1xi32> loc(#loc11)
    %12 = arith.divsi %5, %cst_6 : tensor<1x32xi32> loc(#loc12)
    %13 = arith.remsi %5, %cst_6 : tensor<1x32xi32> loc(#loc13)
    %14 = arith.muli %5, %cst_5 : tensor<1x32xi32> loc(#loc14)
    %15 = tt.broadcast %10 : tensor<32x1xi32> -> tensor<32x32xi32> loc(#loc15)
    %16 = tt.broadcast %14 : tensor<1x32xi32> -> tensor<32x32xi32> loc(#loc15)
    %17 = arith.addi %15, %16 : tensor<32x32xi32> loc(#loc15)
    %18 = tt.splat %arg0 : !tt.ptr<f32> -> tensor<32x32x!tt.ptr<f32>> loc(#loc16)
    %19 = tt.addptr %18, %17 : tensor<32x32x!tt.ptr<f32>>, tensor<32x32xi32> loc(#loc16)
    %20 = tt.broadcast %11 : tensor<32x1xi1> -> tensor<32x32xi1> loc(#loc17)
    %21 = tt.load %19, %20 evictionPolicy = evict_last : tensor<32x32x!tt.ptr<f32>> loc(#loc17)
    %22 = tt.splat %arg2 : !tt.ptr<f32> -> tensor<32x1x!tt.ptr<f32>> loc(#loc18)
    %23 = tt.addptr %22, %10 : tensor<32x1x!tt.ptr<f32>>, tensor<32x1xi32> loc(#loc18)
    %24 = tt.load %23, %11 evictionPolicy = evict_last : tensor<32x1x!tt.ptr<f32>> loc(#loc19)
    %25 = tt.splat %arg1 : !tt.ptr<f32> -> tensor<32x32x!tt.ptr<f32>> loc(#loc20)
    %26 = tt.addptr %25, %17 : tensor<32x32x!tt.ptr<f32>>, tensor<32x32xi32> loc(#loc20)
    %27 = tt.load %26, %20 evictionPolicy = evict_last : tensor<32x32x!tt.ptr<f32>> loc(#loc21)
    %28 = tt.splat %arg3 : !tt.ptr<f32> -> tensor<32x1x!tt.ptr<f32>> loc(#loc22)
    %29 = tt.addptr %28, %10 : tensor<32x1x!tt.ptr<f32>>, tensor<32x1xi32> loc(#loc22)
    %30 = tt.load %29, %11 evictionPolicy = evict_last : tensor<32x1x!tt.ptr<f32>> loc(#loc23)
    %31 = tt.splat %arg4 : !tt.ptr<f32> -> tensor<32x1x!tt.ptr<f32>> loc(#loc24)
    %32 = tt.addptr %31, %10 : tensor<32x1x!tt.ptr<f32>>, tensor<32x1xi32> loc(#loc24)
    %33 = tt.load %32, %11 evictionPolicy = evict_last : tensor<32x1x!tt.ptr<f32>> loc(#loc25)
    %34 = tt.splat %arg5 : !tt.ptr<f32> -> tensor<32x1x!tt.ptr<f32>> loc(#loc26)
    %35 = tt.addptr %34, %10 : tensor<32x1x!tt.ptr<f32>>, tensor<32x1xi32> loc(#loc26)
    %36 = tt.load %35, %11 evictionPolicy = evict_last : tensor<32x1x!tt.ptr<f32>> loc(#loc27)
    %37 = tt.splat %arg6 : !tt.ptr<f32> -> tensor<32x1x!tt.ptr<f32>> loc(#loc28)
    %38 = tt.addptr %37, %10 : tensor<32x1x!tt.ptr<f32>>, tensor<32x1xi32> loc(#loc28)
    %39 = tt.load %38, %11 evictionPolicy = evict_last : tensor<32x1x!tt.ptr<f32>> loc(#loc29)
    %40 = tt.splat %arg7 : !tt.ptr<f32> -> tensor<32x1x!tt.ptr<f32>> loc(#loc30)
    %41 = tt.addptr %40, %10 : tensor<32x1x!tt.ptr<f32>>, tensor<32x1xi32> loc(#loc30)
    %42 = tt.load %41, %11 evictionPolicy = evict_last : tensor<32x1x!tt.ptr<f32>> loc(#loc31)
    %43 = tt.splat %arg8 : !tt.ptr<f32> -> tensor<32x1x!tt.ptr<f32>> loc(#loc32)
    %44 = tt.addptr %43, %10 : tensor<32x1x!tt.ptr<f32>>, tensor<32x1xi32> loc(#loc32)
    %45 = tt.load %44, %11 evictionPolicy = evict_last : tensor<32x1x!tt.ptr<f32>> loc(#loc33)
    %46 = tt.splat %arg9 : !tt.ptr<f32> -> tensor<32x1x!tt.ptr<f32>> loc(#loc34)
    %47 = tt.addptr %46, %10 : tensor<32x1x!tt.ptr<f32>>, tensor<32x1xi32> loc(#loc34)
    %48 = tt.load %47, %11 evictionPolicy = evict_last : tensor<32x1x!tt.ptr<f32>> loc(#loc35)
    %49 = tt.splat %arg10 : !tt.ptr<f32> -> tensor<32x1x!tt.ptr<f32>> loc(#loc36)
    %50 = tt.addptr %49, %10 : tensor<32x1x!tt.ptr<f32>>, tensor<32x1xi32> loc(#loc36)
    %51 = tt.load %50, %11 evictionPolicy = evict_last : tensor<32x1x!tt.ptr<f32>> loc(#loc37)
    %52 = tt.splat %arg11 : !tt.ptr<f32> -> tensor<32x1x!tt.ptr<f32>> loc(#loc38)
    %53 = tt.addptr %52, %10 : tensor<32x1x!tt.ptr<f32>>, tensor<32x1xi32> loc(#loc38)
    %54 = tt.load %53, %11 evictionPolicy = evict_last : tensor<32x1x!tt.ptr<f32>> loc(#loc39)
    %55 = arith.muli %12, %cst_5 : tensor<1x32xi32> loc(#loc40)
    %56 = tt.broadcast %55 : tensor<1x32xi32> -> tensor<32x32xi32> loc(#loc41)
    %57 = arith.addi %15, %56 : tensor<32x32xi32> loc(#loc41)
    %58 = tt.splat %arg12 : !tt.ptr<f32> -> tensor<32x32x!tt.ptr<f32>> loc(#loc42)
    %59 = tt.addptr %58, %57 : tensor<32x32x!tt.ptr<f32>>, tensor<32x32xi32> loc(#loc42)
    %60 = tt.load %59, %20 evictionPolicy = evict_last : tensor<32x32x!tt.ptr<f32>> loc(#loc43)
    %61 = tt.splat %arg13 : !tt.ptr<f32> -> tensor<32x32x!tt.ptr<f32>> loc(#loc44)
    %62 = tt.addptr %61, %17 : tensor<32x32x!tt.ptr<f32>>, tensor<32x32xi32> loc(#loc44)
    %63 = tt.load %62, %20 evictionPolicy = evict_last : tensor<32x32x!tt.ptr<f32>> loc(#loc45)
    %64 = tt.broadcast %24 : tensor<32x1xf32> -> tensor<32x32xf32> loc(#loc46)
    %65 = arith.addf %21, %64 : tensor<32x32xf32> loc(#loc46)
    %66 = tt.broadcast %30 : tensor<32x1xf32> -> tensor<32x32xf32> loc(#loc47)
    %67 = arith.addf %27, %66 : tensor<32x32xf32> loc(#loc47)
    %68 = tt.broadcast %33 : tensor<32x1xf32> -> tensor<32x32xf32> loc(#loc48)
    %69 = arith.subf %65, %68 : tensor<32x32xf32> loc(#loc48)
    %70 = arith.addf %36, %cst_4 : tensor<32x1xf32> loc(#loc49)
    %71 = tt.extern_elementwise %70 {libname = "", libpath = "", pure = true, symbol = "__nv_sqrtf"} : (tensor<32x1xf32>) -> tensor<32x1xf32> loc(#loc50)
    %72 = arith.divf %cst_1, %71 : tensor<32x1xf32> loc(#loc51)
    %73 = tt.broadcast %72 : tensor<32x1xf32> -> tensor<32x32xf32> loc(#loc52)
    %74 = arith.mulf %69, %73 : tensor<32x32xf32> loc(#loc52)
    %75 = tt.broadcast %39 : tensor<32x1xf32> -> tensor<32x32xf32> loc(#loc53)
    %76 = arith.mulf %74, %75 : tensor<32x32xf32> loc(#loc53)
    %77 = tt.broadcast %42 : tensor<32x1xf32> -> tensor<32x32xf32> loc(#loc54)
    %78 = arith.addf %76, %77 : tensor<32x32xf32> loc(#loc54)
    %79 = tt.broadcast %45 : tensor<32x1xf32> -> tensor<32x32xf32> loc(#loc55)
    %80 = arith.subf %67, %79 : tensor<32x32xf32> loc(#loc55)
    %81 = arith.addf %48, %cst_4 : tensor<32x1xf32> loc(#loc56)
    %82 = tt.extern_elementwise %81 {libname = "", libpath = "", pure = true, symbol = "__nv_sqrtf"} : (tensor<32x1xf32>) -> tensor<32x1xf32> loc(#loc57)
    %83 = arith.divf %cst_1, %82 : tensor<32x1xf32> loc(#loc58)
    %84 = tt.broadcast %83 : tensor<32x1xf32> -> tensor<32x32xf32> loc(#loc59)
    %85 = arith.mulf %80, %84 : tensor<32x32xf32> loc(#loc59)
    %86 = tt.broadcast %51 : tensor<32x1xf32> -> tensor<32x32xf32> loc(#loc60)
    %87 = arith.mulf %85, %86 : tensor<32x32xf32> loc(#loc60)
    %88 = tt.broadcast %54 : tensor<32x1xf32> -> tensor<32x32xf32> loc(#loc61)
    %89 = arith.addf %87, %88 : tensor<32x32xf32> loc(#loc61)
    %90 = arith.addf %78, %89 : tensor<32x32xf32> loc(#loc62)
    %91 = arith.subf %cst, %60 : tensor<32x32xf32> loc(#loc83)
    %92 = math.exp %91 : tensor<32x32xf32> loc(#loc84)
    %93 = arith.addf %92, %cst_0 : tensor<32x32xf32> loc(#loc85)
    %94 = arith.divf %cst_0, %93 : tensor<32x32xf32> loc(#loc86)
    %95 = arith.mulf %94, %63 : tensor<32x32xf32> loc(#loc68)
    %96 = arith.addf %90, %95 : tensor<32x32xf32> loc(#loc69)
    %97 = arith.subf %cst, %96 : tensor<32x32xf32> loc(#loc87)
    %98 = math.exp %97 : tensor<32x32xf32> loc(#loc88)
    %99 = arith.addf %98, %cst_0 : tensor<32x32xf32> loc(#loc89)
    %100 = arith.divf %cst_0, %99 : tensor<32x32xf32> loc(#loc90)
    %101 = arith.mulf %96, %100 : tensor<32x32xf32> loc(#loc71)
    gpu.barrier loc(#loc72)
    tt.store %19, %65, %20 : tensor<32x32x!tt.ptr<f32>> loc(#loc73)
    gpu.barrier loc(#loc74)
    tt.store %26, %67, %20 : tensor<32x32x!tt.ptr<f32>> loc(#loc75)
    %102 = arith.muli %10, %cst_3 : tensor<32x1xi32> loc(#loc76)
    %103 = tt.broadcast %13 : tensor<1x32xi32> -> tensor<32x32xi32> loc(#loc77)
    %104 = tt.broadcast %102 : tensor<32x1xi32> -> tensor<32x32xi32> loc(#loc77)
    %105 = arith.addi %103, %104 : tensor<32x32xi32> loc(#loc77)
    %106 = arith.muli %12, %cst_2 : tensor<1x32xi32> loc(#loc78)
    %107 = tt.broadcast %106 : tensor<1x32xi32> -> tensor<32x32xi32> loc(#loc79)
    %108 = arith.addi %105, %107 : tensor<32x32xi32> loc(#loc79)
    %109 = tt.splat %arg14 : !tt.ptr<f32> -> tensor<32x32x!tt.ptr<f32>> loc(#loc80)
    %110 = tt.addptr %109, %108 : tensor<32x32x!tt.ptr<f32>>, tensor<32x32xi32> loc(#loc80)
    tt.store %110, %101, %20 : tensor<32x32x!tt.ptr<f32>> loc(#loc81)
    tt.return loc(#loc82)
  } loc(#loc)
} loc(#loc)
#loc1 = loc(unknown)
#loc2 = loc("inductor_cache/6h/c6hb5osixqfolktdv6zhzfoegxdcrbaouwjwi44j2o4uo4y7wgui.py":22:28)
#loc3 = loc("inductor_cache/6h/c6hb5osixqfolktdv6zhzfoegxdcrbaouwjwi44j2o4uo4y7wgui.py":22:33)
#loc4 = loc("inductor_cache/6h/c6hb5osixqfolktdv6zhzfoegxdcrbaouwjwi44j2o4uo4y7wgui.py":23:36)
#loc5 = loc("inductor_cache/6h/c6hb5osixqfolktdv6zhzfoegxdcrbaouwjwi44j2o4uo4y7wgui.py":23:44)
#loc6 = loc("inductor_cache/6h/c6hb5osixqfolktdv6zhzfoegxdcrbaouwjwi44j2o4uo4y7wgui.py":23:23)
#loc7 = loc("inductor_cache/6h/c6hb5osixqfolktdv6zhzfoegxdcrbaouwjwi44j2o4uo4y7wgui.py":25:28)
#loc8 = loc("inductor_cache/6h/c6hb5osixqfolktdv6zhzfoegxdcrbaouwjwi44j2o4uo4y7wgui.py":25:33)
#loc9 = loc("inductor_cache/6h/c6hb5osixqfolktdv6zhzfoegxdcrbaouwjwi44j2o4uo4y7wgui.py":26:44)
#loc10 = loc("inductor_cache/6h/c6hb5osixqfolktdv6zhzfoegxdcrbaouwjwi44j2o4uo4y7wgui.py":26:23)
#loc11 = loc("inductor_cache/6h/c6hb5osixqfolktdv6zhzfoegxdcrbaouwjwi44j2o4uo4y7wgui.py":27:21)
#loc12 = loc("inductor_cache/6h/c6hb5osixqfolktdv6zhzfoegxdcrbaouwjwi44j2o4uo4y7wgui.py":30:19)
#loc13 = loc("inductor_cache/6h/c6hb5osixqfolktdv6zhzfoegxdcrbaouwjwi44j2o4uo4y7wgui.py":31:19)
#loc14 = loc("inductor_cache/6h/c6hb5osixqfolktdv6zhzfoegxdcrbaouwjwi44j2o4uo4y7wgui.py":32:43)
#loc15 = loc("inductor_cache/6h/c6hb5osixqfolktdv6zhzfoegxdcrbaouwjwi44j2o4uo4y7wgui.py":32:39)
#loc16 = loc("inductor_cache/6h/c6hb5osixqfolktdv6zhzfoegxdcrbaouwjwi44j2o4uo4y7wgui.py":32:34)
#loc17 = loc("inductor_cache/6h/c6hb5osixqfolktdv6zhzfoegxdcrbaouwjwi44j2o4uo4y7wgui.py":32:48)
#loc18 = loc("inductor_cache/6h/c6hb5osixqfolktdv6zhzfoegxdcrbaouwjwi44j2o4uo4y7wgui.py":33:30)
#loc19 = loc("inductor_cache/6h/c6hb5osixqfolktdv6zhzfoegxdcrbaouwjwi44j2o4uo4y7wgui.py":33:35)
#loc20 = loc("inductor_cache/6h/c6hb5osixqfolktdv6zhzfoegxdcrbaouwjwi44j2o4uo4y7wgui.py":34:34)
#loc21 = loc("inductor_cache/6h/c6hb5osixqfolktdv6zhzfoegxdcrbaouwjwi44j2o4uo4y7wgui.py":34:48)
#loc22 = loc("inductor_cache/6h/c6hb5osixqfolktdv6zhzfoegxdcrbaouwjwi44j2o4uo4y7wgui.py":35:30)
#loc23 = loc("inductor_cache/6h/c6hb5osixqfolktdv6zhzfoegxdcrbaouwjwi44j2o4uo4y7wgui.py":35:35)
#loc24 = loc("inductor_cache/6h/c6hb5osixqfolktdv6zhzfoegxdcrbaouwjwi44j2o4uo4y7wgui.py":36:30)
#loc25 = loc("inductor_cache/6h/c6hb5osixqfolktdv6zhzfoegxdcrbaouwjwi44j2o4uo4y7wgui.py":36:35)
#loc26 = loc("inductor_cache/6h/c6hb5osixqfolktdv6zhzfoegxdcrbaouwjwi44j2o4uo4y7wgui.py":37:30)
#loc27 = loc("inductor_cache/6h/c6hb5osixqfolktdv6zhzfoegxdcrbaouwjwi44j2o4uo4y7wgui.py":37:35)
#loc28 = loc("inductor_cache/6h/c6hb5osixqfolktdv6zhzfoegxdcrbaouwjwi44j2o4uo4y7wgui.py":38:31)
#loc29 = loc("inductor_cache/6h/c6hb5osixqfolktdv6zhzfoegxdcrbaouwjwi44j2o4uo4y7wgui.py":38:36)
#loc30 = loc("inductor_cache/6h/c6hb5osixqfolktdv6zhzfoegxdcrbaouwjwi44j2o4uo4y7wgui.py":39:31)
#loc31 = loc("inductor_cache/6h/c6hb5osixqfolktdv6zhzfoegxdcrbaouwjwi44j2o4uo4y7wgui.py":39:36)
#loc32 = loc("inductor_cache/6h/c6hb5osixqfolktdv6zhzfoegxdcrbaouwjwi44j2o4uo4y7wgui.py":40:31)
#loc33 = loc("inductor_cache/6h/c6hb5osixqfolktdv6zhzfoegxdcrbaouwjwi44j2o4uo4y7wgui.py":40:36)
#loc34 = loc("inductor_cache/6h/c6hb5osixqfolktdv6zhzfoegxdcrbaouwjwi44j2o4uo4y7wgui.py":41:31)
#loc35 = loc("inductor_cache/6h/c6hb5osixqfolktdv6zhzfoegxdcrbaouwjwi44j2o4uo4y7wgui.py":41:36)
#loc36 = loc("inductor_cache/6h/c6hb5osixqfolktdv6zhzfoegxdcrbaouwjwi44j2o4uo4y7wgui.py":42:31)
#loc37 = loc("inductor_cache/6h/c6hb5osixqfolktdv6zhzfoegxdcrbaouwjwi44j2o4uo4y7wgui.py":42:36)
#loc38 = loc("inductor_cache/6h/c6hb5osixqfolktdv6zhzfoegxdcrbaouwjwi44j2o4uo4y7wgui.py":43:31)
#loc39 = loc("inductor_cache/6h/c6hb5osixqfolktdv6zhzfoegxdcrbaouwjwi44j2o4uo4y7wgui.py":43:36)
#loc40 = loc("inductor_cache/6h/c6hb5osixqfolktdv6zhzfoegxdcrbaouwjwi44j2o4uo4y7wgui.py":44:41)
#loc41 = loc("inductor_cache/6h/c6hb5osixqfolktdv6zhzfoegxdcrbaouwjwi44j2o4uo4y7wgui.py":44:37)
#loc42 = loc("inductor_cache/6h/c6hb5osixqfolktdv6zhzfoegxdcrbaouwjwi44j2o4uo4y7wgui.py":44:32)
#loc43 = loc("inductor_cache/6h/c6hb5osixqfolktdv6zhzfoegxdcrbaouwjwi44j2o4uo4y7wgui.py":44:46)
#loc44 = loc("inductor_cache/6h/c6hb5osixqfolktdv6zhzfoegxdcrbaouwjwi44j2o4uo4y7wgui.py":45:32)
#loc45 = loc("inductor_cache/6h/c6hb5osixqfolktdv6zhzfoegxdcrbaouwjwi44j2o4uo4y7wgui.py":45:46)
#loc46 = loc("inductor_cache/6h/c6hb5osixqfolktdv6zhzfoegxdcrbaouwjwi44j2o4uo4y7wgui.py":46:18)
#loc47 = loc("inductor_cache/6h/c6hb5osixqfolktdv6zhzfoegxdcrbaouwjwi44j2o4uo4y7wgui.py":47:18)
#loc48 = loc("inductor_cache/6h/c6hb5osixqfolktdv6zhzfoegxdcrbaouwjwi44j2o4uo4y7wgui.py":48:18)
#loc49 = loc("inductor_cache/6h/c6hb5osixqfolktdv6zhzfoegxdcrbaouwjwi44j2o4uo4y7wgui.py":50:19)
#loc50 = loc("inductor_cache/6h/c6hb5osixqfolktdv6zhzfoegxdcrbaouwjwi44j2o4uo4y7wgui.py":51:27)
#loc51 = loc("inductor_cache/6h/c6hb5osixqfolktdv6zhzfoegxdcrbaouwjwi44j2o4uo4y7wgui.py":53:20)
#loc52 = loc("inductor_cache/6h/c6hb5osixqfolktdv6zhzfoegxdcrbaouwjwi44j2o4uo4y7wgui.py":56:19)
#loc53 = loc("inductor_cache/6h/c6hb5osixqfolktdv6zhzfoegxdcrbaouwjwi44j2o4uo4y7wgui.py":57:20)
#loc54 = loc("inductor_cache/6h/c6hb5osixqfolktdv6zhzfoegxdcrbaouwjwi44j2o4uo4y7wgui.py":58:20)
#loc55 = loc("inductor_cache/6h/c6hb5osixqfolktdv6zhzfoegxdcrbaouwjwi44j2o4uo4y7wgui.py":59:19)
#loc56 = loc("inductor_cache/6h/c6hb5osixqfolktdv6zhzfoegxdcrbaouwjwi44j2o4uo4y7wgui.py":60:20)
#loc57 = loc("inductor_cache/6h/c6hb5osixqfolktdv6zhzfoegxdcrbaouwjwi44j2o4uo4y7wgui.py":61:27)
#loc58 = loc("inductor_cache/6h/c6hb5osixqfolktdv6zhzfoegxdcrbaouwjwi44j2o4uo4y7wgui.py":62:20)
#loc59 = loc("inductor_cache/6h/c6hb5osixqfolktdv6zhzfoegxdcrbaouwjwi44j2o4uo4y7wgui.py":64:20)
#loc60 = loc("inductor_cache/6h/c6hb5osixqfolktdv6zhzfoegxdcrbaouwjwi44j2o4uo4y7wgui.py":65:20)
#loc61 = loc("inductor_cache/6h/c6hb5osixqfolktdv6zhzfoegxdcrbaouwjwi44j2o4uo4y7wgui.py":66:20)
#loc62 = loc("inductor_cache/6h/c6hb5osixqfolktdv6zhzfoegxdcrbaouwjwi44j2o4uo4y7wgui.py":67:20)
#loc63 = loc("/home/sahanp/.conda/envs/parity-bench/lib/python3.12/site-packages/triton/language/standard.py":47:30)
#loc64 = loc("inductor_cache/6h/c6hb5osixqfolktdv6zhzfoegxdcrbaouwjwi44j2o4uo4y7wgui.py":68:23)
#loc65 = loc("/home/sahanp/.conda/envs/parity-bench/lib/python3.12/site-packages/triton/language/standard.py":47:29)
#loc66 = loc("/home/sahanp/.conda/envs/parity-bench/lib/python3.12/site-packages/triton/language/standard.py":47:20)
#loc67 = loc("/home/sahanp/.conda/envs/parity-bench/lib/python3.12/site-packages/triton/language/standard.py":47:16)
#loc68 = loc("inductor_cache/6h/c6hb5osixqfolktdv6zhzfoegxdcrbaouwjwi44j2o4uo4y7wgui.py":69:20)
#loc69 = loc("inductor_cache/6h/c6hb5osixqfolktdv6zhzfoegxdcrbaouwjwi44j2o4uo4y7wgui.py":70:20)
#loc70 = loc("inductor_cache/6h/c6hb5osixqfolktdv6zhzfoegxdcrbaouwjwi44j2o4uo4y7wgui.py":71:23)
#loc71 = loc("inductor_cache/6h/c6hb5osixqfolktdv6zhzfoegxdcrbaouwjwi44j2o4uo4y7wgui.py":72:20)
#loc72 = loc("inductor_cache/6h/c6hb5osixqfolktdv6zhzfoegxdcrbaouwjwi44j2o4uo4y7wgui.py":73:4)
#loc73 = loc("inductor_cache/6h/c6hb5osixqfolktdv6zhzfoegxdcrbaouwjwi44j2o4uo4y7wgui.py":74:48)
#loc74 = loc("inductor_cache/6h/c6hb5osixqfolktdv6zhzfoegxdcrbaouwjwi44j2o4uo4y7wgui.py":75:4)
#loc75 = loc("inductor_cache/6h/c6hb5osixqfolktdv6zhzfoegxdcrbaouwjwi44j2o4uo4y7wgui.py":76:48)
#loc76 = loc("inductor_cache/6h/c6hb5osixqfolktdv6zhzfoegxdcrbaouwjwi44j2o4uo4y7wgui.py":77:35)
#loc77 = loc("inductor_cache/6h/c6hb5osixqfolktdv6zhzfoegxdcrbaouwjwi44j2o4uo4y7wgui.py":77:30)
#loc78 = loc("inductor_cache/6h/c6hb5osixqfolktdv6zhzfoegxdcrbaouwjwi44j2o4uo4y7wgui.py":77:48)
#loc79 = loc("inductor_cache/6h/c6hb5osixqfolktdv6zhzfoegxdcrbaouwjwi44j2o4uo4y7wgui.py":77:40)
#loc80 = loc("inductor_cache/6h/c6hb5osixqfolktdv6zhzfoegxdcrbaouwjwi44j2o4uo4y7wgui.py":77:25)
#loc81 = loc("inductor_cache/6h/c6hb5osixqfolktdv6zhzfoegxdcrbaouwjwi44j2o4uo4y7wgui.py":77:60)
#loc82 = loc("inductor_cache/6h/c6hb5osixqfolktdv6zhzfoegxdcrbaouwjwi44j2o4uo4y7wgui.py":77:4)
#loc83 = loc(callsite(#loc63 at #loc64))
#loc84 = loc(callsite(#loc65 at #loc64))
#loc85 = loc(callsite(#loc66 at #loc64))
#loc86 = loc(callsite(#loc67 at #loc64))
#loc87 = loc(callsite(#loc63 at #loc70))
#loc88 = loc(callsite(#loc65 at #loc70))
#loc89 = loc(callsite(#loc66 at #loc70))
#loc90 = loc(callsite(#loc67 at #loc70))
