#loc = loc("inductor_cache/if/cifd2lerwgmyfmbvciydhklbtcydi7lo57dev27nrsdy6i2ru5ud.py":19:0)
module {
  tt.func public @triton_poi_fused_mul_0(%arg0: !tt.ptr<f32> {tt.divisibility = 16 : i32} loc("inductor_cache/if/cifd2lerwgmyfmbvciydhklbtcydi7lo57dev27nrsdy6i2ru5ud.py":19:0), %arg1: !tt.ptr<f32> {tt.divisibility = 16 : i32} loc("inductor_cache/if/cifd2lerwgmyfmbvciydhklbtcydi7lo57dev27nrsdy6i2ru5ud.py":19:0), %arg2: !tt.ptr<f32> {tt.divisibility = 16 : i32} loc("inductor_cache/if/cifd2lerwgmyfmbvciydhklbtcydi7lo57dev27nrsdy6i2ru5ud.py":19:0), %arg3: !tt.ptr<f32> {tt.divisibility = 16 : i32} loc("inductor_cache/if/cifd2lerwgmyfmbvciydhklbtcydi7lo57dev27nrsdy6i2ru5ud.py":19:0), %arg4: i32 {tt.divisibility = 16 : i32} loc("inductor_cache/if/cifd2lerwgmyfmbvciydhklbtcydi7lo57dev27nrsdy6i2ru5ud.py":19:0)) attributes {noinline = false} {
    %cst = arith.constant dense<16777216> : tensor<512xi32> loc(#loc1)
    %c512_i32 = arith.constant 512 : i32 loc(#loc1)
    %0 = tt.get_program_id x : i32 loc(#loc2)
    %1 = arith.muli %0, %c512_i32 : i32 loc(#loc3)
    %2 = tt.make_range {end = 512 : i32, start = 0 : i32} : tensor<512xi32> loc(#loc4)
    %3 = tt.splat %1 : i32 -> tensor<512xi32> loc(#loc5)
    %4 = arith.addi %3, %2 : tensor<512xi32> loc(#loc5)
    %5 = arith.remsi %4, %cst : tensor<512xi32> loc(#loc6)
    %6 = tt.splat %arg0 : !tt.ptr<f32> -> tensor<512x!tt.ptr<f32>> loc(#loc7)
    %7 = tt.addptr %6, %4 : tensor<512x!tt.ptr<f32>>, tensor<512xi32> loc(#loc7)
    %8 = tt.load %7 : tensor<512x!tt.ptr<f32>> loc(#loc8)
    %9 = tt.splat %arg1 : !tt.ptr<f32> -> tensor<512x!tt.ptr<f32>> loc(#loc9)
    %10 = tt.addptr %9, %5 : tensor<512x!tt.ptr<f32>>, tensor<512xi32> loc(#loc9)
    %11 = tt.load %10 evictionPolicy = evict_last : tensor<512x!tt.ptr<f32>> loc(#loc10)
    %12 = tt.splat %arg2 : !tt.ptr<f32> -> tensor<512x!tt.ptr<f32>> loc(#loc11)
    %13 = tt.addptr %12, %5 : tensor<512x!tt.ptr<f32>>, tensor<512xi32> loc(#loc11)
    %14 = tt.load %13 evictionPolicy = evict_last : tensor<512x!tt.ptr<f32>> loc(#loc12)
    %15 = arith.mulf %8, %11 : tensor<512xf32> loc(#loc13)
    %16 = arith.mulf %15, %14 : tensor<512xf32> loc(#loc14)
    %17 = tt.splat %arg3 : !tt.ptr<f32> -> tensor<512x!tt.ptr<f32>> loc(#loc15)
    %18 = tt.addptr %17, %4 : tensor<512x!tt.ptr<f32>>, tensor<512xi32> loc(#loc15)
    tt.store %18, %16 : tensor<512x!tt.ptr<f32>> loc(#loc16)
    tt.return loc(#loc17)
  } loc(#loc)
} loc(#loc)
#loc1 = loc(unknown)
#loc2 = loc("inductor_cache/if/cifd2lerwgmyfmbvciydhklbtcydi7lo57dev27nrsdy6i2ru5ud.py":21:28)
#loc3 = loc("inductor_cache/if/cifd2lerwgmyfmbvciydhklbtcydi7lo57dev27nrsdy6i2ru5ud.py":21:33)
#loc4 = loc("inductor_cache/if/cifd2lerwgmyfmbvciydhklbtcydi7lo57dev27nrsdy6i2ru5ud.py":22:36)
#loc5 = loc("inductor_cache/if/cifd2lerwgmyfmbvciydhklbtcydi7lo57dev27nrsdy6i2ru5ud.py":22:23)
#loc6 = loc("inductor_cache/if/cifd2lerwgmyfmbvciydhklbtcydi7lo57dev27nrsdy6i2ru5ud.py":25:19)
#loc7 = loc("inductor_cache/if/cifd2lerwgmyfmbvciydhklbtcydi7lo57dev27nrsdy6i2ru5ud.py":26:30)
#loc8 = loc("inductor_cache/if/cifd2lerwgmyfmbvciydhklbtcydi7lo57dev27nrsdy6i2ru5ud.py":26:35)
#loc9 = loc("inductor_cache/if/cifd2lerwgmyfmbvciydhklbtcydi7lo57dev27nrsdy6i2ru5ud.py":27:30)
#loc10 = loc("inductor_cache/if/cifd2lerwgmyfmbvciydhklbtcydi7lo57dev27nrsdy6i2ru5ud.py":27:35)
#loc11 = loc("inductor_cache/if/cifd2lerwgmyfmbvciydhklbtcydi7lo57dev27nrsdy6i2ru5ud.py":28:30)
#loc12 = loc("inductor_cache/if/cifd2lerwgmyfmbvciydhklbtcydi7lo57dev27nrsdy6i2ru5ud.py":28:35)
#loc13 = loc("inductor_cache/if/cifd2lerwgmyfmbvciydhklbtcydi7lo57dev27nrsdy6i2ru5ud.py":29:18)
#loc14 = loc("inductor_cache/if/cifd2lerwgmyfmbvciydhklbtcydi7lo57dev27nrsdy6i2ru5ud.py":30:18)
#loc15 = loc("inductor_cache/if/cifd2lerwgmyfmbvciydhklbtcydi7lo57dev27nrsdy6i2ru5ud.py":31:25)
#loc16 = loc("inductor_cache/if/cifd2lerwgmyfmbvciydhklbtcydi7lo57dev27nrsdy6i2ru5ud.py":31:36)
#loc17 = loc("inductor_cache/if/cifd2lerwgmyfmbvciydhklbtcydi7lo57dev27nrsdy6i2ru5ud.py":31:4)
