#loc = loc("inductor_cache/xi/cxiwrrgxrz3piooc7hx5zisucchwgmmybzmvrrdrslzkhvghpgq5.py":19:0)
module {
  tt.func public @triton_poi_fused_add_div_sqrt_16(%arg0: !tt.ptr<f32> {tt.divisibility = 16 : i32} loc("inductor_cache/xi/cxiwrrgxrz3piooc7hx5zisucchwgmmybzmvrrdrslzkhvghpgq5.py":19:0), %arg1: !tt.ptr<f32> {tt.divisibility = 16 : i32} loc("inductor_cache/xi/cxiwrrgxrz3piooc7hx5zisucchwgmmybzmvrrdrslzkhvghpgq5.py":19:0), %arg2: i32 {tt.divisibility = 16 : i32} loc("inductor_cache/xi/cxiwrrgxrz3piooc7hx5zisucchwgmmybzmvrrdrslzkhvghpgq5.py":19:0)) attributes {noinline = false} {
    %cst = arith.constant dense<1.000000e-10> : tensor<1024xf32> loc(#loc1)
    %cst_0 = arith.constant dense<28800> : tensor<1024xi32> loc(#loc1)
    %cst_1 = arith.constant dense<225> : tensor<1024xi32> loc(#loc1)
    %cst_2 = arith.constant dense<115200> : tensor<1024xi32> loc(#loc1)
    %c1024_i32 = arith.constant 1024 : i32 loc(#loc1)
    %0 = tt.get_program_id x : i32 loc(#loc2)
    %1 = arith.muli %0, %c1024_i32 : i32 loc(#loc3)
    %2 = tt.make_range {end = 1024 : i32, start = 0 : i32} : tensor<1024xi32> loc(#loc4)
    %3 = tt.splat %1 : i32 -> tensor<1024xi32> loc(#loc5)
    %4 = arith.addi %3, %2 : tensor<1024xi32> loc(#loc5)
    %5 = arith.cmpi slt, %4, %cst_2 : tensor<1024xi32> loc(#loc6)
    %6 = arith.remsi %4, %cst_1 : tensor<1024xi32> loc(#loc7)
    %7 = arith.divsi %4, %cst_0 : tensor<1024xi32> loc(#loc8)
    %8 = tt.splat %arg0 : !tt.ptr<f32> -> tensor<1024x!tt.ptr<f32>> loc(#loc9)
    %9 = tt.addptr %8, %4 : tensor<1024x!tt.ptr<f32>>, tensor<1024xi32> loc(#loc9)
    %10 = tt.load %9, %5 : tensor<1024x!tt.ptr<f32>> loc(#loc10)
    %11 = arith.muli %7, %cst_1 : tensor<1024xi32> loc(#loc11)
    %12 = arith.addi %6, %11 : tensor<1024xi32> loc(#loc12)
    %13 = tt.splat %arg1 : !tt.ptr<f32> -> tensor<1024x!tt.ptr<f32>> loc(#loc13)
    %14 = tt.addptr %13, %12 : tensor<1024x!tt.ptr<f32>>, tensor<1024xi32> loc(#loc13)
    %15 = tt.load %14, %5 evictionPolicy = evict_last : tensor<1024x!tt.ptr<f32>> loc(#loc14)
    %16 = tt.extern_elementwise %15 {libname = "", libpath = "", pure = true, symbol = "__nv_sqrtf"} : (tensor<1024xf32>) -> tensor<1024xf32> loc(#loc15)
    %17 = arith.addf %16, %cst : tensor<1024xf32> loc(#loc16)
    %18 = arith.divf %10, %17 : tensor<1024xf32> loc(#loc17)
    tt.store %9, %18, %5 : tensor<1024x!tt.ptr<f32>> loc(#loc18)
    tt.return loc(#loc19)
  } loc(#loc)
} loc(#loc)
#loc1 = loc(unknown)
#loc2 = loc("inductor_cache/xi/cxiwrrgxrz3piooc7hx5zisucchwgmmybzmvrrdrslzkhvghpgq5.py":21:28)
#loc3 = loc("inductor_cache/xi/cxiwrrgxrz3piooc7hx5zisucchwgmmybzmvrrdrslzkhvghpgq5.py":21:33)
#loc4 = loc("inductor_cache/xi/cxiwrrgxrz3piooc7hx5zisucchwgmmybzmvrrdrslzkhvghpgq5.py":22:36)
#loc5 = loc("inductor_cache/xi/cxiwrrgxrz3piooc7hx5zisucchwgmmybzmvrrdrslzkhvghpgq5.py":22:23)
#loc6 = loc("inductor_cache/xi/cxiwrrgxrz3piooc7hx5zisucchwgmmybzmvrrdrslzkhvghpgq5.py":23:21)
#loc7 = loc("inductor_cache/xi/cxiwrrgxrz3piooc7hx5zisucchwgmmybzmvrrdrslzkhvghpgq5.py":25:19)
#loc8 = loc("inductor_cache/xi/cxiwrrgxrz3piooc7hx5zisucchwgmmybzmvrrdrslzkhvghpgq5.py":26:19)
#loc9 = loc("inductor_cache/xi/cxiwrrgxrz3piooc7hx5zisucchwgmmybzmvrrdrslzkhvghpgq5.py":27:34)
#loc10 = loc("inductor_cache/xi/cxiwrrgxrz3piooc7hx5zisucchwgmmybzmvrrdrslzkhvghpgq5.py":27:39)
#loc11 = loc("inductor_cache/xi/cxiwrrgxrz3piooc7hx5zisucchwgmmybzmvrrdrslzkhvghpgq5.py":28:39)
#loc12 = loc("inductor_cache/xi/cxiwrrgxrz3piooc7hx5zisucchwgmmybzmvrrdrslzkhvghpgq5.py":28:35)
#loc13 = loc("inductor_cache/xi/cxiwrrgxrz3piooc7hx5zisucchwgmmybzmvrrdrslzkhvghpgq5.py":28:30)
#loc14 = loc("inductor_cache/xi/cxiwrrgxrz3piooc7hx5zisucchwgmmybzmvrrdrslzkhvghpgq5.py":28:44)
#loc15 = loc("inductor_cache/xi/cxiwrrgxrz3piooc7hx5zisucchwgmmybzmvrrdrslzkhvghpgq5.py":29:26)
#loc16 = loc("inductor_cache/xi/cxiwrrgxrz3piooc7hx5zisucchwgmmybzmvrrdrslzkhvghpgq5.py":31:18)
#loc17 = loc("inductor_cache/xi/cxiwrrgxrz3piooc7hx5zisucchwgmmybzmvrrdrslzkhvghpgq5.py":32:18)
#loc18 = loc("inductor_cache/xi/cxiwrrgxrz3piooc7hx5zisucchwgmmybzmvrrdrslzkhvghpgq5.py":33:39)
#loc19 = loc("inductor_cache/xi/cxiwrrgxrz3piooc7hx5zisucchwgmmybzmvrrdrslzkhvghpgq5.py":33:4)
