#loc = loc("inductor_cache/or/cork42fw6ezpzspw2nwlt5uwfxrmiddx6nyb6guhcjpcqbcshwyp.py":19:0)
module {
  tt.func public @triton_poi_fused_convolution_relu_threshold_backward_19(%arg0: !tt.ptr<f32> {tt.divisibility = 16 : i32} loc("inductor_cache/or/cork42fw6ezpzspw2nwlt5uwfxrmiddx6nyb6guhcjpcqbcshwyp.py":19:0), %arg1: !tt.ptr<f32> {tt.divisibility = 16 : i32} loc("inductor_cache/or/cork42fw6ezpzspw2nwlt5uwfxrmiddx6nyb6guhcjpcqbcshwyp.py":19:0), %arg2: !tt.ptr<f32> {tt.divisibility = 16 : i32} loc("inductor_cache/or/cork42fw6ezpzspw2nwlt5uwfxrmiddx6nyb6guhcjpcqbcshwyp.py":19:0), %arg3: !tt.ptr<i1> {tt.divisibility = 16 : i32} loc("inductor_cache/or/cork42fw6ezpzspw2nwlt5uwfxrmiddx6nyb6guhcjpcqbcshwyp.py":19:0), %arg4: i32 {tt.divisibility = 16 : i32} loc("inductor_cache/or/cork42fw6ezpzspw2nwlt5uwfxrmiddx6nyb6guhcjpcqbcshwyp.py":19:0), %arg5: i32 {tt.divisibility = 16 : i32} loc("inductor_cache/or/cork42fw6ezpzspw2nwlt5uwfxrmiddx6nyb6guhcjpcqbcshwyp.py":19:0)) attributes {noinline = false} {
    %cst = arith.constant dense<16> : tensor<1x256xi32> loc(#loc1)
    %cst_0 = arith.constant dense<0.000000e+00> : tensor<16x256xf32> loc(#loc1)
    %cst_1 = arith.constant dense<8192> : tensor<1x256xi32> loc(#loc1)
    %cst_2 = arith.constant dense<512> : tensor<16x1xi32> loc(#loc1)
    %cst_3 = arith.constant dense<512> : tensor<1x256xi32> loc(#loc1)
    %cst_4 = arith.constant dense<16> : tensor<16x1xi32> loc(#loc1)
    %c256_i32 = arith.constant 256 : i32 loc(#loc1)
    %c16_i32 = arith.constant 16 : i32 loc(#loc1)
    %0 = tt.get_program_id y : i32 loc(#loc2)
    %1 = arith.muli %0, %c256_i32 : i32 loc(#loc3)
    %2 = tt.make_range {end = 256 : i32, start = 0 : i32} : tensor<256xi32> loc(#loc4)
    %3 = tt.expand_dims %2 {axis = 0 : i32} : tensor<256xi32> -> tensor<1x256xi32> loc(#loc5)
    %4 = tt.splat %1 : i32 -> tensor<1x256xi32> loc(#loc6)
    %5 = arith.addi %4, %3 : tensor<1x256xi32> loc(#loc6)
    %6 = tt.get_program_id x : i32 loc(#loc7)
    %7 = arith.muli %6, %c16_i32 : i32 loc(#loc8)
    %8 = tt.make_range {end = 16 : i32, start = 0 : i32} : tensor<16xi32> loc(#loc9)
    %9 = tt.expand_dims %8 {axis = 1 : i32} : tensor<16xi32> -> tensor<16x1xi32> loc(#loc10)
    %10 = tt.splat %7 : i32 -> tensor<16x1xi32> loc(#loc11)
    %11 = arith.addi %10, %9 : tensor<16x1xi32> loc(#loc11)
    %12 = arith.cmpi slt, %11, %cst_4 : tensor<16x1xi32> loc(#loc12)
    %13 = arith.remsi %5, %cst_3 : tensor<1x256xi32> loc(#loc13)
    %14 = arith.divsi %5, %cst_3 : tensor<1x256xi32> loc(#loc14)
    %15 = arith.muli %11, %cst_2 : tensor<16x1xi32> loc(#loc15)
    %16 = tt.broadcast %13 : tensor<1x256xi32> -> tensor<16x256xi32> loc(#loc16)
    %17 = tt.broadcast %15 : tensor<16x1xi32> -> tensor<16x256xi32> loc(#loc16)
    %18 = arith.addi %16, %17 : tensor<16x256xi32> loc(#loc16)
    %19 = arith.muli %14, %cst_1 : tensor<1x256xi32> loc(#loc17)
    %20 = tt.broadcast %19 : tensor<1x256xi32> -> tensor<16x256xi32> loc(#loc18)
    %21 = arith.addi %18, %20 : tensor<16x256xi32> loc(#loc18)
    %22 = tt.splat %arg0 : !tt.ptr<f32> -> tensor<16x256x!tt.ptr<f32>> loc(#loc19)
    %23 = tt.addptr %22, %21 : tensor<16x256x!tt.ptr<f32>>, tensor<16x256xi32> loc(#loc19)
    %24 = tt.broadcast %12 : tensor<16x1xi1> -> tensor<16x256xi1> loc(#loc20)
    %25 = tt.load %23, %24 evictionPolicy = evict_last : tensor<16x256x!tt.ptr<f32>> loc(#loc20)
    %26 = tt.splat %arg1 : !tt.ptr<f32> -> tensor<1x256x!tt.ptr<f32>> loc(#loc21)
    %27 = tt.addptr %26, %13 : tensor<1x256x!tt.ptr<f32>>, tensor<1x256xi32> loc(#loc21)
    %28 = tt.load %27 evictionPolicy = evict_last : tensor<1x256x!tt.ptr<f32>> loc(#loc22)
    %29 = tt.broadcast %28 : tensor<1x256xf32> -> tensor<16x256xf32> loc(#loc23)
    %30 = arith.addf %25, %29 : tensor<16x256xf32> loc(#loc23)
    %31 = arith.cmpf ogt, %cst_0, %30 : tensor<16x256xf32> loc(#loc35)
    %32 = arith.select %31, %cst_0, %30 : tensor<16x256xi1>, tensor<16x256xf32> loc(#loc36)
    %33 = arith.cmpf ole, %32, %cst_0 : tensor<16x256xf32> loc(#loc27)
    %34 = arith.muli %5, %cst : tensor<1x256xi32> loc(#loc28)
    %35 = tt.broadcast %11 : tensor<16x1xi32> -> tensor<16x256xi32> loc(#loc29)
    %36 = tt.broadcast %34 : tensor<1x256xi32> -> tensor<16x256xi32> loc(#loc29)
    %37 = arith.addi %35, %36 : tensor<16x256xi32> loc(#loc29)
    %38 = tt.splat %arg2 : !tt.ptr<f32> -> tensor<16x256x!tt.ptr<f32>> loc(#loc30)
    %39 = tt.addptr %38, %37 : tensor<16x256x!tt.ptr<f32>>, tensor<16x256xi32> loc(#loc30)
    tt.store %39, %32, %24 : tensor<16x256x!tt.ptr<f32>> loc(#loc31)
    %40 = tt.splat %arg3 : !tt.ptr<i1> -> tensor<16x256x!tt.ptr<i1>> loc(#loc32)
    %41 = tt.addptr %40, %21 : tensor<16x256x!tt.ptr<i1>>, tensor<16x256xi32> loc(#loc32)
    %42 = tt.bitcast %41 : tensor<16x256x!tt.ptr<i1>> -> tensor<16x256x!tt.ptr<i8>> loc(#loc33)
    %43 = arith.extui %33 : tensor<16x256xi1> to tensor<16x256xi8> loc(#loc33)
    tt.store %42, %43, %24 : tensor<16x256x!tt.ptr<i8>> loc(#loc33)
    tt.return loc(#loc34)
  } loc(#loc)
} loc(#loc)
#loc1 = loc(unknown)
#loc2 = loc("inductor_cache/or/cork42fw6ezpzspw2nwlt5uwfxrmiddx6nyb6guhcjpcqbcshwyp.py":22:28)
#loc3 = loc("inductor_cache/or/cork42fw6ezpzspw2nwlt5uwfxrmiddx6nyb6guhcjpcqbcshwyp.py":22:33)
#loc4 = loc("inductor_cache/or/cork42fw6ezpzspw2nwlt5uwfxrmiddx6nyb6guhcjpcqbcshwyp.py":23:36)
#loc5 = loc("inductor_cache/or/cork42fw6ezpzspw2nwlt5uwfxrmiddx6nyb6guhcjpcqbcshwyp.py":23:44)
#loc6 = loc("inductor_cache/or/cork42fw6ezpzspw2nwlt5uwfxrmiddx6nyb6guhcjpcqbcshwyp.py":23:23)
#loc7 = loc("inductor_cache/or/cork42fw6ezpzspw2nwlt5uwfxrmiddx6nyb6guhcjpcqbcshwyp.py":25:28)
#loc8 = loc("inductor_cache/or/cork42fw6ezpzspw2nwlt5uwfxrmiddx6nyb6guhcjpcqbcshwyp.py":25:33)
#loc9 = loc("inductor_cache/or/cork42fw6ezpzspw2nwlt5uwfxrmiddx6nyb6guhcjpcqbcshwyp.py":26:36)
#loc10 = loc("inductor_cache/or/cork42fw6ezpzspw2nwlt5uwfxrmiddx6nyb6guhcjpcqbcshwyp.py":26:44)
#loc11 = loc("inductor_cache/or/cork42fw6ezpzspw2nwlt5uwfxrmiddx6nyb6guhcjpcqbcshwyp.py":26:23)
#loc12 = loc("inductor_cache/or/cork42fw6ezpzspw2nwlt5uwfxrmiddx6nyb6guhcjpcqbcshwyp.py":27:21)
#loc13 = loc("inductor_cache/or/cork42fw6ezpzspw2nwlt5uwfxrmiddx6nyb6guhcjpcqbcshwyp.py":29:19)
#loc14 = loc("inductor_cache/or/cork42fw6ezpzspw2nwlt5uwfxrmiddx6nyb6guhcjpcqbcshwyp.py":30:19)
#loc15 = loc("inductor_cache/or/cork42fw6ezpzspw2nwlt5uwfxrmiddx6nyb6guhcjpcqbcshwyp.py":32:39)
#loc16 = loc("inductor_cache/or/cork42fw6ezpzspw2nwlt5uwfxrmiddx6nyb6guhcjpcqbcshwyp.py":32:35)
#loc17 = loc("inductor_cache/or/cork42fw6ezpzspw2nwlt5uwfxrmiddx6nyb6guhcjpcqbcshwyp.py":32:49)
#loc18 = loc("inductor_cache/or/cork42fw6ezpzspw2nwlt5uwfxrmiddx6nyb6guhcjpcqbcshwyp.py":32:44)
#loc19 = loc("inductor_cache/or/cork42fw6ezpzspw2nwlt5uwfxrmiddx6nyb6guhcjpcqbcshwyp.py":32:30)
#loc20 = loc("inductor_cache/or/cork42fw6ezpzspw2nwlt5uwfxrmiddx6nyb6guhcjpcqbcshwyp.py":32:54)
#loc21 = loc("inductor_cache/or/cork42fw6ezpzspw2nwlt5uwfxrmiddx6nyb6guhcjpcqbcshwyp.py":33:30)
#loc22 = loc("inductor_cache/or/cork42fw6ezpzspw2nwlt5uwfxrmiddx6nyb6guhcjpcqbcshwyp.py":33:35)
#loc23 = loc("inductor_cache/or/cork42fw6ezpzspw2nwlt5uwfxrmiddx6nyb6guhcjpcqbcshwyp.py":34:18)
#loc24 = loc("/home/sahanp/.conda/envs/parity-bench/lib/python3.12/site-packages/torch/_inductor/runtime/triton_helpers.py":118:15)
#loc25 = loc("inductor_cache/or/cork42fw6ezpzspw2nwlt5uwfxrmiddx6nyb6guhcjpcqbcshwyp.py":36:40)
#loc26 = loc("/home/sahanp/.conda/envs/parity-bench/lib/python3.12/site-packages/torch/_inductor/runtime/triton_helpers.py":121:29)
#loc27 = loc("inductor_cache/or/cork42fw6ezpzspw2nwlt5uwfxrmiddx6nyb6guhcjpcqbcshwyp.py":38:19)
#loc28 = loc("inductor_cache/or/cork42fw6ezpzspw2nwlt5uwfxrmiddx6nyb6guhcjpcqbcshwyp.py":39:33)
#loc29 = loc("inductor_cache/or/cork42fw6ezpzspw2nwlt5uwfxrmiddx6nyb6guhcjpcqbcshwyp.py":39:30)
#loc30 = loc("inductor_cache/or/cork42fw6ezpzspw2nwlt5uwfxrmiddx6nyb6guhcjpcqbcshwyp.py":39:25)
#loc31 = loc("inductor_cache/or/cork42fw6ezpzspw2nwlt5uwfxrmiddx6nyb6guhcjpcqbcshwyp.py":39:44)
#loc32 = loc("inductor_cache/or/cork42fw6ezpzspw2nwlt5uwfxrmiddx6nyb6guhcjpcqbcshwyp.py":40:25)
#loc33 = loc("inductor_cache/or/cork42fw6ezpzspw2nwlt5uwfxrmiddx6nyb6guhcjpcqbcshwyp.py":40:55)
#loc34 = loc("inductor_cache/or/cork42fw6ezpzspw2nwlt5uwfxrmiddx6nyb6guhcjpcqbcshwyp.py":40:4)
#loc35 = loc(callsite(#loc24 at #loc25))
#loc36 = loc(callsite(#loc26 at #loc25))
