#loc = loc("inductor_cache/7t/c7t4ad5gp5fccrtca5pb26ahvwzyxmdxtvcpl43wcyslzu6r4vhs.py":19:0)
module {
  tt.func public @triton_poi_fused_add_native_layer_norm_11(%arg0: !tt.ptr<f32> {tt.divisibility = 16 : i32} loc("inductor_cache/7t/c7t4ad5gp5fccrtca5pb26ahvwzyxmdxtvcpl43wcyslzu6r4vhs.py":19:0), %arg1: !tt.ptr<f32> {tt.divisibility = 16 : i32} loc("inductor_cache/7t/c7t4ad5gp5fccrtca5pb26ahvwzyxmdxtvcpl43wcyslzu6r4vhs.py":19:0), %arg2: !tt.ptr<f32> {tt.divisibility = 16 : i32} loc("inductor_cache/7t/c7t4ad5gp5fccrtca5pb26ahvwzyxmdxtvcpl43wcyslzu6r4vhs.py":19:0), %arg3: !tt.ptr<f32> {tt.divisibility = 16 : i32} loc("inductor_cache/7t/c7t4ad5gp5fccrtca5pb26ahvwzyxmdxtvcpl43wcyslzu6r4vhs.py":19:0), %arg4: !tt.ptr<f32> {tt.divisibility = 16 : i32} loc("inductor_cache/7t/c7t4ad5gp5fccrtca5pb26ahvwzyxmdxtvcpl43wcyslzu6r4vhs.py":19:0), %arg5: !tt.ptr<f32> {tt.divisibility = 16 : i32} loc("inductor_cache/7t/c7t4ad5gp5fccrtca5pb26ahvwzyxmdxtvcpl43wcyslzu6r4vhs.py":19:0), %arg6: i32 loc("inductor_cache/7t/c7t4ad5gp5fccrtca5pb26ahvwzyxmdxtvcpl43wcyslzu6r4vhs.py":19:0), %arg7: i32 {tt.divisibility = 16 : i32} loc("inductor_cache/7t/c7t4ad5gp5fccrtca5pb26ahvwzyxmdxtvcpl43wcyslzu6r4vhs.py":19:0)) attributes {noinline = false} {
    %cst = arith.constant dense<0.000000e+00> : tensor<32x4xf32> loc(#loc1)
    %cst_0 = arith.constant dense<64> : tensor<1x4xi32> loc(#loc1)
    %cst_1 = arith.constant dense<16> : tensor<32x1xi32> loc(#loc1)
    %cst_2 = arith.constant dense<4> : tensor<32x1xi32> loc(#loc1)
    %cst_3 = arith.constant dense<64> : tensor<32x1xi32> loc(#loc1)
    %c32_i32 = arith.constant 32 : i32 loc(#loc1)
    %cst_4 = arith.constant dense<4> : tensor<1x4xi32> loc(#loc1)
    %c4_i32 = arith.constant 4 : i32 loc(#loc1)
    %0 = tt.get_program_id y : i32 loc(#loc2)
    %1 = arith.muli %0, %c4_i32 : i32 loc(#loc3)
    %2 = tt.make_range {end = 4 : i32, start = 0 : i32} : tensor<4xi32> loc(#loc4)
    %3 = tt.expand_dims %2 {axis = 0 : i32} : tensor<4xi32> -> tensor<1x4xi32> loc(#loc5)
    %4 = tt.splat %1 : i32 -> tensor<1x4xi32> loc(#loc6)
    %5 = arith.addi %4, %3 : tensor<1x4xi32> loc(#loc6)
    %6 = arith.cmpi slt, %5, %cst_4 : tensor<1x4xi32> loc(#loc7)
    %7 = tt.get_program_id x : i32 loc(#loc8)
    %8 = arith.muli %7, %c32_i32 : i32 loc(#loc9)
    %9 = tt.make_range {end = 32 : i32, start = 0 : i32} : tensor<32xi32> loc(#loc10)
    %10 = tt.expand_dims %9 {axis = 1 : i32} : tensor<32xi32> -> tensor<32x1xi32> loc(#loc11)
    %11 = tt.splat %8 : i32 -> tensor<32x1xi32> loc(#loc12)
    %12 = arith.addi %11, %10 : tensor<32x1xi32> loc(#loc12)
    %13 = arith.cmpi slt, %12, %cst_3 : tensor<32x1xi32> loc(#loc13)
    %14 = arith.remsi %12, %cst_2 : tensor<32x1xi32> loc(#loc14)
    %15 = arith.divsi %12, %cst_2 : tensor<32x1xi32> loc(#loc15)
    %16 = arith.remsi %15, %cst_2 : tensor<32x1xi32> loc(#loc16)
    %17 = arith.muli %16, %cst_2 : tensor<32x1xi32> loc(#loc17)
    %18 = tt.broadcast %5 : tensor<1x4xi32> -> tensor<32x4xi32> loc(#loc18)
    %19 = tt.broadcast %17 : tensor<32x1xi32> -> tensor<32x4xi32> loc(#loc18)
    %20 = arith.addi %18, %19 : tensor<32x4xi32> loc(#loc18)
    %21 = arith.muli %14, %cst_1 : tensor<32x1xi32> loc(#loc19)
    %22 = tt.broadcast %21 : tensor<32x1xi32> -> tensor<32x4xi32> loc(#loc20)
    %23 = arith.addi %20, %22 : tensor<32x4xi32> loc(#loc20)
    %24 = arith.divsi %15, %cst_2 : tensor<32x1xi32> loc(#loc21)
    %25 = arith.muli %24, %cst_3 : tensor<32x1xi32> loc(#loc22)
    %26 = tt.broadcast %25 : tensor<32x1xi32> -> tensor<32x4xi32> loc(#loc23)
    %27 = arith.addi %23, %26 : tensor<32x4xi32> loc(#loc23)
    %28 = tt.splat %arg1 : !tt.ptr<f32> -> tensor<32x4x!tt.ptr<f32>> loc(#loc24)
    %29 = tt.addptr %28, %27 : tensor<32x4x!tt.ptr<f32>>, tensor<32x4xi32> loc(#loc24)
    %30 = tt.broadcast %13 : tensor<32x1xi1> -> tensor<32x4xi1> loc(#loc25)
    %31 = tt.broadcast %6 : tensor<1x4xi1> -> tensor<32x4xi1> loc(#loc25)
    %32 = arith.andi %30, %31 : tensor<32x4xi1> loc(#loc25)
    %33 = tt.load %29, %32 evictionPolicy = evict_last : tensor<32x4x!tt.ptr<f32>> loc(#loc26)
    %34 = tt.splat %arg2 : !tt.ptr<f32> -> tensor<32x1x!tt.ptr<f32>> loc(#loc27)
    %35 = tt.addptr %34, %14 : tensor<32x1x!tt.ptr<f32>>, tensor<32x1xi32> loc(#loc27)
    %36 = tt.load %35, %13 evictionPolicy = evict_last : tensor<32x1x!tt.ptr<f32>> loc(#loc28)
    %37 = arith.muli %24, %cst_2 : tensor<32x1xi32> loc(#loc29)
    %38 = arith.addi %14, %37 : tensor<32x1xi32> loc(#loc30)
    %39 = tt.splat %arg3 : !tt.ptr<f32> -> tensor<32x1x!tt.ptr<f32>> loc(#loc31)
    %40 = tt.addptr %39, %38 : tensor<32x1x!tt.ptr<f32>>, tensor<32x1xi32> loc(#loc31)
    %41 = tt.load %40, %13 evictionPolicy = evict_last : tensor<32x1x!tt.ptr<f32>> loc(#loc32)
    %42 = tt.splat %arg4 : !tt.ptr<f32> -> tensor<32x1x!tt.ptr<f32>> loc(#loc33)
    %43 = tt.addptr %42, %14 : tensor<32x1x!tt.ptr<f32>>, tensor<32x1xi32> loc(#loc33)
    %44 = tt.load %43, %13 evictionPolicy = evict_last : tensor<32x1x!tt.ptr<f32>> loc(#loc34)
    %45 = arith.muli %5, %cst_0 : tensor<1x4xi32> loc(#loc35)
    %46 = tt.broadcast %12 : tensor<32x1xi32> -> tensor<32x4xi32> loc(#loc36)
    %47 = tt.broadcast %45 : tensor<1x4xi32> -> tensor<32x4xi32> loc(#loc36)
    %48 = arith.addi %46, %47 : tensor<32x4xi32> loc(#loc36)
    %49 = tt.splat %arg0 : !tt.ptr<f32> -> tensor<32x4x!tt.ptr<f32>> loc(#loc37)
    %50 = tt.addptr %49, %48 : tensor<32x4x!tt.ptr<f32>>, tensor<32x4xi32> loc(#loc37)
    %51 = tt.load %50, %32 evictionPolicy = evict_last : tensor<32x4x!tt.ptr<f32>> loc(#loc38)
    %52 = tt.splat %arg5 : !tt.ptr<f32> -> tensor<32x1x!tt.ptr<f32>> loc(#loc39)
    %53 = tt.addptr %52, %14 : tensor<32x1x!tt.ptr<f32>>, tensor<32x1xi32> loc(#loc39)
    %54 = tt.load %53, %13 evictionPolicy = evict_last : tensor<32x1x!tt.ptr<f32>> loc(#loc40)
    %55 = tt.broadcast %36 : tensor<32x1xf32> -> tensor<32x4xf32> loc(#loc41)
    %56 = arith.addf %33, %55 : tensor<32x4xf32> loc(#loc41)
    %57 = arith.cmpf ogt, %cst, %56 : tensor<32x4xf32> loc(#loc52)
    %58 = arith.select %57, %cst, %56 : tensor<32x4xi1>, tensor<32x4xf32> loc(#loc53)
    %59 = arith.addf %41, %44 : tensor<32x1xf32> loc(#loc45)
    %60 = tt.broadcast %59 : tensor<32x1xf32> -> tensor<32x4xf32> loc(#loc46)
    %61 = arith.addf %58, %60 : tensor<32x4xf32> loc(#loc46)
    %62 = tt.broadcast %54 : tensor<32x1xf32> -> tensor<32x4xf32> loc(#loc47)
    %63 = arith.addf %51, %62 : tensor<32x4xf32> loc(#loc47)
    %64 = arith.addf %61, %63 : tensor<32x4xf32> loc(#loc48)
    gpu.barrier loc(#loc49)
    tt.store %50, %64, %32 : tensor<32x4x!tt.ptr<f32>> loc(#loc50)
    tt.return loc(#loc51)
  } loc(#loc)
} loc(#loc)
#loc1 = loc(unknown)
#loc2 = loc("inductor_cache/7t/c7t4ad5gp5fccrtca5pb26ahvwzyxmdxtvcpl43wcyslzu6r4vhs.py":22:28)
#loc3 = loc("inductor_cache/7t/c7t4ad5gp5fccrtca5pb26ahvwzyxmdxtvcpl43wcyslzu6r4vhs.py":22:33)
#loc4 = loc("inductor_cache/7t/c7t4ad5gp5fccrtca5pb26ahvwzyxmdxtvcpl43wcyslzu6r4vhs.py":23:36)
#loc5 = loc("inductor_cache/7t/c7t4ad5gp5fccrtca5pb26ahvwzyxmdxtvcpl43wcyslzu6r4vhs.py":23:44)
#loc6 = loc("inductor_cache/7t/c7t4ad5gp5fccrtca5pb26ahvwzyxmdxtvcpl43wcyslzu6r4vhs.py":23:23)
#loc7 = loc("inductor_cache/7t/c7t4ad5gp5fccrtca5pb26ahvwzyxmdxtvcpl43wcyslzu6r4vhs.py":24:21)
#loc8 = loc("inductor_cache/7t/c7t4ad5gp5fccrtca5pb26ahvwzyxmdxtvcpl43wcyslzu6r4vhs.py":25:28)
#loc9 = loc("inductor_cache/7t/c7t4ad5gp5fccrtca5pb26ahvwzyxmdxtvcpl43wcyslzu6r4vhs.py":25:33)
#loc10 = loc("inductor_cache/7t/c7t4ad5gp5fccrtca5pb26ahvwzyxmdxtvcpl43wcyslzu6r4vhs.py":26:36)
#loc11 = loc("inductor_cache/7t/c7t4ad5gp5fccrtca5pb26ahvwzyxmdxtvcpl43wcyslzu6r4vhs.py":26:44)
#loc12 = loc("inductor_cache/7t/c7t4ad5gp5fccrtca5pb26ahvwzyxmdxtvcpl43wcyslzu6r4vhs.py":26:23)
#loc13 = loc("inductor_cache/7t/c7t4ad5gp5fccrtca5pb26ahvwzyxmdxtvcpl43wcyslzu6r4vhs.py":27:21)
#loc14 = loc("inductor_cache/7t/c7t4ad5gp5fccrtca5pb26ahvwzyxmdxtvcpl43wcyslzu6r4vhs.py":28:19)
#loc15 = loc("inductor_cache/7t/c7t4ad5gp5fccrtca5pb26ahvwzyxmdxtvcpl43wcyslzu6r4vhs.py":29:19)
#loc16 = loc("inductor_cache/7t/c7t4ad5gp5fccrtca5pb26ahvwzyxmdxtvcpl43wcyslzu6r4vhs.py":32:44)
#loc17 = loc("inductor_cache/7t/c7t4ad5gp5fccrtca5pb26ahvwzyxmdxtvcpl43wcyslzu6r4vhs.py":32:39)
#loc18 = loc("inductor_cache/7t/c7t4ad5gp5fccrtca5pb26ahvwzyxmdxtvcpl43wcyslzu6r4vhs.py":32:35)
#loc19 = loc("inductor_cache/7t/c7t4ad5gp5fccrtca5pb26ahvwzyxmdxtvcpl43wcyslzu6r4vhs.py":32:53)
#loc20 = loc("inductor_cache/7t/c7t4ad5gp5fccrtca5pb26ahvwzyxmdxtvcpl43wcyslzu6r4vhs.py":32:50)
#loc21 = loc("inductor_cache/7t/c7t4ad5gp5fccrtca5pb26ahvwzyxmdxtvcpl43wcyslzu6r4vhs.py":32:68)
#loc22 = loc("inductor_cache/7t/c7t4ad5gp5fccrtca5pb26ahvwzyxmdxtvcpl43wcyslzu6r4vhs.py":32:62)
#loc23 = loc("inductor_cache/7t/c7t4ad5gp5fccrtca5pb26ahvwzyxmdxtvcpl43wcyslzu6r4vhs.py":32:58)
#loc24 = loc("inductor_cache/7t/c7t4ad5gp5fccrtca5pb26ahvwzyxmdxtvcpl43wcyslzu6r4vhs.py":32:30)
#loc25 = loc("inductor_cache/7t/c7t4ad5gp5fccrtca5pb26ahvwzyxmdxtvcpl43wcyslzu6r4vhs.py":32:81)
#loc26 = loc("inductor_cache/7t/c7t4ad5gp5fccrtca5pb26ahvwzyxmdxtvcpl43wcyslzu6r4vhs.py":32:73)
#loc27 = loc("inductor_cache/7t/c7t4ad5gp5fccrtca5pb26ahvwzyxmdxtvcpl43wcyslzu6r4vhs.py":33:30)
#loc28 = loc("inductor_cache/7t/c7t4ad5gp5fccrtca5pb26ahvwzyxmdxtvcpl43wcyslzu6r4vhs.py":33:35)
#loc29 = loc("inductor_cache/7t/c7t4ad5gp5fccrtca5pb26ahvwzyxmdxtvcpl43wcyslzu6r4vhs.py":34:38)
#loc30 = loc("inductor_cache/7t/c7t4ad5gp5fccrtca5pb26ahvwzyxmdxtvcpl43wcyslzu6r4vhs.py":34:35)
#loc31 = loc("inductor_cache/7t/c7t4ad5gp5fccrtca5pb26ahvwzyxmdxtvcpl43wcyslzu6r4vhs.py":34:30)
#loc32 = loc("inductor_cache/7t/c7t4ad5gp5fccrtca5pb26ahvwzyxmdxtvcpl43wcyslzu6r4vhs.py":34:49)
#loc33 = loc("inductor_cache/7t/c7t4ad5gp5fccrtca5pb26ahvwzyxmdxtvcpl43wcyslzu6r4vhs.py":35:30)
#loc34 = loc("inductor_cache/7t/c7t4ad5gp5fccrtca5pb26ahvwzyxmdxtvcpl43wcyslzu6r4vhs.py":35:35)
#loc35 = loc("inductor_cache/7t/c7t4ad5gp5fccrtca5pb26ahvwzyxmdxtvcpl43wcyslzu6r4vhs.py":36:42)
#loc36 = loc("inductor_cache/7t/c7t4ad5gp5fccrtca5pb26ahvwzyxmdxtvcpl43wcyslzu6r4vhs.py":36:39)
#loc37 = loc("inductor_cache/7t/c7t4ad5gp5fccrtca5pb26ahvwzyxmdxtvcpl43wcyslzu6r4vhs.py":36:34)
#loc38 = loc("inductor_cache/7t/c7t4ad5gp5fccrtca5pb26ahvwzyxmdxtvcpl43wcyslzu6r4vhs.py":36:47)
#loc39 = loc("inductor_cache/7t/c7t4ad5gp5fccrtca5pb26ahvwzyxmdxtvcpl43wcyslzu6r4vhs.py":37:31)
#loc40 = loc("inductor_cache/7t/c7t4ad5gp5fccrtca5pb26ahvwzyxmdxtvcpl43wcyslzu6r4vhs.py":37:36)
#loc41 = loc("inductor_cache/7t/c7t4ad5gp5fccrtca5pb26ahvwzyxmdxtvcpl43wcyslzu6r4vhs.py":38:18)
#loc42 = loc("/home/sahanp/.conda/envs/parity-bench/lib/python3.12/site-packages/torch/_inductor/runtime/triton_helpers.py":118:15)
#loc43 = loc("inductor_cache/7t/c7t4ad5gp5fccrtca5pb26ahvwzyxmdxtvcpl43wcyslzu6r4vhs.py":40:40)
#loc44 = loc("/home/sahanp/.conda/envs/parity-bench/lib/python3.12/site-packages/torch/_inductor/runtime/triton_helpers.py":121:29)
#loc45 = loc("inductor_cache/7t/c7t4ad5gp5fccrtca5pb26ahvwzyxmdxtvcpl43wcyslzu6r4vhs.py":41:18)
#loc46 = loc("inductor_cache/7t/c7t4ad5gp5fccrtca5pb26ahvwzyxmdxtvcpl43wcyslzu6r4vhs.py":42:18)
#loc47 = loc("inductor_cache/7t/c7t4ad5gp5fccrtca5pb26ahvwzyxmdxtvcpl43wcyslzu6r4vhs.py":43:19)
#loc48 = loc("inductor_cache/7t/c7t4ad5gp5fccrtca5pb26ahvwzyxmdxtvcpl43wcyslzu6r4vhs.py":44:19)
#loc49 = loc("inductor_cache/7t/c7t4ad5gp5fccrtca5pb26ahvwzyxmdxtvcpl43wcyslzu6r4vhs.py":45:4)
#loc50 = loc("inductor_cache/7t/c7t4ad5gp5fccrtca5pb26ahvwzyxmdxtvcpl43wcyslzu6r4vhs.py":46:48)
#loc51 = loc("inductor_cache/7t/c7t4ad5gp5fccrtca5pb26ahvwzyxmdxtvcpl43wcyslzu6r4vhs.py":46:4)
#loc52 = loc(callsite(#loc42 at #loc43))
#loc53 = loc(callsite(#loc44 at #loc43))
