#loc = loc("inductor_cache/5i/c5icynkb2jt6d2xt3ezjf3gpw3brt7dhzap4ipfh6quggkfx2cgk.py":19:0)
module {
  tt.func public @triton_poi_fused_maximum_pow_sub_2(%arg0: !tt.ptr<f32> {tt.divisibility = 16 : i32} loc("inductor_cache/5i/c5icynkb2jt6d2xt3ezjf3gpw3brt7dhzap4ipfh6quggkfx2cgk.py":19:0), %arg1: !tt.ptr<f32> {tt.divisibility = 16 : i32} loc("inductor_cache/5i/c5icynkb2jt6d2xt3ezjf3gpw3brt7dhzap4ipfh6quggkfx2cgk.py":19:0), %arg2: !tt.ptr<f32> {tt.divisibility = 16 : i32} loc("inductor_cache/5i/c5icynkb2jt6d2xt3ezjf3gpw3brt7dhzap4ipfh6quggkfx2cgk.py":19:0), %arg3: !tt.ptr<f32> {tt.divisibility = 16 : i32} loc("inductor_cache/5i/c5icynkb2jt6d2xt3ezjf3gpw3brt7dhzap4ipfh6quggkfx2cgk.py":19:0), %arg4: i32 {tt.divisibility = 16 : i32} loc("inductor_cache/5i/c5icynkb2jt6d2xt3ezjf3gpw3brt7dhzap4ipfh6quggkfx2cgk.py":19:0)) attributes {noinline = false} {
    %c0_i32 = arith.constant 0 : i32 loc(#loc1)
    %cst = arith.constant dense<16> : tensor<16xi32> loc(#loc1)
    %c16_i32 = arith.constant 16 : i32 loc(#loc1)
    %0 = tt.get_program_id x : i32 loc(#loc2)
    %1 = arith.muli %0, %c16_i32 : i32 loc(#loc3)
    %2 = tt.make_range {end = 16 : i32, start = 0 : i32} : tensor<16xi32> loc(#loc4)
    %3 = tt.splat %1 : i32 -> tensor<16xi32> loc(#loc5)
    %4 = arith.addi %3, %2 : tensor<16xi32> loc(#loc5)
    %5 = arith.cmpi slt, %4, %cst : tensor<16xi32> loc(#loc6)
    %6 = tt.splat %arg0 : !tt.ptr<f32> -> tensor<16x!tt.ptr<f32>> loc(#loc7)
    %7 = tt.addptr %6, %4 : tensor<16x!tt.ptr<f32>>, tensor<16xi32> loc(#loc7)
    %8 = tt.load %7, %5 : tensor<16x!tt.ptr<f32>> loc(#loc8)
    %9 = tt.addptr %arg1, %c0_i32 : !tt.ptr<f32>, i32 loc(#loc9)
    %10 = tt.load %9 : !tt.ptr<f32> loc(#loc10)
    %11 = tt.splat %10 : f32 -> tensor<16xf32> loc(#loc11)
    %12 = tt.addptr %arg2, %c0_i32 : !tt.ptr<f32>, i32 loc(#loc12)
    %13 = tt.load %12 : !tt.ptr<f32> loc(#loc13)
    %14 = tt.splat %13 : f32 -> tensor<16xf32> loc(#loc14)
    %15 = arith.cmpf ogt, %8, %11 : tensor<16xf32> loc(#loc25)
    %16 = arith.cmpf une, %8, %8 : tensor<16xf32> loc(#loc26)
    %17 = arith.ori %15, %16 : tensor<16xi1> loc(#loc27)
    %18 = arith.select %17, %8, %11 : tensor<16xi1>, tensor<16xf32> loc(#loc28)
    %19 = arith.mulf %18, %18 : tensor<16xf32> loc(#loc20)
    %20 = arith.subf %19, %14 : tensor<16xf32> loc(#loc21)
    %21 = tt.splat %arg3 : !tt.ptr<f32> -> tensor<16x!tt.ptr<f32>> loc(#loc22)
    %22 = tt.addptr %21, %4 : tensor<16x!tt.ptr<f32>>, tensor<16xi32> loc(#loc22)
    tt.store %22, %20, %5 : tensor<16x!tt.ptr<f32>> loc(#loc23)
    tt.return loc(#loc24)
  } loc(#loc)
} loc(#loc)
#loc1 = loc(unknown)
#loc2 = loc("inductor_cache/5i/c5icynkb2jt6d2xt3ezjf3gpw3brt7dhzap4ipfh6quggkfx2cgk.py":21:28)
#loc3 = loc("inductor_cache/5i/c5icynkb2jt6d2xt3ezjf3gpw3brt7dhzap4ipfh6quggkfx2cgk.py":21:33)
#loc4 = loc("inductor_cache/5i/c5icynkb2jt6d2xt3ezjf3gpw3brt7dhzap4ipfh6quggkfx2cgk.py":22:36)
#loc5 = loc("inductor_cache/5i/c5icynkb2jt6d2xt3ezjf3gpw3brt7dhzap4ipfh6quggkfx2cgk.py":22:23)
#loc6 = loc("inductor_cache/5i/c5icynkb2jt6d2xt3ezjf3gpw3brt7dhzap4ipfh6quggkfx2cgk.py":23:21)
#loc7 = loc("inductor_cache/5i/c5icynkb2jt6d2xt3ezjf3gpw3brt7dhzap4ipfh6quggkfx2cgk.py":25:30)
#loc8 = loc("inductor_cache/5i/c5icynkb2jt6d2xt3ezjf3gpw3brt7dhzap4ipfh6quggkfx2cgk.py":25:35)
#loc9 = loc("inductor_cache/5i/c5icynkb2jt6d2xt3ezjf3gpw3brt7dhzap4ipfh6quggkfx2cgk.py":26:30)
#loc10 = loc("inductor_cache/5i/c5icynkb2jt6d2xt3ezjf3gpw3brt7dhzap4ipfh6quggkfx2cgk.py":26:19)
#loc11 = loc("inductor_cache/5i/c5icynkb2jt6d2xt3ezjf3gpw3brt7dhzap4ipfh6quggkfx2cgk.py":27:33)
#loc12 = loc("inductor_cache/5i/c5icynkb2jt6d2xt3ezjf3gpw3brt7dhzap4ipfh6quggkfx2cgk.py":28:30)
#loc13 = loc("inductor_cache/5i/c5icynkb2jt6d2xt3ezjf3gpw3brt7dhzap4ipfh6quggkfx2cgk.py":28:19)
#loc14 = loc("inductor_cache/5i/c5icynkb2jt6d2xt3ezjf3gpw3brt7dhzap4ipfh6quggkfx2cgk.py":29:33)
#loc15 = loc("/home/sahanp/.conda/envs/parity-bench/lib/python3.12/site-packages/torch/_inductor/runtime/triton_helpers.py":118:15)
#loc16 = loc("inductor_cache/5i/c5icynkb2jt6d2xt3ezjf3gpw3brt7dhzap4ipfh6quggkfx2cgk.py":30:40)
#loc17 = loc("/home/sahanp/.conda/envs/parity-bench/lib/python3.12/site-packages/torch/_inductor/runtime/triton_helpers.py":120:21)
#loc18 = loc("/home/sahanp/.conda/envs/parity-bench/lib/python3.12/site-packages/torch/_inductor/runtime/triton_helpers.py":120:16)
#loc19 = loc("/home/sahanp/.conda/envs/parity-bench/lib/python3.12/site-packages/torch/_inductor/runtime/triton_helpers.py":121:29)
#loc20 = loc("inductor_cache/5i/c5icynkb2jt6d2xt3ezjf3gpw3brt7dhzap4ipfh6quggkfx2cgk.py":31:18)
#loc21 = loc("inductor_cache/5i/c5icynkb2jt6d2xt3ezjf3gpw3brt7dhzap4ipfh6quggkfx2cgk.py":32:18)
#loc22 = loc("inductor_cache/5i/c5icynkb2jt6d2xt3ezjf3gpw3brt7dhzap4ipfh6quggkfx2cgk.py":33:25)
#loc23 = loc("inductor_cache/5i/c5icynkb2jt6d2xt3ezjf3gpw3brt7dhzap4ipfh6quggkfx2cgk.py":33:36)
#loc24 = loc("inductor_cache/5i/c5icynkb2jt6d2xt3ezjf3gpw3brt7dhzap4ipfh6quggkfx2cgk.py":33:4)
#loc25 = loc(callsite(#loc15 at #loc16))
#loc26 = loc(callsite(#loc17 at #loc16))
#loc27 = loc(callsite(#loc18 at #loc16))
#loc28 = loc(callsite(#loc19 at #loc16))
