#loc = loc("inductor_cache/nw/cnw7x5ckwfjrr57vj6xnpwyiozcxq7hndezhm7t7d3qt3xdxu6gh.py":19:0)
module {
  tt.func public @triton_poi_fused_clone_convolution_gelu_mul_1(%arg0: !tt.ptr<f32> {tt.divisibility = 16 : i32} loc("inductor_cache/nw/cnw7x5ckwfjrr57vj6xnpwyiozcxq7hndezhm7t7d3qt3xdxu6gh.py":19:0), %arg1: !tt.ptr<f32> {tt.divisibility = 16 : i32} loc("inductor_cache/nw/cnw7x5ckwfjrr57vj6xnpwyiozcxq7hndezhm7t7d3qt3xdxu6gh.py":19:0), %arg2: !tt.ptr<f32> {tt.divisibility = 16 : i32} loc("inductor_cache/nw/cnw7x5ckwfjrr57vj6xnpwyiozcxq7hndezhm7t7d3qt3xdxu6gh.py":19:0), %arg3: i32 {tt.divisibility = 16 : i32} loc("inductor_cache/nw/cnw7x5ckwfjrr57vj6xnpwyiozcxq7hndezhm7t7d3qt3xdxu6gh.py":19:0), %arg4: i32 loc("inductor_cache/nw/cnw7x5ckwfjrr57vj6xnpwyiozcxq7hndezhm7t7d3qt3xdxu6gh.py":19:0)) attributes {noinline = false} {
    %cst = arith.constant dense<16> : tensor<4x1xi32> loc(#loc1)
    %cst_0 = arith.constant dense<0.707106769> : tensor<4x16xf32> loc(#loc1)
    %cst_1 = arith.constant dense<5.000000e-01> : tensor<4x16xf32> loc(#loc1)
    %cst_2 = arith.constant dense<1.000000e+00> : tensor<4x16xf32> loc(#loc1)
    %cst_3 = arith.constant dense<4> : tensor<1x16xi32> loc(#loc1)
    %cst_4 = arith.constant dense<4> : tensor<4x1xi32> loc(#loc1)
    %cst_5 = arith.constant dense<16> : tensor<1x16xi32> loc(#loc1)
    %c16_i32 = arith.constant 16 : i32 loc(#loc1)
    %c4_i32 = arith.constant 4 : i32 loc(#loc1)
    %0 = tt.get_program_id y : i32 loc(#loc2)
    %1 = arith.muli %0, %c16_i32 : i32 loc(#loc3)
    %2 = tt.make_range {end = 16 : i32, start = 0 : i32} : tensor<16xi32> loc(#loc4)
    %3 = tt.expand_dims %2 {axis = 0 : i32} : tensor<16xi32> -> tensor<1x16xi32> loc(#loc5)
    %4 = tt.splat %1 : i32 -> tensor<1x16xi32> loc(#loc6)
    %5 = arith.addi %4, %3 : tensor<1x16xi32> loc(#loc6)
    %6 = arith.cmpi slt, %5, %cst_5 : tensor<1x16xi32> loc(#loc7)
    %7 = tt.get_program_id x : i32 loc(#loc8)
    %8 = arith.muli %7, %c4_i32 : i32 loc(#loc9)
    %9 = tt.make_range {end = 4 : i32, start = 0 : i32} : tensor<4xi32> loc(#loc10)
    %10 = tt.expand_dims %9 {axis = 1 : i32} : tensor<4xi32> -> tensor<4x1xi32> loc(#loc11)
    %11 = tt.splat %8 : i32 -> tensor<4x1xi32> loc(#loc12)
    %12 = arith.addi %11, %10 : tensor<4x1xi32> loc(#loc12)
    %13 = arith.cmpi slt, %12, %cst_4 : tensor<4x1xi32> loc(#loc13)
    %14 = arith.remsi %5, %cst_3 : tensor<1x16xi32> loc(#loc14)
    %15 = arith.muli %5, %cst_3 : tensor<1x16xi32> loc(#loc15)
    %16 = tt.broadcast %12 : tensor<4x1xi32> -> tensor<4x16xi32> loc(#loc16)
    %17 = tt.broadcast %15 : tensor<1x16xi32> -> tensor<4x16xi32> loc(#loc16)
    %18 = arith.addi %16, %17 : tensor<4x16xi32> loc(#loc16)
    %19 = tt.splat %arg0 : !tt.ptr<f32> -> tensor<4x16x!tt.ptr<f32>> loc(#loc17)
    %20 = tt.addptr %19, %18 : tensor<4x16x!tt.ptr<f32>>, tensor<4x16xi32> loc(#loc17)
    %21 = tt.broadcast %13 : tensor<4x1xi1> -> tensor<4x16xi1> loc(#loc18)
    %22 = tt.broadcast %6 : tensor<1x16xi1> -> tensor<4x16xi1> loc(#loc18)
    %23 = arith.andi %21, %22 : tensor<4x16xi1> loc(#loc18)
    %24 = tt.load %20, %23 evictionPolicy = evict_last : tensor<4x16x!tt.ptr<f32>> loc(#loc19)
    %25 = tt.splat %arg1 : !tt.ptr<f32> -> tensor<1x16x!tt.ptr<f32>> loc(#loc20)
    %26 = tt.addptr %25, %14 : tensor<1x16x!tt.ptr<f32>>, tensor<1x16xi32> loc(#loc20)
    %27 = tt.load %26, %6 evictionPolicy = evict_last : tensor<1x16x!tt.ptr<f32>> loc(#loc21)
    %28 = tt.broadcast %27 : tensor<1x16xf32> -> tensor<4x16xf32> loc(#loc22)
    %29 = arith.addf %24, %28 : tensor<4x16xf32> loc(#loc22)
    %30 = arith.mulf %29, %cst_1 : tensor<4x16xf32> loc(#loc23)
    %31 = arith.mulf %29, %cst_0 : tensor<4x16xf32> loc(#loc24)
    %32 = tt.extern_elementwise %31 {libname = "", libpath = "", pure = true, symbol = "__nv_erff"} : (tensor<4x16xf32>) -> tensor<4x16xf32> loc(#loc25)
    %33 = arith.addf %32, %cst_2 : tensor<4x16xf32> loc(#loc26)
    %34 = arith.mulf %30, %33 : tensor<4x16xf32> loc(#loc27)
    gpu.barrier loc(#loc28)
    tt.store %20, %29, %23 : tensor<4x16x!tt.ptr<f32>> loc(#loc29)
    %35 = arith.muli %12, %cst : tensor<4x1xi32> loc(#loc30)
    %36 = tt.broadcast %5 : tensor<1x16xi32> -> tensor<4x16xi32> loc(#loc31)
    %37 = tt.broadcast %35 : tensor<4x1xi32> -> tensor<4x16xi32> loc(#loc31)
    %38 = arith.addi %36, %37 : tensor<4x16xi32> loc(#loc31)
    %39 = tt.splat %arg2 : !tt.ptr<f32> -> tensor<4x16x!tt.ptr<f32>> loc(#loc32)
    %40 = tt.addptr %39, %38 : tensor<4x16x!tt.ptr<f32>>, tensor<4x16xi32> loc(#loc32)
    tt.store %40, %34, %23 : tensor<4x16x!tt.ptr<f32>> loc(#loc33)
    tt.return loc(#loc34)
  } loc(#loc)
} loc(#loc)
#loc1 = loc(unknown)
#loc2 = loc("inductor_cache/nw/cnw7x5ckwfjrr57vj6xnpwyiozcxq7hndezhm7t7d3qt3xdxu6gh.py":22:28)
#loc3 = loc("inductor_cache/nw/cnw7x5ckwfjrr57vj6xnpwyiozcxq7hndezhm7t7d3qt3xdxu6gh.py":22:33)
#loc4 = loc("inductor_cache/nw/cnw7x5ckwfjrr57vj6xnpwyiozcxq7hndezhm7t7d3qt3xdxu6gh.py":23:36)
#loc5 = loc("inductor_cache/nw/cnw7x5ckwfjrr57vj6xnpwyiozcxq7hndezhm7t7d3qt3xdxu6gh.py":23:44)
#loc6 = loc("inductor_cache/nw/cnw7x5ckwfjrr57vj6xnpwyiozcxq7hndezhm7t7d3qt3xdxu6gh.py":23:23)
#loc7 = loc("inductor_cache/nw/cnw7x5ckwfjrr57vj6xnpwyiozcxq7hndezhm7t7d3qt3xdxu6gh.py":24:21)
#loc8 = loc("inductor_cache/nw/cnw7x5ckwfjrr57vj6xnpwyiozcxq7hndezhm7t7d3qt3xdxu6gh.py":25:28)
#loc9 = loc("inductor_cache/nw/cnw7x5ckwfjrr57vj6xnpwyiozcxq7hndezhm7t7d3qt3xdxu6gh.py":25:33)
#loc10 = loc("inductor_cache/nw/cnw7x5ckwfjrr57vj6xnpwyiozcxq7hndezhm7t7d3qt3xdxu6gh.py":26:36)
#loc11 = loc("inductor_cache/nw/cnw7x5ckwfjrr57vj6xnpwyiozcxq7hndezhm7t7d3qt3xdxu6gh.py":26:44)
#loc12 = loc("inductor_cache/nw/cnw7x5ckwfjrr57vj6xnpwyiozcxq7hndezhm7t7d3qt3xdxu6gh.py":26:23)
#loc13 = loc("inductor_cache/nw/cnw7x5ckwfjrr57vj6xnpwyiozcxq7hndezhm7t7d3qt3xdxu6gh.py":27:21)
#loc14 = loc("inductor_cache/nw/cnw7x5ckwfjrr57vj6xnpwyiozcxq7hndezhm7t7d3qt3xdxu6gh.py":30:19)
#loc15 = loc("inductor_cache/nw/cnw7x5ckwfjrr57vj6xnpwyiozcxq7hndezhm7t7d3qt3xdxu6gh.py":31:41)
#loc16 = loc("inductor_cache/nw/cnw7x5ckwfjrr57vj6xnpwyiozcxq7hndezhm7t7d3qt3xdxu6gh.py":31:39)
#loc17 = loc("inductor_cache/nw/cnw7x5ckwfjrr57vj6xnpwyiozcxq7hndezhm7t7d3qt3xdxu6gh.py":31:34)
#loc18 = loc("inductor_cache/nw/cnw7x5ckwfjrr57vj6xnpwyiozcxq7hndezhm7t7d3qt3xdxu6gh.py":31:54)
#loc19 = loc("inductor_cache/nw/cnw7x5ckwfjrr57vj6xnpwyiozcxq7hndezhm7t7d3qt3xdxu6gh.py":31:46)
#loc20 = loc("inductor_cache/nw/cnw7x5ckwfjrr57vj6xnpwyiozcxq7hndezhm7t7d3qt3xdxu6gh.py":32:30)
#loc21 = loc("inductor_cache/nw/cnw7x5ckwfjrr57vj6xnpwyiozcxq7hndezhm7t7d3qt3xdxu6gh.py":32:35)
#loc22 = loc("inductor_cache/nw/cnw7x5ckwfjrr57vj6xnpwyiozcxq7hndezhm7t7d3qt3xdxu6gh.py":33:18)
#loc23 = loc("inductor_cache/nw/cnw7x5ckwfjrr57vj6xnpwyiozcxq7hndezhm7t7d3qt3xdxu6gh.py":37:18)
#loc24 = loc("inductor_cache/nw/cnw7x5ckwfjrr57vj6xnpwyiozcxq7hndezhm7t7d3qt3xdxu6gh.py":39:18)
#loc25 = loc("inductor_cache/nw/cnw7x5ckwfjrr57vj6xnpwyiozcxq7hndezhm7t7d3qt3xdxu6gh.py":40:25)
#loc26 = loc("inductor_cache/nw/cnw7x5ckwfjrr57vj6xnpwyiozcxq7hndezhm7t7d3qt3xdxu6gh.py":41:19)
#loc27 = loc("inductor_cache/nw/cnw7x5ckwfjrr57vj6xnpwyiozcxq7hndezhm7t7d3qt3xdxu6gh.py":42:19)
#loc28 = loc("inductor_cache/nw/cnw7x5ckwfjrr57vj6xnpwyiozcxq7hndezhm7t7d3qt3xdxu6gh.py":43:4)
#loc29 = loc("inductor_cache/nw/cnw7x5ckwfjrr57vj6xnpwyiozcxq7hndezhm7t7d3qt3xdxu6gh.py":44:46)
#loc30 = loc("inductor_cache/nw/cnw7x5ckwfjrr57vj6xnpwyiozcxq7hndezhm7t7d3qt3xdxu6gh.py":45:33)
#loc31 = loc("inductor_cache/nw/cnw7x5ckwfjrr57vj6xnpwyiozcxq7hndezhm7t7d3qt3xdxu6gh.py":45:30)
#loc32 = loc("inductor_cache/nw/cnw7x5ckwfjrr57vj6xnpwyiozcxq7hndezhm7t7d3qt3xdxu6gh.py":45:25)
#loc33 = loc("inductor_cache/nw/cnw7x5ckwfjrr57vj6xnpwyiozcxq7hndezhm7t7d3qt3xdxu6gh.py":45:45)
#loc34 = loc("inductor_cache/nw/cnw7x5ckwfjrr57vj6xnpwyiozcxq7hndezhm7t7d3qt3xdxu6gh.py":45:4)
