#loc = loc("inductor_cache/ji/cjinjftyj4vr27gktnr3bxxgmoyqf7yjxg64icpa6u4t4kmrecti.py":19:0)
module {
  tt.func public @triton_poi_fused_div_sub_0(%arg0: !tt.ptr<f32> {tt.divisibility = 16 : i32} loc("inductor_cache/ji/cjinjftyj4vr27gktnr3bxxgmoyqf7yjxg64icpa6u4t4kmrecti.py":19:0), %arg1: !tt.ptr<f32> {tt.divisibility = 16 : i32} loc("inductor_cache/ji/cjinjftyj4vr27gktnr3bxxgmoyqf7yjxg64icpa6u4t4kmrecti.py":19:0), %arg2: !tt.ptr<f32> {tt.divisibility = 16 : i32} loc("inductor_cache/ji/cjinjftyj4vr27gktnr3bxxgmoyqf7yjxg64icpa6u4t4kmrecti.py":19:0), %arg3: !tt.ptr<f32> {tt.divisibility = 16 : i32} loc("inductor_cache/ji/cjinjftyj4vr27gktnr3bxxgmoyqf7yjxg64icpa6u4t4kmrecti.py":19:0), %arg4: i32 loc("inductor_cache/ji/cjinjftyj4vr27gktnr3bxxgmoyqf7yjxg64icpa6u4t4kmrecti.py":19:0), %arg5: i32 {tt.divisibility = 16 : i32} loc("inductor_cache/ji/cjinjftyj4vr27gktnr3bxxgmoyqf7yjxg64icpa6u4t4kmrecti.py":19:0)) attributes {noinline = false} {
    %c12288_i32 = arith.constant 12288 : i32 loc(#loc1)
    %c4096_i32 = arith.constant 4096 : i32 loc(#loc1)
    %c3_i32 = arith.constant 3 : i32 loc(#loc1)
    %c12_i32 = arith.constant 12 : i32 loc(#loc1)
    %cst = arith.constant dense<3> : tensor<512x1xi32> loc(#loc1)
    %c512_i32 = arith.constant 512 : i32 loc(#loc1)
    %0 = tt.get_program_id y : i32 loc(#loc2)
    %1 = arith.cmpi slt, %0, %c12_i32 : i32 loc(#loc3)
    %2 = tt.splat %1 : i1 -> tensor<1x1xi1> loc(#loc3)
    %3 = tt.get_program_id x : i32 loc(#loc4)
    %4 = arith.muli %3, %c512_i32 : i32 loc(#loc5)
    %5 = tt.make_range {end = 512 : i32, start = 0 : i32} : tensor<512xi32> loc(#loc6)
    %6 = tt.expand_dims %5 {axis = 1 : i32} : tensor<512xi32> -> tensor<512x1xi32> loc(#loc7)
    %7 = tt.splat %4 : i32 -> tensor<512x1xi32> loc(#loc8)
    %8 = arith.addi %7, %6 : tensor<512x1xi32> loc(#loc8)
    %9 = arith.remsi %0, %c3_i32 : i32 loc(#loc9)
    %10 = arith.divsi %0, %c3_i32 : i32 loc(#loc10)
    %11 = arith.muli %0, %c4096_i32 : i32 loc(#loc11)
    %12 = tt.splat %11 : i32 -> tensor<512x1xi32> loc(#loc12)
    %13 = arith.addi %8, %12 : tensor<512x1xi32> loc(#loc12)
    %14 = tt.splat %arg0 : !tt.ptr<f32> -> tensor<512x1x!tt.ptr<f32>> loc(#loc13)
    %15 = tt.addptr %14, %13 : tensor<512x1x!tt.ptr<f32>>, tensor<512x1xi32> loc(#loc13)
    %16 = tt.splat %1 : i1 -> tensor<512x1xi1> loc(#loc14)
    %17 = tt.load %15, %16 evictionPolicy = evict_last : tensor<512x1x!tt.ptr<f32>> loc(#loc14)
    %18 = tt.addptr %arg1, %9 : !tt.ptr<f32>, i32 loc(#loc15)
    %19 = tt.splat %18 : !tt.ptr<f32> -> tensor<1x1x!tt.ptr<f32>> loc(#loc15)
    %20 = tt.load %19, %2 evictionPolicy = evict_last : tensor<1x1x!tt.ptr<f32>> loc(#loc16)
    %21 = tt.addptr %arg2, %9 : !tt.ptr<f32>, i32 loc(#loc17)
    %22 = tt.splat %21 : !tt.ptr<f32> -> tensor<1x1x!tt.ptr<f32>> loc(#loc17)
    %23 = tt.load %22, %2 evictionPolicy = evict_last : tensor<1x1x!tt.ptr<f32>> loc(#loc18)
    %24 = tt.broadcast %20 : tensor<1x1xf32> -> tensor<512x1xf32> loc(#loc19)
    %25 = arith.subf %17, %24 : tensor<512x1xf32> loc(#loc19)
    %26 = tt.broadcast %23 : tensor<1x1xf32> -> tensor<512x1xf32> loc(#loc20)
    %27 = arith.divf %25, %26 : tensor<512x1xf32> loc(#loc20)
    %28 = arith.muli %8, %cst : tensor<512x1xi32> loc(#loc21)
    %29 = tt.splat %9 : i32 -> tensor<512x1xi32> loc(#loc22)
    %30 = arith.addi %29, %28 : tensor<512x1xi32> loc(#loc22)
    %31 = arith.muli %10, %c12288_i32 : i32 loc(#loc23)
    %32 = tt.splat %31 : i32 -> tensor<512x1xi32> loc(#loc24)
    %33 = arith.addi %30, %32 : tensor<512x1xi32> loc(#loc24)
    %34 = tt.splat %arg3 : !tt.ptr<f32> -> tensor<512x1x!tt.ptr<f32>> loc(#loc25)
    %35 = tt.addptr %34, %33 : tensor<512x1x!tt.ptr<f32>>, tensor<512x1xi32> loc(#loc25)
    tt.store %35, %27, %16 : tensor<512x1x!tt.ptr<f32>> loc(#loc26)
    tt.return loc(#loc27)
  } loc(#loc)
} loc(#loc)
#loc1 = loc(unknown)
#loc2 = loc("inductor_cache/ji/cjinjftyj4vr27gktnr3bxxgmoyqf7yjxg64icpa6u4t4kmrecti.py":22:28)
#loc3 = loc("inductor_cache/ji/cjinjftyj4vr27gktnr3bxxgmoyqf7yjxg64icpa6u4t4kmrecti.py":24:21)
#loc4 = loc("inductor_cache/ji/cjinjftyj4vr27gktnr3bxxgmoyqf7yjxg64icpa6u4t4kmrecti.py":25:28)
#loc5 = loc("inductor_cache/ji/cjinjftyj4vr27gktnr3bxxgmoyqf7yjxg64icpa6u4t4kmrecti.py":25:33)
#loc6 = loc("inductor_cache/ji/cjinjftyj4vr27gktnr3bxxgmoyqf7yjxg64icpa6u4t4kmrecti.py":26:36)
#loc7 = loc("inductor_cache/ji/cjinjftyj4vr27gktnr3bxxgmoyqf7yjxg64icpa6u4t4kmrecti.py":26:44)
#loc8 = loc("inductor_cache/ji/cjinjftyj4vr27gktnr3bxxgmoyqf7yjxg64icpa6u4t4kmrecti.py":26:23)
#loc9 = loc("inductor_cache/ji/cjinjftyj4vr27gktnr3bxxgmoyqf7yjxg64icpa6u4t4kmrecti.py":30:19)
#loc10 = loc("inductor_cache/ji/cjinjftyj4vr27gktnr3bxxgmoyqf7yjxg64icpa6u4t4kmrecti.py":31:19)
#loc11 = loc("inductor_cache/ji/cjinjftyj4vr27gktnr3bxxgmoyqf7yjxg64icpa6u4t4kmrecti.py":32:40)
#loc12 = loc("inductor_cache/ji/cjinjftyj4vr27gktnr3bxxgmoyqf7yjxg64icpa6u4t4kmrecti.py":32:35)
#loc13 = loc("inductor_cache/ji/cjinjftyj4vr27gktnr3bxxgmoyqf7yjxg64icpa6u4t4kmrecti.py":32:30)
#loc14 = loc("inductor_cache/ji/cjinjftyj4vr27gktnr3bxxgmoyqf7yjxg64icpa6u4t4kmrecti.py":32:45)
#loc15 = loc("inductor_cache/ji/cjinjftyj4vr27gktnr3bxxgmoyqf7yjxg64icpa6u4t4kmrecti.py":33:30)
#loc16 = loc("inductor_cache/ji/cjinjftyj4vr27gktnr3bxxgmoyqf7yjxg64icpa6u4t4kmrecti.py":33:35)
#loc17 = loc("inductor_cache/ji/cjinjftyj4vr27gktnr3bxxgmoyqf7yjxg64icpa6u4t4kmrecti.py":34:30)
#loc18 = loc("inductor_cache/ji/cjinjftyj4vr27gktnr3bxxgmoyqf7yjxg64icpa6u4t4kmrecti.py":34:35)
#loc19 = loc("inductor_cache/ji/cjinjftyj4vr27gktnr3bxxgmoyqf7yjxg64icpa6u4t4kmrecti.py":35:18)
#loc20 = loc("inductor_cache/ji/cjinjftyj4vr27gktnr3bxxgmoyqf7yjxg64icpa6u4t4kmrecti.py":36:18)
#loc21 = loc("inductor_cache/ji/cjinjftyj4vr27gktnr3bxxgmoyqf7yjxg64icpa6u4t4kmrecti.py":37:32)
#loc22 = loc("inductor_cache/ji/cjinjftyj4vr27gktnr3bxxgmoyqf7yjxg64icpa6u4t4kmrecti.py":37:30)
#loc23 = loc("inductor_cache/ji/cjinjftyj4vr27gktnr3bxxgmoyqf7yjxg64icpa6u4t4kmrecti.py":37:43)
#loc24 = loc("inductor_cache/ji/cjinjftyj4vr27gktnr3bxxgmoyqf7yjxg64icpa6u4t4kmrecti.py":37:37)
#loc25 = loc("inductor_cache/ji/cjinjftyj4vr27gktnr3bxxgmoyqf7yjxg64icpa6u4t4kmrecti.py":37:25)
#loc26 = loc("inductor_cache/ji/cjinjftyj4vr27gktnr3bxxgmoyqf7yjxg64icpa6u4t4kmrecti.py":37:54)
#loc27 = loc("inductor_cache/ji/cjinjftyj4vr27gktnr3bxxgmoyqf7yjxg64icpa6u4t4kmrecti.py":37:4)
