#loc = loc("inductor_cache/vy/cvyfli6e4lgkjhtwxzzgcpqgar5mw7ysn2furiwxf6encv55ia55.py":19:0)
#loc1 = loc(unknown)
#loc24 = loc("inductor_cache/vy/cvyfli6e4lgkjhtwxzzgcpqgar5mw7ysn2furiwxf6encv55ia55.py":37:24)
#loc33 = loc(callsite(#loc1 at #loc24))
module {
  tt.func public @triton_per_fused_mean_sum_37(%arg0: !tt.ptr<f32> {tt.divisibility = 16 : i32} loc("inductor_cache/vy/cvyfli6e4lgkjhtwxzzgcpqgar5mw7ysn2furiwxf6encv55ia55.py":19:0), %arg1: !tt.ptr<f32> {tt.divisibility = 16 : i32} loc("inductor_cache/vy/cvyfli6e4lgkjhtwxzzgcpqgar5mw7ysn2furiwxf6encv55ia55.py":19:0), %arg2: i32 {tt.divisibility = 16 : i32} loc("inductor_cache/vy/cvyfli6e4lgkjhtwxzzgcpqgar5mw7ysn2furiwxf6encv55ia55.py":19:0), %arg3: i32 {tt.divisibility = 16 : i32} loc("inductor_cache/vy/cvyfli6e4lgkjhtwxzzgcpqgar5mw7ysn2furiwxf6encv55ia55.py":19:0)) attributes {noinline = false} {
    %cst = arith.constant dense<1.600000e+01> : tensor<32x1xf32> loc(#loc1)
    %cst_0 = arith.constant dense<65536> : tensor<32x1xi32> loc(#loc1)
    %cst_1 = arith.constant dense<16384> : tensor<32x1xi32> loc(#loc1)
    %cst_2 = arith.constant dense<1024> : tensor<1x16xi32> loc(#loc1)
    %cst_3 = arith.constant dense<1024> : tensor<32x1xi32> loc(#loc1)
    %c32_i32 = arith.constant 32 : i32 loc(#loc1)
    %0 = tt.get_program_id x : i32 loc(#loc2)
    %1 = arith.muli %0, %c32_i32 : i32 loc(#loc3)
    %2 = tt.make_range {end = 32 : i32, start = 0 : i32} : tensor<32xi32> loc(#loc4)
    %3 = tt.expand_dims %2 {axis = 1 : i32} : tensor<32xi32> -> tensor<32x1xi32> loc(#loc5)
    %4 = tt.splat %1 : i32 -> tensor<32x1xi32> loc(#loc6)
    %5 = arith.addi %4, %3 : tensor<32x1xi32> loc(#loc6)
    %6 = tt.make_range {end = 16 : i32, start = 0 : i32} : tensor<16xi32> loc(#loc7)
    %7 = tt.expand_dims %6 {axis = 0 : i32} : tensor<16xi32> -> tensor<1x16xi32> loc(#loc8)
    %8 = arith.remsi %5, %cst_3 : tensor<32x1xi32> loc(#loc9)
    %9 = arith.divsi %5, %cst_3 : tensor<32x1xi32> loc(#loc10)
    %10 = arith.muli %7, %cst_2 : tensor<1x16xi32> loc(#loc11)
    %11 = tt.broadcast %8 : tensor<32x1xi32> -> tensor<32x16xi32> loc(#loc12)
    %12 = tt.broadcast %10 : tensor<1x16xi32> -> tensor<32x16xi32> loc(#loc12)
    %13 = arith.addi %11, %12 : tensor<32x16xi32> loc(#loc12)
    %14 = arith.muli %9, %cst_1 : tensor<32x1xi32> loc(#loc13)
    %15 = tt.broadcast %14 : tensor<32x1xi32> -> tensor<32x16xi32> loc(#loc14)
    %16 = arith.addi %13, %15 : tensor<32x16xi32> loc(#loc14)
    %17 = tt.splat %arg1 : !tt.ptr<f32> -> tensor<32x16x!tt.ptr<f32>> loc(#loc15)
    %18 = tt.addptr %17, %16 : tensor<32x16x!tt.ptr<f32>>, tensor<32x16xi32> loc(#loc15)
    %19 = tt.load %18 : tensor<32x16x!tt.ptr<f32>> loc(#loc16)
    %20 = arith.addi %8, %cst_0 : tensor<32x1xi32> loc(#loc17)
    %21 = tt.broadcast %20 : tensor<32x1xi32> -> tensor<32x16xi32> loc(#loc18)
    %22 = arith.addi %21, %12 : tensor<32x16xi32> loc(#loc18)
    %23 = arith.addi %22, %15 : tensor<32x16xi32> loc(#loc19)
    %24 = tt.addptr %17, %23 : tensor<32x16x!tt.ptr<f32>>, tensor<32x16xi32> loc(#loc20)
    %25 = tt.load %24 : tensor<32x16x!tt.ptr<f32>> loc(#loc21)
    %26 = arith.addf %19, %25 : tensor<32x16xf32> loc(#loc22)
    %27 = "tt.reduce"(%26) <{axis = 1 : i32}> ({
    ^bb0(%arg4: f32 loc(callsite(#loc1 at #loc24)), %arg5: f32 loc(callsite(#loc1 at #loc24))):
      %32 = arith.addf %arg4, %arg5 : f32 loc(#loc35)
      tt.reduce.return %32 : f32 loc(#loc32)
    }) : (tensor<32x16xf32>) -> tensor<32xf32> loc(#loc32)
    %28 = tt.expand_dims %27 {axis = 1 : i32} : tensor<32xf32> -> tensor<32x1xf32> loc(#loc26)
    %29 = arith.divf %28, %cst : tensor<32x1xf32> loc(#loc27)
    gpu.barrier loc(#loc28)
    %30 = tt.splat %arg0 : !tt.ptr<f32> -> tensor<32x1x!tt.ptr<f32>> loc(#loc29)
    %31 = tt.addptr %30, %5 : tensor<32x1x!tt.ptr<f32>>, tensor<32x1xi32> loc(#loc29)
    tt.store %31, %29 : tensor<32x1x!tt.ptr<f32>> loc(#loc30)
    tt.return loc(#loc31)
  } loc(#loc)
} loc(#loc)
#loc2 = loc("inductor_cache/vy/cvyfli6e4lgkjhtwxzzgcpqgar5mw7ysn2furiwxf6encv55ia55.py":23:28)
#loc3 = loc("inductor_cache/vy/cvyfli6e4lgkjhtwxzzgcpqgar5mw7ysn2furiwxf6encv55ia55.py":23:33)
#loc4 = loc("inductor_cache/vy/cvyfli6e4lgkjhtwxzzgcpqgar5mw7ysn2furiwxf6encv55ia55.py":24:36)
#loc5 = loc("inductor_cache/vy/cvyfli6e4lgkjhtwxzzgcpqgar5mw7ysn2furiwxf6encv55ia55.py":24:44)
#loc6 = loc("inductor_cache/vy/cvyfli6e4lgkjhtwxzzgcpqgar5mw7ysn2furiwxf6encv55ia55.py":24:23)
#loc7 = loc("inductor_cache/vy/cvyfli6e4lgkjhtwxzzgcpqgar5mw7ysn2furiwxf6encv55ia55.py":26:26)
#loc8 = loc("inductor_cache/vy/cvyfli6e4lgkjhtwxzzgcpqgar5mw7ysn2furiwxf6encv55ia55.py":26:34)
#loc9 = loc("inductor_cache/vy/cvyfli6e4lgkjhtwxzzgcpqgar5mw7ysn2furiwxf6encv55ia55.py":30:19)
#loc10 = loc("inductor_cache/vy/cvyfli6e4lgkjhtwxzzgcpqgar5mw7ysn2furiwxf6encv55ia55.py":31:19)
#loc11 = loc("inductor_cache/vy/cvyfli6e4lgkjhtwxzzgcpqgar5mw7ysn2furiwxf6encv55ia55.py":33:40)
#loc12 = loc("inductor_cache/vy/cvyfli6e4lgkjhtwxzzgcpqgar5mw7ysn2furiwxf6encv55ia55.py":33:35)
#loc13 = loc("inductor_cache/vy/cvyfli6e4lgkjhtwxzzgcpqgar5mw7ysn2furiwxf6encv55ia55.py":33:51)
#loc14 = loc("inductor_cache/vy/cvyfli6e4lgkjhtwxzzgcpqgar5mw7ysn2furiwxf6encv55ia55.py":33:45)
#loc15 = loc("inductor_cache/vy/cvyfli6e4lgkjhtwxzzgcpqgar5mw7ysn2furiwxf6encv55ia55.py":33:30)
#loc16 = loc("inductor_cache/vy/cvyfli6e4lgkjhtwxzzgcpqgar5mw7ysn2furiwxf6encv55ia55.py":33:56)
#loc17 = loc("inductor_cache/vy/cvyfli6e4lgkjhtwxzzgcpqgar5mw7ysn2furiwxf6encv55ia55.py":34:38)
#loc18 = loc("inductor_cache/vy/cvyfli6e4lgkjhtwxzzgcpqgar5mw7ysn2furiwxf6encv55ia55.py":34:43)
#loc19 = loc("inductor_cache/vy/cvyfli6e4lgkjhtwxzzgcpqgar5mw7ysn2furiwxf6encv55ia55.py":34:53)
#loc20 = loc("inductor_cache/vy/cvyfli6e4lgkjhtwxzzgcpqgar5mw7ysn2furiwxf6encv55ia55.py":34:30)
#loc21 = loc("inductor_cache/vy/cvyfli6e4lgkjhtwxzzgcpqgar5mw7ysn2furiwxf6encv55ia55.py":34:64)
#loc22 = loc("inductor_cache/vy/cvyfli6e4lgkjhtwxzzgcpqgar5mw7ysn2furiwxf6encv55ia55.py":35:18)
#loc23 = loc("/home/sahanp/.conda/envs/parity-bench/lib/python3.12/site-packages/triton/language/standard.py":267:36)
#loc25 = loc("/home/sahanp/.conda/envs/parity-bench/lib/python3.12/site-packages/triton/language/standard.py":256:15)
#loc26 = loc("inductor_cache/vy/cvyfli6e4lgkjhtwxzzgcpqgar5mw7ysn2furiwxf6encv55ia55.py":37:27)
#loc27 = loc("inductor_cache/vy/cvyfli6e4lgkjhtwxzzgcpqgar5mw7ysn2furiwxf6encv55ia55.py":39:18)
#loc28 = loc("inductor_cache/vy/cvyfli6e4lgkjhtwxzzgcpqgar5mw7ysn2furiwxf6encv55ia55.py":40:4)
#loc29 = loc("inductor_cache/vy/cvyfli6e4lgkjhtwxzzgcpqgar5mw7ysn2furiwxf6encv55ia55.py":41:28)
#loc30 = loc("inductor_cache/vy/cvyfli6e4lgkjhtwxzzgcpqgar5mw7ysn2furiwxf6encv55ia55.py":41:39)
#loc31 = loc("inductor_cache/vy/cvyfli6e4lgkjhtwxzzgcpqgar5mw7ysn2furiwxf6encv55ia55.py":41:4)
#loc32 = loc(callsite(#loc23 at #loc24))
#loc34 = loc(callsite(#loc25 at #loc23))
#loc35 = loc(callsite(#loc34 at #loc24))
