#loc = loc("inductor_cache/ag/cag4trztjmtbm4blicezxszon3evoustndoqeqa35rsx3pnk7b4s.py":19:0)
module {
  tt.func public @triton_poi_fused_max_pool2d_with_indices_18(%arg0: !tt.ptr<f32> {tt.divisibility = 16 : i32} loc("inductor_cache/ag/cag4trztjmtbm4blicezxszon3evoustndoqeqa35rsx3pnk7b4s.py":19:0), %arg1: !tt.ptr<f32> {tt.divisibility = 16 : i32} loc("inductor_cache/ag/cag4trztjmtbm4blicezxszon3evoustndoqeqa35rsx3pnk7b4s.py":19:0), %arg2: !tt.ptr<i8> {tt.divisibility = 16 : i32} loc("inductor_cache/ag/cag4trztjmtbm4blicezxszon3evoustndoqeqa35rsx3pnk7b4s.py":19:0), %arg3: i32 {tt.divisibility = 16 : i32} loc("inductor_cache/ag/cag4trztjmtbm4blicezxszon3evoustndoqeqa35rsx3pnk7b4s.py":19:0), %arg4: i32 {tt.divisibility = 16 : i32} loc("inductor_cache/ag/cag4trztjmtbm4blicezxszon3evoustndoqeqa35rsx3pnk7b4s.py":19:0)) attributes {noinline = false} {
    %c512_i32 = arith.constant 512 : i32 loc(#loc1)
    %c8192_i32 = arith.constant 8192 : i32 loc(#loc1)
    %c1024_i32 = arith.constant 1024 : i32 loc(#loc1)
    %c16_i32 = arith.constant 16 : i32 loc(#loc1)
    %c4_i32 = arith.constant 4 : i32 loc(#loc1)
    %c64_i32 = arith.constant 64 : i32 loc(#loc1)
    %cst = arith.constant dense<16> : tensor<256x1xi32> loc(#loc1)
    %cst_0 = arith.constant dense<3> : tensor<256x1xi8> loc(#loc1)
    %cst_1 = arith.constant dense<2> : tensor<256x1xi8> loc(#loc1)
    %cst_2 = arith.constant dense<0> : tensor<256x1xi8> loc(#loc1)
    %cst_3 = arith.constant dense<1> : tensor<256x1xi8> loc(#loc1)
    %cst_4 = arith.constant dense<4608> : tensor<256x1xi32> loc(#loc1)
    %cst_5 = arith.constant dense<4096> : tensor<256x1xi32> loc(#loc1)
    %cst_6 = arith.constant dense<512> : tensor<256x1xi32> loc(#loc1)
    %c256_i32 = arith.constant 256 : i32 loc(#loc1)
    %0 = tt.get_program_id y : i32 loc(#loc2)
    %1 = arith.cmpi slt, %0, %c64_i32 : i32 loc(#loc3)
    %2 = tt.get_program_id x : i32 loc(#loc4)
    %3 = arith.muli %2, %c256_i32 : i32 loc(#loc5)
    %4 = tt.make_range {end = 256 : i32, start = 0 : i32} : tensor<256xi32> loc(#loc6)
    %5 = tt.expand_dims %4 {axis = 1 : i32} : tensor<256xi32> -> tensor<256x1xi32> loc(#loc7)
    %6 = tt.splat %3 : i32 -> tensor<256x1xi32> loc(#loc8)
    %7 = arith.addi %6, %5 : tensor<256x1xi32> loc(#loc8)
    %8 = arith.cmpi slt, %7, %cst_6 : tensor<256x1xi32> loc(#loc9)
    %9 = arith.remsi %0, %c4_i32 : i32 loc(#loc10)
    %10 = arith.divsi %0, %c4_i32 : i32 loc(#loc11)
    %11 = arith.divsi %0, %c16_i32 : i32 loc(#loc12)
    %12 = arith.remsi %0, %c16_i32 : i32 loc(#loc13)
    %13 = arith.muli %9, %c1024_i32 : i32 loc(#loc14)
    %14 = tt.splat %13 : i32 -> tensor<256x1xi32> loc(#loc15)
    %15 = arith.addi %7, %14 : tensor<256x1xi32> loc(#loc15)
    %16 = arith.muli %10, %c8192_i32 : i32 loc(#loc16)
    %17 = tt.splat %16 : i32 -> tensor<256x1xi32> loc(#loc17)
    %18 = arith.addi %15, %17 : tensor<256x1xi32> loc(#loc17)
    %19 = tt.splat %arg0 : !tt.ptr<f32> -> tensor<256x1x!tt.ptr<f32>> loc(#loc18)
    %20 = tt.addptr %19, %18 : tensor<256x1x!tt.ptr<f32>>, tensor<256x1xi32> loc(#loc18)
    %21 = tt.splat %1 : i1 -> tensor<256x1xi1> loc(#loc19)
    %22 = arith.andi %8, %21 : tensor<256x1xi1> loc(#loc19)
    %23 = tt.load %20, %22 evictionPolicy = evict_last : tensor<256x1x!tt.ptr<f32>> loc(#loc20)
    %24 = arith.addi %7, %cst_6 : tensor<256x1xi32> loc(#loc21)
    %25 = arith.addi %24, %14 : tensor<256x1xi32> loc(#loc22)
    %26 = arith.addi %25, %17 : tensor<256x1xi32> loc(#loc23)
    %27 = tt.addptr %19, %26 : tensor<256x1x!tt.ptr<f32>>, tensor<256x1xi32> loc(#loc24)
    %28 = tt.load %27, %22 evictionPolicy = evict_last : tensor<256x1x!tt.ptr<f32>> loc(#loc25)
    %29 = arith.addi %7, %cst_5 : tensor<256x1xi32> loc(#loc26)
    %30 = arith.addi %29, %14 : tensor<256x1xi32> loc(#loc27)
    %31 = arith.addi %30, %17 : tensor<256x1xi32> loc(#loc28)
    %32 = tt.addptr %19, %31 : tensor<256x1x!tt.ptr<f32>>, tensor<256x1xi32> loc(#loc29)
    %33 = tt.load %32, %22 evictionPolicy = evict_last : tensor<256x1x!tt.ptr<f32>> loc(#loc30)
    %34 = arith.addi %7, %cst_4 : tensor<256x1xi32> loc(#loc31)
    %35 = arith.addi %34, %14 : tensor<256x1xi32> loc(#loc32)
    %36 = arith.addi %35, %17 : tensor<256x1xi32> loc(#loc33)
    %37 = tt.addptr %19, %36 : tensor<256x1x!tt.ptr<f32>>, tensor<256x1xi32> loc(#loc34)
    %38 = tt.load %37, %22 evictionPolicy = evict_last : tensor<256x1x!tt.ptr<f32>> loc(#loc35)
    %39 = arith.cmpf ogt, %28, %23 : tensor<256x1xf32> loc(#loc57)
    %40 = arith.cmpf une, %28, %28 : tensor<256x1xf32> loc(#loc58)
    %41 = arith.ori %39, %40 : tensor<256x1xi1> loc(#loc59)
    %42 = arith.select %41, %28, %23 : tensor<256x1xi1>, tensor<256x1xf32> loc(#loc60)
    %43 = arith.cmpf ogt, %33, %42 : tensor<256x1xf32> loc(#loc61)
    %44 = arith.cmpf une, %33, %33 : tensor<256x1xf32> loc(#loc62)
    %45 = arith.ori %43, %44 : tensor<256x1xi1> loc(#loc63)
    %46 = arith.select %45, %33, %42 : tensor<256x1xi1>, tensor<256x1xf32> loc(#loc64)
    %47 = arith.cmpf ogt, %38, %46 : tensor<256x1xf32> loc(#loc65)
    %48 = arith.cmpf une, %38, %38 : tensor<256x1xf32> loc(#loc66)
    %49 = arith.ori %47, %48 : tensor<256x1xi1> loc(#loc67)
    %50 = arith.select %49, %38, %46 : tensor<256x1xi1>, tensor<256x1xf32> loc(#loc68)
    %51 = arith.select %39, %cst_3, %cst_2 : tensor<256x1xi1>, tensor<256x1xi8> loc(#loc43)
    %52 = arith.select %43, %cst_1, %51 : tensor<256x1xi1>, tensor<256x1xi8> loc(#loc44)
    %53 = arith.select %47, %cst_0, %52 : tensor<256x1xi1>, tensor<256x1xi8> loc(#loc45)
    %54 = arith.muli %7, %cst : tensor<256x1xi32> loc(#loc46)
    %55 = tt.splat %12 : i32 -> tensor<256x1xi32> loc(#loc47)
    %56 = arith.addi %55, %54 : tensor<256x1xi32> loc(#loc47)
    %57 = arith.muli %11, %c8192_i32 : i32 loc(#loc48)
    %58 = tt.splat %57 : i32 -> tensor<256x1xi32> loc(#loc49)
    %59 = arith.addi %56, %58 : tensor<256x1xi32> loc(#loc49)
    %60 = tt.splat %arg1 : !tt.ptr<f32> -> tensor<256x1x!tt.ptr<f32>> loc(#loc50)
    %61 = tt.addptr %60, %59 : tensor<256x1x!tt.ptr<f32>>, tensor<256x1xi32> loc(#loc50)
    tt.store %61, %50, %22 : tensor<256x1x!tt.ptr<f32>> loc(#loc51)
    %62 = arith.muli %0, %c512_i32 : i32 loc(#loc52)
    %63 = tt.splat %62 : i32 -> tensor<256x1xi32> loc(#loc53)
    %64 = arith.addi %7, %63 : tensor<256x1xi32> loc(#loc53)
    %65 = tt.splat %arg2 : !tt.ptr<i8> -> tensor<256x1x!tt.ptr<i8>> loc(#loc54)
    %66 = tt.addptr %65, %64 : tensor<256x1x!tt.ptr<i8>>, tensor<256x1xi32> loc(#loc54)
    tt.store %66, %53, %22 : tensor<256x1x!tt.ptr<i8>> loc(#loc55)
    tt.return loc(#loc56)
  } loc(#loc)
} loc(#loc)
#loc1 = loc(unknown)
#loc2 = loc("inductor_cache/ag/cag4trztjmtbm4blicezxszon3evoustndoqeqa35rsx3pnk7b4s.py":22:28)
#loc3 = loc("inductor_cache/ag/cag4trztjmtbm4blicezxszon3evoustndoqeqa35rsx3pnk7b4s.py":24:21)
#loc4 = loc("inductor_cache/ag/cag4trztjmtbm4blicezxszon3evoustndoqeqa35rsx3pnk7b4s.py":25:28)
#loc5 = loc("inductor_cache/ag/cag4trztjmtbm4blicezxszon3evoustndoqeqa35rsx3pnk7b4s.py":25:33)
#loc6 = loc("inductor_cache/ag/cag4trztjmtbm4blicezxszon3evoustndoqeqa35rsx3pnk7b4s.py":26:36)
#loc7 = loc("inductor_cache/ag/cag4trztjmtbm4blicezxszon3evoustndoqeqa35rsx3pnk7b4s.py":26:44)
#loc8 = loc("inductor_cache/ag/cag4trztjmtbm4blicezxszon3evoustndoqeqa35rsx3pnk7b4s.py":26:23)
#loc9 = loc("inductor_cache/ag/cag4trztjmtbm4blicezxszon3evoustndoqeqa35rsx3pnk7b4s.py":27:21)
#loc10 = loc("inductor_cache/ag/cag4trztjmtbm4blicezxszon3evoustndoqeqa35rsx3pnk7b4s.py":29:19)
#loc11 = loc("inductor_cache/ag/cag4trztjmtbm4blicezxszon3evoustndoqeqa35rsx3pnk7b4s.py":30:19)
#loc12 = loc("inductor_cache/ag/cag4trztjmtbm4blicezxszon3evoustndoqeqa35rsx3pnk7b4s.py":31:19)
#loc13 = loc("inductor_cache/ag/cag4trztjmtbm4blicezxszon3evoustndoqeqa35rsx3pnk7b4s.py":32:19)
#loc14 = loc("inductor_cache/ag/cag4trztjmtbm4blicezxszon3evoustndoqeqa35rsx3pnk7b4s.py":34:40)
#loc15 = loc("inductor_cache/ag/cag4trztjmtbm4blicezxszon3evoustndoqeqa35rsx3pnk7b4s.py":34:35)
#loc16 = loc("inductor_cache/ag/cag4trztjmtbm4blicezxszon3evoustndoqeqa35rsx3pnk7b4s.py":34:50)
#loc17 = loc("inductor_cache/ag/cag4trztjmtbm4blicezxszon3evoustndoqeqa35rsx3pnk7b4s.py":34:45)
#loc18 = loc("inductor_cache/ag/cag4trztjmtbm4blicezxszon3evoustndoqeqa35rsx3pnk7b4s.py":34:30)
#loc19 = loc("inductor_cache/ag/cag4trztjmtbm4blicezxszon3evoustndoqeqa35rsx3pnk7b4s.py":34:63)
#loc20 = loc("inductor_cache/ag/cag4trztjmtbm4blicezxszon3evoustndoqeqa35rsx3pnk7b4s.py":34:55)
#loc21 = loc("inductor_cache/ag/cag4trztjmtbm4blicezxszon3evoustndoqeqa35rsx3pnk7b4s.py":35:36)
#loc22 = loc("inductor_cache/ag/cag4trztjmtbm4blicezxszon3evoustndoqeqa35rsx3pnk7b4s.py":35:41)
#loc23 = loc("inductor_cache/ag/cag4trztjmtbm4blicezxszon3evoustndoqeqa35rsx3pnk7b4s.py":35:51)
#loc24 = loc("inductor_cache/ag/cag4trztjmtbm4blicezxszon3evoustndoqeqa35rsx3pnk7b4s.py":35:30)
#loc25 = loc("inductor_cache/ag/cag4trztjmtbm4blicezxszon3evoustndoqeqa35rsx3pnk7b4s.py":35:61)
#loc26 = loc("inductor_cache/ag/cag4trztjmtbm4blicezxszon3evoustndoqeqa35rsx3pnk7b4s.py":36:37)
#loc27 = loc("inductor_cache/ag/cag4trztjmtbm4blicezxszon3evoustndoqeqa35rsx3pnk7b4s.py":36:42)
#loc28 = loc("inductor_cache/ag/cag4trztjmtbm4blicezxszon3evoustndoqeqa35rsx3pnk7b4s.py":36:52)
#loc29 = loc("inductor_cache/ag/cag4trztjmtbm4blicezxszon3evoustndoqeqa35rsx3pnk7b4s.py":36:30)
#loc30 = loc("inductor_cache/ag/cag4trztjmtbm4blicezxszon3evoustndoqeqa35rsx3pnk7b4s.py":36:62)
#loc31 = loc("inductor_cache/ag/cag4trztjmtbm4blicezxszon3evoustndoqeqa35rsx3pnk7b4s.py":37:37)
#loc32 = loc("inductor_cache/ag/cag4trztjmtbm4blicezxszon3evoustndoqeqa35rsx3pnk7b4s.py":37:42)
#loc33 = loc("inductor_cache/ag/cag4trztjmtbm4blicezxszon3evoustndoqeqa35rsx3pnk7b4s.py":37:52)
#loc34 = loc("inductor_cache/ag/cag4trztjmtbm4blicezxszon3evoustndoqeqa35rsx3pnk7b4s.py":37:30)
#loc35 = loc("inductor_cache/ag/cag4trztjmtbm4blicezxszon3evoustndoqeqa35rsx3pnk7b4s.py":37:62)
#loc36 = loc("/home/sahanp/.conda/envs/parity-bench/lib/python3.12/site-packages/torch/_inductor/runtime/triton_helpers.py":118:15)
#loc37 = loc("inductor_cache/ag/cag4trztjmtbm4blicezxszon3evoustndoqeqa35rsx3pnk7b4s.py":38:40)
#loc38 = loc("/home/sahanp/.conda/envs/parity-bench/lib/python3.12/site-packages/torch/_inductor/runtime/triton_helpers.py":120:21)
#loc39 = loc("/home/sahanp/.conda/envs/parity-bench/lib/python3.12/site-packages/torch/_inductor/runtime/triton_helpers.py":120:16)
#loc40 = loc("/home/sahanp/.conda/envs/parity-bench/lib/python3.12/site-packages/torch/_inductor/runtime/triton_helpers.py":121:29)
#loc41 = loc("inductor_cache/ag/cag4trztjmtbm4blicezxszon3evoustndoqeqa35rsx3pnk7b4s.py":39:40)
#loc42 = loc("inductor_cache/ag/cag4trztjmtbm4blicezxszon3evoustndoqeqa35rsx3pnk7b4s.py":40:40)
#loc43 = loc("inductor_cache/ag/cag4trztjmtbm4blicezxszon3evoustndoqeqa35rsx3pnk7b4s.py":44:33)
#loc44 = loc("inductor_cache/ag/cag4trztjmtbm4blicezxszon3evoustndoqeqa35rsx3pnk7b4s.py":47:35)
#loc45 = loc("inductor_cache/ag/cag4trztjmtbm4blicezxszon3evoustndoqeqa35rsx3pnk7b4s.py":50:35)
#loc46 = loc("inductor_cache/ag/cag4trztjmtbm4blicezxszon3evoustndoqeqa35rsx3pnk7b4s.py":51:33)
#loc47 = loc("inductor_cache/ag/cag4trztjmtbm4blicezxszon3evoustndoqeqa35rsx3pnk7b4s.py":51:30)
#loc48 = loc("inductor_cache/ag/cag4trztjmtbm4blicezxszon3evoustndoqeqa35rsx3pnk7b4s.py":51:43)
#loc49 = loc("inductor_cache/ag/cag4trztjmtbm4blicezxszon3evoustndoqeqa35rsx3pnk7b4s.py":51:38)
#loc50 = loc("inductor_cache/ag/cag4trztjmtbm4blicezxszon3evoustndoqeqa35rsx3pnk7b4s.py":51:25)
#loc51 = loc("inductor_cache/ag/cag4trztjmtbm4blicezxszon3evoustndoqeqa35rsx3pnk7b4s.py":51:54)
#loc52 = loc("inductor_cache/ag/cag4trztjmtbm4blicezxszon3evoustndoqeqa35rsx3pnk7b4s.py":52:34)
#loc53 = loc("inductor_cache/ag/cag4trztjmtbm4blicezxszon3evoustndoqeqa35rsx3pnk7b4s.py":52:30)
#loc54 = loc("inductor_cache/ag/cag4trztjmtbm4blicezxszon3evoustndoqeqa35rsx3pnk7b4s.py":52:25)
#loc55 = loc("inductor_cache/ag/cag4trztjmtbm4blicezxszon3evoustndoqeqa35rsx3pnk7b4s.py":52:46)
#loc56 = loc("inductor_cache/ag/cag4trztjmtbm4blicezxszon3evoustndoqeqa35rsx3pnk7b4s.py":52:4)
#loc57 = loc(callsite(#loc36 at #loc37))
#loc58 = loc(callsite(#loc38 at #loc37))
#loc59 = loc(callsite(#loc39 at #loc37))
#loc60 = loc(callsite(#loc40 at #loc37))
#loc61 = loc(callsite(#loc36 at #loc41))
#loc62 = loc(callsite(#loc38 at #loc41))
#loc63 = loc(callsite(#loc39 at #loc41))
#loc64 = loc(callsite(#loc40 at #loc41))
#loc65 = loc(callsite(#loc36 at #loc42))
#loc66 = loc(callsite(#loc38 at #loc42))
#loc67 = loc(callsite(#loc39 at #loc42))
#loc68 = loc(callsite(#loc40 at #loc42))
