#loc = loc("inductor_cache/c7/cc7iiofio6bfybsgodfwefo57xavai2aciredorkitspcta6yogw.py":19:0)
#loc1 = loc(unknown)
#loc36 = loc("inductor_cache/c7/cc7iiofio6bfybsgodfwefo57xavai2aciredorkitspcta6yogw.py":53:26)
#loc50 = loc(callsite(#loc1 at #loc36))
module {
  tt.func public @triton_per_fused__native_batch_norm_legit_no_training_add_cat_mean_5(%arg0: !tt.ptr<f32> {tt.divisibility = 16 : i32} loc("inductor_cache/c7/cc7iiofio6bfybsgodfwefo57xavai2aciredorkitspcta6yogw.py":19:0), %arg1: !tt.ptr<f32> {tt.divisibility = 16 : i32} loc("inductor_cache/c7/cc7iiofio6bfybsgodfwefo57xavai2aciredorkitspcta6yogw.py":19:0), %arg2: !tt.ptr<f32> {tt.divisibility = 16 : i32} loc("inductor_cache/c7/cc7iiofio6bfybsgodfwefo57xavai2aciredorkitspcta6yogw.py":19:0), %arg3: !tt.ptr<f32> {tt.divisibility = 16 : i32} loc("inductor_cache/c7/cc7iiofio6bfybsgodfwefo57xavai2aciredorkitspcta6yogw.py":19:0), %arg4: !tt.ptr<f32> {tt.divisibility = 16 : i32} loc("inductor_cache/c7/cc7iiofio6bfybsgodfwefo57xavai2aciredorkitspcta6yogw.py":19:0), %arg5: !tt.ptr<f32> {tt.divisibility = 16 : i32} loc("inductor_cache/c7/cc7iiofio6bfybsgodfwefo57xavai2aciredorkitspcta6yogw.py":19:0), %arg6: !tt.ptr<f32> {tt.divisibility = 16 : i32} loc("inductor_cache/c7/cc7iiofio6bfybsgodfwefo57xavai2aciredorkitspcta6yogw.py":19:0), %arg7: !tt.ptr<f32> {tt.divisibility = 16 : i32} loc("inductor_cache/c7/cc7iiofio6bfybsgodfwefo57xavai2aciredorkitspcta6yogw.py":19:0), %arg8: i32 {tt.divisibility = 16 : i32} loc("inductor_cache/c7/cc7iiofio6bfybsgodfwefo57xavai2aciredorkitspcta6yogw.py":19:0), %arg9: i32 {tt.divisibility = 16 : i32} loc("inductor_cache/c7/cc7iiofio6bfybsgodfwefo57xavai2aciredorkitspcta6yogw.py":19:0)) attributes {noinline = false} {
    %cst = arith.constant dense<1.000000e+00> : tensor<128x1xf32> loc(#loc1)
    %cst_0 = arith.constant dense<1024> : tensor<128x1xi32> loc(#loc1)
    %cst_1 = arith.constant dense<1.600000e+01> : tensor<128x1xf32> loc(#loc1)
    %cst_2 = arith.constant dense<9.99999974E-6> : tensor<128x1xf32> loc(#loc1)
    %cst_3 = arith.constant dense<0.000000e+00> : tensor<128x16xf32> loc(#loc1)
    %cst_4 = arith.constant dense<16> : tensor<128x1xi32> loc(#loc1)
    %cst_5 = arith.constant dense<32> : tensor<128x1xi32> loc(#loc1)
    %cst_6 = arith.constant dense<128> : tensor<128x1xi32> loc(#loc1)
    %c128_i32 = arith.constant 128 : i32 loc(#loc1)
    %0 = tt.get_program_id x : i32 loc(#loc2)
    %1 = arith.muli %0, %c128_i32 : i32 loc(#loc3)
    %2 = tt.make_range {end = 128 : i32, start = 0 : i32} : tensor<128xi32> loc(#loc4)
    %3 = tt.expand_dims %2 {axis = 1 : i32} : tensor<128xi32> -> tensor<128x1xi32> loc(#loc5)
    %4 = tt.splat %1 : i32 -> tensor<128x1xi32> loc(#loc6)
    %5 = arith.addi %4, %3 : tensor<128x1xi32> loc(#loc6)
    %6 = arith.cmpi slt, %5, %cst_6 : tensor<128x1xi32> loc(#loc7)
    %7 = tt.make_range {end = 16 : i32, start = 0 : i32} : tensor<16xi32> loc(#loc8)
    %8 = tt.expand_dims %7 {axis = 0 : i32} : tensor<16xi32> -> tensor<1x16xi32> loc(#loc9)
    %9 = arith.remsi %5, %cst_5 : tensor<128x1xi32> loc(#loc10)
    %10 = arith.divsi %5, %cst_5 : tensor<128x1xi32> loc(#loc11)
    %11 = arith.muli %5, %cst_4 : tensor<128x1xi32> loc(#loc12)
    %12 = tt.broadcast %8 : tensor<1x16xi32> -> tensor<128x16xi32> loc(#loc13)
    %13 = tt.broadcast %11 : tensor<128x1xi32> -> tensor<128x16xi32> loc(#loc13)
    %14 = arith.addi %12, %13 : tensor<128x16xi32> loc(#loc13)
    %15 = tt.splat %arg0 : !tt.ptr<f32> -> tensor<128x16x!tt.ptr<f32>> loc(#loc14)
    %16 = tt.addptr %15, %14 : tensor<128x16x!tt.ptr<f32>>, tensor<128x16xi32> loc(#loc14)
    %17 = tt.broadcast %6 : tensor<128x1xi1> -> tensor<128x16xi1> loc(#loc15)
    %18 = tt.load %16, %17, %cst_3 : tensor<128x16x!tt.ptr<f32>> loc(#loc15)
    %19 = tt.splat %arg1 : !tt.ptr<f32> -> tensor<128x16x!tt.ptr<f32>> loc(#loc16)
    %20 = tt.addptr %19, %14 : tensor<128x16x!tt.ptr<f32>>, tensor<128x16xi32> loc(#loc16)
    %21 = tt.load %20, %17, %cst_3 : tensor<128x16x!tt.ptr<f32>> loc(#loc17)
    %22 = tt.splat %arg2 : !tt.ptr<f32> -> tensor<128x1x!tt.ptr<f32>> loc(#loc18)
    %23 = tt.addptr %22, %9 : tensor<128x1x!tt.ptr<f32>>, tensor<128x1xi32> loc(#loc18)
    %24 = tt.load %23, %6 evictionPolicy = evict_last : tensor<128x1x!tt.ptr<f32>> loc(#loc19)
    %25 = tt.splat %arg3 : !tt.ptr<f32> -> tensor<128x1x!tt.ptr<f32>> loc(#loc20)
    %26 = tt.addptr %25, %9 : tensor<128x1x!tt.ptr<f32>>, tensor<128x1xi32> loc(#loc20)
    %27 = tt.load %26, %6 evictionPolicy = evict_last : tensor<128x1x!tt.ptr<f32>> loc(#loc21)
    %28 = tt.splat %arg4 : !tt.ptr<f32> -> tensor<128x1x!tt.ptr<f32>> loc(#loc22)
    %29 = tt.addptr %28, %9 : tensor<128x1x!tt.ptr<f32>>, tensor<128x1xi32> loc(#loc22)
    %30 = tt.load %29, %6 evictionPolicy = evict_last : tensor<128x1x!tt.ptr<f32>> loc(#loc23)
    %31 = tt.splat %arg5 : !tt.ptr<f32> -> tensor<128x1x!tt.ptr<f32>> loc(#loc24)
    %32 = tt.addptr %31, %9 : tensor<128x1x!tt.ptr<f32>>, tensor<128x1xi32> loc(#loc24)
    %33 = tt.load %32, %6 evictionPolicy = evict_last : tensor<128x1x!tt.ptr<f32>> loc(#loc25)
    %34 = tt.broadcast %24 : tensor<128x1xf32> -> tensor<128x16xf32> loc(#loc26)
    %35 = arith.subf %21, %34 : tensor<128x16xf32> loc(#loc26)
    %36 = arith.addf %27, %cst_2 : tensor<128x1xf32> loc(#loc27)
    %37 = tt.extern_elementwise %36 {libname = "", libpath = "", pure = true, symbol = "__nv_sqrtf"} : (tensor<128x1xf32>) -> tensor<128x1xf32> loc(#loc28)
    %38 = arith.divf %cst, %37 : tensor<128x1xf32> loc(#loc29)
    %39 = tt.broadcast %38 : tensor<128x1xf32> -> tensor<128x16xf32> loc(#loc30)
    %40 = arith.mulf %35, %39 : tensor<128x16xf32> loc(#loc30)
    %41 = tt.broadcast %30 : tensor<128x1xf32> -> tensor<128x16xf32> loc(#loc31)
    %42 = arith.mulf %40, %41 : tensor<128x16xf32> loc(#loc31)
    %43 = tt.broadcast %33 : tensor<128x1xf32> -> tensor<128x16xf32> loc(#loc32)
    %44 = arith.addf %42, %43 : tensor<128x16xf32> loc(#loc32)
    %45 = arith.addf %18, %44 : tensor<128x16xf32> loc(#loc33)
    %46 = arith.select %17, %45, %cst_3 : tensor<128x16xi1>, tensor<128x16xf32> loc(#loc34)
    %47 = "tt.reduce"(%46) <{axis = 1 : i32}> ({
    ^bb0(%arg10: f32 loc(callsite(#loc1 at #loc36)), %arg11: f32 loc(callsite(#loc1 at #loc36))):
      %61 = arith.addf %arg10, %arg11 : f32 loc(#loc52)
      tt.reduce.return %61 : f32 loc(#loc49)
    }) : (tensor<128x16xf32>) -> tensor<128xf32> loc(#loc49)
    %48 = tt.expand_dims %47 {axis = 1 : i32} : tensor<128xf32> -> tensor<128x1xf32> loc(#loc38)
    %49 = arith.divf %48, %cst_1 : tensor<128x1xf32> loc(#loc39)
    %50 = arith.muli %9, %cst_4 : tensor<128x1xi32> loc(#loc40)
    %51 = tt.broadcast %50 : tensor<128x1xi32> -> tensor<128x16xi32> loc(#loc41)
    %52 = arith.addi %12, %51 : tensor<128x16xi32> loc(#loc41)
    %53 = arith.muli %10, %cst_0 : tensor<128x1xi32> loc(#loc42)
    %54 = tt.broadcast %53 : tensor<128x1xi32> -> tensor<128x16xi32> loc(#loc43)
    %55 = arith.addi %52, %54 : tensor<128x16xi32> loc(#loc43)
    %56 = tt.splat %arg6 : !tt.ptr<f32> -> tensor<128x16x!tt.ptr<f32>> loc(#loc44)
    %57 = tt.addptr %56, %55 : tensor<128x16x!tt.ptr<f32>>, tensor<128x16xi32> loc(#loc44)
    tt.store %57, %45, %17 : tensor<128x16x!tt.ptr<f32>> loc(#loc45)
    %58 = tt.splat %arg7 : !tt.ptr<f32> -> tensor<128x16x!tt.ptr<f32>> loc(#loc46)
    %59 = tt.addptr %58, %55 : tensor<128x16x!tt.ptr<f32>>, tensor<128x16xi32> loc(#loc46)
    %60 = tt.broadcast %49 : tensor<128x1xf32> -> tensor<128x16xf32> loc(#loc47)
    tt.store %59, %60, %17 : tensor<128x16x!tt.ptr<f32>> loc(#loc47)
    tt.return loc(#loc48)
  } loc(#loc)
} loc(#loc)
#loc2 = loc("inductor_cache/c7/cc7iiofio6bfybsgodfwefo57xavai2aciredorkitspcta6yogw.py":23:28)
#loc3 = loc("inductor_cache/c7/cc7iiofio6bfybsgodfwefo57xavai2aciredorkitspcta6yogw.py":23:33)
#loc4 = loc("inductor_cache/c7/cc7iiofio6bfybsgodfwefo57xavai2aciredorkitspcta6yogw.py":24:36)
#loc5 = loc("inductor_cache/c7/cc7iiofio6bfybsgodfwefo57xavai2aciredorkitspcta6yogw.py":24:44)
#loc6 = loc("inductor_cache/c7/cc7iiofio6bfybsgodfwefo57xavai2aciredorkitspcta6yogw.py":24:23)
#loc7 = loc("inductor_cache/c7/cc7iiofio6bfybsgodfwefo57xavai2aciredorkitspcta6yogw.py":25:21)
#loc8 = loc("inductor_cache/c7/cc7iiofio6bfybsgodfwefo57xavai2aciredorkitspcta6yogw.py":26:26)
#loc9 = loc("inductor_cache/c7/cc7iiofio6bfybsgodfwefo57xavai2aciredorkitspcta6yogw.py":26:34)
#loc10 = loc("inductor_cache/c7/cc7iiofio6bfybsgodfwefo57xavai2aciredorkitspcta6yogw.py":31:19)
#loc11 = loc("inductor_cache/c7/cc7iiofio6bfybsgodfwefo57xavai2aciredorkitspcta6yogw.py":32:19)
#loc12 = loc("inductor_cache/c7/cc7iiofio6bfybsgodfwefo57xavai2aciredorkitspcta6yogw.py":33:38)
#loc13 = loc("inductor_cache/c7/cc7iiofio6bfybsgodfwefo57xavai2aciredorkitspcta6yogw.py":33:35)
#loc14 = loc("inductor_cache/c7/cc7iiofio6bfybsgodfwefo57xavai2aciredorkitspcta6yogw.py":33:30)
#loc15 = loc("inductor_cache/c7/cc7iiofio6bfybsgodfwefo57xavai2aciredorkitspcta6yogw.py":33:43)
#loc16 = loc("inductor_cache/c7/cc7iiofio6bfybsgodfwefo57xavai2aciredorkitspcta6yogw.py":34:30)
#loc17 = loc("inductor_cache/c7/cc7iiofio6bfybsgodfwefo57xavai2aciredorkitspcta6yogw.py":34:43)
#loc18 = loc("inductor_cache/c7/cc7iiofio6bfybsgodfwefo57xavai2aciredorkitspcta6yogw.py":35:30)
#loc19 = loc("inductor_cache/c7/cc7iiofio6bfybsgodfwefo57xavai2aciredorkitspcta6yogw.py":35:35)
#loc20 = loc("inductor_cache/c7/cc7iiofio6bfybsgodfwefo57xavai2aciredorkitspcta6yogw.py":36:30)
#loc21 = loc("inductor_cache/c7/cc7iiofio6bfybsgodfwefo57xavai2aciredorkitspcta6yogw.py":36:35)
#loc22 = loc("inductor_cache/c7/cc7iiofio6bfybsgodfwefo57xavai2aciredorkitspcta6yogw.py":37:31)
#loc23 = loc("inductor_cache/c7/cc7iiofio6bfybsgodfwefo57xavai2aciredorkitspcta6yogw.py":37:36)
#loc24 = loc("inductor_cache/c7/cc7iiofio6bfybsgodfwefo57xavai2aciredorkitspcta6yogw.py":38:31)
#loc25 = loc("inductor_cache/c7/cc7iiofio6bfybsgodfwefo57xavai2aciredorkitspcta6yogw.py":38:36)
#loc26 = loc("inductor_cache/c7/cc7iiofio6bfybsgodfwefo57xavai2aciredorkitspcta6yogw.py":39:18)
#loc27 = loc("inductor_cache/c7/cc7iiofio6bfybsgodfwefo57xavai2aciredorkitspcta6yogw.py":41:18)
#loc28 = loc("inductor_cache/c7/cc7iiofio6bfybsgodfwefo57xavai2aciredorkitspcta6yogw.py":42:26)
#loc29 = loc("inductor_cache/c7/cc7iiofio6bfybsgodfwefo57xavai2aciredorkitspcta6yogw.py":44:18)
#loc30 = loc("inductor_cache/c7/cc7iiofio6bfybsgodfwefo57xavai2aciredorkitspcta6yogw.py":47:19)
#loc31 = loc("inductor_cache/c7/cc7iiofio6bfybsgodfwefo57xavai2aciredorkitspcta6yogw.py":48:20)
#loc32 = loc("inductor_cache/c7/cc7iiofio6bfybsgodfwefo57xavai2aciredorkitspcta6yogw.py":49:20)
#loc33 = loc("inductor_cache/c7/cc7iiofio6bfybsgodfwefo57xavai2aciredorkitspcta6yogw.py":50:19)
#loc34 = loc("inductor_cache/c7/cc7iiofio6bfybsgodfwefo57xavai2aciredorkitspcta6yogw.py":52:35)
#loc35 = loc("/home/sahanp/.conda/envs/parity-bench/lib/python3.12/site-packages/triton/language/standard.py":267:36)
#loc37 = loc("/home/sahanp/.conda/envs/parity-bench/lib/python3.12/site-packages/triton/language/standard.py":256:15)
#loc38 = loc("inductor_cache/c7/cc7iiofio6bfybsgodfwefo57xavai2aciredorkitspcta6yogw.py":53:29)
#loc39 = loc("inductor_cache/c7/cc7iiofio6bfybsgodfwefo57xavai2aciredorkitspcta6yogw.py":55:20)
#loc40 = loc("inductor_cache/c7/cc7iiofio6bfybsgodfwefo57xavai2aciredorkitspcta6yogw.py":56:33)
#loc41 = loc("inductor_cache/c7/cc7iiofio6bfybsgodfwefo57xavai2aciredorkitspcta6yogw.py":56:30)
#loc42 = loc("inductor_cache/c7/cc7iiofio6bfybsgodfwefo57xavai2aciredorkitspcta6yogw.py":56:43)
#loc43 = loc("inductor_cache/c7/cc7iiofio6bfybsgodfwefo57xavai2aciredorkitspcta6yogw.py":56:38)
#loc44 = loc("inductor_cache/c7/cc7iiofio6bfybsgodfwefo57xavai2aciredorkitspcta6yogw.py":56:25)
#loc45 = loc("inductor_cache/c7/cc7iiofio6bfybsgodfwefo57xavai2aciredorkitspcta6yogw.py":56:55)
#loc46 = loc("inductor_cache/c7/cc7iiofio6bfybsgodfwefo57xavai2aciredorkitspcta6yogw.py":57:25)
#loc47 = loc("inductor_cache/c7/cc7iiofio6bfybsgodfwefo57xavai2aciredorkitspcta6yogw.py":57:55)
#loc48 = loc("inductor_cache/c7/cc7iiofio6bfybsgodfwefo57xavai2aciredorkitspcta6yogw.py":57:4)
#loc49 = loc(callsite(#loc35 at #loc36))
#loc51 = loc(callsite(#loc37 at #loc35))
#loc52 = loc(callsite(#loc51 at #loc36))
