#loc = loc("inductor_cache/6e/c6e2odfuwtqivemudxckmz6v5dvxyq7xgxhsmmt7t2yd6yzkfuv6.py":19:0)
module {
  tt.func public @triton_poi_fused_mul_sign_1(%arg0: !tt.ptr<f32> {tt.divisibility = 16 : i32} loc("inductor_cache/6e/c6e2odfuwtqivemudxckmz6v5dvxyq7xgxhsmmt7t2yd6yzkfuv6.py":19:0), %arg1: !tt.ptr<f32> {tt.divisibility = 16 : i32} loc("inductor_cache/6e/c6e2odfuwtqivemudxckmz6v5dvxyq7xgxhsmmt7t2yd6yzkfuv6.py":19:0), %arg2: !tt.ptr<f32> {tt.divisibility = 16 : i32} loc("inductor_cache/6e/c6e2odfuwtqivemudxckmz6v5dvxyq7xgxhsmmt7t2yd6yzkfuv6.py":19:0), %arg3: i32 {tt.divisibility = 16 : i32} loc("inductor_cache/6e/c6e2odfuwtqivemudxckmz6v5dvxyq7xgxhsmmt7t2yd6yzkfuv6.py":19:0)) attributes {noinline = false} {
    %cst = arith.constant dense<0.000000e+00> : tensor<256xf32> loc(#loc1)
    %cst_0 = arith.constant dense<1.562500e-02> : tensor<256xf32> loc(#loc1)
    %cst_1 = arith.constant dense<64> : tensor<256xi32> loc(#loc1)
    %cst_2 = arith.constant dense<256> : tensor<256xi32> loc(#loc1)
    %c256_i32 = arith.constant 256 : i32 loc(#loc1)
    %0 = tt.get_program_id x : i32 loc(#loc2)
    %1 = arith.muli %0, %c256_i32 : i32 loc(#loc3)
    %2 = tt.make_range {end = 256 : i32, start = 0 : i32} : tensor<256xi32> loc(#loc4)
    %3 = tt.splat %1 : i32 -> tensor<256xi32> loc(#loc5)
    %4 = arith.addi %3, %2 : tensor<256xi32> loc(#loc5)
    %5 = arith.cmpi slt, %4, %cst_2 : tensor<256xi32> loc(#loc6)
    %6 = arith.divsi %4, %cst_1 : tensor<256xi32> loc(#loc7)
    %7 = tt.splat %arg0 : !tt.ptr<f32> -> tensor<256x!tt.ptr<f32>> loc(#loc8)
    %8 = tt.addptr %7, %4 : tensor<256x!tt.ptr<f32>>, tensor<256xi32> loc(#loc8)
    %9 = tt.load %8, %5 : tensor<256x!tt.ptr<f32>> loc(#loc9)
    %10 = tt.splat %arg1 : !tt.ptr<f32> -> tensor<256x!tt.ptr<f32>> loc(#loc10)
    %11 = tt.addptr %10, %6 : tensor<256x!tt.ptr<f32>>, tensor<256xi32> loc(#loc10)
    %12 = tt.load %11, %5 evictionPolicy = evict_last : tensor<256x!tt.ptr<f32>> loc(#loc11)
    %13 = arith.cmpf olt, %cst, %9 : tensor<256xf32> loc(#loc12)
    %14 = arith.extui %13 : tensor<256xi1> to tensor<256xi8> loc(#loc13)
    %15 = arith.cmpf olt, %9, %cst : tensor<256xf32> loc(#loc14)
    %16 = arith.extui %15 : tensor<256xi1> to tensor<256xi8> loc(#loc15)
    %17 = arith.subi %14, %16 : tensor<256xi8> loc(#loc16)
    %18 = arith.sitofp %17 : tensor<256xi8> to tensor<256xf32> loc(#loc17)
    %19 = arith.mulf %12, %cst_0 : tensor<256xf32> loc(#loc18)
    %20 = arith.mulf %18, %19 : tensor<256xf32> loc(#loc19)
    %21 = tt.splat %arg2 : !tt.ptr<f32> -> tensor<256x!tt.ptr<f32>> loc(#loc20)
    %22 = tt.addptr %21, %4 : tensor<256x!tt.ptr<f32>>, tensor<256xi32> loc(#loc20)
    tt.store %22, %20, %5 : tensor<256x!tt.ptr<f32>> loc(#loc21)
    tt.return loc(#loc22)
  } loc(#loc)
} loc(#loc)
#loc1 = loc(unknown)
#loc2 = loc("inductor_cache/6e/c6e2odfuwtqivemudxckmz6v5dvxyq7xgxhsmmt7t2yd6yzkfuv6.py":21:28)
#loc3 = loc("inductor_cache/6e/c6e2odfuwtqivemudxckmz6v5dvxyq7xgxhsmmt7t2yd6yzkfuv6.py":21:33)
#loc4 = loc("inductor_cache/6e/c6e2odfuwtqivemudxckmz6v5dvxyq7xgxhsmmt7t2yd6yzkfuv6.py":22:36)
#loc5 = loc("inductor_cache/6e/c6e2odfuwtqivemudxckmz6v5dvxyq7xgxhsmmt7t2yd6yzkfuv6.py":22:23)
#loc6 = loc("inductor_cache/6e/c6e2odfuwtqivemudxckmz6v5dvxyq7xgxhsmmt7t2yd6yzkfuv6.py":23:21)
#loc7 = loc("inductor_cache/6e/c6e2odfuwtqivemudxckmz6v5dvxyq7xgxhsmmt7t2yd6yzkfuv6.py":25:19)
#loc8 = loc("inductor_cache/6e/c6e2odfuwtqivemudxckmz6v5dvxyq7xgxhsmmt7t2yd6yzkfuv6.py":26:30)
#loc9 = loc("inductor_cache/6e/c6e2odfuwtqivemudxckmz6v5dvxyq7xgxhsmmt7t2yd6yzkfuv6.py":26:35)
#loc10 = loc("inductor_cache/6e/c6e2odfuwtqivemudxckmz6v5dvxyq7xgxhsmmt7t2yd6yzkfuv6.py":27:30)
#loc11 = loc("inductor_cache/6e/c6e2odfuwtqivemudxckmz6v5dvxyq7xgxhsmmt7t2yd6yzkfuv6.py":27:35)
#loc12 = loc("inductor_cache/6e/c6e2odfuwtqivemudxckmz6v5dvxyq7xgxhsmmt7t2yd6yzkfuv6.py":29:18)
#loc13 = loc("inductor_cache/6e/c6e2odfuwtqivemudxckmz6v5dvxyq7xgxhsmmt7t2yd6yzkfuv6.py":30:19)
#loc14 = loc("inductor_cache/6e/c6e2odfuwtqivemudxckmz6v5dvxyq7xgxhsmmt7t2yd6yzkfuv6.py":31:18)
#loc15 = loc("inductor_cache/6e/c6e2odfuwtqivemudxckmz6v5dvxyq7xgxhsmmt7t2yd6yzkfuv6.py":32:19)
#loc16 = loc("inductor_cache/6e/c6e2odfuwtqivemudxckmz6v5dvxyq7xgxhsmmt7t2yd6yzkfuv6.py":33:18)
#loc17 = loc("inductor_cache/6e/c6e2odfuwtqivemudxckmz6v5dvxyq7xgxhsmmt7t2yd6yzkfuv6.py":34:19)
#loc18 = loc("inductor_cache/6e/c6e2odfuwtqivemudxckmz6v5dvxyq7xgxhsmmt7t2yd6yzkfuv6.py":36:19)
#loc19 = loc("inductor_cache/6e/c6e2odfuwtqivemudxckmz6v5dvxyq7xgxhsmmt7t2yd6yzkfuv6.py":37:19)
#loc20 = loc("inductor_cache/6e/c6e2odfuwtqivemudxckmz6v5dvxyq7xgxhsmmt7t2yd6yzkfuv6.py":38:25)
#loc21 = loc("inductor_cache/6e/c6e2odfuwtqivemudxckmz6v5dvxyq7xgxhsmmt7t2yd6yzkfuv6.py":38:37)
#loc22 = loc("inductor_cache/6e/c6e2odfuwtqivemudxckmz6v5dvxyq7xgxhsmmt7t2yd6yzkfuv6.py":38:4)
