#loc = loc("inductor_cache/fs/cfswrjki4gvaogwrpfqbl3mx66ja6zq6m4djr6643hrfrev7zzcy.py":19:0)
module {
  tt.func public @triton_poi_fused_avg_pool2d_14(%arg0: !tt.ptr<f32> {tt.divisibility = 16 : i32} loc("inductor_cache/fs/cfswrjki4gvaogwrpfqbl3mx66ja6zq6m4djr6643hrfrev7zzcy.py":19:0), %arg1: !tt.ptr<f32> {tt.divisibility = 16 : i32} loc("inductor_cache/fs/cfswrjki4gvaogwrpfqbl3mx66ja6zq6m4djr6643hrfrev7zzcy.py":19:0), %arg2: i32 {tt.divisibility = 16 : i32} loc("inductor_cache/fs/cfswrjki4gvaogwrpfqbl3mx66ja6zq6m4djr6643hrfrev7zzcy.py":19:0), %arg3: i32 {tt.divisibility = 16 : i32} loc("inductor_cache/fs/cfswrjki4gvaogwrpfqbl3mx66ja6zq6m4djr6643hrfrev7zzcy.py":19:0)) attributes {noinline = false} {
    %cst = arith.constant dense<16> : tensor<32x1xi32> loc(#loc1)
    %cst_0 = arith.constant dense<6.250000e-02> : tensor<32x32xf32> loc(#loc1)
    %cst_1 = arith.constant dense<771> : tensor<32x1xi32> loc(#loc1)
    %cst_2 = arith.constant dense<770> : tensor<32x1xi32> loc(#loc1)
    %cst_3 = arith.constant dense<769> : tensor<32x1xi32> loc(#loc1)
    %cst_4 = arith.constant dense<768> : tensor<32x1xi32> loc(#loc1)
    %cst_5 = arith.constant dense<515> : tensor<32x1xi32> loc(#loc1)
    %cst_6 = arith.constant dense<514> : tensor<32x1xi32> loc(#loc1)
    %cst_7 = arith.constant dense<513> : tensor<32x1xi32> loc(#loc1)
    %cst_8 = arith.constant dense<512> : tensor<32x1xi32> loc(#loc1)
    %cst_9 = arith.constant dense<259> : tensor<32x1xi32> loc(#loc1)
    %cst_10 = arith.constant dense<258> : tensor<32x1xi32> loc(#loc1)
    %cst_11 = arith.constant dense<257> : tensor<32x1xi32> loc(#loc1)
    %cst_12 = arith.constant dense<256> : tensor<32x1xi32> loc(#loc1)
    %cst_13 = arith.constant dense<3> : tensor<32x1xi32> loc(#loc1)
    %cst_14 = arith.constant dense<2> : tensor<32x1xi32> loc(#loc1)
    %cst_15 = arith.constant dense<1> : tensor<32x1xi32> loc(#loc1)
    %cst_16 = arith.constant dense<65536> : tensor<1x32xi32> loc(#loc1)
    %cst_17 = arith.constant dense<1024> : tensor<32x1xi32> loc(#loc1)
    %cst_18 = arith.constant dense<4> : tensor<32x1xi32> loc(#loc1)
    %cst_19 = arith.constant dense<16> : tensor<1x32xi32> loc(#loc1)
    %cst_20 = arith.constant dense<64> : tensor<32x1xi32> loc(#loc1)
    %cst_21 = arith.constant dense<64> : tensor<1x32xi32> loc(#loc1)
    %c32_i32 = arith.constant 32 : i32 loc(#loc1)
    %0 = tt.get_program_id y : i32 loc(#loc2)
    %1 = arith.muli %0, %c32_i32 : i32 loc(#loc3)
    %2 = tt.make_range {end = 32 : i32, start = 0 : i32} : tensor<32xi32> loc(#loc4)
    %3 = tt.expand_dims %2 {axis = 0 : i32} : tensor<32xi32> -> tensor<1x32xi32> loc(#loc5)
    %4 = tt.splat %1 : i32 -> tensor<1x32xi32> loc(#loc6)
    %5 = arith.addi %4, %3 : tensor<1x32xi32> loc(#loc6)
    %6 = arith.cmpi slt, %5, %cst_21 : tensor<1x32xi32> loc(#loc7)
    %7 = tt.get_program_id x : i32 loc(#loc8)
    %8 = arith.muli %7, %c32_i32 : i32 loc(#loc9)
    %9 = tt.expand_dims %2 {axis = 1 : i32} : tensor<32xi32> -> tensor<32x1xi32> loc(#loc10)
    %10 = tt.splat %8 : i32 -> tensor<32x1xi32> loc(#loc11)
    %11 = arith.addi %10, %9 : tensor<32x1xi32> loc(#loc11)
    %12 = arith.remsi %11, %cst_20 : tensor<32x1xi32> loc(#loc12)
    %13 = arith.divsi %11, %cst_20 : tensor<32x1xi32> loc(#loc13)
    %14 = arith.remsi %5, %cst_19 : tensor<1x32xi32> loc(#loc14)
    %15 = arith.divsi %5, %cst_19 : tensor<1x32xi32> loc(#loc15)
    %16 = arith.muli %12, %cst_18 : tensor<32x1xi32> loc(#loc16)
    %17 = arith.muli %13, %cst_17 : tensor<32x1xi32> loc(#loc17)
    %18 = arith.addi %16, %17 : tensor<32x1xi32> loc(#loc18)
    %19 = arith.muli %5, %cst_16 : tensor<1x32xi32> loc(#loc19)
    %20 = tt.broadcast %18 : tensor<32x1xi32> -> tensor<32x32xi32> loc(#loc20)
    %21 = tt.broadcast %19 : tensor<1x32xi32> -> tensor<32x32xi32> loc(#loc20)
    %22 = arith.addi %20, %21 : tensor<32x32xi32> loc(#loc20)
    %23 = tt.splat %arg0 : !tt.ptr<f32> -> tensor<32x32x!tt.ptr<f32>> loc(#loc21)
    %24 = tt.addptr %23, %22 : tensor<32x32x!tt.ptr<f32>>, tensor<32x32xi32> loc(#loc21)
    %25 = tt.broadcast %6 : tensor<1x32xi1> -> tensor<32x32xi1> loc(#loc22)
    %26 = tt.load %24, %25 evictionPolicy = evict_last : tensor<32x32x!tt.ptr<f32>> loc(#loc22)
    %27 = arith.addi %16, %cst_15 : tensor<32x1xi32> loc(#loc23)
    %28 = arith.addi %27, %17 : tensor<32x1xi32> loc(#loc24)
    %29 = tt.broadcast %28 : tensor<32x1xi32> -> tensor<32x32xi32> loc(#loc25)
    %30 = arith.addi %29, %21 : tensor<32x32xi32> loc(#loc25)
    %31 = tt.addptr %23, %30 : tensor<32x32x!tt.ptr<f32>>, tensor<32x32xi32> loc(#loc26)
    %32 = tt.load %31, %25 evictionPolicy = evict_last : tensor<32x32x!tt.ptr<f32>> loc(#loc27)
    %33 = arith.addi %16, %cst_14 : tensor<32x1xi32> loc(#loc28)
    %34 = arith.addi %33, %17 : tensor<32x1xi32> loc(#loc29)
    %35 = tt.broadcast %34 : tensor<32x1xi32> -> tensor<32x32xi32> loc(#loc30)
    %36 = arith.addi %35, %21 : tensor<32x32xi32> loc(#loc30)
    %37 = tt.addptr %23, %36 : tensor<32x32x!tt.ptr<f32>>, tensor<32x32xi32> loc(#loc31)
    %38 = tt.load %37, %25 evictionPolicy = evict_last : tensor<32x32x!tt.ptr<f32>> loc(#loc32)
    %39 = arith.addi %16, %cst_13 : tensor<32x1xi32> loc(#loc33)
    %40 = arith.addi %39, %17 : tensor<32x1xi32> loc(#loc34)
    %41 = tt.broadcast %40 : tensor<32x1xi32> -> tensor<32x32xi32> loc(#loc35)
    %42 = arith.addi %41, %21 : tensor<32x32xi32> loc(#loc35)
    %43 = tt.addptr %23, %42 : tensor<32x32x!tt.ptr<f32>>, tensor<32x32xi32> loc(#loc36)
    %44 = tt.load %43, %25 evictionPolicy = evict_last : tensor<32x32x!tt.ptr<f32>> loc(#loc37)
    %45 = arith.addi %16, %cst_12 : tensor<32x1xi32> loc(#loc38)
    %46 = arith.addi %45, %17 : tensor<32x1xi32> loc(#loc39)
    %47 = tt.broadcast %46 : tensor<32x1xi32> -> tensor<32x32xi32> loc(#loc40)
    %48 = arith.addi %47, %21 : tensor<32x32xi32> loc(#loc40)
    %49 = tt.addptr %23, %48 : tensor<32x32x!tt.ptr<f32>>, tensor<32x32xi32> loc(#loc41)
    %50 = tt.load %49, %25 evictionPolicy = evict_last : tensor<32x32x!tt.ptr<f32>> loc(#loc42)
    %51 = arith.addi %16, %cst_11 : tensor<32x1xi32> loc(#loc43)
    %52 = arith.addi %51, %17 : tensor<32x1xi32> loc(#loc44)
    %53 = tt.broadcast %52 : tensor<32x1xi32> -> tensor<32x32xi32> loc(#loc45)
    %54 = arith.addi %53, %21 : tensor<32x32xi32> loc(#loc45)
    %55 = tt.addptr %23, %54 : tensor<32x32x!tt.ptr<f32>>, tensor<32x32xi32> loc(#loc46)
    %56 = tt.load %55, %25 evictionPolicy = evict_last : tensor<32x32x!tt.ptr<f32>> loc(#loc47)
    %57 = arith.addi %16, %cst_10 : tensor<32x1xi32> loc(#loc48)
    %58 = arith.addi %57, %17 : tensor<32x1xi32> loc(#loc49)
    %59 = tt.broadcast %58 : tensor<32x1xi32> -> tensor<32x32xi32> loc(#loc50)
    %60 = arith.addi %59, %21 : tensor<32x32xi32> loc(#loc50)
    %61 = tt.addptr %23, %60 : tensor<32x32x!tt.ptr<f32>>, tensor<32x32xi32> loc(#loc51)
    %62 = tt.load %61, %25 evictionPolicy = evict_last : tensor<32x32x!tt.ptr<f32>> loc(#loc52)
    %63 = arith.addi %16, %cst_9 : tensor<32x1xi32> loc(#loc53)
    %64 = arith.addi %63, %17 : tensor<32x1xi32> loc(#loc54)
    %65 = tt.broadcast %64 : tensor<32x1xi32> -> tensor<32x32xi32> loc(#loc55)
    %66 = arith.addi %65, %21 : tensor<32x32xi32> loc(#loc55)
    %67 = tt.addptr %23, %66 : tensor<32x32x!tt.ptr<f32>>, tensor<32x32xi32> loc(#loc56)
    %68 = tt.load %67, %25 evictionPolicy = evict_last : tensor<32x32x!tt.ptr<f32>> loc(#loc57)
    %69 = arith.addi %16, %cst_8 : tensor<32x1xi32> loc(#loc58)
    %70 = arith.addi %69, %17 : tensor<32x1xi32> loc(#loc59)
    %71 = tt.broadcast %70 : tensor<32x1xi32> -> tensor<32x32xi32> loc(#loc60)
    %72 = arith.addi %71, %21 : tensor<32x32xi32> loc(#loc60)
    %73 = tt.addptr %23, %72 : tensor<32x32x!tt.ptr<f32>>, tensor<32x32xi32> loc(#loc61)
    %74 = tt.load %73, %25 evictionPolicy = evict_last : tensor<32x32x!tt.ptr<f32>> loc(#loc62)
    %75 = arith.addi %16, %cst_7 : tensor<32x1xi32> loc(#loc63)
    %76 = arith.addi %75, %17 : tensor<32x1xi32> loc(#loc64)
    %77 = tt.broadcast %76 : tensor<32x1xi32> -> tensor<32x32xi32> loc(#loc65)
    %78 = arith.addi %77, %21 : tensor<32x32xi32> loc(#loc65)
    %79 = tt.addptr %23, %78 : tensor<32x32x!tt.ptr<f32>>, tensor<32x32xi32> loc(#loc66)
    %80 = tt.load %79, %25 evictionPolicy = evict_last : tensor<32x32x!tt.ptr<f32>> loc(#loc67)
    %81 = arith.addi %16, %cst_6 : tensor<32x1xi32> loc(#loc68)
    %82 = arith.addi %81, %17 : tensor<32x1xi32> loc(#loc69)
    %83 = tt.broadcast %82 : tensor<32x1xi32> -> tensor<32x32xi32> loc(#loc70)
    %84 = arith.addi %83, %21 : tensor<32x32xi32> loc(#loc70)
    %85 = tt.addptr %23, %84 : tensor<32x32x!tt.ptr<f32>>, tensor<32x32xi32> loc(#loc71)
    %86 = tt.load %85, %25 evictionPolicy = evict_last : tensor<32x32x!tt.ptr<f32>> loc(#loc72)
    %87 = arith.addi %16, %cst_5 : tensor<32x1xi32> loc(#loc73)
    %88 = arith.addi %87, %17 : tensor<32x1xi32> loc(#loc74)
    %89 = tt.broadcast %88 : tensor<32x1xi32> -> tensor<32x32xi32> loc(#loc75)
    %90 = arith.addi %89, %21 : tensor<32x32xi32> loc(#loc75)
    %91 = tt.addptr %23, %90 : tensor<32x32x!tt.ptr<f32>>, tensor<32x32xi32> loc(#loc76)
    %92 = tt.load %91, %25 evictionPolicy = evict_last : tensor<32x32x!tt.ptr<f32>> loc(#loc77)
    %93 = arith.addi %16, %cst_4 : tensor<32x1xi32> loc(#loc78)
    %94 = arith.addi %93, %17 : tensor<32x1xi32> loc(#loc79)
    %95 = tt.broadcast %94 : tensor<32x1xi32> -> tensor<32x32xi32> loc(#loc80)
    %96 = arith.addi %95, %21 : tensor<32x32xi32> loc(#loc80)
    %97 = tt.addptr %23, %96 : tensor<32x32x!tt.ptr<f32>>, tensor<32x32xi32> loc(#loc81)
    %98 = tt.load %97, %25 evictionPolicy = evict_last : tensor<32x32x!tt.ptr<f32>> loc(#loc82)
    %99 = arith.addi %16, %cst_3 : tensor<32x1xi32> loc(#loc83)
    %100 = arith.addi %99, %17 : tensor<32x1xi32> loc(#loc84)
    %101 = tt.broadcast %100 : tensor<32x1xi32> -> tensor<32x32xi32> loc(#loc85)
    %102 = arith.addi %101, %21 : tensor<32x32xi32> loc(#loc85)
    %103 = tt.addptr %23, %102 : tensor<32x32x!tt.ptr<f32>>, tensor<32x32xi32> loc(#loc86)
    %104 = tt.load %103, %25 evictionPolicy = evict_last : tensor<32x32x!tt.ptr<f32>> loc(#loc87)
    %105 = arith.addi %16, %cst_2 : tensor<32x1xi32> loc(#loc88)
    %106 = arith.addi %105, %17 : tensor<32x1xi32> loc(#loc89)
    %107 = tt.broadcast %106 : tensor<32x1xi32> -> tensor<32x32xi32> loc(#loc90)
    %108 = arith.addi %107, %21 : tensor<32x32xi32> loc(#loc90)
    %109 = tt.addptr %23, %108 : tensor<32x32x!tt.ptr<f32>>, tensor<32x32xi32> loc(#loc91)
    %110 = tt.load %109, %25 evictionPolicy = evict_last : tensor<32x32x!tt.ptr<f32>> loc(#loc92)
    %111 = arith.addi %16, %cst_1 : tensor<32x1xi32> loc(#loc93)
    %112 = arith.addi %111, %17 : tensor<32x1xi32> loc(#loc94)
    %113 = tt.broadcast %112 : tensor<32x1xi32> -> tensor<32x32xi32> loc(#loc95)
    %114 = arith.addi %113, %21 : tensor<32x32xi32> loc(#loc95)
    %115 = tt.addptr %23, %114 : tensor<32x32x!tt.ptr<f32>>, tensor<32x32xi32> loc(#loc96)
    %116 = tt.load %115, %25 evictionPolicy = evict_last : tensor<32x32x!tt.ptr<f32>> loc(#loc97)
    %117 = arith.addf %32, %26 : tensor<32x32xf32> loc(#loc98)
    %118 = arith.addf %38, %117 : tensor<32x32xf32> loc(#loc99)
    %119 = arith.addf %44, %118 : tensor<32x32xf32> loc(#loc100)
    %120 = arith.addf %50, %119 : tensor<32x32xf32> loc(#loc101)
    %121 = arith.addf %56, %120 : tensor<32x32xf32> loc(#loc102)
    %122 = arith.addf %62, %121 : tensor<32x32xf32> loc(#loc103)
    %123 = arith.addf %68, %122 : tensor<32x32xf32> loc(#loc104)
    %124 = arith.addf %74, %123 : tensor<32x32xf32> loc(#loc105)
    %125 = arith.addf %80, %124 : tensor<32x32xf32> loc(#loc106)
    %126 = arith.addf %86, %125 : tensor<32x32xf32> loc(#loc107)
    %127 = arith.addf %92, %126 : tensor<32x32xf32> loc(#loc108)
    %128 = arith.addf %98, %127 : tensor<32x32xf32> loc(#loc109)
    %129 = arith.addf %104, %128 : tensor<32x32xf32> loc(#loc110)
    %130 = arith.addf %110, %129 : tensor<32x32xf32> loc(#loc111)
    %131 = arith.addf %116, %130 : tensor<32x32xf32> loc(#loc112)
    %132 = arith.mulf %131, %cst_0 : tensor<32x32xf32> loc(#loc113)
    %133 = arith.muli %11, %cst : tensor<32x1xi32> loc(#loc114)
    %134 = tt.broadcast %14 : tensor<1x32xi32> -> tensor<32x32xi32> loc(#loc115)
    %135 = tt.broadcast %133 : tensor<32x1xi32> -> tensor<32x32xi32> loc(#loc115)
    %136 = arith.addi %134, %135 : tensor<32x32xi32> loc(#loc115)
    %137 = arith.muli %15, %cst_16 : tensor<1x32xi32> loc(#loc116)
    %138 = tt.broadcast %137 : tensor<1x32xi32> -> tensor<32x32xi32> loc(#loc117)
    %139 = arith.addi %136, %138 : tensor<32x32xi32> loc(#loc117)
    %140 = tt.splat %arg1 : !tt.ptr<f32> -> tensor<32x32x!tt.ptr<f32>> loc(#loc118)
    %141 = tt.addptr %140, %139 : tensor<32x32x!tt.ptr<f32>>, tensor<32x32xi32> loc(#loc118)
    tt.store %141, %132, %25 : tensor<32x32x!tt.ptr<f32>> loc(#loc119)
    tt.return loc(#loc120)
  } loc(#loc)
} loc(#loc)
#loc1 = loc(unknown)
#loc2 = loc("inductor_cache/fs/cfswrjki4gvaogwrpfqbl3mx66ja6zq6m4djr6643hrfrev7zzcy.py":22:28)
#loc3 = loc("inductor_cache/fs/cfswrjki4gvaogwrpfqbl3mx66ja6zq6m4djr6643hrfrev7zzcy.py":22:33)
#loc4 = loc("inductor_cache/fs/cfswrjki4gvaogwrpfqbl3mx66ja6zq6m4djr6643hrfrev7zzcy.py":23:36)
#loc5 = loc("inductor_cache/fs/cfswrjki4gvaogwrpfqbl3mx66ja6zq6m4djr6643hrfrev7zzcy.py":23:44)
#loc6 = loc("inductor_cache/fs/cfswrjki4gvaogwrpfqbl3mx66ja6zq6m4djr6643hrfrev7zzcy.py":23:23)
#loc7 = loc("inductor_cache/fs/cfswrjki4gvaogwrpfqbl3mx66ja6zq6m4djr6643hrfrev7zzcy.py":24:21)
#loc8 = loc("inductor_cache/fs/cfswrjki4gvaogwrpfqbl3mx66ja6zq6m4djr6643hrfrev7zzcy.py":25:28)
#loc9 = loc("inductor_cache/fs/cfswrjki4gvaogwrpfqbl3mx66ja6zq6m4djr6643hrfrev7zzcy.py":25:33)
#loc10 = loc("inductor_cache/fs/cfswrjki4gvaogwrpfqbl3mx66ja6zq6m4djr6643hrfrev7zzcy.py":26:44)
#loc11 = loc("inductor_cache/fs/cfswrjki4gvaogwrpfqbl3mx66ja6zq6m4djr6643hrfrev7zzcy.py":26:23)
#loc12 = loc("inductor_cache/fs/cfswrjki4gvaogwrpfqbl3mx66ja6zq6m4djr6643hrfrev7zzcy.py":28:19)
#loc13 = loc("inductor_cache/fs/cfswrjki4gvaogwrpfqbl3mx66ja6zq6m4djr6643hrfrev7zzcy.py":29:19)
#loc14 = loc("inductor_cache/fs/cfswrjki4gvaogwrpfqbl3mx66ja6zq6m4djr6643hrfrev7zzcy.py":32:19)
#loc15 = loc("inductor_cache/fs/cfswrjki4gvaogwrpfqbl3mx66ja6zq6m4djr6643hrfrev7zzcy.py":33:19)
#loc16 = loc("inductor_cache/fs/cfswrjki4gvaogwrpfqbl3mx66ja6zq6m4djr6643hrfrev7zzcy.py":34:32)
#loc17 = loc("inductor_cache/fs/cfswrjki4gvaogwrpfqbl3mx66ja6zq6m4djr6643hrfrev7zzcy.py":34:42)
#loc18 = loc("inductor_cache/fs/cfswrjki4gvaogwrpfqbl3mx66ja6zq6m4djr6643hrfrev7zzcy.py":34:37)
#loc19 = loc("inductor_cache/fs/cfswrjki4gvaogwrpfqbl3mx66ja6zq6m4djr6643hrfrev7zzcy.py":34:53)
#loc20 = loc("inductor_cache/fs/cfswrjki4gvaogwrpfqbl3mx66ja6zq6m4djr6643hrfrev7zzcy.py":34:47)
#loc21 = loc("inductor_cache/fs/cfswrjki4gvaogwrpfqbl3mx66ja6zq6m4djr6643hrfrev7zzcy.py":34:30)
#loc22 = loc("inductor_cache/fs/cfswrjki4gvaogwrpfqbl3mx66ja6zq6m4djr6643hrfrev7zzcy.py":34:58)
#loc23 = loc("inductor_cache/fs/cfswrjki4gvaogwrpfqbl3mx66ja6zq6m4djr6643hrfrev7zzcy.py":35:34)
#loc24 = loc("inductor_cache/fs/cfswrjki4gvaogwrpfqbl3mx66ja6zq6m4djr6643hrfrev7zzcy.py":35:41)
#loc25 = loc("inductor_cache/fs/cfswrjki4gvaogwrpfqbl3mx66ja6zq6m4djr6643hrfrev7zzcy.py":35:51)
#loc26 = loc("inductor_cache/fs/cfswrjki4gvaogwrpfqbl3mx66ja6zq6m4djr6643hrfrev7zzcy.py":35:30)
#loc27 = loc("inductor_cache/fs/cfswrjki4gvaogwrpfqbl3mx66ja6zq6m4djr6643hrfrev7zzcy.py":35:62)
#loc28 = loc("inductor_cache/fs/cfswrjki4gvaogwrpfqbl3mx66ja6zq6m4djr6643hrfrev7zzcy.py":36:34)
#loc29 = loc("inductor_cache/fs/cfswrjki4gvaogwrpfqbl3mx66ja6zq6m4djr6643hrfrev7zzcy.py":36:41)
#loc30 = loc("inductor_cache/fs/cfswrjki4gvaogwrpfqbl3mx66ja6zq6m4djr6643hrfrev7zzcy.py":36:51)
#loc31 = loc("inductor_cache/fs/cfswrjki4gvaogwrpfqbl3mx66ja6zq6m4djr6643hrfrev7zzcy.py":36:30)
#loc32 = loc("inductor_cache/fs/cfswrjki4gvaogwrpfqbl3mx66ja6zq6m4djr6643hrfrev7zzcy.py":36:62)
#loc33 = loc("inductor_cache/fs/cfswrjki4gvaogwrpfqbl3mx66ja6zq6m4djr6643hrfrev7zzcy.py":37:34)
#loc34 = loc("inductor_cache/fs/cfswrjki4gvaogwrpfqbl3mx66ja6zq6m4djr6643hrfrev7zzcy.py":37:41)
#loc35 = loc("inductor_cache/fs/cfswrjki4gvaogwrpfqbl3mx66ja6zq6m4djr6643hrfrev7zzcy.py":37:51)
#loc36 = loc("inductor_cache/fs/cfswrjki4gvaogwrpfqbl3mx66ja6zq6m4djr6643hrfrev7zzcy.py":37:30)
#loc37 = loc("inductor_cache/fs/cfswrjki4gvaogwrpfqbl3mx66ja6zq6m4djr6643hrfrev7zzcy.py":37:62)
#loc38 = loc("inductor_cache/fs/cfswrjki4gvaogwrpfqbl3mx66ja6zq6m4djr6643hrfrev7zzcy.py":38:36)
#loc39 = loc("inductor_cache/fs/cfswrjki4gvaogwrpfqbl3mx66ja6zq6m4djr6643hrfrev7zzcy.py":38:43)
#loc40 = loc("inductor_cache/fs/cfswrjki4gvaogwrpfqbl3mx66ja6zq6m4djr6643hrfrev7zzcy.py":38:53)
#loc41 = loc("inductor_cache/fs/cfswrjki4gvaogwrpfqbl3mx66ja6zq6m4djr6643hrfrev7zzcy.py":38:30)
#loc42 = loc("inductor_cache/fs/cfswrjki4gvaogwrpfqbl3mx66ja6zq6m4djr6643hrfrev7zzcy.py":38:64)
#loc43 = loc("inductor_cache/fs/cfswrjki4gvaogwrpfqbl3mx66ja6zq6m4djr6643hrfrev7zzcy.py":39:36)
#loc44 = loc("inductor_cache/fs/cfswrjki4gvaogwrpfqbl3mx66ja6zq6m4djr6643hrfrev7zzcy.py":39:43)
#loc45 = loc("inductor_cache/fs/cfswrjki4gvaogwrpfqbl3mx66ja6zq6m4djr6643hrfrev7zzcy.py":39:53)
#loc46 = loc("inductor_cache/fs/cfswrjki4gvaogwrpfqbl3mx66ja6zq6m4djr6643hrfrev7zzcy.py":39:30)
#loc47 = loc("inductor_cache/fs/cfswrjki4gvaogwrpfqbl3mx66ja6zq6m4djr6643hrfrev7zzcy.py":39:64)
#loc48 = loc("inductor_cache/fs/cfswrjki4gvaogwrpfqbl3mx66ja6zq6m4djr6643hrfrev7zzcy.py":40:37)
#loc49 = loc("inductor_cache/fs/cfswrjki4gvaogwrpfqbl3mx66ja6zq6m4djr6643hrfrev7zzcy.py":40:44)
#loc50 = loc("inductor_cache/fs/cfswrjki4gvaogwrpfqbl3mx66ja6zq6m4djr6643hrfrev7zzcy.py":40:54)
#loc51 = loc("inductor_cache/fs/cfswrjki4gvaogwrpfqbl3mx66ja6zq6m4djr6643hrfrev7zzcy.py":40:31)
#loc52 = loc("inductor_cache/fs/cfswrjki4gvaogwrpfqbl3mx66ja6zq6m4djr6643hrfrev7zzcy.py":40:65)
#loc53 = loc("inductor_cache/fs/cfswrjki4gvaogwrpfqbl3mx66ja6zq6m4djr6643hrfrev7zzcy.py":41:37)
#loc54 = loc("inductor_cache/fs/cfswrjki4gvaogwrpfqbl3mx66ja6zq6m4djr6643hrfrev7zzcy.py":41:44)
#loc55 = loc("inductor_cache/fs/cfswrjki4gvaogwrpfqbl3mx66ja6zq6m4djr6643hrfrev7zzcy.py":41:54)
#loc56 = loc("inductor_cache/fs/cfswrjki4gvaogwrpfqbl3mx66ja6zq6m4djr6643hrfrev7zzcy.py":41:31)
#loc57 = loc("inductor_cache/fs/cfswrjki4gvaogwrpfqbl3mx66ja6zq6m4djr6643hrfrev7zzcy.py":41:65)
#loc58 = loc("inductor_cache/fs/cfswrjki4gvaogwrpfqbl3mx66ja6zq6m4djr6643hrfrev7zzcy.py":42:37)
#loc59 = loc("inductor_cache/fs/cfswrjki4gvaogwrpfqbl3mx66ja6zq6m4djr6643hrfrev7zzcy.py":42:44)
#loc60 = loc("inductor_cache/fs/cfswrjki4gvaogwrpfqbl3mx66ja6zq6m4djr6643hrfrev7zzcy.py":42:54)
#loc61 = loc("inductor_cache/fs/cfswrjki4gvaogwrpfqbl3mx66ja6zq6m4djr6643hrfrev7zzcy.py":42:31)
#loc62 = loc("inductor_cache/fs/cfswrjki4gvaogwrpfqbl3mx66ja6zq6m4djr6643hrfrev7zzcy.py":42:65)
#loc63 = loc("inductor_cache/fs/cfswrjki4gvaogwrpfqbl3mx66ja6zq6m4djr6643hrfrev7zzcy.py":43:37)
#loc64 = loc("inductor_cache/fs/cfswrjki4gvaogwrpfqbl3mx66ja6zq6m4djr6643hrfrev7zzcy.py":43:44)
#loc65 = loc("inductor_cache/fs/cfswrjki4gvaogwrpfqbl3mx66ja6zq6m4djr6643hrfrev7zzcy.py":43:54)
#loc66 = loc("inductor_cache/fs/cfswrjki4gvaogwrpfqbl3mx66ja6zq6m4djr6643hrfrev7zzcy.py":43:31)
#loc67 = loc("inductor_cache/fs/cfswrjki4gvaogwrpfqbl3mx66ja6zq6m4djr6643hrfrev7zzcy.py":43:65)
#loc68 = loc("inductor_cache/fs/cfswrjki4gvaogwrpfqbl3mx66ja6zq6m4djr6643hrfrev7zzcy.py":44:37)
#loc69 = loc("inductor_cache/fs/cfswrjki4gvaogwrpfqbl3mx66ja6zq6m4djr6643hrfrev7zzcy.py":44:44)
#loc70 = loc("inductor_cache/fs/cfswrjki4gvaogwrpfqbl3mx66ja6zq6m4djr6643hrfrev7zzcy.py":44:54)
#loc71 = loc("inductor_cache/fs/cfswrjki4gvaogwrpfqbl3mx66ja6zq6m4djr6643hrfrev7zzcy.py":44:31)
#loc72 = loc("inductor_cache/fs/cfswrjki4gvaogwrpfqbl3mx66ja6zq6m4djr6643hrfrev7zzcy.py":44:65)
#loc73 = loc("inductor_cache/fs/cfswrjki4gvaogwrpfqbl3mx66ja6zq6m4djr6643hrfrev7zzcy.py":45:37)
#loc74 = loc("inductor_cache/fs/cfswrjki4gvaogwrpfqbl3mx66ja6zq6m4djr6643hrfrev7zzcy.py":45:44)
#loc75 = loc("inductor_cache/fs/cfswrjki4gvaogwrpfqbl3mx66ja6zq6m4djr6643hrfrev7zzcy.py":45:54)
#loc76 = loc("inductor_cache/fs/cfswrjki4gvaogwrpfqbl3mx66ja6zq6m4djr6643hrfrev7zzcy.py":45:31)
#loc77 = loc("inductor_cache/fs/cfswrjki4gvaogwrpfqbl3mx66ja6zq6m4djr6643hrfrev7zzcy.py":45:65)
#loc78 = loc("inductor_cache/fs/cfswrjki4gvaogwrpfqbl3mx66ja6zq6m4djr6643hrfrev7zzcy.py":46:37)
#loc79 = loc("inductor_cache/fs/cfswrjki4gvaogwrpfqbl3mx66ja6zq6m4djr6643hrfrev7zzcy.py":46:44)
#loc80 = loc("inductor_cache/fs/cfswrjki4gvaogwrpfqbl3mx66ja6zq6m4djr6643hrfrev7zzcy.py":46:54)
#loc81 = loc("inductor_cache/fs/cfswrjki4gvaogwrpfqbl3mx66ja6zq6m4djr6643hrfrev7zzcy.py":46:31)
#loc82 = loc("inductor_cache/fs/cfswrjki4gvaogwrpfqbl3mx66ja6zq6m4djr6643hrfrev7zzcy.py":46:65)
#loc83 = loc("inductor_cache/fs/cfswrjki4gvaogwrpfqbl3mx66ja6zq6m4djr6643hrfrev7zzcy.py":47:37)
#loc84 = loc("inductor_cache/fs/cfswrjki4gvaogwrpfqbl3mx66ja6zq6m4djr6643hrfrev7zzcy.py":47:44)
#loc85 = loc("inductor_cache/fs/cfswrjki4gvaogwrpfqbl3mx66ja6zq6m4djr6643hrfrev7zzcy.py":47:54)
#loc86 = loc("inductor_cache/fs/cfswrjki4gvaogwrpfqbl3mx66ja6zq6m4djr6643hrfrev7zzcy.py":47:31)
#loc87 = loc("inductor_cache/fs/cfswrjki4gvaogwrpfqbl3mx66ja6zq6m4djr6643hrfrev7zzcy.py":47:65)
#loc88 = loc("inductor_cache/fs/cfswrjki4gvaogwrpfqbl3mx66ja6zq6m4djr6643hrfrev7zzcy.py":48:37)
#loc89 = loc("inductor_cache/fs/cfswrjki4gvaogwrpfqbl3mx66ja6zq6m4djr6643hrfrev7zzcy.py":48:44)
#loc90 = loc("inductor_cache/fs/cfswrjki4gvaogwrpfqbl3mx66ja6zq6m4djr6643hrfrev7zzcy.py":48:54)
#loc91 = loc("inductor_cache/fs/cfswrjki4gvaogwrpfqbl3mx66ja6zq6m4djr6643hrfrev7zzcy.py":48:31)
#loc92 = loc("inductor_cache/fs/cfswrjki4gvaogwrpfqbl3mx66ja6zq6m4djr6643hrfrev7zzcy.py":48:65)
#loc93 = loc("inductor_cache/fs/cfswrjki4gvaogwrpfqbl3mx66ja6zq6m4djr6643hrfrev7zzcy.py":49:37)
#loc94 = loc("inductor_cache/fs/cfswrjki4gvaogwrpfqbl3mx66ja6zq6m4djr6643hrfrev7zzcy.py":49:44)
#loc95 = loc("inductor_cache/fs/cfswrjki4gvaogwrpfqbl3mx66ja6zq6m4djr6643hrfrev7zzcy.py":49:54)
#loc96 = loc("inductor_cache/fs/cfswrjki4gvaogwrpfqbl3mx66ja6zq6m4djr6643hrfrev7zzcy.py":49:31)
#loc97 = loc("inductor_cache/fs/cfswrjki4gvaogwrpfqbl3mx66ja6zq6m4djr6643hrfrev7zzcy.py":49:65)
#loc98 = loc("inductor_cache/fs/cfswrjki4gvaogwrpfqbl3mx66ja6zq6m4djr6643hrfrev7zzcy.py":50:18)
#loc99 = loc("inductor_cache/fs/cfswrjki4gvaogwrpfqbl3mx66ja6zq6m4djr6643hrfrev7zzcy.py":51:18)
#loc100 = loc("inductor_cache/fs/cfswrjki4gvaogwrpfqbl3mx66ja6zq6m4djr6643hrfrev7zzcy.py":52:18)
#loc101 = loc("inductor_cache/fs/cfswrjki4gvaogwrpfqbl3mx66ja6zq6m4djr6643hrfrev7zzcy.py":53:18)
#loc102 = loc("inductor_cache/fs/cfswrjki4gvaogwrpfqbl3mx66ja6zq6m4djr6643hrfrev7zzcy.py":54:19)
#loc103 = loc("inductor_cache/fs/cfswrjki4gvaogwrpfqbl3mx66ja6zq6m4djr6643hrfrev7zzcy.py":55:20)
#loc104 = loc("inductor_cache/fs/cfswrjki4gvaogwrpfqbl3mx66ja6zq6m4djr6643hrfrev7zzcy.py":56:20)
#loc105 = loc("inductor_cache/fs/cfswrjki4gvaogwrpfqbl3mx66ja6zq6m4djr6643hrfrev7zzcy.py":57:20)
#loc106 = loc("inductor_cache/fs/cfswrjki4gvaogwrpfqbl3mx66ja6zq6m4djr6643hrfrev7zzcy.py":58:20)
#loc107 = loc("inductor_cache/fs/cfswrjki4gvaogwrpfqbl3mx66ja6zq6m4djr6643hrfrev7zzcy.py":59:20)
#loc108 = loc("inductor_cache/fs/cfswrjki4gvaogwrpfqbl3mx66ja6zq6m4djr6643hrfrev7zzcy.py":60:20)
#loc109 = loc("inductor_cache/fs/cfswrjki4gvaogwrpfqbl3mx66ja6zq6m4djr6643hrfrev7zzcy.py":61:20)
#loc110 = loc("inductor_cache/fs/cfswrjki4gvaogwrpfqbl3mx66ja6zq6m4djr6643hrfrev7zzcy.py":62:20)
#loc111 = loc("inductor_cache/fs/cfswrjki4gvaogwrpfqbl3mx66ja6zq6m4djr6643hrfrev7zzcy.py":63:20)
#loc112 = loc("inductor_cache/fs/cfswrjki4gvaogwrpfqbl3mx66ja6zq6m4djr6643hrfrev7zzcy.py":64:20)
#loc113 = loc("inductor_cache/fs/cfswrjki4gvaogwrpfqbl3mx66ja6zq6m4djr6643hrfrev7zzcy.py":66:20)
#loc114 = loc("inductor_cache/fs/cfswrjki4gvaogwrpfqbl3mx66ja6zq6m4djr6643hrfrev7zzcy.py":67:33)
#loc115 = loc("inductor_cache/fs/cfswrjki4gvaogwrpfqbl3mx66ja6zq6m4djr6643hrfrev7zzcy.py":67:30)
#loc116 = loc("inductor_cache/fs/cfswrjki4gvaogwrpfqbl3mx66ja6zq6m4djr6643hrfrev7zzcy.py":67:44)
#loc117 = loc("inductor_cache/fs/cfswrjki4gvaogwrpfqbl3mx66ja6zq6m4djr6643hrfrev7zzcy.py":67:38)
#loc118 = loc("inductor_cache/fs/cfswrjki4gvaogwrpfqbl3mx66ja6zq6m4djr6643hrfrev7zzcy.py":67:25)
#loc119 = loc("inductor_cache/fs/cfswrjki4gvaogwrpfqbl3mx66ja6zq6m4djr6643hrfrev7zzcy.py":67:56)
#loc120 = loc("inductor_cache/fs/cfswrjki4gvaogwrpfqbl3mx66ja6zq6m4djr6643hrfrev7zzcy.py":67:4)
