#loc = loc("inductor_cache/ed/ced23cxwsfif2qbvjlnemete2vd4f4kilh32wmkj3zzjkkbwni2u.py":19:0)
module {
  tt.func public @triton_poi_fused_add_native_layer_norm_8(%arg0: !tt.ptr<f32> {tt.divisibility = 16 : i32} loc("inductor_cache/ed/ced23cxwsfif2qbvjlnemete2vd4f4kilh32wmkj3zzjkkbwni2u.py":19:0), %arg1: !tt.ptr<f32> {tt.divisibility = 16 : i32} loc("inductor_cache/ed/ced23cxwsfif2qbvjlnemete2vd4f4kilh32wmkj3zzjkkbwni2u.py":19:0), %arg2: !tt.ptr<f32> {tt.divisibility = 16 : i32} loc("inductor_cache/ed/ced23cxwsfif2qbvjlnemete2vd4f4kilh32wmkj3zzjkkbwni2u.py":19:0), %arg3: !tt.ptr<f32> {tt.divisibility = 16 : i32} loc("inductor_cache/ed/ced23cxwsfif2qbvjlnemete2vd4f4kilh32wmkj3zzjkkbwni2u.py":19:0), %arg4: !tt.ptr<f32> {tt.divisibility = 16 : i32} loc("inductor_cache/ed/ced23cxwsfif2qbvjlnemete2vd4f4kilh32wmkj3zzjkkbwni2u.py":19:0), %arg5: i32 loc("inductor_cache/ed/ced23cxwsfif2qbvjlnemete2vd4f4kilh32wmkj3zzjkkbwni2u.py":19:0), %arg6: i32 {tt.divisibility = 16 : i32} loc("inductor_cache/ed/ced23cxwsfif2qbvjlnemete2vd4f4kilh32wmkj3zzjkkbwni2u.py":19:0)) attributes {noinline = false} {
    %cst = arith.constant dense<64> : tensor<1x4xi32> loc(#loc1)
    %cst_0 = arith.constant dense<16> : tensor<32x1xi32> loc(#loc1)
    %cst_1 = arith.constant dense<4> : tensor<32x1xi32> loc(#loc1)
    %cst_2 = arith.constant dense<64> : tensor<32x1xi32> loc(#loc1)
    %c32_i32 = arith.constant 32 : i32 loc(#loc1)
    %cst_3 = arith.constant dense<4> : tensor<1x4xi32> loc(#loc1)
    %c4_i32 = arith.constant 4 : i32 loc(#loc1)
    %0 = tt.get_program_id y : i32 loc(#loc2)
    %1 = arith.muli %0, %c4_i32 : i32 loc(#loc3)
    %2 = tt.make_range {end = 4 : i32, start = 0 : i32} : tensor<4xi32> loc(#loc4)
    %3 = tt.expand_dims %2 {axis = 0 : i32} : tensor<4xi32> -> tensor<1x4xi32> loc(#loc5)
    %4 = tt.splat %1 : i32 -> tensor<1x4xi32> loc(#loc6)
    %5 = arith.addi %4, %3 : tensor<1x4xi32> loc(#loc6)
    %6 = arith.cmpi slt, %5, %cst_3 : tensor<1x4xi32> loc(#loc7)
    %7 = tt.get_program_id x : i32 loc(#loc8)
    %8 = arith.muli %7, %c32_i32 : i32 loc(#loc9)
    %9 = tt.make_range {end = 32 : i32, start = 0 : i32} : tensor<32xi32> loc(#loc10)
    %10 = tt.expand_dims %9 {axis = 1 : i32} : tensor<32xi32> -> tensor<32x1xi32> loc(#loc11)
    %11 = tt.splat %8 : i32 -> tensor<32x1xi32> loc(#loc12)
    %12 = arith.addi %11, %10 : tensor<32x1xi32> loc(#loc12)
    %13 = arith.cmpi slt, %12, %cst_2 : tensor<32x1xi32> loc(#loc13)
    %14 = arith.remsi %12, %cst_1 : tensor<32x1xi32> loc(#loc14)
    %15 = arith.divsi %12, %cst_1 : tensor<32x1xi32> loc(#loc15)
    %16 = arith.remsi %15, %cst_1 : tensor<32x1xi32> loc(#loc16)
    %17 = arith.muli %16, %cst_1 : tensor<32x1xi32> loc(#loc17)
    %18 = tt.broadcast %5 : tensor<1x4xi32> -> tensor<32x4xi32> loc(#loc18)
    %19 = tt.broadcast %17 : tensor<32x1xi32> -> tensor<32x4xi32> loc(#loc18)
    %20 = arith.addi %18, %19 : tensor<32x4xi32> loc(#loc18)
    %21 = arith.muli %14, %cst_0 : tensor<32x1xi32> loc(#loc19)
    %22 = tt.broadcast %21 : tensor<32x1xi32> -> tensor<32x4xi32> loc(#loc20)
    %23 = arith.addi %20, %22 : tensor<32x4xi32> loc(#loc20)
    %24 = arith.divsi %15, %cst_1 : tensor<32x1xi32> loc(#loc21)
    %25 = arith.muli %24, %cst_2 : tensor<32x1xi32> loc(#loc22)
    %26 = tt.broadcast %25 : tensor<32x1xi32> -> tensor<32x4xi32> loc(#loc23)
    %27 = arith.addi %23, %26 : tensor<32x4xi32> loc(#loc23)
    %28 = tt.splat %arg1 : !tt.ptr<f32> -> tensor<32x4x!tt.ptr<f32>> loc(#loc24)
    %29 = tt.addptr %28, %27 : tensor<32x4x!tt.ptr<f32>>, tensor<32x4xi32> loc(#loc24)
    %30 = tt.broadcast %13 : tensor<32x1xi1> -> tensor<32x4xi1> loc(#loc25)
    %31 = tt.broadcast %6 : tensor<1x4xi1> -> tensor<32x4xi1> loc(#loc25)
    %32 = arith.andi %30, %31 : tensor<32x4xi1> loc(#loc25)
    %33 = tt.load %29, %32 evictionPolicy = evict_last : tensor<32x4x!tt.ptr<f32>> loc(#loc26)
    %34 = arith.muli %24, %cst_1 : tensor<32x1xi32> loc(#loc27)
    %35 = arith.addi %14, %34 : tensor<32x1xi32> loc(#loc28)
    %36 = tt.splat %arg2 : !tt.ptr<f32> -> tensor<32x1x!tt.ptr<f32>> loc(#loc29)
    %37 = tt.addptr %36, %35 : tensor<32x1x!tt.ptr<f32>>, tensor<32x1xi32> loc(#loc29)
    %38 = tt.load %37, %13 evictionPolicy = evict_last : tensor<32x1x!tt.ptr<f32>> loc(#loc30)
    %39 = tt.splat %arg3 : !tt.ptr<f32> -> tensor<32x1x!tt.ptr<f32>> loc(#loc31)
    %40 = tt.addptr %39, %14 : tensor<32x1x!tt.ptr<f32>>, tensor<32x1xi32> loc(#loc31)
    %41 = tt.load %40, %13 evictionPolicy = evict_last : tensor<32x1x!tt.ptr<f32>> loc(#loc32)
    %42 = arith.muli %5, %cst : tensor<1x4xi32> loc(#loc33)
    %43 = tt.broadcast %12 : tensor<32x1xi32> -> tensor<32x4xi32> loc(#loc34)
    %44 = tt.broadcast %42 : tensor<1x4xi32> -> tensor<32x4xi32> loc(#loc34)
    %45 = arith.addi %43, %44 : tensor<32x4xi32> loc(#loc34)
    %46 = tt.splat %arg0 : !tt.ptr<f32> -> tensor<32x4x!tt.ptr<f32>> loc(#loc35)
    %47 = tt.addptr %46, %45 : tensor<32x4x!tt.ptr<f32>>, tensor<32x4xi32> loc(#loc35)
    %48 = tt.load %47, %32 evictionPolicy = evict_last : tensor<32x4x!tt.ptr<f32>> loc(#loc36)
    %49 = tt.splat %arg4 : !tt.ptr<f32> -> tensor<32x1x!tt.ptr<f32>> loc(#loc37)
    %50 = tt.addptr %49, %14 : tensor<32x1x!tt.ptr<f32>>, tensor<32x1xi32> loc(#loc37)
    %51 = tt.load %50, %13 evictionPolicy = evict_last : tensor<32x1x!tt.ptr<f32>> loc(#loc38)
    %52 = arith.addf %38, %41 : tensor<32x1xf32> loc(#loc39)
    %53 = tt.broadcast %52 : tensor<32x1xf32> -> tensor<32x4xf32> loc(#loc40)
    %54 = arith.addf %33, %53 : tensor<32x4xf32> loc(#loc40)
    %55 = tt.broadcast %51 : tensor<32x1xf32> -> tensor<32x4xf32> loc(#loc41)
    %56 = arith.addf %48, %55 : tensor<32x4xf32> loc(#loc41)
    %57 = arith.addf %54, %56 : tensor<32x4xf32> loc(#loc42)
    gpu.barrier loc(#loc43)
    tt.store %47, %57, %32 : tensor<32x4x!tt.ptr<f32>> loc(#loc44)
    tt.return loc(#loc45)
  } loc(#loc)
} loc(#loc)
#loc1 = loc(unknown)
#loc2 = loc("inductor_cache/ed/ced23cxwsfif2qbvjlnemete2vd4f4kilh32wmkj3zzjkkbwni2u.py":22:28)
#loc3 = loc("inductor_cache/ed/ced23cxwsfif2qbvjlnemete2vd4f4kilh32wmkj3zzjkkbwni2u.py":22:33)
#loc4 = loc("inductor_cache/ed/ced23cxwsfif2qbvjlnemete2vd4f4kilh32wmkj3zzjkkbwni2u.py":23:36)
#loc5 = loc("inductor_cache/ed/ced23cxwsfif2qbvjlnemete2vd4f4kilh32wmkj3zzjkkbwni2u.py":23:44)
#loc6 = loc("inductor_cache/ed/ced23cxwsfif2qbvjlnemete2vd4f4kilh32wmkj3zzjkkbwni2u.py":23:23)
#loc7 = loc("inductor_cache/ed/ced23cxwsfif2qbvjlnemete2vd4f4kilh32wmkj3zzjkkbwni2u.py":24:21)
#loc8 = loc("inductor_cache/ed/ced23cxwsfif2qbvjlnemete2vd4f4kilh32wmkj3zzjkkbwni2u.py":25:28)
#loc9 = loc("inductor_cache/ed/ced23cxwsfif2qbvjlnemete2vd4f4kilh32wmkj3zzjkkbwni2u.py":25:33)
#loc10 = loc("inductor_cache/ed/ced23cxwsfif2qbvjlnemete2vd4f4kilh32wmkj3zzjkkbwni2u.py":26:36)
#loc11 = loc("inductor_cache/ed/ced23cxwsfif2qbvjlnemete2vd4f4kilh32wmkj3zzjkkbwni2u.py":26:44)
#loc12 = loc("inductor_cache/ed/ced23cxwsfif2qbvjlnemete2vd4f4kilh32wmkj3zzjkkbwni2u.py":26:23)
#loc13 = loc("inductor_cache/ed/ced23cxwsfif2qbvjlnemete2vd4f4kilh32wmkj3zzjkkbwni2u.py":27:21)
#loc14 = loc("inductor_cache/ed/ced23cxwsfif2qbvjlnemete2vd4f4kilh32wmkj3zzjkkbwni2u.py":28:19)
#loc15 = loc("inductor_cache/ed/ced23cxwsfif2qbvjlnemete2vd4f4kilh32wmkj3zzjkkbwni2u.py":29:19)
#loc16 = loc("inductor_cache/ed/ced23cxwsfif2qbvjlnemete2vd4f4kilh32wmkj3zzjkkbwni2u.py":32:44)
#loc17 = loc("inductor_cache/ed/ced23cxwsfif2qbvjlnemete2vd4f4kilh32wmkj3zzjkkbwni2u.py":32:39)
#loc18 = loc("inductor_cache/ed/ced23cxwsfif2qbvjlnemete2vd4f4kilh32wmkj3zzjkkbwni2u.py":32:35)
#loc19 = loc("inductor_cache/ed/ced23cxwsfif2qbvjlnemete2vd4f4kilh32wmkj3zzjkkbwni2u.py":32:53)
#loc20 = loc("inductor_cache/ed/ced23cxwsfif2qbvjlnemete2vd4f4kilh32wmkj3zzjkkbwni2u.py":32:50)
#loc21 = loc("inductor_cache/ed/ced23cxwsfif2qbvjlnemete2vd4f4kilh32wmkj3zzjkkbwni2u.py":32:68)
#loc22 = loc("inductor_cache/ed/ced23cxwsfif2qbvjlnemete2vd4f4kilh32wmkj3zzjkkbwni2u.py":32:62)
#loc23 = loc("inductor_cache/ed/ced23cxwsfif2qbvjlnemete2vd4f4kilh32wmkj3zzjkkbwni2u.py":32:58)
#loc24 = loc("inductor_cache/ed/ced23cxwsfif2qbvjlnemete2vd4f4kilh32wmkj3zzjkkbwni2u.py":32:30)
#loc25 = loc("inductor_cache/ed/ced23cxwsfif2qbvjlnemete2vd4f4kilh32wmkj3zzjkkbwni2u.py":32:81)
#loc26 = loc("inductor_cache/ed/ced23cxwsfif2qbvjlnemete2vd4f4kilh32wmkj3zzjkkbwni2u.py":32:73)
#loc27 = loc("inductor_cache/ed/ced23cxwsfif2qbvjlnemete2vd4f4kilh32wmkj3zzjkkbwni2u.py":33:38)
#loc28 = loc("inductor_cache/ed/ced23cxwsfif2qbvjlnemete2vd4f4kilh32wmkj3zzjkkbwni2u.py":33:35)
#loc29 = loc("inductor_cache/ed/ced23cxwsfif2qbvjlnemete2vd4f4kilh32wmkj3zzjkkbwni2u.py":33:30)
#loc30 = loc("inductor_cache/ed/ced23cxwsfif2qbvjlnemete2vd4f4kilh32wmkj3zzjkkbwni2u.py":33:49)
#loc31 = loc("inductor_cache/ed/ced23cxwsfif2qbvjlnemete2vd4f4kilh32wmkj3zzjkkbwni2u.py":34:30)
#loc32 = loc("inductor_cache/ed/ced23cxwsfif2qbvjlnemete2vd4f4kilh32wmkj3zzjkkbwni2u.py":34:35)
#loc33 = loc("inductor_cache/ed/ced23cxwsfif2qbvjlnemete2vd4f4kilh32wmkj3zzjkkbwni2u.py":35:42)
#loc34 = loc("inductor_cache/ed/ced23cxwsfif2qbvjlnemete2vd4f4kilh32wmkj3zzjkkbwni2u.py":35:39)
#loc35 = loc("inductor_cache/ed/ced23cxwsfif2qbvjlnemete2vd4f4kilh32wmkj3zzjkkbwni2u.py":35:34)
#loc36 = loc("inductor_cache/ed/ced23cxwsfif2qbvjlnemete2vd4f4kilh32wmkj3zzjkkbwni2u.py":35:47)
#loc37 = loc("inductor_cache/ed/ced23cxwsfif2qbvjlnemete2vd4f4kilh32wmkj3zzjkkbwni2u.py":36:30)
#loc38 = loc("inductor_cache/ed/ced23cxwsfif2qbvjlnemete2vd4f4kilh32wmkj3zzjkkbwni2u.py":36:35)
#loc39 = loc("inductor_cache/ed/ced23cxwsfif2qbvjlnemete2vd4f4kilh32wmkj3zzjkkbwni2u.py":37:18)
#loc40 = loc("inductor_cache/ed/ced23cxwsfif2qbvjlnemete2vd4f4kilh32wmkj3zzjkkbwni2u.py":38:18)
#loc41 = loc("inductor_cache/ed/ced23cxwsfif2qbvjlnemete2vd4f4kilh32wmkj3zzjkkbwni2u.py":39:18)
#loc42 = loc("inductor_cache/ed/ced23cxwsfif2qbvjlnemete2vd4f4kilh32wmkj3zzjkkbwni2u.py":40:18)
#loc43 = loc("inductor_cache/ed/ced23cxwsfif2qbvjlnemete2vd4f4kilh32wmkj3zzjkkbwni2u.py":41:4)
#loc44 = loc("inductor_cache/ed/ced23cxwsfif2qbvjlnemete2vd4f4kilh32wmkj3zzjkkbwni2u.py":42:47)
#loc45 = loc("inductor_cache/ed/ced23cxwsfif2qbvjlnemete2vd4f4kilh32wmkj3zzjkkbwni2u.py":42:4)
