#loc = loc("inductor_cache/vv/cvvgxulgtk3oumnutjpwqhnslrn3oxlpdvwzisfy6vo4yml5yp7c.py":19:0)
#loc1 = loc(unknown)
#loc14 = loc("inductor_cache/vv/cvvgxulgtk3oumnutjpwqhnslrn3oxlpdvwzisfy6vo4yml5yp7c.py":34:24)
#loc21 = loc(callsite(#loc1 at #loc14))
module {
  tt.func public @triton_per_fused_mv_24(%arg0: !tt.ptr<f32> {tt.divisibility = 16 : i32} loc("inductor_cache/vv/cvvgxulgtk3oumnutjpwqhnslrn3oxlpdvwzisfy6vo4yml5yp7c.py":19:0), %arg1: !tt.ptr<f32> {tt.divisibility = 16 : i32} loc("inductor_cache/vv/cvvgxulgtk3oumnutjpwqhnslrn3oxlpdvwzisfy6vo4yml5yp7c.py":19:0), %arg2: i32 {tt.divisibility = 16 : i32} loc("inductor_cache/vv/cvvgxulgtk3oumnutjpwqhnslrn3oxlpdvwzisfy6vo4yml5yp7c.py":19:0), %arg3: i32 loc("inductor_cache/vv/cvvgxulgtk3oumnutjpwqhnslrn3oxlpdvwzisfy6vo4yml5yp7c.py":19:0)) attributes {noinline = false} {
    %c18_i32 = arith.constant 18 : i32 loc(#loc1)
    %c512_i32 = arith.constant 512 : i32 loc(#loc1)
    %cst = arith.constant dense<0.000000e+00> : tensor<1x32xf32> loc(#loc1)
    %cst_0 = arith.constant dense<18> : tensor<1x32xi32> loc(#loc1)
    %0 = tt.get_program_id x : i32 loc(#loc2)
    %1 = arith.cmpi slt, %0, %c512_i32 : i32 loc(#loc3)
    %2 = tt.splat %1 : i1 -> tensor<1x1xi1> loc(#loc3)
    %3 = tt.make_range {end = 32 : i32, start = 0 : i32} : tensor<32xi32> loc(#loc4)
    %4 = tt.expand_dims %3 {axis = 0 : i32} : tensor<32xi32> -> tensor<1x32xi32> loc(#loc5)
    %5 = arith.cmpi slt, %4, %cst_0 : tensor<1x32xi32> loc(#loc6)
    %6 = arith.muli %0, %c18_i32 : i32 loc(#loc7)
    %7 = tt.splat %6 : i32 -> tensor<1x32xi32> loc(#loc8)
    %8 = arith.addi %4, %7 : tensor<1x32xi32> loc(#loc8)
    %9 = tt.splat %arg0 : !tt.ptr<f32> -> tensor<1x32x!tt.ptr<f32>> loc(#loc9)
    %10 = tt.addptr %9, %8 : tensor<1x32x!tt.ptr<f32>>, tensor<1x32xi32> loc(#loc9)
    %11 = tt.splat %1 : i1 -> tensor<1x32xi1> loc(#loc10)
    %12 = arith.andi %5, %11 : tensor<1x32xi1> loc(#loc10)
    %13 = tt.load %10, %12, %cst : tensor<1x32x!tt.ptr<f32>> loc(#loc11)
    %14 = arith.select %12, %13, %cst : tensor<1x32xi1>, tensor<1x32xf32> loc(#loc12)
    %15 = "tt.reduce"(%14) <{axis = 1 : i32}> ({
    ^bb0(%arg4: f32 loc(callsite(#loc1 at #loc14)), %arg5: f32 loc(callsite(#loc1 at #loc14))):
      %19 = arith.addf %arg4, %arg5 : f32 loc(#loc23)
      tt.reduce.return %19 : f32 loc(#loc20)
    }) : (tensor<1x32xf32>) -> tensor<1xf32> loc(#loc20)
    %16 = tt.expand_dims %15 {axis = 1 : i32} : tensor<1xf32> -> tensor<1x1xf32> loc(#loc16)
    %17 = tt.addptr %arg1, %0 : !tt.ptr<f32>, i32 loc(#loc17)
    %18 = tt.splat %17 : !tt.ptr<f32> -> tensor<1x1x!tt.ptr<f32>> loc(#loc17)
    tt.store %18, %16, %2 : tensor<1x1x!tt.ptr<f32>> loc(#loc18)
    tt.return loc(#loc19)
  } loc(#loc)
} loc(#loc)
#loc2 = loc("inductor_cache/vv/cvvgxulgtk3oumnutjpwqhnslrn3oxlpdvwzisfy6vo4yml5yp7c.py":23:28)
#loc3 = loc("inductor_cache/vv/cvvgxulgtk3oumnutjpwqhnslrn3oxlpdvwzisfy6vo4yml5yp7c.py":25:21)
#loc4 = loc("inductor_cache/vv/cvvgxulgtk3oumnutjpwqhnslrn3oxlpdvwzisfy6vo4yml5yp7c.py":26:26)
#loc5 = loc("inductor_cache/vv/cvvgxulgtk3oumnutjpwqhnslrn3oxlpdvwzisfy6vo4yml5yp7c.py":26:34)
#loc6 = loc("inductor_cache/vv/cvvgxulgtk3oumnutjpwqhnslrn3oxlpdvwzisfy6vo4yml5yp7c.py":28:21)
#loc7 = loc("inductor_cache/vv/cvvgxulgtk3oumnutjpwqhnslrn3oxlpdvwzisfy6vo4yml5yp7c.py":31:38)
#loc8 = loc("inductor_cache/vv/cvvgxulgtk3oumnutjpwqhnslrn3oxlpdvwzisfy6vo4yml5yp7c.py":31:35)
#loc9 = loc("inductor_cache/vv/cvvgxulgtk3oumnutjpwqhnslrn3oxlpdvwzisfy6vo4yml5yp7c.py":31:30)
#loc10 = loc("inductor_cache/vv/cvvgxulgtk3oumnutjpwqhnslrn3oxlpdvwzisfy6vo4yml5yp7c.py":31:51)
#loc11 = loc("inductor_cache/vv/cvvgxulgtk3oumnutjpwqhnslrn3oxlpdvwzisfy6vo4yml5yp7c.py":31:43)
#loc12 = loc("inductor_cache/vv/cvvgxulgtk3oumnutjpwqhnslrn3oxlpdvwzisfy6vo4yml5yp7c.py":33:41)
#loc13 = loc("/home/sahanp/.conda/envs/parity-bench/lib/python3.12/site-packages/triton/language/standard.py":267:36)
#loc15 = loc("/home/sahanp/.conda/envs/parity-bench/lib/python3.12/site-packages/triton/language/standard.py":256:15)
#loc16 = loc("inductor_cache/vv/cvvgxulgtk3oumnutjpwqhnslrn3oxlpdvwzisfy6vo4yml5yp7c.py":34:27)
#loc17 = loc("inductor_cache/vv/cvvgxulgtk3oumnutjpwqhnslrn3oxlpdvwzisfy6vo4yml5yp7c.py":35:25)
#loc18 = loc("inductor_cache/vv/cvvgxulgtk3oumnutjpwqhnslrn3oxlpdvwzisfy6vo4yml5yp7c.py":35:36)
#loc19 = loc("inductor_cache/vv/cvvgxulgtk3oumnutjpwqhnslrn3oxlpdvwzisfy6vo4yml5yp7c.py":35:4)
#loc20 = loc(callsite(#loc13 at #loc14))
#loc22 = loc(callsite(#loc15 at #loc13))
#loc23 = loc(callsite(#loc22 at #loc14))
