#loc = loc("inductor_cache/ja/cja6rr7syjuu5ejhimstweh2m3zi4aetp23dkoxyy7vlkko4punz.py":19:0)
#loc1 = loc(unknown)
#loc34 = loc("inductor_cache/ja/cja6rr7syjuu5ejhimstweh2m3zi4aetp23dkoxyy7vlkko4punz.py":38:24)
#loc41 = loc(callsite(#loc1 at #loc34))
module {
  tt.func public @triton_per_fused_abs_mean_sub_8(%arg0: !tt.ptr<f32> {tt.divisibility = 16 : i32} loc("inductor_cache/ja/cja6rr7syjuu5ejhimstweh2m3zi4aetp23dkoxyy7vlkko4punz.py":19:0), %arg1: !tt.ptr<f32> {tt.divisibility = 16 : i32} loc("inductor_cache/ja/cja6rr7syjuu5ejhimstweh2m3zi4aetp23dkoxyy7vlkko4punz.py":19:0), %arg2: !tt.ptr<f32> {tt.divisibility = 16 : i32} loc("inductor_cache/ja/cja6rr7syjuu5ejhimstweh2m3zi4aetp23dkoxyy7vlkko4punz.py":19:0), %arg3: i32 {tt.divisibility = 16 : i32} loc("inductor_cache/ja/cja6rr7syjuu5ejhimstweh2m3zi4aetp23dkoxyy7vlkko4punz.py":19:0), %arg4: i32 {tt.divisibility = 16 : i32} loc("inductor_cache/ja/cja6rr7syjuu5ejhimstweh2m3zi4aetp23dkoxyy7vlkko4punz.py":19:0)) attributes {noinline = false} {
    %cst = arith.constant dense<262144> : tensor<8x128xi32> loc(#loc1)
    %cst_0 = arith.constant dense<8192> : tensor<8x1xi32> loc(#loc1)
    %cst_1 = arith.constant dense<4096> : tensor<8x128xi32> loc(#loc1)
    %cst_2 = arith.constant dense<64> : tensor<8x128xi32> loc(#loc1)
    %cst_3 = arith.constant dense<64> : tensor<1x128xi32> loc(#loc1)
    %cst_4 = arith.constant dense<128> : tensor<8x1xi32> loc(#loc1)
    %c8_i32 = arith.constant 8 : i32 loc(#loc1)
    %0 = tt.get_program_id x : i32 loc(#loc2)
    %1 = arith.muli %0, %c8_i32 : i32 loc(#loc3)
    %2 = tt.make_range {end = 8 : i32, start = 0 : i32} : tensor<8xi32> loc(#loc4)
    %3 = tt.expand_dims %2 {axis = 1 : i32} : tensor<8xi32> -> tensor<8x1xi32> loc(#loc5)
    %4 = tt.splat %1 : i32 -> tensor<8x1xi32> loc(#loc6)
    %5 = arith.addi %4, %3 : tensor<8x1xi32> loc(#loc6)
    %6 = tt.make_range {end = 128 : i32, start = 0 : i32} : tensor<128xi32> loc(#loc7)
    %7 = tt.expand_dims %6 {axis = 0 : i32} : tensor<128xi32> -> tensor<1x128xi32> loc(#loc8)
    %8 = arith.remsi %5, %cst_4 : tensor<8x1xi32> loc(#loc9)
    %9 = arith.divsi %5, %cst_4 : tensor<8x1xi32> loc(#loc10)
    %10 = arith.remsi %7, %cst_3 : tensor<1x128xi32> loc(#loc11)
    %11 = arith.muli %10, %cst_3 : tensor<1x128xi32> loc(#loc12)
    %12 = arith.muli %9, %cst_4 : tensor<8x1xi32> loc(#loc13)
    %13 = tt.broadcast %7 : tensor<1x128xi32> -> tensor<8x128xi32> loc(#loc14)
    %14 = tt.broadcast %12 : tensor<8x1xi32> -> tensor<8x128xi32> loc(#loc14)
    %15 = arith.addi %13, %14 : tensor<8x128xi32> loc(#loc14)
    %16 = arith.divsi %15, %cst_2 : tensor<8x128xi32> loc(#loc15)
    %17 = arith.remsi %16, %cst_2 : tensor<8x128xi32> loc(#loc16)
    %18 = arith.muli %17, %cst_1 : tensor<8x128xi32> loc(#loc17)
    %19 = tt.broadcast %11 : tensor<1x128xi32> -> tensor<8x128xi32> loc(#loc18)
    %20 = arith.addi %19, %18 : tensor<8x128xi32> loc(#loc18)
    %21 = arith.muli %8, %cst_0 : tensor<8x1xi32> loc(#loc19)
    %22 = tt.broadcast %21 : tensor<8x1xi32> -> tensor<8x128xi32> loc(#loc20)
    %23 = arith.addi %15, %22 : tensor<8x128xi32> loc(#loc20)
    %24 = arith.divsi %23, %cst : tensor<8x128xi32> loc(#loc21)
    %25 = arith.muli %24, %cst : tensor<8x128xi32> loc(#loc22)
    %26 = arith.addi %20, %25 : tensor<8x128xi32> loc(#loc23)
    %27 = arith.divsi %23, %cst_1 : tensor<8x128xi32> loc(#loc24)
    %28 = arith.remsi %27, %cst_2 : tensor<8x128xi32> loc(#loc25)
    %29 = arith.addi %26, %28 : tensor<8x128xi32> loc(#loc26)
    %30 = tt.splat %arg0 : !tt.ptr<f32> -> tensor<8x128x!tt.ptr<f32>> loc(#loc27)
    %31 = tt.addptr %30, %29 : tensor<8x128x!tt.ptr<f32>>, tensor<8x128xi32> loc(#loc27)
    %32 = tt.load %31 evictionPolicy = evict_last : tensor<8x128x!tt.ptr<f32>> loc(#loc28)
    %33 = tt.splat %arg1 : !tt.ptr<f32> -> tensor<8x128x!tt.ptr<f32>> loc(#loc29)
    %34 = tt.addptr %33, %29 : tensor<8x128x!tt.ptr<f32>>, tensor<8x128xi32> loc(#loc29)
    %35 = tt.load %34 evictionPolicy = evict_last : tensor<8x128x!tt.ptr<f32>> loc(#loc30)
    %36 = arith.subf %32, %35 : tensor<8x128xf32> loc(#loc31)
    %37 = math.absf %36 : tensor<8x128xf32> loc(#loc32)
    %38 = "tt.reduce"(%37) <{axis = 1 : i32}> ({
    ^bb0(%arg5: f32 loc(callsite(#loc1 at #loc34)), %arg6: f32 loc(callsite(#loc1 at #loc34))):
      %42 = arith.addf %arg5, %arg6 : f32 loc(#loc43)
      tt.reduce.return %42 : f32 loc(#loc40)
    }) : (tensor<8x128xf32>) -> tensor<8xf32> loc(#loc40)
    %39 = tt.expand_dims %38 {axis = 1 : i32} : tensor<8xf32> -> tensor<8x1xf32> loc(#loc36)
    %40 = tt.splat %arg2 : !tt.ptr<f32> -> tensor<8x1x!tt.ptr<f32>> loc(#loc37)
    %41 = tt.addptr %40, %5 : tensor<8x1x!tt.ptr<f32>>, tensor<8x1xi32> loc(#loc37)
    tt.store %41, %39 : tensor<8x1x!tt.ptr<f32>> loc(#loc38)
    tt.return loc(#loc39)
  } loc(#loc)
} loc(#loc)
#loc2 = loc("inductor_cache/ja/cja6rr7syjuu5ejhimstweh2m3zi4aetp23dkoxyy7vlkko4punz.py":23:28)
#loc3 = loc("inductor_cache/ja/cja6rr7syjuu5ejhimstweh2m3zi4aetp23dkoxyy7vlkko4punz.py":23:33)
#loc4 = loc("inductor_cache/ja/cja6rr7syjuu5ejhimstweh2m3zi4aetp23dkoxyy7vlkko4punz.py":24:36)
#loc5 = loc("inductor_cache/ja/cja6rr7syjuu5ejhimstweh2m3zi4aetp23dkoxyy7vlkko4punz.py":24:44)
#loc6 = loc("inductor_cache/ja/cja6rr7syjuu5ejhimstweh2m3zi4aetp23dkoxyy7vlkko4punz.py":24:23)
#loc7 = loc("inductor_cache/ja/cja6rr7syjuu5ejhimstweh2m3zi4aetp23dkoxyy7vlkko4punz.py":26:26)
#loc8 = loc("inductor_cache/ja/cja6rr7syjuu5ejhimstweh2m3zi4aetp23dkoxyy7vlkko4punz.py":26:34)
#loc9 = loc("inductor_cache/ja/cja6rr7syjuu5ejhimstweh2m3zi4aetp23dkoxyy7vlkko4punz.py":30:19)
#loc10 = loc("inductor_cache/ja/cja6rr7syjuu5ejhimstweh2m3zi4aetp23dkoxyy7vlkko4punz.py":31:19)
#loc11 = loc("inductor_cache/ja/cja6rr7syjuu5ejhimstweh2m3zi4aetp23dkoxyy7vlkko4punz.py":33:40)
#loc12 = loc("inductor_cache/ja/cja6rr7syjuu5ejhimstweh2m3zi4aetp23dkoxyy7vlkko4punz.py":33:35)
#loc13 = loc("inductor_cache/ja/cja6rr7syjuu5ejhimstweh2m3zi4aetp23dkoxyy7vlkko4punz.py":33:65)
#loc14 = loc("inductor_cache/ja/cja6rr7syjuu5ejhimstweh2m3zi4aetp23dkoxyy7vlkko4punz.py":33:61)
#loc15 = loc("inductor_cache/ja/cja6rr7syjuu5ejhimstweh2m3zi4aetp23dkoxyy7vlkko4punz.py":33:72)
#loc16 = loc("inductor_cache/ja/cja6rr7syjuu5ejhimstweh2m3zi4aetp23dkoxyy7vlkko4punz.py":33:78)
#loc17 = loc("inductor_cache/ja/cja6rr7syjuu5ejhimstweh2m3zi4aetp23dkoxyy7vlkko4punz.py":33:54)
#loc18 = loc("inductor_cache/ja/cja6rr7syjuu5ejhimstweh2m3zi4aetp23dkoxyy7vlkko4punz.py":33:47)
#loc19 = loc("inductor_cache/ja/cja6rr7syjuu5ejhimstweh2m3zi4aetp23dkoxyy7vlkko4punz.py":33:113)
#loc20 = loc("inductor_cache/ja/cja6rr7syjuu5ejhimstweh2m3zi4aetp23dkoxyy7vlkko4punz.py":33:108)
#loc21 = loc("inductor_cache/ja/cja6rr7syjuu5ejhimstweh2m3zi4aetp23dkoxyy7vlkko4punz.py":33:120)
#loc22 = loc("inductor_cache/ja/cja6rr7syjuu5ejhimstweh2m3zi4aetp23dkoxyy7vlkko4punz.py":33:93)
#loc23 = loc("inductor_cache/ja/cja6rr7syjuu5ejhimstweh2m3zi4aetp23dkoxyy7vlkko4punz.py":33:85)
#loc24 = loc("inductor_cache/ja/cja6rr7syjuu5ejhimstweh2m3zi4aetp23dkoxyy7vlkko4punz.py":33:160)
#loc25 = loc("inductor_cache/ja/cja6rr7syjuu5ejhimstweh2m3zi4aetp23dkoxyy7vlkko4punz.py":33:168)
#loc26 = loc("inductor_cache/ja/cja6rr7syjuu5ejhimstweh2m3zi4aetp23dkoxyy7vlkko4punz.py":33:132)
#loc27 = loc("inductor_cache/ja/cja6rr7syjuu5ejhimstweh2m3zi4aetp23dkoxyy7vlkko4punz.py":33:30)
#loc28 = loc("inductor_cache/ja/cja6rr7syjuu5ejhimstweh2m3zi4aetp23dkoxyy7vlkko4punz.py":33:175)
#loc29 = loc("inductor_cache/ja/cja6rr7syjuu5ejhimstweh2m3zi4aetp23dkoxyy7vlkko4punz.py":34:30)
#loc30 = loc("inductor_cache/ja/cja6rr7syjuu5ejhimstweh2m3zi4aetp23dkoxyy7vlkko4punz.py":34:175)
#loc31 = loc("inductor_cache/ja/cja6rr7syjuu5ejhimstweh2m3zi4aetp23dkoxyy7vlkko4punz.py":35:18)
#loc32 = loc("inductor_cache/ja/cja6rr7syjuu5ejhimstweh2m3zi4aetp23dkoxyy7vlkko4punz.py":36:23)
#loc33 = loc("/home/sahanp/.conda/envs/parity-bench/lib/python3.12/site-packages/triton/language/standard.py":267:36)
#loc35 = loc("/home/sahanp/.conda/envs/parity-bench/lib/python3.12/site-packages/triton/language/standard.py":256:15)
#loc36 = loc("inductor_cache/ja/cja6rr7syjuu5ejhimstweh2m3zi4aetp23dkoxyy7vlkko4punz.py":38:27)
#loc37 = loc("inductor_cache/ja/cja6rr7syjuu5ejhimstweh2m3zi4aetp23dkoxyy7vlkko4punz.py":39:25)
#loc38 = loc("inductor_cache/ja/cja6rr7syjuu5ejhimstweh2m3zi4aetp23dkoxyy7vlkko4punz.py":39:36)
#loc39 = loc("inductor_cache/ja/cja6rr7syjuu5ejhimstweh2m3zi4aetp23dkoxyy7vlkko4punz.py":39:4)
#loc40 = loc(callsite(#loc33 at #loc34))
#loc42 = loc(callsite(#loc35 at #loc33))
#loc43 = loc(callsite(#loc42 at #loc34))
