#loc = loc("inductor_cache/ch/cchrdgmyqwefldx5vyn63jojsyqlhxqvvrcrt26pk6iakfjqtg7f.py":19:0)
module {
  tt.func public @triton_poi_fused_convolution_leaky_relu_44(%arg0: !tt.ptr<f32> {tt.divisibility = 16 : i32} loc("inductor_cache/ch/cchrdgmyqwefldx5vyn63jojsyqlhxqvvrcrt26pk6iakfjqtg7f.py":19:0), %arg1: !tt.ptr<f32> {tt.divisibility = 16 : i32} loc("inductor_cache/ch/cchrdgmyqwefldx5vyn63jojsyqlhxqvvrcrt26pk6iakfjqtg7f.py":19:0), %arg2: !tt.ptr<i1> {tt.divisibility = 16 : i32} loc("inductor_cache/ch/cchrdgmyqwefldx5vyn63jojsyqlhxqvvrcrt26pk6iakfjqtg7f.py":19:0), %arg3: i32 {tt.divisibility = 16 : i32} loc("inductor_cache/ch/cchrdgmyqwefldx5vyn63jojsyqlhxqvvrcrt26pk6iakfjqtg7f.py":19:0)) attributes {noinline = false} {
    %cst = arith.constant dense<1.000000e-01> : tensor<128xf32> loc(#loc1)
    %cst_0 = arith.constant dense<0.000000e+00> : tensor<128xf32> loc(#loc1)
    %cst_1 = arith.constant dense<512> : tensor<128xi32> loc(#loc1)
    %cst_2 = arith.constant dense<2048> : tensor<128xi32> loc(#loc1)
    %c128_i32 = arith.constant 128 : i32 loc(#loc1)
    %0 = tt.get_program_id x : i32 loc(#loc2)
    %1 = arith.muli %0, %c128_i32 : i32 loc(#loc3)
    %2 = tt.make_range {end = 128 : i32, start = 0 : i32} : tensor<128xi32> loc(#loc4)
    %3 = tt.splat %1 : i32 -> tensor<128xi32> loc(#loc5)
    %4 = arith.addi %3, %2 : tensor<128xi32> loc(#loc5)
    %5 = arith.cmpi slt, %4, %cst_2 : tensor<128xi32> loc(#loc6)
    %6 = arith.remsi %4, %cst_1 : tensor<128xi32> loc(#loc7)
    %7 = tt.splat %arg0 : !tt.ptr<f32> -> tensor<128x!tt.ptr<f32>> loc(#loc8)
    %8 = tt.addptr %7, %4 : tensor<128x!tt.ptr<f32>>, tensor<128xi32> loc(#loc8)
    %9 = tt.load %8, %5 : tensor<128x!tt.ptr<f32>> loc(#loc9)
    %10 = tt.splat %arg1 : !tt.ptr<f32> -> tensor<128x!tt.ptr<f32>> loc(#loc10)
    %11 = tt.addptr %10, %6 : tensor<128x!tt.ptr<f32>>, tensor<128xi32> loc(#loc10)
    %12 = tt.load %11, %5 evictionPolicy = evict_last : tensor<128x!tt.ptr<f32>> loc(#loc11)
    %13 = arith.addf %9, %12 : tensor<128xf32> loc(#loc12)
    %14 = arith.cmpf ogt, %13, %cst_0 : tensor<128xf32> loc(#loc13)
    %15 = arith.mulf %13, %cst : tensor<128xf32> loc(#loc14)
    %16 = arith.select %14, %13, %15 : tensor<128xi1>, tensor<128xf32> loc(#loc15)
    %17 = tt.splat %arg2 : !tt.ptr<i1> -> tensor<128x!tt.ptr<i1>> loc(#loc16)
    %18 = tt.addptr %17, %4 : tensor<128x!tt.ptr<i1>>, tensor<128xi32> loc(#loc16)
    %19 = tt.bitcast %18 : tensor<128x!tt.ptr<i1>> -> tensor<128x!tt.ptr<i8>> loc(#loc17)
    %20 = arith.extui %14 : tensor<128xi1> to tensor<128xi8> loc(#loc17)
    tt.store %19, %20, %5 : tensor<128x!tt.ptr<i8>> loc(#loc17)
    tt.store %8, %16, %5 : tensor<128x!tt.ptr<f32>> loc(#loc18)
    tt.return loc(#loc19)
  } loc(#loc)
} loc(#loc)
#loc1 = loc(unknown)
#loc2 = loc("inductor_cache/ch/cchrdgmyqwefldx5vyn63jojsyqlhxqvvrcrt26pk6iakfjqtg7f.py":21:28)
#loc3 = loc("inductor_cache/ch/cchrdgmyqwefldx5vyn63jojsyqlhxqvvrcrt26pk6iakfjqtg7f.py":21:33)
#loc4 = loc("inductor_cache/ch/cchrdgmyqwefldx5vyn63jojsyqlhxqvvrcrt26pk6iakfjqtg7f.py":22:36)
#loc5 = loc("inductor_cache/ch/cchrdgmyqwefldx5vyn63jojsyqlhxqvvrcrt26pk6iakfjqtg7f.py":22:23)
#loc6 = loc("inductor_cache/ch/cchrdgmyqwefldx5vyn63jojsyqlhxqvvrcrt26pk6iakfjqtg7f.py":23:21)
#loc7 = loc("inductor_cache/ch/cchrdgmyqwefldx5vyn63jojsyqlhxqvvrcrt26pk6iakfjqtg7f.py":25:19)
#loc8 = loc("inductor_cache/ch/cchrdgmyqwefldx5vyn63jojsyqlhxqvvrcrt26pk6iakfjqtg7f.py":26:34)
#loc9 = loc("inductor_cache/ch/cchrdgmyqwefldx5vyn63jojsyqlhxqvvrcrt26pk6iakfjqtg7f.py":26:39)
#loc10 = loc("inductor_cache/ch/cchrdgmyqwefldx5vyn63jojsyqlhxqvvrcrt26pk6iakfjqtg7f.py":27:30)
#loc11 = loc("inductor_cache/ch/cchrdgmyqwefldx5vyn63jojsyqlhxqvvrcrt26pk6iakfjqtg7f.py":27:35)
#loc12 = loc("inductor_cache/ch/cchrdgmyqwefldx5vyn63jojsyqlhxqvvrcrt26pk6iakfjqtg7f.py":28:18)
#loc13 = loc("inductor_cache/ch/cchrdgmyqwefldx5vyn63jojsyqlhxqvvrcrt26pk6iakfjqtg7f.py":30:18)
#loc14 = loc("inductor_cache/ch/cchrdgmyqwefldx5vyn63jojsyqlhxqvvrcrt26pk6iakfjqtg7f.py":32:18)
#loc15 = loc("inductor_cache/ch/cchrdgmyqwefldx5vyn63jojsyqlhxqvvrcrt26pk6iakfjqtg7f.py":33:32)
#loc16 = loc("inductor_cache/ch/cchrdgmyqwefldx5vyn63jojsyqlhxqvvrcrt26pk6iakfjqtg7f.py":34:25)
#loc17 = loc("inductor_cache/ch/cchrdgmyqwefldx5vyn63jojsyqlhxqvvrcrt26pk6iakfjqtg7f.py":34:36)
#loc18 = loc("inductor_cache/ch/cchrdgmyqwefldx5vyn63jojsyqlhxqvvrcrt26pk6iakfjqtg7f.py":35:39)
#loc19 = loc("inductor_cache/ch/cchrdgmyqwefldx5vyn63jojsyqlhxqvvrcrt26pk6iakfjqtg7f.py":35:4)
