#loc = loc("inductor_cache/cf/ccfdmyi4onvx3j6xnoyfr2yismez2x5a47rjitodlcwlldz4rhun.py":19:0)
module {
  tt.func public @triton_poi_fused_add_mul_13(%arg0: !tt.ptr<f32> {tt.divisibility = 16 : i32} loc("inductor_cache/cf/ccfdmyi4onvx3j6xnoyfr2yismez2x5a47rjitodlcwlldz4rhun.py":19:0), %arg1: !tt.ptr<f32> {tt.divisibility = 16 : i32} loc("inductor_cache/cf/ccfdmyi4onvx3j6xnoyfr2yismez2x5a47rjitodlcwlldz4rhun.py":19:0), %arg2: !tt.ptr<f32> {tt.divisibility = 16 : i32} loc("inductor_cache/cf/ccfdmyi4onvx3j6xnoyfr2yismez2x5a47rjitodlcwlldz4rhun.py":19:0), %arg3: i32 {tt.divisibility = 16 : i32} loc("inductor_cache/cf/ccfdmyi4onvx3j6xnoyfr2yismez2x5a47rjitodlcwlldz4rhun.py":19:0)) attributes {noinline = false} {
    %cst = arith.constant dense<0.000000e+00> : tensor<128xf32> loc(#loc1)
    %cst_0 = arith.constant dense<1.000000e+00> : tensor<128xf32> loc(#loc1)
    %cst_1 = arith.constant dense<16> : tensor<128xi32> loc(#loc1)
    %cst_2 = arith.constant dense<256> : tensor<128xi32> loc(#loc1)
    %c128_i32 = arith.constant 128 : i32 loc(#loc1)
    %0 = tt.get_program_id x : i32 loc(#loc2)
    %1 = arith.muli %0, %c128_i32 : i32 loc(#loc3)
    %2 = tt.make_range {end = 128 : i32, start = 0 : i32} : tensor<128xi32> loc(#loc4)
    %3 = tt.splat %1 : i32 -> tensor<128xi32> loc(#loc5)
    %4 = arith.addi %3, %2 : tensor<128xi32> loc(#loc5)
    %5 = arith.cmpi slt, %4, %cst_2 : tensor<128xi32> loc(#loc6)
    %6 = arith.divsi %4, %cst_1 : tensor<128xi32> loc(#loc7)
    %7 = tt.splat %arg0 : !tt.ptr<f32> -> tensor<128x!tt.ptr<f32>> loc(#loc8)
    %8 = tt.addptr %7, %4 : tensor<128x!tt.ptr<f32>>, tensor<128xi32> loc(#loc8)
    %9 = tt.load %8, %5 : tensor<128x!tt.ptr<f32>> loc(#loc9)
    %10 = tt.splat %arg1 : !tt.ptr<f32> -> tensor<128x!tt.ptr<f32>> loc(#loc10)
    %11 = tt.addptr %10, %6 : tensor<128x!tt.ptr<f32>>, tensor<128xi32> loc(#loc10)
    %12 = tt.load %11, %5 evictionPolicy = evict_last : tensor<128x!tt.ptr<f32>> loc(#loc11)
    %13 = arith.subf %cst, %12 : tensor<128xf32> loc(#loc22)
    %14 = math.exp %13 : tensor<128xf32> loc(#loc23)
    %15 = arith.addf %14, %cst_0 : tensor<128xf32> loc(#loc24)
    %16 = arith.divf %cst_0, %15 : tensor<128xf32> loc(#loc25)
    %17 = arith.mulf %9, %16 : tensor<128xf32> loc(#loc17)
    %18 = arith.addf %17, %9 : tensor<128xf32> loc(#loc18)
    %19 = tt.splat %arg2 : !tt.ptr<f32> -> tensor<128x!tt.ptr<f32>> loc(#loc19)
    %20 = tt.addptr %19, %4 : tensor<128x!tt.ptr<f32>>, tensor<128xi32> loc(#loc19)
    tt.store %20, %18, %5 : tensor<128x!tt.ptr<f32>> loc(#loc20)
    tt.return loc(#loc21)
  } loc(#loc)
} loc(#loc)
#loc1 = loc(unknown)
#loc2 = loc("inductor_cache/cf/ccfdmyi4onvx3j6xnoyfr2yismez2x5a47rjitodlcwlldz4rhun.py":21:28)
#loc3 = loc("inductor_cache/cf/ccfdmyi4onvx3j6xnoyfr2yismez2x5a47rjitodlcwlldz4rhun.py":21:33)
#loc4 = loc("inductor_cache/cf/ccfdmyi4onvx3j6xnoyfr2yismez2x5a47rjitodlcwlldz4rhun.py":22:36)
#loc5 = loc("inductor_cache/cf/ccfdmyi4onvx3j6xnoyfr2yismez2x5a47rjitodlcwlldz4rhun.py":22:23)
#loc6 = loc("inductor_cache/cf/ccfdmyi4onvx3j6xnoyfr2yismez2x5a47rjitodlcwlldz4rhun.py":23:21)
#loc7 = loc("inductor_cache/cf/ccfdmyi4onvx3j6xnoyfr2yismez2x5a47rjitodlcwlldz4rhun.py":25:19)
#loc8 = loc("inductor_cache/cf/ccfdmyi4onvx3j6xnoyfr2yismez2x5a47rjitodlcwlldz4rhun.py":26:30)
#loc9 = loc("inductor_cache/cf/ccfdmyi4onvx3j6xnoyfr2yismez2x5a47rjitodlcwlldz4rhun.py":26:35)
#loc10 = loc("inductor_cache/cf/ccfdmyi4onvx3j6xnoyfr2yismez2x5a47rjitodlcwlldz4rhun.py":27:30)
#loc11 = loc("inductor_cache/cf/ccfdmyi4onvx3j6xnoyfr2yismez2x5a47rjitodlcwlldz4rhun.py":27:35)
#loc12 = loc("/home/sahanp/.conda/envs/parity-bench/lib/python3.12/site-packages/triton/language/standard.py":47:30)
#loc13 = loc("inductor_cache/cf/ccfdmyi4onvx3j6xnoyfr2yismez2x5a47rjitodlcwlldz4rhun.py":28:22)
#loc14 = loc("/home/sahanp/.conda/envs/parity-bench/lib/python3.12/site-packages/triton/language/standard.py":47:29)
#loc15 = loc("/home/sahanp/.conda/envs/parity-bench/lib/python3.12/site-packages/triton/language/standard.py":47:20)
#loc16 = loc("/home/sahanp/.conda/envs/parity-bench/lib/python3.12/site-packages/triton/language/standard.py":47:16)
#loc17 = loc("inductor_cache/cf/ccfdmyi4onvx3j6xnoyfr2yismez2x5a47rjitodlcwlldz4rhun.py":29:18)
#loc18 = loc("inductor_cache/cf/ccfdmyi4onvx3j6xnoyfr2yismez2x5a47rjitodlcwlldz4rhun.py":30:18)
#loc19 = loc("inductor_cache/cf/ccfdmyi4onvx3j6xnoyfr2yismez2x5a47rjitodlcwlldz4rhun.py":31:25)
#loc20 = loc("inductor_cache/cf/ccfdmyi4onvx3j6xnoyfr2yismez2x5a47rjitodlcwlldz4rhun.py":31:36)
#loc21 = loc("inductor_cache/cf/ccfdmyi4onvx3j6xnoyfr2yismez2x5a47rjitodlcwlldz4rhun.py":31:4)
#loc22 = loc(callsite(#loc12 at #loc13))
#loc23 = loc(callsite(#loc14 at #loc13))
#loc24 = loc(callsite(#loc15 at #loc13))
#loc25 = loc(callsite(#loc16 at #loc13))
