#loc = loc("inductor_cache/44/c44dxcxm3ws4vhjk4j5c3khip3vnhch3vxdvpahk7njs63z2q2s3.py":19:0)
#loc1 = loc(unknown)
#loc19 = loc("inductor_cache/44/c44dxcxm3ws4vhjk4j5c3khip3vnhch3vxdvpahk7njs63z2q2s3.py":36:24)
#loc26 = loc(callsite(#loc1 at #loc19))
module {
  tt.func public @triton_per_fused_mv_0(%arg0: !tt.ptr<f32> {tt.divisibility = 16 : i32} loc("inductor_cache/44/c44dxcxm3ws4vhjk4j5c3khip3vnhch3vxdvpahk7njs63z2q2s3.py":19:0), %arg1: !tt.ptr<f32> {tt.divisibility = 16 : i32} loc("inductor_cache/44/c44dxcxm3ws4vhjk4j5c3khip3vnhch3vxdvpahk7njs63z2q2s3.py":19:0), %arg2: !tt.ptr<f32> {tt.divisibility = 16 : i32} loc("inductor_cache/44/c44dxcxm3ws4vhjk4j5c3khip3vnhch3vxdvpahk7njs63z2q2s3.py":19:0), %arg3: i32 {tt.divisibility = 16 : i32} loc("inductor_cache/44/c44dxcxm3ws4vhjk4j5c3khip3vnhch3vxdvpahk7njs63z2q2s3.py":19:0), %arg4: i32 {tt.divisibility = 16 : i32} loc("inductor_cache/44/c44dxcxm3ws4vhjk4j5c3khip3vnhch3vxdvpahk7njs63z2q2s3.py":19:0)) attributes {noinline = false} {
    %cst = arith.constant dense<0.000000e+00> : tensor<32x64xf32> loc(#loc1)
    %cst_0 = arith.constant dense<48> : tensor<1x64xi32> loc(#loc1)
    %cst_1 = arith.constant dense<48> : tensor<32x1xi32> loc(#loc1)
    %c32_i32 = arith.constant 32 : i32 loc(#loc1)
    %0 = tt.get_program_id x : i32 loc(#loc2)
    %1 = arith.muli %0, %c32_i32 : i32 loc(#loc3)
    %2 = tt.make_range {end = 32 : i32, start = 0 : i32} : tensor<32xi32> loc(#loc4)
    %3 = tt.expand_dims %2 {axis = 1 : i32} : tensor<32xi32> -> tensor<32x1xi32> loc(#loc5)
    %4 = tt.splat %1 : i32 -> tensor<32x1xi32> loc(#loc6)
    %5 = arith.addi %4, %3 : tensor<32x1xi32> loc(#loc6)
    %6 = arith.cmpi slt, %5, %cst_1 : tensor<32x1xi32> loc(#loc7)
    %7 = tt.make_range {end = 64 : i32, start = 0 : i32} : tensor<64xi32> loc(#loc8)
    %8 = tt.expand_dims %7 {axis = 0 : i32} : tensor<64xi32> -> tensor<1x64xi32> loc(#loc9)
    %9 = arith.muli %8, %cst_0 : tensor<1x64xi32> loc(#loc10)
    %10 = tt.broadcast %5 : tensor<32x1xi32> -> tensor<32x64xi32> loc(#loc11)
    %11 = tt.broadcast %9 : tensor<1x64xi32> -> tensor<32x64xi32> loc(#loc11)
    %12 = arith.addi %10, %11 : tensor<32x64xi32> loc(#loc11)
    %13 = tt.splat %arg0 : !tt.ptr<f32> -> tensor<32x64x!tt.ptr<f32>> loc(#loc12)
    %14 = tt.addptr %13, %12 : tensor<32x64x!tt.ptr<f32>>, tensor<32x64xi32> loc(#loc12)
    %15 = tt.broadcast %6 : tensor<32x1xi1> -> tensor<32x64xi1> loc(#loc13)
    %16 = tt.load %14, %15, %cst : tensor<32x64x!tt.ptr<f32>> loc(#loc13)
    %17 = tt.splat %arg1 : !tt.ptr<f32> -> tensor<1x64x!tt.ptr<f32>> loc(#loc14)
    %18 = tt.addptr %17, %8 : tensor<1x64x!tt.ptr<f32>>, tensor<1x64xi32> loc(#loc14)
    %19 = tt.load %18 evictionPolicy = evict_last : tensor<1x64x!tt.ptr<f32>> loc(#loc15)
    %20 = tt.broadcast %19 : tensor<1x64xf32> -> tensor<32x64xf32> loc(#loc16)
    %21 = arith.mulf %16, %20 : tensor<32x64xf32> loc(#loc16)
    %22 = arith.select %15, %21, %cst : tensor<32x64xi1>, tensor<32x64xf32> loc(#loc17)
    %23 = "tt.reduce"(%22) <{axis = 1 : i32}> ({
    ^bb0(%arg5: f32 loc(callsite(#loc1 at #loc19)), %arg6: f32 loc(callsite(#loc1 at #loc19))):
      %27 = arith.addf %arg5, %arg6 : f32 loc(#loc28)
      tt.reduce.return %27 : f32 loc(#loc25)
    }) : (tensor<32x64xf32>) -> tensor<32xf32> loc(#loc25)
    %24 = tt.expand_dims %23 {axis = 1 : i32} : tensor<32xf32> -> tensor<32x1xf32> loc(#loc21)
    %25 = tt.splat %arg2 : !tt.ptr<f32> -> tensor<32x1x!tt.ptr<f32>> loc(#loc22)
    %26 = tt.addptr %25, %5 : tensor<32x1x!tt.ptr<f32>>, tensor<32x1xi32> loc(#loc22)
    tt.store %26, %24, %6 : tensor<32x1x!tt.ptr<f32>> loc(#loc23)
    tt.return loc(#loc24)
  } loc(#loc)
} loc(#loc)
#loc2 = loc("inductor_cache/44/c44dxcxm3ws4vhjk4j5c3khip3vnhch3vxdvpahk7njs63z2q2s3.py":23:28)
#loc3 = loc("inductor_cache/44/c44dxcxm3ws4vhjk4j5c3khip3vnhch3vxdvpahk7njs63z2q2s3.py":23:33)
#loc4 = loc("inductor_cache/44/c44dxcxm3ws4vhjk4j5c3khip3vnhch3vxdvpahk7njs63z2q2s3.py":24:36)
#loc5 = loc("inductor_cache/44/c44dxcxm3ws4vhjk4j5c3khip3vnhch3vxdvpahk7njs63z2q2s3.py":24:44)
#loc6 = loc("inductor_cache/44/c44dxcxm3ws4vhjk4j5c3khip3vnhch3vxdvpahk7njs63z2q2s3.py":24:23)
#loc7 = loc("inductor_cache/44/c44dxcxm3ws4vhjk4j5c3khip3vnhch3vxdvpahk7njs63z2q2s3.py":25:21)
#loc8 = loc("inductor_cache/44/c44dxcxm3ws4vhjk4j5c3khip3vnhch3vxdvpahk7njs63z2q2s3.py":26:26)
#loc9 = loc("inductor_cache/44/c44dxcxm3ws4vhjk4j5c3khip3vnhch3vxdvpahk7njs63z2q2s3.py":26:34)
#loc10 = loc("inductor_cache/44/c44dxcxm3ws4vhjk4j5c3khip3vnhch3vxdvpahk7njs63z2q2s3.py":31:38)
#loc11 = loc("inductor_cache/44/c44dxcxm3ws4vhjk4j5c3khip3vnhch3vxdvpahk7njs63z2q2s3.py":31:35)
#loc12 = loc("inductor_cache/44/c44dxcxm3ws4vhjk4j5c3khip3vnhch3vxdvpahk7njs63z2q2s3.py":31:30)
#loc13 = loc("inductor_cache/44/c44dxcxm3ws4vhjk4j5c3khip3vnhch3vxdvpahk7njs63z2q2s3.py":31:43)
#loc14 = loc("inductor_cache/44/c44dxcxm3ws4vhjk4j5c3khip3vnhch3vxdvpahk7njs63z2q2s3.py":32:30)
#loc15 = loc("inductor_cache/44/c44dxcxm3ws4vhjk4j5c3khip3vnhch3vxdvpahk7njs63z2q2s3.py":32:35)
#loc16 = loc("inductor_cache/44/c44dxcxm3ws4vhjk4j5c3khip3vnhch3vxdvpahk7njs63z2q2s3.py":33:18)
#loc17 = loc("inductor_cache/44/c44dxcxm3ws4vhjk4j5c3khip3vnhch3vxdvpahk7njs63z2q2s3.py":35:33)
#loc18 = loc("/home/sahanp/.conda/envs/parity-bench/lib/python3.12/site-packages/triton/language/standard.py":267:36)
#loc20 = loc("/home/sahanp/.conda/envs/parity-bench/lib/python3.12/site-packages/triton/language/standard.py":256:15)
#loc21 = loc("inductor_cache/44/c44dxcxm3ws4vhjk4j5c3khip3vnhch3vxdvpahk7njs63z2q2s3.py":36:27)
#loc22 = loc("inductor_cache/44/c44dxcxm3ws4vhjk4j5c3khip3vnhch3vxdvpahk7njs63z2q2s3.py":37:25)
#loc23 = loc("inductor_cache/44/c44dxcxm3ws4vhjk4j5c3khip3vnhch3vxdvpahk7njs63z2q2s3.py":37:36)
#loc24 = loc("inductor_cache/44/c44dxcxm3ws4vhjk4j5c3khip3vnhch3vxdvpahk7njs63z2q2s3.py":37:4)
#loc25 = loc(callsite(#loc18 at #loc19))
#loc27 = loc(callsite(#loc20 at #loc18))
#loc28 = loc(callsite(#loc27 at #loc19))
