#loc = loc("inductor_cache/lz/clzpolstw6frjxjocjwxt55wffcvx43kpm6r3ytunzsxd3xu23qm.py":19:0)
module {
  tt.func public @triton_poi_fused_convolution_gelu_22(%arg0: !tt.ptr<f32> {tt.divisibility = 16 : i32} loc("inductor_cache/lz/clzpolstw6frjxjocjwxt55wffcvx43kpm6r3ytunzsxd3xu23qm.py":19:0), %arg1: !tt.ptr<f32> {tt.divisibility = 16 : i32} loc("inductor_cache/lz/clzpolstw6frjxjocjwxt55wffcvx43kpm6r3ytunzsxd3xu23qm.py":19:0), %arg2: !tt.ptr<f32> {tt.divisibility = 16 : i32} loc("inductor_cache/lz/clzpolstw6frjxjocjwxt55wffcvx43kpm6r3ytunzsxd3xu23qm.py":19:0), %arg3: i32 {tt.divisibility = 16 : i32} loc("inductor_cache/lz/clzpolstw6frjxjocjwxt55wffcvx43kpm6r3ytunzsxd3xu23qm.py":19:0)) attributes {noinline = false} {
    %cst = arith.constant dense<1.000000e+00> : tensor<1024xf32> loc(#loc1)
    %cst_0 = arith.constant dense<0.707106769> : tensor<1024xf32> loc(#loc1)
    %cst_1 = arith.constant dense<5.000000e-01> : tensor<1024xf32> loc(#loc1)
    %cst_2 = arith.constant dense<2048> : tensor<1024xi32> loc(#loc1)
    %c1024_i32 = arith.constant 1024 : i32 loc(#loc1)
    %0 = tt.get_program_id x : i32 loc(#loc2)
    %1 = arith.muli %0, %c1024_i32 : i32 loc(#loc3)
    %2 = tt.make_range {end = 1024 : i32, start = 0 : i32} : tensor<1024xi32> loc(#loc4)
    %3 = tt.splat %1 : i32 -> tensor<1024xi32> loc(#loc5)
    %4 = arith.addi %3, %2 : tensor<1024xi32> loc(#loc5)
    %5 = arith.remsi %4, %cst_2 : tensor<1024xi32> loc(#loc6)
    %6 = tt.splat %arg0 : !tt.ptr<f32> -> tensor<1024x!tt.ptr<f32>> loc(#loc7)
    %7 = tt.addptr %6, %4 : tensor<1024x!tt.ptr<f32>>, tensor<1024xi32> loc(#loc7)
    %8 = tt.load %7 : tensor<1024x!tt.ptr<f32>> loc(#loc8)
    %9 = tt.splat %arg1 : !tt.ptr<f32> -> tensor<1024x!tt.ptr<f32>> loc(#loc9)
    %10 = tt.addptr %9, %5 : tensor<1024x!tt.ptr<f32>>, tensor<1024xi32> loc(#loc9)
    %11 = tt.load %10 evictionPolicy = evict_last : tensor<1024x!tt.ptr<f32>> loc(#loc10)
    %12 = arith.addf %8, %11 : tensor<1024xf32> loc(#loc11)
    %13 = arith.mulf %12, %cst_1 : tensor<1024xf32> loc(#loc12)
    %14 = arith.mulf %12, %cst_0 : tensor<1024xf32> loc(#loc13)
    %15 = tt.extern_elementwise %14 {libname = "", libpath = "", pure = true, symbol = "__nv_erff"} : (tensor<1024xf32>) -> tensor<1024xf32> loc(#loc14)
    %16 = arith.addf %15, %cst : tensor<1024xf32> loc(#loc15)
    %17 = arith.mulf %13, %16 : tensor<1024xf32> loc(#loc16)
    tt.store %7, %12 : tensor<1024x!tt.ptr<f32>> loc(#loc17)
    %18 = tt.splat %arg2 : !tt.ptr<f32> -> tensor<1024x!tt.ptr<f32>> loc(#loc18)
    %19 = tt.addptr %18, %4 : tensor<1024x!tt.ptr<f32>>, tensor<1024xi32> loc(#loc18)
    tt.store %19, %17 : tensor<1024x!tt.ptr<f32>> loc(#loc19)
    tt.return loc(#loc20)
  } loc(#loc)
} loc(#loc)
#loc1 = loc(unknown)
#loc2 = loc("inductor_cache/lz/clzpolstw6frjxjocjwxt55wffcvx43kpm6r3ytunzsxd3xu23qm.py":21:28)
#loc3 = loc("inductor_cache/lz/clzpolstw6frjxjocjwxt55wffcvx43kpm6r3ytunzsxd3xu23qm.py":21:33)
#loc4 = loc("inductor_cache/lz/clzpolstw6frjxjocjwxt55wffcvx43kpm6r3ytunzsxd3xu23qm.py":22:36)
#loc5 = loc("inductor_cache/lz/clzpolstw6frjxjocjwxt55wffcvx43kpm6r3ytunzsxd3xu23qm.py":22:23)
#loc6 = loc("inductor_cache/lz/clzpolstw6frjxjocjwxt55wffcvx43kpm6r3ytunzsxd3xu23qm.py":25:19)
#loc7 = loc("inductor_cache/lz/clzpolstw6frjxjocjwxt55wffcvx43kpm6r3ytunzsxd3xu23qm.py":26:34)
#loc8 = loc("inductor_cache/lz/clzpolstw6frjxjocjwxt55wffcvx43kpm6r3ytunzsxd3xu23qm.py":26:39)
#loc9 = loc("inductor_cache/lz/clzpolstw6frjxjocjwxt55wffcvx43kpm6r3ytunzsxd3xu23qm.py":27:30)
#loc10 = loc("inductor_cache/lz/clzpolstw6frjxjocjwxt55wffcvx43kpm6r3ytunzsxd3xu23qm.py":27:35)
#loc11 = loc("inductor_cache/lz/clzpolstw6frjxjocjwxt55wffcvx43kpm6r3ytunzsxd3xu23qm.py":28:18)
#loc12 = loc("inductor_cache/lz/clzpolstw6frjxjocjwxt55wffcvx43kpm6r3ytunzsxd3xu23qm.py":30:18)
#loc13 = loc("inductor_cache/lz/clzpolstw6frjxjocjwxt55wffcvx43kpm6r3ytunzsxd3xu23qm.py":32:18)
#loc14 = loc("inductor_cache/lz/clzpolstw6frjxjocjwxt55wffcvx43kpm6r3ytunzsxd3xu23qm.py":33:25)
#loc15 = loc("inductor_cache/lz/clzpolstw6frjxjocjwxt55wffcvx43kpm6r3ytunzsxd3xu23qm.py":35:18)
#loc16 = loc("inductor_cache/lz/clzpolstw6frjxjocjwxt55wffcvx43kpm6r3ytunzsxd3xu23qm.py":36:19)
#loc17 = loc("inductor_cache/lz/clzpolstw6frjxjocjwxt55wffcvx43kpm6r3ytunzsxd3xu23qm.py":37:39)
#loc18 = loc("inductor_cache/lz/clzpolstw6frjxjocjwxt55wffcvx43kpm6r3ytunzsxd3xu23qm.py":38:25)
#loc19 = loc("inductor_cache/lz/clzpolstw6frjxjocjwxt55wffcvx43kpm6r3ytunzsxd3xu23qm.py":38:37)
#loc20 = loc("inductor_cache/lz/clzpolstw6frjxjocjwxt55wffcvx43kpm6r3ytunzsxd3xu23qm.py":38:4)
