#loc = loc("inductor_cache/h3/ch36fpmiqgxln3ofwjhhkdl3sxyhspaztvv64jfivnw2typqxwk3.py":19:0)
module {
  tt.func public @triton_poi_fused_cat_66(%arg0: !tt.ptr<f32> {tt.divisibility = 16 : i32} loc("inductor_cache/h3/ch36fpmiqgxln3ofwjhhkdl3sxyhspaztvv64jfivnw2typqxwk3.py":19:0), %arg1: !tt.ptr<i64> {tt.divisibility = 16 : i32} loc("inductor_cache/h3/ch36fpmiqgxln3ofwjhhkdl3sxyhspaztvv64jfivnw2typqxwk3.py":19:0), %arg2: !tt.ptr<i64> {tt.divisibility = 16 : i32} loc("inductor_cache/h3/ch36fpmiqgxln3ofwjhhkdl3sxyhspaztvv64jfivnw2typqxwk3.py":19:0), %arg3: !tt.ptr<f32> {tt.divisibility = 16 : i32} loc("inductor_cache/h3/ch36fpmiqgxln3ofwjhhkdl3sxyhspaztvv64jfivnw2typqxwk3.py":19:0), %arg4: !tt.ptr<i64> {tt.divisibility = 16 : i32} loc("inductor_cache/h3/ch36fpmiqgxln3ofwjhhkdl3sxyhspaztvv64jfivnw2typqxwk3.py":19:0), %arg5: !tt.ptr<f32> {tt.divisibility = 16 : i32} loc("inductor_cache/h3/ch36fpmiqgxln3ofwjhhkdl3sxyhspaztvv64jfivnw2typqxwk3.py":19:0), %arg6: !tt.ptr<f32> {tt.divisibility = 16 : i32} loc("inductor_cache/h3/ch36fpmiqgxln3ofwjhhkdl3sxyhspaztvv64jfivnw2typqxwk3.py":19:0), %arg7: !tt.ptr<f32> {tt.divisibility = 16 : i32} loc("inductor_cache/h3/ch36fpmiqgxln3ofwjhhkdl3sxyhspaztvv64jfivnw2typqxwk3.py":19:0), %arg8: !tt.ptr<f32> {tt.divisibility = 16 : i32} loc("inductor_cache/h3/ch36fpmiqgxln3ofwjhhkdl3sxyhspaztvv64jfivnw2typqxwk3.py":19:0), %arg9: i32 {tt.divisibility = 16 : i32} loc("inductor_cache/h3/ch36fpmiqgxln3ofwjhhkdl3sxyhspaztvv64jfivnw2typqxwk3.py":19:0)) attributes {noinline = false} {
    %cst = arith.constant dense<0> : tensor<512xi64> loc(#loc1)
    %cst_0 = arith.constant dense<-64> : tensor<512xi32> loc(#loc1)
    %cst_1 = arith.constant dense<65536> : tensor<512xi32> loc(#loc1)
    %cst_2 = arith.constant dense<1024> : tensor<512xi32> loc(#loc1)
    %cst_3 = arith.constant dense<32> : tensor<512xi64> loc(#loc1)
    %cst_4 = arith.constant dense<0.000000e+00> : tensor<512xf32> loc(#loc1)
    %cst_5 = arith.constant dense<262144> : tensor<512xi32> loc(#loc1)
    %cst_6 = arith.constant dense<64> : tensor<512xi64> loc(#loc1)
    %cst_7 = arith.constant dense<64> : tensor<512xi32> loc(#loc1)
    %cst_8 = arith.constant dense<524288> : tensor<512xi32> loc(#loc1)
    %cst_9 = arith.constant dense<128> : tensor<512xi32> loc(#loc1)
    %cst_10 = arith.constant dense<4096> : tensor<512xi32> loc(#loc1)
    %c512_i32 = arith.constant 512 : i32 loc(#loc1)
    %0 = tt.get_program_id x : i32 loc(#loc2)
    %1 = arith.muli %0, %c512_i32 : i32 loc(#loc3)
    %2 = tt.make_range {end = 512 : i32, start = 0 : i32} : tensor<512xi32> loc(#loc4)
    %3 = tt.splat %1 : i32 -> tensor<512xi32> loc(#loc5)
    %4 = arith.addi %3, %2 : tensor<512xi32> loc(#loc5)
    %5 = arith.divsi %4, %cst_10 : tensor<512xi32> loc(#loc6)
    %6 = arith.remsi %5, %cst_9 : tensor<512xi32> loc(#loc7)
    %7 = arith.divsi %4, %cst_8 : tensor<512xi32> loc(#loc8)
    %8 = arith.remsi %4, %cst_10 : tensor<512xi32> loc(#loc9)
    %9 = arith.divsi %4, %cst_7 : tensor<512xi32> loc(#loc10)
    %10 = arith.remsi %9, %cst_7 : tensor<512xi32> loc(#loc11)
    %11 = arith.remsi %4, %cst_7 : tensor<512xi32> loc(#loc12)
    %12 = arith.extsi %6 : tensor<512xi32> to tensor<512xi64> loc(#loc13)
    %13 = arith.cmpi slt, %12, %cst_6 : tensor<512xi64> loc(#loc13)
    %14 = arith.muli %6, %cst_10 : tensor<512xi32> loc(#loc14)
    %15 = arith.addi %8, %14 : tensor<512xi32> loc(#loc15)
    %16 = arith.muli %7, %cst_5 : tensor<512xi32> loc(#loc16)
    %17 = arith.addi %15, %16 : tensor<512xi32> loc(#loc17)
    %18 = tt.splat %arg0 : !tt.ptr<f32> -> tensor<512x!tt.ptr<f32>> loc(#loc18)
    %19 = tt.addptr %18, %17 : tensor<512x!tt.ptr<f32>>, tensor<512xi32> loc(#loc18)
    %20 = tt.load %19, %13, %cst_4 : tensor<512x!tt.ptr<f32>> loc(#loc19)
    %21 = tt.splat %arg1 : !tt.ptr<i64> -> tensor<512x!tt.ptr<i64>> loc(#loc20)
    %22 = tt.addptr %21, %10 : tensor<512x!tt.ptr<i64>>, tensor<512xi32> loc(#loc20)
    %23 = tt.load %22, %13, %cst evictionPolicy = evict_last : tensor<512x!tt.ptr<i64>> loc(#loc21)
    %24 = arith.addi %23, %cst_3 : tensor<512xi64> loc(#loc22)
    %25 = arith.cmpi slt, %23, %cst : tensor<512xi64> loc(#loc23)
    %26 = arith.select %25, %24, %23 : tensor<512xi1>, tensor<512xi64> loc(#loc24)
    %27 = tt.splat %arg2 : !tt.ptr<i64> -> tensor<512x!tt.ptr<i64>> loc(#loc25)
    %28 = tt.addptr %27, %11 : tensor<512x!tt.ptr<i64>>, tensor<512xi32> loc(#loc25)
    %29 = tt.load %28, %13, %cst evictionPolicy = evict_last : tensor<512x!tt.ptr<i64>> loc(#loc26)
    %30 = arith.addi %29, %cst_3 : tensor<512xi64> loc(#loc27)
    %31 = arith.cmpi slt, %29, %cst : tensor<512xi64> loc(#loc28)
    %32 = arith.select %31, %30, %29 : tensor<512xi1>, tensor<512xi64> loc(#loc29)
    %33 = arith.muli %26, %cst_3 : tensor<512xi64> loc(#loc30)
    %34 = arith.addi %32, %33 : tensor<512xi64> loc(#loc31)
    %35 = arith.muli %6, %cst_2 : tensor<512xi32> loc(#loc32)
    %36 = arith.extsi %35 : tensor<512xi32> to tensor<512xi64> loc(#loc33)
    %37 = arith.addi %34, %36 : tensor<512xi64> loc(#loc33)
    %38 = arith.muli %7, %cst_1 : tensor<512xi32> loc(#loc34)
    %39 = arith.extsi %38 : tensor<512xi32> to tensor<512xi64> loc(#loc35)
    %40 = arith.addi %37, %39 : tensor<512xi64> loc(#loc35)
    %41 = tt.splat %arg3 : !tt.ptr<f32> -> tensor<512x!tt.ptr<f32>> loc(#loc36)
    %42 = tt.addptr %41, %40 : tensor<512x!tt.ptr<f32>>, tensor<512xi64> loc(#loc36)
    %43 = tt.load %42, %13, %cst_4 evictionPolicy = evict_last : tensor<512x!tt.ptr<f32>> loc(#loc37)
    %44 = tt.splat %arg4 : !tt.ptr<i64> -> tensor<512x!tt.ptr<i64>> loc(#loc38)
    %45 = tt.addptr %44, %11 : tensor<512x!tt.ptr<i64>>, tensor<512xi32> loc(#loc38)
    %46 = tt.load %45, %13, %cst evictionPolicy = evict_last : tensor<512x!tt.ptr<i64>> loc(#loc39)
    %47 = arith.addi %46, %cst_3 : tensor<512xi64> loc(#loc40)
    %48 = arith.cmpi slt, %46, %cst : tensor<512xi64> loc(#loc41)
    %49 = arith.select %48, %47, %46 : tensor<512xi1>, tensor<512xi64> loc(#loc42)
    %50 = arith.addi %49, %33 : tensor<512xi64> loc(#loc43)
    %51 = arith.addi %50, %36 : tensor<512xi64> loc(#loc44)
    %52 = arith.addi %51, %39 : tensor<512xi64> loc(#loc45)
    %53 = tt.addptr %41, %52 : tensor<512x!tt.ptr<f32>>, tensor<512xi64> loc(#loc46)
    %54 = tt.load %53, %13, %cst_4 evictionPolicy = evict_last : tensor<512x!tt.ptr<f32>> loc(#loc47)
    %55 = arith.subf %54, %43 : tensor<512xf32> loc(#loc48)
    %56 = tt.splat %arg5 : !tt.ptr<f32> -> tensor<512x!tt.ptr<f32>> loc(#loc49)
    %57 = tt.addptr %56, %11 : tensor<512x!tt.ptr<f32>>, tensor<512xi32> loc(#loc49)
    %58 = tt.load %57, %13, %cst_4 evictionPolicy = evict_last : tensor<512x!tt.ptr<f32>> loc(#loc50)
    %59 = arith.mulf %55, %58 : tensor<512xf32> loc(#loc51)
    %60 = arith.addf %43, %59 : tensor<512xf32> loc(#loc52)
    %61 = arith.subf %60, %20 : tensor<512xf32> loc(#loc53)
    %62 = tt.splat %arg6 : !tt.ptr<f32> -> tensor<512x!tt.ptr<f32>> loc(#loc54)
    %63 = tt.addptr %62, %10 : tensor<512x!tt.ptr<f32>>, tensor<512xi32> loc(#loc54)
    %64 = tt.load %63, %13, %cst_4 evictionPolicy = evict_last : tensor<512x!tt.ptr<f32>> loc(#loc55)
    %65 = arith.mulf %61, %64 : tensor<512xf32> loc(#loc56)
    %66 = arith.addf %20, %65 : tensor<512xf32> loc(#loc57)
    %67 = arith.cmpi sge, %12, %cst_6 : tensor<512xi64> loc(#loc58)
    %68 = arith.addi %6, %cst_0 : tensor<512xi32> loc(#loc59)
    %69 = arith.muli %68, %cst_10 : tensor<512xi32> loc(#loc60)
    %70 = arith.addi %8, %69 : tensor<512xi32> loc(#loc61)
    %71 = arith.addi %70, %16 : tensor<512xi32> loc(#loc62)
    %72 = tt.splat %arg7 : !tt.ptr<f32> -> tensor<512x!tt.ptr<f32>> loc(#loc63)
    %73 = tt.addptr %72, %71 : tensor<512x!tt.ptr<f32>>, tensor<512xi32> loc(#loc63)
    %74 = tt.load %73, %67, %cst_4 : tensor<512x!tt.ptr<f32>> loc(#loc64)
    %75 = arith.select %13, %66, %74 : tensor<512xi1>, tensor<512xf32> loc(#loc70)
    %76 = tt.splat %arg8 : !tt.ptr<f32> -> tensor<512x!tt.ptr<f32>> loc(#loc67)
    %77 = tt.addptr %76, %4 : tensor<512x!tt.ptr<f32>>, tensor<512xi32> loc(#loc67)
    tt.store %77, %75 : tensor<512x!tt.ptr<f32>> loc(#loc68)
    tt.return loc(#loc69)
  } loc(#loc)
} loc(#loc)
#loc1 = loc(unknown)
#loc2 = loc("inductor_cache/h3/ch36fpmiqgxln3ofwjhhkdl3sxyhspaztvv64jfivnw2typqxwk3.py":21:28)
#loc3 = loc("inductor_cache/h3/ch36fpmiqgxln3ofwjhhkdl3sxyhspaztvv64jfivnw2typqxwk3.py":21:33)
#loc4 = loc("inductor_cache/h3/ch36fpmiqgxln3ofwjhhkdl3sxyhspaztvv64jfivnw2typqxwk3.py":22:36)
#loc5 = loc("inductor_cache/h3/ch36fpmiqgxln3ofwjhhkdl3sxyhspaztvv64jfivnw2typqxwk3.py":22:23)
#loc6 = loc("inductor_cache/h3/ch36fpmiqgxln3ofwjhhkdl3sxyhspaztvv64jfivnw2typqxwk3.py":24:21)
#loc7 = loc("inductor_cache/h3/ch36fpmiqgxln3ofwjhhkdl3sxyhspaztvv64jfivnw2typqxwk3.py":24:29)
#loc8 = loc("inductor_cache/h3/ch36fpmiqgxln3ofwjhhkdl3sxyhspaztvv64jfivnw2typqxwk3.py":25:19)
#loc9 = loc("inductor_cache/h3/ch36fpmiqgxln3ofwjhhkdl3sxyhspaztvv64jfivnw2typqxwk3.py":26:19)
#loc10 = loc("inductor_cache/h3/ch36fpmiqgxln3ofwjhhkdl3sxyhspaztvv64jfivnw2typqxwk3.py":27:21)
#loc11 = loc("inductor_cache/h3/ch36fpmiqgxln3ofwjhhkdl3sxyhspaztvv64jfivnw2typqxwk3.py":27:27)
#loc12 = loc("inductor_cache/h3/ch36fpmiqgxln3ofwjhhkdl3sxyhspaztvv64jfivnw2typqxwk3.py":28:19)
#loc13 = loc("inductor_cache/h3/ch36fpmiqgxln3ofwjhhkdl3sxyhspaztvv64jfivnw2typqxwk3.py":34:18)
#loc14 = loc("inductor_cache/h3/ch36fpmiqgxln3ofwjhhkdl3sxyhspaztvv64jfivnw2typqxwk3.py":35:41)
#loc15 = loc("inductor_cache/h3/ch36fpmiqgxln3ofwjhhkdl3sxyhspaztvv64jfivnw2typqxwk3.py":35:35)
#loc16 = loc("inductor_cache/h3/ch36fpmiqgxln3ofwjhhkdl3sxyhspaztvv64jfivnw2typqxwk3.py":35:54)
#loc17 = loc("inductor_cache/h3/ch36fpmiqgxln3ofwjhhkdl3sxyhspaztvv64jfivnw2typqxwk3.py":35:47)
#loc18 = loc("inductor_cache/h3/ch36fpmiqgxln3ofwjhhkdl3sxyhspaztvv64jfivnw2typqxwk3.py":35:30)
#loc19 = loc("inductor_cache/h3/ch36fpmiqgxln3ofwjhhkdl3sxyhspaztvv64jfivnw2typqxwk3.py":35:59)
#loc20 = loc("inductor_cache/h3/ch36fpmiqgxln3ofwjhhkdl3sxyhspaztvv64jfivnw2typqxwk3.py":36:30)
#loc21 = loc("inductor_cache/h3/ch36fpmiqgxln3ofwjhhkdl3sxyhspaztvv64jfivnw2typqxwk3.py":36:35)
#loc22 = loc("inductor_cache/h3/ch36fpmiqgxln3ofwjhhkdl3sxyhspaztvv64jfivnw2typqxwk3.py":38:18)
#loc23 = loc("inductor_cache/h3/ch36fpmiqgxln3ofwjhhkdl3sxyhspaztvv64jfivnw2typqxwk3.py":39:18)
#loc24 = loc("inductor_cache/h3/ch36fpmiqgxln3ofwjhhkdl3sxyhspaztvv64jfivnw2typqxwk3.py":40:33)
#loc25 = loc("inductor_cache/h3/ch36fpmiqgxln3ofwjhhkdl3sxyhspaztvv64jfivnw2typqxwk3.py":41:31)
#loc26 = loc("inductor_cache/h3/ch36fpmiqgxln3ofwjhhkdl3sxyhspaztvv64jfivnw2typqxwk3.py":41:36)
#loc27 = loc("inductor_cache/h3/ch36fpmiqgxln3ofwjhhkdl3sxyhspaztvv64jfivnw2typqxwk3.py":42:20)
#loc28 = loc("inductor_cache/h3/ch36fpmiqgxln3ofwjhhkdl3sxyhspaztvv64jfivnw2typqxwk3.py":43:20)
#loc29 = loc("inductor_cache/h3/ch36fpmiqgxln3ofwjhhkdl3sxyhspaztvv64jfivnw2typqxwk3.py":44:35)
#loc30 = loc("inductor_cache/h3/ch36fpmiqgxln3ofwjhhkdl3sxyhspaztvv64jfivnw2typqxwk3.py":45:42)
#loc31 = loc("inductor_cache/h3/ch36fpmiqgxln3ofwjhhkdl3sxyhspaztvv64jfivnw2typqxwk3.py":45:39)
#loc32 = loc("inductor_cache/h3/ch36fpmiqgxln3ofwjhhkdl3sxyhspaztvv64jfivnw2typqxwk3.py":45:56)
#loc33 = loc("inductor_cache/h3/ch36fpmiqgxln3ofwjhhkdl3sxyhspaztvv64jfivnw2typqxwk3.py":45:50)
#loc34 = loc("inductor_cache/h3/ch36fpmiqgxln3ofwjhhkdl3sxyhspaztvv64jfivnw2typqxwk3.py":45:68)
#loc35 = loc("inductor_cache/h3/ch36fpmiqgxln3ofwjhhkdl3sxyhspaztvv64jfivnw2typqxwk3.py":45:62)
#loc36 = loc("inductor_cache/h3/ch36fpmiqgxln3ofwjhhkdl3sxyhspaztvv64jfivnw2typqxwk3.py":45:31)
#loc37 = loc("inductor_cache/h3/ch36fpmiqgxln3ofwjhhkdl3sxyhspaztvv64jfivnw2typqxwk3.py":45:73)
#loc38 = loc("inductor_cache/h3/ch36fpmiqgxln3ofwjhhkdl3sxyhspaztvv64jfivnw2typqxwk3.py":46:31)
#loc39 = loc("inductor_cache/h3/ch36fpmiqgxln3ofwjhhkdl3sxyhspaztvv64jfivnw2typqxwk3.py":46:36)
#loc40 = loc("inductor_cache/h3/ch36fpmiqgxln3ofwjhhkdl3sxyhspaztvv64jfivnw2typqxwk3.py":47:20)
#loc41 = loc("inductor_cache/h3/ch36fpmiqgxln3ofwjhhkdl3sxyhspaztvv64jfivnw2typqxwk3.py":48:20)
#loc42 = loc("inductor_cache/h3/ch36fpmiqgxln3ofwjhhkdl3sxyhspaztvv64jfivnw2typqxwk3.py":49:35)
#loc43 = loc("inductor_cache/h3/ch36fpmiqgxln3ofwjhhkdl3sxyhspaztvv64jfivnw2typqxwk3.py":50:39)
#loc44 = loc("inductor_cache/h3/ch36fpmiqgxln3ofwjhhkdl3sxyhspaztvv64jfivnw2typqxwk3.py":50:50)
#loc45 = loc("inductor_cache/h3/ch36fpmiqgxln3ofwjhhkdl3sxyhspaztvv64jfivnw2typqxwk3.py":50:62)
#loc46 = loc("inductor_cache/h3/ch36fpmiqgxln3ofwjhhkdl3sxyhspaztvv64jfivnw2typqxwk3.py":50:31)
#loc47 = loc("inductor_cache/h3/ch36fpmiqgxln3ofwjhhkdl3sxyhspaztvv64jfivnw2typqxwk3.py":50:73)
#loc48 = loc("inductor_cache/h3/ch36fpmiqgxln3ofwjhhkdl3sxyhspaztvv64jfivnw2typqxwk3.py":51:20)
#loc49 = loc("inductor_cache/h3/ch36fpmiqgxln3ofwjhhkdl3sxyhspaztvv64jfivnw2typqxwk3.py":52:31)
#loc50 = loc("inductor_cache/h3/ch36fpmiqgxln3ofwjhhkdl3sxyhspaztvv64jfivnw2typqxwk3.py":52:36)
#loc51 = loc("inductor_cache/h3/ch36fpmiqgxln3ofwjhhkdl3sxyhspaztvv64jfivnw2typqxwk3.py":53:20)
#loc52 = loc("inductor_cache/h3/ch36fpmiqgxln3ofwjhhkdl3sxyhspaztvv64jfivnw2typqxwk3.py":54:20)
#loc53 = loc("inductor_cache/h3/ch36fpmiqgxln3ofwjhhkdl3sxyhspaztvv64jfivnw2typqxwk3.py":55:20)
#loc54 = loc("inductor_cache/h3/ch36fpmiqgxln3ofwjhhkdl3sxyhspaztvv64jfivnw2typqxwk3.py":56:31)
#loc55 = loc("inductor_cache/h3/ch36fpmiqgxln3ofwjhhkdl3sxyhspaztvv64jfivnw2typqxwk3.py":56:36)
#loc56 = loc("inductor_cache/h3/ch36fpmiqgxln3ofwjhhkdl3sxyhspaztvv64jfivnw2typqxwk3.py":57:20)
#loc57 = loc("inductor_cache/h3/ch36fpmiqgxln3ofwjhhkdl3sxyhspaztvv64jfivnw2typqxwk3.py":58:19)
#loc58 = loc("inductor_cache/h3/ch36fpmiqgxln3ofwjhhkdl3sxyhspaztvv64jfivnw2typqxwk3.py":61:20)
#loc59 = loc("inductor_cache/h3/ch36fpmiqgxln3ofwjhhkdl3sxyhspaztvv64jfivnw2typqxwk3.py":64:50)
#loc60 = loc("inductor_cache/h3/ch36fpmiqgxln3ofwjhhkdl3sxyhspaztvv64jfivnw2typqxwk3.py":64:42)
#loc61 = loc("inductor_cache/h3/ch36fpmiqgxln3ofwjhhkdl3sxyhspaztvv64jfivnw2typqxwk3.py":64:36)
#loc62 = loc("inductor_cache/h3/ch36fpmiqgxln3ofwjhhkdl3sxyhspaztvv64jfivnw2typqxwk3.py":64:56)
#loc63 = loc("inductor_cache/h3/ch36fpmiqgxln3ofwjhhkdl3sxyhspaztvv64jfivnw2typqxwk3.py":64:31)
#loc64 = loc("inductor_cache/h3/ch36fpmiqgxln3ofwjhhkdl3sxyhspaztvv64jfivnw2typqxwk3.py":64:68)
#loc65 = loc("inductor_cache/h3/ch36fpmiqgxln3ofwjhhkdl3sxyhspaztvv64jfivnw2typqxwk3.py":65:34)
#loc66 = loc("inductor_cache/h3/ch36fpmiqgxln3ofwjhhkdl3sxyhspaztvv64jfivnw2typqxwk3.py":60:34)
#loc67 = loc("inductor_cache/h3/ch36fpmiqgxln3ofwjhhkdl3sxyhspaztvv64jfivnw2typqxwk3.py":66:25)
#loc68 = loc("inductor_cache/h3/ch36fpmiqgxln3ofwjhhkdl3sxyhspaztvv64jfivnw2typqxwk3.py":66:37)
#loc69 = loc("inductor_cache/h3/ch36fpmiqgxln3ofwjhhkdl3sxyhspaztvv64jfivnw2typqxwk3.py":66:4)
#loc70 = loc(fused[#loc65, #loc66])
