#loc = loc("inductor_cache/x6/cx6riswmk7flhtvws5xhjxw55hb6u7gnlbsv7sj362dhgg4c7r22.py":19:0)
module {
  tt.func public @triton_poi_fused__softmax_div_eq_masked_fill_mul_3(%arg0: !tt.ptr<f32> {tt.divisibility = 16 : i32} loc("inductor_cache/x6/cx6riswmk7flhtvws5xhjxw55hb6u7gnlbsv7sj362dhgg4c7r22.py":19:0), %arg1: !tt.ptr<f32> {tt.divisibility = 16 : i32} loc("inductor_cache/x6/cx6riswmk7flhtvws5xhjxw55hb6u7gnlbsv7sj362dhgg4c7r22.py":19:0), %arg2: !tt.ptr<f32> {tt.divisibility = 16 : i32} loc("inductor_cache/x6/cx6riswmk7flhtvws5xhjxw55hb6u7gnlbsv7sj362dhgg4c7r22.py":19:0), %arg3: !tt.ptr<f32> {tt.divisibility = 16 : i32} loc("inductor_cache/x6/cx6riswmk7flhtvws5xhjxw55hb6u7gnlbsv7sj362dhgg4c7r22.py":19:0), %arg4: i32 {tt.divisibility = 16 : i32} loc("inductor_cache/x6/cx6riswmk7flhtvws5xhjxw55hb6u7gnlbsv7sj362dhgg4c7r22.py":19:0)) attributes {noinline = false} {
    %cst = arith.constant dense<-1.000000e+04> : tensor<256xf32> loc(#loc1)
    %cst_0 = arith.constant dense<0.000000e+00> : tensor<256xf32> loc(#loc1)
    %cst_1 = arith.constant dense<16> : tensor<256xi32> loc(#loc1)
    %cst_2 = arith.constant dense<4> : tensor<256xi32> loc(#loc1)
    %cst_3 = arith.constant dense<256> : tensor<256xi32> loc(#loc1)
    %c256_i32 = arith.constant 256 : i32 loc(#loc1)
    %0 = tt.get_program_id x : i32 loc(#loc2)
    %1 = arith.muli %0, %c256_i32 : i32 loc(#loc3)
    %2 = tt.make_range {end = 256 : i32, start = 0 : i32} : tensor<256xi32> loc(#loc4)
    %3 = tt.splat %1 : i32 -> tensor<256xi32> loc(#loc5)
    %4 = arith.addi %3, %2 : tensor<256xi32> loc(#loc5)
    %5 = arith.cmpi slt, %4, %cst_3 : tensor<256xi32> loc(#loc6)
    %6 = arith.divsi %4, %cst_2 : tensor<256xi32> loc(#loc7)
    %7 = arith.remsi %6, %cst_1 : tensor<256xi32> loc(#loc8)
    %8 = tt.splat %arg1 : !tt.ptr<f32> -> tensor<256x!tt.ptr<f32>> loc(#loc9)
    %9 = tt.addptr %8, %7 : tensor<256x!tt.ptr<f32>>, tensor<256xi32> loc(#loc9)
    %10 = tt.load %9, %5 evictionPolicy = evict_last : tensor<256x!tt.ptr<f32>> loc(#loc10)
    %11 = tt.splat %arg0 : !tt.ptr<f32> -> tensor<256x!tt.ptr<f32>> loc(#loc11)
    %12 = tt.addptr %11, %4 : tensor<256x!tt.ptr<f32>>, tensor<256xi32> loc(#loc11)
    %13 = tt.load %12, %5 : tensor<256x!tt.ptr<f32>> loc(#loc12)
    %14 = tt.splat %arg2 : !tt.ptr<f32> -> tensor<256x!tt.ptr<f32>> loc(#loc13)
    %15 = tt.addptr %14, %6 : tensor<256x!tt.ptr<f32>>, tensor<256xi32> loc(#loc13)
    %16 = tt.load %15, %5 evictionPolicy = evict_last : tensor<256x!tt.ptr<f32>> loc(#loc14)
    %17 = tt.splat %arg3 : !tt.ptr<f32> -> tensor<256x!tt.ptr<f32>> loc(#loc15)
    %18 = tt.addptr %17, %6 : tensor<256x!tt.ptr<f32>>, tensor<256xi32> loc(#loc15)
    %19 = tt.load %18, %5 evictionPolicy = evict_last : tensor<256x!tt.ptr<f32>> loc(#loc16)
    %20 = arith.mulf %10, %10 : tensor<256xf32> loc(#loc17)
    %21 = arith.cmpf oeq, %20, %cst_0 : tensor<256xf32> loc(#loc18)
    %22 = arith.select %21, %cst, %13 : tensor<256xi1>, tensor<256xf32> loc(#loc19)
    %23 = arith.subf %22, %16 : tensor<256xf32> loc(#loc20)
    %24 = math.exp %23 : tensor<256xf32> loc(#loc21)
    %25 = arith.divf %24, %19 : tensor<256xf32> loc(#loc22)
    tt.store %12, %25, %5 : tensor<256x!tt.ptr<f32>> loc(#loc23)
    tt.return loc(#loc24)
  } loc(#loc)
} loc(#loc)
#loc1 = loc(unknown)
#loc2 = loc("inductor_cache/x6/cx6riswmk7flhtvws5xhjxw55hb6u7gnlbsv7sj362dhgg4c7r22.py":21:28)
#loc3 = loc("inductor_cache/x6/cx6riswmk7flhtvws5xhjxw55hb6u7gnlbsv7sj362dhgg4c7r22.py":21:33)
#loc4 = loc("inductor_cache/x6/cx6riswmk7flhtvws5xhjxw55hb6u7gnlbsv7sj362dhgg4c7r22.py":22:36)
#loc5 = loc("inductor_cache/x6/cx6riswmk7flhtvws5xhjxw55hb6u7gnlbsv7sj362dhgg4c7r22.py":22:23)
#loc6 = loc("inductor_cache/x6/cx6riswmk7flhtvws5xhjxw55hb6u7gnlbsv7sj362dhgg4c7r22.py":23:21)
#loc7 = loc("inductor_cache/x6/cx6riswmk7flhtvws5xhjxw55hb6u7gnlbsv7sj362dhgg4c7r22.py":24:21)
#loc8 = loc("inductor_cache/x6/cx6riswmk7flhtvws5xhjxw55hb6u7gnlbsv7sj362dhgg4c7r22.py":24:26)
#loc9 = loc("inductor_cache/x6/cx6riswmk7flhtvws5xhjxw55hb6u7gnlbsv7sj362dhgg4c7r22.py":27:30)
#loc10 = loc("inductor_cache/x6/cx6riswmk7flhtvws5xhjxw55hb6u7gnlbsv7sj362dhgg4c7r22.py":27:35)
#loc11 = loc("inductor_cache/x6/cx6riswmk7flhtvws5xhjxw55hb6u7gnlbsv7sj362dhgg4c7r22.py":28:34)
#loc12 = loc("inductor_cache/x6/cx6riswmk7flhtvws5xhjxw55hb6u7gnlbsv7sj362dhgg4c7r22.py":28:39)
#loc13 = loc("inductor_cache/x6/cx6riswmk7flhtvws5xhjxw55hb6u7gnlbsv7sj362dhgg4c7r22.py":29:30)
#loc14 = loc("inductor_cache/x6/cx6riswmk7flhtvws5xhjxw55hb6u7gnlbsv7sj362dhgg4c7r22.py":29:35)
#loc15 = loc("inductor_cache/x6/cx6riswmk7flhtvws5xhjxw55hb6u7gnlbsv7sj362dhgg4c7r22.py":30:31)
#loc16 = loc("inductor_cache/x6/cx6riswmk7flhtvws5xhjxw55hb6u7gnlbsv7sj362dhgg4c7r22.py":30:36)
#loc17 = loc("inductor_cache/x6/cx6riswmk7flhtvws5xhjxw55hb6u7gnlbsv7sj362dhgg4c7r22.py":31:18)
#loc18 = loc("inductor_cache/x6/cx6riswmk7flhtvws5xhjxw55hb6u7gnlbsv7sj362dhgg4c7r22.py":33:19)
#loc19 = loc("inductor_cache/x6/cx6riswmk7flhtvws5xhjxw55hb6u7gnlbsv7sj362dhgg4c7r22.py":37:32)
#loc20 = loc("inductor_cache/x6/cx6riswmk7flhtvws5xhjxw55hb6u7gnlbsv7sj362dhgg4c7r22.py":38:19)
#loc21 = loc("inductor_cache/x6/cx6riswmk7flhtvws5xhjxw55hb6u7gnlbsv7sj362dhgg4c7r22.py":39:24)
#loc22 = loc("inductor_cache/x6/cx6riswmk7flhtvws5xhjxw55hb6u7gnlbsv7sj362dhgg4c7r22.py":40:20)
#loc23 = loc("inductor_cache/x6/cx6riswmk7flhtvws5xhjxw55hb6u7gnlbsv7sj362dhgg4c7r22.py":41:40)
#loc24 = loc("inductor_cache/x6/cx6riswmk7flhtvws5xhjxw55hb6u7gnlbsv7sj362dhgg4c7r22.py":41:4)
