#loc = loc("inductor_cache/l3/cl35frt4uv7e3tigyje3h2e2kryfmivgmqlr2r2poe56q3s6lelq.py":19:0)
module {
  tt.func public @triton_poi_fused__native_batch_norm_legit_no_training__unsafe_index_add_mul_relu_sub_threshold_backward_48(%arg0: !tt.ptr<f32> {tt.divisibility = 16 : i32} loc("inductor_cache/l3/cl35frt4uv7e3tigyje3h2e2kryfmivgmqlr2r2poe56q3s6lelq.py":19:0), %arg1: !tt.ptr<f32> {tt.divisibility = 16 : i32} loc("inductor_cache/l3/cl35frt4uv7e3tigyje3h2e2kryfmivgmqlr2r2poe56q3s6lelq.py":19:0), %arg2: !tt.ptr<f32> {tt.divisibility = 16 : i32} loc("inductor_cache/l3/cl35frt4uv7e3tigyje3h2e2kryfmivgmqlr2r2poe56q3s6lelq.py":19:0), %arg3: !tt.ptr<f32> {tt.divisibility = 16 : i32} loc("inductor_cache/l3/cl35frt4uv7e3tigyje3h2e2kryfmivgmqlr2r2poe56q3s6lelq.py":19:0), %arg4: !tt.ptr<f32> {tt.divisibility = 16 : i32} loc("inductor_cache/l3/cl35frt4uv7e3tigyje3h2e2kryfmivgmqlr2r2poe56q3s6lelq.py":19:0), %arg5: !tt.ptr<f32> {tt.divisibility = 16 : i32} loc("inductor_cache/l3/cl35frt4uv7e3tigyje3h2e2kryfmivgmqlr2r2poe56q3s6lelq.py":19:0), %arg6: !tt.ptr<f32> {tt.divisibility = 16 : i32} loc("inductor_cache/l3/cl35frt4uv7e3tigyje3h2e2kryfmivgmqlr2r2poe56q3s6lelq.py":19:0), %arg7: !tt.ptr<i64> {tt.divisibility = 16 : i32} loc("inductor_cache/l3/cl35frt4uv7e3tigyje3h2e2kryfmivgmqlr2r2poe56q3s6lelq.py":19:0), %arg8: !tt.ptr<i64> {tt.divisibility = 16 : i32} loc("inductor_cache/l3/cl35frt4uv7e3tigyje3h2e2kryfmivgmqlr2r2poe56q3s6lelq.py":19:0), %arg9: !tt.ptr<f32> {tt.divisibility = 16 : i32} loc("inductor_cache/l3/cl35frt4uv7e3tigyje3h2e2kryfmivgmqlr2r2poe56q3s6lelq.py":19:0), %arg10: !tt.ptr<i64> {tt.divisibility = 16 : i32} loc("inductor_cache/l3/cl35frt4uv7e3tigyje3h2e2kryfmivgmqlr2r2poe56q3s6lelq.py":19:0), %arg11: !tt.ptr<f32> {tt.divisibility = 16 : i32} loc("inductor_cache/l3/cl35frt4uv7e3tigyje3h2e2kryfmivgmqlr2r2poe56q3s6lelq.py":19:0), %arg12: !tt.ptr<i64> {tt.divisibility = 16 : i32} loc("inductor_cache/l3/cl35frt4uv7e3tigyje3h2e2kryfmivgmqlr2r2poe56q3s6lelq.py":19:0), %arg13: !tt.ptr<f32> {tt.divisibility = 16 : i32} loc("inductor_cache/l3/cl35frt4uv7e3tigyje3h2e2kryfmivgmqlr2r2poe56q3s6lelq.py":19:0), %arg14: !tt.ptr<i64> {tt.divisibility = 16 : i32} loc("inductor_cache/l3/cl35frt4uv7e3tigyje3h2e2kryfmivgmqlr2r2poe56q3s6lelq.py":19:0), %arg15: !tt.ptr<i64> {tt.divisibility = 16 : i32} loc("inductor_cache/l3/cl35frt4uv7e3tigyje3h2e2kryfmivgmqlr2r2poe56q3s6lelq.py":19:0), %arg16: !tt.ptr<f32> {tt.divisibility = 16 : i32} loc("inductor_cache/l3/cl35frt4uv7e3tigyje3h2e2kryfmivgmqlr2r2poe56q3s6lelq.py":19:0), %arg17: !tt.ptr<i64> {tt.divisibility = 16 : i32} loc("inductor_cache/l3/cl35frt4uv7e3tigyje3h2e2kryfmivgmqlr2r2poe56q3s6lelq.py":19:0), %arg18: !tt.ptr<f32> {tt.divisibility = 16 : i32} loc("inductor_cache/l3/cl35frt4uv7e3tigyje3h2e2kryfmivgmqlr2r2poe56q3s6lelq.py":19:0), %arg19: !tt.ptr<i64> {tt.divisibility = 16 : i32} loc("inductor_cache/l3/cl35frt4uv7e3tigyje3h2e2kryfmivgmqlr2r2poe56q3s6lelq.py":19:0), %arg20: !tt.ptr<f32> {tt.divisibility = 16 : i32} loc("inductor_cache/l3/cl35frt4uv7e3tigyje3h2e2kryfmivgmqlr2r2poe56q3s6lelq.py":19:0), %arg21: !tt.ptr<i64> {tt.divisibility = 16 : i32} loc("inductor_cache/l3/cl35frt4uv7e3tigyje3h2e2kryfmivgmqlr2r2poe56q3s6lelq.py":19:0), %arg22: !tt.ptr<i64> {tt.divisibility = 16 : i32} loc("inductor_cache/l3/cl35frt4uv7e3tigyje3h2e2kryfmivgmqlr2r2poe56q3s6lelq.py":19:0), %arg23: !tt.ptr<f32> {tt.divisibility = 16 : i32} loc("inductor_cache/l3/cl35frt4uv7e3tigyje3h2e2kryfmivgmqlr2r2poe56q3s6lelq.py":19:0), %arg24: !tt.ptr<i64> {tt.divisibility = 16 : i32} loc("inductor_cache/l3/cl35frt4uv7e3tigyje3h2e2kryfmivgmqlr2r2poe56q3s6lelq.py":19:0), %arg25: !tt.ptr<f32> {tt.divisibility = 16 : i32} loc("inductor_cache/l3/cl35frt4uv7e3tigyje3h2e2kryfmivgmqlr2r2poe56q3s6lelq.py":19:0), %arg26: !tt.ptr<i64> {tt.divisibility = 16 : i32} loc("inductor_cache/l3/cl35frt4uv7e3tigyje3h2e2kryfmivgmqlr2r2poe56q3s6lelq.py":19:0), %arg27: !tt.ptr<f32> {tt.divisibility = 16 : i32} loc("inductor_cache/l3/cl35frt4uv7e3tigyje3h2e2kryfmivgmqlr2r2poe56q3s6lelq.py":19:0), %arg28: !tt.ptr<f32> {tt.divisibility = 16 : i32} loc("inductor_cache/l3/cl35frt4uv7e3tigyje3h2e2kryfmivgmqlr2r2poe56q3s6lelq.py":19:0), %arg29: !tt.ptr<i1> {tt.divisibility = 16 : i32} loc("inductor_cache/l3/cl35frt4uv7e3tigyje3h2e2kryfmivgmqlr2r2poe56q3s6lelq.py":19:0), %arg30: i32 {tt.divisibility = 16 : i32} loc("inductor_cache/l3/cl35frt4uv7e3tigyje3h2e2kryfmivgmqlr2r2poe56q3s6lelq.py":19:0)) attributes {noinline = false} {
    %cst = arith.constant dense<0> : tensor<128xi64> loc(#loc1)
    %cst_0 = arith.constant dense<1.000000e+00> : tensor<128xf32> loc(#loc1)
    %cst_1 = arith.constant dense<2> : tensor<128xi64> loc(#loc1)
    %cst_2 = arith.constant dense<4> : tensor<128xi64> loc(#loc1)
    %cst_3 = arith.constant dense<4> : tensor<128xi32> loc(#loc1)
    %cst_4 = arith.constant dense<0.000000e+00> : tensor<128xf32> loc(#loc1)
    %cst_5 = arith.constant dense<64> : tensor<128xi32> loc(#loc1)
    %cst_6 = arith.constant dense<8> : tensor<128xi64> loc(#loc1)
    %cst_7 = arith.constant dense<9.99999974E-6> : tensor<128xf32> loc(#loc1)
    %cst_8 = arith.constant dense<16> : tensor<128xi32> loc(#loc1)
    %cst_9 = arith.constant dense<18> : tensor<128xi32> loc(#loc1)
    %cst_10 = arith.constant dense<256> : tensor<128xi32> loc(#loc1)
    %cst_11 = arith.constant dense<18432> : tensor<128xi32> loc(#loc1)
    %c128_i32 = arith.constant 128 : i32 loc(#loc1)
    %0 = tt.get_program_id x : i32 loc(#loc2)
    %1 = arith.muli %0, %c128_i32 : i32 loc(#loc3)
    %2 = tt.make_range {end = 128 : i32, start = 0 : i32} : tensor<128xi32> loc(#loc4)
    %3 = tt.splat %1 : i32 -> tensor<128xi32> loc(#loc5)
    %4 = arith.addi %3, %2 : tensor<128xi32> loc(#loc5)
    %5 = arith.cmpi slt, %4, %cst_11 : tensor<128xi32> loc(#loc6)
    %6 = arith.divsi %4, %cst_10 : tensor<128xi32> loc(#loc7)
    %7 = arith.remsi %6, %cst_9 : tensor<128xi32> loc(#loc8)
    %8 = arith.divsi %4, %cst_8 : tensor<128xi32> loc(#loc9)
    %9 = arith.remsi %8, %cst_8 : tensor<128xi32> loc(#loc10)
    %10 = arith.remsi %4, %cst_8 : tensor<128xi32> loc(#loc11)
    %11 = tt.splat %arg1 : !tt.ptr<f32> -> tensor<128x!tt.ptr<f32>> loc(#loc12)
    %12 = tt.addptr %11, %4 : tensor<128x!tt.ptr<f32>>, tensor<128xi32> loc(#loc12)
    %13 = tt.load %12, %5 : tensor<128x!tt.ptr<f32>> loc(#loc13)
    %14 = tt.splat %arg2 : !tt.ptr<f32> -> tensor<128x!tt.ptr<f32>> loc(#loc14)
    %15 = tt.addptr %14, %7 : tensor<128x!tt.ptr<f32>>, tensor<128xi32> loc(#loc14)
    %16 = tt.load %15, %5 evictionPolicy = evict_last : tensor<128x!tt.ptr<f32>> loc(#loc15)
    %17 = tt.splat %arg3 : !tt.ptr<f32> -> tensor<128x!tt.ptr<f32>> loc(#loc16)
    %18 = tt.addptr %17, %7 : tensor<128x!tt.ptr<f32>>, tensor<128xi32> loc(#loc16)
    %19 = tt.load %18, %5 evictionPolicy = evict_last : tensor<128x!tt.ptr<f32>> loc(#loc17)
    %20 = tt.splat %arg4 : !tt.ptr<f32> -> tensor<128x!tt.ptr<f32>> loc(#loc18)
    %21 = tt.addptr %20, %7 : tensor<128x!tt.ptr<f32>>, tensor<128xi32> loc(#loc18)
    %22 = tt.load %21, %5 evictionPolicy = evict_last : tensor<128x!tt.ptr<f32>> loc(#loc19)
    %23 = tt.splat %arg5 : !tt.ptr<f32> -> tensor<128x!tt.ptr<f32>> loc(#loc20)
    %24 = tt.addptr %23, %7 : tensor<128x!tt.ptr<f32>>, tensor<128xi32> loc(#loc20)
    %25 = tt.load %24, %5 evictionPolicy = evict_last : tensor<128x!tt.ptr<f32>> loc(#loc21)
    %26 = tt.splat %arg6 : !tt.ptr<f32> -> tensor<128x!tt.ptr<f32>> loc(#loc22)
    %27 = tt.addptr %26, %4 : tensor<128x!tt.ptr<f32>>, tensor<128xi32> loc(#loc22)
    %28 = tt.load %27, %5 : tensor<128x!tt.ptr<f32>> loc(#loc23)
    %29 = tt.splat %arg7 : !tt.ptr<i64> -> tensor<128x!tt.ptr<i64>> loc(#loc24)
    %30 = tt.addptr %29, %9 : tensor<128x!tt.ptr<i64>>, tensor<128xi32> loc(#loc24)
    %31 = tt.load %30, %5 evictionPolicy = evict_last : tensor<128x!tt.ptr<i64>> loc(#loc25)
    %32 = tt.splat %arg8 : !tt.ptr<i64> -> tensor<128x!tt.ptr<i64>> loc(#loc26)
    %33 = tt.addptr %32, %10 : tensor<128x!tt.ptr<i64>>, tensor<128xi32> loc(#loc26)
    %34 = tt.load %33, %5 evictionPolicy = evict_last : tensor<128x!tt.ptr<i64>> loc(#loc27)
    %35 = tt.splat %arg10 : !tt.ptr<i64> -> tensor<128x!tt.ptr<i64>> loc(#loc28)
    %36 = tt.addptr %35, %10 : tensor<128x!tt.ptr<i64>>, tensor<128xi32> loc(#loc28)
    %37 = tt.load %36, %5 evictionPolicy = evict_last : tensor<128x!tt.ptr<i64>> loc(#loc29)
    %38 = tt.splat %arg11 : !tt.ptr<f32> -> tensor<128x!tt.ptr<f32>> loc(#loc30)
    %39 = tt.addptr %38, %10 : tensor<128x!tt.ptr<f32>>, tensor<128xi32> loc(#loc30)
    %40 = tt.load %39, %5 evictionPolicy = evict_last : tensor<128x!tt.ptr<f32>> loc(#loc31)
    %41 = tt.splat %arg12 : !tt.ptr<i64> -> tensor<128x!tt.ptr<i64>> loc(#loc32)
    %42 = tt.addptr %41, %9 : tensor<128x!tt.ptr<i64>>, tensor<128xi32> loc(#loc32)
    %43 = tt.load %42, %5 evictionPolicy = evict_last : tensor<128x!tt.ptr<i64>> loc(#loc33)
    %44 = tt.splat %arg13 : !tt.ptr<f32> -> tensor<128x!tt.ptr<f32>> loc(#loc34)
    %45 = tt.addptr %44, %9 : tensor<128x!tt.ptr<f32>>, tensor<128xi32> loc(#loc34)
    %46 = tt.load %45, %5 evictionPolicy = evict_last : tensor<128x!tt.ptr<f32>> loc(#loc35)
    %47 = tt.splat %arg14 : !tt.ptr<i64> -> tensor<128x!tt.ptr<i64>> loc(#loc36)
    %48 = tt.addptr %47, %9 : tensor<128x!tt.ptr<i64>>, tensor<128xi32> loc(#loc36)
    %49 = tt.load %48, %5 evictionPolicy = evict_last : tensor<128x!tt.ptr<i64>> loc(#loc37)
    %50 = tt.splat %arg15 : !tt.ptr<i64> -> tensor<128x!tt.ptr<i64>> loc(#loc38)
    %51 = tt.addptr %50, %10 : tensor<128x!tt.ptr<i64>>, tensor<128xi32> loc(#loc38)
    %52 = tt.load %51, %5 evictionPolicy = evict_last : tensor<128x!tt.ptr<i64>> loc(#loc39)
    %53 = tt.splat %arg17 : !tt.ptr<i64> -> tensor<128x!tt.ptr<i64>> loc(#loc40)
    %54 = tt.addptr %53, %10 : tensor<128x!tt.ptr<i64>>, tensor<128xi32> loc(#loc40)
    %55 = tt.load %54, %5 evictionPolicy = evict_last : tensor<128x!tt.ptr<i64>> loc(#loc41)
    %56 = tt.splat %arg18 : !tt.ptr<f32> -> tensor<128x!tt.ptr<f32>> loc(#loc42)
    %57 = tt.addptr %56, %10 : tensor<128x!tt.ptr<f32>>, tensor<128xi32> loc(#loc42)
    %58 = tt.load %57, %5 evictionPolicy = evict_last : tensor<128x!tt.ptr<f32>> loc(#loc43)
    %59 = tt.splat %arg19 : !tt.ptr<i64> -> tensor<128x!tt.ptr<i64>> loc(#loc44)
    %60 = tt.addptr %59, %9 : tensor<128x!tt.ptr<i64>>, tensor<128xi32> loc(#loc44)
    %61 = tt.load %60, %5 evictionPolicy = evict_last : tensor<128x!tt.ptr<i64>> loc(#loc45)
    %62 = tt.splat %arg20 : !tt.ptr<f32> -> tensor<128x!tt.ptr<f32>> loc(#loc46)
    %63 = tt.addptr %62, %9 : tensor<128x!tt.ptr<f32>>, tensor<128xi32> loc(#loc46)
    %64 = tt.load %63, %5 evictionPolicy = evict_last : tensor<128x!tt.ptr<f32>> loc(#loc47)
    %65 = tt.splat %arg21 : !tt.ptr<i64> -> tensor<128x!tt.ptr<i64>> loc(#loc48)
    %66 = tt.addptr %65, %9 : tensor<128x!tt.ptr<i64>>, tensor<128xi32> loc(#loc48)
    %67 = tt.load %66, %5 evictionPolicy = evict_last : tensor<128x!tt.ptr<i64>> loc(#loc49)
    %68 = tt.splat %arg22 : !tt.ptr<i64> -> tensor<128x!tt.ptr<i64>> loc(#loc50)
    %69 = tt.addptr %68, %10 : tensor<128x!tt.ptr<i64>>, tensor<128xi32> loc(#loc50)
    %70 = tt.load %69, %5 evictionPolicy = evict_last : tensor<128x!tt.ptr<i64>> loc(#loc51)
    %71 = tt.splat %arg24 : !tt.ptr<i64> -> tensor<128x!tt.ptr<i64>> loc(#loc52)
    %72 = tt.addptr %71, %10 : tensor<128x!tt.ptr<i64>>, tensor<128xi32> loc(#loc52)
    %73 = tt.load %72, %5 evictionPolicy = evict_last : tensor<128x!tt.ptr<i64>> loc(#loc53)
    %74 = tt.splat %arg25 : !tt.ptr<f32> -> tensor<128x!tt.ptr<f32>> loc(#loc54)
    %75 = tt.addptr %74, %10 : tensor<128x!tt.ptr<f32>>, tensor<128xi32> loc(#loc54)
    %76 = tt.load %75, %5 evictionPolicy = evict_last : tensor<128x!tt.ptr<f32>> loc(#loc55)
    %77 = tt.splat %arg26 : !tt.ptr<i64> -> tensor<128x!tt.ptr<i64>> loc(#loc56)
    %78 = tt.addptr %77, %9 : tensor<128x!tt.ptr<i64>>, tensor<128xi32> loc(#loc56)
    %79 = tt.load %78, %5 evictionPolicy = evict_last : tensor<128x!tt.ptr<i64>> loc(#loc57)
    %80 = tt.splat %arg27 : !tt.ptr<f32> -> tensor<128x!tt.ptr<f32>> loc(#loc58)
    %81 = tt.addptr %80, %9 : tensor<128x!tt.ptr<f32>>, tensor<128xi32> loc(#loc58)
    %82 = tt.load %81, %5 evictionPolicy = evict_last : tensor<128x!tt.ptr<f32>> loc(#loc59)
    %83 = arith.subf %13, %16 : tensor<128xf32> loc(#loc60)
    %84 = arith.addf %19, %cst_7 : tensor<128xf32> loc(#loc61)
    %85 = tt.extern_elementwise %84 {libname = "", libpath = "", pure = true, symbol = "__nv_sqrtf"} : (tensor<128xf32>) -> tensor<128xf32> loc(#loc62)
    %86 = arith.divf %cst_0, %85 : tensor<128xf32> loc(#loc63)
    %87 = arith.mulf %83, %86 : tensor<128xf32> loc(#loc64)
    %88 = arith.mulf %87, %22 : tensor<128xf32> loc(#loc65)
    %89 = arith.addf %88, %25 : tensor<128xf32> loc(#loc66)
    %90 = arith.addf %89, %28 : tensor<128xf32> loc(#loc67)
    %91 = arith.cmpf ogt, %cst_4, %90 : tensor<128xf32> loc(#loc204)
    %92 = arith.select %91, %cst_4, %90 : tensor<128xi1>, tensor<128xf32> loc(#loc205)
    %93 = arith.addi %31, %cst_6 : tensor<128xi64> loc(#loc71)
    %94 = arith.cmpi slt, %31, %cst : tensor<128xi64> loc(#loc72)
    %95 = arith.select %94, %93, %31 : tensor<128xi1>, tensor<128xi64> loc(#loc73)
    %96 = arith.addi %34, %cst_6 : tensor<128xi64> loc(#loc74)
    %97 = arith.cmpi slt, %34, %cst : tensor<128xi64> loc(#loc75)
    %98 = arith.select %97, %96, %34 : tensor<128xi1>, tensor<128xi64> loc(#loc76)
    %99 = arith.muli %95, %cst_6 : tensor<128xi64> loc(#loc77)
    %100 = arith.addi %98, %99 : tensor<128xi64> loc(#loc78)
    %101 = arith.muli %6, %cst_5 : tensor<128xi32> loc(#loc79)
    %102 = arith.extsi %101 : tensor<128xi32> to tensor<128xi64> loc(#loc80)
    %103 = arith.addi %100, %102 : tensor<128xi64> loc(#loc80)
    %104 = tt.splat %arg9 : !tt.ptr<f32> -> tensor<128x!tt.ptr<f32>> loc(#loc81)
    %105 = tt.addptr %104, %103 : tensor<128x!tt.ptr<f32>>, tensor<128xi64> loc(#loc81)
    %106 = tt.load %105, %5 evictionPolicy = evict_last : tensor<128x!tt.ptr<f32>> loc(#loc82)
    %107 = arith.addi %37, %cst_6 : tensor<128xi64> loc(#loc83)
    %108 = arith.cmpi slt, %37, %cst : tensor<128xi64> loc(#loc84)
    %109 = arith.select %108, %107, %37 : tensor<128xi1>, tensor<128xi64> loc(#loc85)
    %110 = arith.addi %109, %99 : tensor<128xi64> loc(#loc86)
    %111 = arith.addi %110, %102 : tensor<128xi64> loc(#loc87)
    %112 = tt.addptr %104, %111 : tensor<128x!tt.ptr<f32>>, tensor<128xi64> loc(#loc88)
    %113 = tt.load %112, %5 evictionPolicy = evict_last : tensor<128x!tt.ptr<f32>> loc(#loc89)
    %114 = arith.subf %113, %106 : tensor<128xf32> loc(#loc90)
    %115 = arith.mulf %114, %40 : tensor<128xf32> loc(#loc91)
    %116 = arith.addf %106, %115 : tensor<128xf32> loc(#loc92)
    %117 = arith.addf %92, %cst_4 : tensor<128xf32> loc(#loc93)
    %118 = arith.addi %43, %cst_6 : tensor<128xi64> loc(#loc94)
    %119 = arith.cmpi slt, %43, %cst : tensor<128xi64> loc(#loc95)
    %120 = arith.select %119, %118, %43 : tensor<128xi1>, tensor<128xi64> loc(#loc96)
    %121 = arith.muli %120, %cst_6 : tensor<128xi64> loc(#loc97)
    %122 = arith.addi %98, %121 : tensor<128xi64> loc(#loc98)
    %123 = arith.addi %122, %102 : tensor<128xi64> loc(#loc99)
    %124 = tt.addptr %104, %123 : tensor<128x!tt.ptr<f32>>, tensor<128xi64> loc(#loc100)
    %125 = tt.load %124, %5 evictionPolicy = evict_last : tensor<128x!tt.ptr<f32>> loc(#loc101)
    %126 = arith.addi %109, %121 : tensor<128xi64> loc(#loc102)
    %127 = arith.addi %126, %102 : tensor<128xi64> loc(#loc103)
    %128 = tt.addptr %104, %127 : tensor<128x!tt.ptr<f32>>, tensor<128xi64> loc(#loc104)
    %129 = tt.load %128, %5 evictionPolicy = evict_last : tensor<128x!tt.ptr<f32>> loc(#loc105)
    %130 = arith.subf %129, %125 : tensor<128xf32> loc(#loc106)
    %131 = arith.mulf %130, %40 : tensor<128xf32> loc(#loc107)
    %132 = arith.addf %125, %131 : tensor<128xf32> loc(#loc108)
    %133 = arith.subf %132, %116 : tensor<128xf32> loc(#loc109)
    %134 = arith.mulf %133, %46 : tensor<128xf32> loc(#loc110)
    %135 = arith.addf %116, %134 : tensor<128xf32> loc(#loc111)
    %136 = arith.addf %117, %135 : tensor<128xf32> loc(#loc112)
    %137 = arith.addi %49, %cst_2 : tensor<128xi64> loc(#loc113)
    %138 = arith.cmpi slt, %49, %cst : tensor<128xi64> loc(#loc114)
    %139 = arith.select %138, %137, %49 : tensor<128xi1>, tensor<128xi64> loc(#loc115)
    %140 = arith.addi %52, %cst_2 : tensor<128xi64> loc(#loc116)
    %141 = arith.cmpi slt, %52, %cst : tensor<128xi64> loc(#loc117)
    %142 = arith.select %141, %140, %52 : tensor<128xi1>, tensor<128xi64> loc(#loc118)
    %143 = arith.muli %139, %cst_2 : tensor<128xi64> loc(#loc119)
    %144 = arith.addi %142, %143 : tensor<128xi64> loc(#loc120)
    %145 = arith.muli %6, %cst_8 : tensor<128xi32> loc(#loc121)
    %146 = arith.extsi %145 : tensor<128xi32> to tensor<128xi64> loc(#loc122)
    %147 = arith.addi %144, %146 : tensor<128xi64> loc(#loc122)
    %148 = tt.splat %arg16 : !tt.ptr<f32> -> tensor<128x!tt.ptr<f32>> loc(#loc123)
    %149 = tt.addptr %148, %147 : tensor<128x!tt.ptr<f32>>, tensor<128xi64> loc(#loc123)
    %150 = tt.load %149, %5 evictionPolicy = evict_last : tensor<128x!tt.ptr<f32>> loc(#loc124)
    %151 = arith.addi %55, %cst_2 : tensor<128xi64> loc(#loc125)
    %152 = arith.cmpi slt, %55, %cst : tensor<128xi64> loc(#loc126)
    %153 = arith.select %152, %151, %55 : tensor<128xi1>, tensor<128xi64> loc(#loc127)
    %154 = arith.addi %153, %143 : tensor<128xi64> loc(#loc128)
    %155 = arith.addi %154, %146 : tensor<128xi64> loc(#loc129)
    %156 = tt.addptr %148, %155 : tensor<128x!tt.ptr<f32>>, tensor<128xi64> loc(#loc130)
    %157 = tt.load %156, %5 evictionPolicy = evict_last : tensor<128x!tt.ptr<f32>> loc(#loc131)
    %158 = arith.subf %157, %150 : tensor<128xf32> loc(#loc132)
    %159 = arith.mulf %158, %58 : tensor<128xf32> loc(#loc133)
    %160 = arith.addf %150, %159 : tensor<128xf32> loc(#loc134)
    %161 = arith.addi %61, %cst_2 : tensor<128xi64> loc(#loc135)
    %162 = arith.cmpi slt, %61, %cst : tensor<128xi64> loc(#loc136)
    %163 = arith.select %162, %161, %61 : tensor<128xi1>, tensor<128xi64> loc(#loc137)
    %164 = arith.muli %163, %cst_2 : tensor<128xi64> loc(#loc138)
    %165 = arith.addi %142, %164 : tensor<128xi64> loc(#loc139)
    %166 = arith.addi %165, %146 : tensor<128xi64> loc(#loc140)
    %167 = tt.addptr %148, %166 : tensor<128x!tt.ptr<f32>>, tensor<128xi64> loc(#loc141)
    %168 = tt.load %167, %5 evictionPolicy = evict_last : tensor<128x!tt.ptr<f32>> loc(#loc142)
    %169 = arith.addi %153, %164 : tensor<128xi64> loc(#loc143)
    %170 = arith.addi %169, %146 : tensor<128xi64> loc(#loc144)
    %171 = tt.addptr %148, %170 : tensor<128x!tt.ptr<f32>>, tensor<128xi64> loc(#loc145)
    %172 = tt.load %171, %5 evictionPolicy = evict_last : tensor<128x!tt.ptr<f32>> loc(#loc146)
    %173 = arith.subf %172, %168 : tensor<128xf32> loc(#loc147)
    %174 = arith.mulf %173, %58 : tensor<128xf32> loc(#loc148)
    %175 = arith.addf %168, %174 : tensor<128xf32> loc(#loc149)
    %176 = arith.subf %175, %160 : tensor<128xf32> loc(#loc150)
    %177 = arith.mulf %176, %64 : tensor<128xf32> loc(#loc151)
    %178 = arith.addf %160, %177 : tensor<128xf32> loc(#loc152)
    %179 = arith.addf %136, %178 : tensor<128xf32> loc(#loc153)
    %180 = arith.addi %67, %cst_1 : tensor<128xi64> loc(#loc154)
    %181 = arith.cmpi slt, %67, %cst : tensor<128xi64> loc(#loc155)
    %182 = arith.select %181, %180, %67 : tensor<128xi1>, tensor<128xi64> loc(#loc156)
    %183 = arith.addi %70, %cst_1 : tensor<128xi64> loc(#loc157)
    %184 = arith.cmpi slt, %70, %cst : tensor<128xi64> loc(#loc158)
    %185 = arith.select %184, %183, %70 : tensor<128xi1>, tensor<128xi64> loc(#loc159)
    %186 = arith.muli %182, %cst_1 : tensor<128xi64> loc(#loc160)
    %187 = arith.addi %185, %186 : tensor<128xi64> loc(#loc161)
    %188 = arith.muli %6, %cst_3 : tensor<128xi32> loc(#loc162)
    %189 = arith.extsi %188 : tensor<128xi32> to tensor<128xi64> loc(#loc163)
    %190 = arith.addi %187, %189 : tensor<128xi64> loc(#loc163)
    %191 = tt.splat %arg23 : !tt.ptr<f32> -> tensor<128x!tt.ptr<f32>> loc(#loc164)
    %192 = tt.addptr %191, %190 : tensor<128x!tt.ptr<f32>>, tensor<128xi64> loc(#loc164)
    %193 = tt.load %192, %5 evictionPolicy = evict_last : tensor<128x!tt.ptr<f32>> loc(#loc165)
    %194 = arith.addi %73, %cst_1 : tensor<128xi64> loc(#loc166)
    %195 = arith.cmpi slt, %73, %cst : tensor<128xi64> loc(#loc167)
    %196 = arith.select %195, %194, %73 : tensor<128xi1>, tensor<128xi64> loc(#loc168)
    %197 = arith.addi %196, %186 : tensor<128xi64> loc(#loc169)
    %198 = arith.addi %197, %189 : tensor<128xi64> loc(#loc170)
    %199 = tt.addptr %191, %198 : tensor<128x!tt.ptr<f32>>, tensor<128xi64> loc(#loc171)
    %200 = tt.load %199, %5 evictionPolicy = evict_last : tensor<128x!tt.ptr<f32>> loc(#loc172)
    %201 = arith.subf %200, %193 : tensor<128xf32> loc(#loc173)
    %202 = arith.mulf %201, %76 : tensor<128xf32> loc(#loc174)
    %203 = arith.addf %193, %202 : tensor<128xf32> loc(#loc175)
    %204 = arith.addi %79, %cst_1 : tensor<128xi64> loc(#loc176)
    %205 = arith.cmpi slt, %79, %cst : tensor<128xi64> loc(#loc177)
    %206 = arith.select %205, %204, %79 : tensor<128xi1>, tensor<128xi64> loc(#loc178)
    %207 = arith.muli %206, %cst_1 : tensor<128xi64> loc(#loc179)
    %208 = arith.addi %185, %207 : tensor<128xi64> loc(#loc180)
    %209 = arith.addi %208, %189 : tensor<128xi64> loc(#loc181)
    %210 = tt.addptr %191, %209 : tensor<128x!tt.ptr<f32>>, tensor<128xi64> loc(#loc182)
    %211 = tt.load %210, %5 evictionPolicy = evict_last : tensor<128x!tt.ptr<f32>> loc(#loc183)
    %212 = arith.addi %196, %207 : tensor<128xi64> loc(#loc184)
    %213 = arith.addi %212, %189 : tensor<128xi64> loc(#loc185)
    %214 = tt.addptr %191, %213 : tensor<128x!tt.ptr<f32>>, tensor<128xi64> loc(#loc186)
    %215 = tt.load %214, %5 evictionPolicy = evict_last : tensor<128x!tt.ptr<f32>> loc(#loc187)
    %216 = arith.subf %215, %211 : tensor<128xf32> loc(#loc188)
    %217 = arith.mulf %216, %76 : tensor<128xf32> loc(#loc189)
    %218 = arith.addf %211, %217 : tensor<128xf32> loc(#loc190)
    %219 = arith.subf %218, %203 : tensor<128xf32> loc(#loc191)
    %220 = arith.mulf %219, %82 : tensor<128xf32> loc(#loc192)
    %221 = arith.addf %203, %220 : tensor<128xf32> loc(#loc193)
    %222 = arith.addf %179, %221 : tensor<128xf32> loc(#loc194)
    %223 = arith.cmpf ogt, %cst_4, %222 : tensor<128xf32> loc(#loc206)
    %224 = arith.select %223, %cst_4, %222 : tensor<128xi1>, tensor<128xf32> loc(#loc207)
    %225 = arith.cmpf ole, %224, %cst_4 : tensor<128xf32> loc(#loc196)
    %226 = tt.splat %arg28 : !tt.ptr<f32> -> tensor<128x!tt.ptr<f32>> loc(#loc197)
    %227 = tt.addptr %226, %4 : tensor<128x!tt.ptr<f32>>, tensor<128xi32> loc(#loc197)
    tt.store %227, %92, %5 : tensor<128x!tt.ptr<f32>> loc(#loc198)
    %228 = tt.splat %arg0 : !tt.ptr<f32> -> tensor<128x!tt.ptr<f32>> loc(#loc199)
    %229 = tt.addptr %228, %4 : tensor<128x!tt.ptr<f32>>, tensor<128xi32> loc(#loc199)
    tt.store %229, %224, %5 : tensor<128x!tt.ptr<f32>> loc(#loc200)
    %230 = tt.splat %arg29 : !tt.ptr<i1> -> tensor<128x!tt.ptr<i1>> loc(#loc201)
    %231 = tt.addptr %230, %4 : tensor<128x!tt.ptr<i1>>, tensor<128xi32> loc(#loc201)
    %232 = tt.bitcast %231 : tensor<128x!tt.ptr<i1>> -> tensor<128x!tt.ptr<i8>> loc(#loc202)
    %233 = arith.extui %225 : tensor<128xi1> to tensor<128xi8> loc(#loc202)
    tt.store %232, %233, %5 : tensor<128x!tt.ptr<i8>> loc(#loc202)
    tt.return loc(#loc203)
  } loc(#loc)
} loc(#loc)
#loc1 = loc(unknown)
#loc2 = loc("inductor_cache/l3/cl35frt4uv7e3tigyje3h2e2kryfmivgmqlr2r2poe56q3s6lelq.py":21:28)
#loc3 = loc("inductor_cache/l3/cl35frt4uv7e3tigyje3h2e2kryfmivgmqlr2r2poe56q3s6lelq.py":21:33)
#loc4 = loc("inductor_cache/l3/cl35frt4uv7e3tigyje3h2e2kryfmivgmqlr2r2poe56q3s6lelq.py":22:36)
#loc5 = loc("inductor_cache/l3/cl35frt4uv7e3tigyje3h2e2kryfmivgmqlr2r2poe56q3s6lelq.py":22:23)
#loc6 = loc("inductor_cache/l3/cl35frt4uv7e3tigyje3h2e2kryfmivgmqlr2r2poe56q3s6lelq.py":23:21)
#loc7 = loc("inductor_cache/l3/cl35frt4uv7e3tigyje3h2e2kryfmivgmqlr2r2poe56q3s6lelq.py":25:21)
#loc8 = loc("inductor_cache/l3/cl35frt4uv7e3tigyje3h2e2kryfmivgmqlr2r2poe56q3s6lelq.py":25:28)
#loc9 = loc("inductor_cache/l3/cl35frt4uv7e3tigyje3h2e2kryfmivgmqlr2r2poe56q3s6lelq.py":26:21)
#loc10 = loc("inductor_cache/l3/cl35frt4uv7e3tigyje3h2e2kryfmivgmqlr2r2poe56q3s6lelq.py":26:27)
#loc11 = loc("inductor_cache/l3/cl35frt4uv7e3tigyje3h2e2kryfmivgmqlr2r2poe56q3s6lelq.py":27:19)
#loc12 = loc("inductor_cache/l3/cl35frt4uv7e3tigyje3h2e2kryfmivgmqlr2r2poe56q3s6lelq.py":29:30)
#loc13 = loc("inductor_cache/l3/cl35frt4uv7e3tigyje3h2e2kryfmivgmqlr2r2poe56q3s6lelq.py":29:35)
#loc14 = loc("inductor_cache/l3/cl35frt4uv7e3tigyje3h2e2kryfmivgmqlr2r2poe56q3s6lelq.py":30:30)
#loc15 = loc("inductor_cache/l3/cl35frt4uv7e3tigyje3h2e2kryfmivgmqlr2r2poe56q3s6lelq.py":30:35)
#loc16 = loc("inductor_cache/l3/cl35frt4uv7e3tigyje3h2e2kryfmivgmqlr2r2poe56q3s6lelq.py":31:30)
#loc17 = loc("inductor_cache/l3/cl35frt4uv7e3tigyje3h2e2kryfmivgmqlr2r2poe56q3s6lelq.py":31:35)
#loc18 = loc("inductor_cache/l3/cl35frt4uv7e3tigyje3h2e2kryfmivgmqlr2r2poe56q3s6lelq.py":32:31)
#loc19 = loc("inductor_cache/l3/cl35frt4uv7e3tigyje3h2e2kryfmivgmqlr2r2poe56q3s6lelq.py":32:36)
#loc20 = loc("inductor_cache/l3/cl35frt4uv7e3tigyje3h2e2kryfmivgmqlr2r2poe56q3s6lelq.py":33:31)
#loc21 = loc("inductor_cache/l3/cl35frt4uv7e3tigyje3h2e2kryfmivgmqlr2r2poe56q3s6lelq.py":33:36)
#loc22 = loc("inductor_cache/l3/cl35frt4uv7e3tigyje3h2e2kryfmivgmqlr2r2poe56q3s6lelq.py":34:31)
#loc23 = loc("inductor_cache/l3/cl35frt4uv7e3tigyje3h2e2kryfmivgmqlr2r2poe56q3s6lelq.py":34:36)
#loc24 = loc("inductor_cache/l3/cl35frt4uv7e3tigyje3h2e2kryfmivgmqlr2r2poe56q3s6lelq.py":35:31)
#loc25 = loc("inductor_cache/l3/cl35frt4uv7e3tigyje3h2e2kryfmivgmqlr2r2poe56q3s6lelq.py":35:36)
#loc26 = loc("inductor_cache/l3/cl35frt4uv7e3tigyje3h2e2kryfmivgmqlr2r2poe56q3s6lelq.py":36:31)
#loc27 = loc("inductor_cache/l3/cl35frt4uv7e3tigyje3h2e2kryfmivgmqlr2r2poe56q3s6lelq.py":36:36)
#loc28 = loc("inductor_cache/l3/cl35frt4uv7e3tigyje3h2e2kryfmivgmqlr2r2poe56q3s6lelq.py":37:31)
#loc29 = loc("inductor_cache/l3/cl35frt4uv7e3tigyje3h2e2kryfmivgmqlr2r2poe56q3s6lelq.py":37:36)
#loc30 = loc("inductor_cache/l3/cl35frt4uv7e3tigyje3h2e2kryfmivgmqlr2r2poe56q3s6lelq.py":38:32)
#loc31 = loc("inductor_cache/l3/cl35frt4uv7e3tigyje3h2e2kryfmivgmqlr2r2poe56q3s6lelq.py":38:37)
#loc32 = loc("inductor_cache/l3/cl35frt4uv7e3tigyje3h2e2kryfmivgmqlr2r2poe56q3s6lelq.py":39:32)
#loc33 = loc("inductor_cache/l3/cl35frt4uv7e3tigyje3h2e2kryfmivgmqlr2r2poe56q3s6lelq.py":39:37)
#loc34 = loc("inductor_cache/l3/cl35frt4uv7e3tigyje3h2e2kryfmivgmqlr2r2poe56q3s6lelq.py":40:32)
#loc35 = loc("inductor_cache/l3/cl35frt4uv7e3tigyje3h2e2kryfmivgmqlr2r2poe56q3s6lelq.py":40:37)
#loc36 = loc("inductor_cache/l3/cl35frt4uv7e3tigyje3h2e2kryfmivgmqlr2r2poe56q3s6lelq.py":41:32)
#loc37 = loc("inductor_cache/l3/cl35frt4uv7e3tigyje3h2e2kryfmivgmqlr2r2poe56q3s6lelq.py":41:37)
#loc38 = loc("inductor_cache/l3/cl35frt4uv7e3tigyje3h2e2kryfmivgmqlr2r2poe56q3s6lelq.py":42:32)
#loc39 = loc("inductor_cache/l3/cl35frt4uv7e3tigyje3h2e2kryfmivgmqlr2r2poe56q3s6lelq.py":42:37)
#loc40 = loc("inductor_cache/l3/cl35frt4uv7e3tigyje3h2e2kryfmivgmqlr2r2poe56q3s6lelq.py":43:32)
#loc41 = loc("inductor_cache/l3/cl35frt4uv7e3tigyje3h2e2kryfmivgmqlr2r2poe56q3s6lelq.py":43:37)
#loc42 = loc("inductor_cache/l3/cl35frt4uv7e3tigyje3h2e2kryfmivgmqlr2r2poe56q3s6lelq.py":44:32)
#loc43 = loc("inductor_cache/l3/cl35frt4uv7e3tigyje3h2e2kryfmivgmqlr2r2poe56q3s6lelq.py":44:37)
#loc44 = loc("inductor_cache/l3/cl35frt4uv7e3tigyje3h2e2kryfmivgmqlr2r2poe56q3s6lelq.py":45:32)
#loc45 = loc("inductor_cache/l3/cl35frt4uv7e3tigyje3h2e2kryfmivgmqlr2r2poe56q3s6lelq.py":45:37)
#loc46 = loc("inductor_cache/l3/cl35frt4uv7e3tigyje3h2e2kryfmivgmqlr2r2poe56q3s6lelq.py":46:32)
#loc47 = loc("inductor_cache/l3/cl35frt4uv7e3tigyje3h2e2kryfmivgmqlr2r2poe56q3s6lelq.py":46:37)
#loc48 = loc("inductor_cache/l3/cl35frt4uv7e3tigyje3h2e2kryfmivgmqlr2r2poe56q3s6lelq.py":47:32)
#loc49 = loc("inductor_cache/l3/cl35frt4uv7e3tigyje3h2e2kryfmivgmqlr2r2poe56q3s6lelq.py":47:37)
#loc50 = loc("inductor_cache/l3/cl35frt4uv7e3tigyje3h2e2kryfmivgmqlr2r2poe56q3s6lelq.py":48:32)
#loc51 = loc("inductor_cache/l3/cl35frt4uv7e3tigyje3h2e2kryfmivgmqlr2r2poe56q3s6lelq.py":48:37)
#loc52 = loc("inductor_cache/l3/cl35frt4uv7e3tigyje3h2e2kryfmivgmqlr2r2poe56q3s6lelq.py":49:32)
#loc53 = loc("inductor_cache/l3/cl35frt4uv7e3tigyje3h2e2kryfmivgmqlr2r2poe56q3s6lelq.py":49:37)
#loc54 = loc("inductor_cache/l3/cl35frt4uv7e3tigyje3h2e2kryfmivgmqlr2r2poe56q3s6lelq.py":50:33)
#loc55 = loc("inductor_cache/l3/cl35frt4uv7e3tigyje3h2e2kryfmivgmqlr2r2poe56q3s6lelq.py":50:38)
#loc56 = loc("inductor_cache/l3/cl35frt4uv7e3tigyje3h2e2kryfmivgmqlr2r2poe56q3s6lelq.py":51:33)
#loc57 = loc("inductor_cache/l3/cl35frt4uv7e3tigyje3h2e2kryfmivgmqlr2r2poe56q3s6lelq.py":51:38)
#loc58 = loc("inductor_cache/l3/cl35frt4uv7e3tigyje3h2e2kryfmivgmqlr2r2poe56q3s6lelq.py":52:33)
#loc59 = loc("inductor_cache/l3/cl35frt4uv7e3tigyje3h2e2kryfmivgmqlr2r2poe56q3s6lelq.py":52:38)
#loc60 = loc("inductor_cache/l3/cl35frt4uv7e3tigyje3h2e2kryfmivgmqlr2r2poe56q3s6lelq.py":53:18)
#loc61 = loc("inductor_cache/l3/cl35frt4uv7e3tigyje3h2e2kryfmivgmqlr2r2poe56q3s6lelq.py":55:18)
#loc62 = loc("inductor_cache/l3/cl35frt4uv7e3tigyje3h2e2kryfmivgmqlr2r2poe56q3s6lelq.py":56:26)
#loc63 = loc("inductor_cache/l3/cl35frt4uv7e3tigyje3h2e2kryfmivgmqlr2r2poe56q3s6lelq.py":58:18)
#loc64 = loc("inductor_cache/l3/cl35frt4uv7e3tigyje3h2e2kryfmivgmqlr2r2poe56q3s6lelq.py":61:19)
#loc65 = loc("inductor_cache/l3/cl35frt4uv7e3tigyje3h2e2kryfmivgmqlr2r2poe56q3s6lelq.py":62:20)
#loc66 = loc("inductor_cache/l3/cl35frt4uv7e3tigyje3h2e2kryfmivgmqlr2r2poe56q3s6lelq.py":63:20)
#loc67 = loc("inductor_cache/l3/cl35frt4uv7e3tigyje3h2e2kryfmivgmqlr2r2poe56q3s6lelq.py":64:20)
#loc68 = loc("/home/sahanp/.conda/envs/parity-bench/lib/python3.12/site-packages/torch/_inductor/runtime/triton_helpers.py":118:15)
#loc69 = loc("inductor_cache/l3/cl35frt4uv7e3tigyje3h2e2kryfmivgmqlr2r2poe56q3s6lelq.py":66:42)
#loc70 = loc("/home/sahanp/.conda/envs/parity-bench/lib/python3.12/site-packages/torch/_inductor/runtime/triton_helpers.py":121:29)
#loc71 = loc("inductor_cache/l3/cl35frt4uv7e3tigyje3h2e2kryfmivgmqlr2r2poe56q3s6lelq.py":68:20)
#loc72 = loc("inductor_cache/l3/cl35frt4uv7e3tigyje3h2e2kryfmivgmqlr2r2poe56q3s6lelq.py":69:20)
#loc73 = loc("inductor_cache/l3/cl35frt4uv7e3tigyje3h2e2kryfmivgmqlr2r2poe56q3s6lelq.py":70:35)
#loc74 = loc("inductor_cache/l3/cl35frt4uv7e3tigyje3h2e2kryfmivgmqlr2r2poe56q3s6lelq.py":71:20)
#loc75 = loc("inductor_cache/l3/cl35frt4uv7e3tigyje3h2e2kryfmivgmqlr2r2poe56q3s6lelq.py":72:20)
#loc76 = loc("inductor_cache/l3/cl35frt4uv7e3tigyje3h2e2kryfmivgmqlr2r2poe56q3s6lelq.py":73:35)
#loc77 = loc("inductor_cache/l3/cl35frt4uv7e3tigyje3h2e2kryfmivgmqlr2r2poe56q3s6lelq.py":74:41)
#loc78 = loc("inductor_cache/l3/cl35frt4uv7e3tigyje3h2e2kryfmivgmqlr2r2poe56q3s6lelq.py":74:39)
#loc79 = loc("inductor_cache/l3/cl35frt4uv7e3tigyje3h2e2kryfmivgmqlr2r2poe56q3s6lelq.py":74:52)
#loc80 = loc("inductor_cache/l3/cl35frt4uv7e3tigyje3h2e2kryfmivgmqlr2r2poe56q3s6lelq.py":74:49)
#loc81 = loc("inductor_cache/l3/cl35frt4uv7e3tigyje3h2e2kryfmivgmqlr2r2poe56q3s6lelq.py":74:31)
#loc82 = loc("inductor_cache/l3/cl35frt4uv7e3tigyje3h2e2kryfmivgmqlr2r2poe56q3s6lelq.py":74:57)
#loc83 = loc("inductor_cache/l3/cl35frt4uv7e3tigyje3h2e2kryfmivgmqlr2r2poe56q3s6lelq.py":75:20)
#loc84 = loc("inductor_cache/l3/cl35frt4uv7e3tigyje3h2e2kryfmivgmqlr2r2poe56q3s6lelq.py":76:20)
#loc85 = loc("inductor_cache/l3/cl35frt4uv7e3tigyje3h2e2kryfmivgmqlr2r2poe56q3s6lelq.py":77:35)
#loc86 = loc("inductor_cache/l3/cl35frt4uv7e3tigyje3h2e2kryfmivgmqlr2r2poe56q3s6lelq.py":78:39)
#loc87 = loc("inductor_cache/l3/cl35frt4uv7e3tigyje3h2e2kryfmivgmqlr2r2poe56q3s6lelq.py":78:49)
#loc88 = loc("inductor_cache/l3/cl35frt4uv7e3tigyje3h2e2kryfmivgmqlr2r2poe56q3s6lelq.py":78:31)
#loc89 = loc("inductor_cache/l3/cl35frt4uv7e3tigyje3h2e2kryfmivgmqlr2r2poe56q3s6lelq.py":78:57)
#loc90 = loc("inductor_cache/l3/cl35frt4uv7e3tigyje3h2e2kryfmivgmqlr2r2poe56q3s6lelq.py":79:20)
#loc91 = loc("inductor_cache/l3/cl35frt4uv7e3tigyje3h2e2kryfmivgmqlr2r2poe56q3s6lelq.py":80:20)
#loc92 = loc("inductor_cache/l3/cl35frt4uv7e3tigyje3h2e2kryfmivgmqlr2r2poe56q3s6lelq.py":81:20)
#loc93 = loc("inductor_cache/l3/cl35frt4uv7e3tigyje3h2e2kryfmivgmqlr2r2poe56q3s6lelq.py":83:20)
#loc94 = loc("inductor_cache/l3/cl35frt4uv7e3tigyje3h2e2kryfmivgmqlr2r2poe56q3s6lelq.py":84:20)
#loc95 = loc("inductor_cache/l3/cl35frt4uv7e3tigyje3h2e2kryfmivgmqlr2r2poe56q3s6lelq.py":85:20)
#loc96 = loc("inductor_cache/l3/cl35frt4uv7e3tigyje3h2e2kryfmivgmqlr2r2poe56q3s6lelq.py":86:35)
#loc97 = loc("inductor_cache/l3/cl35frt4uv7e3tigyje3h2e2kryfmivgmqlr2r2poe56q3s6lelq.py":87:41)
#loc98 = loc("inductor_cache/l3/cl35frt4uv7e3tigyje3h2e2kryfmivgmqlr2r2poe56q3s6lelq.py":87:39)
#loc99 = loc("inductor_cache/l3/cl35frt4uv7e3tigyje3h2e2kryfmivgmqlr2r2poe56q3s6lelq.py":87:49)
#loc100 = loc("inductor_cache/l3/cl35frt4uv7e3tigyje3h2e2kryfmivgmqlr2r2poe56q3s6lelq.py":87:31)
#loc101 = loc("inductor_cache/l3/cl35frt4uv7e3tigyje3h2e2kryfmivgmqlr2r2poe56q3s6lelq.py":87:57)
#loc102 = loc("inductor_cache/l3/cl35frt4uv7e3tigyje3h2e2kryfmivgmqlr2r2poe56q3s6lelq.py":88:39)
#loc103 = loc("inductor_cache/l3/cl35frt4uv7e3tigyje3h2e2kryfmivgmqlr2r2poe56q3s6lelq.py":88:49)
#loc104 = loc("inductor_cache/l3/cl35frt4uv7e3tigyje3h2e2kryfmivgmqlr2r2poe56q3s6lelq.py":88:31)
#loc105 = loc("inductor_cache/l3/cl35frt4uv7e3tigyje3h2e2kryfmivgmqlr2r2poe56q3s6lelq.py":88:57)
#loc106 = loc("inductor_cache/l3/cl35frt4uv7e3tigyje3h2e2kryfmivgmqlr2r2poe56q3s6lelq.py":89:20)
#loc107 = loc("inductor_cache/l3/cl35frt4uv7e3tigyje3h2e2kryfmivgmqlr2r2poe56q3s6lelq.py":90:20)
#loc108 = loc("inductor_cache/l3/cl35frt4uv7e3tigyje3h2e2kryfmivgmqlr2r2poe56q3s6lelq.py":91:20)
#loc109 = loc("inductor_cache/l3/cl35frt4uv7e3tigyje3h2e2kryfmivgmqlr2r2poe56q3s6lelq.py":92:20)
#loc110 = loc("inductor_cache/l3/cl35frt4uv7e3tigyje3h2e2kryfmivgmqlr2r2poe56q3s6lelq.py":93:20)
#loc111 = loc("inductor_cache/l3/cl35frt4uv7e3tigyje3h2e2kryfmivgmqlr2r2poe56q3s6lelq.py":94:20)
#loc112 = loc("inductor_cache/l3/cl35frt4uv7e3tigyje3h2e2kryfmivgmqlr2r2poe56q3s6lelq.py":95:20)
#loc113 = loc("inductor_cache/l3/cl35frt4uv7e3tigyje3h2e2kryfmivgmqlr2r2poe56q3s6lelq.py":97:20)
#loc114 = loc("inductor_cache/l3/cl35frt4uv7e3tigyje3h2e2kryfmivgmqlr2r2poe56q3s6lelq.py":98:20)
#loc115 = loc("inductor_cache/l3/cl35frt4uv7e3tigyje3h2e2kryfmivgmqlr2r2poe56q3s6lelq.py":99:35)
#loc116 = loc("inductor_cache/l3/cl35frt4uv7e3tigyje3h2e2kryfmivgmqlr2r2poe56q3s6lelq.py":100:20)
#loc117 = loc("inductor_cache/l3/cl35frt4uv7e3tigyje3h2e2kryfmivgmqlr2r2poe56q3s6lelq.py":101:20)
#loc118 = loc("inductor_cache/l3/cl35frt4uv7e3tigyje3h2e2kryfmivgmqlr2r2poe56q3s6lelq.py":102:35)
#loc119 = loc("inductor_cache/l3/cl35frt4uv7e3tigyje3h2e2kryfmivgmqlr2r2poe56q3s6lelq.py":103:42)
#loc120 = loc("inductor_cache/l3/cl35frt4uv7e3tigyje3h2e2kryfmivgmqlr2r2poe56q3s6lelq.py":103:40)
#loc121 = loc("inductor_cache/l3/cl35frt4uv7e3tigyje3h2e2kryfmivgmqlr2r2poe56q3s6lelq.py":103:53)
#loc122 = loc("inductor_cache/l3/cl35frt4uv7e3tigyje3h2e2kryfmivgmqlr2r2poe56q3s6lelq.py":103:50)
#loc123 = loc("inductor_cache/l3/cl35frt4uv7e3tigyje3h2e2kryfmivgmqlr2r2poe56q3s6lelq.py":103:32)
#loc124 = loc("inductor_cache/l3/cl35frt4uv7e3tigyje3h2e2kryfmivgmqlr2r2poe56q3s6lelq.py":103:58)
#loc125 = loc("inductor_cache/l3/cl35frt4uv7e3tigyje3h2e2kryfmivgmqlr2r2poe56q3s6lelq.py":104:20)
#loc126 = loc("inductor_cache/l3/cl35frt4uv7e3tigyje3h2e2kryfmivgmqlr2r2poe56q3s6lelq.py":105:20)
#loc127 = loc("inductor_cache/l3/cl35frt4uv7e3tigyje3h2e2kryfmivgmqlr2r2poe56q3s6lelq.py":106:35)
#loc128 = loc("inductor_cache/l3/cl35frt4uv7e3tigyje3h2e2kryfmivgmqlr2r2poe56q3s6lelq.py":107:40)
#loc129 = loc("inductor_cache/l3/cl35frt4uv7e3tigyje3h2e2kryfmivgmqlr2r2poe56q3s6lelq.py":107:50)
#loc130 = loc("inductor_cache/l3/cl35frt4uv7e3tigyje3h2e2kryfmivgmqlr2r2poe56q3s6lelq.py":107:32)
#loc131 = loc("inductor_cache/l3/cl35frt4uv7e3tigyje3h2e2kryfmivgmqlr2r2poe56q3s6lelq.py":107:58)
#loc132 = loc("inductor_cache/l3/cl35frt4uv7e3tigyje3h2e2kryfmivgmqlr2r2poe56q3s6lelq.py":108:20)
#loc133 = loc("inductor_cache/l3/cl35frt4uv7e3tigyje3h2e2kryfmivgmqlr2r2poe56q3s6lelq.py":109:20)
#loc134 = loc("inductor_cache/l3/cl35frt4uv7e3tigyje3h2e2kryfmivgmqlr2r2poe56q3s6lelq.py":110:20)
#loc135 = loc("inductor_cache/l3/cl35frt4uv7e3tigyje3h2e2kryfmivgmqlr2r2poe56q3s6lelq.py":111:20)
#loc136 = loc("inductor_cache/l3/cl35frt4uv7e3tigyje3h2e2kryfmivgmqlr2r2poe56q3s6lelq.py":112:20)
#loc137 = loc("inductor_cache/l3/cl35frt4uv7e3tigyje3h2e2kryfmivgmqlr2r2poe56q3s6lelq.py":113:35)
#loc138 = loc("inductor_cache/l3/cl35frt4uv7e3tigyje3h2e2kryfmivgmqlr2r2poe56q3s6lelq.py":114:42)
#loc139 = loc("inductor_cache/l3/cl35frt4uv7e3tigyje3h2e2kryfmivgmqlr2r2poe56q3s6lelq.py":114:40)
#loc140 = loc("inductor_cache/l3/cl35frt4uv7e3tigyje3h2e2kryfmivgmqlr2r2poe56q3s6lelq.py":114:50)
#loc141 = loc("inductor_cache/l3/cl35frt4uv7e3tigyje3h2e2kryfmivgmqlr2r2poe56q3s6lelq.py":114:32)
#loc142 = loc("inductor_cache/l3/cl35frt4uv7e3tigyje3h2e2kryfmivgmqlr2r2poe56q3s6lelq.py":114:58)
#loc143 = loc("inductor_cache/l3/cl35frt4uv7e3tigyje3h2e2kryfmivgmqlr2r2poe56q3s6lelq.py":115:40)
#loc144 = loc("inductor_cache/l3/cl35frt4uv7e3tigyje3h2e2kryfmivgmqlr2r2poe56q3s6lelq.py":115:50)
#loc145 = loc("inductor_cache/l3/cl35frt4uv7e3tigyje3h2e2kryfmivgmqlr2r2poe56q3s6lelq.py":115:32)
#loc146 = loc("inductor_cache/l3/cl35frt4uv7e3tigyje3h2e2kryfmivgmqlr2r2poe56q3s6lelq.py":115:58)
#loc147 = loc("inductor_cache/l3/cl35frt4uv7e3tigyje3h2e2kryfmivgmqlr2r2poe56q3s6lelq.py":116:20)
#loc148 = loc("inductor_cache/l3/cl35frt4uv7e3tigyje3h2e2kryfmivgmqlr2r2poe56q3s6lelq.py":117:20)
#loc149 = loc("inductor_cache/l3/cl35frt4uv7e3tigyje3h2e2kryfmivgmqlr2r2poe56q3s6lelq.py":118:20)
#loc150 = loc("inductor_cache/l3/cl35frt4uv7e3tigyje3h2e2kryfmivgmqlr2r2poe56q3s6lelq.py":119:20)
#loc151 = loc("inductor_cache/l3/cl35frt4uv7e3tigyje3h2e2kryfmivgmqlr2r2poe56q3s6lelq.py":120:20)
#loc152 = loc("inductor_cache/l3/cl35frt4uv7e3tigyje3h2e2kryfmivgmqlr2r2poe56q3s6lelq.py":121:20)
#loc153 = loc("inductor_cache/l3/cl35frt4uv7e3tigyje3h2e2kryfmivgmqlr2r2poe56q3s6lelq.py":122:20)
#loc154 = loc("inductor_cache/l3/cl35frt4uv7e3tigyje3h2e2kryfmivgmqlr2r2poe56q3s6lelq.py":124:20)
#loc155 = loc("inductor_cache/l3/cl35frt4uv7e3tigyje3h2e2kryfmivgmqlr2r2poe56q3s6lelq.py":125:20)
#loc156 = loc("inductor_cache/l3/cl35frt4uv7e3tigyje3h2e2kryfmivgmqlr2r2poe56q3s6lelq.py":126:35)
#loc157 = loc("inductor_cache/l3/cl35frt4uv7e3tigyje3h2e2kryfmivgmqlr2r2poe56q3s6lelq.py":127:20)
#loc158 = loc("inductor_cache/l3/cl35frt4uv7e3tigyje3h2e2kryfmivgmqlr2r2poe56q3s6lelq.py":128:20)
#loc159 = loc("inductor_cache/l3/cl35frt4uv7e3tigyje3h2e2kryfmivgmqlr2r2poe56q3s6lelq.py":129:35)
#loc160 = loc("inductor_cache/l3/cl35frt4uv7e3tigyje3h2e2kryfmivgmqlr2r2poe56q3s6lelq.py":130:42)
#loc161 = loc("inductor_cache/l3/cl35frt4uv7e3tigyje3h2e2kryfmivgmqlr2r2poe56q3s6lelq.py":130:40)
#loc162 = loc("inductor_cache/l3/cl35frt4uv7e3tigyje3h2e2kryfmivgmqlr2r2poe56q3s6lelq.py":130:52)
#loc163 = loc("inductor_cache/l3/cl35frt4uv7e3tigyje3h2e2kryfmivgmqlr2r2poe56q3s6lelq.py":130:50)
#loc164 = loc("inductor_cache/l3/cl35frt4uv7e3tigyje3h2e2kryfmivgmqlr2r2poe56q3s6lelq.py":130:32)
#loc165 = loc("inductor_cache/l3/cl35frt4uv7e3tigyje3h2e2kryfmivgmqlr2r2poe56q3s6lelq.py":130:57)
#loc166 = loc("inductor_cache/l3/cl35frt4uv7e3tigyje3h2e2kryfmivgmqlr2r2poe56q3s6lelq.py":131:20)
#loc167 = loc("inductor_cache/l3/cl35frt4uv7e3tigyje3h2e2kryfmivgmqlr2r2poe56q3s6lelq.py":132:21)
#loc168 = loc("inductor_cache/l3/cl35frt4uv7e3tigyje3h2e2kryfmivgmqlr2r2poe56q3s6lelq.py":133:37)
#loc169 = loc("inductor_cache/l3/cl35frt4uv7e3tigyje3h2e2kryfmivgmqlr2r2poe56q3s6lelq.py":134:42)
#loc170 = loc("inductor_cache/l3/cl35frt4uv7e3tigyje3h2e2kryfmivgmqlr2r2poe56q3s6lelq.py":134:52)
#loc171 = loc("inductor_cache/l3/cl35frt4uv7e3tigyje3h2e2kryfmivgmqlr2r2poe56q3s6lelq.py":134:33)
#loc172 = loc("inductor_cache/l3/cl35frt4uv7e3tigyje3h2e2kryfmivgmqlr2r2poe56q3s6lelq.py":134:59)
#loc173 = loc("inductor_cache/l3/cl35frt4uv7e3tigyje3h2e2kryfmivgmqlr2r2poe56q3s6lelq.py":135:22)
#loc174 = loc("inductor_cache/l3/cl35frt4uv7e3tigyje3h2e2kryfmivgmqlr2r2poe56q3s6lelq.py":136:22)
#loc175 = loc("inductor_cache/l3/cl35frt4uv7e3tigyje3h2e2kryfmivgmqlr2r2poe56q3s6lelq.py":137:21)
#loc176 = loc("inductor_cache/l3/cl35frt4uv7e3tigyje3h2e2kryfmivgmqlr2r2poe56q3s6lelq.py":138:22)
#loc177 = loc("inductor_cache/l3/cl35frt4uv7e3tigyje3h2e2kryfmivgmqlr2r2poe56q3s6lelq.py":139:22)
#loc178 = loc("inductor_cache/l3/cl35frt4uv7e3tigyje3h2e2kryfmivgmqlr2r2poe56q3s6lelq.py":140:38)
#loc179 = loc("inductor_cache/l3/cl35frt4uv7e3tigyje3h2e2kryfmivgmqlr2r2poe56q3s6lelq.py":141:43)
#loc180 = loc("inductor_cache/l3/cl35frt4uv7e3tigyje3h2e2kryfmivgmqlr2r2poe56q3s6lelq.py":141:41)
#loc181 = loc("inductor_cache/l3/cl35frt4uv7e3tigyje3h2e2kryfmivgmqlr2r2poe56q3s6lelq.py":141:52)
#loc182 = loc("inductor_cache/l3/cl35frt4uv7e3tigyje3h2e2kryfmivgmqlr2r2poe56q3s6lelq.py":141:33)
#loc183 = loc("inductor_cache/l3/cl35frt4uv7e3tigyje3h2e2kryfmivgmqlr2r2poe56q3s6lelq.py":141:59)
#loc184 = loc("inductor_cache/l3/cl35frt4uv7e3tigyje3h2e2kryfmivgmqlr2r2poe56q3s6lelq.py":142:42)
#loc185 = loc("inductor_cache/l3/cl35frt4uv7e3tigyje3h2e2kryfmivgmqlr2r2poe56q3s6lelq.py":142:53)
#loc186 = loc("inductor_cache/l3/cl35frt4uv7e3tigyje3h2e2kryfmivgmqlr2r2poe56q3s6lelq.py":142:33)
#loc187 = loc("inductor_cache/l3/cl35frt4uv7e3tigyje3h2e2kryfmivgmqlr2r2poe56q3s6lelq.py":142:60)
#loc188 = loc("inductor_cache/l3/cl35frt4uv7e3tigyje3h2e2kryfmivgmqlr2r2poe56q3s6lelq.py":143:22)
#loc189 = loc("inductor_cache/l3/cl35frt4uv7e3tigyje3h2e2kryfmivgmqlr2r2poe56q3s6lelq.py":144:22)
#loc190 = loc("inductor_cache/l3/cl35frt4uv7e3tigyje3h2e2kryfmivgmqlr2r2poe56q3s6lelq.py":145:22)
#loc191 = loc("inductor_cache/l3/cl35frt4uv7e3tigyje3h2e2kryfmivgmqlr2r2poe56q3s6lelq.py":146:22)
#loc192 = loc("inductor_cache/l3/cl35frt4uv7e3tigyje3h2e2kryfmivgmqlr2r2poe56q3s6lelq.py":147:22)
#loc193 = loc("inductor_cache/l3/cl35frt4uv7e3tigyje3h2e2kryfmivgmqlr2r2poe56q3s6lelq.py":148:22)
#loc194 = loc("inductor_cache/l3/cl35frt4uv7e3tigyje3h2e2kryfmivgmqlr2r2poe56q3s6lelq.py":149:21)
#loc195 = loc("inductor_cache/l3/cl35frt4uv7e3tigyje3h2e2kryfmivgmqlr2r2poe56q3s6lelq.py":150:43)
#loc196 = loc("inductor_cache/l3/cl35frt4uv7e3tigyje3h2e2kryfmivgmqlr2r2poe56q3s6lelq.py":151:23)
#loc197 = loc("inductor_cache/l3/cl35frt4uv7e3tigyje3h2e2kryfmivgmqlr2r2poe56q3s6lelq.py":152:25)
#loc198 = loc("inductor_cache/l3/cl35frt4uv7e3tigyje3h2e2kryfmivgmqlr2r2poe56q3s6lelq.py":152:37)
#loc199 = loc("inductor_cache/l3/cl35frt4uv7e3tigyje3h2e2kryfmivgmqlr2r2poe56q3s6lelq.py":153:28)
#loc200 = loc("inductor_cache/l3/cl35frt4uv7e3tigyje3h2e2kryfmivgmqlr2r2poe56q3s6lelq.py":153:41)
#loc201 = loc("inductor_cache/l3/cl35frt4uv7e3tigyje3h2e2kryfmivgmqlr2r2poe56q3s6lelq.py":154:25)
#loc202 = loc("inductor_cache/l3/cl35frt4uv7e3tigyje3h2e2kryfmivgmqlr2r2poe56q3s6lelq.py":154:38)
#loc203 = loc("inductor_cache/l3/cl35frt4uv7e3tigyje3h2e2kryfmivgmqlr2r2poe56q3s6lelq.py":154:4)
#loc204 = loc(callsite(#loc68 at #loc69))
#loc205 = loc(callsite(#loc70 at #loc69))
#loc206 = loc(callsite(#loc68 at #loc195))
#loc207 = loc(callsite(#loc70 at #loc195))
