#loc = loc("inductor_cache/l7/cl7fb7b5tsrjmqco4vzic7mm36edhabcccpy5ys6iqlfy6mwg52c.py":19:0)
module {
  tt.func public @triton_poi_fused_add_hardtanh_backward_3(%arg0: !tt.ptr<f32> {tt.divisibility = 16 : i32} loc("inductor_cache/l7/cl7fb7b5tsrjmqco4vzic7mm36edhabcccpy5ys6iqlfy6mwg52c.py":19:0), %arg1: !tt.ptr<i1> {tt.divisibility = 16 : i32} loc("inductor_cache/l7/cl7fb7b5tsrjmqco4vzic7mm36edhabcccpy5ys6iqlfy6mwg52c.py":19:0), %arg2: i32 {tt.divisibility = 16 : i32} loc("inductor_cache/l7/cl7fb7b5tsrjmqco4vzic7mm36edhabcccpy5ys6iqlfy6mwg52c.py":19:0)) attributes {noinline = false} {
    %cst = arith.constant dense<6.000000e+00> : tensor<16xf32> loc(#loc1)
    %cst_0 = arith.constant dense<0.000000e+00> : tensor<16xf32> loc(#loc1)
    %cst_1 = arith.constant dense<3.000000e+00> : tensor<16xf32> loc(#loc1)
    %cst_2 = arith.constant dense<16> : tensor<16xi32> loc(#loc1)
    %c16_i32 = arith.constant 16 : i32 loc(#loc1)
    %0 = tt.get_program_id x : i32 loc(#loc2)
    %1 = arith.muli %0, %c16_i32 : i32 loc(#loc3)
    %2 = tt.make_range {end = 16 : i32, start = 0 : i32} : tensor<16xi32> loc(#loc4)
    %3 = tt.splat %1 : i32 -> tensor<16xi32> loc(#loc5)
    %4 = arith.addi %3, %2 : tensor<16xi32> loc(#loc5)
    %5 = arith.cmpi slt, %4, %cst_2 : tensor<16xi32> loc(#loc6)
    %6 = tt.splat %arg0 : !tt.ptr<f32> -> tensor<16x!tt.ptr<f32>> loc(#loc7)
    %7 = tt.addptr %6, %4 : tensor<16x!tt.ptr<f32>>, tensor<16xi32> loc(#loc7)
    %8 = tt.load %7, %5 : tensor<16x!tt.ptr<f32>> loc(#loc8)
    %9 = arith.addf %8, %cst_1 : tensor<16xf32> loc(#loc9)
    %10 = arith.cmpf ole, %9, %cst_0 : tensor<16xf32> loc(#loc10)
    %11 = arith.cmpf oge, %9, %cst : tensor<16xf32> loc(#loc11)
    %12 = arith.ori %10, %11 : tensor<16xi1> loc(#loc12)
    %13 = tt.splat %arg1 : !tt.ptr<i1> -> tensor<16x!tt.ptr<i1>> loc(#loc13)
    %14 = tt.addptr %13, %4 : tensor<16x!tt.ptr<i1>>, tensor<16xi32> loc(#loc13)
    %15 = tt.bitcast %14 : tensor<16x!tt.ptr<i1>> -> tensor<16x!tt.ptr<i8>> loc(#loc14)
    %16 = arith.extui %12 : tensor<16xi1> to tensor<16xi8> loc(#loc14)
    tt.store %15, %16, %5 : tensor<16x!tt.ptr<i8>> loc(#loc14)
    tt.return loc(#loc15)
  } loc(#loc)
} loc(#loc)
#loc1 = loc(unknown)
#loc2 = loc("inductor_cache/l7/cl7fb7b5tsrjmqco4vzic7mm36edhabcccpy5ys6iqlfy6mwg52c.py":21:28)
#loc3 = loc("inductor_cache/l7/cl7fb7b5tsrjmqco4vzic7mm36edhabcccpy5ys6iqlfy6mwg52c.py":21:33)
#loc4 = loc("inductor_cache/l7/cl7fb7b5tsrjmqco4vzic7mm36edhabcccpy5ys6iqlfy6mwg52c.py":22:36)
#loc5 = loc("inductor_cache/l7/cl7fb7b5tsrjmqco4vzic7mm36edhabcccpy5ys6iqlfy6mwg52c.py":22:23)
#loc6 = loc("inductor_cache/l7/cl7fb7b5tsrjmqco4vzic7mm36edhabcccpy5ys6iqlfy6mwg52c.py":23:21)
#loc7 = loc("inductor_cache/l7/cl7fb7b5tsrjmqco4vzic7mm36edhabcccpy5ys6iqlfy6mwg52c.py":25:30)
#loc8 = loc("inductor_cache/l7/cl7fb7b5tsrjmqco4vzic7mm36edhabcccpy5ys6iqlfy6mwg52c.py":25:35)
#loc9 = loc("inductor_cache/l7/cl7fb7b5tsrjmqco4vzic7mm36edhabcccpy5ys6iqlfy6mwg52c.py":27:18)
#loc10 = loc("inductor_cache/l7/cl7fb7b5tsrjmqco4vzic7mm36edhabcccpy5ys6iqlfy6mwg52c.py":29:19)
#loc11 = loc("inductor_cache/l7/cl7fb7b5tsrjmqco4vzic7mm36edhabcccpy5ys6iqlfy6mwg52c.py":31:19)
#loc12 = loc("inductor_cache/l7/cl7fb7b5tsrjmqco4vzic7mm36edhabcccpy5ys6iqlfy6mwg52c.py":32:18)
#loc13 = loc("inductor_cache/l7/cl7fb7b5tsrjmqco4vzic7mm36edhabcccpy5ys6iqlfy6mwg52c.py":33:25)
#loc14 = loc("inductor_cache/l7/cl7fb7b5tsrjmqco4vzic7mm36edhabcccpy5ys6iqlfy6mwg52c.py":33:36)
#loc15 = loc("inductor_cache/l7/cl7fb7b5tsrjmqco4vzic7mm36edhabcccpy5ys6iqlfy6mwg52c.py":33:4)
