#loc = loc("inductor_cache/kb/ckbpu5rahttbpxoexddzxifzilgc6ttcbtzmn4gl7wsjhapzqipy.py":19:0)
module {
  tt.func public @triton_poi_fused__softmax_6(%arg0: !tt.ptr<f32> {tt.divisibility = 16 : i32} loc("inductor_cache/kb/ckbpu5rahttbpxoexddzxifzilgc6ttcbtzmn4gl7wsjhapzqipy.py":19:0), %arg1: !tt.ptr<f32> {tt.divisibility = 16 : i32} loc("inductor_cache/kb/ckbpu5rahttbpxoexddzxifzilgc6ttcbtzmn4gl7wsjhapzqipy.py":19:0), %arg2: i32 {tt.divisibility = 16 : i32} loc("inductor_cache/kb/ckbpu5rahttbpxoexddzxifzilgc6ttcbtzmn4gl7wsjhapzqipy.py":19:0)) attributes {noinline = false} {
    %cst = arith.constant dense<3> : tensor<128xi32> loc(#loc1)
    %cst_0 = arith.constant dense<2> : tensor<128xi32> loc(#loc1)
    %cst_1 = arith.constant dense<1> : tensor<128xi32> loc(#loc1)
    %cst_2 = arith.constant dense<4> : tensor<128xi32> loc(#loc1)
    %cst_3 = arith.constant dense<128> : tensor<128xi32> loc(#loc1)
    %c128_i32 = arith.constant 128 : i32 loc(#loc1)
    %0 = tt.get_program_id x : i32 loc(#loc2)
    %1 = arith.muli %0, %c128_i32 : i32 loc(#loc3)
    %2 = tt.make_range {end = 128 : i32, start = 0 : i32} : tensor<128xi32> loc(#loc4)
    %3 = tt.splat %1 : i32 -> tensor<128xi32> loc(#loc5)
    %4 = arith.addi %3, %2 : tensor<128xi32> loc(#loc5)
    %5 = arith.cmpi slt, %4, %cst_3 : tensor<128xi32> loc(#loc6)
    %6 = arith.divsi %4, %cst_2 : tensor<128xi32> loc(#loc7)
    %7 = tt.splat %arg0 : !tt.ptr<f32> -> tensor<128x!tt.ptr<f32>> loc(#loc8)
    %8 = tt.addptr %7, %4 : tensor<128x!tt.ptr<f32>>, tensor<128xi32> loc(#loc8)
    %9 = tt.load %8, %5 : tensor<128x!tt.ptr<f32>> loc(#loc9)
    %10 = arith.muli %6, %cst_2 : tensor<128xi32> loc(#loc10)
    %11 = tt.addptr %7, %10 : tensor<128x!tt.ptr<f32>>, tensor<128xi32> loc(#loc11)
    %12 = tt.load %11, %5 evictionPolicy = evict_last : tensor<128x!tt.ptr<f32>> loc(#loc12)
    %13 = arith.addi %10, %cst_1 : tensor<128xi32> loc(#loc13)
    %14 = tt.addptr %7, %13 : tensor<128x!tt.ptr<f32>>, tensor<128xi32> loc(#loc14)
    %15 = tt.load %14, %5 evictionPolicy = evict_last : tensor<128x!tt.ptr<f32>> loc(#loc15)
    %16 = arith.addi %10, %cst_0 : tensor<128xi32> loc(#loc16)
    %17 = tt.addptr %7, %16 : tensor<128x!tt.ptr<f32>>, tensor<128xi32> loc(#loc17)
    %18 = tt.load %17, %5 evictionPolicy = evict_last : tensor<128x!tt.ptr<f32>> loc(#loc18)
    %19 = arith.addi %10, %cst : tensor<128xi32> loc(#loc19)
    %20 = tt.addptr %7, %19 : tensor<128x!tt.ptr<f32>>, tensor<128xi32> loc(#loc20)
    %21 = tt.load %20, %5 evictionPolicy = evict_last : tensor<128x!tt.ptr<f32>> loc(#loc21)
    %22 = arith.addf %12, %15 : tensor<128xf32> loc(#loc22)
    %23 = arith.addf %22, %18 : tensor<128xf32> loc(#loc23)
    %24 = arith.addf %23, %21 : tensor<128xf32> loc(#loc24)
    %25 = arith.divf %9, %24 : tensor<128xf32> loc(#loc25)
    %26 = tt.splat %arg1 : !tt.ptr<f32> -> tensor<128x!tt.ptr<f32>> loc(#loc26)
    %27 = tt.addptr %26, %4 : tensor<128x!tt.ptr<f32>>, tensor<128xi32> loc(#loc26)
    tt.store %27, %25, %5 : tensor<128x!tt.ptr<f32>> loc(#loc27)
    tt.return loc(#loc28)
  } loc(#loc)
} loc(#loc)
#loc1 = loc(unknown)
#loc2 = loc("inductor_cache/kb/ckbpu5rahttbpxoexddzxifzilgc6ttcbtzmn4gl7wsjhapzqipy.py":21:28)
#loc3 = loc("inductor_cache/kb/ckbpu5rahttbpxoexddzxifzilgc6ttcbtzmn4gl7wsjhapzqipy.py":21:33)
#loc4 = loc("inductor_cache/kb/ckbpu5rahttbpxoexddzxifzilgc6ttcbtzmn4gl7wsjhapzqipy.py":22:36)
#loc5 = loc("inductor_cache/kb/ckbpu5rahttbpxoexddzxifzilgc6ttcbtzmn4gl7wsjhapzqipy.py":22:23)
#loc6 = loc("inductor_cache/kb/ckbpu5rahttbpxoexddzxifzilgc6ttcbtzmn4gl7wsjhapzqipy.py":23:21)
#loc7 = loc("inductor_cache/kb/ckbpu5rahttbpxoexddzxifzilgc6ttcbtzmn4gl7wsjhapzqipy.py":25:19)
#loc8 = loc("inductor_cache/kb/ckbpu5rahttbpxoexddzxifzilgc6ttcbtzmn4gl7wsjhapzqipy.py":26:30)
#loc9 = loc("inductor_cache/kb/ckbpu5rahttbpxoexddzxifzilgc6ttcbtzmn4gl7wsjhapzqipy.py":26:35)
#loc10 = loc("inductor_cache/kb/ckbpu5rahttbpxoexddzxifzilgc6ttcbtzmn4gl7wsjhapzqipy.py":27:32)
#loc11 = loc("inductor_cache/kb/ckbpu5rahttbpxoexddzxifzilgc6ttcbtzmn4gl7wsjhapzqipy.py":27:30)
#loc12 = loc("inductor_cache/kb/ckbpu5rahttbpxoexddzxifzilgc6ttcbtzmn4gl7wsjhapzqipy.py":27:37)
#loc13 = loc("inductor_cache/kb/ckbpu5rahttbpxoexddzxifzilgc6ttcbtzmn4gl7wsjhapzqipy.py":28:34)
#loc14 = loc("inductor_cache/kb/ckbpu5rahttbpxoexddzxifzilgc6ttcbtzmn4gl7wsjhapzqipy.py":28:30)
#loc15 = loc("inductor_cache/kb/ckbpu5rahttbpxoexddzxifzilgc6ttcbtzmn4gl7wsjhapzqipy.py":28:41)
#loc16 = loc("inductor_cache/kb/ckbpu5rahttbpxoexddzxifzilgc6ttcbtzmn4gl7wsjhapzqipy.py":29:34)
#loc17 = loc("inductor_cache/kb/ckbpu5rahttbpxoexddzxifzilgc6ttcbtzmn4gl7wsjhapzqipy.py":29:30)
#loc18 = loc("inductor_cache/kb/ckbpu5rahttbpxoexddzxifzilgc6ttcbtzmn4gl7wsjhapzqipy.py":29:41)
#loc19 = loc("inductor_cache/kb/ckbpu5rahttbpxoexddzxifzilgc6ttcbtzmn4gl7wsjhapzqipy.py":30:34)
#loc20 = loc("inductor_cache/kb/ckbpu5rahttbpxoexddzxifzilgc6ttcbtzmn4gl7wsjhapzqipy.py":30:30)
#loc21 = loc("inductor_cache/kb/ckbpu5rahttbpxoexddzxifzilgc6ttcbtzmn4gl7wsjhapzqipy.py":30:41)
#loc22 = loc("inductor_cache/kb/ckbpu5rahttbpxoexddzxifzilgc6ttcbtzmn4gl7wsjhapzqipy.py":31:18)
#loc23 = loc("inductor_cache/kb/ckbpu5rahttbpxoexddzxifzilgc6ttcbtzmn4gl7wsjhapzqipy.py":32:18)
#loc24 = loc("inductor_cache/kb/ckbpu5rahttbpxoexddzxifzilgc6ttcbtzmn4gl7wsjhapzqipy.py":33:18)
#loc25 = loc("inductor_cache/kb/ckbpu5rahttbpxoexddzxifzilgc6ttcbtzmn4gl7wsjhapzqipy.py":34:18)
#loc26 = loc("inductor_cache/kb/ckbpu5rahttbpxoexddzxifzilgc6ttcbtzmn4gl7wsjhapzqipy.py":35:25)
#loc27 = loc("inductor_cache/kb/ckbpu5rahttbpxoexddzxifzilgc6ttcbtzmn4gl7wsjhapzqipy.py":35:36)
#loc28 = loc("inductor_cache/kb/ckbpu5rahttbpxoexddzxifzilgc6ttcbtzmn4gl7wsjhapzqipy.py":35:4)
