#loc = loc("inductor_cache/6h/c6hb5osixqfolktdv6zhzfoegxdcrbaouwjwi44j2o4uo4y7wgui.py":19:0)
module {
  tt.func public @triton_poi_fused__native_batch_norm_legit_no_training_add_convolution_mul_sigmoid_silu_5(%arg0: !tt.ptr<f32> {tt.divisibility = 16 : i32} loc("inductor_cache/6h/c6hb5osixqfolktdv6zhzfoegxdcrbaouwjwi44j2o4uo4y7wgui.py":19:0), %arg1: !tt.ptr<f32> {tt.divisibility = 16 : i32} loc("inductor_cache/6h/c6hb5osixqfolktdv6zhzfoegxdcrbaouwjwi44j2o4uo4y7wgui.py":19:0), %arg2: !tt.ptr<f32> {tt.divisibility = 16 : i32} loc("inductor_cache/6h/c6hb5osixqfolktdv6zhzfoegxdcrbaouwjwi44j2o4uo4y7wgui.py":19:0), %arg3: !tt.ptr<f32> {tt.divisibility = 16 : i32} loc("inductor_cache/6h/c6hb5osixqfolktdv6zhzfoegxdcrbaouwjwi44j2o4uo4y7wgui.py":19:0), %arg4: !tt.ptr<f32> {tt.divisibility = 16 : i32} loc("inductor_cache/6h/c6hb5osixqfolktdv6zhzfoegxdcrbaouwjwi44j2o4uo4y7wgui.py":19:0), %arg5: !tt.ptr<f32> {tt.divisibility = 16 : i32} loc("inductor_cache/6h/c6hb5osixqfolktdv6zhzfoegxdcrbaouwjwi44j2o4uo4y7wgui.py":19:0), %arg6: !tt.ptr<f32> {tt.divisibility = 16 : i32} loc("inductor_cache/6h/c6hb5osixqfolktdv6zhzfoegxdcrbaouwjwi44j2o4uo4y7wgui.py":19:0), %arg7: !tt.ptr<f32> {tt.divisibility = 16 : i32} loc("inductor_cache/6h/c6hb5osixqfolktdv6zhzfoegxdcrbaouwjwi44j2o4uo4y7wgui.py":19:0), %arg8: !tt.ptr<f32> {tt.divisibility = 16 : i32} loc("inductor_cache/6h/c6hb5osixqfolktdv6zhzfoegxdcrbaouwjwi44j2o4uo4y7wgui.py":19:0), %arg9: !tt.ptr<f32> {tt.divisibility = 16 : i32} loc("inductor_cache/6h/c6hb5osixqfolktdv6zhzfoegxdcrbaouwjwi44j2o4uo4y7wgui.py":19:0), %arg10: !tt.ptr<f32> {tt.divisibility = 16 : i32} loc("inductor_cache/6h/c6hb5osixqfolktdv6zhzfoegxdcrbaouwjwi44j2o4uo4y7wgui.py":19:0), %arg11: !tt.ptr<f32> {tt.divisibility = 16 : i32} loc("inductor_cache/6h/c6hb5osixqfolktdv6zhzfoegxdcrbaouwjwi44j2o4uo4y7wgui.py":19:0), %arg12: !tt.ptr<f32> {tt.divisibility = 16 : i32} loc("inductor_cache/6h/c6hb5osixqfolktdv6zhzfoegxdcrbaouwjwi44j2o4uo4y7wgui.py":19:0), %arg13: !tt.ptr<f32> {tt.divisibility = 16 : i32} loc("inductor_cache/6h/c6hb5osixqfolktdv6zhzfoegxdcrbaouwjwi44j2o4uo4y7wgui.py":19:0), %arg14: !tt.ptr<f32> {tt.divisibility = 16 : i32} loc("inductor_cache/6h/c6hb5osixqfolktdv6zhzfoegxdcrbaouwjwi44j2o4uo4y7wgui.py":19:0), %arg15: i32 {tt.divisibility = 16 : i32} loc("inductor_cache/6h/c6hb5osixqfolktdv6zhzfoegxdcrbaouwjwi44j2o4uo4y7wgui.py":19:0), %arg16: i32 {tt.divisibility = 16 : i32} loc("inductor_cache/6h/c6hb5osixqfolktdv6zhzfoegxdcrbaouwjwi44j2o4uo4y7wgui.py":19:0)) attributes {noinline = false} {
    %c4096_i32 = arith.constant 4096 : i32 loc(#loc1)
    %c512_i32 = arith.constant 512 : i32 loc(#loc1)
    %cst = arith.constant dense<0.000000e+00> : tensor<1x1024xf32> loc(#loc1)
    %cst_0 = arith.constant dense<1.000000e+00> : tensor<1x1024xf32> loc(#loc1)
    %cst_1 = arith.constant dense<1.000000e+00> : tensor<1x1xf32> loc(#loc1)
    %cst_2 = arith.constant dense<2097152> : tensor<1x1024xi32> loc(#loc1)
    %cst_3 = arith.constant dense<9.99999974E-6> : tensor<1x1xf32> loc(#loc1)
    %cst_4 = arith.constant dense<512> : tensor<1x1024xi32> loc(#loc1)
    %cst_5 = arith.constant dense<4096> : tensor<1x1024xi32> loc(#loc1)
    %c1024_i32 = arith.constant 1024 : i32 loc(#loc1)
    %0 = tt.get_program_id y : i32 loc(#loc2)
    %1 = arith.muli %0, %c1024_i32 : i32 loc(#loc3)
    %2 = tt.make_range {end = 1024 : i32, start = 0 : i32} : tensor<1024xi32> loc(#loc4)
    %3 = tt.expand_dims %2 {axis = 0 : i32} : tensor<1024xi32> -> tensor<1x1024xi32> loc(#loc5)
    %4 = tt.splat %1 : i32 -> tensor<1x1024xi32> loc(#loc6)
    %5 = arith.addi %4, %3 : tensor<1x1024xi32> loc(#loc6)
    %6 = tt.get_program_id x : i32 loc(#loc7)
    %7 = arith.cmpi slt, %6, %c512_i32 : i32 loc(#loc8)
    %8 = tt.splat %7 : i1 -> tensor<1x1xi1> loc(#loc8)
    %9 = arith.divsi %5, %cst_5 : tensor<1x1024xi32> loc(#loc9)
    %10 = arith.remsi %5, %cst_5 : tensor<1x1024xi32> loc(#loc10)
    %11 = arith.muli %5, %cst_4 : tensor<1x1024xi32> loc(#loc11)
    %12 = tt.splat %6 : i32 -> tensor<1x1024xi32> loc(#loc12)
    %13 = arith.addi %12, %11 : tensor<1x1024xi32> loc(#loc12)
    %14 = tt.splat %arg0 : !tt.ptr<f32> -> tensor<1x1024x!tt.ptr<f32>> loc(#loc13)
    %15 = tt.addptr %14, %13 : tensor<1x1024x!tt.ptr<f32>>, tensor<1x1024xi32> loc(#loc13)
    %16 = tt.splat %7 : i1 -> tensor<1x1024xi1> loc(#loc14)
    %17 = tt.load %15, %16 evictionPolicy = evict_last : tensor<1x1024x!tt.ptr<f32>> loc(#loc14)
    %18 = tt.addptr %arg2, %6 : !tt.ptr<f32>, i32 loc(#loc15)
    %19 = tt.splat %18 : !tt.ptr<f32> -> tensor<1x1x!tt.ptr<f32>> loc(#loc15)
    %20 = tt.load %19, %8 evictionPolicy = evict_last : tensor<1x1x!tt.ptr<f32>> loc(#loc16)
    %21 = tt.splat %arg1 : !tt.ptr<f32> -> tensor<1x1024x!tt.ptr<f32>> loc(#loc17)
    %22 = tt.addptr %21, %13 : tensor<1x1024x!tt.ptr<f32>>, tensor<1x1024xi32> loc(#loc17)
    %23 = tt.load %22, %16 evictionPolicy = evict_last : tensor<1x1024x!tt.ptr<f32>> loc(#loc18)
    %24 = tt.addptr %arg3, %6 : !tt.ptr<f32>, i32 loc(#loc19)
    %25 = tt.splat %24 : !tt.ptr<f32> -> tensor<1x1x!tt.ptr<f32>> loc(#loc19)
    %26 = tt.load %25, %8 evictionPolicy = evict_last : tensor<1x1x!tt.ptr<f32>> loc(#loc20)
    %27 = tt.addptr %arg4, %6 : !tt.ptr<f32>, i32 loc(#loc21)
    %28 = tt.splat %27 : !tt.ptr<f32> -> tensor<1x1x!tt.ptr<f32>> loc(#loc21)
    %29 = tt.load %28, %8 evictionPolicy = evict_last : tensor<1x1x!tt.ptr<f32>> loc(#loc22)
    %30 = tt.addptr %arg5, %6 : !tt.ptr<f32>, i32 loc(#loc23)
    %31 = tt.splat %30 : !tt.ptr<f32> -> tensor<1x1x!tt.ptr<f32>> loc(#loc23)
    %32 = tt.load %31, %8 evictionPolicy = evict_last : tensor<1x1x!tt.ptr<f32>> loc(#loc24)
    %33 = tt.addptr %arg6, %6 : !tt.ptr<f32>, i32 loc(#loc25)
    %34 = tt.splat %33 : !tt.ptr<f32> -> tensor<1x1x!tt.ptr<f32>> loc(#loc25)
    %35 = tt.load %34, %8 evictionPolicy = evict_last : tensor<1x1x!tt.ptr<f32>> loc(#loc26)
    %36 = tt.addptr %arg7, %6 : !tt.ptr<f32>, i32 loc(#loc27)
    %37 = tt.splat %36 : !tt.ptr<f32> -> tensor<1x1x!tt.ptr<f32>> loc(#loc27)
    %38 = tt.load %37, %8 evictionPolicy = evict_last : tensor<1x1x!tt.ptr<f32>> loc(#loc28)
    %39 = tt.addptr %arg8, %6 : !tt.ptr<f32>, i32 loc(#loc29)
    %40 = tt.splat %39 : !tt.ptr<f32> -> tensor<1x1x!tt.ptr<f32>> loc(#loc29)
    %41 = tt.load %40, %8 evictionPolicy = evict_last : tensor<1x1x!tt.ptr<f32>> loc(#loc30)
    %42 = tt.addptr %arg9, %6 : !tt.ptr<f32>, i32 loc(#loc31)
    %43 = tt.splat %42 : !tt.ptr<f32> -> tensor<1x1x!tt.ptr<f32>> loc(#loc31)
    %44 = tt.load %43, %8 evictionPolicy = evict_last : tensor<1x1x!tt.ptr<f32>> loc(#loc32)
    %45 = tt.addptr %arg10, %6 : !tt.ptr<f32>, i32 loc(#loc33)
    %46 = tt.splat %45 : !tt.ptr<f32> -> tensor<1x1x!tt.ptr<f32>> loc(#loc33)
    %47 = tt.load %46, %8 evictionPolicy = evict_last : tensor<1x1x!tt.ptr<f32>> loc(#loc34)
    %48 = tt.addptr %arg11, %6 : !tt.ptr<f32>, i32 loc(#loc35)
    %49 = tt.splat %48 : !tt.ptr<f32> -> tensor<1x1x!tt.ptr<f32>> loc(#loc35)
    %50 = tt.load %49, %8 evictionPolicy = evict_last : tensor<1x1x!tt.ptr<f32>> loc(#loc36)
    %51 = arith.muli %9, %cst_4 : tensor<1x1024xi32> loc(#loc37)
    %52 = arith.addi %12, %51 : tensor<1x1024xi32> loc(#loc38)
    %53 = tt.splat %arg12 : !tt.ptr<f32> -> tensor<1x1024x!tt.ptr<f32>> loc(#loc39)
    %54 = tt.addptr %53, %52 : tensor<1x1024x!tt.ptr<f32>>, tensor<1x1024xi32> loc(#loc39)
    %55 = tt.load %54, %16 evictionPolicy = evict_last : tensor<1x1024x!tt.ptr<f32>> loc(#loc40)
    %56 = tt.splat %arg13 : !tt.ptr<f32> -> tensor<1x1024x!tt.ptr<f32>> loc(#loc41)
    %57 = tt.addptr %56, %13 : tensor<1x1024x!tt.ptr<f32>>, tensor<1x1024xi32> loc(#loc41)
    %58 = tt.load %57, %16 evictionPolicy = evict_last : tensor<1x1024x!tt.ptr<f32>> loc(#loc42)
    %59 = tt.broadcast %20 : tensor<1x1xf32> -> tensor<1x1024xf32> loc(#loc43)
    %60 = arith.addf %17, %59 : tensor<1x1024xf32> loc(#loc43)
    %61 = tt.broadcast %26 : tensor<1x1xf32> -> tensor<1x1024xf32> loc(#loc44)
    %62 = arith.addf %23, %61 : tensor<1x1024xf32> loc(#loc44)
    %63 = tt.broadcast %29 : tensor<1x1xf32> -> tensor<1x1024xf32> loc(#loc45)
    %64 = arith.subf %60, %63 : tensor<1x1024xf32> loc(#loc45)
    %65 = arith.addf %32, %cst_3 : tensor<1x1xf32> loc(#loc46)
    %66 = tt.extern_elementwise %65 {libname = "", libpath = "", pure = true, symbol = "__nv_sqrtf"} : (tensor<1x1xf32>) -> tensor<1x1xf32> loc(#loc47)
    %67 = arith.divf %cst_1, %66 : tensor<1x1xf32> loc(#loc48)
    %68 = tt.broadcast %67 : tensor<1x1xf32> -> tensor<1x1024xf32> loc(#loc49)
    %69 = arith.mulf %64, %68 : tensor<1x1024xf32> loc(#loc49)
    %70 = tt.broadcast %35 : tensor<1x1xf32> -> tensor<1x1024xf32> loc(#loc50)
    %71 = arith.mulf %69, %70 : tensor<1x1024xf32> loc(#loc50)
    %72 = tt.broadcast %38 : tensor<1x1xf32> -> tensor<1x1024xf32> loc(#loc51)
    %73 = arith.addf %71, %72 : tensor<1x1024xf32> loc(#loc51)
    %74 = tt.broadcast %41 : tensor<1x1xf32> -> tensor<1x1024xf32> loc(#loc52)
    %75 = arith.subf %62, %74 : tensor<1x1024xf32> loc(#loc52)
    %76 = arith.addf %44, %cst_3 : tensor<1x1xf32> loc(#loc53)
    %77 = tt.extern_elementwise %76 {libname = "", libpath = "", pure = true, symbol = "__nv_sqrtf"} : (tensor<1x1xf32>) -> tensor<1x1xf32> loc(#loc54)
    %78 = arith.divf %cst_1, %77 : tensor<1x1xf32> loc(#loc55)
    %79 = tt.broadcast %78 : tensor<1x1xf32> -> tensor<1x1024xf32> loc(#loc56)
    %80 = arith.mulf %75, %79 : tensor<1x1024xf32> loc(#loc56)
    %81 = tt.broadcast %47 : tensor<1x1xf32> -> tensor<1x1024xf32> loc(#loc57)
    %82 = arith.mulf %80, %81 : tensor<1x1024xf32> loc(#loc57)
    %83 = tt.broadcast %50 : tensor<1x1xf32> -> tensor<1x1024xf32> loc(#loc58)
    %84 = arith.addf %82, %83 : tensor<1x1024xf32> loc(#loc58)
    %85 = arith.addf %73, %84 : tensor<1x1024xf32> loc(#loc59)
    %86 = arith.subf %cst, %55 : tensor<1x1024xf32> loc(#loc80)
    %87 = math.exp %86 : tensor<1x1024xf32> loc(#loc81)
    %88 = arith.addf %87, %cst_0 : tensor<1x1024xf32> loc(#loc82)
    %89 = arith.divf %cst_0, %88 : tensor<1x1024xf32> loc(#loc83)
    %90 = arith.mulf %89, %58 : tensor<1x1024xf32> loc(#loc65)
    %91 = arith.addf %85, %90 : tensor<1x1024xf32> loc(#loc66)
    %92 = arith.subf %cst, %91 : tensor<1x1024xf32> loc(#loc84)
    %93 = math.exp %92 : tensor<1x1024xf32> loc(#loc85)
    %94 = arith.addf %93, %cst_0 : tensor<1x1024xf32> loc(#loc86)
    %95 = arith.divf %cst_0, %94 : tensor<1x1024xf32> loc(#loc87)
    %96 = arith.mulf %91, %95 : tensor<1x1024xf32> loc(#loc68)
    gpu.barrier loc(#loc69)
    tt.store %15, %60, %16 : tensor<1x1024x!tt.ptr<f32>> loc(#loc70)
    gpu.barrier loc(#loc71)
    tt.store %22, %62, %16 : tensor<1x1024x!tt.ptr<f32>> loc(#loc72)
    %97 = arith.muli %6, %c4096_i32 : i32 loc(#loc73)
    %98 = tt.splat %97 : i32 -> tensor<1x1024xi32> loc(#loc74)
    %99 = arith.addi %10, %98 : tensor<1x1024xi32> loc(#loc74)
    %100 = arith.muli %9, %cst_2 : tensor<1x1024xi32> loc(#loc75)
    %101 = arith.addi %99, %100 : tensor<1x1024xi32> loc(#loc76)
    %102 = tt.splat %arg14 : !tt.ptr<f32> -> tensor<1x1024x!tt.ptr<f32>> loc(#loc77)
    %103 = tt.addptr %102, %101 : tensor<1x1024x!tt.ptr<f32>>, tensor<1x1024xi32> loc(#loc77)
    tt.store %103, %96, %16 : tensor<1x1024x!tt.ptr<f32>> loc(#loc78)
    tt.return loc(#loc79)
  } loc(#loc)
} loc(#loc)
#loc1 = loc(unknown)
#loc2 = loc("inductor_cache/6h/c6hb5osixqfolktdv6zhzfoegxdcrbaouwjwi44j2o4uo4y7wgui.py":22:28)
#loc3 = loc("inductor_cache/6h/c6hb5osixqfolktdv6zhzfoegxdcrbaouwjwi44j2o4uo4y7wgui.py":22:33)
#loc4 = loc("inductor_cache/6h/c6hb5osixqfolktdv6zhzfoegxdcrbaouwjwi44j2o4uo4y7wgui.py":23:36)
#loc5 = loc("inductor_cache/6h/c6hb5osixqfolktdv6zhzfoegxdcrbaouwjwi44j2o4uo4y7wgui.py":23:44)
#loc6 = loc("inductor_cache/6h/c6hb5osixqfolktdv6zhzfoegxdcrbaouwjwi44j2o4uo4y7wgui.py":23:23)
#loc7 = loc("inductor_cache/6h/c6hb5osixqfolktdv6zhzfoegxdcrbaouwjwi44j2o4uo4y7wgui.py":25:28)
#loc8 = loc("inductor_cache/6h/c6hb5osixqfolktdv6zhzfoegxdcrbaouwjwi44j2o4uo4y7wgui.py":27:21)
#loc9 = loc("inductor_cache/6h/c6hb5osixqfolktdv6zhzfoegxdcrbaouwjwi44j2o4uo4y7wgui.py":30:19)
#loc10 = loc("inductor_cache/6h/c6hb5osixqfolktdv6zhzfoegxdcrbaouwjwi44j2o4uo4y7wgui.py":31:19)
#loc11 = loc("inductor_cache/6h/c6hb5osixqfolktdv6zhzfoegxdcrbaouwjwi44j2o4uo4y7wgui.py":32:43)
#loc12 = loc("inductor_cache/6h/c6hb5osixqfolktdv6zhzfoegxdcrbaouwjwi44j2o4uo4y7wgui.py":32:39)
#loc13 = loc("inductor_cache/6h/c6hb5osixqfolktdv6zhzfoegxdcrbaouwjwi44j2o4uo4y7wgui.py":32:34)
#loc14 = loc("inductor_cache/6h/c6hb5osixqfolktdv6zhzfoegxdcrbaouwjwi44j2o4uo4y7wgui.py":32:48)
#loc15 = loc("inductor_cache/6h/c6hb5osixqfolktdv6zhzfoegxdcrbaouwjwi44j2o4uo4y7wgui.py":33:30)
#loc16 = loc("inductor_cache/6h/c6hb5osixqfolktdv6zhzfoegxdcrbaouwjwi44j2o4uo4y7wgui.py":33:35)
#loc17 = loc("inductor_cache/6h/c6hb5osixqfolktdv6zhzfoegxdcrbaouwjwi44j2o4uo4y7wgui.py":34:34)
#loc18 = loc("inductor_cache/6h/c6hb5osixqfolktdv6zhzfoegxdcrbaouwjwi44j2o4uo4y7wgui.py":34:48)
#loc19 = loc("inductor_cache/6h/c6hb5osixqfolktdv6zhzfoegxdcrbaouwjwi44j2o4uo4y7wgui.py":35:30)
#loc20 = loc("inductor_cache/6h/c6hb5osixqfolktdv6zhzfoegxdcrbaouwjwi44j2o4uo4y7wgui.py":35:35)
#loc21 = loc("inductor_cache/6h/c6hb5osixqfolktdv6zhzfoegxdcrbaouwjwi44j2o4uo4y7wgui.py":36:30)
#loc22 = loc("inductor_cache/6h/c6hb5osixqfolktdv6zhzfoegxdcrbaouwjwi44j2o4uo4y7wgui.py":36:35)
#loc23 = loc("inductor_cache/6h/c6hb5osixqfolktdv6zhzfoegxdcrbaouwjwi44j2o4uo4y7wgui.py":37:30)
#loc24 = loc("inductor_cache/6h/c6hb5osixqfolktdv6zhzfoegxdcrbaouwjwi44j2o4uo4y7wgui.py":37:35)
#loc25 = loc("inductor_cache/6h/c6hb5osixqfolktdv6zhzfoegxdcrbaouwjwi44j2o4uo4y7wgui.py":38:31)
#loc26 = loc("inductor_cache/6h/c6hb5osixqfolktdv6zhzfoegxdcrbaouwjwi44j2o4uo4y7wgui.py":38:36)
#loc27 = loc("inductor_cache/6h/c6hb5osixqfolktdv6zhzfoegxdcrbaouwjwi44j2o4uo4y7wgui.py":39:31)
#loc28 = loc("inductor_cache/6h/c6hb5osixqfolktdv6zhzfoegxdcrbaouwjwi44j2o4uo4y7wgui.py":39:36)
#loc29 = loc("inductor_cache/6h/c6hb5osixqfolktdv6zhzfoegxdcrbaouwjwi44j2o4uo4y7wgui.py":40:31)
#loc30 = loc("inductor_cache/6h/c6hb5osixqfolktdv6zhzfoegxdcrbaouwjwi44j2o4uo4y7wgui.py":40:36)
#loc31 = loc("inductor_cache/6h/c6hb5osixqfolktdv6zhzfoegxdcrbaouwjwi44j2o4uo4y7wgui.py":41:31)
#loc32 = loc("inductor_cache/6h/c6hb5osixqfolktdv6zhzfoegxdcrbaouwjwi44j2o4uo4y7wgui.py":41:36)
#loc33 = loc("inductor_cache/6h/c6hb5osixqfolktdv6zhzfoegxdcrbaouwjwi44j2o4uo4y7wgui.py":42:31)
#loc34 = loc("inductor_cache/6h/c6hb5osixqfolktdv6zhzfoegxdcrbaouwjwi44j2o4uo4y7wgui.py":42:36)
#loc35 = loc("inductor_cache/6h/c6hb5osixqfolktdv6zhzfoegxdcrbaouwjwi44j2o4uo4y7wgui.py":43:31)
#loc36 = loc("inductor_cache/6h/c6hb5osixqfolktdv6zhzfoegxdcrbaouwjwi44j2o4uo4y7wgui.py":43:36)
#loc37 = loc("inductor_cache/6h/c6hb5osixqfolktdv6zhzfoegxdcrbaouwjwi44j2o4uo4y7wgui.py":44:41)
#loc38 = loc("inductor_cache/6h/c6hb5osixqfolktdv6zhzfoegxdcrbaouwjwi44j2o4uo4y7wgui.py":44:37)
#loc39 = loc("inductor_cache/6h/c6hb5osixqfolktdv6zhzfoegxdcrbaouwjwi44j2o4uo4y7wgui.py":44:32)
#loc40 = loc("inductor_cache/6h/c6hb5osixqfolktdv6zhzfoegxdcrbaouwjwi44j2o4uo4y7wgui.py":44:46)
#loc41 = loc("inductor_cache/6h/c6hb5osixqfolktdv6zhzfoegxdcrbaouwjwi44j2o4uo4y7wgui.py":45:32)
#loc42 = loc("inductor_cache/6h/c6hb5osixqfolktdv6zhzfoegxdcrbaouwjwi44j2o4uo4y7wgui.py":45:46)
#loc43 = loc("inductor_cache/6h/c6hb5osixqfolktdv6zhzfoegxdcrbaouwjwi44j2o4uo4y7wgui.py":46:18)
#loc44 = loc("inductor_cache/6h/c6hb5osixqfolktdv6zhzfoegxdcrbaouwjwi44j2o4uo4y7wgui.py":47:18)
#loc45 = loc("inductor_cache/6h/c6hb5osixqfolktdv6zhzfoegxdcrbaouwjwi44j2o4uo4y7wgui.py":48:18)
#loc46 = loc("inductor_cache/6h/c6hb5osixqfolktdv6zhzfoegxdcrbaouwjwi44j2o4uo4y7wgui.py":50:19)
#loc47 = loc("inductor_cache/6h/c6hb5osixqfolktdv6zhzfoegxdcrbaouwjwi44j2o4uo4y7wgui.py":51:27)
#loc48 = loc("inductor_cache/6h/c6hb5osixqfolktdv6zhzfoegxdcrbaouwjwi44j2o4uo4y7wgui.py":53:20)
#loc49 = loc("inductor_cache/6h/c6hb5osixqfolktdv6zhzfoegxdcrbaouwjwi44j2o4uo4y7wgui.py":56:19)
#loc50 = loc("inductor_cache/6h/c6hb5osixqfolktdv6zhzfoegxdcrbaouwjwi44j2o4uo4y7wgui.py":57:20)
#loc51 = loc("inductor_cache/6h/c6hb5osixqfolktdv6zhzfoegxdcrbaouwjwi44j2o4uo4y7wgui.py":58:20)
#loc52 = loc("inductor_cache/6h/c6hb5osixqfolktdv6zhzfoegxdcrbaouwjwi44j2o4uo4y7wgui.py":59:19)
#loc53 = loc("inductor_cache/6h/c6hb5osixqfolktdv6zhzfoegxdcrbaouwjwi44j2o4uo4y7wgui.py":60:20)
#loc54 = loc("inductor_cache/6h/c6hb5osixqfolktdv6zhzfoegxdcrbaouwjwi44j2o4uo4y7wgui.py":61:27)
#loc55 = loc("inductor_cache/6h/c6hb5osixqfolktdv6zhzfoegxdcrbaouwjwi44j2o4uo4y7wgui.py":62:20)
#loc56 = loc("inductor_cache/6h/c6hb5osixqfolktdv6zhzfoegxdcrbaouwjwi44j2o4uo4y7wgui.py":64:20)
#loc57 = loc("inductor_cache/6h/c6hb5osixqfolktdv6zhzfoegxdcrbaouwjwi44j2o4uo4y7wgui.py":65:20)
#loc58 = loc("inductor_cache/6h/c6hb5osixqfolktdv6zhzfoegxdcrbaouwjwi44j2o4uo4y7wgui.py":66:20)
#loc59 = loc("inductor_cache/6h/c6hb5osixqfolktdv6zhzfoegxdcrbaouwjwi44j2o4uo4y7wgui.py":67:20)
#loc60 = loc("/home/sahanp/.conda/envs/parity-bench/lib/python3.12/site-packages/triton/language/standard.py":47:30)
#loc61 = loc("inductor_cache/6h/c6hb5osixqfolktdv6zhzfoegxdcrbaouwjwi44j2o4uo4y7wgui.py":68:23)
#loc62 = loc("/home/sahanp/.conda/envs/parity-bench/lib/python3.12/site-packages/triton/language/standard.py":47:29)
#loc63 = loc("/home/sahanp/.conda/envs/parity-bench/lib/python3.12/site-packages/triton/language/standard.py":47:20)
#loc64 = loc("/home/sahanp/.conda/envs/parity-bench/lib/python3.12/site-packages/triton/language/standard.py":47:16)
#loc65 = loc("inductor_cache/6h/c6hb5osixqfolktdv6zhzfoegxdcrbaouwjwi44j2o4uo4y7wgui.py":69:20)
#loc66 = loc("inductor_cache/6h/c6hb5osixqfolktdv6zhzfoegxdcrbaouwjwi44j2o4uo4y7wgui.py":70:20)
#loc67 = loc("inductor_cache/6h/c6hb5osixqfolktdv6zhzfoegxdcrbaouwjwi44j2o4uo4y7wgui.py":71:23)
#loc68 = loc("inductor_cache/6h/c6hb5osixqfolktdv6zhzfoegxdcrbaouwjwi44j2o4uo4y7wgui.py":72:20)
#loc69 = loc("inductor_cache/6h/c6hb5osixqfolktdv6zhzfoegxdcrbaouwjwi44j2o4uo4y7wgui.py":73:4)
#loc70 = loc("inductor_cache/6h/c6hb5osixqfolktdv6zhzfoegxdcrbaouwjwi44j2o4uo4y7wgui.py":74:48)
#loc71 = loc("inductor_cache/6h/c6hb5osixqfolktdv6zhzfoegxdcrbaouwjwi44j2o4uo4y7wgui.py":75:4)
#loc72 = loc("inductor_cache/6h/c6hb5osixqfolktdv6zhzfoegxdcrbaouwjwi44j2o4uo4y7wgui.py":76:48)
#loc73 = loc("inductor_cache/6h/c6hb5osixqfolktdv6zhzfoegxdcrbaouwjwi44j2o4uo4y7wgui.py":77:35)
#loc74 = loc("inductor_cache/6h/c6hb5osixqfolktdv6zhzfoegxdcrbaouwjwi44j2o4uo4y7wgui.py":77:30)
#loc75 = loc("inductor_cache/6h/c6hb5osixqfolktdv6zhzfoegxdcrbaouwjwi44j2o4uo4y7wgui.py":77:48)
#loc76 = loc("inductor_cache/6h/c6hb5osixqfolktdv6zhzfoegxdcrbaouwjwi44j2o4uo4y7wgui.py":77:40)
#loc77 = loc("inductor_cache/6h/c6hb5osixqfolktdv6zhzfoegxdcrbaouwjwi44j2o4uo4y7wgui.py":77:25)
#loc78 = loc("inductor_cache/6h/c6hb5osixqfolktdv6zhzfoegxdcrbaouwjwi44j2o4uo4y7wgui.py":77:60)
#loc79 = loc("inductor_cache/6h/c6hb5osixqfolktdv6zhzfoegxdcrbaouwjwi44j2o4uo4y7wgui.py":77:4)
#loc80 = loc(callsite(#loc60 at #loc61))
#loc81 = loc(callsite(#loc62 at #loc61))
#loc82 = loc(callsite(#loc63 at #loc61))
#loc83 = loc(callsite(#loc64 at #loc61))
#loc84 = loc(callsite(#loc60 at #loc67))
#loc85 = loc(callsite(#loc62 at #loc67))
#loc86 = loc(callsite(#loc63 at #loc67))
#loc87 = loc(callsite(#loc64 at #loc67))
