#loc = loc("inductor_cache/xa/cxatxxydcnleescp3x4d2jqha5ddtd4h3ptslmwuyf7dehhymgpf.py":19:0)
module {
  tt.func public @triton_poi_fused__native_batch_norm_legit_no_training_max_pool2d_with_indices_relu_12(%arg0: !tt.ptr<f32> {tt.divisibility = 16 : i32} loc("inductor_cache/xa/cxatxxydcnleescp3x4d2jqha5ddtd4h3ptslmwuyf7dehhymgpf.py":19:0), %arg1: !tt.ptr<f32> {tt.divisibility = 16 : i32} loc("inductor_cache/xa/cxatxxydcnleescp3x4d2jqha5ddtd4h3ptslmwuyf7dehhymgpf.py":19:0), %arg2: !tt.ptr<f32> {tt.divisibility = 16 : i32} loc("inductor_cache/xa/cxatxxydcnleescp3x4d2jqha5ddtd4h3ptslmwuyf7dehhymgpf.py":19:0), %arg3: !tt.ptr<f32> {tt.divisibility = 16 : i32} loc("inductor_cache/xa/cxatxxydcnleescp3x4d2jqha5ddtd4h3ptslmwuyf7dehhymgpf.py":19:0), %arg4: !tt.ptr<f32> {tt.divisibility = 16 : i32} loc("inductor_cache/xa/cxatxxydcnleescp3x4d2jqha5ddtd4h3ptslmwuyf7dehhymgpf.py":19:0), %arg5: !tt.ptr<i8> {tt.divisibility = 16 : i32} loc("inductor_cache/xa/cxatxxydcnleescp3x4d2jqha5ddtd4h3ptslmwuyf7dehhymgpf.py":19:0), %arg6: !tt.ptr<f32> {tt.divisibility = 16 : i32} loc("inductor_cache/xa/cxatxxydcnleescp3x4d2jqha5ddtd4h3ptslmwuyf7dehhymgpf.py":19:0), %arg7: i32 {tt.divisibility = 16 : i32} loc("inductor_cache/xa/cxatxxydcnleescp3x4d2jqha5ddtd4h3ptslmwuyf7dehhymgpf.py":19:0)) attributes {noinline = false} {
    %cst = arith.constant dense<0.000000e+00> : tensor<256xf32> loc(#loc1)
    %cst_0 = arith.constant dense<1.000000e+00> : tensor<256xf32> loc(#loc1)
    %cst_1 = arith.constant dense<9.99999974E-6> : tensor<256xf32> loc(#loc1)
    %cst_2 = arith.constant dense<3> : tensor<256xi8> loc(#loc1)
    %cst_3 = arith.constant dense<2> : tensor<256xi8> loc(#loc1)
    %cst_4 = arith.constant dense<0> : tensor<256xi8> loc(#loc1)
    %cst_5 = arith.constant dense<1> : tensor<256xi8> loc(#loc1)
    %cst_6 = arith.constant dense<33> : tensor<256xi32> loc(#loc1)
    %cst_7 = arith.constant dense<32> : tensor<256xi32> loc(#loc1)
    %cst_8 = arith.constant dense<1> : tensor<256xi32> loc(#loc1)
    %cst_9 = arith.constant dense<64> : tensor<256xi32> loc(#loc1)
    %cst_10 = arith.constant dense<2> : tensor<256xi32> loc(#loc1)
    %cst_11 = arith.constant dense<4> : tensor<256xi32> loc(#loc1)
    %cst_12 = arith.constant dense<256> : tensor<256xi32> loc(#loc1)
    %cst_13 = arith.constant dense<16> : tensor<256xi32> loc(#loc1)
    %c256_i32 = arith.constant 256 : i32 loc(#loc1)
    %0 = tt.get_program_id x : i32 loc(#loc2)
    %1 = arith.muli %0, %c256_i32 : i32 loc(#loc3)
    %2 = tt.make_range {end = 256 : i32, start = 0 : i32} : tensor<256xi32> loc(#loc4)
    %3 = tt.splat %1 : i32 -> tensor<256xi32> loc(#loc5)
    %4 = arith.addi %3, %2 : tensor<256xi32> loc(#loc5)
    %5 = arith.remsi %4, %cst_13 : tensor<256xi32> loc(#loc6)
    %6 = arith.divsi %4, %cst_13 : tensor<256xi32> loc(#loc7)
    %7 = arith.divsi %4, %cst_12 : tensor<256xi32> loc(#loc8)
    %8 = arith.remsi %7, %cst_11 : tensor<256xi32> loc(#loc9)
    %9 = arith.muli %5, %cst_10 : tensor<256xi32> loc(#loc10)
    %10 = arith.muli %6, %cst_9 : tensor<256xi32> loc(#loc11)
    %11 = arith.addi %9, %10 : tensor<256xi32> loc(#loc12)
    %12 = tt.splat %arg0 : !tt.ptr<f32> -> tensor<256x!tt.ptr<f32>> loc(#loc13)
    %13 = tt.addptr %12, %11 : tensor<256x!tt.ptr<f32>>, tensor<256xi32> loc(#loc13)
    %14 = tt.load %13 evictionPolicy = evict_last : tensor<256x!tt.ptr<f32>> loc(#loc14)
    %15 = arith.addi %9, %cst_8 : tensor<256xi32> loc(#loc15)
    %16 = arith.addi %15, %10 : tensor<256xi32> loc(#loc16)
    %17 = tt.addptr %12, %16 : tensor<256x!tt.ptr<f32>>, tensor<256xi32> loc(#loc17)
    %18 = tt.load %17 evictionPolicy = evict_last : tensor<256x!tt.ptr<f32>> loc(#loc18)
    %19 = arith.addi %9, %cst_7 : tensor<256xi32> loc(#loc19)
    %20 = arith.addi %19, %10 : tensor<256xi32> loc(#loc20)
    %21 = tt.addptr %12, %20 : tensor<256x!tt.ptr<f32>>, tensor<256xi32> loc(#loc21)
    %22 = tt.load %21 evictionPolicy = evict_last : tensor<256x!tt.ptr<f32>> loc(#loc22)
    %23 = arith.addi %9, %cst_6 : tensor<256xi32> loc(#loc23)
    %24 = arith.addi %23, %10 : tensor<256xi32> loc(#loc24)
    %25 = tt.addptr %12, %24 : tensor<256x!tt.ptr<f32>>, tensor<256xi32> loc(#loc25)
    %26 = tt.load %25 evictionPolicy = evict_last : tensor<256x!tt.ptr<f32>> loc(#loc26)
    %27 = tt.splat %arg1 : !tt.ptr<f32> -> tensor<256x!tt.ptr<f32>> loc(#loc27)
    %28 = tt.addptr %27, %8 : tensor<256x!tt.ptr<f32>>, tensor<256xi32> loc(#loc27)
    %29 = tt.load %28 evictionPolicy = evict_last : tensor<256x!tt.ptr<f32>> loc(#loc28)
    %30 = tt.splat %arg2 : !tt.ptr<f32> -> tensor<256x!tt.ptr<f32>> loc(#loc29)
    %31 = tt.addptr %30, %8 : tensor<256x!tt.ptr<f32>>, tensor<256xi32> loc(#loc29)
    %32 = tt.load %31 evictionPolicy = evict_last : tensor<256x!tt.ptr<f32>> loc(#loc30)
    %33 = tt.splat %arg3 : !tt.ptr<f32> -> tensor<256x!tt.ptr<f32>> loc(#loc31)
    %34 = tt.addptr %33, %8 : tensor<256x!tt.ptr<f32>>, tensor<256xi32> loc(#loc31)
    %35 = tt.load %34 evictionPolicy = evict_last : tensor<256x!tt.ptr<f32>> loc(#loc32)
    %36 = tt.splat %arg4 : !tt.ptr<f32> -> tensor<256x!tt.ptr<f32>> loc(#loc33)
    %37 = tt.addptr %36, %8 : tensor<256x!tt.ptr<f32>>, tensor<256xi32> loc(#loc33)
    %38 = tt.load %37 evictionPolicy = evict_last : tensor<256x!tt.ptr<f32>> loc(#loc34)
    %39 = arith.cmpf ogt, %18, %14 : tensor<256xf32> loc(#loc35)
    %40 = arith.select %39, %cst_5, %cst_4 : tensor<256xi1>, tensor<256xi8> loc(#loc36)
    %41 = arith.cmpf une, %18, %18 : tensor<256xf32> loc(#loc61)
    %42 = arith.ori %39, %41 : tensor<256xi1> loc(#loc62)
    %43 = arith.select %42, %18, %14 : tensor<256xi1>, tensor<256xf32> loc(#loc63)
    %44 = arith.cmpf ogt, %22, %43 : tensor<256xf32> loc(#loc41)
    %45 = arith.select %44, %cst_3, %40 : tensor<256xi1>, tensor<256xi8> loc(#loc42)
    %46 = arith.cmpf une, %22, %22 : tensor<256xf32> loc(#loc64)
    %47 = arith.ori %44, %46 : tensor<256xi1> loc(#loc65)
    %48 = arith.select %47, %22, %43 : tensor<256xi1>, tensor<256xf32> loc(#loc66)
    %49 = arith.cmpf ogt, %26, %48 : tensor<256xf32> loc(#loc44)
    %50 = arith.select %49, %cst_2, %45 : tensor<256xi1>, tensor<256xi8> loc(#loc45)
    %51 = arith.cmpf une, %26, %26 : tensor<256xf32> loc(#loc67)
    %52 = arith.ori %49, %51 : tensor<256xi1> loc(#loc68)
    %53 = arith.select %52, %26, %48 : tensor<256xi1>, tensor<256xf32> loc(#loc69)
    %54 = arith.subf %53, %29 : tensor<256xf32> loc(#loc47)
    %55 = arith.addf %32, %cst_1 : tensor<256xf32> loc(#loc48)
    %56 = tt.extern_elementwise %55 {libname = "", libpath = "", pure = true, symbol = "__nv_sqrtf"} : (tensor<256xf32>) -> tensor<256xf32> loc(#loc49)
    %57 = arith.divf %cst_0, %56 : tensor<256xf32> loc(#loc50)
    %58 = arith.mulf %54, %57 : tensor<256xf32> loc(#loc51)
    %59 = arith.mulf %58, %35 : tensor<256xf32> loc(#loc52)
    %60 = arith.addf %59, %38 : tensor<256xf32> loc(#loc53)
    %61 = arith.cmpf ogt, %cst, %60 : tensor<256xf32> loc(#loc70)
    %62 = arith.select %61, %cst, %60 : tensor<256xi1>, tensor<256xf32> loc(#loc71)
    %63 = tt.splat %arg5 : !tt.ptr<i8> -> tensor<256x!tt.ptr<i8>> loc(#loc56)
    %64 = tt.addptr %63, %4 : tensor<256x!tt.ptr<i8>>, tensor<256xi32> loc(#loc56)
    tt.store %64, %50 : tensor<256x!tt.ptr<i8>> loc(#loc57)
    %65 = tt.splat %arg6 : !tt.ptr<f32> -> tensor<256x!tt.ptr<f32>> loc(#loc58)
    %66 = tt.addptr %65, %4 : tensor<256x!tt.ptr<f32>>, tensor<256xi32> loc(#loc58)
    tt.store %66, %62 : tensor<256x!tt.ptr<f32>> loc(#loc59)
    tt.return loc(#loc60)
  } loc(#loc)
} loc(#loc)
#loc1 = loc(unknown)
#loc2 = loc("inductor_cache/xa/cxatxxydcnleescp3x4d2jqha5ddtd4h3ptslmwuyf7dehhymgpf.py":21:28)
#loc3 = loc("inductor_cache/xa/cxatxxydcnleescp3x4d2jqha5ddtd4h3ptslmwuyf7dehhymgpf.py":21:33)
#loc4 = loc("inductor_cache/xa/cxatxxydcnleescp3x4d2jqha5ddtd4h3ptslmwuyf7dehhymgpf.py":22:36)
#loc5 = loc("inductor_cache/xa/cxatxxydcnleescp3x4d2jqha5ddtd4h3ptslmwuyf7dehhymgpf.py":22:23)
#loc6 = loc("inductor_cache/xa/cxatxxydcnleescp3x4d2jqha5ddtd4h3ptslmwuyf7dehhymgpf.py":24:19)
#loc7 = loc("inductor_cache/xa/cxatxxydcnleescp3x4d2jqha5ddtd4h3ptslmwuyf7dehhymgpf.py":25:19)
#loc8 = loc("inductor_cache/xa/cxatxxydcnleescp3x4d2jqha5ddtd4h3ptslmwuyf7dehhymgpf.py":27:21)
#loc9 = loc("inductor_cache/xa/cxatxxydcnleescp3x4d2jqha5ddtd4h3ptslmwuyf7dehhymgpf.py":27:28)
#loc10 = loc("inductor_cache/xa/cxatxxydcnleescp3x4d2jqha5ddtd4h3ptslmwuyf7dehhymgpf.py":28:32)
#loc11 = loc("inductor_cache/xa/cxatxxydcnleescp3x4d2jqha5ddtd4h3ptslmwuyf7dehhymgpf.py":28:40)
#loc12 = loc("inductor_cache/xa/cxatxxydcnleescp3x4d2jqha5ddtd4h3ptslmwuyf7dehhymgpf.py":28:37)
#loc13 = loc("inductor_cache/xa/cxatxxydcnleescp3x4d2jqha5ddtd4h3ptslmwuyf7dehhymgpf.py":28:30)
#loc14 = loc("inductor_cache/xa/cxatxxydcnleescp3x4d2jqha5ddtd4h3ptslmwuyf7dehhymgpf.py":28:45)
#loc15 = loc("inductor_cache/xa/cxatxxydcnleescp3x4d2jqha5ddtd4h3ptslmwuyf7dehhymgpf.py":29:34)
#loc16 = loc("inductor_cache/xa/cxatxxydcnleescp3x4d2jqha5ddtd4h3ptslmwuyf7dehhymgpf.py":29:41)
#loc17 = loc("inductor_cache/xa/cxatxxydcnleescp3x4d2jqha5ddtd4h3ptslmwuyf7dehhymgpf.py":29:30)
#loc18 = loc("inductor_cache/xa/cxatxxydcnleescp3x4d2jqha5ddtd4h3ptslmwuyf7dehhymgpf.py":29:49)
#loc19 = loc("inductor_cache/xa/cxatxxydcnleescp3x4d2jqha5ddtd4h3ptslmwuyf7dehhymgpf.py":30:35)
#loc20 = loc("inductor_cache/xa/cxatxxydcnleescp3x4d2jqha5ddtd4h3ptslmwuyf7dehhymgpf.py":30:42)
#loc21 = loc("inductor_cache/xa/cxatxxydcnleescp3x4d2jqha5ddtd4h3ptslmwuyf7dehhymgpf.py":30:30)
#loc22 = loc("inductor_cache/xa/cxatxxydcnleescp3x4d2jqha5ddtd4h3ptslmwuyf7dehhymgpf.py":30:50)
#loc23 = loc("inductor_cache/xa/cxatxxydcnleescp3x4d2jqha5ddtd4h3ptslmwuyf7dehhymgpf.py":31:36)
#loc24 = loc("inductor_cache/xa/cxatxxydcnleescp3x4d2jqha5ddtd4h3ptslmwuyf7dehhymgpf.py":31:43)
#loc25 = loc("inductor_cache/xa/cxatxxydcnleescp3x4d2jqha5ddtd4h3ptslmwuyf7dehhymgpf.py":31:31)
#loc26 = loc("inductor_cache/xa/cxatxxydcnleescp3x4d2jqha5ddtd4h3ptslmwuyf7dehhymgpf.py":31:51)
#loc27 = loc("inductor_cache/xa/cxatxxydcnleescp3x4d2jqha5ddtd4h3ptslmwuyf7dehhymgpf.py":32:31)
#loc28 = loc("inductor_cache/xa/cxatxxydcnleescp3x4d2jqha5ddtd4h3ptslmwuyf7dehhymgpf.py":32:36)
#loc29 = loc("inductor_cache/xa/cxatxxydcnleescp3x4d2jqha5ddtd4h3ptslmwuyf7dehhymgpf.py":33:31)
#loc30 = loc("inductor_cache/xa/cxatxxydcnleescp3x4d2jqha5ddtd4h3ptslmwuyf7dehhymgpf.py":33:36)
#loc31 = loc("inductor_cache/xa/cxatxxydcnleescp3x4d2jqha5ddtd4h3ptslmwuyf7dehhymgpf.py":34:31)
#loc32 = loc("inductor_cache/xa/cxatxxydcnleescp3x4d2jqha5ddtd4h3ptslmwuyf7dehhymgpf.py":34:36)
#loc33 = loc("inductor_cache/xa/cxatxxydcnleescp3x4d2jqha5ddtd4h3ptslmwuyf7dehhymgpf.py":35:31)
#loc34 = loc("inductor_cache/xa/cxatxxydcnleescp3x4d2jqha5ddtd4h3ptslmwuyf7dehhymgpf.py":35:36)
#loc35 = loc("inductor_cache/xa/cxatxxydcnleescp3x4d2jqha5ddtd4h3ptslmwuyf7dehhymgpf.py":36:18)
#loc36 = loc("inductor_cache/xa/cxatxxydcnleescp3x4d2jqha5ddtd4h3ptslmwuyf7dehhymgpf.py":39:32)
#loc37 = loc("/home/sahanp/.conda/envs/parity-bench/lib/python3.12/site-packages/torch/_inductor/runtime/triton_helpers.py":120:21)
#loc38 = loc("inductor_cache/xa/cxatxxydcnleescp3x4d2jqha5ddtd4h3ptslmwuyf7dehhymgpf.py":40:40)
#loc39 = loc("/home/sahanp/.conda/envs/parity-bench/lib/python3.12/site-packages/torch/_inductor/runtime/triton_helpers.py":120:16)
#loc40 = loc("/home/sahanp/.conda/envs/parity-bench/lib/python3.12/site-packages/torch/_inductor/runtime/triton_helpers.py":121:29)
#loc41 = loc("inductor_cache/xa/cxatxxydcnleescp3x4d2jqha5ddtd4h3ptslmwuyf7dehhymgpf.py":41:18)
#loc42 = loc("inductor_cache/xa/cxatxxydcnleescp3x4d2jqha5ddtd4h3ptslmwuyf7dehhymgpf.py":43:33)
#loc43 = loc("inductor_cache/xa/cxatxxydcnleescp3x4d2jqha5ddtd4h3ptslmwuyf7dehhymgpf.py":44:41)
#loc44 = loc("inductor_cache/xa/cxatxxydcnleescp3x4d2jqha5ddtd4h3ptslmwuyf7dehhymgpf.py":45:20)
#loc45 = loc("inductor_cache/xa/cxatxxydcnleescp3x4d2jqha5ddtd4h3ptslmwuyf7dehhymgpf.py":47:35)
#loc46 = loc("inductor_cache/xa/cxatxxydcnleescp3x4d2jqha5ddtd4h3ptslmwuyf7dehhymgpf.py":48:42)
#loc47 = loc("inductor_cache/xa/cxatxxydcnleescp3x4d2jqha5ddtd4h3ptslmwuyf7dehhymgpf.py":49:20)
#loc48 = loc("inductor_cache/xa/cxatxxydcnleescp3x4d2jqha5ddtd4h3ptslmwuyf7dehhymgpf.py":51:20)
#loc49 = loc("inductor_cache/xa/cxatxxydcnleescp3x4d2jqha5ddtd4h3ptslmwuyf7dehhymgpf.py":52:27)
#loc50 = loc("inductor_cache/xa/cxatxxydcnleescp3x4d2jqha5ddtd4h3ptslmwuyf7dehhymgpf.py":54:20)
#loc51 = loc("inductor_cache/xa/cxatxxydcnleescp3x4d2jqha5ddtd4h3ptslmwuyf7dehhymgpf.py":57:20)
#loc52 = loc("inductor_cache/xa/cxatxxydcnleescp3x4d2jqha5ddtd4h3ptslmwuyf7dehhymgpf.py":58:20)
#loc53 = loc("inductor_cache/xa/cxatxxydcnleescp3x4d2jqha5ddtd4h3ptslmwuyf7dehhymgpf.py":59:20)
#loc54 = loc("/home/sahanp/.conda/envs/parity-bench/lib/python3.12/site-packages/torch/_inductor/runtime/triton_helpers.py":118:15)
#loc55 = loc("inductor_cache/xa/cxatxxydcnleescp3x4d2jqha5ddtd4h3ptslmwuyf7dehhymgpf.py":61:42)
#loc56 = loc("inductor_cache/xa/cxatxxydcnleescp3x4d2jqha5ddtd4h3ptslmwuyf7dehhymgpf.py":62:25)
#loc57 = loc("inductor_cache/xa/cxatxxydcnleescp3x4d2jqha5ddtd4h3ptslmwuyf7dehhymgpf.py":62:37)
#loc58 = loc("inductor_cache/xa/cxatxxydcnleescp3x4d2jqha5ddtd4h3ptslmwuyf7dehhymgpf.py":63:25)
#loc59 = loc("inductor_cache/xa/cxatxxydcnleescp3x4d2jqha5ddtd4h3ptslmwuyf7dehhymgpf.py":63:37)
#loc60 = loc("inductor_cache/xa/cxatxxydcnleescp3x4d2jqha5ddtd4h3ptslmwuyf7dehhymgpf.py":63:4)
#loc61 = loc(callsite(#loc37 at #loc38))
#loc62 = loc(callsite(#loc39 at #loc38))
#loc63 = loc(callsite(#loc40 at #loc38))
#loc64 = loc(callsite(#loc37 at #loc43))
#loc65 = loc(callsite(#loc39 at #loc43))
#loc66 = loc(callsite(#loc40 at #loc43))
#loc67 = loc(callsite(#loc37 at #loc46))
#loc68 = loc(callsite(#loc39 at #loc46))
#loc69 = loc(callsite(#loc40 at #loc46))
#loc70 = loc(callsite(#loc54 at #loc55))
#loc71 = loc(callsite(#loc40 at #loc55))
