#loc = loc("inductor_cache/iz/cizmvcpu2nprujkufmizdnt2sjcvzypz3a7o2cvv3ksu4bwttquu.py":19:0)
module {
  tt.func public @triton_poi_fused_addmm_relu_17(%arg0: !tt.ptr<f32> {tt.divisibility = 16 : i32} loc("inductor_cache/iz/cizmvcpu2nprujkufmizdnt2sjcvzypz3a7o2cvv3ksu4bwttquu.py":19:0), %arg1: !tt.ptr<f32> {tt.divisibility = 16 : i32} loc("inductor_cache/iz/cizmvcpu2nprujkufmizdnt2sjcvzypz3a7o2cvv3ksu4bwttquu.py":19:0), %arg2: !tt.ptr<f32> {tt.divisibility = 16 : i32} loc("inductor_cache/iz/cizmvcpu2nprujkufmizdnt2sjcvzypz3a7o2cvv3ksu4bwttquu.py":19:0), %arg3: i32 {tt.divisibility = 16 : i32} loc("inductor_cache/iz/cizmvcpu2nprujkufmizdnt2sjcvzypz3a7o2cvv3ksu4bwttquu.py":19:0)) attributes {noinline = false} {
    %cst = arith.constant dense<0.000000e+00> : tensor<16xf32> loc(#loc1)
    %cst_0 = arith.constant dense<4> : tensor<16xi32> loc(#loc1)
    %cst_1 = arith.constant dense<16> : tensor<16xi32> loc(#loc1)
    %c16_i32 = arith.constant 16 : i32 loc(#loc1)
    %0 = tt.get_program_id x : i32 loc(#loc2)
    %1 = arith.muli %0, %c16_i32 : i32 loc(#loc3)
    %2 = tt.make_range {end = 16 : i32, start = 0 : i32} : tensor<16xi32> loc(#loc4)
    %3 = tt.splat %1 : i32 -> tensor<16xi32> loc(#loc5)
    %4 = arith.addi %3, %2 : tensor<16xi32> loc(#loc5)
    %5 = arith.cmpi slt, %4, %cst_1 : tensor<16xi32> loc(#loc6)
    %6 = arith.remsi %4, %cst_0 : tensor<16xi32> loc(#loc7)
    %7 = tt.splat %arg0 : !tt.ptr<f32> -> tensor<16x!tt.ptr<f32>> loc(#loc8)
    %8 = tt.addptr %7, %4 : tensor<16x!tt.ptr<f32>>, tensor<16xi32> loc(#loc8)
    %9 = tt.load %8, %5 : tensor<16x!tt.ptr<f32>> loc(#loc9)
    %10 = tt.splat %arg2 : !tt.ptr<f32> -> tensor<16x!tt.ptr<f32>> loc(#loc10)
    %11 = tt.addptr %10, %6 : tensor<16x!tt.ptr<f32>>, tensor<16xi32> loc(#loc10)
    %12 = tt.load %11, %5 evictionPolicy = evict_last : tensor<16x!tt.ptr<f32>> loc(#loc11)
    %13 = tt.splat %arg1 : !tt.ptr<f32> -> tensor<16x!tt.ptr<f32>> loc(#loc12)
    %14 = tt.addptr %13, %4 : tensor<16x!tt.ptr<f32>>, tensor<16xi32> loc(#loc12)
    %15 = tt.load %14, %5 : tensor<16x!tt.ptr<f32>> loc(#loc13)
    %16 = arith.addf %9, %12 : tensor<16xf32> loc(#loc14)
    %17 = arith.cmpf ogt, %cst, %16 : tensor<16xf32> loc(#loc23)
    %18 = arith.select %17, %cst, %16 : tensor<16xi1>, tensor<16xf32> loc(#loc24)
    %19 = arith.addf %15, %12 : tensor<16xf32> loc(#loc18)
    %20 = arith.cmpf ogt, %cst, %19 : tensor<16xf32> loc(#loc25)
    %21 = arith.select %20, %cst, %19 : tensor<16xi1>, tensor<16xf32> loc(#loc26)
    tt.store %8, %18, %5 : tensor<16x!tt.ptr<f32>> loc(#loc20)
    tt.store %14, %21, %5 : tensor<16x!tt.ptr<f32>> loc(#loc21)
    tt.return loc(#loc22)
  } loc(#loc)
} loc(#loc)
#loc1 = loc(unknown)
#loc2 = loc("inductor_cache/iz/cizmvcpu2nprujkufmizdnt2sjcvzypz3a7o2cvv3ksu4bwttquu.py":21:28)
#loc3 = loc("inductor_cache/iz/cizmvcpu2nprujkufmizdnt2sjcvzypz3a7o2cvv3ksu4bwttquu.py":21:33)
#loc4 = loc("inductor_cache/iz/cizmvcpu2nprujkufmizdnt2sjcvzypz3a7o2cvv3ksu4bwttquu.py":22:36)
#loc5 = loc("inductor_cache/iz/cizmvcpu2nprujkufmizdnt2sjcvzypz3a7o2cvv3ksu4bwttquu.py":22:23)
#loc6 = loc("inductor_cache/iz/cizmvcpu2nprujkufmizdnt2sjcvzypz3a7o2cvv3ksu4bwttquu.py":23:21)
#loc7 = loc("inductor_cache/iz/cizmvcpu2nprujkufmizdnt2sjcvzypz3a7o2cvv3ksu4bwttquu.py":25:19)
#loc8 = loc("inductor_cache/iz/cizmvcpu2nprujkufmizdnt2sjcvzypz3a7o2cvv3ksu4bwttquu.py":26:34)
#loc9 = loc("inductor_cache/iz/cizmvcpu2nprujkufmizdnt2sjcvzypz3a7o2cvv3ksu4bwttquu.py":26:39)
#loc10 = loc("inductor_cache/iz/cizmvcpu2nprujkufmizdnt2sjcvzypz3a7o2cvv3ksu4bwttquu.py":27:30)
#loc11 = loc("inductor_cache/iz/cizmvcpu2nprujkufmizdnt2sjcvzypz3a7o2cvv3ksu4bwttquu.py":27:35)
#loc12 = loc("inductor_cache/iz/cizmvcpu2nprujkufmizdnt2sjcvzypz3a7o2cvv3ksu4bwttquu.py":28:34)
#loc13 = loc("inductor_cache/iz/cizmvcpu2nprujkufmizdnt2sjcvzypz3a7o2cvv3ksu4bwttquu.py":28:39)
#loc14 = loc("inductor_cache/iz/cizmvcpu2nprujkufmizdnt2sjcvzypz3a7o2cvv3ksu4bwttquu.py":29:18)
#loc15 = loc("/home/sahanp/.conda/envs/parity-bench/lib/python3.12/site-packages/torch/_inductor/runtime/triton_helpers.py":118:15)
#loc16 = loc("inductor_cache/iz/cizmvcpu2nprujkufmizdnt2sjcvzypz3a7o2cvv3ksu4bwttquu.py":31:40)
#loc17 = loc("/home/sahanp/.conda/envs/parity-bench/lib/python3.12/site-packages/torch/_inductor/runtime/triton_helpers.py":121:29)
#loc18 = loc("inductor_cache/iz/cizmvcpu2nprujkufmizdnt2sjcvzypz3a7o2cvv3ksu4bwttquu.py":32:18)
#loc19 = loc("inductor_cache/iz/cizmvcpu2nprujkufmizdnt2sjcvzypz3a7o2cvv3ksu4bwttquu.py":33:40)
#loc20 = loc("inductor_cache/iz/cizmvcpu2nprujkufmizdnt2sjcvzypz3a7o2cvv3ksu4bwttquu.py":34:39)
#loc21 = loc("inductor_cache/iz/cizmvcpu2nprujkufmizdnt2sjcvzypz3a7o2cvv3ksu4bwttquu.py":35:39)
#loc22 = loc("inductor_cache/iz/cizmvcpu2nprujkufmizdnt2sjcvzypz3a7o2cvv3ksu4bwttquu.py":35:4)
#loc23 = loc(callsite(#loc15 at #loc16))
#loc24 = loc(callsite(#loc17 at #loc16))
#loc25 = loc(callsite(#loc15 at #loc19))
#loc26 = loc(callsite(#loc17 at #loc19))
