#loc = loc("inductor_cache/tj/ctjjjlfxhtwihdosgccdnaxdu3c2i5ks7bk3vza2so6uhbpcdnvb.py":19:0)
#loc1 = loc(unknown)
#loc7 = loc("inductor_cache/tj/ctjjjlfxhtwihdosgccdnaxdu3c2i5ks7bk3vza2so6uhbpcdnvb.py":34:57)
#loc23 = loc(callsite(#loc1 at #loc7))
module {
  tt.func public @triton_per_fused_abs_mean_mul_sign_0(%arg0: !tt.ptr<f32> {tt.divisibility = 16 : i32} loc("inductor_cache/tj/ctjjjlfxhtwihdosgccdnaxdu3c2i5ks7bk3vza2so6uhbpcdnvb.py":19:0), %arg1: !tt.ptr<f32> {tt.divisibility = 16 : i32} loc("inductor_cache/tj/ctjjjlfxhtwihdosgccdnaxdu3c2i5ks7bk3vza2so6uhbpcdnvb.py":19:0), %arg2: i32 {tt.divisibility = 16 : i32} loc("inductor_cache/tj/ctjjjlfxhtwihdosgccdnaxdu3c2i5ks7bk3vza2so6uhbpcdnvb.py":19:0)) attributes {noinline = false} {
    %cst = arith.constant 2.560000e+02 : f32 loc(#loc1)
    %cst_0 = arith.constant 0.000000e+00 : f32 loc(#loc1)
    %cst_1 = arith.constant dense<0.000000e+00> : tensor<256xf32> loc(#loc1)
    %0 = tt.make_range {end = 256 : i32, start = 0 : i32} : tensor<256xi32> loc(#loc2)
    %1 = tt.splat %arg0 : !tt.ptr<f32> -> tensor<256x!tt.ptr<f32>> loc(#loc3)
    %2 = tt.addptr %1, %0 : tensor<256x!tt.ptr<f32>>, tensor<256xi32> loc(#loc3)
    %3 = tt.load %2 : tensor<256x!tt.ptr<f32>> loc(#loc4)
    %4 = math.absf %3 : tensor<256xf32> loc(#loc5)
    %5 = "tt.reduce"(%4) <{axis = 0 : i32}> ({
    ^bb0(%arg3: f32 loc(callsite(#loc1 at #loc7)), %arg4: f32 loc(callsite(#loc1 at #loc7))):
      %18 = arith.addf %arg3, %arg4 : f32 loc(#loc26)
      tt.reduce.return %18 : f32 loc(#loc22)
    }) : (tensor<256xf32>) -> f32 loc(#loc22)
    %6 = arith.addf %5, %cst_0 : f32 loc(#loc25)
    %7 = arith.cmpf olt, %cst_1, %3 : tensor<256xf32> loc(#loc11)
    %8 = arith.extui %7 : tensor<256xi1> to tensor<256xi8> loc(#loc12)
    %9 = arith.cmpf olt, %3, %cst_1 : tensor<256xf32> loc(#loc13)
    %10 = arith.extui %9 : tensor<256xi1> to tensor<256xi8> loc(#loc14)
    %11 = arith.subi %8, %10 : tensor<256xi8> loc(#loc15)
    %12 = arith.sitofp %11 : tensor<256xi8> to tensor<256xf32> loc(#loc16)
    %13 = arith.divf %6, %cst : f32 loc(#loc17)
    %14 = tt.splat %13 : f32 -> tensor<256xf32> loc(#loc18)
    %15 = arith.mulf %12, %14 : tensor<256xf32> loc(#loc18)
    %16 = tt.splat %arg1 : !tt.ptr<f32> -> tensor<256x!tt.ptr<f32>> loc(#loc19)
    %17 = tt.addptr %16, %0 : tensor<256x!tt.ptr<f32>>, tensor<256xi32> loc(#loc19)
    tt.store %17, %15 : tensor<256x!tt.ptr<f32>> loc(#loc20)
    tt.return loc(#loc21)
  } loc(#loc)
} loc(#loc)
#loc2 = loc("inductor_cache/tj/ctjjjlfxhtwihdosgccdnaxdu3c2i5ks7bk3vza2so6uhbpcdnvb.py":27:26)
#loc3 = loc("inductor_cache/tj/ctjjjlfxhtwihdosgccdnaxdu3c2i5ks7bk3vza2so6uhbpcdnvb.py":31:30)
#loc4 = loc("inductor_cache/tj/ctjjjlfxhtwihdosgccdnaxdu3c2i5ks7bk3vza2so6uhbpcdnvb.py":31:35)
#loc5 = loc("inductor_cache/tj/ctjjjlfxhtwihdosgccdnaxdu3c2i5ks7bk3vza2so6uhbpcdnvb.py":32:23)
#loc6 = loc("/home/sahanp/.conda/envs/parity-bench/lib/python3.12/site-packages/triton/language/standard.py":267:36)
#loc8 = loc("/home/sahanp/.conda/envs/parity-bench/lib/python3.12/site-packages/triton/language/standard.py":256:15)
#loc9 = loc("/home/sahanp/.conda/envs/parity-bench/lib/python3.12/site-packages/torch/_inductor/runtime/triton_helpers.py":73:15)
#loc10 = loc("inductor_cache/tj/ctjjjlfxhtwihdosgccdnaxdu3c2i5ks7bk3vza2so6uhbpcdnvb.py":34:44)
#loc11 = loc("inductor_cache/tj/ctjjjlfxhtwihdosgccdnaxdu3c2i5ks7bk3vza2so6uhbpcdnvb.py":36:18)
#loc12 = loc("inductor_cache/tj/ctjjjlfxhtwihdosgccdnaxdu3c2i5ks7bk3vza2so6uhbpcdnvb.py":37:19)
#loc13 = loc("inductor_cache/tj/ctjjjlfxhtwihdosgccdnaxdu3c2i5ks7bk3vza2so6uhbpcdnvb.py":38:18)
#loc14 = loc("inductor_cache/tj/ctjjjlfxhtwihdosgccdnaxdu3c2i5ks7bk3vza2so6uhbpcdnvb.py":39:19)
#loc15 = loc("inductor_cache/tj/ctjjjlfxhtwihdosgccdnaxdu3c2i5ks7bk3vza2so6uhbpcdnvb.py":40:19)
#loc16 = loc("inductor_cache/tj/ctjjjlfxhtwihdosgccdnaxdu3c2i5ks7bk3vza2so6uhbpcdnvb.py":41:21)
#loc17 = loc("inductor_cache/tj/ctjjjlfxhtwihdosgccdnaxdu3c2i5ks7bk3vza2so6uhbpcdnvb.py":43:19)
#loc18 = loc("inductor_cache/tj/ctjjjlfxhtwihdosgccdnaxdu3c2i5ks7bk3vza2so6uhbpcdnvb.py":44:20)
#loc19 = loc("inductor_cache/tj/ctjjjlfxhtwihdosgccdnaxdu3c2i5ks7bk3vza2so6uhbpcdnvb.py":45:25)
#loc20 = loc("inductor_cache/tj/ctjjjlfxhtwihdosgccdnaxdu3c2i5ks7bk3vza2so6uhbpcdnvb.py":45:64)
#loc21 = loc("inductor_cache/tj/ctjjjlfxhtwihdosgccdnaxdu3c2i5ks7bk3vza2so6uhbpcdnvb.py":45:4)
#loc22 = loc(callsite(#loc6 at #loc7))
#loc24 = loc(callsite(#loc8 at #loc6))
#loc25 = loc(callsite(#loc9 at #loc10))
#loc26 = loc(callsite(#loc24 at #loc7))
