#loc = loc("inductor_cache/7x/c7xpujlycdzvp65rbz364nnthbdsivfwrzey7e5662czey4e47x7.py":19:0)
#loc1 = loc(unknown)
#loc33 = loc("inductor_cache/7x/c7xpujlycdzvp65rbz364nnthbdsivfwrzey7e5662czey4e47x7.py":42:25)
#loc44 = loc(callsite(#loc1 at #loc33))
module {
  tt.func public @triton_per_fused_abs_mean_relu_sub_38(%arg0: !tt.ptr<f32> {tt.divisibility = 16 : i32} loc("inductor_cache/7x/c7xpujlycdzvp65rbz364nnthbdsivfwrzey7e5662czey4e47x7.py":19:0), %arg1: !tt.ptr<f32> {tt.divisibility = 16 : i32} loc("inductor_cache/7x/c7xpujlycdzvp65rbz364nnthbdsivfwrzey7e5662czey4e47x7.py":19:0), %arg2: !tt.ptr<f32> {tt.divisibility = 16 : i32} loc("inductor_cache/7x/c7xpujlycdzvp65rbz364nnthbdsivfwrzey7e5662czey4e47x7.py":19:0), %arg3: i32 {tt.divisibility = 16 : i32} loc("inductor_cache/7x/c7xpujlycdzvp65rbz364nnthbdsivfwrzey7e5662czey4e47x7.py":19:0), %arg4: i32 {tt.divisibility = 16 : i32} loc("inductor_cache/7x/c7xpujlycdzvp65rbz364nnthbdsivfwrzey7e5662czey4e47x7.py":19:0)) attributes {noinline = false} {
    %c128_i32 = arith.constant 128 : i32 loc(#loc1)
    %c8192_i32 = arith.constant 8192 : i32 loc(#loc1)
    %c8_i32 = arith.constant 8 : i32 loc(#loc1)
    %c64_i32 = arith.constant 64 : i32 loc(#loc1)
    %c256_i32 = arith.constant 256 : i32 loc(#loc1)
    %cst = arith.constant dense<0.000000e+00> : tensor<1x128xf32> loc(#loc1)
    %cst_0 = arith.constant dense<8192> : tensor<1x128xi32> loc(#loc1)
    %cst_1 = arith.constant dense<512> : tensor<1x128xi32> loc(#loc1)
    %cst_2 = arith.constant dense<16> : tensor<1x128xi32> loc(#loc1)
    %0 = tt.get_program_id x : i32 loc(#loc2)
    %1 = arith.cmpi slt, %0, %c256_i32 : i32 loc(#loc3)
    %2 = tt.splat %1 : i1 -> tensor<1x1xi1> loc(#loc3)
    %3 = tt.make_range {end = 128 : i32, start = 0 : i32} : tensor<128xi32> loc(#loc4)
    %4 = tt.expand_dims %3 {axis = 0 : i32} : tensor<128xi32> -> tensor<1x128xi32> loc(#loc5)
    %5 = arith.remsi %0, %c64_i32 : i32 loc(#loc6)
    %6 = arith.divsi %0, %c64_i32 : i32 loc(#loc7)
    %7 = arith.muli %5, %c8_i32 : i32 loc(#loc8)
    %8 = arith.remsi %4, %cst_2 : tensor<1x128xi32> loc(#loc9)
    %9 = arith.muli %8, %cst_1 : tensor<1x128xi32> loc(#loc10)
    %10 = tt.splat %7 : i32 -> tensor<1x128xi32> loc(#loc11)
    %11 = arith.addi %10, %9 : tensor<1x128xi32> loc(#loc11)
    %12 = arith.muli %6, %c8192_i32 : i32 loc(#loc12)
    %13 = tt.splat %12 : i32 -> tensor<1x128xi32> loc(#loc13)
    %14 = arith.addi %11, %13 : tensor<1x128xi32> loc(#loc13)
    %15 = arith.muli %5, %c128_i32 : i32 loc(#loc14)
    %16 = tt.splat %15 : i32 -> tensor<1x128xi32> loc(#loc15)
    %17 = arith.addi %4, %16 : tensor<1x128xi32> loc(#loc15)
    %18 = arith.divsi %17, %cst_0 : tensor<1x128xi32> loc(#loc16)
    %19 = arith.muli %18, %cst_0 : tensor<1x128xi32> loc(#loc17)
    %20 = arith.addi %14, %19 : tensor<1x128xi32> loc(#loc18)
    %21 = arith.divsi %4, %cst_2 : tensor<1x128xi32> loc(#loc19)
    %22 = arith.addi %20, %21 : tensor<1x128xi32> loc(#loc20)
    %23 = tt.splat %arg0 : !tt.ptr<f32> -> tensor<1x128x!tt.ptr<f32>> loc(#loc21)
    %24 = tt.addptr %23, %22 : tensor<1x128x!tt.ptr<f32>>, tensor<1x128xi32> loc(#loc21)
    %25 = tt.splat %1 : i1 -> tensor<1x128xi1> loc(#loc22)
    %26 = tt.load %24, %25, %cst evictionPolicy = evict_last : tensor<1x128x!tt.ptr<f32>> loc(#loc22)
    %27 = tt.splat %arg1 : !tt.ptr<f32> -> tensor<1x128x!tt.ptr<f32>> loc(#loc23)
    %28 = tt.addptr %27, %22 : tensor<1x128x!tt.ptr<f32>>, tensor<1x128xi32> loc(#loc23)
    %29 = tt.load %28, %25, %cst evictionPolicy = evict_last : tensor<1x128x!tt.ptr<f32>> loc(#loc24)
    %30 = arith.cmpf ogt, %cst, %26 : tensor<1x128xf32> loc(#loc39)
    %31 = arith.select %30, %cst, %26 : tensor<1x128xi1>, tensor<1x128xf32> loc(#loc40)
    %32 = arith.cmpf ogt, %cst, %29 : tensor<1x128xf32> loc(#loc41)
    %33 = arith.select %32, %cst, %29 : tensor<1x128xi1>, tensor<1x128xf32> loc(#loc42)
    %34 = arith.subf %31, %33 : tensor<1x128xf32> loc(#loc29)
    %35 = math.absf %34 : tensor<1x128xf32> loc(#loc30)
    %36 = arith.select %25, %35, %cst : tensor<1x128xi1>, tensor<1x128xf32> loc(#loc31)
    %37 = "tt.reduce"(%36) <{axis = 1 : i32}> ({
    ^bb0(%arg5: f32 loc(callsite(#loc1 at #loc33)), %arg6: f32 loc(callsite(#loc1 at #loc33))):
      %41 = arith.addf %arg5, %arg6 : f32 loc(#loc46)
      tt.reduce.return %41 : f32 loc(#loc43)
    }) : (tensor<1x128xf32>) -> tensor<1xf32> loc(#loc43)
    %38 = tt.expand_dims %37 {axis = 1 : i32} : tensor<1xf32> -> tensor<1x1xf32> loc(#loc35)
    %39 = tt.addptr %arg2, %0 : !tt.ptr<f32>, i32 loc(#loc36)
    %40 = tt.splat %39 : !tt.ptr<f32> -> tensor<1x1x!tt.ptr<f32>> loc(#loc36)
    tt.store %40, %38, %2 : tensor<1x1x!tt.ptr<f32>> loc(#loc37)
    tt.return loc(#loc38)
  } loc(#loc)
} loc(#loc)
#loc2 = loc("inductor_cache/7x/c7xpujlycdzvp65rbz364nnthbdsivfwrzey7e5662czey4e47x7.py":23:28)
#loc3 = loc("inductor_cache/7x/c7xpujlycdzvp65rbz364nnthbdsivfwrzey7e5662czey4e47x7.py":25:21)
#loc4 = loc("inductor_cache/7x/c7xpujlycdzvp65rbz364nnthbdsivfwrzey7e5662czey4e47x7.py":26:26)
#loc5 = loc("inductor_cache/7x/c7xpujlycdzvp65rbz364nnthbdsivfwrzey7e5662czey4e47x7.py":26:34)
#loc6 = loc("inductor_cache/7x/c7xpujlycdzvp65rbz364nnthbdsivfwrzey7e5662czey4e47x7.py":30:19)
#loc7 = loc("inductor_cache/7x/c7xpujlycdzvp65rbz364nnthbdsivfwrzey7e5662czey4e47x7.py":31:19)
#loc8 = loc("inductor_cache/7x/c7xpujlycdzvp65rbz364nnthbdsivfwrzey7e5662czey4e47x7.py":33:32)
#loc9 = loc("inductor_cache/7x/c7xpujlycdzvp65rbz364nnthbdsivfwrzey7e5662czey4e47x7.py":33:48)
#loc10 = loc("inductor_cache/7x/c7xpujlycdzvp65rbz364nnthbdsivfwrzey7e5662czey4e47x7.py":33:43)
#loc11 = loc("inductor_cache/7x/c7xpujlycdzvp65rbz364nnthbdsivfwrzey7e5662czey4e47x7.py":33:37)
#loc12 = loc("inductor_cache/7x/c7xpujlycdzvp65rbz364nnthbdsivfwrzey7e5662czey4e47x7.py":33:60)
#loc13 = loc("inductor_cache/7x/c7xpujlycdzvp65rbz364nnthbdsivfwrzey7e5662czey4e47x7.py":33:55)
#loc14 = loc("inductor_cache/7x/c7xpujlycdzvp65rbz364nnthbdsivfwrzey7e5662czey4e47x7.py":33:81)
#loc15 = loc("inductor_cache/7x/c7xpujlycdzvp65rbz364nnthbdsivfwrzey7e5662czey4e47x7.py":33:77)
#loc16 = loc("inductor_cache/7x/c7xpujlycdzvp65rbz364nnthbdsivfwrzey7e5662czey4e47x7.py":33:88)
#loc17 = loc("inductor_cache/7x/c7xpujlycdzvp65rbz364nnthbdsivfwrzey7e5662czey4e47x7.py":33:71)
#loc18 = loc("inductor_cache/7x/c7xpujlycdzvp65rbz364nnthbdsivfwrzey7e5662czey4e47x7.py":33:65)
#loc19 = loc("inductor_cache/7x/c7xpujlycdzvp65rbz364nnthbdsivfwrzey7e5662czey4e47x7.py":33:103)
#loc20 = loc("inductor_cache/7x/c7xpujlycdzvp65rbz364nnthbdsivfwrzey7e5662czey4e47x7.py":33:97)
#loc21 = loc("inductor_cache/7x/c7xpujlycdzvp65rbz364nnthbdsivfwrzey7e5662czey4e47x7.py":33:30)
#loc22 = loc("inductor_cache/7x/c7xpujlycdzvp65rbz364nnthbdsivfwrzey7e5662czey4e47x7.py":33:109)
#loc23 = loc("inductor_cache/7x/c7xpujlycdzvp65rbz364nnthbdsivfwrzey7e5662czey4e47x7.py":34:30)
#loc24 = loc("inductor_cache/7x/c7xpujlycdzvp65rbz364nnthbdsivfwrzey7e5662czey4e47x7.py":34:109)
#loc25 = loc("/home/sahanp/.conda/envs/parity-bench/lib/python3.12/site-packages/torch/_inductor/runtime/triton_helpers.py":118:15)
#loc26 = loc("inductor_cache/7x/c7xpujlycdzvp65rbz364nnthbdsivfwrzey7e5662czey4e47x7.py":36:40)
#loc27 = loc("/home/sahanp/.conda/envs/parity-bench/lib/python3.12/site-packages/torch/_inductor/runtime/triton_helpers.py":121:29)
#loc28 = loc("inductor_cache/7x/c7xpujlycdzvp65rbz364nnthbdsivfwrzey7e5662czey4e47x7.py":37:40)
#loc29 = loc("inductor_cache/7x/c7xpujlycdzvp65rbz364nnthbdsivfwrzey7e5662czey4e47x7.py":38:18)
#loc30 = loc("inductor_cache/7x/c7xpujlycdzvp65rbz364nnthbdsivfwrzey7e5662czey4e47x7.py":39:23)
#loc31 = loc("inductor_cache/7x/c7xpujlycdzvp65rbz364nnthbdsivfwrzey7e5662czey4e47x7.py":41:33)
#loc32 = loc("/home/sahanp/.conda/envs/parity-bench/lib/python3.12/site-packages/triton/language/standard.py":267:36)
#loc34 = loc("/home/sahanp/.conda/envs/parity-bench/lib/python3.12/site-packages/triton/language/standard.py":256:15)
#loc35 = loc("inductor_cache/7x/c7xpujlycdzvp65rbz364nnthbdsivfwrzey7e5662czey4e47x7.py":42:28)
#loc36 = loc("inductor_cache/7x/c7xpujlycdzvp65rbz364nnthbdsivfwrzey7e5662czey4e47x7.py":43:25)
#loc37 = loc("inductor_cache/7x/c7xpujlycdzvp65rbz364nnthbdsivfwrzey7e5662czey4e47x7.py":43:37)
#loc38 = loc("inductor_cache/7x/c7xpujlycdzvp65rbz364nnthbdsivfwrzey7e5662czey4e47x7.py":43:4)
#loc39 = loc(callsite(#loc25 at #loc26))
#loc40 = loc(callsite(#loc27 at #loc26))
#loc41 = loc(callsite(#loc25 at #loc28))
#loc42 = loc(callsite(#loc27 at #loc28))
#loc43 = loc(callsite(#loc32 at #loc33))
#loc45 = loc(callsite(#loc34 at #loc32))
#loc46 = loc(callsite(#loc45 at #loc33))
