#loc = loc("inductor_cache/fl/cflmqpfjhuwqwbkmxy347bn4oc7eatx72vil5cgvu2dbfokpw73c.py":19:0)
module {
  tt.func public @triton_poi_fused__native_batch_norm_legit_no_training_cat_relu_33(%arg0: !tt.ptr<f32> {tt.divisibility = 16 : i32} loc("inductor_cache/fl/cflmqpfjhuwqwbkmxy347bn4oc7eatx72vil5cgvu2dbfokpw73c.py":19:0), %arg1: !tt.ptr<f32> {tt.divisibility = 16 : i32} loc("inductor_cache/fl/cflmqpfjhuwqwbkmxy347bn4oc7eatx72vil5cgvu2dbfokpw73c.py":19:0), %arg2: !tt.ptr<f32> {tt.divisibility = 16 : i32} loc("inductor_cache/fl/cflmqpfjhuwqwbkmxy347bn4oc7eatx72vil5cgvu2dbfokpw73c.py":19:0), %arg3: !tt.ptr<f32> {tt.divisibility = 16 : i32} loc("inductor_cache/fl/cflmqpfjhuwqwbkmxy347bn4oc7eatx72vil5cgvu2dbfokpw73c.py":19:0), %arg4: !tt.ptr<f32> {tt.divisibility = 16 : i32} loc("inductor_cache/fl/cflmqpfjhuwqwbkmxy347bn4oc7eatx72vil5cgvu2dbfokpw73c.py":19:0), %arg5: !tt.ptr<f32> {tt.divisibility = 16 : i32} loc("inductor_cache/fl/cflmqpfjhuwqwbkmxy347bn4oc7eatx72vil5cgvu2dbfokpw73c.py":19:0), %arg6: !tt.ptr<f32> {tt.divisibility = 16 : i32} loc("inductor_cache/fl/cflmqpfjhuwqwbkmxy347bn4oc7eatx72vil5cgvu2dbfokpw73c.py":19:0), %arg7: !tt.ptr<f32> {tt.divisibility = 16 : i32} loc("inductor_cache/fl/cflmqpfjhuwqwbkmxy347bn4oc7eatx72vil5cgvu2dbfokpw73c.py":19:0), %arg8: !tt.ptr<f32> {tt.divisibility = 16 : i32} loc("inductor_cache/fl/cflmqpfjhuwqwbkmxy347bn4oc7eatx72vil5cgvu2dbfokpw73c.py":19:0), %arg9: !tt.ptr<f32> {tt.divisibility = 16 : i32} loc("inductor_cache/fl/cflmqpfjhuwqwbkmxy347bn4oc7eatx72vil5cgvu2dbfokpw73c.py":19:0), %arg10: i32 {tt.divisibility = 16 : i32} loc("inductor_cache/fl/cflmqpfjhuwqwbkmxy347bn4oc7eatx72vil5cgvu2dbfokpw73c.py":19:0)) attributes {noinline = false} {
    %cst = arith.constant dense<1.000000e+00> : tensor<1024xf32> loc(#loc1)
    %cst_0 = arith.constant dense<9.99999974E-6> : tensor<1024xf32> loc(#loc1)
    %cst_1 = arith.constant dense<-132> : tensor<1024xi32> loc(#loc1)
    %cst_2 = arith.constant dense<-120> : tensor<1024xi32> loc(#loc1)
    %cst_3 = arith.constant dense<132> : tensor<1024xi64> loc(#loc1)
    %cst_4 = arith.constant dense<12288> : tensor<1024xi32> loc(#loc1)
    %cst_5 = arith.constant dense<-108> : tensor<1024xi32> loc(#loc1)
    %cst_6 = arith.constant dense<120> : tensor<1024xi64> loc(#loc1)
    %cst_7 = arith.constant dense<0.000000e+00> : tensor<1024xf32> loc(#loc1)
    %cst_8 = arith.constant dense<110592> : tensor<1024xi32> loc(#loc1)
    %cst_9 = arith.constant dense<108> : tensor<1024xi64> loc(#loc1)
    %cst_10 = arith.constant dense<147456> : tensor<1024xi32> loc(#loc1)
    %cst_11 = arith.constant dense<144> : tensor<1024xi32> loc(#loc1)
    %cst_12 = arith.constant dense<1024> : tensor<1024xi32> loc(#loc1)
    %c1024_i32 = arith.constant 1024 : i32 loc(#loc1)
    %0 = tt.get_program_id x : i32 loc(#loc2)
    %1 = arith.muli %0, %c1024_i32 : i32 loc(#loc3)
    %2 = tt.make_range {end = 1024 : i32, start = 0 : i32} : tensor<1024xi32> loc(#loc4)
    %3 = tt.splat %1 : i32 -> tensor<1024xi32> loc(#loc5)
    %4 = arith.addi %3, %2 : tensor<1024xi32> loc(#loc5)
    %5 = arith.divsi %4, %cst_12 : tensor<1024xi32> loc(#loc6)
    %6 = arith.remsi %5, %cst_11 : tensor<1024xi32> loc(#loc7)
    %7 = arith.remsi %4, %cst_12 : tensor<1024xi32> loc(#loc8)
    %8 = arith.divsi %4, %cst_10 : tensor<1024xi32> loc(#loc9)
    %9 = tt.splat %arg4 : !tt.ptr<f32> -> tensor<1024x!tt.ptr<f32>> loc(#loc10)
    %10 = tt.addptr %9, %6 : tensor<1024x!tt.ptr<f32>>, tensor<1024xi32> loc(#loc10)
    %11 = tt.load %10 evictionPolicy = evict_last : tensor<1024x!tt.ptr<f32>> loc(#loc11)
    %12 = tt.splat %arg5 : !tt.ptr<f32> -> tensor<1024x!tt.ptr<f32>> loc(#loc12)
    %13 = tt.addptr %12, %6 : tensor<1024x!tt.ptr<f32>>, tensor<1024xi32> loc(#loc12)
    %14 = tt.load %13 evictionPolicy = evict_last : tensor<1024x!tt.ptr<f32>> loc(#loc13)
    %15 = tt.splat %arg6 : !tt.ptr<f32> -> tensor<1024x!tt.ptr<f32>> loc(#loc14)
    %16 = tt.addptr %15, %6 : tensor<1024x!tt.ptr<f32>>, tensor<1024xi32> loc(#loc14)
    %17 = tt.load %16 evictionPolicy = evict_last : tensor<1024x!tt.ptr<f32>> loc(#loc15)
    %18 = tt.splat %arg7 : !tt.ptr<f32> -> tensor<1024x!tt.ptr<f32>> loc(#loc16)
    %19 = tt.addptr %18, %6 : tensor<1024x!tt.ptr<f32>>, tensor<1024xi32> loc(#loc16)
    %20 = tt.load %19 evictionPolicy = evict_last : tensor<1024x!tt.ptr<f32>> loc(#loc17)
    %21 = arith.extsi %6 : tensor<1024xi32> to tensor<1024xi64> loc(#loc18)
    %22 = arith.cmpi slt, %21, %cst_9 : tensor<1024xi64> loc(#loc18)
    %23 = arith.muli %6, %cst_12 : tensor<1024xi32> loc(#loc19)
    %24 = arith.addi %7, %23 : tensor<1024xi32> loc(#loc20)
    %25 = arith.muli %8, %cst_8 : tensor<1024xi32> loc(#loc21)
    %26 = arith.addi %24, %25 : tensor<1024xi32> loc(#loc22)
    %27 = tt.splat %arg0 : !tt.ptr<f32> -> tensor<1024x!tt.ptr<f32>> loc(#loc23)
    %28 = tt.addptr %27, %26 : tensor<1024x!tt.ptr<f32>>, tensor<1024xi32> loc(#loc23)
    %29 = tt.load %28, %22, %cst_7 : tensor<1024x!tt.ptr<f32>> loc(#loc24)
    %30 = arith.cmpi sge, %21, %cst_9 : tensor<1024xi64> loc(#loc25)
    %31 = arith.cmpi slt, %21, %cst_6 : tensor<1024xi64> loc(#loc26)
    %32 = arith.andi %30, %31 : tensor<1024xi1> loc(#loc27)
    %33 = arith.addi %6, %cst_5 : tensor<1024xi32> loc(#loc28)
    %34 = arith.muli %33, %cst_12 : tensor<1024xi32> loc(#loc29)
    %35 = arith.addi %7, %34 : tensor<1024xi32> loc(#loc30)
    %36 = arith.muli %8, %cst_4 : tensor<1024xi32> loc(#loc31)
    %37 = arith.addi %35, %36 : tensor<1024xi32> loc(#loc32)
    %38 = tt.splat %arg1 : !tt.ptr<f32> -> tensor<1024x!tt.ptr<f32>> loc(#loc33)
    %39 = tt.addptr %38, %37 : tensor<1024x!tt.ptr<f32>>, tensor<1024xi32> loc(#loc33)
    %40 = tt.load %39, %32, %cst_7 : tensor<1024x!tt.ptr<f32>> loc(#loc34)
    %41 = arith.cmpi sge, %21, %cst_6 : tensor<1024xi64> loc(#loc35)
    %42 = arith.cmpi slt, %21, %cst_3 : tensor<1024xi64> loc(#loc36)
    %43 = arith.andi %41, %42 : tensor<1024xi1> loc(#loc37)
    %44 = arith.addi %6, %cst_2 : tensor<1024xi32> loc(#loc38)
    %45 = arith.muli %44, %cst_12 : tensor<1024xi32> loc(#loc39)
    %46 = arith.addi %7, %45 : tensor<1024xi32> loc(#loc40)
    %47 = arith.addi %46, %36 : tensor<1024xi32> loc(#loc41)
    %48 = tt.splat %arg2 : !tt.ptr<f32> -> tensor<1024x!tt.ptr<f32>> loc(#loc42)
    %49 = tt.addptr %48, %47 : tensor<1024x!tt.ptr<f32>>, tensor<1024xi32> loc(#loc42)
    %50 = tt.load %49, %43, %cst_7 : tensor<1024x!tt.ptr<f32>> loc(#loc43)
    %51 = arith.cmpi sge, %21, %cst_3 : tensor<1024xi64> loc(#loc44)
    %52 = arith.addi %6, %cst_1 : tensor<1024xi32> loc(#loc45)
    %53 = arith.muli %52, %cst_12 : tensor<1024xi32> loc(#loc46)
    %54 = arith.addi %7, %53 : tensor<1024xi32> loc(#loc47)
    %55 = arith.addi %54, %36 : tensor<1024xi32> loc(#loc48)
    %56 = tt.splat %arg3 : !tt.ptr<f32> -> tensor<1024x!tt.ptr<f32>> loc(#loc49)
    %57 = tt.addptr %56, %55 : tensor<1024x!tt.ptr<f32>>, tensor<1024xi32> loc(#loc49)
    %58 = tt.load %57, %51, %cst_7 : tensor<1024x!tt.ptr<f32>> loc(#loc50)
    %59 = arith.select %43, %50, %58 : tensor<1024xi1>, tensor<1024xf32> loc(#loc51)
    %60 = arith.select %32, %40, %59 : tensor<1024xi1>, tensor<1024xf32> loc(#loc52)
    %61 = arith.select %22, %29, %60 : tensor<1024xi1>, tensor<1024xf32> loc(#loc53)
    %62 = arith.subf %61, %11 : tensor<1024xf32> loc(#loc54)
    %63 = arith.addf %14, %cst_0 : tensor<1024xf32> loc(#loc55)
    %64 = tt.extern_elementwise %63 {libname = "", libpath = "", pure = true, symbol = "__nv_sqrtf"} : (tensor<1024xf32>) -> tensor<1024xf32> loc(#loc56)
    %65 = arith.divf %cst, %64 : tensor<1024xf32> loc(#loc57)
    %66 = arith.mulf %62, %65 : tensor<1024xf32> loc(#loc58)
    %67 = arith.mulf %66, %17 : tensor<1024xf32> loc(#loc59)
    %68 = arith.addf %67, %20 : tensor<1024xf32> loc(#loc60)
    %69 = arith.cmpf ogt, %cst_7, %68 : tensor<1024xf32> loc(#loc69)
    %70 = arith.select %69, %cst_7, %68 : tensor<1024xi1>, tensor<1024xf32> loc(#loc70)
    %71 = tt.splat %arg8 : !tt.ptr<f32> -> tensor<1024x!tt.ptr<f32>> loc(#loc64)
    %72 = tt.addptr %71, %4 : tensor<1024x!tt.ptr<f32>>, tensor<1024xi32> loc(#loc64)
    tt.store %72, %61 : tensor<1024x!tt.ptr<f32>> loc(#loc65)
    %73 = tt.splat %arg9 : !tt.ptr<f32> -> tensor<1024x!tt.ptr<f32>> loc(#loc66)
    %74 = tt.addptr %73, %4 : tensor<1024x!tt.ptr<f32>>, tensor<1024xi32> loc(#loc66)
    tt.store %74, %70 : tensor<1024x!tt.ptr<f32>> loc(#loc67)
    tt.return loc(#loc68)
  } loc(#loc)
} loc(#loc)
#loc1 = loc(unknown)
#loc2 = loc("inductor_cache/fl/cflmqpfjhuwqwbkmxy347bn4oc7eatx72vil5cgvu2dbfokpw73c.py":21:28)
#loc3 = loc("inductor_cache/fl/cflmqpfjhuwqwbkmxy347bn4oc7eatx72vil5cgvu2dbfokpw73c.py":21:33)
#loc4 = loc("inductor_cache/fl/cflmqpfjhuwqwbkmxy347bn4oc7eatx72vil5cgvu2dbfokpw73c.py":22:36)
#loc5 = loc("inductor_cache/fl/cflmqpfjhuwqwbkmxy347bn4oc7eatx72vil5cgvu2dbfokpw73c.py":22:23)
#loc6 = loc("inductor_cache/fl/cflmqpfjhuwqwbkmxy347bn4oc7eatx72vil5cgvu2dbfokpw73c.py":24:21)
#loc7 = loc("inductor_cache/fl/cflmqpfjhuwqwbkmxy347bn4oc7eatx72vil5cgvu2dbfokpw73c.py":24:29)
#loc8 = loc("inductor_cache/fl/cflmqpfjhuwqwbkmxy347bn4oc7eatx72vil5cgvu2dbfokpw73c.py":25:19)
#loc9 = loc("inductor_cache/fl/cflmqpfjhuwqwbkmxy347bn4oc7eatx72vil5cgvu2dbfokpw73c.py":26:19)
#loc10 = loc("inductor_cache/fl/cflmqpfjhuwqwbkmxy347bn4oc7eatx72vil5cgvu2dbfokpw73c.py":28:31)
#loc11 = loc("inductor_cache/fl/cflmqpfjhuwqwbkmxy347bn4oc7eatx72vil5cgvu2dbfokpw73c.py":28:36)
#loc12 = loc("inductor_cache/fl/cflmqpfjhuwqwbkmxy347bn4oc7eatx72vil5cgvu2dbfokpw73c.py":29:31)
#loc13 = loc("inductor_cache/fl/cflmqpfjhuwqwbkmxy347bn4oc7eatx72vil5cgvu2dbfokpw73c.py":29:36)
#loc14 = loc("inductor_cache/fl/cflmqpfjhuwqwbkmxy347bn4oc7eatx72vil5cgvu2dbfokpw73c.py":30:31)
#loc15 = loc("inductor_cache/fl/cflmqpfjhuwqwbkmxy347bn4oc7eatx72vil5cgvu2dbfokpw73c.py":30:36)
#loc16 = loc("inductor_cache/fl/cflmqpfjhuwqwbkmxy347bn4oc7eatx72vil5cgvu2dbfokpw73c.py":31:31)
#loc17 = loc("inductor_cache/fl/cflmqpfjhuwqwbkmxy347bn4oc7eatx72vil5cgvu2dbfokpw73c.py":31:36)
#loc18 = loc("inductor_cache/fl/cflmqpfjhuwqwbkmxy347bn4oc7eatx72vil5cgvu2dbfokpw73c.py":36:18)
#loc19 = loc("inductor_cache/fl/cflmqpfjhuwqwbkmxy347bn4oc7eatx72vil5cgvu2dbfokpw73c.py":37:41)
#loc20 = loc("inductor_cache/fl/cflmqpfjhuwqwbkmxy347bn4oc7eatx72vil5cgvu2dbfokpw73c.py":37:35)
#loc21 = loc("inductor_cache/fl/cflmqpfjhuwqwbkmxy347bn4oc7eatx72vil5cgvu2dbfokpw73c.py":37:54)
#loc22 = loc("inductor_cache/fl/cflmqpfjhuwqwbkmxy347bn4oc7eatx72vil5cgvu2dbfokpw73c.py":37:47)
#loc23 = loc("inductor_cache/fl/cflmqpfjhuwqwbkmxy347bn4oc7eatx72vil5cgvu2dbfokpw73c.py":37:30)
#loc24 = loc("inductor_cache/fl/cflmqpfjhuwqwbkmxy347bn4oc7eatx72vil5cgvu2dbfokpw73c.py":37:59)
#loc25 = loc("inductor_cache/fl/cflmqpfjhuwqwbkmxy347bn4oc7eatx72vil5cgvu2dbfokpw73c.py":38:19)
#loc26 = loc("inductor_cache/fl/cflmqpfjhuwqwbkmxy347bn4oc7eatx72vil5cgvu2dbfokpw73c.py":40:18)
#loc27 = loc("inductor_cache/fl/cflmqpfjhuwqwbkmxy347bn4oc7eatx72vil5cgvu2dbfokpw73c.py":41:18)
#loc28 = loc("inductor_cache/fl/cflmqpfjhuwqwbkmxy347bn4oc7eatx72vil5cgvu2dbfokpw73c.py":42:51)
#loc29 = loc("inductor_cache/fl/cflmqpfjhuwqwbkmxy347bn4oc7eatx72vil5cgvu2dbfokpw73c.py":42:42)
#loc30 = loc("inductor_cache/fl/cflmqpfjhuwqwbkmxy347bn4oc7eatx72vil5cgvu2dbfokpw73c.py":42:36)
#loc31 = loc("inductor_cache/fl/cflmqpfjhuwqwbkmxy347bn4oc7eatx72vil5cgvu2dbfokpw73c.py":42:63)
#loc32 = loc("inductor_cache/fl/cflmqpfjhuwqwbkmxy347bn4oc7eatx72vil5cgvu2dbfokpw73c.py":42:57)
#loc33 = loc("inductor_cache/fl/cflmqpfjhuwqwbkmxy347bn4oc7eatx72vil5cgvu2dbfokpw73c.py":42:31)
#loc34 = loc("inductor_cache/fl/cflmqpfjhuwqwbkmxy347bn4oc7eatx72vil5cgvu2dbfokpw73c.py":42:68)
#loc35 = loc("inductor_cache/fl/cflmqpfjhuwqwbkmxy347bn4oc7eatx72vil5cgvu2dbfokpw73c.py":43:20)
#loc36 = loc("inductor_cache/fl/cflmqpfjhuwqwbkmxy347bn4oc7eatx72vil5cgvu2dbfokpw73c.py":45:19)
#loc37 = loc("inductor_cache/fl/cflmqpfjhuwqwbkmxy347bn4oc7eatx72vil5cgvu2dbfokpw73c.py":46:20)
#loc38 = loc("inductor_cache/fl/cflmqpfjhuwqwbkmxy347bn4oc7eatx72vil5cgvu2dbfokpw73c.py":47:51)
#loc39 = loc("inductor_cache/fl/cflmqpfjhuwqwbkmxy347bn4oc7eatx72vil5cgvu2dbfokpw73c.py":47:42)
#loc40 = loc("inductor_cache/fl/cflmqpfjhuwqwbkmxy347bn4oc7eatx72vil5cgvu2dbfokpw73c.py":47:36)
#loc41 = loc("inductor_cache/fl/cflmqpfjhuwqwbkmxy347bn4oc7eatx72vil5cgvu2dbfokpw73c.py":47:57)
#loc42 = loc("inductor_cache/fl/cflmqpfjhuwqwbkmxy347bn4oc7eatx72vil5cgvu2dbfokpw73c.py":47:31)
#loc43 = loc("inductor_cache/fl/cflmqpfjhuwqwbkmxy347bn4oc7eatx72vil5cgvu2dbfokpw73c.py":47:68)
#loc44 = loc("inductor_cache/fl/cflmqpfjhuwqwbkmxy347bn4oc7eatx72vil5cgvu2dbfokpw73c.py":48:20)
#loc45 = loc("inductor_cache/fl/cflmqpfjhuwqwbkmxy347bn4oc7eatx72vil5cgvu2dbfokpw73c.py":51:51)
#loc46 = loc("inductor_cache/fl/cflmqpfjhuwqwbkmxy347bn4oc7eatx72vil5cgvu2dbfokpw73c.py":51:42)
#loc47 = loc("inductor_cache/fl/cflmqpfjhuwqwbkmxy347bn4oc7eatx72vil5cgvu2dbfokpw73c.py":51:36)
#loc48 = loc("inductor_cache/fl/cflmqpfjhuwqwbkmxy347bn4oc7eatx72vil5cgvu2dbfokpw73c.py":51:57)
#loc49 = loc("inductor_cache/fl/cflmqpfjhuwqwbkmxy347bn4oc7eatx72vil5cgvu2dbfokpw73c.py":51:31)
#loc50 = loc("inductor_cache/fl/cflmqpfjhuwqwbkmxy347bn4oc7eatx72vil5cgvu2dbfokpw73c.py":51:68)
#loc51 = loc("inductor_cache/fl/cflmqpfjhuwqwbkmxy347bn4oc7eatx72vil5cgvu2dbfokpw73c.py":52:35)
#loc52 = loc("inductor_cache/fl/cflmqpfjhuwqwbkmxy347bn4oc7eatx72vil5cgvu2dbfokpw73c.py":53:34)
#loc53 = loc("inductor_cache/fl/cflmqpfjhuwqwbkmxy347bn4oc7eatx72vil5cgvu2dbfokpw73c.py":54:33)
#loc54 = loc("inductor_cache/fl/cflmqpfjhuwqwbkmxy347bn4oc7eatx72vil5cgvu2dbfokpw73c.py":55:20)
#loc55 = loc("inductor_cache/fl/cflmqpfjhuwqwbkmxy347bn4oc7eatx72vil5cgvu2dbfokpw73c.py":57:20)
#loc56 = loc("inductor_cache/fl/cflmqpfjhuwqwbkmxy347bn4oc7eatx72vil5cgvu2dbfokpw73c.py":58:27)
#loc57 = loc("inductor_cache/fl/cflmqpfjhuwqwbkmxy347bn4oc7eatx72vil5cgvu2dbfokpw73c.py":60:20)
#loc58 = loc("inductor_cache/fl/cflmqpfjhuwqwbkmxy347bn4oc7eatx72vil5cgvu2dbfokpw73c.py":63:20)
#loc59 = loc("inductor_cache/fl/cflmqpfjhuwqwbkmxy347bn4oc7eatx72vil5cgvu2dbfokpw73c.py":64:20)
#loc60 = loc("inductor_cache/fl/cflmqpfjhuwqwbkmxy347bn4oc7eatx72vil5cgvu2dbfokpw73c.py":65:20)
#loc61 = loc("/home/sahanp/.conda/envs/parity-bench/lib/python3.12/site-packages/torch/_inductor/runtime/triton_helpers.py":118:15)
#loc62 = loc("inductor_cache/fl/cflmqpfjhuwqwbkmxy347bn4oc7eatx72vil5cgvu2dbfokpw73c.py":67:42)
#loc63 = loc("/home/sahanp/.conda/envs/parity-bench/lib/python3.12/site-packages/torch/_inductor/runtime/triton_helpers.py":121:29)
#loc64 = loc("inductor_cache/fl/cflmqpfjhuwqwbkmxy347bn4oc7eatx72vil5cgvu2dbfokpw73c.py":68:25)
#loc65 = loc("inductor_cache/fl/cflmqpfjhuwqwbkmxy347bn4oc7eatx72vil5cgvu2dbfokpw73c.py":68:37)
#loc66 = loc("inductor_cache/fl/cflmqpfjhuwqwbkmxy347bn4oc7eatx72vil5cgvu2dbfokpw73c.py":69:25)
#loc67 = loc("inductor_cache/fl/cflmqpfjhuwqwbkmxy347bn4oc7eatx72vil5cgvu2dbfokpw73c.py":69:37)
#loc68 = loc("inductor_cache/fl/cflmqpfjhuwqwbkmxy347bn4oc7eatx72vil5cgvu2dbfokpw73c.py":69:4)
#loc69 = loc(callsite(#loc61 at #loc62))
#loc70 = loc(callsite(#loc63 at #loc62))
