#loc = loc("inductor_cache/lr/clrajhxipneeucss3k7cntaxm33uc7xx6iclqlobaod5waa2aa6l.py":19:0)
module {
  tt.func public @triton_poi_fused_max_pool2d_with_indices_3(%arg0: !tt.ptr<f32> {tt.divisibility = 16 : i32} loc("inductor_cache/lr/clrajhxipneeucss3k7cntaxm33uc7xx6iclqlobaod5waa2aa6l.py":19:0), %arg1: !tt.ptr<f32> {tt.divisibility = 16 : i32} loc("inductor_cache/lr/clrajhxipneeucss3k7cntaxm33uc7xx6iclqlobaod5waa2aa6l.py":19:0), %arg2: i32 {tt.divisibility = 16 : i32} loc("inductor_cache/lr/clrajhxipneeucss3k7cntaxm33uc7xx6iclqlobaod5waa2aa6l.py":19:0), %arg3: i32 loc("inductor_cache/lr/clrajhxipneeucss3k7cntaxm33uc7xx6iclqlobaod5waa2aa6l.py":19:0)) attributes {noinline = false} {
    %cst = arith.constant dense<3136> : tensor<1x32xi32> loc(#loc1)
    %cst_0 = arith.constant dense<64> : tensor<32x1xi32> loc(#loc1)
    %cst_1 = arith.constant dense<32> : tensor<32x1xi32> loc(#loc1)
    %cst_2 = arith.constant dense<31> : tensor<32x1xi32> loc(#loc1)
    %cst_3 = arith.constant dense<17> : tensor<32x1xi32> loc(#loc1)
    %cst_4 = arith.constant dense<16> : tensor<32x1xi32> loc(#loc1)
    %cst_5 = arith.constant dense<15> : tensor<32x1xi32> loc(#loc1)
    %cst_6 = arith.constant dense<1> : tensor<32x1xi32> loc(#loc1)
    %cst_7 = arith.constant dense<225> : tensor<1x32xi32> loc(#loc1)
    %cst_8 = arith.constant dense<30> : tensor<32x1xi32> loc(#loc1)
    %cst_9 = arith.constant dense<2> : tensor<32x1xi32> loc(#loc1)
    %cst_10 = arith.constant dense<64> : tensor<1x32xi32> loc(#loc1)
    %cst_11 = arith.constant dense<7> : tensor<32x1xi32> loc(#loc1)
    %cst_12 = arith.constant dense<49> : tensor<32x1xi32> loc(#loc1)
    %cst_13 = arith.constant dense<256> : tensor<1x32xi32> loc(#loc1)
    %c32_i32 = arith.constant 32 : i32 loc(#loc1)
    %0 = tt.get_program_id y : i32 loc(#loc2)
    %1 = arith.muli %0, %c32_i32 : i32 loc(#loc3)
    %2 = tt.make_range {end = 32 : i32, start = 0 : i32} : tensor<32xi32> loc(#loc4)
    %3 = tt.expand_dims %2 {axis = 0 : i32} : tensor<32xi32> -> tensor<1x32xi32> loc(#loc5)
    %4 = tt.splat %1 : i32 -> tensor<1x32xi32> loc(#loc6)
    %5 = arith.addi %4, %3 : tensor<1x32xi32> loc(#loc6)
    %6 = arith.cmpi slt, %5, %cst_13 : tensor<1x32xi32> loc(#loc7)
    %7 = tt.get_program_id x : i32 loc(#loc8)
    %8 = arith.muli %7, %c32_i32 : i32 loc(#loc9)
    %9 = tt.expand_dims %2 {axis = 1 : i32} : tensor<32xi32> -> tensor<32x1xi32> loc(#loc10)
    %10 = tt.splat %8 : i32 -> tensor<32x1xi32> loc(#loc11)
    %11 = arith.addi %10, %9 : tensor<32x1xi32> loc(#loc11)
    %12 = arith.cmpi slt, %11, %cst_12 : tensor<32x1xi32> loc(#loc12)
    %13 = arith.remsi %11, %cst_11 : tensor<32x1xi32> loc(#loc13)
    %14 = arith.divsi %11, %cst_11 : tensor<32x1xi32> loc(#loc14)
    %15 = arith.remsi %5, %cst_10 : tensor<1x32xi32> loc(#loc15)
    %16 = arith.divsi %5, %cst_10 : tensor<1x32xi32> loc(#loc16)
    %17 = arith.muli %13, %cst_9 : tensor<32x1xi32> loc(#loc17)
    %18 = arith.muli %14, %cst_8 : tensor<32x1xi32> loc(#loc18)
    %19 = arith.addi %17, %18 : tensor<32x1xi32> loc(#loc19)
    %20 = arith.muli %5, %cst_7 : tensor<1x32xi32> loc(#loc20)
    %21 = tt.broadcast %19 : tensor<32x1xi32> -> tensor<32x32xi32> loc(#loc21)
    %22 = tt.broadcast %20 : tensor<1x32xi32> -> tensor<32x32xi32> loc(#loc21)
    %23 = arith.addi %21, %22 : tensor<32x32xi32> loc(#loc21)
    %24 = tt.splat %arg0 : !tt.ptr<f32> -> tensor<32x32x!tt.ptr<f32>> loc(#loc22)
    %25 = tt.addptr %24, %23 : tensor<32x32x!tt.ptr<f32>>, tensor<32x32xi32> loc(#loc22)
    %26 = tt.broadcast %12 : tensor<32x1xi1> -> tensor<32x32xi1> loc(#loc23)
    %27 = tt.broadcast %6 : tensor<1x32xi1> -> tensor<32x32xi1> loc(#loc23)
    %28 = arith.andi %26, %27 : tensor<32x32xi1> loc(#loc23)
    %29 = tt.load %25, %28 evictionPolicy = evict_last : tensor<32x32x!tt.ptr<f32>> loc(#loc24)
    %30 = arith.addi %17, %cst_6 : tensor<32x1xi32> loc(#loc25)
    %31 = arith.addi %30, %18 : tensor<32x1xi32> loc(#loc26)
    %32 = tt.broadcast %31 : tensor<32x1xi32> -> tensor<32x32xi32> loc(#loc27)
    %33 = arith.addi %32, %22 : tensor<32x32xi32> loc(#loc27)
    %34 = tt.addptr %24, %33 : tensor<32x32x!tt.ptr<f32>>, tensor<32x32xi32> loc(#loc28)
    %35 = tt.load %34, %28 evictionPolicy = evict_last : tensor<32x32x!tt.ptr<f32>> loc(#loc29)
    %36 = arith.addi %17, %cst_9 : tensor<32x1xi32> loc(#loc30)
    %37 = arith.addi %36, %18 : tensor<32x1xi32> loc(#loc31)
    %38 = tt.broadcast %37 : tensor<32x1xi32> -> tensor<32x32xi32> loc(#loc32)
    %39 = arith.addi %38, %22 : tensor<32x32xi32> loc(#loc32)
    %40 = tt.addptr %24, %39 : tensor<32x32x!tt.ptr<f32>>, tensor<32x32xi32> loc(#loc33)
    %41 = tt.load %40, %28 evictionPolicy = evict_last : tensor<32x32x!tt.ptr<f32>> loc(#loc34)
    %42 = arith.addi %17, %cst_5 : tensor<32x1xi32> loc(#loc35)
    %43 = arith.addi %42, %18 : tensor<32x1xi32> loc(#loc36)
    %44 = tt.broadcast %43 : tensor<32x1xi32> -> tensor<32x32xi32> loc(#loc37)
    %45 = arith.addi %44, %22 : tensor<32x32xi32> loc(#loc37)
    %46 = tt.addptr %24, %45 : tensor<32x32x!tt.ptr<f32>>, tensor<32x32xi32> loc(#loc38)
    %47 = tt.load %46, %28 evictionPolicy = evict_last : tensor<32x32x!tt.ptr<f32>> loc(#loc39)
    %48 = arith.addi %17, %cst_4 : tensor<32x1xi32> loc(#loc40)
    %49 = arith.addi %48, %18 : tensor<32x1xi32> loc(#loc41)
    %50 = tt.broadcast %49 : tensor<32x1xi32> -> tensor<32x32xi32> loc(#loc42)
    %51 = arith.addi %50, %22 : tensor<32x32xi32> loc(#loc42)
    %52 = tt.addptr %24, %51 : tensor<32x32x!tt.ptr<f32>>, tensor<32x32xi32> loc(#loc43)
    %53 = tt.load %52, %28 evictionPolicy = evict_last : tensor<32x32x!tt.ptr<f32>> loc(#loc44)
    %54 = arith.addi %17, %cst_3 : tensor<32x1xi32> loc(#loc45)
    %55 = arith.addi %54, %18 : tensor<32x1xi32> loc(#loc46)
    %56 = tt.broadcast %55 : tensor<32x1xi32> -> tensor<32x32xi32> loc(#loc47)
    %57 = arith.addi %56, %22 : tensor<32x32xi32> loc(#loc47)
    %58 = tt.addptr %24, %57 : tensor<32x32x!tt.ptr<f32>>, tensor<32x32xi32> loc(#loc48)
    %59 = tt.load %58, %28 evictionPolicy = evict_last : tensor<32x32x!tt.ptr<f32>> loc(#loc49)
    %60 = arith.addi %17, %cst_8 : tensor<32x1xi32> loc(#loc50)
    %61 = arith.addi %60, %18 : tensor<32x1xi32> loc(#loc51)
    %62 = tt.broadcast %61 : tensor<32x1xi32> -> tensor<32x32xi32> loc(#loc52)
    %63 = arith.addi %62, %22 : tensor<32x32xi32> loc(#loc52)
    %64 = tt.addptr %24, %63 : tensor<32x32x!tt.ptr<f32>>, tensor<32x32xi32> loc(#loc53)
    %65 = tt.load %64, %28 evictionPolicy = evict_last : tensor<32x32x!tt.ptr<f32>> loc(#loc54)
    %66 = arith.addi %17, %cst_2 : tensor<32x1xi32> loc(#loc55)
    %67 = arith.addi %66, %18 : tensor<32x1xi32> loc(#loc56)
    %68 = tt.broadcast %67 : tensor<32x1xi32> -> tensor<32x32xi32> loc(#loc57)
    %69 = arith.addi %68, %22 : tensor<32x32xi32> loc(#loc57)
    %70 = tt.addptr %24, %69 : tensor<32x32x!tt.ptr<f32>>, tensor<32x32xi32> loc(#loc58)
    %71 = tt.load %70, %28 evictionPolicy = evict_last : tensor<32x32x!tt.ptr<f32>> loc(#loc59)
    %72 = arith.addi %17, %cst_1 : tensor<32x1xi32> loc(#loc60)
    %73 = arith.addi %72, %18 : tensor<32x1xi32> loc(#loc61)
    %74 = tt.broadcast %73 : tensor<32x1xi32> -> tensor<32x32xi32> loc(#loc62)
    %75 = arith.addi %74, %22 : tensor<32x32xi32> loc(#loc62)
    %76 = tt.addptr %24, %75 : tensor<32x32x!tt.ptr<f32>>, tensor<32x32xi32> loc(#loc63)
    %77 = tt.load %76, %28 evictionPolicy = evict_last : tensor<32x32x!tt.ptr<f32>> loc(#loc64)
    %78 = arith.cmpf ogt, %35, %29 : tensor<32x32xf32> loc(#loc84)
    %79 = arith.cmpf une, %35, %35 : tensor<32x32xf32> loc(#loc85)
    %80 = arith.ori %78, %79 : tensor<32x32xi1> loc(#loc86)
    %81 = arith.select %80, %35, %29 : tensor<32x32xi1>, tensor<32x32xf32> loc(#loc87)
    %82 = arith.cmpf ogt, %41, %81 : tensor<32x32xf32> loc(#loc88)
    %83 = arith.cmpf une, %41, %41 : tensor<32x32xf32> loc(#loc89)
    %84 = arith.ori %82, %83 : tensor<32x32xi1> loc(#loc90)
    %85 = arith.select %84, %41, %81 : tensor<32x32xi1>, tensor<32x32xf32> loc(#loc91)
    %86 = arith.cmpf ogt, %47, %85 : tensor<32x32xf32> loc(#loc92)
    %87 = arith.cmpf une, %47, %47 : tensor<32x32xf32> loc(#loc93)
    %88 = arith.ori %86, %87 : tensor<32x32xi1> loc(#loc94)
    %89 = arith.select %88, %47, %85 : tensor<32x32xi1>, tensor<32x32xf32> loc(#loc95)
    %90 = arith.cmpf ogt, %53, %89 : tensor<32x32xf32> loc(#loc96)
    %91 = arith.cmpf une, %53, %53 : tensor<32x32xf32> loc(#loc97)
    %92 = arith.ori %90, %91 : tensor<32x32xi1> loc(#loc98)
    %93 = arith.select %92, %53, %89 : tensor<32x32xi1>, tensor<32x32xf32> loc(#loc99)
    %94 = arith.cmpf ogt, %59, %93 : tensor<32x32xf32> loc(#loc100)
    %95 = arith.cmpf une, %59, %59 : tensor<32x32xf32> loc(#loc101)
    %96 = arith.ori %94, %95 : tensor<32x32xi1> loc(#loc102)
    %97 = arith.select %96, %59, %93 : tensor<32x32xi1>, tensor<32x32xf32> loc(#loc103)
    %98 = arith.cmpf ogt, %65, %97 : tensor<32x32xf32> loc(#loc104)
    %99 = arith.cmpf une, %65, %65 : tensor<32x32xf32> loc(#loc105)
    %100 = arith.ori %98, %99 : tensor<32x32xi1> loc(#loc106)
    %101 = arith.select %100, %65, %97 : tensor<32x32xi1>, tensor<32x32xf32> loc(#loc107)
    %102 = arith.cmpf ogt, %71, %101 : tensor<32x32xf32> loc(#loc108)
    %103 = arith.cmpf une, %71, %71 : tensor<32x32xf32> loc(#loc109)
    %104 = arith.ori %102, %103 : tensor<32x32xi1> loc(#loc110)
    %105 = arith.select %104, %71, %101 : tensor<32x32xi1>, tensor<32x32xf32> loc(#loc111)
    %106 = arith.cmpf ogt, %77, %105 : tensor<32x32xf32> loc(#loc112)
    %107 = arith.cmpf une, %77, %77 : tensor<32x32xf32> loc(#loc113)
    %108 = arith.ori %106, %107 : tensor<32x32xi1> loc(#loc114)
    %109 = arith.select %108, %77, %105 : tensor<32x32xi1>, tensor<32x32xf32> loc(#loc115)
    %110 = arith.muli %11, %cst_0 : tensor<32x1xi32> loc(#loc77)
    %111 = tt.broadcast %15 : tensor<1x32xi32> -> tensor<32x32xi32> loc(#loc78)
    %112 = tt.broadcast %110 : tensor<32x1xi32> -> tensor<32x32xi32> loc(#loc78)
    %113 = arith.addi %111, %112 : tensor<32x32xi32> loc(#loc78)
    %114 = arith.muli %16, %cst : tensor<1x32xi32> loc(#loc79)
    %115 = tt.broadcast %114 : tensor<1x32xi32> -> tensor<32x32xi32> loc(#loc80)
    %116 = arith.addi %113, %115 : tensor<32x32xi32> loc(#loc80)
    %117 = tt.splat %arg1 : !tt.ptr<f32> -> tensor<32x32x!tt.ptr<f32>> loc(#loc81)
    %118 = tt.addptr %117, %116 : tensor<32x32x!tt.ptr<f32>>, tensor<32x32xi32> loc(#loc81)
    tt.store %118, %109, %28 : tensor<32x32x!tt.ptr<f32>> loc(#loc82)
    tt.return loc(#loc83)
  } loc(#loc)
} loc(#loc)
#loc1 = loc(unknown)
#loc2 = loc("inductor_cache/lr/clrajhxipneeucss3k7cntaxm33uc7xx6iclqlobaod5waa2aa6l.py":22:28)
#loc3 = loc("inductor_cache/lr/clrajhxipneeucss3k7cntaxm33uc7xx6iclqlobaod5waa2aa6l.py":22:33)
#loc4 = loc("inductor_cache/lr/clrajhxipneeucss3k7cntaxm33uc7xx6iclqlobaod5waa2aa6l.py":23:36)
#loc5 = loc("inductor_cache/lr/clrajhxipneeucss3k7cntaxm33uc7xx6iclqlobaod5waa2aa6l.py":23:44)
#loc6 = loc("inductor_cache/lr/clrajhxipneeucss3k7cntaxm33uc7xx6iclqlobaod5waa2aa6l.py":23:23)
#loc7 = loc("inductor_cache/lr/clrajhxipneeucss3k7cntaxm33uc7xx6iclqlobaod5waa2aa6l.py":24:21)
#loc8 = loc("inductor_cache/lr/clrajhxipneeucss3k7cntaxm33uc7xx6iclqlobaod5waa2aa6l.py":25:28)
#loc9 = loc("inductor_cache/lr/clrajhxipneeucss3k7cntaxm33uc7xx6iclqlobaod5waa2aa6l.py":25:33)
#loc10 = loc("inductor_cache/lr/clrajhxipneeucss3k7cntaxm33uc7xx6iclqlobaod5waa2aa6l.py":26:44)
#loc11 = loc("inductor_cache/lr/clrajhxipneeucss3k7cntaxm33uc7xx6iclqlobaod5waa2aa6l.py":26:23)
#loc12 = loc("inductor_cache/lr/clrajhxipneeucss3k7cntaxm33uc7xx6iclqlobaod5waa2aa6l.py":27:21)
#loc13 = loc("inductor_cache/lr/clrajhxipneeucss3k7cntaxm33uc7xx6iclqlobaod5waa2aa6l.py":28:19)
#loc14 = loc("inductor_cache/lr/clrajhxipneeucss3k7cntaxm33uc7xx6iclqlobaod5waa2aa6l.py":29:19)
#loc15 = loc("inductor_cache/lr/clrajhxipneeucss3k7cntaxm33uc7xx6iclqlobaod5waa2aa6l.py":32:19)
#loc16 = loc("inductor_cache/lr/clrajhxipneeucss3k7cntaxm33uc7xx6iclqlobaod5waa2aa6l.py":33:19)
#loc17 = loc("inductor_cache/lr/clrajhxipneeucss3k7cntaxm33uc7xx6iclqlobaod5waa2aa6l.py":34:32)
#loc18 = loc("inductor_cache/lr/clrajhxipneeucss3k7cntaxm33uc7xx6iclqlobaod5waa2aa6l.py":34:40)
#loc19 = loc("inductor_cache/lr/clrajhxipneeucss3k7cntaxm33uc7xx6iclqlobaod5waa2aa6l.py":34:37)
#loc20 = loc("inductor_cache/lr/clrajhxipneeucss3k7cntaxm33uc7xx6iclqlobaod5waa2aa6l.py":34:49)
#loc21 = loc("inductor_cache/lr/clrajhxipneeucss3k7cntaxm33uc7xx6iclqlobaod5waa2aa6l.py":34:45)
#loc22 = loc("inductor_cache/lr/clrajhxipneeucss3k7cntaxm33uc7xx6iclqlobaod5waa2aa6l.py":34:30)
#loc23 = loc("inductor_cache/lr/clrajhxipneeucss3k7cntaxm33uc7xx6iclqlobaod5waa2aa6l.py":34:62)
#loc24 = loc("inductor_cache/lr/clrajhxipneeucss3k7cntaxm33uc7xx6iclqlobaod5waa2aa6l.py":34:54)
#loc25 = loc("inductor_cache/lr/clrajhxipneeucss3k7cntaxm33uc7xx6iclqlobaod5waa2aa6l.py":35:34)
#loc26 = loc("inductor_cache/lr/clrajhxipneeucss3k7cntaxm33uc7xx6iclqlobaod5waa2aa6l.py":35:41)
#loc27 = loc("inductor_cache/lr/clrajhxipneeucss3k7cntaxm33uc7xx6iclqlobaod5waa2aa6l.py":35:49)
#loc28 = loc("inductor_cache/lr/clrajhxipneeucss3k7cntaxm33uc7xx6iclqlobaod5waa2aa6l.py":35:30)
#loc29 = loc("inductor_cache/lr/clrajhxipneeucss3k7cntaxm33uc7xx6iclqlobaod5waa2aa6l.py":35:58)
#loc30 = loc("inductor_cache/lr/clrajhxipneeucss3k7cntaxm33uc7xx6iclqlobaod5waa2aa6l.py":36:34)
#loc31 = loc("inductor_cache/lr/clrajhxipneeucss3k7cntaxm33uc7xx6iclqlobaod5waa2aa6l.py":36:41)
#loc32 = loc("inductor_cache/lr/clrajhxipneeucss3k7cntaxm33uc7xx6iclqlobaod5waa2aa6l.py":36:49)
#loc33 = loc("inductor_cache/lr/clrajhxipneeucss3k7cntaxm33uc7xx6iclqlobaod5waa2aa6l.py":36:30)
#loc34 = loc("inductor_cache/lr/clrajhxipneeucss3k7cntaxm33uc7xx6iclqlobaod5waa2aa6l.py":36:58)
#loc35 = loc("inductor_cache/lr/clrajhxipneeucss3k7cntaxm33uc7xx6iclqlobaod5waa2aa6l.py":37:35)
#loc36 = loc("inductor_cache/lr/clrajhxipneeucss3k7cntaxm33uc7xx6iclqlobaod5waa2aa6l.py":37:42)
#loc37 = loc("inductor_cache/lr/clrajhxipneeucss3k7cntaxm33uc7xx6iclqlobaod5waa2aa6l.py":37:50)
#loc38 = loc("inductor_cache/lr/clrajhxipneeucss3k7cntaxm33uc7xx6iclqlobaod5waa2aa6l.py":37:30)
#loc39 = loc("inductor_cache/lr/clrajhxipneeucss3k7cntaxm33uc7xx6iclqlobaod5waa2aa6l.py":37:59)
#loc40 = loc("inductor_cache/lr/clrajhxipneeucss3k7cntaxm33uc7xx6iclqlobaod5waa2aa6l.py":38:35)
#loc41 = loc("inductor_cache/lr/clrajhxipneeucss3k7cntaxm33uc7xx6iclqlobaod5waa2aa6l.py":38:42)
#loc42 = loc("inductor_cache/lr/clrajhxipneeucss3k7cntaxm33uc7xx6iclqlobaod5waa2aa6l.py":38:50)
#loc43 = loc("inductor_cache/lr/clrajhxipneeucss3k7cntaxm33uc7xx6iclqlobaod5waa2aa6l.py":38:30)
#loc44 = loc("inductor_cache/lr/clrajhxipneeucss3k7cntaxm33uc7xx6iclqlobaod5waa2aa6l.py":38:59)
#loc45 = loc("inductor_cache/lr/clrajhxipneeucss3k7cntaxm33uc7xx6iclqlobaod5waa2aa6l.py":39:35)
#loc46 = loc("inductor_cache/lr/clrajhxipneeucss3k7cntaxm33uc7xx6iclqlobaod5waa2aa6l.py":39:42)
#loc47 = loc("inductor_cache/lr/clrajhxipneeucss3k7cntaxm33uc7xx6iclqlobaod5waa2aa6l.py":39:50)
#loc48 = loc("inductor_cache/lr/clrajhxipneeucss3k7cntaxm33uc7xx6iclqlobaod5waa2aa6l.py":39:30)
#loc49 = loc("inductor_cache/lr/clrajhxipneeucss3k7cntaxm33uc7xx6iclqlobaod5waa2aa6l.py":39:59)
#loc50 = loc("inductor_cache/lr/clrajhxipneeucss3k7cntaxm33uc7xx6iclqlobaod5waa2aa6l.py":40:36)
#loc51 = loc("inductor_cache/lr/clrajhxipneeucss3k7cntaxm33uc7xx6iclqlobaod5waa2aa6l.py":40:43)
#loc52 = loc("inductor_cache/lr/clrajhxipneeucss3k7cntaxm33uc7xx6iclqlobaod5waa2aa6l.py":40:51)
#loc53 = loc("inductor_cache/lr/clrajhxipneeucss3k7cntaxm33uc7xx6iclqlobaod5waa2aa6l.py":40:31)
#loc54 = loc("inductor_cache/lr/clrajhxipneeucss3k7cntaxm33uc7xx6iclqlobaod5waa2aa6l.py":40:60)
#loc55 = loc("inductor_cache/lr/clrajhxipneeucss3k7cntaxm33uc7xx6iclqlobaod5waa2aa6l.py":41:36)
#loc56 = loc("inductor_cache/lr/clrajhxipneeucss3k7cntaxm33uc7xx6iclqlobaod5waa2aa6l.py":41:43)
#loc57 = loc("inductor_cache/lr/clrajhxipneeucss3k7cntaxm33uc7xx6iclqlobaod5waa2aa6l.py":41:51)
#loc58 = loc("inductor_cache/lr/clrajhxipneeucss3k7cntaxm33uc7xx6iclqlobaod5waa2aa6l.py":41:31)
#loc59 = loc("inductor_cache/lr/clrajhxipneeucss3k7cntaxm33uc7xx6iclqlobaod5waa2aa6l.py":41:60)
#loc60 = loc("inductor_cache/lr/clrajhxipneeucss3k7cntaxm33uc7xx6iclqlobaod5waa2aa6l.py":42:36)
#loc61 = loc("inductor_cache/lr/clrajhxipneeucss3k7cntaxm33uc7xx6iclqlobaod5waa2aa6l.py":42:43)
#loc62 = loc("inductor_cache/lr/clrajhxipneeucss3k7cntaxm33uc7xx6iclqlobaod5waa2aa6l.py":42:51)
#loc63 = loc("inductor_cache/lr/clrajhxipneeucss3k7cntaxm33uc7xx6iclqlobaod5waa2aa6l.py":42:31)
#loc64 = loc("inductor_cache/lr/clrajhxipneeucss3k7cntaxm33uc7xx6iclqlobaod5waa2aa6l.py":42:60)
#loc65 = loc("/home/sahanp/.conda/envs/parity-bench/lib/python3.12/site-packages/torch/_inductor/runtime/triton_helpers.py":118:15)
#loc66 = loc("inductor_cache/lr/clrajhxipneeucss3k7cntaxm33uc7xx6iclqlobaod5waa2aa6l.py":43:40)
#loc67 = loc("/home/sahanp/.conda/envs/parity-bench/lib/python3.12/site-packages/torch/_inductor/runtime/triton_helpers.py":120:21)
#loc68 = loc("/home/sahanp/.conda/envs/parity-bench/lib/python3.12/site-packages/torch/_inductor/runtime/triton_helpers.py":120:16)
#loc69 = loc("/home/sahanp/.conda/envs/parity-bench/lib/python3.12/site-packages/torch/_inductor/runtime/triton_helpers.py":121:29)
#loc70 = loc("inductor_cache/lr/clrajhxipneeucss3k7cntaxm33uc7xx6iclqlobaod5waa2aa6l.py":44:40)
#loc71 = loc("inductor_cache/lr/clrajhxipneeucss3k7cntaxm33uc7xx6iclqlobaod5waa2aa6l.py":45:40)
#loc72 = loc("inductor_cache/lr/clrajhxipneeucss3k7cntaxm33uc7xx6iclqlobaod5waa2aa6l.py":46:40)
#loc73 = loc("inductor_cache/lr/clrajhxipneeucss3k7cntaxm33uc7xx6iclqlobaod5waa2aa6l.py":47:41)
#loc74 = loc("inductor_cache/lr/clrajhxipneeucss3k7cntaxm33uc7xx6iclqlobaod5waa2aa6l.py":48:42)
#loc75 = loc("inductor_cache/lr/clrajhxipneeucss3k7cntaxm33uc7xx6iclqlobaod5waa2aa6l.py":49:42)
#loc76 = loc("inductor_cache/lr/clrajhxipneeucss3k7cntaxm33uc7xx6iclqlobaod5waa2aa6l.py":50:42)
#loc77 = loc("inductor_cache/lr/clrajhxipneeucss3k7cntaxm33uc7xx6iclqlobaod5waa2aa6l.py":51:33)
#loc78 = loc("inductor_cache/lr/clrajhxipneeucss3k7cntaxm33uc7xx6iclqlobaod5waa2aa6l.py":51:30)
#loc79 = loc("inductor_cache/lr/clrajhxipneeucss3k7cntaxm33uc7xx6iclqlobaod5waa2aa6l.py":51:43)
#loc80 = loc("inductor_cache/lr/clrajhxipneeucss3k7cntaxm33uc7xx6iclqlobaod5waa2aa6l.py":51:38)
#loc81 = loc("inductor_cache/lr/clrajhxipneeucss3k7cntaxm33uc7xx6iclqlobaod5waa2aa6l.py":51:25)
#loc82 = loc("inductor_cache/lr/clrajhxipneeucss3k7cntaxm33uc7xx6iclqlobaod5waa2aa6l.py":51:55)
#loc83 = loc("inductor_cache/lr/clrajhxipneeucss3k7cntaxm33uc7xx6iclqlobaod5waa2aa6l.py":51:4)
#loc84 = loc(callsite(#loc65 at #loc66))
#loc85 = loc(callsite(#loc67 at #loc66))
#loc86 = loc(callsite(#loc68 at #loc66))
#loc87 = loc(callsite(#loc69 at #loc66))
#loc88 = loc(callsite(#loc65 at #loc70))
#loc89 = loc(callsite(#loc67 at #loc70))
#loc90 = loc(callsite(#loc68 at #loc70))
#loc91 = loc(callsite(#loc69 at #loc70))
#loc92 = loc(callsite(#loc65 at #loc71))
#loc93 = loc(callsite(#loc67 at #loc71))
#loc94 = loc(callsite(#loc68 at #loc71))
#loc95 = loc(callsite(#loc69 at #loc71))
#loc96 = loc(callsite(#loc65 at #loc72))
#loc97 = loc(callsite(#loc67 at #loc72))
#loc98 = loc(callsite(#loc68 at #loc72))
#loc99 = loc(callsite(#loc69 at #loc72))
#loc100 = loc(callsite(#loc65 at #loc73))
#loc101 = loc(callsite(#loc67 at #loc73))
#loc102 = loc(callsite(#loc68 at #loc73))
#loc103 = loc(callsite(#loc69 at #loc73))
#loc104 = loc(callsite(#loc65 at #loc74))
#loc105 = loc(callsite(#loc67 at #loc74))
#loc106 = loc(callsite(#loc68 at #loc74))
#loc107 = loc(callsite(#loc69 at #loc74))
#loc108 = loc(callsite(#loc65 at #loc75))
#loc109 = loc(callsite(#loc67 at #loc75))
#loc110 = loc(callsite(#loc68 at #loc75))
#loc111 = loc(callsite(#loc69 at #loc75))
#loc112 = loc(callsite(#loc65 at #loc76))
#loc113 = loc(callsite(#loc67 at #loc76))
#loc114 = loc(callsite(#loc68 at #loc76))
#loc115 = loc(callsite(#loc69 at #loc76))
