#loc = loc("inductor_cache/jv/cjvcuh43p3snn7wczcnervi2dyzebx5bjqlmpb6otygm54agdobk.py":19:0)
module {
  tt.func public @triton_poi_fused_native_layer_norm_relu_1(%arg0: !tt.ptr<f32> {tt.divisibility = 16 : i32} loc("inductor_cache/jv/cjvcuh43p3snn7wczcnervi2dyzebx5bjqlmpb6otygm54agdobk.py":19:0), %arg1: !tt.ptr<f32> {tt.divisibility = 16 : i32} loc("inductor_cache/jv/cjvcuh43p3snn7wczcnervi2dyzebx5bjqlmpb6otygm54agdobk.py":19:0), %arg2: !tt.ptr<f32> {tt.divisibility = 16 : i32} loc("inductor_cache/jv/cjvcuh43p3snn7wczcnervi2dyzebx5bjqlmpb6otygm54agdobk.py":19:0), %arg3: !tt.ptr<f32> {tt.divisibility = 16 : i32} loc("inductor_cache/jv/cjvcuh43p3snn7wczcnervi2dyzebx5bjqlmpb6otygm54agdobk.py":19:0), %arg4: i32 loc("inductor_cache/jv/cjvcuh43p3snn7wczcnervi2dyzebx5bjqlmpb6otygm54agdobk.py":19:0)) attributes {noinline = false} {
    %cst = arith.constant dense<0.000000e+00> : tensor<4xf32> loc(#loc1)
    %cst_0 = arith.constant dense<9.99999974E-6> : tensor<4xf32> loc(#loc1)
    %c0_i32 = arith.constant 0 : i32 loc(#loc1)
    %cst_1 = arith.constant dense<4> : tensor<4xi32> loc(#loc1)
    %c4_i32 = arith.constant 4 : i32 loc(#loc1)
    %0 = tt.get_program_id x : i32 loc(#loc2)
    %1 = arith.muli %0, %c4_i32 : i32 loc(#loc3)
    %2 = tt.make_range {end = 4 : i32, start = 0 : i32} : tensor<4xi32> loc(#loc4)
    %3 = tt.splat %1 : i32 -> tensor<4xi32> loc(#loc5)
    %4 = arith.addi %3, %2 : tensor<4xi32> loc(#loc5)
    %5 = arith.cmpi slt, %4, %cst_1 : tensor<4xi32> loc(#loc6)
    %6 = tt.splat %arg1 : !tt.ptr<f32> -> tensor<4x!tt.ptr<f32>> loc(#loc7)
    %7 = tt.addptr %6, %4 : tensor<4x!tt.ptr<f32>>, tensor<4xi32> loc(#loc7)
    %8 = tt.load %7, %5 : tensor<4x!tt.ptr<f32>> loc(#loc8)
    %9 = tt.addptr %arg2, %c0_i32 : !tt.ptr<f32>, i32 loc(#loc9)
    %10 = tt.load %9 : !tt.ptr<f32> loc(#loc10)
    %11 = tt.splat %10 : f32 -> tensor<4xf32> loc(#loc11)
    %12 = tt.addptr %arg3, %c0_i32 : !tt.ptr<f32>, i32 loc(#loc12)
    %13 = tt.load %12 : !tt.ptr<f32> loc(#loc13)
    %14 = tt.splat %13 : f32 -> tensor<4xf32> loc(#loc14)
    %15 = arith.subf %8, %8 : tensor<4xf32> loc(#loc15)
    %16 = arith.mulf %15, %15 : tensor<4xf32> loc(#loc16)
    %17 = arith.addf %16, %cst_0 : tensor<4xf32> loc(#loc17)
    %18 = tt.extern_elementwise %17 {libname = "", libpath = "", pure = true, symbol = "__nv_rsqrtf"} : (tensor<4xf32>) -> tensor<4xf32> loc(#loc18)
    %19 = arith.mulf %15, %18 : tensor<4xf32> loc(#loc19)
    %20 = arith.mulf %19, %11 : tensor<4xf32> loc(#loc20)
    %21 = arith.addf %20, %14 : tensor<4xf32> loc(#loc21)
    %22 = arith.cmpf ogt, %cst, %21 : tensor<4xf32> loc(#loc28)
    %23 = arith.select %22, %cst, %21 : tensor<4xi1>, tensor<4xf32> loc(#loc29)
    %24 = tt.splat %arg0 : !tt.ptr<f32> -> tensor<4x!tt.ptr<f32>> loc(#loc25)
    %25 = tt.addptr %24, %4 : tensor<4x!tt.ptr<f32>>, tensor<4xi32> loc(#loc25)
    tt.store %25, %23, %5 : tensor<4x!tt.ptr<f32>> loc(#loc26)
    tt.return loc(#loc27)
  } loc(#loc)
} loc(#loc)
#loc1 = loc(unknown)
#loc2 = loc("inductor_cache/jv/cjvcuh43p3snn7wczcnervi2dyzebx5bjqlmpb6otygm54agdobk.py":21:28)
#loc3 = loc("inductor_cache/jv/cjvcuh43p3snn7wczcnervi2dyzebx5bjqlmpb6otygm54agdobk.py":21:33)
#loc4 = loc("inductor_cache/jv/cjvcuh43p3snn7wczcnervi2dyzebx5bjqlmpb6otygm54agdobk.py":22:36)
#loc5 = loc("inductor_cache/jv/cjvcuh43p3snn7wczcnervi2dyzebx5bjqlmpb6otygm54agdobk.py":22:23)
#loc6 = loc("inductor_cache/jv/cjvcuh43p3snn7wczcnervi2dyzebx5bjqlmpb6otygm54agdobk.py":23:21)
#loc7 = loc("inductor_cache/jv/cjvcuh43p3snn7wczcnervi2dyzebx5bjqlmpb6otygm54agdobk.py":25:30)
#loc8 = loc("inductor_cache/jv/cjvcuh43p3snn7wczcnervi2dyzebx5bjqlmpb6otygm54agdobk.py":25:35)
#loc9 = loc("inductor_cache/jv/cjvcuh43p3snn7wczcnervi2dyzebx5bjqlmpb6otygm54agdobk.py":26:31)
#loc10 = loc("inductor_cache/jv/cjvcuh43p3snn7wczcnervi2dyzebx5bjqlmpb6otygm54agdobk.py":26:20)
#loc11 = loc("inductor_cache/jv/cjvcuh43p3snn7wczcnervi2dyzebx5bjqlmpb6otygm54agdobk.py":27:35)
#loc12 = loc("inductor_cache/jv/cjvcuh43p3snn7wczcnervi2dyzebx5bjqlmpb6otygm54agdobk.py":28:31)
#loc13 = loc("inductor_cache/jv/cjvcuh43p3snn7wczcnervi2dyzebx5bjqlmpb6otygm54agdobk.py":28:20)
#loc14 = loc("inductor_cache/jv/cjvcuh43p3snn7wczcnervi2dyzebx5bjqlmpb6otygm54agdobk.py":29:35)
#loc15 = loc("inductor_cache/jv/cjvcuh43p3snn7wczcnervi2dyzebx5bjqlmpb6otygm54agdobk.py":32:18)
#loc16 = loc("inductor_cache/jv/cjvcuh43p3snn7wczcnervi2dyzebx5bjqlmpb6otygm54agdobk.py":33:18)
#loc17 = loc("inductor_cache/jv/cjvcuh43p3snn7wczcnervi2dyzebx5bjqlmpb6otygm54agdobk.py":36:18)
#loc18 = loc("inductor_cache/jv/cjvcuh43p3snn7wczcnervi2dyzebx5bjqlmpb6otygm54agdobk.py":37:27)
#loc19 = loc("inductor_cache/jv/cjvcuh43p3snn7wczcnervi2dyzebx5bjqlmpb6otygm54agdobk.py":38:18)
#loc20 = loc("inductor_cache/jv/cjvcuh43p3snn7wczcnervi2dyzebx5bjqlmpb6otygm54agdobk.py":39:19)
#loc21 = loc("inductor_cache/jv/cjvcuh43p3snn7wczcnervi2dyzebx5bjqlmpb6otygm54agdobk.py":40:20)
#loc22 = loc("/home/sahanp/.conda/envs/parity-bench/lib/python3.12/site-packages/torch/_inductor/runtime/triton_helpers.py":118:15)
#loc23 = loc("inductor_cache/jv/cjvcuh43p3snn7wczcnervi2dyzebx5bjqlmpb6otygm54agdobk.py":42:42)
#loc24 = loc("/home/sahanp/.conda/envs/parity-bench/lib/python3.12/site-packages/torch/_inductor/runtime/triton_helpers.py":121:29)
#loc25 = loc("inductor_cache/jv/cjvcuh43p3snn7wczcnervi2dyzebx5bjqlmpb6otygm54agdobk.py":43:28)
#loc26 = loc("inductor_cache/jv/cjvcuh43p3snn7wczcnervi2dyzebx5bjqlmpb6otygm54agdobk.py":43:40)
#loc27 = loc("inductor_cache/jv/cjvcuh43p3snn7wczcnervi2dyzebx5bjqlmpb6otygm54agdobk.py":43:4)
#loc28 = loc(callsite(#loc22 at #loc23))
#loc29 = loc(callsite(#loc24 at #loc23))
