#loc = loc("inductor_cache/cv/ccvw4kt2kc6ilhttn7kdkz3vbvweu2sdss6g4o46skvyoos5tfax.py":19:0)
module {
  tt.func public @triton_poi_fused_avg_pool2d_sub_1(%arg0: !tt.ptr<f32> {tt.divisibility = 16 : i32} loc("inductor_cache/cv/ccvw4kt2kc6ilhttn7kdkz3vbvweu2sdss6g4o46skvyoos5tfax.py":19:0), %arg1: !tt.ptr<f32> {tt.divisibility = 16 : i32} loc("inductor_cache/cv/ccvw4kt2kc6ilhttn7kdkz3vbvweu2sdss6g4o46skvyoos5tfax.py":19:0), %arg2: !tt.ptr<f32> {tt.divisibility = 16 : i32} loc("inductor_cache/cv/ccvw4kt2kc6ilhttn7kdkz3vbvweu2sdss6g4o46skvyoos5tfax.py":19:0), %arg3: !tt.ptr<f32> {tt.divisibility = 16 : i32} loc("inductor_cache/cv/ccvw4kt2kc6ilhttn7kdkz3vbvweu2sdss6g4o46skvyoos5tfax.py":19:0), %arg4: i32 {tt.divisibility = 16 : i32} loc("inductor_cache/cv/ccvw4kt2kc6ilhttn7kdkz3vbvweu2sdss6g4o46skvyoos5tfax.py":19:0), %arg5: i32 loc("inductor_cache/cv/ccvw4kt2kc6ilhttn7kdkz3vbvweu2sdss6g4o46skvyoos5tfax.py":19:0)) attributes {noinline = false} {
    %cst = arith.constant dense<4.000000e-02> : tensor<2x16xf32> loc(#loc1)
    %cst_0 = arith.constant dense<96> : tensor<2x1xi32> loc(#loc1)
    %cst_1 = arith.constant dense<92> : tensor<2x1xi32> loc(#loc1)
    %cst_2 = arith.constant dense<88> : tensor<2x1xi32> loc(#loc1)
    %cst_3 = arith.constant dense<84> : tensor<2x1xi32> loc(#loc1)
    %cst_4 = arith.constant dense<80> : tensor<2x1xi32> loc(#loc1)
    %cst_5 = arith.constant dense<76> : tensor<2x1xi32> loc(#loc1)
    %cst_6 = arith.constant dense<72> : tensor<2x1xi32> loc(#loc1)
    %cst_7 = arith.constant dense<68> : tensor<2x1xi32> loc(#loc1)
    %cst_8 = arith.constant dense<64> : tensor<2x1xi32> loc(#loc1)
    %cst_9 = arith.constant dense<60> : tensor<2x1xi32> loc(#loc1)
    %cst_10 = arith.constant dense<56> : tensor<2x1xi32> loc(#loc1)
    %cst_11 = arith.constant dense<52> : tensor<2x1xi32> loc(#loc1)
    %cst_12 = arith.constant dense<48> : tensor<2x1xi32> loc(#loc1)
    %cst_13 = arith.constant dense<44> : tensor<2x1xi32> loc(#loc1)
    %cst_14 = arith.constant dense<40> : tensor<2x1xi32> loc(#loc1)
    %cst_15 = arith.constant dense<36> : tensor<2x1xi32> loc(#loc1)
    %cst_16 = arith.constant dense<32> : tensor<2x1xi32> loc(#loc1)
    %cst_17 = arith.constant dense<28> : tensor<2x1xi32> loc(#loc1)
    %cst_18 = arith.constant dense<24> : tensor<2x1xi32> loc(#loc1)
    %cst_19 = arith.constant dense<20> : tensor<2x1xi32> loc(#loc1)
    %cst_20 = arith.constant dense<16> : tensor<2x1xi32> loc(#loc1)
    %cst_21 = arith.constant dense<12> : tensor<2x1xi32> loc(#loc1)
    %cst_22 = arith.constant dense<8> : tensor<2x1xi32> loc(#loc1)
    %cst_23 = arith.constant dense<112> : tensor<1x16xi32> loc(#loc1)
    %cst_24 = arith.constant dense<4> : tensor<1x16xi32> loc(#loc1)
    %cst_25 = arith.constant dense<4> : tensor<2x1xi32> loc(#loc1)
    %c2_i32 = arith.constant 2 : i32 loc(#loc1)
    %cst_26 = arith.constant dense<16> : tensor<1x16xi32> loc(#loc1)
    %c16_i32 = arith.constant 16 : i32 loc(#loc1)
    %0 = tt.get_program_id y : i32 loc(#loc2)
    %1 = arith.muli %0, %c16_i32 : i32 loc(#loc3)
    %2 = tt.make_range {end = 16 : i32, start = 0 : i32} : tensor<16xi32> loc(#loc4)
    %3 = tt.expand_dims %2 {axis = 0 : i32} : tensor<16xi32> -> tensor<1x16xi32> loc(#loc5)
    %4 = tt.splat %1 : i32 -> tensor<1x16xi32> loc(#loc6)
    %5 = arith.addi %4, %3 : tensor<1x16xi32> loc(#loc6)
    %6 = arith.cmpi slt, %5, %cst_26 : tensor<1x16xi32> loc(#loc7)
    %7 = tt.get_program_id x : i32 loc(#loc8)
    %8 = arith.muli %7, %c2_i32 : i32 loc(#loc9)
    %9 = tt.make_range {end = 2 : i32, start = 0 : i32} : tensor<2xi32> loc(#loc10)
    %10 = tt.expand_dims %9 {axis = 1 : i32} : tensor<2xi32> -> tensor<2x1xi32> loc(#loc11)
    %11 = tt.splat %8 : i32 -> tensor<2x1xi32> loc(#loc12)
    %12 = arith.addi %11, %10 : tensor<2x1xi32> loc(#loc12)
    %13 = arith.cmpi slt, %12, %cst_25 : tensor<2x1xi32> loc(#loc13)
    %14 = arith.remsi %5, %cst_24 : tensor<1x16xi32> loc(#loc14)
    %15 = arith.divsi %5, %cst_24 : tensor<1x16xi32> loc(#loc15)
    %16 = arith.muli %14, %cst_24 : tensor<1x16xi32> loc(#loc16)
    %17 = tt.broadcast %12 : tensor<2x1xi32> -> tensor<2x16xi32> loc(#loc17)
    %18 = tt.broadcast %16 : tensor<1x16xi32> -> tensor<2x16xi32> loc(#loc17)
    %19 = arith.addi %17, %18 : tensor<2x16xi32> loc(#loc17)
    %20 = arith.muli %15, %cst_23 : tensor<1x16xi32> loc(#loc18)
    %21 = tt.broadcast %20 : tensor<1x16xi32> -> tensor<2x16xi32> loc(#loc19)
    %22 = arith.addi %19, %21 : tensor<2x16xi32> loc(#loc19)
    %23 = tt.splat %arg0 : !tt.ptr<f32> -> tensor<2x16x!tt.ptr<f32>> loc(#loc20)
    %24 = tt.addptr %23, %22 : tensor<2x16x!tt.ptr<f32>>, tensor<2x16xi32> loc(#loc20)
    %25 = tt.broadcast %13 : tensor<2x1xi1> -> tensor<2x16xi1> loc(#loc21)
    %26 = tt.broadcast %6 : tensor<1x16xi1> -> tensor<2x16xi1> loc(#loc21)
    %27 = arith.andi %25, %26 : tensor<2x16xi1> loc(#loc21)
    %28 = tt.load %24, %27 evictionPolicy = evict_last : tensor<2x16x!tt.ptr<f32>> loc(#loc22)
    %29 = arith.addi %12, %cst_25 : tensor<2x1xi32> loc(#loc23)
    %30 = tt.broadcast %29 : tensor<2x1xi32> -> tensor<2x16xi32> loc(#loc24)
    %31 = arith.addi %30, %18 : tensor<2x16xi32> loc(#loc24)
    %32 = arith.addi %31, %21 : tensor<2x16xi32> loc(#loc25)
    %33 = tt.addptr %23, %32 : tensor<2x16x!tt.ptr<f32>>, tensor<2x16xi32> loc(#loc26)
    %34 = tt.load %33, %27 evictionPolicy = evict_last : tensor<2x16x!tt.ptr<f32>> loc(#loc27)
    %35 = arith.addi %12, %cst_22 : tensor<2x1xi32> loc(#loc28)
    %36 = tt.broadcast %35 : tensor<2x1xi32> -> tensor<2x16xi32> loc(#loc29)
    %37 = arith.addi %36, %18 : tensor<2x16xi32> loc(#loc29)
    %38 = arith.addi %37, %21 : tensor<2x16xi32> loc(#loc30)
    %39 = tt.addptr %23, %38 : tensor<2x16x!tt.ptr<f32>>, tensor<2x16xi32> loc(#loc31)
    %40 = tt.load %39, %27 evictionPolicy = evict_last : tensor<2x16x!tt.ptr<f32>> loc(#loc32)
    %41 = arith.addi %12, %cst_21 : tensor<2x1xi32> loc(#loc33)
    %42 = tt.broadcast %41 : tensor<2x1xi32> -> tensor<2x16xi32> loc(#loc34)
    %43 = arith.addi %42, %18 : tensor<2x16xi32> loc(#loc34)
    %44 = arith.addi %43, %21 : tensor<2x16xi32> loc(#loc35)
    %45 = tt.addptr %23, %44 : tensor<2x16x!tt.ptr<f32>>, tensor<2x16xi32> loc(#loc36)
    %46 = tt.load %45, %27 evictionPolicy = evict_last : tensor<2x16x!tt.ptr<f32>> loc(#loc37)
    %47 = arith.addi %12, %cst_20 : tensor<2x1xi32> loc(#loc38)
    %48 = tt.broadcast %47 : tensor<2x1xi32> -> tensor<2x16xi32> loc(#loc39)
    %49 = arith.addi %48, %18 : tensor<2x16xi32> loc(#loc39)
    %50 = arith.addi %49, %21 : tensor<2x16xi32> loc(#loc40)
    %51 = tt.addptr %23, %50 : tensor<2x16x!tt.ptr<f32>>, tensor<2x16xi32> loc(#loc41)
    %52 = tt.load %51, %27 evictionPolicy = evict_last : tensor<2x16x!tt.ptr<f32>> loc(#loc42)
    %53 = arith.addi %12, %cst_19 : tensor<2x1xi32> loc(#loc43)
    %54 = tt.broadcast %53 : tensor<2x1xi32> -> tensor<2x16xi32> loc(#loc44)
    %55 = arith.addi %54, %18 : tensor<2x16xi32> loc(#loc44)
    %56 = arith.addi %55, %21 : tensor<2x16xi32> loc(#loc45)
    %57 = tt.addptr %23, %56 : tensor<2x16x!tt.ptr<f32>>, tensor<2x16xi32> loc(#loc46)
    %58 = tt.load %57, %27 evictionPolicy = evict_last : tensor<2x16x!tt.ptr<f32>> loc(#loc47)
    %59 = arith.addi %12, %cst_18 : tensor<2x1xi32> loc(#loc48)
    %60 = tt.broadcast %59 : tensor<2x1xi32> -> tensor<2x16xi32> loc(#loc49)
    %61 = arith.addi %60, %18 : tensor<2x16xi32> loc(#loc49)
    %62 = arith.addi %61, %21 : tensor<2x16xi32> loc(#loc50)
    %63 = tt.addptr %23, %62 : tensor<2x16x!tt.ptr<f32>>, tensor<2x16xi32> loc(#loc51)
    %64 = tt.load %63, %27 evictionPolicy = evict_last : tensor<2x16x!tt.ptr<f32>> loc(#loc52)
    %65 = arith.addi %12, %cst_17 : tensor<2x1xi32> loc(#loc53)
    %66 = tt.broadcast %65 : tensor<2x1xi32> -> tensor<2x16xi32> loc(#loc54)
    %67 = arith.addi %66, %18 : tensor<2x16xi32> loc(#loc54)
    %68 = arith.addi %67, %21 : tensor<2x16xi32> loc(#loc55)
    %69 = tt.addptr %23, %68 : tensor<2x16x!tt.ptr<f32>>, tensor<2x16xi32> loc(#loc56)
    %70 = tt.load %69, %27 evictionPolicy = evict_last : tensor<2x16x!tt.ptr<f32>> loc(#loc57)
    %71 = arith.addi %12, %cst_16 : tensor<2x1xi32> loc(#loc58)
    %72 = tt.broadcast %71 : tensor<2x1xi32> -> tensor<2x16xi32> loc(#loc59)
    %73 = arith.addi %72, %18 : tensor<2x16xi32> loc(#loc59)
    %74 = arith.addi %73, %21 : tensor<2x16xi32> loc(#loc60)
    %75 = tt.addptr %23, %74 : tensor<2x16x!tt.ptr<f32>>, tensor<2x16xi32> loc(#loc61)
    %76 = tt.load %75, %27 evictionPolicy = evict_last : tensor<2x16x!tt.ptr<f32>> loc(#loc62)
    %77 = arith.addi %12, %cst_15 : tensor<2x1xi32> loc(#loc63)
    %78 = tt.broadcast %77 : tensor<2x1xi32> -> tensor<2x16xi32> loc(#loc64)
    %79 = arith.addi %78, %18 : tensor<2x16xi32> loc(#loc64)
    %80 = arith.addi %79, %21 : tensor<2x16xi32> loc(#loc65)
    %81 = tt.addptr %23, %80 : tensor<2x16x!tt.ptr<f32>>, tensor<2x16xi32> loc(#loc66)
    %82 = tt.load %81, %27 evictionPolicy = evict_last : tensor<2x16x!tt.ptr<f32>> loc(#loc67)
    %83 = arith.addi %12, %cst_14 : tensor<2x1xi32> loc(#loc68)
    %84 = tt.broadcast %83 : tensor<2x1xi32> -> tensor<2x16xi32> loc(#loc69)
    %85 = arith.addi %84, %18 : tensor<2x16xi32> loc(#loc69)
    %86 = arith.addi %85, %21 : tensor<2x16xi32> loc(#loc70)
    %87 = tt.addptr %23, %86 : tensor<2x16x!tt.ptr<f32>>, tensor<2x16xi32> loc(#loc71)
    %88 = tt.load %87, %27 evictionPolicy = evict_last : tensor<2x16x!tt.ptr<f32>> loc(#loc72)
    %89 = arith.addi %12, %cst_13 : tensor<2x1xi32> loc(#loc73)
    %90 = tt.broadcast %89 : tensor<2x1xi32> -> tensor<2x16xi32> loc(#loc74)
    %91 = arith.addi %90, %18 : tensor<2x16xi32> loc(#loc74)
    %92 = arith.addi %91, %21 : tensor<2x16xi32> loc(#loc75)
    %93 = tt.addptr %23, %92 : tensor<2x16x!tt.ptr<f32>>, tensor<2x16xi32> loc(#loc76)
    %94 = tt.load %93, %27 evictionPolicy = evict_last : tensor<2x16x!tt.ptr<f32>> loc(#loc77)
    %95 = arith.addi %12, %cst_12 : tensor<2x1xi32> loc(#loc78)
    %96 = tt.broadcast %95 : tensor<2x1xi32> -> tensor<2x16xi32> loc(#loc79)
    %97 = arith.addi %96, %18 : tensor<2x16xi32> loc(#loc79)
    %98 = arith.addi %97, %21 : tensor<2x16xi32> loc(#loc80)
    %99 = tt.addptr %23, %98 : tensor<2x16x!tt.ptr<f32>>, tensor<2x16xi32> loc(#loc81)
    %100 = tt.load %99, %27 evictionPolicy = evict_last : tensor<2x16x!tt.ptr<f32>> loc(#loc82)
    %101 = arith.addi %12, %cst_11 : tensor<2x1xi32> loc(#loc83)
    %102 = tt.broadcast %101 : tensor<2x1xi32> -> tensor<2x16xi32> loc(#loc84)
    %103 = arith.addi %102, %18 : tensor<2x16xi32> loc(#loc84)
    %104 = arith.addi %103, %21 : tensor<2x16xi32> loc(#loc85)
    %105 = tt.addptr %23, %104 : tensor<2x16x!tt.ptr<f32>>, tensor<2x16xi32> loc(#loc86)
    %106 = tt.load %105, %27 evictionPolicy = evict_last : tensor<2x16x!tt.ptr<f32>> loc(#loc87)
    %107 = arith.addi %12, %cst_10 : tensor<2x1xi32> loc(#loc88)
    %108 = tt.broadcast %107 : tensor<2x1xi32> -> tensor<2x16xi32> loc(#loc89)
    %109 = arith.addi %108, %18 : tensor<2x16xi32> loc(#loc89)
    %110 = arith.addi %109, %21 : tensor<2x16xi32> loc(#loc90)
    %111 = tt.addptr %23, %110 : tensor<2x16x!tt.ptr<f32>>, tensor<2x16xi32> loc(#loc91)
    %112 = tt.load %111, %27 evictionPolicy = evict_last : tensor<2x16x!tt.ptr<f32>> loc(#loc92)
    %113 = arith.addi %12, %cst_9 : tensor<2x1xi32> loc(#loc93)
    %114 = tt.broadcast %113 : tensor<2x1xi32> -> tensor<2x16xi32> loc(#loc94)
    %115 = arith.addi %114, %18 : tensor<2x16xi32> loc(#loc94)
    %116 = arith.addi %115, %21 : tensor<2x16xi32> loc(#loc95)
    %117 = tt.addptr %23, %116 : tensor<2x16x!tt.ptr<f32>>, tensor<2x16xi32> loc(#loc96)
    %118 = tt.load %117, %27 evictionPolicy = evict_last : tensor<2x16x!tt.ptr<f32>> loc(#loc97)
    %119 = arith.addi %12, %cst_8 : tensor<2x1xi32> loc(#loc98)
    %120 = tt.broadcast %119 : tensor<2x1xi32> -> tensor<2x16xi32> loc(#loc99)
    %121 = arith.addi %120, %18 : tensor<2x16xi32> loc(#loc99)
    %122 = arith.addi %121, %21 : tensor<2x16xi32> loc(#loc100)
    %123 = tt.addptr %23, %122 : tensor<2x16x!tt.ptr<f32>>, tensor<2x16xi32> loc(#loc101)
    %124 = tt.load %123, %27 evictionPolicy = evict_last : tensor<2x16x!tt.ptr<f32>> loc(#loc102)
    %125 = arith.addi %12, %cst_7 : tensor<2x1xi32> loc(#loc103)
    %126 = tt.broadcast %125 : tensor<2x1xi32> -> tensor<2x16xi32> loc(#loc104)
    %127 = arith.addi %126, %18 : tensor<2x16xi32> loc(#loc104)
    %128 = arith.addi %127, %21 : tensor<2x16xi32> loc(#loc105)
    %129 = tt.addptr %23, %128 : tensor<2x16x!tt.ptr<f32>>, tensor<2x16xi32> loc(#loc106)
    %130 = tt.load %129, %27 evictionPolicy = evict_last : tensor<2x16x!tt.ptr<f32>> loc(#loc107)
    %131 = arith.addi %12, %cst_6 : tensor<2x1xi32> loc(#loc108)
    %132 = tt.broadcast %131 : tensor<2x1xi32> -> tensor<2x16xi32> loc(#loc109)
    %133 = arith.addi %132, %18 : tensor<2x16xi32> loc(#loc109)
    %134 = arith.addi %133, %21 : tensor<2x16xi32> loc(#loc110)
    %135 = tt.addptr %23, %134 : tensor<2x16x!tt.ptr<f32>>, tensor<2x16xi32> loc(#loc111)
    %136 = tt.load %135, %27 evictionPolicy = evict_last : tensor<2x16x!tt.ptr<f32>> loc(#loc112)
    %137 = arith.addi %12, %cst_5 : tensor<2x1xi32> loc(#loc113)
    %138 = tt.broadcast %137 : tensor<2x1xi32> -> tensor<2x16xi32> loc(#loc114)
    %139 = arith.addi %138, %18 : tensor<2x16xi32> loc(#loc114)
    %140 = arith.addi %139, %21 : tensor<2x16xi32> loc(#loc115)
    %141 = tt.addptr %23, %140 : tensor<2x16x!tt.ptr<f32>>, tensor<2x16xi32> loc(#loc116)
    %142 = tt.load %141, %27 evictionPolicy = evict_last : tensor<2x16x!tt.ptr<f32>> loc(#loc117)
    %143 = arith.addi %12, %cst_4 : tensor<2x1xi32> loc(#loc118)
    %144 = tt.broadcast %143 : tensor<2x1xi32> -> tensor<2x16xi32> loc(#loc119)
    %145 = arith.addi %144, %18 : tensor<2x16xi32> loc(#loc119)
    %146 = arith.addi %145, %21 : tensor<2x16xi32> loc(#loc120)
    %147 = tt.addptr %23, %146 : tensor<2x16x!tt.ptr<f32>>, tensor<2x16xi32> loc(#loc121)
    %148 = tt.load %147, %27 evictionPolicy = evict_last : tensor<2x16x!tt.ptr<f32>> loc(#loc122)
    %149 = arith.addi %12, %cst_3 : tensor<2x1xi32> loc(#loc123)
    %150 = tt.broadcast %149 : tensor<2x1xi32> -> tensor<2x16xi32> loc(#loc124)
    %151 = arith.addi %150, %18 : tensor<2x16xi32> loc(#loc124)
    %152 = arith.addi %151, %21 : tensor<2x16xi32> loc(#loc125)
    %153 = tt.addptr %23, %152 : tensor<2x16x!tt.ptr<f32>>, tensor<2x16xi32> loc(#loc126)
    %154 = tt.load %153, %27 evictionPolicy = evict_last : tensor<2x16x!tt.ptr<f32>> loc(#loc127)
    %155 = arith.addi %12, %cst_2 : tensor<2x1xi32> loc(#loc128)
    %156 = tt.broadcast %155 : tensor<2x1xi32> -> tensor<2x16xi32> loc(#loc129)
    %157 = arith.addi %156, %18 : tensor<2x16xi32> loc(#loc129)
    %158 = arith.addi %157, %21 : tensor<2x16xi32> loc(#loc130)
    %159 = tt.addptr %23, %158 : tensor<2x16x!tt.ptr<f32>>, tensor<2x16xi32> loc(#loc131)
    %160 = tt.load %159, %27 evictionPolicy = evict_last : tensor<2x16x!tt.ptr<f32>> loc(#loc132)
    %161 = arith.addi %12, %cst_1 : tensor<2x1xi32> loc(#loc133)
    %162 = tt.broadcast %161 : tensor<2x1xi32> -> tensor<2x16xi32> loc(#loc134)
    %163 = arith.addi %162, %18 : tensor<2x16xi32> loc(#loc134)
    %164 = arith.addi %163, %21 : tensor<2x16xi32> loc(#loc135)
    %165 = tt.addptr %23, %164 : tensor<2x16x!tt.ptr<f32>>, tensor<2x16xi32> loc(#loc136)
    %166 = tt.load %165, %27 evictionPolicy = evict_last : tensor<2x16x!tt.ptr<f32>> loc(#loc137)
    %167 = arith.addi %12, %cst_0 : tensor<2x1xi32> loc(#loc138)
    %168 = tt.broadcast %167 : tensor<2x1xi32> -> tensor<2x16xi32> loc(#loc139)
    %169 = arith.addi %168, %18 : tensor<2x16xi32> loc(#loc139)
    %170 = arith.addi %169, %21 : tensor<2x16xi32> loc(#loc140)
    %171 = tt.addptr %23, %170 : tensor<2x16x!tt.ptr<f32>>, tensor<2x16xi32> loc(#loc141)
    %172 = tt.load %171, %27 evictionPolicy = evict_last : tensor<2x16x!tt.ptr<f32>> loc(#loc142)
    %173 = arith.muli %5, %cst_24 : tensor<1x16xi32> loc(#loc143)
    %174 = tt.broadcast %173 : tensor<1x16xi32> -> tensor<2x16xi32> loc(#loc144)
    %175 = arith.addi %17, %174 : tensor<2x16xi32> loc(#loc144)
    %176 = tt.splat %arg1 : !tt.ptr<f32> -> tensor<2x16x!tt.ptr<f32>> loc(#loc145)
    %177 = tt.addptr %176, %175 : tensor<2x16x!tt.ptr<f32>>, tensor<2x16xi32> loc(#loc145)
    %178 = tt.load %177, %27 evictionPolicy = evict_last : tensor<2x16x!tt.ptr<f32>> loc(#loc146)
    %179 = arith.addf %34, %28 : tensor<2x16xf32> loc(#loc147)
    %180 = arith.addf %40, %179 : tensor<2x16xf32> loc(#loc148)
    %181 = arith.addf %46, %180 : tensor<2x16xf32> loc(#loc149)
    %182 = arith.addf %52, %181 : tensor<2x16xf32> loc(#loc150)
    %183 = arith.addf %58, %182 : tensor<2x16xf32> loc(#loc151)
    %184 = arith.addf %64, %183 : tensor<2x16xf32> loc(#loc152)
    %185 = arith.addf %70, %184 : tensor<2x16xf32> loc(#loc153)
    %186 = arith.addf %76, %185 : tensor<2x16xf32> loc(#loc154)
    %187 = arith.addf %82, %186 : tensor<2x16xf32> loc(#loc155)
    %188 = arith.addf %88, %187 : tensor<2x16xf32> loc(#loc156)
    %189 = arith.addf %94, %188 : tensor<2x16xf32> loc(#loc157)
    %190 = arith.addf %100, %189 : tensor<2x16xf32> loc(#loc158)
    %191 = arith.addf %106, %190 : tensor<2x16xf32> loc(#loc159)
    %192 = arith.addf %112, %191 : tensor<2x16xf32> loc(#loc160)
    %193 = arith.addf %118, %192 : tensor<2x16xf32> loc(#loc161)
    %194 = arith.addf %124, %193 : tensor<2x16xf32> loc(#loc162)
    %195 = arith.addf %130, %194 : tensor<2x16xf32> loc(#loc163)
    %196 = arith.addf %136, %195 : tensor<2x16xf32> loc(#loc164)
    %197 = arith.addf %142, %196 : tensor<2x16xf32> loc(#loc165)
    %198 = arith.addf %148, %197 : tensor<2x16xf32> loc(#loc166)
    %199 = arith.addf %154, %198 : tensor<2x16xf32> loc(#loc167)
    %200 = arith.addf %160, %199 : tensor<2x16xf32> loc(#loc168)
    %201 = arith.addf %166, %200 : tensor<2x16xf32> loc(#loc169)
    %202 = arith.addf %172, %201 : tensor<2x16xf32> loc(#loc170)
    %203 = arith.mulf %202, %cst : tensor<2x16xf32> loc(#loc171)
    %204 = arith.subf %178, %203 : tensor<2x16xf32> loc(#loc172)
    %205 = arith.muli %12, %cst_25 : tensor<2x1xi32> loc(#loc173)
    %206 = tt.broadcast %14 : tensor<1x16xi32> -> tensor<2x16xi32> loc(#loc174)
    %207 = tt.broadcast %205 : tensor<2x1xi32> -> tensor<2x16xi32> loc(#loc174)
    %208 = arith.addi %206, %207 : tensor<2x16xi32> loc(#loc174)
    %209 = arith.muli %15, %cst_26 : tensor<1x16xi32> loc(#loc175)
    %210 = tt.broadcast %209 : tensor<1x16xi32> -> tensor<2x16xi32> loc(#loc176)
    %211 = arith.addi %208, %210 : tensor<2x16xi32> loc(#loc176)
    %212 = tt.splat %arg2 : !tt.ptr<f32> -> tensor<2x16x!tt.ptr<f32>> loc(#loc177)
    %213 = tt.addptr %212, %211 : tensor<2x16x!tt.ptr<f32>>, tensor<2x16xi32> loc(#loc177)
    tt.store %213, %203, %27 : tensor<2x16x!tt.ptr<f32>> loc(#loc178)
    %214 = tt.splat %arg3 : !tt.ptr<f32> -> tensor<2x16x!tt.ptr<f32>> loc(#loc179)
    %215 = tt.addptr %214, %175 : tensor<2x16x!tt.ptr<f32>>, tensor<2x16xi32> loc(#loc179)
    tt.store %215, %204, %27 : tensor<2x16x!tt.ptr<f32>> loc(#loc180)
    tt.return loc(#loc181)
  } loc(#loc)
} loc(#loc)
#loc1 = loc(unknown)
#loc2 = loc("inductor_cache/cv/ccvw4kt2kc6ilhttn7kdkz3vbvweu2sdss6g4o46skvyoos5tfax.py":22:28)
#loc3 = loc("inductor_cache/cv/ccvw4kt2kc6ilhttn7kdkz3vbvweu2sdss6g4o46skvyoos5tfax.py":22:33)
#loc4 = loc("inductor_cache/cv/ccvw4kt2kc6ilhttn7kdkz3vbvweu2sdss6g4o46skvyoos5tfax.py":23:36)
#loc5 = loc("inductor_cache/cv/ccvw4kt2kc6ilhttn7kdkz3vbvweu2sdss6g4o46skvyoos5tfax.py":23:44)
#loc6 = loc("inductor_cache/cv/ccvw4kt2kc6ilhttn7kdkz3vbvweu2sdss6g4o46skvyoos5tfax.py":23:23)
#loc7 = loc("inductor_cache/cv/ccvw4kt2kc6ilhttn7kdkz3vbvweu2sdss6g4o46skvyoos5tfax.py":24:21)
#loc8 = loc("inductor_cache/cv/ccvw4kt2kc6ilhttn7kdkz3vbvweu2sdss6g4o46skvyoos5tfax.py":25:28)
#loc9 = loc("inductor_cache/cv/ccvw4kt2kc6ilhttn7kdkz3vbvweu2sdss6g4o46skvyoos5tfax.py":25:33)
#loc10 = loc("inductor_cache/cv/ccvw4kt2kc6ilhttn7kdkz3vbvweu2sdss6g4o46skvyoos5tfax.py":26:36)
#loc11 = loc("inductor_cache/cv/ccvw4kt2kc6ilhttn7kdkz3vbvweu2sdss6g4o46skvyoos5tfax.py":26:44)
#loc12 = loc("inductor_cache/cv/ccvw4kt2kc6ilhttn7kdkz3vbvweu2sdss6g4o46skvyoos5tfax.py":26:23)
#loc13 = loc("inductor_cache/cv/ccvw4kt2kc6ilhttn7kdkz3vbvweu2sdss6g4o46skvyoos5tfax.py":27:21)
#loc14 = loc("inductor_cache/cv/ccvw4kt2kc6ilhttn7kdkz3vbvweu2sdss6g4o46skvyoos5tfax.py":29:19)
#loc15 = loc("inductor_cache/cv/ccvw4kt2kc6ilhttn7kdkz3vbvweu2sdss6g4o46skvyoos5tfax.py":30:19)
#loc16 = loc("inductor_cache/cv/ccvw4kt2kc6ilhttn7kdkz3vbvweu2sdss6g4o46skvyoos5tfax.py":32:37)
#loc17 = loc("inductor_cache/cv/ccvw4kt2kc6ilhttn7kdkz3vbvweu2sdss6g4o46skvyoos5tfax.py":32:35)
#loc18 = loc("inductor_cache/cv/ccvw4kt2kc6ilhttn7kdkz3vbvweu2sdss6g4o46skvyoos5tfax.py":32:46)
#loc19 = loc("inductor_cache/cv/ccvw4kt2kc6ilhttn7kdkz3vbvweu2sdss6g4o46skvyoos5tfax.py":32:42)
#loc20 = loc("inductor_cache/cv/ccvw4kt2kc6ilhttn7kdkz3vbvweu2sdss6g4o46skvyoos5tfax.py":32:30)
#loc21 = loc("inductor_cache/cv/ccvw4kt2kc6ilhttn7kdkz3vbvweu2sdss6g4o46skvyoos5tfax.py":32:59)
#loc22 = loc("inductor_cache/cv/ccvw4kt2kc6ilhttn7kdkz3vbvweu2sdss6g4o46skvyoos5tfax.py":32:51)
#loc23 = loc("inductor_cache/cv/ccvw4kt2kc6ilhttn7kdkz3vbvweu2sdss6g4o46skvyoos5tfax.py":33:34)
#loc24 = loc("inductor_cache/cv/ccvw4kt2kc6ilhttn7kdkz3vbvweu2sdss6g4o46skvyoos5tfax.py":33:39)
#loc25 = loc("inductor_cache/cv/ccvw4kt2kc6ilhttn7kdkz3vbvweu2sdss6g4o46skvyoos5tfax.py":33:46)
#loc26 = loc("inductor_cache/cv/ccvw4kt2kc6ilhttn7kdkz3vbvweu2sdss6g4o46skvyoos5tfax.py":33:30)
#loc27 = loc("inductor_cache/cv/ccvw4kt2kc6ilhttn7kdkz3vbvweu2sdss6g4o46skvyoos5tfax.py":33:55)
#loc28 = loc("inductor_cache/cv/ccvw4kt2kc6ilhttn7kdkz3vbvweu2sdss6g4o46skvyoos5tfax.py":34:34)
#loc29 = loc("inductor_cache/cv/ccvw4kt2kc6ilhttn7kdkz3vbvweu2sdss6g4o46skvyoos5tfax.py":34:39)
#loc30 = loc("inductor_cache/cv/ccvw4kt2kc6ilhttn7kdkz3vbvweu2sdss6g4o46skvyoos5tfax.py":34:46)
#loc31 = loc("inductor_cache/cv/ccvw4kt2kc6ilhttn7kdkz3vbvweu2sdss6g4o46skvyoos5tfax.py":34:30)
#loc32 = loc("inductor_cache/cv/ccvw4kt2kc6ilhttn7kdkz3vbvweu2sdss6g4o46skvyoos5tfax.py":34:55)
#loc33 = loc("inductor_cache/cv/ccvw4kt2kc6ilhttn7kdkz3vbvweu2sdss6g4o46skvyoos5tfax.py":35:35)
#loc34 = loc("inductor_cache/cv/ccvw4kt2kc6ilhttn7kdkz3vbvweu2sdss6g4o46skvyoos5tfax.py":35:40)
#loc35 = loc("inductor_cache/cv/ccvw4kt2kc6ilhttn7kdkz3vbvweu2sdss6g4o46skvyoos5tfax.py":35:47)
#loc36 = loc("inductor_cache/cv/ccvw4kt2kc6ilhttn7kdkz3vbvweu2sdss6g4o46skvyoos5tfax.py":35:30)
#loc37 = loc("inductor_cache/cv/ccvw4kt2kc6ilhttn7kdkz3vbvweu2sdss6g4o46skvyoos5tfax.py":35:56)
#loc38 = loc("inductor_cache/cv/ccvw4kt2kc6ilhttn7kdkz3vbvweu2sdss6g4o46skvyoos5tfax.py":36:35)
#loc39 = loc("inductor_cache/cv/ccvw4kt2kc6ilhttn7kdkz3vbvweu2sdss6g4o46skvyoos5tfax.py":36:40)
#loc40 = loc("inductor_cache/cv/ccvw4kt2kc6ilhttn7kdkz3vbvweu2sdss6g4o46skvyoos5tfax.py":36:47)
#loc41 = loc("inductor_cache/cv/ccvw4kt2kc6ilhttn7kdkz3vbvweu2sdss6g4o46skvyoos5tfax.py":36:30)
#loc42 = loc("inductor_cache/cv/ccvw4kt2kc6ilhttn7kdkz3vbvweu2sdss6g4o46skvyoos5tfax.py":36:56)
#loc43 = loc("inductor_cache/cv/ccvw4kt2kc6ilhttn7kdkz3vbvweu2sdss6g4o46skvyoos5tfax.py":37:35)
#loc44 = loc("inductor_cache/cv/ccvw4kt2kc6ilhttn7kdkz3vbvweu2sdss6g4o46skvyoos5tfax.py":37:40)
#loc45 = loc("inductor_cache/cv/ccvw4kt2kc6ilhttn7kdkz3vbvweu2sdss6g4o46skvyoos5tfax.py":37:47)
#loc46 = loc("inductor_cache/cv/ccvw4kt2kc6ilhttn7kdkz3vbvweu2sdss6g4o46skvyoos5tfax.py":37:30)
#loc47 = loc("inductor_cache/cv/ccvw4kt2kc6ilhttn7kdkz3vbvweu2sdss6g4o46skvyoos5tfax.py":37:56)
#loc48 = loc("inductor_cache/cv/ccvw4kt2kc6ilhttn7kdkz3vbvweu2sdss6g4o46skvyoos5tfax.py":38:36)
#loc49 = loc("inductor_cache/cv/ccvw4kt2kc6ilhttn7kdkz3vbvweu2sdss6g4o46skvyoos5tfax.py":38:41)
#loc50 = loc("inductor_cache/cv/ccvw4kt2kc6ilhttn7kdkz3vbvweu2sdss6g4o46skvyoos5tfax.py":38:48)
#loc51 = loc("inductor_cache/cv/ccvw4kt2kc6ilhttn7kdkz3vbvweu2sdss6g4o46skvyoos5tfax.py":38:31)
#loc52 = loc("inductor_cache/cv/ccvw4kt2kc6ilhttn7kdkz3vbvweu2sdss6g4o46skvyoos5tfax.py":38:57)
#loc53 = loc("inductor_cache/cv/ccvw4kt2kc6ilhttn7kdkz3vbvweu2sdss6g4o46skvyoos5tfax.py":39:36)
#loc54 = loc("inductor_cache/cv/ccvw4kt2kc6ilhttn7kdkz3vbvweu2sdss6g4o46skvyoos5tfax.py":39:41)
#loc55 = loc("inductor_cache/cv/ccvw4kt2kc6ilhttn7kdkz3vbvweu2sdss6g4o46skvyoos5tfax.py":39:48)
#loc56 = loc("inductor_cache/cv/ccvw4kt2kc6ilhttn7kdkz3vbvweu2sdss6g4o46skvyoos5tfax.py":39:31)
#loc57 = loc("inductor_cache/cv/ccvw4kt2kc6ilhttn7kdkz3vbvweu2sdss6g4o46skvyoos5tfax.py":39:57)
#loc58 = loc("inductor_cache/cv/ccvw4kt2kc6ilhttn7kdkz3vbvweu2sdss6g4o46skvyoos5tfax.py":40:36)
#loc59 = loc("inductor_cache/cv/ccvw4kt2kc6ilhttn7kdkz3vbvweu2sdss6g4o46skvyoos5tfax.py":40:41)
#loc60 = loc("inductor_cache/cv/ccvw4kt2kc6ilhttn7kdkz3vbvweu2sdss6g4o46skvyoos5tfax.py":40:48)
#loc61 = loc("inductor_cache/cv/ccvw4kt2kc6ilhttn7kdkz3vbvweu2sdss6g4o46skvyoos5tfax.py":40:31)
#loc62 = loc("inductor_cache/cv/ccvw4kt2kc6ilhttn7kdkz3vbvweu2sdss6g4o46skvyoos5tfax.py":40:57)
#loc63 = loc("inductor_cache/cv/ccvw4kt2kc6ilhttn7kdkz3vbvweu2sdss6g4o46skvyoos5tfax.py":41:36)
#loc64 = loc("inductor_cache/cv/ccvw4kt2kc6ilhttn7kdkz3vbvweu2sdss6g4o46skvyoos5tfax.py":41:41)
#loc65 = loc("inductor_cache/cv/ccvw4kt2kc6ilhttn7kdkz3vbvweu2sdss6g4o46skvyoos5tfax.py":41:48)
#loc66 = loc("inductor_cache/cv/ccvw4kt2kc6ilhttn7kdkz3vbvweu2sdss6g4o46skvyoos5tfax.py":41:31)
#loc67 = loc("inductor_cache/cv/ccvw4kt2kc6ilhttn7kdkz3vbvweu2sdss6g4o46skvyoos5tfax.py":41:57)
#loc68 = loc("inductor_cache/cv/ccvw4kt2kc6ilhttn7kdkz3vbvweu2sdss6g4o46skvyoos5tfax.py":42:36)
#loc69 = loc("inductor_cache/cv/ccvw4kt2kc6ilhttn7kdkz3vbvweu2sdss6g4o46skvyoos5tfax.py":42:41)
#loc70 = loc("inductor_cache/cv/ccvw4kt2kc6ilhttn7kdkz3vbvweu2sdss6g4o46skvyoos5tfax.py":42:48)
#loc71 = loc("inductor_cache/cv/ccvw4kt2kc6ilhttn7kdkz3vbvweu2sdss6g4o46skvyoos5tfax.py":42:31)
#loc72 = loc("inductor_cache/cv/ccvw4kt2kc6ilhttn7kdkz3vbvweu2sdss6g4o46skvyoos5tfax.py":42:57)
#loc73 = loc("inductor_cache/cv/ccvw4kt2kc6ilhttn7kdkz3vbvweu2sdss6g4o46skvyoos5tfax.py":43:36)
#loc74 = loc("inductor_cache/cv/ccvw4kt2kc6ilhttn7kdkz3vbvweu2sdss6g4o46skvyoos5tfax.py":43:41)
#loc75 = loc("inductor_cache/cv/ccvw4kt2kc6ilhttn7kdkz3vbvweu2sdss6g4o46skvyoos5tfax.py":43:48)
#loc76 = loc("inductor_cache/cv/ccvw4kt2kc6ilhttn7kdkz3vbvweu2sdss6g4o46skvyoos5tfax.py":43:31)
#loc77 = loc("inductor_cache/cv/ccvw4kt2kc6ilhttn7kdkz3vbvweu2sdss6g4o46skvyoos5tfax.py":43:57)
#loc78 = loc("inductor_cache/cv/ccvw4kt2kc6ilhttn7kdkz3vbvweu2sdss6g4o46skvyoos5tfax.py":44:36)
#loc79 = loc("inductor_cache/cv/ccvw4kt2kc6ilhttn7kdkz3vbvweu2sdss6g4o46skvyoos5tfax.py":44:41)
#loc80 = loc("inductor_cache/cv/ccvw4kt2kc6ilhttn7kdkz3vbvweu2sdss6g4o46skvyoos5tfax.py":44:48)
#loc81 = loc("inductor_cache/cv/ccvw4kt2kc6ilhttn7kdkz3vbvweu2sdss6g4o46skvyoos5tfax.py":44:31)
#loc82 = loc("inductor_cache/cv/ccvw4kt2kc6ilhttn7kdkz3vbvweu2sdss6g4o46skvyoos5tfax.py":44:57)
#loc83 = loc("inductor_cache/cv/ccvw4kt2kc6ilhttn7kdkz3vbvweu2sdss6g4o46skvyoos5tfax.py":45:36)
#loc84 = loc("inductor_cache/cv/ccvw4kt2kc6ilhttn7kdkz3vbvweu2sdss6g4o46skvyoos5tfax.py":45:41)
#loc85 = loc("inductor_cache/cv/ccvw4kt2kc6ilhttn7kdkz3vbvweu2sdss6g4o46skvyoos5tfax.py":45:48)
#loc86 = loc("inductor_cache/cv/ccvw4kt2kc6ilhttn7kdkz3vbvweu2sdss6g4o46skvyoos5tfax.py":45:31)
#loc87 = loc("inductor_cache/cv/ccvw4kt2kc6ilhttn7kdkz3vbvweu2sdss6g4o46skvyoos5tfax.py":45:57)
#loc88 = loc("inductor_cache/cv/ccvw4kt2kc6ilhttn7kdkz3vbvweu2sdss6g4o46skvyoos5tfax.py":46:36)
#loc89 = loc("inductor_cache/cv/ccvw4kt2kc6ilhttn7kdkz3vbvweu2sdss6g4o46skvyoos5tfax.py":46:41)
#loc90 = loc("inductor_cache/cv/ccvw4kt2kc6ilhttn7kdkz3vbvweu2sdss6g4o46skvyoos5tfax.py":46:48)
#loc91 = loc("inductor_cache/cv/ccvw4kt2kc6ilhttn7kdkz3vbvweu2sdss6g4o46skvyoos5tfax.py":46:31)
#loc92 = loc("inductor_cache/cv/ccvw4kt2kc6ilhttn7kdkz3vbvweu2sdss6g4o46skvyoos5tfax.py":46:57)
#loc93 = loc("inductor_cache/cv/ccvw4kt2kc6ilhttn7kdkz3vbvweu2sdss6g4o46skvyoos5tfax.py":47:36)
#loc94 = loc("inductor_cache/cv/ccvw4kt2kc6ilhttn7kdkz3vbvweu2sdss6g4o46skvyoos5tfax.py":47:41)
#loc95 = loc("inductor_cache/cv/ccvw4kt2kc6ilhttn7kdkz3vbvweu2sdss6g4o46skvyoos5tfax.py":47:48)
#loc96 = loc("inductor_cache/cv/ccvw4kt2kc6ilhttn7kdkz3vbvweu2sdss6g4o46skvyoos5tfax.py":47:31)
#loc97 = loc("inductor_cache/cv/ccvw4kt2kc6ilhttn7kdkz3vbvweu2sdss6g4o46skvyoos5tfax.py":47:57)
#loc98 = loc("inductor_cache/cv/ccvw4kt2kc6ilhttn7kdkz3vbvweu2sdss6g4o46skvyoos5tfax.py":48:36)
#loc99 = loc("inductor_cache/cv/ccvw4kt2kc6ilhttn7kdkz3vbvweu2sdss6g4o46skvyoos5tfax.py":48:41)
#loc100 = loc("inductor_cache/cv/ccvw4kt2kc6ilhttn7kdkz3vbvweu2sdss6g4o46skvyoos5tfax.py":48:48)
#loc101 = loc("inductor_cache/cv/ccvw4kt2kc6ilhttn7kdkz3vbvweu2sdss6g4o46skvyoos5tfax.py":48:31)
#loc102 = loc("inductor_cache/cv/ccvw4kt2kc6ilhttn7kdkz3vbvweu2sdss6g4o46skvyoos5tfax.py":48:57)
#loc103 = loc("inductor_cache/cv/ccvw4kt2kc6ilhttn7kdkz3vbvweu2sdss6g4o46skvyoos5tfax.py":49:36)
#loc104 = loc("inductor_cache/cv/ccvw4kt2kc6ilhttn7kdkz3vbvweu2sdss6g4o46skvyoos5tfax.py":49:41)
#loc105 = loc("inductor_cache/cv/ccvw4kt2kc6ilhttn7kdkz3vbvweu2sdss6g4o46skvyoos5tfax.py":49:48)
#loc106 = loc("inductor_cache/cv/ccvw4kt2kc6ilhttn7kdkz3vbvweu2sdss6g4o46skvyoos5tfax.py":49:31)
#loc107 = loc("inductor_cache/cv/ccvw4kt2kc6ilhttn7kdkz3vbvweu2sdss6g4o46skvyoos5tfax.py":49:57)
#loc108 = loc("inductor_cache/cv/ccvw4kt2kc6ilhttn7kdkz3vbvweu2sdss6g4o46skvyoos5tfax.py":50:36)
#loc109 = loc("inductor_cache/cv/ccvw4kt2kc6ilhttn7kdkz3vbvweu2sdss6g4o46skvyoos5tfax.py":50:41)
#loc110 = loc("inductor_cache/cv/ccvw4kt2kc6ilhttn7kdkz3vbvweu2sdss6g4o46skvyoos5tfax.py":50:48)
#loc111 = loc("inductor_cache/cv/ccvw4kt2kc6ilhttn7kdkz3vbvweu2sdss6g4o46skvyoos5tfax.py":50:31)
#loc112 = loc("inductor_cache/cv/ccvw4kt2kc6ilhttn7kdkz3vbvweu2sdss6g4o46skvyoos5tfax.py":50:57)
#loc113 = loc("inductor_cache/cv/ccvw4kt2kc6ilhttn7kdkz3vbvweu2sdss6g4o46skvyoos5tfax.py":51:36)
#loc114 = loc("inductor_cache/cv/ccvw4kt2kc6ilhttn7kdkz3vbvweu2sdss6g4o46skvyoos5tfax.py":51:41)
#loc115 = loc("inductor_cache/cv/ccvw4kt2kc6ilhttn7kdkz3vbvweu2sdss6g4o46skvyoos5tfax.py":51:48)
#loc116 = loc("inductor_cache/cv/ccvw4kt2kc6ilhttn7kdkz3vbvweu2sdss6g4o46skvyoos5tfax.py":51:31)
#loc117 = loc("inductor_cache/cv/ccvw4kt2kc6ilhttn7kdkz3vbvweu2sdss6g4o46skvyoos5tfax.py":51:57)
#loc118 = loc("inductor_cache/cv/ccvw4kt2kc6ilhttn7kdkz3vbvweu2sdss6g4o46skvyoos5tfax.py":52:36)
#loc119 = loc("inductor_cache/cv/ccvw4kt2kc6ilhttn7kdkz3vbvweu2sdss6g4o46skvyoos5tfax.py":52:41)
#loc120 = loc("inductor_cache/cv/ccvw4kt2kc6ilhttn7kdkz3vbvweu2sdss6g4o46skvyoos5tfax.py":52:48)
#loc121 = loc("inductor_cache/cv/ccvw4kt2kc6ilhttn7kdkz3vbvweu2sdss6g4o46skvyoos5tfax.py":52:31)
#loc122 = loc("inductor_cache/cv/ccvw4kt2kc6ilhttn7kdkz3vbvweu2sdss6g4o46skvyoos5tfax.py":52:57)
#loc123 = loc("inductor_cache/cv/ccvw4kt2kc6ilhttn7kdkz3vbvweu2sdss6g4o46skvyoos5tfax.py":53:36)
#loc124 = loc("inductor_cache/cv/ccvw4kt2kc6ilhttn7kdkz3vbvweu2sdss6g4o46skvyoos5tfax.py":53:41)
#loc125 = loc("inductor_cache/cv/ccvw4kt2kc6ilhttn7kdkz3vbvweu2sdss6g4o46skvyoos5tfax.py":53:48)
#loc126 = loc("inductor_cache/cv/ccvw4kt2kc6ilhttn7kdkz3vbvweu2sdss6g4o46skvyoos5tfax.py":53:31)
#loc127 = loc("inductor_cache/cv/ccvw4kt2kc6ilhttn7kdkz3vbvweu2sdss6g4o46skvyoos5tfax.py":53:57)
#loc128 = loc("inductor_cache/cv/ccvw4kt2kc6ilhttn7kdkz3vbvweu2sdss6g4o46skvyoos5tfax.py":54:36)
#loc129 = loc("inductor_cache/cv/ccvw4kt2kc6ilhttn7kdkz3vbvweu2sdss6g4o46skvyoos5tfax.py":54:41)
#loc130 = loc("inductor_cache/cv/ccvw4kt2kc6ilhttn7kdkz3vbvweu2sdss6g4o46skvyoos5tfax.py":54:48)
#loc131 = loc("inductor_cache/cv/ccvw4kt2kc6ilhttn7kdkz3vbvweu2sdss6g4o46skvyoos5tfax.py":54:31)
#loc132 = loc("inductor_cache/cv/ccvw4kt2kc6ilhttn7kdkz3vbvweu2sdss6g4o46skvyoos5tfax.py":54:57)
#loc133 = loc("inductor_cache/cv/ccvw4kt2kc6ilhttn7kdkz3vbvweu2sdss6g4o46skvyoos5tfax.py":55:36)
#loc134 = loc("inductor_cache/cv/ccvw4kt2kc6ilhttn7kdkz3vbvweu2sdss6g4o46skvyoos5tfax.py":55:41)
#loc135 = loc("inductor_cache/cv/ccvw4kt2kc6ilhttn7kdkz3vbvweu2sdss6g4o46skvyoos5tfax.py":55:48)
#loc136 = loc("inductor_cache/cv/ccvw4kt2kc6ilhttn7kdkz3vbvweu2sdss6g4o46skvyoos5tfax.py":55:31)
#loc137 = loc("inductor_cache/cv/ccvw4kt2kc6ilhttn7kdkz3vbvweu2sdss6g4o46skvyoos5tfax.py":55:57)
#loc138 = loc("inductor_cache/cv/ccvw4kt2kc6ilhttn7kdkz3vbvweu2sdss6g4o46skvyoos5tfax.py":56:36)
#loc139 = loc("inductor_cache/cv/ccvw4kt2kc6ilhttn7kdkz3vbvweu2sdss6g4o46skvyoos5tfax.py":56:41)
#loc140 = loc("inductor_cache/cv/ccvw4kt2kc6ilhttn7kdkz3vbvweu2sdss6g4o46skvyoos5tfax.py":56:48)
#loc141 = loc("inductor_cache/cv/ccvw4kt2kc6ilhttn7kdkz3vbvweu2sdss6g4o46skvyoos5tfax.py":56:31)
#loc142 = loc("inductor_cache/cv/ccvw4kt2kc6ilhttn7kdkz3vbvweu2sdss6g4o46skvyoos5tfax.py":56:57)
#loc143 = loc("inductor_cache/cv/ccvw4kt2kc6ilhttn7kdkz3vbvweu2sdss6g4o46skvyoos5tfax.py":57:38)
#loc144 = loc("inductor_cache/cv/ccvw4kt2kc6ilhttn7kdkz3vbvweu2sdss6g4o46skvyoos5tfax.py":57:36)
#loc145 = loc("inductor_cache/cv/ccvw4kt2kc6ilhttn7kdkz3vbvweu2sdss6g4o46skvyoos5tfax.py":57:31)
#loc146 = loc("inductor_cache/cv/ccvw4kt2kc6ilhttn7kdkz3vbvweu2sdss6g4o46skvyoos5tfax.py":57:43)
#loc147 = loc("inductor_cache/cv/ccvw4kt2kc6ilhttn7kdkz3vbvweu2sdss6g4o46skvyoos5tfax.py":58:18)
#loc148 = loc("inductor_cache/cv/ccvw4kt2kc6ilhttn7kdkz3vbvweu2sdss6g4o46skvyoos5tfax.py":59:18)
#loc149 = loc("inductor_cache/cv/ccvw4kt2kc6ilhttn7kdkz3vbvweu2sdss6g4o46skvyoos5tfax.py":60:18)
#loc150 = loc("inductor_cache/cv/ccvw4kt2kc6ilhttn7kdkz3vbvweu2sdss6g4o46skvyoos5tfax.py":61:18)
#loc151 = loc("inductor_cache/cv/ccvw4kt2kc6ilhttn7kdkz3vbvweu2sdss6g4o46skvyoos5tfax.py":62:19)
#loc152 = loc("inductor_cache/cv/ccvw4kt2kc6ilhttn7kdkz3vbvweu2sdss6g4o46skvyoos5tfax.py":63:20)
#loc153 = loc("inductor_cache/cv/ccvw4kt2kc6ilhttn7kdkz3vbvweu2sdss6g4o46skvyoos5tfax.py":64:20)
#loc154 = loc("inductor_cache/cv/ccvw4kt2kc6ilhttn7kdkz3vbvweu2sdss6g4o46skvyoos5tfax.py":65:20)
#loc155 = loc("inductor_cache/cv/ccvw4kt2kc6ilhttn7kdkz3vbvweu2sdss6g4o46skvyoos5tfax.py":66:20)
#loc156 = loc("inductor_cache/cv/ccvw4kt2kc6ilhttn7kdkz3vbvweu2sdss6g4o46skvyoos5tfax.py":67:20)
#loc157 = loc("inductor_cache/cv/ccvw4kt2kc6ilhttn7kdkz3vbvweu2sdss6g4o46skvyoos5tfax.py":68:20)
#loc158 = loc("inductor_cache/cv/ccvw4kt2kc6ilhttn7kdkz3vbvweu2sdss6g4o46skvyoos5tfax.py":69:20)
#loc159 = loc("inductor_cache/cv/ccvw4kt2kc6ilhttn7kdkz3vbvweu2sdss6g4o46skvyoos5tfax.py":70:20)
#loc160 = loc("inductor_cache/cv/ccvw4kt2kc6ilhttn7kdkz3vbvweu2sdss6g4o46skvyoos5tfax.py":71:20)
#loc161 = loc("inductor_cache/cv/ccvw4kt2kc6ilhttn7kdkz3vbvweu2sdss6g4o46skvyoos5tfax.py":72:20)
#loc162 = loc("inductor_cache/cv/ccvw4kt2kc6ilhttn7kdkz3vbvweu2sdss6g4o46skvyoos5tfax.py":73:20)
#loc163 = loc("inductor_cache/cv/ccvw4kt2kc6ilhttn7kdkz3vbvweu2sdss6g4o46skvyoos5tfax.py":74:20)
#loc164 = loc("inductor_cache/cv/ccvw4kt2kc6ilhttn7kdkz3vbvweu2sdss6g4o46skvyoos5tfax.py":75:20)
#loc165 = loc("inductor_cache/cv/ccvw4kt2kc6ilhttn7kdkz3vbvweu2sdss6g4o46skvyoos5tfax.py":76:20)
#loc166 = loc("inductor_cache/cv/ccvw4kt2kc6ilhttn7kdkz3vbvweu2sdss6g4o46skvyoos5tfax.py":77:20)
#loc167 = loc("inductor_cache/cv/ccvw4kt2kc6ilhttn7kdkz3vbvweu2sdss6g4o46skvyoos5tfax.py":78:20)
#loc168 = loc("inductor_cache/cv/ccvw4kt2kc6ilhttn7kdkz3vbvweu2sdss6g4o46skvyoos5tfax.py":79:20)
#loc169 = loc("inductor_cache/cv/ccvw4kt2kc6ilhttn7kdkz3vbvweu2sdss6g4o46skvyoos5tfax.py":80:20)
#loc170 = loc("inductor_cache/cv/ccvw4kt2kc6ilhttn7kdkz3vbvweu2sdss6g4o46skvyoos5tfax.py":81:20)
#loc171 = loc("inductor_cache/cv/ccvw4kt2kc6ilhttn7kdkz3vbvweu2sdss6g4o46skvyoos5tfax.py":83:20)
#loc172 = loc("inductor_cache/cv/ccvw4kt2kc6ilhttn7kdkz3vbvweu2sdss6g4o46skvyoos5tfax.py":84:20)
#loc173 = loc("inductor_cache/cv/ccvw4kt2kc6ilhttn7kdkz3vbvweu2sdss6g4o46skvyoos5tfax.py":85:32)
#loc174 = loc("inductor_cache/cv/ccvw4kt2kc6ilhttn7kdkz3vbvweu2sdss6g4o46skvyoos5tfax.py":85:30)
#loc175 = loc("inductor_cache/cv/ccvw4kt2kc6ilhttn7kdkz3vbvweu2sdss6g4o46skvyoos5tfax.py":85:40)
#loc176 = loc("inductor_cache/cv/ccvw4kt2kc6ilhttn7kdkz3vbvweu2sdss6g4o46skvyoos5tfax.py":85:37)
#loc177 = loc("inductor_cache/cv/ccvw4kt2kc6ilhttn7kdkz3vbvweu2sdss6g4o46skvyoos5tfax.py":85:25)
#loc178 = loc("inductor_cache/cv/ccvw4kt2kc6ilhttn7kdkz3vbvweu2sdss6g4o46skvyoos5tfax.py":85:52)
#loc179 = loc("inductor_cache/cv/ccvw4kt2kc6ilhttn7kdkz3vbvweu2sdss6g4o46skvyoos5tfax.py":86:25)
#loc180 = loc("inductor_cache/cv/ccvw4kt2kc6ilhttn7kdkz3vbvweu2sdss6g4o46skvyoos5tfax.py":86:44)
#loc181 = loc("inductor_cache/cv/ccvw4kt2kc6ilhttn7kdkz3vbvweu2sdss6g4o46skvyoos5tfax.py":86:4)
