#loc = loc("inductor_cache/2k/c2ktk7o3iszzameqeugdr3imivwcvh4sg3ao45lshs54pswdywpt.py":19:0)
module {
  tt.func public @triton_poi_fused__native_batch_norm_legit_no_training_add_convolution_max_pool2d_with_indices_13(%arg0: !tt.ptr<f32> {tt.divisibility = 16 : i32} loc("inductor_cache/2k/c2ktk7o3iszzameqeugdr3imivwcvh4sg3ao45lshs54pswdywpt.py":19:0), %arg1: !tt.ptr<f32> {tt.divisibility = 16 : i32} loc("inductor_cache/2k/c2ktk7o3iszzameqeugdr3imivwcvh4sg3ao45lshs54pswdywpt.py":19:0), %arg2: !tt.ptr<f32> {tt.divisibility = 16 : i32} loc("inductor_cache/2k/c2ktk7o3iszzameqeugdr3imivwcvh4sg3ao45lshs54pswdywpt.py":19:0), %arg3: !tt.ptr<f32> {tt.divisibility = 16 : i32} loc("inductor_cache/2k/c2ktk7o3iszzameqeugdr3imivwcvh4sg3ao45lshs54pswdywpt.py":19:0), %arg4: !tt.ptr<f32> {tt.divisibility = 16 : i32} loc("inductor_cache/2k/c2ktk7o3iszzameqeugdr3imivwcvh4sg3ao45lshs54pswdywpt.py":19:0), %arg5: !tt.ptr<f32> {tt.divisibility = 16 : i32} loc("inductor_cache/2k/c2ktk7o3iszzameqeugdr3imivwcvh4sg3ao45lshs54pswdywpt.py":19:0), %arg6: !tt.ptr<f32> {tt.divisibility = 16 : i32} loc("inductor_cache/2k/c2ktk7o3iszzameqeugdr3imivwcvh4sg3ao45lshs54pswdywpt.py":19:0), %arg7: !tt.ptr<i8> {tt.divisibility = 16 : i32} loc("inductor_cache/2k/c2ktk7o3iszzameqeugdr3imivwcvh4sg3ao45lshs54pswdywpt.py":19:0), %arg8: !tt.ptr<f32> {tt.divisibility = 16 : i32} loc("inductor_cache/2k/c2ktk7o3iszzameqeugdr3imivwcvh4sg3ao45lshs54pswdywpt.py":19:0), %arg9: i32 {tt.divisibility = 16 : i32} loc("inductor_cache/2k/c2ktk7o3iszzameqeugdr3imivwcvh4sg3ao45lshs54pswdywpt.py":19:0), %arg10: i32 loc("inductor_cache/2k/c2ktk7o3iszzameqeugdr3imivwcvh4sg3ao45lshs54pswdywpt.py":19:0)) attributes {noinline = false} {
    %cst = arith.constant dense<1.000000e+00> : tensor<32x1xf32> loc(#loc1)
    %cst_0 = arith.constant dense<186368> : tensor<1x32xi32> loc(#loc1)
    %cst_1 = arith.constant dense<256> : tensor<32x1xi32> loc(#loc1)
    %cst_2 = arith.constant dense<9.99999974E-6> : tensor<32x1xf32> loc(#loc1)
    %cst_3 = arith.constant dense<8> : tensor<32x32xi8> loc(#loc1)
    %cst_4 = arith.constant dense<7> : tensor<32x32xi8> loc(#loc1)
    %cst_5 = arith.constant dense<6> : tensor<32x32xi8> loc(#loc1)
    %cst_6 = arith.constant dense<5> : tensor<32x32xi8> loc(#loc1)
    %cst_7 = arith.constant dense<4> : tensor<32x32xi8> loc(#loc1)
    %cst_8 = arith.constant dense<3> : tensor<32x32xi8> loc(#loc1)
    %cst_9 = arith.constant dense<2> : tensor<32x32xi8> loc(#loc1)
    %cst_10 = arith.constant dense<0> : tensor<32x32xi8> loc(#loc1)
    %cst_11 = arith.constant dense<1> : tensor<32x32xi8> loc(#loc1)
    %cst_12 = arith.constant dense<12376> : tensor<32x1xi32> loc(#loc1)
    %cst_13 = arith.constant dense<11648> : tensor<32x1xi32> loc(#loc1)
    %cst_14 = arith.constant dense<10920> : tensor<32x1xi32> loc(#loc1)
    %cst_15 = arith.constant dense<-728> : tensor<32x1xi32> loc(#loc1)
    %cst_16 = arith.constant dense<-10920> : tensor<32x1xi32> loc(#loc1)
    %cst_17 = arith.constant dense<1> : tensor<1x32xi32> loc(#loc1)
    %cst_18 = arith.constant dense<-11648> : tensor<32x1xi32> loc(#loc1)
    %cst_19 = arith.constant dense<0xFF800000> : tensor<32x32xf32> loc(#loc1)
    %cst_20 = arith.constant dense<-12376> : tensor<32x1xi32> loc(#loc1)
    %cst_21 = arith.constant dense<16> : tensor<1x32xi64> loc(#loc1)
    %cst_22 = arith.constant dense<0> : tensor<1x32xi64> loc(#loc1)
    %cst_23 = arith.constant dense<-1> : tensor<1x32xi32> loc(#loc1)
    %cst_24 = arith.constant dense<728> : tensor<1x32xi32> loc(#loc1)
    %cst_25 = arith.constant dense<256> : tensor<1x32xi32> loc(#loc1)
    %cst_26 = arith.constant dense<16> : tensor<1x32xi32> loc(#loc1)
    %cst_27 = arith.constant dense<728> : tensor<32x1xi32> loc(#loc1)
    %c32_i32 = arith.constant 32 : i32 loc(#loc1)
    %0 = tt.get_program_id y : i32 loc(#loc2)
    %1 = arith.muli %0, %c32_i32 : i32 loc(#loc3)
    %2 = tt.make_range {end = 32 : i32, start = 0 : i32} : tensor<32xi32> loc(#loc4)
    %3 = tt.expand_dims %2 {axis = 0 : i32} : tensor<32xi32> -> tensor<1x32xi32> loc(#loc5)
    %4 = tt.splat %1 : i32 -> tensor<1x32xi32> loc(#loc6)
    %5 = arith.addi %4, %3 : tensor<1x32xi32> loc(#loc6)
    %6 = tt.get_program_id x : i32 loc(#loc7)
    %7 = arith.muli %6, %c32_i32 : i32 loc(#loc8)
    %8 = tt.expand_dims %2 {axis = 1 : i32} : tensor<32xi32> -> tensor<32x1xi32> loc(#loc9)
    %9 = tt.splat %7 : i32 -> tensor<32x1xi32> loc(#loc10)
    %10 = arith.addi %9, %8 : tensor<32x1xi32> loc(#loc10)
    %11 = arith.cmpi slt, %10, %cst_27 : tensor<32x1xi32> loc(#loc11)
    %12 = arith.divsi %5, %cst_26 : tensor<1x32xi32> loc(#loc12)
    %13 = arith.remsi %12, %cst_26 : tensor<1x32xi32> loc(#loc13)
    %14 = arith.remsi %5, %cst_26 : tensor<1x32xi32> loc(#loc14)
    %15 = arith.divsi %5, %cst_25 : tensor<1x32xi32> loc(#loc15)
    %16 = arith.remsi %5, %cst_25 : tensor<1x32xi32> loc(#loc16)
    %17 = arith.muli %5, %cst_24 : tensor<1x32xi32> loc(#loc17)
    %18 = tt.broadcast %10 : tensor<32x1xi32> -> tensor<32x32xi32> loc(#loc18)
    %19 = tt.broadcast %17 : tensor<1x32xi32> -> tensor<32x32xi32> loc(#loc18)
    %20 = arith.addi %18, %19 : tensor<32x32xi32> loc(#loc18)
    %21 = tt.splat %arg0 : !tt.ptr<f32> -> tensor<32x32x!tt.ptr<f32>> loc(#loc19)
    %22 = tt.addptr %21, %20 : tensor<32x32x!tt.ptr<f32>>, tensor<32x32xi32> loc(#loc19)
    %23 = tt.broadcast %11 : tensor<32x1xi1> -> tensor<32x32xi1> loc(#loc20)
    %24 = tt.load %22, %23 evictionPolicy = evict_last : tensor<32x32x!tt.ptr<f32>> loc(#loc20)
    %25 = tt.splat %arg2 : !tt.ptr<f32> -> tensor<32x1x!tt.ptr<f32>> loc(#loc21)
    %26 = tt.addptr %25, %10 : tensor<32x1x!tt.ptr<f32>>, tensor<32x1xi32> loc(#loc21)
    %27 = tt.load %26, %11 evictionPolicy = evict_last : tensor<32x1x!tt.ptr<f32>> loc(#loc22)
    %28 = tt.splat %arg3 : !tt.ptr<f32> -> tensor<32x1x!tt.ptr<f32>> loc(#loc23)
    %29 = tt.addptr %28, %10 : tensor<32x1x!tt.ptr<f32>>, tensor<32x1xi32> loc(#loc23)
    %30 = tt.load %29, %11 evictionPolicy = evict_last : tensor<32x1x!tt.ptr<f32>> loc(#loc24)
    %31 = tt.splat %arg4 : !tt.ptr<f32> -> tensor<32x1x!tt.ptr<f32>> loc(#loc25)
    %32 = tt.addptr %31, %10 : tensor<32x1x!tt.ptr<f32>>, tensor<32x1xi32> loc(#loc25)
    %33 = tt.load %32, %11 evictionPolicy = evict_last : tensor<32x1x!tt.ptr<f32>> loc(#loc26)
    %34 = tt.splat %arg5 : !tt.ptr<f32> -> tensor<32x1x!tt.ptr<f32>> loc(#loc27)
    %35 = tt.addptr %34, %10 : tensor<32x1x!tt.ptr<f32>>, tensor<32x1xi32> loc(#loc27)
    %36 = tt.load %35, %11 evictionPolicy = evict_last : tensor<32x1x!tt.ptr<f32>> loc(#loc28)
    %37 = tt.splat %arg6 : !tt.ptr<f32> -> tensor<32x1x!tt.ptr<f32>> loc(#loc29)
    %38 = tt.addptr %37, %10 : tensor<32x1x!tt.ptr<f32>>, tensor<32x1xi32> loc(#loc29)
    %39 = tt.load %38, %11 evictionPolicy = evict_last : tensor<32x1x!tt.ptr<f32>> loc(#loc30)
    %40 = arith.addi %13, %cst_23 : tensor<1x32xi32> loc(#loc31)
    %41 = arith.extsi %40 : tensor<1x32xi32> to tensor<1x32xi64> loc(#loc32)
    %42 = arith.cmpi sge, %41, %cst_22 : tensor<1x32xi64> loc(#loc32)
    %43 = arith.cmpi slt, %41, %cst_21 : tensor<1x32xi64> loc(#loc33)
    %44 = arith.andi %42, %43 : tensor<1x32xi1> loc(#loc34)
    %45 = arith.addi %14, %cst_23 : tensor<1x32xi32> loc(#loc35)
    %46 = arith.extsi %45 : tensor<1x32xi32> to tensor<1x32xi64> loc(#loc36)
    %47 = arith.cmpi sge, %46, %cst_22 : tensor<1x32xi64> loc(#loc36)
    %48 = arith.cmpi slt, %46, %cst_21 : tensor<1x32xi64> loc(#loc37)
    %49 = arith.andi %47, %48 : tensor<1x32xi1> loc(#loc38)
    %50 = arith.andi %44, %49 : tensor<1x32xi1> loc(#loc39)
    %51 = arith.addi %10, %cst_20 : tensor<32x1xi32> loc(#loc40)
    %52 = tt.broadcast %51 : tensor<32x1xi32> -> tensor<32x32xi32> loc(#loc41)
    %53 = arith.addi %52, %19 : tensor<32x32xi32> loc(#loc41)
    %54 = tt.splat %arg1 : !tt.ptr<f32> -> tensor<32x32x!tt.ptr<f32>> loc(#loc42)
    %55 = tt.addptr %54, %53 : tensor<32x32x!tt.ptr<f32>>, tensor<32x32xi32> loc(#loc42)
    %56 = tt.broadcast %50 : tensor<1x32xi1> -> tensor<32x32xi1> loc(#loc43)
    %57 = arith.andi %56, %23 : tensor<32x32xi1> loc(#loc43)
    %58 = tt.load %55, %57, %cst_19 evictionPolicy = evict_last : tensor<32x32x!tt.ptr<f32>> loc(#loc44)
    %59 = arith.extsi %14 : tensor<1x32xi32> to tensor<1x32xi64> loc(#loc45)
    %60 = arith.cmpi sge, %59, %cst_22 : tensor<1x32xi64> loc(#loc45)
    %61 = arith.cmpi slt, %59, %cst_21 : tensor<1x32xi64> loc(#loc46)
    %62 = arith.andi %60, %61 : tensor<1x32xi1> loc(#loc47)
    %63 = arith.andi %44, %62 : tensor<1x32xi1> loc(#loc48)
    %64 = arith.addi %10, %cst_18 : tensor<32x1xi32> loc(#loc49)
    %65 = tt.broadcast %64 : tensor<32x1xi32> -> tensor<32x32xi32> loc(#loc50)
    %66 = arith.addi %65, %19 : tensor<32x32xi32> loc(#loc50)
    %67 = tt.addptr %54, %66 : tensor<32x32x!tt.ptr<f32>>, tensor<32x32xi32> loc(#loc51)
    %68 = tt.broadcast %63 : tensor<1x32xi1> -> tensor<32x32xi1> loc(#loc52)
    %69 = arith.andi %68, %23 : tensor<32x32xi1> loc(#loc52)
    %70 = tt.load %67, %69, %cst_19 evictionPolicy = evict_last : tensor<32x32x!tt.ptr<f32>> loc(#loc53)
    %71 = arith.cmpf ogt, %70, %58 : tensor<32x32xf32> loc(#loc145)
    %72 = arith.cmpf une, %70, %70 : tensor<32x32xf32> loc(#loc146)
    %73 = arith.ori %71, %72 : tensor<32x32xi1> loc(#loc147)
    %74 = arith.select %73, %70, %58 : tensor<32x32xi1>, tensor<32x32xf32> loc(#loc148)
    %75 = arith.addi %14, %cst_17 : tensor<1x32xi32> loc(#loc59)
    %76 = arith.extsi %75 : tensor<1x32xi32> to tensor<1x32xi64> loc(#loc60)
    %77 = arith.cmpi sge, %76, %cst_22 : tensor<1x32xi64> loc(#loc60)
    %78 = arith.cmpi slt, %76, %cst_21 : tensor<1x32xi64> loc(#loc61)
    %79 = arith.andi %77, %78 : tensor<1x32xi1> loc(#loc62)
    %80 = arith.andi %44, %79 : tensor<1x32xi1> loc(#loc63)
    %81 = arith.addi %10, %cst_16 : tensor<32x1xi32> loc(#loc64)
    %82 = tt.broadcast %81 : tensor<32x1xi32> -> tensor<32x32xi32> loc(#loc65)
    %83 = arith.addi %82, %19 : tensor<32x32xi32> loc(#loc65)
    %84 = tt.addptr %54, %83 : tensor<32x32x!tt.ptr<f32>>, tensor<32x32xi32> loc(#loc66)
    %85 = tt.broadcast %80 : tensor<1x32xi1> -> tensor<32x32xi1> loc(#loc67)
    %86 = arith.andi %85, %23 : tensor<32x32xi1> loc(#loc67)
    %87 = tt.load %84, %86, %cst_19 evictionPolicy = evict_last : tensor<32x32x!tt.ptr<f32>> loc(#loc68)
    %88 = arith.cmpf ogt, %87, %74 : tensor<32x32xf32> loc(#loc149)
    %89 = arith.cmpf une, %87, %87 : tensor<32x32xf32> loc(#loc150)
    %90 = arith.ori %88, %89 : tensor<32x32xi1> loc(#loc151)
    %91 = arith.select %90, %87, %74 : tensor<32x32xi1>, tensor<32x32xf32> loc(#loc152)
    %92 = arith.extsi %13 : tensor<1x32xi32> to tensor<1x32xi64> loc(#loc70)
    %93 = arith.cmpi sge, %92, %cst_22 : tensor<1x32xi64> loc(#loc70)
    %94 = arith.cmpi slt, %92, %cst_21 : tensor<1x32xi64> loc(#loc71)
    %95 = arith.andi %93, %94 : tensor<1x32xi1> loc(#loc72)
    %96 = arith.andi %95, %49 : tensor<1x32xi1> loc(#loc73)
    %97 = arith.addi %10, %cst_15 : tensor<32x1xi32> loc(#loc74)
    %98 = tt.broadcast %97 : tensor<32x1xi32> -> tensor<32x32xi32> loc(#loc75)
    %99 = arith.addi %98, %19 : tensor<32x32xi32> loc(#loc75)
    %100 = tt.addptr %54, %99 : tensor<32x32x!tt.ptr<f32>>, tensor<32x32xi32> loc(#loc76)
    %101 = tt.broadcast %96 : tensor<1x32xi1> -> tensor<32x32xi1> loc(#loc77)
    %102 = arith.andi %101, %23 : tensor<32x32xi1> loc(#loc77)
    %103 = tt.load %100, %102, %cst_19 evictionPolicy = evict_last : tensor<32x32x!tt.ptr<f32>> loc(#loc78)
    %104 = arith.cmpf ogt, %103, %91 : tensor<32x32xf32> loc(#loc153)
    %105 = arith.cmpf une, %103, %103 : tensor<32x32xf32> loc(#loc154)
    %106 = arith.ori %104, %105 : tensor<32x32xi1> loc(#loc155)
    %107 = arith.select %106, %103, %91 : tensor<32x32xi1>, tensor<32x32xf32> loc(#loc156)
    %108 = arith.andi %95, %62 : tensor<1x32xi1> loc(#loc80)
    %109 = tt.addptr %54, %20 : tensor<32x32x!tt.ptr<f32>>, tensor<32x32xi32> loc(#loc81)
    %110 = tt.broadcast %108 : tensor<1x32xi1> -> tensor<32x32xi1> loc(#loc82)
    %111 = arith.andi %110, %23 : tensor<32x32xi1> loc(#loc82)
    %112 = tt.load %109, %111, %cst_19 evictionPolicy = evict_last : tensor<32x32x!tt.ptr<f32>> loc(#loc83)
    %113 = arith.cmpf ogt, %112, %107 : tensor<32x32xf32> loc(#loc157)
    %114 = arith.cmpf une, %112, %112 : tensor<32x32xf32> loc(#loc158)
    %115 = arith.ori %113, %114 : tensor<32x32xi1> loc(#loc159)
    %116 = arith.select %115, %112, %107 : tensor<32x32xi1>, tensor<32x32xf32> loc(#loc160)
    %117 = arith.andi %95, %79 : tensor<1x32xi1> loc(#loc85)
    %118 = arith.addi %10, %cst_27 : tensor<32x1xi32> loc(#loc86)
    %119 = tt.broadcast %118 : tensor<32x1xi32> -> tensor<32x32xi32> loc(#loc87)
    %120 = arith.addi %119, %19 : tensor<32x32xi32> loc(#loc87)
    %121 = tt.addptr %54, %120 : tensor<32x32x!tt.ptr<f32>>, tensor<32x32xi32> loc(#loc88)
    %122 = tt.broadcast %117 : tensor<1x32xi1> -> tensor<32x32xi1> loc(#loc89)
    %123 = arith.andi %122, %23 : tensor<32x32xi1> loc(#loc89)
    %124 = tt.load %121, %123, %cst_19 evictionPolicy = evict_last : tensor<32x32x!tt.ptr<f32>> loc(#loc90)
    %125 = arith.cmpf ogt, %124, %116 : tensor<32x32xf32> loc(#loc161)
    %126 = arith.cmpf une, %124, %124 : tensor<32x32xf32> loc(#loc162)
    %127 = arith.ori %125, %126 : tensor<32x32xi1> loc(#loc163)
    %128 = arith.select %127, %124, %116 : tensor<32x32xi1>, tensor<32x32xf32> loc(#loc164)
    %129 = arith.addi %13, %cst_17 : tensor<1x32xi32> loc(#loc92)
    %130 = arith.extsi %129 : tensor<1x32xi32> to tensor<1x32xi64> loc(#loc93)
    %131 = arith.cmpi sge, %130, %cst_22 : tensor<1x32xi64> loc(#loc93)
    %132 = arith.cmpi slt, %130, %cst_21 : tensor<1x32xi64> loc(#loc94)
    %133 = arith.andi %131, %132 : tensor<1x32xi1> loc(#loc95)
    %134 = arith.andi %133, %49 : tensor<1x32xi1> loc(#loc96)
    %135 = arith.addi %10, %cst_14 : tensor<32x1xi32> loc(#loc97)
    %136 = tt.broadcast %135 : tensor<32x1xi32> -> tensor<32x32xi32> loc(#loc98)
    %137 = arith.addi %136, %19 : tensor<32x32xi32> loc(#loc98)
    %138 = tt.addptr %54, %137 : tensor<32x32x!tt.ptr<f32>>, tensor<32x32xi32> loc(#loc99)
    %139 = tt.broadcast %134 : tensor<1x32xi1> -> tensor<32x32xi1> loc(#loc100)
    %140 = arith.andi %139, %23 : tensor<32x32xi1> loc(#loc100)
    %141 = tt.load %138, %140, %cst_19 evictionPolicy = evict_last : tensor<32x32x!tt.ptr<f32>> loc(#loc101)
    %142 = arith.cmpf ogt, %141, %128 : tensor<32x32xf32> loc(#loc165)
    %143 = arith.cmpf une, %141, %141 : tensor<32x32xf32> loc(#loc166)
    %144 = arith.ori %142, %143 : tensor<32x32xi1> loc(#loc167)
    %145 = arith.select %144, %141, %128 : tensor<32x32xi1>, tensor<32x32xf32> loc(#loc168)
    %146 = arith.andi %133, %62 : tensor<1x32xi1> loc(#loc103)
    %147 = arith.addi %10, %cst_13 : tensor<32x1xi32> loc(#loc104)
    %148 = tt.broadcast %147 : tensor<32x1xi32> -> tensor<32x32xi32> loc(#loc105)
    %149 = arith.addi %148, %19 : tensor<32x32xi32> loc(#loc105)
    %150 = tt.addptr %54, %149 : tensor<32x32x!tt.ptr<f32>>, tensor<32x32xi32> loc(#loc106)
    %151 = tt.broadcast %146 : tensor<1x32xi1> -> tensor<32x32xi1> loc(#loc107)
    %152 = arith.andi %151, %23 : tensor<32x32xi1> loc(#loc107)
    %153 = tt.load %150, %152, %cst_19 evictionPolicy = evict_last : tensor<32x32x!tt.ptr<f32>> loc(#loc108)
    %154 = arith.cmpf ogt, %153, %145 : tensor<32x32xf32> loc(#loc169)
    %155 = arith.cmpf une, %153, %153 : tensor<32x32xf32> loc(#loc170)
    %156 = arith.ori %154, %155 : tensor<32x32xi1> loc(#loc171)
    %157 = arith.select %156, %153, %145 : tensor<32x32xi1>, tensor<32x32xf32> loc(#loc172)
    %158 = arith.andi %133, %79 : tensor<1x32xi1> loc(#loc110)
    %159 = arith.addi %10, %cst_12 : tensor<32x1xi32> loc(#loc111)
    %160 = tt.broadcast %159 : tensor<32x1xi32> -> tensor<32x32xi32> loc(#loc112)
    %161 = arith.addi %160, %19 : tensor<32x32xi32> loc(#loc112)
    %162 = tt.addptr %54, %161 : tensor<32x32x!tt.ptr<f32>>, tensor<32x32xi32> loc(#loc113)
    %163 = tt.broadcast %158 : tensor<1x32xi1> -> tensor<32x32xi1> loc(#loc114)
    %164 = arith.andi %163, %23 : tensor<32x32xi1> loc(#loc114)
    %165 = tt.load %162, %164, %cst_19 evictionPolicy = evict_last : tensor<32x32x!tt.ptr<f32>> loc(#loc115)
    %166 = arith.cmpf ogt, %165, %157 : tensor<32x32xf32> loc(#loc173)
    %167 = arith.cmpf une, %165, %165 : tensor<32x32xf32> loc(#loc174)
    %168 = arith.ori %166, %167 : tensor<32x32xi1> loc(#loc175)
    %169 = arith.select %168, %165, %157 : tensor<32x32xi1>, tensor<32x32xf32> loc(#loc176)
    %170 = arith.select %71, %cst_11, %cst_10 : tensor<32x32xi1>, tensor<32x32xi8> loc(#loc117)
    %171 = arith.select %88, %cst_9, %170 : tensor<32x32xi1>, tensor<32x32xi8> loc(#loc118)
    %172 = arith.select %104, %cst_8, %171 : tensor<32x32xi1>, tensor<32x32xi8> loc(#loc119)
    %173 = arith.select %113, %cst_7, %172 : tensor<32x32xi1>, tensor<32x32xi8> loc(#loc120)
    %174 = arith.select %125, %cst_6, %173 : tensor<32x32xi1>, tensor<32x32xi8> loc(#loc121)
    %175 = arith.select %142, %cst_5, %174 : tensor<32x32xi1>, tensor<32x32xi8> loc(#loc122)
    %176 = arith.select %154, %cst_4, %175 : tensor<32x32xi1>, tensor<32x32xi8> loc(#loc123)
    %177 = arith.select %166, %cst_3, %176 : tensor<32x32xi1>, tensor<32x32xi8> loc(#loc124)
    %178 = tt.broadcast %27 : tensor<32x1xf32> -> tensor<32x32xf32> loc(#loc125)
    %179 = arith.addf %24, %178 : tensor<32x32xf32> loc(#loc125)
    %180 = tt.broadcast %30 : tensor<32x1xf32> -> tensor<32x32xf32> loc(#loc126)
    %181 = arith.subf %179, %180 : tensor<32x32xf32> loc(#loc126)
    %182 = arith.addf %33, %cst_2 : tensor<32x1xf32> loc(#loc127)
    %183 = tt.extern_elementwise %182 {libname = "", libpath = "", pure = true, symbol = "__nv_sqrtf"} : (tensor<32x1xf32>) -> tensor<32x1xf32> loc(#loc128)
    %184 = arith.divf %cst, %183 : tensor<32x1xf32> loc(#loc129)
    %185 = tt.broadcast %184 : tensor<32x1xf32> -> tensor<32x32xf32> loc(#loc130)
    %186 = arith.mulf %181, %185 : tensor<32x32xf32> loc(#loc130)
    %187 = tt.broadcast %36 : tensor<32x1xf32> -> tensor<32x32xf32> loc(#loc131)
    %188 = arith.mulf %186, %187 : tensor<32x32xf32> loc(#loc131)
    %189 = tt.broadcast %39 : tensor<32x1xf32> -> tensor<32x32xf32> loc(#loc132)
    %190 = arith.addf %188, %189 : tensor<32x32xf32> loc(#loc132)
    %191 = arith.addf %169, %190 : tensor<32x32xf32> loc(#loc133)
    %192 = tt.splat %arg7 : !tt.ptr<i8> -> tensor<32x32x!tt.ptr<i8>> loc(#loc134)
    %193 = tt.addptr %192, %20 : tensor<32x32x!tt.ptr<i8>>, tensor<32x32xi32> loc(#loc134)
    tt.store %193, %177, %23 : tensor<32x32x!tt.ptr<i8>> loc(#loc135)
    gpu.barrier loc(#loc136)
    tt.store %22, %179, %23 : tensor<32x32x!tt.ptr<f32>> loc(#loc137)
    %194 = arith.muli %10, %cst_1 : tensor<32x1xi32> loc(#loc138)
    %195 = tt.broadcast %16 : tensor<1x32xi32> -> tensor<32x32xi32> loc(#loc139)
    %196 = tt.broadcast %194 : tensor<32x1xi32> -> tensor<32x32xi32> loc(#loc139)
    %197 = arith.addi %195, %196 : tensor<32x32xi32> loc(#loc139)
    %198 = arith.muli %15, %cst_0 : tensor<1x32xi32> loc(#loc140)
    %199 = tt.broadcast %198 : tensor<1x32xi32> -> tensor<32x32xi32> loc(#loc141)
    %200 = arith.addi %197, %199 : tensor<32x32xi32> loc(#loc141)
    %201 = tt.splat %arg8 : !tt.ptr<f32> -> tensor<32x32x!tt.ptr<f32>> loc(#loc142)
    %202 = tt.addptr %201, %200 : tensor<32x32x!tt.ptr<f32>>, tensor<32x32xi32> loc(#loc142)
    tt.store %202, %191, %23 : tensor<32x32x!tt.ptr<f32>> loc(#loc143)
    tt.return loc(#loc144)
  } loc(#loc)
} loc(#loc)
#loc1 = loc(unknown)
#loc2 = loc("inductor_cache/2k/c2ktk7o3iszzameqeugdr3imivwcvh4sg3ao45lshs54pswdywpt.py":22:28)
#loc3 = loc("inductor_cache/2k/c2ktk7o3iszzameqeugdr3imivwcvh4sg3ao45lshs54pswdywpt.py":22:33)
#loc4 = loc("inductor_cache/2k/c2ktk7o3iszzameqeugdr3imivwcvh4sg3ao45lshs54pswdywpt.py":23:36)
#loc5 = loc("inductor_cache/2k/c2ktk7o3iszzameqeugdr3imivwcvh4sg3ao45lshs54pswdywpt.py":23:44)
#loc6 = loc("inductor_cache/2k/c2ktk7o3iszzameqeugdr3imivwcvh4sg3ao45lshs54pswdywpt.py":23:23)
#loc7 = loc("inductor_cache/2k/c2ktk7o3iszzameqeugdr3imivwcvh4sg3ao45lshs54pswdywpt.py":25:28)
#loc8 = loc("inductor_cache/2k/c2ktk7o3iszzameqeugdr3imivwcvh4sg3ao45lshs54pswdywpt.py":25:33)
#loc9 = loc("inductor_cache/2k/c2ktk7o3iszzameqeugdr3imivwcvh4sg3ao45lshs54pswdywpt.py":26:44)
#loc10 = loc("inductor_cache/2k/c2ktk7o3iszzameqeugdr3imivwcvh4sg3ao45lshs54pswdywpt.py":26:23)
#loc11 = loc("inductor_cache/2k/c2ktk7o3iszzameqeugdr3imivwcvh4sg3ao45lshs54pswdywpt.py":27:21)
#loc12 = loc("inductor_cache/2k/c2ktk7o3iszzameqeugdr3imivwcvh4sg3ao45lshs54pswdywpt.py":28:21)
#loc13 = loc("inductor_cache/2k/c2ktk7o3iszzameqeugdr3imivwcvh4sg3ao45lshs54pswdywpt.py":28:27)
#loc14 = loc("inductor_cache/2k/c2ktk7o3iszzameqeugdr3imivwcvh4sg3ao45lshs54pswdywpt.py":29:19)
#loc15 = loc("inductor_cache/2k/c2ktk7o3iszzameqeugdr3imivwcvh4sg3ao45lshs54pswdywpt.py":32:19)
#loc16 = loc("inductor_cache/2k/c2ktk7o3iszzameqeugdr3imivwcvh4sg3ao45lshs54pswdywpt.py":33:19)
#loc17 = loc("inductor_cache/2k/c2ktk7o3iszzameqeugdr3imivwcvh4sg3ao45lshs54pswdywpt.py":34:44)
#loc18 = loc("inductor_cache/2k/c2ktk7o3iszzameqeugdr3imivwcvh4sg3ao45lshs54pswdywpt.py":34:40)
#loc19 = loc("inductor_cache/2k/c2ktk7o3iszzameqeugdr3imivwcvh4sg3ao45lshs54pswdywpt.py":34:35)
#loc20 = loc("inductor_cache/2k/c2ktk7o3iszzameqeugdr3imivwcvh4sg3ao45lshs54pswdywpt.py":34:49)
#loc21 = loc("inductor_cache/2k/c2ktk7o3iszzameqeugdr3imivwcvh4sg3ao45lshs54pswdywpt.py":35:31)
#loc22 = loc("inductor_cache/2k/c2ktk7o3iszzameqeugdr3imivwcvh4sg3ao45lshs54pswdywpt.py":35:36)
#loc23 = loc("inductor_cache/2k/c2ktk7o3iszzameqeugdr3imivwcvh4sg3ao45lshs54pswdywpt.py":36:31)
#loc24 = loc("inductor_cache/2k/c2ktk7o3iszzameqeugdr3imivwcvh4sg3ao45lshs54pswdywpt.py":36:36)
#loc25 = loc("inductor_cache/2k/c2ktk7o3iszzameqeugdr3imivwcvh4sg3ao45lshs54pswdywpt.py":37:31)
#loc26 = loc("inductor_cache/2k/c2ktk7o3iszzameqeugdr3imivwcvh4sg3ao45lshs54pswdywpt.py":37:36)
#loc27 = loc("inductor_cache/2k/c2ktk7o3iszzameqeugdr3imivwcvh4sg3ao45lshs54pswdywpt.py":38:31)
#loc28 = loc("inductor_cache/2k/c2ktk7o3iszzameqeugdr3imivwcvh4sg3ao45lshs54pswdywpt.py":38:36)
#loc29 = loc("inductor_cache/2k/c2ktk7o3iszzameqeugdr3imivwcvh4sg3ao45lshs54pswdywpt.py":39:31)
#loc30 = loc("inductor_cache/2k/c2ktk7o3iszzameqeugdr3imivwcvh4sg3ao45lshs54pswdywpt.py":39:36)
#loc31 = loc("inductor_cache/2k/c2ktk7o3iszzameqeugdr3imivwcvh4sg3ao45lshs54pswdywpt.py":40:18)
#loc32 = loc("inductor_cache/2k/c2ktk7o3iszzameqeugdr3imivwcvh4sg3ao45lshs54pswdywpt.py":42:19)
#loc33 = loc("inductor_cache/2k/c2ktk7o3iszzameqeugdr3imivwcvh4sg3ao45lshs54pswdywpt.py":44:18)
#loc34 = loc("inductor_cache/2k/c2ktk7o3iszzameqeugdr3imivwcvh4sg3ao45lshs54pswdywpt.py":45:18)
#loc35 = loc("inductor_cache/2k/c2ktk7o3iszzameqeugdr3imivwcvh4sg3ao45lshs54pswdywpt.py":46:18)
#loc36 = loc("inductor_cache/2k/c2ktk7o3iszzameqeugdr3imivwcvh4sg3ao45lshs54pswdywpt.py":47:19)
#loc37 = loc("inductor_cache/2k/c2ktk7o3iszzameqeugdr3imivwcvh4sg3ao45lshs54pswdywpt.py":48:18)
#loc38 = loc("inductor_cache/2k/c2ktk7o3iszzameqeugdr3imivwcvh4sg3ao45lshs54pswdywpt.py":49:18)
#loc39 = loc("inductor_cache/2k/c2ktk7o3iszzameqeugdr3imivwcvh4sg3ao45lshs54pswdywpt.py":50:19)
#loc40 = loc("inductor_cache/2k/c2ktk7o3iszzameqeugdr3imivwcvh4sg3ao45lshs54pswdywpt.py":51:42)
#loc41 = loc("inductor_cache/2k/c2ktk7o3iszzameqeugdr3imivwcvh4sg3ao45lshs54pswdywpt.py":51:47)
#loc42 = loc("inductor_cache/2k/c2ktk7o3iszzameqeugdr3imivwcvh4sg3ao45lshs54pswdywpt.py":51:31)
#loc43 = loc("inductor_cache/2k/c2ktk7o3iszzameqeugdr3imivwcvh4sg3ao45lshs54pswdywpt.py":51:64)
#loc44 = loc("inductor_cache/2k/c2ktk7o3iszzameqeugdr3imivwcvh4sg3ao45lshs54pswdywpt.py":51:56)
#loc45 = loc("inductor_cache/2k/c2ktk7o3iszzameqeugdr3imivwcvh4sg3ao45lshs54pswdywpt.py":53:21)
#loc46 = loc("inductor_cache/2k/c2ktk7o3iszzameqeugdr3imivwcvh4sg3ao45lshs54pswdywpt.py":54:20)
#loc47 = loc("inductor_cache/2k/c2ktk7o3iszzameqeugdr3imivwcvh4sg3ao45lshs54pswdywpt.py":55:20)
#loc48 = loc("inductor_cache/2k/c2ktk7o3iszzameqeugdr3imivwcvh4sg3ao45lshs54pswdywpt.py":56:19)
#loc49 = loc("inductor_cache/2k/c2ktk7o3iszzameqeugdr3imivwcvh4sg3ao45lshs54pswdywpt.py":57:42)
#loc50 = loc("inductor_cache/2k/c2ktk7o3iszzameqeugdr3imivwcvh4sg3ao45lshs54pswdywpt.py":57:47)
#loc51 = loc("inductor_cache/2k/c2ktk7o3iszzameqeugdr3imivwcvh4sg3ao45lshs54pswdywpt.py":57:31)
#loc52 = loc("inductor_cache/2k/c2ktk7o3iszzameqeugdr3imivwcvh4sg3ao45lshs54pswdywpt.py":57:64)
#loc53 = loc("inductor_cache/2k/c2ktk7o3iszzameqeugdr3imivwcvh4sg3ao45lshs54pswdywpt.py":57:56)
#loc54 = loc("/home/sahanp/.conda/envs/parity-bench/lib/python3.12/site-packages/torch/_inductor/runtime/triton_helpers.py":118:15)
#loc55 = loc("inductor_cache/2k/c2ktk7o3iszzameqeugdr3imivwcvh4sg3ao45lshs54pswdywpt.py":58:42)
#loc56 = loc("/home/sahanp/.conda/envs/parity-bench/lib/python3.12/site-packages/torch/_inductor/runtime/triton_helpers.py":120:21)
#loc57 = loc("/home/sahanp/.conda/envs/parity-bench/lib/python3.12/site-packages/torch/_inductor/runtime/triton_helpers.py":120:16)
#loc58 = loc("/home/sahanp/.conda/envs/parity-bench/lib/python3.12/site-packages/torch/_inductor/runtime/triton_helpers.py":121:29)
#loc59 = loc("inductor_cache/2k/c2ktk7o3iszzameqeugdr3imivwcvh4sg3ao45lshs54pswdywpt.py":59:16)
#loc60 = loc("inductor_cache/2k/c2ktk7o3iszzameqeugdr3imivwcvh4sg3ao45lshs54pswdywpt.py":60:21)
#loc61 = loc("inductor_cache/2k/c2ktk7o3iszzameqeugdr3imivwcvh4sg3ao45lshs54pswdywpt.py":61:20)
#loc62 = loc("inductor_cache/2k/c2ktk7o3iszzameqeugdr3imivwcvh4sg3ao45lshs54pswdywpt.py":62:20)
#loc63 = loc("inductor_cache/2k/c2ktk7o3iszzameqeugdr3imivwcvh4sg3ao45lshs54pswdywpt.py":63:19)
#loc64 = loc("inductor_cache/2k/c2ktk7o3iszzameqeugdr3imivwcvh4sg3ao45lshs54pswdywpt.py":64:42)
#loc65 = loc("inductor_cache/2k/c2ktk7o3iszzameqeugdr3imivwcvh4sg3ao45lshs54pswdywpt.py":64:47)
#loc66 = loc("inductor_cache/2k/c2ktk7o3iszzameqeugdr3imivwcvh4sg3ao45lshs54pswdywpt.py":64:31)
#loc67 = loc("inductor_cache/2k/c2ktk7o3iszzameqeugdr3imivwcvh4sg3ao45lshs54pswdywpt.py":64:64)
#loc68 = loc("inductor_cache/2k/c2ktk7o3iszzameqeugdr3imivwcvh4sg3ao45lshs54pswdywpt.py":64:56)
#loc69 = loc("inductor_cache/2k/c2ktk7o3iszzameqeugdr3imivwcvh4sg3ao45lshs54pswdywpt.py":65:42)
#loc70 = loc("inductor_cache/2k/c2ktk7o3iszzameqeugdr3imivwcvh4sg3ao45lshs54pswdywpt.py":67:21)
#loc71 = loc("inductor_cache/2k/c2ktk7o3iszzameqeugdr3imivwcvh4sg3ao45lshs54pswdywpt.py":68:20)
#loc72 = loc("inductor_cache/2k/c2ktk7o3iszzameqeugdr3imivwcvh4sg3ao45lshs54pswdywpt.py":69:20)
#loc73 = loc("inductor_cache/2k/c2ktk7o3iszzameqeugdr3imivwcvh4sg3ao45lshs54pswdywpt.py":70:20)
#loc74 = loc("inductor_cache/2k/c2ktk7o3iszzameqeugdr3imivwcvh4sg3ao45lshs54pswdywpt.py":71:40)
#loc75 = loc("inductor_cache/2k/c2ktk7o3iszzameqeugdr3imivwcvh4sg3ao45lshs54pswdywpt.py":71:45)
#loc76 = loc("inductor_cache/2k/c2ktk7o3iszzameqeugdr3imivwcvh4sg3ao45lshs54pswdywpt.py":71:31)
#loc77 = loc("inductor_cache/2k/c2ktk7o3iszzameqeugdr3imivwcvh4sg3ao45lshs54pswdywpt.py":71:62)
#loc78 = loc("inductor_cache/2k/c2ktk7o3iszzameqeugdr3imivwcvh4sg3ao45lshs54pswdywpt.py":71:54)
#loc79 = loc("inductor_cache/2k/c2ktk7o3iszzameqeugdr3imivwcvh4sg3ao45lshs54pswdywpt.py":72:42)
#loc80 = loc("inductor_cache/2k/c2ktk7o3iszzameqeugdr3imivwcvh4sg3ao45lshs54pswdywpt.py":73:20)
#loc81 = loc("inductor_cache/2k/c2ktk7o3iszzameqeugdr3imivwcvh4sg3ao45lshs54pswdywpt.py":74:31)
#loc82 = loc("inductor_cache/2k/c2ktk7o3iszzameqeugdr3imivwcvh4sg3ao45lshs54pswdywpt.py":74:53)
#loc83 = loc("inductor_cache/2k/c2ktk7o3iszzameqeugdr3imivwcvh4sg3ao45lshs54pswdywpt.py":74:45)
#loc84 = loc("inductor_cache/2k/c2ktk7o3iszzameqeugdr3imivwcvh4sg3ao45lshs54pswdywpt.py":75:42)
#loc85 = loc("inductor_cache/2k/c2ktk7o3iszzameqeugdr3imivwcvh4sg3ao45lshs54pswdywpt.py":76:20)
#loc86 = loc("inductor_cache/2k/c2ktk7o3iszzameqeugdr3imivwcvh4sg3ao45lshs54pswdywpt.py":77:37)
#loc87 = loc("inductor_cache/2k/c2ktk7o3iszzameqeugdr3imivwcvh4sg3ao45lshs54pswdywpt.py":77:42)
#loc88 = loc("inductor_cache/2k/c2ktk7o3iszzameqeugdr3imivwcvh4sg3ao45lshs54pswdywpt.py":77:31)
#loc89 = loc("inductor_cache/2k/c2ktk7o3iszzameqeugdr3imivwcvh4sg3ao45lshs54pswdywpt.py":77:59)
#loc90 = loc("inductor_cache/2k/c2ktk7o3iszzameqeugdr3imivwcvh4sg3ao45lshs54pswdywpt.py":77:51)
#loc91 = loc("inductor_cache/2k/c2ktk7o3iszzameqeugdr3imivwcvh4sg3ao45lshs54pswdywpt.py":78:42)
#loc92 = loc("inductor_cache/2k/c2ktk7o3iszzameqeugdr3imivwcvh4sg3ao45lshs54pswdywpt.py":79:16)
#loc93 = loc("inductor_cache/2k/c2ktk7o3iszzameqeugdr3imivwcvh4sg3ao45lshs54pswdywpt.py":80:21)
#loc94 = loc("inductor_cache/2k/c2ktk7o3iszzameqeugdr3imivwcvh4sg3ao45lshs54pswdywpt.py":81:20)
#loc95 = loc("inductor_cache/2k/c2ktk7o3iszzameqeugdr3imivwcvh4sg3ao45lshs54pswdywpt.py":82:20)
#loc96 = loc("inductor_cache/2k/c2ktk7o3iszzameqeugdr3imivwcvh4sg3ao45lshs54pswdywpt.py":83:20)
#loc97 = loc("inductor_cache/2k/c2ktk7o3iszzameqeugdr3imivwcvh4sg3ao45lshs54pswdywpt.py":84:39)
#loc98 = loc("inductor_cache/2k/c2ktk7o3iszzameqeugdr3imivwcvh4sg3ao45lshs54pswdywpt.py":84:44)
#loc99 = loc("inductor_cache/2k/c2ktk7o3iszzameqeugdr3imivwcvh4sg3ao45lshs54pswdywpt.py":84:31)
#loc100 = loc("inductor_cache/2k/c2ktk7o3iszzameqeugdr3imivwcvh4sg3ao45lshs54pswdywpt.py":84:61)
#loc101 = loc("inductor_cache/2k/c2ktk7o3iszzameqeugdr3imivwcvh4sg3ao45lshs54pswdywpt.py":84:53)
#loc102 = loc("inductor_cache/2k/c2ktk7o3iszzameqeugdr3imivwcvh4sg3ao45lshs54pswdywpt.py":85:42)
#loc103 = loc("inductor_cache/2k/c2ktk7o3iszzameqeugdr3imivwcvh4sg3ao45lshs54pswdywpt.py":86:20)
#loc104 = loc("inductor_cache/2k/c2ktk7o3iszzameqeugdr3imivwcvh4sg3ao45lshs54pswdywpt.py":87:39)
#loc105 = loc("inductor_cache/2k/c2ktk7o3iszzameqeugdr3imivwcvh4sg3ao45lshs54pswdywpt.py":87:44)
#loc106 = loc("inductor_cache/2k/c2ktk7o3iszzameqeugdr3imivwcvh4sg3ao45lshs54pswdywpt.py":87:31)
#loc107 = loc("inductor_cache/2k/c2ktk7o3iszzameqeugdr3imivwcvh4sg3ao45lshs54pswdywpt.py":87:61)
#loc108 = loc("inductor_cache/2k/c2ktk7o3iszzameqeugdr3imivwcvh4sg3ao45lshs54pswdywpt.py":87:53)
#loc109 = loc("inductor_cache/2k/c2ktk7o3iszzameqeugdr3imivwcvh4sg3ao45lshs54pswdywpt.py":88:42)
#loc110 = loc("inductor_cache/2k/c2ktk7o3iszzameqeugdr3imivwcvh4sg3ao45lshs54pswdywpt.py":89:20)
#loc111 = loc("inductor_cache/2k/c2ktk7o3iszzameqeugdr3imivwcvh4sg3ao45lshs54pswdywpt.py":90:39)
#loc112 = loc("inductor_cache/2k/c2ktk7o3iszzameqeugdr3imivwcvh4sg3ao45lshs54pswdywpt.py":90:44)
#loc113 = loc("inductor_cache/2k/c2ktk7o3iszzameqeugdr3imivwcvh4sg3ao45lshs54pswdywpt.py":90:31)
#loc114 = loc("inductor_cache/2k/c2ktk7o3iszzameqeugdr3imivwcvh4sg3ao45lshs54pswdywpt.py":90:61)
#loc115 = loc("inductor_cache/2k/c2ktk7o3iszzameqeugdr3imivwcvh4sg3ao45lshs54pswdywpt.py":90:53)
#loc116 = loc("inductor_cache/2k/c2ktk7o3iszzameqeugdr3imivwcvh4sg3ao45lshs54pswdywpt.py":91:42)
#loc117 = loc("inductor_cache/2k/c2ktk7o3iszzameqeugdr3imivwcvh4sg3ao45lshs54pswdywpt.py":95:35)
#loc118 = loc("inductor_cache/2k/c2ktk7o3iszzameqeugdr3imivwcvh4sg3ao45lshs54pswdywpt.py":98:35)
#loc119 = loc("inductor_cache/2k/c2ktk7o3iszzameqeugdr3imivwcvh4sg3ao45lshs54pswdywpt.py":101:35)
#loc120 = loc("inductor_cache/2k/c2ktk7o3iszzameqeugdr3imivwcvh4sg3ao45lshs54pswdywpt.py":104:35)
#loc121 = loc("inductor_cache/2k/c2ktk7o3iszzameqeugdr3imivwcvh4sg3ao45lshs54pswdywpt.py":107:35)
#loc122 = loc("inductor_cache/2k/c2ktk7o3iszzameqeugdr3imivwcvh4sg3ao45lshs54pswdywpt.py":110:35)
#loc123 = loc("inductor_cache/2k/c2ktk7o3iszzameqeugdr3imivwcvh4sg3ao45lshs54pswdywpt.py":113:35)
#loc124 = loc("inductor_cache/2k/c2ktk7o3iszzameqeugdr3imivwcvh4sg3ao45lshs54pswdywpt.py":116:35)
#loc125 = loc("inductor_cache/2k/c2ktk7o3iszzameqeugdr3imivwcvh4sg3ao45lshs54pswdywpt.py":117:20)
#loc126 = loc("inductor_cache/2k/c2ktk7o3iszzameqeugdr3imivwcvh4sg3ao45lshs54pswdywpt.py":118:20)
#loc127 = loc("inductor_cache/2k/c2ktk7o3iszzameqeugdr3imivwcvh4sg3ao45lshs54pswdywpt.py":120:20)
#loc128 = loc("inductor_cache/2k/c2ktk7o3iszzameqeugdr3imivwcvh4sg3ao45lshs54pswdywpt.py":121:27)
#loc129 = loc("inductor_cache/2k/c2ktk7o3iszzameqeugdr3imivwcvh4sg3ao45lshs54pswdywpt.py":123:20)
#loc130 = loc("inductor_cache/2k/c2ktk7o3iszzameqeugdr3imivwcvh4sg3ao45lshs54pswdywpt.py":126:20)
#loc131 = loc("inductor_cache/2k/c2ktk7o3iszzameqeugdr3imivwcvh4sg3ao45lshs54pswdywpt.py":127:20)
#loc132 = loc("inductor_cache/2k/c2ktk7o3iszzameqeugdr3imivwcvh4sg3ao45lshs54pswdywpt.py":128:20)
#loc133 = loc("inductor_cache/2k/c2ktk7o3iszzameqeugdr3imivwcvh4sg3ao45lshs54pswdywpt.py":129:20)
#loc134 = loc("inductor_cache/2k/c2ktk7o3iszzameqeugdr3imivwcvh4sg3ao45lshs54pswdywpt.py":130:25)
#loc135 = loc("inductor_cache/2k/c2ktk7o3iszzameqeugdr3imivwcvh4sg3ao45lshs54pswdywpt.py":130:46)
#loc136 = loc("inductor_cache/2k/c2ktk7o3iszzameqeugdr3imivwcvh4sg3ao45lshs54pswdywpt.py":131:4)
#loc137 = loc("inductor_cache/2k/c2ktk7o3iszzameqeugdr3imivwcvh4sg3ao45lshs54pswdywpt.py":132:49)
#loc138 = loc("inductor_cache/2k/c2ktk7o3iszzameqeugdr3imivwcvh4sg3ao45lshs54pswdywpt.py":133:34)
#loc139 = loc("inductor_cache/2k/c2ktk7o3iszzameqeugdr3imivwcvh4sg3ao45lshs54pswdywpt.py":133:30)
#loc140 = loc("inductor_cache/2k/c2ktk7o3iszzameqeugdr3imivwcvh4sg3ao45lshs54pswdywpt.py":133:46)
#loc141 = loc("inductor_cache/2k/c2ktk7o3iszzameqeugdr3imivwcvh4sg3ao45lshs54pswdywpt.py":133:39)
#loc142 = loc("inductor_cache/2k/c2ktk7o3iszzameqeugdr3imivwcvh4sg3ao45lshs54pswdywpt.py":133:25)
#loc143 = loc("inductor_cache/2k/c2ktk7o3iszzameqeugdr3imivwcvh4sg3ao45lshs54pswdywpt.py":133:58)
#loc144 = loc("inductor_cache/2k/c2ktk7o3iszzameqeugdr3imivwcvh4sg3ao45lshs54pswdywpt.py":133:4)
#loc145 = loc(callsite(#loc54 at #loc55))
#loc146 = loc(callsite(#loc56 at #loc55))
#loc147 = loc(callsite(#loc57 at #loc55))
#loc148 = loc(callsite(#loc58 at #loc55))
#loc149 = loc(callsite(#loc54 at #loc69))
#loc150 = loc(callsite(#loc56 at #loc69))
#loc151 = loc(callsite(#loc57 at #loc69))
#loc152 = loc(callsite(#loc58 at #loc69))
#loc153 = loc(callsite(#loc54 at #loc79))
#loc154 = loc(callsite(#loc56 at #loc79))
#loc155 = loc(callsite(#loc57 at #loc79))
#loc156 = loc(callsite(#loc58 at #loc79))
#loc157 = loc(callsite(#loc54 at #loc84))
#loc158 = loc(callsite(#loc56 at #loc84))
#loc159 = loc(callsite(#loc57 at #loc84))
#loc160 = loc(callsite(#loc58 at #loc84))
#loc161 = loc(callsite(#loc54 at #loc91))
#loc162 = loc(callsite(#loc56 at #loc91))
#loc163 = loc(callsite(#loc57 at #loc91))
#loc164 = loc(callsite(#loc58 at #loc91))
#loc165 = loc(callsite(#loc54 at #loc102))
#loc166 = loc(callsite(#loc56 at #loc102))
#loc167 = loc(callsite(#loc57 at #loc102))
#loc168 = loc(callsite(#loc58 at #loc102))
#loc169 = loc(callsite(#loc54 at #loc109))
#loc170 = loc(callsite(#loc56 at #loc109))
#loc171 = loc(callsite(#loc57 at #loc109))
#loc172 = loc(callsite(#loc58 at #loc109))
#loc173 = loc(callsite(#loc54 at #loc116))
#loc174 = loc(callsite(#loc56 at #loc116))
#loc175 = loc(callsite(#loc57 at #loc116))
#loc176 = loc(callsite(#loc58 at #loc116))
