#loc = loc("inductor_cache/3e/c3ecwei2rataoseyblexmybp46ybodalvyngfnstjm27fe34lihf.py":19:0)
module {
  tt.func public @triton_poi_fused_add_div_relu_3(%arg0: !tt.ptr<f32> {tt.divisibility = 16 : i32} loc("inductor_cache/3e/c3ecwei2rataoseyblexmybp46ybodalvyngfnstjm27fe34lihf.py":19:0), %arg1: !tt.ptr<f32> {tt.divisibility = 16 : i32} loc("inductor_cache/3e/c3ecwei2rataoseyblexmybp46ybodalvyngfnstjm27fe34lihf.py":19:0), %arg2: !tt.ptr<f32> {tt.divisibility = 16 : i32} loc("inductor_cache/3e/c3ecwei2rataoseyblexmybp46ybodalvyngfnstjm27fe34lihf.py":19:0), %arg3: i32 {tt.divisibility = 16 : i32} loc("inductor_cache/3e/c3ecwei2rataoseyblexmybp46ybodalvyngfnstjm27fe34lihf.py":19:0), %arg4: i32 {tt.divisibility = 16 : i32} loc("inductor_cache/3e/c3ecwei2rataoseyblexmybp46ybodalvyngfnstjm27fe34lihf.py":19:0)) attributes {noinline = false} {
    %cst = arith.constant dense<0.000000e+00> : tensor<16x16xf32> loc(#loc1)
    %cst_0 = arith.constant dense<1.000000e-03> : tensor<16x16xf32> loc(#loc1)
    %cst_1 = arith.constant dense<256> : tensor<1x16xi32> loc(#loc1)
    %cst_2 = arith.constant dense<16> : tensor<1x16xi32> loc(#loc1)
    %cst_3 = arith.constant dense<16> : tensor<16x1xi32> loc(#loc1)
    %cst_4 = arith.constant dense<64> : tensor<1x16xi32> loc(#loc1)
    %c16_i32 = arith.constant 16 : i32 loc(#loc1)
    %0 = tt.get_program_id y : i32 loc(#loc2)
    %1 = arith.muli %0, %c16_i32 : i32 loc(#loc3)
    %2 = tt.make_range {end = 16 : i32, start = 0 : i32} : tensor<16xi32> loc(#loc4)
    %3 = tt.expand_dims %2 {axis = 0 : i32} : tensor<16xi32> -> tensor<1x16xi32> loc(#loc5)
    %4 = tt.splat %1 : i32 -> tensor<1x16xi32> loc(#loc6)
    %5 = arith.addi %4, %3 : tensor<1x16xi32> loc(#loc6)
    %6 = arith.cmpi slt, %5, %cst_4 : tensor<1x16xi32> loc(#loc7)
    %7 = tt.get_program_id x : i32 loc(#loc8)
    %8 = arith.muli %7, %c16_i32 : i32 loc(#loc9)
    %9 = tt.expand_dims %2 {axis = 1 : i32} : tensor<16xi32> -> tensor<16x1xi32> loc(#loc10)
    %10 = tt.splat %8 : i32 -> tensor<16x1xi32> loc(#loc11)
    %11 = arith.addi %10, %9 : tensor<16x1xi32> loc(#loc11)
    %12 = arith.cmpi slt, %11, %cst_3 : tensor<16x1xi32> loc(#loc12)
    %13 = arith.remsi %5, %cst_2 : tensor<1x16xi32> loc(#loc13)
    %14 = arith.divsi %5, %cst_2 : tensor<1x16xi32> loc(#loc14)
    %15 = arith.muli %11, %cst_3 : tensor<16x1xi32> loc(#loc15)
    %16 = tt.broadcast %13 : tensor<1x16xi32> -> tensor<16x16xi32> loc(#loc16)
    %17 = tt.broadcast %15 : tensor<16x1xi32> -> tensor<16x16xi32> loc(#loc16)
    %18 = arith.addi %16, %17 : tensor<16x16xi32> loc(#loc16)
    %19 = arith.muli %14, %cst_1 : tensor<1x16xi32> loc(#loc17)
    %20 = tt.broadcast %19 : tensor<1x16xi32> -> tensor<16x16xi32> loc(#loc18)
    %21 = arith.addi %18, %20 : tensor<16x16xi32> loc(#loc18)
    %22 = tt.splat %arg0 : !tt.ptr<f32> -> tensor<16x16x!tt.ptr<f32>> loc(#loc19)
    %23 = tt.addptr %22, %21 : tensor<16x16x!tt.ptr<f32>>, tensor<16x16xi32> loc(#loc19)
    %24 = tt.broadcast %12 : tensor<16x1xi1> -> tensor<16x16xi1> loc(#loc20)
    %25 = tt.broadcast %6 : tensor<1x16xi1> -> tensor<16x16xi1> loc(#loc20)
    %26 = arith.andi %24, %25 : tensor<16x16xi1> loc(#loc20)
    %27 = tt.load %23, %26 evictionPolicy = evict_last : tensor<16x16x!tt.ptr<f32>> loc(#loc21)
    %28 = arith.muli %14, %cst_2 : tensor<1x16xi32> loc(#loc22)
    %29 = tt.broadcast %11 : tensor<16x1xi32> -> tensor<16x16xi32> loc(#loc23)
    %30 = tt.broadcast %28 : tensor<1x16xi32> -> tensor<16x16xi32> loc(#loc23)
    %31 = arith.addi %29, %30 : tensor<16x16xi32> loc(#loc23)
    %32 = tt.splat %arg1 : !tt.ptr<f32> -> tensor<16x16x!tt.ptr<f32>> loc(#loc24)
    %33 = tt.addptr %32, %31 : tensor<16x16x!tt.ptr<f32>>, tensor<16x16xi32> loc(#loc24)
    %34 = tt.load %33, %26 evictionPolicy = evict_last : tensor<16x16x!tt.ptr<f32>> loc(#loc25)
    %35 = arith.cmpf ogt, %cst, %27 : tensor<16x16xf32> loc(#loc36)
    %36 = arith.select %35, %cst, %27 : tensor<16x16xi1>, tensor<16x16xf32> loc(#loc37)
    %37 = arith.addf %36, %cst_0 : tensor<16x16xf32> loc(#loc29)
    %38 = arith.divf %37, %34 : tensor<16x16xf32> loc(#loc30)
    %39 = arith.muli %5, %cst_2 : tensor<1x16xi32> loc(#loc31)
    %40 = tt.broadcast %39 : tensor<1x16xi32> -> tensor<16x16xi32> loc(#loc32)
    %41 = arith.addi %29, %40 : tensor<16x16xi32> loc(#loc32)
    %42 = tt.splat %arg2 : !tt.ptr<f32> -> tensor<16x16x!tt.ptr<f32>> loc(#loc33)
    %43 = tt.addptr %42, %41 : tensor<16x16x!tt.ptr<f32>>, tensor<16x16xi32> loc(#loc33)
    tt.store %43, %38, %26 : tensor<16x16x!tt.ptr<f32>> loc(#loc34)
    tt.return loc(#loc35)
  } loc(#loc)
} loc(#loc)
#loc1 = loc(unknown)
#loc2 = loc("inductor_cache/3e/c3ecwei2rataoseyblexmybp46ybodalvyngfnstjm27fe34lihf.py":22:28)
#loc3 = loc("inductor_cache/3e/c3ecwei2rataoseyblexmybp46ybodalvyngfnstjm27fe34lihf.py":22:33)
#loc4 = loc("inductor_cache/3e/c3ecwei2rataoseyblexmybp46ybodalvyngfnstjm27fe34lihf.py":23:36)
#loc5 = loc("inductor_cache/3e/c3ecwei2rataoseyblexmybp46ybodalvyngfnstjm27fe34lihf.py":23:44)
#loc6 = loc("inductor_cache/3e/c3ecwei2rataoseyblexmybp46ybodalvyngfnstjm27fe34lihf.py":23:23)
#loc7 = loc("inductor_cache/3e/c3ecwei2rataoseyblexmybp46ybodalvyngfnstjm27fe34lihf.py":24:21)
#loc8 = loc("inductor_cache/3e/c3ecwei2rataoseyblexmybp46ybodalvyngfnstjm27fe34lihf.py":25:28)
#loc9 = loc("inductor_cache/3e/c3ecwei2rataoseyblexmybp46ybodalvyngfnstjm27fe34lihf.py":25:33)
#loc10 = loc("inductor_cache/3e/c3ecwei2rataoseyblexmybp46ybodalvyngfnstjm27fe34lihf.py":26:44)
#loc11 = loc("inductor_cache/3e/c3ecwei2rataoseyblexmybp46ybodalvyngfnstjm27fe34lihf.py":26:23)
#loc12 = loc("inductor_cache/3e/c3ecwei2rataoseyblexmybp46ybodalvyngfnstjm27fe34lihf.py":27:21)
#loc13 = loc("inductor_cache/3e/c3ecwei2rataoseyblexmybp46ybodalvyngfnstjm27fe34lihf.py":29:19)
#loc14 = loc("inductor_cache/3e/c3ecwei2rataoseyblexmybp46ybodalvyngfnstjm27fe34lihf.py":30:19)
#loc15 = loc("inductor_cache/3e/c3ecwei2rataoseyblexmybp46ybodalvyngfnstjm27fe34lihf.py":32:38)
#loc16 = loc("inductor_cache/3e/c3ecwei2rataoseyblexmybp46ybodalvyngfnstjm27fe34lihf.py":32:35)
#loc17 = loc("inductor_cache/3e/c3ecwei2rataoseyblexmybp46ybodalvyngfnstjm27fe34lihf.py":32:47)
#loc18 = loc("inductor_cache/3e/c3ecwei2rataoseyblexmybp46ybodalvyngfnstjm27fe34lihf.py":32:43)
#loc19 = loc("inductor_cache/3e/c3ecwei2rataoseyblexmybp46ybodalvyngfnstjm27fe34lihf.py":32:30)
#loc20 = loc("inductor_cache/3e/c3ecwei2rataoseyblexmybp46ybodalvyngfnstjm27fe34lihf.py":32:60)
#loc21 = loc("inductor_cache/3e/c3ecwei2rataoseyblexmybp46ybodalvyngfnstjm27fe34lihf.py":32:52)
#loc22 = loc("inductor_cache/3e/c3ecwei2rataoseyblexmybp46ybodalvyngfnstjm27fe34lihf.py":33:38)
#loc23 = loc("inductor_cache/3e/c3ecwei2rataoseyblexmybp46ybodalvyngfnstjm27fe34lihf.py":33:35)
#loc24 = loc("inductor_cache/3e/c3ecwei2rataoseyblexmybp46ybodalvyngfnstjm27fe34lihf.py":33:30)
#loc25 = loc("inductor_cache/3e/c3ecwei2rataoseyblexmybp46ybodalvyngfnstjm27fe34lihf.py":33:43)
#loc26 = loc("/home/sahanp/.conda/envs/parity-bench/lib/python3.12/site-packages/torch/_inductor/runtime/triton_helpers.py":118:15)
#loc27 = loc("inductor_cache/3e/c3ecwei2rataoseyblexmybp46ybodalvyngfnstjm27fe34lihf.py":35:40)
#loc28 = loc("/home/sahanp/.conda/envs/parity-bench/lib/python3.12/site-packages/torch/_inductor/runtime/triton_helpers.py":121:29)
#loc29 = loc("inductor_cache/3e/c3ecwei2rataoseyblexmybp46ybodalvyngfnstjm27fe34lihf.py":37:18)
#loc30 = loc("inductor_cache/3e/c3ecwei2rataoseyblexmybp46ybodalvyngfnstjm27fe34lihf.py":38:18)
#loc31 = loc("inductor_cache/3e/c3ecwei2rataoseyblexmybp46ybodalvyngfnstjm27fe34lihf.py":39:33)
#loc32 = loc("inductor_cache/3e/c3ecwei2rataoseyblexmybp46ybodalvyngfnstjm27fe34lihf.py":39:30)
#loc33 = loc("inductor_cache/3e/c3ecwei2rataoseyblexmybp46ybodalvyngfnstjm27fe34lihf.py":39:25)
#loc34 = loc("inductor_cache/3e/c3ecwei2rataoseyblexmybp46ybodalvyngfnstjm27fe34lihf.py":39:44)
#loc35 = loc("inductor_cache/3e/c3ecwei2rataoseyblexmybp46ybodalvyngfnstjm27fe34lihf.py":39:4)
#loc36 = loc(callsite(#loc26 at #loc27))
#loc37 = loc(callsite(#loc28 at #loc27))
