#loc = loc("inductor_cache/j3/cj3kpyfkc3u46cfbwlve2ggkj55b36r5tltaxutdhxbinrhfzoj4.py":19:0)
#loc1 = loc(unknown)
#loc64 = loc("inductor_cache/j3/cj3kpyfkc3u46cfbwlve2ggkj55b36r5tltaxutdhxbinrhfzoj4.py":54:39)
#loc74 = loc(callsite(#loc1 at #loc64))
module {
  tt.func public @triton_per_fused_abs_min_sub_sum_21(%arg0: !tt.ptr<f32> {tt.divisibility = 16 : i32} loc("inductor_cache/j3/cj3kpyfkc3u46cfbwlve2ggkj55b36r5tltaxutdhxbinrhfzoj4.py":19:0), %arg1: !tt.ptr<f32> {tt.divisibility = 16 : i32} loc("inductor_cache/j3/cj3kpyfkc3u46cfbwlve2ggkj55b36r5tltaxutdhxbinrhfzoj4.py":19:0), %arg2: !tt.ptr<f32> {tt.divisibility = 16 : i32} loc("inductor_cache/j3/cj3kpyfkc3u46cfbwlve2ggkj55b36r5tltaxutdhxbinrhfzoj4.py":19:0), %arg3: i32 {tt.divisibility = 16 : i32} loc("inductor_cache/j3/cj3kpyfkc3u46cfbwlve2ggkj55b36r5tltaxutdhxbinrhfzoj4.py":19:0), %arg4: i32 loc("inductor_cache/j3/cj3kpyfkc3u46cfbwlve2ggkj55b36r5tltaxutdhxbinrhfzoj4.py":19:0)) attributes {noinline = false} {
    %cst = arith.constant dense<0x7F800000> : tensor<8x32xf32> loc(#loc1)
    %cst_0 = arith.constant dense<48> : tensor<8x1xi32> loc(#loc1)
    %cst_1 = arith.constant dense<1200> : tensor<1x32xi32> loc(#loc1)
    %cst_2 = arith.constant dense<32> : tensor<8x1xi32> loc(#loc1)
    %cst_3 = arith.constant dense<800> : tensor<1x32xi32> loc(#loc1)
    %cst_4 = arith.constant dense<400> : tensor<1x32xi32> loc(#loc1)
    %cst_5 = arith.constant dense<0.000000e+00> : tensor<8x32xf32> loc(#loc1)
    %cst_6 = arith.constant dense<1600> : tensor<8x1xi32> loc(#loc1)
    %cst_7 = arith.constant dense<25> : tensor<8x1xi32> loc(#loc1)
    %cst_8 = arith.constant dense<16> : tensor<8x1xi32> loc(#loc1)
    %cst_9 = arith.constant dense<25> : tensor<1x32xi32> loc(#loc1)
    %cst_10 = arith.constant dense<64> : tensor<8x1xi32> loc(#loc1)
    %c8_i32 = arith.constant 8 : i32 loc(#loc1)
    %0 = tt.get_program_id x : i32 loc(#loc2)
    %1 = arith.muli %0, %c8_i32 : i32 loc(#loc3)
    %2 = tt.make_range {end = 8 : i32, start = 0 : i32} : tensor<8xi32> loc(#loc4)
    %3 = tt.expand_dims %2 {axis = 1 : i32} : tensor<8xi32> -> tensor<8x1xi32> loc(#loc5)
    %4 = tt.splat %1 : i32 -> tensor<8x1xi32> loc(#loc6)
    %5 = arith.addi %4, %3 : tensor<8x1xi32> loc(#loc6)
    %6 = arith.cmpi slt, %5, %cst_10 : tensor<8x1xi32> loc(#loc7)
    %7 = tt.make_range {end = 32 : i32, start = 0 : i32} : tensor<32xi32> loc(#loc8)
    %8 = tt.expand_dims %7 {axis = 0 : i32} : tensor<32xi32> -> tensor<1x32xi32> loc(#loc9)
    %9 = arith.cmpi slt, %8, %cst_9 : tensor<1x32xi32> loc(#loc10)
    %10 = arith.remsi %5, %cst_8 : tensor<8x1xi32> loc(#loc11)
    %11 = arith.divsi %5, %cst_8 : tensor<8x1xi32> loc(#loc12)
    %12 = arith.muli %10, %cst_7 : tensor<8x1xi32> loc(#loc13)
    %13 = tt.broadcast %8 : tensor<1x32xi32> -> tensor<8x32xi32> loc(#loc14)
    %14 = tt.broadcast %12 : tensor<8x1xi32> -> tensor<8x32xi32> loc(#loc14)
    %15 = arith.addi %13, %14 : tensor<8x32xi32> loc(#loc14)
    %16 = arith.muli %11, %cst_6 : tensor<8x1xi32> loc(#loc15)
    %17 = tt.broadcast %16 : tensor<8x1xi32> -> tensor<8x32xi32> loc(#loc16)
    %18 = arith.addi %15, %17 : tensor<8x32xi32> loc(#loc16)
    %19 = tt.splat %arg0 : !tt.ptr<f32> -> tensor<8x32x!tt.ptr<f32>> loc(#loc17)
    %20 = tt.addptr %19, %18 : tensor<8x32x!tt.ptr<f32>>, tensor<8x32xi32> loc(#loc17)
    %21 = tt.broadcast %9 : tensor<1x32xi1> -> tensor<8x32xi1> loc(#loc18)
    %22 = tt.broadcast %6 : tensor<8x1xi1> -> tensor<8x32xi1> loc(#loc18)
    %23 = arith.andi %21, %22 : tensor<8x32xi1> loc(#loc18)
    %24 = tt.load %20, %23, %cst_5 : tensor<8x32x!tt.ptr<f32>> loc(#loc19)
    %25 = arith.muli %11, %cst_10 : tensor<8x1xi32> loc(#loc20)
    %26 = arith.addi %10, %25 : tensor<8x1xi32> loc(#loc21)
    %27 = tt.splat %arg1 : !tt.ptr<f32> -> tensor<8x1x!tt.ptr<f32>> loc(#loc22)
    %28 = tt.addptr %27, %26 : tensor<8x1x!tt.ptr<f32>>, tensor<8x1xi32> loc(#loc22)
    %29 = tt.load %28, %6 evictionPolicy = evict_last : tensor<8x1x!tt.ptr<f32>> loc(#loc23)
    %30 = arith.addi %8, %cst_4 : tensor<1x32xi32> loc(#loc24)
    %31 = tt.broadcast %30 : tensor<1x32xi32> -> tensor<8x32xi32> loc(#loc25)
    %32 = arith.addi %31, %14 : tensor<8x32xi32> loc(#loc25)
    %33 = arith.addi %32, %17 : tensor<8x32xi32> loc(#loc26)
    %34 = tt.addptr %19, %33 : tensor<8x32x!tt.ptr<f32>>, tensor<8x32xi32> loc(#loc27)
    %35 = tt.load %34, %23, %cst_5 : tensor<8x32x!tt.ptr<f32>> loc(#loc28)
    %36 = arith.addi %10, %cst_8 : tensor<8x1xi32> loc(#loc29)
    %37 = arith.addi %36, %25 : tensor<8x1xi32> loc(#loc30)
    %38 = tt.addptr %27, %37 : tensor<8x1x!tt.ptr<f32>>, tensor<8x1xi32> loc(#loc31)
    %39 = tt.load %38, %6 evictionPolicy = evict_last : tensor<8x1x!tt.ptr<f32>> loc(#loc32)
    %40 = arith.addi %8, %cst_3 : tensor<1x32xi32> loc(#loc33)
    %41 = tt.broadcast %40 : tensor<1x32xi32> -> tensor<8x32xi32> loc(#loc34)
    %42 = arith.addi %41, %14 : tensor<8x32xi32> loc(#loc34)
    %43 = arith.addi %42, %17 : tensor<8x32xi32> loc(#loc35)
    %44 = tt.addptr %19, %43 : tensor<8x32x!tt.ptr<f32>>, tensor<8x32xi32> loc(#loc36)
    %45 = tt.load %44, %23, %cst_5 : tensor<8x32x!tt.ptr<f32>> loc(#loc37)
    %46 = arith.addi %10, %cst_2 : tensor<8x1xi32> loc(#loc38)
    %47 = arith.addi %46, %25 : tensor<8x1xi32> loc(#loc39)
    %48 = tt.addptr %27, %47 : tensor<8x1x!tt.ptr<f32>>, tensor<8x1xi32> loc(#loc40)
    %49 = tt.load %48, %6 evictionPolicy = evict_last : tensor<8x1x!tt.ptr<f32>> loc(#loc41)
    %50 = arith.addi %8, %cst_1 : tensor<1x32xi32> loc(#loc42)
    %51 = tt.broadcast %50 : tensor<1x32xi32> -> tensor<8x32xi32> loc(#loc43)
    %52 = arith.addi %51, %14 : tensor<8x32xi32> loc(#loc43)
    %53 = arith.addi %52, %17 : tensor<8x32xi32> loc(#loc44)
    %54 = tt.addptr %19, %53 : tensor<8x32x!tt.ptr<f32>>, tensor<8x32xi32> loc(#loc45)
    %55 = tt.load %54, %23, %cst_5 : tensor<8x32x!tt.ptr<f32>> loc(#loc46)
    %56 = arith.addi %10, %cst_0 : tensor<8x1xi32> loc(#loc47)
    %57 = arith.addi %56, %25 : tensor<8x1xi32> loc(#loc48)
    %58 = tt.addptr %27, %57 : tensor<8x1x!tt.ptr<f32>>, tensor<8x1xi32> loc(#loc49)
    %59 = tt.load %58, %6 evictionPolicy = evict_last : tensor<8x1x!tt.ptr<f32>> loc(#loc50)
    %60 = tt.broadcast %29 : tensor<8x1xf32> -> tensor<8x32xf32> loc(#loc51)
    %61 = arith.subf %24, %60 : tensor<8x32xf32> loc(#loc51)
    %62 = math.absf %61 : tensor<8x32xf32> loc(#loc52)
    %63 = tt.broadcast %39 : tensor<8x1xf32> -> tensor<8x32xf32> loc(#loc53)
    %64 = arith.subf %35, %63 : tensor<8x32xf32> loc(#loc53)
    %65 = math.absf %64 : tensor<8x32xf32> loc(#loc54)
    %66 = arith.addf %62, %65 : tensor<8x32xf32> loc(#loc55)
    %67 = tt.broadcast %49 : tensor<8x1xf32> -> tensor<8x32xf32> loc(#loc56)
    %68 = arith.subf %45, %67 : tensor<8x32xf32> loc(#loc56)
    %69 = math.absf %68 : tensor<8x32xf32> loc(#loc57)
    %70 = arith.addf %66, %69 : tensor<8x32xf32> loc(#loc58)
    %71 = tt.broadcast %59 : tensor<8x1xf32> -> tensor<8x32xf32> loc(#loc59)
    %72 = arith.subf %55, %71 : tensor<8x32xf32> loc(#loc59)
    %73 = math.absf %72 : tensor<8x32xf32> loc(#loc60)
    %74 = arith.addf %70, %73 : tensor<8x32xf32> loc(#loc61)
    %75 = arith.select %23, %74, %cst : tensor<8x32xi1>, tensor<8x32xf32> loc(#loc62)
    %76 = "tt.reduce"(%75) <{axis = 1 : i32}> ({
    ^bb0(%arg5: f32 loc(callsite(#loc1 at #loc64)), %arg6: f32 loc(callsite(#loc1 at #loc64))):
      %80 = arith.cmpf olt, %arg5, %arg6 : f32 loc(#loc79)
      %81 = arith.cmpf une, %arg5, %arg5 : f32 loc(#loc80)
      %82 = arith.ori %80, %81 : i1 loc(#loc81)
      %83 = arith.select %82, %arg5, %arg6 : f32 loc(#loc82)
      tt.reduce.return %83 : f32 loc(#loc73)
    }) : (tensor<8x32xf32>) -> tensor<8xf32> loc(#loc73)
    %77 = tt.expand_dims %76 {axis = 1 : i32} : tensor<8xf32> -> tensor<8x1xf32> loc(#loc69)
    %78 = tt.splat %arg2 : !tt.ptr<f32> -> tensor<8x1x!tt.ptr<f32>> loc(#loc70)
    %79 = tt.addptr %78, %5 : tensor<8x1x!tt.ptr<f32>>, tensor<8x1xi32> loc(#loc70)
    tt.store %79, %77, %6 : tensor<8x1x!tt.ptr<f32>> loc(#loc71)
    tt.return loc(#loc72)
  } loc(#loc)
} loc(#loc)
#loc2 = loc("inductor_cache/j3/cj3kpyfkc3u46cfbwlve2ggkj55b36r5tltaxutdhxbinrhfzoj4.py":23:28)
#loc3 = loc("inductor_cache/j3/cj3kpyfkc3u46cfbwlve2ggkj55b36r5tltaxutdhxbinrhfzoj4.py":23:33)
#loc4 = loc("inductor_cache/j3/cj3kpyfkc3u46cfbwlve2ggkj55b36r5tltaxutdhxbinrhfzoj4.py":24:36)
#loc5 = loc("inductor_cache/j3/cj3kpyfkc3u46cfbwlve2ggkj55b36r5tltaxutdhxbinrhfzoj4.py":24:44)
#loc6 = loc("inductor_cache/j3/cj3kpyfkc3u46cfbwlve2ggkj55b36r5tltaxutdhxbinrhfzoj4.py":24:23)
#loc7 = loc("inductor_cache/j3/cj3kpyfkc3u46cfbwlve2ggkj55b36r5tltaxutdhxbinrhfzoj4.py":25:21)
#loc8 = loc("inductor_cache/j3/cj3kpyfkc3u46cfbwlve2ggkj55b36r5tltaxutdhxbinrhfzoj4.py":26:26)
#loc9 = loc("inductor_cache/j3/cj3kpyfkc3u46cfbwlve2ggkj55b36r5tltaxutdhxbinrhfzoj4.py":26:34)
#loc10 = loc("inductor_cache/j3/cj3kpyfkc3u46cfbwlve2ggkj55b36r5tltaxutdhxbinrhfzoj4.py":28:21)
#loc11 = loc("inductor_cache/j3/cj3kpyfkc3u46cfbwlve2ggkj55b36r5tltaxutdhxbinrhfzoj4.py":30:19)
#loc12 = loc("inductor_cache/j3/cj3kpyfkc3u46cfbwlve2ggkj55b36r5tltaxutdhxbinrhfzoj4.py":31:19)
#loc13 = loc("inductor_cache/j3/cj3kpyfkc3u46cfbwlve2ggkj55b36r5tltaxutdhxbinrhfzoj4.py":33:38)
#loc14 = loc("inductor_cache/j3/cj3kpyfkc3u46cfbwlve2ggkj55b36r5tltaxutdhxbinrhfzoj4.py":33:35)
#loc15 = loc("inductor_cache/j3/cj3kpyfkc3u46cfbwlve2ggkj55b36r5tltaxutdhxbinrhfzoj4.py":33:48)
#loc16 = loc("inductor_cache/j3/cj3kpyfkc3u46cfbwlve2ggkj55b36r5tltaxutdhxbinrhfzoj4.py":33:43)
#loc17 = loc("inductor_cache/j3/cj3kpyfkc3u46cfbwlve2ggkj55b36r5tltaxutdhxbinrhfzoj4.py":33:30)
#loc18 = loc("inductor_cache/j3/cj3kpyfkc3u46cfbwlve2ggkj55b36r5tltaxutdhxbinrhfzoj4.py":33:61)
#loc19 = loc("inductor_cache/j3/cj3kpyfkc3u46cfbwlve2ggkj55b36r5tltaxutdhxbinrhfzoj4.py":33:53)
#loc20 = loc("inductor_cache/j3/cj3kpyfkc3u46cfbwlve2ggkj55b36r5tltaxutdhxbinrhfzoj4.py":34:38)
#loc21 = loc("inductor_cache/j3/cj3kpyfkc3u46cfbwlve2ggkj55b36r5tltaxutdhxbinrhfzoj4.py":34:35)
#loc22 = loc("inductor_cache/j3/cj3kpyfkc3u46cfbwlve2ggkj55b36r5tltaxutdhxbinrhfzoj4.py":34:30)
#loc23 = loc("inductor_cache/j3/cj3kpyfkc3u46cfbwlve2ggkj55b36r5tltaxutdhxbinrhfzoj4.py":34:43)
#loc24 = loc("inductor_cache/j3/cj3kpyfkc3u46cfbwlve2ggkj55b36r5tltaxutdhxbinrhfzoj4.py":35:36)
#loc25 = loc("inductor_cache/j3/cj3kpyfkc3u46cfbwlve2ggkj55b36r5tltaxutdhxbinrhfzoj4.py":35:41)
#loc26 = loc("inductor_cache/j3/cj3kpyfkc3u46cfbwlve2ggkj55b36r5tltaxutdhxbinrhfzoj4.py":35:49)
#loc27 = loc("inductor_cache/j3/cj3kpyfkc3u46cfbwlve2ggkj55b36r5tltaxutdhxbinrhfzoj4.py":35:30)
#loc28 = loc("inductor_cache/j3/cj3kpyfkc3u46cfbwlve2ggkj55b36r5tltaxutdhxbinrhfzoj4.py":35:59)
#loc29 = loc("inductor_cache/j3/cj3kpyfkc3u46cfbwlve2ggkj55b36r5tltaxutdhxbinrhfzoj4.py":36:35)
#loc30 = loc("inductor_cache/j3/cj3kpyfkc3u46cfbwlve2ggkj55b36r5tltaxutdhxbinrhfzoj4.py":36:40)
#loc31 = loc("inductor_cache/j3/cj3kpyfkc3u46cfbwlve2ggkj55b36r5tltaxutdhxbinrhfzoj4.py":36:30)
#loc32 = loc("inductor_cache/j3/cj3kpyfkc3u46cfbwlve2ggkj55b36r5tltaxutdhxbinrhfzoj4.py":36:48)
#loc33 = loc("inductor_cache/j3/cj3kpyfkc3u46cfbwlve2ggkj55b36r5tltaxutdhxbinrhfzoj4.py":37:36)
#loc34 = loc("inductor_cache/j3/cj3kpyfkc3u46cfbwlve2ggkj55b36r5tltaxutdhxbinrhfzoj4.py":37:41)
#loc35 = loc("inductor_cache/j3/cj3kpyfkc3u46cfbwlve2ggkj55b36r5tltaxutdhxbinrhfzoj4.py":37:49)
#loc36 = loc("inductor_cache/j3/cj3kpyfkc3u46cfbwlve2ggkj55b36r5tltaxutdhxbinrhfzoj4.py":37:30)
#loc37 = loc("inductor_cache/j3/cj3kpyfkc3u46cfbwlve2ggkj55b36r5tltaxutdhxbinrhfzoj4.py":37:59)
#loc38 = loc("inductor_cache/j3/cj3kpyfkc3u46cfbwlve2ggkj55b36r5tltaxutdhxbinrhfzoj4.py":38:36)
#loc39 = loc("inductor_cache/j3/cj3kpyfkc3u46cfbwlve2ggkj55b36r5tltaxutdhxbinrhfzoj4.py":38:41)
#loc40 = loc("inductor_cache/j3/cj3kpyfkc3u46cfbwlve2ggkj55b36r5tltaxutdhxbinrhfzoj4.py":38:31)
#loc41 = loc("inductor_cache/j3/cj3kpyfkc3u46cfbwlve2ggkj55b36r5tltaxutdhxbinrhfzoj4.py":38:49)
#loc42 = loc("inductor_cache/j3/cj3kpyfkc3u46cfbwlve2ggkj55b36r5tltaxutdhxbinrhfzoj4.py":39:38)
#loc43 = loc("inductor_cache/j3/cj3kpyfkc3u46cfbwlve2ggkj55b36r5tltaxutdhxbinrhfzoj4.py":39:43)
#loc44 = loc("inductor_cache/j3/cj3kpyfkc3u46cfbwlve2ggkj55b36r5tltaxutdhxbinrhfzoj4.py":39:51)
#loc45 = loc("inductor_cache/j3/cj3kpyfkc3u46cfbwlve2ggkj55b36r5tltaxutdhxbinrhfzoj4.py":39:31)
#loc46 = loc("inductor_cache/j3/cj3kpyfkc3u46cfbwlve2ggkj55b36r5tltaxutdhxbinrhfzoj4.py":39:61)
#loc47 = loc("inductor_cache/j3/cj3kpyfkc3u46cfbwlve2ggkj55b36r5tltaxutdhxbinrhfzoj4.py":40:36)
#loc48 = loc("inductor_cache/j3/cj3kpyfkc3u46cfbwlve2ggkj55b36r5tltaxutdhxbinrhfzoj4.py":40:41)
#loc49 = loc("inductor_cache/j3/cj3kpyfkc3u46cfbwlve2ggkj55b36r5tltaxutdhxbinrhfzoj4.py":40:31)
#loc50 = loc("inductor_cache/j3/cj3kpyfkc3u46cfbwlve2ggkj55b36r5tltaxutdhxbinrhfzoj4.py":40:49)
#loc51 = loc("inductor_cache/j3/cj3kpyfkc3u46cfbwlve2ggkj55b36r5tltaxutdhxbinrhfzoj4.py":41:18)
#loc52 = loc("inductor_cache/j3/cj3kpyfkc3u46cfbwlve2ggkj55b36r5tltaxutdhxbinrhfzoj4.py":42:23)
#loc53 = loc("inductor_cache/j3/cj3kpyfkc3u46cfbwlve2ggkj55b36r5tltaxutdhxbinrhfzoj4.py":43:18)
#loc54 = loc("inductor_cache/j3/cj3kpyfkc3u46cfbwlve2ggkj55b36r5tltaxutdhxbinrhfzoj4.py":44:23)
#loc55 = loc("inductor_cache/j3/cj3kpyfkc3u46cfbwlve2ggkj55b36r5tltaxutdhxbinrhfzoj4.py":45:18)
#loc56 = loc("inductor_cache/j3/cj3kpyfkc3u46cfbwlve2ggkj55b36r5tltaxutdhxbinrhfzoj4.py":46:19)
#loc57 = loc("inductor_cache/j3/cj3kpyfkc3u46cfbwlve2ggkj55b36r5tltaxutdhxbinrhfzoj4.py":47:24)
#loc58 = loc("inductor_cache/j3/cj3kpyfkc3u46cfbwlve2ggkj55b36r5tltaxutdhxbinrhfzoj4.py":48:19)
#loc59 = loc("inductor_cache/j3/cj3kpyfkc3u46cfbwlve2ggkj55b36r5tltaxutdhxbinrhfzoj4.py":49:20)
#loc60 = loc("inductor_cache/j3/cj3kpyfkc3u46cfbwlve2ggkj55b36r5tltaxutdhxbinrhfzoj4.py":50:24)
#loc61 = loc("inductor_cache/j3/cj3kpyfkc3u46cfbwlve2ggkj55b36r5tltaxutdhxbinrhfzoj4.py":51:20)
#loc62 = loc("inductor_cache/j3/cj3kpyfkc3u46cfbwlve2ggkj55b36r5tltaxutdhxbinrhfzoj4.py":53:43)
#loc63 = loc("/home/sahanp/.conda/envs/parity-bench/lib/python3.12/site-packages/torch/_inductor/runtime/triton_helpers.py":126:29)
#loc65 = loc("/home/sahanp/.conda/envs/parity-bench/lib/python3.12/site-packages/torch/_inductor/runtime/triton_helpers.py":110:15)
#loc66 = loc("/home/sahanp/.conda/envs/parity-bench/lib/python3.12/site-packages/torch/_inductor/runtime/triton_helpers.py":112:21)
#loc67 = loc("/home/sahanp/.conda/envs/parity-bench/lib/python3.12/site-packages/torch/_inductor/runtime/triton_helpers.py":112:16)
#loc68 = loc("/home/sahanp/.conda/envs/parity-bench/lib/python3.12/site-packages/torch/_inductor/runtime/triton_helpers.py":113:29)
#loc69 = loc("inductor_cache/j3/cj3kpyfkc3u46cfbwlve2ggkj55b36r5tltaxutdhxbinrhfzoj4.py":54:42)
#loc70 = loc("inductor_cache/j3/cj3kpyfkc3u46cfbwlve2ggkj55b36r5tltaxutdhxbinrhfzoj4.py":55:25)
#loc71 = loc("inductor_cache/j3/cj3kpyfkc3u46cfbwlve2ggkj55b36r5tltaxutdhxbinrhfzoj4.py":55:37)
#loc72 = loc("inductor_cache/j3/cj3kpyfkc3u46cfbwlve2ggkj55b36r5tltaxutdhxbinrhfzoj4.py":55:4)
#loc73 = loc(callsite(#loc63 at #loc64))
#loc75 = loc(callsite(#loc65 at #loc63))
#loc76 = loc(callsite(#loc66 at #loc63))
#loc77 = loc(callsite(#loc67 at #loc63))
#loc78 = loc(callsite(#loc68 at #loc63))
#loc79 = loc(callsite(#loc75 at #loc64))
#loc80 = loc(callsite(#loc76 at #loc64))
#loc81 = loc(callsite(#loc77 at #loc64))
#loc82 = loc(callsite(#loc78 at #loc64))
