#loc = loc("inductor_cache/24/c24jvlhd54cansafjpv2vq4noyzsorv73ev6cqcmtia6gbr4keij.py":19:0)
module {
  tt.func public @triton_poi_fused_add_mul_0(%arg0: !tt.ptr<f32> {tt.divisibility = 16 : i32} loc("inductor_cache/24/c24jvlhd54cansafjpv2vq4noyzsorv73ev6cqcmtia6gbr4keij.py":19:0), %arg1: !tt.ptr<f32> {tt.divisibility = 16 : i32} loc("inductor_cache/24/c24jvlhd54cansafjpv2vq4noyzsorv73ev6cqcmtia6gbr4keij.py":19:0), %arg2: !tt.ptr<f32> {tt.divisibility = 16 : i32} loc("inductor_cache/24/c24jvlhd54cansafjpv2vq4noyzsorv73ev6cqcmtia6gbr4keij.py":19:0), %arg3: i32 {tt.divisibility = 16 : i32} loc("inductor_cache/24/c24jvlhd54cansafjpv2vq4noyzsorv73ev6cqcmtia6gbr4keij.py":19:0)) attributes {noinline = false} {
    %cst = arith.constant dense<320> : tensor<64xi32> loc(#loc1)
    %c5_i32 = arith.constant 5 : i32 loc(#loc1)
    %cst_0 = arith.constant dense<256> : tensor<64xi32> loc(#loc1)
    %c4_i32 = arith.constant 4 : i32 loc(#loc1)
    %cst_1 = arith.constant dense<192> : tensor<64xi32> loc(#loc1)
    %c3_i32 = arith.constant 3 : i32 loc(#loc1)
    %cst_2 = arith.constant dense<128> : tensor<64xi32> loc(#loc1)
    %c2_i32 = arith.constant 2 : i32 loc(#loc1)
    %c1_i32 = arith.constant 1 : i32 loc(#loc1)
    %c0_i32 = arith.constant 0 : i32 loc(#loc1)
    %cst_3 = arith.constant dense<64> : tensor<64xi32> loc(#loc1)
    %c64_i32 = arith.constant 64 : i32 loc(#loc1)
    %0 = tt.get_program_id x : i32 loc(#loc2)
    %1 = arith.muli %0, %c64_i32 : i32 loc(#loc3)
    %2 = tt.make_range {end = 64 : i32, start = 0 : i32} : tensor<64xi32> loc(#loc4)
    %3 = tt.splat %1 : i32 -> tensor<64xi32> loc(#loc5)
    %4 = arith.addi %3, %2 : tensor<64xi32> loc(#loc5)
    %5 = arith.cmpi slt, %4, %cst_3 : tensor<64xi32> loc(#loc6)
    %6 = tt.addptr %arg1, %c0_i32 : !tt.ptr<f32>, i32 loc(#loc7)
    %7 = tt.load %6 : !tt.ptr<f32> loc(#loc8)
    %8 = tt.splat %7 : f32 -> tensor<64xf32> loc(#loc9)
    %9 = tt.splat %arg2 : !tt.ptr<f32> -> tensor<64x!tt.ptr<f32>> loc(#loc10)
    %10 = tt.addptr %9, %4 : tensor<64x!tt.ptr<f32>>, tensor<64xi32> loc(#loc10)
    %11 = tt.load %10, %5 : tensor<64x!tt.ptr<f32>> loc(#loc11)
    %12 = tt.addptr %arg1, %c1_i32 : !tt.ptr<f32>, i32 loc(#loc12)
    %13 = tt.load %12 : !tt.ptr<f32> loc(#loc13)
    %14 = tt.splat %13 : f32 -> tensor<64xf32> loc(#loc14)
    %15 = arith.addi %4, %cst_3 : tensor<64xi32> loc(#loc15)
    %16 = tt.addptr %9, %15 : tensor<64x!tt.ptr<f32>>, tensor<64xi32> loc(#loc16)
    %17 = tt.load %16, %5 : tensor<64x!tt.ptr<f32>> loc(#loc17)
    %18 = tt.addptr %arg1, %c2_i32 : !tt.ptr<f32>, i32 loc(#loc18)
    %19 = tt.load %18 : !tt.ptr<f32> loc(#loc19)
    %20 = tt.splat %19 : f32 -> tensor<64xf32> loc(#loc20)
    %21 = arith.addi %4, %cst_2 : tensor<64xi32> loc(#loc21)
    %22 = tt.addptr %9, %21 : tensor<64x!tt.ptr<f32>>, tensor<64xi32> loc(#loc22)
    %23 = tt.load %22, %5 : tensor<64x!tt.ptr<f32>> loc(#loc23)
    %24 = tt.addptr %arg1, %c3_i32 : !tt.ptr<f32>, i32 loc(#loc24)
    %25 = tt.load %24 : !tt.ptr<f32> loc(#loc25)
    %26 = tt.splat %25 : f32 -> tensor<64xf32> loc(#loc26)
    %27 = arith.addi %4, %cst_1 : tensor<64xi32> loc(#loc27)
    %28 = tt.addptr %9, %27 : tensor<64x!tt.ptr<f32>>, tensor<64xi32> loc(#loc28)
    %29 = tt.load %28, %5 : tensor<64x!tt.ptr<f32>> loc(#loc29)
    %30 = tt.addptr %arg1, %c4_i32 : !tt.ptr<f32>, i32 loc(#loc30)
    %31 = tt.load %30 : !tt.ptr<f32> loc(#loc31)
    %32 = tt.splat %31 : f32 -> tensor<64xf32> loc(#loc32)
    %33 = arith.addi %4, %cst_0 : tensor<64xi32> loc(#loc33)
    %34 = tt.addptr %9, %33 : tensor<64x!tt.ptr<f32>>, tensor<64xi32> loc(#loc34)
    %35 = tt.load %34, %5 : tensor<64x!tt.ptr<f32>> loc(#loc35)
    %36 = tt.addptr %arg1, %c5_i32 : !tt.ptr<f32>, i32 loc(#loc36)
    %37 = tt.load %36 : !tt.ptr<f32> loc(#loc37)
    %38 = tt.splat %37 : f32 -> tensor<64xf32> loc(#loc38)
    %39 = arith.addi %4, %cst : tensor<64xi32> loc(#loc39)
    %40 = tt.addptr %9, %39 : tensor<64x!tt.ptr<f32>>, tensor<64xi32> loc(#loc40)
    %41 = tt.load %40, %5 : tensor<64x!tt.ptr<f32>> loc(#loc41)
    %42 = arith.mulf %8, %11 : tensor<64xf32> loc(#loc42)
    %43 = arith.mulf %14, %17 : tensor<64xf32> loc(#loc43)
    %44 = arith.addf %42, %43 : tensor<64xf32> loc(#loc44)
    %45 = arith.mulf %20, %23 : tensor<64xf32> loc(#loc45)
    %46 = arith.addf %44, %45 : tensor<64xf32> loc(#loc46)
    %47 = arith.mulf %26, %29 : tensor<64xf32> loc(#loc47)
    %48 = arith.addf %46, %47 : tensor<64xf32> loc(#loc48)
    %49 = arith.mulf %32, %35 : tensor<64xf32> loc(#loc49)
    %50 = arith.addf %48, %49 : tensor<64xf32> loc(#loc50)
    %51 = arith.mulf %38, %41 : tensor<64xf32> loc(#loc51)
    %52 = arith.addf %50, %51 : tensor<64xf32> loc(#loc52)
    %53 = tt.splat %arg0 : !tt.ptr<f32> -> tensor<64x!tt.ptr<f32>> loc(#loc53)
    %54 = tt.addptr %53, %4 : tensor<64x!tt.ptr<f32>>, tensor<64xi32> loc(#loc53)
    tt.store %54, %52, %5 : tensor<64x!tt.ptr<f32>> loc(#loc54)
    tt.return loc(#loc55)
  } loc(#loc)
} loc(#loc)
#loc1 = loc(unknown)
#loc2 = loc("inductor_cache/24/c24jvlhd54cansafjpv2vq4noyzsorv73ev6cqcmtia6gbr4keij.py":21:28)
#loc3 = loc("inductor_cache/24/c24jvlhd54cansafjpv2vq4noyzsorv73ev6cqcmtia6gbr4keij.py":21:33)
#loc4 = loc("inductor_cache/24/c24jvlhd54cansafjpv2vq4noyzsorv73ev6cqcmtia6gbr4keij.py":22:36)
#loc5 = loc("inductor_cache/24/c24jvlhd54cansafjpv2vq4noyzsorv73ev6cqcmtia6gbr4keij.py":22:23)
#loc6 = loc("inductor_cache/24/c24jvlhd54cansafjpv2vq4noyzsorv73ev6cqcmtia6gbr4keij.py":23:21)
#loc7 = loc("inductor_cache/24/c24jvlhd54cansafjpv2vq4noyzsorv73ev6cqcmtia6gbr4keij.py":25:30)
#loc8 = loc("inductor_cache/24/c24jvlhd54cansafjpv2vq4noyzsorv73ev6cqcmtia6gbr4keij.py":25:19)
#loc9 = loc("inductor_cache/24/c24jvlhd54cansafjpv2vq4noyzsorv73ev6cqcmtia6gbr4keij.py":26:33)
#loc10 = loc("inductor_cache/24/c24jvlhd54cansafjpv2vq4noyzsorv73ev6cqcmtia6gbr4keij.py":27:30)
#loc11 = loc("inductor_cache/24/c24jvlhd54cansafjpv2vq4noyzsorv73ev6cqcmtia6gbr4keij.py":27:35)
#loc12 = loc("inductor_cache/24/c24jvlhd54cansafjpv2vq4noyzsorv73ev6cqcmtia6gbr4keij.py":28:30)
#loc13 = loc("inductor_cache/24/c24jvlhd54cansafjpv2vq4noyzsorv73ev6cqcmtia6gbr4keij.py":28:19)
#loc14 = loc("inductor_cache/24/c24jvlhd54cansafjpv2vq4noyzsorv73ev6cqcmtia6gbr4keij.py":29:33)
#loc15 = loc("inductor_cache/24/c24jvlhd54cansafjpv2vq4noyzsorv73ev6cqcmtia6gbr4keij.py":30:35)
#loc16 = loc("inductor_cache/24/c24jvlhd54cansafjpv2vq4noyzsorv73ev6cqcmtia6gbr4keij.py":30:30)
#loc17 = loc("inductor_cache/24/c24jvlhd54cansafjpv2vq4noyzsorv73ev6cqcmtia6gbr4keij.py":30:40)
#loc18 = loc("inductor_cache/24/c24jvlhd54cansafjpv2vq4noyzsorv73ev6cqcmtia6gbr4keij.py":31:30)
#loc19 = loc("inductor_cache/24/c24jvlhd54cansafjpv2vq4noyzsorv73ev6cqcmtia6gbr4keij.py":31:19)
#loc20 = loc("inductor_cache/24/c24jvlhd54cansafjpv2vq4noyzsorv73ev6cqcmtia6gbr4keij.py":32:34)
#loc21 = loc("inductor_cache/24/c24jvlhd54cansafjpv2vq4noyzsorv73ev6cqcmtia6gbr4keij.py":33:37)
#loc22 = loc("inductor_cache/24/c24jvlhd54cansafjpv2vq4noyzsorv73ev6cqcmtia6gbr4keij.py":33:31)
#loc23 = loc("inductor_cache/24/c24jvlhd54cansafjpv2vq4noyzsorv73ev6cqcmtia6gbr4keij.py":33:42)
#loc24 = loc("inductor_cache/24/c24jvlhd54cansafjpv2vq4noyzsorv73ev6cqcmtia6gbr4keij.py":34:31)
#loc25 = loc("inductor_cache/24/c24jvlhd54cansafjpv2vq4noyzsorv73ev6cqcmtia6gbr4keij.py":34:20)
#loc26 = loc("inductor_cache/24/c24jvlhd54cansafjpv2vq4noyzsorv73ev6cqcmtia6gbr4keij.py":35:35)
#loc27 = loc("inductor_cache/24/c24jvlhd54cansafjpv2vq4noyzsorv73ev6cqcmtia6gbr4keij.py":36:37)
#loc28 = loc("inductor_cache/24/c24jvlhd54cansafjpv2vq4noyzsorv73ev6cqcmtia6gbr4keij.py":36:31)
#loc29 = loc("inductor_cache/24/c24jvlhd54cansafjpv2vq4noyzsorv73ev6cqcmtia6gbr4keij.py":36:42)
#loc30 = loc("inductor_cache/24/c24jvlhd54cansafjpv2vq4noyzsorv73ev6cqcmtia6gbr4keij.py":37:31)
#loc31 = loc("inductor_cache/24/c24jvlhd54cansafjpv2vq4noyzsorv73ev6cqcmtia6gbr4keij.py":37:20)
#loc32 = loc("inductor_cache/24/c24jvlhd54cansafjpv2vq4noyzsorv73ev6cqcmtia6gbr4keij.py":38:35)
#loc33 = loc("inductor_cache/24/c24jvlhd54cansafjpv2vq4noyzsorv73ev6cqcmtia6gbr4keij.py":39:37)
#loc34 = loc("inductor_cache/24/c24jvlhd54cansafjpv2vq4noyzsorv73ev6cqcmtia6gbr4keij.py":39:31)
#loc35 = loc("inductor_cache/24/c24jvlhd54cansafjpv2vq4noyzsorv73ev6cqcmtia6gbr4keij.py":39:42)
#loc36 = loc("inductor_cache/24/c24jvlhd54cansafjpv2vq4noyzsorv73ev6cqcmtia6gbr4keij.py":40:31)
#loc37 = loc("inductor_cache/24/c24jvlhd54cansafjpv2vq4noyzsorv73ev6cqcmtia6gbr4keij.py":40:20)
#loc38 = loc("inductor_cache/24/c24jvlhd54cansafjpv2vq4noyzsorv73ev6cqcmtia6gbr4keij.py":41:35)
#loc39 = loc("inductor_cache/24/c24jvlhd54cansafjpv2vq4noyzsorv73ev6cqcmtia6gbr4keij.py":42:37)
#loc40 = loc("inductor_cache/24/c24jvlhd54cansafjpv2vq4noyzsorv73ev6cqcmtia6gbr4keij.py":42:31)
#loc41 = loc("inductor_cache/24/c24jvlhd54cansafjpv2vq4noyzsorv73ev6cqcmtia6gbr4keij.py":42:42)
#loc42 = loc("inductor_cache/24/c24jvlhd54cansafjpv2vq4noyzsorv73ev6cqcmtia6gbr4keij.py":43:18)
#loc43 = loc("inductor_cache/24/c24jvlhd54cansafjpv2vq4noyzsorv73ev6cqcmtia6gbr4keij.py":44:18)
#loc44 = loc("inductor_cache/24/c24jvlhd54cansafjpv2vq4noyzsorv73ev6cqcmtia6gbr4keij.py":45:18)
#loc45 = loc("inductor_cache/24/c24jvlhd54cansafjpv2vq4noyzsorv73ev6cqcmtia6gbr4keij.py":46:20)
#loc46 = loc("inductor_cache/24/c24jvlhd54cansafjpv2vq4noyzsorv73ev6cqcmtia6gbr4keij.py":47:19)
#loc47 = loc("inductor_cache/24/c24jvlhd54cansafjpv2vq4noyzsorv73ev6cqcmtia6gbr4keij.py":48:20)
#loc48 = loc("inductor_cache/24/c24jvlhd54cansafjpv2vq4noyzsorv73ev6cqcmtia6gbr4keij.py":49:20)
#loc49 = loc("inductor_cache/24/c24jvlhd54cansafjpv2vq4noyzsorv73ev6cqcmtia6gbr4keij.py":50:20)
#loc50 = loc("inductor_cache/24/c24jvlhd54cansafjpv2vq4noyzsorv73ev6cqcmtia6gbr4keij.py":51:20)
#loc51 = loc("inductor_cache/24/c24jvlhd54cansafjpv2vq4noyzsorv73ev6cqcmtia6gbr4keij.py":52:20)
#loc52 = loc("inductor_cache/24/c24jvlhd54cansafjpv2vq4noyzsorv73ev6cqcmtia6gbr4keij.py":53:20)
#loc53 = loc("inductor_cache/24/c24jvlhd54cansafjpv2vq4noyzsorv73ev6cqcmtia6gbr4keij.py":54:28)
#loc54 = loc("inductor_cache/24/c24jvlhd54cansafjpv2vq4noyzsorv73ev6cqcmtia6gbr4keij.py":54:40)
#loc55 = loc("inductor_cache/24/c24jvlhd54cansafjpv2vq4noyzsorv73ev6cqcmtia6gbr4keij.py":54:4)
