#loc = loc("inductor_cache/g2/cg2ui75egdt3vjxtar6hvemxpvf7ywnxzkzqu3rubcqyuruuc67g.py":19:0)
module {
  tt.func public @triton_poi_fused__log_softmax_mul_sum_1(%arg0: !tt.ptr<f32> {tt.divisibility = 16 : i32} loc("inductor_cache/g2/cg2ui75egdt3vjxtar6hvemxpvf7ywnxzkzqu3rubcqyuruuc67g.py":19:0), %arg1: !tt.ptr<f32> {tt.divisibility = 16 : i32} loc("inductor_cache/g2/cg2ui75egdt3vjxtar6hvemxpvf7ywnxzkzqu3rubcqyuruuc67g.py":19:0), %arg2: !tt.ptr<f32> {tt.divisibility = 16 : i32} loc("inductor_cache/g2/cg2ui75egdt3vjxtar6hvemxpvf7ywnxzkzqu3rubcqyuruuc67g.py":19:0), %arg3: i32 {tt.divisibility = 16 : i32} loc("inductor_cache/g2/cg2ui75egdt3vjxtar6hvemxpvf7ywnxzkzqu3rubcqyuruuc67g.py":19:0)) attributes {noinline = false} {
    %cst = arith.constant dense<3> : tensor<64xi32> loc(#loc1)
    %cst_0 = arith.constant dense<2> : tensor<64xi32> loc(#loc1)
    %cst_1 = arith.constant dense<1> : tensor<64xi32> loc(#loc1)
    %cst_2 = arith.constant dense<4> : tensor<64xi32> loc(#loc1)
    %cst_3 = arith.constant dense<64> : tensor<64xi32> loc(#loc1)
    %c64_i32 = arith.constant 64 : i32 loc(#loc1)
    %0 = tt.get_program_id x : i32 loc(#loc2)
    %1 = arith.muli %0, %c64_i32 : i32 loc(#loc3)
    %2 = tt.make_range {end = 64 : i32, start = 0 : i32} : tensor<64xi32> loc(#loc4)
    %3 = tt.splat %1 : i32 -> tensor<64xi32> loc(#loc5)
    %4 = arith.addi %3, %2 : tensor<64xi32> loc(#loc5)
    %5 = arith.cmpi slt, %4, %cst_3 : tensor<64xi32> loc(#loc6)
    %6 = arith.muli %4, %cst_2 : tensor<64xi32> loc(#loc7)
    %7 = tt.splat %arg0 : !tt.ptr<f32> -> tensor<64x!tt.ptr<f32>> loc(#loc8)
    %8 = tt.addptr %7, %6 : tensor<64x!tt.ptr<f32>>, tensor<64xi32> loc(#loc8)
    %9 = tt.load %8, %5 evictionPolicy = evict_last : tensor<64x!tt.ptr<f32>> loc(#loc9)
    %10 = tt.splat %arg1 : !tt.ptr<f32> -> tensor<64x!tt.ptr<f32>> loc(#loc10)
    %11 = tt.addptr %10, %6 : tensor<64x!tt.ptr<f32>>, tensor<64xi32> loc(#loc10)
    %12 = tt.load %11, %5 evictionPolicy = evict_last : tensor<64x!tt.ptr<f32>> loc(#loc11)
    %13 = arith.addi %6, %cst_1 : tensor<64xi32> loc(#loc12)
    %14 = tt.addptr %10, %13 : tensor<64x!tt.ptr<f32>>, tensor<64xi32> loc(#loc13)
    %15 = tt.load %14, %5 evictionPolicy = evict_last : tensor<64x!tt.ptr<f32>> loc(#loc14)
    %16 = arith.addi %6, %cst_0 : tensor<64xi32> loc(#loc15)
    %17 = tt.addptr %10, %16 : tensor<64x!tt.ptr<f32>>, tensor<64xi32> loc(#loc16)
    %18 = tt.load %17, %5 evictionPolicy = evict_last : tensor<64x!tt.ptr<f32>> loc(#loc17)
    %19 = arith.addi %6, %cst : tensor<64xi32> loc(#loc18)
    %20 = tt.addptr %10, %19 : tensor<64x!tt.ptr<f32>>, tensor<64xi32> loc(#loc19)
    %21 = tt.load %20, %5 evictionPolicy = evict_last : tensor<64x!tt.ptr<f32>> loc(#loc20)
    %22 = tt.addptr %7, %13 : tensor<64x!tt.ptr<f32>>, tensor<64xi32> loc(#loc21)
    %23 = tt.load %22, %5 evictionPolicy = evict_last : tensor<64x!tt.ptr<f32>> loc(#loc22)
    %24 = tt.addptr %7, %16 : tensor<64x!tt.ptr<f32>>, tensor<64xi32> loc(#loc23)
    %25 = tt.load %24, %5 evictionPolicy = evict_last : tensor<64x!tt.ptr<f32>> loc(#loc24)
    %26 = tt.addptr %7, %19 : tensor<64x!tt.ptr<f32>>, tensor<64xi32> loc(#loc25)
    %27 = tt.load %26, %5 evictionPolicy = evict_last : tensor<64x!tt.ptr<f32>> loc(#loc26)
    %28 = math.exp %12 : tensor<64xf32> loc(#loc27)
    %29 = math.exp %15 : tensor<64xf32> loc(#loc28)
    %30 = arith.addf %28, %29 : tensor<64xf32> loc(#loc29)
    %31 = math.exp %18 : tensor<64xf32> loc(#loc30)
    %32 = arith.addf %30, %31 : tensor<64xf32> loc(#loc31)
    %33 = math.exp %21 : tensor<64xf32> loc(#loc32)
    %34 = arith.addf %32, %33 : tensor<64xf32> loc(#loc33)
    %35 = math.log %34 : tensor<64xf32> loc(#loc34)
    %36 = arith.subf %12, %35 : tensor<64xf32> loc(#loc35)
    %37 = arith.mulf %9, %36 : tensor<64xf32> loc(#loc36)
    %38 = arith.subf %15, %35 : tensor<64xf32> loc(#loc37)
    %39 = arith.mulf %23, %38 : tensor<64xf32> loc(#loc38)
    %40 = arith.addf %37, %39 : tensor<64xf32> loc(#loc39)
    %41 = arith.subf %18, %35 : tensor<64xf32> loc(#loc40)
    %42 = arith.mulf %25, %41 : tensor<64xf32> loc(#loc41)
    %43 = arith.addf %40, %42 : tensor<64xf32> loc(#loc42)
    %44 = arith.subf %21, %35 : tensor<64xf32> loc(#loc43)
    %45 = arith.mulf %27, %44 : tensor<64xf32> loc(#loc44)
    %46 = arith.addf %43, %45 : tensor<64xf32> loc(#loc45)
    %47 = tt.splat %arg2 : !tt.ptr<f32> -> tensor<64x!tt.ptr<f32>> loc(#loc46)
    %48 = tt.addptr %47, %4 : tensor<64x!tt.ptr<f32>>, tensor<64xi32> loc(#loc46)
    tt.store %48, %46, %5 : tensor<64x!tt.ptr<f32>> loc(#loc47)
    tt.return loc(#loc48)
  } loc(#loc)
} loc(#loc)
#loc1 = loc(unknown)
#loc2 = loc("inductor_cache/g2/cg2ui75egdt3vjxtar6hvemxpvf7ywnxzkzqu3rubcqyuruuc67g.py":21:28)
#loc3 = loc("inductor_cache/g2/cg2ui75egdt3vjxtar6hvemxpvf7ywnxzkzqu3rubcqyuruuc67g.py":21:33)
#loc4 = loc("inductor_cache/g2/cg2ui75egdt3vjxtar6hvemxpvf7ywnxzkzqu3rubcqyuruuc67g.py":22:36)
#loc5 = loc("inductor_cache/g2/cg2ui75egdt3vjxtar6hvemxpvf7ywnxzkzqu3rubcqyuruuc67g.py":22:23)
#loc6 = loc("inductor_cache/g2/cg2ui75egdt3vjxtar6hvemxpvf7ywnxzkzqu3rubcqyuruuc67g.py":23:21)
#loc7 = loc("inductor_cache/g2/cg2ui75egdt3vjxtar6hvemxpvf7ywnxzkzqu3rubcqyuruuc67g.py":25:32)
#loc8 = loc("inductor_cache/g2/cg2ui75egdt3vjxtar6hvemxpvf7ywnxzkzqu3rubcqyuruuc67g.py":25:30)
#loc9 = loc("inductor_cache/g2/cg2ui75egdt3vjxtar6hvemxpvf7ywnxzkzqu3rubcqyuruuc67g.py":25:37)
#loc10 = loc("inductor_cache/g2/cg2ui75egdt3vjxtar6hvemxpvf7ywnxzkzqu3rubcqyuruuc67g.py":26:30)
#loc11 = loc("inductor_cache/g2/cg2ui75egdt3vjxtar6hvemxpvf7ywnxzkzqu3rubcqyuruuc67g.py":26:37)
#loc12 = loc("inductor_cache/g2/cg2ui75egdt3vjxtar6hvemxpvf7ywnxzkzqu3rubcqyuruuc67g.py":27:34)
#loc13 = loc("inductor_cache/g2/cg2ui75egdt3vjxtar6hvemxpvf7ywnxzkzqu3rubcqyuruuc67g.py":27:30)
#loc14 = loc("inductor_cache/g2/cg2ui75egdt3vjxtar6hvemxpvf7ywnxzkzqu3rubcqyuruuc67g.py":27:41)
#loc15 = loc("inductor_cache/g2/cg2ui75egdt3vjxtar6hvemxpvf7ywnxzkzqu3rubcqyuruuc67g.py":28:34)
#loc16 = loc("inductor_cache/g2/cg2ui75egdt3vjxtar6hvemxpvf7ywnxzkzqu3rubcqyuruuc67g.py":28:30)
#loc17 = loc("inductor_cache/g2/cg2ui75egdt3vjxtar6hvemxpvf7ywnxzkzqu3rubcqyuruuc67g.py":28:41)
#loc18 = loc("inductor_cache/g2/cg2ui75egdt3vjxtar6hvemxpvf7ywnxzkzqu3rubcqyuruuc67g.py":29:34)
#loc19 = loc("inductor_cache/g2/cg2ui75egdt3vjxtar6hvemxpvf7ywnxzkzqu3rubcqyuruuc67g.py":29:30)
#loc20 = loc("inductor_cache/g2/cg2ui75egdt3vjxtar6hvemxpvf7ywnxzkzqu3rubcqyuruuc67g.py":29:41)
#loc21 = loc("inductor_cache/g2/cg2ui75egdt3vjxtar6hvemxpvf7ywnxzkzqu3rubcqyuruuc67g.py":30:31)
#loc22 = loc("inductor_cache/g2/cg2ui75egdt3vjxtar6hvemxpvf7ywnxzkzqu3rubcqyuruuc67g.py":30:42)
#loc23 = loc("inductor_cache/g2/cg2ui75egdt3vjxtar6hvemxpvf7ywnxzkzqu3rubcqyuruuc67g.py":31:31)
#loc24 = loc("inductor_cache/g2/cg2ui75egdt3vjxtar6hvemxpvf7ywnxzkzqu3rubcqyuruuc67g.py":31:42)
#loc25 = loc("inductor_cache/g2/cg2ui75egdt3vjxtar6hvemxpvf7ywnxzkzqu3rubcqyuruuc67g.py":32:31)
#loc26 = loc("inductor_cache/g2/cg2ui75egdt3vjxtar6hvemxpvf7ywnxzkzqu3rubcqyuruuc67g.py":32:42)
#loc27 = loc("inductor_cache/g2/cg2ui75egdt3vjxtar6hvemxpvf7ywnxzkzqu3rubcqyuruuc67g.py":33:23)
#loc28 = loc("inductor_cache/g2/cg2ui75egdt3vjxtar6hvemxpvf7ywnxzkzqu3rubcqyuruuc67g.py":34:23)
#loc29 = loc("inductor_cache/g2/cg2ui75egdt3vjxtar6hvemxpvf7ywnxzkzqu3rubcqyuruuc67g.py":35:18)
#loc30 = loc("inductor_cache/g2/cg2ui75egdt3vjxtar6hvemxpvf7ywnxzkzqu3rubcqyuruuc67g.py":36:23)
#loc31 = loc("inductor_cache/g2/cg2ui75egdt3vjxtar6hvemxpvf7ywnxzkzqu3rubcqyuruuc67g.py":37:18)
#loc32 = loc("inductor_cache/g2/cg2ui75egdt3vjxtar6hvemxpvf7ywnxzkzqu3rubcqyuruuc67g.py":38:24)
#loc33 = loc("inductor_cache/g2/cg2ui75egdt3vjxtar6hvemxpvf7ywnxzkzqu3rubcqyuruuc67g.py":39:19)
#loc34 = loc("inductor_cache/g2/cg2ui75egdt3vjxtar6hvemxpvf7ywnxzkzqu3rubcqyuruuc67g.py":40:24)
#loc35 = loc("inductor_cache/g2/cg2ui75egdt3vjxtar6hvemxpvf7ywnxzkzqu3rubcqyuruuc67g.py":41:19)
#loc36 = loc("inductor_cache/g2/cg2ui75egdt3vjxtar6hvemxpvf7ywnxzkzqu3rubcqyuruuc67g.py":42:19)
#loc37 = loc("inductor_cache/g2/cg2ui75egdt3vjxtar6hvemxpvf7ywnxzkzqu3rubcqyuruuc67g.py":43:19)
#loc38 = loc("inductor_cache/g2/cg2ui75egdt3vjxtar6hvemxpvf7ywnxzkzqu3rubcqyuruuc67g.py":44:20)
#loc39 = loc("inductor_cache/g2/cg2ui75egdt3vjxtar6hvemxpvf7ywnxzkzqu3rubcqyuruuc67g.py":45:20)
#loc40 = loc("inductor_cache/g2/cg2ui75egdt3vjxtar6hvemxpvf7ywnxzkzqu3rubcqyuruuc67g.py":46:19)
#loc41 = loc("inductor_cache/g2/cg2ui75egdt3vjxtar6hvemxpvf7ywnxzkzqu3rubcqyuruuc67g.py":47:20)
#loc42 = loc("inductor_cache/g2/cg2ui75egdt3vjxtar6hvemxpvf7ywnxzkzqu3rubcqyuruuc67g.py":48:20)
#loc43 = loc("inductor_cache/g2/cg2ui75egdt3vjxtar6hvemxpvf7ywnxzkzqu3rubcqyuruuc67g.py":49:19)
#loc44 = loc("inductor_cache/g2/cg2ui75egdt3vjxtar6hvemxpvf7ywnxzkzqu3rubcqyuruuc67g.py":50:20)
#loc45 = loc("inductor_cache/g2/cg2ui75egdt3vjxtar6hvemxpvf7ywnxzkzqu3rubcqyuruuc67g.py":51:20)
#loc46 = loc("inductor_cache/g2/cg2ui75egdt3vjxtar6hvemxpvf7ywnxzkzqu3rubcqyuruuc67g.py":52:25)
#loc47 = loc("inductor_cache/g2/cg2ui75egdt3vjxtar6hvemxpvf7ywnxzkzqu3rubcqyuruuc67g.py":52:37)
#loc48 = loc("inductor_cache/g2/cg2ui75egdt3vjxtar6hvemxpvf7ywnxzkzqu3rubcqyuruuc67g.py":52:4)
