#loc = loc("inductor_cache/re/crecp3h4yqejd6xc6dfrxghqhke46ql2mochbh7hovfgti2tna3k.py":19:0)
module {
  tt.func public @triton_poi_fused_embedding_mul_sigmoid_2(%arg0: !tt.ptr<i64> {tt.divisibility = 16 : i32} loc("inductor_cache/re/crecp3h4yqejd6xc6dfrxghqhke46ql2mochbh7hovfgti2tna3k.py":19:0), %arg1: !tt.ptr<f32> {tt.divisibility = 16 : i32} loc("inductor_cache/re/crecp3h4yqejd6xc6dfrxghqhke46ql2mochbh7hovfgti2tna3k.py":19:0), %arg2: !tt.ptr<f32> {tt.divisibility = 16 : i32} loc("inductor_cache/re/crecp3h4yqejd6xc6dfrxghqhke46ql2mochbh7hovfgti2tna3k.py":19:0), %arg3: !tt.ptr<f32> {tt.divisibility = 16 : i32} loc("inductor_cache/re/crecp3h4yqejd6xc6dfrxghqhke46ql2mochbh7hovfgti2tna3k.py":19:0), %arg4: !tt.ptr<f32> {tt.divisibility = 16 : i32} loc("inductor_cache/re/crecp3h4yqejd6xc6dfrxghqhke46ql2mochbh7hovfgti2tna3k.py":19:0), %arg5: i32 {tt.divisibility = 16 : i32} loc("inductor_cache/re/crecp3h4yqejd6xc6dfrxghqhke46ql2mochbh7hovfgti2tna3k.py":19:0)) attributes {noinline = false} {
    %cst = arith.constant dense<0.000000e+00> : tensor<256xf32> loc(#loc1)
    %cst_0 = arith.constant dense<1.000000e+00> : tensor<256xf32> loc(#loc1)
    %cst_1 = arith.constant dense<0> : tensor<256xi64> loc(#loc1)
    %cst_2 = arith.constant dense<4> : tensor<256xi64> loc(#loc1)
    %cst_3 = arith.constant dense<true> : tensor<256xi1> loc(#loc1)
    %cst_4 = arith.constant dense<256> : tensor<256xi32> loc(#loc1)
    %cst_5 = arith.constant dense<4> : tensor<256xi32> loc(#loc1)
    %cst_6 = arith.constant dense<1024> : tensor<256xi32> loc(#loc1)
    %c256_i32 = arith.constant 256 : i32 loc(#loc1)
    %0 = tt.get_program_id x : i32 loc(#loc2)
    %1 = arith.muli %0, %c256_i32 : i32 loc(#loc3)
    %2 = tt.make_range {end = 256 : i32, start = 0 : i32} : tensor<256xi32> loc(#loc4)
    %3 = tt.splat %1 : i32 -> tensor<256xi32> loc(#loc5)
    %4 = arith.addi %3, %2 : tensor<256xi32> loc(#loc5)
    %5 = arith.cmpi slt, %4, %cst_6 : tensor<256xi32> loc(#loc6)
    %6 = arith.divsi %4, %cst_5 : tensor<256xi32> loc(#loc7)
    %7 = arith.remsi %4, %cst_5 : tensor<256xi32> loc(#loc8)
    %8 = arith.remsi %4, %cst_4 : tensor<256xi32> loc(#loc9)
    %9 = tt.splat %arg0 : !tt.ptr<i64> -> tensor<256x!tt.ptr<i64>> loc(#loc10)
    %10 = tt.addptr %9, %6 : tensor<256x!tt.ptr<i64>>, tensor<256xi32> loc(#loc10)
    %11 = tt.load %10, %5 evictionPolicy = evict_last : tensor<256x!tt.ptr<i64>> loc(#loc11)
    %12 = tt.splat %arg2 : !tt.ptr<f32> -> tensor<256x!tt.ptr<f32>> loc(#loc12)
    %13 = tt.addptr %12, %8 : tensor<256x!tt.ptr<f32>>, tensor<256xi32> loc(#loc12)
    %14 = tt.load %13, %5 evictionPolicy = evict_last : tensor<256x!tt.ptr<f32>> loc(#loc13)
    %15 = arith.addi %11, %cst_2 : tensor<256xi64> loc(#loc14)
    %16 = arith.cmpi slt, %11, %cst_1 : tensor<256xi64> loc(#loc15)
    %17 = arith.select %16, %15, %11 : tensor<256xi1>, tensor<256xi64> loc(#loc16)
    %18 = arith.cmpi sge, %17, %cst_1 : tensor<256xi64> loc(#loc17)
    %19 = arith.cmpi slt, %17, %cst_2 : tensor<256xi64> loc(#loc18)
    %20 = arith.andi %18, %19 : tensor<256xi1> loc(#loc19)
    %21 = arith.xori %5, %cst_3 : tensor<256xi1> loc(#loc20)
    %22 = arith.ori %20, %21 : tensor<256xi1> loc(#loc21)
    tt.assert %22, "index out of bounds: 0 <= tmp4 < 4" : tensor<256xi1> loc(#loc22)
    %23 = arith.muli %17, %cst_2 : tensor<256xi64> loc(#loc23)
    %24 = arith.extsi %7 : tensor<256xi32> to tensor<256xi64> loc(#loc24)
    %25 = arith.addi %24, %23 : tensor<256xi64> loc(#loc24)
    %26 = tt.splat %arg1 : !tt.ptr<f32> -> tensor<256x!tt.ptr<f32>> loc(#loc25)
    %27 = tt.addptr %26, %25 : tensor<256x!tt.ptr<f32>>, tensor<256xi64> loc(#loc25)
    %28 = tt.load %27, %5 : tensor<256x!tt.ptr<f32>> loc(#loc26)
    %29 = arith.subf %cst, %28 : tensor<256xf32> loc(#loc41)
    %30 = math.exp %29 : tensor<256xf32> loc(#loc42)
    %31 = arith.addf %30, %cst_0 : tensor<256xf32> loc(#loc43)
    %32 = arith.divf %cst_0, %31 : tensor<256xf32> loc(#loc44)
    %33 = arith.mulf %28, %32 : tensor<256xf32> loc(#loc32)
    %34 = arith.subf %cst, %14 : tensor<256xf32> loc(#loc45)
    %35 = math.exp %34 : tensor<256xf32> loc(#loc46)
    %36 = arith.addf %35, %cst_0 : tensor<256xf32> loc(#loc47)
    %37 = arith.divf %cst_0, %36 : tensor<256xf32> loc(#loc48)
    %38 = arith.mulf %14, %37 : tensor<256xf32> loc(#loc34)
    %39 = arith.mulf %33, %38 : tensor<256xf32> loc(#loc35)
    %40 = tt.splat %arg3 : !tt.ptr<f32> -> tensor<256x!tt.ptr<f32>> loc(#loc36)
    %41 = tt.addptr %40, %4 : tensor<256x!tt.ptr<f32>>, tensor<256xi32> loc(#loc36)
    tt.store %41, %28, %5 : tensor<256x!tt.ptr<f32>> loc(#loc37)
    %42 = tt.splat %arg4 : !tt.ptr<f32> -> tensor<256x!tt.ptr<f32>> loc(#loc38)
    %43 = tt.addptr %42, %4 : tensor<256x!tt.ptr<f32>>, tensor<256xi32> loc(#loc38)
    tt.store %43, %39, %5 : tensor<256x!tt.ptr<f32>> loc(#loc39)
    tt.return loc(#loc40)
  } loc(#loc)
} loc(#loc)
#loc1 = loc(unknown)
#loc2 = loc("inductor_cache/re/crecp3h4yqejd6xc6dfrxghqhke46ql2mochbh7hovfgti2tna3k.py":21:28)
#loc3 = loc("inductor_cache/re/crecp3h4yqejd6xc6dfrxghqhke46ql2mochbh7hovfgti2tna3k.py":21:33)
#loc4 = loc("inductor_cache/re/crecp3h4yqejd6xc6dfrxghqhke46ql2mochbh7hovfgti2tna3k.py":22:36)
#loc5 = loc("inductor_cache/re/crecp3h4yqejd6xc6dfrxghqhke46ql2mochbh7hovfgti2tna3k.py":22:23)
#loc6 = loc("inductor_cache/re/crecp3h4yqejd6xc6dfrxghqhke46ql2mochbh7hovfgti2tna3k.py":23:21)
#loc7 = loc("inductor_cache/re/crecp3h4yqejd6xc6dfrxghqhke46ql2mochbh7hovfgti2tna3k.py":24:19)
#loc8 = loc("inductor_cache/re/crecp3h4yqejd6xc6dfrxghqhke46ql2mochbh7hovfgti2tna3k.py":25:19)
#loc9 = loc("inductor_cache/re/crecp3h4yqejd6xc6dfrxghqhke46ql2mochbh7hovfgti2tna3k.py":27:19)
#loc10 = loc("inductor_cache/re/crecp3h4yqejd6xc6dfrxghqhke46ql2mochbh7hovfgti2tna3k.py":28:30)
#loc11 = loc("inductor_cache/re/crecp3h4yqejd6xc6dfrxghqhke46ql2mochbh7hovfgti2tna3k.py":28:35)
#loc12 = loc("inductor_cache/re/crecp3h4yqejd6xc6dfrxghqhke46ql2mochbh7hovfgti2tna3k.py":29:30)
#loc13 = loc("inductor_cache/re/crecp3h4yqejd6xc6dfrxghqhke46ql2mochbh7hovfgti2tna3k.py":29:35)
#loc14 = loc("inductor_cache/re/crecp3h4yqejd6xc6dfrxghqhke46ql2mochbh7hovfgti2tna3k.py":31:18)
#loc15 = loc("inductor_cache/re/crecp3h4yqejd6xc6dfrxghqhke46ql2mochbh7hovfgti2tna3k.py":32:18)
#loc16 = loc("inductor_cache/re/crecp3h4yqejd6xc6dfrxghqhke46ql2mochbh7hovfgti2tna3k.py":33:32)
#loc17 = loc("inductor_cache/re/crecp3h4yqejd6xc6dfrxghqhke46ql2mochbh7hovfgti2tna3k.py":34:28)
#loc18 = loc("inductor_cache/re/crecp3h4yqejd6xc6dfrxghqhke46ql2mochbh7hovfgti2tna3k.py":34:44)
#loc19 = loc("inductor_cache/re/crecp3h4yqejd6xc6dfrxghqhke46ql2mochbh7hovfgti2tna3k.py":34:37)
#loc20 = loc("inductor_cache/re/crecp3h4yqejd6xc6dfrxghqhke46ql2mochbh7hovfgti2tna3k.py":34:52)
#loc21 = loc("inductor_cache/re/crecp3h4yqejd6xc6dfrxghqhke46ql2mochbh7hovfgti2tna3k.py":34:50)
#loc22 = loc("inductor_cache/re/crecp3h4yqejd6xc6dfrxghqhke46ql2mochbh7hovfgti2tna3k.py":34:60)
#loc23 = loc("inductor_cache/re/crecp3h4yqejd6xc6dfrxghqhke46ql2mochbh7hovfgti2tna3k.py":35:37)
#loc24 = loc("inductor_cache/re/crecp3h4yqejd6xc6dfrxghqhke46ql2mochbh7hovfgti2tna3k.py":35:35)
#loc25 = loc("inductor_cache/re/crecp3h4yqejd6xc6dfrxghqhke46ql2mochbh7hovfgti2tna3k.py":35:30)
#loc26 = loc("inductor_cache/re/crecp3h4yqejd6xc6dfrxghqhke46ql2mochbh7hovfgti2tna3k.py":35:44)
#loc27 = loc("/home/sahanp/.conda/envs/parity-bench/lib/python3.12/site-packages/triton/language/standard.py":47:30)
#loc28 = loc("inductor_cache/re/crecp3h4yqejd6xc6dfrxghqhke46ql2mochbh7hovfgti2tna3k.py":36:22)
#loc29 = loc("/home/sahanp/.conda/envs/parity-bench/lib/python3.12/site-packages/triton/language/standard.py":47:29)
#loc30 = loc("/home/sahanp/.conda/envs/parity-bench/lib/python3.12/site-packages/triton/language/standard.py":47:20)
#loc31 = loc("/home/sahanp/.conda/envs/parity-bench/lib/python3.12/site-packages/triton/language/standard.py":47:16)
#loc32 = loc("inductor_cache/re/crecp3h4yqejd6xc6dfrxghqhke46ql2mochbh7hovfgti2tna3k.py":37:18)
#loc33 = loc("inductor_cache/re/crecp3h4yqejd6xc6dfrxghqhke46ql2mochbh7hovfgti2tna3k.py":38:23)
#loc34 = loc("inductor_cache/re/crecp3h4yqejd6xc6dfrxghqhke46ql2mochbh7hovfgti2tna3k.py":39:19)
#loc35 = loc("inductor_cache/re/crecp3h4yqejd6xc6dfrxghqhke46ql2mochbh7hovfgti2tna3k.py":40:19)
#loc36 = loc("inductor_cache/re/crecp3h4yqejd6xc6dfrxghqhke46ql2mochbh7hovfgti2tna3k.py":41:25)
#loc37 = loc("inductor_cache/re/crecp3h4yqejd6xc6dfrxghqhke46ql2mochbh7hovfgti2tna3k.py":41:36)
#loc38 = loc("inductor_cache/re/crecp3h4yqejd6xc6dfrxghqhke46ql2mochbh7hovfgti2tna3k.py":42:25)
#loc39 = loc("inductor_cache/re/crecp3h4yqejd6xc6dfrxghqhke46ql2mochbh7hovfgti2tna3k.py":42:37)
#loc40 = loc("inductor_cache/re/crecp3h4yqejd6xc6dfrxghqhke46ql2mochbh7hovfgti2tna3k.py":42:4)
#loc41 = loc(callsite(#loc27 at #loc28))
#loc42 = loc(callsite(#loc29 at #loc28))
#loc43 = loc(callsite(#loc30 at #loc28))
#loc44 = loc(callsite(#loc31 at #loc28))
#loc45 = loc(callsite(#loc27 at #loc33))
#loc46 = loc(callsite(#loc29 at #loc33))
#loc47 = loc(callsite(#loc30 at #loc33))
#loc48 = loc(callsite(#loc31 at #loc33))
