#loc = loc("inductor_cache/ss/cssqaaizju4e2g5j67xkvwhganzdppofqy2j3aju7zuoiqzkxmgw.py":19:0)
module {
  tt.func public @triton_poi_fused_max_pool2d_with_indices_70(%arg0: !tt.ptr<f32> {tt.divisibility = 16 : i32} loc("inductor_cache/ss/cssqaaizju4e2g5j67xkvwhganzdppofqy2j3aju7zuoiqzkxmgw.py":19:0), %arg1: !tt.ptr<f32> {tt.divisibility = 16 : i32} loc("inductor_cache/ss/cssqaaizju4e2g5j67xkvwhganzdppofqy2j3aju7zuoiqzkxmgw.py":19:0), %arg2: !tt.ptr<i8> {tt.divisibility = 16 : i32} loc("inductor_cache/ss/cssqaaizju4e2g5j67xkvwhganzdppofqy2j3aju7zuoiqzkxmgw.py":19:0), %arg3: i32 {tt.divisibility = 16 : i32} loc("inductor_cache/ss/cssqaaizju4e2g5j67xkvwhganzdppofqy2j3aju7zuoiqzkxmgw.py":19:0)) attributes {noinline = false} {
    %cst = arith.constant dense<8> : tensor<256xi8> loc(#loc1)
    %cst_0 = arith.constant dense<7> : tensor<256xi8> loc(#loc1)
    %cst_1 = arith.constant dense<6> : tensor<256xi8> loc(#loc1)
    %cst_2 = arith.constant dense<5> : tensor<256xi8> loc(#loc1)
    %cst_3 = arith.constant dense<4> : tensor<256xi8> loc(#loc1)
    %cst_4 = arith.constant dense<3> : tensor<256xi8> loc(#loc1)
    %cst_5 = arith.constant dense<2> : tensor<256xi8> loc(#loc1)
    %cst_6 = arith.constant dense<0> : tensor<256xi8> loc(#loc1)
    %cst_7 = arith.constant dense<1> : tensor<256xi8> loc(#loc1)
    %cst_8 = arith.constant dense<3072> : tensor<256xi32> loc(#loc1)
    %cst_9 = arith.constant dense<-1024> : tensor<256xi32> loc(#loc1)
    %cst_10 = arith.constant dense<1> : tensor<256xi32> loc(#loc1)
    %cst_11 = arith.constant dense<-2048> : tensor<256xi32> loc(#loc1)
    %cst_12 = arith.constant dense<0xFF800000> : tensor<256xf32> loc(#loc1)
    %cst_13 = arith.constant dense<-3072> : tensor<256xi32> loc(#loc1)
    %cst_14 = arith.constant dense<2> : tensor<256xi64> loc(#loc1)
    %cst_15 = arith.constant dense<0> : tensor<256xi64> loc(#loc1)
    %cst_16 = arith.constant dense<-1> : tensor<256xi32> loc(#loc1)
    %cst_17 = arith.constant dense<1024> : tensor<256xi32> loc(#loc1)
    %cst_18 = arith.constant dense<2> : tensor<256xi32> loc(#loc1)
    %cst_19 = arith.constant dense<2048> : tensor<256xi32> loc(#loc1)
    %c256_i32 = arith.constant 256 : i32 loc(#loc1)
    %0 = tt.get_program_id x : i32 loc(#loc2)
    %1 = arith.muli %0, %c256_i32 : i32 loc(#loc3)
    %2 = tt.make_range {end = 256 : i32, start = 0 : i32} : tensor<256xi32> loc(#loc4)
    %3 = tt.splat %1 : i32 -> tensor<256xi32> loc(#loc5)
    %4 = arith.addi %3, %2 : tensor<256xi32> loc(#loc5)
    %5 = arith.divsi %4, %cst_19 : tensor<256xi32> loc(#loc6)
    %6 = arith.remsi %5, %cst_18 : tensor<256xi32> loc(#loc7)
    %7 = arith.divsi %4, %cst_17 : tensor<256xi32> loc(#loc8)
    %8 = arith.remsi %7, %cst_18 : tensor<256xi32> loc(#loc9)
    %9 = arith.addi %6, %cst_16 : tensor<256xi32> loc(#loc10)
    %10 = arith.extsi %9 : tensor<256xi32> to tensor<256xi64> loc(#loc11)
    %11 = arith.cmpi sge, %10, %cst_15 : tensor<256xi64> loc(#loc11)
    %12 = arith.cmpi slt, %10, %cst_14 : tensor<256xi64> loc(#loc12)
    %13 = arith.andi %11, %12 : tensor<256xi1> loc(#loc13)
    %14 = arith.addi %8, %cst_16 : tensor<256xi32> loc(#loc14)
    %15 = arith.extsi %14 : tensor<256xi32> to tensor<256xi64> loc(#loc15)
    %16 = arith.cmpi sge, %15, %cst_15 : tensor<256xi64> loc(#loc15)
    %17 = arith.cmpi slt, %15, %cst_14 : tensor<256xi64> loc(#loc16)
    %18 = arith.andi %16, %17 : tensor<256xi1> loc(#loc17)
    %19 = arith.andi %13, %18 : tensor<256xi1> loc(#loc18)
    %20 = arith.addi %4, %cst_13 : tensor<256xi32> loc(#loc19)
    %21 = tt.splat %arg0 : !tt.ptr<f32> -> tensor<256x!tt.ptr<f32>> loc(#loc20)
    %22 = tt.addptr %21, %20 : tensor<256x!tt.ptr<f32>>, tensor<256xi32> loc(#loc20)
    %23 = tt.load %22, %19, %cst_12 : tensor<256x!tt.ptr<f32>> loc(#loc21)
    %24 = arith.extsi %8 : tensor<256xi32> to tensor<256xi64> loc(#loc22)
    %25 = arith.cmpi sge, %24, %cst_15 : tensor<256xi64> loc(#loc22)
    %26 = arith.cmpi slt, %24, %cst_14 : tensor<256xi64> loc(#loc23)
    %27 = arith.andi %25, %26 : tensor<256xi1> loc(#loc24)
    %28 = arith.andi %13, %27 : tensor<256xi1> loc(#loc25)
    %29 = arith.addi %4, %cst_11 : tensor<256xi32> loc(#loc26)
    %30 = tt.addptr %21, %29 : tensor<256x!tt.ptr<f32>>, tensor<256xi32> loc(#loc27)
    %31 = tt.load %30, %28, %cst_12 : tensor<256x!tt.ptr<f32>> loc(#loc28)
    %32 = arith.cmpf ogt, %31, %23 : tensor<256xf32> loc(#loc88)
    %33 = arith.cmpf une, %31, %31 : tensor<256xf32> loc(#loc89)
    %34 = arith.ori %32, %33 : tensor<256xi1> loc(#loc90)
    %35 = arith.select %34, %31, %23 : tensor<256xi1>, tensor<256xf32> loc(#loc91)
    %36 = arith.addi %8, %cst_10 : tensor<256xi32> loc(#loc34)
    %37 = arith.extsi %36 : tensor<256xi32> to tensor<256xi64> loc(#loc35)
    %38 = arith.cmpi sge, %37, %cst_15 : tensor<256xi64> loc(#loc35)
    %39 = arith.cmpi slt, %37, %cst_14 : tensor<256xi64> loc(#loc36)
    %40 = arith.andi %38, %39 : tensor<256xi1> loc(#loc37)
    %41 = arith.andi %13, %40 : tensor<256xi1> loc(#loc38)
    %42 = arith.addi %4, %cst_9 : tensor<256xi32> loc(#loc39)
    %43 = tt.addptr %21, %42 : tensor<256x!tt.ptr<f32>>, tensor<256xi32> loc(#loc40)
    %44 = tt.load %43, %41, %cst_12 : tensor<256x!tt.ptr<f32>> loc(#loc41)
    %45 = arith.cmpf ogt, %44, %35 : tensor<256xf32> loc(#loc92)
    %46 = arith.cmpf une, %44, %44 : tensor<256xf32> loc(#loc93)
    %47 = arith.ori %45, %46 : tensor<256xi1> loc(#loc94)
    %48 = arith.select %47, %44, %35 : tensor<256xi1>, tensor<256xf32> loc(#loc95)
    %49 = arith.extsi %6 : tensor<256xi32> to tensor<256xi64> loc(#loc43)
    %50 = arith.cmpi sge, %49, %cst_15 : tensor<256xi64> loc(#loc43)
    %51 = arith.cmpi slt, %49, %cst_14 : tensor<256xi64> loc(#loc44)
    %52 = arith.andi %50, %51 : tensor<256xi1> loc(#loc45)
    %53 = arith.andi %52, %18 : tensor<256xi1> loc(#loc46)
    %54 = tt.load %43, %53, %cst_12 : tensor<256x!tt.ptr<f32>> loc(#loc47)
    %55 = arith.cmpf ogt, %54, %48 : tensor<256xf32> loc(#loc96)
    %56 = arith.cmpf une, %54, %54 : tensor<256xf32> loc(#loc97)
    %57 = arith.ori %55, %56 : tensor<256xi1> loc(#loc98)
    %58 = arith.select %57, %54, %48 : tensor<256xi1>, tensor<256xf32> loc(#loc99)
    %59 = arith.andi %52, %27 : tensor<256xi1> loc(#loc49)
    %60 = tt.addptr %21, %4 : tensor<256x!tt.ptr<f32>>, tensor<256xi32> loc(#loc50)
    %61 = tt.load %60, %59, %cst_12 : tensor<256x!tt.ptr<f32>> loc(#loc51)
    %62 = arith.cmpf ogt, %61, %58 : tensor<256xf32> loc(#loc100)
    %63 = arith.cmpf une, %61, %61 : tensor<256xf32> loc(#loc101)
    %64 = arith.ori %62, %63 : tensor<256xi1> loc(#loc102)
    %65 = arith.select %64, %61, %58 : tensor<256xi1>, tensor<256xf32> loc(#loc103)
    %66 = arith.andi %52, %40 : tensor<256xi1> loc(#loc53)
    %67 = arith.addi %4, %cst_17 : tensor<256xi32> loc(#loc54)
    %68 = tt.addptr %21, %67 : tensor<256x!tt.ptr<f32>>, tensor<256xi32> loc(#loc55)
    %69 = tt.load %68, %66, %cst_12 : tensor<256x!tt.ptr<f32>> loc(#loc56)
    %70 = arith.cmpf ogt, %69, %65 : tensor<256xf32> loc(#loc104)
    %71 = arith.cmpf une, %69, %69 : tensor<256xf32> loc(#loc105)
    %72 = arith.ori %70, %71 : tensor<256xi1> loc(#loc106)
    %73 = arith.select %72, %69, %65 : tensor<256xi1>, tensor<256xf32> loc(#loc107)
    %74 = arith.addi %6, %cst_10 : tensor<256xi32> loc(#loc58)
    %75 = arith.extsi %74 : tensor<256xi32> to tensor<256xi64> loc(#loc59)
    %76 = arith.cmpi sge, %75, %cst_15 : tensor<256xi64> loc(#loc59)
    %77 = arith.cmpi slt, %75, %cst_14 : tensor<256xi64> loc(#loc60)
    %78 = arith.andi %76, %77 : tensor<256xi1> loc(#loc61)
    %79 = arith.andi %78, %18 : tensor<256xi1> loc(#loc62)
    %80 = tt.load %68, %79, %cst_12 : tensor<256x!tt.ptr<f32>> loc(#loc63)
    %81 = arith.cmpf ogt, %80, %73 : tensor<256xf32> loc(#loc108)
    %82 = arith.cmpf une, %80, %80 : tensor<256xf32> loc(#loc109)
    %83 = arith.ori %81, %82 : tensor<256xi1> loc(#loc110)
    %84 = arith.select %83, %80, %73 : tensor<256xi1>, tensor<256xf32> loc(#loc111)
    %85 = arith.andi %78, %27 : tensor<256xi1> loc(#loc65)
    %86 = arith.addi %4, %cst_19 : tensor<256xi32> loc(#loc66)
    %87 = tt.addptr %21, %86 : tensor<256x!tt.ptr<f32>>, tensor<256xi32> loc(#loc67)
    %88 = tt.load %87, %85, %cst_12 : tensor<256x!tt.ptr<f32>> loc(#loc68)
    %89 = arith.cmpf ogt, %88, %84 : tensor<256xf32> loc(#loc112)
    %90 = arith.cmpf une, %88, %88 : tensor<256xf32> loc(#loc113)
    %91 = arith.ori %89, %90 : tensor<256xi1> loc(#loc114)
    %92 = arith.select %91, %88, %84 : tensor<256xi1>, tensor<256xf32> loc(#loc115)
    %93 = arith.andi %78, %40 : tensor<256xi1> loc(#loc70)
    %94 = arith.addi %4, %cst_8 : tensor<256xi32> loc(#loc71)
    %95 = tt.addptr %21, %94 : tensor<256x!tt.ptr<f32>>, tensor<256xi32> loc(#loc72)
    %96 = tt.load %95, %93, %cst_12 : tensor<256x!tt.ptr<f32>> loc(#loc73)
    %97 = arith.cmpf ogt, %96, %92 : tensor<256xf32> loc(#loc116)
    %98 = arith.cmpf une, %96, %96 : tensor<256xf32> loc(#loc117)
    %99 = arith.ori %97, %98 : tensor<256xi1> loc(#loc118)
    %100 = arith.select %99, %96, %92 : tensor<256xi1>, tensor<256xf32> loc(#loc119)
    %101 = arith.select %32, %cst_7, %cst_6 : tensor<256xi1>, tensor<256xi8> loc(#loc75)
    %102 = arith.select %45, %cst_5, %101 : tensor<256xi1>, tensor<256xi8> loc(#loc76)
    %103 = arith.select %55, %cst_4, %102 : tensor<256xi1>, tensor<256xi8> loc(#loc77)
    %104 = arith.select %62, %cst_3, %103 : tensor<256xi1>, tensor<256xi8> loc(#loc78)
    %105 = arith.select %70, %cst_2, %104 : tensor<256xi1>, tensor<256xi8> loc(#loc79)
    %106 = arith.select %81, %cst_1, %105 : tensor<256xi1>, tensor<256xi8> loc(#loc80)
    %107 = arith.select %89, %cst_0, %106 : tensor<256xi1>, tensor<256xi8> loc(#loc81)
    %108 = arith.select %97, %cst, %107 : tensor<256xi1>, tensor<256xi8> loc(#loc82)
    %109 = tt.splat %arg1 : !tt.ptr<f32> -> tensor<256x!tt.ptr<f32>> loc(#loc83)
    %110 = tt.addptr %109, %4 : tensor<256x!tt.ptr<f32>>, tensor<256xi32> loc(#loc83)
    tt.store %110, %100 : tensor<256x!tt.ptr<f32>> loc(#loc84)
    %111 = tt.splat %arg2 : !tt.ptr<i8> -> tensor<256x!tt.ptr<i8>> loc(#loc85)
    %112 = tt.addptr %111, %4 : tensor<256x!tt.ptr<i8>>, tensor<256xi32> loc(#loc85)
    tt.store %112, %108 : tensor<256x!tt.ptr<i8>> loc(#loc86)
    tt.return loc(#loc87)
  } loc(#loc)
} loc(#loc)
#loc1 = loc(unknown)
#loc2 = loc("inductor_cache/ss/cssqaaizju4e2g5j67xkvwhganzdppofqy2j3aju7zuoiqzkxmgw.py":21:28)
#loc3 = loc("inductor_cache/ss/cssqaaizju4e2g5j67xkvwhganzdppofqy2j3aju7zuoiqzkxmgw.py":21:33)
#loc4 = loc("inductor_cache/ss/cssqaaizju4e2g5j67xkvwhganzdppofqy2j3aju7zuoiqzkxmgw.py":22:36)
#loc5 = loc("inductor_cache/ss/cssqaaizju4e2g5j67xkvwhganzdppofqy2j3aju7zuoiqzkxmgw.py":22:23)
#loc6 = loc("inductor_cache/ss/cssqaaizju4e2g5j67xkvwhganzdppofqy2j3aju7zuoiqzkxmgw.py":24:21)
#loc7 = loc("inductor_cache/ss/cssqaaizju4e2g5j67xkvwhganzdppofqy2j3aju7zuoiqzkxmgw.py":24:29)
#loc8 = loc("inductor_cache/ss/cssqaaizju4e2g5j67xkvwhganzdppofqy2j3aju7zuoiqzkxmgw.py":25:21)
#loc9 = loc("inductor_cache/ss/cssqaaizju4e2g5j67xkvwhganzdppofqy2j3aju7zuoiqzkxmgw.py":25:29)
#loc10 = loc("inductor_cache/ss/cssqaaizju4e2g5j67xkvwhganzdppofqy2j3aju7zuoiqzkxmgw.py":27:18)
#loc11 = loc("inductor_cache/ss/cssqaaizju4e2g5j67xkvwhganzdppofqy2j3aju7zuoiqzkxmgw.py":29:19)
#loc12 = loc("inductor_cache/ss/cssqaaizju4e2g5j67xkvwhganzdppofqy2j3aju7zuoiqzkxmgw.py":31:18)
#loc13 = loc("inductor_cache/ss/cssqaaizju4e2g5j67xkvwhganzdppofqy2j3aju7zuoiqzkxmgw.py":32:18)
#loc14 = loc("inductor_cache/ss/cssqaaizju4e2g5j67xkvwhganzdppofqy2j3aju7zuoiqzkxmgw.py":33:18)
#loc15 = loc("inductor_cache/ss/cssqaaizju4e2g5j67xkvwhganzdppofqy2j3aju7zuoiqzkxmgw.py":34:19)
#loc16 = loc("inductor_cache/ss/cssqaaizju4e2g5j67xkvwhganzdppofqy2j3aju7zuoiqzkxmgw.py":35:18)
#loc17 = loc("inductor_cache/ss/cssqaaizju4e2g5j67xkvwhganzdppofqy2j3aju7zuoiqzkxmgw.py":36:18)
#loc18 = loc("inductor_cache/ss/cssqaaizju4e2g5j67xkvwhganzdppofqy2j3aju7zuoiqzkxmgw.py":37:19)
#loc19 = loc("inductor_cache/ss/cssqaaizju4e2g5j67xkvwhganzdppofqy2j3aju7zuoiqzkxmgw.py":38:41)
#loc20 = loc("inductor_cache/ss/cssqaaizju4e2g5j67xkvwhganzdppofqy2j3aju7zuoiqzkxmgw.py":38:31)
#loc21 = loc("inductor_cache/ss/cssqaaizju4e2g5j67xkvwhganzdppofqy2j3aju7zuoiqzkxmgw.py":38:46)
#loc22 = loc("inductor_cache/ss/cssqaaizju4e2g5j67xkvwhganzdppofqy2j3aju7zuoiqzkxmgw.py":40:21)
#loc23 = loc("inductor_cache/ss/cssqaaizju4e2g5j67xkvwhganzdppofqy2j3aju7zuoiqzkxmgw.py":41:20)
#loc24 = loc("inductor_cache/ss/cssqaaizju4e2g5j67xkvwhganzdppofqy2j3aju7zuoiqzkxmgw.py":42:20)
#loc25 = loc("inductor_cache/ss/cssqaaizju4e2g5j67xkvwhganzdppofqy2j3aju7zuoiqzkxmgw.py":43:19)
#loc26 = loc("inductor_cache/ss/cssqaaizju4e2g5j67xkvwhganzdppofqy2j3aju7zuoiqzkxmgw.py":44:41)
#loc27 = loc("inductor_cache/ss/cssqaaizju4e2g5j67xkvwhganzdppofqy2j3aju7zuoiqzkxmgw.py":44:31)
#loc28 = loc("inductor_cache/ss/cssqaaizju4e2g5j67xkvwhganzdppofqy2j3aju7zuoiqzkxmgw.py":44:46)
#loc29 = loc("/home/sahanp/.conda/envs/parity-bench/lib/python3.12/site-packages/torch/_inductor/runtime/triton_helpers.py":118:15)
#loc30 = loc("inductor_cache/ss/cssqaaizju4e2g5j67xkvwhganzdppofqy2j3aju7zuoiqzkxmgw.py":45:42)
#loc31 = loc("/home/sahanp/.conda/envs/parity-bench/lib/python3.12/site-packages/torch/_inductor/runtime/triton_helpers.py":120:21)
#loc32 = loc("/home/sahanp/.conda/envs/parity-bench/lib/python3.12/site-packages/torch/_inductor/runtime/triton_helpers.py":120:16)
#loc33 = loc("/home/sahanp/.conda/envs/parity-bench/lib/python3.12/site-packages/torch/_inductor/runtime/triton_helpers.py":121:29)
#loc34 = loc("inductor_cache/ss/cssqaaizju4e2g5j67xkvwhganzdppofqy2j3aju7zuoiqzkxmgw.py":46:16)
#loc35 = loc("inductor_cache/ss/cssqaaizju4e2g5j67xkvwhganzdppofqy2j3aju7zuoiqzkxmgw.py":47:21)
#loc36 = loc("inductor_cache/ss/cssqaaizju4e2g5j67xkvwhganzdppofqy2j3aju7zuoiqzkxmgw.py":48:20)
#loc37 = loc("inductor_cache/ss/cssqaaizju4e2g5j67xkvwhganzdppofqy2j3aju7zuoiqzkxmgw.py":49:20)
#loc38 = loc("inductor_cache/ss/cssqaaizju4e2g5j67xkvwhganzdppofqy2j3aju7zuoiqzkxmgw.py":50:19)
#loc39 = loc("inductor_cache/ss/cssqaaizju4e2g5j67xkvwhganzdppofqy2j3aju7zuoiqzkxmgw.py":51:41)
#loc40 = loc("inductor_cache/ss/cssqaaizju4e2g5j67xkvwhganzdppofqy2j3aju7zuoiqzkxmgw.py":51:31)
#loc41 = loc("inductor_cache/ss/cssqaaizju4e2g5j67xkvwhganzdppofqy2j3aju7zuoiqzkxmgw.py":51:46)
#loc42 = loc("inductor_cache/ss/cssqaaizju4e2g5j67xkvwhganzdppofqy2j3aju7zuoiqzkxmgw.py":52:42)
#loc43 = loc("inductor_cache/ss/cssqaaizju4e2g5j67xkvwhganzdppofqy2j3aju7zuoiqzkxmgw.py":54:21)
#loc44 = loc("inductor_cache/ss/cssqaaizju4e2g5j67xkvwhganzdppofqy2j3aju7zuoiqzkxmgw.py":55:20)
#loc45 = loc("inductor_cache/ss/cssqaaizju4e2g5j67xkvwhganzdppofqy2j3aju7zuoiqzkxmgw.py":56:20)
#loc46 = loc("inductor_cache/ss/cssqaaizju4e2g5j67xkvwhganzdppofqy2j3aju7zuoiqzkxmgw.py":57:20)
#loc47 = loc("inductor_cache/ss/cssqaaizju4e2g5j67xkvwhganzdppofqy2j3aju7zuoiqzkxmgw.py":58:46)
#loc48 = loc("inductor_cache/ss/cssqaaizju4e2g5j67xkvwhganzdppofqy2j3aju7zuoiqzkxmgw.py":59:42)
#loc49 = loc("inductor_cache/ss/cssqaaizju4e2g5j67xkvwhganzdppofqy2j3aju7zuoiqzkxmgw.py":60:20)
#loc50 = loc("inductor_cache/ss/cssqaaizju4e2g5j67xkvwhganzdppofqy2j3aju7zuoiqzkxmgw.py":61:31)
#loc51 = loc("inductor_cache/ss/cssqaaizju4e2g5j67xkvwhganzdppofqy2j3aju7zuoiqzkxmgw.py":61:36)
#loc52 = loc("inductor_cache/ss/cssqaaizju4e2g5j67xkvwhganzdppofqy2j3aju7zuoiqzkxmgw.py":62:42)
#loc53 = loc("inductor_cache/ss/cssqaaizju4e2g5j67xkvwhganzdppofqy2j3aju7zuoiqzkxmgw.py":63:20)
#loc54 = loc("inductor_cache/ss/cssqaaizju4e2g5j67xkvwhganzdppofqy2j3aju7zuoiqzkxmgw.py":64:38)
#loc55 = loc("inductor_cache/ss/cssqaaizju4e2g5j67xkvwhganzdppofqy2j3aju7zuoiqzkxmgw.py":64:31)
#loc56 = loc("inductor_cache/ss/cssqaaizju4e2g5j67xkvwhganzdppofqy2j3aju7zuoiqzkxmgw.py":64:43)
#loc57 = loc("inductor_cache/ss/cssqaaizju4e2g5j67xkvwhganzdppofqy2j3aju7zuoiqzkxmgw.py":65:42)
#loc58 = loc("inductor_cache/ss/cssqaaizju4e2g5j67xkvwhganzdppofqy2j3aju7zuoiqzkxmgw.py":66:16)
#loc59 = loc("inductor_cache/ss/cssqaaizju4e2g5j67xkvwhganzdppofqy2j3aju7zuoiqzkxmgw.py":67:21)
#loc60 = loc("inductor_cache/ss/cssqaaizju4e2g5j67xkvwhganzdppofqy2j3aju7zuoiqzkxmgw.py":68:20)
#loc61 = loc("inductor_cache/ss/cssqaaizju4e2g5j67xkvwhganzdppofqy2j3aju7zuoiqzkxmgw.py":69:20)
#loc62 = loc("inductor_cache/ss/cssqaaizju4e2g5j67xkvwhganzdppofqy2j3aju7zuoiqzkxmgw.py":70:20)
#loc63 = loc("inductor_cache/ss/cssqaaizju4e2g5j67xkvwhganzdppofqy2j3aju7zuoiqzkxmgw.py":71:43)
#loc64 = loc("inductor_cache/ss/cssqaaizju4e2g5j67xkvwhganzdppofqy2j3aju7zuoiqzkxmgw.py":72:42)
#loc65 = loc("inductor_cache/ss/cssqaaizju4e2g5j67xkvwhganzdppofqy2j3aju7zuoiqzkxmgw.py":73:20)
#loc66 = loc("inductor_cache/ss/cssqaaizju4e2g5j67xkvwhganzdppofqy2j3aju7zuoiqzkxmgw.py":74:38)
#loc67 = loc("inductor_cache/ss/cssqaaizju4e2g5j67xkvwhganzdppofqy2j3aju7zuoiqzkxmgw.py":74:31)
#loc68 = loc("inductor_cache/ss/cssqaaizju4e2g5j67xkvwhganzdppofqy2j3aju7zuoiqzkxmgw.py":74:43)
#loc69 = loc("inductor_cache/ss/cssqaaizju4e2g5j67xkvwhganzdppofqy2j3aju7zuoiqzkxmgw.py":75:42)
#loc70 = loc("inductor_cache/ss/cssqaaizju4e2g5j67xkvwhganzdppofqy2j3aju7zuoiqzkxmgw.py":76:20)
#loc71 = loc("inductor_cache/ss/cssqaaizju4e2g5j67xkvwhganzdppofqy2j3aju7zuoiqzkxmgw.py":77:38)
#loc72 = loc("inductor_cache/ss/cssqaaizju4e2g5j67xkvwhganzdppofqy2j3aju7zuoiqzkxmgw.py":77:31)
#loc73 = loc("inductor_cache/ss/cssqaaizju4e2g5j67xkvwhganzdppofqy2j3aju7zuoiqzkxmgw.py":77:43)
#loc74 = loc("inductor_cache/ss/cssqaaizju4e2g5j67xkvwhganzdppofqy2j3aju7zuoiqzkxmgw.py":78:42)
#loc75 = loc("inductor_cache/ss/cssqaaizju4e2g5j67xkvwhganzdppofqy2j3aju7zuoiqzkxmgw.py":82:35)
#loc76 = loc("inductor_cache/ss/cssqaaizju4e2g5j67xkvwhganzdppofqy2j3aju7zuoiqzkxmgw.py":85:35)
#loc77 = loc("inductor_cache/ss/cssqaaizju4e2g5j67xkvwhganzdppofqy2j3aju7zuoiqzkxmgw.py":88:35)
#loc78 = loc("inductor_cache/ss/cssqaaizju4e2g5j67xkvwhganzdppofqy2j3aju7zuoiqzkxmgw.py":91:35)
#loc79 = loc("inductor_cache/ss/cssqaaizju4e2g5j67xkvwhganzdppofqy2j3aju7zuoiqzkxmgw.py":94:35)
#loc80 = loc("inductor_cache/ss/cssqaaizju4e2g5j67xkvwhganzdppofqy2j3aju7zuoiqzkxmgw.py":97:35)
#loc81 = loc("inductor_cache/ss/cssqaaizju4e2g5j67xkvwhganzdppofqy2j3aju7zuoiqzkxmgw.py":100:35)
#loc82 = loc("inductor_cache/ss/cssqaaizju4e2g5j67xkvwhganzdppofqy2j3aju7zuoiqzkxmgw.py":103:35)
#loc83 = loc("inductor_cache/ss/cssqaaizju4e2g5j67xkvwhganzdppofqy2j3aju7zuoiqzkxmgw.py":104:25)
#loc84 = loc("inductor_cache/ss/cssqaaizju4e2g5j67xkvwhganzdppofqy2j3aju7zuoiqzkxmgw.py":104:37)
#loc85 = loc("inductor_cache/ss/cssqaaizju4e2g5j67xkvwhganzdppofqy2j3aju7zuoiqzkxmgw.py":105:25)
#loc86 = loc("inductor_cache/ss/cssqaaizju4e2g5j67xkvwhganzdppofqy2j3aju7zuoiqzkxmgw.py":105:37)
#loc87 = loc("inductor_cache/ss/cssqaaizju4e2g5j67xkvwhganzdppofqy2j3aju7zuoiqzkxmgw.py":105:4)
#loc88 = loc(callsite(#loc29 at #loc30))
#loc89 = loc(callsite(#loc31 at #loc30))
#loc90 = loc(callsite(#loc32 at #loc30))
#loc91 = loc(callsite(#loc33 at #loc30))
#loc92 = loc(callsite(#loc29 at #loc42))
#loc93 = loc(callsite(#loc31 at #loc42))
#loc94 = loc(callsite(#loc32 at #loc42))
#loc95 = loc(callsite(#loc33 at #loc42))
#loc96 = loc(callsite(#loc29 at #loc48))
#loc97 = loc(callsite(#loc31 at #loc48))
#loc98 = loc(callsite(#loc32 at #loc48))
#loc99 = loc(callsite(#loc33 at #loc48))
#loc100 = loc(callsite(#loc29 at #loc52))
#loc101 = loc(callsite(#loc31 at #loc52))
#loc102 = loc(callsite(#loc32 at #loc52))
#loc103 = loc(callsite(#loc33 at #loc52))
#loc104 = loc(callsite(#loc29 at #loc57))
#loc105 = loc(callsite(#loc31 at #loc57))
#loc106 = loc(callsite(#loc32 at #loc57))
#loc107 = loc(callsite(#loc33 at #loc57))
#loc108 = loc(callsite(#loc29 at #loc64))
#loc109 = loc(callsite(#loc31 at #loc64))
#loc110 = loc(callsite(#loc32 at #loc64))
#loc111 = loc(callsite(#loc33 at #loc64))
#loc112 = loc(callsite(#loc29 at #loc69))
#loc113 = loc(callsite(#loc31 at #loc69))
#loc114 = loc(callsite(#loc32 at #loc69))
#loc115 = loc(callsite(#loc33 at #loc69))
#loc116 = loc(callsite(#loc29 at #loc74))
#loc117 = loc(callsite(#loc31 at #loc74))
#loc118 = loc(callsite(#loc32 at #loc74))
#loc119 = loc(callsite(#loc33 at #loc74))
