#loc = loc("inductor_cache/ex/cext3lyij3xukr33tgutgr4pyohesqmebaq55tjuqdir2rrikbwp.py":19:0)
module {
  tt.func public @triton_poi_fused_cat_6(%arg0: !tt.ptr<f32> {tt.divisibility = 16 : i32} loc("inductor_cache/ex/cext3lyij3xukr33tgutgr4pyohesqmebaq55tjuqdir2rrikbwp.py":19:0), %arg1: !tt.ptr<f32> loc("inductor_cache/ex/cext3lyij3xukr33tgutgr4pyohesqmebaq55tjuqdir2rrikbwp.py":19:0), %arg2: i32 {tt.divisibility = 16 : i32} loc("inductor_cache/ex/cext3lyij3xukr33tgutgr4pyohesqmebaq55tjuqdir2rrikbwp.py":19:0)) attributes {noinline = false} {
    %cst = arith.constant dense<25> : tensor<256xi32> loc(#loc1)
    %cst_0 = arith.constant dense<-1.000000e+04> : tensor<256xf32> loc(#loc1)
    %cst_1 = arith.constant dense<-4> : tensor<256xi32> loc(#loc1)
    %cst_2 = arith.constant dense<4> : tensor<256xi64> loc(#loc1)
    %cst_3 = arith.constant dense<0> : tensor<256xi64> loc(#loc1)
    %cst_4 = arith.constant dense<-1> : tensor<256xi32> loc(#loc1)
    %cst_5 = arith.constant dense<4> : tensor<256xi32> loc(#loc1)
    %cst_6 = arith.constant dense<256> : tensor<256xi32> loc(#loc1)
    %c256_i32 = arith.constant 256 : i32 loc(#loc1)
    %0 = tt.get_program_id x : i32 loc(#loc2)
    %1 = arith.muli %0, %c256_i32 : i32 loc(#loc3)
    %2 = tt.make_range {end = 256 : i32, start = 0 : i32} : tensor<256xi32> loc(#loc4)
    %3 = tt.splat %1 : i32 -> tensor<256xi32> loc(#loc5)
    %4 = arith.addi %3, %2 : tensor<256xi32> loc(#loc5)
    %5 = arith.cmpi slt, %4, %cst_6 : tensor<256xi32> loc(#loc6)
    %6 = arith.divsi %4, %cst_5 : tensor<256xi32> loc(#loc7)
    %7 = arith.remsi %6, %cst_5 : tensor<256xi32> loc(#loc8)
    %8 = arith.remsi %4, %cst_5 : tensor<256xi32> loc(#loc9)
    %9 = arith.addi %7, %cst_4 : tensor<256xi32> loc(#loc10)
    %10 = arith.extsi %9 : tensor<256xi32> to tensor<256xi64> loc(#loc11)
    %11 = arith.cmpi sge, %10, %cst_3 : tensor<256xi64> loc(#loc11)
    %12 = arith.cmpi slt, %10, %cst_2 : tensor<256xi64> loc(#loc12)
    %13 = arith.extsi %8 : tensor<256xi32> to tensor<256xi64> loc(#loc13)
    %14 = arith.cmpi sge, %13, %cst_3 : tensor<256xi64> loc(#loc13)
    %15 = arith.cmpi slt, %13, %cst_2 : tensor<256xi64> loc(#loc14)
    %16 = arith.andi %11, %12 : tensor<256xi1> loc(#loc15)
    %17 = arith.andi %16, %14 : tensor<256xi1> loc(#loc16)
    %18 = arith.andi %17, %15 : tensor<256xi1> loc(#loc17)
    %19 = arith.addi %4, %cst_1 : tensor<256xi32> loc(#loc18)
    %20 = tt.splat %arg0 : !tt.ptr<f32> -> tensor<256x!tt.ptr<f32>> loc(#loc19)
    %21 = tt.addptr %20, %19 : tensor<256x!tt.ptr<f32>>, tensor<256xi32> loc(#loc19)
    %22 = arith.andi %18, %5 : tensor<256xi1> loc(#loc20)
    %23 = tt.load %21, %22, %cst_0 : tensor<256x!tt.ptr<f32>> loc(#loc21)
    %24 = arith.muli %4, %cst : tensor<256xi32> loc(#loc22)
    %25 = tt.splat %arg1 : !tt.ptr<f32> -> tensor<256x!tt.ptr<f32>> loc(#loc23)
    %26 = tt.addptr %25, %24 : tensor<256x!tt.ptr<f32>>, tensor<256xi32> loc(#loc23)
    tt.store %26, %23, %5 : tensor<256x!tt.ptr<f32>> loc(#loc24)
    tt.return loc(#loc25)
  } loc(#loc)
} loc(#loc)
#loc1 = loc(unknown)
#loc2 = loc("inductor_cache/ex/cext3lyij3xukr33tgutgr4pyohesqmebaq55tjuqdir2rrikbwp.py":21:28)
#loc3 = loc("inductor_cache/ex/cext3lyij3xukr33tgutgr4pyohesqmebaq55tjuqdir2rrikbwp.py":21:33)
#loc4 = loc("inductor_cache/ex/cext3lyij3xukr33tgutgr4pyohesqmebaq55tjuqdir2rrikbwp.py":22:36)
#loc5 = loc("inductor_cache/ex/cext3lyij3xukr33tgutgr4pyohesqmebaq55tjuqdir2rrikbwp.py":22:23)
#loc6 = loc("inductor_cache/ex/cext3lyij3xukr33tgutgr4pyohesqmebaq55tjuqdir2rrikbwp.py":23:21)
#loc7 = loc("inductor_cache/ex/cext3lyij3xukr33tgutgr4pyohesqmebaq55tjuqdir2rrikbwp.py":24:21)
#loc8 = loc("inductor_cache/ex/cext3lyij3xukr33tgutgr4pyohesqmebaq55tjuqdir2rrikbwp.py":24:26)
#loc9 = loc("inductor_cache/ex/cext3lyij3xukr33tgutgr4pyohesqmebaq55tjuqdir2rrikbwp.py":25:19)
#loc10 = loc("inductor_cache/ex/cext3lyij3xukr33tgutgr4pyohesqmebaq55tjuqdir2rrikbwp.py":27:18)
#loc11 = loc("inductor_cache/ex/cext3lyij3xukr33tgutgr4pyohesqmebaq55tjuqdir2rrikbwp.py":29:19)
#loc12 = loc("inductor_cache/ex/cext3lyij3xukr33tgutgr4pyohesqmebaq55tjuqdir2rrikbwp.py":31:18)
#loc13 = loc("inductor_cache/ex/cext3lyij3xukr33tgutgr4pyohesqmebaq55tjuqdir2rrikbwp.py":33:19)
#loc14 = loc("inductor_cache/ex/cext3lyij3xukr33tgutgr4pyohesqmebaq55tjuqdir2rrikbwp.py":34:18)
#loc15 = loc("inductor_cache/ex/cext3lyij3xukr33tgutgr4pyohesqmebaq55tjuqdir2rrikbwp.py":35:18)
#loc16 = loc("inductor_cache/ex/cext3lyij3xukr33tgutgr4pyohesqmebaq55tjuqdir2rrikbwp.py":36:18)
#loc17 = loc("inductor_cache/ex/cext3lyij3xukr33tgutgr4pyohesqmebaq55tjuqdir2rrikbwp.py":37:19)
#loc18 = loc("inductor_cache/ex/cext3lyij3xukr33tgutgr4pyohesqmebaq55tjuqdir2rrikbwp.py":38:38)
#loc19 = loc("inductor_cache/ex/cext3lyij3xukr33tgutgr4pyohesqmebaq55tjuqdir2rrikbwp.py":38:31)
#loc20 = loc("inductor_cache/ex/cext3lyij3xukr33tgutgr4pyohesqmebaq55tjuqdir2rrikbwp.py":38:51)
#loc21 = loc("inductor_cache/ex/cext3lyij3xukr33tgutgr4pyohesqmebaq55tjuqdir2rrikbwp.py":38:43)
#loc22 = loc("inductor_cache/ex/cext3lyij3xukr33tgutgr4pyohesqmebaq55tjuqdir2rrikbwp.py":39:28)
#loc23 = loc("inductor_cache/ex/cext3lyij3xukr33tgutgr4pyohesqmebaq55tjuqdir2rrikbwp.py":39:25)
#loc24 = loc("inductor_cache/ex/cext3lyij3xukr33tgutgr4pyohesqmebaq55tjuqdir2rrikbwp.py":39:40)
#loc25 = loc("inductor_cache/ex/cext3lyij3xukr33tgutgr4pyohesqmebaq55tjuqdir2rrikbwp.py":39:4)
