#loc = loc("inductor_cache/53/c53qykjszpxtilaljhmx22eftahqhncootwyrskvstsx26he4io4.py":19:0)
module {
  tt.func public @triton_poi_fused__unsafe_index_add_convolution_mul_sub_25(%arg0: !tt.ptr<f32> {tt.divisibility = 16 : i32} loc("inductor_cache/53/c53qykjszpxtilaljhmx22eftahqhncootwyrskvstsx26he4io4.py":19:0), %arg1: !tt.ptr<i64> {tt.divisibility = 16 : i32} loc("inductor_cache/53/c53qykjszpxtilaljhmx22eftahqhncootwyrskvstsx26he4io4.py":19:0), %arg2: !tt.ptr<i64> {tt.divisibility = 16 : i32} loc("inductor_cache/53/c53qykjszpxtilaljhmx22eftahqhncootwyrskvstsx26he4io4.py":19:0), %arg3: !tt.ptr<f32> {tt.divisibility = 16 : i32} loc("inductor_cache/53/c53qykjszpxtilaljhmx22eftahqhncootwyrskvstsx26he4io4.py":19:0), %arg4: !tt.ptr<i64> {tt.divisibility = 16 : i32} loc("inductor_cache/53/c53qykjszpxtilaljhmx22eftahqhncootwyrskvstsx26he4io4.py":19:0), %arg5: !tt.ptr<f32> {tt.divisibility = 16 : i32} loc("inductor_cache/53/c53qykjszpxtilaljhmx22eftahqhncootwyrskvstsx26he4io4.py":19:0), %arg6: !tt.ptr<i64> {tt.divisibility = 16 : i32} loc("inductor_cache/53/c53qykjszpxtilaljhmx22eftahqhncootwyrskvstsx26he4io4.py":19:0), %arg7: !tt.ptr<f32> {tt.divisibility = 16 : i32} loc("inductor_cache/53/c53qykjszpxtilaljhmx22eftahqhncootwyrskvstsx26he4io4.py":19:0), %arg8: !tt.ptr<f32> {tt.divisibility = 16 : i32} loc("inductor_cache/53/c53qykjszpxtilaljhmx22eftahqhncootwyrskvstsx26he4io4.py":19:0), %arg9: i32 {tt.divisibility = 16 : i32} loc("inductor_cache/53/c53qykjszpxtilaljhmx22eftahqhncootwyrskvstsx26he4io4.py":19:0), %arg10: i32 loc("inductor_cache/53/c53qykjszpxtilaljhmx22eftahqhncootwyrskvstsx26he4io4.py":19:0)) attributes {noinline = false} {
    %c2_i32 = arith.constant 2 : i32 loc(#loc1)
    %c4_i32 = arith.constant 4 : i32 loc(#loc1)
    %cst = arith.constant dense<1024> : tensor<1x256xi32> loc(#loc1)
    %cst_0 = arith.constant dense<256> : tensor<1x256xi32> loc(#loc1)
    %c256_i32 = arith.constant 256 : i32 loc(#loc1)
    %0 = tt.get_program_id y : i32 loc(#loc2)
    %1 = arith.muli %0, %c256_i32 : i32 loc(#loc3)
    %2 = tt.make_range {end = 256 : i32, start = 0 : i32} : tensor<256xi32> loc(#loc4)
    %3 = tt.expand_dims %2 {axis = 0 : i32} : tensor<256xi32> -> tensor<1x256xi32> loc(#loc5)
    %4 = tt.splat %1 : i32 -> tensor<1x256xi32> loc(#loc6)
    %5 = arith.addi %4, %3 : tensor<1x256xi32> loc(#loc6)
    %6 = tt.get_program_id x : i32 loc(#loc7)
    %7 = arith.cmpi slt, %6, %c4_i32 : i32 loc(#loc8)
    %8 = tt.splat %7 : i1 -> tensor<1x1xi1> loc(#loc8)
    %9 = arith.divsi %6, %c2_i32 : i32 loc(#loc9)
    %10 = arith.remsi %6, %c2_i32 : i32 loc(#loc10)
    %11 = arith.remsi %5, %cst_0 : tensor<1x256xi32> loc(#loc11)
    %12 = arith.divsi %5, %cst_0 : tensor<1x256xi32> loc(#loc12)
    %13 = tt.splat %arg3 : !tt.ptr<f32> -> tensor<1x256x!tt.ptr<f32>> loc(#loc13)
    %14 = tt.addptr %13, %5 : tensor<1x256x!tt.ptr<f32>>, tensor<1x256xi32> loc(#loc13)
    %15 = tt.load %14 evictionPolicy = evict_last : tensor<1x256x!tt.ptr<f32>> loc(#loc14)
    %16 = tt.addptr %arg5, %10 : !tt.ptr<f32>, i32 loc(#loc15)
    %17 = tt.splat %16 : !tt.ptr<f32> -> tensor<1x1x!tt.ptr<f32>> loc(#loc15)
    %18 = tt.load %17, %8 evictionPolicy = evict_last : tensor<1x1x!tt.ptr<f32>> loc(#loc16)
    %19 = tt.addptr %arg7, %9 : !tt.ptr<f32>, i32 loc(#loc17)
    %20 = tt.splat %19 : !tt.ptr<f32> -> tensor<1x1x!tt.ptr<f32>> loc(#loc17)
    %21 = tt.load %20, %8 evictionPolicy = evict_last : tensor<1x1x!tt.ptr<f32>> loc(#loc18)
    %22 = arith.muli %6, %c256_i32 : i32 loc(#loc19)
    %23 = tt.splat %22 : i32 -> tensor<1x256xi32> loc(#loc20)
    %24 = arith.addi %11, %23 : tensor<1x256xi32> loc(#loc20)
    %25 = arith.muli %12, %cst : tensor<1x256xi32> loc(#loc21)
    %26 = arith.addi %24, %25 : tensor<1x256xi32> loc(#loc22)
    %27 = tt.splat %arg0 : !tt.ptr<f32> -> tensor<1x256x!tt.ptr<f32>> loc(#loc23)
    %28 = tt.addptr %27, %26 : tensor<1x256x!tt.ptr<f32>>, tensor<1x256xi32> loc(#loc23)
    %29 = tt.splat %7 : i1 -> tensor<1x256xi1> loc(#loc24)
    %30 = tt.load %28, %29 evictionPolicy = evict_last : tensor<1x256x!tt.ptr<f32>> loc(#loc24)
    %31 = tt.splat %arg8 : !tt.ptr<f32> -> tensor<1x256x!tt.ptr<f32>> loc(#loc25)
    %32 = tt.addptr %31, %11 : tensor<1x256x!tt.ptr<f32>>, tensor<1x256xi32> loc(#loc25)
    %33 = tt.load %32 evictionPolicy = evict_last : tensor<1x256x!tt.ptr<f32>> loc(#loc26)
    %34 = arith.subf %15, %15 : tensor<1x256xf32> loc(#loc27)
    %35 = tt.broadcast %18 : tensor<1x1xf32> -> tensor<1x256xf32> loc(#loc28)
    %36 = arith.mulf %34, %35 : tensor<1x256xf32> loc(#loc28)
    %37 = arith.addf %15, %36 : tensor<1x256xf32> loc(#loc29)
    %38 = arith.subf %37, %37 : tensor<1x256xf32> loc(#loc30)
    %39 = tt.broadcast %21 : tensor<1x1xf32> -> tensor<1x256xf32> loc(#loc31)
    %40 = arith.mulf %38, %39 : tensor<1x256xf32> loc(#loc31)
    %41 = arith.addf %37, %40 : tensor<1x256xf32> loc(#loc32)
    %42 = arith.addf %30, %33 : tensor<1x256xf32> loc(#loc33)
    %43 = arith.addf %41, %42 : tensor<1x256xf32> loc(#loc34)
    gpu.barrier loc(#loc35)
    tt.store %28, %43, %29 : tensor<1x256x!tt.ptr<f32>> loc(#loc36)
    tt.return loc(#loc37)
  } loc(#loc)
} loc(#loc)
#loc1 = loc(unknown)
#loc2 = loc("inductor_cache/53/c53qykjszpxtilaljhmx22eftahqhncootwyrskvstsx26he4io4.py":22:28)
#loc3 = loc("inductor_cache/53/c53qykjszpxtilaljhmx22eftahqhncootwyrskvstsx26he4io4.py":22:33)
#loc4 = loc("inductor_cache/53/c53qykjszpxtilaljhmx22eftahqhncootwyrskvstsx26he4io4.py":23:36)
#loc5 = loc("inductor_cache/53/c53qykjszpxtilaljhmx22eftahqhncootwyrskvstsx26he4io4.py":23:44)
#loc6 = loc("inductor_cache/53/c53qykjszpxtilaljhmx22eftahqhncootwyrskvstsx26he4io4.py":23:23)
#loc7 = loc("inductor_cache/53/c53qykjszpxtilaljhmx22eftahqhncootwyrskvstsx26he4io4.py":25:28)
#loc8 = loc("inductor_cache/53/c53qykjszpxtilaljhmx22eftahqhncootwyrskvstsx26he4io4.py":27:21)
#loc9 = loc("inductor_cache/53/c53qykjszpxtilaljhmx22eftahqhncootwyrskvstsx26he4io4.py":28:19)
#loc10 = loc("inductor_cache/53/c53qykjszpxtilaljhmx22eftahqhncootwyrskvstsx26he4io4.py":29:19)
#loc11 = loc("inductor_cache/53/c53qykjszpxtilaljhmx22eftahqhncootwyrskvstsx26he4io4.py":32:19)
#loc12 = loc("inductor_cache/53/c53qykjszpxtilaljhmx22eftahqhncootwyrskvstsx26he4io4.py":33:19)
#loc13 = loc("inductor_cache/53/c53qykjszpxtilaljhmx22eftahqhncootwyrskvstsx26he4io4.py":36:30)
#loc14 = loc("inductor_cache/53/c53qykjszpxtilaljhmx22eftahqhncootwyrskvstsx26he4io4.py":36:35)
#loc15 = loc("inductor_cache/53/c53qykjszpxtilaljhmx22eftahqhncootwyrskvstsx26he4io4.py":38:31)
#loc16 = loc("inductor_cache/53/c53qykjszpxtilaljhmx22eftahqhncootwyrskvstsx26he4io4.py":38:36)
#loc17 = loc("inductor_cache/53/c53qykjszpxtilaljhmx22eftahqhncootwyrskvstsx26he4io4.py":40:31)
#loc18 = loc("inductor_cache/53/c53qykjszpxtilaljhmx22eftahqhncootwyrskvstsx26he4io4.py":40:36)
#loc19 = loc("inductor_cache/53/c53qykjszpxtilaljhmx22eftahqhncootwyrskvstsx26he4io4.py":41:44)
#loc20 = loc("inductor_cache/53/c53qykjszpxtilaljhmx22eftahqhncootwyrskvstsx26he4io4.py":41:40)
#loc21 = loc("inductor_cache/53/c53qykjszpxtilaljhmx22eftahqhncootwyrskvstsx26he4io4.py":41:54)
#loc22 = loc("inductor_cache/53/c53qykjszpxtilaljhmx22eftahqhncootwyrskvstsx26he4io4.py":41:49)
#loc23 = loc("inductor_cache/53/c53qykjszpxtilaljhmx22eftahqhncootwyrskvstsx26he4io4.py":41:35)
#loc24 = loc("inductor_cache/53/c53qykjszpxtilaljhmx22eftahqhncootwyrskvstsx26he4io4.py":41:59)
#loc25 = loc("inductor_cache/53/c53qykjszpxtilaljhmx22eftahqhncootwyrskvstsx26he4io4.py":42:31)
#loc26 = loc("inductor_cache/53/c53qykjszpxtilaljhmx22eftahqhncootwyrskvstsx26he4io4.py":42:36)
#loc27 = loc("inductor_cache/53/c53qykjszpxtilaljhmx22eftahqhncootwyrskvstsx26he4io4.py":53:19)
#loc28 = loc("inductor_cache/53/c53qykjszpxtilaljhmx22eftahqhncootwyrskvstsx26he4io4.py":54:20)
#loc29 = loc("inductor_cache/53/c53qykjszpxtilaljhmx22eftahqhncootwyrskvstsx26he4io4.py":55:19)
#loc30 = loc("inductor_cache/53/c53qykjszpxtilaljhmx22eftahqhncootwyrskvstsx26he4io4.py":59:20)
#loc31 = loc("inductor_cache/53/c53qykjszpxtilaljhmx22eftahqhncootwyrskvstsx26he4io4.py":60:20)
#loc32 = loc("inductor_cache/53/c53qykjszpxtilaljhmx22eftahqhncootwyrskvstsx26he4io4.py":61:20)
#loc33 = loc("inductor_cache/53/c53qykjszpxtilaljhmx22eftahqhncootwyrskvstsx26he4io4.py":62:20)
#loc34 = loc("inductor_cache/53/c53qykjszpxtilaljhmx22eftahqhncootwyrskvstsx26he4io4.py":63:20)
#loc35 = loc("inductor_cache/53/c53qykjszpxtilaljhmx22eftahqhncootwyrskvstsx26he4io4.py":64:4)
#loc36 = loc("inductor_cache/53/c53qykjszpxtilaljhmx22eftahqhncootwyrskvstsx26he4io4.py":65:59)
#loc37 = loc("inductor_cache/53/c53qykjszpxtilaljhmx22eftahqhncootwyrskvstsx26he4io4.py":65:4)
