#loc = loc("inductor_cache/qn/cqnhybxtpohz5yyk3t5jcu53g6ro4z6kvj2o6xrbmurbk45swv46.py":19:0)
module {
  tt.func public @triton_poi_fused_mul_rsqrt_0(%arg0: !tt.ptr<f32> {tt.divisibility = 16 : i32} loc("inductor_cache/qn/cqnhybxtpohz5yyk3t5jcu53g6ro4z6kvj2o6xrbmurbk45swv46.py":19:0), %arg1: !tt.ptr<f32> {tt.divisibility = 16 : i32} loc("inductor_cache/qn/cqnhybxtpohz5yyk3t5jcu53g6ro4z6kvj2o6xrbmurbk45swv46.py":19:0), %arg2: !tt.ptr<f32> {tt.divisibility = 16 : i32} loc("inductor_cache/qn/cqnhybxtpohz5yyk3t5jcu53g6ro4z6kvj2o6xrbmurbk45swv46.py":19:0), %arg3: i32 loc("inductor_cache/qn/cqnhybxtpohz5yyk3t5jcu53g6ro4z6kvj2o6xrbmurbk45swv46.py":19:0)) attributes {noinline = false} {
    %cst = arith.constant dense<4> : tensor<4xi32> loc(#loc1)
    %c4_i32 = arith.constant 4 : i32 loc(#loc1)
    %0 = tt.get_program_id x : i32 loc(#loc2)
    %1 = arith.muli %0, %c4_i32 : i32 loc(#loc3)
    %2 = tt.make_range {end = 4 : i32, start = 0 : i32} : tensor<4xi32> loc(#loc4)
    %3 = tt.splat %1 : i32 -> tensor<4xi32> loc(#loc5)
    %4 = arith.addi %3, %2 : tensor<4xi32> loc(#loc5)
    %5 = arith.cmpi slt, %4, %cst : tensor<4xi32> loc(#loc6)
    %6 = tt.splat %arg0 : !tt.ptr<f32> -> tensor<4x!tt.ptr<f32>> loc(#loc7)
    %7 = tt.addptr %6, %4 : tensor<4x!tt.ptr<f32>>, tensor<4xi32> loc(#loc7)
    %8 = tt.load %7, %5 : tensor<4x!tt.ptr<f32>> loc(#loc8)
    %9 = tt.splat %arg1 : !tt.ptr<f32> -> tensor<4x!tt.ptr<f32>> loc(#loc9)
    %10 = tt.addptr %9, %4 : tensor<4x!tt.ptr<f32>>, tensor<4xi32> loc(#loc9)
    %11 = tt.load %10, %5 : tensor<4x!tt.ptr<f32>> loc(#loc10)
    %12 = tt.extern_elementwise %11 {libname = "", libpath = "", pure = true, symbol = "__nv_rsqrtf"} : (tensor<4xf32>) -> tensor<4xf32> loc(#loc11)
    %13 = arith.mulf %8, %12 : tensor<4xf32> loc(#loc12)
    %14 = tt.splat %arg2 : !tt.ptr<f32> -> tensor<4x!tt.ptr<f32>> loc(#loc13)
    %15 = tt.addptr %14, %4 : tensor<4x!tt.ptr<f32>>, tensor<4xi32> loc(#loc13)
    tt.store %15, %13, %5 : tensor<4x!tt.ptr<f32>> loc(#loc14)
    tt.return loc(#loc15)
  } loc(#loc)
} loc(#loc)
#loc1 = loc(unknown)
#loc2 = loc("inductor_cache/qn/cqnhybxtpohz5yyk3t5jcu53g6ro4z6kvj2o6xrbmurbk45swv46.py":21:28)
#loc3 = loc("inductor_cache/qn/cqnhybxtpohz5yyk3t5jcu53g6ro4z6kvj2o6xrbmurbk45swv46.py":21:33)
#loc4 = loc("inductor_cache/qn/cqnhybxtpohz5yyk3t5jcu53g6ro4z6kvj2o6xrbmurbk45swv46.py":22:36)
#loc5 = loc("inductor_cache/qn/cqnhybxtpohz5yyk3t5jcu53g6ro4z6kvj2o6xrbmurbk45swv46.py":22:23)
#loc6 = loc("inductor_cache/qn/cqnhybxtpohz5yyk3t5jcu53g6ro4z6kvj2o6xrbmurbk45swv46.py":23:21)
#loc7 = loc("inductor_cache/qn/cqnhybxtpohz5yyk3t5jcu53g6ro4z6kvj2o6xrbmurbk45swv46.py":25:30)
#loc8 = loc("inductor_cache/qn/cqnhybxtpohz5yyk3t5jcu53g6ro4z6kvj2o6xrbmurbk45swv46.py":25:35)
#loc9 = loc("inductor_cache/qn/cqnhybxtpohz5yyk3t5jcu53g6ro4z6kvj2o6xrbmurbk45swv46.py":26:30)
#loc10 = loc("inductor_cache/qn/cqnhybxtpohz5yyk3t5jcu53g6ro4z6kvj2o6xrbmurbk45swv46.py":26:35)
#loc11 = loc("inductor_cache/qn/cqnhybxtpohz5yyk3t5jcu53g6ro4z6kvj2o6xrbmurbk45swv46.py":27:27)
#loc12 = loc("inductor_cache/qn/cqnhybxtpohz5yyk3t5jcu53g6ro4z6kvj2o6xrbmurbk45swv46.py":28:18)
#loc13 = loc("inductor_cache/qn/cqnhybxtpohz5yyk3t5jcu53g6ro4z6kvj2o6xrbmurbk45swv46.py":29:25)
#loc14 = loc("inductor_cache/qn/cqnhybxtpohz5yyk3t5jcu53g6ro4z6kvj2o6xrbmurbk45swv46.py":29:36)
#loc15 = loc("inductor_cache/qn/cqnhybxtpohz5yyk3t5jcu53g6ro4z6kvj2o6xrbmurbk45swv46.py":29:4)
