#loc = loc("inductor_cache/m3/cm3tzt4o3gabxzg5ywte3rebsnjyrnhzep4xwf2ajb2aqnsqepab.py":19:0)
#loc1 = loc(unknown)
#loc47 = loc("inductor_cache/m3/cm3tzt4o3gabxzg5ywte3rebsnjyrnhzep4xwf2ajb2aqnsqepab.py":54:44)
#loc73 = loc(callsite(#loc1 at #loc47))
module {
  tt.func public @triton_red_fused_avg_pool2d_native_group_norm_17(%arg0: !tt.ptr<f32> {tt.divisibility = 16 : i32} loc("inductor_cache/m3/cm3tzt4o3gabxzg5ywte3rebsnjyrnhzep4xwf2ajb2aqnsqepab.py":19:0), %arg1: !tt.ptr<f32> {tt.divisibility = 16 : i32} loc("inductor_cache/m3/cm3tzt4o3gabxzg5ywte3rebsnjyrnhzep4xwf2ajb2aqnsqepab.py":19:0), %arg2: !tt.ptr<f32> {tt.divisibility = 16 : i32} loc("inductor_cache/m3/cm3tzt4o3gabxzg5ywte3rebsnjyrnhzep4xwf2ajb2aqnsqepab.py":19:0), %arg3: !tt.ptr<f32> {tt.divisibility = 16 : i32} loc("inductor_cache/m3/cm3tzt4o3gabxzg5ywte3rebsnjyrnhzep4xwf2ajb2aqnsqepab.py":19:0), %arg4: !tt.ptr<f32> {tt.divisibility = 16 : i32} loc("inductor_cache/m3/cm3tzt4o3gabxzg5ywte3rebsnjyrnhzep4xwf2ajb2aqnsqepab.py":19:0), %arg5: i32 {tt.divisibility = 16 : i32} loc("inductor_cache/m3/cm3tzt4o3gabxzg5ywte3rebsnjyrnhzep4xwf2ajb2aqnsqepab.py":19:0), %arg6: i32 {tt.divisibility = 16 : i32} loc("inductor_cache/m3/cm3tzt4o3gabxzg5ywte3rebsnjyrnhzep4xwf2ajb2aqnsqepab.py":19:0)) attributes {noinline = false} {
    %cst = arith.constant 0.000000e+00 : f32 loc(#loc1)
    %cst_0 = arith.constant dense<1.000000e+00> : tensor<8x512xf32> loc(#loc1)
    %cst_1 = arith.constant dense<9.99999974E-6> : tensor<8x1xf32> loc(#loc1)
    %cst_2 = arith.constant dense<5.120000e+02> : tensor<8x1xf32> loc(#loc1)
    %cst_3 = arith.constant dense<512> : tensor<8x1xi32> loc(#loc1)
    %cst_4 = arith.constant dense<2.500000e-01> : tensor<8x512xf32> loc(#loc1)
    %cst_5 = arith.constant dense<17> : tensor<1x512xi32> loc(#loc1)
    %cst_6 = arith.constant dense<16> : tensor<1x512xi32> loc(#loc1)
    %cst_7 = arith.constant dense<1> : tensor<1x512xi32> loc(#loc1)
    %cst_8 = arith.constant dense<0.000000e+00> : tensor<8x512xf32> loc(#loc1)
    %cst_9 = arith.constant dense<2048> : tensor<8x1xi32> loc(#loc1)
    %cst_10 = arith.constant dense<32> : tensor<1x512xi32> loc(#loc1)
    %cst_11 = arith.constant dense<2> : tensor<1x512xi32> loc(#loc1)
    %cst_12 = arith.constant dense<8> : tensor<1x512xi32> loc(#loc1)
    %cst_13 = arith.constant dense<512> : tensor<1x512xi32> loc(#loc1)
    %cst_14 = arith.constant dense<128> : tensor<8x1xi32> loc(#loc1)
    %c8_i32 = arith.constant 8 : i32 loc(#loc1)
    %0 = tt.get_program_id x : i32 loc(#loc2)
    %1 = arith.muli %0, %c8_i32 : i32 loc(#loc3)
    %2 = tt.make_range {end = 8 : i32, start = 0 : i32} : tensor<8xi32> loc(#loc4)
    %3 = tt.expand_dims %2 {axis = 1 : i32} : tensor<8xi32> -> tensor<8x1xi32> loc(#loc5)
    %4 = tt.splat %1 : i32 -> tensor<8x1xi32> loc(#loc6)
    %5 = arith.addi %4, %3 : tensor<8x1xi32> loc(#loc6)
    %6 = arith.cmpi slt, %5, %cst_14 : tensor<8x1xi32> loc(#loc7)
    %7 = tt.make_range {end = 512 : i32, start = 0 : i32} : tensor<512xi32> loc(#loc8)
    %8 = tt.expand_dims %7 {axis = 0 : i32} : tensor<512xi32> -> tensor<1x512xi32> loc(#loc9)
    %9 = arith.cmpi slt, %8, %cst_13 : tensor<1x512xi32> loc(#loc10)
    %10 = arith.remsi %8, %cst_12 : tensor<1x512xi32> loc(#loc11)
    %11 = arith.divsi %8, %cst_12 : tensor<1x512xi32> loc(#loc12)
    %12 = arith.muli %10, %cst_11 : tensor<1x512xi32> loc(#loc13)
    %13 = arith.muli %11, %cst_10 : tensor<1x512xi32> loc(#loc14)
    %14 = arith.addi %12, %13 : tensor<1x512xi32> loc(#loc15)
    %15 = arith.muli %5, %cst_9 : tensor<8x1xi32> loc(#loc16)
    %16 = tt.broadcast %14 : tensor<1x512xi32> -> tensor<8x512xi32> loc(#loc17)
    %17 = tt.broadcast %15 : tensor<8x1xi32> -> tensor<8x512xi32> loc(#loc17)
    %18 = arith.addi %16, %17 : tensor<8x512xi32> loc(#loc17)
    %19 = tt.splat %arg0 : !tt.ptr<f32> -> tensor<8x512x!tt.ptr<f32>> loc(#loc18)
    %20 = tt.addptr %19, %18 : tensor<8x512x!tt.ptr<f32>>, tensor<8x512xi32> loc(#loc18)
    %21 = tt.broadcast %9 : tensor<1x512xi1> -> tensor<8x512xi1> loc(#loc19)
    %22 = tt.broadcast %6 : tensor<8x1xi1> -> tensor<8x512xi1> loc(#loc19)
    %23 = arith.andi %21, %22 : tensor<8x512xi1> loc(#loc19)
    %24 = tt.load %20, %23, %cst_8 evictionPolicy = evict_last : tensor<8x512x!tt.ptr<f32>> loc(#loc20)
    %25 = arith.addi %12, %cst_7 : tensor<1x512xi32> loc(#loc21)
    %26 = arith.addi %25, %13 : tensor<1x512xi32> loc(#loc22)
    %27 = tt.broadcast %26 : tensor<1x512xi32> -> tensor<8x512xi32> loc(#loc23)
    %28 = arith.addi %27, %17 : tensor<8x512xi32> loc(#loc23)
    %29 = tt.addptr %19, %28 : tensor<8x512x!tt.ptr<f32>>, tensor<8x512xi32> loc(#loc24)
    %30 = tt.load %29, %23, %cst_8 evictionPolicy = evict_last : tensor<8x512x!tt.ptr<f32>> loc(#loc25)
    %31 = arith.addi %12, %cst_6 : tensor<1x512xi32> loc(#loc26)
    %32 = arith.addi %31, %13 : tensor<1x512xi32> loc(#loc27)
    %33 = tt.broadcast %32 : tensor<1x512xi32> -> tensor<8x512xi32> loc(#loc28)
    %34 = arith.addi %33, %17 : tensor<8x512xi32> loc(#loc28)
    %35 = tt.addptr %19, %34 : tensor<8x512x!tt.ptr<f32>>, tensor<8x512xi32> loc(#loc29)
    %36 = tt.load %35, %23, %cst_8 evictionPolicy = evict_last : tensor<8x512x!tt.ptr<f32>> loc(#loc30)
    %37 = arith.addi %12, %cst_5 : tensor<1x512xi32> loc(#loc31)
    %38 = arith.addi %37, %13 : tensor<1x512xi32> loc(#loc32)
    %39 = tt.broadcast %38 : tensor<1x512xi32> -> tensor<8x512xi32> loc(#loc33)
    %40 = arith.addi %39, %17 : tensor<8x512xi32> loc(#loc33)
    %41 = tt.addptr %19, %40 : tensor<8x512x!tt.ptr<f32>>, tensor<8x512xi32> loc(#loc34)
    %42 = tt.load %41, %23, %cst_8 evictionPolicy = evict_last : tensor<8x512x!tt.ptr<f32>> loc(#loc35)
    %43 = arith.addf %30, %24 : tensor<8x512xf32> loc(#loc36)
    %44 = arith.addf %36, %43 : tensor<8x512xf32> loc(#loc37)
    %45 = arith.addf %42, %44 : tensor<8x512xf32> loc(#loc38)
    %46 = arith.mulf %45, %cst_4 : tensor<8x512xf32> loc(#loc39)
    %47 = arith.select %23, %46, %cst_8 : tensor<8x512xi1>, tensor<8x512xf32> loc(#loc40)
    %48 = arith.select %23, %cst_0, %cst_8 : tensor<8x512xi1>, tensor<8x512xf32> loc(#loc41)
    %49 = arith.muli %5, %cst_3 : tensor<8x1xi32> loc(#loc42)
    %50 = tt.broadcast %8 : tensor<1x512xi32> -> tensor<8x512xi32> loc(#loc43)
    %51 = tt.broadcast %49 : tensor<8x1xi32> -> tensor<8x512xi32> loc(#loc43)
    %52 = arith.addi %50, %51 : tensor<8x512xi32> loc(#loc43)
    %53 = tt.splat %arg1 : !tt.ptr<f32> -> tensor<8x512x!tt.ptr<f32>> loc(#loc44)
    %54 = tt.addptr %53, %52 : tensor<8x512x!tt.ptr<f32>>, tensor<8x512xi32> loc(#loc44)
    tt.store %54, %46, %23 : tensor<8x512x!tt.ptr<f32>> loc(#loc45)
    %55:3 = "tt.reduce"(%47, %cst_8, %48) <{axis = 1 : i32}> ({
    ^bb0(%arg7: f32 loc(callsite(#loc1 at #loc47)), %arg8: f32 loc(callsite(#loc1 at #loc47)), %arg9: f32 loc(callsite(#loc1 at #loc47)), %arg10: f32 loc(callsite(#loc1 at #loc47)), %arg11: f32 loc(callsite(#loc1 at #loc47)), %arg12: f32 loc(callsite(#loc1 at #loc47))):
      %67 = arith.subf %arg10, %arg7 : f32 loc(#loc86)
      %68 = arith.addf %arg9, %arg12 : f32 loc(#loc87)
      %69 = arith.cmpf oeq, %68, %cst : f32 loc(#loc88)
      %70 = arith.divf %arg12, %68 : f32 loc(#loc89)
      %71 = arith.select %69, %cst, %70 : f32 loc(#loc90)
      %72 = arith.mulf %67, %71 : f32 loc(#loc91)
      %73 = arith.addf %arg7, %72 : f32 loc(#loc92)
      %74 = arith.addf %arg8, %arg11 : f32 loc(#loc93)
      %75 = arith.mulf %67, %67 : f32 loc(#loc94)
      %76 = arith.mulf %75, %arg9 : f32 loc(#loc95)
      %77 = arith.mulf %76, %71 : f32 loc(#loc96)
      %78 = arith.addf %74, %77 : f32 loc(#loc97)
      tt.reduce.return %73, %78, %68 : f32, f32, f32 loc(#loc72)
    }) : (tensor<8x512xf32>, tensor<8x512xf32>, tensor<8x512xf32>) -> (tensor<8xf32>, tensor<8xf32>, tensor<8xf32>) loc(#loc72)
    %56 = tt.expand_dims %55#0 {axis = 1 : i32} : tensor<8xf32> -> tensor<8x1xf32> loc(#loc60)
    %57 = tt.expand_dims %55#1 {axis = 1 : i32} : tensor<8xf32> -> tensor<8x1xf32> loc(#loc61)
    %58 = tt.splat %arg2 : !tt.ptr<f32> -> tensor<8x1x!tt.ptr<f32>> loc(#loc62)
    %59 = tt.addptr %58, %5 : tensor<8x1x!tt.ptr<f32>>, tensor<8x1xi32> loc(#loc62)
    tt.store %59, %56, %6 : tensor<8x1x!tt.ptr<f32>> loc(#loc63)
    %60 = tt.splat %arg3 : !tt.ptr<f32> -> tensor<8x1x!tt.ptr<f32>> loc(#loc64)
    %61 = tt.addptr %60, %5 : tensor<8x1x!tt.ptr<f32>>, tensor<8x1xi32> loc(#loc64)
    tt.store %61, %57, %6 : tensor<8x1x!tt.ptr<f32>> loc(#loc65)
    %62 = arith.divf %57, %cst_2 : tensor<8x1xf32> loc(#loc66)
    %63 = arith.addf %62, %cst_1 : tensor<8x1xf32> loc(#loc67)
    %64 = tt.extern_elementwise %63 {libname = "", libpath = "", pure = true, symbol = "__nv_rsqrtf"} : (tensor<8x1xf32>) -> tensor<8x1xf32> loc(#loc68)
    %65 = tt.splat %arg4 : !tt.ptr<f32> -> tensor<8x1x!tt.ptr<f32>> loc(#loc69)
    %66 = tt.addptr %65, %5 : tensor<8x1x!tt.ptr<f32>>, tensor<8x1xi32> loc(#loc69)
    tt.store %66, %64, %6 : tensor<8x1x!tt.ptr<f32>> loc(#loc70)
    tt.return loc(#loc71)
  } loc(#loc)
} loc(#loc)
#loc2 = loc("inductor_cache/m3/cm3tzt4o3gabxzg5ywte3rebsnjyrnhzep4xwf2ajb2aqnsqepab.py":22:28)
#loc3 = loc("inductor_cache/m3/cm3tzt4o3gabxzg5ywte3rebsnjyrnhzep4xwf2ajb2aqnsqepab.py":22:33)
#loc4 = loc("inductor_cache/m3/cm3tzt4o3gabxzg5ywte3rebsnjyrnhzep4xwf2ajb2aqnsqepab.py":23:36)
#loc5 = loc("inductor_cache/m3/cm3tzt4o3gabxzg5ywte3rebsnjyrnhzep4xwf2ajb2aqnsqepab.py":23:44)
#loc6 = loc("inductor_cache/m3/cm3tzt4o3gabxzg5ywte3rebsnjyrnhzep4xwf2ajb2aqnsqepab.py":23:23)
#loc7 = loc("inductor_cache/m3/cm3tzt4o3gabxzg5ywte3rebsnjyrnhzep4xwf2ajb2aqnsqepab.py":24:21)
#loc8 = loc("inductor_cache/m3/cm3tzt4o3gabxzg5ywte3rebsnjyrnhzep4xwf2ajb2aqnsqepab.py":25:25)
#loc9 = loc("inductor_cache/m3/cm3tzt4o3gabxzg5ywte3rebsnjyrnhzep4xwf2ajb2aqnsqepab.py":25:33)
#loc10 = loc("inductor_cache/m3/cm3tzt4o3gabxzg5ywte3rebsnjyrnhzep4xwf2ajb2aqnsqepab.py":32:25)
#loc11 = loc("inductor_cache/m3/cm3tzt4o3gabxzg5ywte3rebsnjyrnhzep4xwf2ajb2aqnsqepab.py":33:23)
#loc12 = loc("inductor_cache/m3/cm3tzt4o3gabxzg5ywte3rebsnjyrnhzep4xwf2ajb2aqnsqepab.py":34:23)
#loc13 = loc("inductor_cache/m3/cm3tzt4o3gabxzg5ywte3rebsnjyrnhzep4xwf2ajb2aqnsqepab.py":36:36)
#loc14 = loc("inductor_cache/m3/cm3tzt4o3gabxzg5ywte3rebsnjyrnhzep4xwf2ajb2aqnsqepab.py":36:44)
#loc15 = loc("inductor_cache/m3/cm3tzt4o3gabxzg5ywte3rebsnjyrnhzep4xwf2ajb2aqnsqepab.py":36:41)
#loc16 = loc("inductor_cache/m3/cm3tzt4o3gabxzg5ywte3rebsnjyrnhzep4xwf2ajb2aqnsqepab.py":36:54)
#loc17 = loc("inductor_cache/m3/cm3tzt4o3gabxzg5ywte3rebsnjyrnhzep4xwf2ajb2aqnsqepab.py":36:49)
#loc18 = loc("inductor_cache/m3/cm3tzt4o3gabxzg5ywte3rebsnjyrnhzep4xwf2ajb2aqnsqepab.py":36:34)
#loc19 = loc("inductor_cache/m3/cm3tzt4o3gabxzg5ywte3rebsnjyrnhzep4xwf2ajb2aqnsqepab.py":36:67)
#loc20 = loc("inductor_cache/m3/cm3tzt4o3gabxzg5ywte3rebsnjyrnhzep4xwf2ajb2aqnsqepab.py":36:59)
#loc21 = loc("inductor_cache/m3/cm3tzt4o3gabxzg5ywte3rebsnjyrnhzep4xwf2ajb2aqnsqepab.py":37:38)
#loc22 = loc("inductor_cache/m3/cm3tzt4o3gabxzg5ywte3rebsnjyrnhzep4xwf2ajb2aqnsqepab.py":37:45)
#loc23 = loc("inductor_cache/m3/cm3tzt4o3gabxzg5ywte3rebsnjyrnhzep4xwf2ajb2aqnsqepab.py":37:53)
#loc24 = loc("inductor_cache/m3/cm3tzt4o3gabxzg5ywte3rebsnjyrnhzep4xwf2ajb2aqnsqepab.py":37:34)
#loc25 = loc("inductor_cache/m3/cm3tzt4o3gabxzg5ywte3rebsnjyrnhzep4xwf2ajb2aqnsqepab.py":37:63)
#loc26 = loc("inductor_cache/m3/cm3tzt4o3gabxzg5ywte3rebsnjyrnhzep4xwf2ajb2aqnsqepab.py":38:39)
#loc27 = loc("inductor_cache/m3/cm3tzt4o3gabxzg5ywte3rebsnjyrnhzep4xwf2ajb2aqnsqepab.py":38:46)
#loc28 = loc("inductor_cache/m3/cm3tzt4o3gabxzg5ywte3rebsnjyrnhzep4xwf2ajb2aqnsqepab.py":38:54)
#loc29 = loc("inductor_cache/m3/cm3tzt4o3gabxzg5ywte3rebsnjyrnhzep4xwf2ajb2aqnsqepab.py":38:34)
#loc30 = loc("inductor_cache/m3/cm3tzt4o3gabxzg5ywte3rebsnjyrnhzep4xwf2ajb2aqnsqepab.py":38:64)
#loc31 = loc("inductor_cache/m3/cm3tzt4o3gabxzg5ywte3rebsnjyrnhzep4xwf2ajb2aqnsqepab.py":39:39)
#loc32 = loc("inductor_cache/m3/cm3tzt4o3gabxzg5ywte3rebsnjyrnhzep4xwf2ajb2aqnsqepab.py":39:46)
#loc33 = loc("inductor_cache/m3/cm3tzt4o3gabxzg5ywte3rebsnjyrnhzep4xwf2ajb2aqnsqepab.py":39:54)
#loc34 = loc("inductor_cache/m3/cm3tzt4o3gabxzg5ywte3rebsnjyrnhzep4xwf2ajb2aqnsqepab.py":39:34)
#loc35 = loc("inductor_cache/m3/cm3tzt4o3gabxzg5ywte3rebsnjyrnhzep4xwf2ajb2aqnsqepab.py":39:64)
#loc36 = loc("inductor_cache/m3/cm3tzt4o3gabxzg5ywte3rebsnjyrnhzep4xwf2ajb2aqnsqepab.py":40:22)
#loc37 = loc("inductor_cache/m3/cm3tzt4o3gabxzg5ywte3rebsnjyrnhzep4xwf2ajb2aqnsqepab.py":41:22)
#loc38 = loc("inductor_cache/m3/cm3tzt4o3gabxzg5ywte3rebsnjyrnhzep4xwf2ajb2aqnsqepab.py":42:22)
#loc39 = loc("inductor_cache/m3/cm3tzt4o3gabxzg5ywte3rebsnjyrnhzep4xwf2ajb2aqnsqepab.py":44:22)
#loc40 = loc("inductor_cache/m3/cm3tzt4o3gabxzg5ywte3rebsnjyrnhzep4xwf2ajb2aqnsqepab.py":49:62)
#loc41 = loc("inductor_cache/m3/cm3tzt4o3gabxzg5ywte3rebsnjyrnhzep4xwf2ajb2aqnsqepab.py":51:66)
#loc42 = loc("inductor_cache/m3/cm3tzt4o3gabxzg5ywte3rebsnjyrnhzep4xwf2ajb2aqnsqepab.py":52:38)
#loc43 = loc("inductor_cache/m3/cm3tzt4o3gabxzg5ywte3rebsnjyrnhzep4xwf2ajb2aqnsqepab.py":52:34)
#loc44 = loc("inductor_cache/m3/cm3tzt4o3gabxzg5ywte3rebsnjyrnhzep4xwf2ajb2aqnsqepab.py":52:29)
#loc45 = loc("inductor_cache/m3/cm3tzt4o3gabxzg5ywte3rebsnjyrnhzep4xwf2ajb2aqnsqepab.py":52:49)
#loc46 = loc("/home/sahanp/.conda/envs/parity-bench/lib/python3.12/site-packages/torch/_inductor/runtime/triton_helpers.py":204:46)
#loc48 = loc("/home/sahanp/.conda/envs/parity-bench/lib/python3.12/site-packages/torch/_inductor/runtime/triton_helpers.py":192:21)
#loc49 = loc("/home/sahanp/.conda/envs/parity-bench/lib/python3.12/site-packages/torch/_inductor/runtime/triton_helpers.py":193:28)
#loc50 = loc("/home/sahanp/.conda/envs/parity-bench/lib/python3.12/site-packages/torch/_inductor/runtime/triton_helpers.py":194:39)
#loc51 = loc("/home/sahanp/.conda/envs/parity-bench/lib/python3.12/site-packages/torch/_inductor/runtime/triton_helpers.py":194:60)
#loc52 = loc("/home/sahanp/.conda/envs/parity-bench/lib/python3.12/site-packages/torch/_inductor/runtime/triton_helpers.py":194:49)
#loc53 = loc("/home/sahanp/.conda/envs/parity-bench/lib/python3.12/site-packages/torch/_inductor/runtime/triton_helpers.py":196:25)
#loc54 = loc("/home/sahanp/.conda/envs/parity-bench/lib/python3.12/site-packages/torch/_inductor/runtime/triton_helpers.py":196:17)
#loc55 = loc("/home/sahanp/.conda/envs/parity-bench/lib/python3.12/site-packages/torch/_inductor/runtime/triton_helpers.py":197:15)
#loc56 = loc("/home/sahanp/.conda/envs/parity-bench/lib/python3.12/site-packages/torch/_inductor/runtime/triton_helpers.py":197:30)
#loc57 = loc("/home/sahanp/.conda/envs/parity-bench/lib/python3.12/site-packages/torch/_inductor/runtime/triton_helpers.py":197:38)
#loc58 = loc("/home/sahanp/.conda/envs/parity-bench/lib/python3.12/site-packages/torch/_inductor/runtime/triton_helpers.py":197:49)
#loc59 = loc("/home/sahanp/.conda/envs/parity-bench/lib/python3.12/site-packages/torch/_inductor/runtime/triton_helpers.py":197:22)
#loc60 = loc("inductor_cache/m3/cm3tzt4o3gabxzg5ywte3rebsnjyrnhzep4xwf2ajb2aqnsqepab.py":56:22)
#loc61 = loc("inductor_cache/m3/cm3tzt4o3gabxzg5ywte3rebsnjyrnhzep4xwf2ajb2aqnsqepab.py":57:22)
#loc62 = loc("inductor_cache/m3/cm3tzt4o3gabxzg5ywte3rebsnjyrnhzep4xwf2ajb2aqnsqepab.py":59:25)
#loc63 = loc("inductor_cache/m3/cm3tzt4o3gabxzg5ywte3rebsnjyrnhzep4xwf2ajb2aqnsqepab.py":59:37)
#loc64 = loc("inductor_cache/m3/cm3tzt4o3gabxzg5ywte3rebsnjyrnhzep4xwf2ajb2aqnsqepab.py":60:25)
#loc65 = loc("inductor_cache/m3/cm3tzt4o3gabxzg5ywte3rebsnjyrnhzep4xwf2ajb2aqnsqepab.py":60:37)
#loc66 = loc("inductor_cache/m3/cm3tzt4o3gabxzg5ywte3rebsnjyrnhzep4xwf2ajb2aqnsqepab.py":62:20)
#loc67 = loc("inductor_cache/m3/cm3tzt4o3gabxzg5ywte3rebsnjyrnhzep4xwf2ajb2aqnsqepab.py":64:20)
#loc68 = loc("inductor_cache/m3/cm3tzt4o3gabxzg5ywte3rebsnjyrnhzep4xwf2ajb2aqnsqepab.py":65:28)
#loc69 = loc("inductor_cache/m3/cm3tzt4o3gabxzg5ywte3rebsnjyrnhzep4xwf2ajb2aqnsqepab.py":66:25)
#loc70 = loc("inductor_cache/m3/cm3tzt4o3gabxzg5ywte3rebsnjyrnhzep4xwf2ajb2aqnsqepab.py":66:37)
#loc71 = loc("inductor_cache/m3/cm3tzt4o3gabxzg5ywte3rebsnjyrnhzep4xwf2ajb2aqnsqepab.py":66:4)
#loc72 = loc(callsite(#loc46 at #loc47))
#loc74 = loc(callsite(#loc48 at #loc46))
#loc75 = loc(callsite(#loc49 at #loc46))
#loc76 = loc(callsite(#loc50 at #loc46))
#loc77 = loc(callsite(#loc51 at #loc46))
#loc78 = loc(callsite(#loc52 at #loc46))
#loc79 = loc(callsite(#loc53 at #loc46))
#loc80 = loc(callsite(#loc54 at #loc46))
#loc81 = loc(callsite(#loc55 at #loc46))
#loc82 = loc(callsite(#loc56 at #loc46))
#loc83 = loc(callsite(#loc57 at #loc46))
#loc84 = loc(callsite(#loc58 at #loc46))
#loc85 = loc(callsite(#loc59 at #loc46))
#loc86 = loc(callsite(#loc74 at #loc47))
#loc87 = loc(callsite(#loc75 at #loc47))
#loc88 = loc(callsite(#loc76 at #loc47))
#loc89 = loc(callsite(#loc77 at #loc47))
#loc90 = loc(callsite(#loc78 at #loc47))
#loc91 = loc(callsite(#loc79 at #loc47))
#loc92 = loc(callsite(#loc80 at #loc47))
#loc93 = loc(callsite(#loc81 at #loc47))
#loc94 = loc(callsite(#loc82 at #loc47))
#loc95 = loc(callsite(#loc83 at #loc47))
#loc96 = loc(callsite(#loc84 at #loc47))
#loc97 = loc(callsite(#loc85 at #loc47))
