#loc = loc("inductor_cache/53/c53z6k2a7x6uggsqxfenmn2jatmuhyqnkjo7cq3szy4ancftpzkm.py":19:0)
module {
  tt.func public @triton_poi_fused_add_mul_neg_relu_t_threshold_backward_3(%arg0: !tt.ptr<f32> {tt.divisibility = 16 : i32} loc("inductor_cache/53/c53z6k2a7x6uggsqxfenmn2jatmuhyqnkjo7cq3szy4ancftpzkm.py":19:0), %arg1: !tt.ptr<f32> {tt.divisibility = 16 : i32} loc("inductor_cache/53/c53z6k2a7x6uggsqxfenmn2jatmuhyqnkjo7cq3szy4ancftpzkm.py":19:0), %arg2: !tt.ptr<i1> {tt.divisibility = 16 : i32} loc("inductor_cache/53/c53z6k2a7x6uggsqxfenmn2jatmuhyqnkjo7cq3szy4ancftpzkm.py":19:0), %arg3: i32 {tt.divisibility = 16 : i32} loc("inductor_cache/53/c53z6k2a7x6uggsqxfenmn2jatmuhyqnkjo7cq3szy4ancftpzkm.py":19:0)) attributes {noinline = false} {
    %cst = arith.constant dense<2.000000e+00> : tensor<512xf32> loc(#loc1)
    %cst_0 = arith.constant dense<0.000000e+00> : tensor<512xf32> loc(#loc1)
    %c512_i32 = arith.constant 512 : i32 loc(#loc1)
    %0 = tt.get_program_id x : i32 loc(#loc2)
    %1 = arith.muli %0, %c512_i32 : i32 loc(#loc3)
    %2 = tt.make_range {end = 512 : i32, start = 0 : i32} : tensor<512xi32> loc(#loc4)
    %3 = tt.splat %1 : i32 -> tensor<512xi32> loc(#loc5)
    %4 = arith.addi %3, %2 : tensor<512xi32> loc(#loc5)
    %5 = tt.splat %arg0 : !tt.ptr<f32> -> tensor<512x!tt.ptr<f32>> loc(#loc6)
    %6 = tt.addptr %5, %4 : tensor<512x!tt.ptr<f32>>, tensor<512xi32> loc(#loc6)
    %7 = tt.load %6 : tensor<512x!tt.ptr<f32>> loc(#loc7)
    %8 = arith.subf %cst_0, %7 : tensor<512xf32> loc(#loc8)
    %9 = arith.cmpf ogt, %cst_0, %8 : tensor<512xf32> loc(#loc20)
    %10 = arith.select %9, %cst_0, %8 : tensor<512xi1>, tensor<512xf32> loc(#loc21)
    %11 = arith.mulf %10, %cst : tensor<512xf32> loc(#loc12)
    %12 = arith.addf %11, %7 : tensor<512xf32> loc(#loc13)
    %13 = arith.cmpf ole, %10, %cst_0 : tensor<512xf32> loc(#loc14)
    %14 = tt.splat %arg1 : !tt.ptr<f32> -> tensor<512x!tt.ptr<f32>> loc(#loc15)
    %15 = tt.addptr %14, %4 : tensor<512x!tt.ptr<f32>>, tensor<512xi32> loc(#loc15)
    tt.store %15, %12 : tensor<512x!tt.ptr<f32>> loc(#loc16)
    %16 = tt.splat %arg2 : !tt.ptr<i1> -> tensor<512x!tt.ptr<i1>> loc(#loc17)
    %17 = tt.addptr %16, %4 : tensor<512x!tt.ptr<i1>>, tensor<512xi32> loc(#loc17)
    %18 = tt.bitcast %17 : tensor<512x!tt.ptr<i1>> -> tensor<512x!tt.ptr<i8>> loc(#loc18)
    %19 = arith.extui %13 : tensor<512xi1> to tensor<512xi8> loc(#loc18)
    tt.store %18, %19 : tensor<512x!tt.ptr<i8>> loc(#loc18)
    tt.return loc(#loc19)
  } loc(#loc)
} loc(#loc)
#loc1 = loc(unknown)
#loc2 = loc("inductor_cache/53/c53z6k2a7x6uggsqxfenmn2jatmuhyqnkjo7cq3szy4ancftpzkm.py":21:28)
#loc3 = loc("inductor_cache/53/c53z6k2a7x6uggsqxfenmn2jatmuhyqnkjo7cq3szy4ancftpzkm.py":21:33)
#loc4 = loc("inductor_cache/53/c53z6k2a7x6uggsqxfenmn2jatmuhyqnkjo7cq3szy4ancftpzkm.py":22:36)
#loc5 = loc("inductor_cache/53/c53z6k2a7x6uggsqxfenmn2jatmuhyqnkjo7cq3szy4ancftpzkm.py":22:23)
#loc6 = loc("inductor_cache/53/c53z6k2a7x6uggsqxfenmn2jatmuhyqnkjo7cq3szy4ancftpzkm.py":25:30)
#loc7 = loc("inductor_cache/53/c53z6k2a7x6uggsqxfenmn2jatmuhyqnkjo7cq3szy4ancftpzkm.py":25:35)
#loc8 = loc("inductor_cache/53/c53z6k2a7x6uggsqxfenmn2jatmuhyqnkjo7cq3szy4ancftpzkm.py":26:12)
#loc9 = loc("/home/sahanp/.conda/envs/parity-bench/lib/python3.12/site-packages/torch/_inductor/runtime/triton_helpers.py":118:15)
#loc10 = loc("inductor_cache/53/c53z6k2a7x6uggsqxfenmn2jatmuhyqnkjo7cq3szy4ancftpzkm.py":30:40)
#loc11 = loc("/home/sahanp/.conda/envs/parity-bench/lib/python3.12/site-packages/torch/_inductor/runtime/triton_helpers.py":121:29)
#loc12 = loc("inductor_cache/53/c53z6k2a7x6uggsqxfenmn2jatmuhyqnkjo7cq3szy4ancftpzkm.py":32:18)
#loc13 = loc("inductor_cache/53/c53z6k2a7x6uggsqxfenmn2jatmuhyqnkjo7cq3szy4ancftpzkm.py":33:18)
#loc14 = loc("inductor_cache/53/c53z6k2a7x6uggsqxfenmn2jatmuhyqnkjo7cq3szy4ancftpzkm.py":35:20)
#loc15 = loc("inductor_cache/53/c53z6k2a7x6uggsqxfenmn2jatmuhyqnkjo7cq3szy4ancftpzkm.py":36:25)
#loc16 = loc("inductor_cache/53/c53z6k2a7x6uggsqxfenmn2jatmuhyqnkjo7cq3szy4ancftpzkm.py":36:36)
#loc17 = loc("inductor_cache/53/c53z6k2a7x6uggsqxfenmn2jatmuhyqnkjo7cq3szy4ancftpzkm.py":37:25)
#loc18 = loc("inductor_cache/53/c53z6k2a7x6uggsqxfenmn2jatmuhyqnkjo7cq3szy4ancftpzkm.py":37:37)
#loc19 = loc("inductor_cache/53/c53z6k2a7x6uggsqxfenmn2jatmuhyqnkjo7cq3szy4ancftpzkm.py":37:4)
#loc20 = loc(callsite(#loc9 at #loc10))
#loc21 = loc(callsite(#loc11 at #loc10))
