#loc = loc("inductor_cache/bq/cbqd5dyh5qu54lzw5ss3uvi7hdgjdji4lxuasfchpkwiovqpwcr7.py":19:0)
module {
  tt.func public @triton_poi_fused_clone_4(%arg0: !tt.ptr<f32> {tt.divisibility = 16 : i32} loc("inductor_cache/bq/cbqd5dyh5qu54lzw5ss3uvi7hdgjdji4lxuasfchpkwiovqpwcr7.py":19:0), %arg1: !tt.ptr<f32> {tt.divisibility = 16 : i32} loc("inductor_cache/bq/cbqd5dyh5qu54lzw5ss3uvi7hdgjdji4lxuasfchpkwiovqpwcr7.py":19:0), %arg2: !tt.ptr<f32> {tt.divisibility = 16 : i32} loc("inductor_cache/bq/cbqd5dyh5qu54lzw5ss3uvi7hdgjdji4lxuasfchpkwiovqpwcr7.py":19:0), %arg3: i32 {tt.divisibility = 16 : i32} loc("inductor_cache/bq/cbqd5dyh5qu54lzw5ss3uvi7hdgjdji4lxuasfchpkwiovqpwcr7.py":19:0)) attributes {noinline = false} {
    %cst = arith.constant dense<0.000000e+00> : tensor<512xf32> loc(#loc1)
    %cst_0 = arith.constant dense<900> : tensor<512xi32> loc(#loc1)
    %cst_1 = arith.constant dense<30> : tensor<512xi32> loc(#loc1)
    %cst_2 = arith.constant dense<31> : tensor<512xi32> loc(#loc1)
    %cst_3 = arith.constant dense<32> : tensor<512xi32> loc(#loc1)
    %cst_4 = arith.constant dense<784> : tensor<512xi32> loc(#loc1)
    %cst_5 = arith.constant dense<28> : tensor<512xi32> loc(#loc1)
    %cst_6 = arith.constant dense<100352> : tensor<512xi32> loc(#loc1)
    %c512_i32 = arith.constant 512 : i32 loc(#loc1)
    %0 = tt.get_program_id x : i32 loc(#loc2)
    %1 = arith.muli %0, %c512_i32 : i32 loc(#loc3)
    %2 = tt.make_range {end = 512 : i32, start = 0 : i32} : tensor<512xi32> loc(#loc4)
    %3 = tt.splat %1 : i32 -> tensor<512xi32> loc(#loc5)
    %4 = arith.addi %3, %2 : tensor<512xi32> loc(#loc5)
    %5 = arith.cmpi slt, %4, %cst_6 : tensor<512xi32> loc(#loc6)
    %6 = arith.remsi %4, %cst_5 : tensor<512xi32> loc(#loc7)
    %7 = arith.divsi %4, %cst_5 : tensor<512xi32> loc(#loc8)
    %8 = arith.remsi %7, %cst_5 : tensor<512xi32> loc(#loc9)
    %9 = arith.divsi %4, %cst_4 : tensor<512xi32> loc(#loc10)
    %10 = arith.remsi %9, %cst_3 : tensor<512xi32> loc(#loc11)
    %11 = arith.addi %6, %cst_2 : tensor<512xi32> loc(#loc12)
    %12 = arith.muli %8, %cst_1 : tensor<512xi32> loc(#loc13)
    %13 = arith.addi %11, %12 : tensor<512xi32> loc(#loc14)
    %14 = arith.muli %9, %cst_0 : tensor<512xi32> loc(#loc15)
    %15 = arith.addi %13, %14 : tensor<512xi32> loc(#loc16)
    %16 = tt.splat %arg0 : !tt.ptr<f32> -> tensor<512x!tt.ptr<f32>> loc(#loc17)
    %17 = tt.addptr %16, %15 : tensor<512x!tt.ptr<f32>>, tensor<512xi32> loc(#loc17)
    %18 = tt.load %17, %5 : tensor<512x!tt.ptr<f32>> loc(#loc18)
    %19 = tt.splat %arg1 : !tt.ptr<f32> -> tensor<512x!tt.ptr<f32>> loc(#loc19)
    %20 = tt.addptr %19, %10 : tensor<512x!tt.ptr<f32>>, tensor<512xi32> loc(#loc19)
    %21 = tt.load %20, %5 evictionPolicy = evict_last : tensor<512x!tt.ptr<f32>> loc(#loc20)
    %22 = arith.addf %18, %21 : tensor<512xf32> loc(#loc21)
    %23 = arith.cmpf ogt, %cst, %22 : tensor<512xf32> loc(#loc28)
    %24 = arith.select %23, %cst, %22 : tensor<512xi1>, tensor<512xf32> loc(#loc29)
    %25 = tt.splat %arg2 : !tt.ptr<f32> -> tensor<512x!tt.ptr<f32>> loc(#loc25)
    %26 = tt.addptr %25, %4 : tensor<512x!tt.ptr<f32>>, tensor<512xi32> loc(#loc25)
    tt.store %26, %24, %5 : tensor<512x!tt.ptr<f32>> loc(#loc26)
    tt.return loc(#loc27)
  } loc(#loc)
} loc(#loc)
#loc1 = loc(unknown)
#loc2 = loc("inductor_cache/bq/cbqd5dyh5qu54lzw5ss3uvi7hdgjdji4lxuasfchpkwiovqpwcr7.py":21:28)
#loc3 = loc("inductor_cache/bq/cbqd5dyh5qu54lzw5ss3uvi7hdgjdji4lxuasfchpkwiovqpwcr7.py":21:33)
#loc4 = loc("inductor_cache/bq/cbqd5dyh5qu54lzw5ss3uvi7hdgjdji4lxuasfchpkwiovqpwcr7.py":22:36)
#loc5 = loc("inductor_cache/bq/cbqd5dyh5qu54lzw5ss3uvi7hdgjdji4lxuasfchpkwiovqpwcr7.py":22:23)
#loc6 = loc("inductor_cache/bq/cbqd5dyh5qu54lzw5ss3uvi7hdgjdji4lxuasfchpkwiovqpwcr7.py":23:21)
#loc7 = loc("inductor_cache/bq/cbqd5dyh5qu54lzw5ss3uvi7hdgjdji4lxuasfchpkwiovqpwcr7.py":24:19)
#loc8 = loc("inductor_cache/bq/cbqd5dyh5qu54lzw5ss3uvi7hdgjdji4lxuasfchpkwiovqpwcr7.py":25:21)
#loc9 = loc("inductor_cache/bq/cbqd5dyh5qu54lzw5ss3uvi7hdgjdji4lxuasfchpkwiovqpwcr7.py":25:27)
#loc10 = loc("inductor_cache/bq/cbqd5dyh5qu54lzw5ss3uvi7hdgjdji4lxuasfchpkwiovqpwcr7.py":26:19)
#loc11 = loc("inductor_cache/bq/cbqd5dyh5qu54lzw5ss3uvi7hdgjdji4lxuasfchpkwiovqpwcr7.py":27:28)
#loc12 = loc("inductor_cache/bq/cbqd5dyh5qu54lzw5ss3uvi7hdgjdji4lxuasfchpkwiovqpwcr7.py":29:35)
#loc13 = loc("inductor_cache/bq/cbqd5dyh5qu54lzw5ss3uvi7hdgjdji4lxuasfchpkwiovqpwcr7.py":29:43)
#loc14 = loc("inductor_cache/bq/cbqd5dyh5qu54lzw5ss3uvi7hdgjdji4lxuasfchpkwiovqpwcr7.py":29:40)
#loc15 = loc("inductor_cache/bq/cbqd5dyh5qu54lzw5ss3uvi7hdgjdji4lxuasfchpkwiovqpwcr7.py":29:52)
#loc16 = loc("inductor_cache/bq/cbqd5dyh5qu54lzw5ss3uvi7hdgjdji4lxuasfchpkwiovqpwcr7.py":29:48)
#loc17 = loc("inductor_cache/bq/cbqd5dyh5qu54lzw5ss3uvi7hdgjdji4lxuasfchpkwiovqpwcr7.py":29:30)
#loc18 = loc("inductor_cache/bq/cbqd5dyh5qu54lzw5ss3uvi7hdgjdji4lxuasfchpkwiovqpwcr7.py":29:57)
#loc19 = loc("inductor_cache/bq/cbqd5dyh5qu54lzw5ss3uvi7hdgjdji4lxuasfchpkwiovqpwcr7.py":30:30)
#loc20 = loc("inductor_cache/bq/cbqd5dyh5qu54lzw5ss3uvi7hdgjdji4lxuasfchpkwiovqpwcr7.py":30:35)
#loc21 = loc("inductor_cache/bq/cbqd5dyh5qu54lzw5ss3uvi7hdgjdji4lxuasfchpkwiovqpwcr7.py":31:18)
#loc22 = loc("/home/sahanp/.conda/envs/parity-bench/lib/python3.12/site-packages/torch/_inductor/runtime/triton_helpers.py":118:15)
#loc23 = loc("inductor_cache/bq/cbqd5dyh5qu54lzw5ss3uvi7hdgjdji4lxuasfchpkwiovqpwcr7.py":33:40)
#loc24 = loc("/home/sahanp/.conda/envs/parity-bench/lib/python3.12/site-packages/torch/_inductor/runtime/triton_helpers.py":121:29)
#loc25 = loc("inductor_cache/bq/cbqd5dyh5qu54lzw5ss3uvi7hdgjdji4lxuasfchpkwiovqpwcr7.py":34:25)
#loc26 = loc("inductor_cache/bq/cbqd5dyh5qu54lzw5ss3uvi7hdgjdji4lxuasfchpkwiovqpwcr7.py":34:36)
#loc27 = loc("inductor_cache/bq/cbqd5dyh5qu54lzw5ss3uvi7hdgjdji4lxuasfchpkwiovqpwcr7.py":34:4)
#loc28 = loc(callsite(#loc22 at #loc23))
#loc29 = loc(callsite(#loc24 at #loc23))
