#loc = loc("inductor_cache/ct/cctj57h5wixnhdqvka4msvjkriqhrxnciu4tcomxcfokgoxgdjul.py":19:0)
module {
  tt.func public @triton_poi_fused__native_batch_norm_legit_no_training_add_relu_13(%arg0: !tt.ptr<f32> {tt.divisibility = 16 : i32} loc("inductor_cache/ct/cctj57h5wixnhdqvka4msvjkriqhrxnciu4tcomxcfokgoxgdjul.py":19:0), %arg1: !tt.ptr<f32> {tt.divisibility = 16 : i32} loc("inductor_cache/ct/cctj57h5wixnhdqvka4msvjkriqhrxnciu4tcomxcfokgoxgdjul.py":19:0), %arg2: !tt.ptr<f32> {tt.divisibility = 16 : i32} loc("inductor_cache/ct/cctj57h5wixnhdqvka4msvjkriqhrxnciu4tcomxcfokgoxgdjul.py":19:0), %arg3: !tt.ptr<f32> {tt.divisibility = 16 : i32} loc("inductor_cache/ct/cctj57h5wixnhdqvka4msvjkriqhrxnciu4tcomxcfokgoxgdjul.py":19:0), %arg4: !tt.ptr<f32> {tt.divisibility = 16 : i32} loc("inductor_cache/ct/cctj57h5wixnhdqvka4msvjkriqhrxnciu4tcomxcfokgoxgdjul.py":19:0), %arg5: !tt.ptr<f32> {tt.divisibility = 16 : i32} loc("inductor_cache/ct/cctj57h5wixnhdqvka4msvjkriqhrxnciu4tcomxcfokgoxgdjul.py":19:0), %arg6: !tt.ptr<f32> {tt.divisibility = 16 : i32} loc("inductor_cache/ct/cctj57h5wixnhdqvka4msvjkriqhrxnciu4tcomxcfokgoxgdjul.py":19:0), %arg7: i32 {tt.divisibility = 16 : i32} loc("inductor_cache/ct/cctj57h5wixnhdqvka4msvjkriqhrxnciu4tcomxcfokgoxgdjul.py":19:0), %arg8: i32 {tt.divisibility = 16 : i32} loc("inductor_cache/ct/cctj57h5wixnhdqvka4msvjkriqhrxnciu4tcomxcfokgoxgdjul.py":19:0)) attributes {noinline = false} {
    %c65536_i32 = arith.constant 65536 : i32 loc(#loc1)
    %c16_i32 = arith.constant 16 : i32 loc(#loc1)
    %cst = arith.constant dense<0.000000e+00> : tensor<1x1024xf32> loc(#loc1)
    %cst_0 = arith.constant dense<1.000000e+00> : tensor<1x1xf32> loc(#loc1)
    %cst_1 = arith.constant dense<1048576> : tensor<1x1024xi32> loc(#loc1)
    %cst_2 = arith.constant dense<9.99999974E-6> : tensor<1x1xf32> loc(#loc1)
    %cst_3 = arith.constant dense<16> : tensor<1x1024xi32> loc(#loc1)
    %cst_4 = arith.constant dense<65536> : tensor<1x1024xi32> loc(#loc1)
    %cst_5 = arith.constant dense<262144> : tensor<1x1024xi32> loc(#loc1)
    %c1024_i32 = arith.constant 1024 : i32 loc(#loc1)
    %0 = tt.get_program_id y : i32 loc(#loc2)
    %1 = tt.get_program_id z : i32 loc(#loc3)
    %2 = tt.get_num_programs y : i32 loc(#loc4)
    %3 = arith.muli %1, %2 : i32 loc(#loc5)
    %4 = arith.addi %0, %3 : i32 loc(#loc6)
    %5 = arith.muli %4, %c1024_i32 : i32 loc(#loc7)
    %6 = tt.make_range {end = 1024 : i32, start = 0 : i32} : tensor<1024xi32> loc(#loc8)
    %7 = tt.expand_dims %6 {axis = 0 : i32} : tensor<1024xi32> -> tensor<1x1024xi32> loc(#loc9)
    %8 = tt.splat %5 : i32 -> tensor<1x1024xi32> loc(#loc10)
    %9 = arith.addi %8, %7 : tensor<1x1024xi32> loc(#loc10)
    %10 = arith.cmpi slt, %9, %cst_5 : tensor<1x1024xi32> loc(#loc11)
    %11 = tt.get_program_id x : i32 loc(#loc12)
    %12 = arith.cmpi slt, %11, %c16_i32 : i32 loc(#loc13)
    %13 = tt.splat %12 : i1 -> tensor<1x1xi1> loc(#loc13)
    %14 = arith.remsi %9, %cst_4 : tensor<1x1024xi32> loc(#loc14)
    %15 = arith.divsi %9, %cst_4 : tensor<1x1024xi32> loc(#loc15)
    %16 = arith.muli %9, %cst_3 : tensor<1x1024xi32> loc(#loc16)
    %17 = tt.splat %11 : i32 -> tensor<1x1024xi32> loc(#loc17)
    %18 = arith.addi %17, %16 : tensor<1x1024xi32> loc(#loc17)
    %19 = tt.splat %arg0 : !tt.ptr<f32> -> tensor<1x1024x!tt.ptr<f32>> loc(#loc18)
    %20 = tt.addptr %19, %18 : tensor<1x1024x!tt.ptr<f32>>, tensor<1x1024xi32> loc(#loc18)
    %21 = tt.splat %12 : i1 -> tensor<1x1024xi1> loc(#loc19)
    %22 = arith.andi %21, %10 : tensor<1x1024xi1> loc(#loc19)
    %23 = tt.load %20, %22 evictionPolicy = evict_last : tensor<1x1024x!tt.ptr<f32>> loc(#loc20)
    %24 = tt.addptr %arg1, %11 : !tt.ptr<f32>, i32 loc(#loc21)
    %25 = tt.splat %24 : !tt.ptr<f32> -> tensor<1x1x!tt.ptr<f32>> loc(#loc21)
    %26 = tt.load %25, %13 evictionPolicy = evict_last : tensor<1x1x!tt.ptr<f32>> loc(#loc22)
    %27 = tt.addptr %arg2, %11 : !tt.ptr<f32>, i32 loc(#loc23)
    %28 = tt.splat %27 : !tt.ptr<f32> -> tensor<1x1x!tt.ptr<f32>> loc(#loc23)
    %29 = tt.load %28, %13 evictionPolicy = evict_last : tensor<1x1x!tt.ptr<f32>> loc(#loc24)
    %30 = tt.addptr %arg3, %11 : !tt.ptr<f32>, i32 loc(#loc25)
    %31 = tt.splat %30 : !tt.ptr<f32> -> tensor<1x1x!tt.ptr<f32>> loc(#loc25)
    %32 = tt.load %31, %13 evictionPolicy = evict_last : tensor<1x1x!tt.ptr<f32>> loc(#loc26)
    %33 = tt.addptr %arg4, %11 : !tt.ptr<f32>, i32 loc(#loc27)
    %34 = tt.splat %33 : !tt.ptr<f32> -> tensor<1x1x!tt.ptr<f32>> loc(#loc27)
    %35 = tt.load %34, %13 evictionPolicy = evict_last : tensor<1x1x!tt.ptr<f32>> loc(#loc28)
    %36 = tt.splat %arg5 : !tt.ptr<f32> -> tensor<1x1024x!tt.ptr<f32>> loc(#loc29)
    %37 = tt.addptr %36, %18 : tensor<1x1024x!tt.ptr<f32>>, tensor<1x1024xi32> loc(#loc29)
    %38 = tt.load %37, %22 evictionPolicy = evict_last : tensor<1x1024x!tt.ptr<f32>> loc(#loc30)
    %39 = tt.broadcast %26 : tensor<1x1xf32> -> tensor<1x1024xf32> loc(#loc31)
    %40 = arith.subf %23, %39 : tensor<1x1024xf32> loc(#loc31)
    %41 = arith.addf %29, %cst_2 : tensor<1x1xf32> loc(#loc32)
    %42 = tt.extern_elementwise %41 {libname = "", libpath = "", pure = true, symbol = "__nv_sqrtf"} : (tensor<1x1xf32>) -> tensor<1x1xf32> loc(#loc33)
    %43 = arith.divf %cst_0, %42 : tensor<1x1xf32> loc(#loc34)
    %44 = tt.broadcast %43 : tensor<1x1xf32> -> tensor<1x1024xf32> loc(#loc35)
    %45 = arith.mulf %40, %44 : tensor<1x1024xf32> loc(#loc35)
    %46 = tt.broadcast %32 : tensor<1x1xf32> -> tensor<1x1024xf32> loc(#loc36)
    %47 = arith.mulf %45, %46 : tensor<1x1024xf32> loc(#loc36)
    %48 = tt.broadcast %35 : tensor<1x1xf32> -> tensor<1x1024xf32> loc(#loc37)
    %49 = arith.addf %47, %48 : tensor<1x1024xf32> loc(#loc37)
    %50 = arith.cmpf ogt, %cst, %49 : tensor<1x1024xf32> loc(#loc49)
    %51 = arith.select %50, %cst, %49 : tensor<1x1024xi1>, tensor<1x1024xf32> loc(#loc50)
    %52 = arith.addf %51, %38 : tensor<1x1024xf32> loc(#loc41)
    %53 = arith.muli %11, %c65536_i32 : i32 loc(#loc42)
    %54 = tt.splat %53 : i32 -> tensor<1x1024xi32> loc(#loc43)
    %55 = arith.addi %14, %54 : tensor<1x1024xi32> loc(#loc43)
    %56 = arith.muli %15, %cst_1 : tensor<1x1024xi32> loc(#loc44)
    %57 = arith.addi %55, %56 : tensor<1x1024xi32> loc(#loc45)
    %58 = tt.splat %arg6 : !tt.ptr<f32> -> tensor<1x1024x!tt.ptr<f32>> loc(#loc46)
    %59 = tt.addptr %58, %57 : tensor<1x1024x!tt.ptr<f32>>, tensor<1x1024xi32> loc(#loc46)
    tt.store %59, %52, %22 : tensor<1x1024x!tt.ptr<f32>> loc(#loc47)
    tt.return loc(#loc48)
  } loc(#loc)
} loc(#loc)
#loc1 = loc(unknown)
#loc2 = loc("inductor_cache/ct/cctj57h5wixnhdqvka4msvjkriqhrxnciu4tcomxcfokgoxgdjul.py":22:29)
#loc3 = loc("inductor_cache/ct/cctj57h5wixnhdqvka4msvjkriqhrxnciu4tcomxcfokgoxgdjul.py":22:48)
#loc4 = loc("inductor_cache/ct/cctj57h5wixnhdqvka4msvjkriqhrxnciu4tcomxcfokgoxgdjul.py":22:69)
#loc5 = loc("inductor_cache/ct/cctj57h5wixnhdqvka4msvjkriqhrxnciu4tcomxcfokgoxgdjul.py":22:53)
#loc6 = loc("inductor_cache/ct/cctj57h5wixnhdqvka4msvjkriqhrxnciu4tcomxcfokgoxgdjul.py":22:34)
#loc7 = loc("inductor_cache/ct/cctj57h5wixnhdqvka4msvjkriqhrxnciu4tcomxcfokgoxgdjul.py":22:75)
#loc8 = loc("inductor_cache/ct/cctj57h5wixnhdqvka4msvjkriqhrxnciu4tcomxcfokgoxgdjul.py":23:36)
#loc9 = loc("inductor_cache/ct/cctj57h5wixnhdqvka4msvjkriqhrxnciu4tcomxcfokgoxgdjul.py":23:44)
#loc10 = loc("inductor_cache/ct/cctj57h5wixnhdqvka4msvjkriqhrxnciu4tcomxcfokgoxgdjul.py":23:23)
#loc11 = loc("inductor_cache/ct/cctj57h5wixnhdqvka4msvjkriqhrxnciu4tcomxcfokgoxgdjul.py":24:21)
#loc12 = loc("inductor_cache/ct/cctj57h5wixnhdqvka4msvjkriqhrxnciu4tcomxcfokgoxgdjul.py":25:28)
#loc13 = loc("inductor_cache/ct/cctj57h5wixnhdqvka4msvjkriqhrxnciu4tcomxcfokgoxgdjul.py":27:21)
#loc14 = loc("inductor_cache/ct/cctj57h5wixnhdqvka4msvjkriqhrxnciu4tcomxcfokgoxgdjul.py":30:19)
#loc15 = loc("inductor_cache/ct/cctj57h5wixnhdqvka4msvjkriqhrxnciu4tcomxcfokgoxgdjul.py":31:19)
#loc16 = loc("inductor_cache/ct/cctj57h5wixnhdqvka4msvjkriqhrxnciu4tcomxcfokgoxgdjul.py":32:38)
#loc17 = loc("inductor_cache/ct/cctj57h5wixnhdqvka4msvjkriqhrxnciu4tcomxcfokgoxgdjul.py":32:35)
#loc18 = loc("inductor_cache/ct/cctj57h5wixnhdqvka4msvjkriqhrxnciu4tcomxcfokgoxgdjul.py":32:30)
#loc19 = loc("inductor_cache/ct/cctj57h5wixnhdqvka4msvjkriqhrxnciu4tcomxcfokgoxgdjul.py":32:51)
#loc20 = loc("inductor_cache/ct/cctj57h5wixnhdqvka4msvjkriqhrxnciu4tcomxcfokgoxgdjul.py":32:43)
#loc21 = loc("inductor_cache/ct/cctj57h5wixnhdqvka4msvjkriqhrxnciu4tcomxcfokgoxgdjul.py":33:30)
#loc22 = loc("inductor_cache/ct/cctj57h5wixnhdqvka4msvjkriqhrxnciu4tcomxcfokgoxgdjul.py":33:35)
#loc23 = loc("inductor_cache/ct/cctj57h5wixnhdqvka4msvjkriqhrxnciu4tcomxcfokgoxgdjul.py":34:30)
#loc24 = loc("inductor_cache/ct/cctj57h5wixnhdqvka4msvjkriqhrxnciu4tcomxcfokgoxgdjul.py":34:35)
#loc25 = loc("inductor_cache/ct/cctj57h5wixnhdqvka4msvjkriqhrxnciu4tcomxcfokgoxgdjul.py":35:31)
#loc26 = loc("inductor_cache/ct/cctj57h5wixnhdqvka4msvjkriqhrxnciu4tcomxcfokgoxgdjul.py":35:36)
#loc27 = loc("inductor_cache/ct/cctj57h5wixnhdqvka4msvjkriqhrxnciu4tcomxcfokgoxgdjul.py":36:31)
#loc28 = loc("inductor_cache/ct/cctj57h5wixnhdqvka4msvjkriqhrxnciu4tcomxcfokgoxgdjul.py":36:36)
#loc29 = loc("inductor_cache/ct/cctj57h5wixnhdqvka4msvjkriqhrxnciu4tcomxcfokgoxgdjul.py":37:31)
#loc30 = loc("inductor_cache/ct/cctj57h5wixnhdqvka4msvjkriqhrxnciu4tcomxcfokgoxgdjul.py":37:44)
#loc31 = loc("inductor_cache/ct/cctj57h5wixnhdqvka4msvjkriqhrxnciu4tcomxcfokgoxgdjul.py":38:18)
#loc32 = loc("inductor_cache/ct/cctj57h5wixnhdqvka4msvjkriqhrxnciu4tcomxcfokgoxgdjul.py":40:18)
#loc33 = loc("inductor_cache/ct/cctj57h5wixnhdqvka4msvjkriqhrxnciu4tcomxcfokgoxgdjul.py":41:26)
#loc34 = loc("inductor_cache/ct/cctj57h5wixnhdqvka4msvjkriqhrxnciu4tcomxcfokgoxgdjul.py":43:18)
#loc35 = loc("inductor_cache/ct/cctj57h5wixnhdqvka4msvjkriqhrxnciu4tcomxcfokgoxgdjul.py":46:19)
#loc36 = loc("inductor_cache/ct/cctj57h5wixnhdqvka4msvjkriqhrxnciu4tcomxcfokgoxgdjul.py":47:20)
#loc37 = loc("inductor_cache/ct/cctj57h5wixnhdqvka4msvjkriqhrxnciu4tcomxcfokgoxgdjul.py":48:20)
#loc38 = loc("/home/sahanp/.conda/envs/parity-bench/lib/python3.12/site-packages/torch/_inductor/runtime/triton_helpers.py":118:15)
#loc39 = loc("inductor_cache/ct/cctj57h5wixnhdqvka4msvjkriqhrxnciu4tcomxcfokgoxgdjul.py":50:42)
#loc40 = loc("/home/sahanp/.conda/envs/parity-bench/lib/python3.12/site-packages/torch/_inductor/runtime/triton_helpers.py":121:29)
#loc41 = loc("inductor_cache/ct/cctj57h5wixnhdqvka4msvjkriqhrxnciu4tcomxcfokgoxgdjul.py":51:20)
#loc42 = loc("inductor_cache/ct/cctj57h5wixnhdqvka4msvjkriqhrxnciu4tcomxcfokgoxgdjul.py":52:36)
#loc43 = loc("inductor_cache/ct/cctj57h5wixnhdqvka4msvjkriqhrxnciu4tcomxcfokgoxgdjul.py":52:30)
#loc44 = loc("inductor_cache/ct/cctj57h5wixnhdqvka4msvjkriqhrxnciu4tcomxcfokgoxgdjul.py":52:49)
#loc45 = loc("inductor_cache/ct/cctj57h5wixnhdqvka4msvjkriqhrxnciu4tcomxcfokgoxgdjul.py":52:41)
#loc46 = loc("inductor_cache/ct/cctj57h5wixnhdqvka4msvjkriqhrxnciu4tcomxcfokgoxgdjul.py":52:25)
#loc47 = loc("inductor_cache/ct/cctj57h5wixnhdqvka4msvjkriqhrxnciu4tcomxcfokgoxgdjul.py":52:61)
#loc48 = loc("inductor_cache/ct/cctj57h5wixnhdqvka4msvjkriqhrxnciu4tcomxcfokgoxgdjul.py":52:4)
#loc49 = loc(callsite(#loc38 at #loc39))
#loc50 = loc(callsite(#loc40 at #loc39))
