#loc = loc("inductor_cache/g3/cg3fiiehl3syuq5yykkpwi7bsyoyvlpxtdko5e3oj4zq53sc4lua.py":19:0)
module {
  tt.func public @triton_poi_fused__unsafe_index_add_convolution_mul_sub_12(%arg0: !tt.ptr<i64> {tt.divisibility = 16 : i32} loc("inductor_cache/g3/cg3fiiehl3syuq5yykkpwi7bsyoyvlpxtdko5e3oj4zq53sc4lua.py":19:0), %arg1: !tt.ptr<i64> {tt.divisibility = 16 : i32} loc("inductor_cache/g3/cg3fiiehl3syuq5yykkpwi7bsyoyvlpxtdko5e3oj4zq53sc4lua.py":19:0), %arg2: !tt.ptr<f32> {tt.divisibility = 16 : i32} loc("inductor_cache/g3/cg3fiiehl3syuq5yykkpwi7bsyoyvlpxtdko5e3oj4zq53sc4lua.py":19:0), %arg3: !tt.ptr<f32> {tt.divisibility = 16 : i32} loc("inductor_cache/g3/cg3fiiehl3syuq5yykkpwi7bsyoyvlpxtdko5e3oj4zq53sc4lua.py":19:0), %arg4: !tt.ptr<i64> {tt.divisibility = 16 : i32} loc("inductor_cache/g3/cg3fiiehl3syuq5yykkpwi7bsyoyvlpxtdko5e3oj4zq53sc4lua.py":19:0), %arg5: !tt.ptr<f32> {tt.divisibility = 16 : i32} loc("inductor_cache/g3/cg3fiiehl3syuq5yykkpwi7bsyoyvlpxtdko5e3oj4zq53sc4lua.py":19:0), %arg6: !tt.ptr<i64> {tt.divisibility = 16 : i32} loc("inductor_cache/g3/cg3fiiehl3syuq5yykkpwi7bsyoyvlpxtdko5e3oj4zq53sc4lua.py":19:0), %arg7: !tt.ptr<f32> {tt.divisibility = 16 : i32} loc("inductor_cache/g3/cg3fiiehl3syuq5yykkpwi7bsyoyvlpxtdko5e3oj4zq53sc4lua.py":19:0), %arg8: !tt.ptr<f32> {tt.divisibility = 16 : i32} loc("inductor_cache/g3/cg3fiiehl3syuq5yykkpwi7bsyoyvlpxtdko5e3oj4zq53sc4lua.py":19:0), %arg9: i32 {tt.divisibility = 16 : i32} loc("inductor_cache/g3/cg3fiiehl3syuq5yykkpwi7bsyoyvlpxtdko5e3oj4zq53sc4lua.py":19:0), %arg10: i32 {tt.divisibility = 16 : i32} loc("inductor_cache/g3/cg3fiiehl3syuq5yykkpwi7bsyoyvlpxtdko5e3oj4zq53sc4lua.py":19:0)) attributes {noinline = false} {
    %cst = arith.constant dense<512> : tensor<1x1xi64> loc(#loc1)
    %cst_0 = arith.constant dense<256> : tensor<1x1xi64> loc(#loc1)
    %cst_1 = arith.constant dense<2> : tensor<1x1xi64> loc(#loc1)
    %c4_i32 = arith.constant 4 : i32 loc(#loc1)
    %c16_i32 = arith.constant 16 : i32 loc(#loc1)
    %cst_2 = arith.constant dense<0> : tensor<1x1xi64> loc(#loc1)
    %cst_3 = arith.constant dense<4096> : tensor<1x256xi32> loc(#loc1)
    %cst_4 = arith.constant dense<1024> : tensor<1x256xi32> loc(#loc1)
    %cst_5 = arith.constant dense<256> : tensor<1x256xi32> loc(#loc1)
    %c256_i32 = arith.constant 256 : i32 loc(#loc1)
    %0 = tt.get_program_id y : i32 loc(#loc2)
    %1 = arith.muli %0, %c256_i32 : i32 loc(#loc3)
    %2 = tt.make_range {end = 256 : i32, start = 0 : i32} : tensor<256xi32> loc(#loc4)
    %3 = tt.expand_dims %2 {axis = 0 : i32} : tensor<256xi32> -> tensor<1x256xi32> loc(#loc5)
    %4 = tt.splat %1 : i32 -> tensor<1x256xi32> loc(#loc6)
    %5 = arith.addi %4, %3 : tensor<1x256xi32> loc(#loc6)
    %6 = tt.get_program_id x : i32 loc(#loc7)
    %7 = arith.cmpi slt, %6, %c16_i32 : i32 loc(#loc8)
    %8 = tt.splat %7 : i1 -> tensor<1x1xi1> loc(#loc8)
    %9 = arith.divsi %6, %c4_i32 : i32 loc(#loc9)
    %10 = arith.remsi %6, %c4_i32 : i32 loc(#loc10)
    %11 = arith.remsi %5, %cst_5 : tensor<1x256xi32> loc(#loc11)
    %12 = arith.divsi %5, %cst_5 : tensor<1x256xi32> loc(#loc12)
    %13 = tt.addptr %arg0, %9 : !tt.ptr<i64>, i32 loc(#loc13)
    %14 = tt.splat %13 : !tt.ptr<i64> -> tensor<1x1x!tt.ptr<i64>> loc(#loc13)
    %15 = tt.load %14, %8 evictionPolicy = evict_last : tensor<1x1x!tt.ptr<i64>> loc(#loc14)
    %16 = tt.addptr %arg1, %10 : !tt.ptr<i64>, i32 loc(#loc15)
    %17 = tt.splat %16 : !tt.ptr<i64> -> tensor<1x1x!tt.ptr<i64>> loc(#loc15)
    %18 = tt.load %17, %8 evictionPolicy = evict_last : tensor<1x1x!tt.ptr<i64>> loc(#loc16)
    %19 = tt.splat %arg3 : !tt.ptr<f32> -> tensor<1x256x!tt.ptr<f32>> loc(#loc17)
    %20 = tt.addptr %19, %11 : tensor<1x256x!tt.ptr<f32>>, tensor<1x256xi32> loc(#loc17)
    %21 = tt.load %20 evictionPolicy = evict_last : tensor<1x256x!tt.ptr<f32>> loc(#loc18)
    %22 = tt.addptr %arg4, %10 : !tt.ptr<i64>, i32 loc(#loc19)
    %23 = tt.splat %22 : !tt.ptr<i64> -> tensor<1x1x!tt.ptr<i64>> loc(#loc19)
    %24 = tt.load %23, %8 evictionPolicy = evict_last : tensor<1x1x!tt.ptr<i64>> loc(#loc20)
    %25 = tt.addptr %arg5, %10 : !tt.ptr<f32>, i32 loc(#loc21)
    %26 = tt.splat %25 : !tt.ptr<f32> -> tensor<1x1x!tt.ptr<f32>> loc(#loc21)
    %27 = tt.load %26, %8 evictionPolicy = evict_last : tensor<1x1x!tt.ptr<f32>> loc(#loc22)
    %28 = tt.addptr %arg6, %9 : !tt.ptr<i64>, i32 loc(#loc23)
    %29 = tt.splat %28 : !tt.ptr<i64> -> tensor<1x1x!tt.ptr<i64>> loc(#loc23)
    %30 = tt.load %29, %8 evictionPolicy = evict_last : tensor<1x1x!tt.ptr<i64>> loc(#loc24)
    %31 = tt.addptr %arg7, %9 : !tt.ptr<f32>, i32 loc(#loc25)
    %32 = tt.splat %31 : !tt.ptr<f32> -> tensor<1x1x!tt.ptr<f32>> loc(#loc25)
    %33 = tt.load %32, %8 evictionPolicy = evict_last : tensor<1x1x!tt.ptr<f32>> loc(#loc26)
    %34 = arith.addi %15, %cst_1 : tensor<1x1xi64> loc(#loc27)
    %35 = arith.cmpi slt, %15, %cst_2 : tensor<1x1xi64> loc(#loc28)
    %36 = arith.select %35, %34, %15 : tensor<1x1xi1>, tensor<1x1xi64> loc(#loc29)
    %37 = arith.addi %18, %cst_1 : tensor<1x1xi64> loc(#loc30)
    %38 = arith.cmpi slt, %18, %cst_2 : tensor<1x1xi64> loc(#loc31)
    %39 = arith.select %38, %37, %18 : tensor<1x1xi1>, tensor<1x1xi64> loc(#loc32)
    %40 = arith.muli %39, %cst_0 : tensor<1x1xi64> loc(#loc33)
    %41 = tt.broadcast %40 : tensor<1x1xi64> -> tensor<1x256xi64> loc(#loc33)
    %42 = arith.extsi %11 : tensor<1x256xi32> to tensor<1x256xi64> loc(#loc34)
    %43 = arith.addi %42, %41 : tensor<1x256xi64> loc(#loc34)
    %44 = arith.muli %36, %cst : tensor<1x1xi64> loc(#loc35)
    %45 = tt.broadcast %44 : tensor<1x1xi64> -> tensor<1x256xi64> loc(#loc35)
    %46 = arith.addi %43, %45 : tensor<1x256xi64> loc(#loc36)
    %47 = arith.muli %12, %cst_4 : tensor<1x256xi32> loc(#loc37)
    %48 = arith.extsi %47 : tensor<1x256xi32> to tensor<1x256xi64> loc(#loc38)
    %49 = arith.addi %46, %48 : tensor<1x256xi64> loc(#loc38)
    %50 = tt.splat %arg2 : !tt.ptr<f32> -> tensor<1x256x!tt.ptr<f32>> loc(#loc39)
    %51 = tt.addptr %50, %49 : tensor<1x256x!tt.ptr<f32>>, tensor<1x256xi64> loc(#loc39)
    %52 = tt.splat %7 : i1 -> tensor<1x256xi1> loc(#loc40)
    %53 = tt.load %51, %52 : tensor<1x256x!tt.ptr<f32>> loc(#loc40)
    %54 = arith.addf %53, %21 : tensor<1x256xf32> loc(#loc41)
    %55 = arith.addi %24, %cst_1 : tensor<1x1xi64> loc(#loc42)
    %56 = arith.cmpi slt, %24, %cst_2 : tensor<1x1xi64> loc(#loc43)
    %57 = arith.select %56, %55, %24 : tensor<1x1xi1>, tensor<1x1xi64> loc(#loc44)
    %58 = arith.muli %57, %cst_0 : tensor<1x1xi64> loc(#loc45)
    %59 = tt.broadcast %58 : tensor<1x1xi64> -> tensor<1x256xi64> loc(#loc45)
    %60 = arith.addi %42, %59 : tensor<1x256xi64> loc(#loc46)
    %61 = arith.addi %60, %45 : tensor<1x256xi64> loc(#loc47)
    %62 = arith.addi %61, %48 : tensor<1x256xi64> loc(#loc48)
    %63 = tt.addptr %50, %62 : tensor<1x256x!tt.ptr<f32>>, tensor<1x256xi64> loc(#loc49)
    %64 = tt.load %63, %52 : tensor<1x256x!tt.ptr<f32>> loc(#loc50)
    %65 = arith.addf %64, %21 : tensor<1x256xf32> loc(#loc51)
    %66 = arith.subf %65, %54 : tensor<1x256xf32> loc(#loc52)
    %67 = tt.broadcast %27 : tensor<1x1xf32> -> tensor<1x256xf32> loc(#loc53)
    %68 = arith.mulf %66, %67 : tensor<1x256xf32> loc(#loc53)
    %69 = arith.addf %54, %68 : tensor<1x256xf32> loc(#loc54)
    %70 = arith.addi %30, %cst_1 : tensor<1x1xi64> loc(#loc55)
    %71 = arith.cmpi slt, %30, %cst_2 : tensor<1x1xi64> loc(#loc56)
    %72 = arith.select %71, %70, %30 : tensor<1x1xi1>, tensor<1x1xi64> loc(#loc57)
    %73 = arith.muli %72, %cst : tensor<1x1xi64> loc(#loc58)
    %74 = tt.broadcast %73 : tensor<1x1xi64> -> tensor<1x256xi64> loc(#loc58)
    %75 = arith.addi %43, %74 : tensor<1x256xi64> loc(#loc59)
    %76 = arith.addi %75, %48 : tensor<1x256xi64> loc(#loc60)
    %77 = tt.addptr %50, %76 : tensor<1x256x!tt.ptr<f32>>, tensor<1x256xi64> loc(#loc61)
    %78 = tt.load %77, %52 : tensor<1x256x!tt.ptr<f32>> loc(#loc62)
    %79 = arith.addf %78, %21 : tensor<1x256xf32> loc(#loc63)
    %80 = arith.addi %60, %74 : tensor<1x256xi64> loc(#loc64)
    %81 = arith.addi %80, %48 : tensor<1x256xi64> loc(#loc65)
    %82 = tt.addptr %50, %81 : tensor<1x256x!tt.ptr<f32>>, tensor<1x256xi64> loc(#loc66)
    %83 = tt.load %82, %52 : tensor<1x256x!tt.ptr<f32>> loc(#loc67)
    %84 = arith.addf %83, %21 : tensor<1x256xf32> loc(#loc68)
    %85 = arith.subf %84, %79 : tensor<1x256xf32> loc(#loc69)
    %86 = arith.mulf %85, %67 : tensor<1x256xf32> loc(#loc70)
    %87 = arith.addf %79, %86 : tensor<1x256xf32> loc(#loc71)
    %88 = arith.subf %87, %69 : tensor<1x256xf32> loc(#loc72)
    %89 = tt.broadcast %33 : tensor<1x1xf32> -> tensor<1x256xf32> loc(#loc73)
    %90 = arith.mulf %88, %89 : tensor<1x256xf32> loc(#loc73)
    %91 = arith.addf %69, %90 : tensor<1x256xf32> loc(#loc74)
    %92 = arith.muli %6, %c256_i32 : i32 loc(#loc75)
    %93 = tt.splat %92 : i32 -> tensor<1x256xi32> loc(#loc76)
    %94 = arith.addi %11, %93 : tensor<1x256xi32> loc(#loc76)
    %95 = arith.muli %12, %cst_3 : tensor<1x256xi32> loc(#loc77)
    %96 = arith.addi %94, %95 : tensor<1x256xi32> loc(#loc78)
    %97 = tt.splat %arg8 : !tt.ptr<f32> -> tensor<1x256x!tt.ptr<f32>> loc(#loc79)
    %98 = tt.addptr %97, %96 : tensor<1x256x!tt.ptr<f32>>, tensor<1x256xi32> loc(#loc79)
    tt.store %98, %91, %52 : tensor<1x256x!tt.ptr<f32>> loc(#loc80)
    tt.return loc(#loc81)
  } loc(#loc)
} loc(#loc)
#loc1 = loc(unknown)
#loc2 = loc("inductor_cache/g3/cg3fiiehl3syuq5yykkpwi7bsyoyvlpxtdko5e3oj4zq53sc4lua.py":22:28)
#loc3 = loc("inductor_cache/g3/cg3fiiehl3syuq5yykkpwi7bsyoyvlpxtdko5e3oj4zq53sc4lua.py":22:33)
#loc4 = loc("inductor_cache/g3/cg3fiiehl3syuq5yykkpwi7bsyoyvlpxtdko5e3oj4zq53sc4lua.py":23:36)
#loc5 = loc("inductor_cache/g3/cg3fiiehl3syuq5yykkpwi7bsyoyvlpxtdko5e3oj4zq53sc4lua.py":23:44)
#loc6 = loc("inductor_cache/g3/cg3fiiehl3syuq5yykkpwi7bsyoyvlpxtdko5e3oj4zq53sc4lua.py":23:23)
#loc7 = loc("inductor_cache/g3/cg3fiiehl3syuq5yykkpwi7bsyoyvlpxtdko5e3oj4zq53sc4lua.py":25:28)
#loc8 = loc("inductor_cache/g3/cg3fiiehl3syuq5yykkpwi7bsyoyvlpxtdko5e3oj4zq53sc4lua.py":27:21)
#loc9 = loc("inductor_cache/g3/cg3fiiehl3syuq5yykkpwi7bsyoyvlpxtdko5e3oj4zq53sc4lua.py":28:19)
#loc10 = loc("inductor_cache/g3/cg3fiiehl3syuq5yykkpwi7bsyoyvlpxtdko5e3oj4zq53sc4lua.py":29:19)
#loc11 = loc("inductor_cache/g3/cg3fiiehl3syuq5yykkpwi7bsyoyvlpxtdko5e3oj4zq53sc4lua.py":30:19)
#loc12 = loc("inductor_cache/g3/cg3fiiehl3syuq5yykkpwi7bsyoyvlpxtdko5e3oj4zq53sc4lua.py":31:19)
#loc13 = loc("inductor_cache/g3/cg3fiiehl3syuq5yykkpwi7bsyoyvlpxtdko5e3oj4zq53sc4lua.py":34:30)
#loc14 = loc("inductor_cache/g3/cg3fiiehl3syuq5yykkpwi7bsyoyvlpxtdko5e3oj4zq53sc4lua.py":34:35)
#loc15 = loc("inductor_cache/g3/cg3fiiehl3syuq5yykkpwi7bsyoyvlpxtdko5e3oj4zq53sc4lua.py":35:30)
#loc16 = loc("inductor_cache/g3/cg3fiiehl3syuq5yykkpwi7bsyoyvlpxtdko5e3oj4zq53sc4lua.py":35:35)
#loc17 = loc("inductor_cache/g3/cg3fiiehl3syuq5yykkpwi7bsyoyvlpxtdko5e3oj4zq53sc4lua.py":36:31)
#loc18 = loc("inductor_cache/g3/cg3fiiehl3syuq5yykkpwi7bsyoyvlpxtdko5e3oj4zq53sc4lua.py":36:36)
#loc19 = loc("inductor_cache/g3/cg3fiiehl3syuq5yykkpwi7bsyoyvlpxtdko5e3oj4zq53sc4lua.py":37:31)
#loc20 = loc("inductor_cache/g3/cg3fiiehl3syuq5yykkpwi7bsyoyvlpxtdko5e3oj4zq53sc4lua.py":37:36)
#loc21 = loc("inductor_cache/g3/cg3fiiehl3syuq5yykkpwi7bsyoyvlpxtdko5e3oj4zq53sc4lua.py":38:31)
#loc22 = loc("inductor_cache/g3/cg3fiiehl3syuq5yykkpwi7bsyoyvlpxtdko5e3oj4zq53sc4lua.py":38:36)
#loc23 = loc("inductor_cache/g3/cg3fiiehl3syuq5yykkpwi7bsyoyvlpxtdko5e3oj4zq53sc4lua.py":39:31)
#loc24 = loc("inductor_cache/g3/cg3fiiehl3syuq5yykkpwi7bsyoyvlpxtdko5e3oj4zq53sc4lua.py":39:36)
#loc25 = loc("inductor_cache/g3/cg3fiiehl3syuq5yykkpwi7bsyoyvlpxtdko5e3oj4zq53sc4lua.py":40:31)
#loc26 = loc("inductor_cache/g3/cg3fiiehl3syuq5yykkpwi7bsyoyvlpxtdko5e3oj4zq53sc4lua.py":40:36)
#loc27 = loc("inductor_cache/g3/cg3fiiehl3syuq5yykkpwi7bsyoyvlpxtdko5e3oj4zq53sc4lua.py":42:18)
#loc28 = loc("inductor_cache/g3/cg3fiiehl3syuq5yykkpwi7bsyoyvlpxtdko5e3oj4zq53sc4lua.py":43:18)
#loc29 = loc("inductor_cache/g3/cg3fiiehl3syuq5yykkpwi7bsyoyvlpxtdko5e3oj4zq53sc4lua.py":44:32)
#loc30 = loc("inductor_cache/g3/cg3fiiehl3syuq5yykkpwi7bsyoyvlpxtdko5e3oj4zq53sc4lua.py":45:18)
#loc31 = loc("inductor_cache/g3/cg3fiiehl3syuq5yykkpwi7bsyoyvlpxtdko5e3oj4zq53sc4lua.py":46:18)
#loc32 = loc("inductor_cache/g3/cg3fiiehl3syuq5yykkpwi7bsyoyvlpxtdko5e3oj4zq53sc4lua.py":47:32)
#loc33 = loc("inductor_cache/g3/cg3fiiehl3syuq5yykkpwi7bsyoyvlpxtdko5e3oj4zq53sc4lua.py":48:39)
#loc34 = loc("inductor_cache/g3/cg3fiiehl3syuq5yykkpwi7bsyoyvlpxtdko5e3oj4zq53sc4lua.py":48:35)
#loc35 = loc("inductor_cache/g3/cg3fiiehl3syuq5yykkpwi7bsyoyvlpxtdko5e3oj4zq53sc4lua.py":48:50)
#loc36 = loc("inductor_cache/g3/cg3fiiehl3syuq5yykkpwi7bsyoyvlpxtdko5e3oj4zq53sc4lua.py":48:46)
#loc37 = loc("inductor_cache/g3/cg3fiiehl3syuq5yykkpwi7bsyoyvlpxtdko5e3oj4zq53sc4lua.py":48:62)
#loc38 = loc("inductor_cache/g3/cg3fiiehl3syuq5yykkpwi7bsyoyvlpxtdko5e3oj4zq53sc4lua.py":48:57)
#loc39 = loc("inductor_cache/g3/cg3fiiehl3syuq5yykkpwi7bsyoyvlpxtdko5e3oj4zq53sc4lua.py":48:30)
#loc40 = loc("inductor_cache/g3/cg3fiiehl3syuq5yykkpwi7bsyoyvlpxtdko5e3oj4zq53sc4lua.py":48:67)
#loc41 = loc("inductor_cache/g3/cg3fiiehl3syuq5yykkpwi7bsyoyvlpxtdko5e3oj4zq53sc4lua.py":49:19)
#loc42 = loc("inductor_cache/g3/cg3fiiehl3syuq5yykkpwi7bsyoyvlpxtdko5e3oj4zq53sc4lua.py":50:20)
#loc43 = loc("inductor_cache/g3/cg3fiiehl3syuq5yykkpwi7bsyoyvlpxtdko5e3oj4zq53sc4lua.py":51:20)
#loc44 = loc("inductor_cache/g3/cg3fiiehl3syuq5yykkpwi7bsyoyvlpxtdko5e3oj4zq53sc4lua.py":52:35)
#loc45 = loc("inductor_cache/g3/cg3fiiehl3syuq5yykkpwi7bsyoyvlpxtdko5e3oj4zq53sc4lua.py":53:40)
#loc46 = loc("inductor_cache/g3/cg3fiiehl3syuq5yykkpwi7bsyoyvlpxtdko5e3oj4zq53sc4lua.py":53:36)
#loc47 = loc("inductor_cache/g3/cg3fiiehl3syuq5yykkpwi7bsyoyvlpxtdko5e3oj4zq53sc4lua.py":53:48)
#loc48 = loc("inductor_cache/g3/cg3fiiehl3syuq5yykkpwi7bsyoyvlpxtdko5e3oj4zq53sc4lua.py":53:59)
#loc49 = loc("inductor_cache/g3/cg3fiiehl3syuq5yykkpwi7bsyoyvlpxtdko5e3oj4zq53sc4lua.py":53:31)
#loc50 = loc("inductor_cache/g3/cg3fiiehl3syuq5yykkpwi7bsyoyvlpxtdko5e3oj4zq53sc4lua.py":53:69)
#loc51 = loc("inductor_cache/g3/cg3fiiehl3syuq5yykkpwi7bsyoyvlpxtdko5e3oj4zq53sc4lua.py":54:20)
#loc52 = loc("inductor_cache/g3/cg3fiiehl3syuq5yykkpwi7bsyoyvlpxtdko5e3oj4zq53sc4lua.py":55:20)
#loc53 = loc("inductor_cache/g3/cg3fiiehl3syuq5yykkpwi7bsyoyvlpxtdko5e3oj4zq53sc4lua.py":56:20)
#loc54 = loc("inductor_cache/g3/cg3fiiehl3syuq5yykkpwi7bsyoyvlpxtdko5e3oj4zq53sc4lua.py":57:20)
#loc55 = loc("inductor_cache/g3/cg3fiiehl3syuq5yykkpwi7bsyoyvlpxtdko5e3oj4zq53sc4lua.py":58:20)
#loc56 = loc("inductor_cache/g3/cg3fiiehl3syuq5yykkpwi7bsyoyvlpxtdko5e3oj4zq53sc4lua.py":59:20)
#loc57 = loc("inductor_cache/g3/cg3fiiehl3syuq5yykkpwi7bsyoyvlpxtdko5e3oj4zq53sc4lua.py":60:35)
#loc58 = loc("inductor_cache/g3/cg3fiiehl3syuq5yykkpwi7bsyoyvlpxtdko5e3oj4zq53sc4lua.py":61:51)
#loc59 = loc("inductor_cache/g3/cg3fiiehl3syuq5yykkpwi7bsyoyvlpxtdko5e3oj4zq53sc4lua.py":61:47)
#loc60 = loc("inductor_cache/g3/cg3fiiehl3syuq5yykkpwi7bsyoyvlpxtdko5e3oj4zq53sc4lua.py":61:59)
#loc61 = loc("inductor_cache/g3/cg3fiiehl3syuq5yykkpwi7bsyoyvlpxtdko5e3oj4zq53sc4lua.py":61:31)
#loc62 = loc("inductor_cache/g3/cg3fiiehl3syuq5yykkpwi7bsyoyvlpxtdko5e3oj4zq53sc4lua.py":61:69)
#loc63 = loc("inductor_cache/g3/cg3fiiehl3syuq5yykkpwi7bsyoyvlpxtdko5e3oj4zq53sc4lua.py":62:20)
#loc64 = loc("inductor_cache/g3/cg3fiiehl3syuq5yykkpwi7bsyoyvlpxtdko5e3oj4zq53sc4lua.py":63:48)
#loc65 = loc("inductor_cache/g3/cg3fiiehl3syuq5yykkpwi7bsyoyvlpxtdko5e3oj4zq53sc4lua.py":63:60)
#loc66 = loc("inductor_cache/g3/cg3fiiehl3syuq5yykkpwi7bsyoyvlpxtdko5e3oj4zq53sc4lua.py":63:31)
#loc67 = loc("inductor_cache/g3/cg3fiiehl3syuq5yykkpwi7bsyoyvlpxtdko5e3oj4zq53sc4lua.py":63:70)
#loc68 = loc("inductor_cache/g3/cg3fiiehl3syuq5yykkpwi7bsyoyvlpxtdko5e3oj4zq53sc4lua.py":64:20)
#loc69 = loc("inductor_cache/g3/cg3fiiehl3syuq5yykkpwi7bsyoyvlpxtdko5e3oj4zq53sc4lua.py":65:20)
#loc70 = loc("inductor_cache/g3/cg3fiiehl3syuq5yykkpwi7bsyoyvlpxtdko5e3oj4zq53sc4lua.py":66:20)
#loc71 = loc("inductor_cache/g3/cg3fiiehl3syuq5yykkpwi7bsyoyvlpxtdko5e3oj4zq53sc4lua.py":67:20)
#loc72 = loc("inductor_cache/g3/cg3fiiehl3syuq5yykkpwi7bsyoyvlpxtdko5e3oj4zq53sc4lua.py":68:20)
#loc73 = loc("inductor_cache/g3/cg3fiiehl3syuq5yykkpwi7bsyoyvlpxtdko5e3oj4zq53sc4lua.py":69:20)
#loc74 = loc("inductor_cache/g3/cg3fiiehl3syuq5yykkpwi7bsyoyvlpxtdko5e3oj4zq53sc4lua.py":70:20)
#loc75 = loc("inductor_cache/g3/cg3fiiehl3syuq5yykkpwi7bsyoyvlpxtdko5e3oj4zq53sc4lua.py":71:34)
#loc76 = loc("inductor_cache/g3/cg3fiiehl3syuq5yykkpwi7bsyoyvlpxtdko5e3oj4zq53sc4lua.py":71:30)
#loc77 = loc("inductor_cache/g3/cg3fiiehl3syuq5yykkpwi7bsyoyvlpxtdko5e3oj4zq53sc4lua.py":71:44)
#loc78 = loc("inductor_cache/g3/cg3fiiehl3syuq5yykkpwi7bsyoyvlpxtdko5e3oj4zq53sc4lua.py":71:39)
#loc79 = loc("inductor_cache/g3/cg3fiiehl3syuq5yykkpwi7bsyoyvlpxtdko5e3oj4zq53sc4lua.py":71:25)
#loc80 = loc("inductor_cache/g3/cg3fiiehl3syuq5yykkpwi7bsyoyvlpxtdko5e3oj4zq53sc4lua.py":71:56)
#loc81 = loc("inductor_cache/g3/cg3fiiehl3syuq5yykkpwi7bsyoyvlpxtdko5e3oj4zq53sc4lua.py":71:4)
