#loc = loc("inductor_cache/zj/czjcptdf23uze23wacbj56z73abemk3dkcmgjqagmxaufsfmx6cl.py":19:0)
module {
  tt.func public @triton_poi_fused_max_pool2d_with_indices_2(%arg0: !tt.ptr<f32> {tt.divisibility = 16 : i32} loc("inductor_cache/zj/czjcptdf23uze23wacbj56z73abemk3dkcmgjqagmxaufsfmx6cl.py":19:0), %arg1: !tt.ptr<f32> {tt.divisibility = 16 : i32} loc("inductor_cache/zj/czjcptdf23uze23wacbj56z73abemk3dkcmgjqagmxaufsfmx6cl.py":19:0), %arg2: i32 {tt.divisibility = 16 : i32} loc("inductor_cache/zj/czjcptdf23uze23wacbj56z73abemk3dkcmgjqagmxaufsfmx6cl.py":19:0)) attributes {noinline = false} {
    %cst = arith.constant dense<5> : tensor<128xi32> loc(#loc1)
    %cst_0 = arith.constant dense<3> : tensor<128xi32> loc(#loc1)
    %cst_1 = arith.constant dense<-3> : tensor<128xi32> loc(#loc1)
    %cst_2 = arith.constant dense<1> : tensor<128xi32> loc(#loc1)
    %cst_3 = arith.constant dense<-4> : tensor<128xi32> loc(#loc1)
    %cst_4 = arith.constant dense<0xFF800000> : tensor<128xf32> loc(#loc1)
    %cst_5 = arith.constant dense<-5> : tensor<128xi32> loc(#loc1)
    %cst_6 = arith.constant dense<4> : tensor<128xi64> loc(#loc1)
    %cst_7 = arith.constant dense<0> : tensor<128xi64> loc(#loc1)
    %cst_8 = arith.constant dense<-1> : tensor<128xi32> loc(#loc1)
    %cst_9 = arith.constant dense<4> : tensor<128xi32> loc(#loc1)
    %cst_10 = arith.constant dense<256> : tensor<128xi32> loc(#loc1)
    %c128_i32 = arith.constant 128 : i32 loc(#loc1)
    %0 = tt.get_program_id x : i32 loc(#loc2)
    %1 = arith.muli %0, %c128_i32 : i32 loc(#loc3)
    %2 = tt.make_range {end = 128 : i32, start = 0 : i32} : tensor<128xi32> loc(#loc4)
    %3 = tt.splat %1 : i32 -> tensor<128xi32> loc(#loc5)
    %4 = arith.addi %3, %2 : tensor<128xi32> loc(#loc5)
    %5 = arith.cmpi slt, %4, %cst_10 : tensor<128xi32> loc(#loc6)
    %6 = arith.divsi %4, %cst_9 : tensor<128xi32> loc(#loc7)
    %7 = arith.remsi %6, %cst_9 : tensor<128xi32> loc(#loc8)
    %8 = arith.remsi %4, %cst_9 : tensor<128xi32> loc(#loc9)
    %9 = arith.addi %7, %cst_8 : tensor<128xi32> loc(#loc10)
    %10 = arith.extsi %9 : tensor<128xi32> to tensor<128xi64> loc(#loc11)
    %11 = arith.cmpi sge, %10, %cst_7 : tensor<128xi64> loc(#loc11)
    %12 = arith.cmpi slt, %10, %cst_6 : tensor<128xi64> loc(#loc12)
    %13 = arith.andi %11, %12 : tensor<128xi1> loc(#loc13)
    %14 = arith.addi %8, %cst_8 : tensor<128xi32> loc(#loc14)
    %15 = arith.extsi %14 : tensor<128xi32> to tensor<128xi64> loc(#loc15)
    %16 = arith.cmpi sge, %15, %cst_7 : tensor<128xi64> loc(#loc15)
    %17 = arith.cmpi slt, %15, %cst_6 : tensor<128xi64> loc(#loc16)
    %18 = arith.andi %16, %17 : tensor<128xi1> loc(#loc17)
    %19 = arith.andi %13, %18 : tensor<128xi1> loc(#loc18)
    %20 = arith.addi %4, %cst_5 : tensor<128xi32> loc(#loc19)
    %21 = tt.splat %arg0 : !tt.ptr<f32> -> tensor<128x!tt.ptr<f32>> loc(#loc20)
    %22 = tt.addptr %21, %20 : tensor<128x!tt.ptr<f32>>, tensor<128xi32> loc(#loc20)
    %23 = arith.andi %19, %5 : tensor<128xi1> loc(#loc21)
    %24 = tt.load %22, %23, %cst_4 : tensor<128x!tt.ptr<f32>> loc(#loc22)
    %25 = arith.extsi %8 : tensor<128xi32> to tensor<128xi64> loc(#loc23)
    %26 = arith.cmpi sge, %25, %cst_7 : tensor<128xi64> loc(#loc23)
    %27 = arith.cmpi slt, %25, %cst_6 : tensor<128xi64> loc(#loc24)
    %28 = arith.andi %26, %27 : tensor<128xi1> loc(#loc25)
    %29 = arith.andi %13, %28 : tensor<128xi1> loc(#loc26)
    %30 = arith.addi %4, %cst_3 : tensor<128xi32> loc(#loc27)
    %31 = tt.addptr %21, %30 : tensor<128x!tt.ptr<f32>>, tensor<128xi32> loc(#loc28)
    %32 = arith.andi %29, %5 : tensor<128xi1> loc(#loc29)
    %33 = tt.load %31, %32, %cst_4 : tensor<128x!tt.ptr<f32>> loc(#loc30)
    %34 = arith.cmpf ogt, %33, %24 : tensor<128xf32> loc(#loc91)
    %35 = arith.cmpf une, %33, %33 : tensor<128xf32> loc(#loc92)
    %36 = arith.ori %34, %35 : tensor<128xi1> loc(#loc93)
    %37 = arith.select %36, %33, %24 : tensor<128xi1>, tensor<128xf32> loc(#loc94)
    %38 = arith.addi %8, %cst_2 : tensor<128xi32> loc(#loc36)
    %39 = arith.extsi %38 : tensor<128xi32> to tensor<128xi64> loc(#loc37)
    %40 = arith.cmpi sge, %39, %cst_7 : tensor<128xi64> loc(#loc37)
    %41 = arith.cmpi slt, %39, %cst_6 : tensor<128xi64> loc(#loc38)
    %42 = arith.andi %40, %41 : tensor<128xi1> loc(#loc39)
    %43 = arith.andi %13, %42 : tensor<128xi1> loc(#loc40)
    %44 = arith.addi %4, %cst_1 : tensor<128xi32> loc(#loc41)
    %45 = tt.addptr %21, %44 : tensor<128x!tt.ptr<f32>>, tensor<128xi32> loc(#loc42)
    %46 = arith.andi %43, %5 : tensor<128xi1> loc(#loc43)
    %47 = tt.load %45, %46, %cst_4 : tensor<128x!tt.ptr<f32>> loc(#loc44)
    %48 = arith.cmpf ogt, %47, %37 : tensor<128xf32> loc(#loc95)
    %49 = arith.cmpf une, %47, %47 : tensor<128xf32> loc(#loc96)
    %50 = arith.ori %48, %49 : tensor<128xi1> loc(#loc97)
    %51 = arith.select %50, %47, %37 : tensor<128xi1>, tensor<128xf32> loc(#loc98)
    %52 = arith.extsi %7 : tensor<128xi32> to tensor<128xi64> loc(#loc46)
    %53 = arith.cmpi sge, %52, %cst_7 : tensor<128xi64> loc(#loc46)
    %54 = arith.cmpi slt, %52, %cst_6 : tensor<128xi64> loc(#loc47)
    %55 = arith.andi %53, %54 : tensor<128xi1> loc(#loc48)
    %56 = arith.andi %55, %18 : tensor<128xi1> loc(#loc49)
    %57 = arith.addi %4, %cst_8 : tensor<128xi32> loc(#loc50)
    %58 = tt.addptr %21, %57 : tensor<128x!tt.ptr<f32>>, tensor<128xi32> loc(#loc51)
    %59 = arith.andi %56, %5 : tensor<128xi1> loc(#loc52)
    %60 = tt.load %58, %59, %cst_4 : tensor<128x!tt.ptr<f32>> loc(#loc53)
    %61 = arith.cmpf ogt, %60, %51 : tensor<128xf32> loc(#loc99)
    %62 = arith.cmpf une, %60, %60 : tensor<128xf32> loc(#loc100)
    %63 = arith.ori %61, %62 : tensor<128xi1> loc(#loc101)
    %64 = arith.select %63, %60, %51 : tensor<128xi1>, tensor<128xf32> loc(#loc102)
    %65 = arith.andi %55, %28 : tensor<128xi1> loc(#loc55)
    %66 = tt.addptr %21, %4 : tensor<128x!tt.ptr<f32>>, tensor<128xi32> loc(#loc56)
    %67 = arith.andi %65, %5 : tensor<128xi1> loc(#loc57)
    %68 = tt.load %66, %67, %cst_4 : tensor<128x!tt.ptr<f32>> loc(#loc58)
    %69 = arith.cmpf ogt, %68, %64 : tensor<128xf32> loc(#loc103)
    %70 = arith.cmpf une, %68, %68 : tensor<128xf32> loc(#loc104)
    %71 = arith.ori %69, %70 : tensor<128xi1> loc(#loc105)
    %72 = arith.select %71, %68, %64 : tensor<128xi1>, tensor<128xf32> loc(#loc106)
    %73 = arith.andi %55, %42 : tensor<128xi1> loc(#loc60)
    %74 = arith.addi %4, %cst_2 : tensor<128xi32> loc(#loc61)
    %75 = tt.addptr %21, %74 : tensor<128x!tt.ptr<f32>>, tensor<128xi32> loc(#loc62)
    %76 = arith.andi %73, %5 : tensor<128xi1> loc(#loc63)
    %77 = tt.load %75, %76, %cst_4 : tensor<128x!tt.ptr<f32>> loc(#loc64)
    %78 = arith.cmpf ogt, %77, %72 : tensor<128xf32> loc(#loc107)
    %79 = arith.cmpf une, %77, %77 : tensor<128xf32> loc(#loc108)
    %80 = arith.ori %78, %79 : tensor<128xi1> loc(#loc109)
    %81 = arith.select %80, %77, %72 : tensor<128xi1>, tensor<128xf32> loc(#loc110)
    %82 = arith.addi %7, %cst_2 : tensor<128xi32> loc(#loc66)
    %83 = arith.extsi %82 : tensor<128xi32> to tensor<128xi64> loc(#loc67)
    %84 = arith.cmpi sge, %83, %cst_7 : tensor<128xi64> loc(#loc67)
    %85 = arith.cmpi slt, %83, %cst_6 : tensor<128xi64> loc(#loc68)
    %86 = arith.andi %84, %85 : tensor<128xi1> loc(#loc69)
    %87 = arith.andi %86, %18 : tensor<128xi1> loc(#loc70)
    %88 = arith.addi %4, %cst_0 : tensor<128xi32> loc(#loc71)
    %89 = tt.addptr %21, %88 : tensor<128x!tt.ptr<f32>>, tensor<128xi32> loc(#loc72)
    %90 = arith.andi %87, %5 : tensor<128xi1> loc(#loc73)
    %91 = tt.load %89, %90, %cst_4 : tensor<128x!tt.ptr<f32>> loc(#loc74)
    %92 = arith.cmpf ogt, %91, %81 : tensor<128xf32> loc(#loc111)
    %93 = arith.cmpf une, %91, %91 : tensor<128xf32> loc(#loc112)
    %94 = arith.ori %92, %93 : tensor<128xi1> loc(#loc113)
    %95 = arith.select %94, %91, %81 : tensor<128xi1>, tensor<128xf32> loc(#loc114)
    %96 = arith.andi %86, %28 : tensor<128xi1> loc(#loc76)
    %97 = arith.addi %4, %cst_9 : tensor<128xi32> loc(#loc77)
    %98 = tt.addptr %21, %97 : tensor<128x!tt.ptr<f32>>, tensor<128xi32> loc(#loc78)
    %99 = arith.andi %96, %5 : tensor<128xi1> loc(#loc79)
    %100 = tt.load %98, %99, %cst_4 : tensor<128x!tt.ptr<f32>> loc(#loc80)
    %101 = arith.cmpf ogt, %100, %95 : tensor<128xf32> loc(#loc115)
    %102 = arith.cmpf une, %100, %100 : tensor<128xf32> loc(#loc116)
    %103 = arith.ori %101, %102 : tensor<128xi1> loc(#loc117)
    %104 = arith.select %103, %100, %95 : tensor<128xi1>, tensor<128xf32> loc(#loc118)
    %105 = arith.andi %86, %42 : tensor<128xi1> loc(#loc82)
    %106 = arith.addi %4, %cst : tensor<128xi32> loc(#loc83)
    %107 = tt.addptr %21, %106 : tensor<128x!tt.ptr<f32>>, tensor<128xi32> loc(#loc84)
    %108 = arith.andi %105, %5 : tensor<128xi1> loc(#loc85)
    %109 = tt.load %107, %108, %cst_4 : tensor<128x!tt.ptr<f32>> loc(#loc86)
    %110 = arith.cmpf ogt, %109, %104 : tensor<128xf32> loc(#loc119)
    %111 = arith.cmpf une, %109, %109 : tensor<128xf32> loc(#loc120)
    %112 = arith.ori %110, %111 : tensor<128xi1> loc(#loc121)
    %113 = arith.select %112, %109, %104 : tensor<128xi1>, tensor<128xf32> loc(#loc122)
    %114 = tt.splat %arg1 : !tt.ptr<f32> -> tensor<128x!tt.ptr<f32>> loc(#loc88)
    %115 = tt.addptr %114, %4 : tensor<128x!tt.ptr<f32>>, tensor<128xi32> loc(#loc88)
    tt.store %115, %113, %5 : tensor<128x!tt.ptr<f32>> loc(#loc89)
    tt.return loc(#loc90)
  } loc(#loc)
} loc(#loc)
#loc1 = loc(unknown)
#loc2 = loc("inductor_cache/zj/czjcptdf23uze23wacbj56z73abemk3dkcmgjqagmxaufsfmx6cl.py":21:28)
#loc3 = loc("inductor_cache/zj/czjcptdf23uze23wacbj56z73abemk3dkcmgjqagmxaufsfmx6cl.py":21:33)
#loc4 = loc("inductor_cache/zj/czjcptdf23uze23wacbj56z73abemk3dkcmgjqagmxaufsfmx6cl.py":22:36)
#loc5 = loc("inductor_cache/zj/czjcptdf23uze23wacbj56z73abemk3dkcmgjqagmxaufsfmx6cl.py":22:23)
#loc6 = loc("inductor_cache/zj/czjcptdf23uze23wacbj56z73abemk3dkcmgjqagmxaufsfmx6cl.py":23:21)
#loc7 = loc("inductor_cache/zj/czjcptdf23uze23wacbj56z73abemk3dkcmgjqagmxaufsfmx6cl.py":24:21)
#loc8 = loc("inductor_cache/zj/czjcptdf23uze23wacbj56z73abemk3dkcmgjqagmxaufsfmx6cl.py":24:26)
#loc9 = loc("inductor_cache/zj/czjcptdf23uze23wacbj56z73abemk3dkcmgjqagmxaufsfmx6cl.py":25:19)
#loc10 = loc("inductor_cache/zj/czjcptdf23uze23wacbj56z73abemk3dkcmgjqagmxaufsfmx6cl.py":27:18)
#loc11 = loc("inductor_cache/zj/czjcptdf23uze23wacbj56z73abemk3dkcmgjqagmxaufsfmx6cl.py":29:19)
#loc12 = loc("inductor_cache/zj/czjcptdf23uze23wacbj56z73abemk3dkcmgjqagmxaufsfmx6cl.py":31:18)
#loc13 = loc("inductor_cache/zj/czjcptdf23uze23wacbj56z73abemk3dkcmgjqagmxaufsfmx6cl.py":32:18)
#loc14 = loc("inductor_cache/zj/czjcptdf23uze23wacbj56z73abemk3dkcmgjqagmxaufsfmx6cl.py":33:18)
#loc15 = loc("inductor_cache/zj/czjcptdf23uze23wacbj56z73abemk3dkcmgjqagmxaufsfmx6cl.py":34:19)
#loc16 = loc("inductor_cache/zj/czjcptdf23uze23wacbj56z73abemk3dkcmgjqagmxaufsfmx6cl.py":35:18)
#loc17 = loc("inductor_cache/zj/czjcptdf23uze23wacbj56z73abemk3dkcmgjqagmxaufsfmx6cl.py":36:18)
#loc18 = loc("inductor_cache/zj/czjcptdf23uze23wacbj56z73abemk3dkcmgjqagmxaufsfmx6cl.py":37:19)
#loc19 = loc("inductor_cache/zj/czjcptdf23uze23wacbj56z73abemk3dkcmgjqagmxaufsfmx6cl.py":38:38)
#loc20 = loc("inductor_cache/zj/czjcptdf23uze23wacbj56z73abemk3dkcmgjqagmxaufsfmx6cl.py":38:31)
#loc21 = loc("inductor_cache/zj/czjcptdf23uze23wacbj56z73abemk3dkcmgjqagmxaufsfmx6cl.py":38:51)
#loc22 = loc("inductor_cache/zj/czjcptdf23uze23wacbj56z73abemk3dkcmgjqagmxaufsfmx6cl.py":38:43)
#loc23 = loc("inductor_cache/zj/czjcptdf23uze23wacbj56z73abemk3dkcmgjqagmxaufsfmx6cl.py":40:21)
#loc24 = loc("inductor_cache/zj/czjcptdf23uze23wacbj56z73abemk3dkcmgjqagmxaufsfmx6cl.py":41:20)
#loc25 = loc("inductor_cache/zj/czjcptdf23uze23wacbj56z73abemk3dkcmgjqagmxaufsfmx6cl.py":42:20)
#loc26 = loc("inductor_cache/zj/czjcptdf23uze23wacbj56z73abemk3dkcmgjqagmxaufsfmx6cl.py":43:19)
#loc27 = loc("inductor_cache/zj/czjcptdf23uze23wacbj56z73abemk3dkcmgjqagmxaufsfmx6cl.py":44:38)
#loc28 = loc("inductor_cache/zj/czjcptdf23uze23wacbj56z73abemk3dkcmgjqagmxaufsfmx6cl.py":44:31)
#loc29 = loc("inductor_cache/zj/czjcptdf23uze23wacbj56z73abemk3dkcmgjqagmxaufsfmx6cl.py":44:51)
#loc30 = loc("inductor_cache/zj/czjcptdf23uze23wacbj56z73abemk3dkcmgjqagmxaufsfmx6cl.py":44:43)
#loc31 = loc("/home/sahanp/.conda/envs/parity-bench/lib/python3.12/site-packages/torch/_inductor/runtime/triton_helpers.py":118:15)
#loc32 = loc("inductor_cache/zj/czjcptdf23uze23wacbj56z73abemk3dkcmgjqagmxaufsfmx6cl.py":45:42)
#loc33 = loc("/home/sahanp/.conda/envs/parity-bench/lib/python3.12/site-packages/torch/_inductor/runtime/triton_helpers.py":120:21)
#loc34 = loc("/home/sahanp/.conda/envs/parity-bench/lib/python3.12/site-packages/torch/_inductor/runtime/triton_helpers.py":120:16)
#loc35 = loc("/home/sahanp/.conda/envs/parity-bench/lib/python3.12/site-packages/torch/_inductor/runtime/triton_helpers.py":121:29)
#loc36 = loc("inductor_cache/zj/czjcptdf23uze23wacbj56z73abemk3dkcmgjqagmxaufsfmx6cl.py":46:16)
#loc37 = loc("inductor_cache/zj/czjcptdf23uze23wacbj56z73abemk3dkcmgjqagmxaufsfmx6cl.py":47:21)
#loc38 = loc("inductor_cache/zj/czjcptdf23uze23wacbj56z73abemk3dkcmgjqagmxaufsfmx6cl.py":48:20)
#loc39 = loc("inductor_cache/zj/czjcptdf23uze23wacbj56z73abemk3dkcmgjqagmxaufsfmx6cl.py":49:20)
#loc40 = loc("inductor_cache/zj/czjcptdf23uze23wacbj56z73abemk3dkcmgjqagmxaufsfmx6cl.py":50:19)
#loc41 = loc("inductor_cache/zj/czjcptdf23uze23wacbj56z73abemk3dkcmgjqagmxaufsfmx6cl.py":51:38)
#loc42 = loc("inductor_cache/zj/czjcptdf23uze23wacbj56z73abemk3dkcmgjqagmxaufsfmx6cl.py":51:31)
#loc43 = loc("inductor_cache/zj/czjcptdf23uze23wacbj56z73abemk3dkcmgjqagmxaufsfmx6cl.py":51:51)
#loc44 = loc("inductor_cache/zj/czjcptdf23uze23wacbj56z73abemk3dkcmgjqagmxaufsfmx6cl.py":51:43)
#loc45 = loc("inductor_cache/zj/czjcptdf23uze23wacbj56z73abemk3dkcmgjqagmxaufsfmx6cl.py":52:42)
#loc46 = loc("inductor_cache/zj/czjcptdf23uze23wacbj56z73abemk3dkcmgjqagmxaufsfmx6cl.py":54:21)
#loc47 = loc("inductor_cache/zj/czjcptdf23uze23wacbj56z73abemk3dkcmgjqagmxaufsfmx6cl.py":55:20)
#loc48 = loc("inductor_cache/zj/czjcptdf23uze23wacbj56z73abemk3dkcmgjqagmxaufsfmx6cl.py":56:20)
#loc49 = loc("inductor_cache/zj/czjcptdf23uze23wacbj56z73abemk3dkcmgjqagmxaufsfmx6cl.py":57:20)
#loc50 = loc("inductor_cache/zj/czjcptdf23uze23wacbj56z73abemk3dkcmgjqagmxaufsfmx6cl.py":58:38)
#loc51 = loc("inductor_cache/zj/czjcptdf23uze23wacbj56z73abemk3dkcmgjqagmxaufsfmx6cl.py":58:31)
#loc52 = loc("inductor_cache/zj/czjcptdf23uze23wacbj56z73abemk3dkcmgjqagmxaufsfmx6cl.py":58:51)
#loc53 = loc("inductor_cache/zj/czjcptdf23uze23wacbj56z73abemk3dkcmgjqagmxaufsfmx6cl.py":58:43)
#loc54 = loc("inductor_cache/zj/czjcptdf23uze23wacbj56z73abemk3dkcmgjqagmxaufsfmx6cl.py":59:42)
#loc55 = loc("inductor_cache/zj/czjcptdf23uze23wacbj56z73abemk3dkcmgjqagmxaufsfmx6cl.py":60:20)
#loc56 = loc("inductor_cache/zj/czjcptdf23uze23wacbj56z73abemk3dkcmgjqagmxaufsfmx6cl.py":61:31)
#loc57 = loc("inductor_cache/zj/czjcptdf23uze23wacbj56z73abemk3dkcmgjqagmxaufsfmx6cl.py":61:44)
#loc58 = loc("inductor_cache/zj/czjcptdf23uze23wacbj56z73abemk3dkcmgjqagmxaufsfmx6cl.py":61:36)
#loc59 = loc("inductor_cache/zj/czjcptdf23uze23wacbj56z73abemk3dkcmgjqagmxaufsfmx6cl.py":62:42)
#loc60 = loc("inductor_cache/zj/czjcptdf23uze23wacbj56z73abemk3dkcmgjqagmxaufsfmx6cl.py":63:20)
#loc61 = loc("inductor_cache/zj/czjcptdf23uze23wacbj56z73abemk3dkcmgjqagmxaufsfmx6cl.py":64:35)
#loc62 = loc("inductor_cache/zj/czjcptdf23uze23wacbj56z73abemk3dkcmgjqagmxaufsfmx6cl.py":64:31)
#loc63 = loc("inductor_cache/zj/czjcptdf23uze23wacbj56z73abemk3dkcmgjqagmxaufsfmx6cl.py":64:48)
#loc64 = loc("inductor_cache/zj/czjcptdf23uze23wacbj56z73abemk3dkcmgjqagmxaufsfmx6cl.py":64:40)
#loc65 = loc("inductor_cache/zj/czjcptdf23uze23wacbj56z73abemk3dkcmgjqagmxaufsfmx6cl.py":65:42)
#loc66 = loc("inductor_cache/zj/czjcptdf23uze23wacbj56z73abemk3dkcmgjqagmxaufsfmx6cl.py":66:16)
#loc67 = loc("inductor_cache/zj/czjcptdf23uze23wacbj56z73abemk3dkcmgjqagmxaufsfmx6cl.py":67:21)
#loc68 = loc("inductor_cache/zj/czjcptdf23uze23wacbj56z73abemk3dkcmgjqagmxaufsfmx6cl.py":68:20)
#loc69 = loc("inductor_cache/zj/czjcptdf23uze23wacbj56z73abemk3dkcmgjqagmxaufsfmx6cl.py":69:20)
#loc70 = loc("inductor_cache/zj/czjcptdf23uze23wacbj56z73abemk3dkcmgjqagmxaufsfmx6cl.py":70:20)
#loc71 = loc("inductor_cache/zj/czjcptdf23uze23wacbj56z73abemk3dkcmgjqagmxaufsfmx6cl.py":71:35)
#loc72 = loc("inductor_cache/zj/czjcptdf23uze23wacbj56z73abemk3dkcmgjqagmxaufsfmx6cl.py":71:31)
#loc73 = loc("inductor_cache/zj/czjcptdf23uze23wacbj56z73abemk3dkcmgjqagmxaufsfmx6cl.py":71:48)
#loc74 = loc("inductor_cache/zj/czjcptdf23uze23wacbj56z73abemk3dkcmgjqagmxaufsfmx6cl.py":71:40)
#loc75 = loc("inductor_cache/zj/czjcptdf23uze23wacbj56z73abemk3dkcmgjqagmxaufsfmx6cl.py":72:42)
#loc76 = loc("inductor_cache/zj/czjcptdf23uze23wacbj56z73abemk3dkcmgjqagmxaufsfmx6cl.py":73:20)
#loc77 = loc("inductor_cache/zj/czjcptdf23uze23wacbj56z73abemk3dkcmgjqagmxaufsfmx6cl.py":74:35)
#loc78 = loc("inductor_cache/zj/czjcptdf23uze23wacbj56z73abemk3dkcmgjqagmxaufsfmx6cl.py":74:31)
#loc79 = loc("inductor_cache/zj/czjcptdf23uze23wacbj56z73abemk3dkcmgjqagmxaufsfmx6cl.py":74:48)
#loc80 = loc("inductor_cache/zj/czjcptdf23uze23wacbj56z73abemk3dkcmgjqagmxaufsfmx6cl.py":74:40)
#loc81 = loc("inductor_cache/zj/czjcptdf23uze23wacbj56z73abemk3dkcmgjqagmxaufsfmx6cl.py":75:42)
#loc82 = loc("inductor_cache/zj/czjcptdf23uze23wacbj56z73abemk3dkcmgjqagmxaufsfmx6cl.py":76:20)
#loc83 = loc("inductor_cache/zj/czjcptdf23uze23wacbj56z73abemk3dkcmgjqagmxaufsfmx6cl.py":77:35)
#loc84 = loc("inductor_cache/zj/czjcptdf23uze23wacbj56z73abemk3dkcmgjqagmxaufsfmx6cl.py":77:31)
#loc85 = loc("inductor_cache/zj/czjcptdf23uze23wacbj56z73abemk3dkcmgjqagmxaufsfmx6cl.py":77:48)
#loc86 = loc("inductor_cache/zj/czjcptdf23uze23wacbj56z73abemk3dkcmgjqagmxaufsfmx6cl.py":77:40)
#loc87 = loc("inductor_cache/zj/czjcptdf23uze23wacbj56z73abemk3dkcmgjqagmxaufsfmx6cl.py":78:42)
#loc88 = loc("inductor_cache/zj/czjcptdf23uze23wacbj56z73abemk3dkcmgjqagmxaufsfmx6cl.py":79:25)
#loc89 = loc("inductor_cache/zj/czjcptdf23uze23wacbj56z73abemk3dkcmgjqagmxaufsfmx6cl.py":79:37)
#loc90 = loc("inductor_cache/zj/czjcptdf23uze23wacbj56z73abemk3dkcmgjqagmxaufsfmx6cl.py":79:4)
#loc91 = loc(callsite(#loc31 at #loc32))
#loc92 = loc(callsite(#loc33 at #loc32))
#loc93 = loc(callsite(#loc34 at #loc32))
#loc94 = loc(callsite(#loc35 at #loc32))
#loc95 = loc(callsite(#loc31 at #loc45))
#loc96 = loc(callsite(#loc33 at #loc45))
#loc97 = loc(callsite(#loc34 at #loc45))
#loc98 = loc(callsite(#loc35 at #loc45))
#loc99 = loc(callsite(#loc31 at #loc54))
#loc100 = loc(callsite(#loc33 at #loc54))
#loc101 = loc(callsite(#loc34 at #loc54))
#loc102 = loc(callsite(#loc35 at #loc54))
#loc103 = loc(callsite(#loc31 at #loc59))
#loc104 = loc(callsite(#loc33 at #loc59))
#loc105 = loc(callsite(#loc34 at #loc59))
#loc106 = loc(callsite(#loc35 at #loc59))
#loc107 = loc(callsite(#loc31 at #loc65))
#loc108 = loc(callsite(#loc33 at #loc65))
#loc109 = loc(callsite(#loc34 at #loc65))
#loc110 = loc(callsite(#loc35 at #loc65))
#loc111 = loc(callsite(#loc31 at #loc75))
#loc112 = loc(callsite(#loc33 at #loc75))
#loc113 = loc(callsite(#loc34 at #loc75))
#loc114 = loc(callsite(#loc35 at #loc75))
#loc115 = loc(callsite(#loc31 at #loc81))
#loc116 = loc(callsite(#loc33 at #loc81))
#loc117 = loc(callsite(#loc34 at #loc81))
#loc118 = loc(callsite(#loc35 at #loc81))
#loc119 = loc(callsite(#loc31 at #loc87))
#loc120 = loc(callsite(#loc33 at #loc87))
#loc121 = loc(callsite(#loc34 at #loc87))
#loc122 = loc(callsite(#loc35 at #loc87))
