#loc = loc("inductor_cache/zb/czbhbhugutizo6xzxuxz7gipd4ory7ahalxv4jakzci77cqshh6e.py":19:0)
#loc1 = loc(unknown)
#loc14 = loc("inductor_cache/zb/czbhbhugutizo6xzxuxz7gipd4ory7ahalxv4jakzci77cqshh6e.py":36:24)
#loc24 = loc(callsite(#loc1 at #loc14))
module {
  tt.func public @triton_per_fused_mean_0(%arg0: !tt.ptr<f32> {tt.divisibility = 16 : i32} loc("inductor_cache/zb/czbhbhugutizo6xzxuxz7gipd4ory7ahalxv4jakzci77cqshh6e.py":19:0), %arg1: !tt.ptr<f32> {tt.divisibility = 16 : i32} loc("inductor_cache/zb/czbhbhugutizo6xzxuxz7gipd4ory7ahalxv4jakzci77cqshh6e.py":19:0), %arg2: i32 {tt.divisibility = 16 : i32} loc("inductor_cache/zb/czbhbhugutizo6xzxuxz7gipd4ory7ahalxv4jakzci77cqshh6e.py":19:0), %arg3: i32 {tt.divisibility = 16 : i32} loc("inductor_cache/zb/czbhbhugutizo6xzxuxz7gipd4ory7ahalxv4jakzci77cqshh6e.py":19:0)) attributes {noinline = false} {
    %c8_i32 = arith.constant 8 : i32 loc(#loc1)
    %c4_i32 = arith.constant 4 : i32 loc(#loc1)
    %c16_i32 = arith.constant 16 : i32 loc(#loc1)
    %cst = arith.constant dense<1.600000e+01> : tensor<1x1xf32> loc(#loc1)
    %cst_0 = arith.constant dense<0.000000e+00> : tensor<1x16xf32> loc(#loc1)
    %0 = tt.get_program_id x : i32 loc(#loc2)
    %1 = arith.cmpi slt, %0, %c16_i32 : i32 loc(#loc3)
    %2 = tt.splat %1 : i1 -> tensor<1x1xi1> loc(#loc3)
    %3 = tt.make_range {end = 16 : i32, start = 0 : i32} : tensor<16xi32> loc(#loc4)
    %4 = tt.expand_dims %3 {axis = 0 : i32} : tensor<16xi32> -> tensor<1x16xi32> loc(#loc5)
    %5 = arith.remsi %0, %c4_i32 : i32 loc(#loc6)
    %6 = arith.divsi %0, %c4_i32 : i32 loc(#loc7)
    %7 = arith.muli %0, %c16_i32 : i32 loc(#loc8)
    %8 = tt.splat %7 : i32 -> tensor<1x16xi32> loc(#loc9)
    %9 = arith.addi %4, %8 : tensor<1x16xi32> loc(#loc9)
    %10 = tt.splat %arg0 : !tt.ptr<f32> -> tensor<1x16x!tt.ptr<f32>> loc(#loc10)
    %11 = tt.addptr %10, %9 : tensor<1x16x!tt.ptr<f32>>, tensor<1x16xi32> loc(#loc10)
    %12 = tt.splat %1 : i1 -> tensor<1x16xi1> loc(#loc11)
    %13 = tt.load %11, %12, %cst_0 : tensor<1x16x!tt.ptr<f32>> loc(#loc11)
    %14 = arith.select %12, %13, %cst_0 : tensor<1x16xi1>, tensor<1x16xf32> loc(#loc12)
    %15 = "tt.reduce"(%14) <{axis = 1 : i32}> ({
    ^bb0(%arg4: f32 loc(callsite(#loc1 at #loc14)), %arg5: f32 loc(callsite(#loc1 at #loc14))):
      %22 = arith.addf %arg4, %arg5 : f32 loc(#loc26)
      tt.reduce.return %22 : f32 loc(#loc23)
    }) : (tensor<1x16xf32>) -> tensor<1xf32> loc(#loc23)
    %16 = tt.expand_dims %15 {axis = 1 : i32} : tensor<1xf32> -> tensor<1x1xf32> loc(#loc16)
    %17 = arith.divf %16, %cst : tensor<1x1xf32> loc(#loc17)
    %18 = arith.muli %6, %c8_i32 : i32 loc(#loc18)
    %19 = arith.addi %5, %18 : i32 loc(#loc19)
    %20 = tt.addptr %arg1, %19 : !tt.ptr<f32>, i32 loc(#loc20)
    %21 = tt.splat %20 : !tt.ptr<f32> -> tensor<1x1x!tt.ptr<f32>> loc(#loc20)
    tt.store %21, %17, %2 : tensor<1x1x!tt.ptr<f32>> loc(#loc21)
    tt.return loc(#loc22)
  } loc(#loc)
} loc(#loc)
#loc2 = loc("inductor_cache/zb/czbhbhugutizo6xzxuxz7gipd4ory7ahalxv4jakzci77cqshh6e.py":23:28)
#loc3 = loc("inductor_cache/zb/czbhbhugutizo6xzxuxz7gipd4ory7ahalxv4jakzci77cqshh6e.py":25:21)
#loc4 = loc("inductor_cache/zb/czbhbhugutizo6xzxuxz7gipd4ory7ahalxv4jakzci77cqshh6e.py":26:26)
#loc5 = loc("inductor_cache/zb/czbhbhugutizo6xzxuxz7gipd4ory7ahalxv4jakzci77cqshh6e.py":26:34)
#loc6 = loc("inductor_cache/zb/czbhbhugutizo6xzxuxz7gipd4ory7ahalxv4jakzci77cqshh6e.py":31:19)
#loc7 = loc("inductor_cache/zb/czbhbhugutizo6xzxuxz7gipd4ory7ahalxv4jakzci77cqshh6e.py":32:19)
#loc8 = loc("inductor_cache/zb/czbhbhugutizo6xzxuxz7gipd4ory7ahalxv4jakzci77cqshh6e.py":33:38)
#loc9 = loc("inductor_cache/zb/czbhbhugutizo6xzxuxz7gipd4ory7ahalxv4jakzci77cqshh6e.py":33:35)
#loc10 = loc("inductor_cache/zb/czbhbhugutizo6xzxuxz7gipd4ory7ahalxv4jakzci77cqshh6e.py":33:30)
#loc11 = loc("inductor_cache/zb/czbhbhugutizo6xzxuxz7gipd4ory7ahalxv4jakzci77cqshh6e.py":33:43)
#loc12 = loc("inductor_cache/zb/czbhbhugutizo6xzxuxz7gipd4ory7ahalxv4jakzci77cqshh6e.py":35:33)
#loc13 = loc("/home/sahanp/.conda/envs/parity-bench/lib/python3.12/site-packages/triton/language/standard.py":267:36)
#loc15 = loc("/home/sahanp/.conda/envs/parity-bench/lib/python3.12/site-packages/triton/language/standard.py":256:15)
#loc16 = loc("inductor_cache/zb/czbhbhugutizo6xzxuxz7gipd4ory7ahalxv4jakzci77cqshh6e.py":36:27)
#loc17 = loc("inductor_cache/zb/czbhbhugutizo6xzxuxz7gipd4ory7ahalxv4jakzci77cqshh6e.py":38:18)
#loc18 = loc("inductor_cache/zb/czbhbhugutizo6xzxuxz7gipd4ory7ahalxv4jakzci77cqshh6e.py":39:32)
#loc19 = loc("inductor_cache/zb/czbhbhugutizo6xzxuxz7gipd4ory7ahalxv4jakzci77cqshh6e.py":39:30)
#loc20 = loc("inductor_cache/zb/czbhbhugutizo6xzxuxz7gipd4ory7ahalxv4jakzci77cqshh6e.py":39:25)
#loc21 = loc("inductor_cache/zb/czbhbhugutizo6xzxuxz7gipd4ory7ahalxv4jakzci77cqshh6e.py":39:43)
#loc22 = loc("inductor_cache/zb/czbhbhugutizo6xzxuxz7gipd4ory7ahalxv4jakzci77cqshh6e.py":39:4)
#loc23 = loc(callsite(#loc13 at #loc14))
#loc25 = loc(callsite(#loc15 at #loc13))
#loc26 = loc(callsite(#loc25 at #loc14))
