#loc = loc("inductor_cache/k3/ck3gqirn4xhcgindwkqixiposakczopdgew7ykmmfjdxccunoeyj.py":19:0)
module {
  tt.func public @triton_poi_fused_add_native_group_norm_relu_17(%arg0: !tt.ptr<f32> {tt.divisibility = 16 : i32} loc("inductor_cache/k3/ck3gqirn4xhcgindwkqixiposakczopdgew7ykmmfjdxccunoeyj.py":19:0), %arg1: !tt.ptr<f32> {tt.divisibility = 16 : i32} loc("inductor_cache/k3/ck3gqirn4xhcgindwkqixiposakczopdgew7ykmmfjdxccunoeyj.py":19:0), %arg2: !tt.ptr<f32> {tt.divisibility = 16 : i32} loc("inductor_cache/k3/ck3gqirn4xhcgindwkqixiposakczopdgew7ykmmfjdxccunoeyj.py":19:0), %arg3: !tt.ptr<f32> {tt.divisibility = 16 : i32} loc("inductor_cache/k3/ck3gqirn4xhcgindwkqixiposakczopdgew7ykmmfjdxccunoeyj.py":19:0), %arg4: !tt.ptr<f32> {tt.divisibility = 16 : i32} loc("inductor_cache/k3/ck3gqirn4xhcgindwkqixiposakczopdgew7ykmmfjdxccunoeyj.py":19:0), %arg5: !tt.ptr<f32> {tt.divisibility = 16 : i32} loc("inductor_cache/k3/ck3gqirn4xhcgindwkqixiposakczopdgew7ykmmfjdxccunoeyj.py":19:0), %arg6: !tt.ptr<f32> {tt.divisibility = 16 : i32} loc("inductor_cache/k3/ck3gqirn4xhcgindwkqixiposakczopdgew7ykmmfjdxccunoeyj.py":19:0), %arg7: !tt.ptr<f32> {tt.divisibility = 16 : i32} loc("inductor_cache/k3/ck3gqirn4xhcgindwkqixiposakczopdgew7ykmmfjdxccunoeyj.py":19:0), %arg8: i32 {tt.divisibility = 16 : i32} loc("inductor_cache/k3/ck3gqirn4xhcgindwkqixiposakczopdgew7ykmmfjdxccunoeyj.py":19:0)) attributes {noinline = false} {
    %cst = arith.constant dense<0.000000e+00> : tensor<1024xf32> loc(#loc1)
    %cst_0 = arith.constant dense<262144> : tensor<1024xi32> loc(#loc1)
    %cst_1 = arith.constant dense<64> : tensor<1024xi32> loc(#loc1)
    %cst_2 = arith.constant dense<131072> : tensor<1024xi32> loc(#loc1)
    %cst_3 = arith.constant dense<512> : tensor<1024xi32> loc(#loc1)
    %cst_4 = arith.constant dense<256> : tensor<1024xi32> loc(#loc1)
    %c1024_i32 = arith.constant 1024 : i32 loc(#loc1)
    %0 = tt.get_program_id x : i32 loc(#loc2)
    %1 = arith.muli %0, %c1024_i32 : i32 loc(#loc3)
    %2 = tt.make_range {end = 1024 : i32, start = 0 : i32} : tensor<1024xi32> loc(#loc4)
    %3 = tt.splat %1 : i32 -> tensor<1024xi32> loc(#loc5)
    %4 = arith.addi %3, %2 : tensor<1024xi32> loc(#loc5)
    %5 = arith.divsi %4, %cst_4 : tensor<1024xi32> loc(#loc6)
    %6 = arith.remsi %5, %cst_3 : tensor<1024xi32> loc(#loc7)
    %7 = arith.divsi %4, %cst_2 : tensor<1024xi32> loc(#loc8)
    %8 = arith.remsi %4, %cst_2 : tensor<1024xi32> loc(#loc9)
    %9 = tt.splat %arg0 : !tt.ptr<f32> -> tensor<1024x!tt.ptr<f32>> loc(#loc10)
    %10 = tt.addptr %9, %4 : tensor<1024x!tt.ptr<f32>>, tensor<1024xi32> loc(#loc10)
    %11 = tt.load %10 : tensor<1024x!tt.ptr<f32>> loc(#loc11)
    %12 = arith.divsi %5, %cst_1 : tensor<1024xi32> loc(#loc12)
    %13 = tt.splat %arg1 : !tt.ptr<f32> -> tensor<1024x!tt.ptr<f32>> loc(#loc13)
    %14 = tt.addptr %13, %12 : tensor<1024x!tt.ptr<f32>>, tensor<1024xi32> loc(#loc13)
    %15 = tt.load %14 evictionPolicy = evict_last : tensor<1024x!tt.ptr<f32>> loc(#loc14)
    %16 = tt.splat %arg2 : !tt.ptr<f32> -> tensor<1024x!tt.ptr<f32>> loc(#loc15)
    %17 = tt.addptr %16, %12 : tensor<1024x!tt.ptr<f32>>, tensor<1024xi32> loc(#loc15)
    %18 = tt.load %17 evictionPolicy = evict_last : tensor<1024x!tt.ptr<f32>> loc(#loc16)
    %19 = tt.splat %arg3 : !tt.ptr<f32> -> tensor<1024x!tt.ptr<f32>> loc(#loc17)
    %20 = tt.addptr %19, %6 : tensor<1024x!tt.ptr<f32>>, tensor<1024xi32> loc(#loc17)
    %21 = tt.load %20 evictionPolicy = evict_last : tensor<1024x!tt.ptr<f32>> loc(#loc18)
    %22 = tt.splat %arg4 : !tt.ptr<f32> -> tensor<1024x!tt.ptr<f32>> loc(#loc19)
    %23 = tt.addptr %22, %6 : tensor<1024x!tt.ptr<f32>>, tensor<1024xi32> loc(#loc19)
    %24 = tt.load %23 evictionPolicy = evict_last : tensor<1024x!tt.ptr<f32>> loc(#loc20)
    %25 = tt.splat %arg5 : !tt.ptr<f32> -> tensor<1024x!tt.ptr<f32>> loc(#loc21)
    %26 = tt.addptr %25, %5 : tensor<1024x!tt.ptr<f32>>, tensor<1024xi32> loc(#loc21)
    %27 = tt.load %26 evictionPolicy = evict_last : tensor<1024x!tt.ptr<f32>> loc(#loc22)
    %28 = tt.splat %arg6 : !tt.ptr<f32> -> tensor<1024x!tt.ptr<f32>> loc(#loc23)
    %29 = tt.addptr %28, %6 : tensor<1024x!tt.ptr<f32>>, tensor<1024xi32> loc(#loc23)
    %30 = tt.load %29 evictionPolicy = evict_last : tensor<1024x!tt.ptr<f32>> loc(#loc24)
    %31 = arith.subf %11, %15 : tensor<1024xf32> loc(#loc25)
    %32 = arith.mulf %31, %18 : tensor<1024xf32> loc(#loc26)
    %33 = arith.mulf %32, %21 : tensor<1024xf32> loc(#loc27)
    %34 = arith.addf %33, %24 : tensor<1024xf32> loc(#loc28)
    %35 = arith.cmpf ogt, %cst, %34 : tensor<1024xf32> loc(#loc39)
    %36 = arith.select %35, %cst, %34 : tensor<1024xi1>, tensor<1024xf32> loc(#loc40)
    %37 = arith.addf %27, %30 : tensor<1024xf32> loc(#loc32)
    %38 = arith.addf %36, %37 : tensor<1024xf32> loc(#loc33)
    %39 = arith.muli %7, %cst_0 : tensor<1024xi32> loc(#loc34)
    %40 = arith.addi %8, %39 : tensor<1024xi32> loc(#loc35)
    %41 = tt.splat %arg7 : !tt.ptr<f32> -> tensor<1024x!tt.ptr<f32>> loc(#loc36)
    %42 = tt.addptr %41, %40 : tensor<1024x!tt.ptr<f32>>, tensor<1024xi32> loc(#loc36)
    tt.store %42, %38 : tensor<1024x!tt.ptr<f32>> loc(#loc37)
    tt.return loc(#loc38)
  } loc(#loc)
} loc(#loc)
#loc1 = loc(unknown)
#loc2 = loc("inductor_cache/k3/ck3gqirn4xhcgindwkqixiposakczopdgew7ykmmfjdxccunoeyj.py":21:28)
#loc3 = loc("inductor_cache/k3/ck3gqirn4xhcgindwkqixiposakczopdgew7ykmmfjdxccunoeyj.py":21:33)
#loc4 = loc("inductor_cache/k3/ck3gqirn4xhcgindwkqixiposakczopdgew7ykmmfjdxccunoeyj.py":22:36)
#loc5 = loc("inductor_cache/k3/ck3gqirn4xhcgindwkqixiposakczopdgew7ykmmfjdxccunoeyj.py":22:23)
#loc6 = loc("inductor_cache/k3/ck3gqirn4xhcgindwkqixiposakczopdgew7ykmmfjdxccunoeyj.py":25:19)
#loc7 = loc("inductor_cache/k3/ck3gqirn4xhcgindwkqixiposakczopdgew7ykmmfjdxccunoeyj.py":26:28)
#loc8 = loc("inductor_cache/k3/ck3gqirn4xhcgindwkqixiposakczopdgew7ykmmfjdxccunoeyj.py":27:19)
#loc9 = loc("inductor_cache/k3/ck3gqirn4xhcgindwkqixiposakczopdgew7ykmmfjdxccunoeyj.py":28:19)
#loc10 = loc("inductor_cache/k3/ck3gqirn4xhcgindwkqixiposakczopdgew7ykmmfjdxccunoeyj.py":29:30)
#loc11 = loc("inductor_cache/k3/ck3gqirn4xhcgindwkqixiposakczopdgew7ykmmfjdxccunoeyj.py":29:35)
#loc12 = loc("inductor_cache/k3/ck3gqirn4xhcgindwkqixiposakczopdgew7ykmmfjdxccunoeyj.py":30:36)
#loc13 = loc("inductor_cache/k3/ck3gqirn4xhcgindwkqixiposakczopdgew7ykmmfjdxccunoeyj.py":30:30)
#loc14 = loc("inductor_cache/k3/ck3gqirn4xhcgindwkqixiposakczopdgew7ykmmfjdxccunoeyj.py":30:41)
#loc15 = loc("inductor_cache/k3/ck3gqirn4xhcgindwkqixiposakczopdgew7ykmmfjdxccunoeyj.py":31:30)
#loc16 = loc("inductor_cache/k3/ck3gqirn4xhcgindwkqixiposakczopdgew7ykmmfjdxccunoeyj.py":31:41)
#loc17 = loc("inductor_cache/k3/ck3gqirn4xhcgindwkqixiposakczopdgew7ykmmfjdxccunoeyj.py":32:30)
#loc18 = loc("inductor_cache/k3/ck3gqirn4xhcgindwkqixiposakczopdgew7ykmmfjdxccunoeyj.py":32:35)
#loc19 = loc("inductor_cache/k3/ck3gqirn4xhcgindwkqixiposakczopdgew7ykmmfjdxccunoeyj.py":33:30)
#loc20 = loc("inductor_cache/k3/ck3gqirn4xhcgindwkqixiposakczopdgew7ykmmfjdxccunoeyj.py":33:35)
#loc21 = loc("inductor_cache/k3/ck3gqirn4xhcgindwkqixiposakczopdgew7ykmmfjdxccunoeyj.py":34:31)
#loc22 = loc("inductor_cache/k3/ck3gqirn4xhcgindwkqixiposakczopdgew7ykmmfjdxccunoeyj.py":34:36)
#loc23 = loc("inductor_cache/k3/ck3gqirn4xhcgindwkqixiposakczopdgew7ykmmfjdxccunoeyj.py":35:31)
#loc24 = loc("inductor_cache/k3/ck3gqirn4xhcgindwkqixiposakczopdgew7ykmmfjdxccunoeyj.py":35:36)
#loc25 = loc("inductor_cache/k3/ck3gqirn4xhcgindwkqixiposakczopdgew7ykmmfjdxccunoeyj.py":36:18)
#loc26 = loc("inductor_cache/k3/ck3gqirn4xhcgindwkqixiposakczopdgew7ykmmfjdxccunoeyj.py":37:18)
#loc27 = loc("inductor_cache/k3/ck3gqirn4xhcgindwkqixiposakczopdgew7ykmmfjdxccunoeyj.py":38:18)
#loc28 = loc("inductor_cache/k3/ck3gqirn4xhcgindwkqixiposakczopdgew7ykmmfjdxccunoeyj.py":39:18)
#loc29 = loc("/home/sahanp/.conda/envs/parity-bench/lib/python3.12/site-packages/torch/_inductor/runtime/triton_helpers.py":118:15)
#loc30 = loc("inductor_cache/k3/ck3gqirn4xhcgindwkqixiposakczopdgew7ykmmfjdxccunoeyj.py":41:41)
#loc31 = loc("/home/sahanp/.conda/envs/parity-bench/lib/python3.12/site-packages/torch/_inductor/runtime/triton_helpers.py":121:29)
#loc32 = loc("inductor_cache/k3/ck3gqirn4xhcgindwkqixiposakczopdgew7ykmmfjdxccunoeyj.py":42:20)
#loc33 = loc("inductor_cache/k3/ck3gqirn4xhcgindwkqixiposakczopdgew7ykmmfjdxccunoeyj.py":43:20)
#loc34 = loc("inductor_cache/k3/ck3gqirn4xhcgindwkqixiposakczopdgew7ykmmfjdxccunoeyj.py":44:37)
#loc35 = loc("inductor_cache/k3/ck3gqirn4xhcgindwkqixiposakczopdgew7ykmmfjdxccunoeyj.py":44:30)
#loc36 = loc("inductor_cache/k3/ck3gqirn4xhcgindwkqixiposakczopdgew7ykmmfjdxccunoeyj.py":44:25)
#loc37 = loc("inductor_cache/k3/ck3gqirn4xhcgindwkqixiposakczopdgew7ykmmfjdxccunoeyj.py":44:49)
#loc38 = loc("inductor_cache/k3/ck3gqirn4xhcgindwkqixiposakczopdgew7ykmmfjdxccunoeyj.py":44:4)
#loc39 = loc(callsite(#loc29 at #loc30))
#loc40 = loc(callsite(#loc31 at #loc30))
