#loc = loc("inductor_cache/fg/cfg6lqyokajiq25gtmnzi2v67cergljjqsa4v5dh2d7vlsze5ndt.py":19:0)
module {
  tt.func public @triton_poi_fused_add_8(%arg0: !tt.ptr<f32> {tt.divisibility = 16 : i32} loc("inductor_cache/fg/cfg6lqyokajiq25gtmnzi2v67cergljjqsa4v5dh2d7vlsze5ndt.py":19:0), %arg1: !tt.ptr<f32> {tt.divisibility = 16 : i32} loc("inductor_cache/fg/cfg6lqyokajiq25gtmnzi2v67cergljjqsa4v5dh2d7vlsze5ndt.py":19:0), %arg2: !tt.ptr<f32> {tt.divisibility = 16 : i32} loc("inductor_cache/fg/cfg6lqyokajiq25gtmnzi2v67cergljjqsa4v5dh2d7vlsze5ndt.py":19:0), %arg3: i32 {tt.divisibility = 16 : i32} loc("inductor_cache/fg/cfg6lqyokajiq25gtmnzi2v67cergljjqsa4v5dh2d7vlsze5ndt.py":19:0), %arg4: i32 loc("inductor_cache/fg/cfg6lqyokajiq25gtmnzi2v67cergljjqsa4v5dh2d7vlsze5ndt.py":19:0)) attributes {noinline = false} {
    %c64_i32 = arith.constant 64 : i32 loc(#loc1)
    %c4_i32 = arith.constant 4 : i32 loc(#loc1)
    %cst = arith.constant dense<4> : tensor<1x256xi32> loc(#loc1)
    %cst_0 = arith.constant dense<64> : tensor<1x256xi32> loc(#loc1)
    %cst_1 = arith.constant dense<256> : tensor<1x256xi32> loc(#loc1)
    %c256_i32 = arith.constant 256 : i32 loc(#loc1)
    %0 = tt.get_program_id y : i32 loc(#loc2)
    %1 = arith.muli %0, %c256_i32 : i32 loc(#loc3)
    %2 = tt.make_range {end = 256 : i32, start = 0 : i32} : tensor<256xi32> loc(#loc4)
    %3 = tt.expand_dims %2 {axis = 0 : i32} : tensor<256xi32> -> tensor<1x256xi32> loc(#loc5)
    %4 = tt.splat %1 : i32 -> tensor<1x256xi32> loc(#loc6)
    %5 = arith.addi %4, %3 : tensor<1x256xi32> loc(#loc6)
    %6 = arith.cmpi slt, %5, %cst_1 : tensor<1x256xi32> loc(#loc7)
    %7 = tt.get_program_id x : i32 loc(#loc8)
    %8 = arith.cmpi slt, %7, %c4_i32 : i32 loc(#loc9)
    %9 = tt.splat %8 : i1 -> tensor<1x1xi1> loc(#loc9)
    %10 = arith.remsi %5, %cst_0 : tensor<1x256xi32> loc(#loc10)
    %11 = arith.divsi %5, %cst_0 : tensor<1x256xi32> loc(#loc11)
    %12 = arith.muli %7, %c64_i32 : i32 loc(#loc12)
    %13 = tt.splat %12 : i32 -> tensor<1x256xi32> loc(#loc13)
    %14 = arith.addi %10, %13 : tensor<1x256xi32> loc(#loc13)
    %15 = arith.muli %11, %cst_1 : tensor<1x256xi32> loc(#loc14)
    %16 = arith.addi %14, %15 : tensor<1x256xi32> loc(#loc15)
    %17 = tt.splat %arg1 : !tt.ptr<f32> -> tensor<1x256x!tt.ptr<f32>> loc(#loc16)
    %18 = tt.addptr %17, %16 : tensor<1x256x!tt.ptr<f32>>, tensor<1x256xi32> loc(#loc16)
    %19 = tt.splat %8 : i1 -> tensor<1x256xi1> loc(#loc17)
    %20 = arith.andi %19, %6 : tensor<1x256xi1> loc(#loc17)
    %21 = tt.load %18, %20 evictionPolicy = evict_last : tensor<1x256x!tt.ptr<f32>> loc(#loc18)
    %22 = arith.muli %5, %cst : tensor<1x256xi32> loc(#loc19)
    %23 = tt.splat %7 : i32 -> tensor<1x256xi32> loc(#loc20)
    %24 = arith.addi %23, %22 : tensor<1x256xi32> loc(#loc20)
    %25 = tt.splat %arg0 : !tt.ptr<f32> -> tensor<1x256x!tt.ptr<f32>> loc(#loc21)
    %26 = tt.addptr %25, %24 : tensor<1x256x!tt.ptr<f32>>, tensor<1x256xi32> loc(#loc21)
    %27 = tt.load %26, %20 evictionPolicy = evict_last : tensor<1x256x!tt.ptr<f32>> loc(#loc22)
    %28 = tt.addptr %arg2, %7 : !tt.ptr<f32>, i32 loc(#loc23)
    %29 = tt.splat %28 : !tt.ptr<f32> -> tensor<1x1x!tt.ptr<f32>> loc(#loc23)
    %30 = tt.load %29, %9 evictionPolicy = evict_last : tensor<1x1x!tt.ptr<f32>> loc(#loc24)
    %31 = tt.broadcast %30 : tensor<1x1xf32> -> tensor<1x256xf32> loc(#loc25)
    %32 = arith.addf %27, %31 : tensor<1x256xf32> loc(#loc25)
    %33 = arith.addf %21, %32 : tensor<1x256xf32> loc(#loc26)
    gpu.barrier loc(#loc27)
    tt.store %26, %33, %20 : tensor<1x256x!tt.ptr<f32>> loc(#loc28)
    tt.return loc(#loc29)
  } loc(#loc)
} loc(#loc)
#loc1 = loc(unknown)
#loc2 = loc("inductor_cache/fg/cfg6lqyokajiq25gtmnzi2v67cergljjqsa4v5dh2d7vlsze5ndt.py":22:28)
#loc3 = loc("inductor_cache/fg/cfg6lqyokajiq25gtmnzi2v67cergljjqsa4v5dh2d7vlsze5ndt.py":22:33)
#loc4 = loc("inductor_cache/fg/cfg6lqyokajiq25gtmnzi2v67cergljjqsa4v5dh2d7vlsze5ndt.py":23:36)
#loc5 = loc("inductor_cache/fg/cfg6lqyokajiq25gtmnzi2v67cergljjqsa4v5dh2d7vlsze5ndt.py":23:44)
#loc6 = loc("inductor_cache/fg/cfg6lqyokajiq25gtmnzi2v67cergljjqsa4v5dh2d7vlsze5ndt.py":23:23)
#loc7 = loc("inductor_cache/fg/cfg6lqyokajiq25gtmnzi2v67cergljjqsa4v5dh2d7vlsze5ndt.py":24:21)
#loc8 = loc("inductor_cache/fg/cfg6lqyokajiq25gtmnzi2v67cergljjqsa4v5dh2d7vlsze5ndt.py":25:28)
#loc9 = loc("inductor_cache/fg/cfg6lqyokajiq25gtmnzi2v67cergljjqsa4v5dh2d7vlsze5ndt.py":27:21)
#loc10 = loc("inductor_cache/fg/cfg6lqyokajiq25gtmnzi2v67cergljjqsa4v5dh2d7vlsze5ndt.py":29:19)
#loc11 = loc("inductor_cache/fg/cfg6lqyokajiq25gtmnzi2v67cergljjqsa4v5dh2d7vlsze5ndt.py":30:19)
#loc12 = loc("inductor_cache/fg/cfg6lqyokajiq25gtmnzi2v67cergljjqsa4v5dh2d7vlsze5ndt.py":32:38)
#loc13 = loc("inductor_cache/fg/cfg6lqyokajiq25gtmnzi2v67cergljjqsa4v5dh2d7vlsze5ndt.py":32:35)
#loc14 = loc("inductor_cache/fg/cfg6lqyokajiq25gtmnzi2v67cergljjqsa4v5dh2d7vlsze5ndt.py":32:47)
#loc15 = loc("inductor_cache/fg/cfg6lqyokajiq25gtmnzi2v67cergljjqsa4v5dh2d7vlsze5ndt.py":32:43)
#loc16 = loc("inductor_cache/fg/cfg6lqyokajiq25gtmnzi2v67cergljjqsa4v5dh2d7vlsze5ndt.py":32:30)
#loc17 = loc("inductor_cache/fg/cfg6lqyokajiq25gtmnzi2v67cergljjqsa4v5dh2d7vlsze5ndt.py":32:60)
#loc18 = loc("inductor_cache/fg/cfg6lqyokajiq25gtmnzi2v67cergljjqsa4v5dh2d7vlsze5ndt.py":32:52)
#loc19 = loc("inductor_cache/fg/cfg6lqyokajiq25gtmnzi2v67cergljjqsa4v5dh2d7vlsze5ndt.py":33:41)
#loc20 = loc("inductor_cache/fg/cfg6lqyokajiq25gtmnzi2v67cergljjqsa4v5dh2d7vlsze5ndt.py":33:39)
#loc21 = loc("inductor_cache/fg/cfg6lqyokajiq25gtmnzi2v67cergljjqsa4v5dh2d7vlsze5ndt.py":33:34)
#loc22 = loc("inductor_cache/fg/cfg6lqyokajiq25gtmnzi2v67cergljjqsa4v5dh2d7vlsze5ndt.py":33:46)
#loc23 = loc("inductor_cache/fg/cfg6lqyokajiq25gtmnzi2v67cergljjqsa4v5dh2d7vlsze5ndt.py":34:30)
#loc24 = loc("inductor_cache/fg/cfg6lqyokajiq25gtmnzi2v67cergljjqsa4v5dh2d7vlsze5ndt.py":34:35)
#loc25 = loc("inductor_cache/fg/cfg6lqyokajiq25gtmnzi2v67cergljjqsa4v5dh2d7vlsze5ndt.py":35:18)
#loc26 = loc("inductor_cache/fg/cfg6lqyokajiq25gtmnzi2v67cergljjqsa4v5dh2d7vlsze5ndt.py":36:18)
#loc27 = loc("inductor_cache/fg/cfg6lqyokajiq25gtmnzi2v67cergljjqsa4v5dh2d7vlsze5ndt.py":37:4)
#loc28 = loc("inductor_cache/fg/cfg6lqyokajiq25gtmnzi2v67cergljjqsa4v5dh2d7vlsze5ndt.py":38:46)
#loc29 = loc("inductor_cache/fg/cfg6lqyokajiq25gtmnzi2v67cergljjqsa4v5dh2d7vlsze5ndt.py":38:4)
