#loc = loc("inductor_cache/qs/cqsgpy7najsyi3ce3imahfrm3kujqocqn54az4z44hs5kkejbm4g.py":19:0)
module {
  tt.func public @triton_poi_fused__native_batch_norm_legit_no_training_add_silu_2(%arg0: !tt.ptr<f32> {tt.divisibility = 16 : i32} loc("inductor_cache/qs/cqsgpy7najsyi3ce3imahfrm3kujqocqn54az4z44hs5kkejbm4g.py":19:0), %arg1: !tt.ptr<f32> {tt.divisibility = 16 : i32} loc("inductor_cache/qs/cqsgpy7najsyi3ce3imahfrm3kujqocqn54az4z44hs5kkejbm4g.py":19:0), %arg2: !tt.ptr<f32> {tt.divisibility = 16 : i32} loc("inductor_cache/qs/cqsgpy7najsyi3ce3imahfrm3kujqocqn54az4z44hs5kkejbm4g.py":19:0), %arg3: !tt.ptr<f32> {tt.divisibility = 16 : i32} loc("inductor_cache/qs/cqsgpy7najsyi3ce3imahfrm3kujqocqn54az4z44hs5kkejbm4g.py":19:0), %arg4: !tt.ptr<f32> {tt.divisibility = 16 : i32} loc("inductor_cache/qs/cqsgpy7najsyi3ce3imahfrm3kujqocqn54az4z44hs5kkejbm4g.py":19:0), %arg5: !tt.ptr<f32> {tt.divisibility = 16 : i32} loc("inductor_cache/qs/cqsgpy7najsyi3ce3imahfrm3kujqocqn54az4z44hs5kkejbm4g.py":19:0), %arg6: !tt.ptr<f32> {tt.divisibility = 16 : i32} loc("inductor_cache/qs/cqsgpy7najsyi3ce3imahfrm3kujqocqn54az4z44hs5kkejbm4g.py":19:0), %arg7: !tt.ptr<f32> {tt.divisibility = 16 : i32} loc("inductor_cache/qs/cqsgpy7najsyi3ce3imahfrm3kujqocqn54az4z44hs5kkejbm4g.py":19:0), %arg8: !tt.ptr<f32> {tt.divisibility = 16 : i32} loc("inductor_cache/qs/cqsgpy7najsyi3ce3imahfrm3kujqocqn54az4z44hs5kkejbm4g.py":19:0), %arg9: !tt.ptr<f32> {tt.divisibility = 16 : i32} loc("inductor_cache/qs/cqsgpy7najsyi3ce3imahfrm3kujqocqn54az4z44hs5kkejbm4g.py":19:0), %arg10: !tt.ptr<f32> {tt.divisibility = 16 : i32} loc("inductor_cache/qs/cqsgpy7najsyi3ce3imahfrm3kujqocqn54az4z44hs5kkejbm4g.py":19:0), %arg11: !tt.ptr<f32> {tt.divisibility = 16 : i32} loc("inductor_cache/qs/cqsgpy7najsyi3ce3imahfrm3kujqocqn54az4z44hs5kkejbm4g.py":19:0), %arg12: !tt.ptr<f32> {tt.divisibility = 16 : i32} loc("inductor_cache/qs/cqsgpy7najsyi3ce3imahfrm3kujqocqn54az4z44hs5kkejbm4g.py":19:0), %arg13: !tt.ptr<f32> {tt.divisibility = 16 : i32} loc("inductor_cache/qs/cqsgpy7najsyi3ce3imahfrm3kujqocqn54az4z44hs5kkejbm4g.py":19:0), %arg14: !tt.ptr<f32> {tt.divisibility = 16 : i32} loc("inductor_cache/qs/cqsgpy7najsyi3ce3imahfrm3kujqocqn54az4z44hs5kkejbm4g.py":19:0), %arg15: !tt.ptr<f32> {tt.divisibility = 16 : i32} loc("inductor_cache/qs/cqsgpy7najsyi3ce3imahfrm3kujqocqn54az4z44hs5kkejbm4g.py":19:0), %arg16: i32 {tt.divisibility = 16 : i32} loc("inductor_cache/qs/cqsgpy7najsyi3ce3imahfrm3kujqocqn54az4z44hs5kkejbm4g.py":19:0)) attributes {noinline = false} {
    %cst = arith.constant 1.000000e+00 : f32 loc(#loc1)
    %cst_0 = arith.constant 9.99999974E-6 : f32 loc(#loc1)
    %cst_1 = arith.constant dense<0.000000e+00> : tensor<64xf32> loc(#loc1)
    %cst_2 = arith.constant dense<1.000000e+00> : tensor<64xf32> loc(#loc1)
    %c0_i32 = arith.constant 0 : i32 loc(#loc1)
    %cst_3 = arith.constant dense<64> : tensor<64xi32> loc(#loc1)
    %c64_i32 = arith.constant 64 : i32 loc(#loc1)
    %0 = tt.get_program_id x : i32 loc(#loc2)
    %1 = arith.muli %0, %c64_i32 : i32 loc(#loc3)
    %2 = tt.make_range {end = 64 : i32, start = 0 : i32} : tensor<64xi32> loc(#loc4)
    %3 = tt.splat %1 : i32 -> tensor<64xi32> loc(#loc5)
    %4 = arith.addi %3, %2 : tensor<64xi32> loc(#loc5)
    %5 = arith.cmpi slt, %4, %cst_3 : tensor<64xi32> loc(#loc6)
    %6 = tt.splat %arg1 : !tt.ptr<f32> -> tensor<64x!tt.ptr<f32>> loc(#loc7)
    %7 = tt.addptr %6, %4 : tensor<64x!tt.ptr<f32>>, tensor<64xi32> loc(#loc7)
    %8 = tt.load %7, %5 : tensor<64x!tt.ptr<f32>> loc(#loc8)
    %9 = tt.addptr %arg2, %c0_i32 : !tt.ptr<f32>, i32 loc(#loc9)
    %10 = tt.load %9 : !tt.ptr<f32> loc(#loc10)
    %11 = tt.splat %10 : f32 -> tensor<64xf32> loc(#loc11)
    %12 = tt.addptr %arg3, %c0_i32 : !tt.ptr<f32>, i32 loc(#loc12)
    %13 = tt.load %12 : !tt.ptr<f32> loc(#loc13)
    %14 = tt.addptr %arg4, %c0_i32 : !tt.ptr<f32>, i32 loc(#loc14)
    %15 = tt.load %14 : !tt.ptr<f32> loc(#loc15)
    %16 = tt.splat %15 : f32 -> tensor<64xf32> loc(#loc16)
    %17 = tt.addptr %arg5, %c0_i32 : !tt.ptr<f32>, i32 loc(#loc17)
    %18 = tt.load %17 : !tt.ptr<f32> loc(#loc18)
    %19 = tt.splat %18 : f32 -> tensor<64xf32> loc(#loc19)
    %20 = tt.splat %arg6 : !tt.ptr<f32> -> tensor<64x!tt.ptr<f32>> loc(#loc20)
    %21 = tt.addptr %20, %4 : tensor<64x!tt.ptr<f32>>, tensor<64xi32> loc(#loc20)
    %22 = tt.load %21, %5 : tensor<64x!tt.ptr<f32>> loc(#loc21)
    %23 = tt.addptr %arg7, %c0_i32 : !tt.ptr<f32>, i32 loc(#loc22)
    %24 = tt.load %23 : !tt.ptr<f32> loc(#loc23)
    %25 = tt.splat %24 : f32 -> tensor<64xf32> loc(#loc24)
    %26 = tt.addptr %arg8, %c0_i32 : !tt.ptr<f32>, i32 loc(#loc25)
    %27 = tt.load %26 : !tt.ptr<f32> loc(#loc26)
    %28 = tt.addptr %arg9, %c0_i32 : !tt.ptr<f32>, i32 loc(#loc27)
    %29 = tt.load %28 : !tt.ptr<f32> loc(#loc28)
    %30 = tt.splat %29 : f32 -> tensor<64xf32> loc(#loc29)
    %31 = tt.addptr %arg10, %c0_i32 : !tt.ptr<f32>, i32 loc(#loc30)
    %32 = tt.load %31 : !tt.ptr<f32> loc(#loc31)
    %33 = tt.splat %32 : f32 -> tensor<64xf32> loc(#loc32)
    %34 = tt.splat %arg11 : !tt.ptr<f32> -> tensor<64x!tt.ptr<f32>> loc(#loc33)
    %35 = tt.addptr %34, %4 : tensor<64x!tt.ptr<f32>>, tensor<64xi32> loc(#loc33)
    %36 = tt.load %35, %5 : tensor<64x!tt.ptr<f32>> loc(#loc34)
    %37 = tt.addptr %arg12, %c0_i32 : !tt.ptr<f32>, i32 loc(#loc35)
    %38 = tt.load %37 : !tt.ptr<f32> loc(#loc36)
    %39 = tt.splat %38 : f32 -> tensor<64xf32> loc(#loc37)
    %40 = tt.addptr %arg13, %c0_i32 : !tt.ptr<f32>, i32 loc(#loc38)
    %41 = tt.load %40 : !tt.ptr<f32> loc(#loc39)
    %42 = tt.addptr %arg14, %c0_i32 : !tt.ptr<f32>, i32 loc(#loc40)
    %43 = tt.load %42 : !tt.ptr<f32> loc(#loc41)
    %44 = tt.splat %43 : f32 -> tensor<64xf32> loc(#loc42)
    %45 = tt.addptr %arg15, %c0_i32 : !tt.ptr<f32>, i32 loc(#loc43)
    %46 = tt.load %45 : !tt.ptr<f32> loc(#loc44)
    %47 = tt.splat %46 : f32 -> tensor<64xf32> loc(#loc45)
    %48 = arith.subf %8, %11 : tensor<64xf32> loc(#loc46)
    %49 = arith.addf %13, %cst_0 : f32 loc(#loc47)
    %50 = tt.extern_elementwise %49 {libname = "", libpath = "", pure = true, symbol = "__nv_sqrtf"} : (f32) -> f32 loc(#loc48)
    %51 = arith.divf %cst, %50 : f32 loc(#loc49)
    %52 = tt.splat %51 : f32 -> tensor<64xf32> loc(#loc49)
    %53 = arith.mulf %48, %52 : tensor<64xf32> loc(#loc50)
    %54 = arith.mulf %53, %16 : tensor<64xf32> loc(#loc51)
    %55 = arith.addf %54, %19 : tensor<64xf32> loc(#loc52)
    %56 = arith.subf %22, %25 : tensor<64xf32> loc(#loc53)
    %57 = arith.addf %27, %cst_0 : f32 loc(#loc54)
    %58 = tt.extern_elementwise %57 {libname = "", libpath = "", pure = true, symbol = "__nv_sqrtf"} : (f32) -> f32 loc(#loc55)
    %59 = arith.divf %cst, %58 : f32 loc(#loc56)
    %60 = tt.splat %59 : f32 -> tensor<64xf32> loc(#loc56)
    %61 = arith.mulf %56, %60 : tensor<64xf32> loc(#loc57)
    %62 = arith.mulf %61, %30 : tensor<64xf32> loc(#loc58)
    %63 = arith.addf %62, %33 : tensor<64xf32> loc(#loc59)
    %64 = arith.addf %55, %63 : tensor<64xf32> loc(#loc60)
    %65 = arith.subf %36, %39 : tensor<64xf32> loc(#loc61)
    %66 = arith.addf %41, %cst_0 : f32 loc(#loc62)
    %67 = tt.extern_elementwise %66 {libname = "", libpath = "", pure = true, symbol = "__nv_sqrtf"} : (f32) -> f32 loc(#loc63)
    %68 = arith.divf %cst, %67 : f32 loc(#loc64)
    %69 = tt.splat %68 : f32 -> tensor<64xf32> loc(#loc64)
    %70 = arith.mulf %65, %69 : tensor<64xf32> loc(#loc65)
    %71 = arith.mulf %70, %44 : tensor<64xf32> loc(#loc66)
    %72 = arith.addf %71, %47 : tensor<64xf32> loc(#loc67)
    %73 = arith.addf %64, %72 : tensor<64xf32> loc(#loc68)
    %74 = arith.subf %cst_1, %73 : tensor<64xf32> loc(#loc78)
    %75 = math.exp %74 : tensor<64xf32> loc(#loc79)
    %76 = arith.addf %75, %cst_2 : tensor<64xf32> loc(#loc80)
    %77 = arith.divf %cst_2, %76 : tensor<64xf32> loc(#loc81)
    %78 = arith.mulf %73, %77 : tensor<64xf32> loc(#loc74)
    %79 = tt.splat %arg0 : !tt.ptr<f32> -> tensor<64x!tt.ptr<f32>> loc(#loc75)
    %80 = tt.addptr %79, %4 : tensor<64x!tt.ptr<f32>>, tensor<64xi32> loc(#loc75)
    tt.store %80, %78, %5 : tensor<64x!tt.ptr<f32>> loc(#loc76)
    tt.return loc(#loc77)
  } loc(#loc)
} loc(#loc)
#loc1 = loc(unknown)
#loc2 = loc("inductor_cache/qs/cqsgpy7najsyi3ce3imahfrm3kujqocqn54az4z44hs5kkejbm4g.py":21:28)
#loc3 = loc("inductor_cache/qs/cqsgpy7najsyi3ce3imahfrm3kujqocqn54az4z44hs5kkejbm4g.py":21:33)
#loc4 = loc("inductor_cache/qs/cqsgpy7najsyi3ce3imahfrm3kujqocqn54az4z44hs5kkejbm4g.py":22:36)
#loc5 = loc("inductor_cache/qs/cqsgpy7najsyi3ce3imahfrm3kujqocqn54az4z44hs5kkejbm4g.py":22:23)
#loc6 = loc("inductor_cache/qs/cqsgpy7najsyi3ce3imahfrm3kujqocqn54az4z44hs5kkejbm4g.py":23:21)
#loc7 = loc("inductor_cache/qs/cqsgpy7najsyi3ce3imahfrm3kujqocqn54az4z44hs5kkejbm4g.py":25:30)
#loc8 = loc("inductor_cache/qs/cqsgpy7najsyi3ce3imahfrm3kujqocqn54az4z44hs5kkejbm4g.py":25:35)
#loc9 = loc("inductor_cache/qs/cqsgpy7najsyi3ce3imahfrm3kujqocqn54az4z44hs5kkejbm4g.py":26:30)
#loc10 = loc("inductor_cache/qs/cqsgpy7najsyi3ce3imahfrm3kujqocqn54az4z44hs5kkejbm4g.py":26:19)
#loc11 = loc("inductor_cache/qs/cqsgpy7najsyi3ce3imahfrm3kujqocqn54az4z44hs5kkejbm4g.py":27:33)
#loc12 = loc("inductor_cache/qs/cqsgpy7najsyi3ce3imahfrm3kujqocqn54az4z44hs5kkejbm4g.py":28:30)
#loc13 = loc("inductor_cache/qs/cqsgpy7najsyi3ce3imahfrm3kujqocqn54az4z44hs5kkejbm4g.py":28:19)
#loc14 = loc("inductor_cache/qs/cqsgpy7najsyi3ce3imahfrm3kujqocqn54az4z44hs5kkejbm4g.py":30:31)
#loc15 = loc("inductor_cache/qs/cqsgpy7najsyi3ce3imahfrm3kujqocqn54az4z44hs5kkejbm4g.py":30:20)
#loc16 = loc("inductor_cache/qs/cqsgpy7najsyi3ce3imahfrm3kujqocqn54az4z44hs5kkejbm4g.py":31:35)
#loc17 = loc("inductor_cache/qs/cqsgpy7najsyi3ce3imahfrm3kujqocqn54az4z44hs5kkejbm4g.py":32:31)
#loc18 = loc("inductor_cache/qs/cqsgpy7najsyi3ce3imahfrm3kujqocqn54az4z44hs5kkejbm4g.py":32:20)
#loc19 = loc("inductor_cache/qs/cqsgpy7najsyi3ce3imahfrm3kujqocqn54az4z44hs5kkejbm4g.py":33:35)
#loc20 = loc("inductor_cache/qs/cqsgpy7najsyi3ce3imahfrm3kujqocqn54az4z44hs5kkejbm4g.py":34:31)
#loc21 = loc("inductor_cache/qs/cqsgpy7najsyi3ce3imahfrm3kujqocqn54az4z44hs5kkejbm4g.py":34:36)
#loc22 = loc("inductor_cache/qs/cqsgpy7najsyi3ce3imahfrm3kujqocqn54az4z44hs5kkejbm4g.py":35:31)
#loc23 = loc("inductor_cache/qs/cqsgpy7najsyi3ce3imahfrm3kujqocqn54az4z44hs5kkejbm4g.py":35:20)
#loc24 = loc("inductor_cache/qs/cqsgpy7najsyi3ce3imahfrm3kujqocqn54az4z44hs5kkejbm4g.py":36:35)
#loc25 = loc("inductor_cache/qs/cqsgpy7najsyi3ce3imahfrm3kujqocqn54az4z44hs5kkejbm4g.py":37:31)
#loc26 = loc("inductor_cache/qs/cqsgpy7najsyi3ce3imahfrm3kujqocqn54az4z44hs5kkejbm4g.py":37:20)
#loc27 = loc("inductor_cache/qs/cqsgpy7najsyi3ce3imahfrm3kujqocqn54az4z44hs5kkejbm4g.py":39:31)
#loc28 = loc("inductor_cache/qs/cqsgpy7najsyi3ce3imahfrm3kujqocqn54az4z44hs5kkejbm4g.py":39:20)
#loc29 = loc("inductor_cache/qs/cqsgpy7najsyi3ce3imahfrm3kujqocqn54az4z44hs5kkejbm4g.py":40:35)
#loc30 = loc("inductor_cache/qs/cqsgpy7najsyi3ce3imahfrm3kujqocqn54az4z44hs5kkejbm4g.py":41:31)
#loc31 = loc("inductor_cache/qs/cqsgpy7najsyi3ce3imahfrm3kujqocqn54az4z44hs5kkejbm4g.py":41:20)
#loc32 = loc("inductor_cache/qs/cqsgpy7najsyi3ce3imahfrm3kujqocqn54az4z44hs5kkejbm4g.py":42:35)
#loc33 = loc("inductor_cache/qs/cqsgpy7najsyi3ce3imahfrm3kujqocqn54az4z44hs5kkejbm4g.py":43:32)
#loc34 = loc("inductor_cache/qs/cqsgpy7najsyi3ce3imahfrm3kujqocqn54az4z44hs5kkejbm4g.py":43:37)
#loc35 = loc("inductor_cache/qs/cqsgpy7najsyi3ce3imahfrm3kujqocqn54az4z44hs5kkejbm4g.py":44:32)
#loc36 = loc("inductor_cache/qs/cqsgpy7najsyi3ce3imahfrm3kujqocqn54az4z44hs5kkejbm4g.py":44:20)
#loc37 = loc("inductor_cache/qs/cqsgpy7najsyi3ce3imahfrm3kujqocqn54az4z44hs5kkejbm4g.py":45:35)
#loc38 = loc("inductor_cache/qs/cqsgpy7najsyi3ce3imahfrm3kujqocqn54az4z44hs5kkejbm4g.py":46:32)
#loc39 = loc("inductor_cache/qs/cqsgpy7najsyi3ce3imahfrm3kujqocqn54az4z44hs5kkejbm4g.py":46:20)
#loc40 = loc("inductor_cache/qs/cqsgpy7najsyi3ce3imahfrm3kujqocqn54az4z44hs5kkejbm4g.py":48:32)
#loc41 = loc("inductor_cache/qs/cqsgpy7najsyi3ce3imahfrm3kujqocqn54az4z44hs5kkejbm4g.py":48:20)
#loc42 = loc("inductor_cache/qs/cqsgpy7najsyi3ce3imahfrm3kujqocqn54az4z44hs5kkejbm4g.py":49:35)
#loc43 = loc("inductor_cache/qs/cqsgpy7najsyi3ce3imahfrm3kujqocqn54az4z44hs5kkejbm4g.py":50:32)
#loc44 = loc("inductor_cache/qs/cqsgpy7najsyi3ce3imahfrm3kujqocqn54az4z44hs5kkejbm4g.py":50:20)
#loc45 = loc("inductor_cache/qs/cqsgpy7najsyi3ce3imahfrm3kujqocqn54az4z44hs5kkejbm4g.py":51:35)
#loc46 = loc("inductor_cache/qs/cqsgpy7najsyi3ce3imahfrm3kujqocqn54az4z44hs5kkejbm4g.py":52:18)
#loc47 = loc("inductor_cache/qs/cqsgpy7najsyi3ce3imahfrm3kujqocqn54az4z44hs5kkejbm4g.py":54:18)
#loc48 = loc("inductor_cache/qs/cqsgpy7najsyi3ce3imahfrm3kujqocqn54az4z44hs5kkejbm4g.py":55:26)
#loc49 = loc("inductor_cache/qs/cqsgpy7najsyi3ce3imahfrm3kujqocqn54az4z44hs5kkejbm4g.py":57:19)
#loc50 = loc("inductor_cache/qs/cqsgpy7najsyi3ce3imahfrm3kujqocqn54az4z44hs5kkejbm4g.py":60:19)
#loc51 = loc("inductor_cache/qs/cqsgpy7najsyi3ce3imahfrm3kujqocqn54az4z44hs5kkejbm4g.py":61:20)
#loc52 = loc("inductor_cache/qs/cqsgpy7najsyi3ce3imahfrm3kujqocqn54az4z44hs5kkejbm4g.py":62:20)
#loc53 = loc("inductor_cache/qs/cqsgpy7najsyi3ce3imahfrm3kujqocqn54az4z44hs5kkejbm4g.py":63:20)
#loc54 = loc("inductor_cache/qs/cqsgpy7najsyi3ce3imahfrm3kujqocqn54az4z44hs5kkejbm4g.py":64:20)
#loc55 = loc("inductor_cache/qs/cqsgpy7najsyi3ce3imahfrm3kujqocqn54az4z44hs5kkejbm4g.py":65:27)
#loc56 = loc("inductor_cache/qs/cqsgpy7najsyi3ce3imahfrm3kujqocqn54az4z44hs5kkejbm4g.py":66:19)
#loc57 = loc("inductor_cache/qs/cqsgpy7najsyi3ce3imahfrm3kujqocqn54az4z44hs5kkejbm4g.py":68:20)
#loc58 = loc("inductor_cache/qs/cqsgpy7najsyi3ce3imahfrm3kujqocqn54az4z44hs5kkejbm4g.py":69:20)
#loc59 = loc("inductor_cache/qs/cqsgpy7najsyi3ce3imahfrm3kujqocqn54az4z44hs5kkejbm4g.py":70:20)
#loc60 = loc("inductor_cache/qs/cqsgpy7najsyi3ce3imahfrm3kujqocqn54az4z44hs5kkejbm4g.py":71:20)
#loc61 = loc("inductor_cache/qs/cqsgpy7najsyi3ce3imahfrm3kujqocqn54az4z44hs5kkejbm4g.py":72:20)
#loc62 = loc("inductor_cache/qs/cqsgpy7najsyi3ce3imahfrm3kujqocqn54az4z44hs5kkejbm4g.py":73:20)
#loc63 = loc("inductor_cache/qs/cqsgpy7najsyi3ce3imahfrm3kujqocqn54az4z44hs5kkejbm4g.py":74:27)
#loc64 = loc("inductor_cache/qs/cqsgpy7najsyi3ce3imahfrm3kujqocqn54az4z44hs5kkejbm4g.py":75:19)
#loc65 = loc("inductor_cache/qs/cqsgpy7najsyi3ce3imahfrm3kujqocqn54az4z44hs5kkejbm4g.py":77:20)
#loc66 = loc("inductor_cache/qs/cqsgpy7najsyi3ce3imahfrm3kujqocqn54az4z44hs5kkejbm4g.py":78:20)
#loc67 = loc("inductor_cache/qs/cqsgpy7najsyi3ce3imahfrm3kujqocqn54az4z44hs5kkejbm4g.py":79:20)
#loc68 = loc("inductor_cache/qs/cqsgpy7najsyi3ce3imahfrm3kujqocqn54az4z44hs5kkejbm4g.py":80:20)
#loc69 = loc("/home/sahanp/.conda/envs/parity-bench/lib/python3.12/site-packages/triton/language/standard.py":47:30)
#loc70 = loc("inductor_cache/qs/cqsgpy7najsyi3ce3imahfrm3kujqocqn54az4z44hs5kkejbm4g.py":81:23)
#loc71 = loc("/home/sahanp/.conda/envs/parity-bench/lib/python3.12/site-packages/triton/language/standard.py":47:29)
#loc72 = loc("/home/sahanp/.conda/envs/parity-bench/lib/python3.12/site-packages/triton/language/standard.py":47:20)
#loc73 = loc("/home/sahanp/.conda/envs/parity-bench/lib/python3.12/site-packages/triton/language/standard.py":47:16)
#loc74 = loc("inductor_cache/qs/cqsgpy7najsyi3ce3imahfrm3kujqocqn54az4z44hs5kkejbm4g.py":82:20)
#loc75 = loc("inductor_cache/qs/cqsgpy7najsyi3ce3imahfrm3kujqocqn54az4z44hs5kkejbm4g.py":83:28)
#loc76 = loc("inductor_cache/qs/cqsgpy7najsyi3ce3imahfrm3kujqocqn54az4z44hs5kkejbm4g.py":83:40)
#loc77 = loc("inductor_cache/qs/cqsgpy7najsyi3ce3imahfrm3kujqocqn54az4z44hs5kkejbm4g.py":83:4)
#loc78 = loc(callsite(#loc69 at #loc70))
#loc79 = loc(callsite(#loc71 at #loc70))
#loc80 = loc(callsite(#loc72 at #loc70))
#loc81 = loc(callsite(#loc73 at #loc70))
