#loc = loc("inductor_cache/zx/czxmypmcqdjse6ucowov7mvjlngfaioztsx7scowspw6wz4q5jip.py":19:0)
module {
  tt.func public @triton_poi_fused_convolution_reflection_pad2d_relu_9(%arg0: !tt.ptr<f32> {tt.divisibility = 16 : i32} loc("inductor_cache/zx/czxmypmcqdjse6ucowov7mvjlngfaioztsx7scowspw6wz4q5jip.py":19:0), %arg1: !tt.ptr<f32> {tt.divisibility = 16 : i32} loc("inductor_cache/zx/czxmypmcqdjse6ucowov7mvjlngfaioztsx7scowspw6wz4q5jip.py":19:0), %arg2: !tt.ptr<f32> {tt.divisibility = 16 : i32} loc("inductor_cache/zx/czxmypmcqdjse6ucowov7mvjlngfaioztsx7scowspw6wz4q5jip.py":19:0), %arg3: i32 {tt.divisibility = 16 : i32} loc("inductor_cache/zx/czxmypmcqdjse6ucowov7mvjlngfaioztsx7scowspw6wz4q5jip.py":19:0)) attributes {noinline = false} {
    %cst = arith.constant dense<0.000000e+00> : tensor<128xf32> loc(#loc1)
    %cst_0 = arith.constant dense<16> : tensor<128xi32> loc(#loc1)
    %cst_1 = arith.constant dense<-4> : tensor<128xi32> loc(#loc1)
    %cst_2 = arith.constant dense<15> : tensor<128xi32> loc(#loc1)
    %cst_3 = arith.constant dense<-3> : tensor<128xi32> loc(#loc1)
    %cst_4 = arith.constant dense<-1> : tensor<128xi32> loc(#loc1)
    %cst_5 = arith.constant dense<4> : tensor<128xi32> loc(#loc1)
    %cst_6 = arith.constant dense<36> : tensor<128xi32> loc(#loc1)
    %cst_7 = arith.constant dense<6> : tensor<128xi32> loc(#loc1)
    %cst_8 = arith.constant dense<576> : tensor<128xi32> loc(#loc1)
    %c128_i32 = arith.constant 128 : i32 loc(#loc1)
    %0 = tt.get_program_id x : i32 loc(#loc2)
    %1 = arith.muli %0, %c128_i32 : i32 loc(#loc3)
    %2 = tt.make_range {end = 128 : i32, start = 0 : i32} : tensor<128xi32> loc(#loc4)
    %3 = tt.splat %1 : i32 -> tensor<128xi32> loc(#loc5)
    %4 = arith.addi %3, %2 : tensor<128xi32> loc(#loc5)
    %5 = arith.cmpi slt, %4, %cst_8 : tensor<128xi32> loc(#loc6)
    %6 = arith.remsi %4, %cst_7 : tensor<128xi32> loc(#loc7)
    %7 = arith.divsi %4, %cst_7 : tensor<128xi32> loc(#loc8)
    %8 = arith.remsi %7, %cst_7 : tensor<128xi32> loc(#loc9)
    %9 = arith.divsi %4, %cst_6 : tensor<128xi32> loc(#loc10)
    %10 = arith.remsi %9, %cst_5 : tensor<128xi32> loc(#loc11)
    %11 = arith.addi %6, %cst_4 : tensor<128xi32> loc(#loc12)
    %12 = math.absi %11 : tensor<128xi32> loc(#loc13)
    %13 = arith.addi %12, %cst_3 : tensor<128xi32> loc(#loc14)
    %14 = math.absi %13 : tensor<128xi32> loc(#loc15)
    %15 = arith.subi %cst_2, %14 : tensor<128xi32> loc(#loc16)
    %16 = arith.addi %8, %cst_4 : tensor<128xi32> loc(#loc17)
    %17 = math.absi %16 : tensor<128xi32> loc(#loc18)
    %18 = arith.addi %17, %cst_3 : tensor<128xi32> loc(#loc19)
    %19 = math.absi %18 : tensor<128xi32> loc(#loc20)
    %20 = arith.muli %19, %cst_1 : tensor<128xi32> loc(#loc21)
    %21 = arith.addi %15, %20 : tensor<128xi32> loc(#loc22)
    %22 = arith.muli %9, %cst_0 : tensor<128xi32> loc(#loc23)
    %23 = arith.addi %21, %22 : tensor<128xi32> loc(#loc24)
    %24 = tt.splat %arg0 : !tt.ptr<f32> -> tensor<128x!tt.ptr<f32>> loc(#loc25)
    %25 = tt.addptr %24, %23 : tensor<128x!tt.ptr<f32>>, tensor<128xi32> loc(#loc25)
    %26 = tt.load %25, %5 evictionPolicy = evict_last : tensor<128x!tt.ptr<f32>> loc(#loc26)
    %27 = tt.splat %arg1 : !tt.ptr<f32> -> tensor<128x!tt.ptr<f32>> loc(#loc27)
    %28 = tt.addptr %27, %10 : tensor<128x!tt.ptr<f32>>, tensor<128xi32> loc(#loc27)
    %29 = tt.load %28, %5 evictionPolicy = evict_last : tensor<128x!tt.ptr<f32>> loc(#loc28)
    %30 = arith.addf %26, %29 : tensor<128xf32> loc(#loc29)
    %31 = arith.cmpf ogt, %cst, %30 : tensor<128xf32> loc(#loc36)
    %32 = arith.select %31, %cst, %30 : tensor<128xi1>, tensor<128xf32> loc(#loc37)
    %33 = tt.splat %arg2 : !tt.ptr<f32> -> tensor<128x!tt.ptr<f32>> loc(#loc33)
    %34 = tt.addptr %33, %4 : tensor<128x!tt.ptr<f32>>, tensor<128xi32> loc(#loc33)
    tt.store %34, %32, %5 : tensor<128x!tt.ptr<f32>> loc(#loc34)
    tt.return loc(#loc35)
  } loc(#loc)
} loc(#loc)
#loc1 = loc(unknown)
#loc2 = loc("inductor_cache/zx/czxmypmcqdjse6ucowov7mvjlngfaioztsx7scowspw6wz4q5jip.py":21:28)
#loc3 = loc("inductor_cache/zx/czxmypmcqdjse6ucowov7mvjlngfaioztsx7scowspw6wz4q5jip.py":21:33)
#loc4 = loc("inductor_cache/zx/czxmypmcqdjse6ucowov7mvjlngfaioztsx7scowspw6wz4q5jip.py":22:36)
#loc5 = loc("inductor_cache/zx/czxmypmcqdjse6ucowov7mvjlngfaioztsx7scowspw6wz4q5jip.py":22:23)
#loc6 = loc("inductor_cache/zx/czxmypmcqdjse6ucowov7mvjlngfaioztsx7scowspw6wz4q5jip.py":23:21)
#loc7 = loc("inductor_cache/zx/czxmypmcqdjse6ucowov7mvjlngfaioztsx7scowspw6wz4q5jip.py":24:19)
#loc8 = loc("inductor_cache/zx/czxmypmcqdjse6ucowov7mvjlngfaioztsx7scowspw6wz4q5jip.py":25:21)
#loc9 = loc("inductor_cache/zx/czxmypmcqdjse6ucowov7mvjlngfaioztsx7scowspw6wz4q5jip.py":25:26)
#loc10 = loc("inductor_cache/zx/czxmypmcqdjse6ucowov7mvjlngfaioztsx7scowspw6wz4q5jip.py":26:19)
#loc11 = loc("inductor_cache/zx/czxmypmcqdjse6ucowov7mvjlngfaioztsx7scowspw6wz4q5jip.py":27:27)
#loc12 = loc("inductor_cache/zx/czxmypmcqdjse6ucowov7mvjlngfaioztsx7scowspw6wz4q5jip.py":29:79)
#loc13 = loc("inductor_cache/zx/czxmypmcqdjse6ucowov7mvjlngfaioztsx7scowspw6wz4q5jip.py":29:72)
#loc14 = loc("inductor_cache/zx/czxmypmcqdjse6ucowov7mvjlngfaioztsx7scowspw6wz4q5jip.py":29:60)
#loc15 = loc("inductor_cache/zx/czxmypmcqdjse6ucowov7mvjlngfaioztsx7scowspw6wz4q5jip.py":29:53)
#loc16 = loc("inductor_cache/zx/czxmypmcqdjse6ucowov7mvjlngfaioztsx7scowspw6wz4q5jip.py":29:36)
#loc17 = loc("inductor_cache/zx/czxmypmcqdjse6ucowov7mvjlngfaioztsx7scowspw6wz4q5jip.py":29:131)
#loc18 = loc("inductor_cache/zx/czxmypmcqdjse6ucowov7mvjlngfaioztsx7scowspw6wz4q5jip.py":29:124)
#loc19 = loc("inductor_cache/zx/czxmypmcqdjse6ucowov7mvjlngfaioztsx7scowspw6wz4q5jip.py":29:112)
#loc20 = loc("inductor_cache/zx/czxmypmcqdjse6ucowov7mvjlngfaioztsx7scowspw6wz4q5jip.py":29:105)
#loc21 = loc("inductor_cache/zx/czxmypmcqdjse6ucowov7mvjlngfaioztsx7scowspw6wz4q5jip.py":29:93)
#loc22 = loc("inductor_cache/zx/czxmypmcqdjse6ucowov7mvjlngfaioztsx7scowspw6wz4q5jip.py":29:88)
#loc23 = loc("inductor_cache/zx/czxmypmcqdjse6ucowov7mvjlngfaioztsx7scowspw6wz4q5jip.py":29:142)
#loc24 = loc("inductor_cache/zx/czxmypmcqdjse6ucowov7mvjlngfaioztsx7scowspw6wz4q5jip.py":29:139)
#loc25 = loc("inductor_cache/zx/czxmypmcqdjse6ucowov7mvjlngfaioztsx7scowspw6wz4q5jip.py":29:30)
#loc26 = loc("inductor_cache/zx/czxmypmcqdjse6ucowov7mvjlngfaioztsx7scowspw6wz4q5jip.py":29:147)
#loc27 = loc("inductor_cache/zx/czxmypmcqdjse6ucowov7mvjlngfaioztsx7scowspw6wz4q5jip.py":30:30)
#loc28 = loc("inductor_cache/zx/czxmypmcqdjse6ucowov7mvjlngfaioztsx7scowspw6wz4q5jip.py":30:35)
#loc29 = loc("inductor_cache/zx/czxmypmcqdjse6ucowov7mvjlngfaioztsx7scowspw6wz4q5jip.py":31:18)
#loc30 = loc("/home/sahanp/.conda/envs/parity-bench/lib/python3.12/site-packages/torch/_inductor/runtime/triton_helpers.py":118:15)
#loc31 = loc("inductor_cache/zx/czxmypmcqdjse6ucowov7mvjlngfaioztsx7scowspw6wz4q5jip.py":33:40)
#loc32 = loc("/home/sahanp/.conda/envs/parity-bench/lib/python3.12/site-packages/torch/_inductor/runtime/triton_helpers.py":121:29)
#loc33 = loc("inductor_cache/zx/czxmypmcqdjse6ucowov7mvjlngfaioztsx7scowspw6wz4q5jip.py":34:25)
#loc34 = loc("inductor_cache/zx/czxmypmcqdjse6ucowov7mvjlngfaioztsx7scowspw6wz4q5jip.py":34:36)
#loc35 = loc("inductor_cache/zx/czxmypmcqdjse6ucowov7mvjlngfaioztsx7scowspw6wz4q5jip.py":34:4)
#loc36 = loc(callsite(#loc30 at #loc31))
#loc37 = loc(callsite(#loc32 at #loc31))
