#loc = loc("inductor_cache/wu/cwuhofkkk7aewjb3k42kljma5vji35uhg7ugfvryc55zyf7vjxee.py":19:0)
module {
  tt.func public @triton_poi_fused_mean_2(%arg0: !tt.ptr<f32> {tt.divisibility = 16 : i32} loc("inductor_cache/wu/cwuhofkkk7aewjb3k42kljma5vji35uhg7ugfvryc55zyf7vjxee.py":19:0), %arg1: !tt.ptr<f32> {tt.divisibility = 16 : i32} loc("inductor_cache/wu/cwuhofkkk7aewjb3k42kljma5vji35uhg7ugfvryc55zyf7vjxee.py":19:0), %arg2: i32 loc("inductor_cache/wu/cwuhofkkk7aewjb3k42kljma5vji35uhg7ugfvryc55zyf7vjxee.py":19:0)) attributes {noinline = false} {
    %cst = arith.constant dense<4.000000e+00> : tensor<8xf32> loc(#loc1)
    %cst_0 = arith.constant dense<1.000000e+00> : tensor<8xf32> loc(#loc1)
    %cst_1 = arith.constant dense<0.707106769> : tensor<8xf32> loc(#loc1)
    %cst_2 = arith.constant dense<5.000000e-01> : tensor<8xf32> loc(#loc1)
    %cst_3 = arith.constant dense<14> : tensor<8xi32> loc(#loc1)
    %cst_4 = arith.constant dense<10> : tensor<8xi32> loc(#loc1)
    %cst_5 = arith.constant dense<6> : tensor<8xi32> loc(#loc1)
    %cst_6 = arith.constant dense<16> : tensor<8xi32> loc(#loc1)
    %cst_7 = arith.constant dense<2> : tensor<8xi32> loc(#loc1)
    %cst_8 = arith.constant dense<8> : tensor<8xi32> loc(#loc1)
    %c8_i32 = arith.constant 8 : i32 loc(#loc1)
    %0 = tt.get_program_id x : i32 loc(#loc2)
    %1 = arith.muli %0, %c8_i32 : i32 loc(#loc3)
    %2 = tt.make_range {end = 8 : i32, start = 0 : i32} : tensor<8xi32> loc(#loc4)
    %3 = tt.splat %1 : i32 -> tensor<8xi32> loc(#loc5)
    %4 = arith.addi %3, %2 : tensor<8xi32> loc(#loc5)
    %5 = arith.cmpi slt, %4, %cst_8 : tensor<8xi32> loc(#loc6)
    %6 = arith.remsi %4, %cst_7 : tensor<8xi32> loc(#loc7)
    %7 = arith.divsi %4, %cst_7 : tensor<8xi32> loc(#loc8)
    %8 = arith.addi %6, %cst_7 : tensor<8xi32> loc(#loc9)
    %9 = arith.muli %7, %cst_6 : tensor<8xi32> loc(#loc10)
    %10 = arith.addi %8, %9 : tensor<8xi32> loc(#loc11)
    %11 = tt.splat %arg0 : !tt.ptr<f32> -> tensor<8x!tt.ptr<f32>> loc(#loc12)
    %12 = tt.addptr %11, %10 : tensor<8x!tt.ptr<f32>>, tensor<8xi32> loc(#loc12)
    %13 = tt.load %12, %5 : tensor<8x!tt.ptr<f32>> loc(#loc13)
    %14 = arith.addi %6, %cst_5 : tensor<8xi32> loc(#loc14)
    %15 = arith.addi %14, %9 : tensor<8xi32> loc(#loc15)
    %16 = tt.addptr %11, %15 : tensor<8x!tt.ptr<f32>>, tensor<8xi32> loc(#loc16)
    %17 = tt.load %16, %5 : tensor<8x!tt.ptr<f32>> loc(#loc17)
    %18 = arith.addi %6, %cst_4 : tensor<8xi32> loc(#loc18)
    %19 = arith.addi %18, %9 : tensor<8xi32> loc(#loc19)
    %20 = tt.addptr %11, %19 : tensor<8x!tt.ptr<f32>>, tensor<8xi32> loc(#loc20)
    %21 = tt.load %20, %5 : tensor<8x!tt.ptr<f32>> loc(#loc21)
    %22 = arith.addi %6, %cst_3 : tensor<8xi32> loc(#loc22)
    %23 = arith.addi %22, %9 : tensor<8xi32> loc(#loc23)
    %24 = tt.addptr %11, %23 : tensor<8x!tt.ptr<f32>>, tensor<8xi32> loc(#loc24)
    %25 = tt.load %24, %5 : tensor<8x!tt.ptr<f32>> loc(#loc25)
    %26 = arith.mulf %13, %cst_2 : tensor<8xf32> loc(#loc26)
    %27 = arith.mulf %13, %cst_1 : tensor<8xf32> loc(#loc27)
    %28 = tt.extern_elementwise %27 {libname = "", libpath = "", pure = true, symbol = "__nv_erff"} : (tensor<8xf32>) -> tensor<8xf32> loc(#loc28)
    %29 = arith.addf %28, %cst_0 : tensor<8xf32> loc(#loc29)
    %30 = arith.mulf %26, %29 : tensor<8xf32> loc(#loc30)
    %31 = arith.mulf %17, %cst_2 : tensor<8xf32> loc(#loc31)
    %32 = arith.mulf %17, %cst_1 : tensor<8xf32> loc(#loc32)
    %33 = tt.extern_elementwise %32 {libname = "", libpath = "", pure = true, symbol = "__nv_erff"} : (tensor<8xf32>) -> tensor<8xf32> loc(#loc33)
    %34 = arith.addf %33, %cst_0 : tensor<8xf32> loc(#loc34)
    %35 = arith.mulf %31, %34 : tensor<8xf32> loc(#loc35)
    %36 = arith.addf %30, %35 : tensor<8xf32> loc(#loc36)
    %37 = arith.mulf %21, %cst_2 : tensor<8xf32> loc(#loc37)
    %38 = arith.mulf %21, %cst_1 : tensor<8xf32> loc(#loc38)
    %39 = tt.extern_elementwise %38 {libname = "", libpath = "", pure = true, symbol = "__nv_erff"} : (tensor<8xf32>) -> tensor<8xf32> loc(#loc39)
    %40 = arith.addf %39, %cst_0 : tensor<8xf32> loc(#loc40)
    %41 = arith.mulf %37, %40 : tensor<8xf32> loc(#loc41)
    %42 = arith.addf %36, %41 : tensor<8xf32> loc(#loc42)
    %43 = arith.mulf %25, %cst_2 : tensor<8xf32> loc(#loc43)
    %44 = arith.mulf %25, %cst_1 : tensor<8xf32> loc(#loc44)
    %45 = tt.extern_elementwise %44 {libname = "", libpath = "", pure = true, symbol = "__nv_erff"} : (tensor<8xf32>) -> tensor<8xf32> loc(#loc45)
    %46 = arith.addf %45, %cst_0 : tensor<8xf32> loc(#loc46)
    %47 = arith.mulf %43, %46 : tensor<8xf32> loc(#loc47)
    %48 = arith.addf %42, %47 : tensor<8xf32> loc(#loc48)
    %49 = arith.divf %48, %cst : tensor<8xf32> loc(#loc49)
    %50 = tt.splat %arg1 : !tt.ptr<f32> -> tensor<8x!tt.ptr<f32>> loc(#loc50)
    %51 = tt.addptr %50, %4 : tensor<8x!tt.ptr<f32>>, tensor<8xi32> loc(#loc50)
    tt.store %51, %49, %5 : tensor<8x!tt.ptr<f32>> loc(#loc51)
    tt.return loc(#loc52)
  } loc(#loc)
} loc(#loc)
#loc1 = loc(unknown)
#loc2 = loc("inductor_cache/wu/cwuhofkkk7aewjb3k42kljma5vji35uhg7ugfvryc55zyf7vjxee.py":21:28)
#loc3 = loc("inductor_cache/wu/cwuhofkkk7aewjb3k42kljma5vji35uhg7ugfvryc55zyf7vjxee.py":21:33)
#loc4 = loc("inductor_cache/wu/cwuhofkkk7aewjb3k42kljma5vji35uhg7ugfvryc55zyf7vjxee.py":22:36)
#loc5 = loc("inductor_cache/wu/cwuhofkkk7aewjb3k42kljma5vji35uhg7ugfvryc55zyf7vjxee.py":22:23)
#loc6 = loc("inductor_cache/wu/cwuhofkkk7aewjb3k42kljma5vji35uhg7ugfvryc55zyf7vjxee.py":23:21)
#loc7 = loc("inductor_cache/wu/cwuhofkkk7aewjb3k42kljma5vji35uhg7ugfvryc55zyf7vjxee.py":24:19)
#loc8 = loc("inductor_cache/wu/cwuhofkkk7aewjb3k42kljma5vji35uhg7ugfvryc55zyf7vjxee.py":25:19)
#loc9 = loc("inductor_cache/wu/cwuhofkkk7aewjb3k42kljma5vji35uhg7ugfvryc55zyf7vjxee.py":27:34)
#loc10 = loc("inductor_cache/wu/cwuhofkkk7aewjb3k42kljma5vji35uhg7ugfvryc55zyf7vjxee.py":27:42)
#loc11 = loc("inductor_cache/wu/cwuhofkkk7aewjb3k42kljma5vji35uhg7ugfvryc55zyf7vjxee.py":27:39)
#loc12 = loc("inductor_cache/wu/cwuhofkkk7aewjb3k42kljma5vji35uhg7ugfvryc55zyf7vjxee.py":27:30)
#loc13 = loc("inductor_cache/wu/cwuhofkkk7aewjb3k42kljma5vji35uhg7ugfvryc55zyf7vjxee.py":27:47)
#loc14 = loc("inductor_cache/wu/cwuhofkkk7aewjb3k42kljma5vji35uhg7ugfvryc55zyf7vjxee.py":28:34)
#loc15 = loc("inductor_cache/wu/cwuhofkkk7aewjb3k42kljma5vji35uhg7ugfvryc55zyf7vjxee.py":28:39)
#loc16 = loc("inductor_cache/wu/cwuhofkkk7aewjb3k42kljma5vji35uhg7ugfvryc55zyf7vjxee.py":28:30)
#loc17 = loc("inductor_cache/wu/cwuhofkkk7aewjb3k42kljma5vji35uhg7ugfvryc55zyf7vjxee.py":28:47)
#loc18 = loc("inductor_cache/wu/cwuhofkkk7aewjb3k42kljma5vji35uhg7ugfvryc55zyf7vjxee.py":29:36)
#loc19 = loc("inductor_cache/wu/cwuhofkkk7aewjb3k42kljma5vji35uhg7ugfvryc55zyf7vjxee.py":29:41)
#loc20 = loc("inductor_cache/wu/cwuhofkkk7aewjb3k42kljma5vji35uhg7ugfvryc55zyf7vjxee.py":29:31)
#loc21 = loc("inductor_cache/wu/cwuhofkkk7aewjb3k42kljma5vji35uhg7ugfvryc55zyf7vjxee.py":29:49)
#loc22 = loc("inductor_cache/wu/cwuhofkkk7aewjb3k42kljma5vji35uhg7ugfvryc55zyf7vjxee.py":30:36)
#loc23 = loc("inductor_cache/wu/cwuhofkkk7aewjb3k42kljma5vji35uhg7ugfvryc55zyf7vjxee.py":30:41)
#loc24 = loc("inductor_cache/wu/cwuhofkkk7aewjb3k42kljma5vji35uhg7ugfvryc55zyf7vjxee.py":30:31)
#loc25 = loc("inductor_cache/wu/cwuhofkkk7aewjb3k42kljma5vji35uhg7ugfvryc55zyf7vjxee.py":30:49)
#loc26 = loc("inductor_cache/wu/cwuhofkkk7aewjb3k42kljma5vji35uhg7ugfvryc55zyf7vjxee.py":32:18)
#loc27 = loc("inductor_cache/wu/cwuhofkkk7aewjb3k42kljma5vji35uhg7ugfvryc55zyf7vjxee.py":34:18)
#loc28 = loc("inductor_cache/wu/cwuhofkkk7aewjb3k42kljma5vji35uhg7ugfvryc55zyf7vjxee.py":35:25)
#loc29 = loc("inductor_cache/wu/cwuhofkkk7aewjb3k42kljma5vji35uhg7ugfvryc55zyf7vjxee.py":37:18)
#loc30 = loc("inductor_cache/wu/cwuhofkkk7aewjb3k42kljma5vji35uhg7ugfvryc55zyf7vjxee.py":38:18)
#loc31 = loc("inductor_cache/wu/cwuhofkkk7aewjb3k42kljma5vji35uhg7ugfvryc55zyf7vjxee.py":39:19)
#loc32 = loc("inductor_cache/wu/cwuhofkkk7aewjb3k42kljma5vji35uhg7ugfvryc55zyf7vjxee.py":40:19)
#loc33 = loc("inductor_cache/wu/cwuhofkkk7aewjb3k42kljma5vji35uhg7ugfvryc55zyf7vjxee.py":41:26)
#loc34 = loc("inductor_cache/wu/cwuhofkkk7aewjb3k42kljma5vji35uhg7ugfvryc55zyf7vjxee.py":42:20)
#loc35 = loc("inductor_cache/wu/cwuhofkkk7aewjb3k42kljma5vji35uhg7ugfvryc55zyf7vjxee.py":43:20)
#loc36 = loc("inductor_cache/wu/cwuhofkkk7aewjb3k42kljma5vji35uhg7ugfvryc55zyf7vjxee.py":44:19)
#loc37 = loc("inductor_cache/wu/cwuhofkkk7aewjb3k42kljma5vji35uhg7ugfvryc55zyf7vjxee.py":45:20)
#loc38 = loc("inductor_cache/wu/cwuhofkkk7aewjb3k42kljma5vji35uhg7ugfvryc55zyf7vjxee.py":46:20)
#loc39 = loc("inductor_cache/wu/cwuhofkkk7aewjb3k42kljma5vji35uhg7ugfvryc55zyf7vjxee.py":47:26)
#loc40 = loc("inductor_cache/wu/cwuhofkkk7aewjb3k42kljma5vji35uhg7ugfvryc55zyf7vjxee.py":48:20)
#loc41 = loc("inductor_cache/wu/cwuhofkkk7aewjb3k42kljma5vji35uhg7ugfvryc55zyf7vjxee.py":49:20)
#loc42 = loc("inductor_cache/wu/cwuhofkkk7aewjb3k42kljma5vji35uhg7ugfvryc55zyf7vjxee.py":50:20)
#loc43 = loc("inductor_cache/wu/cwuhofkkk7aewjb3k42kljma5vji35uhg7ugfvryc55zyf7vjxee.py":51:20)
#loc44 = loc("inductor_cache/wu/cwuhofkkk7aewjb3k42kljma5vji35uhg7ugfvryc55zyf7vjxee.py":52:20)
#loc45 = loc("inductor_cache/wu/cwuhofkkk7aewjb3k42kljma5vji35uhg7ugfvryc55zyf7vjxee.py":53:26)
#loc46 = loc("inductor_cache/wu/cwuhofkkk7aewjb3k42kljma5vji35uhg7ugfvryc55zyf7vjxee.py":54:20)
#loc47 = loc("inductor_cache/wu/cwuhofkkk7aewjb3k42kljma5vji35uhg7ugfvryc55zyf7vjxee.py":55:20)
#loc48 = loc("inductor_cache/wu/cwuhofkkk7aewjb3k42kljma5vji35uhg7ugfvryc55zyf7vjxee.py":56:20)
#loc49 = loc("inductor_cache/wu/cwuhofkkk7aewjb3k42kljma5vji35uhg7ugfvryc55zyf7vjxee.py":58:20)
#loc50 = loc("inductor_cache/wu/cwuhofkkk7aewjb3k42kljma5vji35uhg7ugfvryc55zyf7vjxee.py":59:25)
#loc51 = loc("inductor_cache/wu/cwuhofkkk7aewjb3k42kljma5vji35uhg7ugfvryc55zyf7vjxee.py":59:37)
#loc52 = loc("inductor_cache/wu/cwuhofkkk7aewjb3k42kljma5vji35uhg7ugfvryc55zyf7vjxee.py":59:4)
