#loc = loc("inductor_cache/zl/czljpydhichoxdexmxala4vbl7kni7botlf6dwbzhy44njbbgmma.py":19:0)
module {
  tt.func public @triton_poi_fused_add_div_mul_sub_20(%arg0: !tt.ptr<f32> {tt.divisibility = 16 : i32} loc("inductor_cache/zl/czljpydhichoxdexmxala4vbl7kni7botlf6dwbzhy44njbbgmma.py":19:0), %arg1: !tt.ptr<f32> {tt.divisibility = 16 : i32} loc("inductor_cache/zl/czljpydhichoxdexmxala4vbl7kni7botlf6dwbzhy44njbbgmma.py":19:0), %arg2: !tt.ptr<f32> {tt.divisibility = 16 : i32} loc("inductor_cache/zl/czljpydhichoxdexmxala4vbl7kni7botlf6dwbzhy44njbbgmma.py":19:0), %arg3: !tt.ptr<f32> {tt.divisibility = 16 : i32} loc("inductor_cache/zl/czljpydhichoxdexmxala4vbl7kni7botlf6dwbzhy44njbbgmma.py":19:0), %arg4: !tt.ptr<f32> {tt.divisibility = 16 : i32} loc("inductor_cache/zl/czljpydhichoxdexmxala4vbl7kni7botlf6dwbzhy44njbbgmma.py":19:0), %arg5: !tt.ptr<f32> {tt.divisibility = 16 : i32} loc("inductor_cache/zl/czljpydhichoxdexmxala4vbl7kni7botlf6dwbzhy44njbbgmma.py":19:0), %arg6: i32 {tt.divisibility = 16 : i32} loc("inductor_cache/zl/czljpydhichoxdexmxala4vbl7kni7botlf6dwbzhy44njbbgmma.py":19:0), %arg7: i32 {tt.divisibility = 16 : i32} loc("inductor_cache/zl/czljpydhichoxdexmxala4vbl7kni7botlf6dwbzhy44njbbgmma.py":19:0)) attributes {noinline = false} {
    %c192_i32 = arith.constant 192 : i32 loc(#loc1)
    %c64_i32 = arith.constant 64 : i32 loc(#loc1)
    %cst = arith.constant dense<12288> : tensor<1x512xi32> loc(#loc1)
    %cst_0 = arith.constant dense<64> : tensor<1x512xi32> loc(#loc1)
    %cst_1 = arith.constant dense<192> : tensor<1x512xi32> loc(#loc1)
    %cst_2 = arith.constant dense<768> : tensor<1x512xi32> loc(#loc1)
    %c512_i32 = arith.constant 512 : i32 loc(#loc1)
    %0 = tt.get_program_id y : i32 loc(#loc2)
    %1 = arith.muli %0, %c512_i32 : i32 loc(#loc3)
    %2 = tt.make_range {end = 512 : i32, start = 0 : i32} : tensor<512xi32> loc(#loc4)
    %3 = tt.expand_dims %2 {axis = 0 : i32} : tensor<512xi32> -> tensor<1x512xi32> loc(#loc5)
    %4 = tt.splat %1 : i32 -> tensor<1x512xi32> loc(#loc6)
    %5 = arith.addi %4, %3 : tensor<1x512xi32> loc(#loc6)
    %6 = arith.cmpi slt, %5, %cst_2 : tensor<1x512xi32> loc(#loc7)
    %7 = tt.get_program_id x : i32 loc(#loc8)
    %8 = arith.cmpi slt, %7, %c64_i32 : i32 loc(#loc9)
    %9 = arith.remsi %5, %cst_1 : tensor<1x512xi32> loc(#loc10)
    %10 = arith.divsi %5, %cst_1 : tensor<1x512xi32> loc(#loc11)
    %11 = tt.splat %arg0 : !tt.ptr<f32> -> tensor<1x512x!tt.ptr<f32>> loc(#loc12)
    %12 = tt.addptr %11, %9 : tensor<1x512x!tt.ptr<f32>>, tensor<1x512xi32> loc(#loc12)
    %13 = tt.load %12, %6 evictionPolicy = evict_last : tensor<1x512x!tt.ptr<f32>> loc(#loc13)
    %14 = arith.muli %5, %cst_0 : tensor<1x512xi32> loc(#loc14)
    %15 = tt.splat %7 : i32 -> tensor<1x512xi32> loc(#loc15)
    %16 = arith.addi %15, %14 : tensor<1x512xi32> loc(#loc15)
    %17 = tt.splat %arg1 : !tt.ptr<f32> -> tensor<1x512x!tt.ptr<f32>> loc(#loc16)
    %18 = tt.addptr %17, %16 : tensor<1x512x!tt.ptr<f32>>, tensor<1x512xi32> loc(#loc16)
    %19 = tt.splat %8 : i1 -> tensor<1x512xi1> loc(#loc17)
    %20 = arith.andi %19, %6 : tensor<1x512xi1> loc(#loc17)
    %21 = tt.load %18, %20 evictionPolicy = evict_last : tensor<1x512x!tt.ptr<f32>> loc(#loc18)
    %22 = arith.muli %10, %cst_0 : tensor<1x512xi32> loc(#loc19)
    %23 = arith.addi %15, %22 : tensor<1x512xi32> loc(#loc20)
    %24 = tt.splat %arg2 : !tt.ptr<f32> -> tensor<1x512x!tt.ptr<f32>> loc(#loc21)
    %25 = tt.addptr %24, %23 : tensor<1x512x!tt.ptr<f32>>, tensor<1x512xi32> loc(#loc21)
    %26 = tt.load %25, %20 evictionPolicy = evict_last : tensor<1x512x!tt.ptr<f32>> loc(#loc22)
    %27 = tt.splat %arg3 : !tt.ptr<f32> -> tensor<1x512x!tt.ptr<f32>> loc(#loc23)
    %28 = tt.addptr %27, %23 : tensor<1x512x!tt.ptr<f32>>, tensor<1x512xi32> loc(#loc23)
    %29 = tt.load %28, %20 evictionPolicy = evict_last : tensor<1x512x!tt.ptr<f32>> loc(#loc24)
    %30 = tt.splat %arg4 : !tt.ptr<f32> -> tensor<1x512x!tt.ptr<f32>> loc(#loc25)
    %31 = tt.addptr %30, %9 : tensor<1x512x!tt.ptr<f32>>, tensor<1x512xi32> loc(#loc25)
    %32 = tt.load %31, %6 evictionPolicy = evict_last : tensor<1x512x!tt.ptr<f32>> loc(#loc26)
    %33 = arith.subf %21, %26 : tensor<1x512xf32> loc(#loc27)
    %34 = arith.divf %33, %29 : tensor<1x512xf32> loc(#loc28)
    %35 = arith.mulf %13, %34 : tensor<1x512xf32> loc(#loc29)
    %36 = arith.addf %35, %32 : tensor<1x512xf32> loc(#loc30)
    %37 = arith.muli %7, %c192_i32 : i32 loc(#loc31)
    %38 = tt.splat %37 : i32 -> tensor<1x512xi32> loc(#loc32)
    %39 = arith.addi %9, %38 : tensor<1x512xi32> loc(#loc32)
    %40 = arith.muli %10, %cst : tensor<1x512xi32> loc(#loc33)
    %41 = arith.addi %39, %40 : tensor<1x512xi32> loc(#loc34)
    %42 = tt.splat %arg5 : !tt.ptr<f32> -> tensor<1x512x!tt.ptr<f32>> loc(#loc35)
    %43 = tt.addptr %42, %41 : tensor<1x512x!tt.ptr<f32>>, tensor<1x512xi32> loc(#loc35)
    tt.store %43, %36, %20 : tensor<1x512x!tt.ptr<f32>> loc(#loc36)
    tt.return loc(#loc37)
  } loc(#loc)
} loc(#loc)
#loc1 = loc(unknown)
#loc2 = loc("inductor_cache/zl/czljpydhichoxdexmxala4vbl7kni7botlf6dwbzhy44njbbgmma.py":22:28)
#loc3 = loc("inductor_cache/zl/czljpydhichoxdexmxala4vbl7kni7botlf6dwbzhy44njbbgmma.py":22:33)
#loc4 = loc("inductor_cache/zl/czljpydhichoxdexmxala4vbl7kni7botlf6dwbzhy44njbbgmma.py":23:36)
#loc5 = loc("inductor_cache/zl/czljpydhichoxdexmxala4vbl7kni7botlf6dwbzhy44njbbgmma.py":23:44)
#loc6 = loc("inductor_cache/zl/czljpydhichoxdexmxala4vbl7kni7botlf6dwbzhy44njbbgmma.py":23:23)
#loc7 = loc("inductor_cache/zl/czljpydhichoxdexmxala4vbl7kni7botlf6dwbzhy44njbbgmma.py":24:21)
#loc8 = loc("inductor_cache/zl/czljpydhichoxdexmxala4vbl7kni7botlf6dwbzhy44njbbgmma.py":25:28)
#loc9 = loc("inductor_cache/zl/czljpydhichoxdexmxala4vbl7kni7botlf6dwbzhy44njbbgmma.py":27:21)
#loc10 = loc("inductor_cache/zl/czljpydhichoxdexmxala4vbl7kni7botlf6dwbzhy44njbbgmma.py":28:19)
#loc11 = loc("inductor_cache/zl/czljpydhichoxdexmxala4vbl7kni7botlf6dwbzhy44njbbgmma.py":31:19)
#loc12 = loc("inductor_cache/zl/czljpydhichoxdexmxala4vbl7kni7botlf6dwbzhy44njbbgmma.py":32:30)
#loc13 = loc("inductor_cache/zl/czljpydhichoxdexmxala4vbl7kni7botlf6dwbzhy44njbbgmma.py":32:35)
#loc14 = loc("inductor_cache/zl/czljpydhichoxdexmxala4vbl7kni7botlf6dwbzhy44njbbgmma.py":33:38)
#loc15 = loc("inductor_cache/zl/czljpydhichoxdexmxala4vbl7kni7botlf6dwbzhy44njbbgmma.py":33:35)
#loc16 = loc("inductor_cache/zl/czljpydhichoxdexmxala4vbl7kni7botlf6dwbzhy44njbbgmma.py":33:30)
#loc17 = loc("inductor_cache/zl/czljpydhichoxdexmxala4vbl7kni7botlf6dwbzhy44njbbgmma.py":33:51)
#loc18 = loc("inductor_cache/zl/czljpydhichoxdexmxala4vbl7kni7botlf6dwbzhy44njbbgmma.py":33:43)
#loc19 = loc("inductor_cache/zl/czljpydhichoxdexmxala4vbl7kni7botlf6dwbzhy44njbbgmma.py":34:38)
#loc20 = loc("inductor_cache/zl/czljpydhichoxdexmxala4vbl7kni7botlf6dwbzhy44njbbgmma.py":34:35)
#loc21 = loc("inductor_cache/zl/czljpydhichoxdexmxala4vbl7kni7botlf6dwbzhy44njbbgmma.py":34:30)
#loc22 = loc("inductor_cache/zl/czljpydhichoxdexmxala4vbl7kni7botlf6dwbzhy44njbbgmma.py":34:43)
#loc23 = loc("inductor_cache/zl/czljpydhichoxdexmxala4vbl7kni7botlf6dwbzhy44njbbgmma.py":35:30)
#loc24 = loc("inductor_cache/zl/czljpydhichoxdexmxala4vbl7kni7botlf6dwbzhy44njbbgmma.py":35:43)
#loc25 = loc("inductor_cache/zl/czljpydhichoxdexmxala4vbl7kni7botlf6dwbzhy44njbbgmma.py":36:30)
#loc26 = loc("inductor_cache/zl/czljpydhichoxdexmxala4vbl7kni7botlf6dwbzhy44njbbgmma.py":36:35)
#loc27 = loc("inductor_cache/zl/czljpydhichoxdexmxala4vbl7kni7botlf6dwbzhy44njbbgmma.py":37:18)
#loc28 = loc("inductor_cache/zl/czljpydhichoxdexmxala4vbl7kni7botlf6dwbzhy44njbbgmma.py":38:18)
#loc29 = loc("inductor_cache/zl/czljpydhichoxdexmxala4vbl7kni7botlf6dwbzhy44njbbgmma.py":39:18)
#loc30 = loc("inductor_cache/zl/czljpydhichoxdexmxala4vbl7kni7botlf6dwbzhy44njbbgmma.py":40:18)
#loc31 = loc("inductor_cache/zl/czljpydhichoxdexmxala4vbl7kni7botlf6dwbzhy44njbbgmma.py":41:34)
#loc32 = loc("inductor_cache/zl/czljpydhichoxdexmxala4vbl7kni7botlf6dwbzhy44njbbgmma.py":41:30)
#loc33 = loc("inductor_cache/zl/czljpydhichoxdexmxala4vbl7kni7botlf6dwbzhy44njbbgmma.py":41:45)
#loc34 = loc("inductor_cache/zl/czljpydhichoxdexmxala4vbl7kni7botlf6dwbzhy44njbbgmma.py":41:39)
#loc35 = loc("inductor_cache/zl/czljpydhichoxdexmxala4vbl7kni7botlf6dwbzhy44njbbgmma.py":41:25)
#loc36 = loc("inductor_cache/zl/czljpydhichoxdexmxala4vbl7kni7botlf6dwbzhy44njbbgmma.py":41:56)
#loc37 = loc("inductor_cache/zl/czljpydhichoxdexmxala4vbl7kni7botlf6dwbzhy44njbbgmma.py":41:4)
