#loc = loc("inductor_cache/3k/c3k2r2xcenr6agtmc6nyaabbcs2fz3gqwg5x4zp4gbfambn7ftqx.py":19:0)
module {
  tt.func public @triton_poi_fused_add_6(%arg0: !tt.ptr<f32> {tt.divisibility = 16 : i32} loc("inductor_cache/3k/c3k2r2xcenr6agtmc6nyaabbcs2fz3gqwg5x4zp4gbfambn7ftqx.py":19:0), %arg1: !tt.ptr<f32> {tt.divisibility = 16 : i32} loc("inductor_cache/3k/c3k2r2xcenr6agtmc6nyaabbcs2fz3gqwg5x4zp4gbfambn7ftqx.py":19:0), %arg2: !tt.ptr<f32> {tt.divisibility = 16 : i32} loc("inductor_cache/3k/c3k2r2xcenr6agtmc6nyaabbcs2fz3gqwg5x4zp4gbfambn7ftqx.py":19:0), %arg3: !tt.ptr<f32> {tt.divisibility = 16 : i32} loc("inductor_cache/3k/c3k2r2xcenr6agtmc6nyaabbcs2fz3gqwg5x4zp4gbfambn7ftqx.py":19:0), %arg4: i32 loc("inductor_cache/3k/c3k2r2xcenr6agtmc6nyaabbcs2fz3gqwg5x4zp4gbfambn7ftqx.py":19:0), %arg5: i32 loc("inductor_cache/3k/c3k2r2xcenr6agtmc6nyaabbcs2fz3gqwg5x4zp4gbfambn7ftqx.py":19:0)) attributes {noinline = false} {
    %cst = arith.constant dense<0.000000e+00> : tensor<4x4xf32> loc(#loc1)
    %cst_0 = arith.constant dense<4> : tensor<4x1xi32> loc(#loc1)
    %cst_1 = arith.constant dense<4> : tensor<1x4xi32> loc(#loc1)
    %c4_i32 = arith.constant 4 : i32 loc(#loc1)
    %0 = tt.get_program_id y : i32 loc(#loc2)
    %1 = arith.muli %0, %c4_i32 : i32 loc(#loc3)
    %2 = tt.make_range {end = 4 : i32, start = 0 : i32} : tensor<4xi32> loc(#loc4)
    %3 = tt.expand_dims %2 {axis = 0 : i32} : tensor<4xi32> -> tensor<1x4xi32> loc(#loc5)
    %4 = tt.splat %1 : i32 -> tensor<1x4xi32> loc(#loc6)
    %5 = arith.addi %4, %3 : tensor<1x4xi32> loc(#loc6)
    %6 = arith.cmpi slt, %5, %cst_1 : tensor<1x4xi32> loc(#loc7)
    %7 = tt.get_program_id x : i32 loc(#loc8)
    %8 = arith.muli %7, %c4_i32 : i32 loc(#loc9)
    %9 = tt.expand_dims %2 {axis = 1 : i32} : tensor<4xi32> -> tensor<4x1xi32> loc(#loc10)
    %10 = tt.splat %8 : i32 -> tensor<4x1xi32> loc(#loc11)
    %11 = arith.addi %10, %9 : tensor<4x1xi32> loc(#loc11)
    %12 = arith.cmpi slt, %11, %cst_0 : tensor<4x1xi32> loc(#loc12)
    %13 = arith.muli %5, %cst_1 : tensor<1x4xi32> loc(#loc13)
    %14 = tt.broadcast %11 : tensor<4x1xi32> -> tensor<4x4xi32> loc(#loc14)
    %15 = tt.broadcast %13 : tensor<1x4xi32> -> tensor<4x4xi32> loc(#loc14)
    %16 = arith.addi %14, %15 : tensor<4x4xi32> loc(#loc14)
    %17 = tt.splat %arg0 : !tt.ptr<f32> -> tensor<4x4x!tt.ptr<f32>> loc(#loc15)
    %18 = tt.addptr %17, %16 : tensor<4x4x!tt.ptr<f32>>, tensor<4x4xi32> loc(#loc15)
    %19 = tt.broadcast %12 : tensor<4x1xi1> -> tensor<4x4xi1> loc(#loc16)
    %20 = tt.broadcast %6 : tensor<1x4xi1> -> tensor<4x4xi1> loc(#loc16)
    %21 = arith.andi %19, %20 : tensor<4x4xi1> loc(#loc16)
    %22 = tt.load %18, %21 : tensor<4x4x!tt.ptr<f32>> loc(#loc17)
    %23 = arith.muli %11, %cst_0 : tensor<4x1xi32> loc(#loc18)
    %24 = tt.broadcast %5 : tensor<1x4xi32> -> tensor<4x4xi32> loc(#loc19)
    %25 = tt.broadcast %23 : tensor<4x1xi32> -> tensor<4x4xi32> loc(#loc19)
    %26 = arith.addi %24, %25 : tensor<4x4xi32> loc(#loc19)
    %27 = tt.splat %arg1 : !tt.ptr<f32> -> tensor<4x4x!tt.ptr<f32>> loc(#loc20)
    %28 = tt.addptr %27, %26 : tensor<4x4x!tt.ptr<f32>>, tensor<4x4xi32> loc(#loc20)
    %29 = tt.load %28, %21 : tensor<4x4x!tt.ptr<f32>> loc(#loc21)
    %30 = tt.splat %arg2 : !tt.ptr<f32> -> tensor<1x4x!tt.ptr<f32>> loc(#loc22)
    %31 = tt.addptr %30, %5 : tensor<1x4x!tt.ptr<f32>>, tensor<1x4xi32> loc(#loc22)
    %32 = tt.load %31, %6 evictionPolicy = evict_last : tensor<1x4x!tt.ptr<f32>> loc(#loc23)
    %33 = tt.broadcast %32 : tensor<1x4xf32> -> tensor<4x4xf32> loc(#loc24)
    %34 = arith.addf %29, %33 : tensor<4x4xf32> loc(#loc24)
    %35 = arith.addf %34, %cst : tensor<4x4xf32> loc(#loc25)
    %36 = arith.addf %22, %35 : tensor<4x4xf32> loc(#loc26)
    %37 = tt.splat %arg3 : !tt.ptr<f32> -> tensor<4x4x!tt.ptr<f32>> loc(#loc27)
    %38 = tt.addptr %37, %16 : tensor<4x4x!tt.ptr<f32>>, tensor<4x4xi32> loc(#loc27)
    tt.store %38, %36, %21 : tensor<4x4x!tt.ptr<f32>> loc(#loc28)
    tt.return loc(#loc29)
  } loc(#loc)
} loc(#loc)
#loc1 = loc(unknown)
#loc2 = loc("inductor_cache/3k/c3k2r2xcenr6agtmc6nyaabbcs2fz3gqwg5x4zp4gbfambn7ftqx.py":22:28)
#loc3 = loc("inductor_cache/3k/c3k2r2xcenr6agtmc6nyaabbcs2fz3gqwg5x4zp4gbfambn7ftqx.py":22:33)
#loc4 = loc("inductor_cache/3k/c3k2r2xcenr6agtmc6nyaabbcs2fz3gqwg5x4zp4gbfambn7ftqx.py":23:36)
#loc5 = loc("inductor_cache/3k/c3k2r2xcenr6agtmc6nyaabbcs2fz3gqwg5x4zp4gbfambn7ftqx.py":23:44)
#loc6 = loc("inductor_cache/3k/c3k2r2xcenr6agtmc6nyaabbcs2fz3gqwg5x4zp4gbfambn7ftqx.py":23:23)
#loc7 = loc("inductor_cache/3k/c3k2r2xcenr6agtmc6nyaabbcs2fz3gqwg5x4zp4gbfambn7ftqx.py":24:21)
#loc8 = loc("inductor_cache/3k/c3k2r2xcenr6agtmc6nyaabbcs2fz3gqwg5x4zp4gbfambn7ftqx.py":25:28)
#loc9 = loc("inductor_cache/3k/c3k2r2xcenr6agtmc6nyaabbcs2fz3gqwg5x4zp4gbfambn7ftqx.py":25:33)
#loc10 = loc("inductor_cache/3k/c3k2r2xcenr6agtmc6nyaabbcs2fz3gqwg5x4zp4gbfambn7ftqx.py":26:44)
#loc11 = loc("inductor_cache/3k/c3k2r2xcenr6agtmc6nyaabbcs2fz3gqwg5x4zp4gbfambn7ftqx.py":26:23)
#loc12 = loc("inductor_cache/3k/c3k2r2xcenr6agtmc6nyaabbcs2fz3gqwg5x4zp4gbfambn7ftqx.py":27:21)
#loc13 = loc("inductor_cache/3k/c3k2r2xcenr6agtmc6nyaabbcs2fz3gqwg5x4zp4gbfambn7ftqx.py":30:37)
#loc14 = loc("inductor_cache/3k/c3k2r2xcenr6agtmc6nyaabbcs2fz3gqwg5x4zp4gbfambn7ftqx.py":30:35)
#loc15 = loc("inductor_cache/3k/c3k2r2xcenr6agtmc6nyaabbcs2fz3gqwg5x4zp4gbfambn7ftqx.py":30:30)
#loc16 = loc("inductor_cache/3k/c3k2r2xcenr6agtmc6nyaabbcs2fz3gqwg5x4zp4gbfambn7ftqx.py":30:50)
#loc17 = loc("inductor_cache/3k/c3k2r2xcenr6agtmc6nyaabbcs2fz3gqwg5x4zp4gbfambn7ftqx.py":30:42)
#loc18 = loc("inductor_cache/3k/c3k2r2xcenr6agtmc6nyaabbcs2fz3gqwg5x4zp4gbfambn7ftqx.py":31:37)
#loc19 = loc("inductor_cache/3k/c3k2r2xcenr6agtmc6nyaabbcs2fz3gqwg5x4zp4gbfambn7ftqx.py":31:35)
#loc20 = loc("inductor_cache/3k/c3k2r2xcenr6agtmc6nyaabbcs2fz3gqwg5x4zp4gbfambn7ftqx.py":31:30)
#loc21 = loc("inductor_cache/3k/c3k2r2xcenr6agtmc6nyaabbcs2fz3gqwg5x4zp4gbfambn7ftqx.py":31:42)
#loc22 = loc("inductor_cache/3k/c3k2r2xcenr6agtmc6nyaabbcs2fz3gqwg5x4zp4gbfambn7ftqx.py":32:30)
#loc23 = loc("inductor_cache/3k/c3k2r2xcenr6agtmc6nyaabbcs2fz3gqwg5x4zp4gbfambn7ftqx.py":32:35)
#loc24 = loc("inductor_cache/3k/c3k2r2xcenr6agtmc6nyaabbcs2fz3gqwg5x4zp4gbfambn7ftqx.py":33:18)
#loc25 = loc("inductor_cache/3k/c3k2r2xcenr6agtmc6nyaabbcs2fz3gqwg5x4zp4gbfambn7ftqx.py":35:18)
#loc26 = loc("inductor_cache/3k/c3k2r2xcenr6agtmc6nyaabbcs2fz3gqwg5x4zp4gbfambn7ftqx.py":36:18)
#loc27 = loc("inductor_cache/3k/c3k2r2xcenr6agtmc6nyaabbcs2fz3gqwg5x4zp4gbfambn7ftqx.py":37:25)
#loc28 = loc("inductor_cache/3k/c3k2r2xcenr6agtmc6nyaabbcs2fz3gqwg5x4zp4gbfambn7ftqx.py":37:43)
#loc29 = loc("inductor_cache/3k/c3k2r2xcenr6agtmc6nyaabbcs2fz3gqwg5x4zp4gbfambn7ftqx.py":37:4)
