#loc = loc("inductor_cache/nj/cnjpdk74em4ds6of37jj6qugi2vsq6znuombbgc6nmdmhxu4xnmu.py":19:0)
module {
  tt.func public @triton_poi_fused_clone_1(%arg0: !tt.ptr<f32> {tt.divisibility = 16 : i32} loc("inductor_cache/nj/cnjpdk74em4ds6of37jj6qugi2vsq6znuombbgc6nmdmhxu4xnmu.py":19:0), %arg1: !tt.ptr<f32> {tt.divisibility = 16 : i32} loc("inductor_cache/nj/cnjpdk74em4ds6of37jj6qugi2vsq6znuombbgc6nmdmhxu4xnmu.py":19:0), %arg2: i32 {tt.divisibility = 16 : i32} loc("inductor_cache/nj/cnjpdk74em4ds6of37jj6qugi2vsq6znuombbgc6nmdmhxu4xnmu.py":19:0)) attributes {noinline = false} {
    %cst = arith.constant dense<1> : tensor<256xi32> loc(#loc1)
    %cst_0 = arith.constant dense<0.000000e+00> : tensor<256xf32> loc(#loc1)
    %cst_1 = arith.constant dense<1> : tensor<256xi64> loc(#loc1)
    %cst_2 = arith.constant dense<24> : tensor<256xi32> loc(#loc1)
    %cst_3 = arith.constant dense<2> : tensor<256xi32> loc(#loc1)
    %cst_4 = arith.constant dense<12> : tensor<256xi32> loc(#loc1)
    %cst_5 = arith.constant dense<192> : tensor<256xi32> loc(#loc1)
    %c256_i32 = arith.constant 256 : i32 loc(#loc1)
    %0 = tt.get_program_id x : i32 loc(#loc2)
    %1 = arith.muli %0, %c256_i32 : i32 loc(#loc3)
    %2 = tt.make_range {end = 256 : i32, start = 0 : i32} : tensor<256xi32> loc(#loc4)
    %3 = tt.splat %1 : i32 -> tensor<256xi32> loc(#loc5)
    %4 = arith.addi %3, %2 : tensor<256xi32> loc(#loc5)
    %5 = arith.cmpi slt, %4, %cst_5 : tensor<256xi32> loc(#loc6)
    %6 = arith.divsi %4, %cst_4 : tensor<256xi32> loc(#loc7)
    %7 = arith.remsi %6, %cst_3 : tensor<256xi32> loc(#loc8)
    %8 = arith.remsi %4, %cst_4 : tensor<256xi32> loc(#loc9)
    %9 = arith.divsi %4, %cst_2 : tensor<256xi32> loc(#loc10)
    %10 = arith.extsi %7 : tensor<256xi32> to tensor<256xi64> loc(#loc11)
    %11 = arith.cmpi slt, %10, %cst_1 : tensor<256xi64> loc(#loc11)
    %12 = arith.muli %8, %cst_3 : tensor<256xi32> loc(#loc12)
    %13 = arith.muli %9, %cst_2 : tensor<256xi32> loc(#loc13)
    %14 = arith.addi %12, %13 : tensor<256xi32> loc(#loc14)
    %15 = tt.splat %arg0 : !tt.ptr<f32> -> tensor<256x!tt.ptr<f32>> loc(#loc15)
    %16 = tt.addptr %15, %14 : tensor<256x!tt.ptr<f32>>, tensor<256xi32> loc(#loc15)
    %17 = arith.andi %11, %5 : tensor<256xi1> loc(#loc16)
    %18 = tt.load %16, %17, %cst_0 evictionPolicy = evict_last : tensor<256x!tt.ptr<f32>> loc(#loc17)
    %19 = arith.cmpi sge, %10, %cst_1 : tensor<256xi64> loc(#loc18)
    %20 = arith.addi %12, %cst : tensor<256xi32> loc(#loc19)
    %21 = arith.addi %20, %13 : tensor<256xi32> loc(#loc20)
    %22 = tt.addptr %15, %21 : tensor<256x!tt.ptr<f32>>, tensor<256xi32> loc(#loc21)
    %23 = arith.andi %19, %5 : tensor<256xi1> loc(#loc22)
    %24 = tt.load %22, %23, %cst_0 evictionPolicy = evict_last : tensor<256x!tt.ptr<f32>> loc(#loc23)
    %25 = arith.select %11, %18, %24 : tensor<256xi1>, tensor<256xf32> loc(#loc24)
    %26 = tt.splat %arg1 : !tt.ptr<f32> -> tensor<256x!tt.ptr<f32>> loc(#loc25)
    %27 = tt.addptr %26, %4 : tensor<256x!tt.ptr<f32>>, tensor<256xi32> loc(#loc25)
    tt.store %27, %25, %5 : tensor<256x!tt.ptr<f32>> loc(#loc26)
    tt.return loc(#loc27)
  } loc(#loc)
} loc(#loc)
#loc1 = loc(unknown)
#loc2 = loc("inductor_cache/nj/cnjpdk74em4ds6of37jj6qugi2vsq6znuombbgc6nmdmhxu4xnmu.py":21:28)
#loc3 = loc("inductor_cache/nj/cnjpdk74em4ds6of37jj6qugi2vsq6znuombbgc6nmdmhxu4xnmu.py":21:33)
#loc4 = loc("inductor_cache/nj/cnjpdk74em4ds6of37jj6qugi2vsq6znuombbgc6nmdmhxu4xnmu.py":22:36)
#loc5 = loc("inductor_cache/nj/cnjpdk74em4ds6of37jj6qugi2vsq6znuombbgc6nmdmhxu4xnmu.py":22:23)
#loc6 = loc("inductor_cache/nj/cnjpdk74em4ds6of37jj6qugi2vsq6znuombbgc6nmdmhxu4xnmu.py":23:21)
#loc7 = loc("inductor_cache/nj/cnjpdk74em4ds6of37jj6qugi2vsq6znuombbgc6nmdmhxu4xnmu.py":24:21)
#loc8 = loc("inductor_cache/nj/cnjpdk74em4ds6of37jj6qugi2vsq6znuombbgc6nmdmhxu4xnmu.py":24:27)
#loc9 = loc("inductor_cache/nj/cnjpdk74em4ds6of37jj6qugi2vsq6znuombbgc6nmdmhxu4xnmu.py":25:19)
#loc10 = loc("inductor_cache/nj/cnjpdk74em4ds6of37jj6qugi2vsq6znuombbgc6nmdmhxu4xnmu.py":26:19)
#loc11 = loc("inductor_cache/nj/cnjpdk74em4ds6of37jj6qugi2vsq6znuombbgc6nmdmhxu4xnmu.py":32:18)
#loc12 = loc("inductor_cache/nj/cnjpdk74em4ds6of37jj6qugi2vsq6znuombbgc6nmdmhxu4xnmu.py":33:32)
#loc13 = loc("inductor_cache/nj/cnjpdk74em4ds6of37jj6qugi2vsq6znuombbgc6nmdmhxu4xnmu.py":33:40)
#loc14 = loc("inductor_cache/nj/cnjpdk74em4ds6of37jj6qugi2vsq6znuombbgc6nmdmhxu4xnmu.py":33:37)
#loc15 = loc("inductor_cache/nj/cnjpdk74em4ds6of37jj6qugi2vsq6znuombbgc6nmdmhxu4xnmu.py":33:30)
#loc16 = loc("inductor_cache/nj/cnjpdk74em4ds6of37jj6qugi2vsq6znuombbgc6nmdmhxu4xnmu.py":33:52)
#loc17 = loc("inductor_cache/nj/cnjpdk74em4ds6of37jj6qugi2vsq6znuombbgc6nmdmhxu4xnmu.py":33:45)
#loc18 = loc("inductor_cache/nj/cnjpdk74em4ds6of37jj6qugi2vsq6znuombbgc6nmdmhxu4xnmu.py":34:19)
#loc19 = loc("inductor_cache/nj/cnjpdk74em4ds6of37jj6qugi2vsq6znuombbgc6nmdmhxu4xnmu.py":37:34)
#loc20 = loc("inductor_cache/nj/cnjpdk74em4ds6of37jj6qugi2vsq6znuombbgc6nmdmhxu4xnmu.py":37:41)
#loc21 = loc("inductor_cache/nj/cnjpdk74em4ds6of37jj6qugi2vsq6znuombbgc6nmdmhxu4xnmu.py":37:30)
#loc22 = loc("inductor_cache/nj/cnjpdk74em4ds6of37jj6qugi2vsq6znuombbgc6nmdmhxu4xnmu.py":37:56)
#loc23 = loc("inductor_cache/nj/cnjpdk74em4ds6of37jj6qugi2vsq6znuombbgc6nmdmhxu4xnmu.py":37:49)
#loc24 = loc("inductor_cache/nj/cnjpdk74em4ds6of37jj6qugi2vsq6znuombbgc6nmdmhxu4xnmu.py":38:33)
#loc25 = loc("inductor_cache/nj/cnjpdk74em4ds6of37jj6qugi2vsq6znuombbgc6nmdmhxu4xnmu.py":39:25)
#loc26 = loc("inductor_cache/nj/cnjpdk74em4ds6of37jj6qugi2vsq6znuombbgc6nmdmhxu4xnmu.py":39:37)
#loc27 = loc("inductor_cache/nj/cnjpdk74em4ds6of37jj6qugi2vsq6znuombbgc6nmdmhxu4xnmu.py":39:4)
