#loc = loc("inductor_cache/pq/cpqhwxl6maeat47rq7mf5etgnvckbyxb27ldsh7k57oru2upxyso.py":19:0)
module {
  tt.func public @triton_poi_fused_add_div_linalg_vector_norm_mv_2(%arg0: !tt.ptr<f32> {tt.divisibility = 16 : i32} loc("inductor_cache/pq/cpqhwxl6maeat47rq7mf5etgnvckbyxb27ldsh7k57oru2upxyso.py":19:0), %arg1: !tt.ptr<f32> {tt.divisibility = 16 : i32} loc("inductor_cache/pq/cpqhwxl6maeat47rq7mf5etgnvckbyxb27ldsh7k57oru2upxyso.py":19:0), %arg2: !tt.ptr<f32> {tt.divisibility = 16 : i32} loc("inductor_cache/pq/cpqhwxl6maeat47rq7mf5etgnvckbyxb27ldsh7k57oru2upxyso.py":19:0), %arg3: i32 loc("inductor_cache/pq/cpqhwxl6maeat47rq7mf5etgnvckbyxb27ldsh7k57oru2upxyso.py":19:0)) attributes {noinline = false} {
    %cst = arith.constant dense<3> : tensor<4xi32> loc(#loc1)
    %c3_i32 = arith.constant 3 : i32 loc(#loc1)
    %cst_0 = arith.constant dense<2> : tensor<4xi32> loc(#loc1)
    %c2_i32 = arith.constant 2 : i32 loc(#loc1)
    %cst_1 = arith.constant dense<1> : tensor<4xi32> loc(#loc1)
    %c1_i32 = arith.constant 1 : i32 loc(#loc1)
    %c0_i32 = arith.constant 0 : i32 loc(#loc1)
    %cst_2 = arith.constant dense<4> : tensor<4xi32> loc(#loc1)
    %c4_i32 = arith.constant 4 : i32 loc(#loc1)
    %0 = tt.get_program_id x : i32 loc(#loc2)
    %1 = arith.muli %0, %c4_i32 : i32 loc(#loc3)
    %2 = tt.make_range {end = 4 : i32, start = 0 : i32} : tensor<4xi32> loc(#loc4)
    %3 = tt.splat %1 : i32 -> tensor<4xi32> loc(#loc5)
    %4 = arith.addi %3, %2 : tensor<4xi32> loc(#loc5)
    %5 = arith.cmpi slt, %4, %cst_2 : tensor<4xi32> loc(#loc6)
    %6 = arith.muli %4, %cst_2 : tensor<4xi32> loc(#loc7)
    %7 = tt.splat %arg0 : !tt.ptr<f32> -> tensor<4x!tt.ptr<f32>> loc(#loc8)
    %8 = tt.addptr %7, %6 : tensor<4x!tt.ptr<f32>>, tensor<4xi32> loc(#loc8)
    %9 = tt.load %8, %5 evictionPolicy = evict_last : tensor<4x!tt.ptr<f32>> loc(#loc9)
    %10 = tt.addptr %arg1, %c0_i32 : !tt.ptr<f32>, i32 loc(#loc10)
    %11 = tt.load %10 : !tt.ptr<f32> loc(#loc11)
    %12 = tt.splat %11 : f32 -> tensor<4xf32> loc(#loc12)
    %13 = arith.addi %6, %cst_1 : tensor<4xi32> loc(#loc13)
    %14 = tt.addptr %7, %13 : tensor<4x!tt.ptr<f32>>, tensor<4xi32> loc(#loc14)
    %15 = tt.load %14, %5 evictionPolicy = evict_last : tensor<4x!tt.ptr<f32>> loc(#loc15)
    %16 = tt.addptr %arg1, %c1_i32 : !tt.ptr<f32>, i32 loc(#loc16)
    %17 = tt.load %16 : !tt.ptr<f32> loc(#loc17)
    %18 = tt.splat %17 : f32 -> tensor<4xf32> loc(#loc18)
    %19 = arith.addi %6, %cst_0 : tensor<4xi32> loc(#loc19)
    %20 = tt.addptr %7, %19 : tensor<4x!tt.ptr<f32>>, tensor<4xi32> loc(#loc20)
    %21 = tt.load %20, %5 evictionPolicy = evict_last : tensor<4x!tt.ptr<f32>> loc(#loc21)
    %22 = tt.addptr %arg1, %c2_i32 : !tt.ptr<f32>, i32 loc(#loc22)
    %23 = tt.load %22 : !tt.ptr<f32> loc(#loc23)
    %24 = tt.splat %23 : f32 -> tensor<4xf32> loc(#loc24)
    %25 = arith.addi %6, %cst : tensor<4xi32> loc(#loc25)
    %26 = tt.addptr %7, %25 : tensor<4x!tt.ptr<f32>>, tensor<4xi32> loc(#loc26)
    %27 = tt.load %26, %5 evictionPolicy = evict_last : tensor<4x!tt.ptr<f32>> loc(#loc27)
    %28 = tt.addptr %arg1, %c3_i32 : !tt.ptr<f32>, i32 loc(#loc28)
    %29 = tt.load %28 : !tt.ptr<f32> loc(#loc29)
    %30 = tt.splat %29 : f32 -> tensor<4xf32> loc(#loc30)
    %31 = arith.mulf %9, %12 : tensor<4xf32> loc(#loc31)
    %32 = arith.mulf %15, %18 : tensor<4xf32> loc(#loc32)
    %33 = arith.addf %31, %32 : tensor<4xf32> loc(#loc33)
    %34 = arith.mulf %21, %24 : tensor<4xf32> loc(#loc34)
    %35 = arith.addf %33, %34 : tensor<4xf32> loc(#loc35)
    %36 = arith.mulf %27, %30 : tensor<4xf32> loc(#loc36)
    %37 = arith.addf %35, %36 : tensor<4xf32> loc(#loc37)
    %38 = tt.splat %arg2 : !tt.ptr<f32> -> tensor<4x!tt.ptr<f32>> loc(#loc38)
    %39 = tt.addptr %38, %4 : tensor<4x!tt.ptr<f32>>, tensor<4xi32> loc(#loc38)
    tt.store %39, %37, %5 : tensor<4x!tt.ptr<f32>> loc(#loc39)
    tt.return loc(#loc40)
  } loc(#loc)
} loc(#loc)
#loc1 = loc(unknown)
#loc2 = loc("inductor_cache/pq/cpqhwxl6maeat47rq7mf5etgnvckbyxb27ldsh7k57oru2upxyso.py":21:28)
#loc3 = loc("inductor_cache/pq/cpqhwxl6maeat47rq7mf5etgnvckbyxb27ldsh7k57oru2upxyso.py":21:33)
#loc4 = loc("inductor_cache/pq/cpqhwxl6maeat47rq7mf5etgnvckbyxb27ldsh7k57oru2upxyso.py":22:36)
#loc5 = loc("inductor_cache/pq/cpqhwxl6maeat47rq7mf5etgnvckbyxb27ldsh7k57oru2upxyso.py":22:23)
#loc6 = loc("inductor_cache/pq/cpqhwxl6maeat47rq7mf5etgnvckbyxb27ldsh7k57oru2upxyso.py":23:21)
#loc7 = loc("inductor_cache/pq/cpqhwxl6maeat47rq7mf5etgnvckbyxb27ldsh7k57oru2upxyso.py":25:32)
#loc8 = loc("inductor_cache/pq/cpqhwxl6maeat47rq7mf5etgnvckbyxb27ldsh7k57oru2upxyso.py":25:30)
#loc9 = loc("inductor_cache/pq/cpqhwxl6maeat47rq7mf5etgnvckbyxb27ldsh7k57oru2upxyso.py":25:37)
#loc10 = loc("inductor_cache/pq/cpqhwxl6maeat47rq7mf5etgnvckbyxb27ldsh7k57oru2upxyso.py":26:30)
#loc11 = loc("inductor_cache/pq/cpqhwxl6maeat47rq7mf5etgnvckbyxb27ldsh7k57oru2upxyso.py":26:19)
#loc12 = loc("inductor_cache/pq/cpqhwxl6maeat47rq7mf5etgnvckbyxb27ldsh7k57oru2upxyso.py":27:33)
#loc13 = loc("inductor_cache/pq/cpqhwxl6maeat47rq7mf5etgnvckbyxb27ldsh7k57oru2upxyso.py":28:34)
#loc14 = loc("inductor_cache/pq/cpqhwxl6maeat47rq7mf5etgnvckbyxb27ldsh7k57oru2upxyso.py":28:30)
#loc15 = loc("inductor_cache/pq/cpqhwxl6maeat47rq7mf5etgnvckbyxb27ldsh7k57oru2upxyso.py":28:41)
#loc16 = loc("inductor_cache/pq/cpqhwxl6maeat47rq7mf5etgnvckbyxb27ldsh7k57oru2upxyso.py":29:30)
#loc17 = loc("inductor_cache/pq/cpqhwxl6maeat47rq7mf5etgnvckbyxb27ldsh7k57oru2upxyso.py":29:19)
#loc18 = loc("inductor_cache/pq/cpqhwxl6maeat47rq7mf5etgnvckbyxb27ldsh7k57oru2upxyso.py":30:33)
#loc19 = loc("inductor_cache/pq/cpqhwxl6maeat47rq7mf5etgnvckbyxb27ldsh7k57oru2upxyso.py":31:34)
#loc20 = loc("inductor_cache/pq/cpqhwxl6maeat47rq7mf5etgnvckbyxb27ldsh7k57oru2upxyso.py":31:30)
#loc21 = loc("inductor_cache/pq/cpqhwxl6maeat47rq7mf5etgnvckbyxb27ldsh7k57oru2upxyso.py":31:41)
#loc22 = loc("inductor_cache/pq/cpqhwxl6maeat47rq7mf5etgnvckbyxb27ldsh7k57oru2upxyso.py":32:31)
#loc23 = loc("inductor_cache/pq/cpqhwxl6maeat47rq7mf5etgnvckbyxb27ldsh7k57oru2upxyso.py":32:20)
#loc24 = loc("inductor_cache/pq/cpqhwxl6maeat47rq7mf5etgnvckbyxb27ldsh7k57oru2upxyso.py":33:35)
#loc25 = loc("inductor_cache/pq/cpqhwxl6maeat47rq7mf5etgnvckbyxb27ldsh7k57oru2upxyso.py":34:35)
#loc26 = loc("inductor_cache/pq/cpqhwxl6maeat47rq7mf5etgnvckbyxb27ldsh7k57oru2upxyso.py":34:31)
#loc27 = loc("inductor_cache/pq/cpqhwxl6maeat47rq7mf5etgnvckbyxb27ldsh7k57oru2upxyso.py":34:42)
#loc28 = loc("inductor_cache/pq/cpqhwxl6maeat47rq7mf5etgnvckbyxb27ldsh7k57oru2upxyso.py":35:31)
#loc29 = loc("inductor_cache/pq/cpqhwxl6maeat47rq7mf5etgnvckbyxb27ldsh7k57oru2upxyso.py":35:20)
#loc30 = loc("inductor_cache/pq/cpqhwxl6maeat47rq7mf5etgnvckbyxb27ldsh7k57oru2upxyso.py":36:35)
#loc31 = loc("inductor_cache/pq/cpqhwxl6maeat47rq7mf5etgnvckbyxb27ldsh7k57oru2upxyso.py":37:18)
#loc32 = loc("inductor_cache/pq/cpqhwxl6maeat47rq7mf5etgnvckbyxb27ldsh7k57oru2upxyso.py":38:18)
#loc33 = loc("inductor_cache/pq/cpqhwxl6maeat47rq7mf5etgnvckbyxb27ldsh7k57oru2upxyso.py":39:18)
#loc34 = loc("inductor_cache/pq/cpqhwxl6maeat47rq7mf5etgnvckbyxb27ldsh7k57oru2upxyso.py":40:19)
#loc35 = loc("inductor_cache/pq/cpqhwxl6maeat47rq7mf5etgnvckbyxb27ldsh7k57oru2upxyso.py":41:19)
#loc36 = loc("inductor_cache/pq/cpqhwxl6maeat47rq7mf5etgnvckbyxb27ldsh7k57oru2upxyso.py":42:20)
#loc37 = loc("inductor_cache/pq/cpqhwxl6maeat47rq7mf5etgnvckbyxb27ldsh7k57oru2upxyso.py":43:20)
#loc38 = loc("inductor_cache/pq/cpqhwxl6maeat47rq7mf5etgnvckbyxb27ldsh7k57oru2upxyso.py":44:25)
#loc39 = loc("inductor_cache/pq/cpqhwxl6maeat47rq7mf5etgnvckbyxb27ldsh7k57oru2upxyso.py":44:37)
#loc40 = loc("inductor_cache/pq/cpqhwxl6maeat47rq7mf5etgnvckbyxb27ldsh7k57oru2upxyso.py":44:4)
