#loc = loc("inductor_cache/36/c36vbyib3zgziboyuky4i54s5ggkzs77qlvih5tew45kz4ahagco.py":19:0)
#loc1 = loc(unknown)
#loc30 = loc("inductor_cache/36/c36vbyib3zgziboyuky4i54s5ggkzs77qlvih5tew45kz4ahagco.py":53:59)
#loc46 = loc(callsite(#loc1 at #loc30))
module {
  tt.func public @triton_per_fused_binary_cross_entropy_with_logits_div_exp_mean_mul_rsub_sigmoid_sub_0(%arg0: !tt.ptr<f32> {tt.divisibility = 16 : i32} loc("inductor_cache/36/c36vbyib3zgziboyuky4i54s5ggkzs77qlvih5tew45kz4ahagco.py":19:0), %arg1: !tt.ptr<f32> {tt.divisibility = 16 : i32} loc("inductor_cache/36/c36vbyib3zgziboyuky4i54s5ggkzs77qlvih5tew45kz4ahagco.py":19:0), %arg2: !tt.ptr<f32> {tt.divisibility = 16 : i32} loc("inductor_cache/36/c36vbyib3zgziboyuky4i54s5ggkzs77qlvih5tew45kz4ahagco.py":19:0), %arg3: i32 {tt.divisibility = 16 : i32} loc("inductor_cache/36/c36vbyib3zgziboyuky4i54s5ggkzs77qlvih5tew45kz4ahagco.py":19:0)) attributes {noinline = false} {
    %c0_i32 = arith.constant 0 : i32 loc(#loc1)
    %cst = arith.constant 2.560000e+02 : f32 loc(#loc1)
    %cst_0 = arith.constant 0.000000e+00 : f32 loc(#loc1)
    %cst_1 = arith.constant dense<19.9600792> : tensor<256xf32> loc(#loc1)
    %cst_2 = arith.constant dense<0.000000e+00> : tensor<256xf32> loc(#loc1)
    %cst_3 = arith.constant dense<1.000000e+00> : tensor<256xf32> loc(#loc1)
    %0 = tt.make_range {end = 256 : i32, start = 0 : i32} : tensor<256xi32> loc(#loc2)
    %1 = tt.splat %arg1 : !tt.ptr<f32> -> tensor<256x!tt.ptr<f32>> loc(#loc3)
    %2 = tt.addptr %1, %0 : tensor<256x!tt.ptr<f32>>, tensor<256xi32> loc(#loc3)
    %3 = tt.load %2 : tensor<256x!tt.ptr<f32>> loc(#loc4)
    %4 = tt.splat %arg2 : !tt.ptr<f32> -> tensor<256x!tt.ptr<f32>> loc(#loc5)
    %5 = tt.addptr %4, %0 : tensor<256x!tt.ptr<f32>>, tensor<256xi32> loc(#loc5)
    %6 = tt.load %5 : tensor<256x!tt.ptr<f32>> loc(#loc6)
    %7 = arith.subf %cst_3, %3 : tensor<256xf32> loc(#loc7)
    %8 = arith.mulf %7, %6 : tensor<256xf32> loc(#loc8)
    %9 = arith.cmpf olt, %cst_2, %6 : tensor<256xf32> loc(#loc39)
    %10 = arith.select %9, %cst_2, %6 : tensor<256xi1>, tensor<256xf32> loc(#loc40)
    %11 = math.absf %6 : tensor<256xf32> loc(#loc12)
    %12 = arith.subf %cst_2, %11 : tensor<256xf32> loc(#loc13)
    %13 = math.exp %12 : tensor<256xf32> loc(#loc14)
    %14 = tt.extern_elementwise %13 {libname = "", libpath = "", pure = true, symbol = "__nv_log1pf"} : (tensor<256xf32>) -> tensor<256xf32> loc(#loc15)
    %15 = arith.subf %10, %14 : tensor<256xf32> loc(#loc16)
    %16 = arith.subf %8, %15 : tensor<256xf32> loc(#loc17)
    %17 = arith.subf %cst_2, %6 : tensor<256xf32> loc(#loc41)
    %18 = math.exp %17 : tensor<256xf32> loc(#loc42)
    %19 = arith.addf %18, %cst_3 : tensor<256xf32> loc(#loc43)
    %20 = arith.divf %cst_3, %19 : tensor<256xf32> loc(#loc44)
    %21 = arith.subf %20, %3 : tensor<256xf32> loc(#loc23)
    %22 = arith.subf %21, %cst_3 : tensor<256xf32> loc(#loc24)
    %23 = arith.mulf %22, %cst_1 : tensor<256xf32> loc(#loc25)
    %24 = math.exp %23 : tensor<256xf32> loc(#loc26)
    %25 = arith.subf %cst_3, %24 : tensor<256xf32> loc(#loc27)
    %26 = arith.mulf %16, %25 : tensor<256xf32> loc(#loc28)
    %27 = "tt.reduce"(%26) <{axis = 0 : i32}> ({
    ^bb0(%arg4: f32 loc(callsite(#loc1 at #loc30)), %arg5: f32 loc(callsite(#loc1 at #loc30))):
      %33 = arith.addf %arg4, %arg5 : f32 loc(#loc49)
      tt.reduce.return %33 : f32 loc(#loc45)
    }) : (tensor<256xf32>) -> f32 loc(#loc45)
    %28 = arith.addf %27, %cst_0 : f32 loc(#loc48)
    %29 = arith.divf %28, %cst : f32 loc(#loc34)
    %30 = tt.splat %29 : f32 -> tensor<1xf32> loc(#loc34)
    gpu.barrier loc(#loc35)
    %31 = tt.addptr %arg0, %c0_i32 : !tt.ptr<f32>, i32 loc(#loc36)
    %32 = tt.splat %31 : !tt.ptr<f32> -> tensor<1x!tt.ptr<f32>> loc(#loc36)
    tt.store %32, %30 : tensor<1x!tt.ptr<f32>> loc(#loc37)
    tt.return loc(#loc38)
  } loc(#loc)
} loc(#loc)
#loc2 = loc("inductor_cache/36/c36vbyib3zgziboyuky4i54s5ggkzs77qlvih5tew45kz4ahagco.py":27:26)
#loc3 = loc("inductor_cache/36/c36vbyib3zgziboyuky4i54s5ggkzs77qlvih5tew45kz4ahagco.py":31:30)
#loc4 = loc("inductor_cache/36/c36vbyib3zgziboyuky4i54s5ggkzs77qlvih5tew45kz4ahagco.py":31:35)
#loc5 = loc("inductor_cache/36/c36vbyib3zgziboyuky4i54s5ggkzs77qlvih5tew45kz4ahagco.py":32:30)
#loc6 = loc("inductor_cache/36/c36vbyib3zgziboyuky4i54s5ggkzs77qlvih5tew45kz4ahagco.py":32:35)
#loc7 = loc("inductor_cache/36/c36vbyib3zgziboyuky4i54s5ggkzs77qlvih5tew45kz4ahagco.py":34:18)
#loc8 = loc("inductor_cache/36/c36vbyib3zgziboyuky4i54s5ggkzs77qlvih5tew45kz4ahagco.py":35:18)
#loc9 = loc("/home/sahanp/.conda/envs/parity-bench/lib/python3.12/site-packages/torch/_inductor/runtime/triton_helpers.py":110:15)
#loc10 = loc("inductor_cache/36/c36vbyib3zgziboyuky4i54s5ggkzs77qlvih5tew45kz4ahagco.py":37:40)
#loc11 = loc("/home/sahanp/.conda/envs/parity-bench/lib/python3.12/site-packages/torch/_inductor/runtime/triton_helpers.py":113:29)
#loc12 = loc("inductor_cache/36/c36vbyib3zgziboyuky4i54s5ggkzs77qlvih5tew45kz4ahagco.py":38:23)
#loc13 = loc("inductor_cache/36/c36vbyib3zgziboyuky4i54s5ggkzs77qlvih5tew45kz4ahagco.py":39:12)
#loc14 = loc("inductor_cache/36/c36vbyib3zgziboyuky4i54s5ggkzs77qlvih5tew45kz4ahagco.py":40:23)
#loc15 = loc("inductor_cache/36/c36vbyib3zgziboyuky4i54s5ggkzs77qlvih5tew45kz4ahagco.py":41:28)
#loc16 = loc("inductor_cache/36/c36vbyib3zgziboyuky4i54s5ggkzs77qlvih5tew45kz4ahagco.py":42:19)
#loc17 = loc("inductor_cache/36/c36vbyib3zgziboyuky4i54s5ggkzs77qlvih5tew45kz4ahagco.py":43:19)
#loc18 = loc("/home/sahanp/.conda/envs/parity-bench/lib/python3.12/site-packages/triton/language/standard.py":47:30)
#loc19 = loc("inductor_cache/36/c36vbyib3zgziboyuky4i54s5ggkzs77qlvih5tew45kz4ahagco.py":44:23)
#loc20 = loc("/home/sahanp/.conda/envs/parity-bench/lib/python3.12/site-packages/triton/language/standard.py":47:29)
#loc21 = loc("/home/sahanp/.conda/envs/parity-bench/lib/python3.12/site-packages/triton/language/standard.py":47:20)
#loc22 = loc("/home/sahanp/.conda/envs/parity-bench/lib/python3.12/site-packages/triton/language/standard.py":47:16)
#loc23 = loc("inductor_cache/36/c36vbyib3zgziboyuky4i54s5ggkzs77qlvih5tew45kz4ahagco.py":45:20)
#loc24 = loc("inductor_cache/36/c36vbyib3zgziboyuky4i54s5ggkzs77qlvih5tew45kz4ahagco.py":46:20)
#loc25 = loc("inductor_cache/36/c36vbyib3zgziboyuky4i54s5ggkzs77qlvih5tew45kz4ahagco.py":48:20)
#loc26 = loc("inductor_cache/36/c36vbyib3zgziboyuky4i54s5ggkzs77qlvih5tew45kz4ahagco.py":49:24)
#loc27 = loc("inductor_cache/36/c36vbyib3zgziboyuky4i54s5ggkzs77qlvih5tew45kz4ahagco.py":50:19)
#loc28 = loc("inductor_cache/36/c36vbyib3zgziboyuky4i54s5ggkzs77qlvih5tew45kz4ahagco.py":51:20)
#loc29 = loc("/home/sahanp/.conda/envs/parity-bench/lib/python3.12/site-packages/triton/language/standard.py":267:36)
#loc31 = loc("/home/sahanp/.conda/envs/parity-bench/lib/python3.12/site-packages/triton/language/standard.py":256:15)
#loc32 = loc("/home/sahanp/.conda/envs/parity-bench/lib/python3.12/site-packages/torch/_inductor/runtime/triton_helpers.py":73:15)
#loc33 = loc("inductor_cache/36/c36vbyib3zgziboyuky4i54s5ggkzs77qlvih5tew45kz4ahagco.py":53:45)
#loc34 = loc("inductor_cache/36/c36vbyib3zgziboyuky4i54s5ggkzs77qlvih5tew45kz4ahagco.py":55:20)
#loc35 = loc("inductor_cache/36/c36vbyib3zgziboyuky4i54s5ggkzs77qlvih5tew45kz4ahagco.py":56:4)
#loc36 = loc("inductor_cache/36/c36vbyib3zgziboyuky4i54s5ggkzs77qlvih5tew45kz4ahagco.py":57:28)
#loc37 = loc("inductor_cache/36/c36vbyib3zgziboyuky4i54s5ggkzs77qlvih5tew45kz4ahagco.py":57:63)
#loc38 = loc("inductor_cache/36/c36vbyib3zgziboyuky4i54s5ggkzs77qlvih5tew45kz4ahagco.py":57:4)
#loc39 = loc(callsite(#loc9 at #loc10))
#loc40 = loc(callsite(#loc11 at #loc10))
#loc41 = loc(callsite(#loc18 at #loc19))
#loc42 = loc(callsite(#loc20 at #loc19))
#loc43 = loc(callsite(#loc21 at #loc19))
#loc44 = loc(callsite(#loc22 at #loc19))
#loc45 = loc(callsite(#loc29 at #loc30))
#loc47 = loc(callsite(#loc31 at #loc29))
#loc48 = loc(callsite(#loc32 at #loc33))
#loc49 = loc(callsite(#loc47 at #loc30))
