#loc = loc("inductor_cache/h3/ch3enj2j5f3wlyidntbcapchbxskuh7cwgznatra66c6ltfwnqvf.py":19:0)
#loc1 = loc(unknown)
#loc16 = loc("inductor_cache/h3/ch3enj2j5f3wlyidntbcapchbxskuh7cwgznatra66c6ltfwnqvf.py":39:24)
#loc23 = loc("inductor_cache/h3/ch3enj2j5f3wlyidntbcapchbxskuh7cwgznatra66c6ltfwnqvf.py":47:26)
#loc36 = loc(callsite(#loc1 at #loc16))
#loc39 = loc(callsite(#loc1 at #loc23))
module {
  tt.func public @triton_per_fused__native_batch_norm_legit_convolution_8(%arg0: !tt.ptr<f32> {tt.divisibility = 16 : i32} loc("inductor_cache/h3/ch3enj2j5f3wlyidntbcapchbxskuh7cwgznatra66c6ltfwnqvf.py":19:0), %arg1: !tt.ptr<f32> {tt.divisibility = 16 : i32} loc("inductor_cache/h3/ch3enj2j5f3wlyidntbcapchbxskuh7cwgznatra66c6ltfwnqvf.py":19:0), %arg2: !tt.ptr<f32> {tt.divisibility = 16 : i32} loc("inductor_cache/h3/ch3enj2j5f3wlyidntbcapchbxskuh7cwgznatra66c6ltfwnqvf.py":19:0), %arg3: !tt.ptr<f32> {tt.divisibility = 16 : i32} loc("inductor_cache/h3/ch3enj2j5f3wlyidntbcapchbxskuh7cwgznatra66c6ltfwnqvf.py":19:0), %arg4: i32 {tt.divisibility = 16 : i32} loc("inductor_cache/h3/ch3enj2j5f3wlyidntbcapchbxskuh7cwgznatra66c6ltfwnqvf.py":19:0), %arg5: i32 {tt.divisibility = 16 : i32} loc("inductor_cache/h3/ch3enj2j5f3wlyidntbcapchbxskuh7cwgznatra66c6ltfwnqvf.py":19:0)) attributes {noinline = false} {
    %c64_i32 = arith.constant 64 : i32 loc(#loc1)
    %c256_i32 = arith.constant 256 : i32 loc(#loc1)
    %c1024_i32 = arith.constant 1024 : i32 loc(#loc1)
    %cst = arith.constant dense<9.99999974E-6> : tensor<1x1xf32> loc(#loc1)
    %cst_0 = arith.constant dense<6.400000e+01> : tensor<1x1xf32> loc(#loc1)
    %cst_1 = arith.constant dense<0.000000e+00> : tensor<1x64xf32> loc(#loc1)
    %0 = tt.get_program_id x : i32 loc(#loc2)
    %1 = arith.cmpi slt, %0, %c1024_i32 : i32 loc(#loc3)
    %2 = tt.splat %1 : i1 -> tensor<1x1xi1> loc(#loc3)
    %3 = tt.make_range {end = 64 : i32, start = 0 : i32} : tensor<64xi32> loc(#loc4)
    %4 = tt.expand_dims %3 {axis = 0 : i32} : tensor<64xi32> -> tensor<1x64xi32> loc(#loc5)
    %5 = arith.remsi %0, %c256_i32 : i32 loc(#loc6)
    %6 = arith.muli %0, %c64_i32 : i32 loc(#loc7)
    %7 = tt.splat %6 : i32 -> tensor<1x64xi32> loc(#loc8)
    %8 = arith.addi %4, %7 : tensor<1x64xi32> loc(#loc8)
    %9 = tt.splat %arg0 : !tt.ptr<f32> -> tensor<1x64x!tt.ptr<f32>> loc(#loc9)
    %10 = tt.addptr %9, %8 : tensor<1x64x!tt.ptr<f32>>, tensor<1x64xi32> loc(#loc9)
    %11 = tt.splat %1 : i1 -> tensor<1x64xi1> loc(#loc10)
    %12 = tt.load %10, %11, %cst_1 : tensor<1x64x!tt.ptr<f32>> loc(#loc10)
    %13 = tt.addptr %arg2, %5 : !tt.ptr<f32>, i32 loc(#loc11)
    %14 = tt.splat %13 : !tt.ptr<f32> -> tensor<1x1x!tt.ptr<f32>> loc(#loc11)
    %15 = tt.load %14, %2 evictionPolicy = evict_last : tensor<1x1x!tt.ptr<f32>> loc(#loc12)
    %16 = tt.broadcast %15 : tensor<1x1xf32> -> tensor<1x64xf32> loc(#loc13)
    %17 = arith.addf %12, %16 : tensor<1x64xf32> loc(#loc13)
    %18 = arith.select %11, %17, %cst_1 : tensor<1x64xi1>, tensor<1x64xf32> loc(#loc14)
    %19 = "tt.reduce"(%18) <{axis = 1 : i32}> ({
    ^bb0(%arg6: f32 loc(callsite(#loc1 at #loc16)), %arg7: f32 loc(callsite(#loc1 at #loc16))):
      %35 = arith.addf %arg6, %arg7 : f32 loc(#loc40)
      tt.reduce.return %35 : f32 loc(#loc35)
    }) : (tensor<1x64xf32>) -> tensor<1xf32> loc(#loc35)
    %20 = tt.expand_dims %19 {axis = 1 : i32} : tensor<1xf32> -> tensor<1x1xf32> loc(#loc18)
    %21 = arith.divf %20, %cst_0 : tensor<1x1xf32> loc(#loc19)
    %22 = tt.broadcast %21 : tensor<1x1xf32> -> tensor<1x64xf32> loc(#loc20)
    %23 = arith.subf %17, %22 : tensor<1x64xf32> loc(#loc20)
    %24 = arith.mulf %23, %23 : tensor<1x64xf32> loc(#loc21)
    %25 = arith.select %11, %24, %cst_1 : tensor<1x64xi1>, tensor<1x64xf32> loc(#loc22)
    %26 = "tt.reduce"(%25) <{axis = 1 : i32}> ({
    ^bb0(%arg6: f32 loc(callsite(#loc1 at #loc23)), %arg7: f32 loc(callsite(#loc1 at #loc23))):
      %35 = arith.addf %arg6, %arg7 : f32 loc(#loc41)
      tt.reduce.return %35 : f32 loc(#loc38)
    }) : (tensor<1x64xf32>) -> tensor<1xf32> loc(#loc38)
    %27 = tt.expand_dims %26 {axis = 1 : i32} : tensor<1xf32> -> tensor<1x1xf32> loc(#loc24)
    %28 = arith.divf %27, %cst_0 : tensor<1x1xf32> loc(#loc25)
    %29 = arith.addf %28, %cst : tensor<1x1xf32> loc(#loc26)
    %30 = tt.extern_elementwise %29 {libname = "", libpath = "", pure = true, symbol = "__nv_rsqrtf"} : (tensor<1x1xf32>) -> tensor<1x1xf32> loc(#loc27)
    tt.store %10, %17, %11 : tensor<1x64x!tt.ptr<f32>> loc(#loc28)
    gpu.barrier loc(#loc29)
    %31 = tt.addptr %arg1, %0 : !tt.ptr<f32>, i32 loc(#loc30)
    %32 = tt.splat %31 : !tt.ptr<f32> -> tensor<1x1x!tt.ptr<f32>> loc(#loc30)
    tt.store %32, %30, %2 : tensor<1x1x!tt.ptr<f32>> loc(#loc31)
    %33 = tt.addptr %arg3, %0 : !tt.ptr<f32>, i32 loc(#loc32)
    %34 = tt.splat %33 : !tt.ptr<f32> -> tensor<1x1x!tt.ptr<f32>> loc(#loc32)
    tt.store %34, %21, %2 : tensor<1x1x!tt.ptr<f32>> loc(#loc33)
    tt.return loc(#loc34)
  } loc(#loc)
} loc(#loc)
#loc2 = loc("inductor_cache/h3/ch3enj2j5f3wlyidntbcapchbxskuh7cwgznatra66c6ltfwnqvf.py":23:28)
#loc3 = loc("inductor_cache/h3/ch3enj2j5f3wlyidntbcapchbxskuh7cwgznatra66c6ltfwnqvf.py":25:21)
#loc4 = loc("inductor_cache/h3/ch3enj2j5f3wlyidntbcapchbxskuh7cwgznatra66c6ltfwnqvf.py":26:26)
#loc5 = loc("inductor_cache/h3/ch3enj2j5f3wlyidntbcapchbxskuh7cwgznatra66c6ltfwnqvf.py":26:34)
#loc6 = loc("inductor_cache/h3/ch3enj2j5f3wlyidntbcapchbxskuh7cwgznatra66c6ltfwnqvf.py":31:19)
#loc7 = loc("inductor_cache/h3/ch3enj2j5f3wlyidntbcapchbxskuh7cwgznatra66c6ltfwnqvf.py":32:42)
#loc8 = loc("inductor_cache/h3/ch3enj2j5f3wlyidntbcapchbxskuh7cwgznatra66c6ltfwnqvf.py":32:39)
#loc9 = loc("inductor_cache/h3/ch3enj2j5f3wlyidntbcapchbxskuh7cwgznatra66c6ltfwnqvf.py":32:34)
#loc10 = loc("inductor_cache/h3/ch3enj2j5f3wlyidntbcapchbxskuh7cwgznatra66c6ltfwnqvf.py":32:47)
#loc11 = loc("inductor_cache/h3/ch3enj2j5f3wlyidntbcapchbxskuh7cwgznatra66c6ltfwnqvf.py":33:30)
#loc12 = loc("inductor_cache/h3/ch3enj2j5f3wlyidntbcapchbxskuh7cwgznatra66c6ltfwnqvf.py":33:35)
#loc13 = loc("inductor_cache/h3/ch3enj2j5f3wlyidntbcapchbxskuh7cwgznatra66c6ltfwnqvf.py":34:18)
#loc14 = loc("inductor_cache/h3/ch3enj2j5f3wlyidntbcapchbxskuh7cwgznatra66c6ltfwnqvf.py":38:33)
#loc15 = loc("/home/sahanp/.conda/envs/parity-bench/lib/python3.12/site-packages/triton/language/standard.py":267:36)
#loc17 = loc("/home/sahanp/.conda/envs/parity-bench/lib/python3.12/site-packages/triton/language/standard.py":256:15)
#loc18 = loc("inductor_cache/h3/ch3enj2j5f3wlyidntbcapchbxskuh7cwgznatra66c6ltfwnqvf.py":39:27)
#loc19 = loc("inductor_cache/h3/ch3enj2j5f3wlyidntbcapchbxskuh7cwgznatra66c6ltfwnqvf.py":42:19)
#loc20 = loc("inductor_cache/h3/ch3enj2j5f3wlyidntbcapchbxskuh7cwgznatra66c6ltfwnqvf.py":43:19)
#loc21 = loc("inductor_cache/h3/ch3enj2j5f3wlyidntbcapchbxskuh7cwgznatra66c6ltfwnqvf.py":44:20)
#loc22 = loc("inductor_cache/h3/ch3enj2j5f3wlyidntbcapchbxskuh7cwgznatra66c6ltfwnqvf.py":46:35)
#loc24 = loc("inductor_cache/h3/ch3enj2j5f3wlyidntbcapchbxskuh7cwgznatra66c6ltfwnqvf.py":47:29)
#loc25 = loc("inductor_cache/h3/ch3enj2j5f3wlyidntbcapchbxskuh7cwgznatra66c6ltfwnqvf.py":49:20)
#loc26 = loc("inductor_cache/h3/ch3enj2j5f3wlyidntbcapchbxskuh7cwgznatra66c6ltfwnqvf.py":51:20)
#loc27 = loc("inductor_cache/h3/ch3enj2j5f3wlyidntbcapchbxskuh7cwgznatra66c6ltfwnqvf.py":52:28)
#loc28 = loc("inductor_cache/h3/ch3enj2j5f3wlyidntbcapchbxskuh7cwgznatra66c6ltfwnqvf.py":53:47)
#loc29 = loc("inductor_cache/h3/ch3enj2j5f3wlyidntbcapchbxskuh7cwgznatra66c6ltfwnqvf.py":54:4)
#loc30 = loc("inductor_cache/h3/ch3enj2j5f3wlyidntbcapchbxskuh7cwgznatra66c6ltfwnqvf.py":55:28)
#loc31 = loc("inductor_cache/h3/ch3enj2j5f3wlyidntbcapchbxskuh7cwgznatra66c6ltfwnqvf.py":55:40)
#loc32 = loc("inductor_cache/h3/ch3enj2j5f3wlyidntbcapchbxskuh7cwgznatra66c6ltfwnqvf.py":56:25)
#loc33 = loc("inductor_cache/h3/ch3enj2j5f3wlyidntbcapchbxskuh7cwgznatra66c6ltfwnqvf.py":56:37)
#loc34 = loc("inductor_cache/h3/ch3enj2j5f3wlyidntbcapchbxskuh7cwgznatra66c6ltfwnqvf.py":56:4)
#loc35 = loc(callsite(#loc15 at #loc16))
#loc37 = loc(callsite(#loc17 at #loc15))
#loc38 = loc(callsite(#loc15 at #loc23))
#loc40 = loc(callsite(#loc37 at #loc16))
#loc41 = loc(callsite(#loc37 at #loc23))
