#loc = loc("inductor_cache/vs/cvsc36iptsv2cfg5djtaknliti74ddda4nwuwx446wlek6af2hpp.py":19:0)
#loc1 = loc(unknown)
#loc23 = loc("inductor_cache/vs/cvsc36iptsv2cfg5djtaknliti74ddda4nwuwx446wlek6af2hpp.py":40:24)
#loc30 = loc("inductor_cache/vs/cvsc36iptsv2cfg5djtaknliti74ddda4nwuwx446wlek6af2hpp.py":48:26)
#loc49 = loc(callsite(#loc1 at #loc23))
#loc52 = loc(callsite(#loc1 at #loc30))
module {
  tt.func public @triton_per_fused_native_layer_norm_2(%arg0: !tt.ptr<f32> {tt.divisibility = 16 : i32} loc("inductor_cache/vs/cvsc36iptsv2cfg5djtaknliti74ddda4nwuwx446wlek6af2hpp.py":19:0), %arg1: !tt.ptr<f32> {tt.divisibility = 16 : i32} loc("inductor_cache/vs/cvsc36iptsv2cfg5djtaknliti74ddda4nwuwx446wlek6af2hpp.py":19:0), %arg2: !tt.ptr<f32> {tt.divisibility = 16 : i32} loc("inductor_cache/vs/cvsc36iptsv2cfg5djtaknliti74ddda4nwuwx446wlek6af2hpp.py":19:0), %arg3: !tt.ptr<f32> {tt.divisibility = 16 : i32} loc("inductor_cache/vs/cvsc36iptsv2cfg5djtaknliti74ddda4nwuwx446wlek6af2hpp.py":19:0), %arg4: !tt.ptr<f32> {tt.divisibility = 16 : i32} loc("inductor_cache/vs/cvsc36iptsv2cfg5djtaknliti74ddda4nwuwx446wlek6af2hpp.py":19:0), %arg5: !tt.ptr<f32> {tt.divisibility = 16 : i32} loc("inductor_cache/vs/cvsc36iptsv2cfg5djtaknliti74ddda4nwuwx446wlek6af2hpp.py":19:0), %arg6: i32 {tt.divisibility = 16 : i32} loc("inductor_cache/vs/cvsc36iptsv2cfg5djtaknliti74ddda4nwuwx446wlek6af2hpp.py":19:0), %arg7: i32 {tt.divisibility = 16 : i32} loc("inductor_cache/vs/cvsc36iptsv2cfg5djtaknliti74ddda4nwuwx446wlek6af2hpp.py":19:0)) attributes {noinline = false} {
    %cst = arith.constant dense<9.99999974E-6> : tensor<32x1xf32> loc(#loc1)
    %cst_0 = arith.constant dense<3.200000e+01> : tensor<32x1xf32> loc(#loc1)
    %cst_1 = arith.constant dense<32> : tensor<32x1xi32> loc(#loc1)
    %cst_2 = arith.constant dense<0.000000e+00> : tensor<32x32xf32> loc(#loc1)
    %cst_3 = arith.constant dense<2048> : tensor<32x1xi32> loc(#loc1)
    %cst_4 = arith.constant dense<64> : tensor<1x32xi32> loc(#loc1)
    %cst_5 = arith.constant dense<64> : tensor<32x1xi32> loc(#loc1)
    %cst_6 = arith.constant dense<256> : tensor<32x1xi32> loc(#loc1)
    %c32_i32 = arith.constant 32 : i32 loc(#loc1)
    %0 = tt.get_program_id x : i32 loc(#loc2)
    %1 = arith.muli %0, %c32_i32 : i32 loc(#loc3)
    %2 = tt.make_range {end = 32 : i32, start = 0 : i32} : tensor<32xi32> loc(#loc4)
    %3 = tt.expand_dims %2 {axis = 1 : i32} : tensor<32xi32> -> tensor<32x1xi32> loc(#loc5)
    %4 = tt.splat %1 : i32 -> tensor<32x1xi32> loc(#loc6)
    %5 = arith.addi %4, %3 : tensor<32x1xi32> loc(#loc6)
    %6 = arith.cmpi slt, %5, %cst_6 : tensor<32x1xi32> loc(#loc7)
    %7 = tt.expand_dims %2 {axis = 0 : i32} : tensor<32xi32> -> tensor<1x32xi32> loc(#loc8)
    %8 = arith.remsi %5, %cst_5 : tensor<32x1xi32> loc(#loc9)
    %9 = arith.divsi %5, %cst_5 : tensor<32x1xi32> loc(#loc10)
    %10 = arith.muli %7, %cst_4 : tensor<1x32xi32> loc(#loc11)
    %11 = tt.broadcast %8 : tensor<32x1xi32> -> tensor<32x32xi32> loc(#loc12)
    %12 = tt.broadcast %10 : tensor<1x32xi32> -> tensor<32x32xi32> loc(#loc12)
    %13 = arith.addi %11, %12 : tensor<32x32xi32> loc(#loc12)
    %14 = arith.muli %9, %cst_3 : tensor<32x1xi32> loc(#loc13)
    %15 = tt.broadcast %14 : tensor<32x1xi32> -> tensor<32x32xi32> loc(#loc14)
    %16 = arith.addi %13, %15 : tensor<32x32xi32> loc(#loc14)
    %17 = tt.splat %arg1 : !tt.ptr<f32> -> tensor<32x32x!tt.ptr<f32>> loc(#loc15)
    %18 = tt.addptr %17, %16 : tensor<32x32x!tt.ptr<f32>>, tensor<32x32xi32> loc(#loc15)
    %19 = tt.broadcast %6 : tensor<32x1xi1> -> tensor<32x32xi1> loc(#loc16)
    %20 = tt.load %18, %19, %cst_2 : tensor<32x32x!tt.ptr<f32>> loc(#loc16)
    %21 = tt.splat %arg2 : !tt.ptr<f32> -> tensor<1x32x!tt.ptr<f32>> loc(#loc17)
    %22 = tt.addptr %21, %7 : tensor<1x32x!tt.ptr<f32>>, tensor<1x32xi32> loc(#loc17)
    %23 = tt.load %22 evictionPolicy = evict_last : tensor<1x32x!tt.ptr<f32>> loc(#loc18)
    %24 = tt.splat %arg3 : !tt.ptr<f32> -> tensor<1x32x!tt.ptr<f32>> loc(#loc19)
    %25 = tt.addptr %24, %7 : tensor<1x32x!tt.ptr<f32>>, tensor<1x32xi32> loc(#loc19)
    %26 = tt.load %25 evictionPolicy = evict_last : tensor<1x32x!tt.ptr<f32>> loc(#loc20)
    %27 = arith.select %19, %20, %cst_2 : tensor<32x32xi1>, tensor<32x32xf32> loc(#loc21)
    %28 = "tt.reduce"(%27) <{axis = 1 : i32}> ({
    ^bb0(%arg8: f32 loc(callsite(#loc1 at #loc23)), %arg9: f32 loc(callsite(#loc1 at #loc23))):
      %56 = arith.addf %arg8, %arg9 : f32 loc(#loc53)
      tt.reduce.return %56 : f32 loc(#loc48)
    }) : (tensor<32x32xf32>) -> tensor<32xf32> loc(#loc48)
    %29 = tt.expand_dims %28 {axis = 1 : i32} : tensor<32xf32> -> tensor<32x1xf32> loc(#loc25)
    %30 = arith.divf %29, %cst_0 : tensor<32x1xf32> loc(#loc26)
    %31 = tt.broadcast %30 : tensor<32x1xf32> -> tensor<32x32xf32> loc(#loc27)
    %32 = arith.subf %20, %31 : tensor<32x32xf32> loc(#loc27)
    %33 = arith.mulf %32, %32 : tensor<32x32xf32> loc(#loc28)
    %34 = arith.select %19, %33, %cst_2 : tensor<32x32xi1>, tensor<32x32xf32> loc(#loc29)
    %35 = "tt.reduce"(%34) <{axis = 1 : i32}> ({
    ^bb0(%arg8: f32 loc(callsite(#loc1 at #loc30)), %arg9: f32 loc(callsite(#loc1 at #loc30))):
      %56 = arith.addf %arg8, %arg9 : f32 loc(#loc54)
      tt.reduce.return %56 : f32 loc(#loc51)
    }) : (tensor<32x32xf32>) -> tensor<32xf32> loc(#loc51)
    %36 = tt.expand_dims %35 {axis = 1 : i32} : tensor<32xf32> -> tensor<32x1xf32> loc(#loc31)
    %37 = arith.divf %36, %cst_0 : tensor<32x1xf32> loc(#loc32)
    %38 = arith.addf %37, %cst : tensor<32x1xf32> loc(#loc33)
    %39 = tt.extern_elementwise %38 {libname = "", libpath = "", pure = true, symbol = "__nv_rsqrtf"} : (tensor<32x1xf32>) -> tensor<32x1xf32> loc(#loc34)
    %40 = tt.broadcast %39 : tensor<32x1xf32> -> tensor<32x32xf32> loc(#loc35)
    %41 = arith.mulf %32, %40 : tensor<32x32xf32> loc(#loc35)
    %42 = tt.broadcast %23 : tensor<1x32xf32> -> tensor<32x32xf32> loc(#loc36)
    %43 = arith.mulf %41, %42 : tensor<32x32xf32> loc(#loc36)
    %44 = tt.broadcast %26 : tensor<1x32xf32> -> tensor<32x32xf32> loc(#loc37)
    %45 = arith.addf %43, %44 : tensor<32x32xf32> loc(#loc37)
    gpu.barrier loc(#loc38)
    %46 = tt.splat %arg0 : !tt.ptr<f32> -> tensor<32x1x!tt.ptr<f32>> loc(#loc39)
    %47 = tt.addptr %46, %5 : tensor<32x1x!tt.ptr<f32>>, tensor<32x1xi32> loc(#loc39)
    tt.store %47, %39, %6 : tensor<32x1x!tt.ptr<f32>> loc(#loc40)
    %48 = arith.muli %5, %cst_1 : tensor<32x1xi32> loc(#loc41)
    %49 = tt.broadcast %7 : tensor<1x32xi32> -> tensor<32x32xi32> loc(#loc42)
    %50 = tt.broadcast %48 : tensor<32x1xi32> -> tensor<32x32xi32> loc(#loc42)
    %51 = arith.addi %49, %50 : tensor<32x32xi32> loc(#loc42)
    %52 = tt.splat %arg5 : !tt.ptr<f32> -> tensor<32x32x!tt.ptr<f32>> loc(#loc43)
    %53 = tt.addptr %52, %51 : tensor<32x32x!tt.ptr<f32>>, tensor<32x32xi32> loc(#loc43)
    tt.store %53, %45, %19 : tensor<32x32x!tt.ptr<f32>> loc(#loc44)
    %54 = tt.splat %arg4 : !tt.ptr<f32> -> tensor<32x1x!tt.ptr<f32>> loc(#loc45)
    %55 = tt.addptr %54, %5 : tensor<32x1x!tt.ptr<f32>>, tensor<32x1xi32> loc(#loc45)
    tt.store %55, %30, %6 : tensor<32x1x!tt.ptr<f32>> loc(#loc46)
    tt.return loc(#loc47)
  } loc(#loc)
} loc(#loc)
#loc2 = loc("inductor_cache/vs/cvsc36iptsv2cfg5djtaknliti74ddda4nwuwx446wlek6af2hpp.py":23:28)
#loc3 = loc("inductor_cache/vs/cvsc36iptsv2cfg5djtaknliti74ddda4nwuwx446wlek6af2hpp.py":23:33)
#loc4 = loc("inductor_cache/vs/cvsc36iptsv2cfg5djtaknliti74ddda4nwuwx446wlek6af2hpp.py":24:36)
#loc5 = loc("inductor_cache/vs/cvsc36iptsv2cfg5djtaknliti74ddda4nwuwx446wlek6af2hpp.py":24:44)
#loc6 = loc("inductor_cache/vs/cvsc36iptsv2cfg5djtaknliti74ddda4nwuwx446wlek6af2hpp.py":24:23)
#loc7 = loc("inductor_cache/vs/cvsc36iptsv2cfg5djtaknliti74ddda4nwuwx446wlek6af2hpp.py":25:21)
#loc8 = loc("inductor_cache/vs/cvsc36iptsv2cfg5djtaknliti74ddda4nwuwx446wlek6af2hpp.py":26:34)
#loc9 = loc("inductor_cache/vs/cvsc36iptsv2cfg5djtaknliti74ddda4nwuwx446wlek6af2hpp.py":30:19)
#loc10 = loc("inductor_cache/vs/cvsc36iptsv2cfg5djtaknliti74ddda4nwuwx446wlek6af2hpp.py":31:19)
#loc11 = loc("inductor_cache/vs/cvsc36iptsv2cfg5djtaknliti74ddda4nwuwx446wlek6af2hpp.py":33:38)
#loc12 = loc("inductor_cache/vs/cvsc36iptsv2cfg5djtaknliti74ddda4nwuwx446wlek6af2hpp.py":33:35)
#loc13 = loc("inductor_cache/vs/cvsc36iptsv2cfg5djtaknliti74ddda4nwuwx446wlek6af2hpp.py":33:48)
#loc14 = loc("inductor_cache/vs/cvsc36iptsv2cfg5djtaknliti74ddda4nwuwx446wlek6af2hpp.py":33:43)
#loc15 = loc("inductor_cache/vs/cvsc36iptsv2cfg5djtaknliti74ddda4nwuwx446wlek6af2hpp.py":33:30)
#loc16 = loc("inductor_cache/vs/cvsc36iptsv2cfg5djtaknliti74ddda4nwuwx446wlek6af2hpp.py":33:53)
#loc17 = loc("inductor_cache/vs/cvsc36iptsv2cfg5djtaknliti74ddda4nwuwx446wlek6af2hpp.py":34:31)
#loc18 = loc("inductor_cache/vs/cvsc36iptsv2cfg5djtaknliti74ddda4nwuwx446wlek6af2hpp.py":34:36)
#loc19 = loc("inductor_cache/vs/cvsc36iptsv2cfg5djtaknliti74ddda4nwuwx446wlek6af2hpp.py":35:31)
#loc20 = loc("inductor_cache/vs/cvsc36iptsv2cfg5djtaknliti74ddda4nwuwx446wlek6af2hpp.py":35:36)
#loc21 = loc("inductor_cache/vs/cvsc36iptsv2cfg5djtaknliti74ddda4nwuwx446wlek6af2hpp.py":39:33)
#loc22 = loc("/home/sahanp/.conda/envs/parity-bench/lib/python3.12/site-packages/triton/language/standard.py":267:36)
#loc24 = loc("/home/sahanp/.conda/envs/parity-bench/lib/python3.12/site-packages/triton/language/standard.py":256:15)
#loc25 = loc("inductor_cache/vs/cvsc36iptsv2cfg5djtaknliti74ddda4nwuwx446wlek6af2hpp.py":40:27)
#loc26 = loc("inductor_cache/vs/cvsc36iptsv2cfg5djtaknliti74ddda4nwuwx446wlek6af2hpp.py":43:19)
#loc27 = loc("inductor_cache/vs/cvsc36iptsv2cfg5djtaknliti74ddda4nwuwx446wlek6af2hpp.py":44:19)
#loc28 = loc("inductor_cache/vs/cvsc36iptsv2cfg5djtaknliti74ddda4nwuwx446wlek6af2hpp.py":45:20)
#loc29 = loc("inductor_cache/vs/cvsc36iptsv2cfg5djtaknliti74ddda4nwuwx446wlek6af2hpp.py":47:35)
#loc31 = loc("inductor_cache/vs/cvsc36iptsv2cfg5djtaknliti74ddda4nwuwx446wlek6af2hpp.py":48:29)
#loc32 = loc("inductor_cache/vs/cvsc36iptsv2cfg5djtaknliti74ddda4nwuwx446wlek6af2hpp.py":50:20)
#loc33 = loc("inductor_cache/vs/cvsc36iptsv2cfg5djtaknliti74ddda4nwuwx446wlek6af2hpp.py":52:20)
#loc34 = loc("inductor_cache/vs/cvsc36iptsv2cfg5djtaknliti74ddda4nwuwx446wlek6af2hpp.py":53:28)
#loc35 = loc("inductor_cache/vs/cvsc36iptsv2cfg5djtaknliti74ddda4nwuwx446wlek6af2hpp.py":55:20)
#loc36 = loc("inductor_cache/vs/cvsc36iptsv2cfg5djtaknliti74ddda4nwuwx446wlek6af2hpp.py":56:20)
#loc37 = loc("inductor_cache/vs/cvsc36iptsv2cfg5djtaknliti74ddda4nwuwx446wlek6af2hpp.py":57:20)
#loc38 = loc("inductor_cache/vs/cvsc36iptsv2cfg5djtaknliti74ddda4nwuwx446wlek6af2hpp.py":58:4)
#loc39 = loc("inductor_cache/vs/cvsc36iptsv2cfg5djtaknliti74ddda4nwuwx446wlek6af2hpp.py":59:28)
#loc40 = loc("inductor_cache/vs/cvsc36iptsv2cfg5djtaknliti74ddda4nwuwx446wlek6af2hpp.py":59:40)
#loc41 = loc("inductor_cache/vs/cvsc36iptsv2cfg5djtaknliti74ddda4nwuwx446wlek6af2hpp.py":60:33)
#loc42 = loc("inductor_cache/vs/cvsc36iptsv2cfg5djtaknliti74ddda4nwuwx446wlek6af2hpp.py":60:30)
#loc43 = loc("inductor_cache/vs/cvsc36iptsv2cfg5djtaknliti74ddda4nwuwx446wlek6af2hpp.py":60:25)
#loc44 = loc("inductor_cache/vs/cvsc36iptsv2cfg5djtaknliti74ddda4nwuwx446wlek6af2hpp.py":60:45)
#loc45 = loc("inductor_cache/vs/cvsc36iptsv2cfg5djtaknliti74ddda4nwuwx446wlek6af2hpp.py":61:25)
#loc46 = loc("inductor_cache/vs/cvsc36iptsv2cfg5djtaknliti74ddda4nwuwx446wlek6af2hpp.py":61:37)
#loc47 = loc("inductor_cache/vs/cvsc36iptsv2cfg5djtaknliti74ddda4nwuwx446wlek6af2hpp.py":61:4)
#loc48 = loc(callsite(#loc22 at #loc23))
#loc50 = loc(callsite(#loc24 at #loc22))
#loc51 = loc(callsite(#loc22 at #loc30))
#loc53 = loc(callsite(#loc50 at #loc23))
#loc54 = loc(callsite(#loc50 at #loc30))
