#loc = loc("inductor_cache/ba/cballwwqixcbqu75w5bhqycamvlah4sdhpp3ggc2yodihe3rvab7.py":19:0)
module {
  tt.func public @triton_poi_fused_silu_1(%arg0: !tt.ptr<f32> {tt.divisibility = 16 : i32} loc("inductor_cache/ba/cballwwqixcbqu75w5bhqycamvlah4sdhpp3ggc2yodihe3rvab7.py":19:0), %arg1: !tt.ptr<f32> {tt.divisibility = 16 : i32} loc("inductor_cache/ba/cballwwqixcbqu75w5bhqycamvlah4sdhpp3ggc2yodihe3rvab7.py":19:0), %arg2: i32 {tt.divisibility = 16 : i32} loc("inductor_cache/ba/cballwwqixcbqu75w5bhqycamvlah4sdhpp3ggc2yodihe3rvab7.py":19:0)) attributes {noinline = false} {
    %cst = arith.constant dense<0.000000e+00> : tensor<128xf32> loc(#loc1)
    %cst_0 = arith.constant dense<1.000000e+00> : tensor<128xf32> loc(#loc1)
    %cst_1 = arith.constant dense<512> : tensor<128xi32> loc(#loc1)
    %c128_i32 = arith.constant 128 : i32 loc(#loc1)
    %0 = tt.get_program_id x : i32 loc(#loc2)
    %1 = arith.muli %0, %c128_i32 : i32 loc(#loc3)
    %2 = tt.make_range {end = 128 : i32, start = 0 : i32} : tensor<128xi32> loc(#loc4)
    %3 = tt.splat %1 : i32 -> tensor<128xi32> loc(#loc5)
    %4 = arith.addi %3, %2 : tensor<128xi32> loc(#loc5)
    %5 = arith.cmpi slt, %4, %cst_1 : tensor<128xi32> loc(#loc6)
    %6 = tt.splat %arg0 : !tt.ptr<f32> -> tensor<128x!tt.ptr<f32>> loc(#loc7)
    %7 = tt.addptr %6, %4 : tensor<128x!tt.ptr<f32>>, tensor<128xi32> loc(#loc7)
    %8 = tt.load %7, %5 : tensor<128x!tt.ptr<f32>> loc(#loc8)
    %9 = arith.subf %cst, %8 : tensor<128xf32> loc(#loc18)
    %10 = math.exp %9 : tensor<128xf32> loc(#loc19)
    %11 = arith.addf %10, %cst_0 : tensor<128xf32> loc(#loc20)
    %12 = arith.divf %cst_0, %11 : tensor<128xf32> loc(#loc21)
    %13 = arith.mulf %8, %12 : tensor<128xf32> loc(#loc14)
    %14 = tt.splat %arg1 : !tt.ptr<f32> -> tensor<128x!tt.ptr<f32>> loc(#loc15)
    %15 = tt.addptr %14, %4 : tensor<128x!tt.ptr<f32>>, tensor<128xi32> loc(#loc15)
    tt.store %15, %13, %5 : tensor<128x!tt.ptr<f32>> loc(#loc16)
    tt.return loc(#loc17)
  } loc(#loc)
} loc(#loc)
#loc1 = loc(unknown)
#loc2 = loc("inductor_cache/ba/cballwwqixcbqu75w5bhqycamvlah4sdhpp3ggc2yodihe3rvab7.py":21:28)
#loc3 = loc("inductor_cache/ba/cballwwqixcbqu75w5bhqycamvlah4sdhpp3ggc2yodihe3rvab7.py":21:33)
#loc4 = loc("inductor_cache/ba/cballwwqixcbqu75w5bhqycamvlah4sdhpp3ggc2yodihe3rvab7.py":22:36)
#loc5 = loc("inductor_cache/ba/cballwwqixcbqu75w5bhqycamvlah4sdhpp3ggc2yodihe3rvab7.py":22:23)
#loc6 = loc("inductor_cache/ba/cballwwqixcbqu75w5bhqycamvlah4sdhpp3ggc2yodihe3rvab7.py":23:21)
#loc7 = loc("inductor_cache/ba/cballwwqixcbqu75w5bhqycamvlah4sdhpp3ggc2yodihe3rvab7.py":25:30)
#loc8 = loc("inductor_cache/ba/cballwwqixcbqu75w5bhqycamvlah4sdhpp3ggc2yodihe3rvab7.py":25:35)
#loc9 = loc("/home/sahanp/.conda/envs/parity-bench/lib/python3.12/site-packages/triton/language/standard.py":47:30)
#loc10 = loc("inductor_cache/ba/cballwwqixcbqu75w5bhqycamvlah4sdhpp3ggc2yodihe3rvab7.py":26:22)
#loc11 = loc("/home/sahanp/.conda/envs/parity-bench/lib/python3.12/site-packages/triton/language/standard.py":47:29)
#loc12 = loc("/home/sahanp/.conda/envs/parity-bench/lib/python3.12/site-packages/triton/language/standard.py":47:20)
#loc13 = loc("/home/sahanp/.conda/envs/parity-bench/lib/python3.12/site-packages/triton/language/standard.py":47:16)
#loc14 = loc("inductor_cache/ba/cballwwqixcbqu75w5bhqycamvlah4sdhpp3ggc2yodihe3rvab7.py":27:18)
#loc15 = loc("inductor_cache/ba/cballwwqixcbqu75w5bhqycamvlah4sdhpp3ggc2yodihe3rvab7.py":28:25)
#loc16 = loc("inductor_cache/ba/cballwwqixcbqu75w5bhqycamvlah4sdhpp3ggc2yodihe3rvab7.py":28:36)
#loc17 = loc("inductor_cache/ba/cballwwqixcbqu75w5bhqycamvlah4sdhpp3ggc2yodihe3rvab7.py":28:4)
#loc18 = loc(callsite(#loc9 at #loc10))
#loc19 = loc(callsite(#loc11 at #loc10))
#loc20 = loc(callsite(#loc12 at #loc10))
#loc21 = loc(callsite(#loc13 at #loc10))
