#loc = loc("inductor_cache/cn/ccnu6bfqeodrcyzako7qoidl2b7pvd27a3eejdpuedwfxazwsxcf.py":19:0)
module {
  tt.func public @triton_poi_fused__native_batch_norm_legit_no_training_relu_44(%arg0: !tt.ptr<f32> {tt.divisibility = 16 : i32} loc("inductor_cache/cn/ccnu6bfqeodrcyzako7qoidl2b7pvd27a3eejdpuedwfxazwsxcf.py":19:0), %arg1: !tt.ptr<f32> {tt.divisibility = 16 : i32} loc("inductor_cache/cn/ccnu6bfqeodrcyzako7qoidl2b7pvd27a3eejdpuedwfxazwsxcf.py":19:0), %arg2: !tt.ptr<f32> {tt.divisibility = 16 : i32} loc("inductor_cache/cn/ccnu6bfqeodrcyzako7qoidl2b7pvd27a3eejdpuedwfxazwsxcf.py":19:0), %arg3: !tt.ptr<f32> {tt.divisibility = 16 : i32} loc("inductor_cache/cn/ccnu6bfqeodrcyzako7qoidl2b7pvd27a3eejdpuedwfxazwsxcf.py":19:0), %arg4: !tt.ptr<f32> {tt.divisibility = 16 : i32} loc("inductor_cache/cn/ccnu6bfqeodrcyzako7qoidl2b7pvd27a3eejdpuedwfxazwsxcf.py":19:0), %arg5: !tt.ptr<f32> {tt.divisibility = 16 : i32} loc("inductor_cache/cn/ccnu6bfqeodrcyzako7qoidl2b7pvd27a3eejdpuedwfxazwsxcf.py":19:0), %arg6: i32 {tt.divisibility = 16 : i32} loc("inductor_cache/cn/ccnu6bfqeodrcyzako7qoidl2b7pvd27a3eejdpuedwfxazwsxcf.py":19:0)) attributes {noinline = false} {
    %cst = arith.constant dense<0.000000e+00> : tensor<256xf32> loc(#loc1)
    %cst_0 = arith.constant dense<1.000000e+00> : tensor<256xf32> loc(#loc1)
    %cst_1 = arith.constant dense<9.99999974E-6> : tensor<256xf32> loc(#loc1)
    %cst_2 = arith.constant dense<48> : tensor<256xi32> loc(#loc1)
    %cst_3 = arith.constant dense<16> : tensor<256xi32> loc(#loc1)
    %cst_4 = arith.constant dense<3072> : tensor<256xi32> loc(#loc1)
    %c256_i32 = arith.constant 256 : i32 loc(#loc1)
    %0 = tt.get_program_id x : i32 loc(#loc2)
    %1 = arith.muli %0, %c256_i32 : i32 loc(#loc3)
    %2 = tt.make_range {end = 256 : i32, start = 0 : i32} : tensor<256xi32> loc(#loc4)
    %3 = tt.splat %1 : i32 -> tensor<256xi32> loc(#loc5)
    %4 = arith.addi %3, %2 : tensor<256xi32> loc(#loc5)
    %5 = arith.cmpi slt, %4, %cst_4 : tensor<256xi32> loc(#loc6)
    %6 = arith.divsi %4, %cst_3 : tensor<256xi32> loc(#loc7)
    %7 = arith.remsi %6, %cst_2 : tensor<256xi32> loc(#loc8)
    %8 = tt.splat %arg0 : !tt.ptr<f32> -> tensor<256x!tt.ptr<f32>> loc(#loc9)
    %9 = tt.addptr %8, %4 : tensor<256x!tt.ptr<f32>>, tensor<256xi32> loc(#loc9)
    %10 = tt.load %9, %5 : tensor<256x!tt.ptr<f32>> loc(#loc10)
    %11 = tt.splat %arg1 : !tt.ptr<f32> -> tensor<256x!tt.ptr<f32>> loc(#loc11)
    %12 = tt.addptr %11, %7 : tensor<256x!tt.ptr<f32>>, tensor<256xi32> loc(#loc11)
    %13 = tt.load %12, %5 evictionPolicy = evict_last : tensor<256x!tt.ptr<f32>> loc(#loc12)
    %14 = tt.splat %arg2 : !tt.ptr<f32> -> tensor<256x!tt.ptr<f32>> loc(#loc13)
    %15 = tt.addptr %14, %7 : tensor<256x!tt.ptr<f32>>, tensor<256xi32> loc(#loc13)
    %16 = tt.load %15, %5 evictionPolicy = evict_last : tensor<256x!tt.ptr<f32>> loc(#loc14)
    %17 = tt.splat %arg3 : !tt.ptr<f32> -> tensor<256x!tt.ptr<f32>> loc(#loc15)
    %18 = tt.addptr %17, %7 : tensor<256x!tt.ptr<f32>>, tensor<256xi32> loc(#loc15)
    %19 = tt.load %18, %5 evictionPolicy = evict_last : tensor<256x!tt.ptr<f32>> loc(#loc16)
    %20 = tt.splat %arg4 : !tt.ptr<f32> -> tensor<256x!tt.ptr<f32>> loc(#loc17)
    %21 = tt.addptr %20, %7 : tensor<256x!tt.ptr<f32>>, tensor<256xi32> loc(#loc17)
    %22 = tt.load %21, %5 evictionPolicy = evict_last : tensor<256x!tt.ptr<f32>> loc(#loc18)
    %23 = arith.subf %10, %13 : tensor<256xf32> loc(#loc19)
    %24 = arith.addf %16, %cst_1 : tensor<256xf32> loc(#loc20)
    %25 = tt.extern_elementwise %24 {libname = "", libpath = "", pure = true, symbol = "__nv_sqrtf"} : (tensor<256xf32>) -> tensor<256xf32> loc(#loc21)
    %26 = arith.divf %cst_0, %25 : tensor<256xf32> loc(#loc22)
    %27 = arith.mulf %23, %26 : tensor<256xf32> loc(#loc23)
    %28 = arith.mulf %27, %19 : tensor<256xf32> loc(#loc24)
    %29 = arith.addf %28, %22 : tensor<256xf32> loc(#loc25)
    %30 = arith.cmpf ogt, %cst, %29 : tensor<256xf32> loc(#loc32)
    %31 = arith.select %30, %cst, %29 : tensor<256xi1>, tensor<256xf32> loc(#loc33)
    %32 = tt.splat %arg5 : !tt.ptr<f32> -> tensor<256x!tt.ptr<f32>> loc(#loc29)
    %33 = tt.addptr %32, %4 : tensor<256x!tt.ptr<f32>>, tensor<256xi32> loc(#loc29)
    tt.store %33, %31, %5 : tensor<256x!tt.ptr<f32>> loc(#loc30)
    tt.return loc(#loc31)
  } loc(#loc)
} loc(#loc)
#loc1 = loc(unknown)
#loc2 = loc("inductor_cache/cn/ccnu6bfqeodrcyzako7qoidl2b7pvd27a3eejdpuedwfxazwsxcf.py":21:28)
#loc3 = loc("inductor_cache/cn/ccnu6bfqeodrcyzako7qoidl2b7pvd27a3eejdpuedwfxazwsxcf.py":21:33)
#loc4 = loc("inductor_cache/cn/ccnu6bfqeodrcyzako7qoidl2b7pvd27a3eejdpuedwfxazwsxcf.py":22:36)
#loc5 = loc("inductor_cache/cn/ccnu6bfqeodrcyzako7qoidl2b7pvd27a3eejdpuedwfxazwsxcf.py":22:23)
#loc6 = loc("inductor_cache/cn/ccnu6bfqeodrcyzako7qoidl2b7pvd27a3eejdpuedwfxazwsxcf.py":23:21)
#loc7 = loc("inductor_cache/cn/ccnu6bfqeodrcyzako7qoidl2b7pvd27a3eejdpuedwfxazwsxcf.py":25:21)
#loc8 = loc("inductor_cache/cn/ccnu6bfqeodrcyzako7qoidl2b7pvd27a3eejdpuedwfxazwsxcf.py":25:27)
#loc9 = loc("inductor_cache/cn/ccnu6bfqeodrcyzako7qoidl2b7pvd27a3eejdpuedwfxazwsxcf.py":26:30)
#loc10 = loc("inductor_cache/cn/ccnu6bfqeodrcyzako7qoidl2b7pvd27a3eejdpuedwfxazwsxcf.py":26:35)
#loc11 = loc("inductor_cache/cn/ccnu6bfqeodrcyzako7qoidl2b7pvd27a3eejdpuedwfxazwsxcf.py":27:30)
#loc12 = loc("inductor_cache/cn/ccnu6bfqeodrcyzako7qoidl2b7pvd27a3eejdpuedwfxazwsxcf.py":27:35)
#loc13 = loc("inductor_cache/cn/ccnu6bfqeodrcyzako7qoidl2b7pvd27a3eejdpuedwfxazwsxcf.py":28:30)
#loc14 = loc("inductor_cache/cn/ccnu6bfqeodrcyzako7qoidl2b7pvd27a3eejdpuedwfxazwsxcf.py":28:35)
#loc15 = loc("inductor_cache/cn/ccnu6bfqeodrcyzako7qoidl2b7pvd27a3eejdpuedwfxazwsxcf.py":29:31)
#loc16 = loc("inductor_cache/cn/ccnu6bfqeodrcyzako7qoidl2b7pvd27a3eejdpuedwfxazwsxcf.py":29:36)
#loc17 = loc("inductor_cache/cn/ccnu6bfqeodrcyzako7qoidl2b7pvd27a3eejdpuedwfxazwsxcf.py":30:31)
#loc18 = loc("inductor_cache/cn/ccnu6bfqeodrcyzako7qoidl2b7pvd27a3eejdpuedwfxazwsxcf.py":30:36)
#loc19 = loc("inductor_cache/cn/ccnu6bfqeodrcyzako7qoidl2b7pvd27a3eejdpuedwfxazwsxcf.py":31:18)
#loc20 = loc("inductor_cache/cn/ccnu6bfqeodrcyzako7qoidl2b7pvd27a3eejdpuedwfxazwsxcf.py":33:18)
#loc21 = loc("inductor_cache/cn/ccnu6bfqeodrcyzako7qoidl2b7pvd27a3eejdpuedwfxazwsxcf.py":34:26)
#loc22 = loc("inductor_cache/cn/ccnu6bfqeodrcyzako7qoidl2b7pvd27a3eejdpuedwfxazwsxcf.py":36:18)
#loc23 = loc("inductor_cache/cn/ccnu6bfqeodrcyzako7qoidl2b7pvd27a3eejdpuedwfxazwsxcf.py":39:19)
#loc24 = loc("inductor_cache/cn/ccnu6bfqeodrcyzako7qoidl2b7pvd27a3eejdpuedwfxazwsxcf.py":40:20)
#loc25 = loc("inductor_cache/cn/ccnu6bfqeodrcyzako7qoidl2b7pvd27a3eejdpuedwfxazwsxcf.py":41:20)
#loc26 = loc("/home/sahanp/.conda/envs/parity-bench/lib/python3.12/site-packages/torch/_inductor/runtime/triton_helpers.py":118:15)
#loc27 = loc("inductor_cache/cn/ccnu6bfqeodrcyzako7qoidl2b7pvd27a3eejdpuedwfxazwsxcf.py":43:42)
#loc28 = loc("/home/sahanp/.conda/envs/parity-bench/lib/python3.12/site-packages/torch/_inductor/runtime/triton_helpers.py":121:29)
#loc29 = loc("inductor_cache/cn/ccnu6bfqeodrcyzako7qoidl2b7pvd27a3eejdpuedwfxazwsxcf.py":44:25)
#loc30 = loc("inductor_cache/cn/ccnu6bfqeodrcyzako7qoidl2b7pvd27a3eejdpuedwfxazwsxcf.py":44:37)
#loc31 = loc("inductor_cache/cn/ccnu6bfqeodrcyzako7qoidl2b7pvd27a3eejdpuedwfxazwsxcf.py":44:4)
#loc32 = loc(callsite(#loc26 at #loc27))
#loc33 = loc(callsite(#loc28 at #loc27))
