#loc = loc("inductor_cache/gh/cghmju5pkumtnce3qxkmbukc2n6cdp7wwuafbjeoxy2pqk6em2uw.py":19:0)
#loc1 = loc(unknown)
#loc56 = loc("inductor_cache/gh/cghmju5pkumtnce3qxkmbukc2n6cdp7wwuafbjeoxy2pqk6em2uw.py":73:26)
#loc66 = loc(callsite(#loc1 at #loc56))
module {
  tt.func public @triton_per_fused_add_div_log10_mean_mul_neg_pow_sub_sum_1(%arg0: !tt.ptr<f32> {tt.divisibility = 16 : i32} loc("inductor_cache/gh/cghmju5pkumtnce3qxkmbukc2n6cdp7wwuafbjeoxy2pqk6em2uw.py":19:0), %arg1: !tt.ptr<f32> {tt.divisibility = 16 : i32} loc("inductor_cache/gh/cghmju5pkumtnce3qxkmbukc2n6cdp7wwuafbjeoxy2pqk6em2uw.py":19:0), %arg2: !tt.ptr<f32> {tt.divisibility = 16 : i32} loc("inductor_cache/gh/cghmju5pkumtnce3qxkmbukc2n6cdp7wwuafbjeoxy2pqk6em2uw.py":19:0), %arg3: i32 {tt.divisibility = 16 : i32} loc("inductor_cache/gh/cghmju5pkumtnce3qxkmbukc2n6cdp7wwuafbjeoxy2pqk6em2uw.py":19:0)) attributes {noinline = false} {
    %c0_i32 = arith.constant 0 : i32 loc(#loc1)
    %cst = arith.constant dense<0.000000e+00> : tensor<1x1xf32> loc(#loc1)
    %cst_0 = arith.constant dense<6.400000e+01> : tensor<1x1xf32> loc(#loc1)
    %cst_1 = arith.constant dense<1.000000e+01> : tensor<1x64xf32> loc(#loc1)
    %cst_2 = arith.constant dense<9.99999993E-9> : tensor<1x64xf32> loc(#loc1)
    %cst_3 = arith.constant dense<4.000000e+00> : tensor<1x64xf32> loc(#loc1)
    %cst_4 = arith.constant dense<3> : tensor<1x64xi32> loc(#loc1)
    %cst_5 = arith.constant dense<2> : tensor<1x64xi32> loc(#loc1)
    %cst_6 = arith.constant dense<1> : tensor<1x64xi32> loc(#loc1)
    %cst_7 = arith.constant dense<4> : tensor<1x64xi32> loc(#loc1)
    %0 = tt.make_range {end = 64 : i32, start = 0 : i32} : tensor<64xi32> loc(#loc2)
    %1 = tt.expand_dims %0 {axis = 0 : i32} : tensor<64xi32> -> tensor<1x64xi32> loc(#loc3)
    %2 = arith.muli %1, %cst_7 : tensor<1x64xi32> loc(#loc4)
    %3 = tt.splat %arg1 : !tt.ptr<f32> -> tensor<1x64x!tt.ptr<f32>> loc(#loc5)
    %4 = tt.addptr %3, %2 : tensor<1x64x!tt.ptr<f32>>, tensor<1x64xi32> loc(#loc5)
    %5 = tt.load %4 evictionPolicy = evict_last : tensor<1x64x!tt.ptr<f32>> loc(#loc6)
    %6 = arith.addi %2, %cst_6 : tensor<1x64xi32> loc(#loc7)
    %7 = tt.addptr %3, %6 : tensor<1x64x!tt.ptr<f32>>, tensor<1x64xi32> loc(#loc8)
    %8 = tt.load %7 evictionPolicy = evict_last : tensor<1x64x!tt.ptr<f32>> loc(#loc9)
    %9 = arith.addi %2, %cst_5 : tensor<1x64xi32> loc(#loc10)
    %10 = tt.addptr %3, %9 : tensor<1x64x!tt.ptr<f32>>, tensor<1x64xi32> loc(#loc11)
    %11 = tt.load %10 evictionPolicy = evict_last : tensor<1x64x!tt.ptr<f32>> loc(#loc12)
    %12 = arith.addi %2, %cst_4 : tensor<1x64xi32> loc(#loc13)
    %13 = tt.addptr %3, %12 : tensor<1x64x!tt.ptr<f32>>, tensor<1x64xi32> loc(#loc14)
    %14 = tt.load %13 evictionPolicy = evict_last : tensor<1x64x!tt.ptr<f32>> loc(#loc15)
    %15 = tt.splat %arg2 : !tt.ptr<f32> -> tensor<1x64x!tt.ptr<f32>> loc(#loc16)
    %16 = tt.addptr %15, %2 : tensor<1x64x!tt.ptr<f32>>, tensor<1x64xi32> loc(#loc16)
    %17 = tt.load %16 evictionPolicy = evict_last : tensor<1x64x!tt.ptr<f32>> loc(#loc17)
    %18 = tt.addptr %15, %6 : tensor<1x64x!tt.ptr<f32>>, tensor<1x64xi32> loc(#loc18)
    %19 = tt.load %18 evictionPolicy = evict_last : tensor<1x64x!tt.ptr<f32>> loc(#loc19)
    %20 = tt.addptr %15, %9 : tensor<1x64x!tt.ptr<f32>>, tensor<1x64xi32> loc(#loc20)
    %21 = tt.load %20 evictionPolicy = evict_last : tensor<1x64x!tt.ptr<f32>> loc(#loc21)
    %22 = tt.addptr %15, %12 : tensor<1x64x!tt.ptr<f32>>, tensor<1x64xi32> loc(#loc22)
    %23 = tt.load %22 evictionPolicy = evict_last : tensor<1x64x!tt.ptr<f32>> loc(#loc23)
    %24 = arith.mulf %5, %5 : tensor<1x64xf32> loc(#loc24)
    %25 = arith.mulf %8, %8 : tensor<1x64xf32> loc(#loc25)
    %26 = arith.addf %24, %25 : tensor<1x64xf32> loc(#loc26)
    %27 = arith.mulf %11, %11 : tensor<1x64xf32> loc(#loc27)
    %28 = arith.addf %26, %27 : tensor<1x64xf32> loc(#loc28)
    %29 = arith.mulf %14, %14 : tensor<1x64xf32> loc(#loc29)
    %30 = arith.addf %28, %29 : tensor<1x64xf32> loc(#loc30)
    %31 = arith.addf %17, %19 : tensor<1x64xf32> loc(#loc31)
    %32 = arith.addf %31, %21 : tensor<1x64xf32> loc(#loc32)
    %33 = arith.addf %32, %23 : tensor<1x64xf32> loc(#loc33)
    %34 = arith.divf %33, %cst_3 : tensor<1x64xf32> loc(#loc34)
    %35 = arith.subf %17, %34 : tensor<1x64xf32> loc(#loc35)
    %36 = arith.subf %35, %5 : tensor<1x64xf32> loc(#loc36)
    %37 = arith.mulf %36, %36 : tensor<1x64xf32> loc(#loc37)
    %38 = arith.subf %19, %34 : tensor<1x64xf32> loc(#loc38)
    %39 = arith.subf %38, %8 : tensor<1x64xf32> loc(#loc39)
    %40 = arith.mulf %39, %39 : tensor<1x64xf32> loc(#loc40)
    %41 = arith.addf %37, %40 : tensor<1x64xf32> loc(#loc41)
    %42 = arith.subf %21, %34 : tensor<1x64xf32> loc(#loc42)
    %43 = arith.subf %42, %11 : tensor<1x64xf32> loc(#loc43)
    %44 = arith.mulf %43, %43 : tensor<1x64xf32> loc(#loc44)
    %45 = arith.addf %41, %44 : tensor<1x64xf32> loc(#loc45)
    %46 = arith.subf %23, %34 : tensor<1x64xf32> loc(#loc46)
    %47 = arith.subf %46, %14 : tensor<1x64xf32> loc(#loc47)
    %48 = arith.mulf %47, %47 : tensor<1x64xf32> loc(#loc48)
    %49 = arith.addf %45, %48 : tensor<1x64xf32> loc(#loc49)
    %50 = arith.addf %49, %cst_2 : tensor<1x64xf32> loc(#loc50)
    %51 = arith.divf %30, %50 : tensor<1x64xf32> loc(#loc51)
    %52 = arith.addf %51, %cst_2 : tensor<1x64xf32> loc(#loc52)
    %53 = tt.extern_elementwise %52 {libname = "", libpath = "", pure = true, symbol = "__nv_log10f"} : (tensor<1x64xf32>) -> tensor<1x64xf32> loc(#loc53)
    %54 = arith.mulf %53, %cst_1 : tensor<1x64xf32> loc(#loc54)
    %55 = "tt.reduce"(%54) <{axis = 1 : i32}> ({
    ^bb0(%arg4: f32 loc(callsite(#loc1 at #loc56)), %arg5: f32 loc(callsite(#loc1 at #loc56))):
      %61 = arith.addf %arg4, %arg5 : f32 loc(#loc68)
      tt.reduce.return %61 : f32 loc(#loc65)
    }) : (tensor<1x64xf32>) -> tensor<1xf32> loc(#loc65)
    %56 = tt.expand_dims %55 {axis = 1 : i32} : tensor<1xf32> -> tensor<1x1xf32> loc(#loc58)
    %57 = arith.divf %56, %cst_0 : tensor<1x1xf32> loc(#loc59)
    %58 = arith.subf %cst, %57 : tensor<1x1xf32> loc(#loc60)
    gpu.barrier loc(#loc61)
    %59 = tt.addptr %arg0, %c0_i32 : !tt.ptr<f32>, i32 loc(#loc62)
    %60 = tt.splat %59 : !tt.ptr<f32> -> tensor<1x1x!tt.ptr<f32>> loc(#loc62)
    tt.store %60, %58 : tensor<1x1x!tt.ptr<f32>> loc(#loc63)
    tt.return loc(#loc64)
  } loc(#loc)
} loc(#loc)
#loc2 = loc("inductor_cache/gh/cghmju5pkumtnce3qxkmbukc2n6cdp7wwuafbjeoxy2pqk6em2uw.py":26:26)
#loc3 = loc("inductor_cache/gh/cghmju5pkumtnce3qxkmbukc2n6cdp7wwuafbjeoxy2pqk6em2uw.py":26:34)
#loc4 = loc("inductor_cache/gh/cghmju5pkumtnce3qxkmbukc2n6cdp7wwuafbjeoxy2pqk6em2uw.py":30:32)
#loc5 = loc("inductor_cache/gh/cghmju5pkumtnce3qxkmbukc2n6cdp7wwuafbjeoxy2pqk6em2uw.py":30:30)
#loc6 = loc("inductor_cache/gh/cghmju5pkumtnce3qxkmbukc2n6cdp7wwuafbjeoxy2pqk6em2uw.py":30:37)
#loc7 = loc("inductor_cache/gh/cghmju5pkumtnce3qxkmbukc2n6cdp7wwuafbjeoxy2pqk6em2uw.py":31:34)
#loc8 = loc("inductor_cache/gh/cghmju5pkumtnce3qxkmbukc2n6cdp7wwuafbjeoxy2pqk6em2uw.py":31:30)
#loc9 = loc("inductor_cache/gh/cghmju5pkumtnce3qxkmbukc2n6cdp7wwuafbjeoxy2pqk6em2uw.py":31:41)
#loc10 = loc("inductor_cache/gh/cghmju5pkumtnce3qxkmbukc2n6cdp7wwuafbjeoxy2pqk6em2uw.py":32:34)
#loc11 = loc("inductor_cache/gh/cghmju5pkumtnce3qxkmbukc2n6cdp7wwuafbjeoxy2pqk6em2uw.py":32:30)
#loc12 = loc("inductor_cache/gh/cghmju5pkumtnce3qxkmbukc2n6cdp7wwuafbjeoxy2pqk6em2uw.py":32:41)
#loc13 = loc("inductor_cache/gh/cghmju5pkumtnce3qxkmbukc2n6cdp7wwuafbjeoxy2pqk6em2uw.py":33:34)
#loc14 = loc("inductor_cache/gh/cghmju5pkumtnce3qxkmbukc2n6cdp7wwuafbjeoxy2pqk6em2uw.py":33:30)
#loc15 = loc("inductor_cache/gh/cghmju5pkumtnce3qxkmbukc2n6cdp7wwuafbjeoxy2pqk6em2uw.py":33:41)
#loc16 = loc("inductor_cache/gh/cghmju5pkumtnce3qxkmbukc2n6cdp7wwuafbjeoxy2pqk6em2uw.py":34:31)
#loc17 = loc("inductor_cache/gh/cghmju5pkumtnce3qxkmbukc2n6cdp7wwuafbjeoxy2pqk6em2uw.py":34:38)
#loc18 = loc("inductor_cache/gh/cghmju5pkumtnce3qxkmbukc2n6cdp7wwuafbjeoxy2pqk6em2uw.py":35:31)
#loc19 = loc("inductor_cache/gh/cghmju5pkumtnce3qxkmbukc2n6cdp7wwuafbjeoxy2pqk6em2uw.py":35:42)
#loc20 = loc("inductor_cache/gh/cghmju5pkumtnce3qxkmbukc2n6cdp7wwuafbjeoxy2pqk6em2uw.py":36:31)
#loc21 = loc("inductor_cache/gh/cghmju5pkumtnce3qxkmbukc2n6cdp7wwuafbjeoxy2pqk6em2uw.py":36:42)
#loc22 = loc("inductor_cache/gh/cghmju5pkumtnce3qxkmbukc2n6cdp7wwuafbjeoxy2pqk6em2uw.py":37:31)
#loc23 = loc("inductor_cache/gh/cghmju5pkumtnce3qxkmbukc2n6cdp7wwuafbjeoxy2pqk6em2uw.py":37:42)
#loc24 = loc("inductor_cache/gh/cghmju5pkumtnce3qxkmbukc2n6cdp7wwuafbjeoxy2pqk6em2uw.py":38:18)
#loc25 = loc("inductor_cache/gh/cghmju5pkumtnce3qxkmbukc2n6cdp7wwuafbjeoxy2pqk6em2uw.py":39:18)
#loc26 = loc("inductor_cache/gh/cghmju5pkumtnce3qxkmbukc2n6cdp7wwuafbjeoxy2pqk6em2uw.py":40:18)
#loc27 = loc("inductor_cache/gh/cghmju5pkumtnce3qxkmbukc2n6cdp7wwuafbjeoxy2pqk6em2uw.py":41:18)
#loc28 = loc("inductor_cache/gh/cghmju5pkumtnce3qxkmbukc2n6cdp7wwuafbjeoxy2pqk6em2uw.py":42:18)
#loc29 = loc("inductor_cache/gh/cghmju5pkumtnce3qxkmbukc2n6cdp7wwuafbjeoxy2pqk6em2uw.py":43:18)
#loc30 = loc("inductor_cache/gh/cghmju5pkumtnce3qxkmbukc2n6cdp7wwuafbjeoxy2pqk6em2uw.py":44:19)
#loc31 = loc("inductor_cache/gh/cghmju5pkumtnce3qxkmbukc2n6cdp7wwuafbjeoxy2pqk6em2uw.py":45:20)
#loc32 = loc("inductor_cache/gh/cghmju5pkumtnce3qxkmbukc2n6cdp7wwuafbjeoxy2pqk6em2uw.py":46:20)
#loc33 = loc("inductor_cache/gh/cghmju5pkumtnce3qxkmbukc2n6cdp7wwuafbjeoxy2pqk6em2uw.py":47:20)
#loc34 = loc("inductor_cache/gh/cghmju5pkumtnce3qxkmbukc2n6cdp7wwuafbjeoxy2pqk6em2uw.py":49:20)
#loc35 = loc("inductor_cache/gh/cghmju5pkumtnce3qxkmbukc2n6cdp7wwuafbjeoxy2pqk6em2uw.py":50:20)
#loc36 = loc("inductor_cache/gh/cghmju5pkumtnce3qxkmbukc2n6cdp7wwuafbjeoxy2pqk6em2uw.py":51:20)
#loc37 = loc("inductor_cache/gh/cghmju5pkumtnce3qxkmbukc2n6cdp7wwuafbjeoxy2pqk6em2uw.py":52:20)
#loc38 = loc("inductor_cache/gh/cghmju5pkumtnce3qxkmbukc2n6cdp7wwuafbjeoxy2pqk6em2uw.py":53:20)
#loc39 = loc("inductor_cache/gh/cghmju5pkumtnce3qxkmbukc2n6cdp7wwuafbjeoxy2pqk6em2uw.py":54:20)
#loc40 = loc("inductor_cache/gh/cghmju5pkumtnce3qxkmbukc2n6cdp7wwuafbjeoxy2pqk6em2uw.py":55:20)
#loc41 = loc("inductor_cache/gh/cghmju5pkumtnce3qxkmbukc2n6cdp7wwuafbjeoxy2pqk6em2uw.py":56:20)
#loc42 = loc("inductor_cache/gh/cghmju5pkumtnce3qxkmbukc2n6cdp7wwuafbjeoxy2pqk6em2uw.py":57:20)
#loc43 = loc("inductor_cache/gh/cghmju5pkumtnce3qxkmbukc2n6cdp7wwuafbjeoxy2pqk6em2uw.py":58:20)
#loc44 = loc("inductor_cache/gh/cghmju5pkumtnce3qxkmbukc2n6cdp7wwuafbjeoxy2pqk6em2uw.py":59:20)
#loc45 = loc("inductor_cache/gh/cghmju5pkumtnce3qxkmbukc2n6cdp7wwuafbjeoxy2pqk6em2uw.py":60:20)
#loc46 = loc("inductor_cache/gh/cghmju5pkumtnce3qxkmbukc2n6cdp7wwuafbjeoxy2pqk6em2uw.py":61:20)
#loc47 = loc("inductor_cache/gh/cghmju5pkumtnce3qxkmbukc2n6cdp7wwuafbjeoxy2pqk6em2uw.py":62:20)
#loc48 = loc("inductor_cache/gh/cghmju5pkumtnce3qxkmbukc2n6cdp7wwuafbjeoxy2pqk6em2uw.py":63:20)
#loc49 = loc("inductor_cache/gh/cghmju5pkumtnce3qxkmbukc2n6cdp7wwuafbjeoxy2pqk6em2uw.py":64:20)
#loc50 = loc("inductor_cache/gh/cghmju5pkumtnce3qxkmbukc2n6cdp7wwuafbjeoxy2pqk6em2uw.py":66:20)
#loc51 = loc("inductor_cache/gh/cghmju5pkumtnce3qxkmbukc2n6cdp7wwuafbjeoxy2pqk6em2uw.py":67:20)
#loc52 = loc("inductor_cache/gh/cghmju5pkumtnce3qxkmbukc2n6cdp7wwuafbjeoxy2pqk6em2uw.py":68:20)
#loc53 = loc("inductor_cache/gh/cghmju5pkumtnce3qxkmbukc2n6cdp7wwuafbjeoxy2pqk6em2uw.py":69:28)
#loc54 = loc("inductor_cache/gh/cghmju5pkumtnce3qxkmbukc2n6cdp7wwuafbjeoxy2pqk6em2uw.py":71:20)
#loc55 = loc("/home/sahanp/.conda/envs/parity-bench/lib/python3.12/site-packages/triton/language/standard.py":267:36)
#loc57 = loc("/home/sahanp/.conda/envs/parity-bench/lib/python3.12/site-packages/triton/language/standard.py":256:15)
#loc58 = loc("inductor_cache/gh/cghmju5pkumtnce3qxkmbukc2n6cdp7wwuafbjeoxy2pqk6em2uw.py":73:29)
#loc59 = loc("inductor_cache/gh/cghmju5pkumtnce3qxkmbukc2n6cdp7wwuafbjeoxy2pqk6em2uw.py":75:20)
#loc60 = loc("inductor_cache/gh/cghmju5pkumtnce3qxkmbukc2n6cdp7wwuafbjeoxy2pqk6em2uw.py":76:13)
#loc61 = loc("inductor_cache/gh/cghmju5pkumtnce3qxkmbukc2n6cdp7wwuafbjeoxy2pqk6em2uw.py":77:4)
#loc62 = loc("inductor_cache/gh/cghmju5pkumtnce3qxkmbukc2n6cdp7wwuafbjeoxy2pqk6em2uw.py":78:28)
#loc63 = loc("inductor_cache/gh/cghmju5pkumtnce3qxkmbukc2n6cdp7wwuafbjeoxy2pqk6em2uw.py":78:71)
#loc64 = loc("inductor_cache/gh/cghmju5pkumtnce3qxkmbukc2n6cdp7wwuafbjeoxy2pqk6em2uw.py":78:4)
#loc65 = loc(callsite(#loc55 at #loc56))
#loc67 = loc(callsite(#loc57 at #loc55))
#loc68 = loc(callsite(#loc67 at #loc56))
