#loc = loc("inductor_cache/ww/cwwwef7o3l5axh575l3rykxbh7pxehnk3d4227ogpvx5uwwjrppm.py":19:0)
#loc1 = loc(unknown)
#loc11 = loc("/home/sahanp/.conda/envs/parity-bench/lib/python3.12/site-packages/torch/_inductor/runtime/triton_helpers.py":610:12)
#loc12 = loc("inductor_cache/ww/cwwwef7o3l5axh575l3rykxbh7pxehnk3d4227ogpvx5uwwjrppm.py":36:67)
#loc17 = loc("/home/sahanp/.conda/envs/parity-bench/lib/python3.12/site-packages/torch/_inductor/runtime/triton_helpers.py":582:73)
#loc22 = loc("/home/sahanp/.conda/envs/parity-bench/lib/python3.12/site-packages/torch/_inductor/runtime/triton_helpers.py":506:51)
#loc27 = loc("/home/sahanp/.conda/envs/parity-bench/lib/python3.12/site-packages/torch/_inductor/runtime/triton_helpers.py":507:53)
#loc54 = loc(callsite(#loc1 at #loc22))
#loc60 = loc(callsite(#loc1 at #loc27))
#loc84 = loc(callsite(#loc54 at #loc17))
#loc90 = loc(callsite(#loc60 at #loc17))
#loc111 = loc(callsite(#loc84 at #loc11))
#loc117 = loc(callsite(#loc90 at #loc11))
#loc134 = loc(callsite(#loc111 at #loc12))
#loc137 = loc(callsite(#loc117 at #loc12))
module {
  tt.func public @triton_per_fused_sort_0(%arg0: !tt.ptr<f32> {tt.divisibility = 16 : i32} loc("inductor_cache/ww/cwwwef7o3l5axh575l3rykxbh7pxehnk3d4227ogpvx5uwwjrppm.py":19:0), %arg1: !tt.ptr<f32> {tt.divisibility = 16 : i32} loc("inductor_cache/ww/cwwwef7o3l5axh575l3rykxbh7pxehnk3d4227ogpvx5uwwjrppm.py":19:0), %arg2: i32 {tt.divisibility = 16 : i32} loc("inductor_cache/ww/cwwwef7o3l5axh575l3rykxbh7pxehnk3d4227ogpvx5uwwjrppm.py":19:0), %arg3: i32 loc("inductor_cache/ww/cwwwef7o3l5axh575l3rykxbh7pxehnk3d4227ogpvx5uwwjrppm.py":19:0)) attributes {noinline = false} {
    %c4_i32 = arith.constant 4 : i32 loc(#loc1)
    %c64_i32 = arith.constant 64 : i32 loc(#loc1)
    %cst = arith.constant dense<0> : tensor<1x4xi32> loc(#loc1)
    %cst_0 = arith.constant dense<1> : tensor<1x2x1xi32> loc(#loc1)
    %cst_1 = arith.constant dense<0.000000e+00> : tensor<1x4xf32> loc(#loc1)
    %0 = tt.get_program_id x : i32 loc(#loc2)
    %1 = arith.cmpi slt, %0, %c64_i32 : i32 loc(#loc3)
    %2 = tt.make_range {end = 4 : i32, start = 0 : i32} : tensor<4xi32> loc(#loc4)
    %3 = tt.expand_dims %2 {axis = 0 : i32} : tensor<4xi32> -> tensor<1x4xi32> loc(#loc5)
    %4 = arith.muli %0, %c4_i32 : i32 loc(#loc6)
    %5 = tt.splat %4 : i32 -> tensor<1x4xi32> loc(#loc7)
    %6 = arith.addi %3, %5 : tensor<1x4xi32> loc(#loc7)
    %7 = tt.splat %arg0 : !tt.ptr<f32> -> tensor<1x4x!tt.ptr<f32>> loc(#loc8)
    %8 = tt.addptr %7, %6 : tensor<1x4x!tt.ptr<f32>>, tensor<1x4xi32> loc(#loc8)
    %9 = tt.splat %1 : i1 -> tensor<1x4xi1> loc(#loc9)
    %10 = tt.load %8, %9, %cst_1 : tensor<1x4x!tt.ptr<f32>> loc(#loc9)
    %11 = tt.make_range {end = 2 : i32, start = 0 : i32} : tensor<2xi32> loc(#loc75)
    %12 = tt.expand_dims %11 {axis = 0 : i32} : tensor<2xi32> -> tensor<1x2xi32> loc(#loc76)
    %13 = tt.expand_dims %12 {axis = 2 : i32} : tensor<1x2xi32> -> tensor<1x2x1xi32> loc(#loc76)
    %14 = tt.broadcast %13 : tensor<1x2x1xi32> -> tensor<1x2x2xi32> loc(#loc77)
    %15 = tt.reshape %14 : tensor<1x2x2xi32> -> tensor<1x4xi32> loc(#loc78)
    %16 = tt.reshape %10 : tensor<1x4xf32> -> tensor<2x2x1xf32> loc(#loc106)
    %17 = tt.bitcast %16 : tensor<2x2x1xf32> -> tensor<2x2x1xi32> loc(#loc107)
    %18 = arith.subi %cst_0, %13 : tensor<1x2x1xi32> loc(#loc108)
    %19 = tt.broadcast %18 : tensor<1x2x1xi32> -> tensor<2x2x1xi32> loc(#loc109)
    %20 = arith.muli %17, %19 : tensor<2x2x1xi32> loc(#loc109)
    %21 = "tt.reduce"(%20) <{axis = 1 : i32}> ({
    ^bb0(%arg4: i32 loc(callsite(#loc111 at #loc12)), %arg5: i32 loc(callsite(#loc111 at #loc12))):
      %85 = arith.addi %arg4, %arg5 : i32 loc(#loc139)
      tt.reduce.return %85 : i32 loc(#loc133)
    }) : (tensor<2x2x1xi32>) -> tensor<2x1xi32> loc(#loc133)
    %22 = tt.expand_dims %21 {axis = 1 : i32} : tensor<2x1xi32> -> tensor<2x1x1xi32> loc(#loc113)
    %23 = tt.broadcast %22 : tensor<2x1x1xi32> -> tensor<2x2x1xi32> loc(#loc114)
    %24 = tt.broadcast %13 : tensor<1x2x1xi32> -> tensor<2x2x1xi32> loc(#loc115)
    %25 = arith.muli %17, %24 : tensor<2x2x1xi32> loc(#loc115)
    %26 = "tt.reduce"(%25) <{axis = 1 : i32}> ({
    ^bb0(%arg4: i32 loc(callsite(#loc117 at #loc12)), %arg5: i32 loc(callsite(#loc117 at #loc12))):
      %85 = arith.addi %arg4, %arg5 : i32 loc(#loc140)
      tt.reduce.return %85 : i32 loc(#loc136)
    }) : (tensor<2x2x1xi32>) -> tensor<2x1xi32> loc(#loc136)
    %27 = tt.expand_dims %26 {axis = 1 : i32} : tensor<2x1xi32> -> tensor<2x1x1xi32> loc(#loc119)
    %28 = tt.broadcast %27 : tensor<2x1x1xi32> -> tensor<2x2x1xi32> loc(#loc120)
    %29 = tt.reshape %23 : tensor<2x2x1xi32> -> tensor<1x4xi32> loc(#loc121)
    %30 = tt.reshape %28 : tensor<2x2x1xi32> -> tensor<1x4xi32> loc(#loc122)
    %31 = tt.bitcast %29 : tensor<1x4xi32> -> tensor<1x4xf32> loc(#loc123)
    %32 = tt.bitcast %30 : tensor<1x4xi32> -> tensor<1x4xf32> loc(#loc124)
    %33 = tt.bitcast %10 : tensor<1x4xf32> -> tensor<1x4xi32> loc(#loc125)
    %34 = arith.cmpf ogt, %31, %32 : tensor<1x4xf32> loc(#loc126)
    %35 = arith.extui %34 : tensor<1x4xi1> to tensor<1x4xi32> loc(#loc127)
    %36 = arith.xori %35, %15 : tensor<1x4xi32> loc(#loc127)
    %37 = arith.cmpi ne, %36, %cst : tensor<1x4xi32> loc(#loc128)
    %38 = arith.xori %29, %30 : tensor<1x4xi32> loc(#loc129)
    %39 = arith.select %37, %38, %cst : tensor<1x4xi1>, tensor<1x4xi32> loc(#loc130)
    %40 = arith.xori %33, %39 : tensor<1x4xi32> loc(#loc131)
    %41 = tt.bitcast %40 : tensor<1x4xi32> -> tensor<1x4xf32> loc(#loc132)
    %42 = tt.reshape %41 : tensor<1x4xf32> -> tensor<1x2x2xf32> loc(#loc106)
    %43 = tt.bitcast %42 : tensor<1x2x2xf32> -> tensor<1x2x2xi32> loc(#loc107)
    %44 = tt.broadcast %18 : tensor<1x2x1xi32> -> tensor<1x2x2xi32> loc(#loc109)
    %45 = arith.muli %43, %44 : tensor<1x2x2xi32> loc(#loc109)
    %46 = "tt.reduce"(%45) <{axis = 1 : i32}> ({
    ^bb0(%arg4: i32 loc(callsite(#loc111 at #loc12)), %arg5: i32 loc(callsite(#loc111 at #loc12))):
      %85 = arith.addi %arg4, %arg5 : i32 loc(#loc139)
      tt.reduce.return %85 : i32 loc(#loc133)
    }) : (tensor<1x2x2xi32>) -> tensor<1x2xi32> loc(#loc133)
    %47 = tt.expand_dims %46 {axis = 1 : i32} : tensor<1x2xi32> -> tensor<1x1x2xi32> loc(#loc113)
    %48 = tt.broadcast %47 : tensor<1x1x2xi32> -> tensor<1x2x2xi32> loc(#loc114)
    %49 = arith.muli %43, %14 : tensor<1x2x2xi32> loc(#loc115)
    %50 = "tt.reduce"(%49) <{axis = 1 : i32}> ({
    ^bb0(%arg4: i32 loc(callsite(#loc117 at #loc12)), %arg5: i32 loc(callsite(#loc117 at #loc12))):
      %85 = arith.addi %arg4, %arg5 : i32 loc(#loc140)
      tt.reduce.return %85 : i32 loc(#loc136)
    }) : (tensor<1x2x2xi32>) -> tensor<1x2xi32> loc(#loc136)
    %51 = tt.expand_dims %50 {axis = 1 : i32} : tensor<1x2xi32> -> tensor<1x1x2xi32> loc(#loc119)
    %52 = tt.broadcast %51 : tensor<1x1x2xi32> -> tensor<1x2x2xi32> loc(#loc120)
    %53 = tt.reshape %48 : tensor<1x2x2xi32> -> tensor<1x4xi32> loc(#loc121)
    %54 = tt.reshape %52 : tensor<1x2x2xi32> -> tensor<1x4xi32> loc(#loc122)
    %55 = tt.bitcast %53 : tensor<1x4xi32> -> tensor<1x4xf32> loc(#loc123)
    %56 = tt.bitcast %54 : tensor<1x4xi32> -> tensor<1x4xf32> loc(#loc124)
    %57 = tt.bitcast %41 : tensor<1x4xf32> -> tensor<1x4xi32> loc(#loc125)
    %58 = arith.cmpf ogt, %55, %56 : tensor<1x4xf32> loc(#loc126)
    %59 = arith.xori %53, %54 : tensor<1x4xi32> loc(#loc129)
    %60 = arith.select %58, %59, %cst : tensor<1x4xi1>, tensor<1x4xi32> loc(#loc130)
    %61 = arith.xori %57, %60 : tensor<1x4xi32> loc(#loc131)
    %62 = tt.bitcast %61 : tensor<1x4xi32> -> tensor<1x4xf32> loc(#loc132)
    %63 = tt.reshape %62 : tensor<1x4xf32> -> tensor<2x2x1xf32> loc(#loc106)
    %64 = tt.bitcast %63 : tensor<2x2x1xf32> -> tensor<2x2x1xi32> loc(#loc107)
    %65 = arith.muli %64, %19 : tensor<2x2x1xi32> loc(#loc109)
    %66 = "tt.reduce"(%65) <{axis = 1 : i32}> ({
    ^bb0(%arg4: i32 loc(callsite(#loc111 at #loc12)), %arg5: i32 loc(callsite(#loc111 at #loc12))):
      %85 = arith.addi %arg4, %arg5 : i32 loc(#loc139)
      tt.reduce.return %85 : i32 loc(#loc133)
    }) : (tensor<2x2x1xi32>) -> tensor<2x1xi32> loc(#loc133)
    %67 = tt.expand_dims %66 {axis = 1 : i32} : tensor<2x1xi32> -> tensor<2x1x1xi32> loc(#loc113)
    %68 = tt.broadcast %67 : tensor<2x1x1xi32> -> tensor<2x2x1xi32> loc(#loc114)
    %69 = arith.muli %64, %24 : tensor<2x2x1xi32> loc(#loc115)
    %70 = "tt.reduce"(%69) <{axis = 1 : i32}> ({
    ^bb0(%arg4: i32 loc(callsite(#loc117 at #loc12)), %arg5: i32 loc(callsite(#loc117 at #loc12))):
      %85 = arith.addi %arg4, %arg5 : i32 loc(#loc140)
      tt.reduce.return %85 : i32 loc(#loc136)
    }) : (tensor<2x2x1xi32>) -> tensor<2x1xi32> loc(#loc136)
    %71 = tt.expand_dims %70 {axis = 1 : i32} : tensor<2x1xi32> -> tensor<2x1x1xi32> loc(#loc119)
    %72 = tt.broadcast %71 : tensor<2x1x1xi32> -> tensor<2x2x1xi32> loc(#loc120)
    %73 = tt.reshape %68 : tensor<2x2x1xi32> -> tensor<1x4xi32> loc(#loc121)
    %74 = tt.reshape %72 : tensor<2x2x1xi32> -> tensor<1x4xi32> loc(#loc122)
    %75 = tt.bitcast %73 : tensor<1x4xi32> -> tensor<1x4xf32> loc(#loc123)
    %76 = tt.bitcast %74 : tensor<1x4xi32> -> tensor<1x4xf32> loc(#loc124)
    %77 = tt.bitcast %62 : tensor<1x4xf32> -> tensor<1x4xi32> loc(#loc125)
    %78 = arith.cmpf ogt, %75, %76 : tensor<1x4xf32> loc(#loc126)
    %79 = arith.xori %73, %74 : tensor<1x4xi32> loc(#loc129)
    %80 = arith.select %78, %79, %cst : tensor<1x4xi1>, tensor<1x4xi32> loc(#loc130)
    %81 = arith.xori %77, %80 : tensor<1x4xi32> loc(#loc131)
    %82 = tt.bitcast %81 : tensor<1x4xi32> -> tensor<1x4xf32> loc(#loc132)
    %83 = tt.splat %arg1 : !tt.ptr<f32> -> tensor<1x4x!tt.ptr<f32>> loc(#loc42)
    %84 = tt.addptr %83, %6 : tensor<1x4x!tt.ptr<f32>>, tensor<1x4xi32> loc(#loc42)
    tt.store %84, %82, %9 : tensor<1x4x!tt.ptr<f32>> loc(#loc43)
    tt.return loc(#loc44)
  } loc(#loc)
} loc(#loc)
#loc2 = loc("inductor_cache/ww/cwwwef7o3l5axh575l3rykxbh7pxehnk3d4227ogpvx5uwwjrppm.py":23:28)
#loc3 = loc("inductor_cache/ww/cwwwef7o3l5axh575l3rykxbh7pxehnk3d4227ogpvx5uwwjrppm.py":25:21)
#loc4 = loc("inductor_cache/ww/cwwwef7o3l5axh575l3rykxbh7pxehnk3d4227ogpvx5uwwjrppm.py":26:26)
#loc5 = loc("inductor_cache/ww/cwwwef7o3l5axh575l3rykxbh7pxehnk3d4227ogpvx5uwwjrppm.py":26:34)
#loc6 = loc("inductor_cache/ww/cwwwef7o3l5axh575l3rykxbh7pxehnk3d4227ogpvx5uwwjrppm.py":31:37)
#loc7 = loc("inductor_cache/ww/cwwwef7o3l5axh575l3rykxbh7pxehnk3d4227ogpvx5uwwjrppm.py":31:35)
#loc8 = loc("inductor_cache/ww/cwwwef7o3l5axh575l3rykxbh7pxehnk3d4227ogpvx5uwwjrppm.py":31:30)
#loc9 = loc("inductor_cache/ww/cwwwef7o3l5axh575l3rykxbh7pxehnk3d4227ogpvx5uwwjrppm.py":31:42)
#loc10 = loc("/home/sahanp/.conda/envs/parity-bench/lib/python3.12/site-packages/torch/_inductor/runtime/triton_helpers.py":575:41)
#loc13 = loc("/home/sahanp/.conda/envs/parity-bench/lib/python3.12/site-packages/torch/_inductor/runtime/triton_helpers.py":575:44)
#loc14 = loc("/home/sahanp/.conda/envs/parity-bench/lib/python3.12/site-packages/torch/_inductor/runtime/triton_helpers.py":575:60)
#loc15 = loc("/home/sahanp/.conda/envs/parity-bench/lib/python3.12/site-packages/torch/_inductor/runtime/triton_helpers.py":575:68)
#loc16 = loc("/home/sahanp/.conda/envs/parity-bench/lib/python3.12/site-packages/torch/_inductor/runtime/triton_helpers.py":501:22)
#loc18 = loc("/home/sahanp/.conda/envs/parity-bench/lib/python3.12/site-packages/torch/_inductor/runtime/triton_helpers.py":502:14)
#loc19 = loc("/home/sahanp/.conda/envs/parity-bench/lib/python3.12/site-packages/torch/_inductor/runtime/triton_helpers.py":505:21)
#loc20 = loc("/home/sahanp/.conda/envs/parity-bench/lib/python3.12/site-packages/torch/_inductor/runtime/triton_helpers.py":506:40)
#loc21 = loc("/home/sahanp/.conda/envs/parity-bench/lib/python3.12/site-packages/triton/language/standard.py":267:36)
#loc23 = loc("/home/sahanp/.conda/envs/parity-bench/lib/python3.12/site-packages/triton/language/standard.py":256:15)
#loc24 = loc("/home/sahanp/.conda/envs/parity-bench/lib/python3.12/site-packages/torch/_inductor/runtime/triton_helpers.py":506:54)
#loc25 = loc("/home/sahanp/.conda/envs/parity-bench/lib/python3.12/site-packages/torch/_inductor/runtime/triton_helpers.py":506:67)
#loc26 = loc("/home/sahanp/.conda/envs/parity-bench/lib/python3.12/site-packages/torch/_inductor/runtime/triton_helpers.py":507:41)
#loc28 = loc("/home/sahanp/.conda/envs/parity-bench/lib/python3.12/site-packages/torch/_inductor/runtime/triton_helpers.py":507:56)
#loc29 = loc("/home/sahanp/.conda/envs/parity-bench/lib/python3.12/site-packages/torch/_inductor/runtime/triton_helpers.py":507:69)
#loc30 = loc("/home/sahanp/.conda/envs/parity-bench/lib/python3.12/site-packages/torch/_inductor/runtime/triton_helpers.py":508:30)
#loc31 = loc("/home/sahanp/.conda/envs/parity-bench/lib/python3.12/site-packages/torch/_inductor/runtime/triton_helpers.py":509:32)
#loc32 = loc("/home/sahanp/.conda/envs/parity-bench/lib/python3.12/site-packages/torch/_inductor/runtime/triton_helpers.py":510:20)
#loc33 = loc("/home/sahanp/.conda/envs/parity-bench/lib/python3.12/site-packages/torch/_inductor/runtime/triton_helpers.py":511:22)
#loc34 = loc("/home/sahanp/.conda/envs/parity-bench/lib/python3.12/site-packages/torch/_inductor/runtime/triton_helpers.py":533:14)
#loc35 = loc("/home/sahanp/.conda/envs/parity-bench/lib/python3.12/site-packages/torch/_inductor/runtime/triton_helpers.py":538:22)
#loc36 = loc("/home/sahanp/.conda/envs/parity-bench/lib/python3.12/site-packages/torch/_inductor/runtime/triton_helpers.py":547:19)
#loc37 = loc("/home/sahanp/.conda/envs/parity-bench/lib/python3.12/site-packages/torch/_inductor/runtime/triton_helpers.py":547:28)
#loc38 = loc("/home/sahanp/.conda/envs/parity-bench/lib/python3.12/site-packages/torch/_inductor/runtime/triton_helpers.py":548:38)
#loc39 = loc("/home/sahanp/.conda/envs/parity-bench/lib/python3.12/site-packages/torch/_inductor/runtime/triton_helpers.py":548:46)
#loc40 = loc("/home/sahanp/.conda/envs/parity-bench/lib/python3.12/site-packages/torch/_inductor/runtime/triton_helpers.py":548:15)
#loc41 = loc("/home/sahanp/.conda/envs/parity-bench/lib/python3.12/site-packages/torch/_inductor/runtime/triton_helpers.py":551:18)
#loc42 = loc("inductor_cache/ww/cwwwef7o3l5axh575l3rykxbh7pxehnk3d4227ogpvx5uwwjrppm.py":37:25)
#loc43 = loc("inductor_cache/ww/cwwwef7o3l5axh575l3rykxbh7pxehnk3d4227ogpvx5uwwjrppm.py":37:43)
#loc44 = loc("inductor_cache/ww/cwwwef7o3l5axh575l3rykxbh7pxehnk3d4227ogpvx5uwwjrppm.py":37:4)
#loc45 = loc(callsite(#loc10 at #loc11))
#loc46 = loc(callsite(#loc13 at #loc11))
#loc47 = loc(callsite(#loc14 at #loc11))
#loc48 = loc(callsite(#loc15 at #loc11))
#loc49 = loc(callsite(#loc16 at #loc17))
#loc50 = loc(callsite(#loc18 at #loc17))
#loc51 = loc(callsite(#loc19 at #loc17))
#loc52 = loc(callsite(#loc20 at #loc17))
#loc53 = loc(callsite(#loc21 at #loc22))
#loc55 = loc(callsite(#loc23 at #loc21))
#loc56 = loc(callsite(#loc24 at #loc17))
#loc57 = loc(callsite(#loc25 at #loc17))
#loc58 = loc(callsite(#loc26 at #loc17))
#loc59 = loc(callsite(#loc21 at #loc27))
#loc61 = loc(callsite(#loc28 at #loc17))
#loc62 = loc(callsite(#loc29 at #loc17))
#loc63 = loc(callsite(#loc30 at #loc17))
#loc64 = loc(callsite(#loc31 at #loc17))
#loc65 = loc(callsite(#loc32 at #loc17))
#loc66 = loc(callsite(#loc33 at #loc17))
#loc67 = loc(callsite(#loc34 at #loc17))
#loc68 = loc(callsite(#loc35 at #loc17))
#loc69 = loc(callsite(#loc36 at #loc17))
#loc70 = loc(callsite(#loc37 at #loc17))
#loc71 = loc(callsite(#loc38 at #loc17))
#loc72 = loc(callsite(#loc39 at #loc17))
#loc73 = loc(callsite(#loc40 at #loc17))
#loc74 = loc(callsite(#loc41 at #loc17))
#loc75 = loc(callsite(#loc45 at #loc12))
#loc76 = loc(callsite(#loc46 at #loc12))
#loc77 = loc(callsite(#loc47 at #loc12))
#loc78 = loc(callsite(#loc48 at #loc12))
#loc79 = loc(callsite(#loc49 at #loc11))
#loc80 = loc(callsite(#loc50 at #loc11))
#loc81 = loc(callsite(#loc51 at #loc11))
#loc82 = loc(callsite(#loc52 at #loc11))
#loc83 = loc(callsite(#loc53 at #loc17))
#loc85 = loc(callsite(#loc55 at #loc22))
#loc86 = loc(callsite(#loc56 at #loc11))
#loc87 = loc(callsite(#loc57 at #loc11))
#loc88 = loc(callsite(#loc58 at #loc11))
#loc89 = loc(callsite(#loc59 at #loc17))
#loc91 = loc(callsite(#loc55 at #loc27))
#loc92 = loc(callsite(#loc61 at #loc11))
#loc93 = loc(callsite(#loc62 at #loc11))
#loc94 = loc(callsite(#loc63 at #loc11))
#loc95 = loc(callsite(#loc64 at #loc11))
#loc96 = loc(callsite(#loc65 at #loc11))
#loc97 = loc(callsite(#loc66 at #loc11))
#loc98 = loc(callsite(#loc67 at #loc11))
#loc99 = loc(callsite(#loc68 at #loc11))
#loc100 = loc(callsite(#loc69 at #loc11))
#loc101 = loc(callsite(#loc70 at #loc11))
#loc102 = loc(callsite(#loc71 at #loc11))
#loc103 = loc(callsite(#loc72 at #loc11))
#loc104 = loc(callsite(#loc73 at #loc11))
#loc105 = loc(callsite(#loc74 at #loc11))
#loc106 = loc(callsite(#loc79 at #loc12))
#loc107 = loc(callsite(#loc80 at #loc12))
#loc108 = loc(callsite(#loc81 at #loc12))
#loc109 = loc(callsite(#loc82 at #loc12))
#loc110 = loc(callsite(#loc83 at #loc11))
#loc112 = loc(callsite(#loc85 at #loc17))
#loc113 = loc(callsite(#loc86 at #loc12))
#loc114 = loc(callsite(#loc87 at #loc12))
#loc115 = loc(callsite(#loc88 at #loc12))
#loc116 = loc(callsite(#loc89 at #loc11))
#loc118 = loc(callsite(#loc91 at #loc17))
#loc119 = loc(callsite(#loc92 at #loc12))
#loc120 = loc(callsite(#loc93 at #loc12))
#loc121 = loc(callsite(#loc94 at #loc12))
#loc122 = loc(callsite(#loc95 at #loc12))
#loc123 = loc(callsite(#loc96 at #loc12))
#loc124 = loc(callsite(#loc97 at #loc12))
#loc125 = loc(callsite(#loc98 at #loc12))
#loc126 = loc(callsite(#loc99 at #loc12))
#loc127 = loc(callsite(#loc100 at #loc12))
#loc128 = loc(callsite(#loc101 at #loc12))
#loc129 = loc(callsite(#loc102 at #loc12))
#loc130 = loc(callsite(#loc103 at #loc12))
#loc131 = loc(callsite(#loc104 at #loc12))
#loc132 = loc(callsite(#loc105 at #loc12))
#loc133 = loc(callsite(#loc110 at #loc12))
#loc135 = loc(callsite(#loc112 at #loc11))
#loc136 = loc(callsite(#loc116 at #loc12))
#loc138 = loc(callsite(#loc118 at #loc11))
#loc139 = loc(callsite(#loc135 at #loc12))
#loc140 = loc(callsite(#loc138 at #loc12))
