#loc = loc("inductor_cache/gv/cgvhj7nv4uutmwvxpadmyusoenpbleniemtywnay2bidiuol7zk5.py":19:0)
#loc1 = loc(unknown)
#loc27 = loc("inductor_cache/gv/cgvhj7nv4uutmwvxpadmyusoenpbleniemtywnay2bidiuol7zk5.py":41:25)
#loc38 = loc(callsite(#loc1 at #loc27))
module {
  tt.func public @triton_per_fused_div_exp_mul_sigmoid_sum_1(%arg0: !tt.ptr<f32> {tt.divisibility = 16 : i32} loc("inductor_cache/gv/cgvhj7nv4uutmwvxpadmyusoenpbleniemtywnay2bidiuol7zk5.py":19:0), %arg1: !tt.ptr<f32> {tt.divisibility = 16 : i32} loc("inductor_cache/gv/cgvhj7nv4uutmwvxpadmyusoenpbleniemtywnay2bidiuol7zk5.py":19:0), %arg2: !tt.ptr<f32> {tt.divisibility = 16 : i32} loc("inductor_cache/gv/cgvhj7nv4uutmwvxpadmyusoenpbleniemtywnay2bidiuol7zk5.py":19:0), %arg3: !tt.ptr<f32> {tt.divisibility = 16 : i32} loc("inductor_cache/gv/cgvhj7nv4uutmwvxpadmyusoenpbleniemtywnay2bidiuol7zk5.py":19:0), %arg4: i32 {tt.divisibility = 16 : i32} loc("inductor_cache/gv/cgvhj7nv4uutmwvxpadmyusoenpbleniemtywnay2bidiuol7zk5.py":19:0), %arg5: i32 {tt.divisibility = 16 : i32} loc("inductor_cache/gv/cgvhj7nv4uutmwvxpadmyusoenpbleniemtywnay2bidiuol7zk5.py":19:0)) attributes {noinline = false} {
    %c4_i32 = arith.constant 4 : i32 loc(#loc1)
    %c16_i32 = arith.constant 16 : i32 loc(#loc1)
    %cst = arith.constant dense<1.000000e+00> : tensor<1x16xf32> loc(#loc1)
    %cst_0 = arith.constant dense<0.000000e+00> : tensor<1x16xf32> loc(#loc1)
    %0 = tt.get_program_id x : i32 loc(#loc2)
    %1 = arith.cmpi slt, %0, %c16_i32 : i32 loc(#loc3)
    %2 = tt.splat %1 : i1 -> tensor<1x1xi1> loc(#loc3)
    %3 = tt.make_range {end = 16 : i32, start = 0 : i32} : tensor<16xi32> loc(#loc4)
    %4 = tt.expand_dims %3 {axis = 0 : i32} : tensor<16xi32> -> tensor<1x16xi32> loc(#loc5)
    %5 = arith.divsi %0, %c4_i32 : i32 loc(#loc6)
    %6 = arith.muli %5, %c16_i32 : i32 loc(#loc7)
    %7 = tt.splat %6 : i32 -> tensor<1x16xi32> loc(#loc8)
    %8 = arith.addi %4, %7 : tensor<1x16xi32> loc(#loc8)
    %9 = tt.splat %arg0 : !tt.ptr<f32> -> tensor<1x16x!tt.ptr<f32>> loc(#loc9)
    %10 = tt.addptr %9, %8 : tensor<1x16x!tt.ptr<f32>>, tensor<1x16xi32> loc(#loc9)
    %11 = tt.splat %1 : i1 -> tensor<1x16xi1> loc(#loc10)
    %12 = tt.load %10, %11, %cst_0 evictionPolicy = evict_last : tensor<1x16x!tt.ptr<f32>> loc(#loc10)
    %13 = tt.addptr %arg1, %5 : !tt.ptr<f32>, i32 loc(#loc11)
    %14 = tt.splat %13 : !tt.ptr<f32> -> tensor<1x1x!tt.ptr<f32>> loc(#loc11)
    %15 = tt.load %14, %2 evictionPolicy = evict_last : tensor<1x1x!tt.ptr<f32>> loc(#loc12)
    %16 = arith.muli %0, %c16_i32 : i32 loc(#loc13)
    %17 = tt.splat %16 : i32 -> tensor<1x16xi32> loc(#loc14)
    %18 = arith.addi %4, %17 : tensor<1x16xi32> loc(#loc14)
    %19 = tt.splat %arg2 : !tt.ptr<f32> -> tensor<1x16x!tt.ptr<f32>> loc(#loc15)
    %20 = tt.addptr %19, %18 : tensor<1x16x!tt.ptr<f32>>, tensor<1x16xi32> loc(#loc15)
    %21 = tt.load %20, %11, %cst_0 : tensor<1x16x!tt.ptr<f32>> loc(#loc16)
    %22 = arith.subf %cst_0, %12 : tensor<1x16xf32> loc(#loc33)
    %23 = math.exp %22 : tensor<1x16xf32> loc(#loc34)
    %24 = arith.addf %23, %cst : tensor<1x16xf32> loc(#loc35)
    %25 = arith.divf %cst, %24 : tensor<1x16xf32> loc(#loc36)
    %26 = math.exp %25 : tensor<1x16xf32> loc(#loc22)
    %27 = tt.broadcast %15 : tensor<1x1xf32> -> tensor<1x16xf32> loc(#loc23)
    %28 = arith.divf %26, %27 : tensor<1x16xf32> loc(#loc23)
    %29 = arith.mulf %28, %21 : tensor<1x16xf32> loc(#loc24)
    %30 = arith.select %11, %29, %cst_0 : tensor<1x16xi1>, tensor<1x16xf32> loc(#loc25)
    %31 = "tt.reduce"(%30) <{axis = 1 : i32}> ({
    ^bb0(%arg6: f32 loc(callsite(#loc1 at #loc27)), %arg7: f32 loc(callsite(#loc1 at #loc27))):
      %35 = arith.addf %arg6, %arg7 : f32 loc(#loc40)
      tt.reduce.return %35 : f32 loc(#loc37)
    }) : (tensor<1x16xf32>) -> tensor<1xf32> loc(#loc37)
    %32 = tt.expand_dims %31 {axis = 1 : i32} : tensor<1xf32> -> tensor<1x1xf32> loc(#loc29)
    %33 = tt.addptr %arg3, %0 : !tt.ptr<f32>, i32 loc(#loc30)
    %34 = tt.splat %33 : !tt.ptr<f32> -> tensor<1x1x!tt.ptr<f32>> loc(#loc30)
    tt.store %34, %32, %2 : tensor<1x1x!tt.ptr<f32>> loc(#loc31)
    tt.return loc(#loc32)
  } loc(#loc)
} loc(#loc)
#loc2 = loc("inductor_cache/gv/cgvhj7nv4uutmwvxpadmyusoenpbleniemtywnay2bidiuol7zk5.py":23:28)
#loc3 = loc("inductor_cache/gv/cgvhj7nv4uutmwvxpadmyusoenpbleniemtywnay2bidiuol7zk5.py":25:21)
#loc4 = loc("inductor_cache/gv/cgvhj7nv4uutmwvxpadmyusoenpbleniemtywnay2bidiuol7zk5.py":26:26)
#loc5 = loc("inductor_cache/gv/cgvhj7nv4uutmwvxpadmyusoenpbleniemtywnay2bidiuol7zk5.py":26:34)
#loc6 = loc("inductor_cache/gv/cgvhj7nv4uutmwvxpadmyusoenpbleniemtywnay2bidiuol7zk5.py":30:19)
#loc7 = loc("inductor_cache/gv/cgvhj7nv4uutmwvxpadmyusoenpbleniemtywnay2bidiuol7zk5.py":32:38)
#loc8 = loc("inductor_cache/gv/cgvhj7nv4uutmwvxpadmyusoenpbleniemtywnay2bidiuol7zk5.py":32:35)
#loc9 = loc("inductor_cache/gv/cgvhj7nv4uutmwvxpadmyusoenpbleniemtywnay2bidiuol7zk5.py":32:30)
#loc10 = loc("inductor_cache/gv/cgvhj7nv4uutmwvxpadmyusoenpbleniemtywnay2bidiuol7zk5.py":32:43)
#loc11 = loc("inductor_cache/gv/cgvhj7nv4uutmwvxpadmyusoenpbleniemtywnay2bidiuol7zk5.py":33:30)
#loc12 = loc("inductor_cache/gv/cgvhj7nv4uutmwvxpadmyusoenpbleniemtywnay2bidiuol7zk5.py":33:35)
#loc13 = loc("inductor_cache/gv/cgvhj7nv4uutmwvxpadmyusoenpbleniemtywnay2bidiuol7zk5.py":34:38)
#loc14 = loc("inductor_cache/gv/cgvhj7nv4uutmwvxpadmyusoenpbleniemtywnay2bidiuol7zk5.py":34:35)
#loc15 = loc("inductor_cache/gv/cgvhj7nv4uutmwvxpadmyusoenpbleniemtywnay2bidiuol7zk5.py":34:30)
#loc16 = loc("inductor_cache/gv/cgvhj7nv4uutmwvxpadmyusoenpbleniemtywnay2bidiuol7zk5.py":34:43)
#loc17 = loc("/home/sahanp/.conda/envs/parity-bench/lib/python3.12/site-packages/triton/language/standard.py":47:30)
#loc18 = loc("inductor_cache/gv/cgvhj7nv4uutmwvxpadmyusoenpbleniemtywnay2bidiuol7zk5.py":35:22)
#loc19 = loc("/home/sahanp/.conda/envs/parity-bench/lib/python3.12/site-packages/triton/language/standard.py":47:29)
#loc20 = loc("/home/sahanp/.conda/envs/parity-bench/lib/python3.12/site-packages/triton/language/standard.py":47:20)
#loc21 = loc("/home/sahanp/.conda/envs/parity-bench/lib/python3.12/site-packages/triton/language/standard.py":47:16)
#loc22 = loc("inductor_cache/gv/cgvhj7nv4uutmwvxpadmyusoenpbleniemtywnay2bidiuol7zk5.py":36:23)
#loc23 = loc("inductor_cache/gv/cgvhj7nv4uutmwvxpadmyusoenpbleniemtywnay2bidiuol7zk5.py":37:18)
#loc24 = loc("inductor_cache/gv/cgvhj7nv4uutmwvxpadmyusoenpbleniemtywnay2bidiuol7zk5.py":38:18)
#loc25 = loc("inductor_cache/gv/cgvhj7nv4uutmwvxpadmyusoenpbleniemtywnay2bidiuol7zk5.py":40:33)
#loc26 = loc("/home/sahanp/.conda/envs/parity-bench/lib/python3.12/site-packages/triton/language/standard.py":267:36)
#loc28 = loc("/home/sahanp/.conda/envs/parity-bench/lib/python3.12/site-packages/triton/language/standard.py":256:15)
#loc29 = loc("inductor_cache/gv/cgvhj7nv4uutmwvxpadmyusoenpbleniemtywnay2bidiuol7zk5.py":41:28)
#loc30 = loc("inductor_cache/gv/cgvhj7nv4uutmwvxpadmyusoenpbleniemtywnay2bidiuol7zk5.py":42:25)
#loc31 = loc("inductor_cache/gv/cgvhj7nv4uutmwvxpadmyusoenpbleniemtywnay2bidiuol7zk5.py":42:37)
#loc32 = loc("inductor_cache/gv/cgvhj7nv4uutmwvxpadmyusoenpbleniemtywnay2bidiuol7zk5.py":42:4)
#loc33 = loc(callsite(#loc17 at #loc18))
#loc34 = loc(callsite(#loc19 at #loc18))
#loc35 = loc(callsite(#loc20 at #loc18))
#loc36 = loc(callsite(#loc21 at #loc18))
#loc37 = loc(callsite(#loc26 at #loc27))
#loc39 = loc(callsite(#loc28 at #loc26))
#loc40 = loc(callsite(#loc39 at #loc27))
