#loc = loc("inductor_cache/vw/cvwrv6263lyasnwuxauqgchk6beiw3szhqsj6sktqaaaj4qcy255.py":19:0)
module {
  tt.func public @triton_poi_fused__native_batch_norm_legit_no_training_avg_pool2d_cat_relu_56(%arg0: !tt.ptr<f32> {tt.divisibility = 16 : i32} loc("inductor_cache/vw/cvwrv6263lyasnwuxauqgchk6beiw3szhqsj6sktqaaaj4qcy255.py":19:0), %arg1: !tt.ptr<f32> {tt.divisibility = 16 : i32} loc("inductor_cache/vw/cvwrv6263lyasnwuxauqgchk6beiw3szhqsj6sktqaaaj4qcy255.py":19:0), %arg2: !tt.ptr<f32> {tt.divisibility = 16 : i32} loc("inductor_cache/vw/cvwrv6263lyasnwuxauqgchk6beiw3szhqsj6sktqaaaj4qcy255.py":19:0), %arg3: !tt.ptr<f32> {tt.divisibility = 16 : i32} loc("inductor_cache/vw/cvwrv6263lyasnwuxauqgchk6beiw3szhqsj6sktqaaaj4qcy255.py":19:0), %arg4: !tt.ptr<f32> {tt.divisibility = 16 : i32} loc("inductor_cache/vw/cvwrv6263lyasnwuxauqgchk6beiw3szhqsj6sktqaaaj4qcy255.py":19:0), %arg5: !tt.ptr<f32> {tt.divisibility = 16 : i32} loc("inductor_cache/vw/cvwrv6263lyasnwuxauqgchk6beiw3szhqsj6sktqaaaj4qcy255.py":19:0), %arg6: !tt.ptr<f32> {tt.divisibility = 16 : i32} loc("inductor_cache/vw/cvwrv6263lyasnwuxauqgchk6beiw3szhqsj6sktqaaaj4qcy255.py":19:0), %arg7: !tt.ptr<f32> {tt.divisibility = 16 : i32} loc("inductor_cache/vw/cvwrv6263lyasnwuxauqgchk6beiw3szhqsj6sktqaaaj4qcy255.py":19:0), %arg8: !tt.ptr<f32> {tt.divisibility = 16 : i32} loc("inductor_cache/vw/cvwrv6263lyasnwuxauqgchk6beiw3szhqsj6sktqaaaj4qcy255.py":19:0), %arg9: !tt.ptr<f32> {tt.divisibility = 16 : i32} loc("inductor_cache/vw/cvwrv6263lyasnwuxauqgchk6beiw3szhqsj6sktqaaaj4qcy255.py":19:0), %arg10: !tt.ptr<f32> {tt.divisibility = 16 : i32} loc("inductor_cache/vw/cvwrv6263lyasnwuxauqgchk6beiw3szhqsj6sktqaaaj4qcy255.py":19:0), %arg11: !tt.ptr<f32> {tt.divisibility = 16 : i32} loc("inductor_cache/vw/cvwrv6263lyasnwuxauqgchk6beiw3szhqsj6sktqaaaj4qcy255.py":19:0), %arg12: !tt.ptr<f32> {tt.divisibility = 16 : i32} loc("inductor_cache/vw/cvwrv6263lyasnwuxauqgchk6beiw3szhqsj6sktqaaaj4qcy255.py":19:0), %arg13: !tt.ptr<f32> {tt.divisibility = 16 : i32} loc("inductor_cache/vw/cvwrv6263lyasnwuxauqgchk6beiw3szhqsj6sktqaaaj4qcy255.py":19:0), %arg14: !tt.ptr<f32> {tt.divisibility = 16 : i32} loc("inductor_cache/vw/cvwrv6263lyasnwuxauqgchk6beiw3szhqsj6sktqaaaj4qcy255.py":19:0), %arg15: !tt.ptr<f32> {tt.divisibility = 16 : i32} loc("inductor_cache/vw/cvwrv6263lyasnwuxauqgchk6beiw3szhqsj6sktqaaaj4qcy255.py":19:0), %arg16: i32 {tt.divisibility = 16 : i32} loc("inductor_cache/vw/cvwrv6263lyasnwuxauqgchk6beiw3szhqsj6sktqaaaj4qcy255.py":19:0)) attributes {noinline = false} {
    %cst = arith.constant dense<0.000000e+00> : tensor<512xf32> loc(#loc1)
    %cst_0 = arith.constant dense<1.000000e+00> : tensor<512xf32> loc(#loc1)
    %cst_1 = arith.constant dense<87552> : tensor<512xi32> loc(#loc1)
    %cst_2 = arith.constant dense<84480> : tensor<512xi32> loc(#loc1)
    %cst_3 = arith.constant dense<81408> : tensor<512xi32> loc(#loc1)
    %cst_4 = arith.constant dense<78336> : tensor<512xi32> loc(#loc1)
    %cst_5 = arith.constant dense<75264> : tensor<512xi32> loc(#loc1)
    %cst_6 = arith.constant dense<72192> : tensor<512xi32> loc(#loc1)
    %cst_7 = arith.constant dense<69120> : tensor<512xi32> loc(#loc1)
    %cst_8 = arith.constant dense<66048> : tensor<512xi32> loc(#loc1)
    %cst_9 = arith.constant dense<62976> : tensor<512xi32> loc(#loc1)
    %cst_10 = arith.constant dense<9.99999974E-6> : tensor<512xf32> loc(#loc1)
    %cst_11 = arith.constant dense<2.500000e-01> : tensor<512xf32> loc(#loc1)
    %cst_12 = arith.constant dense<33> : tensor<512xi32> loc(#loc1)
    %cst_13 = arith.constant dense<32> : tensor<512xi32> loc(#loc1)
    %cst_14 = arith.constant dense<1> : tensor<512xi32> loc(#loc1)
    %cst_15 = arith.constant dense<64> : tensor<512xi32> loc(#loc1)
    %cst_16 = arith.constant dense<2> : tensor<512xi32> loc(#loc1)
    %cst_17 = arith.constant dense<38400> : tensor<512xi32> loc(#loc1)
    %cst_18 = arith.constant dense<150> : tensor<512xi32> loc(#loc1)
    %cst_19 = arith.constant dense<256> : tensor<512xi32> loc(#loc1)
    %cst_20 = arith.constant dense<16> : tensor<512xi32> loc(#loc1)
    %cst_21 = arith.constant dense<153600> : tensor<512xi32> loc(#loc1)
    %c512_i32 = arith.constant 512 : i32 loc(#loc1)
    %0 = tt.get_program_id x : i32 loc(#loc2)
    %1 = arith.muli %0, %c512_i32 : i32 loc(#loc3)
    %2 = tt.make_range {end = 512 : i32, start = 0 : i32} : tensor<512xi32> loc(#loc4)
    %3 = tt.splat %1 : i32 -> tensor<512xi32> loc(#loc5)
    %4 = arith.addi %3, %2 : tensor<512xi32> loc(#loc5)
    %5 = arith.cmpi slt, %4, %cst_21 : tensor<512xi32> loc(#loc6)
    %6 = arith.remsi %4, %cst_20 : tensor<512xi32> loc(#loc7)
    %7 = arith.divsi %4, %cst_20 : tensor<512xi32> loc(#loc8)
    %8 = arith.divsi %4, %cst_19 : tensor<512xi32> loc(#loc9)
    %9 = arith.remsi %8, %cst_18 : tensor<512xi32> loc(#loc10)
    %10 = arith.divsi %4, %cst_17 : tensor<512xi32> loc(#loc11)
    %11 = arith.remsi %4, %cst_17 : tensor<512xi32> loc(#loc12)
    %12 = arith.muli %6, %cst_16 : tensor<512xi32> loc(#loc13)
    %13 = arith.muli %7, %cst_15 : tensor<512xi32> loc(#loc14)
    %14 = arith.addi %12, %13 : tensor<512xi32> loc(#loc15)
    %15 = tt.splat %arg0 : !tt.ptr<f32> -> tensor<512x!tt.ptr<f32>> loc(#loc16)
    %16 = tt.addptr %15, %14 : tensor<512x!tt.ptr<f32>>, tensor<512xi32> loc(#loc16)
    %17 = tt.load %16, %5 evictionPolicy = evict_last : tensor<512x!tt.ptr<f32>> loc(#loc17)
    %18 = arith.addi %12, %cst_14 : tensor<512xi32> loc(#loc18)
    %19 = arith.addi %18, %13 : tensor<512xi32> loc(#loc19)
    %20 = tt.addptr %15, %19 : tensor<512x!tt.ptr<f32>>, tensor<512xi32> loc(#loc20)
    %21 = tt.load %20, %5 evictionPolicy = evict_last : tensor<512x!tt.ptr<f32>> loc(#loc21)
    %22 = arith.addi %12, %cst_13 : tensor<512xi32> loc(#loc22)
    %23 = arith.addi %22, %13 : tensor<512xi32> loc(#loc23)
    %24 = tt.addptr %15, %23 : tensor<512x!tt.ptr<f32>>, tensor<512xi32> loc(#loc24)
    %25 = tt.load %24, %5 evictionPolicy = evict_last : tensor<512x!tt.ptr<f32>> loc(#loc25)
    %26 = arith.addi %12, %cst_12 : tensor<512xi32> loc(#loc26)
    %27 = arith.addi %26, %13 : tensor<512xi32> loc(#loc27)
    %28 = tt.addptr %15, %27 : tensor<512x!tt.ptr<f32>>, tensor<512xi32> loc(#loc28)
    %29 = tt.load %28, %5 evictionPolicy = evict_last : tensor<512x!tt.ptr<f32>> loc(#loc29)
    %30 = tt.splat %arg1 : !tt.ptr<f32> -> tensor<512x!tt.ptr<f32>> loc(#loc30)
    %31 = tt.addptr %30, %9 : tensor<512x!tt.ptr<f32>>, tensor<512xi32> loc(#loc30)
    %32 = tt.load %31, %5 evictionPolicy = evict_last : tensor<512x!tt.ptr<f32>> loc(#loc31)
    %33 = tt.splat %arg2 : !tt.ptr<f32> -> tensor<512x!tt.ptr<f32>> loc(#loc32)
    %34 = tt.addptr %33, %9 : tensor<512x!tt.ptr<f32>>, tensor<512xi32> loc(#loc32)
    %35 = tt.load %34, %5 evictionPolicy = evict_last : tensor<512x!tt.ptr<f32>> loc(#loc33)
    %36 = tt.splat %arg3 : !tt.ptr<f32> -> tensor<512x!tt.ptr<f32>> loc(#loc34)
    %37 = tt.addptr %36, %9 : tensor<512x!tt.ptr<f32>>, tensor<512xi32> loc(#loc34)
    %38 = tt.load %37, %5 evictionPolicy = evict_last : tensor<512x!tt.ptr<f32>> loc(#loc35)
    %39 = tt.splat %arg4 : !tt.ptr<f32> -> tensor<512x!tt.ptr<f32>> loc(#loc36)
    %40 = tt.addptr %39, %9 : tensor<512x!tt.ptr<f32>>, tensor<512xi32> loc(#loc36)
    %41 = tt.load %40, %5 evictionPolicy = evict_last : tensor<512x!tt.ptr<f32>> loc(#loc37)
    %42 = arith.addf %21, %17 : tensor<512xf32> loc(#loc38)
    %43 = arith.addf %25, %42 : tensor<512xf32> loc(#loc39)
    %44 = arith.addf %29, %43 : tensor<512xf32> loc(#loc40)
    %45 = arith.mulf %44, %cst_11 : tensor<512xf32> loc(#loc41)
    %46 = arith.subf %45, %32 : tensor<512xf32> loc(#loc42)
    %47 = arith.addf %35, %cst_10 : tensor<512xf32> loc(#loc43)
    %48 = tt.extern_elementwise %47 {libname = "", libpath = "", pure = true, symbol = "__nv_sqrtf"} : (tensor<512xf32>) -> tensor<512xf32> loc(#loc44)
    %49 = arith.divf %cst_0, %48 : tensor<512xf32> loc(#loc45)
    %50 = arith.mulf %46, %49 : tensor<512xf32> loc(#loc46)
    %51 = arith.mulf %50, %38 : tensor<512xf32> loc(#loc47)
    %52 = arith.addf %51, %41 : tensor<512xf32> loc(#loc48)
    %53 = arith.cmpf ogt, %cst, %52 : tensor<512xf32> loc(#loc93)
    %54 = arith.select %53, %cst, %52 : tensor<512xi1>, tensor<512xf32> loc(#loc94)
    %55 = tt.splat %arg5 : !tt.ptr<f32> -> tensor<512x!tt.ptr<f32>> loc(#loc52)
    %56 = tt.addptr %55, %4 : tensor<512x!tt.ptr<f32>>, tensor<512xi32> loc(#loc52)
    tt.store %56, %45, %5 : tensor<512x!tt.ptr<f32>> loc(#loc53)
    %57 = tt.splat %arg6 : !tt.ptr<f32> -> tensor<512x!tt.ptr<f32>> loc(#loc54)
    %58 = tt.addptr %57, %4 : tensor<512x!tt.ptr<f32>>, tensor<512xi32> loc(#loc54)
    tt.store %58, %54, %5 : tensor<512x!tt.ptr<f32>> loc(#loc55)
    %59 = arith.muli %10, %cst_9 : tensor<512xi32> loc(#loc56)
    %60 = arith.addi %11, %59 : tensor<512xi32> loc(#loc57)
    %61 = tt.splat %arg7 : !tt.ptr<f32> -> tensor<512x!tt.ptr<f32>> loc(#loc58)
    %62 = tt.addptr %61, %60 : tensor<512x!tt.ptr<f32>>, tensor<512xi32> loc(#loc58)
    tt.store %62, %45, %5 : tensor<512x!tt.ptr<f32>> loc(#loc59)
    %63 = arith.muli %10, %cst_8 : tensor<512xi32> loc(#loc60)
    %64 = arith.addi %11, %63 : tensor<512xi32> loc(#loc61)
    %65 = tt.splat %arg8 : !tt.ptr<f32> -> tensor<512x!tt.ptr<f32>> loc(#loc62)
    %66 = tt.addptr %65, %64 : tensor<512x!tt.ptr<f32>>, tensor<512xi32> loc(#loc62)
    tt.store %66, %45, %5 : tensor<512x!tt.ptr<f32>> loc(#loc63)
    %67 = arith.muli %10, %cst_7 : tensor<512xi32> loc(#loc64)
    %68 = arith.addi %11, %67 : tensor<512xi32> loc(#loc65)
    %69 = tt.splat %arg9 : !tt.ptr<f32> -> tensor<512x!tt.ptr<f32>> loc(#loc66)
    %70 = tt.addptr %69, %68 : tensor<512x!tt.ptr<f32>>, tensor<512xi32> loc(#loc66)
    tt.store %70, %45, %5 : tensor<512x!tt.ptr<f32>> loc(#loc67)
    %71 = arith.muli %10, %cst_6 : tensor<512xi32> loc(#loc68)
    %72 = arith.addi %11, %71 : tensor<512xi32> loc(#loc69)
    %73 = tt.splat %arg10 : !tt.ptr<f32> -> tensor<512x!tt.ptr<f32>> loc(#loc70)
    %74 = tt.addptr %73, %72 : tensor<512x!tt.ptr<f32>>, tensor<512xi32> loc(#loc70)
    tt.store %74, %45, %5 : tensor<512x!tt.ptr<f32>> loc(#loc71)
    %75 = arith.muli %10, %cst_5 : tensor<512xi32> loc(#loc72)
    %76 = arith.addi %11, %75 : tensor<512xi32> loc(#loc73)
    %77 = tt.splat %arg11 : !tt.ptr<f32> -> tensor<512x!tt.ptr<f32>> loc(#loc74)
    %78 = tt.addptr %77, %76 : tensor<512x!tt.ptr<f32>>, tensor<512xi32> loc(#loc74)
    tt.store %78, %45, %5 : tensor<512x!tt.ptr<f32>> loc(#loc75)
    %79 = arith.muli %10, %cst_4 : tensor<512xi32> loc(#loc76)
    %80 = arith.addi %11, %79 : tensor<512xi32> loc(#loc77)
    %81 = tt.splat %arg12 : !tt.ptr<f32> -> tensor<512x!tt.ptr<f32>> loc(#loc78)
    %82 = tt.addptr %81, %80 : tensor<512x!tt.ptr<f32>>, tensor<512xi32> loc(#loc78)
    tt.store %82, %45, %5 : tensor<512x!tt.ptr<f32>> loc(#loc79)
    %83 = arith.muli %10, %cst_3 : tensor<512xi32> loc(#loc80)
    %84 = arith.addi %11, %83 : tensor<512xi32> loc(#loc81)
    %85 = tt.splat %arg13 : !tt.ptr<f32> -> tensor<512x!tt.ptr<f32>> loc(#loc82)
    %86 = tt.addptr %85, %84 : tensor<512x!tt.ptr<f32>>, tensor<512xi32> loc(#loc82)
    tt.store %86, %45, %5 : tensor<512x!tt.ptr<f32>> loc(#loc83)
    %87 = arith.muli %10, %cst_2 : tensor<512xi32> loc(#loc84)
    %88 = arith.addi %11, %87 : tensor<512xi32> loc(#loc85)
    %89 = tt.splat %arg14 : !tt.ptr<f32> -> tensor<512x!tt.ptr<f32>> loc(#loc86)
    %90 = tt.addptr %89, %88 : tensor<512x!tt.ptr<f32>>, tensor<512xi32> loc(#loc86)
    tt.store %90, %45, %5 : tensor<512x!tt.ptr<f32>> loc(#loc87)
    %91 = arith.muli %10, %cst_1 : tensor<512xi32> loc(#loc88)
    %92 = arith.addi %11, %91 : tensor<512xi32> loc(#loc89)
    %93 = tt.splat %arg15 : !tt.ptr<f32> -> tensor<512x!tt.ptr<f32>> loc(#loc90)
    %94 = tt.addptr %93, %92 : tensor<512x!tt.ptr<f32>>, tensor<512xi32> loc(#loc90)
    tt.store %94, %45, %5 : tensor<512x!tt.ptr<f32>> loc(#loc91)
    tt.return loc(#loc92)
  } loc(#loc)
} loc(#loc)
#loc1 = loc(unknown)
#loc2 = loc("inductor_cache/vw/cvwrv6263lyasnwuxauqgchk6beiw3szhqsj6sktqaaaj4qcy255.py":21:28)
#loc3 = loc("inductor_cache/vw/cvwrv6263lyasnwuxauqgchk6beiw3szhqsj6sktqaaaj4qcy255.py":21:33)
#loc4 = loc("inductor_cache/vw/cvwrv6263lyasnwuxauqgchk6beiw3szhqsj6sktqaaaj4qcy255.py":22:36)
#loc5 = loc("inductor_cache/vw/cvwrv6263lyasnwuxauqgchk6beiw3szhqsj6sktqaaaj4qcy255.py":22:23)
#loc6 = loc("inductor_cache/vw/cvwrv6263lyasnwuxauqgchk6beiw3szhqsj6sktqaaaj4qcy255.py":23:21)
#loc7 = loc("inductor_cache/vw/cvwrv6263lyasnwuxauqgchk6beiw3szhqsj6sktqaaaj4qcy255.py":24:19)
#loc8 = loc("inductor_cache/vw/cvwrv6263lyasnwuxauqgchk6beiw3szhqsj6sktqaaaj4qcy255.py":25:19)
#loc9 = loc("inductor_cache/vw/cvwrv6263lyasnwuxauqgchk6beiw3szhqsj6sktqaaaj4qcy255.py":27:21)
#loc10 = loc("inductor_cache/vw/cvwrv6263lyasnwuxauqgchk6beiw3szhqsj6sktqaaaj4qcy255.py":27:28)
#loc11 = loc("inductor_cache/vw/cvwrv6263lyasnwuxauqgchk6beiw3szhqsj6sktqaaaj4qcy255.py":28:19)
#loc12 = loc("inductor_cache/vw/cvwrv6263lyasnwuxauqgchk6beiw3szhqsj6sktqaaaj4qcy255.py":29:19)
#loc13 = loc("inductor_cache/vw/cvwrv6263lyasnwuxauqgchk6beiw3szhqsj6sktqaaaj4qcy255.py":30:32)
#loc14 = loc("inductor_cache/vw/cvwrv6263lyasnwuxauqgchk6beiw3szhqsj6sktqaaaj4qcy255.py":30:40)
#loc15 = loc("inductor_cache/vw/cvwrv6263lyasnwuxauqgchk6beiw3szhqsj6sktqaaaj4qcy255.py":30:37)
#loc16 = loc("inductor_cache/vw/cvwrv6263lyasnwuxauqgchk6beiw3szhqsj6sktqaaaj4qcy255.py":30:30)
#loc17 = loc("inductor_cache/vw/cvwrv6263lyasnwuxauqgchk6beiw3szhqsj6sktqaaaj4qcy255.py":30:45)
#loc18 = loc("inductor_cache/vw/cvwrv6263lyasnwuxauqgchk6beiw3szhqsj6sktqaaaj4qcy255.py":31:34)
#loc19 = loc("inductor_cache/vw/cvwrv6263lyasnwuxauqgchk6beiw3szhqsj6sktqaaaj4qcy255.py":31:41)
#loc20 = loc("inductor_cache/vw/cvwrv6263lyasnwuxauqgchk6beiw3szhqsj6sktqaaaj4qcy255.py":31:30)
#loc21 = loc("inductor_cache/vw/cvwrv6263lyasnwuxauqgchk6beiw3szhqsj6sktqaaaj4qcy255.py":31:49)
#loc22 = loc("inductor_cache/vw/cvwrv6263lyasnwuxauqgchk6beiw3szhqsj6sktqaaaj4qcy255.py":32:35)
#loc23 = loc("inductor_cache/vw/cvwrv6263lyasnwuxauqgchk6beiw3szhqsj6sktqaaaj4qcy255.py":32:42)
#loc24 = loc("inductor_cache/vw/cvwrv6263lyasnwuxauqgchk6beiw3szhqsj6sktqaaaj4qcy255.py":32:30)
#loc25 = loc("inductor_cache/vw/cvwrv6263lyasnwuxauqgchk6beiw3szhqsj6sktqaaaj4qcy255.py":32:50)
#loc26 = loc("inductor_cache/vw/cvwrv6263lyasnwuxauqgchk6beiw3szhqsj6sktqaaaj4qcy255.py":33:35)
#loc27 = loc("inductor_cache/vw/cvwrv6263lyasnwuxauqgchk6beiw3szhqsj6sktqaaaj4qcy255.py":33:42)
#loc28 = loc("inductor_cache/vw/cvwrv6263lyasnwuxauqgchk6beiw3szhqsj6sktqaaaj4qcy255.py":33:30)
#loc29 = loc("inductor_cache/vw/cvwrv6263lyasnwuxauqgchk6beiw3szhqsj6sktqaaaj4qcy255.py":33:50)
#loc30 = loc("inductor_cache/vw/cvwrv6263lyasnwuxauqgchk6beiw3szhqsj6sktqaaaj4qcy255.py":34:30)
#loc31 = loc("inductor_cache/vw/cvwrv6263lyasnwuxauqgchk6beiw3szhqsj6sktqaaaj4qcy255.py":34:35)
#loc32 = loc("inductor_cache/vw/cvwrv6263lyasnwuxauqgchk6beiw3szhqsj6sktqaaaj4qcy255.py":35:31)
#loc33 = loc("inductor_cache/vw/cvwrv6263lyasnwuxauqgchk6beiw3szhqsj6sktqaaaj4qcy255.py":35:36)
#loc34 = loc("inductor_cache/vw/cvwrv6263lyasnwuxauqgchk6beiw3szhqsj6sktqaaaj4qcy255.py":36:31)
#loc35 = loc("inductor_cache/vw/cvwrv6263lyasnwuxauqgchk6beiw3szhqsj6sktqaaaj4qcy255.py":36:36)
#loc36 = loc("inductor_cache/vw/cvwrv6263lyasnwuxauqgchk6beiw3szhqsj6sktqaaaj4qcy255.py":37:31)
#loc37 = loc("inductor_cache/vw/cvwrv6263lyasnwuxauqgchk6beiw3szhqsj6sktqaaaj4qcy255.py":37:36)
#loc38 = loc("inductor_cache/vw/cvwrv6263lyasnwuxauqgchk6beiw3szhqsj6sktqaaaj4qcy255.py":38:18)
#loc39 = loc("inductor_cache/vw/cvwrv6263lyasnwuxauqgchk6beiw3szhqsj6sktqaaaj4qcy255.py":39:18)
#loc40 = loc("inductor_cache/vw/cvwrv6263lyasnwuxauqgchk6beiw3szhqsj6sktqaaaj4qcy255.py":40:18)
#loc41 = loc("inductor_cache/vw/cvwrv6263lyasnwuxauqgchk6beiw3szhqsj6sktqaaaj4qcy255.py":42:18)
#loc42 = loc("inductor_cache/vw/cvwrv6263lyasnwuxauqgchk6beiw3szhqsj6sktqaaaj4qcy255.py":43:19)
#loc43 = loc("inductor_cache/vw/cvwrv6263lyasnwuxauqgchk6beiw3szhqsj6sktqaaaj4qcy255.py":45:20)
#loc44 = loc("inductor_cache/vw/cvwrv6263lyasnwuxauqgchk6beiw3szhqsj6sktqaaaj4qcy255.py":46:27)
#loc45 = loc("inductor_cache/vw/cvwrv6263lyasnwuxauqgchk6beiw3szhqsj6sktqaaaj4qcy255.py":48:20)
#loc46 = loc("inductor_cache/vw/cvwrv6263lyasnwuxauqgchk6beiw3szhqsj6sktqaaaj4qcy255.py":51:20)
#loc47 = loc("inductor_cache/vw/cvwrv6263lyasnwuxauqgchk6beiw3szhqsj6sktqaaaj4qcy255.py":52:20)
#loc48 = loc("inductor_cache/vw/cvwrv6263lyasnwuxauqgchk6beiw3szhqsj6sktqaaaj4qcy255.py":53:20)
#loc49 = loc("/home/sahanp/.conda/envs/parity-bench/lib/python3.12/site-packages/torch/_inductor/runtime/triton_helpers.py":118:15)
#loc50 = loc("inductor_cache/vw/cvwrv6263lyasnwuxauqgchk6beiw3szhqsj6sktqaaaj4qcy255.py":55:42)
#loc51 = loc("/home/sahanp/.conda/envs/parity-bench/lib/python3.12/site-packages/torch/_inductor/runtime/triton_helpers.py":121:29)
#loc52 = loc("inductor_cache/vw/cvwrv6263lyasnwuxauqgchk6beiw3szhqsj6sktqaaaj4qcy255.py":56:25)
#loc53 = loc("inductor_cache/vw/cvwrv6263lyasnwuxauqgchk6beiw3szhqsj6sktqaaaj4qcy255.py":56:36)
#loc54 = loc("inductor_cache/vw/cvwrv6263lyasnwuxauqgchk6beiw3szhqsj6sktqaaaj4qcy255.py":57:25)
#loc55 = loc("inductor_cache/vw/cvwrv6263lyasnwuxauqgchk6beiw3szhqsj6sktqaaaj4qcy255.py":57:37)
#loc56 = loc("inductor_cache/vw/cvwrv6263lyasnwuxauqgchk6beiw3szhqsj6sktqaaaj4qcy255.py":58:36)
#loc57 = loc("inductor_cache/vw/cvwrv6263lyasnwuxauqgchk6beiw3szhqsj6sktqaaaj4qcy255.py":58:30)
#loc58 = loc("inductor_cache/vw/cvwrv6263lyasnwuxauqgchk6beiw3szhqsj6sktqaaaj4qcy255.py":58:25)
#loc59 = loc("inductor_cache/vw/cvwrv6263lyasnwuxauqgchk6beiw3szhqsj6sktqaaaj4qcy255.py":58:47)
#loc60 = loc("inductor_cache/vw/cvwrv6263lyasnwuxauqgchk6beiw3szhqsj6sktqaaaj4qcy255.py":59:36)
#loc61 = loc("inductor_cache/vw/cvwrv6263lyasnwuxauqgchk6beiw3szhqsj6sktqaaaj4qcy255.py":59:30)
#loc62 = loc("inductor_cache/vw/cvwrv6263lyasnwuxauqgchk6beiw3szhqsj6sktqaaaj4qcy255.py":59:25)
#loc63 = loc("inductor_cache/vw/cvwrv6263lyasnwuxauqgchk6beiw3szhqsj6sktqaaaj4qcy255.py":59:47)
#loc64 = loc("inductor_cache/vw/cvwrv6263lyasnwuxauqgchk6beiw3szhqsj6sktqaaaj4qcy255.py":60:36)
#loc65 = loc("inductor_cache/vw/cvwrv6263lyasnwuxauqgchk6beiw3szhqsj6sktqaaaj4qcy255.py":60:30)
#loc66 = loc("inductor_cache/vw/cvwrv6263lyasnwuxauqgchk6beiw3szhqsj6sktqaaaj4qcy255.py":60:25)
#loc67 = loc("inductor_cache/vw/cvwrv6263lyasnwuxauqgchk6beiw3szhqsj6sktqaaaj4qcy255.py":60:47)
#loc68 = loc("inductor_cache/vw/cvwrv6263lyasnwuxauqgchk6beiw3szhqsj6sktqaaaj4qcy255.py":61:36)
#loc69 = loc("inductor_cache/vw/cvwrv6263lyasnwuxauqgchk6beiw3szhqsj6sktqaaaj4qcy255.py":61:30)
#loc70 = loc("inductor_cache/vw/cvwrv6263lyasnwuxauqgchk6beiw3szhqsj6sktqaaaj4qcy255.py":61:25)
#loc71 = loc("inductor_cache/vw/cvwrv6263lyasnwuxauqgchk6beiw3szhqsj6sktqaaaj4qcy255.py":61:47)
#loc72 = loc("inductor_cache/vw/cvwrv6263lyasnwuxauqgchk6beiw3szhqsj6sktqaaaj4qcy255.py":62:36)
#loc73 = loc("inductor_cache/vw/cvwrv6263lyasnwuxauqgchk6beiw3szhqsj6sktqaaaj4qcy255.py":62:30)
#loc74 = loc("inductor_cache/vw/cvwrv6263lyasnwuxauqgchk6beiw3szhqsj6sktqaaaj4qcy255.py":62:25)
#loc75 = loc("inductor_cache/vw/cvwrv6263lyasnwuxauqgchk6beiw3szhqsj6sktqaaaj4qcy255.py":62:47)
#loc76 = loc("inductor_cache/vw/cvwrv6263lyasnwuxauqgchk6beiw3szhqsj6sktqaaaj4qcy255.py":63:36)
#loc77 = loc("inductor_cache/vw/cvwrv6263lyasnwuxauqgchk6beiw3szhqsj6sktqaaaj4qcy255.py":63:30)
#loc78 = loc("inductor_cache/vw/cvwrv6263lyasnwuxauqgchk6beiw3szhqsj6sktqaaaj4qcy255.py":63:25)
#loc79 = loc("inductor_cache/vw/cvwrv6263lyasnwuxauqgchk6beiw3szhqsj6sktqaaaj4qcy255.py":63:47)
#loc80 = loc("inductor_cache/vw/cvwrv6263lyasnwuxauqgchk6beiw3szhqsj6sktqaaaj4qcy255.py":64:36)
#loc81 = loc("inductor_cache/vw/cvwrv6263lyasnwuxauqgchk6beiw3szhqsj6sktqaaaj4qcy255.py":64:30)
#loc82 = loc("inductor_cache/vw/cvwrv6263lyasnwuxauqgchk6beiw3szhqsj6sktqaaaj4qcy255.py":64:25)
#loc83 = loc("inductor_cache/vw/cvwrv6263lyasnwuxauqgchk6beiw3szhqsj6sktqaaaj4qcy255.py":64:47)
#loc84 = loc("inductor_cache/vw/cvwrv6263lyasnwuxauqgchk6beiw3szhqsj6sktqaaaj4qcy255.py":65:36)
#loc85 = loc("inductor_cache/vw/cvwrv6263lyasnwuxauqgchk6beiw3szhqsj6sktqaaaj4qcy255.py":65:30)
#loc86 = loc("inductor_cache/vw/cvwrv6263lyasnwuxauqgchk6beiw3szhqsj6sktqaaaj4qcy255.py":65:25)
#loc87 = loc("inductor_cache/vw/cvwrv6263lyasnwuxauqgchk6beiw3szhqsj6sktqaaaj4qcy255.py":65:47)
#loc88 = loc("inductor_cache/vw/cvwrv6263lyasnwuxauqgchk6beiw3szhqsj6sktqaaaj4qcy255.py":66:37)
#loc89 = loc("inductor_cache/vw/cvwrv6263lyasnwuxauqgchk6beiw3szhqsj6sktqaaaj4qcy255.py":66:31)
#loc90 = loc("inductor_cache/vw/cvwrv6263lyasnwuxauqgchk6beiw3szhqsj6sktqaaaj4qcy255.py":66:26)
#loc91 = loc("inductor_cache/vw/cvwrv6263lyasnwuxauqgchk6beiw3szhqsj6sktqaaaj4qcy255.py":66:48)
#loc92 = loc("inductor_cache/vw/cvwrv6263lyasnwuxauqgchk6beiw3szhqsj6sktqaaaj4qcy255.py":66:4)
#loc93 = loc(callsite(#loc49 at #loc50))
#loc94 = loc(callsite(#loc51 at #loc50))
