#loc = loc("inductor_cache/b3/cb32ttyqm47ocfsqp7dfspdz5qq7ya2j6an3y3nvne7a6cqa36qv.py":19:0)
module {
  tt.func public @triton_poi_fused__native_batch_norm_legit_no_training_add_relu_18(%arg0: !tt.ptr<f32> {tt.divisibility = 16 : i32} loc("inductor_cache/b3/cb32ttyqm47ocfsqp7dfspdz5qq7ya2j6an3y3nvne7a6cqa36qv.py":19:0), %arg1: !tt.ptr<f32> {tt.divisibility = 16 : i32} loc("inductor_cache/b3/cb32ttyqm47ocfsqp7dfspdz5qq7ya2j6an3y3nvne7a6cqa36qv.py":19:0), %arg2: !tt.ptr<f32> {tt.divisibility = 16 : i32} loc("inductor_cache/b3/cb32ttyqm47ocfsqp7dfspdz5qq7ya2j6an3y3nvne7a6cqa36qv.py":19:0), %arg3: !tt.ptr<f32> {tt.divisibility = 16 : i32} loc("inductor_cache/b3/cb32ttyqm47ocfsqp7dfspdz5qq7ya2j6an3y3nvne7a6cqa36qv.py":19:0), %arg4: !tt.ptr<f32> {tt.divisibility = 16 : i32} loc("inductor_cache/b3/cb32ttyqm47ocfsqp7dfspdz5qq7ya2j6an3y3nvne7a6cqa36qv.py":19:0), %arg5: !tt.ptr<f32> {tt.divisibility = 16 : i32} loc("inductor_cache/b3/cb32ttyqm47ocfsqp7dfspdz5qq7ya2j6an3y3nvne7a6cqa36qv.py":19:0), %arg6: !tt.ptr<f32> {tt.divisibility = 16 : i32} loc("inductor_cache/b3/cb32ttyqm47ocfsqp7dfspdz5qq7ya2j6an3y3nvne7a6cqa36qv.py":19:0), %arg7: i32 {tt.divisibility = 16 : i32} loc("inductor_cache/b3/cb32ttyqm47ocfsqp7dfspdz5qq7ya2j6an3y3nvne7a6cqa36qv.py":19:0), %arg8: i32 {tt.divisibility = 16 : i32} loc("inductor_cache/b3/cb32ttyqm47ocfsqp7dfspdz5qq7ya2j6an3y3nvne7a6cqa36qv.py":19:0)) attributes {noinline = false} {
    %cst = arith.constant dense<0.000000e+00> : tensor<16x256xf32> loc(#loc1)
    %cst_0 = arith.constant dense<1.000000e+00> : tensor<16x1xf32> loc(#loc1)
    %cst_1 = arith.constant dense<131072> : tensor<1x256xi32> loc(#loc1)
    %cst_2 = arith.constant dense<4096> : tensor<16x1xi32> loc(#loc1)
    %cst_3 = arith.constant dense<9.99999974E-6> : tensor<16x1xf32> loc(#loc1)
    %cst_4 = arith.constant dense<32> : tensor<1x256xi32> loc(#loc1)
    %cst_5 = arith.constant dense<4096> : tensor<1x256xi32> loc(#loc1)
    %cst_6 = arith.constant dense<32> : tensor<16x1xi32> loc(#loc1)
    %c16_i32 = arith.constant 16 : i32 loc(#loc1)
    %c256_i32 = arith.constant 256 : i32 loc(#loc1)
    %0 = tt.get_program_id y : i32 loc(#loc2)
    %1 = arith.muli %0, %c256_i32 : i32 loc(#loc3)
    %2 = tt.make_range {end = 256 : i32, start = 0 : i32} : tensor<256xi32> loc(#loc4)
    %3 = tt.expand_dims %2 {axis = 0 : i32} : tensor<256xi32> -> tensor<1x256xi32> loc(#loc5)
    %4 = tt.splat %1 : i32 -> tensor<1x256xi32> loc(#loc6)
    %5 = arith.addi %4, %3 : tensor<1x256xi32> loc(#loc6)
    %6 = tt.get_program_id x : i32 loc(#loc7)
    %7 = arith.muli %6, %c16_i32 : i32 loc(#loc8)
    %8 = tt.make_range {end = 16 : i32, start = 0 : i32} : tensor<16xi32> loc(#loc9)
    %9 = tt.expand_dims %8 {axis = 1 : i32} : tensor<16xi32> -> tensor<16x1xi32> loc(#loc10)
    %10 = tt.splat %7 : i32 -> tensor<16x1xi32> loc(#loc11)
    %11 = arith.addi %10, %9 : tensor<16x1xi32> loc(#loc11)
    %12 = arith.cmpi slt, %11, %cst_6 : tensor<16x1xi32> loc(#loc12)
    %13 = arith.remsi %5, %cst_5 : tensor<1x256xi32> loc(#loc13)
    %14 = arith.divsi %5, %cst_5 : tensor<1x256xi32> loc(#loc14)
    %15 = arith.muli %5, %cst_4 : tensor<1x256xi32> loc(#loc15)
    %16 = tt.broadcast %11 : tensor<16x1xi32> -> tensor<16x256xi32> loc(#loc16)
    %17 = tt.broadcast %15 : tensor<1x256xi32> -> tensor<16x256xi32> loc(#loc16)
    %18 = arith.addi %16, %17 : tensor<16x256xi32> loc(#loc16)
    %19 = tt.splat %arg0 : !tt.ptr<f32> -> tensor<16x256x!tt.ptr<f32>> loc(#loc17)
    %20 = tt.addptr %19, %18 : tensor<16x256x!tt.ptr<f32>>, tensor<16x256xi32> loc(#loc17)
    %21 = tt.broadcast %12 : tensor<16x1xi1> -> tensor<16x256xi1> loc(#loc18)
    %22 = tt.load %20, %21 evictionPolicy = evict_last : tensor<16x256x!tt.ptr<f32>> loc(#loc18)
    %23 = tt.splat %arg1 : !tt.ptr<f32> -> tensor<16x1x!tt.ptr<f32>> loc(#loc19)
    %24 = tt.addptr %23, %11 : tensor<16x1x!tt.ptr<f32>>, tensor<16x1xi32> loc(#loc19)
    %25 = tt.load %24, %12 evictionPolicy = evict_last : tensor<16x1x!tt.ptr<f32>> loc(#loc20)
    %26 = tt.splat %arg2 : !tt.ptr<f32> -> tensor<16x1x!tt.ptr<f32>> loc(#loc21)
    %27 = tt.addptr %26, %11 : tensor<16x1x!tt.ptr<f32>>, tensor<16x1xi32> loc(#loc21)
    %28 = tt.load %27, %12 evictionPolicy = evict_last : tensor<16x1x!tt.ptr<f32>> loc(#loc22)
    %29 = tt.splat %arg3 : !tt.ptr<f32> -> tensor<16x1x!tt.ptr<f32>> loc(#loc23)
    %30 = tt.addptr %29, %11 : tensor<16x1x!tt.ptr<f32>>, tensor<16x1xi32> loc(#loc23)
    %31 = tt.load %30, %12 evictionPolicy = evict_last : tensor<16x1x!tt.ptr<f32>> loc(#loc24)
    %32 = tt.splat %arg4 : !tt.ptr<f32> -> tensor<16x1x!tt.ptr<f32>> loc(#loc25)
    %33 = tt.addptr %32, %11 : tensor<16x1x!tt.ptr<f32>>, tensor<16x1xi32> loc(#loc25)
    %34 = tt.load %33, %12 evictionPolicy = evict_last : tensor<16x1x!tt.ptr<f32>> loc(#loc26)
    %35 = tt.splat %arg5 : !tt.ptr<f32> -> tensor<16x256x!tt.ptr<f32>> loc(#loc27)
    %36 = tt.addptr %35, %18 : tensor<16x256x!tt.ptr<f32>>, tensor<16x256xi32> loc(#loc27)
    %37 = tt.load %36, %21 evictionPolicy = evict_last : tensor<16x256x!tt.ptr<f32>> loc(#loc28)
    %38 = tt.broadcast %25 : tensor<16x1xf32> -> tensor<16x256xf32> loc(#loc29)
    %39 = arith.subf %22, %38 : tensor<16x256xf32> loc(#loc29)
    %40 = arith.addf %28, %cst_3 : tensor<16x1xf32> loc(#loc30)
    %41 = tt.extern_elementwise %40 {libname = "", libpath = "", pure = true, symbol = "__nv_sqrtf"} : (tensor<16x1xf32>) -> tensor<16x1xf32> loc(#loc31)
    %42 = arith.divf %cst_0, %41 : tensor<16x1xf32> loc(#loc32)
    %43 = tt.broadcast %42 : tensor<16x1xf32> -> tensor<16x256xf32> loc(#loc33)
    %44 = arith.mulf %39, %43 : tensor<16x256xf32> loc(#loc33)
    %45 = tt.broadcast %31 : tensor<16x1xf32> -> tensor<16x256xf32> loc(#loc34)
    %46 = arith.mulf %44, %45 : tensor<16x256xf32> loc(#loc34)
    %47 = tt.broadcast %34 : tensor<16x1xf32> -> tensor<16x256xf32> loc(#loc35)
    %48 = arith.addf %46, %47 : tensor<16x256xf32> loc(#loc35)
    %49 = arith.cmpf ogt, %cst, %48 : tensor<16x256xf32> loc(#loc47)
    %50 = arith.select %49, %cst, %48 : tensor<16x256xi1>, tensor<16x256xf32> loc(#loc48)
    %51 = arith.addf %50, %37 : tensor<16x256xf32> loc(#loc39)
    %52 = arith.muli %11, %cst_2 : tensor<16x1xi32> loc(#loc40)
    %53 = tt.broadcast %13 : tensor<1x256xi32> -> tensor<16x256xi32> loc(#loc41)
    %54 = tt.broadcast %52 : tensor<16x1xi32> -> tensor<16x256xi32> loc(#loc41)
    %55 = arith.addi %53, %54 : tensor<16x256xi32> loc(#loc41)
    %56 = arith.muli %14, %cst_1 : tensor<1x256xi32> loc(#loc42)
    %57 = tt.broadcast %56 : tensor<1x256xi32> -> tensor<16x256xi32> loc(#loc43)
    %58 = arith.addi %55, %57 : tensor<16x256xi32> loc(#loc43)
    %59 = tt.splat %arg6 : !tt.ptr<f32> -> tensor<16x256x!tt.ptr<f32>> loc(#loc44)
    %60 = tt.addptr %59, %58 : tensor<16x256x!tt.ptr<f32>>, tensor<16x256xi32> loc(#loc44)
    tt.store %60, %51, %21 : tensor<16x256x!tt.ptr<f32>> loc(#loc45)
    tt.return loc(#loc46)
  } loc(#loc)
} loc(#loc)
#loc1 = loc(unknown)
#loc2 = loc("inductor_cache/b3/cb32ttyqm47ocfsqp7dfspdz5qq7ya2j6an3y3nvne7a6cqa36qv.py":22:28)
#loc3 = loc("inductor_cache/b3/cb32ttyqm47ocfsqp7dfspdz5qq7ya2j6an3y3nvne7a6cqa36qv.py":22:33)
#loc4 = loc("inductor_cache/b3/cb32ttyqm47ocfsqp7dfspdz5qq7ya2j6an3y3nvne7a6cqa36qv.py":23:36)
#loc5 = loc("inductor_cache/b3/cb32ttyqm47ocfsqp7dfspdz5qq7ya2j6an3y3nvne7a6cqa36qv.py":23:44)
#loc6 = loc("inductor_cache/b3/cb32ttyqm47ocfsqp7dfspdz5qq7ya2j6an3y3nvne7a6cqa36qv.py":23:23)
#loc7 = loc("inductor_cache/b3/cb32ttyqm47ocfsqp7dfspdz5qq7ya2j6an3y3nvne7a6cqa36qv.py":25:28)
#loc8 = loc("inductor_cache/b3/cb32ttyqm47ocfsqp7dfspdz5qq7ya2j6an3y3nvne7a6cqa36qv.py":25:33)
#loc9 = loc("inductor_cache/b3/cb32ttyqm47ocfsqp7dfspdz5qq7ya2j6an3y3nvne7a6cqa36qv.py":26:36)
#loc10 = loc("inductor_cache/b3/cb32ttyqm47ocfsqp7dfspdz5qq7ya2j6an3y3nvne7a6cqa36qv.py":26:44)
#loc11 = loc("inductor_cache/b3/cb32ttyqm47ocfsqp7dfspdz5qq7ya2j6an3y3nvne7a6cqa36qv.py":26:23)
#loc12 = loc("inductor_cache/b3/cb32ttyqm47ocfsqp7dfspdz5qq7ya2j6an3y3nvne7a6cqa36qv.py":27:21)
#loc13 = loc("inductor_cache/b3/cb32ttyqm47ocfsqp7dfspdz5qq7ya2j6an3y3nvne7a6cqa36qv.py":30:19)
#loc14 = loc("inductor_cache/b3/cb32ttyqm47ocfsqp7dfspdz5qq7ya2j6an3y3nvne7a6cqa36qv.py":31:19)
#loc15 = loc("inductor_cache/b3/cb32ttyqm47ocfsqp7dfspdz5qq7ya2j6an3y3nvne7a6cqa36qv.py":32:38)
#loc16 = loc("inductor_cache/b3/cb32ttyqm47ocfsqp7dfspdz5qq7ya2j6an3y3nvne7a6cqa36qv.py":32:35)
#loc17 = loc("inductor_cache/b3/cb32ttyqm47ocfsqp7dfspdz5qq7ya2j6an3y3nvne7a6cqa36qv.py":32:30)
#loc18 = loc("inductor_cache/b3/cb32ttyqm47ocfsqp7dfspdz5qq7ya2j6an3y3nvne7a6cqa36qv.py":32:43)
#loc19 = loc("inductor_cache/b3/cb32ttyqm47ocfsqp7dfspdz5qq7ya2j6an3y3nvne7a6cqa36qv.py":33:30)
#loc20 = loc("inductor_cache/b3/cb32ttyqm47ocfsqp7dfspdz5qq7ya2j6an3y3nvne7a6cqa36qv.py":33:35)
#loc21 = loc("inductor_cache/b3/cb32ttyqm47ocfsqp7dfspdz5qq7ya2j6an3y3nvne7a6cqa36qv.py":34:30)
#loc22 = loc("inductor_cache/b3/cb32ttyqm47ocfsqp7dfspdz5qq7ya2j6an3y3nvne7a6cqa36qv.py":34:35)
#loc23 = loc("inductor_cache/b3/cb32ttyqm47ocfsqp7dfspdz5qq7ya2j6an3y3nvne7a6cqa36qv.py":35:31)
#loc24 = loc("inductor_cache/b3/cb32ttyqm47ocfsqp7dfspdz5qq7ya2j6an3y3nvne7a6cqa36qv.py":35:36)
#loc25 = loc("inductor_cache/b3/cb32ttyqm47ocfsqp7dfspdz5qq7ya2j6an3y3nvne7a6cqa36qv.py":36:31)
#loc26 = loc("inductor_cache/b3/cb32ttyqm47ocfsqp7dfspdz5qq7ya2j6an3y3nvne7a6cqa36qv.py":36:36)
#loc27 = loc("inductor_cache/b3/cb32ttyqm47ocfsqp7dfspdz5qq7ya2j6an3y3nvne7a6cqa36qv.py":37:31)
#loc28 = loc("inductor_cache/b3/cb32ttyqm47ocfsqp7dfspdz5qq7ya2j6an3y3nvne7a6cqa36qv.py":37:44)
#loc29 = loc("inductor_cache/b3/cb32ttyqm47ocfsqp7dfspdz5qq7ya2j6an3y3nvne7a6cqa36qv.py":38:18)
#loc30 = loc("inductor_cache/b3/cb32ttyqm47ocfsqp7dfspdz5qq7ya2j6an3y3nvne7a6cqa36qv.py":40:18)
#loc31 = loc("inductor_cache/b3/cb32ttyqm47ocfsqp7dfspdz5qq7ya2j6an3y3nvne7a6cqa36qv.py":41:26)
#loc32 = loc("inductor_cache/b3/cb32ttyqm47ocfsqp7dfspdz5qq7ya2j6an3y3nvne7a6cqa36qv.py":43:18)
#loc33 = loc("inductor_cache/b3/cb32ttyqm47ocfsqp7dfspdz5qq7ya2j6an3y3nvne7a6cqa36qv.py":46:19)
#loc34 = loc("inductor_cache/b3/cb32ttyqm47ocfsqp7dfspdz5qq7ya2j6an3y3nvne7a6cqa36qv.py":47:20)
#loc35 = loc("inductor_cache/b3/cb32ttyqm47ocfsqp7dfspdz5qq7ya2j6an3y3nvne7a6cqa36qv.py":48:20)
#loc36 = loc("/home/sahanp/.conda/envs/parity-bench/lib/python3.12/site-packages/torch/_inductor/runtime/triton_helpers.py":118:15)
#loc37 = loc("inductor_cache/b3/cb32ttyqm47ocfsqp7dfspdz5qq7ya2j6an3y3nvne7a6cqa36qv.py":50:42)
#loc38 = loc("/home/sahanp/.conda/envs/parity-bench/lib/python3.12/site-packages/torch/_inductor/runtime/triton_helpers.py":121:29)
#loc39 = loc("inductor_cache/b3/cb32ttyqm47ocfsqp7dfspdz5qq7ya2j6an3y3nvne7a6cqa36qv.py":51:20)
#loc40 = loc("inductor_cache/b3/cb32ttyqm47ocfsqp7dfspdz5qq7ya2j6an3y3nvne7a6cqa36qv.py":52:35)
#loc41 = loc("inductor_cache/b3/cb32ttyqm47ocfsqp7dfspdz5qq7ya2j6an3y3nvne7a6cqa36qv.py":52:30)
#loc42 = loc("inductor_cache/b3/cb32ttyqm47ocfsqp7dfspdz5qq7ya2j6an3y3nvne7a6cqa36qv.py":52:47)
#loc43 = loc("inductor_cache/b3/cb32ttyqm47ocfsqp7dfspdz5qq7ya2j6an3y3nvne7a6cqa36qv.py":52:40)
#loc44 = loc("inductor_cache/b3/cb32ttyqm47ocfsqp7dfspdz5qq7ya2j6an3y3nvne7a6cqa36qv.py":52:25)
#loc45 = loc("inductor_cache/b3/cb32ttyqm47ocfsqp7dfspdz5qq7ya2j6an3y3nvne7a6cqa36qv.py":52:59)
#loc46 = loc("inductor_cache/b3/cb32ttyqm47ocfsqp7dfspdz5qq7ya2j6an3y3nvne7a6cqa36qv.py":52:4)
#loc47 = loc(callsite(#loc36 at #loc37))
#loc48 = loc(callsite(#loc38 at #loc37))
