#loc = loc("inductor_cache/vq/cvqdu672qqyjicnsem257ubvfvi6bwo2mvvumme4tfnktxih2qyw.py":19:0)
module {
  tt.func public @triton_poi_fused_max_pool2d_with_indices_0(%arg0: !tt.ptr<f32> {tt.divisibility = 16 : i32} loc("inductor_cache/vq/cvqdu672qqyjicnsem257ubvfvi6bwo2mvvumme4tfnktxih2qyw.py":19:0), %arg1: !tt.ptr<f32> {tt.divisibility = 16 : i32} loc("inductor_cache/vq/cvqdu672qqyjicnsem257ubvfvi6bwo2mvvumme4tfnktxih2qyw.py":19:0), %arg2: i32 {tt.divisibility = 16 : i32} loc("inductor_cache/vq/cvqdu672qqyjicnsem257ubvfvi6bwo2mvvumme4tfnktxih2qyw.py":19:0)) attributes {noinline = false} {
    %cst = arith.constant dense<5> : tensor<64xi32> loc(#loc1)
    %cst_0 = arith.constant dense<4> : tensor<64xi32> loc(#loc1)
    %cst_1 = arith.constant dense<1> : tensor<64xi32> loc(#loc1)
    %cst_2 = arith.constant dense<8> : tensor<64xi32> loc(#loc1)
    %cst_3 = arith.constant dense<2> : tensor<64xi32> loc(#loc1)
    %cst_4 = arith.constant dense<64> : tensor<64xi32> loc(#loc1)
    %c64_i32 = arith.constant 64 : i32 loc(#loc1)
    %0 = tt.get_program_id x : i32 loc(#loc2)
    %1 = arith.muli %0, %c64_i32 : i32 loc(#loc3)
    %2 = tt.make_range {end = 64 : i32, start = 0 : i32} : tensor<64xi32> loc(#loc4)
    %3 = tt.splat %1 : i32 -> tensor<64xi32> loc(#loc5)
    %4 = arith.addi %3, %2 : tensor<64xi32> loc(#loc5)
    %5 = arith.cmpi slt, %4, %cst_4 : tensor<64xi32> loc(#loc6)
    %6 = arith.remsi %4, %cst_3 : tensor<64xi32> loc(#loc7)
    %7 = arith.divsi %4, %cst_3 : tensor<64xi32> loc(#loc8)
    %8 = arith.muli %6, %cst_3 : tensor<64xi32> loc(#loc9)
    %9 = arith.muli %7, %cst_2 : tensor<64xi32> loc(#loc10)
    %10 = arith.addi %8, %9 : tensor<64xi32> loc(#loc11)
    %11 = tt.splat %arg0 : !tt.ptr<f32> -> tensor<64x!tt.ptr<f32>> loc(#loc12)
    %12 = tt.addptr %11, %10 : tensor<64x!tt.ptr<f32>>, tensor<64xi32> loc(#loc12)
    %13 = tt.load %12, %5 evictionPolicy = evict_last : tensor<64x!tt.ptr<f32>> loc(#loc13)
    %14 = arith.addi %8, %cst_1 : tensor<64xi32> loc(#loc14)
    %15 = arith.addi %14, %9 : tensor<64xi32> loc(#loc15)
    %16 = tt.addptr %11, %15 : tensor<64x!tt.ptr<f32>>, tensor<64xi32> loc(#loc16)
    %17 = tt.load %16, %5 evictionPolicy = evict_last : tensor<64x!tt.ptr<f32>> loc(#loc17)
    %18 = arith.addi %8, %cst_0 : tensor<64xi32> loc(#loc18)
    %19 = arith.addi %18, %9 : tensor<64xi32> loc(#loc19)
    %20 = tt.addptr %11, %19 : tensor<64x!tt.ptr<f32>>, tensor<64xi32> loc(#loc20)
    %21 = tt.load %20, %5 evictionPolicy = evict_last : tensor<64x!tt.ptr<f32>> loc(#loc21)
    %22 = arith.addi %8, %cst : tensor<64xi32> loc(#loc22)
    %23 = arith.addi %22, %9 : tensor<64xi32> loc(#loc23)
    %24 = tt.addptr %11, %23 : tensor<64x!tt.ptr<f32>>, tensor<64xi32> loc(#loc24)
    %25 = tt.load %24, %5 evictionPolicy = evict_last : tensor<64x!tt.ptr<f32>> loc(#loc25)
    %26 = arith.cmpf ogt, %17, %13 : tensor<64xf32> loc(#loc36)
    %27 = arith.cmpf une, %17, %17 : tensor<64xf32> loc(#loc37)
    %28 = arith.ori %26, %27 : tensor<64xi1> loc(#loc38)
    %29 = arith.select %28, %17, %13 : tensor<64xi1>, tensor<64xf32> loc(#loc39)
    %30 = arith.cmpf ogt, %21, %29 : tensor<64xf32> loc(#loc40)
    %31 = arith.cmpf une, %21, %21 : tensor<64xf32> loc(#loc41)
    %32 = arith.ori %30, %31 : tensor<64xi1> loc(#loc42)
    %33 = arith.select %32, %21, %29 : tensor<64xi1>, tensor<64xf32> loc(#loc43)
    %34 = arith.cmpf ogt, %25, %33 : tensor<64xf32> loc(#loc44)
    %35 = arith.cmpf une, %25, %25 : tensor<64xf32> loc(#loc45)
    %36 = arith.ori %34, %35 : tensor<64xi1> loc(#loc46)
    %37 = arith.select %36, %25, %33 : tensor<64xi1>, tensor<64xf32> loc(#loc47)
    %38 = tt.splat %arg1 : !tt.ptr<f32> -> tensor<64x!tt.ptr<f32>> loc(#loc33)
    %39 = tt.addptr %38, %4 : tensor<64x!tt.ptr<f32>>, tensor<64xi32> loc(#loc33)
    tt.store %39, %37, %5 : tensor<64x!tt.ptr<f32>> loc(#loc34)
    tt.return loc(#loc35)
  } loc(#loc)
} loc(#loc)
#loc1 = loc(unknown)
#loc2 = loc("inductor_cache/vq/cvqdu672qqyjicnsem257ubvfvi6bwo2mvvumme4tfnktxih2qyw.py":21:28)
#loc3 = loc("inductor_cache/vq/cvqdu672qqyjicnsem257ubvfvi6bwo2mvvumme4tfnktxih2qyw.py":21:33)
#loc4 = loc("inductor_cache/vq/cvqdu672qqyjicnsem257ubvfvi6bwo2mvvumme4tfnktxih2qyw.py":22:36)
#loc5 = loc("inductor_cache/vq/cvqdu672qqyjicnsem257ubvfvi6bwo2mvvumme4tfnktxih2qyw.py":22:23)
#loc6 = loc("inductor_cache/vq/cvqdu672qqyjicnsem257ubvfvi6bwo2mvvumme4tfnktxih2qyw.py":23:21)
#loc7 = loc("inductor_cache/vq/cvqdu672qqyjicnsem257ubvfvi6bwo2mvvumme4tfnktxih2qyw.py":24:19)
#loc8 = loc("inductor_cache/vq/cvqdu672qqyjicnsem257ubvfvi6bwo2mvvumme4tfnktxih2qyw.py":25:19)
#loc9 = loc("inductor_cache/vq/cvqdu672qqyjicnsem257ubvfvi6bwo2mvvumme4tfnktxih2qyw.py":27:32)
#loc10 = loc("inductor_cache/vq/cvqdu672qqyjicnsem257ubvfvi6bwo2mvvumme4tfnktxih2qyw.py":27:39)
#loc11 = loc("inductor_cache/vq/cvqdu672qqyjicnsem257ubvfvi6bwo2mvvumme4tfnktxih2qyw.py":27:37)
#loc12 = loc("inductor_cache/vq/cvqdu672qqyjicnsem257ubvfvi6bwo2mvvumme4tfnktxih2qyw.py":27:30)
#loc13 = loc("inductor_cache/vq/cvqdu672qqyjicnsem257ubvfvi6bwo2mvvumme4tfnktxih2qyw.py":27:44)
#loc14 = loc("inductor_cache/vq/cvqdu672qqyjicnsem257ubvfvi6bwo2mvvumme4tfnktxih2qyw.py":28:34)
#loc15 = loc("inductor_cache/vq/cvqdu672qqyjicnsem257ubvfvi6bwo2mvvumme4tfnktxih2qyw.py":28:41)
#loc16 = loc("inductor_cache/vq/cvqdu672qqyjicnsem257ubvfvi6bwo2mvvumme4tfnktxih2qyw.py":28:30)
#loc17 = loc("inductor_cache/vq/cvqdu672qqyjicnsem257ubvfvi6bwo2mvvumme4tfnktxih2qyw.py":28:48)
#loc18 = loc("inductor_cache/vq/cvqdu672qqyjicnsem257ubvfvi6bwo2mvvumme4tfnktxih2qyw.py":29:34)
#loc19 = loc("inductor_cache/vq/cvqdu672qqyjicnsem257ubvfvi6bwo2mvvumme4tfnktxih2qyw.py":29:41)
#loc20 = loc("inductor_cache/vq/cvqdu672qqyjicnsem257ubvfvi6bwo2mvvumme4tfnktxih2qyw.py":29:30)
#loc21 = loc("inductor_cache/vq/cvqdu672qqyjicnsem257ubvfvi6bwo2mvvumme4tfnktxih2qyw.py":29:48)
#loc22 = loc("inductor_cache/vq/cvqdu672qqyjicnsem257ubvfvi6bwo2mvvumme4tfnktxih2qyw.py":30:34)
#loc23 = loc("inductor_cache/vq/cvqdu672qqyjicnsem257ubvfvi6bwo2mvvumme4tfnktxih2qyw.py":30:41)
#loc24 = loc("inductor_cache/vq/cvqdu672qqyjicnsem257ubvfvi6bwo2mvvumme4tfnktxih2qyw.py":30:30)
#loc25 = loc("inductor_cache/vq/cvqdu672qqyjicnsem257ubvfvi6bwo2mvvumme4tfnktxih2qyw.py":30:48)
#loc26 = loc("/home/sahanp/.conda/envs/parity-bench/lib/python3.12/site-packages/torch/_inductor/runtime/triton_helpers.py":118:15)
#loc27 = loc("inductor_cache/vq/cvqdu672qqyjicnsem257ubvfvi6bwo2mvvumme4tfnktxih2qyw.py":31:40)
#loc28 = loc("/home/sahanp/.conda/envs/parity-bench/lib/python3.12/site-packages/torch/_inductor/runtime/triton_helpers.py":120:21)
#loc29 = loc("/home/sahanp/.conda/envs/parity-bench/lib/python3.12/site-packages/torch/_inductor/runtime/triton_helpers.py":120:16)
#loc30 = loc("/home/sahanp/.conda/envs/parity-bench/lib/python3.12/site-packages/torch/_inductor/runtime/triton_helpers.py":121:29)
#loc31 = loc("inductor_cache/vq/cvqdu672qqyjicnsem257ubvfvi6bwo2mvvumme4tfnktxih2qyw.py":32:40)
#loc32 = loc("inductor_cache/vq/cvqdu672qqyjicnsem257ubvfvi6bwo2mvvumme4tfnktxih2qyw.py":33:40)
#loc33 = loc("inductor_cache/vq/cvqdu672qqyjicnsem257ubvfvi6bwo2mvvumme4tfnktxih2qyw.py":34:25)
#loc34 = loc("inductor_cache/vq/cvqdu672qqyjicnsem257ubvfvi6bwo2mvvumme4tfnktxih2qyw.py":34:36)
#loc35 = loc("inductor_cache/vq/cvqdu672qqyjicnsem257ubvfvi6bwo2mvvumme4tfnktxih2qyw.py":34:4)
#loc36 = loc(callsite(#loc26 at #loc27))
#loc37 = loc(callsite(#loc28 at #loc27))
#loc38 = loc(callsite(#loc29 at #loc27))
#loc39 = loc(callsite(#loc30 at #loc27))
#loc40 = loc(callsite(#loc26 at #loc31))
#loc41 = loc(callsite(#loc28 at #loc31))
#loc42 = loc(callsite(#loc29 at #loc31))
#loc43 = loc(callsite(#loc30 at #loc31))
#loc44 = loc(callsite(#loc26 at #loc32))
#loc45 = loc(callsite(#loc28 at #loc32))
#loc46 = loc(callsite(#loc29 at #loc32))
#loc47 = loc(callsite(#loc30 at #loc32))
