#loc = loc("inductor_cache/hu/chuqta4pwag2sed3mevuh7cp562a3myjskaclwmmtmn4ighmgjye.py":19:0)
module {
  tt.func public @triton_poi_fused_avg_pool2d_div_1(%arg0: !tt.ptr<f32> {tt.divisibility = 16 : i32} loc("inductor_cache/hu/chuqta4pwag2sed3mevuh7cp562a3myjskaclwmmtmn4ighmgjye.py":19:0), %arg1: !tt.ptr<f32> {tt.divisibility = 16 : i32} loc("inductor_cache/hu/chuqta4pwag2sed3mevuh7cp562a3myjskaclwmmtmn4ighmgjye.py":19:0), %arg2: !tt.ptr<f32> {tt.divisibility = 16 : i32} loc("inductor_cache/hu/chuqta4pwag2sed3mevuh7cp562a3myjskaclwmmtmn4ighmgjye.py":19:0), %arg3: !tt.ptr<f32> {tt.divisibility = 16 : i32} loc("inductor_cache/hu/chuqta4pwag2sed3mevuh7cp562a3myjskaclwmmtmn4ighmgjye.py":19:0), %arg4: !tt.ptr<f32> {tt.divisibility = 16 : i32} loc("inductor_cache/hu/chuqta4pwag2sed3mevuh7cp562a3myjskaclwmmtmn4ighmgjye.py":19:0), %arg5: i32 {tt.divisibility = 16 : i32} loc("inductor_cache/hu/chuqta4pwag2sed3mevuh7cp562a3myjskaclwmmtmn4ighmgjye.py":19:0)) attributes {noinline = false} {
    %cst = arith.constant dense<-2> : tensor<64xi32> loc(#loc1)
    %cst_0 = arith.constant dense<5> : tensor<64xi32> loc(#loc1)
    %cst_1 = arith.constant dense<4> : tensor<64xi32> loc(#loc1)
    %cst_2 = arith.constant dense<3> : tensor<64xi32> loc(#loc1)
    %cst_3 = arith.constant dense<-3> : tensor<64xi32> loc(#loc1)
    %cst_4 = arith.constant dense<1> : tensor<64xi32> loc(#loc1)
    %cst_5 = arith.constant dense<-4> : tensor<64xi32> loc(#loc1)
    %cst_6 = arith.constant dense<0.000000e+00> : tensor<64xf32> loc(#loc1)
    %cst_7 = arith.constant dense<8> : tensor<64xi32> loc(#loc1)
    %cst_8 = arith.constant dense<-5> : tensor<64xi32> loc(#loc1)
    %cst_9 = arith.constant dense<4> : tensor<64xi64> loc(#loc1)
    %cst_10 = arith.constant dense<0> : tensor<64xi64> loc(#loc1)
    %cst_11 = arith.constant dense<-1> : tensor<64xi32> loc(#loc1)
    %cst_12 = arith.constant dense<2> : tensor<64xi32> loc(#loc1)
    %cst_13 = arith.constant dense<64> : tensor<64xi32> loc(#loc1)
    %c64_i32 = arith.constant 64 : i32 loc(#loc1)
    %0 = tt.get_program_id x : i32 loc(#loc2)
    %1 = arith.muli %0, %c64_i32 : i32 loc(#loc3)
    %2 = tt.make_range {end = 64 : i32, start = 0 : i32} : tensor<64xi32> loc(#loc4)
    %3 = tt.splat %1 : i32 -> tensor<64xi32> loc(#loc5)
    %4 = arith.addi %3, %2 : tensor<64xi32> loc(#loc5)
    %5 = arith.cmpi slt, %4, %cst_13 : tensor<64xi32> loc(#loc6)
    %6 = arith.divsi %4, %cst_12 : tensor<64xi32> loc(#loc7)
    %7 = arith.remsi %6, %cst_12 : tensor<64xi32> loc(#loc8)
    %8 = arith.remsi %4, %cst_12 : tensor<64xi32> loc(#loc9)
    %9 = arith.muli %7, %cst_12 : tensor<64xi32> loc(#loc10)
    %10 = arith.addi %9, %cst_11 : tensor<64xi32> loc(#loc11)
    %11 = arith.extsi %10 : tensor<64xi32> to tensor<64xi64> loc(#loc12)
    %12 = arith.cmpi sge, %11, %cst_10 : tensor<64xi64> loc(#loc12)
    %13 = arith.cmpi slt, %11, %cst_9 : tensor<64xi64> loc(#loc13)
    %14 = arith.andi %12, %13 : tensor<64xi1> loc(#loc14)
    %15 = arith.muli %8, %cst_12 : tensor<64xi32> loc(#loc15)
    %16 = arith.addi %15, %cst_11 : tensor<64xi32> loc(#loc16)
    %17 = arith.extsi %16 : tensor<64xi32> to tensor<64xi64> loc(#loc17)
    %18 = arith.cmpi sge, %17, %cst_10 : tensor<64xi64> loc(#loc17)
    %19 = arith.cmpi slt, %17, %cst_9 : tensor<64xi64> loc(#loc18)
    %20 = arith.andi %18, %19 : tensor<64xi1> loc(#loc19)
    %21 = arith.andi %14, %20 : tensor<64xi1> loc(#loc20)
    %22 = arith.addi %15, %cst_8 : tensor<64xi32> loc(#loc21)
    %23 = arith.muli %6, %cst_7 : tensor<64xi32> loc(#loc22)
    %24 = arith.addi %22, %23 : tensor<64xi32> loc(#loc23)
    %25 = tt.splat %arg0 : !tt.ptr<f32> -> tensor<64x!tt.ptr<f32>> loc(#loc24)
    %26 = tt.addptr %25, %24 : tensor<64x!tt.ptr<f32>>, tensor<64xi32> loc(#loc24)
    %27 = arith.andi %21, %5 : tensor<64xi1> loc(#loc25)
    %28 = tt.load %26, %27, %cst_6 evictionPolicy = evict_last : tensor<64x!tt.ptr<f32>> loc(#loc26)
    %29 = arith.extsi %15 : tensor<64xi32> to tensor<64xi64> loc(#loc27)
    %30 = arith.cmpi sge, %29, %cst_10 : tensor<64xi64> loc(#loc27)
    %31 = arith.cmpi slt, %29, %cst_9 : tensor<64xi64> loc(#loc28)
    %32 = arith.andi %30, %31 : tensor<64xi1> loc(#loc29)
    %33 = arith.andi %14, %32 : tensor<64xi1> loc(#loc30)
    %34 = arith.addi %15, %cst_5 : tensor<64xi32> loc(#loc31)
    %35 = arith.addi %34, %23 : tensor<64xi32> loc(#loc32)
    %36 = tt.addptr %25, %35 : tensor<64x!tt.ptr<f32>>, tensor<64xi32> loc(#loc33)
    %37 = arith.andi %33, %5 : tensor<64xi1> loc(#loc34)
    %38 = tt.load %36, %37, %cst_6 evictionPolicy = evict_last : tensor<64x!tt.ptr<f32>> loc(#loc35)
    %39 = arith.addf %38, %28 : tensor<64xf32> loc(#loc36)
    %40 = arith.addi %15, %cst_4 : tensor<64xi32> loc(#loc37)
    %41 = arith.extsi %40 : tensor<64xi32> to tensor<64xi64> loc(#loc38)
    %42 = arith.cmpi sge, %41, %cst_10 : tensor<64xi64> loc(#loc38)
    %43 = arith.cmpi slt, %41, %cst_9 : tensor<64xi64> loc(#loc39)
    %44 = arith.andi %42, %43 : tensor<64xi1> loc(#loc40)
    %45 = arith.andi %14, %44 : tensor<64xi1> loc(#loc41)
    %46 = arith.addi %15, %cst_3 : tensor<64xi32> loc(#loc42)
    %47 = arith.addi %46, %23 : tensor<64xi32> loc(#loc43)
    %48 = tt.addptr %25, %47 : tensor<64x!tt.ptr<f32>>, tensor<64xi32> loc(#loc44)
    %49 = arith.andi %45, %5 : tensor<64xi1> loc(#loc45)
    %50 = tt.load %48, %49, %cst_6 evictionPolicy = evict_last : tensor<64x!tt.ptr<f32>> loc(#loc46)
    %51 = arith.addf %50, %39 : tensor<64xf32> loc(#loc47)
    %52 = arith.extsi %9 : tensor<64xi32> to tensor<64xi64> loc(#loc48)
    %53 = arith.cmpi sge, %52, %cst_10 : tensor<64xi64> loc(#loc48)
    %54 = arith.cmpi slt, %52, %cst_9 : tensor<64xi64> loc(#loc49)
    %55 = arith.andi %53, %54 : tensor<64xi1> loc(#loc50)
    %56 = arith.andi %55, %20 : tensor<64xi1> loc(#loc51)
    %57 = arith.addi %16, %23 : tensor<64xi32> loc(#loc52)
    %58 = tt.addptr %25, %57 : tensor<64x!tt.ptr<f32>>, tensor<64xi32> loc(#loc53)
    %59 = arith.andi %56, %5 : tensor<64xi1> loc(#loc54)
    %60 = tt.load %58, %59, %cst_6 evictionPolicy = evict_last : tensor<64x!tt.ptr<f32>> loc(#loc55)
    %61 = arith.addf %60, %51 : tensor<64xf32> loc(#loc56)
    %62 = arith.andi %55, %32 : tensor<64xi1> loc(#loc57)
    %63 = arith.addi %15, %23 : tensor<64xi32> loc(#loc58)
    %64 = tt.addptr %25, %63 : tensor<64x!tt.ptr<f32>>, tensor<64xi32> loc(#loc59)
    %65 = arith.andi %62, %5 : tensor<64xi1> loc(#loc60)
    %66 = tt.load %64, %65, %cst_6 evictionPolicy = evict_last : tensor<64x!tt.ptr<f32>> loc(#loc61)
    %67 = arith.addf %66, %61 : tensor<64xf32> loc(#loc62)
    %68 = arith.andi %55, %44 : tensor<64xi1> loc(#loc63)
    %69 = arith.addi %40, %23 : tensor<64xi32> loc(#loc64)
    %70 = tt.addptr %25, %69 : tensor<64x!tt.ptr<f32>>, tensor<64xi32> loc(#loc65)
    %71 = arith.andi %68, %5 : tensor<64xi1> loc(#loc66)
    %72 = tt.load %70, %71, %cst_6 evictionPolicy = evict_last : tensor<64x!tt.ptr<f32>> loc(#loc67)
    %73 = arith.addf %72, %67 : tensor<64xf32> loc(#loc68)
    %74 = arith.addi %9, %cst_4 : tensor<64xi32> loc(#loc69)
    %75 = arith.extsi %74 : tensor<64xi32> to tensor<64xi64> loc(#loc70)
    %76 = arith.cmpi sge, %75, %cst_10 : tensor<64xi64> loc(#loc70)
    %77 = arith.cmpi slt, %75, %cst_9 : tensor<64xi64> loc(#loc71)
    %78 = arith.andi %76, %77 : tensor<64xi1> loc(#loc72)
    %79 = arith.andi %78, %20 : tensor<64xi1> loc(#loc73)
    %80 = arith.addi %15, %cst_2 : tensor<64xi32> loc(#loc74)
    %81 = arith.addi %80, %23 : tensor<64xi32> loc(#loc75)
    %82 = tt.addptr %25, %81 : tensor<64x!tt.ptr<f32>>, tensor<64xi32> loc(#loc76)
    %83 = arith.andi %79, %5 : tensor<64xi1> loc(#loc77)
    %84 = tt.load %82, %83, %cst_6 evictionPolicy = evict_last : tensor<64x!tt.ptr<f32>> loc(#loc78)
    %85 = arith.addf %84, %73 : tensor<64xf32> loc(#loc79)
    %86 = arith.andi %78, %32 : tensor<64xi1> loc(#loc80)
    %87 = arith.addi %15, %cst_1 : tensor<64xi32> loc(#loc81)
    %88 = arith.addi %87, %23 : tensor<64xi32> loc(#loc82)
    %89 = tt.addptr %25, %88 : tensor<64x!tt.ptr<f32>>, tensor<64xi32> loc(#loc83)
    %90 = arith.andi %86, %5 : tensor<64xi1> loc(#loc84)
    %91 = tt.load %89, %90, %cst_6 evictionPolicy = evict_last : tensor<64x!tt.ptr<f32>> loc(#loc85)
    %92 = arith.addf %91, %85 : tensor<64xf32> loc(#loc86)
    %93 = arith.andi %78, %44 : tensor<64xi1> loc(#loc87)
    %94 = arith.addi %15, %cst_0 : tensor<64xi32> loc(#loc88)
    %95 = arith.addi %94, %23 : tensor<64xi32> loc(#loc89)
    %96 = tt.addptr %25, %95 : tensor<64x!tt.ptr<f32>>, tensor<64xi32> loc(#loc90)
    %97 = arith.andi %93, %5 : tensor<64xi1> loc(#loc91)
    %98 = tt.load %96, %97, %cst_6 evictionPolicy = evict_last : tensor<64x!tt.ptr<f32>> loc(#loc92)
    %99 = arith.addf %98, %92 : tensor<64xf32> loc(#loc93)
    %100 = arith.muli %8, %cst : tensor<64xi32> loc(#loc94)
    %101 = arith.addi %100, %cst_4 : tensor<64xi32> loc(#loc95)
    %102 = arith.muli %7, %cst : tensor<64xi32> loc(#loc96)
    %103 = arith.addi %101, %102 : tensor<64xi32> loc(#loc97)
    %104 = arith.addi %15, %cst_12 : tensor<64xi32> loc(#loc98)
    %105 = arith.cmpi sge, %104, %cst_0 : tensor<64xi32> loc(#loc99)
    %106 = arith.extui %105 : tensor<64xi1> to tensor<64xi32> loc(#loc100)
    %107 = arith.muli %106, %cst_0 : tensor<64xi32> loc(#loc100)
    %108 = arith.cmpi slt, %104, %cst_0 : tensor<64xi32> loc(#loc101)
    %109 = arith.extui %108 : tensor<64xi1> to tensor<64xi32> loc(#loc102)
    %110 = arith.muli %104, %109 : tensor<64xi32> loc(#loc102)
    %111 = arith.addi %107, %110 : tensor<64xi32> loc(#loc103)
    %112 = arith.addi %9, %cst_12 : tensor<64xi32> loc(#loc104)
    %113 = arith.cmpi sge, %112, %cst_0 : tensor<64xi32> loc(#loc105)
    %114 = arith.extui %113 : tensor<64xi1> to tensor<64xi32> loc(#loc106)
    %115 = arith.muli %114, %cst_0 : tensor<64xi32> loc(#loc106)
    %116 = arith.cmpi slt, %112, %cst_0 : tensor<64xi32> loc(#loc107)
    %117 = arith.extui %116 : tensor<64xi1> to tensor<64xi32> loc(#loc108)
    %118 = arith.muli %112, %117 : tensor<64xi32> loc(#loc108)
    %119 = arith.addi %115, %118 : tensor<64xi32> loc(#loc109)
    %120 = arith.muli %111, %119 : tensor<64xi32> loc(#loc110)
    %121 = arith.addi %103, %120 : tensor<64xi32> loc(#loc111)
    %122 = arith.muli %100, %119 : tensor<64xi32> loc(#loc112)
    %123 = arith.addi %121, %122 : tensor<64xi32> loc(#loc113)
    %124 = arith.muli %102, %111 : tensor<64xi32> loc(#loc114)
    %125 = arith.addi %123, %124 : tensor<64xi32> loc(#loc115)
    %126 = arith.muli %8, %cst_1 : tensor<64xi32> loc(#loc116)
    %127 = arith.muli %126, %7 : tensor<64xi32> loc(#loc117)
    %128 = arith.addi %125, %127 : tensor<64xi32> loc(#loc118)
    %129 = arith.addi %128, %111 : tensor<64xi32> loc(#loc119)
    %130 = arith.addi %129, %119 : tensor<64xi32> loc(#loc120)
    %131 = arith.sitofp %130 : tensor<64xi32> to tensor<64xf32> loc(#loc121)
    %132 = arith.divf %99, %131 : tensor<64xf32> loc(#loc121)
    %133 = tt.splat %arg1 : !tt.ptr<f32> -> tensor<64x!tt.ptr<f32>> loc(#loc122)
    %134 = tt.addptr %133, %24 : tensor<64x!tt.ptr<f32>>, tensor<64xi32> loc(#loc122)
    %135 = tt.load %134, %27, %cst_6 evictionPolicy = evict_last : tensor<64x!tt.ptr<f32>> loc(#loc123)
    %136 = tt.addptr %133, %35 : tensor<64x!tt.ptr<f32>>, tensor<64xi32> loc(#loc124)
    %137 = tt.load %136, %37, %cst_6 evictionPolicy = evict_last : tensor<64x!tt.ptr<f32>> loc(#loc125)
    %138 = arith.addf %137, %135 : tensor<64xf32> loc(#loc126)
    %139 = tt.addptr %133, %47 : tensor<64x!tt.ptr<f32>>, tensor<64xi32> loc(#loc127)
    %140 = tt.load %139, %49, %cst_6 evictionPolicy = evict_last : tensor<64x!tt.ptr<f32>> loc(#loc128)
    %141 = arith.addf %140, %138 : tensor<64xf32> loc(#loc129)
    %142 = tt.addptr %133, %57 : tensor<64x!tt.ptr<f32>>, tensor<64xi32> loc(#loc130)
    %143 = tt.load %142, %59, %cst_6 evictionPolicy = evict_last : tensor<64x!tt.ptr<f32>> loc(#loc131)
    %144 = arith.addf %143, %141 : tensor<64xf32> loc(#loc132)
    %145 = tt.addptr %133, %63 : tensor<64x!tt.ptr<f32>>, tensor<64xi32> loc(#loc133)
    %146 = tt.load %145, %65, %cst_6 evictionPolicy = evict_last : tensor<64x!tt.ptr<f32>> loc(#loc134)
    %147 = arith.addf %146, %144 : tensor<64xf32> loc(#loc135)
    %148 = tt.addptr %133, %69 : tensor<64x!tt.ptr<f32>>, tensor<64xi32> loc(#loc136)
    %149 = tt.load %148, %71, %cst_6 evictionPolicy = evict_last : tensor<64x!tt.ptr<f32>> loc(#loc137)
    %150 = arith.addf %149, %147 : tensor<64xf32> loc(#loc138)
    %151 = tt.addptr %133, %81 : tensor<64x!tt.ptr<f32>>, tensor<64xi32> loc(#loc139)
    %152 = tt.load %151, %83, %cst_6 evictionPolicy = evict_last : tensor<64x!tt.ptr<f32>> loc(#loc140)
    %153 = arith.addf %152, %150 : tensor<64xf32> loc(#loc141)
    %154 = tt.addptr %133, %88 : tensor<64x!tt.ptr<f32>>, tensor<64xi32> loc(#loc142)
    %155 = tt.load %154, %90, %cst_6 evictionPolicy = evict_last : tensor<64x!tt.ptr<f32>> loc(#loc143)
    %156 = arith.addf %155, %153 : tensor<64xf32> loc(#loc144)
    %157 = tt.addptr %133, %95 : tensor<64x!tt.ptr<f32>>, tensor<64xi32> loc(#loc145)
    %158 = tt.load %157, %97, %cst_6 evictionPolicy = evict_last : tensor<64x!tt.ptr<f32>> loc(#loc146)
    %159 = arith.addf %158, %156 : tensor<64xf32> loc(#loc147)
    %160 = arith.divf %159, %131 : tensor<64xf32> loc(#loc148)
    %161 = arith.divf %132, %160 : tensor<64xf32> loc(#loc149)
    %162 = tt.splat %arg2 : !tt.ptr<f32> -> tensor<64x!tt.ptr<f32>> loc(#loc150)
    %163 = tt.addptr %162, %4 : tensor<64x!tt.ptr<f32>>, tensor<64xi32> loc(#loc150)
    tt.store %163, %132, %5 : tensor<64x!tt.ptr<f32>> loc(#loc151)
    %164 = tt.splat %arg3 : !tt.ptr<f32> -> tensor<64x!tt.ptr<f32>> loc(#loc152)
    %165 = tt.addptr %164, %4 : tensor<64x!tt.ptr<f32>>, tensor<64xi32> loc(#loc152)
    tt.store %165, %160, %5 : tensor<64x!tt.ptr<f32>> loc(#loc153)
    %166 = tt.splat %arg4 : !tt.ptr<f32> -> tensor<64x!tt.ptr<f32>> loc(#loc154)
    %167 = tt.addptr %166, %4 : tensor<64x!tt.ptr<f32>>, tensor<64xi32> loc(#loc154)
    tt.store %167, %161, %5 : tensor<64x!tt.ptr<f32>> loc(#loc155)
    tt.return loc(#loc156)
  } loc(#loc)
} loc(#loc)
#loc1 = loc(unknown)
#loc2 = loc("inductor_cache/hu/chuqta4pwag2sed3mevuh7cp562a3myjskaclwmmtmn4ighmgjye.py":21:28)
#loc3 = loc("inductor_cache/hu/chuqta4pwag2sed3mevuh7cp562a3myjskaclwmmtmn4ighmgjye.py":21:33)
#loc4 = loc("inductor_cache/hu/chuqta4pwag2sed3mevuh7cp562a3myjskaclwmmtmn4ighmgjye.py":22:36)
#loc5 = loc("inductor_cache/hu/chuqta4pwag2sed3mevuh7cp562a3myjskaclwmmtmn4ighmgjye.py":22:23)
#loc6 = loc("inductor_cache/hu/chuqta4pwag2sed3mevuh7cp562a3myjskaclwmmtmn4ighmgjye.py":23:21)
#loc7 = loc("inductor_cache/hu/chuqta4pwag2sed3mevuh7cp562a3myjskaclwmmtmn4ighmgjye.py":24:21)
#loc8 = loc("inductor_cache/hu/chuqta4pwag2sed3mevuh7cp562a3myjskaclwmmtmn4ighmgjye.py":24:26)
#loc9 = loc("inductor_cache/hu/chuqta4pwag2sed3mevuh7cp562a3myjskaclwmmtmn4ighmgjye.py":25:19)
#loc10 = loc("inductor_cache/hu/chuqta4pwag2sed3mevuh7cp562a3myjskaclwmmtmn4ighmgjye.py":28:20)
#loc11 = loc("inductor_cache/hu/chuqta4pwag2sed3mevuh7cp562a3myjskaclwmmtmn4ighmgjye.py":28:18)
#loc12 = loc("inductor_cache/hu/chuqta4pwag2sed3mevuh7cp562a3myjskaclwmmtmn4ighmgjye.py":30:19)
#loc13 = loc("inductor_cache/hu/chuqta4pwag2sed3mevuh7cp562a3myjskaclwmmtmn4ighmgjye.py":32:18)
#loc14 = loc("inductor_cache/hu/chuqta4pwag2sed3mevuh7cp562a3myjskaclwmmtmn4ighmgjye.py":33:18)
#loc15 = loc("inductor_cache/hu/chuqta4pwag2sed3mevuh7cp562a3myjskaclwmmtmn4ighmgjye.py":34:20)
#loc16 = loc("inductor_cache/hu/chuqta4pwag2sed3mevuh7cp562a3myjskaclwmmtmn4ighmgjye.py":34:18)
#loc17 = loc("inductor_cache/hu/chuqta4pwag2sed3mevuh7cp562a3myjskaclwmmtmn4ighmgjye.py":35:19)
#loc18 = loc("inductor_cache/hu/chuqta4pwag2sed3mevuh7cp562a3myjskaclwmmtmn4ighmgjye.py":36:18)
#loc19 = loc("inductor_cache/hu/chuqta4pwag2sed3mevuh7cp562a3myjskaclwmmtmn4ighmgjye.py":37:18)
#loc20 = loc("inductor_cache/hu/chuqta4pwag2sed3mevuh7cp562a3myjskaclwmmtmn4ighmgjye.py":38:19)
#loc21 = loc("inductor_cache/hu/chuqta4pwag2sed3mevuh7cp562a3myjskaclwmmtmn4ighmgjye.py":39:38)
#loc22 = loc("inductor_cache/hu/chuqta4pwag2sed3mevuh7cp562a3myjskaclwmmtmn4ighmgjye.py":39:47)
#loc23 = loc("inductor_cache/hu/chuqta4pwag2sed3mevuh7cp562a3myjskaclwmmtmn4ighmgjye.py":39:45)
#loc24 = loc("inductor_cache/hu/chuqta4pwag2sed3mevuh7cp562a3myjskaclwmmtmn4ighmgjye.py":39:31)
#loc25 = loc("inductor_cache/hu/chuqta4pwag2sed3mevuh7cp562a3myjskaclwmmtmn4ighmgjye.py":39:60)
#loc26 = loc("inductor_cache/hu/chuqta4pwag2sed3mevuh7cp562a3myjskaclwmmtmn4ighmgjye.py":39:52)
#loc27 = loc("inductor_cache/hu/chuqta4pwag2sed3mevuh7cp562a3myjskaclwmmtmn4ighmgjye.py":41:21)
#loc28 = loc("inductor_cache/hu/chuqta4pwag2sed3mevuh7cp562a3myjskaclwmmtmn4ighmgjye.py":42:20)
#loc29 = loc("inductor_cache/hu/chuqta4pwag2sed3mevuh7cp562a3myjskaclwmmtmn4ighmgjye.py":43:20)
#loc30 = loc("inductor_cache/hu/chuqta4pwag2sed3mevuh7cp562a3myjskaclwmmtmn4ighmgjye.py":44:19)
#loc31 = loc("inductor_cache/hu/chuqta4pwag2sed3mevuh7cp562a3myjskaclwmmtmn4ighmgjye.py":45:38)
#loc32 = loc("inductor_cache/hu/chuqta4pwag2sed3mevuh7cp562a3myjskaclwmmtmn4ighmgjye.py":45:45)
#loc33 = loc("inductor_cache/hu/chuqta4pwag2sed3mevuh7cp562a3myjskaclwmmtmn4ighmgjye.py":45:31)
#loc34 = loc("inductor_cache/hu/chuqta4pwag2sed3mevuh7cp562a3myjskaclwmmtmn4ighmgjye.py":45:60)
#loc35 = loc("inductor_cache/hu/chuqta4pwag2sed3mevuh7cp562a3myjskaclwmmtmn4ighmgjye.py":45:52)
#loc36 = loc("inductor_cache/hu/chuqta4pwag2sed3mevuh7cp562a3myjskaclwmmtmn4ighmgjye.py":46:20)
#loc37 = loc("inductor_cache/hu/chuqta4pwag2sed3mevuh7cp562a3myjskaclwmmtmn4ighmgjye.py":47:16)
#loc38 = loc("inductor_cache/hu/chuqta4pwag2sed3mevuh7cp562a3myjskaclwmmtmn4ighmgjye.py":48:21)
#loc39 = loc("inductor_cache/hu/chuqta4pwag2sed3mevuh7cp562a3myjskaclwmmtmn4ighmgjye.py":49:20)
#loc40 = loc("inductor_cache/hu/chuqta4pwag2sed3mevuh7cp562a3myjskaclwmmtmn4ighmgjye.py":50:20)
#loc41 = loc("inductor_cache/hu/chuqta4pwag2sed3mevuh7cp562a3myjskaclwmmtmn4ighmgjye.py":51:19)
#loc42 = loc("inductor_cache/hu/chuqta4pwag2sed3mevuh7cp562a3myjskaclwmmtmn4ighmgjye.py":52:38)
#loc43 = loc("inductor_cache/hu/chuqta4pwag2sed3mevuh7cp562a3myjskaclwmmtmn4ighmgjye.py":52:45)
#loc44 = loc("inductor_cache/hu/chuqta4pwag2sed3mevuh7cp562a3myjskaclwmmtmn4ighmgjye.py":52:31)
#loc45 = loc("inductor_cache/hu/chuqta4pwag2sed3mevuh7cp562a3myjskaclwmmtmn4ighmgjye.py":52:60)
#loc46 = loc("inductor_cache/hu/chuqta4pwag2sed3mevuh7cp562a3myjskaclwmmtmn4ighmgjye.py":52:52)
#loc47 = loc("inductor_cache/hu/chuqta4pwag2sed3mevuh7cp562a3myjskaclwmmtmn4ighmgjye.py":53:20)
#loc48 = loc("inductor_cache/hu/chuqta4pwag2sed3mevuh7cp562a3myjskaclwmmtmn4ighmgjye.py":55:21)
#loc49 = loc("inductor_cache/hu/chuqta4pwag2sed3mevuh7cp562a3myjskaclwmmtmn4ighmgjye.py":56:20)
#loc50 = loc("inductor_cache/hu/chuqta4pwag2sed3mevuh7cp562a3myjskaclwmmtmn4ighmgjye.py":57:20)
#loc51 = loc("inductor_cache/hu/chuqta4pwag2sed3mevuh7cp562a3myjskaclwmmtmn4ighmgjye.py":58:20)
#loc52 = loc("inductor_cache/hu/chuqta4pwag2sed3mevuh7cp562a3myjskaclwmmtmn4ighmgjye.py":59:45)
#loc53 = loc("inductor_cache/hu/chuqta4pwag2sed3mevuh7cp562a3myjskaclwmmtmn4ighmgjye.py":59:31)
#loc54 = loc("inductor_cache/hu/chuqta4pwag2sed3mevuh7cp562a3myjskaclwmmtmn4ighmgjye.py":59:60)
#loc55 = loc("inductor_cache/hu/chuqta4pwag2sed3mevuh7cp562a3myjskaclwmmtmn4ighmgjye.py":59:52)
#loc56 = loc("inductor_cache/hu/chuqta4pwag2sed3mevuh7cp562a3myjskaclwmmtmn4ighmgjye.py":60:20)
#loc57 = loc("inductor_cache/hu/chuqta4pwag2sed3mevuh7cp562a3myjskaclwmmtmn4ighmgjye.py":61:20)
#loc58 = loc("inductor_cache/hu/chuqta4pwag2sed3mevuh7cp562a3myjskaclwmmtmn4ighmgjye.py":62:38)
#loc59 = loc("inductor_cache/hu/chuqta4pwag2sed3mevuh7cp562a3myjskaclwmmtmn4ighmgjye.py":62:31)
#loc60 = loc("inductor_cache/hu/chuqta4pwag2sed3mevuh7cp562a3myjskaclwmmtmn4ighmgjye.py":62:53)
#loc61 = loc("inductor_cache/hu/chuqta4pwag2sed3mevuh7cp562a3myjskaclwmmtmn4ighmgjye.py":62:45)
#loc62 = loc("inductor_cache/hu/chuqta4pwag2sed3mevuh7cp562a3myjskaclwmmtmn4ighmgjye.py":63:20)
#loc63 = loc("inductor_cache/hu/chuqta4pwag2sed3mevuh7cp562a3myjskaclwmmtmn4ighmgjye.py":64:20)
#loc64 = loc("inductor_cache/hu/chuqta4pwag2sed3mevuh7cp562a3myjskaclwmmtmn4ighmgjye.py":65:42)
#loc65 = loc("inductor_cache/hu/chuqta4pwag2sed3mevuh7cp562a3myjskaclwmmtmn4ighmgjye.py":65:31)
#loc66 = loc("inductor_cache/hu/chuqta4pwag2sed3mevuh7cp562a3myjskaclwmmtmn4ighmgjye.py":65:57)
#loc67 = loc("inductor_cache/hu/chuqta4pwag2sed3mevuh7cp562a3myjskaclwmmtmn4ighmgjye.py":65:49)
#loc68 = loc("inductor_cache/hu/chuqta4pwag2sed3mevuh7cp562a3myjskaclwmmtmn4ighmgjye.py":66:20)
#loc69 = loc("inductor_cache/hu/chuqta4pwag2sed3mevuh7cp562a3myjskaclwmmtmn4ighmgjye.py":67:16)
#loc70 = loc("inductor_cache/hu/chuqta4pwag2sed3mevuh7cp562a3myjskaclwmmtmn4ighmgjye.py":68:21)
#loc71 = loc("inductor_cache/hu/chuqta4pwag2sed3mevuh7cp562a3myjskaclwmmtmn4ighmgjye.py":69:20)
#loc72 = loc("inductor_cache/hu/chuqta4pwag2sed3mevuh7cp562a3myjskaclwmmtmn4ighmgjye.py":70:20)
#loc73 = loc("inductor_cache/hu/chuqta4pwag2sed3mevuh7cp562a3myjskaclwmmtmn4ighmgjye.py":71:20)
#loc74 = loc("inductor_cache/hu/chuqta4pwag2sed3mevuh7cp562a3myjskaclwmmtmn4ighmgjye.py":72:35)
#loc75 = loc("inductor_cache/hu/chuqta4pwag2sed3mevuh7cp562a3myjskaclwmmtmn4ighmgjye.py":72:42)
#loc76 = loc("inductor_cache/hu/chuqta4pwag2sed3mevuh7cp562a3myjskaclwmmtmn4ighmgjye.py":72:31)
#loc77 = loc("inductor_cache/hu/chuqta4pwag2sed3mevuh7cp562a3myjskaclwmmtmn4ighmgjye.py":72:57)
#loc78 = loc("inductor_cache/hu/chuqta4pwag2sed3mevuh7cp562a3myjskaclwmmtmn4ighmgjye.py":72:49)
#loc79 = loc("inductor_cache/hu/chuqta4pwag2sed3mevuh7cp562a3myjskaclwmmtmn4ighmgjye.py":73:20)
#loc80 = loc("inductor_cache/hu/chuqta4pwag2sed3mevuh7cp562a3myjskaclwmmtmn4ighmgjye.py":74:20)
#loc81 = loc("inductor_cache/hu/chuqta4pwag2sed3mevuh7cp562a3myjskaclwmmtmn4ighmgjye.py":75:35)
#loc82 = loc("inductor_cache/hu/chuqta4pwag2sed3mevuh7cp562a3myjskaclwmmtmn4ighmgjye.py":75:42)
#loc83 = loc("inductor_cache/hu/chuqta4pwag2sed3mevuh7cp562a3myjskaclwmmtmn4ighmgjye.py":75:31)
#loc84 = loc("inductor_cache/hu/chuqta4pwag2sed3mevuh7cp562a3myjskaclwmmtmn4ighmgjye.py":75:57)
#loc85 = loc("inductor_cache/hu/chuqta4pwag2sed3mevuh7cp562a3myjskaclwmmtmn4ighmgjye.py":75:49)
#loc86 = loc("inductor_cache/hu/chuqta4pwag2sed3mevuh7cp562a3myjskaclwmmtmn4ighmgjye.py":76:20)
#loc87 = loc("inductor_cache/hu/chuqta4pwag2sed3mevuh7cp562a3myjskaclwmmtmn4ighmgjye.py":77:20)
#loc88 = loc("inductor_cache/hu/chuqta4pwag2sed3mevuh7cp562a3myjskaclwmmtmn4ighmgjye.py":78:35)
#loc89 = loc("inductor_cache/hu/chuqta4pwag2sed3mevuh7cp562a3myjskaclwmmtmn4ighmgjye.py":78:42)
#loc90 = loc("inductor_cache/hu/chuqta4pwag2sed3mevuh7cp562a3myjskaclwmmtmn4ighmgjye.py":78:31)
#loc91 = loc("inductor_cache/hu/chuqta4pwag2sed3mevuh7cp562a3myjskaclwmmtmn4ighmgjye.py":78:57)
#loc92 = loc("inductor_cache/hu/chuqta4pwag2sed3mevuh7cp562a3myjskaclwmmtmn4ighmgjye.py":78:49)
#loc93 = loc("inductor_cache/hu/chuqta4pwag2sed3mevuh7cp562a3myjskaclwmmtmn4ighmgjye.py":79:20)
#loc94 = loc("inductor_cache/hu/chuqta4pwag2sed3mevuh7cp562a3myjskaclwmmtmn4ighmgjye.py":80:22)
#loc95 = loc("inductor_cache/hu/chuqta4pwag2sed3mevuh7cp562a3myjskaclwmmtmn4ighmgjye.py":80:17)
#loc96 = loc("inductor_cache/hu/chuqta4pwag2sed3mevuh7cp562a3myjskaclwmmtmn4ighmgjye.py":80:34)
#loc97 = loc("inductor_cache/hu/chuqta4pwag2sed3mevuh7cp562a3myjskaclwmmtmn4ighmgjye.py":80:29)
#loc98 = loc("inductor_cache/hu/chuqta4pwag2sed3mevuh7cp562a3myjskaclwmmtmn4ighmgjye.py":80:60)
#loc99 = loc("inductor_cache/hu/chuqta4pwag2sed3mevuh7cp562a3myjskaclwmmtmn4ighmgjye.py":80:56)
#loc100 = loc("inductor_cache/hu/chuqta4pwag2sed3mevuh7cp562a3myjskaclwmmtmn4ighmgjye.py":80:48)
#loc101 = loc("inductor_cache/hu/chuqta4pwag2sed3mevuh7cp562a3myjskaclwmmtmn4ighmgjye.py":80:97)
#loc102 = loc("inductor_cache/hu/chuqta4pwag2sed3mevuh7cp562a3myjskaclwmmtmn4ighmgjye.py":80:83)
#loc103 = loc("inductor_cache/hu/chuqta4pwag2sed3mevuh7cp562a3myjskaclwmmtmn4ighmgjye.py":80:69)
#loc104 = loc("inductor_cache/hu/chuqta4pwag2sed3mevuh7cp562a3myjskaclwmmtmn4ighmgjye.py":80:122)
#loc105 = loc("inductor_cache/hu/chuqta4pwag2sed3mevuh7cp562a3myjskaclwmmtmn4ighmgjye.py":80:118)
#loc106 = loc("inductor_cache/hu/chuqta4pwag2sed3mevuh7cp562a3myjskaclwmmtmn4ighmgjye.py":80:110)
#loc107 = loc("inductor_cache/hu/chuqta4pwag2sed3mevuh7cp562a3myjskaclwmmtmn4ighmgjye.py":80:159)
#loc108 = loc("inductor_cache/hu/chuqta4pwag2sed3mevuh7cp562a3myjskaclwmmtmn4ighmgjye.py":80:145)
#loc109 = loc("inductor_cache/hu/chuqta4pwag2sed3mevuh7cp562a3myjskaclwmmtmn4ighmgjye.py":80:131)
#loc110 = loc("inductor_cache/hu/chuqta4pwag2sed3mevuh7cp562a3myjskaclwmmtmn4ighmgjye.py":80:103)
#loc111 = loc("inductor_cache/hu/chuqta4pwag2sed3mevuh7cp562a3myjskaclwmmtmn4ighmgjye.py":80:40)
#loc112 = loc("inductor_cache/hu/chuqta4pwag2sed3mevuh7cp562a3myjskaclwmmtmn4ighmgjye.py":80:176)
#loc113 = loc("inductor_cache/hu/chuqta4pwag2sed3mevuh7cp562a3myjskaclwmmtmn4ighmgjye.py":80:167)
#loc114 = loc("inductor_cache/hu/chuqta4pwag2sed3mevuh7cp562a3myjskaclwmmtmn4ighmgjye.py":80:250)
#loc115 = loc("inductor_cache/hu/chuqta4pwag2sed3mevuh7cp562a3myjskaclwmmtmn4ighmgjye.py":80:241)
#loc116 = loc("inductor_cache/hu/chuqta4pwag2sed3mevuh7cp562a3myjskaclwmmtmn4ighmgjye.py":80:316)
#loc117 = loc("inductor_cache/hu/chuqta4pwag2sed3mevuh7cp562a3myjskaclwmmtmn4ighmgjye.py":80:319)
#loc118 = loc("inductor_cache/hu/chuqta4pwag2sed3mevuh7cp562a3myjskaclwmmtmn4ighmgjye.py":80:314)
#loc119 = loc("inductor_cache/hu/chuqta4pwag2sed3mevuh7cp562a3myjskaclwmmtmn4ighmgjye.py":80:325)
#loc120 = loc("inductor_cache/hu/chuqta4pwag2sed3mevuh7cp562a3myjskaclwmmtmn4ighmgjye.py":80:389)
#loc121 = loc("inductor_cache/hu/chuqta4pwag2sed3mevuh7cp562a3myjskaclwmmtmn4ighmgjye.py":81:20)
#loc122 = loc("inductor_cache/hu/chuqta4pwag2sed3mevuh7cp562a3myjskaclwmmtmn4ighmgjye.py":82:31)
#loc123 = loc("inductor_cache/hu/chuqta4pwag2sed3mevuh7cp562a3myjskaclwmmtmn4ighmgjye.py":82:52)
#loc124 = loc("inductor_cache/hu/chuqta4pwag2sed3mevuh7cp562a3myjskaclwmmtmn4ighmgjye.py":83:31)
#loc125 = loc("inductor_cache/hu/chuqta4pwag2sed3mevuh7cp562a3myjskaclwmmtmn4ighmgjye.py":83:52)
#loc126 = loc("inductor_cache/hu/chuqta4pwag2sed3mevuh7cp562a3myjskaclwmmtmn4ighmgjye.py":84:20)
#loc127 = loc("inductor_cache/hu/chuqta4pwag2sed3mevuh7cp562a3myjskaclwmmtmn4ighmgjye.py":85:31)
#loc128 = loc("inductor_cache/hu/chuqta4pwag2sed3mevuh7cp562a3myjskaclwmmtmn4ighmgjye.py":85:52)
#loc129 = loc("inductor_cache/hu/chuqta4pwag2sed3mevuh7cp562a3myjskaclwmmtmn4ighmgjye.py":86:20)
#loc130 = loc("inductor_cache/hu/chuqta4pwag2sed3mevuh7cp562a3myjskaclwmmtmn4ighmgjye.py":87:31)
#loc131 = loc("inductor_cache/hu/chuqta4pwag2sed3mevuh7cp562a3myjskaclwmmtmn4ighmgjye.py":87:52)
#loc132 = loc("inductor_cache/hu/chuqta4pwag2sed3mevuh7cp562a3myjskaclwmmtmn4ighmgjye.py":88:20)
#loc133 = loc("inductor_cache/hu/chuqta4pwag2sed3mevuh7cp562a3myjskaclwmmtmn4ighmgjye.py":89:31)
#loc134 = loc("inductor_cache/hu/chuqta4pwag2sed3mevuh7cp562a3myjskaclwmmtmn4ighmgjye.py":89:45)
#loc135 = loc("inductor_cache/hu/chuqta4pwag2sed3mevuh7cp562a3myjskaclwmmtmn4ighmgjye.py":90:20)
#loc136 = loc("inductor_cache/hu/chuqta4pwag2sed3mevuh7cp562a3myjskaclwmmtmn4ighmgjye.py":91:31)
#loc137 = loc("inductor_cache/hu/chuqta4pwag2sed3mevuh7cp562a3myjskaclwmmtmn4ighmgjye.py":91:49)
#loc138 = loc("inductor_cache/hu/chuqta4pwag2sed3mevuh7cp562a3myjskaclwmmtmn4ighmgjye.py":92:20)
#loc139 = loc("inductor_cache/hu/chuqta4pwag2sed3mevuh7cp562a3myjskaclwmmtmn4ighmgjye.py":93:31)
#loc140 = loc("inductor_cache/hu/chuqta4pwag2sed3mevuh7cp562a3myjskaclwmmtmn4ighmgjye.py":93:49)
#loc141 = loc("inductor_cache/hu/chuqta4pwag2sed3mevuh7cp562a3myjskaclwmmtmn4ighmgjye.py":94:20)
#loc142 = loc("inductor_cache/hu/chuqta4pwag2sed3mevuh7cp562a3myjskaclwmmtmn4ighmgjye.py":95:31)
#loc143 = loc("inductor_cache/hu/chuqta4pwag2sed3mevuh7cp562a3myjskaclwmmtmn4ighmgjye.py":95:49)
#loc144 = loc("inductor_cache/hu/chuqta4pwag2sed3mevuh7cp562a3myjskaclwmmtmn4ighmgjye.py":96:20)
#loc145 = loc("inductor_cache/hu/chuqta4pwag2sed3mevuh7cp562a3myjskaclwmmtmn4ighmgjye.py":97:31)
#loc146 = loc("inductor_cache/hu/chuqta4pwag2sed3mevuh7cp562a3myjskaclwmmtmn4ighmgjye.py":97:49)
#loc147 = loc("inductor_cache/hu/chuqta4pwag2sed3mevuh7cp562a3myjskaclwmmtmn4ighmgjye.py":98:20)
#loc148 = loc("inductor_cache/hu/chuqta4pwag2sed3mevuh7cp562a3myjskaclwmmtmn4ighmgjye.py":99:20)
#loc149 = loc("inductor_cache/hu/chuqta4pwag2sed3mevuh7cp562a3myjskaclwmmtmn4ighmgjye.py":100:20)
#loc150 = loc("inductor_cache/hu/chuqta4pwag2sed3mevuh7cp562a3myjskaclwmmtmn4ighmgjye.py":101:25)
#loc151 = loc("inductor_cache/hu/chuqta4pwag2sed3mevuh7cp562a3myjskaclwmmtmn4ighmgjye.py":101:37)
#loc152 = loc("inductor_cache/hu/chuqta4pwag2sed3mevuh7cp562a3myjskaclwmmtmn4ighmgjye.py":102:25)
#loc153 = loc("inductor_cache/hu/chuqta4pwag2sed3mevuh7cp562a3myjskaclwmmtmn4ighmgjye.py":102:37)
#loc154 = loc("inductor_cache/hu/chuqta4pwag2sed3mevuh7cp562a3myjskaclwmmtmn4ighmgjye.py":103:25)
#loc155 = loc("inductor_cache/hu/chuqta4pwag2sed3mevuh7cp562a3myjskaclwmmtmn4ighmgjye.py":103:37)
#loc156 = loc("inductor_cache/hu/chuqta4pwag2sed3mevuh7cp562a3myjskaclwmmtmn4ighmgjye.py":103:4)
