#loc = loc("inductor_cache/ct/cctcdg2ertgdsu7tpr4c2jxiqzxt5fc4v3mrot5dxgrgxeuess2y.py":19:0)
module {
  tt.func public @triton_poi_fused_clone_28(%arg0: !tt.ptr<f32> {tt.divisibility = 16 : i32} loc("inductor_cache/ct/cctcdg2ertgdsu7tpr4c2jxiqzxt5fc4v3mrot5dxgrgxeuess2y.py":19:0), %arg1: !tt.ptr<f32> {tt.divisibility = 16 : i32} loc("inductor_cache/ct/cctcdg2ertgdsu7tpr4c2jxiqzxt5fc4v3mrot5dxgrgxeuess2y.py":19:0), %arg2: !tt.ptr<f32> {tt.divisibility = 16 : i32} loc("inductor_cache/ct/cctcdg2ertgdsu7tpr4c2jxiqzxt5fc4v3mrot5dxgrgxeuess2y.py":19:0), %arg3: i32 {tt.divisibility = 16 : i32} loc("inductor_cache/ct/cctcdg2ertgdsu7tpr4c2jxiqzxt5fc4v3mrot5dxgrgxeuess2y.py":19:0)) attributes {noinline = false} {
    %cst = arith.constant dense<1536> : tensor<512xi32> loc(#loc1)
    %cst_0 = arith.constant dense<32768> : tensor<512xi32> loc(#loc1)
    %cst_1 = arith.constant dense<64> : tensor<512xi32> loc(#loc1)
    %cst_2 = arith.constant dense<512> : tensor<512xi32> loc(#loc1)
    %c512_i32 = arith.constant 512 : i32 loc(#loc1)
    %0 = tt.get_program_id x : i32 loc(#loc2)
    %1 = arith.muli %0, %c512_i32 : i32 loc(#loc3)
    %2 = tt.make_range {end = 512 : i32, start = 0 : i32} : tensor<512xi32> loc(#loc4)
    %3 = tt.splat %1 : i32 -> tensor<512xi32> loc(#loc5)
    %4 = arith.addi %3, %2 : tensor<512xi32> loc(#loc5)
    %5 = arith.remsi %4, %cst_2 : tensor<512xi32> loc(#loc6)
    %6 = arith.divsi %4, %cst_2 : tensor<512xi32> loc(#loc7)
    %7 = arith.remsi %6, %cst_1 : tensor<512xi32> loc(#loc8)
    %8 = arith.divsi %4, %cst_0 : tensor<512xi32> loc(#loc9)
    %9 = arith.muli %8, %cst_2 : tensor<512xi32> loc(#loc10)
    %10 = arith.addi %5, %9 : tensor<512xi32> loc(#loc11)
    %11 = arith.muli %7, %cst : tensor<512xi32> loc(#loc12)
    %12 = arith.addi %10, %11 : tensor<512xi32> loc(#loc13)
    %13 = tt.splat %arg0 : !tt.ptr<f32> -> tensor<512x!tt.ptr<f32>> loc(#loc14)
    %14 = tt.addptr %13, %12 : tensor<512x!tt.ptr<f32>>, tensor<512xi32> loc(#loc14)
    %15 = tt.load %14 : tensor<512x!tt.ptr<f32>> loc(#loc15)
    %16 = tt.splat %arg1 : !tt.ptr<f32> -> tensor<512x!tt.ptr<f32>> loc(#loc16)
    %17 = tt.addptr %16, %10 : tensor<512x!tt.ptr<f32>>, tensor<512xi32> loc(#loc16)
    %18 = tt.load %17 evictionPolicy = evict_last : tensor<512x!tt.ptr<f32>> loc(#loc17)
    %19 = arith.addf %15, %18 : tensor<512xf32> loc(#loc18)
    %20 = tt.splat %arg2 : !tt.ptr<f32> -> tensor<512x!tt.ptr<f32>> loc(#loc19)
    %21 = tt.addptr %20, %4 : tensor<512x!tt.ptr<f32>>, tensor<512xi32> loc(#loc19)
    tt.store %21, %19 : tensor<512x!tt.ptr<f32>> loc(#loc20)
    tt.return loc(#loc21)
  } loc(#loc)
} loc(#loc)
#loc1 = loc(unknown)
#loc2 = loc("inductor_cache/ct/cctcdg2ertgdsu7tpr4c2jxiqzxt5fc4v3mrot5dxgrgxeuess2y.py":21:28)
#loc3 = loc("inductor_cache/ct/cctcdg2ertgdsu7tpr4c2jxiqzxt5fc4v3mrot5dxgrgxeuess2y.py":21:33)
#loc4 = loc("inductor_cache/ct/cctcdg2ertgdsu7tpr4c2jxiqzxt5fc4v3mrot5dxgrgxeuess2y.py":22:36)
#loc5 = loc("inductor_cache/ct/cctcdg2ertgdsu7tpr4c2jxiqzxt5fc4v3mrot5dxgrgxeuess2y.py":22:23)
#loc6 = loc("inductor_cache/ct/cctcdg2ertgdsu7tpr4c2jxiqzxt5fc4v3mrot5dxgrgxeuess2y.py":24:19)
#loc7 = loc("inductor_cache/ct/cctcdg2ertgdsu7tpr4c2jxiqzxt5fc4v3mrot5dxgrgxeuess2y.py":25:21)
#loc8 = loc("inductor_cache/ct/cctcdg2ertgdsu7tpr4c2jxiqzxt5fc4v3mrot5dxgrgxeuess2y.py":25:28)
#loc9 = loc("inductor_cache/ct/cctcdg2ertgdsu7tpr4c2jxiqzxt5fc4v3mrot5dxgrgxeuess2y.py":26:19)
#loc10 = loc("inductor_cache/ct/cctcdg2ertgdsu7tpr4c2jxiqzxt5fc4v3mrot5dxgrgxeuess2y.py":28:39)
#loc11 = loc("inductor_cache/ct/cctcdg2ertgdsu7tpr4c2jxiqzxt5fc4v3mrot5dxgrgxeuess2y.py":28:35)
#loc12 = loc("inductor_cache/ct/cctcdg2ertgdsu7tpr4c2jxiqzxt5fc4v3mrot5dxgrgxeuess2y.py":28:49)
#loc13 = loc("inductor_cache/ct/cctcdg2ertgdsu7tpr4c2jxiqzxt5fc4v3mrot5dxgrgxeuess2y.py":28:44)
#loc14 = loc("inductor_cache/ct/cctcdg2ertgdsu7tpr4c2jxiqzxt5fc4v3mrot5dxgrgxeuess2y.py":28:30)
#loc15 = loc("inductor_cache/ct/cctcdg2ertgdsu7tpr4c2jxiqzxt5fc4v3mrot5dxgrgxeuess2y.py":28:54)
#loc16 = loc("inductor_cache/ct/cctcdg2ertgdsu7tpr4c2jxiqzxt5fc4v3mrot5dxgrgxeuess2y.py":29:30)
#loc17 = loc("inductor_cache/ct/cctcdg2ertgdsu7tpr4c2jxiqzxt5fc4v3mrot5dxgrgxeuess2y.py":29:44)
#loc18 = loc("inductor_cache/ct/cctcdg2ertgdsu7tpr4c2jxiqzxt5fc4v3mrot5dxgrgxeuess2y.py":30:18)
#loc19 = loc("inductor_cache/ct/cctcdg2ertgdsu7tpr4c2jxiqzxt5fc4v3mrot5dxgrgxeuess2y.py":31:25)
#loc20 = loc("inductor_cache/ct/cctcdg2ertgdsu7tpr4c2jxiqzxt5fc4v3mrot5dxgrgxeuess2y.py":31:36)
#loc21 = loc("inductor_cache/ct/cctcdg2ertgdsu7tpr4c2jxiqzxt5fc4v3mrot5dxgrgxeuess2y.py":31:4)
