#loc = loc("inductor_cache/kd/ckdmpowvchddfixh3yuzk7gjskzanj6ahtn7grvaspv5xhi5atuc.py":19:0)
module {
  tt.func public @triton_poi_fused_add_mul_sigmoid_4(%arg0: !tt.ptr<f32> {tt.divisibility = 16 : i32} loc("inductor_cache/kd/ckdmpowvchddfixh3yuzk7gjskzanj6ahtn7grvaspv5xhi5atuc.py":19:0), %arg1: !tt.ptr<f32> {tt.divisibility = 16 : i32} loc("inductor_cache/kd/ckdmpowvchddfixh3yuzk7gjskzanj6ahtn7grvaspv5xhi5atuc.py":19:0), %arg2: !tt.ptr<f32> {tt.divisibility = 16 : i32} loc("inductor_cache/kd/ckdmpowvchddfixh3yuzk7gjskzanj6ahtn7grvaspv5xhi5atuc.py":19:0), %arg3: !tt.ptr<f32> {tt.divisibility = 16 : i32} loc("inductor_cache/kd/ckdmpowvchddfixh3yuzk7gjskzanj6ahtn7grvaspv5xhi5atuc.py":19:0), %arg4: i32 {tt.divisibility = 16 : i32} loc("inductor_cache/kd/ckdmpowvchddfixh3yuzk7gjskzanj6ahtn7grvaspv5xhi5atuc.py":19:0)) attributes {noinline = false} {
    %cst = arith.constant dense<0.000000e+00> : tensor<512xf32> loc(#loc1)
    %cst_0 = arith.constant dense<1.000000e+00> : tensor<512xf32> loc(#loc1)
    %cst_1 = arith.constant dense<4096> : tensor<512xi32> loc(#loc1)
    %c512_i32 = arith.constant 512 : i32 loc(#loc1)
    %0 = tt.get_program_id x : i32 loc(#loc2)
    %1 = arith.muli %0, %c512_i32 : i32 loc(#loc3)
    %2 = tt.make_range {end = 512 : i32, start = 0 : i32} : tensor<512xi32> loc(#loc4)
    %3 = tt.splat %1 : i32 -> tensor<512xi32> loc(#loc5)
    %4 = arith.addi %3, %2 : tensor<512xi32> loc(#loc5)
    %5 = arith.divsi %4, %cst_1 : tensor<512xi32> loc(#loc6)
    %6 = tt.splat %arg0 : !tt.ptr<f32> -> tensor<512x!tt.ptr<f32>> loc(#loc7)
    %7 = tt.addptr %6, %4 : tensor<512x!tt.ptr<f32>>, tensor<512xi32> loc(#loc7)
    %8 = tt.load %7 : tensor<512x!tt.ptr<f32>> loc(#loc8)
    %9 = tt.splat %arg1 : !tt.ptr<f32> -> tensor<512x!tt.ptr<f32>> loc(#loc9)
    %10 = tt.addptr %9, %5 : tensor<512x!tt.ptr<f32>>, tensor<512xi32> loc(#loc9)
    %11 = tt.load %10 evictionPolicy = evict_last : tensor<512x!tt.ptr<f32>> loc(#loc10)
    %12 = tt.splat %arg2 : !tt.ptr<f32> -> tensor<512x!tt.ptr<f32>> loc(#loc11)
    %13 = tt.addptr %12, %4 : tensor<512x!tt.ptr<f32>>, tensor<512xi32> loc(#loc11)
    %14 = tt.load %13 : tensor<512x!tt.ptr<f32>> loc(#loc12)
    %15 = arith.subf %cst, %11 : tensor<512xf32> loc(#loc23)
    %16 = math.exp %15 : tensor<512xf32> loc(#loc24)
    %17 = arith.addf %16, %cst_0 : tensor<512xf32> loc(#loc25)
    %18 = arith.divf %cst_0, %17 : tensor<512xf32> loc(#loc26)
    %19 = arith.mulf %8, %18 : tensor<512xf32> loc(#loc18)
    %20 = arith.addf %19, %14 : tensor<512xf32> loc(#loc19)
    %21 = tt.splat %arg3 : !tt.ptr<f32> -> tensor<512x!tt.ptr<f32>> loc(#loc20)
    %22 = tt.addptr %21, %4 : tensor<512x!tt.ptr<f32>>, tensor<512xi32> loc(#loc20)
    tt.store %22, %20 : tensor<512x!tt.ptr<f32>> loc(#loc21)
    tt.return loc(#loc22)
  } loc(#loc)
} loc(#loc)
#loc1 = loc(unknown)
#loc2 = loc("inductor_cache/kd/ckdmpowvchddfixh3yuzk7gjskzanj6ahtn7grvaspv5xhi5atuc.py":21:28)
#loc3 = loc("inductor_cache/kd/ckdmpowvchddfixh3yuzk7gjskzanj6ahtn7grvaspv5xhi5atuc.py":21:33)
#loc4 = loc("inductor_cache/kd/ckdmpowvchddfixh3yuzk7gjskzanj6ahtn7grvaspv5xhi5atuc.py":22:36)
#loc5 = loc("inductor_cache/kd/ckdmpowvchddfixh3yuzk7gjskzanj6ahtn7grvaspv5xhi5atuc.py":22:23)
#loc6 = loc("inductor_cache/kd/ckdmpowvchddfixh3yuzk7gjskzanj6ahtn7grvaspv5xhi5atuc.py":25:19)
#loc7 = loc("inductor_cache/kd/ckdmpowvchddfixh3yuzk7gjskzanj6ahtn7grvaspv5xhi5atuc.py":26:30)
#loc8 = loc("inductor_cache/kd/ckdmpowvchddfixh3yuzk7gjskzanj6ahtn7grvaspv5xhi5atuc.py":26:35)
#loc9 = loc("inductor_cache/kd/ckdmpowvchddfixh3yuzk7gjskzanj6ahtn7grvaspv5xhi5atuc.py":27:30)
#loc10 = loc("inductor_cache/kd/ckdmpowvchddfixh3yuzk7gjskzanj6ahtn7grvaspv5xhi5atuc.py":27:35)
#loc11 = loc("inductor_cache/kd/ckdmpowvchddfixh3yuzk7gjskzanj6ahtn7grvaspv5xhi5atuc.py":28:30)
#loc12 = loc("inductor_cache/kd/ckdmpowvchddfixh3yuzk7gjskzanj6ahtn7grvaspv5xhi5atuc.py":28:35)
#loc13 = loc("/home/sahanp/.conda/envs/parity-bench/lib/python3.12/site-packages/triton/language/standard.py":47:30)
#loc14 = loc("inductor_cache/kd/ckdmpowvchddfixh3yuzk7gjskzanj6ahtn7grvaspv5xhi5atuc.py":29:22)
#loc15 = loc("/home/sahanp/.conda/envs/parity-bench/lib/python3.12/site-packages/triton/language/standard.py":47:29)
#loc16 = loc("/home/sahanp/.conda/envs/parity-bench/lib/python3.12/site-packages/triton/language/standard.py":47:20)
#loc17 = loc("/home/sahanp/.conda/envs/parity-bench/lib/python3.12/site-packages/triton/language/standard.py":47:16)
#loc18 = loc("inductor_cache/kd/ckdmpowvchddfixh3yuzk7gjskzanj6ahtn7grvaspv5xhi5atuc.py":30:18)
#loc19 = loc("inductor_cache/kd/ckdmpowvchddfixh3yuzk7gjskzanj6ahtn7grvaspv5xhi5atuc.py":31:18)
#loc20 = loc("inductor_cache/kd/ckdmpowvchddfixh3yuzk7gjskzanj6ahtn7grvaspv5xhi5atuc.py":32:25)
#loc21 = loc("inductor_cache/kd/ckdmpowvchddfixh3yuzk7gjskzanj6ahtn7grvaspv5xhi5atuc.py":32:36)
#loc22 = loc("inductor_cache/kd/ckdmpowvchddfixh3yuzk7gjskzanj6ahtn7grvaspv5xhi5atuc.py":32:4)
#loc23 = loc(callsite(#loc13 at #loc14))
#loc24 = loc(callsite(#loc15 at #loc14))
#loc25 = loc(callsite(#loc16 at #loc14))
#loc26 = loc(callsite(#loc17 at #loc14))
