#loc = loc("inductor_cache/cz/ccz7onib4oouj4wqvtz5z5qgueepoo5nklc32czomvyuxwtsovx6.py":19:0)
module {
  tt.func public @triton_poi_fused__native_batch_norm_legit_no_training__unsafe_index_add_relu_24(%arg0: !tt.ptr<f32> {tt.divisibility = 16 : i32} loc("inductor_cache/cz/ccz7onib4oouj4wqvtz5z5qgueepoo5nklc32czomvyuxwtsovx6.py":19:0), %arg1: !tt.ptr<f32> {tt.divisibility = 16 : i32} loc("inductor_cache/cz/ccz7onib4oouj4wqvtz5z5qgueepoo5nklc32czomvyuxwtsovx6.py":19:0), %arg2: !tt.ptr<f32> {tt.divisibility = 16 : i32} loc("inductor_cache/cz/ccz7onib4oouj4wqvtz5z5qgueepoo5nklc32czomvyuxwtsovx6.py":19:0), %arg3: !tt.ptr<f32> {tt.divisibility = 16 : i32} loc("inductor_cache/cz/ccz7onib4oouj4wqvtz5z5qgueepoo5nklc32czomvyuxwtsovx6.py":19:0), %arg4: !tt.ptr<f32> {tt.divisibility = 16 : i32} loc("inductor_cache/cz/ccz7onib4oouj4wqvtz5z5qgueepoo5nklc32czomvyuxwtsovx6.py":19:0), %arg5: !tt.ptr<f32> {tt.divisibility = 16 : i32} loc("inductor_cache/cz/ccz7onib4oouj4wqvtz5z5qgueepoo5nklc32czomvyuxwtsovx6.py":19:0), %arg6: !tt.ptr<f32> {tt.divisibility = 16 : i32} loc("inductor_cache/cz/ccz7onib4oouj4wqvtz5z5qgueepoo5nklc32czomvyuxwtsovx6.py":19:0), %arg7: !tt.ptr<i64> {tt.divisibility = 16 : i32} loc("inductor_cache/cz/ccz7onib4oouj4wqvtz5z5qgueepoo5nklc32czomvyuxwtsovx6.py":19:0), %arg8: !tt.ptr<f32> {tt.divisibility = 16 : i32} loc("inductor_cache/cz/ccz7onib4oouj4wqvtz5z5qgueepoo5nklc32czomvyuxwtsovx6.py":19:0), %arg9: !tt.ptr<f32> {tt.divisibility = 16 : i32} loc("inductor_cache/cz/ccz7onib4oouj4wqvtz5z5qgueepoo5nklc32czomvyuxwtsovx6.py":19:0), %arg10: !tt.ptr<f32> {tt.divisibility = 16 : i32} loc("inductor_cache/cz/ccz7onib4oouj4wqvtz5z5qgueepoo5nklc32czomvyuxwtsovx6.py":19:0), %arg11: !tt.ptr<f32> {tt.divisibility = 16 : i32} loc("inductor_cache/cz/ccz7onib4oouj4wqvtz5z5qgueepoo5nklc32czomvyuxwtsovx6.py":19:0), %arg12: !tt.ptr<f32> {tt.divisibility = 16 : i32} loc("inductor_cache/cz/ccz7onib4oouj4wqvtz5z5qgueepoo5nklc32czomvyuxwtsovx6.py":19:0), %arg13: !tt.ptr<i64> {tt.divisibility = 16 : i32} loc("inductor_cache/cz/ccz7onib4oouj4wqvtz5z5qgueepoo5nklc32czomvyuxwtsovx6.py":19:0), %arg14: !tt.ptr<f32> {tt.divisibility = 16 : i32} loc("inductor_cache/cz/ccz7onib4oouj4wqvtz5z5qgueepoo5nklc32czomvyuxwtsovx6.py":19:0), %arg15: !tt.ptr<f32> {tt.divisibility = 16 : i32} loc("inductor_cache/cz/ccz7onib4oouj4wqvtz5z5qgueepoo5nklc32czomvyuxwtsovx6.py":19:0), %arg16: !tt.ptr<f32> {tt.divisibility = 16 : i32} loc("inductor_cache/cz/ccz7onib4oouj4wqvtz5z5qgueepoo5nklc32czomvyuxwtsovx6.py":19:0), %arg17: !tt.ptr<f32> {tt.divisibility = 16 : i32} loc("inductor_cache/cz/ccz7onib4oouj4wqvtz5z5qgueepoo5nklc32czomvyuxwtsovx6.py":19:0), %arg18: !tt.ptr<f32> {tt.divisibility = 16 : i32} loc("inductor_cache/cz/ccz7onib4oouj4wqvtz5z5qgueepoo5nklc32czomvyuxwtsovx6.py":19:0), %arg19: i32 {tt.divisibility = 16 : i32} loc("inductor_cache/cz/ccz7onib4oouj4wqvtz5z5qgueepoo5nklc32czomvyuxwtsovx6.py":19:0)) attributes {noinline = false} {
    %cst = arith.constant dense<0> : tensor<128xi64> loc(#loc1)
    %cst_0 = arith.constant dense<1.000000e+00> : tensor<128xf32> loc(#loc1)
    %cst_1 = arith.constant dense<2> : tensor<128xi64> loc(#loc1)
    %cst_2 = arith.constant dense<16> : tensor<128xi32> loc(#loc1)
    %cst_3 = arith.constant dense<4> : tensor<128xi64> loc(#loc1)
    %cst_4 = arith.constant dense<4> : tensor<128xi32> loc(#loc1)
    %cst_5 = arith.constant dense<0.000000e+00> : tensor<128xf32> loc(#loc1)
    %cst_6 = arith.constant dense<9.99999974E-6> : tensor<128xf32> loc(#loc1)
    %cst_7 = arith.constant dense<8> : tensor<128xi32> loc(#loc1)
    %cst_8 = arith.constant dense<64> : tensor<128xi32> loc(#loc1)
    %c128_i32 = arith.constant 128 : i32 loc(#loc1)
    %0 = tt.get_program_id x : i32 loc(#loc2)
    %1 = arith.muli %0, %c128_i32 : i32 loc(#loc3)
    %2 = tt.make_range {end = 128 : i32, start = 0 : i32} : tensor<128xi32> loc(#loc4)
    %3 = tt.splat %1 : i32 -> tensor<128xi32> loc(#loc5)
    %4 = arith.addi %3, %2 : tensor<128xi32> loc(#loc5)
    %5 = arith.divsi %4, %cst_8 : tensor<128xi32> loc(#loc6)
    %6 = arith.remsi %5, %cst_8 : tensor<128xi32> loc(#loc7)
    %7 = arith.divsi %4, %cst_7 : tensor<128xi32> loc(#loc8)
    %8 = arith.remsi %7, %cst_7 : tensor<128xi32> loc(#loc9)
    %9 = arith.remsi %4, %cst_7 : tensor<128xi32> loc(#loc10)
    %10 = tt.splat %arg1 : !tt.ptr<f32> -> tensor<128x!tt.ptr<f32>> loc(#loc11)
    %11 = tt.addptr %10, %4 : tensor<128x!tt.ptr<f32>>, tensor<128xi32> loc(#loc11)
    %12 = tt.load %11 : tensor<128x!tt.ptr<f32>> loc(#loc12)
    %13 = tt.splat %arg2 : !tt.ptr<f32> -> tensor<128x!tt.ptr<f32>> loc(#loc13)
    %14 = tt.addptr %13, %6 : tensor<128x!tt.ptr<f32>>, tensor<128xi32> loc(#loc13)
    %15 = tt.load %14 evictionPolicy = evict_last : tensor<128x!tt.ptr<f32>> loc(#loc14)
    %16 = tt.splat %arg3 : !tt.ptr<f32> -> tensor<128x!tt.ptr<f32>> loc(#loc15)
    %17 = tt.addptr %16, %6 : tensor<128x!tt.ptr<f32>>, tensor<128xi32> loc(#loc15)
    %18 = tt.load %17 evictionPolicy = evict_last : tensor<128x!tt.ptr<f32>> loc(#loc16)
    %19 = tt.splat %arg4 : !tt.ptr<f32> -> tensor<128x!tt.ptr<f32>> loc(#loc17)
    %20 = tt.addptr %19, %6 : tensor<128x!tt.ptr<f32>>, tensor<128xi32> loc(#loc17)
    %21 = tt.load %20 evictionPolicy = evict_last : tensor<128x!tt.ptr<f32>> loc(#loc18)
    %22 = tt.splat %arg5 : !tt.ptr<f32> -> tensor<128x!tt.ptr<f32>> loc(#loc19)
    %23 = tt.addptr %22, %6 : tensor<128x!tt.ptr<f32>>, tensor<128xi32> loc(#loc19)
    %24 = tt.load %23 evictionPolicy = evict_last : tensor<128x!tt.ptr<f32>> loc(#loc20)
    %25 = tt.splat %arg6 : !tt.ptr<f32> -> tensor<128x!tt.ptr<f32>> loc(#loc21)
    %26 = tt.addptr %25, %4 : tensor<128x!tt.ptr<f32>>, tensor<128xi32> loc(#loc21)
    %27 = tt.load %26 : tensor<128x!tt.ptr<f32>> loc(#loc22)
    %28 = tt.splat %arg7 : !tt.ptr<i64> -> tensor<128x!tt.ptr<i64>> loc(#loc23)
    %29 = tt.addptr %28, %8 : tensor<128x!tt.ptr<i64>>, tensor<128xi32> loc(#loc23)
    %30 = tt.load %29 evictionPolicy = evict_last : tensor<128x!tt.ptr<i64>> loc(#loc24)
    %31 = tt.addptr %28, %9 : tensor<128x!tt.ptr<i64>>, tensor<128xi32> loc(#loc25)
    %32 = tt.load %31 evictionPolicy = evict_last : tensor<128x!tt.ptr<i64>> loc(#loc26)
    %33 = tt.splat %arg9 : !tt.ptr<f32> -> tensor<128x!tt.ptr<f32>> loc(#loc27)
    %34 = tt.addptr %33, %6 : tensor<128x!tt.ptr<f32>>, tensor<128xi32> loc(#loc27)
    %35 = tt.load %34 evictionPolicy = evict_last : tensor<128x!tt.ptr<f32>> loc(#loc28)
    %36 = tt.splat %arg10 : !tt.ptr<f32> -> tensor<128x!tt.ptr<f32>> loc(#loc29)
    %37 = tt.addptr %36, %6 : tensor<128x!tt.ptr<f32>>, tensor<128xi32> loc(#loc29)
    %38 = tt.load %37 evictionPolicy = evict_last : tensor<128x!tt.ptr<f32>> loc(#loc30)
    %39 = tt.splat %arg11 : !tt.ptr<f32> -> tensor<128x!tt.ptr<f32>> loc(#loc31)
    %40 = tt.addptr %39, %6 : tensor<128x!tt.ptr<f32>>, tensor<128xi32> loc(#loc31)
    %41 = tt.load %40 evictionPolicy = evict_last : tensor<128x!tt.ptr<f32>> loc(#loc32)
    %42 = tt.splat %arg12 : !tt.ptr<f32> -> tensor<128x!tt.ptr<f32>> loc(#loc33)
    %43 = tt.addptr %42, %6 : tensor<128x!tt.ptr<f32>>, tensor<128xi32> loc(#loc33)
    %44 = tt.load %43 evictionPolicy = evict_last : tensor<128x!tt.ptr<f32>> loc(#loc34)
    %45 = tt.splat %arg13 : !tt.ptr<i64> -> tensor<128x!tt.ptr<i64>> loc(#loc35)
    %46 = tt.addptr %45, %8 : tensor<128x!tt.ptr<i64>>, tensor<128xi32> loc(#loc35)
    %47 = tt.load %46 evictionPolicy = evict_last : tensor<128x!tt.ptr<i64>> loc(#loc36)
    %48 = tt.addptr %45, %9 : tensor<128x!tt.ptr<i64>>, tensor<128xi32> loc(#loc37)
    %49 = tt.load %48 evictionPolicy = evict_last : tensor<128x!tt.ptr<i64>> loc(#loc38)
    %50 = tt.splat %arg15 : !tt.ptr<f32> -> tensor<128x!tt.ptr<f32>> loc(#loc39)
    %51 = tt.addptr %50, %6 : tensor<128x!tt.ptr<f32>>, tensor<128xi32> loc(#loc39)
    %52 = tt.load %51 evictionPolicy = evict_last : tensor<128x!tt.ptr<f32>> loc(#loc40)
    %53 = tt.splat %arg16 : !tt.ptr<f32> -> tensor<128x!tt.ptr<f32>> loc(#loc41)
    %54 = tt.addptr %53, %6 : tensor<128x!tt.ptr<f32>>, tensor<128xi32> loc(#loc41)
    %55 = tt.load %54 evictionPolicy = evict_last : tensor<128x!tt.ptr<f32>> loc(#loc42)
    %56 = tt.splat %arg17 : !tt.ptr<f32> -> tensor<128x!tt.ptr<f32>> loc(#loc43)
    %57 = tt.addptr %56, %6 : tensor<128x!tt.ptr<f32>>, tensor<128xi32> loc(#loc43)
    %58 = tt.load %57 evictionPolicy = evict_last : tensor<128x!tt.ptr<f32>> loc(#loc44)
    %59 = tt.splat %arg18 : !tt.ptr<f32> -> tensor<128x!tt.ptr<f32>> loc(#loc45)
    %60 = tt.addptr %59, %6 : tensor<128x!tt.ptr<f32>>, tensor<128xi32> loc(#loc45)
    %61 = tt.load %60 evictionPolicy = evict_last : tensor<128x!tt.ptr<f32>> loc(#loc46)
    %62 = arith.subf %12, %15 : tensor<128xf32> loc(#loc47)
    %63 = arith.addf %18, %cst_6 : tensor<128xf32> loc(#loc48)
    %64 = tt.extern_elementwise %63 {libname = "", libpath = "", pure = true, symbol = "__nv_sqrtf"} : (tensor<128xf32>) -> tensor<128xf32> loc(#loc49)
    %65 = arith.divf %cst_0, %64 : tensor<128xf32> loc(#loc50)
    %66 = arith.mulf %62, %65 : tensor<128xf32> loc(#loc51)
    %67 = arith.mulf %66, %21 : tensor<128xf32> loc(#loc52)
    %68 = arith.addf %67, %24 : tensor<128xf32> loc(#loc53)
    %69 = arith.addf %68, %cst_5 : tensor<128xf32> loc(#loc54)
    %70 = arith.addf %69, %27 : tensor<128xf32> loc(#loc55)
    %71 = arith.addi %30, %cst_3 : tensor<128xi64> loc(#loc56)
    %72 = arith.cmpi slt, %30, %cst : tensor<128xi64> loc(#loc57)
    %73 = arith.select %72, %71, %30 : tensor<128xi1>, tensor<128xi64> loc(#loc58)
    %74 = arith.addi %32, %cst_3 : tensor<128xi64> loc(#loc59)
    %75 = arith.cmpi slt, %32, %cst : tensor<128xi64> loc(#loc60)
    %76 = arith.select %75, %74, %32 : tensor<128xi1>, tensor<128xi64> loc(#loc61)
    %77 = arith.muli %73, %cst_3 : tensor<128xi64> loc(#loc62)
    %78 = arith.addi %76, %77 : tensor<128xi64> loc(#loc63)
    %79 = arith.muli %5, %cst_2 : tensor<128xi32> loc(#loc64)
    %80 = arith.extsi %79 : tensor<128xi32> to tensor<128xi64> loc(#loc65)
    %81 = arith.addi %78, %80 : tensor<128xi64> loc(#loc65)
    %82 = tt.splat %arg8 : !tt.ptr<f32> -> tensor<128x!tt.ptr<f32>> loc(#loc66)
    %83 = tt.addptr %82, %81 : tensor<128x!tt.ptr<f32>>, tensor<128xi64> loc(#loc66)
    %84 = tt.load %83 evictionPolicy = evict_last : tensor<128x!tt.ptr<f32>> loc(#loc67)
    %85 = arith.subf %84, %35 : tensor<128xf32> loc(#loc68)
    %86 = arith.addf %38, %cst_6 : tensor<128xf32> loc(#loc69)
    %87 = tt.extern_elementwise %86 {libname = "", libpath = "", pure = true, symbol = "__nv_sqrtf"} : (tensor<128xf32>) -> tensor<128xf32> loc(#loc70)
    %88 = arith.divf %cst_0, %87 : tensor<128xf32> loc(#loc71)
    %89 = arith.mulf %85, %88 : tensor<128xf32> loc(#loc72)
    %90 = arith.mulf %89, %41 : tensor<128xf32> loc(#loc73)
    %91 = arith.addf %90, %44 : tensor<128xf32> loc(#loc74)
    %92 = arith.addf %70, %91 : tensor<128xf32> loc(#loc75)
    %93 = arith.addi %47, %cst_1 : tensor<128xi64> loc(#loc76)
    %94 = arith.cmpi slt, %47, %cst : tensor<128xi64> loc(#loc77)
    %95 = arith.select %94, %93, %47 : tensor<128xi1>, tensor<128xi64> loc(#loc78)
    %96 = arith.addi %49, %cst_1 : tensor<128xi64> loc(#loc79)
    %97 = arith.cmpi slt, %49, %cst : tensor<128xi64> loc(#loc80)
    %98 = arith.select %97, %96, %49 : tensor<128xi1>, tensor<128xi64> loc(#loc81)
    %99 = arith.muli %95, %cst_1 : tensor<128xi64> loc(#loc82)
    %100 = arith.addi %98, %99 : tensor<128xi64> loc(#loc83)
    %101 = arith.muli %5, %cst_4 : tensor<128xi32> loc(#loc84)
    %102 = arith.extsi %101 : tensor<128xi32> to tensor<128xi64> loc(#loc85)
    %103 = arith.addi %100, %102 : tensor<128xi64> loc(#loc85)
    %104 = tt.splat %arg14 : !tt.ptr<f32> -> tensor<128x!tt.ptr<f32>> loc(#loc86)
    %105 = tt.addptr %104, %103 : tensor<128x!tt.ptr<f32>>, tensor<128xi64> loc(#loc86)
    %106 = tt.load %105 evictionPolicy = evict_last : tensor<128x!tt.ptr<f32>> loc(#loc87)
    %107 = arith.subf %106, %52 : tensor<128xf32> loc(#loc88)
    %108 = arith.addf %55, %cst_6 : tensor<128xf32> loc(#loc89)
    %109 = tt.extern_elementwise %108 {libname = "", libpath = "", pure = true, symbol = "__nv_sqrtf"} : (tensor<128xf32>) -> tensor<128xf32> loc(#loc90)
    %110 = arith.divf %cst_0, %109 : tensor<128xf32> loc(#loc91)
    %111 = arith.mulf %107, %110 : tensor<128xf32> loc(#loc92)
    %112 = arith.mulf %111, %58 : tensor<128xf32> loc(#loc93)
    %113 = arith.addf %112, %61 : tensor<128xf32> loc(#loc94)
    %114 = arith.addf %92, %113 : tensor<128xf32> loc(#loc95)
    %115 = arith.cmpf ogt, %cst_5, %114 : tensor<128xf32> loc(#loc102)
    %116 = arith.select %115, %cst_5, %114 : tensor<128xi1>, tensor<128xf32> loc(#loc103)
    %117 = tt.splat %arg0 : !tt.ptr<f32> -> tensor<128x!tt.ptr<f32>> loc(#loc99)
    %118 = tt.addptr %117, %4 : tensor<128x!tt.ptr<f32>>, tensor<128xi32> loc(#loc99)
    tt.store %118, %116 : tensor<128x!tt.ptr<f32>> loc(#loc100)
    tt.return loc(#loc101)
  } loc(#loc)
} loc(#loc)
#loc1 = loc(unknown)
#loc2 = loc("inductor_cache/cz/ccz7onib4oouj4wqvtz5z5qgueepoo5nklc32czomvyuxwtsovx6.py":21:28)
#loc3 = loc("inductor_cache/cz/ccz7onib4oouj4wqvtz5z5qgueepoo5nklc32czomvyuxwtsovx6.py":21:33)
#loc4 = loc("inductor_cache/cz/ccz7onib4oouj4wqvtz5z5qgueepoo5nklc32czomvyuxwtsovx6.py":22:36)
#loc5 = loc("inductor_cache/cz/ccz7onib4oouj4wqvtz5z5qgueepoo5nklc32czomvyuxwtsovx6.py":22:23)
#loc6 = loc("inductor_cache/cz/ccz7onib4oouj4wqvtz5z5qgueepoo5nklc32czomvyuxwtsovx6.py":25:21)
#loc7 = loc("inductor_cache/cz/ccz7onib4oouj4wqvtz5z5qgueepoo5nklc32czomvyuxwtsovx6.py":25:27)
#loc8 = loc("inductor_cache/cz/ccz7onib4oouj4wqvtz5z5qgueepoo5nklc32czomvyuxwtsovx6.py":26:21)
#loc9 = loc("inductor_cache/cz/ccz7onib4oouj4wqvtz5z5qgueepoo5nklc32czomvyuxwtsovx6.py":26:26)
#loc10 = loc("inductor_cache/cz/ccz7onib4oouj4wqvtz5z5qgueepoo5nklc32czomvyuxwtsovx6.py":27:19)
#loc11 = loc("inductor_cache/cz/ccz7onib4oouj4wqvtz5z5qgueepoo5nklc32czomvyuxwtsovx6.py":29:30)
#loc12 = loc("inductor_cache/cz/ccz7onib4oouj4wqvtz5z5qgueepoo5nklc32czomvyuxwtsovx6.py":29:35)
#loc13 = loc("inductor_cache/cz/ccz7onib4oouj4wqvtz5z5qgueepoo5nklc32czomvyuxwtsovx6.py":30:30)
#loc14 = loc("inductor_cache/cz/ccz7onib4oouj4wqvtz5z5qgueepoo5nklc32czomvyuxwtsovx6.py":30:35)
#loc15 = loc("inductor_cache/cz/ccz7onib4oouj4wqvtz5z5qgueepoo5nklc32czomvyuxwtsovx6.py":31:30)
#loc16 = loc("inductor_cache/cz/ccz7onib4oouj4wqvtz5z5qgueepoo5nklc32czomvyuxwtsovx6.py":31:35)
#loc17 = loc("inductor_cache/cz/ccz7onib4oouj4wqvtz5z5qgueepoo5nklc32czomvyuxwtsovx6.py":32:31)
#loc18 = loc("inductor_cache/cz/ccz7onib4oouj4wqvtz5z5qgueepoo5nklc32czomvyuxwtsovx6.py":32:36)
#loc19 = loc("inductor_cache/cz/ccz7onib4oouj4wqvtz5z5qgueepoo5nklc32czomvyuxwtsovx6.py":33:31)
#loc20 = loc("inductor_cache/cz/ccz7onib4oouj4wqvtz5z5qgueepoo5nklc32czomvyuxwtsovx6.py":33:36)
#loc21 = loc("inductor_cache/cz/ccz7onib4oouj4wqvtz5z5qgueepoo5nklc32czomvyuxwtsovx6.py":34:31)
#loc22 = loc("inductor_cache/cz/ccz7onib4oouj4wqvtz5z5qgueepoo5nklc32czomvyuxwtsovx6.py":34:36)
#loc23 = loc("inductor_cache/cz/ccz7onib4oouj4wqvtz5z5qgueepoo5nklc32czomvyuxwtsovx6.py":35:31)
#loc24 = loc("inductor_cache/cz/ccz7onib4oouj4wqvtz5z5qgueepoo5nklc32czomvyuxwtsovx6.py":35:36)
#loc25 = loc("inductor_cache/cz/ccz7onib4oouj4wqvtz5z5qgueepoo5nklc32czomvyuxwtsovx6.py":36:31)
#loc26 = loc("inductor_cache/cz/ccz7onib4oouj4wqvtz5z5qgueepoo5nklc32czomvyuxwtsovx6.py":36:36)
#loc27 = loc("inductor_cache/cz/ccz7onib4oouj4wqvtz5z5qgueepoo5nklc32czomvyuxwtsovx6.py":37:31)
#loc28 = loc("inductor_cache/cz/ccz7onib4oouj4wqvtz5z5qgueepoo5nklc32czomvyuxwtsovx6.py":37:36)
#loc29 = loc("inductor_cache/cz/ccz7onib4oouj4wqvtz5z5qgueepoo5nklc32czomvyuxwtsovx6.py":38:31)
#loc30 = loc("inductor_cache/cz/ccz7onib4oouj4wqvtz5z5qgueepoo5nklc32czomvyuxwtsovx6.py":38:36)
#loc31 = loc("inductor_cache/cz/ccz7onib4oouj4wqvtz5z5qgueepoo5nklc32czomvyuxwtsovx6.py":39:32)
#loc32 = loc("inductor_cache/cz/ccz7onib4oouj4wqvtz5z5qgueepoo5nklc32czomvyuxwtsovx6.py":39:37)
#loc33 = loc("inductor_cache/cz/ccz7onib4oouj4wqvtz5z5qgueepoo5nklc32czomvyuxwtsovx6.py":40:32)
#loc34 = loc("inductor_cache/cz/ccz7onib4oouj4wqvtz5z5qgueepoo5nklc32czomvyuxwtsovx6.py":40:37)
#loc35 = loc("inductor_cache/cz/ccz7onib4oouj4wqvtz5z5qgueepoo5nklc32czomvyuxwtsovx6.py":41:32)
#loc36 = loc("inductor_cache/cz/ccz7onib4oouj4wqvtz5z5qgueepoo5nklc32czomvyuxwtsovx6.py":41:37)
#loc37 = loc("inductor_cache/cz/ccz7onib4oouj4wqvtz5z5qgueepoo5nklc32czomvyuxwtsovx6.py":42:32)
#loc38 = loc("inductor_cache/cz/ccz7onib4oouj4wqvtz5z5qgueepoo5nklc32czomvyuxwtsovx6.py":42:37)
#loc39 = loc("inductor_cache/cz/ccz7onib4oouj4wqvtz5z5qgueepoo5nklc32czomvyuxwtsovx6.py":43:32)
#loc40 = loc("inductor_cache/cz/ccz7onib4oouj4wqvtz5z5qgueepoo5nklc32czomvyuxwtsovx6.py":43:37)
#loc41 = loc("inductor_cache/cz/ccz7onib4oouj4wqvtz5z5qgueepoo5nklc32czomvyuxwtsovx6.py":44:32)
#loc42 = loc("inductor_cache/cz/ccz7onib4oouj4wqvtz5z5qgueepoo5nklc32czomvyuxwtsovx6.py":44:37)
#loc43 = loc("inductor_cache/cz/ccz7onib4oouj4wqvtz5z5qgueepoo5nklc32czomvyuxwtsovx6.py":45:32)
#loc44 = loc("inductor_cache/cz/ccz7onib4oouj4wqvtz5z5qgueepoo5nklc32czomvyuxwtsovx6.py":45:37)
#loc45 = loc("inductor_cache/cz/ccz7onib4oouj4wqvtz5z5qgueepoo5nklc32czomvyuxwtsovx6.py":46:32)
#loc46 = loc("inductor_cache/cz/ccz7onib4oouj4wqvtz5z5qgueepoo5nklc32czomvyuxwtsovx6.py":46:37)
#loc47 = loc("inductor_cache/cz/ccz7onib4oouj4wqvtz5z5qgueepoo5nklc32czomvyuxwtsovx6.py":47:18)
#loc48 = loc("inductor_cache/cz/ccz7onib4oouj4wqvtz5z5qgueepoo5nklc32czomvyuxwtsovx6.py":49:18)
#loc49 = loc("inductor_cache/cz/ccz7onib4oouj4wqvtz5z5qgueepoo5nklc32czomvyuxwtsovx6.py":50:26)
#loc50 = loc("inductor_cache/cz/ccz7onib4oouj4wqvtz5z5qgueepoo5nklc32czomvyuxwtsovx6.py":52:18)
#loc51 = loc("inductor_cache/cz/ccz7onib4oouj4wqvtz5z5qgueepoo5nklc32czomvyuxwtsovx6.py":55:19)
#loc52 = loc("inductor_cache/cz/ccz7onib4oouj4wqvtz5z5qgueepoo5nklc32czomvyuxwtsovx6.py":56:20)
#loc53 = loc("inductor_cache/cz/ccz7onib4oouj4wqvtz5z5qgueepoo5nklc32czomvyuxwtsovx6.py":57:20)
#loc54 = loc("inductor_cache/cz/ccz7onib4oouj4wqvtz5z5qgueepoo5nklc32czomvyuxwtsovx6.py":59:20)
#loc55 = loc("inductor_cache/cz/ccz7onib4oouj4wqvtz5z5qgueepoo5nklc32czomvyuxwtsovx6.py":60:20)
#loc56 = loc("inductor_cache/cz/ccz7onib4oouj4wqvtz5z5qgueepoo5nklc32czomvyuxwtsovx6.py":62:20)
#loc57 = loc("inductor_cache/cz/ccz7onib4oouj4wqvtz5z5qgueepoo5nklc32czomvyuxwtsovx6.py":63:20)
#loc58 = loc("inductor_cache/cz/ccz7onib4oouj4wqvtz5z5qgueepoo5nklc32czomvyuxwtsovx6.py":64:35)
#loc59 = loc("inductor_cache/cz/ccz7onib4oouj4wqvtz5z5qgueepoo5nklc32czomvyuxwtsovx6.py":65:20)
#loc60 = loc("inductor_cache/cz/ccz7onib4oouj4wqvtz5z5qgueepoo5nklc32czomvyuxwtsovx6.py":66:20)
#loc61 = loc("inductor_cache/cz/ccz7onib4oouj4wqvtz5z5qgueepoo5nklc32czomvyuxwtsovx6.py":67:35)
#loc62 = loc("inductor_cache/cz/ccz7onib4oouj4wqvtz5z5qgueepoo5nklc32czomvyuxwtsovx6.py":68:41)
#loc63 = loc("inductor_cache/cz/ccz7onib4oouj4wqvtz5z5qgueepoo5nklc32czomvyuxwtsovx6.py":68:39)
#loc64 = loc("inductor_cache/cz/ccz7onib4oouj4wqvtz5z5qgueepoo5nklc32czomvyuxwtsovx6.py":68:52)
#loc65 = loc("inductor_cache/cz/ccz7onib4oouj4wqvtz5z5qgueepoo5nklc32czomvyuxwtsovx6.py":68:49)
#loc66 = loc("inductor_cache/cz/ccz7onib4oouj4wqvtz5z5qgueepoo5nklc32czomvyuxwtsovx6.py":68:31)
#loc67 = loc("inductor_cache/cz/ccz7onib4oouj4wqvtz5z5qgueepoo5nklc32czomvyuxwtsovx6.py":68:57)
#loc68 = loc("inductor_cache/cz/ccz7onib4oouj4wqvtz5z5qgueepoo5nklc32czomvyuxwtsovx6.py":69:20)
#loc69 = loc("inductor_cache/cz/ccz7onib4oouj4wqvtz5z5qgueepoo5nklc32czomvyuxwtsovx6.py":70:20)
#loc70 = loc("inductor_cache/cz/ccz7onib4oouj4wqvtz5z5qgueepoo5nklc32czomvyuxwtsovx6.py":71:27)
#loc71 = loc("inductor_cache/cz/ccz7onib4oouj4wqvtz5z5qgueepoo5nklc32czomvyuxwtsovx6.py":72:19)
#loc72 = loc("inductor_cache/cz/ccz7onib4oouj4wqvtz5z5qgueepoo5nklc32czomvyuxwtsovx6.py":74:20)
#loc73 = loc("inductor_cache/cz/ccz7onib4oouj4wqvtz5z5qgueepoo5nklc32czomvyuxwtsovx6.py":75:20)
#loc74 = loc("inductor_cache/cz/ccz7onib4oouj4wqvtz5z5qgueepoo5nklc32czomvyuxwtsovx6.py":76:20)
#loc75 = loc("inductor_cache/cz/ccz7onib4oouj4wqvtz5z5qgueepoo5nklc32czomvyuxwtsovx6.py":77:20)
#loc76 = loc("inductor_cache/cz/ccz7onib4oouj4wqvtz5z5qgueepoo5nklc32czomvyuxwtsovx6.py":79:20)
#loc77 = loc("inductor_cache/cz/ccz7onib4oouj4wqvtz5z5qgueepoo5nklc32czomvyuxwtsovx6.py":80:20)
#loc78 = loc("inductor_cache/cz/ccz7onib4oouj4wqvtz5z5qgueepoo5nklc32czomvyuxwtsovx6.py":81:35)
#loc79 = loc("inductor_cache/cz/ccz7onib4oouj4wqvtz5z5qgueepoo5nklc32czomvyuxwtsovx6.py":82:20)
#loc80 = loc("inductor_cache/cz/ccz7onib4oouj4wqvtz5z5qgueepoo5nklc32czomvyuxwtsovx6.py":83:20)
#loc81 = loc("inductor_cache/cz/ccz7onib4oouj4wqvtz5z5qgueepoo5nklc32czomvyuxwtsovx6.py":84:35)
#loc82 = loc("inductor_cache/cz/ccz7onib4oouj4wqvtz5z5qgueepoo5nklc32czomvyuxwtsovx6.py":85:42)
#loc83 = loc("inductor_cache/cz/ccz7onib4oouj4wqvtz5z5qgueepoo5nklc32czomvyuxwtsovx6.py":85:40)
#loc84 = loc("inductor_cache/cz/ccz7onib4oouj4wqvtz5z5qgueepoo5nklc32czomvyuxwtsovx6.py":85:52)
#loc85 = loc("inductor_cache/cz/ccz7onib4oouj4wqvtz5z5qgueepoo5nklc32czomvyuxwtsovx6.py":85:50)
#loc86 = loc("inductor_cache/cz/ccz7onib4oouj4wqvtz5z5qgueepoo5nklc32czomvyuxwtsovx6.py":85:32)
#loc87 = loc("inductor_cache/cz/ccz7onib4oouj4wqvtz5z5qgueepoo5nklc32czomvyuxwtsovx6.py":85:57)
#loc88 = loc("inductor_cache/cz/ccz7onib4oouj4wqvtz5z5qgueepoo5nklc32czomvyuxwtsovx6.py":86:20)
#loc89 = loc("inductor_cache/cz/ccz7onib4oouj4wqvtz5z5qgueepoo5nklc32czomvyuxwtsovx6.py":87:20)
#loc90 = loc("inductor_cache/cz/ccz7onib4oouj4wqvtz5z5qgueepoo5nklc32czomvyuxwtsovx6.py":88:27)
#loc91 = loc("inductor_cache/cz/ccz7onib4oouj4wqvtz5z5qgueepoo5nklc32czomvyuxwtsovx6.py":89:19)
#loc92 = loc("inductor_cache/cz/ccz7onib4oouj4wqvtz5z5qgueepoo5nklc32czomvyuxwtsovx6.py":91:20)
#loc93 = loc("inductor_cache/cz/ccz7onib4oouj4wqvtz5z5qgueepoo5nklc32czomvyuxwtsovx6.py":92:20)
#loc94 = loc("inductor_cache/cz/ccz7onib4oouj4wqvtz5z5qgueepoo5nklc32czomvyuxwtsovx6.py":93:20)
#loc95 = loc("inductor_cache/cz/ccz7onib4oouj4wqvtz5z5qgueepoo5nklc32czomvyuxwtsovx6.py":94:20)
#loc96 = loc("/home/sahanp/.conda/envs/parity-bench/lib/python3.12/site-packages/torch/_inductor/runtime/triton_helpers.py":118:15)
#loc97 = loc("inductor_cache/cz/ccz7onib4oouj4wqvtz5z5qgueepoo5nklc32czomvyuxwtsovx6.py":96:42)
#loc98 = loc("/home/sahanp/.conda/envs/parity-bench/lib/python3.12/site-packages/torch/_inductor/runtime/triton_helpers.py":121:29)
#loc99 = loc("inductor_cache/cz/ccz7onib4oouj4wqvtz5z5qgueepoo5nklc32czomvyuxwtsovx6.py":97:28)
#loc100 = loc("inductor_cache/cz/ccz7onib4oouj4wqvtz5z5qgueepoo5nklc32czomvyuxwtsovx6.py":97:40)
#loc101 = loc("inductor_cache/cz/ccz7onib4oouj4wqvtz5z5qgueepoo5nklc32czomvyuxwtsovx6.py":97:4)
#loc102 = loc(callsite(#loc96 at #loc97))
#loc103 = loc(callsite(#loc98 at #loc97))
