#loc = loc("inductor_cache/ys/cysperrveqftar7tgaf3goxm5e34n2atbgak7spchdat6zwhwszw.py":19:0)
#loc1 = loc(unknown)
#loc21 = loc("inductor_cache/ys/cysperrveqftar7tgaf3goxm5e34n2atbgak7spchdat6zwhwszw.py":36:24)
#loc30 = loc(callsite(#loc1 at #loc21))
module {
  tt.func public @triton_per_fused_mean_sum_1(%arg0: !tt.ptr<f32> {tt.divisibility = 16 : i32} loc("inductor_cache/ys/cysperrveqftar7tgaf3goxm5e34n2atbgak7spchdat6zwhwszw.py":19:0), %arg1: !tt.ptr<f32> {tt.divisibility = 16 : i32} loc("inductor_cache/ys/cysperrveqftar7tgaf3goxm5e34n2atbgak7spchdat6zwhwszw.py":19:0), %arg2: i32 {tt.divisibility = 16 : i32} loc("inductor_cache/ys/cysperrveqftar7tgaf3goxm5e34n2atbgak7spchdat6zwhwszw.py":19:0), %arg3: i32 {tt.divisibility = 16 : i32} loc("inductor_cache/ys/cysperrveqftar7tgaf3goxm5e34n2atbgak7spchdat6zwhwszw.py":19:0)) attributes {noinline = false} {
    %cst = arith.constant dense<1.600000e+01> : tensor<8x1xf32> loc(#loc1)
    %cst_0 = arith.constant dense<256> : tensor<1x16xi32> loc(#loc1)
    %cst_1 = arith.constant dense<0.000000e+00> : tensor<8x16xf32> loc(#loc1)
    %cst_2 = arith.constant dense<16> : tensor<8x1xi32> loc(#loc1)
    %c8_i32 = arith.constant 8 : i32 loc(#loc1)
    %0 = tt.get_program_id x : i32 loc(#loc2)
    %1 = arith.muli %0, %c8_i32 : i32 loc(#loc3)
    %2 = tt.make_range {end = 8 : i32, start = 0 : i32} : tensor<8xi32> loc(#loc4)
    %3 = tt.expand_dims %2 {axis = 1 : i32} : tensor<8xi32> -> tensor<8x1xi32> loc(#loc5)
    %4 = tt.splat %1 : i32 -> tensor<8x1xi32> loc(#loc6)
    %5 = arith.addi %4, %3 : tensor<8x1xi32> loc(#loc6)
    %6 = arith.cmpi slt, %5, %cst_2 : tensor<8x1xi32> loc(#loc7)
    %7 = tt.make_range {end = 16 : i32, start = 0 : i32} : tensor<16xi32> loc(#loc8)
    %8 = tt.expand_dims %7 {axis = 0 : i32} : tensor<16xi32> -> tensor<1x16xi32> loc(#loc9)
    %9 = arith.muli %5, %cst_2 : tensor<8x1xi32> loc(#loc10)
    %10 = tt.broadcast %8 : tensor<1x16xi32> -> tensor<8x16xi32> loc(#loc11)
    %11 = tt.broadcast %9 : tensor<8x1xi32> -> tensor<8x16xi32> loc(#loc11)
    %12 = arith.addi %10, %11 : tensor<8x16xi32> loc(#loc11)
    %13 = tt.splat %arg1 : !tt.ptr<f32> -> tensor<8x16x!tt.ptr<f32>> loc(#loc12)
    %14 = tt.addptr %13, %12 : tensor<8x16x!tt.ptr<f32>>, tensor<8x16xi32> loc(#loc12)
    %15 = tt.broadcast %6 : tensor<8x1xi1> -> tensor<8x16xi1> loc(#loc13)
    %16 = tt.load %14, %15, %cst_1 : tensor<8x16x!tt.ptr<f32>> loc(#loc13)
    %17 = arith.addi %8, %cst_0 : tensor<1x16xi32> loc(#loc14)
    %18 = tt.broadcast %17 : tensor<1x16xi32> -> tensor<8x16xi32> loc(#loc15)
    %19 = arith.addi %18, %11 : tensor<8x16xi32> loc(#loc15)
    %20 = tt.addptr %13, %19 : tensor<8x16x!tt.ptr<f32>>, tensor<8x16xi32> loc(#loc16)
    %21 = tt.load %20, %15, %cst_1 : tensor<8x16x!tt.ptr<f32>> loc(#loc17)
    %22 = arith.addf %16, %21 : tensor<8x16xf32> loc(#loc18)
    %23 = arith.select %15, %22, %cst_1 : tensor<8x16xi1>, tensor<8x16xf32> loc(#loc19)
    %24 = "tt.reduce"(%23) <{axis = 1 : i32}> ({
    ^bb0(%arg4: f32 loc(callsite(#loc1 at #loc21)), %arg5: f32 loc(callsite(#loc1 at #loc21))):
      %29 = arith.addf %arg4, %arg5 : f32 loc(#loc32)
      tt.reduce.return %29 : f32 loc(#loc29)
    }) : (tensor<8x16xf32>) -> tensor<8xf32> loc(#loc29)
    %25 = tt.expand_dims %24 {axis = 1 : i32} : tensor<8xf32> -> tensor<8x1xf32> loc(#loc23)
    %26 = arith.divf %25, %cst : tensor<8x1xf32> loc(#loc24)
    gpu.barrier loc(#loc25)
    %27 = tt.splat %arg0 : !tt.ptr<f32> -> tensor<8x1x!tt.ptr<f32>> loc(#loc26)
    %28 = tt.addptr %27, %5 : tensor<8x1x!tt.ptr<f32>>, tensor<8x1xi32> loc(#loc26)
    tt.store %28, %26, %6 : tensor<8x1x!tt.ptr<f32>> loc(#loc27)
    tt.return loc(#loc28)
  } loc(#loc)
} loc(#loc)
#loc2 = loc("inductor_cache/ys/cysperrveqftar7tgaf3goxm5e34n2atbgak7spchdat6zwhwszw.py":23:28)
#loc3 = loc("inductor_cache/ys/cysperrveqftar7tgaf3goxm5e34n2atbgak7spchdat6zwhwszw.py":23:33)
#loc4 = loc("inductor_cache/ys/cysperrveqftar7tgaf3goxm5e34n2atbgak7spchdat6zwhwszw.py":24:36)
#loc5 = loc("inductor_cache/ys/cysperrveqftar7tgaf3goxm5e34n2atbgak7spchdat6zwhwszw.py":24:44)
#loc6 = loc("inductor_cache/ys/cysperrveqftar7tgaf3goxm5e34n2atbgak7spchdat6zwhwszw.py":24:23)
#loc7 = loc("inductor_cache/ys/cysperrveqftar7tgaf3goxm5e34n2atbgak7spchdat6zwhwszw.py":25:21)
#loc8 = loc("inductor_cache/ys/cysperrveqftar7tgaf3goxm5e34n2atbgak7spchdat6zwhwszw.py":26:26)
#loc9 = loc("inductor_cache/ys/cysperrveqftar7tgaf3goxm5e34n2atbgak7spchdat6zwhwszw.py":26:34)
#loc10 = loc("inductor_cache/ys/cysperrveqftar7tgaf3goxm5e34n2atbgak7spchdat6zwhwszw.py":31:38)
#loc11 = loc("inductor_cache/ys/cysperrveqftar7tgaf3goxm5e34n2atbgak7spchdat6zwhwszw.py":31:35)
#loc12 = loc("inductor_cache/ys/cysperrveqftar7tgaf3goxm5e34n2atbgak7spchdat6zwhwszw.py":31:30)
#loc13 = loc("inductor_cache/ys/cysperrveqftar7tgaf3goxm5e34n2atbgak7spchdat6zwhwszw.py":31:43)
#loc14 = loc("inductor_cache/ys/cysperrveqftar7tgaf3goxm5e34n2atbgak7spchdat6zwhwszw.py":32:36)
#loc15 = loc("inductor_cache/ys/cysperrveqftar7tgaf3goxm5e34n2atbgak7spchdat6zwhwszw.py":32:41)
#loc16 = loc("inductor_cache/ys/cysperrveqftar7tgaf3goxm5e34n2atbgak7spchdat6zwhwszw.py":32:30)
#loc17 = loc("inductor_cache/ys/cysperrveqftar7tgaf3goxm5e34n2atbgak7spchdat6zwhwszw.py":32:49)
#loc18 = loc("inductor_cache/ys/cysperrveqftar7tgaf3goxm5e34n2atbgak7spchdat6zwhwszw.py":33:18)
#loc19 = loc("inductor_cache/ys/cysperrveqftar7tgaf3goxm5e34n2atbgak7spchdat6zwhwszw.py":35:33)
#loc20 = loc("/home/sahanp/.conda/envs/parity-bench/lib/python3.12/site-packages/triton/language/standard.py":267:36)
#loc22 = loc("/home/sahanp/.conda/envs/parity-bench/lib/python3.12/site-packages/triton/language/standard.py":256:15)
#loc23 = loc("inductor_cache/ys/cysperrveqftar7tgaf3goxm5e34n2atbgak7spchdat6zwhwszw.py":36:27)
#loc24 = loc("inductor_cache/ys/cysperrveqftar7tgaf3goxm5e34n2atbgak7spchdat6zwhwszw.py":38:18)
#loc25 = loc("inductor_cache/ys/cysperrveqftar7tgaf3goxm5e34n2atbgak7spchdat6zwhwszw.py":39:4)
#loc26 = loc("inductor_cache/ys/cysperrveqftar7tgaf3goxm5e34n2atbgak7spchdat6zwhwszw.py":40:28)
#loc27 = loc("inductor_cache/ys/cysperrveqftar7tgaf3goxm5e34n2atbgak7spchdat6zwhwszw.py":40:39)
#loc28 = loc("inductor_cache/ys/cysperrveqftar7tgaf3goxm5e34n2atbgak7spchdat6zwhwszw.py":40:4)
#loc29 = loc(callsite(#loc20 at #loc21))
#loc31 = loc(callsite(#loc22 at #loc20))
#loc32 = loc(callsite(#loc31 at #loc21))
