#loc = loc("inductor_cache/hn/chn66gavbyedq3otwnytfbmtzqkoyddwwkuwi2jpndlo2spz5xex.py":19:0)
module {
  tt.func public @triton_poi_fused__native_batch_norm_legit_no_training_add_div_hardtanh_mul_52(%arg0: !tt.ptr<f32> {tt.divisibility = 16 : i32} loc("inductor_cache/hn/chn66gavbyedq3otwnytfbmtzqkoyddwwkuwi2jpndlo2spz5xex.py":19:0), %arg1: !tt.ptr<f32> {tt.divisibility = 16 : i32} loc("inductor_cache/hn/chn66gavbyedq3otwnytfbmtzqkoyddwwkuwi2jpndlo2spz5xex.py":19:0), %arg2: !tt.ptr<f32> {tt.divisibility = 16 : i32} loc("inductor_cache/hn/chn66gavbyedq3otwnytfbmtzqkoyddwwkuwi2jpndlo2spz5xex.py":19:0), %arg3: !tt.ptr<f32> {tt.divisibility = 16 : i32} loc("inductor_cache/hn/chn66gavbyedq3otwnytfbmtzqkoyddwwkuwi2jpndlo2spz5xex.py":19:0), %arg4: !tt.ptr<f32> {tt.divisibility = 16 : i32} loc("inductor_cache/hn/chn66gavbyedq3otwnytfbmtzqkoyddwwkuwi2jpndlo2spz5xex.py":19:0), %arg5: !tt.ptr<f32> {tt.divisibility = 16 : i32} loc("inductor_cache/hn/chn66gavbyedq3otwnytfbmtzqkoyddwwkuwi2jpndlo2spz5xex.py":19:0), %arg6: i32 {tt.divisibility = 16 : i32} loc("inductor_cache/hn/chn66gavbyedq3otwnytfbmtzqkoyddwwkuwi2jpndlo2spz5xex.py":19:0), %arg7: i32 {tt.divisibility = 16 : i32} loc("inductor_cache/hn/chn66gavbyedq3otwnytfbmtzqkoyddwwkuwi2jpndlo2spz5xex.py":19:0)) attributes {noinline = false} {
    %cst = arith.constant dense<6.000000e+00> : tensor<64x16xf32> loc(#loc1)
    %cst_0 = arith.constant dense<0.000000e+00> : tensor<64x16xf32> loc(#loc1)
    %cst_1 = arith.constant dense<1.000000e+00> : tensor<64x1xf32> loc(#loc1)
    %cst_2 = arith.constant dense<4096> : tensor<1x16xi32> loc(#loc1)
    %cst_3 = arith.constant dense<4> : tensor<64x1xi32> loc(#loc1)
    %cst_4 = arith.constant dense<0.166666672> : tensor<64x16xf32> loc(#loc1)
    %cst_5 = arith.constant dense<3.000000e+00> : tensor<64x16xf32> loc(#loc1)
    %cst_6 = arith.constant dense<9.99999974E-6> : tensor<64x1xf32> loc(#loc1)
    %cst_7 = arith.constant dense<1024> : tensor<1x16xi32> loc(#loc1)
    %cst_8 = arith.constant dense<4> : tensor<1x16xi32> loc(#loc1)
    %cst_9 = arith.constant dense<1024> : tensor<64x1xi32> loc(#loc1)
    %c64_i32 = arith.constant 64 : i32 loc(#loc1)
    %cst_10 = arith.constant dense<16> : tensor<1x16xi32> loc(#loc1)
    %c16_i32 = arith.constant 16 : i32 loc(#loc1)
    %0 = tt.get_program_id y : i32 loc(#loc2)
    %1 = arith.muli %0, %c16_i32 : i32 loc(#loc3)
    %2 = tt.make_range {end = 16 : i32, start = 0 : i32} : tensor<16xi32> loc(#loc4)
    %3 = tt.expand_dims %2 {axis = 0 : i32} : tensor<16xi32> -> tensor<1x16xi32> loc(#loc5)
    %4 = tt.splat %1 : i32 -> tensor<1x16xi32> loc(#loc6)
    %5 = arith.addi %4, %3 : tensor<1x16xi32> loc(#loc6)
    %6 = arith.cmpi slt, %5, %cst_10 : tensor<1x16xi32> loc(#loc7)
    %7 = tt.get_program_id x : i32 loc(#loc8)
    %8 = arith.muli %7, %c64_i32 : i32 loc(#loc9)
    %9 = tt.make_range {end = 64 : i32, start = 0 : i32} : tensor<64xi32> loc(#loc10)
    %10 = tt.expand_dims %9 {axis = 1 : i32} : tensor<64xi32> -> tensor<64x1xi32> loc(#loc11)
    %11 = tt.splat %8 : i32 -> tensor<64x1xi32> loc(#loc12)
    %12 = arith.addi %11, %10 : tensor<64x1xi32> loc(#loc12)
    %13 = arith.cmpi slt, %12, %cst_9 : tensor<64x1xi32> loc(#loc13)
    %14 = arith.remsi %5, %cst_8 : tensor<1x16xi32> loc(#loc14)
    %15 = arith.divsi %5, %cst_8 : tensor<1x16xi32> loc(#loc15)
    %16 = arith.muli %5, %cst_7 : tensor<1x16xi32> loc(#loc16)
    %17 = tt.broadcast %12 : tensor<64x1xi32> -> tensor<64x16xi32> loc(#loc17)
    %18 = tt.broadcast %16 : tensor<1x16xi32> -> tensor<64x16xi32> loc(#loc17)
    %19 = arith.addi %17, %18 : tensor<64x16xi32> loc(#loc17)
    %20 = tt.splat %arg0 : !tt.ptr<f32> -> tensor<64x16x!tt.ptr<f32>> loc(#loc18)
    %21 = tt.addptr %20, %19 : tensor<64x16x!tt.ptr<f32>>, tensor<64x16xi32> loc(#loc18)
    %22 = tt.broadcast %13 : tensor<64x1xi1> -> tensor<64x16xi1> loc(#loc19)
    %23 = tt.broadcast %6 : tensor<1x16xi1> -> tensor<64x16xi1> loc(#loc19)
    %24 = arith.andi %22, %23 : tensor<64x16xi1> loc(#loc19)
    %25 = tt.load %21, %24 evictionPolicy = evict_last : tensor<64x16x!tt.ptr<f32>> loc(#loc20)
    %26 = tt.splat %arg1 : !tt.ptr<f32> -> tensor<64x1x!tt.ptr<f32>> loc(#loc21)
    %27 = tt.addptr %26, %12 : tensor<64x1x!tt.ptr<f32>>, tensor<64x1xi32> loc(#loc21)
    %28 = tt.load %27, %13 evictionPolicy = evict_last : tensor<64x1x!tt.ptr<f32>> loc(#loc22)
    %29 = tt.splat %arg2 : !tt.ptr<f32> -> tensor<64x1x!tt.ptr<f32>> loc(#loc23)
    %30 = tt.addptr %29, %12 : tensor<64x1x!tt.ptr<f32>>, tensor<64x1xi32> loc(#loc23)
    %31 = tt.load %30, %13 evictionPolicy = evict_last : tensor<64x1x!tt.ptr<f32>> loc(#loc24)
    %32 = tt.splat %arg3 : !tt.ptr<f32> -> tensor<64x1x!tt.ptr<f32>> loc(#loc25)
    %33 = tt.addptr %32, %12 : tensor<64x1x!tt.ptr<f32>>, tensor<64x1xi32> loc(#loc25)
    %34 = tt.load %33, %13 evictionPolicy = evict_last : tensor<64x1x!tt.ptr<f32>> loc(#loc26)
    %35 = tt.splat %arg4 : !tt.ptr<f32> -> tensor<64x1x!tt.ptr<f32>> loc(#loc27)
    %36 = tt.addptr %35, %12 : tensor<64x1x!tt.ptr<f32>>, tensor<64x1xi32> loc(#loc27)
    %37 = tt.load %36, %13 evictionPolicy = evict_last : tensor<64x1x!tt.ptr<f32>> loc(#loc28)
    %38 = tt.broadcast %28 : tensor<64x1xf32> -> tensor<64x16xf32> loc(#loc29)
    %39 = arith.subf %25, %38 : tensor<64x16xf32> loc(#loc29)
    %40 = arith.addf %31, %cst_6 : tensor<64x1xf32> loc(#loc30)
    %41 = tt.extern_elementwise %40 {libname = "", libpath = "", pure = true, symbol = "__nv_sqrtf"} : (tensor<64x1xf32>) -> tensor<64x1xf32> loc(#loc31)
    %42 = arith.divf %cst_1, %41 : tensor<64x1xf32> loc(#loc32)
    %43 = tt.broadcast %42 : tensor<64x1xf32> -> tensor<64x16xf32> loc(#loc33)
    %44 = arith.mulf %39, %43 : tensor<64x16xf32> loc(#loc33)
    %45 = tt.broadcast %34 : tensor<64x1xf32> -> tensor<64x16xf32> loc(#loc34)
    %46 = arith.mulf %44, %45 : tensor<64x16xf32> loc(#loc34)
    %47 = tt.broadcast %37 : tensor<64x1xf32> -> tensor<64x16xf32> loc(#loc35)
    %48 = arith.addf %46, %47 : tensor<64x16xf32> loc(#loc35)
    %49 = arith.addf %48, %cst_5 : tensor<64x16xf32> loc(#loc36)
    %50 = arith.cmpf ogt, %49, %cst_0 : tensor<64x16xf32> loc(#loc56)
    %51 = arith.cmpf une, %49, %49 : tensor<64x16xf32> loc(#loc57)
    %52 = arith.ori %50, %51 : tensor<64x16xi1> loc(#loc58)
    %53 = arith.select %52, %49, %cst_0 : tensor<64x16xi1>, tensor<64x16xf32> loc(#loc59)
    %54 = arith.cmpf olt, %53, %cst : tensor<64x16xf32> loc(#loc60)
    %55 = arith.cmpf une, %53, %53 : tensor<64x16xf32> loc(#loc61)
    %56 = arith.ori %54, %55 : tensor<64x16xi1> loc(#loc62)
    %57 = arith.select %56, %53, %cst : tensor<64x16xi1>, tensor<64x16xf32> loc(#loc63)
    %58 = arith.mulf %57, %cst_4 : tensor<64x16xf32> loc(#loc47)
    %59 = arith.mulf %48, %58 : tensor<64x16xf32> loc(#loc48)
    %60 = arith.muli %12, %cst_3 : tensor<64x1xi32> loc(#loc49)
    %61 = tt.broadcast %14 : tensor<1x16xi32> -> tensor<64x16xi32> loc(#loc50)
    %62 = tt.broadcast %60 : tensor<64x1xi32> -> tensor<64x16xi32> loc(#loc50)
    %63 = arith.addi %61, %62 : tensor<64x16xi32> loc(#loc50)
    %64 = arith.muli %15, %cst_2 : tensor<1x16xi32> loc(#loc51)
    %65 = tt.broadcast %64 : tensor<1x16xi32> -> tensor<64x16xi32> loc(#loc52)
    %66 = arith.addi %63, %65 : tensor<64x16xi32> loc(#loc52)
    %67 = tt.splat %arg5 : !tt.ptr<f32> -> tensor<64x16x!tt.ptr<f32>> loc(#loc53)
    %68 = tt.addptr %67, %66 : tensor<64x16x!tt.ptr<f32>>, tensor<64x16xi32> loc(#loc53)
    tt.store %68, %59, %24 : tensor<64x16x!tt.ptr<f32>> loc(#loc54)
    tt.return loc(#loc55)
  } loc(#loc)
} loc(#loc)
#loc1 = loc(unknown)
#loc2 = loc("inductor_cache/hn/chn66gavbyedq3otwnytfbmtzqkoyddwwkuwi2jpndlo2spz5xex.py":22:28)
#loc3 = loc("inductor_cache/hn/chn66gavbyedq3otwnytfbmtzqkoyddwwkuwi2jpndlo2spz5xex.py":22:33)
#loc4 = loc("inductor_cache/hn/chn66gavbyedq3otwnytfbmtzqkoyddwwkuwi2jpndlo2spz5xex.py":23:36)
#loc5 = loc("inductor_cache/hn/chn66gavbyedq3otwnytfbmtzqkoyddwwkuwi2jpndlo2spz5xex.py":23:44)
#loc6 = loc("inductor_cache/hn/chn66gavbyedq3otwnytfbmtzqkoyddwwkuwi2jpndlo2spz5xex.py":23:23)
#loc7 = loc("inductor_cache/hn/chn66gavbyedq3otwnytfbmtzqkoyddwwkuwi2jpndlo2spz5xex.py":24:21)
#loc8 = loc("inductor_cache/hn/chn66gavbyedq3otwnytfbmtzqkoyddwwkuwi2jpndlo2spz5xex.py":25:28)
#loc9 = loc("inductor_cache/hn/chn66gavbyedq3otwnytfbmtzqkoyddwwkuwi2jpndlo2spz5xex.py":25:33)
#loc10 = loc("inductor_cache/hn/chn66gavbyedq3otwnytfbmtzqkoyddwwkuwi2jpndlo2spz5xex.py":26:36)
#loc11 = loc("inductor_cache/hn/chn66gavbyedq3otwnytfbmtzqkoyddwwkuwi2jpndlo2spz5xex.py":26:44)
#loc12 = loc("inductor_cache/hn/chn66gavbyedq3otwnytfbmtzqkoyddwwkuwi2jpndlo2spz5xex.py":26:23)
#loc13 = loc("inductor_cache/hn/chn66gavbyedq3otwnytfbmtzqkoyddwwkuwi2jpndlo2spz5xex.py":27:21)
#loc14 = loc("inductor_cache/hn/chn66gavbyedq3otwnytfbmtzqkoyddwwkuwi2jpndlo2spz5xex.py":30:19)
#loc15 = loc("inductor_cache/hn/chn66gavbyedq3otwnytfbmtzqkoyddwwkuwi2jpndlo2spz5xex.py":31:19)
#loc16 = loc("inductor_cache/hn/chn66gavbyedq3otwnytfbmtzqkoyddwwkuwi2jpndlo2spz5xex.py":32:40)
#loc17 = loc("inductor_cache/hn/chn66gavbyedq3otwnytfbmtzqkoyddwwkuwi2jpndlo2spz5xex.py":32:35)
#loc18 = loc("inductor_cache/hn/chn66gavbyedq3otwnytfbmtzqkoyddwwkuwi2jpndlo2spz5xex.py":32:30)
#loc19 = loc("inductor_cache/hn/chn66gavbyedq3otwnytfbmtzqkoyddwwkuwi2jpndlo2spz5xex.py":32:53)
#loc20 = loc("inductor_cache/hn/chn66gavbyedq3otwnytfbmtzqkoyddwwkuwi2jpndlo2spz5xex.py":32:45)
#loc21 = loc("inductor_cache/hn/chn66gavbyedq3otwnytfbmtzqkoyddwwkuwi2jpndlo2spz5xex.py":33:30)
#loc22 = loc("inductor_cache/hn/chn66gavbyedq3otwnytfbmtzqkoyddwwkuwi2jpndlo2spz5xex.py":33:35)
#loc23 = loc("inductor_cache/hn/chn66gavbyedq3otwnytfbmtzqkoyddwwkuwi2jpndlo2spz5xex.py":34:30)
#loc24 = loc("inductor_cache/hn/chn66gavbyedq3otwnytfbmtzqkoyddwwkuwi2jpndlo2spz5xex.py":34:35)
#loc25 = loc("inductor_cache/hn/chn66gavbyedq3otwnytfbmtzqkoyddwwkuwi2jpndlo2spz5xex.py":35:31)
#loc26 = loc("inductor_cache/hn/chn66gavbyedq3otwnytfbmtzqkoyddwwkuwi2jpndlo2spz5xex.py":35:36)
#loc27 = loc("inductor_cache/hn/chn66gavbyedq3otwnytfbmtzqkoyddwwkuwi2jpndlo2spz5xex.py":36:31)
#loc28 = loc("inductor_cache/hn/chn66gavbyedq3otwnytfbmtzqkoyddwwkuwi2jpndlo2spz5xex.py":36:36)
#loc29 = loc("inductor_cache/hn/chn66gavbyedq3otwnytfbmtzqkoyddwwkuwi2jpndlo2spz5xex.py":37:18)
#loc30 = loc("inductor_cache/hn/chn66gavbyedq3otwnytfbmtzqkoyddwwkuwi2jpndlo2spz5xex.py":39:18)
#loc31 = loc("inductor_cache/hn/chn66gavbyedq3otwnytfbmtzqkoyddwwkuwi2jpndlo2spz5xex.py":40:26)
#loc32 = loc("inductor_cache/hn/chn66gavbyedq3otwnytfbmtzqkoyddwwkuwi2jpndlo2spz5xex.py":42:18)
#loc33 = loc("inductor_cache/hn/chn66gavbyedq3otwnytfbmtzqkoyddwwkuwi2jpndlo2spz5xex.py":45:19)
#loc34 = loc("inductor_cache/hn/chn66gavbyedq3otwnytfbmtzqkoyddwwkuwi2jpndlo2spz5xex.py":46:20)
#loc35 = loc("inductor_cache/hn/chn66gavbyedq3otwnytfbmtzqkoyddwwkuwi2jpndlo2spz5xex.py":47:20)
#loc36 = loc("inductor_cache/hn/chn66gavbyedq3otwnytfbmtzqkoyddwwkuwi2jpndlo2spz5xex.py":49:20)
#loc37 = loc("/home/sahanp/.conda/envs/parity-bench/lib/python3.12/site-packages/torch/_inductor/runtime/triton_helpers.py":118:15)
#loc38 = loc("inductor_cache/hn/chn66gavbyedq3otwnytfbmtzqkoyddwwkuwi2jpndlo2spz5xex.py":51:42)
#loc39 = loc("/home/sahanp/.conda/envs/parity-bench/lib/python3.12/site-packages/torch/_inductor/runtime/triton_helpers.py":120:21)
#loc40 = loc("/home/sahanp/.conda/envs/parity-bench/lib/python3.12/site-packages/torch/_inductor/runtime/triton_helpers.py":120:16)
#loc41 = loc("/home/sahanp/.conda/envs/parity-bench/lib/python3.12/site-packages/torch/_inductor/runtime/triton_helpers.py":121:29)
#loc42 = loc("/home/sahanp/.conda/envs/parity-bench/lib/python3.12/site-packages/torch/_inductor/runtime/triton_helpers.py":110:15)
#loc43 = loc("inductor_cache/hn/chn66gavbyedq3otwnytfbmtzqkoyddwwkuwi2jpndlo2spz5xex.py":53:42)
#loc44 = loc("/home/sahanp/.conda/envs/parity-bench/lib/python3.12/site-packages/torch/_inductor/runtime/triton_helpers.py":112:21)
#loc45 = loc("/home/sahanp/.conda/envs/parity-bench/lib/python3.12/site-packages/torch/_inductor/runtime/triton_helpers.py":112:16)
#loc46 = loc("/home/sahanp/.conda/envs/parity-bench/lib/python3.12/site-packages/torch/_inductor/runtime/triton_helpers.py":113:29)
#loc47 = loc("inductor_cache/hn/chn66gavbyedq3otwnytfbmtzqkoyddwwkuwi2jpndlo2spz5xex.py":55:20)
#loc48 = loc("inductor_cache/hn/chn66gavbyedq3otwnytfbmtzqkoyddwwkuwi2jpndlo2spz5xex.py":56:20)
#loc49 = loc("inductor_cache/hn/chn66gavbyedq3otwnytfbmtzqkoyddwwkuwi2jpndlo2spz5xex.py":57:32)
#loc50 = loc("inductor_cache/hn/chn66gavbyedq3otwnytfbmtzqkoyddwwkuwi2jpndlo2spz5xex.py":57:30)
#loc51 = loc("inductor_cache/hn/chn66gavbyedq3otwnytfbmtzqkoyddwwkuwi2jpndlo2spz5xex.py":57:42)
#loc52 = loc("inductor_cache/hn/chn66gavbyedq3otwnytfbmtzqkoyddwwkuwi2jpndlo2spz5xex.py":57:37)
#loc53 = loc("inductor_cache/hn/chn66gavbyedq3otwnytfbmtzqkoyddwwkuwi2jpndlo2spz5xex.py":57:25)
#loc54 = loc("inductor_cache/hn/chn66gavbyedq3otwnytfbmtzqkoyddwwkuwi2jpndlo2spz5xex.py":57:54)
#loc55 = loc("inductor_cache/hn/chn66gavbyedq3otwnytfbmtzqkoyddwwkuwi2jpndlo2spz5xex.py":57:4)
#loc56 = loc(callsite(#loc37 at #loc38))
#loc57 = loc(callsite(#loc39 at #loc38))
#loc58 = loc(callsite(#loc40 at #loc38))
#loc59 = loc(callsite(#loc41 at #loc38))
#loc60 = loc(callsite(#loc42 at #loc43))
#loc61 = loc(callsite(#loc44 at #loc43))
#loc62 = loc(callsite(#loc45 at #loc43))
#loc63 = loc(callsite(#loc46 at #loc43))
