#loc = loc("inductor_cache/nd/cndlrnhdpqctjgfn3j5soxbqqetml4qv4jbz7ayf4jxjtzwlpytg.py":19:0)
module {
  tt.func public @triton_poi_fused_add_sigmoid_sigmoid_backward_1(%arg0: !tt.ptr<f32> {tt.divisibility = 16 : i32} loc("inductor_cache/nd/cndlrnhdpqctjgfn3j5soxbqqetml4qv4jbz7ayf4jxjtzwlpytg.py":19:0), %arg1: !tt.ptr<f32> {tt.divisibility = 16 : i32} loc("inductor_cache/nd/cndlrnhdpqctjgfn3j5soxbqqetml4qv4jbz7ayf4jxjtzwlpytg.py":19:0), %arg2: i32 {tt.divisibility = 16 : i32} loc("inductor_cache/nd/cndlrnhdpqctjgfn3j5soxbqqetml4qv4jbz7ayf4jxjtzwlpytg.py":19:0)) attributes {noinline = false} {
    %cst = arith.constant dense<1.000000e+00> : tensor<128xf32> loc(#loc1)
    %cst_0 = arith.constant dense<0.000000e+00> : tensor<128xf32> loc(#loc1)
    %cst_1 = arith.constant dense<256> : tensor<128xi32> loc(#loc1)
    %c128_i32 = arith.constant 128 : i32 loc(#loc1)
    %0 = tt.get_program_id x : i32 loc(#loc2)
    %1 = arith.muli %0, %c128_i32 : i32 loc(#loc3)
    %2 = tt.make_range {end = 128 : i32, start = 0 : i32} : tensor<128xi32> loc(#loc4)
    %3 = tt.splat %1 : i32 -> tensor<128xi32> loc(#loc5)
    %4 = arith.addi %3, %2 : tensor<128xi32> loc(#loc5)
    %5 = arith.cmpi slt, %4, %cst_1 : tensor<128xi32> loc(#loc6)
    %6 = tt.splat %arg0 : !tt.ptr<f32> -> tensor<128x!tt.ptr<f32>> loc(#loc7)
    %7 = tt.addptr %6, %4 : tensor<128x!tt.ptr<f32>>, tensor<128xi32> loc(#loc7)
    %8 = tt.load %7, %5 : tensor<128x!tt.ptr<f32>> loc(#loc8)
    %9 = arith.addf %8, %cst_0 : tensor<128xf32> loc(#loc9)
    %10 = arith.addf %9, %cst_0 : tensor<128xf32> loc(#loc10)
    %11 = arith.subf %cst_0, %10 : tensor<128xf32> loc(#loc22)
    %12 = math.exp %11 : tensor<128xf32> loc(#loc23)
    %13 = arith.addf %12, %cst : tensor<128xf32> loc(#loc24)
    %14 = arith.divf %cst, %13 : tensor<128xf32> loc(#loc25)
    %15 = arith.subf %cst, %14 : tensor<128xf32> loc(#loc16)
    %16 = arith.mulf %14, %15 : tensor<128xf32> loc(#loc17)
    tt.store %7, %14, %5 : tensor<128x!tt.ptr<f32>> loc(#loc18)
    %17 = tt.splat %arg1 : !tt.ptr<f32> -> tensor<128x!tt.ptr<f32>> loc(#loc19)
    %18 = tt.addptr %17, %4 : tensor<128x!tt.ptr<f32>>, tensor<128xi32> loc(#loc19)
    tt.store %18, %16, %5 : tensor<128x!tt.ptr<f32>> loc(#loc20)
    tt.return loc(#loc21)
  } loc(#loc)
} loc(#loc)
#loc1 = loc(unknown)
#loc2 = loc("inductor_cache/nd/cndlrnhdpqctjgfn3j5soxbqqetml4qv4jbz7ayf4jxjtzwlpytg.py":21:28)
#loc3 = loc("inductor_cache/nd/cndlrnhdpqctjgfn3j5soxbqqetml4qv4jbz7ayf4jxjtzwlpytg.py":21:33)
#loc4 = loc("inductor_cache/nd/cndlrnhdpqctjgfn3j5soxbqqetml4qv4jbz7ayf4jxjtzwlpytg.py":22:36)
#loc5 = loc("inductor_cache/nd/cndlrnhdpqctjgfn3j5soxbqqetml4qv4jbz7ayf4jxjtzwlpytg.py":22:23)
#loc6 = loc("inductor_cache/nd/cndlrnhdpqctjgfn3j5soxbqqetml4qv4jbz7ayf4jxjtzwlpytg.py":23:21)
#loc7 = loc("inductor_cache/nd/cndlrnhdpqctjgfn3j5soxbqqetml4qv4jbz7ayf4jxjtzwlpytg.py":25:34)
#loc8 = loc("inductor_cache/nd/cndlrnhdpqctjgfn3j5soxbqqetml4qv4jbz7ayf4jxjtzwlpytg.py":25:39)
#loc9 = loc("inductor_cache/nd/cndlrnhdpqctjgfn3j5soxbqqetml4qv4jbz7ayf4jxjtzwlpytg.py":27:18)
#loc10 = loc("inductor_cache/nd/cndlrnhdpqctjgfn3j5soxbqqetml4qv4jbz7ayf4jxjtzwlpytg.py":28:18)
#loc11 = loc("/home/sahanp/.conda/envs/parity-bench/lib/python3.12/site-packages/triton/language/standard.py":47:30)
#loc12 = loc("inductor_cache/nd/cndlrnhdpqctjgfn3j5soxbqqetml4qv4jbz7ayf4jxjtzwlpytg.py":29:22)
#loc13 = loc("/home/sahanp/.conda/envs/parity-bench/lib/python3.12/site-packages/triton/language/standard.py":47:29)
#loc14 = loc("/home/sahanp/.conda/envs/parity-bench/lib/python3.12/site-packages/triton/language/standard.py":47:20)
#loc15 = loc("/home/sahanp/.conda/envs/parity-bench/lib/python3.12/site-packages/triton/language/standard.py":47:16)
#loc16 = loc("inductor_cache/nd/cndlrnhdpqctjgfn3j5soxbqqetml4qv4jbz7ayf4jxjtzwlpytg.py":31:18)
#loc17 = loc("inductor_cache/nd/cndlrnhdpqctjgfn3j5soxbqqetml4qv4jbz7ayf4jxjtzwlpytg.py":32:18)
#loc18 = loc("inductor_cache/nd/cndlrnhdpqctjgfn3j5soxbqqetml4qv4jbz7ayf4jxjtzwlpytg.py":33:39)
#loc19 = loc("inductor_cache/nd/cndlrnhdpqctjgfn3j5soxbqqetml4qv4jbz7ayf4jxjtzwlpytg.py":34:25)
#loc20 = loc("inductor_cache/nd/cndlrnhdpqctjgfn3j5soxbqqetml4qv4jbz7ayf4jxjtzwlpytg.py":34:36)
#loc21 = loc("inductor_cache/nd/cndlrnhdpqctjgfn3j5soxbqqetml4qv4jbz7ayf4jxjtzwlpytg.py":34:4)
#loc22 = loc(callsite(#loc11 at #loc12))
#loc23 = loc(callsite(#loc13 at #loc12))
#loc24 = loc(callsite(#loc14 at #loc12))
#loc25 = loc(callsite(#loc15 at #loc12))
