#loc = loc("inductor_cache/eq/ceqjakvm5ocryjohyf353fhxjqfe4erb2di7vb4um6vczl7p44ce.py":19:0)
module {
  tt.func public @triton_poi_fused_cat_2(%arg0: !tt.ptr<f32> {tt.divisibility = 16 : i32} loc("inductor_cache/eq/ceqjakvm5ocryjohyf353fhxjqfe4erb2di7vb4um6vczl7p44ce.py":19:0), %arg1: !tt.ptr<f32> {tt.divisibility = 16 : i32} loc("inductor_cache/eq/ceqjakvm5ocryjohyf353fhxjqfe4erb2di7vb4um6vczl7p44ce.py":19:0), %arg2: !tt.ptr<f32> {tt.divisibility = 16 : i32} loc("inductor_cache/eq/ceqjakvm5ocryjohyf353fhxjqfe4erb2di7vb4um6vczl7p44ce.py":19:0), %arg3: i32 {tt.divisibility = 16 : i32} loc("inductor_cache/eq/ceqjakvm5ocryjohyf353fhxjqfe4erb2di7vb4um6vczl7p44ce.py":19:0)) attributes {noinline = false} {
    %cst = arith.constant dense<1.000000e+00> : tensor<32xf32> loc(#loc1)
    %cst_0 = arith.constant dense<-4> : tensor<32xi32> loc(#loc1)
    %cst_1 = arith.constant dense<0.000000e+00> : tensor<32xf32> loc(#loc1)
    %cst_2 = arith.constant dense<4> : tensor<32xi32> loc(#loc1)
    %cst_3 = arith.constant dense<4> : tensor<32xi64> loc(#loc1)
    %cst_4 = arith.constant dense<8> : tensor<32xi32> loc(#loc1)
    %cst_5 = arith.constant dense<32> : tensor<32xi32> loc(#loc1)
    %c32_i32 = arith.constant 32 : i32 loc(#loc1)
    %0 = tt.get_program_id x : i32 loc(#loc2)
    %1 = arith.muli %0, %c32_i32 : i32 loc(#loc3)
    %2 = tt.make_range {end = 32 : i32, start = 0 : i32} : tensor<32xi32> loc(#loc4)
    %3 = tt.splat %1 : i32 -> tensor<32xi32> loc(#loc5)
    %4 = arith.addi %3, %2 : tensor<32xi32> loc(#loc5)
    %5 = arith.cmpi slt, %4, %cst_5 : tensor<32xi32> loc(#loc6)
    %6 = arith.remsi %4, %cst_4 : tensor<32xi32> loc(#loc7)
    %7 = arith.divsi %4, %cst_4 : tensor<32xi32> loc(#loc8)
    %8 = arith.extsi %6 : tensor<32xi32> to tensor<32xi64> loc(#loc9)
    %9 = arith.cmpi slt, %8, %cst_3 : tensor<32xi64> loc(#loc9)
    %10 = arith.muli %7, %cst_2 : tensor<32xi32> loc(#loc10)
    %11 = arith.addi %10, %6 : tensor<32xi32> loc(#loc11)
    %12 = tt.splat %arg0 : !tt.ptr<f32> -> tensor<32x!tt.ptr<f32>> loc(#loc12)
    %13 = tt.addptr %12, %11 : tensor<32x!tt.ptr<f32>>, tensor<32xi32> loc(#loc12)
    %14 = arith.andi %9, %5 : tensor<32xi1> loc(#loc13)
    %15 = tt.load %13, %14, %cst_1 evictionPolicy = evict_last : tensor<32x!tt.ptr<f32>> loc(#loc14)
    %16 = arith.subf %cst_1, %15 : tensor<32xf32> loc(#loc33)
    %17 = math.exp %16 : tensor<32xf32> loc(#loc34)
    %18 = arith.addf %17, %cst : tensor<32xf32> loc(#loc35)
    %19 = arith.divf %cst, %18 : tensor<32xf32> loc(#loc36)
    %20 = arith.cmpi sge, %8, %cst_3 : tensor<32xi64> loc(#loc20)
    %21 = arith.addi %6, %cst_0 : tensor<32xi32> loc(#loc21)
    %22 = arith.addi %10, %21 : tensor<32xi32> loc(#loc22)
    %23 = tt.splat %arg1 : !tt.ptr<f32> -> tensor<32x!tt.ptr<f32>> loc(#loc23)
    %24 = tt.addptr %23, %22 : tensor<32x!tt.ptr<f32>>, tensor<32xi32> loc(#loc23)
    %25 = arith.andi %20, %5 : tensor<32xi1> loc(#loc24)
    %26 = tt.load %24, %25, %cst_1 evictionPolicy = evict_last : tensor<32x!tt.ptr<f32>> loc(#loc25)
    %27 = tt.extern_elementwise %26 {libname = "", libpath = "", pure = true, symbol = "__nv_tanhf"} : (tensor<32xf32>) -> tensor<32xf32> loc(#loc26)
    %28 = arith.select %20, %27, %cst_1 : tensor<32xi1>, tensor<32xf32> loc(#loc27)
    %29 = arith.select %9, %19, %28 : tensor<32xi1>, tensor<32xf32> loc(#loc37)
    %30 = tt.splat %arg2 : !tt.ptr<f32> -> tensor<32x!tt.ptr<f32>> loc(#loc30)
    %31 = tt.addptr %30, %4 : tensor<32x!tt.ptr<f32>>, tensor<32xi32> loc(#loc30)
    tt.store %31, %29, %5 : tensor<32x!tt.ptr<f32>> loc(#loc31)
    tt.return loc(#loc32)
  } loc(#loc)
} loc(#loc)
#loc1 = loc(unknown)
#loc2 = loc("inductor_cache/eq/ceqjakvm5ocryjohyf353fhxjqfe4erb2di7vb4um6vczl7p44ce.py":21:28)
#loc3 = loc("inductor_cache/eq/ceqjakvm5ocryjohyf353fhxjqfe4erb2di7vb4um6vczl7p44ce.py":21:33)
#loc4 = loc("inductor_cache/eq/ceqjakvm5ocryjohyf353fhxjqfe4erb2di7vb4um6vczl7p44ce.py":22:36)
#loc5 = loc("inductor_cache/eq/ceqjakvm5ocryjohyf353fhxjqfe4erb2di7vb4um6vczl7p44ce.py":22:23)
#loc6 = loc("inductor_cache/eq/ceqjakvm5ocryjohyf353fhxjqfe4erb2di7vb4um6vczl7p44ce.py":23:21)
#loc7 = loc("inductor_cache/eq/ceqjakvm5ocryjohyf353fhxjqfe4erb2di7vb4um6vczl7p44ce.py":24:19)
#loc8 = loc("inductor_cache/eq/ceqjakvm5ocryjohyf353fhxjqfe4erb2di7vb4um6vczl7p44ce.py":25:19)
#loc9 = loc("inductor_cache/eq/ceqjakvm5ocryjohyf353fhxjqfe4erb2di7vb4um6vczl7p44ce.py":31:18)
#loc10 = loc("inductor_cache/eq/ceqjakvm5ocryjohyf353fhxjqfe4erb2di7vb4um6vczl7p44ce.py":32:32)
#loc11 = loc("inductor_cache/eq/ceqjakvm5ocryjohyf353fhxjqfe4erb2di7vb4um6vczl7p44ce.py":32:38)
#loc12 = loc("inductor_cache/eq/ceqjakvm5ocryjohyf353fhxjqfe4erb2di7vb4um6vczl7p44ce.py":32:30)
#loc13 = loc("inductor_cache/eq/ceqjakvm5ocryjohyf353fhxjqfe4erb2di7vb4um6vczl7p44ce.py":32:51)
#loc14 = loc("inductor_cache/eq/ceqjakvm5ocryjohyf353fhxjqfe4erb2di7vb4um6vczl7p44ce.py":32:44)
#loc15 = loc("/home/sahanp/.conda/envs/parity-bench/lib/python3.12/site-packages/triton/language/standard.py":47:30)
#loc16 = loc("inductor_cache/eq/ceqjakvm5ocryjohyf353fhxjqfe4erb2di7vb4um6vczl7p44ce.py":33:22)
#loc17 = loc("/home/sahanp/.conda/envs/parity-bench/lib/python3.12/site-packages/triton/language/standard.py":47:29)
#loc18 = loc("/home/sahanp/.conda/envs/parity-bench/lib/python3.12/site-packages/triton/language/standard.py":47:20)
#loc19 = loc("/home/sahanp/.conda/envs/parity-bench/lib/python3.12/site-packages/triton/language/standard.py":47:16)
#loc20 = loc("inductor_cache/eq/ceqjakvm5ocryjohyf353fhxjqfe4erb2di7vb4um6vczl7p44ce.py":36:19)
#loc21 = loc("inductor_cache/eq/ceqjakvm5ocryjohyf353fhxjqfe4erb2di7vb4um6vczl7p44ce.py":39:46)
#loc22 = loc("inductor_cache/eq/ceqjakvm5ocryjohyf353fhxjqfe4erb2di7vb4um6vczl7p44ce.py":39:39)
#loc23 = loc("inductor_cache/eq/ceqjakvm5ocryjohyf353fhxjqfe4erb2di7vb4um6vczl7p44ce.py":39:31)
#loc24 = loc("inductor_cache/eq/ceqjakvm5ocryjohyf353fhxjqfe4erb2di7vb4um6vczl7p44ce.py":39:59)
#loc25 = loc("inductor_cache/eq/ceqjakvm5ocryjohyf353fhxjqfe4erb2di7vb4um6vczl7p44ce.py":39:52)
#loc26 = loc("inductor_cache/eq/ceqjakvm5ocryjohyf353fhxjqfe4erb2di7vb4um6vczl7p44ce.py":40:27)
#loc27 = loc("inductor_cache/eq/ceqjakvm5ocryjohyf353fhxjqfe4erb2di7vb4um6vczl7p44ce.py":42:34)
#loc28 = loc("inductor_cache/eq/ceqjakvm5ocryjohyf353fhxjqfe4erb2di7vb4um6vczl7p44ce.py":43:33)
#loc29 = loc("inductor_cache/eq/ceqjakvm5ocryjohyf353fhxjqfe4erb2di7vb4um6vczl7p44ce.py":35:32)
#loc30 = loc("inductor_cache/eq/ceqjakvm5ocryjohyf353fhxjqfe4erb2di7vb4um6vczl7p44ce.py":44:25)
#loc31 = loc("inductor_cache/eq/ceqjakvm5ocryjohyf353fhxjqfe4erb2di7vb4um6vczl7p44ce.py":44:37)
#loc32 = loc("inductor_cache/eq/ceqjakvm5ocryjohyf353fhxjqfe4erb2di7vb4um6vczl7p44ce.py":44:4)
#loc33 = loc(callsite(#loc15 at #loc16))
#loc34 = loc(callsite(#loc17 at #loc16))
#loc35 = loc(callsite(#loc18 at #loc16))
#loc36 = loc(callsite(#loc19 at #loc16))
#loc37 = loc(fused[#loc28, #loc29])
