#loc = loc("inductor_cache/4h/c4hlpfhxskcoepivpwoqojmx56lks2ale7f2vklhei375fqslnxo.py":19:0)
module {
  tt.func public @triton_poi_fused__native_batch_norm_legit_no_training_cat_relu_33(%arg0: !tt.ptr<f32> {tt.divisibility = 16 : i32} loc("inductor_cache/4h/c4hlpfhxskcoepivpwoqojmx56lks2ale7f2vklhei375fqslnxo.py":19:0), %arg1: !tt.ptr<f32> {tt.divisibility = 16 : i32} loc("inductor_cache/4h/c4hlpfhxskcoepivpwoqojmx56lks2ale7f2vklhei375fqslnxo.py":19:0), %arg2: !tt.ptr<f32> {tt.divisibility = 16 : i32} loc("inductor_cache/4h/c4hlpfhxskcoepivpwoqojmx56lks2ale7f2vklhei375fqslnxo.py":19:0), %arg3: !tt.ptr<f32> {tt.divisibility = 16 : i32} loc("inductor_cache/4h/c4hlpfhxskcoepivpwoqojmx56lks2ale7f2vklhei375fqslnxo.py":19:0), %arg4: !tt.ptr<f32> {tt.divisibility = 16 : i32} loc("inductor_cache/4h/c4hlpfhxskcoepivpwoqojmx56lks2ale7f2vklhei375fqslnxo.py":19:0), %arg5: !tt.ptr<f32> {tt.divisibility = 16 : i32} loc("inductor_cache/4h/c4hlpfhxskcoepivpwoqojmx56lks2ale7f2vklhei375fqslnxo.py":19:0), %arg6: !tt.ptr<f32> {tt.divisibility = 16 : i32} loc("inductor_cache/4h/c4hlpfhxskcoepivpwoqojmx56lks2ale7f2vklhei375fqslnxo.py":19:0), %arg7: !tt.ptr<f32> {tt.divisibility = 16 : i32} loc("inductor_cache/4h/c4hlpfhxskcoepivpwoqojmx56lks2ale7f2vklhei375fqslnxo.py":19:0), %arg8: !tt.ptr<f32> {tt.divisibility = 16 : i32} loc("inductor_cache/4h/c4hlpfhxskcoepivpwoqojmx56lks2ale7f2vklhei375fqslnxo.py":19:0), %arg9: !tt.ptr<f32> {tt.divisibility = 16 : i32} loc("inductor_cache/4h/c4hlpfhxskcoepivpwoqojmx56lks2ale7f2vklhei375fqslnxo.py":19:0), %arg10: i32 {tt.divisibility = 16 : i32} loc("inductor_cache/4h/c4hlpfhxskcoepivpwoqojmx56lks2ale7f2vklhei375fqslnxo.py":19:0)) attributes {noinline = false} {
    %cst = arith.constant dense<1.000000e+00> : tensor<128xf32> loc(#loc1)
    %cst_0 = arith.constant dense<9.99999974E-6> : tensor<128xf32> loc(#loc1)
    %cst_1 = arith.constant dense<-320> : tensor<128xi32> loc(#loc1)
    %cst_2 = arith.constant dense<-288> : tensor<128xi32> loc(#loc1)
    %cst_3 = arith.constant dense<320> : tensor<128xi64> loc(#loc1)
    %cst_4 = arith.constant dense<512> : tensor<128xi32> loc(#loc1)
    %cst_5 = arith.constant dense<-256> : tensor<128xi32> loc(#loc1)
    %cst_6 = arith.constant dense<288> : tensor<128xi64> loc(#loc1)
    %cst_7 = arith.constant dense<0.000000e+00> : tensor<128xf32> loc(#loc1)
    %cst_8 = arith.constant dense<4096> : tensor<128xi32> loc(#loc1)
    %cst_9 = arith.constant dense<256> : tensor<128xi64> loc(#loc1)
    %cst_10 = arith.constant dense<5632> : tensor<128xi32> loc(#loc1)
    %cst_11 = arith.constant dense<352> : tensor<128xi32> loc(#loc1)
    %cst_12 = arith.constant dense<16> : tensor<128xi32> loc(#loc1)
    %cst_13 = arith.constant dense<22528> : tensor<128xi32> loc(#loc1)
    %c128_i32 = arith.constant 128 : i32 loc(#loc1)
    %0 = tt.get_program_id x : i32 loc(#loc2)
    %1 = arith.muli %0, %c128_i32 : i32 loc(#loc3)
    %2 = tt.make_range {end = 128 : i32, start = 0 : i32} : tensor<128xi32> loc(#loc4)
    %3 = tt.splat %1 : i32 -> tensor<128xi32> loc(#loc5)
    %4 = arith.addi %3, %2 : tensor<128xi32> loc(#loc5)
    %5 = arith.cmpi slt, %4, %cst_13 : tensor<128xi32> loc(#loc6)
    %6 = arith.divsi %4, %cst_12 : tensor<128xi32> loc(#loc7)
    %7 = arith.remsi %6, %cst_11 : tensor<128xi32> loc(#loc8)
    %8 = arith.remsi %4, %cst_12 : tensor<128xi32> loc(#loc9)
    %9 = arith.divsi %4, %cst_10 : tensor<128xi32> loc(#loc10)
    %10 = tt.splat %arg4 : !tt.ptr<f32> -> tensor<128x!tt.ptr<f32>> loc(#loc11)
    %11 = tt.addptr %10, %7 : tensor<128x!tt.ptr<f32>>, tensor<128xi32> loc(#loc11)
    %12 = tt.load %11, %5 evictionPolicy = evict_last : tensor<128x!tt.ptr<f32>> loc(#loc12)
    %13 = tt.splat %arg5 : !tt.ptr<f32> -> tensor<128x!tt.ptr<f32>> loc(#loc13)
    %14 = tt.addptr %13, %7 : tensor<128x!tt.ptr<f32>>, tensor<128xi32> loc(#loc13)
    %15 = tt.load %14, %5 evictionPolicy = evict_last : tensor<128x!tt.ptr<f32>> loc(#loc14)
    %16 = tt.splat %arg6 : !tt.ptr<f32> -> tensor<128x!tt.ptr<f32>> loc(#loc15)
    %17 = tt.addptr %16, %7 : tensor<128x!tt.ptr<f32>>, tensor<128xi32> loc(#loc15)
    %18 = tt.load %17, %5 evictionPolicy = evict_last : tensor<128x!tt.ptr<f32>> loc(#loc16)
    %19 = tt.splat %arg7 : !tt.ptr<f32> -> tensor<128x!tt.ptr<f32>> loc(#loc17)
    %20 = tt.addptr %19, %7 : tensor<128x!tt.ptr<f32>>, tensor<128xi32> loc(#loc17)
    %21 = tt.load %20, %5 evictionPolicy = evict_last : tensor<128x!tt.ptr<f32>> loc(#loc18)
    %22 = arith.extsi %7 : tensor<128xi32> to tensor<128xi64> loc(#loc19)
    %23 = arith.cmpi slt, %22, %cst_9 : tensor<128xi64> loc(#loc19)
    %24 = arith.muli %7, %cst_12 : tensor<128xi32> loc(#loc20)
    %25 = arith.addi %8, %24 : tensor<128xi32> loc(#loc21)
    %26 = arith.muli %9, %cst_8 : tensor<128xi32> loc(#loc22)
    %27 = arith.addi %25, %26 : tensor<128xi32> loc(#loc23)
    %28 = tt.splat %arg0 : !tt.ptr<f32> -> tensor<128x!tt.ptr<f32>> loc(#loc24)
    %29 = tt.addptr %28, %27 : tensor<128x!tt.ptr<f32>>, tensor<128xi32> loc(#loc24)
    %30 = arith.andi %23, %5 : tensor<128xi1> loc(#loc25)
    %31 = tt.load %29, %30, %cst_7 : tensor<128x!tt.ptr<f32>> loc(#loc26)
    %32 = arith.cmpi sge, %22, %cst_9 : tensor<128xi64> loc(#loc27)
    %33 = arith.cmpi slt, %22, %cst_6 : tensor<128xi64> loc(#loc28)
    %34 = arith.andi %32, %33 : tensor<128xi1> loc(#loc29)
    %35 = arith.addi %7, %cst_5 : tensor<128xi32> loc(#loc30)
    %36 = arith.muli %35, %cst_12 : tensor<128xi32> loc(#loc31)
    %37 = arith.addi %8, %36 : tensor<128xi32> loc(#loc32)
    %38 = arith.muli %9, %cst_4 : tensor<128xi32> loc(#loc33)
    %39 = arith.addi %37, %38 : tensor<128xi32> loc(#loc34)
    %40 = tt.splat %arg1 : !tt.ptr<f32> -> tensor<128x!tt.ptr<f32>> loc(#loc35)
    %41 = tt.addptr %40, %39 : tensor<128x!tt.ptr<f32>>, tensor<128xi32> loc(#loc35)
    %42 = arith.andi %34, %5 : tensor<128xi1> loc(#loc36)
    %43 = tt.load %41, %42, %cst_7 : tensor<128x!tt.ptr<f32>> loc(#loc37)
    %44 = arith.cmpi sge, %22, %cst_6 : tensor<128xi64> loc(#loc38)
    %45 = arith.cmpi slt, %22, %cst_3 : tensor<128xi64> loc(#loc39)
    %46 = arith.andi %44, %45 : tensor<128xi1> loc(#loc40)
    %47 = arith.addi %7, %cst_2 : tensor<128xi32> loc(#loc41)
    %48 = arith.muli %47, %cst_12 : tensor<128xi32> loc(#loc42)
    %49 = arith.addi %8, %48 : tensor<128xi32> loc(#loc43)
    %50 = arith.addi %49, %38 : tensor<128xi32> loc(#loc44)
    %51 = tt.splat %arg2 : !tt.ptr<f32> -> tensor<128x!tt.ptr<f32>> loc(#loc45)
    %52 = tt.addptr %51, %50 : tensor<128x!tt.ptr<f32>>, tensor<128xi32> loc(#loc45)
    %53 = arith.andi %46, %5 : tensor<128xi1> loc(#loc46)
    %54 = tt.load %52, %53, %cst_7 : tensor<128x!tt.ptr<f32>> loc(#loc47)
    %55 = arith.cmpi sge, %22, %cst_3 : tensor<128xi64> loc(#loc48)
    %56 = arith.addi %7, %cst_1 : tensor<128xi32> loc(#loc49)
    %57 = arith.muli %56, %cst_12 : tensor<128xi32> loc(#loc50)
    %58 = arith.addi %8, %57 : tensor<128xi32> loc(#loc51)
    %59 = arith.addi %58, %38 : tensor<128xi32> loc(#loc52)
    %60 = tt.splat %arg3 : !tt.ptr<f32> -> tensor<128x!tt.ptr<f32>> loc(#loc53)
    %61 = tt.addptr %60, %59 : tensor<128x!tt.ptr<f32>>, tensor<128xi32> loc(#loc53)
    %62 = arith.andi %55, %5 : tensor<128xi1> loc(#loc54)
    %63 = tt.load %61, %62, %cst_7 : tensor<128x!tt.ptr<f32>> loc(#loc55)
    %64 = arith.select %46, %54, %63 : tensor<128xi1>, tensor<128xf32> loc(#loc56)
    %65 = arith.select %34, %43, %64 : tensor<128xi1>, tensor<128xf32> loc(#loc57)
    %66 = arith.select %23, %31, %65 : tensor<128xi1>, tensor<128xf32> loc(#loc58)
    %67 = arith.subf %66, %12 : tensor<128xf32> loc(#loc59)
    %68 = arith.addf %15, %cst_0 : tensor<128xf32> loc(#loc60)
    %69 = tt.extern_elementwise %68 {libname = "", libpath = "", pure = true, symbol = "__nv_sqrtf"} : (tensor<128xf32>) -> tensor<128xf32> loc(#loc61)
    %70 = arith.divf %cst, %69 : tensor<128xf32> loc(#loc62)
    %71 = arith.mulf %67, %70 : tensor<128xf32> loc(#loc63)
    %72 = arith.mulf %71, %18 : tensor<128xf32> loc(#loc64)
    %73 = arith.addf %72, %21 : tensor<128xf32> loc(#loc65)
    %74 = arith.cmpf ogt, %cst_7, %73 : tensor<128xf32> loc(#loc74)
    %75 = arith.select %74, %cst_7, %73 : tensor<128xi1>, tensor<128xf32> loc(#loc75)
    %76 = tt.splat %arg8 : !tt.ptr<f32> -> tensor<128x!tt.ptr<f32>> loc(#loc69)
    %77 = tt.addptr %76, %4 : tensor<128x!tt.ptr<f32>>, tensor<128xi32> loc(#loc69)
    tt.store %77, %66, %5 : tensor<128x!tt.ptr<f32>> loc(#loc70)
    %78 = tt.splat %arg9 : !tt.ptr<f32> -> tensor<128x!tt.ptr<f32>> loc(#loc71)
    %79 = tt.addptr %78, %4 : tensor<128x!tt.ptr<f32>>, tensor<128xi32> loc(#loc71)
    tt.store %79, %75, %5 : tensor<128x!tt.ptr<f32>> loc(#loc72)
    tt.return loc(#loc73)
  } loc(#loc)
} loc(#loc)
#loc1 = loc(unknown)
#loc2 = loc("inductor_cache/4h/c4hlpfhxskcoepivpwoqojmx56lks2ale7f2vklhei375fqslnxo.py":21:28)
#loc3 = loc("inductor_cache/4h/c4hlpfhxskcoepivpwoqojmx56lks2ale7f2vklhei375fqslnxo.py":21:33)
#loc4 = loc("inductor_cache/4h/c4hlpfhxskcoepivpwoqojmx56lks2ale7f2vklhei375fqslnxo.py":22:36)
#loc5 = loc("inductor_cache/4h/c4hlpfhxskcoepivpwoqojmx56lks2ale7f2vklhei375fqslnxo.py":22:23)
#loc6 = loc("inductor_cache/4h/c4hlpfhxskcoepivpwoqojmx56lks2ale7f2vklhei375fqslnxo.py":23:21)
#loc7 = loc("inductor_cache/4h/c4hlpfhxskcoepivpwoqojmx56lks2ale7f2vklhei375fqslnxo.py":24:21)
#loc8 = loc("inductor_cache/4h/c4hlpfhxskcoepivpwoqojmx56lks2ale7f2vklhei375fqslnxo.py":24:27)
#loc9 = loc("inductor_cache/4h/c4hlpfhxskcoepivpwoqojmx56lks2ale7f2vklhei375fqslnxo.py":25:19)
#loc10 = loc("inductor_cache/4h/c4hlpfhxskcoepivpwoqojmx56lks2ale7f2vklhei375fqslnxo.py":26:19)
#loc11 = loc("inductor_cache/4h/c4hlpfhxskcoepivpwoqojmx56lks2ale7f2vklhei375fqslnxo.py":28:31)
#loc12 = loc("inductor_cache/4h/c4hlpfhxskcoepivpwoqojmx56lks2ale7f2vklhei375fqslnxo.py":28:36)
#loc13 = loc("inductor_cache/4h/c4hlpfhxskcoepivpwoqojmx56lks2ale7f2vklhei375fqslnxo.py":29:31)
#loc14 = loc("inductor_cache/4h/c4hlpfhxskcoepivpwoqojmx56lks2ale7f2vklhei375fqslnxo.py":29:36)
#loc15 = loc("inductor_cache/4h/c4hlpfhxskcoepivpwoqojmx56lks2ale7f2vklhei375fqslnxo.py":30:31)
#loc16 = loc("inductor_cache/4h/c4hlpfhxskcoepivpwoqojmx56lks2ale7f2vklhei375fqslnxo.py":30:36)
#loc17 = loc("inductor_cache/4h/c4hlpfhxskcoepivpwoqojmx56lks2ale7f2vklhei375fqslnxo.py":31:31)
#loc18 = loc("inductor_cache/4h/c4hlpfhxskcoepivpwoqojmx56lks2ale7f2vklhei375fqslnxo.py":31:36)
#loc19 = loc("inductor_cache/4h/c4hlpfhxskcoepivpwoqojmx56lks2ale7f2vklhei375fqslnxo.py":36:18)
#loc20 = loc("inductor_cache/4h/c4hlpfhxskcoepivpwoqojmx56lks2ale7f2vklhei375fqslnxo.py":37:39)
#loc21 = loc("inductor_cache/4h/c4hlpfhxskcoepivpwoqojmx56lks2ale7f2vklhei375fqslnxo.py":37:35)
#loc22 = loc("inductor_cache/4h/c4hlpfhxskcoepivpwoqojmx56lks2ale7f2vklhei375fqslnxo.py":37:50)
#loc23 = loc("inductor_cache/4h/c4hlpfhxskcoepivpwoqojmx56lks2ale7f2vklhei375fqslnxo.py":37:45)
#loc24 = loc("inductor_cache/4h/c4hlpfhxskcoepivpwoqojmx56lks2ale7f2vklhei375fqslnxo.py":37:30)
#loc25 = loc("inductor_cache/4h/c4hlpfhxskcoepivpwoqojmx56lks2ale7f2vklhei375fqslnxo.py":37:62)
#loc26 = loc("inductor_cache/4h/c4hlpfhxskcoepivpwoqojmx56lks2ale7f2vklhei375fqslnxo.py":37:55)
#loc27 = loc("inductor_cache/4h/c4hlpfhxskcoepivpwoqojmx56lks2ale7f2vklhei375fqslnxo.py":38:19)
#loc28 = loc("inductor_cache/4h/c4hlpfhxskcoepivpwoqojmx56lks2ale7f2vklhei375fqslnxo.py":40:18)
#loc29 = loc("inductor_cache/4h/c4hlpfhxskcoepivpwoqojmx56lks2ale7f2vklhei375fqslnxo.py":41:18)
#loc30 = loc("inductor_cache/4h/c4hlpfhxskcoepivpwoqojmx56lks2ale7f2vklhei375fqslnxo.py":42:49)
#loc31 = loc("inductor_cache/4h/c4hlpfhxskcoepivpwoqojmx56lks2ale7f2vklhei375fqslnxo.py":42:40)
#loc32 = loc("inductor_cache/4h/c4hlpfhxskcoepivpwoqojmx56lks2ale7f2vklhei375fqslnxo.py":42:36)
#loc33 = loc("inductor_cache/4h/c4hlpfhxskcoepivpwoqojmx56lks2ale7f2vklhei375fqslnxo.py":42:59)
#loc34 = loc("inductor_cache/4h/c4hlpfhxskcoepivpwoqojmx56lks2ale7f2vklhei375fqslnxo.py":42:55)
#loc35 = loc("inductor_cache/4h/c4hlpfhxskcoepivpwoqojmx56lks2ale7f2vklhei375fqslnxo.py":42:31)
#loc36 = loc("inductor_cache/4h/c4hlpfhxskcoepivpwoqojmx56lks2ale7f2vklhei375fqslnxo.py":42:71)
#loc37 = loc("inductor_cache/4h/c4hlpfhxskcoepivpwoqojmx56lks2ale7f2vklhei375fqslnxo.py":42:64)
#loc38 = loc("inductor_cache/4h/c4hlpfhxskcoepivpwoqojmx56lks2ale7f2vklhei375fqslnxo.py":43:20)
#loc39 = loc("inductor_cache/4h/c4hlpfhxskcoepivpwoqojmx56lks2ale7f2vklhei375fqslnxo.py":45:19)
#loc40 = loc("inductor_cache/4h/c4hlpfhxskcoepivpwoqojmx56lks2ale7f2vklhei375fqslnxo.py":46:20)
#loc41 = loc("inductor_cache/4h/c4hlpfhxskcoepivpwoqojmx56lks2ale7f2vklhei375fqslnxo.py":47:49)
#loc42 = loc("inductor_cache/4h/c4hlpfhxskcoepivpwoqojmx56lks2ale7f2vklhei375fqslnxo.py":47:40)
#loc43 = loc("inductor_cache/4h/c4hlpfhxskcoepivpwoqojmx56lks2ale7f2vklhei375fqslnxo.py":47:36)
#loc44 = loc("inductor_cache/4h/c4hlpfhxskcoepivpwoqojmx56lks2ale7f2vklhei375fqslnxo.py":47:55)
#loc45 = loc("inductor_cache/4h/c4hlpfhxskcoepivpwoqojmx56lks2ale7f2vklhei375fqslnxo.py":47:31)
#loc46 = loc("inductor_cache/4h/c4hlpfhxskcoepivpwoqojmx56lks2ale7f2vklhei375fqslnxo.py":47:72)
#loc47 = loc("inductor_cache/4h/c4hlpfhxskcoepivpwoqojmx56lks2ale7f2vklhei375fqslnxo.py":47:64)
#loc48 = loc("inductor_cache/4h/c4hlpfhxskcoepivpwoqojmx56lks2ale7f2vklhei375fqslnxo.py":48:20)
#loc49 = loc("inductor_cache/4h/c4hlpfhxskcoepivpwoqojmx56lks2ale7f2vklhei375fqslnxo.py":51:49)
#loc50 = loc("inductor_cache/4h/c4hlpfhxskcoepivpwoqojmx56lks2ale7f2vklhei375fqslnxo.py":51:40)
#loc51 = loc("inductor_cache/4h/c4hlpfhxskcoepivpwoqojmx56lks2ale7f2vklhei375fqslnxo.py":51:36)
#loc52 = loc("inductor_cache/4h/c4hlpfhxskcoepivpwoqojmx56lks2ale7f2vklhei375fqslnxo.py":51:55)
#loc53 = loc("inductor_cache/4h/c4hlpfhxskcoepivpwoqojmx56lks2ale7f2vklhei375fqslnxo.py":51:31)
#loc54 = loc("inductor_cache/4h/c4hlpfhxskcoepivpwoqojmx56lks2ale7f2vklhei375fqslnxo.py":51:72)
#loc55 = loc("inductor_cache/4h/c4hlpfhxskcoepivpwoqojmx56lks2ale7f2vklhei375fqslnxo.py":51:64)
#loc56 = loc("inductor_cache/4h/c4hlpfhxskcoepivpwoqojmx56lks2ale7f2vklhei375fqslnxo.py":52:35)
#loc57 = loc("inductor_cache/4h/c4hlpfhxskcoepivpwoqojmx56lks2ale7f2vklhei375fqslnxo.py":53:34)
#loc58 = loc("inductor_cache/4h/c4hlpfhxskcoepivpwoqojmx56lks2ale7f2vklhei375fqslnxo.py":54:33)
#loc59 = loc("inductor_cache/4h/c4hlpfhxskcoepivpwoqojmx56lks2ale7f2vklhei375fqslnxo.py":55:20)
#loc60 = loc("inductor_cache/4h/c4hlpfhxskcoepivpwoqojmx56lks2ale7f2vklhei375fqslnxo.py":57:20)
#loc61 = loc("inductor_cache/4h/c4hlpfhxskcoepivpwoqojmx56lks2ale7f2vklhei375fqslnxo.py":58:27)
#loc62 = loc("inductor_cache/4h/c4hlpfhxskcoepivpwoqojmx56lks2ale7f2vklhei375fqslnxo.py":60:20)
#loc63 = loc("inductor_cache/4h/c4hlpfhxskcoepivpwoqojmx56lks2ale7f2vklhei375fqslnxo.py":63:20)
#loc64 = loc("inductor_cache/4h/c4hlpfhxskcoepivpwoqojmx56lks2ale7f2vklhei375fqslnxo.py":64:20)
#loc65 = loc("inductor_cache/4h/c4hlpfhxskcoepivpwoqojmx56lks2ale7f2vklhei375fqslnxo.py":65:20)
#loc66 = loc("/home/sahanp/.conda/envs/parity-bench/lib/python3.12/site-packages/torch/_inductor/runtime/triton_helpers.py":118:15)
#loc67 = loc("inductor_cache/4h/c4hlpfhxskcoepivpwoqojmx56lks2ale7f2vklhei375fqslnxo.py":67:42)
#loc68 = loc("/home/sahanp/.conda/envs/parity-bench/lib/python3.12/site-packages/torch/_inductor/runtime/triton_helpers.py":121:29)
#loc69 = loc("inductor_cache/4h/c4hlpfhxskcoepivpwoqojmx56lks2ale7f2vklhei375fqslnxo.py":68:25)
#loc70 = loc("inductor_cache/4h/c4hlpfhxskcoepivpwoqojmx56lks2ale7f2vklhei375fqslnxo.py":68:37)
#loc71 = loc("inductor_cache/4h/c4hlpfhxskcoepivpwoqojmx56lks2ale7f2vklhei375fqslnxo.py":69:25)
#loc72 = loc("inductor_cache/4h/c4hlpfhxskcoepivpwoqojmx56lks2ale7f2vklhei375fqslnxo.py":69:37)
#loc73 = loc("inductor_cache/4h/c4hlpfhxskcoepivpwoqojmx56lks2ale7f2vklhei375fqslnxo.py":69:4)
#loc74 = loc(callsite(#loc66 at #loc67))
#loc75 = loc(callsite(#loc68 at #loc67))
