#loc = loc("inductor_cache/tz/ctzxnfbn2wad2v7kkyyo5xw6ujol332owil3j7vrhxmyqacidfe5.py":19:0)
module {
  tt.func public @triton_poi_fused__to_copy_arange_clamp_floor_mul_39(%arg0: !tt.ptr<i64> {tt.divisibility = 16 : i32} loc("inductor_cache/tz/ctzxnfbn2wad2v7kkyyo5xw6ujol332owil3j7vrhxmyqacidfe5.py":19:0), %arg1: i32 {tt.divisibility = 16 : i32} loc("inductor_cache/tz/ctzxnfbn2wad2v7kkyyo5xw6ujol332owil3j7vrhxmyqacidfe5.py":19:0)) attributes {noinline = false} {
    %cst = arith.constant dense<7> : tensor<16xi64> loc(#loc1)
    %cst_0 = arith.constant dense<0> : tensor<16xi64> loc(#loc1)
    %cst_1 = arith.constant dense<0.466666669> : tensor<16xf32> loc(#loc1)
    %cst_2 = arith.constant dense<16> : tensor<16xi32> loc(#loc1)
    %c16_i32 = arith.constant 16 : i32 loc(#loc1)
    %0 = tt.get_program_id x : i32 loc(#loc2)
    %1 = arith.muli %0, %c16_i32 : i32 loc(#loc3)
    %2 = tt.make_range {end = 16 : i32, start = 0 : i32} : tensor<16xi32> loc(#loc4)
    %3 = tt.splat %1 : i32 -> tensor<16xi32> loc(#loc5)
    %4 = arith.addi %3, %2 : tensor<16xi32> loc(#loc5)
    %5 = arith.cmpi slt, %4, %cst_2 : tensor<16xi32> loc(#loc6)
    %6 = arith.sitofp %4 : tensor<16xi32> to tensor<16xf32> loc(#loc7)
    %7 = arith.mulf %6, %cst_1 : tensor<16xf32> loc(#loc8)
    %8 = tt.extern_elementwise %7 {libname = "", libpath = "", pure = true, symbol = "__nv_floorf"} : (tensor<16xf32>) -> tensor<16xf32> loc(#loc9)
    %9 = arith.fptosi %8 : tensor<16xf32> to tensor<16xi32> loc(#loc10)
    %10 = arith.extsi %9 : tensor<16xi32> to tensor<16xi64> loc(#loc20)
    %11 = arith.cmpi sgt, %10, %cst_0 : tensor<16xi64> loc(#loc20)
    %12 = arith.select %11, %10, %cst_0 : tensor<16xi1>, tensor<16xi64> loc(#loc21)
    %13 = arith.cmpi slt, %12, %cst : tensor<16xi64> loc(#loc22)
    %14 = arith.select %13, %12, %cst : tensor<16xi1>, tensor<16xi64> loc(#loc23)
    %15 = tt.splat %arg0 : !tt.ptr<i64> -> tensor<16x!tt.ptr<i64>> loc(#loc17)
    %16 = tt.addptr %15, %4 : tensor<16x!tt.ptr<i64>>, tensor<16xi32> loc(#loc17)
    tt.store %16, %14, %5 : tensor<16x!tt.ptr<i64>> loc(#loc18)
    tt.return loc(#loc19)
  } loc(#loc)
} loc(#loc)
#loc1 = loc(unknown)
#loc2 = loc("inductor_cache/tz/ctzxnfbn2wad2v7kkyyo5xw6ujol332owil3j7vrhxmyqacidfe5.py":21:28)
#loc3 = loc("inductor_cache/tz/ctzxnfbn2wad2v7kkyyo5xw6ujol332owil3j7vrhxmyqacidfe5.py":21:33)
#loc4 = loc("inductor_cache/tz/ctzxnfbn2wad2v7kkyyo5xw6ujol332owil3j7vrhxmyqacidfe5.py":22:36)
#loc5 = loc("inductor_cache/tz/ctzxnfbn2wad2v7kkyyo5xw6ujol332owil3j7vrhxmyqacidfe5.py":22:23)
#loc6 = loc("inductor_cache/tz/ctzxnfbn2wad2v7kkyyo5xw6ujol332owil3j7vrhxmyqacidfe5.py":23:21)
#loc7 = loc("inductor_cache/tz/ctzxnfbn2wad2v7kkyyo5xw6ujol332owil3j7vrhxmyqacidfe5.py":26:19)
#loc8 = loc("inductor_cache/tz/ctzxnfbn2wad2v7kkyyo5xw6ujol332owil3j7vrhxmyqacidfe5.py":28:18)
#loc9 = loc("inductor_cache/tz/ctzxnfbn2wad2v7kkyyo5xw6ujol332owil3j7vrhxmyqacidfe5.py":29:27)
#loc10 = loc("inductor_cache/tz/ctzxnfbn2wad2v7kkyyo5xw6ujol332owil3j7vrhxmyqacidfe5.py":30:19)
#loc11 = loc("/home/sahanp/.conda/envs/parity-bench/lib/python3.12/site-packages/torch/_inductor/runtime/triton_helpers.py":118:15)
#loc12 = loc("inductor_cache/tz/ctzxnfbn2wad2v7kkyyo5xw6ujol332owil3j7vrhxmyqacidfe5.py":32:40)
#loc13 = loc("/home/sahanp/.conda/envs/parity-bench/lib/python3.12/site-packages/torch/_inductor/runtime/triton_helpers.py":121:29)
#loc14 = loc("/home/sahanp/.conda/envs/parity-bench/lib/python3.12/site-packages/torch/_inductor/runtime/triton_helpers.py":110:15)
#loc15 = loc("inductor_cache/tz/ctzxnfbn2wad2v7kkyyo5xw6ujol332owil3j7vrhxmyqacidfe5.py":34:40)
#loc16 = loc("/home/sahanp/.conda/envs/parity-bench/lib/python3.12/site-packages/torch/_inductor/runtime/triton_helpers.py":113:29)
#loc17 = loc("inductor_cache/tz/ctzxnfbn2wad2v7kkyyo5xw6ujol332owil3j7vrhxmyqacidfe5.py":35:25)
#loc18 = loc("inductor_cache/tz/ctzxnfbn2wad2v7kkyyo5xw6ujol332owil3j7vrhxmyqacidfe5.py":35:36)
#loc19 = loc("inductor_cache/tz/ctzxnfbn2wad2v7kkyyo5xw6ujol332owil3j7vrhxmyqacidfe5.py":35:4)
#loc20 = loc(callsite(#loc11 at #loc12))
#loc21 = loc(callsite(#loc13 at #loc12))
#loc22 = loc(callsite(#loc14 at #loc15))
#loc23 = loc(callsite(#loc16 at #loc15))
