#loc = loc("inductor_cache/75/c75wgoywj6rx7h65zuhyhyqr3ud3gzh7pweltg5f6twwind56ipq.py":19:0)
#loc1 = loc(unknown)
#loc47 = loc("inductor_cache/75/c75wgoywj6rx7h65zuhyhyqr3ud3gzh7pweltg5f6twwind56ipq.py":61:27)
#loc56 = loc(callsite(#loc1 at #loc47))
module {
  tt.func public @triton_red_fused__native_batch_norm_legit_no_training_add_convolution_mean_1(%arg0: !tt.ptr<f32> {tt.divisibility = 16 : i32} loc("inductor_cache/75/c75wgoywj6rx7h65zuhyhyqr3ud3gzh7pweltg5f6twwind56ipq.py":19:0), %arg1: !tt.ptr<f32> {tt.divisibility = 16 : i32} loc("inductor_cache/75/c75wgoywj6rx7h65zuhyhyqr3ud3gzh7pweltg5f6twwind56ipq.py":19:0), %arg2: !tt.ptr<f32> {tt.divisibility = 16 : i32} loc("inductor_cache/75/c75wgoywj6rx7h65zuhyhyqr3ud3gzh7pweltg5f6twwind56ipq.py":19:0), %arg3: !tt.ptr<f32> {tt.divisibility = 16 : i32} loc("inductor_cache/75/c75wgoywj6rx7h65zuhyhyqr3ud3gzh7pweltg5f6twwind56ipq.py":19:0), %arg4: !tt.ptr<f32> {tt.divisibility = 16 : i32} loc("inductor_cache/75/c75wgoywj6rx7h65zuhyhyqr3ud3gzh7pweltg5f6twwind56ipq.py":19:0), %arg5: !tt.ptr<f32> {tt.divisibility = 16 : i32} loc("inductor_cache/75/c75wgoywj6rx7h65zuhyhyqr3ud3gzh7pweltg5f6twwind56ipq.py":19:0), %arg6: !tt.ptr<f32> {tt.divisibility = 16 : i32} loc("inductor_cache/75/c75wgoywj6rx7h65zuhyhyqr3ud3gzh7pweltg5f6twwind56ipq.py":19:0), %arg7: !tt.ptr<f32> {tt.divisibility = 16 : i32} loc("inductor_cache/75/c75wgoywj6rx7h65zuhyhyqr3ud3gzh7pweltg5f6twwind56ipq.py":19:0), %arg8: !tt.ptr<f32> {tt.divisibility = 16 : i32} loc("inductor_cache/75/c75wgoywj6rx7h65zuhyhyqr3ud3gzh7pweltg5f6twwind56ipq.py":19:0), %arg9: !tt.ptr<f32> {tt.divisibility = 16 : i32} loc("inductor_cache/75/c75wgoywj6rx7h65zuhyhyqr3ud3gzh7pweltg5f6twwind56ipq.py":19:0), %arg10: i32 {tt.divisibility = 16 : i32} loc("inductor_cache/75/c75wgoywj6rx7h65zuhyhyqr3ud3gzh7pweltg5f6twwind56ipq.py":19:0), %arg11: i32 {tt.divisibility = 16 : i32} loc("inductor_cache/75/c75wgoywj6rx7h65zuhyhyqr3ud3gzh7pweltg5f6twwind56ipq.py":19:0)) attributes {noinline = false} {
    %c16_i32 = arith.constant 16 : i32 loc(#loc1)
    %c64_i32 = arith.constant 64 : i32 loc(#loc1)
    %cst = arith.constant dense<1.000000e+00> : tensor<1x1xf32> loc(#loc1)
    %c2048_i32 = arith.constant 2048 : i32 loc(#loc1)
    %c4096_i32 = arith.constant 4096 : i32 loc(#loc1)
    %c0_i32 = arith.constant 0 : i32 loc(#loc1)
    %cst_0 = arith.constant dense<4.096000e+03> : tensor<1x1xf32> loc(#loc1)
    %cst_1 = arith.constant dense<9.99999974E-6> : tensor<1x1xf32> loc(#loc1)
    %cst_2 = arith.constant dense<4096> : tensor<1x2048xi32> loc(#loc1)
    %cst_3 = arith.constant dense<0.000000e+00> : tensor<1x2048xf32> loc(#loc1)
    %0 = tt.get_program_id x : i32 loc(#loc2)
    %1 = arith.cmpi slt, %0, %c64_i32 : i32 loc(#loc3)
    %2 = tt.splat %1 : i1 -> tensor<1x1xi1> loc(#loc3)
    %3 = tt.make_range {end = 2048 : i32, start = 0 : i32} : tensor<2048xi32> loc(#loc4)
    %4 = tt.expand_dims %3 {axis = 0 : i32} : tensor<2048xi32> -> tensor<1x2048xi32> loc(#loc5)
    %5 = arith.remsi %0, %c16_i32 : i32 loc(#loc6)
    %6 = tt.addptr %arg3, %5 : !tt.ptr<f32>, i32 loc(#loc7)
    %7 = tt.splat %6 : !tt.ptr<f32> -> tensor<1x1x!tt.ptr<f32>> loc(#loc7)
    %8 = tt.load %7, %2 evictionPolicy = evict_last : tensor<1x1x!tt.ptr<f32>> loc(#loc8)
    %9 = tt.addptr %arg4, %5 : !tt.ptr<f32>, i32 loc(#loc9)
    %10 = tt.splat %9 : !tt.ptr<f32> -> tensor<1x1x!tt.ptr<f32>> loc(#loc9)
    %11 = tt.load %10, %2 evictionPolicy = evict_last : tensor<1x1x!tt.ptr<f32>> loc(#loc10)
    %12 = tt.addptr %arg5, %5 : !tt.ptr<f32>, i32 loc(#loc11)
    %13 = tt.splat %12 : !tt.ptr<f32> -> tensor<1x1x!tt.ptr<f32>> loc(#loc11)
    %14 = tt.load %13, %2 evictionPolicy = evict_last : tensor<1x1x!tt.ptr<f32>> loc(#loc12)
    %15 = tt.addptr %arg6, %5 : !tt.ptr<f32>, i32 loc(#loc13)
    %16 = tt.splat %15 : !tt.ptr<f32> -> tensor<1x1x!tt.ptr<f32>> loc(#loc13)
    %17 = tt.load %16, %2 evictionPolicy = evict_last : tensor<1x1x!tt.ptr<f32>> loc(#loc14)
    %18 = tt.addptr %arg7, %5 : !tt.ptr<f32>, i32 loc(#loc15)
    %19 = tt.splat %18 : !tt.ptr<f32> -> tensor<1x1x!tt.ptr<f32>> loc(#loc15)
    %20 = tt.load %19, %2 evictionPolicy = evict_last : tensor<1x1x!tt.ptr<f32>> loc(#loc16)
    %21 = tt.addptr %arg8, %5 : !tt.ptr<f32>, i32 loc(#loc17)
    %22 = tt.splat %21 : !tt.ptr<f32> -> tensor<1x1x!tt.ptr<f32>> loc(#loc17)
    %23 = tt.load %22, %2 evictionPolicy = evict_last : tensor<1x1x!tt.ptr<f32>> loc(#loc18)
    %24 = arith.muli %0, %c4096_i32 : i32 loc(#loc19)
    %25 = tt.splat %24 : i32 -> tensor<1x2048xi32> loc(#loc20)
    %26 = tt.splat %arg0 : !tt.ptr<f32> -> tensor<1x2048x!tt.ptr<f32>> loc(#loc21)
    %27 = tt.splat %1 : i1 -> tensor<1x2048xi1> loc(#loc22)
    %28 = tt.splat %arg1 : !tt.ptr<f32> -> tensor<1x2048x!tt.ptr<f32>> loc(#loc23)
    %29 = tt.broadcast %8 : tensor<1x1xf32> -> tensor<1x2048xf32> loc(#loc24)
    %30 = tt.broadcast %11 : tensor<1x1xf32> -> tensor<1x2048xf32> loc(#loc25)
    %31 = tt.broadcast %14 : tensor<1x1xf32> -> tensor<1x2048xf32> loc(#loc26)
    %32 = arith.addf %17, %cst_1 : tensor<1x1xf32> loc(#loc27)
    %33 = tt.extern_elementwise %32 {libname = "", libpath = "", pure = true, symbol = "__nv_sqrtf"} : (tensor<1x1xf32>) -> tensor<1x1xf32> loc(#loc28)
    %34 = arith.divf %cst, %33 : tensor<1x1xf32> loc(#loc29)
    %35 = tt.broadcast %34 : tensor<1x1xf32> -> tensor<1x2048xf32> loc(#loc30)
    %36 = tt.broadcast %20 : tensor<1x1xf32> -> tensor<1x2048xf32> loc(#loc31)
    %37 = tt.broadcast %23 : tensor<1x1xf32> -> tensor<1x2048xf32> loc(#loc32)
    %38 = tt.splat %arg9 : !tt.ptr<f32> -> tensor<1x2048x!tt.ptr<f32>> loc(#loc33)
    %39 = scf.for %arg12 = %c0_i32 to %c4096_i32 step %c2048_i32 iter_args(%arg13 = %cst_3) -> (tensor<1x2048xf32>)  : i32 {
      %45 = tt.splat %arg12 : i32 -> tensor<1x2048xi32> loc(#loc35)
      %46 = arith.addi %45, %4 : tensor<1x2048xi32> loc(#loc35)
      %47 = arith.cmpi slt, %46, %cst_2 : tensor<1x2048xi32> loc(#loc36)
      %48 = arith.addi %46, %25 : tensor<1x2048xi32> loc(#loc20)
      %49 = tt.addptr %26, %48 : tensor<1x2048x!tt.ptr<f32>>, tensor<1x2048xi32> loc(#loc21)
      %50 = arith.andi %47, %27 : tensor<1x2048xi1> loc(#loc22)
      %51 = tt.load %49, %50, %cst_3 evictionPolicy = evict_first : tensor<1x2048x!tt.ptr<f32>> loc(#loc37)
      %52 = tt.addptr %28, %48 : tensor<1x2048x!tt.ptr<f32>>, tensor<1x2048xi32> loc(#loc23)
      %53 = tt.load %52, %50, %cst_3 evictionPolicy = evict_first : tensor<1x2048x!tt.ptr<f32>> loc(#loc38)
      %54 = arith.addf %51, %29 : tensor<1x2048xf32> loc(#loc24)
      %55 = arith.addf %53, %30 : tensor<1x2048xf32> loc(#loc25)
      %56 = arith.subf %55, %31 : tensor<1x2048xf32> loc(#loc26)
      %57 = arith.mulf %56, %35 : tensor<1x2048xf32> loc(#loc30)
      %58 = arith.mulf %57, %36 : tensor<1x2048xf32> loc(#loc31)
      %59 = arith.addf %58, %37 : tensor<1x2048xf32> loc(#loc32)
      %60 = arith.addf %54, %59 : tensor<1x2048xf32> loc(#loc39)
      %61 = arith.addf %arg13, %60 : tensor<1x2048xf32> loc(#loc40)
      %62 = arith.select %50, %61, %arg13 : tensor<1x2048xi1>, tensor<1x2048xf32> loc(#loc41)
      tt.store %49, %54, %50 : tensor<1x2048x!tt.ptr<f32>> loc(#loc42)
      tt.store %52, %55, %50 : tensor<1x2048x!tt.ptr<f32>> loc(#loc43)
      %63 = tt.addptr %38, %48 : tensor<1x2048x!tt.ptr<f32>>, tensor<1x2048xi32> loc(#loc33)
      tt.store %63, %60, %50 : tensor<1x2048x!tt.ptr<f32>> loc(#loc44)
      scf.yield %62 : tensor<1x2048xf32> loc(#loc45)
    } loc(#loc34)
    %40 = "tt.reduce"(%39) <{axis = 1 : i32}> ({
    ^bb0(%arg12: f32 loc(callsite(#loc1 at #loc47)), %arg13: f32 loc(callsite(#loc1 at #loc47))):
      %45 = arith.addf %arg12, %arg13 : f32 loc(#loc58)
      tt.reduce.return %45 : f32 loc(#loc55)
    }) : (tensor<1x2048xf32>) -> tensor<1xf32> loc(#loc55)
    %41 = tt.expand_dims %40 {axis = 1 : i32} : tensor<1xf32> -> tensor<1x1xf32> loc(#loc49)
    %42 = arith.divf %41, %cst_0 : tensor<1x1xf32> loc(#loc50)
    gpu.barrier loc(#loc51)
    %43 = tt.addptr %arg2, %0 : !tt.ptr<f32>, i32 loc(#loc52)
    %44 = tt.splat %43 : !tt.ptr<f32> -> tensor<1x1x!tt.ptr<f32>> loc(#loc52)
    tt.store %44, %42, %2 : tensor<1x1x!tt.ptr<f32>> loc(#loc53)
    tt.return loc(#loc54)
  } loc(#loc)
} loc(#loc)
#loc2 = loc("inductor_cache/75/c75wgoywj6rx7h65zuhyhyqr3ud3gzh7pweltg5f6twwind56ipq.py":22:28)
#loc3 = loc("inductor_cache/75/c75wgoywj6rx7h65zuhyhyqr3ud3gzh7pweltg5f6twwind56ipq.py":24:21)
#loc4 = loc("inductor_cache/75/c75wgoywj6rx7h65zuhyhyqr3ud3gzh7pweltg5f6twwind56ipq.py":25:25)
#loc5 = loc("inductor_cache/75/c75wgoywj6rx7h65zuhyhyqr3ud3gzh7pweltg5f6twwind56ipq.py":25:33)
#loc6 = loc("inductor_cache/75/c75wgoywj6rx7h65zuhyhyqr3ud3gzh7pweltg5f6twwind56ipq.py":27:19)
#loc7 = loc("inductor_cache/75/c75wgoywj6rx7h65zuhyhyqr3ud3gzh7pweltg5f6twwind56ipq.py":28:30)
#loc8 = loc("inductor_cache/75/c75wgoywj6rx7h65zuhyhyqr3ud3gzh7pweltg5f6twwind56ipq.py":28:35)
#loc9 = loc("inductor_cache/75/c75wgoywj6rx7h65zuhyhyqr3ud3gzh7pweltg5f6twwind56ipq.py":29:30)
#loc10 = loc("inductor_cache/75/c75wgoywj6rx7h65zuhyhyqr3ud3gzh7pweltg5f6twwind56ipq.py":29:35)
#loc11 = loc("inductor_cache/75/c75wgoywj6rx7h65zuhyhyqr3ud3gzh7pweltg5f6twwind56ipq.py":30:30)
#loc12 = loc("inductor_cache/75/c75wgoywj6rx7h65zuhyhyqr3ud3gzh7pweltg5f6twwind56ipq.py":30:35)
#loc13 = loc("inductor_cache/75/c75wgoywj6rx7h65zuhyhyqr3ud3gzh7pweltg5f6twwind56ipq.py":31:30)
#loc14 = loc("inductor_cache/75/c75wgoywj6rx7h65zuhyhyqr3ud3gzh7pweltg5f6twwind56ipq.py":31:35)
#loc15 = loc("inductor_cache/75/c75wgoywj6rx7h65zuhyhyqr3ud3gzh7pweltg5f6twwind56ipq.py":32:31)
#loc16 = loc("inductor_cache/75/c75wgoywj6rx7h65zuhyhyqr3ud3gzh7pweltg5f6twwind56ipq.py":32:36)
#loc17 = loc("inductor_cache/75/c75wgoywj6rx7h65zuhyhyqr3ud3gzh7pweltg5f6twwind56ipq.py":33:31)
#loc18 = loc("inductor_cache/75/c75wgoywj6rx7h65zuhyhyqr3ud3gzh7pweltg5f6twwind56ipq.py":33:36)
#loc19 = loc("inductor_cache/75/c75wgoywj6rx7h65zuhyhyqr3ud3gzh7pweltg5f6twwind56ipq.py":39:48)
#loc20 = loc("inductor_cache/75/c75wgoywj6rx7h65zuhyhyqr3ud3gzh7pweltg5f6twwind56ipq.py":39:43)
#loc21 = loc("inductor_cache/75/c75wgoywj6rx7h65zuhyhyqr3ud3gzh7pweltg5f6twwind56ipq.py":39:38)
#loc22 = loc("inductor_cache/75/c75wgoywj6rx7h65zuhyhyqr3ud3gzh7pweltg5f6twwind56ipq.py":39:61)
#loc23 = loc("inductor_cache/75/c75wgoywj6rx7h65zuhyhyqr3ud3gzh7pweltg5f6twwind56ipq.py":40:38)
#loc24 = loc("inductor_cache/75/c75wgoywj6rx7h65zuhyhyqr3ud3gzh7pweltg5f6twwind56ipq.py":41:22)
#loc25 = loc("inductor_cache/75/c75wgoywj6rx7h65zuhyhyqr3ud3gzh7pweltg5f6twwind56ipq.py":42:22)
#loc26 = loc("inductor_cache/75/c75wgoywj6rx7h65zuhyhyqr3ud3gzh7pweltg5f6twwind56ipq.py":43:22)
#loc27 = loc("inductor_cache/75/c75wgoywj6rx7h65zuhyhyqr3ud3gzh7pweltg5f6twwind56ipq.py":45:23)
#loc28 = loc("inductor_cache/75/c75wgoywj6rx7h65zuhyhyqr3ud3gzh7pweltg5f6twwind56ipq.py":46:31)
#loc29 = loc("inductor_cache/75/c75wgoywj6rx7h65zuhyhyqr3ud3gzh7pweltg5f6twwind56ipq.py":48:24)
#loc30 = loc("inductor_cache/75/c75wgoywj6rx7h65zuhyhyqr3ud3gzh7pweltg5f6twwind56ipq.py":51:23)
#loc31 = loc("inductor_cache/75/c75wgoywj6rx7h65zuhyhyqr3ud3gzh7pweltg5f6twwind56ipq.py":52:24)
#loc32 = loc("inductor_cache/75/c75wgoywj6rx7h65zuhyhyqr3ud3gzh7pweltg5f6twwind56ipq.py":53:24)
#loc33 = loc("inductor_cache/75/c75wgoywj6rx7h65zuhyhyqr3ud3gzh7pweltg5f6twwind56ipq.py":60:29)
#loc34 = loc("inductor_cache/75/c75wgoywj6rx7h65zuhyhyqr3ud3gzh7pweltg5f6twwind56ipq.py":35:36)
#loc35 = loc("inductor_cache/75/c75wgoywj6rx7h65zuhyhyqr3ud3gzh7pweltg5f6twwind56ipq.py":36:27)
#loc36 = loc("inductor_cache/75/c75wgoywj6rx7h65zuhyhyqr3ud3gzh7pweltg5f6twwind56ipq.py":37:25)
#loc37 = loc("inductor_cache/75/c75wgoywj6rx7h65zuhyhyqr3ud3gzh7pweltg5f6twwind56ipq.py":39:53)
#loc38 = loc("inductor_cache/75/c75wgoywj6rx7h65zuhyhyqr3ud3gzh7pweltg5f6twwind56ipq.py":40:53)
#loc39 = loc("inductor_cache/75/c75wgoywj6rx7h65zuhyhyqr3ud3gzh7pweltg5f6twwind56ipq.py":54:23)
#loc40 = loc("inductor_cache/75/c75wgoywj6rx7h65zuhyhyqr3ud3gzh7pweltg5f6twwind56ipq.py":56:25)
#loc41 = loc("inductor_cache/75/c75wgoywj6rx7h65zuhyhyqr3ud3gzh7pweltg5f6twwind56ipq.py":57:48)
#loc42 = loc("inductor_cache/75/c75wgoywj6rx7h65zuhyhyqr3ud3gzh7pweltg5f6twwind56ipq.py":58:53)
#loc43 = loc("inductor_cache/75/c75wgoywj6rx7h65zuhyhyqr3ud3gzh7pweltg5f6twwind56ipq.py":59:53)
#loc44 = loc("inductor_cache/75/c75wgoywj6rx7h65zuhyhyqr3ud3gzh7pweltg5f6twwind56ipq.py":60:51)
#loc45 = loc("inductor_cache/75/c75wgoywj6rx7h65zuhyhyqr3ud3gzh7pweltg5f6twwind56ipq.py":60:8)
#loc46 = loc("/home/sahanp/.conda/envs/parity-bench/lib/python3.12/site-packages/triton/language/standard.py":267:36)
#loc48 = loc("/home/sahanp/.conda/envs/parity-bench/lib/python3.12/site-packages/triton/language/standard.py":256:15)
#loc49 = loc("inductor_cache/75/c75wgoywj6rx7h65zuhyhyqr3ud3gzh7pweltg5f6twwind56ipq.py":61:30)
#loc50 = loc("inductor_cache/75/c75wgoywj6rx7h65zuhyhyqr3ud3gzh7pweltg5f6twwind56ipq.py":63:20)
#loc51 = loc("inductor_cache/75/c75wgoywj6rx7h65zuhyhyqr3ud3gzh7pweltg5f6twwind56ipq.py":64:4)
#loc52 = loc("inductor_cache/75/c75wgoywj6rx7h65zuhyhyqr3ud3gzh7pweltg5f6twwind56ipq.py":65:28)
#loc53 = loc("inductor_cache/75/c75wgoywj6rx7h65zuhyhyqr3ud3gzh7pweltg5f6twwind56ipq.py":65:40)
#loc54 = loc("inductor_cache/75/c75wgoywj6rx7h65zuhyhyqr3ud3gzh7pweltg5f6twwind56ipq.py":65:4)
#loc55 = loc(callsite(#loc46 at #loc47))
#loc57 = loc(callsite(#loc48 at #loc46))
#loc58 = loc(callsite(#loc57 at #loc47))
