#loc = loc("inductor_cache/kb/ckbxd4ntqvfoyfcpw4mokohoo6qzye4h2f2iov7llxpltfkfaa76.py":19:0)
module {
  tt.func public @triton_poi_fused__native_batch_norm_legit_no_training_add_mul_relu_7(%arg0: !tt.ptr<f32> {tt.divisibility = 16 : i32} loc("inductor_cache/kb/ckbxd4ntqvfoyfcpw4mokohoo6qzye4h2f2iov7llxpltfkfaa76.py":19:0), %arg1: !tt.ptr<f32> {tt.divisibility = 16 : i32} loc("inductor_cache/kb/ckbxd4ntqvfoyfcpw4mokohoo6qzye4h2f2iov7llxpltfkfaa76.py":19:0), %arg2: !tt.ptr<f32> {tt.divisibility = 16 : i32} loc("inductor_cache/kb/ckbxd4ntqvfoyfcpw4mokohoo6qzye4h2f2iov7llxpltfkfaa76.py":19:0), %arg3: !tt.ptr<f32> {tt.divisibility = 16 : i32} loc("inductor_cache/kb/ckbxd4ntqvfoyfcpw4mokohoo6qzye4h2f2iov7llxpltfkfaa76.py":19:0), %arg4: !tt.ptr<f32> {tt.divisibility = 16 : i32} loc("inductor_cache/kb/ckbxd4ntqvfoyfcpw4mokohoo6qzye4h2f2iov7llxpltfkfaa76.py":19:0), %arg5: !tt.ptr<f32> {tt.divisibility = 16 : i32} loc("inductor_cache/kb/ckbxd4ntqvfoyfcpw4mokohoo6qzye4h2f2iov7llxpltfkfaa76.py":19:0), %arg6: !tt.ptr<f32> {tt.divisibility = 16 : i32} loc("inductor_cache/kb/ckbxd4ntqvfoyfcpw4mokohoo6qzye4h2f2iov7llxpltfkfaa76.py":19:0), %arg7: !tt.ptr<f32> {tt.divisibility = 16 : i32} loc("inductor_cache/kb/ckbxd4ntqvfoyfcpw4mokohoo6qzye4h2f2iov7llxpltfkfaa76.py":19:0), %arg8: !tt.ptr<f32> {tt.divisibility = 16 : i32} loc("inductor_cache/kb/ckbxd4ntqvfoyfcpw4mokohoo6qzye4h2f2iov7llxpltfkfaa76.py":19:0), %arg9: i32 {tt.divisibility = 16 : i32} loc("inductor_cache/kb/ckbxd4ntqvfoyfcpw4mokohoo6qzye4h2f2iov7llxpltfkfaa76.py":19:0), %arg10: i32 {tt.divisibility = 16 : i32} loc("inductor_cache/kb/ckbxd4ntqvfoyfcpw4mokohoo6qzye4h2f2iov7llxpltfkfaa76.py":19:0)) attributes {noinline = false} {
    %c4096_i32 = arith.constant 4096 : i32 loc(#loc1)
    %c1152_i32 = arith.constant 1152 : i32 loc(#loc1)
    %cst = arith.constant dense<0.000000e+00> : tensor<1x1024xf32> loc(#loc1)
    %cst_0 = arith.constant dense<1.000000e+00> : tensor<1x1xf32> loc(#loc1)
    %cst_1 = arith.constant dense<4718592> : tensor<1x1024xi32> loc(#loc1)
    %cst_2 = arith.constant dense<9.99999974E-6> : tensor<1x1xf32> loc(#loc1)
    %cst_3 = arith.constant dense<1152> : tensor<1x1024xi32> loc(#loc1)
    %cst_4 = arith.constant dense<4096> : tensor<1x1024xi32> loc(#loc1)
    %c1024_i32 = arith.constant 1024 : i32 loc(#loc1)
    %0 = tt.get_program_id y : i32 loc(#loc2)
    %1 = arith.muli %0, %c1024_i32 : i32 loc(#loc3)
    %2 = tt.make_range {end = 1024 : i32, start = 0 : i32} : tensor<1024xi32> loc(#loc4)
    %3 = tt.expand_dims %2 {axis = 0 : i32} : tensor<1024xi32> -> tensor<1x1024xi32> loc(#loc5)
    %4 = tt.splat %1 : i32 -> tensor<1x1024xi32> loc(#loc6)
    %5 = arith.addi %4, %3 : tensor<1x1024xi32> loc(#loc6)
    %6 = tt.get_program_id x : i32 loc(#loc7)
    %7 = arith.cmpi slt, %6, %c1152_i32 : i32 loc(#loc8)
    %8 = tt.splat %7 : i1 -> tensor<1x1xi1> loc(#loc8)
    %9 = arith.remsi %5, %cst_4 : tensor<1x1024xi32> loc(#loc9)
    %10 = arith.divsi %5, %cst_4 : tensor<1x1024xi32> loc(#loc10)
    %11 = arith.muli %5, %cst_3 : tensor<1x1024xi32> loc(#loc11)
    %12 = tt.splat %6 : i32 -> tensor<1x1024xi32> loc(#loc12)
    %13 = arith.addi %12, %11 : tensor<1x1024xi32> loc(#loc12)
    %14 = tt.splat %arg0 : !tt.ptr<f32> -> tensor<1x1024x!tt.ptr<f32>> loc(#loc13)
    %15 = tt.addptr %14, %13 : tensor<1x1024x!tt.ptr<f32>>, tensor<1x1024xi32> loc(#loc13)
    %16 = tt.splat %7 : i1 -> tensor<1x1024xi1> loc(#loc14)
    %17 = tt.load %15, %16 evictionPolicy = evict_last : tensor<1x1024x!tt.ptr<f32>> loc(#loc14)
    %18 = tt.splat %arg1 : !tt.ptr<f32> -> tensor<1x1024x!tt.ptr<f32>> loc(#loc15)
    %19 = tt.addptr %18, %13 : tensor<1x1024x!tt.ptr<f32>>, tensor<1x1024xi32> loc(#loc15)
    %20 = tt.load %19, %16 evictionPolicy = evict_last : tensor<1x1024x!tt.ptr<f32>> loc(#loc16)
    %21 = tt.splat %arg2 : !tt.ptr<f32> -> tensor<1x1024x!tt.ptr<f32>> loc(#loc17)
    %22 = tt.addptr %21, %13 : tensor<1x1024x!tt.ptr<f32>>, tensor<1x1024xi32> loc(#loc17)
    %23 = tt.load %22, %16 evictionPolicy = evict_last : tensor<1x1024x!tt.ptr<f32>> loc(#loc18)
    %24 = tt.splat %arg3 : !tt.ptr<f32> -> tensor<1x1024x!tt.ptr<f32>> loc(#loc19)
    %25 = tt.addptr %24, %13 : tensor<1x1024x!tt.ptr<f32>>, tensor<1x1024xi32> loc(#loc19)
    %26 = tt.load %25, %16 evictionPolicy = evict_last : tensor<1x1024x!tt.ptr<f32>> loc(#loc20)
    %27 = tt.addptr %arg4, %6 : !tt.ptr<f32>, i32 loc(#loc21)
    %28 = tt.splat %27 : !tt.ptr<f32> -> tensor<1x1x!tt.ptr<f32>> loc(#loc21)
    %29 = tt.load %28, %8 evictionPolicy = evict_last : tensor<1x1x!tt.ptr<f32>> loc(#loc22)
    %30 = tt.addptr %arg5, %6 : !tt.ptr<f32>, i32 loc(#loc23)
    %31 = tt.splat %30 : !tt.ptr<f32> -> tensor<1x1x!tt.ptr<f32>> loc(#loc23)
    %32 = tt.load %31, %8 evictionPolicy = evict_last : tensor<1x1x!tt.ptr<f32>> loc(#loc24)
    %33 = tt.addptr %arg6, %6 : !tt.ptr<f32>, i32 loc(#loc25)
    %34 = tt.splat %33 : !tt.ptr<f32> -> tensor<1x1x!tt.ptr<f32>> loc(#loc25)
    %35 = tt.load %34, %8 evictionPolicy = evict_last : tensor<1x1x!tt.ptr<f32>> loc(#loc26)
    %36 = tt.addptr %arg7, %6 : !tt.ptr<f32>, i32 loc(#loc27)
    %37 = tt.splat %36 : !tt.ptr<f32> -> tensor<1x1x!tt.ptr<f32>> loc(#loc27)
    %38 = tt.load %37, %8 evictionPolicy = evict_last : tensor<1x1x!tt.ptr<f32>> loc(#loc28)
    %39 = arith.addf %17, %20 : tensor<1x1024xf32> loc(#loc29)
    %40 = arith.addf %39, %23 : tensor<1x1024xf32> loc(#loc30)
    %41 = tt.broadcast %29 : tensor<1x1xf32> -> tensor<1x1024xf32> loc(#loc31)
    %42 = arith.subf %26, %41 : tensor<1x1024xf32> loc(#loc31)
    %43 = arith.addf %32, %cst_2 : tensor<1x1xf32> loc(#loc32)
    %44 = tt.extern_elementwise %43 {libname = "", libpath = "", pure = true, symbol = "__nv_sqrtf"} : (tensor<1x1xf32>) -> tensor<1x1xf32> loc(#loc33)
    %45 = arith.divf %cst_0, %44 : tensor<1x1xf32> loc(#loc34)
    %46 = tt.broadcast %45 : tensor<1x1xf32> -> tensor<1x1024xf32> loc(#loc35)
    %47 = arith.mulf %42, %46 : tensor<1x1024xf32> loc(#loc35)
    %48 = tt.broadcast %35 : tensor<1x1xf32> -> tensor<1x1024xf32> loc(#loc36)
    %49 = arith.mulf %47, %48 : tensor<1x1024xf32> loc(#loc36)
    %50 = tt.broadcast %38 : tensor<1x1xf32> -> tensor<1x1024xf32> loc(#loc37)
    %51 = arith.addf %49, %50 : tensor<1x1024xf32> loc(#loc37)
    %52 = arith.addf %40, %51 : tensor<1x1024xf32> loc(#loc38)
    %53 = arith.cmpf ogt, %cst, %52 : tensor<1x1024xf32> loc(#loc49)
    %54 = arith.select %53, %cst, %52 : tensor<1x1024xi1>, tensor<1x1024xf32> loc(#loc50)
    %55 = arith.muli %6, %c4096_i32 : i32 loc(#loc42)
    %56 = tt.splat %55 : i32 -> tensor<1x1024xi32> loc(#loc43)
    %57 = arith.addi %9, %56 : tensor<1x1024xi32> loc(#loc43)
    %58 = arith.muli %10, %cst_1 : tensor<1x1024xi32> loc(#loc44)
    %59 = arith.addi %57, %58 : tensor<1x1024xi32> loc(#loc45)
    %60 = tt.splat %arg8 : !tt.ptr<f32> -> tensor<1x1024x!tt.ptr<f32>> loc(#loc46)
    %61 = tt.addptr %60, %59 : tensor<1x1024x!tt.ptr<f32>>, tensor<1x1024xi32> loc(#loc46)
    tt.store %61, %54, %16 : tensor<1x1024x!tt.ptr<f32>> loc(#loc47)
    tt.return loc(#loc48)
  } loc(#loc)
} loc(#loc)
#loc1 = loc(unknown)
#loc2 = loc("inductor_cache/kb/ckbxd4ntqvfoyfcpw4mokohoo6qzye4h2f2iov7llxpltfkfaa76.py":22:28)
#loc3 = loc("inductor_cache/kb/ckbxd4ntqvfoyfcpw4mokohoo6qzye4h2f2iov7llxpltfkfaa76.py":22:33)
#loc4 = loc("inductor_cache/kb/ckbxd4ntqvfoyfcpw4mokohoo6qzye4h2f2iov7llxpltfkfaa76.py":23:36)
#loc5 = loc("inductor_cache/kb/ckbxd4ntqvfoyfcpw4mokohoo6qzye4h2f2iov7llxpltfkfaa76.py":23:44)
#loc6 = loc("inductor_cache/kb/ckbxd4ntqvfoyfcpw4mokohoo6qzye4h2f2iov7llxpltfkfaa76.py":23:23)
#loc7 = loc("inductor_cache/kb/ckbxd4ntqvfoyfcpw4mokohoo6qzye4h2f2iov7llxpltfkfaa76.py":25:28)
#loc8 = loc("inductor_cache/kb/ckbxd4ntqvfoyfcpw4mokohoo6qzye4h2f2iov7llxpltfkfaa76.py":27:21)
#loc9 = loc("inductor_cache/kb/ckbxd4ntqvfoyfcpw4mokohoo6qzye4h2f2iov7llxpltfkfaa76.py":30:19)
#loc10 = loc("inductor_cache/kb/ckbxd4ntqvfoyfcpw4mokohoo6qzye4h2f2iov7llxpltfkfaa76.py":31:19)
#loc11 = loc("inductor_cache/kb/ckbxd4ntqvfoyfcpw4mokohoo6qzye4h2f2iov7llxpltfkfaa76.py":32:40)
#loc12 = loc("inductor_cache/kb/ckbxd4ntqvfoyfcpw4mokohoo6qzye4h2f2iov7llxpltfkfaa76.py":32:35)
#loc13 = loc("inductor_cache/kb/ckbxd4ntqvfoyfcpw4mokohoo6qzye4h2f2iov7llxpltfkfaa76.py":32:30)
#loc14 = loc("inductor_cache/kb/ckbxd4ntqvfoyfcpw4mokohoo6qzye4h2f2iov7llxpltfkfaa76.py":32:45)
#loc15 = loc("inductor_cache/kb/ckbxd4ntqvfoyfcpw4mokohoo6qzye4h2f2iov7llxpltfkfaa76.py":33:30)
#loc16 = loc("inductor_cache/kb/ckbxd4ntqvfoyfcpw4mokohoo6qzye4h2f2iov7llxpltfkfaa76.py":33:45)
#loc17 = loc("inductor_cache/kb/ckbxd4ntqvfoyfcpw4mokohoo6qzye4h2f2iov7llxpltfkfaa76.py":34:30)
#loc18 = loc("inductor_cache/kb/ckbxd4ntqvfoyfcpw4mokohoo6qzye4h2f2iov7llxpltfkfaa76.py":34:45)
#loc19 = loc("inductor_cache/kb/ckbxd4ntqvfoyfcpw4mokohoo6qzye4h2f2iov7llxpltfkfaa76.py":35:30)
#loc20 = loc("inductor_cache/kb/ckbxd4ntqvfoyfcpw4mokohoo6qzye4h2f2iov7llxpltfkfaa76.py":35:45)
#loc21 = loc("inductor_cache/kb/ckbxd4ntqvfoyfcpw4mokohoo6qzye4h2f2iov7llxpltfkfaa76.py":36:30)
#loc22 = loc("inductor_cache/kb/ckbxd4ntqvfoyfcpw4mokohoo6qzye4h2f2iov7llxpltfkfaa76.py":36:35)
#loc23 = loc("inductor_cache/kb/ckbxd4ntqvfoyfcpw4mokohoo6qzye4h2f2iov7llxpltfkfaa76.py":37:31)
#loc24 = loc("inductor_cache/kb/ckbxd4ntqvfoyfcpw4mokohoo6qzye4h2f2iov7llxpltfkfaa76.py":37:36)
#loc25 = loc("inductor_cache/kb/ckbxd4ntqvfoyfcpw4mokohoo6qzye4h2f2iov7llxpltfkfaa76.py":38:31)
#loc26 = loc("inductor_cache/kb/ckbxd4ntqvfoyfcpw4mokohoo6qzye4h2f2iov7llxpltfkfaa76.py":38:36)
#loc27 = loc("inductor_cache/kb/ckbxd4ntqvfoyfcpw4mokohoo6qzye4h2f2iov7llxpltfkfaa76.py":39:31)
#loc28 = loc("inductor_cache/kb/ckbxd4ntqvfoyfcpw4mokohoo6qzye4h2f2iov7llxpltfkfaa76.py":39:36)
#loc29 = loc("inductor_cache/kb/ckbxd4ntqvfoyfcpw4mokohoo6qzye4h2f2iov7llxpltfkfaa76.py":42:18)
#loc30 = loc("inductor_cache/kb/ckbxd4ntqvfoyfcpw4mokohoo6qzye4h2f2iov7llxpltfkfaa76.py":44:18)
#loc31 = loc("inductor_cache/kb/ckbxd4ntqvfoyfcpw4mokohoo6qzye4h2f2iov7llxpltfkfaa76.py":45:19)
#loc32 = loc("inductor_cache/kb/ckbxd4ntqvfoyfcpw4mokohoo6qzye4h2f2iov7llxpltfkfaa76.py":47:20)
#loc33 = loc("inductor_cache/kb/ckbxd4ntqvfoyfcpw4mokohoo6qzye4h2f2iov7llxpltfkfaa76.py":48:27)
#loc34 = loc("inductor_cache/kb/ckbxd4ntqvfoyfcpw4mokohoo6qzye4h2f2iov7llxpltfkfaa76.py":50:20)
#loc35 = loc("inductor_cache/kb/ckbxd4ntqvfoyfcpw4mokohoo6qzye4h2f2iov7llxpltfkfaa76.py":52:20)
#loc36 = loc("inductor_cache/kb/ckbxd4ntqvfoyfcpw4mokohoo6qzye4h2f2iov7llxpltfkfaa76.py":53:20)
#loc37 = loc("inductor_cache/kb/ckbxd4ntqvfoyfcpw4mokohoo6qzye4h2f2iov7llxpltfkfaa76.py":54:20)
#loc38 = loc("inductor_cache/kb/ckbxd4ntqvfoyfcpw4mokohoo6qzye4h2f2iov7llxpltfkfaa76.py":56:19)
#loc39 = loc("/home/sahanp/.conda/envs/parity-bench/lib/python3.12/site-packages/torch/_inductor/runtime/triton_helpers.py":118:15)
#loc40 = loc("inductor_cache/kb/ckbxd4ntqvfoyfcpw4mokohoo6qzye4h2f2iov7llxpltfkfaa76.py":58:42)
#loc41 = loc("/home/sahanp/.conda/envs/parity-bench/lib/python3.12/site-packages/torch/_inductor/runtime/triton_helpers.py":121:29)
#loc42 = loc("inductor_cache/kb/ckbxd4ntqvfoyfcpw4mokohoo6qzye4h2f2iov7llxpltfkfaa76.py":59:35)
#loc43 = loc("inductor_cache/kb/ckbxd4ntqvfoyfcpw4mokohoo6qzye4h2f2iov7llxpltfkfaa76.py":59:30)
#loc44 = loc("inductor_cache/kb/ckbxd4ntqvfoyfcpw4mokohoo6qzye4h2f2iov7llxpltfkfaa76.py":59:48)
#loc45 = loc("inductor_cache/kb/ckbxd4ntqvfoyfcpw4mokohoo6qzye4h2f2iov7llxpltfkfaa76.py":59:40)
#loc46 = loc("inductor_cache/kb/ckbxd4ntqvfoyfcpw4mokohoo6qzye4h2f2iov7llxpltfkfaa76.py":59:25)
#loc47 = loc("inductor_cache/kb/ckbxd4ntqvfoyfcpw4mokohoo6qzye4h2f2iov7llxpltfkfaa76.py":59:60)
#loc48 = loc("inductor_cache/kb/ckbxd4ntqvfoyfcpw4mokohoo6qzye4h2f2iov7llxpltfkfaa76.py":59:4)
#loc49 = loc(callsite(#loc39 at #loc40))
#loc50 = loc(callsite(#loc41 at #loc40))
