#loc = loc("inductor_cache/4a/c4agc4l65hob3qi7kbqcnnohvbos5fpinss5gk3cl2txfupvmdhq.py":19:0)
module {
  tt.func public @triton_poi_fused_cat_mul_0(%arg0: !tt.ptr<f32> {tt.divisibility = 16 : i32} loc("inductor_cache/4a/c4agc4l65hob3qi7kbqcnnohvbos5fpinss5gk3cl2txfupvmdhq.py":19:0), %arg1: !tt.ptr<f32> {tt.divisibility = 16 : i32} loc("inductor_cache/4a/c4agc4l65hob3qi7kbqcnnohvbos5fpinss5gk3cl2txfupvmdhq.py":19:0), %arg2: !tt.ptr<f32> {tt.divisibility = 16 : i32} loc("inductor_cache/4a/c4agc4l65hob3qi7kbqcnnohvbos5fpinss5gk3cl2txfupvmdhq.py":19:0), %arg3: !tt.ptr<f32> {tt.divisibility = 16 : i32} loc("inductor_cache/4a/c4agc4l65hob3qi7kbqcnnohvbos5fpinss5gk3cl2txfupvmdhq.py":19:0), %arg4: i32 {tt.divisibility = 16 : i32} loc("inductor_cache/4a/c4agc4l65hob3qi7kbqcnnohvbos5fpinss5gk3cl2txfupvmdhq.py":19:0)) attributes {noinline = false} {
    %cst = arith.constant dense<-2> : tensor<16xi32> loc(#loc1)
    %cst_0 = arith.constant dense<0.000000e+00> : tensor<16xf32> loc(#loc1)
    %cst_1 = arith.constant dense<2> : tensor<16xi64> loc(#loc1)
    %c0_i32 = arith.constant 0 : i32 loc(#loc1)
    %cst_2 = arith.constant dense<4> : tensor<16xi32> loc(#loc1)
    %cst_3 = arith.constant dense<16> : tensor<16xi32> loc(#loc1)
    %c16_i32 = arith.constant 16 : i32 loc(#loc1)
    %0 = tt.get_program_id x : i32 loc(#loc2)
    %1 = arith.muli %0, %c16_i32 : i32 loc(#loc3)
    %2 = tt.make_range {end = 16 : i32, start = 0 : i32} : tensor<16xi32> loc(#loc4)
    %3 = tt.splat %1 : i32 -> tensor<16xi32> loc(#loc5)
    %4 = arith.addi %3, %2 : tensor<16xi32> loc(#loc5)
    %5 = arith.cmpi slt, %4, %cst_3 : tensor<16xi32> loc(#loc6)
    %6 = arith.remsi %4, %cst_2 : tensor<16xi32> loc(#loc7)
    %7 = arith.divsi %4, %cst_2 : tensor<16xi32> loc(#loc8)
    %8 = tt.addptr %arg1, %c0_i32 : !tt.ptr<f32>, i32 loc(#loc9)
    %9 = tt.load %8 : !tt.ptr<f32> loc(#loc10)
    %10 = tt.splat %9 : f32 -> tensor<16xf32> loc(#loc11)
    %11 = arith.extsi %6 : tensor<16xi32> to tensor<16xi64> loc(#loc12)
    %12 = arith.cmpi slt, %11, %cst_1 : tensor<16xi64> loc(#loc12)
    %13 = tt.splat %arg0 : !tt.ptr<f32> -> tensor<16x!tt.ptr<f32>> loc(#loc13)
    %14 = tt.addptr %13, %6 : tensor<16x!tt.ptr<f32>>, tensor<16xi32> loc(#loc13)
    %15 = arith.andi %12, %5 : tensor<16xi1> loc(#loc14)
    %16 = tt.load %14, %15, %cst_0 evictionPolicy = evict_last : tensor<16x!tt.ptr<f32>> loc(#loc15)
    %17 = arith.sitofp %7 : tensor<16xi32> to tensor<16xf32> loc(#loc16)
    %18 = arith.mulf %17, %16 : tensor<16xf32> loc(#loc17)
    %19 = math.sin %18 : tensor<16xf32> loc(#loc18)
    %20 = arith.cmpi sge, %11, %cst_1 : tensor<16xi64> loc(#loc19)
    %21 = arith.addi %6, %cst : tensor<16xi32> loc(#loc20)
    %22 = tt.addptr %13, %21 : tensor<16x!tt.ptr<f32>>, tensor<16xi32> loc(#loc21)
    %23 = arith.andi %20, %5 : tensor<16xi1> loc(#loc22)
    %24 = tt.load %22, %23, %cst_0 evictionPolicy = evict_last : tensor<16x!tt.ptr<f32>> loc(#loc23)
    %25 = arith.mulf %17, %24 : tensor<16xf32> loc(#loc24)
    %26 = math.cos %25 : tensor<16xf32> loc(#loc25)
    %27 = arith.select %20, %26, %cst_0 : tensor<16xi1>, tensor<16xf32> loc(#loc26)
    %28 = arith.select %12, %19, %27 : tensor<16xi1>, tensor<16xf32> loc(#loc35)
    %29 = arith.mulf %28, %10 : tensor<16xf32> loc(#loc29)
    %30 = tt.splat %arg2 : !tt.ptr<f32> -> tensor<16x!tt.ptr<f32>> loc(#loc30)
    %31 = tt.addptr %30, %4 : tensor<16x!tt.ptr<f32>>, tensor<16xi32> loc(#loc30)
    tt.store %31, %28, %5 : tensor<16x!tt.ptr<f32>> loc(#loc31)
    %32 = tt.splat %arg3 : !tt.ptr<f32> -> tensor<16x!tt.ptr<f32>> loc(#loc32)
    %33 = tt.addptr %32, %4 : tensor<16x!tt.ptr<f32>>, tensor<16xi32> loc(#loc32)
    tt.store %33, %29, %5 : tensor<16x!tt.ptr<f32>> loc(#loc33)
    tt.return loc(#loc34)
  } loc(#loc)
} loc(#loc)
#loc1 = loc(unknown)
#loc2 = loc("inductor_cache/4a/c4agc4l65hob3qi7kbqcnnohvbos5fpinss5gk3cl2txfupvmdhq.py":21:28)
#loc3 = loc("inductor_cache/4a/c4agc4l65hob3qi7kbqcnnohvbos5fpinss5gk3cl2txfupvmdhq.py":21:33)
#loc4 = loc("inductor_cache/4a/c4agc4l65hob3qi7kbqcnnohvbos5fpinss5gk3cl2txfupvmdhq.py":22:36)
#loc5 = loc("inductor_cache/4a/c4agc4l65hob3qi7kbqcnnohvbos5fpinss5gk3cl2txfupvmdhq.py":22:23)
#loc6 = loc("inductor_cache/4a/c4agc4l65hob3qi7kbqcnnohvbos5fpinss5gk3cl2txfupvmdhq.py":23:21)
#loc7 = loc("inductor_cache/4a/c4agc4l65hob3qi7kbqcnnohvbos5fpinss5gk3cl2txfupvmdhq.py":24:19)
#loc8 = loc("inductor_cache/4a/c4agc4l65hob3qi7kbqcnnohvbos5fpinss5gk3cl2txfupvmdhq.py":25:19)
#loc9 = loc("inductor_cache/4a/c4agc4l65hob3qi7kbqcnnohvbos5fpinss5gk3cl2txfupvmdhq.py":27:31)
#loc10 = loc("inductor_cache/4a/c4agc4l65hob3qi7kbqcnnohvbos5fpinss5gk3cl2txfupvmdhq.py":27:20)
#loc11 = loc("inductor_cache/4a/c4agc4l65hob3qi7kbqcnnohvbos5fpinss5gk3cl2txfupvmdhq.py":28:35)
#loc12 = loc("inductor_cache/4a/c4agc4l65hob3qi7kbqcnnohvbos5fpinss5gk3cl2txfupvmdhq.py":33:18)
#loc13 = loc("inductor_cache/4a/c4agc4l65hob3qi7kbqcnnohvbos5fpinss5gk3cl2txfupvmdhq.py":34:30)
#loc14 = loc("inductor_cache/4a/c4agc4l65hob3qi7kbqcnnohvbos5fpinss5gk3cl2txfupvmdhq.py":34:42)
#loc15 = loc("inductor_cache/4a/c4agc4l65hob3qi7kbqcnnohvbos5fpinss5gk3cl2txfupvmdhq.py":34:35)
#loc16 = loc("inductor_cache/4a/c4agc4l65hob3qi7kbqcnnohvbos5fpinss5gk3cl2txfupvmdhq.py":36:19)
#loc17 = loc("inductor_cache/4a/c4agc4l65hob3qi7kbqcnnohvbos5fpinss5gk3cl2txfupvmdhq.py":37:18)
#loc18 = loc("inductor_cache/4a/c4agc4l65hob3qi7kbqcnnohvbos5fpinss5gk3cl2txfupvmdhq.py":38:23)
#loc19 = loc("inductor_cache/4a/c4agc4l65hob3qi7kbqcnnohvbos5fpinss5gk3cl2txfupvmdhq.py":41:20)
#loc20 = loc("inductor_cache/4a/c4agc4l65hob3qi7kbqcnnohvbos5fpinss5gk3cl2txfupvmdhq.py":44:38)
#loc21 = loc("inductor_cache/4a/c4agc4l65hob3qi7kbqcnnohvbos5fpinss5gk3cl2txfupvmdhq.py":44:31)
#loc22 = loc("inductor_cache/4a/c4agc4l65hob3qi7kbqcnnohvbos5fpinss5gk3cl2txfupvmdhq.py":44:51)
#loc23 = loc("inductor_cache/4a/c4agc4l65hob3qi7kbqcnnohvbos5fpinss5gk3cl2txfupvmdhq.py":44:43)
#loc24 = loc("inductor_cache/4a/c4agc4l65hob3qi7kbqcnnohvbos5fpinss5gk3cl2txfupvmdhq.py":47:20)
#loc25 = loc("inductor_cache/4a/c4agc4l65hob3qi7kbqcnnohvbos5fpinss5gk3cl2txfupvmdhq.py":48:24)
#loc26 = loc("inductor_cache/4a/c4agc4l65hob3qi7kbqcnnohvbos5fpinss5gk3cl2txfupvmdhq.py":50:35)
#loc27 = loc("inductor_cache/4a/c4agc4l65hob3qi7kbqcnnohvbos5fpinss5gk3cl2txfupvmdhq.py":51:34)
#loc28 = loc("inductor_cache/4a/c4agc4l65hob3qi7kbqcnnohvbos5fpinss5gk3cl2txfupvmdhq.py":40:33)
#loc29 = loc("inductor_cache/4a/c4agc4l65hob3qi7kbqcnnohvbos5fpinss5gk3cl2txfupvmdhq.py":52:20)
#loc30 = loc("inductor_cache/4a/c4agc4l65hob3qi7kbqcnnohvbos5fpinss5gk3cl2txfupvmdhq.py":53:25)
#loc31 = loc("inductor_cache/4a/c4agc4l65hob3qi7kbqcnnohvbos5fpinss5gk3cl2txfupvmdhq.py":53:37)
#loc32 = loc("inductor_cache/4a/c4agc4l65hob3qi7kbqcnnohvbos5fpinss5gk3cl2txfupvmdhq.py":54:25)
#loc33 = loc("inductor_cache/4a/c4agc4l65hob3qi7kbqcnnohvbos5fpinss5gk3cl2txfupvmdhq.py":54:37)
#loc34 = loc("inductor_cache/4a/c4agc4l65hob3qi7kbqcnnohvbos5fpinss5gk3cl2txfupvmdhq.py":54:4)
#loc35 = loc(fused[#loc27, #loc28])
