#loc = loc("inductor_cache/4c/c4c2uiuik6h2w7oxne4kzq4mi2mk4mbucgooopvxpbggrix3prro.py":19:0)
module {
  tt.func public @triton_poi_fused_mean_26(%arg0: !tt.ptr<f32> {tt.divisibility = 16 : i32} loc("inductor_cache/4c/c4c2uiuik6h2w7oxne4kzq4mi2mk4mbucgooopvxpbggrix3prro.py":19:0), %arg1: !tt.ptr<f32> {tt.divisibility = 16 : i32} loc("inductor_cache/4c/c4c2uiuik6h2w7oxne4kzq4mi2mk4mbucgooopvxpbggrix3prro.py":19:0), %arg2: i32 {tt.divisibility = 16 : i32} loc("inductor_cache/4c/c4c2uiuik6h2w7oxne4kzq4mi2mk4mbucgooopvxpbggrix3prro.py":19:0)) attributes {noinline = false} {
    %cst = arith.constant dense<4.000000e+00> : tensor<256xf32> loc(#loc1)
    %cst_0 = arith.constant dense<3> : tensor<256xi32> loc(#loc1)
    %cst_1 = arith.constant dense<2> : tensor<256xi32> loc(#loc1)
    %cst_2 = arith.constant dense<1> : tensor<256xi32> loc(#loc1)
    %cst_3 = arith.constant dense<4> : tensor<256xi32> loc(#loc1)
    %cst_4 = arith.constant dense<384> : tensor<256xi32> loc(#loc1)
    %c256_i32 = arith.constant 256 : i32 loc(#loc1)
    %0 = tt.get_program_id x : i32 loc(#loc2)
    %1 = arith.muli %0, %c256_i32 : i32 loc(#loc3)
    %2 = tt.make_range {end = 256 : i32, start = 0 : i32} : tensor<256xi32> loc(#loc4)
    %3 = tt.splat %1 : i32 -> tensor<256xi32> loc(#loc5)
    %4 = arith.addi %3, %2 : tensor<256xi32> loc(#loc5)
    %5 = arith.cmpi slt, %4, %cst_4 : tensor<256xi32> loc(#loc6)
    %6 = arith.muli %4, %cst_3 : tensor<256xi32> loc(#loc7)
    %7 = tt.splat %arg0 : !tt.ptr<f32> -> tensor<256x!tt.ptr<f32>> loc(#loc8)
    %8 = tt.addptr %7, %6 : tensor<256x!tt.ptr<f32>>, tensor<256xi32> loc(#loc8)
    %9 = tt.load %8, %5 evictionPolicy = evict_last : tensor<256x!tt.ptr<f32>> loc(#loc9)
    %10 = arith.addi %6, %cst_2 : tensor<256xi32> loc(#loc10)
    %11 = tt.addptr %7, %10 : tensor<256x!tt.ptr<f32>>, tensor<256xi32> loc(#loc11)
    %12 = tt.load %11, %5 evictionPolicy = evict_last : tensor<256x!tt.ptr<f32>> loc(#loc12)
    %13 = arith.addi %6, %cst_1 : tensor<256xi32> loc(#loc13)
    %14 = tt.addptr %7, %13 : tensor<256x!tt.ptr<f32>>, tensor<256xi32> loc(#loc14)
    %15 = tt.load %14, %5 evictionPolicy = evict_last : tensor<256x!tt.ptr<f32>> loc(#loc15)
    %16 = arith.addi %6, %cst_0 : tensor<256xi32> loc(#loc16)
    %17 = tt.addptr %7, %16 : tensor<256x!tt.ptr<f32>>, tensor<256xi32> loc(#loc17)
    %18 = tt.load %17, %5 evictionPolicy = evict_last : tensor<256x!tt.ptr<f32>> loc(#loc18)
    %19 = arith.addf %9, %12 : tensor<256xf32> loc(#loc19)
    %20 = arith.addf %19, %15 : tensor<256xf32> loc(#loc20)
    %21 = arith.addf %20, %18 : tensor<256xf32> loc(#loc21)
    %22 = arith.divf %21, %cst : tensor<256xf32> loc(#loc22)
    %23 = tt.splat %arg1 : !tt.ptr<f32> -> tensor<256x!tt.ptr<f32>> loc(#loc23)
    %24 = tt.addptr %23, %4 : tensor<256x!tt.ptr<f32>>, tensor<256xi32> loc(#loc23)
    tt.store %24, %22, %5 : tensor<256x!tt.ptr<f32>> loc(#loc24)
    tt.return loc(#loc25)
  } loc(#loc)
} loc(#loc)
#loc1 = loc(unknown)
#loc2 = loc("inductor_cache/4c/c4c2uiuik6h2w7oxne4kzq4mi2mk4mbucgooopvxpbggrix3prro.py":21:28)
#loc3 = loc("inductor_cache/4c/c4c2uiuik6h2w7oxne4kzq4mi2mk4mbucgooopvxpbggrix3prro.py":21:33)
#loc4 = loc("inductor_cache/4c/c4c2uiuik6h2w7oxne4kzq4mi2mk4mbucgooopvxpbggrix3prro.py":22:36)
#loc5 = loc("inductor_cache/4c/c4c2uiuik6h2w7oxne4kzq4mi2mk4mbucgooopvxpbggrix3prro.py":22:23)
#loc6 = loc("inductor_cache/4c/c4c2uiuik6h2w7oxne4kzq4mi2mk4mbucgooopvxpbggrix3prro.py":23:21)
#loc7 = loc("inductor_cache/4c/c4c2uiuik6h2w7oxne4kzq4mi2mk4mbucgooopvxpbggrix3prro.py":25:32)
#loc8 = loc("inductor_cache/4c/c4c2uiuik6h2w7oxne4kzq4mi2mk4mbucgooopvxpbggrix3prro.py":25:30)
#loc9 = loc("inductor_cache/4c/c4c2uiuik6h2w7oxne4kzq4mi2mk4mbucgooopvxpbggrix3prro.py":25:37)
#loc10 = loc("inductor_cache/4c/c4c2uiuik6h2w7oxne4kzq4mi2mk4mbucgooopvxpbggrix3prro.py":26:34)
#loc11 = loc("inductor_cache/4c/c4c2uiuik6h2w7oxne4kzq4mi2mk4mbucgooopvxpbggrix3prro.py":26:30)
#loc12 = loc("inductor_cache/4c/c4c2uiuik6h2w7oxne4kzq4mi2mk4mbucgooopvxpbggrix3prro.py":26:41)
#loc13 = loc("inductor_cache/4c/c4c2uiuik6h2w7oxne4kzq4mi2mk4mbucgooopvxpbggrix3prro.py":27:34)
#loc14 = loc("inductor_cache/4c/c4c2uiuik6h2w7oxne4kzq4mi2mk4mbucgooopvxpbggrix3prro.py":27:30)
#loc15 = loc("inductor_cache/4c/c4c2uiuik6h2w7oxne4kzq4mi2mk4mbucgooopvxpbggrix3prro.py":27:41)
#loc16 = loc("inductor_cache/4c/c4c2uiuik6h2w7oxne4kzq4mi2mk4mbucgooopvxpbggrix3prro.py":28:34)
#loc17 = loc("inductor_cache/4c/c4c2uiuik6h2w7oxne4kzq4mi2mk4mbucgooopvxpbggrix3prro.py":28:30)
#loc18 = loc("inductor_cache/4c/c4c2uiuik6h2w7oxne4kzq4mi2mk4mbucgooopvxpbggrix3prro.py":28:41)
#loc19 = loc("inductor_cache/4c/c4c2uiuik6h2w7oxne4kzq4mi2mk4mbucgooopvxpbggrix3prro.py":29:18)
#loc20 = loc("inductor_cache/4c/c4c2uiuik6h2w7oxne4kzq4mi2mk4mbucgooopvxpbggrix3prro.py":30:18)
#loc21 = loc("inductor_cache/4c/c4c2uiuik6h2w7oxne4kzq4mi2mk4mbucgooopvxpbggrix3prro.py":31:18)
#loc22 = loc("inductor_cache/4c/c4c2uiuik6h2w7oxne4kzq4mi2mk4mbucgooopvxpbggrix3prro.py":33:18)
#loc23 = loc("inductor_cache/4c/c4c2uiuik6h2w7oxne4kzq4mi2mk4mbucgooopvxpbggrix3prro.py":34:25)
#loc24 = loc("inductor_cache/4c/c4c2uiuik6h2w7oxne4kzq4mi2mk4mbucgooopvxpbggrix3prro.py":34:36)
#loc25 = loc("inductor_cache/4c/c4c2uiuik6h2w7oxne4kzq4mi2mk4mbucgooopvxpbggrix3prro.py":34:4)
