#loc = loc("inductor_cache/r3/cr3fzne3nq76zgh56u5ztmu264nkm2ykshdaew3nmavwln5wsyju.py":19:0)
module {
  tt.func public @triton_poi_fused_add_div_hardtanh_mul_0(%arg0: !tt.ptr<f32> {tt.divisibility = 16 : i32} loc("inductor_cache/r3/cr3fzne3nq76zgh56u5ztmu264nkm2ykshdaew3nmavwln5wsyju.py":19:0), %arg1: !tt.ptr<f32> {tt.divisibility = 16 : i32} loc("inductor_cache/r3/cr3fzne3nq76zgh56u5ztmu264nkm2ykshdaew3nmavwln5wsyju.py":19:0), %arg2: !tt.ptr<f32> {tt.divisibility = 16 : i32} loc("inductor_cache/r3/cr3fzne3nq76zgh56u5ztmu264nkm2ykshdaew3nmavwln5wsyju.py":19:0), %arg3: !tt.ptr<f32> {tt.divisibility = 16 : i32} loc("inductor_cache/r3/cr3fzne3nq76zgh56u5ztmu264nkm2ykshdaew3nmavwln5wsyju.py":19:0), %arg4: i32 {tt.divisibility = 16 : i32} loc("inductor_cache/r3/cr3fzne3nq76zgh56u5ztmu264nkm2ykshdaew3nmavwln5wsyju.py":19:0)) attributes {noinline = false} {
    %cst = arith.constant dense<6.000000e+00> : tensor<256xf32> loc(#loc1)
    %cst_0 = arith.constant dense<0.000000e+00> : tensor<256xf32> loc(#loc1)
    %cst_1 = arith.constant dense<0.166666672> : tensor<256xf32> loc(#loc1)
    %cst_2 = arith.constant dense<3.000000e+00> : tensor<256xf32> loc(#loc1)
    %c0_i32 = arith.constant 0 : i32 loc(#loc1)
    %cst_3 = arith.constant dense<256> : tensor<256xi32> loc(#loc1)
    %c256_i32 = arith.constant 256 : i32 loc(#loc1)
    %0 = tt.get_program_id x : i32 loc(#loc2)
    %1 = arith.muli %0, %c256_i32 : i32 loc(#loc3)
    %2 = tt.make_range {end = 256 : i32, start = 0 : i32} : tensor<256xi32> loc(#loc4)
    %3 = tt.splat %1 : i32 -> tensor<256xi32> loc(#loc5)
    %4 = arith.addi %3, %2 : tensor<256xi32> loc(#loc5)
    %5 = arith.cmpi slt, %4, %cst_3 : tensor<256xi32> loc(#loc6)
    %6 = tt.addptr %arg0, %c0_i32 : !tt.ptr<f32>, i32 loc(#loc7)
    %7 = tt.load %6 : !tt.ptr<f32> loc(#loc8)
    %8 = tt.splat %7 : f32 -> tensor<256xf32> loc(#loc9)
    %9 = tt.splat %arg1 : !tt.ptr<f32> -> tensor<256x!tt.ptr<f32>> loc(#loc10)
    %10 = tt.addptr %9, %4 : tensor<256x!tt.ptr<f32>>, tensor<256xi32> loc(#loc10)
    %11 = tt.load %10, %5 : tensor<256x!tt.ptr<f32>> loc(#loc11)
    %12 = tt.addptr %arg2, %c0_i32 : !tt.ptr<f32>, i32 loc(#loc12)
    %13 = tt.load %12 : !tt.ptr<f32> loc(#loc13)
    %14 = tt.splat %13 : f32 -> tensor<256xf32> loc(#loc14)
    %15 = arith.addf %11, %cst_2 : tensor<256xf32> loc(#loc15)
    %16 = arith.cmpf ogt, %15, %cst_0 : tensor<256xf32> loc(#loc33)
    %17 = arith.cmpf une, %15, %15 : tensor<256xf32> loc(#loc34)
    %18 = arith.ori %16, %17 : tensor<256xi1> loc(#loc35)
    %19 = arith.select %18, %15, %cst_0 : tensor<256xi1>, tensor<256xf32> loc(#loc36)
    %20 = arith.cmpf olt, %19, %cst : tensor<256xf32> loc(#loc37)
    %21 = arith.cmpf une, %19, %19 : tensor<256xf32> loc(#loc38)
    %22 = arith.ori %20, %21 : tensor<256xi1> loc(#loc39)
    %23 = arith.select %22, %19, %cst : tensor<256xi1>, tensor<256xf32> loc(#loc40)
    %24 = arith.mulf %11, %23 : tensor<256xf32> loc(#loc26)
    %25 = arith.mulf %24, %cst_1 : tensor<256xf32> loc(#loc27)
    %26 = arith.mulf %8, %25 : tensor<256xf32> loc(#loc28)
    %27 = arith.addf %26, %14 : tensor<256xf32> loc(#loc29)
    %28 = tt.splat %arg3 : !tt.ptr<f32> -> tensor<256x!tt.ptr<f32>> loc(#loc30)
    %29 = tt.addptr %28, %4 : tensor<256x!tt.ptr<f32>>, tensor<256xi32> loc(#loc30)
    tt.store %29, %27, %5 : tensor<256x!tt.ptr<f32>> loc(#loc31)
    tt.return loc(#loc32)
  } loc(#loc)
} loc(#loc)
#loc1 = loc(unknown)
#loc2 = loc("inductor_cache/r3/cr3fzne3nq76zgh56u5ztmu264nkm2ykshdaew3nmavwln5wsyju.py":21:28)
#loc3 = loc("inductor_cache/r3/cr3fzne3nq76zgh56u5ztmu264nkm2ykshdaew3nmavwln5wsyju.py":21:33)
#loc4 = loc("inductor_cache/r3/cr3fzne3nq76zgh56u5ztmu264nkm2ykshdaew3nmavwln5wsyju.py":22:36)
#loc5 = loc("inductor_cache/r3/cr3fzne3nq76zgh56u5ztmu264nkm2ykshdaew3nmavwln5wsyju.py":22:23)
#loc6 = loc("inductor_cache/r3/cr3fzne3nq76zgh56u5ztmu264nkm2ykshdaew3nmavwln5wsyju.py":23:21)
#loc7 = loc("inductor_cache/r3/cr3fzne3nq76zgh56u5ztmu264nkm2ykshdaew3nmavwln5wsyju.py":25:30)
#loc8 = loc("inductor_cache/r3/cr3fzne3nq76zgh56u5ztmu264nkm2ykshdaew3nmavwln5wsyju.py":25:19)
#loc9 = loc("inductor_cache/r3/cr3fzne3nq76zgh56u5ztmu264nkm2ykshdaew3nmavwln5wsyju.py":26:33)
#loc10 = loc("inductor_cache/r3/cr3fzne3nq76zgh56u5ztmu264nkm2ykshdaew3nmavwln5wsyju.py":27:30)
#loc11 = loc("inductor_cache/r3/cr3fzne3nq76zgh56u5ztmu264nkm2ykshdaew3nmavwln5wsyju.py":27:35)
#loc12 = loc("inductor_cache/r3/cr3fzne3nq76zgh56u5ztmu264nkm2ykshdaew3nmavwln5wsyju.py":28:31)
#loc13 = loc("inductor_cache/r3/cr3fzne3nq76zgh56u5ztmu264nkm2ykshdaew3nmavwln5wsyju.py":28:20)
#loc14 = loc("inductor_cache/r3/cr3fzne3nq76zgh56u5ztmu264nkm2ykshdaew3nmavwln5wsyju.py":29:35)
#loc15 = loc("inductor_cache/r3/cr3fzne3nq76zgh56u5ztmu264nkm2ykshdaew3nmavwln5wsyju.py":31:18)
#loc16 = loc("/home/sahanp/.conda/envs/parity-bench/lib/python3.12/site-packages/torch/_inductor/runtime/triton_helpers.py":118:15)
#loc17 = loc("inductor_cache/r3/cr3fzne3nq76zgh56u5ztmu264nkm2ykshdaew3nmavwln5wsyju.py":33:40)
#loc18 = loc("/home/sahanp/.conda/envs/parity-bench/lib/python3.12/site-packages/torch/_inductor/runtime/triton_helpers.py":120:21)
#loc19 = loc("/home/sahanp/.conda/envs/parity-bench/lib/python3.12/site-packages/torch/_inductor/runtime/triton_helpers.py":120:16)
#loc20 = loc("/home/sahanp/.conda/envs/parity-bench/lib/python3.12/site-packages/torch/_inductor/runtime/triton_helpers.py":121:29)
#loc21 = loc("/home/sahanp/.conda/envs/parity-bench/lib/python3.12/site-packages/torch/_inductor/runtime/triton_helpers.py":110:15)
#loc22 = loc("inductor_cache/r3/cr3fzne3nq76zgh56u5ztmu264nkm2ykshdaew3nmavwln5wsyju.py":35:40)
#loc23 = loc("/home/sahanp/.conda/envs/parity-bench/lib/python3.12/site-packages/torch/_inductor/runtime/triton_helpers.py":112:21)
#loc24 = loc("/home/sahanp/.conda/envs/parity-bench/lib/python3.12/site-packages/torch/_inductor/runtime/triton_helpers.py":112:16)
#loc25 = loc("/home/sahanp/.conda/envs/parity-bench/lib/python3.12/site-packages/torch/_inductor/runtime/triton_helpers.py":113:29)
#loc26 = loc("inductor_cache/r3/cr3fzne3nq76zgh56u5ztmu264nkm2ykshdaew3nmavwln5wsyju.py":36:18)
#loc27 = loc("inductor_cache/r3/cr3fzne3nq76zgh56u5ztmu264nkm2ykshdaew3nmavwln5wsyju.py":38:19)
#loc28 = loc("inductor_cache/r3/cr3fzne3nq76zgh56u5ztmu264nkm2ykshdaew3nmavwln5wsyju.py":39:19)
#loc29 = loc("inductor_cache/r3/cr3fzne3nq76zgh56u5ztmu264nkm2ykshdaew3nmavwln5wsyju.py":40:20)
#loc30 = loc("inductor_cache/r3/cr3fzne3nq76zgh56u5ztmu264nkm2ykshdaew3nmavwln5wsyju.py":41:25)
#loc31 = loc("inductor_cache/r3/cr3fzne3nq76zgh56u5ztmu264nkm2ykshdaew3nmavwln5wsyju.py":41:37)
#loc32 = loc("inductor_cache/r3/cr3fzne3nq76zgh56u5ztmu264nkm2ykshdaew3nmavwln5wsyju.py":41:4)
#loc33 = loc(callsite(#loc16 at #loc17))
#loc34 = loc(callsite(#loc18 at #loc17))
#loc35 = loc(callsite(#loc19 at #loc17))
#loc36 = loc(callsite(#loc20 at #loc17))
#loc37 = loc(callsite(#loc21 at #loc22))
#loc38 = loc(callsite(#loc23 at #loc22))
#loc39 = loc(callsite(#loc24 at #loc22))
#loc40 = loc(callsite(#loc25 at #loc22))
