#loc = loc("inductor_cache/ti/ctipbpv6g4jg3577a5pff6zgbt4rcuqy3mcnftu4ztup3s7k4dlu.py":19:0)
#loc1 = loc(unknown)
#loc24 = loc("inductor_cache/ti/ctipbpv6g4jg3577a5pff6zgbt4rcuqy3mcnftu4ztup3s7k4dlu.py":39:24)
#loc31 = loc(callsite(#loc1 at #loc24))
module {
  tt.func public @triton_per_fused_mul_sum_1(%arg0: !tt.ptr<f32> {tt.divisibility = 16 : i32} loc("inductor_cache/ti/ctipbpv6g4jg3577a5pff6zgbt4rcuqy3mcnftu4ztup3s7k4dlu.py":19:0), %arg1: !tt.ptr<f32> {tt.divisibility = 16 : i32} loc("inductor_cache/ti/ctipbpv6g4jg3577a5pff6zgbt4rcuqy3mcnftu4ztup3s7k4dlu.py":19:0), %arg2: !tt.ptr<f32> {tt.divisibility = 16 : i32} loc("inductor_cache/ti/ctipbpv6g4jg3577a5pff6zgbt4rcuqy3mcnftu4ztup3s7k4dlu.py":19:0), %arg3: i32 {tt.divisibility = 16 : i32} loc("inductor_cache/ti/ctipbpv6g4jg3577a5pff6zgbt4rcuqy3mcnftu4ztup3s7k4dlu.py":19:0), %arg4: i32 {tt.divisibility = 16 : i32} loc("inductor_cache/ti/ctipbpv6g4jg3577a5pff6zgbt4rcuqy3mcnftu4ztup3s7k4dlu.py":19:0)) attributes {noinline = false} {
    %cst = arith.constant dense<0.000000e+00> : tensor<8x16xf32> loc(#loc1)
    %cst_0 = arith.constant dense<64> : tensor<8x1xi32> loc(#loc1)
    %cst_1 = arith.constant dense<4> : tensor<8x1xi32> loc(#loc1)
    %cst_2 = arith.constant dense<4> : tensor<1x16xi32> loc(#loc1)
    %cst_3 = arith.constant dense<16> : tensor<8x1xi32> loc(#loc1)
    %c8_i32 = arith.constant 8 : i32 loc(#loc1)
    %0 = tt.get_program_id x : i32 loc(#loc2)
    %1 = arith.muli %0, %c8_i32 : i32 loc(#loc3)
    %2 = tt.make_range {end = 8 : i32, start = 0 : i32} : tensor<8xi32> loc(#loc4)
    %3 = tt.expand_dims %2 {axis = 1 : i32} : tensor<8xi32> -> tensor<8x1xi32> loc(#loc5)
    %4 = tt.splat %1 : i32 -> tensor<8x1xi32> loc(#loc6)
    %5 = arith.addi %4, %3 : tensor<8x1xi32> loc(#loc6)
    %6 = arith.cmpi slt, %5, %cst_3 : tensor<8x1xi32> loc(#loc7)
    %7 = tt.make_range {end = 16 : i32, start = 0 : i32} : tensor<16xi32> loc(#loc8)
    %8 = tt.expand_dims %7 {axis = 0 : i32} : tensor<16xi32> -> tensor<1x16xi32> loc(#loc9)
    %9 = arith.remsi %8, %cst_2 : tensor<1x16xi32> loc(#loc10)
    %10 = arith.remsi %5, %cst_1 : tensor<8x1xi32> loc(#loc11)
    %11 = arith.divsi %5, %cst_1 : tensor<8x1xi32> loc(#loc12)
    %12 = tt.splat %arg0 : !tt.ptr<f32> -> tensor<1x16x!tt.ptr<f32>> loc(#loc13)
    %13 = tt.addptr %12, %9 : tensor<1x16x!tt.ptr<f32>>, tensor<1x16xi32> loc(#loc13)
    %14 = tt.load %13 evictionPolicy = evict_last : tensor<1x16x!tt.ptr<f32>> loc(#loc14)
    %15 = arith.muli %8, %cst_2 : tensor<1x16xi32> loc(#loc15)
    %16 = tt.broadcast %10 : tensor<8x1xi32> -> tensor<8x16xi32> loc(#loc16)
    %17 = tt.broadcast %15 : tensor<1x16xi32> -> tensor<8x16xi32> loc(#loc16)
    %18 = arith.addi %16, %17 : tensor<8x16xi32> loc(#loc16)
    %19 = arith.muli %11, %cst_0 : tensor<8x1xi32> loc(#loc17)
    %20 = tt.broadcast %19 : tensor<8x1xi32> -> tensor<8x16xi32> loc(#loc18)
    %21 = arith.addi %18, %20 : tensor<8x16xi32> loc(#loc18)
    %22 = tt.splat %arg1 : !tt.ptr<f32> -> tensor<8x16x!tt.ptr<f32>> loc(#loc19)
    %23 = tt.addptr %22, %21 : tensor<8x16x!tt.ptr<f32>>, tensor<8x16xi32> loc(#loc19)
    %24 = tt.broadcast %6 : tensor<8x1xi1> -> tensor<8x16xi1> loc(#loc20)
    %25 = tt.load %23, %24, %cst : tensor<8x16x!tt.ptr<f32>> loc(#loc20)
    %26 = tt.broadcast %14 : tensor<1x16xf32> -> tensor<8x16xf32> loc(#loc21)
    %27 = arith.mulf %26, %25 : tensor<8x16xf32> loc(#loc21)
    %28 = arith.select %24, %27, %cst : tensor<8x16xi1>, tensor<8x16xf32> loc(#loc22)
    %29 = "tt.reduce"(%28) <{axis = 1 : i32}> ({
    ^bb0(%arg5: f32 loc(callsite(#loc1 at #loc24)), %arg6: f32 loc(callsite(#loc1 at #loc24))):
      %33 = arith.addf %arg5, %arg6 : f32 loc(#loc33)
      tt.reduce.return %33 : f32 loc(#loc30)
    }) : (tensor<8x16xf32>) -> tensor<8xf32> loc(#loc30)
    %30 = tt.expand_dims %29 {axis = 1 : i32} : tensor<8xf32> -> tensor<8x1xf32> loc(#loc26)
    %31 = tt.splat %arg2 : !tt.ptr<f32> -> tensor<8x1x!tt.ptr<f32>> loc(#loc27)
    %32 = tt.addptr %31, %5 : tensor<8x1x!tt.ptr<f32>>, tensor<8x1xi32> loc(#loc27)
    tt.store %32, %30, %6 : tensor<8x1x!tt.ptr<f32>> loc(#loc28)
    tt.return loc(#loc29)
  } loc(#loc)
} loc(#loc)
#loc2 = loc("inductor_cache/ti/ctipbpv6g4jg3577a5pff6zgbt4rcuqy3mcnftu4ztup3s7k4dlu.py":23:28)
#loc3 = loc("inductor_cache/ti/ctipbpv6g4jg3577a5pff6zgbt4rcuqy3mcnftu4ztup3s7k4dlu.py":23:33)
#loc4 = loc("inductor_cache/ti/ctipbpv6g4jg3577a5pff6zgbt4rcuqy3mcnftu4ztup3s7k4dlu.py":24:36)
#loc5 = loc("inductor_cache/ti/ctipbpv6g4jg3577a5pff6zgbt4rcuqy3mcnftu4ztup3s7k4dlu.py":24:44)
#loc6 = loc("inductor_cache/ti/ctipbpv6g4jg3577a5pff6zgbt4rcuqy3mcnftu4ztup3s7k4dlu.py":24:23)
#loc7 = loc("inductor_cache/ti/ctipbpv6g4jg3577a5pff6zgbt4rcuqy3mcnftu4ztup3s7k4dlu.py":25:21)
#loc8 = loc("inductor_cache/ti/ctipbpv6g4jg3577a5pff6zgbt4rcuqy3mcnftu4ztup3s7k4dlu.py":26:26)
#loc9 = loc("inductor_cache/ti/ctipbpv6g4jg3577a5pff6zgbt4rcuqy3mcnftu4ztup3s7k4dlu.py":26:34)
#loc10 = loc("inductor_cache/ti/ctipbpv6g4jg3577a5pff6zgbt4rcuqy3mcnftu4ztup3s7k4dlu.py":29:19)
#loc11 = loc("inductor_cache/ti/ctipbpv6g4jg3577a5pff6zgbt4rcuqy3mcnftu4ztup3s7k4dlu.py":31:19)
#loc12 = loc("inductor_cache/ti/ctipbpv6g4jg3577a5pff6zgbt4rcuqy3mcnftu4ztup3s7k4dlu.py":32:19)
#loc13 = loc("inductor_cache/ti/ctipbpv6g4jg3577a5pff6zgbt4rcuqy3mcnftu4ztup3s7k4dlu.py":34:30)
#loc14 = loc("inductor_cache/ti/ctipbpv6g4jg3577a5pff6zgbt4rcuqy3mcnftu4ztup3s7k4dlu.py":34:35)
#loc15 = loc("inductor_cache/ti/ctipbpv6g4jg3577a5pff6zgbt4rcuqy3mcnftu4ztup3s7k4dlu.py":35:37)
#loc16 = loc("inductor_cache/ti/ctipbpv6g4jg3577a5pff6zgbt4rcuqy3mcnftu4ztup3s7k4dlu.py":35:35)
#loc17 = loc("inductor_cache/ti/ctipbpv6g4jg3577a5pff6zgbt4rcuqy3mcnftu4ztup3s7k4dlu.py":35:45)
#loc18 = loc("inductor_cache/ti/ctipbpv6g4jg3577a5pff6zgbt4rcuqy3mcnftu4ztup3s7k4dlu.py":35:42)
#loc19 = loc("inductor_cache/ti/ctipbpv6g4jg3577a5pff6zgbt4rcuqy3mcnftu4ztup3s7k4dlu.py":35:30)
#loc20 = loc("inductor_cache/ti/ctipbpv6g4jg3577a5pff6zgbt4rcuqy3mcnftu4ztup3s7k4dlu.py":35:50)
#loc21 = loc("inductor_cache/ti/ctipbpv6g4jg3577a5pff6zgbt4rcuqy3mcnftu4ztup3s7k4dlu.py":36:18)
#loc22 = loc("inductor_cache/ti/ctipbpv6g4jg3577a5pff6zgbt4rcuqy3mcnftu4ztup3s7k4dlu.py":38:33)
#loc23 = loc("/home/sahanp/.conda/envs/parity-bench/lib/python3.12/site-packages/triton/language/standard.py":267:36)
#loc25 = loc("/home/sahanp/.conda/envs/parity-bench/lib/python3.12/site-packages/triton/language/standard.py":256:15)
#loc26 = loc("inductor_cache/ti/ctipbpv6g4jg3577a5pff6zgbt4rcuqy3mcnftu4ztup3s7k4dlu.py":39:27)
#loc27 = loc("inductor_cache/ti/ctipbpv6g4jg3577a5pff6zgbt4rcuqy3mcnftu4ztup3s7k4dlu.py":40:25)
#loc28 = loc("inductor_cache/ti/ctipbpv6g4jg3577a5pff6zgbt4rcuqy3mcnftu4ztup3s7k4dlu.py":40:36)
#loc29 = loc("inductor_cache/ti/ctipbpv6g4jg3577a5pff6zgbt4rcuqy3mcnftu4ztup3s7k4dlu.py":40:4)
#loc30 = loc(callsite(#loc23 at #loc24))
#loc32 = loc(callsite(#loc25 at #loc23))
#loc33 = loc(callsite(#loc32 at #loc24))
