#loc = loc("inductor_cache/2z/c2zbxswgqlpbdllg5xo4g2wvfiqkpdq6423wrdjt2kb7ivlpkoqn.py":19:0)
module {
  tt.func public @triton_poi_fused_max_pool2d_with_indices_6(%arg0: !tt.ptr<f32> {tt.divisibility = 16 : i32} loc("inductor_cache/2z/c2zbxswgqlpbdllg5xo4g2wvfiqkpdq6423wrdjt2kb7ivlpkoqn.py":19:0), %arg1: !tt.ptr<f32> {tt.divisibility = 16 : i32} loc("inductor_cache/2z/c2zbxswgqlpbdllg5xo4g2wvfiqkpdq6423wrdjt2kb7ivlpkoqn.py":19:0), %arg2: !tt.ptr<i8> {tt.divisibility = 16 : i32} loc("inductor_cache/2z/c2zbxswgqlpbdllg5xo4g2wvfiqkpdq6423wrdjt2kb7ivlpkoqn.py":19:0), %arg3: i32 {tt.divisibility = 16 : i32} loc("inductor_cache/2z/c2zbxswgqlpbdllg5xo4g2wvfiqkpdq6423wrdjt2kb7ivlpkoqn.py":19:0), %arg4: i32 loc("inductor_cache/2z/c2zbxswgqlpbdllg5xo4g2wvfiqkpdq6423wrdjt2kb7ivlpkoqn.py":19:0)) attributes {noinline = false} {
    %c128_i32 = arith.constant 128 : i32 loc(#loc1)
    %c16_i32 = arith.constant 16 : i32 loc(#loc1)
    %c15_i32 = arith.constant 15 : i32 loc(#loc1)
    %c8_i32 = arith.constant 8 : i32 loc(#loc1)
    %c7_i32 = arith.constant 7 : i32 loc(#loc1)
    %c1_i32 = arith.constant 1 : i32 loc(#loc1)
    %c14_i32 = arith.constant 14 : i32 loc(#loc1)
    %c2_i32 = arith.constant 2 : i32 loc(#loc1)
    %c3_i32 = arith.constant 3 : i32 loc(#loc1)
    %c9_i32 = arith.constant 9 : i32 loc(#loc1)
    %cst = arith.constant dense<1152> : tensor<1x256xi32> loc(#loc1)
    %cst_0 = arith.constant dense<8> : tensor<1x256xi8> loc(#loc1)
    %cst_1 = arith.constant dense<7> : tensor<1x256xi8> loc(#loc1)
    %cst_2 = arith.constant dense<6> : tensor<1x256xi8> loc(#loc1)
    %cst_3 = arith.constant dense<5> : tensor<1x256xi8> loc(#loc1)
    %cst_4 = arith.constant dense<4> : tensor<1x256xi8> loc(#loc1)
    %cst_5 = arith.constant dense<3> : tensor<1x256xi8> loc(#loc1)
    %cst_6 = arith.constant dense<2> : tensor<1x256xi8> loc(#loc1)
    %cst_7 = arith.constant dense<0> : tensor<1x256xi8> loc(#loc1)
    %cst_8 = arith.constant dense<1> : tensor<1x256xi8> loc(#loc1)
    %cst_9 = arith.constant dense<49> : tensor<1x256xi32> loc(#loc1)
    %cst_10 = arith.constant dense<128> : tensor<1x256xi32> loc(#loc1)
    %cst_11 = arith.constant dense<512> : tensor<1x256xi32> loc(#loc1)
    %c256_i32 = arith.constant 256 : i32 loc(#loc1)
    %0 = tt.get_program_id y : i32 loc(#loc2)
    %1 = arith.muli %0, %c256_i32 : i32 loc(#loc3)
    %2 = tt.make_range {end = 256 : i32, start = 0 : i32} : tensor<256xi32> loc(#loc4)
    %3 = tt.expand_dims %2 {axis = 0 : i32} : tensor<256xi32> -> tensor<1x256xi32> loc(#loc5)
    %4 = tt.splat %1 : i32 -> tensor<1x256xi32> loc(#loc6)
    %5 = arith.addi %4, %3 : tensor<1x256xi32> loc(#loc6)
    %6 = arith.cmpi slt, %5, %cst_11 : tensor<1x256xi32> loc(#loc7)
    %7 = tt.get_program_id x : i32 loc(#loc8)
    %8 = arith.cmpi slt, %7, %c9_i32 : i32 loc(#loc9)
    %9 = arith.remsi %7, %c3_i32 : i32 loc(#loc10)
    %10 = arith.divsi %7, %c3_i32 : i32 loc(#loc11)
    %11 = arith.remsi %5, %cst_10 : tensor<1x256xi32> loc(#loc12)
    %12 = arith.divsi %5, %cst_10 : tensor<1x256xi32> loc(#loc13)
    %13 = arith.muli %9, %c2_i32 : i32 loc(#loc14)
    %14 = arith.muli %10, %c14_i32 : i32 loc(#loc15)
    %15 = arith.addi %13, %14 : i32 loc(#loc16)
    %16 = arith.muli %5, %cst_9 : tensor<1x256xi32> loc(#loc17)
    %17 = tt.splat %15 : i32 -> tensor<1x256xi32> loc(#loc18)
    %18 = arith.addi %17, %16 : tensor<1x256xi32> loc(#loc18)
    %19 = tt.splat %arg0 : !tt.ptr<f32> -> tensor<1x256x!tt.ptr<f32>> loc(#loc19)
    %20 = tt.addptr %19, %18 : tensor<1x256x!tt.ptr<f32>>, tensor<1x256xi32> loc(#loc19)
    %21 = tt.splat %8 : i1 -> tensor<1x256xi1> loc(#loc20)
    %22 = arith.andi %21, %6 : tensor<1x256xi1> loc(#loc20)
    %23 = tt.load %20, %22 evictionPolicy = evict_last : tensor<1x256x!tt.ptr<f32>> loc(#loc21)
    %24 = arith.addi %13, %c1_i32 : i32 loc(#loc22)
    %25 = arith.addi %24, %14 : i32 loc(#loc23)
    %26 = tt.splat %25 : i32 -> tensor<1x256xi32> loc(#loc24)
    %27 = arith.addi %26, %16 : tensor<1x256xi32> loc(#loc24)
    %28 = tt.addptr %19, %27 : tensor<1x256x!tt.ptr<f32>>, tensor<1x256xi32> loc(#loc25)
    %29 = tt.load %28, %22 evictionPolicy = evict_last : tensor<1x256x!tt.ptr<f32>> loc(#loc26)
    %30 = arith.addi %13, %c2_i32 : i32 loc(#loc27)
    %31 = arith.addi %30, %14 : i32 loc(#loc28)
    %32 = tt.splat %31 : i32 -> tensor<1x256xi32> loc(#loc29)
    %33 = arith.addi %32, %16 : tensor<1x256xi32> loc(#loc29)
    %34 = tt.addptr %19, %33 : tensor<1x256x!tt.ptr<f32>>, tensor<1x256xi32> loc(#loc30)
    %35 = tt.load %34, %22 evictionPolicy = evict_last : tensor<1x256x!tt.ptr<f32>> loc(#loc31)
    %36 = arith.addi %13, %c7_i32 : i32 loc(#loc32)
    %37 = arith.addi %36, %14 : i32 loc(#loc33)
    %38 = tt.splat %37 : i32 -> tensor<1x256xi32> loc(#loc34)
    %39 = arith.addi %38, %16 : tensor<1x256xi32> loc(#loc34)
    %40 = tt.addptr %19, %39 : tensor<1x256x!tt.ptr<f32>>, tensor<1x256xi32> loc(#loc35)
    %41 = tt.load %40, %22 evictionPolicy = evict_last : tensor<1x256x!tt.ptr<f32>> loc(#loc36)
    %42 = arith.addi %13, %c8_i32 : i32 loc(#loc37)
    %43 = arith.addi %42, %14 : i32 loc(#loc38)
    %44 = tt.splat %43 : i32 -> tensor<1x256xi32> loc(#loc39)
    %45 = arith.addi %44, %16 : tensor<1x256xi32> loc(#loc39)
    %46 = tt.addptr %19, %45 : tensor<1x256x!tt.ptr<f32>>, tensor<1x256xi32> loc(#loc40)
    %47 = tt.load %46, %22 evictionPolicy = evict_last : tensor<1x256x!tt.ptr<f32>> loc(#loc41)
    %48 = arith.addi %13, %c9_i32 : i32 loc(#loc42)
    %49 = arith.addi %48, %14 : i32 loc(#loc43)
    %50 = tt.splat %49 : i32 -> tensor<1x256xi32> loc(#loc44)
    %51 = arith.addi %50, %16 : tensor<1x256xi32> loc(#loc44)
    %52 = tt.addptr %19, %51 : tensor<1x256x!tt.ptr<f32>>, tensor<1x256xi32> loc(#loc45)
    %53 = tt.load %52, %22 evictionPolicy = evict_last : tensor<1x256x!tt.ptr<f32>> loc(#loc46)
    %54 = arith.addi %13, %c14_i32 : i32 loc(#loc47)
    %55 = arith.addi %54, %14 : i32 loc(#loc48)
    %56 = tt.splat %55 : i32 -> tensor<1x256xi32> loc(#loc49)
    %57 = arith.addi %56, %16 : tensor<1x256xi32> loc(#loc49)
    %58 = tt.addptr %19, %57 : tensor<1x256x!tt.ptr<f32>>, tensor<1x256xi32> loc(#loc50)
    %59 = tt.load %58, %22 evictionPolicy = evict_last : tensor<1x256x!tt.ptr<f32>> loc(#loc51)
    %60 = arith.addi %13, %c15_i32 : i32 loc(#loc52)
    %61 = arith.addi %60, %14 : i32 loc(#loc53)
    %62 = tt.splat %61 : i32 -> tensor<1x256xi32> loc(#loc54)
    %63 = arith.addi %62, %16 : tensor<1x256xi32> loc(#loc54)
    %64 = tt.addptr %19, %63 : tensor<1x256x!tt.ptr<f32>>, tensor<1x256xi32> loc(#loc55)
    %65 = tt.load %64, %22 evictionPolicy = evict_last : tensor<1x256x!tt.ptr<f32>> loc(#loc56)
    %66 = arith.addi %13, %c16_i32 : i32 loc(#loc57)
    %67 = arith.addi %66, %14 : i32 loc(#loc58)
    %68 = tt.splat %67 : i32 -> tensor<1x256xi32> loc(#loc59)
    %69 = arith.addi %68, %16 : tensor<1x256xi32> loc(#loc59)
    %70 = tt.addptr %19, %69 : tensor<1x256x!tt.ptr<f32>>, tensor<1x256xi32> loc(#loc60)
    %71 = tt.load %70, %22 evictionPolicy = evict_last : tensor<1x256x!tt.ptr<f32>> loc(#loc61)
    %72 = arith.cmpf ogt, %29, %23 : tensor<1x256xf32> loc(#loc91)
    %73 = arith.cmpf une, %29, %29 : tensor<1x256xf32> loc(#loc92)
    %74 = arith.ori %72, %73 : tensor<1x256xi1> loc(#loc93)
    %75 = arith.select %74, %29, %23 : tensor<1x256xi1>, tensor<1x256xf32> loc(#loc94)
    %76 = arith.cmpf ogt, %35, %75 : tensor<1x256xf32> loc(#loc95)
    %77 = arith.cmpf une, %35, %35 : tensor<1x256xf32> loc(#loc96)
    %78 = arith.ori %76, %77 : tensor<1x256xi1> loc(#loc97)
    %79 = arith.select %78, %35, %75 : tensor<1x256xi1>, tensor<1x256xf32> loc(#loc98)
    %80 = arith.cmpf ogt, %41, %79 : tensor<1x256xf32> loc(#loc99)
    %81 = arith.cmpf une, %41, %41 : tensor<1x256xf32> loc(#loc100)
    %82 = arith.ori %80, %81 : tensor<1x256xi1> loc(#loc101)
    %83 = arith.select %82, %41, %79 : tensor<1x256xi1>, tensor<1x256xf32> loc(#loc102)
    %84 = arith.cmpf ogt, %47, %83 : tensor<1x256xf32> loc(#loc103)
    %85 = arith.cmpf une, %47, %47 : tensor<1x256xf32> loc(#loc104)
    %86 = arith.ori %84, %85 : tensor<1x256xi1> loc(#loc105)
    %87 = arith.select %86, %47, %83 : tensor<1x256xi1>, tensor<1x256xf32> loc(#loc106)
    %88 = arith.cmpf ogt, %53, %87 : tensor<1x256xf32> loc(#loc107)
    %89 = arith.cmpf une, %53, %53 : tensor<1x256xf32> loc(#loc108)
    %90 = arith.ori %88, %89 : tensor<1x256xi1> loc(#loc109)
    %91 = arith.select %90, %53, %87 : tensor<1x256xi1>, tensor<1x256xf32> loc(#loc110)
    %92 = arith.cmpf ogt, %59, %91 : tensor<1x256xf32> loc(#loc111)
    %93 = arith.cmpf une, %59, %59 : tensor<1x256xf32> loc(#loc112)
    %94 = arith.ori %92, %93 : tensor<1x256xi1> loc(#loc113)
    %95 = arith.select %94, %59, %91 : tensor<1x256xi1>, tensor<1x256xf32> loc(#loc114)
    %96 = arith.cmpf ogt, %65, %95 : tensor<1x256xf32> loc(#loc115)
    %97 = arith.cmpf une, %65, %65 : tensor<1x256xf32> loc(#loc116)
    %98 = arith.ori %96, %97 : tensor<1x256xi1> loc(#loc117)
    %99 = arith.select %98, %65, %95 : tensor<1x256xi1>, tensor<1x256xf32> loc(#loc118)
    %100 = arith.cmpf ogt, %71, %99 : tensor<1x256xf32> loc(#loc119)
    %101 = arith.cmpf une, %71, %71 : tensor<1x256xf32> loc(#loc120)
    %102 = arith.ori %100, %101 : tensor<1x256xi1> loc(#loc121)
    %103 = arith.select %102, %71, %99 : tensor<1x256xi1>, tensor<1x256xf32> loc(#loc122)
    %104 = arith.select %72, %cst_8, %cst_7 : tensor<1x256xi1>, tensor<1x256xi8> loc(#loc74)
    %105 = arith.select %76, %cst_6, %104 : tensor<1x256xi1>, tensor<1x256xi8> loc(#loc75)
    %106 = arith.select %80, %cst_5, %105 : tensor<1x256xi1>, tensor<1x256xi8> loc(#loc76)
    %107 = arith.select %84, %cst_4, %106 : tensor<1x256xi1>, tensor<1x256xi8> loc(#loc77)
    %108 = arith.select %88, %cst_3, %107 : tensor<1x256xi1>, tensor<1x256xi8> loc(#loc78)
    %109 = arith.select %92, %cst_2, %108 : tensor<1x256xi1>, tensor<1x256xi8> loc(#loc79)
    %110 = arith.select %96, %cst_1, %109 : tensor<1x256xi1>, tensor<1x256xi8> loc(#loc80)
    %111 = arith.select %100, %cst_0, %110 : tensor<1x256xi1>, tensor<1x256xi8> loc(#loc81)
    %112 = arith.muli %7, %c128_i32 : i32 loc(#loc82)
    %113 = tt.splat %112 : i32 -> tensor<1x256xi32> loc(#loc83)
    %114 = arith.addi %11, %113 : tensor<1x256xi32> loc(#loc83)
    %115 = arith.muli %12, %cst : tensor<1x256xi32> loc(#loc84)
    %116 = arith.addi %114, %115 : tensor<1x256xi32> loc(#loc85)
    %117 = tt.splat %arg1 : !tt.ptr<f32> -> tensor<1x256x!tt.ptr<f32>> loc(#loc86)
    %118 = tt.addptr %117, %116 : tensor<1x256x!tt.ptr<f32>>, tensor<1x256xi32> loc(#loc86)
    tt.store %118, %103, %22 : tensor<1x256x!tt.ptr<f32>> loc(#loc87)
    %119 = tt.splat %arg2 : !tt.ptr<i8> -> tensor<1x256x!tt.ptr<i8>> loc(#loc88)
    %120 = tt.addptr %119, %116 : tensor<1x256x!tt.ptr<i8>>, tensor<1x256xi32> loc(#loc88)
    tt.store %120, %111, %22 : tensor<1x256x!tt.ptr<i8>> loc(#loc89)
    tt.return loc(#loc90)
  } loc(#loc)
} loc(#loc)
#loc1 = loc(unknown)
#loc2 = loc("inductor_cache/2z/c2zbxswgqlpbdllg5xo4g2wvfiqkpdq6423wrdjt2kb7ivlpkoqn.py":22:28)
#loc3 = loc("inductor_cache/2z/c2zbxswgqlpbdllg5xo4g2wvfiqkpdq6423wrdjt2kb7ivlpkoqn.py":22:33)
#loc4 = loc("inductor_cache/2z/c2zbxswgqlpbdllg5xo4g2wvfiqkpdq6423wrdjt2kb7ivlpkoqn.py":23:36)
#loc5 = loc("inductor_cache/2z/c2zbxswgqlpbdllg5xo4g2wvfiqkpdq6423wrdjt2kb7ivlpkoqn.py":23:44)
#loc6 = loc("inductor_cache/2z/c2zbxswgqlpbdllg5xo4g2wvfiqkpdq6423wrdjt2kb7ivlpkoqn.py":23:23)
#loc7 = loc("inductor_cache/2z/c2zbxswgqlpbdllg5xo4g2wvfiqkpdq6423wrdjt2kb7ivlpkoqn.py":24:21)
#loc8 = loc("inductor_cache/2z/c2zbxswgqlpbdllg5xo4g2wvfiqkpdq6423wrdjt2kb7ivlpkoqn.py":25:28)
#loc9 = loc("inductor_cache/2z/c2zbxswgqlpbdllg5xo4g2wvfiqkpdq6423wrdjt2kb7ivlpkoqn.py":27:21)
#loc10 = loc("inductor_cache/2z/c2zbxswgqlpbdllg5xo4g2wvfiqkpdq6423wrdjt2kb7ivlpkoqn.py":28:19)
#loc11 = loc("inductor_cache/2z/c2zbxswgqlpbdllg5xo4g2wvfiqkpdq6423wrdjt2kb7ivlpkoqn.py":29:19)
#loc12 = loc("inductor_cache/2z/c2zbxswgqlpbdllg5xo4g2wvfiqkpdq6423wrdjt2kb7ivlpkoqn.py":32:19)
#loc13 = loc("inductor_cache/2z/c2zbxswgqlpbdllg5xo4g2wvfiqkpdq6423wrdjt2kb7ivlpkoqn.py":33:19)
#loc14 = loc("inductor_cache/2z/c2zbxswgqlpbdllg5xo4g2wvfiqkpdq6423wrdjt2kb7ivlpkoqn.py":34:32)
#loc15 = loc("inductor_cache/2z/c2zbxswgqlpbdllg5xo4g2wvfiqkpdq6423wrdjt2kb7ivlpkoqn.py":34:40)
#loc16 = loc("inductor_cache/2z/c2zbxswgqlpbdllg5xo4g2wvfiqkpdq6423wrdjt2kb7ivlpkoqn.py":34:37)
#loc17 = loc("inductor_cache/2z/c2zbxswgqlpbdllg5xo4g2wvfiqkpdq6423wrdjt2kb7ivlpkoqn.py":34:48)
#loc18 = loc("inductor_cache/2z/c2zbxswgqlpbdllg5xo4g2wvfiqkpdq6423wrdjt2kb7ivlpkoqn.py":34:45)
#loc19 = loc("inductor_cache/2z/c2zbxswgqlpbdllg5xo4g2wvfiqkpdq6423wrdjt2kb7ivlpkoqn.py":34:30)
#loc20 = loc("inductor_cache/2z/c2zbxswgqlpbdllg5xo4g2wvfiqkpdq6423wrdjt2kb7ivlpkoqn.py":34:61)
#loc21 = loc("inductor_cache/2z/c2zbxswgqlpbdllg5xo4g2wvfiqkpdq6423wrdjt2kb7ivlpkoqn.py":34:53)
#loc22 = loc("inductor_cache/2z/c2zbxswgqlpbdllg5xo4g2wvfiqkpdq6423wrdjt2kb7ivlpkoqn.py":35:34)
#loc23 = loc("inductor_cache/2z/c2zbxswgqlpbdllg5xo4g2wvfiqkpdq6423wrdjt2kb7ivlpkoqn.py":35:41)
#loc24 = loc("inductor_cache/2z/c2zbxswgqlpbdllg5xo4g2wvfiqkpdq6423wrdjt2kb7ivlpkoqn.py":35:49)
#loc25 = loc("inductor_cache/2z/c2zbxswgqlpbdllg5xo4g2wvfiqkpdq6423wrdjt2kb7ivlpkoqn.py":35:30)
#loc26 = loc("inductor_cache/2z/c2zbxswgqlpbdllg5xo4g2wvfiqkpdq6423wrdjt2kb7ivlpkoqn.py":35:57)
#loc27 = loc("inductor_cache/2z/c2zbxswgqlpbdllg5xo4g2wvfiqkpdq6423wrdjt2kb7ivlpkoqn.py":36:34)
#loc28 = loc("inductor_cache/2z/c2zbxswgqlpbdllg5xo4g2wvfiqkpdq6423wrdjt2kb7ivlpkoqn.py":36:41)
#loc29 = loc("inductor_cache/2z/c2zbxswgqlpbdllg5xo4g2wvfiqkpdq6423wrdjt2kb7ivlpkoqn.py":36:49)
#loc30 = loc("inductor_cache/2z/c2zbxswgqlpbdllg5xo4g2wvfiqkpdq6423wrdjt2kb7ivlpkoqn.py":36:30)
#loc31 = loc("inductor_cache/2z/c2zbxswgqlpbdllg5xo4g2wvfiqkpdq6423wrdjt2kb7ivlpkoqn.py":36:57)
#loc32 = loc("inductor_cache/2z/c2zbxswgqlpbdllg5xo4g2wvfiqkpdq6423wrdjt2kb7ivlpkoqn.py":37:34)
#loc33 = loc("inductor_cache/2z/c2zbxswgqlpbdllg5xo4g2wvfiqkpdq6423wrdjt2kb7ivlpkoqn.py":37:41)
#loc34 = loc("inductor_cache/2z/c2zbxswgqlpbdllg5xo4g2wvfiqkpdq6423wrdjt2kb7ivlpkoqn.py":37:49)
#loc35 = loc("inductor_cache/2z/c2zbxswgqlpbdllg5xo4g2wvfiqkpdq6423wrdjt2kb7ivlpkoqn.py":37:30)
#loc36 = loc("inductor_cache/2z/c2zbxswgqlpbdllg5xo4g2wvfiqkpdq6423wrdjt2kb7ivlpkoqn.py":37:57)
#loc37 = loc("inductor_cache/2z/c2zbxswgqlpbdllg5xo4g2wvfiqkpdq6423wrdjt2kb7ivlpkoqn.py":38:34)
#loc38 = loc("inductor_cache/2z/c2zbxswgqlpbdllg5xo4g2wvfiqkpdq6423wrdjt2kb7ivlpkoqn.py":38:41)
#loc39 = loc("inductor_cache/2z/c2zbxswgqlpbdllg5xo4g2wvfiqkpdq6423wrdjt2kb7ivlpkoqn.py":38:49)
#loc40 = loc("inductor_cache/2z/c2zbxswgqlpbdllg5xo4g2wvfiqkpdq6423wrdjt2kb7ivlpkoqn.py":38:30)
#loc41 = loc("inductor_cache/2z/c2zbxswgqlpbdllg5xo4g2wvfiqkpdq6423wrdjt2kb7ivlpkoqn.py":38:57)
#loc42 = loc("inductor_cache/2z/c2zbxswgqlpbdllg5xo4g2wvfiqkpdq6423wrdjt2kb7ivlpkoqn.py":39:34)
#loc43 = loc("inductor_cache/2z/c2zbxswgqlpbdllg5xo4g2wvfiqkpdq6423wrdjt2kb7ivlpkoqn.py":39:41)
#loc44 = loc("inductor_cache/2z/c2zbxswgqlpbdllg5xo4g2wvfiqkpdq6423wrdjt2kb7ivlpkoqn.py":39:49)
#loc45 = loc("inductor_cache/2z/c2zbxswgqlpbdllg5xo4g2wvfiqkpdq6423wrdjt2kb7ivlpkoqn.py":39:30)
#loc46 = loc("inductor_cache/2z/c2zbxswgqlpbdllg5xo4g2wvfiqkpdq6423wrdjt2kb7ivlpkoqn.py":39:57)
#loc47 = loc("inductor_cache/2z/c2zbxswgqlpbdllg5xo4g2wvfiqkpdq6423wrdjt2kb7ivlpkoqn.py":40:36)
#loc48 = loc("inductor_cache/2z/c2zbxswgqlpbdllg5xo4g2wvfiqkpdq6423wrdjt2kb7ivlpkoqn.py":40:43)
#loc49 = loc("inductor_cache/2z/c2zbxswgqlpbdllg5xo4g2wvfiqkpdq6423wrdjt2kb7ivlpkoqn.py":40:51)
#loc50 = loc("inductor_cache/2z/c2zbxswgqlpbdllg5xo4g2wvfiqkpdq6423wrdjt2kb7ivlpkoqn.py":40:31)
#loc51 = loc("inductor_cache/2z/c2zbxswgqlpbdllg5xo4g2wvfiqkpdq6423wrdjt2kb7ivlpkoqn.py":40:59)
#loc52 = loc("inductor_cache/2z/c2zbxswgqlpbdllg5xo4g2wvfiqkpdq6423wrdjt2kb7ivlpkoqn.py":41:36)
#loc53 = loc("inductor_cache/2z/c2zbxswgqlpbdllg5xo4g2wvfiqkpdq6423wrdjt2kb7ivlpkoqn.py":41:43)
#loc54 = loc("inductor_cache/2z/c2zbxswgqlpbdllg5xo4g2wvfiqkpdq6423wrdjt2kb7ivlpkoqn.py":41:51)
#loc55 = loc("inductor_cache/2z/c2zbxswgqlpbdllg5xo4g2wvfiqkpdq6423wrdjt2kb7ivlpkoqn.py":41:31)
#loc56 = loc("inductor_cache/2z/c2zbxswgqlpbdllg5xo4g2wvfiqkpdq6423wrdjt2kb7ivlpkoqn.py":41:59)
#loc57 = loc("inductor_cache/2z/c2zbxswgqlpbdllg5xo4g2wvfiqkpdq6423wrdjt2kb7ivlpkoqn.py":42:36)
#loc58 = loc("inductor_cache/2z/c2zbxswgqlpbdllg5xo4g2wvfiqkpdq6423wrdjt2kb7ivlpkoqn.py":42:43)
#loc59 = loc("inductor_cache/2z/c2zbxswgqlpbdllg5xo4g2wvfiqkpdq6423wrdjt2kb7ivlpkoqn.py":42:51)
#loc60 = loc("inductor_cache/2z/c2zbxswgqlpbdllg5xo4g2wvfiqkpdq6423wrdjt2kb7ivlpkoqn.py":42:31)
#loc61 = loc("inductor_cache/2z/c2zbxswgqlpbdllg5xo4g2wvfiqkpdq6423wrdjt2kb7ivlpkoqn.py":42:59)
#loc62 = loc("/home/sahanp/.conda/envs/parity-bench/lib/python3.12/site-packages/torch/_inductor/runtime/triton_helpers.py":118:15)
#loc63 = loc("inductor_cache/2z/c2zbxswgqlpbdllg5xo4g2wvfiqkpdq6423wrdjt2kb7ivlpkoqn.py":43:40)
#loc64 = loc("/home/sahanp/.conda/envs/parity-bench/lib/python3.12/site-packages/torch/_inductor/runtime/triton_helpers.py":120:21)
#loc65 = loc("/home/sahanp/.conda/envs/parity-bench/lib/python3.12/site-packages/torch/_inductor/runtime/triton_helpers.py":120:16)
#loc66 = loc("/home/sahanp/.conda/envs/parity-bench/lib/python3.12/site-packages/torch/_inductor/runtime/triton_helpers.py":121:29)
#loc67 = loc("inductor_cache/2z/c2zbxswgqlpbdllg5xo4g2wvfiqkpdq6423wrdjt2kb7ivlpkoqn.py":44:40)
#loc68 = loc("inductor_cache/2z/c2zbxswgqlpbdllg5xo4g2wvfiqkpdq6423wrdjt2kb7ivlpkoqn.py":45:40)
#loc69 = loc("inductor_cache/2z/c2zbxswgqlpbdllg5xo4g2wvfiqkpdq6423wrdjt2kb7ivlpkoqn.py":46:40)
#loc70 = loc("inductor_cache/2z/c2zbxswgqlpbdllg5xo4g2wvfiqkpdq6423wrdjt2kb7ivlpkoqn.py":47:41)
#loc71 = loc("inductor_cache/2z/c2zbxswgqlpbdllg5xo4g2wvfiqkpdq6423wrdjt2kb7ivlpkoqn.py":48:42)
#loc72 = loc("inductor_cache/2z/c2zbxswgqlpbdllg5xo4g2wvfiqkpdq6423wrdjt2kb7ivlpkoqn.py":49:42)
#loc73 = loc("inductor_cache/2z/c2zbxswgqlpbdllg5xo4g2wvfiqkpdq6423wrdjt2kb7ivlpkoqn.py":50:42)
#loc74 = loc("inductor_cache/2z/c2zbxswgqlpbdllg5xo4g2wvfiqkpdq6423wrdjt2kb7ivlpkoqn.py":54:35)
#loc75 = loc("inductor_cache/2z/c2zbxswgqlpbdllg5xo4g2wvfiqkpdq6423wrdjt2kb7ivlpkoqn.py":57:35)
#loc76 = loc("inductor_cache/2z/c2zbxswgqlpbdllg5xo4g2wvfiqkpdq6423wrdjt2kb7ivlpkoqn.py":60:35)
#loc77 = loc("inductor_cache/2z/c2zbxswgqlpbdllg5xo4g2wvfiqkpdq6423wrdjt2kb7ivlpkoqn.py":63:35)
#loc78 = loc("inductor_cache/2z/c2zbxswgqlpbdllg5xo4g2wvfiqkpdq6423wrdjt2kb7ivlpkoqn.py":66:35)
#loc79 = loc("inductor_cache/2z/c2zbxswgqlpbdllg5xo4g2wvfiqkpdq6423wrdjt2kb7ivlpkoqn.py":69:35)
#loc80 = loc("inductor_cache/2z/c2zbxswgqlpbdllg5xo4g2wvfiqkpdq6423wrdjt2kb7ivlpkoqn.py":72:35)
#loc81 = loc("inductor_cache/2z/c2zbxswgqlpbdllg5xo4g2wvfiqkpdq6423wrdjt2kb7ivlpkoqn.py":75:35)
#loc82 = loc("inductor_cache/2z/c2zbxswgqlpbdllg5xo4g2wvfiqkpdq6423wrdjt2kb7ivlpkoqn.py":76:34)
#loc83 = loc("inductor_cache/2z/c2zbxswgqlpbdllg5xo4g2wvfiqkpdq6423wrdjt2kb7ivlpkoqn.py":76:30)
#loc84 = loc("inductor_cache/2z/c2zbxswgqlpbdllg5xo4g2wvfiqkpdq6423wrdjt2kb7ivlpkoqn.py":76:44)
#loc85 = loc("inductor_cache/2z/c2zbxswgqlpbdllg5xo4g2wvfiqkpdq6423wrdjt2kb7ivlpkoqn.py":76:39)
#loc86 = loc("inductor_cache/2z/c2zbxswgqlpbdllg5xo4g2wvfiqkpdq6423wrdjt2kb7ivlpkoqn.py":76:25)
#loc87 = loc("inductor_cache/2z/c2zbxswgqlpbdllg5xo4g2wvfiqkpdq6423wrdjt2kb7ivlpkoqn.py":76:56)
#loc88 = loc("inductor_cache/2z/c2zbxswgqlpbdllg5xo4g2wvfiqkpdq6423wrdjt2kb7ivlpkoqn.py":77:25)
#loc89 = loc("inductor_cache/2z/c2zbxswgqlpbdllg5xo4g2wvfiqkpdq6423wrdjt2kb7ivlpkoqn.py":77:56)
#loc90 = loc("inductor_cache/2z/c2zbxswgqlpbdllg5xo4g2wvfiqkpdq6423wrdjt2kb7ivlpkoqn.py":77:4)
#loc91 = loc(callsite(#loc62 at #loc63))
#loc92 = loc(callsite(#loc64 at #loc63))
#loc93 = loc(callsite(#loc65 at #loc63))
#loc94 = loc(callsite(#loc66 at #loc63))
#loc95 = loc(callsite(#loc62 at #loc67))
#loc96 = loc(callsite(#loc64 at #loc67))
#loc97 = loc(callsite(#loc65 at #loc67))
#loc98 = loc(callsite(#loc66 at #loc67))
#loc99 = loc(callsite(#loc62 at #loc68))
#loc100 = loc(callsite(#loc64 at #loc68))
#loc101 = loc(callsite(#loc65 at #loc68))
#loc102 = loc(callsite(#loc66 at #loc68))
#loc103 = loc(callsite(#loc62 at #loc69))
#loc104 = loc(callsite(#loc64 at #loc69))
#loc105 = loc(callsite(#loc65 at #loc69))
#loc106 = loc(callsite(#loc66 at #loc69))
#loc107 = loc(callsite(#loc62 at #loc70))
#loc108 = loc(callsite(#loc64 at #loc70))
#loc109 = loc(callsite(#loc65 at #loc70))
#loc110 = loc(callsite(#loc66 at #loc70))
#loc111 = loc(callsite(#loc62 at #loc71))
#loc112 = loc(callsite(#loc64 at #loc71))
#loc113 = loc(callsite(#loc65 at #loc71))
#loc114 = loc(callsite(#loc66 at #loc71))
#loc115 = loc(callsite(#loc62 at #loc72))
#loc116 = loc(callsite(#loc64 at #loc72))
#loc117 = loc(callsite(#loc65 at #loc72))
#loc118 = loc(callsite(#loc66 at #loc72))
#loc119 = loc(callsite(#loc62 at #loc73))
#loc120 = loc(callsite(#loc64 at #loc73))
#loc121 = loc(callsite(#loc65 at #loc73))
#loc122 = loc(callsite(#loc66 at #loc73))
