#loc = loc("inductor_cache/a7/ca7i37b5knpqkhy5qepghlytbf5fyn5qwik2wjufwzeacaedh7qb.py":19:0)
#loc1 = loc(unknown)
#loc12 = loc("inductor_cache/a7/ca7i37b5knpqkhy5qepghlytbf5fyn5qwik2wjufwzeacaedh7qb.py":36:37)
#loc22 = loc("inductor_cache/a7/ca7i37b5knpqkhy5qepghlytbf5fyn5qwik2wjufwzeacaedh7qb.py":42:26)
#loc30 = loc(callsite(#loc1 at #loc12))
#loc36 = loc(callsite(#loc1 at #loc22))
module {
  tt.func public @triton_per_fused__softmax_0(%arg0: !tt.ptr<f32> {tt.divisibility = 16 : i32} loc("inductor_cache/a7/ca7i37b5knpqkhy5qepghlytbf5fyn5qwik2wjufwzeacaedh7qb.py":19:0), %arg1: !tt.ptr<f32> {tt.divisibility = 16 : i32} loc("inductor_cache/a7/ca7i37b5knpqkhy5qepghlytbf5fyn5qwik2wjufwzeacaedh7qb.py":19:0), %arg2: i32 {tt.divisibility = 16 : i32} loc("inductor_cache/a7/ca7i37b5knpqkhy5qepghlytbf5fyn5qwik2wjufwzeacaedh7qb.py":19:0), %arg3: i32 {tt.divisibility = 16 : i32} loc("inductor_cache/a7/ca7i37b5knpqkhy5qepghlytbf5fyn5qwik2wjufwzeacaedh7qb.py":19:0)) attributes {noinline = false} {
    %c16_i32 = arith.constant 16 : i32 loc(#loc1)
    %cst = arith.constant dense<0xFF800000> : tensor<1x16xf32> loc(#loc1)
    %cst_0 = arith.constant dense<0.000000e+00> : tensor<1x16xf32> loc(#loc1)
    %0 = tt.get_program_id x : i32 loc(#loc2)
    %1 = arith.cmpi slt, %0, %c16_i32 : i32 loc(#loc3)
    %2 = tt.make_range {end = 16 : i32, start = 0 : i32} : tensor<16xi32> loc(#loc4)
    %3 = tt.expand_dims %2 {axis = 0 : i32} : tensor<16xi32> -> tensor<1x16xi32> loc(#loc5)
    %4 = arith.muli %0, %c16_i32 : i32 loc(#loc6)
    %5 = tt.splat %4 : i32 -> tensor<1x16xi32> loc(#loc7)
    %6 = arith.addi %3, %5 : tensor<1x16xi32> loc(#loc7)
    %7 = tt.splat %arg0 : !tt.ptr<f32> -> tensor<1x16x!tt.ptr<f32>> loc(#loc8)
    %8 = tt.addptr %7, %6 : tensor<1x16x!tt.ptr<f32>>, tensor<1x16xi32> loc(#loc8)
    %9 = tt.splat %1 : i1 -> tensor<1x16xi1> loc(#loc9)
    %10 = tt.load %8, %9, %cst_0 : tensor<1x16x!tt.ptr<f32>> loc(#loc9)
    %11 = arith.select %9, %10, %cst : tensor<1x16xi1>, tensor<1x16xf32> loc(#loc10)
    %12 = "tt.reduce"(%11) <{axis = 1 : i32}> ({
    ^bb0(%arg4: f32 loc(callsite(#loc1 at #loc12)), %arg5: f32 loc(callsite(#loc1 at #loc12))):
      %24 = arith.cmpf ogt, %arg4, %arg5 : f32 loc(#loc38)
      %25 = arith.cmpf une, %arg4, %arg4 : f32 loc(#loc39)
      %26 = arith.ori %24, %25 : i1 loc(#loc40)
      %27 = arith.select %26, %arg4, %arg5 : f32 loc(#loc41)
      tt.reduce.return %27 : f32 loc(#loc29)
    }) : (tensor<1x16xf32>) -> tensor<1xf32> loc(#loc29)
    %13 = tt.expand_dims %12 {axis = 1 : i32} : tensor<1xf32> -> tensor<1x1xf32> loc(#loc17)
    %14 = tt.broadcast %13 : tensor<1x1xf32> -> tensor<1x16xf32> loc(#loc18)
    %15 = arith.subf %10, %14 : tensor<1x16xf32> loc(#loc18)
    %16 = math.exp %15 : tensor<1x16xf32> loc(#loc19)
    %17 = arith.select %9, %16, %cst_0 : tensor<1x16xi1>, tensor<1x16xf32> loc(#loc20)
    %18 = "tt.reduce"(%17) <{axis = 1 : i32}> ({
    ^bb0(%arg4: f32 loc(callsite(#loc1 at #loc22)), %arg5: f32 loc(callsite(#loc1 at #loc22))):
      %24 = arith.addf %arg4, %arg5 : f32 loc(#loc42)
      tt.reduce.return %24 : f32 loc(#loc35)
    }) : (tensor<1x16xf32>) -> tensor<1xf32> loc(#loc35)
    %19 = tt.expand_dims %18 {axis = 1 : i32} : tensor<1xf32> -> tensor<1x1xf32> loc(#loc24)
    %20 = tt.broadcast %19 : tensor<1x1xf32> -> tensor<1x16xf32> loc(#loc25)
    %21 = arith.divf %16, %20 : tensor<1x16xf32> loc(#loc25)
    %22 = tt.splat %arg1 : !tt.ptr<f32> -> tensor<1x16x!tt.ptr<f32>> loc(#loc26)
    %23 = tt.addptr %22, %6 : tensor<1x16x!tt.ptr<f32>>, tensor<1x16xi32> loc(#loc26)
    tt.store %23, %21, %9 : tensor<1x16x!tt.ptr<f32>> loc(#loc27)
    tt.return loc(#loc28)
  } loc(#loc)
} loc(#loc)
#loc2 = loc("inductor_cache/a7/ca7i37b5knpqkhy5qepghlytbf5fyn5qwik2wjufwzeacaedh7qb.py":23:28)
#loc3 = loc("inductor_cache/a7/ca7i37b5knpqkhy5qepghlytbf5fyn5qwik2wjufwzeacaedh7qb.py":25:21)
#loc4 = loc("inductor_cache/a7/ca7i37b5knpqkhy5qepghlytbf5fyn5qwik2wjufwzeacaedh7qb.py":26:26)
#loc5 = loc("inductor_cache/a7/ca7i37b5knpqkhy5qepghlytbf5fyn5qwik2wjufwzeacaedh7qb.py":26:34)
#loc6 = loc("inductor_cache/a7/ca7i37b5knpqkhy5qepghlytbf5fyn5qwik2wjufwzeacaedh7qb.py":31:38)
#loc7 = loc("inductor_cache/a7/ca7i37b5knpqkhy5qepghlytbf5fyn5qwik2wjufwzeacaedh7qb.py":31:35)
#loc8 = loc("inductor_cache/a7/ca7i37b5knpqkhy5qepghlytbf5fyn5qwik2wjufwzeacaedh7qb.py":31:30)
#loc9 = loc("inductor_cache/a7/ca7i37b5knpqkhy5qepghlytbf5fyn5qwik2wjufwzeacaedh7qb.py":31:43)
#loc10 = loc("inductor_cache/a7/ca7i37b5knpqkhy5qepghlytbf5fyn5qwik2wjufwzeacaedh7qb.py":35:33)
#loc11 = loc("/home/sahanp/.conda/envs/parity-bench/lib/python3.12/site-packages/torch/_inductor/runtime/triton_helpers.py":131:29)
#loc13 = loc("/home/sahanp/.conda/envs/parity-bench/lib/python3.12/site-packages/torch/_inductor/runtime/triton_helpers.py":118:15)
#loc14 = loc("/home/sahanp/.conda/envs/parity-bench/lib/python3.12/site-packages/torch/_inductor/runtime/triton_helpers.py":120:21)
#loc15 = loc("/home/sahanp/.conda/envs/parity-bench/lib/python3.12/site-packages/torch/_inductor/runtime/triton_helpers.py":120:16)
#loc16 = loc("/home/sahanp/.conda/envs/parity-bench/lib/python3.12/site-packages/torch/_inductor/runtime/triton_helpers.py":121:29)
#loc17 = loc("inductor_cache/a7/ca7i37b5knpqkhy5qepghlytbf5fyn5qwik2wjufwzeacaedh7qb.py":36:40)
#loc18 = loc("inductor_cache/a7/ca7i37b5knpqkhy5qepghlytbf5fyn5qwik2wjufwzeacaedh7qb.py":37:18)
#loc19 = loc("inductor_cache/a7/ca7i37b5knpqkhy5qepghlytbf5fyn5qwik2wjufwzeacaedh7qb.py":39:23)
#loc20 = loc("inductor_cache/a7/ca7i37b5knpqkhy5qepghlytbf5fyn5qwik2wjufwzeacaedh7qb.py":41:35)
#loc21 = loc("/home/sahanp/.conda/envs/parity-bench/lib/python3.12/site-packages/triton/language/standard.py":267:36)
#loc23 = loc("/home/sahanp/.conda/envs/parity-bench/lib/python3.12/site-packages/triton/language/standard.py":256:15)
#loc24 = loc("inductor_cache/a7/ca7i37b5knpqkhy5qepghlytbf5fyn5qwik2wjufwzeacaedh7qb.py":42:29)
#loc25 = loc("inductor_cache/a7/ca7i37b5knpqkhy5qepghlytbf5fyn5qwik2wjufwzeacaedh7qb.py":43:19)
#loc26 = loc("inductor_cache/a7/ca7i37b5knpqkhy5qepghlytbf5fyn5qwik2wjufwzeacaedh7qb.py":44:25)
#loc27 = loc("inductor_cache/a7/ca7i37b5knpqkhy5qepghlytbf5fyn5qwik2wjufwzeacaedh7qb.py":44:45)
#loc28 = loc("inductor_cache/a7/ca7i37b5knpqkhy5qepghlytbf5fyn5qwik2wjufwzeacaedh7qb.py":44:4)
#loc29 = loc(callsite(#loc11 at #loc12))
#loc31 = loc(callsite(#loc13 at #loc11))
#loc32 = loc(callsite(#loc14 at #loc11))
#loc33 = loc(callsite(#loc15 at #loc11))
#loc34 = loc(callsite(#loc16 at #loc11))
#loc35 = loc(callsite(#loc21 at #loc22))
#loc37 = loc(callsite(#loc23 at #loc21))
#loc38 = loc(callsite(#loc31 at #loc12))
#loc39 = loc(callsite(#loc32 at #loc12))
#loc40 = loc(callsite(#loc33 at #loc12))
#loc41 = loc(callsite(#loc34 at #loc12))
#loc42 = loc(callsite(#loc37 at #loc22))
