#loc = loc("inductor_cache/dy/cdykkn5hopi42so23zatyrrdcqqncoyslqgz272msl6ha4uxawfe.py":19:0)
module {
  tt.func public @triton_poi_fused__unsafe_index_add_cat_leaky_relu_25(%arg0: !tt.ptr<i64> {tt.divisibility = 16 : i32} loc("inductor_cache/dy/cdykkn5hopi42so23zatyrrdcqqncoyslqgz272msl6ha4uxawfe.py":19:0), %arg1: !tt.ptr<f32> {tt.divisibility = 16 : i32} loc("inductor_cache/dy/cdykkn5hopi42so23zatyrrdcqqncoyslqgz272msl6ha4uxawfe.py":19:0), %arg2: !tt.ptr<f32> {tt.divisibility = 16 : i32} loc("inductor_cache/dy/cdykkn5hopi42so23zatyrrdcqqncoyslqgz272msl6ha4uxawfe.py":19:0), %arg3: !tt.ptr<f32> {tt.divisibility = 16 : i32} loc("inductor_cache/dy/cdykkn5hopi42so23zatyrrdcqqncoyslqgz272msl6ha4uxawfe.py":19:0), %arg4: !tt.ptr<f32> {tt.divisibility = 16 : i32} loc("inductor_cache/dy/cdykkn5hopi42so23zatyrrdcqqncoyslqgz272msl6ha4uxawfe.py":19:0), %arg5: i32 {tt.divisibility = 16 : i32} loc("inductor_cache/dy/cdykkn5hopi42so23zatyrrdcqqncoyslqgz272msl6ha4uxawfe.py":19:0)) attributes {noinline = false} {
    %cst = arith.constant dense<0> : tensor<512xi64> loc(#loc1)
    %cst_0 = arith.constant dense<4096> : tensor<512xi32> loc(#loc1)
    %cst_1 = arith.constant dense<-48> : tensor<512xi32> loc(#loc1)
    %cst_2 = arith.constant dense<12288> : tensor<512xi32> loc(#loc1)
    %cst_3 = arith.constant dense<48> : tensor<512xi64> loc(#loc1)
    %cst_4 = arith.constant dense<2.000000e-01> : tensor<512xf32> loc(#loc1)
    %cst_5 = arith.constant dense<0.000000e+00> : tensor<512xf32> loc(#loc1)
    %cst_6 = arith.constant dense<8> : tensor<512xi64> loc(#loc1)
    %cst_7 = arith.constant dense<16384> : tensor<512xi32> loc(#loc1)
    %cst_8 = arith.constant dense<64> : tensor<512xi32> loc(#loc1)
    %cst_9 = arith.constant dense<256> : tensor<512xi32> loc(#loc1)
    %cst_10 = arith.constant dense<16> : tensor<512xi32> loc(#loc1)
    %c512_i32 = arith.constant 512 : i32 loc(#loc1)
    %0 = tt.get_program_id x : i32 loc(#loc2)
    %1 = arith.muli %0, %c512_i32 : i32 loc(#loc3)
    %2 = tt.make_range {end = 512 : i32, start = 0 : i32} : tensor<512xi32> loc(#loc4)
    %3 = tt.splat %1 : i32 -> tensor<512xi32> loc(#loc5)
    %4 = arith.addi %3, %2 : tensor<512xi32> loc(#loc5)
    %5 = arith.divsi %4, %cst_10 : tensor<512xi32> loc(#loc6)
    %6 = arith.remsi %5, %cst_10 : tensor<512xi32> loc(#loc7)
    %7 = arith.remsi %4, %cst_10 : tensor<512xi32> loc(#loc8)
    %8 = arith.divsi %4, %cst_9 : tensor<512xi32> loc(#loc9)
    %9 = arith.remsi %8, %cst_8 : tensor<512xi32> loc(#loc10)
    %10 = arith.divsi %4, %cst_7 : tensor<512xi32> loc(#loc11)
    %11 = arith.remsi %4, %cst_9 : tensor<512xi32> loc(#loc12)
    %12 = tt.splat %arg0 : !tt.ptr<i64> -> tensor<512x!tt.ptr<i64>> loc(#loc13)
    %13 = tt.addptr %12, %6 : tensor<512x!tt.ptr<i64>>, tensor<512xi32> loc(#loc13)
    %14 = tt.load %13 evictionPolicy = evict_last : tensor<512x!tt.ptr<i64>> loc(#loc14)
    %15 = tt.addptr %12, %7 : tensor<512x!tt.ptr<i64>>, tensor<512xi32> loc(#loc15)
    %16 = tt.load %15 evictionPolicy = evict_last : tensor<512x!tt.ptr<i64>> loc(#loc16)
    %17 = arith.addi %14, %cst_6 : tensor<512xi64> loc(#loc17)
    %18 = arith.cmpi slt, %14, %cst : tensor<512xi64> loc(#loc18)
    %19 = arith.select %18, %17, %14 : tensor<512xi1>, tensor<512xi64> loc(#loc19)
    %20 = arith.addi %16, %cst_6 : tensor<512xi64> loc(#loc20)
    %21 = arith.cmpi slt, %16, %cst : tensor<512xi64> loc(#loc21)
    %22 = arith.select %21, %20, %16 : tensor<512xi1>, tensor<512xi64> loc(#loc22)
    %23 = arith.muli %19, %cst_6 : tensor<512xi64> loc(#loc23)
    %24 = arith.addi %22, %23 : tensor<512xi64> loc(#loc24)
    %25 = arith.muli %8, %cst_8 : tensor<512xi32> loc(#loc25)
    %26 = arith.extsi %25 : tensor<512xi32> to tensor<512xi64> loc(#loc26)
    %27 = arith.addi %24, %26 : tensor<512xi64> loc(#loc26)
    %28 = tt.splat %arg1 : !tt.ptr<f32> -> tensor<512x!tt.ptr<f32>> loc(#loc27)
    %29 = tt.addptr %28, %27 : tensor<512x!tt.ptr<f32>>, tensor<512xi64> loc(#loc27)
    %30 = tt.load %29 evictionPolicy = evict_last : tensor<512x!tt.ptr<f32>> loc(#loc28)
    %31 = arith.cmpf ogt, %30, %cst_5 : tensor<512xf32> loc(#loc29)
    %32 = arith.mulf %30, %cst_4 : tensor<512xf32> loc(#loc30)
    %33 = arith.select %31, %30, %32 : tensor<512xi1>, tensor<512xf32> loc(#loc31)
    %34 = arith.extsi %9 : tensor<512xi32> to tensor<512xi64> loc(#loc32)
    %35 = arith.cmpi slt, %34, %cst_3 : tensor<512xi64> loc(#loc32)
    %36 = arith.muli %9, %cst_9 : tensor<512xi32> loc(#loc33)
    %37 = arith.addi %11, %36 : tensor<512xi32> loc(#loc34)
    %38 = arith.muli %10, %cst_2 : tensor<512xi32> loc(#loc35)
    %39 = arith.addi %37, %38 : tensor<512xi32> loc(#loc36)
    %40 = tt.splat %arg2 : !tt.ptr<f32> -> tensor<512x!tt.ptr<f32>> loc(#loc37)
    %41 = tt.addptr %40, %39 : tensor<512x!tt.ptr<f32>>, tensor<512xi32> loc(#loc37)
    %42 = tt.load %41, %35, %cst_5 : tensor<512x!tt.ptr<f32>> loc(#loc38)
    %43 = arith.cmpi sge, %34, %cst_3 : tensor<512xi64> loc(#loc39)
    %44 = arith.addi %9, %cst_1 : tensor<512xi32> loc(#loc40)
    %45 = arith.muli %44, %cst_9 : tensor<512xi32> loc(#loc41)
    %46 = arith.addi %11, %45 : tensor<512xi32> loc(#loc42)
    %47 = arith.muli %10, %cst_0 : tensor<512xi32> loc(#loc43)
    %48 = arith.addi %46, %47 : tensor<512xi32> loc(#loc44)
    %49 = tt.splat %arg3 : !tt.ptr<f32> -> tensor<512x!tt.ptr<f32>> loc(#loc45)
    %50 = tt.addptr %49, %48 : tensor<512x!tt.ptr<f32>>, tensor<512xi32> loc(#loc45)
    %51 = tt.load %50, %43, %cst_5 : tensor<512x!tt.ptr<f32>> loc(#loc46)
    %52 = arith.select %35, %42, %51 : tensor<512xi1>, tensor<512xf32> loc(#loc47)
    %53 = arith.addf %33, %52 : tensor<512xf32> loc(#loc48)
    %54 = tt.splat %arg4 : !tt.ptr<f32> -> tensor<512x!tt.ptr<f32>> loc(#loc49)
    %55 = tt.addptr %54, %4 : tensor<512x!tt.ptr<f32>>, tensor<512xi32> loc(#loc49)
    tt.store %55, %53 : tensor<512x!tt.ptr<f32>> loc(#loc50)
    tt.return loc(#loc51)
  } loc(#loc)
} loc(#loc)
#loc1 = loc(unknown)
#loc2 = loc("inductor_cache/dy/cdykkn5hopi42so23zatyrrdcqqncoyslqgz272msl6ha4uxawfe.py":21:28)
#loc3 = loc("inductor_cache/dy/cdykkn5hopi42so23zatyrrdcqqncoyslqgz272msl6ha4uxawfe.py":21:33)
#loc4 = loc("inductor_cache/dy/cdykkn5hopi42so23zatyrrdcqqncoyslqgz272msl6ha4uxawfe.py":22:36)
#loc5 = loc("inductor_cache/dy/cdykkn5hopi42so23zatyrrdcqqncoyslqgz272msl6ha4uxawfe.py":22:23)
#loc6 = loc("inductor_cache/dy/cdykkn5hopi42so23zatyrrdcqqncoyslqgz272msl6ha4uxawfe.py":24:21)
#loc7 = loc("inductor_cache/dy/cdykkn5hopi42so23zatyrrdcqqncoyslqgz272msl6ha4uxawfe.py":24:27)
#loc8 = loc("inductor_cache/dy/cdykkn5hopi42so23zatyrrdcqqncoyslqgz272msl6ha4uxawfe.py":25:19)
#loc9 = loc("inductor_cache/dy/cdykkn5hopi42so23zatyrrdcqqncoyslqgz272msl6ha4uxawfe.py":26:19)
#loc10 = loc("inductor_cache/dy/cdykkn5hopi42so23zatyrrdcqqncoyslqgz272msl6ha4uxawfe.py":27:28)
#loc11 = loc("inductor_cache/dy/cdykkn5hopi42so23zatyrrdcqqncoyslqgz272msl6ha4uxawfe.py":28:19)
#loc12 = loc("inductor_cache/dy/cdykkn5hopi42so23zatyrrdcqqncoyslqgz272msl6ha4uxawfe.py":29:19)
#loc13 = loc("inductor_cache/dy/cdykkn5hopi42so23zatyrrdcqqncoyslqgz272msl6ha4uxawfe.py":31:30)
#loc14 = loc("inductor_cache/dy/cdykkn5hopi42so23zatyrrdcqqncoyslqgz272msl6ha4uxawfe.py":31:35)
#loc15 = loc("inductor_cache/dy/cdykkn5hopi42so23zatyrrdcqqncoyslqgz272msl6ha4uxawfe.py":32:30)
#loc16 = loc("inductor_cache/dy/cdykkn5hopi42so23zatyrrdcqqncoyslqgz272msl6ha4uxawfe.py":32:35)
#loc17 = loc("inductor_cache/dy/cdykkn5hopi42so23zatyrrdcqqncoyslqgz272msl6ha4uxawfe.py":34:18)
#loc18 = loc("inductor_cache/dy/cdykkn5hopi42so23zatyrrdcqqncoyslqgz272msl6ha4uxawfe.py":35:18)
#loc19 = loc("inductor_cache/dy/cdykkn5hopi42so23zatyrrdcqqncoyslqgz272msl6ha4uxawfe.py":36:32)
#loc20 = loc("inductor_cache/dy/cdykkn5hopi42so23zatyrrdcqqncoyslqgz272msl6ha4uxawfe.py":37:18)
#loc21 = loc("inductor_cache/dy/cdykkn5hopi42so23zatyrrdcqqncoyslqgz272msl6ha4uxawfe.py":38:18)
#loc22 = loc("inductor_cache/dy/cdykkn5hopi42so23zatyrrdcqqncoyslqgz272msl6ha4uxawfe.py":39:32)
#loc23 = loc("inductor_cache/dy/cdykkn5hopi42so23zatyrrdcqqncoyslqgz272msl6ha4uxawfe.py":40:39)
#loc24 = loc("inductor_cache/dy/cdykkn5hopi42so23zatyrrdcqqncoyslqgz272msl6ha4uxawfe.py":40:37)
#loc25 = loc("inductor_cache/dy/cdykkn5hopi42so23zatyrrdcqqncoyslqgz272msl6ha4uxawfe.py":40:49)
#loc26 = loc("inductor_cache/dy/cdykkn5hopi42so23zatyrrdcqqncoyslqgz272msl6ha4uxawfe.py":40:46)
#loc27 = loc("inductor_cache/dy/cdykkn5hopi42so23zatyrrdcqqncoyslqgz272msl6ha4uxawfe.py":40:30)
#loc28 = loc("inductor_cache/dy/cdykkn5hopi42so23zatyrrdcqqncoyslqgz272msl6ha4uxawfe.py":40:54)
#loc29 = loc("inductor_cache/dy/cdykkn5hopi42so23zatyrrdcqqncoyslqgz272msl6ha4uxawfe.py":42:19)
#loc30 = loc("inductor_cache/dy/cdykkn5hopi42so23zatyrrdcqqncoyslqgz272msl6ha4uxawfe.py":44:19)
#loc31 = loc("inductor_cache/dy/cdykkn5hopi42so23zatyrrdcqqncoyslqgz272msl6ha4uxawfe.py":45:34)
#loc32 = loc("inductor_cache/dy/cdykkn5hopi42so23zatyrrdcqqncoyslqgz272msl6ha4uxawfe.py":50:20)
#loc33 = loc("inductor_cache/dy/cdykkn5hopi42so23zatyrrdcqqncoyslqgz272msl6ha4uxawfe.py":51:41)
#loc34 = loc("inductor_cache/dy/cdykkn5hopi42so23zatyrrdcqqncoyslqgz272msl6ha4uxawfe.py":51:36)
#loc35 = loc("inductor_cache/dy/cdykkn5hopi42so23zatyrrdcqqncoyslqgz272msl6ha4uxawfe.py":51:53)
#loc36 = loc("inductor_cache/dy/cdykkn5hopi42so23zatyrrdcqqncoyslqgz272msl6ha4uxawfe.py":51:47)
#loc37 = loc("inductor_cache/dy/cdykkn5hopi42so23zatyrrdcqqncoyslqgz272msl6ha4uxawfe.py":51:31)
#loc38 = loc("inductor_cache/dy/cdykkn5hopi42so23zatyrrdcqqncoyslqgz272msl6ha4uxawfe.py":51:58)
#loc39 = loc("inductor_cache/dy/cdykkn5hopi42so23zatyrrdcqqncoyslqgz272msl6ha4uxawfe.py":52:21)
#loc40 = loc("inductor_cache/dy/cdykkn5hopi42so23zatyrrdcqqncoyslqgz272msl6ha4uxawfe.py":55:49)
#loc41 = loc("inductor_cache/dy/cdykkn5hopi42so23zatyrrdcqqncoyslqgz272msl6ha4uxawfe.py":55:41)
#loc42 = loc("inductor_cache/dy/cdykkn5hopi42so23zatyrrdcqqncoyslqgz272msl6ha4uxawfe.py":55:36)
#loc43 = loc("inductor_cache/dy/cdykkn5hopi42so23zatyrrdcqqncoyslqgz272msl6ha4uxawfe.py":55:60)
#loc44 = loc("inductor_cache/dy/cdykkn5hopi42so23zatyrrdcqqncoyslqgz272msl6ha4uxawfe.py":55:55)
#loc45 = loc("inductor_cache/dy/cdykkn5hopi42so23zatyrrdcqqncoyslqgz272msl6ha4uxawfe.py":55:31)
#loc46 = loc("inductor_cache/dy/cdykkn5hopi42so23zatyrrdcqqncoyslqgz272msl6ha4uxawfe.py":55:65)
#loc47 = loc("inductor_cache/dy/cdykkn5hopi42so23zatyrrdcqqncoyslqgz272msl6ha4uxawfe.py":56:35)
#loc48 = loc("inductor_cache/dy/cdykkn5hopi42so23zatyrrdcqqncoyslqgz272msl6ha4uxawfe.py":57:20)
#loc49 = loc("inductor_cache/dy/cdykkn5hopi42so23zatyrrdcqqncoyslqgz272msl6ha4uxawfe.py":58:25)
#loc50 = loc("inductor_cache/dy/cdykkn5hopi42so23zatyrrdcqqncoyslqgz272msl6ha4uxawfe.py":58:37)
#loc51 = loc("inductor_cache/dy/cdykkn5hopi42so23zatyrrdcqqncoyslqgz272msl6ha4uxawfe.py":58:4)
