#loc = loc("inductor_cache/hw/chwee6uk6t2b5zx6khdlfd6m5yc2mnrnjome6x4lhyp36cyp6wfr.py":19:0)
module {
  tt.func public @triton_poi_fused__softmax_div_masked_fill_3(%arg0: !tt.ptr<f32> {tt.divisibility = 16 : i32} loc("inductor_cache/hw/chwee6uk6t2b5zx6khdlfd6m5yc2mnrnjome6x4lhyp36cyp6wfr.py":19:0), %arg1: !tt.ptr<i1> {tt.divisibility = 16 : i32} loc("inductor_cache/hw/chwee6uk6t2b5zx6khdlfd6m5yc2mnrnjome6x4lhyp36cyp6wfr.py":19:0), %arg2: !tt.ptr<f32> {tt.divisibility = 16 : i32} loc("inductor_cache/hw/chwee6uk6t2b5zx6khdlfd6m5yc2mnrnjome6x4lhyp36cyp6wfr.py":19:0), %arg3: !tt.ptr<f32> {tt.divisibility = 16 : i32} loc("inductor_cache/hw/chwee6uk6t2b5zx6khdlfd6m5yc2mnrnjome6x4lhyp36cyp6wfr.py":19:0), %arg4: !tt.ptr<f32> {tt.divisibility = 16 : i32} loc("inductor_cache/hw/chwee6uk6t2b5zx6khdlfd6m5yc2mnrnjome6x4lhyp36cyp6wfr.py":19:0), %arg5: i32 {tt.divisibility = 16 : i32} loc("inductor_cache/hw/chwee6uk6t2b5zx6khdlfd6m5yc2mnrnjome6x4lhyp36cyp6wfr.py":19:0)) attributes {noinline = false} {
    %cst = arith.constant dense<-1.000000e+10> : tensor<256xf32> loc(#loc1)
    %c0_i32 = arith.constant 0 : i32 loc(#loc1)
    %cst_0 = arith.constant dense<0> : tensor<256xi8> loc(#loc1)
    %cst_1 = arith.constant dense<4> : tensor<256xi32> loc(#loc1)
    %cst_2 = arith.constant dense<64> : tensor<256xi32> loc(#loc1)
    %cst_3 = arith.constant dense<256> : tensor<256xi32> loc(#loc1)
    %c256_i32 = arith.constant 256 : i32 loc(#loc1)
    %0 = tt.get_program_id x : i32 loc(#loc2)
    %1 = arith.muli %0, %c256_i32 : i32 loc(#loc3)
    %2 = tt.make_range {end = 256 : i32, start = 0 : i32} : tensor<256xi32> loc(#loc4)
    %3 = tt.splat %1 : i32 -> tensor<256xi32> loc(#loc5)
    %4 = arith.addi %3, %2 : tensor<256xi32> loc(#loc5)
    %5 = arith.cmpi slt, %4, %cst_3 : tensor<256xi32> loc(#loc6)
    %6 = arith.remsi %4, %cst_2 : tensor<256xi32> loc(#loc7)
    %7 = arith.divsi %4, %cst_1 : tensor<256xi32> loc(#loc8)
    %8 = tt.splat %arg1 : !tt.ptr<i1> -> tensor<256x!tt.ptr<i1>> loc(#loc9)
    %9 = tt.addptr %8, %6 : tensor<256x!tt.ptr<i1>>, tensor<256xi32> loc(#loc9)
    %10 = tt.bitcast %9 : tensor<256x!tt.ptr<i1>> -> tensor<256x!tt.ptr<i8>> loc(#loc10)
    %11 = tt.load %10, %5 evictionPolicy = evict_last : tensor<256x!tt.ptr<i8>> loc(#loc10)
    %12 = arith.cmpi ne, %11, %cst_0 : tensor<256xi8> loc(#loc10)
    %13 = tt.splat %arg0 : !tt.ptr<f32> -> tensor<256x!tt.ptr<f32>> loc(#loc11)
    %14 = tt.addptr %13, %4 : tensor<256x!tt.ptr<f32>>, tensor<256xi32> loc(#loc11)
    %15 = tt.load %14, %5 : tensor<256x!tt.ptr<f32>> loc(#loc12)
    %16 = tt.addptr %arg2, %c0_i32 : !tt.ptr<f32>, i32 loc(#loc13)
    %17 = tt.load %16 : !tt.ptr<f32> loc(#loc14)
    %18 = tt.splat %17 : f32 -> tensor<256xf32> loc(#loc15)
    %19 = tt.splat %arg3 : !tt.ptr<f32> -> tensor<256x!tt.ptr<f32>> loc(#loc16)
    %20 = tt.addptr %19, %7 : tensor<256x!tt.ptr<f32>>, tensor<256xi32> loc(#loc16)
    %21 = tt.load %20, %5 evictionPolicy = evict_last : tensor<256x!tt.ptr<f32>> loc(#loc17)
    %22 = tt.splat %arg4 : !tt.ptr<f32> -> tensor<256x!tt.ptr<f32>> loc(#loc18)
    %23 = tt.addptr %22, %7 : tensor<256x!tt.ptr<f32>>, tensor<256xi32> loc(#loc18)
    %24 = tt.load %23, %5 evictionPolicy = evict_last : tensor<256x!tt.ptr<f32>> loc(#loc19)
    %25 = arith.divf %15, %18 : tensor<256xf32> loc(#loc20)
    %26 = arith.select %12, %cst, %25 : tensor<256xi1>, tensor<256xf32> loc(#loc21)
    %27 = arith.subf %26, %21 : tensor<256xf32> loc(#loc22)
    %28 = math.exp %27 : tensor<256xf32> loc(#loc23)
    %29 = arith.divf %28, %24 : tensor<256xf32> loc(#loc24)
    tt.store %14, %29, %5 : tensor<256x!tt.ptr<f32>> loc(#loc25)
    tt.return loc(#loc26)
  } loc(#loc)
} loc(#loc)
#loc1 = loc(unknown)
#loc2 = loc("inductor_cache/hw/chwee6uk6t2b5zx6khdlfd6m5yc2mnrnjome6x4lhyp36cyp6wfr.py":21:28)
#loc3 = loc("inductor_cache/hw/chwee6uk6t2b5zx6khdlfd6m5yc2mnrnjome6x4lhyp36cyp6wfr.py":21:33)
#loc4 = loc("inductor_cache/hw/chwee6uk6t2b5zx6khdlfd6m5yc2mnrnjome6x4lhyp36cyp6wfr.py":22:36)
#loc5 = loc("inductor_cache/hw/chwee6uk6t2b5zx6khdlfd6m5yc2mnrnjome6x4lhyp36cyp6wfr.py":22:23)
#loc6 = loc("inductor_cache/hw/chwee6uk6t2b5zx6khdlfd6m5yc2mnrnjome6x4lhyp36cyp6wfr.py":23:21)
#loc7 = loc("inductor_cache/hw/chwee6uk6t2b5zx6khdlfd6m5yc2mnrnjome6x4lhyp36cyp6wfr.py":24:19)
#loc8 = loc("inductor_cache/hw/chwee6uk6t2b5zx6khdlfd6m5yc2mnrnjome6x4lhyp36cyp6wfr.py":26:19)
#loc9 = loc("inductor_cache/hw/chwee6uk6t2b5zx6khdlfd6m5yc2mnrnjome6x4lhyp36cyp6wfr.py":27:30)
#loc10 = loc("inductor_cache/hw/chwee6uk6t2b5zx6khdlfd6m5yc2mnrnjome6x4lhyp36cyp6wfr.py":27:35)
#loc11 = loc("inductor_cache/hw/chwee6uk6t2b5zx6khdlfd6m5yc2mnrnjome6x4lhyp36cyp6wfr.py":28:34)
#loc12 = loc("inductor_cache/hw/chwee6uk6t2b5zx6khdlfd6m5yc2mnrnjome6x4lhyp36cyp6wfr.py":28:39)
#loc13 = loc("inductor_cache/hw/chwee6uk6t2b5zx6khdlfd6m5yc2mnrnjome6x4lhyp36cyp6wfr.py":29:30)
#loc14 = loc("inductor_cache/hw/chwee6uk6t2b5zx6khdlfd6m5yc2mnrnjome6x4lhyp36cyp6wfr.py":29:19)
#loc15 = loc("inductor_cache/hw/chwee6uk6t2b5zx6khdlfd6m5yc2mnrnjome6x4lhyp36cyp6wfr.py":30:33)
#loc16 = loc("inductor_cache/hw/chwee6uk6t2b5zx6khdlfd6m5yc2mnrnjome6x4lhyp36cyp6wfr.py":31:30)
#loc17 = loc("inductor_cache/hw/chwee6uk6t2b5zx6khdlfd6m5yc2mnrnjome6x4lhyp36cyp6wfr.py":31:35)
#loc18 = loc("inductor_cache/hw/chwee6uk6t2b5zx6khdlfd6m5yc2mnrnjome6x4lhyp36cyp6wfr.py":32:31)
#loc19 = loc("inductor_cache/hw/chwee6uk6t2b5zx6khdlfd6m5yc2mnrnjome6x4lhyp36cyp6wfr.py":32:36)
#loc20 = loc("inductor_cache/hw/chwee6uk6t2b5zx6khdlfd6m5yc2mnrnjome6x4lhyp36cyp6wfr.py":33:18)
#loc21 = loc("inductor_cache/hw/chwee6uk6t2b5zx6khdlfd6m5yc2mnrnjome6x4lhyp36cyp6wfr.py":35:32)
#loc22 = loc("inductor_cache/hw/chwee6uk6t2b5zx6khdlfd6m5yc2mnrnjome6x4lhyp36cyp6wfr.py":36:18)
#loc23 = loc("inductor_cache/hw/chwee6uk6t2b5zx6khdlfd6m5yc2mnrnjome6x4lhyp36cyp6wfr.py":37:23)
#loc24 = loc("inductor_cache/hw/chwee6uk6t2b5zx6khdlfd6m5yc2mnrnjome6x4lhyp36cyp6wfr.py":38:19)
#loc25 = loc("inductor_cache/hw/chwee6uk6t2b5zx6khdlfd6m5yc2mnrnjome6x4lhyp36cyp6wfr.py":39:40)
#loc26 = loc("inductor_cache/hw/chwee6uk6t2b5zx6khdlfd6m5yc2mnrnjome6x4lhyp36cyp6wfr.py":39:4)
