#loc = loc("inductor_cache/5r/c5rlwyhg4n6abom2yiq7ky7kycg6bplytvo736zzkqdxocqsutfh.py":19:0)
module {
  tt.func public @triton_poi_fused__native_batch_norm_legit_no_training_add_cat_relu_threshold_backward_11(%arg0: !tt.ptr<f32> {tt.divisibility = 16 : i32} loc("inductor_cache/5r/c5rlwyhg4n6abom2yiq7ky7kycg6bplytvo736zzkqdxocqsutfh.py":19:0), %arg1: !tt.ptr<f32> {tt.divisibility = 16 : i32} loc("inductor_cache/5r/c5rlwyhg4n6abom2yiq7ky7kycg6bplytvo736zzkqdxocqsutfh.py":19:0), %arg2: !tt.ptr<f32> {tt.divisibility = 16 : i32} loc("inductor_cache/5r/c5rlwyhg4n6abom2yiq7ky7kycg6bplytvo736zzkqdxocqsutfh.py":19:0), %arg3: !tt.ptr<f32> {tt.divisibility = 16 : i32} loc("inductor_cache/5r/c5rlwyhg4n6abom2yiq7ky7kycg6bplytvo736zzkqdxocqsutfh.py":19:0), %arg4: !tt.ptr<f32> {tt.divisibility = 16 : i32} loc("inductor_cache/5r/c5rlwyhg4n6abom2yiq7ky7kycg6bplytvo736zzkqdxocqsutfh.py":19:0), %arg5: !tt.ptr<f32> {tt.divisibility = 16 : i32} loc("inductor_cache/5r/c5rlwyhg4n6abom2yiq7ky7kycg6bplytvo736zzkqdxocqsutfh.py":19:0), %arg6: !tt.ptr<f32> {tt.divisibility = 16 : i32} loc("inductor_cache/5r/c5rlwyhg4n6abom2yiq7ky7kycg6bplytvo736zzkqdxocqsutfh.py":19:0), %arg7: !tt.ptr<f32> {tt.divisibility = 16 : i32} loc("inductor_cache/5r/c5rlwyhg4n6abom2yiq7ky7kycg6bplytvo736zzkqdxocqsutfh.py":19:0), %arg8: !tt.ptr<f32> {tt.divisibility = 16 : i32} loc("inductor_cache/5r/c5rlwyhg4n6abom2yiq7ky7kycg6bplytvo736zzkqdxocqsutfh.py":19:0), %arg9: !tt.ptr<f32> {tt.divisibility = 16 : i32} loc("inductor_cache/5r/c5rlwyhg4n6abom2yiq7ky7kycg6bplytvo736zzkqdxocqsutfh.py":19:0), %arg10: !tt.ptr<f32> {tt.divisibility = 16 : i32} loc("inductor_cache/5r/c5rlwyhg4n6abom2yiq7ky7kycg6bplytvo736zzkqdxocqsutfh.py":19:0), %arg11: !tt.ptr<f32> {tt.divisibility = 16 : i32} loc("inductor_cache/5r/c5rlwyhg4n6abom2yiq7ky7kycg6bplytvo736zzkqdxocqsutfh.py":19:0), %arg12: !tt.ptr<f32> {tt.divisibility = 16 : i32} loc("inductor_cache/5r/c5rlwyhg4n6abom2yiq7ky7kycg6bplytvo736zzkqdxocqsutfh.py":19:0), %arg13: !tt.ptr<f32> {tt.divisibility = 16 : i32} loc("inductor_cache/5r/c5rlwyhg4n6abom2yiq7ky7kycg6bplytvo736zzkqdxocqsutfh.py":19:0), %arg14: !tt.ptr<f32> {tt.divisibility = 16 : i32} loc("inductor_cache/5r/c5rlwyhg4n6abom2yiq7ky7kycg6bplytvo736zzkqdxocqsutfh.py":19:0), %arg15: !tt.ptr<f32> {tt.divisibility = 16 : i32} loc("inductor_cache/5r/c5rlwyhg4n6abom2yiq7ky7kycg6bplytvo736zzkqdxocqsutfh.py":19:0), %arg16: !tt.ptr<f32> {tt.divisibility = 16 : i32} loc("inductor_cache/5r/c5rlwyhg4n6abom2yiq7ky7kycg6bplytvo736zzkqdxocqsutfh.py":19:0), %arg17: !tt.ptr<f32> {tt.divisibility = 16 : i32} loc("inductor_cache/5r/c5rlwyhg4n6abom2yiq7ky7kycg6bplytvo736zzkqdxocqsutfh.py":19:0), %arg18: !tt.ptr<f32> {tt.divisibility = 16 : i32} loc("inductor_cache/5r/c5rlwyhg4n6abom2yiq7ky7kycg6bplytvo736zzkqdxocqsutfh.py":19:0), %arg19: !tt.ptr<f32> {tt.divisibility = 16 : i32} loc("inductor_cache/5r/c5rlwyhg4n6abom2yiq7ky7kycg6bplytvo736zzkqdxocqsutfh.py":19:0), %arg20: !tt.ptr<f32> {tt.divisibility = 16 : i32} loc("inductor_cache/5r/c5rlwyhg4n6abom2yiq7ky7kycg6bplytvo736zzkqdxocqsutfh.py":19:0), %arg21: !tt.ptr<f32> {tt.divisibility = 16 : i32} loc("inductor_cache/5r/c5rlwyhg4n6abom2yiq7ky7kycg6bplytvo736zzkqdxocqsutfh.py":19:0), %arg22: !tt.ptr<f32> {tt.divisibility = 16 : i32} loc("inductor_cache/5r/c5rlwyhg4n6abom2yiq7ky7kycg6bplytvo736zzkqdxocqsutfh.py":19:0), %arg23: !tt.ptr<f32> {tt.divisibility = 16 : i32} loc("inductor_cache/5r/c5rlwyhg4n6abom2yiq7ky7kycg6bplytvo736zzkqdxocqsutfh.py":19:0), %arg24: !tt.ptr<f32> {tt.divisibility = 16 : i32} loc("inductor_cache/5r/c5rlwyhg4n6abom2yiq7ky7kycg6bplytvo736zzkqdxocqsutfh.py":19:0), %arg25: !tt.ptr<f32> {tt.divisibility = 16 : i32} loc("inductor_cache/5r/c5rlwyhg4n6abom2yiq7ky7kycg6bplytvo736zzkqdxocqsutfh.py":19:0), %arg26: !tt.ptr<i1> {tt.divisibility = 16 : i32} loc("inductor_cache/5r/c5rlwyhg4n6abom2yiq7ky7kycg6bplytvo736zzkqdxocqsutfh.py":19:0), %arg27: i32 {tt.divisibility = 16 : i32} loc("inductor_cache/5r/c5rlwyhg4n6abom2yiq7ky7kycg6bplytvo736zzkqdxocqsutfh.py":19:0), %arg28: i32 {tt.divisibility = 16 : i32} loc("inductor_cache/5r/c5rlwyhg4n6abom2yiq7ky7kycg6bplytvo736zzkqdxocqsutfh.py":19:0)) attributes {noinline = false} {
    %cst = arith.constant dense<1.000000e+00> : tensor<1x32xf32> loc(#loc1)
    %cst_0 = arith.constant dense<1.000000e+00> : tensor<32x32xf32> loc(#loc1)
    %cst_1 = arith.constant dense<1024> : tensor<1x32xi32> loc(#loc1)
    %cst_2 = arith.constant dense<9.99999974E-6> : tensor<1x32xf32> loc(#loc1)
    %cst_3 = arith.constant dense<-448> : tensor<1x32xi32> loc(#loc1)
    %cst_4 = arith.constant dense<-384> : tensor<1x32xi32> loc(#loc1)
    %cst_5 = arith.constant dense<65536> : tensor<1x32xi32> loc(#loc1)
    %cst_6 = arith.constant dense<64> : tensor<32x1xi32> loc(#loc1)
    %cst_7 = arith.constant dense<448> : tensor<1x32xi64> loc(#loc1)
    %cst_8 = arith.constant dense<-128> : tensor<1x32xi32> loc(#loc1)
    %cst_9 = arith.constant dense<262144> : tensor<1x32xi32> loc(#loc1)
    %cst_10 = arith.constant dense<256> : tensor<32x1xi32> loc(#loc1)
    %cst_11 = arith.constant dense<384> : tensor<1x32xi64> loc(#loc1)
    %cst_12 = arith.constant dense<9.99999974E-6> : tensor<32x32xf32> loc(#loc1)
    %cst_13 = arith.constant dense<0.000000e+00> : tensor<32x32xf32> loc(#loc1)
    %cst_14 = arith.constant dense<131072> : tensor<1x32xi32> loc(#loc1)
    %cst_15 = arith.constant dense<128> : tensor<32x1xi32> loc(#loc1)
    %cst_16 = arith.constant dense<128> : tensor<1x32xi64> loc(#loc1)
    %cst_17 = arith.constant dense<524288> : tensor<1x32xi32> loc(#loc1)
    %cst_18 = arith.constant dense<512> : tensor<32x1xi32> loc(#loc1)
    %cst_19 = arith.constant dense<512> : tensor<1x32xi32> loc(#loc1)
    %cst_20 = arith.constant dense<1024> : tensor<32x1xi32> loc(#loc1)
    %c32_i32 = arith.constant 32 : i32 loc(#loc1)
    %0 = tt.get_program_id y : i32 loc(#loc2)
    %1 = arith.muli %0, %c32_i32 : i32 loc(#loc3)
    %2 = tt.make_range {end = 32 : i32, start = 0 : i32} : tensor<32xi32> loc(#loc4)
    %3 = tt.expand_dims %2 {axis = 0 : i32} : tensor<32xi32> -> tensor<1x32xi32> loc(#loc5)
    %4 = tt.splat %1 : i32 -> tensor<1x32xi32> loc(#loc6)
    %5 = arith.addi %4, %3 : tensor<1x32xi32> loc(#loc6)
    %6 = tt.get_program_id x : i32 loc(#loc7)
    %7 = arith.muli %6, %c32_i32 : i32 loc(#loc8)
    %8 = tt.expand_dims %2 {axis = 1 : i32} : tensor<32xi32> -> tensor<32x1xi32> loc(#loc9)
    %9 = tt.splat %7 : i32 -> tensor<32x1xi32> loc(#loc10)
    %10 = arith.addi %9, %8 : tensor<32x1xi32> loc(#loc10)
    %11 = arith.cmpi slt, %10, %cst_20 : tensor<32x1xi32> loc(#loc11)
    %12 = arith.remsi %5, %cst_19 : tensor<1x32xi32> loc(#loc12)
    %13 = arith.divsi %5, %cst_19 : tensor<1x32xi32> loc(#loc13)
    %14 = arith.muli %10, %cst_18 : tensor<32x1xi32> loc(#loc14)
    %15 = tt.broadcast %12 : tensor<1x32xi32> -> tensor<32x32xi32> loc(#loc15)
    %16 = tt.broadcast %14 : tensor<32x1xi32> -> tensor<32x32xi32> loc(#loc15)
    %17 = arith.addi %15, %16 : tensor<32x32xi32> loc(#loc15)
    %18 = arith.muli %13, %cst_17 : tensor<1x32xi32> loc(#loc16)
    %19 = tt.broadcast %18 : tensor<1x32xi32> -> tensor<32x32xi32> loc(#loc17)
    %20 = arith.addi %17, %19 : tensor<32x32xi32> loc(#loc17)
    %21 = tt.splat %arg21 : !tt.ptr<f32> -> tensor<32x32x!tt.ptr<f32>> loc(#loc18)
    %22 = tt.addptr %21, %20 : tensor<32x32x!tt.ptr<f32>>, tensor<32x32xi32> loc(#loc18)
    %23 = tt.broadcast %11 : tensor<32x1xi1> -> tensor<32x32xi1> loc(#loc19)
    %24 = tt.load %22, %23 evictionPolicy = evict_last : tensor<32x32x!tt.ptr<f32>> loc(#loc19)
    %25 = tt.splat %arg22 : !tt.ptr<f32> -> tensor<1x32x!tt.ptr<f32>> loc(#loc20)
    %26 = tt.addptr %25, %12 : tensor<1x32x!tt.ptr<f32>>, tensor<1x32xi32> loc(#loc20)
    %27 = tt.load %26 evictionPolicy = evict_last : tensor<1x32x!tt.ptr<f32>> loc(#loc21)
    %28 = tt.splat %arg23 : !tt.ptr<f32> -> tensor<1x32x!tt.ptr<f32>> loc(#loc22)
    %29 = tt.addptr %28, %12 : tensor<1x32x!tt.ptr<f32>>, tensor<1x32xi32> loc(#loc22)
    %30 = tt.load %29 evictionPolicy = evict_last : tensor<1x32x!tt.ptr<f32>> loc(#loc23)
    %31 = tt.splat %arg24 : !tt.ptr<f32> -> tensor<1x32x!tt.ptr<f32>> loc(#loc24)
    %32 = tt.addptr %31, %12 : tensor<1x32x!tt.ptr<f32>>, tensor<1x32xi32> loc(#loc24)
    %33 = tt.load %32 evictionPolicy = evict_last : tensor<1x32x!tt.ptr<f32>> loc(#loc25)
    %34 = tt.splat %arg25 : !tt.ptr<f32> -> tensor<1x32x!tt.ptr<f32>> loc(#loc26)
    %35 = tt.addptr %34, %12 : tensor<1x32x!tt.ptr<f32>>, tensor<1x32xi32> loc(#loc26)
    %36 = tt.load %35 evictionPolicy = evict_last : tensor<1x32x!tt.ptr<f32>> loc(#loc27)
    %37 = arith.extsi %12 : tensor<1x32xi32> to tensor<1x32xi64> loc(#loc28)
    %38 = arith.cmpi slt, %37, %cst_16 : tensor<1x32xi64> loc(#loc28)
    %39 = arith.muli %10, %cst_15 : tensor<32x1xi32> loc(#loc29)
    %40 = arith.muli %13, %cst_14 : tensor<1x32xi32> loc(#loc30)
    %41 = tt.broadcast %39 : tensor<32x1xi32> -> tensor<32x32xi32> loc(#loc31)
    %42 = tt.broadcast %40 : tensor<1x32xi32> -> tensor<32x32xi32> loc(#loc31)
    %43 = arith.addi %41, %42 : tensor<32x32xi32> loc(#loc31)
    %44 = arith.addi %43, %15 : tensor<32x32xi32> loc(#loc32)
    %45 = tt.splat %arg1 : !tt.ptr<f32> -> tensor<32x32x!tt.ptr<f32>> loc(#loc33)
    %46 = tt.addptr %45, %44 : tensor<32x32x!tt.ptr<f32>>, tensor<32x32xi32> loc(#loc33)
    %47 = tt.broadcast %38 : tensor<1x32xi1> -> tensor<32x32xi1> loc(#loc34)
    %48 = arith.andi %47, %23 : tensor<32x32xi1> loc(#loc34)
    %49 = tt.load %46, %48, %cst_13 evictionPolicy = evict_last : tensor<32x32x!tt.ptr<f32>> loc(#loc35)
    %50 = tt.splat %arg2 : !tt.ptr<f32> -> tensor<1x32x!tt.ptr<f32>> loc(#loc36)
    %51 = tt.addptr %50, %12 : tensor<1x32x!tt.ptr<f32>>, tensor<1x32xi32> loc(#loc36)
    %52 = tt.broadcast %51 : tensor<1x32x!tt.ptr<f32>> -> tensor<32x32x!tt.ptr<f32>> loc(#loc36)
    %53 = tt.load %52, %48, %cst_13 evictionPolicy = evict_last : tensor<32x32x!tt.ptr<f32>> loc(#loc37)
    %54 = arith.subf %49, %53 : tensor<32x32xf32> loc(#loc38)
    %55 = tt.splat %arg3 : !tt.ptr<f32> -> tensor<1x32x!tt.ptr<f32>> loc(#loc39)
    %56 = tt.addptr %55, %12 : tensor<1x32x!tt.ptr<f32>>, tensor<1x32xi32> loc(#loc39)
    %57 = tt.broadcast %56 : tensor<1x32x!tt.ptr<f32>> -> tensor<32x32x!tt.ptr<f32>> loc(#loc39)
    %58 = tt.load %57, %48, %cst_13 evictionPolicy = evict_last : tensor<32x32x!tt.ptr<f32>> loc(#loc40)
    %59 = arith.addf %58, %cst_12 : tensor<32x32xf32> loc(#loc41)
    %60 = tt.extern_elementwise %59 {libname = "", libpath = "", pure = true, symbol = "__nv_sqrtf"} : (tensor<32x32xf32>) -> tensor<32x32xf32> loc(#loc42)
    %61 = arith.divf %cst_0, %60 : tensor<32x32xf32> loc(#loc43)
    %62 = arith.mulf %54, %61 : tensor<32x32xf32> loc(#loc44)
    %63 = tt.splat %arg4 : !tt.ptr<f32> -> tensor<1x32x!tt.ptr<f32>> loc(#loc45)
    %64 = tt.addptr %63, %12 : tensor<1x32x!tt.ptr<f32>>, tensor<1x32xi32> loc(#loc45)
    %65 = tt.broadcast %64 : tensor<1x32x!tt.ptr<f32>> -> tensor<32x32x!tt.ptr<f32>> loc(#loc45)
    %66 = tt.load %65, %48, %cst_13 evictionPolicy = evict_last : tensor<32x32x!tt.ptr<f32>> loc(#loc46)
    %67 = arith.mulf %62, %66 : tensor<32x32xf32> loc(#loc47)
    %68 = tt.splat %arg5 : !tt.ptr<f32> -> tensor<1x32x!tt.ptr<f32>> loc(#loc48)
    %69 = tt.addptr %68, %12 : tensor<1x32x!tt.ptr<f32>>, tensor<1x32xi32> loc(#loc48)
    %70 = tt.broadcast %69 : tensor<1x32x!tt.ptr<f32>> -> tensor<32x32x!tt.ptr<f32>> loc(#loc48)
    %71 = tt.load %70, %48, %cst_13 evictionPolicy = evict_last : tensor<32x32x!tt.ptr<f32>> loc(#loc49)
    %72 = arith.addf %67, %71 : tensor<32x32xf32> loc(#loc50)
    %73 = arith.cmpf ogt, %cst_13, %72 : tensor<32x32xf32> loc(#loc155)
    %74 = arith.select %73, %cst_13, %72 : tensor<32x32xi1>, tensor<32x32xf32> loc(#loc156)
    %75 = arith.select %47, %74, %cst_13 : tensor<32x32xi1>, tensor<32x32xf32> loc(#loc54)
    %76 = arith.cmpi sge, %37, %cst_16 : tensor<1x32xi64> loc(#loc55)
    %77 = arith.cmpi slt, %37, %cst_11 : tensor<1x32xi64> loc(#loc56)
    %78 = arith.andi %76, %77 : tensor<1x32xi1> loc(#loc57)
    %79 = arith.muli %10, %cst_10 : tensor<32x1xi32> loc(#loc58)
    %80 = arith.muli %13, %cst_9 : tensor<1x32xi32> loc(#loc59)
    %81 = tt.broadcast %79 : tensor<32x1xi32> -> tensor<32x32xi32> loc(#loc60)
    %82 = tt.broadcast %80 : tensor<1x32xi32> -> tensor<32x32xi32> loc(#loc60)
    %83 = arith.addi %81, %82 : tensor<32x32xi32> loc(#loc60)
    %84 = arith.addi %12, %cst_8 : tensor<1x32xi32> loc(#loc61)
    %85 = tt.broadcast %84 : tensor<1x32xi32> -> tensor<32x32xi32> loc(#loc62)
    %86 = arith.addi %83, %85 : tensor<32x32xi32> loc(#loc62)
    %87 = tt.splat %arg6 : !tt.ptr<f32> -> tensor<32x32x!tt.ptr<f32>> loc(#loc63)
    %88 = tt.addptr %87, %86 : tensor<32x32x!tt.ptr<f32>>, tensor<32x32xi32> loc(#loc63)
    %89 = tt.broadcast %78 : tensor<1x32xi1> -> tensor<32x32xi1> loc(#loc64)
    %90 = arith.andi %89, %23 : tensor<32x32xi1> loc(#loc64)
    %91 = tt.load %88, %90, %cst_13 evictionPolicy = evict_last : tensor<32x32x!tt.ptr<f32>> loc(#loc65)
    %92 = tt.splat %arg7 : !tt.ptr<f32> -> tensor<1x32x!tt.ptr<f32>> loc(#loc66)
    %93 = tt.addptr %92, %84 : tensor<1x32x!tt.ptr<f32>>, tensor<1x32xi32> loc(#loc66)
    %94 = tt.broadcast %93 : tensor<1x32x!tt.ptr<f32>> -> tensor<32x32x!tt.ptr<f32>> loc(#loc66)
    %95 = tt.load %94, %90, %cst_13 evictionPolicy = evict_last : tensor<32x32x!tt.ptr<f32>> loc(#loc67)
    %96 = arith.subf %91, %95 : tensor<32x32xf32> loc(#loc68)
    %97 = tt.splat %arg8 : !tt.ptr<f32> -> tensor<1x32x!tt.ptr<f32>> loc(#loc69)
    %98 = tt.addptr %97, %84 : tensor<1x32x!tt.ptr<f32>>, tensor<1x32xi32> loc(#loc69)
    %99 = tt.broadcast %98 : tensor<1x32x!tt.ptr<f32>> -> tensor<32x32x!tt.ptr<f32>> loc(#loc69)
    %100 = tt.load %99, %90, %cst_13 evictionPolicy = evict_last : tensor<32x32x!tt.ptr<f32>> loc(#loc70)
    %101 = arith.addf %100, %cst_12 : tensor<32x32xf32> loc(#loc71)
    %102 = tt.extern_elementwise %101 {libname = "", libpath = "", pure = true, symbol = "__nv_sqrtf"} : (tensor<32x32xf32>) -> tensor<32x32xf32> loc(#loc72)
    %103 = arith.divf %cst_0, %102 : tensor<32x32xf32> loc(#loc73)
    %104 = arith.mulf %96, %103 : tensor<32x32xf32> loc(#loc74)
    %105 = tt.splat %arg9 : !tt.ptr<f32> -> tensor<1x32x!tt.ptr<f32>> loc(#loc75)
    %106 = tt.addptr %105, %84 : tensor<1x32x!tt.ptr<f32>>, tensor<1x32xi32> loc(#loc75)
    %107 = tt.broadcast %106 : tensor<1x32x!tt.ptr<f32>> -> tensor<32x32x!tt.ptr<f32>> loc(#loc75)
    %108 = tt.load %107, %90, %cst_13 evictionPolicy = evict_last : tensor<32x32x!tt.ptr<f32>> loc(#loc76)
    %109 = arith.mulf %104, %108 : tensor<32x32xf32> loc(#loc77)
    %110 = tt.splat %arg10 : !tt.ptr<f32> -> tensor<1x32x!tt.ptr<f32>> loc(#loc78)
    %111 = tt.addptr %110, %84 : tensor<1x32x!tt.ptr<f32>>, tensor<1x32xi32> loc(#loc78)
    %112 = tt.broadcast %111 : tensor<1x32x!tt.ptr<f32>> -> tensor<32x32x!tt.ptr<f32>> loc(#loc78)
    %113 = tt.load %112, %90, %cst_13 evictionPolicy = evict_last : tensor<32x32x!tt.ptr<f32>> loc(#loc79)
    %114 = arith.addf %109, %113 : tensor<32x32xf32> loc(#loc80)
    %115 = arith.cmpf ogt, %cst_13, %114 : tensor<32x32xf32> loc(#loc157)
    %116 = arith.select %115, %cst_13, %114 : tensor<32x32xi1>, tensor<32x32xf32> loc(#loc158)
    %117 = arith.select %89, %116, %cst_13 : tensor<32x32xi1>, tensor<32x32xf32> loc(#loc82)
    %118 = arith.cmpi sge, %37, %cst_11 : tensor<1x32xi64> loc(#loc83)
    %119 = arith.cmpi slt, %37, %cst_7 : tensor<1x32xi64> loc(#loc84)
    %120 = arith.andi %118, %119 : tensor<1x32xi1> loc(#loc85)
    %121 = arith.muli %10, %cst_6 : tensor<32x1xi32> loc(#loc86)
    %122 = arith.muli %13, %cst_5 : tensor<1x32xi32> loc(#loc87)
    %123 = tt.broadcast %121 : tensor<32x1xi32> -> tensor<32x32xi32> loc(#loc88)
    %124 = tt.broadcast %122 : tensor<1x32xi32> -> tensor<32x32xi32> loc(#loc88)
    %125 = arith.addi %123, %124 : tensor<32x32xi32> loc(#loc88)
    %126 = arith.addi %12, %cst_4 : tensor<1x32xi32> loc(#loc89)
    %127 = tt.broadcast %126 : tensor<1x32xi32> -> tensor<32x32xi32> loc(#loc90)
    %128 = arith.addi %125, %127 : tensor<32x32xi32> loc(#loc90)
    %129 = tt.splat %arg11 : !tt.ptr<f32> -> tensor<32x32x!tt.ptr<f32>> loc(#loc91)
    %130 = tt.addptr %129, %128 : tensor<32x32x!tt.ptr<f32>>, tensor<32x32xi32> loc(#loc91)
    %131 = tt.broadcast %120 : tensor<1x32xi1> -> tensor<32x32xi1> loc(#loc92)
    %132 = arith.andi %131, %23 : tensor<32x32xi1> loc(#loc92)
    %133 = tt.load %130, %132, %cst_13 evictionPolicy = evict_last : tensor<32x32x!tt.ptr<f32>> loc(#loc93)
    %134 = tt.splat %arg12 : !tt.ptr<f32> -> tensor<1x32x!tt.ptr<f32>> loc(#loc94)
    %135 = tt.addptr %134, %126 : tensor<1x32x!tt.ptr<f32>>, tensor<1x32xi32> loc(#loc94)
    %136 = tt.broadcast %135 : tensor<1x32x!tt.ptr<f32>> -> tensor<32x32x!tt.ptr<f32>> loc(#loc94)
    %137 = tt.load %136, %132, %cst_13 evictionPolicy = evict_last : tensor<32x32x!tt.ptr<f32>> loc(#loc95)
    %138 = arith.subf %133, %137 : tensor<32x32xf32> loc(#loc96)
    %139 = tt.splat %arg13 : !tt.ptr<f32> -> tensor<1x32x!tt.ptr<f32>> loc(#loc97)
    %140 = tt.addptr %139, %126 : tensor<1x32x!tt.ptr<f32>>, tensor<1x32xi32> loc(#loc97)
    %141 = tt.broadcast %140 : tensor<1x32x!tt.ptr<f32>> -> tensor<32x32x!tt.ptr<f32>> loc(#loc97)
    %142 = tt.load %141, %132, %cst_13 evictionPolicy = evict_last : tensor<32x32x!tt.ptr<f32>> loc(#loc98)
    %143 = arith.addf %142, %cst_12 : tensor<32x32xf32> loc(#loc99)
    %144 = tt.extern_elementwise %143 {libname = "", libpath = "", pure = true, symbol = "__nv_sqrtf"} : (tensor<32x32xf32>) -> tensor<32x32xf32> loc(#loc100)
    %145 = arith.divf %cst_0, %144 : tensor<32x32xf32> loc(#loc101)
    %146 = arith.mulf %138, %145 : tensor<32x32xf32> loc(#loc102)
    %147 = tt.splat %arg14 : !tt.ptr<f32> -> tensor<1x32x!tt.ptr<f32>> loc(#loc103)
    %148 = tt.addptr %147, %126 : tensor<1x32x!tt.ptr<f32>>, tensor<1x32xi32> loc(#loc103)
    %149 = tt.broadcast %148 : tensor<1x32x!tt.ptr<f32>> -> tensor<32x32x!tt.ptr<f32>> loc(#loc103)
    %150 = tt.load %149, %132, %cst_13 evictionPolicy = evict_last : tensor<32x32x!tt.ptr<f32>> loc(#loc104)
    %151 = arith.mulf %146, %150 : tensor<32x32xf32> loc(#loc105)
    %152 = tt.splat %arg15 : !tt.ptr<f32> -> tensor<1x32x!tt.ptr<f32>> loc(#loc106)
    %153 = tt.addptr %152, %126 : tensor<1x32x!tt.ptr<f32>>, tensor<1x32xi32> loc(#loc106)
    %154 = tt.broadcast %153 : tensor<1x32x!tt.ptr<f32>> -> tensor<32x32x!tt.ptr<f32>> loc(#loc106)
    %155 = tt.load %154, %132, %cst_13 evictionPolicy = evict_last : tensor<32x32x!tt.ptr<f32>> loc(#loc107)
    %156 = arith.addf %151, %155 : tensor<32x32xf32> loc(#loc108)
    %157 = arith.cmpf ogt, %cst_13, %156 : tensor<32x32xf32> loc(#loc159)
    %158 = arith.select %157, %cst_13, %156 : tensor<32x32xi1>, tensor<32x32xf32> loc(#loc160)
    %159 = arith.select %131, %158, %cst_13 : tensor<32x32xi1>, tensor<32x32xf32> loc(#loc110)
    %160 = arith.cmpi sge, %37, %cst_7 : tensor<1x32xi64> loc(#loc111)
    %161 = arith.addi %12, %cst_3 : tensor<1x32xi32> loc(#loc112)
    %162 = tt.broadcast %161 : tensor<1x32xi32> -> tensor<32x32xi32> loc(#loc113)
    %163 = arith.addi %125, %162 : tensor<32x32xi32> loc(#loc113)
    %164 = tt.splat %arg16 : !tt.ptr<f32> -> tensor<32x32x!tt.ptr<f32>> loc(#loc114)
    %165 = tt.addptr %164, %163 : tensor<32x32x!tt.ptr<f32>>, tensor<32x32xi32> loc(#loc114)
    %166 = tt.broadcast %160 : tensor<1x32xi1> -> tensor<32x32xi1> loc(#loc115)
    %167 = arith.andi %166, %23 : tensor<32x32xi1> loc(#loc115)
    %168 = tt.load %165, %167, %cst_13 evictionPolicy = evict_last : tensor<32x32x!tt.ptr<f32>> loc(#loc116)
    %169 = tt.splat %arg17 : !tt.ptr<f32> -> tensor<1x32x!tt.ptr<f32>> loc(#loc117)
    %170 = tt.addptr %169, %161 : tensor<1x32x!tt.ptr<f32>>, tensor<1x32xi32> loc(#loc117)
    %171 = tt.broadcast %170 : tensor<1x32x!tt.ptr<f32>> -> tensor<32x32x!tt.ptr<f32>> loc(#loc117)
    %172 = tt.load %171, %167, %cst_13 evictionPolicy = evict_last : tensor<32x32x!tt.ptr<f32>> loc(#loc118)
    %173 = arith.subf %168, %172 : tensor<32x32xf32> loc(#loc119)
    %174 = tt.splat %arg18 : !tt.ptr<f32> -> tensor<1x32x!tt.ptr<f32>> loc(#loc120)
    %175 = tt.addptr %174, %161 : tensor<1x32x!tt.ptr<f32>>, tensor<1x32xi32> loc(#loc120)
    %176 = tt.broadcast %175 : tensor<1x32x!tt.ptr<f32>> -> tensor<32x32x!tt.ptr<f32>> loc(#loc120)
    %177 = tt.load %176, %167, %cst_13 evictionPolicy = evict_last : tensor<32x32x!tt.ptr<f32>> loc(#loc121)
    %178 = arith.addf %177, %cst_12 : tensor<32x32xf32> loc(#loc122)
    %179 = tt.extern_elementwise %178 {libname = "", libpath = "", pure = true, symbol = "__nv_sqrtf"} : (tensor<32x32xf32>) -> tensor<32x32xf32> loc(#loc123)
    %180 = arith.divf %cst_0, %179 : tensor<32x32xf32> loc(#loc124)
    %181 = arith.mulf %173, %180 : tensor<32x32xf32> loc(#loc125)
    %182 = tt.splat %arg19 : !tt.ptr<f32> -> tensor<1x32x!tt.ptr<f32>> loc(#loc126)
    %183 = tt.addptr %182, %161 : tensor<1x32x!tt.ptr<f32>>, tensor<1x32xi32> loc(#loc126)
    %184 = tt.broadcast %183 : tensor<1x32x!tt.ptr<f32>> -> tensor<32x32x!tt.ptr<f32>> loc(#loc126)
    %185 = tt.load %184, %167, %cst_13 evictionPolicy = evict_last : tensor<32x32x!tt.ptr<f32>> loc(#loc127)
    %186 = arith.mulf %181, %185 : tensor<32x32xf32> loc(#loc128)
    %187 = tt.splat %arg20 : !tt.ptr<f32> -> tensor<1x32x!tt.ptr<f32>> loc(#loc129)
    %188 = tt.addptr %187, %161 : tensor<1x32x!tt.ptr<f32>>, tensor<1x32xi32> loc(#loc129)
    %189 = tt.broadcast %188 : tensor<1x32x!tt.ptr<f32>> -> tensor<32x32x!tt.ptr<f32>> loc(#loc129)
    %190 = tt.load %189, %167, %cst_13 evictionPolicy = evict_last : tensor<32x32x!tt.ptr<f32>> loc(#loc130)
    %191 = arith.addf %186, %190 : tensor<32x32xf32> loc(#loc131)
    %192 = arith.cmpf ogt, %cst_13, %191 : tensor<32x32xf32> loc(#loc161)
    %193 = arith.select %192, %cst_13, %191 : tensor<32x32xi1>, tensor<32x32xf32> loc(#loc162)
    %194 = arith.select %166, %193, %cst_13 : tensor<32x32xi1>, tensor<32x32xf32> loc(#loc133)
    %195 = arith.select %131, %159, %194 : tensor<32x32xi1>, tensor<32x32xf32> loc(#loc134)
    %196 = arith.select %89, %117, %195 : tensor<32x32xi1>, tensor<32x32xf32> loc(#loc135)
    %197 = arith.select %47, %75, %196 : tensor<32x32xi1>, tensor<32x32xf32> loc(#loc136)
    %198 = tt.broadcast %27 : tensor<1x32xf32> -> tensor<32x32xf32> loc(#loc137)
    %199 = arith.subf %24, %198 : tensor<32x32xf32> loc(#loc137)
    %200 = arith.addf %30, %cst_2 : tensor<1x32xf32> loc(#loc138)
    %201 = tt.extern_elementwise %200 {libname = "", libpath = "", pure = true, symbol = "__nv_sqrtf"} : (tensor<1x32xf32>) -> tensor<1x32xf32> loc(#loc139)
    %202 = arith.divf %cst, %201 : tensor<1x32xf32> loc(#loc140)
    %203 = tt.broadcast %202 : tensor<1x32xf32> -> tensor<32x32xf32> loc(#loc141)
    %204 = arith.mulf %199, %203 : tensor<32x32xf32> loc(#loc141)
    %205 = tt.broadcast %33 : tensor<1x32xf32> -> tensor<32x32xf32> loc(#loc142)
    %206 = arith.mulf %204, %205 : tensor<32x32xf32> loc(#loc142)
    %207 = tt.broadcast %36 : tensor<1x32xf32> -> tensor<32x32xf32> loc(#loc143)
    %208 = arith.addf %206, %207 : tensor<32x32xf32> loc(#loc143)
    %209 = arith.addf %197, %208 : tensor<32x32xf32> loc(#loc144)
    %210 = arith.cmpf ogt, %cst_13, %209 : tensor<32x32xf32> loc(#loc163)
    %211 = arith.select %210, %cst_13, %209 : tensor<32x32xi1>, tensor<32x32xf32> loc(#loc164)
    %212 = arith.cmpf ole, %211, %cst_13 : tensor<32x32xf32> loc(#loc146)
    gpu.barrier loc(#loc147)
    %213 = arith.muli %5, %cst_1 : tensor<1x32xi32> loc(#loc148)
    %214 = tt.broadcast %10 : tensor<32x1xi32> -> tensor<32x32xi32> loc(#loc149)
    %215 = tt.broadcast %213 : tensor<1x32xi32> -> tensor<32x32xi32> loc(#loc149)
    %216 = arith.addi %214, %215 : tensor<32x32xi32> loc(#loc149)
    %217 = tt.splat %arg0 : !tt.ptr<f32> -> tensor<32x32x!tt.ptr<f32>> loc(#loc150)
    %218 = tt.addptr %217, %216 : tensor<32x32x!tt.ptr<f32>>, tensor<32x32xi32> loc(#loc150)
    tt.store %218, %211, %23 : tensor<32x32x!tt.ptr<f32>> loc(#loc151)
    %219 = tt.splat %arg26 : !tt.ptr<i1> -> tensor<32x32x!tt.ptr<i1>> loc(#loc152)
    %220 = tt.addptr %219, %20 : tensor<32x32x!tt.ptr<i1>>, tensor<32x32xi32> loc(#loc152)
    %221 = tt.bitcast %220 : tensor<32x32x!tt.ptr<i1>> -> tensor<32x32x!tt.ptr<i8>> loc(#loc153)
    %222 = arith.extui %212 : tensor<32x32xi1> to tensor<32x32xi8> loc(#loc153)
    tt.store %221, %222, %23 : tensor<32x32x!tt.ptr<i8>> loc(#loc153)
    tt.return loc(#loc154)
  } loc(#loc)
} loc(#loc)
#loc1 = loc(unknown)
#loc2 = loc("inductor_cache/5r/c5rlwyhg4n6abom2yiq7ky7kycg6bplytvo736zzkqdxocqsutfh.py":22:28)
#loc3 = loc("inductor_cache/5r/c5rlwyhg4n6abom2yiq7ky7kycg6bplytvo736zzkqdxocqsutfh.py":22:33)
#loc4 = loc("inductor_cache/5r/c5rlwyhg4n6abom2yiq7ky7kycg6bplytvo736zzkqdxocqsutfh.py":23:36)
#loc5 = loc("inductor_cache/5r/c5rlwyhg4n6abom2yiq7ky7kycg6bplytvo736zzkqdxocqsutfh.py":23:44)
#loc6 = loc("inductor_cache/5r/c5rlwyhg4n6abom2yiq7ky7kycg6bplytvo736zzkqdxocqsutfh.py":23:23)
#loc7 = loc("inductor_cache/5r/c5rlwyhg4n6abom2yiq7ky7kycg6bplytvo736zzkqdxocqsutfh.py":25:28)
#loc8 = loc("inductor_cache/5r/c5rlwyhg4n6abom2yiq7ky7kycg6bplytvo736zzkqdxocqsutfh.py":25:33)
#loc9 = loc("inductor_cache/5r/c5rlwyhg4n6abom2yiq7ky7kycg6bplytvo736zzkqdxocqsutfh.py":26:44)
#loc10 = loc("inductor_cache/5r/c5rlwyhg4n6abom2yiq7ky7kycg6bplytvo736zzkqdxocqsutfh.py":26:23)
#loc11 = loc("inductor_cache/5r/c5rlwyhg4n6abom2yiq7ky7kycg6bplytvo736zzkqdxocqsutfh.py":27:21)
#loc12 = loc("inductor_cache/5r/c5rlwyhg4n6abom2yiq7ky7kycg6bplytvo736zzkqdxocqsutfh.py":28:19)
#loc13 = loc("inductor_cache/5r/c5rlwyhg4n6abom2yiq7ky7kycg6bplytvo736zzkqdxocqsutfh.py":30:19)
#loc14 = loc("inductor_cache/5r/c5rlwyhg4n6abom2yiq7ky7kycg6bplytvo736zzkqdxocqsutfh.py":32:41)
#loc15 = loc("inductor_cache/5r/c5rlwyhg4n6abom2yiq7ky7kycg6bplytvo736zzkqdxocqsutfh.py":32:37)
#loc16 = loc("inductor_cache/5r/c5rlwyhg4n6abom2yiq7ky7kycg6bplytvo736zzkqdxocqsutfh.py":32:53)
#loc17 = loc("inductor_cache/5r/c5rlwyhg4n6abom2yiq7ky7kycg6bplytvo736zzkqdxocqsutfh.py":32:46)
#loc18 = loc("inductor_cache/5r/c5rlwyhg4n6abom2yiq7ky7kycg6bplytvo736zzkqdxocqsutfh.py":32:32)
#loc19 = loc("inductor_cache/5r/c5rlwyhg4n6abom2yiq7ky7kycg6bplytvo736zzkqdxocqsutfh.py":32:58)
#loc20 = loc("inductor_cache/5r/c5rlwyhg4n6abom2yiq7ky7kycg6bplytvo736zzkqdxocqsutfh.py":33:33)
#loc21 = loc("inductor_cache/5r/c5rlwyhg4n6abom2yiq7ky7kycg6bplytvo736zzkqdxocqsutfh.py":33:38)
#loc22 = loc("inductor_cache/5r/c5rlwyhg4n6abom2yiq7ky7kycg6bplytvo736zzkqdxocqsutfh.py":34:33)
#loc23 = loc("inductor_cache/5r/c5rlwyhg4n6abom2yiq7ky7kycg6bplytvo736zzkqdxocqsutfh.py":34:38)
#loc24 = loc("inductor_cache/5r/c5rlwyhg4n6abom2yiq7ky7kycg6bplytvo736zzkqdxocqsutfh.py":35:33)
#loc25 = loc("inductor_cache/5r/c5rlwyhg4n6abom2yiq7ky7kycg6bplytvo736zzkqdxocqsutfh.py":35:38)
#loc26 = loc("inductor_cache/5r/c5rlwyhg4n6abom2yiq7ky7kycg6bplytvo736zzkqdxocqsutfh.py":36:33)
#loc27 = loc("inductor_cache/5r/c5rlwyhg4n6abom2yiq7ky7kycg6bplytvo736zzkqdxocqsutfh.py":36:38)
#loc28 = loc("inductor_cache/5r/c5rlwyhg4n6abom2yiq7ky7kycg6bplytvo736zzkqdxocqsutfh.py":41:18)
#loc29 = loc("inductor_cache/5r/c5rlwyhg4n6abom2yiq7ky7kycg6bplytvo736zzkqdxocqsutfh.py":42:34)
#loc30 = loc("inductor_cache/5r/c5rlwyhg4n6abom2yiq7ky7kycg6bplytvo736zzkqdxocqsutfh.py":42:46)
#loc31 = loc("inductor_cache/5r/c5rlwyhg4n6abom2yiq7ky7kycg6bplytvo736zzkqdxocqsutfh.py":42:39)
#loc32 = loc("inductor_cache/5r/c5rlwyhg4n6abom2yiq7ky7kycg6bplytvo736zzkqdxocqsutfh.py":42:52)
#loc33 = loc("inductor_cache/5r/c5rlwyhg4n6abom2yiq7ky7kycg6bplytvo736zzkqdxocqsutfh.py":42:30)
#loc34 = loc("inductor_cache/5r/c5rlwyhg4n6abom2yiq7ky7kycg6bplytvo736zzkqdxocqsutfh.py":42:65)
#loc35 = loc("inductor_cache/5r/c5rlwyhg4n6abom2yiq7ky7kycg6bplytvo736zzkqdxocqsutfh.py":42:58)
#loc36 = loc("inductor_cache/5r/c5rlwyhg4n6abom2yiq7ky7kycg6bplytvo736zzkqdxocqsutfh.py":43:30)
#loc37 = loc("inductor_cache/5r/c5rlwyhg4n6abom2yiq7ky7kycg6bplytvo736zzkqdxocqsutfh.py":43:70)
#loc38 = loc("inductor_cache/5r/c5rlwyhg4n6abom2yiq7ky7kycg6bplytvo736zzkqdxocqsutfh.py":44:18)
#loc39 = loc("inductor_cache/5r/c5rlwyhg4n6abom2yiq7ky7kycg6bplytvo736zzkqdxocqsutfh.py":45:30)
#loc40 = loc("inductor_cache/5r/c5rlwyhg4n6abom2yiq7ky7kycg6bplytvo736zzkqdxocqsutfh.py":45:70)
#loc41 = loc("inductor_cache/5r/c5rlwyhg4n6abom2yiq7ky7kycg6bplytvo736zzkqdxocqsutfh.py":47:19)
#loc42 = loc("inductor_cache/5r/c5rlwyhg4n6abom2yiq7ky7kycg6bplytvo736zzkqdxocqsutfh.py":48:27)
#loc43 = loc("inductor_cache/5r/c5rlwyhg4n6abom2yiq7ky7kycg6bplytvo736zzkqdxocqsutfh.py":50:20)
#loc44 = loc("inductor_cache/5r/c5rlwyhg4n6abom2yiq7ky7kycg6bplytvo736zzkqdxocqsutfh.py":53:19)
#loc45 = loc("inductor_cache/5r/c5rlwyhg4n6abom2yiq7ky7kycg6bplytvo736zzkqdxocqsutfh.py":54:31)
#loc46 = loc("inductor_cache/5r/c5rlwyhg4n6abom2yiq7ky7kycg6bplytvo736zzkqdxocqsutfh.py":54:71)
#loc47 = loc("inductor_cache/5r/c5rlwyhg4n6abom2yiq7ky7kycg6bplytvo736zzkqdxocqsutfh.py":55:20)
#loc48 = loc("inductor_cache/5r/c5rlwyhg4n6abom2yiq7ky7kycg6bplytvo736zzkqdxocqsutfh.py":56:31)
#loc49 = loc("inductor_cache/5r/c5rlwyhg4n6abom2yiq7ky7kycg6bplytvo736zzkqdxocqsutfh.py":56:71)
#loc50 = loc("inductor_cache/5r/c5rlwyhg4n6abom2yiq7ky7kycg6bplytvo736zzkqdxocqsutfh.py":57:20)
#loc51 = loc("/home/sahanp/.conda/envs/parity-bench/lib/python3.12/site-packages/torch/_inductor/runtime/triton_helpers.py":118:15)
#loc52 = loc("inductor_cache/5r/c5rlwyhg4n6abom2yiq7ky7kycg6bplytvo736zzkqdxocqsutfh.py":59:42)
#loc53 = loc("/home/sahanp/.conda/envs/parity-bench/lib/python3.12/site-packages/torch/_inductor/runtime/triton_helpers.py":121:29)
#loc54 = loc("inductor_cache/5r/c5rlwyhg4n6abom2yiq7ky7kycg6bplytvo736zzkqdxocqsutfh.py":61:34)
#loc55 = loc("inductor_cache/5r/c5rlwyhg4n6abom2yiq7ky7kycg6bplytvo736zzkqdxocqsutfh.py":62:20)
#loc56 = loc("inductor_cache/5r/c5rlwyhg4n6abom2yiq7ky7kycg6bplytvo736zzkqdxocqsutfh.py":64:19)
#loc57 = loc("inductor_cache/5r/c5rlwyhg4n6abom2yiq7ky7kycg6bplytvo736zzkqdxocqsutfh.py":65:20)
#loc58 = loc("inductor_cache/5r/c5rlwyhg4n6abom2yiq7ky7kycg6bplytvo736zzkqdxocqsutfh.py":66:35)
#loc59 = loc("inductor_cache/5r/c5rlwyhg4n6abom2yiq7ky7kycg6bplytvo736zzkqdxocqsutfh.py":66:47)
#loc60 = loc("inductor_cache/5r/c5rlwyhg4n6abom2yiq7ky7kycg6bplytvo736zzkqdxocqsutfh.py":66:40)
#loc61 = loc("inductor_cache/5r/c5rlwyhg4n6abom2yiq7ky7kycg6bplytvo736zzkqdxocqsutfh.py":66:62)
#loc62 = loc("inductor_cache/5r/c5rlwyhg4n6abom2yiq7ky7kycg6bplytvo736zzkqdxocqsutfh.py":66:53)
#loc63 = loc("inductor_cache/5r/c5rlwyhg4n6abom2yiq7ky7kycg6bplytvo736zzkqdxocqsutfh.py":66:31)
#loc64 = loc("inductor_cache/5r/c5rlwyhg4n6abom2yiq7ky7kycg6bplytvo736zzkqdxocqsutfh.py":66:76)
#loc65 = loc("inductor_cache/5r/c5rlwyhg4n6abom2yiq7ky7kycg6bplytvo736zzkqdxocqsutfh.py":66:68)
#loc66 = loc("inductor_cache/5r/c5rlwyhg4n6abom2yiq7ky7kycg6bplytvo736zzkqdxocqsutfh.py":67:31)
#loc67 = loc("inductor_cache/5r/c5rlwyhg4n6abom2yiq7ky7kycg6bplytvo736zzkqdxocqsutfh.py":67:80)
#loc68 = loc("inductor_cache/5r/c5rlwyhg4n6abom2yiq7ky7kycg6bplytvo736zzkqdxocqsutfh.py":68:20)
#loc69 = loc("inductor_cache/5r/c5rlwyhg4n6abom2yiq7ky7kycg6bplytvo736zzkqdxocqsutfh.py":69:31)
#loc70 = loc("inductor_cache/5r/c5rlwyhg4n6abom2yiq7ky7kycg6bplytvo736zzkqdxocqsutfh.py":69:80)
#loc71 = loc("inductor_cache/5r/c5rlwyhg4n6abom2yiq7ky7kycg6bplytvo736zzkqdxocqsutfh.py":71:20)
#loc72 = loc("inductor_cache/5r/c5rlwyhg4n6abom2yiq7ky7kycg6bplytvo736zzkqdxocqsutfh.py":72:27)
#loc73 = loc("inductor_cache/5r/c5rlwyhg4n6abom2yiq7ky7kycg6bplytvo736zzkqdxocqsutfh.py":74:20)
#loc74 = loc("inductor_cache/5r/c5rlwyhg4n6abom2yiq7ky7kycg6bplytvo736zzkqdxocqsutfh.py":77:20)
#loc75 = loc("inductor_cache/5r/c5rlwyhg4n6abom2yiq7ky7kycg6bplytvo736zzkqdxocqsutfh.py":78:31)
#loc76 = loc("inductor_cache/5r/c5rlwyhg4n6abom2yiq7ky7kycg6bplytvo736zzkqdxocqsutfh.py":78:80)
#loc77 = loc("inductor_cache/5r/c5rlwyhg4n6abom2yiq7ky7kycg6bplytvo736zzkqdxocqsutfh.py":79:20)
#loc78 = loc("inductor_cache/5r/c5rlwyhg4n6abom2yiq7ky7kycg6bplytvo736zzkqdxocqsutfh.py":80:31)
#loc79 = loc("inductor_cache/5r/c5rlwyhg4n6abom2yiq7ky7kycg6bplytvo736zzkqdxocqsutfh.py":80:80)
#loc80 = loc("inductor_cache/5r/c5rlwyhg4n6abom2yiq7ky7kycg6bplytvo736zzkqdxocqsutfh.py":81:20)
#loc81 = loc("inductor_cache/5r/c5rlwyhg4n6abom2yiq7ky7kycg6bplytvo736zzkqdxocqsutfh.py":83:42)
#loc82 = loc("inductor_cache/5r/c5rlwyhg4n6abom2yiq7ky7kycg6bplytvo736zzkqdxocqsutfh.py":85:35)
#loc83 = loc("inductor_cache/5r/c5rlwyhg4n6abom2yiq7ky7kycg6bplytvo736zzkqdxocqsutfh.py":86:20)
#loc84 = loc("inductor_cache/5r/c5rlwyhg4n6abom2yiq7ky7kycg6bplytvo736zzkqdxocqsutfh.py":88:19)
#loc85 = loc("inductor_cache/5r/c5rlwyhg4n6abom2yiq7ky7kycg6bplytvo736zzkqdxocqsutfh.py":89:20)
#loc86 = loc("inductor_cache/5r/c5rlwyhg4n6abom2yiq7ky7kycg6bplytvo736zzkqdxocqsutfh.py":90:35)
#loc87 = loc("inductor_cache/5r/c5rlwyhg4n6abom2yiq7ky7kycg6bplytvo736zzkqdxocqsutfh.py":90:46)
#loc88 = loc("inductor_cache/5r/c5rlwyhg4n6abom2yiq7ky7kycg6bplytvo736zzkqdxocqsutfh.py":90:40)
#loc89 = loc("inductor_cache/5r/c5rlwyhg4n6abom2yiq7ky7kycg6bplytvo736zzkqdxocqsutfh.py":90:61)
#loc90 = loc("inductor_cache/5r/c5rlwyhg4n6abom2yiq7ky7kycg6bplytvo736zzkqdxocqsutfh.py":90:52)
#loc91 = loc("inductor_cache/5r/c5rlwyhg4n6abom2yiq7ky7kycg6bplytvo736zzkqdxocqsutfh.py":90:32)
#loc92 = loc("inductor_cache/5r/c5rlwyhg4n6abom2yiq7ky7kycg6bplytvo736zzkqdxocqsutfh.py":90:75)
#loc93 = loc("inductor_cache/5r/c5rlwyhg4n6abom2yiq7ky7kycg6bplytvo736zzkqdxocqsutfh.py":90:67)
#loc94 = loc("inductor_cache/5r/c5rlwyhg4n6abom2yiq7ky7kycg6bplytvo736zzkqdxocqsutfh.py":91:32)
#loc95 = loc("inductor_cache/5r/c5rlwyhg4n6abom2yiq7ky7kycg6bplytvo736zzkqdxocqsutfh.py":91:81)
#loc96 = loc("inductor_cache/5r/c5rlwyhg4n6abom2yiq7ky7kycg6bplytvo736zzkqdxocqsutfh.py":92:20)
#loc97 = loc("inductor_cache/5r/c5rlwyhg4n6abom2yiq7ky7kycg6bplytvo736zzkqdxocqsutfh.py":93:32)
#loc98 = loc("inductor_cache/5r/c5rlwyhg4n6abom2yiq7ky7kycg6bplytvo736zzkqdxocqsutfh.py":93:81)
#loc99 = loc("inductor_cache/5r/c5rlwyhg4n6abom2yiq7ky7kycg6bplytvo736zzkqdxocqsutfh.py":95:20)
#loc100 = loc("inductor_cache/5r/c5rlwyhg4n6abom2yiq7ky7kycg6bplytvo736zzkqdxocqsutfh.py":96:27)
#loc101 = loc("inductor_cache/5r/c5rlwyhg4n6abom2yiq7ky7kycg6bplytvo736zzkqdxocqsutfh.py":98:20)
#loc102 = loc("inductor_cache/5r/c5rlwyhg4n6abom2yiq7ky7kycg6bplytvo736zzkqdxocqsutfh.py":101:20)
#loc103 = loc("inductor_cache/5r/c5rlwyhg4n6abom2yiq7ky7kycg6bplytvo736zzkqdxocqsutfh.py":102:32)
#loc104 = loc("inductor_cache/5r/c5rlwyhg4n6abom2yiq7ky7kycg6bplytvo736zzkqdxocqsutfh.py":102:81)
#loc105 = loc("inductor_cache/5r/c5rlwyhg4n6abom2yiq7ky7kycg6bplytvo736zzkqdxocqsutfh.py":103:20)
#loc106 = loc("inductor_cache/5r/c5rlwyhg4n6abom2yiq7ky7kycg6bplytvo736zzkqdxocqsutfh.py":104:32)
#loc107 = loc("inductor_cache/5r/c5rlwyhg4n6abom2yiq7ky7kycg6bplytvo736zzkqdxocqsutfh.py":104:81)
#loc108 = loc("inductor_cache/5r/c5rlwyhg4n6abom2yiq7ky7kycg6bplytvo736zzkqdxocqsutfh.py":105:20)
#loc109 = loc("inductor_cache/5r/c5rlwyhg4n6abom2yiq7ky7kycg6bplytvo736zzkqdxocqsutfh.py":107:42)
#loc110 = loc("inductor_cache/5r/c5rlwyhg4n6abom2yiq7ky7kycg6bplytvo736zzkqdxocqsutfh.py":109:35)
#loc111 = loc("inductor_cache/5r/c5rlwyhg4n6abom2yiq7ky7kycg6bplytvo736zzkqdxocqsutfh.py":110:20)
#loc112 = loc("inductor_cache/5r/c5rlwyhg4n6abom2yiq7ky7kycg6bplytvo736zzkqdxocqsutfh.py":113:61)
#loc113 = loc("inductor_cache/5r/c5rlwyhg4n6abom2yiq7ky7kycg6bplytvo736zzkqdxocqsutfh.py":113:52)
#loc114 = loc("inductor_cache/5r/c5rlwyhg4n6abom2yiq7ky7kycg6bplytvo736zzkqdxocqsutfh.py":113:32)
#loc115 = loc("inductor_cache/5r/c5rlwyhg4n6abom2yiq7ky7kycg6bplytvo736zzkqdxocqsutfh.py":113:75)
#loc116 = loc("inductor_cache/5r/c5rlwyhg4n6abom2yiq7ky7kycg6bplytvo736zzkqdxocqsutfh.py":113:67)
#loc117 = loc("inductor_cache/5r/c5rlwyhg4n6abom2yiq7ky7kycg6bplytvo736zzkqdxocqsutfh.py":114:32)
#loc118 = loc("inductor_cache/5r/c5rlwyhg4n6abom2yiq7ky7kycg6bplytvo736zzkqdxocqsutfh.py":114:81)
#loc119 = loc("inductor_cache/5r/c5rlwyhg4n6abom2yiq7ky7kycg6bplytvo736zzkqdxocqsutfh.py":115:20)
#loc120 = loc("inductor_cache/5r/c5rlwyhg4n6abom2yiq7ky7kycg6bplytvo736zzkqdxocqsutfh.py":116:32)
#loc121 = loc("inductor_cache/5r/c5rlwyhg4n6abom2yiq7ky7kycg6bplytvo736zzkqdxocqsutfh.py":116:81)
#loc122 = loc("inductor_cache/5r/c5rlwyhg4n6abom2yiq7ky7kycg6bplytvo736zzkqdxocqsutfh.py":118:20)
#loc123 = loc("inductor_cache/5r/c5rlwyhg4n6abom2yiq7ky7kycg6bplytvo736zzkqdxocqsutfh.py":119:27)
#loc124 = loc("inductor_cache/5r/c5rlwyhg4n6abom2yiq7ky7kycg6bplytvo736zzkqdxocqsutfh.py":121:20)
#loc125 = loc("inductor_cache/5r/c5rlwyhg4n6abom2yiq7ky7kycg6bplytvo736zzkqdxocqsutfh.py":124:20)
#loc126 = loc("inductor_cache/5r/c5rlwyhg4n6abom2yiq7ky7kycg6bplytvo736zzkqdxocqsutfh.py":125:32)
#loc127 = loc("inductor_cache/5r/c5rlwyhg4n6abom2yiq7ky7kycg6bplytvo736zzkqdxocqsutfh.py":125:81)
#loc128 = loc("inductor_cache/5r/c5rlwyhg4n6abom2yiq7ky7kycg6bplytvo736zzkqdxocqsutfh.py":126:20)
#loc129 = loc("inductor_cache/5r/c5rlwyhg4n6abom2yiq7ky7kycg6bplytvo736zzkqdxocqsutfh.py":127:32)
#loc130 = loc("inductor_cache/5r/c5rlwyhg4n6abom2yiq7ky7kycg6bplytvo736zzkqdxocqsutfh.py":127:81)
#loc131 = loc("inductor_cache/5r/c5rlwyhg4n6abom2yiq7ky7kycg6bplytvo736zzkqdxocqsutfh.py":128:20)
#loc132 = loc("inductor_cache/5r/c5rlwyhg4n6abom2yiq7ky7kycg6bplytvo736zzkqdxocqsutfh.py":130:42)
#loc133 = loc("inductor_cache/5r/c5rlwyhg4n6abom2yiq7ky7kycg6bplytvo736zzkqdxocqsutfh.py":132:35)
#loc134 = loc("inductor_cache/5r/c5rlwyhg4n6abom2yiq7ky7kycg6bplytvo736zzkqdxocqsutfh.py":133:35)
#loc135 = loc("inductor_cache/5r/c5rlwyhg4n6abom2yiq7ky7kycg6bplytvo736zzkqdxocqsutfh.py":134:35)
#loc136 = loc("inductor_cache/5r/c5rlwyhg4n6abom2yiq7ky7kycg6bplytvo736zzkqdxocqsutfh.py":135:34)
#loc137 = loc("inductor_cache/5r/c5rlwyhg4n6abom2yiq7ky7kycg6bplytvo736zzkqdxocqsutfh.py":136:21)
#loc138 = loc("inductor_cache/5r/c5rlwyhg4n6abom2yiq7ky7kycg6bplytvo736zzkqdxocqsutfh.py":138:22)
#loc139 = loc("inductor_cache/5r/c5rlwyhg4n6abom2yiq7ky7kycg6bplytvo736zzkqdxocqsutfh.py":139:28)
#loc140 = loc("inductor_cache/5r/c5rlwyhg4n6abom2yiq7ky7kycg6bplytvo736zzkqdxocqsutfh.py":141:22)
#loc141 = loc("inductor_cache/5r/c5rlwyhg4n6abom2yiq7ky7kycg6bplytvo736zzkqdxocqsutfh.py":144:22)
#loc142 = loc("inductor_cache/5r/c5rlwyhg4n6abom2yiq7ky7kycg6bplytvo736zzkqdxocqsutfh.py":145:22)
#loc143 = loc("inductor_cache/5r/c5rlwyhg4n6abom2yiq7ky7kycg6bplytvo736zzkqdxocqsutfh.py":146:22)
#loc144 = loc("inductor_cache/5r/c5rlwyhg4n6abom2yiq7ky7kycg6bplytvo736zzkqdxocqsutfh.py":147:21)
#loc145 = loc("inductor_cache/5r/c5rlwyhg4n6abom2yiq7ky7kycg6bplytvo736zzkqdxocqsutfh.py":149:44)
#loc146 = loc("inductor_cache/5r/c5rlwyhg4n6abom2yiq7ky7kycg6bplytvo736zzkqdxocqsutfh.py":151:23)
#loc147 = loc("inductor_cache/5r/c5rlwyhg4n6abom2yiq7ky7kycg6bplytvo736zzkqdxocqsutfh.py":152:4)
#loc148 = loc("inductor_cache/5r/c5rlwyhg4n6abom2yiq7ky7kycg6bplytvo736zzkqdxocqsutfh.py":153:38)
#loc149 = loc("inductor_cache/5r/c5rlwyhg4n6abom2yiq7ky7kycg6bplytvo736zzkqdxocqsutfh.py":153:33)
#loc150 = loc("inductor_cache/5r/c5rlwyhg4n6abom2yiq7ky7kycg6bplytvo736zzkqdxocqsutfh.py":153:28)
#loc151 = loc("inductor_cache/5r/c5rlwyhg4n6abom2yiq7ky7kycg6bplytvo736zzkqdxocqsutfh.py":153:51)
#loc152 = loc("inductor_cache/5r/c5rlwyhg4n6abom2yiq7ky7kycg6bplytvo736zzkqdxocqsutfh.py":154:25)
#loc153 = loc("inductor_cache/5r/c5rlwyhg4n6abom2yiq7ky7kycg6bplytvo736zzkqdxocqsutfh.py":154:59)
#loc154 = loc("inductor_cache/5r/c5rlwyhg4n6abom2yiq7ky7kycg6bplytvo736zzkqdxocqsutfh.py":154:4)
#loc155 = loc(callsite(#loc51 at #loc52))
#loc156 = loc(callsite(#loc53 at #loc52))
#loc157 = loc(callsite(#loc51 at #loc81))
#loc158 = loc(callsite(#loc53 at #loc81))
#loc159 = loc(callsite(#loc51 at #loc109))
#loc160 = loc(callsite(#loc53 at #loc109))
#loc161 = loc(callsite(#loc51 at #loc132))
#loc162 = loc(callsite(#loc53 at #loc132))
#loc163 = loc(callsite(#loc51 at #loc145))
#loc164 = loc(callsite(#loc53 at #loc145))
