#loc = loc("inductor_cache/dy/cdyvzuhwhdz4xvu3gpardbsq5ifooxbwnk6ftmxzukm77qrbmvpt.py":19:0)
#loc1 = loc(unknown)
#loc40 = loc("inductor_cache/dy/cdyvzuhwhdz4xvu3gpardbsq5ifooxbwnk6ftmxzukm77qrbmvpt.py":58:26)
#loc62 = loc(callsite(#loc1 at #loc40))
module {
  tt.func public @triton_per_fused_add_div_log_mul_pow_sub_sum_3(%arg0: !tt.ptr<f32> {tt.divisibility = 16 : i32} loc("inductor_cache/dy/cdyvzuhwhdz4xvu3gpardbsq5ifooxbwnk6ftmxzukm77qrbmvpt.py":19:0), %arg1: !tt.ptr<f32> {tt.divisibility = 16 : i32} loc("inductor_cache/dy/cdyvzuhwhdz4xvu3gpardbsq5ifooxbwnk6ftmxzukm77qrbmvpt.py":19:0), %arg2: !tt.ptr<f32> {tt.divisibility = 16 : i32} loc("inductor_cache/dy/cdyvzuhwhdz4xvu3gpardbsq5ifooxbwnk6ftmxzukm77qrbmvpt.py":19:0), %arg3: !tt.ptr<f32> {tt.divisibility = 16 : i32} loc("inductor_cache/dy/cdyvzuhwhdz4xvu3gpardbsq5ifooxbwnk6ftmxzukm77qrbmvpt.py":19:0), %arg4: !tt.ptr<f32> {tt.divisibility = 16 : i32} loc("inductor_cache/dy/cdyvzuhwhdz4xvu3gpardbsq5ifooxbwnk6ftmxzukm77qrbmvpt.py":19:0), %arg5: !tt.ptr<f32> {tt.divisibility = 16 : i32} loc("inductor_cache/dy/cdyvzuhwhdz4xvu3gpardbsq5ifooxbwnk6ftmxzukm77qrbmvpt.py":19:0), %arg6: !tt.ptr<f32> {tt.divisibility = 16 : i32} loc("inductor_cache/dy/cdyvzuhwhdz4xvu3gpardbsq5ifooxbwnk6ftmxzukm77qrbmvpt.py":19:0), %arg7: !tt.ptr<f32> {tt.divisibility = 16 : i32} loc("inductor_cache/dy/cdyvzuhwhdz4xvu3gpardbsq5ifooxbwnk6ftmxzukm77qrbmvpt.py":19:0), %arg8: i32 loc("inductor_cache/dy/cdyvzuhwhdz4xvu3gpardbsq5ifooxbwnk6ftmxzukm77qrbmvpt.py":19:0)) attributes {noinline = false} {
    %c0_i32 = arith.constant 0 : i32 loc(#loc1)
    %cst = arith.constant dense<3.18877544E-4> : tensor<1x1xf32> loc(#loc1)
    %cst_0 = arith.constant dense<5.000000e-01> : tensor<1x1xf32> loc(#loc1)
    %cst_1 = arith.constant dense<1.000000e+00> : tensor<1x64xf32> loc(#loc1)
    %cst_2 = arith.constant dense<2.000000e+00> : tensor<1x64xf32> loc(#loc1)
    %cst_3 = arith.constant dense<9.99999993E-9> : tensor<1x64xf32> loc(#loc1)
    %cst_4 = arith.constant dense<0.000000e+00> : tensor<1x64xf32> loc(#loc1)
    %cst_5 = arith.constant dense<20> : tensor<1x64xi32> loc(#loc1)
    %cst_6 = arith.constant dense<10> : tensor<1x64xi32> loc(#loc1)
    %cst_7 = arith.constant dense<40> : tensor<1x64xi32> loc(#loc1)
    %0 = tt.make_range {end = 64 : i32, start = 0 : i32} : tensor<64xi32> loc(#loc2)
    %1 = tt.expand_dims %0 {axis = 0 : i32} : tensor<64xi32> -> tensor<1x64xi32> loc(#loc3)
    %2 = arith.cmpi slt, %1, %cst_7 : tensor<1x64xi32> loc(#loc4)
    %3 = arith.remsi %1, %cst_6 : tensor<1x64xi32> loc(#loc5)
    %4 = arith.divsi %1, %cst_6 : tensor<1x64xi32> loc(#loc6)
    %5 = arith.muli %4, %cst_5 : tensor<1x64xi32> loc(#loc7)
    %6 = arith.addi %3, %5 : tensor<1x64xi32> loc(#loc8)
    %7 = tt.splat %arg1 : !tt.ptr<f32> -> tensor<1x64x!tt.ptr<f32>> loc(#loc9)
    %8 = tt.addptr %7, %6 : tensor<1x64x!tt.ptr<f32>>, tensor<1x64xi32> loc(#loc9)
    %9 = tt.load %8, %2, %cst_4 : tensor<1x64x!tt.ptr<f32>> loc(#loc10)
    %10 = tt.splat %arg2 : !tt.ptr<f32> -> tensor<1x64x!tt.ptr<f32>> loc(#loc11)
    %11 = tt.addptr %10, %3 : tensor<1x64x!tt.ptr<f32>>, tensor<1x64xi32> loc(#loc11)
    %12 = tt.load %11, %2, %cst_4 evictionPolicy = evict_last : tensor<1x64x!tt.ptr<f32>> loc(#loc12)
    %13 = arith.addi %3, %cst_6 : tensor<1x64xi32> loc(#loc13)
    %14 = arith.addi %13, %5 : tensor<1x64xi32> loc(#loc14)
    %15 = tt.addptr %7, %14 : tensor<1x64x!tt.ptr<f32>>, tensor<1x64xi32> loc(#loc15)
    %16 = tt.load %15, %2, %cst_4 : tensor<1x64x!tt.ptr<f32>> loc(#loc16)
    %17 = tt.addptr %10, %13 : tensor<1x64x!tt.ptr<f32>>, tensor<1x64xi32> loc(#loc17)
    %18 = tt.load %17, %2, %cst_4 evictionPolicy = evict_last : tensor<1x64x!tt.ptr<f32>> loc(#loc18)
    %19 = tt.splat %arg3 : !tt.ptr<f32> -> tensor<1x64x!tt.ptr<f32>> loc(#loc19)
    %20 = tt.addptr %19, %1 : tensor<1x64x!tt.ptr<f32>>, tensor<1x64xi32> loc(#loc19)
    %21 = tt.load %20, %2, %cst_4 : tensor<1x64x!tt.ptr<f32>> loc(#loc20)
    %22 = arith.addf %9, %12 : tensor<1x64xf32> loc(#loc21)
    %23 = arith.cmpf ogt, %cst_4, %22 : tensor<1x64xf32> loc(#loc57)
    %24 = arith.select %23, %cst_4, %22 : tensor<1x64xi1>, tensor<1x64xf32> loc(#loc58)
    %25 = arith.addf %16, %18 : tensor<1x64xf32> loc(#loc25)
    %26 = arith.cmpf ogt, %cst_4, %25 : tensor<1x64xf32> loc(#loc59)
    %27 = arith.select %26, %cst_4, %25 : tensor<1x64xi1>, tensor<1x64xf32> loc(#loc60)
    %28 = arith.mulf %27, %21 : tensor<1x64xf32> loc(#loc27)
    %29 = arith.addf %24, %28 : tensor<1x64xf32> loc(#loc28)
    %30 = arith.mulf %27, %27 : tensor<1x64xf32> loc(#loc29)
    %31 = arith.addf %30, %cst_3 : tensor<1x64xf32> loc(#loc30)
    %32 = arith.mulf %27, %cst_2 : tensor<1x64xf32> loc(#loc31)
    %33 = arith.mulf %24, %cst_2 : tensor<1x64xf32> loc(#loc32)
    %34 = arith.mulf %24, %24 : tensor<1x64xf32> loc(#loc33)
    %35 = arith.addf %34, %30 : tensor<1x64xf32> loc(#loc34)
    %36 = math.log %31 : tensor<1x64xf32> loc(#loc35)
    %37 = arith.subf %35, %36 : tensor<1x64xf32> loc(#loc36)
    %38 = arith.subf %37, %cst_1 : tensor<1x64xf32> loc(#loc37)
    %39 = arith.select %2, %38, %cst_4 : tensor<1x64xi1>, tensor<1x64xf32> loc(#loc38)
    %40 = "tt.reduce"(%39) <{axis = 1 : i32}> ({
    ^bb0(%arg9: f32 loc(callsite(#loc1 at #loc40)), %arg10: f32 loc(callsite(#loc1 at #loc40))):
      %54 = arith.addf %arg9, %arg10 : f32 loc(#loc64)
      tt.reduce.return %54 : f32 loc(#loc61)
    }) : (tensor<1x64xf32>) -> tensor<1xf32> loc(#loc61)
    %41 = tt.expand_dims %40 {axis = 1 : i32} : tensor<1xf32> -> tensor<1x1xf32> loc(#loc42)
    %42 = arith.mulf %41, %cst_0 : tensor<1x1xf32> loc(#loc43)
    %43 = arith.mulf %42, %cst : tensor<1x1xf32> loc(#loc44)
    %44 = tt.splat %arg4 : !tt.ptr<f32> -> tensor<1x64x!tt.ptr<f32>> loc(#loc45)
    %45 = tt.addptr %44, %1 : tensor<1x64x!tt.ptr<f32>>, tensor<1x64xi32> loc(#loc45)
    tt.store %45, %29, %2 : tensor<1x64x!tt.ptr<f32>> loc(#loc46)
    %46 = tt.splat %arg5 : !tt.ptr<f32> -> tensor<1x64x!tt.ptr<f32>> loc(#loc47)
    %47 = tt.addptr %46, %1 : tensor<1x64x!tt.ptr<f32>>, tensor<1x64xi32> loc(#loc47)
    tt.store %47, %31, %2 : tensor<1x64x!tt.ptr<f32>> loc(#loc48)
    %48 = tt.splat %arg6 : !tt.ptr<f32> -> tensor<1x64x!tt.ptr<f32>> loc(#loc49)
    %49 = tt.addptr %48, %1 : tensor<1x64x!tt.ptr<f32>>, tensor<1x64xi32> loc(#loc49)
    tt.store %49, %32, %2 : tensor<1x64x!tt.ptr<f32>> loc(#loc50)
    %50 = tt.splat %arg7 : !tt.ptr<f32> -> tensor<1x64x!tt.ptr<f32>> loc(#loc51)
    %51 = tt.addptr %50, %1 : tensor<1x64x!tt.ptr<f32>>, tensor<1x64xi32> loc(#loc51)
    tt.store %51, %33, %2 : tensor<1x64x!tt.ptr<f32>> loc(#loc52)
    gpu.barrier loc(#loc53)
    %52 = tt.addptr %arg0, %c0_i32 : !tt.ptr<f32>, i32 loc(#loc54)
    %53 = tt.splat %52 : !tt.ptr<f32> -> tensor<1x1x!tt.ptr<f32>> loc(#loc54)
    tt.store %53, %43 : tensor<1x1x!tt.ptr<f32>> loc(#loc55)
    tt.return loc(#loc56)
  } loc(#loc)
} loc(#loc)
#loc2 = loc("inductor_cache/dy/cdyvzuhwhdz4xvu3gpardbsq5ifooxbwnk6ftmxzukm77qrbmvpt.py":26:26)
#loc3 = loc("inductor_cache/dy/cdyvzuhwhdz4xvu3gpardbsq5ifooxbwnk6ftmxzukm77qrbmvpt.py":26:34)
#loc4 = loc("inductor_cache/dy/cdyvzuhwhdz4xvu3gpardbsq5ifooxbwnk6ftmxzukm77qrbmvpt.py":28:21)
#loc5 = loc("inductor_cache/dy/cdyvzuhwhdz4xvu3gpardbsq5ifooxbwnk6ftmxzukm77qrbmvpt.py":29:19)
#loc6 = loc("inductor_cache/dy/cdyvzuhwhdz4xvu3gpardbsq5ifooxbwnk6ftmxzukm77qrbmvpt.py":30:19)
#loc7 = loc("inductor_cache/dy/cdyvzuhwhdz4xvu3gpardbsq5ifooxbwnk6ftmxzukm77qrbmvpt.py":32:38)
#loc8 = loc("inductor_cache/dy/cdyvzuhwhdz4xvu3gpardbsq5ifooxbwnk6ftmxzukm77qrbmvpt.py":32:35)
#loc9 = loc("inductor_cache/dy/cdyvzuhwhdz4xvu3gpardbsq5ifooxbwnk6ftmxzukm77qrbmvpt.py":32:30)
#loc10 = loc("inductor_cache/dy/cdyvzuhwhdz4xvu3gpardbsq5ifooxbwnk6ftmxzukm77qrbmvpt.py":32:43)
#loc11 = loc("inductor_cache/dy/cdyvzuhwhdz4xvu3gpardbsq5ifooxbwnk6ftmxzukm77qrbmvpt.py":33:30)
#loc12 = loc("inductor_cache/dy/cdyvzuhwhdz4xvu3gpardbsq5ifooxbwnk6ftmxzukm77qrbmvpt.py":33:35)
#loc13 = loc("inductor_cache/dy/cdyvzuhwhdz4xvu3gpardbsq5ifooxbwnk6ftmxzukm77qrbmvpt.py":34:35)
#loc14 = loc("inductor_cache/dy/cdyvzuhwhdz4xvu3gpardbsq5ifooxbwnk6ftmxzukm77qrbmvpt.py":34:40)
#loc15 = loc("inductor_cache/dy/cdyvzuhwhdz4xvu3gpardbsq5ifooxbwnk6ftmxzukm77qrbmvpt.py":34:30)
#loc16 = loc("inductor_cache/dy/cdyvzuhwhdz4xvu3gpardbsq5ifooxbwnk6ftmxzukm77qrbmvpt.py":34:48)
#loc17 = loc("inductor_cache/dy/cdyvzuhwhdz4xvu3gpardbsq5ifooxbwnk6ftmxzukm77qrbmvpt.py":35:30)
#loc18 = loc("inductor_cache/dy/cdyvzuhwhdz4xvu3gpardbsq5ifooxbwnk6ftmxzukm77qrbmvpt.py":35:40)
#loc19 = loc("inductor_cache/dy/cdyvzuhwhdz4xvu3gpardbsq5ifooxbwnk6ftmxzukm77qrbmvpt.py":36:30)
#loc20 = loc("inductor_cache/dy/cdyvzuhwhdz4xvu3gpardbsq5ifooxbwnk6ftmxzukm77qrbmvpt.py":36:35)
#loc21 = loc("inductor_cache/dy/cdyvzuhwhdz4xvu3gpardbsq5ifooxbwnk6ftmxzukm77qrbmvpt.py":37:18)
#loc22 = loc("/home/sahanp/.conda/envs/parity-bench/lib/python3.12/site-packages/torch/_inductor/runtime/triton_helpers.py":118:15)
#loc23 = loc("inductor_cache/dy/cdyvzuhwhdz4xvu3gpardbsq5ifooxbwnk6ftmxzukm77qrbmvpt.py":39:40)
#loc24 = loc("/home/sahanp/.conda/envs/parity-bench/lib/python3.12/site-packages/torch/_inductor/runtime/triton_helpers.py":121:29)
#loc25 = loc("inductor_cache/dy/cdyvzuhwhdz4xvu3gpardbsq5ifooxbwnk6ftmxzukm77qrbmvpt.py":40:18)
#loc26 = loc("inductor_cache/dy/cdyvzuhwhdz4xvu3gpardbsq5ifooxbwnk6ftmxzukm77qrbmvpt.py":41:40)
#loc27 = loc("inductor_cache/dy/cdyvzuhwhdz4xvu3gpardbsq5ifooxbwnk6ftmxzukm77qrbmvpt.py":42:19)
#loc28 = loc("inductor_cache/dy/cdyvzuhwhdz4xvu3gpardbsq5ifooxbwnk6ftmxzukm77qrbmvpt.py":43:19)
#loc29 = loc("inductor_cache/dy/cdyvzuhwhdz4xvu3gpardbsq5ifooxbwnk6ftmxzukm77qrbmvpt.py":44:19)
#loc30 = loc("inductor_cache/dy/cdyvzuhwhdz4xvu3gpardbsq5ifooxbwnk6ftmxzukm77qrbmvpt.py":46:20)
#loc31 = loc("inductor_cache/dy/cdyvzuhwhdz4xvu3gpardbsq5ifooxbwnk6ftmxzukm77qrbmvpt.py":48:19)
#loc32 = loc("inductor_cache/dy/cdyvzuhwhdz4xvu3gpardbsq5ifooxbwnk6ftmxzukm77qrbmvpt.py":49:19)
#loc33 = loc("inductor_cache/dy/cdyvzuhwhdz4xvu3gpardbsq5ifooxbwnk6ftmxzukm77qrbmvpt.py":50:19)
#loc34 = loc("inductor_cache/dy/cdyvzuhwhdz4xvu3gpardbsq5ifooxbwnk6ftmxzukm77qrbmvpt.py":51:20)
#loc35 = loc("inductor_cache/dy/cdyvzuhwhdz4xvu3gpardbsq5ifooxbwnk6ftmxzukm77qrbmvpt.py":52:24)
#loc36 = loc("inductor_cache/dy/cdyvzuhwhdz4xvu3gpardbsq5ifooxbwnk6ftmxzukm77qrbmvpt.py":53:20)
#loc37 = loc("inductor_cache/dy/cdyvzuhwhdz4xvu3gpardbsq5ifooxbwnk6ftmxzukm77qrbmvpt.py":55:20)
#loc38 = loc("inductor_cache/dy/cdyvzuhwhdz4xvu3gpardbsq5ifooxbwnk6ftmxzukm77qrbmvpt.py":57:35)
#loc39 = loc("/home/sahanp/.conda/envs/parity-bench/lib/python3.12/site-packages/triton/language/standard.py":267:36)
#loc41 = loc("/home/sahanp/.conda/envs/parity-bench/lib/python3.12/site-packages/triton/language/standard.py":256:15)
#loc42 = loc("inductor_cache/dy/cdyvzuhwhdz4xvu3gpardbsq5ifooxbwnk6ftmxzukm77qrbmvpt.py":58:29)
#loc43 = loc("inductor_cache/dy/cdyvzuhwhdz4xvu3gpardbsq5ifooxbwnk6ftmxzukm77qrbmvpt.py":60:20)
#loc44 = loc("inductor_cache/dy/cdyvzuhwhdz4xvu3gpardbsq5ifooxbwnk6ftmxzukm77qrbmvpt.py":62:20)
#loc45 = loc("inductor_cache/dy/cdyvzuhwhdz4xvu3gpardbsq5ifooxbwnk6ftmxzukm77qrbmvpt.py":63:25)
#loc46 = loc("inductor_cache/dy/cdyvzuhwhdz4xvu3gpardbsq5ifooxbwnk6ftmxzukm77qrbmvpt.py":63:72)
#loc47 = loc("inductor_cache/dy/cdyvzuhwhdz4xvu3gpardbsq5ifooxbwnk6ftmxzukm77qrbmvpt.py":64:25)
#loc48 = loc("inductor_cache/dy/cdyvzuhwhdz4xvu3gpardbsq5ifooxbwnk6ftmxzukm77qrbmvpt.py":64:72)
#loc49 = loc("inductor_cache/dy/cdyvzuhwhdz4xvu3gpardbsq5ifooxbwnk6ftmxzukm77qrbmvpt.py":65:25)
#loc50 = loc("inductor_cache/dy/cdyvzuhwhdz4xvu3gpardbsq5ifooxbwnk6ftmxzukm77qrbmvpt.py":65:72)
#loc51 = loc("inductor_cache/dy/cdyvzuhwhdz4xvu3gpardbsq5ifooxbwnk6ftmxzukm77qrbmvpt.py":66:25)
#loc52 = loc("inductor_cache/dy/cdyvzuhwhdz4xvu3gpardbsq5ifooxbwnk6ftmxzukm77qrbmvpt.py":66:72)
#loc53 = loc("inductor_cache/dy/cdyvzuhwhdz4xvu3gpardbsq5ifooxbwnk6ftmxzukm77qrbmvpt.py":67:4)
#loc54 = loc("inductor_cache/dy/cdyvzuhwhdz4xvu3gpardbsq5ifooxbwnk6ftmxzukm77qrbmvpt.py":68:28)
#loc55 = loc("inductor_cache/dy/cdyvzuhwhdz4xvu3gpardbsq5ifooxbwnk6ftmxzukm77qrbmvpt.py":68:71)
#loc56 = loc("inductor_cache/dy/cdyvzuhwhdz4xvu3gpardbsq5ifooxbwnk6ftmxzukm77qrbmvpt.py":68:4)
#loc57 = loc(callsite(#loc22 at #loc23))
#loc58 = loc(callsite(#loc24 at #loc23))
#loc59 = loc(callsite(#loc22 at #loc26))
#loc60 = loc(callsite(#loc24 at #loc26))
#loc61 = loc(callsite(#loc39 at #loc40))
#loc63 = loc(callsite(#loc41 at #loc39))
#loc64 = loc(callsite(#loc63 at #loc40))
