#loc = loc("inductor_cache/b4/cb4bbjotxkwvoipwlv6febmzxnrxtzi4jfhvatqbfxwoltmzdv5r.py":19:0)
module {
  tt.func public @triton_poi_fused_add_convolution_mul_9(%arg0: !tt.ptr<f32> {tt.divisibility = 16 : i32} loc("inductor_cache/b4/cb4bbjotxkwvoipwlv6febmzxnrxtzi4jfhvatqbfxwoltmzdv5r.py":19:0), %arg1: !tt.ptr<f32> {tt.divisibility = 16 : i32} loc("inductor_cache/b4/cb4bbjotxkwvoipwlv6febmzxnrxtzi4jfhvatqbfxwoltmzdv5r.py":19:0), %arg2: !tt.ptr<f32> {tt.divisibility = 16 : i32} loc("inductor_cache/b4/cb4bbjotxkwvoipwlv6febmzxnrxtzi4jfhvatqbfxwoltmzdv5r.py":19:0), %arg3: !tt.ptr<f32> {tt.divisibility = 16 : i32} loc("inductor_cache/b4/cb4bbjotxkwvoipwlv6febmzxnrxtzi4jfhvatqbfxwoltmzdv5r.py":19:0), %arg4: i32 {tt.divisibility = 16 : i32} loc("inductor_cache/b4/cb4bbjotxkwvoipwlv6febmzxnrxtzi4jfhvatqbfxwoltmzdv5r.py":19:0)) attributes {noinline = false} {
    %cst = arith.constant dense<2.000000e-01> : tensor<128xf32> loc(#loc1)
    %cst_0 = arith.constant dense<64> : tensor<128xi32> loc(#loc1)
    %cst_1 = arith.constant dense<16> : tensor<128xi32> loc(#loc1)
    %c128_i32 = arith.constant 128 : i32 loc(#loc1)
    %0 = tt.get_program_id x : i32 loc(#loc2)
    %1 = arith.muli %0, %c128_i32 : i32 loc(#loc3)
    %2 = tt.make_range {end = 128 : i32, start = 0 : i32} : tensor<128xi32> loc(#loc4)
    %3 = tt.splat %1 : i32 -> tensor<128xi32> loc(#loc5)
    %4 = arith.addi %3, %2 : tensor<128xi32> loc(#loc5)
    %5 = arith.divsi %4, %cst_1 : tensor<128xi32> loc(#loc6)
    %6 = arith.remsi %5, %cst_0 : tensor<128xi32> loc(#loc7)
    %7 = tt.splat %arg0 : !tt.ptr<f32> -> tensor<128x!tt.ptr<f32>> loc(#loc8)
    %8 = tt.addptr %7, %4 : tensor<128x!tt.ptr<f32>>, tensor<128xi32> loc(#loc8)
    %9 = tt.load %8 : tensor<128x!tt.ptr<f32>> loc(#loc9)
    %10 = tt.splat %arg1 : !tt.ptr<f32> -> tensor<128x!tt.ptr<f32>> loc(#loc10)
    %11 = tt.addptr %10, %6 : tensor<128x!tt.ptr<f32>>, tensor<128xi32> loc(#loc10)
    %12 = tt.load %11 evictionPolicy = evict_last : tensor<128x!tt.ptr<f32>> loc(#loc11)
    %13 = tt.splat %arg2 : !tt.ptr<f32> -> tensor<128x!tt.ptr<f32>> loc(#loc12)
    %14 = tt.addptr %13, %4 : tensor<128x!tt.ptr<f32>>, tensor<128xi32> loc(#loc12)
    %15 = tt.load %14 : tensor<128x!tt.ptr<f32>> loc(#loc13)
    %16 = tt.splat %arg3 : !tt.ptr<f32> -> tensor<128x!tt.ptr<f32>> loc(#loc14)
    %17 = tt.addptr %16, %4 : tensor<128x!tt.ptr<f32>>, tensor<128xi32> loc(#loc14)
    %18 = tt.load %17 : tensor<128x!tt.ptr<f32>> loc(#loc15)
    %19 = arith.addf %9, %12 : tensor<128xf32> loc(#loc16)
    %20 = arith.mulf %19, %cst : tensor<128xf32> loc(#loc17)
    %21 = arith.addf %20, %15 : tensor<128xf32> loc(#loc18)
    %22 = arith.mulf %21, %cst : tensor<128xf32> loc(#loc19)
    %23 = arith.addf %22, %18 : tensor<128xf32> loc(#loc20)
    tt.store %8, %23 : tensor<128x!tt.ptr<f32>> loc(#loc21)
    tt.return loc(#loc22)
  } loc(#loc)
} loc(#loc)
#loc1 = loc(unknown)
#loc2 = loc("inductor_cache/b4/cb4bbjotxkwvoipwlv6febmzxnrxtzi4jfhvatqbfxwoltmzdv5r.py":21:28)
#loc3 = loc("inductor_cache/b4/cb4bbjotxkwvoipwlv6febmzxnrxtzi4jfhvatqbfxwoltmzdv5r.py":21:33)
#loc4 = loc("inductor_cache/b4/cb4bbjotxkwvoipwlv6febmzxnrxtzi4jfhvatqbfxwoltmzdv5r.py":22:36)
#loc5 = loc("inductor_cache/b4/cb4bbjotxkwvoipwlv6febmzxnrxtzi4jfhvatqbfxwoltmzdv5r.py":22:23)
#loc6 = loc("inductor_cache/b4/cb4bbjotxkwvoipwlv6febmzxnrxtzi4jfhvatqbfxwoltmzdv5r.py":25:21)
#loc7 = loc("inductor_cache/b4/cb4bbjotxkwvoipwlv6febmzxnrxtzi4jfhvatqbfxwoltmzdv5r.py":25:27)
#loc8 = loc("inductor_cache/b4/cb4bbjotxkwvoipwlv6febmzxnrxtzi4jfhvatqbfxwoltmzdv5r.py":26:34)
#loc9 = loc("inductor_cache/b4/cb4bbjotxkwvoipwlv6febmzxnrxtzi4jfhvatqbfxwoltmzdv5r.py":26:39)
#loc10 = loc("inductor_cache/b4/cb4bbjotxkwvoipwlv6febmzxnrxtzi4jfhvatqbfxwoltmzdv5r.py":27:30)
#loc11 = loc("inductor_cache/b4/cb4bbjotxkwvoipwlv6febmzxnrxtzi4jfhvatqbfxwoltmzdv5r.py":27:35)
#loc12 = loc("inductor_cache/b4/cb4bbjotxkwvoipwlv6febmzxnrxtzi4jfhvatqbfxwoltmzdv5r.py":28:30)
#loc13 = loc("inductor_cache/b4/cb4bbjotxkwvoipwlv6febmzxnrxtzi4jfhvatqbfxwoltmzdv5r.py":28:35)
#loc14 = loc("inductor_cache/b4/cb4bbjotxkwvoipwlv6febmzxnrxtzi4jfhvatqbfxwoltmzdv5r.py":29:30)
#loc15 = loc("inductor_cache/b4/cb4bbjotxkwvoipwlv6febmzxnrxtzi4jfhvatqbfxwoltmzdv5r.py":29:35)
#loc16 = loc("inductor_cache/b4/cb4bbjotxkwvoipwlv6febmzxnrxtzi4jfhvatqbfxwoltmzdv5r.py":30:18)
#loc17 = loc("inductor_cache/b4/cb4bbjotxkwvoipwlv6febmzxnrxtzi4jfhvatqbfxwoltmzdv5r.py":32:18)
#loc18 = loc("inductor_cache/b4/cb4bbjotxkwvoipwlv6febmzxnrxtzi4jfhvatqbfxwoltmzdv5r.py":33:18)
#loc19 = loc("inductor_cache/b4/cb4bbjotxkwvoipwlv6febmzxnrxtzi4jfhvatqbfxwoltmzdv5r.py":34:18)
#loc20 = loc("inductor_cache/b4/cb4bbjotxkwvoipwlv6febmzxnrxtzi4jfhvatqbfxwoltmzdv5r.py":35:18)
#loc21 = loc("inductor_cache/b4/cb4bbjotxkwvoipwlv6febmzxnrxtzi4jfhvatqbfxwoltmzdv5r.py":36:39)
#loc22 = loc("inductor_cache/b4/cb4bbjotxkwvoipwlv6febmzxnrxtzi4jfhvatqbfxwoltmzdv5r.py":36:4)
