#loc = loc("inductor_cache/qf/cqfdtuptvpdrz7tc3y57o7fm4rkxoagfzkp3rloy3hwlqubublza.py":19:0)
module {
  tt.func public @triton_poi_fused__weight_norm_interface_5(%arg0: !tt.ptr<f32> {tt.divisibility = 16 : i32} loc("inductor_cache/qf/cqfdtuptvpdrz7tc3y57o7fm4rkxoagfzkp3rloy3hwlqubublza.py":19:0), %arg1: !tt.ptr<f32> {tt.divisibility = 16 : i32} loc("inductor_cache/qf/cqfdtuptvpdrz7tc3y57o7fm4rkxoagfzkp3rloy3hwlqubublza.py":19:0), %arg2: i32 loc("inductor_cache/qf/cqfdtuptvpdrz7tc3y57o7fm4rkxoagfzkp3rloy3hwlqubublza.py":19:0)) attributes {noinline = false} {
    %cst = arith.constant dense<1> : tensor<2xi32> loc(#loc1)
    %cst_0 = arith.constant dense<2> : tensor<2xi32> loc(#loc1)
    %c2_i32 = arith.constant 2 : i32 loc(#loc1)
    %0 = tt.get_program_id x : i32 loc(#loc2)
    %1 = arith.muli %0, %c2_i32 : i32 loc(#loc3)
    %2 = tt.make_range {end = 2 : i32, start = 0 : i32} : tensor<2xi32> loc(#loc4)
    %3 = tt.splat %1 : i32 -> tensor<2xi32> loc(#loc5)
    %4 = arith.addi %3, %2 : tensor<2xi32> loc(#loc5)
    %5 = arith.cmpi slt, %4, %cst_0 : tensor<2xi32> loc(#loc6)
    %6 = arith.muli %4, %cst_0 : tensor<2xi32> loc(#loc7)
    %7 = tt.splat %arg0 : !tt.ptr<f32> -> tensor<2x!tt.ptr<f32>> loc(#loc8)
    %8 = tt.addptr %7, %6 : tensor<2x!tt.ptr<f32>>, tensor<2xi32> loc(#loc8)
    %9 = tt.load %8, %5 evictionPolicy = evict_last : tensor<2x!tt.ptr<f32>> loc(#loc9)
    %10 = arith.addi %6, %cst : tensor<2xi32> loc(#loc10)
    %11 = tt.addptr %7, %10 : tensor<2x!tt.ptr<f32>>, tensor<2xi32> loc(#loc11)
    %12 = tt.load %11, %5 evictionPolicy = evict_last : tensor<2x!tt.ptr<f32>> loc(#loc12)
    %13 = arith.mulf %9, %9 : tensor<2xf32> loc(#loc13)
    %14 = arith.mulf %12, %12 : tensor<2xf32> loc(#loc14)
    %15 = arith.addf %13, %14 : tensor<2xf32> loc(#loc15)
    %16 = tt.extern_elementwise %15 {libname = "", libpath = "", pure = true, symbol = "__nv_sqrtf"} : (tensor<2xf32>) -> tensor<2xf32> loc(#loc16)
    %17 = tt.splat %arg1 : !tt.ptr<f32> -> tensor<2x!tt.ptr<f32>> loc(#loc17)
    %18 = tt.addptr %17, %4 : tensor<2x!tt.ptr<f32>>, tensor<2xi32> loc(#loc17)
    tt.store %18, %16, %5 : tensor<2x!tt.ptr<f32>> loc(#loc18)
    tt.return loc(#loc19)
  } loc(#loc)
} loc(#loc)
#loc1 = loc(unknown)
#loc2 = loc("inductor_cache/qf/cqfdtuptvpdrz7tc3y57o7fm4rkxoagfzkp3rloy3hwlqubublza.py":21:28)
#loc3 = loc("inductor_cache/qf/cqfdtuptvpdrz7tc3y57o7fm4rkxoagfzkp3rloy3hwlqubublza.py":21:33)
#loc4 = loc("inductor_cache/qf/cqfdtuptvpdrz7tc3y57o7fm4rkxoagfzkp3rloy3hwlqubublza.py":22:36)
#loc5 = loc("inductor_cache/qf/cqfdtuptvpdrz7tc3y57o7fm4rkxoagfzkp3rloy3hwlqubublza.py":22:23)
#loc6 = loc("inductor_cache/qf/cqfdtuptvpdrz7tc3y57o7fm4rkxoagfzkp3rloy3hwlqubublza.py":23:21)
#loc7 = loc("inductor_cache/qf/cqfdtuptvpdrz7tc3y57o7fm4rkxoagfzkp3rloy3hwlqubublza.py":25:32)
#loc8 = loc("inductor_cache/qf/cqfdtuptvpdrz7tc3y57o7fm4rkxoagfzkp3rloy3hwlqubublza.py":25:30)
#loc9 = loc("inductor_cache/qf/cqfdtuptvpdrz7tc3y57o7fm4rkxoagfzkp3rloy3hwlqubublza.py":25:37)
#loc10 = loc("inductor_cache/qf/cqfdtuptvpdrz7tc3y57o7fm4rkxoagfzkp3rloy3hwlqubublza.py":26:34)
#loc11 = loc("inductor_cache/qf/cqfdtuptvpdrz7tc3y57o7fm4rkxoagfzkp3rloy3hwlqubublza.py":26:30)
#loc12 = loc("inductor_cache/qf/cqfdtuptvpdrz7tc3y57o7fm4rkxoagfzkp3rloy3hwlqubublza.py":26:41)
#loc13 = loc("inductor_cache/qf/cqfdtuptvpdrz7tc3y57o7fm4rkxoagfzkp3rloy3hwlqubublza.py":27:18)
#loc14 = loc("inductor_cache/qf/cqfdtuptvpdrz7tc3y57o7fm4rkxoagfzkp3rloy3hwlqubublza.py":28:18)
#loc15 = loc("inductor_cache/qf/cqfdtuptvpdrz7tc3y57o7fm4rkxoagfzkp3rloy3hwlqubublza.py":29:18)
#loc16 = loc("inductor_cache/qf/cqfdtuptvpdrz7tc3y57o7fm4rkxoagfzkp3rloy3hwlqubublza.py":30:26)
#loc17 = loc("inductor_cache/qf/cqfdtuptvpdrz7tc3y57o7fm4rkxoagfzkp3rloy3hwlqubublza.py":31:25)
#loc18 = loc("inductor_cache/qf/cqfdtuptvpdrz7tc3y57o7fm4rkxoagfzkp3rloy3hwlqubublza.py":31:36)
#loc19 = loc("inductor_cache/qf/cqfdtuptvpdrz7tc3y57o7fm4rkxoagfzkp3rloy3hwlqubublza.py":31:4)
