#loc = loc("inductor_cache/vm/cvmvuf5y3f4zrbhjwxryketil7nmgvgeo4mi64alpmjcjfxwa2tw.py":19:0)
#loc1 = loc(unknown)
#loc35 = loc("inductor_cache/vm/cvmvuf5y3f4zrbhjwxryketil7nmgvgeo4mi64alpmjcjfxwa2tw.py":40:25)
#loc42 = loc(callsite(#loc1 at #loc35))
module {
  tt.func public @triton_red_fused_mv_5(%arg0: !tt.ptr<f32> {tt.divisibility = 16 : i32} loc("inductor_cache/vm/cvmvuf5y3f4zrbhjwxryketil7nmgvgeo4mi64alpmjcjfxwa2tw.py":19:0), %arg1: !tt.ptr<f32> {tt.divisibility = 16 : i32} loc("inductor_cache/vm/cvmvuf5y3f4zrbhjwxryketil7nmgvgeo4mi64alpmjcjfxwa2tw.py":19:0), %arg2: !tt.ptr<f32> {tt.divisibility = 16 : i32} loc("inductor_cache/vm/cvmvuf5y3f4zrbhjwxryketil7nmgvgeo4mi64alpmjcjfxwa2tw.py":19:0), %arg3: i32 {tt.divisibility = 16 : i32} loc("inductor_cache/vm/cvmvuf5y3f4zrbhjwxryketil7nmgvgeo4mi64alpmjcjfxwa2tw.py":19:0), %arg4: i32 loc("inductor_cache/vm/cvmvuf5y3f4zrbhjwxryketil7nmgvgeo4mi64alpmjcjfxwa2tw.py":19:0)) attributes {noinline = false} {
    %c8_i32 = arith.constant 8 : i32 loc(#loc1)
    %c98_i32 = arith.constant 98 : i32 loc(#loc1)
    %c0_i32 = arith.constant 0 : i32 loc(#loc1)
    %cst = arith.constant dense<98> : tensor<64x1xi32> loc(#loc1)
    %cst_0 = arith.constant dense<196> : tensor<64x1xi32> loc(#loc1)
    %cst_1 = arith.constant dense<4> : tensor<1x8xi32> loc(#loc1)
    %cst_2 = arith.constant dense<49> : tensor<1x8xi32> loc(#loc1)
    %cst_3 = arith.constant dense<98> : tensor<1x8xi32> loc(#loc1)
    %cst_4 = arith.constant dense<0.000000e+00> : tensor<64x8xf32> loc(#loc1)
    %cst_5 = arith.constant dense<2> : tensor<64x1xi32> loc(#loc1)
    %cst_6 = arith.constant dense<128> : tensor<64x1xi32> loc(#loc1)
    %c64_i32 = arith.constant 64 : i32 loc(#loc1)
    %0 = tt.get_program_id x : i32 loc(#loc2)
    %1 = arith.muli %0, %c64_i32 : i32 loc(#loc3)
    %2 = tt.make_range {end = 64 : i32, start = 0 : i32} : tensor<64xi32> loc(#loc4)
    %3 = tt.expand_dims %2 {axis = 1 : i32} : tensor<64xi32> -> tensor<64x1xi32> loc(#loc5)
    %4 = tt.splat %1 : i32 -> tensor<64x1xi32> loc(#loc6)
    %5 = arith.addi %4, %3 : tensor<64x1xi32> loc(#loc6)
    %6 = arith.cmpi slt, %5, %cst_6 : tensor<64x1xi32> loc(#loc7)
    %7 = tt.make_range {end = 8 : i32, start = 0 : i32} : tensor<8xi32> loc(#loc8)
    %8 = tt.expand_dims %7 {axis = 0 : i32} : tensor<8xi32> -> tensor<1x8xi32> loc(#loc9)
    %9 = arith.remsi %5, %cst_5 : tensor<64x1xi32> loc(#loc10)
    %10 = arith.divsi %5, %cst_5 : tensor<64x1xi32> loc(#loc11)
    %11 = arith.muli %9, %cst_5 : tensor<64x1xi32> loc(#loc12)
    %12 = tt.broadcast %11 : tensor<64x1xi32> -> tensor<64x8xi32> loc(#loc13)
    %13 = arith.muli %10, %cst_0 : tensor<64x1xi32> loc(#loc14)
    %14 = tt.broadcast %13 : tensor<64x1xi32> -> tensor<64x8xi32> loc(#loc15)
    %15 = tt.splat %arg0 : !tt.ptr<f32> -> tensor<64x8x!tt.ptr<f32>> loc(#loc16)
    %16 = tt.broadcast %6 : tensor<64x1xi1> -> tensor<64x8xi1> loc(#loc17)
    %17 = arith.muli %9, %cst : tensor<64x1xi32> loc(#loc18)
    %18 = tt.broadcast %17 : tensor<64x1xi32> -> tensor<64x8xi32> loc(#loc19)
    %19 = tt.splat %arg1 : !tt.ptr<f32> -> tensor<64x8x!tt.ptr<f32>> loc(#loc20)
    %20 = scf.for %arg5 = %c0_i32 to %c98_i32 step %c8_i32 iter_args(%arg6 = %cst_4) -> (tensor<64x8xf32>)  : i32 {
      %25 = tt.splat %arg5 : i32 -> tensor<1x8xi32> loc(#loc22)
      %26 = arith.addi %25, %8 : tensor<1x8xi32> loc(#loc22)
      %27 = arith.cmpi slt, %26, %cst_3 : tensor<1x8xi32> loc(#loc23)
      %28 = arith.remsi %26, %cst_2 : tensor<1x8xi32> loc(#loc24)
      %29 = arith.muli %28, %cst_1 : tensor<1x8xi32> loc(#loc25)
      %30 = tt.broadcast %29 : tensor<1x8xi32> -> tensor<64x8xi32> loc(#loc13)
      %31 = arith.addi %12, %30 : tensor<64x8xi32> loc(#loc13)
      %32 = arith.addi %31, %14 : tensor<64x8xi32> loc(#loc15)
      %33 = arith.divsi %26, %cst_2 : tensor<1x8xi32> loc(#loc26)
      %34 = tt.broadcast %33 : tensor<1x8xi32> -> tensor<64x8xi32> loc(#loc27)
      %35 = arith.addi %32, %34 : tensor<64x8xi32> loc(#loc27)
      %36 = tt.addptr %15, %35 : tensor<64x8x!tt.ptr<f32>>, tensor<64x8xi32> loc(#loc16)
      %37 = tt.broadcast %27 : tensor<1x8xi1> -> tensor<64x8xi1> loc(#loc17)
      %38 = arith.andi %37, %16 : tensor<64x8xi1> loc(#loc17)
      %39 = tt.load %36, %38, %cst_4 evictionPolicy = evict_last : tensor<64x8x!tt.ptr<f32>> loc(#loc28)
      %40 = tt.broadcast %26 : tensor<1x8xi32> -> tensor<64x8xi32> loc(#loc19)
      %41 = arith.addi %40, %18 : tensor<64x8xi32> loc(#loc19)
      %42 = tt.addptr %19, %41 : tensor<64x8x!tt.ptr<f32>>, tensor<64x8xi32> loc(#loc20)
      %43 = tt.load %42, %38, %cst_4 evictionPolicy = evict_last : tensor<64x8x!tt.ptr<f32>> loc(#loc29)
      %44 = arith.mulf %39, %43 : tensor<64x8xf32> loc(#loc30)
      %45 = arith.addf %arg6, %44 : tensor<64x8xf32> loc(#loc31)
      %46 = arith.select %38, %45, %arg6 : tensor<64x8xi1>, tensor<64x8xf32> loc(#loc32)
      scf.yield %46 : tensor<64x8xf32> loc(#loc33)
    } loc(#loc21)
    %21 = "tt.reduce"(%20) <{axis = 1 : i32}> ({
    ^bb0(%arg5: f32 loc(callsite(#loc1 at #loc35)), %arg6: f32 loc(callsite(#loc1 at #loc35))):
      %25 = arith.addf %arg5, %arg6 : f32 loc(#loc44)
      tt.reduce.return %25 : f32 loc(#loc41)
    }) : (tensor<64x8xf32>) -> tensor<64xf32> loc(#loc41)
    %22 = tt.expand_dims %21 {axis = 1 : i32} : tensor<64xf32> -> tensor<64x1xf32> loc(#loc37)
    %23 = tt.splat %arg2 : !tt.ptr<f32> -> tensor<64x1x!tt.ptr<f32>> loc(#loc38)
    %24 = tt.addptr %23, %5 : tensor<64x1x!tt.ptr<f32>>, tensor<64x1xi32> loc(#loc38)
    tt.store %24, %22, %6 : tensor<64x1x!tt.ptr<f32>> loc(#loc39)
    tt.return loc(#loc40)
  } loc(#loc)
} loc(#loc)
#loc2 = loc("inductor_cache/vm/cvmvuf5y3f4zrbhjwxryketil7nmgvgeo4mi64alpmjcjfxwa2tw.py":22:28)
#loc3 = loc("inductor_cache/vm/cvmvuf5y3f4zrbhjwxryketil7nmgvgeo4mi64alpmjcjfxwa2tw.py":22:33)
#loc4 = loc("inductor_cache/vm/cvmvuf5y3f4zrbhjwxryketil7nmgvgeo4mi64alpmjcjfxwa2tw.py":23:36)
#loc5 = loc("inductor_cache/vm/cvmvuf5y3f4zrbhjwxryketil7nmgvgeo4mi64alpmjcjfxwa2tw.py":23:44)
#loc6 = loc("inductor_cache/vm/cvmvuf5y3f4zrbhjwxryketil7nmgvgeo4mi64alpmjcjfxwa2tw.py":23:23)
#loc7 = loc("inductor_cache/vm/cvmvuf5y3f4zrbhjwxryketil7nmgvgeo4mi64alpmjcjfxwa2tw.py":24:21)
#loc8 = loc("inductor_cache/vm/cvmvuf5y3f4zrbhjwxryketil7nmgvgeo4mi64alpmjcjfxwa2tw.py":25:25)
#loc9 = loc("inductor_cache/vm/cvmvuf5y3f4zrbhjwxryketil7nmgvgeo4mi64alpmjcjfxwa2tw.py":25:33)
#loc10 = loc("inductor_cache/vm/cvmvuf5y3f4zrbhjwxryketil7nmgvgeo4mi64alpmjcjfxwa2tw.py":26:19)
#loc11 = loc("inductor_cache/vm/cvmvuf5y3f4zrbhjwxryketil7nmgvgeo4mi64alpmjcjfxwa2tw.py":27:19)
#loc12 = loc("inductor_cache/vm/cvmvuf5y3f4zrbhjwxryketil7nmgvgeo4mi64alpmjcjfxwa2tw.py":34:36)
#loc13 = loc("inductor_cache/vm/cvmvuf5y3f4zrbhjwxryketil7nmgvgeo4mi64alpmjcjfxwa2tw.py":34:41)
#loc14 = loc("inductor_cache/vm/cvmvuf5y3f4zrbhjwxryketil7nmgvgeo4mi64alpmjcjfxwa2tw.py":34:61)
#loc15 = loc("inductor_cache/vm/cvmvuf5y3f4zrbhjwxryketil7nmgvgeo4mi64alpmjcjfxwa2tw.py":34:57)
#loc16 = loc("inductor_cache/vm/cvmvuf5y3f4zrbhjwxryketil7nmgvgeo4mi64alpmjcjfxwa2tw.py":34:34)
#loc17 = loc("inductor_cache/vm/cvmvuf5y3f4zrbhjwxryketil7nmgvgeo4mi64alpmjcjfxwa2tw.py":34:87)
#loc18 = loc("inductor_cache/vm/cvmvuf5y3f4zrbhjwxryketil7nmgvgeo4mi64alpmjcjfxwa2tw.py":35:42)
#loc19 = loc("inductor_cache/vm/cvmvuf5y3f4zrbhjwxryketil7nmgvgeo4mi64alpmjcjfxwa2tw.py":35:39)
#loc20 = loc("inductor_cache/vm/cvmvuf5y3f4zrbhjwxryketil7nmgvgeo4mi64alpmjcjfxwa2tw.py":35:34)
#loc21 = loc("inductor_cache/vm/cvmvuf5y3f4zrbhjwxryketil7nmgvgeo4mi64alpmjcjfxwa2tw.py":30:36)
#loc22 = loc("inductor_cache/vm/cvmvuf5y3f4zrbhjwxryketil7nmgvgeo4mi64alpmjcjfxwa2tw.py":31:27)
#loc23 = loc("inductor_cache/vm/cvmvuf5y3f4zrbhjwxryketil7nmgvgeo4mi64alpmjcjfxwa2tw.py":32:25)
#loc24 = loc("inductor_cache/vm/cvmvuf5y3f4zrbhjwxryketil7nmgvgeo4mi64alpmjcjfxwa2tw.py":34:50)
#loc25 = loc("inductor_cache/vm/cvmvuf5y3f4zrbhjwxryketil7nmgvgeo4mi64alpmjcjfxwa2tw.py":34:45)
#loc26 = loc("inductor_cache/vm/cvmvuf5y3f4zrbhjwxryketil7nmgvgeo4mi64alpmjcjfxwa2tw.py":34:73)
#loc27 = loc("inductor_cache/vm/cvmvuf5y3f4zrbhjwxryketil7nmgvgeo4mi64alpmjcjfxwa2tw.py":34:67)
#loc28 = loc("inductor_cache/vm/cvmvuf5y3f4zrbhjwxryketil7nmgvgeo4mi64alpmjcjfxwa2tw.py":34:79)
#loc29 = loc("inductor_cache/vm/cvmvuf5y3f4zrbhjwxryketil7nmgvgeo4mi64alpmjcjfxwa2tw.py":35:47)
#loc30 = loc("inductor_cache/vm/cvmvuf5y3f4zrbhjwxryketil7nmgvgeo4mi64alpmjcjfxwa2tw.py":36:22)
#loc31 = loc("inductor_cache/vm/cvmvuf5y3f4zrbhjwxryketil7nmgvgeo4mi64alpmjcjfxwa2tw.py":38:23)
#loc32 = loc("inductor_cache/vm/cvmvuf5y3f4zrbhjwxryketil7nmgvgeo4mi64alpmjcjfxwa2tw.py":39:46)
#loc33 = loc("inductor_cache/vm/cvmvuf5y3f4zrbhjwxryketil7nmgvgeo4mi64alpmjcjfxwa2tw.py":39:8)
#loc34 = loc("/home/sahanp/.conda/envs/parity-bench/lib/python3.12/site-packages/triton/language/standard.py":267:36)
#loc36 = loc("/home/sahanp/.conda/envs/parity-bench/lib/python3.12/site-packages/triton/language/standard.py":256:15)
#loc37 = loc("inductor_cache/vm/cvmvuf5y3f4zrbhjwxryketil7nmgvgeo4mi64alpmjcjfxwa2tw.py":40:28)
#loc38 = loc("inductor_cache/vm/cvmvuf5y3f4zrbhjwxryketil7nmgvgeo4mi64alpmjcjfxwa2tw.py":41:25)
#loc39 = loc("inductor_cache/vm/cvmvuf5y3f4zrbhjwxryketil7nmgvgeo4mi64alpmjcjfxwa2tw.py":41:36)
#loc40 = loc("inductor_cache/vm/cvmvuf5y3f4zrbhjwxryketil7nmgvgeo4mi64alpmjcjfxwa2tw.py":41:4)
#loc41 = loc(callsite(#loc34 at #loc35))
#loc43 = loc(callsite(#loc36 at #loc34))
#loc44 = loc(callsite(#loc43 at #loc35))
