#loc = loc("inductor_cache/6f/c6fuz3a2sdrk3lffgryubdhigqmgjnivn62r7xy2ma2ono3udugj.py":19:0)
module {
  tt.func public @triton_poi_fused_cat_12(%arg0: !tt.ptr<f32> {tt.divisibility = 16 : i32} loc("inductor_cache/6f/c6fuz3a2sdrk3lffgryubdhigqmgjnivn62r7xy2ma2ono3udugj.py":19:0), %arg1: !tt.ptr<f32> {tt.divisibility = 16 : i32} loc("inductor_cache/6f/c6fuz3a2sdrk3lffgryubdhigqmgjnivn62r7xy2ma2ono3udugj.py":19:0), %arg2: !tt.ptr<f32> {tt.divisibility = 16 : i32} loc("inductor_cache/6f/c6fuz3a2sdrk3lffgryubdhigqmgjnivn62r7xy2ma2ono3udugj.py":19:0), %arg3: i32 {tt.divisibility = 16 : i32} loc("inductor_cache/6f/c6fuz3a2sdrk3lffgryubdhigqmgjnivn62r7xy2ma2ono3udugj.py":19:0)) attributes {noinline = false} {
    %cst = arith.constant dense<-32> : tensor<512xi32> loc(#loc1)
    %cst_0 = arith.constant dense<0.000000e+00> : tensor<512xf32> loc(#loc1)
    %cst_1 = arith.constant dense<1048576> : tensor<512xi32> loc(#loc1)
    %cst_2 = arith.constant dense<32> : tensor<512xi64> loc(#loc1)
    %cst_3 = arith.constant dense<2097152> : tensor<512xi32> loc(#loc1)
    %cst_4 = arith.constant dense<64> : tensor<512xi32> loc(#loc1)
    %cst_5 = arith.constant dense<32768> : tensor<512xi32> loc(#loc1)
    %c512_i32 = arith.constant 512 : i32 loc(#loc1)
    %0 = tt.get_program_id x : i32 loc(#loc2)
    %1 = arith.muli %0, %c512_i32 : i32 loc(#loc3)
    %2 = tt.make_range {end = 512 : i32, start = 0 : i32} : tensor<512xi32> loc(#loc4)
    %3 = tt.splat %1 : i32 -> tensor<512xi32> loc(#loc5)
    %4 = arith.addi %3, %2 : tensor<512xi32> loc(#loc5)
    %5 = arith.divsi %4, %cst_5 : tensor<512xi32> loc(#loc6)
    %6 = arith.remsi %5, %cst_4 : tensor<512xi32> loc(#loc7)
    %7 = arith.remsi %4, %cst_5 : tensor<512xi32> loc(#loc8)
    %8 = arith.divsi %4, %cst_3 : tensor<512xi32> loc(#loc9)
    %9 = arith.extsi %6 : tensor<512xi32> to tensor<512xi64> loc(#loc10)
    %10 = arith.cmpi slt, %9, %cst_2 : tensor<512xi64> loc(#loc10)
    %11 = arith.muli %6, %cst_5 : tensor<512xi32> loc(#loc11)
    %12 = arith.addi %7, %11 : tensor<512xi32> loc(#loc12)
    %13 = arith.muli %8, %cst_1 : tensor<512xi32> loc(#loc13)
    %14 = arith.addi %12, %13 : tensor<512xi32> loc(#loc14)
    %15 = tt.splat %arg0 : !tt.ptr<f32> -> tensor<512x!tt.ptr<f32>> loc(#loc15)
    %16 = tt.addptr %15, %14 : tensor<512x!tt.ptr<f32>>, tensor<512xi32> loc(#loc15)
    %17 = tt.load %16, %10, %cst_0 : tensor<512x!tt.ptr<f32>> loc(#loc16)
    %18 = arith.cmpf ogt, %17, %cst_0 : tensor<512xf32> loc(#loc17)
    %19 = tt.extern_elementwise %17 {libname = "", libpath = "", pure = true, symbol = "__nv_expm1f"} : (tensor<512xf32>) -> tensor<512xf32> loc(#loc18)
    %20 = arith.select %18, %17, %19 : tensor<512xi1>, tensor<512xf32> loc(#loc19)
    %21 = arith.cmpi sge, %9, %cst_2 : tensor<512xi64> loc(#loc20)
    %22 = arith.addi %6, %cst : tensor<512xi32> loc(#loc21)
    %23 = arith.muli %22, %cst_5 : tensor<512xi32> loc(#loc22)
    %24 = arith.addi %7, %23 : tensor<512xi32> loc(#loc23)
    %25 = arith.addi %24, %13 : tensor<512xi32> loc(#loc24)
    %26 = tt.splat %arg1 : !tt.ptr<f32> -> tensor<512x!tt.ptr<f32>> loc(#loc25)
    %27 = tt.addptr %26, %25 : tensor<512x!tt.ptr<f32>>, tensor<512xi32> loc(#loc25)
    %28 = tt.load %27, %21, %cst_0 : tensor<512x!tt.ptr<f32>> loc(#loc26)
    %29 = arith.select %10, %20, %28 : tensor<512xi1>, tensor<512xf32> loc(#loc32)
    %30 = tt.splat %arg2 : !tt.ptr<f32> -> tensor<512x!tt.ptr<f32>> loc(#loc29)
    %31 = tt.addptr %30, %4 : tensor<512x!tt.ptr<f32>>, tensor<512xi32> loc(#loc29)
    tt.store %31, %29 : tensor<512x!tt.ptr<f32>> loc(#loc30)
    tt.return loc(#loc31)
  } loc(#loc)
} loc(#loc)
#loc1 = loc(unknown)
#loc2 = loc("inductor_cache/6f/c6fuz3a2sdrk3lffgryubdhigqmgjnivn62r7xy2ma2ono3udugj.py":21:28)
#loc3 = loc("inductor_cache/6f/c6fuz3a2sdrk3lffgryubdhigqmgjnivn62r7xy2ma2ono3udugj.py":21:33)
#loc4 = loc("inductor_cache/6f/c6fuz3a2sdrk3lffgryubdhigqmgjnivn62r7xy2ma2ono3udugj.py":22:36)
#loc5 = loc("inductor_cache/6f/c6fuz3a2sdrk3lffgryubdhigqmgjnivn62r7xy2ma2ono3udugj.py":22:23)
#loc6 = loc("inductor_cache/6f/c6fuz3a2sdrk3lffgryubdhigqmgjnivn62r7xy2ma2ono3udugj.py":24:21)
#loc7 = loc("inductor_cache/6f/c6fuz3a2sdrk3lffgryubdhigqmgjnivn62r7xy2ma2ono3udugj.py":24:30)
#loc8 = loc("inductor_cache/6f/c6fuz3a2sdrk3lffgryubdhigqmgjnivn62r7xy2ma2ono3udugj.py":25:19)
#loc9 = loc("inductor_cache/6f/c6fuz3a2sdrk3lffgryubdhigqmgjnivn62r7xy2ma2ono3udugj.py":26:19)
#loc10 = loc("inductor_cache/6f/c6fuz3a2sdrk3lffgryubdhigqmgjnivn62r7xy2ma2ono3udugj.py":32:18)
#loc11 = loc("inductor_cache/6f/c6fuz3a2sdrk3lffgryubdhigqmgjnivn62r7xy2ma2ono3udugj.py":33:42)
#loc12 = loc("inductor_cache/6f/c6fuz3a2sdrk3lffgryubdhigqmgjnivn62r7xy2ma2ono3udugj.py":33:35)
#loc13 = loc("inductor_cache/6f/c6fuz3a2sdrk3lffgryubdhigqmgjnivn62r7xy2ma2ono3udugj.py":33:56)
#loc14 = loc("inductor_cache/6f/c6fuz3a2sdrk3lffgryubdhigqmgjnivn62r7xy2ma2ono3udugj.py":33:48)
#loc15 = loc("inductor_cache/6f/c6fuz3a2sdrk3lffgryubdhigqmgjnivn62r7xy2ma2ono3udugj.py":33:30)
#loc16 = loc("inductor_cache/6f/c6fuz3a2sdrk3lffgryubdhigqmgjnivn62r7xy2ma2ono3udugj.py":33:61)
#loc17 = loc("inductor_cache/6f/c6fuz3a2sdrk3lffgryubdhigqmgjnivn62r7xy2ma2ono3udugj.py":35:18)
#loc18 = loc("inductor_cache/6f/c6fuz3a2sdrk3lffgryubdhigqmgjnivn62r7xy2ma2ono3udugj.py":38:28)
#loc19 = loc("inductor_cache/6f/c6fuz3a2sdrk3lffgryubdhigqmgjnivn62r7xy2ma2ono3udugj.py":40:33)
#loc20 = loc("inductor_cache/6f/c6fuz3a2sdrk3lffgryubdhigqmgjnivn62r7xy2ma2ono3udugj.py":43:20)
#loc21 = loc("inductor_cache/6f/c6fuz3a2sdrk3lffgryubdhigqmgjnivn62r7xy2ma2ono3udugj.py":46:51)
#loc22 = loc("inductor_cache/6f/c6fuz3a2sdrk3lffgryubdhigqmgjnivn62r7xy2ma2ono3udugj.py":46:43)
#loc23 = loc("inductor_cache/6f/c6fuz3a2sdrk3lffgryubdhigqmgjnivn62r7xy2ma2ono3udugj.py":46:36)
#loc24 = loc("inductor_cache/6f/c6fuz3a2sdrk3lffgryubdhigqmgjnivn62r7xy2ma2ono3udugj.py":46:57)
#loc25 = loc("inductor_cache/6f/c6fuz3a2sdrk3lffgryubdhigqmgjnivn62r7xy2ma2ono3udugj.py":46:31)
#loc26 = loc("inductor_cache/6f/c6fuz3a2sdrk3lffgryubdhigqmgjnivn62r7xy2ma2ono3udugj.py":46:70)
#loc27 = loc("inductor_cache/6f/c6fuz3a2sdrk3lffgryubdhigqmgjnivn62r7xy2ma2ono3udugj.py":47:34)
#loc28 = loc("inductor_cache/6f/c6fuz3a2sdrk3lffgryubdhigqmgjnivn62r7xy2ma2ono3udugj.py":42:34)
#loc29 = loc("inductor_cache/6f/c6fuz3a2sdrk3lffgryubdhigqmgjnivn62r7xy2ma2ono3udugj.py":48:25)
#loc30 = loc("inductor_cache/6f/c6fuz3a2sdrk3lffgryubdhigqmgjnivn62r7xy2ma2ono3udugj.py":48:37)
#loc31 = loc("inductor_cache/6f/c6fuz3a2sdrk3lffgryubdhigqmgjnivn62r7xy2ma2ono3udugj.py":48:4)
#loc32 = loc(fused[#loc27, #loc28])
