#loc = loc("inductor_cache/ji/cjik2gd4g2lwl5zzoryqfiiabt3rwxjyrfyfxv5rbscqvksgs4zl.py":19:0)
module {
  tt.func public @triton_poi_fused__log_softmax_convolution_38(%arg0: !tt.ptr<f32> {tt.divisibility = 16 : i32} loc("inductor_cache/ji/cjik2gd4g2lwl5zzoryqfiiabt3rwxjyrfyfxv5rbscqvksgs4zl.py":19:0), %arg1: !tt.ptr<f32> {tt.divisibility = 16 : i32} loc("inductor_cache/ji/cjik2gd4g2lwl5zzoryqfiiabt3rwxjyrfyfxv5rbscqvksgs4zl.py":19:0), %arg2: !tt.ptr<f32> {tt.divisibility = 16 : i32} loc("inductor_cache/ji/cjik2gd4g2lwl5zzoryqfiiabt3rwxjyrfyfxv5rbscqvksgs4zl.py":19:0), %arg3: !tt.ptr<f32> {tt.divisibility = 16 : i32} loc("inductor_cache/ji/cjik2gd4g2lwl5zzoryqfiiabt3rwxjyrfyfxv5rbscqvksgs4zl.py":19:0), %arg4: !tt.ptr<f32> {tt.divisibility = 16 : i32} loc("inductor_cache/ji/cjik2gd4g2lwl5zzoryqfiiabt3rwxjyrfyfxv5rbscqvksgs4zl.py":19:0), %arg5: i32 loc("inductor_cache/ji/cjik2gd4g2lwl5zzoryqfiiabt3rwxjyrfyfxv5rbscqvksgs4zl.py":19:0), %arg6: i32 {tt.divisibility = 16 : i32} loc("inductor_cache/ji/cjik2gd4g2lwl5zzoryqfiiabt3rwxjyrfyfxv5rbscqvksgs4zl.py":19:0)) attributes {noinline = false} {
    %cst = arith.constant dense<4096> : tensor<1x128xi32> loc(#loc1)
    %cst_0 = arith.constant dense<86016> : tensor<1x128xi32> loc(#loc1)
    %cst_1 = arith.constant dense<21> : tensor<8x1xi32> loc(#loc1)
    %cst_2 = arith.constant dense<21> : tensor<1x128xi32> loc(#loc1)
    %c8_i32 = arith.constant 8 : i32 loc(#loc1)
    %cst_3 = arith.constant dense<84> : tensor<1x128xi32> loc(#loc1)
    %c128_i32 = arith.constant 128 : i32 loc(#loc1)
    %0 = tt.get_program_id y : i32 loc(#loc2)
    %1 = arith.muli %0, %c128_i32 : i32 loc(#loc3)
    %2 = tt.make_range {end = 128 : i32, start = 0 : i32} : tensor<128xi32> loc(#loc4)
    %3 = tt.expand_dims %2 {axis = 0 : i32} : tensor<128xi32> -> tensor<1x128xi32> loc(#loc5)
    %4 = tt.splat %1 : i32 -> tensor<1x128xi32> loc(#loc6)
    %5 = arith.addi %4, %3 : tensor<1x128xi32> loc(#loc6)
    %6 = arith.cmpi slt, %5, %cst_3 : tensor<1x128xi32> loc(#loc7)
    %7 = tt.get_program_id x : i32 loc(#loc8)
    %8 = arith.muli %7, %c8_i32 : i32 loc(#loc9)
    %9 = tt.make_range {end = 8 : i32, start = 0 : i32} : tensor<8xi32> loc(#loc10)
    %10 = tt.expand_dims %9 {axis = 1 : i32} : tensor<8xi32> -> tensor<8x1xi32> loc(#loc11)
    %11 = tt.splat %8 : i32 -> tensor<8x1xi32> loc(#loc12)
    %12 = arith.addi %11, %10 : tensor<8x1xi32> loc(#loc12)
    %13 = arith.remsi %5, %cst_2 : tensor<1x128xi32> loc(#loc13)
    %14 = arith.divsi %5, %cst_2 : tensor<1x128xi32> loc(#loc14)
    %15 = arith.muli %12, %cst_1 : tensor<8x1xi32> loc(#loc15)
    %16 = tt.broadcast %13 : tensor<1x128xi32> -> tensor<8x128xi32> loc(#loc16)
    %17 = tt.broadcast %15 : tensor<8x1xi32> -> tensor<8x128xi32> loc(#loc16)
    %18 = arith.addi %16, %17 : tensor<8x128xi32> loc(#loc16)
    %19 = arith.muli %14, %cst_0 : tensor<1x128xi32> loc(#loc17)
    %20 = tt.broadcast %19 : tensor<1x128xi32> -> tensor<8x128xi32> loc(#loc18)
    %21 = arith.addi %18, %20 : tensor<8x128xi32> loc(#loc18)
    %22 = tt.splat %arg0 : !tt.ptr<f32> -> tensor<8x128x!tt.ptr<f32>> loc(#loc19)
    %23 = tt.addptr %22, %21 : tensor<8x128x!tt.ptr<f32>>, tensor<8x128xi32> loc(#loc19)
    %24 = tt.broadcast %6 : tensor<1x128xi1> -> tensor<8x128xi1> loc(#loc20)
    %25 = tt.load %23, %24 evictionPolicy = evict_last : tensor<8x128x!tt.ptr<f32>> loc(#loc20)
    %26 = tt.splat %arg1 : !tt.ptr<f32> -> tensor<1x128x!tt.ptr<f32>> loc(#loc21)
    %27 = tt.addptr %26, %13 : tensor<1x128x!tt.ptr<f32>>, tensor<1x128xi32> loc(#loc21)
    %28 = tt.load %27, %6 evictionPolicy = evict_last : tensor<1x128x!tt.ptr<f32>> loc(#loc22)
    %29 = arith.muli %14, %cst : tensor<1x128xi32> loc(#loc23)
    %30 = tt.broadcast %12 : tensor<8x1xi32> -> tensor<8x128xi32> loc(#loc24)
    %31 = tt.broadcast %29 : tensor<1x128xi32> -> tensor<8x128xi32> loc(#loc24)
    %32 = arith.addi %30, %31 : tensor<8x128xi32> loc(#loc24)
    %33 = tt.splat %arg2 : !tt.ptr<f32> -> tensor<8x128x!tt.ptr<f32>> loc(#loc25)
    %34 = tt.addptr %33, %32 : tensor<8x128x!tt.ptr<f32>>, tensor<8x128xi32> loc(#loc25)
    %35 = tt.load %34, %24 evictionPolicy = evict_last : tensor<8x128x!tt.ptr<f32>> loc(#loc26)
    %36 = tt.splat %arg3 : !tt.ptr<f32> -> tensor<8x128x!tt.ptr<f32>> loc(#loc27)
    %37 = tt.addptr %36, %32 : tensor<8x128x!tt.ptr<f32>>, tensor<8x128xi32> loc(#loc27)
    %38 = tt.load %37, %24 evictionPolicy = evict_last : tensor<8x128x!tt.ptr<f32>> loc(#loc28)
    %39 = tt.broadcast %28 : tensor<1x128xf32> -> tensor<8x128xf32> loc(#loc29)
    %40 = arith.addf %25, %39 : tensor<8x128xf32> loc(#loc29)
    %41 = arith.subf %40, %35 : tensor<8x128xf32> loc(#loc30)
    %42 = math.log %38 : tensor<8x128xf32> loc(#loc31)
    %43 = arith.subf %41, %42 : tensor<8x128xf32> loc(#loc32)
    %44 = arith.muli %5, %cst : tensor<1x128xi32> loc(#loc33)
    %45 = tt.broadcast %44 : tensor<1x128xi32> -> tensor<8x128xi32> loc(#loc34)
    %46 = arith.addi %30, %45 : tensor<8x128xi32> loc(#loc34)
    %47 = tt.splat %arg4 : !tt.ptr<f32> -> tensor<8x128x!tt.ptr<f32>> loc(#loc35)
    %48 = tt.addptr %47, %46 : tensor<8x128x!tt.ptr<f32>>, tensor<8x128xi32> loc(#loc35)
    tt.store %48, %43, %24 : tensor<8x128x!tt.ptr<f32>> loc(#loc36)
    tt.return loc(#loc37)
  } loc(#loc)
} loc(#loc)
#loc1 = loc(unknown)
#loc2 = loc("inductor_cache/ji/cjik2gd4g2lwl5zzoryqfiiabt3rwxjyrfyfxv5rbscqvksgs4zl.py":22:28)
#loc3 = loc("inductor_cache/ji/cjik2gd4g2lwl5zzoryqfiiabt3rwxjyrfyfxv5rbscqvksgs4zl.py":22:33)
#loc4 = loc("inductor_cache/ji/cjik2gd4g2lwl5zzoryqfiiabt3rwxjyrfyfxv5rbscqvksgs4zl.py":23:36)
#loc5 = loc("inductor_cache/ji/cjik2gd4g2lwl5zzoryqfiiabt3rwxjyrfyfxv5rbscqvksgs4zl.py":23:44)
#loc6 = loc("inductor_cache/ji/cjik2gd4g2lwl5zzoryqfiiabt3rwxjyrfyfxv5rbscqvksgs4zl.py":23:23)
#loc7 = loc("inductor_cache/ji/cjik2gd4g2lwl5zzoryqfiiabt3rwxjyrfyfxv5rbscqvksgs4zl.py":24:21)
#loc8 = loc("inductor_cache/ji/cjik2gd4g2lwl5zzoryqfiiabt3rwxjyrfyfxv5rbscqvksgs4zl.py":25:28)
#loc9 = loc("inductor_cache/ji/cjik2gd4g2lwl5zzoryqfiiabt3rwxjyrfyfxv5rbscqvksgs4zl.py":25:33)
#loc10 = loc("inductor_cache/ji/cjik2gd4g2lwl5zzoryqfiiabt3rwxjyrfyfxv5rbscqvksgs4zl.py":26:36)
#loc11 = loc("inductor_cache/ji/cjik2gd4g2lwl5zzoryqfiiabt3rwxjyrfyfxv5rbscqvksgs4zl.py":26:44)
#loc12 = loc("inductor_cache/ji/cjik2gd4g2lwl5zzoryqfiiabt3rwxjyrfyfxv5rbscqvksgs4zl.py":26:23)
#loc13 = loc("inductor_cache/ji/cjik2gd4g2lwl5zzoryqfiiabt3rwxjyrfyfxv5rbscqvksgs4zl.py":29:19)
#loc14 = loc("inductor_cache/ji/cjik2gd4g2lwl5zzoryqfiiabt3rwxjyrfyfxv5rbscqvksgs4zl.py":30:19)
#loc15 = loc("inductor_cache/ji/cjik2gd4g2lwl5zzoryqfiiabt3rwxjyrfyfxv5rbscqvksgs4zl.py":32:38)
#loc16 = loc("inductor_cache/ji/cjik2gd4g2lwl5zzoryqfiiabt3rwxjyrfyfxv5rbscqvksgs4zl.py":32:35)
#loc17 = loc("inductor_cache/ji/cjik2gd4g2lwl5zzoryqfiiabt3rwxjyrfyfxv5rbscqvksgs4zl.py":32:49)
#loc18 = loc("inductor_cache/ji/cjik2gd4g2lwl5zzoryqfiiabt3rwxjyrfyfxv5rbscqvksgs4zl.py":32:43)
#loc19 = loc("inductor_cache/ji/cjik2gd4g2lwl5zzoryqfiiabt3rwxjyrfyfxv5rbscqvksgs4zl.py":32:30)
#loc20 = loc("inductor_cache/ji/cjik2gd4g2lwl5zzoryqfiiabt3rwxjyrfyfxv5rbscqvksgs4zl.py":32:54)
#loc21 = loc("inductor_cache/ji/cjik2gd4g2lwl5zzoryqfiiabt3rwxjyrfyfxv5rbscqvksgs4zl.py":33:30)
#loc22 = loc("inductor_cache/ji/cjik2gd4g2lwl5zzoryqfiiabt3rwxjyrfyfxv5rbscqvksgs4zl.py":33:35)
#loc23 = loc("inductor_cache/ji/cjik2gd4g2lwl5zzoryqfiiabt3rwxjyrfyfxv5rbscqvksgs4zl.py":34:40)
#loc24 = loc("inductor_cache/ji/cjik2gd4g2lwl5zzoryqfiiabt3rwxjyrfyfxv5rbscqvksgs4zl.py":34:35)
#loc25 = loc("inductor_cache/ji/cjik2gd4g2lwl5zzoryqfiiabt3rwxjyrfyfxv5rbscqvksgs4zl.py":34:30)
#loc26 = loc("inductor_cache/ji/cjik2gd4g2lwl5zzoryqfiiabt3rwxjyrfyfxv5rbscqvksgs4zl.py":34:45)
#loc27 = loc("inductor_cache/ji/cjik2gd4g2lwl5zzoryqfiiabt3rwxjyrfyfxv5rbscqvksgs4zl.py":35:30)
#loc28 = loc("inductor_cache/ji/cjik2gd4g2lwl5zzoryqfiiabt3rwxjyrfyfxv5rbscqvksgs4zl.py":35:45)
#loc29 = loc("inductor_cache/ji/cjik2gd4g2lwl5zzoryqfiiabt3rwxjyrfyfxv5rbscqvksgs4zl.py":36:18)
#loc30 = loc("inductor_cache/ji/cjik2gd4g2lwl5zzoryqfiiabt3rwxjyrfyfxv5rbscqvksgs4zl.py":37:18)
#loc31 = loc("inductor_cache/ji/cjik2gd4g2lwl5zzoryqfiiabt3rwxjyrfyfxv5rbscqvksgs4zl.py":38:23)
#loc32 = loc("inductor_cache/ji/cjik2gd4g2lwl5zzoryqfiiabt3rwxjyrfyfxv5rbscqvksgs4zl.py":39:18)
#loc33 = loc("inductor_cache/ji/cjik2gd4g2lwl5zzoryqfiiabt3rwxjyrfyfxv5rbscqvksgs4zl.py":40:35)
#loc34 = loc("inductor_cache/ji/cjik2gd4g2lwl5zzoryqfiiabt3rwxjyrfyfxv5rbscqvksgs4zl.py":40:30)
#loc35 = loc("inductor_cache/ji/cjik2gd4g2lwl5zzoryqfiiabt3rwxjyrfyfxv5rbscqvksgs4zl.py":40:25)
#loc36 = loc("inductor_cache/ji/cjik2gd4g2lwl5zzoryqfiiabt3rwxjyrfyfxv5rbscqvksgs4zl.py":40:46)
#loc37 = loc("inductor_cache/ji/cjik2gd4g2lwl5zzoryqfiiabt3rwxjyrfyfxv5rbscqvksgs4zl.py":40:4)
