#loc = loc("inductor_cache/tn/ctnhk2r467eoeoptdlq6oaxcbntq3dkpsvrynoq6gnxejh5fsqdg.py":19:0)
#loc1 = loc(unknown)
#loc74 = loc("inductor_cache/tn/ctnhk2r467eoeoptdlq6oaxcbntq3dkpsvrynoq6gnxejh5fsqdg.py":66:44)
#loc107 = loc(callsite(#loc1 at #loc74))
module {
  tt.func public @triton_red_fused__unsafe_index_add_convolution_native_group_norm_26(%arg0: !tt.ptr<i64> {tt.divisibility = 16 : i32} loc("inductor_cache/tn/ctnhk2r467eoeoptdlq6oaxcbntq3dkpsvrynoq6gnxejh5fsqdg.py":19:0), %arg1: !tt.ptr<f32> {tt.divisibility = 16 : i32} loc("inductor_cache/tn/ctnhk2r467eoeoptdlq6oaxcbntq3dkpsvrynoq6gnxejh5fsqdg.py":19:0), %arg2: !tt.ptr<f32> {tt.divisibility = 16 : i32} loc("inductor_cache/tn/ctnhk2r467eoeoptdlq6oaxcbntq3dkpsvrynoq6gnxejh5fsqdg.py":19:0), %arg3: !tt.ptr<f32> {tt.divisibility = 16 : i32} loc("inductor_cache/tn/ctnhk2r467eoeoptdlq6oaxcbntq3dkpsvrynoq6gnxejh5fsqdg.py":19:0), %arg4: !tt.ptr<f32> {tt.divisibility = 16 : i32} loc("inductor_cache/tn/ctnhk2r467eoeoptdlq6oaxcbntq3dkpsvrynoq6gnxejh5fsqdg.py":19:0), %arg5: !tt.ptr<f32> {tt.divisibility = 16 : i32} loc("inductor_cache/tn/ctnhk2r467eoeoptdlq6oaxcbntq3dkpsvrynoq6gnxejh5fsqdg.py":19:0), %arg6: !tt.ptr<f32> {tt.divisibility = 16 : i32} loc("inductor_cache/tn/ctnhk2r467eoeoptdlq6oaxcbntq3dkpsvrynoq6gnxejh5fsqdg.py":19:0), %arg7: !tt.ptr<f32> {tt.divisibility = 16 : i32} loc("inductor_cache/tn/ctnhk2r467eoeoptdlq6oaxcbntq3dkpsvrynoq6gnxejh5fsqdg.py":19:0), %arg8: i32 {tt.divisibility = 16 : i32} loc("inductor_cache/tn/ctnhk2r467eoeoptdlq6oaxcbntq3dkpsvrynoq6gnxejh5fsqdg.py":19:0), %arg9: i32 {tt.divisibility = 16 : i32} loc("inductor_cache/tn/ctnhk2r467eoeoptdlq6oaxcbntq3dkpsvrynoq6gnxejh5fsqdg.py":19:0)) attributes {noinline = false} {
    %cst = arith.constant dense<64> : tensor<1x4xi64> loc(#loc1)
    %cst_0 = arith.constant dense<8> : tensor<1x4xi64> loc(#loc1)
    %cst_1 = arith.constant 0.000000e+00 : f32 loc(#loc1)
    %cst_2 = arith.constant dense<1.000000e+00> : tensor<64x4xf32> loc(#loc1)
    %cst_3 = arith.constant dense<0> : tensor<1x4xi64> loc(#loc1)
    %c4_i32 = arith.constant 4 : i32 loc(#loc1)
    %c8192_i32 = arith.constant 8192 : i32 loc(#loc1)
    %cst_4 = arith.constant dense<1024> : tensor<64x1xi32> loc(#loc1)
    %cst_5 = arith.constant dense<512> : tensor<1x4xi32> loc(#loc1)
    %cst_6 = arith.constant dense<8192> : tensor<64x1xi32> loc(#loc1)
    %cst_7 = arith.constant dense<0.000000e+00> : tensor<64x4xf32> loc(#loc1)
    %cst_8 = arith.constant dense<2> : tensor<64x1xi32> loc(#loc1)
    %cst_9 = arith.constant dense<4096> : tensor<1x4xi32> loc(#loc1)
    %cst_10 = arith.constant dense<16> : tensor<1x4xi32> loc(#loc1)
    %cst_11 = arith.constant dense<256> : tensor<1x4xi32> loc(#loc1)
    %cst_12 = arith.constant dense<8192> : tensor<1x4xi32> loc(#loc1)
    %c0_i32 = arith.constant 0 : i32 loc(#loc1)
    %cst_13 = arith.constant dense<64> : tensor<64x1xi32> loc(#loc1)
    %cst_14 = arith.constant dense<256> : tensor<64x1xi32> loc(#loc1)
    %c64_i32 = arith.constant 64 : i32 loc(#loc1)
    %0 = tt.get_program_id x : i32 loc(#loc2)
    %1 = arith.muli %0, %c64_i32 : i32 loc(#loc3)
    %2 = tt.make_range {end = 64 : i32, start = 0 : i32} : tensor<64xi32> loc(#loc4)
    %3 = tt.expand_dims %2 {axis = 1 : i32} : tensor<64xi32> -> tensor<64x1xi32> loc(#loc5)
    %4 = tt.splat %1 : i32 -> tensor<64x1xi32> loc(#loc6)
    %5 = arith.addi %4, %3 : tensor<64x1xi32> loc(#loc6)
    %6 = arith.cmpi slt, %5, %cst_14 : tensor<64x1xi32> loc(#loc7)
    %7 = tt.make_range {end = 4 : i32, start = 0 : i32} : tensor<4xi32> loc(#loc8)
    %8 = tt.expand_dims %7 {axis = 0 : i32} : tensor<4xi32> -> tensor<1x4xi32> loc(#loc9)
    %9 = arith.remsi %5, %cst_13 : tensor<64x1xi32> loc(#loc10)
    %10 = tt.splat %arg0 : !tt.ptr<i64> -> tensor<1x4x!tt.ptr<i64>> loc(#loc11)
    %11 = arith.muli %9, %cst_8 : tensor<64x1xi32> loc(#loc12)
    %12 = tt.broadcast %11 : tensor<64x1xi32> -> tensor<64x4xi32> loc(#loc13)
    %13 = tt.splat %arg2 : !tt.ptr<f32> -> tensor<64x4x!tt.ptr<f32>> loc(#loc14)
    %14 = tt.broadcast %6 : tensor<64x1xi1> -> tensor<64x4xi1> loc(#loc15)
    %15 = arith.muli %5, %cst_6 : tensor<64x1xi32> loc(#loc16)
    %16 = tt.broadcast %15 : tensor<64x1xi32> -> tensor<64x4xi32> loc(#loc17)
    %17 = tt.splat %arg3 : !tt.ptr<f32> -> tensor<64x4x!tt.ptr<f32>> loc(#loc18)
    %18 = arith.muli %5, %cst_4 : tensor<64x1xi32> loc(#loc19)
    %19 = arith.extsi %18 : tensor<64x1xi32> to tensor<64x1xi64> loc(#loc20)
    %20 = tt.broadcast %19 : tensor<64x1xi64> -> tensor<64x4xi64> loc(#loc20)
    %21 = tt.splat %arg1 : !tt.ptr<f32> -> tensor<64x4x!tt.ptr<f32>> loc(#loc21)
    %22 = tt.splat %arg4 : !tt.ptr<f32> -> tensor<64x4x!tt.ptr<f32>> loc(#loc22)
    %23:3 = scf.for %arg10 = %c0_i32 to %c8192_i32 step %c4_i32 iter_args(%arg11 = %cst_7, %arg12 = %cst_7, %arg13 = %cst_7) -> (tensor<64x4xf32>, tensor<64x4xf32>, tensor<64x4xf32>)  : i32 {
      %34 = tt.splat %arg10 : i32 -> tensor<1x4xi32> loc(#loc24)
      %35 = arith.addi %34, %8 : tensor<1x4xi32> loc(#loc24)
      %36 = arith.cmpi slt, %35, %cst_12 : tensor<1x4xi32> loc(#loc25)
      %37 = arith.divsi %35, %cst_11 : tensor<1x4xi32> loc(#loc26)
      %38 = arith.remsi %37, %cst_10 : tensor<1x4xi32> loc(#loc27)
      %39 = arith.divsi %35, %cst_10 : tensor<1x4xi32> loc(#loc28)
      %40 = arith.remsi %39, %cst_10 : tensor<1x4xi32> loc(#loc29)
      %41 = arith.remsi %35, %cst_10 : tensor<1x4xi32> loc(#loc30)
      %42 = arith.divsi %35, %cst_9 : tensor<1x4xi32> loc(#loc31)
      %43 = tt.addptr %10, %38 : tensor<1x4x!tt.ptr<i64>>, tensor<1x4xi32> loc(#loc11)
      %44 = tt.load %43, %36, %cst_3 evictionPolicy = evict_last : tensor<1x4x!tt.ptr<i64>> loc(#loc32)
      %45 = tt.addptr %10, %40 : tensor<1x4x!tt.ptr<i64>>, tensor<1x4xi32> loc(#loc33)
      %46 = tt.load %45, %36, %cst_3 evictionPolicy = evict_last : tensor<1x4x!tt.ptr<i64>> loc(#loc34)
      %47 = tt.addptr %10, %41 : tensor<1x4x!tt.ptr<i64>>, tensor<1x4xi32> loc(#loc35)
      %48 = tt.load %47, %36, %cst_3 evictionPolicy = evict_last : tensor<1x4x!tt.ptr<i64>> loc(#loc36)
      %49 = tt.broadcast %42 : tensor<1x4xi32> -> tensor<64x4xi32> loc(#loc13)
      %50 = arith.addi %49, %12 : tensor<64x4xi32> loc(#loc13)
      %51 = tt.addptr %13, %50 : tensor<64x4x!tt.ptr<f32>>, tensor<64x4xi32> loc(#loc14)
      %52 = tt.broadcast %36 : tensor<1x4xi1> -> tensor<64x4xi1> loc(#loc15)
      %53 = arith.andi %52, %14 : tensor<64x4xi1> loc(#loc15)
      %54 = tt.load %51, %53, %cst_7 evictionPolicy = evict_last : tensor<64x4x!tt.ptr<f32>> loc(#loc37)
      %55 = tt.broadcast %35 : tensor<1x4xi32> -> tensor<64x4xi32> loc(#loc17)
      %56 = arith.addi %55, %16 : tensor<64x4xi32> loc(#loc17)
      %57 = tt.addptr %17, %56 : tensor<64x4x!tt.ptr<f32>>, tensor<64x4xi32> loc(#loc18)
      %58 = tt.load %57, %53, %cst_7 evictionPolicy = evict_first : tensor<64x4x!tt.ptr<f32>> loc(#loc38)
      %59 = arith.addi %44, %cst_0 : tensor<1x4xi64> loc(#loc39)
      %60 = arith.cmpi slt, %44, %cst_3 : tensor<1x4xi64> loc(#loc40)
      %61 = arith.select %60, %59, %44 : tensor<1x4xi1>, tensor<1x4xi64> loc(#loc41)
      %62 = arith.addi %46, %cst_0 : tensor<1x4xi64> loc(#loc42)
      %63 = arith.cmpi slt, %46, %cst_3 : tensor<1x4xi64> loc(#loc43)
      %64 = arith.select %63, %62, %46 : tensor<1x4xi1>, tensor<1x4xi64> loc(#loc44)
      %65 = arith.addi %48, %cst_0 : tensor<1x4xi64> loc(#loc45)
      %66 = arith.cmpi slt, %48, %cst_3 : tensor<1x4xi64> loc(#loc46)
      %67 = arith.select %66, %65, %48 : tensor<1x4xi1>, tensor<1x4xi64> loc(#loc47)
      %68 = arith.muli %64, %cst_0 : tensor<1x4xi64> loc(#loc48)
      %69 = arith.addi %67, %68 : tensor<1x4xi64> loc(#loc49)
      %70 = arith.muli %61, %cst : tensor<1x4xi64> loc(#loc50)
      %71 = arith.addi %69, %70 : tensor<1x4xi64> loc(#loc51)
      %72 = arith.muli %42, %cst_5 : tensor<1x4xi32> loc(#loc52)
      %73 = arith.extsi %72 : tensor<1x4xi32> to tensor<1x4xi64> loc(#loc53)
      %74 = arith.addi %71, %73 : tensor<1x4xi64> loc(#loc53)
      %75 = tt.broadcast %74 : tensor<1x4xi64> -> tensor<64x4xi64> loc(#loc53)
      %76 = arith.addi %75, %20 : tensor<64x4xi64> loc(#loc20)
      %77 = tt.addptr %21, %76 : tensor<64x4x!tt.ptr<f32>>, tensor<64x4xi64> loc(#loc21)
      %78 = tt.load %77, %53, %cst_7 evictionPolicy = evict_last : tensor<64x4x!tt.ptr<f32>> loc(#loc54)
      %79 = arith.addf %78, %54 : tensor<64x4xf32> loc(#loc55)
      %80 = arith.addf %79, %58 : tensor<64x4xf32> loc(#loc56)
      %81 = arith.cmpi eq, %arg10, %c0_i32 : i32 loc(#loc57)
      %82:3 = scf.if %81 -> (tensor<64x4xf32>, tensor<64x4xf32>, tensor<64x4xf32>) {
        scf.yield %cst_7, %80, %cst_2 : tensor<64x4xf32>, tensor<64x4xf32>, tensor<64x4xf32> loc(#loc98)
      } else {
        %87 = arith.subf %80, %arg11 : tensor<64x4xf32> loc(#loc99)
        %88 = arith.addf %arg13, %cst_2 : tensor<64x4xf32> loc(#loc100)
        %89 = arith.divf %87, %88 : tensor<64x4xf32> loc(#loc101)
        %90 = arith.addf %arg11, %89 : tensor<64x4xf32> loc(#loc102)
        %91 = arith.subf %80, %90 : tensor<64x4xf32> loc(#loc103)
        %92 = arith.mulf %87, %91 : tensor<64x4xf32> loc(#loc104)
        %93 = arith.addf %arg12, %92 : tensor<64x4xf32> loc(#loc105)
        scf.yield %93, %90, %88 : tensor<64x4xf32>, tensor<64x4xf32>, tensor<64x4xf32> loc(#loc105)
      } loc(#loc97)
      %83 = arith.select %53, %82#1, %arg11 : tensor<64x4xi1>, tensor<64x4xf32> loc(#loc68)
      %84 = arith.select %53, %82#0, %arg12 : tensor<64x4xi1>, tensor<64x4xf32> loc(#loc69)
      %85 = arith.select %53, %82#2, %arg13 : tensor<64x4xi1>, tensor<64x4xf32> loc(#loc70)
      %86 = tt.addptr %22, %56 : tensor<64x4x!tt.ptr<f32>>, tensor<64x4xi32> loc(#loc22)
      tt.store %86, %80, %53 : tensor<64x4x!tt.ptr<f32>> loc(#loc71)
      scf.yield %83, %84, %85 : tensor<64x4xf32>, tensor<64x4xf32>, tensor<64x4xf32> loc(#loc72)
    } loc(#loc23)
    %24:3 = "tt.reduce"(%23#0, %23#1, %23#2) <{axis = 1 : i32}> ({
    ^bb0(%arg10: f32 loc(callsite(#loc1 at #loc74)), %arg11: f32 loc(callsite(#loc1 at #loc74)), %arg12: f32 loc(callsite(#loc1 at #loc74)), %arg13: f32 loc(callsite(#loc1 at #loc74)), %arg14: f32 loc(callsite(#loc1 at #loc74)), %arg15: f32 loc(callsite(#loc1 at #loc74))):
      %34 = arith.subf %arg13, %arg10 : f32 loc(#loc120)
      %35 = arith.addf %arg12, %arg15 : f32 loc(#loc121)
      %36 = arith.cmpf oeq, %35, %cst_1 : f32 loc(#loc122)
      %37 = arith.divf %arg15, %35 : f32 loc(#loc123)
      %38 = arith.select %36, %cst_1, %37 : f32 loc(#loc124)
      %39 = arith.mulf %34, %38 : f32 loc(#loc125)
      %40 = arith.addf %arg10, %39 : f32 loc(#loc126)
      %41 = arith.addf %arg11, %arg14 : f32 loc(#loc127)
      %42 = arith.mulf %34, %34 : f32 loc(#loc128)
      %43 = arith.mulf %42, %arg12 : f32 loc(#loc129)
      %44 = arith.mulf %43, %38 : f32 loc(#loc130)
      %45 = arith.addf %41, %44 : f32 loc(#loc131)
      tt.reduce.return %40, %45, %35 : f32, f32, f32 loc(#loc106)
    }) : (tensor<64x4xf32>, tensor<64x4xf32>, tensor<64x4xf32>) -> (tensor<64xf32>, tensor<64xf32>, tensor<64xf32>) loc(#loc106)
    %25 = tt.expand_dims %24#0 {axis = 1 : i32} : tensor<64xf32> -> tensor<64x1xf32> loc(#loc87)
    %26 = tt.expand_dims %24#1 {axis = 1 : i32} : tensor<64xf32> -> tensor<64x1xf32> loc(#loc88)
    %27 = tt.expand_dims %24#2 {axis = 1 : i32} : tensor<64xf32> -> tensor<64x1xf32> loc(#loc89)
    %28 = tt.splat %arg5 : !tt.ptr<f32> -> tensor<64x1x!tt.ptr<f32>> loc(#loc90)
    %29 = tt.addptr %28, %5 : tensor<64x1x!tt.ptr<f32>>, tensor<64x1xi32> loc(#loc90)
    tt.store %29, %25, %6 : tensor<64x1x!tt.ptr<f32>> loc(#loc91)
    %30 = tt.splat %arg6 : !tt.ptr<f32> -> tensor<64x1x!tt.ptr<f32>> loc(#loc92)
    %31 = tt.addptr %30, %5 : tensor<64x1x!tt.ptr<f32>>, tensor<64x1xi32> loc(#loc92)
    tt.store %31, %26, %6 : tensor<64x1x!tt.ptr<f32>> loc(#loc93)
    %32 = tt.splat %arg7 : !tt.ptr<f32> -> tensor<64x1x!tt.ptr<f32>> loc(#loc94)
    %33 = tt.addptr %32, %5 : tensor<64x1x!tt.ptr<f32>>, tensor<64x1xi32> loc(#loc94)
    tt.store %33, %27, %6 : tensor<64x1x!tt.ptr<f32>> loc(#loc95)
    tt.return loc(#loc96)
  } loc(#loc)
} loc(#loc)
#loc2 = loc("inductor_cache/tn/ctnhk2r467eoeoptdlq6oaxcbntq3dkpsvrynoq6gnxejh5fsqdg.py":22:28)
#loc3 = loc("inductor_cache/tn/ctnhk2r467eoeoptdlq6oaxcbntq3dkpsvrynoq6gnxejh5fsqdg.py":22:33)
#loc4 = loc("inductor_cache/tn/ctnhk2r467eoeoptdlq6oaxcbntq3dkpsvrynoq6gnxejh5fsqdg.py":23:36)
#loc5 = loc("inductor_cache/tn/ctnhk2r467eoeoptdlq6oaxcbntq3dkpsvrynoq6gnxejh5fsqdg.py":23:44)
#loc6 = loc("inductor_cache/tn/ctnhk2r467eoeoptdlq6oaxcbntq3dkpsvrynoq6gnxejh5fsqdg.py":23:23)
#loc7 = loc("inductor_cache/tn/ctnhk2r467eoeoptdlq6oaxcbntq3dkpsvrynoq6gnxejh5fsqdg.py":24:21)
#loc8 = loc("inductor_cache/tn/ctnhk2r467eoeoptdlq6oaxcbntq3dkpsvrynoq6gnxejh5fsqdg.py":25:25)
#loc9 = loc("inductor_cache/tn/ctnhk2r467eoeoptdlq6oaxcbntq3dkpsvrynoq6gnxejh5fsqdg.py":25:33)
#loc10 = loc("inductor_cache/tn/ctnhk2r467eoeoptdlq6oaxcbntq3dkpsvrynoq6gnxejh5fsqdg.py":27:19)
#loc11 = loc("inductor_cache/tn/ctnhk2r467eoeoptdlq6oaxcbntq3dkpsvrynoq6gnxejh5fsqdg.py":39:34)
#loc12 = loc("inductor_cache/tn/ctnhk2r467eoeoptdlq6oaxcbntq3dkpsvrynoq6gnxejh5fsqdg.py":42:42)
#loc13 = loc("inductor_cache/tn/ctnhk2r467eoeoptdlq6oaxcbntq3dkpsvrynoq6gnxejh5fsqdg.py":42:40)
#loc14 = loc("inductor_cache/tn/ctnhk2r467eoeoptdlq6oaxcbntq3dkpsvrynoq6gnxejh5fsqdg.py":42:35)
#loc15 = loc("inductor_cache/tn/ctnhk2r467eoeoptdlq6oaxcbntq3dkpsvrynoq6gnxejh5fsqdg.py":42:55)
#loc16 = loc("inductor_cache/tn/ctnhk2r467eoeoptdlq6oaxcbntq3dkpsvrynoq6gnxejh5fsqdg.py":43:45)
#loc17 = loc("inductor_cache/tn/ctnhk2r467eoeoptdlq6oaxcbntq3dkpsvrynoq6gnxejh5fsqdg.py":43:40)
#loc18 = loc("inductor_cache/tn/ctnhk2r467eoeoptdlq6oaxcbntq3dkpsvrynoq6gnxejh5fsqdg.py":43:35)
#loc19 = loc("inductor_cache/tn/ctnhk2r467eoeoptdlq6oaxcbntq3dkpsvrynoq6gnxejh5fsqdg.py":54:76)
#loc20 = loc("inductor_cache/tn/ctnhk2r467eoeoptdlq6oaxcbntq3dkpsvrynoq6gnxejh5fsqdg.py":54:71)
#loc21 = loc("inductor_cache/tn/ctnhk2r467eoeoptdlq6oaxcbntq3dkpsvrynoq6gnxejh5fsqdg.py":54:35)
#loc22 = loc("inductor_cache/tn/ctnhk2r467eoeoptdlq6oaxcbntq3dkpsvrynoq6gnxejh5fsqdg.py":64:29)
#loc23 = loc("inductor_cache/tn/ctnhk2r467eoeoptdlq6oaxcbntq3dkpsvrynoq6gnxejh5fsqdg.py":31:36)
#loc24 = loc("inductor_cache/tn/ctnhk2r467eoeoptdlq6oaxcbntq3dkpsvrynoq6gnxejh5fsqdg.py":32:27)
#loc25 = loc("inductor_cache/tn/ctnhk2r467eoeoptdlq6oaxcbntq3dkpsvrynoq6gnxejh5fsqdg.py":33:25)
#loc26 = loc("inductor_cache/tn/ctnhk2r467eoeoptdlq6oaxcbntq3dkpsvrynoq6gnxejh5fsqdg.py":34:25)
#loc27 = loc("inductor_cache/tn/ctnhk2r467eoeoptdlq6oaxcbntq3dkpsvrynoq6gnxejh5fsqdg.py":34:32)
#loc28 = loc("inductor_cache/tn/ctnhk2r467eoeoptdlq6oaxcbntq3dkpsvrynoq6gnxejh5fsqdg.py":35:25)
#loc29 = loc("inductor_cache/tn/ctnhk2r467eoeoptdlq6oaxcbntq3dkpsvrynoq6gnxejh5fsqdg.py":35:31)
#loc30 = loc("inductor_cache/tn/ctnhk2r467eoeoptdlq6oaxcbntq3dkpsvrynoq6gnxejh5fsqdg.py":36:23)
#loc31 = loc("inductor_cache/tn/ctnhk2r467eoeoptdlq6oaxcbntq3dkpsvrynoq6gnxejh5fsqdg.py":37:23)
#loc32 = loc("inductor_cache/tn/ctnhk2r467eoeoptdlq6oaxcbntq3dkpsvrynoq6gnxejh5fsqdg.py":39:39)
#loc33 = loc("inductor_cache/tn/ctnhk2r467eoeoptdlq6oaxcbntq3dkpsvrynoq6gnxejh5fsqdg.py":40:34)
#loc34 = loc("inductor_cache/tn/ctnhk2r467eoeoptdlq6oaxcbntq3dkpsvrynoq6gnxejh5fsqdg.py":40:39)
#loc35 = loc("inductor_cache/tn/ctnhk2r467eoeoptdlq6oaxcbntq3dkpsvrynoq6gnxejh5fsqdg.py":41:34)
#loc36 = loc("inductor_cache/tn/ctnhk2r467eoeoptdlq6oaxcbntq3dkpsvrynoq6gnxejh5fsqdg.py":41:39)
#loc37 = loc("inductor_cache/tn/ctnhk2r467eoeoptdlq6oaxcbntq3dkpsvrynoq6gnxejh5fsqdg.py":42:47)
#loc38 = loc("inductor_cache/tn/ctnhk2r467eoeoptdlq6oaxcbntq3dkpsvrynoq6gnxejh5fsqdg.py":43:50)
#loc39 = loc("inductor_cache/tn/ctnhk2r467eoeoptdlq6oaxcbntq3dkpsvrynoq6gnxejh5fsqdg.py":45:22)
#loc40 = loc("inductor_cache/tn/ctnhk2r467eoeoptdlq6oaxcbntq3dkpsvrynoq6gnxejh5fsqdg.py":46:22)
#loc41 = loc("inductor_cache/tn/ctnhk2r467eoeoptdlq6oaxcbntq3dkpsvrynoq6gnxejh5fsqdg.py":47:36)
#loc42 = loc("inductor_cache/tn/ctnhk2r467eoeoptdlq6oaxcbntq3dkpsvrynoq6gnxejh5fsqdg.py":48:22)
#loc43 = loc("inductor_cache/tn/ctnhk2r467eoeoptdlq6oaxcbntq3dkpsvrynoq6gnxejh5fsqdg.py":49:22)
#loc44 = loc("inductor_cache/tn/ctnhk2r467eoeoptdlq6oaxcbntq3dkpsvrynoq6gnxejh5fsqdg.py":50:36)
#loc45 = loc("inductor_cache/tn/ctnhk2r467eoeoptdlq6oaxcbntq3dkpsvrynoq6gnxejh5fsqdg.py":51:23)
#loc46 = loc("inductor_cache/tn/ctnhk2r467eoeoptdlq6oaxcbntq3dkpsvrynoq6gnxejh5fsqdg.py":52:23)
#loc47 = loc("inductor_cache/tn/ctnhk2r467eoeoptdlq6oaxcbntq3dkpsvrynoq6gnxejh5fsqdg.py":53:39)
#loc48 = loc("inductor_cache/tn/ctnhk2r467eoeoptdlq6oaxcbntq3dkpsvrynoq6gnxejh5fsqdg.py":54:45)
#loc49 = loc("inductor_cache/tn/ctnhk2r467eoeoptdlq6oaxcbntq3dkpsvrynoq6gnxejh5fsqdg.py":54:43)
#loc50 = loc("inductor_cache/tn/ctnhk2r467eoeoptdlq6oaxcbntq3dkpsvrynoq6gnxejh5fsqdg.py":54:55)
#loc51 = loc("inductor_cache/tn/ctnhk2r467eoeoptdlq6oaxcbntq3dkpsvrynoq6gnxejh5fsqdg.py":54:52)
#loc52 = loc("inductor_cache/tn/ctnhk2r467eoeoptdlq6oaxcbntq3dkpsvrynoq6gnxejh5fsqdg.py":54:66)
#loc53 = loc("inductor_cache/tn/ctnhk2r467eoeoptdlq6oaxcbntq3dkpsvrynoq6gnxejh5fsqdg.py":54:62)
#loc54 = loc("inductor_cache/tn/ctnhk2r467eoeoptdlq6oaxcbntq3dkpsvrynoq6gnxejh5fsqdg.py":54:81)
#loc55 = loc("inductor_cache/tn/ctnhk2r467eoeoptdlq6oaxcbntq3dkpsvrynoq6gnxejh5fsqdg.py":55:24)
#loc56 = loc("inductor_cache/tn/ctnhk2r467eoeoptdlq6oaxcbntq3dkpsvrynoq6gnxejh5fsqdg.py":56:24)
#loc57 = loc("inductor_cache/tn/ctnhk2r467eoeoptdlq6oaxcbntq3dkpsvrynoq6gnxejh5fsqdg.py":59:66)
#loc58 = loc("/home/sahanp/.conda/envs/parity-bench/lib/python3.12/site-packages/torch/_inductor/runtime/triton_helpers.py":178:7)
#loc59 = loc("inductor_cache/tn/ctnhk2r467eoeoptdlq6oaxcbntq3dkpsvrynoq6gnxejh5fsqdg.py":59:55)
#loc60 = loc("/home/sahanp/.conda/envs/parity-bench/lib/python3.12/site-packages/torch/_inductor/runtime/triton_helpers.py":181:31)
#loc61 = loc("/home/sahanp/.conda/envs/parity-bench/lib/python3.12/site-packages/torch/_inductor/runtime/triton_helpers.py":183:24)
#loc62 = loc("/home/sahanp/.conda/envs/parity-bench/lib/python3.12/site-packages/torch/_inductor/runtime/triton_helpers.py":184:30)
#loc63 = loc("/home/sahanp/.conda/envs/parity-bench/lib/python3.12/site-packages/torch/_inductor/runtime/triton_helpers.py":185:34)
#loc64 = loc("/home/sahanp/.conda/envs/parity-bench/lib/python3.12/site-packages/torch/_inductor/runtime/triton_helpers.py":185:26)
#loc65 = loc("/home/sahanp/.conda/envs/parity-bench/lib/python3.12/site-packages/torch/_inductor/runtime/triton_helpers.py":186:39)
#loc66 = loc("/home/sahanp/.conda/envs/parity-bench/lib/python3.12/site-packages/torch/_inductor/runtime/triton_helpers.py":186:31)
#loc67 = loc("/home/sahanp/.conda/envs/parity-bench/lib/python3.12/site-packages/torch/_inductor/runtime/triton_helpers.py":186:22)
#loc68 = loc("inductor_cache/tn/ctnhk2r467eoeoptdlq6oaxcbntq3dkpsvrynoq6gnxejh5fsqdg.py":61:62)
#loc69 = loc("inductor_cache/tn/ctnhk2r467eoeoptdlq6oaxcbntq3dkpsvrynoq6gnxejh5fsqdg.py":62:58)
#loc70 = loc("inductor_cache/tn/ctnhk2r467eoeoptdlq6oaxcbntq3dkpsvrynoq6gnxejh5fsqdg.py":63:66)
#loc71 = loc("inductor_cache/tn/ctnhk2r467eoeoptdlq6oaxcbntq3dkpsvrynoq6gnxejh5fsqdg.py":64:51)
#loc72 = loc("inductor_cache/tn/ctnhk2r467eoeoptdlq6oaxcbntq3dkpsvrynoq6gnxejh5fsqdg.py":64:8)
#loc73 = loc("/home/sahanp/.conda/envs/parity-bench/lib/python3.12/site-packages/torch/_inductor/runtime/triton_helpers.py":204:46)
#loc75 = loc("/home/sahanp/.conda/envs/parity-bench/lib/python3.12/site-packages/torch/_inductor/runtime/triton_helpers.py":192:21)
#loc76 = loc("/home/sahanp/.conda/envs/parity-bench/lib/python3.12/site-packages/torch/_inductor/runtime/triton_helpers.py":193:28)
#loc77 = loc("/home/sahanp/.conda/envs/parity-bench/lib/python3.12/site-packages/torch/_inductor/runtime/triton_helpers.py":194:39)
#loc78 = loc("/home/sahanp/.conda/envs/parity-bench/lib/python3.12/site-packages/torch/_inductor/runtime/triton_helpers.py":194:60)
#loc79 = loc("/home/sahanp/.conda/envs/parity-bench/lib/python3.12/site-packages/torch/_inductor/runtime/triton_helpers.py":194:49)
#loc80 = loc("/home/sahanp/.conda/envs/parity-bench/lib/python3.12/site-packages/torch/_inductor/runtime/triton_helpers.py":196:25)
#loc81 = loc("/home/sahanp/.conda/envs/parity-bench/lib/python3.12/site-packages/torch/_inductor/runtime/triton_helpers.py":196:17)
#loc82 = loc("/home/sahanp/.conda/envs/parity-bench/lib/python3.12/site-packages/torch/_inductor/runtime/triton_helpers.py":197:15)
#loc83 = loc("/home/sahanp/.conda/envs/parity-bench/lib/python3.12/site-packages/torch/_inductor/runtime/triton_helpers.py":197:30)
#loc84 = loc("/home/sahanp/.conda/envs/parity-bench/lib/python3.12/site-packages/torch/_inductor/runtime/triton_helpers.py":197:38)
#loc85 = loc("/home/sahanp/.conda/envs/parity-bench/lib/python3.12/site-packages/torch/_inductor/runtime/triton_helpers.py":197:49)
#loc86 = loc("/home/sahanp/.conda/envs/parity-bench/lib/python3.12/site-packages/torch/_inductor/runtime/triton_helpers.py":197:22)
#loc87 = loc("inductor_cache/tn/ctnhk2r467eoeoptdlq6oaxcbntq3dkpsvrynoq6gnxejh5fsqdg.py":68:22)
#loc88 = loc("inductor_cache/tn/ctnhk2r467eoeoptdlq6oaxcbntq3dkpsvrynoq6gnxejh5fsqdg.py":69:22)
#loc89 = loc("inductor_cache/tn/ctnhk2r467eoeoptdlq6oaxcbntq3dkpsvrynoq6gnxejh5fsqdg.py":70:22)
#loc90 = loc("inductor_cache/tn/ctnhk2r467eoeoptdlq6oaxcbntq3dkpsvrynoq6gnxejh5fsqdg.py":71:25)
#loc91 = loc("inductor_cache/tn/ctnhk2r467eoeoptdlq6oaxcbntq3dkpsvrynoq6gnxejh5fsqdg.py":71:37)
#loc92 = loc("inductor_cache/tn/ctnhk2r467eoeoptdlq6oaxcbntq3dkpsvrynoq6gnxejh5fsqdg.py":72:25)
#loc93 = loc("inductor_cache/tn/ctnhk2r467eoeoptdlq6oaxcbntq3dkpsvrynoq6gnxejh5fsqdg.py":72:37)
#loc94 = loc("inductor_cache/tn/ctnhk2r467eoeoptdlq6oaxcbntq3dkpsvrynoq6gnxejh5fsqdg.py":73:25)
#loc95 = loc("inductor_cache/tn/ctnhk2r467eoeoptdlq6oaxcbntq3dkpsvrynoq6gnxejh5fsqdg.py":73:37)
#loc96 = loc("inductor_cache/tn/ctnhk2r467eoeoptdlq6oaxcbntq3dkpsvrynoq6gnxejh5fsqdg.py":73:4)
#loc97 = loc(callsite(#loc58 at #loc59))
#loc98 = loc(callsite(#loc60 at #loc59))
#loc99 = loc(callsite(#loc61 at #loc59))
#loc100 = loc(callsite(#loc62 at #loc59))
#loc101 = loc(callsite(#loc63 at #loc59))
#loc102 = loc(callsite(#loc64 at #loc59))
#loc103 = loc(callsite(#loc65 at #loc59))
#loc104 = loc(callsite(#loc66 at #loc59))
#loc105 = loc(callsite(#loc67 at #loc59))
#loc106 = loc(callsite(#loc73 at #loc74))
#loc108 = loc(callsite(#loc75 at #loc73))
#loc109 = loc(callsite(#loc76 at #loc73))
#loc110 = loc(callsite(#loc77 at #loc73))
#loc111 = loc(callsite(#loc78 at #loc73))
#loc112 = loc(callsite(#loc79 at #loc73))
#loc113 = loc(callsite(#loc80 at #loc73))
#loc114 = loc(callsite(#loc81 at #loc73))
#loc115 = loc(callsite(#loc82 at #loc73))
#loc116 = loc(callsite(#loc83 at #loc73))
#loc117 = loc(callsite(#loc84 at #loc73))
#loc118 = loc(callsite(#loc85 at #loc73))
#loc119 = loc(callsite(#loc86 at #loc73))
#loc120 = loc(callsite(#loc108 at #loc74))
#loc121 = loc(callsite(#loc109 at #loc74))
#loc122 = loc(callsite(#loc110 at #loc74))
#loc123 = loc(callsite(#loc111 at #loc74))
#loc124 = loc(callsite(#loc112 at #loc74))
#loc125 = loc(callsite(#loc113 at #loc74))
#loc126 = loc(callsite(#loc114 at #loc74))
#loc127 = loc(callsite(#loc115 at #loc74))
#loc128 = loc(callsite(#loc116 at #loc74))
#loc129 = loc(callsite(#loc117 at #loc74))
#loc130 = loc(callsite(#loc118 at #loc74))
#loc131 = loc(callsite(#loc119 at #loc74))
