#loc = loc("inductor_cache/3h/c3htcyf64q5vrd7yhx3nrq677dnjducj6ws4kjib7mtaxt3ztfmx.py":19:0)
#loc1 = loc(unknown)
#loc57 = loc("inductor_cache/3h/c3htcyf64q5vrd7yhx3nrq677dnjducj6ws4kjib7mtaxt3ztfmx.py":58:26)
#loc73 = loc(callsite(#loc1 at #loc57))
module {
  tt.func public @triton_per_fused_add_linalg_vector_norm_mean_sub_4(%arg0: !tt.ptr<f32> {tt.divisibility = 16 : i32} loc("inductor_cache/3h/c3htcyf64q5vrd7yhx3nrq677dnjducj6ws4kjib7mtaxt3ztfmx.py":19:0), %arg1: !tt.ptr<f32> {tt.divisibility = 16 : i32} loc("inductor_cache/3h/c3htcyf64q5vrd7yhx3nrq677dnjducj6ws4kjib7mtaxt3ztfmx.py":19:0), %arg2: !tt.ptr<f32> {tt.divisibility = 16 : i32} loc("inductor_cache/3h/c3htcyf64q5vrd7yhx3nrq677dnjducj6ws4kjib7mtaxt3ztfmx.py":19:0), %arg3: !tt.ptr<f32> {tt.divisibility = 16 : i32} loc("inductor_cache/3h/c3htcyf64q5vrd7yhx3nrq677dnjducj6ws4kjib7mtaxt3ztfmx.py":19:0), %arg4: !tt.ptr<f32> {tt.divisibility = 16 : i32} loc("inductor_cache/3h/c3htcyf64q5vrd7yhx3nrq677dnjducj6ws4kjib7mtaxt3ztfmx.py":19:0), %arg5: i32 {tt.divisibility = 16 : i32} loc("inductor_cache/3h/c3htcyf64q5vrd7yhx3nrq677dnjducj6ws4kjib7mtaxt3ztfmx.py":19:0)) attributes {noinline = false} {
    %cst = arith.constant 0.000000e+00 : f32 loc(#loc1)
    %cst_0 = arith.constant 6.400000e+01 : f32 loc(#loc1)
    %cst_1 = arith.constant dense<6.400000e+01> : tensor<1x1xf32> loc(#loc1)
    %cst_2 = arith.constant dense<48> : tensor<1x64xi32> loc(#loc1)
    %cst_3 = arith.constant dense<816> : tensor<1x64xi32> loc(#loc1)
    %cst_4 = arith.constant dense<32> : tensor<1x64xi32> loc(#loc1)
    %cst_5 = arith.constant dense<800> : tensor<1x64xi32> loc(#loc1)
    %cst_6 = arith.constant dense<784> : tensor<1x64xi32> loc(#loc1)
    %cst_7 = arith.constant dense<64> : tensor<1x64xi32> loc(#loc1)
    %cst_8 = arith.constant dense<768> : tensor<1x64xi32> loc(#loc1)
    %cst_9 = arith.constant dense<16> : tensor<1x64xi32> loc(#loc1)
    %c0_i32 = arith.constant 0 : i32 loc(#loc1)
    %0 = tt.make_range {end = 64 : i32, start = 0 : i32} : tensor<64xi32> loc(#loc2)
    %1 = tt.expand_dims %0 {axis = 0 : i32} : tensor<64xi32> -> tensor<1x64xi32> loc(#loc3)
    %2 = arith.remsi %1, %cst_9 : tensor<1x64xi32> loc(#loc4)
    %3 = arith.divsi %1, %cst_9 : tensor<1x64xi32> loc(#loc5)
    %4 = arith.addi %2, %cst_8 : tensor<1x64xi32> loc(#loc6)
    %5 = arith.muli %3, %cst_7 : tensor<1x64xi32> loc(#loc7)
    %6 = arith.addi %4, %5 : tensor<1x64xi32> loc(#loc8)
    %7 = tt.splat %arg1 : !tt.ptr<f32> -> tensor<1x64x!tt.ptr<f32>> loc(#loc9)
    %8 = tt.addptr %7, %6 : tensor<1x64x!tt.ptr<f32>>, tensor<1x64xi32> loc(#loc9)
    %9 = tt.load %8 : tensor<1x64x!tt.ptr<f32>> loc(#loc10)
    %10 = arith.addi %2, %5 : tensor<1x64xi32> loc(#loc11)
    %11 = tt.splat %arg2 : !tt.ptr<f32> -> tensor<1x64x!tt.ptr<f32>> loc(#loc12)
    %12 = tt.addptr %11, %10 : tensor<1x64x!tt.ptr<f32>>, tensor<1x64xi32> loc(#loc12)
    %13 = tt.load %12 : tensor<1x64x!tt.ptr<f32>> loc(#loc13)
    %14 = arith.addi %2, %cst_6 : tensor<1x64xi32> loc(#loc14)
    %15 = arith.addi %14, %5 : tensor<1x64xi32> loc(#loc15)
    %16 = tt.addptr %7, %15 : tensor<1x64x!tt.ptr<f32>>, tensor<1x64xi32> loc(#loc16)
    %17 = tt.load %16 : tensor<1x64x!tt.ptr<f32>> loc(#loc17)
    %18 = arith.addi %2, %cst_9 : tensor<1x64xi32> loc(#loc18)
    %19 = arith.addi %18, %5 : tensor<1x64xi32> loc(#loc19)
    %20 = tt.addptr %11, %19 : tensor<1x64x!tt.ptr<f32>>, tensor<1x64xi32> loc(#loc20)
    %21 = tt.load %20 : tensor<1x64x!tt.ptr<f32>> loc(#loc21)
    %22 = arith.addi %2, %cst_5 : tensor<1x64xi32> loc(#loc22)
    %23 = arith.addi %22, %5 : tensor<1x64xi32> loc(#loc23)
    %24 = tt.addptr %7, %23 : tensor<1x64x!tt.ptr<f32>>, tensor<1x64xi32> loc(#loc24)
    %25 = tt.load %24 : tensor<1x64x!tt.ptr<f32>> loc(#loc25)
    %26 = arith.addi %2, %cst_4 : tensor<1x64xi32> loc(#loc26)
    %27 = arith.addi %26, %5 : tensor<1x64xi32> loc(#loc27)
    %28 = tt.addptr %11, %27 : tensor<1x64x!tt.ptr<f32>>, tensor<1x64xi32> loc(#loc28)
    %29 = tt.load %28 : tensor<1x64x!tt.ptr<f32>> loc(#loc29)
    %30 = arith.addi %2, %cst_3 : tensor<1x64xi32> loc(#loc30)
    %31 = arith.addi %30, %5 : tensor<1x64xi32> loc(#loc31)
    %32 = tt.addptr %7, %31 : tensor<1x64x!tt.ptr<f32>>, tensor<1x64xi32> loc(#loc32)
    %33 = tt.load %32 : tensor<1x64x!tt.ptr<f32>> loc(#loc33)
    %34 = arith.addi %2, %cst_2 : tensor<1x64xi32> loc(#loc34)
    %35 = arith.addi %34, %5 : tensor<1x64xi32> loc(#loc35)
    %36 = tt.addptr %11, %35 : tensor<1x64x!tt.ptr<f32>>, tensor<1x64xi32> loc(#loc36)
    %37 = tt.load %36 : tensor<1x64x!tt.ptr<f32>> loc(#loc37)
    %38 = tt.addptr %arg0, %c0_i32 : !tt.ptr<f32>, i32 loc(#loc38)
    %39 = tt.load %38 : !tt.ptr<f32> loc(#loc39)
    %40 = tt.addptr %arg3, %c0_i32 : !tt.ptr<f32>, i32 loc(#loc40)
    %41 = tt.load %40 : !tt.ptr<f32> loc(#loc41)
    %42 = tt.addptr %arg4, %c0_i32 : !tt.ptr<f32>, i32 loc(#loc42)
    %43 = tt.load %42 : !tt.ptr<f32> loc(#loc43)
    %44 = arith.subf %9, %13 : tensor<1x64xf32> loc(#loc44)
    %45 = arith.mulf %44, %44 : tensor<1x64xf32> loc(#loc45)
    %46 = arith.subf %17, %21 : tensor<1x64xf32> loc(#loc46)
    %47 = arith.mulf %46, %46 : tensor<1x64xf32> loc(#loc47)
    %48 = arith.addf %45, %47 : tensor<1x64xf32> loc(#loc48)
    %49 = arith.subf %25, %29 : tensor<1x64xf32> loc(#loc49)
    %50 = arith.mulf %49, %49 : tensor<1x64xf32> loc(#loc50)
    %51 = arith.addf %48, %50 : tensor<1x64xf32> loc(#loc51)
    %52 = arith.subf %33, %37 : tensor<1x64xf32> loc(#loc52)
    %53 = arith.mulf %52, %52 : tensor<1x64xf32> loc(#loc53)
    %54 = arith.addf %51, %53 : tensor<1x64xf32> loc(#loc54)
    %55 = tt.extern_elementwise %54 {libname = "", libpath = "", pure = true, symbol = "__nv_sqrtf"} : (tensor<1x64xf32>) -> tensor<1x64xf32> loc(#loc55)
    %56 = "tt.reduce"(%55) <{axis = 1 : i32}> ({
    ^bb0(%arg6: f32 loc(callsite(#loc1 at #loc57)), %arg7: f32 loc(callsite(#loc1 at #loc57))):
      %68 = arith.addf %arg6, %arg7 : f32 loc(#loc75)
      tt.reduce.return %68 : f32 loc(#loc72)
    }) : (tensor<1x64xf32>) -> tensor<1xf32> loc(#loc72)
    %57 = tt.expand_dims %56 {axis = 1 : i32} : tensor<1xf32> -> tensor<1x1xf32> loc(#loc59)
    %58 = arith.divf %39, %cst_0 : f32 loc(#loc60)
    %59 = arith.addf %58, %cst : f32 loc(#loc61)
    %60 = arith.divf %41, %cst_0 : f32 loc(#loc62)
    %61 = arith.addf %59, %60 : f32 loc(#loc63)
    %62 = arith.divf %43, %cst_0 : f32 loc(#loc64)
    %63 = arith.addf %61, %62 : f32 loc(#loc65)
    %64 = tt.splat %63 : f32 -> tensor<1x1xf32> loc(#loc65)
    %65 = arith.divf %57, %cst_1 : tensor<1x1xf32> loc(#loc66)
    %66 = arith.addf %64, %65 : tensor<1x1xf32> loc(#loc67)
    gpu.barrier loc(#loc68)
    %67 = tt.splat %38 : !tt.ptr<f32> -> tensor<1x1x!tt.ptr<f32>> loc(#loc69)
    tt.store %67, %66 : tensor<1x1x!tt.ptr<f32>> loc(#loc70)
    tt.return loc(#loc71)
  } loc(#loc)
} loc(#loc)
#loc2 = loc("inductor_cache/3h/c3htcyf64q5vrd7yhx3nrq677dnjducj6ws4kjib7mtaxt3ztfmx.py":26:26)
#loc3 = loc("inductor_cache/3h/c3htcyf64q5vrd7yhx3nrq677dnjducj6ws4kjib7mtaxt3ztfmx.py":26:34)
#loc4 = loc("inductor_cache/3h/c3htcyf64q5vrd7yhx3nrq677dnjducj6ws4kjib7mtaxt3ztfmx.py":29:19)
#loc5 = loc("inductor_cache/3h/c3htcyf64q5vrd7yhx3nrq677dnjducj6ws4kjib7mtaxt3ztfmx.py":30:19)
#loc6 = loc("inductor_cache/3h/c3htcyf64q5vrd7yhx3nrq677dnjducj6ws4kjib7mtaxt3ztfmx.py":31:36)
#loc7 = loc("inductor_cache/3h/c3htcyf64q5vrd7yhx3nrq677dnjducj6ws4kjib7mtaxt3ztfmx.py":31:44)
#loc8 = loc("inductor_cache/3h/c3htcyf64q5vrd7yhx3nrq677dnjducj6ws4kjib7mtaxt3ztfmx.py":31:41)
#loc9 = loc("inductor_cache/3h/c3htcyf64q5vrd7yhx3nrq677dnjducj6ws4kjib7mtaxt3ztfmx.py":31:30)
#loc10 = loc("inductor_cache/3h/c3htcyf64q5vrd7yhx3nrq677dnjducj6ws4kjib7mtaxt3ztfmx.py":31:49)
#loc11 = loc("inductor_cache/3h/c3htcyf64q5vrd7yhx3nrq677dnjducj6ws4kjib7mtaxt3ztfmx.py":32:35)
#loc12 = loc("inductor_cache/3h/c3htcyf64q5vrd7yhx3nrq677dnjducj6ws4kjib7mtaxt3ztfmx.py":32:30)
#loc13 = loc("inductor_cache/3h/c3htcyf64q5vrd7yhx3nrq677dnjducj6ws4kjib7mtaxt3ztfmx.py":32:43)
#loc14 = loc("inductor_cache/3h/c3htcyf64q5vrd7yhx3nrq677dnjducj6ws4kjib7mtaxt3ztfmx.py":33:36)
#loc15 = loc("inductor_cache/3h/c3htcyf64q5vrd7yhx3nrq677dnjducj6ws4kjib7mtaxt3ztfmx.py":33:41)
#loc16 = loc("inductor_cache/3h/c3htcyf64q5vrd7yhx3nrq677dnjducj6ws4kjib7mtaxt3ztfmx.py":33:30)
#loc17 = loc("inductor_cache/3h/c3htcyf64q5vrd7yhx3nrq677dnjducj6ws4kjib7mtaxt3ztfmx.py":33:49)
#loc18 = loc("inductor_cache/3h/c3htcyf64q5vrd7yhx3nrq677dnjducj6ws4kjib7mtaxt3ztfmx.py":34:35)
#loc19 = loc("inductor_cache/3h/c3htcyf64q5vrd7yhx3nrq677dnjducj6ws4kjib7mtaxt3ztfmx.py":34:40)
#loc20 = loc("inductor_cache/3h/c3htcyf64q5vrd7yhx3nrq677dnjducj6ws4kjib7mtaxt3ztfmx.py":34:30)
#loc21 = loc("inductor_cache/3h/c3htcyf64q5vrd7yhx3nrq677dnjducj6ws4kjib7mtaxt3ztfmx.py":34:48)
#loc22 = loc("inductor_cache/3h/c3htcyf64q5vrd7yhx3nrq677dnjducj6ws4kjib7mtaxt3ztfmx.py":35:36)
#loc23 = loc("inductor_cache/3h/c3htcyf64q5vrd7yhx3nrq677dnjducj6ws4kjib7mtaxt3ztfmx.py":35:41)
#loc24 = loc("inductor_cache/3h/c3htcyf64q5vrd7yhx3nrq677dnjducj6ws4kjib7mtaxt3ztfmx.py":35:30)
#loc25 = loc("inductor_cache/3h/c3htcyf64q5vrd7yhx3nrq677dnjducj6ws4kjib7mtaxt3ztfmx.py":35:49)
#loc26 = loc("inductor_cache/3h/c3htcyf64q5vrd7yhx3nrq677dnjducj6ws4kjib7mtaxt3ztfmx.py":36:36)
#loc27 = loc("inductor_cache/3h/c3htcyf64q5vrd7yhx3nrq677dnjducj6ws4kjib7mtaxt3ztfmx.py":36:41)
#loc28 = loc("inductor_cache/3h/c3htcyf64q5vrd7yhx3nrq677dnjducj6ws4kjib7mtaxt3ztfmx.py":36:31)
#loc29 = loc("inductor_cache/3h/c3htcyf64q5vrd7yhx3nrq677dnjducj6ws4kjib7mtaxt3ztfmx.py":36:49)
#loc30 = loc("inductor_cache/3h/c3htcyf64q5vrd7yhx3nrq677dnjducj6ws4kjib7mtaxt3ztfmx.py":37:37)
#loc31 = loc("inductor_cache/3h/c3htcyf64q5vrd7yhx3nrq677dnjducj6ws4kjib7mtaxt3ztfmx.py":37:42)
#loc32 = loc("inductor_cache/3h/c3htcyf64q5vrd7yhx3nrq677dnjducj6ws4kjib7mtaxt3ztfmx.py":37:31)
#loc33 = loc("inductor_cache/3h/c3htcyf64q5vrd7yhx3nrq677dnjducj6ws4kjib7mtaxt3ztfmx.py":37:50)
#loc34 = loc("inductor_cache/3h/c3htcyf64q5vrd7yhx3nrq677dnjducj6ws4kjib7mtaxt3ztfmx.py":38:36)
#loc35 = loc("inductor_cache/3h/c3htcyf64q5vrd7yhx3nrq677dnjducj6ws4kjib7mtaxt3ztfmx.py":38:41)
#loc36 = loc("inductor_cache/3h/c3htcyf64q5vrd7yhx3nrq677dnjducj6ws4kjib7mtaxt3ztfmx.py":38:31)
#loc37 = loc("inductor_cache/3h/c3htcyf64q5vrd7yhx3nrq677dnjducj6ws4kjib7mtaxt3ztfmx.py":38:49)
#loc38 = loc("inductor_cache/3h/c3htcyf64q5vrd7yhx3nrq677dnjducj6ws4kjib7mtaxt3ztfmx.py":39:35)
#loc39 = loc("inductor_cache/3h/c3htcyf64q5vrd7yhx3nrq677dnjducj6ws4kjib7mtaxt3ztfmx.py":39:20)
#loc40 = loc("inductor_cache/3h/c3htcyf64q5vrd7yhx3nrq677dnjducj6ws4kjib7mtaxt3ztfmx.py":41:31)
#loc41 = loc("inductor_cache/3h/c3htcyf64q5vrd7yhx3nrq677dnjducj6ws4kjib7mtaxt3ztfmx.py":41:20)
#loc42 = loc("inductor_cache/3h/c3htcyf64q5vrd7yhx3nrq677dnjducj6ws4kjib7mtaxt3ztfmx.py":43:31)
#loc43 = loc("inductor_cache/3h/c3htcyf64q5vrd7yhx3nrq677dnjducj6ws4kjib7mtaxt3ztfmx.py":43:20)
#loc44 = loc("inductor_cache/3h/c3htcyf64q5vrd7yhx3nrq677dnjducj6ws4kjib7mtaxt3ztfmx.py":45:18)
#loc45 = loc("inductor_cache/3h/c3htcyf64q5vrd7yhx3nrq677dnjducj6ws4kjib7mtaxt3ztfmx.py":46:18)
#loc46 = loc("inductor_cache/3h/c3htcyf64q5vrd7yhx3nrq677dnjducj6ws4kjib7mtaxt3ztfmx.py":47:18)
#loc47 = loc("inductor_cache/3h/c3htcyf64q5vrd7yhx3nrq677dnjducj6ws4kjib7mtaxt3ztfmx.py":48:18)
#loc48 = loc("inductor_cache/3h/c3htcyf64q5vrd7yhx3nrq677dnjducj6ws4kjib7mtaxt3ztfmx.py":49:18)
#loc49 = loc("inductor_cache/3h/c3htcyf64q5vrd7yhx3nrq677dnjducj6ws4kjib7mtaxt3ztfmx.py":50:19)
#loc50 = loc("inductor_cache/3h/c3htcyf64q5vrd7yhx3nrq677dnjducj6ws4kjib7mtaxt3ztfmx.py":51:20)
#loc51 = loc("inductor_cache/3h/c3htcyf64q5vrd7yhx3nrq677dnjducj6ws4kjib7mtaxt3ztfmx.py":52:19)
#loc52 = loc("inductor_cache/3h/c3htcyf64q5vrd7yhx3nrq677dnjducj6ws4kjib7mtaxt3ztfmx.py":53:20)
#loc53 = loc("inductor_cache/3h/c3htcyf64q5vrd7yhx3nrq677dnjducj6ws4kjib7mtaxt3ztfmx.py":54:20)
#loc54 = loc("inductor_cache/3h/c3htcyf64q5vrd7yhx3nrq677dnjducj6ws4kjib7mtaxt3ztfmx.py":55:20)
#loc55 = loc("inductor_cache/3h/c3htcyf64q5vrd7yhx3nrq677dnjducj6ws4kjib7mtaxt3ztfmx.py":56:27)
#loc56 = loc("/home/sahanp/.conda/envs/parity-bench/lib/python3.12/site-packages/triton/language/standard.py":267:36)
#loc58 = loc("/home/sahanp/.conda/envs/parity-bench/lib/python3.12/site-packages/triton/language/standard.py":256:15)
#loc59 = loc("inductor_cache/3h/c3htcyf64q5vrd7yhx3nrq677dnjducj6ws4kjib7mtaxt3ztfmx.py":58:29)
#loc60 = loc("inductor_cache/3h/c3htcyf64q5vrd7yhx3nrq677dnjducj6ws4kjib7mtaxt3ztfmx.py":60:20)
#loc61 = loc("inductor_cache/3h/c3htcyf64q5vrd7yhx3nrq677dnjducj6ws4kjib7mtaxt3ztfmx.py":62:20)
#loc62 = loc("inductor_cache/3h/c3htcyf64q5vrd7yhx3nrq677dnjducj6ws4kjib7mtaxt3ztfmx.py":63:20)
#loc63 = loc("inductor_cache/3h/c3htcyf64q5vrd7yhx3nrq677dnjducj6ws4kjib7mtaxt3ztfmx.py":64:20)
#loc64 = loc("inductor_cache/3h/c3htcyf64q5vrd7yhx3nrq677dnjducj6ws4kjib7mtaxt3ztfmx.py":65:20)
#loc65 = loc("inductor_cache/3h/c3htcyf64q5vrd7yhx3nrq677dnjducj6ws4kjib7mtaxt3ztfmx.py":66:20)
#loc66 = loc("inductor_cache/3h/c3htcyf64q5vrd7yhx3nrq677dnjducj6ws4kjib7mtaxt3ztfmx.py":67:20)
#loc67 = loc("inductor_cache/3h/c3htcyf64q5vrd7yhx3nrq677dnjducj6ws4kjib7mtaxt3ztfmx.py":68:20)
#loc68 = loc("inductor_cache/3h/c3htcyf64q5vrd7yhx3nrq677dnjducj6ws4kjib7mtaxt3ztfmx.py":69:4)
#loc69 = loc("inductor_cache/3h/c3htcyf64q5vrd7yhx3nrq677dnjducj6ws4kjib7mtaxt3ztfmx.py":70:28)
#loc70 = loc("inductor_cache/3h/c3htcyf64q5vrd7yhx3nrq677dnjducj6ws4kjib7mtaxt3ztfmx.py":70:71)
#loc71 = loc("inductor_cache/3h/c3htcyf64q5vrd7yhx3nrq677dnjducj6ws4kjib7mtaxt3ztfmx.py":70:4)
#loc72 = loc(callsite(#loc56 at #loc57))
#loc74 = loc(callsite(#loc58 at #loc56))
#loc75 = loc(callsite(#loc74 at #loc57))
