#loc = loc("inductor_cache/rc/crcsiopjaujagibqaznydbi7svxlye5orgvgm3h43skvabtelnkr.py":19:0)
module {
  tt.func public @triton_poi_fused__native_batch_norm_legit_no_training_add_relu_threshold_backward_12(%arg0: !tt.ptr<f32> {tt.divisibility = 16 : i32} loc("inductor_cache/rc/crcsiopjaujagibqaznydbi7svxlye5orgvgm3h43skvabtelnkr.py":19:0), %arg1: !tt.ptr<f32> {tt.divisibility = 16 : i32} loc("inductor_cache/rc/crcsiopjaujagibqaznydbi7svxlye5orgvgm3h43skvabtelnkr.py":19:0), %arg2: !tt.ptr<f32> {tt.divisibility = 16 : i32} loc("inductor_cache/rc/crcsiopjaujagibqaznydbi7svxlye5orgvgm3h43skvabtelnkr.py":19:0), %arg3: !tt.ptr<f32> {tt.divisibility = 16 : i32} loc("inductor_cache/rc/crcsiopjaujagibqaznydbi7svxlye5orgvgm3h43skvabtelnkr.py":19:0), %arg4: !tt.ptr<f32> {tt.divisibility = 16 : i32} loc("inductor_cache/rc/crcsiopjaujagibqaznydbi7svxlye5orgvgm3h43skvabtelnkr.py":19:0), %arg5: !tt.ptr<f32> {tt.divisibility = 16 : i32} loc("inductor_cache/rc/crcsiopjaujagibqaznydbi7svxlye5orgvgm3h43skvabtelnkr.py":19:0), %arg6: !tt.ptr<f32> {tt.divisibility = 16 : i32} loc("inductor_cache/rc/crcsiopjaujagibqaznydbi7svxlye5orgvgm3h43skvabtelnkr.py":19:0), %arg7: !tt.ptr<f32> {tt.divisibility = 16 : i32} loc("inductor_cache/rc/crcsiopjaujagibqaznydbi7svxlye5orgvgm3h43skvabtelnkr.py":19:0), %arg8: !tt.ptr<f32> {tt.divisibility = 16 : i32} loc("inductor_cache/rc/crcsiopjaujagibqaznydbi7svxlye5orgvgm3h43skvabtelnkr.py":19:0), %arg9: !tt.ptr<i1> {tt.divisibility = 16 : i32} loc("inductor_cache/rc/crcsiopjaujagibqaznydbi7svxlye5orgvgm3h43skvabtelnkr.py":19:0), %arg10: i32 {tt.divisibility = 16 : i32} loc("inductor_cache/rc/crcsiopjaujagibqaznydbi7svxlye5orgvgm3h43skvabtelnkr.py":19:0)) attributes {noinline = false} {
    %cst = arith.constant dense<1.000000e+00> : tensor<128xf32> loc(#loc1)
    %cst_0 = arith.constant dense<0.000000e+00> : tensor<128xf32> loc(#loc1)
    %cst_1 = arith.constant dense<9.99999974E-6> : tensor<128xf32> loc(#loc1)
    %cst_2 = arith.constant dense<4> : tensor<128xi32> loc(#loc1)
    %cst_3 = arith.constant dense<64> : tensor<128xi32> loc(#loc1)
    %cst_4 = arith.constant dense<8> : tensor<128xi32> loc(#loc1)
    %cst_5 = arith.constant dense<2048> : tensor<128xi32> loc(#loc1)
    %c128_i32 = arith.constant 128 : i32 loc(#loc1)
    %0 = tt.get_program_id x : i32 loc(#loc2)
    %1 = arith.muli %0, %c128_i32 : i32 loc(#loc3)
    %2 = tt.make_range {end = 128 : i32, start = 0 : i32} : tensor<128xi32> loc(#loc4)
    %3 = tt.splat %1 : i32 -> tensor<128xi32> loc(#loc5)
    %4 = arith.addi %3, %2 : tensor<128xi32> loc(#loc5)
    %5 = arith.cmpi slt, %4, %cst_5 : tensor<128xi32> loc(#loc6)
    %6 = arith.divsi %4, %cst_4 : tensor<128xi32> loc(#loc7)
    %7 = arith.remsi %6, %cst_3 : tensor<128xi32> loc(#loc8)
    %8 = arith.divsi %4, %cst_2 : tensor<128xi32> loc(#loc9)
    %9 = tt.splat %arg0 : !tt.ptr<f32> -> tensor<128x!tt.ptr<f32>> loc(#loc10)
    %10 = tt.addptr %9, %4 : tensor<128x!tt.ptr<f32>>, tensor<128xi32> loc(#loc10)
    %11 = tt.load %10, %5 : tensor<128x!tt.ptr<f32>> loc(#loc11)
    %12 = tt.splat %arg1 : !tt.ptr<f32> -> tensor<128x!tt.ptr<f32>> loc(#loc12)
    %13 = tt.addptr %12, %7 : tensor<128x!tt.ptr<f32>>, tensor<128xi32> loc(#loc12)
    %14 = tt.load %13, %5 evictionPolicy = evict_last : tensor<128x!tt.ptr<f32>> loc(#loc13)
    %15 = tt.splat %arg2 : !tt.ptr<f32> -> tensor<128x!tt.ptr<f32>> loc(#loc14)
    %16 = tt.addptr %15, %7 : tensor<128x!tt.ptr<f32>>, tensor<128xi32> loc(#loc14)
    %17 = tt.load %16, %5 evictionPolicy = evict_last : tensor<128x!tt.ptr<f32>> loc(#loc15)
    %18 = tt.splat %arg3 : !tt.ptr<f32> -> tensor<128x!tt.ptr<f32>> loc(#loc16)
    %19 = tt.addptr %18, %7 : tensor<128x!tt.ptr<f32>>, tensor<128xi32> loc(#loc16)
    %20 = tt.load %19, %5 evictionPolicy = evict_last : tensor<128x!tt.ptr<f32>> loc(#loc17)
    %21 = tt.splat %arg4 : !tt.ptr<f32> -> tensor<128x!tt.ptr<f32>> loc(#loc18)
    %22 = tt.addptr %21, %7 : tensor<128x!tt.ptr<f32>>, tensor<128xi32> loc(#loc18)
    %23 = tt.load %22, %5 evictionPolicy = evict_last : tensor<128x!tt.ptr<f32>> loc(#loc19)
    %24 = tt.splat %arg5 : !tt.ptr<f32> -> tensor<128x!tt.ptr<f32>> loc(#loc20)
    %25 = tt.addptr %24, %8 : tensor<128x!tt.ptr<f32>>, tensor<128xi32> loc(#loc20)
    %26 = tt.load %25, %5 evictionPolicy = evict_last : tensor<128x!tt.ptr<f32>> loc(#loc21)
    %27 = tt.splat %arg6 : !tt.ptr<f32> -> tensor<128x!tt.ptr<f32>> loc(#loc22)
    %28 = tt.addptr %27, %8 : tensor<128x!tt.ptr<f32>>, tensor<128xi32> loc(#loc22)
    %29 = tt.load %28, %5 evictionPolicy = evict_last : tensor<128x!tt.ptr<f32>> loc(#loc23)
    %30 = arith.subf %11, %14 : tensor<128xf32> loc(#loc24)
    %31 = arith.addf %17, %cst_1 : tensor<128xf32> loc(#loc25)
    %32 = tt.extern_elementwise %31 {libname = "", libpath = "", pure = true, symbol = "__nv_sqrtf"} : (tensor<128xf32>) -> tensor<128xf32> loc(#loc26)
    %33 = arith.divf %cst, %32 : tensor<128xf32> loc(#loc27)
    %34 = arith.mulf %30, %33 : tensor<128xf32> loc(#loc28)
    %35 = arith.mulf %34, %20 : tensor<128xf32> loc(#loc29)
    %36 = arith.addf %35, %23 : tensor<128xf32> loc(#loc30)
    %37 = arith.addf %36, %26 : tensor<128xf32> loc(#loc31)
    %38 = arith.cmpf ogt, %cst_0, %37 : tensor<128xf32> loc(#loc45)
    %39 = arith.select %38, %cst_0, %37 : tensor<128xi1>, tensor<128xf32> loc(#loc46)
    %40 = arith.addf %29, %39 : tensor<128xf32> loc(#loc35)
    %41 = arith.cmpf ogt, %cst_0, %40 : tensor<128xf32> loc(#loc47)
    %42 = arith.select %41, %cst_0, %40 : tensor<128xi1>, tensor<128xf32> loc(#loc48)
    %43 = arith.cmpf ole, %39, %cst_0 : tensor<128xf32> loc(#loc37)
    %44 = tt.splat %arg7 : !tt.ptr<f32> -> tensor<128x!tt.ptr<f32>> loc(#loc38)
    %45 = tt.addptr %44, %4 : tensor<128x!tt.ptr<f32>>, tensor<128xi32> loc(#loc38)
    tt.store %45, %39, %5 : tensor<128x!tt.ptr<f32>> loc(#loc39)
    %46 = tt.splat %arg8 : !tt.ptr<f32> -> tensor<128x!tt.ptr<f32>> loc(#loc40)
    %47 = tt.addptr %46, %4 : tensor<128x!tt.ptr<f32>>, tensor<128xi32> loc(#loc40)
    tt.store %47, %42, %5 : tensor<128x!tt.ptr<f32>> loc(#loc41)
    %48 = tt.splat %arg9 : !tt.ptr<i1> -> tensor<128x!tt.ptr<i1>> loc(#loc42)
    %49 = tt.addptr %48, %4 : tensor<128x!tt.ptr<i1>>, tensor<128xi32> loc(#loc42)
    %50 = tt.bitcast %49 : tensor<128x!tt.ptr<i1>> -> tensor<128x!tt.ptr<i8>> loc(#loc43)
    %51 = arith.extui %43 : tensor<128xi1> to tensor<128xi8> loc(#loc43)
    tt.store %50, %51, %5 : tensor<128x!tt.ptr<i8>> loc(#loc43)
    tt.return loc(#loc44)
  } loc(#loc)
} loc(#loc)
#loc1 = loc(unknown)
#loc2 = loc("inductor_cache/rc/crcsiopjaujagibqaznydbi7svxlye5orgvgm3h43skvabtelnkr.py":21:28)
#loc3 = loc("inductor_cache/rc/crcsiopjaujagibqaznydbi7svxlye5orgvgm3h43skvabtelnkr.py":21:33)
#loc4 = loc("inductor_cache/rc/crcsiopjaujagibqaznydbi7svxlye5orgvgm3h43skvabtelnkr.py":22:36)
#loc5 = loc("inductor_cache/rc/crcsiopjaujagibqaznydbi7svxlye5orgvgm3h43skvabtelnkr.py":22:23)
#loc6 = loc("inductor_cache/rc/crcsiopjaujagibqaznydbi7svxlye5orgvgm3h43skvabtelnkr.py":23:21)
#loc7 = loc("inductor_cache/rc/crcsiopjaujagibqaznydbi7svxlye5orgvgm3h43skvabtelnkr.py":25:21)
#loc8 = loc("inductor_cache/rc/crcsiopjaujagibqaznydbi7svxlye5orgvgm3h43skvabtelnkr.py":25:26)
#loc9 = loc("inductor_cache/rc/crcsiopjaujagibqaznydbi7svxlye5orgvgm3h43skvabtelnkr.py":26:19)
#loc10 = loc("inductor_cache/rc/crcsiopjaujagibqaznydbi7svxlye5orgvgm3h43skvabtelnkr.py":27:30)
#loc11 = loc("inductor_cache/rc/crcsiopjaujagibqaznydbi7svxlye5orgvgm3h43skvabtelnkr.py":27:35)
#loc12 = loc("inductor_cache/rc/crcsiopjaujagibqaznydbi7svxlye5orgvgm3h43skvabtelnkr.py":28:30)
#loc13 = loc("inductor_cache/rc/crcsiopjaujagibqaznydbi7svxlye5orgvgm3h43skvabtelnkr.py":28:35)
#loc14 = loc("inductor_cache/rc/crcsiopjaujagibqaznydbi7svxlye5orgvgm3h43skvabtelnkr.py":29:30)
#loc15 = loc("inductor_cache/rc/crcsiopjaujagibqaznydbi7svxlye5orgvgm3h43skvabtelnkr.py":29:35)
#loc16 = loc("inductor_cache/rc/crcsiopjaujagibqaznydbi7svxlye5orgvgm3h43skvabtelnkr.py":30:31)
#loc17 = loc("inductor_cache/rc/crcsiopjaujagibqaznydbi7svxlye5orgvgm3h43skvabtelnkr.py":30:36)
#loc18 = loc("inductor_cache/rc/crcsiopjaujagibqaznydbi7svxlye5orgvgm3h43skvabtelnkr.py":31:31)
#loc19 = loc("inductor_cache/rc/crcsiopjaujagibqaznydbi7svxlye5orgvgm3h43skvabtelnkr.py":31:36)
#loc20 = loc("inductor_cache/rc/crcsiopjaujagibqaznydbi7svxlye5orgvgm3h43skvabtelnkr.py":32:31)
#loc21 = loc("inductor_cache/rc/crcsiopjaujagibqaznydbi7svxlye5orgvgm3h43skvabtelnkr.py":32:36)
#loc22 = loc("inductor_cache/rc/crcsiopjaujagibqaznydbi7svxlye5orgvgm3h43skvabtelnkr.py":33:31)
#loc23 = loc("inductor_cache/rc/crcsiopjaujagibqaznydbi7svxlye5orgvgm3h43skvabtelnkr.py":33:36)
#loc24 = loc("inductor_cache/rc/crcsiopjaujagibqaznydbi7svxlye5orgvgm3h43skvabtelnkr.py":34:18)
#loc25 = loc("inductor_cache/rc/crcsiopjaujagibqaznydbi7svxlye5orgvgm3h43skvabtelnkr.py":36:18)
#loc26 = loc("inductor_cache/rc/crcsiopjaujagibqaznydbi7svxlye5orgvgm3h43skvabtelnkr.py":37:26)
#loc27 = loc("inductor_cache/rc/crcsiopjaujagibqaznydbi7svxlye5orgvgm3h43skvabtelnkr.py":39:18)
#loc28 = loc("inductor_cache/rc/crcsiopjaujagibqaznydbi7svxlye5orgvgm3h43skvabtelnkr.py":42:19)
#loc29 = loc("inductor_cache/rc/crcsiopjaujagibqaznydbi7svxlye5orgvgm3h43skvabtelnkr.py":43:20)
#loc30 = loc("inductor_cache/rc/crcsiopjaujagibqaznydbi7svxlye5orgvgm3h43skvabtelnkr.py":44:20)
#loc31 = loc("inductor_cache/rc/crcsiopjaujagibqaznydbi7svxlye5orgvgm3h43skvabtelnkr.py":45:20)
#loc32 = loc("/home/sahanp/.conda/envs/parity-bench/lib/python3.12/site-packages/torch/_inductor/runtime/triton_helpers.py":118:15)
#loc33 = loc("inductor_cache/rc/crcsiopjaujagibqaznydbi7svxlye5orgvgm3h43skvabtelnkr.py":47:42)
#loc34 = loc("/home/sahanp/.conda/envs/parity-bench/lib/python3.12/site-packages/torch/_inductor/runtime/triton_helpers.py":121:29)
#loc35 = loc("inductor_cache/rc/crcsiopjaujagibqaznydbi7svxlye5orgvgm3h43skvabtelnkr.py":48:20)
#loc36 = loc("inductor_cache/rc/crcsiopjaujagibqaznydbi7svxlye5orgvgm3h43skvabtelnkr.py":49:42)
#loc37 = loc("inductor_cache/rc/crcsiopjaujagibqaznydbi7svxlye5orgvgm3h43skvabtelnkr.py":51:21)
#loc38 = loc("inductor_cache/rc/crcsiopjaujagibqaznydbi7svxlye5orgvgm3h43skvabtelnkr.py":52:25)
#loc39 = loc("inductor_cache/rc/crcsiopjaujagibqaznydbi7svxlye5orgvgm3h43skvabtelnkr.py":52:37)
#loc40 = loc("inductor_cache/rc/crcsiopjaujagibqaznydbi7svxlye5orgvgm3h43skvabtelnkr.py":53:25)
#loc41 = loc("inductor_cache/rc/crcsiopjaujagibqaznydbi7svxlye5orgvgm3h43skvabtelnkr.py":53:37)
#loc42 = loc("inductor_cache/rc/crcsiopjaujagibqaznydbi7svxlye5orgvgm3h43skvabtelnkr.py":54:25)
#loc43 = loc("inductor_cache/rc/crcsiopjaujagibqaznydbi7svxlye5orgvgm3h43skvabtelnkr.py":54:37)
#loc44 = loc("inductor_cache/rc/crcsiopjaujagibqaznydbi7svxlye5orgvgm3h43skvabtelnkr.py":54:4)
#loc45 = loc(callsite(#loc32 at #loc33))
#loc46 = loc(callsite(#loc34 at #loc33))
#loc47 = loc(callsite(#loc32 at #loc36))
#loc48 = loc(callsite(#loc34 at #loc36))
