#loc = loc("inductor_cache/4q/c4qtvokrs653bexsypvb5jzmbiaexl5y67wtb63nfuq3yrhgcjt3.py":19:0)
module {
  tt.func public @triton_poi_fused_cat_16(%arg0: !tt.ptr<f32> {tt.divisibility = 16 : i32} loc("inductor_cache/4q/c4qtvokrs653bexsypvb5jzmbiaexl5y67wtb63nfuq3yrhgcjt3.py":19:0), %arg1: !tt.ptr<f32> {tt.divisibility = 16 : i32} loc("inductor_cache/4q/c4qtvokrs653bexsypvb5jzmbiaexl5y67wtb63nfuq3yrhgcjt3.py":19:0), %arg2: !tt.ptr<f32> {tt.divisibility = 16 : i32} loc("inductor_cache/4q/c4qtvokrs653bexsypvb5jzmbiaexl5y67wtb63nfuq3yrhgcjt3.py":19:0), %arg3: !tt.ptr<f32> {tt.divisibility = 16 : i32} loc("inductor_cache/4q/c4qtvokrs653bexsypvb5jzmbiaexl5y67wtb63nfuq3yrhgcjt3.py":19:0), %arg4: !tt.ptr<f32> {tt.divisibility = 16 : i32} loc("inductor_cache/4q/c4qtvokrs653bexsypvb5jzmbiaexl5y67wtb63nfuq3yrhgcjt3.py":19:0), %arg5: i32 {tt.divisibility = 16 : i32} loc("inductor_cache/4q/c4qtvokrs653bexsypvb5jzmbiaexl5y67wtb63nfuq3yrhgcjt3.py":19:0)) attributes {noinline = false} {
    %cst = arith.constant dense<4096> : tensor<256xi32> loc(#loc1)
    %cst_0 = arith.constant dense<-128> : tensor<256xi32> loc(#loc1)
    %cst_1 = arith.constant dense<192> : tensor<256xi64> loc(#loc1)
    %cst_2 = arith.constant dense<0.000000e+00> : tensor<256xf32> loc(#loc1)
    %cst_3 = arith.constant dense<8192> : tensor<256xi32> loc(#loc1)
    %cst_4 = arith.constant dense<128> : tensor<256xi64> loc(#loc1)
    %cst_5 = arith.constant dense<12352> : tensor<256xi32> loc(#loc1)
    %cst_6 = arith.constant dense<193> : tensor<256xi32> loc(#loc1)
    %cst_7 = arith.constant dense<64> : tensor<256xi32> loc(#loc1)
    %cst_8 = arith.constant dense<49408> : tensor<256xi32> loc(#loc1)
    %c256_i32 = arith.constant 256 : i32 loc(#loc1)
    %0 = tt.get_program_id x : i32 loc(#loc2)
    %1 = arith.muli %0, %c256_i32 : i32 loc(#loc3)
    %2 = tt.make_range {end = 256 : i32, start = 0 : i32} : tensor<256xi32> loc(#loc4)
    %3 = tt.splat %1 : i32 -> tensor<256xi32> loc(#loc5)
    %4 = arith.addi %3, %2 : tensor<256xi32> loc(#loc5)
    %5 = arith.cmpi slt, %4, %cst_8 : tensor<256xi32> loc(#loc6)
    %6 = arith.divsi %4, %cst_7 : tensor<256xi32> loc(#loc7)
    %7 = arith.remsi %6, %cst_6 : tensor<256xi32> loc(#loc8)
    %8 = arith.remsi %4, %cst_7 : tensor<256xi32> loc(#loc9)
    %9 = arith.divsi %4, %cst_5 : tensor<256xi32> loc(#loc10)
    %10 = arith.extsi %7 : tensor<256xi32> to tensor<256xi64> loc(#loc11)
    %11 = arith.cmpi slt, %10, %cst_4 : tensor<256xi64> loc(#loc11)
    %12 = arith.muli %7, %cst_7 : tensor<256xi32> loc(#loc12)
    %13 = arith.addi %8, %12 : tensor<256xi32> loc(#loc13)
    %14 = arith.muli %9, %cst_3 : tensor<256xi32> loc(#loc14)
    %15 = arith.addi %13, %14 : tensor<256xi32> loc(#loc15)
    %16 = tt.splat %arg0 : !tt.ptr<f32> -> tensor<256x!tt.ptr<f32>> loc(#loc16)
    %17 = tt.addptr %16, %15 : tensor<256x!tt.ptr<f32>>, tensor<256xi32> loc(#loc16)
    %18 = arith.andi %11, %5 : tensor<256xi1> loc(#loc17)
    %19 = tt.load %17, %18, %cst_2 : tensor<256x!tt.ptr<f32>> loc(#loc18)
    %20 = arith.cmpi sge, %10, %cst_4 : tensor<256xi64> loc(#loc19)
    %21 = arith.cmpi slt, %10, %cst_1 : tensor<256xi64> loc(#loc20)
    %22 = arith.andi %20, %21 : tensor<256xi1> loc(#loc21)
    %23 = arith.addi %7, %cst_0 : tensor<256xi32> loc(#loc22)
    %24 = arith.muli %23, %cst_7 : tensor<256xi32> loc(#loc23)
    %25 = arith.addi %8, %24 : tensor<256xi32> loc(#loc24)
    %26 = arith.muli %9, %cst : tensor<256xi32> loc(#loc25)
    %27 = arith.addi %25, %26 : tensor<256xi32> loc(#loc26)
    %28 = tt.splat %arg1 : !tt.ptr<f32> -> tensor<256x!tt.ptr<f32>> loc(#loc27)
    %29 = tt.addptr %28, %27 : tensor<256x!tt.ptr<f32>>, tensor<256xi32> loc(#loc27)
    %30 = arith.andi %22, %5 : tensor<256xi1> loc(#loc28)
    %31 = tt.load %29, %30, %cst_2 : tensor<256x!tt.ptr<f32>> loc(#loc29)
    %32 = tt.splat %arg2 : !tt.ptr<f32> -> tensor<256x!tt.ptr<f32>> loc(#loc30)
    %33 = tt.addptr %32, %23 : tensor<256x!tt.ptr<f32>>, tensor<256xi32> loc(#loc30)
    %34 = tt.load %33, %30, %cst_2 evictionPolicy = evict_last : tensor<256x!tt.ptr<f32>> loc(#loc31)
    %35 = arith.addf %31, %34 : tensor<256xf32> loc(#loc32)
    %36 = arith.cmpf ogt, %cst_2, %35 : tensor<256xf32> loc(#loc48)
    %37 = arith.select %36, %cst_2, %35 : tensor<256xi1>, tensor<256xf32> loc(#loc49)
    %38 = arith.cmpi sge, %10, %cst_1 : tensor<256xi64> loc(#loc36)
    %39 = arith.muli %9, %cst_7 : tensor<256xi32> loc(#loc37)
    %40 = arith.addi %8, %39 : tensor<256xi32> loc(#loc38)
    %41 = tt.splat %arg3 : !tt.ptr<f32> -> tensor<256x!tt.ptr<f32>> loc(#loc39)
    %42 = tt.addptr %41, %40 : tensor<256x!tt.ptr<f32>>, tensor<256xi32> loc(#loc39)
    %43 = arith.andi %38, %5 : tensor<256xi1> loc(#loc40)
    %44 = tt.load %42, %43, %cst_2 evictionPolicy = evict_last : tensor<256x!tt.ptr<f32>> loc(#loc41)
    %45 = arith.select %22, %37, %44 : tensor<256xi1>, tensor<256xf32> loc(#loc50)
    %46 = arith.select %11, %19, %45 : tensor<256xi1>, tensor<256xf32> loc(#loc44)
    %47 = tt.splat %arg4 : !tt.ptr<f32> -> tensor<256x!tt.ptr<f32>> loc(#loc45)
    %48 = tt.addptr %47, %4 : tensor<256x!tt.ptr<f32>>, tensor<256xi32> loc(#loc45)
    tt.store %48, %46, %5 : tensor<256x!tt.ptr<f32>> loc(#loc46)
    tt.return loc(#loc47)
  } loc(#loc)
} loc(#loc)
#loc1 = loc(unknown)
#loc2 = loc("inductor_cache/4q/c4qtvokrs653bexsypvb5jzmbiaexl5y67wtb63nfuq3yrhgcjt3.py":21:28)
#loc3 = loc("inductor_cache/4q/c4qtvokrs653bexsypvb5jzmbiaexl5y67wtb63nfuq3yrhgcjt3.py":21:33)
#loc4 = loc("inductor_cache/4q/c4qtvokrs653bexsypvb5jzmbiaexl5y67wtb63nfuq3yrhgcjt3.py":22:36)
#loc5 = loc("inductor_cache/4q/c4qtvokrs653bexsypvb5jzmbiaexl5y67wtb63nfuq3yrhgcjt3.py":22:23)
#loc6 = loc("inductor_cache/4q/c4qtvokrs653bexsypvb5jzmbiaexl5y67wtb63nfuq3yrhgcjt3.py":23:21)
#loc7 = loc("inductor_cache/4q/c4qtvokrs653bexsypvb5jzmbiaexl5y67wtb63nfuq3yrhgcjt3.py":24:21)
#loc8 = loc("inductor_cache/4q/c4qtvokrs653bexsypvb5jzmbiaexl5y67wtb63nfuq3yrhgcjt3.py":24:27)
#loc9 = loc("inductor_cache/4q/c4qtvokrs653bexsypvb5jzmbiaexl5y67wtb63nfuq3yrhgcjt3.py":25:19)
#loc10 = loc("inductor_cache/4q/c4qtvokrs653bexsypvb5jzmbiaexl5y67wtb63nfuq3yrhgcjt3.py":26:19)
#loc11 = loc("inductor_cache/4q/c4qtvokrs653bexsypvb5jzmbiaexl5y67wtb63nfuq3yrhgcjt3.py":32:18)
#loc12 = loc("inductor_cache/4q/c4qtvokrs653bexsypvb5jzmbiaexl5y67wtb63nfuq3yrhgcjt3.py":33:39)
#loc13 = loc("inductor_cache/4q/c4qtvokrs653bexsypvb5jzmbiaexl5y67wtb63nfuq3yrhgcjt3.py":33:35)
#loc14 = loc("inductor_cache/4q/c4qtvokrs653bexsypvb5jzmbiaexl5y67wtb63nfuq3yrhgcjt3.py":33:50)
#loc15 = loc("inductor_cache/4q/c4qtvokrs653bexsypvb5jzmbiaexl5y67wtb63nfuq3yrhgcjt3.py":33:45)
#loc16 = loc("inductor_cache/4q/c4qtvokrs653bexsypvb5jzmbiaexl5y67wtb63nfuq3yrhgcjt3.py":33:30)
#loc17 = loc("inductor_cache/4q/c4qtvokrs653bexsypvb5jzmbiaexl5y67wtb63nfuq3yrhgcjt3.py":33:62)
#loc18 = loc("inductor_cache/4q/c4qtvokrs653bexsypvb5jzmbiaexl5y67wtb63nfuq3yrhgcjt3.py":33:55)
#loc19 = loc("inductor_cache/4q/c4qtvokrs653bexsypvb5jzmbiaexl5y67wtb63nfuq3yrhgcjt3.py":34:19)
#loc20 = loc("inductor_cache/4q/c4qtvokrs653bexsypvb5jzmbiaexl5y67wtb63nfuq3yrhgcjt3.py":36:18)
#loc21 = loc("inductor_cache/4q/c4qtvokrs653bexsypvb5jzmbiaexl5y67wtb63nfuq3yrhgcjt3.py":37:18)
#loc22 = loc("inductor_cache/4q/c4qtvokrs653bexsypvb5jzmbiaexl5y67wtb63nfuq3yrhgcjt3.py":38:49)
#loc23 = loc("inductor_cache/4q/c4qtvokrs653bexsypvb5jzmbiaexl5y67wtb63nfuq3yrhgcjt3.py":38:40)
#loc24 = loc("inductor_cache/4q/c4qtvokrs653bexsypvb5jzmbiaexl5y67wtb63nfuq3yrhgcjt3.py":38:36)
#loc25 = loc("inductor_cache/4q/c4qtvokrs653bexsypvb5jzmbiaexl5y67wtb63nfuq3yrhgcjt3.py":38:60)
#loc26 = loc("inductor_cache/4q/c4qtvokrs653bexsypvb5jzmbiaexl5y67wtb63nfuq3yrhgcjt3.py":38:55)
#loc27 = loc("inductor_cache/4q/c4qtvokrs653bexsypvb5jzmbiaexl5y67wtb63nfuq3yrhgcjt3.py":38:31)
#loc28 = loc("inductor_cache/4q/c4qtvokrs653bexsypvb5jzmbiaexl5y67wtb63nfuq3yrhgcjt3.py":38:72)
#loc29 = loc("inductor_cache/4q/c4qtvokrs653bexsypvb5jzmbiaexl5y67wtb63nfuq3yrhgcjt3.py":38:65)
#loc30 = loc("inductor_cache/4q/c4qtvokrs653bexsypvb5jzmbiaexl5y67wtb63nfuq3yrhgcjt3.py":39:31)
#loc31 = loc("inductor_cache/4q/c4qtvokrs653bexsypvb5jzmbiaexl5y67wtb63nfuq3yrhgcjt3.py":39:45)
#loc32 = loc("inductor_cache/4q/c4qtvokrs653bexsypvb5jzmbiaexl5y67wtb63nfuq3yrhgcjt3.py":40:20)
#loc33 = loc("/home/sahanp/.conda/envs/parity-bench/lib/python3.12/site-packages/torch/_inductor/runtime/triton_helpers.py":118:15)
#loc34 = loc("inductor_cache/4q/c4qtvokrs653bexsypvb5jzmbiaexl5y67wtb63nfuq3yrhgcjt3.py":42:42)
#loc35 = loc("/home/sahanp/.conda/envs/parity-bench/lib/python3.12/site-packages/torch/_inductor/runtime/triton_helpers.py":121:29)
#loc36 = loc("inductor_cache/4q/c4qtvokrs653bexsypvb5jzmbiaexl5y67wtb63nfuq3yrhgcjt3.py":45:20)
#loc37 = loc("inductor_cache/4q/c4qtvokrs653bexsypvb5jzmbiaexl5y67wtb63nfuq3yrhgcjt3.py":48:39)
#loc38 = loc("inductor_cache/4q/c4qtvokrs653bexsypvb5jzmbiaexl5y67wtb63nfuq3yrhgcjt3.py":48:36)
#loc39 = loc("inductor_cache/4q/c4qtvokrs653bexsypvb5jzmbiaexl5y67wtb63nfuq3yrhgcjt3.py":48:31)
#loc40 = loc("inductor_cache/4q/c4qtvokrs653bexsypvb5jzmbiaexl5y67wtb63nfuq3yrhgcjt3.py":48:52)
#loc41 = loc("inductor_cache/4q/c4qtvokrs653bexsypvb5jzmbiaexl5y67wtb63nfuq3yrhgcjt3.py":48:44)
#loc42 = loc("inductor_cache/4q/c4qtvokrs653bexsypvb5jzmbiaexl5y67wtb63nfuq3yrhgcjt3.py":49:34)
#loc43 = loc("inductor_cache/4q/c4qtvokrs653bexsypvb5jzmbiaexl5y67wtb63nfuq3yrhgcjt3.py":44:34)
#loc44 = loc("inductor_cache/4q/c4qtvokrs653bexsypvb5jzmbiaexl5y67wtb63nfuq3yrhgcjt3.py":50:33)
#loc45 = loc("inductor_cache/4q/c4qtvokrs653bexsypvb5jzmbiaexl5y67wtb63nfuq3yrhgcjt3.py":51:25)
#loc46 = loc("inductor_cache/4q/c4qtvokrs653bexsypvb5jzmbiaexl5y67wtb63nfuq3yrhgcjt3.py":51:37)
#loc47 = loc("inductor_cache/4q/c4qtvokrs653bexsypvb5jzmbiaexl5y67wtb63nfuq3yrhgcjt3.py":51:4)
#loc48 = loc(callsite(#loc33 at #loc34))
#loc49 = loc(callsite(#loc35 at #loc34))
#loc50 = loc(fused[#loc42, #loc43])
