#loc = loc("inductor_cache/zd/czdg2sz7rsfyewx7mmnvmmqdkumuy3ikn2tpzouub44uwjv2mtrq.py":19:0)
module {
  tt.func public @triton_poi_fused_add_mul_0(%arg0: !tt.ptr<f32> {tt.divisibility = 16 : i32} loc("inductor_cache/zd/czdg2sz7rsfyewx7mmnvmmqdkumuy3ikn2tpzouub44uwjv2mtrq.py":19:0), %arg1: !tt.ptr<f32> {tt.divisibility = 16 : i32} loc("inductor_cache/zd/czdg2sz7rsfyewx7mmnvmmqdkumuy3ikn2tpzouub44uwjv2mtrq.py":19:0), %arg2: !tt.ptr<f32> {tt.divisibility = 16 : i32} loc("inductor_cache/zd/czdg2sz7rsfyewx7mmnvmmqdkumuy3ikn2tpzouub44uwjv2mtrq.py":19:0), %arg3: !tt.ptr<f32> {tt.divisibility = 16 : i32} loc("inductor_cache/zd/czdg2sz7rsfyewx7mmnvmmqdkumuy3ikn2tpzouub44uwjv2mtrq.py":19:0), %arg4: i32 {tt.divisibility = 16 : i32} loc("inductor_cache/zd/czdg2sz7rsfyewx7mmnvmmqdkumuy3ikn2tpzouub44uwjv2mtrq.py":19:0)) attributes {noinline = false} {
    %cst = arith.constant dense<4> : tensor<256xi32> loc(#loc1)
    %cst_0 = arith.constant dense<16> : tensor<256xi32> loc(#loc1)
    %cst_1 = arith.constant dense<256> : tensor<256xi32> loc(#loc1)
    %c256_i32 = arith.constant 256 : i32 loc(#loc1)
    %0 = tt.get_program_id x : i32 loc(#loc2)
    %1 = arith.muli %0, %c256_i32 : i32 loc(#loc3)
    %2 = tt.make_range {end = 256 : i32, start = 0 : i32} : tensor<256xi32> loc(#loc4)
    %3 = tt.splat %1 : i32 -> tensor<256xi32> loc(#loc5)
    %4 = arith.addi %3, %2 : tensor<256xi32> loc(#loc5)
    %5 = arith.cmpi slt, %4, %cst_1 : tensor<256xi32> loc(#loc6)
    %6 = arith.remsi %4, %cst_0 : tensor<256xi32> loc(#loc7)
    %7 = arith.divsi %4, %cst_0 : tensor<256xi32> loc(#loc8)
    %8 = arith.remsi %7, %cst : tensor<256xi32> loc(#loc9)
    %9 = tt.splat %arg0 : !tt.ptr<f32> -> tensor<256x!tt.ptr<f32>> loc(#loc10)
    %10 = tt.addptr %9, %4 : tensor<256x!tt.ptr<f32>>, tensor<256xi32> loc(#loc10)
    %11 = tt.load %10, %5 : tensor<256x!tt.ptr<f32>> loc(#loc11)
    %12 = tt.splat %arg1 : !tt.ptr<f32> -> tensor<256x!tt.ptr<f32>> loc(#loc12)
    %13 = tt.addptr %12, %6 : tensor<256x!tt.ptr<f32>>, tensor<256xi32> loc(#loc12)
    %14 = tt.load %13, %5 evictionPolicy = evict_last : tensor<256x!tt.ptr<f32>> loc(#loc13)
    %15 = tt.splat %arg2 : !tt.ptr<f32> -> tensor<256x!tt.ptr<f32>> loc(#loc14)
    %16 = tt.addptr %15, %8 : tensor<256x!tt.ptr<f32>>, tensor<256xi32> loc(#loc14)
    %17 = tt.load %16, %5 evictionPolicy = evict_last : tensor<256x!tt.ptr<f32>> loc(#loc15)
    %18 = arith.mulf %14, %17 : tensor<256xf32> loc(#loc16)
    %19 = arith.addf %11, %18 : tensor<256xf32> loc(#loc17)
    %20 = tt.splat %arg3 : !tt.ptr<f32> -> tensor<256x!tt.ptr<f32>> loc(#loc18)
    %21 = tt.addptr %20, %4 : tensor<256x!tt.ptr<f32>>, tensor<256xi32> loc(#loc18)
    tt.store %21, %19, %5 : tensor<256x!tt.ptr<f32>> loc(#loc19)
    tt.return loc(#loc20)
  } loc(#loc)
} loc(#loc)
#loc1 = loc(unknown)
#loc2 = loc("inductor_cache/zd/czdg2sz7rsfyewx7mmnvmmqdkumuy3ikn2tpzouub44uwjv2mtrq.py":21:28)
#loc3 = loc("inductor_cache/zd/czdg2sz7rsfyewx7mmnvmmqdkumuy3ikn2tpzouub44uwjv2mtrq.py":21:33)
#loc4 = loc("inductor_cache/zd/czdg2sz7rsfyewx7mmnvmmqdkumuy3ikn2tpzouub44uwjv2mtrq.py":22:36)
#loc5 = loc("inductor_cache/zd/czdg2sz7rsfyewx7mmnvmmqdkumuy3ikn2tpzouub44uwjv2mtrq.py":22:23)
#loc6 = loc("inductor_cache/zd/czdg2sz7rsfyewx7mmnvmmqdkumuy3ikn2tpzouub44uwjv2mtrq.py":23:21)
#loc7 = loc("inductor_cache/zd/czdg2sz7rsfyewx7mmnvmmqdkumuy3ikn2tpzouub44uwjv2mtrq.py":25:19)
#loc8 = loc("inductor_cache/zd/czdg2sz7rsfyewx7mmnvmmqdkumuy3ikn2tpzouub44uwjv2mtrq.py":26:21)
#loc9 = loc("inductor_cache/zd/czdg2sz7rsfyewx7mmnvmmqdkumuy3ikn2tpzouub44uwjv2mtrq.py":26:27)
#loc10 = loc("inductor_cache/zd/czdg2sz7rsfyewx7mmnvmmqdkumuy3ikn2tpzouub44uwjv2mtrq.py":27:30)
#loc11 = loc("inductor_cache/zd/czdg2sz7rsfyewx7mmnvmmqdkumuy3ikn2tpzouub44uwjv2mtrq.py":27:35)
#loc12 = loc("inductor_cache/zd/czdg2sz7rsfyewx7mmnvmmqdkumuy3ikn2tpzouub44uwjv2mtrq.py":28:30)
#loc13 = loc("inductor_cache/zd/czdg2sz7rsfyewx7mmnvmmqdkumuy3ikn2tpzouub44uwjv2mtrq.py":28:35)
#loc14 = loc("inductor_cache/zd/czdg2sz7rsfyewx7mmnvmmqdkumuy3ikn2tpzouub44uwjv2mtrq.py":29:30)
#loc15 = loc("inductor_cache/zd/czdg2sz7rsfyewx7mmnvmmqdkumuy3ikn2tpzouub44uwjv2mtrq.py":29:35)
#loc16 = loc("inductor_cache/zd/czdg2sz7rsfyewx7mmnvmmqdkumuy3ikn2tpzouub44uwjv2mtrq.py":30:18)
#loc17 = loc("inductor_cache/zd/czdg2sz7rsfyewx7mmnvmmqdkumuy3ikn2tpzouub44uwjv2mtrq.py":31:18)
#loc18 = loc("inductor_cache/zd/czdg2sz7rsfyewx7mmnvmmqdkumuy3ikn2tpzouub44uwjv2mtrq.py":32:25)
#loc19 = loc("inductor_cache/zd/czdg2sz7rsfyewx7mmnvmmqdkumuy3ikn2tpzouub44uwjv2mtrq.py":32:36)
#loc20 = loc("inductor_cache/zd/czdg2sz7rsfyewx7mmnvmmqdkumuy3ikn2tpzouub44uwjv2mtrq.py":32:4)
