#loc = loc("inductor_cache/ih/cihyl26ygfqq2knie4rbrf22pmeovljxz56ojhk3ulsxvita7vug.py":19:0)
module {
  tt.func public @triton_poi_fused_leaky_relu_leaky_relu_backward_0(%arg0: !tt.ptr<f32> {tt.divisibility = 16 : i32} loc("inductor_cache/ih/cihyl26ygfqq2knie4rbrf22pmeovljxz56ojhk3ulsxvita7vug.py":19:0), %arg1: !tt.ptr<i1> {tt.divisibility = 16 : i32} loc("inductor_cache/ih/cihyl26ygfqq2knie4rbrf22pmeovljxz56ojhk3ulsxvita7vug.py":19:0), %arg2: i32 {tt.divisibility = 16 : i32} loc("inductor_cache/ih/cihyl26ygfqq2knie4rbrf22pmeovljxz56ojhk3ulsxvita7vug.py":19:0)) attributes {noinline = false} {
    %cst = arith.constant dense<1.000000e-01> : tensor<128xf32> loc(#loc1)
    %cst_0 = arith.constant dense<0.000000e+00> : tensor<128xf32> loc(#loc1)
    %cst_1 = arith.constant dense<256> : tensor<128xi32> loc(#loc1)
    %c128_i32 = arith.constant 128 : i32 loc(#loc1)
    %0 = tt.get_program_id x : i32 loc(#loc2)
    %1 = arith.muli %0, %c128_i32 : i32 loc(#loc3)
    %2 = tt.make_range {end = 128 : i32, start = 0 : i32} : tensor<128xi32> loc(#loc4)
    %3 = tt.splat %1 : i32 -> tensor<128xi32> loc(#loc5)
    %4 = arith.addi %3, %2 : tensor<128xi32> loc(#loc5)
    %5 = arith.cmpi slt, %4, %cst_1 : tensor<128xi32> loc(#loc6)
    %6 = tt.splat %arg0 : !tt.ptr<f32> -> tensor<128x!tt.ptr<f32>> loc(#loc7)
    %7 = tt.addptr %6, %4 : tensor<128x!tt.ptr<f32>>, tensor<128xi32> loc(#loc7)
    %8 = tt.load %7, %5 : tensor<128x!tt.ptr<f32>> loc(#loc8)
    %9 = arith.cmpf ogt, %8, %cst_0 : tensor<128xf32> loc(#loc9)
    %10 = arith.mulf %8, %cst : tensor<128xf32> loc(#loc10)
    %11 = arith.select %9, %8, %10 : tensor<128xi1>, tensor<128xf32> loc(#loc11)
    %12 = arith.cmpf ogt, %11, %cst_0 : tensor<128xf32> loc(#loc12)
    tt.store %7, %11, %5 : tensor<128x!tt.ptr<f32>> loc(#loc13)
    %13 = tt.splat %arg1 : !tt.ptr<i1> -> tensor<128x!tt.ptr<i1>> loc(#loc14)
    %14 = tt.addptr %13, %4 : tensor<128x!tt.ptr<i1>>, tensor<128xi32> loc(#loc14)
    %15 = tt.bitcast %14 : tensor<128x!tt.ptr<i1>> -> tensor<128x!tt.ptr<i8>> loc(#loc15)
    %16 = arith.extui %12 : tensor<128xi1> to tensor<128xi8> loc(#loc15)
    tt.store %15, %16, %5 : tensor<128x!tt.ptr<i8>> loc(#loc15)
    tt.return loc(#loc16)
  } loc(#loc)
} loc(#loc)
#loc1 = loc(unknown)
#loc2 = loc("inductor_cache/ih/cihyl26ygfqq2knie4rbrf22pmeovljxz56ojhk3ulsxvita7vug.py":21:28)
#loc3 = loc("inductor_cache/ih/cihyl26ygfqq2knie4rbrf22pmeovljxz56ojhk3ulsxvita7vug.py":21:33)
#loc4 = loc("inductor_cache/ih/cihyl26ygfqq2knie4rbrf22pmeovljxz56ojhk3ulsxvita7vug.py":22:36)
#loc5 = loc("inductor_cache/ih/cihyl26ygfqq2knie4rbrf22pmeovljxz56ojhk3ulsxvita7vug.py":22:23)
#loc6 = loc("inductor_cache/ih/cihyl26ygfqq2knie4rbrf22pmeovljxz56ojhk3ulsxvita7vug.py":23:21)
#loc7 = loc("inductor_cache/ih/cihyl26ygfqq2knie4rbrf22pmeovljxz56ojhk3ulsxvita7vug.py":25:34)
#loc8 = loc("inductor_cache/ih/cihyl26ygfqq2knie4rbrf22pmeovljxz56ojhk3ulsxvita7vug.py":25:39)
#loc9 = loc("inductor_cache/ih/cihyl26ygfqq2knie4rbrf22pmeovljxz56ojhk3ulsxvita7vug.py":27:18)
#loc10 = loc("inductor_cache/ih/cihyl26ygfqq2knie4rbrf22pmeovljxz56ojhk3ulsxvita7vug.py":29:18)
#loc11 = loc("inductor_cache/ih/cihyl26ygfqq2knie4rbrf22pmeovljxz56ojhk3ulsxvita7vug.py":30:32)
#loc12 = loc("inductor_cache/ih/cihyl26ygfqq2knie4rbrf22pmeovljxz56ojhk3ulsxvita7vug.py":31:18)
#loc13 = loc("inductor_cache/ih/cihyl26ygfqq2knie4rbrf22pmeovljxz56ojhk3ulsxvita7vug.py":32:39)
#loc14 = loc("inductor_cache/ih/cihyl26ygfqq2knie4rbrf22pmeovljxz56ojhk3ulsxvita7vug.py":33:25)
#loc15 = loc("inductor_cache/ih/cihyl26ygfqq2knie4rbrf22pmeovljxz56ojhk3ulsxvita7vug.py":33:36)
#loc16 = loc("inductor_cache/ih/cihyl26ygfqq2knie4rbrf22pmeovljxz56ojhk3ulsxvita7vug.py":33:4)
