#loc = loc("inductor_cache/wp/cwpkyu3mud5j5g4s5jxcmq5n2wt6qnbeztdoozpnzpwpogwfysll.py":19:0)
module {
  tt.func public @triton_poi_fused_copy_mul_zeros_0(%arg0: !tt.ptr<f32> {tt.divisibility = 16 : i32} loc("inductor_cache/wp/cwpkyu3mud5j5g4s5jxcmq5n2wt6qnbeztdoozpnzpwpogwfysll.py":19:0), %arg1: !tt.ptr<f32> {tt.divisibility = 16 : i32} loc("inductor_cache/wp/cwpkyu3mud5j5g4s5jxcmq5n2wt6qnbeztdoozpnzpwpogwfysll.py":19:0), %arg2: i32 {tt.divisibility = 16 : i32} loc("inductor_cache/wp/cwpkyu3mud5j5g4s5jxcmq5n2wt6qnbeztdoozpnzpwpogwfysll.py":19:0)) attributes {noinline = false} {
    %cst = arith.constant dense<0.000000e+00> : tensor<32xf32> loc(#loc1)
    %cst_0 = arith.constant dense<0> : tensor<32xi32> loc(#loc1)
    %cst_1 = arith.constant dense<-5.000000e-01> : tensor<32xf32> loc(#loc1)
    %cst_2 = arith.constant dense<5.000000e-01> : tensor<32xf32> loc(#loc1)
    %cst_3 = arith.constant dense<1> : tensor<32xi32> loc(#loc1)
    %cst_4 = arith.constant dense<3> : tensor<32xi32> loc(#loc1)
    %cst_5 = arith.constant dense<8> : tensor<32xi32> loc(#loc1)
    %cst_6 = arith.constant dense<2> : tensor<32xi32> loc(#loc1)
    %cst_7 = arith.constant dense<4> : tensor<32xi32> loc(#loc1)
    %cst_8 = arith.constant dense<32> : tensor<32xi32> loc(#loc1)
    %c32_i32 = arith.constant 32 : i32 loc(#loc1)
    %0 = tt.get_program_id x : i32 loc(#loc2)
    %1 = arith.muli %0, %c32_i32 : i32 loc(#loc3)
    %2 = tt.make_range {end = 32 : i32, start = 0 : i32} : tensor<32xi32> loc(#loc4)
    %3 = tt.splat %1 : i32 -> tensor<32xi32> loc(#loc5)
    %4 = arith.addi %3, %2 : tensor<32xi32> loc(#loc5)
    %5 = arith.cmpi slt, %4, %cst_8 : tensor<32xi32> loc(#loc6)
    %6 = arith.divsi %4, %cst_7 : tensor<32xi32> loc(#loc7)
    %7 = arith.remsi %6, %cst_6 : tensor<32xi32> loc(#loc8)
    %8 = arith.remsi %4, %cst_7 : tensor<32xi32> loc(#loc9)
    %9 = arith.divsi %4, %cst_5 : tensor<32xi32> loc(#loc10)
    %10 = arith.muli %9, %cst_7 : tensor<32xi32> loc(#loc11)
    %11 = arith.addi %10, %cst_4 : tensor<32xi32> loc(#loc12)
    %12 = tt.splat %arg0 : !tt.ptr<f32> -> tensor<32x!tt.ptr<f32>> loc(#loc13)
    %13 = tt.addptr %12, %11 : tensor<32x!tt.ptr<f32>>, tensor<32xi32> loc(#loc13)
    %14 = tt.load %13, %5 evictionPolicy = evict_last : tensor<32x!tt.ptr<f32>> loc(#loc14)
    %15 = arith.addi %10, %cst_6 : tensor<32xi32> loc(#loc15)
    %16 = tt.addptr %12, %15 : tensor<32x!tt.ptr<f32>>, tensor<32xi32> loc(#loc16)
    %17 = tt.load %16, %5 evictionPolicy = evict_last : tensor<32x!tt.ptr<f32>> loc(#loc17)
    %18 = arith.cmpi eq, %7, %cst_3 : tensor<32xi32> loc(#loc18)
    %19 = arith.cmpi eq, %8, %cst_3 : tensor<32xi32> loc(#loc19)
    %20 = arith.mulf %14, %cst_2 : tensor<32xf32> loc(#loc20)
    %21 = arith.mulf %17, %cst_1 : tensor<32xf32> loc(#loc21)
    %22 = arith.cmpi eq, %8, %cst_0 : tensor<32xi32> loc(#loc22)
    %23 = arith.mulf %14, %cst_1 : tensor<32xf32> loc(#loc23)
    %24 = arith.select %22, %21, %cst : tensor<32xi1>, tensor<32xf32> loc(#loc24)
    %25 = arith.select %22, %23, %cst : tensor<32xi1>, tensor<32xf32> loc(#loc25)
    %26 = arith.select %19, %21, %24 : tensor<32xi1>, tensor<32xf32> loc(#loc26)
    %27 = arith.select %19, %20, %25 : tensor<32xi1>, tensor<32xf32> loc(#loc27)
    %28 = arith.cmpi eq, %7, %cst_0 : tensor<32xi32> loc(#loc28)
    %29 = arith.select %28, %24, %cst : tensor<32xi1>, tensor<32xf32> loc(#loc29)
    %30 = arith.select %18, %25, %29 : tensor<32xi1>, tensor<32xf32> loc(#loc30)
    %31 = arith.select %28, %26, %30 : tensor<32xi1>, tensor<32xf32> loc(#loc31)
    %32 = arith.select %18, %27, %31 : tensor<32xi1>, tensor<32xf32> loc(#loc32)
    %33 = tt.splat %arg1 : !tt.ptr<f32> -> tensor<32x!tt.ptr<f32>> loc(#loc33)
    %34 = tt.addptr %33, %4 : tensor<32x!tt.ptr<f32>>, tensor<32xi32> loc(#loc33)
    tt.store %34, %32, %5 : tensor<32x!tt.ptr<f32>> loc(#loc34)
    tt.return loc(#loc35)
  } loc(#loc)
} loc(#loc)
#loc1 = loc(unknown)
#loc2 = loc("inductor_cache/wp/cwpkyu3mud5j5g4s5jxcmq5n2wt6qnbeztdoozpnzpwpogwfysll.py":21:28)
#loc3 = loc("inductor_cache/wp/cwpkyu3mud5j5g4s5jxcmq5n2wt6qnbeztdoozpnzpwpogwfysll.py":21:33)
#loc4 = loc("inductor_cache/wp/cwpkyu3mud5j5g4s5jxcmq5n2wt6qnbeztdoozpnzpwpogwfysll.py":22:36)
#loc5 = loc("inductor_cache/wp/cwpkyu3mud5j5g4s5jxcmq5n2wt6qnbeztdoozpnzpwpogwfysll.py":22:23)
#loc6 = loc("inductor_cache/wp/cwpkyu3mud5j5g4s5jxcmq5n2wt6qnbeztdoozpnzpwpogwfysll.py":23:21)
#loc7 = loc("inductor_cache/wp/cwpkyu3mud5j5g4s5jxcmq5n2wt6qnbeztdoozpnzpwpogwfysll.py":24:21)
#loc8 = loc("inductor_cache/wp/cwpkyu3mud5j5g4s5jxcmq5n2wt6qnbeztdoozpnzpwpogwfysll.py":24:26)
#loc9 = loc("inductor_cache/wp/cwpkyu3mud5j5g4s5jxcmq5n2wt6qnbeztdoozpnzpwpogwfysll.py":25:19)
#loc10 = loc("inductor_cache/wp/cwpkyu3mud5j5g4s5jxcmq5n2wt6qnbeztdoozpnzpwpogwfysll.py":26:19)
#loc11 = loc("inductor_cache/wp/cwpkyu3mud5j5g4s5jxcmq5n2wt6qnbeztdoozpnzpwpogwfysll.py":28:36)
#loc12 = loc("inductor_cache/wp/cwpkyu3mud5j5g4s5jxcmq5n2wt6qnbeztdoozpnzpwpogwfysll.py":28:34)
#loc13 = loc("inductor_cache/wp/cwpkyu3mud5j5g4s5jxcmq5n2wt6qnbeztdoozpnzpwpogwfysll.py":28:30)
#loc14 = loc("inductor_cache/wp/cwpkyu3mud5j5g4s5jxcmq5n2wt6qnbeztdoozpnzpwpogwfysll.py":28:41)
#loc15 = loc("inductor_cache/wp/cwpkyu3mud5j5g4s5jxcmq5n2wt6qnbeztdoozpnzpwpogwfysll.py":29:35)
#loc16 = loc("inductor_cache/wp/cwpkyu3mud5j5g4s5jxcmq5n2wt6qnbeztdoozpnzpwpogwfysll.py":29:31)
#loc17 = loc("inductor_cache/wp/cwpkyu3mud5j5g4s5jxcmq5n2wt6qnbeztdoozpnzpwpogwfysll.py":29:42)
#loc18 = loc("inductor_cache/wp/cwpkyu3mud5j5g4s5jxcmq5n2wt6qnbeztdoozpnzpwpogwfysll.py":32:19)
#loc19 = loc("inductor_cache/wp/cwpkyu3mud5j5g4s5jxcmq5n2wt6qnbeztdoozpnzpwpogwfysll.py":34:19)
#loc20 = loc("inductor_cache/wp/cwpkyu3mud5j5g4s5jxcmq5n2wt6qnbeztdoozpnzpwpogwfysll.py":36:18)
#loc21 = loc("inductor_cache/wp/cwpkyu3mud5j5g4s5jxcmq5n2wt6qnbeztdoozpnzpwpogwfysll.py":40:20)
#loc22 = loc("inductor_cache/wp/cwpkyu3mud5j5g4s5jxcmq5n2wt6qnbeztdoozpnzpwpogwfysll.py":42:20)
#loc23 = loc("inductor_cache/wp/cwpkyu3mud5j5g4s5jxcmq5n2wt6qnbeztdoozpnzpwpogwfysll.py":43:19)
#loc24 = loc("inductor_cache/wp/cwpkyu3mud5j5g4s5jxcmq5n2wt6qnbeztdoozpnzpwpogwfysll.py":45:35)
#loc25 = loc("inductor_cache/wp/cwpkyu3mud5j5g4s5jxcmq5n2wt6qnbeztdoozpnzpwpogwfysll.py":47:35)
#loc26 = loc("inductor_cache/wp/cwpkyu3mud5j5g4s5jxcmq5n2wt6qnbeztdoozpnzpwpogwfysll.py":51:34)
#loc27 = loc("inductor_cache/wp/cwpkyu3mud5j5g4s5jxcmq5n2wt6qnbeztdoozpnzpwpogwfysll.py":55:33)
#loc28 = loc("inductor_cache/wp/cwpkyu3mud5j5g4s5jxcmq5n2wt6qnbeztdoozpnzpwpogwfysll.py":56:20)
#loc29 = loc("inductor_cache/wp/cwpkyu3mud5j5g4s5jxcmq5n2wt6qnbeztdoozpnzpwpogwfysll.py":57:35)
#loc30 = loc("inductor_cache/wp/cwpkyu3mud5j5g4s5jxcmq5n2wt6qnbeztdoozpnzpwpogwfysll.py":58:34)
#loc31 = loc("inductor_cache/wp/cwpkyu3mud5j5g4s5jxcmq5n2wt6qnbeztdoozpnzpwpogwfysll.py":59:35)
#loc32 = loc("inductor_cache/wp/cwpkyu3mud5j5g4s5jxcmq5n2wt6qnbeztdoozpnzpwpogwfysll.py":60:34)
#loc33 = loc("inductor_cache/wp/cwpkyu3mud5j5g4s5jxcmq5n2wt6qnbeztdoozpnzpwpogwfysll.py":61:25)
#loc34 = loc("inductor_cache/wp/cwpkyu3mud5j5g4s5jxcmq5n2wt6qnbeztdoozpnzpwpogwfysll.py":61:37)
#loc35 = loc("inductor_cache/wp/cwpkyu3mud5j5g4s5jxcmq5n2wt6qnbeztdoozpnzpwpogwfysll.py":61:4)
