#loc = loc("inductor_cache/uj/cujpt5p2unrnzksmzwdpuqzrjntuw2gqobdkigsjd35p642eohyp.py":19:0)
module {
  tt.func public @triton_poi_fused_cat_16(%arg0: !tt.ptr<f32> {tt.divisibility = 16 : i32} loc("inductor_cache/uj/cujpt5p2unrnzksmzwdpuqzrjntuw2gqobdkigsjd35p642eohyp.py":19:0), %arg1: !tt.ptr<f32> {tt.divisibility = 16 : i32} loc("inductor_cache/uj/cujpt5p2unrnzksmzwdpuqzrjntuw2gqobdkigsjd35p642eohyp.py":19:0), %arg2: !tt.ptr<f32> {tt.divisibility = 16 : i32} loc("inductor_cache/uj/cujpt5p2unrnzksmzwdpuqzrjntuw2gqobdkigsjd35p642eohyp.py":19:0), %arg3: !tt.ptr<f32> {tt.divisibility = 16 : i32} loc("inductor_cache/uj/cujpt5p2unrnzksmzwdpuqzrjntuw2gqobdkigsjd35p642eohyp.py":19:0), %arg4: i32 {tt.divisibility = 16 : i32} loc("inductor_cache/uj/cujpt5p2unrnzksmzwdpuqzrjntuw2gqobdkigsjd35p642eohyp.py":19:0)) attributes {noinline = false} {
    %cst = arith.constant dense<-96> : tensor<256xi32> loc(#loc1)
    %cst_0 = arith.constant dense<-64> : tensor<256xi32> loc(#loc1)
    %cst_1 = arith.constant dense<96> : tensor<256xi64> loc(#loc1)
    %cst_2 = arith.constant dense<0xFF800000> : tensor<256xf32> loc(#loc1)
    %cst_3 = arith.constant dense<-32> : tensor<256xi32> loc(#loc1)
    %cst_4 = arith.constant dense<64> : tensor<256xi64> loc(#loc1)
    %cst_5 = arith.constant dense<0.000000e+00> : tensor<256xf32> loc(#loc1)
    %cst_6 = arith.constant dense<32> : tensor<256xi32> loc(#loc1)
    %cst_7 = arith.constant dense<32> : tensor<256xi64> loc(#loc1)
    %cst_8 = arith.constant dense<128> : tensor<256xi32> loc(#loc1)
    %cst_9 = arith.constant dense<512> : tensor<256xi32> loc(#loc1)
    %c256_i32 = arith.constant 256 : i32 loc(#loc1)
    %0 = tt.get_program_id x : i32 loc(#loc2)
    %1 = arith.muli %0, %c256_i32 : i32 loc(#loc3)
    %2 = tt.make_range {end = 256 : i32, start = 0 : i32} : tensor<256xi32> loc(#loc4)
    %3 = tt.splat %1 : i32 -> tensor<256xi32> loc(#loc5)
    %4 = arith.addi %3, %2 : tensor<256xi32> loc(#loc5)
    %5 = arith.cmpi slt, %4, %cst_9 : tensor<256xi32> loc(#loc6)
    %6 = arith.remsi %4, %cst_8 : tensor<256xi32> loc(#loc7)
    %7 = arith.divsi %4, %cst_8 : tensor<256xi32> loc(#loc8)
    %8 = arith.extsi %6 : tensor<256xi32> to tensor<256xi64> loc(#loc9)
    %9 = arith.cmpi slt, %8, %cst_7 : tensor<256xi64> loc(#loc9)
    %10 = arith.muli %7, %cst_6 : tensor<256xi32> loc(#loc10)
    %11 = arith.addi %10, %6 : tensor<256xi32> loc(#loc11)
    %12 = tt.splat %arg0 : !tt.ptr<f32> -> tensor<256x!tt.ptr<f32>> loc(#loc12)
    %13 = tt.addptr %12, %11 : tensor<256x!tt.ptr<f32>>, tensor<256xi32> loc(#loc12)
    %14 = arith.andi %9, %5 : tensor<256xi1> loc(#loc13)
    %15 = tt.load %13, %14, %cst_5 evictionPolicy = evict_last : tensor<256x!tt.ptr<f32>> loc(#loc14)
    %16 = arith.cmpi sge, %8, %cst_7 : tensor<256xi64> loc(#loc15)
    %17 = arith.cmpi slt, %8, %cst_4 : tensor<256xi64> loc(#loc16)
    %18 = arith.andi %16, %17 : tensor<256xi1> loc(#loc17)
    %19 = arith.addi %6, %cst_3 : tensor<256xi32> loc(#loc18)
    %20 = arith.addi %10, %19 : tensor<256xi32> loc(#loc19)
    %21 = tt.addptr %12, %20 : tensor<256x!tt.ptr<f32>>, tensor<256xi32> loc(#loc20)
    %22 = arith.andi %18, %5 : tensor<256xi1> loc(#loc21)
    %23 = tt.load %21, %22, %cst_2 evictionPolicy = evict_last : tensor<256x!tt.ptr<f32>> loc(#loc22)
    %24 = arith.cmpf ogt, %23, %cst_2 : tensor<256xf32> loc(#loc61)
    %25 = arith.cmpf une, %23, %23 : tensor<256xf32> loc(#loc62)
    %26 = arith.ori %24, %25 : tensor<256xi1> loc(#loc63)
    %27 = arith.select %26, %23, %cst_2 : tensor<256xi1>, tensor<256xf32> loc(#loc64)
    %28 = arith.cmpf ogt, %cst_2, %27 : tensor<256xf32> loc(#loc65)
    %29 = arith.select %28, %cst_2, %27 : tensor<256xi1>, tensor<256xf32> loc(#loc66)
    %30 = arith.cmpf ogt, %cst_2, %29 : tensor<256xf32> loc(#loc67)
    %31 = arith.select %30, %cst_2, %29 : tensor<256xi1>, tensor<256xf32> loc(#loc68)
    %32 = arith.cmpf ogt, %cst_2, %31 : tensor<256xf32> loc(#loc69)
    %33 = arith.select %32, %cst_2, %31 : tensor<256xi1>, tensor<256xf32> loc(#loc70)
    %34 = arith.cmpf ogt, %cst_2, %33 : tensor<256xf32> loc(#loc71)
    %35 = arith.select %34, %cst_2, %33 : tensor<256xi1>, tensor<256xf32> loc(#loc72)
    %36 = arith.cmpf ogt, %cst_2, %35 : tensor<256xf32> loc(#loc73)
    %37 = arith.select %36, %cst_2, %35 : tensor<256xi1>, tensor<256xf32> loc(#loc74)
    %38 = arith.cmpf ogt, %cst_2, %37 : tensor<256xf32> loc(#loc75)
    %39 = arith.select %38, %cst_2, %37 : tensor<256xi1>, tensor<256xf32> loc(#loc76)
    %40 = arith.cmpf ogt, %cst_2, %39 : tensor<256xf32> loc(#loc77)
    %41 = arith.select %40, %cst_2, %39 : tensor<256xi1>, tensor<256xf32> loc(#loc78)
    %42 = arith.cmpf ogt, %cst_2, %41 : tensor<256xf32> loc(#loc79)
    %43 = arith.select %42, %cst_2, %41 : tensor<256xi1>, tensor<256xf32> loc(#loc80)
    %44 = arith.cmpf ogt, %cst_2, %43 : tensor<256xf32> loc(#loc81)
    %45 = arith.select %44, %cst_2, %43 : tensor<256xi1>, tensor<256xf32> loc(#loc82)
    %46 = arith.cmpf ogt, %cst_2, %45 : tensor<256xf32> loc(#loc83)
    %47 = arith.select %46, %cst_2, %45 : tensor<256xi1>, tensor<256xf32> loc(#loc84)
    %48 = arith.cmpf ogt, %cst_2, %47 : tensor<256xf32> loc(#loc85)
    %49 = arith.select %48, %cst_2, %47 : tensor<256xi1>, tensor<256xf32> loc(#loc86)
    %50 = arith.cmpf ogt, %cst_2, %49 : tensor<256xf32> loc(#loc87)
    %51 = arith.select %50, %cst_2, %49 : tensor<256xi1>, tensor<256xf32> loc(#loc88)
    %52 = arith.cmpi sge, %8, %cst_4 : tensor<256xi64> loc(#loc40)
    %53 = arith.cmpi slt, %8, %cst_1 : tensor<256xi64> loc(#loc41)
    %54 = arith.andi %52, %53 : tensor<256xi1> loc(#loc42)
    %55 = arith.addi %6, %cst_0 : tensor<256xi32> loc(#loc43)
    %56 = arith.addi %10, %55 : tensor<256xi32> loc(#loc44)
    %57 = tt.splat %arg1 : !tt.ptr<f32> -> tensor<256x!tt.ptr<f32>> loc(#loc45)
    %58 = tt.addptr %57, %56 : tensor<256x!tt.ptr<f32>>, tensor<256xi32> loc(#loc45)
    %59 = arith.andi %54, %5 : tensor<256xi1> loc(#loc46)
    %60 = tt.load %58, %59, %cst_5 evictionPolicy = evict_last : tensor<256x!tt.ptr<f32>> loc(#loc47)
    %61 = arith.cmpi sge, %8, %cst_1 : tensor<256xi64> loc(#loc48)
    %62 = arith.addi %6, %cst : tensor<256xi32> loc(#loc49)
    %63 = arith.addi %10, %62 : tensor<256xi32> loc(#loc50)
    %64 = tt.splat %arg2 : !tt.ptr<f32> -> tensor<256x!tt.ptr<f32>> loc(#loc51)
    %65 = tt.addptr %64, %63 : tensor<256x!tt.ptr<f32>>, tensor<256xi32> loc(#loc51)
    %66 = arith.andi %61, %5 : tensor<256xi1> loc(#loc52)
    %67 = tt.load %65, %66, %cst_5 evictionPolicy = evict_last : tensor<256x!tt.ptr<f32>> loc(#loc53)
    %68 = arith.select %54, %60, %67 : tensor<256xi1>, tensor<256xf32> loc(#loc54)
    %69 = arith.select %18, %51, %68 : tensor<256xi1>, tensor<256xf32> loc(#loc89)
    %70 = arith.select %9, %15, %69 : tensor<256xi1>, tensor<256xf32> loc(#loc57)
    %71 = tt.splat %arg3 : !tt.ptr<f32> -> tensor<256x!tt.ptr<f32>> loc(#loc58)
    %72 = tt.addptr %71, %4 : tensor<256x!tt.ptr<f32>>, tensor<256xi32> loc(#loc58)
    tt.store %72, %70, %5 : tensor<256x!tt.ptr<f32>> loc(#loc59)
    tt.return loc(#loc60)
  } loc(#loc)
} loc(#loc)
#loc1 = loc(unknown)
#loc2 = loc("inductor_cache/uj/cujpt5p2unrnzksmzwdpuqzrjntuw2gqobdkigsjd35p642eohyp.py":21:28)
#loc3 = loc("inductor_cache/uj/cujpt5p2unrnzksmzwdpuqzrjntuw2gqobdkigsjd35p642eohyp.py":21:33)
#loc4 = loc("inductor_cache/uj/cujpt5p2unrnzksmzwdpuqzrjntuw2gqobdkigsjd35p642eohyp.py":22:36)
#loc5 = loc("inductor_cache/uj/cujpt5p2unrnzksmzwdpuqzrjntuw2gqobdkigsjd35p642eohyp.py":22:23)
#loc6 = loc("inductor_cache/uj/cujpt5p2unrnzksmzwdpuqzrjntuw2gqobdkigsjd35p642eohyp.py":23:21)
#loc7 = loc("inductor_cache/uj/cujpt5p2unrnzksmzwdpuqzrjntuw2gqobdkigsjd35p642eohyp.py":24:19)
#loc8 = loc("inductor_cache/uj/cujpt5p2unrnzksmzwdpuqzrjntuw2gqobdkigsjd35p642eohyp.py":25:19)
#loc9 = loc("inductor_cache/uj/cujpt5p2unrnzksmzwdpuqzrjntuw2gqobdkigsjd35p642eohyp.py":31:18)
#loc10 = loc("inductor_cache/uj/cujpt5p2unrnzksmzwdpuqzrjntuw2gqobdkigsjd35p642eohyp.py":32:33)
#loc11 = loc("inductor_cache/uj/cujpt5p2unrnzksmzwdpuqzrjntuw2gqobdkigsjd35p642eohyp.py":32:39)
#loc12 = loc("inductor_cache/uj/cujpt5p2unrnzksmzwdpuqzrjntuw2gqobdkigsjd35p642eohyp.py":32:30)
#loc13 = loc("inductor_cache/uj/cujpt5p2unrnzksmzwdpuqzrjntuw2gqobdkigsjd35p642eohyp.py":32:52)
#loc14 = loc("inductor_cache/uj/cujpt5p2unrnzksmzwdpuqzrjntuw2gqobdkigsjd35p642eohyp.py":32:45)
#loc15 = loc("inductor_cache/uj/cujpt5p2unrnzksmzwdpuqzrjntuw2gqobdkigsjd35p642eohyp.py":33:19)
#loc16 = loc("inductor_cache/uj/cujpt5p2unrnzksmzwdpuqzrjntuw2gqobdkigsjd35p642eohyp.py":35:18)
#loc17 = loc("inductor_cache/uj/cujpt5p2unrnzksmzwdpuqzrjntuw2gqobdkigsjd35p642eohyp.py":36:18)
#loc18 = loc("inductor_cache/uj/cujpt5p2unrnzksmzwdpuqzrjntuw2gqobdkigsjd35p642eohyp.py":106:48)
#loc19 = loc("inductor_cache/uj/cujpt5p2unrnzksmzwdpuqzrjntuw2gqobdkigsjd35p642eohyp.py":106:40)
#loc20 = loc("inductor_cache/uj/cujpt5p2unrnzksmzwdpuqzrjntuw2gqobdkigsjd35p642eohyp.py":106:31)
#loc21 = loc("inductor_cache/uj/cujpt5p2unrnzksmzwdpuqzrjntuw2gqobdkigsjd35p642eohyp.py":106:62)
#loc22 = loc("inductor_cache/uj/cujpt5p2unrnzksmzwdpuqzrjntuw2gqobdkigsjd35p642eohyp.py":106:54)
#loc23 = loc("/home/sahanp/.conda/envs/parity-bench/lib/python3.12/site-packages/torch/_inductor/runtime/triton_helpers.py":118:15)
#loc24 = loc("inductor_cache/uj/cujpt5p2unrnzksmzwdpuqzrjntuw2gqobdkigsjd35p642eohyp.py":107:42)
#loc25 = loc("/home/sahanp/.conda/envs/parity-bench/lib/python3.12/site-packages/torch/_inductor/runtime/triton_helpers.py":120:21)
#loc26 = loc("/home/sahanp/.conda/envs/parity-bench/lib/python3.12/site-packages/torch/_inductor/runtime/triton_helpers.py":120:16)
#loc27 = loc("/home/sahanp/.conda/envs/parity-bench/lib/python3.12/site-packages/torch/_inductor/runtime/triton_helpers.py":121:29)
#loc28 = loc("inductor_cache/uj/cujpt5p2unrnzksmzwdpuqzrjntuw2gqobdkigsjd35p642eohyp.py":111:42)
#loc29 = loc("inductor_cache/uj/cujpt5p2unrnzksmzwdpuqzrjntuw2gqobdkigsjd35p642eohyp.py":115:42)
#loc30 = loc("inductor_cache/uj/cujpt5p2unrnzksmzwdpuqzrjntuw2gqobdkigsjd35p642eohyp.py":119:42)
#loc31 = loc("inductor_cache/uj/cujpt5p2unrnzksmzwdpuqzrjntuw2gqobdkigsjd35p642eohyp.py":123:42)
#loc32 = loc("inductor_cache/uj/cujpt5p2unrnzksmzwdpuqzrjntuw2gqobdkigsjd35p642eohyp.py":127:43)
#loc33 = loc("inductor_cache/uj/cujpt5p2unrnzksmzwdpuqzrjntuw2gqobdkigsjd35p642eohyp.py":131:44)
#loc34 = loc("inductor_cache/uj/cujpt5p2unrnzksmzwdpuqzrjntuw2gqobdkigsjd35p642eohyp.py":135:44)
#loc35 = loc("inductor_cache/uj/cujpt5p2unrnzksmzwdpuqzrjntuw2gqobdkigsjd35p642eohyp.py":139:44)
#loc36 = loc("inductor_cache/uj/cujpt5p2unrnzksmzwdpuqzrjntuw2gqobdkigsjd35p642eohyp.py":143:44)
#loc37 = loc("inductor_cache/uj/cujpt5p2unrnzksmzwdpuqzrjntuw2gqobdkigsjd35p642eohyp.py":147:44)
#loc38 = loc("inductor_cache/uj/cujpt5p2unrnzksmzwdpuqzrjntuw2gqobdkigsjd35p642eohyp.py":151:44)
#loc39 = loc("inductor_cache/uj/cujpt5p2unrnzksmzwdpuqzrjntuw2gqobdkigsjd35p642eohyp.py":155:44)
#loc40 = loc("inductor_cache/uj/cujpt5p2unrnzksmzwdpuqzrjntuw2gqobdkigsjd35p642eohyp.py":158:21)
#loc41 = loc("inductor_cache/uj/cujpt5p2unrnzksmzwdpuqzrjntuw2gqobdkigsjd35p642eohyp.py":160:20)
#loc42 = loc("inductor_cache/uj/cujpt5p2unrnzksmzwdpuqzrjntuw2gqobdkigsjd35p642eohyp.py":161:22)
#loc43 = loc("inductor_cache/uj/cujpt5p2unrnzksmzwdpuqzrjntuw2gqobdkigsjd35p642eohyp.py":162:49)
#loc44 = loc("inductor_cache/uj/cujpt5p2unrnzksmzwdpuqzrjntuw2gqobdkigsjd35p642eohyp.py":162:41)
#loc45 = loc("inductor_cache/uj/cujpt5p2unrnzksmzwdpuqzrjntuw2gqobdkigsjd35p642eohyp.py":162:32)
#loc46 = loc("inductor_cache/uj/cujpt5p2unrnzksmzwdpuqzrjntuw2gqobdkigsjd35p642eohyp.py":162:64)
#loc47 = loc("inductor_cache/uj/cujpt5p2unrnzksmzwdpuqzrjntuw2gqobdkigsjd35p642eohyp.py":162:55)
#loc48 = loc("inductor_cache/uj/cujpt5p2unrnzksmzwdpuqzrjntuw2gqobdkigsjd35p642eohyp.py":163:21)
#loc49 = loc("inductor_cache/uj/cujpt5p2unrnzksmzwdpuqzrjntuw2gqobdkigsjd35p642eohyp.py":166:49)
#loc50 = loc("inductor_cache/uj/cujpt5p2unrnzksmzwdpuqzrjntuw2gqobdkigsjd35p642eohyp.py":166:41)
#loc51 = loc("inductor_cache/uj/cujpt5p2unrnzksmzwdpuqzrjntuw2gqobdkigsjd35p642eohyp.py":166:32)
#loc52 = loc("inductor_cache/uj/cujpt5p2unrnzksmzwdpuqzrjntuw2gqobdkigsjd35p642eohyp.py":166:64)
#loc53 = loc("inductor_cache/uj/cujpt5p2unrnzksmzwdpuqzrjntuw2gqobdkigsjd35p642eohyp.py":166:55)
#loc54 = loc("inductor_cache/uj/cujpt5p2unrnzksmzwdpuqzrjntuw2gqobdkigsjd35p642eohyp.py":167:38)
#loc55 = loc("inductor_cache/uj/cujpt5p2unrnzksmzwdpuqzrjntuw2gqobdkigsjd35p642eohyp.py":168:36)
#loc56 = loc("inductor_cache/uj/cujpt5p2unrnzksmzwdpuqzrjntuw2gqobdkigsjd35p642eohyp.py":157:36)
#loc57 = loc("inductor_cache/uj/cujpt5p2unrnzksmzwdpuqzrjntuw2gqobdkigsjd35p642eohyp.py":169:34)
#loc58 = loc("inductor_cache/uj/cujpt5p2unrnzksmzwdpuqzrjntuw2gqobdkigsjd35p642eohyp.py":170:25)
#loc59 = loc("inductor_cache/uj/cujpt5p2unrnzksmzwdpuqzrjntuw2gqobdkigsjd35p642eohyp.py":170:38)
#loc60 = loc("inductor_cache/uj/cujpt5p2unrnzksmzwdpuqzrjntuw2gqobdkigsjd35p642eohyp.py":170:4)
#loc61 = loc(callsite(#loc23 at #loc24))
#loc62 = loc(callsite(#loc25 at #loc24))
#loc63 = loc(callsite(#loc26 at #loc24))
#loc64 = loc(callsite(#loc27 at #loc24))
#loc65 = loc(callsite(#loc23 at #loc28))
#loc66 = loc(callsite(#loc27 at #loc28))
#loc67 = loc(callsite(#loc23 at #loc29))
#loc68 = loc(callsite(#loc27 at #loc29))
#loc69 = loc(callsite(#loc23 at #loc30))
#loc70 = loc(callsite(#loc27 at #loc30))
#loc71 = loc(callsite(#loc23 at #loc31))
#loc72 = loc(callsite(#loc27 at #loc31))
#loc73 = loc(callsite(#loc23 at #loc32))
#loc74 = loc(callsite(#loc27 at #loc32))
#loc75 = loc(callsite(#loc23 at #loc33))
#loc76 = loc(callsite(#loc27 at #loc33))
#loc77 = loc(callsite(#loc23 at #loc34))
#loc78 = loc(callsite(#loc27 at #loc34))
#loc79 = loc(callsite(#loc23 at #loc35))
#loc80 = loc(callsite(#loc27 at #loc35))
#loc81 = loc(callsite(#loc23 at #loc36))
#loc82 = loc(callsite(#loc27 at #loc36))
#loc83 = loc(callsite(#loc23 at #loc37))
#loc84 = loc(callsite(#loc27 at #loc37))
#loc85 = loc(callsite(#loc23 at #loc38))
#loc86 = loc(callsite(#loc27 at #loc38))
#loc87 = loc(callsite(#loc23 at #loc39))
#loc88 = loc(callsite(#loc27 at #loc39))
#loc89 = loc(fused[#loc55, #loc56])
