#loc = loc("inductor_cache/lo/cloibf7ebtg7c24h6egr7ydm2cgelnqkjtmr5a24fezbsygk6l7i.py":19:0)
module {
  tt.func public @triton_poi_fused_div_mul_sigmoid_softplus_0(%arg0: !tt.ptr<f32> {tt.divisibility = 16 : i32} loc("inductor_cache/lo/cloibf7ebtg7c24h6egr7ydm2cgelnqkjtmr5a24fezbsygk6l7i.py":19:0), %arg1: !tt.ptr<f32> {tt.divisibility = 16 : i32} loc("inductor_cache/lo/cloibf7ebtg7c24h6egr7ydm2cgelnqkjtmr5a24fezbsygk6l7i.py":19:0), %arg2: !tt.ptr<f32> {tt.divisibility = 16 : i32} loc("inductor_cache/lo/cloibf7ebtg7c24h6egr7ydm2cgelnqkjtmr5a24fezbsygk6l7i.py":19:0), %arg3: i32 {tt.divisibility = 16 : i32} loc("inductor_cache/lo/cloibf7ebtg7c24h6egr7ydm2cgelnqkjtmr5a24fezbsygk6l7i.py":19:0)) attributes {noinline = false} {
    %cst = arith.constant 2.000000e+01 : f32 loc(#loc1)
    %cst_0 = arith.constant dense<0.000000e+00> : tensor<128xf32> loc(#loc1)
    %cst_1 = arith.constant dense<1.000000e+00> : tensor<128xf32> loc(#loc1)
    %cst_2 = arith.constant dense<0.909090936> : tensor<128xf32> loc(#loc1)
    %c0_i32 = arith.constant 0 : i32 loc(#loc1)
    %cst_3 = arith.constant dense<256> : tensor<128xi32> loc(#loc1)
    %c128_i32 = arith.constant 128 : i32 loc(#loc1)
    %0 = tt.get_program_id x : i32 loc(#loc2)
    %1 = arith.muli %0, %c128_i32 : i32 loc(#loc3)
    %2 = tt.make_range {end = 128 : i32, start = 0 : i32} : tensor<128xi32> loc(#loc4)
    %3 = tt.splat %1 : i32 -> tensor<128xi32> loc(#loc5)
    %4 = arith.addi %3, %2 : tensor<128xi32> loc(#loc5)
    %5 = arith.cmpi slt, %4, %cst_3 : tensor<128xi32> loc(#loc6)
    %6 = tt.splat %arg0 : !tt.ptr<f32> -> tensor<128x!tt.ptr<f32>> loc(#loc7)
    %7 = tt.addptr %6, %4 : tensor<128x!tt.ptr<f32>>, tensor<128xi32> loc(#loc7)
    %8 = tt.load %7, %5 : tensor<128x!tt.ptr<f32>> loc(#loc8)
    %9 = tt.addptr %arg1, %c0_i32 : !tt.ptr<f32>, i32 loc(#loc9)
    %10 = tt.load %9 : !tt.ptr<f32> loc(#loc10)
    %11 = arith.cmpf ogt, %10, %cst : f32 loc(#loc11)
    %12 = math.exp %10 : f32 loc(#loc12)
    %13 = tt.extern_elementwise %12 {libname = "", libpath = "", pure = true, symbol = "__nv_log1pf"} : (f32) -> f32 loc(#loc13)
    %14 = arith.select %11, %10, %13 : f32 loc(#loc14)
    %15 = tt.splat %14 : f32 -> tensor<128xf32> loc(#loc14)
    %16 = arith.mulf %8, %15 : tensor<128xf32> loc(#loc15)
    %17 = arith.subf %cst_0, %16 : tensor<128xf32> loc(#loc26)
    %18 = math.exp %17 : tensor<128xf32> loc(#loc27)
    %19 = arith.addf %18, %cst_1 : tensor<128xf32> loc(#loc28)
    %20 = arith.divf %cst_1, %19 : tensor<128xf32> loc(#loc29)
    %21 = arith.mulf %8, %20 : tensor<128xf32> loc(#loc21)
    %22 = arith.mulf %21, %cst_2 : tensor<128xf32> loc(#loc22)
    %23 = tt.splat %arg2 : !tt.ptr<f32> -> tensor<128x!tt.ptr<f32>> loc(#loc23)
    %24 = tt.addptr %23, %4 : tensor<128x!tt.ptr<f32>>, tensor<128xi32> loc(#loc23)
    tt.store %24, %22, %5 : tensor<128x!tt.ptr<f32>> loc(#loc24)
    tt.return loc(#loc25)
  } loc(#loc)
} loc(#loc)
#loc1 = loc(unknown)
#loc2 = loc("inductor_cache/lo/cloibf7ebtg7c24h6egr7ydm2cgelnqkjtmr5a24fezbsygk6l7i.py":21:28)
#loc3 = loc("inductor_cache/lo/cloibf7ebtg7c24h6egr7ydm2cgelnqkjtmr5a24fezbsygk6l7i.py":21:33)
#loc4 = loc("inductor_cache/lo/cloibf7ebtg7c24h6egr7ydm2cgelnqkjtmr5a24fezbsygk6l7i.py":22:36)
#loc5 = loc("inductor_cache/lo/cloibf7ebtg7c24h6egr7ydm2cgelnqkjtmr5a24fezbsygk6l7i.py":22:23)
#loc6 = loc("inductor_cache/lo/cloibf7ebtg7c24h6egr7ydm2cgelnqkjtmr5a24fezbsygk6l7i.py":23:21)
#loc7 = loc("inductor_cache/lo/cloibf7ebtg7c24h6egr7ydm2cgelnqkjtmr5a24fezbsygk6l7i.py":25:30)
#loc8 = loc("inductor_cache/lo/cloibf7ebtg7c24h6egr7ydm2cgelnqkjtmr5a24fezbsygk6l7i.py":25:35)
#loc9 = loc("inductor_cache/lo/cloibf7ebtg7c24h6egr7ydm2cgelnqkjtmr5a24fezbsygk6l7i.py":26:30)
#loc10 = loc("inductor_cache/lo/cloibf7ebtg7c24h6egr7ydm2cgelnqkjtmr5a24fezbsygk6l7i.py":26:19)
#loc11 = loc("inductor_cache/lo/cloibf7ebtg7c24h6egr7ydm2cgelnqkjtmr5a24fezbsygk6l7i.py":29:18)
#loc12 = loc("inductor_cache/lo/cloibf7ebtg7c24h6egr7ydm2cgelnqkjtmr5a24fezbsygk6l7i.py":30:23)
#loc13 = loc("inductor_cache/lo/cloibf7ebtg7c24h6egr7ydm2cgelnqkjtmr5a24fezbsygk6l7i.py":31:27)
#loc14 = loc("inductor_cache/lo/cloibf7ebtg7c24h6egr7ydm2cgelnqkjtmr5a24fezbsygk6l7i.py":32:32)
#loc15 = loc("inductor_cache/lo/cloibf7ebtg7c24h6egr7ydm2cgelnqkjtmr5a24fezbsygk6l7i.py":33:18)
#loc16 = loc("/home/sahanp/.conda/envs/parity-bench/lib/python3.12/site-packages/triton/language/standard.py":47:30)
#loc17 = loc("inductor_cache/lo/cloibf7ebtg7c24h6egr7ydm2cgelnqkjtmr5a24fezbsygk6l7i.py":34:22)
#loc18 = loc("/home/sahanp/.conda/envs/parity-bench/lib/python3.12/site-packages/triton/language/standard.py":47:29)
#loc19 = loc("/home/sahanp/.conda/envs/parity-bench/lib/python3.12/site-packages/triton/language/standard.py":47:20)
#loc20 = loc("/home/sahanp/.conda/envs/parity-bench/lib/python3.12/site-packages/triton/language/standard.py":47:16)
#loc21 = loc("inductor_cache/lo/cloibf7ebtg7c24h6egr7ydm2cgelnqkjtmr5a24fezbsygk6l7i.py":35:19)
#loc22 = loc("inductor_cache/lo/cloibf7ebtg7c24h6egr7ydm2cgelnqkjtmr5a24fezbsygk6l7i.py":37:20)
#loc23 = loc("inductor_cache/lo/cloibf7ebtg7c24h6egr7ydm2cgelnqkjtmr5a24fezbsygk6l7i.py":38:25)
#loc24 = loc("inductor_cache/lo/cloibf7ebtg7c24h6egr7ydm2cgelnqkjtmr5a24fezbsygk6l7i.py":38:37)
#loc25 = loc("inductor_cache/lo/cloibf7ebtg7c24h6egr7ydm2cgelnqkjtmr5a24fezbsygk6l7i.py":38:4)
#loc26 = loc(callsite(#loc16 at #loc17))
#loc27 = loc(callsite(#loc18 at #loc17))
#loc28 = loc(callsite(#loc19 at #loc17))
#loc29 = loc(callsite(#loc20 at #loc17))
