#loc = loc("inductor_cache/ug/cug6ujacudwpebahhr2zdb6nodecjd23zqlxzvvaa2fzk55ocyyx.py":19:0)
module {
  tt.func public @triton_poi_fused_add_div_index_put_lift_fresh_pow_sqrt_sum_0(%arg0: !tt.ptr<f32> {tt.divisibility = 16 : i32} loc("inductor_cache/ug/cug6ujacudwpebahhr2zdb6nodecjd23zqlxzvvaa2fzk55ocyyx.py":19:0), %arg1: !tt.ptr<f32> {tt.divisibility = 16 : i32} loc("inductor_cache/ug/cug6ujacudwpebahhr2zdb6nodecjd23zqlxzvvaa2fzk55ocyyx.py":19:0), %arg2: i32 {tt.divisibility = 16 : i32} loc("inductor_cache/ug/cug6ujacudwpebahhr2zdb6nodecjd23zqlxzvvaa2fzk55ocyyx.py":19:0)) attributes {noinline = false} {
    %cst = arith.constant dense<0.000000e+00> : tensor<16xf32> loc(#loc1)
    %cst_0 = arith.constant dense<9.99999997E-7> : tensor<16xf32> loc(#loc1)
    %cst_1 = arith.constant dense<3> : tensor<16xi32> loc(#loc1)
    %cst_2 = arith.constant dense<2> : tensor<16xi32> loc(#loc1)
    %cst_3 = arith.constant dense<1> : tensor<16xi32> loc(#loc1)
    %cst_4 = arith.constant dense<4> : tensor<16xi32> loc(#loc1)
    %cst_5 = arith.constant dense<16> : tensor<16xi32> loc(#loc1)
    %c16_i32 = arith.constant 16 : i32 loc(#loc1)
    %0 = tt.get_program_id x : i32 loc(#loc2)
    %1 = arith.muli %0, %c16_i32 : i32 loc(#loc3)
    %2 = tt.make_range {end = 16 : i32, start = 0 : i32} : tensor<16xi32> loc(#loc4)
    %3 = tt.splat %1 : i32 -> tensor<16xi32> loc(#loc5)
    %4 = arith.addi %3, %2 : tensor<16xi32> loc(#loc5)
    %5 = arith.cmpi slt, %4, %cst_5 : tensor<16xi32> loc(#loc6)
    %6 = arith.divsi %4, %cst_4 : tensor<16xi32> loc(#loc7)
    %7 = tt.splat %arg1 : !tt.ptr<f32> -> tensor<16x!tt.ptr<f32>> loc(#loc8)
    %8 = tt.addptr %7, %4 : tensor<16x!tt.ptr<f32>>, tensor<16xi32> loc(#loc8)
    %9 = tt.load %8, %5 : tensor<16x!tt.ptr<f32>> loc(#loc9)
    %10 = arith.muli %6, %cst_4 : tensor<16xi32> loc(#loc10)
    %11 = tt.addptr %7, %10 : tensor<16x!tt.ptr<f32>>, tensor<16xi32> loc(#loc11)
    %12 = tt.load %11, %5 evictionPolicy = evict_last : tensor<16x!tt.ptr<f32>> loc(#loc12)
    %13 = arith.addi %10, %cst_3 : tensor<16xi32> loc(#loc13)
    %14 = tt.addptr %7, %13 : tensor<16x!tt.ptr<f32>>, tensor<16xi32> loc(#loc14)
    %15 = tt.load %14, %5 evictionPolicy = evict_last : tensor<16x!tt.ptr<f32>> loc(#loc15)
    %16 = arith.addi %10, %cst_2 : tensor<16xi32> loc(#loc16)
    %17 = tt.addptr %7, %16 : tensor<16x!tt.ptr<f32>>, tensor<16xi32> loc(#loc17)
    %18 = tt.load %17, %5 evictionPolicy = evict_last : tensor<16x!tt.ptr<f32>> loc(#loc18)
    %19 = arith.addi %10, %cst_1 : tensor<16xi32> loc(#loc19)
    %20 = tt.addptr %7, %19 : tensor<16x!tt.ptr<f32>>, tensor<16xi32> loc(#loc20)
    %21 = tt.load %20, %5 evictionPolicy = evict_last : tensor<16x!tt.ptr<f32>> loc(#loc21)
    %22 = arith.mulf %12, %12 : tensor<16xf32> loc(#loc22)
    %23 = arith.mulf %15, %15 : tensor<16xf32> loc(#loc23)
    %24 = arith.addf %22, %23 : tensor<16xf32> loc(#loc24)
    %25 = arith.mulf %18, %18 : tensor<16xf32> loc(#loc25)
    %26 = arith.addf %24, %25 : tensor<16xf32> loc(#loc26)
    %27 = arith.mulf %21, %21 : tensor<16xf32> loc(#loc27)
    %28 = arith.addf %26, %27 : tensor<16xf32> loc(#loc28)
    %29 = tt.extern_elementwise %28 {libname = "", libpath = "", pure = true, symbol = "__nv_sqrtf"} : (tensor<16xf32>) -> tensor<16xf32> loc(#loc29)
    %30 = arith.addf %29, %cst_0 : tensor<16xf32> loc(#loc30)
    %31 = arith.divf %9, %30 : tensor<16xf32> loc(#loc31)
    %32 = arith.cmpf une, %31, %31 : tensor<16xf32> loc(#loc32)
    %33 = arith.select %32, %cst, %31 : tensor<16xi1>, tensor<16xf32> loc(#loc33)
    %34 = tt.splat %arg0 : !tt.ptr<f32> -> tensor<16x!tt.ptr<f32>> loc(#loc34)
    %35 = tt.addptr %34, %4 : tensor<16x!tt.ptr<f32>>, tensor<16xi32> loc(#loc34)
    tt.store %35, %33, %5 : tensor<16x!tt.ptr<f32>> loc(#loc35)
    tt.return loc(#loc36)
  } loc(#loc)
} loc(#loc)
#loc1 = loc(unknown)
#loc2 = loc("inductor_cache/ug/cug6ujacudwpebahhr2zdb6nodecjd23zqlxzvvaa2fzk55ocyyx.py":21:28)
#loc3 = loc("inductor_cache/ug/cug6ujacudwpebahhr2zdb6nodecjd23zqlxzvvaa2fzk55ocyyx.py":21:33)
#loc4 = loc("inductor_cache/ug/cug6ujacudwpebahhr2zdb6nodecjd23zqlxzvvaa2fzk55ocyyx.py":22:36)
#loc5 = loc("inductor_cache/ug/cug6ujacudwpebahhr2zdb6nodecjd23zqlxzvvaa2fzk55ocyyx.py":22:23)
#loc6 = loc("inductor_cache/ug/cug6ujacudwpebahhr2zdb6nodecjd23zqlxzvvaa2fzk55ocyyx.py":23:21)
#loc7 = loc("inductor_cache/ug/cug6ujacudwpebahhr2zdb6nodecjd23zqlxzvvaa2fzk55ocyyx.py":25:19)
#loc8 = loc("inductor_cache/ug/cug6ujacudwpebahhr2zdb6nodecjd23zqlxzvvaa2fzk55ocyyx.py":26:30)
#loc9 = loc("inductor_cache/ug/cug6ujacudwpebahhr2zdb6nodecjd23zqlxzvvaa2fzk55ocyyx.py":26:35)
#loc10 = loc("inductor_cache/ug/cug6ujacudwpebahhr2zdb6nodecjd23zqlxzvvaa2fzk55ocyyx.py":27:32)
#loc11 = loc("inductor_cache/ug/cug6ujacudwpebahhr2zdb6nodecjd23zqlxzvvaa2fzk55ocyyx.py":27:30)
#loc12 = loc("inductor_cache/ug/cug6ujacudwpebahhr2zdb6nodecjd23zqlxzvvaa2fzk55ocyyx.py":27:37)
#loc13 = loc("inductor_cache/ug/cug6ujacudwpebahhr2zdb6nodecjd23zqlxzvvaa2fzk55ocyyx.py":28:34)
#loc14 = loc("inductor_cache/ug/cug6ujacudwpebahhr2zdb6nodecjd23zqlxzvvaa2fzk55ocyyx.py":28:30)
#loc15 = loc("inductor_cache/ug/cug6ujacudwpebahhr2zdb6nodecjd23zqlxzvvaa2fzk55ocyyx.py":28:41)
#loc16 = loc("inductor_cache/ug/cug6ujacudwpebahhr2zdb6nodecjd23zqlxzvvaa2fzk55ocyyx.py":29:34)
#loc17 = loc("inductor_cache/ug/cug6ujacudwpebahhr2zdb6nodecjd23zqlxzvvaa2fzk55ocyyx.py":29:30)
#loc18 = loc("inductor_cache/ug/cug6ujacudwpebahhr2zdb6nodecjd23zqlxzvvaa2fzk55ocyyx.py":29:41)
#loc19 = loc("inductor_cache/ug/cug6ujacudwpebahhr2zdb6nodecjd23zqlxzvvaa2fzk55ocyyx.py":30:34)
#loc20 = loc("inductor_cache/ug/cug6ujacudwpebahhr2zdb6nodecjd23zqlxzvvaa2fzk55ocyyx.py":30:30)
#loc21 = loc("inductor_cache/ug/cug6ujacudwpebahhr2zdb6nodecjd23zqlxzvvaa2fzk55ocyyx.py":30:41)
#loc22 = loc("inductor_cache/ug/cug6ujacudwpebahhr2zdb6nodecjd23zqlxzvvaa2fzk55ocyyx.py":31:18)
#loc23 = loc("inductor_cache/ug/cug6ujacudwpebahhr2zdb6nodecjd23zqlxzvvaa2fzk55ocyyx.py":32:18)
#loc24 = loc("inductor_cache/ug/cug6ujacudwpebahhr2zdb6nodecjd23zqlxzvvaa2fzk55ocyyx.py":33:18)
#loc25 = loc("inductor_cache/ug/cug6ujacudwpebahhr2zdb6nodecjd23zqlxzvvaa2fzk55ocyyx.py":34:18)
#loc26 = loc("inductor_cache/ug/cug6ujacudwpebahhr2zdb6nodecjd23zqlxzvvaa2fzk55ocyyx.py":35:18)
#loc27 = loc("inductor_cache/ug/cug6ujacudwpebahhr2zdb6nodecjd23zqlxzvvaa2fzk55ocyyx.py":36:19)
#loc28 = loc("inductor_cache/ug/cug6ujacudwpebahhr2zdb6nodecjd23zqlxzvvaa2fzk55ocyyx.py":37:19)
#loc29 = loc("inductor_cache/ug/cug6ujacudwpebahhr2zdb6nodecjd23zqlxzvvaa2fzk55ocyyx.py":38:27)
#loc30 = loc("inductor_cache/ug/cug6ujacudwpebahhr2zdb6nodecjd23zqlxzvvaa2fzk55ocyyx.py":40:20)
#loc31 = loc("inductor_cache/ug/cug6ujacudwpebahhr2zdb6nodecjd23zqlxzvvaa2fzk55ocyyx.py":41:19)
#loc32 = loc("inductor_cache/ug/cug6ujacudwpebahhr2zdb6nodecjd23zqlxzvvaa2fzk55ocyyx.py":42:21)
#loc33 = loc("inductor_cache/ug/cug6ujacudwpebahhr2zdb6nodecjd23zqlxzvvaa2fzk55ocyyx.py":44:35)
#loc34 = loc("inductor_cache/ug/cug6ujacudwpebahhr2zdb6nodecjd23zqlxzvvaa2fzk55ocyyx.py":45:28)
#loc35 = loc("inductor_cache/ug/cug6ujacudwpebahhr2zdb6nodecjd23zqlxzvvaa2fzk55ocyyx.py":45:40)
#loc36 = loc("inductor_cache/ug/cug6ujacudwpebahhr2zdb6nodecjd23zqlxzvvaa2fzk55ocyyx.py":45:4)
