#loc = loc("inductor_cache/h5/ch5yifeieh4kztii3zt6sfg23defjbvq3pu3alxduxsdb6ye55an.py":19:0)
module {
  tt.func public @triton_poi_fused__native_batch_norm_legit_no_training_add_convolution_mul_relu_sigmoid_2(%arg0: !tt.ptr<f32> {tt.divisibility = 16 : i32} loc("inductor_cache/h5/ch5yifeieh4kztii3zt6sfg23defjbvq3pu3alxduxsdb6ye55an.py":19:0), %arg1: !tt.ptr<f32> {tt.divisibility = 16 : i32} loc("inductor_cache/h5/ch5yifeieh4kztii3zt6sfg23defjbvq3pu3alxduxsdb6ye55an.py":19:0), %arg2: !tt.ptr<f32> {tt.divisibility = 16 : i32} loc("inductor_cache/h5/ch5yifeieh4kztii3zt6sfg23defjbvq3pu3alxduxsdb6ye55an.py":19:0), %arg3: !tt.ptr<f32> {tt.divisibility = 16 : i32} loc("inductor_cache/h5/ch5yifeieh4kztii3zt6sfg23defjbvq3pu3alxduxsdb6ye55an.py":19:0), %arg4: !tt.ptr<f32> {tt.divisibility = 16 : i32} loc("inductor_cache/h5/ch5yifeieh4kztii3zt6sfg23defjbvq3pu3alxduxsdb6ye55an.py":19:0), %arg5: !tt.ptr<f32> {tt.divisibility = 16 : i32} loc("inductor_cache/h5/ch5yifeieh4kztii3zt6sfg23defjbvq3pu3alxduxsdb6ye55an.py":19:0), %arg6: !tt.ptr<f32> {tt.divisibility = 16 : i32} loc("inductor_cache/h5/ch5yifeieh4kztii3zt6sfg23defjbvq3pu3alxduxsdb6ye55an.py":19:0), %arg7: !tt.ptr<f32> {tt.divisibility = 16 : i32} loc("inductor_cache/h5/ch5yifeieh4kztii3zt6sfg23defjbvq3pu3alxduxsdb6ye55an.py":19:0), %arg8: !tt.ptr<f32> {tt.divisibility = 16 : i32} loc("inductor_cache/h5/ch5yifeieh4kztii3zt6sfg23defjbvq3pu3alxduxsdb6ye55an.py":19:0), %arg9: i32 {tt.divisibility = 16 : i32} loc("inductor_cache/h5/ch5yifeieh4kztii3zt6sfg23defjbvq3pu3alxduxsdb6ye55an.py":19:0)) attributes {noinline = false} {
    %cst = arith.constant dense<0.000000e+00> : tensor<256xf32> loc(#loc1)
    %cst_0 = arith.constant dense<1.000000e+00> : tensor<256xf32> loc(#loc1)
    %cst_1 = arith.constant dense<9.99999974E-6> : tensor<256xf32> loc(#loc1)
    %cst_2 = arith.constant dense<4> : tensor<256xi32> loc(#loc1)
    %cst_3 = arith.constant dense<16> : tensor<256xi32> loc(#loc1)
    %cst_4 = arith.constant dense<256> : tensor<256xi32> loc(#loc1)
    %c256_i32 = arith.constant 256 : i32 loc(#loc1)
    %0 = tt.get_program_id x : i32 loc(#loc2)
    %1 = arith.muli %0, %c256_i32 : i32 loc(#loc3)
    %2 = tt.make_range {end = 256 : i32, start = 0 : i32} : tensor<256xi32> loc(#loc4)
    %3 = tt.splat %1 : i32 -> tensor<256xi32> loc(#loc5)
    %4 = arith.addi %3, %2 : tensor<256xi32> loc(#loc5)
    %5 = arith.cmpi slt, %4, %cst_4 : tensor<256xi32> loc(#loc6)
    %6 = arith.divsi %4, %cst_3 : tensor<256xi32> loc(#loc7)
    %7 = arith.remsi %6, %cst_2 : tensor<256xi32> loc(#loc8)
    %8 = tt.splat %arg0 : !tt.ptr<f32> -> tensor<256x!tt.ptr<f32>> loc(#loc9)
    %9 = tt.addptr %8, %4 : tensor<256x!tt.ptr<f32>>, tensor<256xi32> loc(#loc9)
    %10 = tt.load %9, %5 : tensor<256x!tt.ptr<f32>> loc(#loc10)
    %11 = tt.splat %arg1 : !tt.ptr<f32> -> tensor<256x!tt.ptr<f32>> loc(#loc11)
    %12 = tt.addptr %11, %7 : tensor<256x!tt.ptr<f32>>, tensor<256xi32> loc(#loc11)
    %13 = tt.load %12, %5 evictionPolicy = evict_last : tensor<256x!tt.ptr<f32>> loc(#loc12)
    %14 = tt.splat %arg2 : !tt.ptr<f32> -> tensor<256x!tt.ptr<f32>> loc(#loc13)
    %15 = tt.addptr %14, %7 : tensor<256x!tt.ptr<f32>>, tensor<256xi32> loc(#loc13)
    %16 = tt.load %15, %5 evictionPolicy = evict_last : tensor<256x!tt.ptr<f32>> loc(#loc14)
    %17 = tt.splat %arg3 : !tt.ptr<f32> -> tensor<256x!tt.ptr<f32>> loc(#loc15)
    %18 = tt.addptr %17, %7 : tensor<256x!tt.ptr<f32>>, tensor<256xi32> loc(#loc15)
    %19 = tt.load %18, %5 evictionPolicy = evict_last : tensor<256x!tt.ptr<f32>> loc(#loc16)
    %20 = tt.splat %arg4 : !tt.ptr<f32> -> tensor<256x!tt.ptr<f32>> loc(#loc17)
    %21 = tt.addptr %20, %7 : tensor<256x!tt.ptr<f32>>, tensor<256xi32> loc(#loc17)
    %22 = tt.load %21, %5 evictionPolicy = evict_last : tensor<256x!tt.ptr<f32>> loc(#loc18)
    %23 = tt.splat %arg5 : !tt.ptr<f32> -> tensor<256x!tt.ptr<f32>> loc(#loc19)
    %24 = tt.addptr %23, %6 : tensor<256x!tt.ptr<f32>>, tensor<256xi32> loc(#loc19)
    %25 = tt.load %24, %5 evictionPolicy = evict_last : tensor<256x!tt.ptr<f32>> loc(#loc20)
    %26 = tt.splat %arg6 : !tt.ptr<f32> -> tensor<256x!tt.ptr<f32>> loc(#loc21)
    %27 = tt.addptr %26, %6 : tensor<256x!tt.ptr<f32>>, tensor<256xi32> loc(#loc21)
    %28 = tt.load %27, %5 evictionPolicy = evict_last : tensor<256x!tt.ptr<f32>> loc(#loc22)
    %29 = tt.splat %arg7 : !tt.ptr<f32> -> tensor<256x!tt.ptr<f32>> loc(#loc23)
    %30 = tt.addptr %29, %7 : tensor<256x!tt.ptr<f32>>, tensor<256xi32> loc(#loc23)
    %31 = tt.load %30, %5 evictionPolicy = evict_last : tensor<256x!tt.ptr<f32>> loc(#loc24)
    %32 = arith.subf %10, %13 : tensor<256xf32> loc(#loc25)
    %33 = arith.addf %16, %cst_1 : tensor<256xf32> loc(#loc26)
    %34 = tt.extern_elementwise %33 {libname = "", libpath = "", pure = true, symbol = "__nv_sqrtf"} : (tensor<256xf32>) -> tensor<256xf32> loc(#loc27)
    %35 = arith.divf %cst_0, %34 : tensor<256xf32> loc(#loc28)
    %36 = arith.mulf %32, %35 : tensor<256xf32> loc(#loc29)
    %37 = arith.mulf %36, %19 : tensor<256xf32> loc(#loc30)
    %38 = arith.addf %37, %22 : tensor<256xf32> loc(#loc31)
    %39 = arith.subf %cst, %25 : tensor<256xf32> loc(#loc46)
    %40 = math.exp %39 : tensor<256xf32> loc(#loc47)
    %41 = arith.addf %40, %cst_0 : tensor<256xf32> loc(#loc48)
    %42 = arith.divf %cst_0, %41 : tensor<256xf32> loc(#loc49)
    %43 = arith.mulf %38, %42 : tensor<256xf32> loc(#loc37)
    %44 = arith.addf %28, %31 : tensor<256xf32> loc(#loc38)
    %45 = arith.addf %43, %44 : tensor<256xf32> loc(#loc39)
    %46 = arith.cmpf ogt, %cst, %45 : tensor<256xf32> loc(#loc50)
    %47 = arith.select %46, %cst, %45 : tensor<256xi1>, tensor<256xf32> loc(#loc51)
    %48 = tt.splat %arg8 : !tt.ptr<f32> -> tensor<256x!tt.ptr<f32>> loc(#loc43)
    %49 = tt.addptr %48, %4 : tensor<256x!tt.ptr<f32>>, tensor<256xi32> loc(#loc43)
    tt.store %49, %47, %5 : tensor<256x!tt.ptr<f32>> loc(#loc44)
    tt.return loc(#loc45)
  } loc(#loc)
} loc(#loc)
#loc1 = loc(unknown)
#loc2 = loc("inductor_cache/h5/ch5yifeieh4kztii3zt6sfg23defjbvq3pu3alxduxsdb6ye55an.py":21:28)
#loc3 = loc("inductor_cache/h5/ch5yifeieh4kztii3zt6sfg23defjbvq3pu3alxduxsdb6ye55an.py":21:33)
#loc4 = loc("inductor_cache/h5/ch5yifeieh4kztii3zt6sfg23defjbvq3pu3alxduxsdb6ye55an.py":22:36)
#loc5 = loc("inductor_cache/h5/ch5yifeieh4kztii3zt6sfg23defjbvq3pu3alxduxsdb6ye55an.py":22:23)
#loc6 = loc("inductor_cache/h5/ch5yifeieh4kztii3zt6sfg23defjbvq3pu3alxduxsdb6ye55an.py":23:21)
#loc7 = loc("inductor_cache/h5/ch5yifeieh4kztii3zt6sfg23defjbvq3pu3alxduxsdb6ye55an.py":25:21)
#loc8 = loc("inductor_cache/h5/ch5yifeieh4kztii3zt6sfg23defjbvq3pu3alxduxsdb6ye55an.py":25:27)
#loc9 = loc("inductor_cache/h5/ch5yifeieh4kztii3zt6sfg23defjbvq3pu3alxduxsdb6ye55an.py":27:30)
#loc10 = loc("inductor_cache/h5/ch5yifeieh4kztii3zt6sfg23defjbvq3pu3alxduxsdb6ye55an.py":27:35)
#loc11 = loc("inductor_cache/h5/ch5yifeieh4kztii3zt6sfg23defjbvq3pu3alxduxsdb6ye55an.py":28:30)
#loc12 = loc("inductor_cache/h5/ch5yifeieh4kztii3zt6sfg23defjbvq3pu3alxduxsdb6ye55an.py":28:35)
#loc13 = loc("inductor_cache/h5/ch5yifeieh4kztii3zt6sfg23defjbvq3pu3alxduxsdb6ye55an.py":29:30)
#loc14 = loc("inductor_cache/h5/ch5yifeieh4kztii3zt6sfg23defjbvq3pu3alxduxsdb6ye55an.py":29:35)
#loc15 = loc("inductor_cache/h5/ch5yifeieh4kztii3zt6sfg23defjbvq3pu3alxduxsdb6ye55an.py":30:31)
#loc16 = loc("inductor_cache/h5/ch5yifeieh4kztii3zt6sfg23defjbvq3pu3alxduxsdb6ye55an.py":30:36)
#loc17 = loc("inductor_cache/h5/ch5yifeieh4kztii3zt6sfg23defjbvq3pu3alxduxsdb6ye55an.py":31:31)
#loc18 = loc("inductor_cache/h5/ch5yifeieh4kztii3zt6sfg23defjbvq3pu3alxduxsdb6ye55an.py":31:36)
#loc19 = loc("inductor_cache/h5/ch5yifeieh4kztii3zt6sfg23defjbvq3pu3alxduxsdb6ye55an.py":32:31)
#loc20 = loc("inductor_cache/h5/ch5yifeieh4kztii3zt6sfg23defjbvq3pu3alxduxsdb6ye55an.py":32:36)
#loc21 = loc("inductor_cache/h5/ch5yifeieh4kztii3zt6sfg23defjbvq3pu3alxduxsdb6ye55an.py":33:31)
#loc22 = loc("inductor_cache/h5/ch5yifeieh4kztii3zt6sfg23defjbvq3pu3alxduxsdb6ye55an.py":33:36)
#loc23 = loc("inductor_cache/h5/ch5yifeieh4kztii3zt6sfg23defjbvq3pu3alxduxsdb6ye55an.py":34:31)
#loc24 = loc("inductor_cache/h5/ch5yifeieh4kztii3zt6sfg23defjbvq3pu3alxduxsdb6ye55an.py":34:36)
#loc25 = loc("inductor_cache/h5/ch5yifeieh4kztii3zt6sfg23defjbvq3pu3alxduxsdb6ye55an.py":35:18)
#loc26 = loc("inductor_cache/h5/ch5yifeieh4kztii3zt6sfg23defjbvq3pu3alxduxsdb6ye55an.py":37:18)
#loc27 = loc("inductor_cache/h5/ch5yifeieh4kztii3zt6sfg23defjbvq3pu3alxduxsdb6ye55an.py":38:26)
#loc28 = loc("inductor_cache/h5/ch5yifeieh4kztii3zt6sfg23defjbvq3pu3alxduxsdb6ye55an.py":40:18)
#loc29 = loc("inductor_cache/h5/ch5yifeieh4kztii3zt6sfg23defjbvq3pu3alxduxsdb6ye55an.py":43:19)
#loc30 = loc("inductor_cache/h5/ch5yifeieh4kztii3zt6sfg23defjbvq3pu3alxduxsdb6ye55an.py":44:20)
#loc31 = loc("inductor_cache/h5/ch5yifeieh4kztii3zt6sfg23defjbvq3pu3alxduxsdb6ye55an.py":45:20)
#loc32 = loc("/home/sahanp/.conda/envs/parity-bench/lib/python3.12/site-packages/triton/language/standard.py":47:30)
#loc33 = loc("inductor_cache/h5/ch5yifeieh4kztii3zt6sfg23defjbvq3pu3alxduxsdb6ye55an.py":46:23)
#loc34 = loc("/home/sahanp/.conda/envs/parity-bench/lib/python3.12/site-packages/triton/language/standard.py":47:29)
#loc35 = loc("/home/sahanp/.conda/envs/parity-bench/lib/python3.12/site-packages/triton/language/standard.py":47:20)
#loc36 = loc("/home/sahanp/.conda/envs/parity-bench/lib/python3.12/site-packages/triton/language/standard.py":47:16)
#loc37 = loc("inductor_cache/h5/ch5yifeieh4kztii3zt6sfg23defjbvq3pu3alxduxsdb6ye55an.py":47:20)
#loc38 = loc("inductor_cache/h5/ch5yifeieh4kztii3zt6sfg23defjbvq3pu3alxduxsdb6ye55an.py":48:20)
#loc39 = loc("inductor_cache/h5/ch5yifeieh4kztii3zt6sfg23defjbvq3pu3alxduxsdb6ye55an.py":49:20)
#loc40 = loc("/home/sahanp/.conda/envs/parity-bench/lib/python3.12/site-packages/torch/_inductor/runtime/triton_helpers.py":118:15)
#loc41 = loc("inductor_cache/h5/ch5yifeieh4kztii3zt6sfg23defjbvq3pu3alxduxsdb6ye55an.py":51:42)
#loc42 = loc("/home/sahanp/.conda/envs/parity-bench/lib/python3.12/site-packages/torch/_inductor/runtime/triton_helpers.py":121:29)
#loc43 = loc("inductor_cache/h5/ch5yifeieh4kztii3zt6sfg23defjbvq3pu3alxduxsdb6ye55an.py":52:25)
#loc44 = loc("inductor_cache/h5/ch5yifeieh4kztii3zt6sfg23defjbvq3pu3alxduxsdb6ye55an.py":52:37)
#loc45 = loc("inductor_cache/h5/ch5yifeieh4kztii3zt6sfg23defjbvq3pu3alxduxsdb6ye55an.py":52:4)
#loc46 = loc(callsite(#loc32 at #loc33))
#loc47 = loc(callsite(#loc34 at #loc33))
#loc48 = loc(callsite(#loc35 at #loc33))
#loc49 = loc(callsite(#loc36 at #loc33))
#loc50 = loc(callsite(#loc40 at #loc41))
#loc51 = loc(callsite(#loc42 at #loc41))
