#loc = loc("inductor_cache/7i/c7i7nzsr6uv3xcq37rnjygfzzkamdjueguim65etbtduy3ztnjim.py":19:0)
module {
  tt.func public @triton_poi_fused__native_batch_norm_legit_no_training_convolution_4(%arg0: !tt.ptr<f32> {tt.divisibility = 16 : i32} loc("inductor_cache/7i/c7i7nzsr6uv3xcq37rnjygfzzkamdjueguim65etbtduy3ztnjim.py":19:0), %arg1: !tt.ptr<f32> {tt.divisibility = 16 : i32} loc("inductor_cache/7i/c7i7nzsr6uv3xcq37rnjygfzzkamdjueguim65etbtduy3ztnjim.py":19:0), %arg2: !tt.ptr<f32> {tt.divisibility = 16 : i32} loc("inductor_cache/7i/c7i7nzsr6uv3xcq37rnjygfzzkamdjueguim65etbtduy3ztnjim.py":19:0), %arg3: !tt.ptr<f32> {tt.divisibility = 16 : i32} loc("inductor_cache/7i/c7i7nzsr6uv3xcq37rnjygfzzkamdjueguim65etbtduy3ztnjim.py":19:0), %arg4: !tt.ptr<f32> {tt.divisibility = 16 : i32} loc("inductor_cache/7i/c7i7nzsr6uv3xcq37rnjygfzzkamdjueguim65etbtduy3ztnjim.py":19:0), %arg5: !tt.ptr<f32> {tt.divisibility = 16 : i32} loc("inductor_cache/7i/c7i7nzsr6uv3xcq37rnjygfzzkamdjueguim65etbtduy3ztnjim.py":19:0), %arg6: !tt.ptr<f32> {tt.divisibility = 16 : i32} loc("inductor_cache/7i/c7i7nzsr6uv3xcq37rnjygfzzkamdjueguim65etbtduy3ztnjim.py":19:0), %arg7: i32 {tt.divisibility = 16 : i32} loc("inductor_cache/7i/c7i7nzsr6uv3xcq37rnjygfzzkamdjueguim65etbtduy3ztnjim.py":19:0), %arg8: i32 {tt.divisibility = 16 : i32} loc("inductor_cache/7i/c7i7nzsr6uv3xcq37rnjygfzzkamdjueguim65etbtduy3ztnjim.py":19:0)) attributes {noinline = false} {
    %c4096_i32 = arith.constant 4096 : i32 loc(#loc1)
    %c16_i32 = arith.constant 16 : i32 loc(#loc1)
    %c64_i32 = arith.constant 64 : i32 loc(#loc1)
    %cst = arith.constant dense<1.000000e+00> : tensor<1x1xf32> loc(#loc1)
    %cst_0 = arith.constant dense<9.99999974E-6> : tensor<1x1xf32> loc(#loc1)
    %cst_1 = arith.constant dense<16> : tensor<256x1xi32> loc(#loc1)
    %cst_2 = arith.constant dense<256> : tensor<256x1xi32> loc(#loc1)
    %c256_i32 = arith.constant 256 : i32 loc(#loc1)
    %0 = tt.get_program_id y : i32 loc(#loc2)
    %1 = arith.cmpi slt, %0, %c64_i32 : i32 loc(#loc3)
    %2 = tt.splat %1 : i1 -> tensor<1x1xi1> loc(#loc3)
    %3 = tt.get_program_id x : i32 loc(#loc4)
    %4 = arith.muli %3, %c256_i32 : i32 loc(#loc5)
    %5 = tt.make_range {end = 256 : i32, start = 0 : i32} : tensor<256xi32> loc(#loc6)
    %6 = tt.expand_dims %5 {axis = 1 : i32} : tensor<256xi32> -> tensor<256x1xi32> loc(#loc7)
    %7 = tt.splat %4 : i32 -> tensor<256x1xi32> loc(#loc8)
    %8 = arith.addi %7, %6 : tensor<256x1xi32> loc(#loc8)
    %9 = arith.cmpi slt, %8, %cst_2 : tensor<256x1xi32> loc(#loc9)
    %10 = arith.remsi %0, %c16_i32 : i32 loc(#loc10)
    %11 = arith.divsi %0, %c16_i32 : i32 loc(#loc11)
    %12 = arith.muli %8, %cst_1 : tensor<256x1xi32> loc(#loc12)
    %13 = tt.splat %10 : i32 -> tensor<256x1xi32> loc(#loc13)
    %14 = arith.addi %13, %12 : tensor<256x1xi32> loc(#loc13)
    %15 = arith.muli %11, %c4096_i32 : i32 loc(#loc14)
    %16 = tt.splat %15 : i32 -> tensor<256x1xi32> loc(#loc15)
    %17 = arith.addi %14, %16 : tensor<256x1xi32> loc(#loc15)
    %18 = tt.splat %arg0 : !tt.ptr<f32> -> tensor<256x1x!tt.ptr<f32>> loc(#loc16)
    %19 = tt.addptr %18, %17 : tensor<256x1x!tt.ptr<f32>>, tensor<256x1xi32> loc(#loc16)
    %20 = tt.splat %1 : i1 -> tensor<256x1xi1> loc(#loc17)
    %21 = arith.andi %9, %20 : tensor<256x1xi1> loc(#loc17)
    %22 = tt.load %19, %21 evictionPolicy = evict_last : tensor<256x1x!tt.ptr<f32>> loc(#loc18)
    %23 = tt.addptr %arg1, %10 : !tt.ptr<f32>, i32 loc(#loc19)
    %24 = tt.splat %23 : !tt.ptr<f32> -> tensor<1x1x!tt.ptr<f32>> loc(#loc19)
    %25 = tt.load %24, %2 evictionPolicy = evict_last : tensor<1x1x!tt.ptr<f32>> loc(#loc20)
    %26 = tt.addptr %arg2, %10 : !tt.ptr<f32>, i32 loc(#loc21)
    %27 = tt.splat %26 : !tt.ptr<f32> -> tensor<1x1x!tt.ptr<f32>> loc(#loc21)
    %28 = tt.load %27, %2 evictionPolicy = evict_last : tensor<1x1x!tt.ptr<f32>> loc(#loc22)
    %29 = tt.addptr %arg3, %10 : !tt.ptr<f32>, i32 loc(#loc23)
    %30 = tt.splat %29 : !tt.ptr<f32> -> tensor<1x1x!tt.ptr<f32>> loc(#loc23)
    %31 = tt.load %30, %2 evictionPolicy = evict_last : tensor<1x1x!tt.ptr<f32>> loc(#loc24)
    %32 = tt.addptr %arg4, %10 : !tt.ptr<f32>, i32 loc(#loc25)
    %33 = tt.splat %32 : !tt.ptr<f32> -> tensor<1x1x!tt.ptr<f32>> loc(#loc25)
    %34 = tt.load %33, %2 evictionPolicy = evict_last : tensor<1x1x!tt.ptr<f32>> loc(#loc26)
    %35 = tt.broadcast %25 : tensor<1x1xf32> -> tensor<256x1xf32> loc(#loc27)
    %36 = arith.subf %22, %35 : tensor<256x1xf32> loc(#loc27)
    %37 = arith.addf %28, %cst_0 : tensor<1x1xf32> loc(#loc28)
    %38 = tt.extern_elementwise %37 {libname = "", libpath = "", pure = true, symbol = "__nv_sqrtf"} : (tensor<1x1xf32>) -> tensor<1x1xf32> loc(#loc29)
    %39 = arith.divf %cst, %38 : tensor<1x1xf32> loc(#loc30)
    %40 = tt.broadcast %39 : tensor<1x1xf32> -> tensor<256x1xf32> loc(#loc31)
    %41 = arith.mulf %36, %40 : tensor<256x1xf32> loc(#loc31)
    %42 = tt.broadcast %31 : tensor<1x1xf32> -> tensor<256x1xf32> loc(#loc32)
    %43 = arith.mulf %41, %42 : tensor<256x1xf32> loc(#loc32)
    %44 = tt.broadcast %34 : tensor<1x1xf32> -> tensor<256x1xf32> loc(#loc33)
    %45 = arith.addf %43, %44 : tensor<256x1xf32> loc(#loc33)
    %46 = arith.muli %0, %c256_i32 : i32 loc(#loc34)
    %47 = tt.splat %46 : i32 -> tensor<256x1xi32> loc(#loc35)
    %48 = arith.addi %8, %47 : tensor<256x1xi32> loc(#loc35)
    %49 = tt.splat %arg5 : !tt.ptr<f32> -> tensor<256x1x!tt.ptr<f32>> loc(#loc36)
    %50 = tt.addptr %49, %48 : tensor<256x1x!tt.ptr<f32>>, tensor<256x1xi32> loc(#loc36)
    tt.store %50, %45, %21 : tensor<256x1x!tt.ptr<f32>> loc(#loc37)
    %51 = tt.splat %arg6 : !tt.ptr<f32> -> tensor<256x1x!tt.ptr<f32>> loc(#loc38)
    %52 = tt.addptr %51, %17 : tensor<256x1x!tt.ptr<f32>>, tensor<256x1xi32> loc(#loc38)
    tt.store %52, %45, %21 : tensor<256x1x!tt.ptr<f32>> loc(#loc39)
    tt.return loc(#loc40)
  } loc(#loc)
} loc(#loc)
#loc1 = loc(unknown)
#loc2 = loc("inductor_cache/7i/c7i7nzsr6uv3xcq37rnjygfzzkamdjueguim65etbtduy3ztnjim.py":22:28)
#loc3 = loc("inductor_cache/7i/c7i7nzsr6uv3xcq37rnjygfzzkamdjueguim65etbtduy3ztnjim.py":24:21)
#loc4 = loc("inductor_cache/7i/c7i7nzsr6uv3xcq37rnjygfzzkamdjueguim65etbtduy3ztnjim.py":25:28)
#loc5 = loc("inductor_cache/7i/c7i7nzsr6uv3xcq37rnjygfzzkamdjueguim65etbtduy3ztnjim.py":25:33)
#loc6 = loc("inductor_cache/7i/c7i7nzsr6uv3xcq37rnjygfzzkamdjueguim65etbtduy3ztnjim.py":26:36)
#loc7 = loc("inductor_cache/7i/c7i7nzsr6uv3xcq37rnjygfzzkamdjueguim65etbtduy3ztnjim.py":26:44)
#loc8 = loc("inductor_cache/7i/c7i7nzsr6uv3xcq37rnjygfzzkamdjueguim65etbtduy3ztnjim.py":26:23)
#loc9 = loc("inductor_cache/7i/c7i7nzsr6uv3xcq37rnjygfzzkamdjueguim65etbtduy3ztnjim.py":27:21)
#loc10 = loc("inductor_cache/7i/c7i7nzsr6uv3xcq37rnjygfzzkamdjueguim65etbtduy3ztnjim.py":29:19)
#loc11 = loc("inductor_cache/7i/c7i7nzsr6uv3xcq37rnjygfzzkamdjueguim65etbtduy3ztnjim.py":30:19)
#loc12 = loc("inductor_cache/7i/c7i7nzsr6uv3xcq37rnjygfzzkamdjueguim65etbtduy3ztnjim.py":32:38)
#loc13 = loc("inductor_cache/7i/c7i7nzsr6uv3xcq37rnjygfzzkamdjueguim65etbtduy3ztnjim.py":32:35)
#loc14 = loc("inductor_cache/7i/c7i7nzsr6uv3xcq37rnjygfzzkamdjueguim65etbtduy3ztnjim.py":32:48)
#loc15 = loc("inductor_cache/7i/c7i7nzsr6uv3xcq37rnjygfzzkamdjueguim65etbtduy3ztnjim.py":32:43)
#loc16 = loc("inductor_cache/7i/c7i7nzsr6uv3xcq37rnjygfzzkamdjueguim65etbtduy3ztnjim.py":32:30)
#loc17 = loc("inductor_cache/7i/c7i7nzsr6uv3xcq37rnjygfzzkamdjueguim65etbtduy3ztnjim.py":32:61)
#loc18 = loc("inductor_cache/7i/c7i7nzsr6uv3xcq37rnjygfzzkamdjueguim65etbtduy3ztnjim.py":32:53)
#loc19 = loc("inductor_cache/7i/c7i7nzsr6uv3xcq37rnjygfzzkamdjueguim65etbtduy3ztnjim.py":33:30)
#loc20 = loc("inductor_cache/7i/c7i7nzsr6uv3xcq37rnjygfzzkamdjueguim65etbtduy3ztnjim.py":33:35)
#loc21 = loc("inductor_cache/7i/c7i7nzsr6uv3xcq37rnjygfzzkamdjueguim65etbtduy3ztnjim.py":34:30)
#loc22 = loc("inductor_cache/7i/c7i7nzsr6uv3xcq37rnjygfzzkamdjueguim65etbtduy3ztnjim.py":34:35)
#loc23 = loc("inductor_cache/7i/c7i7nzsr6uv3xcq37rnjygfzzkamdjueguim65etbtduy3ztnjim.py":35:31)
#loc24 = loc("inductor_cache/7i/c7i7nzsr6uv3xcq37rnjygfzzkamdjueguim65etbtduy3ztnjim.py":35:36)
#loc25 = loc("inductor_cache/7i/c7i7nzsr6uv3xcq37rnjygfzzkamdjueguim65etbtduy3ztnjim.py":36:31)
#loc26 = loc("inductor_cache/7i/c7i7nzsr6uv3xcq37rnjygfzzkamdjueguim65etbtduy3ztnjim.py":36:36)
#loc27 = loc("inductor_cache/7i/c7i7nzsr6uv3xcq37rnjygfzzkamdjueguim65etbtduy3ztnjim.py":37:18)
#loc28 = loc("inductor_cache/7i/c7i7nzsr6uv3xcq37rnjygfzzkamdjueguim65etbtduy3ztnjim.py":39:18)
#loc29 = loc("inductor_cache/7i/c7i7nzsr6uv3xcq37rnjygfzzkamdjueguim65etbtduy3ztnjim.py":40:26)
#loc30 = loc("inductor_cache/7i/c7i7nzsr6uv3xcq37rnjygfzzkamdjueguim65etbtduy3ztnjim.py":42:18)
#loc31 = loc("inductor_cache/7i/c7i7nzsr6uv3xcq37rnjygfzzkamdjueguim65etbtduy3ztnjim.py":45:19)
#loc32 = loc("inductor_cache/7i/c7i7nzsr6uv3xcq37rnjygfzzkamdjueguim65etbtduy3ztnjim.py":46:20)
#loc33 = loc("inductor_cache/7i/c7i7nzsr6uv3xcq37rnjygfzzkamdjueguim65etbtduy3ztnjim.py":47:20)
#loc34 = loc("inductor_cache/7i/c7i7nzsr6uv3xcq37rnjygfzzkamdjueguim65etbtduy3ztnjim.py":48:34)
#loc35 = loc("inductor_cache/7i/c7i7nzsr6uv3xcq37rnjygfzzkamdjueguim65etbtduy3ztnjim.py":48:30)
#loc36 = loc("inductor_cache/7i/c7i7nzsr6uv3xcq37rnjygfzzkamdjueguim65etbtduy3ztnjim.py":48:25)
#loc37 = loc("inductor_cache/7i/c7i7nzsr6uv3xcq37rnjygfzzkamdjueguim65etbtduy3ztnjim.py":48:46)
#loc38 = loc("inductor_cache/7i/c7i7nzsr6uv3xcq37rnjygfzzkamdjueguim65etbtduy3ztnjim.py":49:25)
#loc39 = loc("inductor_cache/7i/c7i7nzsr6uv3xcq37rnjygfzzkamdjueguim65etbtduy3ztnjim.py":49:55)
#loc40 = loc("inductor_cache/7i/c7i7nzsr6uv3xcq37rnjygfzzkamdjueguim65etbtduy3ztnjim.py":49:4)
