#loc = loc("inductor_cache/5g/c5gj43uweoyuxy6ccp6qvihdlrs3tvorlefxfdt5fk7kltkc2ymo.py":19:0)
#loc1 = loc(unknown)
#loc19 = loc("inductor_cache/5g/c5gj43uweoyuxy6ccp6qvihdlrs3tvorlefxfdt5fk7kltkc2ymo.py":36:24)
#loc28 = loc(callsite(#loc1 at #loc19))
module {
  tt.func public @triton_per_fused_linalg_vector_norm_32(%arg0: !tt.ptr<f32> {tt.divisibility = 16 : i32} loc("inductor_cache/5g/c5gj43uweoyuxy6ccp6qvihdlrs3tvorlefxfdt5fk7kltkc2ymo.py":19:0), %arg1: !tt.ptr<f32> {tt.divisibility = 16 : i32} loc("inductor_cache/5g/c5gj43uweoyuxy6ccp6qvihdlrs3tvorlefxfdt5fk7kltkc2ymo.py":19:0), %arg2: i32 {tt.divisibility = 16 : i32} loc("inductor_cache/5g/c5gj43uweoyuxy6ccp6qvihdlrs3tvorlefxfdt5fk7kltkc2ymo.py":19:0), %arg3: i32 {tt.divisibility = 16 : i32} loc("inductor_cache/5g/c5gj43uweoyuxy6ccp6qvihdlrs3tvorlefxfdt5fk7kltkc2ymo.py":19:0)) attributes {noinline = false} {
    %cst = arith.constant dense<262144> : tensor<8x1xi32> loc(#loc1)
    %cst_0 = arith.constant dense<4096> : tensor<1x64xi32> loc(#loc1)
    %cst_1 = arith.constant dense<4096> : tensor<8x1xi32> loc(#loc1)
    %c8_i32 = arith.constant 8 : i32 loc(#loc1)
    %0 = tt.get_program_id x : i32 loc(#loc2)
    %1 = arith.muli %0, %c8_i32 : i32 loc(#loc3)
    %2 = tt.make_range {end = 8 : i32, start = 0 : i32} : tensor<8xi32> loc(#loc4)
    %3 = tt.expand_dims %2 {axis = 1 : i32} : tensor<8xi32> -> tensor<8x1xi32> loc(#loc5)
    %4 = tt.splat %1 : i32 -> tensor<8x1xi32> loc(#loc6)
    %5 = arith.addi %4, %3 : tensor<8x1xi32> loc(#loc6)
    %6 = tt.make_range {end = 64 : i32, start = 0 : i32} : tensor<64xi32> loc(#loc7)
    %7 = tt.expand_dims %6 {axis = 0 : i32} : tensor<64xi32> -> tensor<1x64xi32> loc(#loc8)
    %8 = arith.remsi %5, %cst_1 : tensor<8x1xi32> loc(#loc9)
    %9 = arith.divsi %5, %cst_1 : tensor<8x1xi32> loc(#loc10)
    %10 = arith.muli %7, %cst_0 : tensor<1x64xi32> loc(#loc11)
    %11 = tt.broadcast %8 : tensor<8x1xi32> -> tensor<8x64xi32> loc(#loc12)
    %12 = tt.broadcast %10 : tensor<1x64xi32> -> tensor<8x64xi32> loc(#loc12)
    %13 = arith.addi %11, %12 : tensor<8x64xi32> loc(#loc12)
    %14 = arith.muli %9, %cst : tensor<8x1xi32> loc(#loc13)
    %15 = tt.broadcast %14 : tensor<8x1xi32> -> tensor<8x64xi32> loc(#loc14)
    %16 = arith.addi %13, %15 : tensor<8x64xi32> loc(#loc14)
    %17 = tt.splat %arg1 : !tt.ptr<f32> -> tensor<8x64x!tt.ptr<f32>> loc(#loc15)
    %18 = tt.addptr %17, %16 : tensor<8x64x!tt.ptr<f32>>, tensor<8x64xi32> loc(#loc15)
    %19 = tt.load %18 : tensor<8x64x!tt.ptr<f32>> loc(#loc16)
    %20 = arith.mulf %19, %19 : tensor<8x64xf32> loc(#loc17)
    %21 = "tt.reduce"(%20) <{axis = 1 : i32}> ({
    ^bb0(%arg4: f32 loc(callsite(#loc1 at #loc19)), %arg5: f32 loc(callsite(#loc1 at #loc19))):
      %26 = arith.addf %arg4, %arg5 : f32 loc(#loc30)
      tt.reduce.return %26 : f32 loc(#loc27)
    }) : (tensor<8x64xf32>) -> tensor<8xf32> loc(#loc27)
    %22 = tt.expand_dims %21 {axis = 1 : i32} : tensor<8xf32> -> tensor<8x1xf32> loc(#loc21)
    %23 = tt.extern_elementwise %22 {libname = "", libpath = "", pure = true, symbol = "__nv_sqrtf"} : (tensor<8x1xf32>) -> tensor<8x1xf32> loc(#loc22)
    gpu.barrier loc(#loc23)
    %24 = tt.splat %arg0 : !tt.ptr<f32> -> tensor<8x1x!tt.ptr<f32>> loc(#loc24)
    %25 = tt.addptr %24, %5 : tensor<8x1x!tt.ptr<f32>>, tensor<8x1xi32> loc(#loc24)
    tt.store %25, %23 : tensor<8x1x!tt.ptr<f32>> loc(#loc25)
    tt.return loc(#loc26)
  } loc(#loc)
} loc(#loc)
#loc2 = loc("inductor_cache/5g/c5gj43uweoyuxy6ccp6qvihdlrs3tvorlefxfdt5fk7kltkc2ymo.py":23:28)
#loc3 = loc("inductor_cache/5g/c5gj43uweoyuxy6ccp6qvihdlrs3tvorlefxfdt5fk7kltkc2ymo.py":23:33)
#loc4 = loc("inductor_cache/5g/c5gj43uweoyuxy6ccp6qvihdlrs3tvorlefxfdt5fk7kltkc2ymo.py":24:36)
#loc5 = loc("inductor_cache/5g/c5gj43uweoyuxy6ccp6qvihdlrs3tvorlefxfdt5fk7kltkc2ymo.py":24:44)
#loc6 = loc("inductor_cache/5g/c5gj43uweoyuxy6ccp6qvihdlrs3tvorlefxfdt5fk7kltkc2ymo.py":24:23)
#loc7 = loc("inductor_cache/5g/c5gj43uweoyuxy6ccp6qvihdlrs3tvorlefxfdt5fk7kltkc2ymo.py":26:26)
#loc8 = loc("inductor_cache/5g/c5gj43uweoyuxy6ccp6qvihdlrs3tvorlefxfdt5fk7kltkc2ymo.py":26:34)
#loc9 = loc("inductor_cache/5g/c5gj43uweoyuxy6ccp6qvihdlrs3tvorlefxfdt5fk7kltkc2ymo.py":30:19)
#loc10 = loc("inductor_cache/5g/c5gj43uweoyuxy6ccp6qvihdlrs3tvorlefxfdt5fk7kltkc2ymo.py":31:19)
#loc11 = loc("inductor_cache/5g/c5gj43uweoyuxy6ccp6qvihdlrs3tvorlefxfdt5fk7kltkc2ymo.py":33:40)
#loc12 = loc("inductor_cache/5g/c5gj43uweoyuxy6ccp6qvihdlrs3tvorlefxfdt5fk7kltkc2ymo.py":33:35)
#loc13 = loc("inductor_cache/5g/c5gj43uweoyuxy6ccp6qvihdlrs3tvorlefxfdt5fk7kltkc2ymo.py":33:52)
#loc14 = loc("inductor_cache/5g/c5gj43uweoyuxy6ccp6qvihdlrs3tvorlefxfdt5fk7kltkc2ymo.py":33:45)
#loc15 = loc("inductor_cache/5g/c5gj43uweoyuxy6ccp6qvihdlrs3tvorlefxfdt5fk7kltkc2ymo.py":33:30)
#loc16 = loc("inductor_cache/5g/c5gj43uweoyuxy6ccp6qvihdlrs3tvorlefxfdt5fk7kltkc2ymo.py":33:57)
#loc17 = loc("inductor_cache/5g/c5gj43uweoyuxy6ccp6qvihdlrs3tvorlefxfdt5fk7kltkc2ymo.py":34:18)
#loc18 = loc("/home/sahanp/.conda/envs/parity-bench/lib/python3.12/site-packages/triton/language/standard.py":267:36)
#loc20 = loc("/home/sahanp/.conda/envs/parity-bench/lib/python3.12/site-packages/triton/language/standard.py":256:15)
#loc21 = loc("inductor_cache/5g/c5gj43uweoyuxy6ccp6qvihdlrs3tvorlefxfdt5fk7kltkc2ymo.py":36:27)
#loc22 = loc("inductor_cache/5g/c5gj43uweoyuxy6ccp6qvihdlrs3tvorlefxfdt5fk7kltkc2ymo.py":37:26)
#loc23 = loc("inductor_cache/5g/c5gj43uweoyuxy6ccp6qvihdlrs3tvorlefxfdt5fk7kltkc2ymo.py":38:4)
#loc24 = loc("inductor_cache/5g/c5gj43uweoyuxy6ccp6qvihdlrs3tvorlefxfdt5fk7kltkc2ymo.py":39:28)
#loc25 = loc("inductor_cache/5g/c5gj43uweoyuxy6ccp6qvihdlrs3tvorlefxfdt5fk7kltkc2ymo.py":39:39)
#loc26 = loc("inductor_cache/5g/c5gj43uweoyuxy6ccp6qvihdlrs3tvorlefxfdt5fk7kltkc2ymo.py":39:4)
#loc27 = loc(callsite(#loc18 at #loc19))
#loc29 = loc(callsite(#loc20 at #loc18))
#loc30 = loc(callsite(#loc29 at #loc19))
