#loc = loc("inductor_cache/nr/cnry26sqz2cg2oiskn35nljba722pufarbvuedbq5mfqjk4mribt.py":19:0)
module {
  tt.func public @triton_poi_fused__unsafe_index_constant_pad_nd_0(%arg0: !tt.ptr<f32> {tt.divisibility = 16 : i32} loc("inductor_cache/nr/cnry26sqz2cg2oiskn35nljba722pufarbvuedbq5mfqjk4mribt.py":19:0), %arg1: !tt.ptr<f32> {tt.divisibility = 16 : i32} loc("inductor_cache/nr/cnry26sqz2cg2oiskn35nljba722pufarbvuedbq5mfqjk4mribt.py":19:0), %arg2: i32 {tt.divisibility = 16 : i32} loc("inductor_cache/nr/cnry26sqz2cg2oiskn35nljba722pufarbvuedbq5mfqjk4mribt.py":19:0)) attributes {noinline = false} {
    %cst = arith.constant dense<0.000000e+00> : tensor<256xf32> loc(#loc1)
    %cst_0 = arith.constant dense<16> : tensor<256xi32> loc(#loc1)
    %cst_1 = arith.constant dense<0> : tensor<256xi32> loc(#loc1)
    %cst_2 = arith.constant dense<4> : tensor<256xi32> loc(#loc1)
    %cst_3 = arith.constant dense<5.000000e-01> : tensor<256xf32> loc(#loc1)
    %cst_4 = arith.constant dense<8> : tensor<256xi64> loc(#loc1)
    %cst_5 = arith.constant dense<0> : tensor<256xi64> loc(#loc1)
    %cst_6 = arith.constant dense<-11> : tensor<256xi32> loc(#loc1)
    %cst_7 = arith.constant dense<900> : tensor<256xi32> loc(#loc1)
    %cst_8 = arith.constant dense<30> : tensor<256xi32> loc(#loc1)
    %cst_9 = arith.constant dense<14400> : tensor<256xi32> loc(#loc1)
    %c256_i32 = arith.constant 256 : i32 loc(#loc1)
    %0 = tt.get_program_id x : i32 loc(#loc2)
    %1 = arith.muli %0, %c256_i32 : i32 loc(#loc3)
    %2 = tt.make_range {end = 256 : i32, start = 0 : i32} : tensor<256xi32> loc(#loc4)
    %3 = tt.splat %1 : i32 -> tensor<256xi32> loc(#loc5)
    %4 = arith.addi %3, %2 : tensor<256xi32> loc(#loc5)
    %5 = arith.cmpi slt, %4, %cst_9 : tensor<256xi32> loc(#loc6)
    %6 = arith.divsi %4, %cst_8 : tensor<256xi32> loc(#loc7)
    %7 = arith.remsi %6, %cst_8 : tensor<256xi32> loc(#loc8)
    %8 = arith.remsi %4, %cst_8 : tensor<256xi32> loc(#loc9)
    %9 = arith.divsi %4, %cst_7 : tensor<256xi32> loc(#loc10)
    %10 = arith.addi %7, %cst_6 : tensor<256xi32> loc(#loc11)
    %11 = arith.extsi %10 : tensor<256xi32> to tensor<256xi64> loc(#loc12)
    %12 = arith.cmpi sge, %11, %cst_5 : tensor<256xi64> loc(#loc12)
    %13 = arith.cmpi slt, %11, %cst_4 : tensor<256xi64> loc(#loc13)
    %14 = arith.addi %8, %cst_6 : tensor<256xi32> loc(#loc14)
    %15 = arith.extsi %14 : tensor<256xi32> to tensor<256xi64> loc(#loc15)
    %16 = arith.cmpi sge, %15, %cst_5 : tensor<256xi64> loc(#loc15)
    %17 = arith.cmpi slt, %15, %cst_4 : tensor<256xi64> loc(#loc16)
    %18 = arith.andi %12, %13 : tensor<256xi1> loc(#loc17)
    %19 = arith.andi %18, %16 : tensor<256xi1> loc(#loc18)
    %20 = arith.andi %19, %17 : tensor<256xi1> loc(#loc19)
    %21 = arith.sitofp %10 : tensor<256xi32> to tensor<256xf32> loc(#loc20)
    %22 = arith.mulf %21, %cst_3 : tensor<256xf32> loc(#loc21)
    %23 = arith.fptosi %22 : tensor<256xf32> to tensor<256xi32> loc(#loc22)
    %24 = arith.addi %23, %cst_2 : tensor<256xi32> loc(#loc23)
    %25 = arith.cmpi slt, %23, %cst_1 : tensor<256xi32> loc(#loc24)
    %26 = arith.select %25, %24, %23 : tensor<256xi1>, tensor<256xi32> loc(#loc25)
    %27 = arith.sitofp %14 : tensor<256xi32> to tensor<256xf32> loc(#loc26)
    %28 = arith.mulf %27, %cst_3 : tensor<256xf32> loc(#loc27)
    %29 = arith.fptosi %28 : tensor<256xf32> to tensor<256xi32> loc(#loc28)
    %30 = arith.addi %29, %cst_2 : tensor<256xi32> loc(#loc29)
    %31 = arith.cmpi slt, %29, %cst_1 : tensor<256xi32> loc(#loc30)
    %32 = arith.select %31, %30, %29 : tensor<256xi1>, tensor<256xi32> loc(#loc31)
    %33 = arith.muli %26, %cst_2 : tensor<256xi32> loc(#loc32)
    %34 = arith.addi %32, %33 : tensor<256xi32> loc(#loc33)
    %35 = arith.muli %9, %cst_0 : tensor<256xi32> loc(#loc34)
    %36 = arith.addi %34, %35 : tensor<256xi32> loc(#loc35)
    %37 = tt.splat %arg0 : !tt.ptr<f32> -> tensor<256x!tt.ptr<f32>> loc(#loc36)
    %38 = tt.addptr %37, %36 : tensor<256x!tt.ptr<f32>>, tensor<256xi32> loc(#loc36)
    %39 = arith.andi %20, %5 : tensor<256xi1> loc(#loc37)
    %40 = tt.load %38, %39, %cst evictionPolicy = evict_last : tensor<256x!tt.ptr<f32>> loc(#loc38)
    %41 = tt.splat %arg1 : !tt.ptr<f32> -> tensor<256x!tt.ptr<f32>> loc(#loc39)
    %42 = tt.addptr %41, %4 : tensor<256x!tt.ptr<f32>>, tensor<256xi32> loc(#loc39)
    tt.store %42, %40, %5 : tensor<256x!tt.ptr<f32>> loc(#loc40)
    tt.return loc(#loc41)
  } loc(#loc)
} loc(#loc)
#loc1 = loc(unknown)
#loc2 = loc("inductor_cache/nr/cnry26sqz2cg2oiskn35nljba722pufarbvuedbq5mfqjk4mribt.py":21:28)
#loc3 = loc("inductor_cache/nr/cnry26sqz2cg2oiskn35nljba722pufarbvuedbq5mfqjk4mribt.py":21:33)
#loc4 = loc("inductor_cache/nr/cnry26sqz2cg2oiskn35nljba722pufarbvuedbq5mfqjk4mribt.py":22:36)
#loc5 = loc("inductor_cache/nr/cnry26sqz2cg2oiskn35nljba722pufarbvuedbq5mfqjk4mribt.py":22:23)
#loc6 = loc("inductor_cache/nr/cnry26sqz2cg2oiskn35nljba722pufarbvuedbq5mfqjk4mribt.py":23:21)
#loc7 = loc("inductor_cache/nr/cnry26sqz2cg2oiskn35nljba722pufarbvuedbq5mfqjk4mribt.py":24:21)
#loc8 = loc("inductor_cache/nr/cnry26sqz2cg2oiskn35nljba722pufarbvuedbq5mfqjk4mribt.py":24:27)
#loc9 = loc("inductor_cache/nr/cnry26sqz2cg2oiskn35nljba722pufarbvuedbq5mfqjk4mribt.py":25:19)
#loc10 = loc("inductor_cache/nr/cnry26sqz2cg2oiskn35nljba722pufarbvuedbq5mfqjk4mribt.py":26:19)
#loc11 = loc("inductor_cache/nr/cnry26sqz2cg2oiskn35nljba722pufarbvuedbq5mfqjk4mribt.py":28:19)
#loc12 = loc("inductor_cache/nr/cnry26sqz2cg2oiskn35nljba722pufarbvuedbq5mfqjk4mribt.py":30:19)
#loc13 = loc("inductor_cache/nr/cnry26sqz2cg2oiskn35nljba722pufarbvuedbq5mfqjk4mribt.py":32:18)
#loc14 = loc("inductor_cache/nr/cnry26sqz2cg2oiskn35nljba722pufarbvuedbq5mfqjk4mribt.py":33:19)
#loc15 = loc("inductor_cache/nr/cnry26sqz2cg2oiskn35nljba722pufarbvuedbq5mfqjk4mribt.py":34:19)
#loc16 = loc("inductor_cache/nr/cnry26sqz2cg2oiskn35nljba722pufarbvuedbq5mfqjk4mribt.py":35:18)
#loc17 = loc("inductor_cache/nr/cnry26sqz2cg2oiskn35nljba722pufarbvuedbq5mfqjk4mribt.py":36:18)
#loc18 = loc("inductor_cache/nr/cnry26sqz2cg2oiskn35nljba722pufarbvuedbq5mfqjk4mribt.py":37:18)
#loc19 = loc("inductor_cache/nr/cnry26sqz2cg2oiskn35nljba722pufarbvuedbq5mfqjk4mribt.py":38:19)
#loc20 = loc("inductor_cache/nr/cnry26sqz2cg2oiskn35nljba722pufarbvuedbq5mfqjk4mribt.py":40:21)
#loc21 = loc("inductor_cache/nr/cnry26sqz2cg2oiskn35nljba722pufarbvuedbq5mfqjk4mribt.py":42:20)
#loc22 = loc("inductor_cache/nr/cnry26sqz2cg2oiskn35nljba722pufarbvuedbq5mfqjk4mribt.py":43:21)
#loc23 = loc("inductor_cache/nr/cnry26sqz2cg2oiskn35nljba722pufarbvuedbq5mfqjk4mribt.py":45:20)
#loc24 = loc("inductor_cache/nr/cnry26sqz2cg2oiskn35nljba722pufarbvuedbq5mfqjk4mribt.py":46:20)
#loc25 = loc("inductor_cache/nr/cnry26sqz2cg2oiskn35nljba722pufarbvuedbq5mfqjk4mribt.py":47:35)
#loc26 = loc("inductor_cache/nr/cnry26sqz2cg2oiskn35nljba722pufarbvuedbq5mfqjk4mribt.py":49:21)
#loc27 = loc("inductor_cache/nr/cnry26sqz2cg2oiskn35nljba722pufarbvuedbq5mfqjk4mribt.py":50:20)
#loc28 = loc("inductor_cache/nr/cnry26sqz2cg2oiskn35nljba722pufarbvuedbq5mfqjk4mribt.py":51:21)
#loc29 = loc("inductor_cache/nr/cnry26sqz2cg2oiskn35nljba722pufarbvuedbq5mfqjk4mribt.py":52:20)
#loc30 = loc("inductor_cache/nr/cnry26sqz2cg2oiskn35nljba722pufarbvuedbq5mfqjk4mribt.py":53:20)
#loc31 = loc("inductor_cache/nr/cnry26sqz2cg2oiskn35nljba722pufarbvuedbq5mfqjk4mribt.py":54:35)
#loc32 = loc("inductor_cache/nr/cnry26sqz2cg2oiskn35nljba722pufarbvuedbq5mfqjk4mribt.py":55:41)
#loc33 = loc("inductor_cache/nr/cnry26sqz2cg2oiskn35nljba722pufarbvuedbq5mfqjk4mribt.py":55:39)
#loc34 = loc("inductor_cache/nr/cnry26sqz2cg2oiskn35nljba722pufarbvuedbq5mfqjk4mribt.py":55:52)
#loc35 = loc("inductor_cache/nr/cnry26sqz2cg2oiskn35nljba722pufarbvuedbq5mfqjk4mribt.py":55:49)
#loc36 = loc("inductor_cache/nr/cnry26sqz2cg2oiskn35nljba722pufarbvuedbq5mfqjk4mribt.py":55:31)
#loc37 = loc("inductor_cache/nr/cnry26sqz2cg2oiskn35nljba722pufarbvuedbq5mfqjk4mribt.py":55:65)
#loc38 = loc("inductor_cache/nr/cnry26sqz2cg2oiskn35nljba722pufarbvuedbq5mfqjk4mribt.py":55:57)
#loc39 = loc("inductor_cache/nr/cnry26sqz2cg2oiskn35nljba722pufarbvuedbq5mfqjk4mribt.py":56:25)
#loc40 = loc("inductor_cache/nr/cnry26sqz2cg2oiskn35nljba722pufarbvuedbq5mfqjk4mribt.py":56:37)
#loc41 = loc("inductor_cache/nr/cnry26sqz2cg2oiskn35nljba722pufarbvuedbq5mfqjk4mribt.py":56:4)
