#loc = loc("inductor_cache/o7/co7x7kqqzgklgzu3xxht7p5qz43ownc4yewd6kvaa7zclzyojfm3.py":19:0)
module {
  tt.func public @triton_poi_fused_avg_pool2d_constant_pad_nd_1(%arg0: !tt.ptr<f32> {tt.divisibility = 16 : i32} loc("inductor_cache/o7/co7x7kqqzgklgzu3xxht7p5qz43ownc4yewd6kvaa7zclzyojfm3.py":19:0), %arg1: !tt.ptr<f32> {tt.divisibility = 16 : i32} loc("inductor_cache/o7/co7x7kqqzgklgzu3xxht7p5qz43ownc4yewd6kvaa7zclzyojfm3.py":19:0), %arg2: i32 {tt.divisibility = 16 : i32} loc("inductor_cache/o7/co7x7kqqzgklgzu3xxht7p5qz43ownc4yewd6kvaa7zclzyojfm3.py":19:0)) attributes {noinline = false} {
    %cst = arith.constant dense<0.000000e+00> : tensor<64xf32> loc(#loc1)
    %cst_0 = arith.constant dense<8> : tensor<64xi32> loc(#loc1)
    %cst_1 = arith.constant dense<5> : tensor<64xi32> loc(#loc1)
    %cst_2 = arith.constant dense<3> : tensor<64xi64> loc(#loc1)
    %cst_3 = arith.constant dense<2> : tensor<64xi32> loc(#loc1)
    %cst_4 = arith.constant dense<64> : tensor<64xi32> loc(#loc1)
    %c64_i32 = arith.constant 64 : i32 loc(#loc1)
    %0 = tt.get_program_id x : i32 loc(#loc2)
    %1 = arith.muli %0, %c64_i32 : i32 loc(#loc3)
    %2 = tt.make_range {end = 64 : i32, start = 0 : i32} : tensor<64xi32> loc(#loc4)
    %3 = tt.splat %1 : i32 -> tensor<64xi32> loc(#loc5)
    %4 = arith.addi %3, %2 : tensor<64xi32> loc(#loc5)
    %5 = arith.cmpi slt, %4, %cst_4 : tensor<64xi32> loc(#loc6)
    %6 = arith.divsi %4, %cst_3 : tensor<64xi32> loc(#loc7)
    %7 = arith.remsi %6, %cst_3 : tensor<64xi32> loc(#loc8)
    %8 = arith.remsi %4, %cst_3 : tensor<64xi32> loc(#loc9)
    %9 = arith.muli %7, %cst_3 : tensor<64xi32> loc(#loc10)
    %10 = arith.extsi %9 : tensor<64xi32> to tensor<64xi64> loc(#loc11)
    %11 = arith.cmpi slt, %10, %cst_2 : tensor<64xi64> loc(#loc11)
    %12 = arith.muli %8, %cst_3 : tensor<64xi32> loc(#loc12)
    %13 = arith.extsi %12 : tensor<64xi32> to tensor<64xi64> loc(#loc13)
    %14 = arith.cmpi slt, %13, %cst_2 : tensor<64xi64> loc(#loc13)
    %15 = arith.andi %11, %14 : tensor<64xi1> loc(#loc14)
    %16 = arith.addi %12, %cst_1 : tensor<64xi32> loc(#loc15)
    %17 = arith.muli %6, %cst_0 : tensor<64xi32> loc(#loc16)
    %18 = arith.addi %16, %17 : tensor<64xi32> loc(#loc17)
    %19 = tt.splat %arg0 : !tt.ptr<f32> -> tensor<64x!tt.ptr<f32>> loc(#loc18)
    %20 = tt.addptr %19, %18 : tensor<64x!tt.ptr<f32>>, tensor<64xi32> loc(#loc18)
    %21 = arith.andi %15, %5 : tensor<64xi1> loc(#loc19)
    %22 = tt.load %20, %21, %cst evictionPolicy = evict_last : tensor<64x!tt.ptr<f32>> loc(#loc20)
    %23 = arith.cmpf ogt, %cst, %22 : tensor<64xf32> loc(#loc28)
    %24 = arith.select %23, %cst, %22 : tensor<64xi1>, tensor<64xf32> loc(#loc29)
    %25 = arith.select %15, %24, %cst : tensor<64xi1>, tensor<64xf32> loc(#loc24)
    %26 = tt.splat %arg1 : !tt.ptr<f32> -> tensor<64x!tt.ptr<f32>> loc(#loc25)
    %27 = tt.addptr %26, %4 : tensor<64x!tt.ptr<f32>>, tensor<64xi32> loc(#loc25)
    tt.store %27, %25, %5 : tensor<64x!tt.ptr<f32>> loc(#loc26)
    tt.return loc(#loc27)
  } loc(#loc)
} loc(#loc)
#loc1 = loc(unknown)
#loc2 = loc("inductor_cache/o7/co7x7kqqzgklgzu3xxht7p5qz43ownc4yewd6kvaa7zclzyojfm3.py":21:28)
#loc3 = loc("inductor_cache/o7/co7x7kqqzgklgzu3xxht7p5qz43ownc4yewd6kvaa7zclzyojfm3.py":21:33)
#loc4 = loc("inductor_cache/o7/co7x7kqqzgklgzu3xxht7p5qz43ownc4yewd6kvaa7zclzyojfm3.py":22:36)
#loc5 = loc("inductor_cache/o7/co7x7kqqzgklgzu3xxht7p5qz43ownc4yewd6kvaa7zclzyojfm3.py":22:23)
#loc6 = loc("inductor_cache/o7/co7x7kqqzgklgzu3xxht7p5qz43ownc4yewd6kvaa7zclzyojfm3.py":23:21)
#loc7 = loc("inductor_cache/o7/co7x7kqqzgklgzu3xxht7p5qz43ownc4yewd6kvaa7zclzyojfm3.py":24:21)
#loc8 = loc("inductor_cache/o7/co7x7kqqzgklgzu3xxht7p5qz43ownc4yewd6kvaa7zclzyojfm3.py":24:26)
#loc9 = loc("inductor_cache/o7/co7x7kqqzgklgzu3xxht7p5qz43ownc4yewd6kvaa7zclzyojfm3.py":25:19)
#loc10 = loc("inductor_cache/o7/co7x7kqqzgklgzu3xxht7p5qz43ownc4yewd6kvaa7zclzyojfm3.py":28:13)
#loc11 = loc("inductor_cache/o7/co7x7kqqzgklgzu3xxht7p5qz43ownc4yewd6kvaa7zclzyojfm3.py":30:18)
#loc12 = loc("inductor_cache/o7/co7x7kqqzgklgzu3xxht7p5qz43ownc4yewd6kvaa7zclzyojfm3.py":31:13)
#loc13 = loc("inductor_cache/o7/co7x7kqqzgklgzu3xxht7p5qz43ownc4yewd6kvaa7zclzyojfm3.py":32:18)
#loc14 = loc("inductor_cache/o7/co7x7kqqzgklgzu3xxht7p5qz43ownc4yewd6kvaa7zclzyojfm3.py":33:18)
#loc15 = loc("inductor_cache/o7/co7x7kqqzgklgzu3xxht7p5qz43ownc4yewd6kvaa7zclzyojfm3.py":34:34)
#loc16 = loc("inductor_cache/o7/co7x7kqqzgklgzu3xxht7p5qz43ownc4yewd6kvaa7zclzyojfm3.py":34:43)
#loc17 = loc("inductor_cache/o7/co7x7kqqzgklgzu3xxht7p5qz43ownc4yewd6kvaa7zclzyojfm3.py":34:41)
#loc18 = loc("inductor_cache/o7/co7x7kqqzgklgzu3xxht7p5qz43ownc4yewd6kvaa7zclzyojfm3.py":34:30)
#loc19 = loc("inductor_cache/o7/co7x7kqqzgklgzu3xxht7p5qz43ownc4yewd6kvaa7zclzyojfm3.py":34:55)
#loc20 = loc("inductor_cache/o7/co7x7kqqzgklgzu3xxht7p5qz43ownc4yewd6kvaa7zclzyojfm3.py":34:48)
#loc21 = loc("/home/sahanp/.conda/envs/parity-bench/lib/python3.12/site-packages/torch/_inductor/runtime/triton_helpers.py":118:15)
#loc22 = loc("inductor_cache/o7/co7x7kqqzgklgzu3xxht7p5qz43ownc4yewd6kvaa7zclzyojfm3.py":36:40)
#loc23 = loc("/home/sahanp/.conda/envs/parity-bench/lib/python3.12/site-packages/torch/_inductor/runtime/triton_helpers.py":121:29)
#loc24 = loc("inductor_cache/o7/co7x7kqqzgklgzu3xxht7p5qz43ownc4yewd6kvaa7zclzyojfm3.py":38:33)
#loc25 = loc("inductor_cache/o7/co7x7kqqzgklgzu3xxht7p5qz43ownc4yewd6kvaa7zclzyojfm3.py":41:25)
#loc26 = loc("inductor_cache/o7/co7x7kqqzgklgzu3xxht7p5qz43ownc4yewd6kvaa7zclzyojfm3.py":41:37)
#loc27 = loc("inductor_cache/o7/co7x7kqqzgklgzu3xxht7p5qz43ownc4yewd6kvaa7zclzyojfm3.py":41:4)
#loc28 = loc(callsite(#loc21 at #loc22))
#loc29 = loc(callsite(#loc23 at #loc22))
