#loc = loc("inductor_cache/5q/c5quapj6yypwadh2lvhk2n5ha57ltrqlex73uh4syjzzfk5fnghw.py":19:0)
module {
  tt.func public @triton_poi_fused_clone_7(%arg0: !tt.ptr<f32> {tt.divisibility = 16 : i32} loc("inductor_cache/5q/c5quapj6yypwadh2lvhk2n5ha57ltrqlex73uh4syjzzfk5fnghw.py":19:0), %arg1: !tt.ptr<f32> {tt.divisibility = 16 : i32} loc("inductor_cache/5q/c5quapj6yypwadh2lvhk2n5ha57ltrqlex73uh4syjzzfk5fnghw.py":19:0), %arg2: i32 {tt.divisibility = 16 : i32} loc("inductor_cache/5q/c5quapj6yypwadh2lvhk2n5ha57ltrqlex73uh4syjzzfk5fnghw.py":19:0), %arg3: i32 loc("inductor_cache/5q/c5quapj6yypwadh2lvhk2n5ha57ltrqlex73uh4syjzzfk5fnghw.py":19:0)) attributes {noinline = false} {
    %cst = arith.constant dense<0.000000e+00> : tensor<4x32xf32> loc(#loc1)
    %cst_0 = arith.constant dense<144> : tensor<1x32xi32> loc(#loc1)
    %cst_1 = arith.constant dense<36> : tensor<4x1xi32> loc(#loc1)
    %cst_2 = arith.constant dense<6> : tensor<1x32xi32> loc(#loc1)
    %cst_3 = arith.constant dense<7> : tensor<1x32xi32> loc(#loc1)
    %cst_4 = arith.constant dense<6> : tensor<1x32xi64> loc(#loc1)
    %cst_5 = arith.constant dense<0> : tensor<1x32xi64> loc(#loc1)
    %cst_6 = arith.constant dense<1> : tensor<1x32xi32> loc(#loc1)
    %cst_7 = arith.constant dense<16> : tensor<1x32xi32> loc(#loc1)
    %cst_8 = arith.constant dense<4> : tensor<1x32xi32> loc(#loc1)
    %cst_9 = arith.constant dense<4> : tensor<4x1xi32> loc(#loc1)
    %cst_10 = arith.constant dense<64> : tensor<1x32xi32> loc(#loc1)
    %c32_i32 = arith.constant 32 : i32 loc(#loc1)
    %c4_i32 = arith.constant 4 : i32 loc(#loc1)
    %0 = tt.get_program_id y : i32 loc(#loc2)
    %1 = arith.muli %0, %c32_i32 : i32 loc(#loc3)
    %2 = tt.make_range {end = 32 : i32, start = 0 : i32} : tensor<32xi32> loc(#loc4)
    %3 = tt.expand_dims %2 {axis = 0 : i32} : tensor<32xi32> -> tensor<1x32xi32> loc(#loc5)
    %4 = tt.splat %1 : i32 -> tensor<1x32xi32> loc(#loc6)
    %5 = arith.addi %4, %3 : tensor<1x32xi32> loc(#loc6)
    %6 = arith.cmpi slt, %5, %cst_10 : tensor<1x32xi32> loc(#loc7)
    %7 = tt.get_program_id x : i32 loc(#loc8)
    %8 = arith.muli %7, %c4_i32 : i32 loc(#loc9)
    %9 = tt.make_range {end = 4 : i32, start = 0 : i32} : tensor<4xi32> loc(#loc10)
    %10 = tt.expand_dims %9 {axis = 1 : i32} : tensor<4xi32> -> tensor<4x1xi32> loc(#loc11)
    %11 = tt.splat %8 : i32 -> tensor<4x1xi32> loc(#loc12)
    %12 = arith.addi %11, %10 : tensor<4x1xi32> loc(#loc12)
    %13 = arith.cmpi slt, %12, %cst_9 : tensor<4x1xi32> loc(#loc13)
    %14 = arith.divsi %5, %cst_8 : tensor<1x32xi32> loc(#loc14)
    %15 = arith.remsi %14, %cst_8 : tensor<1x32xi32> loc(#loc15)
    %16 = arith.remsi %5, %cst_8 : tensor<1x32xi32> loc(#loc16)
    %17 = arith.divsi %5, %cst_7 : tensor<1x32xi32> loc(#loc17)
    %18 = arith.addi %15, %cst_6 : tensor<1x32xi32> loc(#loc18)
    %19 = arith.extsi %18 : tensor<1x32xi32> to tensor<1x32xi64> loc(#loc19)
    %20 = arith.cmpi sge, %19, %cst_5 : tensor<1x32xi64> loc(#loc19)
    %21 = arith.cmpi slt, %19, %cst_4 : tensor<1x32xi64> loc(#loc20)
    %22 = arith.addi %16, %cst_6 : tensor<1x32xi32> loc(#loc21)
    %23 = arith.extsi %22 : tensor<1x32xi32> to tensor<1x32xi64> loc(#loc22)
    %24 = arith.cmpi sge, %23, %cst_5 : tensor<1x32xi64> loc(#loc22)
    %25 = arith.cmpi slt, %23, %cst_4 : tensor<1x32xi64> loc(#loc23)
    %26 = arith.andi %20, %21 : tensor<1x32xi1> loc(#loc24)
    %27 = arith.andi %26, %24 : tensor<1x32xi1> loc(#loc25)
    %28 = arith.andi %27, %25 : tensor<1x32xi1> loc(#loc26)
    %29 = arith.addi %16, %cst_3 : tensor<1x32xi32> loc(#loc27)
    %30 = arith.muli %15, %cst_2 : tensor<1x32xi32> loc(#loc28)
    %31 = arith.addi %29, %30 : tensor<1x32xi32> loc(#loc29)
    %32 = arith.muli %12, %cst_1 : tensor<4x1xi32> loc(#loc30)
    %33 = tt.broadcast %31 : tensor<1x32xi32> -> tensor<4x32xi32> loc(#loc31)
    %34 = tt.broadcast %32 : tensor<4x1xi32> -> tensor<4x32xi32> loc(#loc31)
    %35 = arith.addi %33, %34 : tensor<4x32xi32> loc(#loc31)
    %36 = arith.muli %17, %cst_0 : tensor<1x32xi32> loc(#loc32)
    %37 = tt.broadcast %36 : tensor<1x32xi32> -> tensor<4x32xi32> loc(#loc33)
    %38 = arith.addi %35, %37 : tensor<4x32xi32> loc(#loc33)
    %39 = tt.splat %arg0 : !tt.ptr<f32> -> tensor<4x32x!tt.ptr<f32>> loc(#loc34)
    %40 = tt.addptr %39, %38 : tensor<4x32x!tt.ptr<f32>>, tensor<4x32xi32> loc(#loc34)
    %41 = tt.broadcast %28 : tensor<1x32xi1> -> tensor<4x32xi1> loc(#loc35)
    %42 = tt.broadcast %13 : tensor<4x1xi1> -> tensor<4x32xi1> loc(#loc35)
    %43 = arith.andi %41, %42 : tensor<4x32xi1> loc(#loc35)
    %44 = tt.broadcast %6 : tensor<1x32xi1> -> tensor<4x32xi1> loc(#loc36)
    %45 = arith.andi %43, %44 : tensor<4x32xi1> loc(#loc36)
    %46 = tt.load %40, %45, %cst evictionPolicy = evict_last : tensor<4x32x!tt.ptr<f32>> loc(#loc37)
    %47 = arith.muli %5, %cst_8 : tensor<1x32xi32> loc(#loc38)
    %48 = tt.broadcast %12 : tensor<4x1xi32> -> tensor<4x32xi32> loc(#loc39)
    %49 = tt.broadcast %47 : tensor<1x32xi32> -> tensor<4x32xi32> loc(#loc39)
    %50 = arith.addi %48, %49 : tensor<4x32xi32> loc(#loc39)
    %51 = tt.splat %arg1 : !tt.ptr<f32> -> tensor<4x32x!tt.ptr<f32>> loc(#loc40)
    %52 = tt.addptr %51, %50 : tensor<4x32x!tt.ptr<f32>>, tensor<4x32xi32> loc(#loc40)
    %53 = arith.andi %42, %44 : tensor<4x32xi1> loc(#loc41)
    tt.store %52, %46, %53 : tensor<4x32x!tt.ptr<f32>> loc(#loc42)
    tt.return loc(#loc43)
  } loc(#loc)
} loc(#loc)
#loc1 = loc(unknown)
#loc2 = loc("inductor_cache/5q/c5quapj6yypwadh2lvhk2n5ha57ltrqlex73uh4syjzzfk5fnghw.py":22:28)
#loc3 = loc("inductor_cache/5q/c5quapj6yypwadh2lvhk2n5ha57ltrqlex73uh4syjzzfk5fnghw.py":22:33)
#loc4 = loc("inductor_cache/5q/c5quapj6yypwadh2lvhk2n5ha57ltrqlex73uh4syjzzfk5fnghw.py":23:36)
#loc5 = loc("inductor_cache/5q/c5quapj6yypwadh2lvhk2n5ha57ltrqlex73uh4syjzzfk5fnghw.py":23:44)
#loc6 = loc("inductor_cache/5q/c5quapj6yypwadh2lvhk2n5ha57ltrqlex73uh4syjzzfk5fnghw.py":23:23)
#loc7 = loc("inductor_cache/5q/c5quapj6yypwadh2lvhk2n5ha57ltrqlex73uh4syjzzfk5fnghw.py":24:21)
#loc8 = loc("inductor_cache/5q/c5quapj6yypwadh2lvhk2n5ha57ltrqlex73uh4syjzzfk5fnghw.py":25:28)
#loc9 = loc("inductor_cache/5q/c5quapj6yypwadh2lvhk2n5ha57ltrqlex73uh4syjzzfk5fnghw.py":25:33)
#loc10 = loc("inductor_cache/5q/c5quapj6yypwadh2lvhk2n5ha57ltrqlex73uh4syjzzfk5fnghw.py":26:36)
#loc11 = loc("inductor_cache/5q/c5quapj6yypwadh2lvhk2n5ha57ltrqlex73uh4syjzzfk5fnghw.py":26:44)
#loc12 = loc("inductor_cache/5q/c5quapj6yypwadh2lvhk2n5ha57ltrqlex73uh4syjzzfk5fnghw.py":26:23)
#loc13 = loc("inductor_cache/5q/c5quapj6yypwadh2lvhk2n5ha57ltrqlex73uh4syjzzfk5fnghw.py":27:21)
#loc14 = loc("inductor_cache/5q/c5quapj6yypwadh2lvhk2n5ha57ltrqlex73uh4syjzzfk5fnghw.py":28:21)
#loc15 = loc("inductor_cache/5q/c5quapj6yypwadh2lvhk2n5ha57ltrqlex73uh4syjzzfk5fnghw.py":28:26)
#loc16 = loc("inductor_cache/5q/c5quapj6yypwadh2lvhk2n5ha57ltrqlex73uh4syjzzfk5fnghw.py":29:19)
#loc17 = loc("inductor_cache/5q/c5quapj6yypwadh2lvhk2n5ha57ltrqlex73uh4syjzzfk5fnghw.py":31:19)
#loc18 = loc("inductor_cache/5q/c5quapj6yypwadh2lvhk2n5ha57ltrqlex73uh4syjzzfk5fnghw.py":33:15)
#loc19 = loc("inductor_cache/5q/c5quapj6yypwadh2lvhk2n5ha57ltrqlex73uh4syjzzfk5fnghw.py":35:19)
#loc20 = loc("inductor_cache/5q/c5quapj6yypwadh2lvhk2n5ha57ltrqlex73uh4syjzzfk5fnghw.py":37:18)
#loc21 = loc("inductor_cache/5q/c5quapj6yypwadh2lvhk2n5ha57ltrqlex73uh4syjzzfk5fnghw.py":38:15)
#loc22 = loc("inductor_cache/5q/c5quapj6yypwadh2lvhk2n5ha57ltrqlex73uh4syjzzfk5fnghw.py":39:19)
#loc23 = loc("inductor_cache/5q/c5quapj6yypwadh2lvhk2n5ha57ltrqlex73uh4syjzzfk5fnghw.py":40:18)
#loc24 = loc("inductor_cache/5q/c5quapj6yypwadh2lvhk2n5ha57ltrqlex73uh4syjzzfk5fnghw.py":41:18)
#loc25 = loc("inductor_cache/5q/c5quapj6yypwadh2lvhk2n5ha57ltrqlex73uh4syjzzfk5fnghw.py":42:18)
#loc26 = loc("inductor_cache/5q/c5quapj6yypwadh2lvhk2n5ha57ltrqlex73uh4syjzzfk5fnghw.py":43:19)
#loc27 = loc("inductor_cache/5q/c5quapj6yypwadh2lvhk2n5ha57ltrqlex73uh4syjzzfk5fnghw.py":44:35)
#loc28 = loc("inductor_cache/5q/c5quapj6yypwadh2lvhk2n5ha57ltrqlex73uh4syjzzfk5fnghw.py":44:42)
#loc29 = loc("inductor_cache/5q/c5quapj6yypwadh2lvhk2n5ha57ltrqlex73uh4syjzzfk5fnghw.py":44:40)
#loc30 = loc("inductor_cache/5q/c5quapj6yypwadh2lvhk2n5ha57ltrqlex73uh4syjzzfk5fnghw.py":44:50)
#loc31 = loc("inductor_cache/5q/c5quapj6yypwadh2lvhk2n5ha57ltrqlex73uh4syjzzfk5fnghw.py":44:47)
#loc32 = loc("inductor_cache/5q/c5quapj6yypwadh2lvhk2n5ha57ltrqlex73uh4syjzzfk5fnghw.py":44:59)
#loc33 = loc("inductor_cache/5q/c5quapj6yypwadh2lvhk2n5ha57ltrqlex73uh4syjzzfk5fnghw.py":44:55)
#loc34 = loc("inductor_cache/5q/c5quapj6yypwadh2lvhk2n5ha57ltrqlex73uh4syjzzfk5fnghw.py":44:31)
#loc35 = loc("inductor_cache/5q/c5quapj6yypwadh2lvhk2n5ha57ltrqlex73uh4syjzzfk5fnghw.py":44:72)
#loc36 = loc("inductor_cache/5q/c5quapj6yypwadh2lvhk2n5ha57ltrqlex73uh4syjzzfk5fnghw.py":44:80)
#loc37 = loc("inductor_cache/5q/c5quapj6yypwadh2lvhk2n5ha57ltrqlex73uh4syjzzfk5fnghw.py":44:64)
#loc38 = loc("inductor_cache/5q/c5quapj6yypwadh2lvhk2n5ha57ltrqlex73uh4syjzzfk5fnghw.py":45:32)
#loc39 = loc("inductor_cache/5q/c5quapj6yypwadh2lvhk2n5ha57ltrqlex73uh4syjzzfk5fnghw.py":45:30)
#loc40 = loc("inductor_cache/5q/c5quapj6yypwadh2lvhk2n5ha57ltrqlex73uh4syjzzfk5fnghw.py":45:25)
#loc41 = loc("inductor_cache/5q/c5quapj6yypwadh2lvhk2n5ha57ltrqlex73uh4syjzzfk5fnghw.py":45:52)
#loc42 = loc("inductor_cache/5q/c5quapj6yypwadh2lvhk2n5ha57ltrqlex73uh4syjzzfk5fnghw.py":45:44)
#loc43 = loc("inductor_cache/5q/c5quapj6yypwadh2lvhk2n5ha57ltrqlex73uh4syjzzfk5fnghw.py":45:4)
