#loc = loc("inductor_cache/vf/cvfxim32544rmukbhcpeoipriqpudszmsnlpxntquynzi42qcdnq.py":19:0)
module {
  tt.func public @triton_poi_fused__native_batch_norm_legit_no_training_silu_18(%arg0: !tt.ptr<f32> {tt.divisibility = 16 : i32} loc("inductor_cache/vf/cvfxim32544rmukbhcpeoipriqpudszmsnlpxntquynzi42qcdnq.py":19:0), %arg1: !tt.ptr<f32> {tt.divisibility = 16 : i32} loc("inductor_cache/vf/cvfxim32544rmukbhcpeoipriqpudszmsnlpxntquynzi42qcdnq.py":19:0), %arg2: !tt.ptr<f32> {tt.divisibility = 16 : i32} loc("inductor_cache/vf/cvfxim32544rmukbhcpeoipriqpudszmsnlpxntquynzi42qcdnq.py":19:0), %arg3: !tt.ptr<f32> {tt.divisibility = 16 : i32} loc("inductor_cache/vf/cvfxim32544rmukbhcpeoipriqpudszmsnlpxntquynzi42qcdnq.py":19:0), %arg4: !tt.ptr<f32> {tt.divisibility = 16 : i32} loc("inductor_cache/vf/cvfxim32544rmukbhcpeoipriqpudszmsnlpxntquynzi42qcdnq.py":19:0), %arg5: !tt.ptr<f32> {tt.divisibility = 16 : i32} loc("inductor_cache/vf/cvfxim32544rmukbhcpeoipriqpudszmsnlpxntquynzi42qcdnq.py":19:0), %arg6: i32 {tt.divisibility = 16 : i32} loc("inductor_cache/vf/cvfxim32544rmukbhcpeoipriqpudszmsnlpxntquynzi42qcdnq.py":19:0), %arg7: i32 {tt.divisibility = 16 : i32} loc("inductor_cache/vf/cvfxim32544rmukbhcpeoipriqpudszmsnlpxntquynzi42qcdnq.py":19:0)) attributes {noinline = false} {
    %c256_i32 = arith.constant 256 : i32 loc(#loc1)
    %c128_i32 = arith.constant 128 : i32 loc(#loc1)
    %cst = arith.constant dense<0.000000e+00> : tensor<1x1024xf32> loc(#loc1)
    %cst_0 = arith.constant dense<1.000000e+00> : tensor<1x1024xf32> loc(#loc1)
    %cst_1 = arith.constant dense<1.000000e+00> : tensor<1x1xf32> loc(#loc1)
    %cst_2 = arith.constant dense<32768> : tensor<1x1024xi32> loc(#loc1)
    %cst_3 = arith.constant dense<1.000000e-03> : tensor<1x1xf32> loc(#loc1)
    %cst_4 = arith.constant dense<128> : tensor<1x1024xi32> loc(#loc1)
    %cst_5 = arith.constant dense<256> : tensor<1x1024xi32> loc(#loc1)
    %c1024_i32 = arith.constant 1024 : i32 loc(#loc1)
    %0 = tt.get_program_id y : i32 loc(#loc2)
    %1 = arith.muli %0, %c1024_i32 : i32 loc(#loc3)
    %2 = tt.make_range {end = 1024 : i32, start = 0 : i32} : tensor<1024xi32> loc(#loc4)
    %3 = tt.expand_dims %2 {axis = 0 : i32} : tensor<1024xi32> -> tensor<1x1024xi32> loc(#loc5)
    %4 = tt.splat %1 : i32 -> tensor<1x1024xi32> loc(#loc6)
    %5 = arith.addi %4, %3 : tensor<1x1024xi32> loc(#loc6)
    %6 = tt.get_program_id x : i32 loc(#loc7)
    %7 = arith.cmpi slt, %6, %c128_i32 : i32 loc(#loc8)
    %8 = tt.splat %7 : i1 -> tensor<1x1xi1> loc(#loc8)
    %9 = arith.remsi %5, %cst_5 : tensor<1x1024xi32> loc(#loc9)
    %10 = arith.divsi %5, %cst_5 : tensor<1x1024xi32> loc(#loc10)
    %11 = arith.muli %5, %cst_4 : tensor<1x1024xi32> loc(#loc11)
    %12 = tt.splat %6 : i32 -> tensor<1x1024xi32> loc(#loc12)
    %13 = arith.addi %12, %11 : tensor<1x1024xi32> loc(#loc12)
    %14 = tt.splat %arg0 : !tt.ptr<f32> -> tensor<1x1024x!tt.ptr<f32>> loc(#loc13)
    %15 = tt.addptr %14, %13 : tensor<1x1024x!tt.ptr<f32>>, tensor<1x1024xi32> loc(#loc13)
    %16 = tt.splat %7 : i1 -> tensor<1x1024xi1> loc(#loc14)
    %17 = tt.load %15, %16 evictionPolicy = evict_last : tensor<1x1024x!tt.ptr<f32>> loc(#loc14)
    %18 = tt.addptr %arg1, %6 : !tt.ptr<f32>, i32 loc(#loc15)
    %19 = tt.splat %18 : !tt.ptr<f32> -> tensor<1x1x!tt.ptr<f32>> loc(#loc15)
    %20 = tt.load %19, %8 evictionPolicy = evict_last : tensor<1x1x!tt.ptr<f32>> loc(#loc16)
    %21 = tt.addptr %arg2, %6 : !tt.ptr<f32>, i32 loc(#loc17)
    %22 = tt.splat %21 : !tt.ptr<f32> -> tensor<1x1x!tt.ptr<f32>> loc(#loc17)
    %23 = tt.load %22, %8 evictionPolicy = evict_last : tensor<1x1x!tt.ptr<f32>> loc(#loc18)
    %24 = tt.addptr %arg3, %6 : !tt.ptr<f32>, i32 loc(#loc19)
    %25 = tt.splat %24 : !tt.ptr<f32> -> tensor<1x1x!tt.ptr<f32>> loc(#loc19)
    %26 = tt.load %25, %8 evictionPolicy = evict_last : tensor<1x1x!tt.ptr<f32>> loc(#loc20)
    %27 = tt.addptr %arg4, %6 : !tt.ptr<f32>, i32 loc(#loc21)
    %28 = tt.splat %27 : !tt.ptr<f32> -> tensor<1x1x!tt.ptr<f32>> loc(#loc21)
    %29 = tt.load %28, %8 evictionPolicy = evict_last : tensor<1x1x!tt.ptr<f32>> loc(#loc22)
    %30 = tt.broadcast %20 : tensor<1x1xf32> -> tensor<1x1024xf32> loc(#loc23)
    %31 = arith.subf %17, %30 : tensor<1x1024xf32> loc(#loc23)
    %32 = arith.addf %23, %cst_3 : tensor<1x1xf32> loc(#loc24)
    %33 = tt.extern_elementwise %32 {libname = "", libpath = "", pure = true, symbol = "__nv_sqrtf"} : (tensor<1x1xf32>) -> tensor<1x1xf32> loc(#loc25)
    %34 = arith.divf %cst_1, %33 : tensor<1x1xf32> loc(#loc26)
    %35 = tt.broadcast %34 : tensor<1x1xf32> -> tensor<1x1024xf32> loc(#loc27)
    %36 = arith.mulf %31, %35 : tensor<1x1024xf32> loc(#loc27)
    %37 = tt.broadcast %26 : tensor<1x1xf32> -> tensor<1x1024xf32> loc(#loc28)
    %38 = arith.mulf %36, %37 : tensor<1x1024xf32> loc(#loc28)
    %39 = tt.broadcast %29 : tensor<1x1xf32> -> tensor<1x1024xf32> loc(#loc29)
    %40 = arith.addf %38, %39 : tensor<1x1024xf32> loc(#loc29)
    %41 = arith.subf %cst, %40 : tensor<1x1024xf32> loc(#loc43)
    %42 = math.exp %41 : tensor<1x1024xf32> loc(#loc44)
    %43 = arith.addf %42, %cst_0 : tensor<1x1024xf32> loc(#loc45)
    %44 = arith.divf %cst_0, %43 : tensor<1x1024xf32> loc(#loc46)
    %45 = arith.mulf %40, %44 : tensor<1x1024xf32> loc(#loc35)
    %46 = arith.muli %6, %c256_i32 : i32 loc(#loc36)
    %47 = tt.splat %46 : i32 -> tensor<1x1024xi32> loc(#loc37)
    %48 = arith.addi %9, %47 : tensor<1x1024xi32> loc(#loc37)
    %49 = arith.muli %10, %cst_2 : tensor<1x1024xi32> loc(#loc38)
    %50 = arith.addi %48, %49 : tensor<1x1024xi32> loc(#loc39)
    %51 = tt.splat %arg5 : !tt.ptr<f32> -> tensor<1x1024x!tt.ptr<f32>> loc(#loc40)
    %52 = tt.addptr %51, %50 : tensor<1x1024x!tt.ptr<f32>>, tensor<1x1024xi32> loc(#loc40)
    tt.store %52, %45, %16 : tensor<1x1024x!tt.ptr<f32>> loc(#loc41)
    tt.return loc(#loc42)
  } loc(#loc)
} loc(#loc)
#loc1 = loc(unknown)
#loc2 = loc("inductor_cache/vf/cvfxim32544rmukbhcpeoipriqpudszmsnlpxntquynzi42qcdnq.py":22:28)
#loc3 = loc("inductor_cache/vf/cvfxim32544rmukbhcpeoipriqpudszmsnlpxntquynzi42qcdnq.py":22:33)
#loc4 = loc("inductor_cache/vf/cvfxim32544rmukbhcpeoipriqpudszmsnlpxntquynzi42qcdnq.py":23:36)
#loc5 = loc("inductor_cache/vf/cvfxim32544rmukbhcpeoipriqpudszmsnlpxntquynzi42qcdnq.py":23:44)
#loc6 = loc("inductor_cache/vf/cvfxim32544rmukbhcpeoipriqpudszmsnlpxntquynzi42qcdnq.py":23:23)
#loc7 = loc("inductor_cache/vf/cvfxim32544rmukbhcpeoipriqpudszmsnlpxntquynzi42qcdnq.py":25:28)
#loc8 = loc("inductor_cache/vf/cvfxim32544rmukbhcpeoipriqpudszmsnlpxntquynzi42qcdnq.py":27:21)
#loc9 = loc("inductor_cache/vf/cvfxim32544rmukbhcpeoipriqpudszmsnlpxntquynzi42qcdnq.py":30:19)
#loc10 = loc("inductor_cache/vf/cvfxim32544rmukbhcpeoipriqpudszmsnlpxntquynzi42qcdnq.py":31:19)
#loc11 = loc("inductor_cache/vf/cvfxim32544rmukbhcpeoipriqpudszmsnlpxntquynzi42qcdnq.py":32:39)
#loc12 = loc("inductor_cache/vf/cvfxim32544rmukbhcpeoipriqpudszmsnlpxntquynzi42qcdnq.py":32:35)
#loc13 = loc("inductor_cache/vf/cvfxim32544rmukbhcpeoipriqpudszmsnlpxntquynzi42qcdnq.py":32:30)
#loc14 = loc("inductor_cache/vf/cvfxim32544rmukbhcpeoipriqpudszmsnlpxntquynzi42qcdnq.py":32:44)
#loc15 = loc("inductor_cache/vf/cvfxim32544rmukbhcpeoipriqpudszmsnlpxntquynzi42qcdnq.py":33:30)
#loc16 = loc("inductor_cache/vf/cvfxim32544rmukbhcpeoipriqpudszmsnlpxntquynzi42qcdnq.py":33:35)
#loc17 = loc("inductor_cache/vf/cvfxim32544rmukbhcpeoipriqpudszmsnlpxntquynzi42qcdnq.py":34:30)
#loc18 = loc("inductor_cache/vf/cvfxim32544rmukbhcpeoipriqpudszmsnlpxntquynzi42qcdnq.py":34:35)
#loc19 = loc("inductor_cache/vf/cvfxim32544rmukbhcpeoipriqpudszmsnlpxntquynzi42qcdnq.py":35:31)
#loc20 = loc("inductor_cache/vf/cvfxim32544rmukbhcpeoipriqpudszmsnlpxntquynzi42qcdnq.py":35:36)
#loc21 = loc("inductor_cache/vf/cvfxim32544rmukbhcpeoipriqpudszmsnlpxntquynzi42qcdnq.py":36:31)
#loc22 = loc("inductor_cache/vf/cvfxim32544rmukbhcpeoipriqpudszmsnlpxntquynzi42qcdnq.py":36:36)
#loc23 = loc("inductor_cache/vf/cvfxim32544rmukbhcpeoipriqpudszmsnlpxntquynzi42qcdnq.py":37:18)
#loc24 = loc("inductor_cache/vf/cvfxim32544rmukbhcpeoipriqpudszmsnlpxntquynzi42qcdnq.py":39:18)
#loc25 = loc("inductor_cache/vf/cvfxim32544rmukbhcpeoipriqpudszmsnlpxntquynzi42qcdnq.py":40:26)
#loc26 = loc("inductor_cache/vf/cvfxim32544rmukbhcpeoipriqpudszmsnlpxntquynzi42qcdnq.py":42:18)
#loc27 = loc("inductor_cache/vf/cvfxim32544rmukbhcpeoipriqpudszmsnlpxntquynzi42qcdnq.py":45:19)
#loc28 = loc("inductor_cache/vf/cvfxim32544rmukbhcpeoipriqpudszmsnlpxntquynzi42qcdnq.py":46:20)
#loc29 = loc("inductor_cache/vf/cvfxim32544rmukbhcpeoipriqpudszmsnlpxntquynzi42qcdnq.py":47:20)
#loc30 = loc("/home/sahanp/.conda/envs/parity-bench/lib/python3.12/site-packages/triton/language/standard.py":47:30)
#loc31 = loc("inductor_cache/vf/cvfxim32544rmukbhcpeoipriqpudszmsnlpxntquynzi42qcdnq.py":48:23)
#loc32 = loc("/home/sahanp/.conda/envs/parity-bench/lib/python3.12/site-packages/triton/language/standard.py":47:29)
#loc33 = loc("/home/sahanp/.conda/envs/parity-bench/lib/python3.12/site-packages/triton/language/standard.py":47:20)
#loc34 = loc("/home/sahanp/.conda/envs/parity-bench/lib/python3.12/site-packages/triton/language/standard.py":47:16)
#loc35 = loc("inductor_cache/vf/cvfxim32544rmukbhcpeoipriqpudszmsnlpxntquynzi42qcdnq.py":49:20)
#loc36 = loc("inductor_cache/vf/cvfxim32544rmukbhcpeoipriqpudszmsnlpxntquynzi42qcdnq.py":50:34)
#loc37 = loc("inductor_cache/vf/cvfxim32544rmukbhcpeoipriqpudszmsnlpxntquynzi42qcdnq.py":50:30)
#loc38 = loc("inductor_cache/vf/cvfxim32544rmukbhcpeoipriqpudszmsnlpxntquynzi42qcdnq.py":50:45)
#loc39 = loc("inductor_cache/vf/cvfxim32544rmukbhcpeoipriqpudszmsnlpxntquynzi42qcdnq.py":50:39)
#loc40 = loc("inductor_cache/vf/cvfxim32544rmukbhcpeoipriqpudszmsnlpxntquynzi42qcdnq.py":50:25)
#loc41 = loc("inductor_cache/vf/cvfxim32544rmukbhcpeoipriqpudszmsnlpxntquynzi42qcdnq.py":50:57)
#loc42 = loc("inductor_cache/vf/cvfxim32544rmukbhcpeoipriqpudszmsnlpxntquynzi42qcdnq.py":50:4)
#loc43 = loc(callsite(#loc30 at #loc31))
#loc44 = loc(callsite(#loc32 at #loc31))
#loc45 = loc(callsite(#loc33 at #loc31))
#loc46 = loc(callsite(#loc34 at #loc31))
