#loc = loc("inductor_cache/lt/cltnfohd4bxuff2cvikcyhen73kk6y73et42zthcvovbptkivjna.py":19:0)
#loc1 = loc(unknown)
#loc12 = loc("inductor_cache/lt/cltnfohd4bxuff2cvikcyhen73kk6y73et42zthcvovbptkivjna.py":34:24)
#loc21 = loc(callsite(#loc1 at #loc12))
module {
  tt.func public @triton_per_fused_mean_11(%arg0: !tt.ptr<f32> {tt.divisibility = 16 : i32} loc("inductor_cache/lt/cltnfohd4bxuff2cvikcyhen73kk6y73et42zthcvovbptkivjna.py":19:0), %arg1: !tt.ptr<f32> {tt.divisibility = 16 : i32} loc("inductor_cache/lt/cltnfohd4bxuff2cvikcyhen73kk6y73et42zthcvovbptkivjna.py":19:0), %arg2: i32 {tt.divisibility = 16 : i32} loc("inductor_cache/lt/cltnfohd4bxuff2cvikcyhen73kk6y73et42zthcvovbptkivjna.py":19:0), %arg3: i32 {tt.divisibility = 16 : i32} loc("inductor_cache/lt/cltnfohd4bxuff2cvikcyhen73kk6y73et42zthcvovbptkivjna.py":19:0)) attributes {noinline = false} {
    %c16_i32 = arith.constant 16 : i32 loc(#loc1)
    %cst = arith.constant dense<1.600000e+01> : tensor<1x1xf32> loc(#loc1)
    %cst_0 = arith.constant dense<0.000000e+00> : tensor<1x16xf32> loc(#loc1)
    %0 = tt.get_program_id x : i32 loc(#loc2)
    %1 = arith.cmpi slt, %0, %c16_i32 : i32 loc(#loc3)
    %2 = tt.splat %1 : i1 -> tensor<1x1xi1> loc(#loc3)
    %3 = tt.make_range {end = 16 : i32, start = 0 : i32} : tensor<16xi32> loc(#loc4)
    %4 = tt.expand_dims %3 {axis = 0 : i32} : tensor<16xi32> -> tensor<1x16xi32> loc(#loc5)
    %5 = arith.muli %0, %c16_i32 : i32 loc(#loc6)
    %6 = tt.splat %5 : i32 -> tensor<1x16xi32> loc(#loc7)
    %7 = arith.addi %4, %6 : tensor<1x16xi32> loc(#loc7)
    %8 = tt.splat %arg1 : !tt.ptr<f32> -> tensor<1x16x!tt.ptr<f32>> loc(#loc8)
    %9 = tt.addptr %8, %7 : tensor<1x16x!tt.ptr<f32>>, tensor<1x16xi32> loc(#loc8)
    %10 = tt.splat %1 : i1 -> tensor<1x16xi1> loc(#loc9)
    %11 = tt.load %9, %10, %cst_0 : tensor<1x16x!tt.ptr<f32>> loc(#loc9)
    %12 = arith.select %10, %11, %cst_0 : tensor<1x16xi1>, tensor<1x16xf32> loc(#loc10)
    %13 = "tt.reduce"(%12) <{axis = 1 : i32}> ({
    ^bb0(%arg4: f32 loc(callsite(#loc1 at #loc12)), %arg5: f32 loc(callsite(#loc1 at #loc12))):
      %18 = arith.addf %arg4, %arg5 : f32 loc(#loc23)
      tt.reduce.return %18 : f32 loc(#loc20)
    }) : (tensor<1x16xf32>) -> tensor<1xf32> loc(#loc20)
    %14 = tt.expand_dims %13 {axis = 1 : i32} : tensor<1xf32> -> tensor<1x1xf32> loc(#loc14)
    %15 = arith.divf %14, %cst : tensor<1x1xf32> loc(#loc15)
    gpu.barrier loc(#loc16)
    %16 = tt.addptr %arg0, %0 : !tt.ptr<f32>, i32 loc(#loc17)
    %17 = tt.splat %16 : !tt.ptr<f32> -> tensor<1x1x!tt.ptr<f32>> loc(#loc17)
    tt.store %17, %15, %2 : tensor<1x1x!tt.ptr<f32>> loc(#loc18)
    tt.return loc(#loc19)
  } loc(#loc)
} loc(#loc)
#loc2 = loc("inductor_cache/lt/cltnfohd4bxuff2cvikcyhen73kk6y73et42zthcvovbptkivjna.py":23:28)
#loc3 = loc("inductor_cache/lt/cltnfohd4bxuff2cvikcyhen73kk6y73et42zthcvovbptkivjna.py":25:21)
#loc4 = loc("inductor_cache/lt/cltnfohd4bxuff2cvikcyhen73kk6y73et42zthcvovbptkivjna.py":26:26)
#loc5 = loc("inductor_cache/lt/cltnfohd4bxuff2cvikcyhen73kk6y73et42zthcvovbptkivjna.py":26:34)
#loc6 = loc("inductor_cache/lt/cltnfohd4bxuff2cvikcyhen73kk6y73et42zthcvovbptkivjna.py":31:38)
#loc7 = loc("inductor_cache/lt/cltnfohd4bxuff2cvikcyhen73kk6y73et42zthcvovbptkivjna.py":31:35)
#loc8 = loc("inductor_cache/lt/cltnfohd4bxuff2cvikcyhen73kk6y73et42zthcvovbptkivjna.py":31:30)
#loc9 = loc("inductor_cache/lt/cltnfohd4bxuff2cvikcyhen73kk6y73et42zthcvovbptkivjna.py":31:43)
#loc10 = loc("inductor_cache/lt/cltnfohd4bxuff2cvikcyhen73kk6y73et42zthcvovbptkivjna.py":33:33)
#loc11 = loc("/home/sahanp/.conda/envs/parity-bench/lib/python3.12/site-packages/triton/language/standard.py":267:36)
#loc13 = loc("/home/sahanp/.conda/envs/parity-bench/lib/python3.12/site-packages/triton/language/standard.py":256:15)
#loc14 = loc("inductor_cache/lt/cltnfohd4bxuff2cvikcyhen73kk6y73et42zthcvovbptkivjna.py":34:27)
#loc15 = loc("inductor_cache/lt/cltnfohd4bxuff2cvikcyhen73kk6y73et42zthcvovbptkivjna.py":36:18)
#loc16 = loc("inductor_cache/lt/cltnfohd4bxuff2cvikcyhen73kk6y73et42zthcvovbptkivjna.py":37:4)
#loc17 = loc("inductor_cache/lt/cltnfohd4bxuff2cvikcyhen73kk6y73et42zthcvovbptkivjna.py":38:28)
#loc18 = loc("inductor_cache/lt/cltnfohd4bxuff2cvikcyhen73kk6y73et42zthcvovbptkivjna.py":38:39)
#loc19 = loc("inductor_cache/lt/cltnfohd4bxuff2cvikcyhen73kk6y73et42zthcvovbptkivjna.py":38:4)
#loc20 = loc(callsite(#loc11 at #loc12))
#loc22 = loc(callsite(#loc13 at #loc11))
#loc23 = loc(callsite(#loc22 at #loc12))
