#loc = loc("inductor_cache/7t/c7tef54z25uumihhncepm2cyxrnfh6jcgraxkmxn54dlydxrqgmb.py":19:0)
#loc1 = loc(unknown)
#loc16 = loc("inductor_cache/7t/c7tef54z25uumihhncepm2cyxrnfh6jcgraxkmxn54dlydxrqgmb.py":36:24)
#loc23 = loc("inductor_cache/7t/c7tef54z25uumihhncepm2cyxrnfh6jcgraxkmxn54dlydxrqgmb.py":43:26)
#loc46 = loc(callsite(#loc1 at #loc16))
#loc49 = loc(callsite(#loc1 at #loc23))
module {
  tt.func public @triton_per_fused_add_div_gelu_mean_mul_pow_sqrt_sub_2(%arg0: !tt.ptr<f32> {tt.divisibility = 16 : i32} loc("inductor_cache/7t/c7tef54z25uumihhncepm2cyxrnfh6jcgraxkmxn54dlydxrqgmb.py":19:0), %arg1: !tt.ptr<f32> {tt.divisibility = 16 : i32} loc("inductor_cache/7t/c7tef54z25uumihhncepm2cyxrnfh6jcgraxkmxn54dlydxrqgmb.py":19:0), %arg2: !tt.ptr<f32> {tt.divisibility = 16 : i32} loc("inductor_cache/7t/c7tef54z25uumihhncepm2cyxrnfh6jcgraxkmxn54dlydxrqgmb.py":19:0), %arg3: !tt.ptr<f32> {tt.divisibility = 16 : i32} loc("inductor_cache/7t/c7tef54z25uumihhncepm2cyxrnfh6jcgraxkmxn54dlydxrqgmb.py":19:0), %arg4: !tt.ptr<f32> {tt.divisibility = 16 : i32} loc("inductor_cache/7t/c7tef54z25uumihhncepm2cyxrnfh6jcgraxkmxn54dlydxrqgmb.py":19:0), %arg5: !tt.ptr<f32> {tt.divisibility = 16 : i32} loc("inductor_cache/7t/c7tef54z25uumihhncepm2cyxrnfh6jcgraxkmxn54dlydxrqgmb.py":19:0), %arg6: i32 {tt.divisibility = 16 : i32} loc("inductor_cache/7t/c7tef54z25uumihhncepm2cyxrnfh6jcgraxkmxn54dlydxrqgmb.py":19:0), %arg7: i32 {tt.divisibility = 16 : i32} loc("inductor_cache/7t/c7tef54z25uumihhncepm2cyxrnfh6jcgraxkmxn54dlydxrqgmb.py":19:0)) attributes {noinline = false} {
    %c16_i32 = arith.constant 16 : i32 loc(#loc1)
    %c1024_i32 = arith.constant 1024 : i32 loc(#loc1)
    %cst = arith.constant dense<1.000000e+00> : tensor<1x16xf32> loc(#loc1)
    %cst_0 = arith.constant dense<0.707106769> : tensor<1x16xf32> loc(#loc1)
    %cst_1 = arith.constant dense<5.000000e-01> : tensor<1x16xf32> loc(#loc1)
    %cst_2 = arith.constant dense<9.99999997E-7> : tensor<1x1xf32> loc(#loc1)
    %cst_3 = arith.constant dense<1.600000e+01> : tensor<1x1xf32> loc(#loc1)
    %cst_4 = arith.constant dense<0.000000e+00> : tensor<1x16xf32> loc(#loc1)
    %0 = tt.get_program_id x : i32 loc(#loc2)
    %1 = arith.cmpi slt, %0, %c1024_i32 : i32 loc(#loc3)
    %2 = tt.splat %1 : i1 -> tensor<1x1xi1> loc(#loc3)
    %3 = tt.make_range {end = 16 : i32, start = 0 : i32} : tensor<16xi32> loc(#loc4)
    %4 = tt.expand_dims %3 {axis = 0 : i32} : tensor<16xi32> -> tensor<1x16xi32> loc(#loc5)
    %5 = arith.muli %0, %c16_i32 : i32 loc(#loc6)
    %6 = tt.splat %5 : i32 -> tensor<1x16xi32> loc(#loc7)
    %7 = arith.addi %4, %6 : tensor<1x16xi32> loc(#loc7)
    %8 = tt.splat %arg3 : !tt.ptr<f32> -> tensor<1x16x!tt.ptr<f32>> loc(#loc8)
    %9 = tt.addptr %8, %7 : tensor<1x16x!tt.ptr<f32>>, tensor<1x16xi32> loc(#loc8)
    %10 = tt.splat %1 : i1 -> tensor<1x16xi1> loc(#loc9)
    %11 = tt.load %9, %10, %cst_4 : tensor<1x16x!tt.ptr<f32>> loc(#loc9)
    %12 = tt.splat %arg4 : !tt.ptr<f32> -> tensor<1x16x!tt.ptr<f32>> loc(#loc10)
    %13 = tt.addptr %12, %4 : tensor<1x16x!tt.ptr<f32>>, tensor<1x16xi32> loc(#loc10)
    %14 = tt.load %13 evictionPolicy = evict_last : tensor<1x16x!tt.ptr<f32>> loc(#loc11)
    %15 = tt.splat %arg5 : !tt.ptr<f32> -> tensor<1x16x!tt.ptr<f32>> loc(#loc12)
    %16 = tt.addptr %15, %4 : tensor<1x16x!tt.ptr<f32>>, tensor<1x16xi32> loc(#loc12)
    %17 = tt.load %16 evictionPolicy = evict_last : tensor<1x16x!tt.ptr<f32>> loc(#loc13)
    %18 = arith.select %10, %11, %cst_4 : tensor<1x16xi1>, tensor<1x16xf32> loc(#loc14)
    %19 = "tt.reduce"(%18) <{axis = 1 : i32}> ({
    ^bb0(%arg8: f32 loc(callsite(#loc1 at #loc16)), %arg9: f32 loc(callsite(#loc1 at #loc16))):
      %46 = arith.addf %arg8, %arg9 : f32 loc(#loc50)
      tt.reduce.return %46 : f32 loc(#loc45)
    }) : (tensor<1x16xf32>) -> tensor<1xf32> loc(#loc45)
    %20 = tt.expand_dims %19 {axis = 1 : i32} : tensor<1xf32> -> tensor<1x1xf32> loc(#loc18)
    %21 = arith.divf %20, %cst_3 : tensor<1x1xf32> loc(#loc19)
    %22 = tt.broadcast %21 : tensor<1x1xf32> -> tensor<1x16xf32> loc(#loc20)
    %23 = arith.subf %11, %22 : tensor<1x16xf32> loc(#loc20)
    %24 = arith.mulf %23, %23 : tensor<1x16xf32> loc(#loc21)
    %25 = arith.select %10, %24, %cst_4 : tensor<1x16xi1>, tensor<1x16xf32> loc(#loc22)
    %26 = "tt.reduce"(%25) <{axis = 1 : i32}> ({
    ^bb0(%arg8: f32 loc(callsite(#loc1 at #loc23)), %arg9: f32 loc(callsite(#loc1 at #loc23))):
      %46 = arith.addf %arg8, %arg9 : f32 loc(#loc51)
      tt.reduce.return %46 : f32 loc(#loc48)
    }) : (tensor<1x16xf32>) -> tensor<1xf32> loc(#loc48)
    %27 = tt.expand_dims %26 {axis = 1 : i32} : tensor<1xf32> -> tensor<1x1xf32> loc(#loc24)
    %28 = arith.divf %27, %cst_3 : tensor<1x1xf32> loc(#loc25)
    %29 = arith.addf %28, %cst_2 : tensor<1x1xf32> loc(#loc26)
    %30 = tt.extern_elementwise %29 {libname = "", libpath = "", pure = true, symbol = "__nv_sqrtf"} : (tensor<1x1xf32>) -> tensor<1x1xf32> loc(#loc27)
    %31 = tt.broadcast %30 : tensor<1x1xf32> -> tensor<1x16xf32> loc(#loc28)
    %32 = arith.divf %23, %31 : tensor<1x16xf32> loc(#loc28)
    %33 = arith.mulf %14, %32 : tensor<1x16xf32> loc(#loc29)
    %34 = arith.addf %33, %17 : tensor<1x16xf32> loc(#loc30)
    %35 = arith.mulf %34, %cst_1 : tensor<1x16xf32> loc(#loc31)
    %36 = arith.mulf %34, %cst_0 : tensor<1x16xf32> loc(#loc32)
    %37 = tt.extern_elementwise %36 {libname = "", libpath = "", pure = true, symbol = "__nv_erff"} : (tensor<1x16xf32>) -> tensor<1x16xf32> loc(#loc33)
    %38 = arith.addf %37, %cst : tensor<1x16xf32> loc(#loc34)
    %39 = arith.mulf %35, %38 : tensor<1x16xf32> loc(#loc35)
    gpu.barrier loc(#loc36)
    %40 = tt.addptr %arg0, %0 : !tt.ptr<f32>, i32 loc(#loc37)
    %41 = tt.splat %40 : !tt.ptr<f32> -> tensor<1x1x!tt.ptr<f32>> loc(#loc37)
    tt.store %41, %21, %2 : tensor<1x1x!tt.ptr<f32>> loc(#loc38)
    gpu.barrier loc(#loc39)
    %42 = tt.addptr %arg1, %0 : !tt.ptr<f32>, i32 loc(#loc40)
    %43 = tt.splat %42 : !tt.ptr<f32> -> tensor<1x1x!tt.ptr<f32>> loc(#loc40)
    tt.store %43, %30, %2 : tensor<1x1x!tt.ptr<f32>> loc(#loc41)
    %44 = tt.splat %arg2 : !tt.ptr<f32> -> tensor<1x16x!tt.ptr<f32>> loc(#loc42)
    %45 = tt.addptr %44, %7 : tensor<1x16x!tt.ptr<f32>>, tensor<1x16xi32> loc(#loc42)
    tt.store %45, %39, %10 : tensor<1x16x!tt.ptr<f32>> loc(#loc43)
    tt.return loc(#loc44)
  } loc(#loc)
} loc(#loc)
#loc2 = loc("inductor_cache/7t/c7tef54z25uumihhncepm2cyxrnfh6jcgraxkmxn54dlydxrqgmb.py":23:28)
#loc3 = loc("inductor_cache/7t/c7tef54z25uumihhncepm2cyxrnfh6jcgraxkmxn54dlydxrqgmb.py":25:21)
#loc4 = loc("inductor_cache/7t/c7tef54z25uumihhncepm2cyxrnfh6jcgraxkmxn54dlydxrqgmb.py":26:26)
#loc5 = loc("inductor_cache/7t/c7tef54z25uumihhncepm2cyxrnfh6jcgraxkmxn54dlydxrqgmb.py":26:34)
#loc6 = loc("inductor_cache/7t/c7tef54z25uumihhncepm2cyxrnfh6jcgraxkmxn54dlydxrqgmb.py":31:38)
#loc7 = loc("inductor_cache/7t/c7tef54z25uumihhncepm2cyxrnfh6jcgraxkmxn54dlydxrqgmb.py":31:35)
#loc8 = loc("inductor_cache/7t/c7tef54z25uumihhncepm2cyxrnfh6jcgraxkmxn54dlydxrqgmb.py":31:30)
#loc9 = loc("inductor_cache/7t/c7tef54z25uumihhncepm2cyxrnfh6jcgraxkmxn54dlydxrqgmb.py":31:43)
#loc10 = loc("inductor_cache/7t/c7tef54z25uumihhncepm2cyxrnfh6jcgraxkmxn54dlydxrqgmb.py":32:31)
#loc11 = loc("inductor_cache/7t/c7tef54z25uumihhncepm2cyxrnfh6jcgraxkmxn54dlydxrqgmb.py":32:36)
#loc12 = loc("inductor_cache/7t/c7tef54z25uumihhncepm2cyxrnfh6jcgraxkmxn54dlydxrqgmb.py":33:31)
#loc13 = loc("inductor_cache/7t/c7tef54z25uumihhncepm2cyxrnfh6jcgraxkmxn54dlydxrqgmb.py":33:36)
#loc14 = loc("inductor_cache/7t/c7tef54z25uumihhncepm2cyxrnfh6jcgraxkmxn54dlydxrqgmb.py":35:33)
#loc15 = loc("/home/sahanp/.conda/envs/parity-bench/lib/python3.12/site-packages/triton/language/standard.py":267:36)
#loc17 = loc("/home/sahanp/.conda/envs/parity-bench/lib/python3.12/site-packages/triton/language/standard.py":256:15)
#loc18 = loc("inductor_cache/7t/c7tef54z25uumihhncepm2cyxrnfh6jcgraxkmxn54dlydxrqgmb.py":36:27)
#loc19 = loc("inductor_cache/7t/c7tef54z25uumihhncepm2cyxrnfh6jcgraxkmxn54dlydxrqgmb.py":38:18)
#loc20 = loc("inductor_cache/7t/c7tef54z25uumihhncepm2cyxrnfh6jcgraxkmxn54dlydxrqgmb.py":39:18)
#loc21 = loc("inductor_cache/7t/c7tef54z25uumihhncepm2cyxrnfh6jcgraxkmxn54dlydxrqgmb.py":40:18)
#loc22 = loc("inductor_cache/7t/c7tef54z25uumihhncepm2cyxrnfh6jcgraxkmxn54dlydxrqgmb.py":42:34)
#loc24 = loc("inductor_cache/7t/c7tef54z25uumihhncepm2cyxrnfh6jcgraxkmxn54dlydxrqgmb.py":43:29)
#loc25 = loc("inductor_cache/7t/c7tef54z25uumihhncepm2cyxrnfh6jcgraxkmxn54dlydxrqgmb.py":44:20)
#loc26 = loc("inductor_cache/7t/c7tef54z25uumihhncepm2cyxrnfh6jcgraxkmxn54dlydxrqgmb.py":46:20)
#loc27 = loc("inductor_cache/7t/c7tef54z25uumihhncepm2cyxrnfh6jcgraxkmxn54dlydxrqgmb.py":47:27)
#loc28 = loc("inductor_cache/7t/c7tef54z25uumihhncepm2cyxrnfh6jcgraxkmxn54dlydxrqgmb.py":48:19)
#loc29 = loc("inductor_cache/7t/c7tef54z25uumihhncepm2cyxrnfh6jcgraxkmxn54dlydxrqgmb.py":49:20)
#loc30 = loc("inductor_cache/7t/c7tef54z25uumihhncepm2cyxrnfh6jcgraxkmxn54dlydxrqgmb.py":50:20)
#loc31 = loc("inductor_cache/7t/c7tef54z25uumihhncepm2cyxrnfh6jcgraxkmxn54dlydxrqgmb.py":52:20)
#loc32 = loc("inductor_cache/7t/c7tef54z25uumihhncepm2cyxrnfh6jcgraxkmxn54dlydxrqgmb.py":54:20)
#loc33 = loc("inductor_cache/7t/c7tef54z25uumihhncepm2cyxrnfh6jcgraxkmxn54dlydxrqgmb.py":55:26)
#loc34 = loc("inductor_cache/7t/c7tef54z25uumihhncepm2cyxrnfh6jcgraxkmxn54dlydxrqgmb.py":57:20)
#loc35 = loc("inductor_cache/7t/c7tef54z25uumihhncepm2cyxrnfh6jcgraxkmxn54dlydxrqgmb.py":58:20)
#loc36 = loc("inductor_cache/7t/c7tef54z25uumihhncepm2cyxrnfh6jcgraxkmxn54dlydxrqgmb.py":59:4)
#loc37 = loc("inductor_cache/7t/c7tef54z25uumihhncepm2cyxrnfh6jcgraxkmxn54dlydxrqgmb.py":60:28)
#loc38 = loc("inductor_cache/7t/c7tef54z25uumihhncepm2cyxrnfh6jcgraxkmxn54dlydxrqgmb.py":60:39)
#loc39 = loc("inductor_cache/7t/c7tef54z25uumihhncepm2cyxrnfh6jcgraxkmxn54dlydxrqgmb.py":61:4)
#loc40 = loc("inductor_cache/7t/c7tef54z25uumihhncepm2cyxrnfh6jcgraxkmxn54dlydxrqgmb.py":62:28)
#loc41 = loc("inductor_cache/7t/c7tef54z25uumihhncepm2cyxrnfh6jcgraxkmxn54dlydxrqgmb.py":62:40)
#loc42 = loc("inductor_cache/7t/c7tef54z25uumihhncepm2cyxrnfh6jcgraxkmxn54dlydxrqgmb.py":63:28)
#loc43 = loc("inductor_cache/7t/c7tef54z25uumihhncepm2cyxrnfh6jcgraxkmxn54dlydxrqgmb.py":63:48)
#loc44 = loc("inductor_cache/7t/c7tef54z25uumihhncepm2cyxrnfh6jcgraxkmxn54dlydxrqgmb.py":63:4)
#loc45 = loc(callsite(#loc15 at #loc16))
#loc47 = loc(callsite(#loc17 at #loc15))
#loc48 = loc(callsite(#loc15 at #loc23))
#loc50 = loc(callsite(#loc47 at #loc16))
#loc51 = loc(callsite(#loc47 at #loc23))
