#loc = loc("inductor_cache/w3/cw3zx7zi6w5f5epgqwhw7te4thcdki3qu3zszbxsolvjdbudnm52.py":19:0)
module {
  tt.func public @triton_poi_fused_adaptive_max_pool2d_sigmoid_sigmoid_backward_10(%arg0: !tt.ptr<f32> {tt.divisibility = 16 : i32} loc("inductor_cache/w3/cw3zx7zi6w5f5epgqwhw7te4thcdki3qu3zszbxsolvjdbudnm52.py":19:0), %arg1: !tt.ptr<f32> {tt.divisibility = 16 : i32} loc("inductor_cache/w3/cw3zx7zi6w5f5epgqwhw7te4thcdki3qu3zszbxsolvjdbudnm52.py":19:0), %arg2: !tt.ptr<i8> {tt.divisibility = 16 : i32} loc("inductor_cache/w3/cw3zx7zi6w5f5epgqwhw7te4thcdki3qu3zszbxsolvjdbudnm52.py":19:0), %arg3: !tt.ptr<f32> {tt.divisibility = 16 : i32} loc("inductor_cache/w3/cw3zx7zi6w5f5epgqwhw7te4thcdki3qu3zszbxsolvjdbudnm52.py":19:0), %arg4: i32 loc("inductor_cache/w3/cw3zx7zi6w5f5epgqwhw7te4thcdki3qu3zszbxsolvjdbudnm52.py":19:0)) attributes {noinline = false} {
    %cst = arith.constant dense<0.000000e+00> : tensor<16xf32> loc(#loc1)
    %cst_0 = arith.constant dense<1.000000e+00> : tensor<16xf32> loc(#loc1)
    %cst_1 = arith.constant dense<15> : tensor<16xi8> loc(#loc1)
    %cst_2 = arith.constant dense<14> : tensor<16xi8> loc(#loc1)
    %cst_3 = arith.constant dense<13> : tensor<16xi8> loc(#loc1)
    %cst_4 = arith.constant dense<12> : tensor<16xi8> loc(#loc1)
    %cst_5 = arith.constant dense<11> : tensor<16xi8> loc(#loc1)
    %cst_6 = arith.constant dense<10> : tensor<16xi8> loc(#loc1)
    %cst_7 = arith.constant dense<9> : tensor<16xi8> loc(#loc1)
    %cst_8 = arith.constant dense<8> : tensor<16xi8> loc(#loc1)
    %cst_9 = arith.constant dense<7> : tensor<16xi8> loc(#loc1)
    %cst_10 = arith.constant dense<6> : tensor<16xi8> loc(#loc1)
    %cst_11 = arith.constant dense<5> : tensor<16xi8> loc(#loc1)
    %cst_12 = arith.constant dense<4> : tensor<16xi8> loc(#loc1)
    %cst_13 = arith.constant dense<3> : tensor<16xi8> loc(#loc1)
    %cst_14 = arith.constant dense<2> : tensor<16xi8> loc(#loc1)
    %cst_15 = arith.constant dense<0> : tensor<16xi8> loc(#loc1)
    %cst_16 = arith.constant dense<1> : tensor<16xi8> loc(#loc1)
    %cst_17 = arith.constant dense<15> : tensor<16xi32> loc(#loc1)
    %cst_18 = arith.constant dense<14> : tensor<16xi32> loc(#loc1)
    %cst_19 = arith.constant dense<13> : tensor<16xi32> loc(#loc1)
    %cst_20 = arith.constant dense<11> : tensor<16xi32> loc(#loc1)
    %cst_21 = arith.constant dense<10> : tensor<16xi32> loc(#loc1)
    %cst_22 = arith.constant dense<9> : tensor<16xi32> loc(#loc1)
    %cst_23 = arith.constant dense<8> : tensor<16xi32> loc(#loc1)
    %cst_24 = arith.constant dense<7> : tensor<16xi32> loc(#loc1)
    %cst_25 = arith.constant dense<6> : tensor<16xi32> loc(#loc1)
    %cst_26 = arith.constant dense<5> : tensor<16xi32> loc(#loc1)
    %cst_27 = arith.constant dense<4> : tensor<16xi32> loc(#loc1)
    %cst_28 = arith.constant dense<3> : tensor<16xi32> loc(#loc1)
    %cst_29 = arith.constant dense<2> : tensor<16xi32> loc(#loc1)
    %cst_30 = arith.constant dense<1> : tensor<16xi32> loc(#loc1)
    %cst_31 = arith.constant dense<16> : tensor<16xi32> loc(#loc1)
    %cst_32 = arith.constant dense<12> : tensor<16xi32> loc(#loc1)
    %c16_i32 = arith.constant 16 : i32 loc(#loc1)
    %0 = tt.get_program_id x : i32 loc(#loc2)
    %1 = arith.muli %0, %c16_i32 : i32 loc(#loc3)
    %2 = tt.make_range {end = 16 : i32, start = 0 : i32} : tensor<16xi32> loc(#loc4)
    %3 = tt.splat %1 : i32 -> tensor<16xi32> loc(#loc5)
    %4 = arith.addi %3, %2 : tensor<16xi32> loc(#loc5)
    %5 = arith.cmpi slt, %4, %cst_32 : tensor<16xi32> loc(#loc6)
    %6 = arith.muli %4, %cst_31 : tensor<16xi32> loc(#loc7)
    %7 = tt.splat %arg1 : !tt.ptr<f32> -> tensor<16x!tt.ptr<f32>> loc(#loc8)
    %8 = tt.addptr %7, %6 : tensor<16x!tt.ptr<f32>>, tensor<16xi32> loc(#loc8)
    %9 = tt.load %8, %5 evictionPolicy = evict_last : tensor<16x!tt.ptr<f32>> loc(#loc9)
    %10 = arith.addi %6, %cst_30 : tensor<16xi32> loc(#loc10)
    %11 = tt.addptr %7, %10 : tensor<16x!tt.ptr<f32>>, tensor<16xi32> loc(#loc11)
    %12 = tt.load %11, %5 evictionPolicy = evict_last : tensor<16x!tt.ptr<f32>> loc(#loc12)
    %13 = arith.addi %6, %cst_29 : tensor<16xi32> loc(#loc13)
    %14 = tt.addptr %7, %13 : tensor<16x!tt.ptr<f32>>, tensor<16xi32> loc(#loc14)
    %15 = tt.load %14, %5 evictionPolicy = evict_last : tensor<16x!tt.ptr<f32>> loc(#loc15)
    %16 = arith.addi %6, %cst_28 : tensor<16xi32> loc(#loc16)
    %17 = tt.addptr %7, %16 : tensor<16x!tt.ptr<f32>>, tensor<16xi32> loc(#loc17)
    %18 = tt.load %17, %5 evictionPolicy = evict_last : tensor<16x!tt.ptr<f32>> loc(#loc18)
    %19 = arith.addi %6, %cst_27 : tensor<16xi32> loc(#loc19)
    %20 = tt.addptr %7, %19 : tensor<16x!tt.ptr<f32>>, tensor<16xi32> loc(#loc20)
    %21 = tt.load %20, %5 evictionPolicy = evict_last : tensor<16x!tt.ptr<f32>> loc(#loc21)
    %22 = arith.addi %6, %cst_26 : tensor<16xi32> loc(#loc22)
    %23 = tt.addptr %7, %22 : tensor<16x!tt.ptr<f32>>, tensor<16xi32> loc(#loc23)
    %24 = tt.load %23, %5 evictionPolicy = evict_last : tensor<16x!tt.ptr<f32>> loc(#loc24)
    %25 = arith.addi %6, %cst_25 : tensor<16xi32> loc(#loc25)
    %26 = tt.addptr %7, %25 : tensor<16x!tt.ptr<f32>>, tensor<16xi32> loc(#loc26)
    %27 = tt.load %26, %5 evictionPolicy = evict_last : tensor<16x!tt.ptr<f32>> loc(#loc27)
    %28 = arith.addi %6, %cst_24 : tensor<16xi32> loc(#loc28)
    %29 = tt.addptr %7, %28 : tensor<16x!tt.ptr<f32>>, tensor<16xi32> loc(#loc29)
    %30 = tt.load %29, %5 evictionPolicy = evict_last : tensor<16x!tt.ptr<f32>> loc(#loc30)
    %31 = arith.addi %6, %cst_23 : tensor<16xi32> loc(#loc31)
    %32 = tt.addptr %7, %31 : tensor<16x!tt.ptr<f32>>, tensor<16xi32> loc(#loc32)
    %33 = tt.load %32, %5 evictionPolicy = evict_last : tensor<16x!tt.ptr<f32>> loc(#loc33)
    %34 = arith.addi %6, %cst_22 : tensor<16xi32> loc(#loc34)
    %35 = tt.addptr %7, %34 : tensor<16x!tt.ptr<f32>>, tensor<16xi32> loc(#loc35)
    %36 = tt.load %35, %5 evictionPolicy = evict_last : tensor<16x!tt.ptr<f32>> loc(#loc36)
    %37 = arith.addi %6, %cst_21 : tensor<16xi32> loc(#loc37)
    %38 = tt.addptr %7, %37 : tensor<16x!tt.ptr<f32>>, tensor<16xi32> loc(#loc38)
    %39 = tt.load %38, %5 evictionPolicy = evict_last : tensor<16x!tt.ptr<f32>> loc(#loc39)
    %40 = arith.addi %6, %cst_20 : tensor<16xi32> loc(#loc40)
    %41 = tt.addptr %7, %40 : tensor<16x!tt.ptr<f32>>, tensor<16xi32> loc(#loc41)
    %42 = tt.load %41, %5 evictionPolicy = evict_last : tensor<16x!tt.ptr<f32>> loc(#loc42)
    %43 = arith.addi %6, %cst_32 : tensor<16xi32> loc(#loc43)
    %44 = tt.addptr %7, %43 : tensor<16x!tt.ptr<f32>>, tensor<16xi32> loc(#loc44)
    %45 = tt.load %44, %5 evictionPolicy = evict_last : tensor<16x!tt.ptr<f32>> loc(#loc45)
    %46 = arith.addi %6, %cst_19 : tensor<16xi32> loc(#loc46)
    %47 = tt.addptr %7, %46 : tensor<16x!tt.ptr<f32>>, tensor<16xi32> loc(#loc47)
    %48 = tt.load %47, %5 evictionPolicy = evict_last : tensor<16x!tt.ptr<f32>> loc(#loc48)
    %49 = arith.addi %6, %cst_18 : tensor<16xi32> loc(#loc49)
    %50 = tt.addptr %7, %49 : tensor<16x!tt.ptr<f32>>, tensor<16xi32> loc(#loc50)
    %51 = tt.load %50, %5 evictionPolicy = evict_last : tensor<16x!tt.ptr<f32>> loc(#loc51)
    %52 = arith.addi %6, %cst_17 : tensor<16xi32> loc(#loc52)
    %53 = tt.addptr %7, %52 : tensor<16x!tt.ptr<f32>>, tensor<16xi32> loc(#loc53)
    %54 = tt.load %53, %5 evictionPolicy = evict_last : tensor<16x!tt.ptr<f32>> loc(#loc54)
    %55 = arith.cmpf ogt, %12, %9 : tensor<16xf32> loc(#loc103)
    %56 = arith.cmpf une, %12, %12 : tensor<16xf32> loc(#loc104)
    %57 = arith.ori %55, %56 : tensor<16xi1> loc(#loc105)
    %58 = arith.select %57, %12, %9 : tensor<16xi1>, tensor<16xf32> loc(#loc106)
    %59 = arith.cmpf ogt, %15, %58 : tensor<16xf32> loc(#loc107)
    %60 = arith.cmpf une, %15, %15 : tensor<16xf32> loc(#loc108)
    %61 = arith.ori %59, %60 : tensor<16xi1> loc(#loc109)
    %62 = arith.select %61, %15, %58 : tensor<16xi1>, tensor<16xf32> loc(#loc110)
    %63 = arith.cmpf ogt, %18, %62 : tensor<16xf32> loc(#loc111)
    %64 = arith.cmpf une, %18, %18 : tensor<16xf32> loc(#loc112)
    %65 = arith.ori %63, %64 : tensor<16xi1> loc(#loc113)
    %66 = arith.select %65, %18, %62 : tensor<16xi1>, tensor<16xf32> loc(#loc114)
    %67 = arith.cmpf ogt, %21, %66 : tensor<16xf32> loc(#loc115)
    %68 = arith.cmpf une, %21, %21 : tensor<16xf32> loc(#loc116)
    %69 = arith.ori %67, %68 : tensor<16xi1> loc(#loc117)
    %70 = arith.select %69, %21, %66 : tensor<16xi1>, tensor<16xf32> loc(#loc118)
    %71 = arith.cmpf ogt, %24, %70 : tensor<16xf32> loc(#loc119)
    %72 = arith.cmpf une, %24, %24 : tensor<16xf32> loc(#loc120)
    %73 = arith.ori %71, %72 : tensor<16xi1> loc(#loc121)
    %74 = arith.select %73, %24, %70 : tensor<16xi1>, tensor<16xf32> loc(#loc122)
    %75 = arith.cmpf ogt, %27, %74 : tensor<16xf32> loc(#loc123)
    %76 = arith.cmpf une, %27, %27 : tensor<16xf32> loc(#loc124)
    %77 = arith.ori %75, %76 : tensor<16xi1> loc(#loc125)
    %78 = arith.select %77, %27, %74 : tensor<16xi1>, tensor<16xf32> loc(#loc126)
    %79 = arith.cmpf ogt, %30, %78 : tensor<16xf32> loc(#loc127)
    %80 = arith.cmpf une, %30, %30 : tensor<16xf32> loc(#loc128)
    %81 = arith.ori %79, %80 : tensor<16xi1> loc(#loc129)
    %82 = arith.select %81, %30, %78 : tensor<16xi1>, tensor<16xf32> loc(#loc130)
    %83 = arith.cmpf ogt, %33, %82 : tensor<16xf32> loc(#loc131)
    %84 = arith.cmpf une, %33, %33 : tensor<16xf32> loc(#loc132)
    %85 = arith.ori %83, %84 : tensor<16xi1> loc(#loc133)
    %86 = arith.select %85, %33, %82 : tensor<16xi1>, tensor<16xf32> loc(#loc134)
    %87 = arith.cmpf ogt, %36, %86 : tensor<16xf32> loc(#loc135)
    %88 = arith.cmpf une, %36, %36 : tensor<16xf32> loc(#loc136)
    %89 = arith.ori %87, %88 : tensor<16xi1> loc(#loc137)
    %90 = arith.select %89, %36, %86 : tensor<16xi1>, tensor<16xf32> loc(#loc138)
    %91 = arith.cmpf ogt, %39, %90 : tensor<16xf32> loc(#loc139)
    %92 = arith.cmpf une, %39, %39 : tensor<16xf32> loc(#loc140)
    %93 = arith.ori %91, %92 : tensor<16xi1> loc(#loc141)
    %94 = arith.select %93, %39, %90 : tensor<16xi1>, tensor<16xf32> loc(#loc142)
    %95 = arith.cmpf ogt, %42, %94 : tensor<16xf32> loc(#loc143)
    %96 = arith.cmpf une, %42, %42 : tensor<16xf32> loc(#loc144)
    %97 = arith.ori %95, %96 : tensor<16xi1> loc(#loc145)
    %98 = arith.select %97, %42, %94 : tensor<16xi1>, tensor<16xf32> loc(#loc146)
    %99 = arith.cmpf ogt, %45, %98 : tensor<16xf32> loc(#loc147)
    %100 = arith.cmpf une, %45, %45 : tensor<16xf32> loc(#loc148)
    %101 = arith.ori %99, %100 : tensor<16xi1> loc(#loc149)
    %102 = arith.select %101, %45, %98 : tensor<16xi1>, tensor<16xf32> loc(#loc150)
    %103 = arith.cmpf ogt, %48, %102 : tensor<16xf32> loc(#loc151)
    %104 = arith.cmpf une, %48, %48 : tensor<16xf32> loc(#loc152)
    %105 = arith.ori %103, %104 : tensor<16xi1> loc(#loc153)
    %106 = arith.select %105, %48, %102 : tensor<16xi1>, tensor<16xf32> loc(#loc154)
    %107 = arith.cmpf ogt, %51, %106 : tensor<16xf32> loc(#loc155)
    %108 = arith.cmpf une, %51, %51 : tensor<16xf32> loc(#loc156)
    %109 = arith.ori %107, %108 : tensor<16xi1> loc(#loc157)
    %110 = arith.select %109, %51, %106 : tensor<16xi1>, tensor<16xf32> loc(#loc158)
    %111 = arith.cmpf ogt, %54, %110 : tensor<16xf32> loc(#loc159)
    %112 = arith.cmpf une, %54, %54 : tensor<16xf32> loc(#loc160)
    %113 = arith.ori %111, %112 : tensor<16xi1> loc(#loc161)
    %114 = arith.select %113, %54, %110 : tensor<16xi1>, tensor<16xf32> loc(#loc162)
    %115 = arith.select %55, %cst_16, %cst_15 : tensor<16xi1>, tensor<16xi8> loc(#loc74)
    %116 = arith.select %59, %cst_14, %115 : tensor<16xi1>, tensor<16xi8> loc(#loc75)
    %117 = arith.select %63, %cst_13, %116 : tensor<16xi1>, tensor<16xi8> loc(#loc76)
    %118 = arith.select %67, %cst_12, %117 : tensor<16xi1>, tensor<16xi8> loc(#loc77)
    %119 = arith.select %71, %cst_11, %118 : tensor<16xi1>, tensor<16xi8> loc(#loc78)
    %120 = arith.select %75, %cst_10, %119 : tensor<16xi1>, tensor<16xi8> loc(#loc79)
    %121 = arith.select %79, %cst_9, %120 : tensor<16xi1>, tensor<16xi8> loc(#loc80)
    %122 = arith.select %83, %cst_8, %121 : tensor<16xi1>, tensor<16xi8> loc(#loc81)
    %123 = arith.select %87, %cst_7, %122 : tensor<16xi1>, tensor<16xi8> loc(#loc82)
    %124 = arith.select %91, %cst_6, %123 : tensor<16xi1>, tensor<16xi8> loc(#loc83)
    %125 = arith.select %95, %cst_5, %124 : tensor<16xi1>, tensor<16xi8> loc(#loc84)
    %126 = arith.select %99, %cst_4, %125 : tensor<16xi1>, tensor<16xi8> loc(#loc85)
    %127 = arith.select %103, %cst_3, %126 : tensor<16xi1>, tensor<16xi8> loc(#loc86)
    %128 = arith.select %107, %cst_2, %127 : tensor<16xi1>, tensor<16xi8> loc(#loc87)
    %129 = arith.select %111, %cst_1, %128 : tensor<16xi1>, tensor<16xi8> loc(#loc88)
    %130 = arith.subf %cst, %114 : tensor<16xf32> loc(#loc163)
    %131 = math.exp %130 : tensor<16xf32> loc(#loc164)
    %132 = arith.addf %131, %cst_0 : tensor<16xf32> loc(#loc165)
    %133 = arith.divf %cst_0, %132 : tensor<16xf32> loc(#loc166)
    %134 = arith.subf %cst_0, %133 : tensor<16xf32> loc(#loc94)
    %135 = arith.mulf %133, %134 : tensor<16xf32> loc(#loc95)
    %136 = tt.splat %arg2 : !tt.ptr<i8> -> tensor<16x!tt.ptr<i8>> loc(#loc96)
    %137 = tt.addptr %136, %4 : tensor<16x!tt.ptr<i8>>, tensor<16xi32> loc(#loc96)
    tt.store %137, %129, %5 : tensor<16x!tt.ptr<i8>> loc(#loc97)
    %138 = tt.splat %arg0 : !tt.ptr<f32> -> tensor<16x!tt.ptr<f32>> loc(#loc98)
    %139 = tt.addptr %138, %4 : tensor<16x!tt.ptr<f32>>, tensor<16xi32> loc(#loc98)
    tt.store %139, %133, %5 : tensor<16x!tt.ptr<f32>> loc(#loc99)
    %140 = tt.splat %arg3 : !tt.ptr<f32> -> tensor<16x!tt.ptr<f32>> loc(#loc100)
    %141 = tt.addptr %140, %4 : tensor<16x!tt.ptr<f32>>, tensor<16xi32> loc(#loc100)
    tt.store %141, %135, %5 : tensor<16x!tt.ptr<f32>> loc(#loc101)
    tt.return loc(#loc102)
  } loc(#loc)
} loc(#loc)
#loc1 = loc(unknown)
#loc2 = loc("inductor_cache/w3/cw3zx7zi6w5f5epgqwhw7te4thcdki3qu3zszbxsolvjdbudnm52.py":21:28)
#loc3 = loc("inductor_cache/w3/cw3zx7zi6w5f5epgqwhw7te4thcdki3qu3zszbxsolvjdbudnm52.py":21:33)
#loc4 = loc("inductor_cache/w3/cw3zx7zi6w5f5epgqwhw7te4thcdki3qu3zszbxsolvjdbudnm52.py":22:36)
#loc5 = loc("inductor_cache/w3/cw3zx7zi6w5f5epgqwhw7te4thcdki3qu3zszbxsolvjdbudnm52.py":22:23)
#loc6 = loc("inductor_cache/w3/cw3zx7zi6w5f5epgqwhw7te4thcdki3qu3zszbxsolvjdbudnm52.py":23:21)
#loc7 = loc("inductor_cache/w3/cw3zx7zi6w5f5epgqwhw7te4thcdki3qu3zszbxsolvjdbudnm52.py":25:33)
#loc8 = loc("inductor_cache/w3/cw3zx7zi6w5f5epgqwhw7te4thcdki3qu3zszbxsolvjdbudnm52.py":25:30)
#loc9 = loc("inductor_cache/w3/cw3zx7zi6w5f5epgqwhw7te4thcdki3qu3zszbxsolvjdbudnm52.py":25:38)
#loc10 = loc("inductor_cache/w3/cw3zx7zi6w5f5epgqwhw7te4thcdki3qu3zszbxsolvjdbudnm52.py":26:34)
#loc11 = loc("inductor_cache/w3/cw3zx7zi6w5f5epgqwhw7te4thcdki3qu3zszbxsolvjdbudnm52.py":26:30)
#loc12 = loc("inductor_cache/w3/cw3zx7zi6w5f5epgqwhw7te4thcdki3qu3zszbxsolvjdbudnm52.py":26:42)
#loc13 = loc("inductor_cache/w3/cw3zx7zi6w5f5epgqwhw7te4thcdki3qu3zszbxsolvjdbudnm52.py":27:34)
#loc14 = loc("inductor_cache/w3/cw3zx7zi6w5f5epgqwhw7te4thcdki3qu3zszbxsolvjdbudnm52.py":27:30)
#loc15 = loc("inductor_cache/w3/cw3zx7zi6w5f5epgqwhw7te4thcdki3qu3zszbxsolvjdbudnm52.py":27:42)
#loc16 = loc("inductor_cache/w3/cw3zx7zi6w5f5epgqwhw7te4thcdki3qu3zszbxsolvjdbudnm52.py":28:34)
#loc17 = loc("inductor_cache/w3/cw3zx7zi6w5f5epgqwhw7te4thcdki3qu3zszbxsolvjdbudnm52.py":28:30)
#loc18 = loc("inductor_cache/w3/cw3zx7zi6w5f5epgqwhw7te4thcdki3qu3zszbxsolvjdbudnm52.py":28:42)
#loc19 = loc("inductor_cache/w3/cw3zx7zi6w5f5epgqwhw7te4thcdki3qu3zszbxsolvjdbudnm52.py":29:34)
#loc20 = loc("inductor_cache/w3/cw3zx7zi6w5f5epgqwhw7te4thcdki3qu3zszbxsolvjdbudnm52.py":29:30)
#loc21 = loc("inductor_cache/w3/cw3zx7zi6w5f5epgqwhw7te4thcdki3qu3zszbxsolvjdbudnm52.py":29:42)
#loc22 = loc("inductor_cache/w3/cw3zx7zi6w5f5epgqwhw7te4thcdki3qu3zszbxsolvjdbudnm52.py":30:34)
#loc23 = loc("inductor_cache/w3/cw3zx7zi6w5f5epgqwhw7te4thcdki3qu3zszbxsolvjdbudnm52.py":30:30)
#loc24 = loc("inductor_cache/w3/cw3zx7zi6w5f5epgqwhw7te4thcdki3qu3zszbxsolvjdbudnm52.py":30:42)
#loc25 = loc("inductor_cache/w3/cw3zx7zi6w5f5epgqwhw7te4thcdki3qu3zszbxsolvjdbudnm52.py":31:35)
#loc26 = loc("inductor_cache/w3/cw3zx7zi6w5f5epgqwhw7te4thcdki3qu3zszbxsolvjdbudnm52.py":31:31)
#loc27 = loc("inductor_cache/w3/cw3zx7zi6w5f5epgqwhw7te4thcdki3qu3zszbxsolvjdbudnm52.py":31:43)
#loc28 = loc("inductor_cache/w3/cw3zx7zi6w5f5epgqwhw7te4thcdki3qu3zszbxsolvjdbudnm52.py":32:35)
#loc29 = loc("inductor_cache/w3/cw3zx7zi6w5f5epgqwhw7te4thcdki3qu3zszbxsolvjdbudnm52.py":32:31)
#loc30 = loc("inductor_cache/w3/cw3zx7zi6w5f5epgqwhw7te4thcdki3qu3zszbxsolvjdbudnm52.py":32:43)
#loc31 = loc("inductor_cache/w3/cw3zx7zi6w5f5epgqwhw7te4thcdki3qu3zszbxsolvjdbudnm52.py":33:35)
#loc32 = loc("inductor_cache/w3/cw3zx7zi6w5f5epgqwhw7te4thcdki3qu3zszbxsolvjdbudnm52.py":33:31)
#loc33 = loc("inductor_cache/w3/cw3zx7zi6w5f5epgqwhw7te4thcdki3qu3zszbxsolvjdbudnm52.py":33:43)
#loc34 = loc("inductor_cache/w3/cw3zx7zi6w5f5epgqwhw7te4thcdki3qu3zszbxsolvjdbudnm52.py":34:35)
#loc35 = loc("inductor_cache/w3/cw3zx7zi6w5f5epgqwhw7te4thcdki3qu3zszbxsolvjdbudnm52.py":34:31)
#loc36 = loc("inductor_cache/w3/cw3zx7zi6w5f5epgqwhw7te4thcdki3qu3zszbxsolvjdbudnm52.py":34:43)
#loc37 = loc("inductor_cache/w3/cw3zx7zi6w5f5epgqwhw7te4thcdki3qu3zszbxsolvjdbudnm52.py":35:36)
#loc38 = loc("inductor_cache/w3/cw3zx7zi6w5f5epgqwhw7te4thcdki3qu3zszbxsolvjdbudnm52.py":35:31)
#loc39 = loc("inductor_cache/w3/cw3zx7zi6w5f5epgqwhw7te4thcdki3qu3zszbxsolvjdbudnm52.py":35:44)
#loc40 = loc("inductor_cache/w3/cw3zx7zi6w5f5epgqwhw7te4thcdki3qu3zszbxsolvjdbudnm52.py":36:36)
#loc41 = loc("inductor_cache/w3/cw3zx7zi6w5f5epgqwhw7te4thcdki3qu3zszbxsolvjdbudnm52.py":36:31)
#loc42 = loc("inductor_cache/w3/cw3zx7zi6w5f5epgqwhw7te4thcdki3qu3zszbxsolvjdbudnm52.py":36:44)
#loc43 = loc("inductor_cache/w3/cw3zx7zi6w5f5epgqwhw7te4thcdki3qu3zszbxsolvjdbudnm52.py":37:36)
#loc44 = loc("inductor_cache/w3/cw3zx7zi6w5f5epgqwhw7te4thcdki3qu3zszbxsolvjdbudnm52.py":37:31)
#loc45 = loc("inductor_cache/w3/cw3zx7zi6w5f5epgqwhw7te4thcdki3qu3zszbxsolvjdbudnm52.py":37:44)
#loc46 = loc("inductor_cache/w3/cw3zx7zi6w5f5epgqwhw7te4thcdki3qu3zszbxsolvjdbudnm52.py":38:36)
#loc47 = loc("inductor_cache/w3/cw3zx7zi6w5f5epgqwhw7te4thcdki3qu3zszbxsolvjdbudnm52.py":38:31)
#loc48 = loc("inductor_cache/w3/cw3zx7zi6w5f5epgqwhw7te4thcdki3qu3zszbxsolvjdbudnm52.py":38:44)
#loc49 = loc("inductor_cache/w3/cw3zx7zi6w5f5epgqwhw7te4thcdki3qu3zszbxsolvjdbudnm52.py":39:36)
#loc50 = loc("inductor_cache/w3/cw3zx7zi6w5f5epgqwhw7te4thcdki3qu3zszbxsolvjdbudnm52.py":39:31)
#loc51 = loc("inductor_cache/w3/cw3zx7zi6w5f5epgqwhw7te4thcdki3qu3zszbxsolvjdbudnm52.py":39:44)
#loc52 = loc("inductor_cache/w3/cw3zx7zi6w5f5epgqwhw7te4thcdki3qu3zszbxsolvjdbudnm52.py":40:36)
#loc53 = loc("inductor_cache/w3/cw3zx7zi6w5f5epgqwhw7te4thcdki3qu3zszbxsolvjdbudnm52.py":40:31)
#loc54 = loc("inductor_cache/w3/cw3zx7zi6w5f5epgqwhw7te4thcdki3qu3zszbxsolvjdbudnm52.py":40:44)
#loc55 = loc("/home/sahanp/.conda/envs/parity-bench/lib/python3.12/site-packages/torch/_inductor/runtime/triton_helpers.py":118:15)
#loc56 = loc("inductor_cache/w3/cw3zx7zi6w5f5epgqwhw7te4thcdki3qu3zszbxsolvjdbudnm52.py":41:40)
#loc57 = loc("/home/sahanp/.conda/envs/parity-bench/lib/python3.12/site-packages/torch/_inductor/runtime/triton_helpers.py":120:21)
#loc58 = loc("/home/sahanp/.conda/envs/parity-bench/lib/python3.12/site-packages/torch/_inductor/runtime/triton_helpers.py":120:16)
#loc59 = loc("/home/sahanp/.conda/envs/parity-bench/lib/python3.12/site-packages/torch/_inductor/runtime/triton_helpers.py":121:29)
#loc60 = loc("inductor_cache/w3/cw3zx7zi6w5f5epgqwhw7te4thcdki3qu3zszbxsolvjdbudnm52.py":42:40)
#loc61 = loc("inductor_cache/w3/cw3zx7zi6w5f5epgqwhw7te4thcdki3qu3zszbxsolvjdbudnm52.py":43:40)
#loc62 = loc("inductor_cache/w3/cw3zx7zi6w5f5epgqwhw7te4thcdki3qu3zszbxsolvjdbudnm52.py":44:40)
#loc63 = loc("inductor_cache/w3/cw3zx7zi6w5f5epgqwhw7te4thcdki3qu3zszbxsolvjdbudnm52.py":45:41)
#loc64 = loc("inductor_cache/w3/cw3zx7zi6w5f5epgqwhw7te4thcdki3qu3zszbxsolvjdbudnm52.py":46:42)
#loc65 = loc("inductor_cache/w3/cw3zx7zi6w5f5epgqwhw7te4thcdki3qu3zszbxsolvjdbudnm52.py":47:42)
#loc66 = loc("inductor_cache/w3/cw3zx7zi6w5f5epgqwhw7te4thcdki3qu3zszbxsolvjdbudnm52.py":48:42)
#loc67 = loc("inductor_cache/w3/cw3zx7zi6w5f5epgqwhw7te4thcdki3qu3zszbxsolvjdbudnm52.py":49:42)
#loc68 = loc("inductor_cache/w3/cw3zx7zi6w5f5epgqwhw7te4thcdki3qu3zszbxsolvjdbudnm52.py":50:42)
#loc69 = loc("inductor_cache/w3/cw3zx7zi6w5f5epgqwhw7te4thcdki3qu3zszbxsolvjdbudnm52.py":51:42)
#loc70 = loc("inductor_cache/w3/cw3zx7zi6w5f5epgqwhw7te4thcdki3qu3zszbxsolvjdbudnm52.py":52:42)
#loc71 = loc("inductor_cache/w3/cw3zx7zi6w5f5epgqwhw7te4thcdki3qu3zszbxsolvjdbudnm52.py":53:42)
#loc72 = loc("inductor_cache/w3/cw3zx7zi6w5f5epgqwhw7te4thcdki3qu3zszbxsolvjdbudnm52.py":54:42)
#loc73 = loc("inductor_cache/w3/cw3zx7zi6w5f5epgqwhw7te4thcdki3qu3zszbxsolvjdbudnm52.py":55:42)
#loc74 = loc("inductor_cache/w3/cw3zx7zi6w5f5epgqwhw7te4thcdki3qu3zszbxsolvjdbudnm52.py":59:35)
#loc75 = loc("inductor_cache/w3/cw3zx7zi6w5f5epgqwhw7te4thcdki3qu3zszbxsolvjdbudnm52.py":62:35)
#loc76 = loc("inductor_cache/w3/cw3zx7zi6w5f5epgqwhw7te4thcdki3qu3zszbxsolvjdbudnm52.py":65:35)
#loc77 = loc("inductor_cache/w3/cw3zx7zi6w5f5epgqwhw7te4thcdki3qu3zszbxsolvjdbudnm52.py":68:35)
#loc78 = loc("inductor_cache/w3/cw3zx7zi6w5f5epgqwhw7te4thcdki3qu3zszbxsolvjdbudnm52.py":71:35)
#loc79 = loc("inductor_cache/w3/cw3zx7zi6w5f5epgqwhw7te4thcdki3qu3zszbxsolvjdbudnm52.py":74:35)
#loc80 = loc("inductor_cache/w3/cw3zx7zi6w5f5epgqwhw7te4thcdki3qu3zszbxsolvjdbudnm52.py":77:35)
#loc81 = loc("inductor_cache/w3/cw3zx7zi6w5f5epgqwhw7te4thcdki3qu3zszbxsolvjdbudnm52.py":80:35)
#loc82 = loc("inductor_cache/w3/cw3zx7zi6w5f5epgqwhw7te4thcdki3qu3zszbxsolvjdbudnm52.py":83:35)
#loc83 = loc("inductor_cache/w3/cw3zx7zi6w5f5epgqwhw7te4thcdki3qu3zszbxsolvjdbudnm52.py":86:35)
#loc84 = loc("inductor_cache/w3/cw3zx7zi6w5f5epgqwhw7te4thcdki3qu3zszbxsolvjdbudnm52.py":89:35)
#loc85 = loc("inductor_cache/w3/cw3zx7zi6w5f5epgqwhw7te4thcdki3qu3zszbxsolvjdbudnm52.py":92:35)
#loc86 = loc("inductor_cache/w3/cw3zx7zi6w5f5epgqwhw7te4thcdki3qu3zszbxsolvjdbudnm52.py":95:35)
#loc87 = loc("inductor_cache/w3/cw3zx7zi6w5f5epgqwhw7te4thcdki3qu3zszbxsolvjdbudnm52.py":98:35)
#loc88 = loc("inductor_cache/w3/cw3zx7zi6w5f5epgqwhw7te4thcdki3qu3zszbxsolvjdbudnm52.py":101:35)
#loc89 = loc("/home/sahanp/.conda/envs/parity-bench/lib/python3.12/site-packages/triton/language/standard.py":47:30)
#loc90 = loc("inductor_cache/w3/cw3zx7zi6w5f5epgqwhw7te4thcdki3qu3zszbxsolvjdbudnm52.py":102:23)
#loc91 = loc("/home/sahanp/.conda/envs/parity-bench/lib/python3.12/site-packages/triton/language/standard.py":47:29)
#loc92 = loc("/home/sahanp/.conda/envs/parity-bench/lib/python3.12/site-packages/triton/language/standard.py":47:20)
#loc93 = loc("/home/sahanp/.conda/envs/parity-bench/lib/python3.12/site-packages/triton/language/standard.py":47:16)
#loc94 = loc("inductor_cache/w3/cw3zx7zi6w5f5epgqwhw7te4thcdki3qu3zszbxsolvjdbudnm52.py":104:20)
#loc95 = loc("inductor_cache/w3/cw3zx7zi6w5f5epgqwhw7te4thcdki3qu3zszbxsolvjdbudnm52.py":105:20)
#loc96 = loc("inductor_cache/w3/cw3zx7zi6w5f5epgqwhw7te4thcdki3qu3zszbxsolvjdbudnm52.py":106:25)
#loc97 = loc("inductor_cache/w3/cw3zx7zi6w5f5epgqwhw7te4thcdki3qu3zszbxsolvjdbudnm52.py":106:37)
#loc98 = loc("inductor_cache/w3/cw3zx7zi6w5f5epgqwhw7te4thcdki3qu3zszbxsolvjdbudnm52.py":107:28)
#loc99 = loc("inductor_cache/w3/cw3zx7zi6w5f5epgqwhw7te4thcdki3qu3zszbxsolvjdbudnm52.py":107:40)
#loc100 = loc("inductor_cache/w3/cw3zx7zi6w5f5epgqwhw7te4thcdki3qu3zszbxsolvjdbudnm52.py":108:25)
#loc101 = loc("inductor_cache/w3/cw3zx7zi6w5f5epgqwhw7te4thcdki3qu3zszbxsolvjdbudnm52.py":108:37)
#loc102 = loc("inductor_cache/w3/cw3zx7zi6w5f5epgqwhw7te4thcdki3qu3zszbxsolvjdbudnm52.py":108:4)
#loc103 = loc(callsite(#loc55 at #loc56))
#loc104 = loc(callsite(#loc57 at #loc56))
#loc105 = loc(callsite(#loc58 at #loc56))
#loc106 = loc(callsite(#loc59 at #loc56))
#loc107 = loc(callsite(#loc55 at #loc60))
#loc108 = loc(callsite(#loc57 at #loc60))
#loc109 = loc(callsite(#loc58 at #loc60))
#loc110 = loc(callsite(#loc59 at #loc60))
#loc111 = loc(callsite(#loc55 at #loc61))
#loc112 = loc(callsite(#loc57 at #loc61))
#loc113 = loc(callsite(#loc58 at #loc61))
#loc114 = loc(callsite(#loc59 at #loc61))
#loc115 = loc(callsite(#loc55 at #loc62))
#loc116 = loc(callsite(#loc57 at #loc62))
#loc117 = loc(callsite(#loc58 at #loc62))
#loc118 = loc(callsite(#loc59 at #loc62))
#loc119 = loc(callsite(#loc55 at #loc63))
#loc120 = loc(callsite(#loc57 at #loc63))
#loc121 = loc(callsite(#loc58 at #loc63))
#loc122 = loc(callsite(#loc59 at #loc63))
#loc123 = loc(callsite(#loc55 at #loc64))
#loc124 = loc(callsite(#loc57 at #loc64))
#loc125 = loc(callsite(#loc58 at #loc64))
#loc126 = loc(callsite(#loc59 at #loc64))
#loc127 = loc(callsite(#loc55 at #loc65))
#loc128 = loc(callsite(#loc57 at #loc65))
#loc129 = loc(callsite(#loc58 at #loc65))
#loc130 = loc(callsite(#loc59 at #loc65))
#loc131 = loc(callsite(#loc55 at #loc66))
#loc132 = loc(callsite(#loc57 at #loc66))
#loc133 = loc(callsite(#loc58 at #loc66))
#loc134 = loc(callsite(#loc59 at #loc66))
#loc135 = loc(callsite(#loc55 at #loc67))
#loc136 = loc(callsite(#loc57 at #loc67))
#loc137 = loc(callsite(#loc58 at #loc67))
#loc138 = loc(callsite(#loc59 at #loc67))
#loc139 = loc(callsite(#loc55 at #loc68))
#loc140 = loc(callsite(#loc57 at #loc68))
#loc141 = loc(callsite(#loc58 at #loc68))
#loc142 = loc(callsite(#loc59 at #loc68))
#loc143 = loc(callsite(#loc55 at #loc69))
#loc144 = loc(callsite(#loc57 at #loc69))
#loc145 = loc(callsite(#loc58 at #loc69))
#loc146 = loc(callsite(#loc59 at #loc69))
#loc147 = loc(callsite(#loc55 at #loc70))
#loc148 = loc(callsite(#loc57 at #loc70))
#loc149 = loc(callsite(#loc58 at #loc70))
#loc150 = loc(callsite(#loc59 at #loc70))
#loc151 = loc(callsite(#loc55 at #loc71))
#loc152 = loc(callsite(#loc57 at #loc71))
#loc153 = loc(callsite(#loc58 at #loc71))
#loc154 = loc(callsite(#loc59 at #loc71))
#loc155 = loc(callsite(#loc55 at #loc72))
#loc156 = loc(callsite(#loc57 at #loc72))
#loc157 = loc(callsite(#loc58 at #loc72))
#loc158 = loc(callsite(#loc59 at #loc72))
#loc159 = loc(callsite(#loc55 at #loc73))
#loc160 = loc(callsite(#loc57 at #loc73))
#loc161 = loc(callsite(#loc58 at #loc73))
#loc162 = loc(callsite(#loc59 at #loc73))
#loc163 = loc(callsite(#loc89 at #loc90))
#loc164 = loc(callsite(#loc91 at #loc90))
#loc165 = loc(callsite(#loc92 at #loc90))
#loc166 = loc(callsite(#loc93 at #loc90))
