#loc = loc("inductor_cache/rk/crkguyfp2nq4sao7qjnorsbfgj2leyapxdivuxylq2migsr3n3uh.py":19:0)
#loc1 = loc(unknown)
#loc17 = loc("inductor_cache/rk/crkguyfp2nq4sao7qjnorsbfgj2leyapxdivuxylq2migsr3n3uh.py":39:24)
#loc27 = loc(callsite(#loc1 at #loc17))
module {
  tt.func public @triton_per_fused_mean_pow_sqrt_sub_1(%arg0: !tt.ptr<f32> {tt.divisibility = 16 : i32} loc("inductor_cache/rk/crkguyfp2nq4sao7qjnorsbfgj2leyapxdivuxylq2migsr3n3uh.py":19:0), %arg1: !tt.ptr<f32> {tt.divisibility = 16 : i32} loc("inductor_cache/rk/crkguyfp2nq4sao7qjnorsbfgj2leyapxdivuxylq2migsr3n3uh.py":19:0), %arg2: !tt.ptr<f32> {tt.divisibility = 16 : i32} loc("inductor_cache/rk/crkguyfp2nq4sao7qjnorsbfgj2leyapxdivuxylq2migsr3n3uh.py":19:0), %arg3: i32 {tt.divisibility = 16 : i32} loc("inductor_cache/rk/crkguyfp2nq4sao7qjnorsbfgj2leyapxdivuxylq2migsr3n3uh.py":19:0), %arg4: i32 {tt.divisibility = 16 : i32} loc("inductor_cache/rk/crkguyfp2nq4sao7qjnorsbfgj2leyapxdivuxylq2migsr3n3uh.py":19:0)) attributes {noinline = false} {
    %c16_i32 = arith.constant 16 : i32 loc(#loc1)
    %cst = arith.constant dense<1.600000e+01> : tensor<1x1xf32> loc(#loc1)
    %cst_0 = arith.constant dense<1.600000e+01> : tensor<1x16xf32> loc(#loc1)
    %cst_1 = arith.constant dense<0.000000e+00> : tensor<1x16xf32> loc(#loc1)
    %0 = tt.get_program_id x : i32 loc(#loc2)
    %1 = arith.cmpi slt, %0, %c16_i32 : i32 loc(#loc3)
    %2 = tt.splat %1 : i1 -> tensor<1x1xi1> loc(#loc3)
    %3 = tt.make_range {end = 16 : i32, start = 0 : i32} : tensor<16xi32> loc(#loc4)
    %4 = tt.expand_dims %3 {axis = 0 : i32} : tensor<16xi32> -> tensor<1x16xi32> loc(#loc5)
    %5 = arith.muli %0, %c16_i32 : i32 loc(#loc6)
    %6 = tt.splat %5 : i32 -> tensor<1x16xi32> loc(#loc7)
    %7 = arith.addi %4, %6 : tensor<1x16xi32> loc(#loc7)
    %8 = tt.splat %arg1 : !tt.ptr<f32> -> tensor<1x16x!tt.ptr<f32>> loc(#loc8)
    %9 = tt.addptr %8, %7 : tensor<1x16x!tt.ptr<f32>>, tensor<1x16xi32> loc(#loc8)
    %10 = tt.splat %1 : i1 -> tensor<1x16xi1> loc(#loc9)
    %11 = tt.load %9, %10, %cst_1 : tensor<1x16x!tt.ptr<f32>> loc(#loc9)
    %12 = tt.splat %arg2 : !tt.ptr<f32> -> tensor<1x16x!tt.ptr<f32>> loc(#loc10)
    %13 = tt.addptr %12, %4 : tensor<1x16x!tt.ptr<f32>>, tensor<1x16xi32> loc(#loc10)
    %14 = tt.load %13 evictionPolicy = evict_last : tensor<1x16x!tt.ptr<f32>> loc(#loc11)
    %15 = arith.divf %14, %cst_0 : tensor<1x16xf32> loc(#loc12)
    %16 = arith.subf %11, %15 : tensor<1x16xf32> loc(#loc13)
    %17 = arith.mulf %16, %16 : tensor<1x16xf32> loc(#loc14)
    %18 = arith.select %10, %17, %cst_1 : tensor<1x16xi1>, tensor<1x16xf32> loc(#loc15)
    %19 = "tt.reduce"(%18) <{axis = 1 : i32}> ({
    ^bb0(%arg5: f32 loc(callsite(#loc1 at #loc17)), %arg6: f32 loc(callsite(#loc1 at #loc17))):
      %25 = arith.addf %arg5, %arg6 : f32 loc(#loc29)
      tt.reduce.return %25 : f32 loc(#loc26)
    }) : (tensor<1x16xf32>) -> tensor<1xf32> loc(#loc26)
    %20 = tt.expand_dims %19 {axis = 1 : i32} : tensor<1xf32> -> tensor<1x1xf32> loc(#loc19)
    %21 = arith.divf %20, %cst : tensor<1x1xf32> loc(#loc20)
    %22 = tt.extern_elementwise %21 {libname = "", libpath = "", pure = true, symbol = "__nv_sqrtf"} : (tensor<1x1xf32>) -> tensor<1x1xf32> loc(#loc21)
    gpu.barrier loc(#loc22)
    %23 = tt.addptr %arg0, %0 : !tt.ptr<f32>, i32 loc(#loc23)
    %24 = tt.splat %23 : !tt.ptr<f32> -> tensor<1x1x!tt.ptr<f32>> loc(#loc23)
    tt.store %24, %22, %2 : tensor<1x1x!tt.ptr<f32>> loc(#loc24)
    tt.return loc(#loc25)
  } loc(#loc)
} loc(#loc)
#loc2 = loc("inductor_cache/rk/crkguyfp2nq4sao7qjnorsbfgj2leyapxdivuxylq2migsr3n3uh.py":23:28)
#loc3 = loc("inductor_cache/rk/crkguyfp2nq4sao7qjnorsbfgj2leyapxdivuxylq2migsr3n3uh.py":25:21)
#loc4 = loc("inductor_cache/rk/crkguyfp2nq4sao7qjnorsbfgj2leyapxdivuxylq2migsr3n3uh.py":26:26)
#loc5 = loc("inductor_cache/rk/crkguyfp2nq4sao7qjnorsbfgj2leyapxdivuxylq2migsr3n3uh.py":26:34)
#loc6 = loc("inductor_cache/rk/crkguyfp2nq4sao7qjnorsbfgj2leyapxdivuxylq2migsr3n3uh.py":31:38)
#loc7 = loc("inductor_cache/rk/crkguyfp2nq4sao7qjnorsbfgj2leyapxdivuxylq2migsr3n3uh.py":31:35)
#loc8 = loc("inductor_cache/rk/crkguyfp2nq4sao7qjnorsbfgj2leyapxdivuxylq2migsr3n3uh.py":31:30)
#loc9 = loc("inductor_cache/rk/crkguyfp2nq4sao7qjnorsbfgj2leyapxdivuxylq2migsr3n3uh.py":31:43)
#loc10 = loc("inductor_cache/rk/crkguyfp2nq4sao7qjnorsbfgj2leyapxdivuxylq2migsr3n3uh.py":32:30)
#loc11 = loc("inductor_cache/rk/crkguyfp2nq4sao7qjnorsbfgj2leyapxdivuxylq2migsr3n3uh.py":32:35)
#loc12 = loc("inductor_cache/rk/crkguyfp2nq4sao7qjnorsbfgj2leyapxdivuxylq2migsr3n3uh.py":34:18)
#loc13 = loc("inductor_cache/rk/crkguyfp2nq4sao7qjnorsbfgj2leyapxdivuxylq2migsr3n3uh.py":35:18)
#loc14 = loc("inductor_cache/rk/crkguyfp2nq4sao7qjnorsbfgj2leyapxdivuxylq2migsr3n3uh.py":36:18)
#loc15 = loc("inductor_cache/rk/crkguyfp2nq4sao7qjnorsbfgj2leyapxdivuxylq2migsr3n3uh.py":38:33)
#loc16 = loc("/home/sahanp/.conda/envs/parity-bench/lib/python3.12/site-packages/triton/language/standard.py":267:36)
#loc18 = loc("/home/sahanp/.conda/envs/parity-bench/lib/python3.12/site-packages/triton/language/standard.py":256:15)
#loc19 = loc("inductor_cache/rk/crkguyfp2nq4sao7qjnorsbfgj2leyapxdivuxylq2migsr3n3uh.py":39:27)
#loc20 = loc("inductor_cache/rk/crkguyfp2nq4sao7qjnorsbfgj2leyapxdivuxylq2migsr3n3uh.py":40:19)
#loc21 = loc("inductor_cache/rk/crkguyfp2nq4sao7qjnorsbfgj2leyapxdivuxylq2migsr3n3uh.py":41:27)
#loc22 = loc("inductor_cache/rk/crkguyfp2nq4sao7qjnorsbfgj2leyapxdivuxylq2migsr3n3uh.py":42:4)
#loc23 = loc("inductor_cache/rk/crkguyfp2nq4sao7qjnorsbfgj2leyapxdivuxylq2migsr3n3uh.py":43:28)
#loc24 = loc("inductor_cache/rk/crkguyfp2nq4sao7qjnorsbfgj2leyapxdivuxylq2migsr3n3uh.py":43:40)
#loc25 = loc("inductor_cache/rk/crkguyfp2nq4sao7qjnorsbfgj2leyapxdivuxylq2migsr3n3uh.py":43:4)
#loc26 = loc(callsite(#loc16 at #loc17))
#loc28 = loc(callsite(#loc18 at #loc16))
#loc29 = loc(callsite(#loc28 at #loc17))
