#loc = loc("inductor_cache/os/cossk4x7jv2xjowrlcn4k4ere73ppew3jcqi5ziwac5343ca5off.py":19:0)
module {
  tt.func public @triton_poi_fused__native_batch_norm_legit_no_training__unsafe_index_relu_36(%arg0: !tt.ptr<i64> {tt.divisibility = 16 : i32} loc("inductor_cache/os/cossk4x7jv2xjowrlcn4k4ere73ppew3jcqi5ziwac5343ca5off.py":19:0), %arg1: !tt.ptr<f32> {tt.divisibility = 16 : i32} loc("inductor_cache/os/cossk4x7jv2xjowrlcn4k4ere73ppew3jcqi5ziwac5343ca5off.py":19:0), %arg2: !tt.ptr<f32> {tt.divisibility = 16 : i32} loc("inductor_cache/os/cossk4x7jv2xjowrlcn4k4ere73ppew3jcqi5ziwac5343ca5off.py":19:0), %arg3: !tt.ptr<f32> {tt.divisibility = 16 : i32} loc("inductor_cache/os/cossk4x7jv2xjowrlcn4k4ere73ppew3jcqi5ziwac5343ca5off.py":19:0), %arg4: !tt.ptr<f32> {tt.divisibility = 16 : i32} loc("inductor_cache/os/cossk4x7jv2xjowrlcn4k4ere73ppew3jcqi5ziwac5343ca5off.py":19:0), %arg5: !tt.ptr<f32> {tt.divisibility = 16 : i32} loc("inductor_cache/os/cossk4x7jv2xjowrlcn4k4ere73ppew3jcqi5ziwac5343ca5off.py":19:0), %arg6: !tt.ptr<f32> {tt.divisibility = 16 : i32} loc("inductor_cache/os/cossk4x7jv2xjowrlcn4k4ere73ppew3jcqi5ziwac5343ca5off.py":19:0), %arg7: i32 {tt.divisibility = 16 : i32} loc("inductor_cache/os/cossk4x7jv2xjowrlcn4k4ere73ppew3jcqi5ziwac5343ca5off.py":19:0)) attributes {noinline = false} {
    %cst = arith.constant dense<0.000000e+00> : tensor<1024xf32> loc(#loc1)
    %cst_0 = arith.constant dense<1.000000e+00> : tensor<1024xf32> loc(#loc1)
    %cst_1 = arith.constant dense<0> : tensor<1024xi64> loc(#loc1)
    %cst_2 = arith.constant dense<131072> : tensor<1024xi32> loc(#loc1)
    %cst_3 = arith.constant dense<9.99999974E-6> : tensor<1024xf32> loc(#loc1)
    %cst_4 = arith.constant dense<64> : tensor<1024xi32> loc(#loc1)
    %cst_5 = arith.constant dense<8> : tensor<1024xi64> loc(#loc1)
    %cst_6 = arith.constant dense<65536> : tensor<1024xi32> loc(#loc1)
    %cst_7 = arith.constant dense<256> : tensor<1024xi32> loc(#loc1)
    %cst_8 = arith.constant dense<16> : tensor<1024xi32> loc(#loc1)
    %c1024_i32 = arith.constant 1024 : i32 loc(#loc1)
    %0 = tt.get_program_id x : i32 loc(#loc2)
    %1 = arith.muli %0, %c1024_i32 : i32 loc(#loc3)
    %2 = tt.make_range {end = 1024 : i32, start = 0 : i32} : tensor<1024xi32> loc(#loc4)
    %3 = tt.splat %1 : i32 -> tensor<1024xi32> loc(#loc5)
    %4 = arith.addi %3, %2 : tensor<1024xi32> loc(#loc5)
    %5 = arith.divsi %4, %cst_8 : tensor<1024xi32> loc(#loc6)
    %6 = arith.remsi %5, %cst_8 : tensor<1024xi32> loc(#loc7)
    %7 = arith.remsi %4, %cst_8 : tensor<1024xi32> loc(#loc8)
    %8 = arith.divsi %4, %cst_7 : tensor<1024xi32> loc(#loc9)
    %9 = arith.remsi %8, %cst_7 : tensor<1024xi32> loc(#loc10)
    %10 = arith.divsi %4, %cst_6 : tensor<1024xi32> loc(#loc11)
    %11 = arith.remsi %4, %cst_6 : tensor<1024xi32> loc(#loc12)
    %12 = tt.splat %arg0 : !tt.ptr<i64> -> tensor<1024x!tt.ptr<i64>> loc(#loc13)
    %13 = tt.addptr %12, %6 : tensor<1024x!tt.ptr<i64>>, tensor<1024xi32> loc(#loc13)
    %14 = tt.load %13 evictionPolicy = evict_last : tensor<1024x!tt.ptr<i64>> loc(#loc14)
    %15 = tt.addptr %12, %7 : tensor<1024x!tt.ptr<i64>>, tensor<1024xi32> loc(#loc15)
    %16 = tt.load %15 evictionPolicy = evict_last : tensor<1024x!tt.ptr<i64>> loc(#loc16)
    %17 = tt.splat %arg2 : !tt.ptr<f32> -> tensor<1024x!tt.ptr<f32>> loc(#loc17)
    %18 = tt.addptr %17, %9 : tensor<1024x!tt.ptr<f32>>, tensor<1024xi32> loc(#loc17)
    %19 = tt.load %18 evictionPolicy = evict_last : tensor<1024x!tt.ptr<f32>> loc(#loc18)
    %20 = tt.splat %arg3 : !tt.ptr<f32> -> tensor<1024x!tt.ptr<f32>> loc(#loc19)
    %21 = tt.addptr %20, %9 : tensor<1024x!tt.ptr<f32>>, tensor<1024xi32> loc(#loc19)
    %22 = tt.load %21 evictionPolicy = evict_last : tensor<1024x!tt.ptr<f32>> loc(#loc20)
    %23 = tt.splat %arg4 : !tt.ptr<f32> -> tensor<1024x!tt.ptr<f32>> loc(#loc21)
    %24 = tt.addptr %23, %9 : tensor<1024x!tt.ptr<f32>>, tensor<1024xi32> loc(#loc21)
    %25 = tt.load %24 evictionPolicy = evict_last : tensor<1024x!tt.ptr<f32>> loc(#loc22)
    %26 = tt.splat %arg5 : !tt.ptr<f32> -> tensor<1024x!tt.ptr<f32>> loc(#loc23)
    %27 = tt.addptr %26, %9 : tensor<1024x!tt.ptr<f32>>, tensor<1024xi32> loc(#loc23)
    %28 = tt.load %27 evictionPolicy = evict_last : tensor<1024x!tt.ptr<f32>> loc(#loc24)
    %29 = arith.addi %14, %cst_5 : tensor<1024xi64> loc(#loc25)
    %30 = arith.cmpi slt, %14, %cst_1 : tensor<1024xi64> loc(#loc26)
    %31 = arith.select %30, %29, %14 : tensor<1024xi1>, tensor<1024xi64> loc(#loc27)
    %32 = arith.addi %16, %cst_5 : tensor<1024xi64> loc(#loc28)
    %33 = arith.cmpi slt, %16, %cst_1 : tensor<1024xi64> loc(#loc29)
    %34 = arith.select %33, %32, %16 : tensor<1024xi1>, tensor<1024xi64> loc(#loc30)
    %35 = arith.muli %31, %cst_5 : tensor<1024xi64> loc(#loc31)
    %36 = arith.addi %34, %35 : tensor<1024xi64> loc(#loc32)
    %37 = arith.muli %8, %cst_4 : tensor<1024xi32> loc(#loc33)
    %38 = arith.extsi %37 : tensor<1024xi32> to tensor<1024xi64> loc(#loc34)
    %39 = arith.addi %36, %38 : tensor<1024xi64> loc(#loc34)
    %40 = tt.splat %arg1 : !tt.ptr<f32> -> tensor<1024x!tt.ptr<f32>> loc(#loc35)
    %41 = tt.addptr %40, %39 : tensor<1024x!tt.ptr<f32>>, tensor<1024xi64> loc(#loc35)
    %42 = tt.load %41 evictionPolicy = evict_last : tensor<1024x!tt.ptr<f32>> loc(#loc36)
    %43 = arith.subf %42, %19 : tensor<1024xf32> loc(#loc37)
    %44 = arith.addf %22, %cst_3 : tensor<1024xf32> loc(#loc38)
    %45 = tt.extern_elementwise %44 {libname = "", libpath = "", pure = true, symbol = "__nv_sqrtf"} : (tensor<1024xf32>) -> tensor<1024xf32> loc(#loc39)
    %46 = arith.divf %cst_0, %45 : tensor<1024xf32> loc(#loc40)
    %47 = arith.mulf %43, %46 : tensor<1024xf32> loc(#loc41)
    %48 = arith.mulf %47, %25 : tensor<1024xf32> loc(#loc42)
    %49 = arith.addf %48, %28 : tensor<1024xf32> loc(#loc43)
    %50 = arith.cmpf ogt, %cst, %49 : tensor<1024xf32> loc(#loc52)
    %51 = arith.select %50, %cst, %49 : tensor<1024xi1>, tensor<1024xf32> loc(#loc53)
    %52 = arith.muli %10, %cst_2 : tensor<1024xi32> loc(#loc47)
    %53 = arith.addi %11, %52 : tensor<1024xi32> loc(#loc48)
    %54 = tt.splat %arg6 : !tt.ptr<f32> -> tensor<1024x!tt.ptr<f32>> loc(#loc49)
    %55 = tt.addptr %54, %53 : tensor<1024x!tt.ptr<f32>>, tensor<1024xi32> loc(#loc49)
    tt.store %55, %51 : tensor<1024x!tt.ptr<f32>> loc(#loc50)
    tt.return loc(#loc51)
  } loc(#loc)
} loc(#loc)
#loc1 = loc(unknown)
#loc2 = loc("inductor_cache/os/cossk4x7jv2xjowrlcn4k4ere73ppew3jcqi5ziwac5343ca5off.py":21:28)
#loc3 = loc("inductor_cache/os/cossk4x7jv2xjowrlcn4k4ere73ppew3jcqi5ziwac5343ca5off.py":21:33)
#loc4 = loc("inductor_cache/os/cossk4x7jv2xjowrlcn4k4ere73ppew3jcqi5ziwac5343ca5off.py":22:36)
#loc5 = loc("inductor_cache/os/cossk4x7jv2xjowrlcn4k4ere73ppew3jcqi5ziwac5343ca5off.py":22:23)
#loc6 = loc("inductor_cache/os/cossk4x7jv2xjowrlcn4k4ere73ppew3jcqi5ziwac5343ca5off.py":24:21)
#loc7 = loc("inductor_cache/os/cossk4x7jv2xjowrlcn4k4ere73ppew3jcqi5ziwac5343ca5off.py":24:27)
#loc8 = loc("inductor_cache/os/cossk4x7jv2xjowrlcn4k4ere73ppew3jcqi5ziwac5343ca5off.py":25:19)
#loc9 = loc("inductor_cache/os/cossk4x7jv2xjowrlcn4k4ere73ppew3jcqi5ziwac5343ca5off.py":26:19)
#loc10 = loc("inductor_cache/os/cossk4x7jv2xjowrlcn4k4ere73ppew3jcqi5ziwac5343ca5off.py":27:28)
#loc11 = loc("inductor_cache/os/cossk4x7jv2xjowrlcn4k4ere73ppew3jcqi5ziwac5343ca5off.py":28:19)
#loc12 = loc("inductor_cache/os/cossk4x7jv2xjowrlcn4k4ere73ppew3jcqi5ziwac5343ca5off.py":29:19)
#loc13 = loc("inductor_cache/os/cossk4x7jv2xjowrlcn4k4ere73ppew3jcqi5ziwac5343ca5off.py":30:30)
#loc14 = loc("inductor_cache/os/cossk4x7jv2xjowrlcn4k4ere73ppew3jcqi5ziwac5343ca5off.py":30:35)
#loc15 = loc("inductor_cache/os/cossk4x7jv2xjowrlcn4k4ere73ppew3jcqi5ziwac5343ca5off.py":31:30)
#loc16 = loc("inductor_cache/os/cossk4x7jv2xjowrlcn4k4ere73ppew3jcqi5ziwac5343ca5off.py":31:35)
#loc17 = loc("inductor_cache/os/cossk4x7jv2xjowrlcn4k4ere73ppew3jcqi5ziwac5343ca5off.py":32:31)
#loc18 = loc("inductor_cache/os/cossk4x7jv2xjowrlcn4k4ere73ppew3jcqi5ziwac5343ca5off.py":32:36)
#loc19 = loc("inductor_cache/os/cossk4x7jv2xjowrlcn4k4ere73ppew3jcqi5ziwac5343ca5off.py":33:31)
#loc20 = loc("inductor_cache/os/cossk4x7jv2xjowrlcn4k4ere73ppew3jcqi5ziwac5343ca5off.py":33:36)
#loc21 = loc("inductor_cache/os/cossk4x7jv2xjowrlcn4k4ere73ppew3jcqi5ziwac5343ca5off.py":34:31)
#loc22 = loc("inductor_cache/os/cossk4x7jv2xjowrlcn4k4ere73ppew3jcqi5ziwac5343ca5off.py":34:36)
#loc23 = loc("inductor_cache/os/cossk4x7jv2xjowrlcn4k4ere73ppew3jcqi5ziwac5343ca5off.py":35:31)
#loc24 = loc("inductor_cache/os/cossk4x7jv2xjowrlcn4k4ere73ppew3jcqi5ziwac5343ca5off.py":35:36)
#loc25 = loc("inductor_cache/os/cossk4x7jv2xjowrlcn4k4ere73ppew3jcqi5ziwac5343ca5off.py":37:18)
#loc26 = loc("inductor_cache/os/cossk4x7jv2xjowrlcn4k4ere73ppew3jcqi5ziwac5343ca5off.py":38:18)
#loc27 = loc("inductor_cache/os/cossk4x7jv2xjowrlcn4k4ere73ppew3jcqi5ziwac5343ca5off.py":39:32)
#loc28 = loc("inductor_cache/os/cossk4x7jv2xjowrlcn4k4ere73ppew3jcqi5ziwac5343ca5off.py":40:18)
#loc29 = loc("inductor_cache/os/cossk4x7jv2xjowrlcn4k4ere73ppew3jcqi5ziwac5343ca5off.py":41:18)
#loc30 = loc("inductor_cache/os/cossk4x7jv2xjowrlcn4k4ere73ppew3jcqi5ziwac5343ca5off.py":42:32)
#loc31 = loc("inductor_cache/os/cossk4x7jv2xjowrlcn4k4ere73ppew3jcqi5ziwac5343ca5off.py":43:39)
#loc32 = loc("inductor_cache/os/cossk4x7jv2xjowrlcn4k4ere73ppew3jcqi5ziwac5343ca5off.py":43:37)
#loc33 = loc("inductor_cache/os/cossk4x7jv2xjowrlcn4k4ere73ppew3jcqi5ziwac5343ca5off.py":43:49)
#loc34 = loc("inductor_cache/os/cossk4x7jv2xjowrlcn4k4ere73ppew3jcqi5ziwac5343ca5off.py":43:46)
#loc35 = loc("inductor_cache/os/cossk4x7jv2xjowrlcn4k4ere73ppew3jcqi5ziwac5343ca5off.py":43:30)
#loc36 = loc("inductor_cache/os/cossk4x7jv2xjowrlcn4k4ere73ppew3jcqi5ziwac5343ca5off.py":43:54)
#loc37 = loc("inductor_cache/os/cossk4x7jv2xjowrlcn4k4ere73ppew3jcqi5ziwac5343ca5off.py":44:19)
#loc38 = loc("inductor_cache/os/cossk4x7jv2xjowrlcn4k4ere73ppew3jcqi5ziwac5343ca5off.py":46:20)
#loc39 = loc("inductor_cache/os/cossk4x7jv2xjowrlcn4k4ere73ppew3jcqi5ziwac5343ca5off.py":47:27)
#loc40 = loc("inductor_cache/os/cossk4x7jv2xjowrlcn4k4ere73ppew3jcqi5ziwac5343ca5off.py":49:20)
#loc41 = loc("inductor_cache/os/cossk4x7jv2xjowrlcn4k4ere73ppew3jcqi5ziwac5343ca5off.py":52:20)
#loc42 = loc("inductor_cache/os/cossk4x7jv2xjowrlcn4k4ere73ppew3jcqi5ziwac5343ca5off.py":53:20)
#loc43 = loc("inductor_cache/os/cossk4x7jv2xjowrlcn4k4ere73ppew3jcqi5ziwac5343ca5off.py":54:20)
#loc44 = loc("/home/sahanp/.conda/envs/parity-bench/lib/python3.12/site-packages/torch/_inductor/runtime/triton_helpers.py":118:15)
#loc45 = loc("inductor_cache/os/cossk4x7jv2xjowrlcn4k4ere73ppew3jcqi5ziwac5343ca5off.py":56:42)
#loc46 = loc("/home/sahanp/.conda/envs/parity-bench/lib/python3.12/site-packages/torch/_inductor/runtime/triton_helpers.py":121:29)
#loc47 = loc("inductor_cache/os/cossk4x7jv2xjowrlcn4k4ere73ppew3jcqi5ziwac5343ca5off.py":57:37)
#loc48 = loc("inductor_cache/os/cossk4x7jv2xjowrlcn4k4ere73ppew3jcqi5ziwac5343ca5off.py":57:30)
#loc49 = loc("inductor_cache/os/cossk4x7jv2xjowrlcn4k4ere73ppew3jcqi5ziwac5343ca5off.py":57:25)
#loc50 = loc("inductor_cache/os/cossk4x7jv2xjowrlcn4k4ere73ppew3jcqi5ziwac5343ca5off.py":57:49)
#loc51 = loc("inductor_cache/os/cossk4x7jv2xjowrlcn4k4ere73ppew3jcqi5ziwac5343ca5off.py":57:4)
#loc52 = loc(callsite(#loc44 at #loc45))
#loc53 = loc(callsite(#loc46 at #loc45))
