#loc = loc("inductor_cache/om/comwz6xoxw5ay4nbjt4k7yigdc6mxfhperjrczjjciivdhw4gg5q.py":19:0)
module {
  tt.func public @triton_poi_fused__native_batch_norm_legit_no_training_add_relu_threshold_backward_10(%arg0: !tt.ptr<f32> {tt.divisibility = 16 : i32} loc("inductor_cache/om/comwz6xoxw5ay4nbjt4k7yigdc6mxfhperjrczjjciivdhw4gg5q.py":19:0), %arg1: !tt.ptr<f32> {tt.divisibility = 16 : i32} loc("inductor_cache/om/comwz6xoxw5ay4nbjt4k7yigdc6mxfhperjrczjjciivdhw4gg5q.py":19:0), %arg2: !tt.ptr<f32> {tt.divisibility = 16 : i32} loc("inductor_cache/om/comwz6xoxw5ay4nbjt4k7yigdc6mxfhperjrczjjciivdhw4gg5q.py":19:0), %arg3: !tt.ptr<f32> {tt.divisibility = 16 : i32} loc("inductor_cache/om/comwz6xoxw5ay4nbjt4k7yigdc6mxfhperjrczjjciivdhw4gg5q.py":19:0), %arg4: !tt.ptr<f32> {tt.divisibility = 16 : i32} loc("inductor_cache/om/comwz6xoxw5ay4nbjt4k7yigdc6mxfhperjrczjjciivdhw4gg5q.py":19:0), %arg5: !tt.ptr<f32> {tt.divisibility = 16 : i32} loc("inductor_cache/om/comwz6xoxw5ay4nbjt4k7yigdc6mxfhperjrczjjciivdhw4gg5q.py":19:0), %arg6: !tt.ptr<f32> {tt.divisibility = 16 : i32} loc("inductor_cache/om/comwz6xoxw5ay4nbjt4k7yigdc6mxfhperjrczjjciivdhw4gg5q.py":19:0), %arg7: !tt.ptr<f32> {tt.divisibility = 16 : i32} loc("inductor_cache/om/comwz6xoxw5ay4nbjt4k7yigdc6mxfhperjrczjjciivdhw4gg5q.py":19:0), %arg8: !tt.ptr<f32> {tt.divisibility = 16 : i32} loc("inductor_cache/om/comwz6xoxw5ay4nbjt4k7yigdc6mxfhperjrczjjciivdhw4gg5q.py":19:0), %arg9: !tt.ptr<f32> {tt.divisibility = 16 : i32} loc("inductor_cache/om/comwz6xoxw5ay4nbjt4k7yigdc6mxfhperjrczjjciivdhw4gg5q.py":19:0), %arg10: !tt.ptr<f32> {tt.divisibility = 16 : i32} loc("inductor_cache/om/comwz6xoxw5ay4nbjt4k7yigdc6mxfhperjrczjjciivdhw4gg5q.py":19:0), %arg11: !tt.ptr<f32> {tt.divisibility = 16 : i32} loc("inductor_cache/om/comwz6xoxw5ay4nbjt4k7yigdc6mxfhperjrczjjciivdhw4gg5q.py":19:0), %arg12: !tt.ptr<i1> {tt.divisibility = 16 : i32} loc("inductor_cache/om/comwz6xoxw5ay4nbjt4k7yigdc6mxfhperjrczjjciivdhw4gg5q.py":19:0), %arg13: i32 {tt.divisibility = 16 : i32} loc("inductor_cache/om/comwz6xoxw5ay4nbjt4k7yigdc6mxfhperjrczjjciivdhw4gg5q.py":19:0)) attributes {noinline = false} {
    %cst = arith.constant dense<1.000000e+00> : tensor<128xf32> loc(#loc1)
    %cst_0 = arith.constant dense<0.000000e+00> : tensor<128xf32> loc(#loc1)
    %cst_1 = arith.constant dense<9.99999974E-6> : tensor<128xf32> loc(#loc1)
    %cst_2 = arith.constant dense<4> : tensor<128xi32> loc(#loc1)
    %cst_3 = arith.constant dense<16> : tensor<128xi32> loc(#loc1)
    %cst_4 = arith.constant dense<256> : tensor<128xi32> loc(#loc1)
    %c128_i32 = arith.constant 128 : i32 loc(#loc1)
    %0 = tt.get_program_id x : i32 loc(#loc2)
    %1 = arith.muli %0, %c128_i32 : i32 loc(#loc3)
    %2 = tt.make_range {end = 128 : i32, start = 0 : i32} : tensor<128xi32> loc(#loc4)
    %3 = tt.splat %1 : i32 -> tensor<128xi32> loc(#loc5)
    %4 = arith.addi %3, %2 : tensor<128xi32> loc(#loc5)
    %5 = arith.cmpi slt, %4, %cst_4 : tensor<128xi32> loc(#loc6)
    %6 = arith.divsi %4, %cst_3 : tensor<128xi32> loc(#loc7)
    %7 = arith.remsi %6, %cst_2 : tensor<128xi32> loc(#loc8)
    %8 = tt.splat %arg1 : !tt.ptr<f32> -> tensor<128x!tt.ptr<f32>> loc(#loc9)
    %9 = tt.addptr %8, %4 : tensor<128x!tt.ptr<f32>>, tensor<128xi32> loc(#loc9)
    %10 = tt.load %9, %5 : tensor<128x!tt.ptr<f32>> loc(#loc10)
    %11 = tt.splat %arg2 : !tt.ptr<f32> -> tensor<128x!tt.ptr<f32>> loc(#loc11)
    %12 = tt.addptr %11, %7 : tensor<128x!tt.ptr<f32>>, tensor<128xi32> loc(#loc11)
    %13 = tt.load %12, %5 evictionPolicy = evict_last : tensor<128x!tt.ptr<f32>> loc(#loc12)
    %14 = tt.splat %arg3 : !tt.ptr<f32> -> tensor<128x!tt.ptr<f32>> loc(#loc13)
    %15 = tt.addptr %14, %7 : tensor<128x!tt.ptr<f32>>, tensor<128xi32> loc(#loc13)
    %16 = tt.load %15, %5 evictionPolicy = evict_last : tensor<128x!tt.ptr<f32>> loc(#loc14)
    %17 = tt.splat %arg4 : !tt.ptr<f32> -> tensor<128x!tt.ptr<f32>> loc(#loc15)
    %18 = tt.addptr %17, %7 : tensor<128x!tt.ptr<f32>>, tensor<128xi32> loc(#loc15)
    %19 = tt.load %18, %5 evictionPolicy = evict_last : tensor<128x!tt.ptr<f32>> loc(#loc16)
    %20 = tt.splat %arg5 : !tt.ptr<f32> -> tensor<128x!tt.ptr<f32>> loc(#loc17)
    %21 = tt.addptr %20, %7 : tensor<128x!tt.ptr<f32>>, tensor<128xi32> loc(#loc17)
    %22 = tt.load %21, %5 evictionPolicy = evict_last : tensor<128x!tt.ptr<f32>> loc(#loc18)
    %23 = tt.splat %arg6 : !tt.ptr<f32> -> tensor<128x!tt.ptr<f32>> loc(#loc19)
    %24 = tt.addptr %23, %4 : tensor<128x!tt.ptr<f32>>, tensor<128xi32> loc(#loc19)
    %25 = tt.load %24, %5 : tensor<128x!tt.ptr<f32>> loc(#loc20)
    %26 = tt.splat %arg7 : !tt.ptr<f32> -> tensor<128x!tt.ptr<f32>> loc(#loc21)
    %27 = tt.addptr %26, %4 : tensor<128x!tt.ptr<f32>>, tensor<128xi32> loc(#loc21)
    %28 = tt.load %27, %5 : tensor<128x!tt.ptr<f32>> loc(#loc22)
    %29 = tt.splat %arg8 : !tt.ptr<f32> -> tensor<128x!tt.ptr<f32>> loc(#loc23)
    %30 = tt.addptr %29, %7 : tensor<128x!tt.ptr<f32>>, tensor<128xi32> loc(#loc23)
    %31 = tt.load %30, %5 evictionPolicy = evict_last : tensor<128x!tt.ptr<f32>> loc(#loc24)
    %32 = tt.splat %arg9 : !tt.ptr<f32> -> tensor<128x!tt.ptr<f32>> loc(#loc25)
    %33 = tt.addptr %32, %7 : tensor<128x!tt.ptr<f32>>, tensor<128xi32> loc(#loc25)
    %34 = tt.load %33, %5 evictionPolicy = evict_last : tensor<128x!tt.ptr<f32>> loc(#loc26)
    %35 = tt.splat %arg10 : !tt.ptr<f32> -> tensor<128x!tt.ptr<f32>> loc(#loc27)
    %36 = tt.addptr %35, %7 : tensor<128x!tt.ptr<f32>>, tensor<128xi32> loc(#loc27)
    %37 = tt.load %36, %5 evictionPolicy = evict_last : tensor<128x!tt.ptr<f32>> loc(#loc28)
    %38 = tt.splat %arg11 : !tt.ptr<f32> -> tensor<128x!tt.ptr<f32>> loc(#loc29)
    %39 = tt.addptr %38, %7 : tensor<128x!tt.ptr<f32>>, tensor<128xi32> loc(#loc29)
    %40 = tt.load %39, %5 evictionPolicy = evict_last : tensor<128x!tt.ptr<f32>> loc(#loc30)
    %41 = arith.subf %10, %13 : tensor<128xf32> loc(#loc31)
    %42 = arith.addf %16, %cst_1 : tensor<128xf32> loc(#loc32)
    %43 = tt.extern_elementwise %42 {libname = "", libpath = "", pure = true, symbol = "__nv_sqrtf"} : (tensor<128xf32>) -> tensor<128xf32> loc(#loc33)
    %44 = arith.divf %cst, %43 : tensor<128xf32> loc(#loc34)
    %45 = arith.mulf %41, %44 : tensor<128xf32> loc(#loc35)
    %46 = arith.mulf %45, %19 : tensor<128xf32> loc(#loc36)
    %47 = arith.addf %46, %22 : tensor<128xf32> loc(#loc37)
    %48 = arith.subf %28, %31 : tensor<128xf32> loc(#loc38)
    %49 = arith.addf %34, %cst_1 : tensor<128xf32> loc(#loc39)
    %50 = tt.extern_elementwise %49 {libname = "", libpath = "", pure = true, symbol = "__nv_sqrtf"} : (tensor<128xf32>) -> tensor<128xf32> loc(#loc40)
    %51 = arith.divf %cst, %50 : tensor<128xf32> loc(#loc41)
    %52 = arith.mulf %48, %51 : tensor<128xf32> loc(#loc42)
    %53 = arith.mulf %52, %37 : tensor<128xf32> loc(#loc43)
    %54 = arith.addf %53, %40 : tensor<128xf32> loc(#loc44)
    %55 = arith.addf %25, %54 : tensor<128xf32> loc(#loc45)
    %56 = arith.addf %47, %55 : tensor<128xf32> loc(#loc46)
    %57 = arith.cmpf ogt, %cst_0, %56 : tensor<128xf32> loc(#loc56)
    %58 = arith.select %57, %cst_0, %56 : tensor<128xi1>, tensor<128xf32> loc(#loc57)
    %59 = arith.cmpf ole, %58, %cst_0 : tensor<128xf32> loc(#loc50)
    %60 = tt.splat %arg0 : !tt.ptr<f32> -> tensor<128x!tt.ptr<f32>> loc(#loc51)
    %61 = tt.addptr %60, %4 : tensor<128x!tt.ptr<f32>>, tensor<128xi32> loc(#loc51)
    tt.store %61, %58, %5 : tensor<128x!tt.ptr<f32>> loc(#loc52)
    %62 = tt.splat %arg12 : !tt.ptr<i1> -> tensor<128x!tt.ptr<i1>> loc(#loc53)
    %63 = tt.addptr %62, %4 : tensor<128x!tt.ptr<i1>>, tensor<128xi32> loc(#loc53)
    %64 = tt.bitcast %63 : tensor<128x!tt.ptr<i1>> -> tensor<128x!tt.ptr<i8>> loc(#loc54)
    %65 = arith.extui %59 : tensor<128xi1> to tensor<128xi8> loc(#loc54)
    tt.store %64, %65, %5 : tensor<128x!tt.ptr<i8>> loc(#loc54)
    tt.return loc(#loc55)
  } loc(#loc)
} loc(#loc)
#loc1 = loc(unknown)
#loc2 = loc("inductor_cache/om/comwz6xoxw5ay4nbjt4k7yigdc6mxfhperjrczjjciivdhw4gg5q.py":21:28)
#loc3 = loc("inductor_cache/om/comwz6xoxw5ay4nbjt4k7yigdc6mxfhperjrczjjciivdhw4gg5q.py":21:33)
#loc4 = loc("inductor_cache/om/comwz6xoxw5ay4nbjt4k7yigdc6mxfhperjrczjjciivdhw4gg5q.py":22:36)
#loc5 = loc("inductor_cache/om/comwz6xoxw5ay4nbjt4k7yigdc6mxfhperjrczjjciivdhw4gg5q.py":22:23)
#loc6 = loc("inductor_cache/om/comwz6xoxw5ay4nbjt4k7yigdc6mxfhperjrczjjciivdhw4gg5q.py":23:21)
#loc7 = loc("inductor_cache/om/comwz6xoxw5ay4nbjt4k7yigdc6mxfhperjrczjjciivdhw4gg5q.py":25:21)
#loc8 = loc("inductor_cache/om/comwz6xoxw5ay4nbjt4k7yigdc6mxfhperjrczjjciivdhw4gg5q.py":25:27)
#loc9 = loc("inductor_cache/om/comwz6xoxw5ay4nbjt4k7yigdc6mxfhperjrczjjciivdhw4gg5q.py":26:30)
#loc10 = loc("inductor_cache/om/comwz6xoxw5ay4nbjt4k7yigdc6mxfhperjrczjjciivdhw4gg5q.py":26:35)
#loc11 = loc("inductor_cache/om/comwz6xoxw5ay4nbjt4k7yigdc6mxfhperjrczjjciivdhw4gg5q.py":27:30)
#loc12 = loc("inductor_cache/om/comwz6xoxw5ay4nbjt4k7yigdc6mxfhperjrczjjciivdhw4gg5q.py":27:35)
#loc13 = loc("inductor_cache/om/comwz6xoxw5ay4nbjt4k7yigdc6mxfhperjrczjjciivdhw4gg5q.py":28:30)
#loc14 = loc("inductor_cache/om/comwz6xoxw5ay4nbjt4k7yigdc6mxfhperjrczjjciivdhw4gg5q.py":28:35)
#loc15 = loc("inductor_cache/om/comwz6xoxw5ay4nbjt4k7yigdc6mxfhperjrczjjciivdhw4gg5q.py":29:31)
#loc16 = loc("inductor_cache/om/comwz6xoxw5ay4nbjt4k7yigdc6mxfhperjrczjjciivdhw4gg5q.py":29:36)
#loc17 = loc("inductor_cache/om/comwz6xoxw5ay4nbjt4k7yigdc6mxfhperjrczjjciivdhw4gg5q.py":30:31)
#loc18 = loc("inductor_cache/om/comwz6xoxw5ay4nbjt4k7yigdc6mxfhperjrczjjciivdhw4gg5q.py":30:36)
#loc19 = loc("inductor_cache/om/comwz6xoxw5ay4nbjt4k7yigdc6mxfhperjrczjjciivdhw4gg5q.py":31:31)
#loc20 = loc("inductor_cache/om/comwz6xoxw5ay4nbjt4k7yigdc6mxfhperjrczjjciivdhw4gg5q.py":31:36)
#loc21 = loc("inductor_cache/om/comwz6xoxw5ay4nbjt4k7yigdc6mxfhperjrczjjciivdhw4gg5q.py":32:31)
#loc22 = loc("inductor_cache/om/comwz6xoxw5ay4nbjt4k7yigdc6mxfhperjrczjjciivdhw4gg5q.py":32:36)
#loc23 = loc("inductor_cache/om/comwz6xoxw5ay4nbjt4k7yigdc6mxfhperjrczjjciivdhw4gg5q.py":33:31)
#loc24 = loc("inductor_cache/om/comwz6xoxw5ay4nbjt4k7yigdc6mxfhperjrczjjciivdhw4gg5q.py":33:36)
#loc25 = loc("inductor_cache/om/comwz6xoxw5ay4nbjt4k7yigdc6mxfhperjrczjjciivdhw4gg5q.py":34:31)
#loc26 = loc("inductor_cache/om/comwz6xoxw5ay4nbjt4k7yigdc6mxfhperjrczjjciivdhw4gg5q.py":34:36)
#loc27 = loc("inductor_cache/om/comwz6xoxw5ay4nbjt4k7yigdc6mxfhperjrczjjciivdhw4gg5q.py":35:31)
#loc28 = loc("inductor_cache/om/comwz6xoxw5ay4nbjt4k7yigdc6mxfhperjrczjjciivdhw4gg5q.py":35:36)
#loc29 = loc("inductor_cache/om/comwz6xoxw5ay4nbjt4k7yigdc6mxfhperjrczjjciivdhw4gg5q.py":36:32)
#loc30 = loc("inductor_cache/om/comwz6xoxw5ay4nbjt4k7yigdc6mxfhperjrczjjciivdhw4gg5q.py":36:37)
#loc31 = loc("inductor_cache/om/comwz6xoxw5ay4nbjt4k7yigdc6mxfhperjrczjjciivdhw4gg5q.py":37:18)
#loc32 = loc("inductor_cache/om/comwz6xoxw5ay4nbjt4k7yigdc6mxfhperjrczjjciivdhw4gg5q.py":39:18)
#loc33 = loc("inductor_cache/om/comwz6xoxw5ay4nbjt4k7yigdc6mxfhperjrczjjciivdhw4gg5q.py":40:26)
#loc34 = loc("inductor_cache/om/comwz6xoxw5ay4nbjt4k7yigdc6mxfhperjrczjjciivdhw4gg5q.py":42:18)
#loc35 = loc("inductor_cache/om/comwz6xoxw5ay4nbjt4k7yigdc6mxfhperjrczjjciivdhw4gg5q.py":45:19)
#loc36 = loc("inductor_cache/om/comwz6xoxw5ay4nbjt4k7yigdc6mxfhperjrczjjciivdhw4gg5q.py":46:20)
#loc37 = loc("inductor_cache/om/comwz6xoxw5ay4nbjt4k7yigdc6mxfhperjrczjjciivdhw4gg5q.py":47:20)
#loc38 = loc("inductor_cache/om/comwz6xoxw5ay4nbjt4k7yigdc6mxfhperjrczjjciivdhw4gg5q.py":48:20)
#loc39 = loc("inductor_cache/om/comwz6xoxw5ay4nbjt4k7yigdc6mxfhperjrczjjciivdhw4gg5q.py":49:20)
#loc40 = loc("inductor_cache/om/comwz6xoxw5ay4nbjt4k7yigdc6mxfhperjrczjjciivdhw4gg5q.py":50:27)
#loc41 = loc("inductor_cache/om/comwz6xoxw5ay4nbjt4k7yigdc6mxfhperjrczjjciivdhw4gg5q.py":51:19)
#loc42 = loc("inductor_cache/om/comwz6xoxw5ay4nbjt4k7yigdc6mxfhperjrczjjciivdhw4gg5q.py":53:20)
#loc43 = loc("inductor_cache/om/comwz6xoxw5ay4nbjt4k7yigdc6mxfhperjrczjjciivdhw4gg5q.py":54:20)
#loc44 = loc("inductor_cache/om/comwz6xoxw5ay4nbjt4k7yigdc6mxfhperjrczjjciivdhw4gg5q.py":55:20)
#loc45 = loc("inductor_cache/om/comwz6xoxw5ay4nbjt4k7yigdc6mxfhperjrczjjciivdhw4gg5q.py":56:20)
#loc46 = loc("inductor_cache/om/comwz6xoxw5ay4nbjt4k7yigdc6mxfhperjrczjjciivdhw4gg5q.py":57:20)
#loc47 = loc("/home/sahanp/.conda/envs/parity-bench/lib/python3.12/site-packages/torch/_inductor/runtime/triton_helpers.py":118:15)
#loc48 = loc("inductor_cache/om/comwz6xoxw5ay4nbjt4k7yigdc6mxfhperjrczjjciivdhw4gg5q.py":59:42)
#loc49 = loc("/home/sahanp/.conda/envs/parity-bench/lib/python3.12/site-packages/torch/_inductor/runtime/triton_helpers.py":121:29)
#loc50 = loc("inductor_cache/om/comwz6xoxw5ay4nbjt4k7yigdc6mxfhperjrczjjciivdhw4gg5q.py":61:21)
#loc51 = loc("inductor_cache/om/comwz6xoxw5ay4nbjt4k7yigdc6mxfhperjrczjjciivdhw4gg5q.py":62:28)
#loc52 = loc("inductor_cache/om/comwz6xoxw5ay4nbjt4k7yigdc6mxfhperjrczjjciivdhw4gg5q.py":62:40)
#loc53 = loc("inductor_cache/om/comwz6xoxw5ay4nbjt4k7yigdc6mxfhperjrczjjciivdhw4gg5q.py":63:25)
#loc54 = loc("inductor_cache/om/comwz6xoxw5ay4nbjt4k7yigdc6mxfhperjrczjjciivdhw4gg5q.py":63:37)
#loc55 = loc("inductor_cache/om/comwz6xoxw5ay4nbjt4k7yigdc6mxfhperjrczjjciivdhw4gg5q.py":63:4)
#loc56 = loc(callsite(#loc47 at #loc48))
#loc57 = loc(callsite(#loc49 at #loc48))
