#loc = loc("inductor_cache/er/cerhbn46b2jmzgb7xqjchqudiypkjznkakvwl5gsz5fawowjapv5.py":19:0)
module {
  tt.func public @triton_poi_fused_constant_pad_nd_11(%arg0: !tt.ptr<f32> {tt.divisibility = 16 : i32} loc("inductor_cache/er/cerhbn46b2jmzgb7xqjchqudiypkjznkakvwl5gsz5fawowjapv5.py":19:0), %arg1: !tt.ptr<f32> {tt.divisibility = 16 : i32} loc("inductor_cache/er/cerhbn46b2jmzgb7xqjchqudiypkjznkakvwl5gsz5fawowjapv5.py":19:0), %arg2: i32 loc("inductor_cache/er/cerhbn46b2jmzgb7xqjchqudiypkjznkakvwl5gsz5fawowjapv5.py":19:0), %arg3: i32 {tt.divisibility = 16 : i32} loc("inductor_cache/er/cerhbn46b2jmzgb7xqjchqudiypkjznkakvwl5gsz5fawowjapv5.py":19:0)) attributes {noinline = false} {
    %cst = arith.constant dense<209088> : tensor<1x16xi32> loc(#loc1)
    %cst_0 = arith.constant dense<3> : tensor<64x1xi32> loc(#loc1)
    %cst_1 = arith.constant dense<0.000000e+00> : tensor<64x16xf32> loc(#loc1)
    %cst_2 = arith.constant dense<4096> : tensor<1x16xi32> loc(#loc1)
    %cst_3 = arith.constant dense<64> : tensor<64x1xi32> loc(#loc1)
    %cst_4 = arith.constant dense<-6500> : tensor<64x1xi32> loc(#loc1)
    %cst_5 = arith.constant dense<64> : tensor<64x1xi64> loc(#loc1)
    %cst_6 = arith.constant dense<0> : tensor<64x1xi64> loc(#loc1)
    %cst_7 = arith.constant dense<-100> : tensor<64x1xi32> loc(#loc1)
    %cst_8 = arith.constant dense<3> : tensor<1x16xi32> loc(#loc1)
    %cst_9 = arith.constant dense<264> : tensor<64x1xi32> loc(#loc1)
    %cst_10 = arith.constant dense<69696> : tensor<64x1xi32> loc(#loc1)
    %c64_i32 = arith.constant 64 : i32 loc(#loc1)
    %cst_11 = arith.constant dense<12> : tensor<1x16xi32> loc(#loc1)
    %c16_i32 = arith.constant 16 : i32 loc(#loc1)
    %0 = tt.get_program_id y : i32 loc(#loc2)
    %1 = arith.muli %0, %c16_i32 : i32 loc(#loc3)
    %2 = tt.make_range {end = 16 : i32, start = 0 : i32} : tensor<16xi32> loc(#loc4)
    %3 = tt.expand_dims %2 {axis = 0 : i32} : tensor<16xi32> -> tensor<1x16xi32> loc(#loc5)
    %4 = tt.splat %1 : i32 -> tensor<1x16xi32> loc(#loc6)
    %5 = arith.addi %4, %3 : tensor<1x16xi32> loc(#loc6)
    %6 = arith.cmpi slt, %5, %cst_11 : tensor<1x16xi32> loc(#loc7)
    %7 = tt.get_program_id x : i32 loc(#loc8)
    %8 = arith.muli %7, %c64_i32 : i32 loc(#loc9)
    %9 = tt.make_range {end = 64 : i32, start = 0 : i32} : tensor<64xi32> loc(#loc10)
    %10 = tt.expand_dims %9 {axis = 1 : i32} : tensor<64xi32> -> tensor<64x1xi32> loc(#loc11)
    %11 = tt.splat %8 : i32 -> tensor<64x1xi32> loc(#loc12)
    %12 = arith.addi %11, %10 : tensor<64x1xi32> loc(#loc12)
    %13 = arith.cmpi slt, %12, %cst_10 : tensor<64x1xi32> loc(#loc13)
    %14 = arith.divsi %12, %cst_9 : tensor<64x1xi32> loc(#loc14)
    %15 = arith.remsi %12, %cst_9 : tensor<64x1xi32> loc(#loc15)
    %16 = arith.remsi %5, %cst_8 : tensor<1x16xi32> loc(#loc16)
    %17 = arith.divsi %5, %cst_8 : tensor<1x16xi32> loc(#loc17)
    %18 = arith.addi %14, %cst_7 : tensor<64x1xi32> loc(#loc18)
    %19 = arith.extsi %18 : tensor<64x1xi32> to tensor<64x1xi64> loc(#loc19)
    %20 = arith.cmpi sge, %19, %cst_6 : tensor<64x1xi64> loc(#loc19)
    %21 = arith.cmpi slt, %19, %cst_5 : tensor<64x1xi64> loc(#loc20)
    %22 = arith.addi %15, %cst_7 : tensor<64x1xi32> loc(#loc21)
    %23 = arith.extsi %22 : tensor<64x1xi32> to tensor<64x1xi64> loc(#loc22)
    %24 = arith.cmpi sge, %23, %cst_6 : tensor<64x1xi64> loc(#loc22)
    %25 = arith.cmpi slt, %23, %cst_5 : tensor<64x1xi64> loc(#loc23)
    %26 = arith.andi %20, %21 : tensor<64x1xi1> loc(#loc24)
    %27 = arith.andi %26, %24 : tensor<64x1xi1> loc(#loc25)
    %28 = arith.andi %27, %25 : tensor<64x1xi1> loc(#loc26)
    %29 = arith.addi %15, %cst_4 : tensor<64x1xi32> loc(#loc27)
    %30 = arith.muli %14, %cst_3 : tensor<64x1xi32> loc(#loc28)
    %31 = arith.addi %29, %30 : tensor<64x1xi32> loc(#loc29)
    %32 = arith.muli %5, %cst_2 : tensor<1x16xi32> loc(#loc30)
    %33 = tt.broadcast %31 : tensor<64x1xi32> -> tensor<64x16xi32> loc(#loc31)
    %34 = tt.broadcast %32 : tensor<1x16xi32> -> tensor<64x16xi32> loc(#loc31)
    %35 = arith.addi %33, %34 : tensor<64x16xi32> loc(#loc31)
    %36 = tt.splat %arg0 : !tt.ptr<f32> -> tensor<64x16x!tt.ptr<f32>> loc(#loc32)
    %37 = tt.addptr %36, %35 : tensor<64x16x!tt.ptr<f32>>, tensor<64x16xi32> loc(#loc32)
    %38 = arith.andi %28, %13 : tensor<64x1xi1> loc(#loc33)
    %39 = tt.broadcast %38 : tensor<64x1xi1> -> tensor<64x16xi1> loc(#loc34)
    %40 = tt.broadcast %6 : tensor<1x16xi1> -> tensor<64x16xi1> loc(#loc34)
    %41 = arith.andi %39, %40 : tensor<64x16xi1> loc(#loc34)
    %42 = tt.load %37, %41, %cst_1 evictionPolicy = evict_last : tensor<64x16x!tt.ptr<f32>> loc(#loc35)
    %43 = arith.muli %12, %cst_0 : tensor<64x1xi32> loc(#loc36)
    %44 = tt.broadcast %16 : tensor<1x16xi32> -> tensor<64x16xi32> loc(#loc37)
    %45 = tt.broadcast %43 : tensor<64x1xi32> -> tensor<64x16xi32> loc(#loc37)
    %46 = arith.addi %44, %45 : tensor<64x16xi32> loc(#loc37)
    %47 = arith.muli %17, %cst : tensor<1x16xi32> loc(#loc38)
    %48 = tt.broadcast %47 : tensor<1x16xi32> -> tensor<64x16xi32> loc(#loc39)
    %49 = arith.addi %46, %48 : tensor<64x16xi32> loc(#loc39)
    %50 = tt.splat %arg1 : !tt.ptr<f32> -> tensor<64x16x!tt.ptr<f32>> loc(#loc40)
    %51 = tt.addptr %50, %49 : tensor<64x16x!tt.ptr<f32>>, tensor<64x16xi32> loc(#loc40)
    %52 = tt.broadcast %13 : tensor<64x1xi1> -> tensor<64x16xi1> loc(#loc41)
    %53 = arith.andi %52, %40 : tensor<64x16xi1> loc(#loc41)
    tt.store %51, %42, %53 : tensor<64x16x!tt.ptr<f32>> loc(#loc42)
    tt.return loc(#loc43)
  } loc(#loc)
} loc(#loc)
#loc1 = loc(unknown)
#loc2 = loc("inductor_cache/er/cerhbn46b2jmzgb7xqjchqudiypkjznkakvwl5gsz5fawowjapv5.py":22:28)
#loc3 = loc("inductor_cache/er/cerhbn46b2jmzgb7xqjchqudiypkjznkakvwl5gsz5fawowjapv5.py":22:33)
#loc4 = loc("inductor_cache/er/cerhbn46b2jmzgb7xqjchqudiypkjznkakvwl5gsz5fawowjapv5.py":23:36)
#loc5 = loc("inductor_cache/er/cerhbn46b2jmzgb7xqjchqudiypkjznkakvwl5gsz5fawowjapv5.py":23:44)
#loc6 = loc("inductor_cache/er/cerhbn46b2jmzgb7xqjchqudiypkjznkakvwl5gsz5fawowjapv5.py":23:23)
#loc7 = loc("inductor_cache/er/cerhbn46b2jmzgb7xqjchqudiypkjznkakvwl5gsz5fawowjapv5.py":24:21)
#loc8 = loc("inductor_cache/er/cerhbn46b2jmzgb7xqjchqudiypkjznkakvwl5gsz5fawowjapv5.py":25:28)
#loc9 = loc("inductor_cache/er/cerhbn46b2jmzgb7xqjchqudiypkjznkakvwl5gsz5fawowjapv5.py":25:33)
#loc10 = loc("inductor_cache/er/cerhbn46b2jmzgb7xqjchqudiypkjznkakvwl5gsz5fawowjapv5.py":26:36)
#loc11 = loc("inductor_cache/er/cerhbn46b2jmzgb7xqjchqudiypkjznkakvwl5gsz5fawowjapv5.py":26:44)
#loc12 = loc("inductor_cache/er/cerhbn46b2jmzgb7xqjchqudiypkjznkakvwl5gsz5fawowjapv5.py":26:23)
#loc13 = loc("inductor_cache/er/cerhbn46b2jmzgb7xqjchqudiypkjznkakvwl5gsz5fawowjapv5.py":27:21)
#loc14 = loc("inductor_cache/er/cerhbn46b2jmzgb7xqjchqudiypkjznkakvwl5gsz5fawowjapv5.py":28:19)
#loc15 = loc("inductor_cache/er/cerhbn46b2jmzgb7xqjchqudiypkjznkakvwl5gsz5fawowjapv5.py":29:19)
#loc16 = loc("inductor_cache/er/cerhbn46b2jmzgb7xqjchqudiypkjznkakvwl5gsz5fawowjapv5.py":32:19)
#loc17 = loc("inductor_cache/er/cerhbn46b2jmzgb7xqjchqudiypkjznkakvwl5gsz5fawowjapv5.py":33:19)
#loc18 = loc("inductor_cache/er/cerhbn46b2jmzgb7xqjchqudiypkjznkakvwl5gsz5fawowjapv5.py":34:20)
#loc19 = loc("inductor_cache/er/cerhbn46b2jmzgb7xqjchqudiypkjznkakvwl5gsz5fawowjapv5.py":36:19)
#loc20 = loc("inductor_cache/er/cerhbn46b2jmzgb7xqjchqudiypkjznkakvwl5gsz5fawowjapv5.py":38:18)
#loc21 = loc("inductor_cache/er/cerhbn46b2jmzgb7xqjchqudiypkjznkakvwl5gsz5fawowjapv5.py":39:20)
#loc22 = loc("inductor_cache/er/cerhbn46b2jmzgb7xqjchqudiypkjznkakvwl5gsz5fawowjapv5.py":40:19)
#loc23 = loc("inductor_cache/er/cerhbn46b2jmzgb7xqjchqudiypkjznkakvwl5gsz5fawowjapv5.py":41:18)
#loc24 = loc("inductor_cache/er/cerhbn46b2jmzgb7xqjchqudiypkjznkakvwl5gsz5fawowjapv5.py":42:18)
#loc25 = loc("inductor_cache/er/cerhbn46b2jmzgb7xqjchqudiypkjznkakvwl5gsz5fawowjapv5.py":43:18)
#loc26 = loc("inductor_cache/er/cerhbn46b2jmzgb7xqjchqudiypkjznkakvwl5gsz5fawowjapv5.py":44:19)
#loc27 = loc("inductor_cache/er/cerhbn46b2jmzgb7xqjchqudiypkjznkakvwl5gsz5fawowjapv5.py":45:41)
#loc28 = loc("inductor_cache/er/cerhbn46b2jmzgb7xqjchqudiypkjznkakvwl5gsz5fawowjapv5.py":45:49)
#loc29 = loc("inductor_cache/er/cerhbn46b2jmzgb7xqjchqudiypkjznkakvwl5gsz5fawowjapv5.py":45:46)
#loc30 = loc("inductor_cache/er/cerhbn46b2jmzgb7xqjchqudiypkjznkakvwl5gsz5fawowjapv5.py":45:59)
#loc31 = loc("inductor_cache/er/cerhbn46b2jmzgb7xqjchqudiypkjznkakvwl5gsz5fawowjapv5.py":45:54)
#loc32 = loc("inductor_cache/er/cerhbn46b2jmzgb7xqjchqudiypkjznkakvwl5gsz5fawowjapv5.py":45:31)
#loc33 = loc("inductor_cache/er/cerhbn46b2jmzgb7xqjchqudiypkjznkakvwl5gsz5fawowjapv5.py":45:72)
#loc34 = loc("inductor_cache/er/cerhbn46b2jmzgb7xqjchqudiypkjznkakvwl5gsz5fawowjapv5.py":45:80)
#loc35 = loc("inductor_cache/er/cerhbn46b2jmzgb7xqjchqudiypkjznkakvwl5gsz5fawowjapv5.py":45:64)
#loc36 = loc("inductor_cache/er/cerhbn46b2jmzgb7xqjchqudiypkjznkakvwl5gsz5fawowjapv5.py":46:32)
#loc37 = loc("inductor_cache/er/cerhbn46b2jmzgb7xqjchqudiypkjznkakvwl5gsz5fawowjapv5.py":46:30)
#loc38 = loc("inductor_cache/er/cerhbn46b2jmzgb7xqjchqudiypkjznkakvwl5gsz5fawowjapv5.py":46:44)
#loc39 = loc("inductor_cache/er/cerhbn46b2jmzgb7xqjchqudiypkjznkakvwl5gsz5fawowjapv5.py":46:37)
#loc40 = loc("inductor_cache/er/cerhbn46b2jmzgb7xqjchqudiypkjznkakvwl5gsz5fawowjapv5.py":46:25)
#loc41 = loc("inductor_cache/er/cerhbn46b2jmzgb7xqjchqudiypkjznkakvwl5gsz5fawowjapv5.py":46:64)
#loc42 = loc("inductor_cache/er/cerhbn46b2jmzgb7xqjchqudiypkjznkakvwl5gsz5fawowjapv5.py":46:56)
#loc43 = loc("inductor_cache/er/cerhbn46b2jmzgb7xqjchqudiypkjznkakvwl5gsz5fawowjapv5.py":46:4)
