#loc = loc("inductor_cache/dt/cdtli7kggothntk2ytjn77zsyeyfz2rwbazvudzvsofqezaum7et.py":19:0)
module {
  tt.func public @triton_poi_fused_add_6(%arg0: !tt.ptr<f32> {tt.divisibility = 16 : i32} loc("inductor_cache/dt/cdtli7kggothntk2ytjn77zsyeyfz2rwbazvudzvsofqezaum7et.py":19:0), %arg1: !tt.ptr<f32> {tt.divisibility = 16 : i32} loc("inductor_cache/dt/cdtli7kggothntk2ytjn77zsyeyfz2rwbazvudzvsofqezaum7et.py":19:0), %arg2: !tt.ptr<f32> {tt.divisibility = 16 : i32} loc("inductor_cache/dt/cdtli7kggothntk2ytjn77zsyeyfz2rwbazvudzvsofqezaum7et.py":19:0), %arg3: !tt.ptr<f32> {tt.divisibility = 16 : i32} loc("inductor_cache/dt/cdtli7kggothntk2ytjn77zsyeyfz2rwbazvudzvsofqezaum7et.py":19:0), %arg4: !tt.ptr<f32> {tt.divisibility = 16 : i32} loc("inductor_cache/dt/cdtli7kggothntk2ytjn77zsyeyfz2rwbazvudzvsofqezaum7et.py":19:0), %arg5: !tt.ptr<f32> {tt.divisibility = 16 : i32} loc("inductor_cache/dt/cdtli7kggothntk2ytjn77zsyeyfz2rwbazvudzvsofqezaum7et.py":19:0), %arg6: !tt.ptr<f32> {tt.divisibility = 16 : i32} loc("inductor_cache/dt/cdtli7kggothntk2ytjn77zsyeyfz2rwbazvudzvsofqezaum7et.py":19:0), %arg7: i32 {tt.divisibility = 16 : i32} loc("inductor_cache/dt/cdtli7kggothntk2ytjn77zsyeyfz2rwbazvudzvsofqezaum7et.py":19:0), %arg8: i32 {tt.divisibility = 16 : i32} loc("inductor_cache/dt/cdtli7kggothntk2ytjn77zsyeyfz2rwbazvudzvsofqezaum7et.py":19:0)) attributes {noinline = false} {
    %cst = arith.constant 1.000000e+00 : f32 loc(#loc1)
    %cst_0 = arith.constant 9.99999974E-6 : f32 loc(#loc1)
    %cst_1 = arith.constant dense<256> : tensor<1x64xi32> loc(#loc1)
    %c0_i32 = arith.constant 0 : i32 loc(#loc1)
    %cst_2 = arith.constant dense<16> : tensor<1x64xi32> loc(#loc1)
    %cst_3 = arith.constant dense<16> : tensor<16x1xi32> loc(#loc1)
    %cst_4 = arith.constant dense<64> : tensor<1x64xi32> loc(#loc1)
    %c64_i32 = arith.constant 64 : i32 loc(#loc1)
    %c16_i32 = arith.constant 16 : i32 loc(#loc1)
    %0 = tt.get_program_id y : i32 loc(#loc2)
    %1 = arith.muli %0, %c64_i32 : i32 loc(#loc3)
    %2 = tt.make_range {end = 64 : i32, start = 0 : i32} : tensor<64xi32> loc(#loc4)
    %3 = tt.expand_dims %2 {axis = 0 : i32} : tensor<64xi32> -> tensor<1x64xi32> loc(#loc5)
    %4 = tt.splat %1 : i32 -> tensor<1x64xi32> loc(#loc6)
    %5 = arith.addi %4, %3 : tensor<1x64xi32> loc(#loc6)
    %6 = arith.cmpi slt, %5, %cst_4 : tensor<1x64xi32> loc(#loc7)
    %7 = tt.get_program_id x : i32 loc(#loc8)
    %8 = arith.muli %7, %c16_i32 : i32 loc(#loc9)
    %9 = tt.make_range {end = 16 : i32, start = 0 : i32} : tensor<16xi32> loc(#loc10)
    %10 = tt.expand_dims %9 {axis = 1 : i32} : tensor<16xi32> -> tensor<16x1xi32> loc(#loc11)
    %11 = tt.splat %8 : i32 -> tensor<16x1xi32> loc(#loc12)
    %12 = arith.addi %11, %10 : tensor<16x1xi32> loc(#loc12)
    %13 = arith.cmpi slt, %12, %cst_3 : tensor<16x1xi32> loc(#loc13)
    %14 = arith.remsi %5, %cst_2 : tensor<1x64xi32> loc(#loc14)
    %15 = arith.divsi %5, %cst_2 : tensor<1x64xi32> loc(#loc15)
    %16 = arith.muli %5, %cst_2 : tensor<1x64xi32> loc(#loc16)
    %17 = tt.broadcast %12 : tensor<16x1xi32> -> tensor<16x64xi32> loc(#loc17)
    %18 = tt.broadcast %16 : tensor<1x64xi32> -> tensor<16x64xi32> loc(#loc17)
    %19 = arith.addi %17, %18 : tensor<16x64xi32> loc(#loc17)
    %20 = tt.splat %arg0 : !tt.ptr<f32> -> tensor<16x64x!tt.ptr<f32>> loc(#loc18)
    %21 = tt.addptr %20, %19 : tensor<16x64x!tt.ptr<f32>>, tensor<16x64xi32> loc(#loc18)
    %22 = tt.broadcast %13 : tensor<16x1xi1> -> tensor<16x64xi1> loc(#loc19)
    %23 = tt.broadcast %6 : tensor<1x64xi1> -> tensor<16x64xi1> loc(#loc19)
    %24 = arith.andi %22, %23 : tensor<16x64xi1> loc(#loc19)
    %25 = tt.load %21, %24 evictionPolicy = evict_last : tensor<16x64x!tt.ptr<f32>> loc(#loc20)
    %26 = tt.addptr %arg1, %c0_i32 : !tt.ptr<f32>, i32 loc(#loc21)
    %27 = tt.load %26 : !tt.ptr<f32> loc(#loc22)
    %28 = tt.splat %27 : f32 -> tensor<16x64xf32> loc(#loc23)
    %29 = tt.addptr %arg2, %c0_i32 : !tt.ptr<f32>, i32 loc(#loc24)
    %30 = tt.load %29 : !tt.ptr<f32> loc(#loc25)
    %31 = tt.addptr %arg3, %c0_i32 : !tt.ptr<f32>, i32 loc(#loc26)
    %32 = tt.load %31 : !tt.ptr<f32> loc(#loc27)
    %33 = tt.splat %32 : f32 -> tensor<16x64xf32> loc(#loc28)
    %34 = tt.addptr %arg4, %c0_i32 : !tt.ptr<f32>, i32 loc(#loc29)
    %35 = tt.load %34 : !tt.ptr<f32> loc(#loc30)
    %36 = tt.splat %35 : f32 -> tensor<16x64xf32> loc(#loc31)
    %37 = arith.muli %12, %cst_3 : tensor<16x1xi32> loc(#loc32)
    %38 = tt.broadcast %14 : tensor<1x64xi32> -> tensor<16x64xi32> loc(#loc33)
    %39 = tt.broadcast %37 : tensor<16x1xi32> -> tensor<16x64xi32> loc(#loc33)
    %40 = arith.addi %38, %39 : tensor<16x64xi32> loc(#loc33)
    %41 = arith.muli %15, %cst_1 : tensor<1x64xi32> loc(#loc34)
    %42 = tt.broadcast %41 : tensor<1x64xi32> -> tensor<16x64xi32> loc(#loc35)
    %43 = arith.addi %40, %42 : tensor<16x64xi32> loc(#loc35)
    %44 = tt.splat %arg5 : !tt.ptr<f32> -> tensor<16x64x!tt.ptr<f32>> loc(#loc36)
    %45 = tt.addptr %44, %43 : tensor<16x64x!tt.ptr<f32>>, tensor<16x64xi32> loc(#loc36)
    %46 = tt.load %45, %24 evictionPolicy = evict_last : tensor<16x64x!tt.ptr<f32>> loc(#loc37)
    %47 = arith.subf %25, %28 : tensor<16x64xf32> loc(#loc38)
    %48 = arith.addf %30, %cst_0 : f32 loc(#loc39)
    %49 = tt.extern_elementwise %48 {libname = "", libpath = "", pure = true, symbol = "__nv_sqrtf"} : (f32) -> f32 loc(#loc40)
    %50 = arith.divf %cst, %49 : f32 loc(#loc41)
    %51 = tt.splat %50 : f32 -> tensor<16x64xf32> loc(#loc41)
    %52 = arith.mulf %47, %51 : tensor<16x64xf32> loc(#loc42)
    %53 = arith.mulf %52, %33 : tensor<16x64xf32> loc(#loc43)
    %54 = arith.addf %53, %36 : tensor<16x64xf32> loc(#loc44)
    %55 = arith.subf %46, %28 : tensor<16x64xf32> loc(#loc45)
    %56 = arith.mulf %55, %51 : tensor<16x64xf32> loc(#loc46)
    %57 = arith.mulf %56, %33 : tensor<16x64xf32> loc(#loc47)
    %58 = arith.addf %57, %36 : tensor<16x64xf32> loc(#loc48)
    %59 = arith.addf %54, %58 : tensor<16x64xf32> loc(#loc49)
    %60 = tt.splat %arg6 : !tt.ptr<f32> -> tensor<16x64x!tt.ptr<f32>> loc(#loc50)
    %61 = tt.addptr %60, %19 : tensor<16x64x!tt.ptr<f32>>, tensor<16x64xi32> loc(#loc50)
    tt.store %61, %59, %24 : tensor<16x64x!tt.ptr<f32>> loc(#loc51)
    tt.return loc(#loc52)
  } loc(#loc)
} loc(#loc)
#loc1 = loc(unknown)
#loc2 = loc("inductor_cache/dt/cdtli7kggothntk2ytjn77zsyeyfz2rwbazvudzvsofqezaum7et.py":22:28)
#loc3 = loc("inductor_cache/dt/cdtli7kggothntk2ytjn77zsyeyfz2rwbazvudzvsofqezaum7et.py":22:33)
#loc4 = loc("inductor_cache/dt/cdtli7kggothntk2ytjn77zsyeyfz2rwbazvudzvsofqezaum7et.py":23:36)
#loc5 = loc("inductor_cache/dt/cdtli7kggothntk2ytjn77zsyeyfz2rwbazvudzvsofqezaum7et.py":23:44)
#loc6 = loc("inductor_cache/dt/cdtli7kggothntk2ytjn77zsyeyfz2rwbazvudzvsofqezaum7et.py":23:23)
#loc7 = loc("inductor_cache/dt/cdtli7kggothntk2ytjn77zsyeyfz2rwbazvudzvsofqezaum7et.py":24:21)
#loc8 = loc("inductor_cache/dt/cdtli7kggothntk2ytjn77zsyeyfz2rwbazvudzvsofqezaum7et.py":25:28)
#loc9 = loc("inductor_cache/dt/cdtli7kggothntk2ytjn77zsyeyfz2rwbazvudzvsofqezaum7et.py":25:33)
#loc10 = loc("inductor_cache/dt/cdtli7kggothntk2ytjn77zsyeyfz2rwbazvudzvsofqezaum7et.py":26:36)
#loc11 = loc("inductor_cache/dt/cdtli7kggothntk2ytjn77zsyeyfz2rwbazvudzvsofqezaum7et.py":26:44)
#loc12 = loc("inductor_cache/dt/cdtli7kggothntk2ytjn77zsyeyfz2rwbazvudzvsofqezaum7et.py":26:23)
#loc13 = loc("inductor_cache/dt/cdtli7kggothntk2ytjn77zsyeyfz2rwbazvudzvsofqezaum7et.py":27:21)
#loc14 = loc("inductor_cache/dt/cdtli7kggothntk2ytjn77zsyeyfz2rwbazvudzvsofqezaum7et.py":30:19)
#loc15 = loc("inductor_cache/dt/cdtli7kggothntk2ytjn77zsyeyfz2rwbazvudzvsofqezaum7et.py":31:19)
#loc16 = loc("inductor_cache/dt/cdtli7kggothntk2ytjn77zsyeyfz2rwbazvudzvsofqezaum7et.py":32:38)
#loc17 = loc("inductor_cache/dt/cdtli7kggothntk2ytjn77zsyeyfz2rwbazvudzvsofqezaum7et.py":32:35)
#loc18 = loc("inductor_cache/dt/cdtli7kggothntk2ytjn77zsyeyfz2rwbazvudzvsofqezaum7et.py":32:30)
#loc19 = loc("inductor_cache/dt/cdtli7kggothntk2ytjn77zsyeyfz2rwbazvudzvsofqezaum7et.py":32:51)
#loc20 = loc("inductor_cache/dt/cdtli7kggothntk2ytjn77zsyeyfz2rwbazvudzvsofqezaum7et.py":32:43)
#loc21 = loc("inductor_cache/dt/cdtli7kggothntk2ytjn77zsyeyfz2rwbazvudzvsofqezaum7et.py":33:30)
#loc22 = loc("inductor_cache/dt/cdtli7kggothntk2ytjn77zsyeyfz2rwbazvudzvsofqezaum7et.py":33:19)
#loc23 = loc("inductor_cache/dt/cdtli7kggothntk2ytjn77zsyeyfz2rwbazvudzvsofqezaum7et.py":34:33)
#loc24 = loc("inductor_cache/dt/cdtli7kggothntk2ytjn77zsyeyfz2rwbazvudzvsofqezaum7et.py":35:30)
#loc25 = loc("inductor_cache/dt/cdtli7kggothntk2ytjn77zsyeyfz2rwbazvudzvsofqezaum7et.py":35:19)
#loc26 = loc("inductor_cache/dt/cdtli7kggothntk2ytjn77zsyeyfz2rwbazvudzvsofqezaum7et.py":37:31)
#loc27 = loc("inductor_cache/dt/cdtli7kggothntk2ytjn77zsyeyfz2rwbazvudzvsofqezaum7et.py":37:20)
#loc28 = loc("inductor_cache/dt/cdtli7kggothntk2ytjn77zsyeyfz2rwbazvudzvsofqezaum7et.py":38:35)
#loc29 = loc("inductor_cache/dt/cdtli7kggothntk2ytjn77zsyeyfz2rwbazvudzvsofqezaum7et.py":39:31)
#loc30 = loc("inductor_cache/dt/cdtli7kggothntk2ytjn77zsyeyfz2rwbazvudzvsofqezaum7et.py":39:20)
#loc31 = loc("inductor_cache/dt/cdtli7kggothntk2ytjn77zsyeyfz2rwbazvudzvsofqezaum7et.py":40:35)
#loc32 = loc("inductor_cache/dt/cdtli7kggothntk2ytjn77zsyeyfz2rwbazvudzvsofqezaum7et.py":41:39)
#loc33 = loc("inductor_cache/dt/cdtli7kggothntk2ytjn77zsyeyfz2rwbazvudzvsofqezaum7et.py":41:36)
#loc34 = loc("inductor_cache/dt/cdtli7kggothntk2ytjn77zsyeyfz2rwbazvudzvsofqezaum7et.py":41:48)
#loc35 = loc("inductor_cache/dt/cdtli7kggothntk2ytjn77zsyeyfz2rwbazvudzvsofqezaum7et.py":41:44)
#loc36 = loc("inductor_cache/dt/cdtli7kggothntk2ytjn77zsyeyfz2rwbazvudzvsofqezaum7et.py":41:31)
#loc37 = loc("inductor_cache/dt/cdtli7kggothntk2ytjn77zsyeyfz2rwbazvudzvsofqezaum7et.py":41:53)
#loc38 = loc("inductor_cache/dt/cdtli7kggothntk2ytjn77zsyeyfz2rwbazvudzvsofqezaum7et.py":42:18)
#loc39 = loc("inductor_cache/dt/cdtli7kggothntk2ytjn77zsyeyfz2rwbazvudzvsofqezaum7et.py":44:18)
#loc40 = loc("inductor_cache/dt/cdtli7kggothntk2ytjn77zsyeyfz2rwbazvudzvsofqezaum7et.py":45:26)
#loc41 = loc("inductor_cache/dt/cdtli7kggothntk2ytjn77zsyeyfz2rwbazvudzvsofqezaum7et.py":47:19)
#loc42 = loc("inductor_cache/dt/cdtli7kggothntk2ytjn77zsyeyfz2rwbazvudzvsofqezaum7et.py":50:19)
#loc43 = loc("inductor_cache/dt/cdtli7kggothntk2ytjn77zsyeyfz2rwbazvudzvsofqezaum7et.py":51:20)
#loc44 = loc("inductor_cache/dt/cdtli7kggothntk2ytjn77zsyeyfz2rwbazvudzvsofqezaum7et.py":52:20)
#loc45 = loc("inductor_cache/dt/cdtli7kggothntk2ytjn77zsyeyfz2rwbazvudzvsofqezaum7et.py":53:20)
#loc46 = loc("inductor_cache/dt/cdtli7kggothntk2ytjn77zsyeyfz2rwbazvudzvsofqezaum7et.py":54:20)
#loc47 = loc("inductor_cache/dt/cdtli7kggothntk2ytjn77zsyeyfz2rwbazvudzvsofqezaum7et.py":55:20)
#loc48 = loc("inductor_cache/dt/cdtli7kggothntk2ytjn77zsyeyfz2rwbazvudzvsofqezaum7et.py":56:20)
#loc49 = loc("inductor_cache/dt/cdtli7kggothntk2ytjn77zsyeyfz2rwbazvudzvsofqezaum7et.py":57:20)
#loc50 = loc("inductor_cache/dt/cdtli7kggothntk2ytjn77zsyeyfz2rwbazvudzvsofqezaum7et.py":58:25)
#loc51 = loc("inductor_cache/dt/cdtli7kggothntk2ytjn77zsyeyfz2rwbazvudzvsofqezaum7et.py":58:45)
#loc52 = loc("inductor_cache/dt/cdtli7kggothntk2ytjn77zsyeyfz2rwbazvudzvsofqezaum7et.py":58:4)
