#loc = loc("inductor_cache/ra/cranobslbvgcvl472qjh27m24w3arqf7vczmtwet5b5uo3lvwhle.py":19:0)
module {
  tt.func public @triton_poi_fused_clone_27(%arg0: !tt.ptr<f32> {tt.divisibility = 16 : i32} loc("inductor_cache/ra/cranobslbvgcvl472qjh27m24w3arqf7vczmtwet5b5uo3lvwhle.py":19:0), %arg1: !tt.ptr<f32> {tt.divisibility = 16 : i32} loc("inductor_cache/ra/cranobslbvgcvl472qjh27m24w3arqf7vczmtwet5b5uo3lvwhle.py":19:0), %arg2: !tt.ptr<f32> {tt.divisibility = 16 : i32} loc("inductor_cache/ra/cranobslbvgcvl472qjh27m24w3arqf7vczmtwet5b5uo3lvwhle.py":19:0), %arg3: i32 {tt.divisibility = 16 : i32} loc("inductor_cache/ra/cranobslbvgcvl472qjh27m24w3arqf7vczmtwet5b5uo3lvwhle.py":19:0), %arg4: i32 {tt.divisibility = 16 : i32} loc("inductor_cache/ra/cranobslbvgcvl472qjh27m24w3arqf7vczmtwet5b5uo3lvwhle.py":19:0)) attributes {noinline = false} {
    %c4096_i32 = arith.constant 4096 : i32 loc(#loc1)
    %c3748096_i32 = arith.constant 3748096 : i32 loc(#loc1)
    %c120156_i32 = arith.constant 120156 : i32 loc(#loc1)
    %c4_i32 = arith.constant 4 : i32 loc(#loc1)
    %c16_i32 = arith.constant 16 : i32 loc(#loc1)
    %cst = arith.constant dense<3872> : tensor<512x1xi32> loc(#loc1)
    %cst_0 = arith.constant dense<4> : tensor<512x1xi32> loc(#loc1)
    %cst_1 = arith.constant dense<64> : tensor<512x1xi32> loc(#loc1)
    %c512_i32 = arith.constant 512 : i32 loc(#loc1)
    %0 = tt.get_program_id y : i32 loc(#loc2)
    %1 = arith.cmpi slt, %0, %c16_i32 : i32 loc(#loc3)
    %2 = tt.splat %1 : i1 -> tensor<1x1xi1> loc(#loc3)
    %3 = tt.get_program_id x : i32 loc(#loc4)
    %4 = arith.muli %3, %c512_i32 : i32 loc(#loc5)
    %5 = tt.make_range {end = 512 : i32, start = 0 : i32} : tensor<512xi32> loc(#loc6)
    %6 = tt.expand_dims %5 {axis = 1 : i32} : tensor<512xi32> -> tensor<512x1xi32> loc(#loc7)
    %7 = tt.splat %4 : i32 -> tensor<512x1xi32> loc(#loc8)
    %8 = arith.addi %7, %6 : tensor<512x1xi32> loc(#loc8)
    %9 = arith.remsi %8, %cst_1 : tensor<512x1xi32> loc(#loc9)
    %10 = arith.divsi %8, %cst_1 : tensor<512x1xi32> loc(#loc10)
    %11 = arith.remsi %0, %c4_i32 : i32 loc(#loc11)
    %12 = arith.divsi %0, %c4_i32 : i32 loc(#loc12)
    %13 = arith.addi %11, %c120156_i32 : i32 loc(#loc13)
    %14 = arith.muli %9, %cst_0 : tensor<512x1xi32> loc(#loc14)
    %15 = tt.splat %13 : i32 -> tensor<512x1xi32> loc(#loc15)
    %16 = arith.addi %15, %14 : tensor<512x1xi32> loc(#loc15)
    %17 = arith.muli %10, %cst : tensor<512x1xi32> loc(#loc16)
    %18 = arith.addi %16, %17 : tensor<512x1xi32> loc(#loc17)
    %19 = arith.muli %12, %c3748096_i32 : i32 loc(#loc18)
    %20 = tt.splat %19 : i32 -> tensor<512x1xi32> loc(#loc19)
    %21 = arith.addi %18, %20 : tensor<512x1xi32> loc(#loc19)
    %22 = tt.splat %arg0 : !tt.ptr<f32> -> tensor<512x1x!tt.ptr<f32>> loc(#loc20)
    %23 = tt.addptr %22, %21 : tensor<512x1x!tt.ptr<f32>>, tensor<512x1xi32> loc(#loc20)
    %24 = tt.splat %1 : i1 -> tensor<512x1xi1> loc(#loc21)
    %25 = tt.load %23, %24 evictionPolicy = evict_last : tensor<512x1x!tt.ptr<f32>> loc(#loc21)
    %26 = tt.addptr %arg1, %11 : !tt.ptr<f32>, i32 loc(#loc22)
    %27 = tt.splat %26 : !tt.ptr<f32> -> tensor<1x1x!tt.ptr<f32>> loc(#loc22)
    %28 = tt.load %27, %2 evictionPolicy = evict_last : tensor<1x1x!tt.ptr<f32>> loc(#loc23)
    %29 = tt.broadcast %28 : tensor<1x1xf32> -> tensor<512x1xf32> loc(#loc24)
    %30 = arith.addf %25, %29 : tensor<512x1xf32> loc(#loc24)
    %31 = arith.muli %0, %c4096_i32 : i32 loc(#loc25)
    %32 = tt.splat %31 : i32 -> tensor<512x1xi32> loc(#loc26)
    %33 = arith.addi %8, %32 : tensor<512x1xi32> loc(#loc26)
    %34 = tt.splat %arg2 : !tt.ptr<f32> -> tensor<512x1x!tt.ptr<f32>> loc(#loc27)
    %35 = tt.addptr %34, %33 : tensor<512x1x!tt.ptr<f32>>, tensor<512x1xi32> loc(#loc27)
    tt.store %35, %30, %24 : tensor<512x1x!tt.ptr<f32>> loc(#loc28)
    tt.return loc(#loc29)
  } loc(#loc)
} loc(#loc)
#loc1 = loc(unknown)
#loc2 = loc("inductor_cache/ra/cranobslbvgcvl472qjh27m24w3arqf7vczmtwet5b5uo3lvwhle.py":22:28)
#loc3 = loc("inductor_cache/ra/cranobslbvgcvl472qjh27m24w3arqf7vczmtwet5b5uo3lvwhle.py":24:21)
#loc4 = loc("inductor_cache/ra/cranobslbvgcvl472qjh27m24w3arqf7vczmtwet5b5uo3lvwhle.py":25:28)
#loc5 = loc("inductor_cache/ra/cranobslbvgcvl472qjh27m24w3arqf7vczmtwet5b5uo3lvwhle.py":25:33)
#loc6 = loc("inductor_cache/ra/cranobslbvgcvl472qjh27m24w3arqf7vczmtwet5b5uo3lvwhle.py":26:36)
#loc7 = loc("inductor_cache/ra/cranobslbvgcvl472qjh27m24w3arqf7vczmtwet5b5uo3lvwhle.py":26:44)
#loc8 = loc("inductor_cache/ra/cranobslbvgcvl472qjh27m24w3arqf7vczmtwet5b5uo3lvwhle.py":26:23)
#loc9 = loc("inductor_cache/ra/cranobslbvgcvl472qjh27m24w3arqf7vczmtwet5b5uo3lvwhle.py":28:19)
#loc10 = loc("inductor_cache/ra/cranobslbvgcvl472qjh27m24w3arqf7vczmtwet5b5uo3lvwhle.py":29:19)
#loc11 = loc("inductor_cache/ra/cranobslbvgcvl472qjh27m24w3arqf7vczmtwet5b5uo3lvwhle.py":30:19)
#loc12 = loc("inductor_cache/ra/cranobslbvgcvl472qjh27m24w3arqf7vczmtwet5b5uo3lvwhle.py":31:19)
#loc13 = loc("inductor_cache/ra/cranobslbvgcvl472qjh27m24w3arqf7vczmtwet5b5uo3lvwhle.py":34:39)
#loc14 = loc("inductor_cache/ra/cranobslbvgcvl472qjh27m24w3arqf7vczmtwet5b5uo3lvwhle.py":34:46)
#loc15 = loc("inductor_cache/ra/cranobslbvgcvl472qjh27m24w3arqf7vczmtwet5b5uo3lvwhle.py":34:44)
#loc16 = loc("inductor_cache/ra/cranobslbvgcvl472qjh27m24w3arqf7vczmtwet5b5uo3lvwhle.py":34:56)
#loc17 = loc("inductor_cache/ra/cranobslbvgcvl472qjh27m24w3arqf7vczmtwet5b5uo3lvwhle.py":34:51)
#loc18 = loc("inductor_cache/ra/cranobslbvgcvl472qjh27m24w3arqf7vczmtwet5b5uo3lvwhle.py":34:69)
#loc19 = loc("inductor_cache/ra/cranobslbvgcvl472qjh27m24w3arqf7vczmtwet5b5uo3lvwhle.py":34:61)
#loc20 = loc("inductor_cache/ra/cranobslbvgcvl472qjh27m24w3arqf7vczmtwet5b5uo3lvwhle.py":34:30)
#loc21 = loc("inductor_cache/ra/cranobslbvgcvl472qjh27m24w3arqf7vczmtwet5b5uo3lvwhle.py":34:74)
#loc22 = loc("inductor_cache/ra/cranobslbvgcvl472qjh27m24w3arqf7vczmtwet5b5uo3lvwhle.py":35:30)
#loc23 = loc("inductor_cache/ra/cranobslbvgcvl472qjh27m24w3arqf7vczmtwet5b5uo3lvwhle.py":35:35)
#loc24 = loc("inductor_cache/ra/cranobslbvgcvl472qjh27m24w3arqf7vczmtwet5b5uo3lvwhle.py":36:18)
#loc25 = loc("inductor_cache/ra/cranobslbvgcvl472qjh27m24w3arqf7vczmtwet5b5uo3lvwhle.py":37:35)
#loc26 = loc("inductor_cache/ra/cranobslbvgcvl472qjh27m24w3arqf7vczmtwet5b5uo3lvwhle.py":37:30)
#loc27 = loc("inductor_cache/ra/cranobslbvgcvl472qjh27m24w3arqf7vczmtwet5b5uo3lvwhle.py":37:25)
#loc28 = loc("inductor_cache/ra/cranobslbvgcvl472qjh27m24w3arqf7vczmtwet5b5uo3lvwhle.py":37:46)
#loc29 = loc("inductor_cache/ra/cranobslbvgcvl472qjh27m24w3arqf7vczmtwet5b5uo3lvwhle.py":37:4)
